…
I0817 16:05:12.105213 17621 net.cpp:322] The NetState phase (0) differed from the phase (1) specified by a rule in layer L3_b9_cbr2_bn
I0817 16:05:12.106993 17621 net.cpp:58] Initializing net from parameters: 
name: "Cifar-Resnet"
state {
  phase: TRAIN
  level: 0
  stage: ""
}
layer {
  name: "dataLayer"
  type: "Data"
  top: "data_top"
  top: "label"
  include {
    phase: TRAIN
  }
  transform_param {
    mirror: true
    crop_size: 32
    mean_file: "examples/cifar10/mean.binaryproto"
  }
  data_param {
    source: "examples/cifar10/cifar10_train40k_lmdb"
    batch_size: 125
    backend: LMDB
  }
  image_data_param {
    shuffle: true
  }
}
layer {
  name: "pre_conv"
  type: "Convolution"
  bottom: "data_top"
  top: "pre_conv_top"
  param {
    lr_mult: 1
    decay_mult: 1
  }
  param {
    lr_mult: 2
    decay_mult: 0
  }
  convolution_param {
    num_output: 16
    pad: 1
    kernel_size: 3
    stride: 1
    weight_filler {
      type: "msra"
    }
    bias_filler {
      type: "constant"
    }
  }
}
layer {
  name: "pre_bn"
  type: "BatchNorm"
  bottom: "pre_conv_top"
  top: "pre_bn_top"
  include {
    phase: TRAIN
  }
  batch_norm_param {
    use_global_stats: false
    moving_average_fraction: 0.95
  }
}
layer {
  name: "pre_scale"
  type: "Scale"
  bottom: "pre_bn_top"
  top: "pre_bn_top"
  scale_param {
    bias_term: true
  }
}
layer {
  name: "pre_relu"
  type: "ReLU"
  bottom: "pre_bn_top"
  top: "pre_bn_top"
}
layer {
  name: "L1_b1_cbr1_conv"
  type: "Convolution"
  bottom: "pre_bn_top"
  top: "L1_b1_cbr1_conv_top"
  param {
    lr_mult: 1
    decay_mult: 1
  }
  param {
    lr_mult: 2
    decay_mult: 0
  }
  convolution_param {
    num_output: 16
    pad: 1
    kernel_size: 3
    stride: 1
    weight_filler {
      type: "msra"
    }
    bias_filler {
      type: "constant"
    }
  }
}
layer {
  name: "L1_b1_cbr1_bn"
  type: "BatchNorm"
  bottom: "L1_b1_cbr1_conv_top"
  top: "L1_b1_cbr1_bn_top"
  include {
    phase: TRAIN
  }
  batch_norm_param {
    use_global_stats: false
    moving_average_fraction: 0.95
  }
}
layer {
  name: "L1_b1_cbr1_scale"
  type: "Scale"
  bottom: "L1_b1_cbr1_bn_top"
  top: "L1_b1_cbr1_bn_top"
  scale_param {
    bias_term: true
  }
}
layer {
  name: "L1_b1_cbr1_relu"
  type: "ReLU"
  bottom: "L1_b1_cbr1_bn_top"
  top: "L1_b1_cbr1_bn_top"
}
layer {
  name: "L1_b1_cbr2_conv"
  type: "Convolution"
  bottom: "L1_b1_cbr1_bn_top"
  top: "L1_b1_cbr2_conv_top"
  param {
    lr_mult: 1
    decay_mult: 1
  }
  param {
    lr_mult: 2
    decay_mult: 0
  }
  convolution_param {
    num_output: 16
    pad: 1
    kernel_size: 3
    stride: 1
    weight_filler {
      type: "msra"
    }
    bias_filler {
      type: "constant"
    }
  }
}
layer {
  name: "L1_b1_cbr2_bn"
  type: "BatchNorm"
  bottom: "L1_b1_cbr2_conv_top"
  top: "L1_b1_cbr2_bn_top"
  include {
    phase: TRAIN
  }
  batch_norm_param {
    use_global_stats: false
    moving_average_fraction: 0.95
  }
}
layer {
  name: "L1_b1_cbr2_scale"
  type: "Scale"
  bottom: "L1_b1_cbr2_bn_top"
  top: "L1_b1_cbr2_bn_top"
  scale_param {
    bias_term: true
  }
}
layer {
  name: "L1_b1_sum_eltwise"
  type: "Eltwise"
  bottom: "L1_b1_cbr2_bn_top"
  bottom: "pre_bn_top"
  top: "L1_b1_sum_eltwise_top"
  eltwise_param {
    operation: SUM
  }
}
layer {
  name: "L1_b1_relu"
  type: "ReLU"
  bottom: "L1_b1_sum_eltwise_top"
  top: "L1_b1_sum_eltwise_top"
}
layer {
  name: "L1_b2_cbr1_conv"
  type: "Convolution"
  bottom: "L1_b1_sum_eltwise_top"
  top: "L1_b2_cbr1_conv_top"
  param {
    lr_mult: 1
    decay_mult: 1
  }
  param {
    lr_mult: 2
    decay_mult: 0
  }
  convolution_param {
    num_output: 16
    pad: 1
    kernel_size: 3
    stride: 1
    weight_filler {
      type: "msra"
    }
    bias_filler {
      type: "constant"
    }
  }
}
layer {
  name: "L1_b2_cbr1_bn"
  type: "BatchNorm"
  bottom: "L1_b2_cbr1_conv_top"
  top: "L1_b2_cbr1_bn_top"
  include {
    phase: TRAIN
  }
  batch_norm_param {
    use_global_stats: false
    moving_average_fraction: 0.95
  }
}
layer {
  name: "L1_b2_cbr1_scale"
  type: "Scale"
  bottom: "L1_b2_cbr1_bn_top"
  top: "L1_b2_cbr1_bn_top"
  scale_param {
    bias_term: true
  }
}
layer {
  name: "L1_b2_cbr1_relu"
  type: "ReLU"
  bottom: "L1_b2_cbr1_bn_top"
  top: "L1_b2_cbr1_bn_top"
}
layer {
  name: "L1_b2_cbr2_conv"
  type: "Convolution"
  bottom: "L1_b2_cbr1_bn_top"
  top: "L1_b2_cbr2_conv_top"
  param {
    lr_mult: 1
    decay_mult: 1
  }
  param {
    lr_mult: 2
    decay_mult: 0
  }
  convolution_param {
    num_output: 16
    pad: 1
    kernel_size: 3
    stride: 1
    weight_filler {
      type: "msra"
    }
    bias_filler {
      type: "constant"
    }
  }
}
layer {
  name: "L1_b2_cbr2_bn"
  type: "BatchNorm"
  bottom: "L1_b2_cbr2_conv_top"
  top: "L1_b2_cbr2_bn_top"
  include {
    phase: TRAIN
  }
  batch_norm_param {
    use_global_stats: false
    moving_average_fraction: 0.95
  }
}
layer {
  name: "L1_b2_cbr2_scale"
  type: "Scale"
  bottom: "L1_b2_cbr2_bn_top"
  top: "L1_b2_cbr2_bn_top"
  scale_param {
    bias_term: true
  }
}
layer {
  name: "L1_b2_sum_eltwise"
  type: "Eltwise"
  bottom: "L1_b2_cbr2_bn_top"
  bottom: "L1_b1_sum_eltwise_top"
  top: "L1_b2_sum_eltwise_top"
  eltwise_param {
    operation: SUM
  }
}
layer {
  name: "L1_b2_relu"
  type: "ReLU"
  bottom: "L1_b2_sum_eltwise_top"
  top: "L1_b2_sum_eltwise_top"
}
layer {
  name: "L1_b3_cbr1_conv"
  type: "Convolution"
  bottom: "L1_b2_sum_eltwise_top"
  top: "L1_b3_cbr1_conv_top"
  param {
    lr_mult: 1
    decay_mult: 1
  }
  param {
    lr_mult: 2
    decay_mult: 0
  }
  convolution_param {
    num_output: 16
    pad: 1
    kernel_size: 3
    stride: 1
    weight_filler {
      type: "msra"
    }
    bias_filler {
      type: "constant"
    }
  }
}
layer {
  name: "L1_b3_cbr1_bn"
  type: "BatchNorm"
  bottom: "L1_b3_cbr1_conv_top"
  top: "L1_b3_cbr1_bn_top"
  include {
    phase: TRAIN
  }
  batch_norm_param {
    use_global_stats: false
    moving_average_fraction: 0.95
  }
}
layer {
  name: "L1_b3_cbr1_scale"
  type: "Scale"
  bottom: "L1_b3_cbr1_bn_top"
  top: "L1_b3_cbr1_bn_top"
  scale_param {
    bias_term: true
  }
}
layer {
  name: "L1_b3_cbr1_relu"
  type: "ReLU"
  bottom: "L1_b3_cbr1_bn_top"
  top: "L1_b3_cbr1_bn_top"
}
layer {
  name: "L1_b3_cbr2_conv"
  type: "Convolution"
  bottom: "L1_b3_cbr1_bn_top"
  top: "L1_b3_cbr2_conv_top"
  param {
    lr_mult: 1
    decay_mult: 1
  }
  param {
    lr_mult: 2
    decay_mult: 0
  }
  convolution_param {
    num_output: 16
    pad: 1
    kernel_size: 3
    stride: 1
    weight_filler {
      type: "msra"
    }
    bias_filler {
      type: "constant"
    }
  }
}
layer {
  name: "L1_b3_cbr2_bn"
  type: "BatchNorm"
  bottom: "L1_b3_cbr2_conv_top"
  top: "L1_b3_cbr2_bn_top"
  include {
    phase: TRAIN
  }
  batch_norm_param {
    use_global_stats: false
    moving_average_fraction: 0.95
  }
}
layer {
  name: "L1_b3_cbr2_scale"
  type: "Scale"
  bottom: "L1_b3_cbr2_bn_top"
  top: "L1_b3_cbr2_bn_top"
  scale_param {
    bias_term: true
  }
}
layer {
  name: "L1_b3_sum_eltwise"
  type: "Eltwise"
  bottom: "L1_b3_cbr2_bn_top"
  bottom: "L1_b2_sum_eltwise_top"
  top: "L1_b3_sum_eltwise_top"
  eltwise_param {
    operation: SUM
  }
}
layer {
  name: "L1_b3_relu"
  type: "ReLU"
  bottom: "L1_b3_sum_eltwise_top"
  top: "L1_b3_sum_eltwise_top"
}
layer {
  name: "L1_b4_cbr1_conv"
  type: "Convolution"
  bottom: "L1_b3_sum_eltwise_top"
  top: "L1_b4_cbr1_conv_top"
  param {
    lr_mult: 1
    decay_mult: 1
  }
  param {
    lr_mult: 2
    decay_mult: 0
  }
  convolution_param {
    num_output: 16
    pad: 1
    kernel_size: 3
    stride: 1
    weight_filler {
      type: "msra"
    }
    bias_filler {
      type: "constant"
    }
  }
}
layer {
  name: "L1_b4_cbr1_bn"
  type: "BatchNorm"
  bottom: "L1_b4_cbr1_conv_top"
  top: "L1_b4_cbr1_bn_top"
  include {
    phase: TRAIN
  }
  batch_norm_param {
    use_global_stats: false
    moving_average_fraction: 0.95
  }
}
layer {
  name: "L1_b4_cbr1_scale"
  type: "Scale"
  bottom: "L1_b4_cbr1_bn_top"
  top: "L1_b4_cbr1_bn_top"
  scale_param {
    bias_term: true
  }
}
layer {
  name: "L1_b4_cbr1_relu"
  type: "ReLU"
  bottom: "L1_b4_cbr1_bn_top"
  top: "L1_b4_cbr1_bn_top"
}
layer {
  name: "L1_b4_cbr2_conv"
  type: "Convolution"
  bottom: "L1_b4_cbr1_bn_top"
  top: "L1_b4_cbr2_conv_top"
  param {
    lr_mult: 1
    decay_mult: 1
  }
  param {
    lr_mult: 2
    decay_mult: 0
  }
  convolution_param {
    num_output: 16
    pad: 1
    kernel_size: 3
    stride: 1
    weight_filler {
      type: "msra"
    }
    bias_filler {
      type: "constant"
    }
  }
}
layer {
  name: "L1_b4_cbr2_bn"
  type: "BatchNorm"
  bottom: "L1_b4_cbr2_conv_top"
  top: "L1_b4_cbr2_bn_top"
  include {
    phase: TRAIN
  }
  batch_norm_param {
    use_global_stats: false
    moving_average_fraction: 0.95
  }
}
layer {
  name: "L1_b4_cbr2_scale"
  type: "Scale"
  bottom: "L1_b4_cbr2_bn_top"
  top: "L1_b4_cbr2_bn_top"
  scale_param {
    bias_term: true
  }
}
layer {
  name: "L1_b4_sum_eltwise"
  type: "Eltwise"
  bottom: "L1_b4_cbr2_bn_top"
  bottom: "L1_b3_sum_eltwise_top"
  top: "L1_b4_sum_eltwise_top"
  eltwise_param {
    operation: SUM
  }
}
layer {
  name: "L1_b4_relu"
  type: "ReLU"
  bottom: "L1_b4_sum_eltwise_top"
  top: "L1_b4_sum_eltwise_top"
}
layer {
  name: "L1_b5_cbr1_conv"
  type: "Convolution"
  bottom: "L1_b4_sum_eltwise_top"
  top: "L1_b5_cbr1_conv_top"
  param {
    lr_mult: 1
    decay_mult: 1
  }
  param {
    lr_mult: 2
    decay_mult: 0
  }
  convolution_param {
    num_output: 16
    pad: 1
    kernel_size: 3
    stride: 1
    weight_filler {
      type: "msra"
    }
    bias_filler {
      type: "constant"
    }
  }
}
layer {
  name: "L1_b5_cbr1_bn"
  type: "BatchNorm"
  bottom: "L1_b5_cbr1_conv_top"
  top: "L1_b5_cbr1_bn_top"
  include {
    phase: TRAIN
  }
  batch_norm_param {
    use_global_stats: false
    moving_average_fraction: 0.95
  }
}
layer {
  name: "L1_b5_cbr1_scale"
  type: "Scale"
  bottom: "L1_b5_cbr1_bn_top"
  top: "L1_b5_cbr1_bn_top"
  scale_param {
    bias_term: true
  }
}
layer {
  name: "L1_b5_cbr1_relu"
  type: "ReLU"
  bottom: "L1_b5_cbr1_bn_top"
  top: "L1_b5_cbr1_bn_top"
}
layer {
  name: "L1_b5_cbr2_conv"
  type: "Convolution"
  bottom: "L1_b5_cbr1_bn_top"
  top: "L1_b5_cbr2_conv_top"
  param {
    lr_mult: 1
    decay_mult: 1
  }
  param {
    lr_mult: 2
    decay_mult: 0
  }
  convolution_param {
    num_output: 16
    pad: 1
    kernel_size: 3
    stride: 1
    weight_filler {
      type: "msra"
    }
    bias_filler {
      type: "constant"
    }
  }
}
layer {
  name: "L1_b5_cbr2_bn"
  type: "BatchNorm"
  bottom: "L1_b5_cbr2_conv_top"
  top: "L1_b5_cbr2_bn_top"
  include {
    phase: TRAIN
  }
  batch_norm_param {
    use_global_stats: false
    moving_average_fraction: 0.95
  }
}
layer {
  name: "L1_b5_cbr2_scale"
  type: "Scale"
  bottom: "L1_b5_cbr2_bn_top"
  top: "L1_b5_cbr2_bn_top"
  scale_param {
    bias_term: true
  }
}
layer {
  name: "L1_b5_sum_eltwise"
  type: "Eltwise"
  bottom: "L1_b5_cbr2_bn_top"
  bottom: "L1_b4_sum_eltwise_top"
  top: "L1_b5_sum_eltwise_top"
  eltwise_param {
    operation: SUM
  }
}
layer {
  name: "L1_b5_relu"
  type: "ReLU"
  bottom: "L1_b5_sum_eltwise_top"
  top: "L1_b5_sum_eltwise_top"
}
layer {
  name: "L1_b6_cbr1_conv"
  type: "Convolution"
  bottom: "L1_b5_sum_eltwise_top"
  top: "L1_b6_cbr1_conv_top"
  param {
    lr_mult: 1
    decay_mult: 1
  }
  param {
    lr_mult: 2
    decay_mult: 0
  }
  convolution_param {
    num_output: 16
    pad: 1
    kernel_size: 3
    stride: 1
    weight_filler {
      type: "msra"
    }
    bias_filler {
      type: "constant"
    }
  }
}
layer {
  name: "L1_b6_cbr1_bn"
  type: "BatchNorm"
  bottom: "L1_b6_cbr1_conv_top"
  top: "L1_b6_cbr1_bn_top"
  include {
    phase: TRAIN
  }
  batch_norm_param {
    use_global_stats: false
    moving_average_fraction: 0.95
  }
}
layer {
  name: "L1_b6_cbr1_scale"
  type: "Scale"
  bottom: "L1_b6_cbr1_bn_top"
  top: "L1_b6_cbr1_bn_top"
  scale_param {
    bias_term: true
  }
}
layer {
  name: "L1_b6_cbr1_relu"
  type: "ReLU"
  bottom: "L1_b6_cbr1_bn_top"
  top: "L1_b6_cbr1_bn_top"
}
layer {
  name: "L1_b6_cbr2_conv"
  type: "Convolution"
  bottom: "L1_b6_cbr1_bn_top"
  top: "L1_b6_cbr2_conv_top"
  param {
    lr_mult: 1
    decay_mult: 1
  }
  param {
    lr_mult: 2
    decay_mult: 0
  }
  convolution_param {
    num_output: 16
    pad: 1
    kernel_size: 3
    stride: 1
    weight_filler {
      type: "msra"
    }
    bias_filler {
      type: "constant"
    }
  }
}
layer {
  name: "L1_b6_cbr2_bn"
  type: "BatchNorm"
  bottom: "L1_b6_cbr2_conv_top"
  top: "L1_b6_cbr2_bn_top"
  include {
    phase: TRAIN
  }
  batch_norm_param {
    use_global_stats: false
    moving_average_fraction: 0.95
  }
}
layer {
  name: "L1_b6_cbr2_scale"
  type: "Scale"
  bottom: "L1_b6_cbr2_bn_top"
  top: "L1_b6_cbr2_bn_top"
  scale_param {
    bias_term: true
  }
}
layer {
  name: "L1_b6_sum_eltwise"
  type: "Eltwise"
  bottom: "L1_b6_cbr2_bn_top"
  bottom: "L1_b5_sum_eltwise_top"
  top: "L1_b6_sum_eltwise_top"
  eltwise_param {
    operation: SUM
  }
}
layer {
  name: "L1_b6_relu"
  type: "ReLU"
  bottom: "L1_b6_sum_eltwise_top"
  top: "L1_b6_sum_eltwise_top"
}
layer {
  name: "L1_b7_cbr1_conv"
  type: "Convolution"
  bottom: "L1_b6_sum_eltwise_top"
  top: "L1_b7_cbr1_conv_top"
  param {
    lr_mult: 1
    decay_mult: 1
  }
  param {
    lr_mult: 2
    decay_mult: 0
  }
  convolution_param {
    num_output: 16
    pad: 1
    kernel_size: 3
    stride: 1
    weight_filler {
      type: "msra"
    }
    bias_filler {
      type: "constant"
    }
  }
}
layer {
  name: "L1_b7_cbr1_bn"
  type: "BatchNorm"
  bottom: "L1_b7_cbr1_conv_top"
  top: "L1_b7_cbr1_bn_top"
  include {
    phase: TRAIN
  }
  batch_norm_param {
    use_global_stats: false
    moving_average_fraction: 0.95
  }
}
layer {
  name: "L1_b7_cbr1_scale"
  type: "Scale"
  bottom: "L1_b7_cbr1_bn_top"
  top: "L1_b7_cbr1_bn_top"
  scale_param {
    bias_term: true
  }
}
layer {
  name: "L1_b7_cbr1_relu"
  type: "ReLU"
  bottom: "L1_b7_cbr1_bn_top"
  top: "L1_b7_cbr1_bn_top"
}
layer {
  name: "L1_b7_cbr2_conv"
  type: "Convolution"
  bottom: "L1_b7_cbr1_bn_top"
  top: "L1_b7_cbr2_conv_top"
  param {
    lr_mult: 1
    decay_mult: 1
  }
  param {
    lr_mult: 2
    decay_mult: 0
  }
  convolution_param {
    num_output: 16
    pad: 1
    kernel_size: 3
    stride: 1
    weight_filler {
      type: "msra"
    }
    bias_filler {
      type: "constant"
    }
  }
}
layer {
  name: "L1_b7_cbr2_bn"
  type: "BatchNorm"
  bottom: "L1_b7_cbr2_conv_top"
  top: "L1_b7_cbr2_bn_top"
  include {
    phase: TRAIN
  }
  batch_norm_param {
    use_global_stats: false
    moving_average_fraction: 0.95
  }
}
layer {
  name: "L1_b7_cbr2_scale"
  type: "Scale"
  bottom: "L1_b7_cbr2_bn_top"
  top: "L1_b7_cbr2_bn_top"
  scale_param {
    bias_term: true
  }
}
layer {
  name: "L1_b7_sum_eltwise"
  type: "Eltwise"
  bottom: "L1_b7_cbr2_bn_top"
  bottom: "L1_b6_sum_eltwise_top"
  top: "L1_b7_sum_eltwise_top"
  eltwise_param {
    operation: SUM
  }
}
layer {
  name: "L1_b7_relu"
  type: "ReLU"
  bottom: "L1_b7_sum_eltwise_top"
  top: "L1_b7_sum_eltwise_top"
}
layer {
  name: "L1_b8_cbr1_conv"
  type: "Convolution"
  bottom: "L1_b7_sum_eltwise_top"
  top: "L1_b8_cbr1_conv_top"
  param {
    lr_mult: 1
    decay_mult: 1
  }
  param {
    lr_mult: 2
    decay_mult: 0
  }
  convolution_param {
    num_output: 16
    pad: 1
    kernel_size: 3
    stride: 1
    weight_filler {
      type: "msra"
    }
    bias_filler {
      type: "constant"
    }
  }
}
layer {
  name: "L1_b8_cbr1_bn"
  type: "BatchNorm"
  bottom: "L1_b8_cbr1_conv_top"
  top: "L1_b8_cbr1_bn_top"
  include {
    phase: TRAIN
  }
  batch_norm_param {
    use_global_stats: false
    moving_average_fraction: 0.95
  }
}
layer {
  name: "L1_b8_cbr1_scale"
  type: "Scale"
  bottom: "L1_b8_cbr1_bn_top"
  top: "L1_b8_cbr1_bn_top"
  scale_param {
    bias_term: true
  }
}
layer {
  name: "L1_b8_cbr1_relu"
  type: "ReLU"
  bottom: "L1_b8_cbr1_bn_top"
  top: "L1_b8_cbr1_bn_top"
}
layer {
  name: "L1_b8_cbr2_conv"
  type: "Convolution"
  bottom: "L1_b8_cbr1_bn_top"
  top: "L1_b8_cbr2_conv_top"
  param {
    lr_mult: 1
    decay_mult: 1
  }
  param {
    lr_mult: 2
    decay_mult: 0
  }
  convolution_param {
    num_output: 16
    pad: 1
    kernel_size: 3
    stride: 1
    weight_filler {
      type: "msra"
    }
    bias_filler {
      type: "constant"
    }
  }
}
layer {
  name: "L1_b8_cbr2_bn"
  type: "BatchNorm"
  bottom: "L1_b8_cbr2_conv_top"
  top: "L1_b8_cbr2_bn_top"
  include {
    phase: TRAIN
  }
  batch_norm_param {
    use_global_stats: false
    moving_average_fraction: 0.95
  }
}
layer {
  name: "L1_b8_cbr2_scale"
  type: "Scale"
  bottom: "L1_b8_cbr2_bn_top"
  top: "L1_b8_cbr2_bn_top"
  scale_param {
    bias_term: true
  }
}
layer {
  name: "L1_b8_sum_eltwise"
  type: "Eltwise"
  bottom: "L1_b8_cbr2_bn_top"
  bottom: "L1_b7_sum_eltwise_top"
  top: "L1_b8_sum_eltwise_top"
  eltwise_param {
    operation: SUM
  }
}
layer {
  name: "L1_b8_relu"
  type: "ReLU"
  bottom: "L1_b8_sum_eltwise_top"
  top: "L1_b8_sum_eltwise_top"
}
layer {
  name: "L1_b9_cbr1_conv"
  type: "Convolution"
  bottom: "L1_b8_sum_eltwise_top"
  top: "L1_b9_cbr1_conv_top"
  param {
    lr_mult: 1
    decay_mult: 1
  }
  param {
    lr_mult: 2
    decay_mult: 0
  }
  convolution_param {
    num_output: 16
    pad: 1
    kernel_size: 3
    stride: 1
    weight_filler {
      type: "msra"
    }
    bias_filler {
      type: "constant"
    }
  }
}
layer {
  name: "L1_b9_cbr1_bn"
  type: "BatchNorm"
  bottom: "L1_b9_cbr1_conv_top"
  top: "L1_b9_cbr1_bn_top"
  include {
    phase: TRAIN
  }
  batch_norm_param {
    use_global_stats: false
    moving_average_fraction: 0.95
  }
}
layer {
  name: "L1_b9_cbr1_scale"
  type: "Scale"
  bottom: "L1_b9_cbr1_bn_top"
  top: "L1_b9_cbr1_bn_top"
  scale_param {
    bias_term: true
  }
}
layer {
  name: "L1_b9_cbr1_relu"
  type: "ReLU"
  bottom: "L1_b9_cbr1_bn_top"
  top: "L1_b9_cbr1_bn_top"
}
layer {
  name: "L1_b9_cbr2_conv"
  type: "Convolution"
  bottom: "L1_b9_cbr1_bn_top"
  top: "L1_b9_cbr2_conv_top"
  param {
    lr_mult: 1
    decay_mult: 1
  }
  param {
    lr_mult: 2
    decay_mult: 0
  }
  convolution_param {
    num_output: 16
    pad: 1
    kernel_size: 3
    stride: 1
    weight_filler {
      type: "msra"
    }
    bias_filler {
      type: "constant"
    }
  }
}
layer {
  name: "L1_b9_cbr2_bn"
  type: "BatchNorm"
  bottom: "L1_b9_cbr2_conv_top"
  top: "L1_b9_cbr2_bn_top"
  include {
    phase: TRAIN
  }
  batch_norm_param {
    use_global_stats: false
    moving_average_fraction: 0.95
  }
}
layer {
  name: "L1_b9_cbr2_scale"
  type: "Scale"
  bottom: "L1_b9_cbr2_bn_top"
  top: "L1_b9_cbr2_bn_top"
  scale_param {
    bias_term: true
  }
}
layer {
  name: "L1_b9_sum_eltwise"
  type: "Eltwise"
  bottom: "L1_b9_cbr2_bn_top"
  bottom: "L1_b8_sum_eltwise_top"
  top: "L1_b9_sum_eltwise_top"
  eltwise_param {
    operation: SUM
  }
}
layer {
  name: "L1_b9_relu"
  type: "ReLU"
  bottom: "L1_b9_sum_eltwise_top"
  top: "L1_b9_sum_eltwise_top"
}
layer {
  name: "L2_b1_cbr1_conv"
  type: "Convolution"
  bottom: "L1_b9_sum_eltwise_top"
  top: "L2_b1_cbr1_conv_top"
  param {
    lr_mult: 1
    decay_mult: 1
  }
  param {
    lr_mult: 2
    decay_mult: 0
  }
  convolution_param {
    num_output: 16
    pad: 1
    kernel_size: 3
    stride: 2
    weight_filler {
      type: "msra"
    }
    bias_filler {
      type: "constant"
    }
  }
}
layer {
  name: "L2_b1_cbr1_bn"
  type: "BatchNorm"
  bottom: "L2_b1_cbr1_conv_top"
  top: "L2_b1_cbr1_bn_top"
  include {
    phase: TRAIN
  }
  batch_norm_param {
    use_global_stats: false
    moving_average_fraction: 0.95
  }
}
layer {
  name: "L2_b1_cbr1_scale"
  type: "Scale"
  bottom: "L2_b1_cbr1_bn_top"
  top: "L2_b1_cbr1_bn_top"
  scale_param {
    bias_term: true
  }
}
layer {
  name: "L2_b1_cbr1_relu"
  type: "ReLU"
  bottom: "L2_b1_cbr1_bn_top"
  top: "L2_b1_cbr1_bn_top"
}
layer {
  name: "L2_b1_cbr2_conv"
  type: "Convolution"
  bottom: "L2_b1_cbr1_bn_top"
  top: "L2_b1_cbr2_conv_top"
  param {
    lr_mult: 1
    decay_mult: 1
  }
  param {
    lr_mult: 2
    decay_mult: 0
  }
  convolution_param {
    num_output: 16
    pad: 1
    kernel_size: 3
    stride: 1
    weight_filler {
      type: "msra"
    }
    bias_filler {
      type: "constant"
    }
  }
}
layer {
  name: "L2_b1_cbr2_bn"
  type: "BatchNorm"
  bottom: "L2_b1_cbr2_conv_top"
  top: "L2_b1_cbr2_bn_top"
  include {
    phase: TRAIN
  }
  batch_norm_param {
    use_global_stats: false
    moving_average_fraction: 0.95
  }
}
layer {
  name: "L2_b1_cbr2_scale"
  type: "Scale"
  bottom: "L2_b1_cbr2_bn_top"
  top: "L2_b1_cbr2_bn_top"
  scale_param {
    bias_term: true
  }
}
layer {
  name: "L2_b1_pool"
  type: "Pooling"
  bottom: "L1_b9_sum_eltwise_top"
  top: "L2_b1_pool"
  pooling_param {
    pool: AVE
    kernel_size: 3
    stride: 2
  }
}
layer {
  name: "L2_b1_sum_eltwise"
  type: "Eltwise"
  bottom: "L2_b1_cbr2_bn_top"
  bottom: "L2_b1_pool"
  top: "L2_b1_sum_eltwise_top"
  eltwise_param {
    operation: SUM
  }
}
layer {
  name: "L2_b1_relu"
  type: "ReLU"
  bottom: "L2_b1_sum_eltwise_top"
  top: "L2_b1_sum_eltwise_top"
}
layer {
  name: "L2_b1_zeros"
  type: "DummyData"
  top: "L2_b1_zeros"
  dummy_data_param {
    data_filler {
      type: "constant"
      value: 0
    }
    shape {
      dim: 125
      dim: 16
      dim: 16
      dim: 16
    }
  }
}
layer {
  name: "L2_b1_concat0"
  type: "Concat"
  bottom: "L2_b1_sum_eltwise_top"
  bottom: "L2_b1_zeros"
  top: "L2_b1_concat0"
  concat_param {
    axis: 1
  }
}
layer {
  name: "L2_b2_cbr1_conv"
  type: "Convolution"
  bottom: "L2_b1_concat0"
  top: "L2_b2_cbr1_conv_top"
  param {
    lr_mult: 1
    decay_mult: 1
  }
  param {
    lr_mult: 2
    decay_mult: 0
  }
  convolution_param {
    num_output: 32
    pad: 1
    kernel_size: 3
    stride: 1
    weight_filler {
      type: "msra"
    }
    bias_filler {
      type: "constant"
    }
  }
}
layer {
  name: "L2_b2_cbr1_bn"
  type: "BatchNorm"
  bottom: "L2_b2_cbr1_conv_top"
  top: "L2_b2_cbr1_bn_top"
  include {
    phase: TRAIN
  }
  batch_norm_param {
    use_global_stats: false
    moving_average_fraction: 0.95
  }
}
layer {
  name: "L2_b2_cbr1_scale"
  type: "Scale"
  bottom: "L2_b2_cbr1_bn_top"
  top: "L2_b2_cbr1_bn_top"
  scale_param {
    bias_term: true
  }
}
layer {
  name: "L2_b2_cbr1_relu"
  type: "ReLU"
  bottom: "L2_b2_cbr1_bn_top"
  top: "L2_b2_cbr1_bn_top"
}
layer {
  name: "L2_b2_cbr2_conv"
  type: "Convolution"
  bottom: "L2_b2_cbr1_bn_top"
  top: "L2_b2_cbr2_conv_top"
  param {
    lr_mult: 1
    decay_mult: 1
  }
  param {
    lr_mult: 2
    decay_mult: 0
  }
  convolution_param {
    num_output: 32
    pad: 1
    kernel_size: 3
    stride: 1
    weight_filler {
      type: "msra"
    }
    bias_filler {
      type: "constant"
    }
  }
}
layer {
  name: "L2_b2_cbr2_bn"
  type: "BatchNorm"
  bottom: "L2_b2_cbr2_conv_top"
  top: "L2_b2_cbr2_bn_top"
  include {
    phase: TRAIN
  }
  batch_norm_param {
    use_global_stats: false
    moving_average_fraction: 0.95
  }
}
layer {
  name: "L2_b2_cbr2_scale"
  type: "Scale"
  bottom: "L2_b2_cbr2_bn_top"
  top: "L2_b2_cbr2_bn_top"
  scale_param {
    bias_term: true
  }
}
layer {
  name: "L2_b2_sum_eltwise"
  type: "Eltwise"
  bottom: "L2_b2_cbr2_bn_top"
  bottom: "L2_b1_concat0"
  top: "L2_b2_sum_eltwise_top"
  eltwise_param {
    operation: SUM
  }
}
layer {
  name: "L2_b2_relu"
  type: "ReLU"
  bottom: "L2_b2_sum_eltwise_top"
  top: "L2_b2_sum_eltwise_top"
}
layer {
  name: "L2_b3_cbr1_conv"
  type: "Convolution"
  bottom: "L2_b2_sum_eltwise_top"
  top: "L2_b3_cbr1_conv_top"
  param {
    lr_mult: 1
    decay_mult: 1
  }
  param {
    lr_mult: 2
    decay_mult: 0
  }
  convolution_param {
    num_output: 32
    pad: 1
    kernel_size: 3
    stride: 1
    weight_filler {
      type: "msra"
    }
    bias_filler {
      type: "constant"
    }
  }
}
layer {
  name: "L2_b3_cbr1_bn"
  type: "BatchNorm"
  bottom: "L2_b3_cbr1_conv_top"
  top: "L2_b3_cbr1_bn_top"
  include {
    phase: TRAIN
  }
  batch_norm_param {
    use_global_stats: false
    moving_average_fraction: 0.95
  }
}
layer {
  name: "L2_b3_cbr1_scale"
  type: "Scale"
  bottom: "L2_b3_cbr1_bn_top"
  top: "L2_b3_cbr1_bn_top"
  scale_param {
    bias_term: true
  }
}
layer {
  name: "L2_b3_cbr1_relu"
  type: "ReLU"
  bottom: "L2_b3_cbr1_bn_top"
  top: "L2_b3_cbr1_bn_top"
}
layer {
  name: "L2_b3_cbr2_conv"
  type: "Convolution"
  bottom: "L2_b3_cbr1_bn_top"
  top: "L2_b3_cbr2_conv_top"
  param {
    lr_mult: 1
    decay_mult: 1
  }
  param {
    lr_mult: 2
    decay_mult: 0
  }
  convolution_param {
    num_output: 32
    pad: 1
    kernel_size: 3
    stride: 1
    weight_filler {
      type: "msra"
    }
    bias_filler {
      type: "constant"
    }
  }
}
layer {
  name: "L2_b3_cbr2_bn"
  type: "BatchNorm"
  bottom: "L2_b3_cbr2_conv_top"
  top: "L2_b3_cbr2_bn_top"
  include {
    phase: TRAIN
  }
  batch_norm_param {
    use_global_stats: false
    moving_average_fraction: 0.95
  }
}
layer {
  name: "L2_b3_cbr2_scale"
  type: "Scale"
  bottom: "L2_b3_cbr2_bn_top"
  top: "L2_b3_cbr2_bn_top"
  scale_param {
    bias_term: true
  }
}
layer {
  name: "L2_b3_sum_eltwise"
  type: "Eltwise"
  bottom: "L2_b3_cbr2_bn_top"
  bottom: "L2_b2_sum_eltwise_top"
  top: "L2_b3_sum_eltwise_top"
  eltwise_param {
    operation: SUM
  }
}
layer {
  name: "L2_b3_relu"
  type: "ReLU"
  bottom: "L2_b3_sum_eltwise_top"
  top: "L2_b3_sum_eltwise_top"
}
layer {
  name: "L2_b4_cbr1_conv"
  type: "Convolution"
  bottom: "L2_b3_sum_eltwise_top"
  top: "L2_b4_cbr1_conv_top"
  param {
    lr_mult: 1
    decay_mult: 1
  }
  param {
    lr_mult: 2
    decay_mult: 0
  }
  convolution_param {
    num_output: 32
    pad: 1
    kernel_size: 3
    stride: 1
    weight_filler {
      type: "msra"
    }
    bias_filler {
      type: "constant"
    }
  }
}
layer {
  name: "L2_b4_cbr1_bn"
  type: "BatchNorm"
  bottom: "L2_b4_cbr1_conv_top"
  top: "L2_b4_cbr1_bn_top"
  include {
    phase: TRAIN
  }
  batch_norm_param {
    use_global_stats: false
    moving_average_fraction: 0.95
  }
}
layer {
  name: "L2_b4_cbr1_scale"
  type: "Scale"
  bottom: "L2_b4_cbr1_bn_top"
  top: "L2_b4_cbr1_bn_top"
  scale_param {
    bias_term: true
  }
}
layer {
  name: "L2_b4_cbr1_relu"
  type: "ReLU"
  bottom: "L2_b4_cbr1_bn_top"
  top: "L2_b4_cbr1_bn_top"
}
layer {
  name: "L2_b4_cbr2_conv"
  type: "Convolution"
  bottom: "L2_b4_cbr1_bn_top"
  top: "L2_b4_cbr2_conv_top"
  param {
    lr_mult: 1
    decay_mult: 1
  }
  param {
    lr_mult: 2
    decay_mult: 0
  }
  convolution_param {
    num_output: 32
    pad: 1
    kernel_size: 3
    stride: 1
    weight_filler {
      type: "msra"
    }
    bias_filler {
      type: "constant"
    }
  }
}
layer {
  name: "L2_b4_cbr2_bn"
  type: "BatchNorm"
  bottom: "L2_b4_cbr2_conv_top"
  top: "L2_b4_cbr2_bn_top"
  include {
    phase: TRAIN
  }
  batch_norm_param {
    use_global_stats: false
    moving_average_fraction: 0.95
  }
}
layer {
  name: "L2_b4_cbr2_scale"
  type: "Scale"
  bottom: "L2_b4_cbr2_bn_top"
  top: "L2_b4_cbr2_bn_top"
  scale_param {
    bias_term: true
  }
}
layer {
  name: "L2_b4_sum_eltwise"
  type: "Eltwise"
  bottom: "L2_b4_cbr2_bn_top"
  bottom: "L2_b3_sum_eltwise_top"
  top: "L2_b4_sum_eltwise_top"
  eltwise_param {
    operation: SUM
  }
}
layer {
  name: "L2_b4_relu"
  type: "ReLU"
  bottom: "L2_b4_sum_eltwise_top"
  top: "L2_b4_sum_eltwise_top"
}
layer {
  name: "L2_b5_cbr1_conv"
  type: "Convolution"
  bottom: "L2_b4_sum_eltwise_top"
  top: "L2_b5_cbr1_conv_top"
  param {
    lr_mult: 1
    decay_mult: 1
  }
  param {
    lr_mult: 2
    decay_mult: 0
  }
  convolution_param {
    num_output: 32
    pad: 1
    kernel_size: 3
    stride: 1
    weight_filler {
      type: "msra"
    }
    bias_filler {
      type: "constant"
    }
  }
}
layer {
  name: "L2_b5_cbr1_bn"
  type: "BatchNorm"
  bottom: "L2_b5_cbr1_conv_top"
  top: "L2_b5_cbr1_bn_top"
  include {
    phase: TRAIN
  }
  batch_norm_param {
    use_global_stats: false
    moving_average_fraction: 0.95
  }
}
layer {
  name: "L2_b5_cbr1_scale"
  type: "Scale"
  bottom: "L2_b5_cbr1_bn_top"
  top: "L2_b5_cbr1_bn_top"
  scale_param {
    bias_term: true
  }
}
layer {
  name: "L2_b5_cbr1_relu"
  type: "ReLU"
  bottom: "L2_b5_cbr1_bn_top"
  top: "L2_b5_cbr1_bn_top"
}
layer {
  name: "L2_b5_cbr2_conv"
  type: "Convolution"
  bottom: "L2_b5_cbr1_bn_top"
  top: "L2_b5_cbr2_conv_top"
  param {
    lr_mult: 1
    decay_mult: 1
  }
  param {
    lr_mult: 2
    decay_mult: 0
  }
  convolution_param {
    num_output: 32
    pad: 1
    kernel_size: 3
    stride: 1
    weight_filler {
      type: "msra"
    }
    bias_filler {
      type: "constant"
    }
  }
}
layer {
  name: "L2_b5_cbr2_bn"
  type: "BatchNorm"
  bottom: "L2_b5_cbr2_conv_top"
  top: "L2_b5_cbr2_bn_top"
  include {
    phase: TRAIN
  }
  batch_norm_param {
    use_global_stats: false
    moving_average_fraction: 0.95
  }
}
layer {
  name: "L2_b5_cbr2_scale"
  type: "Scale"
  bottom: "L2_b5_cbr2_bn_top"
  top: "L2_b5_cbr2_bn_top"
  scale_param {
    bias_term: true
  }
}
layer {
  name: "L2_b5_sum_eltwise"
  type: "Eltwise"
  bottom: "L2_b5_cbr2_bn_top"
  bottom: "L2_b4_sum_eltwise_top"
  top: "L2_b5_sum_eltwise_top"
  eltwise_param {
    operation: SUM
  }
}
layer {
  name: "L2_b5_relu"
  type: "ReLU"
  bottom: "L2_b5_sum_eltwise_top"
  top: "L2_b5_sum_eltwise_top"
}
layer {
  name: "L2_b6_cbr1_conv"
  type: "Convolution"
  bottom: "L2_b5_sum_eltwise_top"
  top: "L2_b6_cbr1_conv_top"
  param {
    lr_mult: 1
    decay_mult: 1
  }
  param {
    lr_mult: 2
    decay_mult: 0
  }
  convolution_param {
    num_output: 32
    pad: 1
    kernel_size: 3
    stride: 1
    weight_filler {
      type: "msra"
    }
    bias_filler {
      type: "constant"
    }
  }
}
layer {
  name: "L2_b6_cbr1_bn"
  type: "BatchNorm"
  bottom: "L2_b6_cbr1_conv_top"
  top: "L2_b6_cbr1_bn_top"
  include {
    phase: TRAIN
  }
  batch_norm_param {
    use_global_stats: false
    moving_average_fraction: 0.95
  }
}
layer {
  name: "L2_b
I0817 16:05:12.109069 17621 layer_factory.hpp:77] Creating layer dataLayer
I0817 16:05:12.110252 17621 net.cpp:100] Creating Layer dataLayer
I0817 16:05:12.110328 17621 net.cpp:408] dataLayer -> data_top
I0817 16:05:12.110519 17621 net.cpp:408] dataLayer -> label
I0817 16:05:12.110635 17621 data_transformer.cpp:25] Loading mean file from: examples/cifar10/mean.binaryproto
I0817 16:05:12.137941 17627 db_lmdb.cpp:35] Opened lmdb examples/cifar10/cifar10_train40k_lmdb
I0817 16:05:12.139029 17621 data_layer.cpp:41] output data size: 125,3,32,32
I0817 16:05:12.145910 17621 net.cpp:150] Setting up dataLayer
I0817 16:05:12.145982 17621 net.cpp:157] Top shape: 125 3 32 32 (384000)
I0817 16:05:12.145999 17621 net.cpp:157] Top shape: 125 (125)
I0817 16:05:12.146005 17621 net.cpp:165] Memory required for data: 1536500
I0817 16:05:12.146020 17621 layer_factory.hpp:77] Creating layer label_dataLayer_1_split
I0817 16:05:12.146034 17621 net.cpp:100] Creating Layer label_dataLayer_1_split
I0817 16:05:12.146042 17621 net.cpp:434] label_dataLayer_1_split <- label
I0817 16:05:12.146059 17621 net.cpp:408] label_dataLayer_1_split -> label_dataLayer_1_split_0
I0817 16:05:12.146078 17621 net.cpp:408] label_dataLayer_1_split -> label_dataLayer_1_split_1
I0817 16:05:12.146188 17621 net.cpp:150] Setting up label_dataLayer_1_split
I0817 16:05:12.146203 17621 net.cpp:157] Top shape: 125 (125)
I0817 16:05:12.146209 17621 net.cpp:157] Top shape: 125 (125)
I0817 16:05:12.146214 17621 net.cpp:165] Memory required for data: 1537500
I0817 16:05:12.146219 17621 layer_factory.hpp:77] Creating layer pre_conv
I0817 16:05:12.146282 17621 net.cpp:100] Creating Layer pre_conv
I0817 16:05:12.146296 17621 net.cpp:434] pre_conv <- data_top
I0817 16:05:12.146308 17621 net.cpp:408] pre_conv -> pre_conv_top
I0817 16:05:12.148183 17621 net.cpp:150] Setting up pre_conv
I0817 16:05:12.148203 17621 net.cpp:157] Top shape: 125 16 32 32 (2048000)
I0817 16:05:12.148210 17621 net.cpp:165] Memory required for data: 9729500
I0817 16:05:12.148267 17621 layer_factory.hpp:77] Creating layer pre_bn
I0817 16:05:12.148331 17621 net.cpp:100] Creating Layer pre_bn
I0817 16:05:12.148344 17621 net.cpp:434] pre_bn <- pre_conv_top
I0817 16:05:12.148353 17621 net.cpp:408] pre_bn -> pre_bn_top
I0817 16:05:12.148878 17628 blocking_queue.cpp:50] Waiting for data
I0817 16:05:12.148950 17621 net.cpp:150] Setting up pre_bn
I0817 16:05:12.148967 17621 net.cpp:157] Top shape: 125 16 32 32 (2048000)
I0817 16:05:12.148972 17621 net.cpp:165] Memory required for data: 17921500
I0817 16:05:12.148990 17621 layer_factory.hpp:77] Creating layer pre_scale
I0817 16:05:12.149045 17621 net.cpp:100] Creating Layer pre_scale
I0817 16:05:12.149058 17621 net.cpp:434] pre_scale <- pre_bn_top
I0817 16:05:12.149067 17621 net.cpp:395] pre_scale -> pre_bn_top (in-place)
I0817 16:05:12.149230 17621 layer_factory.hpp:77] Creating layer pre_scale
I0817 16:05:12.149483 17621 net.cpp:150] Setting up pre_scale
I0817 16:05:12.149498 17621 net.cpp:157] Top shape: 125 16 32 32 (2048000)
I0817 16:05:12.149504 17621 net.cpp:165] Memory required for data: 26113500
I0817 16:05:12.149515 17621 layer_factory.hpp:77] Creating layer pre_relu
I0817 16:05:12.149556 17621 net.cpp:100] Creating Layer pre_relu
I0817 16:05:12.149565 17621 net.cpp:434] pre_relu <- pre_bn_top
I0817 16:05:12.149576 17621 net.cpp:395] pre_relu -> pre_bn_top (in-place)
I0817 16:05:12.149588 17621 net.cpp:150] Setting up pre_relu
I0817 16:05:12.149595 17621 net.cpp:157] Top shape: 125 16 32 32 (2048000)
I0817 16:05:12.149600 17621 net.cpp:165] Memory required for data: 34305500
I0817 16:05:12.149605 17621 layer_factory.hpp:77] Creating layer pre_bn_top_pre_relu_0_split
I0817 16:05:12.149616 17621 net.cpp:100] Creating Layer pre_bn_top_pre_relu_0_split
I0817 16:05:12.149621 17621 net.cpp:434] pre_bn_top_pre_relu_0_split <- pre_bn_top
I0817 16:05:12.149628 17621 net.cpp:408] pre_bn_top_pre_relu_0_split -> pre_bn_top_pre_relu_0_split_0
I0817 16:05:12.149637 17621 net.cpp:408] pre_bn_top_pre_relu_0_split -> pre_bn_top_pre_relu_0_split_1
I0817 16:05:12.149693 17621 net.cpp:150] Setting up pre_bn_top_pre_relu_0_split
I0817 16:05:12.149706 17621 net.cpp:157] Top shape: 125 16 32 32 (2048000)
I0817 16:05:12.149714 17621 net.cpp:157] Top shape: 125 16 32 32 (2048000)
I0817 16:05:12.149719 17621 net.cpp:165] Memory required for data: 50689500
I0817 16:05:12.149725 17621 layer_factory.hpp:77] Creating layer L1_b1_cbr1_conv
I0817 16:05:12.149742 17621 net.cpp:100] Creating Layer L1_b1_cbr1_conv
I0817 16:05:12.149749 17621 net.cpp:434] L1_b1_cbr1_conv <- pre_bn_top_pre_relu_0_split_0
I0817 16:05:12.149758 17621 net.cpp:408] L1_b1_cbr1_conv -> L1_b1_cbr1_conv_top
I0817 16:05:12.150066 17621 net.cpp:150] Setting up L1_b1_cbr1_conv
I0817 16:05:12.150081 17621 net.cpp:157] Top shape: 125 16 32 32 (2048000)
I0817 16:05:12.150086 17621 net.cpp:165] Memory required for data: 58881500
I0817 16:05:12.150099 17621 layer_factory.hpp:77] Creating layer L1_b1_cbr1_bn
I0817 16:05:12.150113 17621 net.cpp:100] Creating Layer L1_b1_cbr1_bn
I0817 16:05:12.150120 17621 net.cpp:434] L1_b1_cbr1_bn <- L1_b1_cbr1_conv_top
I0817 16:05:12.150133 17621 net.cpp:408] L1_b1_cbr1_bn -> L1_b1_cbr1_bn_top
I0817 16:05:12.150367 17621 net.cpp:150] Setting up L1_b1_cbr1_bn
I0817 16:05:12.150382 17621 net.cpp:157] Top shape: 125 16 32 32 (2048000)
I0817 16:05:12.150387 17621 net.cpp:165] Memory required for data: 67073500
I0817 16:05:12.150398 17621 layer_factory.hpp:77] Creating layer L1_b1_cbr1_scale
I0817 16:05:12.150406 17621 net.cpp:100] Creating Layer L1_b1_cbr1_scale
I0817 16:05:12.150411 17621 net.cpp:434] L1_b1_cbr1_scale <- L1_b1_cbr1_bn_top
I0817 16:05:12.150419 17621 net.cpp:395] L1_b1_cbr1_scale -> L1_b1_cbr1_bn_top (in-place)
I0817 16:05:12.150473 17621 layer_factory.hpp:77] Creating layer L1_b1_cbr1_scale
I0817 16:05:12.150609 17621 net.cpp:150] Setting up L1_b1_cbr1_scale
I0817 16:05:12.150621 17621 net.cpp:157] Top shape: 125 16 32 32 (2048000)
I0817 16:05:12.150626 17621 net.cpp:165] Memory required for data: 75265500
I0817 16:05:12.150635 17621 layer_factory.hpp:77] Creating layer L1_b1_cbr1_relu
I0817 16:05:12.150651 17621 net.cpp:100] Creating Layer L1_b1_cbr1_relu
I0817 16:05:12.150657 17621 net.cpp:434] L1_b1_cbr1_relu <- L1_b1_cbr1_bn_top
I0817 16:05:12.150668 17621 net.cpp:395] L1_b1_cbr1_relu -> L1_b1_cbr1_bn_top (in-place)
I0817 16:05:12.150677 17621 net.cpp:150] Setting up L1_b1_cbr1_relu
I0817 16:05:12.150691 17621 net.cpp:157] Top shape: 125 16 32 32 (2048000)
I0817 16:05:12.150696 17621 net.cpp:165] Memory required for data: 83457500
I0817 16:05:12.150701 17621 layer_factory.hpp:77] Creating layer L1_b1_cbr2_conv
I0817 16:05:12.150714 17621 net.cpp:100] Creating Layer L1_b1_cbr2_conv
I0817 16:05:12.150720 17621 net.cpp:434] L1_b1_cbr2_conv <- L1_b1_cbr1_bn_top
I0817 16:05:12.150728 17621 net.cpp:408] L1_b1_cbr2_conv -> L1_b1_cbr2_conv_top
I0817 16:05:12.151038 17621 net.cpp:150] Setting up L1_b1_cbr2_conv
I0817 16:05:12.151052 17621 net.cpp:157] Top shape: 125 16 32 32 (2048000)
I0817 16:05:12.151057 17621 net.cpp:165] Memory required for data: 91649500
I0817 16:05:12.151067 17621 layer_factory.hpp:77] Creating layer L1_b1_cbr2_bn
I0817 16:05:12.151079 17621 net.cpp:100] Creating Layer L1_b1_cbr2_bn
I0817 16:05:12.151087 17621 net.cpp:434] L1_b1_cbr2_bn <- L1_b1_cbr2_conv_top
I0817 16:05:12.151094 17621 net.cpp:408] L1_b1_cbr2_bn -> L1_b1_cbr2_bn_top
I0817 16:05:12.151327 17621 net.cpp:150] Setting up L1_b1_cbr2_bn
I0817 16:05:12.151343 17621 net.cpp:157] Top shape: 125 16 32 32 (2048000)
I0817 16:05:12.151348 17621 net.cpp:165] Memory required for data: 99841500
I0817 16:05:12.151363 17621 layer_factory.hpp:77] Creating layer L1_b1_cbr2_scale
I0817 16:05:12.151372 17621 net.cpp:100] Creating Layer L1_b1_cbr2_scale
I0817 16:05:12.151377 17621 net.cpp:434] L1_b1_cbr2_scale <- L1_b1_cbr2_bn_top
I0817 16:05:12.151386 17621 net.cpp:395] L1_b1_cbr2_scale -> L1_b1_cbr2_bn_top (in-place)
I0817 16:05:12.151445 17621 layer_factory.hpp:77] Creating layer L1_b1_cbr2_scale
I0817 16:05:12.151579 17621 net.cpp:150] Setting up L1_b1_cbr2_scale
I0817 16:05:12.151592 17621 net.cpp:157] Top shape: 125 16 32 32 (2048000)
I0817 16:05:12.151597 17621 net.cpp:165] Memory required for data: 108033500
I0817 16:05:12.151607 17621 layer_factory.hpp:77] Creating layer L1_b1_sum_eltwise
I0817 16:05:12.151659 17621 net.cpp:100] Creating Layer L1_b1_sum_eltwise
I0817 16:05:12.151671 17621 net.cpp:434] L1_b1_sum_eltwise <- L1_b1_cbr2_bn_top
I0817 16:05:12.151679 17621 net.cpp:434] L1_b1_sum_eltwise <- pre_bn_top_pre_relu_0_split_1
I0817 16:05:12.151695 17621 net.cpp:408] L1_b1_sum_eltwise -> L1_b1_sum_eltwise_top
I0817 16:05:12.151767 17621 net.cpp:150] Setting up L1_b1_sum_eltwise
I0817 16:05:12.151782 17621 net.cpp:157] Top shape: 125 16 32 32 (2048000)
I0817 16:05:12.151787 17621 net.cpp:165] Memory required for data: 116225500
I0817 16:05:12.151793 17621 layer_factory.hpp:77] Creating layer L1_b1_relu
I0817 16:05:12.151803 17621 net.cpp:100] Creating Layer L1_b1_relu
I0817 16:05:12.151808 17621 net.cpp:434] L1_b1_relu <- L1_b1_sum_eltwise_top
I0817 16:05:12.151814 17621 net.cpp:395] L1_b1_relu -> L1_b1_sum_eltwise_top (in-place)
I0817 16:05:12.151824 17621 net.cpp:150] Setting up L1_b1_relu
I0817 16:05:12.151831 17621 net.cpp:157] Top shape: 125 16 32 32 (2048000)
I0817 16:05:12.151835 17621 net.cpp:165] Memory required for data: 124417500
I0817 16:05:12.151840 17621 layer_factory.hpp:77] Creating layer L1_b1_sum_eltwise_top_L1_b1_relu_0_split
I0817 16:05:12.151849 17621 net.cpp:100] Creating Layer L1_b1_sum_eltwise_top_L1_b1_relu_0_split
I0817 16:05:12.151854 17621 net.cpp:434] L1_b1_sum_eltwise_top_L1_b1_relu_0_split <- L1_b1_sum_eltwise_top
I0817 16:05:12.151865 17621 net.cpp:408] L1_b1_sum_eltwise_top_L1_b1_relu_0_split -> L1_b1_sum_eltwise_top_L1_b1_relu_0_split_0
I0817 16:05:12.151875 17621 net.cpp:408] L1_b1_sum_eltwise_top_L1_b1_relu_0_split -> L1_b1_sum_eltwise_top_L1_b1_relu_0_split_1
I0817 16:05:12.151916 17621 net.cpp:150] Setting up L1_b1_sum_eltwise_top_L1_b1_relu_0_split
I0817 16:05:12.151931 17621 net.cpp:157] Top shape: 125 16 32 32 (2048000)
I0817 16:05:12.151938 17621 net.cpp:157] Top shape: 125 16 32 32 (2048000)
I0817 16:05:12.151949 17621 net.cpp:165] Memory required for data: 140801500
I0817 16:05:12.151955 17621 layer_factory.hpp:77] Creating layer L1_b2_cbr1_conv
I0817 16:05:12.151967 17621 net.cpp:100] Creating Layer L1_b2_cbr1_conv
I0817 16:05:12.151973 17621 net.cpp:434] L1_b2_cbr1_conv <- L1_b1_sum_eltwise_top_L1_b1_relu_0_split_0
I0817 16:05:12.151981 17621 net.cpp:408] L1_b2_cbr1_conv -> L1_b2_cbr1_conv_top
I0817 16:05:12.152289 17621 net.cpp:150] Setting up L1_b2_cbr1_conv
I0817 16:05:12.152303 17621 net.cpp:157] Top shape: 125 16 32 32 (2048000)
I0817 16:05:12.152308 17621 net.cpp:165] Memory required for data: 148993500
I0817 16:05:12.152318 17621 layer_factory.hpp:77] Creating layer L1_b2_cbr1_bn
I0817 16:05:12.152330 17621 net.cpp:100] Creating Layer L1_b2_cbr1_bn
I0817 16:05:12.152336 17621 net.cpp:434] L1_b2_cbr1_bn <- L1_b2_cbr1_conv_top
I0817 16:05:12.152344 17621 net.cpp:408] L1_b2_cbr1_bn -> L1_b2_cbr1_bn_top
I0817 16:05:12.152581 17621 net.cpp:150] Setting up L1_b2_cbr1_bn
I0817 16:05:12.152595 17621 net.cpp:157] Top shape: 125 16 32 32 (2048000)
I0817 16:05:12.152600 17621 net.cpp:165] Memory required for data: 157185500
I0817 16:05:12.152611 17621 layer_factory.hpp:77] Creating layer L1_b2_cbr1_scale
I0817 16:05:12.152621 17621 net.cpp:100] Creating Layer L1_b2_cbr1_scale
I0817 16:05:12.152627 17621 net.cpp:434] L1_b2_cbr1_scale <- L1_b2_cbr1_bn_top
I0817 16:05:12.152636 17621 net.cpp:395] L1_b2_cbr1_scale -> L1_b2_cbr1_bn_top (in-place)
I0817 16:05:12.152693 17621 layer_factory.hpp:77] Creating layer L1_b2_cbr1_scale
I0817 16:05:12.152832 17621 net.cpp:150] Setting up L1_b2_cbr1_scale
I0817 16:05:12.152844 17621 net.cpp:157] Top shape: 125 16 32 32 (2048000)
I0817 16:05:12.152850 17621 net.cpp:165] Memory required for data: 165377500
I0817 16:05:12.152858 17621 layer_factory.hpp:77] Creating layer L1_b2_cbr1_relu
I0817 16:05:12.152866 17621 net.cpp:100] Creating Layer L1_b2_cbr1_relu
I0817 16:05:12.152873 17621 net.cpp:434] L1_b2_cbr1_relu <- L1_b2_cbr1_bn_top
I0817 16:05:12.152882 17621 net.cpp:395] L1_b2_cbr1_relu -> L1_b2_cbr1_bn_top (in-place)
I0817 16:05:12.152892 17621 net.cpp:150] Setting up L1_b2_cbr1_relu
I0817 16:05:12.152899 17621 net.cpp:157] Top shape: 125 16 32 32 (2048000)
I0817 16:05:12.152904 17621 net.cpp:165] Memory required for data: 173569500
I0817 16:05:12.152909 17621 layer_factory.hpp:77] Creating layer L1_b2_cbr2_conv
I0817 16:05:12.152922 17621 net.cpp:100] Creating Layer L1_b2_cbr2_conv
I0817 16:05:12.152928 17621 net.cpp:434] L1_b2_cbr2_conv <- L1_b2_cbr1_bn_top
I0817 16:05:12.152936 17621 net.cpp:408] L1_b2_cbr2_conv -> L1_b2_cbr2_conv_top
I0817 16:05:12.153244 17621 net.cpp:150] Setting up L1_b2_cbr2_conv
I0817 16:05:12.153259 17621 net.cpp:157] Top shape: 125 16 32 32 (2048000)
I0817 16:05:12.153264 17621 net.cpp:165] Memory required for data: 181761500
I0817 16:05:12.153272 17621 layer_factory.hpp:77] Creating layer L1_b2_cbr2_bn
I0817 16:05:12.153281 17621 net.cpp:100] Creating Layer L1_b2_cbr2_bn
I0817 16:05:12.153290 17621 net.cpp:434] L1_b2_cbr2_bn <- L1_b2_cbr2_conv_top
I0817 16:05:12.153300 17621 net.cpp:408] L1_b2_cbr2_bn -> L1_b2_cbr2_bn_top
I0817 16:05:12.153532 17621 net.cpp:150] Setting up L1_b2_cbr2_bn
I0817 16:05:12.153544 17621 net.cpp:157] Top shape: 125 16 32 32 (2048000)
I0817 16:05:12.153549 17621 net.cpp:165] Memory required for data: 189953500
I0817 16:05:12.153568 17621 layer_factory.hpp:77] Creating layer L1_b2_cbr2_scale
I0817 16:05:12.153578 17621 net.cpp:100] Creating Layer L1_b2_cbr2_scale
I0817 16:05:12.153583 17621 net.cpp:434] L1_b2_cbr2_scale <- L1_b2_cbr2_bn_top
I0817 16:05:12.153592 17621 net.cpp:395] L1_b2_cbr2_scale -> L1_b2_cbr2_bn_top (in-place)
I0817 16:05:12.153645 17621 layer_factory.hpp:77] Creating layer L1_b2_cbr2_scale
I0817 16:05:12.153790 17621 net.cpp:150] Setting up L1_b2_cbr2_scale
I0817 16:05:12.153803 17621 net.cpp:157] Top shape: 125 16 32 32 (2048000)
I0817 16:05:12.153810 17621 net.cpp:165] Memory required for data: 198145500
I0817 16:05:12.153818 17621 layer_factory.hpp:77] Creating layer L1_b2_sum_eltwise
I0817 16:05:12.153837 17621 net.cpp:100] Creating Layer L1_b2_sum_eltwise
I0817 16:05:12.153844 17621 net.cpp:434] L1_b2_sum_eltwise <- L1_b2_cbr2_bn_top
I0817 16:05:12.153851 17621 net.cpp:434] L1_b2_sum_eltwise <- L1_b1_sum_eltwise_top_L1_b1_relu_0_split_1
I0817 16:05:12.153858 17621 net.cpp:408] L1_b2_sum_eltwise -> L1_b2_sum_eltwise_top
I0817 16:05:12.153892 17621 net.cpp:150] Setting up L1_b2_sum_eltwise
I0817 16:05:12.153904 17621 net.cpp:157] Top shape: 125 16 32 32 (2048000)
I0817 16:05:12.153908 17621 net.cpp:165] Memory required for data: 206337500
I0817 16:05:12.153914 17621 layer_factory.hpp:77] Creating layer L1_b2_relu
I0817 16:05:12.153921 17621 net.cpp:100] Creating Layer L1_b2_relu
I0817 16:05:12.153928 17621 net.cpp:434] L1_b2_relu <- L1_b2_sum_eltwise_top
I0817 16:05:12.153937 17621 net.cpp:395] L1_b2_relu -> L1_b2_sum_eltwise_top (in-place)
I0817 16:05:12.153946 17621 net.cpp:150] Setting up L1_b2_relu
I0817 16:05:12.153954 17621 net.cpp:157] Top shape: 125 16 32 32 (2048000)
I0817 16:05:12.153959 17621 net.cpp:165] Memory required for data: 214529500
I0817 16:05:12.153964 17621 layer_factory.hpp:77] Creating layer L1_b2_sum_eltwise_top_L1_b2_relu_0_split
I0817 16:05:12.153970 17621 net.cpp:100] Creating Layer L1_b2_sum_eltwise_top_L1_b2_relu_0_split
I0817 16:05:12.153975 17621 net.cpp:434] L1_b2_sum_eltwise_top_L1_b2_relu_0_split <- L1_b2_sum_eltwise_top
I0817 16:05:12.153982 17621 net.cpp:408] L1_b2_sum_eltwise_top_L1_b2_relu_0_split -> L1_b2_sum_eltwise_top_L1_b2_relu_0_split_0
I0817 16:05:12.153991 17621 net.cpp:408] L1_b2_sum_eltwise_top_L1_b2_relu_0_split -> L1_b2_sum_eltwise_top_L1_b2_relu_0_split_1
I0817 16:05:12.154034 17621 net.cpp:150] Setting up L1_b2_sum_eltwise_top_L1_b2_relu_0_split
I0817 16:05:12.154047 17621 net.cpp:157] Top shape: 125 16 32 32 (2048000)
I0817 16:05:12.154053 17621 net.cpp:157] Top shape: 125 16 32 32 (2048000)
I0817 16:05:12.154057 17621 net.cpp:165] Memory required for data: 230913500
I0817 16:05:12.154062 17621 layer_factory.hpp:77] Creating layer L1_b3_cbr1_conv
I0817 16:05:12.154073 17621 net.cpp:100] Creating Layer L1_b3_cbr1_conv
I0817 16:05:12.154079 17621 net.cpp:434] L1_b3_cbr1_conv <- L1_b2_sum_eltwise_top_L1_b2_relu_0_split_0
I0817 16:05:12.154090 17621 net.cpp:408] L1_b3_cbr1_conv -> L1_b3_cbr1_conv_top
I0817 16:05:12.154397 17621 net.cpp:150] Setting up L1_b3_cbr1_conv
I0817 16:05:12.154410 17621 net.cpp:157] Top shape: 125 16 32 32 (2048000)
I0817 16:05:12.154415 17621 net.cpp:165] Memory required for data: 239105500
I0817 16:05:12.154424 17621 layer_factory.hpp:77] Creating layer L1_b3_cbr1_bn
I0817 16:05:12.154433 17621 net.cpp:100] Creating Layer L1_b3_cbr1_bn
I0817 16:05:12.154439 17621 net.cpp:434] L1_b3_cbr1_bn <- L1_b3_cbr1_conv_top
I0817 16:05:12.154450 17621 net.cpp:408] L1_b3_cbr1_bn -> L1_b3_cbr1_bn_top
I0817 16:05:12.154695 17621 net.cpp:150] Setting up L1_b3_cbr1_bn
I0817 16:05:12.154711 17621 net.cpp:157] Top shape: 125 16 32 32 (2048000)
I0817 16:05:12.154716 17621 net.cpp:165] Memory required for data: 247297500
I0817 16:05:12.154727 17621 layer_factory.hpp:77] Creating layer L1_b3_cbr1_scale
I0817 16:05:12.154736 17621 net.cpp:100] Creating Layer L1_b3_cbr1_scale
I0817 16:05:12.154742 17621 net.cpp:434] L1_b3_cbr1_scale <- L1_b3_cbr1_bn_top
I0817 16:05:12.154749 17621 net.cpp:395] L1_b3_cbr1_scale -> L1_b3_cbr1_bn_top (in-place)
I0817 16:05:12.154800 17621 layer_factory.hpp:77] Creating layer L1_b3_cbr1_scale
I0817 16:05:12.154939 17621 net.cpp:150] Setting up L1_b3_cbr1_scale
I0817 16:05:12.154953 17621 net.cpp:157] Top shape: 125 16 32 32 (2048000)
I0817 16:05:12.154958 17621 net.cpp:165] Memory required for data: 255489500
I0817 16:05:12.154966 17621 layer_factory.hpp:77] Creating layer L1_b3_cbr1_relu
I0817 16:05:12.154978 17621 net.cpp:100] Creating Layer L1_b3_cbr1_relu
I0817 16:05:12.154983 17621 net.cpp:434] L1_b3_cbr1_relu <- L1_b3_cbr1_bn_top
I0817 16:05:12.154990 17621 net.cpp:395] L1_b3_cbr1_relu -> L1_b3_cbr1_bn_top (in-place)
I0817 16:05:12.154999 17621 net.cpp:150] Setting up L1_b3_cbr1_relu
I0817 16:05:12.155014 17621 net.cpp:157] Top shape: 125 16 32 32 (2048000)
I0817 16:05:12.155019 17621 net.cpp:165] Memory required for data: 263681500
I0817 16:05:12.155023 17621 layer_factory.hpp:77] Creating layer L1_b3_cbr2_conv
I0817 16:05:12.155036 17621 net.cpp:100] Creating Layer L1_b3_cbr2_conv
I0817 16:05:12.155042 17621 net.cpp:434] L1_b3_cbr2_conv <- L1_b3_cbr1_bn_top
I0817 16:05:12.155052 17621 net.cpp:408] L1_b3_cbr2_conv -> L1_b3_cbr2_conv_top
I0817 16:05:12.155356 17621 net.cpp:150] Setting up L1_b3_cbr2_conv
I0817 16:05:12.155370 17621 net.cpp:157] Top shape: 125 16 32 32 (2048000)
I0817 16:05:12.155375 17621 net.cpp:165] Memory required for data: 271873500
I0817 16:05:12.155385 17621 layer_factory.hpp:77] Creating layer L1_b3_cbr2_bn
I0817 16:05:12.155400 17621 net.cpp:100] Creating Layer L1_b3_cbr2_bn
I0817 16:05:12.155405 17621 net.cpp:434] L1_b3_cbr2_bn <- L1_b3_cbr2_conv_top
I0817 16:05:12.155414 17621 net.cpp:408] L1_b3_cbr2_bn -> L1_b3_cbr2_bn_top
I0817 16:05:12.155647 17621 net.cpp:150] Setting up L1_b3_cbr2_bn
I0817 16:05:12.155663 17621 net.cpp:157] Top shape: 125 16 32 32 (2048000)
I0817 16:05:12.155668 17621 net.cpp:165] Memory required for data: 280065500
I0817 16:05:12.155678 17621 layer_factory.hpp:77] Creating layer L1_b3_cbr2_scale
I0817 16:05:12.155692 17621 net.cpp:100] Creating Layer L1_b3_cbr2_scale
I0817 16:05:12.155699 17621 net.cpp:434] L1_b3_cbr2_scale <- L1_b3_cbr2_bn_top
I0817 16:05:12.155706 17621 net.cpp:395] L1_b3_cbr2_scale -> L1_b3_cbr2_bn_top (in-place)
I0817 16:05:12.155758 17621 layer_factory.hpp:77] Creating layer L1_b3_cbr2_scale
I0817 16:05:12.155896 17621 net.cpp:150] Setting up L1_b3_cbr2_scale
I0817 16:05:12.155910 17621 net.cpp:157] Top shape: 125 16 32 32 (2048000)
I0817 16:05:12.155915 17621 net.cpp:165] Memory required for data: 288257500
I0817 16:05:12.155925 17621 layer_factory.hpp:77] Creating layer L1_b3_sum_eltwise
I0817 16:05:12.155936 17621 net.cpp:100] Creating Layer L1_b3_sum_eltwise
I0817 16:05:12.155941 17621 net.cpp:434] L1_b3_sum_eltwise <- L1_b3_cbr2_bn_top
I0817 16:05:12.155948 17621 net.cpp:434] L1_b3_sum_eltwise <- L1_b2_sum_eltwise_top_L1_b2_relu_0_split_1
I0817 16:05:12.155958 17621 net.cpp:408] L1_b3_sum_eltwise -> L1_b3_sum_eltwise_top
I0817 16:05:12.155989 17621 net.cpp:150] Setting up L1_b3_sum_eltwise
I0817 16:05:12.155998 17621 net.cpp:157] Top shape: 125 16 32 32 (2048000)
I0817 16:05:12.156002 17621 net.cpp:165] Memory required for data: 296449500
I0817 16:05:12.156008 17621 layer_factory.hpp:77] Creating layer L1_b3_relu
I0817 16:05:12.156018 17621 net.cpp:100] Creating Layer L1_b3_relu
I0817 16:05:12.156024 17621 net.cpp:434] L1_b3_relu <- L1_b3_sum_eltwise_top
I0817 16:05:12.156031 17621 net.cpp:395] L1_b3_relu -> L1_b3_sum_eltwise_top (in-place)
I0817 16:05:12.156040 17621 net.cpp:150] Setting up L1_b3_relu
I0817 16:05:12.156047 17621 net.cpp:157] Top shape: 125 16 32 32 (2048000)
I0817 16:05:12.156052 17621 net.cpp:165] Memory required for data: 304641500
I0817 16:05:12.156056 17621 layer_factory.hpp:77] Creating layer L1_b3_sum_eltwise_top_L1_b3_relu_0_split
I0817 16:05:12.156064 17621 net.cpp:100] Creating Layer L1_b3_sum_eltwise_top_L1_b3_relu_0_split
I0817 16:05:12.156069 17621 net.cpp:434] L1_b3_sum_eltwise_top_L1_b3_relu_0_split <- L1_b3_sum_eltwise_top
I0817 16:05:12.156076 17621 net.cpp:408] L1_b3_sum_eltwise_top_L1_b3_relu_0_split -> L1_b3_sum_eltwise_top_L1_b3_relu_0_split_0
I0817 16:05:12.156085 17621 net.cpp:408] L1_b3_sum_eltwise_top_L1_b3_relu_0_split -> L1_b3_sum_eltwise_top_L1_b3_relu_0_split_1
I0817 16:05:12.156131 17621 net.cpp:150] Setting up L1_b3_sum_eltwise_top_L1_b3_relu_0_split
I0817 16:05:12.156142 17621 net.cpp:157] Top shape: 125 16 32 32 (2048000)
I0817 16:05:12.156149 17621 net.cpp:157] Top shape: 125 16 32 32 (2048000)
I0817 16:05:12.156153 17621 net.cpp:165] Memory required for data: 321025500
I0817 16:05:12.156158 17621 layer_factory.hpp:77] Creating layer L1_b4_cbr1_conv
I0817 16:05:12.156172 17621 net.cpp:100] Creating Layer L1_b4_cbr1_conv
I0817 16:05:12.156178 17621 net.cpp:434] L1_b4_cbr1_conv <- L1_b3_sum_eltwise_top_L1_b3_relu_0_split_0
I0817 16:05:12.156193 17621 net.cpp:408] L1_b4_cbr1_conv -> L1_b4_cbr1_conv_top
I0817 16:05:12.156499 17621 net.cpp:150] Setting up L1_b4_cbr1_conv
I0817 16:05:12.156513 17621 net.cpp:157] Top shape: 125 16 32 32 (2048000)
I0817 16:05:12.156518 17621 net.cpp:165] Memory required for data: 329217500
I0817 16:05:12.156527 17621 layer_factory.hpp:77] Creating layer L1_b4_cbr1_bn
I0817 16:05:12.156541 17621 net.cpp:100] Creating Layer L1_b4_cbr1_bn
I0817 16:05:12.156548 17621 net.cpp:434] L1_b4_cbr1_bn <- L1_b4_cbr1_conv_top
I0817 16:05:12.156556 17621 net.cpp:408] L1_b4_cbr1_bn -> L1_b4_cbr1_bn_top
I0817 16:05:12.156803 17621 net.cpp:150] Setting up L1_b4_cbr1_bn
I0817 16:05:12.156817 17621 net.cpp:157] Top shape: 125 16 32 32 (2048000)
I0817 16:05:12.156822 17621 net.cpp:165] Memory required for data: 337409500
I0817 16:05:12.156832 17621 layer_factory.hpp:77] Creating layer L1_b4_cbr1_scale
I0817 16:05:12.156841 17621 net.cpp:100] Creating Layer L1_b4_cbr1_scale
I0817 16:05:12.156847 17621 net.cpp:434] L1_b4_cbr1_scale <- L1_b4_cbr1_bn_top
I0817 16:05:12.156854 17621 net.cpp:395] L1_b4_cbr1_scale -> L1_b4_cbr1_bn_top (in-place)
I0817 16:05:12.156909 17621 layer_factory.hpp:77] Creating layer L1_b4_cbr1_scale
I0817 16:05:12.157050 17621 net.cpp:150] Setting up L1_b4_cbr1_scale
I0817 16:05:12.157063 17621 net.cpp:157] Top shape: 125 16 32 32 (2048000)
I0817 16:05:12.157068 17621 net.cpp:165] Memory required for data: 345601500
I0817 16:05:12.157078 17621 layer_factory.hpp:77] Creating layer L1_b4_cbr1_relu
I0817 16:05:12.157084 17621 net.cpp:100] Creating Layer L1_b4_cbr1_relu
I0817 16:05:12.157090 17621 net.cpp:434] L1_b4_cbr1_relu <- L1_b4_cbr1_bn_top
I0817 16:05:12.157100 17621 net.cpp:395] L1_b4_cbr1_relu -> L1_b4_cbr1_bn_top (in-place)
I0817 16:05:12.157110 17621 net.cpp:150] Setting up L1_b4_cbr1_relu
I0817 16:05:12.157117 17621 net.cpp:157] Top shape: 125 16 32 32 (2048000)
I0817 16:05:12.157122 17621 net.cpp:165] Memory required for data: 353793500
I0817 16:05:12.157126 17621 layer_factory.hpp:77] Creating layer L1_b4_cbr2_conv
I0817 16:05:12.157137 17621 net.cpp:100] Creating Layer L1_b4_cbr2_conv
I0817 16:05:12.157142 17621 net.cpp:434] L1_b4_cbr2_conv <- L1_b4_cbr1_bn_top
I0817 16:05:12.157153 17621 net.cpp:408] L1_b4_cbr2_conv -> L1_b4_cbr2_conv_top
I0817 16:05:12.157462 17621 net.cpp:150] Setting up L1_b4_cbr2_conv
I0817 16:05:12.157476 17621 net.cpp:157] Top shape: 125 16 32 32 (2048000)
I0817 16:05:12.157481 17621 net.cpp:165] Memory required for data: 361985500
I0817 16:05:12.157490 17621 layer_factory.hpp:77] Creating layer L1_b4_cbr2_bn
I0817 16:05:12.157500 17621 net.cpp:100] Creating Layer L1_b4_cbr2_bn
I0817 16:05:12.157505 17621 net.cpp:434] L1_b4_cbr2_bn <- L1_b4_cbr2_conv_top
I0817 16:05:12.157516 17621 net.cpp:408] L1_b4_cbr2_bn -> L1_b4_cbr2_bn_top
I0817 16:05:12.157765 17621 net.cpp:150] Setting up L1_b4_cbr2_bn
I0817 16:05:12.157779 17621 net.cpp:157] Top shape: 125 16 32 32 (2048000)
I0817 16:05:12.157784 17621 net.cpp:165] Memory required for data: 370177500
I0817 16:05:12.157794 17621 layer_factory.hpp:77] Creating layer L1_b4_cbr2_scale
I0817 16:05:12.157804 17621 net.cpp:100] Creating Layer L1_b4_cbr2_scale
I0817 16:05:12.157809 17621 net.cpp:434] L1_b4_cbr2_scale <- L1_b4_cbr2_bn_top
I0817 16:05:12.157816 17621 net.cpp:395] L1_b4_cbr2_scale -> L1_b4_cbr2_bn_top (in-place)
I0817 16:05:12.157871 17621 layer_factory.hpp:77] Creating layer L1_b4_cbr2_scale
I0817 16:05:12.158012 17621 net.cpp:150] Setting up L1_b4_cbr2_scale
I0817 16:05:12.158025 17621 net.cpp:157] Top shape: 125 16 32 32 (2048000)
I0817 16:05:12.158030 17621 net.cpp:165] Memory required for data: 378369500
I0817 16:05:12.158040 17621 layer_factory.hpp:77] Creating layer L1_b4_sum_eltwise
I0817 16:05:12.158048 17621 net.cpp:100] Creating Layer L1_b4_sum_eltwise
I0817 16:05:12.158054 17621 net.cpp:434] L1_b4_sum_eltwise <- L1_b4_cbr2_bn_top
I0817 16:05:12.158061 17621 net.cpp:434] L1_b4_sum_eltwise <- L1_b3_sum_eltwise_top_L1_b3_relu_0_split_1
I0817 16:05:12.158072 17621 net.cpp:408] L1_b4_sum_eltwise -> L1_b4_sum_eltwise_top
I0817 16:05:12.158110 17621 net.cpp:150] Setting up L1_b4_sum_eltwise
I0817 16:05:12.158120 17621 net.cpp:157] Top shape: 125 16 32 32 (2048000)
I0817 16:05:12.158125 17621 net.cpp:165] Memory required for data: 386561500
I0817 16:05:12.158130 17621 layer_factory.hpp:77] Creating layer L1_b4_relu
I0817 16:05:12.158141 17621 net.cpp:100] Creating Layer L1_b4_relu
I0817 16:05:12.158146 17621 net.cpp:434] L1_b4_relu <- L1_b4_sum_eltwise_top
I0817 16:05:12.158154 17621 net.cpp:395] L1_b4_relu -> L1_b4_sum_eltwise_top (in-place)
I0817 16:05:12.158162 17621 net.cpp:150] Setting up L1_b4_relu
I0817 16:05:12.158169 17621 net.cpp:157] Top shape: 125 16 32 32 (2048000)
I0817 16:05:12.158174 17621 net.cpp:165] Memory required for data: 394753500
I0817 16:05:12.158179 17621 layer_factory.hpp:77] Creating layer L1_b4_sum_eltwise_top_L1_b4_relu_0_split
I0817 16:05:12.158186 17621 net.cpp:100] Creating Layer L1_b4_sum_eltwise_top_L1_b4_relu_0_split
I0817 16:05:12.158191 17621 net.cpp:434] L1_b4_sum_eltwise_top_L1_b4_relu_0_split <- L1_b4_sum_eltwise_top
I0817 16:05:12.158200 17621 net.cpp:408] L1_b4_sum_eltwise_top_L1_b4_relu_0_split -> L1_b4_sum_eltwise_top_L1_b4_relu_0_split_0
I0817 16:05:12.158208 17621 net.cpp:408] L1_b4_sum_eltwise_top_L1_b4_relu_0_split -> L1_b4_sum_eltwise_top_L1_b4_relu_0_split_1
I0817 16:05:12.158252 17621 net.cpp:150] Setting up L1_b4_sum_eltwise_top_L1_b4_relu_0_split
I0817 16:05:12.158264 17621 net.cpp:157] Top shape: 125 16 32 32 (2048000)
I0817 16:05:12.158270 17621 net.cpp:157] Top shape: 125 16 32 32 (2048000)
I0817 16:05:12.158275 17621 net.cpp:165] Memory required for data: 411137500
I0817 16:05:12.158280 17621 layer_factory.hpp:77] Creating layer L1_b5_cbr1_conv
I0817 16:05:12.158294 17621 net.cpp:100] Creating Layer L1_b5_cbr1_conv
I0817 16:05:12.158300 17621 net.cpp:434] L1_b5_cbr1_conv <- L1_b4_sum_eltwise_top_L1_b4_relu_0_split_0
I0817 16:05:12.158309 17621 net.cpp:408] L1_b5_cbr1_conv -> L1_b5_cbr1_conv_top
I0817 16:05:12.158617 17621 net.cpp:150] Setting up L1_b5_cbr1_conv
I0817 16:05:12.158632 17621 net.cpp:157] Top shape: 125 16 32 32 (2048000)
I0817 16:05:12.158637 17621 net.cpp:165] Memory required for data: 419329500
I0817 16:05:12.158658 17621 layer_factory.hpp:77] Creating layer L1_b5_cbr1_bn
I0817 16:05:12.158670 17621 net.cpp:100] Creating Layer L1_b5_cbr1_bn
I0817 16:05:12.158676 17621 net.cpp:434] L1_b5_cbr1_bn <- L1_b5_cbr1_conv_top
I0817 16:05:12.158694 17621 net.cpp:408] L1_b5_cbr1_bn -> L1_b5_cbr1_bn_top
I0817 16:05:12.158937 17621 net.cpp:150] Setting up L1_b5_cbr1_bn
I0817 16:05:12.158951 17621 net.cpp:157] Top shape: 125 16 32 32 (2048000)
I0817 16:05:12.158957 17621 net.cpp:165] Memory required for data: 427521500
I0817 16:05:12.158967 17621 layer_factory.hpp:77] Creating layer L1_b5_cbr1_scale
I0817 16:05:12.158975 17621 net.cpp:100] Creating Layer L1_b5_cbr1_scale
I0817 16:05:12.158982 17621 net.cpp:434] L1_b5_cbr1_scale <- L1_b5_cbr1_bn_top
I0817 16:05:12.158989 17621 net.cpp:395] L1_b5_cbr1_scale -> L1_b5_cbr1_bn_top (in-place)
I0817 16:05:12.159044 17621 layer_factory.hpp:77] Creating layer L1_b5_cbr1_scale
I0817 16:05:12.159183 17621 net.cpp:150] Setting up L1_b5_cbr1_scale
I0817 16:05:12.159196 17621 net.cpp:157] Top shape: 125 16 32 32 (2048000)
I0817 16:05:12.159201 17621 net.cpp:165] Memory required for data: 435713500
I0817 16:05:12.159210 17621 layer_factory.hpp:77] Creating layer L1_b5_cbr1_relu
I0817 16:05:12.159217 17621 net.cpp:100] Creating Layer L1_b5_cbr1_relu
I0817 16:05:12.159224 17621 net.cpp:434] L1_b5_cbr1_relu <- L1_b5_cbr1_bn_top
I0817 16:05:12.159234 17621 net.cpp:395] L1_b5_cbr1_relu -> L1_b5_cbr1_bn_top (in-place)
I0817 16:05:12.159243 17621 net.cpp:150] Setting up L1_b5_cbr1_relu
I0817 16:05:12.159250 17621 net.cpp:157] Top shape: 125 16 32 32 (2048000)
I0817 16:05:12.159255 17621 net.cpp:165] Memory required for data: 443905500
I0817 16:05:12.159260 17621 layer_factory.hpp:77] Creating layer L1_b5_cbr2_conv
I0817 16:05:12.159273 17621 net.cpp:100] Creating Layer L1_b5_cbr2_conv
I0817 16:05:12.159279 17621 net.cpp:434] L1_b5_cbr2_conv <- L1_b5_cbr1_bn_top
I0817 16:05:12.159294 17621 net.cpp:408] L1_b5_cbr2_conv -> L1_b5_cbr2_conv_top
I0817 16:05:12.159605 17621 net.cpp:150] Setting up L1_b5_cbr2_conv
I0817 16:05:12.159617 17621 net.cpp:157] Top shape: 125 16 32 32 (2048000)
I0817 16:05:12.159622 17621 net.cpp:165] Memory required for data: 452097500
I0817 16:05:12.159631 17621 layer_factory.hpp:77] Creating layer L1_b5_cbr2_bn
I0817 16:05:12.159641 17621 net.cpp:100] Creating Layer L1_b5_cbr2_bn
I0817 16:05:12.159647 17621 net.cpp:434] L1_b5_cbr2_bn <- L1_b5_cbr2_conv_top
I0817 16:05:12.159660 17621 net.cpp:408] L1_b5_cbr2_bn -> L1_b5_cbr2_bn_top
I0817 16:05:12.159914 17621 net.cpp:150] Setting up L1_b5_cbr2_bn
I0817 16:05:12.159930 17621 net.cpp:157] Top shape: 125 16 32 32 (2048000)
I0817 16:05:12.159935 17621 net.cpp:165] Memory required for data: 460289500
I0817 16:05:12.159946 17621 layer_factory.hpp:77] Creating layer L1_b5_cbr2_scale
I0817 16:05:12.159955 17621 net.cpp:100] Creating Layer L1_b5_cbr2_scale
I0817 16:05:12.159960 17621 net.cpp:434] L1_b5_cbr2_scale <- L1_b5_cbr2_bn_top
I0817 16:05:12.159967 17621 net.cpp:395] L1_b5_cbr2_scale -> L1_b5_cbr2_bn_top (in-place)
I0817 16:05:12.160019 17621 layer_factory.hpp:77] Creating layer L1_b5_cbr2_scale
I0817 16:05:12.160162 17621 net.cpp:150] Setting up L1_b5_cbr2_scale
I0817 16:05:12.160174 17621 net.cpp:157] Top shape: 125 16 32 32 (2048000)
I0817 16:05:12.160181 17621 net.cpp:165] Memory required for data: 468481500
I0817 16:05:12.160189 17621 layer_factory.hpp:77] Creating layer L1_b5_sum_eltwise
I0817 16:05:12.160200 17621 net.cpp:100] Creating Layer L1_b5_sum_eltwise
I0817 16:05:12.160207 17621 net.cpp:434] L1_b5_sum_eltwise <- L1_b5_cbr2_bn_top
I0817 16:05:12.160213 17621 net.cpp:434] L1_b5_sum_eltwise <- L1_b4_sum_eltwise_top_L1_b4_relu_0_split_1
I0817 16:05:12.160223 17621 net.cpp:408] L1_b5_sum_eltwise -> L1_b5_sum_eltwise_top
I0817 16:05:12.160254 17621 net.cpp:150] Setting up L1_b5_sum_eltwise
I0817 16:05:12.160262 17621 net.cpp:157] Top shape: 125 16 32 32 (2048000)
I0817 16:05:12.160267 17621 net.cpp:165] Memory required for data: 476673500
I0817 16:05:12.160272 17621 layer_factory.hpp:77] Creating layer L1_b5_relu
I0817 16:05:12.160282 17621 net.cpp:100] Creating Layer L1_b5_relu
I0817 16:05:12.160289 17621 net.cpp:434] L1_b5_relu <- L1_b5_sum_eltwise_top
I0817 16:05:12.160295 17621 net.cpp:395] L1_b5_relu -> L1_b5_sum_eltwise_top (in-place)
I0817 16:05:12.160305 17621 net.cpp:150] Setting up L1_b5_relu
I0817 16:05:12.160311 17621 net.cpp:157] Top shape: 125 16 32 32 (2048000)
I0817 16:05:12.160315 17621 net.cpp:165] Memory required for data: 484865500
I0817 16:05:12.160320 17621 layer_factory.hpp:77] Creating layer L1_b5_sum_eltwise_top_L1_b5_relu_0_split
I0817 16:05:12.160327 17621 net.cpp:100] Creating Layer L1_b5_sum_eltwise_top_L1_b5_relu_0_split
I0817 16:05:12.160332 17621 net.cpp:434] L1_b5_sum_eltwise_top_L1_b5_relu_0_split <- L1_b5_sum_eltwise_top
I0817 16:05:12.160339 17621 net.cpp:408] L1_b5_sum_eltwise_top_L1_b5_relu_0_split -> L1_b5_sum_eltwise_top_L1_b5_relu_0_split_0
I0817 16:05:12.160348 17621 net.cpp:408] L1_b5_sum_eltwise_top_L1_b5_relu_0_split -> L1_b5_sum_eltwise_top_L1_b5_relu_0_split_1
I0817 16:05:12.160393 17621 net.cpp:150] Setting up L1_b5_sum_eltwise_top_L1_b5_relu_0_split
I0817 16:05:12.160404 17621 net.cpp:157] Top shape: 125 16 32 32 (2048000)
I0817 16:05:12.160411 17621 net.cpp:157] Top shape: 125 16 32 32 (2048000)
I0817 16:05:12.160415 17621 net.cpp:165] Memory required for data: 501249500
I0817 16:05:12.160421 17621 layer_factory.hpp:77] Creating layer L1_b6_cbr1_conv
I0817 16:05:12.160434 17621 net.cpp:100] Creating Layer L1_b6_cbr1_conv
I0817 16:05:12.160440 17621 net.cpp:434] L1_b6_cbr1_conv <- L1_b5_sum_eltwise_top_L1_b5_relu_0_split_0
I0817 16:05:12.160449 17621 net.cpp:408] L1_b6_cbr1_conv -> L1_b6_cbr1_conv_top
I0817 16:05:12.160763 17621 net.cpp:150] Setting up L1_b6_cbr1_conv
I0817 16:05:12.160778 17621 net.cpp:157] Top shape: 125 16 32 32 (2048000)
I0817 16:05:12.160784 17621 net.cpp:165] Memory required for data: 509441500
I0817 16:05:12.160799 17621 layer_factory.hpp:77] Creating layer L1_b6_cbr1_bn
I0817 16:05:12.160811 17621 net.cpp:100] Creating Layer L1_b6_cbr1_bn
I0817 16:05:12.160817 17621 net.cpp:434] L1_b6_cbr1_bn <- L1_b6_cbr1_conv_top
I0817 16:05:12.160825 17621 net.cpp:408] L1_b6_cbr1_bn -> L1_b6_cbr1_bn_top
I0817 16:05:12.161064 17621 net.cpp:150] Setting up L1_b6_cbr1_bn
I0817 16:05:12.161080 17621 net.cpp:157] Top shape: 125 16 32 32 (2048000)
I0817 16:05:12.161085 17621 net.cpp:165] Memory required for data: 517633500
I0817 16:05:12.161095 17621 layer_factory.hpp:77] Creating layer L1_b6_cbr1_scale
I0817 16:05:12.161104 17621 net.cpp:100] Creating Layer L1_b6_cbr1_scale
I0817 16:05:12.161110 17621 net.cpp:434] L1_b6_cbr1_scale <- L1_b6_cbr1_bn_top
I0817 16:05:12.161118 17621 net.cpp:395] L1_b6_cbr1_scale -> L1_b6_cbr1_bn_top (in-place)
I0817 16:05:12.161170 17621 layer_factory.hpp:77] Creating layer L1_b6_cbr1_scale
I0817 16:05:12.161315 17621 net.cpp:150] Setting up L1_b6_cbr1_scale
I0817 16:05:12.161329 17621 net.cpp:157] Top shape: 125 16 32 32 (2048000)
I0817 16:05:12.161334 17621 net.cpp:165] Memory required for data: 525825500
I0817 16:05:12.161342 17621 layer_factory.hpp:77] Creating layer L1_b6_cbr1_relu
I0817 16:05:12.161350 17621 net.cpp:100] Creating Layer L1_b6_cbr1_relu
I0817 16:05:12.161356 17621 net.cpp:434] L1_b6_cbr1_relu <- L1_b6_cbr1_bn_top
I0817 16:05:12.161366 17621 net.cpp:395] L1_b6_cbr1_relu -> L1_b6_cbr1_bn_top (in-place)
I0817 16:05:12.161375 17621 net.cpp:150] Setting up L1_b6_cbr1_relu
I0817 16:05:12.161382 17621 net.cpp:157] Top shape: 125 16 32 32 (2048000)
I0817 16:05:12.161387 17621 net.cpp:165] Memory required for data: 534017500
I0817 16:05:12.161392 17621 layer_factory.hpp:77] Creating layer L1_b6_cbr2_conv
I0817 16:05:12.161403 17621 net.cpp:100] Creating Layer L1_b6_cbr2_conv
I0817 16:05:12.161408 17621 net.cpp:434] L1_b6_cbr2_conv <- L1_b6_cbr1_bn_top
I0817 16:05:12.161419 17621 net.cpp:408] L1_b6_cbr2_conv -> L1_b6_cbr2_conv_top
I0817 16:05:12.161746 17621 net.cpp:150] Setting up L1_b6_cbr2_conv
I0817 16:05:12.161759 17621 net.cpp:157] Top shape: 125 16 32 32 (2048000)
I0817 16:05:12.161765 17621 net.cpp:165] Memory required for data: 542209500
I0817 16:05:12.161774 17621 layer_factory.hpp:77] Creating layer L1_b6_cbr2_bn
I0817 16:05:12.161783 17621 net.cpp:100] Creating Layer L1_b6_cbr2_bn
I0817 16:05:12.161789 17621 net.cpp:434] L1_b6_cbr2_bn <- L1_b6_cbr2_conv_top
I0817 16:05:12.161800 17621 net.cpp:408] L1_b6_cbr2_bn -> L1_b6_cbr2_bn_top
I0817 16:05:12.162037 17621 net.cpp:150] Setting up L1_b6_cbr2_bn
I0817 16:05:12.162050 17621 net.cpp:157] Top shape: 125 16 32 32 (2048000)
I0817 16:05:12.162055 17621 net.cpp:165] Memory required for data: 550401500
I0817 16:05:12.162065 17621 layer_factory.hpp:77] Creating layer L1_b6_cbr2_scale
I0817 16:05:12.162077 17621 net.cpp:100] Creating Layer L1_b6_cbr2_scale
I0817 16:05:12.162083 17621 net.cpp:434] L1_b6_cbr2_scale <- L1_b6_cbr2_bn_top
I0817 16:05:12.162091 17621 net.cpp:395] L1_b6_cbr2_scale -> L1_b6_cbr2_bn_top (in-place)
I0817 16:05:12.162143 17621 layer_factory.hpp:77] Creating layer L1_b6_cbr2_scale
I0817 16:05:12.162284 17621 net.cpp:150] Setting up L1_b6_cbr2_scale
I0817 16:05:12.162297 17621 net.cpp:157] Top shape: 125 16 32 32 (2048000)
I0817 16:05:12.162302 17621 net.cpp:165] Memory required for data: 558593500
I0817 16:05:12.162310 17621 layer_factory.hpp:77] Creating layer L1_b6_sum_eltwise
I0817 16:05:12.162329 17621 net.cpp:100] Creating Layer L1_b6_sum_eltwise
I0817 16:05:12.162336 17621 net.cpp:434] L1_b6_sum_eltwise <- L1_b6_cbr2_bn_top
I0817 16:05:12.162343 17621 net.cpp:434] L1_b6_sum_eltwise <- L1_b5_sum_eltwise_top_L1_b5_relu_0_split_1
I0817 16:05:12.162350 17621 net.cpp:408] L1_b6_sum_eltwise -> L1_b6_sum_eltwise_top
I0817 16:05:12.162385 17621 net.cpp:150] Setting up L1_b6_sum_eltwise
I0817 16:05:12.162397 17621 net.cpp:157] Top shape: 125 16 32 32 (2048000)
I0817 16:05:12.162401 17621 net.cpp:165] Memory required for data: 566785500
I0817 16:05:12.162407 17621 layer_factory.hpp:77] Creating layer L1_b6_relu
I0817 16:05:12.162423 17621 net.cpp:100] Creating Layer L1_b6_relu
I0817 16:05:12.162430 17621 net.cpp:434] L1_b6_relu <- L1_b6_sum_eltwise_top
I0817 16:05:12.162436 17621 net.cpp:395] L1_b6_relu -> L1_b6_sum_eltwise_top (in-place)
I0817 16:05:12.162446 17621 net.cpp:150] Setting up L1_b6_relu
I0817 16:05:12.162452 17621 net.cpp:157] Top shape: 125 16 32 32 (2048000)
I0817 16:05:12.162457 17621 net.cpp:165] Memory required for data: 574977500
I0817 16:05:12.162461 17621 layer_factory.hpp:77] Creating layer L1_b6_sum_eltwise_top_L1_b6_relu_0_split
I0817 16:05:12.162468 17621 net.cpp:100] Creating Layer L1_b6_sum_eltwise_top_L1_b6_relu_0_split
I0817 16:05:12.162473 17621 net.cpp:434] L1_b6_sum_eltwise_top_L1_b6_relu_0_split <- L1_b6_sum_eltwise_top
I0817 16:05:12.162483 17621 net.cpp:408] L1_b6_sum_eltwise_top_L1_b6_relu_0_split -> L1_b6_sum_eltwise_top_L1_b6_relu_0_split_0
I0817 16:05:12.162493 17621 net.cpp:408] L1_b6_sum_eltwise_top_L1_b6_relu_0_split -> L1_b6_sum_eltwise_top_L1_b6_relu_0_split_1
I0817 16:05:12.162536 17621 net.cpp:150] Setting up L1_b6_sum_eltwise_top_L1_b6_relu_0_split
I0817 16:05:12.162547 17621 net.cpp:157] Top shape: 125 16 32 32 (2048000)
I0817 16:05:12.162554 17621 net.cpp:157] Top shape: 125 16 32 32 (2048000)
I0817 16:05:12.162559 17621 net.cpp:165] Memory required for data: 591361500
I0817 16:05:12.162564 17621 layer_factory.hpp:77] Creating layer L1_b7_cbr1_conv
I0817 16:05:12.162577 17621 net.cpp:100] Creating Layer L1_b7_cbr1_conv
I0817 16:05:12.162583 17621 net.cpp:434] L1_b7_cbr1_conv <- L1_b6_sum_eltwise_top_L1_b6_relu_0_split_0
I0817 16:05:12.162592 17621 net.cpp:408] L1_b7_cbr1_conv -> L1_b7_cbr1_conv_top
I0817 16:05:12.162914 17621 net.cpp:150] Setting up L1_b7_cbr1_conv
I0817 16:05:12.162928 17621 net.cpp:157] Top shape: 125 16 32 32 (2048000)
I0817 16:05:12.162933 17621 net.cpp:165] Memory required for data: 599553500
I0817 16:05:12.162942 17621 layer_factory.hpp:77] Creating layer L1_b7_cbr1_bn
I0817 16:05:12.162955 17621 net.cpp:100] Creating Layer L1_b7_cbr1_bn
I0817 16:05:12.162961 17621 net.cpp:434] L1_b7_cbr1_bn <- L1_b7_cbr1_conv_top
I0817 16:05:12.162971 17621 net.cpp:408] L1_b7_cbr1_bn -> L1_b7_cbr1_bn_top
I0817 16:05:12.163213 17621 net.cpp:150] Setting up L1_b7_cbr1_bn
I0817 16:05:12.163228 17621 net.cpp:157] Top shape: 125 16 32 32 (2048000)
I0817 16:05:12.163233 17621 net.cpp:165] Memory required for data: 607745500
I0817 16:05:12.163242 17621 layer_factory.hpp:77] Creating layer L1_b7_cbr1_scale
I0817 16:05:12.163251 17621 net.cpp:100] Creating Layer L1_b7_cbr1_scale
I0817 16:05:12.163257 17621 net.cpp:434] L1_b7_cbr1_scale <- L1_b7_cbr1_bn_top
I0817 16:05:12.163267 17621 net.cpp:395] L1_b7_cbr1_scale -> L1_b7_cbr1_bn_top (in-place)
I0817 16:05:12.163321 17621 layer_factory.hpp:77] Creating layer L1_b7_cbr1_scale
I0817 16:05:12.163460 17621 net.cpp:150] Setting up L1_b7_cbr1_scale
I0817 16:05:12.163472 17621 net.cpp:157] Top shape: 125 16 32 32 (2048000)
I0817 16:05:12.163477 17621 net.cpp:165] Memory required for data: 615937500
I0817 16:05:12.163486 17621 layer_factory.hpp:77] Creating layer L1_b7_cbr1_relu
I0817 16:05:12.163497 17621 net.cpp:100] Creating Layer L1_b7_cbr1_relu
I0817 16:05:12.163503 17621 net.cpp:434] L1_b7_cbr1_relu <- L1_b7_cbr1_bn_top
I0817 16:05:12.163511 17621 net.cpp:395] L1_b7_cbr1_relu -> L1_b7_cbr1_bn_top (in-place)
I0817 16:05:12.163520 17621 net.cpp:150] Setting up L1_b7_cbr1_relu
I0817 16:05:12.163527 17621 net.cpp:157] Top shape: 125 16 32 32 (2048000)
I0817 16:05:12.163532 17621 net.cpp:165] Memory required for data: 624129500
I0817 16:05:12.163537 17621 layer_factory.hpp:77] Creating layer L1_b7_cbr2_conv
I0817 16:05:12.163549 17621 net.cpp:100] Creating Layer L1_b7_cbr2_conv
I0817 16:05:12.163555 17621 net.cpp:434] L1_b7_cbr2_conv <- L1_b7_cbr1_bn_top
I0817 16:05:12.163568 17621 net.cpp:408] L1_b7_cbr2_conv -> L1_b7_cbr2_conv_top
I0817 16:05:12.163890 17621 net.cpp:150] Setting up L1_b7_cbr2_conv
I0817 16:05:12.163904 17621 net.cpp:157] Top shape: 125 16 32 32 (2048000)
I0817 16:05:12.163909 17621 net.cpp:165] Memory required for data: 632321500
I0817 16:05:12.163925 17621 layer_factory.hpp:77] Creating layer L1_b7_cbr2_bn
I0817 16:05:12.163938 17621 net.cpp:100] Creating Layer L1_b7_cbr2_bn
I0817 16:05:12.163944 17621 net.cpp:434] L1_b7_cbr2_bn <- L1_b7_cbr2_conv_top
I0817 16:05:12.163955 17621 net.cpp:408] L1_b7_cbr2_bn -> L1_b7_cbr2_bn_top
I0817 16:05:12.164194 17621 net.cpp:150] Setting up L1_b7_cbr2_bn
I0817 16:05:12.164207 17621 net.cpp:157] Top shape: 125 16 32 32 (2048000)
I0817 16:05:12.164212 17621 net.cpp:165] Memory required for data: 640513500
I0817 16:05:12.164223 17621 layer_factory.hpp:77] Creating layer L1_b7_cbr2_scale
I0817 16:05:12.164232 17621 net.cpp:100] Creating Layer L1_b7_cbr2_scale
I0817 16:05:12.164237 17621 net.cpp:434] L1_b7_cbr2_scale <- L1_b7_cbr2_bn_top
I0817 16:05:12.164244 17621 net.cpp:395] L1_b7_cbr2_scale -> L1_b7_cbr2_bn_top (in-place)
I0817 16:05:12.164300 17621 layer_factory.hpp:77] Creating layer L1_b7_cbr2_scale
I0817 16:05:12.164438 17621 net.cpp:150] Setting up L1_b7_cbr2_scale
I0817 16:05:12.164451 17621 net.cpp:157] Top shape: 125 16 32 32 (2048000)
I0817 16:05:12.164456 17621 net.cpp:165] Memory required for data: 648705500
I0817 16:05:12.164465 17621 layer_factory.hpp:77] Creating layer L1_b7_sum_eltwise
I0817 16:05:12.164479 17621 net.cpp:100] Creating Layer L1_b7_sum_eltwise
I0817 16:05:12.164485 17621 net.cpp:434] L1_b7_sum_eltwise <- L1_b7_cbr2_bn_top
I0817 16:05:12.164492 17621 net.cpp:434] L1_b7_sum_eltwise <- L1_b6_sum_eltwise_top_L1_b6_relu_0_split_1
I0817 16:05:12.164500 17621 net.cpp:408] L1_b7_sum_eltwise -> L1_b7_sum_eltwise_top
I0817 16:05:12.164535 17621 net.cpp:150] Setting up L1_b7_sum_eltwise
I0817 16:05:12.164546 17621 net.cpp:157] Top shape: 125 16 32 32 (2048000)
I0817 16:05:12.164551 17621 net.cpp:165] Memory required for data: 656897500
I0817 16:05:12.164556 17621 layer_factory.hpp:77] Creating layer L1_b7_relu
I0817 16:05:12.164564 17621 net.cpp:100] Creating Layer L1_b7_relu
I0817 16:05:12.164569 17621 net.cpp:434] L1_b7_relu <- L1_b7_sum_eltwise_top
I0817 16:05:12.164579 17621 net.cpp:395] L1_b7_relu -> L1_b7_sum_eltwise_top (in-place)
I0817 16:05:12.164588 17621 net.cpp:150] Setting up L1_b7_relu
I0817 16:05:12.164595 17621 net.cpp:157] Top shape: 125 16 32 32 (2048000)
I0817 16:05:12.164600 17621 net.cpp:165] Memory required for data: 665089500
I0817 16:05:12.164605 17621 layer_factory.hpp:77] Creating layer L1_b7_sum_eltwise_top_L1_b7_relu_0_split
I0817 16:05:12.164613 17621 net.cpp:100] Creating Layer L1_b7_sum_eltwise_top_L1_b7_relu_0_split
I0817 16:05:12.164618 17621 net.cpp:434] L1_b7_sum_eltwise_top_L1_b7_relu_0_split <- L1_b7_sum_eltwise_top
I0817 16:05:12.164628 17621 net.cpp:408] L1_b7_sum_eltwise_top_L1_b7_relu_0_split -> L1_b7_sum_eltwise_top_L1_b7_relu_0_split_0
I0817 16:05:12.164638 17621 net.cpp:408] L1_b7_sum_eltwise_top_L1_b7_relu_0_split -> L1_b7_sum_eltwise_top_L1_b7_relu_0_split_1
I0817 16:05:12.164680 17621 net.cpp:150] Setting up L1_b7_sum_eltwise_top_L1_b7_relu_0_split
I0817 16:05:12.164697 17621 net.cpp:157] Top shape: 125 16 32 32 (2048000)
I0817 16:05:12.164705 17621 net.cpp:157] Top shape: 125 16 32 32 (2048000)
I0817 16:05:12.164710 17621 net.cpp:165] Memory required for data: 681473500
I0817 16:05:12.164714 17621 layer_factory.hpp:77] Creating layer L1_b8_cbr1_conv
I0817 16:05:12.164728 17621 net.cpp:100] Creating Layer L1_b8_cbr1_conv
I0817 16:05:12.164736 17621 net.cpp:434] L1_b8_cbr1_conv <- L1_b7_sum_eltwise_top_L1_b7_relu_0_split_0
I0817 16:05:12.164744 17621 net.cpp:408] L1_b8_cbr1_conv -> L1_b8_cbr1_conv_top
I0817 16:05:12.165062 17621 net.cpp:150] Setting up L1_b8_cbr1_conv
I0817 16:05:12.165076 17621 net.cpp:157] Top shape: 125 16 32 32 (2048000)
I0817 16:05:12.165081 17621 net.cpp:165] Memory required for data: 689665500
I0817 16:05:12.165091 17621 layer_factory.hpp:77] Creating layer L1_b8_cbr1_bn
I0817 16:05:12.165103 17621 net.cpp:100] Creating Layer L1_b8_cbr1_bn
I0817 16:05:12.165110 17621 net.cpp:434] L1_b8_cbr1_bn <- L1_b8_cbr1_conv_top
I0817 16:05:12.165120 17621 net.cpp:408] L1_b8_cbr1_bn -> L1_b8_cbr1_bn_top
I0817 16:05:12.165370 17621 net.cpp:150] Setting up L1_b8_cbr1_bn
I0817 16:05:12.165385 17621 net.cpp:157] Top shape: 125 16 32 32 (2048000)
I0817 16:05:12.165390 17621 net.cpp:165] Memory required for data: 697857500
I0817 16:05:12.165400 17621 layer_factory.hpp:77] Creating layer L1_b8_cbr1_scale
I0817 16:05:12.165408 17621 net.cpp:100] Creating Layer L1_b8_cbr1_scale
I0817 16:05:12.165416 17621 net.cpp:434] L1_b8_cbr1_scale <- L1_b8_cbr1_bn_top
I0817 16:05:12.165422 17621 net.cpp:395] L1_b8_cbr1_scale -> L1_b8_cbr1_bn_top (in-place)
I0817 16:05:12.165477 17621 layer_factory.hpp:77] Creating layer L1_b8_cbr1_scale
I0817 16:05:12.165617 17621 net.cpp:150] Setting up L1_b8_cbr1_scale
I0817 16:05:12.165630 17621 net.cpp:157] Top shape: 125 16 32 32 (2048000)
I0817 16:05:12.165635 17621 net.cpp:165] Memory required for data: 706049500
I0817 16:05:12.165644 17621 layer_factory.hpp:77] Creating layer L1_b8_cbr1_relu
I0817 16:05:12.165657 17621 net.cpp:100] Creating Layer L1_b8_cbr1_relu
I0817 16:05:12.165663 17621 net.cpp:434] L1_b8_cbr1_relu <- L1_b8_cbr1_bn_top
I0817 16:05:12.165669 17621 net.cpp:395] L1_b8_cbr1_relu -> L1_b8_cbr1_bn_top (in-place)
I0817 16:05:12.165679 17621 net.cpp:150] Setting up L1_b8_cbr1_relu
I0817 16:05:12.165693 17621 net.cpp:157] Top shape: 125 16 32 32 (2048000)
I0817 16:05:12.165697 17621 net.cpp:165] Memory required for data: 714241500
I0817 16:05:12.165702 17621 layer_factory.hpp:77] Creating layer L1_b8_cbr2_conv
I0817 16:05:12.165716 17621 net.cpp:100] Creating Layer L1_b8_cbr2_conv
I0817 16:05:12.165722 17621 net.cpp:434] L1_b8_cbr2_conv <- L1_b8_cbr1_bn_top
I0817 16:05:12.165733 17621 net.cpp:408] L1_b8_cbr2_conv -> L1_b8_cbr2_conv_top
I0817 16:05:12.166076 17621 net.cpp:150] Setting up L1_b8_cbr2_conv
I0817 16:05:12.166097 17621 net.cpp:157] Top shape: 125 16 32 32 (2048000)
I0817 16:05:12.166103 17621 net.cpp:165] Memory required for data: 722433500
I0817 16:05:12.166112 17621 layer_factory.hpp:77] Creating layer L1_b8_cbr2_bn
I0817 16:05:12.166127 17621 net.cpp:100] Creating Layer L1_b8_cbr2_bn
I0817 16:05:12.166133 17621 net.cpp:434] L1_b8_cbr2_bn <- L1_b8_cbr2_conv_top
I0817 16:05:12.166142 17621 net.cpp:408] L1_b8_cbr2_bn -> L1_b8_cbr2_bn_top
I0817 16:05:12.166388 17621 net.cpp:150] Setting up L1_b8_cbr2_bn
I0817 16:05:12.166401 17621 net.cpp:157] Top shape: 125 16 32 32 (2048000)
I0817 16:05:12.166406 17621 net.cpp:165] Memory required for data: 730625500
I0817 16:05:12.166416 17621 layer_factory.hpp:77] Creating layer L1_b8_cbr2_scale
I0817 16:05:12.166425 17621 net.cpp:100] Creating Layer L1_b8_cbr2_scale
I0817 16:05:12.166431 17621 net.cpp:434] L1_b8_cbr2_scale <- L1_b8_cbr2_bn_top
I0817 16:05:12.166438 17621 net.cpp:395] L1_b8_cbr2_scale -> L1_b8_cbr2_bn_top (in-place)
I0817 16:05:12.166492 17621 layer_factory.hpp:77] Creating layer L1_b8_cbr2_scale
I0817 16:05:12.166635 17621 net.cpp:150] Setting up L1_b8_cbr2_scale
I0817 16:05:12.166647 17621 net.cpp:157] Top shape: 125 16 32 32 (2048000)
I0817 16:05:12.166652 17621 net.cpp:165] Memory required for data: 738817500
I0817 16:05:12.166661 17621 layer_factory.hpp:77] Creating layer L1_b8_sum_eltwise
I0817 16:05:12.166671 17621 net.cpp:100] Creating Layer L1_b8_sum_eltwise
I0817 16:05:12.166677 17621 net.cpp:434] L1_b8_sum_eltwise <- L1_b8_cbr2_bn_top
I0817 16:05:12.166692 17621 net.cpp:434] L1_b8_sum_eltwise <- L1_b7_sum_eltwise_top_L1_b7_relu_0_split_1
I0817 16:05:12.166702 17621 net.cpp:408] L1_b8_sum_eltwise -> L1_b8_sum_eltwise_top
I0817 16:05:12.166734 17621 net.cpp:150] Setting up L1_b8_sum_eltwise
I0817 16:05:12.166746 17621 net.cpp:157] Top shape: 125 16 32 32 (2048000)
I0817 16:05:12.166751 17621 net.cpp:165] Memory required for data: 747009500
I0817 16:05:12.166757 17621 layer_factory.hpp:77] Creating layer L1_b8_relu
I0817 16:05:12.166769 17621 net.cpp:100] Creating Layer L1_b8_relu
I0817 16:05:12.166774 17621 net.cpp:434] L1_b8_relu <- L1_b8_sum_eltwise_top
I0817 16:05:12.166781 17621 net.cpp:395] L1_b8_relu -> L1_b8_sum_eltwise_top (in-place)
I0817 16:05:12.166790 17621 net.cpp:150] Setting up L1_b8_relu
I0817 16:05:12.166797 17621 net.cpp:157] Top shape: 125 16 32 32 (2048000)
I0817 16:05:12.166808 17621 net.cpp:165] Memory required for data: 755201500
I0817 16:05:12.166813 17621 layer_factory.hpp:77] Creating layer L1_b8_sum_eltwise_top_L1_b8_relu_0_split
I0817 16:05:12.166821 17621 net.cpp:100] Creating Layer L1_b8_sum_eltwise_top_L1_b8_relu_0_split
I0817 16:05:12.166826 17621 net.cpp:434] L1_b8_sum_eltwise_top_L1_b8_relu_0_split <- L1_b8_sum_eltwise_top
I0817 16:05:12.166833 17621 net.cpp:408] L1_b8_sum_eltwise_top_L1_b8_relu_0_split -> L1_b8_sum_eltwise_top_L1_b8_relu_0_split_0
I0817 16:05:12.166843 17621 net.cpp:408] L1_b8_sum_eltwise_top_L1_b8_relu_0_split -> L1_b8_sum_eltwise_top_L1_b8_relu_0_split_1
I0817 16:05:12.166888 17621 net.cpp:150] Setting up L1_b8_sum_eltwise_top_L1_b8_relu_0_split
I0817 16:05:12.166900 17621 net.cpp:157] Top shape: 125 16 32 32 (2048000)
I0817 16:05:12.166906 17621 net.cpp:157] Top shape: 125 16 32 32 (2048000)
I0817 16:05:12.166911 17621 net.cpp:165] Memory required for data: 771585500
I0817 16:05:12.166916 17621 layer_factory.hpp:77] Creating layer L1_b9_cbr1_conv
I0817 16:05:12.166929 17621 net.cpp:100] Creating Layer L1_b9_cbr1_conv
I0817 16:05:12.166936 17621 net.cpp:434] L1_b9_cbr1_conv <- L1_b8_sum_eltwise_top_L1_b8_relu_0_split_0
I0817 16:05:12.166945 17621 net.cpp:408] L1_b9_cbr1_conv -> L1_b9_cbr1_conv_top
I0817 16:05:12.167266 17621 net.cpp:150] Setting up L1_b9_cbr1_conv
I0817 16:05:12.167281 17621 net.cpp:157] Top shape: 125 16 32 32 (2048000)
I0817 16:05:12.167286 17621 net.cpp:165] Memory required for data: 779777500
I0817 16:05:12.167295 17621 layer_factory.hpp:77] Creating layer L1_b9_cbr1_bn
I0817 16:05:12.167306 17621 net.cpp:100] Creating Layer L1_b9_cbr1_bn
I0817 16:05:12.167313 17621 net.cpp:434] L1_b9_cbr1_bn <- L1_b9_cbr1_conv_top
I0817 16:05:12.167321 17621 net.cpp:408] L1_b9_cbr1_bn -> L1_b9_cbr1_bn_top
I0817 16:05:12.167567 17621 net.cpp:150] Setting up L1_b9_cbr1_bn
I0817 16:05:12.167579 17621 net.cpp:157] Top shape: 125 16 32 32 (2048000)
I0817 16:05:12.167584 17621 net.cpp:165] Memory required for data: 787969500
I0817 16:05:12.167594 17621 layer_factory.hpp:77] Creating layer L1_b9_cbr1_scale
I0817 16:05:12.167606 17621 net.cpp:100] Creating Layer L1_b9_cbr1_scale
I0817 16:05:12.167613 17621 net.cpp:434] L1_b9_cbr1_scale <- L1_b9_cbr1_bn_top
I0817 16:05:12.167620 17621 net.cpp:395] L1_b9_cbr1_scale -> L1_b9_cbr1_bn_top (in-place)
I0817 16:05:12.167675 17621 layer_factory.hpp:77] Creating layer L1_b9_cbr1_scale
I0817 16:05:12.167827 17621 net.cpp:150] Setting up L1_b9_cbr1_scale
I0817 16:05:12.167840 17621 net.cpp:157] Top shape: 125 16 32 32 (2048000)
I0817 16:05:12.167845 17621 net.cpp:165] Memory required for data: 796161500
I0817 16:05:12.167855 17621 layer_factory.hpp:77] Creating layer L1_b9_cbr1_relu
I0817 16:05:12.167862 17621 net.cpp:100] Creating Layer L1_b9_cbr1_relu
I0817 16:05:12.167868 17621 net.cpp:434] L1_b9_cbr1_relu <- L1_b9_cbr1_bn_top
I0817 16:05:12.167878 17621 net.cpp:395] L1_b9_cbr1_relu -> L1_b9_cbr1_bn_top (in-place)
I0817 16:05:12.167888 17621 net.cpp:150] Setting up L1_b9_cbr1_relu
I0817 16:05:12.167896 17621 net.cpp:157] Top shape: 125 16 32 32 (2048000)
I0817 16:05:12.167899 17621 net.cpp:165] Memory required for data: 804353500
I0817 16:05:12.167904 17621 layer_factory.hpp:77] Creating layer L1_b9_cbr2_conv
I0817 16:05:12.167918 17621 net.cpp:100] Creating Layer L1_b9_cbr2_conv
I0817 16:05:12.167924 17621 net.cpp:434] L1_b9_cbr2_conv <- L1_b9_cbr1_bn_top
I0817 16:05:12.167932 17621 net.cpp:408] L1_b9_cbr2_conv -> L1_b9_cbr2_conv_top
I0817 16:05:12.168251 17621 net.cpp:150] Setting up L1_b9_cbr2_conv
I0817 16:05:12.168264 17621 net.cpp:157] Top shape: 125 16 32 32 (2048000)
I0817 16:05:12.168269 17621 net.cpp:165] Memory required for data: 812545500
I0817 16:05:12.168278 17621 layer_factory.hpp:77] Creating layer L1_b9_cbr2_bn
I0817 16:05:12.168290 17621 net.cpp:100] Creating Layer L1_b9_cbr2_bn
I0817 16:05:12.168296 17621 net.cpp:434] L1_b9_cbr2_bn <- L1_b9_cbr2_conv_top
I0817 16:05:12.168304 17621 net.cpp:408] L1_b9_cbr2_bn -> L1_b9_cbr2_bn_top
I0817 16:05:12.168553 17621 net.cpp:150] Setting up L1_b9_cbr2_bn
I0817 16:05:12.168567 17621 net.cpp:157] Top shape: 125 16 32 32 (2048000)
I0817 16:05:12.168572 17621 net.cpp:165] Memory required for data: 820737500
I0817 16:05:12.168603 17621 layer_factory.hpp:77] Creating layer L1_b9_cbr2_scale
I0817 16:05:12.168615 17621 net.cpp:100] Creating Layer L1_b9_cbr2_scale
I0817 16:05:12.168622 17621 net.cpp:434] L1_b9_cbr2_scale <- L1_b9_cbr2_bn_top
I0817 16:05:12.168629 17621 net.cpp:395] L1_b9_cbr2_scale -> L1_b9_cbr2_bn_top (in-place)
I0817 16:05:12.168690 17621 layer_factory.hpp:77] Creating layer L1_b9_cbr2_scale
I0817 16:05:12.168836 17621 net.cpp:150] Setting up L1_b9_cbr2_scale
I0817 16:05:12.168849 17621 net.cpp:157] Top shape: 125 16 32 32 (2048000)
I0817 16:05:12.168855 17621 net.cpp:165] Memory required for data: 828929500
I0817 16:05:12.168864 17621 layer_factory.hpp:77] Creating layer L1_b9_sum_eltwise
I0817 16:05:12.168874 17621 net.cpp:100] Creating Layer L1_b9_sum_eltwise
I0817 16:05:12.168879 17621 net.cpp:434] L1_b9_sum_eltwise <- L1_b9_cbr2_bn_top
I0817 16:05:12.168886 17621 net.cpp:434] L1_b9_sum_eltwise <- L1_b8_sum_eltwise_top_L1_b8_relu_0_split_1
I0817 16:05:12.168893 17621 net.cpp:408] L1_b9_sum_eltwise -> L1_b9_sum_eltwise_top
I0817 16:05:12.168928 17621 net.cpp:150] Setting up L1_b9_sum_eltwise
I0817 16:05:12.168938 17621 net.cpp:157] Top shape: 125 16 32 32 (2048000)
I0817 16:05:12.168942 17621 net.cpp:165] Memory required for data: 837121500
I0817 16:05:12.168947 17621 layer_factory.hpp:77] Creating layer L1_b9_relu
I0817 16:05:12.168956 17621 net.cpp:100] Creating Layer L1_b9_relu
I0817 16:05:12.168962 17621 net.cpp:434] L1_b9_relu <- L1_b9_sum_eltwise_top
I0817 16:05:12.168970 17621 net.cpp:395] L1_b9_relu -> L1_b9_sum_eltwise_top (in-place)
I0817 16:05:12.168979 17621 net.cpp:150] Setting up L1_b9_relu
I0817 16:05:12.168987 17621 net.cpp:157] Top shape: 125 16 32 32 (2048000)
I0817 16:05:12.168990 17621 net.cpp:165] Memory required for data: 845313500
I0817 16:05:12.168995 17621 layer_factory.hpp:77] Creating layer L1_b9_sum_eltwise_top_L1_b9_relu_0_split
I0817 16:05:12.169003 17621 net.cpp:100] Creating Layer L1_b9_sum_eltwise_top_L1_b9_relu_0_split
I0817 16:05:12.169008 17621 net.cpp:434] L1_b9_sum_eltwise_top_L1_b9_relu_0_split <- L1_b9_sum_eltwise_top
I0817 16:05:12.169019 17621 net.cpp:408] L1_b9_sum_eltwise_top_L1_b9_relu_0_split -> L1_b9_sum_eltwise_top_L1_b9_relu_0_split_0
I0817 16:05:12.169028 17621 net.cpp:408] L1_b9_sum_eltwise_top_L1_b9_relu_0_split -> L1_b9_sum_eltwise_top_L1_b9_relu_0_split_1
I0817 16:05:12.169071 17621 net.cpp:150] Setting up L1_b9_sum_eltwise_top_L1_b9_relu_0_split
I0817 16:05:12.169082 17621 net.cpp:157] Top shape: 125 16 32 32 (2048000)
I0817 16:05:12.169090 17621 net.cpp:157] Top shape: 125 16 32 32 (2048000)
I0817 16:05:12.169095 17621 net.cpp:165] Memory required for data: 861697500
I0817 16:05:12.169100 17621 layer_factory.hpp:77] Creating layer L2_b1_cbr1_conv
I0817 16:05:12.169113 17621 net.cpp:100] Creating Layer L2_b1_cbr1_conv
I0817 16:05:12.169119 17621 net.cpp:434] L2_b1_cbr1_conv <- L1_b9_sum_eltwise_top_L1_b9_relu_0_split_0
I0817 16:05:12.169128 17621 net.cpp:408] L2_b1_cbr1_conv -> L2_b1_cbr1_conv_top
I0817 16:05:12.169451 17621 net.cpp:150] Setting up L2_b1_cbr1_conv
I0817 16:05:12.169466 17621 net.cpp:157] Top shape: 125 16 16 16 (512000)
I0817 16:05:12.169471 17621 net.cpp:165] Memory required for data: 863745500
I0817 16:05:12.169479 17621 layer_factory.hpp:77] Creating layer L2_b1_cbr1_bn
I0817 16:05:12.169492 17621 net.cpp:100] Creating Layer L2_b1_cbr1_bn
I0817 16:05:12.169497 17621 net.cpp:434] L2_b1_cbr1_bn <- L2_b1_cbr1_conv_top
I0817 16:05:12.169505 17621 net.cpp:408] L2_b1_cbr1_bn -> L2_b1_cbr1_bn_top
I0817 16:05:12.169746 17621 net.cpp:150] Setting up L2_b1_cbr1_bn
I0817 16:05:12.169759 17621 net.cpp:157] Top shape: 125 16 16 16 (512000)
I0817 16:05:12.169764 17621 net.cpp:165] Memory required for data: 865793500
I0817 16:05:12.169775 17621 layer_factory.hpp:77] Creating layer L2_b1_cbr1_scale
I0817 16:05:12.169785 17621 net.cpp:100] Creating Layer L2_b1_cbr1_scale
I0817 16:05:12.169797 17621 net.cpp:434] L2_b1_cbr1_scale <- L2_b1_cbr1_bn_top
I0817 16:05:12.169809 17621 net.cpp:395] L2_b1_cbr1_scale -> L2_b1_cbr1_bn_top (in-place)
I0817 16:05:12.169863 17621 layer_factory.hpp:77] Creating layer L2_b1_cbr1_scale
I0817 16:05:12.170006 17621 net.cpp:150] Setting up L2_b1_cbr1_scale
I0817 16:05:12.170017 17621 net.cpp:157] Top shape: 125 16 16 16 (512000)
I0817 16:05:12.170022 17621 net.cpp:165] Memory required for data: 867841500
I0817 16:05:12.170032 17621 layer_factory.hpp:77] Creating layer L2_b1_cbr1_relu
I0817 16:05:12.170039 17621 net.cpp:100] Creating Layer L2_b1_cbr1_relu
I0817 16:05:12.170045 17621 net.cpp:434] L2_b1_cbr1_relu <- L2_b1_cbr1_bn_top
I0817 16:05:12.170053 17621 net.cpp:395] L2_b1_cbr1_relu -> L2_b1_cbr1_bn_top (in-place)
I0817 16:05:12.170061 17621 net.cpp:150] Setting up L2_b1_cbr1_relu
I0817 16:05:12.170068 17621 net.cpp:157] Top shape: 125 16 16 16 (512000)
I0817 16:05:12.170073 17621 net.cpp:165] Memory required for data: 869889500
I0817 16:05:12.170078 17621 layer_factory.hpp:77] Creating layer L2_b1_cbr2_conv
I0817 16:05:12.170092 17621 net.cpp:100] Creating Layer L2_b1_cbr2_conv
I0817 16:05:12.170099 17621 net.cpp:434] L2_b1_cbr2_conv <- L2_b1_cbr1_bn_top
I0817 16:05:12.170109 17621 net.cpp:408] L2_b1_cbr2_conv -> L2_b1_cbr2_conv_top
I0817 16:05:12.170428 17621 net.cpp:150] Setting up L2_b1_cbr2_conv
I0817 16:05:12.170441 17621 net.cpp:157] Top shape: 125 16 16 16 (512000)
I0817 16:05:12.170446 17621 net.cpp:165] Memory required for data: 871937500
I0817 16:05:12.170455 17621 layer_factory.hpp:77] Creating layer L2_b1_cbr2_bn
I0817 16:05:12.170469 17621 net.cpp:100] Creating Layer L2_b1_cbr2_bn
I0817 16:05:12.170476 17621 net.cpp:434] L2_b1_cbr2_bn <- L2_b1_cbr2_conv_top
I0817 16:05:12.170488 17621 net.cpp:408] L2_b1_cbr2_bn -> L2_b1_cbr2_bn_top
I0817 16:05:12.170735 17621 net.cpp:150] Setting up L2_b1_cbr2_bn
I0817 16:05:12.170749 17621 net.cpp:157] Top shape: 125 16 16 16 (512000)
I0817 16:05:12.170754 17621 net.cpp:165] Memory required for data: 873985500
I0817 16:05:12.170765 17621 layer_factory.hpp:77] Creating layer L2_b1_cbr2_scale
I0817 16:05:12.170773 17621 net.cpp:100] Creating Layer L2_b1_cbr2_scale
I0817 16:05:12.170780 17621 net.cpp:434] L2_b1_cbr2_scale <- L2_b1_cbr2_bn_top
I0817 16:05:12.170788 17621 net.cpp:395] L2_b1_cbr2_scale -> L2_b1_cbr2_bn_top (in-place)
I0817 16:05:12.170845 17621 layer_factory.hpp:77] Creating layer L2_b1_cbr2_scale
I0817 16:05:12.170985 17621 net.cpp:150] Setting up L2_b1_cbr2_scale
I0817 16:05:12.170999 17621 net.cpp:157] Top shape: 125 16 16 16 (512000)
I0817 16:05:12.171003 17621 net.cpp:165] Memory required for data: 876033500
I0817 16:05:12.171012 17621 layer_factory.hpp:77] Creating layer L2_b1_pool
I0817 16:05:12.171026 17621 net.cpp:100] Creating Layer L2_b1_pool
I0817 16:05:12.171033 17621 net.cpp:434] L2_b1_pool <- L1_b9_sum_eltwise_top_L1_b9_relu_0_split_1
I0817 16:05:12.171041 17621 net.cpp:408] L2_b1_pool -> L2_b1_pool
I0817 16:05:12.171129 17621 net.cpp:150] Setting up L2_b1_pool
I0817 16:05:12.171144 17621 net.cpp:157] Top shape: 125 16 16 16 (512000)
I0817 16:05:12.171149 17621 net.cpp:165] Memory required for data: 878081500
I0817 16:05:12.171155 17621 layer_factory.hpp:77] Creating layer L2_b1_sum_eltwise
I0817 16:05:12.171164 17621 net.cpp:100] Creating Layer L2_b1_sum_eltwise
I0817 16:05:12.171170 17621 net.cpp:434] L2_b1_sum_eltwise <- L2_b1_cbr2_bn_top
I0817 16:05:12.171177 17621 net.cpp:434] L2_b1_sum_eltwise <- L2_b1_pool
I0817 16:05:12.171188 17621 net.cpp:408] L2_b1_sum_eltwise -> L2_b1_sum_eltwise_top
I0817 16:05:12.171221 17621 net.cpp:150] Setting up L2_b1_sum_eltwise
I0817 16:05:12.171231 17621 net.cpp:157] Top shape: 125 16 16 16 (512000)
I0817 16:05:12.171234 17621 net.cpp:165] Memory required for data: 880129500
I0817 16:05:12.171241 17621 layer_factory.hpp:77] Creating layer L2_b1_relu
I0817 16:05:12.171252 17621 net.cpp:100] Creating Layer L2_b1_relu
I0817 16:05:12.171257 17621 net.cpp:434] L2_b1_relu <- L2_b1_sum_eltwise_top
I0817 16:05:12.171264 17621 net.cpp:395] L2_b1_relu -> L2_b1_sum_eltwise_top (in-place)
I0817 16:05:12.171280 17621 net.cpp:150] Setting up L2_b1_relu
I0817 16:05:12.171288 17621 net.cpp:157] Top shape: 125 16 16 16 (512000)
I0817 16:05:12.171293 17621 net.cpp:165] Memory required for data: 882177500
I0817 16:05:12.171298 17621 layer_factory.hpp:77] Creating layer L2_b1_zeros
I0817 16:05:12.171344 17621 net.cpp:100] Creating Layer L2_b1_zeros
I0817 16:05:12.171357 17621 net.cpp:408] L2_b1_zeros -> L2_b1_zeros
I0817 16:05:12.173701 17621 net.cpp:150] Setting up L2_b1_zeros
I0817 16:05:12.173722 17621 net.cpp:157] Top shape: 125 16 16 16 (512000)
I0817 16:05:12.173727 17621 net.cpp:165] Memory required for data: 884225500
I0817 16:05:12.173734 17621 layer_factory.hpp:77] Creating layer L2_b1_concat0
I0817 16:05:12.173744 17621 net.cpp:100] Creating Layer L2_b1_concat0
I0817 16:05:12.173750 17621 net.cpp:434] L2_b1_concat0 <- L2_b1_sum_eltwise_top
I0817 16:05:12.173758 17621 net.cpp:434] L2_b1_concat0 <- L2_b1_zeros
I0817 16:05:12.173768 17621 net.cpp:408] L2_b1_concat0 -> L2_b1_concat0
I0817 16:05:12.173843 17621 net.cpp:150] Setting up L2_b1_concat0
I0817 16:05:12.173859 17621 net.cpp:157] Top shape: 125 32 16 16 (1024000)
I0817 16:05:12.173864 17621 net.cpp:165] Memory required for data: 888321500
I0817 16:05:12.173871 17621 layer_factory.hpp:77] Creating layer L2_b1_concat0_L2_b1_concat0_0_split
I0817 16:05:12.173882 17621 net.cpp:100] Creating Layer L2_b1_concat0_L2_b1_concat0_0_split
I0817 16:05:12.173887 17621 net.cpp:434] L2_b1_concat0_L2_b1_concat0_0_split <- L2_b1_concat0
I0817 16:05:12.173897 17621 net.cpp:408] L2_b1_concat0_L2_b1_concat0_0_split -> L2_b1_concat0_L2_b1_concat0_0_split_0
I0817 16:05:12.173909 17621 net.cpp:408] L2_b1_concat0_L2_b1_concat0_0_split -> L2_b1_concat0_L2_b1_concat0_0_split_1
I0817 16:05:12.173957 17621 net.cpp:150] Setting up L2_b1_concat0_L2_b1_concat0_0_split
I0817 16:05:12.173969 17621 net.cpp:157] Top shape: 125 32 16 16 (1024000)
I0817 16:05:12.173976 17621 net.cpp:157] Top shape: 125 32 16 16 (1024000)
I0817 16:05:12.173980 17621 net.cpp:165] Memory required for data: 896513500
I0817 16:05:12.173985 17621 layer_factory.hpp:77] Creating layer L2_b2_cbr1_conv
I0817 16:05:12.174000 17621 net.cpp:100] Creating Layer L2_b2_cbr1_conv
I0817 16:05:12.174006 17621 net.cpp:434] L2_b2_cbr1_conv <- L2_b1_concat0_L2_b1_concat0_0_split_0
I0817 16:05:12.174018 17621 net.cpp:408] L2_b2_cbr1_conv -> L2_b2_cbr1_conv_top
I0817 16:05:12.175532 17621 net.cpp:150] Setting up L2_b2_cbr1_conv
I0817 16:05:12.175551 17621 net.cpp:157] Top shape: 125 32 16 16 (1024000)
I0817 16:05:12.175556 17621 net.cpp:165] Memory required for data: 900609500
I0817 16:05:12.175566 17621 layer_factory.hpp:77] Creating layer L2_b2_cbr1_bn
I0817 16:05:12.175580 17621 net.cpp:100] Creating Layer L2_b2_cbr1_bn
I0817 16:05:12.175587 17621 net.cpp:434] L2_b2_cbr1_bn <- L2_b2_cbr1_conv_top
I0817 16:05:12.175595 17621 net.cpp:408] L2_b2_cbr1_bn -> L2_b2_cbr1_bn_top
I0817 16:05:12.175853 17621 net.cpp:150] Setting up L2_b2_cbr1_bn
I0817 16:05:12.175868 17621 net.cpp:157] Top shape: 125 32 16 16 (1024000)
I0817 16:05:12.175873 17621 net.cpp:165] Memory required for data: 904705500
I0817 16:05:12.175884 17621 layer_factory.hpp:77] Creating layer L2_b2_cbr1_scale
I0817 16:05:12.175894 17621 net.cpp:100] Creating Layer L2_b2_cbr1_scale
I0817 16:05:12.175900 17621 net.cpp:434] L2_b2_cbr1_scale <- L2_b2_cbr1_bn_top
I0817 16:05:12.175910 17621 net.cpp:395] L2_b2_cbr1_scale -> L2_b2_cbr1_bn_top (in-place)
I0817 16:05:12.175967 17621 layer_factory.hpp:77] Creating layer L2_b2_cbr1_scale
I0817 16:05:12.176116 17621 net.cpp:150] Setting up L2_b2_cbr1_scale
I0817 16:05:12.176129 17621 net.cpp:157] Top shape: 125 32 16 16 (1024000)
I0817 16:05:12.176134 17621 net.cpp:165] Memory required for data: 908801500
I0817 16:05:12.176143 17621 layer_factory.hpp:77] Creating layer L2_b2_cbr1_relu
I0817 16:05:12.176151 17621 net.cpp:100] Creating Layer L2_b2_cbr1_relu
I0817 16:05:12.176157 17621 net.cpp:434] L2_b2_cbr1_relu <- L2_b2_cbr1_bn_top
I0817 16:05:12.176164 17621 net.cpp:395] L2_b2_cbr1_relu -> L2_b2_cbr1_bn_top (in-place)
I0817 16:05:12.176185 17621 net.cpp:150] Setting up L2_b2_cbr1_relu
I0817 16:05:12.176193 17621 net.cpp:157] Top shape: 125 32 16 16 (1024000)
I0817 16:05:12.176198 17621 net.cpp:165] Memory required for data: 912897500
I0817 16:05:12.176203 17621 layer_factory.hpp:77] Creating layer L2_b2_cbr2_conv
I0817 16:05:12.176215 17621 net.cpp:100] Creating Layer L2_b2_cbr2_conv
I0817 16:05:12.176223 17621 net.cpp:434] L2_b2_cbr2_conv <- L2_b2_cbr1_bn_top
I0817 16:05:12.176232 17621 net.cpp:408] L2_b2_cbr2_conv -> L2_b2_cbr2_conv_top
I0817 16:05:12.176693 17621 net.cpp:150] Setting up L2_b2_cbr2_conv
I0817 16:05:12.176707 17621 net.cpp:157] Top shape: 125 32 16 16 (1024000)
I0817 16:05:12.176713 17621 net.cpp:165] Memory required for data: 916993500
I0817 16:05:12.176723 17621 layer_factory.hpp:77] Creating layer L2_b2_cbr2_bn
I0817 16:05:12.176738 17621 net.cpp:100] Creating Layer L2_b2_cbr2_bn
I0817 16:05:12.176743 17621 net.cpp:434] L2_b2_cbr2_bn <- L2_b2_cbr2_conv_top
I0817 16:05:12.176754 17621 net.cpp:408] L2_b2_cbr2_bn -> L2_b2_cbr2_bn_top
I0817 16:05:12.176997 17621 net.cpp:150] Setting up L2_b2_cbr2_bn
I0817 16:05:12.177011 17621 net.cpp:157] Top shape: 125 32 16 16 (1024000)
I0817 16:05:12.177016 17621 net.cpp:165] Memory required for data: 921089500
I0817 16:05:12.177026 17621 layer_factory.hpp:77] Creating layer L2_b2_cbr2_scale
I0817 16:05:12.177036 17621 net.cpp:100] Creating Layer L2_b2_cbr2_scale
I0817 16:05:12.177042 17621 net.cpp:434] L2_b2_cbr2_scale <- L2_b2_cbr2_bn_top
I0817 16:05:12.177049 17621 net.cpp:395] L2_b2_cbr2_scale -> L2_b2_cbr2_bn_top (in-place)
I0817 16:05:12.177106 17621 layer_factory.hpp:77] Creating layer L2_b2_cbr2_scale
I0817 16:05:12.177249 17621 net.cpp:150] Setting up L2_b2_cbr2_scale
I0817 16:05:12.177264 17621 net.cpp:157] Top shape: 125 32 16 16 (1024000)
I0817 16:05:12.177270 17621 net.cpp:165] Memory required for data: 925185500
I0817 16:05:12.177279 17621 layer_factory.hpp:77] Creating layer L2_b2_sum_eltwise
I0817 16:05:12.177289 17621 net.cpp:100] Creating Layer L2_b2_sum_eltwise
I0817 16:05:12.177295 17621 net.cpp:434] L2_b2_sum_eltwise <- L2_b2_cbr2_bn_top
I0817 16:05:12.177302 17621 net.cpp:434] L2_b2_sum_eltwise <- L2_b1_concat0_L2_b1_concat0_0_split_1
I0817 16:05:12.177309 17621 net.cpp:408] L2_b2_sum_eltwise -> L2_b2_sum_eltwise_top
I0817 16:05:12.177340 17621 net.cpp:150] Setting up L2_b2_sum_eltwise
I0817 16:05:12.177348 17621 net.cpp:157] Top shape: 125 32 16 16 (1024000)
I0817 16:05:12.177353 17621 net.cpp:165] Memory required for data: 929281500
I0817 16:05:12.177358 17621 layer_factory.hpp:77] Creating layer L2_b2_relu
I0817 16:05:12.177366 17621 net.cpp:100] Creating Layer L2_b2_relu
I0817 16:05:12.177372 17621 net.cpp:434] L2_b2_relu <- L2_b2_sum_eltwise_top
I0817 16:05:12.177382 17621 net.cpp:395] L2_b2_relu -> L2_b2_sum_eltwise_top (in-place)
I0817 16:05:12.177392 17621 net.cpp:150] Setting up L2_b2_relu
I0817 16:05:12.177398 17621 net.cpp:157] Top shape: 125 32 16 16 (1024000)
I0817 16:05:12.177403 17621 net.cpp:165] Memory required for data: 933377500
I0817 16:05:12.177408 17621 layer_factory.hpp:77] Creating layer L2_b2_sum_eltwise_top_L2_b2_relu_0_split
I0817 16:05:12.177415 17621 net.cpp:100] Creating Layer L2_b2_sum_eltwise_top_L2_b2_relu_0_split
I0817 16:05:12.177420 17621 net.cpp:434] L2_b2_sum_eltwise_top_L2_b2_relu_0_split <- L2_b2_sum_eltwise_top
I0817 16:05:12.177430 17621 net.cpp:408] L2_b2_sum_eltwise_top_L2_b2_relu_0_split -> L2_b2_sum_eltwise_top_L2_b2_relu_0_split_0
I0817 16:05:12.177440 17621 net.cpp:408] L2_b2_sum_eltwise_top_L2_b2_relu_0_split -> L2_b2_sum_eltwise_top_L2_b2_relu_0_split_1
I0817 16:05:12.177484 17621 net.cpp:150] Setting up L2_b2_sum_eltwise_top_L2_b2_relu_0_split
I0817 16:05:12.177495 17621 net.cpp:157] Top shape: 125 32 16 16 (1024000)
I0817 16:05:12.177501 17621 net.cpp:157] Top shape: 125 32 16 16 (1024000)
I0817 16:05:12.177506 17621 net.cpp:165] Memory required for data: 941569500
I0817 16:05:12.177511 17621 layer_factory.hpp:77] Creating layer L2_b3_cbr1_conv
I0817 16:05:12.177532 17621 net.cpp:100] Creating Layer L2_b3_cbr1_conv
I0817 16:05:12.177541 17621 net.cpp:434] L2_b3_cbr1_conv <- L2_b2_sum_eltwise_top_L2_b2_relu_0_split_0
I0817 16:05:12.177549 17621 net.cpp:408] L2_b3_cbr1_conv -> L2_b3_cbr1_conv_top
I0817 16:05:12.178048 17621 net.cpp:150] Setting up L2_b3_cbr1_conv
I0817 16:05:12.178064 17621 net.cpp:157] Top shape: 125 32 16 16 (1024000)
I0817 16:05:12.178069 17621 net.cpp:165] Memory required for data: 945665500
I0817 16:05:12.178079 17621 layer_factory.hpp:77] Creating layer L2_b3_cbr1_bn
I0817 16:05:12.178092 17621 net.cpp:100] Creating Layer L2_b3_cbr1_bn
I0817 16:05:12.178098 17621 net.cpp:434] L2_b3_cbr1_bn <- L2_b3_cbr1_conv_top
I0817 16:05:12.178107 17621 net.cpp:408] L2_b3_cbr1_bn -> L2_b3_cbr1_bn_top
I0817 16:05:12.178349 17621 net.cpp:150] Setting up L2_b3_cbr1_bn
I0817 16:05:12.178362 17621 net.cpp:157] Top shape: 125 32 16 16 (1024000)
I0817 16:05:12.178367 17621 net.cpp:165] Memory required for data: 949761500
I0817 16:05:12.178378 17621 layer_factory.hpp:77] Creating layer L2_b3_cbr1_scale
I0817 16:05:12.178387 17621 net.cpp:100] Creating Layer L2_b3_cbr1_scale
I0817 16:05:12.178393 17621 net.cpp:434] L2_b3_cbr1_scale <- L2_b3_cbr1_bn_top
I0817 16:05:12.178400 17621 net.cpp:395] L2_b3_cbr1_scale -> L2_b3_cbr1_bn_top (in-place)
I0817 16:05:12.178457 17621 layer_factory.hpp:77] Creating layer L2_b3_cbr1_scale
I0817 16:05:12.178601 17621 net.cpp:150] Setting up L2_b3_cbr1_scale
I0817 16:05:12.178617 17621 net.cpp:157] Top shape: 125 32 16 16 (1024000)
I0817 16:05:12.178622 17621 net.cpp:165] Memory required for data: 953857500
I0817 16:05:12.178630 17621 layer_factory.hpp:77] Creating layer L2_b3_cbr1_relu
I0817 16:05:12.178638 17621 net.cpp:100] Creating Layer L2_b3_cbr1_relu
I0817 16:05:12.178644 17621 net.cpp:434] L2_b3_cbr1_relu <- L2_b3_cbr1_bn_top
I0817 16:05:12.178652 17621 net.cpp:395] L2_b3_cbr1_relu -> L2_b3_cbr1_bn_top (in-place)
I0817 16:05:12.178660 17621 net.cpp:150] Setting up L2_b3_cbr1_relu
I0817 16:05:12.178668 17621 net.cpp:157] Top shape: 125 32 16 16 (1024000)
I0817 16:05:12.178673 17621 net.cpp:165] Memory required for data: 957953500
I0817 16:05:12.178676 17621 layer_factory.hpp:77] Creating layer L2_b3_cbr2_conv
I0817 16:05:12.178696 17621 net.cpp:100] Creating Layer L2_b3_cbr2_conv
I0817 16:05:12.178704 17621 net.cpp:434] L2_b3_cbr2_conv <- L2_b3_cbr1_bn_top
I0817 16:05:12.178715 17621 net.cpp:408] L2_b3_cbr2_conv -> L2_b3_cbr2_conv_top
I0817 16:05:12.179172 17621 net.cpp:150] Setting up L2_b3_cbr2_conv
I0817 16:05:12.179188 17621 net.cpp:157] Top shape: 125 32 16 16 (1024000)
I0817 16:05:12.179193 17621 net.cpp:165] Memory required for data: 962049500
I0817 16:05:12.179200 17621 layer_factory.hpp:77] Creating layer L2_b3_cbr2_bn
I0817 16:05:12.179213 17621 net.cpp:100] Creating Layer L2_b3_cbr2_bn
I0817 16:05:12.179219 17621 net.cpp:434] L2_b3_cbr2_bn <- L2_b3_cbr2_conv_top
I0817 16:05:12.179230 17621 net.cpp:408] L2_b3_cbr2_bn -> L2_b3_cbr2_bn_top
I0817 16:05:12.179472 17621 net.cpp:150] Setting up L2_b3_cbr2_bn
I0817 16:05:12.179484 17621 net.cpp:157] Top shape: 125 32 16 16 (1024000)
I0817 16:05:12.179491 17621 net.cpp:165] Memory required for data: 966145500
I0817 16:05:12.179500 17621 layer_factory.hpp:77] Creating layer L2_b3_cbr2_scale
I0817 16:05:12.179508 17621 net.cpp:100] Creating Layer L2_b3_cbr2_scale
I0817 16:05:12.179515 17621 net.cpp:434] L2_b3_cbr2_scale <- L2_b3_cbr2_bn_top
I0817 16:05:12.179522 17621 net.cpp:395] L2_b3_cbr2_scale -> L2_b3_cbr2_bn_top (in-place)
I0817 16:05:12.179579 17621 layer_factory.hpp:77] Creating layer L2_b3_cbr2_scale
I0817 16:05:12.179734 17621 net.cpp:150] Setting up L2_b3_cbr2_scale
I0817 16:05:12.179749 17621 net.cpp:157] Top shape: 125 32 16 16 (1024000)
I0817 16:05:12.179754 17621 net.cpp:165] Memory required for data: 970241500
I0817 16:05:12.179762 17621 layer_factory.hpp:77] Creating layer L2_b3_sum_eltwise
I0817 16:05:12.179774 17621 net.cpp:100] Creating Layer L2_b3_sum_eltwise
I0817 16:05:12.179781 17621 net.cpp:434] L2_b3_sum_eltwise <- L2_b3_cbr2_bn_top
I0817 16:05:12.179787 17621 net.cpp:434] L2_b3_sum_eltwise <- L2_b2_sum_eltwise_top_L2_b2_relu_0_split_1
I0817 16:05:12.179802 17621 net.cpp:408] L2_b3_sum_eltwise -> L2_b3_sum_eltwise_top
I0817 16:05:12.179831 17621 net.cpp:150] Setting up L2_b3_sum_eltwise
I0817 16:05:12.179839 17621 net.cpp:157] Top shape: 125 32 16 16 (1024000)
I0817 16:05:12.179844 17621 net.cpp:165] Memory required for data: 974337500
I0817 16:05:12.179849 17621 layer_factory.hpp:77] Creating layer L2_b3_relu
I0817 16:05:12.179877 17621 net.cpp:100] Creating Layer L2_b3_relu
I0817 16:05:12.179883 17621 net.cpp:434] L2_b3_relu <- L2_b3_sum_eltwise_top
I0817 16:05:12.179890 17621 net.cpp:395] L2_b3_relu -> L2_b3_sum_eltwise_top (in-place)
I0817 16:05:12.179899 17621 net.cpp:150] Setting up L2_b3_relu
I0817 16:05:12.179906 17621 net.cpp:157] Top shape: 125 32 16 16 (1024000)
I0817 16:05:12.179911 17621 net.cpp:165] Memory required for data: 978433500
I0817 16:05:12.179916 17621 layer_factory.hpp:77] Creating layer L2_b3_sum_eltwise_top_L2_b3_relu_0_split
I0817 16:05:12.179924 17621 net.cpp:100] Creating Layer L2_b3_sum_eltwise_top_L2_b3_relu_0_split
I0817 16:05:12.179929 17621 net.cpp:434] L2_b3_sum_eltwise_top_L2_b3_relu_0_split <- L2_b3_sum_eltwise_top
I0817 16:05:12.179935 17621 net.cpp:408] L2_b3_sum_eltwise_top_L2_b3_relu_0_split -> L2_b3_sum_eltwise_top_L2_b3_relu_0_split_0
I0817 16:05:12.179945 17621 net.cpp:408] L2_b3_sum_eltwise_top_L2_b3_relu_0_split -> L2_b3_sum_eltwise_top_L2_b3_relu_0_split_1
I0817 16:05:12.179996 17621 net.cpp:150] Setting up L2_b3_sum_eltwise_top_L2_b3_relu_0_split
I0817 16:05:12.180007 17621 net.cpp:157] Top shape: 125 32 16 16 (1024000)
I0817 16:05:12.180014 17621 net.cpp:157] Top shape: 125 32 16 16 (1024000)
I0817 16:05:12.180018 17621 net.cpp:165] Memory required for data: 986625500
I0817 16:05:12.180023 17621 layer_factory.hpp:77] Creating layer L2_b4_cbr1_conv
I0817 16:05:12.180038 17621 net.cpp:100] Creating Layer L2_b4_cbr1_conv
I0817 16:05:12.180044 17621 net.cpp:434] L2_b4_cbr1_conv <- L2_b3_sum_eltwise_top_L2_b3_relu_0_split_0
I0817 16:05:12.180053 17621 net.cpp:408] L2_b4_cbr1_conv -> L2_b4_cbr1_conv_top
I0817 16:05:12.180517 17621 net.cpp:150] Setting up L2_b4_cbr1_conv
I0817 16:05:12.180531 17621 net.cpp:157] Top shape: 125 32 16 16 (1024000)
I0817 16:05:12.180536 17621 net.cpp:165] Memory required for data: 990721500
I0817 16:05:12.180546 17621 layer_factory.hpp:77] Creating layer L2_b4_cbr1_bn
I0817 16:05:12.180557 17621 net.cpp:100] Creating Layer L2_b4_cbr1_bn
I0817 16:05:12.180563 17621 net.cpp:434] L2_b4_cbr1_bn <- L2_b4_cbr1_conv_top
I0817 16:05:12.180572 17621 net.cpp:408] L2_b4_cbr1_bn -> L2_b4_cbr1_bn_top
I0817 16:05:12.180824 17621 net.cpp:150] Setting up L2_b4_cbr1_bn
I0817 16:05:12.180840 17621 net.cpp:157] Top shape: 125 32 16 16 (1024000)
I0817 16:05:12.180846 17621 net.cpp:165] Memory required for data: 994817500
I0817 16:05:12.180856 17621 layer_factory.hpp:77] Creating layer L2_b4_cbr1_scale
I0817 16:05:12.180866 17621 net.cpp:100] Creating Layer L2_b4_cbr1_scale
I0817 16:05:12.180871 17621 net.cpp:434] L2_b4_cbr1_scale <- L2_b4_cbr1_bn_top
I0817 16:05:12.180878 17621 net.cpp:395] L2_b4_cbr1_scale -> L2_b4_cbr1_bn_top (in-place)
I0817 16:05:12.180932 17621 layer_factory.hpp:77] Creating layer L2_b4_cbr1_scale
I0817 16:05:12.181079 17621 net.cpp:150] Setting up L2_b4_cbr1_scale
I0817 16:05:12.181092 17621 net.cpp:157] Top shape: 125 32 16 16 (1024000)
I0817 16:05:12.181097 17621 net.cpp:165] Memory required for data: 998913500
I0817 16:05:12.181107 17621 layer_factory.hpp:77] Creating layer L2_b4_cbr1_relu
I0817 16:05:12.181114 17621 net.cpp:100] Creating Layer L2_b4_cbr1_relu
I0817 16:05:12.181120 17621 net.cpp:434] L2_b4_cbr1_relu <- L2_b4_cbr1_bn_top
I0817 16:05:12.181130 17621 net.cpp:395] L2_b4_cbr1_relu -> L2_b4_cbr1_bn_top (in-place)
I0817 16:05:12.181140 17621 net.cpp:150] Setting up L2_b4_cbr1_relu
I0817 16:05:12.181147 17621 net.cpp:157] Top shape: 125 32 16 16 (1024000)
I0817 16:05:12.181152 17621 net.cpp:165] Memory required for data: 1003009500
I0817 16:05:12.181157 17621 layer_factory.hpp:77] Creating layer L2_b4_cbr2_conv
I0817 16:05:12.181177 17621 net.cpp:100] Creating Layer L2_b4_cbr2_conv
I0817 16:05:12.181185 17621 net.cpp:434] L2_b4_cbr2_conv <- L2_b4_cbr1_bn_top
I0817 16:05:12.181193 17621 net.cpp:408] L2_b4_cbr2_conv -> L2_b4_cbr2_conv_top
I0817 16:05:12.181646 17621 net.cpp:150] Setting up L2_b4_cbr2_conv
I0817 16:05:12.181660 17621 net.cpp:157] Top shape: 125 32 16 16 (1024000)
I0817 16:05:12.181665 17621 net.cpp:165] Memory required for data: 1007105500
I0817 16:05:12.181674 17621 layer_factory.hpp:77] Creating layer L2_b4_cbr2_bn
I0817 16:05:12.181695 17621 net.cpp:100] Creating Layer L2_b4_cbr2_bn
I0817 16:05:12.181704 17621 net.cpp:434] L2_b4_cbr2_bn <- L2_b4_cbr2_conv_top
I0817 16:05:12.181711 17621 net.cpp:408] L2_b4_cbr2_bn -> L2_b4_cbr2_bn_top
I0817 16:05:12.181960 17621 net.cpp:150] Setting up L2_b4_cbr2_bn
I0817 16:05:12.181973 17621 net.cpp:157] Top shape: 125 32 16 16 (1024000)
I0817 16:05:12.181978 17621 net.cpp:165] Memory required for data: 1011201500
I0817 16:05:12.181989 17621 layer_factory.hpp:77] Creating layer L2_b4_cbr2_scale
I0817 16:05:12.182000 17621 net.cpp:100] Creating Layer L2_b4_cbr2_scale
I0817 16:05:12.182006 17621 net.cpp:434] L2_b4_cbr2_scale <- L2_b4_cbr2_bn_top
I0817 16:05:12.182014 17621 net.cpp:395] L2_b4_cbr2_scale -> L2_b4_cbr2_bn_top (in-place)
I0817 16:05:12.182068 17621 layer_factory.hpp:77] Creating layer L2_b4_cbr2_scale
I0817 16:05:12.182214 17621 net.cpp:150] Setting up L2_b4_cbr2_scale
I0817 16:05:12.182227 17621 net.cpp:157] Top shape: 125 32 16 16 (1024000)
I0817 16:05:12.182232 17621 net.cpp:165] Memory required for data: 1015297500
I0817 16:05:12.182241 17621 layer_factory.hpp:77] Creating layer L2_b4_sum_eltwise
I0817 16:05:12.182252 17621 net.cpp:100] Creating Layer L2_b4_sum_eltwise
I0817 16:05:12.182260 17621 net.cpp:434] L2_b4_sum_eltwise <- L2_b4_cbr2_bn_top
I0817 16:05:12.182265 17621 net.cpp:434] L2_b4_sum_eltwise <- L2_b3_sum_eltwise_top_L2_b3_relu_0_split_1
I0817 16:05:12.182276 17621 net.cpp:408] L2_b4_sum_eltwise -> L2_b4_sum_eltwise_top
I0817 16:05:12.182302 17621 net.cpp:150] Setting up L2_b4_sum_eltwise
I0817 16:05:12.182312 17621 net.cpp:157] Top shape: 125 32 16 16 (1024000)
I0817 16:05:12.182317 17621 net.cpp:165] Memory required for data: 1019393500
I0817 16:05:12.182322 17621 layer_factory.hpp:77] Creating layer L2_b4_relu
I0817 16:05:12.182329 17621 net.cpp:100] Creating Layer L2_b4_relu
I0817 16:05:12.182334 17621 net.cpp:434] L2_b4_relu <- L2_b4_sum_eltwise_top
I0817 16:05:12.182344 17621 net.cpp:395] L2_b4_relu -> L2_b4_sum_eltwise_top (in-place)
I0817 16:05:12.182354 17621 net.cpp:150] Setting up L2_b4_relu
I0817 16:05:12.182361 17621 net.cpp:157] Top shape: 125 32 16 16 (1024000)
I0817 16:05:12.182365 17621 net.cpp:165] Memory required for data: 1023489500
I0817 16:05:12.182370 17621 layer_factory.hpp:77] Creating layer L2_b4_sum_eltwise_top_L2_b4_relu_0_split
I0817 16:05:12.182377 17621 net.cpp:100] Creating Layer L2_b4_sum_eltwise_top_L2_b4_relu_0_split
I0817 16:05:12.182382 17621 net.cpp:434] L2_b4_sum_eltwise_top_L2_b4_relu_0_split <- L2_b4_sum_eltwise_top
I0817 16:05:12.182389 17621 net.cpp:408] L2_b4_sum_eltwise_top_L2_b4_relu_0_split -> L2_b4_sum_eltwise_top_L2_b4_relu_0_split_0
I0817 16:05:12.182399 17621 net.cpp:408] L2_b4_sum_eltwise_top_L2_b4_relu_0_split -> L2_b4_sum_eltwise_top_L2_b4_relu_0_split_1
I0817 16:05:12.182446 17621 net.cpp:150] Setting up L2_b4_sum_eltwise_top_L2_b4_relu_0_split
I0817 16:05:12.182457 17621 net.cpp:157] Top shape: 125 32 16 16 (1024000)
I0817 16:05:12.182463 17621 net.cpp:157] Top shape: 125 32 16 16 (1024000)
I0817 16:05:12.182468 17621 net.cpp:165] Memory required for data: 1031681500
I0817 16:05:12.182473 17621 layer_factory.hpp:77] Creating layer L2_b5_cbr1_conv
I0817 16:05:12.182484 17621 net.cpp:100] Creating Layer L2_b5_cbr1_conv
I0817 16:05:12.182490 17621 net.cpp:434] L2_b5_cbr1_conv <- L2_b4_sum_eltwise_top_L2_b4_relu_0_split_0
I0817 16:05:12.182502 17621 net.cpp:408] L2_b5_cbr1_conv -> L2_b5_cbr1_conv_top
I0817 16:05:12.182968 17621 net.cpp:150] Setting up L2_b5_cbr1_conv
I0817 16:05:12.182989 17621 net.cpp:157] Top shape: 125 32 16 16 (1024000)
I0817 16:05:12.182994 17621 net.cpp:165] Memory required for data: 1035777500
I0817 16:05:12.183003 17621 layer_factory.hpp:77] Creating layer L2_b5_cbr1_bn
I0817 16:05:12.183015 17621 net.cpp:100] Creating Layer L2_b5_cbr1_bn
I0817 16:05:12.183022 17621 net.cpp:434] L2_b5_cbr1_bn <- L2_b5_cbr1_conv_top
I0817 16:05:12.183030 17621 net.cpp:408] L2_b5_cbr1_bn -> L2_b5_cbr1_bn_top
I0817 16:05:12.183279 17621 net.cpp:150] Setting up L2_b5_cbr1_bn
I0817 16:05:12.183297 17621 net.cpp:157] Top shape: 125 32 16 16 (1024000)
I0817 16:05:12.183302 17621 net.cpp:165] Memory required for data: 1039873500
I0817 16:05:12.183313 17621 layer_factory.hpp:77] Creating layer L2_b5_cbr1_scale
I0817 16:05:12.183322 17621 net.cpp:100] Creating Layer L2_b5_cbr1_scale
I0817 16:05:12.183328 17621 net.cpp:434] L2_b5_cbr1_scale <- L2_b5_cbr1_bn_top
I0817 16:05:12.183336 17621 net.cpp:395] L2_b5_cbr1_scale -> L2_b5_cbr1_bn_top (in-place)
I0817 16:05:12.183389 17621 layer_factory.hpp:77] Creating layer L2_b5_cbr1_scale
I0817 16:05:12.183540 17621 net.cpp:150] Setting up L2_b5_cbr1_scale
I0817 16:05:12.183553 17621 net.cpp:157] Top shape: 125 32 16 16 (1024000)
I0817 16:05:12.183558 17621 net.cpp:165] Memory required for data: 1043969500
I0817 16:05:12.183567 17621 layer_factory.hpp:77] Creating layer L2_b5_cbr1_relu
I0817 16:05:12.183575 17621 net.cpp:100] Creating Layer L2_b5_cbr1_relu
I0817 16:05:12.183581 17621 net.cpp:434] L2_b5_cbr1_relu <- L2_b5_cbr1_bn_top
I0817 16:05:12.183591 17621 net.cpp:395] L2_b5_cbr1_relu -> L2_b5_cbr1_bn_top (in-place)
I0817 16:05:12.183600 17621 net.cpp:150] Setting up L2_b5_cbr1_relu
I0817 16:05:12.183607 17621 net.cpp:157] Top shape: 125 32 16 16 (1024000)
I0817 16:05:12.183612 17621 net.cpp:165] Memory required for data: 1048065500
I0817 16:05:12.183617 17621 layer_factory.hpp:77] Creating layer L2_b5_cbr2_conv
I0817 16:05:12.183629 17621 net.cpp:100] Creating Layer L2_b5_cbr2_conv
I0817 16:05:12.183634 17621 net.cpp:434] L2_b5_cbr2_conv <- L2_b5_cbr1_bn_top
I0817 16:05:12.183645 17621 net.cpp:408] L2_b5_cbr2_conv -> L2_b5_cbr2_conv_top
I0817 16:05:12.184110 17621 net.cpp:150] Setting up L2_b5_cbr2_conv
I0817 16:05:12.184124 17621 net.cpp:157] Top shape: 125 32 16 16 (1024000)
I0817 16:05:12.184130 17621 net.cpp:165] Memory required for data: 1052161500
I0817 16:05:12.184139 17621 layer_factory.hpp:77] Creating layer L2_b5_cbr2_bn
I0817 16:05:12.184149 17621 net.cpp:100] Creating Layer L2_b5_cbr2_bn
I0817 16:05:12.184154 17621 net.cpp:434] L2_b5_cbr2_bn <- L2_b5_cbr2_conv_top
I0817 16:05:12.184165 17621 net.cpp:408] L2_b5_cbr2_bn -> L2_b5_cbr2_bn_top
I0817 16:05:12.184411 17621 net.cpp:150] Setting up L2_b5_cbr2_bn
I0817 16:05:12.184423 17621 net.cpp:157] Top shape: 125 32 16 16 (1024000)
I0817 16:05:12.184428 17621 net.cpp:165] Memory required for data: 1056257500
I0817 16:05:12.184438 17621 layer_factory.hpp:77] Creating layer L2_b5_cbr2_scale
I0817 16:05:12.184450 17621 net.cpp:100] Creating Layer L2_b5_cbr2_scale
I0817 16:05:12.184456 17621 net.cpp:434] L2_b5_cbr2_scale <- L2_b5_cbr2_bn_top
I0817 16:05:12.184464 17621 net.cpp:395] L2_b5_cbr2_scale -> L2_b5_cbr2_bn_top (in-place)
I0817 16:05:12.184518 17621 layer_factory.hpp:77] Creating layer L2_b5_cbr2_scale
I0817 16:05:12.184665 17621 net.cpp:150] Setting up L2_b5_cbr2_scale
I0817 16:05:12.184679 17621 net.cpp:157] Top shape: 125 32 16 16 (1024000)
I0817 16:05:12.184689 17621 net.cpp:165] Memory required for data: 1060353500
I0817 16:05:12.184698 17621 layer_factory.hpp:77] Creating layer L2_b5_sum_eltwise
I0817 16:05:12.184711 17621 net.cpp:100] Creating Layer L2_b5_sum_eltwise
I0817 16:05:12.184717 17621 net.cpp:434] L2_b5_sum_eltwise <- L2_b5_cbr2_bn_top
I0817 16:05:12.184725 17621 net.cpp:434] L2_b5_sum_eltwise <- L2_b4_sum_eltwise_top_L2_b4_relu_0_split_1
I0817 16:05:12.184734 17621 net.cpp:408] L2_b5_sum_eltwise -> L2_b5_sum_eltwise_top
I0817 16:05:12.184762 17621 net.cpp:150] Setting up L2_b5_sum_eltwise
I0817 16:05:12.184772 17621 net.cpp:157] Top shape: 125 32 16 16 (1024000)
I0817 16:05:12.184783 17621 net.cpp:165] Memory required for data: 1064449500
I0817 16:05:12.184789 17621 layer_factory.hpp:77] Creating layer L2_b5_relu
I0817 16:05:12.184797 17621 net.cpp:100] Creating Layer L2_b5_relu
I0817 16:05:12.184803 17621 net.cpp:434] L2_b5_relu <- L2_b5_sum_eltwise_top
I0817 16:05:12.184814 17621 net.cpp:395] L2_b5_relu -> L2_b5_sum_eltwise_top (in-place)
I0817 16:05:12.184824 17621 net.cpp:150] Setting up L2_b5_relu
I0817 16:05:12.184831 17621 net.cpp:157] Top shape: 125 32 16 16 (1024000)
I0817 16:05:12.184835 17621 net.cpp:165] Memory required for data: 1068545500
I0817 16:05:12.184840 17621 layer_factory.hpp:77] Creating layer L2_b5_sum_eltwise_top_L2_b5_relu_0_split
I0817 16:05:12.184847 17621 net.cpp:100] Creating Layer L2_b5_sum_eltwise_top_L2_b5_relu_0_split
I0817 16:05:12.184854 17621 net.cpp:434] L2_b5_sum_eltwise_top_L2_b5_relu_0_split <- L2_b5_sum_eltwise_top
I0817 16:05:12.184860 17621 net.cpp:408] L2_b5_sum_eltwise_top_L2_b5_relu_0_split -> L2_b5_sum_eltwise_top_L2_b5_relu_0_split_0
I0817 16:05:12.184870 17621 net.cpp:408] L2_b5_sum_eltwise_top_L2_b5_relu_0_split -> L2_b5_sum_eltwise_top_L2_b5_relu_0_split_1
I0817 16:05:12.184917 17621 net.cpp:150] Setting up L2_b5_sum_eltwise_top_L2_b5_relu_0_split
I0817 16:05:12.184929 17621 net.cpp:157] Top shape: 125 32 16 16 (1024000)
I0817 16:05:12.184936 17621 net.cpp:157] Top shape: 125 32 16 16 (1024000)
I0817 16:05:12.184940 17621 net.cpp:165] Memory required for data: 1076737500
I0817 16:05:12.184945 17621 layer_factory.hpp:77] Creating layer L2_b6_cbr1_conv
I0817 16:05:12.184957 17621 net.cpp:100] Creating Layer L2_b6_cbr1_conv
I0817 16:05:12.184962 17621 net.cpp:434] L2_b6_cbr1_conv <- L2_b5_sum_eltwise_top_L2_b5_relu_0_split_0
I0817 16:05:12.184973 17621 net.cpp:408] L2_b6_cbr1_conv -> L2_b6_cbr1_conv_top
I0817 16:05:12.185439 17621 net.cpp:150] Setting up L2_b6_cbr1_conv
I0817 16:05:12.185454 17621 net.cpp:157] Top shape: 125 32 16 16 (1024000)
I0817 16:05:12.185458 17621 net.cpp:165] Memory required for data: 1080833500
I0817 16:05:12.185468 17621 layer_factory.hpp:77] Creating layer L2_b6_cbr1_bn
I0817 16:05:12.185480 17621 net.cpp:100] Creating Layer L2_b6_cbr1_bn
I0817 16:05:12.185487 17621 net.cpp:434] L2_b6_cbr1_bn <- L2_b6_cbr1_conv_top
I0817 16:05:12.185494 17621 net.cpp:408] L2_b6_cbr1_bn -> L2_b6_cbr1_bn_top
I0817 16:05:12.185755 17621 net.cpp:150] Setting up L2_b6_cbr1_bn
I0817 16:05:12.185770 17621 net.cpp:157] Top shape: 125 32 16 16 (1024000)
I0817 16:05:12.185775 17621 net.cpp:165] Memory required for data: 1084929500
I0817 16:05:12.185786 17621 layer_factory.hpp:77] Creating layer L2_b6_cbr1_scale
I0817 16:05:12.185796 17621 net.cpp:100] Creating Layer L2_b6_cbr1_scale
I0817 16:05:12.185802 17621 net.cpp:434] L2_b6_cbr1_scale <- L2_b6_cbr1_bn_top
I0817 16:05:12.185811 17621 net.cpp:395] L2_b6_cbr1_scale -> L2_b6_cbr1_bn_top (in-place)
I0817 16:05:12.185865 17621 layer_factory.hpp:77] Creating layer L2_b6_cbr1_scale
I0817 16:05:12.186012 17621 net.cpp:150] Setting up L2_b6_cbr1_scale
I0817 16:05:12.186025 17621 net.cpp:157] Top shape: 125 32 16 16 (1024000)
I0817 16:05:12.186030 17621 net.cpp:165] Memory required for data: 1089025500
I0817 16:05:12.186039 17621 layer_factory.hpp:77] Creating layer L2_b6_cbr1_relu
I0817 16:05:12.186049 17621 net.cpp:100] Creating Layer L2_b6_cbr1_relu
I0817 16:05:12.186056 17621 net.cpp:434] L2_b6_cbr1_relu <- L2_b6_cbr1_bn_top
I0817 16:05:12.186065 17621 net.cpp:395] L2_b6_cbr1_relu -> L2_b6_cbr1_bn_top (in-place)
I0817 16:05:12.186075 17621 net.cpp:150] Setting up L2_b6_cbr1_relu
I0817 16:05:12.186082 17621 net.cpp:157] Top shape: 125 32 16 16 (1024000)
I0817 16:05:12.186087 17621 net.cpp:165] Memory required for data: 1093121500
I0817 16:05:12.186092 17621 layer_factory.hpp:77] Creating layer L2_b6_cbr2_conv
I0817 16:05:12.186102 17621 net.cpp:100] Creating Layer L2_b6_cbr2_conv
I0817 16:05:12.186108 17621 net.cpp:434] L2_b6_cbr2_conv <- L2_b6_cbr1_bn_top
I0817 16:05:12.186120 17621 net.cpp:408] L2_b6_cbr2_conv -> L2_b6_cbr2_conv_top
I0817 16:05:12.186574 17621 net.cpp:150] Setting up L2_b6_cbr2_conv
I0817 16:05:12.186595 17621 net.cpp:157] Top shape: 125 32 16 16 (1024000)
I0817 16:05:12.186600 17621 net.cpp:165] Memory required for data: 1097217500
I0817 16:05:12.186609 17621 layer_factory.hpp:77] Creating layer L2_b6_cbr2_bn
I0817 16:05:12.186619 17621 net.cpp:100] Creating Layer L2_b6_cbr2_bn
I0817 16:05:12.186625 17621 net.cpp:434] L2_b6_cbr2_bn <- L2_b6_cbr2_conv_top
I0817 16:05:12.186636 17621 net.cpp:408] L2_b6_cbr2_bn -> L2_b6_cbr2_bn_top
I0817 16:05:12.186890 17621 net.cpp:150] Setting up L2_b6_cbr2_bn
I0817 16:05:12.186904 17621 net.cpp:157] Top shape: 125 32 16 16 (1024000)
I0817 16:05:12.186909 17621 net.cpp:165] Memory required for data: 1101313500
I0817 16:05:12.186920 17621 layer_factory.hpp:77] Creating layer L2_b6_cbr2_scale
I0817 16:05:12.186931 17621 net.cpp:100] Creating Layer L2_b6_cbr2_scale
I0817 16:05:12.186938 17621 net.cpp:434] L2_b6_cbr2_scale <- L2_b6_cbr2_bn_top
I0817 16:05:12.186945 17621 net.cpp:395] L2_b6_cbr2_scale -> L2_b6_cbr2_bn_top (in-place)
I0817 16:05:12.187000 17621 layer_factory.hpp:77] Creating layer L2_b6_cbr2_scale
I0817 16:05:12.187146 17621 net.cpp:150] Setting up L2_b6_cbr2_scale
I0817 16:05:12.187160 17621 net.cpp:157] Top shape: 125 32 16 16 (1024000)
I0817 16:05:12.187165 17621 net.cpp:165] Memory required for data: 1105409500
I0817 16:05:12.187172 17621 layer_factory.hpp:77] Creating layer L2_b6_sum_eltwise
I0817 16:05:12.187185 17621 net.cpp:100] Creating Layer L2_b6_sum_eltwise
I0817 16:05:12.187191 17621 net.cpp:434] L2_b6_sum_eltwise <- L2_b6_cbr2_bn_top
I0817 16:05:12.187198 17621 net.cpp:434] L2_b6_sum_eltwise <- L2_b5_sum_eltwise_top_L2_b5_relu_0_split_1
I0817 16:05:12.187206 17621 net.cpp:408] L2_b6_sum_eltwise -> L2_b6_sum_eltwise_top
I0817 16:05:12.187234 17621 net.cpp:150] Setting up L2_b6_sum_eltwise
I0817 16:05:12.187244 17621 net.cpp:157] Top shape: 125 32 16 16 (1024000)
I0817 16:05:12.187248 17621 net.cpp:165] Memory required for data: 1109505500
I0817 16:05:12.187253 17621 layer_factory.hpp:77] Creating layer L2_b6_relu
I0817 16:05:12.187261 17621 net.cpp:100] Creating Layer L2_b6_relu
I0817 16:05:12.187266 17621 net.cpp:434] L2_b6_relu <- L2_b6_sum_eltwise_top
I0817 16:05:12.187276 17621 net.cpp:395] L2_b6_relu -> L2_b6_sum_eltwise_top (in-place)
I0817 16:05:12.187286 17621 net.cpp:150] Setting up L2_b6_relu
I0817 16:05:12.187294 17621 net.cpp:157] Top shape: 125 32 16 16 (1024000)
I0817 16:05:12.187297 17621 net.cpp:165] Memory required for data: 1113601500
I0817 16:05:12.187302 17621 layer_factory.hpp:77] Creating layer L2_b6_sum_eltwise_top_L2_b6_relu_0_split
I0817 16:05:12.187309 17621 net.cpp:100] Creating Layer L2_b6_sum_eltwise_top_L2_b6_relu_0_split
I0817 16:05:12.187314 17621 net.cpp:434] L2_b6_sum_eltwise_top_L2_b6_relu_0_split <- L2_b6_sum_eltwise_top
I0817 16:05:12.187321 17621 net.cpp:408] L2_b6_sum_eltwise_top_L2_b6_relu_0_split -> L2_b6_sum_eltwise_top_L2_b6_relu_0_split_0
I0817 16:05:12.187330 17621 net.cpp:408] L2_b6_sum_eltwise_top_L2_b6_relu_0_split -> L2_b6_sum_eltwise_top_L2_b6_relu_0_split_1
I0817 16:05:12.187376 17621 net.cpp:150] Setting up L2_b6_sum_eltwise_top_L2_b6_relu_0_split
I0817 16:05:12.187388 17621 net.cpp:157] Top shape: 125 32 16 16 (1024000)
I0817 16:05:12.187396 17621 net.cpp:157] Top shape: 125 32 16 16 (1024000)
I0817 16:05:12.187399 17621 net.cpp:165] Memory required for data: 1121793500
I0817 16:05:12.187405 17621 layer_factory.hpp:77] Creating layer L2_b7_cbr1_conv
I0817 16:05:12.187417 17621 net.cpp:100] Creating Layer L2_b7_cbr1_conv
I0817 16:05:12.187422 17621 net.cpp:434] L2_b7_cbr1_conv <- L2_b6_sum_eltwise_top_L2_b6_relu_0_split_0
I0817 16:05:12.187434 17621 net.cpp:408] L2_b7_cbr1_conv -> L2_b7_cbr1_conv_top
I0817 16:05:12.187906 17621 net.cpp:150] Setting up L2_b7_cbr1_conv
I0817 16:05:12.187922 17621 net.cpp:157] Top shape: 125 32 16 16 (1024000)
I0817 16:05:12.187927 17621 net.cpp:165] Memory required for data: 1125889500
I0817 16:05:12.187935 17621 layer_factory.hpp:77] Creating layer L2_b7_cbr1_bn
I0817 16:05:12.187944 17621 net.cpp:100] Creating Layer L2_b7_cbr1_bn
I0817 16:05:12.187958 17621 net.cpp:434] L2_b7_cbr1_bn <- L2_b7_cbr1_conv_top
I0817 16:05:12.187968 17621 net.cpp:408] L2_b7_cbr1_bn -> L2_b7_cbr1_bn_top
I0817 16:05:12.188220 17621 net.cpp:150] Setting up L2_b7_cbr1_bn
I0817 16:05:12.188235 17621 net.cpp:157] Top shape: 125 32 16 16 (1024000)
I0817 16:05:12.188239 17621 net.cpp:165] Memory required for data: 1129985500
I0817 16:05:12.188249 17621 layer_factory.hpp:77] Creating layer L2_b7_cbr1_scale
I0817 16:05:12.188261 17621 net.cpp:100] Creating Layer L2_b7_cbr1_scale
I0817 16:05:12.188266 17621 net.cpp:434] L2_b7_cbr1_scale <- L2_b7_cbr1_bn_top
I0817 16:05:12.188274 17621 net.cpp:395] L2_b7_cbr1_scale -> L2_b7_cbr1_bn_top (in-place)
I0817 16:05:12.188329 17621 layer_factory.hpp:77] Creating layer L2_b7_cbr1_scale
I0817 16:05:12.188480 17621 net.cpp:150] Setting up L2_b7_cbr1_scale
I0817 16:05:12.188493 17621 net.cpp:157] Top shape: 125 32 16 16 (1024000)
I0817 16:05:12.188498 17621 net.cpp:165] Memory required for data: 1134081500
I0817 16:05:12.188508 17621 layer_factory.hpp:77] Creating layer L2_b7_cbr1_relu
I0817 16:05:12.188519 17621 net.cpp:100] Creating Layer L2_b7_cbr1_relu
I0817 16:05:12.188525 17621 net.cpp:434] L2_b7_cbr1_relu <- L2_b7_cbr1_bn_top
I0817 16:05:12.188534 17621 net.cpp:395] L2_b7_cbr1_relu -> L2_b7_cbr1_bn_top (in-place)
I0817 16:05:12.188544 17621 net.cpp:150] Setting up L2_b7_cbr1_relu
I0817 16:05:12.188549 17621 net.cpp:157] Top shape: 125 32 16 16 (1024000)
I0817 16:05:12.188555 17621 net.cpp:165] Memory required for data: 1138177500
I0817 16:05:12.188560 17621 layer_factory.hpp:77] Creating layer L2_b7_cbr2_conv
I0817 16:05:12.188573 17621 net.cpp:100] Creating Layer L2_b7_cbr2_conv
I0817 16:05:12.188580 17621 net.cpp:434] L2_b7_cbr2_conv <- L2_b7_cbr1_bn_top
I0817 16:05:12.188591 17621 net.cpp:408] L2_b7_cbr2_conv -> L2_b7_cbr2_conv_top
I0817 16:05:12.189064 17621 net.cpp:150] Setting up L2_b7_cbr2_conv
I0817 16:05:12.189077 17621 net.cpp:157] Top shape: 125 32 16 16 (1024000)
I0817 16:05:12.189082 17621 net.cpp:165] Memory required for data: 1142273500
I0817 16:05:12.189091 17621 layer_factory.hpp:77] Creating layer L2_b7_cbr2_bn
I0817 16:05:12.189100 17621 net.cpp:100] Creating Layer L2_b7_cbr2_bn
I0817 16:05:12.189106 17621 net.cpp:434] L2_b7_cbr2_bn <- L2_b7_cbr2_conv_top
I0817 16:05:12.189118 17621 net.cpp:408] L2_b7_cbr2_bn -> L2_b7_cbr2_bn_top
I0817 16:05:12.189368 17621 net.cpp:150] Setting up L2_b7_cbr2_bn
I0817 16:05:12.189380 17621 net.cpp:157] Top shape: 125 32 16 16 (1024000)
I0817 16:05:12.189385 17621 net.cpp:165] Memory required for data: 1146369500
I0817 16:05:12.189395 17621 layer_factory.hpp:77] Creating layer L2_b7_cbr2_scale
I0817 16:05:12.189409 17621 net.cpp:100] Creating Layer L2_b7_cbr2_scale
I0817 16:05:12.189414 17621 net.cpp:434] L2_b7_cbr2_scale <- L2_b7_cbr2_bn_top
I0817 16:05:12.189422 17621 net.cpp:395] L2_b7_cbr2_scale -> L2_b7_cbr2_bn_top (in-place)
I0817 16:05:12.189476 17621 layer_factory.hpp:77] Creating layer L2_b7_cbr2_scale
I0817 16:05:12.189626 17621 net.cpp:150] Setting up L2_b7_cbr2_scale
I0817 16:05:12.189640 17621 net.cpp:157] Top shape: 125 32 16 16 (1024000)
I0817 16:05:12.189644 17621 net.cpp:165] Memory required for data: 1150465500
I0817 16:05:12.189653 17621 layer_factory.hpp:77] Creating layer L2_b7_sum_eltwise
I0817 16:05:12.189664 17621 net.cpp:100] Creating Layer L2_b7_sum_eltwise
I0817 16:05:12.189671 17621 net.cpp:434] L2_b7_sum_eltwise <- L2_b7_cbr2_bn_top
I0817 16:05:12.189678 17621 net.cpp:434] L2_b7_sum_eltwise <- L2_b6_sum_eltwise_top_L2_b6_relu_0_split_1
I0817 16:05:12.189692 17621 net.cpp:408] L2_b7_sum_eltwise -> L2_b7_sum_eltwise_top
I0817 16:05:12.189723 17621 net.cpp:150] Setting up L2_b7_sum_eltwise
I0817 16:05:12.189733 17621 net.cpp:157] Top shape: 125 32 16 16 (1024000)
I0817 16:05:12.189738 17621 net.cpp:165] Memory required for data: 1154561500
I0817 16:05:12.189743 17621 layer_factory.hpp:77] Creating layer L2_b7_relu
I0817 16:05:12.189751 17621 net.cpp:100] Creating Layer L2_b7_relu
I0817 16:05:12.189756 17621 net.cpp:434] L2_b7_relu <- L2_b7_sum_eltwise_top
I0817 16:05:12.189770 17621 net.cpp:395] L2_b7_relu -> L2_b7_sum_eltwise_top (in-place)
I0817 16:05:12.189784 17621 net.cpp:150] Setting up L2_b7_relu
I0817 16:05:12.189790 17621 net.cpp:157] Top shape: 125 32 16 16 (1024000)
I0817 16:05:12.189795 17621 net.cpp:165] Memory required for data: 1158657500
I0817 16:05:12.189800 17621 layer_factory.hpp:77] Creating layer L2_b7_sum_eltwise_top_L2_b7_relu_0_split
I0817 16:05:12.189806 17621 net.cpp:100] Creating Layer L2_b7_sum_eltwise_top_L2_b7_relu_0_split
I0817 16:05:12.189812 17621 net.cpp:434] L2_b7_sum_eltwise_top_L2_b7_relu_0_split <- L2_b7_sum_eltwise_top
I0817 16:05:12.189820 17621 net.cpp:408] L2_b7_sum_eltwise_top_L2_b7_relu_0_split -> L2_b7_sum_eltwise_top_L2_b7_relu_0_split_0
I0817 16:05:12.189829 17621 net.cpp:408] L2_b7_sum_eltwise_top_L2_b7_relu_0_split -> L2_b7_sum_eltwise_top_L2_b7_relu_0_split_1
I0817 16:05:12.189878 17621 net.cpp:150] Setting up L2_b7_sum_eltwise_top_L2_b7_relu_0_split
I0817 16:05:12.189890 17621 net.cpp:157] Top shape: 125 32 16 16 (1024000)
I0817 16:05:12.189896 17621 net.cpp:157] Top shape: 125 32 16 16 (1024000)
I0817 16:05:12.189901 17621 net.cpp:165] Memory required for data: 1166849500
I0817 16:05:12.189906 17621 layer_factory.hpp:77] Creating layer L2_b8_cbr1_conv
I0817 16:05:12.189918 17621 net.cpp:100] Creating Layer L2_b8_cbr1_conv
I0817 16:05:12.189924 17621 net.cpp:434] L2_b8_cbr1_conv <- L2_b7_sum_eltwise_top_L2_b7_relu_0_split_0
I0817 16:05:12.189937 17621 net.cpp:408] L2_b8_cbr1_conv -> L2_b8_cbr1_conv_top
I0817 16:05:12.190405 17621 net.cpp:150] Setting up L2_b8_cbr1_conv
I0817 16:05:12.190419 17621 net.cpp:157] Top shape: 125 32 16 16 (1024000)
I0817 16:05:12.190424 17621 net.cpp:165] Memory required for data: 1170945500
I0817 16:05:12.190433 17621 layer_factory.hpp:77] Creating layer L2_b8_cbr1_bn
I0817 16:05:12.190443 17621 net.cpp:100] Creating Layer L2_b8_cbr1_bn
I0817 16:05:12.190448 17621 net.cpp:434] L2_b8_cbr1_bn <- L2_b8_cbr1_conv_top
I0817 16:05:12.190459 17621 net.cpp:408] L2_b8_cbr1_bn -> L2_b8_cbr1_bn_top
I0817 16:05:12.190717 17621 net.cpp:150] Setting up L2_b8_cbr1_bn
I0817 16:05:12.190732 17621 net.cpp:157] Top shape: 125 32 16 16 (1024000)
I0817 16:05:12.190737 17621 net.cpp:165] Memory required for data: 1175041500
I0817 16:05:12.190747 17621 layer_factory.hpp:77] Creating layer L2_b8_cbr1_scale
I0817 16:05:12.190758 17621 net.cpp:100] Creating Layer L2_b8_cbr1_scale
I0817 16:05:12.190764 17621 net.cpp:434] L2_b8_cbr1_scale <- L2_b8_cbr1_bn_top
I0817 16:05:12.190773 17621 net.cpp:395] L2_b8_cbr1_scale -> L2_b8_cbr1_bn_top (in-place)
I0817 16:05:12.190826 17621 layer_factory.hpp:77] Creating layer L2_b8_cbr1_scale
I0817 16:05:12.190978 17621 net.cpp:150] Setting up L2_b8_cbr1_scale
I0817 16:05:12.190990 17621 net.cpp:157] Top shape: 125 32 16 16 (1024000)
I0817 16:05:12.190995 17621 net.cpp:165] Memory required for data: 1179137500
I0817 16:05:12.191004 17621 layer_factory.hpp:77] Creating layer L2_b8_cbr1_relu
I0817 16:05:12.191015 17621 net.cpp:100] Creating Layer L2_b8_cbr1_relu
I0817 16:05:12.191021 17621 net.cpp:434] L2_b8_cbr1_relu <- L2_b8_cbr1_bn_top
I0817 16:05:12.191028 17621 net.cpp:395] L2_b8_cbr1_relu -> L2_b8_cbr1_bn_top (in-place)
I0817 16:05:12.191037 17621 net.cpp:150] Setting up L2_b8_cbr1_relu
I0817 16:05:12.191045 17621 net.cpp:157] Top shape: 125 32 16 16 (1024000)
I0817 16:05:12.191049 17621 net.cpp:165] Memory required for data: 1183233500
I0817 16:05:12.191054 17621 layer_factory.hpp:77] Creating layer L2_b8_cbr2_conv
I0817 16:05:12.191067 17621 net.cpp:100] Creating Layer L2_b8_cbr2_conv
I0817 16:05:12.191074 17621 net.cpp:434] L2_b8_cbr2_conv <- L2_b8_cbr1_bn_top
I0817 16:05:12.191084 17621 net.cpp:408] L2_b8_cbr2_conv -> L2_b8_cbr2_conv_top
I0817 16:05:12.191547 17621 net.cpp:150] Setting up L2_b8_cbr2_conv
I0817 16:05:12.191562 17621 net.cpp:157] Top shape: 125 32 16 16 (1024000)
I0817 16:05:12.191567 17621 net.cpp:165] Memory required for data: 1187329500
I0817 16:05:12.191576 17621 layer_factory.hpp:77] Creating layer L2_b8_cbr2_bn
I0817 16:05:12.191586 17621 net.cpp:100] Creating Layer L2_b8_cbr2_bn
I0817 16:05:12.191599 17621 net.cpp:434] L2_b8_cbr2_bn <- L2_b8_cbr2_conv_top
I0817 16:05:12.191609 17621 net.cpp:408] L2_b8_cbr2_bn -> L2_b8_cbr2_bn_top
I0817 16:05:12.191874 17621 net.cpp:150] Setting up L2_b8_cbr2_bn
I0817 16:05:12.191886 17621 net.cpp:157] Top shape: 125 32 16 16 (1024000)
I0817 16:05:12.191891 17621 net.cpp:165] Memory required for data: 1191425500
I0817 16:05:12.191902 17621 layer_factory.hpp:77] Creating layer L2_b8_cbr2_scale
I0817 16:05:12.191915 17621 net.cpp:100] Creating Layer L2_b8_cbr2_scale
I0817 16:05:12.191921 17621 net.cpp:434] L2_b8_cbr2_scale <- L2_b8_cbr2_bn_top
I0817 16:05:12.191928 17621 net.cpp:395] L2_b8_cbr2_scale -> L2_b8_cbr2_bn_top (in-place)
I0817 16:05:12.191985 17621 layer_factory.hpp:77] Creating layer L2_b8_cbr2_scale
I0817 16:05:12.192133 17621 net.cpp:150] Setting up L2_b8_cbr2_scale
I0817 16:05:12.192147 17621 net.cpp:157] Top shape: 125 32 16 16 (1024000)
I0817 16:05:12.192152 17621 net.cpp:165] Memory required for data: 1195521500
I0817 16:05:12.192160 17621 layer_factory.hpp:77] Creating layer L2_b8_sum_eltwise
I0817 16:05:12.192168 17621 net.cpp:100] Creating Layer L2_b8_sum_eltwise
I0817 16:05:12.192175 17621 net.cpp:434] L2_b8_sum_eltwise <- L2_b8_cbr2_bn_top
I0817 16:05:12.192181 17621 net.cpp:434] L2_b8_sum_eltwise <- L2_b7_sum_eltwise_top_L2_b7_relu_0_split_1
I0817 16:05:12.192193 17621 net.cpp:408] L2_b8_sum_eltwise -> L2_b8_sum_eltwise_top
I0817 16:05:12.192219 17621 net.cpp:150] Setting up L2_b8_sum_eltwise
I0817 16:05:12.192232 17621 net.cpp:157] Top shape: 125 32 16 16 (1024000)
I0817 16:05:12.192236 17621 net.cpp:165] Memory required for data: 1199617500
I0817 16:05:12.192242 17621 layer_factory.hpp:77] Creating layer L2_b8_relu
I0817 16:05:12.192250 17621 net.cpp:100] Creating Layer L2_b8_relu
I0817 16:05:12.192255 17621 net.cpp:434] L2_b8_relu <- L2_b8_sum_eltwise_top
I0817 16:05:12.192262 17621 net.cpp:395] L2_b8_relu -> L2_b8_sum_eltwise_top (in-place)
I0817 16:05:12.192271 17621 net.cpp:150] Setting up L2_b8_relu
I0817 16:05:12.192278 17621 net.cpp:157] Top shape: 125 32 16 16 (1024000)
I0817 16:05:12.192282 17621 net.cpp:165] Memory required for data: 1203713500
I0817 16:05:12.192287 17621 layer_factory.hpp:77] Creating layer L2_b8_sum_eltwise_top_L2_b8_relu_0_split
I0817 16:05:12.192297 17621 net.cpp:100] Creating Layer L2_b8_sum_eltwise_top_L2_b8_relu_0_split
I0817 16:05:12.192303 17621 net.cpp:434] L2_b8_sum_eltwise_top_L2_b8_relu_0_split <- L2_b8_sum_eltwise_top
I0817 16:05:12.192311 17621 net.cpp:408] L2_b8_sum_eltwise_top_L2_b8_relu_0_split -> L2_b8_sum_eltwise_top_L2_b8_relu_0_split_0
I0817 16:05:12.192334 17621 net.cpp:408] L2_b8_sum_eltwise_top_L2_b8_relu_0_split -> L2_b8_sum_eltwise_top_L2_b8_relu_0_split_1
I0817 16:05:12.192384 17621 net.cpp:150] Setting up L2_b8_sum_eltwise_top_L2_b8_relu_0_split
I0817 16:05:12.192399 17621 net.cpp:157] Top shape: 125 32 16 16 (1024000)
I0817 16:05:12.192406 17621 net.cpp:157] Top shape: 125 32 16 16 (1024000)
I0817 16:05:12.192411 17621 net.cpp:165] Memory required for data: 1211905500
I0817 16:05:12.192416 17621 layer_factory.hpp:77] Creating layer L2_b9_cbr1_conv
I0817 16:05:12.192430 17621 net.cpp:100] Creating Layer L2_b9_cbr1_conv
I0817 16:05:12.192437 17621 net.cpp:434] L2_b9_cbr1_conv <- L2_b8_sum_eltwise_top_L2_b8_relu_0_split_0
I0817 16:05:12.192446 17621 net.cpp:408] L2_b9_cbr1_conv -> L2_b9_cbr1_conv_top
I0817 16:05:12.192922 17621 net.cpp:150] Setting up L2_b9_cbr1_conv
I0817 16:05:12.192937 17621 net.cpp:157] Top shape: 125 32 16 16 (1024000)
I0817 16:05:12.192942 17621 net.cpp:165] Memory required for data: 1216001500
I0817 16:05:12.192951 17621 layer_factory.hpp:77] Creating layer L2_b9_cbr1_bn
I0817 16:05:12.192963 17621 net.cpp:100] Creating Layer L2_b9_cbr1_bn
I0817 16:05:12.192970 17621 net.cpp:434] L2_b9_cbr1_bn <- L2_b9_cbr1_conv_top
I0817 16:05:12.192978 17621 net.cpp:408] L2_b9_cbr1_bn -> L2_b9_cbr1_bn_top
I0817 16:05:12.193228 17621 net.cpp:150] Setting up L2_b9_cbr1_bn
I0817 16:05:12.193240 17621 net.cpp:157] Top shape: 125 32 16 16 (1024000)
I0817 16:05:12.193245 17621 net.cpp:165] Memory required for data: 1220097500
I0817 16:05:12.193264 17621 layer_factory.hpp:77] Creating layer L2_b9_cbr1_scale
I0817 16:05:12.193274 17621 net.cpp:100] Creating Layer L2_b9_cbr1_scale
I0817 16:05:12.193279 17621 net.cpp:434] L2_b9_cbr1_scale <- L2_b9_cbr1_bn_top
I0817 16:05:12.193289 17621 net.cpp:395] L2_b9_cbr1_scale -> L2_b9_cbr1_bn_top (in-place)
I0817 16:05:12.193346 17621 layer_factory.hpp:77] Creating layer L2_b9_cbr1_scale
I0817 16:05:12.193502 17621 net.cpp:150] Setting up L2_b9_cbr1_scale
I0817 16:05:12.193516 17621 net.cpp:157] Top shape: 125 32 16 16 (1024000)
I0817 16:05:12.193521 17621 net.cpp:165] Memory required for data: 1224193500
I0817 16:05:12.193529 17621 layer_factory.hpp:77] Creating layer L2_b9_cbr1_relu
I0817 16:05:12.193537 17621 net.cpp:100] Creating Layer L2_b9_cbr1_relu
I0817 16:05:12.193543 17621 net.cpp:434] L2_b9_cbr1_relu <- L2_b9_cbr1_bn_top
I0817 16:05:12.193553 17621 net.cpp:395] L2_b9_cbr1_relu -> L2_b9_cbr1_bn_top (in-place)
I0817 16:05:12.193563 17621 net.cpp:150] Setting up L2_b9_cbr1_relu
I0817 16:05:12.193570 17621 net.cpp:157] Top shape: 125 32 16 16 (1024000)
I0817 16:05:12.193575 17621 net.cpp:165] Memory required for data: 1228289500
I0817 16:05:12.193580 17621 layer_factory.hpp:77] Creating layer L2_b9_cbr2_conv
I0817 16:05:12.193594 17621 net.cpp:100] Creating Layer L2_b9_cbr2_conv
I0817 16:05:12.193600 17621 net.cpp:434] L2_b9_cbr2_conv <- L2_b9_cbr1_bn_top
I0817 16:05:12.193608 17621 net.cpp:408] L2_b9_cbr2_conv -> L2_b9_cbr2_conv_top
I0817 16:05:12.194077 17621 net.cpp:150] Setting up L2_b9_cbr2_conv
I0817 16:05:12.194092 17621 net.cpp:157] Top shape: 125 32 16 16 (1024000)
I0817 16:05:12.194097 17621 net.cpp:165] Memory required for data: 1232385500
I0817 16:05:12.194106 17621 layer_factory.hpp:77] Creating layer L2_b9_cbr2_bn
I0817 16:05:12.194118 17621 net.cpp:100] Creating Layer L2_b9_cbr2_bn
I0817 16:05:12.194125 17621 net.cpp:434] L2_b9_cbr2_bn <- L2_b9_cbr2_conv_top
I0817 16:05:12.194133 17621 net.cpp:408] L2_b9_cbr2_bn -> L2_b9_cbr2_bn_top
I0817 16:05:12.194382 17621 net.cpp:150] Setting up L2_b9_cbr2_bn
I0817 16:05:12.194396 17621 net.cpp:157] Top shape: 125 32 16 16 (1024000)
I0817 16:05:12.194401 17621 net.cpp:165] Memory required for data: 1236481500
I0817 16:05:12.194444 17621 layer_factory.hpp:77] Creating layer L2_b9_cbr2_scale
I0817 16:05:12.194458 17621 net.cpp:100] Creating Layer L2_b9_cbr2_scale
I0817 16:05:12.194463 17621 net.cpp:434] L2_b9_cbr2_scale <- L2_b9_cbr2_bn_top
I0817 16:05:12.194471 17621 net.cpp:395] L2_b9_cbr2_scale -> L2_b9_cbr2_bn_top (in-place)
I0817 16:05:12.194530 17621 layer_factory.hpp:77] Creating layer L2_b9_cbr2_scale
I0817 16:05:12.194680 17621 net.cpp:150] Setting up L2_b9_cbr2_scale
I0817 16:05:12.194700 17621 net.cpp:157] Top shape: 125 32 16 16 (1024000)
I0817 16:05:12.194705 17621 net.cpp:165] Memory required for data: 1240577500
I0817 16:05:12.194713 17621 layer_factory.hpp:77] Creating layer L2_b9_sum_eltwise
I0817 16:05:12.194723 17621 net.cpp:100] Creating Layer L2_b9_sum_eltwise
I0817 16:05:12.194730 17621 net.cpp:434] L2_b9_sum_eltwise <- L2_b9_cbr2_bn_top
I0817 16:05:12.194736 17621 net.cpp:434] L2_b9_sum_eltwise <- L2_b8_sum_eltwise_top_L2_b8_relu_0_split_1
I0817 16:05:12.194747 17621 net.cpp:408] L2_b9_sum_eltwise -> L2_b9_sum_eltwise_top
I0817 16:05:12.194775 17621 net.cpp:150] Setting up L2_b9_sum_eltwise
I0817 16:05:12.194784 17621 net.cpp:157] Top shape: 125 32 16 16 (1024000)
I0817 16:05:12.194789 17621 net.cpp:165] Memory required for data: 1244673500
I0817 16:05:12.194794 17621 layer_factory.hpp:77] Creating layer L2_b9_relu
I0817 16:05:12.194805 17621 net.cpp:100] Creating Layer L2_b9_relu
I0817 16:05:12.194811 17621 net.cpp:434] L2_b9_relu <- L2_b9_sum_eltwise_top
I0817 16:05:12.194818 17621 net.cpp:395] L2_b9_relu -> L2_b9_sum_eltwise_top (in-place)
I0817 16:05:12.194828 17621 net.cpp:150] Setting up L2_b9_relu
I0817 16:05:12.194834 17621 net.cpp:157] Top shape: 125 32 16 16 (1024000)
I0817 16:05:12.194839 17621 net.cpp:165] Memory required for data: 1248769500
I0817 16:05:12.194844 17621 layer_factory.hpp:77] Creating layer L2_b9_sum_eltwise_top_L2_b9_relu_0_split
I0817 16:05:12.194864 17621 net.cpp:100] Creating Layer L2_b9_sum_eltwise_top_L2_b9_relu_0_split
I0817 16:05:12.194869 17621 net.cpp:434] L2_b9_sum_eltwise_top_L2_b9_relu_0_split <- L2_b9_sum_eltwise_top
I0817 16:05:12.194877 17621 net.cpp:408] L2_b9_sum_eltwise_top_L2_b9_relu_0_split -> L2_b9_sum_eltwise_top_L2_b9_relu_0_split_0
I0817 16:05:12.194886 17621 net.cpp:408] L2_b9_sum_eltwise_top_L2_b9_relu_0_split -> L2_b9_sum_eltwise_top_L2_b9_relu_0_split_1
I0817 16:05:12.194934 17621 net.cpp:150] Setting up L2_b9_sum_eltwise_top_L2_b9_relu_0_split
I0817 16:05:12.194947 17621 net.cpp:157] Top shape: 125 32 16 16 (1024000)
I0817 16:05:12.194953 17621 net.cpp:157] Top shape: 125 32 16 16 (1024000)
I0817 16:05:12.194957 17621 net.cpp:165] Memory required for data: 1256961500
I0817 16:05:12.194962 17621 layer_factory.hpp:77] Creating layer L3_b1_cbr1_conv
I0817 16:05:12.194977 17621 net.cpp:100] Creating Layer L3_b1_cbr1_conv
I0817 16:05:12.194983 17621 net.cpp:434] L3_b1_cbr1_conv <- L2_b9_sum_eltwise_top_L2_b9_relu_0_split_0
I0817 16:05:12.194993 17621 net.cpp:408] L3_b1_cbr1_conv -> L3_b1_cbr1_conv_top
I0817 16:05:12.195459 17621 net.cpp:150] Setting up L3_b1_cbr1_conv
I0817 16:05:12.195474 17621 net.cpp:157] Top shape: 125 32 8 8 (256000)
I0817 16:05:12.195480 17621 net.cpp:165] Memory required for data: 1257985500
I0817 16:05:12.195488 17621 layer_factory.hpp:77] Creating layer L3_b1_cbr1_bn
I0817 16:05:12.195500 17621 net.cpp:100] Creating Layer L3_b1_cbr1_bn
I0817 16:05:12.195508 17621 net.cpp:434] L3_b1_cbr1_bn <- L3_b1_cbr1_conv_top
I0817 16:05:12.195515 17621 net.cpp:408] L3_b1_cbr1_bn -> L3_b1_cbr1_bn_top
I0817 16:05:12.195782 17621 net.cpp:150] Setting up L3_b1_cbr1_bn
I0817 16:05:12.195796 17621 net.cpp:157] Top shape: 125 32 8 8 (256000)
I0817 16:05:12.195801 17621 net.cpp:165] Memory required for data: 1259009500
I0817 16:05:12.195812 17621 layer_factory.hpp:77] Creating layer L3_b1_cbr1_scale
I0817 16:05:12.195821 17621 net.cpp:100] Creating Layer L3_b1_cbr1_scale
I0817 16:05:12.195827 17621 net.cpp:434] L3_b1_cbr1_scale <- L3_b1_cbr1_bn_top
I0817 16:05:12.195834 17621 net.cpp:395] L3_b1_cbr1_scale -> L3_b1_cbr1_bn_top (in-place)
I0817 16:05:12.195891 17621 layer_factory.hpp:77] Creating layer L3_b1_cbr1_scale
I0817 16:05:12.196045 17621 net.cpp:150] Setting up L3_b1_cbr1_scale
I0817 16:05:12.196058 17621 net.cpp:157] Top shape: 125 32 8 8 (256000)
I0817 16:05:12.196063 17621 net.cpp:165] Memory required for data: 1260033500
I0817 16:05:12.196072 17621 layer_factory.hpp:77] Creating layer L3_b1_cbr1_relu
I0817 16:05:12.196080 17621 net.cpp:100] Creating Layer L3_b1_cbr1_relu
I0817 16:05:12.196086 17621 net.cpp:434] L3_b1_cbr1_relu <- L3_b1_cbr1_bn_top
I0817 16:05:12.196096 17621 net.cpp:395] L3_b1_cbr1_relu -> L3_b1_cbr1_bn_top (in-place)
I0817 16:05:12.196106 17621 net.cpp:150] Setting up L3_b1_cbr1_relu
I0817 16:05:12.196113 17621 net.cpp:157] Top shape: 125 32 8 8 (256000)
I0817 16:05:12.196117 17621 net.cpp:165] Memory required for data: 1261057500
I0817 16:05:12.196122 17621 layer_factory.hpp:77] Creating layer L3_b1_cbr2_conv
I0817 16:05:12.196136 17621 net.cpp:100] Creating Layer L3_b1_cbr2_conv
I0817 16:05:12.196142 17621 net.cpp:434] L3_b1_cbr2_conv <- L3_b1_cbr1_bn_top
I0817 16:05:12.196151 17621 net.cpp:408] L3_b1_cbr2_conv -> L3_b1_cbr2_conv_top
I0817 16:05:12.196619 17621 net.cpp:150] Setting up L3_b1_cbr2_conv
I0817 16:05:12.196633 17621 net.cpp:157] Top shape: 125 32 8 8 (256000)
I0817 16:05:12.196638 17621 net.cpp:165] Memory required for data: 1262081500
I0817 16:05:12.196647 17621 layer_factory.hpp:77] Creating layer L3_b1_cbr2_bn
I0817 16:05:12.196660 17621 net.cpp:100] Creating Layer L3_b1_cbr2_bn
I0817 16:05:12.196666 17621 net.cpp:434] L3_b1_cbr2_bn <- L3_b1_cbr2_conv_top
I0817 16:05:12.196674 17621 net.cpp:408] L3_b1_cbr2_bn -> L3_b1_cbr2_bn_top
I0817 16:05:12.196943 17621 net.cpp:150] Setting up L3_b1_cbr2_bn
I0817 16:05:12.196957 17621 net.cpp:157] Top shape: 125 32 8 8 (256000)
I0817 16:05:12.196962 17621 net.cpp:165] Memory required for data: 1263105500
I0817 16:05:12.196979 17621 layer_factory.hpp:77] Creating layer L3_b1_cbr2_scale
I0817 16:05:12.196991 17621 net.cpp:100] Creating Layer L3_b1_cbr2_scale
I0817 16:05:12.196997 17621 net.cpp:434] L3_b1_cbr2_scale <- L3_b1_cbr2_bn_top
I0817 16:05:12.197005 17621 net.cpp:395] L3_b1_cbr2_scale -> L3_b1_cbr2_bn_top (in-place)
I0817 16:05:12.197063 17621 layer_factory.hpp:77] Creating layer L3_b1_cbr2_scale
I0817 16:05:12.197221 17621 net.cpp:150] Setting up L3_b1_cbr2_scale
I0817 16:05:12.197234 17621 net.cpp:157] Top shape: 125 32 8 8 (256000)
I0817 16:05:12.197239 17621 net.cpp:165] Memory required for data: 1264129500
I0817 16:05:12.197248 17621 layer_factory.hpp:77] Creating layer L3_b1_pool
I0817 16:05:12.197260 17621 net.cpp:100] Creating Layer L3_b1_pool
I0817 16:05:12.197266 17621 net.cpp:434] L3_b1_pool <- L2_b9_sum_eltwise_top_L2_b9_relu_0_split_1
I0817 16:05:12.197278 17621 net.cpp:408] L3_b1_pool -> L3_b1_pool
I0817 16:05:12.197311 17621 net.cpp:150] Setting up L3_b1_pool
I0817 16:05:12.197321 17621 net.cpp:157] Top shape: 125 32 8 8 (256000)
I0817 16:05:12.197325 17621 net.cpp:165] Memory required for data: 1265153500
I0817 16:05:12.197331 17621 layer_factory.hpp:77] Creating layer L3_b1_sum_eltwise
I0817 16:05:12.197343 17621 net.cpp:100] Creating Layer L3_b1_sum_eltwise
I0817 16:05:12.197350 17621 net.cpp:434] L3_b1_sum_eltwise <- L3_b1_cbr2_bn_top
I0817 16:05:12.197355 17621 net.cpp:434] L3_b1_sum_eltwise <- L3_b1_pool
I0817 16:05:12.197363 17621 net.cpp:408] L3_b1_sum_eltwise -> L3_b1_sum_eltwise_top
I0817 16:05:12.197394 17621 net.cpp:150] Setting up L3_b1_sum_eltwise
I0817 16:05:12.197404 17621 net.cpp:157] Top shape: 125 32 8 8 (256000)
I0817 16:05:12.197408 17621 net.cpp:165] Memory required for data: 1266177500
I0817 16:05:12.197413 17621 layer_factory.hpp:77] Creating layer L3_b1_relu
I0817 16:05:12.197422 17621 net.cpp:100] Creating Layer L3_b1_relu
I0817 16:05:12.197427 17621 net.cpp:434] L3_b1_relu <- L3_b1_sum_eltwise_top
I0817 16:05:12.197438 17621 net.cpp:395] L3_b1_relu -> L3_b1_sum_eltwise_top (in-place)
I0817 16:05:12.197446 17621 net.cpp:150] Setting up L3_b1_relu
I0817 16:05:12.197453 17621 net.cpp:157] Top shape: 125 32 8 8 (256000)
I0817 16:05:12.197458 17621 net.cpp:165] Memory required for data: 1267201500
I0817 16:05:12.197463 17621 layer_factory.hpp:77] Creating layer L3_b1_zeros
I0817 16:05:12.197473 17621 net.cpp:100] Creating Layer L3_b1_zeros
I0817 16:05:12.197479 17621 net.cpp:408] L3_b1_zeros -> L3_b1_zeros
I0817 16:05:12.198704 17621 net.cpp:150] Setting up L3_b1_zeros
I0817 16:05:12.198721 17621 net.cpp:157] Top shape: 125 32 8 8 (256000)
I0817 16:05:12.198726 17621 net.cpp:165] Memory required for data: 1268225500
I0817 16:05:12.198732 17621 layer_factory.hpp:77] Creating layer L3_b1_concat0
I0817 16:05:12.198745 17621 net.cpp:100] Creating Layer L3_b1_concat0
I0817 16:05:12.198751 17621 net.cpp:434] L3_b1_concat0 <- L3_b1_sum_eltwise_top
I0817 16:05:12.198760 17621 net.cpp:434] L3_b1_concat0 <- L3_b1_zeros
I0817 16:05:12.198767 17621 net.cpp:408] L3_b1_concat0 -> L3_b1_concat0
I0817 16:05:12.198810 17621 net.cpp:150] Setting up L3_b1_concat0
I0817 16:05:12.198822 17621 net.cpp:157] Top shape: 125 64 8 8 (512000)
I0817 16:05:12.198827 17621 net.cpp:165] Memory required for data: 1270273500
I0817 16:05:12.198832 17621 layer_factory.hpp:77] Creating layer L3_b1_concat0_L3_b1_concat0_0_split
I0817 16:05:12.198840 17621 net.cpp:100] Creating Layer L3_b1_concat0_L3_b1_concat0_0_split
I0817 16:05:12.198845 17621 net.cpp:434] L3_b1_concat0_L3_b1_concat0_0_split <- L3_b1_concat0
I0817 16:05:12.198856 17621 net.cpp:408] L3_b1_concat0_L3_b1_concat0_0_split -> L3_b1_concat0_L3_b1_concat0_0_split_0
I0817 16:05:12.198866 17621 net.cpp:408] L3_b1_concat0_L3_b1_concat0_0_split -> L3_b1_concat0_L3_b1_concat0_0_split_1
I0817 16:05:12.198915 17621 net.cpp:150] Setting up L3_b1_concat0_L3_b1_concat0_0_split
I0817 16:05:12.198930 17621 net.cpp:157] Top shape: 125 64 8 8 (512000)
I0817 16:05:12.198936 17621 net.cpp:157] Top shape: 125 64 8 8 (512000)
I0817 16:05:12.198951 17621 net.cpp:165] Memory required for data: 1274369500
I0817 16:05:12.198956 17621 layer_factory.hpp:77] Creating layer L3_b2_cbr1_conv
I0817 16:05:12.198967 17621 net.cpp:100] Creating Layer L3_b2_cbr1_conv
I0817 16:05:12.198974 17621 net.cpp:434] L3_b2_cbr1_conv <- L3_b1_concat0_L3_b1_concat0_0_split_0
I0817 16:05:12.198983 17621 net.cpp:408] L3_b2_cbr1_conv -> L3_b2_cbr1_conv_top
I0817 16:05:12.200968 17621 net.cpp:150] Setting up L3_b2_cbr1_conv
I0817 16:05:12.200984 17621 net.cpp:157] Top shape: 125 64 8 8 (512000)
I0817 16:05:12.200990 17621 net.cpp:165] Memory required for data: 1276417500
I0817 16:05:12.200999 17621 layer_factory.hpp:77] Creating layer L3_b2_cbr1_bn
I0817 16:05:12.201012 17621 net.cpp:100] Creating Layer L3_b2_cbr1_bn
I0817 16:05:12.201020 17621 net.cpp:434] L3_b2_cbr1_bn <- L3_b2_cbr1_conv_top
I0817 16:05:12.201030 17621 net.cpp:408] L3_b2_cbr1_bn -> L3_b2_cbr1_bn_top
I0817 16:05:12.201292 17621 net.cpp:150] Setting up L3_b2_cbr1_bn
I0817 16:05:12.201305 17621 net.cpp:157] Top shape: 125 64 8 8 (512000)
I0817 16:05:12.201310 17621 net.cpp:165] Memory required for data: 1278465500
I0817 16:05:12.201320 17621 layer_factory.hpp:77] Creating layer L3_b2_cbr1_scale
I0817 16:05:12.201329 17621 net.cpp:100] Creating Layer L3_b2_cbr1_scale
I0817 16:05:12.201336 17621 net.cpp:434] L3_b2_cbr1_scale <- L3_b2_cbr1_bn_top
I0817 16:05:12.201347 17621 net.cpp:395] L3_b2_cbr1_scale -> L3_b2_cbr1_bn_top (in-place)
I0817 16:05:12.201406 17621 layer_factory.hpp:77] Creating layer L3_b2_cbr1_scale
I0817 16:05:12.201561 17621 net.cpp:150] Setting up L3_b2_cbr1_scale
I0817 16:05:12.201575 17621 net.cpp:157] Top shape: 125 64 8 8 (512000)
I0817 16:05:12.201580 17621 net.cpp:165] Memory required for data: 1280513500
I0817 16:05:12.201588 17621 layer_factory.hpp:77] Creating layer L3_b2_cbr1_relu
I0817 16:05:12.201596 17621 net.cpp:100] Creating Layer L3_b2_cbr1_relu
I0817 16:05:12.201603 17621 net.cpp:434] L3_b2_cbr1_relu <- L3_b2_cbr1_bn_top
I0817 16:05:12.201613 17621 net.cpp:395] L3_b2_cbr1_relu -> L3_b2_cbr1_bn_top (in-place)
I0817 16:05:12.201624 17621 net.cpp:150] Setting up L3_b2_cbr1_relu
I0817 16:05:12.201632 17621 net.cpp:157] Top shape: 125 64 8 8 (512000)
I0817 16:05:12.201637 17621 net.cpp:165] Memory required for data: 1282561500
I0817 16:05:12.201640 17621 layer_factory.hpp:77] Creating layer L3_b2_cbr2_conv
I0817 16:05:12.201655 17621 net.cpp:100] Creating Layer L3_b2_cbr2_conv
I0817 16:05:12.201660 17621 net.cpp:434] L3_b2_cbr2_conv <- L3_b2_cbr1_bn_top
I0817 16:05:12.201669 17621 net.cpp:408] L3_b2_cbr2_conv -> L3_b2_cbr2_conv_top
I0817 16:05:12.202694 17621 net.cpp:150] Setting up L3_b2_cbr2_conv
I0817 16:05:12.202709 17621 net.cpp:157] Top shape: 125 64 8 8 (512000)
I0817 16:05:12.202714 17621 net.cpp:165] Memory required for data: 1284609500
I0817 16:05:12.202724 17621 layer_factory.hpp:77] Creating layer L3_b2_cbr2_bn
I0817 16:05:12.202736 17621 net.cpp:100] Creating Layer L3_b2_cbr2_bn
I0817 16:05:12.202744 17621 net.cpp:434] L3_b2_cbr2_bn <- L3_b2_cbr2_conv_top
I0817 16:05:12.202751 17621 net.cpp:408] L3_b2_cbr2_bn -> L3_b2_cbr2_bn_top
I0817 16:05:12.203016 17621 net.cpp:150] Setting up L3_b2_cbr2_bn
I0817 16:05:12.203029 17621 net.cpp:157] Top shape: 125 64 8 8 (512000)
I0817 16:05:12.203034 17621 net.cpp:165] Memory required for data: 1286657500
I0817 16:05:12.203044 17621 layer_factory.hpp:77] Creating layer L3_b2_cbr2_scale
I0817 16:05:12.203057 17621 net.cpp:100] Creating Layer L3_b2_cbr2_scale
I0817 16:05:12.203063 17621 net.cpp:434] L3_b2_cbr2_scale <- L3_b2_cbr2_bn_top
I0817 16:05:12.203073 17621 net.cpp:395] L3_b2_cbr2_scale -> L3_b2_cbr2_bn_top (in-place)
I0817 16:05:12.203130 17621 layer_factory.hpp:77] Creating layer L3_b2_cbr2_scale
I0817 16:05:12.203286 17621 net.cpp:150] Setting up L3_b2_cbr2_scale
I0817 16:05:12.203299 17621 net.cpp:157] Top shape: 125 64 8 8 (512000)
I0817 16:05:12.203305 17621 net.cpp:165] Memory required for data: 1288705500
I0817 16:05:12.203313 17621 layer_factory.hpp:77] Creating layer L3_b2_sum_eltwise
I0817 16:05:12.203322 17621 net.cpp:100] Creating Layer L3_b2_sum_eltwise
I0817 16:05:12.203336 17621 net.cpp:434] L3_b2_sum_eltwise <- L3_b2_cbr2_bn_top
I0817 16:05:12.203344 17621 net.cpp:434] L3_b2_sum_eltwise <- L3_b1_concat0_L3_b1_concat0_0_split_1
I0817 16:05:12.203356 17621 net.cpp:408] L3_b2_sum_eltwise -> L3_b2_sum_eltwise_top
I0817 16:05:12.203390 17621 net.cpp:150] Setting up L3_b2_sum_eltwise
I0817 16:05:12.203399 17621 net.cpp:157] Top shape: 125 64 8 8 (512000)
I0817 16:05:12.203404 17621 net.cpp:165] Memory required for data: 1290753500
I0817 16:05:12.203409 17621 layer_factory.hpp:77] Creating layer L3_b2_relu
I0817 16:05:12.203421 17621 net.cpp:100] Creating Layer L3_b2_relu
I0817 16:05:12.203428 17621 net.cpp:434] L3_b2_relu <- L3_b2_sum_eltwise_top
I0817 16:05:12.203435 17621 net.cpp:395] L3_b2_relu -> L3_b2_sum_eltwise_top (in-place)
I0817 16:05:12.203444 17621 net.cpp:150] Setting up L3_b2_relu
I0817 16:05:12.203451 17621 net.cpp:157] Top shape: 125 64 8 8 (512000)
I0817 16:05:12.203456 17621 net.cpp:165] Memory required for data: 1292801500
I0817 16:05:12.203460 17621 layer_factory.hpp:77] Creating layer L3_b2_sum_eltwise_top_L3_b2_relu_0_split
I0817 16:05:12.203469 17621 net.cpp:100] Creating Layer L3_b2_sum_eltwise_top_L3_b2_relu_0_split
I0817 16:05:12.203474 17621 net.cpp:434] L3_b2_sum_eltwise_top_L3_b2_relu_0_split <- L3_b2_sum_eltwise_top
I0817 16:05:12.203481 17621 net.cpp:408] L3_b2_sum_eltwise_top_L3_b2_relu_0_split -> L3_b2_sum_eltwise_top_L3_b2_relu_0_split_0
I0817 16:05:12.203491 17621 net.cpp:408] L3_b2_sum_eltwise_top_L3_b2_relu_0_split -> L3_b2_sum_eltwise_top_L3_b2_relu_0_split_1
I0817 16:05:12.203541 17621 net.cpp:150] Setting up L3_b2_sum_eltwise_top_L3_b2_relu_0_split
I0817 16:05:12.203552 17621 net.cpp:157] Top shape: 125 64 8 8 (512000)
I0817 16:05:12.203558 17621 net.cpp:157] Top shape: 125 64 8 8 (512000)
I0817 16:05:12.203563 17621 net.cpp:165] Memory required for data: 1296897500
I0817 16:05:12.203568 17621 layer_factory.hpp:77] Creating layer L3_b3_cbr1_conv
I0817 16:05:12.203583 17621 net.cpp:100] Creating Layer L3_b3_cbr1_conv
I0817 16:05:12.203589 17621 net.cpp:434] L3_b3_cbr1_conv <- L3_b2_sum_eltwise_top_L3_b2_relu_0_split_0
I0817 16:05:12.203598 17621 net.cpp:408] L3_b3_cbr1_conv -> L3_b3_cbr1_conv_top
I0817 16:05:12.204617 17621 net.cpp:150] Setting up L3_b3_cbr1_conv
I0817 16:05:12.204632 17621 net.cpp:157] Top shape: 125 64 8 8 (512000)
I0817 16:05:12.204638 17621 net.cpp:165] Memory required for data: 1298945500
I0817 16:05:12.204648 17621 layer_factory.hpp:77] Creating layer L3_b3_cbr1_bn
I0817 16:05:12.204659 17621 net.cpp:100] Creating Layer L3_b3_cbr1_bn
I0817 16:05:12.204665 17621 net.cpp:434] L3_b3_cbr1_bn <- L3_b3_cbr1_conv_top
I0817 16:05:12.204676 17621 net.cpp:408] L3_b3_cbr1_bn -> L3_b3_cbr1_bn_top
I0817 16:05:12.204944 17621 net.cpp:150] Setting up L3_b3_cbr1_bn
I0817 16:05:12.204957 17621 net.cpp:157] Top shape: 125 64 8 8 (512000)
I0817 16:05:12.204962 17621 net.cpp:165] Memory required for data: 1300993500
I0817 16:05:12.204973 17621 layer_factory.hpp:77] Creating layer L3_b3_cbr1_scale
I0817 16:05:12.204982 17621 net.cpp:100] Creating Layer L3_b3_cbr1_scale
I0817 16:05:12.204988 17621 net.cpp:434] L3_b3_cbr1_scale <- L3_b3_cbr1_bn_top
I0817 16:05:12.205000 17621 net.cpp:395] L3_b3_cbr1_scale -> L3_b3_cbr1_bn_top (in-place)
I0817 16:05:12.205057 17621 layer_factory.hpp:77] Creating layer L3_b3_cbr1_scale
I0817 16:05:12.205214 17621 net.cpp:150] Setting up L3_b3_cbr1_scale
I0817 16:05:12.205229 17621 net.cpp:157] Top shape: 125 64 8 8 (512000)
I0817 16:05:12.205234 17621 net.cpp:165] Memory required for data: 1303041500
I0817 16:05:12.205242 17621 layer_factory.hpp:77] Creating layer L3_b3_cbr1_relu
I0817 16:05:12.205250 17621 net.cpp:100] Creating Layer L3_b3_cbr1_relu
I0817 16:05:12.205256 17621 net.cpp:434] L3_b3_cbr1_relu <- L3_b3_cbr1_bn_top
I0817 16:05:12.205266 17621 net.cpp:395] L3_b3_cbr1_relu -> L3_b3_cbr1_bn_top (in-place)
I0817 16:05:12.205276 17621 net.cpp:150] Setting up L3_b3_cbr1_relu
I0817 16:05:12.205284 17621 net.cpp:157] Top shape: 125 64 8 8 (512000)
I0817 16:05:12.205296 17621 net.cpp:165] Memory required for data: 1305089500
I0817 16:05:12.205301 17621 layer_factory.hpp:77] Creating layer L3_b3_cbr2_conv
I0817 16:05:12.205314 17621 net.cpp:100] Creating Layer L3_b3_cbr2_conv
I0817 16:05:12.205320 17621 net.cpp:434] L3_b3_cbr2_conv <- L3_b3_cbr1_bn_top
I0817 16:05:12.205332 17621 net.cpp:408] L3_b3_cbr2_conv -> L3_b3_cbr2_conv_top
I0817 16:05:12.206351 17621 net.cpp:150] Setting up L3_b3_cbr2_conv
I0817 16:05:12.206367 17621 net.cpp:157] Top shape: 125 64 8 8 (512000)
I0817 16:05:12.206372 17621 net.cpp:165] Memory required for data: 1307137500
I0817 16:05:12.206380 17621 layer_factory.hpp:77] Creating layer L3_b3_cbr2_bn
I0817 16:05:12.206389 17621 net.cpp:100] Creating Layer L3_b3_cbr2_bn
I0817 16:05:12.206396 17621 net.cpp:434] L3_b3_cbr2_bn <- L3_b3_cbr2_conv_top
I0817 16:05:12.206408 17621 net.cpp:408] L3_b3_cbr2_bn -> L3_b3_cbr2_bn_top
I0817 16:05:12.206676 17621 net.cpp:150] Setting up L3_b3_cbr2_bn
I0817 16:05:12.206696 17621 net.cpp:157] Top shape: 125 64 8 8 (512000)
I0817 16:05:12.206701 17621 net.cpp:165] Memory required for data: 1309185500
I0817 16:05:12.206712 17621 layer_factory.hpp:77] Creating layer L3_b3_cbr2_scale
I0817 16:05:12.206723 17621 net.cpp:100] Creating Layer L3_b3_cbr2_scale
I0817 16:05:12.206729 17621 net.cpp:434] L3_b3_cbr2_scale <- L3_b3_cbr2_bn_top
I0817 16:05:12.206737 17621 net.cpp:395] L3_b3_cbr2_scale -> L3_b3_cbr2_bn_top (in-place)
I0817 16:05:12.206794 17621 layer_factory.hpp:77] Creating layer L3_b3_cbr2_scale
I0817 16:05:12.206956 17621 net.cpp:150] Setting up L3_b3_cbr2_scale
I0817 16:05:12.206970 17621 net.cpp:157] Top shape: 125 64 8 8 (512000)
I0817 16:05:12.206975 17621 net.cpp:165] Memory required for data: 1311233500
I0817 16:05:12.206984 17621 layer_factory.hpp:77] Creating layer L3_b3_sum_eltwise
I0817 16:05:12.206993 17621 net.cpp:100] Creating Layer L3_b3_sum_eltwise
I0817 16:05:12.207000 17621 net.cpp:434] L3_b3_sum_eltwise <- L3_b3_cbr2_bn_top
I0817 16:05:12.207007 17621 net.cpp:434] L3_b3_sum_eltwise <- L3_b2_sum_eltwise_top_L3_b2_relu_0_split_1
I0817 16:05:12.207018 17621 net.cpp:408] L3_b3_sum_eltwise -> L3_b3_sum_eltwise_top
I0817 16:05:12.207051 17621 net.cpp:150] Setting up L3_b3_sum_eltwise
I0817 16:05:12.207063 17621 net.cpp:157] Top shape: 125 64 8 8 (512000)
I0817 16:05:12.207067 17621 net.cpp:165] Memory required for data: 1313281500
I0817 16:05:12.207072 17621 layer_factory.hpp:77] Creating layer L3_b3_relu
I0817 16:05:12.207083 17621 net.cpp:100] Creating Layer L3_b3_relu
I0817 16:05:12.207089 17621 net.cpp:434] L3_b3_relu <- L3_b3_sum_eltwise_top
I0817 16:05:12.207096 17621 net.cpp:395] L3_b3_relu -> L3_b3_sum_eltwise_top (in-place)
I0817 16:05:12.207105 17621 net.cpp:150] Setting up L3_b3_relu
I0817 16:05:12.207113 17621 net.cpp:157] Top shape: 125 64 8 8 (512000)
I0817 16:05:12.207118 17621 net.cpp:165] Memory required for data: 1315329500
I0817 16:05:12.207123 17621 layer_factory.hpp:77] Creating layer L3_b3_sum_eltwise_top_L3_b3_relu_0_split
I0817 16:05:12.207129 17621 net.cpp:100] Creating Layer L3_b3_sum_eltwise_top_L3_b3_relu_0_split
I0817 16:05:12.207134 17621 net.cpp:434] L3_b3_sum_eltwise_top_L3_b3_relu_0_split <- L3_b3_sum_eltwise_top
I0817 16:05:12.207141 17621 net.cpp:408] L3_b3_sum_eltwise_top_L3_b3_relu_0_split -> L3_b3_sum_eltwise_top_L3_b3_relu_0_split_0
I0817 16:05:12.207151 17621 net.cpp:408] L3_b3_sum_eltwise_top_L3_b3_relu_0_split -> L3_b3_sum_eltwise_top_L3_b3_relu_0_split_1
I0817 16:05:12.207201 17621 net.cpp:150] Setting up L3_b3_sum_eltwise_top_L3_b3_relu_0_split
I0817 16:05:12.207212 17621 net.cpp:157] Top shape: 125 64 8 8 (512000)
I0817 16:05:12.207218 17621 net.cpp:157] Top shape: 125 64 8 8 (512000)
I0817 16:05:12.207223 17621 net.cpp:165] Memory required for data: 1319425500
I0817 16:05:12.207228 17621 layer_factory.hpp:77] Creating layer L3_b4_cbr1_conv
I0817 16:05:12.207242 17621 net.cpp:100] Creating Layer L3_b4_cbr1_conv
I0817 16:05:12.207248 17621 net.cpp:434] L3_b4_cbr1_conv <- L3_b3_sum_eltwise_top_L3_b3_relu_0_split_0
I0817 16:05:12.207257 17621 net.cpp:408] L3_b4_cbr1_conv -> L3_b4_cbr1_conv_top
I0817 16:05:12.208283 17621 net.cpp:150] Setting up L3_b4_cbr1_conv
I0817 16:05:12.208298 17621 net.cpp:157] Top shape: 125 64 8 8 (512000)
I0817 16:05:12.208303 17621 net.cpp:165] Memory required for data: 1321473500
I0817 16:05:12.208312 17621 layer_factory.hpp:77] Creating layer L3_b4_cbr1_bn
I0817 16:05:12.208328 17621 net.cpp:100] Creating Layer L3_b4_cbr1_bn
I0817 16:05:12.208334 17621 net.cpp:434] L3_b4_cbr1_bn <- L3_b4_cbr1_conv_top
I0817 16:05:12.208345 17621 net.cpp:408] L3_b4_cbr1_bn -> L3_b4_cbr1_bn_top
I0817 16:05:12.208613 17621 net.cpp:150] Setting up L3_b4_cbr1_bn
I0817 16:05:12.208627 17621 net.cpp:157] Top shape: 125 64 8 8 (512000)
I0817 16:05:12.208632 17621 net.cpp:165] Memory required for data: 1323521500
I0817 16:05:12.208642 17621 layer_factory.hpp:77] Creating layer L3_b4_cbr1_scale
I0817 16:05:12.208652 17621 net.cpp:100] Creating Layer L3_b4_cbr1_scale
I0817 16:05:12.208657 17621 net.cpp:434] L3_b4_cbr1_scale <- L3_b4_cbr1_bn_top
I0817 16:05:12.208667 17621 net.cpp:395] L3_b4_cbr1_scale -> L3_b4_cbr1_bn_top (in-place)
I0817 16:05:12.208732 17621 layer_factory.hpp:77] Creating layer L3_b4_cbr1_scale
I0817 16:05:12.208890 17621 net.cpp:150] Setting up L3_b4_cbr1_scale
I0817 16:05:12.208904 17621 net.cpp:157] Top shape: 125 64 8 8 (512000)
I0817 16:05:12.208909 17621 net.cpp:165] Memory required for data: 1325569500
I0817 16:05:12.208917 17621 layer_factory.hpp:77] Creating layer L3_b4_cbr1_relu
I0817 16:05:12.208928 17621 net.cpp:100] Creating Layer L3_b4_cbr1_relu
I0817 16:05:12.208935 17621 net.cpp:434] L3_b4_cbr1_relu <- L3_b4_cbr1_bn_top
I0817 16:05:12.208942 17621 net.cpp:395] L3_b4_cbr1_relu -> L3_b4_cbr1_bn_top (in-place)
I0817 16:05:12.208951 17621 net.cpp:150] Setting up L3_b4_cbr1_relu
I0817 16:05:12.208958 17621 net.cpp:157] Top shape: 125 64 8 8 (512000)
I0817 16:05:12.208963 17621 net.cpp:165] Memory required for data: 1327617500
I0817 16:05:12.208968 17621 layer_factory.hpp:77] Creating layer L3_b4_cbr2_conv
I0817 16:05:12.208982 17621 net.cpp:100] Creating Layer L3_b4_cbr2_conv
I0817 16:05:12.208988 17621 net.cpp:434] L3_b4_cbr2_conv <- L3_b4_cbr1_bn_top
I0817 16:05:12.208998 17621 net.cpp:408] L3_b4_cbr2_conv -> L3_b4_cbr2_conv_top
I0817 16:05:12.210031 17621 net.cpp:150] Setting up L3_b4_cbr2_conv
I0817 16:05:12.210047 17621 net.cpp:157] Top shape: 125 64 8 8 (512000)
I0817 16:05:12.210052 17621 net.cpp:165] Memory required for data: 1329665500
I0817 16:05:12.210060 17621 layer_factory.hpp:77] Creating layer L3_b4_cbr2_bn
I0817 16:05:12.210069 17621 net.cpp:100] Creating Layer L3_b4_cbr2_bn
I0817 16:05:12.210077 17621 net.cpp:434] L3_b4_cbr2_bn <- L3_b4_cbr2_conv_top
I0817 16:05:12.210088 17621 net.cpp:408] L3_b4_cbr2_bn -> L3_b4_cbr2_bn_top
I0817 16:05:12.210358 17621 net.cpp:150] Setting up L3_b4_cbr2_bn
I0817 16:05:12.210374 17621 net.cpp:157] Top shape: 125 64 8 8 (512000)
I0817 16:05:12.210379 17621 net.cpp:165] Memory required for data: 1331713500
I0817 16:05:12.210389 17621 layer_factory.hpp:77] Creating layer L3_b4_cbr2_scale
I0817 16:05:12.210398 17621 net.cpp:100] Creating Layer L3_b4_cbr2_scale
I0817 16:05:12.210404 17621 net.cpp:434] L3_b4_cbr2_scale <- L3_b4_cbr2_bn_top
I0817 16:05:12.210412 17621 net.cpp:395] L3_b4_cbr2_scale -> L3_b4_cbr2_bn_top (in-place)
I0817 16:05:12.210471 17621 layer_factory.hpp:77] Creating layer L3_b4_cbr2_scale
I0817 16:05:12.210634 17621 net.cpp:150] Setting up L3_b4_cbr2_scale
I0817 16:05:12.210647 17621 net.cpp:157] Top shape: 125 64 8 8 (512000)
I0817 16:05:12.210652 17621 net.cpp:165] Memory required for data: 1333761500
I0817 16:05:12.210661 17621 layer_factory.hpp:77] Creating layer L3_b4_sum_eltwise
I0817 16:05:12.210674 17621 net.cpp:100] Creating Layer L3_b4_sum_eltwise
I0817 16:05:12.210680 17621 net.cpp:434] L3_b4_sum_eltwise <- L3_b4_cbr2_bn_top
I0817 16:05:12.210693 17621 net.cpp:434] L3_b4_sum_eltwise <- L3_b3_sum_eltwise_top_L3_b3_relu_0_split_1
I0817 16:05:12.210701 17621 net.cpp:408] L3_b4_sum_eltwise -> L3_b4_sum_eltwise_top
I0817 16:05:12.210739 17621 net.cpp:150] Setting up L3_b4_sum_eltwise
I0817 16:05:12.210757 17621 net.cpp:157] Top shape: 125 64 8 8 (512000)
I0817 16:05:12.210762 17621 net.cpp:165] Memory required for data: 1335809500
I0817 16:05:12.210767 17621 layer_factory.hpp:77] Creating layer L3_b4_relu
I0817 16:05:12.210774 17621 net.cpp:100] Creating Layer L3_b4_relu
I0817 16:05:12.210779 17621 net.cpp:434] L3_b4_relu <- L3_b4_sum_eltwise_top
I0817 16:05:12.210788 17621 net.cpp:395] L3_b4_relu -> L3_b4_sum_eltwise_top (in-place)
I0817 16:05:12.210798 17621 net.cpp:150] Setting up L3_b4_relu
I0817 16:05:12.210804 17621 net.cpp:157] Top shape: 125 64 8 8 (512000)
I0817 16:05:12.210808 17621 net.cpp:165] Memory required for data: 1337857500
I0817 16:05:12.210813 17621 layer_factory.hpp:77] Creating layer L3_b4_sum_eltwise_top_L3_b4_relu_0_split
I0817 16:05:12.210820 17621 net.cpp:100] Creating Layer L3_b4_sum_eltwise_top_L3_b4_relu_0_split
I0817 16:05:12.210826 17621 net.cpp:434] L3_b4_sum_eltwise_top_L3_b4_relu_0_split <- L3_b4_sum_eltwise_top
I0817 16:05:12.210836 17621 net.cpp:408] L3_b4_sum_eltwise_top_L3_b4_relu_0_split -> L3_b4_sum_eltwise_top_L3_b4_relu_0_split_0
I0817 16:05:12.210846 17621 net.cpp:408] L3_b4_sum_eltwise_top_L3_b4_relu_0_split -> L3_b4_sum_eltwise_top_L3_b4_relu_0_split_1
I0817 16:05:12.210893 17621 net.cpp:150] Setting up L3_b4_sum_eltwise_top_L3_b4_relu_0_split
I0817 16:05:12.210906 17621 net.cpp:157] Top shape: 125 64 8 8 (512000)
I0817 16:05:12.210911 17621 net.cpp:157] Top shape: 125 64 8 8 (512000)
I0817 16:05:12.210916 17621 net.cpp:165] Memory required for data: 1341953500
I0817 16:05:12.210922 17621 layer_factory.hpp:77] Creating layer L3_b5_cbr1_conv
I0817 16:05:12.210937 17621 net.cpp:100] Creating Layer L3_b5_cbr1_conv
I0817 16:05:12.210943 17621 net.cpp:434] L3_b5_cbr1_conv <- L3_b4_sum_eltwise_top_L3_b4_relu_0_split_0
I0817 16:05:12.210952 17621 net.cpp:408] L3_b5_cbr1_conv -> L3_b5_cbr1_conv_top
I0817 16:05:12.211982 17621 net.cpp:150] Setting up L3_b5_cbr1_conv
I0817 16:05:12.211998 17621 net.cpp:157] Top shape: 125 64 8 8 (512000)
I0817 16:05:12.212003 17621 net.cpp:165] Memory required for data: 1344001500
I0817 16:05:12.212011 17621 layer_factory.hpp:77] Creating layer L3_b5_cbr1_bn
I0817 16:05:12.212023 17621 net.cpp:100] Creating Layer L3_b5_cbr1_bn
I0817 16:05:12.212030 17621 net.cpp:434] L3_b5_cbr1_bn <- L3_b5_cbr1_conv_top
I0817 16:05:12.212038 17621 net.cpp:408] L3_b5_cbr1_bn -> L3_b5_cbr1_bn_top
I0817 16:05:12.213290 17621 net.cpp:150] Setting up L3_b5_cbr1_bn
I0817 16:05:12.213310 17621 net.cpp:157] Top shape: 125 64 8 8 (512000)
I0817 16:05:12.213316 17621 net.cpp:165] Memory required for data: 1346049500
I0817 16:05:12.213328 17621 layer_factory.hpp:77] Creating layer L3_b5_cbr1_scale
I0817 16:05:12.213337 17621 net.cpp:100] Creating Layer L3_b5_cbr1_scale
I0817 16:05:12.213345 17621 net.cpp:434] L3_b5_cbr1_scale <- L3_b5_cbr1_bn_top
I0817 16:05:12.213356 17621 net.cpp:395] L3_b5_cbr1_scale -> L3_b5_cbr1_bn_top (in-place)
I0817 16:05:12.213416 17621 layer_factory.hpp:77] Creating layer L3_b5_cbr1_scale
I0817 16:05:12.213574 17621 net.cpp:150] Setting up L3_b5_cbr1_scale
I0817 16:05:12.213587 17621 net.cpp:157] Top shape: 125 64 8 8 (512000)
I0817 16:05:12.213593 17621 net.cpp:165] Memory required for data: 1348097500
I0817 16:05:12.213603 17621 layer_factory.hpp:77] Creating layer L3_b5_cbr1_relu
I0817 16:05:12.213610 17621 net.cpp:100] Creating Layer L3_b5_cbr1_relu
I0817 16:05:12.213620 17621 net.cpp:434] L3_b5_cbr1_relu <- L3_b5_cbr1_bn_top
I0817 16:05:12.213627 17621 net.cpp:395] L3_b5_cbr1_relu -> L3_b5_cbr1_bn_top (in-place)
I0817 16:05:12.213637 17621 net.cpp:150] Setting up L3_b5_cbr1_relu
I0817 16:05:12.213644 17621 net.cpp:157] Top shape: 125 64 8 8 (512000)
I0817 16:05:12.213649 17621 net.cpp:165] Memory required for data: 1350145500
I0817 16:05:12.213654 17621 layer_factory.hpp:77] Creating layer L3_b5_cbr2_conv
I0817 16:05:12.213668 17621 net.cpp:100] Creating Layer L3_b5_cbr2_conv
I0817 16:05:12.213675 17621 net.cpp:434] L3_b5_cbr2_conv <- L3_b5_cbr1_bn_top
I0817 16:05:12.213688 17621 net.cpp:408] L3_b5_cbr2_conv -> L3_b5_cbr2_conv_top
I0817 16:05:12.215986 17621 net.cpp:150] Setting up L3_b5_cbr2_conv
I0817 16:05:12.216007 17621 net.cpp:157] Top shape: 125 64 8 8 (512000)
I0817 16:05:12.216013 17621 net.cpp:165] Memory required for data: 1352193500
I0817 16:05:12.216022 17621 layer_factory.hpp:77] Creating layer L3_b5_cbr2_bn
I0817 16:05:12.216033 17621 net.cpp:100] Creating Layer L3_b5_cbr2_bn
I0817 16:05:12.216040 17621 net.cpp:434] L3_b5_cbr2_bn <- L3_b5_cbr2_conv_top
I0817 16:05:12.216051 17621 net.cpp:408] L3_b5_cbr2_bn -> L3_b5_cbr2_bn_top
I0817 16:05:12.216315 17621 net.cpp:150] Setting up L3_b5_cbr2_bn
I0817 16:05:12.216331 17621 net.cpp:157] Top shape: 125 64 8 8 (512000)
I0817 16:05:12.216336 17621 net.cpp:165] Memory required for data: 1354241500
I0817 16:05:12.216346 17621 layer_factory.hpp:77] Creating layer L3_b5_cbr2_scale
I0817 16:05:12.216356 17621 net.cpp:100] Creating Layer L3_b5_cbr2_scale
I0817 16:05:12.216361 17621 net.cpp:434] L3_b5_cbr2_scale <- L3_b5_cbr2_bn_top
I0817 16:05:12.216369 17621 net.cpp:395] L3_b5_cbr2_scale -> L3_b5_cbr2_bn_top (in-place)
I0817 16:05:12.216428 17621 layer_factory.hpp:77] Creating layer L3_b5_cbr2_scale
I0817 16:05:12.216578 17621 net.cpp:150] Setting up L3_b5_cbr2_scale
I0817 16:05:12.216591 17621 net.cpp:157] Top shape: 125 64 8 8 (512000)
I0817 16:05:12.216596 17621 net.cpp:165] Memory required for data: 1356289500
I0817 16:05:12.216605 17621 layer_factory.hpp:77] Creating layer L3_b5_sum_eltwise
I0817 16:05:12.216615 17621 net.cpp:100] Creating Layer L3_b5_sum_eltwise
I0817 16:05:12.216625 17621 net.cpp:434] L3_b5_sum_eltwise <- L3_b5_cbr2_bn_top
I0817 16:05:12.216632 17621 net.cpp:434] L3_b5_sum_eltwise <- L3_b4_sum_eltwise_top_L3_b4_relu_0_split_1
I0817 16:05:12.216640 17621 net.cpp:408] L3_b5_sum_eltwise -> L3_b5_sum_eltwise_top
I0817 16:05:12.216675 17621 net.cpp:150] Setting up L3_b5_sum_eltwise
I0817 16:05:12.216692 17621 net.cpp:157] Top shape: 125 64 8 8 (512000)
I0817 16:05:12.216697 17621 net.cpp:165] Memory required for data: 1358337500
I0817 16:05:12.216703 17621 layer_factory.hpp:77] Creating layer L3_b5_relu
I0817 16:05:12.216711 17621 net.cpp:100] Creating Layer L3_b5_relu
I0817 16:05:12.216717 17621 net.cpp:434] L3_b5_relu <- L3_b5_sum_eltwise_top
I0817 16:05:12.216724 17621 net.cpp:395] L3_b5_relu -> L3_b5_sum_eltwise_top (in-place)
I0817 16:05:12.216734 17621 net.cpp:150] Setting up L3_b5_relu
I0817 16:05:12.216742 17621 net.cpp:157] Top shape: 125 64 8 8 (512000)
I0817 16:05:12.216745 17621 net.cpp:165] Memory required for data: 1360385500
I0817 16:05:12.216750 17621 layer_factory.hpp:77] Creating layer L3_b5_sum_eltwise_top_L3_b5_relu_0_split
I0817 16:05:12.216758 17621 net.cpp:100] Creating Layer L3_b5_sum_eltwise_top_L3_b5_relu_0_split
I0817 16:05:12.216763 17621 net.cpp:434] L3_b5_sum_eltwise_top_L3_b5_relu_0_split <- L3_b5_sum_eltwise_top
I0817 16:05:12.216773 17621 net.cpp:408] L3_b5_sum_eltwise_top_L3_b5_relu_0_split -> L3_b5_sum_eltwise_top_L3_b5_relu_0_split_0
I0817 16:05:12.216784 17621 net.cpp:408] L3_b5_sum_eltwise_top_L3_b5_relu_0_split -> L3_b5_sum_eltwise_top_L3_b5_relu_0_split_1
I0817 16:05:12.216830 17621 net.cpp:150] Setting up L3_b5_sum_eltwise_top_L3_b5_relu_0_split
I0817 16:05:12.216840 17621 net.cpp:157] Top shape: 125 64 8 8 (512000)
I0817 16:05:12.216847 17621 net.cpp:157] Top shape: 125 64 8 8 (512000)
I0817 16:05:12.216851 17621 net.cpp:165] Memory required for data: 1364481500
I0817 16:05:12.216856 17621 layer_factory.hpp:77] Creating layer L3_b6_cbr1_conv
I0817 16:05:12.216871 17621 net.cpp:100] Creating Layer L3_b6_cbr1_conv
I0817 16:05:12.216877 17621 net.cpp:434] L3_b6_cbr1_conv <- L3_b5_sum_eltwise_top_L3_b5_relu_0_split_0
I0817 16:05:12.216887 17621 net.cpp:408] L3_b6_cbr1_conv -> L3_b6_cbr1_conv_top
I0817 16:05:12.217900 17621 net.cpp:150] Setting up L3_b6_cbr1_conv
I0817 16:05:12.217916 17621 net.cpp:157] Top shape: 125 64 8 8 (512000)
I0817 16:05:12.217921 17621 net.cpp:165] Memory required for data: 1366529500
I0817 16:05:12.217931 17621 layer_factory.hpp:77] Creating layer L3_b6_cbr1_bn
I0817 16:05:12.217939 17621 net.cpp:100] Creating Layer L3_b6_cbr1_bn
I0817 16:05:12.217953 17621 net.cpp:434] L3_b6_cbr1_bn <- L3_b6_cbr1_conv_top
I0817 16:05:12.217965 17621 net.cpp:408] L3_b6_cbr1_bn -> L3_b6_cbr1_bn_top
I0817 16:05:12.218224 17621 net.cpp:150] Setting up L3_b6_cbr1_bn
I0817 16:05:12.218236 17621 net.cpp:157] Top shape: 125 64 8 8 (512000)
I0817 16:05:12.218241 17621 net.cpp:165] Memory required for data: 1368577500
I0817 16:05:12.218252 17621 layer_factory.hpp:77] Creating layer L3_b6_cbr1_scale
I0817 16:05:12.218261 17621 net.cpp:100] Creating Layer L3_b6_cbr1_scale
I0817 16:05:12.218267 17621 net.cpp:434] L3_b6_cbr1_scale <- L3_b6_cbr1_bn_top
I0817 16:05:12.218277 17621 net.cpp:395] L3_b6_cbr1_scale -> L3_b6_cbr1_bn_top (in-place)
I0817 16:05:12.218334 17621 layer_factory.hpp:77] Creating layer L3_b6_cbr1_scale
I0817 16:05:12.218489 17621 net.cpp:150] Setting up L3_b6_cbr1_scale
I0817 16:05:12.218503 17621 net.cpp:157] Top shape: 125 64 8 8 (512000)
I0817 16:05:12.218508 17621 net.cpp:165] Memory required for data: 1370625500
I0817 16:05:12.218518 17621 layer_factory.hpp:77] Creating layer L3_b6_cbr1_relu
I0817 16:05:12.218528 17621 net.cpp:100] Creating Layer L3_b6_cbr1_relu
I0817 16:05:12.218535 17621 net.cpp:434] L3_b6_cbr1_relu <- L3_b6_cbr1_bn_top
I0817 16:05:12.218542 17621 net.cpp:395] L3_b6_cbr1_relu -> L3_b6_cbr1_bn_top (in-place)
I0817 16:05:12.218552 17621 net.cpp:150] Setting up L3_b6_cbr1_relu
I0817 16:05:12.218559 17621 net.cpp:157] Top shape: 125 64 8 8 (512000)
I0817 16:05:12.218564 17621 net.cpp:165] Memory required for data: 1372673500
I0817 16:05:12.218569 17621 layer_factory.hpp:77] Creating layer L3_b6_cbr2_conv
I0817 16:05:12.218583 17621 net.cpp:100] Creating Layer L3_b6_cbr2_conv
I0817 16:05:12.218590 17621 net.cpp:434] L3_b6_cbr2_conv <- L3_b6_cbr1_bn_top
I0817 16:05:12.218600 17621 net.cpp:408] L3_b6_cbr2_conv -> L3_b6_cbr2_conv_top
I0817 16:05:12.219607 17621 net.cpp:150] Setting up L3_b6_cbr2_conv
I0817 16:05:12.219622 17621 net.cpp:157] Top shape: 125 64 8 8 (512000)
I0817 16:05:12.219629 17621 net.cpp:165] Memory required for data: 1374721500
I0817 16:05:12.219637 17621 layer_factory.hpp:77] Creating layer L3_b6_cbr2_bn
I0817 16:05:12.219646 17621 net.cpp:100] Creating Layer L3_b6_cbr2_bn
I0817 16:05:12.219652 17621 net.cpp:434] L3_b6_cbr2_bn <- L3_b6_cbr2_conv_top
I0817 16:05:12.219663 17621 net.cpp:408] L3_b6_cbr2_bn -> L3_b6_cbr2_bn_top
I0817 16:05:12.219930 17621 net.cpp:150] Setting up L3_b6_cbr2_bn
I0817 16:05:12.219946 17621 net.cpp:157] Top shape: 125 64 8 8 (512000)
I0817 16:05:12.219951 17621 net.cpp:165] Memory required for data: 1376769500
I0817 16:05:12.219962 17621 layer_factory.hpp:77] Creating layer L3_b6_cbr2_scale
I0817 16:05:12.219971 17621 net.cpp:100] Creating Layer L3_b6_cbr2_scale
I0817 16:05:12.219977 17621 net.cpp:434] L3_b6_cbr2_scale <- L3_b6_cbr2_bn_top
I0817 16:05:12.219985 17621 net.cpp:395] L3_b6_cbr2_scale -> L3_b6_cbr2_bn_top (in-place)
I0817 16:05:12.220041 17621 layer_factory.hpp:77] Creating layer L3_b6_cbr2_scale
I0817 16:05:12.220198 17621 net.cpp:150] Setting up L3_b6_cbr2_scale
I0817 16:05:12.220211 17621 net.cpp:157] Top shape: 125 64 8 8 (512000)
I0817 16:05:12.220216 17621 net.cpp:165] Memory required for data: 1378817500
I0817 16:05:12.220226 17621 layer_factory.hpp:77] Creating layer L3_b6_sum_eltwise
I0817 16:05:12.220237 17621 net.cpp:100] Creating Layer L3_b6_sum_eltwise
I0817 16:05:12.220244 17621 net.cpp:434] L3_b6_sum_eltwise <- L3_b6_cbr2_bn_top
I0817 16:05:12.220252 17621 net.cpp:434] L3_b6_sum_eltwise <- L3_b5_sum_eltwise_top_L3_b5_relu_0_split_1
I0817 16:05:12.220259 17621 net.cpp:408] L3_b6_sum_eltwise -> L3_b6_sum_eltwise_top
I0817 16:05:12.220295 17621 net.cpp:150] Setting up L3_b6_sum_eltwise
I0817 16:05:12.220306 17621 net.cpp:157] Top shape: 125 64 8 8 (512000)
I0817 16:05:12.220311 17621 net.cpp:165] Memory required for data: 1380865500
I0817 16:05:12.220316 17621 layer_factory.hpp:77] Creating layer L3_b6_relu
I0817 16:05:12.220324 17621 net.cpp:100] Creating Layer L3_b6_relu
I0817 16:05:12.220330 17621 net.cpp:434] L3_b6_relu <- L3_b6_sum_eltwise_top
I0817 16:05:12.220343 17621 net.cpp:395] L3_b6_relu -> L3_b6_sum_eltwise_top (in-place)
I0817 16:05:12.220353 17621 net.cpp:150] Setting up L3_b6_relu
I0817 16:05:12.220361 17621 net.cpp:157] Top shape: 125 64 8 8 (512000)
I0817 16:05:12.220366 17621 net.cpp:165] Memory required for data: 1382913500
I0817 16:05:12.220371 17621 layer_factory.hpp:77] Creating layer L3_b6_sum_eltwise_top_L3_b6_relu_0_split
I0817 16:05:12.220378 17621 net.cpp:100] Creating Layer L3_b6_sum_eltwise_top_L3_b6_relu_0_split
I0817 16:05:12.220383 17621 net.cpp:434] L3_b6_sum_eltwise_top_L3_b6_relu_0_split <- L3_b6_sum_eltwise_top
I0817 16:05:12.220393 17621 net.cpp:408] L3_b6_sum_eltwise_top_L3_b6_relu_0_split -> L3_b6_sum_eltwise_top_L3_b6_relu_0_split_0
I0817 16:05:12.220403 17621 net.cpp:408] L3_b6_sum_eltwise_top_L3_b6_relu_0_split -> L3_b6_sum_eltwise_top_L3_b6_relu_0_split_1
I0817 16:05:12.220449 17621 net.cpp:150] Setting up L3_b6_sum_eltwise_top_L3_b6_relu_0_split
I0817 16:05:12.220461 17621 net.cpp:157] Top shape: 125 64 8 8 (512000)
I0817 16:05:12.220468 17621 net.cpp:157] Top shape: 125 64 8 8 (512000)
I0817 16:05:12.220473 17621 net.cpp:165] Memory required for data: 1387009500
I0817 16:05:12.220477 17621 layer_factory.hpp:77] Creating layer L3_b7_cbr1_conv
I0817 16:05:12.220491 17621 net.cpp:100] Creating Layer L3_b7_cbr1_conv
I0817 16:05:12.220499 17621 net.cpp:434] L3_b7_cbr1_conv <- L3_b6_sum_eltwise_top_L3_b6_relu_0_split_0
I0817 16:05:12.220507 17621 net.cpp:408] L3_b7_cbr1_conv -> L3_b7_cbr1_conv_top
I0817 16:05:12.221525 17621 net.cpp:150] Setting up L3_b7_cbr1_conv
I0817 16:05:12.221541 17621 net.cpp:157] Top shape: 125 64 8 8 (512000)
I0817 16:05:12.221546 17621 net.cpp:165] Memory required for data: 1389057500
I0817 16:05:12.221555 17621 layer_factory.hpp:77] Creating layer L3_b7_cbr1_bn
I0817 16:05:12.221567 17621 net.cpp:100] Creating Layer L3_b7_cbr1_bn
I0817 16:05:12.221575 17621 net.cpp:434] L3_b7_cbr1_bn <- L3_b7_cbr1_conv_top
I0817 16:05:12.221582 17621 net.cpp:408] L3_b7_cbr1_bn -> L3_b7_cbr1_bn_top
I0817 16:05:12.221848 17621 net.cpp:150] Setting up L3_b7_cbr1_bn
I0817 16:05:12.221863 17621 net.cpp:157] Top shape: 125 64 8 8 (512000)
I0817 16:05:12.221866 17621 net.cpp:165] Memory required for data: 1391105500
I0817 16:05:12.221877 17621 layer_factory.hpp:77] Creating layer L3_b7_cbr1_scale
I0817 16:05:12.221889 17621 net.cpp:100] Creating Layer L3_b7_cbr1_scale
I0817 16:05:12.221895 17621 net.cpp:434] L3_b7_cbr1_scale <- L3_b7_cbr1_bn_top
I0817 16:05:12.221904 17621 net.cpp:395] L3_b7_cbr1_scale -> L3_b7_cbr1_bn_top (in-place)
I0817 16:05:12.221963 17621 layer_factory.hpp:77] Creating layer L3_b7_cbr1_scale
I0817 16:05:12.222118 17621 net.cpp:150] Setting up L3_b7_cbr1_scale
I0817 16:05:12.222132 17621 net.cpp:157] Top shape: 125 64 8 8 (512000)
I0817 16:05:12.222137 17621 net.cpp:165] Memory required for data: 1393153500
I0817 16:05:12.222146 17621 layer_factory.hpp:77] Creating layer L3_b7_cbr1_relu
I0817 16:05:12.222183 17621 net.cpp:100] Creating Layer L3_b7_cbr1_relu
I0817 16:05:12.222193 17621 net.cpp:434] L3_b7_cbr1_relu <- L3_b7_cbr1_bn_top
I0817 16:05:12.222200 17621 net.cpp:395] L3_b7_cbr1_relu -> L3_b7_cbr1_bn_top (in-place)
I0817 16:05:12.222210 17621 net.cpp:150] Setting up L3_b7_cbr1_relu
I0817 16:05:12.222218 17621 net.cpp:157] Top shape: 125 64 8 8 (512000)
I0817 16:05:12.222223 17621 net.cpp:165] Memory required for data: 1395201500
I0817 16:05:12.222228 17621 layer_factory.hpp:77] Creating layer L3_b7_cbr2_conv
I0817 16:05:12.222239 17621 net.cpp:100] Creating Layer L3_b7_cbr2_conv
I0817 16:05:12.222245 17621 net.cpp:434] L3_b7_cbr2_conv <- L3_b7_cbr1_bn_top
I0817 16:05:12.222254 17621 net.cpp:408] L3_b7_cbr2_conv -> L3_b7_cbr2_conv_top
I0817 16:05:12.223281 17621 net.cpp:150] Setting up L3_b7_cbr2_conv
I0817 16:05:12.223296 17621 net.cpp:157] Top shape: 125 64 8 8 (512000)
I0817 16:05:12.223301 17621 net.cpp:165] Memory required for data: 1397249500
I0817 16:05:12.223310 17621 layer_factory.hpp:77] Creating layer L3_b7_cbr2_bn
I0817 16:05:12.223322 17621 net.cpp:100] Creating Layer L3_b7_cbr2_bn
I0817 16:05:12.223336 17621 net.cpp:434] L3_b7_cbr2_bn <- L3_b7_cbr2_conv_top
I0817 16:05:12.223347 17621 net.cpp:408] L3_b7_cbr2_bn -> L3_b7_cbr2_bn_top
I0817 16:05:12.223614 17621 net.cpp:150] Setting up L3_b7_cbr2_bn
I0817 16:05:12.223628 17621 net.cpp:157] Top shape: 125 64 8 8 (512000)
I0817 16:05:12.223633 17621 net.cpp:165] Memory required for data: 1399297500
I0817 16:05:12.223642 17621 layer_factory.hpp:77] Creating layer L3_b7_cbr2_scale
I0817 16:05:12.223651 17621 net.cpp:100] Creating Layer L3_b7_cbr2_scale
I0817 16:05:12.223657 17621 net.cpp:434] L3_b7_cbr2_scale <- L3_b7_cbr2_bn_top
I0817 16:05:12.223668 17621 net.cpp:395] L3_b7_cbr2_scale -> L3_b7_cbr2_bn_top (in-place)
I0817 16:05:12.223733 17621 layer_factory.hpp:77] Creating layer L3_b7_cbr2_scale
I0817 16:05:12.223891 17621 net.cpp:150] Setting up L3_b7_cbr2_scale
I0817 16:05:12.223906 17621 net.cpp:157] Top shape: 125 64 8 8 (512000)
I0817 16:05:12.223911 17621 net.cpp:165] Memory required for data: 1401345500
I0817 16:05:12.223919 17621 layer_factory.hpp:77] Creating layer L3_b7_sum_eltwise
I0817 16:05:12.223932 17621 net.cpp:100] Creating Layer L3_b7_sum_eltwise
I0817 16:05:12.223938 17621 net.cpp:434] L3_b7_sum_eltwise <- L3_b7_cbr2_bn_top
I0817 16:05:12.223945 17621 net.cpp:434] L3_b7_sum_eltwise <- L3_b6_sum_eltwise_top_L3_b6_relu_0_split_1
I0817 16:05:12.223953 17621 net.cpp:408] L3_b7_sum_eltwise -> L3_b7_sum_eltwise_top
I0817 16:05:12.223990 17621 net.cpp:150] Setting up L3_b7_sum_eltwise
I0817 16:05:12.224002 17621 net.cpp:157] Top shape: 125 64 8 8 (512000)
I0817 16:05:12.224007 17621 net.cpp:165] Memory required for data: 1403393500
I0817 16:05:12.224012 17621 layer_factory.hpp:77] Creating layer L3_b7_relu
I0817 16:05:12.224020 17621 net.cpp:100] Creating Layer L3_b7_relu
I0817 16:05:12.224026 17621 net.cpp:434] L3_b7_relu <- L3_b7_sum_eltwise_top
I0817 16:05:12.224036 17621 net.cpp:395] L3_b7_relu -> L3_b7_sum_eltwise_top (in-place)
I0817 16:05:12.224045 17621 net.cpp:150] Setting up L3_b7_relu
I0817 16:05:12.224053 17621 net.cpp:157] Top shape: 125 64 8 8 (512000)
I0817 16:05:12.224057 17621 net.cpp:165] Memory required for data: 1405441500
I0817 16:05:12.224062 17621 layer_factory.hpp:77] Creating layer L3_b7_sum_eltwise_top_L3_b7_relu_0_split
I0817 16:05:12.224069 17621 net.cpp:100] Creating Layer L3_b7_sum_eltwise_top_L3_b7_relu_0_split
I0817 16:05:12.224074 17621 net.cpp:434] L3_b7_sum_eltwise_top_L3_b7_relu_0_split <- L3_b7_sum_eltwise_top
I0817 16:05:12.224082 17621 net.cpp:408] L3_b7_sum_eltwise_top_L3_b7_relu_0_split -> L3_b7_sum_eltwise_top_L3_b7_relu_0_split_0
I0817 16:05:12.224092 17621 net.cpp:408] L3_b7_sum_eltwise_top_L3_b7_relu_0_split -> L3_b7_sum_eltwise_top_L3_b7_relu_0_split_1
I0817 16:05:12.224140 17621 net.cpp:150] Setting up L3_b7_sum_eltwise_top_L3_b7_relu_0_split
I0817 16:05:12.224151 17621 net.cpp:157] Top shape: 125 64 8 8 (512000)
I0817 16:05:12.224159 17621 net.cpp:157] Top shape: 125 64 8 8 (512000)
I0817 16:05:12.224162 17621 net.cpp:165] Memory required for data: 1409537500
I0817 16:05:12.224169 17621 layer_factory.hpp:77] Creating layer L3_b8_cbr1_conv
I0817 16:05:12.224179 17621 net.cpp:100] Creating Layer L3_b8_cbr1_conv
I0817 16:05:12.224185 17621 net.cpp:434] L3_b8_cbr1_conv <- L3_b7_sum_eltwise_top_L3_b7_relu_0_split_0
I0817 16:05:12.224197 17621 net.cpp:408] L3_b8_cbr1_conv -> L3_b8_cbr1_conv_top
I0817 16:05:12.225214 17621 net.cpp:150] Setting up L3_b8_cbr1_conv
I0817 16:05:12.225229 17621 net.cpp:157] Top shape: 125 64 8 8 (512000)
I0817 16:05:12.225234 17621 net.cpp:165] Memory required for data: 1411585500
I0817 16:05:12.225244 17621 layer_factory.hpp:77] Creating layer L3_b8_cbr1_bn
I0817 16:05:12.225256 17621 net.cpp:100] Creating Layer L3_b8_cbr1_bn
I0817 16:05:12.225262 17621 net.cpp:434] L3_b8_cbr1_bn <- L3_b8_cbr1_conv_top
I0817 16:05:12.225271 17621 net.cpp:408] L3_b8_cbr1_bn -> L3_b8_cbr1_bn_top
I0817 16:05:12.225540 17621 net.cpp:150] Setting up L3_b8_cbr1_bn
I0817 16:05:12.225553 17621 net.cpp:157] Top shape: 125 64 8 8 (512000)
I0817 16:05:12.225558 17621 net.cpp:165] Memory required for data: 1413633500
I0817 16:05:12.225576 17621 layer_factory.hpp:77] Creating layer L3_b8_cbr1_scale
I0817 16:05:12.225585 17621 net.cpp:100] Creating Layer L3_b8_cbr1_scale
I0817 16:05:12.225592 17621 net.cpp:434] L3_b8_cbr1_scale <- L3_b8_cbr1_bn_top
I0817 16:05:12.225600 17621 net.cpp:395] L3_b8_cbr1_scale -> L3_b8_cbr1_bn_top (in-place)
I0817 16:05:12.225659 17621 layer_factory.hpp:77] Creating layer L3_b8_cbr1_scale
I0817 16:05:12.225819 17621 net.cpp:150] Setting up L3_b8_cbr1_scale
I0817 16:05:12.225836 17621 net.cpp:157] Top shape: 125 64 8 8 (512000)
I0817 16:05:12.225841 17621 net.cpp:165] Memory required for data: 1415681500
I0817 16:05:12.225850 17621 layer_factory.hpp:77] Creating layer L3_b8_cbr1_relu
I0817 16:05:12.225858 17621 net.cpp:100] Creating Layer L3_b8_cbr1_relu
I0817 16:05:12.225864 17621 net.cpp:434] L3_b8_cbr1_relu <- L3_b8_cbr1_bn_top
I0817 16:05:12.225872 17621 net.cpp:395] L3_b8_cbr1_relu -> L3_b8_cbr1_bn_top (in-place)
I0817 16:05:12.225881 17621 net.cpp:150] Setting up L3_b8_cbr1_relu
I0817 16:05:12.225888 17621 net.cpp:157] Top shape: 125 64 8 8 (512000)
I0817 16:05:12.225893 17621 net.cpp:165] Memory required for data: 1417729500
I0817 16:05:12.225898 17621 layer_factory.hpp:77] Creating layer L3_b8_cbr2_conv
I0817 16:05:12.225911 17621 net.cpp:100] Creating Layer L3_b8_cbr2_conv
I0817 16:05:12.225917 17621 net.cpp:434] L3_b8_cbr2_conv <- L3_b8_cbr1_bn_top
I0817 16:05:12.225929 17621 net.cpp:408] L3_b8_cbr2_conv -> L3_b8_cbr2_conv_top
I0817 16:05:12.226948 17621 net.cpp:150] Setting up L3_b8_cbr2_conv
I0817 16:05:12.226963 17621 net.cpp:157] Top shape: 125 64 8 8 (512000)
I0817 16:05:12.226969 17621 net.cpp:165] Memory required for data: 1419777500
I0817 16:05:12.226977 17621 layer_factory.hpp:77] Creating layer L3_b8_cbr2_bn
I0817 16:05:12.226989 17621 net.cpp:100] Creating Layer L3_b8_cbr2_bn
I0817 16:05:12.226996 17621 net.cpp:434] L3_b8_cbr2_bn <- L3_b8_cbr2_conv_top
I0817 16:05:12.227005 17621 net.cpp:408] L3_b8_cbr2_bn -> L3_b8_cbr2_bn_top
I0817 16:05:12.227267 17621 net.cpp:150] Setting up L3_b8_cbr2_bn
I0817 16:05:12.227279 17621 net.cpp:157] Top shape: 125 64 8 8 (512000)
I0817 16:05:12.227284 17621 net.cpp:165] Memory required for data: 1421825500
I0817 16:05:12.227295 17621 layer_factory.hpp:77] Creating layer L3_b8_cbr2_scale
I0817 16:05:12.227306 17621 net.cpp:100] Creating Layer L3_b8_cbr2_scale
I0817 16:05:12.227313 17621 net.cpp:434] L3_b8_cbr2_scale <- L3_b8_cbr2_bn_top
I0817 16:05:12.227320 17621 net.cpp:395] L3_b8_cbr2_scale -> L3_b8_cbr2_bn_top (in-place)
I0817 16:05:12.227377 17621 layer_factory.hpp:77] Creating layer L3_b8_cbr2_scale
I0817 16:05:12.227535 17621 net.cpp:150] Setting up L3_b8_cbr2_scale
I0817 16:05:12.227550 17621 net.cpp:157] Top shape: 125 64 8 8 (512000)
I0817 16:05:12.227555 17621 net.cpp:165] Memory required for data: 1423873500
I0817 16:05:12.227563 17621 layer_factory.hpp:77] Creating layer L3_b8_sum_eltwise
I0817 16:05:12.227576 17621 net.cpp:100] Creating Layer L3_b8_sum_eltwise
I0817 16:05:12.227582 17621 net.cpp:434] L3_b8_sum_eltwise <- L3_b8_cbr2_bn_top
I0817 16:05:12.227589 17621 net.cpp:434] L3_b8_sum_eltwise <- L3_b7_sum_eltwise_top_L3_b7_relu_0_split_1
I0817 16:05:12.227597 17621 net.cpp:408] L3_b8_sum_eltwise -> L3_b8_sum_eltwise_top
I0817 16:05:12.227633 17621 net.cpp:150] Setting up L3_b8_sum_eltwise
I0817 16:05:12.227644 17621 net.cpp:157] Top shape: 125 64 8 8 (512000)
I0817 16:05:12.227649 17621 net.cpp:165] Memory required for data: 1425921500
I0817 16:05:12.227654 17621 layer_factory.hpp:77] Creating layer L3_b8_relu
I0817 16:05:12.227661 17621 net.cpp:100] Creating Layer L3_b8_relu
I0817 16:05:12.227668 17621 net.cpp:434] L3_b8_relu <- L3_b8_sum_eltwise_top
I0817 16:05:12.227677 17621 net.cpp:395] L3_b8_relu -> L3_b8_sum_eltwise_top (in-place)
I0817 16:05:12.227692 17621 net.cpp:150] Setting up L3_b8_relu
I0817 16:05:12.227700 17621 net.cpp:157] Top shape: 125 64 8 8 (512000)
I0817 16:05:12.227705 17621 net.cpp:165] Memory required for data: 1427969500
I0817 16:05:12.227710 17621 layer_factory.hpp:77] Creating layer L3_b8_sum_eltwise_top_L3_b8_relu_0_split
I0817 16:05:12.227725 17621 net.cpp:100] Creating Layer L3_b8_sum_eltwise_top_L3_b8_relu_0_split
I0817 16:05:12.227730 17621 net.cpp:434] L3_b8_sum_eltwise_top_L3_b8_relu_0_split <- L3_b8_sum_eltwise_top
I0817 16:05:12.227737 17621 net.cpp:408] L3_b8_sum_eltwise_top_L3_b8_relu_0_split -> L3_b8_sum_eltwise_top_L3_b8_relu_0_split_0
I0817 16:05:12.227747 17621 net.cpp:408] L3_b8_sum_eltwise_top_L3_b8_relu_0_split -> L3_b8_sum_eltwise_top_L3_b8_relu_0_split_1
I0817 16:05:12.227798 17621 net.cpp:150] Setting up L3_b8_sum_eltwise_top_L3_b8_relu_0_split
I0817 16:05:12.227810 17621 net.cpp:157] Top shape: 125 64 8 8 (512000)
I0817 16:05:12.227816 17621 net.cpp:157] Top shape: 125 64 8 8 (512000)
I0817 16:05:12.227821 17621 net.cpp:165] Memory required for data: 1432065500
I0817 16:05:12.227826 17621 layer_factory.hpp:77] Creating layer L3_b9_cbr1_conv
I0817 16:05:12.227838 17621 net.cpp:100] Creating Layer L3_b9_cbr1_conv
I0817 16:05:12.227844 17621 net.cpp:434] L3_b9_cbr1_conv <- L3_b8_sum_eltwise_top_L3_b8_relu_0_split_0
I0817 16:05:12.227856 17621 net.cpp:408] L3_b9_cbr1_conv -> L3_b9_cbr1_conv_top
I0817 16:05:12.229919 17621 net.cpp:150] Setting up L3_b9_cbr1_conv
I0817 16:05:12.229938 17621 net.cpp:157] Top shape: 125 64 8 8 (512000)
I0817 16:05:12.229943 17621 net.cpp:165] Memory required for data: 1434113500
I0817 16:05:12.229953 17621 layer_factory.hpp:77] Creating layer L3_b9_cbr1_bn
I0817 16:05:12.229965 17621 net.cpp:100] Creating Layer L3_b9_cbr1_bn
I0817 16:05:12.229972 17621 net.cpp:434] L3_b9_cbr1_bn <- L3_b9_cbr1_conv_top
I0817 16:05:12.229981 17621 net.cpp:408] L3_b9_cbr1_bn -> L3_b9_cbr1_bn_top
I0817 16:05:12.230248 17621 net.cpp:150] Setting up L3_b9_cbr1_bn
I0817 16:05:12.230262 17621 net.cpp:157] Top shape: 125 64 8 8 (512000)
I0817 16:05:12.230267 17621 net.cpp:165] Memory required for data: 1436161500
I0817 16:05:12.230278 17621 layer_factory.hpp:77] Creating layer L3_b9_cbr1_scale
I0817 16:05:12.230288 17621 net.cpp:100] Creating Layer L3_b9_cbr1_scale
I0817 16:05:12.230295 17621 net.cpp:434] L3_b9_cbr1_scale <- L3_b9_cbr1_bn_top
I0817 16:05:12.230303 17621 net.cpp:395] L3_b9_cbr1_scale -> L3_b9_cbr1_bn_top (in-place)
I0817 16:05:12.230368 17621 layer_factory.hpp:77] Creating layer L3_b9_cbr1_scale
I0817 16:05:12.230530 17621 net.cpp:150] Setting up L3_b9_cbr1_scale
I0817 16:05:12.230543 17621 net.cpp:157] Top shape: 125 64 8 8 (512000)
I0817 16:05:12.230550 17621 net.cpp:165] Memory required for data: 1438209500
I0817 16:05:12.230558 17621 layer_factory.hpp:77] Creating layer L3_b9_cbr1_relu
I0817 16:05:12.230566 17621 net.cpp:100] Creating Layer L3_b9_cbr1_relu
I0817 16:05:12.230572 17621 net.cpp:434] L3_b9_cbr1_relu <- L3_b9_cbr1_bn_top
I0817 16:05:12.230583 17621 net.cpp:395] L3_b9_cbr1_relu -> L3_b9_cbr1_bn_top (in-place)
I0817 16:05:12.230593 17621 net.cpp:150] Setting up L3_b9_cbr1_relu
I0817 16:05:12.230600 17621 net.cpp:157] Top shape: 125 64 8 8 (512000)
I0817 16:05:12.230605 17621 net.cpp:165] Memory required for data: 1440257500
I0817 16:05:12.230610 17621 layer_factory.hpp:77] Creating layer L3_b9_cbr2_conv
I0817 16:05:12.230621 17621 net.cpp:100] Creating Layer L3_b9_cbr2_conv
I0817 16:05:12.230628 17621 net.cpp:434] L3_b9_cbr2_conv <- L3_b9_cbr1_bn_top
I0817 16:05:12.230638 17621 net.cpp:408] L3_b9_cbr2_conv -> L3_b9_cbr2_conv_top
I0817 16:05:12.231657 17621 net.cpp:150] Setting up L3_b9_cbr2_conv
I0817 16:05:12.231673 17621 net.cpp:157] Top shape: 125 64 8 8 (512000)
I0817 16:05:12.231678 17621 net.cpp:165] Memory required for data: 1442305500
I0817 16:05:12.231691 17621 layer_factory.hpp:77] Creating layer L3_b9_cbr2_bn
I0817 16:05:12.231705 17621 net.cpp:100] Creating Layer L3_b9_cbr2_bn
I0817 16:05:12.231712 17621 net.cpp:434] L3_b9_cbr2_bn <- L3_b9_cbr2_conv_top
I0817 16:05:12.231720 17621 net.cpp:408] L3_b9_cbr2_bn -> L3_b9_cbr2_bn_top
I0817 16:05:12.231987 17621 net.cpp:150] Setting up L3_b9_cbr2_bn
I0817 16:05:12.232007 17621 net.cpp:157] Top shape: 125 64 8 8 (512000)
I0817 16:05:12.232012 17621 net.cpp:165] Memory required for data: 1444353500
I0817 16:05:12.232030 17621 layer_factory.hpp:77] Creating layer L3_b9_cbr2_scale
I0817 16:05:12.232039 17621 net.cpp:100] Creating Layer L3_b9_cbr2_scale
I0817 16:05:12.232046 17621 net.cpp:434] L3_b9_cbr2_scale <- L3_b9_cbr2_bn_top
I0817 16:05:12.232053 17621 net.cpp:395] L3_b9_cbr2_scale -> L3_b9_cbr2_bn_top (in-place)
I0817 16:05:12.232117 17621 layer_factory.hpp:77] Creating layer L3_b9_cbr2_scale
I0817 16:05:12.232270 17621 net.cpp:150] Setting up L3_b9_cbr2_scale
I0817 16:05:12.232285 17621 net.cpp:157] Top shape: 125 64 8 8 (512000)
I0817 16:05:12.232290 17621 net.cpp:165] Memory required for data: 1446401500
I0817 16:05:12.232300 17621 layer_factory.hpp:77] Creating layer L3_b9_sum_eltwise
I0817 16:05:12.232308 17621 net.cpp:100] Creating Layer L3_b9_sum_eltwise
I0817 16:05:12.232316 17621 net.cpp:434] L3_b9_sum_eltwise <- L3_b9_cbr2_bn_top
I0817 16:05:12.232322 17621 net.cpp:434] L3_b9_sum_eltwise <- L3_b8_sum_eltwise_top_L3_b8_relu_0_split_1
I0817 16:05:12.232332 17621 net.cpp:408] L3_b9_sum_eltwise -> L3_b9_sum_eltwise_top
I0817 16:05:12.232365 17621 net.cpp:150] Setting up L3_b9_sum_eltwise
I0817 16:05:12.232378 17621 net.cpp:157] Top shape: 125 64 8 8 (512000)
I0817 16:05:12.232383 17621 net.cpp:165] Memory required for data: 1448449500
I0817 16:05:12.232388 17621 layer_factory.hpp:77] Creating layer L3_b9_relu
I0817 16:05:12.232398 17621 net.cpp:100] Creating Layer L3_b9_relu
I0817 16:05:12.232404 17621 net.cpp:434] L3_b9_relu <- L3_b9_sum_eltwise_top
I0817 16:05:12.232411 17621 net.cpp:395] L3_b9_relu -> L3_b9_sum_eltwise_top (in-place)
I0817 16:05:12.232420 17621 net.cpp:150] Setting up L3_b9_relu
I0817 16:05:12.232427 17621 net.cpp:157] Top shape: 125 64 8 8 (512000)
I0817 16:05:12.232432 17621 net.cpp:165] Memory required for data: 1450497500
I0817 16:05:12.232437 17621 layer_factory.hpp:77] Creating layer post_pool
I0817 16:05:12.232472 17621 net.cpp:100] Creating Layer post_pool
I0817 16:05:12.232482 17621 net.cpp:434] post_pool <- L3_b9_sum_eltwise_top
I0817 16:05:12.232491 17621 net.cpp:408] post_pool -> post_pool
I0817 16:05:12.232527 17621 net.cpp:150] Setting up post_pool
I0817 16:05:12.232539 17621 net.cpp:157] Top shape: 125 64 1 1 (8000)
I0817 16:05:12.232544 17621 net.cpp:165] Memory required for data: 1450529500
I0817 16:05:12.232549 17621 layer_factory.hpp:77] Creating layer post_FC
I0817 16:05:12.232632 17621 net.cpp:100] Creating Layer post_FC
I0817 16:05:12.232645 17621 net.cpp:434] post_FC <- post_pool
I0817 16:05:12.232661 17621 net.cpp:408] post_FC -> post_FC_top
I0817 16:05:12.232914 17621 net.cpp:150] Setting up post_FC
I0817 16:05:12.232931 17621 net.cpp:157] Top shape: 125 10 (1250)
I0817 16:05:12.232936 17621 net.cpp:165] Memory required for data: 1450534500
I0817 16:05:12.232946 17621 layer_factory.hpp:77] Creating layer post_FC_top_post_FC_0_split
I0817 16:05:12.232954 17621 net.cpp:100] Creating Layer post_FC_top_post_FC_0_split
I0817 16:05:12.232960 17621 net.cpp:434] post_FC_top_post_FC_0_split <- post_FC_top
I0817 16:05:12.232971 17621 net.cpp:408] post_FC_top_post_FC_0_split -> post_FC_top_post_FC_0_split_0
I0817 16:05:12.232982 17621 net.cpp:408] post_FC_top_post_FC_0_split -> post_FC_top_post_FC_0_split_1
I0817 16:05:12.233033 17621 net.cpp:150] Setting up post_FC_top_post_FC_0_split
I0817 16:05:12.233045 17621 net.cpp:157] Top shape: 125 10 (1250)
I0817 16:05:12.233052 17621 net.cpp:157] Top shape: 125 10 (1250)
I0817 16:05:12.233057 17621 net.cpp:165] Memory required for data: 1450544500
I0817 16:05:12.233062 17621 layer_factory.hpp:77] Creating layer accuracy
I0817 16:05:12.233104 17621 net.cpp:100] Creating Layer accuracy
I0817 16:05:12.233115 17621 net.cpp:434] accuracy <- post_FC_top_post_FC_0_split_0
I0817 16:05:12.233124 17621 net.cpp:434] accuracy <- label_dataLayer_1_split_0
I0817 16:05:12.233131 17621 net.cpp:408] accuracy -> accuracy
…
