…
I0817 16:02:51.607754 17550 net.cpp:322] The NetState phase (0) differed from the phase (1) specified by a rule in layer L3_b9_cbr2_bn
I0817 16:02:51.609508 17550 net.cpp:58] Initializing net from parameters: 
name: "Cifar-Resnet"
state {
  phase: TRAIN
  level: 0
  stage: ""
}
layer {
  name: "dataLayer"
  type: "Data"
  top: "data_top"
  top: "label"
  include {
    phase: TRAIN
  }
  transform_param {
    mirror: true
    crop_size: 32
    mean_file: "examples/cifar10/mean.binaryproto"
  }
  data_param {
    source: "examples/cifar10/cifar10_train_lmdb"
    batch_size: 125
    backend: LMDB
  }
  image_data_param {
    shuffle: true
  }
}
layer {
  name: "pre_conv"
  type: "Convolution"
  bottom: "data_top"
  top: "pre_conv_top"
  param {
    lr_mult: 1
    decay_mult: 1
  }
  param {
    lr_mult: 2
    decay_mult: 0
  }
  convolution_param {
    num_output: 16
    pad: 1
    kernel_size: 3
    stride: 1
    weight_filler {
      type: "msra"
    }
    bias_filler {
      type: "constant"
    }
  }
}
layer {
  name: "pre_bn"
  type: "BatchNorm"
  bottom: "pre_conv_top"
  top: "pre_bn_top"
  include {
    phase: TRAIN
  }
  batch_norm_param {
    use_global_stats: false
    moving_average_fraction: 0.95
  }
}
layer {
  name: "pre_scale"
  type: "Scale"
  bottom: "pre_bn_top"
  top: "pre_bn_top"
  scale_param {
    bias_term: true
  }
}
layer {
  name: "pre_relu"
  type: "ReLU"
  bottom: "pre_bn_top"
  top: "pre_bn_top"
}
layer {
  name: "L1_b1_cbr1_conv"
  type: "Convolution"
  bottom: "pre_bn_top"
  top: "L1_b1_cbr1_conv_top"
  param {
    lr_mult: 1
    decay_mult: 1
  }
  param {
    lr_mult: 2
    decay_mult: 0
  }
  convolution_param {
    num_output: 16
    pad: 1
    kernel_size: 3
    stride: 1
    weight_filler {
      type: "msra"
    }
    bias_filler {
      type: "constant"
    }
  }
}
layer {
  name: "L1_b1_cbr1_bn"
  type: "BatchNorm"
  bottom: "L1_b1_cbr1_conv_top"
  top: "L1_b1_cbr1_bn_top"
  include {
    phase: TRAIN
  }
  batch_norm_param {
    use_global_stats: false
    moving_average_fraction: 0.95
  }
}
layer {
  name: "L1_b1_cbr1_scale"
  type: "Scale"
  bottom: "L1_b1_cbr1_bn_top"
  top: "L1_b1_cbr1_bn_top"
  scale_param {
    bias_term: true
  }
}
layer {
  name: "L1_b1_cbr1_relu"
  type: "ReLU"
  bottom: "L1_b1_cbr1_bn_top"
  top: "L1_b1_cbr1_bn_top"
}
layer {
  name: "L1_b1_cbr2_conv"
  type: "Convolution"
  bottom: "L1_b1_cbr1_bn_top"
  top: "L1_b1_cbr2_conv_top"
  param {
    lr_mult: 1
    decay_mult: 1
  }
  param {
    lr_mult: 2
    decay_mult: 0
  }
  convolution_param {
    num_output: 16
    pad: 1
    kernel_size: 3
    stride: 1
    weight_filler {
      type: "msra"
    }
    bias_filler {
      type: "constant"
    }
  }
}
layer {
  name: "L1_b1_cbr2_bn"
  type: "BatchNorm"
  bottom: "L1_b1_cbr2_conv_top"
  top: "L1_b1_cbr2_bn_top"
  include {
    phase: TRAIN
  }
  batch_norm_param {
    use_global_stats: false
    moving_average_fraction: 0.95
  }
}
layer {
  name: "L1_b1_cbr2_scale"
  type: "Scale"
  bottom: "L1_b1_cbr2_bn_top"
  top: "L1_b1_cbr2_bn_top"
  scale_param {
    bias_term: true
  }
}
layer {
  name: "L1_b1_sum_eltwise"
  type: "Eltwise"
  bottom: "L1_b1_cbr2_bn_top"
  bottom: "pre_bn_top"
  top: "L1_b1_sum_eltwise_top"
  eltwise_param {
    operation: SUM
  }
}
layer {
  name: "L1_b1_relu"
  type: "ReLU"
  bottom: "L1_b1_sum_eltwise_top"
  top: "L1_b1_sum_eltwise_top"
}
layer {
  name: "L1_b2_cbr1_conv"
  type: "Convolution"
  bottom: "L1_b1_sum_eltwise_top"
  top: "L1_b2_cbr1_conv_top"
  param {
    lr_mult: 1
    decay_mult: 1
  }
  param {
    lr_mult: 2
    decay_mult: 0
  }
  convolution_param {
    num_output: 16
    pad: 1
    kernel_size: 3
    stride: 1
    weight_filler {
      type: "msra"
    }
    bias_filler {
      type: "constant"
    }
  }
}
layer {
  name: "L1_b2_cbr1_bn"
  type: "BatchNorm"
  bottom: "L1_b2_cbr1_conv_top"
  top: "L1_b2_cbr1_bn_top"
  include {
    phase: TRAIN
  }
  batch_norm_param {
    use_global_stats: false
    moving_average_fraction: 0.95
  }
}
layer {
  name: "L1_b2_cbr1_scale"
  type: "Scale"
  bottom: "L1_b2_cbr1_bn_top"
  top: "L1_b2_cbr1_bn_top"
  scale_param {
    bias_term: true
  }
}
layer {
  name: "L1_b2_cbr1_relu"
  type: "ReLU"
  bottom: "L1_b2_cbr1_bn_top"
  top: "L1_b2_cbr1_bn_top"
}
layer {
  name: "L1_b2_cbr2_conv"
  type: "Convolution"
  bottom: "L1_b2_cbr1_bn_top"
  top: "L1_b2_cbr2_conv_top"
  param {
    lr_mult: 1
    decay_mult: 1
  }
  param {
    lr_mult: 2
    decay_mult: 0
  }
  convolution_param {
    num_output: 16
    pad: 1
    kernel_size: 3
    stride: 1
    weight_filler {
      type: "msra"
    }
    bias_filler {
      type: "constant"
    }
  }
}
layer {
  name: "L1_b2_cbr2_bn"
  type: "BatchNorm"
  bottom: "L1_b2_cbr2_conv_top"
  top: "L1_b2_cbr2_bn_top"
  include {
    phase: TRAIN
  }
  batch_norm_param {
    use_global_stats: false
    moving_average_fraction: 0.95
  }
}
layer {
  name: "L1_b2_cbr2_scale"
  type: "Scale"
  bottom: "L1_b2_cbr2_bn_top"
  top: "L1_b2_cbr2_bn_top"
  scale_param {
    bias_term: true
  }
}
layer {
  name: "L1_b2_sum_eltwise"
  type: "Eltwise"
  bottom: "L1_b2_cbr2_bn_top"
  bottom: "L1_b1_sum_eltwise_top"
  top: "L1_b2_sum_eltwise_top"
  eltwise_param {
    operation: SUM
  }
}
layer {
  name: "L1_b2_relu"
  type: "ReLU"
  bottom: "L1_b2_sum_eltwise_top"
  top: "L1_b2_sum_eltwise_top"
}
layer {
  name: "L1_b3_cbr1_conv"
  type: "Convolution"
  bottom: "L1_b2_sum_eltwise_top"
  top: "L1_b3_cbr1_conv_top"
  param {
    lr_mult: 1
    decay_mult: 1
  }
  param {
    lr_mult: 2
    decay_mult: 0
  }
  convolution_param {
    num_output: 16
    pad: 1
    kernel_size: 3
    stride: 1
    weight_filler {
      type: "msra"
    }
    bias_filler {
      type: "constant"
    }
  }
}
layer {
  name: "L1_b3_cbr1_bn"
  type: "BatchNorm"
  bottom: "L1_b3_cbr1_conv_top"
  top: "L1_b3_cbr1_bn_top"
  include {
    phase: TRAIN
  }
  batch_norm_param {
    use_global_stats: false
    moving_average_fraction: 0.95
  }
}
layer {
  name: "L1_b3_cbr1_scale"
  type: "Scale"
  bottom: "L1_b3_cbr1_bn_top"
  top: "L1_b3_cbr1_bn_top"
  scale_param {
    bias_term: true
  }
}
layer {
  name: "L1_b3_cbr1_relu"
  type: "ReLU"
  bottom: "L1_b3_cbr1_bn_top"
  top: "L1_b3_cbr1_bn_top"
}
layer {
  name: "L1_b3_cbr2_conv"
  type: "Convolution"
  bottom: "L1_b3_cbr1_bn_top"
  top: "L1_b3_cbr2_conv_top"
  param {
    lr_mult: 1
    decay_mult: 1
  }
  param {
    lr_mult: 2
    decay_mult: 0
  }
  convolution_param {
    num_output: 16
    pad: 1
    kernel_size: 3
    stride: 1
    weight_filler {
      type: "msra"
    }
    bias_filler {
      type: "constant"
    }
  }
}
layer {
  name: "L1_b3_cbr2_bn"
  type: "BatchNorm"
  bottom: "L1_b3_cbr2_conv_top"
  top: "L1_b3_cbr2_bn_top"
  include {
    phase: TRAIN
  }
  batch_norm_param {
    use_global_stats: false
    moving_average_fraction: 0.95
  }
}
layer {
  name: "L1_b3_cbr2_scale"
  type: "Scale"
  bottom: "L1_b3_cbr2_bn_top"
  top: "L1_b3_cbr2_bn_top"
  scale_param {
    bias_term: true
  }
}
layer {
  name: "L1_b3_sum_eltwise"
  type: "Eltwise"
  bottom: "L1_b3_cbr2_bn_top"
  bottom: "L1_b2_sum_eltwise_top"
  top: "L1_b3_sum_eltwise_top"
  eltwise_param {
    operation: SUM
  }
}
layer {
  name: "L1_b3_relu"
  type: "ReLU"
  bottom: "L1_b3_sum_eltwise_top"
  top: "L1_b3_sum_eltwise_top"
}
layer {
  name: "L1_b4_cbr1_conv"
  type: "Convolution"
  bottom: "L1_b3_sum_eltwise_top"
  top: "L1_b4_cbr1_conv_top"
  param {
    lr_mult: 1
    decay_mult: 1
  }
  param {
    lr_mult: 2
    decay_mult: 0
  }
  convolution_param {
    num_output: 16
    pad: 1
    kernel_size: 3
    stride: 1
    weight_filler {
      type: "msra"
    }
    bias_filler {
      type: "constant"
    }
  }
}
layer {
  name: "L1_b4_cbr1_bn"
  type: "BatchNorm"
  bottom: "L1_b4_cbr1_conv_top"
  top: "L1_b4_cbr1_bn_top"
  include {
    phase: TRAIN
  }
  batch_norm_param {
    use_global_stats: false
    moving_average_fraction: 0.95
  }
}
layer {
  name: "L1_b4_cbr1_scale"
  type: "Scale"
  bottom: "L1_b4_cbr1_bn_top"
  top: "L1_b4_cbr1_bn_top"
  scale_param {
    bias_term: true
  }
}
layer {
  name: "L1_b4_cbr1_relu"
  type: "ReLU"
  bottom: "L1_b4_cbr1_bn_top"
  top: "L1_b4_cbr1_bn_top"
}
layer {
  name: "L1_b4_cbr2_conv"
  type: "Convolution"
  bottom: "L1_b4_cbr1_bn_top"
  top: "L1_b4_cbr2_conv_top"
  param {
    lr_mult: 1
    decay_mult: 1
  }
  param {
    lr_mult: 2
    decay_mult: 0
  }
  convolution_param {
    num_output: 16
    pad: 1
    kernel_size: 3
    stride: 1
    weight_filler {
      type: "msra"
    }
    bias_filler {
      type: "constant"
    }
  }
}
layer {
  name: "L1_b4_cbr2_bn"
  type: "BatchNorm"
  bottom: "L1_b4_cbr2_conv_top"
  top: "L1_b4_cbr2_bn_top"
  include {
    phase: TRAIN
  }
  batch_norm_param {
    use_global_stats: false
    moving_average_fraction: 0.95
  }
}
layer {
  name: "L1_b4_cbr2_scale"
  type: "Scale"
  bottom: "L1_b4_cbr2_bn_top"
  top: "L1_b4_cbr2_bn_top"
  scale_param {
    bias_term: true
  }
}
layer {
  name: "L1_b4_sum_eltwise"
  type: "Eltwise"
  bottom: "L1_b4_cbr2_bn_top"
  bottom: "L1_b3_sum_eltwise_top"
  top: "L1_b4_sum_eltwise_top"
  eltwise_param {
    operation: SUM
  }
}
layer {
  name: "L1_b4_relu"
  type: "ReLU"
  bottom: "L1_b4_sum_eltwise_top"
  top: "L1_b4_sum_eltwise_top"
}
layer {
  name: "L1_b5_cbr1_conv"
  type: "Convolution"
  bottom: "L1_b4_sum_eltwise_top"
  top: "L1_b5_cbr1_conv_top"
  param {
    lr_mult: 1
    decay_mult: 1
  }
  param {
    lr_mult: 2
    decay_mult: 0
  }
  convolution_param {
    num_output: 16
    pad: 1
    kernel_size: 3
    stride: 1
    weight_filler {
      type: "msra"
    }
    bias_filler {
      type: "constant"
    }
  }
}
layer {
  name: "L1_b5_cbr1_bn"
  type: "BatchNorm"
  bottom: "L1_b5_cbr1_conv_top"
  top: "L1_b5_cbr1_bn_top"
  include {
    phase: TRAIN
  }
  batch_norm_param {
    use_global_stats: false
    moving_average_fraction: 0.95
  }
}
layer {
  name: "L1_b5_cbr1_scale"
  type: "Scale"
  bottom: "L1_b5_cbr1_bn_top"
  top: "L1_b5_cbr1_bn_top"
  scale_param {
    bias_term: true
  }
}
layer {
  name: "L1_b5_cbr1_relu"
  type: "ReLU"
  bottom: "L1_b5_cbr1_bn_top"
  top: "L1_b5_cbr1_bn_top"
}
layer {
  name: "L1_b5_cbr2_conv"
  type: "Convolution"
  bottom: "L1_b5_cbr1_bn_top"
  top: "L1_b5_cbr2_conv_top"
  param {
    lr_mult: 1
    decay_mult: 1
  }
  param {
    lr_mult: 2
    decay_mult: 0
  }
  convolution_param {
    num_output: 16
    pad: 1
    kernel_size: 3
    stride: 1
    weight_filler {
      type: "msra"
    }
    bias_filler {
      type: "constant"
    }
  }
}
layer {
  name: "L1_b5_cbr2_bn"
  type: "BatchNorm"
  bottom: "L1_b5_cbr2_conv_top"
  top: "L1_b5_cbr2_bn_top"
  include {
    phase: TRAIN
  }
  batch_norm_param {
    use_global_stats: false
    moving_average_fraction: 0.95
  }
}
layer {
  name: "L1_b5_cbr2_scale"
  type: "Scale"
  bottom: "L1_b5_cbr2_bn_top"
  top: "L1_b5_cbr2_bn_top"
  scale_param {
    bias_term: true
  }
}
layer {
  name: "L1_b5_sum_eltwise"
  type: "Eltwise"
  bottom: "L1_b5_cbr2_bn_top"
  bottom: "L1_b4_sum_eltwise_top"
  top: "L1_b5_sum_eltwise_top"
  eltwise_param {
    operation: SUM
  }
}
layer {
  name: "L1_b5_relu"
  type: "ReLU"
  bottom: "L1_b5_sum_eltwise_top"
  top: "L1_b5_sum_eltwise_top"
}
layer {
  name: "L1_b6_cbr1_conv"
  type: "Convolution"
  bottom: "L1_b5_sum_eltwise_top"
  top: "L1_b6_cbr1_conv_top"
  param {
    lr_mult: 1
    decay_mult: 1
  }
  param {
    lr_mult: 2
    decay_mult: 0
  }
  convolution_param {
    num_output: 16
    pad: 1
    kernel_size: 3
    stride: 1
    weight_filler {
      type: "msra"
    }
    bias_filler {
      type: "constant"
    }
  }
}
layer {
  name: "L1_b6_cbr1_bn"
  type: "BatchNorm"
  bottom: "L1_b6_cbr1_conv_top"
  top: "L1_b6_cbr1_bn_top"
  include {
    phase: TRAIN
  }
  batch_norm_param {
    use_global_stats: false
    moving_average_fraction: 0.95
  }
}
layer {
  name: "L1_b6_cbr1_scale"
  type: "Scale"
  bottom: "L1_b6_cbr1_bn_top"
  top: "L1_b6_cbr1_bn_top"
  scale_param {
    bias_term: true
  }
}
layer {
  name: "L1_b6_cbr1_relu"
  type: "ReLU"
  bottom: "L1_b6_cbr1_bn_top"
  top: "L1_b6_cbr1_bn_top"
}
layer {
  name: "L1_b6_cbr2_conv"
  type: "Convolution"
  bottom: "L1_b6_cbr1_bn_top"
  top: "L1_b6_cbr2_conv_top"
  param {
    lr_mult: 1
    decay_mult: 1
  }
  param {
    lr_mult: 2
    decay_mult: 0
  }
  convolution_param {
    num_output: 16
    pad: 1
    kernel_size: 3
    stride: 1
    weight_filler {
      type: "msra"
    }
    bias_filler {
      type: "constant"
    }
  }
}
layer {
  name: "L1_b6_cbr2_bn"
  type: "BatchNorm"
  bottom: "L1_b6_cbr2_conv_top"
  top: "L1_b6_cbr2_bn_top"
  include {
    phase: TRAIN
  }
  batch_norm_param {
    use_global_stats: false
    moving_average_fraction: 0.95
  }
}
layer {
  name: "L1_b6_cbr2_scale"
  type: "Scale"
  bottom: "L1_b6_cbr2_bn_top"
  top: "L1_b6_cbr2_bn_top"
  scale_param {
    bias_term: true
  }
}
layer {
  name: "L1_b6_sum_eltwise"
  type: "Eltwise"
  bottom: "L1_b6_cbr2_bn_top"
  bottom: "L1_b5_sum_eltwise_top"
  top: "L1_b6_sum_eltwise_top"
  eltwise_param {
    operation: SUM
  }
}
layer {
  name: "L1_b6_relu"
  type: "ReLU"
  bottom: "L1_b6_sum_eltwise_top"
  top: "L1_b6_sum_eltwise_top"
}
layer {
  name: "L1_b7_cbr1_conv"
  type: "Convolution"
  bottom: "L1_b6_sum_eltwise_top"
  top: "L1_b7_cbr1_conv_top"
  param {
    lr_mult: 1
    decay_mult: 1
  }
  param {
    lr_mult: 2
    decay_mult: 0
  }
  convolution_param {
    num_output: 16
    pad: 1
    kernel_size: 3
    stride: 1
    weight_filler {
      type: "msra"
    }
    bias_filler {
      type: "constant"
    }
  }
}
layer {
  name: "L1_b7_cbr1_bn"
  type: "BatchNorm"
  bottom: "L1_b7_cbr1_conv_top"
  top: "L1_b7_cbr1_bn_top"
  include {
    phase: TRAIN
  }
  batch_norm_param {
    use_global_stats: false
    moving_average_fraction: 0.95
  }
}
layer {
  name: "L1_b7_cbr1_scale"
  type: "Scale"
  bottom: "L1_b7_cbr1_bn_top"
  top: "L1_b7_cbr1_bn_top"
  scale_param {
    bias_term: true
  }
}
layer {
  name: "L1_b7_cbr1_relu"
  type: "ReLU"
  bottom: "L1_b7_cbr1_bn_top"
  top: "L1_b7_cbr1_bn_top"
}
layer {
  name: "L1_b7_cbr2_conv"
  type: "Convolution"
  bottom: "L1_b7_cbr1_bn_top"
  top: "L1_b7_cbr2_conv_top"
  param {
    lr_mult: 1
    decay_mult: 1
  }
  param {
    lr_mult: 2
    decay_mult: 0
  }
  convolution_param {
    num_output: 16
    pad: 1
    kernel_size: 3
    stride: 1
    weight_filler {
      type: "msra"
    }
    bias_filler {
      type: "constant"
    }
  }
}
layer {
  name: "L1_b7_cbr2_bn"
  type: "BatchNorm"
  bottom: "L1_b7_cbr2_conv_top"
  top: "L1_b7_cbr2_bn_top"
  include {
    phase: TRAIN
  }
  batch_norm_param {
    use_global_stats: false
    moving_average_fraction: 0.95
  }
}
layer {
  name: "L1_b7_cbr2_scale"
  type: "Scale"
  bottom: "L1_b7_cbr2_bn_top"
  top: "L1_b7_cbr2_bn_top"
  scale_param {
    bias_term: true
  }
}
layer {
  name: "L1_b7_sum_eltwise"
  type: "Eltwise"
  bottom: "L1_b7_cbr2_bn_top"
  bottom: "L1_b6_sum_eltwise_top"
  top: "L1_b7_sum_eltwise_top"
  eltwise_param {
    operation: SUM
  }
}
layer {
  name: "L1_b7_relu"
  type: "ReLU"
  bottom: "L1_b7_sum_eltwise_top"
  top: "L1_b7_sum_eltwise_top"
}
layer {
  name: "L1_b8_cbr1_conv"
  type: "Convolution"
  bottom: "L1_b7_sum_eltwise_top"
  top: "L1_b8_cbr1_conv_top"
  param {
    lr_mult: 1
    decay_mult: 1
  }
  param {
    lr_mult: 2
    decay_mult: 0
  }
  convolution_param {
    num_output: 16
    pad: 1
    kernel_size: 3
    stride: 1
    weight_filler {
      type: "msra"
    }
    bias_filler {
      type: "constant"
    }
  }
}
layer {
  name: "L1_b8_cbr1_bn"
  type: "BatchNorm"
  bottom: "L1_b8_cbr1_conv_top"
  top: "L1_b8_cbr1_bn_top"
  include {
    phase: TRAIN
  }
  batch_norm_param {
    use_global_stats: false
    moving_average_fraction: 0.95
  }
}
layer {
  name: "L1_b8_cbr1_scale"
  type: "Scale"
  bottom: "L1_b8_cbr1_bn_top"
  top: "L1_b8_cbr1_bn_top"
  scale_param {
    bias_term: true
  }
}
layer {
  name: "L1_b8_cbr1_relu"
  type: "ReLU"
  bottom: "L1_b8_cbr1_bn_top"
  top: "L1_b8_cbr1_bn_top"
}
layer {
  name: "L1_b8_cbr2_conv"
  type: "Convolution"
  bottom: "L1_b8_cbr1_bn_top"
  top: "L1_b8_cbr2_conv_top"
  param {
    lr_mult: 1
    decay_mult: 1
  }
  param {
    lr_mult: 2
    decay_mult: 0
  }
  convolution_param {
    num_output: 16
    pad: 1
    kernel_size: 3
    stride: 1
    weight_filler {
      type: "msra"
    }
    bias_filler {
      type: "constant"
    }
  }
}
layer {
  name: "L1_b8_cbr2_bn"
  type: "BatchNorm"
  bottom: "L1_b8_cbr2_conv_top"
  top: "L1_b8_cbr2_bn_top"
  include {
    phase: TRAIN
  }
  batch_norm_param {
    use_global_stats: false
    moving_average_fraction: 0.95
  }
}
layer {
  name: "L1_b8_cbr2_scale"
  type: "Scale"
  bottom: "L1_b8_cbr2_bn_top"
  top: "L1_b8_cbr2_bn_top"
  scale_param {
    bias_term: true
  }
}
layer {
  name: "L1_b8_sum_eltwise"
  type: "Eltwise"
  bottom: "L1_b8_cbr2_bn_top"
  bottom: "L1_b7_sum_eltwise_top"
  top: "L1_b8_sum_eltwise_top"
  eltwise_param {
    operation: SUM
  }
}
layer {
  name: "L1_b8_relu"
  type: "ReLU"
  bottom: "L1_b8_sum_eltwise_top"
  top: "L1_b8_sum_eltwise_top"
}
layer {
  name: "L1_b9_cbr1_conv"
  type: "Convolution"
  bottom: "L1_b8_sum_eltwise_top"
  top: "L1_b9_cbr1_conv_top"
  param {
    lr_mult: 1
    decay_mult: 1
  }
  param {
    lr_mult: 2
    decay_mult: 0
  }
  convolution_param {
    num_output: 16
    pad: 1
    kernel_size: 3
    stride: 1
    weight_filler {
      type: "msra"
    }
    bias_filler {
      type: "constant"
    }
  }
}
layer {
  name: "L1_b9_cbr1_bn"
  type: "BatchNorm"
  bottom: "L1_b9_cbr1_conv_top"
  top: "L1_b9_cbr1_bn_top"
  include {
    phase: TRAIN
  }
  batch_norm_param {
    use_global_stats: false
    moving_average_fraction: 0.95
  }
}
layer {
  name: "L1_b9_cbr1_scale"
  type: "Scale"
  bottom: "L1_b9_cbr1_bn_top"
  top: "L1_b9_cbr1_bn_top"
  scale_param {
    bias_term: true
  }
}
layer {
  name: "L1_b9_cbr1_relu"
  type: "ReLU"
  bottom: "L1_b9_cbr1_bn_top"
  top: "L1_b9_cbr1_bn_top"
}
layer {
  name: "L1_b9_cbr2_conv"
  type: "Convolution"
  bottom: "L1_b9_cbr1_bn_top"
  top: "L1_b9_cbr2_conv_top"
  param {
    lr_mult: 1
    decay_mult: 1
  }
  param {
    lr_mult: 2
    decay_mult: 0
  }
  convolution_param {
    num_output: 16
    pad: 1
    kernel_size: 3
    stride: 1
    weight_filler {
      type: "msra"
    }
    bias_filler {
      type: "constant"
    }
  }
}
layer {
  name: "L1_b9_cbr2_bn"
  type: "BatchNorm"
  bottom: "L1_b9_cbr2_conv_top"
  top: "L1_b9_cbr2_bn_top"
  include {
    phase: TRAIN
  }
  batch_norm_param {
    use_global_stats: false
    moving_average_fraction: 0.95
  }
}
layer {
  name: "L1_b9_cbr2_scale"
  type: "Scale"
  bottom: "L1_b9_cbr2_bn_top"
  top: "L1_b9_cbr2_bn_top"
  scale_param {
    bias_term: true
  }
}
layer {
  name: "L1_b9_sum_eltwise"
  type: "Eltwise"
  bottom: "L1_b9_cbr2_bn_top"
  bottom: "L1_b8_sum_eltwise_top"
  top: "L1_b9_sum_eltwise_top"
  eltwise_param {
    operation: SUM
  }
}
layer {
  name: "L1_b9_relu"
  type: "ReLU"
  bottom: "L1_b9_sum_eltwise_top"
  top: "L1_b9_sum_eltwise_top"
}
layer {
  name: "L2_b1_cbr1_conv"
  type: "Convolution"
  bottom: "L1_b9_sum_eltwise_top"
  top: "L2_b1_cbr1_conv_top"
  param {
    lr_mult: 1
    decay_mult: 1
  }
  param {
    lr_mult: 2
    decay_mult: 0
  }
  convolution_param {
    num_output: 16
    pad: 1
    kernel_size: 3
    stride: 2
    weight_filler {
      type: "msra"
    }
    bias_filler {
      type: "constant"
    }
  }
}
layer {
  name: "L2_b1_cbr1_bn"
  type: "BatchNorm"
  bottom: "L2_b1_cbr1_conv_top"
  top: "L2_b1_cbr1_bn_top"
  include {
    phase: TRAIN
  }
  batch_norm_param {
    use_global_stats: false
    moving_average_fraction: 0.95
  }
}
layer {
  name: "L2_b1_cbr1_scale"
  type: "Scale"
  bottom: "L2_b1_cbr1_bn_top"
  top: "L2_b1_cbr1_bn_top"
  scale_param {
    bias_term: true
  }
}
layer {
  name: "L2_b1_cbr1_relu"
  type: "ReLU"
  bottom: "L2_b1_cbr1_bn_top"
  top: "L2_b1_cbr1_bn_top"
}
layer {
  name: "L2_b1_cbr2_conv"
  type: "Convolution"
  bottom: "L2_b1_cbr1_bn_top"
  top: "L2_b1_cbr2_conv_top"
  param {
    lr_mult: 1
    decay_mult: 1
  }
  param {
    lr_mult: 2
    decay_mult: 0
  }
  convolution_param {
    num_output: 16
    pad: 1
    kernel_size: 3
    stride: 1
    weight_filler {
      type: "msra"
    }
    bias_filler {
      type: "constant"
    }
  }
}
layer {
  name: "L2_b1_cbr2_bn"
  type: "BatchNorm"
  bottom: "L2_b1_cbr2_conv_top"
  top: "L2_b1_cbr2_bn_top"
  include {
    phase: TRAIN
  }
  batch_norm_param {
    use_global_stats: false
    moving_average_fraction: 0.95
  }
}
layer {
  name: "L2_b1_cbr2_scale"
  type: "Scale"
  bottom: "L2_b1_cbr2_bn_top"
  top: "L2_b1_cbr2_bn_top"
  scale_param {
    bias_term: true
  }
}
layer {
  name: "L2_b1_pool"
  type: "Pooling"
  bottom: "L1_b9_sum_eltwise_top"
  top: "L2_b1_pool"
  pooling_param {
    pool: AVE
    kernel_size: 3
    stride: 2
  }
}
layer {
  name: "L2_b1_sum_eltwise"
  type: "Eltwise"
  bottom: "L2_b1_cbr2_bn_top"
  bottom: "L2_b1_pool"
  top: "L2_b1_sum_eltwise_top"
  eltwise_param {
    operation: SUM
  }
}
layer {
  name: "L2_b1_relu"
  type: "ReLU"
  bottom: "L2_b1_sum_eltwise_top"
  top: "L2_b1_sum_eltwise_top"
}
layer {
  name: "L2_b1_zeros"
  type: "DummyData"
  top: "L2_b1_zeros"
  dummy_data_param {
    data_filler {
      type: "constant"
      value: 0
    }
    shape {
      dim: 125
      dim: 16
      dim: 16
      dim: 16
    }
  }
}
layer {
  name: "L2_b1_concat0"
  type: "Concat"
  bottom: "L2_b1_sum_eltwise_top"
  bottom: "L2_b1_zeros"
  top: "L2_b1_concat0"
  concat_param {
    axis: 1
  }
}
layer {
  name: "L2_b2_cbr1_conv"
  type: "Convolution"
  bottom: "L2_b1_concat0"
  top: "L2_b2_cbr1_conv_top"
  param {
    lr_mult: 1
    decay_mult: 1
  }
  param {
    lr_mult: 2
    decay_mult: 0
  }
  convolution_param {
    num_output: 32
    pad: 1
    kernel_size: 3
    stride: 1
    weight_filler {
      type: "msra"
    }
    bias_filler {
      type: "constant"
    }
  }
}
layer {
  name: "L2_b2_cbr1_bn"
  type: "BatchNorm"
  bottom: "L2_b2_cbr1_conv_top"
  top: "L2_b2_cbr1_bn_top"
  include {
    phase: TRAIN
  }
  batch_norm_param {
    use_global_stats: false
    moving_average_fraction: 0.95
  }
}
layer {
  name: "L2_b2_cbr1_scale"
  type: "Scale"
  bottom: "L2_b2_cbr1_bn_top"
  top: "L2_b2_cbr1_bn_top"
  scale_param {
    bias_term: true
  }
}
layer {
  name: "L2_b2_cbr1_relu"
  type: "ReLU"
  bottom: "L2_b2_cbr1_bn_top"
  top: "L2_b2_cbr1_bn_top"
}
layer {
  name: "L2_b2_cbr2_conv"
  type: "Convolution"
  bottom: "L2_b2_cbr1_bn_top"
  top: "L2_b2_cbr2_conv_top"
  param {
    lr_mult: 1
    decay_mult: 1
  }
  param {
    lr_mult: 2
    decay_mult: 0
  }
  convolution_param {
    num_output: 32
    pad: 1
    kernel_size: 3
    stride: 1
    weight_filler {
      type: "msra"
    }
    bias_filler {
      type: "constant"
    }
  }
}
layer {
  name: "L2_b2_cbr2_bn"
  type: "BatchNorm"
  bottom: "L2_b2_cbr2_conv_top"
  top: "L2_b2_cbr2_bn_top"
  include {
    phase: TRAIN
  }
  batch_norm_param {
    use_global_stats: false
    moving_average_fraction: 0.95
  }
}
layer {
  name: "L2_b2_cbr2_scale"
  type: "Scale"
  bottom: "L2_b2_cbr2_bn_top"
  top: "L2_b2_cbr2_bn_top"
  scale_param {
    bias_term: true
  }
}
layer {
  name: "L2_b2_sum_eltwise"
  type: "Eltwise"
  bottom: "L2_b2_cbr2_bn_top"
  bottom: "L2_b1_concat0"
  top: "L2_b2_sum_eltwise_top"
  eltwise_param {
    operation: SUM
  }
}
layer {
  name: "L2_b2_relu"
  type: "ReLU"
  bottom: "L2_b2_sum_eltwise_top"
  top: "L2_b2_sum_eltwise_top"
}
layer {
  name: "L2_b3_cbr1_conv"
  type: "Convolution"
  bottom: "L2_b2_sum_eltwise_top"
  top: "L2_b3_cbr1_conv_top"
  param {
    lr_mult: 1
    decay_mult: 1
  }
  param {
    lr_mult: 2
    decay_mult: 0
  }
  convolution_param {
    num_output: 32
    pad: 1
    kernel_size: 3
    stride: 1
    weight_filler {
      type: "msra"
    }
    bias_filler {
      type: "constant"
    }
  }
}
layer {
  name: "L2_b3_cbr1_bn"
  type: "BatchNorm"
  bottom: "L2_b3_cbr1_conv_top"
  top: "L2_b3_cbr1_bn_top"
  include {
    phase: TRAIN
  }
  batch_norm_param {
    use_global_stats: false
    moving_average_fraction: 0.95
  }
}
layer {
  name: "L2_b3_cbr1_scale"
  type: "Scale"
  bottom: "L2_b3_cbr1_bn_top"
  top: "L2_b3_cbr1_bn_top"
  scale_param {
    bias_term: true
  }
}
layer {
  name: "L2_b3_cbr1_relu"
  type: "ReLU"
  bottom: "L2_b3_cbr1_bn_top"
  top: "L2_b3_cbr1_bn_top"
}
layer {
  name: "L2_b3_cbr2_conv"
  type: "Convolution"
  bottom: "L2_b3_cbr1_bn_top"
  top: "L2_b3_cbr2_conv_top"
  param {
    lr_mult: 1
    decay_mult: 1
  }
  param {
    lr_mult: 2
    decay_mult: 0
  }
  convolution_param {
    num_output: 32
    pad: 1
    kernel_size: 3
    stride: 1
    weight_filler {
      type: "msra"
    }
    bias_filler {
      type: "constant"
    }
  }
}
layer {
  name: "L2_b3_cbr2_bn"
  type: "BatchNorm"
  bottom: "L2_b3_cbr2_conv_top"
  top: "L2_b3_cbr2_bn_top"
  include {
    phase: TRAIN
  }
  batch_norm_param {
    use_global_stats: false
    moving_average_fraction: 0.95
  }
}
layer {
  name: "L2_b3_cbr2_scale"
  type: "Scale"
  bottom: "L2_b3_cbr2_bn_top"
  top: "L2_b3_cbr2_bn_top"
  scale_param {
    bias_term: true
  }
}
layer {
  name: "L2_b3_sum_eltwise"
  type: "Eltwise"
  bottom: "L2_b3_cbr2_bn_top"
  bottom: "L2_b2_sum_eltwise_top"
  top: "L2_b3_sum_eltwise_top"
  eltwise_param {
    operation: SUM
  }
}
layer {
  name: "L2_b3_relu"
  type: "ReLU"
  bottom: "L2_b3_sum_eltwise_top"
  top: "L2_b3_sum_eltwise_top"
}
layer {
  name: "L2_b4_cbr1_conv"
  type: "Convolution"
  bottom: "L2_b3_sum_eltwise_top"
  top: "L2_b4_cbr1_conv_top"
  param {
    lr_mult: 1
    decay_mult: 1
  }
  param {
    lr_mult: 2
    decay_mult: 0
  }
  convolution_param {
    num_output: 32
    pad: 1
    kernel_size: 3
    stride: 1
    weight_filler {
      type: "msra"
    }
    bias_filler {
      type: "constant"
    }
  }
}
layer {
  name: "L2_b4_cbr1_bn"
  type: "BatchNorm"
  bottom: "L2_b4_cbr1_conv_top"
  top: "L2_b4_cbr1_bn_top"
  include {
    phase: TRAIN
  }
  batch_norm_param {
    use_global_stats: false
    moving_average_fraction: 0.95
  }
}
layer {
  name: "L2_b4_cbr1_scale"
  type: "Scale"
  bottom: "L2_b4_cbr1_bn_top"
  top: "L2_b4_cbr1_bn_top"
  scale_param {
    bias_term: true
  }
}
layer {
  name: "L2_b4_cbr1_relu"
  type: "ReLU"
  bottom: "L2_b4_cbr1_bn_top"
  top: "L2_b4_cbr1_bn_top"
}
layer {
  name: "L2_b4_cbr2_conv"
  type: "Convolution"
  bottom: "L2_b4_cbr1_bn_top"
  top: "L2_b4_cbr2_conv_top"
  param {
    lr_mult: 1
    decay_mult: 1
  }
  param {
    lr_mult: 2
    decay_mult: 0
  }
  convolution_param {
    num_output: 32
    pad: 1
    kernel_size: 3
    stride: 1
    weight_filler {
      type: "msra"
    }
    bias_filler {
      type: "constant"
    }
  }
}
layer {
  name: "L2_b4_cbr2_bn"
  type: "BatchNorm"
  bottom: "L2_b4_cbr2_conv_top"
  top: "L2_b4_cbr2_bn_top"
  include {
    phase: TRAIN
  }
  batch_norm_param {
    use_global_stats: false
    moving_average_fraction: 0.95
  }
}
layer {
  name: "L2_b4_cbr2_scale"
  type: "Scale"
  bottom: "L2_b4_cbr2_bn_top"
  top: "L2_b4_cbr2_bn_top"
  scale_param {
    bias_term: true
  }
}
layer {
  name: "L2_b4_sum_eltwise"
  type: "Eltwise"
  bottom: "L2_b4_cbr2_bn_top"
  bottom: "L2_b3_sum_eltwise_top"
  top: "L2_b4_sum_eltwise_top"
  eltwise_param {
    operation: SUM
  }
}
layer {
  name: "L2_b4_relu"
  type: "ReLU"
  bottom: "L2_b4_sum_eltwise_top"
  top: "L2_b4_sum_eltwise_top"
}
layer {
  name: "L2_b5_cbr1_conv"
  type: "Convolution"
  bottom: "L2_b4_sum_eltwise_top"
  top: "L2_b5_cbr1_conv_top"
  param {
    lr_mult: 1
    decay_mult: 1
  }
  param {
    lr_mult: 2
    decay_mult: 0
  }
  convolution_param {
    num_output: 32
    pad: 1
    kernel_size: 3
    stride: 1
    weight_filler {
      type: "msra"
    }
    bias_filler {
      type: "constant"
    }
  }
}
layer {
  name: "L2_b5_cbr1_bn"
  type: "BatchNorm"
  bottom: "L2_b5_cbr1_conv_top"
  top: "L2_b5_cbr1_bn_top"
  include {
    phase: TRAIN
  }
  batch_norm_param {
    use_global_stats: false
    moving_average_fraction: 0.95
  }
}
layer {
  name: "L2_b5_cbr1_scale"
  type: "Scale"
  bottom: "L2_b5_cbr1_bn_top"
  top: "L2_b5_cbr1_bn_top"
  scale_param {
    bias_term: true
  }
}
layer {
  name: "L2_b5_cbr1_relu"
  type: "ReLU"
  bottom: "L2_b5_cbr1_bn_top"
  top: "L2_b5_cbr1_bn_top"
}
layer {
  name: "L2_b5_cbr2_conv"
  type: "Convolution"
  bottom: "L2_b5_cbr1_bn_top"
  top: "L2_b5_cbr2_conv_top"
  param {
    lr_mult: 1
    decay_mult: 1
  }
  param {
    lr_mult: 2
    decay_mult: 0
  }
  convolution_param {
    num_output: 32
    pad: 1
    kernel_size: 3
    stride: 1
    weight_filler {
      type: "msra"
    }
    bias_filler {
      type: "constant"
    }
  }
}
layer {
  name: "L2_b5_cbr2_bn"
  type: "BatchNorm"
  bottom: "L2_b5_cbr2_conv_top"
  top: "L2_b5_cbr2_bn_top"
  include {
    phase: TRAIN
  }
  batch_norm_param {
    use_global_stats: false
    moving_average_fraction: 0.95
  }
}
layer {
  name: "L2_b5_cbr2_scale"
  type: "Scale"
  bottom: "L2_b5_cbr2_bn_top"
  top: "L2_b5_cbr2_bn_top"
  scale_param {
    bias_term: true
  }
}
layer {
  name: "L2_b5_sum_eltwise"
  type: "Eltwise"
  bottom: "L2_b5_cbr2_bn_top"
  bottom: "L2_b4_sum_eltwise_top"
  top: "L2_b5_sum_eltwise_top"
  eltwise_param {
    operation: SUM
  }
}
layer {
  name: "L2_b5_relu"
  type: "ReLU"
  bottom: "L2_b5_sum_eltwise_top"
  top: "L2_b5_sum_eltwise_top"
}
layer {
  name: "L2_b6_cbr1_conv"
  type: "Convolution"
  bottom: "L2_b5_sum_eltwise_top"
  top: "L2_b6_cbr1_conv_top"
  param {
    lr_mult: 1
    decay_mult: 1
  }
  param {
    lr_mult: 2
    decay_mult: 0
  }
  convolution_param {
    num_output: 32
    pad: 1
    kernel_size: 3
    stride: 1
    weight_filler {
      type: "msra"
    }
    bias_filler {
      type: "constant"
    }
  }
}
layer {
  name: "L2_b6_cbr1_bn"
  type: "BatchNorm"
  bottom: "L2_b6_cbr1_conv_top"
  top: "L2_b6_cbr1_bn_top"
  include {
    phase: TRAIN
  }
  batch_norm_param {
    use_global_stats: false
    moving_average_fraction: 0.95
  }
}
layer {
  name: "L2_b6_c
I0817 16:02:51.611572 17550 layer_factory.hpp:77] Creating layer dataLayer
I0817 16:02:51.612761 17550 net.cpp:100] Creating Layer dataLayer
I0817 16:02:51.612833 17550 net.cpp:408] dataLayer -> data_top
I0817 16:02:51.613028 17550 net.cpp:408] dataLayer -> label
I0817 16:02:51.613157 17550 data_transformer.cpp:25] Loading mean file from: examples/cifar10/mean.binaryproto
I0817 16:02:51.623277 17555 db_lmdb.cpp:35] Opened lmdb examples/cifar10/cifar10_train_lmdb
I0817 16:02:51.645619 17550 data_layer.cpp:41] output data size: 125,3,32,32
I0817 16:02:51.653071 17550 net.cpp:150] Setting up dataLayer
I0817 16:02:51.653153 17550 net.cpp:157] Top shape: 125 3 32 32 (384000)
I0817 16:02:51.653175 17550 net.cpp:157] Top shape: 125 (125)
I0817 16:02:51.653185 17550 net.cpp:165] Memory required for data: 1536500
I0817 16:02:51.653210 17550 layer_factory.hpp:77] Creating layer label_dataLayer_1_split
I0817 16:02:51.653232 17550 net.cpp:100] Creating Layer label_dataLayer_1_split
I0817 16:02:51.653247 17550 net.cpp:434] label_dataLayer_1_split <- label
I0817 16:02:51.653285 17550 net.cpp:408] label_dataLayer_1_split -> label_dataLayer_1_split_0
I0817 16:02:51.653311 17550 net.cpp:408] label_dataLayer_1_split -> label_dataLayer_1_split_1
I0817 16:02:51.653421 17550 net.cpp:150] Setting up label_dataLayer_1_split
I0817 16:02:51.653445 17550 net.cpp:157] Top shape: 125 (125)
I0817 16:02:51.653458 17550 net.cpp:157] Top shape: 125 (125)
I0817 16:02:51.653467 17550 net.cpp:165] Memory required for data: 1537500
I0817 16:02:51.653478 17550 layer_factory.hpp:77] Creating layer pre_conv
I0817 16:02:51.653555 17550 net.cpp:100] Creating Layer pre_conv
I0817 16:02:51.653570 17550 net.cpp:434] pre_conv <- data_top
I0817 16:02:51.653587 17550 net.cpp:408] pre_conv -> pre_conv_top
I0817 16:02:51.655395 17550 net.cpp:150] Setting up pre_conv
I0817 16:02:51.655421 17550 net.cpp:157] Top shape: 125 16 32 32 (2048000)
I0817 16:02:51.655431 17550 net.cpp:165] Memory required for data: 9729500
I0817 16:02:51.655513 17550 layer_factory.hpp:77] Creating layer pre_bn
I0817 16:02:51.655623 17550 net.cpp:100] Creating Layer pre_bn
I0817 16:02:51.655640 17550 net.cpp:434] pre_bn <- pre_conv_top
I0817 16:02:51.655661 17550 net.cpp:408] pre_bn -> pre_bn_top
I0817 16:02:51.655724 17556 blocking_queue.cpp:50] Waiting for data
I0817 16:02:51.656008 17550 net.cpp:150] Setting up pre_bn
I0817 16:02:51.656031 17550 net.cpp:157] Top shape: 125 16 32 32 (2048000)
I0817 16:02:51.656040 17550 net.cpp:165] Memory required for data: 17921500
I0817 16:02:51.656077 17550 layer_factory.hpp:77] Creating layer pre_scale
I0817 16:02:51.656143 17550 net.cpp:100] Creating Layer pre_scale
I0817 16:02:51.656165 17550 net.cpp:434] pre_scale <- pre_bn_top
I0817 16:02:51.656185 17550 net.cpp:395] pre_scale -> pre_bn_top (in-place)
I0817 16:02:51.656396 17550 layer_factory.hpp:77] Creating layer pre_scale
I0817 16:02:51.656678 17550 net.cpp:150] Setting up pre_scale
I0817 16:02:51.656702 17550 net.cpp:157] Top shape: 125 16 32 32 (2048000)
I0817 16:02:51.656713 17550 net.cpp:165] Memory required for data: 26113500
I0817 16:02:51.656733 17550 layer_factory.hpp:77] Creating layer pre_relu
I0817 16:02:51.656792 17550 net.cpp:100] Creating Layer pre_relu
I0817 16:02:51.656807 17550 net.cpp:434] pre_relu <- pre_bn_top
I0817 16:02:51.656822 17550 net.cpp:395] pre_relu -> pre_bn_top (in-place)
I0817 16:02:51.656841 17550 net.cpp:150] Setting up pre_relu
I0817 16:02:51.656857 17550 net.cpp:157] Top shape: 125 16 32 32 (2048000)
I0817 16:02:51.656865 17550 net.cpp:165] Memory required for data: 34305500
I0817 16:02:51.656875 17550 layer_factory.hpp:77] Creating layer pre_bn_top_pre_relu_0_split
I0817 16:02:51.656895 17550 net.cpp:100] Creating Layer pre_bn_top_pre_relu_0_split
I0817 16:02:51.656908 17550 net.cpp:434] pre_bn_top_pre_relu_0_split <- pre_bn_top
I0817 16:02:51.656924 17550 net.cpp:408] pre_bn_top_pre_relu_0_split -> pre_bn_top_pre_relu_0_split_0
I0817 16:02:51.656944 17550 net.cpp:408] pre_bn_top_pre_relu_0_split -> pre_bn_top_pre_relu_0_split_1
I0817 16:02:51.657029 17550 net.cpp:150] Setting up pre_bn_top_pre_relu_0_split
I0817 16:02:51.657050 17550 net.cpp:157] Top shape: 125 16 32 32 (2048000)
I0817 16:02:51.657064 17550 net.cpp:157] Top shape: 125 16 32 32 (2048000)
I0817 16:02:51.657073 17550 net.cpp:165] Memory required for data: 50689500
I0817 16:02:51.657084 17550 layer_factory.hpp:77] Creating layer L1_b1_cbr1_conv
I0817 16:02:51.657104 17550 net.cpp:100] Creating Layer L1_b1_cbr1_conv
I0817 16:02:51.657116 17550 net.cpp:434] L1_b1_cbr1_conv <- pre_bn_top_pre_relu_0_split_0
I0817 16:02:51.657138 17550 net.cpp:408] L1_b1_cbr1_conv -> L1_b1_cbr1_conv_top
I0817 16:02:51.657515 17550 net.cpp:150] Setting up L1_b1_cbr1_conv
I0817 16:02:51.657534 17550 net.cpp:157] Top shape: 125 16 32 32 (2048000)
I0817 16:02:51.657544 17550 net.cpp:165] Memory required for data: 58881500
I0817 16:02:51.657567 17550 layer_factory.hpp:77] Creating layer L1_b1_cbr1_bn
I0817 16:02:51.657588 17550 net.cpp:100] Creating Layer L1_b1_cbr1_bn
I0817 16:02:51.657599 17550 net.cpp:434] L1_b1_cbr1_bn <- L1_b1_cbr1_conv_top
I0817 16:02:51.657620 17550 net.cpp:408] L1_b1_cbr1_bn -> L1_b1_cbr1_bn_top
I0817 16:02:51.657905 17550 net.cpp:150] Setting up L1_b1_cbr1_bn
I0817 16:02:51.657925 17550 net.cpp:157] Top shape: 125 16 32 32 (2048000)
I0817 16:02:51.657935 17550 net.cpp:165] Memory required for data: 67073500
I0817 16:02:51.657958 17550 layer_factory.hpp:77] Creating layer L1_b1_cbr1_scale
I0817 16:02:51.657979 17550 net.cpp:100] Creating Layer L1_b1_cbr1_scale
I0817 16:02:51.657991 17550 net.cpp:434] L1_b1_cbr1_scale <- L1_b1_cbr1_bn_top
I0817 16:02:51.658006 17550 net.cpp:395] L1_b1_cbr1_scale -> L1_b1_cbr1_bn_top (in-place)
I0817 16:02:51.658088 17550 layer_factory.hpp:77] Creating layer L1_b1_cbr1_scale
I0817 16:02:51.658274 17550 net.cpp:150] Setting up L1_b1_cbr1_scale
I0817 16:02:51.658294 17550 net.cpp:157] Top shape: 125 16 32 32 (2048000)
I0817 16:02:51.658303 17550 net.cpp:165] Memory required for data: 75265500
I0817 16:02:51.658323 17550 layer_factory.hpp:77] Creating layer L1_b1_cbr1_relu
I0817 16:02:51.658351 17550 net.cpp:100] Creating Layer L1_b1_cbr1_relu
I0817 16:02:51.658363 17550 net.cpp:434] L1_b1_cbr1_relu <- L1_b1_cbr1_bn_top
I0817 16:02:51.658387 17550 net.cpp:395] L1_b1_cbr1_relu -> L1_b1_cbr1_bn_top (in-place)
I0817 16:02:51.658406 17550 net.cpp:150] Setting up L1_b1_cbr1_relu
I0817 16:02:51.658421 17550 net.cpp:157] Top shape: 125 16 32 32 (2048000)
I0817 16:02:51.658430 17550 net.cpp:165] Memory required for data: 83457500
I0817 16:02:51.658440 17550 layer_factory.hpp:77] Creating layer L1_b1_cbr2_conv
I0817 16:02:51.658468 17550 net.cpp:100] Creating Layer L1_b1_cbr2_conv
I0817 16:02:51.658480 17550 net.cpp:434] L1_b1_cbr2_conv <- L1_b1_cbr1_bn_top
I0817 16:02:51.658502 17550 net.cpp:408] L1_b1_cbr2_conv -> L1_b1_cbr2_conv_top
I0817 16:02:51.658854 17550 net.cpp:150] Setting up L1_b1_cbr2_conv
I0817 16:02:51.658874 17550 net.cpp:157] Top shape: 125 16 32 32 (2048000)
I0817 16:02:51.658884 17550 net.cpp:165] Memory required for data: 91649500
I0817 16:02:51.658900 17550 layer_factory.hpp:77] Creating layer L1_b1_cbr2_bn
I0817 16:02:51.658918 17550 net.cpp:100] Creating Layer L1_b1_cbr2_bn
I0817 16:02:51.658929 17550 net.cpp:434] L1_b1_cbr2_bn <- L1_b1_cbr2_conv_top
I0817 16:02:51.658946 17550 net.cpp:408] L1_b1_cbr2_bn -> L1_b1_cbr2_bn_top
I0817 16:02:51.659225 17550 net.cpp:150] Setting up L1_b1_cbr2_bn
I0817 16:02:51.659245 17550 net.cpp:157] Top shape: 125 16 32 32 (2048000)
I0817 16:02:51.659255 17550 net.cpp:165] Memory required for data: 99841500
I0817 16:02:51.659286 17550 layer_factory.hpp:77] Creating layer L1_b1_cbr2_scale
I0817 16:02:51.659306 17550 net.cpp:100] Creating Layer L1_b1_cbr2_scale
I0817 16:02:51.659322 17550 net.cpp:434] L1_b1_cbr2_scale <- L1_b1_cbr2_bn_top
I0817 16:02:51.659344 17550 net.cpp:395] L1_b1_cbr2_scale -> L1_b1_cbr2_bn_top (in-place)
I0817 16:02:51.659436 17550 layer_factory.hpp:77] Creating layer L1_b1_cbr2_scale
I0817 16:02:51.659612 17550 net.cpp:150] Setting up L1_b1_cbr2_scale
I0817 16:02:51.659631 17550 net.cpp:157] Top shape: 125 16 32 32 (2048000)
I0817 16:02:51.659641 17550 net.cpp:165] Memory required for data: 108033500
I0817 16:02:51.659659 17550 layer_factory.hpp:77] Creating layer L1_b1_sum_eltwise
I0817 16:02:51.659728 17550 net.cpp:100] Creating Layer L1_b1_sum_eltwise
I0817 16:02:51.659742 17550 net.cpp:434] L1_b1_sum_eltwise <- L1_b1_cbr2_bn_top
I0817 16:02:51.659754 17550 net.cpp:434] L1_b1_sum_eltwise <- pre_bn_top_pre_relu_0_split_1
I0817 16:02:51.659775 17550 net.cpp:408] L1_b1_sum_eltwise -> L1_b1_sum_eltwise_top
I0817 16:02:51.659867 17550 net.cpp:150] Setting up L1_b1_sum_eltwise
I0817 16:02:51.659885 17550 net.cpp:157] Top shape: 125 16 32 32 (2048000)
I0817 16:02:51.659895 17550 net.cpp:165] Memory required for data: 116225500
I0817 16:02:51.659905 17550 layer_factory.hpp:77] Creating layer L1_b1_relu
I0817 16:02:51.659925 17550 net.cpp:100] Creating Layer L1_b1_relu
I0817 16:02:51.659939 17550 net.cpp:434] L1_b1_relu <- L1_b1_sum_eltwise_top
I0817 16:02:51.659951 17550 net.cpp:395] L1_b1_relu -> L1_b1_sum_eltwise_top (in-place)
I0817 16:02:51.659971 17550 net.cpp:150] Setting up L1_b1_relu
I0817 16:02:51.659986 17550 net.cpp:157] Top shape: 125 16 32 32 (2048000)
I0817 16:02:51.659996 17550 net.cpp:165] Memory required for data: 124417500
I0817 16:02:51.660006 17550 layer_factory.hpp:77] Creating layer L1_b1_sum_eltwise_top_L1_b1_relu_0_split
I0817 16:02:51.660022 17550 net.cpp:100] Creating Layer L1_b1_sum_eltwise_top_L1_b1_relu_0_split
I0817 16:02:51.660032 17550 net.cpp:434] L1_b1_sum_eltwise_top_L1_b1_relu_0_split <- L1_b1_sum_eltwise_top
I0817 16:02:51.660048 17550 net.cpp:408] L1_b1_sum_eltwise_top_L1_b1_relu_0_split -> L1_b1_sum_eltwise_top_L1_b1_relu_0_split_0
I0817 16:02:51.660068 17550 net.cpp:408] L1_b1_sum_eltwise_top_L1_b1_relu_0_split -> L1_b1_sum_eltwise_top_L1_b1_relu_0_split_1
I0817 16:02:51.660153 17550 net.cpp:150] Setting up L1_b1_sum_eltwise_top_L1_b1_relu_0_split
I0817 16:02:51.660174 17550 net.cpp:157] Top shape: 125 16 32 32 (2048000)
I0817 16:02:51.660187 17550 net.cpp:157] Top shape: 125 16 32 32 (2048000)
I0817 16:02:51.660207 17550 net.cpp:165] Memory required for data: 140801500
I0817 16:02:51.660220 17550 layer_factory.hpp:77] Creating layer L1_b2_cbr1_conv
I0817 16:02:51.660245 17550 net.cpp:100] Creating Layer L1_b2_cbr1_conv
I0817 16:02:51.660259 17550 net.cpp:434] L1_b2_cbr1_conv <- L1_b1_sum_eltwise_top_L1_b1_relu_0_split_0
I0817 16:02:51.660277 17550 net.cpp:408] L1_b2_cbr1_conv -> L1_b2_cbr1_conv_top
I0817 16:02:51.660621 17550 net.cpp:150] Setting up L1_b2_cbr1_conv
I0817 16:02:51.660640 17550 net.cpp:157] Top shape: 125 16 32 32 (2048000)
I0817 16:02:51.660650 17550 net.cpp:165] Memory required for data: 148993500
I0817 16:02:51.660668 17550 layer_factory.hpp:77] Creating layer L1_b2_cbr1_bn
I0817 16:02:51.660691 17550 net.cpp:100] Creating Layer L1_b2_cbr1_bn
I0817 16:02:51.660704 17550 net.cpp:434] L1_b2_cbr1_bn <- L1_b2_cbr1_conv_top
I0817 16:02:51.660722 17550 net.cpp:408] L1_b2_cbr1_bn -> L1_b2_cbr1_bn_top
I0817 16:02:51.660990 17550 net.cpp:150] Setting up L1_b2_cbr1_bn
I0817 16:02:51.661010 17550 net.cpp:157] Top shape: 125 16 32 32 (2048000)
I0817 16:02:51.661020 17550 net.cpp:165] Memory required for data: 157185500
I0817 16:02:51.661042 17550 layer_factory.hpp:77] Creating layer L1_b2_cbr1_scale
I0817 16:02:51.661058 17550 net.cpp:100] Creating Layer L1_b2_cbr1_scale
I0817 16:02:51.661069 17550 net.cpp:434] L1_b2_cbr1_scale <- L1_b2_cbr1_bn_top
I0817 16:02:51.661084 17550 net.cpp:395] L1_b2_cbr1_scale -> L1_b2_cbr1_bn_top (in-place)
I0817 16:02:51.661177 17550 layer_factory.hpp:77] Creating layer L1_b2_cbr1_scale
I0817 16:02:51.661348 17550 net.cpp:150] Setting up L1_b2_cbr1_scale
I0817 16:02:51.661366 17550 net.cpp:157] Top shape: 125 16 32 32 (2048000)
I0817 16:02:51.661376 17550 net.cpp:165] Memory required for data: 165377500
I0817 16:02:51.661394 17550 layer_factory.hpp:77] Creating layer L1_b2_cbr1_relu
I0817 16:02:51.661412 17550 net.cpp:100] Creating Layer L1_b2_cbr1_relu
I0817 16:02:51.661422 17550 net.cpp:434] L1_b2_cbr1_relu <- L1_b2_cbr1_bn_top
I0817 16:02:51.661444 17550 net.cpp:395] L1_b2_cbr1_relu -> L1_b2_cbr1_bn_top (in-place)
I0817 16:02:51.661464 17550 net.cpp:150] Setting up L1_b2_cbr1_relu
I0817 16:02:51.661478 17550 net.cpp:157] Top shape: 125 16 32 32 (2048000)
I0817 16:02:51.661489 17550 net.cpp:165] Memory required for data: 173569500
I0817 16:02:51.661497 17550 layer_factory.hpp:77] Creating layer L1_b2_cbr2_conv
I0817 16:02:51.661521 17550 net.cpp:100] Creating Layer L1_b2_cbr2_conv
I0817 16:02:51.661535 17550 net.cpp:434] L1_b2_cbr2_conv <- L1_b2_cbr1_bn_top
I0817 16:02:51.661556 17550 net.cpp:408] L1_b2_cbr2_conv -> L1_b2_cbr2_conv_top
I0817 16:02:51.661906 17550 net.cpp:150] Setting up L1_b2_cbr2_conv
I0817 16:02:51.661924 17550 net.cpp:157] Top shape: 125 16 32 32 (2048000)
I0817 16:02:51.661934 17550 net.cpp:165] Memory required for data: 181761500
I0817 16:02:51.661952 17550 layer_factory.hpp:77] Creating layer L1_b2_cbr2_bn
I0817 16:02:51.661973 17550 net.cpp:100] Creating Layer L1_b2_cbr2_bn
I0817 16:02:51.661985 17550 net.cpp:434] L1_b2_cbr2_bn <- L1_b2_cbr2_conv_top
I0817 16:02:51.662003 17550 net.cpp:408] L1_b2_cbr2_bn -> L1_b2_cbr2_bn_top
I0817 16:02:51.662278 17550 net.cpp:150] Setting up L1_b2_cbr2_bn
I0817 16:02:51.662297 17550 net.cpp:157] Top shape: 125 16 32 32 (2048000)
I0817 16:02:51.662307 17550 net.cpp:165] Memory required for data: 189953500
I0817 16:02:51.662336 17550 layer_factory.hpp:77] Creating layer L1_b2_cbr2_scale
I0817 16:02:51.662358 17550 net.cpp:100] Creating Layer L1_b2_cbr2_scale
I0817 16:02:51.662370 17550 net.cpp:434] L1_b2_cbr2_scale <- L1_b2_cbr2_bn_top
I0817 16:02:51.662386 17550 net.cpp:395] L1_b2_cbr2_scale -> L1_b2_cbr2_bn_top (in-place)
I0817 16:02:51.662475 17550 layer_factory.hpp:77] Creating layer L1_b2_cbr2_scale
I0817 16:02:51.662653 17550 net.cpp:150] Setting up L1_b2_cbr2_scale
I0817 16:02:51.662672 17550 net.cpp:157] Top shape: 125 16 32 32 (2048000)
I0817 16:02:51.662681 17550 net.cpp:165] Memory required for data: 198145500
I0817 16:02:51.662699 17550 layer_factory.hpp:77] Creating layer L1_b2_sum_eltwise
I0817 16:02:51.662725 17550 net.cpp:100] Creating Layer L1_b2_sum_eltwise
I0817 16:02:51.662739 17550 net.cpp:434] L1_b2_sum_eltwise <- L1_b2_cbr2_bn_top
I0817 16:02:51.662751 17550 net.cpp:434] L1_b2_sum_eltwise <- L1_b1_sum_eltwise_top_L1_b1_relu_0_split_1
I0817 16:02:51.662771 17550 net.cpp:408] L1_b2_sum_eltwise -> L1_b2_sum_eltwise_top
I0817 16:02:51.662827 17550 net.cpp:150] Setting up L1_b2_sum_eltwise
I0817 16:02:51.662847 17550 net.cpp:157] Top shape: 125 16 32 32 (2048000)
I0817 16:02:51.662858 17550 net.cpp:165] Memory required for data: 206337500
I0817 16:02:51.662868 17550 layer_factory.hpp:77] Creating layer L1_b2_relu
I0817 16:02:51.662881 17550 net.cpp:100] Creating Layer L1_b2_relu
I0817 16:02:51.662892 17550 net.cpp:434] L1_b2_relu <- L1_b2_sum_eltwise_top
I0817 16:02:51.662906 17550 net.cpp:395] L1_b2_relu -> L1_b2_sum_eltwise_top (in-place)
I0817 16:02:51.662925 17550 net.cpp:150] Setting up L1_b2_relu
I0817 16:02:51.662940 17550 net.cpp:157] Top shape: 125 16 32 32 (2048000)
I0817 16:02:51.662948 17550 net.cpp:165] Memory required for data: 214529500
I0817 16:02:51.662958 17550 layer_factory.hpp:77] Creating layer L1_b2_sum_eltwise_top_L1_b2_relu_0_split
I0817 16:02:51.662979 17550 net.cpp:100] Creating Layer L1_b2_sum_eltwise_top_L1_b2_relu_0_split
I0817 16:02:51.662989 17550 net.cpp:434] L1_b2_sum_eltwise_top_L1_b2_relu_0_split <- L1_b2_sum_eltwise_top
I0817 16:02:51.663004 17550 net.cpp:408] L1_b2_sum_eltwise_top_L1_b2_relu_0_split -> L1_b2_sum_eltwise_top_L1_b2_relu_0_split_0
I0817 16:02:51.663024 17550 net.cpp:408] L1_b2_sum_eltwise_top_L1_b2_relu_0_split -> L1_b2_sum_eltwise_top_L1_b2_relu_0_split_1
I0817 16:02:51.663099 17550 net.cpp:150] Setting up L1_b2_sum_eltwise_top_L1_b2_relu_0_split
I0817 16:02:51.663125 17550 net.cpp:157] Top shape: 125 16 32 32 (2048000)
I0817 16:02:51.663139 17550 net.cpp:157] Top shape: 125 16 32 32 (2048000)
I0817 16:02:51.663161 17550 net.cpp:165] Memory required for data: 230913500
I0817 16:02:51.663173 17550 layer_factory.hpp:77] Creating layer L1_b3_cbr1_conv
I0817 16:02:51.663194 17550 net.cpp:100] Creating Layer L1_b3_cbr1_conv
I0817 16:02:51.663205 17550 net.cpp:434] L1_b3_cbr1_conv <- L1_b2_sum_eltwise_top_L1_b2_relu_0_split_0
I0817 16:02:51.663223 17550 net.cpp:408] L1_b3_cbr1_conv -> L1_b3_cbr1_conv_top
I0817 16:02:51.663568 17550 net.cpp:150] Setting up L1_b3_cbr1_conv
I0817 16:02:51.663586 17550 net.cpp:157] Top shape: 125 16 32 32 (2048000)
I0817 16:02:51.663596 17550 net.cpp:165] Memory required for data: 239105500
I0817 16:02:51.663614 17550 layer_factory.hpp:77] Creating layer L1_b3_cbr1_bn
I0817 16:02:51.663636 17550 net.cpp:100] Creating Layer L1_b3_cbr1_bn
I0817 16:02:51.663648 17550 net.cpp:434] L1_b3_cbr1_bn <- L1_b3_cbr1_conv_top
I0817 16:02:51.663664 17550 net.cpp:408] L1_b3_cbr1_bn -> L1_b3_cbr1_bn_top
I0817 16:02:51.663935 17550 net.cpp:150] Setting up L1_b3_cbr1_bn
I0817 16:02:51.663954 17550 net.cpp:157] Top shape: 125 16 32 32 (2048000)
I0817 16:02:51.663964 17550 net.cpp:165] Memory required for data: 247297500
I0817 16:02:51.663985 17550 layer_factory.hpp:77] Creating layer L1_b3_cbr1_scale
I0817 16:02:51.664006 17550 net.cpp:100] Creating Layer L1_b3_cbr1_scale
I0817 16:02:51.664018 17550 net.cpp:434] L1_b3_cbr1_scale <- L1_b3_cbr1_bn_top
I0817 16:02:51.664033 17550 net.cpp:395] L1_b3_cbr1_scale -> L1_b3_cbr1_bn_top (in-place)
I0817 16:02:51.664115 17550 layer_factory.hpp:77] Creating layer L1_b3_cbr1_scale
I0817 16:02:51.664295 17550 net.cpp:150] Setting up L1_b3_cbr1_scale
I0817 16:02:51.664314 17550 net.cpp:157] Top shape: 125 16 32 32 (2048000)
I0817 16:02:51.664324 17550 net.cpp:165] Memory required for data: 255489500
I0817 16:02:51.664343 17550 layer_factory.hpp:77] Creating layer L1_b3_cbr1_relu
I0817 16:02:51.664358 17550 net.cpp:100] Creating Layer L1_b3_cbr1_relu
I0817 16:02:51.664369 17550 net.cpp:434] L1_b3_cbr1_relu <- L1_b3_cbr1_bn_top
I0817 16:02:51.664388 17550 net.cpp:395] L1_b3_cbr1_relu -> L1_b3_cbr1_bn_top (in-place)
I0817 16:02:51.664408 17550 net.cpp:150] Setting up L1_b3_cbr1_relu
I0817 16:02:51.664433 17550 net.cpp:157] Top shape: 125 16 32 32 (2048000)
I0817 16:02:51.664443 17550 net.cpp:165] Memory required for data: 263681500
I0817 16:02:51.664454 17550 layer_factory.hpp:77] Creating layer L1_b3_cbr2_conv
I0817 16:02:51.664479 17550 net.cpp:100] Creating Layer L1_b3_cbr2_conv
I0817 16:02:51.664491 17550 net.cpp:434] L1_b3_cbr2_conv <- L1_b3_cbr1_bn_top
I0817 16:02:51.664510 17550 net.cpp:408] L1_b3_cbr2_conv -> L1_b3_cbr2_conv_top
I0817 16:02:51.664851 17550 net.cpp:150] Setting up L1_b3_cbr2_conv
I0817 16:02:51.664870 17550 net.cpp:157] Top shape: 125 16 32 32 (2048000)
I0817 16:02:51.664880 17550 net.cpp:165] Memory required for data: 271873500
I0817 16:02:51.664897 17550 layer_factory.hpp:77] Creating layer L1_b3_cbr2_bn
I0817 16:02:51.664923 17550 net.cpp:100] Creating Layer L1_b3_cbr2_bn
I0817 16:02:51.664937 17550 net.cpp:434] L1_b3_cbr2_bn <- L1_b3_cbr2_conv_top
I0817 16:02:51.664954 17550 net.cpp:408] L1_b3_cbr2_bn -> L1_b3_cbr2_bn_top
I0817 16:02:51.665235 17550 net.cpp:150] Setting up L1_b3_cbr2_bn
I0817 16:02:51.665254 17550 net.cpp:157] Top shape: 125 16 32 32 (2048000)
I0817 16:02:51.665264 17550 net.cpp:165] Memory required for data: 280065500
I0817 16:02:51.665285 17550 layer_factory.hpp:77] Creating layer L1_b3_cbr2_scale
I0817 16:02:51.665307 17550 net.cpp:100] Creating Layer L1_b3_cbr2_scale
I0817 16:02:51.665319 17550 net.cpp:434] L1_b3_cbr2_scale <- L1_b3_cbr2_bn_top
I0817 16:02:51.665335 17550 net.cpp:395] L1_b3_cbr2_scale -> L1_b3_cbr2_bn_top (in-place)
I0817 16:02:51.665421 17550 layer_factory.hpp:77] Creating layer L1_b3_cbr2_scale
I0817 16:02:51.665596 17550 net.cpp:150] Setting up L1_b3_cbr2_scale
I0817 16:02:51.665614 17550 net.cpp:157] Top shape: 125 16 32 32 (2048000)
I0817 16:02:51.665624 17550 net.cpp:165] Memory required for data: 288257500
I0817 16:02:51.665642 17550 layer_factory.hpp:77] Creating layer L1_b3_sum_eltwise
I0817 16:02:51.665659 17550 net.cpp:100] Creating Layer L1_b3_sum_eltwise
I0817 16:02:51.665670 17550 net.cpp:434] L1_b3_sum_eltwise <- L1_b3_cbr2_bn_top
I0817 16:02:51.665683 17550 net.cpp:434] L1_b3_sum_eltwise <- L1_b2_sum_eltwise_top_L1_b2_relu_0_split_1
I0817 16:02:51.665704 17550 net.cpp:408] L1_b3_sum_eltwise -> L1_b3_sum_eltwise_top
I0817 16:02:51.665760 17550 net.cpp:150] Setting up L1_b3_sum_eltwise
I0817 16:02:51.665778 17550 net.cpp:157] Top shape: 125 16 32 32 (2048000)
I0817 16:02:51.665788 17550 net.cpp:165] Memory required for data: 296449500
I0817 16:02:51.665798 17550 layer_factory.hpp:77] Creating layer L1_b3_relu
I0817 16:02:51.665813 17550 net.cpp:100] Creating Layer L1_b3_relu
I0817 16:02:51.665825 17550 net.cpp:434] L1_b3_relu <- L1_b3_sum_eltwise_top
I0817 16:02:51.665839 17550 net.cpp:395] L1_b3_relu -> L1_b3_sum_eltwise_top (in-place)
I0817 16:02:51.665858 17550 net.cpp:150] Setting up L1_b3_relu
I0817 16:02:51.665874 17550 net.cpp:157] Top shape: 125 16 32 32 (2048000)
I0817 16:02:51.665882 17550 net.cpp:165] Memory required for data: 304641500
I0817 16:02:51.665892 17550 layer_factory.hpp:77] Creating layer L1_b3_sum_eltwise_top_L1_b3_relu_0_split
I0817 16:02:51.665911 17550 net.cpp:100] Creating Layer L1_b3_sum_eltwise_top_L1_b3_relu_0_split
I0817 16:02:51.665923 17550 net.cpp:434] L1_b3_sum_eltwise_top_L1_b3_relu_0_split <- L1_b3_sum_eltwise_top
I0817 16:02:51.665940 17550 net.cpp:408] L1_b3_sum_eltwise_top_L1_b3_relu_0_split -> L1_b3_sum_eltwise_top_L1_b3_relu_0_split_0
I0817 16:02:51.665959 17550 net.cpp:408] L1_b3_sum_eltwise_top_L1_b3_relu_0_split -> L1_b3_sum_eltwise_top_L1_b3_relu_0_split_1
I0817 16:02:51.666039 17550 net.cpp:150] Setting up L1_b3_sum_eltwise_top_L1_b3_relu_0_split
I0817 16:02:51.666061 17550 net.cpp:157] Top shape: 125 16 32 32 (2048000)
I0817 16:02:51.666075 17550 net.cpp:157] Top shape: 125 16 32 32 (2048000)
I0817 16:02:51.666085 17550 net.cpp:165] Memory required for data: 321025500
I0817 16:02:51.666095 17550 layer_factory.hpp:77] Creating layer L1_b4_cbr1_conv
I0817 16:02:51.666115 17550 net.cpp:100] Creating Layer L1_b4_cbr1_conv
I0817 16:02:51.666127 17550 net.cpp:434] L1_b4_cbr1_conv <- L1_b3_sum_eltwise_top_L1_b3_relu_0_split_0
I0817 16:02:51.666167 17550 net.cpp:408] L1_b4_cbr1_conv -> L1_b4_cbr1_conv_top
I0817 16:02:51.666530 17550 net.cpp:150] Setting up L1_b4_cbr1_conv
I0817 16:02:51.666550 17550 net.cpp:157] Top shape: 125 16 32 32 (2048000)
I0817 16:02:51.666559 17550 net.cpp:165] Memory required for data: 329217500
I0817 16:02:51.666577 17550 layer_factory.hpp:77] Creating layer L1_b4_cbr1_bn
I0817 16:02:51.666594 17550 net.cpp:100] Creating Layer L1_b4_cbr1_bn
I0817 16:02:51.666605 17550 net.cpp:434] L1_b4_cbr1_bn <- L1_b4_cbr1_conv_top
I0817 16:02:51.666621 17550 net.cpp:408] L1_b4_cbr1_bn -> L1_b4_cbr1_bn_top
I0817 16:02:51.666895 17550 net.cpp:150] Setting up L1_b4_cbr1_bn
I0817 16:02:51.666914 17550 net.cpp:157] Top shape: 125 16 32 32 (2048000)
I0817 16:02:51.666924 17550 net.cpp:165] Memory required for data: 337409500
I0817 16:02:51.666945 17550 layer_factory.hpp:77] Creating layer L1_b4_cbr1_scale
I0817 16:02:51.666967 17550 net.cpp:100] Creating Layer L1_b4_cbr1_scale
I0817 16:02:51.666980 17550 net.cpp:434] L1_b4_cbr1_scale <- L1_b4_cbr1_bn_top
I0817 16:02:51.666996 17550 net.cpp:395] L1_b4_cbr1_scale -> L1_b4_cbr1_bn_top (in-place)
I0817 16:02:51.667083 17550 layer_factory.hpp:77] Creating layer L1_b4_cbr1_scale
I0817 16:02:51.667263 17550 net.cpp:150] Setting up L1_b4_cbr1_scale
I0817 16:02:51.667282 17550 net.cpp:157] Top shape: 125 16 32 32 (2048000)
I0817 16:02:51.667291 17550 net.cpp:165] Memory required for data: 345601500
I0817 16:02:51.667309 17550 layer_factory.hpp:77] Creating layer L1_b4_cbr1_relu
I0817 16:02:51.667325 17550 net.cpp:100] Creating Layer L1_b4_cbr1_relu
I0817 16:02:51.667335 17550 net.cpp:434] L1_b4_cbr1_relu <- L1_b4_cbr1_bn_top
I0817 16:02:51.667354 17550 net.cpp:395] L1_b4_cbr1_relu -> L1_b4_cbr1_bn_top (in-place)
I0817 16:02:51.667374 17550 net.cpp:150] Setting up L1_b4_cbr1_relu
I0817 16:02:51.667389 17550 net.cpp:157] Top shape: 125 16 32 32 (2048000)
I0817 16:02:51.667398 17550 net.cpp:165] Memory required for data: 353793500
I0817 16:02:51.667408 17550 layer_factory.hpp:77] Creating layer L1_b4_cbr2_conv
I0817 16:02:51.667433 17550 net.cpp:100] Creating Layer L1_b4_cbr2_conv
I0817 16:02:51.667445 17550 net.cpp:434] L1_b4_cbr2_conv <- L1_b4_cbr1_bn_top
I0817 16:02:51.667462 17550 net.cpp:408] L1_b4_cbr2_conv -> L1_b4_cbr2_conv_top
I0817 16:02:51.667814 17550 net.cpp:150] Setting up L1_b4_cbr2_conv
I0817 16:02:51.667834 17550 net.cpp:157] Top shape: 125 16 32 32 (2048000)
I0817 16:02:51.667842 17550 net.cpp:165] Memory required for data: 361985500
I0817 16:02:51.667861 17550 layer_factory.hpp:77] Creating layer L1_b4_cbr2_bn
I0817 16:02:51.667886 17550 net.cpp:100] Creating Layer L1_b4_cbr2_bn
I0817 16:02:51.667901 17550 net.cpp:434] L1_b4_cbr2_bn <- L1_b4_cbr2_conv_top
I0817 16:02:51.667917 17550 net.cpp:408] L1_b4_cbr2_bn -> L1_b4_cbr2_bn_top
I0817 16:02:51.668193 17550 net.cpp:150] Setting up L1_b4_cbr2_bn
I0817 16:02:51.668213 17550 net.cpp:157] Top shape: 125 16 32 32 (2048000)
I0817 16:02:51.668223 17550 net.cpp:165] Memory required for data: 370177500
I0817 16:02:51.668242 17550 layer_factory.hpp:77] Creating layer L1_b4_cbr2_scale
I0817 16:02:51.668262 17550 net.cpp:100] Creating Layer L1_b4_cbr2_scale
I0817 16:02:51.668274 17550 net.cpp:434] L1_b4_cbr2_scale <- L1_b4_cbr2_bn_top
I0817 16:02:51.668294 17550 net.cpp:395] L1_b4_cbr2_scale -> L1_b4_cbr2_bn_top (in-place)
I0817 16:02:51.668382 17550 layer_factory.hpp:77] Creating layer L1_b4_cbr2_scale
I0817 16:02:51.668557 17550 net.cpp:150] Setting up L1_b4_cbr2_scale
I0817 16:02:51.668576 17550 net.cpp:157] Top shape: 125 16 32 32 (2048000)
I0817 16:02:51.668586 17550 net.cpp:165] Memory required for data: 378369500
I0817 16:02:51.668604 17550 layer_factory.hpp:77] Creating layer L1_b4_sum_eltwise
I0817 16:02:51.668624 17550 net.cpp:100] Creating Layer L1_b4_sum_eltwise
I0817 16:02:51.668637 17550 net.cpp:434] L1_b4_sum_eltwise <- L1_b4_cbr2_bn_top
I0817 16:02:51.668650 17550 net.cpp:434] L1_b4_sum_eltwise <- L1_b3_sum_eltwise_top_L1_b3_relu_0_split_1
I0817 16:02:51.668666 17550 net.cpp:408] L1_b4_sum_eltwise -> L1_b4_sum_eltwise_top
I0817 16:02:51.668735 17550 net.cpp:150] Setting up L1_b4_sum_eltwise
I0817 16:02:51.668752 17550 net.cpp:157] Top shape: 125 16 32 32 (2048000)
I0817 16:02:51.668762 17550 net.cpp:165] Memory required for data: 386561500
I0817 16:02:51.668773 17550 layer_factory.hpp:77] Creating layer L1_b4_relu
I0817 16:02:51.668787 17550 net.cpp:100] Creating Layer L1_b4_relu
I0817 16:02:51.668799 17550 net.cpp:434] L1_b4_relu <- L1_b4_sum_eltwise_top
I0817 16:02:51.668818 17550 net.cpp:395] L1_b4_relu -> L1_b4_sum_eltwise_top (in-place)
I0817 16:02:51.668838 17550 net.cpp:150] Setting up L1_b4_relu
I0817 16:02:51.668853 17550 net.cpp:157] Top shape: 125 16 32 32 (2048000)
I0817 16:02:51.668862 17550 net.cpp:165] Memory required for data: 394753500
I0817 16:02:51.668871 17550 layer_factory.hpp:77] Creating layer L1_b4_sum_eltwise_top_L1_b4_relu_0_split
I0817 16:02:51.668886 17550 net.cpp:100] Creating Layer L1_b4_sum_eltwise_top_L1_b4_relu_0_split
I0817 16:02:51.668897 17550 net.cpp:434] L1_b4_sum_eltwise_top_L1_b4_relu_0_split <- L1_b4_sum_eltwise_top
I0817 16:02:51.668913 17550 net.cpp:408] L1_b4_sum_eltwise_top_L1_b4_relu_0_split -> L1_b4_sum_eltwise_top_L1_b4_relu_0_split_0
I0817 16:02:51.668932 17550 net.cpp:408] L1_b4_sum_eltwise_top_L1_b4_relu_0_split -> L1_b4_sum_eltwise_top_L1_b4_relu_0_split_1
I0817 16:02:51.669011 17550 net.cpp:150] Setting up L1_b4_sum_eltwise_top_L1_b4_relu_0_split
I0817 16:02:51.669030 17550 net.cpp:157] Top shape: 125 16 32 32 (2048000)
I0817 16:02:51.669044 17550 net.cpp:157] Top shape: 125 16 32 32 (2048000)
I0817 16:02:51.669052 17550 net.cpp:165] Memory required for data: 411137500
I0817 16:02:51.669062 17550 layer_factory.hpp:77] Creating layer L1_b5_cbr1_conv
I0817 16:02:51.669082 17550 net.cpp:100] Creating Layer L1_b5_cbr1_conv
I0817 16:02:51.669095 17550 net.cpp:434] L1_b5_cbr1_conv <- L1_b4_sum_eltwise_top_L1_b4_relu_0_split_0
I0817 16:02:51.669118 17550 net.cpp:408] L1_b5_cbr1_conv -> L1_b5_cbr1_conv_top
I0817 16:02:51.669481 17550 net.cpp:150] Setting up L1_b5_cbr1_conv
I0817 16:02:51.669499 17550 net.cpp:157] Top shape: 125 16 32 32 (2048000)
I0817 16:02:51.669509 17550 net.cpp:165] Memory required for data: 419329500
I0817 16:02:51.669545 17550 layer_factory.hpp:77] Creating layer L1_b5_cbr1_bn
I0817 16:02:51.669564 17550 net.cpp:100] Creating Layer L1_b5_cbr1_bn
I0817 16:02:51.669575 17550 net.cpp:434] L1_b5_cbr1_bn <- L1_b5_cbr1_conv_top
I0817 16:02:51.669596 17550 net.cpp:408] L1_b5_cbr1_bn -> L1_b5_cbr1_bn_top
I0817 16:02:51.669881 17550 net.cpp:150] Setting up L1_b5_cbr1_bn
I0817 16:02:51.669900 17550 net.cpp:157] Top shape: 125 16 32 32 (2048000)
I0817 16:02:51.669909 17550 net.cpp:165] Memory required for data: 427521500
I0817 16:02:51.669929 17550 layer_factory.hpp:77] Creating layer L1_b5_cbr1_scale
I0817 16:02:51.669950 17550 net.cpp:100] Creating Layer L1_b5_cbr1_scale
I0817 16:02:51.669962 17550 net.cpp:434] L1_b5_cbr1_scale <- L1_b5_cbr1_bn_top
I0817 16:02:51.669978 17550 net.cpp:395] L1_b5_cbr1_scale -> L1_b5_cbr1_bn_top (in-place)
I0817 16:02:51.670066 17550 layer_factory.hpp:77] Creating layer L1_b5_cbr1_scale
I0817 16:02:51.670249 17550 net.cpp:150] Setting up L1_b5_cbr1_scale
I0817 16:02:51.670267 17550 net.cpp:157] Top shape: 125 16 32 32 (2048000)
I0817 16:02:51.670277 17550 net.cpp:165] Memory required for data: 435713500
I0817 16:02:51.670295 17550 layer_factory.hpp:77] Creating layer L1_b5_cbr1_relu
I0817 16:02:51.670310 17550 net.cpp:100] Creating Layer L1_b5_cbr1_relu
I0817 16:02:51.670321 17550 net.cpp:434] L1_b5_cbr1_relu <- L1_b5_cbr1_bn_top
I0817 16:02:51.670341 17550 net.cpp:395] L1_b5_cbr1_relu -> L1_b5_cbr1_bn_top (in-place)
I0817 16:02:51.670361 17550 net.cpp:150] Setting up L1_b5_cbr1_relu
I0817 16:02:51.670375 17550 net.cpp:157] Top shape: 125 16 32 32 (2048000)
I0817 16:02:51.670385 17550 net.cpp:165] Memory required for data: 443905500
I0817 16:02:51.670395 17550 layer_factory.hpp:77] Creating layer L1_b5_cbr2_conv
I0817 16:02:51.670418 17550 net.cpp:100] Creating Layer L1_b5_cbr2_conv
I0817 16:02:51.670431 17550 net.cpp:434] L1_b5_cbr2_conv <- L1_b5_cbr1_bn_top
I0817 16:02:51.670462 17550 net.cpp:408] L1_b5_cbr2_conv -> L1_b5_cbr2_conv_top
I0817 16:02:51.670824 17550 net.cpp:150] Setting up L1_b5_cbr2_conv
I0817 16:02:51.670843 17550 net.cpp:157] Top shape: 125 16 32 32 (2048000)
I0817 16:02:51.670853 17550 net.cpp:165] Memory required for data: 452097500
I0817 16:02:51.670871 17550 layer_factory.hpp:77] Creating layer L1_b5_cbr2_bn
I0817 16:02:51.670888 17550 net.cpp:100] Creating Layer L1_b5_cbr2_bn
I0817 16:02:51.670899 17550 net.cpp:434] L1_b5_cbr2_bn <- L1_b5_cbr2_conv_top
I0817 16:02:51.670915 17550 net.cpp:408] L1_b5_cbr2_bn -> L1_b5_cbr2_bn_top
I0817 16:02:51.671200 17550 net.cpp:150] Setting up L1_b5_cbr2_bn
I0817 16:02:51.671221 17550 net.cpp:157] Top shape: 125 16 32 32 (2048000)
I0817 16:02:51.671231 17550 net.cpp:165] Memory required for data: 460289500
I0817 16:02:51.671252 17550 layer_factory.hpp:77] Creating layer L1_b5_cbr2_scale
I0817 16:02:51.671272 17550 net.cpp:100] Creating Layer L1_b5_cbr2_scale
I0817 16:02:51.671284 17550 net.cpp:434] L1_b5_cbr2_scale <- L1_b5_cbr2_bn_top
I0817 16:02:51.671300 17550 net.cpp:395] L1_b5_cbr2_scale -> L1_b5_cbr2_bn_top (in-place)
I0817 16:02:51.671386 17550 layer_factory.hpp:77] Creating layer L1_b5_cbr2_scale
I0817 16:02:51.671561 17550 net.cpp:150] Setting up L1_b5_cbr2_scale
I0817 16:02:51.671581 17550 net.cpp:157] Top shape: 125 16 32 32 (2048000)
I0817 16:02:51.671591 17550 net.cpp:165] Memory required for data: 468481500
I0817 16:02:51.671609 17550 layer_factory.hpp:77] Creating layer L1_b5_sum_eltwise
I0817 16:02:51.671627 17550 net.cpp:100] Creating Layer L1_b5_sum_eltwise
I0817 16:02:51.671638 17550 net.cpp:434] L1_b5_sum_eltwise <- L1_b5_cbr2_bn_top
I0817 16:02:51.671650 17550 net.cpp:434] L1_b5_sum_eltwise <- L1_b4_sum_eltwise_top_L1_b4_relu_0_split_1
I0817 16:02:51.671671 17550 net.cpp:408] L1_b5_sum_eltwise -> L1_b5_sum_eltwise_top
I0817 16:02:51.671725 17550 net.cpp:150] Setting up L1_b5_sum_eltwise
I0817 16:02:51.671747 17550 net.cpp:157] Top shape: 125 16 32 32 (2048000)
I0817 16:02:51.671757 17550 net.cpp:165] Memory required for data: 476673500
I0817 16:02:51.671767 17550 layer_factory.hpp:77] Creating layer L1_b5_relu
I0817 16:02:51.671783 17550 net.cpp:100] Creating Layer L1_b5_relu
I0817 16:02:51.671794 17550 net.cpp:434] L1_b5_relu <- L1_b5_sum_eltwise_top
I0817 16:02:51.671808 17550 net.cpp:395] L1_b5_relu -> L1_b5_sum_eltwise_top (in-place)
I0817 16:02:51.671826 17550 net.cpp:150] Setting up L1_b5_relu
I0817 16:02:51.671840 17550 net.cpp:157] Top shape: 125 16 32 32 (2048000)
I0817 16:02:51.671850 17550 net.cpp:165] Memory required for data: 484865500
I0817 16:02:51.671860 17550 layer_factory.hpp:77] Creating layer L1_b5_sum_eltwise_top_L1_b5_relu_0_split
I0817 16:02:51.671878 17550 net.cpp:100] Creating Layer L1_b5_sum_eltwise_top_L1_b5_relu_0_split
I0817 16:02:51.671890 17550 net.cpp:434] L1_b5_sum_eltwise_top_L1_b5_relu_0_split <- L1_b5_sum_eltwise_top
I0817 16:02:51.671905 17550 net.cpp:408] L1_b5_sum_eltwise_top_L1_b5_relu_0_split -> L1_b5_sum_eltwise_top_L1_b5_relu_0_split_0
I0817 16:02:51.671926 17550 net.cpp:408] L1_b5_sum_eltwise_top_L1_b5_relu_0_split -> L1_b5_sum_eltwise_top_L1_b5_relu_0_split_1
I0817 16:02:51.672001 17550 net.cpp:150] Setting up L1_b5_sum_eltwise_top_L1_b5_relu_0_split
I0817 16:02:51.672020 17550 net.cpp:157] Top shape: 125 16 32 32 (2048000)
I0817 16:02:51.672034 17550 net.cpp:157] Top shape: 125 16 32 32 (2048000)
I0817 16:02:51.672044 17550 net.cpp:165] Memory required for data: 501249500
I0817 16:02:51.672053 17550 layer_factory.hpp:77] Creating layer L1_b6_cbr1_conv
I0817 16:02:51.672073 17550 net.cpp:100] Creating Layer L1_b6_cbr1_conv
I0817 16:02:51.672086 17550 net.cpp:434] L1_b6_cbr1_conv <- L1_b5_sum_eltwise_top_L1_b5_relu_0_split_0
I0817 16:02:51.672107 17550 net.cpp:408] L1_b6_cbr1_conv -> L1_b6_cbr1_conv_top
I0817 16:02:51.672464 17550 net.cpp:150] Setting up L1_b6_cbr1_conv
I0817 16:02:51.672483 17550 net.cpp:157] Top shape: 125 16 32 32 (2048000)
I0817 16:02:51.672493 17550 net.cpp:165] Memory required for data: 509441500
I0817 16:02:51.672520 17550 layer_factory.hpp:77] Creating layer L1_b6_cbr1_bn
I0817 16:02:51.672539 17550 net.cpp:100] Creating Layer L1_b6_cbr1_bn
I0817 16:02:51.672551 17550 net.cpp:434] L1_b6_cbr1_bn <- L1_b6_cbr1_conv_top
I0817 16:02:51.672567 17550 net.cpp:408] L1_b6_cbr1_bn -> L1_b6_cbr1_bn_top
I0817 16:02:51.672849 17550 net.cpp:150] Setting up L1_b6_cbr1_bn
I0817 16:02:51.672869 17550 net.cpp:157] Top shape: 125 16 32 32 (2048000)
I0817 16:02:51.672879 17550 net.cpp:165] Memory required for data: 517633500
I0817 16:02:51.672901 17550 layer_factory.hpp:77] Creating layer L1_b6_cbr1_scale
I0817 16:02:51.672924 17550 net.cpp:100] Creating Layer L1_b6_cbr1_scale
I0817 16:02:51.672935 17550 net.cpp:434] L1_b6_cbr1_scale <- L1_b6_cbr1_bn_top
I0817 16:02:51.672951 17550 net.cpp:395] L1_b6_cbr1_scale -> L1_b6_cbr1_bn_top (in-place)
I0817 16:02:51.673040 17550 layer_factory.hpp:77] Creating layer L1_b6_cbr1_scale
I0817 16:02:51.673225 17550 net.cpp:150] Setting up L1_b6_cbr1_scale
I0817 16:02:51.673244 17550 net.cpp:157] Top shape: 125 16 32 32 (2048000)
I0817 16:02:51.673254 17550 net.cpp:165] Memory required for data: 525825500
I0817 16:02:51.673272 17550 layer_factory.hpp:77] Creating layer L1_b6_cbr1_relu
I0817 16:02:51.673288 17550 net.cpp:100] Creating Layer L1_b6_cbr1_relu
I0817 16:02:51.673300 17550 net.cpp:434] L1_b6_cbr1_relu <- L1_b6_cbr1_bn_top
I0817 16:02:51.673318 17550 net.cpp:395] L1_b6_cbr1_relu -> L1_b6_cbr1_bn_top (in-place)
I0817 16:02:51.673338 17550 net.cpp:150] Setting up L1_b6_cbr1_relu
I0817 16:02:51.673353 17550 net.cpp:157] Top shape: 125 16 32 32 (2048000)
I0817 16:02:51.673364 17550 net.cpp:165] Memory required for data: 534017500
I0817 16:02:51.673373 17550 layer_factory.hpp:77] Creating layer L1_b6_cbr2_conv
I0817 16:02:51.673398 17550 net.cpp:100] Creating Layer L1_b6_cbr2_conv
I0817 16:02:51.673411 17550 net.cpp:434] L1_b6_cbr2_conv <- L1_b6_cbr1_bn_top
I0817 16:02:51.673429 17550 net.cpp:408] L1_b6_cbr2_conv -> L1_b6_cbr2_conv_top
I0817 16:02:51.673781 17550 net.cpp:150] Setting up L1_b6_cbr2_conv
I0817 16:02:51.673801 17550 net.cpp:157] Top shape: 125 16 32 32 (2048000)
I0817 16:02:51.673810 17550 net.cpp:165] Memory required for data: 542209500
I0817 16:02:51.673828 17550 layer_factory.hpp:77] Creating layer L1_b6_cbr2_bn
I0817 16:02:51.673849 17550 net.cpp:100] Creating Layer L1_b6_cbr2_bn
I0817 16:02:51.673862 17550 net.cpp:434] L1_b6_cbr2_bn <- L1_b6_cbr2_conv_top
I0817 16:02:51.673878 17550 net.cpp:408] L1_b6_cbr2_bn -> L1_b6_cbr2_bn_top
I0817 16:02:51.674161 17550 net.cpp:150] Setting up L1_b6_cbr2_bn
I0817 16:02:51.674180 17550 net.cpp:157] Top shape: 125 16 32 32 (2048000)
I0817 16:02:51.674190 17550 net.cpp:165] Memory required for data: 550401500
I0817 16:02:51.674211 17550 layer_factory.hpp:77] Creating layer L1_b6_cbr2_scale
I0817 16:02:51.674228 17550 net.cpp:100] Creating Layer L1_b6_cbr2_scale
I0817 16:02:51.674239 17550 net.cpp:434] L1_b6_cbr2_scale <- L1_b6_cbr2_bn_top
I0817 16:02:51.674259 17550 net.cpp:395] L1_b6_cbr2_scale -> L1_b6_cbr2_bn_top (in-place)
I0817 16:02:51.674345 17550 layer_factory.hpp:77] Creating layer L1_b6_cbr2_scale
I0817 16:02:51.674523 17550 net.cpp:150] Setting up L1_b6_cbr2_scale
I0817 16:02:51.674542 17550 net.cpp:157] Top shape: 125 16 32 32 (2048000)
I0817 16:02:51.674552 17550 net.cpp:165] Memory required for data: 558593500
I0817 16:02:51.674569 17550 layer_factory.hpp:77] Creating layer L1_b6_sum_eltwise
I0817 16:02:51.674597 17550 net.cpp:100] Creating Layer L1_b6_sum_eltwise
I0817 16:02:51.674612 17550 net.cpp:434] L1_b6_sum_eltwise <- L1_b6_cbr2_bn_top
I0817 16:02:51.674625 17550 net.cpp:434] L1_b6_sum_eltwise <- L1_b5_sum_eltwise_top_L1_b5_relu_0_split_1
I0817 16:02:51.674644 17550 net.cpp:408] L1_b6_sum_eltwise -> L1_b6_sum_eltwise_top
I0817 16:02:51.674700 17550 net.cpp:150] Setting up L1_b6_sum_eltwise
I0817 16:02:51.674717 17550 net.cpp:157] Top shape: 125 16 32 32 (2048000)
I0817 16:02:51.674727 17550 net.cpp:165] Memory required for data: 566785500
I0817 16:02:51.674738 17550 layer_factory.hpp:77] Creating layer L1_b6_relu
I0817 16:02:51.674768 17550 net.cpp:100] Creating Layer L1_b6_relu
I0817 16:02:51.674782 17550 net.cpp:434] L1_b6_relu <- L1_b6_sum_eltwise_top
I0817 16:02:51.674796 17550 net.cpp:395] L1_b6_relu -> L1_b6_sum_eltwise_top (in-place)
I0817 16:02:51.674815 17550 net.cpp:150] Setting up L1_b6_relu
I0817 16:02:51.674830 17550 net.cpp:157] Top shape: 125 16 32 32 (2048000)
I0817 16:02:51.674840 17550 net.cpp:165] Memory required for data: 574977500
I0817 16:02:51.674850 17550 layer_factory.hpp:77] Creating layer L1_b6_sum_eltwise_top_L1_b6_relu_0_split
I0817 16:02:51.674865 17550 net.cpp:100] Creating Layer L1_b6_sum_eltwise_top_L1_b6_relu_0_split
I0817 16:02:51.674875 17550 net.cpp:434] L1_b6_sum_eltwise_top_L1_b6_relu_0_split <- L1_b6_sum_eltwise_top
I0817 16:02:51.674890 17550 net.cpp:408] L1_b6_sum_eltwise_top_L1_b6_relu_0_split -> L1_b6_sum_eltwise_top_L1_b6_relu_0_split_0
I0817 16:02:51.674909 17550 net.cpp:408] L1_b6_sum_eltwise_top_L1_b6_relu_0_split -> L1_b6_sum_eltwise_top_L1_b6_relu_0_split_1
I0817 16:02:51.674991 17550 net.cpp:150] Setting up L1_b6_sum_eltwise_top_L1_b6_relu_0_split
I0817 16:02:51.675011 17550 net.cpp:157] Top shape: 125 16 32 32 (2048000)
I0817 16:02:51.675025 17550 net.cpp:157] Top shape: 125 16 32 32 (2048000)
I0817 16:02:51.675035 17550 net.cpp:165] Memory required for data: 591361500
I0817 16:02:51.675045 17550 layer_factory.hpp:77] Creating layer L1_b7_cbr1_conv
I0817 16:02:51.675071 17550 net.cpp:100] Creating Layer L1_b7_cbr1_conv
I0817 16:02:51.675084 17550 net.cpp:434] L1_b7_cbr1_conv <- L1_b6_sum_eltwise_top_L1_b6_relu_0_split_0
I0817 16:02:51.675102 17550 net.cpp:408] L1_b7_cbr1_conv -> L1_b7_cbr1_conv_top
I0817 16:02:51.675464 17550 net.cpp:150] Setting up L1_b7_cbr1_conv
I0817 16:02:51.675484 17550 net.cpp:157] Top shape: 125 16 32 32 (2048000)
I0817 16:02:51.675494 17550 net.cpp:165] Memory required for data: 599553500
I0817 16:02:51.675511 17550 layer_factory.hpp:77] Creating layer L1_b7_cbr1_bn
I0817 16:02:51.675534 17550 net.cpp:100] Creating Layer L1_b7_cbr1_bn
I0817 16:02:51.675547 17550 net.cpp:434] L1_b7_cbr1_bn <- L1_b7_cbr1_conv_top
I0817 16:02:51.675565 17550 net.cpp:408] L1_b7_cbr1_bn -> L1_b7_cbr1_bn_top
I0817 16:02:51.675838 17550 net.cpp:150] Setting up L1_b7_cbr1_bn
I0817 16:02:51.675861 17550 net.cpp:157] Top shape: 125 16 32 32 (2048000)
I0817 16:02:51.675871 17550 net.cpp:165] Memory required for data: 607745500
I0817 16:02:51.675892 17550 layer_factory.hpp:77] Creating layer L1_b7_cbr1_scale
I0817 16:02:51.675909 17550 net.cpp:100] Creating Layer L1_b7_cbr1_scale
I0817 16:02:51.675920 17550 net.cpp:434] L1_b7_cbr1_scale <- L1_b7_cbr1_bn_top
I0817 16:02:51.675935 17550 net.cpp:395] L1_b7_cbr1_scale -> L1_b7_cbr1_bn_top (in-place)
I0817 16:02:51.676023 17550 layer_factory.hpp:77] Creating layer L1_b7_cbr1_scale
I0817 16:02:51.676203 17550 net.cpp:150] Setting up L1_b7_cbr1_scale
I0817 16:02:51.676221 17550 net.cpp:157] Top shape: 125 16 32 32 (2048000)
I0817 16:02:51.676231 17550 net.cpp:165] Memory required for data: 615937500
I0817 16:02:51.676249 17550 layer_factory.hpp:77] Creating layer L1_b7_cbr1_relu
I0817 16:02:51.676268 17550 net.cpp:100] Creating Layer L1_b7_cbr1_relu
I0817 16:02:51.676281 17550 net.cpp:434] L1_b7_cbr1_relu <- L1_b7_cbr1_bn_top
I0817 16:02:51.676302 17550 net.cpp:395] L1_b7_cbr1_relu -> L1_b7_cbr1_bn_top (in-place)
I0817 16:02:51.676322 17550 net.cpp:150] Setting up L1_b7_cbr1_relu
I0817 16:02:51.676337 17550 net.cpp:157] Top shape: 125 16 32 32 (2048000)
I0817 16:02:51.676347 17550 net.cpp:165] Memory required for data: 624129500
I0817 16:02:51.676357 17550 layer_factory.hpp:77] Creating layer L1_b7_cbr2_conv
I0817 16:02:51.676378 17550 net.cpp:100] Creating Layer L1_b7_cbr2_conv
I0817 16:02:51.676390 17550 net.cpp:434] L1_b7_cbr2_conv <- L1_b7_cbr1_bn_top
I0817 16:02:51.676411 17550 net.cpp:408] L1_b7_cbr2_conv -> L1_b7_cbr2_conv_top
I0817 16:02:51.676759 17550 net.cpp:150] Setting up L1_b7_cbr2_conv
I0817 16:02:51.676779 17550 net.cpp:157] Top shape: 125 16 32 32 (2048000)
I0817 16:02:51.676789 17550 net.cpp:165] Memory required for data: 632321500
I0817 16:02:51.676815 17550 layer_factory.hpp:77] Creating layer L1_b7_cbr2_bn
I0817 16:02:51.676834 17550 net.cpp:100] Creating Layer L1_b7_cbr2_bn
I0817 16:02:51.676846 17550 net.cpp:434] L1_b7_cbr2_bn <- L1_b7_cbr2_conv_top
I0817 16:02:51.676869 17550 net.cpp:408] L1_b7_cbr2_bn -> L1_b7_cbr2_bn_top
I0817 16:02:51.677161 17550 net.cpp:150] Setting up L1_b7_cbr2_bn
I0817 16:02:51.677181 17550 net.cpp:157] Top shape: 125 16 32 32 (2048000)
I0817 16:02:51.677191 17550 net.cpp:165] Memory required for data: 640513500
I0817 16:02:51.677211 17550 layer_factory.hpp:77] Creating layer L1_b7_cbr2_scale
I0817 16:02:51.677233 17550 net.cpp:100] Creating Layer L1_b7_cbr2_scale
I0817 16:02:51.677247 17550 net.cpp:434] L1_b7_cbr2_scale <- L1_b7_cbr2_bn_top
I0817 16:02:51.677263 17550 net.cpp:395] L1_b7_cbr2_scale -> L1_b7_cbr2_bn_top (in-place)
I0817 16:02:51.677346 17550 layer_factory.hpp:77] Creating layer L1_b7_cbr2_scale
I0817 16:02:51.677521 17550 net.cpp:150] Setting up L1_b7_cbr2_scale
I0817 16:02:51.677541 17550 net.cpp:157] Top shape: 125 16 32 32 (2048000)
I0817 16:02:51.677551 17550 net.cpp:165] Memory required for data: 648705500
I0817 16:02:51.677568 17550 layer_factory.hpp:77] Creating layer L1_b7_sum_eltwise
I0817 16:02:51.677589 17550 net.cpp:100] Creating Layer L1_b7_sum_eltwise
I0817 16:02:51.677603 17550 net.cpp:434] L1_b7_sum_eltwise <- L1_b7_cbr2_bn_top
I0817 16:02:51.677616 17550 net.cpp:434] L1_b7_sum_eltwise <- L1_b6_sum_eltwise_top_L1_b6_relu_0_split_1
I0817 16:02:51.677633 17550 net.cpp:408] L1_b7_sum_eltwise -> L1_b7_sum_eltwise_top
I0817 16:02:51.677695 17550 net.cpp:150] Setting up L1_b7_sum_eltwise
I0817 16:02:51.677714 17550 net.cpp:157] Top shape: 125 16 32 32 (2048000)
I0817 16:02:51.677723 17550 net.cpp:165] Memory required for data: 656897500
I0817 16:02:51.677733 17550 layer_factory.hpp:77] Creating layer L1_b7_relu
I0817 16:02:51.677748 17550 net.cpp:100] Creating Layer L1_b7_relu
I0817 16:02:51.677759 17550 net.cpp:434] L1_b7_relu <- L1_b7_sum_eltwise_top
I0817 16:02:51.677779 17550 net.cpp:395] L1_b7_relu -> L1_b7_sum_eltwise_top (in-place)
I0817 16:02:51.677799 17550 net.cpp:150] Setting up L1_b7_relu
I0817 16:02:51.677814 17550 net.cpp:157] Top shape: 125 16 32 32 (2048000)
I0817 16:02:51.677824 17550 net.cpp:165] Memory required for data: 665089500
I0817 16:02:51.677834 17550 layer_factory.hpp:77] Creating layer L1_b7_sum_eltwise_top_L1_b7_relu_0_split
I0817 16:02:51.677846 17550 net.cpp:100] Creating Layer L1_b7_sum_eltwise_top_L1_b7_relu_0_split
I0817 16:02:51.677857 17550 net.cpp:434] L1_b7_sum_eltwise_top_L1_b7_relu_0_split <- L1_b7_sum_eltwise_top
I0817 16:02:51.677873 17550 net.cpp:408] L1_b7_sum_eltwise_top_L1_b7_relu_0_split -> L1_b7_sum_eltwise_top_L1_b7_relu_0_split_0
I0817 16:02:51.677892 17550 net.cpp:408] L1_b7_sum_eltwise_top_L1_b7_relu_0_split -> L1_b7_sum_eltwise_top_L1_b7_relu_0_split_1
I0817 16:02:51.677973 17550 net.cpp:150] Setting up L1_b7_sum_eltwise_top_L1_b7_relu_0_split
I0817 16:02:51.677992 17550 net.cpp:157] Top shape: 125 16 32 32 (2048000)
I0817 16:02:51.678006 17550 net.cpp:157] Top shape: 125 16 32 32 (2048000)
I0817 16:02:51.678015 17550 net.cpp:165] Memory required for data: 681473500
I0817 16:02:51.678025 17550 layer_factory.hpp:77] Creating layer L1_b8_cbr1_conv
I0817 16:02:51.678046 17550 net.cpp:100] Creating Layer L1_b8_cbr1_conv
I0817 16:02:51.678059 17550 net.cpp:434] L1_b8_cbr1_conv <- L1_b7_sum_eltwise_top_L1_b7_relu_0_split_0
I0817 16:02:51.678081 17550 net.cpp:408] L1_b8_cbr1_conv -> L1_b8_cbr1_conv_top
I0817 16:02:51.678444 17550 net.cpp:150] Setting up L1_b8_cbr1_conv
I0817 16:02:51.678463 17550 net.cpp:157] Top shape: 125 16 32 32 (2048000)
I0817 16:02:51.678472 17550 net.cpp:165] Memory required for data: 689665500
I0817 16:02:51.678491 17550 layer_factory.hpp:77] Creating layer L1_b8_cbr1_bn
I0817 16:02:51.678508 17550 net.cpp:100] Creating Layer L1_b8_cbr1_bn
I0817 16:02:51.678520 17550 net.cpp:434] L1_b8_cbr1_bn <- L1_b8_cbr1_conv_top
I0817 16:02:51.678544 17550 net.cpp:408] L1_b8_cbr1_bn -> L1_b8_cbr1_bn_top
I0817 16:02:51.678830 17550 net.cpp:150] Setting up L1_b8_cbr1_bn
I0817 16:02:51.678861 17550 net.cpp:157] Top shape: 125 16 32 32 (2048000)
I0817 16:02:51.678871 17550 net.cpp:165] Memory required for data: 697857500
I0817 16:02:51.678894 17550 layer_factory.hpp:77] Creating layer L1_b8_cbr1_scale
I0817 16:02:51.678910 17550 net.cpp:100] Creating Layer L1_b8_cbr1_scale
I0817 16:02:51.678920 17550 net.cpp:434] L1_b8_cbr1_scale <- L1_b8_cbr1_bn_top
I0817 16:02:51.678936 17550 net.cpp:395] L1_b8_cbr1_scale -> L1_b8_cbr1_bn_top (in-place)
I0817 16:02:51.679025 17550 layer_factory.hpp:77] Creating layer L1_b8_cbr1_scale
I0817 16:02:51.679213 17550 net.cpp:150] Setting up L1_b8_cbr1_scale
I0817 16:02:51.679231 17550 net.cpp:157] Top shape: 125 16 32 32 (2048000)
I0817 16:02:51.679241 17550 net.cpp:165] Memory required for data: 706049500
I0817 16:02:51.679260 17550 layer_factory.hpp:77] Creating layer L1_b8_cbr1_relu
I0817 16:02:51.679280 17550 net.cpp:100] Creating Layer L1_b8_cbr1_relu
I0817 16:02:51.679291 17550 net.cpp:434] L1_b8_cbr1_relu <- L1_b8_cbr1_bn_top
I0817 16:02:51.679306 17550 net.cpp:395] L1_b8_cbr1_relu -> L1_b8_cbr1_bn_top (in-place)
I0817 16:02:51.679325 17550 net.cpp:150] Setting up L1_b8_cbr1_relu
I0817 16:02:51.679340 17550 net.cpp:157] Top shape: 125 16 32 32 (2048000)
I0817 16:02:51.679349 17550 net.cpp:165] Memory required for data: 714241500
I0817 16:02:51.679359 17550 layer_factory.hpp:77] Creating layer L1_b8_cbr2_conv
I0817 16:02:51.679383 17550 net.cpp:100] Creating Layer L1_b8_cbr2_conv
I0817 16:02:51.679397 17550 net.cpp:434] L1_b8_cbr2_conv <- L1_b8_cbr1_bn_top
I0817 16:02:51.679419 17550 net.cpp:408] L1_b8_cbr2_conv -> L1_b8_cbr2_conv_top
I0817 16:02:51.679774 17550 net.cpp:150] Setting up L1_b8_cbr2_conv
I0817 16:02:51.679792 17550 net.cpp:157] Top shape: 125 16 32 32 (2048000)
I0817 16:02:51.679801 17550 net.cpp:165] Memory required for data: 722433500
I0817 16:02:51.679819 17550 layer_factory.hpp:77] Creating layer L1_b8_cbr2_bn
I0817 16:02:51.679836 17550 net.cpp:100] Creating Layer L1_b8_cbr2_bn
I0817 16:02:51.679847 17550 net.cpp:434] L1_b8_cbr2_bn <- L1_b8_cbr2_conv_top
I0817 16:02:51.679868 17550 net.cpp:408] L1_b8_cbr2_bn -> L1_b8_cbr2_bn_top
I0817 16:02:51.680163 17550 net.cpp:150] Setting up L1_b8_cbr2_bn
I0817 16:02:51.680183 17550 net.cpp:157] Top shape: 125 16 32 32 (2048000)
I0817 16:02:51.680193 17550 net.cpp:165] Memory required for data: 730625500
I0817 16:02:51.680215 17550 layer_factory.hpp:77] Creating layer L1_b8_cbr2_scale
I0817 16:02:51.680236 17550 net.cpp:100] Creating Layer L1_b8_cbr2_scale
I0817 16:02:51.680248 17550 net.cpp:434] L1_b8_cbr2_scale <- L1_b8_cbr2_bn_top
I0817 16:02:51.680265 17550 net.cpp:395] L1_b8_cbr2_scale -> L1_b8_cbr2_bn_top (in-place)
I0817 16:02:51.680348 17550 layer_factory.hpp:77] Creating layer L1_b8_cbr2_scale
I0817 16:02:51.680524 17550 net.cpp:150] Setting up L1_b8_cbr2_scale
I0817 16:02:51.680543 17550 net.cpp:157] Top shape: 125 16 32 32 (2048000)
I0817 16:02:51.680553 17550 net.cpp:165] Memory required for data: 738817500
I0817 16:02:51.680572 17550 layer_factory.hpp:77] Creating layer L1_b8_sum_eltwise
I0817 16:02:51.680593 17550 net.cpp:100] Creating Layer L1_b8_sum_eltwise
I0817 16:02:51.680605 17550 net.cpp:434] L1_b8_sum_eltwise <- L1_b8_cbr2_bn_top
I0817 16:02:51.680619 17550 net.cpp:434] L1_b8_sum_eltwise <- L1_b7_sum_eltwise_top_L1_b7_relu_0_split_1
I0817 16:02:51.680634 17550 net.cpp:408] L1_b8_sum_eltwise -> L1_b8_sum_eltwise_top
I0817 16:02:51.680693 17550 net.cpp:150] Setting up L1_b8_sum_eltwise
I0817 16:02:51.680711 17550 net.cpp:157] Top shape: 125 16 32 32 (2048000)
I0817 16:02:51.680719 17550 net.cpp:165] Memory required for data: 747009500
I0817 16:02:51.680729 17550 layer_factory.hpp:77] Creating layer L1_b8_relu
I0817 16:02:51.680744 17550 net.cpp:100] Creating Layer L1_b8_relu
I0817 16:02:51.680757 17550 net.cpp:434] L1_b8_relu <- L1_b8_sum_eltwise_top
I0817 16:02:51.680775 17550 net.cpp:395] L1_b8_relu -> L1_b8_sum_eltwise_top (in-place)
I0817 16:02:51.680796 17550 net.cpp:150] Setting up L1_b8_relu
I0817 16:02:51.680810 17550 net.cpp:157] Top shape: 125 16 32 32 (2048000)
I0817 16:02:51.680829 17550 net.cpp:165] Memory required for data: 755201500
I0817 16:02:51.680840 17550 layer_factory.hpp:77] Creating layer L1_b8_sum_eltwise_top_L1_b8_relu_0_split
I0817 16:02:51.680852 17550 net.cpp:100] Creating Layer L1_b8_sum_eltwise_top_L1_b8_relu_0_split
I0817 16:02:51.680863 17550 net.cpp:434] L1_b8_sum_eltwise_top_L1_b8_relu_0_split <- L1_b8_sum_eltwise_top
I0817 16:02:51.680879 17550 net.cpp:408] L1_b8_sum_eltwise_top_L1_b8_relu_0_split -> L1_b8_sum_eltwise_top_L1_b8_relu_0_split_0
I0817 16:02:51.680899 17550 net.cpp:408] L1_b8_sum_eltwise_top_L1_b8_relu_0_split -> L1_b8_sum_eltwise_top_L1_b8_relu_0_split_1
I0817 16:02:51.680979 17550 net.cpp:150] Setting up L1_b8_sum_eltwise_top_L1_b8_relu_0_split
I0817 16:02:51.680999 17550 net.cpp:157] Top shape: 125 16 32 32 (2048000)
I0817 16:02:51.681012 17550 net.cpp:157] Top shape: 125 16 32 32 (2048000)
I0817 16:02:51.681021 17550 net.cpp:165] Memory required for data: 771585500
I0817 16:02:51.681031 17550 layer_factory.hpp:77] Creating layer L1_b9_cbr1_conv
I0817 16:02:51.681052 17550 net.cpp:100] Creating Layer L1_b9_cbr1_conv
I0817 16:02:51.681064 17550 net.cpp:434] L1_b9_cbr1_conv <- L1_b8_sum_eltwise_top_L1_b8_relu_0_split_0
I0817 16:02:51.681087 17550 net.cpp:408] L1_b9_cbr1_conv -> L1_b9_cbr1_conv_top
I0817 16:02:51.681462 17550 net.cpp:150] Setting up L1_b9_cbr1_conv
I0817 16:02:51.681483 17550 net.cpp:157] Top shape: 125 16 32 32 (2048000)
I0817 16:02:51.681491 17550 net.cpp:165] Memory required for data: 779777500
I0817 16:02:51.681510 17550 layer_factory.hpp:77] Creating layer L1_b9_cbr1_bn
I0817 16:02:51.681535 17550 net.cpp:100] Creating Layer L1_b9_cbr1_bn
I0817 16:02:51.681548 17550 net.cpp:434] L1_b9_cbr1_bn <- L1_b9_cbr1_conv_top
I0817 16:02:51.681571 17550 net.cpp:408] L1_b9_cbr1_bn -> L1_b9_cbr1_bn_top
I0817 16:02:51.681860 17550 net.cpp:150] Setting up L1_b9_cbr1_bn
I0817 16:02:51.681879 17550 net.cpp:157] Top shape: 125 16 32 32 (2048000)
I0817 16:02:51.681890 17550 net.cpp:165] Memory required for data: 787969500
I0817 16:02:51.681910 17550 layer_factory.hpp:77] Creating layer L1_b9_cbr1_scale
I0817 16:02:51.681929 17550 net.cpp:100] Creating Layer L1_b9_cbr1_scale
I0817 16:02:51.681941 17550 net.cpp:434] L1_b9_cbr1_scale <- L1_b9_cbr1_bn_top
I0817 16:02:51.681955 17550 net.cpp:395] L1_b9_cbr1_scale -> L1_b9_cbr1_bn_top (in-place)
I0817 16:02:51.682047 17550 layer_factory.hpp:77] Creating layer L1_b9_cbr1_scale
I0817 16:02:51.682234 17550 net.cpp:150] Setting up L1_b9_cbr1_scale
I0817 16:02:51.682253 17550 net.cpp:157] Top shape: 125 16 32 32 (2048000)
I0817 16:02:51.682262 17550 net.cpp:165] Memory required for data: 796161500
I0817 16:02:51.682279 17550 layer_factory.hpp:77] Creating layer L1_b9_cbr1_relu
I0817 16:02:51.682299 17550 net.cpp:100] Creating Layer L1_b9_cbr1_relu
I0817 16:02:51.682312 17550 net.cpp:434] L1_b9_cbr1_relu <- L1_b9_cbr1_bn_top
I0817 16:02:51.682327 17550 net.cpp:395] L1_b9_cbr1_relu -> L1_b9_cbr1_bn_top (in-place)
I0817 16:02:51.682345 17550 net.cpp:150] Setting up L1_b9_cbr1_relu
I0817 16:02:51.682360 17550 net.cpp:157] Top shape: 125 16 32 32 (2048000)
I0817 16:02:51.682369 17550 net.cpp:165] Memory required for data: 804353500
I0817 16:02:51.682379 17550 layer_factory.hpp:77] Creating layer L1_b9_cbr2_conv
I0817 16:02:51.682404 17550 net.cpp:100] Creating Layer L1_b9_cbr2_conv
I0817 16:02:51.682417 17550 net.cpp:434] L1_b9_cbr2_conv <- L1_b9_cbr1_bn_top
I0817 16:02:51.682438 17550 net.cpp:408] L1_b9_cbr2_conv -> L1_b9_cbr2_conv_top
I0817 16:02:51.682803 17550 net.cpp:150] Setting up L1_b9_cbr2_conv
I0817 16:02:51.682822 17550 net.cpp:157] Top shape: 125 16 32 32 (2048000)
I0817 16:02:51.682832 17550 net.cpp:165] Memory required for data: 812545500
I0817 16:02:51.682850 17550 layer_factory.hpp:77] Creating layer L1_b9_cbr2_bn
I0817 16:02:51.682871 17550 net.cpp:100] Creating Layer L1_b9_cbr2_bn
I0817 16:02:51.682884 17550 net.cpp:434] L1_b9_cbr2_bn <- L1_b9_cbr2_conv_top
I0817 16:02:51.682901 17550 net.cpp:408] L1_b9_cbr2_bn -> L1_b9_cbr2_bn_top
I0817 16:02:51.683203 17550 net.cpp:150] Setting up L1_b9_cbr2_bn
I0817 16:02:51.683223 17550 net.cpp:157] Top shape: 125 16 32 32 (2048000)
I0817 16:02:51.683233 17550 net.cpp:165] Memory required for data: 820737500
I0817 16:02:51.683284 17550 layer_factory.hpp:77] Creating layer L1_b9_cbr2_scale
I0817 16:02:51.683301 17550 net.cpp:100] Creating Layer L1_b9_cbr2_scale
I0817 16:02:51.683313 17550 net.cpp:434] L1_b9_cbr2_scale <- L1_b9_cbr2_bn_top
I0817 16:02:51.683333 17550 net.cpp:395] L1_b9_cbr2_scale -> L1_b9_cbr2_bn_top (in-place)
I0817 16:02:51.683421 17550 layer_factory.hpp:77] Creating layer L1_b9_cbr2_scale
I0817 16:02:51.683599 17550 net.cpp:150] Setting up L1_b9_cbr2_scale
I0817 16:02:51.683619 17550 net.cpp:157] Top shape: 125 16 32 32 (2048000)
I0817 16:02:51.683629 17550 net.cpp:165] Memory required for data: 828929500
I0817 16:02:51.683646 17550 layer_factory.hpp:77] Creating layer L1_b9_sum_eltwise
I0817 16:02:51.683668 17550 net.cpp:100] Creating Layer L1_b9_sum_eltwise
I0817 16:02:51.683681 17550 net.cpp:434] L1_b9_sum_eltwise <- L1_b9_cbr2_bn_top
I0817 16:02:51.683696 17550 net.cpp:434] L1_b9_sum_eltwise <- L1_b8_sum_eltwise_top_L1_b8_relu_0_split_1
I0817 16:02:51.683710 17550 net.cpp:408] L1_b9_sum_eltwise -> L1_b9_sum_eltwise_top
I0817 16:02:51.683763 17550 net.cpp:150] Setting up L1_b9_sum_eltwise
I0817 16:02:51.683781 17550 net.cpp:157] Top shape: 125 16 32 32 (2048000)
I0817 16:02:51.683791 17550 net.cpp:165] Memory required for data: 837121500
I0817 16:02:51.683801 17550 layer_factory.hpp:77] Creating layer L1_b9_relu
I0817 16:02:51.683815 17550 net.cpp:100] Creating Layer L1_b9_relu
I0817 16:02:51.683826 17550 net.cpp:434] L1_b9_relu <- L1_b9_sum_eltwise_top
I0817 16:02:51.683850 17550 net.cpp:395] L1_b9_relu -> L1_b9_sum_eltwise_top (in-place)
I0817 16:02:51.683871 17550 net.cpp:150] Setting up L1_b9_relu
I0817 16:02:51.683886 17550 net.cpp:157] Top shape: 125 16 32 32 (2048000)
I0817 16:02:51.683895 17550 net.cpp:165] Memory required for data: 845313500
I0817 16:02:51.683905 17550 layer_factory.hpp:77] Creating layer L1_b9_sum_eltwise_top_L1_b9_relu_0_split
I0817 16:02:51.683926 17550 net.cpp:100] Creating Layer L1_b9_sum_eltwise_top_L1_b9_relu_0_split
I0817 16:02:51.683938 17550 net.cpp:434] L1_b9_sum_eltwise_top_L1_b9_relu_0_split <- L1_b9_sum_eltwise_top
I0817 16:02:51.683954 17550 net.cpp:408] L1_b9_sum_eltwise_top_L1_b9_relu_0_split -> L1_b9_sum_eltwise_top_L1_b9_relu_0_split_0
I0817 16:02:51.683974 17550 net.cpp:408] L1_b9_sum_eltwise_top_L1_b9_relu_0_split -> L1_b9_sum_eltwise_top_L1_b9_relu_0_split_1
I0817 16:02:51.684056 17550 net.cpp:150] Setting up L1_b9_sum_eltwise_top_L1_b9_relu_0_split
I0817 16:02:51.684074 17550 net.cpp:157] Top shape: 125 16 32 32 (2048000)
I0817 16:02:51.684087 17550 net.cpp:157] Top shape: 125 16 32 32 (2048000)
I0817 16:02:51.684096 17550 net.cpp:165] Memory required for data: 861697500
I0817 16:02:51.684106 17550 layer_factory.hpp:77] Creating layer L2_b1_cbr1_conv
I0817 16:02:51.684129 17550 net.cpp:100] Creating Layer L2_b1_cbr1_conv
I0817 16:02:51.684144 17550 net.cpp:434] L2_b1_cbr1_conv <- L1_b9_sum_eltwise_top_L1_b9_relu_0_split_0
I0817 16:02:51.684170 17550 net.cpp:408] L2_b1_cbr1_conv -> L2_b1_cbr1_conv_top
I0817 16:02:51.684535 17550 net.cpp:150] Setting up L2_b1_cbr1_conv
I0817 16:02:51.684554 17550 net.cpp:157] Top shape: 125 16 16 16 (512000)
I0817 16:02:51.684563 17550 net.cpp:165] Memory required for data: 863745500
I0817 16:02:51.684581 17550 layer_factory.hpp:77] Creating layer L2_b1_cbr1_bn
I0817 16:02:51.684603 17550 net.cpp:100] Creating Layer L2_b1_cbr1_bn
I0817 16:02:51.684615 17550 net.cpp:434] L2_b1_cbr1_bn <- L2_b1_cbr1_conv_top
I0817 16:02:51.684633 17550 net.cpp:408] L2_b1_cbr1_bn -> L2_b1_cbr1_bn_top
I0817 16:02:51.684919 17550 net.cpp:150] Setting up L2_b1_cbr1_bn
I0817 16:02:51.684953 17550 net.cpp:157] Top shape: 125 16 16 16 (512000)
I0817 16:02:51.684964 17550 net.cpp:165] Memory required for data: 865793500
I0817 16:02:51.684986 17550 layer_factory.hpp:77] Creating layer L2_b1_cbr1_scale
I0817 16:02:51.685003 17550 net.cpp:100] Creating Layer L2_b1_cbr1_scale
I0817 16:02:51.685022 17550 net.cpp:434] L2_b1_cbr1_scale <- L2_b1_cbr1_bn_top
I0817 16:02:51.685039 17550 net.cpp:395] L2_b1_cbr1_scale -> L2_b1_cbr1_bn_top (in-place)
I0817 16:02:51.685132 17550 layer_factory.hpp:77] Creating layer L2_b1_cbr1_scale
I0817 16:02:51.685318 17550 net.cpp:150] Setting up L2_b1_cbr1_scale
I0817 16:02:51.685336 17550 net.cpp:157] Top shape: 125 16 16 16 (512000)
I0817 16:02:51.685346 17550 net.cpp:165] Memory required for data: 867841500
I0817 16:02:51.685365 17550 layer_factory.hpp:77] Creating layer L2_b1_cbr1_relu
I0817 16:02:51.685380 17550 net.cpp:100] Creating Layer L2_b1_cbr1_relu
I0817 16:02:51.685391 17550 net.cpp:434] L2_b1_cbr1_relu <- L2_b1_cbr1_bn_top
I0817 16:02:51.685411 17550 net.cpp:395] L2_b1_cbr1_relu -> L2_b1_cbr1_bn_top (in-place)
I0817 16:02:51.685432 17550 net.cpp:150] Setting up L2_b1_cbr1_relu
I0817 16:02:51.685447 17550 net.cpp:157] Top shape: 125 16 16 16 (512000)
I0817 16:02:51.685457 17550 net.cpp:165] Memory required for data: 869889500
I0817 16:02:51.685467 17550 layer_factory.hpp:77] Creating layer L2_b1_cbr2_conv
I0817 16:02:51.685492 17550 net.cpp:100] Creating Layer L2_b1_cbr2_conv
I0817 16:02:51.685505 17550 net.cpp:434] L2_b1_cbr2_conv <- L2_b1_cbr1_bn_top
I0817 16:02:51.685523 17550 net.cpp:408] L2_b1_cbr2_conv -> L2_b1_cbr2_conv_top
I0817 16:02:51.685883 17550 net.cpp:150] Setting up L2_b1_cbr2_conv
I0817 16:02:51.685901 17550 net.cpp:157] Top shape: 125 16 16 16 (512000)
I0817 16:02:51.685911 17550 net.cpp:165] Memory required for data: 871937500
I0817 16:02:51.685927 17550 layer_factory.hpp:77] Creating layer L2_b1_cbr2_bn
I0817 16:02:51.685952 17550 net.cpp:100] Creating Layer L2_b1_cbr2_bn
I0817 16:02:51.685966 17550 net.cpp:434] L2_b1_cbr2_bn <- L2_b1_cbr2_conv_top
I0817 16:02:51.685983 17550 net.cpp:408] L2_b1_cbr2_bn -> L2_b1_cbr2_bn_top
I0817 16:02:51.686250 17550 net.cpp:150] Setting up L2_b1_cbr2_bn
I0817 16:02:51.686269 17550 net.cpp:157] Top shape: 125 16 16 16 (512000)
I0817 16:02:51.686278 17550 net.cpp:165] Memory required for data: 873985500
I0817 16:02:51.686298 17550 layer_factory.hpp:77] Creating layer L2_b1_cbr2_scale
I0817 16:02:51.686318 17550 net.cpp:100] Creating Layer L2_b1_cbr2_scale
I0817 16:02:51.686331 17550 net.cpp:434] L2_b1_cbr2_scale <- L2_b1_cbr2_bn_top
I0817 16:02:51.686347 17550 net.cpp:395] L2_b1_cbr2_scale -> L2_b1_cbr2_bn_top (in-place)
I0817 16:02:51.686439 17550 layer_factory.hpp:77] Creating layer L2_b1_cbr2_scale
I0817 16:02:51.686619 17550 net.cpp:150] Setting up L2_b1_cbr2_scale
I0817 16:02:51.686637 17550 net.cpp:157] Top shape: 125 16 16 16 (512000)
I0817 16:02:51.686647 17550 net.cpp:165] Memory required for data: 876033500
I0817 16:02:51.686664 17550 layer_factory.hpp:77] Creating layer L2_b1_pool
I0817 16:02:51.686688 17550 net.cpp:100] Creating Layer L2_b1_pool
I0817 16:02:51.686702 17550 net.cpp:434] L2_b1_pool <- L1_b9_sum_eltwise_top_L1_b9_relu_0_split_1
I0817 16:02:51.686723 17550 net.cpp:408] L2_b1_pool -> L2_b1_pool
I0817 16:02:51.686830 17550 net.cpp:150] Setting up L2_b1_pool
I0817 16:02:51.686849 17550 net.cpp:157] Top shape: 125 16 16 16 (512000)
I0817 16:02:51.686859 17550 net.cpp:165] Memory required for data: 878081500
I0817 16:02:51.686869 17550 layer_factory.hpp:77] Creating layer L2_b1_sum_eltwise
I0817 16:02:51.686885 17550 net.cpp:100] Creating Layer L2_b1_sum_eltwise
I0817 16:02:51.686897 17550 net.cpp:434] L2_b1_sum_eltwise <- L2_b1_cbr2_bn_top
I0817 16:02:51.686915 17550 net.cpp:434] L2_b1_sum_eltwise <- L2_b1_pool
I0817 16:02:51.686933 17550 net.cpp:408] L2_b1_sum_eltwise -> L2_b1_sum_eltwise_top
I0817 16:02:51.686988 17550 net.cpp:150] Setting up L2_b1_sum_eltwise
I0817 16:02:51.687008 17550 net.cpp:157] Top shape: 125 16 16 16 (512000)
I0817 16:02:51.687018 17550 net.cpp:165] Memory required for data: 880129500
I0817 16:02:51.687028 17550 layer_factory.hpp:77] Creating layer L2_b1_relu
I0817 16:02:51.687042 17550 net.cpp:100] Creating Layer L2_b1_relu
I0817 16:02:51.687053 17550 net.cpp:434] L2_b1_relu <- L2_b1_sum_eltwise_top
I0817 16:02:51.687072 17550 net.cpp:395] L2_b1_relu -> L2_b1_sum_eltwise_top (in-place)
I0817 16:02:51.687101 17550 net.cpp:150] Setting up L2_b1_relu
I0817 16:02:51.687117 17550 net.cpp:157] Top shape: 125 16 16 16 (512000)
I0817 16:02:51.687126 17550 net.cpp:165] Memory required for data: 882177500
I0817 16:02:51.687137 17550 layer_factory.hpp:77] Creating layer L2_b1_zeros
I0817 16:02:51.687207 17550 net.cpp:100] Creating Layer L2_b1_zeros
I0817 16:02:51.687227 17550 net.cpp:408] L2_b1_zeros -> L2_b1_zeros
I0817 16:02:51.689756 17550 net.cpp:150] Setting up L2_b1_zeros
I0817 16:02:51.689779 17550 net.cpp:157] Top shape: 125 16 16 16 (512000)
I0817 16:02:51.689790 17550 net.cpp:165] Memory required for data: 884225500
I0817 16:02:51.689800 17550 layer_factory.hpp:77] Creating layer L2_b1_concat0
I0817 16:02:51.689816 17550 net.cpp:100] Creating Layer L2_b1_concat0
I0817 16:02:51.689828 17550 net.cpp:434] L2_b1_concat0 <- L2_b1_sum_eltwise_top
I0817 16:02:51.689841 17550 net.cpp:434] L2_b1_concat0 <- L2_b1_zeros
I0817 16:02:51.689862 17550 net.cpp:408] L2_b1_concat0 -> L2_b1_concat0
I0817 16:02:51.689972 17550 net.cpp:150] Setting up L2_b1_concat0
I0817 16:02:51.689993 17550 net.cpp:157] Top shape: 125 32 16 16 (1024000)
I0817 16:02:51.690003 17550 net.cpp:165] Memory required for data: 888321500
I0817 16:02:51.690013 17550 layer_factory.hpp:77] Creating layer L2_b1_concat0_L2_b1_concat0_0_split
I0817 16:02:51.690029 17550 net.cpp:100] Creating Layer L2_b1_concat0_L2_b1_concat0_0_split
I0817 16:02:51.690040 17550 net.cpp:434] L2_b1_concat0_L2_b1_concat0_0_split <- L2_b1_concat0
I0817 16:02:51.690060 17550 net.cpp:408] L2_b1_concat0_L2_b1_concat0_0_split -> L2_b1_concat0_L2_b1_concat0_0_split_0
I0817 16:02:51.690081 17550 net.cpp:408] L2_b1_concat0_L2_b1_concat0_0_split -> L2_b1_concat0_L2_b1_concat0_0_split_1
I0817 16:02:51.690177 17550 net.cpp:150] Setting up L2_b1_concat0_L2_b1_concat0_0_split
I0817 16:02:51.690196 17550 net.cpp:157] Top shape: 125 32 16 16 (1024000)
I0817 16:02:51.690210 17550 net.cpp:157] Top shape: 125 32 16 16 (1024000)
I0817 16:02:51.690219 17550 net.cpp:165] Memory required for data: 896513500
I0817 16:02:51.690229 17550 layer_factory.hpp:77] Creating layer L2_b2_cbr1_conv
I0817 16:02:51.690254 17550 net.cpp:100] Creating Layer L2_b2_cbr1_conv
I0817 16:02:51.690268 17550 net.cpp:434] L2_b2_cbr1_conv <- L2_b1_concat0_L2_b1_concat0_0_split_0
I0817 16:02:51.690286 17550 net.cpp:408] L2_b2_cbr1_conv -> L2_b2_cbr1_conv_top
I0817 16:02:51.691815 17550 net.cpp:150] Setting up L2_b2_cbr1_conv
I0817 16:02:51.691838 17550 net.cpp:157] Top shape: 125 32 16 16 (1024000)
I0817 16:02:51.691848 17550 net.cpp:165] Memory required for data: 900609500
I0817 16:02:51.691866 17550 layer_factory.hpp:77] Creating layer L2_b2_cbr1_bn
I0817 16:02:51.691889 17550 net.cpp:100] Creating Layer L2_b2_cbr1_bn
I0817 16:02:51.691900 17550 net.cpp:434] L2_b2_cbr1_bn <- L2_b2_cbr1_conv_top
I0817 16:02:51.691922 17550 net.cpp:408] L2_b2_cbr1_bn -> L2_b2_cbr1_bn_top
I0817 16:02:51.692212 17550 net.cpp:150] Setting up L2_b2_cbr1_bn
I0817 16:02:51.692235 17550 net.cpp:157] Top shape: 125 32 16 16 (1024000)
I0817 16:02:51.692246 17550 net.cpp:165] Memory required for data: 904705500
I0817 16:02:51.692268 17550 layer_factory.hpp:77] Creating layer L2_b2_cbr1_scale
I0817 16:02:51.692286 17550 net.cpp:100] Creating Layer L2_b2_cbr1_scale
I0817 16:02:51.692297 17550 net.cpp:434] L2_b2_cbr1_scale <- L2_b2_cbr1_bn_top
I0817 16:02:51.692314 17550 net.cpp:395] L2_b2_cbr1_scale -> L2_b2_cbr1_bn_top (in-place)
I0817 16:02:51.692410 17550 layer_factory.hpp:77] Creating layer L2_b2_cbr1_scale
I0817 16:02:51.692595 17550 net.cpp:150] Setting up L2_b2_cbr1_scale
I0817 16:02:51.692615 17550 net.cpp:157] Top shape: 125 32 16 16 (1024000)
I0817 16:02:51.692623 17550 net.cpp:165] Memory required for data: 908801500
I0817 16:02:51.692642 17550 layer_factory.hpp:77] Creating layer L2_b2_cbr1_relu
I0817 16:02:51.692658 17550 net.cpp:100] Creating Layer L2_b2_cbr1_relu
I0817 16:02:51.692670 17550 net.cpp:434] L2_b2_cbr1_relu <- L2_b2_cbr1_bn_top
I0817 16:02:51.692689 17550 net.cpp:395] L2_b2_cbr1_relu -> L2_b2_cbr1_bn_top (in-place)
I0817 16:02:51.692719 17550 net.cpp:150] Setting up L2_b2_cbr1_relu
I0817 16:02:51.692736 17550 net.cpp:157] Top shape: 125 32 16 16 (1024000)
I0817 16:02:51.692746 17550 net.cpp:165] Memory required for data: 912897500
I0817 16:02:51.692756 17550 layer_factory.hpp:77] Creating layer L2_b2_cbr2_conv
I0817 16:02:51.692781 17550 net.cpp:100] Creating Layer L2_b2_cbr2_conv
I0817 16:02:51.692795 17550 net.cpp:434] L2_b2_cbr2_conv <- L2_b2_cbr1_bn_top
I0817 16:02:51.692813 17550 net.cpp:408] L2_b2_cbr2_conv -> L2_b2_cbr2_conv_top
I0817 16:02:51.693331 17550 net.cpp:150] Setting up L2_b2_cbr2_conv
I0817 16:02:51.693351 17550 net.cpp:157] Top shape: 125 32 16 16 (1024000)
I0817 16:02:51.693361 17550 net.cpp:165] Memory required for data: 916993500
I0817 16:02:51.693379 17550 layer_factory.hpp:77] Creating layer L2_b2_cbr2_bn
I0817 16:02:51.693401 17550 net.cpp:100] Creating Layer L2_b2_cbr2_bn
I0817 16:02:51.693414 17550 net.cpp:434] L2_b2_cbr2_bn <- L2_b2_cbr2_conv_top
I0817 16:02:51.693431 17550 net.cpp:408] L2_b2_cbr2_bn -> L2_b2_cbr2_bn_top
I0817 16:02:51.693713 17550 net.cpp:150] Setting up L2_b2_cbr2_bn
I0817 16:02:51.693732 17550 net.cpp:157] Top shape: 125 32 16 16 (1024000)
I0817 16:02:51.693742 17550 net.cpp:165] Memory required for data: 921089500
I0817 16:02:51.693763 17550 layer_factory.hpp:77] Creating layer L2_b2_cbr2_scale
I0817 16:02:51.693784 17550 net.cpp:100] Creating Layer L2_b2_cbr2_scale
I0817 16:02:51.693796 17550 net.cpp:434] L2_b2_cbr2_scale <- L2_b2_cbr2_bn_top
I0817 16:02:51.693812 17550 net.cpp:395] L2_b2_cbr2_scale -> L2_b2_cbr2_bn_top (in-place)
I0817 16:02:51.693898 17550 layer_factory.hpp:77] Creating layer L2_b2_cbr2_scale
I0817 16:02:51.694080 17550 net.cpp:150] Setting up L2_b2_cbr2_scale
I0817 16:02:51.694100 17550 net.cpp:157] Top shape: 125 32 16 16 (1024000)
I0817 16:02:51.694109 17550 net.cpp:165] Memory required for data: 925185500
I0817 16:02:51.694128 17550 layer_factory.hpp:77] Creating layer L2_b2_sum_eltwise
I0817 16:02:51.694154 17550 net.cpp:100] Creating Layer L2_b2_sum_eltwise
I0817 16:02:51.694169 17550 net.cpp:434] L2_b2_sum_eltwise <- L2_b2_cbr2_bn_top
I0817 16:02:51.694183 17550 net.cpp:434] L2_b2_sum_eltwise <- L2_b1_concat0_L2_b1_concat0_0_split_1
I0817 16:02:51.694205 17550 net.cpp:408] L2_b2_sum_eltwise -> L2_b2_sum_eltwise_top
I0817 16:02:51.694252 17550 net.cpp:150] Setting up L2_b2_sum_eltwise
I0817 16:02:51.694270 17550 net.cpp:157] Top shape: 125 32 16 16 (1024000)
I0817 16:02:51.694279 17550 net.cpp:165] Memory required for data: 929281500
I0817 16:02:51.694290 17550 layer_factory.hpp:77] Creating layer L2_b2_relu
I0817 16:02:51.694304 17550 net.cpp:100] Creating Layer L2_b2_relu
I0817 16:02:51.694315 17550 net.cpp:434] L2_b2_relu <- L2_b2_sum_eltwise_top
I0817 16:02:51.694335 17550 net.cpp:395] L2_b2_relu -> L2_b2_sum_eltwise_top (in-place)
I0817 16:02:51.694356 17550 net.cpp:150] Setting up L2_b2_relu
I0817 16:02:51.694370 17550 net.cpp:157] Top shape: 125 32 16 16 (1024000)
I0817 16:02:51.694380 17550 net.cpp:165] Memory required for data: 933377500
I0817 16:02:51.694391 17550 layer_factory.hpp:77] Creating layer L2_b2_sum_eltwise_top_L2_b2_relu_0_split
I0817 16:02:51.694404 17550 net.cpp:100] Creating Layer L2_b2_sum_eltwise_top_L2_b2_relu_0_split
I0817 16:02:51.694416 17550 net.cpp:434] L2_b2_sum_eltwise_top_L2_b2_relu_0_split <- L2_b2_sum_eltwise_top
I0817 16:02:51.694432 17550 net.cpp:408] L2_b2_sum_eltwise_top_L2_b2_relu_0_split -> L2_b2_sum_eltwise_top_L2_b2_relu_0_split_0
I0817 16:02:51.694450 17550 net.cpp:408] L2_b2_sum_eltwise_top_L2_b2_relu_0_split -> L2_b2_sum_eltwise_top_L2_b2_relu_0_split_1
I0817 16:02:51.694533 17550 net.cpp:150] Setting up L2_b2_sum_eltwise_top_L2_b2_relu_0_split
I0817 16:02:51.694552 17550 net.cpp:157] Top shape: 125 32 16 16 (1024000)
I0817 16:02:51.694566 17550 net.cpp:157] Top shape: 125 32 16 16 (1024000)
I0817 16:02:51.694576 17550 net.cpp:165] Memory required for data: 941569500
I0817 16:02:51.694586 17550 layer_factory.hpp:77] Creating layer L2_b3_cbr1_conv
I0817 16:02:51.694619 17550 net.cpp:100] Creating Layer L2_b3_cbr1_conv
I0817 16:02:51.694633 17550 net.cpp:434] L2_b3_cbr1_conv <- L2_b2_sum_eltwise_top_L2_b2_relu_0_split_0
I0817 16:02:51.694651 17550 net.cpp:408] L2_b3_cbr1_conv -> L2_b3_cbr1_conv_top
I0817 16:02:51.695176 17550 net.cpp:150] Setting up L2_b3_cbr1_conv
I0817 16:02:51.695197 17550 net.cpp:157] Top shape: 125 32 16 16 (1024000)
I0817 16:02:51.695206 17550 net.cpp:165] Memory required for data: 945665500
I0817 16:02:51.695225 17550 layer_factory.hpp:77] Creating layer L2_b3_cbr1_bn
I0817 16:02:51.695246 17550 net.cpp:100] Creating Layer L2_b3_cbr1_bn
I0817 16:02:51.695260 17550 net.cpp:434] L2_b3_cbr1_bn <- L2_b3_cbr1_conv_top
I0817 16:02:51.695277 17550 net.cpp:408] L2_b3_cbr1_bn -> L2_b3_cbr1_bn_top
I0817 16:02:51.695555 17550 net.cpp:150] Setting up L2_b3_cbr1_bn
I0817 16:02:51.695578 17550 net.cpp:157] Top shape: 125 32 16 16 (1024000)
I0817 16:02:51.695588 17550 net.cpp:165] Memory required for data: 949761500
I0817 16:02:51.695610 17550 layer_factory.hpp:77] Creating layer L2_b3_cbr1_scale
I0817 16:02:51.695627 17550 net.cpp:100] Creating Layer L2_b3_cbr1_scale
I0817 16:02:51.695639 17550 net.cpp:434] L2_b3_cbr1_scale <- L2_b3_cbr1_bn_top
I0817 16:02:51.695655 17550 net.cpp:395] L2_b3_cbr1_scale -> L2_b3_cbr1_bn_top (in-place)
I0817 16:02:51.695745 17550 layer_factory.hpp:77] Creating layer L2_b3_cbr1_scale
I0817 16:02:51.695929 17550 net.cpp:150] Setting up L2_b3_cbr1_scale
I0817 16:02:51.695947 17550 net.cpp:157] Top shape: 125 32 16 16 (1024000)
I0817 16:02:51.695957 17550 net.cpp:165] Memory required for data: 953857500
I0817 16:02:51.695976 17550 layer_factory.hpp:77] Creating layer L2_b3_cbr1_relu
I0817 16:02:51.695991 17550 net.cpp:100] Creating Layer L2_b3_cbr1_relu
I0817 16:02:51.696002 17550 net.cpp:434] L2_b3_cbr1_relu <- L2_b3_cbr1_bn_top
I0817 16:02:51.696022 17550 net.cpp:395] L2_b3_cbr1_relu -> L2_b3_cbr1_bn_top (in-place)
I0817 16:02:51.696041 17550 net.cpp:150] Setting up L2_b3_cbr1_relu
I0817 16:02:51.696056 17550 net.cpp:157] Top shape: 125 32 16 16 (1024000)
I0817 16:02:51.696068 17550 net.cpp:165] Memory required for data: 957953500
I0817 16:02:51.696079 17550 layer_factory.hpp:77] Creating layer L2_b3_cbr2_conv
I0817 16:02:51.696104 17550 net.cpp:100] Creating Layer L2_b3_cbr2_conv
I0817 16:02:51.696117 17550 net.cpp:434] L2_b3_cbr2_conv <- L2_b3_cbr1_bn_top
I0817 16:02:51.696135 17550 net.cpp:408] L2_b3_cbr2_conv -> L2_b3_cbr2_conv_top
I0817 16:02:51.696640 17550 net.cpp:150] Setting up L2_b3_cbr2_conv
I0817 16:02:51.696660 17550 net.cpp:157] Top shape: 125 32 16 16 (1024000)
I0817 16:02:51.696668 17550 net.cpp:165] Memory required for data: 962049500
I0817 16:02:51.696687 17550 layer_factory.hpp:77] Creating layer L2_b3_cbr2_bn
I0817 16:02:51.696704 17550 net.cpp:100] Creating Layer L2_b3_cbr2_bn
I0817 16:02:51.696717 17550 net.cpp:434] L2_b3_cbr2_bn <- L2_b3_cbr2_conv_top
I0817 16:02:51.696738 17550 net.cpp:408] L2_b3_cbr2_bn -> L2_b3_cbr2_bn_top
I0817 16:02:51.697024 17550 net.cpp:150] Setting up L2_b3_cbr2_bn
I0817 16:02:51.697043 17550 net.cpp:157] Top shape: 125 32 16 16 (1024000)
I0817 16:02:51.697052 17550 net.cpp:165] Memory required for data: 966145500
I0817 16:02:51.697074 17550 layer_factory.hpp:77] Creating layer L2_b3_cbr2_scale
I0817 16:02:51.697095 17550 net.cpp:100] Creating Layer L2_b3_cbr2_scale
I0817 16:02:51.697108 17550 net.cpp:434] L2_b3_cbr2_scale <- L2_b3_cbr2_bn_top
I0817 16:02:51.697124 17550 net.cpp:395] L2_b3_cbr2_scale -> L2_b3_cbr2_bn_top (in-place)
I0817 16:02:51.697216 17550 layer_factory.hpp:77] Creating layer L2_b3_cbr2_scale
I0817 16:02:51.697402 17550 net.cpp:150] Setting up L2_b3_cbr2_scale
I0817 16:02:51.697422 17550 net.cpp:157] Top shape: 125 32 16 16 (1024000)
I0817 16:02:51.697432 17550 net.cpp:165] Memory required for data: 970241500
I0817 16:02:51.697449 17550 layer_factory.hpp:77] Creating layer L2_b3_sum_eltwise
I0817 16:02:51.697470 17550 net.cpp:100] Creating Layer L2_b3_sum_eltwise
I0817 16:02:51.697484 17550 net.cpp:434] L2_b3_sum_eltwise <- L2_b3_cbr2_bn_top
I0817 16:02:51.697496 17550 net.cpp:434] L2_b3_sum_eltwise <- L2_b2_sum_eltwise_top_L2_b2_relu_0_split_1
I0817 16:02:51.697527 17550 net.cpp:408] L2_b3_sum_eltwise -> L2_b3_sum_eltwise_top
I0817 16:02:51.697577 17550 net.cpp:150] Setting up L2_b3_sum_eltwise
I0817 16:02:51.697595 17550 net.cpp:157] Top shape: 125 32 16 16 (1024000)
I0817 16:02:51.697605 17550 net.cpp:165] Memory required for data: 974337500
I0817 16:02:51.697615 17550 layer_factory.hpp:77] Creating layer L2_b3_relu
I0817 16:02:51.697648 17550 net.cpp:100] Creating Layer L2_b3_relu
I0817 16:02:51.697661 17550 net.cpp:434] L2_b3_relu <- L2_b3_sum_eltwise_top
I0817 16:02:51.697676 17550 net.cpp:395] L2_b3_relu -> L2_b3_sum_eltwise_top (in-place)
I0817 16:02:51.697695 17550 net.cpp:150] Setting up L2_b3_relu
I0817 16:02:51.697711 17550 net.cpp:157] Top shape: 125 32 16 16 (1024000)
I0817 16:02:51.697721 17550 net.cpp:165] Memory required for data: 978433500
I0817 16:02:51.697731 17550 layer_factory.hpp:77] Creating layer L2_b3_sum_eltwise_top_L2_b3_relu_0_split
I0817 16:02:51.697755 17550 net.cpp:100] Creating Layer L2_b3_sum_eltwise_top_L2_b3_relu_0_split
I0817 16:02:51.697767 17550 net.cpp:434] L2_b3_sum_eltwise_top_L2_b3_relu_0_split <- L2_b3_sum_eltwise_top
I0817 16:02:51.697783 17550 net.cpp:408] L2_b3_sum_eltwise_top_L2_b3_relu_0_split -> L2_b3_sum_eltwise_top_L2_b3_relu_0_split_0
I0817 16:02:51.697803 17550 net.cpp:408] L2_b3_sum_eltwise_top_L2_b3_relu_0_split -> L2_b3_sum_eltwise_top_L2_b3_relu_0_split_1
I0817 16:02:51.697890 17550 net.cpp:150] Setting up L2_b3_sum_eltwise_top_L2_b3_relu_0_split
I0817 16:02:51.697907 17550 net.cpp:157] Top shape: 125 32 16 16 (1024000)
I0817 16:02:51.697921 17550 net.cpp:157] Top shape: 125 32 16 16 (1024000)
I0817 16:02:51.697930 17550 net.cpp:165] Memory required for data: 986625500
I0817 16:02:51.697942 17550 layer_factory.hpp:77] Creating layer L2_b4_cbr1_conv
I0817 16:02:51.697962 17550 net.cpp:100] Creating Layer L2_b4_cbr1_conv
I0817 16:02:51.697974 17550 net.cpp:434] L2_b4_cbr1_conv <- L2_b3_sum_eltwise_top_L2_b3_relu_0_split_0
I0817 16:02:51.697998 17550 net.cpp:408] L2_b4_cbr1_conv -> L2_b4_cbr1_conv_top
I0817 16:02:51.698513 17550 net.cpp:150] Setting up L2_b4_cbr1_conv
I0817 16:02:51.698534 17550 net.cpp:157] Top shape: 125 32 16 16 (1024000)
I0817 16:02:51.698542 17550 net.cpp:165] Memory required for data: 990721500
I0817 16:02:51.698560 17550 layer_factory.hpp:77] Creating layer L2_b4_cbr1_bn
I0817 16:02:51.698578 17550 net.cpp:100] Creating Layer L2_b4_cbr1_bn
I0817 16:02:51.698590 17550 net.cpp:434] L2_b4_cbr1_bn <- L2_b4_cbr1_conv_top
I0817 16:02:51.698611 17550 net.cpp:408] L2_b4_cbr1_bn -> L2_b4_cbr1_bn_top
I0817 16:02:51.698894 17550 net.cpp:150] Setting up L2_b4_cbr1_bn
I0817 16:02:51.698912 17550 net.cpp:157] Top shape: 125 32 16 16 (1024000)
I0817 16:02:51.698922 17550 net.cpp:165] Memory required for data: 994817500
I0817 16:02:51.698945 17550 layer_factory.hpp:77] Creating layer L2_b4_cbr1_scale
I0817 16:02:51.698966 17550 net.cpp:100] Creating Layer L2_b4_cbr1_scale
I0817 16:02:51.698978 17550 net.cpp:434] L2_b4_cbr1_scale <- L2_b4_cbr1_bn_top
I0817 16:02:51.698994 17550 net.cpp:395] L2_b4_cbr1_scale -> L2_b4_cbr1_bn_top (in-place)
I0817 16:02:51.699079 17550 layer_factory.hpp:77] Creating layer L2_b4_cbr1_scale
I0817 16:02:51.699267 17550 net.cpp:150] Setting up L2_b4_cbr1_scale
I0817 16:02:51.699286 17550 net.cpp:157] Top shape: 125 32 16 16 (1024000)
I0817 16:02:51.699295 17550 net.cpp:165] Memory required for data: 998913500
I0817 16:02:51.699313 17550 layer_factory.hpp:77] Creating layer L2_b4_cbr1_relu
I0817 16:02:51.699329 17550 net.cpp:100] Creating Layer L2_b4_cbr1_relu
I0817 16:02:51.699340 17550 net.cpp:434] L2_b4_cbr1_relu <- L2_b4_cbr1_bn_top
I0817 16:02:51.699359 17550 net.cpp:395] L2_b4_cbr1_relu -> L2_b4_cbr1_bn_top (in-place)
I0817 16:02:51.699380 17550 net.cpp:150] Setting up L2_b4_cbr1_relu
I0817 16:02:51.699395 17550 net.cpp:157] Top shape: 125 32 16 16 (1024000)
I0817 16:02:51.699405 17550 net.cpp:165] Memory required for data: 1003009500
I0817 16:02:51.699415 17550 layer_factory.hpp:77] Creating layer L2_b4_cbr2_conv
I0817 16:02:51.699448 17550 net.cpp:100] Creating Layer L2_b4_cbr2_conv
I0817 16:02:51.699462 17550 net.cpp:434] L2_b4_cbr2_conv <- L2_b4_cbr1_bn_top
I0817 16:02:51.699484 17550 net.cpp:408] L2_b4_cbr2_conv -> L2_b4_cbr2_conv_top
I0817 16:02:51.699995 17550 net.cpp:150] Setting up L2_b4_cbr2_conv
I0817 16:02:51.700014 17550 net.cpp:157] Top shape: 125 32 16 16 (1024000)
I0817 16:02:51.700023 17550 net.cpp:165] Memory required for data: 1007105500
I0817 16:02:51.700042 17550 layer_factory.hpp:77] Creating layer L2_b4_cbr2_bn
I0817 16:02:51.700059 17550 net.cpp:100] Creating Layer L2_b4_cbr2_bn
I0817 16:02:51.700070 17550 net.cpp:434] L2_b4_cbr2_bn <- L2_b4_cbr2_conv_top
I0817 16:02:51.700086 17550 net.cpp:408] L2_b4_cbr2_bn -> L2_b4_cbr2_bn_top
I0817 16:02:51.700378 17550 net.cpp:150] Setting up L2_b4_cbr2_bn
I0817 16:02:51.700397 17550 net.cpp:157] Top shape: 125 32 16 16 (1024000)
I0817 16:02:51.700407 17550 net.cpp:165] Memory required for data: 1011201500
I0817 16:02:51.700428 17550 layer_factory.hpp:77] Creating layer L2_b4_cbr2_scale
I0817 16:02:51.700444 17550 net.cpp:100] Creating Layer L2_b4_cbr2_scale
I0817 16:02:51.700456 17550 net.cpp:434] L2_b4_cbr2_scale <- L2_b4_cbr2_bn_top
I0817 16:02:51.700476 17550 net.cpp:395] L2_b4_cbr2_scale -> L2_b4_cbr2_bn_top (in-place)
I0817 16:02:51.700562 17550 layer_factory.hpp:77] Creating layer L2_b4_cbr2_scale
I0817 16:02:51.700759 17550 net.cpp:150] Setting up L2_b4_cbr2_scale
I0817 16:02:51.700778 17550 net.cpp:157] Top shape: 125 32 16 16 (1024000)
I0817 16:02:51.700788 17550 net.cpp:165] Memory required for data: 1015297500
I0817 16:02:51.700806 17550 layer_factory.hpp:77] Creating layer L2_b4_sum_eltwise
I0817 16:02:51.700824 17550 net.cpp:100] Creating Layer L2_b4_sum_eltwise
I0817 16:02:51.700834 17550 net.cpp:434] L2_b4_sum_eltwise <- L2_b4_cbr2_bn_top
I0817 16:02:51.700847 17550 net.cpp:434] L2_b4_sum_eltwise <- L2_b3_sum_eltwise_top_L2_b3_relu_0_split_1
I0817 16:02:51.700868 17550 net.cpp:408] L2_b4_sum_eltwise -> L2_b4_sum_eltwise_top
I0817 16:02:51.700915 17550 net.cpp:150] Setting up L2_b4_sum_eltwise
I0817 16:02:51.700947 17550 net.cpp:157] Top shape: 125 32 16 16 (1024000)
I0817 16:02:51.700958 17550 net.cpp:165] Memory required for data: 1019393500
I0817 16:02:51.700968 17550 layer_factory.hpp:77] Creating layer L2_b4_relu
I0817 16:02:51.700981 17550 net.cpp:100] Creating Layer L2_b4_relu
I0817 16:02:51.700994 17550 net.cpp:434] L2_b4_relu <- L2_b4_sum_eltwise_top
I0817 16:02:51.701009 17550 net.cpp:395] L2_b4_relu -> L2_b4_sum_eltwise_top (in-place)
I0817 16:02:51.701025 17550 net.cpp:150] Setting up L2_b4_relu
I0817 16:02:51.701040 17550 net.cpp:157] Top shape: 125 32 16 16 (1024000)
I0817 16:02:51.701050 17550 net.cpp:165] Memory required for data: 1023489500
I0817 16:02:51.701063 17550 layer_factory.hpp:77] Creating layer L2_b4_sum_eltwise_top_L2_b4_relu_0_split
I0817 16:02:51.701083 17550 net.cpp:100] Creating Layer L2_b4_sum_eltwise_top_L2_b4_relu_0_split
I0817 16:02:51.701094 17550 net.cpp:434] L2_b4_sum_eltwise_top_L2_b4_relu_0_split <- L2_b4_sum_eltwise_top
I0817 16:02:51.701109 17550 net.cpp:408] L2_b4_sum_eltwise_top_L2_b4_relu_0_split -> L2_b4_sum_eltwise_top_L2_b4_relu_0_split_0
I0817 16:02:51.701129 17550 net.cpp:408] L2_b4_sum_eltwise_top_L2_b4_relu_0_split -> L2_b4_sum_eltwise_top_L2_b4_relu_0_split_1
I0817 16:02:51.701216 17550 net.cpp:150] Setting up L2_b4_sum_eltwise_top_L2_b4_relu_0_split
I0817 16:02:51.701242 17550 net.cpp:157] Top shape: 125 32 16 16 (1024000)
I0817 16:02:51.701257 17550 net.cpp:157] Top shape: 125 32 16 16 (1024000)
I0817 16:02:51.701267 17550 net.cpp:165] Memory required for data: 1031681500
I0817 16:02:51.701277 17550 layer_factory.hpp:77] Creating layer L2_b5_cbr1_conv
I0817 16:02:51.701297 17550 net.cpp:100] Creating Layer L2_b5_cbr1_conv
I0817 16:02:51.701309 17550 net.cpp:434] L2_b5_cbr1_conv <- L2_b4_sum_eltwise_top_L2_b4_relu_0_split_0
I0817 16:02:51.701328 17550 net.cpp:408] L2_b5_cbr1_conv -> L2_b5_cbr1_conv_top
I0817 16:02:51.701845 17550 net.cpp:150] Setting up L2_b5_cbr1_conv
I0817 16:02:51.701876 17550 net.cpp:157] Top shape: 125 32 16 16 (1024000)
I0817 16:02:51.701886 17550 net.cpp:165] Memory required for data: 1035777500
I0817 16:02:51.701905 17550 layer_factory.hpp:77] Creating layer L2_b5_cbr1_bn
I0817 16:02:51.701921 17550 net.cpp:100] Creating Layer L2_b5_cbr1_bn
I0817 16:02:51.701932 17550 net.cpp:434] L2_b5_cbr1_bn <- L2_b5_cbr1_conv_top
I0817 16:02:51.701954 17550 net.cpp:408] L2_b5_cbr1_bn -> L2_b5_cbr1_bn_top
I0817 16:02:51.702250 17550 net.cpp:150] Setting up L2_b5_cbr1_bn
I0817 16:02:51.702267 17550 net.cpp:157] Top shape: 125 32 16 16 (1024000)
I0817 16:02:51.702276 17550 net.cpp:165] Memory required for data: 1039873500
I0817 16:02:51.702297 17550 layer_factory.hpp:77] Creating layer L2_b5_cbr1_scale
I0817 16:02:51.702318 17550 net.cpp:100] Creating Layer L2_b5_cbr1_scale
I0817 16:02:51.702332 17550 net.cpp:434] L2_b5_cbr1_scale <- L2_b5_cbr1_bn_top
I0817 16:02:51.702347 17550 net.cpp:395] L2_b5_cbr1_scale -> L2_b5_cbr1_bn_top (in-place)
I0817 16:02:51.702428 17550 layer_factory.hpp:77] Creating layer L2_b5_cbr1_scale
I0817 16:02:51.702622 17550 net.cpp:150] Setting up L2_b5_cbr1_scale
I0817 16:02:51.702641 17550 net.cpp:157] Top shape: 125 32 16 16 (1024000)
I0817 16:02:51.702649 17550 net.cpp:165] Memory required for data: 1043969500
I0817 16:02:51.702667 17550 layer_factory.hpp:77] Creating layer L2_b5_cbr1_relu
I0817 16:02:51.702682 17550 net.cpp:100] Creating Layer L2_b5_cbr1_relu
I0817 16:02:51.702693 17550 net.cpp:434] L2_b5_cbr1_relu <- L2_b5_cbr1_bn_top
I0817 16:02:51.702713 17550 net.cpp:395] L2_b5_cbr1_relu -> L2_b5_cbr1_bn_top (in-place)
I0817 16:02:51.702733 17550 net.cpp:150] Setting up L2_b5_cbr1_relu
I0817 16:02:51.702747 17550 net.cpp:157] Top shape: 125 32 16 16 (1024000)
I0817 16:02:51.702759 17550 net.cpp:165] Memory required for data: 1048065500
I0817 16:02:51.702769 17550 layer_factory.hpp:77] Creating layer L2_b5_cbr2_conv
I0817 16:02:51.702793 17550 net.cpp:100] Creating Layer L2_b5_cbr2_conv
I0817 16:02:51.702806 17550 net.cpp:434] L2_b5_cbr2_conv <- L2_b5_cbr1_bn_top
I0817 16:02:51.702822 17550 net.cpp:408] L2_b5_cbr2_conv -> L2_b5_cbr2_conv_top
I0817 16:02:51.703342 17550 net.cpp:150] Setting up L2_b5_cbr2_conv
I0817 16:02:51.703362 17550 net.cpp:157] Top shape: 125 32 16 16 (1024000)
I0817 16:02:51.703372 17550 net.cpp:165] Memory required for data: 1052161500
I0817 16:02:51.703388 17550 layer_factory.hpp:77] Creating layer L2_b5_cbr2_bn
I0817 16:02:51.703410 17550 net.cpp:100] Creating Layer L2_b5_cbr2_bn
I0817 16:02:51.703423 17550 net.cpp:434] L2_b5_cbr2_bn <- L2_b5_cbr2_conv_top
I0817 16:02:51.703440 17550 net.cpp:408] L2_b5_cbr2_bn -> L2_b5_cbr2_bn_top
I0817 16:02:51.703723 17550 net.cpp:150] Setting up L2_b5_cbr2_bn
I0817 16:02:51.703742 17550 net.cpp:157] Top shape: 125 32 16 16 (1024000)
I0817 16:02:51.703752 17550 net.cpp:165] Memory required for data: 1056257500
I0817 16:02:51.703773 17550 layer_factory.hpp:77] Creating layer L2_b5_cbr2_scale
I0817 16:02:51.703789 17550 net.cpp:100] Creating Layer L2_b5_cbr2_scale
I0817 16:02:51.703801 17550 net.cpp:434] L2_b5_cbr2_scale <- L2_b5_cbr2_bn_top
I0817 16:02:51.703821 17550 net.cpp:395] L2_b5_cbr2_scale -> L2_b5_cbr2_bn_top (in-place)
I0817 16:02:51.703909 17550 layer_factory.hpp:77] Creating layer L2_b5_cbr2_scale
I0817 16:02:51.704097 17550 net.cpp:150] Setting up L2_b5_cbr2_scale
I0817 16:02:51.704115 17550 net.cpp:157] Top shape: 125 32 16 16 (1024000)
I0817 16:02:51.704125 17550 net.cpp:165] Memory required for data: 1060353500
I0817 16:02:51.704144 17550 layer_factory.hpp:77] Creating layer L2_b5_sum_eltwise
I0817 16:02:51.704169 17550 net.cpp:100] Creating Layer L2_b5_sum_eltwise
I0817 16:02:51.704181 17550 net.cpp:434] L2_b5_sum_eltwise <- L2_b5_cbr2_bn_top
I0817 16:02:51.704195 17550 net.cpp:434] L2_b5_sum_eltwise <- L2_b4_sum_eltwise_top_L2_b4_relu_0_split_1
I0817 16:02:51.704216 17550 net.cpp:408] L2_b5_sum_eltwise -> L2_b5_sum_eltwise_top
I0817 16:02:51.704264 17550 net.cpp:150] Setting up L2_b5_sum_eltwise
I0817 16:02:51.704282 17550 net.cpp:157] Top shape: 125 32 16 16 (1024000)
I0817 16:02:51.704301 17550 net.cpp:165] Memory required for data: 1064449500
I0817 16:02:51.704313 17550 layer_factory.hpp:77] Creating layer L2_b5_relu
I0817 16:02:51.704332 17550 net.cpp:100] Creating Layer L2_b5_relu
I0817 16:02:51.704345 17550 net.cpp:434] L2_b5_relu <- L2_b5_sum_eltwise_top
I0817 16:02:51.704360 17550 net.cpp:395] L2_b5_relu -> L2_b5_sum_eltwise_top (in-place)
I0817 16:02:51.704378 17550 net.cpp:150] Setting up L2_b5_relu
I0817 16:02:51.704393 17550 net.cpp:157] Top shape: 125 32 16 16 (1024000)
I0817 16:02:51.704402 17550 net.cpp:165] Memory required for data: 1068545500
I0817 16:02:51.704412 17550 layer_factory.hpp:77] Creating layer L2_b5_sum_eltwise_top_L2_b5_relu_0_split
I0817 16:02:51.704432 17550 net.cpp:100] Creating Layer L2_b5_sum_eltwise_top_L2_b5_relu_0_split
I0817 16:02:51.704443 17550 net.cpp:434] L2_b5_sum_eltwise_top_L2_b5_relu_0_split <- L2_b5_sum_eltwise_top
I0817 16:02:51.704458 17550 net.cpp:408] L2_b5_sum_eltwise_top_L2_b5_relu_0_split -> L2_b5_sum_eltwise_top_L2_b5_relu_0_split_0
I0817 16:02:51.704478 17550 net.cpp:408] L2_b5_sum_eltwise_top_L2_b5_relu_0_split -> L2_b5_sum_eltwise_top_L2_b5_relu_0_split_1
I0817 16:02:51.704558 17550 net.cpp:150] Setting up L2_b5_sum_eltwise_top_L2_b5_relu_0_split
I0817 16:02:51.704586 17550 net.cpp:157] Top shape: 125 32 16 16 (1024000)
I0817 16:02:51.704601 17550 net.cpp:157] Top shape: 125 32 16 16 (1024000)
I0817 16:02:51.704610 17550 net.cpp:165] Memory required for data: 1076737500
I0817 16:02:51.704619 17550 layer_factory.hpp:77] Creating layer L2_b6_cbr1_conv
I0817 16:02:51.704639 17550 net.cpp:100] Creating Layer L2_b6_cbr1_conv
I0817 16:02:51.704653 17550 net.cpp:434] L2_b6_cbr1_conv <- L2_b5_sum_eltwise_top_L2_b5_relu_0_split_0
I0817 16:02:51.704670 17550 net.cpp:408] L2_b6_cbr1_conv -> L2_b6_cbr1_conv_top
I0817 16:02:51.705193 17550 net.cpp:150] Setting up L2_b6_cbr1_conv
I0817 16:02:51.705214 17550 net.cpp:157] Top shape: 125 32 16 16 (1024000)
I0817 16:02:51.705224 17550 net.cpp:165] Memory required for data: 1080833500
I0817 16:02:51.705241 17550 layer_factory.hpp:77] Creating layer L2_b6_cbr1_bn
I0817 16:02:51.705263 17550 net.cpp:100] Creating Layer L2_b6_cbr1_bn
I0817 16:02:51.705276 17550 net.cpp:434] L2_b6_cbr1_bn <- L2_b6_cbr1_conv_top
I0817 16:02:51.705293 17550 net.cpp:408] L2_b6_cbr1_bn -> L2_b6_cbr1_bn_top
I0817 16:02:51.705580 17550 net.cpp:150] Setting up L2_b6_cbr1_bn
I0817 16:02:51.705600 17550 net.cpp:157] Top shape: 125 32 16 16 (1024000)
I0817 16:02:51.705610 17550 net.cpp:165] Memory required for data: 1084929500
I0817 16:02:51.705631 17550 layer_factory.hpp:77] Creating layer L2_b6_cbr1_scale
I0817 16:02:51.705648 17550 net.cpp:100] Creating Layer L2_b6_cbr1_scale
I0817 16:02:51.705660 17550 net.cpp:434] L2_b6_cbr1_scale <- L2_b6_cbr1_bn_top
I0817 16:02:51.705680 17550 net.cpp:395] L2_b6_cbr1_scale -> L2_b6_cbr1_bn_top (in-place)
I0817 16:02:51.705776 17550 layer_factory.hpp:77] Creating layer L2_b6_cbr1_scale
I0817 16:02:51.705960 17550 net.cpp:150] Setting up L2_b6_cbr1_scale
I0817 16:02:51.705978 17550 net.cpp:157] Top shape: 125 32 16 16 (1024000)
I0817 16:02:51.705988 17550 net.cpp:165] Memory required for data: 1089025500
I0817 16:02:51.706007 17550 layer_factory.hpp:77] Creating layer L2_b6_cbr1_relu
I0817 16:02:51.706022 17550 net.cpp:100] Creating Layer L2_b6_cbr1_relu
I0817 16:02:51.706032 17550 net.cpp:434] L2_b6_cbr1_relu <- L2_b6_cbr1_bn_top
I0817 16:02:51.706051 17550 net.cpp:395] L2_b6_cbr1_relu -> L2_b6_cbr1_bn_top (in-place)
I0817 16:02:51.706073 17550 net.cpp:150] Setting up L2_b6_cbr1_relu
I0817 16:02:51.706086 17550 net.cpp:157] Top shape: 125 32 16 16 (1024000)
I0817 16:02:51.706095 17550 net.cpp:165] Memory required for data: 1093121500
I0817 16:02:51.706104 17550 layer_factory.hpp:77] Creating layer L2_b6_cbr2_conv
I0817 16:02:51.706128 17550 net.cpp:100] Creating Layer L2_b6_cbr2_conv
I0817 16:02:51.706142 17550 net.cpp:434] L2_b6_cbr2_conv <- L2_b6_cbr1_bn_top
I0817 16:02:51.706167 17550 net.cpp:408] L2_b6_cbr2_conv -> L2_b6_cbr2_conv_top
I0817 16:02:51.706684 17550 net.cpp:150] Setting up L2_b6_cbr2_conv
I0817 16:02:51.706712 17550 net.cpp:157] Top shape: 125 32 16 16 (1024000)
I0817 16:02:51.706722 17550 net.cpp:165] Memory required for data: 1097217500
I0817 16:02:51.706739 17550 layer_factory.hpp:77] Creating layer L2_b6_cbr2_bn
I0817 16:02:51.706761 17550 net.cpp:100] Creating Layer L2_b6_cbr2_bn
I0817 16:02:51.706774 17550 net.cpp:434] L2_b6_cbr2_bn <- L2_b6_cbr2_conv_top
I0817 16:02:51.706791 17550 net.cpp:408] L2_b6_cbr2_bn -> L2_b6_cbr2_bn_top
I0817 16:02:51.707070 17550 net.cpp:150] Setting up L2_b6_cbr2_bn
I0817 16:02:51.707089 17550 net.cpp:157] Top shape: 125 32 16 16 (1024000)
I0817 16:02:51.707098 17550 net.cpp:165] Memory required for data: 1101313500
I0817 16:02:51.707120 17550 layer_factory.hpp:77] Creating layer L2_b6_cbr2_scale
I0817 16:02:51.707137 17550 net.cpp:100] Creating Layer L2_b6_cbr2_scale
I0817 16:02:51.707155 17550 net.cpp:434] L2_b6_cbr2_scale <- L2_b6_cbr2_bn_top
I0817 16:02:51.707178 17550 net.cpp:395] L2_b6_cbr2_scale -> L2_b6_cbr2_bn_top (in-place)
I0817 16:02:51.707274 17550 layer_factory.hpp:77] Creating layer L2_b6_cbr2_scale
I0817 16:02:51.707458 17550 net.cpp:150] Setting up L2_b6_cbr2_scale
I0817 16:02:51.707478 17550 net.cpp:157] Top shape: 125 32 16 16 (1024000)
I0817 16:02:51.707486 17550 net.cpp:165] Memory required for data: 1105409500
I0817 16:02:51.707505 17550 layer_factory.hpp:77] Creating layer L2_b6_sum_eltwise
I0817 16:02:51.707521 17550 net.cpp:100] Creating Layer L2_b6_sum_eltwise
I0817 16:02:51.707532 17550 net.cpp:434] L2_b6_sum_eltwise <- L2_b6_cbr2_bn_top
I0817 16:02:51.707545 17550 net.cpp:434] L2_b6_sum_eltwise <- L2_b5_sum_eltwise_top_L2_b5_relu_0_split_1
I0817 16:02:51.707566 17550 net.cpp:408] L2_b6_sum_eltwise -> L2_b6_sum_eltwise_top
I0817 16:02:51.707613 17550 net.cpp:150] Setting up L2_b6_sum_eltwise
I0817 16:02:51.707630 17550 net.cpp:157] Top shape: 125 32 16 16 (1024000)
I0817 16:02:51.707640 17550 net.cpp:165] Memory required for data: 1109505500
I0817 16:02:51.707651 17550 layer_factory.hpp:77] Creating layer L2_b6_relu
I0817 16:02:51.707670 17550 net.cpp:100] Creating Layer L2_b6_relu
I0817 16:02:51.707684 17550 net.cpp:434] L2_b6_relu <- L2_b6_sum_eltwise_top
I0817 16:02:51.707698 17550 net.cpp:395] L2_b6_relu -> L2_b6_sum_eltwise_top (in-place)
I0817 16:02:51.707717 17550 net.cpp:150] Setting up L2_b6_relu
I0817 16:02:51.707732 17550 net.cpp:157] Top shape: 125 32 16 16 (1024000)
I0817 16:02:51.707741 17550 net.cpp:165] Memory required for data: 1113601500
I0817 16:02:51.707751 17550 layer_factory.hpp:77] Creating layer L2_b6_sum_eltwise_top_L2_b6_relu_0_split
I0817 16:02:51.707765 17550 net.cpp:100] Creating Layer L2_b6_sum_eltwise_top_L2_b6_relu_0_split
I0817 16:02:51.707777 17550 net.cpp:434] L2_b6_sum_eltwise_top_L2_b6_relu_0_split <- L2_b6_sum_eltwise_top
I0817 16:02:51.707797 17550 net.cpp:408] L2_b6_sum_eltwise_top_L2_b6_relu_0_split -> L2_b6_sum_eltwise_top_L2_b6_relu_0_split_0
I0817 16:02:51.707818 17550 net.cpp:408] L2_b6_sum_eltwise_top_L2_b6_relu_0_split -> L2_b6_sum_eltwise_top_L2_b6_relu_0_split_1
I0817 16:02:51.707896 17550 net.cpp:150] Setting up L2_b6_sum_eltwise_top_L2_b6_relu_0_split
I0817 16:02:51.707916 17550 net.cpp:157] Top shape: 125 32 16 16 (1024000)
I0817 16:02:51.707931 17550 net.cpp:157] Top shape: 125 32 16 16 (1024000)
I0817 16:02:51.707940 17550 net.cpp:165] Memory required for data: 1121793500
I0817 16:02:51.707950 17550 layer_factory.hpp:77] Creating layer L2_b7_cbr1_conv
I0817 16:02:51.707974 17550 net.cpp:100] Creating Layer L2_b7_cbr1_conv
I0817 16:02:51.707988 17550 net.cpp:434] L2_b7_cbr1_conv <- L2_b6_sum_eltwise_top_L2_b6_relu_0_split_0
I0817 16:02:51.708006 17550 net.cpp:408] L2_b7_cbr1_conv -> L2_b7_cbr1_conv_top
I0817 16:02:51.708528 17550 net.cpp:150] Setting up L2_b7_cbr1_conv
I0817 16:02:51.708547 17550 net.cpp:157] Top shape: 125 32 16 16 (1024000)
I0817 16:02:51.708556 17550 net.cpp:165] Memory required for data: 1125889500
I0817 16:02:51.708575 17550 layer_factory.hpp:77] Creating layer L2_b7_cbr1_bn
I0817 16:02:51.708596 17550 net.cpp:100] Creating Layer L2_b7_cbr1_bn
I0817 16:02:51.708608 17550 net.cpp:434] L2_b7_cbr1_bn <- L2_b7_cbr1_conv_top
I0817 16:02:51.708634 17550 net.cpp:408] L2_b7_cbr1_bn -> L2_b7_cbr1_bn_top
I0817 16:02:51.708933 17550 net.cpp:150] Setting up L2_b7_cbr1_bn
I0817 16:02:51.708952 17550 net.cpp:157] Top shape: 125 32 16 16 (1024000)
I0817 16:02:51.708962 17550 net.cpp:165] Memory required for data: 1129985500
I0817 16:02:51.708984 17550 layer_factory.hpp:77] Creating layer L2_b7_cbr1_scale
I0817 16:02:51.709000 17550 net.cpp:100] Creating Layer L2_b7_cbr1_scale
I0817 16:02:51.709012 17550 net.cpp:434] L2_b7_cbr1_scale <- L2_b7_cbr1_bn_top
I0817 16:02:51.709033 17550 net.cpp:395] L2_b7_cbr1_scale -> L2_b7_cbr1_bn_top (in-place)
I0817 16:02:51.709121 17550 layer_factory.hpp:77] Creating layer L2_b7_cbr1_scale
I0817 16:02:51.709316 17550 net.cpp:150] Setting up L2_b7_cbr1_scale
I0817 16:02:51.709336 17550 net.cpp:157] Top shape: 125 32 16 16 (1024000)
I0817 16:02:51.709344 17550 net.cpp:165] Memory required for data: 1134081500
I0817 16:02:51.709363 17550 layer_factory.hpp:77] Creating layer L2_b7_cbr1_relu
I0817 16:02:51.709378 17550 net.cpp:100] Creating Layer L2_b7_cbr1_relu
I0817 16:02:51.709389 17550 net.cpp:434] L2_b7_cbr1_relu <- L2_b7_cbr1_bn_top
I0817 16:02:51.709411 17550 net.cpp:395] L2_b7_cbr1_relu -> L2_b7_cbr1_bn_top (in-place)
I0817 16:02:51.709431 17550 net.cpp:150] Setting up L2_b7_cbr1_relu
I0817 16:02:51.709447 17550 net.cpp:157] Top shape: 125 32 16 16 (1024000)
I0817 16:02:51.709457 17550 net.cpp:165] Memory required for data: 1138177500
I0817 16:02:51.709466 17550 layer_factory.hpp:77] Creating layer L2_b7_cbr2_conv
I0817 16:02:51.709492 17550 net.cpp:100] Creating Layer L2_b7_cbr2_conv
I0817 16:02:51.709506 17550 net.cpp:434] L2_b7_cbr2_conv <- L2_b7_cbr1_bn_top
I0817 16:02:51.709522 17550 net.cpp:408] L2_b7_cbr2_conv -> L2_b7_cbr2_conv_top
I0817 16:02:51.710029 17550 net.cpp:150] Setting up L2_b7_cbr2_conv
I0817 16:02:51.710052 17550 net.cpp:157] Top shape: 125 32 16 16 (1024000)
I0817 16:02:51.710062 17550 net.cpp:165] Memory required for data: 1142273500
I0817 16:02:51.710079 17550 layer_factory.hpp:77] Creating layer L2_b7_cbr2_bn
I0817 16:02:51.710101 17550 net.cpp:100] Creating Layer L2_b7_cbr2_bn
I0817 16:02:51.710114 17550 net.cpp:434] L2_b7_cbr2_bn <- L2_b7_cbr2_conv_top
I0817 16:02:51.710130 17550 net.cpp:408] L2_b7_cbr2_bn -> L2_b7_cbr2_bn_top
I0817 16:02:51.710415 17550 net.cpp:150] Setting up L2_b7_cbr2_bn
I0817 16:02:51.710434 17550 net.cpp:157] Top shape: 125 32 16 16 (1024000)
I0817 16:02:51.710444 17550 net.cpp:165] Memory required for data: 1146369500
I0817 16:02:51.710464 17550 layer_factory.hpp:77] Creating layer L2_b7_cbr2_scale
I0817 16:02:51.710480 17550 net.cpp:100] Creating Layer L2_b7_cbr2_scale
I0817 16:02:51.710492 17550 net.cpp:434] L2_b7_cbr2_scale <- L2_b7_cbr2_bn_top
I0817 16:02:51.710508 17550 net.cpp:395] L2_b7_cbr2_scale -> L2_b7_cbr2_bn_top (in-place)
I0817 16:02:51.710602 17550 layer_factory.hpp:77] Creating layer L2_b7_cbr2_scale
I0817 16:02:51.710788 17550 net.cpp:150] Setting up L2_b7_cbr2_scale
I0817 16:02:51.710811 17550 net.cpp:157] Top shape: 125 32 16 16 (1024000)
I0817 16:02:51.710821 17550 net.cpp:165] Memory required for data: 1150465500
I0817 16:02:51.710840 17550 layer_factory.hpp:77] Creating layer L2_b7_sum_eltwise
I0817 16:02:51.710857 17550 net.cpp:100] Creating Layer L2_b7_sum_eltwise
I0817 16:02:51.710868 17550 net.cpp:434] L2_b7_sum_eltwise <- L2_b7_cbr2_bn_top
I0817 16:02:51.710883 17550 net.cpp:434] L2_b7_sum_eltwise <- L2_b6_sum_eltwise_top_L2_b6_relu_0_split_1
I0817 16:02:51.710899 17550 net.cpp:408] L2_b7_sum_eltwise -> L2_b7_sum_eltwise_top
I0817 16:02:51.710950 17550 net.cpp:150] Setting up L2_b7_sum_eltwise
I0817 16:02:51.710968 17550 net.cpp:157] Top shape: 125 32 16 16 (1024000)
I0817 16:02:51.710979 17550 net.cpp:165] Memory required for data: 1154561500
I0817 16:02:51.710989 17550 layer_factory.hpp:77] Creating layer L2_b7_relu
I0817 16:02:51.711004 17550 net.cpp:100] Creating Layer L2_b7_relu
I0817 16:02:51.711014 17550 net.cpp:434] L2_b7_relu <- L2_b7_sum_eltwise_top
I0817 16:02:51.711033 17550 net.cpp:395] L2_b7_relu -> L2_b7_sum_eltwise_top (in-place)
I0817 16:02:51.711061 17550 net.cpp:150] Setting up L2_b7_relu
I0817 16:02:51.711078 17550 net.cpp:157] Top shape: 125 32 16 16 (1024000)
I0817 16:02:51.711088 17550 net.cpp:165] Memory required for data: 1158657500
I0817 16:02:51.711097 17550 layer_factory.hpp:77] Creating layer L2_b7_sum_eltwise_top_L2_b7_relu_0_split
I0817 16:02:51.711112 17550 net.cpp:100] Creating Layer L2_b7_sum_eltwise_top_L2_b7_relu_0_split
I0817 16:02:51.711123 17550 net.cpp:434] L2_b7_sum_eltwise_top_L2_b7_relu_0_split <- L2_b7_sum_eltwise_top
I0817 16:02:51.711144 17550 net.cpp:408] L2_b7_sum_eltwise_top_L2_b7_relu_0_split -> L2_b7_sum_eltwise_top_L2_b7_relu_0_split_0
I0817 16:02:51.711174 17550 net.cpp:408] L2_b7_sum_eltwise_top_L2_b7_relu_0_split -> L2_b7_sum_eltwise_top_L2_b7_relu_0_split_1
I0817 16:02:51.711251 17550 net.cpp:150] Setting up L2_b7_sum_eltwise_top_L2_b7_relu_0_split
I0817 16:02:51.711269 17550 net.cpp:157] Top shape: 125 32 16 16 (1024000)
I0817 16:02:51.711282 17550 net.cpp:157] Top shape: 125 32 16 16 (1024000)
I0817 16:02:51.711292 17550 net.cpp:165] Memory required for data: 1166849500
I0817 16:02:51.711302 17550 layer_factory.hpp:77] Creating layer L2_b8_cbr1_conv
I0817 16:02:51.711328 17550 net.cpp:100] Creating Layer L2_b8_cbr1_conv
I0817 16:02:51.711340 17550 net.cpp:434] L2_b8_cbr1_conv <- L2_b7_sum_eltwise_top_L2_b7_relu_0_split_0
I0817 16:02:51.711359 17550 net.cpp:408] L2_b8_cbr1_conv -> L2_b8_cbr1_conv_top
I0817 16:02:51.711885 17550 net.cpp:150] Setting up L2_b8_cbr1_conv
I0817 16:02:51.711905 17550 net.cpp:157] Top shape: 125 32 16 16 (1024000)
I0817 16:02:51.711915 17550 net.cpp:165] Memory required for data: 1170945500
I0817 16:02:51.711932 17550 layer_factory.hpp:77] Creating layer L2_b8_cbr1_bn
I0817 16:02:51.711953 17550 net.cpp:100] Creating Layer L2_b8_cbr1_bn
I0817 16:02:51.711966 17550 net.cpp:434] L2_b8_cbr1_bn <- L2_b8_cbr1_conv_top
I0817 16:02:51.711983 17550 net.cpp:408] L2_b8_cbr1_bn -> L2_b8_cbr1_bn_top
I0817 16:02:51.712287 17550 net.cpp:150] Setting up L2_b8_cbr1_bn
I0817 16:02:51.712306 17550 net.cpp:157] Top shape: 125 32 16 16 (1024000)
I0817 16:02:51.712316 17550 net.cpp:165] Memory required for data: 1175041500
I0817 16:02:51.712337 17550 layer_factory.hpp:77] Creating layer L2_b8_cbr1_scale
I0817 16:02:51.712354 17550 net.cpp:100] Creating Layer L2_b8_cbr1_scale
I0817 16:02:51.712365 17550 net.cpp:434] L2_b8_cbr1_scale <- L2_b8_cbr1_bn_top
I0817 16:02:51.712385 17550 net.cpp:395] L2_b8_cbr1_scale -> L2_b8_cbr1_bn_top (in-place)
I0817 16:02:51.712476 17550 layer_factory.hpp:77] Creating layer L2_b8_cbr1_scale
I0817 16:02:51.712664 17550 net.cpp:150] Setting up L2_b8_cbr1_scale
I0817 16:02:51.712683 17550 net.cpp:157] Top shape: 125 32 16 16 (1024000)
I0817 16:02:51.712693 17550 net.cpp:165] Memory required for data: 1179137500
I0817 16:02:51.712712 17550 layer_factory.hpp:77] Creating layer L2_b8_cbr1_relu
I0817 16:02:51.712726 17550 net.cpp:100] Creating Layer L2_b8_cbr1_relu
I0817 16:02:51.712738 17550 net.cpp:434] L2_b8_cbr1_relu <- L2_b8_cbr1_bn_top
I0817 16:02:51.712751 17550 net.cpp:395] L2_b8_cbr1_relu -> L2_b8_cbr1_bn_top (in-place)
I0817 16:02:51.712771 17550 net.cpp:150] Setting up L2_b8_cbr1_relu
I0817 16:02:51.712785 17550 net.cpp:157] Top shape: 125 32 16 16 (1024000)
I0817 16:02:51.712795 17550 net.cpp:165] Memory required for data: 1183233500
I0817 16:02:51.712805 17550 layer_factory.hpp:77] Creating layer L2_b8_cbr2_conv
I0817 16:02:51.712831 17550 net.cpp:100] Creating Layer L2_b8_cbr2_conv
I0817 16:02:51.712843 17550 net.cpp:434] L2_b8_cbr2_conv <- L2_b8_cbr1_bn_top
I0817 16:02:51.712865 17550 net.cpp:408] L2_b8_cbr2_conv -> L2_b8_cbr2_conv_top
I0817 16:02:51.713475 17550 net.cpp:150] Setting up L2_b8_cbr2_conv
I0817 16:02:51.713500 17550 net.cpp:157] Top shape: 125 32 16 16 (1024000)
I0817 16:02:51.713505 17550 net.cpp:165] Memory required for data: 1187329500
I0817 16:02:51.713516 17550 layer_factory.hpp:77] Creating layer L2_b8_cbr2_bn
I0817 16:02:51.713532 17550 net.cpp:100] Creating Layer L2_b8_cbr2_bn
I0817 16:02:51.713548 17550 net.cpp:434] L2_b8_cbr2_bn <- L2_b8_cbr2_conv_top
I0817 16:02:51.713562 17550 net.cpp:408] L2_b8_cbr2_bn -> L2_b8_cbr2_bn_top
I0817 16:02:51.713824 17550 net.cpp:150] Setting up L2_b8_cbr2_bn
I0817 16:02:51.713838 17550 net.cpp:157] Top shape: 125 32 16 16 (1024000)
I0817 16:02:51.713843 17550 net.cpp:165] Memory required for data: 1191425500
I0817 16:02:51.713855 17550 layer_factory.hpp:77] Creating layer L2_b8_cbr2_scale
I0817 16:02:51.713863 17550 net.cpp:100] Creating Layer L2_b8_cbr2_scale
I0817 16:02:51.713871 17550 net.cpp:434] L2_b8_cbr2_scale <- L2_b8_cbr2_bn_top
I0817 16:02:51.713878 17550 net.cpp:395] L2_b8_cbr2_scale -> L2_b8_cbr2_bn_top (in-place)
I0817 16:02:51.713954 17550 layer_factory.hpp:77] Creating layer L2_b8_cbr2_scale
I0817 16:02:51.714110 17550 net.cpp:150] Setting up L2_b8_cbr2_scale
I0817 16:02:51.714126 17550 net.cpp:157] Top shape: 125 32 16 16 (1024000)
I0817 16:02:51.714133 17550 net.cpp:165] Memory required for data: 1195521500
I0817 16:02:51.714141 17550 layer_factory.hpp:77] Creating layer L2_b8_sum_eltwise
I0817 16:02:51.714150 17550 net.cpp:100] Creating Layer L2_b8_sum_eltwise
I0817 16:02:51.714156 17550 net.cpp:434] L2_b8_sum_eltwise <- L2_b8_cbr2_bn_top
I0817 16:02:51.714164 17550 net.cpp:434] L2_b8_sum_eltwise <- L2_b7_sum_eltwise_top_L2_b7_relu_0_split_1
I0817 16:02:51.714171 17550 net.cpp:408] L2_b8_sum_eltwise -> L2_b8_sum_eltwise_top
I0817 16:02:51.714203 17550 net.cpp:150] Setting up L2_b8_sum_eltwise
I0817 16:02:51.714215 17550 net.cpp:157] Top shape: 125 32 16 16 (1024000)
I0817 16:02:51.714220 17550 net.cpp:165] Memory required for data: 1199617500
I0817 16:02:51.714224 17550 layer_factory.hpp:77] Creating layer L2_b8_relu
I0817 16:02:51.714232 17550 net.cpp:100] Creating Layer L2_b8_relu
I0817 16:02:51.714238 17550 net.cpp:434] L2_b8_relu <- L2_b8_sum_eltwise_top
I0817 16:02:51.714248 17550 net.cpp:395] L2_b8_relu -> L2_b8_sum_eltwise_top (in-place)
I0817 16:02:51.714258 17550 net.cpp:150] Setting up L2_b8_relu
I0817 16:02:51.714265 17550 net.cpp:157] Top shape: 125 32 16 16 (1024000)
I0817 16:02:51.714270 17550 net.cpp:165] Memory required for data: 1203713500
I0817 16:02:51.714274 17550 layer_factory.hpp:77] Creating layer L2_b8_sum_eltwise_top_L2_b8_relu_0_split
I0817 16:02:51.714282 17550 net.cpp:100] Creating Layer L2_b8_sum_eltwise_top_L2_b8_relu_0_split
I0817 16:02:51.714287 17550 net.cpp:434] L2_b8_sum_eltwise_top_L2_b8_relu_0_split <- L2_b8_sum_eltwise_top
I0817 16:02:51.714298 17550 net.cpp:408] L2_b8_sum_eltwise_top_L2_b8_relu_0_split -> L2_b8_sum_eltwise_top_L2_b8_relu_0_split_0
I0817 16:02:51.714323 17550 net.cpp:408] L2_b8_sum_eltwise_top_L2_b8_relu_0_split -> L2_b8_sum_eltwise_top_L2_b8_relu_0_split_1
I0817 16:02:51.714370 17550 net.cpp:150] Setting up L2_b8_sum_eltwise_top_L2_b8_relu_0_split
I0817 16:02:51.714383 17550 net.cpp:157] Top shape: 125 32 16 16 (1024000)
I0817 16:02:51.714390 17550 net.cpp:157] Top shape: 125 32 16 16 (1024000)
I0817 16:02:51.714395 17550 net.cpp:165] Memory required for data: 1211905500
I0817 16:02:51.714399 17550 layer_factory.hpp:77] Creating layer L2_b9_cbr1_conv
I0817 16:02:51.714414 17550 net.cpp:100] Creating Layer L2_b9_cbr1_conv
I0817 16:02:51.714421 17550 net.cpp:434] L2_b9_cbr1_conv <- L2_b8_sum_eltwise_top_L2_b8_relu_0_split_0
I0817 16:02:51.714434 17550 net.cpp:408] L2_b9_cbr1_conv -> L2_b9_cbr1_conv_top
I0817 16:02:51.714910 17550 net.cpp:150] Setting up L2_b9_cbr1_conv
I0817 16:02:51.714923 17550 net.cpp:157] Top shape: 125 32 16 16 (1024000)
I0817 16:02:51.714929 17550 net.cpp:165] Memory required for data: 1216001500
I0817 16:02:51.714943 17550 layer_factory.hpp:77] Creating layer L2_b9_cbr1_bn
I0817 16:02:51.714956 17550 net.cpp:100] Creating Layer L2_b9_cbr1_bn
I0817 16:02:51.714962 17550 net.cpp:434] L2_b9_cbr1_bn <- L2_b9_cbr1_conv_top
I0817 16:02:51.714973 17550 net.cpp:408] L2_b9_cbr1_bn -> L2_b9_cbr1_bn_top
I0817 16:02:51.715226 17550 net.cpp:150] Setting up L2_b9_cbr1_bn
I0817 16:02:51.715240 17550 net.cpp:157] Top shape: 125 32 16 16 (1024000)
I0817 16:02:51.715245 17550 net.cpp:165] Memory required for data: 1220097500
I0817 16:02:51.715262 17550 layer_factory.hpp:77] Creating layer L2_b9_cbr1_scale
I0817 16:02:51.715272 17550 net.cpp:100] Creating Layer L2_b9_cbr1_scale
I0817 16:02:51.715278 17550 net.cpp:434] L2_b9_cbr1_scale <- L2_b9_cbr1_bn_top
I0817 16:02:51.715286 17550 net.cpp:395] L2_b9_cbr1_scale -> L2_b9_cbr1_bn_top (in-place)
I0817 16:02:51.715346 17550 layer_factory.hpp:77] Creating layer L2_b9_cbr1_scale
I0817 16:02:51.715498 17550 net.cpp:150] Setting up L2_b9_cbr1_scale
I0817 16:02:51.715512 17550 net.cpp:157] Top shape: 125 32 16 16 (1024000)
I0817 16:02:51.715515 17550 net.cpp:165] Memory required for data: 1224193500
I0817 16:02:51.715524 17550 layer_factory.hpp:77] Creating layer L2_b9_cbr1_relu
I0817 16:02:51.715535 17550 net.cpp:100] Creating Layer L2_b9_cbr1_relu
I0817 16:02:51.715543 17550 net.cpp:434] L2_b9_cbr1_relu <- L2_b9_cbr1_bn_top
I0817 16:02:51.715549 17550 net.cpp:395] L2_b9_cbr1_relu -> L2_b9_cbr1_bn_top (in-place)
I0817 16:02:51.715559 17550 net.cpp:150] Setting up L2_b9_cbr1_relu
I0817 16:02:51.715566 17550 net.cpp:157] Top shape: 125 32 16 16 (1024000)
I0817 16:02:51.715571 17550 net.cpp:165] Memory required for data: 1228289500
I0817 16:02:51.715576 17550 layer_factory.hpp:77] Creating layer L2_b9_cbr2_conv
I0817 16:02:51.715590 17550 net.cpp:100] Creating Layer L2_b9_cbr2_conv
I0817 16:02:51.715595 17550 net.cpp:434] L2_b9_cbr2_conv <- L2_b9_cbr1_bn_top
I0817 16:02:51.715606 17550 net.cpp:408] L2_b9_cbr2_conv -> L2_b9_cbr2_conv_top
I0817 16:02:51.716089 17550 net.cpp:150] Setting up L2_b9_cbr2_conv
I0817 16:02:51.716104 17550 net.cpp:157] Top shape: 125 32 16 16 (1024000)
I0817 16:02:51.716109 17550 net.cpp:165] Memory required for data: 1232385500
I0817 16:02:51.716117 17550 layer_factory.hpp:77] Creating layer L2_b9_cbr2_bn
I0817 16:02:51.716130 17550 net.cpp:100] Creating Layer L2_b9_cbr2_bn
I0817 16:02:51.716136 17550 net.cpp:434] L2_b9_cbr2_bn <- L2_b9_cbr2_conv_top
I0817 16:02:51.716147 17550 net.cpp:408] L2_b9_cbr2_bn -> L2_b9_cbr2_bn_top
I0817 16:02:51.716399 17550 net.cpp:150] Setting up L2_b9_cbr2_bn
I0817 16:02:51.716415 17550 net.cpp:157] Top shape: 125 32 16 16 (1024000)
I0817 16:02:51.716420 17550 net.cpp:165] Memory required for data: 1236481500
I0817 16:02:51.716464 17550 layer_factory.hpp:77] Creating layer L2_b9_cbr2_scale
I0817 16:02:51.716480 17550 net.cpp:100] Creating Layer L2_b9_cbr2_scale
I0817 16:02:51.716486 17550 net.cpp:434] L2_b9_cbr2_scale <- L2_b9_cbr2_bn_top
I0817 16:02:51.716495 17550 net.cpp:395] L2_b9_cbr2_scale -> L2_b9_cbr2_bn_top (in-place)
I0817 16:02:51.716552 17550 layer_factory.hpp:77] Creating layer L2_b9_cbr2_scale
I0817 16:02:51.716699 17550 net.cpp:150] Setting up L2_b9_cbr2_scale
I0817 16:02:51.716712 17550 net.cpp:157] Top shape: 125 32 16 16 (1024000)
I0817 16:02:51.716717 17550 net.cpp:165] Memory required for data: 1240577500
I0817 16:02:51.716727 17550 layer_factory.hpp:77] Creating layer L2_b9_sum_eltwise
I0817 16:02:51.716735 17550 net.cpp:100] Creating Layer L2_b9_sum_eltwise
I0817 16:02:51.716742 17550 net.cpp:434] L2_b9_sum_eltwise <- L2_b9_cbr2_bn_top
I0817 16:02:51.716748 17550 net.cpp:434] L2_b9_sum_eltwise <- L2_b8_sum_eltwise_top_L2_b8_relu_0_split_1
I0817 16:02:51.716759 17550 net.cpp:408] L2_b9_sum_eltwise -> L2_b9_sum_eltwise_top
I0817 16:02:51.716787 17550 net.cpp:150] Setting up L2_b9_sum_eltwise
I0817 16:02:51.716800 17550 net.cpp:157] Top shape: 125 32 16 16 (1024000)
I0817 16:02:51.716805 17550 net.cpp:165] Memory required for data: 1244673500
I0817 16:02:51.716810 17550 layer_factory.hpp:77] Creating layer L2_b9_relu
I0817 16:02:51.716819 17550 net.cpp:100] Creating Layer L2_b9_relu
I0817 16:02:51.716825 17550 net.cpp:434] L2_b9_relu <- L2_b9_sum_eltwise_top
I0817 16:02:51.716831 17550 net.cpp:395] L2_b9_relu -> L2_b9_sum_eltwise_top (in-place)
I0817 16:02:51.716840 17550 net.cpp:150] Setting up L2_b9_relu
I0817 16:02:51.716847 17550 net.cpp:157] Top shape: 125 32 16 16 (1024000)
I0817 16:02:51.716851 17550 net.cpp:165] Memory required for data: 1248769500
I0817 16:02:51.716856 17550 layer_factory.hpp:77] Creating layer L2_b9_sum_eltwise_top_L2_b9_relu_0_split
I0817 16:02:51.716873 17550 net.cpp:100] Creating Layer L2_b9_sum_eltwise_top_L2_b9_relu_0_split
I0817 16:02:51.716879 17550 net.cpp:434] L2_b9_sum_eltwise_top_L2_b9_relu_0_split <- L2_b9_sum_eltwise_top
I0817 16:02:51.716887 17550 net.cpp:408] L2_b9_sum_eltwise_top_L2_b9_relu_0_split -> L2_b9_sum_eltwise_top_L2_b9_relu_0_split_0
I0817 16:02:51.716897 17550 net.cpp:408] L2_b9_sum_eltwise_top_L2_b9_relu_0_split -> L2_b9_sum_eltwise_top_L2_b9_relu_0_split_1
I0817 16:02:51.716965 17550 net.cpp:150] Setting up L2_b9_sum_eltwise_top_L2_b9_relu_0_split
I0817 16:02:51.716979 17550 net.cpp:157] Top shape: 125 32 16 16 (1024000)
I0817 16:02:51.716984 17550 net.cpp:157] Top shape: 125 32 16 16 (1024000)
I0817 16:02:51.716989 17550 net.cpp:165] Memory required for data: 1256961500
I0817 16:02:51.716995 17550 layer_factory.hpp:77] Creating layer L3_b1_cbr1_conv
I0817 16:02:51.717006 17550 net.cpp:100] Creating Layer L3_b1_cbr1_conv
I0817 16:02:51.717012 17550 net.cpp:434] L3_b1_cbr1_conv <- L2_b9_sum_eltwise_top_L2_b9_relu_0_split_0
I0817 16:02:51.717025 17550 net.cpp:408] L3_b1_cbr1_conv -> L3_b1_cbr1_conv_top
I0817 16:02:51.717504 17550 net.cpp:150] Setting up L3_b1_cbr1_conv
I0817 16:02:51.717519 17550 net.cpp:157] Top shape: 125 32 8 8 (256000)
I0817 16:02:51.717523 17550 net.cpp:165] Memory required for data: 1257985500
I0817 16:02:51.717531 17550 layer_factory.hpp:77] Creating layer L3_b1_cbr1_bn
I0817 16:02:51.717540 17550 net.cpp:100] Creating Layer L3_b1_cbr1_bn
I0817 16:02:51.717547 17550 net.cpp:434] L3_b1_cbr1_bn <- L3_b1_cbr1_conv_top
I0817 16:02:51.717558 17550 net.cpp:408] L3_b1_cbr1_bn -> L3_b1_cbr1_bn_top
I0817 16:02:51.717828 17550 net.cpp:150] Setting up L3_b1_cbr1_bn
I0817 16:02:51.717844 17550 net.cpp:157] Top shape: 125 32 8 8 (256000)
I0817 16:02:51.717849 17550 net.cpp:165] Memory required for data: 1259009500
I0817 16:02:51.717859 17550 layer_factory.hpp:77] Creating layer L3_b1_cbr1_scale
I0817 16:02:51.717869 17550 net.cpp:100] Creating Layer L3_b1_cbr1_scale
I0817 16:02:51.717875 17550 net.cpp:434] L3_b1_cbr1_scale <- L3_b1_cbr1_bn_top
I0817 16:02:51.717882 17550 net.cpp:395] L3_b1_cbr1_scale -> L3_b1_cbr1_bn_top (in-place)
I0817 16:02:51.717945 17550 layer_factory.hpp:77] Creating layer L3_b1_cbr1_scale
I0817 16:02:51.718104 17550 net.cpp:150] Setting up L3_b1_cbr1_scale
I0817 16:02:51.718117 17550 net.cpp:157] Top shape: 125 32 8 8 (256000)
I0817 16:02:51.718122 17550 net.cpp:165] Memory required for data: 1260033500
I0817 16:02:51.718132 17550 layer_factory.hpp:77] Creating layer L3_b1_cbr1_relu
I0817 16:02:51.718139 17550 net.cpp:100] Creating Layer L3_b1_cbr1_relu
I0817 16:02:51.718145 17550 net.cpp:434] L3_b1_cbr1_relu <- L3_b1_cbr1_bn_top
I0817 16:02:51.718155 17550 net.cpp:395] L3_b1_cbr1_relu -> L3_b1_cbr1_bn_top (in-place)
I0817 16:02:51.718165 17550 net.cpp:150] Setting up L3_b1_cbr1_relu
I0817 16:02:51.718173 17550 net.cpp:157] Top shape: 125 32 8 8 (256000)
I0817 16:02:51.718176 17550 net.cpp:165] Memory required for data: 1261057500
I0817 16:02:51.718183 17550 layer_factory.hpp:77] Creating layer L3_b1_cbr2_conv
I0817 16:02:51.718196 17550 net.cpp:100] Creating Layer L3_b1_cbr2_conv
I0817 16:02:51.718202 17550 net.cpp:434] L3_b1_cbr2_conv <- L3_b1_cbr1_bn_top
I0817 16:02:51.718211 17550 net.cpp:408] L3_b1_cbr2_conv -> L3_b1_cbr2_conv_top
I0817 16:02:51.718684 17550 net.cpp:150] Setting up L3_b1_cbr2_conv
I0817 16:02:51.718698 17550 net.cpp:157] Top shape: 125 32 8 8 (256000)
I0817 16:02:51.718703 17550 net.cpp:165] Memory required for data: 1262081500
I0817 16:02:51.718713 17550 layer_factory.hpp:77] Creating layer L3_b1_cbr2_bn
I0817 16:02:51.718726 17550 net.cpp:100] Creating Layer L3_b1_cbr2_bn
I0817 16:02:51.718732 17550 net.cpp:434] L3_b1_cbr2_bn <- L3_b1_cbr2_conv_top
I0817 16:02:51.718744 17550 net.cpp:408] L3_b1_cbr2_bn -> L3_b1_cbr2_bn_top
I0817 16:02:51.719008 17550 net.cpp:150] Setting up L3_b1_cbr2_bn
I0817 16:02:51.719022 17550 net.cpp:157] Top shape: 125 32 8 8 (256000)
I0817 16:02:51.719027 17550 net.cpp:165] Memory required for data: 1263105500
I0817 16:02:51.719044 17550 layer_factory.hpp:77] Creating layer L3_b1_cbr2_scale
I0817 16:02:51.719053 17550 net.cpp:100] Creating Layer L3_b1_cbr2_scale
I0817 16:02:51.719059 17550 net.cpp:434] L3_b1_cbr2_scale <- L3_b1_cbr2_bn_top
I0817 16:02:51.719070 17550 net.cpp:395] L3_b1_cbr2_scale -> L3_b1_cbr2_bn_top (in-place)
I0817 16:02:51.719127 17550 layer_factory.hpp:77] Creating layer L3_b1_cbr2_scale
I0817 16:02:51.719285 17550 net.cpp:150] Setting up L3_b1_cbr2_scale
I0817 16:02:51.719298 17550 net.cpp:157] Top shape: 125 32 8 8 (256000)
I0817 16:02:51.719303 17550 net.cpp:165] Memory required for data: 1264129500
I0817 16:02:51.719311 17550 layer_factory.hpp:77] Creating layer L3_b1_pool
I0817 16:02:51.719321 17550 net.cpp:100] Creating Layer L3_b1_pool
I0817 16:02:51.719327 17550 net.cpp:434] L3_b1_pool <- L2_b9_sum_eltwise_top_L2_b9_relu_0_split_1
I0817 16:02:51.719338 17550 net.cpp:408] L3_b1_pool -> L3_b1_pool
I0817 16:02:51.719377 17550 net.cpp:150] Setting up L3_b1_pool
I0817 16:02:51.719388 17550 net.cpp:157] Top shape: 125 32 8 8 (256000)
I0817 16:02:51.719393 17550 net.cpp:165] Memory required for data: 1265153500
I0817 16:02:51.719398 17550 layer_factory.hpp:77] Creating layer L3_b1_sum_eltwise
I0817 16:02:51.719408 17550 net.cpp:100] Creating Layer L3_b1_sum_eltwise
I0817 16:02:51.719413 17550 net.cpp:434] L3_b1_sum_eltwise <- L3_b1_cbr2_bn_top
I0817 16:02:51.719419 17550 net.cpp:434] L3_b1_sum_eltwise <- L3_b1_pool
I0817 16:02:51.719429 17550 net.cpp:408] L3_b1_sum_eltwise -> L3_b1_sum_eltwise_top
I0817 16:02:51.719462 17550 net.cpp:150] Setting up L3_b1_sum_eltwise
I0817 16:02:51.719471 17550 net.cpp:157] Top shape: 125 32 8 8 (256000)
I0817 16:02:51.719476 17550 net.cpp:165] Memory required for data: 1266177500
I0817 16:02:51.719481 17550 layer_factory.hpp:77] Creating layer L3_b1_relu
I0817 16:02:51.719488 17550 net.cpp:100] Creating Layer L3_b1_relu
I0817 16:02:51.719494 17550 net.cpp:434] L3_b1_relu <- L3_b1_sum_eltwise_top
I0817 16:02:51.719501 17550 net.cpp:395] L3_b1_relu -> L3_b1_sum_eltwise_top (in-place)
I0817 16:02:51.719511 17550 net.cpp:150] Setting up L3_b1_relu
I0817 16:02:51.719517 17550 net.cpp:157] Top shape: 125 32 8 8 (256000)
I0817 16:02:51.719521 17550 net.cpp:165] Memory required for data: 1267201500
I0817 16:02:51.719527 17550 layer_factory.hpp:77] Creating layer L3_b1_zeros
I0817 16:02:51.719538 17550 net.cpp:100] Creating Layer L3_b1_zeros
I0817 16:02:51.719547 17550 net.cpp:408] L3_b1_zeros -> L3_b1_zeros
I0817 16:02:51.720820 17550 net.cpp:150] Setting up L3_b1_zeros
I0817 16:02:51.720839 17550 net.cpp:157] Top shape: 125 32 8 8 (256000)
I0817 16:02:51.720844 17550 net.cpp:165] Memory required for data: 1268225500
I0817 16:02:51.720849 17550 layer_factory.hpp:77] Creating layer L3_b1_concat0
I0817 16:02:51.720860 17550 net.cpp:100] Creating Layer L3_b1_concat0
I0817 16:02:51.720865 17550 net.cpp:434] L3_b1_concat0 <- L3_b1_sum_eltwise_top
I0817 16:02:51.720872 17550 net.cpp:434] L3_b1_concat0 <- L3_b1_zeros
I0817 16:02:51.720883 17550 net.cpp:408] L3_b1_concat0 -> L3_b1_concat0
I0817 16:02:51.720924 17550 net.cpp:150] Setting up L3_b1_concat0
I0817 16:02:51.720944 17550 net.cpp:157] Top shape: 125 64 8 8 (512000)
I0817 16:02:51.720950 17550 net.cpp:165] Memory required for data: 1270273500
I0817 16:02:51.720957 17550 layer_factory.hpp:77] Creating layer L3_b1_concat0_L3_b1_concat0_0_split
I0817 16:02:51.720964 17550 net.cpp:100] Creating Layer L3_b1_concat0_L3_b1_concat0_0_split
I0817 16:02:51.720970 17550 net.cpp:434] L3_b1_concat0_L3_b1_concat0_0_split <- L3_b1_concat0
I0817 16:02:51.720978 17550 net.cpp:408] L3_b1_concat0_L3_b1_concat0_0_split -> L3_b1_concat0_L3_b1_concat0_0_split_0
I0817 16:02:51.720988 17550 net.cpp:408] L3_b1_concat0_L3_b1_concat0_0_split -> L3_b1_concat0_L3_b1_concat0_0_split_1
I0817 16:02:51.721042 17550 net.cpp:150] Setting up L3_b1_concat0_L3_b1_concat0_0_split
I0817 16:02:51.721055 17550 net.cpp:157] Top shape: 125 64 8 8 (512000)
I0817 16:02:51.721061 17550 net.cpp:157] Top shape: 125 64 8 8 (512000)
I0817 16:02:51.721073 17550 net.cpp:165] Memory required for data: 1274369500
I0817 16:02:51.721079 17550 layer_factory.hpp:77] Creating layer L3_b2_cbr1_conv
I0817 16:02:51.721094 17550 net.cpp:100] Creating Layer L3_b2_cbr1_conv
I0817 16:02:51.721101 17550 net.cpp:434] L3_b2_cbr1_conv <- L3_b1_concat0_L3_b1_concat0_0_split_0
I0817 16:02:51.721110 17550 net.cpp:408] L3_b2_cbr1_conv -> L3_b2_cbr1_conv_top
I0817 16:02:51.723109 17550 net.cpp:150] Setting up L3_b2_cbr1_conv
I0817 16:02:51.723126 17550 net.cpp:157] Top shape: 125 64 8 8 (512000)
I0817 16:02:51.723131 17550 net.cpp:165] Memory required for data: 1276417500
I0817 16:02:51.723141 17550 layer_factory.hpp:77] Creating layer L3_b2_cbr1_bn
I0817 16:02:51.723151 17550 net.cpp:100] Creating Layer L3_b2_cbr1_bn
I0817 16:02:51.723158 17550 net.cpp:434] L3_b2_cbr1_bn <- L3_b2_cbr1_conv_top
I0817 16:02:51.723170 17550 net.cpp:408] L3_b2_cbr1_bn -> L3_b2_cbr1_bn_top
I0817 16:02:51.723439 17550 net.cpp:150] Setting up L3_b2_cbr1_bn
I0817 16:02:51.723453 17550 net.cpp:157] Top shape: 125 64 8 8 (512000)
I0817 16:02:51.723457 17550 net.cpp:165] Memory required for data: 1278465500
I0817 16:02:51.723469 17550 layer_factory.hpp:77] Creating layer L3_b2_cbr1_scale
I0817 16:02:51.723477 17550 net.cpp:100] Creating Layer L3_b2_cbr1_scale
I0817 16:02:51.723484 17550 net.cpp:434] L3_b2_cbr1_scale <- L3_b2_cbr1_bn_top
I0817 16:02:51.723491 17550 net.cpp:395] L3_b2_cbr1_scale -> L3_b2_cbr1_bn_top (in-place)
I0817 16:02:51.723552 17550 layer_factory.hpp:77] Creating layer L3_b2_cbr1_scale
I0817 16:02:51.723707 17550 net.cpp:150] Setting up L3_b2_cbr1_scale
I0817 16:02:51.723721 17550 net.cpp:157] Top shape: 125 64 8 8 (512000)
I0817 16:02:51.723726 17550 net.cpp:165] Memory required for data: 1280513500
I0817 16:02:51.723733 17550 layer_factory.hpp:77] Creating layer L3_b2_cbr1_relu
I0817 16:02:51.723744 17550 net.cpp:100] Creating Layer L3_b2_cbr1_relu
I0817 16:02:51.723752 17550 net.cpp:434] L3_b2_cbr1_relu <- L3_b2_cbr1_bn_top
I0817 16:02:51.723758 17550 net.cpp:395] L3_b2_cbr1_relu -> L3_b2_cbr1_bn_top (in-place)
I0817 16:02:51.723768 17550 net.cpp:150] Setting up L3_b2_cbr1_relu
I0817 16:02:51.723775 17550 net.cpp:157] Top shape: 125 64 8 8 (512000)
I0817 16:02:51.723780 17550 net.cpp:165] Memory required for data: 1282561500
I0817 16:02:51.723785 17550 layer_factory.hpp:77] Creating layer L3_b2_cbr2_conv
I0817 16:02:51.723799 17550 net.cpp:100] Creating Layer L3_b2_cbr2_conv
I0817 16:02:51.723806 17550 net.cpp:434] L3_b2_cbr2_conv <- L3_b2_cbr1_bn_top
I0817 16:02:51.723814 17550 net.cpp:408] L3_b2_cbr2_conv -> L3_b2_cbr2_conv_top
I0817 16:02:51.724838 17550 net.cpp:150] Setting up L3_b2_cbr2_conv
I0817 16:02:51.724853 17550 net.cpp:157] Top shape: 125 64 8 8 (512000)
I0817 16:02:51.724858 17550 net.cpp:165] Memory required for data: 1284609500
I0817 16:02:51.724867 17550 layer_factory.hpp:77] Creating layer L3_b2_cbr2_bn
I0817 16:02:51.724879 17550 net.cpp:100] Creating Layer L3_b2_cbr2_bn
I0817 16:02:51.724886 17550 net.cpp:434] L3_b2_cbr2_bn <- L3_b2_cbr2_conv_top
I0817 16:02:51.724897 17550 net.cpp:408] L3_b2_cbr2_bn -> L3_b2_cbr2_bn_top
I0817 16:02:51.725172 17550 net.cpp:150] Setting up L3_b2_cbr2_bn
I0817 16:02:51.725188 17550 net.cpp:157] Top shape: 125 64 8 8 (512000)
I0817 16:02:51.725193 17550 net.cpp:165] Memory required for data: 1286657500
I0817 16:02:51.725203 17550 layer_factory.hpp:77] Creating layer L3_b2_cbr2_scale
I0817 16:02:51.725211 17550 net.cpp:100] Creating Layer L3_b2_cbr2_scale
I0817 16:02:51.725219 17550 net.cpp:434] L3_b2_cbr2_scale <- L3_b2_cbr2_bn_top
I0817 16:02:51.725229 17550 net.cpp:395] L3_b2_cbr2_scale -> L3_b2_cbr2_bn_top (in-place)
I0817 16:02:51.725286 17550 layer_factory.hpp:77] Creating layer L3_b2_cbr2_scale
I0817 16:02:51.725443 17550 net.cpp:150] Setting up L3_b2_cbr2_scale
I0817 16:02:51.725456 17550 net.cpp:157] Top shape: 125 64 8 8 (512000)
I0817 16:02:51.725461 17550 net.cpp:165] Memory required for data: 1288705500
I0817 16:02:51.725471 17550 layer_factory.hpp:77] Creating layer L3_b2_sum_eltwise
I0817 16:02:51.725482 17550 net.cpp:100] Creating Layer L3_b2_sum_eltwise
I0817 16:02:51.725497 17550 net.cpp:434] L3_b2_sum_eltwise <- L3_b2_cbr2_bn_top
I0817 16:02:51.725503 17550 net.cpp:434] L3_b2_sum_eltwise <- L3_b1_concat0_L3_b1_concat0_0_split_1
I0817 16:02:51.725512 17550 net.cpp:408] L3_b2_sum_eltwise -> L3_b2_sum_eltwise_top
I0817 16:02:51.725550 17550 net.cpp:150] Setting up L3_b2_sum_eltwise
I0817 16:02:51.725559 17550 net.cpp:157] Top shape: 125 64 8 8 (512000)
I0817 16:02:51.725564 17550 net.cpp:165] Memory required for data: 1290753500
I0817 16:02:51.725569 17550 layer_factory.hpp:77] Creating layer L3_b2_relu
I0817 16:02:51.725577 17550 net.cpp:100] Creating Layer L3_b2_relu
I0817 16:02:51.725584 17550 net.cpp:434] L3_b2_relu <- L3_b2_sum_eltwise_top
I0817 16:02:51.725594 17550 net.cpp:395] L3_b2_relu -> L3_b2_sum_eltwise_top (in-place)
I0817 16:02:51.725603 17550 net.cpp:150] Setting up L3_b2_relu
I0817 16:02:51.725610 17550 net.cpp:157] Top shape: 125 64 8 8 (512000)
I0817 16:02:51.725615 17550 net.cpp:165] Memory required for data: 1292801500
I0817 16:02:51.725620 17550 layer_factory.hpp:77] Creating layer L3_b2_sum_eltwise_top_L3_b2_relu_0_split
I0817 16:02:51.725627 17550 net.cpp:100] Creating Layer L3_b2_sum_eltwise_top_L3_b2_relu_0_split
I0817 16:02:51.725632 17550 net.cpp:434] L3_b2_sum_eltwise_top_L3_b2_relu_0_split <- L3_b2_sum_eltwise_top
I0817 16:02:51.725639 17550 net.cpp:408] L3_b2_sum_eltwise_top_L3_b2_relu_0_split -> L3_b2_sum_eltwise_top_L3_b2_relu_0_split_0
I0817 16:02:51.725649 17550 net.cpp:408] L3_b2_sum_eltwise_top_L3_b2_relu_0_split -> L3_b2_sum_eltwise_top_L3_b2_relu_0_split_1
I0817 16:02:51.725703 17550 net.cpp:150] Setting up L3_b2_sum_eltwise_top_L3_b2_relu_0_split
I0817 16:02:51.725715 17550 net.cpp:157] Top shape: 125 64 8 8 (512000)
I0817 16:02:51.725723 17550 net.cpp:157] Top shape: 125 64 8 8 (512000)
I0817 16:02:51.725728 17550 net.cpp:165] Memory required for data: 1296897500
I0817 16:02:51.725733 17550 layer_factory.hpp:77] Creating layer L3_b3_cbr1_conv
I0817 16:02:51.725744 17550 net.cpp:100] Creating Layer L3_b3_cbr1_conv
I0817 16:02:51.725749 17550 net.cpp:434] L3_b3_cbr1_conv <- L3_b2_sum_eltwise_top_L3_b2_relu_0_split_0
I0817 16:02:51.725761 17550 net.cpp:408] L3_b3_cbr1_conv -> L3_b3_cbr1_conv_top
I0817 16:02:51.726783 17550 net.cpp:150] Setting up L3_b3_cbr1_conv
I0817 16:02:51.726799 17550 net.cpp:157] Top shape: 125 64 8 8 (512000)
I0817 16:02:51.726804 17550 net.cpp:165] Memory required for data: 1298945500
I0817 16:02:51.726812 17550 layer_factory.hpp:77] Creating layer L3_b3_cbr1_bn
I0817 16:02:51.726822 17550 net.cpp:100] Creating Layer L3_b3_cbr1_bn
I0817 16:02:51.726828 17550 net.cpp:434] L3_b3_cbr1_bn <- L3_b3_cbr1_conv_top
I0817 16:02:51.726840 17550 net.cpp:408] L3_b3_cbr1_bn -> L3_b3_cbr1_bn_top
I0817 16:02:51.727113 17550 net.cpp:150] Setting up L3_b3_cbr1_bn
I0817 16:02:51.727128 17550 net.cpp:157] Top shape: 125 64 8 8 (512000)
I0817 16:02:51.727133 17550 net.cpp:165] Memory required for data: 1300993500
I0817 16:02:51.727143 17550 layer_factory.hpp:77] Creating layer L3_b3_cbr1_scale
I0817 16:02:51.727151 17550 net.cpp:100] Creating Layer L3_b3_cbr1_scale
I0817 16:02:51.727157 17550 net.cpp:434] L3_b3_cbr1_scale <- L3_b3_cbr1_bn_top
I0817 16:02:51.727165 17550 net.cpp:395] L3_b3_cbr1_scale -> L3_b3_cbr1_bn_top (in-place)
I0817 16:02:51.727226 17550 layer_factory.hpp:77] Creating layer L3_b3_cbr1_scale
I0817 16:02:51.727380 17550 net.cpp:150] Setting up L3_b3_cbr1_scale
I0817 16:02:51.727396 17550 net.cpp:157] Top shape: 125 64 8 8 (512000)
I0817 16:02:51.727401 17550 net.cpp:165] Memory required for data: 1303041500
I0817 16:02:51.727409 17550 layer_factory.hpp:77] Creating layer L3_b3_cbr1_relu
I0817 16:02:51.727417 17550 net.cpp:100] Creating Layer L3_b3_cbr1_relu
I0817 16:02:51.727423 17550 net.cpp:434] L3_b3_cbr1_relu <- L3_b3_cbr1_bn_top
I0817 16:02:51.727432 17550 net.cpp:395] L3_b3_cbr1_relu -> L3_b3_cbr1_bn_top (in-place)
I0817 16:02:51.727442 17550 net.cpp:150] Setting up L3_b3_cbr1_relu
I0817 16:02:51.727448 17550 net.cpp:157] Top shape: 125 64 8 8 (512000)
I0817 16:02:51.727459 17550 net.cpp:165] Memory required for data: 1305089500
I0817 16:02:51.727464 17550 layer_factory.hpp:77] Creating layer L3_b3_cbr2_conv
I0817 16:02:51.727479 17550 net.cpp:100] Creating Layer L3_b3_cbr2_conv
I0817 16:02:51.727485 17550 net.cpp:434] L3_b3_cbr2_conv <- L3_b3_cbr1_bn_top
I0817 16:02:51.727494 17550 net.cpp:408] L3_b3_cbr2_conv -> L3_b3_cbr2_conv_top
I0817 16:02:51.728523 17550 net.cpp:150] Setting up L3_b3_cbr2_conv
I0817 16:02:51.728538 17550 net.cpp:157] Top shape: 125 64 8 8 (512000)
I0817 16:02:51.728543 17550 net.cpp:165] Memory required for data: 1307137500
I0817 16:02:51.728552 17550 layer_factory.hpp:77] Creating layer L3_b3_cbr2_bn
I0817 16:02:51.728564 17550 net.cpp:100] Creating Layer L3_b3_cbr2_bn
I0817 16:02:51.728570 17550 net.cpp:434] L3_b3_cbr2_bn <- L3_b3_cbr2_conv_top
I0817 16:02:51.728582 17550 net.cpp:408] L3_b3_cbr2_bn -> L3_b3_cbr2_bn_top
I0817 16:02:51.728849 17550 net.cpp:150] Setting up L3_b3_cbr2_bn
I0817 16:02:51.728863 17550 net.cpp:157] Top shape: 125 64 8 8 (512000)
I0817 16:02:51.728868 17550 net.cpp:165] Memory required for data: 1309185500
I0817 16:02:51.728878 17550 layer_factory.hpp:77] Creating layer L3_b3_cbr2_scale
I0817 16:02:51.728886 17550 net.cpp:100] Creating Layer L3_b3_cbr2_scale
I0817 16:02:51.728893 17550 net.cpp:434] L3_b3_cbr2_scale <- L3_b3_cbr2_bn_top
I0817 16:02:51.728902 17550 net.cpp:395] L3_b3_cbr2_scale -> L3_b3_cbr2_bn_top (in-place)
I0817 16:02:51.728971 17550 layer_factory.hpp:77] Creating layer L3_b3_cbr2_scale
I0817 16:02:51.729133 17550 net.cpp:150] Setting up L3_b3_cbr2_scale
I0817 16:02:51.729146 17550 net.cpp:157] Top shape: 125 64 8 8 (512000)
I0817 16:02:51.729151 17550 net.cpp:165] Memory required for data: 1311233500
I0817 16:02:51.729161 17550 layer_factory.hpp:77] Creating layer L3_b3_sum_eltwise
I0817 16:02:51.729173 17550 net.cpp:100] Creating Layer L3_b3_sum_eltwise
I0817 16:02:51.729180 17550 net.cpp:434] L3_b3_sum_eltwise <- L3_b3_cbr2_bn_top
I0817 16:02:51.729187 17550 net.cpp:434] L3_b3_sum_eltwise <- L3_b2_sum_eltwise_top_L3_b2_relu_0_split_1
I0817 16:02:51.729195 17550 net.cpp:408] L3_b3_sum_eltwise -> L3_b3_sum_eltwise_top
I0817 16:02:51.729233 17550 net.cpp:150] Setting up L3_b3_sum_eltwise
I0817 16:02:51.729243 17550 net.cpp:157] Top shape: 125 64 8 8 (512000)
I0817 16:02:51.729249 17550 net.cpp:165] Memory required for data: 1313281500
I0817 16:02:51.729254 17550 layer_factory.hpp:77] Creating layer L3_b3_relu
I0817 16:02:51.729261 17550 net.cpp:100] Creating Layer L3_b3_relu
I0817 16:02:51.729266 17550 net.cpp:434] L3_b3_relu <- L3_b3_sum_eltwise_top
I0817 16:02:51.729276 17550 net.cpp:395] L3_b3_relu -> L3_b3_sum_eltwise_top (in-place)
I0817 16:02:51.729286 17550 net.cpp:150] Setting up L3_b3_relu
I0817 16:02:51.729293 17550 net.cpp:157] Top shape: 125 64 8 8 (512000)
I0817 16:02:51.729298 17550 net.cpp:165] Memory required for data: 1315329500
I0817 16:02:51.729303 17550 layer_factory.hpp:77] Creating layer L3_b3_sum_eltwise_top_L3_b3_relu_0_split
I0817 16:02:51.729310 17550 net.cpp:100] Creating Layer L3_b3_sum_eltwise_top_L3_b3_relu_0_split
I0817 16:02:51.729316 17550 net.cpp:434] L3_b3_sum_eltwise_top_L3_b3_relu_0_split <- L3_b3_sum_eltwise_top
I0817 16:02:51.729323 17550 net.cpp:408] L3_b3_sum_eltwise_top_L3_b3_relu_0_split -> L3_b3_sum_eltwise_top_L3_b3_relu_0_split_0
I0817 16:02:51.729334 17550 net.cpp:408] L3_b3_sum_eltwise_top_L3_b3_relu_0_split -> L3_b3_sum_eltwise_top_L3_b3_relu_0_split_1
I0817 16:02:51.729383 17550 net.cpp:150] Setting up L3_b3_sum_eltwise_top_L3_b3_relu_0_split
I0817 16:02:51.729394 17550 net.cpp:157] Top shape: 125 64 8 8 (512000)
I0817 16:02:51.729401 17550 net.cpp:157] Top shape: 125 64 8 8 (512000)
I0817 16:02:51.729405 17550 net.cpp:165] Memory required for data: 1319425500
I0817 16:02:51.729410 17550 layer_factory.hpp:77] Creating layer L3_b4_cbr1_conv
I0817 16:02:51.729421 17550 net.cpp:100] Creating Layer L3_b4_cbr1_conv
I0817 16:02:51.729429 17550 net.cpp:434] L3_b4_cbr1_conv <- L3_b3_sum_eltwise_top_L3_b3_relu_0_split_0
I0817 16:02:51.729440 17550 net.cpp:408] L3_b4_cbr1_conv -> L3_b4_cbr1_conv_top
I0817 16:02:51.730470 17550 net.cpp:150] Setting up L3_b4_cbr1_conv
I0817 16:02:51.730484 17550 net.cpp:157] Top shape: 125 64 8 8 (512000)
I0817 16:02:51.730489 17550 net.cpp:165] Memory required for data: 1321473500
I0817 16:02:51.730499 17550 layer_factory.hpp:77] Creating layer L3_b4_cbr1_bn
I0817 16:02:51.730510 17550 net.cpp:100] Creating Layer L3_b4_cbr1_bn
I0817 16:02:51.730517 17550 net.cpp:434] L3_b4_cbr1_bn <- L3_b4_cbr1_conv_top
I0817 16:02:51.730526 17550 net.cpp:408] L3_b4_cbr1_bn -> L3_b4_cbr1_bn_top
I0817 16:02:51.730798 17550 net.cpp:150] Setting up L3_b4_cbr1_bn
I0817 16:02:51.730810 17550 net.cpp:157] Top shape: 125 64 8 8 (512000)
I0817 16:02:51.730814 17550 net.cpp:165] Memory required for data: 1323521500
I0817 16:02:51.730824 17550 layer_factory.hpp:77] Creating layer L3_b4_cbr1_scale
I0817 16:02:51.730834 17550 net.cpp:100] Creating Layer L3_b4_cbr1_scale
I0817 16:02:51.730839 17550 net.cpp:434] L3_b4_cbr1_scale <- L3_b4_cbr1_bn_top
I0817 16:02:51.730847 17550 net.cpp:395] L3_b4_cbr1_scale -> L3_b4_cbr1_bn_top (in-place)
I0817 16:02:51.730911 17550 layer_factory.hpp:77] Creating layer L3_b4_cbr1_scale
I0817 16:02:51.731076 17550 net.cpp:150] Setting up L3_b4_cbr1_scale
I0817 16:02:51.731093 17550 net.cpp:157] Top shape: 125 64 8 8 (512000)
I0817 16:02:51.731098 17550 net.cpp:165] Memory required for data: 1325569500
I0817 16:02:51.731107 17550 layer_factory.hpp:77] Creating layer L3_b4_cbr1_relu
I0817 16:02:51.731115 17550 net.cpp:100] Creating Layer L3_b4_cbr1_relu
I0817 16:02:51.731122 17550 net.cpp:434] L3_b4_cbr1_relu <- L3_b4_cbr1_bn_top
I0817 16:02:51.731129 17550 net.cpp:395] L3_b4_cbr1_relu -> L3_b4_cbr1_bn_top (in-place)
I0817 16:02:51.731139 17550 net.cpp:150] Setting up L3_b4_cbr1_relu
I0817 16:02:51.731147 17550 net.cpp:157] Top shape: 125 64 8 8 (512000)
I0817 16:02:51.731150 17550 net.cpp:165] Memory required for data: 1327617500
I0817 16:02:51.731155 17550 layer_factory.hpp:77] Creating layer L3_b4_cbr2_conv
I0817 16:02:51.731169 17550 net.cpp:100] Creating Layer L3_b4_cbr2_conv
I0817 16:02:51.731175 17550 net.cpp:434] L3_b4_cbr2_conv <- L3_b4_cbr1_bn_top
I0817 16:02:51.731186 17550 net.cpp:408] L3_b4_cbr2_conv -> L3_b4_cbr2_conv_top
I0817 16:02:51.732219 17550 net.cpp:150] Setting up L3_b4_cbr2_conv
I0817 16:02:51.732234 17550 net.cpp:157] Top shape: 125 64 8 8 (512000)
I0817 16:02:51.732239 17550 net.cpp:165] Memory required for data: 1329665500
I0817 16:02:51.732247 17550 layer_factory.hpp:77] Creating layer L3_b4_cbr2_bn
I0817 16:02:51.732259 17550 net.cpp:100] Creating Layer L3_b4_cbr2_bn
I0817 16:02:51.732266 17550 net.cpp:434] L3_b4_cbr2_bn <- L3_b4_cbr2_conv_top
I0817 16:02:51.732275 17550 net.cpp:408] L3_b4_cbr2_bn -> L3_b4_cbr2_bn_top
I0817 16:02:51.732542 17550 net.cpp:150] Setting up L3_b4_cbr2_bn
I0817 16:02:51.732555 17550 net.cpp:157] Top shape: 125 64 8 8 (512000)
I0817 16:02:51.732560 17550 net.cpp:165] Memory required for data: 1331713500
I0817 16:02:51.732570 17550 layer_factory.hpp:77] Creating layer L3_b4_cbr2_scale
I0817 16:02:51.732583 17550 net.cpp:100] Creating Layer L3_b4_cbr2_scale
I0817 16:02:51.732589 17550 net.cpp:434] L3_b4_cbr2_scale <- L3_b4_cbr2_bn_top
I0817 16:02:51.732596 17550 net.cpp:395] L3_b4_cbr2_scale -> L3_b4_cbr2_bn_top (in-place)
I0817 16:02:51.732656 17550 layer_factory.hpp:77] Creating layer L3_b4_cbr2_scale
I0817 16:02:51.732818 17550 net.cpp:150] Setting up L3_b4_cbr2_scale
I0817 16:02:51.732831 17550 net.cpp:157] Top shape: 125 64 8 8 (512000)
I0817 16:02:51.732836 17550 net.cpp:165] Memory required for data: 1333761500
I0817 16:02:51.732846 17550 layer_factory.hpp:77] Creating layer L3_b4_sum_eltwise
I0817 16:02:51.732856 17550 net.cpp:100] Creating Layer L3_b4_sum_eltwise
I0817 16:02:51.732863 17550 net.cpp:434] L3_b4_sum_eltwise <- L3_b4_cbr2_bn_top
I0817 16:02:51.732870 17550 net.cpp:434] L3_b4_sum_eltwise <- L3_b3_sum_eltwise_top_L3_b3_relu_0_split_1
I0817 16:02:51.732878 17550 net.cpp:408] L3_b4_sum_eltwise -> L3_b4_sum_eltwise_top
I0817 16:02:51.732914 17550 net.cpp:150] Setting up L3_b4_sum_eltwise
I0817 16:02:51.732930 17550 net.cpp:157] Top shape: 125 64 8 8 (512000)
I0817 16:02:51.732935 17550 net.cpp:165] Memory required for data: 1335809500
I0817 16:02:51.732946 17550 layer_factory.hpp:77] Creating layer L3_b4_relu
I0817 16:02:51.732964 17550 net.cpp:100] Creating Layer L3_b4_relu
I0817 16:02:51.732969 17550 net.cpp:434] L3_b4_relu <- L3_b4_sum_eltwise_top
I0817 16:02:51.732980 17550 net.cpp:395] L3_b4_relu -> L3_b4_sum_eltwise_top (in-place)
I0817 16:02:51.732990 17550 net.cpp:150] Setting up L3_b4_relu
I0817 16:02:51.732996 17550 net.cpp:157] Top shape: 125 64 8 8 (512000)
I0817 16:02:51.733001 17550 net.cpp:165] Memory required for data: 1337857500
I0817 16:02:51.733006 17550 layer_factory.hpp:77] Creating layer L3_b4_sum_eltwise_top_L3_b4_relu_0_split
I0817 16:02:51.733012 17550 net.cpp:100] Creating Layer L3_b4_sum_eltwise_top_L3_b4_relu_0_split
I0817 16:02:51.733018 17550 net.cpp:434] L3_b4_sum_eltwise_top_L3_b4_relu_0_split <- L3_b4_sum_eltwise_top
I0817 16:02:51.733026 17550 net.cpp:408] L3_b4_sum_eltwise_top_L3_b4_relu_0_split -> L3_b4_sum_eltwise_top_L3_b4_relu_0_split_0
I0817 16:02:51.733034 17550 net.cpp:408] L3_b4_sum_eltwise_top_L3_b4_relu_0_split -> L3_b4_sum_eltwise_top_L3_b4_relu_0_split_1
I0817 16:02:51.733088 17550 net.cpp:150] Setting up L3_b4_sum_eltwise_top_L3_b4_relu_0_split
I0817 16:02:51.733100 17550 net.cpp:157] Top shape: 125 64 8 8 (512000)
I0817 16:02:51.733108 17550 net.cpp:157] Top shape: 125 64 8 8 (512000)
I0817 16:02:51.733111 17550 net.cpp:165] Memory required for data: 1341953500
I0817 16:02:51.733116 17550 layer_factory.hpp:77] Creating layer L3_b5_cbr1_conv
I0817 16:02:51.733127 17550 net.cpp:100] Creating Layer L3_b5_cbr1_conv
I0817 16:02:51.733134 17550 net.cpp:434] L3_b5_cbr1_conv <- L3_b4_sum_eltwise_top_L3_b4_relu_0_split_0
I0817 16:02:51.733145 17550 net.cpp:408] L3_b5_cbr1_conv -> L3_b5_cbr1_conv_top
I0817 16:02:51.734176 17550 net.cpp:150] Setting up L3_b5_cbr1_conv
I0817 16:02:51.734191 17550 net.cpp:157] Top shape: 125 64 8 8 (512000)
I0817 16:02:51.734196 17550 net.cpp:165] Memory required for data: 1344001500
I0817 16:02:51.734205 17550 layer_factory.hpp:77] Creating layer L3_b5_cbr1_bn
I0817 16:02:51.734217 17550 net.cpp:100] Creating Layer L3_b5_cbr1_bn
I0817 16:02:51.734225 17550 net.cpp:434] L3_b5_cbr1_bn <- L3_b5_cbr1_conv_top
I0817 16:02:51.734233 17550 net.cpp:408] L3_b5_cbr1_bn -> L3_b5_cbr1_bn_top
I0817 16:02:51.735504 17550 net.cpp:150] Setting up L3_b5_cbr1_bn
I0817 16:02:51.735522 17550 net.cpp:157] Top shape: 125 64 8 8 (512000)
I0817 16:02:51.735527 17550 net.cpp:165] Memory required for data: 1346049500
I0817 16:02:51.735538 17550 layer_factory.hpp:77] Creating layer L3_b5_cbr1_scale
I0817 16:02:51.735551 17550 net.cpp:100] Creating Layer L3_b5_cbr1_scale
I0817 16:02:51.735558 17550 net.cpp:434] L3_b5_cbr1_scale <- L3_b5_cbr1_bn_top
I0817 16:02:51.735566 17550 net.cpp:395] L3_b5_cbr1_scale -> L3_b5_cbr1_bn_top (in-place)
I0817 16:02:51.735630 17550 layer_factory.hpp:77] Creating layer L3_b5_cbr1_scale
I0817 16:02:51.735786 17550 net.cpp:150] Setting up L3_b5_cbr1_scale
I0817 16:02:51.735800 17550 net.cpp:157] Top shape: 125 64 8 8 (512000)
I0817 16:02:51.735805 17550 net.cpp:165] Memory required for data: 1348097500
I0817 16:02:51.735813 17550 layer_factory.hpp:77] Creating layer L3_b5_cbr1_relu
I0817 16:02:51.735826 17550 net.cpp:100] Creating Layer L3_b5_cbr1_relu
I0817 16:02:51.735831 17550 net.cpp:434] L3_b5_cbr1_relu <- L3_b5_cbr1_bn_top
I0817 16:02:51.735839 17550 net.cpp:395] L3_b5_cbr1_relu -> L3_b5_cbr1_bn_top (in-place)
I0817 16:02:51.735849 17550 net.cpp:150] Setting up L3_b5_cbr1_relu
I0817 16:02:51.735857 17550 net.cpp:157] Top shape: 125 64 8 8 (512000)
I0817 16:02:51.735860 17550 net.cpp:165] Memory required for data: 1350145500
I0817 16:02:51.735865 17550 layer_factory.hpp:77] Creating layer L3_b5_cbr2_conv
I0817 16:02:51.735883 17550 net.cpp:100] Creating Layer L3_b5_cbr2_conv
I0817 16:02:51.735889 17550 net.cpp:434] L3_b5_cbr2_conv <- L3_b5_cbr1_bn_top
I0817 16:02:51.735900 17550 net.cpp:408] L3_b5_cbr2_conv -> L3_b5_cbr2_conv_top
I0817 16:02:51.737918 17550 net.cpp:150] Setting up L3_b5_cbr2_conv
I0817 16:02:51.737936 17550 net.cpp:157] Top shape: 125 64 8 8 (512000)
I0817 16:02:51.737946 17550 net.cpp:165] Memory required for data: 1352193500
I0817 16:02:51.737957 17550 layer_factory.hpp:77] Creating layer L3_b5_cbr2_bn
I0817 16:02:51.737967 17550 net.cpp:100] Creating Layer L3_b5_cbr2_bn
I0817 16:02:51.737977 17550 net.cpp:434] L3_b5_cbr2_bn <- L3_b5_cbr2_conv_top
I0817 16:02:51.737985 17550 net.cpp:408] L3_b5_cbr2_bn -> L3_b5_cbr2_bn_top
I0817 16:02:51.738246 17550 net.cpp:150] Setting up L3_b5_cbr2_bn
I0817 16:02:51.738260 17550 net.cpp:157] Top shape: 125 64 8 8 (512000)
I0817 16:02:51.738265 17550 net.cpp:165] Memory required for data: 1354241500
I0817 16:02:51.738275 17550 layer_factory.hpp:77] Creating layer L3_b5_cbr2_scale
I0817 16:02:51.738283 17550 net.cpp:100] Creating Layer L3_b5_cbr2_scale
I0817 16:02:51.738289 17550 net.cpp:434] L3_b5_cbr2_scale <- L3_b5_cbr2_bn_top
I0817 16:02:51.738301 17550 net.cpp:395] L3_b5_cbr2_scale -> L3_b5_cbr2_bn_top (in-place)
I0817 16:02:51.738358 17550 layer_factory.hpp:77] Creating layer L3_b5_cbr2_scale
I0817 16:02:51.738514 17550 net.cpp:150] Setting up L3_b5_cbr2_scale
I0817 16:02:51.738528 17550 net.cpp:157] Top shape: 125 64 8 8 (512000)
I0817 16:02:51.738533 17550 net.cpp:165] Memory required for data: 1356289500
I0817 16:02:51.738543 17550 layer_factory.hpp:77] Creating layer L3_b5_sum_eltwise
I0817 16:02:51.738554 17550 net.cpp:100] Creating Layer L3_b5_sum_eltwise
I0817 16:02:51.738561 17550 net.cpp:434] L3_b5_sum_eltwise <- L3_b5_cbr2_bn_top
I0817 16:02:51.738569 17550 net.cpp:434] L3_b5_sum_eltwise <- L3_b4_sum_eltwise_top_L3_b4_relu_0_split_1
I0817 16:02:51.738576 17550 net.cpp:408] L3_b5_sum_eltwise -> L3_b5_sum_eltwise_top
I0817 16:02:51.738612 17550 net.cpp:150] Setting up L3_b5_sum_eltwise
I0817 16:02:51.738623 17550 net.cpp:157] Top shape: 125 64 8 8 (512000)
I0817 16:02:51.738628 17550 net.cpp:165] Memory required for data: 1358337500
I0817 16:02:51.738633 17550 layer_factory.hpp:77] Creating layer L3_b5_relu
I0817 16:02:51.738641 17550 net.cpp:100] Creating Layer L3_b5_relu
I0817 16:02:51.738646 17550 net.cpp:434] L3_b5_relu <- L3_b5_sum_eltwise_top
I0817 16:02:51.738659 17550 net.cpp:395] L3_b5_relu -> L3_b5_sum_eltwise_top (in-place)
I0817 16:02:51.738669 17550 net.cpp:150] Setting up L3_b5_relu
I0817 16:02:51.738677 17550 net.cpp:157] Top shape: 125 64 8 8 (512000)
I0817 16:02:51.738680 17550 net.cpp:165] Memory required for data: 1360385500
I0817 16:02:51.738685 17550 layer_factory.hpp:77] Creating layer L3_b5_sum_eltwise_top_L3_b5_relu_0_split
I0817 16:02:51.738692 17550 net.cpp:100] Creating Layer L3_b5_sum_eltwise_top_L3_b5_relu_0_split
I0817 16:02:51.738698 17550 net.cpp:434] L3_b5_sum_eltwise_top_L3_b5_relu_0_split <- L3_b5_sum_eltwise_top
I0817 16:02:51.738705 17550 net.cpp:408] L3_b5_sum_eltwise_top_L3_b5_relu_0_split -> L3_b5_sum_eltwise_top_L3_b5_relu_0_split_0
I0817 16:02:51.738714 17550 net.cpp:408] L3_b5_sum_eltwise_top_L3_b5_relu_0_split -> L3_b5_sum_eltwise_top_L3_b5_relu_0_split_1
I0817 16:02:51.738762 17550 net.cpp:150] Setting up L3_b5_sum_eltwise_top_L3_b5_relu_0_split
I0817 16:02:51.738775 17550 net.cpp:157] Top shape: 125 64 8 8 (512000)
I0817 16:02:51.738780 17550 net.cpp:157] Top shape: 125 64 8 8 (512000)
I0817 16:02:51.738785 17550 net.cpp:165] Memory required for data: 1364481500
I0817 16:02:51.738790 17550 layer_factory.hpp:77] Creating layer L3_b6_cbr1_conv
I0817 16:02:51.738801 17550 net.cpp:100] Creating Layer L3_b6_cbr1_conv
I0817 16:02:51.738807 17550 net.cpp:434] L3_b6_cbr1_conv <- L3_b5_sum_eltwise_top_L3_b5_relu_0_split_0
I0817 16:02:51.738819 17550 net.cpp:408] L3_b6_cbr1_conv -> L3_b6_cbr1_conv_top
I0817 16:02:51.739836 17550 net.cpp:150] Setting up L3_b6_cbr1_conv
I0817 16:02:51.739851 17550 net.cpp:157] Top shape: 125 64 8 8 (512000)
I0817 16:02:51.739856 17550 net.cpp:165] Memory required for data: 1366529500
I0817 16:02:51.739866 17550 layer_factory.hpp:77] Creating layer L3_b6_cbr1_bn
I0817 16:02:51.739877 17550 net.cpp:100] Creating Layer L3_b6_cbr1_bn
I0817 16:02:51.739892 17550 net.cpp:434] L3_b6_cbr1_bn <- L3_b6_cbr1_conv_top
I0817 16:02:51.739902 17550 net.cpp:408] L3_b6_cbr1_bn -> L3_b6_cbr1_bn_top
I0817 16:02:51.740167 17550 net.cpp:150] Setting up L3_b6_cbr1_bn
I0817 16:02:51.740181 17550 net.cpp:157] Top shape: 125 64 8 8 (512000)
I0817 16:02:51.740186 17550 net.cpp:165] Memory required for data: 1368577500
I0817 16:02:51.740196 17550 layer_factory.hpp:77] Creating layer L3_b6_cbr1_scale
I0817 16:02:51.740206 17550 net.cpp:100] Creating Layer L3_b6_cbr1_scale
I0817 16:02:51.740212 17550 net.cpp:434] L3_b6_cbr1_scale <- L3_b6_cbr1_bn_top
I0817 16:02:51.740219 17550 net.cpp:395] L3_b6_cbr1_scale -> L3_b6_cbr1_bn_top (in-place)
I0817 16:02:51.740278 17550 layer_factory.hpp:77] Creating layer L3_b6_cbr1_scale
I0817 16:02:51.740430 17550 net.cpp:150] Setting up L3_b6_cbr1_scale
I0817 16:02:51.740445 17550 net.cpp:157] Top shape: 125 64 8 8 (512000)
I0817 16:02:51.740450 17550 net.cpp:165] Memory required for data: 1370625500
I0817 16:02:51.740459 17550 layer_factory.hpp:77] Creating layer L3_b6_cbr1_relu
I0817 16:02:51.740468 17550 net.cpp:100] Creating Layer L3_b6_cbr1_relu
I0817 16:02:51.740473 17550 net.cpp:434] L3_b6_cbr1_relu <- L3_b6_cbr1_bn_top
I0817 16:02:51.740480 17550 net.cpp:395] L3_b6_cbr1_relu -> L3_b6_cbr1_bn_top (in-place)
I0817 16:02:51.740490 17550 net.cpp:150] Setting up L3_b6_cbr1_relu
I0817 16:02:51.740497 17550 net.cpp:157] Top shape: 125 64 8 8 (512000)
I0817 16:02:51.740501 17550 net.cpp:165] Memory required for data: 1372673500
I0817 16:02:51.740506 17550 layer_factory.hpp:77] Creating layer L3_b6_cbr2_conv
I0817 16:02:51.740522 17550 net.cpp:100] Creating Layer L3_b6_cbr2_conv
I0817 16:02:51.740528 17550 net.cpp:434] L3_b6_cbr2_conv <- L3_b6_cbr1_bn_top
I0817 16:02:51.740540 17550 net.cpp:408] L3_b6_cbr2_conv -> L3_b6_cbr2_conv_top
I0817 16:02:51.741560 17550 net.cpp:150] Setting up L3_b6_cbr2_conv
I0817 16:02:51.741575 17550 net.cpp:157] Top shape: 125 64 8 8 (512000)
I0817 16:02:51.741580 17550 net.cpp:165] Memory required for data: 1374721500
I0817 16:02:51.741590 17550 layer_factory.hpp:77] Creating layer L3_b6_cbr2_bn
I0817 16:02:51.741601 17550 net.cpp:100] Creating Layer L3_b6_cbr2_bn
I0817 16:02:51.741607 17550 net.cpp:434] L3_b6_cbr2_bn <- L3_b6_cbr2_conv_top
I0817 16:02:51.741616 17550 net.cpp:408] L3_b6_cbr2_bn -> L3_b6_cbr2_bn_top
I0817 16:02:51.741879 17550 net.cpp:150] Setting up L3_b6_cbr2_bn
I0817 16:02:51.741892 17550 net.cpp:157] Top shape: 125 64 8 8 (512000)
I0817 16:02:51.741897 17550 net.cpp:165] Memory required for data: 1376769500
I0817 16:02:51.741907 17550 layer_factory.hpp:77] Creating layer L3_b6_cbr2_scale
I0817 16:02:51.741920 17550 net.cpp:100] Creating Layer L3_b6_cbr2_scale
I0817 16:02:51.741926 17550 net.cpp:434] L3_b6_cbr2_scale <- L3_b6_cbr2_bn_top
I0817 16:02:51.741935 17550 net.cpp:395] L3_b6_cbr2_scale -> L3_b6_cbr2_bn_top (in-place)
I0817 16:02:51.742000 17550 layer_factory.hpp:77] Creating layer L3_b6_cbr2_scale
I0817 16:02:51.742159 17550 net.cpp:150] Setting up L3_b6_cbr2_scale
I0817 16:02:51.742172 17550 net.cpp:157] Top shape: 125 64 8 8 (512000)
I0817 16:02:51.742177 17550 net.cpp:165] Memory required for data: 1378817500
I0817 16:02:51.742187 17550 layer_factory.hpp:77] Creating layer L3_b6_sum_eltwise
I0817 16:02:51.742197 17550 net.cpp:100] Creating Layer L3_b6_sum_eltwise
I0817 16:02:51.742204 17550 net.cpp:434] L3_b6_sum_eltwise <- L3_b6_cbr2_bn_top
I0817 16:02:51.742211 17550 net.cpp:434] L3_b6_sum_eltwise <- L3_b5_sum_eltwise_top_L3_b5_relu_0_split_1
I0817 16:02:51.742219 17550 net.cpp:408] L3_b6_sum_eltwise -> L3_b6_sum_eltwise_top
I0817 16:02:51.742254 17550 net.cpp:150] Setting up L3_b6_sum_eltwise
I0817 16:02:51.742265 17550 net.cpp:157] Top shape: 125 64 8 8 (512000)
I0817 16:02:51.742270 17550 net.cpp:165] Memory required for data: 1380865500
I0817 16:02:51.742275 17550 layer_factory.hpp:77] Creating layer L3_b6_relu
I0817 16:02:51.742283 17550 net.cpp:100] Creating Layer L3_b6_relu
I0817 16:02:51.742288 17550 net.cpp:434] L3_b6_relu <- L3_b6_sum_eltwise_top
I0817 16:02:51.742305 17550 net.cpp:395] L3_b6_relu -> L3_b6_sum_eltwise_top (in-place)
I0817 16:02:51.742316 17550 net.cpp:150] Setting up L3_b6_relu
I0817 16:02:51.742323 17550 net.cpp:157] Top shape: 125 64 8 8 (512000)
I0817 16:02:51.742327 17550 net.cpp:165] Memory required for data: 1382913500
I0817 16:02:51.742332 17550 layer_factory.hpp:77] Creating layer L3_b6_sum_eltwise_top_L3_b6_relu_0_split
I0817 16:02:51.742339 17550 net.cpp:100] Creating Layer L3_b6_sum_eltwise_top_L3_b6_relu_0_split
I0817 16:02:51.742346 17550 net.cpp:434] L3_b6_sum_eltwise_top_L3_b6_relu_0_split <- L3_b6_sum_eltwise_top
I0817 16:02:51.742352 17550 net.cpp:408] L3_b6_sum_eltwise_top_L3_b6_relu_0_split -> L3_b6_sum_eltwise_top_L3_b6_relu_0_split_0
I0817 16:02:51.742362 17550 net.cpp:408] L3_b6_sum_eltwise_top_L3_b6_relu_0_split -> L3_b6_sum_eltwise_top_L3_b6_relu_0_split_1
I0817 16:02:51.742411 17550 net.cpp:150] Setting up L3_b6_sum_eltwise_top_L3_b6_relu_0_split
I0817 16:02:51.742424 17550 net.cpp:157] Top shape: 125 64 8 8 (512000)
I0817 16:02:51.742430 17550 net.cpp:157] Top shape: 125 64 8 8 (512000)
I0817 16:02:51.742434 17550 net.cpp:165] Memory required for data: 1387009500
I0817 16:02:51.742439 17550 layer_factory.hpp:77] Creating layer L3_b7_cbr1_conv
I0817 16:02:51.742453 17550 net.cpp:100] Creating Layer L3_b7_cbr1_conv
I0817 16:02:51.742460 17550 net.cpp:434] L3_b7_cbr1_conv <- L3_b6_sum_eltwise_top_L3_b6_relu_0_split_0
I0817 16:02:51.742468 17550 net.cpp:408] L3_b7_cbr1_conv -> L3_b7_cbr1_conv_top
I0817 16:02:51.743484 17550 net.cpp:150] Setting up L3_b7_cbr1_conv
I0817 16:02:51.743497 17550 net.cpp:157] Top shape: 125 64 8 8 (512000)
I0817 16:02:51.743502 17550 net.cpp:165] Memory required for data: 1389057500
I0817 16:02:51.743511 17550 layer_factory.hpp:77] Creating layer L3_b7_cbr1_bn
I0817 16:02:51.743523 17550 net.cpp:100] Creating Layer L3_b7_cbr1_bn
I0817 16:02:51.743530 17550 net.cpp:434] L3_b7_cbr1_bn <- L3_b7_cbr1_conv_top
I0817 16:02:51.743538 17550 net.cpp:408] L3_b7_cbr1_bn -> L3_b7_cbr1_bn_top
I0817 16:02:51.743799 17550 net.cpp:150] Setting up L3_b7_cbr1_bn
I0817 16:02:51.743811 17550 net.cpp:157] Top shape: 125 64 8 8 (512000)
I0817 16:02:51.743816 17550 net.cpp:165] Memory required for data: 1391105500
I0817 16:02:51.743826 17550 layer_factory.hpp:77] Creating layer L3_b7_cbr1_scale
I0817 16:02:51.743835 17550 net.cpp:100] Creating Layer L3_b7_cbr1_scale
I0817 16:02:51.743842 17550 net.cpp:434] L3_b7_cbr1_scale <- L3_b7_cbr1_bn_top
I0817 16:02:51.743849 17550 net.cpp:395] L3_b7_cbr1_scale -> L3_b7_cbr1_bn_top (in-place)
I0817 16:02:51.743911 17550 layer_factory.hpp:77] Creating layer L3_b7_cbr1_scale
I0817 16:02:51.744076 17550 net.cpp:150] Setting up L3_b7_cbr1_scale
I0817 16:02:51.744089 17550 net.cpp:157] Top shape: 125 64 8 8 (512000)
I0817 16:02:51.744094 17550 net.cpp:165] Memory required for data: 1393153500
I0817 16:02:51.744103 17550 layer_factory.hpp:77] Creating layer L3_b7_cbr1_relu
I0817 16:02:51.744139 17550 net.cpp:100] Creating Layer L3_b7_cbr1_relu
I0817 16:02:51.744148 17550 net.cpp:434] L3_b7_cbr1_relu <- L3_b7_cbr1_bn_top
I0817 16:02:51.744156 17550 net.cpp:395] L3_b7_cbr1_relu -> L3_b7_cbr1_bn_top (in-place)
I0817 16:02:51.744168 17550 net.cpp:150] Setting up L3_b7_cbr1_relu
I0817 16:02:51.744174 17550 net.cpp:157] Top shape: 125 64 8 8 (512000)
I0817 16:02:51.744179 17550 net.cpp:165] Memory required for data: 1395201500
I0817 16:02:51.744184 17550 layer_factory.hpp:77] Creating layer L3_b7_cbr2_conv
I0817 16:02:51.744199 17550 net.cpp:100] Creating Layer L3_b7_cbr2_conv
I0817 16:02:51.744204 17550 net.cpp:434] L3_b7_cbr2_conv <- L3_b7_cbr1_bn_top
I0817 16:02:51.744213 17550 net.cpp:408] L3_b7_cbr2_conv -> L3_b7_cbr2_conv_top
I0817 16:02:51.745239 17550 net.cpp:150] Setting up L3_b7_cbr2_conv
I0817 16:02:51.745254 17550 net.cpp:157] Top shape: 125 64 8 8 (512000)
I0817 16:02:51.745259 17550 net.cpp:165] Memory required for data: 1397249500
I0817 16:02:51.745266 17550 layer_factory.hpp:77] Creating layer L3_b7_cbr2_bn
I0817 16:02:51.745280 17550 net.cpp:100] Creating Layer L3_b7_cbr2_bn
I0817 16:02:51.745291 17550 net.cpp:434] L3_b7_cbr2_bn <- L3_b7_cbr2_conv_top
I0817 16:02:51.745301 17550 net.cpp:408] L3_b7_cbr2_bn -> L3_b7_cbr2_bn_top
I0817 16:02:51.745568 17550 net.cpp:150] Setting up L3_b7_cbr2_bn
I0817 16:02:51.745581 17550 net.cpp:157] Top shape: 125 64 8 8 (512000)
I0817 16:02:51.745586 17550 net.cpp:165] Memory required for data: 1399297500
I0817 16:02:51.745596 17550 layer_factory.hpp:77] Creating layer L3_b7_cbr2_scale
I0817 16:02:51.745605 17550 net.cpp:100] Creating Layer L3_b7_cbr2_scale
I0817 16:02:51.745612 17550 net.cpp:434] L3_b7_cbr2_scale <- L3_b7_cbr2_bn_top
I0817 16:02:51.745620 17550 net.cpp:395] L3_b7_cbr2_scale -> L3_b7_cbr2_bn_top (in-place)
I0817 16:02:51.745679 17550 layer_factory.hpp:77] Creating layer L3_b7_cbr2_scale
I0817 16:02:51.745833 17550 net.cpp:150] Setting up L3_b7_cbr2_scale
I0817 16:02:51.745848 17550 net.cpp:157] Top shape: 125 64 8 8 (512000)
I0817 16:02:51.745854 17550 net.cpp:165] Memory required for data: 1401345500
I0817 16:02:51.745862 17550 layer_factory.hpp:77] Creating layer L3_b7_sum_eltwise
I0817 16:02:51.745872 17550 net.cpp:100] Creating Layer L3_b7_sum_eltwise
I0817 16:02:51.745878 17550 net.cpp:434] L3_b7_sum_eltwise <- L3_b7_cbr2_bn_top
I0817 16:02:51.745885 17550 net.cpp:434] L3_b7_sum_eltwise <- L3_b6_sum_eltwise_top_L3_b6_relu_0_split_1
I0817 16:02:51.745893 17550 net.cpp:408] L3_b7_sum_eltwise -> L3_b7_sum_eltwise_top
I0817 16:02:51.745931 17550 net.cpp:150] Setting up L3_b7_sum_eltwise
I0817 16:02:51.745949 17550 net.cpp:157] Top shape: 125 64 8 8 (512000)
I0817 16:02:51.745954 17550 net.cpp:165] Memory required for data: 1403393500
I0817 16:02:51.745967 17550 layer_factory.hpp:77] Creating layer L3_b7_relu
I0817 16:02:51.745977 17550 net.cpp:100] Creating Layer L3_b7_relu
I0817 16:02:51.745985 17550 net.cpp:434] L3_b7_relu <- L3_b7_sum_eltwise_top
I0817 16:02:51.745991 17550 net.cpp:395] L3_b7_relu -> L3_b7_sum_eltwise_top (in-place)
I0817 16:02:51.746001 17550 net.cpp:150] Setting up L3_b7_relu
I0817 16:02:51.746007 17550 net.cpp:157] Top shape: 125 64 8 8 (512000)
I0817 16:02:51.746012 17550 net.cpp:165] Memory required for data: 1405441500
I0817 16:02:51.746017 17550 layer_factory.hpp:77] Creating layer L3_b7_sum_eltwise_top_L3_b7_relu_0_split
I0817 16:02:51.746028 17550 net.cpp:100] Creating Layer L3_b7_sum_eltwise_top_L3_b7_relu_0_split
I0817 16:02:51.746034 17550 net.cpp:434] L3_b7_sum_eltwise_top_L3_b7_relu_0_split <- L3_b7_sum_eltwise_top
I0817 16:02:51.746042 17550 net.cpp:408] L3_b7_sum_eltwise_top_L3_b7_relu_0_split -> L3_b7_sum_eltwise_top_L3_b7_relu_0_split_0
I0817 16:02:51.746050 17550 net.cpp:408] L3_b7_sum_eltwise_top_L3_b7_relu_0_split -> L3_b7_sum_eltwise_top_L3_b7_relu_0_split_1
I0817 16:02:51.746098 17550 net.cpp:150] Setting up L3_b7_sum_eltwise_top_L3_b7_relu_0_split
I0817 16:02:51.746111 17550 net.cpp:157] Top shape: 125 64 8 8 (512000)
I0817 16:02:51.746119 17550 net.cpp:157] Top shape: 125 64 8 8 (512000)
I0817 16:02:51.746124 17550 net.cpp:165] Memory required for data: 1409537500
I0817 16:02:51.746129 17550 layer_factory.hpp:77] Creating layer L3_b8_cbr1_conv
I0817 16:02:51.746140 17550 net.cpp:100] Creating Layer L3_b8_cbr1_conv
I0817 16:02:51.746145 17550 net.cpp:434] L3_b8_cbr1_conv <- L3_b7_sum_eltwise_top_L3_b7_relu_0_split_0
I0817 16:02:51.746155 17550 net.cpp:408] L3_b8_cbr1_conv -> L3_b8_cbr1_conv_top
I0817 16:02:51.747179 17550 net.cpp:150] Setting up L3_b8_cbr1_conv
I0817 16:02:51.747192 17550 net.cpp:157] Top shape: 125 64 8 8 (512000)
I0817 16:02:51.747197 17550 net.cpp:165] Memory required for data: 1411585500
I0817 16:02:51.747206 17550 layer_factory.hpp:77] Creating layer L3_b8_cbr1_bn
I0817 16:02:51.747218 17550 net.cpp:100] Creating Layer L3_b8_cbr1_bn
I0817 16:02:51.747225 17550 net.cpp:434] L3_b8_cbr1_bn <- L3_b8_cbr1_conv_top
I0817 16:02:51.747234 17550 net.cpp:408] L3_b8_cbr1_bn -> L3_b8_cbr1_bn_top
I0817 16:02:51.747498 17550 net.cpp:150] Setting up L3_b8_cbr1_bn
I0817 16:02:51.747511 17550 net.cpp:157] Top shape: 125 64 8 8 (512000)
I0817 16:02:51.747515 17550 net.cpp:165] Memory required for data: 1413633500
I0817 16:02:51.747532 17550 layer_factory.hpp:77] Creating layer L3_b8_cbr1_scale
I0817 16:02:51.747545 17550 net.cpp:100] Creating Layer L3_b8_cbr1_scale
I0817 16:02:51.747552 17550 net.cpp:434] L3_b8_cbr1_scale <- L3_b8_cbr1_bn_top
I0817 16:02:51.747562 17550 net.cpp:395] L3_b8_cbr1_scale -> L3_b8_cbr1_bn_top (in-place)
I0817 16:02:51.747619 17550 layer_factory.hpp:77] Creating layer L3_b8_cbr1_scale
I0817 16:02:51.747779 17550 net.cpp:150] Setting up L3_b8_cbr1_scale
I0817 16:02:51.747792 17550 net.cpp:157] Top shape: 125 64 8 8 (512000)
I0817 16:02:51.747797 17550 net.cpp:165] Memory required for data: 1415681500
I0817 16:02:51.747805 17550 layer_factory.hpp:77] Creating layer L3_b8_cbr1_relu
I0817 16:02:51.747813 17550 net.cpp:100] Creating Layer L3_b8_cbr1_relu
I0817 16:02:51.747819 17550 net.cpp:434] L3_b8_cbr1_relu <- L3_b8_cbr1_bn_top
I0817 16:02:51.747830 17550 net.cpp:395] L3_b8_cbr1_relu -> L3_b8_cbr1_bn_top (in-place)
I0817 16:02:51.747840 17550 net.cpp:150] Setting up L3_b8_cbr1_relu
I0817 16:02:51.747848 17550 net.cpp:157] Top shape: 125 64 8 8 (512000)
I0817 16:02:51.747853 17550 net.cpp:165] Memory required for data: 1417729500
I0817 16:02:51.747858 17550 layer_factory.hpp:77] Creating layer L3_b8_cbr2_conv
I0817 16:02:51.747870 17550 net.cpp:100] Creating Layer L3_b8_cbr2_conv
I0817 16:02:51.747877 17550 net.cpp:434] L3_b8_cbr2_conv <- L3_b8_cbr1_bn_top
I0817 16:02:51.747885 17550 net.cpp:408] L3_b8_cbr2_conv -> L3_b8_cbr2_conv_top
I0817 16:02:51.748903 17550 net.cpp:150] Setting up L3_b8_cbr2_conv
I0817 16:02:51.748919 17550 net.cpp:157] Top shape: 125 64 8 8 (512000)
I0817 16:02:51.748924 17550 net.cpp:165] Memory required for data: 1419777500
I0817 16:02:51.748932 17550 layer_factory.hpp:77] Creating layer L3_b8_cbr2_bn
I0817 16:02:51.748952 17550 net.cpp:100] Creating Layer L3_b8_cbr2_bn
I0817 16:02:51.748960 17550 net.cpp:434] L3_b8_cbr2_bn <- L3_b8_cbr2_conv_top
I0817 16:02:51.748970 17550 net.cpp:408] L3_b8_cbr2_bn -> L3_b8_cbr2_bn_top
I0817 16:02:51.749230 17550 net.cpp:150] Setting up L3_b8_cbr2_bn
I0817 16:02:51.749243 17550 net.cpp:157] Top shape: 125 64 8 8 (512000)
I0817 16:02:51.749248 17550 net.cpp:165] Memory required for data: 1421825500
I0817 16:02:51.749258 17550 layer_factory.hpp:77] Creating layer L3_b8_cbr2_scale
I0817 16:02:51.749266 17550 net.cpp:100] Creating Layer L3_b8_cbr2_scale
I0817 16:02:51.749272 17550 net.cpp:434] L3_b8_cbr2_scale <- L3_b8_cbr2_bn_top
I0817 16:02:51.749279 17550 net.cpp:395] L3_b8_cbr2_scale -> L3_b8_cbr2_bn_top (in-place)
I0817 16:02:51.749338 17550 layer_factory.hpp:77] Creating layer L3_b8_cbr2_scale
I0817 16:02:51.749496 17550 net.cpp:150] Setting up L3_b8_cbr2_scale
I0817 16:02:51.749510 17550 net.cpp:157] Top shape: 125 64 8 8 (512000)
I0817 16:02:51.749514 17550 net.cpp:165] Memory required for data: 1423873500
I0817 16:02:51.749523 17550 layer_factory.hpp:77] Creating layer L3_b8_sum_eltwise
I0817 16:02:51.749532 17550 net.cpp:100] Creating Layer L3_b8_sum_eltwise
I0817 16:02:51.749538 17550 net.cpp:434] L3_b8_sum_eltwise <- L3_b8_cbr2_bn_top
I0817 16:02:51.749546 17550 net.cpp:434] L3_b8_sum_eltwise <- L3_b7_sum_eltwise_top_L3_b7_relu_0_split_1
I0817 16:02:51.749557 17550 net.cpp:408] L3_b8_sum_eltwise -> L3_b8_sum_eltwise_top
I0817 16:02:51.749589 17550 net.cpp:150] Setting up L3_b8_sum_eltwise
I0817 16:02:51.749603 17550 net.cpp:157] Top shape: 125 64 8 8 (512000)
I0817 16:02:51.749608 17550 net.cpp:165] Memory required for data: 1425921500
I0817 16:02:51.749614 17550 layer_factory.hpp:77] Creating layer L3_b8_relu
I0817 16:02:51.749621 17550 net.cpp:100] Creating Layer L3_b8_relu
I0817 16:02:51.749627 17550 net.cpp:434] L3_b8_relu <- L3_b8_sum_eltwise_top
I0817 16:02:51.749634 17550 net.cpp:395] L3_b8_relu -> L3_b8_sum_eltwise_top (in-place)
I0817 16:02:51.749644 17550 net.cpp:150] Setting up L3_b8_relu
I0817 16:02:51.749650 17550 net.cpp:157] Top shape: 125 64 8 8 (512000)
I0817 16:02:51.749655 17550 net.cpp:165] Memory required for data: 1427969500
I0817 16:02:51.749660 17550 layer_factory.hpp:77] Creating layer L3_b8_sum_eltwise_top_L3_b8_relu_0_split
I0817 16:02:51.749676 17550 net.cpp:100] Creating Layer L3_b8_sum_eltwise_top_L3_b8_relu_0_split
I0817 16:02:51.749682 17550 net.cpp:434] L3_b8_sum_eltwise_top_L3_b8_relu_0_split <- L3_b8_sum_eltwise_top
I0817 16:02:51.749691 17550 net.cpp:408] L3_b8_sum_eltwise_top_L3_b8_relu_0_split -> L3_b8_sum_eltwise_top_L3_b8_relu_0_split_0
I0817 16:02:51.749701 17550 net.cpp:408] L3_b8_sum_eltwise_top_L3_b8_relu_0_split -> L3_b8_sum_eltwise_top_L3_b8_relu_0_split_1
I0817 16:02:51.749745 17550 net.cpp:150] Setting up L3_b8_sum_eltwise_top_L3_b8_relu_0_split
I0817 16:02:51.749760 17550 net.cpp:157] Top shape: 125 64 8 8 (512000)
I0817 16:02:51.749768 17550 net.cpp:157] Top shape: 125 64 8 8 (512000)
I0817 16:02:51.749771 17550 net.cpp:165] Memory required for data: 1432065500
I0817 16:02:51.749776 17550 layer_factory.hpp:77] Creating layer L3_b9_cbr1_conv
I0817 16:02:51.749788 17550 net.cpp:100] Creating Layer L3_b9_cbr1_conv
I0817 16:02:51.749794 17550 net.cpp:434] L3_b9_cbr1_conv <- L3_b8_sum_eltwise_top_L3_b8_relu_0_split_0
I0817 16:02:51.749804 17550 net.cpp:408] L3_b9_cbr1_conv -> L3_b9_cbr1_conv_top
I0817 16:02:51.751814 17550 net.cpp:150] Setting up L3_b9_cbr1_conv
I0817 16:02:51.751832 17550 net.cpp:157] Top shape: 125 64 8 8 (512000)
I0817 16:02:51.751837 17550 net.cpp:165] Memory required for data: 1434113500
I0817 16:02:51.751847 17550 layer_factory.hpp:77] Creating layer L3_b9_cbr1_bn
I0817 16:02:51.751859 17550 net.cpp:100] Creating Layer L3_b9_cbr1_bn
I0817 16:02:51.751866 17550 net.cpp:434] L3_b9_cbr1_bn <- L3_b9_cbr1_conv_top
I0817 16:02:51.751878 17550 net.cpp:408] L3_b9_cbr1_bn -> L3_b9_cbr1_bn_top
I0817 16:02:51.752146 17550 net.cpp:150] Setting up L3_b9_cbr1_bn
I0817 16:02:51.752161 17550 net.cpp:157] Top shape: 125 64 8 8 (512000)
I0817 16:02:51.752166 17550 net.cpp:165] Memory required for data: 1436161500
I0817 16:02:51.752176 17550 layer_factory.hpp:77] Creating layer L3_b9_cbr1_scale
I0817 16:02:51.752184 17550 net.cpp:100] Creating Layer L3_b9_cbr1_scale
I0817 16:02:51.752192 17550 net.cpp:434] L3_b9_cbr1_scale <- L3_b9_cbr1_bn_top
I0817 16:02:51.752202 17550 net.cpp:395] L3_b9_cbr1_scale -> L3_b9_cbr1_bn_top (in-place)
I0817 16:02:51.752259 17550 layer_factory.hpp:77] Creating layer L3_b9_cbr1_scale
I0817 16:02:51.752418 17550 net.cpp:150] Setting up L3_b9_cbr1_scale
I0817 16:02:51.752430 17550 net.cpp:157] Top shape: 125 64 8 8 (512000)
I0817 16:02:51.752435 17550 net.cpp:165] Memory required for data: 1438209500
I0817 16:02:51.752450 17550 layer_factory.hpp:77] Creating layer L3_b9_cbr1_relu
I0817 16:02:51.752459 17550 net.cpp:100] Creating Layer L3_b9_cbr1_relu
I0817 16:02:51.752465 17550 net.cpp:434] L3_b9_cbr1_relu <- L3_b9_cbr1_bn_top
I0817 16:02:51.752475 17550 net.cpp:395] L3_b9_cbr1_relu -> L3_b9_cbr1_bn_top (in-place)
I0817 16:02:51.752486 17550 net.cpp:150] Setting up L3_b9_cbr1_relu
I0817 16:02:51.752493 17550 net.cpp:157] Top shape: 125 64 8 8 (512000)
I0817 16:02:51.752497 17550 net.cpp:165] Memory required for data: 1440257500
I0817 16:02:51.752502 17550 layer_factory.hpp:77] Creating layer L3_b9_cbr2_conv
I0817 16:02:51.752516 17550 net.cpp:100] Creating Layer L3_b9_cbr2_conv
I0817 16:02:51.752522 17550 net.cpp:434] L3_b9_cbr2_conv <- L3_b9_cbr1_bn_top
I0817 16:02:51.752530 17550 net.cpp:408] L3_b9_cbr2_conv -> L3_b9_cbr2_conv_top
I0817 16:02:51.753554 17550 net.cpp:150] Setting up L3_b9_cbr2_conv
I0817 16:02:51.753569 17550 net.cpp:157] Top shape: 125 64 8 8 (512000)
I0817 16:02:51.753574 17550 net.cpp:165] Memory required for data: 1442305500
I0817 16:02:51.753583 17550 layer_factory.hpp:77] Creating layer L3_b9_cbr2_bn
I0817 16:02:51.753595 17550 net.cpp:100] Creating Layer L3_b9_cbr2_bn
I0817 16:02:51.753602 17550 net.cpp:434] L3_b9_cbr2_bn <- L3_b9_cbr2_conv_top
I0817 16:02:51.753610 17550 net.cpp:408] L3_b9_cbr2_bn -> L3_b9_cbr2_bn_top
I0817 16:02:51.753875 17550 net.cpp:150] Setting up L3_b9_cbr2_bn
I0817 16:02:51.753888 17550 net.cpp:157] Top shape: 125 64 8 8 (512000)
I0817 16:02:51.753893 17550 net.cpp:165] Memory required for data: 1444353500
I0817 16:02:51.753913 17550 layer_factory.hpp:77] Creating layer L3_b9_cbr2_scale
I0817 16:02:51.753926 17550 net.cpp:100] Creating Layer L3_b9_cbr2_scale
I0817 16:02:51.753932 17550 net.cpp:434] L3_b9_cbr2_scale <- L3_b9_cbr2_bn_top
I0817 16:02:51.753949 17550 net.cpp:395] L3_b9_cbr2_scale -> L3_b9_cbr2_bn_top (in-place)
I0817 16:02:51.754009 17550 layer_factory.hpp:77] Creating layer L3_b9_cbr2_scale
I0817 16:02:51.754170 17550 net.cpp:150] Setting up L3_b9_cbr2_scale
I0817 16:02:51.754184 17550 net.cpp:157] Top shape: 125 64 8 8 (512000)
I0817 16:02:51.754187 17550 net.cpp:165] Memory required for data: 1446401500
I0817 16:02:51.754196 17550 layer_factory.hpp:77] Creating layer L3_b9_sum_eltwise
I0817 16:02:51.754205 17550 net.cpp:100] Creating Layer L3_b9_sum_eltwise
I0817 16:02:51.754212 17550 net.cpp:434] L3_b9_sum_eltwise <- L3_b9_cbr2_bn_top
I0817 16:02:51.754220 17550 net.cpp:434] L3_b9_sum_eltwise <- L3_b8_sum_eltwise_top_L3_b8_relu_0_split_1
I0817 16:02:51.754230 17550 net.cpp:408] L3_b9_sum_eltwise -> L3_b9_sum_eltwise_top
I0817 16:02:51.754263 17550 net.cpp:150] Setting up L3_b9_sum_eltwise
I0817 16:02:51.754274 17550 net.cpp:157] Top shape: 125 64 8 8 (512000)
I0817 16:02:51.754279 17550 net.cpp:165] Memory required for data: 1448449500
I0817 16:02:51.754286 17550 layer_factory.hpp:77] Creating layer L3_b9_relu
I0817 16:02:51.754297 17550 net.cpp:100] Creating Layer L3_b9_relu
I0817 16:02:51.754303 17550 net.cpp:434] L3_b9_relu <- L3_b9_sum_eltwise_top
I0817 16:02:51.754310 17550 net.cpp:395] L3_b9_relu -> L3_b9_sum_eltwise_top (in-place)
I0817 16:02:51.754320 17550 net.cpp:150] Setting up L3_b9_relu
I0817 16:02:51.754328 17550 net.cpp:157] Top shape: 125 64 8 8 (512000)
I0817 16:02:51.754333 17550 net.cpp:165] Memory required for data: 1450497500
I0817 16:02:51.754336 17550 layer_factory.hpp:77] Creating layer post_pool
I0817 16:02:51.754344 17550 net.cpp:100] Creating Layer post_pool
I0817 16:02:51.754350 17550 net.cpp:434] post_pool <- L3_b9_sum_eltwise_top
I0817 16:02:51.754357 17550 net.cpp:408] post_pool -> post_pool
I0817 16:02:51.754395 17550 net.cpp:150] Setting up post_pool
I0817 16:02:51.754406 17550 net.cpp:157] Top shape: 125 64 1 1 (8000)
I0817 16:02:51.754411 17550 net.cpp:165] Memory required for data: 1450529500
I0817 16:02:51.754416 17550 layer_factory.hpp:77] Creating layer post_FC
I0817 16:02:51.754510 17550 net.cpp:100] Creating Layer post_FC
I0817 16:02:51.754523 17550 net.cpp:434] post_FC <- post_pool
I0817 16:02:51.754532 17550 net.cpp:408] post_FC -> post_FC_top
I0817 16:02:51.754778 17550 net.cpp:150] Setting up post_FC
I0817 16:02:51.754794 17550 net.cpp:157] Top shape: 125 10 (1250)
I0817 16:02:51.754799 17550 net.cpp:165] Memory required for data: 1450534500
I0817 16:02:51.754808 17550 layer_factory.hpp:77] Creating layer post_FC_top_post_FC_0_split
I0817 16:02:51.754817 17550 net.cpp:100] Creating Layer post_FC_top_post_FC_0_split
I0817 16:02:51.754823 17550 net.cpp:434] post_FC_top_post_FC_0_split <- post_FC_top
I0817 16:02:51.754834 17550 net.cpp:408] post_FC_top_post_FC_0_split -> post_FC_top_post_FC_0_split_0
I0817 16:02:51.754845 17550 net.cpp:408] post_FC_top_post_FC_0_split -> post_FC_top_post_FC_0_split_1
I0817 16:02:51.754891 17550 net.cpp:150] Setting up post_FC_top_post_FC_0_split
I0817 16:02:51.754905 17550 net.cpp:157] Top shape: 125 10 (1250)
I0817 16:02:51.754912 17550 net.cpp:157] Top shape: 125 10 (1250)
I0817 16:02:51.754917 17550 net.cpp:165] Memory required for data: 1450544500
I0817 16:02:51.754922 17550 layer_factory.hpp:77] Creating layer accuracy
I0817 16:02:51.754972 17550 net.cpp:100] Creating Layer accuracy
I0817 16:02:51.754986 17550 net.cpp:434] accuracy <- post_FC_top_post_FC_0_split_0
I0817 16:02:51.754992 17550 net.cpp:434] accuracy <- label_dataLayer_1_split_0
I0817 16:02:51.755000 17550 net.cpp:408] accuracy -> accuracy
…
