…
I0821 08:59:38.787005 32364 net.cpp:322] The NetState phase (0) differed from the phase (1) specified by a rule in layer L3_b18_cbr2_bn
I0821 08:59:38.790319 32364 net.cpp:58] Initializing net from parameters: 
name: "Cifar-Resnet"
state {
  phase: TRAIN
  level: 0
  stage: ""
}
layer {
  name: "dataLayer"
  type: "Data"
  top: "data_top"
  top: "label"
  include {
    phase: TRAIN
  }
  transform_param {
    mirror: true
    crop_size: 32
    mean_file: "examples/cifar10/mean.binaryproto"
  }
  data_param {
    source: "examples/cifar10/cifar10_train_lmdb"
    batch_size: 100
    backend: LMDB
  }
  image_data_param {
    shuffle: true
  }
}
layer {
  name: "pre_conv"
  type: "Convolution"
  bottom: "data_top"
  top: "pre_conv_top"
  param {
    lr_mult: 1
    decay_mult: 1
  }
  param {
    lr_mult: 2
    decay_mult: 0
  }
  convolution_param {
    num_output: 16
    pad: 1
    kernel_size: 3
    stride: 1
    weight_filler {
      type: "msra"
    }
    bias_filler {
      type: "constant"
    }
  }
}
layer {
  name: "pre_bn"
  type: "BatchNorm"
  bottom: "pre_conv_top"
  top: "pre_bn_top"
  include {
    phase: TRAIN
  }
  batch_norm_param {
    use_global_stats: false
    moving_average_fraction: 0.95
  }
}
layer {
  name: "pre_scale"
  type: "Scale"
  bottom: "pre_bn_top"
  top: "pre_bn_top"
  scale_param {
    bias_term: true
  }
}
layer {
  name: "pre_relu"
  type: "ReLU"
  bottom: "pre_bn_top"
  top: "pre_bn_top"
}
layer {
  name: "L1_b1_cbr1_conv"
  type: "Convolution"
  bottom: "pre_bn_top"
  top: "L1_b1_cbr1_conv_top"
  param {
    lr_mult: 1
    decay_mult: 1
  }
  param {
    lr_mult: 2
    decay_mult: 0
  }
  convolution_param {
    num_output: 16
    pad: 1
    kernel_size: 3
    stride: 1
    weight_filler {
      type: "msra"
    }
    bias_filler {
      type: "constant"
    }
  }
}
layer {
  name: "L1_b1_cbr1_bn"
  type: "BatchNorm"
  bottom: "L1_b1_cbr1_conv_top"
  top: "L1_b1_cbr1_bn_top"
  include {
    phase: TRAIN
  }
  batch_norm_param {
    use_global_stats: false
    moving_average_fraction: 0.95
  }
}
layer {
  name: "L1_b1_cbr1_scale"
  type: "Scale"
  bottom: "L1_b1_cbr1_bn_top"
  top: "L1_b1_cbr1_bn_top"
  scale_param {
    bias_term: true
  }
}
layer {
  name: "L1_b1_cbr1_relu"
  type: "ReLU"
  bottom: "L1_b1_cbr1_bn_top"
  top: "L1_b1_cbr1_bn_top"
}
layer {
  name: "L1_b1_cbr2_conv"
  type: "Convolution"
  bottom: "L1_b1_cbr1_bn_top"
  top: "L1_b1_cbr2_conv_top"
  param {
    lr_mult: 1
    decay_mult: 1
  }
  param {
    lr_mult: 2
    decay_mult: 0
  }
  convolution_param {
    num_output: 16
    pad: 1
    kernel_size: 3
    stride: 1
    weight_filler {
      type: "msra"
    }
    bias_filler {
      type: "constant"
    }
  }
}
layer {
  name: "L1_b1_cbr2_bn"
  type: "BatchNorm"
  bottom: "L1_b1_cbr2_conv_top"
  top: "L1_b1_cbr2_bn_top"
  include {
    phase: TRAIN
  }
  batch_norm_param {
    use_global_stats: false
    moving_average_fraction: 0.95
  }
}
layer {
  name: "L1_b1_cbr2_scale"
  type: "Scale"
  bottom: "L1_b1_cbr2_bn_top"
  top: "L1_b1_cbr2_bn_top"
  scale_param {
    bias_term: true
  }
}
layer {
  name: "L1_b1_sum_eltwise"
  type: "Eltwise"
  bottom: "L1_b1_cbr2_bn_top"
  bottom: "pre_bn_top"
  top: "L1_b1_sum_eltwise_top"
  eltwise_param {
    operation: SUM
  }
}
layer {
  name: "L1_b1_relu"
  type: "ReLU"
  bottom: "L1_b1_sum_eltwise_top"
  top: "L1_b1_sum_eltwise_top"
}
layer {
  name: "L1_b2_cbr1_conv"
  type: "Convolution"
  bottom: "L1_b1_sum_eltwise_top"
  top: "L1_b2_cbr1_conv_top"
  param {
    lr_mult: 1
    decay_mult: 1
  }
  param {
    lr_mult: 2
    decay_mult: 0
  }
  convolution_param {
    num_output: 16
    pad: 1
    kernel_size: 3
    stride: 1
    weight_filler {
      type: "msra"
    }
    bias_filler {
      type: "constant"
    }
  }
}
layer {
  name: "L1_b2_cbr1_bn"
  type: "BatchNorm"
  bottom: "L1_b2_cbr1_conv_top"
  top: "L1_b2_cbr1_bn_top"
  include {
    phase: TRAIN
  }
  batch_norm_param {
    use_global_stats: false
    moving_average_fraction: 0.95
  }
}
layer {
  name: "L1_b2_cbr1_scale"
  type: "Scale"
  bottom: "L1_b2_cbr1_bn_top"
  top: "L1_b2_cbr1_bn_top"
  scale_param {
    bias_term: true
  }
}
layer {
  name: "L1_b2_cbr1_relu"
  type: "ReLU"
  bottom: "L1_b2_cbr1_bn_top"
  top: "L1_b2_cbr1_bn_top"
}
layer {
  name: "L1_b2_cbr2_conv"
  type: "Convolution"
  bottom: "L1_b2_cbr1_bn_top"
  top: "L1_b2_cbr2_conv_top"
  param {
    lr_mult: 1
    decay_mult: 1
  }
  param {
    lr_mult: 2
    decay_mult: 0
  }
  convolution_param {
    num_output: 16
    pad: 1
    kernel_size: 3
    stride: 1
    weight_filler {
      type: "msra"
    }
    bias_filler {
      type: "constant"
    }
  }
}
layer {
  name: "L1_b2_cbr2_bn"
  type: "BatchNorm"
  bottom: "L1_b2_cbr2_conv_top"
  top: "L1_b2_cbr2_bn_top"
  include {
    phase: TRAIN
  }
  batch_norm_param {
    use_global_stats: false
    moving_average_fraction: 0.95
  }
}
layer {
  name: "L1_b2_cbr2_scale"
  type: "Scale"
  bottom: "L1_b2_cbr2_bn_top"
  top: "L1_b2_cbr2_bn_top"
  scale_param {
    bias_term: true
  }
}
layer {
  name: "L1_b2_sum_eltwise"
  type: "Eltwise"
  bottom: "L1_b2_cbr2_bn_top"
  bottom: "L1_b1_sum_eltwise_top"
  top: "L1_b2_sum_eltwise_top"
  eltwise_param {
    operation: SUM
  }
}
layer {
  name: "L1_b2_relu"
  type: "ReLU"
  bottom: "L1_b2_sum_eltwise_top"
  top: "L1_b2_sum_eltwise_top"
}
layer {
  name: "L1_b3_cbr1_conv"
  type: "Convolution"
  bottom: "L1_b2_sum_eltwise_top"
  top: "L1_b3_cbr1_conv_top"
  param {
    lr_mult: 1
    decay_mult: 1
  }
  param {
    lr_mult: 2
    decay_mult: 0
  }
  convolution_param {
    num_output: 16
    pad: 1
    kernel_size: 3
    stride: 1
    weight_filler {
      type: "msra"
    }
    bias_filler {
      type: "constant"
    }
  }
}
layer {
  name: "L1_b3_cbr1_bn"
  type: "BatchNorm"
  bottom: "L1_b3_cbr1_conv_top"
  top: "L1_b3_cbr1_bn_top"
  include {
    phase: TRAIN
  }
  batch_norm_param {
    use_global_stats: false
    moving_average_fraction: 0.95
  }
}
layer {
  name: "L1_b3_cbr1_scale"
  type: "Scale"
  bottom: "L1_b3_cbr1_bn_top"
  top: "L1_b3_cbr1_bn_top"
  scale_param {
    bias_term: true
  }
}
layer {
  name: "L1_b3_cbr1_relu"
  type: "ReLU"
  bottom: "L1_b3_cbr1_bn_top"
  top: "L1_b3_cbr1_bn_top"
}
layer {
  name: "L1_b3_cbr2_conv"
  type: "Convolution"
  bottom: "L1_b3_cbr1_bn_top"
  top: "L1_b3_cbr2_conv_top"
  param {
    lr_mult: 1
    decay_mult: 1
  }
  param {
    lr_mult: 2
    decay_mult: 0
  }
  convolution_param {
    num_output: 16
    pad: 1
    kernel_size: 3
    stride: 1
    weight_filler {
      type: "msra"
    }
    bias_filler {
      type: "constant"
    }
  }
}
layer {
  name: "L1_b3_cbr2_bn"
  type: "BatchNorm"
  bottom: "L1_b3_cbr2_conv_top"
  top: "L1_b3_cbr2_bn_top"
  include {
    phase: TRAIN
  }
  batch_norm_param {
    use_global_stats: false
    moving_average_fraction: 0.95
  }
}
layer {
  name: "L1_b3_cbr2_scale"
  type: "Scale"
  bottom: "L1_b3_cbr2_bn_top"
  top: "L1_b3_cbr2_bn_top"
  scale_param {
    bias_term: true
  }
}
layer {
  name: "L1_b3_sum_eltwise"
  type: "Eltwise"
  bottom: "L1_b3_cbr2_bn_top"
  bottom: "L1_b2_sum_eltwise_top"
  top: "L1_b3_sum_eltwise_top"
  eltwise_param {
    operation: SUM
  }
}
layer {
  name: "L1_b3_relu"
  type: "ReLU"
  bottom: "L1_b3_sum_eltwise_top"
  top: "L1_b3_sum_eltwise_top"
}
layer {
  name: "L1_b4_cbr1_conv"
  type: "Convolution"
  bottom: "L1_b3_sum_eltwise_top"
  top: "L1_b4_cbr1_conv_top"
  param {
    lr_mult: 1
    decay_mult: 1
  }
  param {
    lr_mult: 2
    decay_mult: 0
  }
  convolution_param {
    num_output: 16
    pad: 1
    kernel_size: 3
    stride: 1
    weight_filler {
      type: "msra"
    }
    bias_filler {
      type: "constant"
    }
  }
}
layer {
  name: "L1_b4_cbr1_bn"
  type: "BatchNorm"
  bottom: "L1_b4_cbr1_conv_top"
  top: "L1_b4_cbr1_bn_top"
  include {
    phase: TRAIN
  }
  batch_norm_param {
    use_global_stats: false
    moving_average_fraction: 0.95
  }
}
layer {
  name: "L1_b4_cbr1_scale"
  type: "Scale"
  bottom: "L1_b4_cbr1_bn_top"
  top: "L1_b4_cbr1_bn_top"
  scale_param {
    bias_term: true
  }
}
layer {
  name: "L1_b4_cbr1_relu"
  type: "ReLU"
  bottom: "L1_b4_cbr1_bn_top"
  top: "L1_b4_cbr1_bn_top"
}
layer {
  name: "L1_b4_cbr2_conv"
  type: "Convolution"
  bottom: "L1_b4_cbr1_bn_top"
  top: "L1_b4_cbr2_conv_top"
  param {
    lr_mult: 1
    decay_mult: 1
  }
  param {
    lr_mult: 2
    decay_mult: 0
  }
  convolution_param {
    num_output: 16
    pad: 1
    kernel_size: 3
    stride: 1
    weight_filler {
      type: "msra"
    }
    bias_filler {
      type: "constant"
    }
  }
}
layer {
  name: "L1_b4_cbr2_bn"
  type: "BatchNorm"
  bottom: "L1_b4_cbr2_conv_top"
  top: "L1_b4_cbr2_bn_top"
  include {
    phase: TRAIN
  }
  batch_norm_param {
    use_global_stats: false
    moving_average_fraction: 0.95
  }
}
layer {
  name: "L1_b4_cbr2_scale"
  type: "Scale"
  bottom: "L1_b4_cbr2_bn_top"
  top: "L1_b4_cbr2_bn_top"
  scale_param {
    bias_term: true
  }
}
layer {
  name: "L1_b4_sum_eltwise"
  type: "Eltwise"
  bottom: "L1_b4_cbr2_bn_top"
  bottom: "L1_b3_sum_eltwise_top"
  top: "L1_b4_sum_eltwise_top"
  eltwise_param {
    operation: SUM
  }
}
layer {
  name: "L1_b4_relu"
  type: "ReLU"
  bottom: "L1_b4_sum_eltwise_top"
  top: "L1_b4_sum_eltwise_top"
}
layer {
  name: "L1_b5_cbr1_conv"
  type: "Convolution"
  bottom: "L1_b4_sum_eltwise_top"
  top: "L1_b5_cbr1_conv_top"
  param {
    lr_mult: 1
    decay_mult: 1
  }
  param {
    lr_mult: 2
    decay_mult: 0
  }
  convolution_param {
    num_output: 16
    pad: 1
    kernel_size: 3
    stride: 1
    weight_filler {
      type: "msra"
    }
    bias_filler {
      type: "constant"
    }
  }
}
layer {
  name: "L1_b5_cbr1_bn"
  type: "BatchNorm"
  bottom: "L1_b5_cbr1_conv_top"
  top: "L1_b5_cbr1_bn_top"
  include {
    phase: TRAIN
  }
  batch_norm_param {
    use_global_stats: false
    moving_average_fraction: 0.95
  }
}
layer {
  name: "L1_b5_cbr1_scale"
  type: "Scale"
  bottom: "L1_b5_cbr1_bn_top"
  top: "L1_b5_cbr1_bn_top"
  scale_param {
    bias_term: true
  }
}
layer {
  name: "L1_b5_cbr1_relu"
  type: "ReLU"
  bottom: "L1_b5_cbr1_bn_top"
  top: "L1_b5_cbr1_bn_top"
}
layer {
  name: "L1_b5_cbr2_conv"
  type: "Convolution"
  bottom: "L1_b5_cbr1_bn_top"
  top: "L1_b5_cbr2_conv_top"
  param {
    lr_mult: 1
    decay_mult: 1
  }
  param {
    lr_mult: 2
    decay_mult: 0
  }
  convolution_param {
    num_output: 16
    pad: 1
    kernel_size: 3
    stride: 1
    weight_filler {
      type: "msra"
    }
    bias_filler {
      type: "constant"
    }
  }
}
layer {
  name: "L1_b5_cbr2_bn"
  type: "BatchNorm"
  bottom: "L1_b5_cbr2_conv_top"
  top: "L1_b5_cbr2_bn_top"
  include {
    phase: TRAIN
  }
  batch_norm_param {
    use_global_stats: false
    moving_average_fraction: 0.95
  }
}
layer {
  name: "L1_b5_cbr2_scale"
  type: "Scale"
  bottom: "L1_b5_cbr2_bn_top"
  top: "L1_b5_cbr2_bn_top"
  scale_param {
    bias_term: true
  }
}
layer {
  name: "L1_b5_sum_eltwise"
  type: "Eltwise"
  bottom: "L1_b5_cbr2_bn_top"
  bottom: "L1_b4_sum_eltwise_top"
  top: "L1_b5_sum_eltwise_top"
  eltwise_param {
    operation: SUM
  }
}
layer {
  name: "L1_b5_relu"
  type: "ReLU"
  bottom: "L1_b5_sum_eltwise_top"
  top: "L1_b5_sum_eltwise_top"
}
layer {
  name: "L1_b6_cbr1_conv"
  type: "Convolution"
  bottom: "L1_b5_sum_eltwise_top"
  top: "L1_b6_cbr1_conv_top"
  param {
    lr_mult: 1
    decay_mult: 1
  }
  param {
    lr_mult: 2
    decay_mult: 0
  }
  convolution_param {
    num_output: 16
    pad: 1
    kernel_size: 3
    stride: 1
    weight_filler {
      type: "msra"
    }
    bias_filler {
      type: "constant"
    }
  }
}
layer {
  name: "L1_b6_cbr1_bn"
  type: "BatchNorm"
  bottom: "L1_b6_cbr1_conv_top"
  top: "L1_b6_cbr1_bn_top"
  include {
    phase: TRAIN
  }
  batch_norm_param {
    use_global_stats: false
    moving_average_fraction: 0.95
  }
}
layer {
  name: "L1_b6_cbr1_scale"
  type: "Scale"
  bottom: "L1_b6_cbr1_bn_top"
  top: "L1_b6_cbr1_bn_top"
  scale_param {
    bias_term: true
  }
}
layer {
  name: "L1_b6_cbr1_relu"
  type: "ReLU"
  bottom: "L1_b6_cbr1_bn_top"
  top: "L1_b6_cbr1_bn_top"
}
layer {
  name: "L1_b6_cbr2_conv"
  type: "Convolution"
  bottom: "L1_b6_cbr1_bn_top"
  top: "L1_b6_cbr2_conv_top"
  param {
    lr_mult: 1
    decay_mult: 1
  }
  param {
    lr_mult: 2
    decay_mult: 0
  }
  convolution_param {
    num_output: 16
    pad: 1
    kernel_size: 3
    stride: 1
    weight_filler {
      type: "msra"
    }
    bias_filler {
      type: "constant"
    }
  }
}
layer {
  name: "L1_b6_cbr2_bn"
  type: "BatchNorm"
  bottom: "L1_b6_cbr2_conv_top"
  top: "L1_b6_cbr2_bn_top"
  include {
    phase: TRAIN
  }
  batch_norm_param {
    use_global_stats: false
    moving_average_fraction: 0.95
  }
}
layer {
  name: "L1_b6_cbr2_scale"
  type: "Scale"
  bottom: "L1_b6_cbr2_bn_top"
  top: "L1_b6_cbr2_bn_top"
  scale_param {
    bias_term: true
  }
}
layer {
  name: "L1_b6_sum_eltwise"
  type: "Eltwise"
  bottom: "L1_b6_cbr2_bn_top"
  bottom: "L1_b5_sum_eltwise_top"
  top: "L1_b6_sum_eltwise_top"
  eltwise_param {
    operation: SUM
  }
}
layer {
  name: "L1_b6_relu"
  type: "ReLU"
  bottom: "L1_b6_sum_eltwise_top"
  top: "L1_b6_sum_eltwise_top"
}
layer {
  name: "L1_b7_cbr1_conv"
  type: "Convolution"
  bottom: "L1_b6_sum_eltwise_top"
  top: "L1_b7_cbr1_conv_top"
  param {
    lr_mult: 1
    decay_mult: 1
  }
  param {
    lr_mult: 2
    decay_mult: 0
  }
  convolution_param {
    num_output: 16
    pad: 1
    kernel_size: 3
    stride: 1
    weight_filler {
      type: "msra"
    }
    bias_filler {
      type: "constant"
    }
  }
}
layer {
  name: "L1_b7_cbr1_bn"
  type: "BatchNorm"
  bottom: "L1_b7_cbr1_conv_top"
  top: "L1_b7_cbr1_bn_top"
  include {
    phase: TRAIN
  }
  batch_norm_param {
    use_global_stats: false
    moving_average_fraction: 0.95
  }
}
layer {
  name: "L1_b7_cbr1_scale"
  type: "Scale"
  bottom: "L1_b7_cbr1_bn_top"
  top: "L1_b7_cbr1_bn_top"
  scale_param {
    bias_term: true
  }
}
layer {
  name: "L1_b7_cbr1_relu"
  type: "ReLU"
  bottom: "L1_b7_cbr1_bn_top"
  top: "L1_b7_cbr1_bn_top"
}
layer {
  name: "L1_b7_cbr2_conv"
  type: "Convolution"
  bottom: "L1_b7_cbr1_bn_top"
  top: "L1_b7_cbr2_conv_top"
  param {
    lr_mult: 1
    decay_mult: 1
  }
  param {
    lr_mult: 2
    decay_mult: 0
  }
  convolution_param {
    num_output: 16
    pad: 1
    kernel_size: 3
    stride: 1
    weight_filler {
      type: "msra"
    }
    bias_filler {
      type: "constant"
    }
  }
}
layer {
  name: "L1_b7_cbr2_bn"
  type: "BatchNorm"
  bottom: "L1_b7_cbr2_conv_top"
  top: "L1_b7_cbr2_bn_top"
  include {
    phase: TRAIN
  }
  batch_norm_param {
    use_global_stats: false
    moving_average_fraction: 0.95
  }
}
layer {
  name: "L1_b7_cbr2_scale"
  type: "Scale"
  bottom: "L1_b7_cbr2_bn_top"
  top: "L1_b7_cbr2_bn_top"
  scale_param {
    bias_term: true
  }
}
layer {
  name: "L1_b7_sum_eltwise"
  type: "Eltwise"
  bottom: "L1_b7_cbr2_bn_top"
  bottom: "L1_b6_sum_eltwise_top"
  top: "L1_b7_sum_eltwise_top"
  eltwise_param {
    operation: SUM
  }
}
layer {
  name: "L1_b7_relu"
  type: "ReLU"
  bottom: "L1_b7_sum_eltwise_top"
  top: "L1_b7_sum_eltwise_top"
}
layer {
  name: "L1_b8_cbr1_conv"
  type: "Convolution"
  bottom: "L1_b7_sum_eltwise_top"
  top: "L1_b8_cbr1_conv_top"
  param {
    lr_mult: 1
    decay_mult: 1
  }
  param {
    lr_mult: 2
    decay_mult: 0
  }
  convolution_param {
    num_output: 16
    pad: 1
    kernel_size: 3
    stride: 1
    weight_filler {
      type: "msra"
    }
    bias_filler {
      type: "constant"
    }
  }
}
layer {
  name: "L1_b8_cbr1_bn"
  type: "BatchNorm"
  bottom: "L1_b8_cbr1_conv_top"
  top: "L1_b8_cbr1_bn_top"
  include {
    phase: TRAIN
  }
  batch_norm_param {
    use_global_stats: false
    moving_average_fraction: 0.95
  }
}
layer {
  name: "L1_b8_cbr1_scale"
  type: "Scale"
  bottom: "L1_b8_cbr1_bn_top"
  top: "L1_b8_cbr1_bn_top"
  scale_param {
    bias_term: true
  }
}
layer {
  name: "L1_b8_cbr1_relu"
  type: "ReLU"
  bottom: "L1_b8_cbr1_bn_top"
  top: "L1_b8_cbr1_bn_top"
}
layer {
  name: "L1_b8_cbr2_conv"
  type: "Convolution"
  bottom: "L1_b8_cbr1_bn_top"
  top: "L1_b8_cbr2_conv_top"
  param {
    lr_mult: 1
    decay_mult: 1
  }
  param {
    lr_mult: 2
    decay_mult: 0
  }
  convolution_param {
    num_output: 16
    pad: 1
    kernel_size: 3
    stride: 1
    weight_filler {
      type: "msra"
    }
    bias_filler {
      type: "constant"
    }
  }
}
layer {
  name: "L1_b8_cbr2_bn"
  type: "BatchNorm"
  bottom: "L1_b8_cbr2_conv_top"
  top: "L1_b8_cbr2_bn_top"
  include {
    phase: TRAIN
  }
  batch_norm_param {
    use_global_stats: false
    moving_average_fraction: 0.95
  }
}
layer {
  name: "L1_b8_cbr2_scale"
  type: "Scale"
  bottom: "L1_b8_cbr2_bn_top"
  top: "L1_b8_cbr2_bn_top"
  scale_param {
    bias_term: true
  }
}
layer {
  name: "L1_b8_sum_eltwise"
  type: "Eltwise"
  bottom: "L1_b8_cbr2_bn_top"
  bottom: "L1_b7_sum_eltwise_top"
  top: "L1_b8_sum_eltwise_top"
  eltwise_param {
    operation: SUM
  }
}
layer {
  name: "L1_b8_relu"
  type: "ReLU"
  bottom: "L1_b8_sum_eltwise_top"
  top: "L1_b8_sum_eltwise_top"
}
layer {
  name: "L1_b9_cbr1_conv"
  type: "Convolution"
  bottom: "L1_b8_sum_eltwise_top"
  top: "L1_b9_cbr1_conv_top"
  param {
    lr_mult: 1
    decay_mult: 1
  }
  param {
    lr_mult: 2
    decay_mult: 0
  }
  convolution_param {
    num_output: 16
    pad: 1
    kernel_size: 3
    stride: 1
    weight_filler {
      type: "msra"
    }
    bias_filler {
      type: "constant"
    }
  }
}
layer {
  name: "L1_b9_cbr1_bn"
  type: "BatchNorm"
  bottom: "L1_b9_cbr1_conv_top"
  top: "L1_b9_cbr1_bn_top"
  include {
    phase: TRAIN
  }
  batch_norm_param {
    use_global_stats: false
    moving_average_fraction: 0.95
  }
}
layer {
  name: "L1_b9_cbr1_scale"
  type: "Scale"
  bottom: "L1_b9_cbr1_bn_top"
  top: "L1_b9_cbr1_bn_top"
  scale_param {
    bias_term: true
  }
}
layer {
  name: "L1_b9_cbr1_relu"
  type: "ReLU"
  bottom: "L1_b9_cbr1_bn_top"
  top: "L1_b9_cbr1_bn_top"
}
layer {
  name: "L1_b9_cbr2_conv"
  type: "Convolution"
  bottom: "L1_b9_cbr1_bn_top"
  top: "L1_b9_cbr2_conv_top"
  param {
    lr_mult: 1
    decay_mult: 1
  }
  param {
    lr_mult: 2
    decay_mult: 0
  }
  convolution_param {
    num_output: 16
    pad: 1
    kernel_size: 3
    stride: 1
    weight_filler {
      type: "msra"
    }
    bias_filler {
      type: "constant"
    }
  }
}
layer {
  name: "L1_b9_cbr2_bn"
  type: "BatchNorm"
  bottom: "L1_b9_cbr2_conv_top"
  top: "L1_b9_cbr2_bn_top"
  include {
    phase: TRAIN
  }
  batch_norm_param {
    use_global_stats: false
    moving_average_fraction: 0.95
  }
}
layer {
  name: "L1_b9_cbr2_scale"
  type: "Scale"
  bottom: "L1_b9_cbr2_bn_top"
  top: "L1_b9_cbr2_bn_top"
  scale_param {
    bias_term: true
  }
}
layer {
  name: "L1_b9_sum_eltwise"
  type: "Eltwise"
  bottom: "L1_b9_cbr2_bn_top"
  bottom: "L1_b8_sum_eltwise_top"
  top: "L1_b9_sum_eltwise_top"
  eltwise_param {
    operation: SUM
  }
}
layer {
  name: "L1_b9_relu"
  type: "ReLU"
  bottom: "L1_b9_sum_eltwise_top"
  top: "L1_b9_sum_eltwise_top"
}
layer {
  name: "L1_b10_cbr1_conv"
  type: "Convolution"
  bottom: "L1_b9_sum_eltwise_top"
  top: "L1_b10_cbr1_conv_top"
  param {
    lr_mult: 1
    decay_mult: 1
  }
  param {
    lr_mult: 2
    decay_mult: 0
  }
  convolution_param {
    num_output: 16
    pad: 1
    kernel_size: 3
    stride: 1
    weight_filler {
      type: "msra"
    }
    bias_filler {
      type: "constant"
    }
  }
}
layer {
  name: "L1_b10_cbr1_bn"
  type: "BatchNorm"
  bottom: "L1_b10_cbr1_conv_top"
  top: "L1_b10_cbr1_bn_top"
  include {
    phase: TRAIN
  }
  batch_norm_param {
    use_global_stats: false
    moving_average_fraction: 0.95
  }
}
layer {
  name: "L1_b10_cbr1_scale"
  type: "Scale"
  bottom: "L1_b10_cbr1_bn_top"
  top: "L1_b10_cbr1_bn_top"
  scale_param {
    bias_term: true
  }
}
layer {
  name: "L1_b10_cbr1_relu"
  type: "ReLU"
  bottom: "L1_b10_cbr1_bn_top"
  top: "L1_b10_cbr1_bn_top"
}
layer {
  name: "L1_b10_cbr2_conv"
  type: "Convolution"
  bottom: "L1_b10_cbr1_bn_top"
  top: "L1_b10_cbr2_conv_top"
  param {
    lr_mult: 1
    decay_mult: 1
  }
  param {
    lr_mult: 2
    decay_mult: 0
  }
  convolution_param {
    num_output: 16
    pad: 1
    kernel_size: 3
    stride: 1
    weight_filler {
      type: "msra"
    }
    bias_filler {
      type: "constant"
    }
  }
}
layer {
  name: "L1_b10_cbr2_bn"
  type: "BatchNorm"
  bottom: "L1_b10_cbr2_conv_top"
  top: "L1_b10_cbr2_bn_top"
  include {
    phase: TRAIN
  }
  batch_norm_param {
    use_global_stats: false
    moving_average_fraction: 0.95
  }
}
layer {
  name: "L1_b10_cbr2_scale"
  type: "Scale"
  bottom: "L1_b10_cbr2_bn_top"
  top: "L1_b10_cbr2_bn_top"
  scale_param {
    bias_term: true
  }
}
layer {
  name: "L1_b10_sum_eltwise"
  type: "Eltwise"
  bottom: "L1_b10_cbr2_bn_top"
  bottom: "L1_b9_sum_eltwise_top"
  top: "L1_b10_sum_eltwise_top"
  eltwise_param {
    operation: SUM
  }
}
layer {
  name: "L1_b10_relu"
  type: "ReLU"
  bottom: "L1_b10_sum_eltwise_top"
  top: "L1_b10_sum_eltwise_top"
}
layer {
  name: "L1_b11_cbr1_conv"
  type: "Convolution"
  bottom: "L1_b10_sum_eltwise_top"
  top: "L1_b11_cbr1_conv_top"
  param {
    lr_mult: 1
    decay_mult: 1
  }
  param {
    lr_mult: 2
    decay_mult: 0
  }
  convolution_param {
    num_output: 16
    pad: 1
    kernel_size: 3
    stride: 1
    weight_filler {
      type: "msra"
    }
    bias_filler {
      type: "constant"
    }
  }
}
layer {
  name: "L1_b11_cbr1_bn"
  type: "BatchNorm"
  bottom: "L1_b11_cbr1_conv_top"
  top: "L1_b11_cbr1_bn_top"
  include {
    phase: TRAIN
  }
  batch_norm_param {
    use_global_stats: false
    moving_average_fraction: 0.95
  }
}
layer {
  name: "L1_b11_cbr1_scale"
  type: "Scale"
  bottom: "L1_b11_cbr1_bn_top"
  top: "L1_b11_cbr1_bn_top"
  scale_param {
    bias_term: true
  }
}
layer {
  name: "L1_b11_cbr1_relu"
  type: "ReLU"
  bottom: "L1_b11_cbr1_bn_top"
  top: "L1_b11_cbr1_bn_top"
}
layer {
  name: "L1_b11_cbr2_conv"
  type: "Convolution"
  bottom: "L1_b11_cbr1_bn_top"
  top: "L1_b11_cbr2_conv_top"
  param {
    lr_mult: 1
    decay_mult: 1
  }
  param {
    lr_mult: 2
    decay_mult: 0
  }
  convolution_param {
    num_output: 16
    pad: 1
    kernel_size: 3
    stride: 1
    weight_filler {
      type: "msra"
    }
    bias_filler {
      type: "constant"
    }
  }
}
layer {
  name: "L1_b11_cbr2_bn"
  type: "BatchNorm"
  bottom: "L1_b11_cbr2_conv_top"
  top: "L1_b11_cbr2_bn_top"
  include {
    phase: TRAIN
  }
  batch_norm_param {
    use_global_stats: false
    moving_average_fraction: 0.95
  }
}
layer {
  name: "L1_b11_cbr2_scale"
  type: "Scale"
  bottom: "L1_b11_cbr2_bn_top"
  top: "L1_b11_cbr2_bn_top"
  scale_param {
    bias_term: true
  }
}
layer {
  name: "L1_b11_sum_eltwise"
  type: "Eltwise"
  bottom: "L1_b11_cbr2_bn_top"
  bottom: "L1_b10_sum_eltwise_top"
  top: "L1_b11_sum_eltwise_top"
  eltwise_param {
    operation: SUM
  }
}
layer {
  name: "L1_b11_relu"
  type: "ReLU"
  bottom: "L1_b11_sum_eltwise_top"
  top: "L1_b11_sum_eltwise_top"
}
layer {
  name: "L1_b12_cbr1_conv"
  type: "Convolution"
  bottom: "L1_b11_sum_eltwise_top"
  top: "L1_b12_cbr1_conv_top"
  param {
    lr_mult: 1
    decay_mult: 1
  }
  param {
    lr_mult: 2
    decay_mult: 0
  }
  convolution_param {
    num_output: 16
    pad: 1
    kernel_size: 3
    stride: 1
    weight_filler {
      type: "msra"
    }
    bias_filler {
      type: "constant"
    }
  }
}
layer {
  name: "L1_b12_cbr1_bn"
  type: "BatchNorm"
  bottom: "L1_b12_cbr1_conv_top"
  top: "L1_b12_cbr1_bn_top"
  include {
    phase: TRAIN
  }
  batch_norm_param {
    use_global_stats: false
    moving_average_fraction: 0.95
  }
}
layer {
  name: "L1_b12_cbr1_scale"
  type: "Scale"
  bottom: "L1_b12_cbr1_bn_top"
  top: "L1_b12_cbr1_bn_top"
  scale_param {
    bias_term: true
  }
}
layer {
  name: "L1_b12_cbr1_relu"
  type: "ReLU"
  bottom: "L1_b12_cbr1_bn_top"
  top: "L1_b12_cbr1_bn_top"
}
layer {
  name: "L1_b12_cbr2_conv"
  type: "Convolution"
  bottom: "L1_b12_cbr1_bn_top"
  top: "L1_b12_cbr2_conv_top"
  param {
    lr_mult: 1
    decay_mult: 1
  }
  param {
    lr_mult: 2
    decay_mult: 0
  }
  convolution_param {
    num_output: 16
    pad: 1
    kernel_size: 3
    stride: 1
    weight_filler {
      type: "msra"
    }
    bias_filler {
      type: "constant"
    }
  }
}
layer {
  name: "L1_b12_cbr2_bn"
  type: "BatchNorm"
  bottom: "L1_b12_cbr2_conv_top"
  top: "L1_b12_cbr2_bn_top"
  include {
    phase: TRAIN
  }
  batch_norm_param {
    use_global_stats: false
    moving_average_fraction: 0.95
  }
}
layer {
  name: "L1_b12_cbr2_scale"
  type: "Scale"
  bottom: "L1_b12_cbr2_bn_top"
  top: "L1_b12_cbr2_bn_top"
  scale_param {
    bias_term: true
  }
}
layer {
  name: "L1_b12_sum_eltwise"
  type: "Eltwise"
  bottom: "L1_b12_cbr2_bn_top"
  bottom: "L1_b11_sum_eltwise_top"
  top: "L1_b12_sum_eltwise_top"
  eltwise_param {
    operation: SUM
  }
}
layer {
  name: "L1_b12_relu"
  type: "ReLU"
  bottom: "L1_b12_sum_eltwise_top"
  top: "L1_b12_sum_eltwise_top"
}
layer {
  name: "L1_b13_cbr1_conv"
  type: "Convolution"
  bottom: "L1_b12_sum_eltwise_top"
  top: "L1_b13_cbr1_conv_top"
  param {
    lr_mult: 1
    decay_mult: 1
  }
  param {
    lr_mult: 2
    decay_mult: 0
  }
  convolution_param {
    num_output: 16
    pad: 1
    kernel_size: 3
    stride: 1
    weight_filler {
      type: "msra"
    }
    bias_filler {
      type: "constant"
    }
  }
}
layer {
  name: "L1_b13_cbr1_bn"
  type: "BatchNorm"
  bottom: "L1_b13_cbr1_conv_top"
  top: "L1_b13_cbr1_bn_top"
  include {
    phase: TRAIN
  }
  batch_norm_param {
    use_global_stats: false
    moving_average_fraction: 0.95
  }
}
layer {
  name: "L1_b13_cbr1_scale"
  type: "Scale"
  bottom: "L1_b13_cbr1_bn_top"
  top: "L1_b13_cbr1_bn_top"
  scale_param {
    bias_term: true
  }
}
layer {
  name: "L1_b13_cbr1_relu"
  type: "ReLU"
  bottom: "L1_b13_cbr1_bn_top"
  top: "L1_b13_cbr1_bn_top"
}
layer {
  name: "L1_b13_cbr2_conv"
  type: "Convolution"
  bottom: "L1_b13_cbr1_bn_top"
  top: "L1_b13_cbr2_conv_top"
  param {
    lr_mult: 1
    decay_mult: 1
  }
  param {
    lr_mult: 2
    decay_mult: 0
  }
  convolution_param {
    num_output: 16
    pad: 1
    kernel_size: 3
    stride: 1
    weight_filler {
      type: "msra"
    }
    bias_filler {
      type: "constant"
    }
  }
}
layer {
  name: "L1_b13_cbr2_bn"
  type: "BatchNorm"
  bottom: "L1_b13_cbr2_conv_top"
  top: "L1_b13_cbr2_bn_top"
  include {
    phase: TRAIN
  }
  batch_norm_param {
    use_global_stats: false
    moving_average_fraction: 0.95
  }
}
layer {
  name: "L1_b13_cbr2_scale"
  type: "Scale"
  bottom: "L1_b13_cbr2_bn_top"
  top: "L1_b13_cbr2_bn_top"
  scale_param {
    bias_term: true
  }
}
layer {
  name: "L1_b13_sum_eltwise"
  type: "Eltwise"
  bottom: "L1_b13_cbr2_bn_top"
  bottom: "L1_b12_sum_eltwise_top"
  top: "L1_b13_sum_eltwise_top"
  eltwise_param {
    operation: SUM
  }
}
layer {
  name: "L1_b13_relu"
  type: "ReLU"
  bottom: "L1_b13_sum_eltwise_top"
  top: "L1_b13_sum_eltwise_top"
}
layer {
  name: "L1_b14_cbr1_conv"
  type: "Convolution"
  bottom: "L1_b13_sum_eltwise_top"
  top: "L1_b14_cbr1_conv_top"
  param {
    lr_mult: 1
    decay_mult: 1
  }
  param {
    lr_mult: 2
    decay_mult: 0
  }
  convolution_param {
    num_output: 16
    pad: 1
    kernel_size: 3
    stride: 1
    weight_filler {
      type: "msra"
    }
    bias_filler {
      type: "constant"
    }
  }
}
layer {
  name: "L1_b14_cbr1_bn"
  type: "BatchNorm"
  bottom: "L1_b14_cbr1_conv_top"
  top: "L1_b14_cbr1_bn_top"
  include {
    phase: TRAIN
  }
  batch_norm_param {
    use_global_stats: false
    moving_average_fraction: 0.95
  }
}
layer {
  name: "L1_b14_cbr1_scale"
  type: "Scale"
  bottom: "L1_b14_cbr1_bn_top"
  top: "L1_b14_cbr1_bn_top"
  scale_param {
    bias_term: true
  }
}
layer {
  name: "L1_b14_cbr1_relu"
  type: "ReLU"
  bottom: "L1_b14_cbr1_bn_top"
  top: "L1_b14_cbr1_bn_top"
}
layer {
  name: "L1_b14_cbr2_conv"
  type: "Convolution"
  bottom: "L1_b14_cbr1_bn_top"
  top: "L1_b14_cbr2_conv_top"
  param {
    lr_mult: 1
    decay_mult: 1
  }
  param {
    lr_mult: 2
    decay_mult: 0
  }
  convolution_param {
    num_output: 16
    pad: 1
    kernel_size: 3
    stride: 1
    weight_filler {
      type: "msra"
    }
    bias_filler {
      type: "constant"
    }
  }
}
layer {
  name: "L1_b14_cbr2_bn"
  type: "BatchNorm"
  bottom: "L1_b14_cbr2_conv_top"
  top: "L1_b14_cbr2_bn_top"
  include {
    phase: TRAIN
  }
  batch_norm_param {
    use_global_stats: false
    moving_average_fraction: 0.95
  }
}
layer {
  name: "L1_b14_cbr2_scale"
  type: "Scale"
  bottom: "L1_b14_cbr2_bn_top"
  top: "L1_b14_cbr2_bn_top"
  scale_param {
    bias_term: true
  }
}
layer {
  name: "L1_b14_sum_eltwise"
  type: "Eltwise"
  bottom: "L1_b14_cbr2_bn_top"
  bottom: "L1_b13_sum_eltwise_top"
  top: "L1_b14_sum_eltwise_top"
  eltwise_param {
    operation: SUM
  }
}
layer {
  name: "L1_b14_relu"
  type: "ReLU"
  bottom: "L1_b14_sum_eltwise_top"
  top: "L1_b14_sum_eltwise_top"
}
layer {
  name: "L1_b15_cbr1_conv"
  type: "Convolution"
  bottom: "L1_b14_sum_eltwise_top"
  top: "L1_b15_cbr1_conv_top"
  param {
    lr_mult: 1
    decay_mult: 1
  }
  param {
    lr_mult: 2
    decay_mult: 0
  }
  convolution_param {
    num_output: 16
    pad: 1
    kernel_size: 3
    stride: 1
    weight_filler {
      type: "msra"
    }
    bias_filler {
      type: "constant"
    }
  }
}
layer {
  name: "L1_b15_cbr1_bn"
  type: "BatchNorm"
  bottom: "L1_b15_cbr1_conv_top"
  top: "L1_b15_cbr1_bn_top"
  include {
    phase: TRAIN
  }
  batch_norm_param {
    use_global_stats: false
    moving_average_fraction: 0.95
  }
}
layer {
  name: "L1_b15_cbr1_scale"
  type: "Scale"
  bottom: "L1_b15_cbr1_bn_top"
  top: "L1_b15_cbr1_bn_top"
  scale_param {
    bias_term: true
  }
}
layer {
  name: "L1_b15_cbr1_relu"
  type: "ReLU"
  bottom: "L1_b15_cbr1_bn_top"
  top: "L1_b15_cbr1_bn_top"
}
layer {
  name: "L1_b15_cbr2_conv"
  type: "Convolution"
  bottom: "L1_b15_cbr1_bn_top"
  top: "L1_b15_cbr2_conv_top"
  param {
    lr_mult: 1
    decay_mult: 1
I0821 08:59:38.794114 32364 layer_factory.hpp:77] Creating layer dataLayer
I0821 08:59:38.796608 32364 net.cpp:100] Creating Layer dataLayer
I0821 08:59:38.796690 32364 net.cpp:408] dataLayer -> data_top
I0821 08:59:38.796897 32364 net.cpp:408] dataLayer -> label
I0821 08:59:38.797026 32364 data_transformer.cpp:25] Loading mean file from: examples/cifar10/mean.binaryproto
I0821 08:59:38.810976 32370 db_lmdb.cpp:35] Opened lmdb examples/cifar10/cifar10_train_lmdb
I0821 08:59:38.858021 32364 data_layer.cpp:41] output data size: 100,3,32,32
I0821 08:59:38.864029 32364 net.cpp:150] Setting up dataLayer
I0821 08:59:38.864112 32364 net.cpp:157] Top shape: 100 3 32 32 (307200)
I0821 08:59:38.864133 32364 net.cpp:157] Top shape: 100 (100)
I0821 08:59:38.864145 32364 net.cpp:165] Memory required for data: 1229200
I0821 08:59:38.864176 32364 layer_factory.hpp:77] Creating layer label_dataLayer_1_split
I0821 08:59:38.864200 32364 net.cpp:100] Creating Layer label_dataLayer_1_split
I0821 08:59:38.864214 32364 net.cpp:434] label_dataLayer_1_split <- label
I0821 08:59:38.864244 32364 net.cpp:408] label_dataLayer_1_split -> label_dataLayer_1_split_0
I0821 08:59:38.864271 32364 net.cpp:408] label_dataLayer_1_split -> label_dataLayer_1_split_1
I0821 08:59:38.864377 32364 net.cpp:150] Setting up label_dataLayer_1_split
I0821 08:59:38.864397 32364 net.cpp:157] Top shape: 100 (100)
I0821 08:59:38.864409 32364 net.cpp:157] Top shape: 100 (100)
I0821 08:59:38.864418 32364 net.cpp:165] Memory required for data: 1230000
I0821 08:59:38.864428 32364 layer_factory.hpp:77] Creating layer pre_conv
I0821 08:59:38.864511 32364 net.cpp:100] Creating Layer pre_conv
I0821 08:59:38.864526 32364 net.cpp:434] pre_conv <- data_top
I0821 08:59:38.864547 32364 net.cpp:408] pre_conv -> pre_conv_top
I0821 08:59:38.866408 32364 net.cpp:150] Setting up pre_conv
I0821 08:59:38.866433 32364 net.cpp:157] Top shape: 100 16 32 32 (1638400)
I0821 08:59:38.866444 32364 net.cpp:165] Memory required for data: 7783600
I0821 08:59:38.866526 32364 layer_factory.hpp:77] Creating layer pre_bn
I0821 08:59:38.866639 32364 net.cpp:100] Creating Layer pre_bn
I0821 08:59:38.866655 32364 net.cpp:434] pre_bn <- pre_conv_top
I0821 08:59:38.866672 32364 net.cpp:408] pre_bn -> pre_bn_top
I0821 08:59:38.866693 32371 blocking_queue.cpp:50] Waiting for data
I0821 08:59:38.867028 32364 net.cpp:150] Setting up pre_bn
I0821 08:59:38.867050 32364 net.cpp:157] Top shape: 100 16 32 32 (1638400)
I0821 08:59:38.867060 32364 net.cpp:165] Memory required for data: 14337200
I0821 08:59:38.867089 32364 layer_factory.hpp:77] Creating layer pre_scale
I0821 08:59:38.867166 32364 net.cpp:100] Creating Layer pre_scale
I0821 08:59:38.867182 32364 net.cpp:434] pre_scale <- pre_bn_top
I0821 08:59:38.867198 32364 net.cpp:395] pre_scale -> pre_bn_top (in-place)
I0821 08:59:38.867432 32364 layer_factory.hpp:77] Creating layer pre_scale
I0821 08:59:38.870558 32364 net.cpp:150] Setting up pre_scale
I0821 08:59:38.870584 32364 net.cpp:157] Top shape: 100 16 32 32 (1638400)
I0821 08:59:38.870594 32364 net.cpp:165] Memory required for data: 20890800
I0821 08:59:38.870615 32364 layer_factory.hpp:77] Creating layer pre_relu
I0821 08:59:38.870682 32364 net.cpp:100] Creating Layer pre_relu
I0821 08:59:38.870702 32364 net.cpp:434] pre_relu <- pre_bn_top
I0821 08:59:38.870718 32364 net.cpp:395] pre_relu -> pre_bn_top (in-place)
I0821 08:59:38.870738 32364 net.cpp:150] Setting up pre_relu
I0821 08:59:38.870754 32364 net.cpp:157] Top shape: 100 16 32 32 (1638400)
I0821 08:59:38.870764 32364 net.cpp:165] Memory required for data: 27444400
I0821 08:59:38.870774 32364 layer_factory.hpp:77] Creating layer pre_bn_top_pre_relu_0_split
I0821 08:59:38.870787 32364 net.cpp:100] Creating Layer pre_bn_top_pre_relu_0_split
I0821 08:59:38.870797 32364 net.cpp:434] pre_bn_top_pre_relu_0_split <- pre_bn_top
I0821 08:59:38.870815 32364 net.cpp:408] pre_bn_top_pre_relu_0_split -> pre_bn_top_pre_relu_0_split_0
I0821 08:59:38.870836 32364 net.cpp:408] pre_bn_top_pre_relu_0_split -> pre_bn_top_pre_relu_0_split_1
I0821 08:59:38.870910 32364 net.cpp:150] Setting up pre_bn_top_pre_relu_0_split
I0821 08:59:38.870929 32364 net.cpp:157] Top shape: 100 16 32 32 (1638400)
I0821 08:59:38.870942 32364 net.cpp:157] Top shape: 100 16 32 32 (1638400)
I0821 08:59:38.870951 32364 net.cpp:165] Memory required for data: 40551600
I0821 08:59:38.870962 32364 layer_factory.hpp:77] Creating layer L1_b1_cbr1_conv
I0821 08:59:38.870990 32364 net.cpp:100] Creating Layer L1_b1_cbr1_conv
I0821 08:59:38.871003 32364 net.cpp:434] L1_b1_cbr1_conv <- pre_bn_top_pre_relu_0_split_0
I0821 08:59:38.871021 32364 net.cpp:408] L1_b1_cbr1_conv -> L1_b1_cbr1_conv_top
I0821 08:59:38.871405 32364 net.cpp:150] Setting up L1_b1_cbr1_conv
I0821 08:59:38.871426 32364 net.cpp:157] Top shape: 100 16 32 32 (1638400)
I0821 08:59:38.871436 32364 net.cpp:165] Memory required for data: 47105200
I0821 08:59:38.871459 32364 layer_factory.hpp:77] Creating layer L1_b1_cbr1_bn
I0821 08:59:38.871485 32364 net.cpp:100] Creating Layer L1_b1_cbr1_bn
I0821 08:59:38.871497 32364 net.cpp:434] L1_b1_cbr1_bn <- L1_b1_cbr1_conv_top
I0821 08:59:38.871515 32364 net.cpp:408] L1_b1_cbr1_bn -> L1_b1_cbr1_bn_top
I0821 08:59:38.871772 32364 net.cpp:150] Setting up L1_b1_cbr1_bn
I0821 08:59:38.871790 32364 net.cpp:157] Top shape: 100 16 32 32 (1638400)
I0821 08:59:38.871800 32364 net.cpp:165] Memory required for data: 53658800
I0821 08:59:38.871821 32364 layer_factory.hpp:77] Creating layer L1_b1_cbr1_scale
I0821 08:59:38.871842 32364 net.cpp:100] Creating Layer L1_b1_cbr1_scale
I0821 08:59:38.871853 32364 net.cpp:434] L1_b1_cbr1_scale <- L1_b1_cbr1_bn_top
I0821 08:59:38.871870 32364 net.cpp:395] L1_b1_cbr1_scale -> L1_b1_cbr1_bn_top (in-place)
I0821 08:59:38.871959 32364 layer_factory.hpp:77] Creating layer L1_b1_cbr1_scale
I0821 08:59:38.872133 32364 net.cpp:150] Setting up L1_b1_cbr1_scale
I0821 08:59:38.872158 32364 net.cpp:157] Top shape: 100 16 32 32 (1638400)
I0821 08:59:38.872169 32364 net.cpp:165] Memory required for data: 60212400
I0821 08:59:38.872187 32364 layer_factory.hpp:77] Creating layer L1_b1_cbr1_relu
I0821 08:59:38.872202 32364 net.cpp:100] Creating Layer L1_b1_cbr1_relu
I0821 08:59:38.872213 32364 net.cpp:434] L1_b1_cbr1_relu <- L1_b1_cbr1_bn_top
I0821 08:59:38.872232 32364 net.cpp:395] L1_b1_cbr1_relu -> L1_b1_cbr1_bn_top (in-place)
I0821 08:59:38.872252 32364 net.cpp:150] Setting up L1_b1_cbr1_relu
I0821 08:59:38.872267 32364 net.cpp:157] Top shape: 100 16 32 32 (1638400)
I0821 08:59:38.872277 32364 net.cpp:165] Memory required for data: 66766000
I0821 08:59:38.872287 32364 layer_factory.hpp:77] Creating layer L1_b1_cbr2_conv
I0821 08:59:38.872314 32364 net.cpp:100] Creating Layer L1_b1_cbr2_conv
I0821 08:59:38.872326 32364 net.cpp:434] L1_b1_cbr2_conv <- L1_b1_cbr1_bn_top
I0821 08:59:38.872344 32364 net.cpp:408] L1_b1_cbr2_conv -> L1_b1_cbr2_conv_top
I0821 08:59:38.872699 32364 net.cpp:150] Setting up L1_b1_cbr2_conv
I0821 08:59:38.872725 32364 net.cpp:157] Top shape: 100 16 32 32 (1638400)
I0821 08:59:38.872736 32364 net.cpp:165] Memory required for data: 73319600
I0821 08:59:38.872755 32364 layer_factory.hpp:77] Creating layer L1_b1_cbr2_bn
I0821 08:59:38.872776 32364 net.cpp:100] Creating Layer L1_b1_cbr2_bn
I0821 08:59:38.872787 32364 net.cpp:434] L1_b1_cbr2_bn <- L1_b1_cbr2_conv_top
I0821 08:59:38.872803 32364 net.cpp:408] L1_b1_cbr2_bn -> L1_b1_cbr2_bn_top
I0821 08:59:38.873073 32364 net.cpp:150] Setting up L1_b1_cbr2_bn
I0821 08:59:38.873092 32364 net.cpp:157] Top shape: 100 16 32 32 (1638400)
I0821 08:59:38.873101 32364 net.cpp:165] Memory required for data: 79873200
I0821 08:59:38.873127 32364 layer_factory.hpp:77] Creating layer L1_b1_cbr2_scale
I0821 08:59:38.873157 32364 net.cpp:100] Creating Layer L1_b1_cbr2_scale
I0821 08:59:38.873172 32364 net.cpp:434] L1_b1_cbr2_scale <- L1_b1_cbr2_bn_top
I0821 08:59:38.873191 32364 net.cpp:395] L1_b1_cbr2_scale -> L1_b1_cbr2_bn_top (in-place)
I0821 08:59:38.873284 32364 layer_factory.hpp:77] Creating layer L1_b1_cbr2_scale
I0821 08:59:38.873457 32364 net.cpp:150] Setting up L1_b1_cbr2_scale
I0821 08:59:38.873476 32364 net.cpp:157] Top shape: 100 16 32 32 (1638400)
I0821 08:59:38.873486 32364 net.cpp:165] Memory required for data: 86426800
I0821 08:59:38.873504 32364 layer_factory.hpp:77] Creating layer L1_b1_sum_eltwise
I0821 08:59:38.873576 32364 net.cpp:100] Creating Layer L1_b1_sum_eltwise
I0821 08:59:38.873592 32364 net.cpp:434] L1_b1_sum_eltwise <- L1_b1_cbr2_bn_top
I0821 08:59:38.873610 32364 net.cpp:434] L1_b1_sum_eltwise <- pre_bn_top_pre_relu_0_split_1
I0821 08:59:38.873627 32364 net.cpp:408] L1_b1_sum_eltwise -> L1_b1_sum_eltwise_top
I0821 08:59:38.873726 32364 net.cpp:150] Setting up L1_b1_sum_eltwise
I0821 08:59:38.873746 32364 net.cpp:157] Top shape: 100 16 32 32 (1638400)
I0821 08:59:38.873756 32364 net.cpp:165] Memory required for data: 92980400
I0821 08:59:38.873766 32364 layer_factory.hpp:77] Creating layer L1_b1_relu
I0821 08:59:38.873781 32364 net.cpp:100] Creating Layer L1_b1_relu
I0821 08:59:38.873792 32364 net.cpp:434] L1_b1_relu <- L1_b1_sum_eltwise_top
I0821 08:59:38.873811 32364 net.cpp:395] L1_b1_relu -> L1_b1_sum_eltwise_top (in-place)
I0821 08:59:38.873831 32364 net.cpp:150] Setting up L1_b1_relu
I0821 08:59:38.873845 32364 net.cpp:157] Top shape: 100 16 32 32 (1638400)
I0821 08:59:38.873854 32364 net.cpp:165] Memory required for data: 99534000
I0821 08:59:38.873865 32364 layer_factory.hpp:77] Creating layer L1_b1_sum_eltwise_top_L1_b1_relu_0_split
I0821 08:59:38.873883 32364 net.cpp:100] Creating Layer L1_b1_sum_eltwise_top_L1_b1_relu_0_split
I0821 08:59:38.873893 32364 net.cpp:434] L1_b1_sum_eltwise_top_L1_b1_relu_0_split <- L1_b1_sum_eltwise_top
I0821 08:59:38.873908 32364 net.cpp:408] L1_b1_sum_eltwise_top_L1_b1_relu_0_split -> L1_b1_sum_eltwise_top_L1_b1_relu_0_split_0
I0821 08:59:38.873927 32364 net.cpp:408] L1_b1_sum_eltwise_top_L1_b1_relu_0_split -> L1_b1_sum_eltwise_top_L1_b1_relu_0_split_1
I0821 08:59:38.874003 32364 net.cpp:150] Setting up L1_b1_sum_eltwise_top_L1_b1_relu_0_split
I0821 08:59:38.874022 32364 net.cpp:157] Top shape: 100 16 32 32 (1638400)
I0821 08:59:38.874034 32364 net.cpp:157] Top shape: 100 16 32 32 (1638400)
I0821 08:59:38.874043 32364 net.cpp:165] Memory required for data: 112641200
I0821 08:59:38.874053 32364 layer_factory.hpp:77] Creating layer L1_b2_cbr1_conv
I0821 08:59:38.874073 32364 net.cpp:100] Creating Layer L1_b2_cbr1_conv
I0821 08:59:38.874085 32364 net.cpp:434] L1_b2_cbr1_conv <- L1_b1_sum_eltwise_top_L1_b1_relu_0_split_0
I0821 08:59:38.874109 32364 net.cpp:408] L1_b2_cbr1_conv -> L1_b2_cbr1_conv_top
I0821 08:59:38.874467 32364 net.cpp:150] Setting up L1_b2_cbr1_conv
I0821 08:59:38.874487 32364 net.cpp:157] Top shape: 100 16 32 32 (1638400)
I0821 08:59:38.874497 32364 net.cpp:165] Memory required for data: 119194800
I0821 08:59:38.874516 32364 layer_factory.hpp:77] Creating layer L1_b2_cbr1_bn
I0821 08:59:38.874532 32364 net.cpp:100] Creating Layer L1_b2_cbr1_bn
I0821 08:59:38.874544 32364 net.cpp:434] L1_b2_cbr1_bn <- L1_b2_cbr1_conv_top
I0821 08:59:38.874574 32364 net.cpp:408] L1_b2_cbr1_bn -> L1_b2_cbr1_bn_top
I0821 08:59:38.874860 32364 net.cpp:150] Setting up L1_b2_cbr1_bn
I0821 08:59:38.874883 32364 net.cpp:157] Top shape: 100 16 32 32 (1638400)
I0821 08:59:38.874893 32364 net.cpp:165] Memory required for data: 125748400
I0821 08:59:38.874917 32364 layer_factory.hpp:77] Creating layer L1_b2_cbr1_scale
I0821 08:59:38.874933 32364 net.cpp:100] Creating Layer L1_b2_cbr1_scale
I0821 08:59:38.874944 32364 net.cpp:434] L1_b2_cbr1_scale <- L1_b2_cbr1_bn_top
I0821 08:59:38.874959 32364 net.cpp:395] L1_b2_cbr1_scale -> L1_b2_cbr1_bn_top (in-place)
I0821 08:59:38.875048 32364 layer_factory.hpp:77] Creating layer L1_b2_cbr1_scale
I0821 08:59:38.875231 32364 net.cpp:150] Setting up L1_b2_cbr1_scale
I0821 08:59:38.875250 32364 net.cpp:157] Top shape: 100 16 32 32 (1638400)
I0821 08:59:38.875260 32364 net.cpp:165] Memory required for data: 132302000
I0821 08:59:38.875278 32364 layer_factory.hpp:77] Creating layer L1_b2_cbr1_relu
I0821 08:59:38.875298 32364 net.cpp:100] Creating Layer L1_b2_cbr1_relu
I0821 08:59:38.875310 32364 net.cpp:434] L1_b2_cbr1_relu <- L1_b2_cbr1_bn_top
I0821 08:59:38.875329 32364 net.cpp:395] L1_b2_cbr1_relu -> L1_b2_cbr1_bn_top (in-place)
I0821 08:59:38.875349 32364 net.cpp:150] Setting up L1_b2_cbr1_relu
I0821 08:59:38.875362 32364 net.cpp:157] Top shape: 100 16 32 32 (1638400)
I0821 08:59:38.875372 32364 net.cpp:165] Memory required for data: 138855600
I0821 08:59:38.875382 32364 layer_factory.hpp:77] Creating layer L1_b2_cbr2_conv
I0821 08:59:38.875402 32364 net.cpp:100] Creating Layer L1_b2_cbr2_conv
I0821 08:59:38.875414 32364 net.cpp:434] L1_b2_cbr2_conv <- L1_b2_cbr1_bn_top
I0821 08:59:38.875437 32364 net.cpp:408] L1_b2_cbr2_conv -> L1_b2_cbr2_conv_top
I0821 08:59:38.875783 32364 net.cpp:150] Setting up L1_b2_cbr2_conv
I0821 08:59:38.875802 32364 net.cpp:157] Top shape: 100 16 32 32 (1638400)
I0821 08:59:38.875813 32364 net.cpp:165] Memory required for data: 145409200
I0821 08:59:38.875830 32364 layer_factory.hpp:77] Creating layer L1_b2_cbr2_bn
I0821 08:59:38.875847 32364 net.cpp:100] Creating Layer L1_b2_cbr2_bn
I0821 08:59:38.875857 32364 net.cpp:434] L1_b2_cbr2_bn <- L1_b2_cbr2_conv_top
I0821 08:59:38.875881 32364 net.cpp:408] L1_b2_cbr2_bn -> L1_b2_cbr2_bn_top
I0821 08:59:38.876163 32364 net.cpp:150] Setting up L1_b2_cbr2_bn
I0821 08:59:38.876181 32364 net.cpp:157] Top shape: 100 16 32 32 (1638400)
I0821 08:59:38.876191 32364 net.cpp:165] Memory required for data: 151962800
I0821 08:59:38.876225 32364 layer_factory.hpp:77] Creating layer L1_b2_cbr2_scale
I0821 08:59:38.876243 32364 net.cpp:100] Creating Layer L1_b2_cbr2_scale
I0821 08:59:38.876256 32364 net.cpp:434] L1_b2_cbr2_scale <- L1_b2_cbr2_bn_top
I0821 08:59:38.876276 32364 net.cpp:395] L1_b2_cbr2_scale -> L1_b2_cbr2_bn_top (in-place)
I0821 08:59:38.876368 32364 layer_factory.hpp:77] Creating layer L1_b2_cbr2_scale
I0821 08:59:38.876540 32364 net.cpp:150] Setting up L1_b2_cbr2_scale
I0821 08:59:38.876559 32364 net.cpp:157] Top shape: 100 16 32 32 (1638400)
I0821 08:59:38.876569 32364 net.cpp:165] Memory required for data: 158516400
I0821 08:59:38.876586 32364 layer_factory.hpp:77] Creating layer L1_b2_sum_eltwise
I0821 08:59:38.876608 32364 net.cpp:100] Creating Layer L1_b2_sum_eltwise
I0821 08:59:38.876619 32364 net.cpp:434] L1_b2_sum_eltwise <- L1_b2_cbr2_bn_top
I0821 08:59:38.876633 32364 net.cpp:434] L1_b2_sum_eltwise <- L1_b1_sum_eltwise_top_L1_b1_relu_0_split_1
I0821 08:59:38.876649 32364 net.cpp:408] L1_b2_sum_eltwise -> L1_b2_sum_eltwise_top
I0821 08:59:38.876704 32364 net.cpp:150] Setting up L1_b2_sum_eltwise
I0821 08:59:38.876723 32364 net.cpp:157] Top shape: 100 16 32 32 (1638400)
I0821 08:59:38.876732 32364 net.cpp:165] Memory required for data: 165070000
I0821 08:59:38.876742 32364 layer_factory.hpp:77] Creating layer L1_b2_relu
I0821 08:59:38.876756 32364 net.cpp:100] Creating Layer L1_b2_relu
I0821 08:59:38.876768 32364 net.cpp:434] L1_b2_relu <- L1_b2_sum_eltwise_top
I0821 08:59:38.876782 32364 net.cpp:395] L1_b2_relu -> L1_b2_sum_eltwise_top (in-place)
I0821 08:59:38.876808 32364 net.cpp:150] Setting up L1_b2_relu
I0821 08:59:38.876824 32364 net.cpp:157] Top shape: 100 16 32 32 (1638400)
I0821 08:59:38.876833 32364 net.cpp:165] Memory required for data: 171623600
I0821 08:59:38.876843 32364 layer_factory.hpp:77] Creating layer L1_b2_sum_eltwise_top_L1_b2_relu_0_split
I0821 08:59:38.876857 32364 net.cpp:100] Creating Layer L1_b2_sum_eltwise_top_L1_b2_relu_0_split
I0821 08:59:38.876868 32364 net.cpp:434] L1_b2_sum_eltwise_top_L1_b2_relu_0_split <- L1_b2_sum_eltwise_top
I0821 08:59:38.876888 32364 net.cpp:408] L1_b2_sum_eltwise_top_L1_b2_relu_0_split -> L1_b2_sum_eltwise_top_L1_b2_relu_0_split_0
I0821 08:59:38.876909 32364 net.cpp:408] L1_b2_sum_eltwise_top_L1_b2_relu_0_split -> L1_b2_sum_eltwise_top_L1_b2_relu_0_split_1
I0821 08:59:38.876984 32364 net.cpp:150] Setting up L1_b2_sum_eltwise_top_L1_b2_relu_0_split
I0821 08:59:38.877002 32364 net.cpp:157] Top shape: 100 16 32 32 (1638400)
I0821 08:59:38.877017 32364 net.cpp:157] Top shape: 100 16 32 32 (1638400)
I0821 08:59:38.877025 32364 net.cpp:165] Memory required for data: 184730800
I0821 08:59:38.877037 32364 layer_factory.hpp:77] Creating layer L1_b3_cbr1_conv
I0821 08:59:38.877061 32364 net.cpp:100] Creating Layer L1_b3_cbr1_conv
I0821 08:59:38.877074 32364 net.cpp:434] L1_b3_cbr1_conv <- L1_b2_sum_eltwise_top_L1_b2_relu_0_split_0
I0821 08:59:38.877091 32364 net.cpp:408] L1_b3_cbr1_conv -> L1_b3_cbr1_conv_top
I0821 08:59:38.877452 32364 net.cpp:150] Setting up L1_b3_cbr1_conv
I0821 08:59:38.877472 32364 net.cpp:157] Top shape: 100 16 32 32 (1638400)
I0821 08:59:38.877482 32364 net.cpp:165] Memory required for data: 191284400
I0821 08:59:38.877501 32364 layer_factory.hpp:77] Creating layer L1_b3_cbr1_bn
I0821 08:59:38.877517 32364 net.cpp:100] Creating Layer L1_b3_cbr1_bn
I0821 08:59:38.877528 32364 net.cpp:434] L1_b3_cbr1_bn <- L1_b3_cbr1_conv_top
I0821 08:59:38.877550 32364 net.cpp:408] L1_b3_cbr1_bn -> L1_b3_cbr1_bn_top
I0821 08:59:38.877817 32364 net.cpp:150] Setting up L1_b3_cbr1_bn
I0821 08:59:38.877836 32364 net.cpp:157] Top shape: 100 16 32 32 (1638400)
I0821 08:59:38.877846 32364 net.cpp:165] Memory required for data: 197838000
I0821 08:59:38.877866 32364 layer_factory.hpp:77] Creating layer L1_b3_cbr1_scale
I0821 08:59:38.877883 32364 net.cpp:100] Creating Layer L1_b3_cbr1_scale
I0821 08:59:38.877893 32364 net.cpp:434] L1_b3_cbr1_scale <- L1_b3_cbr1_bn_top
I0821 08:59:38.877913 32364 net.cpp:395] L1_b3_cbr1_scale -> L1_b3_cbr1_bn_top (in-place)
I0821 08:59:38.878002 32364 layer_factory.hpp:77] Creating layer L1_b3_cbr1_scale
I0821 08:59:38.878190 32364 net.cpp:150] Setting up L1_b3_cbr1_scale
I0821 08:59:38.878213 32364 net.cpp:157] Top shape: 100 16 32 32 (1638400)
I0821 08:59:38.878223 32364 net.cpp:165] Memory required for data: 204391600
I0821 08:59:38.878242 32364 layer_factory.hpp:77] Creating layer L1_b3_cbr1_relu
I0821 08:59:38.878257 32364 net.cpp:100] Creating Layer L1_b3_cbr1_relu
I0821 08:59:38.878268 32364 net.cpp:434] L1_b3_cbr1_relu <- L1_b3_cbr1_bn_top
I0821 08:59:38.878283 32364 net.cpp:395] L1_b3_cbr1_relu -> L1_b3_cbr1_bn_top (in-place)
I0821 08:59:38.878301 32364 net.cpp:150] Setting up L1_b3_cbr1_relu
I0821 08:59:38.878315 32364 net.cpp:157] Top shape: 100 16 32 32 (1638400)
I0821 08:59:38.878324 32364 net.cpp:165] Memory required for data: 210945200
I0821 08:59:38.878334 32364 layer_factory.hpp:77] Creating layer L1_b3_cbr2_conv
I0821 08:59:38.878358 32364 net.cpp:100] Creating Layer L1_b3_cbr2_conv
I0821 08:59:38.878371 32364 net.cpp:434] L1_b3_cbr2_conv <- L1_b3_cbr1_bn_top
I0821 08:59:38.878392 32364 net.cpp:408] L1_b3_cbr2_conv -> L1_b3_cbr2_conv_top
I0821 08:59:38.878741 32364 net.cpp:150] Setting up L1_b3_cbr2_conv
I0821 08:59:38.878762 32364 net.cpp:157] Top shape: 100 16 32 32 (1638400)
I0821 08:59:38.878770 32364 net.cpp:165] Memory required for data: 217498800
I0821 08:59:38.878788 32364 layer_factory.hpp:77] Creating layer L1_b3_cbr2_bn
I0821 08:59:38.878818 32364 net.cpp:100] Creating Layer L1_b3_cbr2_bn
I0821 08:59:38.878830 32364 net.cpp:434] L1_b3_cbr2_bn <- L1_b3_cbr2_conv_top
I0821 08:59:38.878856 32364 net.cpp:408] L1_b3_cbr2_bn -> L1_b3_cbr2_bn_top
I0821 08:59:38.879163 32364 net.cpp:150] Setting up L1_b3_cbr2_bn
I0821 08:59:38.879184 32364 net.cpp:157] Top shape: 100 16 32 32 (1638400)
I0821 08:59:38.879194 32364 net.cpp:165] Memory required for data: 224052400
I0821 08:59:38.879215 32364 layer_factory.hpp:77] Creating layer L1_b3_cbr2_scale
I0821 08:59:38.879231 32364 net.cpp:100] Creating Layer L1_b3_cbr2_scale
I0821 08:59:38.879242 32364 net.cpp:434] L1_b3_cbr2_scale <- L1_b3_cbr2_bn_top
I0821 08:59:38.879262 32364 net.cpp:395] L1_b3_cbr2_scale -> L1_b3_cbr2_bn_top (in-place)
I0821 08:59:38.879349 32364 layer_factory.hpp:77] Creating layer L1_b3_cbr2_scale
I0821 08:59:38.879519 32364 net.cpp:150] Setting up L1_b3_cbr2_scale
I0821 08:59:38.879542 32364 net.cpp:157] Top shape: 100 16 32 32 (1638400)
I0821 08:59:38.879552 32364 net.cpp:165] Memory required for data: 230606000
I0821 08:59:38.879570 32364 layer_factory.hpp:77] Creating layer L1_b3_sum_eltwise
I0821 08:59:38.879587 32364 net.cpp:100] Creating Layer L1_b3_sum_eltwise
I0821 08:59:38.879597 32364 net.cpp:434] L1_b3_sum_eltwise <- L1_b3_cbr2_bn_top
I0821 08:59:38.879611 32364 net.cpp:434] L1_b3_sum_eltwise <- L1_b2_sum_eltwise_top_L1_b2_relu_0_split_1
I0821 08:59:38.879626 32364 net.cpp:408] L1_b3_sum_eltwise -> L1_b3_sum_eltwise_top
I0821 08:59:38.879683 32364 net.cpp:150] Setting up L1_b3_sum_eltwise
I0821 08:59:38.879701 32364 net.cpp:157] Top shape: 100 16 32 32 (1638400)
I0821 08:59:38.879710 32364 net.cpp:165] Memory required for data: 237159600
I0821 08:59:38.879720 32364 layer_factory.hpp:77] Creating layer L1_b3_relu
I0821 08:59:38.879739 32364 net.cpp:100] Creating Layer L1_b3_relu
I0821 08:59:38.879751 32364 net.cpp:434] L1_b3_relu <- L1_b3_sum_eltwise_top
I0821 08:59:38.879765 32364 net.cpp:395] L1_b3_relu -> L1_b3_sum_eltwise_top (in-place)
I0821 08:59:38.879782 32364 net.cpp:150] Setting up L1_b3_relu
I0821 08:59:38.879796 32364 net.cpp:157] Top shape: 100 16 32 32 (1638400)
I0821 08:59:38.879806 32364 net.cpp:165] Memory required for data: 243713200
I0821 08:59:38.879815 32364 layer_factory.hpp:77] Creating layer L1_b3_sum_eltwise_top_L1_b3_relu_0_split
I0821 08:59:38.879833 32364 net.cpp:100] Creating Layer L1_b3_sum_eltwise_top_L1_b3_relu_0_split
I0821 08:59:38.879845 32364 net.cpp:434] L1_b3_sum_eltwise_top_L1_b3_relu_0_split <- L1_b3_sum_eltwise_top
I0821 08:59:38.879860 32364 net.cpp:408] L1_b3_sum_eltwise_top_L1_b3_relu_0_split -> L1_b3_sum_eltwise_top_L1_b3_relu_0_split_0
I0821 08:59:38.879881 32364 net.cpp:408] L1_b3_sum_eltwise_top_L1_b3_relu_0_split -> L1_b3_sum_eltwise_top_L1_b3_relu_0_split_1
I0821 08:59:38.879956 32364 net.cpp:150] Setting up L1_b3_sum_eltwise_top_L1_b3_relu_0_split
I0821 08:59:38.879978 32364 net.cpp:157] Top shape: 100 16 32 32 (1638400)
I0821 08:59:38.879992 32364 net.cpp:157] Top shape: 100 16 32 32 (1638400)
I0821 08:59:38.880002 32364 net.cpp:165] Memory required for data: 256820400
I0821 08:59:38.880013 32364 layer_factory.hpp:77] Creating layer L1_b4_cbr1_conv
I0821 08:59:38.880033 32364 net.cpp:100] Creating Layer L1_b4_cbr1_conv
I0821 08:59:38.880045 32364 net.cpp:434] L1_b4_cbr1_conv <- L1_b3_sum_eltwise_top_L1_b3_relu_0_split_0
I0821 08:59:38.880064 32364 net.cpp:408] L1_b4_cbr1_conv -> L1_b4_cbr1_conv_top
I0821 08:59:38.880431 32364 net.cpp:150] Setting up L1_b4_cbr1_conv
I0821 08:59:38.880451 32364 net.cpp:157] Top shape: 100 16 32 32 (1638400)
I0821 08:59:38.880460 32364 net.cpp:165] Memory required for data: 263374000
I0821 08:59:38.880478 32364 layer_factory.hpp:77] Creating layer L1_b4_cbr1_bn
I0821 08:59:38.880501 32364 net.cpp:100] Creating Layer L1_b4_cbr1_bn
I0821 08:59:38.880512 32364 net.cpp:434] L1_b4_cbr1_bn <- L1_b4_cbr1_conv_top
I0821 08:59:38.880529 32364 net.cpp:408] L1_b4_cbr1_bn -> L1_b4_cbr1_bn_top
I0821 08:59:38.880803 32364 net.cpp:150] Setting up L1_b4_cbr1_bn
I0821 08:59:38.880822 32364 net.cpp:157] Top shape: 100 16 32 32 (1638400)
I0821 08:59:38.880832 32364 net.cpp:165] Memory required for data: 269927600
I0821 08:59:38.880862 32364 layer_factory.hpp:77] Creating layer L1_b4_cbr1_scale
I0821 08:59:38.880879 32364 net.cpp:100] Creating Layer L1_b4_cbr1_scale
I0821 08:59:38.880890 32364 net.cpp:434] L1_b4_cbr1_scale <- L1_b4_cbr1_bn_top
I0821 08:59:38.880910 32364 net.cpp:395] L1_b4_cbr1_scale -> L1_b4_cbr1_bn_top (in-place)
I0821 08:59:38.881006 32364 layer_factory.hpp:77] Creating layer L1_b4_cbr1_scale
I0821 08:59:38.881196 32364 net.cpp:150] Setting up L1_b4_cbr1_scale
I0821 08:59:38.881216 32364 net.cpp:157] Top shape: 100 16 32 32 (1638400)
I0821 08:59:38.881225 32364 net.cpp:165] Memory required for data: 276481200
I0821 08:59:38.881244 32364 layer_factory.hpp:77] Creating layer L1_b4_cbr1_relu
I0821 08:59:38.881260 32364 net.cpp:100] Creating Layer L1_b4_cbr1_relu
I0821 08:59:38.881271 32364 net.cpp:434] L1_b4_cbr1_relu <- L1_b4_cbr1_bn_top
I0821 08:59:38.881284 32364 net.cpp:395] L1_b4_cbr1_relu -> L1_b4_cbr1_bn_top (in-place)
I0821 08:59:38.881304 32364 net.cpp:150] Setting up L1_b4_cbr1_relu
I0821 08:59:38.881319 32364 net.cpp:157] Top shape: 100 16 32 32 (1638400)
I0821 08:59:38.881327 32364 net.cpp:165] Memory required for data: 283034800
I0821 08:59:38.881336 32364 layer_factory.hpp:77] Creating layer L1_b4_cbr2_conv
I0821 08:59:38.881361 32364 net.cpp:100] Creating Layer L1_b4_cbr2_conv
I0821 08:59:38.881374 32364 net.cpp:434] L1_b4_cbr2_conv <- L1_b4_cbr1_bn_top
I0821 08:59:38.881397 32364 net.cpp:408] L1_b4_cbr2_conv -> L1_b4_cbr2_conv_top
I0821 08:59:38.881752 32364 net.cpp:150] Setting up L1_b4_cbr2_conv
I0821 08:59:38.881772 32364 net.cpp:157] Top shape: 100 16 32 32 (1638400)
I0821 08:59:38.881781 32364 net.cpp:165] Memory required for data: 289588400
I0821 08:59:38.881798 32364 layer_factory.hpp:77] Creating layer L1_b4_cbr2_bn
I0821 08:59:38.881819 32364 net.cpp:100] Creating Layer L1_b4_cbr2_bn
I0821 08:59:38.881831 32364 net.cpp:434] L1_b4_cbr2_bn <- L1_b4_cbr2_conv_top
I0821 08:59:38.881852 32364 net.cpp:408] L1_b4_cbr2_bn -> L1_b4_cbr2_bn_top
I0821 08:59:38.882123 32364 net.cpp:150] Setting up L1_b4_cbr2_bn
I0821 08:59:38.882143 32364 net.cpp:157] Top shape: 100 16 32 32 (1638400)
I0821 08:59:38.882159 32364 net.cpp:165] Memory required for data: 296142000
I0821 08:59:38.882181 32364 layer_factory.hpp:77] Creating layer L1_b4_cbr2_scale
I0821 08:59:38.882203 32364 net.cpp:100] Creating Layer L1_b4_cbr2_scale
I0821 08:59:38.882215 32364 net.cpp:434] L1_b4_cbr2_scale <- L1_b4_cbr2_bn_top
I0821 08:59:38.882231 32364 net.cpp:395] L1_b4_cbr2_scale -> L1_b4_cbr2_bn_top (in-place)
I0821 08:59:38.882316 32364 layer_factory.hpp:77] Creating layer L1_b4_cbr2_scale
I0821 08:59:38.882488 32364 net.cpp:150] Setting up L1_b4_cbr2_scale
I0821 08:59:38.882506 32364 net.cpp:157] Top shape: 100 16 32 32 (1638400)
I0821 08:59:38.882516 32364 net.cpp:165] Memory required for data: 302695600
I0821 08:59:38.882534 32364 layer_factory.hpp:77] Creating layer L1_b4_sum_eltwise
I0821 08:59:38.882550 32364 net.cpp:100] Creating Layer L1_b4_sum_eltwise
I0821 08:59:38.882561 32364 net.cpp:434] L1_b4_sum_eltwise <- L1_b4_cbr2_bn_top
I0821 08:59:38.882575 32364 net.cpp:434] L1_b4_sum_eltwise <- L1_b3_sum_eltwise_top_L1_b3_relu_0_split_1
I0821 08:59:38.882596 32364 net.cpp:408] L1_b4_sum_eltwise -> L1_b4_sum_eltwise_top
I0821 08:59:38.882647 32364 net.cpp:150] Setting up L1_b4_sum_eltwise
I0821 08:59:38.882673 32364 net.cpp:157] Top shape: 100 16 32 32 (1638400)
I0821 08:59:38.882683 32364 net.cpp:165] Memory required for data: 309249200
I0821 08:59:38.882692 32364 layer_factory.hpp:77] Creating layer L1_b4_relu
I0821 08:59:38.882707 32364 net.cpp:100] Creating Layer L1_b4_relu
I0821 08:59:38.882719 32364 net.cpp:434] L1_b4_relu <- L1_b4_sum_eltwise_top
I0821 08:59:38.882732 32364 net.cpp:395] L1_b4_relu -> L1_b4_sum_eltwise_top (in-place)
I0821 08:59:38.882750 32364 net.cpp:150] Setting up L1_b4_relu
I0821 08:59:38.882766 32364 net.cpp:157] Top shape: 100 16 32 32 (1638400)
I0821 08:59:38.882774 32364 net.cpp:165] Memory required for data: 315802800
I0821 08:59:38.882784 32364 layer_factory.hpp:77] Creating layer L1_b4_sum_eltwise_top_L1_b4_relu_0_split
I0821 08:59:38.882810 32364 net.cpp:100] Creating Layer L1_b4_sum_eltwise_top_L1_b4_relu_0_split
I0821 08:59:38.882822 32364 net.cpp:434] L1_b4_sum_eltwise_top_L1_b4_relu_0_split <- L1_b4_sum_eltwise_top
I0821 08:59:38.882838 32364 net.cpp:408] L1_b4_sum_eltwise_top_L1_b4_relu_0_split -> L1_b4_sum_eltwise_top_L1_b4_relu_0_split_0
I0821 08:59:38.882858 32364 net.cpp:408] L1_b4_sum_eltwise_top_L1_b4_relu_0_split -> L1_b4_sum_eltwise_top_L1_b4_relu_0_split_1
I0821 08:59:38.882936 32364 net.cpp:150] Setting up L1_b4_sum_eltwise_top_L1_b4_relu_0_split
I0821 08:59:38.882958 32364 net.cpp:157] Top shape: 100 16 32 32 (1638400)
I0821 08:59:38.882972 32364 net.cpp:157] Top shape: 100 16 32 32 (1638400)
I0821 08:59:38.882982 32364 net.cpp:165] Memory required for data: 328910000
I0821 08:59:38.882992 32364 layer_factory.hpp:77] Creating layer L1_b5_cbr1_conv
I0821 08:59:38.883011 32364 net.cpp:100] Creating Layer L1_b5_cbr1_conv
I0821 08:59:38.883023 32364 net.cpp:434] L1_b5_cbr1_conv <- L1_b4_sum_eltwise_top_L1_b4_relu_0_split_0
I0821 08:59:38.883045 32364 net.cpp:408] L1_b5_cbr1_conv -> L1_b5_cbr1_conv_top
I0821 08:59:38.883410 32364 net.cpp:150] Setting up L1_b5_cbr1_conv
I0821 08:59:38.883430 32364 net.cpp:157] Top shape: 100 16 32 32 (1638400)
I0821 08:59:38.883440 32364 net.cpp:165] Memory required for data: 335463600
I0821 08:59:38.883474 32364 layer_factory.hpp:77] Creating layer L1_b5_cbr1_bn
I0821 08:59:38.883496 32364 net.cpp:100] Creating Layer L1_b5_cbr1_bn
I0821 08:59:38.883508 32364 net.cpp:434] L1_b5_cbr1_bn <- L1_b5_cbr1_conv_top
I0821 08:59:38.883529 32364 net.cpp:408] L1_b5_cbr1_bn -> L1_b5_cbr1_bn_top
I0821 08:59:38.883811 32364 net.cpp:150] Setting up L1_b5_cbr1_bn
I0821 08:59:38.883831 32364 net.cpp:157] Top shape: 100 16 32 32 (1638400)
I0821 08:59:38.883841 32364 net.cpp:165] Memory required for data: 342017200
I0821 08:59:38.883862 32364 layer_factory.hpp:77] Creating layer L1_b5_cbr1_scale
I0821 08:59:38.883883 32364 net.cpp:100] Creating Layer L1_b5_cbr1_scale
I0821 08:59:38.883895 32364 net.cpp:434] L1_b5_cbr1_scale <- L1_b5_cbr1_bn_top
I0821 08:59:38.883911 32364 net.cpp:395] L1_b5_cbr1_scale -> L1_b5_cbr1_bn_top (in-place)
I0821 08:59:38.883996 32364 layer_factory.hpp:77] Creating layer L1_b5_cbr1_scale
I0821 08:59:38.884176 32364 net.cpp:150] Setting up L1_b5_cbr1_scale
I0821 08:59:38.884194 32364 net.cpp:157] Top shape: 100 16 32 32 (1638400)
I0821 08:59:38.884204 32364 net.cpp:165] Memory required for data: 348570800
I0821 08:59:38.884222 32364 layer_factory.hpp:77] Creating layer L1_b5_cbr1_relu
I0821 08:59:38.884238 32364 net.cpp:100] Creating Layer L1_b5_cbr1_relu
I0821 08:59:38.884248 32364 net.cpp:434] L1_b5_cbr1_relu <- L1_b5_cbr1_bn_top
I0821 08:59:38.884268 32364 net.cpp:395] L1_b5_cbr1_relu -> L1_b5_cbr1_bn_top (in-place)
I0821 08:59:38.884287 32364 net.cpp:150] Setting up L1_b5_cbr1_relu
I0821 08:59:38.884301 32364 net.cpp:157] Top shape: 100 16 32 32 (1638400)
I0821 08:59:38.884311 32364 net.cpp:165] Memory required for data: 355124400
I0821 08:59:38.884321 32364 layer_factory.hpp:77] Creating layer L1_b5_cbr2_conv
I0821 08:59:38.884346 32364 net.cpp:100] Creating Layer L1_b5_cbr2_conv
I0821 08:59:38.884359 32364 net.cpp:434] L1_b5_cbr2_conv <- L1_b5_cbr1_bn_top
I0821 08:59:38.884377 32364 net.cpp:408] L1_b5_cbr2_conv -> L1_b5_cbr2_conv_top
I0821 08:59:38.884734 32364 net.cpp:150] Setting up L1_b5_cbr2_conv
I0821 08:59:38.884754 32364 net.cpp:157] Top shape: 100 16 32 32 (1638400)
I0821 08:59:38.884763 32364 net.cpp:165] Memory required for data: 361678000
I0821 08:59:38.884781 32364 layer_factory.hpp:77] Creating layer L1_b5_cbr2_bn
I0821 08:59:38.884802 32364 net.cpp:100] Creating Layer L1_b5_cbr2_bn
I0821 08:59:38.884814 32364 net.cpp:434] L1_b5_cbr2_bn <- L1_b5_cbr2_conv_top
I0821 08:59:38.884830 32364 net.cpp:408] L1_b5_cbr2_bn -> L1_b5_cbr2_bn_top
I0821 08:59:38.885104 32364 net.cpp:150] Setting up L1_b5_cbr2_bn
I0821 08:59:38.885123 32364 net.cpp:157] Top shape: 100 16 32 32 (1638400)
I0821 08:59:38.885133 32364 net.cpp:165] Memory required for data: 368231600
I0821 08:59:38.885169 32364 layer_factory.hpp:77] Creating layer L1_b5_cbr2_scale
I0821 08:59:38.885187 32364 net.cpp:100] Creating Layer L1_b5_cbr2_scale
I0821 08:59:38.885200 32364 net.cpp:434] L1_b5_cbr2_scale <- L1_b5_cbr2_bn_top
I0821 08:59:38.885220 32364 net.cpp:395] L1_b5_cbr2_scale -> L1_b5_cbr2_bn_top (in-place)
I0821 08:59:38.885313 32364 layer_factory.hpp:77] Creating layer L1_b5_cbr2_scale
I0821 08:59:38.885488 32364 net.cpp:150] Setting up L1_b5_cbr2_scale
I0821 08:59:38.885512 32364 net.cpp:157] Top shape: 100 16 32 32 (1638400)
I0821 08:59:38.885524 32364 net.cpp:165] Memory required for data: 374785200
I0821 08:59:38.885540 32364 layer_factory.hpp:77] Creating layer L1_b5_sum_eltwise
I0821 08:59:38.885557 32364 net.cpp:100] Creating Layer L1_b5_sum_eltwise
I0821 08:59:38.885570 32364 net.cpp:434] L1_b5_sum_eltwise <- L1_b5_cbr2_bn_top
I0821 08:59:38.885582 32364 net.cpp:434] L1_b5_sum_eltwise <- L1_b4_sum_eltwise_top_L1_b4_relu_0_split_1
I0821 08:59:38.885598 32364 net.cpp:408] L1_b5_sum_eltwise -> L1_b5_sum_eltwise_top
I0821 08:59:38.885653 32364 net.cpp:150] Setting up L1_b5_sum_eltwise
I0821 08:59:38.885670 32364 net.cpp:157] Top shape: 100 16 32 32 (1638400)
I0821 08:59:38.885680 32364 net.cpp:165] Memory required for data: 381338800
I0821 08:59:38.885689 32364 layer_factory.hpp:77] Creating layer L1_b5_relu
I0821 08:59:38.885709 32364 net.cpp:100] Creating Layer L1_b5_relu
I0821 08:59:38.885720 32364 net.cpp:434] L1_b5_relu <- L1_b5_sum_eltwise_top
I0821 08:59:38.885735 32364 net.cpp:395] L1_b5_relu -> L1_b5_sum_eltwise_top (in-place)
I0821 08:59:38.885753 32364 net.cpp:150] Setting up L1_b5_relu
I0821 08:59:38.885768 32364 net.cpp:157] Top shape: 100 16 32 32 (1638400)
I0821 08:59:38.885776 32364 net.cpp:165] Memory required for data: 387892400
I0821 08:59:38.885787 32364 layer_factory.hpp:77] Creating layer L1_b5_sum_eltwise_top_L1_b5_relu_0_split
I0821 08:59:38.885805 32364 net.cpp:100] Creating Layer L1_b5_sum_eltwise_top_L1_b5_relu_0_split
I0821 08:59:38.885818 32364 net.cpp:434] L1_b5_sum_eltwise_top_L1_b5_relu_0_split <- L1_b5_sum_eltwise_top
I0821 08:59:38.885833 32364 net.cpp:408] L1_b5_sum_eltwise_top_L1_b5_relu_0_split -> L1_b5_sum_eltwise_top_L1_b5_relu_0_split_0
I0821 08:59:38.885851 32364 net.cpp:408] L1_b5_sum_eltwise_top_L1_b5_relu_0_split -> L1_b5_sum_eltwise_top_L1_b5_relu_0_split_1
I0821 08:59:38.885926 32364 net.cpp:150] Setting up L1_b5_sum_eltwise_top_L1_b5_relu_0_split
I0821 08:59:38.885949 32364 net.cpp:157] Top shape: 100 16 32 32 (1638400)
I0821 08:59:38.885962 32364 net.cpp:157] Top shape: 100 16 32 32 (1638400)
I0821 08:59:38.885972 32364 net.cpp:165] Memory required for data: 400999600
I0821 08:59:38.885983 32364 layer_factory.hpp:77] Creating layer L1_b6_cbr1_conv
I0821 08:59:38.886003 32364 net.cpp:100] Creating Layer L1_b6_cbr1_conv
I0821 08:59:38.886015 32364 net.cpp:434] L1_b6_cbr1_conv <- L1_b5_sum_eltwise_top_L1_b5_relu_0_split_0
I0821 08:59:38.886034 32364 net.cpp:408] L1_b6_cbr1_conv -> L1_b6_cbr1_conv_top
I0821 08:59:38.886400 32364 net.cpp:150] Setting up L1_b6_cbr1_conv
I0821 08:59:38.886420 32364 net.cpp:157] Top shape: 100 16 32 32 (1638400)
I0821 08:59:38.886430 32364 net.cpp:165] Memory required for data: 407553200
I0821 08:59:38.886448 32364 layer_factory.hpp:77] Creating layer L1_b6_cbr1_bn
I0821 08:59:38.886469 32364 net.cpp:100] Creating Layer L1_b6_cbr1_bn
I0821 08:59:38.886482 32364 net.cpp:434] L1_b6_cbr1_bn <- L1_b6_cbr1_conv_top
I0821 08:59:38.886498 32364 net.cpp:408] L1_b6_cbr1_bn -> L1_b6_cbr1_bn_top
I0821 08:59:38.886768 32364 net.cpp:150] Setting up L1_b6_cbr1_bn
I0821 08:59:38.886787 32364 net.cpp:157] Top shape: 100 16 32 32 (1638400)
I0821 08:59:38.886797 32364 net.cpp:165] Memory required for data: 414106800
I0821 08:59:38.886819 32364 layer_factory.hpp:77] Creating layer L1_b6_cbr1_scale
I0821 08:59:38.886835 32364 net.cpp:100] Creating Layer L1_b6_cbr1_scale
I0821 08:59:38.886847 32364 net.cpp:434] L1_b6_cbr1_scale <- L1_b6_cbr1_bn_top
I0821 08:59:38.886867 32364 net.cpp:395] L1_b6_cbr1_scale -> L1_b6_cbr1_bn_top (in-place)
I0821 08:59:38.886970 32364 layer_factory.hpp:77] Creating layer L1_b6_cbr1_scale
I0821 08:59:38.887161 32364 net.cpp:150] Setting up L1_b6_cbr1_scale
I0821 08:59:38.887181 32364 net.cpp:157] Top shape: 100 16 32 32 (1638400)
I0821 08:59:38.887190 32364 net.cpp:165] Memory required for data: 420660400
I0821 08:59:38.887209 32364 layer_factory.hpp:77] Creating layer L1_b6_cbr1_relu
I0821 08:59:38.887225 32364 net.cpp:100] Creating Layer L1_b6_cbr1_relu
I0821 08:59:38.887236 32364 net.cpp:434] L1_b6_cbr1_relu <- L1_b6_cbr1_bn_top
I0821 08:59:38.887250 32364 net.cpp:395] L1_b6_cbr1_relu -> L1_b6_cbr1_bn_top (in-place)
I0821 08:59:38.887270 32364 net.cpp:150] Setting up L1_b6_cbr1_relu
I0821 08:59:38.887284 32364 net.cpp:157] Top shape: 100 16 32 32 (1638400)
I0821 08:59:38.887295 32364 net.cpp:165] Memory required for data: 427214000
I0821 08:59:38.887303 32364 layer_factory.hpp:77] Creating layer L1_b6_cbr2_conv
I0821 08:59:38.887328 32364 net.cpp:100] Creating Layer L1_b6_cbr2_conv
I0821 08:59:38.887342 32364 net.cpp:434] L1_b6_cbr2_conv <- L1_b6_cbr1_bn_top
I0821 08:59:38.887364 32364 net.cpp:408] L1_b6_cbr2_conv -> L1_b6_cbr2_conv_top
I0821 08:59:38.887720 32364 net.cpp:150] Setting up L1_b6_cbr2_conv
I0821 08:59:38.887740 32364 net.cpp:157] Top shape: 100 16 32 32 (1638400)
I0821 08:59:38.887749 32364 net.cpp:165] Memory required for data: 433767600
I0821 08:59:38.887768 32364 layer_factory.hpp:77] Creating layer L1_b6_cbr2_bn
I0821 08:59:38.887789 32364 net.cpp:100] Creating Layer L1_b6_cbr2_bn
I0821 08:59:38.887801 32364 net.cpp:434] L1_b6_cbr2_bn <- L1_b6_cbr2_conv_top
I0821 08:59:38.887822 32364 net.cpp:408] L1_b6_cbr2_bn -> L1_b6_cbr2_bn_top
I0821 08:59:38.888092 32364 net.cpp:150] Setting up L1_b6_cbr2_bn
I0821 08:59:38.888110 32364 net.cpp:157] Top shape: 100 16 32 32 (1638400)
I0821 08:59:38.888120 32364 net.cpp:165] Memory required for data: 440321200
I0821 08:59:38.888142 32364 layer_factory.hpp:77] Creating layer L1_b6_cbr2_scale
I0821 08:59:38.888165 32364 net.cpp:100] Creating Layer L1_b6_cbr2_scale
I0821 08:59:38.888178 32364 net.cpp:434] L1_b6_cbr2_scale <- L1_b6_cbr2_bn_top
I0821 08:59:38.888198 32364 net.cpp:395] L1_b6_cbr2_scale -> L1_b6_cbr2_bn_top (in-place)
I0821 08:59:38.888289 32364 layer_factory.hpp:77] Creating layer L1_b6_cbr2_scale
I0821 08:59:38.888464 32364 net.cpp:150] Setting up L1_b6_cbr2_scale
I0821 08:59:38.888486 32364 net.cpp:157] Top shape: 100 16 32 32 (1638400)
I0821 08:59:38.888497 32364 net.cpp:165] Memory required for data: 446874800
I0821 08:59:38.888515 32364 layer_factory.hpp:77] Creating layer L1_b6_sum_eltwise
I0821 08:59:38.888542 32364 net.cpp:100] Creating Layer L1_b6_sum_eltwise
I0821 08:59:38.888556 32364 net.cpp:434] L1_b6_sum_eltwise <- L1_b6_cbr2_bn_top
I0821 08:59:38.888569 32364 net.cpp:434] L1_b6_sum_eltwise <- L1_b5_sum_eltwise_top_L1_b5_relu_0_split_1
I0821 08:59:38.888586 32364 net.cpp:408] L1_b6_sum_eltwise -> L1_b6_sum_eltwise_top
I0821 08:59:38.888643 32364 net.cpp:150] Setting up L1_b6_sum_eltwise
I0821 08:59:38.888661 32364 net.cpp:157] Top shape: 100 16 32 32 (1638400)
I0821 08:59:38.888671 32364 net.cpp:165] Memory required for data: 453428400
I0821 08:59:38.888682 32364 layer_factory.hpp:77] Creating layer L1_b6_relu
I0821 08:59:38.888697 32364 net.cpp:100] Creating Layer L1_b6_relu
I0821 08:59:38.888708 32364 net.cpp:434] L1_b6_relu <- L1_b6_sum_eltwise_top
I0821 08:59:38.888726 32364 net.cpp:395] L1_b6_relu -> L1_b6_sum_eltwise_top (in-place)
I0821 08:59:38.888746 32364 net.cpp:150] Setting up L1_b6_relu
I0821 08:59:38.888761 32364 net.cpp:157] Top shape: 100 16 32 32 (1638400)
I0821 08:59:38.888769 32364 net.cpp:165] Memory required for data: 459982000
I0821 08:59:38.888779 32364 layer_factory.hpp:77] Creating layer L1_b6_sum_eltwise_top_L1_b6_relu_0_split
I0821 08:59:38.888793 32364 net.cpp:100] Creating Layer L1_b6_sum_eltwise_top_L1_b6_relu_0_split
I0821 08:59:38.888804 32364 net.cpp:434] L1_b6_sum_eltwise_top_L1_b6_relu_0_split <- L1_b6_sum_eltwise_top
I0821 08:59:38.888819 32364 net.cpp:408] L1_b6_sum_eltwise_top_L1_b6_relu_0_split -> L1_b6_sum_eltwise_top_L1_b6_relu_0_split_0
I0821 08:59:38.888850 32364 net.cpp:408] L1_b6_sum_eltwise_top_L1_b6_relu_0_split -> L1_b6_sum_eltwise_top_L1_b6_relu_0_split_1
I0821 08:59:38.888933 32364 net.cpp:150] Setting up L1_b6_sum_eltwise_top_L1_b6_relu_0_split
I0821 08:59:38.888953 32364 net.cpp:157] Top shape: 100 16 32 32 (1638400)
I0821 08:59:38.888967 32364 net.cpp:157] Top shape: 100 16 32 32 (1638400)
I0821 08:59:38.888977 32364 net.cpp:165] Memory required for data: 473089200
I0821 08:59:38.888988 32364 layer_factory.hpp:77] Creating layer L1_b7_cbr1_conv
I0821 08:59:38.889008 32364 net.cpp:100] Creating Layer L1_b7_cbr1_conv
I0821 08:59:38.889019 32364 net.cpp:434] L1_b7_cbr1_conv <- L1_b6_sum_eltwise_top_L1_b6_relu_0_split_0
I0821 08:59:38.889042 32364 net.cpp:408] L1_b7_cbr1_conv -> L1_b7_cbr1_conv_top
I0821 08:59:38.889413 32364 net.cpp:150] Setting up L1_b7_cbr1_conv
I0821 08:59:38.889434 32364 net.cpp:157] Top shape: 100 16 32 32 (1638400)
I0821 08:59:38.889443 32364 net.cpp:165] Memory required for data: 479642800
I0821 08:59:38.889461 32364 layer_factory.hpp:77] Creating layer L1_b7_cbr1_bn
I0821 08:59:38.889478 32364 net.cpp:100] Creating Layer L1_b7_cbr1_bn
I0821 08:59:38.889490 32364 net.cpp:434] L1_b7_cbr1_bn <- L1_b7_cbr1_conv_top
I0821 08:59:38.889511 32364 net.cpp:408] L1_b7_cbr1_bn -> L1_b7_cbr1_bn_top
I0821 08:59:38.889783 32364 net.cpp:150] Setting up L1_b7_cbr1_bn
I0821 08:59:38.889802 32364 net.cpp:157] Top shape: 100 16 32 32 (1638400)
I0821 08:59:38.889812 32364 net.cpp:165] Memory required for data: 486196400
I0821 08:59:38.889833 32364 layer_factory.hpp:77] Creating layer L1_b7_cbr1_scale
I0821 08:59:38.889854 32364 net.cpp:100] Creating Layer L1_b7_cbr1_scale
I0821 08:59:38.889866 32364 net.cpp:434] L1_b7_cbr1_scale <- L1_b7_cbr1_bn_top
I0821 08:59:38.889883 32364 net.cpp:395] L1_b7_cbr1_scale -> L1_b7_cbr1_bn_top (in-place)
I0821 08:59:38.889972 32364 layer_factory.hpp:77] Creating layer L1_b7_cbr1_scale
I0821 08:59:38.890153 32364 net.cpp:150] Setting up L1_b7_cbr1_scale
I0821 08:59:38.890172 32364 net.cpp:157] Top shape: 100 16 32 32 (1638400)
I0821 08:59:38.890182 32364 net.cpp:165] Memory required for data: 492750000
I0821 08:59:38.890199 32364 layer_factory.hpp:77] Creating layer L1_b7_cbr1_relu
I0821 08:59:38.890219 32364 net.cpp:100] Creating Layer L1_b7_cbr1_relu
I0821 08:59:38.890230 32364 net.cpp:434] L1_b7_cbr1_relu <- L1_b7_cbr1_bn_top
I0821 08:59:38.890245 32364 net.cpp:395] L1_b7_cbr1_relu -> L1_b7_cbr1_bn_top (in-place)
I0821 08:59:38.890264 32364 net.cpp:150] Setting up L1_b7_cbr1_relu
I0821 08:59:38.890280 32364 net.cpp:157] Top shape: 100 16 32 32 (1638400)
I0821 08:59:38.890288 32364 net.cpp:165] Memory required for data: 499303600
I0821 08:59:38.890298 32364 layer_factory.hpp:77] Creating layer L1_b7_cbr2_conv
I0821 08:59:38.890326 32364 net.cpp:100] Creating Layer L1_b7_cbr2_conv
I0821 08:59:38.890339 32364 net.cpp:434] L1_b7_cbr2_conv <- L1_b7_cbr1_bn_top
I0821 08:59:38.890362 32364 net.cpp:408] L1_b7_cbr2_conv -> L1_b7_cbr2_conv_top
I0821 08:59:38.890713 32364 net.cpp:150] Setting up L1_b7_cbr2_conv
I0821 08:59:38.890733 32364 net.cpp:157] Top shape: 100 16 32 32 (1638400)
I0821 08:59:38.890743 32364 net.cpp:165] Memory required for data: 505857200
I0821 08:59:38.890760 32364 layer_factory.hpp:77] Creating layer L1_b7_cbr2_bn
I0821 08:59:38.890777 32364 net.cpp:100] Creating Layer L1_b7_cbr2_bn
I0821 08:59:38.890789 32364 net.cpp:434] L1_b7_cbr2_bn <- L1_b7_cbr2_conv_top
I0821 08:59:38.890805 32364 net.cpp:408] L1_b7_cbr2_bn -> L1_b7_cbr2_bn_top
I0821 08:59:38.891077 32364 net.cpp:150] Setting up L1_b7_cbr2_bn
I0821 08:59:38.891095 32364 net.cpp:157] Top shape: 100 16 32 32 (1638400)
I0821 08:59:38.891104 32364 net.cpp:165] Memory required for data: 512410800
I0821 08:59:38.891125 32364 layer_factory.hpp:77] Creating layer L1_b7_cbr2_scale
I0821 08:59:38.891151 32364 net.cpp:100] Creating Layer L1_b7_cbr2_scale
I0821 08:59:38.891165 32364 net.cpp:434] L1_b7_cbr2_scale <- L1_b7_cbr2_bn_top
I0821 08:59:38.891181 32364 net.cpp:395] L1_b7_cbr2_scale -> L1_b7_cbr2_bn_top (in-place)
I0821 08:59:38.891291 32364 layer_factory.hpp:77] Creating layer L1_b7_cbr2_scale
I0821 08:59:38.891464 32364 net.cpp:150] Setting up L1_b7_cbr2_scale
I0821 08:59:38.891484 32364 net.cpp:157] Top shape: 100 16 32 32 (1638400)
I0821 08:59:38.891492 32364 net.cpp:165] Memory required for data: 518964400
I0821 08:59:38.891510 32364 layer_factory.hpp:77] Creating layer L1_b7_sum_eltwise
I0821 08:59:38.891527 32364 net.cpp:100] Creating Layer L1_b7_sum_eltwise
I0821 08:59:38.891540 32364 net.cpp:434] L1_b7_sum_eltwise <- L1_b7_cbr2_bn_top
I0821 08:59:38.891552 32364 net.cpp:434] L1_b7_sum_eltwise <- L1_b6_sum_eltwise_top_L1_b6_relu_0_split_1
I0821 08:59:38.891573 32364 net.cpp:408] L1_b7_sum_eltwise -> L1_b7_sum_eltwise_top
I0821 08:59:38.891630 32364 net.cpp:150] Setting up L1_b7_sum_eltwise
I0821 08:59:38.891649 32364 net.cpp:157] Top shape: 100 16 32 32 (1638400)
I0821 08:59:38.891659 32364 net.cpp:165] Memory required for data: 525518000
I0821 08:59:38.891669 32364 layer_factory.hpp:77] Creating layer L1_b7_relu
I0821 08:59:38.891682 32364 net.cpp:100] Creating Layer L1_b7_relu
I0821 08:59:38.891695 32364 net.cpp:434] L1_b7_relu <- L1_b7_sum_eltwise_top
I0821 08:59:38.891713 32364 net.cpp:395] L1_b7_relu -> L1_b7_sum_eltwise_top (in-place)
I0821 08:59:38.891733 32364 net.cpp:150] Setting up L1_b7_relu
I0821 08:59:38.891747 32364 net.cpp:157] Top shape: 100 16 32 32 (1638400)
I0821 08:59:38.891757 32364 net.cpp:165] Memory required for data: 532071600
I0821 08:59:38.891767 32364 layer_factory.hpp:77] Creating layer L1_b7_sum_eltwise_top_L1_b7_relu_0_split
I0821 08:59:38.891780 32364 net.cpp:100] Creating Layer L1_b7_sum_eltwise_top_L1_b7_relu_0_split
I0821 08:59:38.891790 32364 net.cpp:434] L1_b7_sum_eltwise_top_L1_b7_relu_0_split <- L1_b7_sum_eltwise_top
I0821 08:59:38.891805 32364 net.cpp:408] L1_b7_sum_eltwise_top_L1_b7_relu_0_split -> L1_b7_sum_eltwise_top_L1_b7_relu_0_split_0
I0821 08:59:38.891825 32364 net.cpp:408] L1_b7_sum_eltwise_top_L1_b7_relu_0_split -> L1_b7_sum_eltwise_top_L1_b7_relu_0_split_1
I0821 08:59:38.891904 32364 net.cpp:150] Setting up L1_b7_sum_eltwise_top_L1_b7_relu_0_split
I0821 08:59:38.891923 32364 net.cpp:157] Top shape: 100 16 32 32 (1638400)
I0821 08:59:38.891937 32364 net.cpp:157] Top shape: 100 16 32 32 (1638400)
I0821 08:59:38.891947 32364 net.cpp:165] Memory required for data: 545178800
I0821 08:59:38.891957 32364 layer_factory.hpp:77] Creating layer L1_b8_cbr1_conv
I0821 08:59:38.891976 32364 net.cpp:100] Creating Layer L1_b8_cbr1_conv
I0821 08:59:38.891988 32364 net.cpp:434] L1_b8_cbr1_conv <- L1_b7_sum_eltwise_top_L1_b7_relu_0_split_0
I0821 08:59:38.892011 32364 net.cpp:408] L1_b8_cbr1_conv -> L1_b8_cbr1_conv_top
I0821 08:59:38.892392 32364 net.cpp:150] Setting up L1_b8_cbr1_conv
I0821 08:59:38.892413 32364 net.cpp:157] Top shape: 100 16 32 32 (1638400)
I0821 08:59:38.892422 32364 net.cpp:165] Memory required for data: 551732400
I0821 08:59:38.892441 32364 layer_factory.hpp:77] Creating layer L1_b8_cbr1_bn
I0821 08:59:38.892457 32364 net.cpp:100] Creating Layer L1_b8_cbr1_bn
I0821 08:59:38.892468 32364 net.cpp:434] L1_b8_cbr1_bn <- L1_b8_cbr1_conv_top
I0821 08:59:38.892493 32364 net.cpp:408] L1_b8_cbr1_bn -> L1_b8_cbr1_bn_top
I0821 08:59:38.892769 32364 net.cpp:150] Setting up L1_b8_cbr1_bn
I0821 08:59:38.892788 32364 net.cpp:157] Top shape: 100 16 32 32 (1638400)
I0821 08:59:38.892798 32364 net.cpp:165] Memory required for data: 558286000
I0821 08:59:38.892819 32364 layer_factory.hpp:77] Creating layer L1_b8_cbr1_scale
I0821 08:59:38.892839 32364 net.cpp:100] Creating Layer L1_b8_cbr1_scale
I0821 08:59:38.892851 32364 net.cpp:434] L1_b8_cbr1_scale <- L1_b8_cbr1_bn_top
I0821 08:59:38.892868 32364 net.cpp:395] L1_b8_cbr1_scale -> L1_b8_cbr1_bn_top (in-place)
I0821 08:59:38.892954 32364 layer_factory.hpp:77] Creating layer L1_b8_cbr1_scale
I0821 08:59:38.893136 32364 net.cpp:150] Setting up L1_b8_cbr1_scale
I0821 08:59:38.893162 32364 net.cpp:157] Top shape: 100 16 32 32 (1638400)
I0821 08:59:38.893172 32364 net.cpp:165] Memory required for data: 564839600
I0821 08:59:38.893190 32364 layer_factory.hpp:77] Creating layer L1_b8_cbr1_relu
I0821 08:59:38.893219 32364 net.cpp:100] Creating Layer L1_b8_cbr1_relu
I0821 08:59:38.893232 32364 net.cpp:434] L1_b8_cbr1_relu <- L1_b8_cbr1_bn_top
I0821 08:59:38.893252 32364 net.cpp:395] L1_b8_cbr1_relu -> L1_b8_cbr1_bn_top (in-place)
I0821 08:59:38.893272 32364 net.cpp:150] Setting up L1_b8_cbr1_relu
I0821 08:59:38.893287 32364 net.cpp:157] Top shape: 100 16 32 32 (1638400)
I0821 08:59:38.893296 32364 net.cpp:165] Memory required for data: 571393200
I0821 08:59:38.893306 32364 layer_factory.hpp:77] Creating layer L1_b8_cbr2_conv
I0821 08:59:38.893332 32364 net.cpp:100] Creating Layer L1_b8_cbr2_conv
I0821 08:59:38.893345 32364 net.cpp:434] L1_b8_cbr2_conv <- L1_b8_cbr1_bn_top
I0821 08:59:38.893362 32364 net.cpp:408] L1_b8_cbr2_conv -> L1_b8_cbr2_conv_top
I0821 08:59:38.893721 32364 net.cpp:150] Setting up L1_b8_cbr2_conv
I0821 08:59:38.893740 32364 net.cpp:157] Top shape: 100 16 32 32 (1638400)
I0821 08:59:38.893749 32364 net.cpp:165] Memory required for data: 577946800
I0821 08:59:38.893767 32364 layer_factory.hpp:77] Creating layer L1_b8_cbr2_bn
I0821 08:59:38.893788 32364 net.cpp:100] Creating Layer L1_b8_cbr2_bn
I0821 08:59:38.893800 32364 net.cpp:434] L1_b8_cbr2_bn <- L1_b8_cbr2_conv_top
I0821 08:59:38.893818 32364 net.cpp:408] L1_b8_cbr2_bn -> L1_b8_cbr2_bn_top
I0821 08:59:38.894094 32364 net.cpp:150] Setting up L1_b8_cbr2_bn
I0821 08:59:38.894112 32364 net.cpp:157] Top shape: 100 16 32 32 (1638400)
I0821 08:59:38.894122 32364 net.cpp:165] Memory required for data: 584500400
I0821 08:59:38.894145 32364 layer_factory.hpp:77] Creating layer L1_b8_cbr2_scale
I0821 08:59:38.894173 32364 net.cpp:100] Creating Layer L1_b8_cbr2_scale
I0821 08:59:38.894186 32364 net.cpp:434] L1_b8_cbr2_scale <- L1_b8_cbr2_bn_top
I0821 08:59:38.894203 32364 net.cpp:395] L1_b8_cbr2_scale -> L1_b8_cbr2_bn_top (in-place)
I0821 08:59:38.894295 32364 layer_factory.hpp:77] Creating layer L1_b8_cbr2_scale
I0821 08:59:38.894472 32364 net.cpp:150] Setting up L1_b8_cbr2_scale
I0821 08:59:38.894490 32364 net.cpp:157] Top shape: 100 16 32 32 (1638400)
I0821 08:59:38.894500 32364 net.cpp:165] Memory required for data: 591054000
I0821 08:59:38.894520 32364 layer_factory.hpp:77] Creating layer L1_b8_sum_eltwise
I0821 08:59:38.894536 32364 net.cpp:100] Creating Layer L1_b8_sum_eltwise
I0821 08:59:38.894546 32364 net.cpp:434] L1_b8_sum_eltwise <- L1_b8_cbr2_bn_top
I0821 08:59:38.894560 32364 net.cpp:434] L1_b8_sum_eltwise <- L1_b7_sum_eltwise_top_L1_b7_relu_0_split_1
I0821 08:59:38.894580 32364 net.cpp:408] L1_b8_sum_eltwise -> L1_b8_sum_eltwise_top
I0821 08:59:38.894634 32364 net.cpp:150] Setting up L1_b8_sum_eltwise
I0821 08:59:38.894657 32364 net.cpp:157] Top shape: 100 16 32 32 (1638400)
I0821 08:59:38.894668 32364 net.cpp:165] Memory required for data: 597607600
I0821 08:59:38.894678 32364 layer_factory.hpp:77] Creating layer L1_b8_relu
I0821 08:59:38.894692 32364 net.cpp:100] Creating Layer L1_b8_relu
I0821 08:59:38.894704 32364 net.cpp:434] L1_b8_relu <- L1_b8_sum_eltwise_top
I0821 08:59:38.894718 32364 net.cpp:395] L1_b8_relu -> L1_b8_sum_eltwise_top (in-place)
I0821 08:59:38.894735 32364 net.cpp:150] Setting up L1_b8_relu
I0821 08:59:38.894752 32364 net.cpp:157] Top shape: 100 16 32 32 (1638400)
I0821 08:59:38.894760 32364 net.cpp:165] Memory required for data: 604161200
I0821 08:59:38.894769 32364 layer_factory.hpp:77] Creating layer L1_b8_sum_eltwise_top_L1_b8_relu_0_split
I0821 08:59:38.894788 32364 net.cpp:100] Creating Layer L1_b8_sum_eltwise_top_L1_b8_relu_0_split
I0821 08:59:38.894799 32364 net.cpp:434] L1_b8_sum_eltwise_top_L1_b8_relu_0_split <- L1_b8_sum_eltwise_top
I0821 08:59:38.894814 32364 net.cpp:408] L1_b8_sum_eltwise_top_L1_b8_relu_0_split -> L1_b8_sum_eltwise_top_L1_b8_relu_0_split_0
I0821 08:59:38.894834 32364 net.cpp:408] L1_b8_sum_eltwise_top_L1_b8_relu_0_split -> L1_b8_sum_eltwise_top_L1_b8_relu_0_split_1
I0821 08:59:38.894915 32364 net.cpp:150] Setting up L1_b8_sum_eltwise_top_L1_b8_relu_0_split
I0821 08:59:38.894934 32364 net.cpp:157] Top shape: 100 16 32 32 (1638400)
I0821 08:59:38.894956 32364 net.cpp:157] Top shape: 100 16 32 32 (1638400)
I0821 08:59:38.894968 32364 net.cpp:165] Memory required for data: 617268400
I0821 08:59:38.894978 32364 layer_factory.hpp:77] Creating layer L1_b9_cbr1_conv
I0821 08:59:38.894999 32364 net.cpp:100] Creating Layer L1_b9_cbr1_conv
I0821 08:59:38.895009 32364 net.cpp:434] L1_b9_cbr1_conv <- L1_b8_sum_eltwise_top_L1_b8_relu_0_split_0
I0821 08:59:38.895031 32364 net.cpp:408] L1_b9_cbr1_conv -> L1_b9_cbr1_conv_top
I0821 08:59:38.895397 32364 net.cpp:150] Setting up L1_b9_cbr1_conv
I0821 08:59:38.895417 32364 net.cpp:157] Top shape: 100 16 32 32 (1638400)
I0821 08:59:38.895427 32364 net.cpp:165] Memory required for data: 623822000
I0821 08:59:38.895445 32364 layer_factory.hpp:77] Creating layer L1_b9_cbr1_bn
I0821 08:59:38.895473 32364 net.cpp:100] Creating Layer L1_b9_cbr1_bn
I0821 08:59:38.895488 32364 net.cpp:434] L1_b9_cbr1_bn <- L1_b9_cbr1_conv_top
I0821 08:59:38.895505 32364 net.cpp:408] L1_b9_cbr1_bn -> L1_b9_cbr1_bn_top
I0821 08:59:38.895781 32364 net.cpp:150] Setting up L1_b9_cbr1_bn
I0821 08:59:38.895799 32364 net.cpp:157] Top shape: 100 16 32 32 (1638400)
I0821 08:59:38.895809 32364 net.cpp:165] Memory required for data: 630375600
I0821 08:59:38.895829 32364 layer_factory.hpp:77] Creating layer L1_b9_cbr1_scale
I0821 08:59:38.895846 32364 net.cpp:100] Creating Layer L1_b9_cbr1_scale
I0821 08:59:38.895858 32364 net.cpp:434] L1_b9_cbr1_scale <- L1_b9_cbr1_bn_top
I0821 08:59:38.895872 32364 net.cpp:395] L1_b9_cbr1_scale -> L1_b9_cbr1_bn_top (in-place)
I0821 08:59:38.895967 32364 layer_factory.hpp:77] Creating layer L1_b9_cbr1_scale
I0821 08:59:38.896152 32364 net.cpp:150] Setting up L1_b9_cbr1_scale
I0821 08:59:38.896170 32364 net.cpp:157] Top shape: 100 16 32 32 (1638400)
I0821 08:59:38.896180 32364 net.cpp:165] Memory required for data: 636929200
I0821 08:59:38.896198 32364 layer_factory.hpp:77] Creating layer L1_b9_cbr1_relu
I0821 08:59:38.896214 32364 net.cpp:100] Creating Layer L1_b9_cbr1_relu
I0821 08:59:38.896226 32364 net.cpp:434] L1_b9_cbr1_relu <- L1_b9_cbr1_bn_top
I0821 08:59:38.896246 32364 net.cpp:395] L1_b9_cbr1_relu -> L1_b9_cbr1_bn_top (in-place)
I0821 08:59:38.896266 32364 net.cpp:150] Setting up L1_b9_cbr1_relu
I0821 08:59:38.896281 32364 net.cpp:157] Top shape: 100 16 32 32 (1638400)
I0821 08:59:38.896291 32364 net.cpp:165] Memory required for data: 643482800
I0821 08:59:38.896299 32364 layer_factory.hpp:77] Creating layer L1_b9_cbr2_conv
I0821 08:59:38.896323 32364 net.cpp:100] Creating Layer L1_b9_cbr2_conv
I0821 08:59:38.896337 32364 net.cpp:434] L1_b9_cbr2_conv <- L1_b9_cbr1_bn_top
I0821 08:59:38.896353 32364 net.cpp:408] L1_b9_cbr2_conv -> L1_b9_cbr2_conv_top
I0821 08:59:38.896715 32364 net.cpp:150] Setting up L1_b9_cbr2_conv
I0821 08:59:38.896735 32364 net.cpp:157] Top shape: 100 16 32 32 (1638400)
I0821 08:59:38.896744 32364 net.cpp:165] Memory required for data: 650036400
I0821 08:59:38.896762 32364 layer_factory.hpp:77] Creating layer L1_b9_cbr2_bn
I0821 08:59:38.896780 32364 net.cpp:100] Creating Layer L1_b9_cbr2_bn
I0821 08:59:38.896791 32364 net.cpp:434] L1_b9_cbr2_bn <- L1_b9_cbr2_conv_top
I0821 08:59:38.896812 32364 net.cpp:408] L1_b9_cbr2_bn -> L1_b9_cbr2_bn_top
I0821 08:59:38.897086 32364 net.cpp:150] Setting up L1_b9_cbr2_bn
I0821 08:59:38.897109 32364 net.cpp:157] Top shape: 100 16 32 32 (1638400)
I0821 08:59:38.897119 32364 net.cpp:165] Memory required for data: 656590000
I0821 08:59:38.897181 32364 layer_factory.hpp:77] Creating layer L1_b9_cbr2_scale
I0821 08:59:38.897200 32364 net.cpp:100] Creating Layer L1_b9_cbr2_scale
I0821 08:59:38.897212 32364 net.cpp:434] L1_b9_cbr2_scale <- L1_b9_cbr2_bn_top
I0821 08:59:38.897227 32364 net.cpp:395] L1_b9_cbr2_scale -> L1_b9_cbr2_bn_top (in-place)
I0821 08:59:38.897313 32364 layer_factory.hpp:77] Creating layer L1_b9_cbr2_scale
I0821 08:59:38.897487 32364 net.cpp:150] Setting up L1_b9_cbr2_scale
I0821 08:59:38.897506 32364 net.cpp:157] Top shape: 100 16 32 32 (1638400)
I0821 08:59:38.897516 32364 net.cpp:165] Memory required for data: 663143600
I0821 08:59:38.897543 32364 layer_factory.hpp:77] Creating layer L1_b9_sum_eltwise
I0821 08:59:38.897560 32364 net.cpp:100] Creating Layer L1_b9_sum_eltwise
I0821 08:59:38.897572 32364 net.cpp:434] L1_b9_sum_eltwise <- L1_b9_cbr2_bn_top
I0821 08:59:38.897590 32364 net.cpp:434] L1_b9_sum_eltwise <- L1_b8_sum_eltwise_top_L1_b8_relu_0_split_1
I0821 08:59:38.897608 32364 net.cpp:408] L1_b9_sum_eltwise -> L1_b9_sum_eltwise_top
I0821 08:59:38.897661 32364 net.cpp:150] Setting up L1_b9_sum_eltwise
I0821 08:59:38.897680 32364 net.cpp:157] Top shape: 100 16 32 32 (1638400)
I0821 08:59:38.897688 32364 net.cpp:165] Memory required for data: 669697200
I0821 08:59:38.897699 32364 layer_factory.hpp:77] Creating layer L1_b9_relu
I0821 08:59:38.897713 32364 net.cpp:100] Creating Layer L1_b9_relu
I0821 08:59:38.897723 32364 net.cpp:434] L1_b9_relu <- L1_b9_sum_eltwise_top
I0821 08:59:38.897742 32364 net.cpp:395] L1_b9_relu -> L1_b9_sum_eltwise_top (in-place)
I0821 08:59:38.897763 32364 net.cpp:150] Setting up L1_b9_relu
I0821 08:59:38.897778 32364 net.cpp:157] Top shape: 100 16 32 32 (1638400)
I0821 08:59:38.897788 32364 net.cpp:165] Memory required for data: 676250800
I0821 08:59:38.897799 32364 layer_factory.hpp:77] Creating layer L1_b9_sum_eltwise_top_L1_b9_relu_0_split
I0821 08:59:38.897811 32364 net.cpp:100] Creating Layer L1_b9_sum_eltwise_top_L1_b9_relu_0_split
I0821 08:59:38.897822 32364 net.cpp:434] L1_b9_sum_eltwise_top_L1_b9_relu_0_split <- L1_b9_sum_eltwise_top
I0821 08:59:38.897845 32364 net.cpp:408] L1_b9_sum_eltwise_top_L1_b9_relu_0_split -> L1_b9_sum_eltwise_top_L1_b9_relu_0_split_0
I0821 08:59:38.897864 32364 net.cpp:408] L1_b9_sum_eltwise_top_L1_b9_relu_0_split -> L1_b9_sum_eltwise_top_L1_b9_relu_0_split_1
I0821 08:59:38.897945 32364 net.cpp:150] Setting up L1_b9_sum_eltwise_top_L1_b9_relu_0_split
I0821 08:59:38.897966 32364 net.cpp:157] Top shape: 100 16 32 32 (1638400)
I0821 08:59:38.897980 32364 net.cpp:157] Top shape: 100 16 32 32 (1638400)
I0821 08:59:38.897990 32364 net.cpp:165] Memory required for data: 689358000
I0821 08:59:38.898001 32364 layer_factory.hpp:77] Creating layer L1_b10_cbr1_conv
I0821 08:59:38.898021 32364 net.cpp:100] Creating Layer L1_b10_cbr1_conv
I0821 08:59:38.898035 32364 net.cpp:434] L1_b10_cbr1_conv <- L1_b9_sum_eltwise_top_L1_b9_relu_0_split_0
I0821 08:59:38.898057 32364 net.cpp:408] L1_b10_cbr1_conv -> L1_b10_cbr1_conv_top
I0821 08:59:38.898422 32364 net.cpp:150] Setting up L1_b10_cbr1_conv
I0821 08:59:38.898440 32364 net.cpp:157] Top shape: 100 16 32 32 (1638400)
I0821 08:59:38.898450 32364 net.cpp:165] Memory required for data: 695911600
I0821 08:59:38.898468 32364 layer_factory.hpp:77] Creating layer L1_b10_cbr1_bn
I0821 08:59:38.898484 32364 net.cpp:100] Creating Layer L1_b10_cbr1_bn
I0821 08:59:38.898496 32364 net.cpp:434] L1_b10_cbr1_bn <- L1_b10_cbr1_conv_top
I0821 08:59:38.898516 32364 net.cpp:408] L1_b10_cbr1_bn -> L1_b10_cbr1_bn_top
I0821 08:59:38.898792 32364 net.cpp:150] Setting up L1_b10_cbr1_bn
I0821 08:59:38.898811 32364 net.cpp:157] Top shape: 100 16 32 32 (1638400)
I0821 08:59:38.898821 32364 net.cpp:165] Memory required for data: 702465200
I0821 08:59:38.898841 32364 layer_factory.hpp:77] Creating layer L1_b10_cbr1_scale
I0821 08:59:38.898864 32364 net.cpp:100] Creating Layer L1_b10_cbr1_scale
I0821 08:59:38.898876 32364 net.cpp:434] L1_b10_cbr1_scale <- L1_b10_cbr1_bn_top
I0821 08:59:38.898892 32364 net.cpp:395] L1_b10_cbr1_scale -> L1_b10_cbr1_bn_top (in-place)
I0821 08:59:38.898982 32364 layer_factory.hpp:77] Creating layer L1_b10_cbr1_scale
I0821 08:59:38.899163 32364 net.cpp:150] Setting up L1_b10_cbr1_scale
I0821 08:59:38.899181 32364 net.cpp:157] Top shape: 100 16 32 32 (1638400)
I0821 08:59:38.899191 32364 net.cpp:165] Memory required for data: 709018800
I0821 08:59:38.899210 32364 layer_factory.hpp:77] Creating layer L1_b10_cbr1_relu
I0821 08:59:38.899233 32364 net.cpp:100] Creating Layer L1_b10_cbr1_relu
I0821 08:59:38.899246 32364 net.cpp:434] L1_b10_cbr1_relu <- L1_b10_cbr1_bn_top
I0821 08:59:38.899261 32364 net.cpp:395] L1_b10_cbr1_relu -> L1_b10_cbr1_bn_top (in-place)
I0821 08:59:38.899289 32364 net.cpp:150] Setting up L1_b10_cbr1_relu
I0821 08:59:38.899304 32364 net.cpp:157] Top shape: 100 16 32 32 (1638400)
I0821 08:59:38.899313 32364 net.cpp:165] Memory required for data: 715572400
I0821 08:59:38.899323 32364 layer_factory.hpp:77] Creating layer L1_b10_cbr2_conv
I0821 08:59:38.899349 32364 net.cpp:100] Creating Layer L1_b10_cbr2_conv
I0821 08:59:38.899361 32364 net.cpp:434] L1_b10_cbr2_conv <- L1_b10_cbr1_bn_top
I0821 08:59:38.899384 32364 net.cpp:408] L1_b10_cbr2_conv -> L1_b10_cbr2_conv_top
I0821 08:59:38.899731 32364 net.cpp:150] Setting up L1_b10_cbr2_conv
I0821 08:59:38.899751 32364 net.cpp:157] Top shape: 100 16 32 32 (1638400)
I0821 08:59:38.899760 32364 net.cpp:165] Memory required for data: 722126000
I0821 08:59:38.899778 32364 layer_factory.hpp:77] Creating layer L1_b10_cbr2_bn
I0821 08:59:38.899796 32364 net.cpp:100] Creating Layer L1_b10_cbr2_bn
I0821 08:59:38.899806 32364 net.cpp:434] L1_b10_cbr2_bn <- L1_b10_cbr2_conv_top
I0821 08:59:38.899822 32364 net.cpp:408] L1_b10_cbr2_bn -> L1_b10_cbr2_bn_top
I0821 08:59:38.900110 32364 net.cpp:150] Setting up L1_b10_cbr2_bn
I0821 08:59:38.900130 32364 net.cpp:157] Top shape: 100 16 32 32 (1638400)
I0821 08:59:38.900140 32364 net.cpp:165] Memory required for data: 728679600
I0821 08:59:38.900167 32364 layer_factory.hpp:77] Creating layer L1_b10_cbr2_scale
I0821 08:59:38.900189 32364 net.cpp:100] Creating Layer L1_b10_cbr2_scale
I0821 08:59:38.900202 32364 net.cpp:434] L1_b10_cbr2_scale <- L1_b10_cbr2_bn_top
I0821 08:59:38.900218 32364 net.cpp:395] L1_b10_cbr2_scale -> L1_b10_cbr2_bn_top (in-place)
I0821 08:59:38.900317 32364 layer_factory.hpp:77] Creating layer L1_b10_cbr2_scale
I0821 08:59:38.900496 32364 net.cpp:150] Setting up L1_b10_cbr2_scale
I0821 08:59:38.900514 32364 net.cpp:157] Top shape: 100 16 32 32 (1638400)
I0821 08:59:38.900523 32364 net.cpp:165] Memory required for data: 735233200
I0821 08:59:38.900542 32364 layer_factory.hpp:77] Creating layer L1_b10_sum_eltwise
I0821 08:59:38.900559 32364 net.cpp:100] Creating Layer L1_b10_sum_eltwise
I0821 08:59:38.900570 32364 net.cpp:434] L1_b10_sum_eltwise <- L1_b10_cbr2_bn_top
I0821 08:59:38.900583 32364 net.cpp:434] L1_b10_sum_eltwise <- L1_b9_sum_eltwise_top_L1_b9_relu_0_split_1
I0821 08:59:38.900606 32364 net.cpp:408] L1_b10_sum_eltwise -> L1_b10_sum_eltwise_top
I0821 08:59:38.900665 32364 net.cpp:150] Setting up L1_b10_sum_eltwise
I0821 08:59:38.900683 32364 net.cpp:157] Top shape: 100 16 32 32 (1638400)
I0821 08:59:38.900693 32364 net.cpp:165] Memory required for data: 741786800
I0821 08:59:38.900702 32364 layer_factory.hpp:77] Creating layer L1_b10_relu
I0821 08:59:38.900717 32364 net.cpp:100] Creating Layer L1_b10_relu
I0821 08:59:38.900729 32364 net.cpp:434] L1_b10_relu <- L1_b10_sum_eltwise_top
I0821 08:59:38.900748 32364 net.cpp:395] L1_b10_relu -> L1_b10_sum_eltwise_top (in-place)
I0821 08:59:38.900766 32364 net.cpp:150] Setting up L1_b10_relu
I0821 08:59:38.900780 32364 net.cpp:157] Top shape: 100 16 32 32 (1638400)
I0821 08:59:38.900789 32364 net.cpp:165] Memory required for data: 748340400
I0821 08:59:38.900799 32364 layer_factory.hpp:77] Creating layer L1_b10_sum_eltwise_top_L1_b10_relu_0_split
I0821 08:59:38.900812 32364 net.cpp:100] Creating Layer L1_b10_sum_eltwise_top_L1_b10_relu_0_split
I0821 08:59:38.900822 32364 net.cpp:434] L1_b10_sum_eltwise_top_L1_b10_relu_0_split <- L1_b10_sum_eltwise_top
I0821 08:59:38.900836 32364 net.cpp:408] L1_b10_sum_eltwise_top_L1_b10_relu_0_split -> L1_b10_sum_eltwise_top_L1_b10_relu_0_split_0
I0821 08:59:38.900856 32364 net.cpp:408] L1_b10_sum_eltwise_top_L1_b10_relu_0_split -> L1_b10_sum_eltwise_top_L1_b10_relu_0_split_1
I0821 08:59:38.900935 32364 net.cpp:150] Setting up L1_b10_sum_eltwise_top_L1_b10_relu_0_split
I0821 08:59:38.900954 32364 net.cpp:157] Top shape: 100 16 32 32 (1638400)
I0821 08:59:38.900967 32364 net.cpp:157] Top shape: 100 16 32 32 (1638400)
I0821 08:59:38.900976 32364 net.cpp:165] Memory required for data: 761447600
I0821 08:59:38.900986 32364 layer_factory.hpp:77] Creating layer L1_b11_cbr1_conv
I0821 08:59:38.901015 32364 net.cpp:100] Creating Layer L1_b11_cbr1_conv
I0821 08:59:38.901028 32364 net.cpp:434] L1_b11_cbr1_conv <- L1_b10_sum_eltwise_top_L1_b10_relu_0_split_0
I0821 08:59:38.901052 32364 net.cpp:408] L1_b11_cbr1_conv -> L1_b11_cbr1_conv_top
I0821 08:59:38.901413 32364 net.cpp:150] Setting up L1_b11_cbr1_conv
I0821 08:59:38.901433 32364 net.cpp:157] Top shape: 100 16 32 32 (1638400)
I0821 08:59:38.901443 32364 net.cpp:165] Memory required for data: 768001200
I0821 08:59:38.901463 32364 layer_factory.hpp:77] Creating layer L1_b11_cbr1_bn
I0821 08:59:38.901479 32364 net.cpp:100] Creating Layer L1_b11_cbr1_bn
I0821 08:59:38.901491 32364 net.cpp:434] L1_b11_cbr1_bn <- L1_b11_cbr1_conv_top
I0821 08:59:38.901515 32364 net.cpp:408] L1_b11_cbr1_bn -> L1_b11_cbr1_bn_top
I0821 08:59:38.901798 32364 net.cpp:150] Setting up L1_b11_cbr1_bn
I0821 08:59:38.901816 32364 net.cpp:157] Top shape: 100 16 32 32 (1638400)
I0821 08:59:38.901825 32364 net.cpp:165] Memory required for data: 774554800
I0821 08:59:38.901849 32364 layer_factory.hpp:77] Creating layer L1_b11_cbr1_scale
I0821 08:59:38.901868 32364 net.cpp:100] Creating Layer L1_b11_cbr1_scale
I0821 08:59:38.901881 32364 net.cpp:434] L1_b11_cbr1_scale <- L1_b11_cbr1_bn_top
I0821 08:59:38.901896 32364 net.cpp:395] L1_b11_cbr1_scale -> L1_b11_cbr1_bn_top (in-place)
I0821 08:59:38.901985 32364 layer_factory.hpp:77] Creating layer L1_b11_cbr1_scale
I0821 08:59:38.902169 32364 net.cpp:150] Setting up L1_b11_cbr1_scale
I0821 08:59:38.902189 32364 net.cpp:157] Top shape: 100 16 32 32 (1638400)
I0821 08:59:38.902197 32364 net.cpp:165] Memory required for data: 781108400
I0821 08:59:38.902216 32364 layer_factory.hpp:77] Creating layer L1_b11_cbr1_relu
I0821 08:59:38.902231 32364 net.cpp:100] Creating Layer L1_b11_cbr1_relu
I0821 08:59:38.902242 32364 net.cpp:434] L1_b11_cbr1_relu <- L1_b11_cbr1_bn_top
I0821 08:59:38.902261 32364 net.cpp:395] L1_b11_cbr1_relu -> L1_b11_cbr1_bn_top (in-place)
I0821 08:59:38.902281 32364 net.cpp:150] Setting up L1_b11_cbr1_relu
I0821 08:59:38.902295 32364 net.cpp:157] Top shape: 100 16 32 32 (1638400)
I0821 08:59:38.902305 32364 net.cpp:165] Memory required for data: 787662000
I0821 08:59:38.902314 32364 layer_factory.hpp:77] Creating layer L1_b11_cbr2_conv
I0821 08:59:38.902339 32364 net.cpp:100] Creating Layer L1_b11_cbr2_conv
I0821 08:59:38.902351 32364 net.cpp:434] L1_b11_cbr2_conv <- L1_b11_cbr1_bn_top
I0821 08:59:38.902369 32364 net.cpp:408] L1_b11_cbr2_conv -> L1_b11_cbr2_conv_top
I0821 08:59:38.902736 32364 net.cpp:150] Setting up L1_b11_cbr2_conv
I0821 08:59:38.902755 32364 net.cpp:157] Top shape: 100 16 32 32 (1638400)
I0821 08:59:38.902765 32364 net.cpp:165] Memory required for data: 794215600
I0821 08:59:38.902783 32364 layer_factory.hpp:77] Creating layer L1_b11_cbr2_bn
I0821 08:59:38.902807 32364 net.cpp:100] Creating Layer L1_b11_cbr2_bn
I0821 08:59:38.902820 32364 net.cpp:434] L1_b11_cbr2_bn <- L1_b11_cbr2_conv_top
I0821 08:59:38.902837 32364 net.cpp:408] L1_b11_cbr2_bn -> L1_b11_cbr2_bn_top
I0821 08:59:38.903116 32364 net.cpp:150] Setting up L1_b11_cbr2_bn
I0821 08:59:38.903136 32364 net.cpp:157] Top shape: 100 16 32 32 (1638400)
I0821 08:59:38.903151 32364 net.cpp:165] Memory required for data: 800769200
I0821 08:59:38.903173 32364 layer_factory.hpp:77] Creating layer L1_b11_cbr2_scale
I0821 08:59:38.903194 32364 net.cpp:100] Creating Layer L1_b11_cbr2_scale
I0821 08:59:38.903208 32364 net.cpp:434] L1_b11_cbr2_scale <- L1_b11_cbr2_bn_top
I0821 08:59:38.903223 32364 net.cpp:395] L1_b11_cbr2_scale -> L1_b11_cbr2_bn_top (in-place)
I0821 08:59:38.903308 32364 layer_factory.hpp:77] Creating layer L1_b11_cbr2_scale
I0821 08:59:38.903488 32364 net.cpp:150] Setting up L1_b11_cbr2_scale
I0821 08:59:38.903507 32364 net.cpp:157] Top shape: 100 16 32 32 (1638400)
I0821 08:59:38.903517 32364 net.cpp:165] Memory required for data: 807322800
I0821 08:59:38.903534 32364 layer_factory.hpp:77] Creating layer L1_b11_sum_eltwise
I0821 08:59:38.903551 32364 net.cpp:100] Creating Layer L1_b11_sum_eltwise
I0821 08:59:38.903563 32364 net.cpp:434] L1_b11_sum_eltwise <- L1_b11_cbr2_bn_top
I0821 08:59:38.903583 32364 net.cpp:434] L1_b11_sum_eltwise <- L1_b10_sum_eltwise_top_L1_b10_relu_0_split_1
I0821 08:59:38.903604 32364 net.cpp:408] L1_b11_sum_eltwise -> L1_b11_sum_eltwise_top
I0821 08:59:38.903659 32364 net.cpp:150] Setting up L1_b11_sum_eltwise
I0821 08:59:38.903683 32364 net.cpp:157] Top shape: 100 16 32 32 (1638400)
I0821 08:59:38.903693 32364 net.cpp:165] Memory required for data: 813876400
I0821 08:59:38.903703 32364 layer_factory.hpp:77] Creating layer L1_b11_relu
I0821 08:59:38.903718 32364 net.cpp:100] Creating Layer L1_b11_relu
I0821 08:59:38.903729 32364 net.cpp:434] L1_b11_relu <- L1_b11_sum_eltwise_top
I0821 08:59:38.903743 32364 net.cpp:395] L1_b11_relu -> L1_b11_sum_eltwise_top (in-place)
I0821 08:59:38.903762 32364 net.cpp:150] Setting up L1_b11_relu
I0821 08:59:38.903776 32364 net.cpp:157] Top shape: 100 16 32 32 (1638400)
I0821 08:59:38.903786 32364 net.cpp:165] Memory required for data: 820430000
I0821 08:59:38.903796 32364 layer_factory.hpp:77] Creating layer L1_b11_sum_eltwise_top_L1_b11_relu_0_split
I0821 08:59:38.903813 32364 net.cpp:100] Creating Layer L1_b11_sum_eltwise_top_L1_b11_relu_0_split
I0821 08:59:38.903825 32364 net.cpp:434] L1_b11_sum_eltwise_top_L1_b11_relu_0_split <- L1_b11_sum_eltwise_top
I0821 08:59:38.903841 32364 net.cpp:408] L1_b11_sum_eltwise_top_L1_b11_relu_0_split -> L1_b11_sum_eltwise_top_L1_b11_relu_0_split_0
I0821 08:59:38.903861 32364 net.cpp:408] L1_b11_sum_eltwise_top_L1_b11_relu_0_split -> L1_b11_sum_eltwise_top_L1_b11_relu_0_split_1
I0821 08:59:38.903940 32364 net.cpp:150] Setting up L1_b11_sum_eltwise_top_L1_b11_relu_0_split
I0821 08:59:38.903961 32364 net.cpp:157] Top shape: 100 16 32 32 (1638400)
I0821 08:59:38.903975 32364 net.cpp:157] Top shape: 100 16 32 32 (1638400)
I0821 08:59:38.903985 32364 net.cpp:165] Memory required for data: 833537200
I0821 08:59:38.903995 32364 layer_factory.hpp:77] Creating layer L1_b12_cbr1_conv
I0821 08:59:38.904016 32364 net.cpp:100] Creating Layer L1_b12_cbr1_conv
I0821 08:59:38.904029 32364 net.cpp:434] L1_b12_cbr1_conv <- L1_b11_sum_eltwise_top_L1_b11_relu_0_split_0
I0821 08:59:38.904052 32364 net.cpp:408] L1_b12_cbr1_conv -> L1_b12_cbr1_conv_top
I0821 08:59:38.904422 32364 net.cpp:150] Setting up L1_b12_cbr1_conv
I0821 08:59:38.904441 32364 net.cpp:157] Top shape: 100 16 32 32 (1638400)
I0821 08:59:38.904451 32364 net.cpp:165] Memory required for data: 840090800
I0821 08:59:38.904469 32364 layer_factory.hpp:77] Creating layer L1_b12_cbr1_bn
I0821 08:59:38.904486 32364 net.cpp:100] Creating Layer L1_b12_cbr1_bn
I0821 08:59:38.904497 32364 net.cpp:434] L1_b12_cbr1_bn <- L1_b12_cbr1_conv_top
I0821 08:59:38.904513 32364 net.cpp:408] L1_b12_cbr1_bn -> L1_b12_cbr1_bn_top
I0821 08:59:38.904794 32364 net.cpp:150] Setting up L1_b12_cbr1_bn
I0821 08:59:38.904814 32364 net.cpp:157] Top shape: 100 16 32 32 (1638400)
I0821 08:59:38.904822 32364 net.cpp:165] Memory required for data: 846644400
I0821 08:59:38.904844 32364 layer_factory.hpp:77] Creating layer L1_b12_cbr1_scale
I0821 08:59:38.904865 32364 net.cpp:100] Creating Layer L1_b12_cbr1_scale
I0821 08:59:38.904877 32364 net.cpp:434] L1_b12_cbr1_scale <- L1_b12_cbr1_bn_top
I0821 08:59:38.904894 32364 net.cpp:395] L1_b12_cbr1_scale -> L1_b12_cbr1_bn_top (in-place)
I0821 08:59:38.904989 32364 layer_factory.hpp:77] Creating layer L1_b12_cbr1_scale
I0821 08:59:38.905175 32364 net.cpp:150] Setting up L1_b12_cbr1_scale
I0821 08:59:38.905194 32364 net.cpp:157] Top shape: 100 16 32 32 (1638400)
I0821 08:59:38.905205 32364 net.cpp:165] Memory required for data: 853198000
I0821 08:59:38.905222 32364 layer_factory.hpp:77] Creating layer L1_b12_cbr1_relu
I0821 08:59:38.905237 32364 net.cpp:100] Creating Layer L1_b12_cbr1_relu
I0821 08:59:38.905249 32364 net.cpp:434] L1_b12_cbr1_relu <- L1_b12_cbr1_bn_top
I0821 08:59:38.905268 32364 net.cpp:395] L1_b12_cbr1_relu -> L1_b12_cbr1_bn_top (in-place)
I0821 08:59:38.905288 32364 net.cpp:150] Setting up L1_b12_cbr1_relu
I0821 08:59:38.905303 32364 net.cpp:157] Top shape: 100 16 32 32 (1638400)
I0821 08:59:38.905321 32364 net.cpp:165] Memory required for data: 859751600
I0821 08:59:38.905333 32364 layer_factory.hpp:77] Creating layer L1_b12_cbr2_conv
I0821 08:59:38.905360 32364 net.cpp:100] Creating Layer L1_b12_cbr2_conv
I0821 08:59:38.905375 32364 net.cpp:434] L1_b12_cbr2_conv <- L1_b12_cbr1_bn_top
I0821 08:59:38.905391 32364 net.cpp:408] L1_b12_cbr2_conv -> L1_b12_cbr2_conv_top
I0821 08:59:38.905757 32364 net.cpp:150] Setting up L1_b12_cbr2_conv
I0821 08:59:38.905777 32364 net.cpp:157] Top shape: 100 16 32 32 (1638400)
I0821 08:59:38.905786 32364 net.cpp:165] Memory required for data: 866305200
I0821 08:59:38.905804 32364 layer_factory.hpp:77] Creating layer L1_b12_cbr2_bn
I0821 08:59:38.905825 32364 net.cpp:100] Creating Layer L1_b12_cbr2_bn
I0821 08:59:38.905838 32364 net.cpp:434] L1_b12_cbr2_bn <- L1_b12_cbr2_conv_top
I0821 08:59:38.905853 32364 net.cpp:408] L1_b12_cbr2_bn -> L1_b12_cbr2_bn_top
I0821 08:59:38.906131 32364 net.cpp:150] Setting up L1_b12_cbr2_bn
I0821 08:59:38.906157 32364 net.cpp:157] Top shape: 100 16 32 32 (1638400)
I0821 08:59:38.906167 32364 net.cpp:165] Memory required for data: 872858800
I0821 08:59:38.906188 32364 layer_factory.hpp:77] Creating layer L1_b12_cbr2_scale
I0821 08:59:38.906204 32364 net.cpp:100] Creating Layer L1_b12_cbr2_scale
I0821 08:59:38.906216 32364 net.cpp:434] L1_b12_cbr2_scale <- L1_b12_cbr2_bn_top
I0821 08:59:38.906236 32364 net.cpp:395] L1_b12_cbr2_scale -> L1_b12_cbr2_bn_top (in-place)
I0821 08:59:38.906322 32364 layer_factory.hpp:77] Creating layer L1_b12_cbr2_scale
I0821 08:59:38.906502 32364 net.cpp:150] Setting up L1_b12_cbr2_scale
I0821 08:59:38.906519 32364 net.cpp:157] Top shape: 100 16 32 32 (1638400)
I0821 08:59:38.906529 32364 net.cpp:165] Memory required for data: 879412400
I0821 08:59:38.906548 32364 layer_factory.hpp:77] Creating layer L1_b12_sum_eltwise
I0821 08:59:38.906564 32364 net.cpp:100] Creating Layer L1_b12_sum_eltwise
I0821 08:59:38.906575 32364 net.cpp:434] L1_b12_sum_eltwise <- L1_b12_cbr2_bn_top
I0821 08:59:38.906589 32364 net.cpp:434] L1_b12_sum_eltwise <- L1_b11_sum_eltwise_top_L1_b11_relu_0_split_1
I0821 08:59:38.906610 32364 net.cpp:408] L1_b12_sum_eltwise -> L1_b12_sum_eltwise_top
I0821 08:59:38.906663 32364 net.cpp:150] Setting up L1_b12_sum_eltwise
I0821 08:59:38.906687 32364 net.cpp:157] Top shape: 100 16 32 32 (1638400)
I0821 08:59:38.906697 32364 net.cpp:165] Memory required for data: 885966000
I0821 08:59:38.906707 32364 layer_factory.hpp:77] Creating layer L1_b12_relu
I0821 08:59:38.906720 32364 net.cpp:100] Creating Layer L1_b12_relu
I0821 08:59:38.906733 32364 net.cpp:434] L1_b12_relu <- L1_b12_sum_eltwise_top
I0821 08:59:38.906746 32364 net.cpp:395] L1_b12_relu -> L1_b12_sum_eltwise_top (in-place)
I0821 08:59:38.906764 32364 net.cpp:150] Setting up L1_b12_relu
I0821 08:59:38.906780 32364 net.cpp:157] Top shape: 100 16 32 32 (1638400)
I0821 08:59:38.906788 32364 net.cpp:165] Memory required for data: 892519600
I0821 08:59:38.906798 32364 layer_factory.hpp:77] Creating layer L1_b12_sum_eltwise_top_L1_b12_relu_0_split
I0821 08:59:38.906817 32364 net.cpp:100] Creating Layer L1_b12_sum_eltwise_top_L1_b12_relu_0_split
I0821 08:59:38.906828 32364 net.cpp:434] L1_b12_sum_eltwise_top_L1_b12_relu_0_split <- L1_b12_sum_eltwise_top
I0821 08:59:38.906843 32364 net.cpp:408] L1_b12_sum_eltwise_top_L1_b12_relu_0_split -> L1_b12_sum_eltwise_top_L1_b12_relu_0_split_0
I0821 08:59:38.906863 32364 net.cpp:408] L1_b12_sum_eltwise_top_L1_b12_relu_0_split -> L1_b12_sum_eltwise_top_L1_b12_relu_0_split_1
I0821 08:59:38.906940 32364 net.cpp:150] Setting up L1_b12_sum_eltwise_top_L1_b12_relu_0_split
I0821 08:59:38.906963 32364 net.cpp:157] Top shape: 100 16 32 32 (1638400)
I0821 08:59:38.906978 32364 net.cpp:157] Top shape: 100 16 32 32 (1638400)
I0821 08:59:38.906988 32364 net.cpp:165] Memory required for data: 905626800
I0821 08:59:38.906999 32364 layer_factory.hpp:77] Creating layer L1_b13_cbr1_conv
I0821 08:59:38.907019 32364 net.cpp:100] Creating Layer L1_b13_cbr1_conv
I0821 08:59:38.907032 32364 net.cpp:434] L1_b13_cbr1_conv <- L1_b12_sum_eltwise_top_L1_b12_relu_0_split_0
I0821 08:59:38.907058 32364 net.cpp:408] L1_b13_cbr1_conv -> L1_b13_cbr1_conv_top
I0821 08:59:38.907440 32364 net.cpp:150] Setting up L1_b13_cbr1_conv
I0821 08:59:38.907460 32364 net.cpp:157] Top shape: 100 16 32 32 (1638400)
I0821 08:59:38.907469 32364 net.cpp:165] Memory required for data: 912180400
I0821 08:59:38.907487 32364 layer_factory.hpp:77] Creating layer L1_b13_cbr1_bn
I0821 08:59:38.907531 32364 net.cpp:100] Creating Layer L1_b13_cbr1_bn
I0821 08:59:38.907546 32364 net.cpp:434] L1_b13_cbr1_bn <- L1_b13_cbr1_conv_top
I0821 08:59:38.907563 32364 net.cpp:408] L1_b13_cbr1_bn -> L1_b13_cbr1_bn_top
I0821 08:59:38.907851 32364 net.cpp:150] Setting up L1_b13_cbr1_bn
I0821 08:59:38.907871 32364 net.cpp:157] Top shape: 100 16 32 32 (1638400)
I0821 08:59:38.907879 32364 net.cpp:165] Memory required for data: 918734000
I0821 08:59:38.907902 32364 layer_factory.hpp:77] Creating layer L1_b13_cbr1_scale
I0821 08:59:38.907920 32364 net.cpp:100] Creating Layer L1_b13_cbr1_scale
I0821 08:59:38.907932 32364 net.cpp:434] L1_b13_cbr1_scale <- L1_b13_cbr1_bn_top
I0821 08:59:38.907951 32364 net.cpp:395] L1_b13_cbr1_scale -> L1_b13_cbr1_bn_top (in-place)
I0821 08:59:38.908042 32364 layer_factory.hpp:77] Creating layer L1_b13_cbr1_scale
I0821 08:59:38.908226 32364 net.cpp:150] Setting up L1_b13_cbr1_scale
I0821 08:59:38.908244 32364 net.cpp:157] Top shape: 100 16 32 32 (1638400)
I0821 08:59:38.908254 32364 net.cpp:165] Memory required for data: 925287600
I0821 08:59:38.908272 32364 layer_factory.hpp:77] Creating layer L1_b13_cbr1_relu
I0821 08:59:38.908291 32364 net.cpp:100] Creating Layer L1_b13_cbr1_relu
I0821 08:59:38.908303 32364 net.cpp:434] L1_b13_cbr1_relu <- L1_b13_cbr1_bn_top
I0821 08:59:38.908318 32364 net.cpp:395] L1_b13_cbr1_relu -> L1_b13_cbr1_bn_top (in-place)
I0821 08:59:38.908336 32364 net.cpp:150] Setting up L1_b13_cbr1_relu
I0821 08:59:38.908350 32364 net.cpp:157] Top shape: 100 16 32 32 (1638400)
I0821 08:59:38.908360 32364 net.cpp:165] Memory required for data: 931841200
I0821 08:59:38.908370 32364 layer_factory.hpp:77] Creating layer L1_b13_cbr2_conv
I0821 08:59:38.908394 32364 net.cpp:100] Creating Layer L1_b13_cbr2_conv
I0821 08:59:38.908407 32364 net.cpp:434] L1_b13_cbr2_conv <- L1_b13_cbr1_bn_top
I0821 08:59:38.908432 32364 net.cpp:408] L1_b13_cbr2_conv -> L1_b13_cbr2_conv_top
I0821 08:59:38.908794 32364 net.cpp:150] Setting up L1_b13_cbr2_conv
I0821 08:59:38.908814 32364 net.cpp:157] Top shape: 100 16 32 32 (1638400)
I0821 08:59:38.908823 32364 net.cpp:165] Memory required for data: 938394800
I0821 08:59:38.908841 32364 layer_factory.hpp:77] Creating layer L1_b13_cbr2_bn
I0821 08:59:38.908862 32364 net.cpp:100] Creating Layer L1_b13_cbr2_bn
I0821 08:59:38.908874 32364 net.cpp:434] L1_b13_cbr2_bn <- L1_b13_cbr2_conv_top
I0821 08:59:38.908895 32364 net.cpp:408] L1_b13_cbr2_bn -> L1_b13_cbr2_bn_top
I0821 08:59:38.909180 32364 net.cpp:150] Setting up L1_b13_cbr2_bn
I0821 08:59:38.909199 32364 net.cpp:157] Top shape: 100 16 32 32 (1638400)
I0821 08:59:38.909209 32364 net.cpp:165] Memory required for data: 944948400
I0821 08:59:38.909230 32364 layer_factory.hpp:77] Creating layer L1_b13_cbr2_scale
I0821 08:59:38.909247 32364 net.cpp:100] Creating Layer L1_b13_cbr2_scale
I0821 08:59:38.909258 32364 net.cpp:434] L1_b13_cbr2_scale <- L1_b13_cbr2_bn_top
I0821 08:59:38.909274 32364 net.cpp:395] L1_b13_cbr2_scale -> L1_b13_cbr2_bn_top (in-place)
I0821 08:59:38.909368 32364 layer_factory.hpp:77] Creating layer L1_b13_cbr2_scale
I0821 08:59:38.909548 32364 net.cpp:150] Setting up L1_b13_cbr2_scale
I0821 08:59:38.909566 32364 net.cpp:157] Top shape: 100 16 32 32 (1638400)
I0821 08:59:38.909576 32364 net.cpp:165] Memory required for data: 951502000
I0821 08:59:38.909595 32364 layer_factory.hpp:77] Creating layer L1_b13_sum_eltwise
I0821 08:59:38.909617 32364 net.cpp:100] Creating Layer L1_b13_sum_eltwise
I0821 08:59:38.909629 32364 net.cpp:434] L1_b13_sum_eltwise <- L1_b13_cbr2_bn_top
I0821 08:59:38.909642 32364 net.cpp:434] L1_b13_sum_eltwise <- L1_b12_sum_eltwise_top_L1_b12_relu_0_split_1
I0821 08:59:38.909668 32364 net.cpp:408] L1_b13_sum_eltwise -> L1_b13_sum_eltwise_top
I0821 08:59:38.909726 32364 net.cpp:150] Setting up L1_b13_sum_eltwise
I0821 08:59:38.909744 32364 net.cpp:157] Top shape: 100 16 32 32 (1638400)
I0821 08:59:38.909754 32364 net.cpp:165] Memory required for data: 958055600
I0821 08:59:38.909765 32364 layer_factory.hpp:77] Creating layer L1_b13_relu
I0821 08:59:38.909778 32364 net.cpp:100] Creating Layer L1_b13_relu
I0821 08:59:38.909790 32364 net.cpp:434] L1_b13_relu <- L1_b13_sum_eltwise_top
I0821 08:59:38.909809 32364 net.cpp:395] L1_b13_relu -> L1_b13_sum_eltwise_top (in-place)
I0821 08:59:38.909828 32364 net.cpp:150] Setting up L1_b13_relu
I0821 08:59:38.909843 32364 net.cpp:157] Top shape: 100 16 32 32 (1638400)
I0821 08:59:38.909852 32364 net.cpp:165] Memory required for data: 964609200
I0821 08:59:38.909862 32364 layer_factory.hpp:77] Creating layer L1_b13_sum_eltwise_top_L1_b13_relu_0_split
I0821 08:59:38.909876 32364 net.cpp:100] Creating Layer L1_b13_sum_eltwise_top_L1_b13_relu_0_split
I0821 08:59:38.909888 32364 net.cpp:434] L1_b13_sum_eltwise_top_L1_b13_relu_0_split <- L1_b13_sum_eltwise_top
I0821 08:59:38.909907 32364 net.cpp:408] L1_b13_sum_eltwise_top_L1_b13_relu_0_split -> L1_b13_sum_eltwise_top_L1_b13_relu_0_split_0
I0821 08:59:38.909927 32364 net.cpp:408] L1_b13_sum_eltwise_top_L1_b13_relu_0_split -> L1_b13_sum_eltwise_top_L1_b13_relu_0_split_1
I0821 08:59:38.910006 32364 net.cpp:150] Setting up L1_b13_sum_eltwise_top_L1_b13_relu_0_split
I0821 08:59:38.910025 32364 net.cpp:157] Top shape: 100 16 32 32 (1638400)
I0821 08:59:38.910039 32364 net.cpp:157] Top shape: 100 16 32 32 (1638400)
I0821 08:59:38.910048 32364 net.cpp:165] Memory required for data: 977716400
I0821 08:59:38.910058 32364 layer_factory.hpp:77] Creating layer L1_b14_cbr1_conv
I0821 08:59:38.910084 32364 net.cpp:100] Creating Layer L1_b14_cbr1_conv
I0821 08:59:38.910097 32364 net.cpp:434] L1_b14_cbr1_conv <- L1_b13_sum_eltwise_top_L1_b13_relu_0_split_0
I0821 08:59:38.910116 32364 net.cpp:408] L1_b14_cbr1_conv -> L1_b14_cbr1_conv_top
I0821 08:59:38.910485 32364 net.cpp:150] Setting up L1_b14_cbr1_conv
I0821 08:59:38.910504 32364 net.cpp:157] Top shape: 100 16 32 32 (1638400)
I0821 08:59:38.910514 32364 net.cpp:165] Memory required for data: 984270000
I0821 08:59:38.910532 32364 layer_factory.hpp:77] Creating layer L1_b14_cbr1_bn
I0821 08:59:38.910555 32364 net.cpp:100] Creating Layer L1_b14_cbr1_bn
I0821 08:59:38.910568 32364 net.cpp:434] L1_b14_cbr1_bn <- L1_b14_cbr1_conv_top
I0821 08:59:38.910589 32364 net.cpp:408] L1_b14_cbr1_bn -> L1_b14_cbr1_bn_top
I0821 08:59:38.910859 32364 net.cpp:150] Setting up L1_b14_cbr1_bn
I0821 08:59:38.910878 32364 net.cpp:157] Top shape: 100 16 32 32 (1638400)
I0821 08:59:38.910888 32364 net.cpp:165] Memory required for data: 990823600
I0821 08:59:38.910909 32364 layer_factory.hpp:77] Creating layer L1_b14_cbr1_scale
I0821 08:59:38.910926 32364 net.cpp:100] Creating Layer L1_b14_cbr1_scale
I0821 08:59:38.910938 32364 net.cpp:434] L1_b14_cbr1_scale <- L1_b14_cbr1_bn_top
I0821 08:59:38.910954 32364 net.cpp:395] L1_b14_cbr1_scale -> L1_b14_cbr1_bn_top (in-place)
I0821 08:59:38.911047 32364 layer_factory.hpp:77] Creating layer L1_b14_cbr1_scale
I0821 08:59:38.911227 32364 net.cpp:150] Setting up L1_b14_cbr1_scale
I0821 08:59:38.911247 32364 net.cpp:157] Top shape: 100 16 32 32 (1638400)
I0821 08:59:38.911255 32364 net.cpp:165] Memory required for data: 997377200
I0821 08:59:38.911274 32364 layer_factory.hpp:77] Creating layer L1_b14_cbr1_relu
I0821 08:59:38.911296 32364 net.cpp:100] Creating Layer L1_b14_cbr1_relu
I0821 08:59:38.911309 32364 net.cpp:434] L1_b14_cbr1_relu <- L1_b14_cbr1_bn_top
I0821 08:59:38.911324 32364 net.cpp:395] L1_b14_cbr1_relu -> L1_b14_cbr1_bn_top (in-place)
I0821 08:59:38.911345 32364 net.cpp:150] Setting up L1_b14_cbr1_relu
I0821 08:59:38.911358 32364 net.cpp:157] Top shape: 100 16 32 32 (1638400)
I0821 08:59:38.911368 32364 net.cpp:165] Memory required for data: 1003930800
I0821 08:59:38.911377 32364 layer_factory.hpp:77] Creating layer L1_b14_cbr2_conv
I0821 08:59:38.911411 32364 net.cpp:100] Creating Layer L1_b14_cbr2_conv
I0821 08:59:38.911424 32364 net.cpp:434] L1_b14_cbr2_conv <- L1_b14_cbr1_bn_top
I0821 08:59:38.911445 32364 net.cpp:408] L1_b14_cbr2_conv -> L1_b14_cbr2_conv_top
I0821 08:59:38.911825 32364 net.cpp:150] Setting up L1_b14_cbr2_conv
I0821 08:59:38.912001 32364 net.cpp:157] Top shape: 100 16 32 32 (1638400)
I0821 08:59:38.912014 32364 net.cpp:165] Memory required for data: 1010484400
I0821 08:59:38.912032 32364 layer_factory.hpp:77] Creating layer L1_b14_cbr2_bn
I0821 08:59:38.912055 32364 net.cpp:100] Creating Layer L1_b14_cbr2_bn
I0821 08:59:38.912067 32364 net.cpp:434] L1_b14_cbr2_bn <- L1_b14_cbr2_conv_top
I0821 08:59:38.912086 32364 net.cpp:408] L1_b14_cbr2_bn -> L1_b14_cbr2_bn_top
I0821 08:59:38.912374 32364 net.cpp:150] Setting up L1_b14_cbr2_bn
I0821 08:59:38.912394 32364 net.cpp:157] Top shape: 100 16 32 32 (1638400)
I0821 08:59:38.912403 32364 net.cpp:165] Memory required for data: 1017038000
I0821 08:59:38.912425 32364 layer_factory.hpp:77] Creating layer L1_b14_cbr2_scale
I0821 08:59:38.912442 32364 net.cpp:100] Creating Layer L1_b14_cbr2_scale
I0821 08:59:38.912453 32364 net.cpp:434] L1_b14_cbr2_scale <- L1_b14_cbr2_bn_top
I0821 08:59:38.912468 32364 net.cpp:395] L1_b14_cbr2_scale -> L1_b14_cbr2_bn_top (in-place)
I0821 08:59:38.912560 32364 layer_factory.hpp:77] Creating layer L1_b14_cbr2_scale
I0821 08:59:38.912740 32364 net.cpp:150] Setting up L1_b14_cbr2_scale
I0821 08:59:38.912760 32364 net.cpp:157] Top shape: 100 16 32 32 (1638400)
I0821 08:59:38.912768 32364 net.cpp:165] Memory required for data: 1023591600
I0821 08:59:38.912786 32364 layer_factory.hpp:77] Creating layer L1_b14_sum_eltwise
I0821 08:59:38.912803 32364 net.cpp:100] Creating Layer L1_b14_sum_eltwise
I0821 08:59:38.912814 32364 net.cpp:434] L1_b14_sum_eltwise <- L1_b14_cbr2_bn_top
I0821 08:59:38.912828 32364 net.cpp:434] L1_b14_sum_eltwise <- L1_b13_sum_eltwise_top_L1_b13_relu_0_split_1
I0821 08:59:38.912850 32364 net.cpp:408] L1_b14_sum_eltwise -> L1_b14_sum_eltwise_top
I0821 08:59:38.912904 32364 net.cpp:150] Setting up L1_b14_sum_eltwise
I0821 08:59:38.912921 32364 net.cpp:157] Top shape: 100 16 32 32 (1638400)
I0821 08:59:38.912930 32364 net.cpp:165] Memory required for data: 1030145200
I0821 08:59:38.912940 32364 layer_factory.hpp:77] Creating layer L1_b14_relu
I0821 08:59:38.912959 32364 net.cpp:100] Creating Layer L1_b14_relu
I0821 08:59:38.912971 32364 net.cpp:434] L1_b14_relu <- L1_b14_sum_eltwise_top
I0821 08:59:38.912986 32364 net.cpp:395] L1_b14_relu -> L1_b14_sum_eltwise_top (in-place)
I0821 08:59:38.913004 32364 net.cpp:150] Setting up L1_b14_relu
I0821 08:59:38.913020 32364 net.cpp:157] Top shape: 100 16 32 32 (1638400)
I0821 08:59:38.913029 32364 net.cpp:165] Memory required for data: 1036698800
I0821 08:59:38.913038 32364 layer_factory.hpp:77] Creating layer L1_b14_sum_eltwise_top_L1_b14_relu_0_split
I0821 08:59:38.913051 32364 net.cpp:100] Creating Layer L1_b14_sum_eltwise_top_L1_b14_relu_0_split
I0821 08:59:38.913063 32364 net.cpp:434] L1_b14_sum_eltwise_top_L1_b14_relu_0_split <- L1_b14_sum_eltwise_top
I0821 08:59:38.913079 32364 net.cpp:408] L1_b14_sum_eltwise_top_L1_b14_relu_0_split -> L1_b14_sum_eltwise_top_L1_b14_relu_0_split_0
I0821 08:59:38.913096 32364 net.cpp:408] L1_b14_sum_eltwise_top_L1_b14_relu_0_split -> L1_b14_sum_eltwise_top_L1_b14_relu_0_split_1
I0821 08:59:38.913185 32364 net.cpp:150] Setting up L1_b14_sum_eltwise_top_L1_b14_relu_0_split
I0821 08:59:38.913205 32364 net.cpp:157] Top shape: 100 16 32 32 (1638400)
I0821 08:59:38.913218 32364 net.cpp:157] Top shape: 100 16 32 32 (1638400)
I0821 08:59:38.913228 32364 net.cpp:165] Memory required for data: 1049806000
I0821 08:59:38.913238 32364 layer_factory.hpp:77] Creating layer L1_b15_cbr1_conv
I0821 08:59:38.913261 32364 net.cpp:100] Creating Layer L1_b15_cbr1_conv
I0821 08:59:38.913275 32364 net.cpp:434] L1_b15_cbr1_conv <- L1_b14_sum_eltwise_top_L1_b14_relu_0_split_0
I0821 08:59:38.913292 32364 net.cpp:408] L1_b15_cbr1_conv -> L1_b15_cbr1_conv_top
I0821 08:59:38.913676 32364 net.cpp:150] Setting up L1_b15_cbr1_conv
I0821 08:59:38.913702 32364 net.cpp:157] Top shape: 100 16 32 32 (1638400)
I0821 08:59:38.913712 32364 net.cpp:165] Memory required for data: 1056359600
I0821 08:59:38.913730 32364 layer_factory.hpp:77] Creating layer L1_b15_cbr1_bn
I0821 08:59:38.913753 32364 net.cpp:100] Creating Layer L1_b15_cbr1_bn
I0821 08:59:38.913765 32364 net.cpp:434] L1_b15_cbr1_bn <- L1_b15_cbr1_conv_top
I0821 08:59:38.913786 32364 net.cpp:408] L1_b15_cbr1_bn -> L1_b15_cbr1_bn_top
I0821 08:59:38.914069 32364 net.cpp:150] Setting up L1_b15_cbr1_bn
I0821 08:59:38.914088 32364 net.cpp:157] Top shape: 100 16 32 32 (1638400)
I0821 08:59:38.914098 32364 net.cpp:165] Memory required for data: 1062913200
I0821 08:59:38.914119 32364 layer_factory.hpp:77] Creating layer L1_b15_cbr1_scale
I0821 08:59:38.914136 32364 net.cpp:100] Creating Layer L1_b15_cbr1_scale
I0821 08:59:38.914155 32364 net.cpp:434] L1_b15_cbr1_scale <- L1_b15_cbr1_bn_top
I0821 08:59:38.914171 32364 net.cpp:395] L1_b15_cbr1_scale -> L1_b15_cbr1_bn_top (in-place)
I0821 08:59:38.914261 32364 layer_factory.hpp:77] Creating layer L1_b15_cbr1_scale
I0821 08:59:38.914440 32364 net.cpp:150] Setting up L1_b15_cbr1_scale
I0821 08:59:38.914459 32364 net.cpp:157] Top shape: 100 16 32 32 (1638400)
I0821 08:59:38.914469 32364 net.cpp:165] Memory required for data: 1069466800
I0821 08:59:38.914487 32364 layer_factory.hpp:77] Creating layer L1_b15_cbr1_relu
I0821 08:59:38.914502 32364 net.cpp:100] Creating Layer L1_b15_cbr1_relu
I0821 08:59:38.914515 32364 net.cpp:434] L1_b15_cbr1_relu <- L1_b15_cbr1_bn_top
I0821 08:59:38.914533 32364 net.cpp:395] L1_b15_cbr1_relu -> L1_b15_cbr1_bn_top (in-place)
I0821 08:59:38.914554 32364 net.cpp:150] Setting up L1_b15_cbr1_relu
I0821 08:59:38.914568 32364 net.cpp:157] Top shape: 100 16 32 32 (1638400)
I0821 08:59:38.914577 32364 net.cpp:165] Memory required for data: 1076020400
I0821 08:59:38.914587 32364 layer_factory.hpp:77] Creating layer L1_b15_cbr2_conv
I0821 08:59:38.914613 32364 net.cpp:100] Creating Layer L1_b15_cbr2_conv
I0821 08:59:38.914626 32364 net.cpp:434] L1_b15_cbr2_conv <- L1_b15_cbr1_bn_top
I0821 08:59:38.914649 32364 net.cpp:408] L1_b15_cbr2_conv -> L1_b15_cbr2_conv_top
I0821 08:59:38.915015 32364 net.cpp:150] Setting up L1_b15_cbr2_conv
I0821 08:59:38.915035 32364 net.cpp:157] Top shape: 100 16 32 32 (1638400)
I0821 08:59:38.915045 32364 net.cpp:165] Memory required for data: 1082574000
I0821 08:59:38.915062 32364 layer_factory.hpp:77] Creating layer L1_b15_cbr2_bn
I0821 08:59:38.915083 32364 net.cpp:100] Creating Layer L1_b15_cbr2_bn
I0821 08:59:38.915096 32364 net.cpp:434] L1_b15_cbr2_bn <- L1_b15_cbr2_conv_top
I0821 08:59:38.915112 32364 net.cpp:408] L1_b15_cbr2_bn -> L1_b15_cbr2_bn_top
I0821 08:59:38.915402 32364 net.cpp:150] Setting up L1_b15_cbr2_bn
I0821 08:59:38.915421 32364 net.cpp:157] Top shape: 100 16 32 32 (1638400)
I0821 08:59:38.915431 32364 net.cpp:165] Memory required for data: 1089127600
I0821 08:59:38.915452 32364 layer_factory.hpp:77] Creating layer L1_b15_cbr2_scale
I0821 08:59:38.915468 32364 net.cpp:100] Creating Layer L1_b15_cbr2_scale
I0821 08:59:38.915479 32364 net.cpp:434] L1_b15_cbr2_scale <- L1_b15_cbr2_bn_top
I0821 08:59:38.915494 32364 net.cpp:395] L1_b15_cbr2_scale -> L1_b15_cbr2_bn_top (in-place)
I0821 08:59:38.915586 32364 layer_factory.hpp:77] Creating layer L1_b15_cbr2_scale
I0821 08:59:38.915768 32364 net.cpp:150] Setting up L1_b15_cbr2_scale
I0821 08:59:38.915787 32364 net.cpp:157] Top shape: 100 16 32 32 (1638400)
I0821 08:59:38.915797 32364 net.cpp:165] Memory required for data: 1095681200
I0821 08:59:38.915815 32364 layer_factory.hpp:77] Creating layer L1_b15_sum_eltwise
I0821 08:59:38.915833 32364 net.cpp:100] Creating Layer L1_b15_sum_eltwise
I0821 08:59:38.915844 32364 net.cpp:434] L1_b15_sum_eltwise <- L1_b15_cbr2_bn_top
I0821 08:59:38.915858 32364 net.cpp:434] L1_b15_sum_eltwise <- L1_b14_sum_eltwise_top_L1_b14_relu_0_split_1
I0821 08:59:38.915880 32364 net.cpp:408] L1_b15_sum_eltwise -> L1_b15_sum_eltwise_top
I0821 08:59:38.915935 32364 net.cpp:150] Setting up L1_b15_sum_eltwise
I0821 08:59:38.915961 32364 net.cpp:157] Top shape: 100 16 32 32 (1638400)
I0821 08:59:38.915971 32364 net.cpp:165] Memory required for data: 1102234800
I0821 08:59:38.915982 32364 layer_factory.hpp:77] Creating layer L1_b15_relu
I0821 08:59:38.916000 32364 net.cpp:100] Creating Layer L1_b15_relu
I0821 08:59:38.916013 32364 net.cpp:434] L1_b15_relu <- L1_b15_sum_eltwise_top
I0821 08:59:38.916026 32364 net.cpp:395] L1_b15_relu -> L1_b15_sum_eltwise_top (in-place)
I0821 08:59:38.916046 32364 net.cpp:150] Setting up L1_b15_relu
I0821 08:59:38.916060 32364 net.cpp:157] Top shape: 100 16 32 32 (1638400)
I0821 08:59:38.916070 32364 net.cpp:165] Memory required for data: 1108788400
I0821 08:59:38.916080 32364 layer_factory.hpp:77] Creating layer L1_b15_sum_eltwise_top_L1_b15_relu_0_split
I0821 08:59:38.916095 32364 net.cpp:100] Creating Layer L1_b15_sum_eltwise_top_L1_b15_relu_0_split
I0821 08:59:38.916105 32364 net.cpp:434] L1_b15_sum_eltwise_top_L1_b15_relu_0_split <- L1_b15_sum_eltwise_top
I0821 08:59:38.916121 32364 net.cpp:408] L1_b15_sum_eltwise_top_L1_b15_relu_0_split -> L1_b15_sum_eltwise_top_L1_b15_relu_0_split_0
I0821 08:59:38.916141 32364 net.cpp:408] L1_b15_sum_eltwise_top_L1_b15_relu_0_split -> L1_b15_sum_eltwise_top_L1_b15_relu_0_split_1
I0821 08:59:38.916234 32364 net.cpp:150] Setting up L1_b15_sum_eltwise_top_L1_b15_relu_0_split
I0821 08:59:38.916252 32364 net.cpp:157] Top shape: 100 16 32 32 (1638400)
I0821 08:59:38.916266 32364 net.cpp:157] Top shape: 100 16 32 32 (1638400)
I0821 08:59:38.916276 32364 net.cpp:165] Memory required for data: 1121895600
I0821 08:59:38.916286 32364 layer_factory.hpp:77] Creating layer L1_b16_cbr1_conv
I0821 08:59:38.916313 32364 net.cpp:100] Creating Layer L1_b16_cbr1_conv
I0821 08:59:38.916327 32364 net.cpp:434] L1_b16_cbr1_conv <- L1_b15_sum_eltwise_top_L1_b15_relu_0_split_0
I0821 08:59:38.916347 32364 net.cpp:408] L1_b16_cbr1_conv -> L1_b16_cbr1_conv_top
I0821 08:59:38.916713 32364 net.cpp:150] Setting up L1_b16_cbr1_conv
I0821 08:59:38.916733 32364 net.cpp:157] Top shape: 100 16 32 32 (1638400)
I0821 08:59:38.916743 32364 net.cpp:165] Memory required for data: 1128449200
I0821 08:59:38.916759 32364 layer_factory.hpp:77] Creating layer L1_b16_cbr1_bn
I0821 08:59:38.916780 32364 net.cpp:100] Creating Layer L1_b16_cbr1_bn
I0821 08:59:38.916793 32364 net.cpp:434] L1_b16_cbr1_bn <- L1_b16_cbr1_conv_top
I0821 08:59:38.916810 32364 net.cpp:408] L1_b16_cbr1_bn -> L1_b16_cbr1_bn_top
I0821 08:59:38.917094 32364 net.cpp:150] Setting up L1_b16_cbr1_bn
I0821 08:59:38.917114 32364 net.cpp:157] Top shape: 100 16 32 32 (1638400)
I0821 08:59:38.917122 32364 net.cpp:165] Memory required for data: 1135002800
I0821 08:59:38.917145 32364 layer_factory.hpp:77] Creating layer L1_b16_cbr1_scale
I0821 08:59:38.917168 32364 net.cpp:100] Creating Layer L1_b16_cbr1_scale
I0821 08:59:38.917181 32364 net.cpp:434] L1_b16_cbr1_scale <- L1_b16_cbr1_bn_top
I0821 08:59:38.917196 32364 net.cpp:395] L1_b16_cbr1_scale -> L1_b16_cbr1_bn_top (in-place)
I0821 08:59:38.917286 32364 layer_factory.hpp:77] Creating layer L1_b16_cbr1_scale
I0821 08:59:38.917469 32364 net.cpp:150] Setting up L1_b16_cbr1_scale
I0821 08:59:38.917487 32364 net.cpp:157] Top shape: 100 16 32 32 (1638400)
I0821 08:59:38.917496 32364 net.cpp:165] Memory required for data: 1141556400
I0821 08:59:38.917515 32364 layer_factory.hpp:77] Creating layer L1_b16_cbr1_relu
I0821 08:59:38.917531 32364 net.cpp:100] Creating Layer L1_b16_cbr1_relu
I0821 08:59:38.917541 32364 net.cpp:434] L1_b16_cbr1_relu <- L1_b16_cbr1_bn_top
I0821 08:59:38.917562 32364 net.cpp:395] L1_b16_cbr1_relu -> L1_b16_cbr1_bn_top (in-place)
I0821 08:59:38.917582 32364 net.cpp:150] Setting up L1_b16_cbr1_relu
I0821 08:59:38.917596 32364 net.cpp:157] Top shape: 100 16 32 32 (1638400)
I0821 08:59:38.917606 32364 net.cpp:165] Memory required for data: 1148110000
I0821 08:59:38.917616 32364 layer_factory.hpp:77] Creating layer L1_b16_cbr2_conv
I0821 08:59:38.917640 32364 net.cpp:100] Creating Layer L1_b16_cbr2_conv
I0821 08:59:38.917652 32364 net.cpp:434] L1_b16_cbr2_conv <- L1_b16_cbr1_bn_top
I0821 08:59:38.917681 32364 net.cpp:408] L1_b16_cbr2_conv -> L1_b16_cbr2_conv_top
I0821 08:59:38.918062 32364 net.cpp:150] Setting up L1_b16_cbr2_conv
I0821 08:59:38.918082 32364 net.cpp:157] Top shape: 100 16 32 32 (1638400)
I0821 08:59:38.918092 32364 net.cpp:165] Memory required for data: 1154663600
I0821 08:59:38.918110 32364 layer_factory.hpp:77] Creating layer L1_b16_cbr2_bn
I0821 08:59:38.918133 32364 net.cpp:100] Creating Layer L1_b16_cbr2_bn
I0821 08:59:38.918145 32364 net.cpp:434] L1_b16_cbr2_bn <- L1_b16_cbr2_conv_top
I0821 08:59:38.918170 32364 net.cpp:408] L1_b16_cbr2_bn -> L1_b16_cbr2_bn_top
I0821 08:59:38.918448 32364 net.cpp:150] Setting up L1_b16_cbr2_bn
I0821 08:59:38.918471 32364 net.cpp:157] Top shape: 100 16 32 32 (1638400)
I0821 08:59:38.918483 32364 net.cpp:165] Memory required for data: 1161217200
I0821 08:59:38.918503 32364 layer_factory.hpp:77] Creating layer L1_b16_cbr2_scale
I0821 08:59:38.918520 32364 net.cpp:100] Creating Layer L1_b16_cbr2_scale
I0821 08:59:38.918532 32364 net.cpp:434] L1_b16_cbr2_scale <- L1_b16_cbr2_bn_top
I0821 08:59:38.918547 32364 net.cpp:395] L1_b16_cbr2_scale -> L1_b16_cbr2_bn_top (in-place)
I0821 08:59:38.918634 32364 layer_factory.hpp:77] Creating layer L1_b16_cbr2_scale
I0821 08:59:38.918814 32364 net.cpp:150] Setting up L1_b16_cbr2_scale
I0821 08:59:38.918833 32364 net.cpp:157] Top shape: 100 16 32 32 (1638400)
I0821 08:59:38.918843 32364 net.cpp:165] Memory required for data: 1167770800
I0821 08:59:38.918861 32364 layer_factory.hpp:77] Creating layer L1_b16_sum_eltwise
I0821 08:59:38.918882 32364 net.cpp:100] Creating Layer L1_b16_sum_eltwise
I0821 08:59:38.918895 32364 net.cpp:434] L1_b16_sum_eltwise <- L1_b16_cbr2_bn_top
I0821 08:59:38.918908 32364 net.cpp:434] L1_b16_sum_eltwise <- L1_b15_sum_eltwise_top_L1_b15_relu_0_split_1
I0821 08:59:38.918929 32364 net.cpp:408] L1_b16_sum_eltwise -> L1_b16_sum_eltwise_top
I0821 08:59:38.918983 32364 net.cpp:150] Setting up L1_b16_sum_eltwise
I0821 08:59:38.919001 32364 net.cpp:157] Top shape: 100 16 32 32 (1638400)
I0821 08:59:38.919011 32364 net.cpp:165] Memory required for data: 1174324400
I0821 08:59:38.919021 32364 layer_factory.hpp:77] Creating layer L1_b16_relu
I0821 08:59:38.919042 32364 net.cpp:100] Creating Layer L1_b16_relu
I0821 08:59:38.919055 32364 net.cpp:434] L1_b16_relu <- L1_b16_sum_eltwise_top
I0821 08:59:38.919070 32364 net.cpp:395] L1_b16_relu -> L1_b16_sum_eltwise_top (in-place)
I0821 08:59:38.919088 32364 net.cpp:150] Setting up L1_b16_relu
I0821 08:59:38.919103 32364 net.cpp:157] Top shape: 100 16 32 32 (1638400)
I0821 08:59:38.919112 32364 net.cpp:165] Memory required for data: 1180878000
I0821 08:59:38.919122 32364 layer_factory.hpp:77] Creating layer L1_b16_sum_eltwise_top_L1_b16_relu_0_split
I0821 08:59:38.919137 32364 net.cpp:100] Creating Layer L1_b16_sum_eltwise_top_L1_b16_relu_0_split
I0821 08:59:38.919155 32364 net.cpp:434] L1_b16_sum_eltwise_top_L1_b16_relu_0_split <- L1_b16_sum_eltwise_top
I0821 08:59:38.919173 32364 net.cpp:408] L1_b16_sum_eltwise_top_L1_b16_relu_0_split -> L1_b16_sum_eltwise_top_L1_b16_relu_0_split_0
I0821 08:59:38.919193 32364 net.cpp:408] L1_b16_sum_eltwise_top_L1_b16_relu_0_split -> L1_b16_sum_eltwise_top_L1_b16_relu_0_split_1
I0821 08:59:38.919275 32364 net.cpp:150] Setting up L1_b16_sum_eltwise_top_L1_b16_relu_0_split
I0821 08:59:38.919296 32364 net.cpp:157] Top shape: 100 16 32 32 (1638400)
I0821 08:59:38.919309 32364 net.cpp:157] Top shape: 100 16 32 32 (1638400)
I0821 08:59:38.919319 32364 net.cpp:165] Memory required for data: 1193985200
I0821 08:59:38.919329 32364 layer_factory.hpp:77] Creating layer L1_b17_cbr1_conv
I0821 08:59:38.919354 32364 net.cpp:100] Creating Layer L1_b17_cbr1_conv
I0821 08:59:38.919369 32364 net.cpp:434] L1_b17_cbr1_conv <- L1_b16_sum_eltwise_top_L1_b16_relu_0_split_0
I0821 08:59:38.919386 32364 net.cpp:408] L1_b17_cbr1_conv -> L1_b17_cbr1_conv_top
I0821 08:59:38.919756 32364 net.cpp:150] Setting up L1_b17_cbr1_conv
I0821 08:59:38.919775 32364 net.cpp:157] Top shape: 100 16 32 32 (1638400)
I0821 08:59:38.919785 32364 net.cpp:165] Memory required for data: 1200538800
I0821 08:59:38.919813 32364 layer_factory.hpp:77] Creating layer L1_b17_cbr1_bn
I0821 08:59:38.919836 32364 net.cpp:100] Creating Layer L1_b17_cbr1_bn
I0821 08:59:38.919849 32364 net.cpp:434] L1_b17_cbr1_bn <- L1_b17_cbr1_conv_top
I0821 08:59:38.919867 32364 net.cpp:408] L1_b17_cbr1_bn -> L1_b17_cbr1_bn_top
I0821 08:59:38.920176 32364 net.cpp:150] Setting up L1_b17_cbr1_bn
I0821 08:59:38.920195 32364 net.cpp:157] Top shape: 100 16 32 32 (1638400)
I0821 08:59:38.920205 32364 net.cpp:165] Memory required for data: 1207092400
I0821 08:59:38.920228 32364 layer_factory.hpp:77] Creating layer L1_b17_cbr1_scale
I0821 08:59:38.920243 32364 net.cpp:100] Creating Layer L1_b17_cbr1_scale
I0821 08:59:38.920255 32364 net.cpp:434] L1_b17_cbr1_scale <- L1_b17_cbr1_bn_top
I0821 08:59:38.920270 32364 net.cpp:395] L1_b17_cbr1_scale -> L1_b17_cbr1_bn_top (in-place)
I0821 08:59:38.920363 32364 layer_factory.hpp:77] Creating layer L1_b17_cbr1_scale
I0821 08:59:38.920545 32364 net.cpp:150] Setting up L1_b17_cbr1_scale
I0821 08:59:38.920563 32364 net.cpp:157] Top shape: 100 16 32 32 (1638400)
I0821 08:59:38.920572 32364 net.cpp:165] Memory required for data: 1213646000
I0821 08:59:38.920590 32364 layer_factory.hpp:77] Creating layer L1_b17_cbr1_relu
I0821 08:59:38.920605 32364 net.cpp:100] Creating Layer L1_b17_cbr1_relu
I0821 08:59:38.920617 32364 net.cpp:434] L1_b17_cbr1_relu <- L1_b17_cbr1_bn_top
I0821 08:59:38.920637 32364 net.cpp:395] L1_b17_cbr1_relu -> L1_b17_cbr1_bn_top (in-place)
I0821 08:59:38.920657 32364 net.cpp:150] Setting up L1_b17_cbr1_relu
I0821 08:59:38.920672 32364 net.cpp:157] Top shape: 100 16 32 32 (1638400)
I0821 08:59:38.920681 32364 net.cpp:165] Memory required for data: 1220199600
I0821 08:59:38.920692 32364 layer_factory.hpp:77] Creating layer L1_b17_cbr2_conv
I0821 08:59:38.920712 32364 net.cpp:100] Creating Layer L1_b17_cbr2_conv
I0821 08:59:38.920725 32364 net.cpp:434] L1_b17_cbr2_conv <- L1_b17_cbr1_bn_top
I0821 08:59:38.920747 32364 net.cpp:408] L1_b17_cbr2_conv -> L1_b17_cbr2_conv_top
I0821 08:59:38.921120 32364 net.cpp:150] Setting up L1_b17_cbr2_conv
I0821 08:59:38.921139 32364 net.cpp:157] Top shape: 100 16 32 32 (1638400)
I0821 08:59:38.921155 32364 net.cpp:165] Memory required for data: 1226753200
I0821 08:59:38.921175 32364 layer_factory.hpp:77] Creating layer L1_b17_cbr2_bn
I0821 08:59:38.921191 32364 net.cpp:100] Creating Layer L1_b17_cbr2_bn
I0821 08:59:38.921202 32364 net.cpp:434] L1_b17_cbr2_bn <- L1_b17_cbr2_conv_top
I0821 08:59:38.921223 32364 net.cpp:408] L1_b17_cbr2_bn -> L1_b17_cbr2_bn_top
I0821 08:59:38.921511 32364 net.cpp:150] Setting up L1_b17_cbr2_bn
I0821 08:59:38.921535 32364 net.cpp:157] Top shape: 100 16 32 32 (1638400)
I0821 08:59:38.921545 32364 net.cpp:165] Memory required for data: 1233306800
I0821 08:59:38.921566 32364 layer_factory.hpp:77] Creating layer L1_b17_cbr2_scale
I0821 08:59:38.921581 32364 net.cpp:100] Creating Layer L1_b17_cbr2_scale
I0821 08:59:38.921592 32364 net.cpp:434] L1_b17_cbr2_scale <- L1_b17_cbr2_bn_top
I0821 08:59:38.921608 32364 net.cpp:395] L1_b17_cbr2_scale -> L1_b17_cbr2_bn_top (in-place)
I0821 08:59:38.921697 32364 layer_factory.hpp:77] Creating layer L1_b17_cbr2_scale
I0821 08:59:38.921880 32364 net.cpp:150] Setting up L1_b17_cbr2_scale
I0821 08:59:38.921898 32364 net.cpp:157] Top shape: 100 16 32 32 (1638400)
I0821 08:59:38.921908 32364 net.cpp:165] Memory required for data: 1239860400
I0821 08:59:38.921926 32364 layer_factory.hpp:77] Creating layer L1_b17_sum_eltwise
I0821 08:59:38.921949 32364 net.cpp:100] Creating Layer L1_b17_sum_eltwise
I0821 08:59:38.921962 32364 net.cpp:434] L1_b17_sum_eltwise <- L1_b17_cbr2_bn_top
I0821 08:59:38.921975 32364 net.cpp:434] L1_b17_sum_eltwise <- L1_b16_sum_eltwise_top_L1_b16_relu_0_split_1
I0821 08:59:38.921999 32364 net.cpp:408] L1_b17_sum_eltwise -> L1_b17_sum_eltwise_top
I0821 08:59:38.922055 32364 net.cpp:150] Setting up L1_b17_sum_eltwise
I0821 08:59:38.922073 32364 net.cpp:157] Top shape: 100 16 32 32 (1638400)
I0821 08:59:38.922083 32364 net.cpp:165] Memory required for data: 1246414000
I0821 08:59:38.922101 32364 layer_factory.hpp:77] Creating layer L1_b17_relu
I0821 08:59:38.922116 32364 net.cpp:100] Creating Layer L1_b17_relu
I0821 08:59:38.922127 32364 net.cpp:434] L1_b17_relu <- L1_b17_sum_eltwise_top
I0821 08:59:38.922153 32364 net.cpp:395] L1_b17_relu -> L1_b17_sum_eltwise_top (in-place)
I0821 08:59:38.922175 32364 net.cpp:150] Setting up L1_b17_relu
I0821 08:59:38.922191 32364 net.cpp:157] Top shape: 100 16 32 32 (1638400)
I0821 08:59:38.922200 32364 net.cpp:165] Memory required for data: 1252967600
I0821 08:59:38.922210 32364 layer_factory.hpp:77] Creating layer L1_b17_sum_eltwise_top_L1_b17_relu_0_split
I0821 08:59:38.922224 32364 net.cpp:100] Creating Layer L1_b17_sum_eltwise_top_L1_b17_relu_0_split
I0821 08:59:38.922235 32364 net.cpp:434] L1_b17_sum_eltwise_top_L1_b17_relu_0_split <- L1_b17_sum_eltwise_top
I0821 08:59:38.922251 32364 net.cpp:408] L1_b17_sum_eltwise_top_L1_b17_relu_0_split -> L1_b17_sum_eltwise_top_L1_b17_relu_0_split_0
I0821 08:59:38.922271 32364 net.cpp:408] L1_b17_sum_eltwise_top_L1_b17_relu_0_split -> L1_b17_sum_eltwise_top_L1_b17_relu_0_split_1
I0821 08:59:38.922353 32364 net.cpp:150] Setting up L1_b17_sum_eltwise_top_L1_b17_relu_0_split
I0821 08:59:38.922372 32364 net.cpp:157] Top shape: 100 16 32 32 (1638400)
I0821 08:59:38.922385 32364 net.cpp:157] Top shape: 100 16 32 32 (1638400)
I0821 08:59:38.922394 32364 net.cpp:165] Memory required for data: 1266074800
I0821 08:59:38.922405 32364 layer_factory.hpp:77] Creating layer L1_b18_cbr1_conv
I0821 08:59:38.922430 32364 net.cpp:100] Creating Layer L1_b18_cbr1_conv
I0821 08:59:38.922443 32364 net.cpp:434] L1_b18_cbr1_conv <- L1_b17_sum_eltwise_top_L1_b17_relu_0_split_0
I0821 08:59:38.922462 32364 net.cpp:408] L1_b18_cbr1_conv -> L1_b18_cbr1_conv_top
I0821 08:59:38.922842 32364 net.cpp:150] Setting up L1_b18_cbr1_conv
I0821 08:59:38.922863 32364 net.cpp:157] Top shape: 100 16 32 32 (1638400)
I0821 08:59:38.922871 32364 net.cpp:165] Memory required for data: 1272628400
I0821 08:59:38.922889 32364 layer_factory.hpp:77] Creating layer L1_b18_cbr1_bn
I0821 08:59:38.922910 32364 net.cpp:100] Creating Layer L1_b18_cbr1_bn
I0821 08:59:38.922924 32364 net.cpp:434] L1_b18_cbr1_bn <- L1_b18_cbr1_conv_top
I0821 08:59:38.922940 32364 net.cpp:408] L1_b18_cbr1_bn -> L1_b18_cbr1_bn_top
I0821 08:59:38.923264 32364 net.cpp:150] Setting up L1_b18_cbr1_bn
I0821 08:59:38.923285 32364 net.cpp:157] Top shape: 100 16 32 32 (1638400)
I0821 08:59:38.923295 32364 net.cpp:165] Memory required for data: 1279182000
I0821 08:59:38.923316 32364 layer_factory.hpp:77] Creating layer L1_b18_cbr1_scale
I0821 08:59:38.923337 32364 net.cpp:100] Creating Layer L1_b18_cbr1_scale
I0821 08:59:38.923351 32364 net.cpp:434] L1_b18_cbr1_scale <- L1_b18_cbr1_bn_top
I0821 08:59:38.923370 32364 net.cpp:395] L1_b18_cbr1_scale -> L1_b18_cbr1_bn_top (in-place)
I0821 08:59:38.923467 32364 layer_factory.hpp:77] Creating layer L1_b18_cbr1_scale
I0821 08:59:38.923652 32364 net.cpp:150] Setting up L1_b18_cbr1_scale
I0821 08:59:38.923671 32364 net.cpp:157] Top shape: 100 16 32 32 (1638400)
I0821 08:59:38.923681 32364 net.cpp:165] Memory required for data: 1285735600
I0821 08:59:38.923699 32364 layer_factory.hpp:77] Creating layer L1_b18_cbr1_relu
I0821 08:59:38.923718 32364 net.cpp:100] Creating Layer L1_b18_cbr1_relu
I0821 08:59:38.923732 32364 net.cpp:434] L1_b18_cbr1_relu <- L1_b18_cbr1_bn_top
I0821 08:59:38.923746 32364 net.cpp:395] L1_b18_cbr1_relu -> L1_b18_cbr1_bn_top (in-place)
I0821 08:59:38.923765 32364 net.cpp:150] Setting up L1_b18_cbr1_relu
I0821 08:59:38.923780 32364 net.cpp:157] Top shape: 100 16 32 32 (1638400)
I0821 08:59:38.923790 32364 net.cpp:165] Memory required for data: 1292289200
I0821 08:59:38.923800 32364 layer_factory.hpp:77] Creating layer L1_b18_cbr2_conv
I0821 08:59:38.923825 32364 net.cpp:100] Creating Layer L1_b18_cbr2_conv
I0821 08:59:38.923837 32364 net.cpp:434] L1_b18_cbr2_conv <- L1_b18_cbr1_bn_top
I0821 08:59:38.923859 32364 net.cpp:408] L1_b18_cbr2_conv -> L1_b18_cbr2_conv_top
I0821 08:59:38.924258 32364 net.cpp:150] Setting up L1_b18_cbr2_conv
I0821 08:59:38.924284 32364 net.cpp:157] Top shape: 100 16 32 32 (1638400)
I0821 08:59:38.924294 32364 net.cpp:165] Memory required for data: 1298842800
I0821 08:59:38.924312 32364 layer_factory.hpp:77] Creating layer L1_b18_cbr2_bn
I0821 08:59:38.924330 32364 net.cpp:100] Creating Layer L1_b18_cbr2_bn
I0821 08:59:38.924341 32364 net.cpp:434] L1_b18_cbr2_bn <- L1_b18_cbr2_conv_top
I0821 08:59:38.924366 32364 net.cpp:408] L1_b18_cbr2_bn -> L1_b18_cbr2_bn_top
I0821 08:59:38.924654 32364 net.cpp:150] Setting up L1_b18_cbr2_bn
I0821 08:59:38.924672 32364 net.cpp:157] Top shape: 100 16 32 32 (1638400)
I0821 08:59:38.924681 32364 net.cpp:165] Memory required for data: 1305396400
I0821 08:59:38.924751 32364 layer_factory.hpp:77] Creating layer L1_b18_cbr2_scale
I0821 08:59:38.924777 32364 net.cpp:100] Creating Layer L1_b18_cbr2_scale
I0821 08:59:38.924790 32364 net.cpp:434] L1_b18_cbr2_scale <- L1_b18_cbr2_bn_top
I0821 08:59:38.924806 32364 net.cpp:395] L1_b18_cbr2_scale -> L1_b18_cbr2_bn_top (in-place)
I0821 08:59:38.924903 32364 layer_factory.hpp:77] Creating layer L1_b18_cbr2_scale
I0821 08:59:38.925084 32364 net.cpp:150] Setting up L1_b18_cbr2_scale
I0821 08:59:38.925104 32364 net.cpp:157] Top shape: 100 16 32 32 (1638400)
I0821 08:59:38.925113 32364 net.cpp:165] Memory required for data: 1311950000
I0821 08:59:38.925132 32364 layer_factory.hpp:77] Creating layer L1_b18_sum_eltwise
I0821 08:59:38.925160 32364 net.cpp:100] Creating Layer L1_b18_sum_eltwise
I0821 08:59:38.925174 32364 net.cpp:434] L1_b18_sum_eltwise <- L1_b18_cbr2_bn_top
I0821 08:59:38.925189 32364 net.cpp:434] L1_b18_sum_eltwise <- L1_b17_sum_eltwise_top_L1_b17_relu_0_split_1
I0821 08:59:38.925204 32364 net.cpp:408] L1_b18_sum_eltwise -> L1_b18_sum_eltwise_top
I0821 08:59:38.925261 32364 net.cpp:150] Setting up L1_b18_sum_eltwise
I0821 08:59:38.925279 32364 net.cpp:157] Top shape: 100 16 32 32 (1638400)
I0821 08:59:38.925288 32364 net.cpp:165] Memory required for data: 1318503600
I0821 08:59:38.925298 32364 layer_factory.hpp:77] Creating layer L1_b18_relu
I0821 08:59:38.925313 32364 net.cpp:100] Creating Layer L1_b18_relu
I0821 08:59:38.925324 32364 net.cpp:434] L1_b18_relu <- L1_b18_sum_eltwise_top
I0821 08:59:38.925343 32364 net.cpp:395] L1_b18_relu -> L1_b18_sum_eltwise_top (in-place)
I0821 08:59:38.925362 32364 net.cpp:150] Setting up L1_b18_relu
I0821 08:59:38.925377 32364 net.cpp:157] Top shape: 100 16 32 32 (1638400)
I0821 08:59:38.925386 32364 net.cpp:165] Memory required for data: 1325057200
I0821 08:59:38.925396 32364 layer_factory.hpp:77] Creating layer L1_b18_sum_eltwise_top_L1_b18_relu_0_split
I0821 08:59:38.925410 32364 net.cpp:100] Creating Layer L1_b18_sum_eltwise_top_L1_b18_relu_0_split
I0821 08:59:38.925420 32364 net.cpp:434] L1_b18_sum_eltwise_top_L1_b18_relu_0_split <- L1_b18_sum_eltwise_top
I0821 08:59:38.925439 32364 net.cpp:408] L1_b18_sum_eltwise_top_L1_b18_relu_0_split -> L1_b18_sum_eltwise_top_L1_b18_relu_0_split_0
I0821 08:59:38.925462 32364 net.cpp:408] L1_b18_sum_eltwise_top_L1_b18_relu_0_split -> L1_b18_sum_eltwise_top_L1_b18_relu_0_split_1
I0821 08:59:38.925540 32364 net.cpp:150] Setting up L1_b18_sum_eltwise_top_L1_b18_relu_0_split
I0821 08:59:38.925561 32364 net.cpp:157] Top shape: 100 16 32 32 (1638400)
I0821 08:59:38.925575 32364 net.cpp:157] Top shape: 100 16 32 32 (1638400)
I0821 08:59:38.925583 32364 net.cpp:165] Memory required for data: 1338164400
I0821 08:59:38.925593 32364 layer_factory.hpp:77] Creating layer L2_b1_cbr1_conv
I0821 08:59:38.925618 32364 net.cpp:100] Creating Layer L2_b1_cbr1_conv
I0821 08:59:38.925631 32364 net.cpp:434] L2_b1_cbr1_conv <- L1_b18_sum_eltwise_top_L1_b18_relu_0_split_0
I0821 08:59:38.925650 32364 net.cpp:408] L2_b1_cbr1_conv -> L2_b1_cbr1_conv_top
I0821 08:59:38.926033 32364 net.cpp:150] Setting up L2_b1_cbr1_conv
I0821 08:59:38.926054 32364 net.cpp:157] Top shape: 100 16 16 16 (409600)
I0821 08:59:38.926062 32364 net.cpp:165] Memory required for data: 1339802800
I0821 08:59:38.926080 32364 layer_factory.hpp:77] Creating layer L2_b1_cbr1_bn
I0821 08:59:38.926102 32364 net.cpp:100] Creating Layer L2_b1_cbr1_bn
I0821 08:59:38.926122 32364 net.cpp:434] L2_b1_cbr1_bn <- L2_b1_cbr1_conv_top
I0821 08:59:38.926141 32364 net.cpp:408] L2_b1_cbr1_bn -> L2_b1_cbr1_bn_top
I0821 08:59:38.926445 32364 net.cpp:150] Setting up L2_b1_cbr1_bn
I0821 08:59:38.926463 32364 net.cpp:157] Top shape: 100 16 16 16 (409600)
I0821 08:59:38.926472 32364 net.cpp:165] Memory required for data: 1341441200
I0821 08:59:38.926496 32364 layer_factory.hpp:77] Creating layer L2_b1_cbr1_scale
I0821 08:59:38.926512 32364 net.cpp:100] Creating Layer L2_b1_cbr1_scale
I0821 08:59:38.926522 32364 net.cpp:434] L2_b1_cbr1_scale <- L2_b1_cbr1_bn_top
I0821 08:59:38.926538 32364 net.cpp:395] L2_b1_cbr1_scale -> L2_b1_cbr1_bn_top (in-place)
I0821 08:59:38.926632 32364 layer_factory.hpp:77] Creating layer L2_b1_cbr1_scale
I0821 08:59:38.926816 32364 net.cpp:150] Setting up L2_b1_cbr1_scale
I0821 08:59:38.926838 32364 net.cpp:157] Top shape: 100 16 16 16 (409600)
I0821 08:59:38.926847 32364 net.cpp:165] Memory required for data: 1343079600
I0821 08:59:38.926867 32364 layer_factory.hpp:77] Creating layer L2_b1_cbr1_relu
I0821 08:59:38.926882 32364 net.cpp:100] Creating Layer L2_b1_cbr1_relu
I0821 08:59:38.926892 32364 net.cpp:434] L2_b1_cbr1_relu <- L2_b1_cbr1_bn_top
I0821 08:59:38.926908 32364 net.cpp:395] L2_b1_cbr1_relu -> L2_b1_cbr1_bn_top (in-place)
I0821 08:59:38.926928 32364 net.cpp:150] Setting up L2_b1_cbr1_relu
I0821 08:59:38.926941 32364 net.cpp:157] Top shape: 100 16 16 16 (409600)
I0821 08:59:38.926951 32364 net.cpp:165] Memory required for data: 1344718000
I0821 08:59:38.926960 32364 layer_factory.hpp:77] Creating layer L2_b1_cbr2_conv
I0821 08:59:38.926986 32364 net.cpp:100] Creating Layer L2_b1_cbr2_conv
I0821 08:59:38.926998 32364 net.cpp:434] L2_b1_cbr2_conv <- L2_b1_cbr1_bn_top
I0821 08:59:38.927021 32364 net.cpp:408] L2_b1_cbr2_conv -> L2_b1_cbr2_conv_top
I0821 08:59:38.927407 32364 net.cpp:150] Setting up L2_b1_cbr2_conv
I0821 08:59:38.927426 32364 net.cpp:157] Top shape: 100 16 16 16 (409600)
I0821 08:59:38.927436 32364 net.cpp:165] Memory required for data: 1346356400
I0821 08:59:38.927454 32364 layer_factory.hpp:77] Creating layer L2_b1_cbr2_bn
I0821 08:59:38.927475 32364 net.cpp:100] Creating Layer L2_b1_cbr2_bn
I0821 08:59:38.927487 32364 net.cpp:434] L2_b1_cbr2_bn <- L2_b1_cbr2_conv_top
I0821 08:59:38.927510 32364 net.cpp:408] L2_b1_cbr2_bn -> L2_b1_cbr2_bn_top
I0821 08:59:38.927791 32364 net.cpp:150] Setting up L2_b1_cbr2_bn
I0821 08:59:38.927810 32364 net.cpp:157] Top shape: 100 16 16 16 (409600)
I0821 08:59:38.927819 32364 net.cpp:165] Memory required for data: 1347994800
I0821 08:59:38.927841 32364 layer_factory.hpp:77] Creating layer L2_b1_cbr2_scale
I0821 08:59:38.927858 32364 net.cpp:100] Creating Layer L2_b1_cbr2_scale
I0821 08:59:38.927870 32364 net.cpp:434] L2_b1_cbr2_scale <- L2_b1_cbr2_bn_top
I0821 08:59:38.927884 32364 net.cpp:395] L2_b1_cbr2_scale -> L2_b1_cbr2_bn_top (in-place)
I0821 08:59:38.927983 32364 layer_factory.hpp:77] Creating layer L2_b1_cbr2_scale
I0821 08:59:38.928172 32364 net.cpp:150] Setting up L2_b1_cbr2_scale
I0821 08:59:38.928192 32364 net.cpp:157] Top shape: 100 16 16 16 (409600)
I0821 08:59:38.928202 32364 net.cpp:165] Memory required for data: 1349633200
I0821 08:59:38.928220 32364 layer_factory.hpp:77] Creating layer L2_b1_pool
I0821 08:59:38.928246 32364 net.cpp:100] Creating Layer L2_b1_pool
I0821 08:59:38.928261 32364 net.cpp:434] L2_b1_pool <- L1_b18_sum_eltwise_top_L1_b18_relu_0_split_1
I0821 08:59:38.928278 32364 net.cpp:408] L2_b1_pool -> L2_b1_pool
I0821 08:59:38.928393 32364 net.cpp:150] Setting up L2_b1_pool
I0821 08:59:38.928413 32364 net.cpp:157] Top shape: 100 16 16 16 (409600)
I0821 08:59:38.928423 32364 net.cpp:165] Memory required for data: 1351271600
I0821 08:59:38.928433 32364 layer_factory.hpp:77] Creating layer L2_b1_sum_eltwise
I0821 08:59:38.928449 32364 net.cpp:100] Creating Layer L2_b1_sum_eltwise
I0821 08:59:38.928460 32364 net.cpp:434] L2_b1_sum_eltwise <- L2_b1_cbr2_bn_top
I0821 08:59:38.928473 32364 net.cpp:434] L2_b1_sum_eltwise <- L2_b1_pool
I0821 08:59:38.928501 32364 net.cpp:408] L2_b1_sum_eltwise -> L2_b1_sum_eltwise_top
I0821 08:59:38.928560 32364 net.cpp:150] Setting up L2_b1_sum_eltwise
I0821 08:59:38.928580 32364 net.cpp:157] Top shape: 100 16 16 16 (409600)
I0821 08:59:38.928589 32364 net.cpp:165] Memory required for data: 1352910000
I0821 08:59:38.928601 32364 layer_factory.hpp:77] Creating layer L2_b1_relu
I0821 08:59:38.928619 32364 net.cpp:100] Creating Layer L2_b1_relu
I0821 08:59:38.928632 32364 net.cpp:434] L2_b1_relu <- L2_b1_sum_eltwise_top
I0821 08:59:38.928647 32364 net.cpp:395] L2_b1_relu -> L2_b1_sum_eltwise_top (in-place)
I0821 08:59:38.928666 32364 net.cpp:150] Setting up L2_b1_relu
I0821 08:59:38.928681 32364 net.cpp:157] Top shape: 100 16 16 16 (409600)
I0821 08:59:38.928690 32364 net.cpp:165] Memory required for data: 1354548400
I0821 08:59:38.928700 32364 layer_factory.hpp:77] Creating layer L2_b1_zeros
I0821 08:59:38.928764 32364 net.cpp:100] Creating Layer L2_b1_zeros
I0821 08:59:38.928783 32364 net.cpp:408] L2_b1_zeros -> L2_b1_zeros
I0821 08:59:38.930799 32364 net.cpp:150] Setting up L2_b1_zeros
I0821 08:59:38.930826 32364 net.cpp:157] Top shape: 100 16 16 16 (409600)
I0821 08:59:38.930837 32364 net.cpp:165] Memory required for data: 1356186800
I0821 08:59:38.930848 32364 layer_factory.hpp:77] Creating layer L2_b1_concat0
I0821 08:59:38.930865 32364 net.cpp:100] Creating Layer L2_b1_concat0
I0821 08:59:38.930876 32364 net.cpp:434] L2_b1_concat0 <- L2_b1_sum_eltwise_top
I0821 08:59:38.930889 32364 net.cpp:434] L2_b1_concat0 <- L2_b1_zeros
I0821 08:59:38.930912 32364 net.cpp:408] L2_b1_concat0 -> L2_b1_concat0
I0821 08:59:38.931011 32364 net.cpp:150] Setting up L2_b1_concat0
I0821 08:59:38.931031 32364 net.cpp:157] Top shape: 100 32 16 16 (819200)
I0821 08:59:38.931041 32364 net.cpp:165] Memory required for data: 1359463600
I0821 08:59:38.931052 32364 layer_factory.hpp:77] Creating layer L2_b1_concat0_L2_b1_concat0_0_split
I0821 08:59:38.931072 32364 net.cpp:100] Creating Layer L2_b1_concat0_L2_b1_concat0_0_split
I0821 08:59:38.931084 32364 net.cpp:434] L2_b1_concat0_L2_b1_concat0_0_split <- L2_b1_concat0
I0821 08:59:38.931099 32364 net.cpp:408] L2_b1_concat0_L2_b1_concat0_0_split -> L2_b1_concat0_L2_b1_concat0_0_split_0
…
I0821 08:59:39.042791 32364 net.cpp:408] L3_b10_sum_eltwise_top_L3_b10_relu_0_split -> L3_b10_sum_eltwise_top_L3_b10_relu_0_split_0
I0821 08:59:39.042812 32364 net.cpp:408] L3_b10_sum_eltwise_top_L3_b10_relu_0_split -> L3_b10_sum_eltwise_top_L3_b10_relu_0_split_1
I0821 08:59:39.042898 32364 net.cpp:150] Setting up L3_b10_sum_eltwise_top_L3_b10_relu_0_split
I0821 08:59:39.042925 32364 net.cpp:157] Top shape: 100 64 8 8 (409600)
I0821 08:59:39.042942 32364 net.cpp:157] Top shape: 100 64 8 8 (409600)
I0821 08:59:39.042951 32364 net.cpp:165] Memory required for data: 2154906800
I0821 08:59:39.042961 32364 layer_factory.hpp:77] Creating layer L3_b11_cbr1_conv
I0821 08:59:39.042982 32364 net.cpp:100] Creating Layer L3_b11_cbr1_conv
I0821 08:59:39.042995 32364 net.cpp:434] L3_b11_cbr1_conv <- L3_b10_sum_eltwise_top_L3_b10_relu_0_split_0
I0821 08:59:39.043015 32364 net.cpp:408] L3_b11_cbr1_conv -> L3_b11_cbr1_conv_top
I0821 08:59:39.044081 32364 net.cpp:150] Setting up L3_b11_cbr1_conv
I0821 08:59:39.044101 32364 net.cpp:157] Top shape: 100 64 8 8 (409600)
I0821 08:59:39.044111 32364 net.cpp:165] Memory required for data: 2156545200
I0821 08:59:39.044129 32364 layer_factory.hpp:77] Creating layer L3_b11_cbr1_bn
I0821 08:59:39.044157 32364 net.cpp:100] Creating Layer L3_b11_cbr1_bn
I0821 08:59:39.044170 32364 net.cpp:434] L3_b11_cbr1_bn <- L3_b11_cbr1_conv_top
I0821 08:59:39.044188 32364 net.cpp:408] L3_b11_cbr1_bn -> L3_b11_cbr1_bn_top
I0821 08:59:39.044498 32364 net.cpp:150] Setting up L3_b11_cbr1_bn
I0821 08:59:39.044517 32364 net.cpp:157] Top shape: 100 64 8 8 (409600)
I0821 08:59:39.044528 32364 net.cpp:165] Memory required for data: 2158183600
I0821 08:59:39.044549 32364 layer_factory.hpp:77] Creating layer L3_b11_cbr1_scale
I0821 08:59:39.044570 32364 net.cpp:100] Creating Layer L3_b11_cbr1_scale
I0821 08:59:39.044582 32364 net.cpp:434] L3_b11_cbr1_scale <- L3_b11_cbr1_bn_top
I0821 08:59:39.044598 32364 net.cpp:395] L3_b11_cbr1_scale -> L3_b11_cbr1_bn_top (in-place)
I0821 08:59:39.044694 32364 layer_factory.hpp:77] Creating layer L3_b11_cbr1_scale
I0821 08:59:39.044891 32364 net.cpp:150] Setting up L3_b11_cbr1_scale
I0821 08:59:39.044911 32364 net.cpp:157] Top shape: 100 64 8 8 (409600)
I0821 08:59:39.044920 32364 net.cpp:165] Memory required for data: 2159822000
I0821 08:59:39.044939 32364 layer_factory.hpp:77] Creating layer L3_b11_cbr1_relu
I0821 08:59:39.044963 32364 net.cpp:100] Creating Layer L3_b11_cbr1_relu
I0821 08:59:39.044975 32364 net.cpp:434] L3_b11_cbr1_relu <- L3_b11_cbr1_bn_top
I0821 08:59:39.044997 32364 net.cpp:395] L3_b11_cbr1_relu -> L3_b11_cbr1_bn_top (in-place)
I0821 08:59:39.045019 32364 net.cpp:150] Setting up L3_b11_cbr1_relu
I0821 08:59:39.045034 32364 net.cpp:157] Top shape: 100 64 8 8 (409600)
I0821 08:59:39.045043 32364 net.cpp:165] Memory required for data: 2161460400
I0821 08:59:39.045053 32364 layer_factory.hpp:77] Creating layer L3_b11_cbr2_conv
I0821 08:59:39.045074 32364 net.cpp:100] Creating Layer L3_b11_cbr2_conv
I0821 08:59:39.045086 32364 net.cpp:434] L3_b11_cbr2_conv <- L3_b11_cbr1_bn_top
I0821 08:59:39.045107 32364 net.cpp:408] L3_b11_cbr2_conv -> L3_b11_cbr2_conv_top
I0821 08:59:39.046172 32364 net.cpp:150] Setting up L3_b11_cbr2_conv
I0821 08:59:39.046193 32364 net.cpp:157] Top shape: 100 64 8 8 (409600)
I0821 08:59:39.046203 32364 net.cpp:165] Memory required for data: 2163098800
I0821 08:59:39.046221 32364 layer_factory.hpp:77] Creating layer L3_b11_cbr2_bn
I0821 08:59:39.046245 32364 net.cpp:100] Creating Layer L3_b11_cbr2_bn
I0821 08:59:39.046259 32364 net.cpp:434] L3_b11_cbr2_bn <- L3_b11_cbr2_conv_top
I0821 08:59:39.046277 32364 net.cpp:408] L3_b11_cbr2_bn -> L3_b11_cbr2_bn_top
I0821 08:59:39.046587 32364 net.cpp:150] Setting up L3_b11_cbr2_bn
I0821 08:59:39.046607 32364 net.cpp:157] Top shape: 100 64 8 8 (409600)
I0821 08:59:39.046617 32364 net.cpp:165] Memory required for data: 2164737200
I0821 08:59:39.046638 32364 layer_factory.hpp:77] Creating layer L3_b11_cbr2_scale
I0821 08:59:39.046654 32364 net.cpp:100] Creating Layer L3_b11_cbr2_scale
I0821 08:59:39.046666 32364 net.cpp:434] L3_b11_cbr2_scale <- L3_b11_cbr2_bn_top
I0821 08:59:39.046681 32364 net.cpp:395] L3_b11_cbr2_scale -> L3_b11_cbr2_bn_top (in-place)
I0821 08:59:39.046780 32364 layer_factory.hpp:77] Creating layer L3_b11_cbr2_scale
I0821 08:59:39.046977 32364 net.cpp:150] Setting up L3_b11_cbr2_scale
I0821 08:59:39.046999 32364 net.cpp:157] Top shape: 100 64 8 8 (409600)
I0821 08:59:39.047009 32364 net.cpp:165] Memory required for data: 2166375600
I0821 08:59:39.047026 32364 layer_factory.hpp:77] Creating layer L3_b11_sum_eltwise
I0821 08:59:39.047044 32364 net.cpp:100] Creating Layer L3_b11_sum_eltwise
I0821 08:59:39.047055 32364 net.cpp:434] L3_b11_sum_eltwise <- L3_b11_cbr2_bn_top
I0821 08:59:39.047068 32364 net.cpp:434] L3_b11_sum_eltwise <- L3_b10_sum_eltwise_top_L3_b10_relu_0_split_1
I0821 08:59:39.047089 32364 net.cpp:408] L3_b11_sum_eltwise -> L3_b11_sum_eltwise_top
I0821 08:59:39.047152 32364 net.cpp:150] Setting up L3_b11_sum_eltwise
I0821 08:59:39.047171 32364 net.cpp:157] Top shape: 100 64 8 8 (409600)
I0821 08:59:39.047181 32364 net.cpp:165] Memory required for data: 2168014000
I0821 08:59:39.047191 32364 layer_factory.hpp:77] Creating layer L3_b11_relu
I0821 08:59:39.047210 32364 net.cpp:100] Creating Layer L3_b11_relu
I0821 08:59:39.047224 32364 net.cpp:434] L3_b11_relu <- L3_b11_sum_eltwise_top
I0821 08:59:39.047236 32364 net.cpp:395] L3_b11_relu -> L3_b11_sum_eltwise_top (in-place)
I0821 08:59:39.047256 32364 net.cpp:150] Setting up L3_b11_relu
I0821 08:59:39.047271 32364 net.cpp:157] Top shape: 100 64 8 8 (409600)
I0821 08:59:39.047279 32364 net.cpp:165] Memory required for data: 2169652400
I0821 08:59:39.047289 32364 layer_factory.hpp:77] Creating layer L3_b11_sum_eltwise_top_L3_b11_relu_0_split
I0821 08:59:39.047307 32364 net.cpp:100] Creating Layer L3_b11_sum_eltwise_top_L3_b11_relu_0_split
I0821 08:59:39.047318 32364 net.cpp:434] L3_b11_sum_eltwise_top_L3_b11_relu_0_split <- L3_b11_sum_eltwise_top
I0821 08:59:39.047334 32364 net.cpp:408] L3_b11_sum_eltwise_top_L3_b11_relu_0_split -> L3_b11_sum_eltwise_top_L3_b11_relu_0_split_0
I0821 08:59:39.047354 32364 net.cpp:408] L3_b11_sum_eltwise_top_L3_b11_relu_0_split -> L3_b11_sum_eltwise_top_L3_b11_relu_0_split_1
I0821 08:59:39.047439 32364 net.cpp:150] Setting up L3_b11_sum_eltwise_top_L3_b11_relu_0_split
I0821 08:59:39.047464 32364 net.cpp:157] Top shape: 100 64 8 8 (409600)
I0821 08:59:39.047489 32364 net.cpp:157] Top shape: 100 64 8 8 (409600)
I0821 08:59:39.047500 32364 net.cpp:165] Memory required for data: 2172929200
I0821 08:59:39.047510 32364 layer_factory.hpp:77] Creating layer L3_b12_cbr1_conv
I0821 08:59:39.047531 32364 net.cpp:100] Creating Layer L3_b12_cbr1_conv
I0821 08:59:39.047544 32364 net.cpp:434] L3_b12_cbr1_conv <- L3_b11_sum_eltwise_top_L3_b11_relu_0_split_0
I0821 08:59:39.047562 32364 net.cpp:408] L3_b12_cbr1_conv -> L3_b12_cbr1_conv_top
I0821 08:59:39.048647 32364 net.cpp:150] Setting up L3_b12_cbr1_conv
I0821 08:59:39.048667 32364 net.cpp:157] Top shape: 100 64 8 8 (409600)
I0821 08:59:39.048677 32364 net.cpp:165] Memory required for data: 2174567600
I0821 08:59:39.048694 32364 layer_factory.hpp:77] Creating layer L3_b12_cbr1_bn
I0821 08:59:39.048718 32364 net.cpp:100] Creating Layer L3_b12_cbr1_bn
I0821 08:59:39.048732 32364 net.cpp:434] L3_b12_cbr1_bn <- L3_b12_cbr1_conv_top
I0821 08:59:39.048749 32364 net.cpp:408] L3_b12_cbr1_bn -> L3_b12_cbr1_bn_top
I0821 08:59:39.049055 32364 net.cpp:150] Setting up L3_b12_cbr1_bn
I0821 08:59:39.049074 32364 net.cpp:157] Top shape: 100 64 8 8 (409600)
I0821 08:59:39.049084 32364 net.cpp:165] Memory required for data: 2176206000
I0821 08:59:39.049105 32364 layer_factory.hpp:77] Creating layer L3_b12_cbr1_scale
I0821 08:59:39.049126 32364 net.cpp:100] Creating Layer L3_b12_cbr1_scale
I0821 08:59:39.049139 32364 net.cpp:434] L3_b12_cbr1_scale <- L3_b12_cbr1_bn_top
I0821 08:59:39.049167 32364 net.cpp:395] L3_b12_cbr1_scale -> L3_b12_cbr1_bn_top (in-place)
I0821 08:59:39.049268 32364 layer_factory.hpp:77] Creating layer L3_b12_cbr1_scale
I0821 08:59:39.049470 32364 net.cpp:150] Setting up L3_b12_cbr1_scale
I0821 08:59:39.049489 32364 net.cpp:157] Top shape: 100 64 8 8 (409600)
I0821 08:59:39.049499 32364 net.cpp:165] Memory required for data: 2177844400
I0821 08:59:39.049517 32364 layer_factory.hpp:77] Creating layer L3_b12_cbr1_relu
I0821 08:59:39.049532 32364 net.cpp:100] Creating Layer L3_b12_cbr1_relu
I0821 08:59:39.049545 32364 net.cpp:434] L3_b12_cbr1_relu <- L3_b12_cbr1_bn_top
I0821 08:59:39.049563 32364 net.cpp:395] L3_b12_cbr1_relu -> L3_b12_cbr1_bn_top (in-place)
I0821 08:59:39.049584 32364 net.cpp:150] Setting up L3_b12_cbr1_relu
I0821 08:59:39.049599 32364 net.cpp:157] Top shape: 100 64 8 8 (409600)
I0821 08:59:39.049608 32364 net.cpp:165] Memory required for data: 2179482800
I0821 08:59:39.049619 32364 layer_factory.hpp:77] Creating layer L3_b12_cbr2_conv
I0821 08:59:39.049644 32364 net.cpp:100] Creating Layer L3_b12_cbr2_conv
I0821 08:59:39.049657 32364 net.cpp:434] L3_b12_cbr2_conv <- L3_b12_cbr1_bn_top
I0821 08:59:39.049675 32364 net.cpp:408] L3_b12_cbr2_conv -> L3_b12_cbr2_conv_top
I0821 08:59:39.051887 32364 net.cpp:150] Setting up L3_b12_cbr2_conv
I0821 08:59:39.051909 32364 net.cpp:157] Top shape: 100 64 8 8 (409600)
I0821 08:59:39.051920 32364 net.cpp:165] Memory required for data: 2181121200
I0821 08:59:39.051939 32364 layer_factory.hpp:77] Creating layer L3_b12_cbr2_bn
I0821 08:59:39.051961 32364 net.cpp:100] Creating Layer L3_b12_cbr2_bn
I0821 08:59:39.051975 32364 net.cpp:434] L3_b12_cbr2_bn <- L3_b12_cbr2_conv_top
I0821 08:59:39.051991 32364 net.cpp:408] L3_b12_cbr2_bn -> L3_b12_cbr2_bn_top
I0821 08:59:39.052312 32364 net.cpp:150] Setting up L3_b12_cbr2_bn
I0821 08:59:39.052332 32364 net.cpp:157] Top shape: 100 64 8 8 (409600)
I0821 08:59:39.052341 32364 net.cpp:165] Memory required for data: 2182759600
I0821 08:59:39.052364 32364 layer_factory.hpp:77] Creating layer L3_b12_cbr2_scale
I0821 08:59:39.052384 32364 net.cpp:100] Creating Layer L3_b12_cbr2_scale
I0821 08:59:39.052398 32364 net.cpp:434] L3_b12_cbr2_scale <- L3_b12_cbr2_bn_top
I0821 08:59:39.052418 32364 net.cpp:395] L3_b12_cbr2_scale -> L3_b12_cbr2_bn_top (in-place)
I0821 08:59:39.052511 32364 layer_factory.hpp:77] Creating layer L3_b12_cbr2_scale
I0821 08:59:39.052716 32364 net.cpp:150] Setting up L3_b12_cbr2_scale
I0821 08:59:39.052734 32364 net.cpp:157] Top shape: 100 64 8 8 (409600)
I0821 08:59:39.052753 32364 net.cpp:165] Memory required for data: 2184398000
I0821 08:59:39.052773 32364 layer_factory.hpp:77] Creating layer L3_b12_sum_eltwise
I0821 08:59:39.052790 32364 net.cpp:100] Creating Layer L3_b12_sum_eltwise
I0821 08:59:39.052803 32364 net.cpp:434] L3_b12_sum_eltwise <- L3_b12_cbr2_bn_top
I0821 08:59:39.052816 32364 net.cpp:434] L3_b12_sum_eltwise <- L3_b11_sum_eltwise_top_L3_b11_relu_0_split_1
I0821 08:59:39.052837 32364 net.cpp:408] L3_b12_sum_eltwise -> L3_b12_sum_eltwise_top
I0821 08:59:39.052897 32364 net.cpp:150] Setting up L3_b12_sum_eltwise
I0821 08:59:39.052916 32364 net.cpp:157] Top shape: 100 64 8 8 (409600)
I0821 08:59:39.052924 32364 net.cpp:165] Memory required for data: 2186036400
I0821 08:59:39.052934 32364 layer_factory.hpp:77] Creating layer L3_b12_relu
I0821 08:59:39.052953 32364 net.cpp:100] Creating Layer L3_b12_relu
I0821 08:59:39.052966 32364 net.cpp:434] L3_b12_relu <- L3_b12_sum_eltwise_top
I0821 08:59:39.052981 32364 net.cpp:395] L3_b12_relu -> L3_b12_sum_eltwise_top (in-place)
I0821 08:59:39.053000 32364 net.cpp:150] Setting up L3_b12_relu
I0821 08:59:39.053014 32364 net.cpp:157] Top shape: 100 64 8 8 (409600)
I0821 08:59:39.053025 32364 net.cpp:165] Memory required for data: 2187674800
I0821 08:59:39.053035 32364 layer_factory.hpp:77] Creating layer L3_b12_sum_eltwise_top_L3_b12_relu_0_split
I0821 08:59:39.053048 32364 net.cpp:100] Creating Layer L3_b12_sum_eltwise_top_L3_b12_relu_0_split
I0821 08:59:39.053061 32364 net.cpp:434] L3_b12_sum_eltwise_top_L3_b12_relu_0_split <- L3_b12_sum_eltwise_top
I0821 08:59:39.053076 32364 net.cpp:408] L3_b12_sum_eltwise_top_L3_b12_relu_0_split -> L3_b12_sum_eltwise_top_L3_b12_relu_0_split_0
I0821 08:59:39.053097 32364 net.cpp:408] L3_b12_sum_eltwise_top_L3_b12_relu_0_split -> L3_b12_sum_eltwise_top_L3_b12_relu_0_split_1
I0821 08:59:39.053194 32364 net.cpp:150] Setting up L3_b12_sum_eltwise_top_L3_b12_relu_0_split
I0821 08:59:39.053215 32364 net.cpp:157] Top shape: 100 64 8 8 (409600)
I0821 08:59:39.053227 32364 net.cpp:157] Top shape: 100 64 8 8 (409600)
I0821 08:59:39.053237 32364 net.cpp:165] Memory required for data: 2190951600
I0821 08:59:39.053246 32364 layer_factory.hpp:77] Creating layer L3_b13_cbr1_conv
I0821 08:59:39.053272 32364 net.cpp:100] Creating Layer L3_b13_cbr1_conv
I0821 08:59:39.053285 32364 net.cpp:434] L3_b13_cbr1_conv <- L3_b12_sum_eltwise_top_L3_b12_relu_0_split_0
I0821 08:59:39.053305 32364 net.cpp:408] L3_b13_cbr1_conv -> L3_b13_cbr1_conv_top
I0821 08:59:39.054374 32364 net.cpp:150] Setting up L3_b13_cbr1_conv
I0821 08:59:39.054395 32364 net.cpp:157] Top shape: 100 64 8 8 (409600)
I0821 08:59:39.054404 32364 net.cpp:165] Memory required for data: 2192590000
I0821 08:59:39.054422 32364 layer_factory.hpp:77] Creating layer L3_b13_cbr1_bn
I0821 08:59:39.054446 32364 net.cpp:100] Creating Layer L3_b13_cbr1_bn
I0821 08:59:39.054460 32364 net.cpp:434] L3_b13_cbr1_bn <- L3_b13_cbr1_conv_top
I0821 08:59:39.054483 32364 net.cpp:408] L3_b13_cbr1_bn -> L3_b13_cbr1_bn_top
I0821 08:59:39.054810 32364 net.cpp:150] Setting up L3_b13_cbr1_bn
I0821 08:59:39.054828 32364 net.cpp:157] Top shape: 100 64 8 8 (409600)
I0821 08:59:39.054837 32364 net.cpp:165] Memory required for data: 2194228400
I0821 08:59:39.054859 32364 layer_factory.hpp:77] Creating layer L3_b13_cbr1_scale
I0821 08:59:39.054877 32364 net.cpp:100] Creating Layer L3_b13_cbr1_scale
I0821 08:59:39.054888 32364 net.cpp:434] L3_b13_cbr1_scale <- L3_b13_cbr1_bn_top
I0821 08:59:39.054908 32364 net.cpp:395] L3_b13_cbr1_scale -> L3_b13_cbr1_bn_top (in-place)
I0821 08:59:39.055007 32364 layer_factory.hpp:77] Creating layer L3_b13_cbr1_scale
I0821 08:59:39.055215 32364 net.cpp:150] Setting up L3_b13_cbr1_scale
I0821 08:59:39.055234 32364 net.cpp:157] Top shape: 100 64 8 8 (409600)
I0821 08:59:39.055243 32364 net.cpp:165] Memory required for data: 2195866800
I0821 08:59:39.055263 32364 layer_factory.hpp:77] Creating layer L3_b13_cbr1_relu
I0821 08:59:39.055279 32364 net.cpp:100] Creating Layer L3_b13_cbr1_relu
I0821 08:59:39.055290 32364 net.cpp:434] L3_b13_cbr1_relu <- L3_b13_cbr1_bn_top
I0821 08:59:39.055320 32364 net.cpp:395] L3_b13_cbr1_relu -> L3_b13_cbr1_bn_top (in-place)
I0821 08:59:39.055341 32364 net.cpp:150] Setting up L3_b13_cbr1_relu
I0821 08:59:39.055356 32364 net.cpp:157] Top shape: 100 64 8 8 (409600)
I0821 08:59:39.055366 32364 net.cpp:165] Memory required for data: 2197505200
I0821 08:59:39.055377 32364 layer_factory.hpp:77] Creating layer L3_b13_cbr2_conv
I0821 08:59:39.055402 32364 net.cpp:100] Creating Layer L3_b13_cbr2_conv
I0821 08:59:39.055414 32364 net.cpp:434] L3_b13_cbr2_conv <- L3_b13_cbr1_bn_top
I0821 08:59:39.055433 32364 net.cpp:408] L3_b13_cbr2_conv -> L3_b13_cbr2_conv_top
I0821 08:59:39.056496 32364 net.cpp:150] Setting up L3_b13_cbr2_conv
I0821 08:59:39.056517 32364 net.cpp:157] Top shape: 100 64 8 8 (409600)
I0821 08:59:39.056527 32364 net.cpp:165] Memory required for data: 2199143600
I0821 08:59:39.056545 32364 layer_factory.hpp:77] Creating layer L3_b13_cbr2_bn
I0821 08:59:39.056566 32364 net.cpp:100] Creating Layer L3_b13_cbr2_bn
I0821 08:59:39.056579 32364 net.cpp:434] L3_b13_cbr2_bn <- L3_b13_cbr2_conv_top
I0821 08:59:39.056596 32364 net.cpp:408] L3_b13_cbr2_bn -> L3_b13_cbr2_bn_top
I0821 08:59:39.056910 32364 net.cpp:150] Setting up L3_b13_cbr2_bn
I0821 08:59:39.056929 32364 net.cpp:157] Top shape: 100 64 8 8 (409600)
I0821 08:59:39.056938 32364 net.cpp:165] Memory required for data: 2200782000
I0821 08:59:39.056962 32364 layer_factory.hpp:77] Creating layer L3_b13_cbr2_scale
I0821 08:59:39.056983 32364 net.cpp:100] Creating Layer L3_b13_cbr2_scale
I0821 08:59:39.056998 32364 net.cpp:434] L3_b13_cbr2_scale <- L3_b13_cbr2_bn_top
I0821 08:59:39.057018 32364 net.cpp:395] L3_b13_cbr2_scale -> L3_b13_cbr2_bn_top (in-place)
I0821 08:59:39.057109 32364 layer_factory.hpp:77] Creating layer L3_b13_cbr2_scale
I0821 08:59:39.057317 32364 net.cpp:150] Setting up L3_b13_cbr2_scale
I0821 08:59:39.057335 32364 net.cpp:157] Top shape: 100 64 8 8 (409600)
I0821 08:59:39.057344 32364 net.cpp:165] Memory required for data: 2202420400
I0821 08:59:39.057363 32364 layer_factory.hpp:77] Creating layer L3_b13_sum_eltwise
I0821 08:59:39.057379 32364 net.cpp:100] Creating Layer L3_b13_sum_eltwise
I0821 08:59:39.057392 32364 net.cpp:434] L3_b13_sum_eltwise <- L3_b13_cbr2_bn_top
I0821 08:59:39.057405 32364 net.cpp:434] L3_b13_sum_eltwise <- L3_b12_sum_eltwise_top_L3_b12_relu_0_split_1
I0821 08:59:39.057427 32364 net.cpp:408] L3_b13_sum_eltwise -> L3_b13_sum_eltwise_top
I0821 08:59:39.057484 32364 net.cpp:150] Setting up L3_b13_sum_eltwise
I0821 08:59:39.057502 32364 net.cpp:157] Top shape: 100 64 8 8 (409600)
I0821 08:59:39.057513 32364 net.cpp:165] Memory required for data: 2204058800
I0821 08:59:39.057523 32364 layer_factory.hpp:77] Creating layer L3_b13_relu
I0821 08:59:39.057541 32364 net.cpp:100] Creating Layer L3_b13_relu
I0821 08:59:39.057555 32364 net.cpp:434] L3_b13_relu <- L3_b13_sum_eltwise_top
I0821 08:59:39.057569 32364 net.cpp:395] L3_b13_relu -> L3_b13_sum_eltwise_top (in-place)
I0821 08:59:39.057588 32364 net.cpp:150] Setting up L3_b13_relu
I0821 08:59:39.057603 32364 net.cpp:157] Top shape: 100 64 8 8 (409600)
I0821 08:59:39.057612 32364 net.cpp:165] Memory required for data: 2205697200
I0821 08:59:39.057622 32364 layer_factory.hpp:77] Creating layer L3_b13_sum_eltwise_top_L3_b13_relu_0_split
I0821 08:59:39.057636 32364 net.cpp:100] Creating Layer L3_b13_sum_eltwise_top_L3_b13_relu_0_split
I0821 08:59:39.057646 32364 net.cpp:434] L3_b13_sum_eltwise_top_L3_b13_relu_0_split <- L3_b13_sum_eltwise_top
I0821 08:59:39.057662 32364 net.cpp:408] L3_b13_sum_eltwise_top_L3_b13_relu_0_split -> L3_b13_sum_eltwise_top_L3_b13_relu_0_split_0
I0821 08:59:39.057682 32364 net.cpp:408] L3_b13_sum_eltwise_top_L3_b13_relu_0_split -> L3_b13_sum_eltwise_top_L3_b13_relu_0_split_1
I0821 08:59:39.057771 32364 net.cpp:150] Setting up L3_b13_sum_eltwise_top_L3_b13_relu_0_split
I0821 08:59:39.057793 32364 net.cpp:157] Top shape: 100 64 8 8 (409600)
I0821 08:59:39.057806 32364 net.cpp:157] Top shape: 100 64 8 8 (409600)
I0821 08:59:39.057816 32364 net.cpp:165] Memory required for data: 2208974000
I0821 08:59:39.057835 32364 layer_factory.hpp:77] Creating layer L3_b14_cbr1_conv
I0821 08:59:39.057860 32364 net.cpp:100] Creating Layer L3_b14_cbr1_conv
I0821 08:59:39.057874 32364 net.cpp:434] L3_b14_cbr1_conv <- L3_b13_sum_eltwise_top_L3_b13_relu_0_split_0
I0821 08:59:39.057893 32364 net.cpp:408] L3_b14_cbr1_conv -> L3_b14_cbr1_conv_top
I0821 08:59:39.058961 32364 net.cpp:150] Setting up L3_b14_cbr1_conv
I0821 08:59:39.058982 32364 net.cpp:157] Top shape: 100 64 8 8 (409600)
I0821 08:59:39.058991 32364 net.cpp:165] Memory required for data: 2210612400
I0821 08:59:39.059010 32364 layer_factory.hpp:77] Creating layer L3_b14_cbr1_bn
I0821 08:59:39.059031 32364 net.cpp:100] Creating Layer L3_b14_cbr1_bn
I0821 08:59:39.059043 32364 net.cpp:434] L3_b14_cbr1_bn <- L3_b14_cbr1_conv_top
I0821 08:59:39.059065 32364 net.cpp:408] L3_b14_cbr1_bn -> L3_b14_cbr1_bn_top
I0821 08:59:39.059376 32364 net.cpp:150] Setting up L3_b14_cbr1_bn
I0821 08:59:39.059396 32364 net.cpp:157] Top shape: 100 64 8 8 (409600)
I0821 08:59:39.059404 32364 net.cpp:165] Memory required for data: 2212250800
I0821 08:59:39.059427 32364 layer_factory.hpp:77] Creating layer L3_b14_cbr1_scale
I0821 08:59:39.059442 32364 net.cpp:100] Creating Layer L3_b14_cbr1_scale
I0821 08:59:39.059454 32364 net.cpp:434] L3_b14_cbr1_scale <- L3_b14_cbr1_bn_top
I0821 08:59:39.059475 32364 net.cpp:395] L3_b14_cbr1_scale -> L3_b14_cbr1_bn_top (in-place)
I0821 08:59:39.059571 32364 layer_factory.hpp:77] Creating layer L3_b14_cbr1_scale
I0821 08:59:39.059772 32364 net.cpp:150] Setting up L3_b14_cbr1_scale
I0821 08:59:39.059792 32364 net.cpp:157] Top shape: 100 64 8 8 (409600)
I0821 08:59:39.059801 32364 net.cpp:165] Memory required for data: 2213889200
I0821 08:59:39.059819 32364 layer_factory.hpp:77] Creating layer L3_b14_cbr1_relu
I0821 08:59:39.059835 32364 net.cpp:100] Creating Layer L3_b14_cbr1_relu
I0821 08:59:39.059847 32364 net.cpp:434] L3_b14_cbr1_relu <- L3_b14_cbr1_bn_top
I0821 08:59:39.059866 32364 net.cpp:395] L3_b14_cbr1_relu -> L3_b14_cbr1_bn_top (in-place)
I0821 08:59:39.059887 32364 net.cpp:150] Setting up L3_b14_cbr1_relu
I0821 08:59:39.059902 32364 net.cpp:157] Top shape: 100 64 8 8 (409600)
I0821 08:59:39.059911 32364 net.cpp:165] Memory required for data: 2215527600
I0821 08:59:39.059922 32364 layer_factory.hpp:77] Creating layer L3_b14_cbr2_conv
I0821 08:59:39.059947 32364 net.cpp:100] Creating Layer L3_b14_cbr2_conv
I0821 08:59:39.059962 32364 net.cpp:434] L3_b14_cbr2_conv <- L3_b14_cbr1_bn_top
I0821 08:59:39.059983 32364 net.cpp:408] L3_b14_cbr2_conv -> L3_b14_cbr2_conv_top
I0821 08:59:39.061058 32364 net.cpp:150] Setting up L3_b14_cbr2_conv
I0821 08:59:39.061079 32364 net.cpp:157] Top shape: 100 64 8 8 (409600)
I0821 08:59:39.061089 32364 net.cpp:165] Memory required for data: 2217166000
I0821 08:59:39.061106 32364 layer_factory.hpp:77] Creating layer L3_b14_cbr2_bn
I0821 08:59:39.061123 32364 net.cpp:100] Creating Layer L3_b14_cbr2_bn
I0821 08:59:39.061136 32364 net.cpp:434] L3_b14_cbr2_bn <- L3_b14_cbr2_conv_top
I0821 08:59:39.061167 32364 net.cpp:408] L3_b14_cbr2_bn -> L3_b14_cbr2_bn_top
I0821 08:59:39.061471 32364 net.cpp:150] Setting up L3_b14_cbr2_bn
I0821 08:59:39.061494 32364 net.cpp:157] Top shape: 100 64 8 8 (409600)
I0821 08:59:39.061506 32364 net.cpp:165] Memory required for data: 2218804400
I0821 08:59:39.061527 32364 layer_factory.hpp:77] Creating layer L3_b14_cbr2_scale
I0821 08:59:39.061543 32364 net.cpp:100] Creating Layer L3_b14_cbr2_scale
I0821 08:59:39.061555 32364 net.cpp:434] L3_b14_cbr2_scale <- L3_b14_cbr2_bn_top
I0821 08:59:39.061570 32364 net.cpp:395] L3_b14_cbr2_scale -> L3_b14_cbr2_bn_top (in-place)
I0821 08:59:39.061663 32364 layer_factory.hpp:77] Creating layer L3_b14_cbr2_scale
I0821 08:59:39.061859 32364 net.cpp:150] Setting up L3_b14_cbr2_scale
I0821 08:59:39.061878 32364 net.cpp:157] Top shape: 100 64 8 8 (409600)
I0821 08:59:39.061888 32364 net.cpp:165] Memory required for data: 2220442800
I0821 08:59:39.061906 32364 layer_factory.hpp:77] Creating layer L3_b14_sum_eltwise
I0821 08:59:39.061923 32364 net.cpp:100] Creating Layer L3_b14_sum_eltwise
I0821 08:59:39.061949 32364 net.cpp:434] L3_b14_sum_eltwise <- L3_b14_cbr2_bn_top
I0821 08:59:39.061964 32364 net.cpp:434] L3_b14_sum_eltwise <- L3_b13_sum_eltwise_top_L3_b13_relu_0_split_1
I0821 08:59:39.061980 32364 net.cpp:408] L3_b14_sum_eltwise -> L3_b14_sum_eltwise_top
I0821 08:59:39.062043 32364 net.cpp:150] Setting up L3_b14_sum_eltwise
I0821 08:59:39.062063 32364 net.cpp:157] Top shape: 100 64 8 8 (409600)
I0821 08:59:39.062073 32364 net.cpp:165] Memory required for data: 2222081200
I0821 08:59:39.062084 32364 layer_factory.hpp:77] Creating layer L3_b14_relu
I0821 08:59:39.062098 32364 net.cpp:100] Creating Layer L3_b14_relu
I0821 08:59:39.062109 32364 net.cpp:434] L3_b14_relu <- L3_b14_sum_eltwise_top
I0821 08:59:39.062124 32364 net.cpp:395] L3_b14_relu -> L3_b14_sum_eltwise_top (in-place)
I0821 08:59:39.062144 32364 net.cpp:150] Setting up L3_b14_relu
I0821 08:59:39.062166 32364 net.cpp:157] Top shape: 100 64 8 8 (409600)
I0821 08:59:39.062177 32364 net.cpp:165] Memory required for data: 2223719600
I0821 08:59:39.062186 32364 layer_factory.hpp:77] Creating layer L3_b14_sum_eltwise_top_L3_b14_relu_0_split
I0821 08:59:39.062288 32364 net.cpp:100] Creating Layer L3_b14_sum_eltwise_top_L3_b14_relu_0_split
I0821 08:59:39.062304 32364 net.cpp:434] L3_b14_sum_eltwise_top_L3_b14_relu_0_split <- L3_b14_sum_eltwise_top
I0821 08:59:39.062320 32364 net.cpp:408] L3_b14_sum_eltwise_top_L3_b14_relu_0_split -> L3_b14_sum_eltwise_top_L3_b14_relu_0_split_0
I0821 08:59:39.062340 32364 net.cpp:408] L3_b14_sum_eltwise_top_L3_b14_relu_0_split -> L3_b14_sum_eltwise_top_L3_b14_relu_0_split_1
I0821 08:59:39.062420 32364 net.cpp:150] Setting up L3_b14_sum_eltwise_top_L3_b14_relu_0_split
I0821 08:59:39.062438 32364 net.cpp:157] Top shape: 100 64 8 8 (409600)
I0821 08:59:39.062453 32364 net.cpp:157] Top shape: 100 64 8 8 (409600)
I0821 08:59:39.062460 32364 net.cpp:165] Memory required for data: 2226996400
I0821 08:59:39.062472 32364 layer_factory.hpp:77] Creating layer L3_b15_cbr1_conv
I0821 08:59:39.062497 32364 net.cpp:100] Creating Layer L3_b15_cbr1_conv
I0821 08:59:39.062511 32364 net.cpp:434] L3_b15_cbr1_conv <- L3_b14_sum_eltwise_top_L3_b14_relu_0_split_0
I0821 08:59:39.062536 32364 net.cpp:408] L3_b15_cbr1_conv -> L3_b15_cbr1_conv_top
I0821 08:59:39.063611 32364 net.cpp:150] Setting up L3_b15_cbr1_conv
I0821 08:59:39.063630 32364 net.cpp:157] Top shape: 100 64 8 8 (409600)
I0821 08:59:39.063639 32364 net.cpp:165] Memory required for data: 2228634800
I0821 08:59:39.063657 32364 layer_factory.hpp:77] Creating layer L3_b15_cbr1_bn
I0821 08:59:39.063675 32364 net.cpp:100] Creating Layer L3_b15_cbr1_bn
I0821 08:59:39.063688 32364 net.cpp:434] L3_b15_cbr1_bn <- L3_b15_cbr1_conv_top
I0821 08:59:39.063710 32364 net.cpp:408] L3_b15_cbr1_bn -> L3_b15_cbr1_bn_top
I0821 08:59:39.064021 32364 net.cpp:150] Setting up L3_b15_cbr1_bn
I0821 08:59:39.064040 32364 net.cpp:157] Top shape: 100 64 8 8 (409600)
I0821 08:59:39.064050 32364 net.cpp:165] Memory required for data: 2230273200
I0821 08:59:39.064071 32364 layer_factory.hpp:77] Creating layer L3_b15_cbr1_scale
I0821 08:59:39.064088 32364 net.cpp:100] Creating Layer L3_b15_cbr1_scale
I0821 08:59:39.064100 32364 net.cpp:434] L3_b15_cbr1_scale <- L3_b15_cbr1_bn_top
I0821 08:59:39.064121 32364 net.cpp:395] L3_b15_cbr1_scale -> L3_b15_cbr1_bn_top (in-place)
I0821 08:59:39.064221 32364 layer_factory.hpp:77] Creating layer L3_b15_cbr1_scale
I0821 08:59:39.064421 32364 net.cpp:150] Setting up L3_b15_cbr1_scale
I0821 08:59:39.064440 32364 net.cpp:157] Top shape: 100 64 8 8 (409600)
I0821 08:59:39.064450 32364 net.cpp:165] Memory required for data: 2231911600
I0821 08:59:39.064468 32364 layer_factory.hpp:77] Creating layer L3_b15_cbr1_relu
I0821 08:59:39.064488 32364 net.cpp:100] Creating Layer L3_b15_cbr1_relu
I0821 08:59:39.064502 32364 net.cpp:434] L3_b15_cbr1_relu <- L3_b15_cbr1_bn_top
I0821 08:59:39.064517 32364 net.cpp:395] L3_b15_cbr1_relu -> L3_b15_cbr1_bn_top (in-place)
I0821 08:59:39.064537 32364 net.cpp:150] Setting up L3_b15_cbr1_relu
I0821 08:59:39.064549 32364 net.cpp:157] Top shape: 100 64 8 8 (409600)
I0821 08:59:39.064568 32364 net.cpp:165] Memory required for data: 2233550000
I0821 08:59:39.064579 32364 layer_factory.hpp:77] Creating layer L3_b15_cbr2_conv
I0821 08:59:39.064604 32364 net.cpp:100] Creating Layer L3_b15_cbr2_conv
I0821 08:59:39.064617 32364 net.cpp:434] L3_b15_cbr2_conv <- L3_b15_cbr1_bn_top
I0821 08:59:39.064640 32364 net.cpp:408] L3_b15_cbr2_conv -> L3_b15_cbr2_conv_top
I0821 08:59:39.065713 32364 net.cpp:150] Setting up L3_b15_cbr2_conv
I0821 08:59:39.065734 32364 net.cpp:157] Top shape: 100 64 8 8 (409600)
I0821 08:59:39.065744 32364 net.cpp:165] Memory required for data: 2235188400
I0821 08:59:39.065762 32364 layer_factory.hpp:77] Creating layer L3_b15_cbr2_bn
I0821 08:59:39.065779 32364 net.cpp:100] Creating Layer L3_b15_cbr2_bn
I0821 08:59:39.065793 32364 net.cpp:434] L3_b15_cbr2_bn <- L3_b15_cbr2_conv_top
I0821 08:59:39.065814 32364 net.cpp:408] L3_b15_cbr2_bn -> L3_b15_cbr2_bn_top
I0821 08:59:39.066126 32364 net.cpp:150] Setting up L3_b15_cbr2_bn
I0821 08:59:39.066155 32364 net.cpp:157] Top shape: 100 64 8 8 (409600)
I0821 08:59:39.066167 32364 net.cpp:165] Memory required for data: 2236826800
I0821 08:59:39.066190 32364 layer_factory.hpp:77] Creating layer L3_b15_cbr2_scale
I0821 08:59:39.066206 32364 net.cpp:100] Creating Layer L3_b15_cbr2_scale
I0821 08:59:39.066220 32364 net.cpp:434] L3_b15_cbr2_scale <- L3_b15_cbr2_bn_top
I0821 08:59:39.066236 32364 net.cpp:395] L3_b15_cbr2_scale -> L3_b15_cbr2_bn_top (in-place)
I0821 08:59:39.066339 32364 layer_factory.hpp:77] Creating layer L3_b15_cbr2_scale
I0821 08:59:39.066540 32364 net.cpp:150] Setting up L3_b15_cbr2_scale
I0821 08:59:39.066558 32364 net.cpp:157] Top shape: 100 64 8 8 (409600)
I0821 08:59:39.066568 32364 net.cpp:165] Memory required for data: 2238465200
I0821 08:59:39.066586 32364 layer_factory.hpp:77] Creating layer L3_b15_sum_eltwise
I0821 08:59:39.066607 32364 net.cpp:100] Creating Layer L3_b15_sum_eltwise
I0821 08:59:39.066620 32364 net.cpp:434] L3_b15_sum_eltwise <- L3_b15_cbr2_bn_top
I0821 08:59:39.066634 32364 net.cpp:434] L3_b15_sum_eltwise <- L3_b14_sum_eltwise_top_L3_b14_relu_0_split_1
I0821 08:59:39.066650 32364 net.cpp:408] L3_b15_sum_eltwise -> L3_b15_sum_eltwise_top
I0821 08:59:39.066714 32364 net.cpp:150] Setting up L3_b15_sum_eltwise
I0821 08:59:39.066731 32364 net.cpp:157] Top shape: 100 64 8 8 (409600)
I0821 08:59:39.066741 32364 net.cpp:165] Memory required for data: 2240103600
I0821 08:59:39.066751 32364 layer_factory.hpp:77] Creating layer L3_b15_relu
I0821 08:59:39.066766 32364 net.cpp:100] Creating Layer L3_b15_relu
I0821 08:59:39.066778 32364 net.cpp:434] L3_b15_relu <- L3_b15_sum_eltwise_top
I0821 08:59:39.066792 32364 net.cpp:395] L3_b15_relu -> L3_b15_sum_eltwise_top (in-place)
I0821 08:59:39.066812 32364 net.cpp:150] Setting up L3_b15_relu
I0821 08:59:39.066826 32364 net.cpp:157] Top shape: 100 64 8 8 (409600)
I0821 08:59:39.066835 32364 net.cpp:165] Memory required for data: 2241742000
I0821 08:59:39.066844 32364 layer_factory.hpp:77] Creating layer L3_b15_sum_eltwise_top_L3_b15_relu_0_split
I0821 08:59:39.066859 32364 net.cpp:100] Creating Layer L3_b15_sum_eltwise_top_L3_b15_relu_0_split
I0821 08:59:39.066869 32364 net.cpp:434] L3_b15_sum_eltwise_top_L3_b15_relu_0_split <- L3_b15_sum_eltwise_top
I0821 08:59:39.066889 32364 net.cpp:408] L3_b15_sum_eltwise_top_L3_b15_relu_0_split -> L3_b15_sum_eltwise_top_L3_b15_relu_0_split_0
I0821 08:59:39.066910 32364 net.cpp:408] L3_b15_sum_eltwise_top_L3_b15_relu_0_split -> L3_b15_sum_eltwise_top_L3_b15_relu_0_split_1
I0821 08:59:39.066994 32364 net.cpp:150] Setting up L3_b15_sum_eltwise_top_L3_b15_relu_0_split
I0821 08:59:39.067014 32364 net.cpp:157] Top shape: 100 64 8 8 (409600)
I0821 08:59:39.067028 32364 net.cpp:157] Top shape: 100 64 8 8 (409600)
I0821 08:59:39.067039 32364 net.cpp:165] Memory required for data: 2245018800
I0821 08:59:39.067049 32364 layer_factory.hpp:77] Creating layer L3_b16_cbr1_conv
I0821 08:59:39.067073 32364 net.cpp:100] Creating Layer L3_b16_cbr1_conv
I0821 08:59:39.067087 32364 net.cpp:434] L3_b16_cbr1_conv <- L3_b15_sum_eltwise_top_L3_b15_relu_0_split_0
I0821 08:59:39.067116 32364 net.cpp:408] L3_b16_cbr1_conv -> L3_b16_cbr1_conv_top
I0821 08:59:39.069211 32364 net.cpp:150] Setting up L3_b16_cbr1_conv
I0821 08:59:39.069233 32364 net.cpp:157] Top shape: 100 64 8 8 (409600)
I0821 08:59:39.069243 32364 net.cpp:165] Memory required for data: 2246657200
I0821 08:59:39.069262 32364 layer_factory.hpp:77] Creating layer L3_b16_cbr1_bn
I0821 08:59:39.069283 32364 net.cpp:100] Creating Layer L3_b16_cbr1_bn
I0821 08:59:39.069298 32364 net.cpp:434] L3_b16_cbr1_bn <- L3_b16_cbr1_conv_top
I0821 08:59:39.069314 32364 net.cpp:408] L3_b16_cbr1_bn -> L3_b16_cbr1_bn_top
I0821 08:59:39.069633 32364 net.cpp:150] Setting up L3_b16_cbr1_bn
I0821 08:59:39.069653 32364 net.cpp:157] Top shape: 100 64 8 8 (409600)
I0821 08:59:39.069663 32364 net.cpp:165] Memory required for data: 2248295600
I0821 08:59:39.069684 32364 layer_factory.hpp:77] Creating layer L3_b16_cbr1_scale
I0821 08:59:39.069701 32364 net.cpp:100] Creating Layer L3_b16_cbr1_scale
I0821 08:59:39.069712 32364 net.cpp:434] L3_b16_cbr1_scale <- L3_b16_cbr1_bn_top
I0821 08:59:39.069728 32364 net.cpp:395] L3_b16_cbr1_scale -> L3_b16_cbr1_bn_top (in-place)
I0821 08:59:39.069826 32364 layer_factory.hpp:77] Creating layer L3_b16_cbr1_scale
I0821 08:59:39.070029 32364 net.cpp:150] Setting up L3_b16_cbr1_scale
I0821 08:59:39.070051 32364 net.cpp:157] Top shape: 100 64 8 8 (409600)
I0821 08:59:39.070061 32364 net.cpp:165] Memory required for data: 2249934000
I0821 08:59:39.070080 32364 layer_factory.hpp:77] Creating layer L3_b16_cbr1_relu
I0821 08:59:39.070096 32364 net.cpp:100] Creating Layer L3_b16_cbr1_relu
I0821 08:59:39.070107 32364 net.cpp:434] L3_b16_cbr1_relu <- L3_b16_cbr1_bn_top
I0821 08:59:39.070122 32364 net.cpp:395] L3_b16_cbr1_relu -> L3_b16_cbr1_bn_top (in-place)
I0821 08:59:39.070143 32364 net.cpp:150] Setting up L3_b16_cbr1_relu
I0821 08:59:39.070166 32364 net.cpp:157] Top shape: 100 64 8 8 (409600)
I0821 08:59:39.070176 32364 net.cpp:165] Memory required for data: 2251572400
I0821 08:59:39.070186 32364 layer_factory.hpp:77] Creating layer L3_b16_cbr2_conv
I0821 08:59:39.070212 32364 net.cpp:100] Creating Layer L3_b16_cbr2_conv
I0821 08:59:39.070226 32364 net.cpp:434] L3_b16_cbr2_conv <- L3_b16_cbr1_bn_top
I0821 08:59:39.070247 32364 net.cpp:408] L3_b16_cbr2_conv -> L3_b16_cbr2_conv_top
I0821 08:59:39.071317 32364 net.cpp:150] Setting up L3_b16_cbr2_conv
I0821 08:59:39.071337 32364 net.cpp:157] Top shape: 100 64 8 8 (409600)
I0821 08:59:39.071347 32364 net.cpp:165] Memory required for data: 2253210800
I0821 08:59:39.071365 32364 layer_factory.hpp:77] Creating layer L3_b16_cbr2_bn
I0821 08:59:39.071388 32364 net.cpp:100] Creating Layer L3_b16_cbr2_bn
I0821 08:59:39.071399 32364 net.cpp:434] L3_b16_cbr2_bn <- L3_b16_cbr2_conv_top
I0821 08:59:39.071418 32364 net.cpp:408] L3_b16_cbr2_bn -> L3_b16_cbr2_bn_top
I0821 08:59:39.071732 32364 net.cpp:150] Setting up L3_b16_cbr2_bn
I0821 08:59:39.071751 32364 net.cpp:157] Top shape: 100 64 8 8 (409600)
I0821 08:59:39.071761 32364 net.cpp:165] Memory required for data: 2254849200
I0821 08:59:39.071782 32364 layer_factory.hpp:77] Creating layer L3_b16_cbr2_scale
I0821 08:59:39.071802 32364 net.cpp:100] Creating Layer L3_b16_cbr2_scale
I0821 08:59:39.071815 32364 net.cpp:434] L3_b16_cbr2_scale <- L3_b16_cbr2_bn_top
I0821 08:59:39.071832 32364 net.cpp:395] L3_b16_cbr2_scale -> L3_b16_cbr2_bn_top (in-place)
I0821 08:59:39.071930 32364 layer_factory.hpp:77] Creating layer L3_b16_cbr2_scale
I0821 08:59:39.072134 32364 net.cpp:150] Setting up L3_b16_cbr2_scale
I0821 08:59:39.072157 32364 net.cpp:157] Top shape: 100 64 8 8 (409600)
I0821 08:59:39.072168 32364 net.cpp:165] Memory required for data: 2256487600
I0821 08:59:39.072186 32364 layer_factory.hpp:77] Creating layer L3_b16_sum_eltwise
I0821 08:59:39.072207 32364 net.cpp:100] Creating Layer L3_b16_sum_eltwise
I0821 08:59:39.072221 32364 net.cpp:434] L3_b16_sum_eltwise <- L3_b16_cbr2_bn_top
I0821 08:59:39.072235 32364 net.cpp:434] L3_b16_sum_eltwise <- L3_b15_sum_eltwise_top_L3_b15_relu_0_split_1
I0821 08:59:39.072263 32364 net.cpp:408] L3_b16_sum_eltwise -> L3_b16_sum_eltwise_top
I0821 08:59:39.072326 32364 net.cpp:150] Setting up L3_b16_sum_eltwise
I0821 08:59:39.072346 32364 net.cpp:157] Top shape: 100 64 8 8 (409600)
I0821 08:59:39.072356 32364 net.cpp:165] Memory required for data: 2258126000
I0821 08:59:39.072366 32364 layer_factory.hpp:77] Creating layer L3_b16_relu
I0821 08:59:39.072379 32364 net.cpp:100] Creating Layer L3_b16_relu
I0821 08:59:39.072392 32364 net.cpp:434] L3_b16_relu <- L3_b16_sum_eltwise_top
I0821 08:59:39.072412 32364 net.cpp:395] L3_b16_relu -> L3_b16_sum_eltwise_top (in-place)
I0821 08:59:39.072432 32364 net.cpp:150] Setting up L3_b16_relu
I0821 08:59:39.072446 32364 net.cpp:157] Top shape: 100 64 8 8 (409600)
I0821 08:59:39.072456 32364 net.cpp:165] Memory required for data: 2259764400
I0821 08:59:39.072465 32364 layer_factory.hpp:77] Creating layer L3_b16_sum_eltwise_top_L3_b16_relu_0_split
I0821 08:59:39.072480 32364 net.cpp:100] Creating Layer L3_b16_sum_eltwise_top_L3_b16_relu_0_split
I0821 08:59:39.072492 32364 net.cpp:434] L3_b16_sum_eltwise_top_L3_b16_relu_0_split <- L3_b16_sum_eltwise_top
I0821 08:59:39.072507 32364 net.cpp:408] L3_b16_sum_eltwise_top_L3_b16_relu_0_split -> L3_b16_sum_eltwise_top_L3_b16_relu_0_split_0
I0821 08:59:39.072527 32364 net.cpp:408] L3_b16_sum_eltwise_top_L3_b16_relu_0_split -> L3_b16_sum_eltwise_top_L3_b16_relu_0_split_1
I0821 08:59:39.072619 32364 net.cpp:150] Setting up L3_b16_sum_eltwise_top_L3_b16_relu_0_split
I0821 08:59:39.072640 32364 net.cpp:157] Top shape: 100 64 8 8 (409600)
I0821 08:59:39.072654 32364 net.cpp:157] Top shape: 100 64 8 8 (409600)
I0821 08:59:39.072664 32364 net.cpp:165] Memory required for data: 2263041200
I0821 08:59:39.072674 32364 layer_factory.hpp:77] Creating layer L3_b17_cbr1_conv
I0821 08:59:39.072695 32364 net.cpp:100] Creating Layer L3_b17_cbr1_conv
I0821 08:59:39.072708 32364 net.cpp:434] L3_b17_cbr1_conv <- L3_b16_sum_eltwise_top_L3_b16_relu_0_split_0
I0821 08:59:39.072731 32364 net.cpp:408] L3_b17_cbr1_conv -> L3_b17_cbr1_conv_top
I0821 08:59:39.073806 32364 net.cpp:150] Setting up L3_b17_cbr1_conv
I0821 08:59:39.073825 32364 net.cpp:157] Top shape: 100 64 8 8 (409600)
I0821 08:59:39.073835 32364 net.cpp:165] Memory required for data: 2264679600
I0821 08:59:39.073853 32364 layer_factory.hpp:77] Creating layer L3_b17_cbr1_bn
I0821 08:59:39.073874 32364 net.cpp:100] Creating Layer L3_b17_cbr1_bn
I0821 08:59:39.073887 32364 net.cpp:434] L3_b17_cbr1_bn <- L3_b17_cbr1_conv_top
I0821 08:59:39.073905 32364 net.cpp:408] L3_b17_cbr1_bn -> L3_b17_cbr1_bn_top
I0821 08:59:39.074224 32364 net.cpp:150] Setting up L3_b17_cbr1_bn
I0821 08:59:39.074244 32364 net.cpp:157] Top shape: 100 64 8 8 (409600)
I0821 08:59:39.074254 32364 net.cpp:165] Memory required for data: 2266318000
I0821 08:59:39.074275 32364 layer_factory.hpp:77] Creating layer L3_b17_cbr1_scale
I0821 08:59:39.074291 32364 net.cpp:100] Creating Layer L3_b17_cbr1_scale
I0821 08:59:39.074304 32364 net.cpp:434] L3_b17_cbr1_scale <- L3_b17_cbr1_bn_top
I0821 08:59:39.074319 32364 net.cpp:395] L3_b17_cbr1_scale -> L3_b17_cbr1_bn_top (in-place)
I0821 08:59:39.074420 32364 layer_factory.hpp:77] Creating layer L3_b17_cbr1_scale
I0821 08:59:39.074620 32364 net.cpp:150] Setting up L3_b17_cbr1_scale
I0821 08:59:39.074637 32364 net.cpp:157] Top shape: 100 64 8 8 (409600)
I0821 08:59:39.074647 32364 net.cpp:165] Memory required for data: 2267956400
I0821 08:59:39.074666 32364 layer_factory.hpp:77] Creating layer L3_b17_cbr1_relu
I0821 08:59:39.074682 32364 net.cpp:100] Creating Layer L3_b17_cbr1_relu
I0821 08:59:39.074694 32364 net.cpp:434] L3_b17_cbr1_relu <- L3_b17_cbr1_bn_top
I0821 08:59:39.074709 32364 net.cpp:395] L3_b17_cbr1_relu -> L3_b17_cbr1_bn_top (in-place)
I0821 08:59:39.074729 32364 net.cpp:150] Setting up L3_b17_cbr1_relu
I0821 08:59:39.074743 32364 net.cpp:157] Top shape: 100 64 8 8 (409600)
I0821 08:59:39.074751 32364 net.cpp:165] Memory required for data: 2269594800
I0821 08:59:39.074762 32364 layer_factory.hpp:77] Creating layer L3_b17_cbr2_conv
I0821 08:59:39.074800 32364 net.cpp:100] Creating Layer L3_b17_cbr2_conv
I0821 08:59:39.074815 32364 net.cpp:434] L3_b17_cbr2_conv <- L3_b17_cbr1_bn_top
I0821 08:59:39.074837 32364 net.cpp:408] L3_b17_cbr2_conv -> L3_b17_cbr2_conv_top
I0821 08:59:39.075932 32364 net.cpp:150] Setting up L3_b17_cbr2_conv
I0821 08:59:39.075953 32364 net.cpp:157] Top shape: 100 64 8 8 (409600)
I0821 08:59:39.075961 32364 net.cpp:165] Memory required for data: 2271233200
I0821 08:59:39.075979 32364 layer_factory.hpp:77] Creating layer L3_b17_cbr2_bn
I0821 08:59:39.076004 32364 net.cpp:100] Creating Layer L3_b17_cbr2_bn
I0821 08:59:39.076016 32364 net.cpp:434] L3_b17_cbr2_bn <- L3_b17_cbr2_conv_top
I0821 08:59:39.076033 32364 net.cpp:408] L3_b17_cbr2_bn -> L3_b17_cbr2_bn_top
I0821 08:59:39.076350 32364 net.cpp:150] Setting up L3_b17_cbr2_bn
I0821 08:59:39.076370 32364 net.cpp:157] Top shape: 100 64 8 8 (409600)
I0821 08:59:39.076380 32364 net.cpp:165] Memory required for data: 2272871600
I0821 08:59:39.076401 32364 layer_factory.hpp:77] Creating layer L3_b17_cbr2_scale
I0821 08:59:39.076421 32364 net.cpp:100] Creating Layer L3_b17_cbr2_scale
I0821 08:59:39.076434 32364 net.cpp:434] L3_b17_cbr2_scale <- L3_b17_cbr2_bn_top
I0821 08:59:39.076450 32364 net.cpp:395] L3_b17_cbr2_scale -> L3_b17_cbr2_bn_top (in-place)
I0821 08:59:39.076548 32364 layer_factory.hpp:77] Creating layer L3_b17_cbr2_scale
I0821 08:59:39.076748 32364 net.cpp:150] Setting up L3_b17_cbr2_scale
I0821 08:59:39.076767 32364 net.cpp:157] Top shape: 100 64 8 8 (409600)
I0821 08:59:39.076776 32364 net.cpp:165] Memory required for data: 2274510000
I0821 08:59:39.076795 32364 layer_factory.hpp:77] Creating layer L3_b17_sum_eltwise
I0821 08:59:39.076817 32364 net.cpp:100] Creating Layer L3_b17_sum_eltwise
I0821 08:59:39.076831 32364 net.cpp:434] L3_b17_sum_eltwise <- L3_b17_cbr2_bn_top
I0821 08:59:39.076845 32364 net.cpp:434] L3_b17_sum_eltwise <- L3_b16_sum_eltwise_top_L3_b16_relu_0_split_1
I0821 08:59:39.076865 32364 net.cpp:408] L3_b17_sum_eltwise -> L3_b17_sum_eltwise_top
I0821 08:59:39.076923 32364 net.cpp:150] Setting up L3_b17_sum_eltwise
I0821 08:59:39.076941 32364 net.cpp:157] Top shape: 100 64 8 8 (409600)
I0821 08:59:39.076951 32364 net.cpp:165] Memory required for data: 2276148400
I0821 08:59:39.076961 32364 layer_factory.hpp:77] Creating layer L3_b17_relu
I0821 08:59:39.076980 32364 net.cpp:100] Creating Layer L3_b17_relu
I0821 08:59:39.076994 32364 net.cpp:434] L3_b17_relu <- L3_b17_sum_eltwise_top
I0821 08:59:39.077008 32364 net.cpp:395] L3_b17_relu -> L3_b17_sum_eltwise_top (in-place)
I0821 08:59:39.077028 32364 net.cpp:150] Setting up L3_b17_relu
I0821 08:59:39.077044 32364 net.cpp:157] Top shape: 100 64 8 8 (409600)
I0821 08:59:39.077052 32364 net.cpp:165] Memory required for data: 2277786800
I0821 08:59:39.077064 32364 layer_factory.hpp:77] Creating layer L3_b17_sum_eltwise_top_L3_b17_relu_0_split
I0821 08:59:39.077076 32364 net.cpp:100] Creating Layer L3_b17_sum_eltwise_top_L3_b17_relu_0_split
I0821 08:59:39.077088 32364 net.cpp:434] L3_b17_sum_eltwise_top_L3_b17_relu_0_split <- L3_b17_sum_eltwise_top
I0821 08:59:39.077103 32364 net.cpp:408] L3_b17_sum_eltwise_top_L3_b17_relu_0_split -> L3_b17_sum_eltwise_top_L3_b17_relu_0_split_0
I0821 08:59:39.077123 32364 net.cpp:408] L3_b17_sum_eltwise_top_L3_b17_relu_0_split -> L3_b17_sum_eltwise_top_L3_b17_relu_0_split_1
I0821 08:59:39.077220 32364 net.cpp:150] Setting up L3_b17_sum_eltwise_top_L3_b17_relu_0_split
I0821 08:59:39.077241 32364 net.cpp:157] Top shape: 100 64 8 8 (409600)
I0821 08:59:39.077255 32364 net.cpp:157] Top shape: 100 64 8 8 (409600)
I0821 08:59:39.077265 32364 net.cpp:165] Memory required for data: 2281063600
I0821 08:59:39.077275 32364 layer_factory.hpp:77] Creating layer L3_b18_cbr1_conv
I0821 08:59:39.077299 32364 net.cpp:100] Creating Layer L3_b18_cbr1_conv
I0821 08:59:39.077313 32364 net.cpp:434] L3_b18_cbr1_conv <- L3_b17_sum_eltwise_top_L3_b17_relu_0_split_0
I0821 08:59:39.077332 32364 net.cpp:408] L3_b18_cbr1_conv -> L3_b18_cbr1_conv_top
I0821 08:59:39.078416 32364 net.cpp:150] Setting up L3_b18_cbr1_conv
I0821 08:59:39.078447 32364 net.cpp:157] Top shape: 100 64 8 8 (409600)
I0821 08:59:39.078457 32364 net.cpp:165] Memory required for data: 2282702000
I0821 08:59:39.078475 32364 layer_factory.hpp:77] Creating layer L3_b18_cbr1_bn
I0821 08:59:39.078496 32364 net.cpp:100] Creating Layer L3_b18_cbr1_bn
I0821 08:59:39.078510 32364 net.cpp:434] L3_b18_cbr1_bn <- L3_b18_cbr1_conv_top
I0821 08:59:39.078527 32364 net.cpp:408] L3_b18_cbr1_bn -> L3_b18_cbr1_bn_top
I0821 08:59:39.078845 32364 net.cpp:150] Setting up L3_b18_cbr1_bn
I0821 08:59:39.078863 32364 net.cpp:157] Top shape: 100 64 8 8 (409600)
I0821 08:59:39.078873 32364 net.cpp:165] Memory required for data: 2284340400
I0821 08:59:39.078896 32364 layer_factory.hpp:77] Creating layer L3_b18_cbr1_scale
I0821 08:59:39.078912 32364 net.cpp:100] Creating Layer L3_b18_cbr1_scale
I0821 08:59:39.078924 32364 net.cpp:434] L3_b18_cbr1_scale <- L3_b18_cbr1_bn_top
I0821 08:59:39.078939 32364 net.cpp:395] L3_b18_cbr1_scale -> L3_b18_cbr1_bn_top (in-place)
I0821 08:59:39.079041 32364 layer_factory.hpp:77] Creating layer L3_b18_cbr1_scale
I0821 08:59:39.079248 32364 net.cpp:150] Setting up L3_b18_cbr1_scale
I0821 08:59:39.079268 32364 net.cpp:157] Top shape: 100 64 8 8 (409600)
I0821 08:59:39.079278 32364 net.cpp:165] Memory required for data: 2285978800
I0821 08:59:39.079296 32364 layer_factory.hpp:77] Creating layer L3_b18_cbr1_relu
I0821 08:59:39.079311 32364 net.cpp:100] Creating Layer L3_b18_cbr1_relu
I0821 08:59:39.079324 32364 net.cpp:434] L3_b18_cbr1_relu <- L3_b18_cbr1_bn_top
I0821 08:59:39.079344 32364 net.cpp:395] L3_b18_cbr1_relu -> L3_b18_cbr1_bn_top (in-place)
I0821 08:59:39.079365 32364 net.cpp:150] Setting up L3_b18_cbr1_relu
I0821 08:59:39.079378 32364 net.cpp:157] Top shape: 100 64 8 8 (409600)
I0821 08:59:39.079388 32364 net.cpp:165] Memory required for data: 2287617200
I0821 08:59:39.079398 32364 layer_factory.hpp:77] Creating layer L3_b18_cbr2_conv
I0821 08:59:39.079422 32364 net.cpp:100] Creating Layer L3_b18_cbr2_conv
I0821 08:59:39.079437 32364 net.cpp:434] L3_b18_cbr2_conv <- L3_b18_cbr1_bn_top
I0821 08:59:39.079453 32364 net.cpp:408] L3_b18_cbr2_conv -> L3_b18_cbr2_conv_top
I0821 08:59:39.080533 32364 net.cpp:150] Setting up L3_b18_cbr2_conv
I0821 08:59:39.080552 32364 net.cpp:157] Top shape: 100 64 8 8 (409600)
I0821 08:59:39.080561 32364 net.cpp:165] Memory required for data: 2289255600
I0821 08:59:39.080579 32364 layer_factory.hpp:77] Creating layer L3_b18_cbr2_bn
I0821 08:59:39.080600 32364 net.cpp:100] Creating Layer L3_b18_cbr2_bn
I0821 08:59:39.080613 32364 net.cpp:434] L3_b18_cbr2_bn <- L3_b18_cbr2_conv_top
I0821 08:59:39.080631 32364 net.cpp:408] L3_b18_cbr2_bn -> L3_b18_cbr2_bn_top
I0821 08:59:39.080938 32364 net.cpp:150] Setting up L3_b18_cbr2_bn
I0821 08:59:39.080958 32364 net.cpp:157] Top shape: 100 64 8 8 (409600)
I0821 08:59:39.080967 32364 net.cpp:165] Memory required for data: 2290894000
I0821 08:59:39.080989 32364 layer_factory.hpp:77] Creating layer L3_b18_cbr2_scale
I0821 08:59:39.081009 32364 net.cpp:100] Creating Layer L3_b18_cbr2_scale
I0821 08:59:39.081022 32364 net.cpp:434] L3_b18_cbr2_scale <- L3_b18_cbr2_bn_top
I0821 08:59:39.081038 32364 net.cpp:395] L3_b18_cbr2_scale -> L3_b18_cbr2_bn_top (in-place)
I0821 08:59:39.081140 32364 layer_factory.hpp:77] Creating layer L3_b18_cbr2_scale
I0821 08:59:39.081344 32364 net.cpp:150] Setting up L3_b18_cbr2_scale
I0821 08:59:39.081363 32364 net.cpp:157] Top shape: 100 64 8 8 (409600)
I0821 08:59:39.081372 32364 net.cpp:165] Memory required for data: 2292532400
I0821 08:59:39.081390 32364 layer_factory.hpp:77] Creating layer L3_b18_sum_eltwise
I0821 08:59:39.081413 32364 net.cpp:100] Creating Layer L3_b18_sum_eltwise
I0821 08:59:39.081426 32364 net.cpp:434] L3_b18_sum_eltwise <- L3_b18_cbr2_bn_top
I0821 08:59:39.081440 32364 net.cpp:434] L3_b18_sum_eltwise <- L3_b17_sum_eltwise_top_L3_b17_relu_0_split_1
I0821 08:59:39.081461 32364 net.cpp:408] L3_b18_sum_eltwise -> L3_b18_sum_eltwise_top
I0821 08:59:39.081519 32364 net.cpp:150] Setting up L3_b18_sum_eltwise
I0821 08:59:39.081537 32364 net.cpp:157] Top shape: 100 64 8 8 (409600)
I0821 08:59:39.081555 32364 net.cpp:165] Memory required for data: 2294170800
I0821 08:59:39.081567 32364 layer_factory.hpp:77] Creating layer L3_b18_relu
I0821 08:59:39.081585 32364 net.cpp:100] Creating Layer L3_b18_relu
I0821 08:59:39.081598 32364 net.cpp:434] L3_b18_relu <- L3_b18_sum_eltwise_top
I0821 08:59:39.081614 32364 net.cpp:395] L3_b18_relu -> L3_b18_sum_eltwise_top (in-place)
I0821 08:59:39.081631 32364 net.cpp:150] Setting up L3_b18_relu
I0821 08:59:39.081646 32364 net.cpp:157] Top shape: 100 64 8 8 (409600)
I0821 08:59:39.081655 32364 net.cpp:165] Memory required for data: 2295809200
I0821 08:59:39.081665 32364 layer_factory.hpp:77] Creating layer post_pool
I0821 08:59:39.081681 32364 net.cpp:100] Creating Layer post_pool
I0821 08:59:39.081692 32364 net.cpp:434] post_pool <- L3_b18_sum_eltwise_top
I0821 08:59:39.081709 32364 net.cpp:408] post_pool -> post_pool
I0821 08:59:39.081773 32364 net.cpp:150] Setting up post_pool
I0821 08:59:39.081792 32364 net.cpp:157] Top shape: 100 64 1 1 (6400)
I0821 08:59:39.081802 32364 net.cpp:165] Memory required for data: 2295834800
I0821 08:59:39.081812 32364 layer_factory.hpp:77] Creating layer post_FC
I0821 08:59:39.081928 32364 net.cpp:100] Creating Layer post_FC
I0821 08:59:39.081945 32364 net.cpp:434] post_FC <- post_pool
I0821 08:59:39.081964 32364 net.cpp:408] post_FC -> post_FC_top
I0821 08:59:39.082283 32364 net.cpp:150] Setting up post_FC
I0821 08:59:39.082303 32364 net.cpp:157] Top shape: 100 10 (1000)
I0821 08:59:39.082312 32364 net.cpp:165] Memory required for data: 2295838800
I0821 08:59:39.082331 32364 layer_factory.hpp:77] Creating layer post_FC_top_post_FC_0_split
I0821 08:59:39.082346 32364 net.cpp:100] Creating Layer post_FC_top_post_FC_0_split
I0821 08:59:39.082358 32364 net.cpp:434] post_FC_top_post_FC_0_split <- post_FC_top
I0821 08:59:39.082373 32364 net.cpp:408] post_FC_top_post_FC_0_split -> post_FC_top_post_FC_0_split_0
I0821 08:59:39.082398 32364 net.cpp:408] post_FC_top_post_FC_0_split -> post_FC_top_post_FC_0_split_1
I0821 08:59:39.082484 32364 net.cpp:150] Setting up post_FC_top_post_FC_0_split
I0821 08:59:39.082505 32364 net.cpp:157] Top shape: 100 10 (1000)
I0821 08:59:39.082518 32364 net.cpp:157] Top shape: 100 10 (1000)
I0821 08:59:39.082528 32364 net.cpp:165] Memory required for data: 2295846800
I0821 08:59:39.082538 32364 layer_factory.hpp:77] Creating layer accuracy
I0821 08:59:39.082602 32364 net.cpp:100] Creating Layer accuracy
I0821 08:59:39.082619 32364 net.cpp:434] accuracy <- post_FC_top_post_FC_0_split_0
I0821 08:59:39.082633 32364 net.cpp:434] accuracy <- label_dataLayer_1_split_0
I0821 08:59:39.082649 32364 net.cpp:408] accuracy -> accuracy
…
