…
I0817 16:27:03.419430 17345 net.cpp:322] The NetState phase (0) differed from the phase (1) specified by a rule in layer L3_b3_cbr2_bn
I0817 16:27:03.420193 17345 net.cpp:58] Initializing net from parameters: 
name: "Cifar-Resnet"
state {
  phase: TRAIN
  level: 0
  stage: ""
}
layer {
  name: "dataLayer"
  type: "Data"
  top: "data_top"
  top: "label"
  include {
    phase: TRAIN
  }
  transform_param {
    mirror: true
    crop_size: 32
    mean_file: "examples/cifar10/mean.binaryproto"
  }
  data_param {
    source: "examples/cifar10/cifar10_train_lmdb"
    batch_size: 125
    backend: LMDB
  }
  image_data_param {
    shuffle: true
  }
}
layer {
  name: "pre_conv"
  type: "Convolution"
  bottom: "data_top"
  top: "pre_conv_top"
  param {
    lr_mult: 1
    decay_mult: 1
  }
  param {
    lr_mult: 2
    decay_mult: 0
  }
  convolution_param {
    num_output: 16
    pad: 1
    kernel_size: 3
    stride: 1
    weight_filler {
      type: "msra"
    }
    bias_filler {
      type: "constant"
    }
  }
}
layer {
  name: "pre_bn"
  type: "BatchNorm"
  bottom: "pre_conv_top"
  top: "pre_bn_top"
  include {
    phase: TRAIN
  }
  batch_norm_param {
    use_global_stats: false
    moving_average_fraction: 0.95
  }
}
layer {
  name: "pre_scale"
  type: "Scale"
  bottom: "pre_bn_top"
  top: "pre_bn_top"
  scale_param {
    bias_term: true
  }
}
layer {
  name: "pre_relu"
  type: "ReLU"
  bottom: "pre_bn_top"
  top: "pre_bn_top"
}
layer {
  name: "L1_b1_cbr1_conv"
  type: "Convolution"
  bottom: "pre_bn_top"
  top: "L1_b1_cbr1_conv_top"
  param {
    lr_mult: 1
    decay_mult: 1
  }
  param {
    lr_mult: 2
    decay_mult: 0
  }
  convolution_param {
    num_output: 16
    pad: 1
    kernel_size: 3
    stride: 1
    weight_filler {
      type: "msra"
    }
    bias_filler {
      type: "constant"
    }
  }
}
layer {
  name: "L1_b1_cbr1_bn"
  type: "BatchNorm"
  bottom: "L1_b1_cbr1_conv_top"
  top: "L1_b1_cbr1_bn_top"
  include {
    phase: TRAIN
  }
  batch_norm_param {
    use_global_stats: false
    moving_average_fraction: 0.95
  }
}
layer {
  name: "L1_b1_cbr1_scale"
  type: "Scale"
  bottom: "L1_b1_cbr1_bn_top"
  top: "L1_b1_cbr1_bn_top"
  scale_param {
    bias_term: true
  }
}
layer {
  name: "L1_b1_cbr1_relu"
  type: "ReLU"
  bottom: "L1_b1_cbr1_bn_top"
  top: "L1_b1_cbr1_bn_top"
}
layer {
  name: "L1_b1_cbr2_conv"
  type: "Convolution"
  bottom: "L1_b1_cbr1_bn_top"
  top: "L1_b1_cbr2_conv_top"
  param {
    lr_mult: 1
    decay_mult: 1
  }
  param {
    lr_mult: 2
    decay_mult: 0
  }
  convolution_param {
    num_output: 16
    pad: 1
    kernel_size: 3
    stride: 1
    weight_filler {
      type: "msra"
    }
    bias_filler {
      type: "constant"
    }
  }
}
layer {
  name: "L1_b1_cbr2_bn"
  type: "BatchNorm"
  bottom: "L1_b1_cbr2_conv_top"
  top: "L1_b1_cbr2_bn_top"
  include {
    phase: TRAIN
  }
  batch_norm_param {
    use_global_stats: false
    moving_average_fraction: 0.95
  }
}
layer {
  name: "L1_b1_cbr2_scale"
  type: "Scale"
  bottom: "L1_b1_cbr2_bn_top"
  top: "L1_b1_cbr2_bn_top"
  scale_param {
    bias_term: true
  }
}
layer {
  name: "L1_b1_sum_eltwise"
  type: "Eltwise"
  bottom: "L1_b1_cbr2_bn_top"
  bottom: "pre_bn_top"
  top: "L1_b1_sum_eltwise_top"
  eltwise_param {
    operation: SUM
  }
}
layer {
  name: "L1_b1_relu"
  type: "ReLU"
  bottom: "L1_b1_sum_eltwise_top"
  top: "L1_b1_sum_eltwise_top"
}
layer {
  name: "L1_b2_cbr1_conv"
  type: "Convolution"
  bottom: "L1_b1_sum_eltwise_top"
  top: "L1_b2_cbr1_conv_top"
  param {
    lr_mult: 1
    decay_mult: 1
  }
  param {
    lr_mult: 2
    decay_mult: 0
  }
  convolution_param {
    num_output: 16
    pad: 1
    kernel_size: 3
    stride: 1
    weight_filler {
      type: "msra"
    }
    bias_filler {
      type: "constant"
    }
  }
}
layer {
  name: "L1_b2_cbr1_bn"
  type: "BatchNorm"
  bottom: "L1_b2_cbr1_conv_top"
  top: "L1_b2_cbr1_bn_top"
  include {
    phase: TRAIN
  }
  batch_norm_param {
    use_global_stats: false
    moving_average_fraction: 0.95
  }
}
layer {
  name: "L1_b2_cbr1_scale"
  type: "Scale"
  bottom: "L1_b2_cbr1_bn_top"
  top: "L1_b2_cbr1_bn_top"
  scale_param {
    bias_term: true
  }
}
layer {
  name: "L1_b2_cbr1_relu"
  type: "ReLU"
  bottom: "L1_b2_cbr1_bn_top"
  top: "L1_b2_cbr1_bn_top"
}
layer {
  name: "L1_b2_cbr2_conv"
  type: "Convolution"
  bottom: "L1_b2_cbr1_bn_top"
  top: "L1_b2_cbr2_conv_top"
  param {
    lr_mult: 1
    decay_mult: 1
  }
  param {
    lr_mult: 2
    decay_mult: 0
  }
  convolution_param {
    num_output: 16
    pad: 1
    kernel_size: 3
    stride: 1
    weight_filler {
      type: "msra"
    }
    bias_filler {
      type: "constant"
    }
  }
}
layer {
  name: "L1_b2_cbr2_bn"
  type: "BatchNorm"
  bottom: "L1_b2_cbr2_conv_top"
  top: "L1_b2_cbr2_bn_top"
  include {
    phase: TRAIN
  }
  batch_norm_param {
    use_global_stats: false
    moving_average_fraction: 0.95
  }
}
layer {
  name: "L1_b2_cbr2_scale"
  type: "Scale"
  bottom: "L1_b2_cbr2_bn_top"
  top: "L1_b2_cbr2_bn_top"
  scale_param {
    bias_term: true
  }
}
layer {
  name: "L1_b2_sum_eltwise"
  type: "Eltwise"
  bottom: "L1_b2_cbr2_bn_top"
  bottom: "L1_b1_sum_eltwise_top"
  top: "L1_b2_sum_eltwise_top"
  eltwise_param {
    operation: SUM
  }
}
layer {
  name: "L1_b2_relu"
  type: "ReLU"
  bottom: "L1_b2_sum_eltwise_top"
  top: "L1_b2_sum_eltwise_top"
}
layer {
  name: "L1_b3_cbr1_conv"
  type: "Convolution"
  bottom: "L1_b2_sum_eltwise_top"
  top: "L1_b3_cbr1_conv_top"
  param {
    lr_mult: 1
    decay_mult: 1
  }
  param {
    lr_mult: 2
    decay_mult: 0
  }
  convolution_param {
    num_output: 16
    pad: 1
    kernel_size: 3
    stride: 1
    weight_filler {
      type: "msra"
    }
    bias_filler {
      type: "constant"
    }
  }
}
layer {
  name: "L1_b3_cbr1_bn"
  type: "BatchNorm"
  bottom: "L1_b3_cbr1_conv_top"
  top: "L1_b3_cbr1_bn_top"
  include {
    phase: TRAIN
  }
  batch_norm_param {
    use_global_stats: false
    moving_average_fraction: 0.95
  }
}
layer {
  name: "L1_b3_cbr1_scale"
  type: "Scale"
  bottom: "L1_b3_cbr1_bn_top"
  top: "L1_b3_cbr1_bn_top"
  scale_param {
    bias_term: true
  }
}
layer {
  name: "L1_b3_cbr1_relu"
  type: "ReLU"
  bottom: "L1_b3_cbr1_bn_top"
  top: "L1_b3_cbr1_bn_top"
}
layer {
  name: "L1_b3_cbr2_conv"
  type: "Convolution"
  bottom: "L1_b3_cbr1_bn_top"
  top: "L1_b3_cbr2_conv_top"
  param {
    lr_mult: 1
    decay_mult: 1
  }
  param {
    lr_mult: 2
    decay_mult: 0
  }
  convolution_param {
    num_output: 16
    pad: 1
    kernel_size: 3
    stride: 1
    weight_filler {
      type: "msra"
    }
    bias_filler {
      type: "constant"
    }
  }
}
layer {
  name: "L1_b3_cbr2_bn"
  type: "BatchNorm"
  bottom: "L1_b3_cbr2_conv_top"
  top: "L1_b3_cbr2_bn_top"
  include {
    phase: TRAIN
  }
  batch_norm_param {
    use_global_stats: false
    moving_average_fraction: 0.95
  }
}
layer {
  name: "L1_b3_cbr2_scale"
  type: "Scale"
  bottom: "L1_b3_cbr2_bn_top"
  top: "L1_b3_cbr2_bn_top"
  scale_param {
    bias_term: true
  }
}
layer {
  name: "L1_b3_sum_eltwise"
  type: "Eltwise"
  bottom: "L1_b3_cbr2_bn_top"
  bottom: "L1_b2_sum_eltwise_top"
  top: "L1_b3_sum_eltwise_top"
  eltwise_param {
    operation: SUM
  }
}
layer {
  name: "L1_b3_relu"
  type: "ReLU"
  bottom: "L1_b3_sum_eltwise_top"
  top: "L1_b3_sum_eltwise_top"
}
layer {
  name: "L2_b1_cbr1_conv"
  type: "Convolution"
  bottom: "L1_b3_sum_eltwise_top"
  top: "L2_b1_cbr1_conv_top"
  param {
    lr_mult: 1
    decay_mult: 1
  }
  param {
    lr_mult: 2
    decay_mult: 0
  }
  convolution_param {
    num_output: 16
    pad: 1
    kernel_size: 3
    stride: 2
    weight_filler {
      type: "msra"
    }
    bias_filler {
      type: "constant"
    }
  }
}
layer {
  name: "L2_b1_cbr1_bn"
  type: "BatchNorm"
  bottom: "L2_b1_cbr1_conv_top"
  top: "L2_b1_cbr1_bn_top"
  include {
    phase: TRAIN
  }
  batch_norm_param {
    use_global_stats: false
    moving_average_fraction: 0.95
  }
}
layer {
  name: "L2_b1_cbr1_scale"
  type: "Scale"
  bottom: "L2_b1_cbr1_bn_top"
  top: "L2_b1_cbr1_bn_top"
  scale_param {
    bias_term: true
  }
}
layer {
  name: "L2_b1_cbr1_relu"
  type: "ReLU"
  bottom: "L2_b1_cbr1_bn_top"
  top: "L2_b1_cbr1_bn_top"
}
layer {
  name: "L2_b1_cbr2_conv"
  type: "Convolution"
  bottom: "L2_b1_cbr1_bn_top"
  top: "L2_b1_cbr2_conv_top"
  param {
    lr_mult: 1
    decay_mult: 1
  }
  param {
    lr_mult: 2
    decay_mult: 0
  }
  convolution_param {
    num_output: 16
    pad: 1
    kernel_size: 3
    stride: 1
    weight_filler {
      type: "msra"
    }
    bias_filler {
      type: "constant"
    }
  }
}
layer {
  name: "L2_b1_cbr2_bn"
  type: "BatchNorm"
  bottom: "L2_b1_cbr2_conv_top"
  top: "L2_b1_cbr2_bn_top"
  include {
    phase: TRAIN
  }
  batch_norm_param {
    use_global_stats: false
    moving_average_fraction: 0.95
  }
}
layer {
  name: "L2_b1_cbr2_scale"
  type: "Scale"
  bottom: "L2_b1_cbr2_bn_top"
  top: "L2_b1_cbr2_bn_top"
  scale_param {
    bias_term: true
  }
}
layer {
  name: "L2_b1_pool"
  type: "Pooling"
  bottom: "L1_b3_sum_eltwise_top"
  top: "L2_b1_pool"
  pooling_param {
    pool: AVE
    kernel_size: 3
    stride: 2
  }
}
layer {
  name: "L2_b1_sum_eltwise"
  type: "Eltwise"
  bottom: "L2_b1_cbr2_bn_top"
  bottom: "L2_b1_pool"
  top: "L2_b1_sum_eltwise_top"
  eltwise_param {
    operation: SUM
  }
}
layer {
  name: "L2_b1_relu"
  type: "ReLU"
  bottom: "L2_b1_sum_eltwise_top"
  top: "L2_b1_sum_eltwise_top"
}
layer {
  name: "L2_b1_zeros"
  type: "DummyData"
  top: "L2_b1_zeros"
  dummy_data_param {
    data_filler {
      type: "constant"
      value: 0
    }
    shape {
      dim: 125
      dim: 16
      dim: 16
      dim: 16
    }
  }
}
layer {
  name: "L2_b1_concat0"
  type: "Concat"
  bottom: "L2_b1_sum_eltwise_top"
  bottom: "L2_b1_zeros"
  top: "L2_b1_concat0"
  concat_param {
    axis: 1
  }
}
layer {
  name: "L2_b2_cbr1_conv"
  type: "Convolution"
  bottom: "L2_b1_concat0"
  top: "L2_b2_cbr1_conv_top"
  param {
    lr_mult: 1
    decay_mult: 1
  }
  param {
    lr_mult: 2
    decay_mult: 0
  }
  convolution_param {
    num_output: 32
    pad: 1
    kernel_size: 3
    stride: 1
    weight_filler {
      type: "msra"
    }
    bias_filler {
      type: "constant"
    }
  }
}
layer {
  name: "L2_b2_cbr1_bn"
  type: "BatchNorm"
  bottom: "L2_b2_cbr1_conv_top"
  top: "L2_b2_cbr1_bn_top"
  include {
    phase: TRAIN
  }
  batch_norm_param {
    use_global_stats: false
    moving_average_fraction: 0.95
  }
}
layer {
  name: "L2_b2_cbr1_scale"
  type: "Scale"
  bottom: "L2_b2_cbr1_bn_top"
  top: "L2_b2_cbr1_bn_top"
  scale_param {
    bias_term: true
  }
}
layer {
  name: "L2_b2_cbr1_relu"
  type: "ReLU"
  bottom: "L2_b2_cbr1_bn_top"
  top: "L2_b2_cbr1_bn_top"
}
layer {
  name: "L2_b2_cbr2_conv"
  type: "Convolution"
  bottom: "L2_b2_cbr1_bn_top"
  top: "L2_b2_cbr2_conv_top"
  param {
    lr_mult: 1
    decay_mult: 1
  }
  param {
    lr_mult: 2
    decay_mult: 0
  }
  convolution_param {
    num_output: 32
    pad: 1
    kernel_size: 3
    stride: 1
    weight_filler {
      type: "msra"
    }
    bias_filler {
      type: "constant"
    }
  }
}
layer {
  name: "L2_b2_cbr2_bn"
  type: "BatchNorm"
  bottom: "L2_b2_cbr2_conv_top"
  top: "L2_b2_cbr2_bn_top"
  include {
    phase: TRAIN
  }
  batch_norm_param {
    use_global_stats: false
    moving_average_fraction: 0.95
  }
}
layer {
  name: "L2_b2_cbr2_scale"
  type: "Scale"
  bottom: "L2_b2_cbr2_bn_top"
  top: "L2_b2_cbr2_bn_top"
  scale_param {
    bias_term: true
  }
}
layer {
  name: "L2_b2_sum_eltwise"
  type: "Eltwise"
  bottom: "L2_b2_cbr2_bn_top"
  bottom: "L2_b1_concat0"
  top: "L2_b2_sum_eltwise_top"
  eltwise_param {
    operation: SUM
  }
}
layer {
  name: "L2_b2_relu"
  type: "ReLU"
  bottom: "L2_b2_sum_eltwise_top"
  top: "L2_b2_sum_eltwise_top"
}
layer {
  name: "L2_b3_cbr1_conv"
  type: "Convolution"
  bottom: "L2_b2_sum_eltwise_top"
  top: "L2_b3_cbr1_conv_top"
  param {
    lr_mult: 1
    decay_mult: 1
  }
  param {
    lr_mult: 2
    decay_mult: 0
  }
  convolution_param {
    num_output: 32
    pad: 1
    kernel_size: 3
    stride: 1
    weight_filler {
      type: "msra"
    }
    bias_filler {
      type: "constant"
    }
  }
}
layer {
  name: "L2_b3_cbr1_bn"
  type: "BatchNorm"
  bottom: "L2_b3_cbr1_conv_top"
  top: "L2_b3_cbr1_bn_top"
  include {
    phase: TRAIN
  }
  batch_norm_param {
    use_global_stats: false
    moving_average_fraction: 0.95
  }
}
layer {
  name: "L2_b3_cbr1_scale"
  type: "Scale"
  bottom: "L2_b3_cbr1_bn_top"
  top: "L2_b3_cbr1_bn_top"
  scale_param {
    bias_term: true
  }
}
layer {
  name: "L2_b3_cbr1_relu"
  type: "ReLU"
  bottom: "L2_b3_cbr1_bn_top"
  top: "L2_b3_cbr1_bn_top"
}
layer {
  name: "L2_b3_cbr2_conv"
  type: "Convolution"
  bottom: "L2_b3_cbr1_bn_top"
  top: "L2_b3_cbr2_conv_top"
  param {
    lr_mult: 1
    decay_mult: 1
  }
  param {
    lr_mult: 2
    decay_mult: 0
  }
  convolution_param {
    num_output: 32
    pad: 1
    kernel_size: 3
    stride: 1
    weight_filler {
      type: "msra"
    }
    bias_filler {
      type: "constant"
    }
  }
}
layer {
  name: "L2_b3_cbr2_bn"
  type: "BatchNorm"
  bottom: "L2_b3_cbr2_conv_top"
  top: "L2_b3_cbr2_bn_top"
  include {
    phase: TRAIN
  }
  batch_norm_param {
    use_global_stats: false
    moving_average_fraction: 0.95
  }
}
layer {
  name: "L2_b3_cbr2_scale"
  type: "Scale"
  bottom: "L2_b3_cbr2_bn_top"
  top: "L2_b3_cbr2_bn_top"
  scale_param {
    bias_term: true
  }
}
layer {
  name: "L2_b3_sum_eltwise"
  type: "Eltwise"
  bottom: "L2_b3_cbr2_bn_top"
  bottom: "L2_b2_sum_eltwise_top"
  top: "L2_b3_sum_eltwise_top"
  eltwise_param {
    operation: SUM
  }
}
layer {
  name: "L2_b3_relu"
  type: "ReLU"
  bottom: "L2_b3_sum_eltwise_top"
  top: "L2_b3_sum_eltwise_top"
}
layer {
  name: "L3_b1_cbr1_conv"
  type: "Convolution"
  bottom: "L2_b3_sum_eltwise_top"
  top: "L3_b1_cbr1_conv_top"
  param {
    lr_mult: 1
    decay_mult: 1
  }
  param {
    lr_mult: 2
    decay_mult: 0
  }
  convolution_param {
    num_output: 32
    pad: 1
    kernel_size: 3
    stride: 2
    weight_filler {
      type: "msra"
    }
    bias_filler {
      type: "constant"
    }
  }
}
layer {
  name: "L3_b1_cbr1_bn"
  type: "BatchNorm"
  bottom: "L3_b1_cbr1_conv_top"
  top: "L3_b1_cbr1_bn_top"
  include {
    phase: TRAIN
  }
  batch_norm_param {
    use_global_stats: false
    moving_average_fraction: 0.95
  }
}
layer {
  name: "L3_b1_cbr1_scale"
  type: "Scale"
  bottom: "L3_b1_cbr1_bn_top"
  top: "L3_b1_cbr1_bn_top"
  scale_param {
    bias_term: true
  }
}
layer {
  name: "L3_b1_cbr1_relu"
  type: "ReLU"
  bottom: "L3_b1_cbr1_bn_top"
  top: "L3_b1_cbr1_bn_top"
}
layer {
  name: "L3_b1_cbr2_conv"
  type: "Convolution"
  bottom: "L3_b1_cbr1_bn_top"
  top: "L3_b1_cbr2_conv_top"
  param {
    lr_mult: 1
    decay_mult: 1
  }
  param {
    lr_mult: 2
    decay_mult: 0
  }
  convolution_param {
    num_output: 32
    pad: 1
    kernel_size: 3
    stride: 1
    weight_filler {
      type: "msra"
    }
    bias_filler {
      type: "constant"
    }
  }
}
layer {
  name: "L3_b1_cbr2_bn"
  type: "BatchNorm"
  bottom: "L3_b1_cbr2_conv_top"
  top: "L3_b1_cbr2_bn_top"
  include {
    phase: TRAIN
  }
  batch_norm_param {
    use_global_stats: false
    moving_average_fraction: 0.95
  }
}
layer {
  name: "L3_b1_cbr2_scale"
  type: "Scale"
  bottom: "L3_b1_cbr2_bn_top"
  top: "L3_b1_cbr2_bn_top"
  scale_param {
    bias_term: true
  }
}
layer {
  name: "L3_b1_pool"
  type: "Pooling"
  bottom: "L2_b3_sum_eltwise_top"
  top: "L3_b1_pool"
  pooling_param {
    pool: AVE
    kernel_size: 3
    stride: 2
  }
}
layer {
  name: "L3_b1_sum_eltwise"
  type: "Eltwise"
  bottom: "L3_b1_cbr2_bn_top"
  bottom: "L3_b1_pool"
  top: "L3_b1_sum_eltwise_top"
  eltwise_param {
    operation: SUM
  }
}
layer {
  name: "L3_b1_relu"
  type: "ReLU"
  bottom: "L3_b1_sum_eltwise_top"
  top: "L3_b1_sum_eltwise_top"
}
layer {
  name: "L3_b1_zeros"
  type: "DummyData"
  top: "L3_b1_zeros"
  dummy_data_param {
    data_filler {
      type: "constant"
      value: 0
    }
    shape {
      dim: 125
      dim: 32
      dim: 8
      dim: 8
    }
  }
}
layer {
  name: "L3_b1_concat0"
  type: "Concat"
  bottom: "L3_b1_sum_eltwise_top"
  bottom: "L3_b1_zeros"
  top: "L3_b1_concat0"
  concat_param {
    axis: 1
  }
}
layer {
  name: "L3_b2_cbr1_conv"
  type: "Convolution"
  bottom: "L3_b1_concat0"
  top: "L3_b2_cbr1_conv_top"
  param {
    lr_mult: 1
    decay_mult: 1
  }
  param {
    lr_mult: 2
    decay_mult: 0
  }
  convolution_param {
    num_output: 64
    pad: 1
    kernel_size: 3
    stride: 1
    weight_filler {
      type: "msra"
    }
    bias_filler {
      type: "constant"
    }
  }
}
layer {
  name: "L3_b2_cbr1_bn"
  type: "BatchNorm"
  bottom: "L3_b2_cbr1_conv_top"
  top: "L3_b2_cbr1_bn_top"
  include {
    phase: TRAIN
  }
  batch_norm_param {
    use_global_stats: false
    moving_average_fraction: 0.95
  }
}
layer {
  name: "L3_b2_cbr1_scale"
  type: "Scale"
  bottom: "L3_b2_cbr1_bn_top"
  top: "L3_b2_cbr1_bn_top"
  scale_param {
    bias_term: true
  }
}
layer {
  name: "L3_b2_cbr1_relu"
  type: "ReLU"
  bottom: "L3_b2_cbr1_bn_top"
  top: "L3_b2_cbr1_bn_top"
}
layer {
  name: "L3_b2_cbr2_conv"
  type: "Convolution"
  bottom: "L3_b2_cbr1_bn_top"
  top: "L3_b2_cbr2_conv_top"
  param {
    lr_mult: 1
    decay_mult: 1
  }
  param {
    lr_mult: 2
    decay_mult: 0
  }
  convolution_param {
    num_output: 64
    pad: 1
    kernel_size: 3
    stride: 1
    weight_filler {
      type: "msra"
    }
    bias_filler {
      type: "constant"
    }
  }
}
layer {
  name: "L3_b2_cbr2_bn"
  type: "BatchNorm"
  bottom: "L3_b2_cbr2_conv_top"
  top: "L3_b2_cbr2_bn_top"
  include {
    phase: TRAIN
  }
  batch_norm_param {
    use_global_stats: false
    moving_average_fraction: 0.95
  }
}
layer {
  name: "L3_b2_cbr2_scale"
  type: "Scale"
  bottom: "L3_b2_cbr2_bn_top"
  top: "L3_b2_cbr2_bn_top"
  scale_param {
    bias_term: true
  }
}
layer {
  name: "L3_b2_sum_eltwise"
  type: "Eltwise"
  bottom: "L3_b2_cbr2_bn_top"
  bottom: "L3_b1_concat0"
  top: "L3_b2_sum_eltwise_top"
  eltwise_param {
    operation: SUM
  }
}
layer {
  name: "L3_b2_relu"
  type: "ReLU"
  bottom: "L3_b2_sum_eltwise_top"
  top: "L3_b2_sum_eltwise_top"
}
layer {
  name: "L3_b3_cbr1_conv"
  type: "Convolution"
  bottom: "L3_b2_sum_eltwise_top"
  top: "L3_b3_cbr1_conv_top"
  param {
    lr_mult: 1
    decay_mult: 1
  }
  param {
    lr_mult: 2
    decay_mult: 0
  }
  convolution_param {
    num_output: 64
    pad: 1
    kernel_size: 3
    stride: 1
    weight_filler {
      type: "msra"
    }
    bias_filler {
      type: "constant"
    }
  }
}
layer {
  name: "L3_b3_cbr1_bn"
  type: "BatchNorm"
  bottom: "L3_b3_cbr1_conv_top"
  top: "L3_b3_cbr1_bn_top"
  include {
    phase: TRAIN
  }
  batch_norm_param {
    use_global_stats: false
    moving_average_fraction: 0.95
  }
}
layer {
  name: "L3_b3_cbr1_scale"
  type: "Scale"
  bottom: "L3_b3_cbr1_bn_top"
  top: "L3_b3_cbr1_bn_top"
  scale_param {
    bias_term: true
  }
}
layer {
  name: "L3_b3_cbr1_relu"
  type: "ReLU"
  bottom: "L3_b3_cbr1_bn_top"
  top: "L3_b3_cbr1_bn_top"
}
layer {
  name: "L3_b3_cbr2_conv"
  type: "Convolution"
  bottom: "L3_b3_cbr1_bn_top"
  top: "L3_b3_cbr2_conv_top"
  param {
    lr_mult: 1
    decay_mult: 1
  }
  param {
    lr_mult: 2
    decay_mult: 0
  }
  convolution_param {
    num_output: 64
    pad: 1
    kernel_size: 3
    stride: 1
    weight_filler {
      type: "msra"
    }
    bias_filler {
      type: "constant"
    }
  }
}
layer {
  name: "L3_b3_cbr2_bn"
  type: "BatchNorm"
  bottom: "L3_b3_cbr2_conv_top"
  top: "L3_b3_cbr2_bn_top"
  include {
    phase: TRAIN
  }
  batch_norm_param {
    use_global_stats: false
    moving_average_fraction: 0.95
  }
}
layer {
  name: "L3_b3_cbr2_scale"
  type: "Scale"
  bottom: "L3_b3_cbr2_bn_top"
  top: "L3_b3_cbr2_bn_top"
  scale_param {
    bias_term: true
  }
}
layer {
  name: "L3_b3_sum_eltwise"
  type: "Eltwise"
  bottom: "L3_b3_cbr2_bn_top"
  bottom: "L3_b2_sum_eltwise_top"
  top: "L3_b3_sum_eltwise_top"
  eltwise_param {
    operation: SUM
  }
}
layer {
  name: "L3_b3_relu"
  type: "ReLU"
  bottom: "L3_b3_sum_eltwise_top"
  top: "L3_b3_sum_eltwise_top"
}
layer {
  name: "post_pool"
  type: "Pooling"
  bottom: "L3_b3_sum_eltwise_top"
  top: "post_pool"
  pooling_param {
    pool: AVE
    kernel_size: 8
    stride: 1
  }
}
layer {
  name: "post_FC"
  type: "InnerProduct"
  bottom: "post_pool"
  top: "post_FC_top"
  param {
    lr_mult: 1
  }
  param {
    lr_mult: 2
  }
  inner_product_param {
    num_output: 10
    weight_filler {
      type: "xavier"
    }
    bias_filler {
      type: "constant"
    }
  }
}
layer {
  name: "accuracy"
  type: "Accuracy"
  bottom: "post_FC_top"
  bottom: "label"
  top: "accuracy"
}
layer {
  name: "loss"
  type: "SoftmaxWithLoss"
  bottom: "post_FC_top"
  bottom: "label"
  top: "loss"
}
I0817 16:27:03.421129 17345 layer_factory.hpp:77] Creating layer dataLayer
I0817 16:27:03.422317 17345 net.cpp:100] Creating Layer dataLayer
I0817 16:27:03.422389 17345 net.cpp:408] dataLayer -> data_top
I0817 16:27:03.422577 17345 net.cpp:408] dataLayer -> label
I0817 16:27:03.422694 17345 data_transformer.cpp:25] Loading mean file from: examples/cifar10/mean.binaryproto
I0817 16:27:03.431902 17350 db_lmdb.cpp:35] Opened lmdb examples/cifar10/cifar10_train_lmdb
I0817 16:27:03.453838 17345 data_layer.cpp:41] output data size: 125,3,32,32
I0817 16:27:03.460916 17345 net.cpp:150] Setting up dataLayer
I0817 16:27:03.460978 17345 net.cpp:157] Top shape: 125 3 32 32 (384000)
I0817 16:27:03.460990 17345 net.cpp:157] Top shape: 125 (125)
I0817 16:27:03.460996 17345 net.cpp:165] Memory required for data: 1536500
I0817 16:27:03.461011 17345 layer_factory.hpp:77] Creating layer label_dataLayer_1_split
I0817 16:27:03.461027 17345 net.cpp:100] Creating Layer label_dataLayer_1_split
I0817 16:27:03.461035 17345 net.cpp:434] label_dataLayer_1_split <- label
I0817 16:27:03.461055 17345 net.cpp:408] label_dataLayer_1_split -> label_dataLayer_1_split_0
I0817 16:27:03.461071 17345 net.cpp:408] label_dataLayer_1_split -> label_dataLayer_1_split_1
I0817 16:27:03.461155 17345 net.cpp:150] Setting up label_dataLayer_1_split
I0817 16:27:03.461169 17345 net.cpp:157] Top shape: 125 (125)
I0817 16:27:03.461176 17345 net.cpp:157] Top shape: 125 (125)
I0817 16:27:03.461181 17345 net.cpp:165] Memory required for data: 1537500
I0817 16:27:03.461186 17345 layer_factory.hpp:77] Creating layer pre_conv
I0817 16:27:03.461247 17345 net.cpp:100] Creating Layer pre_conv
I0817 16:27:03.461261 17345 net.cpp:434] pre_conv <- data_top
I0817 16:27:03.461273 17345 net.cpp:408] pre_conv -> pre_conv_top
I0817 16:27:03.463297 17345 net.cpp:150] Setting up pre_conv
I0817 16:27:03.463318 17345 net.cpp:157] Top shape: 125 16 32 32 (2048000)
I0817 16:27:03.463325 17345 net.cpp:165] Memory required for data: 9729500
I0817 16:27:03.463376 17345 layer_factory.hpp:77] Creating layer pre_bn
I0817 16:27:03.463439 17345 net.cpp:100] Creating Layer pre_bn
I0817 16:27:03.463451 17345 net.cpp:434] pre_bn <- pre_conv_top
I0817 16:27:03.463465 17345 net.cpp:408] pre_bn -> pre_bn_top
I0817 16:27:03.463575 17351 blocking_queue.cpp:50] Waiting for data
I0817 16:27:03.463800 17345 net.cpp:150] Setting up pre_bn
I0817 16:27:03.463820 17345 net.cpp:157] Top shape: 125 16 32 32 (2048000)
I0817 16:27:03.463826 17345 net.cpp:165] Memory required for data: 17921500
I0817 16:27:03.463843 17345 layer_factory.hpp:77] Creating layer pre_scale
I0817 16:27:03.463889 17345 net.cpp:100] Creating Layer pre_scale
I0817 16:27:03.463898 17345 net.cpp:434] pre_scale <- pre_bn_top
I0817 16:27:03.463907 17345 net.cpp:395] pre_scale -> pre_bn_top (in-place)
I0817 16:27:03.464068 17345 layer_factory.hpp:77] Creating layer pre_scale
I0817 16:27:03.464318 17345 net.cpp:150] Setting up pre_scale
I0817 16:27:03.464332 17345 net.cpp:157] Top shape: 125 16 32 32 (2048000)
I0817 16:27:03.464337 17345 net.cpp:165] Memory required for data: 26113500
I0817 16:27:03.464349 17345 layer_factory.hpp:77] Creating layer pre_relu
I0817 16:27:03.464390 17345 net.cpp:100] Creating Layer pre_relu
I0817 16:27:03.464401 17345 net.cpp:434] pre_relu <- pre_bn_top
I0817 16:27:03.464412 17345 net.cpp:395] pre_relu -> pre_bn_top (in-place)
I0817 16:27:03.464423 17345 net.cpp:150] Setting up pre_relu
I0817 16:27:03.464460 17345 net.cpp:157] Top shape: 125 16 32 32 (2048000)
I0817 16:27:03.464469 17345 net.cpp:165] Memory required for data: 34305500
I0817 16:27:03.464484 17345 layer_factory.hpp:77] Creating layer pre_bn_top_pre_relu_0_split
I0817 16:27:03.464499 17345 net.cpp:100] Creating Layer pre_bn_top_pre_relu_0_split
I0817 16:27:03.464509 17345 net.cpp:434] pre_bn_top_pre_relu_0_split <- pre_bn_top
I0817 16:27:03.464534 17345 net.cpp:408] pre_bn_top_pre_relu_0_split -> pre_bn_top_pre_relu_0_split_0
I0817 16:27:03.464553 17345 net.cpp:408] pre_bn_top_pre_relu_0_split -> pre_bn_top_pre_relu_0_split_1
I0817 16:27:03.464619 17345 net.cpp:150] Setting up pre_bn_top_pre_relu_0_split
I0817 16:27:03.464637 17345 net.cpp:157] Top shape: 125 16 32 32 (2048000)
I0817 16:27:03.464644 17345 net.cpp:157] Top shape: 125 16 32 32 (2048000)
I0817 16:27:03.464649 17345 net.cpp:165] Memory required for data: 50689500
I0817 16:27:03.464654 17345 layer_factory.hpp:77] Creating layer L1_b1_cbr1_conv
I0817 16:27:03.464670 17345 net.cpp:100] Creating Layer L1_b1_cbr1_conv
I0817 16:27:03.464676 17345 net.cpp:434] L1_b1_cbr1_conv <- pre_bn_top_pre_relu_0_split_0
I0817 16:27:03.464685 17345 net.cpp:408] L1_b1_cbr1_conv -> L1_b1_cbr1_conv_top
I0817 16:27:03.464992 17345 net.cpp:150] Setting up L1_b1_cbr1_conv
I0817 16:27:03.465006 17345 net.cpp:157] Top shape: 125 16 32 32 (2048000)
I0817 16:27:03.465011 17345 net.cpp:165] Memory required for data: 58881500
I0817 16:27:03.465029 17345 layer_factory.hpp:77] Creating layer L1_b1_cbr1_bn
I0817 16:27:03.465044 17345 net.cpp:100] Creating Layer L1_b1_cbr1_bn
I0817 16:27:03.465049 17345 net.cpp:434] L1_b1_cbr1_bn <- L1_b1_cbr1_conv_top
I0817 16:27:03.465059 17345 net.cpp:408] L1_b1_cbr1_bn -> L1_b1_cbr1_bn_top
I0817 16:27:03.465286 17345 net.cpp:150] Setting up L1_b1_cbr1_bn
I0817 16:27:03.465298 17345 net.cpp:157] Top shape: 125 16 32 32 (2048000)
I0817 16:27:03.465303 17345 net.cpp:165] Memory required for data: 67073500
I0817 16:27:03.465314 17345 layer_factory.hpp:77] Creating layer L1_b1_cbr1_scale
I0817 16:27:03.465323 17345 net.cpp:100] Creating Layer L1_b1_cbr1_scale
I0817 16:27:03.465328 17345 net.cpp:434] L1_b1_cbr1_scale <- L1_b1_cbr1_bn_top
I0817 16:27:03.465339 17345 net.cpp:395] L1_b1_cbr1_scale -> L1_b1_cbr1_bn_top (in-place)
I0817 16:27:03.465389 17345 layer_factory.hpp:77] Creating layer L1_b1_cbr1_scale
I0817 16:27:03.465530 17345 net.cpp:150] Setting up L1_b1_cbr1_scale
I0817 16:27:03.465546 17345 net.cpp:157] Top shape: 125 16 32 32 (2048000)
I0817 16:27:03.465553 17345 net.cpp:165] Memory required for data: 75265500
I0817 16:27:03.465561 17345 layer_factory.hpp:77] Creating layer L1_b1_cbr1_relu
I0817 16:27:03.465570 17345 net.cpp:100] Creating Layer L1_b1_cbr1_relu
I0817 16:27:03.465575 17345 net.cpp:434] L1_b1_cbr1_relu <- L1_b1_cbr1_bn_top
I0817 16:27:03.465582 17345 net.cpp:395] L1_b1_cbr1_relu -> L1_b1_cbr1_bn_top (in-place)
I0817 16:27:03.465591 17345 net.cpp:150] Setting up L1_b1_cbr1_relu
I0817 16:27:03.465598 17345 net.cpp:157] Top shape: 125 16 32 32 (2048000)
I0817 16:27:03.465603 17345 net.cpp:165] Memory required for data: 83457500
I0817 16:27:03.465607 17345 layer_factory.hpp:77] Creating layer L1_b1_cbr2_conv
I0817 16:27:03.465622 17345 net.cpp:100] Creating Layer L1_b1_cbr2_conv
I0817 16:27:03.465627 17345 net.cpp:434] L1_b1_cbr2_conv <- L1_b1_cbr1_bn_top
I0817 16:27:03.465641 17345 net.cpp:408] L1_b1_cbr2_conv -> L1_b1_cbr2_conv_top
I0817 16:27:03.465941 17345 net.cpp:150] Setting up L1_b1_cbr2_conv
I0817 16:27:03.465955 17345 net.cpp:157] Top shape: 125 16 32 32 (2048000)
I0817 16:27:03.465960 17345 net.cpp:165] Memory required for data: 91649500
I0817 16:27:03.465968 17345 layer_factory.hpp:77] Creating layer L1_b1_cbr2_bn
I0817 16:27:03.465981 17345 net.cpp:100] Creating Layer L1_b1_cbr2_bn
I0817 16:27:03.465986 17345 net.cpp:434] L1_b1_cbr2_bn <- L1_b1_cbr2_conv_top
I0817 16:27:03.465997 17345 net.cpp:408] L1_b1_cbr2_bn -> L1_b1_cbr2_bn_top
I0817 16:27:03.466223 17345 net.cpp:150] Setting up L1_b1_cbr2_bn
I0817 16:27:03.466235 17345 net.cpp:157] Top shape: 125 16 32 32 (2048000)
I0817 16:27:03.466241 17345 net.cpp:165] Memory required for data: 99841500
I0817 16:27:03.466255 17345 layer_factory.hpp:77] Creating layer L1_b1_cbr2_scale
I0817 16:27:03.466266 17345 net.cpp:100] Creating Layer L1_b1_cbr2_scale
I0817 16:27:03.466272 17345 net.cpp:434] L1_b1_cbr2_scale <- L1_b1_cbr2_bn_top
I0817 16:27:03.466280 17345 net.cpp:395] L1_b1_cbr2_scale -> L1_b1_cbr2_bn_top (in-place)
I0817 16:27:03.466342 17345 layer_factory.hpp:77] Creating layer L1_b1_cbr2_scale
I0817 16:27:03.466485 17345 net.cpp:150] Setting up L1_b1_cbr2_scale
I0817 16:27:03.466500 17345 net.cpp:157] Top shape: 125 16 32 32 (2048000)
I0817 16:27:03.466505 17345 net.cpp:165] Memory required for data: 108033500
I0817 16:27:03.466513 17345 layer_factory.hpp:77] Creating layer L1_b1_sum_eltwise
I0817 16:27:03.466563 17345 net.cpp:100] Creating Layer L1_b1_sum_eltwise
I0817 16:27:03.466575 17345 net.cpp:434] L1_b1_sum_eltwise <- L1_b1_cbr2_bn_top
I0817 16:27:03.466583 17345 net.cpp:434] L1_b1_sum_eltwise <- pre_bn_top_pre_relu_0_split_1
I0817 16:27:03.466594 17345 net.cpp:408] L1_b1_sum_eltwise -> L1_b1_sum_eltwise_top
I0817 16:27:03.466665 17345 net.cpp:150] Setting up L1_b1_sum_eltwise
I0817 16:27:03.466686 17345 net.cpp:157] Top shape: 125 16 32 32 (2048000)
I0817 16:27:03.466691 17345 net.cpp:165] Memory required for data: 116225500
I0817 16:27:03.466696 17345 layer_factory.hpp:77] Creating layer L1_b1_relu
I0817 16:27:03.466706 17345 net.cpp:100] Creating Layer L1_b1_relu
I0817 16:27:03.466711 17345 net.cpp:434] L1_b1_relu <- L1_b1_sum_eltwise_top
I0817 16:27:03.466717 17345 net.cpp:395] L1_b1_relu -> L1_b1_sum_eltwise_top (in-place)
I0817 16:27:03.466727 17345 net.cpp:150] Setting up L1_b1_relu
I0817 16:27:03.466734 17345 net.cpp:157] Top shape: 125 16 32 32 (2048000)
I0817 16:27:03.466738 17345 net.cpp:165] Memory required for data: 124417500
I0817 16:27:03.466743 17345 layer_factory.hpp:77] Creating layer L1_b1_sum_eltwise_top_L1_b1_relu_0_split
I0817 16:27:03.466755 17345 net.cpp:100] Creating Layer L1_b1_sum_eltwise_top_L1_b1_relu_0_split
I0817 16:27:03.466760 17345 net.cpp:434] L1_b1_sum_eltwise_top_L1_b1_relu_0_split <- L1_b1_sum_eltwise_top
I0817 16:27:03.466768 17345 net.cpp:408] L1_b1_sum_eltwise_top_L1_b1_relu_0_split -> L1_b1_sum_eltwise_top_L1_b1_relu_0_split_0
I0817 16:27:03.466778 17345 net.cpp:408] L1_b1_sum_eltwise_top_L1_b1_relu_0_split -> L1_b1_sum_eltwise_top_L1_b1_relu_0_split_1
I0817 16:27:03.466820 17345 net.cpp:150] Setting up L1_b1_sum_eltwise_top_L1_b1_relu_0_split
I0817 16:27:03.466832 17345 net.cpp:157] Top shape: 125 16 32 32 (2048000)
I0817 16:27:03.466840 17345 net.cpp:157] Top shape: 125 16 32 32 (2048000)
I0817 16:27:03.466845 17345 net.cpp:165] Memory required for data: 140801500
I0817 16:27:03.466850 17345 layer_factory.hpp:77] Creating layer L1_b2_cbr1_conv
I0817 16:27:03.466861 17345 net.cpp:100] Creating Layer L1_b2_cbr1_conv
I0817 16:27:03.466866 17345 net.cpp:434] L1_b2_cbr1_conv <- L1_b1_sum_eltwise_top_L1_b1_relu_0_split_0
I0817 16:27:03.466878 17345 net.cpp:408] L1_b2_cbr1_conv -> L1_b2_cbr1_conv_top
I0817 16:27:03.467182 17345 net.cpp:150] Setting up L1_b2_cbr1_conv
I0817 16:27:03.467196 17345 net.cpp:157] Top shape: 125 16 32 32 (2048000)
I0817 16:27:03.467201 17345 net.cpp:165] Memory required for data: 148993500
I0817 16:27:03.467211 17345 layer_factory.hpp:77] Creating layer L1_b2_cbr1_bn
I0817 16:27:03.467221 17345 net.cpp:100] Creating Layer L1_b2_cbr1_bn
I0817 16:27:03.467226 17345 net.cpp:434] L1_b2_cbr1_bn <- L1_b2_cbr1_conv_top
I0817 16:27:03.467237 17345 net.cpp:408] L1_b2_cbr1_bn -> L1_b2_cbr1_bn_top
I0817 16:27:03.467475 17345 net.cpp:150] Setting up L1_b2_cbr1_bn
I0817 16:27:03.467494 17345 net.cpp:157] Top shape: 125 16 32 32 (2048000)
I0817 16:27:03.467500 17345 net.cpp:165] Memory required for data: 157185500
I0817 16:27:03.467510 17345 layer_factory.hpp:77] Creating layer L1_b2_cbr1_scale
I0817 16:27:03.467522 17345 net.cpp:100] Creating Layer L1_b2_cbr1_scale
I0817 16:27:03.467528 17345 net.cpp:434] L1_b2_cbr1_scale <- L1_b2_cbr1_bn_top
I0817 16:27:03.467536 17345 net.cpp:395] L1_b2_cbr1_scale -> L1_b2_cbr1_bn_top (in-place)
I0817 16:27:03.467587 17345 layer_factory.hpp:77] Creating layer L1_b2_cbr1_scale
I0817 16:27:03.467722 17345 net.cpp:150] Setting up L1_b2_cbr1_scale
I0817 16:27:03.467736 17345 net.cpp:157] Top shape: 125 16 32 32 (2048000)
I0817 16:27:03.467741 17345 net.cpp:165] Memory required for data: 165377500
I0817 16:27:03.467756 17345 layer_factory.hpp:77] Creating layer L1_b2_cbr1_relu
I0817 16:27:03.467767 17345 net.cpp:100] Creating Layer L1_b2_cbr1_relu
I0817 16:27:03.467773 17345 net.cpp:434] L1_b2_cbr1_relu <- L1_b2_cbr1_bn_top
I0817 16:27:03.467782 17345 net.cpp:395] L1_b2_cbr1_relu -> L1_b2_cbr1_bn_top (in-place)
I0817 16:27:03.467790 17345 net.cpp:150] Setting up L1_b2_cbr1_relu
I0817 16:27:03.467797 17345 net.cpp:157] Top shape: 125 16 32 32 (2048000)
I0817 16:27:03.467802 17345 net.cpp:165] Memory required for data: 173569500
I0817 16:27:03.467806 17345 layer_factory.hpp:77] Creating layer L1_b2_cbr2_conv
I0817 16:27:03.467819 17345 net.cpp:100] Creating Layer L1_b2_cbr2_conv
I0817 16:27:03.467825 17345 net.cpp:434] L1_b2_cbr2_conv <- L1_b2_cbr1_bn_top
I0817 16:27:03.467836 17345 net.cpp:408] L1_b2_cbr2_conv -> L1_b2_cbr2_conv_top
I0817 16:27:03.468134 17345 net.cpp:150] Setting up L1_b2_cbr2_conv
I0817 16:27:03.468148 17345 net.cpp:157] Top shape: 125 16 32 32 (2048000)
I0817 16:27:03.468153 17345 net.cpp:165] Memory required for data: 181761500
I0817 16:27:03.468163 17345 layer_factory.hpp:77] Creating layer L1_b2_cbr2_bn
I0817 16:27:03.468173 17345 net.cpp:100] Creating Layer L1_b2_cbr2_bn
I0817 16:27:03.468178 17345 net.cpp:434] L1_b2_cbr2_bn <- L1_b2_cbr2_conv_top
I0817 16:27:03.468186 17345 net.cpp:408] L1_b2_cbr2_bn -> L1_b2_cbr2_bn_top
I0817 16:27:03.468423 17345 net.cpp:150] Setting up L1_b2_cbr2_bn
I0817 16:27:03.468436 17345 net.cpp:157] Top shape: 125 16 32 32 (2048000)
I0817 16:27:03.468441 17345 net.cpp:165] Memory required for data: 189953500
I0817 16:27:03.468461 17345 layer_factory.hpp:77] Creating layer L1_b2_cbr2_scale
I0817 16:27:03.468472 17345 net.cpp:100] Creating Layer L1_b2_cbr2_scale
I0817 16:27:03.468483 17345 net.cpp:434] L1_b2_cbr2_scale <- L1_b2_cbr2_bn_top
I0817 16:27:03.468492 17345 net.cpp:395] L1_b2_cbr2_scale -> L1_b2_cbr2_bn_top (in-place)
I0817 16:27:03.468547 17345 layer_factory.hpp:77] Creating layer L1_b2_cbr2_scale
I0817 16:27:03.468684 17345 net.cpp:150] Setting up L1_b2_cbr2_scale
I0817 16:27:03.468698 17345 net.cpp:157] Top shape: 125 16 32 32 (2048000)
I0817 16:27:03.468703 17345 net.cpp:165] Memory required for data: 198145500
I0817 16:27:03.468713 17345 layer_factory.hpp:77] Creating layer L1_b2_sum_eltwise
I0817 16:27:03.468721 17345 net.cpp:100] Creating Layer L1_b2_sum_eltwise
I0817 16:27:03.468727 17345 net.cpp:434] L1_b2_sum_eltwise <- L1_b2_cbr2_bn_top
I0817 16:27:03.468734 17345 net.cpp:434] L1_b2_sum_eltwise <- L1_b1_sum_eltwise_top_L1_b1_relu_0_split_1
I0817 16:27:03.468744 17345 net.cpp:408] L1_b2_sum_eltwise -> L1_b2_sum_eltwise_top
I0817 16:27:03.468773 17345 net.cpp:150] Setting up L1_b2_sum_eltwise
I0817 16:27:03.468782 17345 net.cpp:157] Top shape: 125 16 32 32 (2048000)
I0817 16:27:03.468787 17345 net.cpp:165] Memory required for data: 206337500
I0817 16:27:03.468792 17345 layer_factory.hpp:77] Creating layer L1_b2_relu
I0817 16:27:03.468802 17345 net.cpp:100] Creating Layer L1_b2_relu
I0817 16:27:03.468807 17345 net.cpp:434] L1_b2_relu <- L1_b2_sum_eltwise_top
I0817 16:27:03.468816 17345 net.cpp:395] L1_b2_relu -> L1_b2_sum_eltwise_top (in-place)
I0817 16:27:03.468823 17345 net.cpp:150] Setting up L1_b2_relu
I0817 16:27:03.468830 17345 net.cpp:157] Top shape: 125 16 32 32 (2048000)
I0817 16:27:03.468834 17345 net.cpp:165] Memory required for data: 214529500
I0817 16:27:03.468839 17345 layer_factory.hpp:77] Creating layer L1_b2_sum_eltwise_top_L1_b2_relu_0_split
I0817 16:27:03.468847 17345 net.cpp:100] Creating Layer L1_b2_sum_eltwise_top_L1_b2_relu_0_split
I0817 16:27:03.468852 17345 net.cpp:434] L1_b2_sum_eltwise_top_L1_b2_relu_0_split <- L1_b2_sum_eltwise_top
I0817 16:27:03.468858 17345 net.cpp:408] L1_b2_sum_eltwise_top_L1_b2_relu_0_split -> L1_b2_sum_eltwise_top_L1_b2_relu_0_split_0
I0817 16:27:03.468868 17345 net.cpp:408] L1_b2_sum_eltwise_top_L1_b2_relu_0_split -> L1_b2_sum_eltwise_top_L1_b2_relu_0_split_1
I0817 16:27:03.468909 17345 net.cpp:150] Setting up L1_b2_sum_eltwise_top_L1_b2_relu_0_split
I0817 16:27:03.468921 17345 net.cpp:157] Top shape: 125 16 32 32 (2048000)
I0817 16:27:03.468935 17345 net.cpp:157] Top shape: 125 16 32 32 (2048000)
I0817 16:27:03.468940 17345 net.cpp:165] Memory required for data: 230913500
I0817 16:27:03.468945 17345 layer_factory.hpp:77] Creating layer L1_b3_cbr1_conv
I0817 16:27:03.468958 17345 net.cpp:100] Creating Layer L1_b3_cbr1_conv
I0817 16:27:03.468964 17345 net.cpp:434] L1_b3_cbr1_conv <- L1_b2_sum_eltwise_top_L1_b2_relu_0_split_0
I0817 16:27:03.468973 17345 net.cpp:408] L1_b3_cbr1_conv -> L1_b3_cbr1_conv_top
I0817 16:27:03.469274 17345 net.cpp:150] Setting up L1_b3_cbr1_conv
I0817 16:27:03.469287 17345 net.cpp:157] Top shape: 125 16 32 32 (2048000)
I0817 16:27:03.469293 17345 net.cpp:165] Memory required for data: 239105500
I0817 16:27:03.469301 17345 layer_factory.hpp:77] Creating layer L1_b3_cbr1_bn
I0817 16:27:03.469313 17345 net.cpp:100] Creating Layer L1_b3_cbr1_bn
I0817 16:27:03.469319 17345 net.cpp:434] L1_b3_cbr1_bn <- L1_b3_cbr1_conv_top
I0817 16:27:03.469329 17345 net.cpp:408] L1_b3_cbr1_bn -> L1_b3_cbr1_bn_top
I0817 16:27:03.469568 17345 net.cpp:150] Setting up L1_b3_cbr1_bn
I0817 16:27:03.469581 17345 net.cpp:157] Top shape: 125 16 32 32 (2048000)
I0817 16:27:03.469586 17345 net.cpp:165] Memory required for data: 247297500
I0817 16:27:03.469596 17345 layer_factory.hpp:77] Creating layer L1_b3_cbr1_scale
I0817 16:27:03.469605 17345 net.cpp:100] Creating Layer L1_b3_cbr1_scale
I0817 16:27:03.469611 17345 net.cpp:434] L1_b3_cbr1_scale <- L1_b3_cbr1_bn_top
I0817 16:27:03.469619 17345 net.cpp:395] L1_b3_cbr1_scale -> L1_b3_cbr1_bn_top (in-place)
I0817 16:27:03.469676 17345 layer_factory.hpp:77] Creating layer L1_b3_cbr1_scale
I0817 16:27:03.469812 17345 net.cpp:150] Setting up L1_b3_cbr1_scale
I0817 16:27:03.469825 17345 net.cpp:157] Top shape: 125 16 32 32 (2048000)
I0817 16:27:03.469830 17345 net.cpp:165] Memory required for data: 255489500
I0817 16:27:03.469840 17345 layer_factory.hpp:77] Creating layer L1_b3_cbr1_relu
I0817 16:27:03.469847 17345 net.cpp:100] Creating Layer L1_b3_cbr1_relu
I0817 16:27:03.469852 17345 net.cpp:434] L1_b3_cbr1_relu <- L1_b3_cbr1_bn_top
I0817 16:27:03.469863 17345 net.cpp:395] L1_b3_cbr1_relu -> L1_b3_cbr1_bn_top (in-place)
I0817 16:27:03.469872 17345 net.cpp:150] Setting up L1_b3_cbr1_relu
I0817 16:27:03.469879 17345 net.cpp:157] Top shape: 125 16 32 32 (2048000)
I0817 16:27:03.469884 17345 net.cpp:165] Memory required for data: 263681500
I0817 16:27:03.469888 17345 layer_factory.hpp:77] Creating layer L1_b3_cbr2_conv
I0817 16:27:03.469902 17345 net.cpp:100] Creating Layer L1_b3_cbr2_conv
I0817 16:27:03.469908 17345 net.cpp:434] L1_b3_cbr2_conv <- L1_b3_cbr1_bn_top
I0817 16:27:03.469919 17345 net.cpp:408] L1_b3_cbr2_conv -> L1_b3_cbr2_conv_top
I0817 16:27:03.470222 17345 net.cpp:150] Setting up L1_b3_cbr2_conv
I0817 16:27:03.470237 17345 net.cpp:157] Top shape: 125 16 32 32 (2048000)
I0817 16:27:03.470242 17345 net.cpp:165] Memory required for data: 271873500
I0817 16:27:03.470250 17345 layer_factory.hpp:77] Creating layer L1_b3_cbr2_bn
I0817 16:27:03.470264 17345 net.cpp:100] Creating Layer L1_b3_cbr2_bn
I0817 16:27:03.470270 17345 net.cpp:434] L1_b3_cbr2_bn <- L1_b3_cbr2_conv_top
I0817 16:27:03.470281 17345 net.cpp:408] L1_b3_cbr2_bn -> L1_b3_cbr2_bn_top
I0817 16:27:03.470516 17345 net.cpp:150] Setting up L1_b3_cbr2_bn
I0817 16:27:03.470530 17345 net.cpp:157] Top shape: 125 16 32 32 (2048000)
I0817 16:27:03.470535 17345 net.cpp:165] Memory required for data: 280065500
I0817 16:27:03.470546 17345 layer_factory.hpp:77] Creating layer L1_b3_cbr2_scale
I0817 16:27:03.470554 17345 net.cpp:100] Creating Layer L1_b3_cbr2_scale
I0817 16:27:03.470561 17345 net.cpp:434] L1_b3_cbr2_scale <- L1_b3_cbr2_bn_top
I0817 16:27:03.470567 17345 net.cpp:395] L1_b3_cbr2_scale -> L1_b3_cbr2_bn_top (in-place)
I0817 16:27:03.470621 17345 layer_factory.hpp:77] Creating layer L1_b3_cbr2_scale
I0817 16:27:03.470754 17345 net.cpp:150] Setting up L1_b3_cbr2_scale
I0817 16:27:03.470767 17345 net.cpp:157] Top shape: 125 16 32 32 (2048000)
I0817 16:27:03.470772 17345 net.cpp:165] Memory required for data: 288257500
I0817 16:27:03.470788 17345 layer_factory.hpp:77] Creating layer L1_b3_sum_eltwise
I0817 16:27:03.470800 17345 net.cpp:100] Creating Layer L1_b3_sum_eltwise
I0817 16:27:03.470806 17345 net.cpp:434] L1_b3_sum_eltwise <- L1_b3_cbr2_bn_top
I0817 16:27:03.470813 17345 net.cpp:434] L1_b3_sum_eltwise <- L1_b2_sum_eltwise_top_L1_b2_relu_0_split_1
I0817 16:27:03.470820 17345 net.cpp:408] L1_b3_sum_eltwise -> L1_b3_sum_eltwise_top
I0817 16:27:03.470852 17345 net.cpp:150] Setting up L1_b3_sum_eltwise
I0817 16:27:03.470865 17345 net.cpp:157] Top shape: 125 16 32 32 (2048000)
I0817 16:27:03.470870 17345 net.cpp:165] Memory required for data: 296449500
I0817 16:27:03.470875 17345 layer_factory.hpp:77] Creating layer L1_b3_relu
I0817 16:27:03.470882 17345 net.cpp:100] Creating Layer L1_b3_relu
I0817 16:27:03.470887 17345 net.cpp:434] L1_b3_relu <- L1_b3_sum_eltwise_top
I0817 16:27:03.470897 17345 net.cpp:395] L1_b3_relu -> L1_b3_sum_eltwise_top (in-place)
I0817 16:27:03.470906 17345 net.cpp:150] Setting up L1_b3_relu
I0817 16:27:03.470913 17345 net.cpp:157] Top shape: 125 16 32 32 (2048000)
I0817 16:27:03.470918 17345 net.cpp:165] Memory required for data: 304641500
I0817 16:27:03.470922 17345 layer_factory.hpp:77] Creating layer L1_b3_sum_eltwise_top_L1_b3_relu_0_split
I0817 16:27:03.470929 17345 net.cpp:100] Creating Layer L1_b3_sum_eltwise_top_L1_b3_relu_0_split
I0817 16:27:03.470934 17345 net.cpp:434] L1_b3_sum_eltwise_top_L1_b3_relu_0_split <- L1_b3_sum_eltwise_top
I0817 16:27:03.470947 17345 net.cpp:408] L1_b3_sum_eltwise_top_L1_b3_relu_0_split -> L1_b3_sum_eltwise_top_L1_b3_relu_0_split_0
I0817 16:27:03.470957 17345 net.cpp:408] L1_b3_sum_eltwise_top_L1_b3_relu_0_split -> L1_b3_sum_eltwise_top_L1_b3_relu_0_split_1
I0817 16:27:03.470998 17345 net.cpp:150] Setting up L1_b3_sum_eltwise_top_L1_b3_relu_0_split
I0817 16:27:03.471009 17345 net.cpp:157] Top shape: 125 16 32 32 (2048000)
I0817 16:27:03.471015 17345 net.cpp:157] Top shape: 125 16 32 32 (2048000)
I0817 16:27:03.471020 17345 net.cpp:165] Memory required for data: 321025500
I0817 16:27:03.471025 17345 layer_factory.hpp:77] Creating layer L2_b1_cbr1_conv
I0817 16:27:03.471040 17345 net.cpp:100] Creating Layer L2_b1_cbr1_conv
I0817 16:27:03.471046 17345 net.cpp:434] L2_b1_cbr1_conv <- L1_b3_sum_eltwise_top_L1_b3_relu_0_split_0
I0817 16:27:03.471055 17345 net.cpp:408] L2_b1_cbr1_conv -> L2_b1_cbr1_conv_top
I0817 16:27:03.471362 17345 net.cpp:150] Setting up L2_b1_cbr1_conv
I0817 16:27:03.471376 17345 net.cpp:157] Top shape: 125 16 16 16 (512000)
I0817 16:27:03.471381 17345 net.cpp:165] Memory required for data: 323073500
I0817 16:27:03.471390 17345 layer_factory.hpp:77] Creating layer L2_b1_cbr1_bn
I0817 16:27:03.471402 17345 net.cpp:100] Creating Layer L2_b1_cbr1_bn
I0817 16:27:03.471408 17345 net.cpp:434] L2_b1_cbr1_bn <- L2_b1_cbr1_conv_top
I0817 16:27:03.471416 17345 net.cpp:408] L2_b1_cbr1_bn -> L2_b1_cbr1_bn_top
I0817 16:27:03.471652 17345 net.cpp:150] Setting up L2_b1_cbr1_bn
I0817 16:27:03.471668 17345 net.cpp:157] Top shape: 125 16 16 16 (512000)
I0817 16:27:03.471673 17345 net.cpp:165] Memory required for data: 325121500
I0817 16:27:03.471683 17345 layer_factory.hpp:77] Creating layer L2_b1_cbr1_scale
I0817 16:27:03.471691 17345 net.cpp:100] Creating Layer L2_b1_cbr1_scale
I0817 16:27:03.471698 17345 net.cpp:434] L2_b1_cbr1_scale <- L2_b1_cbr1_bn_top
I0817 16:27:03.471704 17345 net.cpp:395] L2_b1_cbr1_scale -> L2_b1_cbr1_bn_top (in-place)
I0817 16:27:03.471760 17345 layer_factory.hpp:77] Creating layer L2_b1_cbr1_scale
I0817 16:27:03.471900 17345 net.cpp:150] Setting up L2_b1_cbr1_scale
I0817 16:27:03.471916 17345 net.cpp:157] Top shape: 125 16 16 16 (512000)
I0817 16:27:03.471921 17345 net.cpp:165] Memory required for data: 327169500
I0817 16:27:03.471930 17345 layer_factory.hpp:77] Creating layer L2_b1_cbr1_relu
I0817 16:27:03.471938 17345 net.cpp:100] Creating Layer L2_b1_cbr1_relu
I0817 16:27:03.471943 17345 net.cpp:434] L2_b1_cbr1_relu <- L2_b1_cbr1_bn_top
I0817 16:27:03.471951 17345 net.cpp:395] L2_b1_cbr1_relu -> L2_b1_cbr1_bn_top (in-place)
I0817 16:27:03.471959 17345 net.cpp:150] Setting up L2_b1_cbr1_relu
I0817 16:27:03.471973 17345 net.cpp:157] Top shape: 125 16 16 16 (512000)
I0817 16:27:03.471978 17345 net.cpp:165] Memory required for data: 329217500
I0817 16:27:03.471983 17345 layer_factory.hpp:77] Creating layer L2_b1_cbr2_conv
I0817 16:27:03.471997 17345 net.cpp:100] Creating Layer L2_b1_cbr2_conv
I0817 16:27:03.472002 17345 net.cpp:434] L2_b1_cbr2_conv <- L2_b1_cbr1_bn_top
I0817 16:27:03.472013 17345 net.cpp:408] L2_b1_cbr2_conv -> L2_b1_cbr2_conv_top
I0817 16:27:03.472321 17345 net.cpp:150] Setting up L2_b1_cbr2_conv
I0817 16:27:03.472335 17345 net.cpp:157] Top shape: 125 16 16 16 (512000)
I0817 16:27:03.472340 17345 net.cpp:165] Memory required for data: 331265500
I0817 16:27:03.472348 17345 layer_factory.hpp:77] Creating layer L2_b1_cbr2_bn
I0817 16:27:03.472360 17345 net.cpp:100] Creating Layer L2_b1_cbr2_bn
I0817 16:27:03.472367 17345 net.cpp:434] L2_b1_cbr2_bn <- L2_b1_cbr2_conv_top
I0817 16:27:03.472376 17345 net.cpp:408] L2_b1_cbr2_bn -> L2_b1_cbr2_bn_top
I0817 16:27:03.472622 17345 net.cpp:150] Setting up L2_b1_cbr2_bn
I0817 16:27:03.472637 17345 net.cpp:157] Top shape: 125 16 16 16 (512000)
I0817 16:27:03.472642 17345 net.cpp:165] Memory required for data: 333313500
I0817 16:27:03.472653 17345 layer_factory.hpp:77] Creating layer L2_b1_cbr2_scale
I0817 16:27:03.472661 17345 net.cpp:100] Creating Layer L2_b1_cbr2_scale
I0817 16:27:03.472667 17345 net.cpp:434] L2_b1_cbr2_scale <- L2_b1_cbr2_bn_top
I0817 16:27:03.472677 17345 net.cpp:395] L2_b1_cbr2_scale -> L2_b1_cbr2_bn_top (in-place)
I0817 16:27:03.472731 17345 layer_factory.hpp:77] Creating layer L2_b1_cbr2_scale
I0817 16:27:03.472893 17345 net.cpp:150] Setting up L2_b1_cbr2_scale
I0817 16:27:03.472908 17345 net.cpp:157] Top shape: 125 16 16 16 (512000)
I0817 16:27:03.472913 17345 net.cpp:165] Memory required for data: 335361500
I0817 16:27:03.472921 17345 layer_factory.hpp:77] Creating layer L2_b1_pool
I0817 16:27:03.472931 17345 net.cpp:100] Creating Layer L2_b1_pool
I0817 16:27:03.472937 17345 net.cpp:434] L2_b1_pool <- L1_b3_sum_eltwise_top_L1_b3_relu_0_split_1
I0817 16:27:03.472949 17345 net.cpp:408] L2_b1_pool -> L2_b1_pool
I0817 16:27:03.473031 17345 net.cpp:150] Setting up L2_b1_pool
I0817 16:27:03.473047 17345 net.cpp:157] Top shape: 125 16 16 16 (512000)
I0817 16:27:03.473052 17345 net.cpp:165] Memory required for data: 337409500
I0817 16:27:03.473057 17345 layer_factory.hpp:77] Creating layer L2_b1_sum_eltwise
I0817 16:27:03.473073 17345 net.cpp:100] Creating Layer L2_b1_sum_eltwise
I0817 16:27:03.473078 17345 net.cpp:434] L2_b1_sum_eltwise <- L2_b1_cbr2_bn_top
I0817 16:27:03.473085 17345 net.cpp:434] L2_b1_sum_eltwise <- L2_b1_pool
I0817 16:27:03.473093 17345 net.cpp:408] L2_b1_sum_eltwise -> L2_b1_sum_eltwise_top
I0817 16:27:03.473129 17345 net.cpp:150] Setting up L2_b1_sum_eltwise
I0817 16:27:03.473139 17345 net.cpp:157] Top shape: 125 16 16 16 (512000)
I0817 16:27:03.473142 17345 net.cpp:165] Memory required for data: 339457500
I0817 16:27:03.473147 17345 layer_factory.hpp:77] Creating layer L2_b1_relu
I0817 16:27:03.473155 17345 net.cpp:100] Creating Layer L2_b1_relu
I0817 16:27:03.473160 17345 net.cpp:434] L2_b1_relu <- L2_b1_sum_eltwise_top
I0817 16:27:03.473167 17345 net.cpp:395] L2_b1_relu -> L2_b1_sum_eltwise_top (in-place)
I0817 16:27:03.473176 17345 net.cpp:150] Setting up L2_b1_relu
I0817 16:27:03.473183 17345 net.cpp:157] Top shape: 125 16 16 16 (512000)
I0817 16:27:03.473187 17345 net.cpp:165] Memory required for data: 341505500
I0817 16:27:03.473192 17345 layer_factory.hpp:77] Creating layer L2_b1_zeros
I0817 16:27:03.473237 17345 net.cpp:100] Creating Layer L2_b1_zeros
I0817 16:27:03.473253 17345 net.cpp:408] L2_b1_zeros -> L2_b1_zeros
I0817 16:27:03.475541 17345 net.cpp:150] Setting up L2_b1_zeros
I0817 16:27:03.475560 17345 net.cpp:157] Top shape: 125 16 16 16 (512000)
I0817 16:27:03.475566 17345 net.cpp:165] Memory required for data: 343553500
I0817 16:27:03.475571 17345 layer_factory.hpp:77] Creating layer L2_b1_concat0
I0817 16:27:03.475585 17345 net.cpp:100] Creating Layer L2_b1_concat0
I0817 16:27:03.475600 17345 net.cpp:434] L2_b1_concat0 <- L2_b1_sum_eltwise_top
I0817 16:27:03.475607 17345 net.cpp:434] L2_b1_concat0 <- L2_b1_zeros
I0817 16:27:03.475615 17345 net.cpp:408] L2_b1_concat0 -> L2_b1_concat0
I0817 16:27:03.475693 17345 net.cpp:150] Setting up L2_b1_concat0
I0817 16:27:03.475708 17345 net.cpp:157] Top shape: 125 32 16 16 (1024000)
I0817 16:27:03.475714 17345 net.cpp:165] Memory required for data: 347649500
I0817 16:27:03.475719 17345 layer_factory.hpp:77] Creating layer L2_b1_concat0_L2_b1_concat0_0_split
I0817 16:27:03.475728 17345 net.cpp:100] Creating Layer L2_b1_concat0_L2_b1_concat0_0_split
I0817 16:27:03.475733 17345 net.cpp:434] L2_b1_concat0_L2_b1_concat0_0_split <- L2_b1_concat0
I0817 16:27:03.475744 17345 net.cpp:408] L2_b1_concat0_L2_b1_concat0_0_split -> L2_b1_concat0_L2_b1_concat0_0_split_0
I0817 16:27:03.475755 17345 net.cpp:408] L2_b1_concat0_L2_b1_concat0_0_split -> L2_b1_concat0_L2_b1_concat0_0_split_1
I0817 16:27:03.475800 17345 net.cpp:150] Setting up L2_b1_concat0_L2_b1_concat0_0_split
I0817 16:27:03.475814 17345 net.cpp:157] Top shape: 125 32 16 16 (1024000)
I0817 16:27:03.475821 17345 net.cpp:157] Top shape: 125 32 16 16 (1024000)
I0817 16:27:03.475826 17345 net.cpp:165] Memory required for data: 355841500
I0817 16:27:03.475831 17345 layer_factory.hpp:77] Creating layer L2_b2_cbr1_conv
I0817 16:27:03.475845 17345 net.cpp:100] Creating Layer L2_b2_cbr1_conv
I0817 16:27:03.475852 17345 net.cpp:434] L2_b2_cbr1_conv <- L2_b1_concat0_L2_b1_concat0_0_split_0
I0817 16:27:03.475860 17345 net.cpp:408] L2_b2_cbr1_conv -> L2_b2_cbr1_conv_top
I0817 16:27:03.477290 17345 net.cpp:150] Setting up L2_b2_cbr1_conv
I0817 16:27:03.477310 17345 net.cpp:157] Top shape: 125 32 16 16 (1024000)
I0817 16:27:03.477315 17345 net.cpp:165] Memory required for data: 359937500
I0817 16:27:03.477339 17345 layer_factory.hpp:77] Creating layer L2_b2_cbr1_bn
I0817 16:27:03.477349 17345 net.cpp:100] Creating Layer L2_b2_cbr1_bn
I0817 16:27:03.477355 17345 net.cpp:434] L2_b2_cbr1_bn <- L2_b2_cbr1_conv_top
I0817 16:27:03.477367 17345 net.cpp:408] L2_b2_cbr1_bn -> L2_b2_cbr1_bn_top
I0817 16:27:03.477608 17345 net.cpp:150] Setting up L2_b2_cbr1_bn
I0817 16:27:03.477622 17345 net.cpp:157] Top shape: 125 32 16 16 (1024000)
I0817 16:27:03.477627 17345 net.cpp:165] Memory required for data: 364033500
I0817 16:27:03.477638 17345 layer_factory.hpp:77] Creating layer L2_b2_cbr1_scale
I0817 16:27:03.477648 17345 net.cpp:100] Creating Layer L2_b2_cbr1_scale
I0817 16:27:03.477653 17345 net.cpp:434] L2_b2_cbr1_scale <- L2_b2_cbr1_bn_top
I0817 16:27:03.477664 17345 net.cpp:395] L2_b2_cbr1_scale -> L2_b2_cbr1_bn_top (in-place)
I0817 16:27:03.477715 17345 layer_factory.hpp:77] Creating layer L2_b2_cbr1_scale
I0817 16:27:03.477855 17345 net.cpp:150] Setting up L2_b2_cbr1_scale
I0817 16:27:03.477869 17345 net.cpp:157] Top shape: 125 32 16 16 (1024000)
I0817 16:27:03.477874 17345 net.cpp:165] Memory required for data: 368129500
I0817 16:27:03.477882 17345 layer_factory.hpp:77] Creating layer L2_b2_cbr1_relu
I0817 16:27:03.477890 17345 net.cpp:100] Creating Layer L2_b2_cbr1_relu
I0817 16:27:03.477896 17345 net.cpp:434] L2_b2_cbr1_relu <- L2_b2_cbr1_bn_top
I0817 16:27:03.477906 17345 net.cpp:395] L2_b2_cbr1_relu -> L2_b2_cbr1_bn_top (in-place)
I0817 16:27:03.477916 17345 net.cpp:150] Setting up L2_b2_cbr1_relu
I0817 16:27:03.477923 17345 net.cpp:157] Top shape: 125 32 16 16 (1024000)
I0817 16:27:03.477927 17345 net.cpp:165] Memory required for data: 372225500
I0817 16:27:03.477932 17345 layer_factory.hpp:77] Creating layer L2_b2_cbr2_conv
I0817 16:27:03.477946 17345 net.cpp:100] Creating Layer L2_b2_cbr2_conv
I0817 16:27:03.477953 17345 net.cpp:434] L2_b2_cbr2_conv <- L2_b2_cbr1_bn_top
I0817 16:27:03.477962 17345 net.cpp:408] L2_b2_cbr2_conv -> L2_b2_cbr2_conv_top
I0817 16:27:03.478406 17345 net.cpp:150] Setting up L2_b2_cbr2_conv
I0817 16:27:03.478420 17345 net.cpp:157] Top shape: 125 32 16 16 (1024000)
I0817 16:27:03.478425 17345 net.cpp:165] Memory required for data: 376321500
I0817 16:27:03.478435 17345 layer_factory.hpp:77] Creating layer L2_b2_cbr2_bn
I0817 16:27:03.478454 17345 net.cpp:100] Creating Layer L2_b2_cbr2_bn
I0817 16:27:03.478461 17345 net.cpp:434] L2_b2_cbr2_bn <- L2_b2_cbr2_conv_top
I0817 16:27:03.478469 17345 net.cpp:408] L2_b2_cbr2_bn -> L2_b2_cbr2_bn_top
I0817 16:27:03.478709 17345 net.cpp:150] Setting up L2_b2_cbr2_bn
I0817 16:27:03.478724 17345 net.cpp:157] Top shape: 125 32 16 16 (1024000)
I0817 16:27:03.478729 17345 net.cpp:165] Memory required for data: 380417500
I0817 16:27:03.478739 17345 layer_factory.hpp:77] Creating layer L2_b2_cbr2_scale
I0817 16:27:03.478747 17345 net.cpp:100] Creating Layer L2_b2_cbr2_scale
I0817 16:27:03.478754 17345 net.cpp:434] L2_b2_cbr2_scale <- L2_b2_cbr2_bn_top
I0817 16:27:03.478765 17345 net.cpp:395] L2_b2_cbr2_scale -> L2_b2_cbr2_bn_top (in-place)
I0817 16:27:03.478816 17345 layer_factory.hpp:77] Creating layer L2_b2_cbr2_scale
I0817 16:27:03.478957 17345 net.cpp:150] Setting up L2_b2_cbr2_scale
I0817 16:27:03.478971 17345 net.cpp:157] Top shape: 125 32 16 16 (1024000)
I0817 16:27:03.478976 17345 net.cpp:165] Memory required for data: 384513500
I0817 16:27:03.478984 17345 layer_factory.hpp:77] Creating layer L2_b2_sum_eltwise
I0817 16:27:03.478993 17345 net.cpp:100] Creating Layer L2_b2_sum_eltwise
I0817 16:27:03.478998 17345 net.cpp:434] L2_b2_sum_eltwise <- L2_b2_cbr2_bn_top
I0817 16:27:03.479007 17345 net.cpp:434] L2_b2_sum_eltwise <- L2_b1_concat0_L2_b1_concat0_0_split_1
I0817 16:27:03.479017 17345 net.cpp:408] L2_b2_sum_eltwise -> L2_b2_sum_eltwise_top
I0817 16:27:03.479043 17345 net.cpp:150] Setting up L2_b2_sum_eltwise
I0817 16:27:03.479051 17345 net.cpp:157] Top shape: 125 32 16 16 (1024000)
I0817 16:27:03.479056 17345 net.cpp:165] Memory required for data: 388609500
I0817 16:27:03.479061 17345 layer_factory.hpp:77] Creating layer L2_b2_relu
I0817 16:27:03.479068 17345 net.cpp:100] Creating Layer L2_b2_relu
I0817 16:27:03.479077 17345 net.cpp:434] L2_b2_relu <- L2_b2_sum_eltwise_top
I0817 16:27:03.479084 17345 net.cpp:395] L2_b2_relu -> L2_b2_sum_eltwise_top (in-place)
I0817 16:27:03.479094 17345 net.cpp:150] Setting up L2_b2_relu
I0817 16:27:03.479100 17345 net.cpp:157] Top shape: 125 32 16 16 (1024000)
I0817 16:27:03.479105 17345 net.cpp:165] Memory required for data: 392705500
I0817 16:27:03.479110 17345 layer_factory.hpp:77] Creating layer L2_b2_sum_eltwise_top_L2_b2_relu_0_split
I0817 16:27:03.479116 17345 net.cpp:100] Creating Layer L2_b2_sum_eltwise_top_L2_b2_relu_0_split
I0817 16:27:03.479121 17345 net.cpp:434] L2_b2_sum_eltwise_top_L2_b2_relu_0_split <- L2_b2_sum_eltwise_top
I0817 16:27:03.479131 17345 net.cpp:408] L2_b2_sum_eltwise_top_L2_b2_relu_0_split -> L2_b2_sum_eltwise_top_L2_b2_relu_0_split_0
I0817 16:27:03.479142 17345 net.cpp:408] L2_b2_sum_eltwise_top_L2_b2_relu_0_split -> L2_b2_sum_eltwise_top_L2_b2_relu_0_split_1
I0817 16:27:03.479182 17345 net.cpp:150] Setting up L2_b2_sum_eltwise_top_L2_b2_relu_0_split
I0817 16:27:03.479194 17345 net.cpp:157] Top shape: 125 32 16 16 (1024000)
I0817 16:27:03.479202 17345 net.cpp:157] Top shape: 125 32 16 16 (1024000)
I0817 16:27:03.479205 17345 net.cpp:165] Memory required for data: 400897500
I0817 16:27:03.479212 17345 layer_factory.hpp:77] Creating layer L2_b3_cbr1_conv
I0817 16:27:03.479226 17345 net.cpp:100] Creating Layer L2_b3_cbr1_conv
I0817 16:27:03.479233 17345 net.cpp:434] L2_b3_cbr1_conv <- L2_b2_sum_eltwise_top_L2_b2_relu_0_split_0
I0817 16:27:03.479241 17345 net.cpp:408] L2_b3_cbr1_conv -> L2_b3_cbr1_conv_top
I0817 16:27:03.479701 17345 net.cpp:150] Setting up L2_b3_cbr1_conv
I0817 16:27:03.479715 17345 net.cpp:157] Top shape: 125 32 16 16 (1024000)
I0817 16:27:03.479720 17345 net.cpp:165] Memory required for data: 404993500
I0817 16:27:03.479729 17345 layer_factory.hpp:77] Creating layer L2_b3_cbr1_bn
I0817 16:27:03.479742 17345 net.cpp:100] Creating Layer L2_b3_cbr1_bn
I0817 16:27:03.479748 17345 net.cpp:434] L2_b3_cbr1_bn <- L2_b3_cbr1_conv_top
I0817 16:27:03.479755 17345 net.cpp:408] L2_b3_cbr1_bn -> L2_b3_cbr1_bn_top
I0817 16:27:03.479988 17345 net.cpp:150] Setting up L2_b3_cbr1_bn
I0817 16:27:03.480008 17345 net.cpp:157] Top shape: 125 32 16 16 (1024000)
I0817 16:27:03.480015 17345 net.cpp:165] Memory required for data: 409089500
I0817 16:27:03.480024 17345 layer_factory.hpp:77] Creating layer L2_b3_cbr1_scale
I0817 16:27:03.480033 17345 net.cpp:100] Creating Layer L2_b3_cbr1_scale
I0817 16:27:03.480039 17345 net.cpp:434] L2_b3_cbr1_scale <- L2_b3_cbr1_bn_top
I0817 16:27:03.480049 17345 net.cpp:395] L2_b3_cbr1_scale -> L2_b3_cbr1_bn_top (in-place)
I0817 16:27:03.480108 17345 layer_factory.hpp:77] Creating layer L2_b3_cbr1_scale
I0817 16:27:03.480250 17345 net.cpp:150] Setting up L2_b3_cbr1_scale
I0817 16:27:03.480263 17345 net.cpp:157] Top shape: 125 32 16 16 (1024000)
I0817 16:27:03.480268 17345 net.cpp:165] Memory required for data: 413185500
I0817 16:27:03.480278 17345 layer_factory.hpp:77] Creating layer L2_b3_cbr1_relu
I0817 16:27:03.480285 17345 net.cpp:100] Creating Layer L2_b3_cbr1_relu
I0817 16:27:03.480290 17345 net.cpp:434] L2_b3_cbr1_relu <- L2_b3_cbr1_bn_top
I0817 16:27:03.480301 17345 net.cpp:395] L2_b3_cbr1_relu -> L2_b3_cbr1_bn_top (in-place)
I0817 16:27:03.480310 17345 net.cpp:150] Setting up L2_b3_cbr1_relu
I0817 16:27:03.480317 17345 net.cpp:157] Top shape: 125 32 16 16 (1024000)
I0817 16:27:03.480321 17345 net.cpp:165] Memory required for data: 417281500
I0817 16:27:03.480326 17345 layer_factory.hpp:77] Creating layer L2_b3_cbr2_conv
I0817 16:27:03.480345 17345 net.cpp:100] Creating Layer L2_b3_cbr2_conv
I0817 16:27:03.480352 17345 net.cpp:434] L2_b3_cbr2_conv <- L2_b3_cbr1_bn_top
I0817 16:27:03.480363 17345 net.cpp:408] L2_b3_cbr2_conv -> L2_b3_cbr2_conv_top
I0817 16:27:03.480821 17345 net.cpp:150] Setting up L2_b3_cbr2_conv
I0817 16:27:03.480836 17345 net.cpp:157] Top shape: 125 32 16 16 (1024000)
I0817 16:27:03.480841 17345 net.cpp:165] Memory required for data: 421377500
I0817 16:27:03.480850 17345 layer_factory.hpp:77] Creating layer L2_b3_cbr2_bn
I0817 16:27:03.480860 17345 net.cpp:100] Creating Layer L2_b3_cbr2_bn
I0817 16:27:03.480866 17345 net.cpp:434] L2_b3_cbr2_bn <- L2_b3_cbr2_conv_top
I0817 16:27:03.480880 17345 net.cpp:408] L2_b3_cbr2_bn -> L2_b3_cbr2_bn_top
I0817 16:27:03.481112 17345 net.cpp:150] Setting up L2_b3_cbr2_bn
I0817 16:27:03.481125 17345 net.cpp:157] Top shape: 125 32 16 16 (1024000)
I0817 16:27:03.481132 17345 net.cpp:165] Memory required for data: 425473500
I0817 16:27:03.481142 17345 layer_factory.hpp:77] Creating layer L2_b3_cbr2_scale
I0817 16:27:03.481153 17345 net.cpp:100] Creating Layer L2_b3_cbr2_scale
I0817 16:27:03.481159 17345 net.cpp:434] L2_b3_cbr2_scale <- L2_b3_cbr2_bn_top
I0817 16:27:03.481166 17345 net.cpp:395] L2_b3_cbr2_scale -> L2_b3_cbr2_bn_top (in-place)
I0817 16:27:03.481220 17345 layer_factory.hpp:77] Creating layer L2_b3_cbr2_scale
I0817 16:27:03.481359 17345 net.cpp:150] Setting up L2_b3_cbr2_scale
I0817 16:27:03.481371 17345 net.cpp:157] Top shape: 125 32 16 16 (1024000)
I0817 16:27:03.481376 17345 net.cpp:165] Memory required for data: 429569500
I0817 16:27:03.481385 17345 layer_factory.hpp:77] Creating layer L2_b3_sum_eltwise
I0817 16:27:03.481398 17345 net.cpp:100] Creating Layer L2_b3_sum_eltwise
I0817 16:27:03.481405 17345 net.cpp:434] L2_b3_sum_eltwise <- L2_b3_cbr2_bn_top
I0817 16:27:03.481411 17345 net.cpp:434] L2_b3_sum_eltwise <- L2_b2_sum_eltwise_top_L2_b2_relu_0_split_1
I0817 16:27:03.481420 17345 net.cpp:408] L2_b3_sum_eltwise -> L2_b3_sum_eltwise_top
I0817 16:27:03.481448 17345 net.cpp:150] Setting up L2_b3_sum_eltwise
I0817 16:27:03.481458 17345 net.cpp:157] Top shape: 125 32 16 16 (1024000)
I0817 16:27:03.481462 17345 net.cpp:165] Memory required for data: 433665500
I0817 16:27:03.481468 17345 layer_factory.hpp:77] Creating layer L2_b3_relu
I0817 16:27:03.481475 17345 net.cpp:100] Creating Layer L2_b3_relu
I0817 16:27:03.481487 17345 net.cpp:434] L2_b3_relu <- L2_b3_sum_eltwise_top
I0817 16:27:03.481498 17345 net.cpp:395] L2_b3_relu -> L2_b3_sum_eltwise_top (in-place)
I0817 16:27:03.481508 17345 net.cpp:150] Setting up L2_b3_relu
I0817 16:27:03.481515 17345 net.cpp:157] Top shape: 125 32 16 16 (1024000)
I0817 16:27:03.481528 17345 net.cpp:165] Memory required for data: 437761500
I0817 16:27:03.481534 17345 layer_factory.hpp:77] Creating layer L2_b3_sum_eltwise_top_L2_b3_relu_0_split
I0817 16:27:03.481541 17345 net.cpp:100] Creating Layer L2_b3_sum_eltwise_top_L2_b3_relu_0_split
I0817 16:27:03.481546 17345 net.cpp:434] L2_b3_sum_eltwise_top_L2_b3_relu_0_split <- L2_b3_sum_eltwise_top
I0817 16:27:03.481554 17345 net.cpp:408] L2_b3_sum_eltwise_top_L2_b3_relu_0_split -> L2_b3_sum_eltwise_top_L2_b3_relu_0_split_0
I0817 16:27:03.481564 17345 net.cpp:408] L2_b3_sum_eltwise_top_L2_b3_relu_0_split -> L2_b3_sum_eltwise_top_L2_b3_relu_0_split_1
I0817 16:27:03.481608 17345 net.cpp:150] Setting up L2_b3_sum_eltwise_top_L2_b3_relu_0_split
I0817 16:27:03.481621 17345 net.cpp:157] Top shape: 125 32 16 16 (1024000)
I0817 16:27:03.481627 17345 net.cpp:157] Top shape: 125 32 16 16 (1024000)
I0817 16:27:03.481631 17345 net.cpp:165] Memory required for data: 445953500
I0817 16:27:03.481637 17345 layer_factory.hpp:77] Creating layer L3_b1_cbr1_conv
I0817 16:27:03.481648 17345 net.cpp:100] Creating Layer L3_b1_cbr1_conv
I0817 16:27:03.481653 17345 net.cpp:434] L3_b1_cbr1_conv <- L2_b3_sum_eltwise_top_L2_b3_relu_0_split_0
I0817 16:27:03.481665 17345 net.cpp:408] L3_b1_cbr1_conv -> L3_b1_cbr1_conv_top
I0817 16:27:03.482110 17345 net.cpp:150] Setting up L3_b1_cbr1_conv
I0817 16:27:03.482125 17345 net.cpp:157] Top shape: 125 32 8 8 (256000)
I0817 16:27:03.482130 17345 net.cpp:165] Memory required for data: 446977500
I0817 16:27:03.482138 17345 layer_factory.hpp:77] Creating layer L3_b1_cbr1_bn
I0817 16:27:03.482147 17345 net.cpp:100] Creating Layer L3_b1_cbr1_bn
I0817 16:27:03.482152 17345 net.cpp:434] L3_b1_cbr1_bn <- L3_b1_cbr1_conv_top
I0817 16:27:03.482164 17345 net.cpp:408] L3_b1_cbr1_bn -> L3_b1_cbr1_bn_top
I0817 16:27:03.482404 17345 net.cpp:150] Setting up L3_b1_cbr1_bn
I0817 16:27:03.482420 17345 net.cpp:157] Top shape: 125 32 8 8 (256000)
I0817 16:27:03.482425 17345 net.cpp:165] Memory required for data: 448001500
I0817 16:27:03.482436 17345 layer_factory.hpp:77] Creating layer L3_b1_cbr1_scale
I0817 16:27:03.482445 17345 net.cpp:100] Creating Layer L3_b1_cbr1_scale
I0817 16:27:03.482450 17345 net.cpp:434] L3_b1_cbr1_scale <- L3_b1_cbr1_bn_top
I0817 16:27:03.482458 17345 net.cpp:395] L3_b1_cbr1_scale -> L3_b1_cbr1_bn_top (in-place)
I0817 16:27:03.482517 17345 layer_factory.hpp:77] Creating layer L3_b1_cbr1_scale
I0817 16:27:03.482663 17345 net.cpp:150] Setting up L3_b1_cbr1_scale
I0817 16:27:03.482677 17345 net.cpp:157] Top shape: 125 32 8 8 (256000)
I0817 16:27:03.482682 17345 net.cpp:165] Memory required for data: 449025500
I0817 16:27:03.482692 17345 layer_factory.hpp:77] Creating layer L3_b1_cbr1_relu
I0817 16:27:03.482702 17345 net.cpp:100] Creating Layer L3_b1_cbr1_relu
I0817 16:27:03.482708 17345 net.cpp:434] L3_b1_cbr1_relu <- L3_b1_cbr1_bn_top
I0817 16:27:03.482715 17345 net.cpp:395] L3_b1_cbr1_relu -> L3_b1_cbr1_bn_top (in-place)
I0817 16:27:03.482725 17345 net.cpp:150] Setting up L3_b1_cbr1_relu
I0817 16:27:03.482733 17345 net.cpp:157] Top shape: 125 32 8 8 (256000)
I0817 16:27:03.482736 17345 net.cpp:165] Memory required for data: 450049500
I0817 16:27:03.482741 17345 layer_factory.hpp:77] Creating layer L3_b1_cbr2_conv
I0817 16:27:03.482755 17345 net.cpp:100] Creating Layer L3_b1_cbr2_conv
I0817 16:27:03.482761 17345 net.cpp:434] L3_b1_cbr2_conv <- L3_b1_cbr1_bn_top
I0817 16:27:03.482770 17345 net.cpp:408] L3_b1_cbr2_conv -> L3_b1_cbr2_conv_top
I0817 16:27:03.483220 17345 net.cpp:150] Setting up L3_b1_cbr2_conv
I0817 16:27:03.483234 17345 net.cpp:157] Top shape: 125 32 8 8 (256000)
I0817 16:27:03.483239 17345 net.cpp:165] Memory required for data: 451073500
I0817 16:27:03.483247 17345 layer_factory.hpp:77] Creating layer L3_b1_cbr2_bn
I0817 16:27:03.483259 17345 net.cpp:100] Creating Layer L3_b1_cbr2_bn
I0817 16:27:03.483265 17345 net.cpp:434] L3_b1_cbr2_bn <- L3_b1_cbr2_conv_top
I0817 16:27:03.483276 17345 net.cpp:408] L3_b1_cbr2_bn -> L3_b1_cbr2_bn_top
I0817 16:27:03.483528 17345 net.cpp:150] Setting up L3_b1_cbr2_bn
I0817 16:27:03.483541 17345 net.cpp:157] Top shape: 125 32 8 8 (256000)
I0817 16:27:03.483553 17345 net.cpp:165] Memory required for data: 452097500
I0817 16:27:03.483564 17345 layer_factory.hpp:77] Creating layer L3_b1_cbr2_scale
I0817 16:27:03.483572 17345 net.cpp:100] Creating Layer L3_b1_cbr2_scale
I0817 16:27:03.483578 17345 net.cpp:434] L3_b1_cbr2_scale <- L3_b1_cbr2_bn_top
I0817 16:27:03.483589 17345 net.cpp:395] L3_b1_cbr2_scale -> L3_b1_cbr2_bn_top (in-place)
I0817 16:27:03.483642 17345 layer_factory.hpp:77] Creating layer L3_b1_cbr2_scale
I0817 16:27:03.483790 17345 net.cpp:150] Setting up L3_b1_cbr2_scale
I0817 16:27:03.483804 17345 net.cpp:157] Top shape: 125 32 8 8 (256000)
I0817 16:27:03.483809 17345 net.cpp:165] Memory required for data: 453121500
I0817 16:27:03.483819 17345 layer_factory.hpp:77] Creating layer L3_b1_pool
I0817 16:27:03.483827 17345 net.cpp:100] Creating Layer L3_b1_pool
I0817 16:27:03.483834 17345 net.cpp:434] L3_b1_pool <- L2_b3_sum_eltwise_top_L2_b3_relu_0_split_1
I0817 16:27:03.483844 17345 net.cpp:408] L3_b1_pool -> L3_b1_pool
I0817 16:27:03.483880 17345 net.cpp:150] Setting up L3_b1_pool
I0817 16:27:03.483891 17345 net.cpp:157] Top shape: 125 32 8 8 (256000)
I0817 16:27:03.483896 17345 net.cpp:165] Memory required for data: 454145500
I0817 16:27:03.483901 17345 layer_factory.hpp:77] Creating layer L3_b1_sum_eltwise
I0817 16:27:03.483909 17345 net.cpp:100] Creating Layer L3_b1_sum_eltwise
I0817 16:27:03.483914 17345 net.cpp:434] L3_b1_sum_eltwise <- L3_b1_cbr2_bn_top
I0817 16:27:03.483922 17345 net.cpp:434] L3_b1_sum_eltwise <- L3_b1_pool
I0817 16:27:03.483932 17345 net.cpp:408] L3_b1_sum_eltwise -> L3_b1_sum_eltwise_top
I0817 16:27:03.483961 17345 net.cpp:150] Setting up L3_b1_sum_eltwise
I0817 16:27:03.483970 17345 net.cpp:157] Top shape: 125 32 8 8 (256000)
I0817 16:27:03.483975 17345 net.cpp:165] Memory required for data: 455169500
I0817 16:27:03.483980 17345 layer_factory.hpp:77] Creating layer L3_b1_relu
I0817 16:27:03.483989 17345 net.cpp:100] Creating Layer L3_b1_relu
I0817 16:27:03.483994 17345 net.cpp:434] L3_b1_relu <- L3_b1_sum_eltwise_top
I0817 16:27:03.484000 17345 net.cpp:395] L3_b1_relu -> L3_b1_sum_eltwise_top (in-place)
I0817 16:27:03.484009 17345 net.cpp:150] Setting up L3_b1_relu
I0817 16:27:03.484016 17345 net.cpp:157] Top shape: 125 32 8 8 (256000)
I0817 16:27:03.484020 17345 net.cpp:165] Memory required for data: 456193500
I0817 16:27:03.484025 17345 layer_factory.hpp:77] Creating layer L3_b1_zeros
I0817 16:27:03.484036 17345 net.cpp:100] Creating Layer L3_b1_zeros
I0817 16:27:03.484045 17345 net.cpp:408] L3_b1_zeros -> L3_b1_zeros
I0817 16:27:03.485251 17345 net.cpp:150] Setting up L3_b1_zeros
I0817 16:27:03.485270 17345 net.cpp:157] Top shape: 125 32 8 8 (256000)
I0817 16:27:03.485275 17345 net.cpp:165] Memory required for data: 457217500
I0817 16:27:03.485280 17345 layer_factory.hpp:77] Creating layer L3_b1_concat0
I0817 16:27:03.485291 17345 net.cpp:100] Creating Layer L3_b1_concat0
I0817 16:27:03.485296 17345 net.cpp:434] L3_b1_concat0 <- L3_b1_sum_eltwise_top
I0817 16:27:03.485303 17345 net.cpp:434] L3_b1_concat0 <- L3_b1_zeros
I0817 16:27:03.485314 17345 net.cpp:408] L3_b1_concat0 -> L3_b1_concat0
I0817 16:27:03.485353 17345 net.cpp:150] Setting up L3_b1_concat0
I0817 16:27:03.485368 17345 net.cpp:157] Top shape: 125 64 8 8 (512000)
I0817 16:27:03.485373 17345 net.cpp:165] Memory required for data: 459265500
I0817 16:27:03.485378 17345 layer_factory.hpp:77] Creating layer L3_b1_concat0_L3_b1_concat0_0_split
I0817 16:27:03.485385 17345 net.cpp:100] Creating Layer L3_b1_concat0_L3_b1_concat0_0_split
I0817 16:27:03.485391 17345 net.cpp:434] L3_b1_concat0_L3_b1_concat0_0_split <- L3_b1_concat0
I0817 16:27:03.485399 17345 net.cpp:408] L3_b1_concat0_L3_b1_concat0_0_split -> L3_b1_concat0_L3_b1_concat0_0_split_0
I0817 16:27:03.485410 17345 net.cpp:408] L3_b1_concat0_L3_b1_concat0_0_split -> L3_b1_concat0_L3_b1_concat0_0_split_1
I0817 16:27:03.485456 17345 net.cpp:150] Setting up L3_b1_concat0_L3_b1_concat0_0_split
I0817 16:27:03.485468 17345 net.cpp:157] Top shape: 125 64 8 8 (512000)
I0817 16:27:03.485491 17345 net.cpp:157] Top shape: 125 64 8 8 (512000)
I0817 16:27:03.485496 17345 net.cpp:165] Memory required for data: 463361500
I0817 16:27:03.485501 17345 layer_factory.hpp:77] Creating layer L3_b2_cbr1_conv
I0817 16:27:03.485517 17345 net.cpp:100] Creating Layer L3_b2_cbr1_conv
I0817 16:27:03.485523 17345 net.cpp:434] L3_b2_cbr1_conv <- L3_b1_concat0_L3_b1_concat0_0_split_0
I0817 16:27:03.485532 17345 net.cpp:408] L3_b2_cbr1_conv -> L3_b2_cbr1_conv_top
I0817 16:27:03.487490 17345 net.cpp:150] Setting up L3_b2_cbr1_conv
I0817 16:27:03.487507 17345 net.cpp:157] Top shape: 125 64 8 8 (512000)
I0817 16:27:03.487514 17345 net.cpp:165] Memory required for data: 465409500
I0817 16:27:03.487522 17345 layer_factory.hpp:77] Creating layer L3_b2_cbr1_bn
I0817 16:27:03.487535 17345 net.cpp:100] Creating Layer L3_b2_cbr1_bn
I0817 16:27:03.487542 17345 net.cpp:434] L3_b2_cbr1_bn <- L3_b2_cbr1_conv_top
I0817 16:27:03.487551 17345 net.cpp:408] L3_b2_cbr1_bn -> L3_b2_cbr1_bn_top
I0817 16:27:03.487807 17345 net.cpp:150] Setting up L3_b2_cbr1_bn
I0817 16:27:03.487820 17345 net.cpp:157] Top shape: 125 64 8 8 (512000)
I0817 16:27:03.487825 17345 net.cpp:165] Memory required for data: 467457500
I0817 16:27:03.487836 17345 layer_factory.hpp:77] Creating layer L3_b2_cbr1_scale
I0817 16:27:03.487844 17345 net.cpp:100] Creating Layer L3_b2_cbr1_scale
I0817 16:27:03.487850 17345 net.cpp:434] L3_b2_cbr1_scale <- L3_b2_cbr1_bn_top
I0817 16:27:03.487861 17345 net.cpp:395] L3_b2_cbr1_scale -> L3_b2_cbr1_bn_top (in-place)
I0817 16:27:03.487918 17345 layer_factory.hpp:77] Creating layer L3_b2_cbr1_scale
I0817 16:27:03.488068 17345 net.cpp:150] Setting up L3_b2_cbr1_scale
I0817 16:27:03.488081 17345 net.cpp:157] Top shape: 125 64 8 8 (512000)
I0817 16:27:03.488086 17345 net.cpp:165] Memory required for data: 469505500
I0817 16:27:03.488095 17345 layer_factory.hpp:77] Creating layer L3_b2_cbr1_relu
I0817 16:27:03.488106 17345 net.cpp:100] Creating Layer L3_b2_cbr1_relu
I0817 16:27:03.488112 17345 net.cpp:434] L3_b2_cbr1_relu <- L3_b2_cbr1_bn_top
I0817 16:27:03.488121 17345 net.cpp:395] L3_b2_cbr1_relu -> L3_b2_cbr1_bn_top (in-place)
I0817 16:27:03.488129 17345 net.cpp:150] Setting up L3_b2_cbr1_relu
I0817 16:27:03.488137 17345 net.cpp:157] Top shape: 125 64 8 8 (512000)
I0817 16:27:03.488142 17345 net.cpp:165] Memory required for data: 471553500
I0817 16:27:03.488145 17345 layer_factory.hpp:77] Creating layer L3_b2_cbr2_conv
I0817 16:27:03.488160 17345 net.cpp:100] Creating Layer L3_b2_cbr2_conv
I0817 16:27:03.488167 17345 net.cpp:434] L3_b2_cbr2_conv <- L3_b2_cbr1_bn_top
I0817 16:27:03.488178 17345 net.cpp:408] L3_b2_cbr2_conv -> L3_b2_cbr2_conv_top
I0817 16:27:03.489181 17345 net.cpp:150] Setting up L3_b2_cbr2_conv
I0817 16:27:03.489195 17345 net.cpp:157] Top shape: 125 64 8 8 (512000)
I0817 16:27:03.489200 17345 net.cpp:165] Memory required for data: 473601500
I0817 16:27:03.489209 17345 layer_factory.hpp:77] Creating layer L3_b2_cbr2_bn
I0817 16:27:03.489219 17345 net.cpp:100] Creating Layer L3_b2_cbr2_bn
I0817 16:27:03.489225 17345 net.cpp:434] L3_b2_cbr2_bn <- L3_b2_cbr2_conv_top
I0817 16:27:03.489236 17345 net.cpp:408] L3_b2_cbr2_bn -> L3_b2_cbr2_bn_top
I0817 16:27:03.489490 17345 net.cpp:150] Setting up L3_b2_cbr2_bn
I0817 16:27:03.489506 17345 net.cpp:157] Top shape: 125 64 8 8 (512000)
I0817 16:27:03.489512 17345 net.cpp:165] Memory required for data: 475649500
I0817 16:27:03.489522 17345 layer_factory.hpp:77] Creating layer L3_b2_cbr2_scale
I0817 16:27:03.489531 17345 net.cpp:100] Creating Layer L3_b2_cbr2_scale
I0817 16:27:03.489537 17345 net.cpp:434] L3_b2_cbr2_scale <- L3_b2_cbr2_bn_top
I0817 16:27:03.489545 17345 net.cpp:395] L3_b2_cbr2_scale -> L3_b2_cbr2_bn_top (in-place)
I0817 16:27:03.489600 17345 layer_factory.hpp:77] Creating layer L3_b2_cbr2_scale
I0817 16:27:03.489748 17345 net.cpp:150] Setting up L3_b2_cbr2_scale
I0817 16:27:03.489761 17345 net.cpp:157] Top shape: 125 64 8 8 (512000)
I0817 16:27:03.489766 17345 net.cpp:165] Memory required for data: 477697500
I0817 16:27:03.489775 17345 layer_factory.hpp:77] Creating layer L3_b2_sum_eltwise
I0817 16:27:03.489794 17345 net.cpp:100] Creating Layer L3_b2_sum_eltwise
I0817 16:27:03.489801 17345 net.cpp:434] L3_b2_sum_eltwise <- L3_b2_cbr2_bn_top
I0817 16:27:03.489809 17345 net.cpp:434] L3_b2_sum_eltwise <- L3_b1_concat0_L3_b1_concat0_0_split_1
I0817 16:27:03.489816 17345 net.cpp:408] L3_b2_sum_eltwise -> L3_b2_sum_eltwise_top
I0817 16:27:03.489851 17345 net.cpp:150] Setting up L3_b2_sum_eltwise
I0817 16:27:03.489863 17345 net.cpp:157] Top shape: 125 64 8 8 (512000)
I0817 16:27:03.489868 17345 net.cpp:165] Memory required for data: 479745500
I0817 16:27:03.489873 17345 layer_factory.hpp:77] Creating layer L3_b2_relu
I0817 16:27:03.489881 17345 net.cpp:100] Creating Layer L3_b2_relu
I0817 16:27:03.489886 17345 net.cpp:434] L3_b2_relu <- L3_b2_sum_eltwise_top
I0817 16:27:03.489893 17345 net.cpp:395] L3_b2_relu -> L3_b2_sum_eltwise_top (in-place)
I0817 16:27:03.489902 17345 net.cpp:150] Setting up L3_b2_relu
I0817 16:27:03.489909 17345 net.cpp:157] Top shape: 125 64 8 8 (512000)
I0817 16:27:03.489913 17345 net.cpp:165] Memory required for data: 481793500
I0817 16:27:03.489918 17345 layer_factory.hpp:77] Creating layer L3_b2_sum_eltwise_top_L3_b2_relu_0_split
I0817 16:27:03.489925 17345 net.cpp:100] Creating Layer L3_b2_sum_eltwise_top_L3_b2_relu_0_split
I0817 16:27:03.489930 17345 net.cpp:434] L3_b2_sum_eltwise_top_L3_b2_relu_0_split <- L3_b2_sum_eltwise_top
I0817 16:27:03.489941 17345 net.cpp:408] L3_b2_sum_eltwise_top_L3_b2_relu_0_split -> L3_b2_sum_eltwise_top_L3_b2_relu_0_split_0
I0817 16:27:03.489953 17345 net.cpp:408] L3_b2_sum_eltwise_top_L3_b2_relu_0_split -> L3_b2_sum_eltwise_top_L3_b2_relu_0_split_1
I0817 16:27:03.489995 17345 net.cpp:150] Setting up L3_b2_sum_eltwise_top_L3_b2_relu_0_split
I0817 16:27:03.490007 17345 net.cpp:157] Top shape: 125 64 8 8 (512000)
I0817 16:27:03.490013 17345 net.cpp:157] Top shape: 125 64 8 8 (512000)
I0817 16:27:03.490018 17345 net.cpp:165] Memory required for data: 485889500
I0817 16:27:03.490023 17345 layer_factory.hpp:77] Creating layer L3_b3_cbr1_conv
I0817 16:27:03.490036 17345 net.cpp:100] Creating Layer L3_b3_cbr1_conv
I0817 16:27:03.490043 17345 net.cpp:434] L3_b3_cbr1_conv <- L3_b2_sum_eltwise_top_L3_b2_relu_0_split_0
I0817 16:27:03.490052 17345 net.cpp:408] L3_b3_cbr1_conv -> L3_b3_cbr1_conv_top
I0817 16:27:03.491063 17345 net.cpp:150] Setting up L3_b3_cbr1_conv
I0817 16:27:03.491078 17345 net.cpp:157] Top shape: 125 64 8 8 (512000)
I0817 16:27:03.491084 17345 net.cpp:165] Memory required for data: 487937500
I0817 16:27:03.491093 17345 layer_factory.hpp:77] Creating layer L3_b3_cbr1_bn
I0817 16:27:03.491106 17345 net.cpp:100] Creating Layer L3_b3_cbr1_bn
I0817 16:27:03.491111 17345 net.cpp:434] L3_b3_cbr1_bn <- L3_b3_cbr1_conv_top
I0817 16:27:03.491119 17345 net.cpp:408] L3_b3_cbr1_bn -> L3_b3_cbr1_bn_top
I0817 16:27:03.491372 17345 net.cpp:150] Setting up L3_b3_cbr1_bn
I0817 16:27:03.491385 17345 net.cpp:157] Top shape: 125 64 8 8 (512000)
I0817 16:27:03.491390 17345 net.cpp:165] Memory required for data: 489985500
I0817 16:27:03.491400 17345 layer_factory.hpp:77] Creating layer L3_b3_cbr1_scale
I0817 16:27:03.491412 17345 net.cpp:100] Creating Layer L3_b3_cbr1_scale
I0817 16:27:03.491420 17345 net.cpp:434] L3_b3_cbr1_scale <- L3_b3_cbr1_bn_top
I0817 16:27:03.491426 17345 net.cpp:395] L3_b3_cbr1_scale -> L3_b3_cbr1_bn_top (in-place)
I0817 16:27:03.491490 17345 layer_factory.hpp:77] Creating layer L3_b3_cbr1_scale
I0817 16:27:03.491641 17345 net.cpp:150] Setting up L3_b3_cbr1_scale
I0817 16:27:03.491653 17345 net.cpp:157] Top shape: 125 64 8 8 (512000)
I0817 16:27:03.491658 17345 net.cpp:165] Memory required for data: 492033500
I0817 16:27:03.491667 17345 layer_factory.hpp:77] Creating layer L3_b3_cbr1_relu
I0817 16:27:03.491678 17345 net.cpp:100] Creating Layer L3_b3_cbr1_relu
I0817 16:27:03.491684 17345 net.cpp:434] L3_b3_cbr1_relu <- L3_b3_cbr1_bn_top
I0817 16:27:03.491691 17345 net.cpp:395] L3_b3_cbr1_relu -> L3_b3_cbr1_bn_top (in-place)
I0817 16:27:03.491701 17345 net.cpp:150] Setting up L3_b3_cbr1_relu
I0817 16:27:03.491708 17345 net.cpp:157] Top shape: 125 64 8 8 (512000)
I0817 16:27:03.491719 17345 net.cpp:165] Memory required for data: 494081500
I0817 16:27:03.491724 17345 layer_factory.hpp:77] Creating layer L3_b3_cbr2_conv
I0817 16:27:03.491739 17345 net.cpp:100] Creating Layer L3_b3_cbr2_conv
I0817 16:27:03.491744 17345 net.cpp:434] L3_b3_cbr2_conv <- L3_b3_cbr1_bn_top
I0817 16:27:03.491755 17345 net.cpp:408] L3_b3_cbr2_conv -> L3_b3_cbr2_conv_top
I0817 16:27:03.492760 17345 net.cpp:150] Setting up L3_b3_cbr2_conv
I0817 16:27:03.492775 17345 net.cpp:157] Top shape: 125 64 8 8 (512000)
I0817 16:27:03.492780 17345 net.cpp:165] Memory required for data: 496129500
I0817 16:27:03.492789 17345 layer_factory.hpp:77] Creating layer L3_b3_cbr2_bn
I0817 16:27:03.492799 17345 net.cpp:100] Creating Layer L3_b3_cbr2_bn
I0817 16:27:03.492805 17345 net.cpp:434] L3_b3_cbr2_bn <- L3_b3_cbr2_conv_top
I0817 16:27:03.492820 17345 net.cpp:408] L3_b3_cbr2_bn -> L3_b3_cbr2_bn_top
I0817 16:27:03.493073 17345 net.cpp:150] Setting up L3_b3_cbr2_bn
I0817 16:27:03.493086 17345 net.cpp:157] Top shape: 125 64 8 8 (512000)
I0817 16:27:03.493091 17345 net.cpp:165] Memory required for data: 498177500
I0817 16:27:03.493122 17345 layer_factory.hpp:77] Creating layer L3_b3_cbr2_scale
I0817 16:27:03.493132 17345 net.cpp:100] Creating Layer L3_b3_cbr2_scale
I0817 16:27:03.493139 17345 net.cpp:434] L3_b3_cbr2_scale <- L3_b3_cbr2_bn_top
I0817 16:27:03.493146 17345 net.cpp:395] L3_b3_cbr2_scale -> L3_b3_cbr2_bn_top (in-place)
I0817 16:27:03.493203 17345 layer_factory.hpp:77] Creating layer L3_b3_cbr2_scale
I0817 16:27:03.493357 17345 net.cpp:150] Setting up L3_b3_cbr2_scale
I0817 16:27:03.493369 17345 net.cpp:157] Top shape: 125 64 8 8 (512000)
I0817 16:27:03.493376 17345 net.cpp:165] Memory required for data: 500225500
I0817 16:27:03.493384 17345 layer_factory.hpp:77] Creating layer L3_b3_sum_eltwise
I0817 16:27:03.493393 17345 net.cpp:100] Creating Layer L3_b3_sum_eltwise
I0817 16:27:03.493399 17345 net.cpp:434] L3_b3_sum_eltwise <- L3_b3_cbr2_bn_top
I0817 16:27:03.493407 17345 net.cpp:434] L3_b3_sum_eltwise <- L3_b2_sum_eltwise_top_L3_b2_relu_0_split_1
I0817 16:27:03.493413 17345 net.cpp:408] L3_b3_sum_eltwise -> L3_b3_sum_eltwise_top
I0817 16:27:03.493445 17345 net.cpp:150] Setting up L3_b3_sum_eltwise
I0817 16:27:03.493454 17345 net.cpp:157] Top shape: 125 64 8 8 (512000)
I0817 16:27:03.493459 17345 net.cpp:165] Memory required for data: 502273500
I0817 16:27:03.493464 17345 layer_factory.hpp:77] Creating layer L3_b3_relu
I0817 16:27:03.493475 17345 net.cpp:100] Creating Layer L3_b3_relu
I0817 16:27:03.493487 17345 net.cpp:434] L3_b3_relu <- L3_b3_sum_eltwise_top
I0817 16:27:03.493499 17345 net.cpp:395] L3_b3_relu -> L3_b3_sum_eltwise_top (in-place)
I0817 16:27:03.493508 17345 net.cpp:150] Setting up L3_b3_relu
I0817 16:27:03.493515 17345 net.cpp:157] Top shape: 125 64 8 8 (512000)
I0817 16:27:03.493520 17345 net.cpp:165] Memory required for data: 504321500
I0817 16:27:03.493525 17345 layer_factory.hpp:77] Creating layer post_pool
I0817 16:27:03.493533 17345 net.cpp:100] Creating Layer post_pool
I0817 16:27:03.493538 17345 net.cpp:434] post_pool <- L3_b3_sum_eltwise_top
I0817 16:27:03.493546 17345 net.cpp:408] post_pool -> post_pool
I0817 16:27:03.493582 17345 net.cpp:150] Setting up post_pool
I0817 16:27:03.493595 17345 net.cpp:157] Top shape: 125 64 1 1 (8000)
I0817 16:27:03.493599 17345 net.cpp:165] Memory required for data: 504353500
I0817 16:27:03.493605 17345 layer_factory.hpp:77] Creating layer post_FC
I0817 16:27:03.493681 17345 net.cpp:100] Creating Layer post_FC
I0817 16:27:03.493693 17345 net.cpp:434] post_FC <- post_pool
I0817 16:27:03.493703 17345 net.cpp:408] post_FC -> post_FC_top
I0817 16:27:03.493929 17345 net.cpp:150] Setting up post_FC
I0817 16:27:03.493945 17345 net.cpp:157] Top shape: 125 10 (1250)
I0817 16:27:03.493950 17345 net.cpp:165] Memory required for data: 504358500
I0817 16:27:03.493959 17345 layer_factory.hpp:77] Creating layer post_FC_top_post_FC_0_split
I0817 16:27:03.493968 17345 net.cpp:100] Creating Layer post_FC_top_post_FC_0_split
I0817 16:27:03.493981 17345 net.cpp:434] post_FC_top_post_FC_0_split <- post_FC_top
I0817 16:27:03.493993 17345 net.cpp:408] post_FC_top_post_FC_0_split -> post_FC_top_post_FC_0_split_0
I0817 16:27:03.494004 17345 net.cpp:408] post_FC_top_post_FC_0_split -> post_FC_top_post_FC_0_split_1
I0817 16:27:03.494047 17345 net.cpp:150] Setting up post_FC_top_post_FC_0_split
I0817 16:27:03.494062 17345 net.cpp:157] Top shape: 125 10 (1250)
I0817 16:27:03.494069 17345 net.cpp:157] Top shape: 125 10 (1250)
I0817 16:27:03.494074 17345 net.cpp:165] Memory required for data: 504368500
I0817 16:27:03.494079 17345 layer_factory.hpp:77] Creating layer accuracy
I0817 16:27:03.494120 17345 net.cpp:100] Creating Layer accuracy
I0817 16:27:03.494132 17345 net.cpp:434] accuracy <- post_FC_top_post_FC_0_split_0
I0817 16:27:03.494139 17345 net.cpp:434] accuracy <- label_dataLayer_1_split_0
I0817 16:27:03.494148 17345 net.cpp:408] accuracy -> accuracy
…
