…
I0821 06:49:14.951079 32405 net.cpp:322] The NetState phase (0) differed from the phase (1) specified by a rule in layer L3_b9_cbr2_bn
I0821 06:49:14.952821 32405 net.cpp:58] Initializing net from parameters: 
name: "Cifar-Resnet"
state {
  phase: TRAIN
  level: 0
  stage: ""
}
layer {
  name: "dataLayer"
  type: "Data"
  top: "data_top"
  top: "label"
  include {
    phase: TRAIN
  }
  transform_param {
    mirror: true
    crop_size: 32
    mean_file: "examples/cifar10/mean.binaryproto"
  }
  data_param {
    source: "examples/cifar10/cifar10_train_lmdb"
    batch_size: 125
    backend: LMDB
  }
  image_data_param {
    shuffle: true
  }
}
layer {
  name: "pre_conv"
  type: "Convolution"
  bottom: "data_top"
  top: "pre_conv_top"
  param {
    lr_mult: 1
    decay_mult: 1
  }
  param {
    lr_mult: 2
    decay_mult: 0
  }
  convolution_param {
    num_output: 16
    pad: 1
    kernel_size: 3
    stride: 1
    weight_filler {
      type: "msra"
    }
    bias_filler {
      type: "constant"
    }
  }
}
layer {
  name: "pre_bn"
  type: "BatchNorm"
  bottom: "pre_conv_top"
  top: "pre_bn_top"
  include {
    phase: TRAIN
  }
  batch_norm_param {
    use_global_stats: false
    moving_average_fraction: 0.95
  }
}
layer {
  name: "pre_scale"
  type: "Scale"
  bottom: "pre_bn_top"
  top: "pre_bn_top"
  scale_param {
    bias_term: true
  }
}
layer {
  name: "pre_relu"
  type: "ReLU"
  bottom: "pre_bn_top"
  top: "pre_bn_top"
}
layer {
  name: "L1_b1_cbr1_conv"
  type: "Convolution"
  bottom: "pre_bn_top"
  top: "L1_b1_cbr1_conv_top"
  param {
    lr_mult: 1
    decay_mult: 1
  }
  param {
    lr_mult: 2
    decay_mult: 0
  }
  convolution_param {
    num_output: 16
    pad: 1
    kernel_size: 3
    stride: 1
    weight_filler {
      type: "msra"
    }
    bias_filler {
      type: "constant"
    }
  }
}
layer {
  name: "L1_b1_cbr1_bn"
  type: "BatchNorm"
  bottom: "L1_b1_cbr1_conv_top"
  top: "L1_b1_cbr1_bn_top"
  include {
    phase: TRAIN
  }
  batch_norm_param {
    use_global_stats: false
    moving_average_fraction: 0.95
  }
}
layer {
  name: "L1_b1_cbr1_scale"
  type: "Scale"
  bottom: "L1_b1_cbr1_bn_top"
  top: "L1_b1_cbr1_bn_top"
  scale_param {
    bias_term: true
  }
}
layer {
  name: "L1_b1_cbr1_relu"
  type: "ReLU"
  bottom: "L1_b1_cbr1_bn_top"
  top: "L1_b1_cbr1_bn_top"
}
layer {
  name: "L1_b1_cbr2_conv"
  type: "Convolution"
  bottom: "L1_b1_cbr1_bn_top"
  top: "L1_b1_cbr2_conv_top"
  param {
    lr_mult: 1
    decay_mult: 1
  }
  param {
    lr_mult: 2
    decay_mult: 0
  }
  convolution_param {
    num_output: 16
    pad: 1
    kernel_size: 3
    stride: 1
    weight_filler {
      type: "msra"
    }
    bias_filler {
      type: "constant"
    }
  }
}
layer {
  name: "L1_b1_cbr2_bn"
  type: "BatchNorm"
  bottom: "L1_b1_cbr2_conv_top"
  top: "L1_b1_cbr2_bn_top"
  include {
    phase: TRAIN
  }
  batch_norm_param {
    use_global_stats: false
    moving_average_fraction: 0.95
  }
}
layer {
  name: "L1_b1_cbr2_scale"
  type: "Scale"
  bottom: "L1_b1_cbr2_bn_top"
  top: "L1_b1_cbr2_bn_top"
  scale_param {
    bias_term: true
  }
}
layer {
  name: "L1_b1_sum_eltwise"
  type: "Eltwise"
  bottom: "L1_b1_cbr2_bn_top"
  bottom: "pre_bn_top"
  top: "L1_b1_sum_eltwise_top"
  eltwise_param {
    operation: SUM
  }
}
layer {
  name: "L1_b1_relu"
  type: "ReLU"
  bottom: "L1_b1_sum_eltwise_top"
  top: "L1_b1_sum_eltwise_top"
}
layer {
  name: "L1_b2_cbr1_conv"
  type: "Convolution"
  bottom: "L1_b1_sum_eltwise_top"
  top: "L1_b2_cbr1_conv_top"
  param {
    lr_mult: 1
    decay_mult: 1
  }
  param {
    lr_mult: 2
    decay_mult: 0
  }
  convolution_param {
    num_output: 16
    pad: 1
    kernel_size: 3
    stride: 1
    weight_filler {
      type: "msra"
    }
    bias_filler {
      type: "constant"
    }
  }
}
layer {
  name: "L1_b2_cbr1_bn"
  type: "BatchNorm"
  bottom: "L1_b2_cbr1_conv_top"
  top: "L1_b2_cbr1_bn_top"
  include {
    phase: TRAIN
  }
  batch_norm_param {
    use_global_stats: false
    moving_average_fraction: 0.95
  }
}
layer {
  name: "L1_b2_cbr1_scale"
  type: "Scale"
  bottom: "L1_b2_cbr1_bn_top"
  top: "L1_b2_cbr1_bn_top"
  scale_param {
    bias_term: true
  }
}
layer {
  name: "L1_b2_cbr1_relu"
  type: "ReLU"
  bottom: "L1_b2_cbr1_bn_top"
  top: "L1_b2_cbr1_bn_top"
}
layer {
  name: "L1_b2_cbr2_conv"
  type: "Convolution"
  bottom: "L1_b2_cbr1_bn_top"
  top: "L1_b2_cbr2_conv_top"
  param {
    lr_mult: 1
    decay_mult: 1
  }
  param {
    lr_mult: 2
    decay_mult: 0
  }
  convolution_param {
    num_output: 16
    pad: 1
    kernel_size: 3
    stride: 1
    weight_filler {
      type: "msra"
    }
    bias_filler {
      type: "constant"
    }
  }
}
layer {
  name: "L1_b2_cbr2_bn"
  type: "BatchNorm"
  bottom: "L1_b2_cbr2_conv_top"
  top: "L1_b2_cbr2_bn_top"
  include {
    phase: TRAIN
  }
  batch_norm_param {
    use_global_stats: false
    moving_average_fraction: 0.95
  }
}
layer {
  name: "L1_b2_cbr2_scale"
  type: "Scale"
  bottom: "L1_b2_cbr2_bn_top"
  top: "L1_b2_cbr2_bn_top"
  scale_param {
    bias_term: true
  }
}
layer {
  name: "L1_b2_sum_eltwise"
  type: "Eltwise"
  bottom: "L1_b2_cbr2_bn_top"
  bottom: "L1_b1_sum_eltwise_top"
  top: "L1_b2_sum_eltwise_top"
  eltwise_param {
    operation: SUM
  }
}
layer {
  name: "L1_b2_relu"
  type: "ReLU"
  bottom: "L1_b2_sum_eltwise_top"
  top: "L1_b2_sum_eltwise_top"
}
layer {
  name: "L1_b3_cbr1_conv"
  type: "Convolution"
  bottom: "L1_b2_sum_eltwise_top"
  top: "L1_b3_cbr1_conv_top"
  param {
    lr_mult: 1
    decay_mult: 1
  }
  param {
    lr_mult: 2
    decay_mult: 0
  }
  convolution_param {
    num_output: 16
    pad: 1
    kernel_size: 3
    stride: 1
    weight_filler {
      type: "msra"
    }
    bias_filler {
      type: "constant"
    }
  }
}
layer {
  name: "L1_b3_cbr1_bn"
  type: "BatchNorm"
  bottom: "L1_b3_cbr1_conv_top"
  top: "L1_b3_cbr1_bn_top"
  include {
    phase: TRAIN
  }
  batch_norm_param {
    use_global_stats: false
    moving_average_fraction: 0.95
  }
}
layer {
  name: "L1_b3_cbr1_scale"
  type: "Scale"
  bottom: "L1_b3_cbr1_bn_top"
  top: "L1_b3_cbr1_bn_top"
  scale_param {
    bias_term: true
  }
}
layer {
  name: "L1_b3_cbr1_relu"
  type: "ReLU"
  bottom: "L1_b3_cbr1_bn_top"
  top: "L1_b3_cbr1_bn_top"
}
layer {
  name: "L1_b3_cbr2_conv"
  type: "Convolution"
  bottom: "L1_b3_cbr1_bn_top"
  top: "L1_b3_cbr2_conv_top"
  param {
    lr_mult: 1
    decay_mult: 1
  }
  param {
    lr_mult: 2
    decay_mult: 0
  }
  convolution_param {
    num_output: 16
    pad: 1
    kernel_size: 3
    stride: 1
    weight_filler {
      type: "msra"
    }
    bias_filler {
      type: "constant"
    }
  }
}
layer {
  name: "L1_b3_cbr2_bn"
  type: "BatchNorm"
  bottom: "L1_b3_cbr2_conv_top"
  top: "L1_b3_cbr2_bn_top"
  include {
    phase: TRAIN
  }
  batch_norm_param {
    use_global_stats: false
    moving_average_fraction: 0.95
  }
}
layer {
  name: "L1_b3_cbr2_scale"
  type: "Scale"
  bottom: "L1_b3_cbr2_bn_top"
  top: "L1_b3_cbr2_bn_top"
  scale_param {
    bias_term: true
  }
}
layer {
  name: "L1_b3_sum_eltwise"
  type: "Eltwise"
  bottom: "L1_b3_cbr2_bn_top"
  bottom: "L1_b2_sum_eltwise_top"
  top: "L1_b3_sum_eltwise_top"
  eltwise_param {
    operation: SUM
  }
}
layer {
  name: "L1_b3_relu"
  type: "ReLU"
  bottom: "L1_b3_sum_eltwise_top"
  top: "L1_b3_sum_eltwise_top"
}
layer {
  name: "L1_b4_cbr1_conv"
  type: "Convolution"
  bottom: "L1_b3_sum_eltwise_top"
  top: "L1_b4_cbr1_conv_top"
  param {
    lr_mult: 1
    decay_mult: 1
  }
  param {
    lr_mult: 2
    decay_mult: 0
  }
  convolution_param {
    num_output: 16
    pad: 1
    kernel_size: 3
    stride: 1
    weight_filler {
      type: "msra"
    }
    bias_filler {
      type: "constant"
    }
  }
}
layer {
  name: "L1_b4_cbr1_bn"
  type: "BatchNorm"
  bottom: "L1_b4_cbr1_conv_top"
  top: "L1_b4_cbr1_bn_top"
  include {
    phase: TRAIN
  }
  batch_norm_param {
    use_global_stats: false
    moving_average_fraction: 0.95
  }
}
layer {
  name: "L1_b4_cbr1_scale"
  type: "Scale"
  bottom: "L1_b4_cbr1_bn_top"
  top: "L1_b4_cbr1_bn_top"
  scale_param {
    bias_term: true
  }
}
layer {
  name: "L1_b4_cbr1_relu"
  type: "ReLU"
  bottom: "L1_b4_cbr1_bn_top"
  top: "L1_b4_cbr1_bn_top"
}
layer {
  name: "L1_b4_cbr2_conv"
  type: "Convolution"
  bottom: "L1_b4_cbr1_bn_top"
  top: "L1_b4_cbr2_conv_top"
  param {
    lr_mult: 1
    decay_mult: 1
  }
  param {
    lr_mult: 2
    decay_mult: 0
  }
  convolution_param {
    num_output: 16
    pad: 1
    kernel_size: 3
    stride: 1
    weight_filler {
      type: "msra"
    }
    bias_filler {
      type: "constant"
    }
  }
}
layer {
  name: "L1_b4_cbr2_bn"
  type: "BatchNorm"
  bottom: "L1_b4_cbr2_conv_top"
  top: "L1_b4_cbr2_bn_top"
  include {
    phase: TRAIN
  }
  batch_norm_param {
    use_global_stats: false
    moving_average_fraction: 0.95
  }
}
layer {
  name: "L1_b4_cbr2_scale"
  type: "Scale"
  bottom: "L1_b4_cbr2_bn_top"
  top: "L1_b4_cbr2_bn_top"
  scale_param {
    bias_term: true
  }
}
layer {
  name: "L1_b4_sum_eltwise"
  type: "Eltwise"
  bottom: "L1_b4_cbr2_bn_top"
  bottom: "L1_b3_sum_eltwise_top"
  top: "L1_b4_sum_eltwise_top"
  eltwise_param {
    operation: SUM
  }
}
layer {
  name: "L1_b4_relu"
  type: "ReLU"
  bottom: "L1_b4_sum_eltwise_top"
  top: "L1_b4_sum_eltwise_top"
}
layer {
  name: "L1_b5_cbr1_conv"
  type: "Convolution"
  bottom: "L1_b4_sum_eltwise_top"
  top: "L1_b5_cbr1_conv_top"
  param {
    lr_mult: 1
    decay_mult: 1
  }
  param {
    lr_mult: 2
    decay_mult: 0
  }
  convolution_param {
    num_output: 16
    pad: 1
    kernel_size: 3
    stride: 1
    weight_filler {
      type: "msra"
    }
    bias_filler {
      type: "constant"
    }
  }
}
layer {
  name: "L1_b5_cbr1_bn"
  type: "BatchNorm"
  bottom: "L1_b5_cbr1_conv_top"
  top: "L1_b5_cbr1_bn_top"
  include {
    phase: TRAIN
  }
  batch_norm_param {
    use_global_stats: false
    moving_average_fraction: 0.95
  }
}
layer {
  name: "L1_b5_cbr1_scale"
  type: "Scale"
  bottom: "L1_b5_cbr1_bn_top"
  top: "L1_b5_cbr1_bn_top"
  scale_param {
    bias_term: true
  }
}
layer {
  name: "L1_b5_cbr1_relu"
  type: "ReLU"
  bottom: "L1_b5_cbr1_bn_top"
  top: "L1_b5_cbr1_bn_top"
}
layer {
  name: "L1_b5_cbr2_conv"
  type: "Convolution"
  bottom: "L1_b5_cbr1_bn_top"
  top: "L1_b5_cbr2_conv_top"
  param {
    lr_mult: 1
    decay_mult: 1
  }
  param {
    lr_mult: 2
    decay_mult: 0
  }
  convolution_param {
    num_output: 16
    pad: 1
    kernel_size: 3
    stride: 1
    weight_filler {
      type: "msra"
    }
    bias_filler {
      type: "constant"
    }
  }
}
layer {
  name: "L1_b5_cbr2_bn"
  type: "BatchNorm"
  bottom: "L1_b5_cbr2_conv_top"
  top: "L1_b5_cbr2_bn_top"
  include {
    phase: TRAIN
  }
  batch_norm_param {
    use_global_stats: false
    moving_average_fraction: 0.95
  }
}
layer {
  name: "L1_b5_cbr2_scale"
  type: "Scale"
  bottom: "L1_b5_cbr2_bn_top"
  top: "L1_b5_cbr2_bn_top"
  scale_param {
    bias_term: true
  }
}
layer {
  name: "L1_b5_sum_eltwise"
  type: "Eltwise"
  bottom: "L1_b5_cbr2_bn_top"
  bottom: "L1_b4_sum_eltwise_top"
  top: "L1_b5_sum_eltwise_top"
  eltwise_param {
    operation: SUM
  }
}
layer {
  name: "L1_b5_relu"
  type: "ReLU"
  bottom: "L1_b5_sum_eltwise_top"
  top: "L1_b5_sum_eltwise_top"
}
layer {
  name: "L1_b6_cbr1_conv"
  type: "Convolution"
  bottom: "L1_b5_sum_eltwise_top"
  top: "L1_b6_cbr1_conv_top"
  param {
    lr_mult: 1
    decay_mult: 1
  }
  param {
    lr_mult: 2
    decay_mult: 0
  }
  convolution_param {
    num_output: 16
    pad: 1
    kernel_size: 3
    stride: 1
    weight_filler {
      type: "msra"
    }
    bias_filler {
      type: "constant"
    }
  }
}
layer {
  name: "L1_b6_cbr1_bn"
  type: "BatchNorm"
  bottom: "L1_b6_cbr1_conv_top"
  top: "L1_b6_cbr1_bn_top"
  include {
    phase: TRAIN
  }
  batch_norm_param {
    use_global_stats: false
    moving_average_fraction: 0.95
  }
}
layer {
  name: "L1_b6_cbr1_scale"
  type: "Scale"
  bottom: "L1_b6_cbr1_bn_top"
  top: "L1_b6_cbr1_bn_top"
  scale_param {
    bias_term: true
  }
}
layer {
  name: "L1_b6_cbr1_relu"
  type: "ReLU"
  bottom: "L1_b6_cbr1_bn_top"
  top: "L1_b6_cbr1_bn_top"
}
layer {
  name: "L1_b6_cbr2_conv"
  type: "Convolution"
  bottom: "L1_b6_cbr1_bn_top"
  top: "L1_b6_cbr2_conv_top"
  param {
    lr_mult: 1
    decay_mult: 1
  }
  param {
    lr_mult: 2
    decay_mult: 0
  }
  convolution_param {
    num_output: 16
    pad: 1
    kernel_size: 3
    stride: 1
    weight_filler {
      type: "msra"
    }
    bias_filler {
      type: "constant"
    }
  }
}
layer {
  name: "L1_b6_cbr2_bn"
  type: "BatchNorm"
  bottom: "L1_b6_cbr2_conv_top"
  top: "L1_b6_cbr2_bn_top"
  include {
    phase: TRAIN
  }
  batch_norm_param {
    use_global_stats: false
    moving_average_fraction: 0.95
  }
}
layer {
  name: "L1_b6_cbr2_scale"
  type: "Scale"
  bottom: "L1_b6_cbr2_bn_top"
  top: "L1_b6_cbr2_bn_top"
  scale_param {
    bias_term: true
  }
}
layer {
  name: "L1_b6_sum_eltwise"
  type: "Eltwise"
  bottom: "L1_b6_cbr2_bn_top"
  bottom: "L1_b5_sum_eltwise_top"
  top: "L1_b6_sum_eltwise_top"
  eltwise_param {
    operation: SUM
  }
}
layer {
  name: "L1_b6_relu"
  type: "ReLU"
  bottom: "L1_b6_sum_eltwise_top"
  top: "L1_b6_sum_eltwise_top"
}
layer {
  name: "L1_b7_cbr1_conv"
  type: "Convolution"
  bottom: "L1_b6_sum_eltwise_top"
  top: "L1_b7_cbr1_conv_top"
  param {
    lr_mult: 1
    decay_mult: 1
  }
  param {
    lr_mult: 2
    decay_mult: 0
  }
  convolution_param {
    num_output: 16
    pad: 1
    kernel_size: 3
    stride: 1
    weight_filler {
      type: "msra"
    }
    bias_filler {
      type: "constant"
    }
  }
}
layer {
  name: "L1_b7_cbr1_bn"
  type: "BatchNorm"
  bottom: "L1_b7_cbr1_conv_top"
  top: "L1_b7_cbr1_bn_top"
  include {
    phase: TRAIN
  }
  batch_norm_param {
    use_global_stats: false
    moving_average_fraction: 0.95
  }
}
layer {
  name: "L1_b7_cbr1_scale"
  type: "Scale"
  bottom: "L1_b7_cbr1_bn_top"
  top: "L1_b7_cbr1_bn_top"
  scale_param {
    bias_term: true
  }
}
layer {
  name: "L1_b7_cbr1_relu"
  type: "ReLU"
  bottom: "L1_b7_cbr1_bn_top"
  top: "L1_b7_cbr1_bn_top"
}
layer {
  name: "L1_b7_cbr2_conv"
  type: "Convolution"
  bottom: "L1_b7_cbr1_bn_top"
  top: "L1_b7_cbr2_conv_top"
  param {
    lr_mult: 1
    decay_mult: 1
  }
  param {
    lr_mult: 2
    decay_mult: 0
  }
  convolution_param {
    num_output: 16
    pad: 1
    kernel_size: 3
    stride: 1
    weight_filler {
      type: "msra"
    }
    bias_filler {
      type: "constant"
    }
  }
}
layer {
  name: "L1_b7_cbr2_bn"
  type: "BatchNorm"
  bottom: "L1_b7_cbr2_conv_top"
  top: "L1_b7_cbr2_bn_top"
  include {
    phase: TRAIN
  }
  batch_norm_param {
    use_global_stats: false
    moving_average_fraction: 0.95
  }
}
layer {
  name: "L1_b7_cbr2_scale"
  type: "Scale"
  bottom: "L1_b7_cbr2_bn_top"
  top: "L1_b7_cbr2_bn_top"
  scale_param {
    bias_term: true
  }
}
layer {
  name: "L1_b7_sum_eltwise"
  type: "Eltwise"
  bottom: "L1_b7_cbr2_bn_top"
  bottom: "L1_b6_sum_eltwise_top"
  top: "L1_b7_sum_eltwise_top"
  eltwise_param {
    operation: SUM
  }
}
layer {
  name: "L1_b7_relu"
  type: "ReLU"
  bottom: "L1_b7_sum_eltwise_top"
  top: "L1_b7_sum_eltwise_top"
}
layer {
  name: "L1_b8_cbr1_conv"
  type: "Convolution"
  bottom: "L1_b7_sum_eltwise_top"
  top: "L1_b8_cbr1_conv_top"
  param {
    lr_mult: 1
    decay_mult: 1
  }
  param {
    lr_mult: 2
    decay_mult: 0
  }
  convolution_param {
    num_output: 16
    pad: 1
    kernel_size: 3
    stride: 1
    weight_filler {
      type: "msra"
    }
    bias_filler {
      type: "constant"
    }
  }
}
layer {
  name: "L1_b8_cbr1_bn"
  type: "BatchNorm"
  bottom: "L1_b8_cbr1_conv_top"
  top: "L1_b8_cbr1_bn_top"
  include {
    phase: TRAIN
  }
  batch_norm_param {
    use_global_stats: false
    moving_average_fraction: 0.95
  }
}
layer {
  name: "L1_b8_cbr1_scale"
  type: "Scale"
  bottom: "L1_b8_cbr1_bn_top"
  top: "L1_b8_cbr1_bn_top"
  scale_param {
    bias_term: true
  }
}
layer {
  name: "L1_b8_cbr1_relu"
  type: "ReLU"
  bottom: "L1_b8_cbr1_bn_top"
  top: "L1_b8_cbr1_bn_top"
}
layer {
  name: "L1_b8_cbr2_conv"
  type: "Convolution"
  bottom: "L1_b8_cbr1_bn_top"
  top: "L1_b8_cbr2_conv_top"
  param {
    lr_mult: 1
    decay_mult: 1
  }
  param {
    lr_mult: 2
    decay_mult: 0
  }
  convolution_param {
    num_output: 16
    pad: 1
    kernel_size: 3
    stride: 1
    weight_filler {
      type: "msra"
    }
    bias_filler {
      type: "constant"
    }
  }
}
layer {
  name: "L1_b8_cbr2_bn"
  type: "BatchNorm"
  bottom: "L1_b8_cbr2_conv_top"
  top: "L1_b8_cbr2_bn_top"
  include {
    phase: TRAIN
  }
  batch_norm_param {
    use_global_stats: false
    moving_average_fraction: 0.95
  }
}
layer {
  name: "L1_b8_cbr2_scale"
  type: "Scale"
  bottom: "L1_b8_cbr2_bn_top"
  top: "L1_b8_cbr2_bn_top"
  scale_param {
    bias_term: true
  }
}
layer {
  name: "L1_b8_sum_eltwise"
  type: "Eltwise"
  bottom: "L1_b8_cbr2_bn_top"
  bottom: "L1_b7_sum_eltwise_top"
  top: "L1_b8_sum_eltwise_top"
  eltwise_param {
    operation: SUM
  }
}
layer {
  name: "L1_b8_relu"
  type: "ReLU"
  bottom: "L1_b8_sum_eltwise_top"
  top: "L1_b8_sum_eltwise_top"
}
layer {
  name: "L1_b9_cbr1_conv"
  type: "Convolution"
  bottom: "L1_b8_sum_eltwise_top"
  top: "L1_b9_cbr1_conv_top"
  param {
    lr_mult: 1
    decay_mult: 1
  }
  param {
    lr_mult: 2
    decay_mult: 0
  }
  convolution_param {
    num_output: 16
    pad: 1
    kernel_size: 3
    stride: 1
    weight_filler {
      type: "msra"
    }
    bias_filler {
      type: "constant"
    }
  }
}
layer {
  name: "L1_b9_cbr1_bn"
  type: "BatchNorm"
  bottom: "L1_b9_cbr1_conv_top"
  top: "L1_b9_cbr1_bn_top"
  include {
    phase: TRAIN
  }
  batch_norm_param {
    use_global_stats: false
    moving_average_fraction: 0.95
  }
}
layer {
  name: "L1_b9_cbr1_scale"
  type: "Scale"
  bottom: "L1_b9_cbr1_bn_top"
  top: "L1_b9_cbr1_bn_top"
  scale_param {
    bias_term: true
  }
}
layer {
  name: "L1_b9_cbr1_relu"
  type: "ReLU"
  bottom: "L1_b9_cbr1_bn_top"
  top: "L1_b9_cbr1_bn_top"
}
layer {
  name: "L1_b9_cbr2_conv"
  type: "Convolution"
  bottom: "L1_b9_cbr1_bn_top"
  top: "L1_b9_cbr2_conv_top"
  param {
    lr_mult: 1
    decay_mult: 1
  }
  param {
    lr_mult: 2
    decay_mult: 0
  }
  convolution_param {
    num_output: 16
    pad: 1
    kernel_size: 3
    stride: 1
    weight_filler {
      type: "msra"
    }
    bias_filler {
      type: "constant"
    }
  }
}
layer {
  name: "L1_b9_cbr2_bn"
  type: "BatchNorm"
  bottom: "L1_b9_cbr2_conv_top"
  top: "L1_b9_cbr2_bn_top"
  include {
    phase: TRAIN
  }
  batch_norm_param {
    use_global_stats: false
    moving_average_fraction: 0.95
  }
}
layer {
  name: "L1_b9_cbr2_scale"
  type: "Scale"
  bottom: "L1_b9_cbr2_bn_top"
  top: "L1_b9_cbr2_bn_top"
  scale_param {
    bias_term: true
  }
}
layer {
  name: "L1_b9_sum_eltwise"
  type: "Eltwise"
  bottom: "L1_b9_cbr2_bn_top"
  bottom: "L1_b8_sum_eltwise_top"
  top: "L1_b9_sum_eltwise_top"
  eltwise_param {
    operation: SUM
  }
}
layer {
  name: "L1_b9_relu"
  type: "ReLU"
  bottom: "L1_b9_sum_eltwise_top"
  top: "L1_b9_sum_eltwise_top"
}
layer {
  name: "L2_b1_cbr1_conv"
  type: "Convolution"
  bottom: "L1_b9_sum_eltwise_top"
  top: "L2_b1_cbr1_conv_top"
  param {
    lr_mult: 1
    decay_mult: 1
  }
  param {
    lr_mult: 2
    decay_mult: 0
  }
  convolution_param {
    num_output: 16
    pad: 1
    kernel_size: 3
    stride: 2
    weight_filler {
      type: "msra"
    }
    bias_filler {
      type: "constant"
    }
  }
}
layer {
  name: "L2_b1_cbr1_bn"
  type: "BatchNorm"
  bottom: "L2_b1_cbr1_conv_top"
  top: "L2_b1_cbr1_bn_top"
  include {
    phase: TRAIN
  }
  batch_norm_param {
    use_global_stats: false
    moving_average_fraction: 0.95
  }
}
layer {
  name: "L2_b1_cbr1_scale"
  type: "Scale"
  bottom: "L2_b1_cbr1_bn_top"
  top: "L2_b1_cbr1_bn_top"
  scale_param {
    bias_term: true
  }
}
layer {
  name: "L2_b1_cbr1_relu"
  type: "ReLU"
  bottom: "L2_b1_cbr1_bn_top"
  top: "L2_b1_cbr1_bn_top"
}
layer {
  name: "L2_b1_cbr2_conv"
  type: "Convolution"
  bottom: "L2_b1_cbr1_bn_top"
  top: "L2_b1_cbr2_conv_top"
  param {
    lr_mult: 1
    decay_mult: 1
  }
  param {
    lr_mult: 2
    decay_mult: 0
  }
  convolution_param {
    num_output: 16
    pad: 1
    kernel_size: 3
    stride: 1
    weight_filler {
      type: "msra"
    }
    bias_filler {
      type: "constant"
    }
  }
}
layer {
  name: "L2_b1_cbr2_bn"
  type: "BatchNorm"
  bottom: "L2_b1_cbr2_conv_top"
  top: "L2_b1_cbr2_bn_top"
  include {
    phase: TRAIN
  }
  batch_norm_param {
    use_global_stats: false
    moving_average_fraction: 0.95
  }
}
layer {
  name: "L2_b1_cbr2_scale"
  type: "Scale"
  bottom: "L2_b1_cbr2_bn_top"
  top: "L2_b1_cbr2_bn_top"
  scale_param {
    bias_term: true
  }
}
layer {
  name: "L2_b1_pool"
  type: "Pooling"
  bottom: "L1_b9_sum_eltwise_top"
  top: "L2_b1_pool"
  pooling_param {
    pool: AVE
    kernel_size: 3
    stride: 2
  }
}
layer {
  name: "L2_b1_sum_eltwise"
  type: "Eltwise"
  bottom: "L2_b1_cbr2_bn_top"
  bottom: "L2_b1_pool"
  top: "L2_b1_sum_eltwise_top"
  eltwise_param {
    operation: SUM
  }
}
layer {
  name: "L2_b1_relu"
  type: "ReLU"
  bottom: "L2_b1_sum_eltwise_top"
  top: "L2_b1_sum_eltwise_top"
}
layer {
  name: "L2_b1_zeros"
  type: "DummyData"
  top: "L2_b1_zeros"
  dummy_data_param {
    data_filler {
      type: "constant"
      value: 0
    }
    shape {
      dim: 125
      dim: 16
      dim: 16
      dim: 16
    }
  }
}
layer {
  name: "L2_b1_concat0"
  type: "Concat"
  bottom: "L2_b1_sum_eltwise_top"
  bottom: "L2_b1_zeros"
  top: "L2_b1_concat0"
  concat_param {
    axis: 1
  }
}
layer {
  name: "L2_b2_cbr1_conv"
  type: "Convolution"
  bottom: "L2_b1_concat0"
  top: "L2_b2_cbr1_conv_top"
  param {
    lr_mult: 1
    decay_mult: 1
  }
  param {
    lr_mult: 2
    decay_mult: 0
  }
  convolution_param {
    num_output: 32
    pad: 1
    kernel_size: 3
    stride: 1
    weight_filler {
      type: "msra"
    }
    bias_filler {
      type: "constant"
    }
  }
}
layer {
  name: "L2_b2_cbr1_bn"
  type: "BatchNorm"
  bottom: "L2_b2_cbr1_conv_top"
  top: "L2_b2_cbr1_bn_top"
  include {
    phase: TRAIN
  }
  batch_norm_param {
    use_global_stats: false
    moving_average_fraction: 0.95
  }
}
layer {
  name: "L2_b2_cbr1_scale"
  type: "Scale"
  bottom: "L2_b2_cbr1_bn_top"
  top: "L2_b2_cbr1_bn_top"
  scale_param {
    bias_term: true
  }
}
layer {
  name: "L2_b2_cbr1_relu"
  type: "ReLU"
  bottom: "L2_b2_cbr1_bn_top"
  top: "L2_b2_cbr1_bn_top"
}
layer {
  name: "L2_b2_cbr2_conv"
  type: "Convolution"
  bottom: "L2_b2_cbr1_bn_top"
  top: "L2_b2_cbr2_conv_top"
  param {
    lr_mult: 1
    decay_mult: 1
  }
  param {
    lr_mult: 2
    decay_mult: 0
  }
  convolution_param {
    num_output: 32
    pad: 1
    kernel_size: 3
    stride: 1
    weight_filler {
      type: "msra"
    }
    bias_filler {
      type: "constant"
    }
  }
}
layer {
  name: "L2_b2_cbr2_bn"
  type: "BatchNorm"
  bottom: "L2_b2_cbr2_conv_top"
  top: "L2_b2_cbr2_bn_top"
  include {
    phase: TRAIN
  }
  batch_norm_param {
    use_global_stats: false
    moving_average_fraction: 0.95
  }
}
layer {
  name: "L2_b2_cbr2_scale"
  type: "Scale"
  bottom: "L2_b2_cbr2_bn_top"
  top: "L2_b2_cbr2_bn_top"
  scale_param {
    bias_term: true
  }
}
layer {
  name: "L2_b2_sum_eltwise"
  type: "Eltwise"
  bottom: "L2_b2_cbr2_bn_top"
  bottom: "L2_b1_concat0"
  top: "L2_b2_sum_eltwise_top"
  eltwise_param {
    operation: SUM
  }
}
layer {
  name: "L2_b2_relu"
  type: "ReLU"
  bottom: "L2_b2_sum_eltwise_top"
  top: "L2_b2_sum_eltwise_top"
}
layer {
  name: "L2_b3_cbr1_conv"
  type: "Convolution"
  bottom: "L2_b2_sum_eltwise_top"
  top: "L2_b3_cbr1_conv_top"
  param {
    lr_mult: 1
    decay_mult: 1
  }
  param {
    lr_mult: 2
    decay_mult: 0
  }
  convolution_param {
    num_output: 32
    pad: 1
    kernel_size: 3
    stride: 1
    weight_filler {
      type: "msra"
    }
    bias_filler {
      type: "constant"
    }
  }
}
layer {
  name: "L2_b3_cbr1_bn"
  type: "BatchNorm"
  bottom: "L2_b3_cbr1_conv_top"
  top: "L2_b3_cbr1_bn_top"
  include {
    phase: TRAIN
  }
  batch_norm_param {
    use_global_stats: false
    moving_average_fraction: 0.95
  }
}
layer {
  name: "L2_b3_cbr1_scale"
  type: "Scale"
  bottom: "L2_b3_cbr1_bn_top"
  top: "L2_b3_cbr1_bn_top"
  scale_param {
    bias_term: true
  }
}
layer {
  name: "L2_b3_cbr1_relu"
  type: "ReLU"
  bottom: "L2_b3_cbr1_bn_top"
  top: "L2_b3_cbr1_bn_top"
}
layer {
  name: "L2_b3_cbr2_conv"
  type: "Convolution"
  bottom: "L2_b3_cbr1_bn_top"
  top: "L2_b3_cbr2_conv_top"
  param {
    lr_mult: 1
    decay_mult: 1
  }
  param {
    lr_mult: 2
    decay_mult: 0
  }
  convolution_param {
    num_output: 32
    pad: 1
    kernel_size: 3
    stride: 1
    weight_filler {
      type: "msra"
    }
    bias_filler {
      type: "constant"
    }
  }
}
layer {
  name: "L2_b3_cbr2_bn"
  type: "BatchNorm"
  bottom: "L2_b3_cbr2_conv_top"
  top: "L2_b3_cbr2_bn_top"
  include {
    phase: TRAIN
  }
  batch_norm_param {
    use_global_stats: false
    moving_average_fraction: 0.95
  }
}
layer {
  name: "L2_b3_cbr2_scale"
  type: "Scale"
  bottom: "L2_b3_cbr2_bn_top"
  top: "L2_b3_cbr2_bn_top"
  scale_param {
    bias_term: true
  }
}
layer {
  name: "L2_b3_sum_eltwise"
  type: "Eltwise"
  bottom: "L2_b3_cbr2_bn_top"
  bottom: "L2_b2_sum_eltwise_top"
  top: "L2_b3_sum_eltwise_top"
  eltwise_param {
    operation: SUM
  }
}
layer {
  name: "L2_b3_relu"
  type: "ReLU"
  bottom: "L2_b3_sum_eltwise_top"
  top: "L2_b3_sum_eltwise_top"
}
layer {
  name: "L2_b4_cbr1_conv"
  type: "Convolution"
  bottom: "L2_b3_sum_eltwise_top"
  top: "L2_b4_cbr1_conv_top"
  param {
    lr_mult: 1
    decay_mult: 1
  }
  param {
    lr_mult: 2
    decay_mult: 0
  }
  convolution_param {
    num_output: 32
    pad: 1
    kernel_size: 3
    stride: 1
    weight_filler {
      type: "msra"
    }
    bias_filler {
      type: "constant"
    }
  }
}
layer {
  name: "L2_b4_cbr1_bn"
  type: "BatchNorm"
  bottom: "L2_b4_cbr1_conv_top"
  top: "L2_b4_cbr1_bn_top"
  include {
    phase: TRAIN
  }
  batch_norm_param {
    use_global_stats: false
    moving_average_fraction: 0.95
  }
}
layer {
  name: "L2_b4_cbr1_scale"
  type: "Scale"
  bottom: "L2_b4_cbr1_bn_top"
  top: "L2_b4_cbr1_bn_top"
  scale_param {
    bias_term: true
  }
}
layer {
  name: "L2_b4_cbr1_relu"
  type: "ReLU"
  bottom: "L2_b4_cbr1_bn_top"
  top: "L2_b4_cbr1_bn_top"
}
layer {
  name: "L2_b4_cbr2_conv"
  type: "Convolution"
  bottom: "L2_b4_cbr1_bn_top"
  top: "L2_b4_cbr2_conv_top"
  param {
    lr_mult: 1
    decay_mult: 1
  }
  param {
    lr_mult: 2
    decay_mult: 0
  }
  convolution_param {
    num_output: 32
    pad: 1
    kernel_size: 3
    stride: 1
    weight_filler {
      type: "msra"
    }
    bias_filler {
      type: "constant"
    }
  }
}
layer {
  name: "L2_b4_cbr2_bn"
  type: "BatchNorm"
  bottom: "L2_b4_cbr2_conv_top"
  top: "L2_b4_cbr2_bn_top"
  include {
    phase: TRAIN
  }
  batch_norm_param {
    use_global_stats: false
    moving_average_fraction: 0.95
  }
}
layer {
  name: "L2_b4_cbr2_scale"
  type: "Scale"
  bottom: "L2_b4_cbr2_bn_top"
  top: "L2_b4_cbr2_bn_top"
  scale_param {
    bias_term: true
  }
}
layer {
  name: "L2_b4_sum_eltwise"
  type: "Eltwise"
  bottom: "L2_b4_cbr2_bn_top"
  bottom: "L2_b3_sum_eltwise_top"
  top: "L2_b4_sum_eltwise_top"
  eltwise_param {
    operation: SUM
  }
}
layer {
  name: "L2_b4_relu"
  type: "ReLU"
  bottom: "L2_b4_sum_eltwise_top"
  top: "L2_b4_sum_eltwise_top"
}
layer {
  name: "L2_b5_cbr1_conv"
  type: "Convolution"
  bottom: "L2_b4_sum_eltwise_top"
  top: "L2_b5_cbr1_conv_top"
  param {
    lr_mult: 1
    decay_mult: 1
  }
  param {
    lr_mult: 2
    decay_mult: 0
  }
  convolution_param {
    num_output: 32
    pad: 1
    kernel_size: 3
    stride: 1
    weight_filler {
      type: "msra"
    }
    bias_filler {
      type: "constant"
    }
  }
}
layer {
  name: "L2_b5_cbr1_bn"
  type: "BatchNorm"
  bottom: "L2_b5_cbr1_conv_top"
  top: "L2_b5_cbr1_bn_top"
  include {
    phase: TRAIN
  }
  batch_norm_param {
    use_global_stats: false
    moving_average_fraction: 0.95
  }
}
layer {
  name: "L2_b5_cbr1_scale"
  type: "Scale"
  bottom: "L2_b5_cbr1_bn_top"
  top: "L2_b5_cbr1_bn_top"
  scale_param {
    bias_term: true
  }
}
layer {
  name: "L2_b5_cbr1_relu"
  type: "ReLU"
  bottom: "L2_b5_cbr1_bn_top"
  top: "L2_b5_cbr1_bn_top"
}
layer {
  name: "L2_b5_cbr2_conv"
  type: "Convolution"
  bottom: "L2_b5_cbr1_bn_top"
  top: "L2_b5_cbr2_conv_top"
  param {
    lr_mult: 1
    decay_mult: 1
  }
  param {
    lr_mult: 2
    decay_mult: 0
  }
  convolution_param {
    num_output: 32
    pad: 1
    kernel_size: 3
    stride: 1
    weight_filler {
      type: "msra"
    }
    bias_filler {
      type: "constant"
    }
  }
}
layer {
  name: "L2_b5_cbr2_bn"
  type: "BatchNorm"
  bottom: "L2_b5_cbr2_conv_top"
  top: "L2_b5_cbr2_bn_top"
  include {
    phase: TRAIN
  }
  batch_norm_param {
    use_global_stats: false
    moving_average_fraction: 0.95
  }
}
layer {
  name: "L2_b5_cbr2_scale"
  type: "Scale"
  bottom: "L2_b5_cbr2_bn_top"
  top: "L2_b5_cbr2_bn_top"
  scale_param {
    bias_term: true
  }
}
layer {
  name: "L2_b5_sum_eltwise"
  type: "Eltwise"
  bottom: "L2_b5_cbr2_bn_top"
  bottom: "L2_b4_sum_eltwise_top"
  top: "L2_b5_sum_eltwise_top"
  eltwise_param {
    operation: SUM
  }
}
layer {
  name: "L2_b5_relu"
  type: "ReLU"
  bottom: "L2_b5_sum_eltwise_top"
  top: "L2_b5_sum_eltwise_top"
}
layer {
  name: "L2_b6_cbr1_conv"
  type: "Convolution"
  bottom: "L2_b5_sum_eltwise_top"
  top: "L2_b6_cbr1_conv_top"
  param {
    lr_mult: 1
    decay_mult: 1
  }
  param {
    lr_mult: 2
    decay_mult: 0
  }
  convolution_param {
    num_output: 32
    pad: 1
    kernel_size: 3
    stride: 1
    weight_filler {
      type: "msra"
    }
    bias_filler {
      type: "constant"
    }
  }
}
layer {
  name: "L2_b6_cbr1_bn"
  type: "BatchNorm"
  bottom: "L2_b6_cbr1_conv_top"
  top: "L2_b6_cbr1_bn_top"
  include {
    phase: TRAIN
  }
  batch_norm_param {
    use_global_stats: false
    moving_average_fraction: 0.95
  }
}
layer {
  name: "L2_b6_c
I0821 06:49:14.955097 32405 layer_factory.hpp:77] Creating layer dataLayer
I0821 06:49:14.960546 32405 net.cpp:100] Creating Layer dataLayer
I0821 06:49:14.960624 32405 net.cpp:408] dataLayer -> data_top
I0821 06:49:14.960829 32405 net.cpp:408] dataLayer -> label
I0821 06:49:14.960963 32405 data_transformer.cpp:25] Loading mean file from: examples/cifar10/mean.binaryproto
I0821 06:49:15.007768 32410 db_lmdb.cpp:35] Opened lmdb examples/cifar10/cifar10_train_lmdb
I0821 06:49:15.039824 32405 data_layer.cpp:41] output data size: 125,3,32,32
I0821 06:49:15.046919 32405 net.cpp:150] Setting up dataLayer
I0821 06:49:15.046990 32405 net.cpp:157] Top shape: 125 3 32 32 (384000)
I0821 06:49:15.047004 32405 net.cpp:157] Top shape: 125 (125)
I0821 06:49:15.047010 32405 net.cpp:165] Memory required for data: 1536500
I0821 06:49:15.047026 32405 layer_factory.hpp:77] Creating layer label_dataLayer_1_split
I0821 06:49:15.047044 32405 net.cpp:100] Creating Layer label_dataLayer_1_split
I0821 06:49:15.047052 32405 net.cpp:434] label_dataLayer_1_split <- label
I0821 06:49:15.047072 32405 net.cpp:408] label_dataLayer_1_split -> label_dataLayer_1_split_0
I0821 06:49:15.047087 32405 net.cpp:408] label_dataLayer_1_split -> label_dataLayer_1_split_1
I0821 06:49:15.047161 32405 net.cpp:150] Setting up label_dataLayer_1_split
I0821 06:49:15.047174 32405 net.cpp:157] Top shape: 125 (125)
I0821 06:49:15.047181 32405 net.cpp:157] Top shape: 125 (125)
I0821 06:49:15.047185 32405 net.cpp:165] Memory required for data: 1537500
I0821 06:49:15.047191 32405 layer_factory.hpp:77] Creating layer pre_conv
I0821 06:49:15.047257 32405 net.cpp:100] Creating Layer pre_conv
I0821 06:49:15.047269 32405 net.cpp:434] pre_conv <- data_top
I0821 06:49:15.047282 32405 net.cpp:408] pre_conv -> pre_conv_top
I0821 06:49:15.049120 32405 net.cpp:150] Setting up pre_conv
I0821 06:49:15.049140 32405 net.cpp:157] Top shape: 125 16 32 32 (2048000)
I0821 06:49:15.049146 32405 net.cpp:165] Memory required for data: 9729500
I0821 06:49:15.049217 32405 layer_factory.hpp:77] Creating layer pre_bn
I0821 06:49:15.049295 32405 net.cpp:100] Creating Layer pre_bn
I0821 06:49:15.049309 32405 net.cpp:434] pre_bn <- pre_conv_top
I0821 06:49:15.049319 32405 net.cpp:408] pre_bn -> pre_bn_top
I0821 06:49:15.049429 32411 blocking_queue.cpp:50] Waiting for data
I0821 06:49:15.049654 32405 net.cpp:150] Setting up pre_bn
I0821 06:49:15.049670 32405 net.cpp:157] Top shape: 125 16 32 32 (2048000)
I0821 06:49:15.049676 32405 net.cpp:165] Memory required for data: 17921500
I0821 06:49:15.049695 32405 layer_factory.hpp:77] Creating layer pre_scale
I0821 06:49:15.049744 32405 net.cpp:100] Creating Layer pre_scale
I0821 06:49:15.049754 32405 net.cpp:434] pre_scale <- pre_bn_top
I0821 06:49:15.049762 32405 net.cpp:395] pre_scale -> pre_bn_top (in-place)
I0821 06:49:15.049950 32405 layer_factory.hpp:77] Creating layer pre_scale
I0821 06:49:15.058204 32405 net.cpp:150] Setting up pre_scale
I0821 06:49:15.058223 32405 net.cpp:157] Top shape: 125 16 32 32 (2048000)
I0821 06:49:15.058228 32405 net.cpp:165] Memory required for data: 26113500
I0821 06:49:15.058238 32405 layer_factory.hpp:77] Creating layer pre_relu
I0821 06:49:15.058286 32405 net.cpp:100] Creating Layer pre_relu
I0821 06:49:15.058295 32405 net.cpp:434] pre_relu <- pre_bn_top
I0821 06:49:15.058307 32405 net.cpp:395] pre_relu -> pre_bn_top (in-place)
I0821 06:49:15.058318 32405 net.cpp:150] Setting up pre_relu
I0821 06:49:15.058326 32405 net.cpp:157] Top shape: 125 16 32 32 (2048000)
I0821 06:49:15.058331 32405 net.cpp:165] Memory required for data: 34305500
I0821 06:49:15.058336 32405 layer_factory.hpp:77] Creating layer pre_bn_top_pre_relu_0_split
I0821 06:49:15.058343 32405 net.cpp:100] Creating Layer pre_bn_top_pre_relu_0_split
I0821 06:49:15.058348 32405 net.cpp:434] pre_bn_top_pre_relu_0_split <- pre_bn_top
I0821 06:49:15.058358 32405 net.cpp:408] pre_bn_top_pre_relu_0_split -> pre_bn_top_pre_relu_0_split_0
I0821 06:49:15.058368 32405 net.cpp:408] pre_bn_top_pre_relu_0_split -> pre_bn_top_pre_relu_0_split_1
I0821 06:49:15.058414 32405 net.cpp:150] Setting up pre_bn_top_pre_relu_0_split
I0821 06:49:15.058428 32405 net.cpp:157] Top shape: 125 16 32 32 (2048000)
I0821 06:49:15.058434 32405 net.cpp:157] Top shape: 125 16 32 32 (2048000)
I0821 06:49:15.058439 32405 net.cpp:165] Memory required for data: 50689500
I0821 06:49:15.058444 32405 layer_factory.hpp:77] Creating layer L1_b1_cbr1_conv
I0821 06:49:15.058459 32405 net.cpp:100] Creating Layer L1_b1_cbr1_conv
I0821 06:49:15.058465 32405 net.cpp:434] L1_b1_cbr1_conv <- pre_bn_top_pre_relu_0_split_0
I0821 06:49:15.058473 32405 net.cpp:408] L1_b1_cbr1_conv -> L1_b1_cbr1_conv_top
I0821 06:49:15.058797 32405 net.cpp:150] Setting up L1_b1_cbr1_conv
I0821 06:49:15.058812 32405 net.cpp:157] Top shape: 125 16 32 32 (2048000)
I0821 06:49:15.058818 32405 net.cpp:165] Memory required for data: 58881500
I0821 06:49:15.058830 32405 layer_factory.hpp:77] Creating layer L1_b1_cbr1_bn
I0821 06:49:15.058845 32405 net.cpp:100] Creating Layer L1_b1_cbr1_bn
I0821 06:49:15.058851 32405 net.cpp:434] L1_b1_cbr1_bn <- L1_b1_cbr1_conv_top
I0821 06:49:15.058866 32405 net.cpp:408] L1_b1_cbr1_bn -> L1_b1_cbr1_bn_top
I0821 06:49:15.059095 32405 net.cpp:150] Setting up L1_b1_cbr1_bn
I0821 06:49:15.059108 32405 net.cpp:157] Top shape: 125 16 32 32 (2048000)
I0821 06:49:15.059113 32405 net.cpp:165] Memory required for data: 67073500
I0821 06:49:15.059123 32405 layer_factory.hpp:77] Creating layer L1_b1_cbr1_scale
I0821 06:49:15.059136 32405 net.cpp:100] Creating Layer L1_b1_cbr1_scale
I0821 06:49:15.059141 32405 net.cpp:434] L1_b1_cbr1_scale <- L1_b1_cbr1_bn_top
I0821 06:49:15.059149 32405 net.cpp:395] L1_b1_cbr1_scale -> L1_b1_cbr1_bn_top (in-place)
I0821 06:49:15.059203 32405 layer_factory.hpp:77] Creating layer L1_b1_cbr1_scale
I0821 06:49:15.059342 32405 net.cpp:150] Setting up L1_b1_cbr1_scale
I0821 06:49:15.059355 32405 net.cpp:157] Top shape: 125 16 32 32 (2048000)
I0821 06:49:15.059360 32405 net.cpp:165] Memory required for data: 75265500
I0821 06:49:15.059368 32405 layer_factory.hpp:77] Creating layer L1_b1_cbr1_relu
I0821 06:49:15.059384 32405 net.cpp:100] Creating Layer L1_b1_cbr1_relu
I0821 06:49:15.059391 32405 net.cpp:434] L1_b1_cbr1_relu <- L1_b1_cbr1_bn_top
I0821 06:49:15.059401 32405 net.cpp:395] L1_b1_cbr1_relu -> L1_b1_cbr1_bn_top (in-place)
I0821 06:49:15.059411 32405 net.cpp:150] Setting up L1_b1_cbr1_relu
I0821 06:49:15.059417 32405 net.cpp:157] Top shape: 125 16 32 32 (2048000)
I0821 06:49:15.059422 32405 net.cpp:165] Memory required for data: 83457500
I0821 06:49:15.059427 32405 layer_factory.hpp:77] Creating layer L1_b1_cbr2_conv
I0821 06:49:15.059442 32405 net.cpp:100] Creating Layer L1_b1_cbr2_conv
I0821 06:49:15.059448 32405 net.cpp:434] L1_b1_cbr2_conv <- L1_b1_cbr1_bn_top
I0821 06:49:15.059456 32405 net.cpp:408] L1_b1_cbr2_conv -> L1_b1_cbr2_conv_top
I0821 06:49:15.059762 32405 net.cpp:150] Setting up L1_b1_cbr2_conv
I0821 06:49:15.059777 32405 net.cpp:157] Top shape: 125 16 32 32 (2048000)
I0821 06:49:15.059782 32405 net.cpp:165] Memory required for data: 91649500
I0821 06:49:15.059790 32405 layer_factory.hpp:77] Creating layer L1_b1_cbr2_bn
I0821 06:49:15.059803 32405 net.cpp:100] Creating Layer L1_b1_cbr2_bn
I0821 06:49:15.059809 32405 net.cpp:434] L1_b1_cbr2_bn <- L1_b1_cbr2_conv_top
I0821 06:49:15.059818 32405 net.cpp:408] L1_b1_cbr2_bn -> L1_b1_cbr2_bn_top
I0821 06:49:15.060053 32405 net.cpp:150] Setting up L1_b1_cbr2_bn
I0821 06:49:15.060066 32405 net.cpp:157] Top shape: 125 16 32 32 (2048000)
I0821 06:49:15.060071 32405 net.cpp:165] Memory required for data: 99841500
I0821 06:49:15.060086 32405 layer_factory.hpp:77] Creating layer L1_b1_cbr2_scale
I0821 06:49:15.060098 32405 net.cpp:100] Creating Layer L1_b1_cbr2_scale
I0821 06:49:15.060104 32405 net.cpp:434] L1_b1_cbr2_scale <- L1_b1_cbr2_bn_top
I0821 06:49:15.060112 32405 net.cpp:395] L1_b1_cbr2_scale -> L1_b1_cbr2_bn_top (in-place)
I0821 06:49:15.060168 32405 layer_factory.hpp:77] Creating layer L1_b1_cbr2_scale
I0821 06:49:15.060307 32405 net.cpp:150] Setting up L1_b1_cbr2_scale
I0821 06:49:15.060320 32405 net.cpp:157] Top shape: 125 16 32 32 (2048000)
I0821 06:49:15.060325 32405 net.cpp:165] Memory required for data: 108033500
I0821 06:49:15.060334 32405 layer_factory.hpp:77] Creating layer L1_b1_sum_eltwise
I0821 06:49:15.060389 32405 net.cpp:100] Creating Layer L1_b1_sum_eltwise
I0821 06:49:15.060401 32405 net.cpp:434] L1_b1_sum_eltwise <- L1_b1_cbr2_bn_top
I0821 06:49:15.060410 32405 net.cpp:434] L1_b1_sum_eltwise <- pre_bn_top_pre_relu_0_split_1
I0821 06:49:15.060420 32405 net.cpp:408] L1_b1_sum_eltwise -> L1_b1_sum_eltwise_top
I0821 06:49:15.060500 32405 net.cpp:150] Setting up L1_b1_sum_eltwise
I0821 06:49:15.060515 32405 net.cpp:157] Top shape: 125 16 32 32 (2048000)
I0821 06:49:15.060520 32405 net.cpp:165] Memory required for data: 116225500
I0821 06:49:15.060525 32405 layer_factory.hpp:77] Creating layer L1_b1_relu
I0821 06:49:15.060534 32405 net.cpp:100] Creating Layer L1_b1_relu
I0821 06:49:15.060539 32405 net.cpp:434] L1_b1_relu <- L1_b1_sum_eltwise_top
I0821 06:49:15.060550 32405 net.cpp:395] L1_b1_relu -> L1_b1_sum_eltwise_top (in-place)
I0821 06:49:15.060560 32405 net.cpp:150] Setting up L1_b1_relu
I0821 06:49:15.060567 32405 net.cpp:157] Top shape: 125 16 32 32 (2048000)
I0821 06:49:15.060571 32405 net.cpp:165] Memory required for data: 124417500
I0821 06:49:15.060576 32405 layer_factory.hpp:77] Creating layer L1_b1_sum_eltwise_top_L1_b1_relu_0_split
I0821 06:49:15.060585 32405 net.cpp:100] Creating Layer L1_b1_sum_eltwise_top_L1_b1_relu_0_split
I0821 06:49:15.060590 32405 net.cpp:434] L1_b1_sum_eltwise_top_L1_b1_relu_0_split <- L1_b1_sum_eltwise_top
I0821 06:49:15.060598 32405 net.cpp:408] L1_b1_sum_eltwise_top_L1_b1_relu_0_split -> L1_b1_sum_eltwise_top_L1_b1_relu_0_split_0
I0821 06:49:15.060607 32405 net.cpp:408] L1_b1_sum_eltwise_top_L1_b1_relu_0_split -> L1_b1_sum_eltwise_top_L1_b1_relu_0_split_1
I0821 06:49:15.060652 32405 net.cpp:150] Setting up L1_b1_sum_eltwise_top_L1_b1_relu_0_split
I0821 06:49:15.060663 32405 net.cpp:157] Top shape: 125 16 32 32 (2048000)
I0821 06:49:15.060670 32405 net.cpp:157] Top shape: 125 16 32 32 (2048000)
I0821 06:49:15.060683 32405 net.cpp:165] Memory required for data: 140801500
I0821 06:49:15.060688 32405 layer_factory.hpp:77] Creating layer L1_b2_cbr1_conv
I0821 06:49:15.060699 32405 net.cpp:100] Creating Layer L1_b2_cbr1_conv
I0821 06:49:15.060705 32405 net.cpp:434] L1_b2_cbr1_conv <- L1_b1_sum_eltwise_top_L1_b1_relu_0_split_0
I0821 06:49:15.060716 32405 net.cpp:408] L1_b2_cbr1_conv -> L1_b2_cbr1_conv_top
I0821 06:49:15.061033 32405 net.cpp:150] Setting up L1_b2_cbr1_conv
I0821 06:49:15.061048 32405 net.cpp:157] Top shape: 125 16 32 32 (2048000)
I0821 06:49:15.061053 32405 net.cpp:165] Memory required for data: 148993500
I0821 06:49:15.061061 32405 layer_factory.hpp:77] Creating layer L1_b2_cbr1_bn
I0821 06:49:15.061071 32405 net.cpp:100] Creating Layer L1_b2_cbr1_bn
I0821 06:49:15.061077 32405 net.cpp:434] L1_b2_cbr1_bn <- L1_b2_cbr1_conv_top
I0821 06:49:15.061089 32405 net.cpp:408] L1_b2_cbr1_bn -> L1_b2_cbr1_bn_top
I0821 06:49:15.061331 32405 net.cpp:150] Setting up L1_b2_cbr1_bn
I0821 06:49:15.061347 32405 net.cpp:157] Top shape: 125 16 32 32 (2048000)
I0821 06:49:15.061352 32405 net.cpp:165] Memory required for data: 157185500
I0821 06:49:15.061363 32405 layer_factory.hpp:77] Creating layer L1_b2_cbr1_scale
I0821 06:49:15.061372 32405 net.cpp:100] Creating Layer L1_b2_cbr1_scale
I0821 06:49:15.061378 32405 net.cpp:434] L1_b2_cbr1_scale <- L1_b2_cbr1_bn_top
I0821 06:49:15.061385 32405 net.cpp:395] L1_b2_cbr1_scale -> L1_b2_cbr1_bn_top (in-place)
I0821 06:49:15.061437 32405 layer_factory.hpp:77] Creating layer L1_b2_cbr1_scale
I0821 06:49:15.061578 32405 net.cpp:150] Setting up L1_b2_cbr1_scale
I0821 06:49:15.061590 32405 net.cpp:157] Top shape: 125 16 32 32 (2048000)
I0821 06:49:15.061595 32405 net.cpp:165] Memory required for data: 165377500
I0821 06:49:15.061604 32405 layer_factory.hpp:77] Creating layer L1_b2_cbr1_relu
I0821 06:49:15.061615 32405 net.cpp:100] Creating Layer L1_b2_cbr1_relu
I0821 06:49:15.061621 32405 net.cpp:434] L1_b2_cbr1_relu <- L1_b2_cbr1_bn_top
I0821 06:49:15.061628 32405 net.cpp:395] L1_b2_cbr1_relu -> L1_b2_cbr1_bn_top (in-place)
I0821 06:49:15.061640 32405 net.cpp:150] Setting up L1_b2_cbr1_relu
I0821 06:49:15.061647 32405 net.cpp:157] Top shape: 125 16 32 32 (2048000)
I0821 06:49:15.061651 32405 net.cpp:165] Memory required for data: 173569500
I0821 06:49:15.061656 32405 layer_factory.hpp:77] Creating layer L1_b2_cbr2_conv
I0821 06:49:15.061667 32405 net.cpp:100] Creating Layer L1_b2_cbr2_conv
I0821 06:49:15.061673 32405 net.cpp:434] L1_b2_cbr2_conv <- L1_b2_cbr1_bn_top
I0821 06:49:15.061684 32405 net.cpp:408] L1_b2_cbr2_conv -> L1_b2_cbr2_conv_top
I0821 06:49:15.061995 32405 net.cpp:150] Setting up L1_b2_cbr2_conv
I0821 06:49:15.062007 32405 net.cpp:157] Top shape: 125 16 32 32 (2048000)
I0821 06:49:15.062012 32405 net.cpp:165] Memory required for data: 181761500
I0821 06:49:15.062021 32405 layer_factory.hpp:77] Creating layer L1_b2_cbr2_bn
I0821 06:49:15.062031 32405 net.cpp:100] Creating Layer L1_b2_cbr2_bn
I0821 06:49:15.062036 32405 net.cpp:434] L1_b2_cbr2_bn <- L1_b2_cbr2_conv_top
I0821 06:49:15.062047 32405 net.cpp:408] L1_b2_cbr2_bn -> L1_b2_cbr2_bn_top
I0821 06:49:15.062284 32405 net.cpp:150] Setting up L1_b2_cbr2_bn
I0821 06:49:15.062297 32405 net.cpp:157] Top shape: 125 16 32 32 (2048000)
I0821 06:49:15.062302 32405 net.cpp:165] Memory required for data: 189953500
I0821 06:49:15.062320 32405 layer_factory.hpp:77] Creating layer L1_b2_cbr2_scale
I0821 06:49:15.062330 32405 net.cpp:100] Creating Layer L1_b2_cbr2_scale
I0821 06:49:15.062335 32405 net.cpp:434] L1_b2_cbr2_scale <- L1_b2_cbr2_bn_top
I0821 06:49:15.062342 32405 net.cpp:395] L1_b2_cbr2_scale -> L1_b2_cbr2_bn_top (in-place)
I0821 06:49:15.062397 32405 layer_factory.hpp:77] Creating layer L1_b2_cbr2_scale
I0821 06:49:15.062537 32405 net.cpp:150] Setting up L1_b2_cbr2_scale
I0821 06:49:15.062549 32405 net.cpp:157] Top shape: 125 16 32 32 (2048000)
I0821 06:49:15.062554 32405 net.cpp:165] Memory required for data: 198145500
I0821 06:49:15.062563 32405 layer_factory.hpp:77] Creating layer L1_b2_sum_eltwise
I0821 06:49:15.062582 32405 net.cpp:100] Creating Layer L1_b2_sum_eltwise
I0821 06:49:15.062588 32405 net.cpp:434] L1_b2_sum_eltwise <- L1_b2_cbr2_bn_top
I0821 06:49:15.062595 32405 net.cpp:434] L1_b2_sum_eltwise <- L1_b1_sum_eltwise_top_L1_b1_relu_0_split_1
I0821 06:49:15.062603 32405 net.cpp:408] L1_b2_sum_eltwise -> L1_b2_sum_eltwise_top
I0821 06:49:15.062636 32405 net.cpp:150] Setting up L1_b2_sum_eltwise
I0821 06:49:15.062649 32405 net.cpp:157] Top shape: 125 16 32 32 (2048000)
I0821 06:49:15.062654 32405 net.cpp:165] Memory required for data: 206337500
I0821 06:49:15.062659 32405 layer_factory.hpp:77] Creating layer L1_b2_relu
I0821 06:49:15.062665 32405 net.cpp:100] Creating Layer L1_b2_relu
I0821 06:49:15.062671 32405 net.cpp:434] L1_b2_relu <- L1_b2_sum_eltwise_top
I0821 06:49:15.062678 32405 net.cpp:395] L1_b2_relu -> L1_b2_sum_eltwise_top (in-place)
I0821 06:49:15.062687 32405 net.cpp:150] Setting up L1_b2_relu
I0821 06:49:15.062695 32405 net.cpp:157] Top shape: 125 16 32 32 (2048000)
I0821 06:49:15.062700 32405 net.cpp:165] Memory required for data: 214529500
I0821 06:49:15.062703 32405 layer_factory.hpp:77] Creating layer L1_b2_sum_eltwise_top_L1_b2_relu_0_split
I0821 06:49:15.062711 32405 net.cpp:100] Creating Layer L1_b2_sum_eltwise_top_L1_b2_relu_0_split
I0821 06:49:15.062716 32405 net.cpp:434] L1_b2_sum_eltwise_top_L1_b2_relu_0_split <- L1_b2_sum_eltwise_top
I0821 06:49:15.062726 32405 net.cpp:408] L1_b2_sum_eltwise_top_L1_b2_relu_0_split -> L1_b2_sum_eltwise_top_L1_b2_relu_0_split_0
I0821 06:49:15.062736 32405 net.cpp:408] L1_b2_sum_eltwise_top_L1_b2_relu_0_split -> L1_b2_sum_eltwise_top_L1_b2_relu_0_split_1
I0821 06:49:15.062777 32405 net.cpp:150] Setting up L1_b2_sum_eltwise_top_L1_b2_relu_0_split
I0821 06:49:15.062788 32405 net.cpp:157] Top shape: 125 16 32 32 (2048000)
I0821 06:49:15.062794 32405 net.cpp:157] Top shape: 125 16 32 32 (2048000)
I0821 06:49:15.062798 32405 net.cpp:165] Memory required for data: 230913500
I0821 06:49:15.062803 32405 layer_factory.hpp:77] Creating layer L1_b3_cbr1_conv
I0821 06:49:15.062818 32405 net.cpp:100] Creating Layer L1_b3_cbr1_conv
I0821 06:49:15.062824 32405 net.cpp:434] L1_b3_cbr1_conv <- L1_b2_sum_eltwise_top_L1_b2_relu_0_split_0
I0821 06:49:15.062832 32405 net.cpp:408] L1_b3_cbr1_conv -> L1_b3_cbr1_conv_top
I0821 06:49:15.063140 32405 net.cpp:150] Setting up L1_b3_cbr1_conv
I0821 06:49:15.063154 32405 net.cpp:157] Top shape: 125 16 32 32 (2048000)
I0821 06:49:15.063159 32405 net.cpp:165] Memory required for data: 239105500
I0821 06:49:15.063169 32405 layer_factory.hpp:77] Creating layer L1_b3_cbr1_bn
I0821 06:49:15.063182 32405 net.cpp:100] Creating Layer L1_b3_cbr1_bn
I0821 06:49:15.063189 32405 net.cpp:434] L1_b3_cbr1_bn <- L1_b3_cbr1_conv_top
I0821 06:49:15.063199 32405 net.cpp:408] L1_b3_cbr1_bn -> L1_b3_cbr1_bn_top
I0821 06:49:15.063431 32405 net.cpp:150] Setting up L1_b3_cbr1_bn
I0821 06:49:15.063443 32405 net.cpp:157] Top shape: 125 16 32 32 (2048000)
I0821 06:49:15.063448 32405 net.cpp:165] Memory required for data: 247297500
I0821 06:49:15.063458 32405 layer_factory.hpp:77] Creating layer L1_b3_cbr1_scale
I0821 06:49:15.063467 32405 net.cpp:100] Creating Layer L1_b3_cbr1_scale
I0821 06:49:15.063473 32405 net.cpp:434] L1_b3_cbr1_scale <- L1_b3_cbr1_bn_top
I0821 06:49:15.063483 32405 net.cpp:395] L1_b3_cbr1_scale -> L1_b3_cbr1_bn_top (in-place)
I0821 06:49:15.063534 32405 layer_factory.hpp:77] Creating layer L1_b3_cbr1_scale
I0821 06:49:15.063670 32405 net.cpp:150] Setting up L1_b3_cbr1_scale
I0821 06:49:15.063683 32405 net.cpp:157] Top shape: 125 16 32 32 (2048000)
I0821 06:49:15.063688 32405 net.cpp:165] Memory required for data: 255489500
I0821 06:49:15.063697 32405 layer_factory.hpp:77] Creating layer L1_b3_cbr1_relu
I0821 06:49:15.063707 32405 net.cpp:100] Creating Layer L1_b3_cbr1_relu
I0821 06:49:15.063714 32405 net.cpp:434] L1_b3_cbr1_relu <- L1_b3_cbr1_bn_top
I0821 06:49:15.063720 32405 net.cpp:395] L1_b3_cbr1_relu -> L1_b3_cbr1_bn_top (in-place)
I0821 06:49:15.063730 32405 net.cpp:150] Setting up L1_b3_cbr1_relu
I0821 06:49:15.063743 32405 net.cpp:157] Top shape: 125 16 32 32 (2048000)
I0821 06:49:15.063748 32405 net.cpp:165] Memory required for data: 263681500
I0821 06:49:15.063753 32405 layer_factory.hpp:77] Creating layer L1_b3_cbr2_conv
I0821 06:49:15.063767 32405 net.cpp:100] Creating Layer L1_b3_cbr2_conv
I0821 06:49:15.063773 32405 net.cpp:434] L1_b3_cbr2_conv <- L1_b3_cbr1_bn_top
I0821 06:49:15.063784 32405 net.cpp:408] L1_b3_cbr2_conv -> L1_b3_cbr2_conv_top
I0821 06:49:15.064100 32405 net.cpp:150] Setting up L1_b3_cbr2_conv
I0821 06:49:15.064113 32405 net.cpp:157] Top shape: 125 16 32 32 (2048000)
I0821 06:49:15.064119 32405 net.cpp:165] Memory required for data: 271873500
I0821 06:49:15.064127 32405 layer_factory.hpp:77] Creating layer L1_b3_cbr2_bn
I0821 06:49:15.064144 32405 net.cpp:100] Creating Layer L1_b3_cbr2_bn
I0821 06:49:15.064152 32405 net.cpp:434] L1_b3_cbr2_bn <- L1_b3_cbr2_conv_top
I0821 06:49:15.064159 32405 net.cpp:408] L1_b3_cbr2_bn -> L1_b3_cbr2_bn_top
I0821 06:49:15.064390 32405 net.cpp:150] Setting up L1_b3_cbr2_bn
I0821 06:49:15.064404 32405 net.cpp:157] Top shape: 125 16 32 32 (2048000)
I0821 06:49:15.064409 32405 net.cpp:165] Memory required for data: 280065500
I0821 06:49:15.064419 32405 layer_factory.hpp:77] Creating layer L1_b3_cbr2_scale
I0821 06:49:15.064427 32405 net.cpp:100] Creating Layer L1_b3_cbr2_scale
I0821 06:49:15.064433 32405 net.cpp:434] L1_b3_cbr2_scale <- L1_b3_cbr2_bn_top
I0821 06:49:15.064443 32405 net.cpp:395] L1_b3_cbr2_scale -> L1_b3_cbr2_bn_top (in-place)
I0821 06:49:15.064496 32405 layer_factory.hpp:77] Creating layer L1_b3_cbr2_scale
I0821 06:49:15.064630 32405 net.cpp:150] Setting up L1_b3_cbr2_scale
I0821 06:49:15.064646 32405 net.cpp:157] Top shape: 125 16 32 32 (2048000)
I0821 06:49:15.064651 32405 net.cpp:165] Memory required for data: 288257500
I0821 06:49:15.064661 32405 layer_factory.hpp:77] Creating layer L1_b3_sum_eltwise
I0821 06:49:15.064669 32405 net.cpp:100] Creating Layer L1_b3_sum_eltwise
I0821 06:49:15.064674 32405 net.cpp:434] L1_b3_sum_eltwise <- L1_b3_cbr2_bn_top
I0821 06:49:15.064682 32405 net.cpp:434] L1_b3_sum_eltwise <- L1_b2_sum_eltwise_top_L1_b2_relu_0_split_1
I0821 06:49:15.064689 32405 net.cpp:408] L1_b3_sum_eltwise -> L1_b3_sum_eltwise_top
I0821 06:49:15.064723 32405 net.cpp:150] Setting up L1_b3_sum_eltwise
I0821 06:49:15.064731 32405 net.cpp:157] Top shape: 125 16 32 32 (2048000)
I0821 06:49:15.064735 32405 net.cpp:165] Memory required for data: 296449500
I0821 06:49:15.064741 32405 layer_factory.hpp:77] Creating layer L1_b3_relu
I0821 06:49:15.064751 32405 net.cpp:100] Creating Layer L1_b3_relu
I0821 06:49:15.064756 32405 net.cpp:434] L1_b3_relu <- L1_b3_sum_eltwise_top
I0821 06:49:15.064764 32405 net.cpp:395] L1_b3_relu -> L1_b3_sum_eltwise_top (in-place)
I0821 06:49:15.064774 32405 net.cpp:150] Setting up L1_b3_relu
I0821 06:49:15.064780 32405 net.cpp:157] Top shape: 125 16 32 32 (2048000)
I0821 06:49:15.064785 32405 net.cpp:165] Memory required for data: 304641500
I0821 06:49:15.064790 32405 layer_factory.hpp:77] Creating layer L1_b3_sum_eltwise_top_L1_b3_relu_0_split
I0821 06:49:15.064796 32405 net.cpp:100] Creating Layer L1_b3_sum_eltwise_top_L1_b3_relu_0_split
I0821 06:49:15.064801 32405 net.cpp:434] L1_b3_sum_eltwise_top_L1_b3_relu_0_split <- L1_b3_sum_eltwise_top
I0821 06:49:15.064811 32405 net.cpp:408] L1_b3_sum_eltwise_top_L1_b3_relu_0_split -> L1_b3_sum_eltwise_top_L1_b3_relu_0_split_0
I0821 06:49:15.064821 32405 net.cpp:408] L1_b3_sum_eltwise_top_L1_b3_relu_0_split -> L1_b3_sum_eltwise_top_L1_b3_relu_0_split_1
I0821 06:49:15.064867 32405 net.cpp:150] Setting up L1_b3_sum_eltwise_top_L1_b3_relu_0_split
I0821 06:49:15.064883 32405 net.cpp:157] Top shape: 125 16 32 32 (2048000)
I0821 06:49:15.064890 32405 net.cpp:157] Top shape: 125 16 32 32 (2048000)
I0821 06:49:15.064894 32405 net.cpp:165] Memory required for data: 321025500
I0821 06:49:15.064899 32405 layer_factory.hpp:77] Creating layer L1_b4_cbr1_conv
I0821 06:49:15.064910 32405 net.cpp:100] Creating Layer L1_b4_cbr1_conv
I0821 06:49:15.064916 32405 net.cpp:434] L1_b4_cbr1_conv <- L1_b3_sum_eltwise_top_L1_b3_relu_0_split_0
I0821 06:49:15.064931 32405 net.cpp:408] L1_b4_cbr1_conv -> L1_b4_cbr1_conv_top
I0821 06:49:15.065243 32405 net.cpp:150] Setting up L1_b4_cbr1_conv
I0821 06:49:15.065256 32405 net.cpp:157] Top shape: 125 16 32 32 (2048000)
I0821 06:49:15.065261 32405 net.cpp:165] Memory required for data: 329217500
I0821 06:49:15.065270 32405 layer_factory.hpp:77] Creating layer L1_b4_cbr1_bn
I0821 06:49:15.065282 32405 net.cpp:100] Creating Layer L1_b4_cbr1_bn
I0821 06:49:15.065289 32405 net.cpp:434] L1_b4_cbr1_bn <- L1_b4_cbr1_conv_top
I0821 06:49:15.065296 32405 net.cpp:408] L1_b4_cbr1_bn -> L1_b4_cbr1_bn_top
I0821 06:49:15.065532 32405 net.cpp:150] Setting up L1_b4_cbr1_bn
I0821 06:49:15.065546 32405 net.cpp:157] Top shape: 125 16 32 32 (2048000)
I0821 06:49:15.065549 32405 net.cpp:165] Memory required for data: 337409500
I0821 06:49:15.065560 32405 layer_factory.hpp:77] Creating layer L1_b4_cbr1_scale
I0821 06:49:15.065569 32405 net.cpp:100] Creating Layer L1_b4_cbr1_scale
I0821 06:49:15.065575 32405 net.cpp:434] L1_b4_cbr1_scale <- L1_b4_cbr1_bn_top
I0821 06:49:15.065587 32405 net.cpp:395] L1_b4_cbr1_scale -> L1_b4_cbr1_bn_top (in-place)
I0821 06:49:15.065639 32405 layer_factory.hpp:77] Creating layer L1_b4_cbr1_scale
I0821 06:49:15.065778 32405 net.cpp:150] Setting up L1_b4_cbr1_scale
I0821 06:49:15.065793 32405 net.cpp:157] Top shape: 125 16 32 32 (2048000)
I0821 06:49:15.065798 32405 net.cpp:165] Memory required for data: 345601500
I0821 06:49:15.065807 32405 layer_factory.hpp:77] Creating layer L1_b4_cbr1_relu
I0821 06:49:15.065815 32405 net.cpp:100] Creating Layer L1_b4_cbr1_relu
I0821 06:49:15.065820 32405 net.cpp:434] L1_b4_cbr1_relu <- L1_b4_cbr1_bn_top
I0821 06:49:15.065829 32405 net.cpp:395] L1_b4_cbr1_relu -> L1_b4_cbr1_bn_top (in-place)
I0821 06:49:15.065837 32405 net.cpp:150] Setting up L1_b4_cbr1_relu
I0821 06:49:15.065845 32405 net.cpp:157] Top shape: 125 16 32 32 (2048000)
I0821 06:49:15.065848 32405 net.cpp:165] Memory required for data: 353793500
I0821 06:49:15.065853 32405 layer_factory.hpp:77] Creating layer L1_b4_cbr2_conv
I0821 06:49:15.065873 32405 net.cpp:100] Creating Layer L1_b4_cbr2_conv
I0821 06:49:15.065881 32405 net.cpp:434] L1_b4_cbr2_conv <- L1_b4_cbr1_bn_top
I0821 06:49:15.065891 32405 net.cpp:408] L1_b4_cbr2_conv -> L1_b4_cbr2_conv_top
I0821 06:49:15.066200 32405 net.cpp:150] Setting up L1_b4_cbr2_conv
I0821 06:49:15.066215 32405 net.cpp:157] Top shape: 125 16 32 32 (2048000)
I0821 06:49:15.066218 32405 net.cpp:165] Memory required for data: 361985500
I0821 06:49:15.066227 32405 layer_factory.hpp:77] Creating layer L1_b4_cbr2_bn
I0821 06:49:15.066238 32405 net.cpp:100] Creating Layer L1_b4_cbr2_bn
I0821 06:49:15.066246 32405 net.cpp:434] L1_b4_cbr2_bn <- L1_b4_cbr2_conv_top
I0821 06:49:15.066256 32405 net.cpp:408] L1_b4_cbr2_bn -> L1_b4_cbr2_bn_top
I0821 06:49:15.066495 32405 net.cpp:150] Setting up L1_b4_cbr2_bn
I0821 06:49:15.066509 32405 net.cpp:157] Top shape: 125 16 32 32 (2048000)
I0821 06:49:15.066514 32405 net.cpp:165] Memory required for data: 370177500
I0821 06:49:15.066524 32405 layer_factory.hpp:77] Creating layer L1_b4_cbr2_scale
I0821 06:49:15.066535 32405 net.cpp:100] Creating Layer L1_b4_cbr2_scale
I0821 06:49:15.066541 32405 net.cpp:434] L1_b4_cbr2_scale <- L1_b4_cbr2_bn_top
I0821 06:49:15.066548 32405 net.cpp:395] L1_b4_cbr2_scale -> L1_b4_cbr2_bn_top (in-place)
I0821 06:49:15.066601 32405 layer_factory.hpp:77] Creating layer L1_b4_cbr2_scale
I0821 06:49:15.066738 32405 net.cpp:150] Setting up L1_b4_cbr2_scale
I0821 06:49:15.066751 32405 net.cpp:157] Top shape: 125 16 32 32 (2048000)
I0821 06:49:15.066756 32405 net.cpp:165] Memory required for data: 378369500
I0821 06:49:15.066766 32405 layer_factory.hpp:77] Creating layer L1_b4_sum_eltwise
I0821 06:49:15.066773 32405 net.cpp:100] Creating Layer L1_b4_sum_eltwise
I0821 06:49:15.066779 32405 net.cpp:434] L1_b4_sum_eltwise <- L1_b4_cbr2_bn_top
I0821 06:49:15.066786 32405 net.cpp:434] L1_b4_sum_eltwise <- L1_b3_sum_eltwise_top_L1_b3_relu_0_split_1
I0821 06:49:15.066799 32405 net.cpp:408] L1_b4_sum_eltwise -> L1_b4_sum_eltwise_top
I0821 06:49:15.066838 32405 net.cpp:150] Setting up L1_b4_sum_eltwise
I0821 06:49:15.066850 32405 net.cpp:157] Top shape: 125 16 32 32 (2048000)
I0821 06:49:15.066855 32405 net.cpp:165] Memory required for data: 386561500
I0821 06:49:15.066866 32405 layer_factory.hpp:77] Creating layer L1_b4_relu
I0821 06:49:15.066875 32405 net.cpp:100] Creating Layer L1_b4_relu
I0821 06:49:15.066880 32405 net.cpp:434] L1_b4_relu <- L1_b4_sum_eltwise_top
I0821 06:49:15.066889 32405 net.cpp:395] L1_b4_relu -> L1_b4_sum_eltwise_top (in-place)
I0821 06:49:15.066897 32405 net.cpp:150] Setting up L1_b4_relu
I0821 06:49:15.066905 32405 net.cpp:157] Top shape: 125 16 32 32 (2048000)
I0821 06:49:15.066910 32405 net.cpp:165] Memory required for data: 394753500
I0821 06:49:15.066915 32405 layer_factory.hpp:77] Creating layer L1_b4_sum_eltwise_top_L1_b4_relu_0_split
I0821 06:49:15.066926 32405 net.cpp:100] Creating Layer L1_b4_sum_eltwise_top_L1_b4_relu_0_split
I0821 06:49:15.066931 32405 net.cpp:434] L1_b4_sum_eltwise_top_L1_b4_relu_0_split <- L1_b4_sum_eltwise_top
I0821 06:49:15.066941 32405 net.cpp:408] L1_b4_sum_eltwise_top_L1_b4_relu_0_split -> L1_b4_sum_eltwise_top_L1_b4_relu_0_split_0
I0821 06:49:15.066949 32405 net.cpp:408] L1_b4_sum_eltwise_top_L1_b4_relu_0_split -> L1_b4_sum_eltwise_top_L1_b4_relu_0_split_1
I0821 06:49:15.066994 32405 net.cpp:150] Setting up L1_b4_sum_eltwise_top_L1_b4_relu_0_split
I0821 06:49:15.067008 32405 net.cpp:157] Top shape: 125 16 32 32 (2048000)
I0821 06:49:15.067013 32405 net.cpp:157] Top shape: 125 16 32 32 (2048000)
I0821 06:49:15.067018 32405 net.cpp:165] Memory required for data: 411137500
I0821 06:49:15.067023 32405 layer_factory.hpp:77] Creating layer L1_b5_cbr1_conv
I0821 06:49:15.067039 32405 net.cpp:100] Creating Layer L1_b5_cbr1_conv
I0821 06:49:15.067045 32405 net.cpp:434] L1_b5_cbr1_conv <- L1_b4_sum_eltwise_top_L1_b4_relu_0_split_0
I0821 06:49:15.067057 32405 net.cpp:408] L1_b5_cbr1_conv -> L1_b5_cbr1_conv_top
I0821 06:49:15.067369 32405 net.cpp:150] Setting up L1_b5_cbr1_conv
I0821 06:49:15.067383 32405 net.cpp:157] Top shape: 125 16 32 32 (2048000)
I0821 06:49:15.067387 32405 net.cpp:165] Memory required for data: 419329500
I0821 06:49:15.067406 32405 layer_factory.hpp:77] Creating layer L1_b5_cbr1_bn
I0821 06:49:15.067420 32405 net.cpp:100] Creating Layer L1_b5_cbr1_bn
I0821 06:49:15.067425 32405 net.cpp:434] L1_b5_cbr1_bn <- L1_b5_cbr1_conv_top
I0821 06:49:15.067433 32405 net.cpp:408] L1_b5_cbr1_bn -> L1_b5_cbr1_bn_top
I0821 06:49:15.067670 32405 net.cpp:150] Setting up L1_b5_cbr1_bn
I0821 06:49:15.067683 32405 net.cpp:157] Top shape: 125 16 32 32 (2048000)
I0821 06:49:15.067688 32405 net.cpp:165] Memory required for data: 427521500
I0821 06:49:15.067698 32405 layer_factory.hpp:77] Creating layer L1_b5_cbr1_scale
I0821 06:49:15.067708 32405 net.cpp:100] Creating Layer L1_b5_cbr1_scale
I0821 06:49:15.067713 32405 net.cpp:434] L1_b5_cbr1_scale <- L1_b5_cbr1_bn_top
I0821 06:49:15.067723 32405 net.cpp:395] L1_b5_cbr1_scale -> L1_b5_cbr1_bn_top (in-place)
I0821 06:49:15.067775 32405 layer_factory.hpp:77] Creating layer L1_b5_cbr1_scale
I0821 06:49:15.067925 32405 net.cpp:150] Setting up L1_b5_cbr1_scale
I0821 06:49:15.067939 32405 net.cpp:157] Top shape: 125 16 32 32 (2048000)
I0821 06:49:15.067944 32405 net.cpp:165] Memory required for data: 435713500
I0821 06:49:15.067952 32405 layer_factory.hpp:77] Creating layer L1_b5_cbr1_relu
I0821 06:49:15.067960 32405 net.cpp:100] Creating Layer L1_b5_cbr1_relu
I0821 06:49:15.067966 32405 net.cpp:434] L1_b5_cbr1_relu <- L1_b5_cbr1_bn_top
I0821 06:49:15.067973 32405 net.cpp:395] L1_b5_cbr1_relu -> L1_b5_cbr1_bn_top (in-place)
I0821 06:49:15.067983 32405 net.cpp:150] Setting up L1_b5_cbr1_relu
I0821 06:49:15.067989 32405 net.cpp:157] Top shape: 125 16 32 32 (2048000)
I0821 06:49:15.067994 32405 net.cpp:165] Memory required for data: 443905500
I0821 06:49:15.067998 32405 layer_factory.hpp:77] Creating layer L1_b5_cbr2_conv
I0821 06:49:15.068012 32405 net.cpp:100] Creating Layer L1_b5_cbr2_conv
I0821 06:49:15.068018 32405 net.cpp:434] L1_b5_cbr2_conv <- L1_b5_cbr1_bn_top
I0821 06:49:15.068035 32405 net.cpp:408] L1_b5_cbr2_conv -> L1_b5_cbr2_conv_top
I0821 06:49:15.068349 32405 net.cpp:150] Setting up L1_b5_cbr2_conv
I0821 06:49:15.068363 32405 net.cpp:157] Top shape: 125 16 32 32 (2048000)
I0821 06:49:15.068368 32405 net.cpp:165] Memory required for data: 452097500
I0821 06:49:15.068377 32405 layer_factory.hpp:77] Creating layer L1_b5_cbr2_bn
I0821 06:49:15.068390 32405 net.cpp:100] Creating Layer L1_b5_cbr2_bn
I0821 06:49:15.068397 32405 net.cpp:434] L1_b5_cbr2_bn <- L1_b5_cbr2_conv_top
I0821 06:49:15.068408 32405 net.cpp:408] L1_b5_cbr2_bn -> L1_b5_cbr2_bn_top
I0821 06:49:15.068640 32405 net.cpp:150] Setting up L1_b5_cbr2_bn
I0821 06:49:15.068653 32405 net.cpp:157] Top shape: 125 16 32 32 (2048000)
I0821 06:49:15.068658 32405 net.cpp:165] Memory required for data: 460289500
I0821 06:49:15.068668 32405 layer_factory.hpp:77] Creating layer L1_b5_cbr2_scale
I0821 06:49:15.068677 32405 net.cpp:100] Creating Layer L1_b5_cbr2_scale
I0821 06:49:15.068683 32405 net.cpp:434] L1_b5_cbr2_scale <- L1_b5_cbr2_bn_top
I0821 06:49:15.068693 32405 net.cpp:395] L1_b5_cbr2_scale -> L1_b5_cbr2_bn_top (in-place)
I0821 06:49:15.068745 32405 layer_factory.hpp:77] Creating layer L1_b5_cbr2_scale
I0821 06:49:15.068888 32405 net.cpp:150] Setting up L1_b5_cbr2_scale
I0821 06:49:15.068907 32405 net.cpp:157] Top shape: 125 16 32 32 (2048000)
I0821 06:49:15.068912 32405 net.cpp:165] Memory required for data: 468481500
I0821 06:49:15.068920 32405 layer_factory.hpp:77] Creating layer L1_b5_sum_eltwise
I0821 06:49:15.068929 32405 net.cpp:100] Creating Layer L1_b5_sum_eltwise
I0821 06:49:15.068935 32405 net.cpp:434] L1_b5_sum_eltwise <- L1_b5_cbr2_bn_top
I0821 06:49:15.068943 32405 net.cpp:434] L1_b5_sum_eltwise <- L1_b4_sum_eltwise_top_L1_b4_relu_0_split_1
I0821 06:49:15.068950 32405 net.cpp:408] L1_b5_sum_eltwise -> L1_b5_sum_eltwise_top
I0821 06:49:15.068982 32405 net.cpp:150] Setting up L1_b5_sum_eltwise
I0821 06:49:15.068994 32405 net.cpp:157] Top shape: 125 16 32 32 (2048000)
I0821 06:49:15.069000 32405 net.cpp:165] Memory required for data: 476673500
I0821 06:49:15.069005 32405 layer_factory.hpp:77] Creating layer L1_b5_relu
I0821 06:49:15.069015 32405 net.cpp:100] Creating Layer L1_b5_relu
I0821 06:49:15.069020 32405 net.cpp:434] L1_b5_relu <- L1_b5_sum_eltwise_top
I0821 06:49:15.069027 32405 net.cpp:395] L1_b5_relu -> L1_b5_sum_eltwise_top (in-place)
I0821 06:49:15.069036 32405 net.cpp:150] Setting up L1_b5_relu
I0821 06:49:15.069043 32405 net.cpp:157] Top shape: 125 16 32 32 (2048000)
I0821 06:49:15.069048 32405 net.cpp:165] Memory required for data: 484865500
I0821 06:49:15.069052 32405 layer_factory.hpp:77] Creating layer L1_b5_sum_eltwise_top_L1_b5_relu_0_split
I0821 06:49:15.069059 32405 net.cpp:100] Creating Layer L1_b5_sum_eltwise_top_L1_b5_relu_0_split
I0821 06:49:15.069064 32405 net.cpp:434] L1_b5_sum_eltwise_top_L1_b5_relu_0_split <- L1_b5_sum_eltwise_top
I0821 06:49:15.069074 32405 net.cpp:408] L1_b5_sum_eltwise_top_L1_b5_relu_0_split -> L1_b5_sum_eltwise_top_L1_b5_relu_0_split_0
I0821 06:49:15.069084 32405 net.cpp:408] L1_b5_sum_eltwise_top_L1_b5_relu_0_split -> L1_b5_sum_eltwise_top_L1_b5_relu_0_split_1
I0821 06:49:15.069125 32405 net.cpp:150] Setting up L1_b5_sum_eltwise_top_L1_b5_relu_0_split
I0821 06:49:15.069139 32405 net.cpp:157] Top shape: 125 16 32 32 (2048000)
I0821 06:49:15.069146 32405 net.cpp:157] Top shape: 125 16 32 32 (2048000)
I0821 06:49:15.069151 32405 net.cpp:165] Memory required for data: 501249500
I0821 06:49:15.069156 32405 layer_factory.hpp:77] Creating layer L1_b6_cbr1_conv
I0821 06:49:15.069166 32405 net.cpp:100] Creating Layer L1_b6_cbr1_conv
I0821 06:49:15.069172 32405 net.cpp:434] L1_b6_cbr1_conv <- L1_b5_sum_eltwise_top_L1_b5_relu_0_split_0
I0821 06:49:15.069181 32405 net.cpp:408] L1_b6_cbr1_conv -> L1_b6_cbr1_conv_top
I0821 06:49:15.069490 32405 net.cpp:150] Setting up L1_b6_cbr1_conv
I0821 06:49:15.069504 32405 net.cpp:157] Top shape: 125 16 32 32 (2048000)
I0821 06:49:15.069509 32405 net.cpp:165] Memory required for data: 509441500
I0821 06:49:15.069525 32405 layer_factory.hpp:77] Creating layer L1_b6_cbr1_bn
I0821 06:49:15.069536 32405 net.cpp:100] Creating Layer L1_b6_cbr1_bn
I0821 06:49:15.069542 32405 net.cpp:434] L1_b6_cbr1_bn <- L1_b6_cbr1_conv_top
I0821 06:49:15.069550 32405 net.cpp:408] L1_b6_cbr1_bn -> L1_b6_cbr1_bn_top
I0821 06:49:15.069788 32405 net.cpp:150] Setting up L1_b6_cbr1_bn
I0821 06:49:15.069802 32405 net.cpp:157] Top shape: 125 16 32 32 (2048000)
I0821 06:49:15.069806 32405 net.cpp:165] Memory required for data: 517633500
I0821 06:49:15.069816 32405 layer_factory.hpp:77] Creating layer L1_b6_cbr1_scale
I0821 06:49:15.069825 32405 net.cpp:100] Creating Layer L1_b6_cbr1_scale
I0821 06:49:15.069831 32405 net.cpp:434] L1_b6_cbr1_scale <- L1_b6_cbr1_bn_top
I0821 06:49:15.069841 32405 net.cpp:395] L1_b6_cbr1_scale -> L1_b6_cbr1_bn_top (in-place)
I0821 06:49:15.069900 32405 layer_factory.hpp:77] Creating layer L1_b6_cbr1_scale
I0821 06:49:15.070050 32405 net.cpp:150] Setting up L1_b6_cbr1_scale
I0821 06:49:15.070066 32405 net.cpp:157] Top shape: 125 16 32 32 (2048000)
I0821 06:49:15.070071 32405 net.cpp:165] Memory required for data: 525825500
I0821 06:49:15.070080 32405 layer_factory.hpp:77] Creating layer L1_b6_cbr1_relu
I0821 06:49:15.070088 32405 net.cpp:100] Creating Layer L1_b6_cbr1_relu
I0821 06:49:15.070093 32405 net.cpp:434] L1_b6_cbr1_relu <- L1_b6_cbr1_bn_top
I0821 06:49:15.070101 32405 net.cpp:395] L1_b6_cbr1_relu -> L1_b6_cbr1_bn_top (in-place)
I0821 06:49:15.070111 32405 net.cpp:150] Setting up L1_b6_cbr1_relu
I0821 06:49:15.070117 32405 net.cpp:157] Top shape: 125 16 32 32 (2048000)
I0821 06:49:15.070122 32405 net.cpp:165] Memory required for data: 534017500
I0821 06:49:15.070127 32405 layer_factory.hpp:77] Creating layer L1_b6_cbr2_conv
I0821 06:49:15.070140 32405 net.cpp:100] Creating Layer L1_b6_cbr2_conv
I0821 06:49:15.070147 32405 net.cpp:434] L1_b6_cbr2_conv <- L1_b6_cbr1_bn_top
I0821 06:49:15.070157 32405 net.cpp:408] L1_b6_cbr2_conv -> L1_b6_cbr2_conv_top
I0821 06:49:15.070472 32405 net.cpp:150] Setting up L1_b6_cbr2_conv
I0821 06:49:15.070485 32405 net.cpp:157] Top shape: 125 16 32 32 (2048000)
I0821 06:49:15.070490 32405 net.cpp:165] Memory required for data: 542209500
I0821 06:49:15.070499 32405 layer_factory.hpp:77] Creating layer L1_b6_cbr2_bn
I0821 06:49:15.070510 32405 net.cpp:100] Creating Layer L1_b6_cbr2_bn
I0821 06:49:15.070518 32405 net.cpp:434] L1_b6_cbr2_bn <- L1_b6_cbr2_conv_top
I0821 06:49:15.070528 32405 net.cpp:408] L1_b6_cbr2_bn -> L1_b6_cbr2_bn_top
I0821 06:49:15.070762 32405 net.cpp:150] Setting up L1_b6_cbr2_bn
I0821 06:49:15.070775 32405 net.cpp:157] Top shape: 125 16 32 32 (2048000)
I0821 06:49:15.070780 32405 net.cpp:165] Memory required for data: 550401500
I0821 06:49:15.070791 32405 layer_factory.hpp:77] Creating layer L1_b6_cbr2_scale
I0821 06:49:15.070798 32405 net.cpp:100] Creating Layer L1_b6_cbr2_scale
I0821 06:49:15.070804 32405 net.cpp:434] L1_b6_cbr2_scale <- L1_b6_cbr2_bn_top
I0821 06:49:15.070812 32405 net.cpp:395] L1_b6_cbr2_scale -> L1_b6_cbr2_bn_top (in-place)
I0821 06:49:15.070874 32405 layer_factory.hpp:77] Creating layer L1_b6_cbr2_scale
I0821 06:49:15.071015 32405 net.cpp:150] Setting up L1_b6_cbr2_scale
I0821 06:49:15.071028 32405 net.cpp:157] Top shape: 125 16 32 32 (2048000)
I0821 06:49:15.071033 32405 net.cpp:165] Memory required for data: 558593500
I0821 06:49:15.071043 32405 layer_factory.hpp:77] Creating layer L1_b6_sum_eltwise
I0821 06:49:15.071061 32405 net.cpp:100] Creating Layer L1_b6_sum_eltwise
I0821 06:49:15.071068 32405 net.cpp:434] L1_b6_sum_eltwise <- L1_b6_cbr2_bn_top
I0821 06:49:15.071074 32405 net.cpp:434] L1_b6_sum_eltwise <- L1_b5_sum_eltwise_top_L1_b5_relu_0_split_1
I0821 06:49:15.071082 32405 net.cpp:408] L1_b6_sum_eltwise -> L1_b6_sum_eltwise_top
I0821 06:49:15.071120 32405 net.cpp:150] Setting up L1_b6_sum_eltwise
I0821 06:49:15.071131 32405 net.cpp:157] Top shape: 125 16 32 32 (2048000)
I0821 06:49:15.071136 32405 net.cpp:165] Memory required for data: 566785500
I0821 06:49:15.071141 32405 layer_factory.hpp:77] Creating layer L1_b6_relu
I0821 06:49:15.071157 32405 net.cpp:100] Creating Layer L1_b6_relu
I0821 06:49:15.071163 32405 net.cpp:434] L1_b6_relu <- L1_b6_sum_eltwise_top
I0821 06:49:15.071173 32405 net.cpp:395] L1_b6_relu -> L1_b6_sum_eltwise_top (in-place)
I0821 06:49:15.071183 32405 net.cpp:150] Setting up L1_b6_relu
I0821 06:49:15.071190 32405 net.cpp:157] Top shape: 125 16 32 32 (2048000)
I0821 06:49:15.071194 32405 net.cpp:165] Memory required for data: 574977500
I0821 06:49:15.071199 32405 layer_factory.hpp:77] Creating layer L1_b6_sum_eltwise_top_L1_b6_relu_0_split
I0821 06:49:15.071207 32405 net.cpp:100] Creating Layer L1_b6_sum_eltwise_top_L1_b6_relu_0_split
I0821 06:49:15.071211 32405 net.cpp:434] L1_b6_sum_eltwise_top_L1_b6_relu_0_split <- L1_b6_sum_eltwise_top
I0821 06:49:15.071218 32405 net.cpp:408] L1_b6_sum_eltwise_top_L1_b6_relu_0_split -> L1_b6_sum_eltwise_top_L1_b6_relu_0_split_0
I0821 06:49:15.071228 32405 net.cpp:408] L1_b6_sum_eltwise_top_L1_b6_relu_0_split -> L1_b6_sum_eltwise_top_L1_b6_relu_0_split_1
I0821 06:49:15.071274 32405 net.cpp:150] Setting up L1_b6_sum_eltwise_top_L1_b6_relu_0_split
I0821 06:49:15.071285 32405 net.cpp:157] Top shape: 125 16 32 32 (2048000)
I0821 06:49:15.071291 32405 net.cpp:157] Top shape: 125 16 32 32 (2048000)
I0821 06:49:15.071296 32405 net.cpp:165] Memory required for data: 591361500
I0821 06:49:15.071301 32405 layer_factory.hpp:77] Creating layer L1_b7_cbr1_conv
I0821 06:49:15.071312 32405 net.cpp:100] Creating Layer L1_b7_cbr1_conv
I0821 06:49:15.071318 32405 net.cpp:434] L1_b7_cbr1_conv <- L1_b6_sum_eltwise_top_L1_b6_relu_0_split_0
I0821 06:49:15.071329 32405 net.cpp:408] L1_b7_cbr1_conv -> L1_b7_cbr1_conv_top
I0821 06:49:15.071642 32405 net.cpp:150] Setting up L1_b7_cbr1_conv
I0821 06:49:15.071656 32405 net.cpp:157] Top shape: 125 16 32 32 (2048000)
I0821 06:49:15.071661 32405 net.cpp:165] Memory required for data: 599553500
I0821 06:49:15.071671 32405 layer_factory.hpp:77] Creating layer L1_b7_cbr1_bn
I0821 06:49:15.071678 32405 net.cpp:100] Creating Layer L1_b7_cbr1_bn
I0821 06:49:15.071684 32405 net.cpp:434] L1_b7_cbr1_bn <- L1_b7_cbr1_conv_top
I0821 06:49:15.071697 32405 net.cpp:408] L1_b7_cbr1_bn -> L1_b7_cbr1_bn_top
I0821 06:49:15.071947 32405 net.cpp:150] Setting up L1_b7_cbr1_bn
I0821 06:49:15.071961 32405 net.cpp:157] Top shape: 125 16 32 32 (2048000)
I0821 06:49:15.071966 32405 net.cpp:165] Memory required for data: 607745500
I0821 06:49:15.071976 32405 layer_factory.hpp:77] Creating layer L1_b7_cbr1_scale
I0821 06:49:15.071988 32405 net.cpp:100] Creating Layer L1_b7_cbr1_scale
I0821 06:49:15.071995 32405 net.cpp:434] L1_b7_cbr1_scale <- L1_b7_cbr1_bn_top
I0821 06:49:15.072002 32405 net.cpp:395] L1_b7_cbr1_scale -> L1_b7_cbr1_bn_top (in-place)
I0821 06:49:15.072054 32405 layer_factory.hpp:77] Creating layer L1_b7_cbr1_scale
I0821 06:49:15.072193 32405 net.cpp:150] Setting up L1_b7_cbr1_scale
I0821 06:49:15.072206 32405 net.cpp:157] Top shape: 125 16 32 32 (2048000)
I0821 06:49:15.072211 32405 net.cpp:165] Memory required for data: 615937500
I0821 06:49:15.072244 32405 layer_factory.hpp:77] Creating layer L1_b7_cbr1_relu
I0821 06:49:15.072257 32405 net.cpp:100] Creating Layer L1_b7_cbr1_relu
I0821 06:49:15.072263 32405 net.cpp:434] L1_b7_cbr1_relu <- L1_b7_cbr1_bn_top
I0821 06:49:15.072273 32405 net.cpp:395] L1_b7_cbr1_relu -> L1_b7_cbr1_bn_top (in-place)
I0821 06:49:15.072283 32405 net.cpp:150] Setting up L1_b7_cbr1_relu
I0821 06:49:15.072290 32405 net.cpp:157] Top shape: 125 16 32 32 (2048000)
I0821 06:49:15.072294 32405 net.cpp:165] Memory required for data: 624129500
I0821 06:49:15.072301 32405 layer_factory.hpp:77] Creating layer L1_b7_cbr2_conv
I0821 06:49:15.072316 32405 net.cpp:100] Creating Layer L1_b7_cbr2_conv
I0821 06:49:15.072322 32405 net.cpp:434] L1_b7_cbr2_conv <- L1_b7_cbr1_bn_top
I0821 06:49:15.072332 32405 net.cpp:408] L1_b7_cbr2_conv -> L1_b7_cbr2_conv_top
I0821 06:49:15.072644 32405 net.cpp:150] Setting up L1_b7_cbr2_conv
I0821 06:49:15.072659 32405 net.cpp:157] Top shape: 125 16 32 32 (2048000)
I0821 06:49:15.072664 32405 net.cpp:165] Memory required for data: 632321500
I0821 06:49:15.072686 32405 layer_factory.hpp:77] Creating layer L1_b7_cbr2_bn
I0821 06:49:15.072696 32405 net.cpp:100] Creating Layer L1_b7_cbr2_bn
I0821 06:49:15.072702 32405 net.cpp:434] L1_b7_cbr2_bn <- L1_b7_cbr2_conv_top
I0821 06:49:15.072710 32405 net.cpp:408] L1_b7_cbr2_bn -> L1_b7_cbr2_bn_top
I0821 06:49:15.072963 32405 net.cpp:150] Setting up L1_b7_cbr2_bn
I0821 06:49:15.072978 32405 net.cpp:157] Top shape: 125 16 32 32 (2048000)
I0821 06:49:15.072983 32405 net.cpp:165] Memory required for data: 640513500
I0821 06:49:15.072993 32405 layer_factory.hpp:77] Creating layer L1_b7_cbr2_scale
I0821 06:49:15.073004 32405 net.cpp:100] Creating Layer L1_b7_cbr2_scale
I0821 06:49:15.073010 32405 net.cpp:434] L1_b7_cbr2_scale <- L1_b7_cbr2_bn_top
I0821 06:49:15.073019 32405 net.cpp:395] L1_b7_cbr2_scale -> L1_b7_cbr2_bn_top (in-place)
I0821 06:49:15.073073 32405 layer_factory.hpp:77] Creating layer L1_b7_cbr2_scale
I0821 06:49:15.073215 32405 net.cpp:150] Setting up L1_b7_cbr2_scale
I0821 06:49:15.073227 32405 net.cpp:157] Top shape: 125 16 32 32 (2048000)
I0821 06:49:15.073232 32405 net.cpp:165] Memory required for data: 648705500
I0821 06:49:15.073241 32405 layer_factory.hpp:77] Creating layer L1_b7_sum_eltwise
I0821 06:49:15.073249 32405 net.cpp:100] Creating Layer L1_b7_sum_eltwise
I0821 06:49:15.073256 32405 net.cpp:434] L1_b7_sum_eltwise <- L1_b7_cbr2_bn_top
I0821 06:49:15.073262 32405 net.cpp:434] L1_b7_sum_eltwise <- L1_b6_sum_eltwise_top_L1_b6_relu_0_split_1
I0821 06:49:15.073276 32405 net.cpp:408] L1_b7_sum_eltwise -> L1_b7_sum_eltwise_top
I0821 06:49:15.073307 32405 net.cpp:150] Setting up L1_b7_sum_eltwise
I0821 06:49:15.073321 32405 net.cpp:157] Top shape: 125 16 32 32 (2048000)
I0821 06:49:15.073328 32405 net.cpp:165] Memory required for data: 656897500
I0821 06:49:15.073333 32405 layer_factory.hpp:77] Creating layer L1_b7_relu
I0821 06:49:15.073340 32405 net.cpp:100] Creating Layer L1_b7_relu
I0821 06:49:15.073345 32405 net.cpp:434] L1_b7_relu <- L1_b7_sum_eltwise_top
I0821 06:49:15.073352 32405 net.cpp:395] L1_b7_relu -> L1_b7_sum_eltwise_top (in-place)
I0821 06:49:15.073361 32405 net.cpp:150] Setting up L1_b7_relu
I0821 06:49:15.073369 32405 net.cpp:157] Top shape: 125 16 32 32 (2048000)
I0821 06:49:15.073374 32405 net.cpp:165] Memory required for data: 665089500
I0821 06:49:15.073377 32405 layer_factory.hpp:77] Creating layer L1_b7_sum_eltwise_top_L1_b7_relu_0_split
I0821 06:49:15.073387 32405 net.cpp:100] Creating Layer L1_b7_sum_eltwise_top_L1_b7_relu_0_split
I0821 06:49:15.073393 32405 net.cpp:434] L1_b7_sum_eltwise_top_L1_b7_relu_0_split <- L1_b7_sum_eltwise_top
I0821 06:49:15.073400 32405 net.cpp:408] L1_b7_sum_eltwise_top_L1_b7_relu_0_split -> L1_b7_sum_eltwise_top_L1_b7_relu_0_split_0
I0821 06:49:15.073410 32405 net.cpp:408] L1_b7_sum_eltwise_top_L1_b7_relu_0_split -> L1_b7_sum_eltwise_top_L1_b7_relu_0_split_1
I0821 06:49:15.073456 32405 net.cpp:150] Setting up L1_b7_sum_eltwise_top_L1_b7_relu_0_split
I0821 06:49:15.073467 32405 net.cpp:157] Top shape: 125 16 32 32 (2048000)
I0821 06:49:15.073472 32405 net.cpp:157] Top shape: 125 16 32 32 (2048000)
I0821 06:49:15.073477 32405 net.cpp:165] Memory required for data: 681473500
I0821 06:49:15.073482 32405 layer_factory.hpp:77] Creating layer L1_b8_cbr1_conv
I0821 06:49:15.073493 32405 net.cpp:100] Creating Layer L1_b8_cbr1_conv
I0821 06:49:15.073499 32405 net.cpp:434] L1_b8_cbr1_conv <- L1_b7_sum_eltwise_top_L1_b7_relu_0_split_0
I0821 06:49:15.073510 32405 net.cpp:408] L1_b8_cbr1_conv -> L1_b8_cbr1_conv_top
I0821 06:49:15.073827 32405 net.cpp:150] Setting up L1_b8_cbr1_conv
I0821 06:49:15.073840 32405 net.cpp:157] Top shape: 125 16 32 32 (2048000)
I0821 06:49:15.073845 32405 net.cpp:165] Memory required for data: 689665500
I0821 06:49:15.073854 32405 layer_factory.hpp:77] Creating layer L1_b8_cbr1_bn
I0821 06:49:15.073868 32405 net.cpp:100] Creating Layer L1_b8_cbr1_bn
I0821 06:49:15.073875 32405 net.cpp:434] L1_b8_cbr1_bn <- L1_b8_cbr1_conv_top
I0821 06:49:15.073884 32405 net.cpp:408] L1_b8_cbr1_bn -> L1_b8_cbr1_bn_top
I0821 06:49:15.074138 32405 net.cpp:150] Setting up L1_b8_cbr1_bn
I0821 06:49:15.074151 32405 net.cpp:157] Top shape: 125 16 32 32 (2048000)
I0821 06:49:15.074156 32405 net.cpp:165] Memory required for data: 697857500
I0821 06:49:15.074167 32405 layer_factory.hpp:77] Creating layer L1_b8_cbr1_scale
I0821 06:49:15.074182 32405 net.cpp:100] Creating Layer L1_b8_cbr1_scale
I0821 06:49:15.074187 32405 net.cpp:434] L1_b8_cbr1_scale <- L1_b8_cbr1_bn_top
I0821 06:49:15.074195 32405 net.cpp:395] L1_b8_cbr1_scale -> L1_b8_cbr1_bn_top (in-place)
I0821 06:49:15.074251 32405 layer_factory.hpp:77] Creating layer L1_b8_cbr1_scale
I0821 06:49:15.074395 32405 net.cpp:150] Setting up L1_b8_cbr1_scale
I0821 06:49:15.074409 32405 net.cpp:157] Top shape: 125 16 32 32 (2048000)
I0821 06:49:15.074414 32405 net.cpp:165] Memory required for data: 706049500
I0821 06:49:15.074422 32405 layer_factory.hpp:77] Creating layer L1_b8_cbr1_relu
I0821 06:49:15.074430 32405 net.cpp:100] Creating Layer L1_b8_cbr1_relu
I0821 06:49:15.074436 32405 net.cpp:434] L1_b8_cbr1_relu <- L1_b8_cbr1_bn_top
I0821 06:49:15.074446 32405 net.cpp:395] L1_b8_cbr1_relu -> L1_b8_cbr1_bn_top (in-place)
I0821 06:49:15.074456 32405 net.cpp:150] Setting up L1_b8_cbr1_relu
I0821 06:49:15.074463 32405 net.cpp:157] Top shape: 125 16 32 32 (2048000)
I0821 06:49:15.074467 32405 net.cpp:165] Memory required for data: 714241500
I0821 06:49:15.074472 32405 layer_factory.hpp:77] Creating layer L1_b8_cbr2_conv
I0821 06:49:15.074486 32405 net.cpp:100] Creating Layer L1_b8_cbr2_conv
I0821 06:49:15.074492 32405 net.cpp:434] L1_b8_cbr2_conv <- L1_b8_cbr1_bn_top
I0821 06:49:15.074501 32405 net.cpp:408] L1_b8_cbr2_conv -> L1_b8_cbr2_conv_top
I0821 06:49:15.074848 32405 net.cpp:150] Setting up L1_b8_cbr2_conv
I0821 06:49:15.074869 32405 net.cpp:157] Top shape: 125 16 32 32 (2048000)
I0821 06:49:15.074875 32405 net.cpp:165] Memory required for data: 722433500
I0821 06:49:15.074884 32405 layer_factory.hpp:77] Creating layer L1_b8_cbr2_bn
I0821 06:49:15.074897 32405 net.cpp:100] Creating Layer L1_b8_cbr2_bn
I0821 06:49:15.074903 32405 net.cpp:434] L1_b8_cbr2_bn <- L1_b8_cbr2_conv_top
I0821 06:49:15.074910 32405 net.cpp:408] L1_b8_cbr2_bn -> L1_b8_cbr2_bn_top
I0821 06:49:15.075168 32405 net.cpp:150] Setting up L1_b8_cbr2_bn
I0821 06:49:15.075181 32405 net.cpp:157] Top shape: 125 16 32 32 (2048000)
I0821 06:49:15.075186 32405 net.cpp:165] Memory required for data: 730625500
I0821 06:49:15.075197 32405 layer_factory.hpp:77] Creating layer L1_b8_cbr2_scale
I0821 06:49:15.075206 32405 net.cpp:100] Creating Layer L1_b8_cbr2_scale
I0821 06:49:15.075212 32405 net.cpp:434] L1_b8_cbr2_scale <- L1_b8_cbr2_bn_top
I0821 06:49:15.075223 32405 net.cpp:395] L1_b8_cbr2_scale -> L1_b8_cbr2_bn_top (in-place)
I0821 06:49:15.075276 32405 layer_factory.hpp:77] Creating layer L1_b8_cbr2_scale
I0821 06:49:15.075417 32405 net.cpp:150] Setting up L1_b8_cbr2_scale
I0821 06:49:15.075430 32405 net.cpp:157] Top shape: 125 16 32 32 (2048000)
I0821 06:49:15.075435 32405 net.cpp:165] Memory required for data: 738817500
I0821 06:49:15.075443 32405 layer_factory.hpp:77] Creating layer L1_b8_sum_eltwise
I0821 06:49:15.075453 32405 net.cpp:100] Creating Layer L1_b8_sum_eltwise
I0821 06:49:15.075459 32405 net.cpp:434] L1_b8_sum_eltwise <- L1_b8_cbr2_bn_top
I0821 06:49:15.075465 32405 net.cpp:434] L1_b8_sum_eltwise <- L1_b7_sum_eltwise_top_L1_b7_relu_0_split_1
I0821 06:49:15.075475 32405 net.cpp:408] L1_b8_sum_eltwise -> L1_b8_sum_eltwise_top
I0821 06:49:15.075507 32405 net.cpp:150] Setting up L1_b8_sum_eltwise
I0821 06:49:15.075520 32405 net.cpp:157] Top shape: 125 16 32 32 (2048000)
I0821 06:49:15.075525 32405 net.cpp:165] Memory required for data: 747009500
I0821 06:49:15.075529 32405 layer_factory.hpp:77] Creating layer L1_b8_relu
I0821 06:49:15.075537 32405 net.cpp:100] Creating Layer L1_b8_relu
I0821 06:49:15.075542 32405 net.cpp:434] L1_b8_relu <- L1_b8_sum_eltwise_top
I0821 06:49:15.075549 32405 net.cpp:395] L1_b8_relu -> L1_b8_sum_eltwise_top (in-place)
I0821 06:49:15.075558 32405 net.cpp:150] Setting up L1_b8_relu
I0821 06:49:15.075565 32405 net.cpp:157] Top shape: 125 16 32 32 (2048000)
I0821 06:49:15.075577 32405 net.cpp:165] Memory required for data: 755201500
I0821 06:49:15.075582 32405 layer_factory.hpp:77] Creating layer L1_b8_sum_eltwise_top_L1_b8_relu_0_split
I0821 06:49:15.075594 32405 net.cpp:100] Creating Layer L1_b8_sum_eltwise_top_L1_b8_relu_0_split
I0821 06:49:15.075600 32405 net.cpp:434] L1_b8_sum_eltwise_top_L1_b8_relu_0_split <- L1_b8_sum_eltwise_top
I0821 06:49:15.075608 32405 net.cpp:408] L1_b8_sum_eltwise_top_L1_b8_relu_0_split -> L1_b8_sum_eltwise_top_L1_b8_relu_0_split_0
I0821 06:49:15.075618 32405 net.cpp:408] L1_b8_sum_eltwise_top_L1_b8_relu_0_split -> L1_b8_sum_eltwise_top_L1_b8_relu_0_split_1
I0821 06:49:15.075664 32405 net.cpp:150] Setting up L1_b8_sum_eltwise_top_L1_b8_relu_0_split
I0821 06:49:15.075675 32405 net.cpp:157] Top shape: 125 16 32 32 (2048000)
I0821 06:49:15.075681 32405 net.cpp:157] Top shape: 125 16 32 32 (2048000)
I0821 06:49:15.075686 32405 net.cpp:165] Memory required for data: 771585500
I0821 06:49:15.075691 32405 layer_factory.hpp:77] Creating layer L1_b9_cbr1_conv
I0821 06:49:15.075702 32405 net.cpp:100] Creating Layer L1_b9_cbr1_conv
I0821 06:49:15.075708 32405 net.cpp:434] L1_b9_cbr1_conv <- L1_b8_sum_eltwise_top_L1_b8_relu_0_split_0
I0821 06:49:15.075721 32405 net.cpp:408] L1_b9_cbr1_conv -> L1_b9_cbr1_conv_top
I0821 06:49:15.076051 32405 net.cpp:150] Setting up L1_b9_cbr1_conv
I0821 06:49:15.076066 32405 net.cpp:157] Top shape: 125 16 32 32 (2048000)
I0821 06:49:15.076071 32405 net.cpp:165] Memory required for data: 779777500
I0821 06:49:15.076081 32405 layer_factory.hpp:77] Creating layer L1_b9_cbr1_bn
I0821 06:49:15.076092 32405 net.cpp:100] Creating Layer L1_b9_cbr1_bn
I0821 06:49:15.076098 32405 net.cpp:434] L1_b9_cbr1_bn <- L1_b9_cbr1_conv_top
I0821 06:49:15.076107 32405 net.cpp:408] L1_b9_cbr1_bn -> L1_b9_cbr1_bn_top
I0821 06:49:15.076350 32405 net.cpp:150] Setting up L1_b9_cbr1_bn
I0821 06:49:15.076362 32405 net.cpp:157] Top shape: 125 16 32 32 (2048000)
I0821 06:49:15.076367 32405 net.cpp:165] Memory required for data: 787969500
I0821 06:49:15.076377 32405 layer_factory.hpp:77] Creating layer L1_b9_cbr1_scale
I0821 06:49:15.076386 32405 net.cpp:100] Creating Layer L1_b9_cbr1_scale
I0821 06:49:15.076392 32405 net.cpp:434] L1_b9_cbr1_scale <- L1_b9_cbr1_bn_top
I0821 06:49:15.076400 32405 net.cpp:395] L1_b9_cbr1_scale -> L1_b9_cbr1_bn_top (in-place)
I0821 06:49:15.076454 32405 layer_factory.hpp:77] Creating layer L1_b9_cbr1_scale
I0821 06:49:15.076598 32405 net.cpp:150] Setting up L1_b9_cbr1_scale
I0821 06:49:15.076611 32405 net.cpp:157] Top shape: 125 16 32 32 (2048000)
I0821 06:49:15.076617 32405 net.cpp:165] Memory required for data: 796161500
I0821 06:49:15.076625 32405 layer_factory.hpp:77] Creating layer L1_b9_cbr1_relu
I0821 06:49:15.076633 32405 net.cpp:100] Creating Layer L1_b9_cbr1_relu
I0821 06:49:15.076638 32405 net.cpp:434] L1_b9_cbr1_relu <- L1_b9_cbr1_bn_top
I0821 06:49:15.076649 32405 net.cpp:395] L1_b9_cbr1_relu -> L1_b9_cbr1_bn_top (in-place)
I0821 06:49:15.076658 32405 net.cpp:150] Setting up L1_b9_cbr1_relu
I0821 06:49:15.076665 32405 net.cpp:157] Top shape: 125 16 32 32 (2048000)
I0821 06:49:15.076670 32405 net.cpp:165] Memory required for data: 804353500
I0821 06:49:15.076675 32405 layer_factory.hpp:77] Creating layer L1_b9_cbr2_conv
I0821 06:49:15.076685 32405 net.cpp:100] Creating Layer L1_b9_cbr2_conv
I0821 06:49:15.076691 32405 net.cpp:434] L1_b9_cbr2_conv <- L1_b9_cbr1_bn_top
I0821 06:49:15.076702 32405 net.cpp:408] L1_b9_cbr2_conv -> L1_b9_cbr2_conv_top
I0821 06:49:15.077031 32405 net.cpp:150] Setting up L1_b9_cbr2_conv
I0821 06:49:15.077045 32405 net.cpp:157] Top shape: 125 16 32 32 (2048000)
I0821 06:49:15.077050 32405 net.cpp:165] Memory required for data: 812545500
I0821 06:49:15.077059 32405 layer_factory.hpp:77] Creating layer L1_b9_cbr2_bn
I0821 06:49:15.077067 32405 net.cpp:100] Creating Layer L1_b9_cbr2_bn
I0821 06:49:15.077074 32405 net.cpp:434] L1_b9_cbr2_bn <- L1_b9_cbr2_conv_top
I0821 06:49:15.077085 32405 net.cpp:408] L1_b9_cbr2_bn -> L1_b9_cbr2_bn_top
I0821 06:49:15.077337 32405 net.cpp:150] Setting up L1_b9_cbr2_bn
I0821 06:49:15.077353 32405 net.cpp:157] Top shape: 125 16 32 32 (2048000)
I0821 06:49:15.077358 32405 net.cpp:165] Memory required for data: 820737500
I0821 06:49:15.077385 32405 layer_factory.hpp:77] Creating layer L1_b9_cbr2_scale
I0821 06:49:15.077397 32405 net.cpp:100] Creating Layer L1_b9_cbr2_scale
I0821 06:49:15.077404 32405 net.cpp:434] L1_b9_cbr2_scale <- L1_b9_cbr2_bn_top
I0821 06:49:15.077411 32405 net.cpp:395] L1_b9_cbr2_scale -> L1_b9_cbr2_bn_top (in-place)
I0821 06:49:15.077466 32405 layer_factory.hpp:77] Creating layer L1_b9_cbr2_scale
I0821 06:49:15.077605 32405 net.cpp:150] Setting up L1_b9_cbr2_scale
I0821 06:49:15.077616 32405 net.cpp:157] Top shape: 125 16 32 32 (2048000)
I0821 06:49:15.077621 32405 net.cpp:165] Memory required for data: 828929500
I0821 06:49:15.077630 32405 layer_factory.hpp:77] Creating layer L1_b9_sum_eltwise
I0821 06:49:15.077639 32405 net.cpp:100] Creating Layer L1_b9_sum_eltwise
I0821 06:49:15.077646 32405 net.cpp:434] L1_b9_sum_eltwise <- L1_b9_cbr2_bn_top
I0821 06:49:15.077651 32405 net.cpp:434] L1_b9_sum_eltwise <- L1_b8_sum_eltwise_top_L1_b8_relu_0_split_1
I0821 06:49:15.077662 32405 net.cpp:408] L1_b9_sum_eltwise -> L1_b9_sum_eltwise_top
I0821 06:49:15.077693 32405 net.cpp:150] Setting up L1_b9_sum_eltwise
I0821 06:49:15.077702 32405 net.cpp:157] Top shape: 125 16 32 32 (2048000)
I0821 06:49:15.077708 32405 net.cpp:165] Memory required for data: 837121500
I0821 06:49:15.077713 32405 layer_factory.hpp:77] Creating layer L1_b9_relu
I0821 06:49:15.077720 32405 net.cpp:100] Creating Layer L1_b9_relu
I0821 06:49:15.077725 32405 net.cpp:434] L1_b9_relu <- L1_b9_sum_eltwise_top
I0821 06:49:15.077735 32405 net.cpp:395] L1_b9_relu -> L1_b9_sum_eltwise_top (in-place)
I0821 06:49:15.077745 32405 net.cpp:150] Setting up L1_b9_relu
I0821 06:49:15.077751 32405 net.cpp:157] Top shape: 125 16 32 32 (2048000)
I0821 06:49:15.077756 32405 net.cpp:165] Memory required for data: 845313500
I0821 06:49:15.077761 32405 layer_factory.hpp:77] Creating layer L1_b9_sum_eltwise_top_L1_b9_relu_0_split
I0821 06:49:15.077767 32405 net.cpp:100] Creating Layer L1_b9_sum_eltwise_top_L1_b9_relu_0_split
I0821 06:49:15.077774 32405 net.cpp:434] L1_b9_sum_eltwise_top_L1_b9_relu_0_split <- L1_b9_sum_eltwise_top
I0821 06:49:15.077785 32405 net.cpp:408] L1_b9_sum_eltwise_top_L1_b9_relu_0_split -> L1_b9_sum_eltwise_top_L1_b9_relu_0_split_0
I0821 06:49:15.077795 32405 net.cpp:408] L1_b9_sum_eltwise_top_L1_b9_relu_0_split -> L1_b9_sum_eltwise_top_L1_b9_relu_0_split_1
I0821 06:49:15.077838 32405 net.cpp:150] Setting up L1_b9_sum_eltwise_top_L1_b9_relu_0_split
I0821 06:49:15.077850 32405 net.cpp:157] Top shape: 125 16 32 32 (2048000)
I0821 06:49:15.077857 32405 net.cpp:157] Top shape: 125 16 32 32 (2048000)
I0821 06:49:15.077867 32405 net.cpp:165] Memory required for data: 861697500
I0821 06:49:15.077872 32405 layer_factory.hpp:77] Creating layer L2_b1_cbr1_conv
I0821 06:49:15.077884 32405 net.cpp:100] Creating Layer L2_b1_cbr1_conv
I0821 06:49:15.077890 32405 net.cpp:434] L2_b1_cbr1_conv <- L1_b9_sum_eltwise_top_L1_b9_relu_0_split_0
I0821 06:49:15.077901 32405 net.cpp:408] L2_b1_cbr1_conv -> L2_b1_cbr1_conv_top
I0821 06:49:15.078217 32405 net.cpp:150] Setting up L2_b1_cbr1_conv
I0821 06:49:15.078230 32405 net.cpp:157] Top shape: 125 16 16 16 (512000)
I0821 06:49:15.078235 32405 net.cpp:165] Memory required for data: 863745500
I0821 06:49:15.078244 32405 layer_factory.hpp:77] Creating layer L2_b1_cbr1_bn
I0821 06:49:15.078253 32405 net.cpp:100] Creating Layer L2_b1_cbr1_bn
I0821 06:49:15.078259 32405 net.cpp:434] L2_b1_cbr1_bn <- L2_b1_cbr1_conv_top
I0821 06:49:15.078270 32405 net.cpp:408] L2_b1_cbr1_bn -> L2_b1_cbr1_bn_top
I0821 06:49:15.078506 32405 net.cpp:150] Setting up L2_b1_cbr1_bn
I0821 06:49:15.078519 32405 net.cpp:157] Top shape: 125 16 16 16 (512000)
I0821 06:49:15.078524 32405 net.cpp:165] Memory required for data: 865793500
I0821 06:49:15.078536 32405 layer_factory.hpp:77] Creating layer L2_b1_cbr1_scale
I0821 06:49:15.078552 32405 net.cpp:100] Creating Layer L2_b1_cbr1_scale
I0821 06:49:15.078565 32405 net.cpp:434] L2_b1_cbr1_scale <- L2_b1_cbr1_bn_top
I0821 06:49:15.078573 32405 net.cpp:395] L2_b1_cbr1_scale -> L2_b1_cbr1_bn_top (in-place)
I0821 06:49:15.078626 32405 layer_factory.hpp:77] Creating layer L2_b1_cbr1_scale
I0821 06:49:15.078768 32405 net.cpp:150] Setting up L2_b1_cbr1_scale
I0821 06:49:15.078781 32405 net.cpp:157] Top shape: 125 16 16 16 (512000)
I0821 06:49:15.078786 32405 net.cpp:165] Memory required for data: 867841500
I0821 06:49:15.078794 32405 layer_factory.hpp:77] Creating layer L2_b1_cbr1_relu
I0821 06:49:15.078805 32405 net.cpp:100] Creating Layer L2_b1_cbr1_relu
I0821 06:49:15.078811 32405 net.cpp:434] L2_b1_cbr1_relu <- L2_b1_cbr1_bn_top
I0821 06:49:15.078819 32405 net.cpp:395] L2_b1_cbr1_relu -> L2_b1_cbr1_bn_top (in-place)
I0821 06:49:15.078829 32405 net.cpp:150] Setting up L2_b1_cbr1_relu
I0821 06:49:15.078835 32405 net.cpp:157] Top shape: 125 16 16 16 (512000)
I0821 06:49:15.078840 32405 net.cpp:165] Memory required for data: 869889500
I0821 06:49:15.078845 32405 layer_factory.hpp:77] Creating layer L2_b1_cbr2_conv
I0821 06:49:15.078858 32405 net.cpp:100] Creating Layer L2_b1_cbr2_conv
I0821 06:49:15.078871 32405 net.cpp:434] L2_b1_cbr2_conv <- L2_b1_cbr1_bn_top
I0821 06:49:15.078883 32405 net.cpp:408] L2_b1_cbr2_conv -> L2_b1_cbr2_conv_top
I0821 06:49:15.079198 32405 net.cpp:150] Setting up L2_b1_cbr2_conv
I0821 06:49:15.079212 32405 net.cpp:157] Top shape: 125 16 16 16 (512000)
I0821 06:49:15.079217 32405 net.cpp:165] Memory required for data: 871937500
I0821 06:49:15.079226 32405 layer_factory.hpp:77] Creating layer L2_b1_cbr2_bn
I0821 06:49:15.079234 32405 net.cpp:100] Creating Layer L2_b1_cbr2_bn
I0821 06:49:15.079241 32405 net.cpp:434] L2_b1_cbr2_bn <- L2_b1_cbr2_conv_top
I0821 06:49:15.079252 32405 net.cpp:408] L2_b1_cbr2_bn -> L2_b1_cbr2_bn_top
I0821 06:49:15.079496 32405 net.cpp:150] Setting up L2_b1_cbr2_bn
I0821 06:49:15.079509 32405 net.cpp:157] Top shape: 125 16 16 16 (512000)
I0821 06:49:15.079514 32405 net.cpp:165] Memory required for data: 873985500
I0821 06:49:15.079524 32405 layer_factory.hpp:77] Creating layer L2_b1_cbr2_scale
I0821 06:49:15.079535 32405 net.cpp:100] Creating Layer L2_b1_cbr2_scale
I0821 06:49:15.079541 32405 net.cpp:434] L2_b1_cbr2_scale <- L2_b1_cbr2_bn_top
I0821 06:49:15.079548 32405 net.cpp:395] L2_b1_cbr2_scale -> L2_b1_cbr2_bn_top (in-place)
I0821 06:49:15.079602 32405 layer_factory.hpp:77] Creating layer L2_b1_cbr2_scale
I0821 06:49:15.079746 32405 net.cpp:150] Setting up L2_b1_cbr2_scale
I0821 06:49:15.079759 32405 net.cpp:157] Top shape: 125 16 16 16 (512000)
I0821 06:49:15.079764 32405 net.cpp:165] Memory required for data: 876033500
I0821 06:49:15.079773 32405 layer_factory.hpp:77] Creating layer L2_b1_pool
I0821 06:49:15.079787 32405 net.cpp:100] Creating Layer L2_b1_pool
I0821 06:49:15.079793 32405 net.cpp:434] L2_b1_pool <- L1_b9_sum_eltwise_top_L1_b9_relu_0_split_1
I0821 06:49:15.079802 32405 net.cpp:408] L2_b1_pool -> L2_b1_pool
I0821 06:49:15.079900 32405 net.cpp:150] Setting up L2_b1_pool
I0821 06:49:15.079916 32405 net.cpp:157] Top shape: 125 16 16 16 (512000)
I0821 06:49:15.079922 32405 net.cpp:165] Memory required for data: 878081500
I0821 06:49:15.079928 32405 layer_factory.hpp:77] Creating layer L2_b1_sum_eltwise
I0821 06:49:15.079937 32405 net.cpp:100] Creating Layer L2_b1_sum_eltwise
I0821 06:49:15.079943 32405 net.cpp:434] L2_b1_sum_eltwise <- L2_b1_cbr2_bn_top
I0821 06:49:15.079949 32405 net.cpp:434] L2_b1_sum_eltwise <- L2_b1_pool
I0821 06:49:15.079963 32405 net.cpp:408] L2_b1_sum_eltwise -> L2_b1_sum_eltwise_top
I0821 06:49:15.079998 32405 net.cpp:150] Setting up L2_b1_sum_eltwise
I0821 06:49:15.080008 32405 net.cpp:157] Top shape: 125 16 16 16 (512000)
I0821 06:49:15.080013 32405 net.cpp:165] Memory required for data: 880129500
I0821 06:49:15.080018 32405 layer_factory.hpp:77] Creating layer L2_b1_relu
I0821 06:49:15.080025 32405 net.cpp:100] Creating Layer L2_b1_relu
I0821 06:49:15.080031 32405 net.cpp:434] L2_b1_relu <- L2_b1_sum_eltwise_top
I0821 06:49:15.080039 32405 net.cpp:395] L2_b1_relu -> L2_b1_sum_eltwise_top (in-place)
I0821 06:49:15.080055 32405 net.cpp:150] Setting up L2_b1_relu
I0821 06:49:15.080062 32405 net.cpp:157] Top shape: 125 16 16 16 (512000)
I0821 06:49:15.080067 32405 net.cpp:165] Memory required for data: 882177500
I0821 06:49:15.080071 32405 layer_factory.hpp:77] Creating layer L2_b1_zeros
I0821 06:49:15.080127 32405 net.cpp:100] Creating Layer L2_b1_zeros
I0821 06:49:15.080142 32405 net.cpp:408] L2_b1_zeros -> L2_b1_zeros
I0821 06:49:15.082499 32405 net.cpp:150] Setting up L2_b1_zeros
I0821 06:49:15.082518 32405 net.cpp:157] Top shape: 125 16 16 16 (512000)
I0821 06:49:15.082523 32405 net.cpp:165] Memory required for data: 884225500
I0821 06:49:15.082530 32405 layer_factory.hpp:77] Creating layer L2_b1_concat0
I0821 06:49:15.082540 32405 net.cpp:100] Creating Layer L2_b1_concat0
I0821 06:49:15.082546 32405 net.cpp:434] L2_b1_concat0 <- L2_b1_sum_eltwise_top
I0821 06:49:15.082553 32405 net.cpp:434] L2_b1_concat0 <- L2_b1_zeros
I0821 06:49:15.082561 32405 net.cpp:408] L2_b1_concat0 -> L2_b1_concat0
I0821 06:49:15.082646 32405 net.cpp:150] Setting up L2_b1_concat0
I0821 06:49:15.082661 32405 net.cpp:157] Top shape: 125 32 16 16 (1024000)
I0821 06:49:15.082666 32405 net.cpp:165] Memory required for data: 888321500
I0821 06:49:15.082672 32405 layer_factory.hpp:77] Creating layer L2_b1_concat0_L2_b1_concat0_0_split
I0821 06:49:15.082684 32405 net.cpp:100] Creating Layer L2_b1_concat0_L2_b1_concat0_0_split
I0821 06:49:15.082690 32405 net.cpp:434] L2_b1_concat0_L2_b1_concat0_0_split <- L2_b1_concat0
I0821 06:49:15.082697 32405 net.cpp:408] L2_b1_concat0_L2_b1_concat0_0_split -> L2_b1_concat0_L2_b1_concat0_0_split_0
I0821 06:49:15.082707 32405 net.cpp:408] L2_b1_concat0_L2_b1_concat0_0_split -> L2_b1_concat0_L2_b1_concat0_0_split_1
I0821 06:49:15.082758 32405 net.cpp:150] Setting up L2_b1_concat0_L2_b1_concat0_0_split
I0821 06:49:15.082770 32405 net.cpp:157] Top shape: 125 32 16 16 (1024000)
I0821 06:49:15.082777 32405 net.cpp:157] Top shape: 125 32 16 16 (1024000)
I0821 06:49:15.082782 32405 net.cpp:165] Memory required for data: 896513500
I0821 06:49:15.082787 32405 layer_factory.hpp:77] Creating layer L2_b2_cbr1_conv
I0821 06:49:15.082801 32405 net.cpp:100] Creating Layer L2_b2_cbr1_conv
I0821 06:49:15.082808 32405 net.cpp:434] L2_b2_cbr1_conv <- L2_b1_concat0_L2_b1_concat0_0_split_0
I0821 06:49:15.082816 32405 net.cpp:408] L2_b2_cbr1_conv -> L2_b2_cbr1_conv_top
I0821 06:49:15.084249 32405 net.cpp:150] Setting up L2_b2_cbr1_conv
I0821 06:49:15.084266 32405 net.cpp:157] Top shape: 125 32 16 16 (1024000)
I0821 06:49:15.084272 32405 net.cpp:165] Memory required for data: 900609500
I0821 06:49:15.084281 32405 layer_factory.hpp:77] Creating layer L2_b2_cbr1_bn
I0821 06:49:15.084292 32405 net.cpp:100] Creating Layer L2_b2_cbr1_bn
I0821 06:49:15.084298 32405 net.cpp:434] L2_b2_cbr1_bn <- L2_b2_cbr1_conv_top
I0821 06:49:15.084311 32405 net.cpp:408] L2_b2_cbr1_bn -> L2_b2_cbr1_bn_top
I0821 06:49:15.084558 32405 net.cpp:150] Setting up L2_b2_cbr1_bn
I0821 06:49:15.084571 32405 net.cpp:157] Top shape: 125 32 16 16 (1024000)
I0821 06:49:15.084576 32405 net.cpp:165] Memory required for data: 904705500
I0821 06:49:15.084588 32405 layer_factory.hpp:77] Creating layer L2_b2_cbr1_scale
I0821 06:49:15.084601 32405 net.cpp:100] Creating Layer L2_b2_cbr1_scale
I0821 06:49:15.084607 32405 net.cpp:434] L2_b2_cbr1_scale <- L2_b2_cbr1_bn_top
I0821 06:49:15.084615 32405 net.cpp:395] L2_b2_cbr1_scale -> L2_b2_cbr1_bn_top (in-place)
I0821 06:49:15.084671 32405 layer_factory.hpp:77] Creating layer L2_b2_cbr1_scale
I0821 06:49:15.084821 32405 net.cpp:150] Setting up L2_b2_cbr1_scale
I0821 06:49:15.084834 32405 net.cpp:157] Top shape: 125 32 16 16 (1024000)
I0821 06:49:15.084839 32405 net.cpp:165] Memory required for data: 908801500
I0821 06:49:15.084848 32405 layer_factory.hpp:77] Creating layer L2_b2_cbr1_relu
I0821 06:49:15.084866 32405 net.cpp:100] Creating Layer L2_b2_cbr1_relu
I0821 06:49:15.084872 32405 net.cpp:434] L2_b2_cbr1_relu <- L2_b2_cbr1_bn_top
I0821 06:49:15.084880 32405 net.cpp:395] L2_b2_cbr1_relu -> L2_b2_cbr1_bn_top (in-place)
I0821 06:49:15.084898 32405 net.cpp:150] Setting up L2_b2_cbr1_relu
I0821 06:49:15.084906 32405 net.cpp:157] Top shape: 125 32 16 16 (1024000)
I0821 06:49:15.084910 32405 net.cpp:165] Memory required for data: 912897500
I0821 06:49:15.084915 32405 layer_factory.hpp:77] Creating layer L2_b2_cbr2_conv
I0821 06:49:15.084930 32405 net.cpp:100] Creating Layer L2_b2_cbr2_conv
I0821 06:49:15.084936 32405 net.cpp:434] L2_b2_cbr2_conv <- L2_b2_cbr1_bn_top
I0821 06:49:15.084947 32405 net.cpp:408] L2_b2_cbr2_conv -> L2_b2_cbr2_conv_top
I0821 06:49:15.085407 32405 net.cpp:150] Setting up L2_b2_cbr2_conv
I0821 06:49:15.085420 32405 net.cpp:157] Top shape: 125 32 16 16 (1024000)
I0821 06:49:15.085425 32405 net.cpp:165] Memory required for data: 916993500
I0821 06:49:15.085433 32405 layer_factory.hpp:77] Creating layer L2_b2_cbr2_bn
I0821 06:49:15.085443 32405 net.cpp:100] Creating Layer L2_b2_cbr2_bn
I0821 06:49:15.085449 32405 net.cpp:434] L2_b2_cbr2_bn <- L2_b2_cbr2_conv_top
I0821 06:49:15.085460 32405 net.cpp:408] L2_b2_cbr2_bn -> L2_b2_cbr2_bn_top
I0821 06:49:15.085708 32405 net.cpp:150] Setting up L2_b2_cbr2_bn
I0821 06:49:15.085721 32405 net.cpp:157] Top shape: 125 32 16 16 (1024000)
I0821 06:49:15.085726 32405 net.cpp:165] Memory required for data: 921089500
I0821 06:49:15.085736 32405 layer_factory.hpp:77] Creating layer L2_b2_cbr2_scale
I0821 06:49:15.085748 32405 net.cpp:100] Creating Layer L2_b2_cbr2_scale
I0821 06:49:15.085754 32405 net.cpp:434] L2_b2_cbr2_scale <- L2_b2_cbr2_bn_top
I0821 06:49:15.085762 32405 net.cpp:395] L2_b2_cbr2_scale -> L2_b2_cbr2_bn_top (in-place)
I0821 06:49:15.085817 32405 layer_factory.hpp:77] Creating layer L2_b2_cbr2_scale
I0821 06:49:15.085970 32405 net.cpp:150] Setting up L2_b2_cbr2_scale
I0821 06:49:15.085984 32405 net.cpp:157] Top shape: 125 32 16 16 (1024000)
I0821 06:49:15.085989 32405 net.cpp:165] Memory required for data: 925185500
I0821 06:49:15.085999 32405 layer_factory.hpp:77] Creating layer L2_b2_sum_eltwise
I0821 06:49:15.086010 32405 net.cpp:100] Creating Layer L2_b2_sum_eltwise
I0821 06:49:15.086016 32405 net.cpp:434] L2_b2_sum_eltwise <- L2_b2_cbr2_bn_top
I0821 06:49:15.086024 32405 net.cpp:434] L2_b2_sum_eltwise <- L2_b1_concat0_L2_b1_concat0_0_split_1
I0821 06:49:15.086031 32405 net.cpp:408] L2_b2_sum_eltwise -> L2_b2_sum_eltwise_top
I0821 06:49:15.086061 32405 net.cpp:150] Setting up L2_b2_sum_eltwise
I0821 06:49:15.086071 32405 net.cpp:157] Top shape: 125 32 16 16 (1024000)
I0821 06:49:15.086076 32405 net.cpp:165] Memory required for data: 929281500
I0821 06:49:15.086081 32405 layer_factory.hpp:77] Creating layer L2_b2_relu
I0821 06:49:15.086088 32405 net.cpp:100] Creating Layer L2_b2_relu
I0821 06:49:15.086094 32405 net.cpp:434] L2_b2_relu <- L2_b2_sum_eltwise_top
I0821 06:49:15.086102 32405 net.cpp:395] L2_b2_relu -> L2_b2_sum_eltwise_top (in-place)
I0821 06:49:15.086117 32405 net.cpp:150] Setting up L2_b2_relu
I0821 06:49:15.086123 32405 net.cpp:157] Top shape: 125 32 16 16 (1024000)
I0821 06:49:15.086128 32405 net.cpp:165] Memory required for data: 933377500
I0821 06:49:15.086133 32405 layer_factory.hpp:77] Creating layer L2_b2_sum_eltwise_top_L2_b2_relu_0_split
I0821 06:49:15.086139 32405 net.cpp:100] Creating Layer L2_b2_sum_eltwise_top_L2_b2_relu_0_split
I0821 06:49:15.086145 32405 net.cpp:434] L2_b2_sum_eltwise_top_L2_b2_relu_0_split <- L2_b2_sum_eltwise_top
I0821 06:49:15.086153 32405 net.cpp:408] L2_b2_sum_eltwise_top_L2_b2_relu_0_split -> L2_b2_sum_eltwise_top_L2_b2_relu_0_split_0
I0821 06:49:15.086161 32405 net.cpp:408] L2_b2_sum_eltwise_top_L2_b2_relu_0_split -> L2_b2_sum_eltwise_top_L2_b2_relu_0_split_1
I0821 06:49:15.086210 32405 net.cpp:150] Setting up L2_b2_sum_eltwise_top_L2_b2_relu_0_split
I0821 06:49:15.086221 32405 net.cpp:157] Top shape: 125 32 16 16 (1024000)
I0821 06:49:15.086228 32405 net.cpp:157] Top shape: 125 32 16 16 (1024000)
I0821 06:49:15.086232 32405 net.cpp:165] Memory required for data: 941569500
I0821 06:49:15.086237 32405 layer_factory.hpp:77] Creating layer L2_b3_cbr1_conv
I0821 06:49:15.086256 32405 net.cpp:100] Creating Layer L2_b3_cbr1_conv
I0821 06:49:15.086262 32405 net.cpp:434] L2_b3_cbr1_conv <- L2_b2_sum_eltwise_top_L2_b2_relu_0_split_0
I0821 06:49:15.086273 32405 net.cpp:408] L2_b3_cbr1_conv -> L2_b3_cbr1_conv_top
I0821 06:49:15.086735 32405 net.cpp:150] Setting up L2_b3_cbr1_conv
I0821 06:49:15.086748 32405 net.cpp:157] Top shape: 125 32 16 16 (1024000)
I0821 06:49:15.086753 32405 net.cpp:165] Memory required for data: 945665500
I0821 06:49:15.086762 32405 layer_factory.hpp:77] Creating layer L2_b3_cbr1_bn
I0821 06:49:15.086771 32405 net.cpp:100] Creating Layer L2_b3_cbr1_bn
I0821 06:49:15.086777 32405 net.cpp:434] L2_b3_cbr1_bn <- L2_b3_cbr1_conv_top
I0821 06:49:15.086788 32405 net.cpp:408] L2_b3_cbr1_bn -> L2_b3_cbr1_bn_top
I0821 06:49:15.087039 32405 net.cpp:150] Setting up L2_b3_cbr1_bn
I0821 06:49:15.087052 32405 net.cpp:157] Top shape: 125 32 16 16 (1024000)
I0821 06:49:15.087057 32405 net.cpp:165] Memory required for data: 949761500
I0821 06:49:15.087067 32405 layer_factory.hpp:77] Creating layer L2_b3_cbr1_scale
I0821 06:49:15.087080 32405 net.cpp:100] Creating Layer L2_b3_cbr1_scale
I0821 06:49:15.087085 32405 net.cpp:434] L2_b3_cbr1_scale <- L2_b3_cbr1_bn_top
I0821 06:49:15.087093 32405 net.cpp:395] L2_b3_cbr1_scale -> L2_b3_cbr1_bn_top (in-place)
I0821 06:49:15.087148 32405 layer_factory.hpp:77] Creating layer L2_b3_cbr1_scale
I0821 06:49:15.087293 32405 net.cpp:150] Setting up L2_b3_cbr1_scale
I0821 06:49:15.087306 32405 net.cpp:157] Top shape: 125 32 16 16 (1024000)
I0821 06:49:15.087311 32405 net.cpp:165] Memory required for data: 953857500
I0821 06:49:15.087319 32405 layer_factory.hpp:77] Creating layer L2_b3_cbr1_relu
I0821 06:49:15.087330 32405 net.cpp:100] Creating Layer L2_b3_cbr1_relu
I0821 06:49:15.087337 32405 net.cpp:434] L2_b3_cbr1_relu <- L2_b3_cbr1_bn_top
I0821 06:49:15.087343 32405 net.cpp:395] L2_b3_cbr1_relu -> L2_b3_cbr1_bn_top (in-place)
I0821 06:49:15.087353 32405 net.cpp:150] Setting up L2_b3_cbr1_relu
I0821 06:49:15.087360 32405 net.cpp:157] Top shape: 125 32 16 16 (1024000)
I0821 06:49:15.087364 32405 net.cpp:165] Memory required for data: 957953500
I0821 06:49:15.087369 32405 layer_factory.hpp:77] Creating layer L2_b3_cbr2_conv
I0821 06:49:15.087383 32405 net.cpp:100] Creating Layer L2_b3_cbr2_conv
I0821 06:49:15.087389 32405 net.cpp:434] L2_b3_cbr2_conv <- L2_b3_cbr1_bn_top
I0821 06:49:15.087399 32405 net.cpp:408] L2_b3_cbr2_conv -> L2_b3_cbr2_conv_top
I0821 06:49:15.087855 32405 net.cpp:150] Setting up L2_b3_cbr2_conv
I0821 06:49:15.087875 32405 net.cpp:157] Top shape: 125 32 16 16 (1024000)
I0821 06:49:15.087880 32405 net.cpp:165] Memory required for data: 962049500
I0821 06:49:15.087889 32405 layer_factory.hpp:77] Creating layer L2_b3_cbr2_bn
I0821 06:49:15.087898 32405 net.cpp:100] Creating Layer L2_b3_cbr2_bn
I0821 06:49:15.087904 32405 net.cpp:434] L2_b3_cbr2_bn <- L2_b3_cbr2_conv_top
I0821 06:49:15.087916 32405 net.cpp:408] L2_b3_cbr2_bn -> L2_b3_cbr2_bn_top
I0821 06:49:15.088169 32405 net.cpp:150] Setting up L2_b3_cbr2_bn
I0821 06:49:15.088182 32405 net.cpp:157] Top shape: 125 32 16 16 (1024000)
I0821 06:49:15.088187 32405 net.cpp:165] Memory required for data: 966145500
I0821 06:49:15.088197 32405 layer_factory.hpp:77] Creating layer L2_b3_cbr2_scale
I0821 06:49:15.088209 32405 net.cpp:100] Creating Layer L2_b3_cbr2_scale
I0821 06:49:15.088215 32405 net.cpp:434] L2_b3_cbr2_scale <- L2_b3_cbr2_bn_top
I0821 06:49:15.088223 32405 net.cpp:395] L2_b3_cbr2_scale -> L2_b3_cbr2_bn_top (in-place)
I0821 06:49:15.088274 32405 layer_factory.hpp:77] Creating layer L2_b3_cbr2_scale
I0821 06:49:15.088423 32405 net.cpp:150] Setting up L2_b3_cbr2_scale
I0821 06:49:15.088435 32405 net.cpp:157] Top shape: 125 32 16 16 (1024000)
I0821 06:49:15.088439 32405 net.cpp:165] Memory required for data: 970241500
I0821 06:49:15.088449 32405 layer_factory.hpp:77] Creating layer L2_b3_sum_eltwise
I0821 06:49:15.088457 32405 net.cpp:100] Creating Layer L2_b3_sum_eltwise
I0821 06:49:15.088464 32405 net.cpp:434] L2_b3_sum_eltwise <- L2_b3_cbr2_bn_top
I0821 06:49:15.088470 32405 net.cpp:434] L2_b3_sum_eltwise <- L2_b2_sum_eltwise_top_L2_b2_relu_0_split_1
I0821 06:49:15.088487 32405 net.cpp:408] L2_b3_sum_eltwise -> L2_b3_sum_eltwise_top
I0821 06:49:15.088515 32405 net.cpp:150] Setting up L2_b3_sum_eltwise
I0821 06:49:15.088527 32405 net.cpp:157] Top shape: 125 32 16 16 (1024000)
I0821 06:49:15.088532 32405 net.cpp:165] Memory required for data: 974337500
I0821 06:49:15.088538 32405 layer_factory.hpp:77] Creating layer L2_b3_relu
I0821 06:49:15.088559 32405 net.cpp:100] Creating Layer L2_b3_relu
I0821 06:49:15.088565 32405 net.cpp:434] L2_b3_relu <- L2_b3_sum_eltwise_top
I0821 06:49:15.088573 32405 net.cpp:395] L2_b3_relu -> L2_b3_sum_eltwise_top (in-place)
I0821 06:49:15.088582 32405 net.cpp:150] Setting up L2_b3_relu
I0821 06:49:15.088589 32405 net.cpp:157] Top shape: 125 32 16 16 (1024000)
I0821 06:49:15.088594 32405 net.cpp:165] Memory required for data: 978433500
I0821 06:49:15.088599 32405 layer_factory.hpp:77] Creating layer L2_b3_sum_eltwise_top_L2_b3_relu_0_split
I0821 06:49:15.088606 32405 net.cpp:100] Creating Layer L2_b3_sum_eltwise_top_L2_b3_relu_0_split
I0821 06:49:15.088611 32405 net.cpp:434] L2_b3_sum_eltwise_top_L2_b3_relu_0_split <- L2_b3_sum_eltwise_top
I0821 06:49:15.088621 32405 net.cpp:408] L2_b3_sum_eltwise_top_L2_b3_relu_0_split -> L2_b3_sum_eltwise_top_L2_b3_relu_0_split_0
I0821 06:49:15.088631 32405 net.cpp:408] L2_b3_sum_eltwise_top_L2_b3_relu_0_split -> L2_b3_sum_eltwise_top_L2_b3_relu_0_split_1
I0821 06:49:15.088677 32405 net.cpp:150] Setting up L2_b3_sum_eltwise_top_L2_b3_relu_0_split
I0821 06:49:15.088688 32405 net.cpp:157] Top shape: 125 32 16 16 (1024000)
I0821 06:49:15.088695 32405 net.cpp:157] Top shape: 125 32 16 16 (1024000)
I0821 06:49:15.088699 32405 net.cpp:165] Memory required for data: 986625500
I0821 06:49:15.088704 32405 layer_factory.hpp:77] Creating layer L2_b4_cbr1_conv
I0821 06:49:15.088721 32405 net.cpp:100] Creating Layer L2_b4_cbr1_conv
I0821 06:49:15.088727 32405 net.cpp:434] L2_b4_cbr1_conv <- L2_b3_sum_eltwise_top_L2_b3_relu_0_split_0
I0821 06:49:15.088737 32405 net.cpp:408] L2_b4_cbr1_conv -> L2_b4_cbr1_conv_top
I0821 06:49:15.089206 32405 net.cpp:150] Setting up L2_b4_cbr1_conv
I0821 06:49:15.089221 32405 net.cpp:157] Top shape: 125 32 16 16 (1024000)
I0821 06:49:15.089226 32405 net.cpp:165] Memory required for data: 990721500
I0821 06:49:15.089233 32405 layer_factory.hpp:77] Creating layer L2_b4_cbr1_bn
I0821 06:49:15.089246 32405 net.cpp:100] Creating Layer L2_b4_cbr1_bn
I0821 06:49:15.089251 32405 net.cpp:434] L2_b4_cbr1_bn <- L2_b4_cbr1_conv_top
I0821 06:49:15.089260 32405 net.cpp:408] L2_b4_cbr1_bn -> L2_b4_cbr1_bn_top
I0821 06:49:15.089506 32405 net.cpp:150] Setting up L2_b4_cbr1_bn
I0821 06:49:15.089519 32405 net.cpp:157] Top shape: 125 32 16 16 (1024000)
I0821 06:49:15.089524 32405 net.cpp:165] Memory required for data: 994817500
I0821 06:49:15.089534 32405 layer_factory.hpp:77] Creating layer L2_b4_cbr1_scale
I0821 06:49:15.089543 32405 net.cpp:100] Creating Layer L2_b4_cbr1_scale
I0821 06:49:15.089550 32405 net.cpp:434] L2_b4_cbr1_scale <- L2_b4_cbr1_bn_top
I0821 06:49:15.089560 32405 net.cpp:395] L2_b4_cbr1_scale -> L2_b4_cbr1_bn_top (in-place)
I0821 06:49:15.089614 32405 layer_factory.hpp:77] Creating layer L2_b4_cbr1_scale
I0821 06:49:15.089767 32405 net.cpp:150] Setting up L2_b4_cbr1_scale
I0821 06:49:15.089781 32405 net.cpp:157] Top shape: 125 32 16 16 (1024000)
I0821 06:49:15.089785 32405 net.cpp:165] Memory required for data: 998913500
I0821 06:49:15.089793 32405 layer_factory.hpp:77] Creating layer L2_b4_cbr1_relu
I0821 06:49:15.089802 32405 net.cpp:100] Creating Layer L2_b4_cbr1_relu
I0821 06:49:15.089807 32405 net.cpp:434] L2_b4_cbr1_relu <- L2_b4_cbr1_bn_top
I0821 06:49:15.089818 32405 net.cpp:395] L2_b4_cbr1_relu -> L2_b4_cbr1_bn_top (in-place)
I0821 06:49:15.089828 32405 net.cpp:150] Setting up L2_b4_cbr1_relu
I0821 06:49:15.089834 32405 net.cpp:157] Top shape: 125 32 16 16 (1024000)
I0821 06:49:15.089838 32405 net.cpp:165] Memory required for data: 1003009500
I0821 06:49:15.089843 32405 layer_factory.hpp:77] Creating layer L2_b4_cbr2_conv
I0821 06:49:15.089869 32405 net.cpp:100] Creating Layer L2_b4_cbr2_conv
I0821 06:49:15.089877 32405 net.cpp:434] L2_b4_cbr2_conv <- L2_b4_cbr1_bn_top
I0821 06:49:15.089886 32405 net.cpp:408] L2_b4_cbr2_conv -> L2_b4_cbr2_conv_top
I0821 06:49:15.090348 32405 net.cpp:150] Setting up L2_b4_cbr2_conv
I0821 06:49:15.090363 32405 net.cpp:157] Top shape: 125 32 16 16 (1024000)
I0821 06:49:15.090368 32405 net.cpp:165] Memory required for data: 1007105500
I0821 06:49:15.090376 32405 layer_factory.hpp:77] Creating layer L2_b4_cbr2_bn
I0821 06:49:15.090385 32405 net.cpp:100] Creating Layer L2_b4_cbr2_bn
I0821 06:49:15.090391 32405 net.cpp:434] L2_b4_cbr2_bn <- L2_b4_cbr2_conv_top
I0821 06:49:15.090402 32405 net.cpp:408] L2_b4_cbr2_bn -> L2_b4_cbr2_bn_top
I0821 06:49:15.090644 32405 net.cpp:150] Setting up L2_b4_cbr2_bn
I0821 06:49:15.090657 32405 net.cpp:157] Top shape: 125 32 16 16 (1024000)
I0821 06:49:15.090662 32405 net.cpp:165] Memory required for data: 1011201500
I0821 06:49:15.090672 32405 layer_factory.hpp:77] Creating layer L2_b4_cbr2_scale
I0821 06:49:15.090682 32405 net.cpp:100] Creating Layer L2_b4_cbr2_scale
I0821 06:49:15.090687 32405 net.cpp:434] L2_b4_cbr2_scale <- L2_b4_cbr2_bn_top
I0821 06:49:15.090694 32405 net.cpp:395] L2_b4_cbr2_scale -> L2_b4_cbr2_bn_top (in-place)
I0821 06:49:15.090751 32405 layer_factory.hpp:77] Creating layer L2_b4_cbr2_scale
I0821 06:49:15.090903 32405 net.cpp:150] Setting up L2_b4_cbr2_scale
I0821 06:49:15.090919 32405 net.cpp:157] Top shape: 125 32 16 16 (1024000)
I0821 06:49:15.090924 32405 net.cpp:165] Memory required for data: 1015297500
I0821 06:49:15.090934 32405 layer_factory.hpp:77] Creating layer L2_b4_sum_eltwise
I0821 06:49:15.090943 32405 net.cpp:100] Creating Layer L2_b4_sum_eltwise
I0821 06:49:15.090950 32405 net.cpp:434] L2_b4_sum_eltwise <- L2_b4_cbr2_bn_top
I0821 06:49:15.090955 32405 net.cpp:434] L2_b4_sum_eltwise <- L2_b3_sum_eltwise_top_L2_b3_relu_0_split_1
I0821 06:49:15.090963 32405 net.cpp:408] L2_b4_sum_eltwise -> L2_b4_sum_eltwise_top
I0821 06:49:15.090992 32405 net.cpp:150] Setting up L2_b4_sum_eltwise
I0821 06:49:15.091002 32405 net.cpp:157] Top shape: 125 32 16 16 (1024000)
I0821 06:49:15.091006 32405 net.cpp:165] Memory required for data: 1019393500
I0821 06:49:15.091012 32405 layer_factory.hpp:77] Creating layer L2_b4_relu
I0821 06:49:15.091019 32405 net.cpp:100] Creating Layer L2_b4_relu
I0821 06:49:15.091024 32405 net.cpp:434] L2_b4_relu <- L2_b4_sum_eltwise_top
I0821 06:49:15.091034 32405 net.cpp:395] L2_b4_relu -> L2_b4_sum_eltwise_top (in-place)
I0821 06:49:15.091044 32405 net.cpp:150] Setting up L2_b4_relu
I0821 06:49:15.091051 32405 net.cpp:157] Top shape: 125 32 16 16 (1024000)
I0821 06:49:15.091055 32405 net.cpp:165] Memory required for data: 1023489500
I0821 06:49:15.091060 32405 layer_factory.hpp:77] Creating layer L2_b4_sum_eltwise_top_L2_b4_relu_0_split
I0821 06:49:15.091068 32405 net.cpp:100] Creating Layer L2_b4_sum_eltwise_top_L2_b4_relu_0_split
I0821 06:49:15.091073 32405 net.cpp:434] L2_b4_sum_eltwise_top_L2_b4_relu_0_split <- L2_b4_sum_eltwise_top
I0821 06:49:15.091083 32405 net.cpp:408] L2_b4_sum_eltwise_top_L2_b4_relu_0_split -> L2_b4_sum_eltwise_top_L2_b4_relu_0_split_0
I0821 06:49:15.091092 32405 net.cpp:408] L2_b4_sum_eltwise_top_L2_b4_relu_0_split -> L2_b4_sum_eltwise_top_L2_b4_relu_0_split_1
I0821 06:49:15.091135 32405 net.cpp:150] Setting up L2_b4_sum_eltwise_top_L2_b4_relu_0_split
I0821 06:49:15.091146 32405 net.cpp:157] Top shape: 125 32 16 16 (1024000)
I0821 06:49:15.091153 32405 net.cpp:157] Top shape: 125 32 16 16 (1024000)
I0821 06:49:15.091157 32405 net.cpp:165] Memory required for data: 1031681500
I0821 06:49:15.091163 32405 layer_factory.hpp:77] Creating layer L2_b5_cbr1_conv
I0821 06:49:15.091177 32405 net.cpp:100] Creating Layer L2_b5_cbr1_conv
I0821 06:49:15.091183 32405 net.cpp:434] L2_b5_cbr1_conv <- L2_b4_sum_eltwise_top_L2_b4_relu_0_split_0
I0821 06:49:15.091192 32405 net.cpp:408] L2_b5_cbr1_conv -> L2_b5_cbr1_conv_top
I0821 06:49:15.091656 32405 net.cpp:150] Setting up L2_b5_cbr1_conv
I0821 06:49:15.091676 32405 net.cpp:157] Top shape: 125 32 16 16 (1024000)
I0821 06:49:15.091681 32405 net.cpp:165] Memory required for data: 1035777500
I0821 06:49:15.091691 32405 layer_factory.hpp:77] Creating layer L2_b5_cbr1_bn
I0821 06:49:15.091702 32405 net.cpp:100] Creating Layer L2_b5_cbr1_bn
I0821 06:49:15.091708 32405 net.cpp:434] L2_b5_cbr1_bn <- L2_b5_cbr1_conv_top
I0821 06:49:15.091717 32405 net.cpp:408] L2_b5_cbr1_bn -> L2_b5_cbr1_bn_top
I0821 06:49:15.091972 32405 net.cpp:150] Setting up L2_b5_cbr1_bn
I0821 06:49:15.091986 32405 net.cpp:157] Top shape: 125 32 16 16 (1024000)
I0821 06:49:15.091991 32405 net.cpp:165] Memory required for data: 1039873500
I0821 06:49:15.092001 32405 layer_factory.hpp:77] Creating layer L2_b5_cbr1_scale
I0821 06:49:15.092010 32405 net.cpp:100] Creating Layer L2_b5_cbr1_scale
I0821 06:49:15.092016 32405 net.cpp:434] L2_b5_cbr1_scale <- L2_b5_cbr1_bn_top
I0821 06:49:15.092027 32405 net.cpp:395] L2_b5_cbr1_scale -> L2_b5_cbr1_bn_top (in-place)
I0821 06:49:15.092082 32405 layer_factory.hpp:77] Creating layer L2_b5_cbr1_scale
I0821 06:49:15.092231 32405 net.cpp:150] Setting up L2_b5_cbr1_scale
I0821 06:49:15.092244 32405 net.cpp:157] Top shape: 125 32 16 16 (1024000)
I0821 06:49:15.092249 32405 net.cpp:165] Memory required for data: 1043969500
I0821 06:49:15.092257 32405 layer_factory.hpp:77] Creating layer L2_b5_cbr1_relu
I0821 06:49:15.092265 32405 net.cpp:100] Creating Layer L2_b5_cbr1_relu
I0821 06:49:15.092272 32405 net.cpp:434] L2_b5_cbr1_relu <- L2_b5_cbr1_bn_top
I0821 06:49:15.092279 32405 net.cpp:395] L2_b5_cbr1_relu -> L2_b5_cbr1_bn_top (in-place)
I0821 06:49:15.092288 32405 net.cpp:150] Setting up L2_b5_cbr1_relu
I0821 06:49:15.092295 32405 net.cpp:157] Top shape: 125 32 16 16 (1024000)
I0821 06:49:15.092299 32405 net.cpp:165] Memory required for data: 1048065500
I0821 06:49:15.092304 32405 layer_factory.hpp:77] Creating layer L2_b5_cbr2_conv
I0821 06:49:15.092319 32405 net.cpp:100] Creating Layer L2_b5_cbr2_conv
I0821 06:49:15.092324 32405 net.cpp:434] L2_b5_cbr2_conv <- L2_b5_cbr1_bn_top
I0821 06:49:15.092335 32405 net.cpp:408] L2_b5_cbr2_conv -> L2_b5_cbr2_conv_top
I0821 06:49:15.092794 32405 net.cpp:150] Setting up L2_b5_cbr2_conv
I0821 06:49:15.092808 32405 net.cpp:157] Top shape: 125 32 16 16 (1024000)
I0821 06:49:15.092813 32405 net.cpp:165] Memory required for data: 1052161500
I0821 06:49:15.092821 32405 layer_factory.hpp:77] Creating layer L2_b5_cbr2_bn
I0821 06:49:15.092833 32405 net.cpp:100] Creating Layer L2_b5_cbr2_bn
I0821 06:49:15.092840 32405 net.cpp:434] L2_b5_cbr2_bn <- L2_b5_cbr2_conv_top
I0821 06:49:15.092850 32405 net.cpp:408] L2_b5_cbr2_bn -> L2_b5_cbr2_bn_top
I0821 06:49:15.093102 32405 net.cpp:150] Setting up L2_b5_cbr2_bn
I0821 06:49:15.093116 32405 net.cpp:157] Top shape: 125 32 16 16 (1024000)
I0821 06:49:15.093122 32405 net.cpp:165] Memory required for data: 1056257500
I0821 06:49:15.093132 32405 layer_factory.hpp:77] Creating layer L2_b5_cbr2_scale
I0821 06:49:15.093140 32405 net.cpp:100] Creating Layer L2_b5_cbr2_scale
I0821 06:49:15.093147 32405 net.cpp:434] L2_b5_cbr2_scale <- L2_b5_cbr2_bn_top
I0821 06:49:15.093154 32405 net.cpp:395] L2_b5_cbr2_scale -> L2_b5_cbr2_bn_top (in-place)
I0821 06:49:15.093210 32405 layer_factory.hpp:77] Creating layer L2_b5_cbr2_scale
I0821 06:49:15.093356 32405 net.cpp:150] Setting up L2_b5_cbr2_scale
I0821 06:49:15.093369 32405 net.cpp:157] Top shape: 125 32 16 16 (1024000)
I0821 06:49:15.093374 32405 net.cpp:165] Memory required for data: 1060353500
I0821 06:49:15.093382 32405 layer_factory.hpp:77] Creating layer L2_b5_sum_eltwise
I0821 06:49:15.093394 32405 net.cpp:100] Creating Layer L2_b5_sum_eltwise
I0821 06:49:15.093400 32405 net.cpp:434] L2_b5_sum_eltwise <- L2_b5_cbr2_bn_top
I0821 06:49:15.093407 32405 net.cpp:434] L2_b5_sum_eltwise <- L2_b4_sum_eltwise_top_L2_b4_relu_0_split_1
I0821 06:49:15.093415 32405 net.cpp:408] L2_b5_sum_eltwise -> L2_b5_sum_eltwise_top
I0821 06:49:15.093444 32405 net.cpp:150] Setting up L2_b5_sum_eltwise
I0821 06:49:15.093453 32405 net.cpp:157] Top shape: 125 32 16 16 (1024000)
I0821 06:49:15.093464 32405 net.cpp:165] Memory required for data: 1064449500
I0821 06:49:15.093469 32405 layer_factory.hpp:77] Creating layer L2_b5_relu
I0821 06:49:15.093477 32405 net.cpp:100] Creating Layer L2_b5_relu
I0821 06:49:15.093483 32405 net.cpp:434] L2_b5_relu <- L2_b5_sum_eltwise_top
I0821 06:49:15.093492 32405 net.cpp:395] L2_b5_relu -> L2_b5_sum_eltwise_top (in-place)
I0821 06:49:15.093502 32405 net.cpp:150] Setting up L2_b5_relu
I0821 06:49:15.093509 32405 net.cpp:157] Top shape: 125 32 16 16 (1024000)
I0821 06:49:15.093513 32405 net.cpp:165] Memory required for data: 1068545500
I0821 06:49:15.093518 32405 layer_factory.hpp:77] Creating layer L2_b5_sum_eltwise_top_L2_b5_relu_0_split
I0821 06:49:15.093525 32405 net.cpp:100] Creating Layer L2_b5_sum_eltwise_top_L2_b5_relu_0_split
I0821 06:49:15.093530 32405 net.cpp:434] L2_b5_sum_eltwise_top_L2_b5_relu_0_split <- L2_b5_sum_eltwise_top
I0821 06:49:15.093540 32405 net.cpp:408] L2_b5_sum_eltwise_top_L2_b5_relu_0_split -> L2_b5_sum_eltwise_top_L2_b5_relu_0_split_0
I0821 06:49:15.093550 32405 net.cpp:408] L2_b5_sum_eltwise_top_L2_b5_relu_0_split -> L2_b5_sum_eltwise_top_L2_b5_relu_0_split_1
I0821 06:49:15.093593 32405 net.cpp:150] Setting up L2_b5_sum_eltwise_top_L2_b5_relu_0_split
I0821 06:49:15.093605 32405 net.cpp:157] Top shape: 125 32 16 16 (1024000)
I0821 06:49:15.093612 32405 net.cpp:157] Top shape: 125 32 16 16 (1024000)
I0821 06:49:15.093616 32405 net.cpp:165] Memory required for data: 1076737500
I0821 06:49:15.093621 32405 layer_factory.hpp:77] Creating layer L2_b6_cbr1_conv
I0821 06:49:15.093636 32405 net.cpp:100] Creating Layer L2_b6_cbr1_conv
I0821 06:49:15.093642 32405 net.cpp:434] L2_b6_cbr1_conv <- L2_b5_sum_eltwise_top_L2_b5_relu_0_split_0
I0821 06:49:15.093652 32405 net.cpp:408] L2_b6_cbr1_conv -> L2_b6_cbr1_conv_top
I0821 06:49:15.094128 32405 net.cpp:150] Setting up L2_b6_cbr1_conv
I0821 06:49:15.094142 32405 net.cpp:157] Top shape: 125 32 16 16 (1024000)
I0821 06:49:15.094147 32405 net.cpp:165] Memory required for data: 1080833500
I0821 06:49:15.094156 32405 layer_factory.hpp:77] Creating layer L2_b6_cbr1_bn
I0821 06:49:15.094166 32405 net.cpp:100] Creating Layer L2_b6_cbr1_bn
I0821 06:49:15.094174 32405 net.cpp:434] L2_b6_cbr1_bn <- L2_b6_cbr1_conv_top
I0821 06:49:15.094183 32405 net.cpp:408] L2_b6_cbr1_bn -> L2_b6_cbr1_bn_top
I0821 06:49:15.094429 32405 net.cpp:150] Setting up L2_b6_cbr1_bn
I0821 06:49:15.094442 32405 net.cpp:157] Top shape: 125 32 16 16 (1024000)
I0821 06:49:15.094447 32405 net.cpp:165] Memory required for data: 1084929500
I0821 06:49:15.094457 32405 layer_factory.hpp:77] Creating layer L2_b6_cbr1_scale
I0821 06:49:15.094466 32405 net.cpp:100] Creating Layer L2_b6_cbr1_scale
I0821 06:49:15.094472 32405 net.cpp:434] L2_b6_cbr1_scale <- L2_b6_cbr1_bn_top
I0821 06:49:15.094480 32405 net.cpp:395] L2_b6_cbr1_scale -> L2_b6_cbr1_bn_top (in-place)
I0821 06:49:15.094537 32405 layer_factory.hpp:77] Creating layer L2_b6_cbr1_scale
I0821 06:49:15.094683 32405 net.cpp:150] Setting up L2_b6_cbr1_scale
I0821 06:49:15.094698 32405 net.cpp:157] Top shape: 125 32 16 16 (1024000)
I0821 06:49:15.094703 32405 net.cpp:165] Memory required for data: 1089025500
I0821 06:49:15.094712 32405 layer_factory.hpp:77] Creating layer L2_b6_cbr1_relu
I0821 06:49:15.094720 32405 net.cpp:100] Creating Layer L2_b6_cbr1_relu
I0821 06:49:15.094727 32405 net.cpp:434] L2_b6_cbr1_relu <- L2_b6_cbr1_bn_top
I0821 06:49:15.094733 32405 net.cpp:395] L2_b6_cbr1_relu -> L2_b6_cbr1_bn_top (in-place)
I0821 06:49:15.094743 32405 net.cpp:150] Setting up L2_b6_cbr1_relu
I0821 06:49:15.094749 32405 net.cpp:157] Top shape: 125 32 16 16 (1024000)
I0821 06:49:15.094754 32405 net.cpp:165] Memory required for data: 1093121500
I0821 06:49:15.094758 32405 layer_factory.hpp:77] Creating layer L2_b6_cbr2_conv
I0821 06:49:15.094772 32405 net.cpp:100] Creating Layer L2_b6_cbr2_conv
I0821 06:49:15.094779 32405 net.cpp:434] L2_b6_cbr2_conv <- L2_b6_cbr1_bn_top
I0821 06:49:15.094789 32405 net.cpp:408] L2_b6_cbr2_conv -> L2_b6_cbr2_conv_top
I0821 06:49:15.095260 32405 net.cpp:150] Setting up L2_b6_cbr2_conv
I0821 06:49:15.095280 32405 net.cpp:157] Top shape: 125 32 16 16 (1024000)
I0821 06:49:15.095285 32405 net.cpp:165] Memory required for data: 1097217500
I0821 06:49:15.095294 32405 layer_factory.hpp:77] Creating layer L2_b6_cbr2_bn
I0821 06:49:15.095306 32405 net.cpp:100] Creating Layer L2_b6_cbr2_bn
I0821 06:49:15.095314 32405 net.cpp:434] L2_b6_cbr2_bn <- L2_b6_cbr2_conv_top
I0821 06:49:15.095324 32405 net.cpp:408] L2_b6_cbr2_bn -> L2_b6_cbr2_bn_top
I0821 06:49:15.095571 32405 net.cpp:150] Setting up L2_b6_cbr2_bn
I0821 06:49:15.095582 32405 net.cpp:157] Top shape: 125 32 16 16 (1024000)
I0821 06:49:15.095587 32405 net.cpp:165] Memory required for data: 1101313500
I0821 06:49:15.095598 32405 layer_factory.hpp:77] Creating layer L2_b6_cbr2_scale
I0821 06:49:15.095607 32405 net.cpp:100] Creating Layer L2_b6_cbr2_scale
I0821 06:49:15.095613 32405 net.cpp:434] L2_b6_cbr2_scale <- L2_b6_cbr2_bn_top
I0821 06:49:15.095620 32405 net.cpp:395] L2_b6_cbr2_scale -> L2_b6_cbr2_bn_top (in-place)
I0821 06:49:15.095679 32405 layer_factory.hpp:77] Creating layer L2_b6_cbr2_scale
I0821 06:49:15.095825 32405 net.cpp:150] Setting up L2_b6_cbr2_scale
I0821 06:49:15.095839 32405 net.cpp:157] Top shape: 125 32 16 16 (1024000)
I0821 06:49:15.095844 32405 net.cpp:165] Memory required for data: 1105409500
I0821 06:49:15.095852 32405 layer_factory.hpp:77] Creating layer L2_b6_sum_eltwise
I0821 06:49:15.095870 32405 net.cpp:100] Creating Layer L2_b6_sum_eltwise
I0821 06:49:15.095876 32405 net.cpp:434] L2_b6_sum_eltwise <- L2_b6_cbr2_bn_top
I0821 06:49:15.095885 32405 net.cpp:434] L2_b6_sum_eltwise <- L2_b5_sum_eltwise_top_L2_b5_relu_0_split_1
I0821 06:49:15.095891 32405 net.cpp:408] L2_b6_sum_eltwise -> L2_b6_sum_eltwise_top
I0821 06:49:15.095919 32405 net.cpp:150] Setting up L2_b6_sum_eltwise
I0821 06:49:15.095928 32405 net.cpp:157] Top shape: 125 32 16 16 (1024000)
I0821 06:49:15.095932 32405 net.cpp:165] Memory required for data: 1109505500
I0821 06:49:15.095937 32405 layer_factory.hpp:77] Creating layer L2_b6_relu
I0821 06:49:15.095948 32405 net.cpp:100] Creating Layer L2_b6_relu
I0821 06:49:15.095954 32405 net.cpp:434] L2_b6_relu <- L2_b6_sum_eltwise_top
I0821 06:49:15.095962 32405 net.cpp:395] L2_b6_relu -> L2_b6_sum_eltwise_top (in-place)
I0821 06:49:15.095970 32405 net.cpp:150] Setting up L2_b6_relu
I0821 06:49:15.095978 32405 net.cpp:157] Top shape: 125 32 16 16 (1024000)
I0821 06:49:15.095981 32405 net.cpp:165] Memory required for data: 1113601500
I0821 06:49:15.095986 32405 layer_factory.hpp:77] Creating layer L2_b6_sum_eltwise_top_L2_b6_relu_0_split
I0821 06:49:15.095993 32405 net.cpp:100] Creating Layer L2_b6_sum_eltwise_top_L2_b6_relu_0_split
I0821 06:49:15.095999 32405 net.cpp:434] L2_b6_sum_eltwise_top_L2_b6_relu_0_split <- L2_b6_sum_eltwise_top
I0821 06:49:15.096005 32405 net.cpp:408] L2_b6_sum_eltwise_top_L2_b6_relu_0_split -> L2_b6_sum_eltwise_top_L2_b6_relu_0_split_0
I0821 06:49:15.096015 32405 net.cpp:408] L2_b6_sum_eltwise_top_L2_b6_relu_0_split -> L2_b6_sum_eltwise_top_L2_b6_relu_0_split_1
I0821 06:49:15.096062 32405 net.cpp:150] Setting up L2_b6_sum_eltwise_top_L2_b6_relu_0_split
I0821 06:49:15.096073 32405 net.cpp:157] Top shape: 125 32 16 16 (1024000)
I0821 06:49:15.096081 32405 net.cpp:157] Top shape: 125 32 16 16 (1024000)
I0821 06:49:15.096084 32405 net.cpp:165] Memory required for data: 1121793500
I0821 06:49:15.096089 32405 layer_factory.hpp:77] Creating layer L2_b7_cbr1_conv
I0821 06:49:15.096103 32405 net.cpp:100] Creating Layer L2_b7_cbr1_conv
I0821 06:49:15.096109 32405 net.cpp:434] L2_b7_cbr1_conv <- L2_b6_sum_eltwise_top_L2_b6_relu_0_split_0
I0821 06:49:15.096118 32405 net.cpp:408] L2_b7_cbr1_conv -> L2_b7_cbr1_conv_top
I0821 06:49:15.096587 32405 net.cpp:150] Setting up L2_b7_cbr1_conv
I0821 06:49:15.096601 32405 net.cpp:157] Top shape: 125 32 16 16 (1024000)
I0821 06:49:15.096606 32405 net.cpp:165] Memory required for data: 1125889500
I0821 06:49:15.096616 32405 layer_factory.hpp:77] Creating layer L2_b7_cbr1_bn
I0821 06:49:15.096627 32405 net.cpp:100] Creating Layer L2_b7_cbr1_bn
I0821 06:49:15.096639 32405 net.cpp:434] L2_b7_cbr1_bn <- L2_b7_cbr1_conv_top
I0821 06:49:15.096652 32405 net.cpp:408] L2_b7_cbr1_bn -> L2_b7_cbr1_bn_top
I0821 06:49:15.096912 32405 net.cpp:150] Setting up L2_b7_cbr1_bn
I0821 06:49:15.096925 32405 net.cpp:157] Top shape: 125 32 16 16 (1024000)
I0821 06:49:15.096930 32405 net.cpp:165] Memory required for data: 1129985500
I0821 06:49:15.096940 32405 layer_factory.hpp:77] Creating layer L2_b7_cbr1_scale
I0821 06:49:15.096949 32405 net.cpp:100] Creating Layer L2_b7_cbr1_scale
I0821 06:49:15.096956 32405 net.cpp:434] L2_b7_cbr1_scale <- L2_b7_cbr1_bn_top
I0821 06:49:15.096963 32405 net.cpp:395] L2_b7_cbr1_scale -> L2_b7_cbr1_bn_top (in-place)
I0821 06:49:15.097021 32405 layer_factory.hpp:77] Creating layer L2_b7_cbr1_scale
I0821 06:49:15.097170 32405 net.cpp:150] Setting up L2_b7_cbr1_scale
I0821 06:49:15.097183 32405 net.cpp:157] Top shape: 125 32 16 16 (1024000)
I0821 06:49:15.097188 32405 net.cpp:165] Memory required for data: 1134081500
I0821 06:49:15.097198 32405 layer_factory.hpp:77] Creating layer L2_b7_cbr1_relu
I0821 06:49:15.097208 32405 net.cpp:100] Creating Layer L2_b7_cbr1_relu
I0821 06:49:15.097214 32405 net.cpp:434] L2_b7_cbr1_relu <- L2_b7_cbr1_bn_top
I0821 06:49:15.097221 32405 net.cpp:395] L2_b7_cbr1_relu -> L2_b7_cbr1_bn_top (in-place)
I0821 06:49:15.097230 32405 net.cpp:150] Setting up L2_b7_cbr1_relu
I0821 06:49:15.097237 32405 net.cpp:157] Top shape: 125 32 16 16 (1024000)
I0821 06:49:15.097242 32405 net.cpp:165] Memory required for data: 1138177500
I0821 06:49:15.097246 32405 layer_factory.hpp:77] Creating layer L2_b7_cbr2_conv
I0821 06:49:15.097261 32405 net.cpp:100] Creating Layer L2_b7_cbr2_conv
I0821 06:49:15.097267 32405 net.cpp:434] L2_b7_cbr2_conv <- L2_b7_cbr1_bn_top
I0821 06:49:15.097280 32405 net.cpp:408] L2_b7_cbr2_conv -> L2_b7_cbr2_conv_top
I0821 06:49:15.097743 32405 net.cpp:150] Setting up L2_b7_cbr2_conv
I0821 06:49:15.097757 32405 net.cpp:157] Top shape: 125 32 16 16 (1024000)
I0821 06:49:15.097761 32405 net.cpp:165] Memory required for data: 1142273500
I0821 06:49:15.097770 32405 layer_factory.hpp:77] Creating layer L2_b7_cbr2_bn
I0821 06:49:15.097782 32405 net.cpp:100] Creating Layer L2_b7_cbr2_bn
I0821 06:49:15.097789 32405 net.cpp:434] L2_b7_cbr2_bn <- L2_b7_cbr2_conv_top
I0821 06:49:15.097800 32405 net.cpp:408] L2_b7_cbr2_bn -> L2_b7_cbr2_bn_top
I0821 06:49:15.098062 32405 net.cpp:150] Setting up L2_b7_cbr2_bn
I0821 06:49:15.098076 32405 net.cpp:157] Top shape: 125 32 16 16 (1024000)
I0821 06:49:15.098080 32405 net.cpp:165] Memory required for data: 1146369500
I0821 06:49:15.098091 32405 layer_factory.hpp:77] Creating layer L2_b7_cbr2_scale
I0821 06:49:15.098100 32405 net.cpp:100] Creating Layer L2_b7_cbr2_scale
I0821 06:49:15.098106 32405 net.cpp:434] L2_b7_cbr2_scale <- L2_b7_cbr2_bn_top
I0821 06:49:15.098114 32405 net.cpp:395] L2_b7_cbr2_scale -> L2_b7_cbr2_bn_top (in-place)
I0821 06:49:15.098171 32405 layer_factory.hpp:77] Creating layer L2_b7_cbr2_scale
I0821 06:49:15.098316 32405 net.cpp:150] Setting up L2_b7_cbr2_scale
I0821 06:49:15.098328 32405 net.cpp:157] Top shape: 125 32 16 16 (1024000)
I0821 06:49:15.098333 32405 net.cpp:165] Memory required for data: 1150465500
I0821 06:49:15.098342 32405 layer_factory.hpp:77] Creating layer L2_b7_sum_eltwise
I0821 06:49:15.098354 32405 net.cpp:100] Creating Layer L2_b7_sum_eltwise
I0821 06:49:15.098361 32405 net.cpp:434] L2_b7_sum_eltwise <- L2_b7_cbr2_bn_top
I0821 06:49:15.098367 32405 net.cpp:434] L2_b7_sum_eltwise <- L2_b6_sum_eltwise_top_L2_b6_relu_0_split_1
I0821 06:49:15.098374 32405 net.cpp:408] L2_b7_sum_eltwise -> L2_b7_sum_eltwise_top
I0821 06:49:15.098402 32405 net.cpp:150] Setting up L2_b7_sum_eltwise
I0821 06:49:15.098410 32405 net.cpp:157] Top shape: 125 32 16 16 (1024000)
I0821 06:49:15.098414 32405 net.cpp:165] Memory required for data: 1154561500
I0821 06:49:15.098420 32405 layer_factory.hpp:77] Creating layer L2_b7_relu
I0821 06:49:15.098431 32405 net.cpp:100] Creating Layer L2_b7_relu
I0821 06:49:15.098436 32405 net.cpp:434] L2_b7_relu <- L2_b7_sum_eltwise_top
I0821 06:49:15.098444 32405 net.cpp:395] L2_b7_relu -> L2_b7_sum_eltwise_top (in-place)
I0821 06:49:15.098459 32405 net.cpp:150] Setting up L2_b7_relu
I0821 06:49:15.098467 32405 net.cpp:157] Top shape: 125 32 16 16 (1024000)
I0821 06:49:15.098471 32405 net.cpp:165] Memory required for data: 1158657500
I0821 06:49:15.098476 32405 layer_factory.hpp:77] Creating layer L2_b7_sum_eltwise_top_L2_b7_relu_0_split
I0821 06:49:15.098484 32405 net.cpp:100] Creating Layer L2_b7_sum_eltwise_top_L2_b7_relu_0_split
I0821 06:49:15.098489 32405 net.cpp:434] L2_b7_sum_eltwise_top_L2_b7_relu_0_split <- L2_b7_sum_eltwise_top
I0821 06:49:15.098495 32405 net.cpp:408] L2_b7_sum_eltwise_top_L2_b7_relu_0_split -> L2_b7_sum_eltwise_top_L2_b7_relu_0_split_0
I0821 06:49:15.098505 32405 net.cpp:408] L2_b7_sum_eltwise_top_L2_b7_relu_0_split -> L2_b7_sum_eltwise_top_L2_b7_relu_0_split_1
I0821 06:49:15.098552 32405 net.cpp:150] Setting up L2_b7_sum_eltwise_top_L2_b7_relu_0_split
I0821 06:49:15.098564 32405 net.cpp:157] Top shape: 125 32 16 16 (1024000)
I0821 06:49:15.098570 32405 net.cpp:157] Top shape: 125 32 16 16 (1024000)
I0821 06:49:15.098575 32405 net.cpp:165] Memory required for data: 1166849500
I0821 06:49:15.098580 32405 layer_factory.hpp:77] Creating layer L2_b8_cbr1_conv
I0821 06:49:15.098593 32405 net.cpp:100] Creating Layer L2_b8_cbr1_conv
I0821 06:49:15.098600 32405 net.cpp:434] L2_b8_cbr1_conv <- L2_b7_sum_eltwise_top_L2_b7_relu_0_split_0
I0821 06:49:15.098609 32405 net.cpp:408] L2_b8_cbr1_conv -> L2_b8_cbr1_conv_top
I0821 06:49:15.099086 32405 net.cpp:150] Setting up L2_b8_cbr1_conv
I0821 06:49:15.099102 32405 net.cpp:157] Top shape: 125 32 16 16 (1024000)
I0821 06:49:15.099107 32405 net.cpp:165] Memory required for data: 1170945500
I0821 06:49:15.099114 32405 layer_factory.hpp:77] Creating layer L2_b8_cbr1_bn
I0821 06:49:15.099126 32405 net.cpp:100] Creating Layer L2_b8_cbr1_bn
I0821 06:49:15.099133 32405 net.cpp:434] L2_b8_cbr1_bn <- L2_b8_cbr1_conv_top
I0821 06:49:15.099143 32405 net.cpp:408] L2_b8_cbr1_bn -> L2_b8_cbr1_bn_top
I0821 06:49:15.099391 32405 net.cpp:150] Setting up L2_b8_cbr1_bn
I0821 06:49:15.099405 32405 net.cpp:157] Top shape: 125 32 16 16 (1024000)
I0821 06:49:15.099409 32405 net.cpp:165] Memory required for data: 1175041500
I0821 06:49:15.099419 32405 layer_factory.hpp:77] Creating layer L2_b8_cbr1_scale
I0821 06:49:15.099428 32405 net.cpp:100] Creating Layer L2_b8_cbr1_scale
I0821 06:49:15.099434 32405 net.cpp:434] L2_b8_cbr1_scale <- L2_b8_cbr1_bn_top
I0821 06:49:15.099442 32405 net.cpp:395] L2_b8_cbr1_scale -> L2_b8_cbr1_bn_top (in-place)
I0821 06:49:15.099498 32405 layer_factory.hpp:77] Creating layer L2_b8_cbr1_scale
I0821 06:49:15.099651 32405 net.cpp:150] Setting up L2_b8_cbr1_scale
I0821 06:49:15.099664 32405 net.cpp:157] Top shape: 125 32 16 16 (1024000)
I0821 06:49:15.099669 32405 net.cpp:165] Memory required for data: 1179137500
I0821 06:49:15.099678 32405 layer_factory.hpp:77] Creating layer L2_b8_cbr1_relu
I0821 06:49:15.099689 32405 net.cpp:100] Creating Layer L2_b8_cbr1_relu
I0821 06:49:15.099695 32405 net.cpp:434] L2_b8_cbr1_relu <- L2_b8_cbr1_bn_top
I0821 06:49:15.099702 32405 net.cpp:395] L2_b8_cbr1_relu -> L2_b8_cbr1_bn_top (in-place)
I0821 06:49:15.099712 32405 net.cpp:150] Setting up L2_b8_cbr1_relu
I0821 06:49:15.099719 32405 net.cpp:157] Top shape: 125 32 16 16 (1024000)
I0821 06:49:15.099723 32405 net.cpp:165] Memory required for data: 1183233500
I0821 06:49:15.099727 32405 layer_factory.hpp:77] Creating layer L2_b8_cbr2_conv
I0821 06:49:15.099741 32405 net.cpp:100] Creating Layer L2_b8_cbr2_conv
I0821 06:49:15.099747 32405 net.cpp:434] L2_b8_cbr2_conv <- L2_b8_cbr1_bn_top
I0821 06:49:15.099756 32405 net.cpp:408] L2_b8_cbr2_conv -> L2_b8_cbr2_conv_top
I0821 06:49:15.100230 32405 net.cpp:150] Setting up L2_b8_cbr2_conv
I0821 06:49:15.100245 32405 net.cpp:157] Top shape: 125 32 16 16 (1024000)
I0821 06:49:15.100250 32405 net.cpp:165] Memory required for data: 1187329500
I0821 06:49:15.100258 32405 layer_factory.hpp:77] Creating layer L2_b8_cbr2_bn
I0821 06:49:15.100270 32405 net.cpp:100] Creating Layer L2_b8_cbr2_bn
I0821 06:49:15.100286 32405 net.cpp:434] L2_b8_cbr2_bn <- L2_b8_cbr2_conv_top
I0821 06:49:15.100294 32405 net.cpp:408] L2_b8_cbr2_bn -> L2_b8_cbr2_bn_top
I0821 06:49:15.100548 32405 net.cpp:150] Setting up L2_b8_cbr2_bn
I0821 06:49:15.100564 32405 net.cpp:157] Top shape: 125 32 16 16 (1024000)
I0821 06:49:15.100569 32405 net.cpp:165] Memory required for data: 1191425500
I0821 06:49:15.100579 32405 layer_factory.hpp:77] Creating layer L2_b8_cbr2_scale
I0821 06:49:15.100589 32405 net.cpp:100] Creating Layer L2_b8_cbr2_scale
I0821 06:49:15.100594 32405 net.cpp:434] L2_b8_cbr2_scale <- L2_b8_cbr2_bn_top
I0821 06:49:15.100601 32405 net.cpp:395] L2_b8_cbr2_scale -> L2_b8_cbr2_bn_top (in-place)
I0821 06:49:15.100657 32405 layer_factory.hpp:77] Creating layer L2_b8_cbr2_scale
I0821 06:49:15.100807 32405 net.cpp:150] Setting up L2_b8_cbr2_scale
I0821 06:49:15.100821 32405 net.cpp:157] Top shape: 125 32 16 16 (1024000)
I0821 06:49:15.100826 32405 net.cpp:165] Memory required for data: 1195521500
I0821 06:49:15.100833 32405 layer_factory.hpp:77] Creating layer L2_b8_sum_eltwise
I0821 06:49:15.100842 32405 net.cpp:100] Creating Layer L2_b8_sum_eltwise
I0821 06:49:15.100848 32405 net.cpp:434] L2_b8_sum_eltwise <- L2_b8_cbr2_bn_top
I0821 06:49:15.100855 32405 net.cpp:434] L2_b8_sum_eltwise <- L2_b7_sum_eltwise_top_L2_b7_relu_0_split_1
I0821 06:49:15.100872 32405 net.cpp:408] L2_b8_sum_eltwise -> L2_b8_sum_eltwise_top
I0821 06:49:15.100900 32405 net.cpp:150] Setting up L2_b8_sum_eltwise
I0821 06:49:15.100910 32405 net.cpp:157] Top shape: 125 32 16 16 (1024000)
I0821 06:49:15.100914 32405 net.cpp:165] Memory required for data: 1199617500
I0821 06:49:15.100920 32405 layer_factory.hpp:77] Creating layer L2_b8_relu
I0821 06:49:15.100930 32405 net.cpp:100] Creating Layer L2_b8_relu
I0821 06:49:15.100936 32405 net.cpp:434] L2_b8_relu <- L2_b8_sum_eltwise_top
I0821 06:49:15.100944 32405 net.cpp:395] L2_b8_relu -> L2_b8_sum_eltwise_top (in-place)
I0821 06:49:15.100953 32405 net.cpp:150] Setting up L2_b8_relu
I0821 06:49:15.100960 32405 net.cpp:157] Top shape: 125 32 16 16 (1024000)
I0821 06:49:15.100965 32405 net.cpp:165] Memory required for data: 1203713500
I0821 06:49:15.100970 32405 layer_factory.hpp:77] Creating layer L2_b8_sum_eltwise_top_L2_b8_relu_0_split
I0821 06:49:15.100976 32405 net.cpp:100] Creating Layer L2_b8_sum_eltwise_top_L2_b8_relu_0_split
I0821 06:49:15.100981 32405 net.cpp:434] L2_b8_sum_eltwise_top_L2_b8_relu_0_split <- L2_b8_sum_eltwise_top
I0821 06:49:15.100988 32405 net.cpp:408] L2_b8_sum_eltwise_top_L2_b8_relu_0_split -> L2_b8_sum_eltwise_top_L2_b8_relu_0_split_0
I0821 06:49:15.101011 32405 net.cpp:408] L2_b8_sum_eltwise_top_L2_b8_relu_0_split -> L2_b8_sum_eltwise_top_L2_b8_relu_0_split_1
I0821 06:49:15.101061 32405 net.cpp:150] Setting up L2_b8_sum_eltwise_top_L2_b8_relu_0_split
I0821 06:49:15.101073 32405 net.cpp:157] Top shape: 125 32 16 16 (1024000)
I0821 06:49:15.101080 32405 net.cpp:157] Top shape: 125 32 16 16 (1024000)
I0821 06:49:15.101085 32405 net.cpp:165] Memory required for data: 1211905500
I0821 06:49:15.101089 32405 layer_factory.hpp:77] Creating layer L2_b9_cbr1_conv
I0821 06:49:15.101105 32405 net.cpp:100] Creating Layer L2_b9_cbr1_conv
I0821 06:49:15.101111 32405 net.cpp:434] L2_b9_cbr1_conv <- L2_b8_sum_eltwise_top_L2_b8_relu_0_split_0
I0821 06:49:15.101120 32405 net.cpp:408] L2_b9_cbr1_conv -> L2_b9_cbr1_conv_top
I0821 06:49:15.101593 32405 net.cpp:150] Setting up L2_b9_cbr1_conv
I0821 06:49:15.101606 32405 net.cpp:157] Top shape: 125 32 16 16 (1024000)
I0821 06:49:15.101610 32405 net.cpp:165] Memory required for data: 1216001500
I0821 06:49:15.101619 32405 layer_factory.hpp:77] Creating layer L2_b9_cbr1_bn
I0821 06:49:15.101631 32405 net.cpp:100] Creating Layer L2_b9_cbr1_bn
I0821 06:49:15.101639 32405 net.cpp:434] L2_b9_cbr1_bn <- L2_b9_cbr1_conv_top
I0821 06:49:15.101646 32405 net.cpp:408] L2_b9_cbr1_bn -> L2_b9_cbr1_bn_top
I0821 06:49:15.101903 32405 net.cpp:150] Setting up L2_b9_cbr1_bn
I0821 06:49:15.101919 32405 net.cpp:157] Top shape: 125 32 16 16 (1024000)
I0821 06:49:15.101924 32405 net.cpp:165] Memory required for data: 1220097500
I0821 06:49:15.101943 32405 layer_factory.hpp:77] Creating layer L2_b9_cbr1_scale
I0821 06:49:15.101951 32405 net.cpp:100] Creating Layer L2_b9_cbr1_scale
I0821 06:49:15.101958 32405 net.cpp:434] L2_b9_cbr1_scale <- L2_b9_cbr1_bn_top
I0821 06:49:15.101965 32405 net.cpp:395] L2_b9_cbr1_scale -> L2_b9_cbr1_bn_top (in-place)
I0821 06:49:15.102023 32405 layer_factory.hpp:77] Creating layer L2_b9_cbr1_scale
I0821 06:49:15.102177 32405 net.cpp:150] Setting up L2_b9_cbr1_scale
I0821 06:49:15.102190 32405 net.cpp:157] Top shape: 125 32 16 16 (1024000)
I0821 06:49:15.102195 32405 net.cpp:165] Memory required for data: 1224193500
I0821 06:49:15.102203 32405 layer_factory.hpp:77] Creating layer L2_b9_cbr1_relu
I0821 06:49:15.102211 32405 net.cpp:100] Creating Layer L2_b9_cbr1_relu
I0821 06:49:15.102217 32405 net.cpp:434] L2_b9_cbr1_relu <- L2_b9_cbr1_bn_top
I0821 06:49:15.102227 32405 net.cpp:395] L2_b9_cbr1_relu -> L2_b9_cbr1_bn_top (in-place)
I0821 06:49:15.102237 32405 net.cpp:150] Setting up L2_b9_cbr1_relu
I0821 06:49:15.102244 32405 net.cpp:157] Top shape: 125 32 16 16 (1024000)
I0821 06:49:15.102248 32405 net.cpp:165] Memory required for data: 1228289500
I0821 06:49:15.102253 32405 layer_factory.hpp:77] Creating layer L2_b9_cbr2_conv
I0821 06:49:15.102264 32405 net.cpp:100] Creating Layer L2_b9_cbr2_conv
I0821 06:49:15.102269 32405 net.cpp:434] L2_b9_cbr2_conv <- L2_b9_cbr1_bn_top
I0821 06:49:15.102280 32405 net.cpp:408] L2_b9_cbr2_conv -> L2_b9_cbr2_conv_top
I0821 06:49:15.102742 32405 net.cpp:150] Setting up L2_b9_cbr2_conv
I0821 06:49:15.102756 32405 net.cpp:157] Top shape: 125 32 16 16 (1024000)
I0821 06:49:15.102761 32405 net.cpp:165] Memory required for data: 1232385500
I0821 06:49:15.102771 32405 layer_factory.hpp:77] Creating layer L2_b9_cbr2_bn
I0821 06:49:15.102779 32405 net.cpp:100] Creating Layer L2_b9_cbr2_bn
I0821 06:49:15.102785 32405 net.cpp:434] L2_b9_cbr2_bn <- L2_b9_cbr2_conv_top
I0821 06:49:15.102797 32405 net.cpp:408] L2_b9_cbr2_bn -> L2_b9_cbr2_bn_top
I0821 06:49:15.103060 32405 net.cpp:150] Setting up L2_b9_cbr2_bn
I0821 06:49:15.103075 32405 net.cpp:157] Top shape: 125 32 16 16 (1024000)
I0821 06:49:15.103080 32405 net.cpp:165] Memory required for data: 1236481500
I0821 06:49:15.103127 32405 layer_factory.hpp:77] Creating layer L2_b9_cbr2_scale
I0821 06:49:15.103139 32405 net.cpp:100] Creating Layer L2_b9_cbr2_scale
I0821 06:49:15.103145 32405 net.cpp:434] L2_b9_cbr2_scale <- L2_b9_cbr2_bn_top
I0821 06:49:15.103153 32405 net.cpp:395] L2_b9_cbr2_scale -> L2_b9_cbr2_bn_top (in-place)
I0821 06:49:15.103214 32405 layer_factory.hpp:77] Creating layer L2_b9_cbr2_scale
I0821 06:49:15.103361 32405 net.cpp:150] Setting up L2_b9_cbr2_scale
I0821 06:49:15.103377 32405 net.cpp:157] Top shape: 125 32 16 16 (1024000)
I0821 06:49:15.103382 32405 net.cpp:165] Memory required for data: 1240577500
I0821 06:49:15.103392 32405 layer_factory.hpp:77] Creating layer L2_b9_sum_eltwise
I0821 06:49:15.103401 32405 net.cpp:100] Creating Layer L2_b9_sum_eltwise
I0821 06:49:15.103407 32405 net.cpp:434] L2_b9_sum_eltwise <- L2_b9_cbr2_bn_top
I0821 06:49:15.103415 32405 net.cpp:434] L2_b9_sum_eltwise <- L2_b8_sum_eltwise_top_L2_b8_relu_0_split_1
I0821 06:49:15.103425 32405 net.cpp:408] L2_b9_sum_eltwise -> L2_b9_sum_eltwise_top
I0821 06:49:15.103452 32405 net.cpp:150] Setting up L2_b9_sum_eltwise
I0821 06:49:15.103461 32405 net.cpp:157] Top shape: 125 32 16 16 (1024000)
I0821 06:49:15.103466 32405 net.cpp:165] Memory required for data: 1244673500
I0821 06:49:15.103471 32405 layer_factory.hpp:77] Creating layer L2_b9_relu
I0821 06:49:15.103478 32405 net.cpp:100] Creating Layer L2_b9_relu
I0821 06:49:15.103483 32405 net.cpp:434] L2_b9_relu <- L2_b9_sum_eltwise_top
I0821 06:49:15.103493 32405 net.cpp:395] L2_b9_relu -> L2_b9_sum_eltwise_top (in-place)
I0821 06:49:15.103503 32405 net.cpp:150] Setting up L2_b9_relu
I0821 06:49:15.103510 32405 net.cpp:157] Top shape: 125 32 16 16 (1024000)
I0821 06:49:15.103514 32405 net.cpp:165] Memory required for data: 1248769500
I0821 06:49:15.103519 32405 layer_factory.hpp:77] Creating layer L2_b9_sum_eltwise_top_L2_b9_relu_0_split
I0821 06:49:15.103533 32405 net.cpp:100] Creating Layer L2_b9_sum_eltwise_top_L2_b9_relu_0_split
I0821 06:49:15.103538 32405 net.cpp:434] L2_b9_sum_eltwise_top_L2_b9_relu_0_split <- L2_b9_sum_eltwise_top
I0821 06:49:15.103549 32405 net.cpp:408] L2_b9_sum_eltwise_top_L2_b9_relu_0_split -> L2_b9_sum_eltwise_top_L2_b9_relu_0_split_0
I0821 06:49:15.103559 32405 net.cpp:408] L2_b9_sum_eltwise_top_L2_b9_relu_0_split -> L2_b9_sum_eltwise_top_L2_b9_relu_0_split_1
I0821 06:49:15.103603 32405 net.cpp:150] Setting up L2_b9_sum_eltwise_top_L2_b9_relu_0_split
I0821 06:49:15.103615 32405 net.cpp:157] Top shape: 125 32 16 16 (1024000)
I0821 06:49:15.103621 32405 net.cpp:157] Top shape: 125 32 16 16 (1024000)
I0821 06:49:15.103626 32405 net.cpp:165] Memory required for data: 1256961500
I0821 06:49:15.103631 32405 layer_factory.hpp:77] Creating layer L3_b1_cbr1_conv
I0821 06:49:15.103644 32405 net.cpp:100] Creating Layer L3_b1_cbr1_conv
I0821 06:49:15.103652 32405 net.cpp:434] L3_b1_cbr1_conv <- L2_b9_sum_eltwise_top_L2_b9_relu_0_split_0
I0821 06:49:15.103660 32405 net.cpp:408] L3_b1_cbr1_conv -> L3_b1_cbr1_conv_top
I0821 06:49:15.104146 32405 net.cpp:150] Setting up L3_b1_cbr1_conv
I0821 06:49:15.104161 32405 net.cpp:157] Top shape: 125 32 8 8 (256000)
I0821 06:49:15.104166 32405 net.cpp:165] Memory required for data: 1257985500
I0821 06:49:15.104174 32405 layer_factory.hpp:77] Creating layer L3_b1_cbr1_bn
I0821 06:49:15.104187 32405 net.cpp:100] Creating Layer L3_b1_cbr1_bn
I0821 06:49:15.104192 32405 net.cpp:434] L3_b1_cbr1_bn <- L3_b1_cbr1_conv_top
I0821 06:49:15.104200 32405 net.cpp:408] L3_b1_cbr1_bn -> L3_b1_cbr1_bn_top
I0821 06:49:15.104462 32405 net.cpp:150] Setting up L3_b1_cbr1_bn
I0821 06:49:15.104475 32405 net.cpp:157] Top shape: 125 32 8 8 (256000)
I0821 06:49:15.104480 32405 net.cpp:165] Memory required for data: 1259009500
I0821 06:49:15.104490 32405 layer_factory.hpp:77] Creating layer L3_b1_cbr1_scale
I0821 06:49:15.104501 32405 net.cpp:100] Creating Layer L3_b1_cbr1_scale
I0821 06:49:15.104507 32405 net.cpp:434] L3_b1_cbr1_scale <- L3_b1_cbr1_bn_top
I0821 06:49:15.104516 32405 net.cpp:395] L3_b1_cbr1_scale -> L3_b1_cbr1_bn_top (in-place)
I0821 06:49:15.104573 32405 layer_factory.hpp:77] Creating layer L3_b1_cbr1_scale
I0821 06:49:15.104729 32405 net.cpp:150] Setting up L3_b1_cbr1_scale
I0821 06:49:15.104743 32405 net.cpp:157] Top shape: 125 32 8 8 (256000)
I0821 06:49:15.104748 32405 net.cpp:165] Memory required for data: 1260033500
I0821 06:49:15.104755 32405 layer_factory.hpp:77] Creating layer L3_b1_cbr1_relu
I0821 06:49:15.104768 32405 net.cpp:100] Creating Layer L3_b1_cbr1_relu
I0821 06:49:15.104774 32405 net.cpp:434] L3_b1_cbr1_relu <- L3_b1_cbr1_bn_top
I0821 06:49:15.104782 32405 net.cpp:395] L3_b1_cbr1_relu -> L3_b1_cbr1_bn_top (in-place)
I0821 06:49:15.104794 32405 net.cpp:150] Setting up L3_b1_cbr1_relu
I0821 06:49:15.104801 32405 net.cpp:157] Top shape: 125 32 8 8 (256000)
I0821 06:49:15.104805 32405 net.cpp:165] Memory required for data: 1261057500
I0821 06:49:15.104810 32405 layer_factory.hpp:77] Creating layer L3_b1_cbr2_conv
I0821 06:49:15.104821 32405 net.cpp:100] Creating Layer L3_b1_cbr2_conv
I0821 06:49:15.104827 32405 net.cpp:434] L3_b1_cbr2_conv <- L3_b1_cbr1_bn_top
I0821 06:49:15.104838 32405 net.cpp:408] L3_b1_cbr2_conv -> L3_b1_cbr2_conv_top
I0821 06:49:15.105315 32405 net.cpp:150] Setting up L3_b1_cbr2_conv
I0821 06:49:15.105330 32405 net.cpp:157] Top shape: 125 32 8 8 (256000)
I0821 06:49:15.105335 32405 net.cpp:165] Memory required for data: 1262081500
I0821 06:49:15.105343 32405 layer_factory.hpp:77] Creating layer L3_b1_cbr2_bn
I0821 06:49:15.105352 32405 net.cpp:100] Creating Layer L3_b1_cbr2_bn
I0821 06:49:15.105360 32405 net.cpp:434] L3_b1_cbr2_bn <- L3_b1_cbr2_conv_top
I0821 06:49:15.105370 32405 net.cpp:408] L3_b1_cbr2_bn -> L3_b1_cbr2_bn_top
I0821 06:49:15.105633 32405 net.cpp:150] Setting up L3_b1_cbr2_bn
I0821 06:49:15.105646 32405 net.cpp:157] Top shape: 125 32 8 8 (256000)
I0821 06:49:15.105650 32405 net.cpp:165] Memory required for data: 1263105500
I0821 06:49:15.105667 32405 layer_factory.hpp:77] Creating layer L3_b1_cbr2_scale
I0821 06:49:15.105676 32405 net.cpp:100] Creating Layer L3_b1_cbr2_scale
I0821 06:49:15.105684 32405 net.cpp:434] L3_b1_cbr2_scale <- L3_b1_cbr2_bn_top
I0821 06:49:15.105690 32405 net.cpp:395] L3_b1_cbr2_scale -> L3_b1_cbr2_bn_top (in-place)
I0821 06:49:15.105748 32405 layer_factory.hpp:77] Creating layer L3_b1_cbr2_scale
I0821 06:49:15.105912 32405 net.cpp:150] Setting up L3_b1_cbr2_scale
I0821 06:49:15.105929 32405 net.cpp:157] Top shape: 125 32 8 8 (256000)
I0821 06:49:15.105934 32405 net.cpp:165] Memory required for data: 1264129500
I0821 06:49:15.105943 32405 layer_factory.hpp:77] Creating layer L3_b1_pool
I0821 06:49:15.105952 32405 net.cpp:100] Creating Layer L3_b1_pool
I0821 06:49:15.105958 32405 net.cpp:434] L3_b1_pool <- L2_b9_sum_eltwise_top_L2_b9_relu_0_split_1
I0821 06:49:15.105967 32405 net.cpp:408] L3_b1_pool -> L3_b1_pool
I0821 06:49:15.106004 32405 net.cpp:150] Setting up L3_b1_pool
I0821 06:49:15.106014 32405 net.cpp:157] Top shape: 125 32 8 8 (256000)
I0821 06:49:15.106019 32405 net.cpp:165] Memory required for data: 1265153500
I0821 06:49:15.106024 32405 layer_factory.hpp:77] Creating layer L3_b1_sum_eltwise
I0821 06:49:15.106032 32405 net.cpp:100] Creating Layer L3_b1_sum_eltwise
I0821 06:49:15.106039 32405 net.cpp:434] L3_b1_sum_eltwise <- L3_b1_cbr2_bn_top
I0821 06:49:15.106045 32405 net.cpp:434] L3_b1_sum_eltwise <- L3_b1_pool
I0821 06:49:15.106052 32405 net.cpp:408] L3_b1_sum_eltwise -> L3_b1_sum_eltwise_top
I0821 06:49:15.106086 32405 net.cpp:150] Setting up L3_b1_sum_eltwise
I0821 06:49:15.106096 32405 net.cpp:157] Top shape: 125 32 8 8 (256000)
I0821 06:49:15.106101 32405 net.cpp:165] Memory required for data: 1266177500
I0821 06:49:15.106106 32405 layer_factory.hpp:77] Creating layer L3_b1_relu
I0821 06:49:15.106112 32405 net.cpp:100] Creating Layer L3_b1_relu
I0821 06:49:15.106118 32405 net.cpp:434] L3_b1_relu <- L3_b1_sum_eltwise_top
I0821 06:49:15.106125 32405 net.cpp:395] L3_b1_relu -> L3_b1_sum_eltwise_top (in-place)
I0821 06:49:15.106134 32405 net.cpp:150] Setting up L3_b1_relu
I0821 06:49:15.106142 32405 net.cpp:157] Top shape: 125 32 8 8 (256000)
I0821 06:49:15.106145 32405 net.cpp:165] Memory required for data: 1267201500
I0821 06:49:15.106150 32405 layer_factory.hpp:77] Creating layer L3_b1_zeros
I0821 06:49:15.106159 32405 net.cpp:100] Creating Layer L3_b1_zeros
I0821 06:49:15.106169 32405 net.cpp:408] L3_b1_zeros -> L3_b1_zeros
I0821 06:49:15.107383 32405 net.cpp:150] Setting up L3_b1_zeros
I0821 06:49:15.107401 32405 net.cpp:157] Top shape: 125 32 8 8 (256000)
I0821 06:49:15.107406 32405 net.cpp:165] Memory required for data: 1268225500
I0821 06:49:15.107412 32405 layer_factory.hpp:77] Creating layer L3_b1_concat0
I0821 06:49:15.107425 32405 net.cpp:100] Creating Layer L3_b1_concat0
I0821 06:49:15.107431 32405 net.cpp:434] L3_b1_concat0 <- L3_b1_sum_eltwise_top
I0821 06:49:15.107439 32405 net.cpp:434] L3_b1_concat0 <- L3_b1_zeros
I0821 06:49:15.107447 32405 net.cpp:408] L3_b1_concat0 -> L3_b1_concat0
I0821 06:49:15.107491 32405 net.cpp:150] Setting up L3_b1_concat0
I0821 06:49:15.107503 32405 net.cpp:157] Top shape: 125 64 8 8 (512000)
I0821 06:49:15.107508 32405 net.cpp:165] Memory required for data: 1270273500
I0821 06:49:15.107513 32405 layer_factory.hpp:77] Creating layer L3_b1_concat0_L3_b1_concat0_0_split
I0821 06:49:15.107522 32405 net.cpp:100] Creating Layer L3_b1_concat0_L3_b1_concat0_0_split
I0821 06:49:15.107527 32405 net.cpp:434] L3_b1_concat0_L3_b1_concat0_0_split <- L3_b1_concat0
I0821 06:49:15.107537 32405 net.cpp:408] L3_b1_concat0_L3_b1_concat0_0_split -> L3_b1_concat0_L3_b1_concat0_0_split_0
I0821 06:49:15.107547 32405 net.cpp:408] L3_b1_concat0_L3_b1_concat0_0_split -> L3_b1_concat0_L3_b1_concat0_0_split_1
I0821 06:49:15.107595 32405 net.cpp:150] Setting up L3_b1_concat0_L3_b1_concat0_0_split
I0821 06:49:15.107609 32405 net.cpp:157] Top shape: 125 64 8 8 (512000)
I0821 06:49:15.107616 32405 net.cpp:157] Top shape: 125 64 8 8 (512000)
I0821 06:49:15.107628 32405 net.cpp:165] Memory required for data: 1274369500
I0821 06:49:15.107633 32405 layer_factory.hpp:77] Creating layer L3_b2_cbr1_conv
I0821 06:49:15.107648 32405 net.cpp:100] Creating Layer L3_b2_cbr1_conv
I0821 06:49:15.107656 32405 net.cpp:434] L3_b2_cbr1_conv <- L3_b1_concat0_L3_b1_concat0_0_split_0
I0821 06:49:15.107664 32405 net.cpp:408] L3_b2_cbr1_conv -> L3_b2_cbr1_conv_top
I0821 06:49:15.109635 32405 net.cpp:150] Setting up L3_b2_cbr1_conv
I0821 06:49:15.109652 32405 net.cpp:157] Top shape: 125 64 8 8 (512000)
I0821 06:49:15.109658 32405 net.cpp:165] Memory required for data: 1276417500
I0821 06:49:15.109668 32405 layer_factory.hpp:77] Creating layer L3_b2_cbr1_bn
I0821 06:49:15.109680 32405 net.cpp:100] Creating Layer L3_b2_cbr1_bn
I0821 06:49:15.109688 32405 net.cpp:434] L3_b2_cbr1_bn <- L3_b2_cbr1_conv_top
I0821 06:49:15.109696 32405 net.cpp:408] L3_b2_cbr1_bn -> L3_b2_cbr1_bn_top
I0821 06:49:15.109971 32405 net.cpp:150] Setting up L3_b2_cbr1_bn
I0821 06:49:15.109984 32405 net.cpp:157] Top shape: 125 64 8 8 (512000)
I0821 06:49:15.109989 32405 net.cpp:165] Memory required for data: 1278465500
I0821 06:49:15.110000 32405 layer_factory.hpp:77] Creating layer L3_b2_cbr1_scale
I0821 06:49:15.110013 32405 net.cpp:100] Creating Layer L3_b2_cbr1_scale
I0821 06:49:15.110019 32405 net.cpp:434] L3_b2_cbr1_scale <- L3_b2_cbr1_bn_top
I0821 06:49:15.110030 32405 net.cpp:395] L3_b2_cbr1_scale -> L3_b2_cbr1_bn_top (in-place)
I0821 06:49:15.110087 32405 layer_factory.hpp:77] Creating layer L3_b2_cbr1_scale
I0821 06:49:15.110246 32405 net.cpp:150] Setting up L3_b2_cbr1_scale
I0821 06:49:15.110260 32405 net.cpp:157] Top shape: 125 64 8 8 (512000)
I0821 06:49:15.110265 32405 net.cpp:165] Memory required for data: 1280513500
I0821 06:49:15.110275 32405 layer_factory.hpp:77] Creating layer L3_b2_cbr1_relu
I0821 06:49:15.110282 32405 net.cpp:100] Creating Layer L3_b2_cbr1_relu
I0821 06:49:15.110288 32405 net.cpp:434] L3_b2_cbr1_relu <- L3_b2_cbr1_bn_top
I0821 06:49:15.110299 32405 net.cpp:395] L3_b2_cbr1_relu -> L3_b2_cbr1_bn_top (in-place)
I0821 06:49:15.110309 32405 net.cpp:150] Setting up L3_b2_cbr1_relu
I0821 06:49:15.110316 32405 net.cpp:157] Top shape: 125 64 8 8 (512000)
I0821 06:49:15.110321 32405 net.cpp:165] Memory required for data: 1282561500
I0821 06:49:15.110325 32405 layer_factory.hpp:77] Creating layer L3_b2_cbr2_conv
I0821 06:49:15.110339 32405 net.cpp:100] Creating Layer L3_b2_cbr2_conv
I0821 06:49:15.110345 32405 net.cpp:434] L3_b2_cbr2_conv <- L3_b2_cbr1_bn_top
I0821 06:49:15.110354 32405 net.cpp:408] L3_b2_cbr2_conv -> L3_b2_cbr2_conv_top
I0821 06:49:15.111380 32405 net.cpp:150] Setting up L3_b2_cbr2_conv
I0821 06:49:15.111395 32405 net.cpp:157] Top shape: 125 64 8 8 (512000)
I0821 06:49:15.111400 32405 net.cpp:165] Memory required for data: 1284609500
I0821 06:49:15.111409 32405 layer_factory.hpp:77] Creating layer L3_b2_cbr2_bn
I0821 06:49:15.111421 32405 net.cpp:100] Creating Layer L3_b2_cbr2_bn
I0821 06:49:15.111428 32405 net.cpp:434] L3_b2_cbr2_bn <- L3_b2_cbr2_conv_top
I0821 06:49:15.111436 32405 net.cpp:408] L3_b2_cbr2_bn -> L3_b2_cbr2_bn_top
I0821 06:49:15.111701 32405 net.cpp:150] Setting up L3_b2_cbr2_bn
I0821 06:49:15.111714 32405 net.cpp:157] Top shape: 125 64 8 8 (512000)
I0821 06:49:15.111719 32405 net.cpp:165] Memory required for data: 1286657500
I0821 06:49:15.111730 32405 layer_factory.hpp:77] Creating layer L3_b2_cbr2_scale
I0821 06:49:15.111738 32405 net.cpp:100] Creating Layer L3_b2_cbr2_scale
I0821 06:49:15.111744 32405 net.cpp:434] L3_b2_cbr2_scale <- L3_b2_cbr2_bn_top
I0821 06:49:15.111752 32405 net.cpp:395] L3_b2_cbr2_scale -> L3_b2_cbr2_bn_top (in-place)
I0821 06:49:15.111812 32405 layer_factory.hpp:77] Creating layer L3_b2_cbr2_scale
I0821 06:49:15.111977 32405 net.cpp:150] Setting up L3_b2_cbr2_scale
I0821 06:49:15.111991 32405 net.cpp:157] Top shape: 125 64 8 8 (512000)
I0821 06:49:15.111996 32405 net.cpp:165] Memory required for data: 1288705500
I0821 06:49:15.112005 32405 layer_factory.hpp:77] Creating layer L3_b2_sum_eltwise
I0821 06:49:15.112015 32405 net.cpp:100] Creating Layer L3_b2_sum_eltwise
I0821 06:49:15.112028 32405 net.cpp:434] L3_b2_sum_eltwise <- L3_b2_cbr2_bn_top
I0821 06:49:15.112036 32405 net.cpp:434] L3_b2_sum_eltwise <- L3_b1_concat0_L3_b1_concat0_0_split_1
I0821 06:49:15.112049 32405 net.cpp:408] L3_b2_sum_eltwise -> L3_b2_sum_eltwise_top
I0821 06:49:15.112084 32405 net.cpp:150] Setting up L3_b2_sum_eltwise
I0821 06:49:15.112097 32405 net.cpp:157] Top shape: 125 64 8 8 (512000)
I0821 06:49:15.112102 32405 net.cpp:165] Memory required for data: 1290753500
I0821 06:49:15.112107 32405 layer_factory.hpp:77] Creating layer L3_b2_relu
I0821 06:49:15.112114 32405 net.cpp:100] Creating Layer L3_b2_relu
I0821 06:49:15.112120 32405 net.cpp:434] L3_b2_relu <- L3_b2_sum_eltwise_top
I0821 06:49:15.112128 32405 net.cpp:395] L3_b2_relu -> L3_b2_sum_eltwise_top (in-place)
I0821 06:49:15.112136 32405 net.cpp:150] Setting up L3_b2_relu
I0821 06:49:15.112143 32405 net.cpp:157] Top shape: 125 64 8 8 (512000)
I0821 06:49:15.112148 32405 net.cpp:165] Memory required for data: 1292801500
I0821 06:49:15.112152 32405 layer_factory.hpp:77] Creating layer L3_b2_sum_eltwise_top_L3_b2_relu_0_split
I0821 06:49:15.112162 32405 net.cpp:100] Creating Layer L3_b2_sum_eltwise_top_L3_b2_relu_0_split
I0821 06:49:15.112169 32405 net.cpp:434] L3_b2_sum_eltwise_top_L3_b2_relu_0_split <- L3_b2_sum_eltwise_top
I0821 06:49:15.112175 32405 net.cpp:408] L3_b2_sum_eltwise_top_L3_b2_relu_0_split -> L3_b2_sum_eltwise_top_L3_b2_relu_0_split_0
I0821 06:49:15.112185 32405 net.cpp:408] L3_b2_sum_eltwise_top_L3_b2_relu_0_split -> L3_b2_sum_eltwise_top_L3_b2_relu_0_split_1
I0821 06:49:15.112231 32405 net.cpp:150] Setting up L3_b2_sum_eltwise_top_L3_b2_relu_0_split
I0821 06:49:15.112247 32405 net.cpp:157] Top shape: 125 64 8 8 (512000)
I0821 06:49:15.112254 32405 net.cpp:157] Top shape: 125 64 8 8 (512000)
I0821 06:49:15.112258 32405 net.cpp:165] Memory required for data: 1296897500
I0821 06:49:15.112263 32405 layer_factory.hpp:77] Creating layer L3_b3_cbr1_conv
I0821 06:49:15.112275 32405 net.cpp:100] Creating Layer L3_b3_cbr1_conv
I0821 06:49:15.112282 32405 net.cpp:434] L3_b3_cbr1_conv <- L3_b2_sum_eltwise_top_L3_b2_relu_0_split_0
I0821 06:49:15.112290 32405 net.cpp:408] L3_b3_cbr1_conv -> L3_b3_cbr1_conv_top
I0821 06:49:15.113307 32405 net.cpp:150] Setting up L3_b3_cbr1_conv
I0821 06:49:15.113325 32405 net.cpp:157] Top shape: 125 64 8 8 (512000)
I0821 06:49:15.113330 32405 net.cpp:165] Memory required for data: 1298945500
I0821 06:49:15.113339 32405 layer_factory.hpp:77] Creating layer L3_b3_cbr1_bn
I0821 06:49:15.113348 32405 net.cpp:100] Creating Layer L3_b3_cbr1_bn
I0821 06:49:15.113355 32405 net.cpp:434] L3_b3_cbr1_bn <- L3_b3_cbr1_conv_top
I0821 06:49:15.113366 32405 net.cpp:408] L3_b3_cbr1_bn -> L3_b3_cbr1_bn_top
I0821 06:49:15.113626 32405 net.cpp:150] Setting up L3_b3_cbr1_bn
I0821 06:49:15.113639 32405 net.cpp:157] Top shape: 125 64 8 8 (512000)
I0821 06:49:15.113644 32405 net.cpp:165] Memory required for data: 1300993500
I0821 06:49:15.113654 32405 layer_factory.hpp:77] Creating layer L3_b3_cbr1_scale
I0821 06:49:15.113667 32405 net.cpp:100] Creating Layer L3_b3_cbr1_scale
I0821 06:49:15.113674 32405 net.cpp:434] L3_b3_cbr1_scale <- L3_b3_cbr1_bn_top
I0821 06:49:15.113682 32405 net.cpp:395] L3_b3_cbr1_scale -> L3_b3_cbr1_bn_top (in-place)
I0821 06:49:15.113739 32405 layer_factory.hpp:77] Creating layer L3_b3_cbr1_scale
I0821 06:49:15.113901 32405 net.cpp:150] Setting up L3_b3_cbr1_scale
I0821 06:49:15.113915 32405 net.cpp:157] Top shape: 125 64 8 8 (512000)
I0821 06:49:15.113920 32405 net.cpp:165] Memory required for data: 1303041500
I0821 06:49:15.113929 32405 layer_factory.hpp:77] Creating layer L3_b3_cbr1_relu
I0821 06:49:15.113937 32405 net.cpp:100] Creating Layer L3_b3_cbr1_relu
I0821 06:49:15.113943 32405 net.cpp:434] L3_b3_cbr1_relu <- L3_b3_cbr1_bn_top
I0821 06:49:15.113953 32405 net.cpp:395] L3_b3_cbr1_relu -> L3_b3_cbr1_bn_top (in-place)
I0821 06:49:15.113963 32405 net.cpp:150] Setting up L3_b3_cbr1_relu
I0821 06:49:15.113970 32405 net.cpp:157] Top shape: 125 64 8 8 (512000)
I0821 06:49:15.113981 32405 net.cpp:165] Memory required for data: 1305089500
I0821 06:49:15.113986 32405 layer_factory.hpp:77] Creating layer L3_b3_cbr2_conv
I0821 06:49:15.114001 32405 net.cpp:100] Creating Layer L3_b3_cbr2_conv
I0821 06:49:15.114006 32405 net.cpp:434] L3_b3_cbr2_conv <- L3_b3_cbr1_bn_top
I0821 06:49:15.114015 32405 net.cpp:408] L3_b3_cbr2_conv -> L3_b3_cbr2_conv_top
I0821 06:49:15.115027 32405 net.cpp:150] Setting up L3_b3_cbr2_conv
I0821 06:49:15.115042 32405 net.cpp:157] Top shape: 125 64 8 8 (512000)
I0821 06:49:15.115047 32405 net.cpp:165] Memory required for data: 1307137500
I0821 06:49:15.115056 32405 layer_factory.hpp:77] Creating layer L3_b3_cbr2_bn
I0821 06:49:15.115070 32405 net.cpp:100] Creating Layer L3_b3_cbr2_bn
I0821 06:49:15.115077 32405 net.cpp:434] L3_b3_cbr2_bn <- L3_b3_cbr2_conv_top
I0821 06:49:15.115085 32405 net.cpp:408] L3_b3_cbr2_bn -> L3_b3_cbr2_bn_top
I0821 06:49:15.115351 32405 net.cpp:150] Setting up L3_b3_cbr2_bn
I0821 06:49:15.115365 32405 net.cpp:157] Top shape: 125 64 8 8 (512000)
I0821 06:49:15.115370 32405 net.cpp:165] Memory required for data: 1309185500
I0821 06:49:15.115380 32405 layer_factory.hpp:77] Creating layer L3_b3_cbr2_scale
I0821 06:49:15.115388 32405 net.cpp:100] Creating Layer L3_b3_cbr2_scale
I0821 06:49:15.115394 32405 net.cpp:434] L3_b3_cbr2_scale <- L3_b3_cbr2_bn_top
I0821 06:49:15.115401 32405 net.cpp:395] L3_b3_cbr2_scale -> L3_b3_cbr2_bn_top (in-place)
I0821 06:49:15.115461 32405 layer_factory.hpp:77] Creating layer L3_b3_cbr2_scale
I0821 06:49:15.115618 32405 net.cpp:150] Setting up L3_b3_cbr2_scale
I0821 06:49:15.115631 32405 net.cpp:157] Top shape: 125 64 8 8 (512000)
I0821 06:49:15.115636 32405 net.cpp:165] Memory required for data: 1311233500
I0821 06:49:15.115644 32405 layer_factory.hpp:77] Creating layer L3_b3_sum_eltwise
I0821 06:49:15.115653 32405 net.cpp:100] Creating Layer L3_b3_sum_eltwise
I0821 06:49:15.115660 32405 net.cpp:434] L3_b3_sum_eltwise <- L3_b3_cbr2_bn_top
I0821 06:49:15.115666 32405 net.cpp:434] L3_b3_sum_eltwise <- L3_b2_sum_eltwise_top_L3_b2_relu_0_split_1
I0821 06:49:15.115679 32405 net.cpp:408] L3_b3_sum_eltwise -> L3_b3_sum_eltwise_top
I0821 06:49:15.115712 32405 net.cpp:150] Setting up L3_b3_sum_eltwise
I0821 06:49:15.115726 32405 net.cpp:157] Top shape: 125 64 8 8 (512000)
I0821 06:49:15.115731 32405 net.cpp:165] Memory required for data: 1313281500
I0821 06:49:15.115737 32405 layer_factory.hpp:77] Creating layer L3_b3_relu
I0821 06:49:15.115744 32405 net.cpp:100] Creating Layer L3_b3_relu
I0821 06:49:15.115751 32405 net.cpp:434] L3_b3_relu <- L3_b3_sum_eltwise_top
I0821 06:49:15.115757 32405 net.cpp:395] L3_b3_relu -> L3_b3_sum_eltwise_top (in-place)
I0821 06:49:15.115767 32405 net.cpp:150] Setting up L3_b3_relu
I0821 06:49:15.115773 32405 net.cpp:157] Top shape: 125 64 8 8 (512000)
I0821 06:49:15.115777 32405 net.cpp:165] Memory required for data: 1315329500
I0821 06:49:15.115782 32405 layer_factory.hpp:77] Creating layer L3_b3_sum_eltwise_top_L3_b3_relu_0_split
I0821 06:49:15.115792 32405 net.cpp:100] Creating Layer L3_b3_sum_eltwise_top_L3_b3_relu_0_split
I0821 06:49:15.115797 32405 net.cpp:434] L3_b3_sum_eltwise_top_L3_b3_relu_0_split <- L3_b3_sum_eltwise_top
I0821 06:49:15.115805 32405 net.cpp:408] L3_b3_sum_eltwise_top_L3_b3_relu_0_split -> L3_b3_sum_eltwise_top_L3_b3_relu_0_split_0
I0821 06:49:15.115814 32405 net.cpp:408] L3_b3_sum_eltwise_top_L3_b3_relu_0_split -> L3_b3_sum_eltwise_top_L3_b3_relu_0_split_1
I0821 06:49:15.115869 32405 net.cpp:150] Setting up L3_b3_sum_eltwise_top_L3_b3_relu_0_split
I0821 06:49:15.115881 32405 net.cpp:157] Top shape: 125 64 8 8 (512000)
I0821 06:49:15.115888 32405 net.cpp:157] Top shape: 125 64 8 8 (512000)
I0821 06:49:15.115892 32405 net.cpp:165] Memory required for data: 1319425500
I0821 06:49:15.115897 32405 layer_factory.hpp:77] Creating layer L3_b4_cbr1_conv
I0821 06:49:15.115908 32405 net.cpp:100] Creating Layer L3_b4_cbr1_conv
I0821 06:49:15.115916 32405 net.cpp:434] L3_b4_cbr1_conv <- L3_b3_sum_eltwise_top_L3_b3_relu_0_split_0
I0821 06:49:15.115926 32405 net.cpp:408] L3_b4_cbr1_conv -> L3_b4_cbr1_conv_top
I0821 06:49:15.116957 32405 net.cpp:150] Setting up L3_b4_cbr1_conv
I0821 06:49:15.116972 32405 net.cpp:157] Top shape: 125 64 8 8 (512000)
I0821 06:49:15.116977 32405 net.cpp:165] Memory required for data: 1321473500
I0821 06:49:15.116986 32405 layer_factory.hpp:77] Creating layer L3_b4_cbr1_bn
I0821 06:49:15.116996 32405 net.cpp:100] Creating Layer L3_b4_cbr1_bn
I0821 06:49:15.117002 32405 net.cpp:434] L3_b4_cbr1_bn <- L3_b4_cbr1_conv_top
I0821 06:49:15.117013 32405 net.cpp:408] L3_b4_cbr1_bn -> L3_b4_cbr1_bn_top
I0821 06:49:15.117283 32405 net.cpp:150] Setting up L3_b4_cbr1_bn
I0821 06:49:15.117300 32405 net.cpp:157] Top shape: 125 64 8 8 (512000)
I0821 06:49:15.117305 32405 net.cpp:165] Memory required for data: 1323521500
I0821 06:49:15.117316 32405 layer_factory.hpp:77] Creating layer L3_b4_cbr1_scale
I0821 06:49:15.117323 32405 net.cpp:100] Creating Layer L3_b4_cbr1_scale
I0821 06:49:15.117331 32405 net.cpp:434] L3_b4_cbr1_scale <- L3_b4_cbr1_bn_top
I0821 06:49:15.117337 32405 net.cpp:395] L3_b4_cbr1_scale -> L3_b4_cbr1_bn_top (in-place)
I0821 06:49:15.117395 32405 layer_factory.hpp:77] Creating layer L3_b4_cbr1_scale
I0821 06:49:15.117552 32405 net.cpp:150] Setting up L3_b4_cbr1_scale
I0821 06:49:15.117564 32405 net.cpp:157] Top shape: 125 64 8 8 (512000)
I0821 06:49:15.117569 32405 net.cpp:165] Memory required for data: 1325569500
I0821 06:49:15.117578 32405 layer_factory.hpp:77] Creating layer L3_b4_cbr1_relu
I0821 06:49:15.117586 32405 net.cpp:100] Creating Layer L3_b4_cbr1_relu
I0821 06:49:15.117593 32405 net.cpp:434] L3_b4_cbr1_relu <- L3_b4_cbr1_bn_top
I0821 06:49:15.117602 32405 net.cpp:395] L3_b4_cbr1_relu -> L3_b4_cbr1_bn_top (in-place)
I0821 06:49:15.117612 32405 net.cpp:150] Setting up L3_b4_cbr1_relu
I0821 06:49:15.117619 32405 net.cpp:157] Top shape: 125 64 8 8 (512000)
I0821 06:49:15.117624 32405 net.cpp:165] Memory required for data: 1327617500
I0821 06:49:15.117628 32405 layer_factory.hpp:77] Creating layer L3_b4_cbr2_conv
I0821 06:49:15.117642 32405 net.cpp:100] Creating Layer L3_b4_cbr2_conv
I0821 06:49:15.117648 32405 net.cpp:434] L3_b4_cbr2_conv <- L3_b4_cbr1_bn_top
I0821 06:49:15.117656 32405 net.cpp:408] L3_b4_cbr2_conv -> L3_b4_cbr2_conv_top
I0821 06:49:15.118681 32405 net.cpp:150] Setting up L3_b4_cbr2_conv
I0821 06:49:15.118696 32405 net.cpp:157] Top shape: 125 64 8 8 (512000)
I0821 06:49:15.118701 32405 net.cpp:165] Memory required for data: 1329665500
I0821 06:49:15.118710 32405 layer_factory.hpp:77] Creating layer L3_b4_cbr2_bn
I0821 06:49:15.118722 32405 net.cpp:100] Creating Layer L3_b4_cbr2_bn
I0821 06:49:15.118728 32405 net.cpp:434] L3_b4_cbr2_bn <- L3_b4_cbr2_conv_top
I0821 06:49:15.118739 32405 net.cpp:408] L3_b4_cbr2_bn -> L3_b4_cbr2_bn_top
I0821 06:49:15.119014 32405 net.cpp:150] Setting up L3_b4_cbr2_bn
I0821 06:49:15.119027 32405 net.cpp:157] Top shape: 125 64 8 8 (512000)
I0821 06:49:15.119032 32405 net.cpp:165] Memory required for data: 1331713500
I0821 06:49:15.119042 32405 layer_factory.hpp:77] Creating layer L3_b4_cbr2_scale
I0821 06:49:15.119050 32405 net.cpp:100] Creating Layer L3_b4_cbr2_scale
I0821 06:49:15.119057 32405 net.cpp:434] L3_b4_cbr2_scale <- L3_b4_cbr2_bn_top
I0821 06:49:15.119067 32405 net.cpp:395] L3_b4_cbr2_scale -> L3_b4_cbr2_bn_top (in-place)
I0821 06:49:15.119127 32405 layer_factory.hpp:77] Creating layer L3_b4_cbr2_scale
I0821 06:49:15.119290 32405 net.cpp:150] Setting up L3_b4_cbr2_scale
I0821 06:49:15.119303 32405 net.cpp:157] Top shape: 125 64 8 8 (512000)
I0821 06:49:15.119308 32405 net.cpp:165] Memory required for data: 1333761500
I0821 06:49:15.119318 32405 layer_factory.hpp:77] Creating layer L3_b4_sum_eltwise
I0821 06:49:15.119326 32405 net.cpp:100] Creating Layer L3_b4_sum_eltwise
I0821 06:49:15.119333 32405 net.cpp:434] L3_b4_sum_eltwise <- L3_b4_cbr2_bn_top
I0821 06:49:15.119339 32405 net.cpp:434] L3_b4_sum_eltwise <- L3_b3_sum_eltwise_top_L3_b3_relu_0_split_1
I0821 06:49:15.119350 32405 net.cpp:408] L3_b4_sum_eltwise -> L3_b4_sum_eltwise_top
I0821 06:49:15.119392 32405 net.cpp:150] Setting up L3_b4_sum_eltwise
I0821 06:49:15.119411 32405 net.cpp:157] Top shape: 125 64 8 8 (512000)
I0821 06:49:15.119416 32405 net.cpp:165] Memory required for data: 1335809500
I0821 06:49:15.119422 32405 layer_factory.hpp:77] Creating layer L3_b4_relu
I0821 06:49:15.119429 32405 net.cpp:100] Creating Layer L3_b4_relu
I0821 06:49:15.119436 32405 net.cpp:434] L3_b4_relu <- L3_b4_sum_eltwise_top
I0821 06:49:15.119443 32405 net.cpp:395] L3_b4_relu -> L3_b4_sum_eltwise_top (in-place)
I0821 06:49:15.119452 32405 net.cpp:150] Setting up L3_b4_relu
I0821 06:49:15.119459 32405 net.cpp:157] Top shape: 125 64 8 8 (512000)
I0821 06:49:15.119464 32405 net.cpp:165] Memory required for data: 1337857500
I0821 06:49:15.119468 32405 layer_factory.hpp:77] Creating layer L3_b4_sum_eltwise_top_L3_b4_relu_0_split
I0821 06:49:15.119478 32405 net.cpp:100] Creating Layer L3_b4_sum_eltwise_top_L3_b4_relu_0_split
I0821 06:49:15.119484 32405 net.cpp:434] L3_b4_sum_eltwise_top_L3_b4_relu_0_split <- L3_b4_sum_eltwise_top
I0821 06:49:15.119491 32405 net.cpp:408] L3_b4_sum_eltwise_top_L3_b4_relu_0_split -> L3_b4_sum_eltwise_top_L3_b4_relu_0_split_0
I0821 06:49:15.119501 32405 net.cpp:408] L3_b4_sum_eltwise_top_L3_b4_relu_0_split -> L3_b4_sum_eltwise_top_L3_b4_relu_0_split_1
I0821 06:49:15.119551 32405 net.cpp:150] Setting up L3_b4_sum_eltwise_top_L3_b4_relu_0_split
I0821 06:49:15.119562 32405 net.cpp:157] Top shape: 125 64 8 8 (512000)
I0821 06:49:15.119570 32405 net.cpp:157] Top shape: 125 64 8 8 (512000)
I0821 06:49:15.119573 32405 net.cpp:165] Memory required for data: 1341953500
I0821 06:49:15.119578 32405 layer_factory.hpp:77] Creating layer L3_b5_cbr1_conv
I0821 06:49:15.119590 32405 net.cpp:100] Creating Layer L3_b5_cbr1_conv
I0821 06:49:15.119596 32405 net.cpp:434] L3_b5_cbr1_conv <- L3_b4_sum_eltwise_top_L3_b4_relu_0_split_0
I0821 06:49:15.119607 32405 net.cpp:408] L3_b5_cbr1_conv -> L3_b5_cbr1_conv_top
I0821 06:49:15.120636 32405 net.cpp:150] Setting up L3_b5_cbr1_conv
I0821 06:49:15.120651 32405 net.cpp:157] Top shape: 125 64 8 8 (512000)
I0821 06:49:15.120656 32405 net.cpp:165] Memory required for data: 1344001500
I0821 06:49:15.120664 32405 layer_factory.hpp:77] Creating layer L3_b5_cbr1_bn
I0821 06:49:15.120674 32405 net.cpp:100] Creating Layer L3_b5_cbr1_bn
I0821 06:49:15.120681 32405 net.cpp:434] L3_b5_cbr1_bn <- L3_b5_cbr1_conv_top
I0821 06:49:15.120692 32405 net.cpp:408] L3_b5_cbr1_bn -> L3_b5_cbr1_bn_top
I0821 06:49:15.121932 32405 net.cpp:150] Setting up L3_b5_cbr1_bn
I0821 06:49:15.121949 32405 net.cpp:157] Top shape: 125 64 8 8 (512000)
I0821 06:49:15.121954 32405 net.cpp:165] Memory required for data: 1346049500
I0821 06:49:15.121965 32405 layer_factory.hpp:77] Creating layer L3_b5_cbr1_scale
I0821 06:49:15.121975 32405 net.cpp:100] Creating Layer L3_b5_cbr1_scale
I0821 06:49:15.121982 32405 net.cpp:434] L3_b5_cbr1_scale <- L3_b5_cbr1_bn_top
I0821 06:49:15.121994 32405 net.cpp:395] L3_b5_cbr1_scale -> L3_b5_cbr1_bn_top (in-place)
I0821 06:49:15.122056 32405 layer_factory.hpp:77] Creating layer L3_b5_cbr1_scale
I0821 06:49:15.122216 32405 net.cpp:150] Setting up L3_b5_cbr1_scale
I0821 06:49:15.122231 32405 net.cpp:157] Top shape: 125 64 8 8 (512000)
I0821 06:49:15.122236 32405 net.cpp:165] Memory required for data: 1348097500
I0821 06:49:15.122243 32405 layer_factory.hpp:77] Creating layer L3_b5_cbr1_relu
I0821 06:49:15.122252 32405 net.cpp:100] Creating Layer L3_b5_cbr1_relu
I0821 06:49:15.122258 32405 net.cpp:434] L3_b5_cbr1_relu <- L3_b5_cbr1_bn_top
I0821 06:49:15.122268 32405 net.cpp:395] L3_b5_cbr1_relu -> L3_b5_cbr1_bn_top (in-place)
I0821 06:49:15.122279 32405 net.cpp:150] Setting up L3_b5_cbr1_relu
I0821 06:49:15.122287 32405 net.cpp:157] Top shape: 125 64 8 8 (512000)
I0821 06:49:15.122290 32405 net.cpp:165] Memory required for data: 1350145500
I0821 06:49:15.122295 32405 layer_factory.hpp:77] Creating layer L3_b5_cbr2_conv
I0821 06:49:15.122309 32405 net.cpp:100] Creating Layer L3_b5_cbr2_conv
I0821 06:49:15.122315 32405 net.cpp:434] L3_b5_cbr2_conv <- L3_b5_cbr1_bn_top
I0821 06:49:15.122324 32405 net.cpp:408] L3_b5_cbr2_conv -> L3_b5_cbr2_conv_top
I0821 06:49:15.124312 32405 net.cpp:150] Setting up L3_b5_cbr2_conv
I0821 06:49:15.124330 32405 net.cpp:157] Top shape: 125 64 8 8 (512000)
I0821 06:49:15.124336 32405 net.cpp:165] Memory required for data: 1352193500
I0821 06:49:15.124344 32405 layer_factory.hpp:77] Creating layer L3_b5_cbr2_bn
I0821 06:49:15.124357 32405 net.cpp:100] Creating Layer L3_b5_cbr2_bn
I0821 06:49:15.124364 32405 net.cpp:434] L3_b5_cbr2_bn <- L3_b5_cbr2_conv_top
I0821 06:49:15.124375 32405 net.cpp:408] L3_b5_cbr2_bn -> L3_b5_cbr2_bn_top
I0821 06:49:15.124660 32405 net.cpp:150] Setting up L3_b5_cbr2_bn
I0821 06:49:15.124673 32405 net.cpp:157] Top shape: 125 64 8 8 (512000)
I0821 06:49:15.124678 32405 net.cpp:165] Memory required for data: 1354241500
I0821 06:49:15.124689 32405 layer_factory.hpp:77] Creating layer L3_b5_cbr2_scale
I0821 06:49:15.124698 32405 net.cpp:100] Creating Layer L3_b5_cbr2_scale
I0821 06:49:15.124706 32405 net.cpp:434] L3_b5_cbr2_scale <- L3_b5_cbr2_bn_top
I0821 06:49:15.124712 32405 net.cpp:395] L3_b5_cbr2_scale -> L3_b5_cbr2_bn_top (in-place)
I0821 06:49:15.124773 32405 layer_factory.hpp:77] Creating layer L3_b5_cbr2_scale
I0821 06:49:15.124938 32405 net.cpp:150] Setting up L3_b5_cbr2_scale
I0821 06:49:15.124953 32405 net.cpp:157] Top shape: 125 64 8 8 (512000)
I0821 06:49:15.124958 32405 net.cpp:165] Memory required for data: 1356289500
I0821 06:49:15.124966 32405 layer_factory.hpp:77] Creating layer L3_b5_sum_eltwise
I0821 06:49:15.124976 32405 net.cpp:100] Creating Layer L3_b5_sum_eltwise
I0821 06:49:15.124982 32405 net.cpp:434] L3_b5_sum_eltwise <- L3_b5_cbr2_bn_top
I0821 06:49:15.124989 32405 net.cpp:434] L3_b5_sum_eltwise <- L3_b4_sum_eltwise_top_L3_b4_relu_0_split_1
I0821 06:49:15.125000 32405 net.cpp:408] L3_b5_sum_eltwise -> L3_b5_sum_eltwise_top
I0821 06:49:15.125035 32405 net.cpp:150] Setting up L3_b5_sum_eltwise
I0821 06:49:15.125048 32405 net.cpp:157] Top shape: 125 64 8 8 (512000)
I0821 06:49:15.125053 32405 net.cpp:165] Memory required for data: 1358337500
I0821 06:49:15.125058 32405 layer_factory.hpp:77] Creating layer L3_b5_relu
I0821 06:49:15.125066 32405 net.cpp:100] Creating Layer L3_b5_relu
I0821 06:49:15.125072 32405 net.cpp:434] L3_b5_relu <- L3_b5_sum_eltwise_top
I0821 06:49:15.125079 32405 net.cpp:395] L3_b5_relu -> L3_b5_sum_eltwise_top (in-place)
I0821 06:49:15.125088 32405 net.cpp:150] Setting up L3_b5_relu
I0821 06:49:15.125095 32405 net.cpp:157] Top shape: 125 64 8 8 (512000)
I0821 06:49:15.125100 32405 net.cpp:165] Memory required for data: 1360385500
I0821 06:49:15.125104 32405 layer_factory.hpp:77] Creating layer L3_b5_sum_eltwise_top_L3_b5_relu_0_split
I0821 06:49:15.125114 32405 net.cpp:100] Creating Layer L3_b5_sum_eltwise_top_L3_b5_relu_0_split
I0821 06:49:15.125120 32405 net.cpp:434] L3_b5_sum_eltwise_top_L3_b5_relu_0_split <- L3_b5_sum_eltwise_top
I0821 06:49:15.125128 32405 net.cpp:408] L3_b5_sum_eltwise_top_L3_b5_relu_0_split -> L3_b5_sum_eltwise_top_L3_b5_relu_0_split_0
I0821 06:49:15.125138 32405 net.cpp:408] L3_b5_sum_eltwise_top_L3_b5_relu_0_split -> L3_b5_sum_eltwise_top_L3_b5_relu_0_split_1
I0821 06:49:15.125185 32405 net.cpp:150] Setting up L3_b5_sum_eltwise_top_L3_b5_relu_0_split
I0821 06:49:15.125196 32405 net.cpp:157] Top shape: 125 64 8 8 (512000)
I0821 06:49:15.125203 32405 net.cpp:157] Top shape: 125 64 8 8 (512000)
I0821 06:49:15.125207 32405 net.cpp:165] Memory required for data: 1364481500
I0821 06:49:15.125212 32405 layer_factory.hpp:77] Creating layer L3_b6_cbr1_conv
I0821 06:49:15.125224 32405 net.cpp:100] Creating Layer L3_b6_cbr1_conv
I0821 06:49:15.125231 32405 net.cpp:434] L3_b6_cbr1_conv <- L3_b5_sum_eltwise_top_L3_b5_relu_0_split_0
I0821 06:49:15.125242 32405 net.cpp:408] L3_b6_cbr1_conv -> L3_b6_cbr1_conv_top
I0821 06:49:15.126262 32405 net.cpp:150] Setting up L3_b6_cbr1_conv
I0821 06:49:15.126277 32405 net.cpp:157] Top shape: 125 64 8 8 (512000)
I0821 06:49:15.126282 32405 net.cpp:165] Memory required for data: 1366529500
I0821 06:49:15.126291 32405 layer_factory.hpp:77] Creating layer L3_b6_cbr1_bn
I0821 06:49:15.126301 32405 net.cpp:100] Creating Layer L3_b6_cbr1_bn
I0821 06:49:15.126314 32405 net.cpp:434] L3_b6_cbr1_bn <- L3_b6_cbr1_conv_top
I0821 06:49:15.126327 32405 net.cpp:408] L3_b6_cbr1_bn -> L3_b6_cbr1_bn_top
I0821 06:49:15.126586 32405 net.cpp:150] Setting up L3_b6_cbr1_bn
I0821 06:49:15.126601 32405 net.cpp:157] Top shape: 125 64 8 8 (512000)
I0821 06:49:15.126606 32405 net.cpp:165] Memory required for data: 1368577500
I0821 06:49:15.126617 32405 layer_factory.hpp:77] Creating layer L3_b6_cbr1_scale
I0821 06:49:15.126626 32405 net.cpp:100] Creating Layer L3_b6_cbr1_scale
I0821 06:49:15.126632 32405 net.cpp:434] L3_b6_cbr1_scale <- L3_b6_cbr1_bn_top
I0821 06:49:15.126639 32405 net.cpp:395] L3_b6_cbr1_scale -> L3_b6_cbr1_bn_top (in-place)
I0821 06:49:15.126698 32405 layer_factory.hpp:77] Creating layer L3_b6_cbr1_scale
I0821 06:49:15.126854 32405 net.cpp:150] Setting up L3_b6_cbr1_scale
I0821 06:49:15.126873 32405 net.cpp:157] Top shape: 125 64 8 8 (512000)
I0821 06:49:15.126878 32405 net.cpp:165] Memory required for data: 1370625500
I0821 06:49:15.126888 32405 layer_factory.hpp:77] Creating layer L3_b6_cbr1_relu
I0821 06:49:15.126895 32405 net.cpp:100] Creating Layer L3_b6_cbr1_relu
I0821 06:49:15.126904 32405 net.cpp:434] L3_b6_cbr1_relu <- L3_b6_cbr1_bn_top
I0821 06:49:15.126912 32405 net.cpp:395] L3_b6_cbr1_relu -> L3_b6_cbr1_bn_top (in-place)
I0821 06:49:15.126922 32405 net.cpp:150] Setting up L3_b6_cbr1_relu
I0821 06:49:15.126929 32405 net.cpp:157] Top shape: 125 64 8 8 (512000)
I0821 06:49:15.126933 32405 net.cpp:165] Memory required for data: 1372673500
I0821 06:49:15.126938 32405 layer_factory.hpp:77] Creating layer L3_b6_cbr2_conv
I0821 06:49:15.126951 32405 net.cpp:100] Creating Layer L3_b6_cbr2_conv
I0821 06:49:15.126957 32405 net.cpp:434] L3_b6_cbr2_conv <- L3_b6_cbr1_bn_top
I0821 06:49:15.126966 32405 net.cpp:408] L3_b6_cbr2_conv -> L3_b6_cbr2_conv_top
I0821 06:49:15.127980 32405 net.cpp:150] Setting up L3_b6_cbr2_conv
I0821 06:49:15.127995 32405 net.cpp:157] Top shape: 125 64 8 8 (512000)
I0821 06:49:15.128000 32405 net.cpp:165] Memory required for data: 1374721500
I0821 06:49:15.128008 32405 layer_factory.hpp:77] Creating layer L3_b6_cbr2_bn
I0821 06:49:15.128021 32405 net.cpp:100] Creating Layer L3_b6_cbr2_bn
I0821 06:49:15.128026 32405 net.cpp:434] L3_b6_cbr2_bn <- L3_b6_cbr2_conv_top
I0821 06:49:15.128037 32405 net.cpp:408] L3_b6_cbr2_bn -> L3_b6_cbr2_bn_top
I0821 06:49:15.128295 32405 net.cpp:150] Setting up L3_b6_cbr2_bn
I0821 06:49:15.128309 32405 net.cpp:157] Top shape: 125 64 8 8 (512000)
I0821 06:49:15.128314 32405 net.cpp:165] Memory required for data: 1376769500
I0821 06:49:15.128324 32405 layer_factory.hpp:77] Creating layer L3_b6_cbr2_scale
I0821 06:49:15.128332 32405 net.cpp:100] Creating Layer L3_b6_cbr2_scale
I0821 06:49:15.128338 32405 net.cpp:434] L3_b6_cbr2_scale <- L3_b6_cbr2_bn_top
I0821 06:49:15.128350 32405 net.cpp:395] L3_b6_cbr2_scale -> L3_b6_cbr2_bn_top (in-place)
I0821 06:49:15.128407 32405 layer_factory.hpp:77] Creating layer L3_b6_cbr2_scale
I0821 06:49:15.128561 32405 net.cpp:150] Setting up L3_b6_cbr2_scale
I0821 06:49:15.128574 32405 net.cpp:157] Top shape: 125 64 8 8 (512000)
I0821 06:49:15.128579 32405 net.cpp:165] Memory required for data: 1378817500
I0821 06:49:15.128588 32405 layer_factory.hpp:77] Creating layer L3_b6_sum_eltwise
I0821 06:49:15.128597 32405 net.cpp:100] Creating Layer L3_b6_sum_eltwise
I0821 06:49:15.128603 32405 net.cpp:434] L3_b6_sum_eltwise <- L3_b6_cbr2_bn_top
I0821 06:49:15.128610 32405 net.cpp:434] L3_b6_sum_eltwise <- L3_b5_sum_eltwise_top_L3_b5_relu_0_split_1
I0821 06:49:15.128620 32405 net.cpp:408] L3_b6_sum_eltwise -> L3_b6_sum_eltwise_top
I0821 06:49:15.128657 32405 net.cpp:150] Setting up L3_b6_sum_eltwise
I0821 06:49:15.128669 32405 net.cpp:157] Top shape: 125 64 8 8 (512000)
I0821 06:49:15.128674 32405 net.cpp:165] Memory required for data: 1380865500
I0821 06:49:15.128679 32405 layer_factory.hpp:77] Creating layer L3_b6_relu
I0821 06:49:15.128685 32405 net.cpp:100] Creating Layer L3_b6_relu
I0821 06:49:15.128691 32405 net.cpp:434] L3_b6_relu <- L3_b6_sum_eltwise_top
I0821 06:49:15.128705 32405 net.cpp:395] L3_b6_relu -> L3_b6_sum_eltwise_top (in-place)
I0821 06:49:15.128718 32405 net.cpp:150] Setting up L3_b6_relu
I0821 06:49:15.128726 32405 net.cpp:157] Top shape: 125 64 8 8 (512000)
I0821 06:49:15.128729 32405 net.cpp:165] Memory required for data: 1382913500
I0821 06:49:15.128734 32405 layer_factory.hpp:77] Creating layer L3_b6_sum_eltwise_top_L3_b6_relu_0_split
I0821 06:49:15.128741 32405 net.cpp:100] Creating Layer L3_b6_sum_eltwise_top_L3_b6_relu_0_split
I0821 06:49:15.128746 32405 net.cpp:434] L3_b6_sum_eltwise_top_L3_b6_relu_0_split <- L3_b6_sum_eltwise_top
I0821 06:49:15.128753 32405 net.cpp:408] L3_b6_sum_eltwise_top_L3_b6_relu_0_split -> L3_b6_sum_eltwise_top_L3_b6_relu_0_split_0
I0821 06:49:15.128762 32405 net.cpp:408] L3_b6_sum_eltwise_top_L3_b6_relu_0_split -> L3_b6_sum_eltwise_top_L3_b6_relu_0_split_1
I0821 06:49:15.128811 32405 net.cpp:150] Setting up L3_b6_sum_eltwise_top_L3_b6_relu_0_split
I0821 06:49:15.128823 32405 net.cpp:157] Top shape: 125 64 8 8 (512000)
I0821 06:49:15.128829 32405 net.cpp:157] Top shape: 125 64 8 8 (512000)
I0821 06:49:15.128834 32405 net.cpp:165] Memory required for data: 1387009500
I0821 06:49:15.128839 32405 layer_factory.hpp:77] Creating layer L3_b7_cbr1_conv
I0821 06:49:15.128849 32405 net.cpp:100] Creating Layer L3_b7_cbr1_conv
I0821 06:49:15.128856 32405 net.cpp:434] L3_b7_cbr1_conv <- L3_b6_sum_eltwise_top_L3_b6_relu_0_split_0
I0821 06:49:15.128875 32405 net.cpp:408] L3_b7_cbr1_conv -> L3_b7_cbr1_conv_top
I0821 06:49:15.129899 32405 net.cpp:150] Setting up L3_b7_cbr1_conv
I0821 06:49:15.129912 32405 net.cpp:157] Top shape: 125 64 8 8 (512000)
I0821 06:49:15.129917 32405 net.cpp:165] Memory required for data: 1389057500
I0821 06:49:15.129926 32405 layer_factory.hpp:77] Creating layer L3_b7_cbr1_bn
I0821 06:49:15.129935 32405 net.cpp:100] Creating Layer L3_b7_cbr1_bn
I0821 06:49:15.129941 32405 net.cpp:434] L3_b7_cbr1_bn <- L3_b7_cbr1_conv_top
I0821 06:49:15.129952 32405 net.cpp:408] L3_b7_cbr1_bn -> L3_b7_cbr1_bn_top
I0821 06:49:15.130218 32405 net.cpp:150] Setting up L3_b7_cbr1_bn
I0821 06:49:15.130234 32405 net.cpp:157] Top shape: 125 64 8 8 (512000)
I0821 06:49:15.130239 32405 net.cpp:165] Memory required for data: 1391105500
I0821 06:49:15.130249 32405 layer_factory.hpp:77] Creating layer L3_b7_cbr1_scale
I0821 06:49:15.130257 32405 net.cpp:100] Creating Layer L3_b7_cbr1_scale
I0821 06:49:15.130264 32405 net.cpp:434] L3_b7_cbr1_scale <- L3_b7_cbr1_bn_top
I0821 06:49:15.130271 32405 net.cpp:395] L3_b7_cbr1_scale -> L3_b7_cbr1_bn_top (in-place)
I0821 06:49:15.130328 32405 layer_factory.hpp:77] Creating layer L3_b7_cbr1_scale
I0821 06:49:15.130484 32405 net.cpp:150] Setting up L3_b7_cbr1_scale
I0821 06:49:15.130497 32405 net.cpp:157] Top shape: 125 64 8 8 (512000)
I0821 06:49:15.130502 32405 net.cpp:165] Memory required for data: 1393153500
I0821 06:49:15.130511 32405 layer_factory.hpp:77] Creating layer L3_b7_cbr1_relu
I0821 06:49:15.130547 32405 net.cpp:100] Creating Layer L3_b7_cbr1_relu
I0821 06:49:15.130554 32405 net.cpp:434] L3_b7_cbr1_relu <- L3_b7_cbr1_bn_top
I0821 06:49:15.130563 32405 net.cpp:395] L3_b7_cbr1_relu -> L3_b7_cbr1_bn_top (in-place)
I0821 06:49:15.130573 32405 net.cpp:150] Setting up L3_b7_cbr1_relu
I0821 06:49:15.130580 32405 net.cpp:157] Top shape: 125 64 8 8 (512000)
I0821 06:49:15.130584 32405 net.cpp:165] Memory required for data: 1395201500
I0821 06:49:15.130589 32405 layer_factory.hpp:77] Creating layer L3_b7_cbr2_conv
I0821 06:49:15.130601 32405 net.cpp:100] Creating Layer L3_b7_cbr2_conv
I0821 06:49:15.130606 32405 net.cpp:434] L3_b7_cbr2_conv <- L3_b7_cbr1_bn_top
I0821 06:49:15.130619 32405 net.cpp:408] L3_b7_cbr2_conv -> L3_b7_cbr2_conv_top
I0821 06:49:15.131638 32405 net.cpp:150] Setting up L3_b7_cbr2_conv
I0821 06:49:15.131652 32405 net.cpp:157] Top shape: 125 64 8 8 (512000)
I0821 06:49:15.131657 32405 net.cpp:165] Memory required for data: 1397249500
I0821 06:49:15.131665 32405 layer_factory.hpp:77] Creating layer L3_b7_cbr2_bn
I0821 06:49:15.131675 32405 net.cpp:100] Creating Layer L3_b7_cbr2_bn
I0821 06:49:15.131687 32405 net.cpp:434] L3_b7_cbr2_bn <- L3_b7_cbr2_conv_top
I0821 06:49:15.131700 32405 net.cpp:408] L3_b7_cbr2_bn -> L3_b7_cbr2_bn_top
I0821 06:49:15.131971 32405 net.cpp:150] Setting up L3_b7_cbr2_bn
I0821 06:49:15.131988 32405 net.cpp:157] Top shape: 125 64 8 8 (512000)
I0821 06:49:15.131992 32405 net.cpp:165] Memory required for data: 1399297500
I0821 06:49:15.132002 32405 layer_factory.hpp:77] Creating layer L3_b7_cbr2_scale
I0821 06:49:15.132011 32405 net.cpp:100] Creating Layer L3_b7_cbr2_scale
I0821 06:49:15.132017 32405 net.cpp:434] L3_b7_cbr2_scale <- L3_b7_cbr2_bn_top
I0821 06:49:15.132025 32405 net.cpp:395] L3_b7_cbr2_scale -> L3_b7_cbr2_bn_top (in-place)
I0821 06:49:15.132082 32405 layer_factory.hpp:77] Creating layer L3_b7_cbr2_scale
I0821 06:49:15.132242 32405 net.cpp:150] Setting up L3_b7_cbr2_scale
I0821 06:49:15.132256 32405 net.cpp:157] Top shape: 125 64 8 8 (512000)
I0821 06:49:15.132261 32405 net.cpp:165] Memory required for data: 1401345500
I0821 06:49:15.132269 32405 layer_factory.hpp:77] Creating layer L3_b7_sum_eltwise
I0821 06:49:15.132282 32405 net.cpp:100] Creating Layer L3_b7_sum_eltwise
I0821 06:49:15.132288 32405 net.cpp:434] L3_b7_sum_eltwise <- L3_b7_cbr2_bn_top
I0821 06:49:15.132295 32405 net.cpp:434] L3_b7_sum_eltwise <- L3_b6_sum_eltwise_top_L3_b6_relu_0_split_1
I0821 06:49:15.132302 32405 net.cpp:408] L3_b7_sum_eltwise -> L3_b7_sum_eltwise_top
I0821 06:49:15.132340 32405 net.cpp:150] Setting up L3_b7_sum_eltwise
I0821 06:49:15.132351 32405 net.cpp:157] Top shape: 125 64 8 8 (512000)
I0821 06:49:15.132356 32405 net.cpp:165] Memory required for data: 1403393500
I0821 06:49:15.132361 32405 layer_factory.hpp:77] Creating layer L3_b7_relu
I0821 06:49:15.132369 32405 net.cpp:100] Creating Layer L3_b7_relu
I0821 06:49:15.132375 32405 net.cpp:434] L3_b7_relu <- L3_b7_sum_eltwise_top
I0821 06:49:15.132381 32405 net.cpp:395] L3_b7_relu -> L3_b7_sum_eltwise_top (in-place)
I0821 06:49:15.132390 32405 net.cpp:150] Setting up L3_b7_relu
I0821 06:49:15.132397 32405 net.cpp:157] Top shape: 125 64 8 8 (512000)
I0821 06:49:15.132402 32405 net.cpp:165] Memory required for data: 1405441500
I0821 06:49:15.132406 32405 layer_factory.hpp:77] Creating layer L3_b7_sum_eltwise_top_L3_b7_relu_0_split
I0821 06:49:15.132413 32405 net.cpp:100] Creating Layer L3_b7_sum_eltwise_top_L3_b7_relu_0_split
I0821 06:49:15.132418 32405 net.cpp:434] L3_b7_sum_eltwise_top_L3_b7_relu_0_split <- L3_b7_sum_eltwise_top
I0821 06:49:15.132428 32405 net.cpp:408] L3_b7_sum_eltwise_top_L3_b7_relu_0_split -> L3_b7_sum_eltwise_top_L3_b7_relu_0_split_0
I0821 06:49:15.132438 32405 net.cpp:408] L3_b7_sum_eltwise_top_L3_b7_relu_0_split -> L3_b7_sum_eltwise_top_L3_b7_relu_0_split_1
I0821 06:49:15.132484 32405 net.cpp:150] Setting up L3_b7_sum_eltwise_top_L3_b7_relu_0_split
I0821 06:49:15.132495 32405 net.cpp:157] Top shape: 125 64 8 8 (512000)
I0821 06:49:15.132503 32405 net.cpp:157] Top shape: 125 64 8 8 (512000)
I0821 06:49:15.132506 32405 net.cpp:165] Memory required for data: 1409537500
I0821 06:49:15.132511 32405 layer_factory.hpp:77] Creating layer L3_b8_cbr1_conv
I0821 06:49:15.132525 32405 net.cpp:100] Creating Layer L3_b8_cbr1_conv
I0821 06:49:15.132532 32405 net.cpp:434] L3_b8_cbr1_conv <- L3_b7_sum_eltwise_top_L3_b7_relu_0_split_0
I0821 06:49:15.132541 32405 net.cpp:408] L3_b8_cbr1_conv -> L3_b8_cbr1_conv_top
I0821 06:49:15.133558 32405 net.cpp:150] Setting up L3_b8_cbr1_conv
I0821 06:49:15.133572 32405 net.cpp:157] Top shape: 125 64 8 8 (512000)
I0821 06:49:15.133576 32405 net.cpp:165] Memory required for data: 1411585500
I0821 06:49:15.133585 32405 layer_factory.hpp:77] Creating layer L3_b8_cbr1_bn
I0821 06:49:15.133597 32405 net.cpp:100] Creating Layer L3_b8_cbr1_bn
I0821 06:49:15.133605 32405 net.cpp:434] L3_b8_cbr1_bn <- L3_b8_cbr1_conv_top
I0821 06:49:15.133613 32405 net.cpp:408] L3_b8_cbr1_bn -> L3_b8_cbr1_bn_top
I0821 06:49:15.133883 32405 net.cpp:150] Setting up L3_b8_cbr1_bn
I0821 06:49:15.133898 32405 net.cpp:157] Top shape: 125 64 8 8 (512000)
I0821 06:49:15.133903 32405 net.cpp:165] Memory required for data: 1413633500
I0821 06:49:15.133919 32405 layer_factory.hpp:77] Creating layer L3_b8_cbr1_scale
I0821 06:49:15.133931 32405 net.cpp:100] Creating Layer L3_b8_cbr1_scale
I0821 06:49:15.133939 32405 net.cpp:434] L3_b8_cbr1_scale <- L3_b8_cbr1_bn_top
I0821 06:49:15.133945 32405 net.cpp:395] L3_b8_cbr1_scale -> L3_b8_cbr1_bn_top (in-place)
I0821 06:49:15.134004 32405 layer_factory.hpp:77] Creating layer L3_b8_cbr1_scale
I0821 06:49:15.134161 32405 net.cpp:150] Setting up L3_b8_cbr1_scale
I0821 06:49:15.134174 32405 net.cpp:157] Top shape: 125 64 8 8 (512000)
I0821 06:49:15.134179 32405 net.cpp:165] Memory required for data: 1415681500
I0821 06:49:15.134187 32405 layer_factory.hpp:77] Creating layer L3_b8_cbr1_relu
I0821 06:49:15.134198 32405 net.cpp:100] Creating Layer L3_b8_cbr1_relu
I0821 06:49:15.134204 32405 net.cpp:434] L3_b8_cbr1_relu <- L3_b8_cbr1_bn_top
I0821 06:49:15.134212 32405 net.cpp:395] L3_b8_cbr1_relu -> L3_b8_cbr1_bn_top (in-place)
I0821 06:49:15.134222 32405 net.cpp:150] Setting up L3_b8_cbr1_relu
I0821 06:49:15.134228 32405 net.cpp:157] Top shape: 125 64 8 8 (512000)
I0821 06:49:15.134233 32405 net.cpp:165] Memory required for data: 1417729500
I0821 06:49:15.134238 32405 layer_factory.hpp:77] Creating layer L3_b8_cbr2_conv
I0821 06:49:15.134251 32405 net.cpp:100] Creating Layer L3_b8_cbr2_conv
I0821 06:49:15.134258 32405 net.cpp:434] L3_b8_cbr2_conv <- L3_b8_cbr1_bn_top
I0821 06:49:15.134268 32405 net.cpp:408] L3_b8_cbr2_conv -> L3_b8_cbr2_conv_top
I0821 06:49:15.135289 32405 net.cpp:150] Setting up L3_b8_cbr2_conv
I0821 06:49:15.135304 32405 net.cpp:157] Top shape: 125 64 8 8 (512000)
I0821 06:49:15.135309 32405 net.cpp:165] Memory required for data: 1419777500
I0821 06:49:15.135318 32405 layer_factory.hpp:77] Creating layer L3_b8_cbr2_bn
I0821 06:49:15.135326 32405 net.cpp:100] Creating Layer L3_b8_cbr2_bn
I0821 06:49:15.135334 32405 net.cpp:434] L3_b8_cbr2_bn <- L3_b8_cbr2_conv_top
I0821 06:49:15.135346 32405 net.cpp:408] L3_b8_cbr2_bn -> L3_b8_cbr2_bn_top
I0821 06:49:15.135610 32405 net.cpp:150] Setting up L3_b8_cbr2_bn
I0821 06:49:15.135627 32405 net.cpp:157] Top shape: 125 64 8 8 (512000)
I0821 06:49:15.135632 32405 net.cpp:165] Memory required for data: 1421825500
I0821 06:49:15.135641 32405 layer_factory.hpp:77] Creating layer L3_b8_cbr2_scale
I0821 06:49:15.135650 32405 net.cpp:100] Creating Layer L3_b8_cbr2_scale
I0821 06:49:15.135656 32405 net.cpp:434] L3_b8_cbr2_scale <- L3_b8_cbr2_bn_top
I0821 06:49:15.135663 32405 net.cpp:395] L3_b8_cbr2_scale -> L3_b8_cbr2_bn_top (in-place)
I0821 06:49:15.135720 32405 layer_factory.hpp:77] Creating layer L3_b8_cbr2_scale
I0821 06:49:15.135882 32405 net.cpp:150] Setting up L3_b8_cbr2_scale
I0821 06:49:15.135896 32405 net.cpp:157] Top shape: 125 64 8 8 (512000)
I0821 06:49:15.135901 32405 net.cpp:165] Memory required for data: 1423873500
I0821 06:49:15.135910 32405 layer_factory.hpp:77] Creating layer L3_b8_sum_eltwise
I0821 06:49:15.135921 32405 net.cpp:100] Creating Layer L3_b8_sum_eltwise
I0821 06:49:15.135927 32405 net.cpp:434] L3_b8_sum_eltwise <- L3_b8_cbr2_bn_top
I0821 06:49:15.135934 32405 net.cpp:434] L3_b8_sum_eltwise <- L3_b7_sum_eltwise_top_L3_b7_relu_0_split_1
I0821 06:49:15.135942 32405 net.cpp:408] L3_b8_sum_eltwise -> L3_b8_sum_eltwise_top
I0821 06:49:15.135978 32405 net.cpp:150] Setting up L3_b8_sum_eltwise
I0821 06:49:15.135989 32405 net.cpp:157] Top shape: 125 64 8 8 (512000)
I0821 06:49:15.135994 32405 net.cpp:165] Memory required for data: 1425921500
I0821 06:49:15.135999 32405 layer_factory.hpp:77] Creating layer L3_b8_relu
I0821 06:49:15.136008 32405 net.cpp:100] Creating Layer L3_b8_relu
I0821 06:49:15.136013 32405 net.cpp:434] L3_b8_relu <- L3_b8_sum_eltwise_top
I0821 06:49:15.136019 32405 net.cpp:395] L3_b8_relu -> L3_b8_sum_eltwise_top (in-place)
I0821 06:49:15.136029 32405 net.cpp:150] Setting up L3_b8_relu
I0821 06:49:15.136035 32405 net.cpp:157] Top shape: 125 64 8 8 (512000)
I0821 06:49:15.136040 32405 net.cpp:165] Memory required for data: 1427969500
I0821 06:49:15.136044 32405 layer_factory.hpp:77] Creating layer L3_b8_sum_eltwise_top_L3_b8_relu_0_split
I0821 06:49:15.136059 32405 net.cpp:100] Creating Layer L3_b8_sum_eltwise_top_L3_b8_relu_0_split
I0821 06:49:15.136065 32405 net.cpp:434] L3_b8_sum_eltwise_top_L3_b8_relu_0_split <- L3_b8_sum_eltwise_top
I0821 06:49:15.136075 32405 net.cpp:408] L3_b8_sum_eltwise_top_L3_b8_relu_0_split -> L3_b8_sum_eltwise_top_L3_b8_relu_0_split_0
I0821 06:49:15.136085 32405 net.cpp:408] L3_b8_sum_eltwise_top_L3_b8_relu_0_split -> L3_b8_sum_eltwise_top_L3_b8_relu_0_split_1
I0821 06:49:15.136131 32405 net.cpp:150] Setting up L3_b8_sum_eltwise_top_L3_b8_relu_0_split
I0821 06:49:15.136142 32405 net.cpp:157] Top shape: 125 64 8 8 (512000)
I0821 06:49:15.136148 32405 net.cpp:157] Top shape: 125 64 8 8 (512000)
I0821 06:49:15.136152 32405 net.cpp:165] Memory required for data: 1432065500
I0821 06:49:15.136157 32405 layer_factory.hpp:77] Creating layer L3_b9_cbr1_conv
I0821 06:49:15.136173 32405 net.cpp:100] Creating Layer L3_b9_cbr1_conv
I0821 06:49:15.136178 32405 net.cpp:434] L3_b9_cbr1_conv <- L3_b8_sum_eltwise_top_L3_b8_relu_0_split_0
I0821 06:49:15.136188 32405 net.cpp:408] L3_b9_cbr1_conv -> L3_b9_cbr1_conv_top
I0821 06:49:15.138185 32405 net.cpp:150] Setting up L3_b9_cbr1_conv
I0821 06:49:15.138201 32405 net.cpp:157] Top shape: 125 64 8 8 (512000)
I0821 06:49:15.138207 32405 net.cpp:165] Memory required for data: 1434113500
I0821 06:49:15.138216 32405 layer_factory.hpp:77] Creating layer L3_b9_cbr1_bn
I0821 06:49:15.138229 32405 net.cpp:100] Creating Layer L3_b9_cbr1_bn
I0821 06:49:15.138236 32405 net.cpp:434] L3_b9_cbr1_bn <- L3_b9_cbr1_conv_top
I0821 06:49:15.138244 32405 net.cpp:408] L3_b9_cbr1_bn -> L3_b9_cbr1_bn_top
I0821 06:49:15.138510 32405 net.cpp:150] Setting up L3_b9_cbr1_bn
I0821 06:49:15.138523 32405 net.cpp:157] Top shape: 125 64 8 8 (512000)
I0821 06:49:15.138528 32405 net.cpp:165] Memory required for data: 1436161500
I0821 06:49:15.138540 32405 layer_factory.hpp:77] Creating layer L3_b9_cbr1_scale
I0821 06:49:15.138548 32405 net.cpp:100] Creating Layer L3_b9_cbr1_scale
I0821 06:49:15.138555 32405 net.cpp:434] L3_b9_cbr1_scale <- L3_b9_cbr1_bn_top
I0821 06:49:15.138561 32405 net.cpp:395] L3_b9_cbr1_scale -> L3_b9_cbr1_bn_top (in-place)
I0821 06:49:15.138622 32405 layer_factory.hpp:77] Creating layer L3_b9_cbr1_scale
I0821 06:49:15.138782 32405 net.cpp:150] Setting up L3_b9_cbr1_scale
I0821 06:49:15.138797 32405 net.cpp:157] Top shape: 125 64 8 8 (512000)
I0821 06:49:15.138801 32405 net.cpp:165] Memory required for data: 1438209500
I0821 06:49:15.138810 32405 layer_factory.hpp:77] Creating layer L3_b9_cbr1_relu
I0821 06:49:15.138819 32405 net.cpp:100] Creating Layer L3_b9_cbr1_relu
I0821 06:49:15.138825 32405 net.cpp:434] L3_b9_cbr1_relu <- L3_b9_cbr1_bn_top
I0821 06:49:15.138833 32405 net.cpp:395] L3_b9_cbr1_relu -> L3_b9_cbr1_bn_top (in-place)
I0821 06:49:15.138842 32405 net.cpp:150] Setting up L3_b9_cbr1_relu
I0821 06:49:15.138849 32405 net.cpp:157] Top shape: 125 64 8 8 (512000)
I0821 06:49:15.138854 32405 net.cpp:165] Memory required for data: 1440257500
I0821 06:49:15.138859 32405 layer_factory.hpp:77] Creating layer L3_b9_cbr2_conv
I0821 06:49:15.138880 32405 net.cpp:100] Creating Layer L3_b9_cbr2_conv
I0821 06:49:15.138886 32405 net.cpp:434] L3_b9_cbr2_conv <- L3_b9_cbr1_bn_top
I0821 06:49:15.138897 32405 net.cpp:408] L3_b9_cbr2_conv -> L3_b9_cbr2_conv_top
I0821 06:49:15.139945 32405 net.cpp:150] Setting up L3_b9_cbr2_conv
I0821 06:49:15.139960 32405 net.cpp:157] Top shape: 125 64 8 8 (512000)
I0821 06:49:15.139964 32405 net.cpp:165] Memory required for data: 1442305500
I0821 06:49:15.139973 32405 layer_factory.hpp:77] Creating layer L3_b9_cbr2_bn
I0821 06:49:15.139986 32405 net.cpp:100] Creating Layer L3_b9_cbr2_bn
I0821 06:49:15.139992 32405 net.cpp:434] L3_b9_cbr2_bn <- L3_b9_cbr2_conv_top
I0821 06:49:15.140000 32405 net.cpp:408] L3_b9_cbr2_bn -> L3_b9_cbr2_bn_top
I0821 06:49:15.140269 32405 net.cpp:150] Setting up L3_b9_cbr2_bn
I0821 06:49:15.140282 32405 net.cpp:157] Top shape: 125 64 8 8 (512000)
I0821 06:49:15.140286 32405 net.cpp:165] Memory required for data: 1444353500
I0821 06:49:15.140305 32405 layer_factory.hpp:77] Creating layer L3_b9_cbr2_scale
I0821 06:49:15.140317 32405 net.cpp:100] Creating Layer L3_b9_cbr2_scale
I0821 06:49:15.140324 32405 net.cpp:434] L3_b9_cbr2_scale <- L3_b9_cbr2_bn_top
I0821 06:49:15.140331 32405 net.cpp:395] L3_b9_cbr2_scale -> L3_b9_cbr2_bn_top (in-place)
I0821 06:49:15.140393 32405 layer_factory.hpp:77] Creating layer L3_b9_cbr2_scale
I0821 06:49:15.140547 32405 net.cpp:150] Setting up L3_b9_cbr2_scale
I0821 06:49:15.140560 32405 net.cpp:157] Top shape: 125 64 8 8 (512000)
I0821 06:49:15.140565 32405 net.cpp:165] Memory required for data: 1446401500
I0821 06:49:15.140574 32405 layer_factory.hpp:77] Creating layer L3_b9_sum_eltwise
I0821 06:49:15.140585 32405 net.cpp:100] Creating Layer L3_b9_sum_eltwise
I0821 06:49:15.140592 32405 net.cpp:434] L3_b9_sum_eltwise <- L3_b9_cbr2_bn_top
I0821 06:49:15.140599 32405 net.cpp:434] L3_b9_sum_eltwise <- L3_b8_sum_eltwise_top_L3_b8_relu_0_split_1
I0821 06:49:15.140607 32405 net.cpp:408] L3_b9_sum_eltwise -> L3_b9_sum_eltwise_top
I0821 06:49:15.140642 32405 net.cpp:150] Setting up L3_b9_sum_eltwise
I0821 06:49:15.140655 32405 net.cpp:157] Top shape: 125 64 8 8 (512000)
I0821 06:49:15.140660 32405 net.cpp:165] Memory required for data: 1448449500
I0821 06:49:15.140664 32405 layer_factory.hpp:77] Creating layer L3_b9_relu
I0821 06:49:15.140672 32405 net.cpp:100] Creating Layer L3_b9_relu
I0821 06:49:15.140677 32405 net.cpp:434] L3_b9_relu <- L3_b9_sum_eltwise_top
I0821 06:49:15.140689 32405 net.cpp:395] L3_b9_relu -> L3_b9_sum_eltwise_top (in-place)
I0821 06:49:15.140699 32405 net.cpp:150] Setting up L3_b9_relu
I0821 06:49:15.140707 32405 net.cpp:157] Top shape: 125 64 8 8 (512000)
I0821 06:49:15.140710 32405 net.cpp:165] Memory required for data: 1450497500
I0821 06:49:15.140715 32405 layer_factory.hpp:77] Creating layer post_pool
I0821 06:49:15.140724 32405 net.cpp:100] Creating Layer post_pool
I0821 06:49:15.140729 32405 net.cpp:434] post_pool <- L3_b9_sum_eltwise_top
I0821 06:49:15.140738 32405 net.cpp:408] post_pool -> post_pool
I0821 06:49:15.140770 32405 net.cpp:150] Setting up post_pool
I0821 06:49:15.140784 32405 net.cpp:157] Top shape: 125 64 1 1 (8000)
I0821 06:49:15.140789 32405 net.cpp:165] Memory required for data: 1450529500
I0821 06:49:15.140794 32405 layer_factory.hpp:77] Creating layer post_FC
I0821 06:49:15.140894 32405 net.cpp:100] Creating Layer post_FC
I0821 06:49:15.140908 32405 net.cpp:434] post_FC <- post_pool
I0821 06:49:15.140918 32405 net.cpp:408] post_FC -> post_FC_top
I0821 06:49:15.141180 32405 net.cpp:150] Setting up post_FC
I0821 06:49:15.141199 32405 net.cpp:157] Top shape: 125 10 (1250)
I0821 06:49:15.141206 32405 net.cpp:165] Memory required for data: 1450534500
I0821 06:49:15.141214 32405 layer_factory.hpp:77] Creating layer post_FC_top_post_FC_0_split
I0821 06:49:15.141223 32405 net.cpp:100] Creating Layer post_FC_top_post_FC_0_split
I0821 06:49:15.141229 32405 net.cpp:434] post_FC_top_post_FC_0_split <- post_FC_top
I0821 06:49:15.141237 32405 net.cpp:408] post_FC_top_post_FC_0_split -> post_FC_top_post_FC_0_split_0
I0821 06:49:15.141247 32405 net.cpp:408] post_FC_top_post_FC_0_split -> post_FC_top_post_FC_0_split_1
I0821 06:49:15.141296 32405 net.cpp:150] Setting up post_FC_top_post_FC_0_split
I0821 06:49:15.141307 32405 net.cpp:157] Top shape: 125 10 (1250)
I0821 06:49:15.141314 32405 net.cpp:157] Top shape: 125 10 (1250)
I0821 06:49:15.141319 32405 net.cpp:165] Memory required for data: 1450544500
I0821 06:49:15.141324 32405 layer_factory.hpp:77] Creating layer accuracy
I0821 06:49:15.141422 32405 net.cpp:100] Creating Layer accuracy
I0821 06:49:15.141435 32405 net.cpp:434] accuracy <- post_FC_top_post_FC_0_split_0
I0821 06:49:15.141443 32405 net.cpp:434] accuracy <- label_dataLayer_1_split_0
I0821 06:49:15.141451 32405 net.cpp:408] accuracy -> accuracy
…
