…
I0821 06:49:43.746129 32299 net.cpp:322] The NetState phase (0) differed from the phase (1) specified by a rule in layer L3_b9_cbr2_bn
I0821 06:49:43.747900 32299 net.cpp:58] Initializing net from parameters: 
name: "Cifar-Resnet"
state {
  phase: TRAIN
  level: 0
  stage: ""
}
layer {
  name: "dataLayer"
  type: "Data"
  top: "data_top"
  top: "label"
  include {
    phase: TRAIN
  }
  transform_param {
    mirror: true
    crop_size: 32
    mean_file: "examples/cifar10/mean.binaryproto"
  }
  data_param {
    source: "examples/cifar10/cifar10_train_lmdb"
    batch_size: 125
    backend: LMDB
  }
  image_data_param {
    shuffle: true
  }
}
layer {
  name: "pre_conv"
  type: "Convolution"
  bottom: "data_top"
  top: "pre_conv_top"
  param {
    lr_mult: 1
    decay_mult: 1
  }
  param {
    lr_mult: 2
    decay_mult: 0
  }
  convolution_param {
    num_output: 16
    pad: 1
    kernel_size: 3
    stride: 1
    weight_filler {
      type: "msra"
    }
    bias_filler {
      type: "constant"
    }
  }
}
layer {
  name: "pre_bn"
  type: "BatchNorm"
  bottom: "pre_conv_top"
  top: "pre_bn_top"
  include {
    phase: TRAIN
  }
  batch_norm_param {
    use_global_stats: false
    moving_average_fraction: 0.95
  }
}
layer {
  name: "pre_scale"
  type: "Scale"
  bottom: "pre_bn_top"
  top: "pre_bn_top"
  scale_param {
    bias_term: true
  }
}
layer {
  name: "pre_relu"
  type: "ReLU"
  bottom: "pre_bn_top"
  top: "pre_bn_top"
}
layer {
  name: "L1_b1_cbr1_conv"
  type: "Convolution"
  bottom: "pre_bn_top"
  top: "L1_b1_cbr1_conv_top"
  param {
    lr_mult: 1
    decay_mult: 1
  }
  param {
    lr_mult: 2
    decay_mult: 0
  }
  convolution_param {
    num_output: 16
    pad: 1
    kernel_size: 3
    stride: 1
    weight_filler {
      type: "msra"
    }
    bias_filler {
      type: "constant"
    }
  }
}
layer {
  name: "L1_b1_cbr1_bn"
  type: "BatchNorm"
  bottom: "L1_b1_cbr1_conv_top"
  top: "L1_b1_cbr1_bn_top"
  include {
    phase: TRAIN
  }
  batch_norm_param {
    use_global_stats: false
    moving_average_fraction: 0.95
  }
}
layer {
  name: "L1_b1_cbr1_scale"
  type: "Scale"
  bottom: "L1_b1_cbr1_bn_top"
  top: "L1_b1_cbr1_bn_top"
  scale_param {
    bias_term: true
  }
}
layer {
  name: "L1_b1_cbr1_relu"
  type: "ReLU"
  bottom: "L1_b1_cbr1_bn_top"
  top: "L1_b1_cbr1_bn_top"
}
layer {
  name: "L1_b1_cbr2_conv"
  type: "Convolution"
  bottom: "L1_b1_cbr1_bn_top"
  top: "L1_b1_cbr2_conv_top"
  param {
    lr_mult: 1
    decay_mult: 1
  }
  param {
    lr_mult: 2
    decay_mult: 0
  }
  convolution_param {
    num_output: 16
    pad: 1
    kernel_size: 3
    stride: 1
    weight_filler {
      type: "msra"
    }
    bias_filler {
      type: "constant"
    }
  }
}
layer {
  name: "L1_b1_cbr2_bn"
  type: "BatchNorm"
  bottom: "L1_b1_cbr2_conv_top"
  top: "L1_b1_cbr2_bn_top"
  include {
    phase: TRAIN
  }
  batch_norm_param {
    use_global_stats: false
    moving_average_fraction: 0.95
  }
}
layer {
  name: "L1_b1_cbr2_scale"
  type: "Scale"
  bottom: "L1_b1_cbr2_bn_top"
  top: "L1_b1_cbr2_bn_top"
  scale_param {
    bias_term: true
  }
}
layer {
  name: "L1_b1_sum_eltwise"
  type: "Eltwise"
  bottom: "L1_b1_cbr2_bn_top"
  bottom: "pre_bn_top"
  top: "L1_b1_sum_eltwise_top"
  eltwise_param {
    operation: SUM
  }
}
layer {
  name: "L1_b1_relu"
  type: "ReLU"
  bottom: "L1_b1_sum_eltwise_top"
  top: "L1_b1_sum_eltwise_top"
}
layer {
  name: "L1_b2_cbr1_conv"
  type: "Convolution"
  bottom: "L1_b1_sum_eltwise_top"
  top: "L1_b2_cbr1_conv_top"
  param {
    lr_mult: 1
    decay_mult: 1
  }
  param {
    lr_mult: 2
    decay_mult: 0
  }
  convolution_param {
    num_output: 16
    pad: 1
    kernel_size: 3
    stride: 1
    weight_filler {
      type: "msra"
    }
    bias_filler {
      type: "constant"
    }
  }
}
layer {
  name: "L1_b2_cbr1_bn"
  type: "BatchNorm"
  bottom: "L1_b2_cbr1_conv_top"
  top: "L1_b2_cbr1_bn_top"
  include {
    phase: TRAIN
  }
  batch_norm_param {
    use_global_stats: false
    moving_average_fraction: 0.95
  }
}
layer {
  name: "L1_b2_cbr1_scale"
  type: "Scale"
  bottom: "L1_b2_cbr1_bn_top"
  top: "L1_b2_cbr1_bn_top"
  scale_param {
    bias_term: true
  }
}
layer {
  name: "L1_b2_cbr1_relu"
  type: "ReLU"
  bottom: "L1_b2_cbr1_bn_top"
  top: "L1_b2_cbr1_bn_top"
}
layer {
  name: "L1_b2_cbr2_conv"
  type: "Convolution"
  bottom: "L1_b2_cbr1_bn_top"
  top: "L1_b2_cbr2_conv_top"
  param {
    lr_mult: 1
    decay_mult: 1
  }
  param {
    lr_mult: 2
    decay_mult: 0
  }
  convolution_param {
    num_output: 16
    pad: 1
    kernel_size: 3
    stride: 1
    weight_filler {
      type: "msra"
    }
    bias_filler {
      type: "constant"
    }
  }
}
layer {
  name: "L1_b2_cbr2_bn"
  type: "BatchNorm"
  bottom: "L1_b2_cbr2_conv_top"
  top: "L1_b2_cbr2_bn_top"
  include {
    phase: TRAIN
  }
  batch_norm_param {
    use_global_stats: false
    moving_average_fraction: 0.95
  }
}
layer {
  name: "L1_b2_cbr2_scale"
  type: "Scale"
  bottom: "L1_b2_cbr2_bn_top"
  top: "L1_b2_cbr2_bn_top"
  scale_param {
    bias_term: true
  }
}
layer {
  name: "L1_b2_sum_eltwise"
  type: "Eltwise"
  bottom: "L1_b2_cbr2_bn_top"
  bottom: "L1_b1_sum_eltwise_top"
  top: "L1_b2_sum_eltwise_top"
  eltwise_param {
    operation: SUM
  }
}
layer {
  name: "L1_b2_relu"
  type: "ReLU"
  bottom: "L1_b2_sum_eltwise_top"
  top: "L1_b2_sum_eltwise_top"
}
layer {
  name: "L1_b3_cbr1_conv"
  type: "Convolution"
  bottom: "L1_b2_sum_eltwise_top"
  top: "L1_b3_cbr1_conv_top"
  param {
    lr_mult: 1
    decay_mult: 1
  }
  param {
    lr_mult: 2
    decay_mult: 0
  }
  convolution_param {
    num_output: 16
    pad: 1
    kernel_size: 3
    stride: 1
    weight_filler {
      type: "msra"
    }
    bias_filler {
      type: "constant"
    }
  }
}
layer {
  name: "L1_b3_cbr1_bn"
  type: "BatchNorm"
  bottom: "L1_b3_cbr1_conv_top"
  top: "L1_b3_cbr1_bn_top"
  include {
    phase: TRAIN
  }
  batch_norm_param {
    use_global_stats: false
    moving_average_fraction: 0.95
  }
}
layer {
  name: "L1_b3_cbr1_scale"
  type: "Scale"
  bottom: "L1_b3_cbr1_bn_top"
  top: "L1_b3_cbr1_bn_top"
  scale_param {
    bias_term: true
  }
}
layer {
  name: "L1_b3_cbr1_relu"
  type: "ReLU"
  bottom: "L1_b3_cbr1_bn_top"
  top: "L1_b3_cbr1_bn_top"
}
layer {
  name: "L1_b3_cbr2_conv"
  type: "Convolution"
  bottom: "L1_b3_cbr1_bn_top"
  top: "L1_b3_cbr2_conv_top"
  param {
    lr_mult: 1
    decay_mult: 1
  }
  param {
    lr_mult: 2
    decay_mult: 0
  }
  convolution_param {
    num_output: 16
    pad: 1
    kernel_size: 3
    stride: 1
    weight_filler {
      type: "msra"
    }
    bias_filler {
      type: "constant"
    }
  }
}
layer {
  name: "L1_b3_cbr2_bn"
  type: "BatchNorm"
  bottom: "L1_b3_cbr2_conv_top"
  top: "L1_b3_cbr2_bn_top"
  include {
    phase: TRAIN
  }
  batch_norm_param {
    use_global_stats: false
    moving_average_fraction: 0.95
  }
}
layer {
  name: "L1_b3_cbr2_scale"
  type: "Scale"
  bottom: "L1_b3_cbr2_bn_top"
  top: "L1_b3_cbr2_bn_top"
  scale_param {
    bias_term: true
  }
}
layer {
  name: "L1_b3_sum_eltwise"
  type: "Eltwise"
  bottom: "L1_b3_cbr2_bn_top"
  bottom: "L1_b2_sum_eltwise_top"
  top: "L1_b3_sum_eltwise_top"
  eltwise_param {
    operation: SUM
  }
}
layer {
  name: "L1_b3_relu"
  type: "ReLU"
  bottom: "L1_b3_sum_eltwise_top"
  top: "L1_b3_sum_eltwise_top"
}
layer {
  name: "L1_b4_cbr1_conv"
  type: "Convolution"
  bottom: "L1_b3_sum_eltwise_top"
  top: "L1_b4_cbr1_conv_top"
  param {
    lr_mult: 1
    decay_mult: 1
  }
  param {
    lr_mult: 2
    decay_mult: 0
  }
  convolution_param {
    num_output: 16
    pad: 1
    kernel_size: 3
    stride: 1
    weight_filler {
      type: "msra"
    }
    bias_filler {
      type: "constant"
    }
  }
}
layer {
  name: "L1_b4_cbr1_bn"
  type: "BatchNorm"
  bottom: "L1_b4_cbr1_conv_top"
  top: "L1_b4_cbr1_bn_top"
  include {
    phase: TRAIN
  }
  batch_norm_param {
    use_global_stats: false
    moving_average_fraction: 0.95
  }
}
layer {
  name: "L1_b4_cbr1_scale"
  type: "Scale"
  bottom: "L1_b4_cbr1_bn_top"
  top: "L1_b4_cbr1_bn_top"
  scale_param {
    bias_term: true
  }
}
layer {
  name: "L1_b4_cbr1_relu"
  type: "ReLU"
  bottom: "L1_b4_cbr1_bn_top"
  top: "L1_b4_cbr1_bn_top"
}
layer {
  name: "L1_b4_cbr2_conv"
  type: "Convolution"
  bottom: "L1_b4_cbr1_bn_top"
  top: "L1_b4_cbr2_conv_top"
  param {
    lr_mult: 1
    decay_mult: 1
  }
  param {
    lr_mult: 2
    decay_mult: 0
  }
  convolution_param {
    num_output: 16
    pad: 1
    kernel_size: 3
    stride: 1
    weight_filler {
      type: "msra"
    }
    bias_filler {
      type: "constant"
    }
  }
}
layer {
  name: "L1_b4_cbr2_bn"
  type: "BatchNorm"
  bottom: "L1_b4_cbr2_conv_top"
  top: "L1_b4_cbr2_bn_top"
  include {
    phase: TRAIN
  }
  batch_norm_param {
    use_global_stats: false
    moving_average_fraction: 0.95
  }
}
layer {
  name: "L1_b4_cbr2_scale"
  type: "Scale"
  bottom: "L1_b4_cbr2_bn_top"
  top: "L1_b4_cbr2_bn_top"
  scale_param {
    bias_term: true
  }
}
layer {
  name: "L1_b4_sum_eltwise"
  type: "Eltwise"
  bottom: "L1_b4_cbr2_bn_top"
  bottom: "L1_b3_sum_eltwise_top"
  top: "L1_b4_sum_eltwise_top"
  eltwise_param {
    operation: SUM
  }
}
layer {
  name: "L1_b4_relu"
  type: "ReLU"
  bottom: "L1_b4_sum_eltwise_top"
  top: "L1_b4_sum_eltwise_top"
}
layer {
  name: "L1_b5_cbr1_conv"
  type: "Convolution"
  bottom: "L1_b4_sum_eltwise_top"
  top: "L1_b5_cbr1_conv_top"
  param {
    lr_mult: 1
    decay_mult: 1
  }
  param {
    lr_mult: 2
    decay_mult: 0
  }
  convolution_param {
    num_output: 16
    pad: 1
    kernel_size: 3
    stride: 1
    weight_filler {
      type: "msra"
    }
    bias_filler {
      type: "constant"
    }
  }
}
layer {
  name: "L1_b5_cbr1_bn"
  type: "BatchNorm"
  bottom: "L1_b5_cbr1_conv_top"
  top: "L1_b5_cbr1_bn_top"
  include {
    phase: TRAIN
  }
  batch_norm_param {
    use_global_stats: false
    moving_average_fraction: 0.95
  }
}
layer {
  name: "L1_b5_cbr1_scale"
  type: "Scale"
  bottom: "L1_b5_cbr1_bn_top"
  top: "L1_b5_cbr1_bn_top"
  scale_param {
    bias_term: true
  }
}
layer {
  name: "L1_b5_cbr1_relu"
  type: "ReLU"
  bottom: "L1_b5_cbr1_bn_top"
  top: "L1_b5_cbr1_bn_top"
}
layer {
  name: "L1_b5_cbr2_conv"
  type: "Convolution"
  bottom: "L1_b5_cbr1_bn_top"
  top: "L1_b5_cbr2_conv_top"
  param {
    lr_mult: 1
    decay_mult: 1
  }
  param {
    lr_mult: 2
    decay_mult: 0
  }
  convolution_param {
    num_output: 16
    pad: 1
    kernel_size: 3
    stride: 1
    weight_filler {
      type: "msra"
    }
    bias_filler {
      type: "constant"
    }
  }
}
layer {
  name: "L1_b5_cbr2_bn"
  type: "BatchNorm"
  bottom: "L1_b5_cbr2_conv_top"
  top: "L1_b5_cbr2_bn_top"
  include {
    phase: TRAIN
  }
  batch_norm_param {
    use_global_stats: false
    moving_average_fraction: 0.95
  }
}
layer {
  name: "L1_b5_cbr2_scale"
  type: "Scale"
  bottom: "L1_b5_cbr2_bn_top"
  top: "L1_b5_cbr2_bn_top"
  scale_param {
    bias_term: true
  }
}
layer {
  name: "L1_b5_sum_eltwise"
  type: "Eltwise"
  bottom: "L1_b5_cbr2_bn_top"
  bottom: "L1_b4_sum_eltwise_top"
  top: "L1_b5_sum_eltwise_top"
  eltwise_param {
    operation: SUM
  }
}
layer {
  name: "L1_b5_relu"
  type: "ReLU"
  bottom: "L1_b5_sum_eltwise_top"
  top: "L1_b5_sum_eltwise_top"
}
layer {
  name: "L1_b6_cbr1_conv"
  type: "Convolution"
  bottom: "L1_b5_sum_eltwise_top"
  top: "L1_b6_cbr1_conv_top"
  param {
    lr_mult: 1
    decay_mult: 1
  }
  param {
    lr_mult: 2
    decay_mult: 0
  }
  convolution_param {
    num_output: 16
    pad: 1
    kernel_size: 3
    stride: 1
    weight_filler {
      type: "msra"
    }
    bias_filler {
      type: "constant"
    }
  }
}
layer {
  name: "L1_b6_cbr1_bn"
  type: "BatchNorm"
  bottom: "L1_b6_cbr1_conv_top"
  top: "L1_b6_cbr1_bn_top"
  include {
    phase: TRAIN
  }
  batch_norm_param {
    use_global_stats: false
    moving_average_fraction: 0.95
  }
}
layer {
  name: "L1_b6_cbr1_scale"
  type: "Scale"
  bottom: "L1_b6_cbr1_bn_top"
  top: "L1_b6_cbr1_bn_top"
  scale_param {
    bias_term: true
  }
}
layer {
  name: "L1_b6_cbr1_relu"
  type: "ReLU"
  bottom: "L1_b6_cbr1_bn_top"
  top: "L1_b6_cbr1_bn_top"
}
layer {
  name: "L1_b6_cbr2_conv"
  type: "Convolution"
  bottom: "L1_b6_cbr1_bn_top"
  top: "L1_b6_cbr2_conv_top"
  param {
    lr_mult: 1
    decay_mult: 1
  }
  param {
    lr_mult: 2
    decay_mult: 0
  }
  convolution_param {
    num_output: 16
    pad: 1
    kernel_size: 3
    stride: 1
    weight_filler {
      type: "msra"
    }
    bias_filler {
      type: "constant"
    }
  }
}
layer {
  name: "L1_b6_cbr2_bn"
  type: "BatchNorm"
  bottom: "L1_b6_cbr2_conv_top"
  top: "L1_b6_cbr2_bn_top"
  include {
    phase: TRAIN
  }
  batch_norm_param {
    use_global_stats: false
    moving_average_fraction: 0.95
  }
}
layer {
  name: "L1_b6_cbr2_scale"
  type: "Scale"
  bottom: "L1_b6_cbr2_bn_top"
  top: "L1_b6_cbr2_bn_top"
  scale_param {
    bias_term: true
  }
}
layer {
  name: "L1_b6_sum_eltwise"
  type: "Eltwise"
  bottom: "L1_b6_cbr2_bn_top"
  bottom: "L1_b5_sum_eltwise_top"
  top: "L1_b6_sum_eltwise_top"
  eltwise_param {
    operation: SUM
  }
}
layer {
  name: "L1_b6_relu"
  type: "ReLU"
  bottom: "L1_b6_sum_eltwise_top"
  top: "L1_b6_sum_eltwise_top"
}
layer {
  name: "L1_b7_cbr1_conv"
  type: "Convolution"
  bottom: "L1_b6_sum_eltwise_top"
  top: "L1_b7_cbr1_conv_top"
  param {
    lr_mult: 1
    decay_mult: 1
  }
  param {
    lr_mult: 2
    decay_mult: 0
  }
  convolution_param {
    num_output: 16
    pad: 1
    kernel_size: 3
    stride: 1
    weight_filler {
      type: "msra"
    }
    bias_filler {
      type: "constant"
    }
  }
}
layer {
  name: "L1_b7_cbr1_bn"
  type: "BatchNorm"
  bottom: "L1_b7_cbr1_conv_top"
  top: "L1_b7_cbr1_bn_top"
  include {
    phase: TRAIN
  }
  batch_norm_param {
    use_global_stats: false
    moving_average_fraction: 0.95
  }
}
layer {
  name: "L1_b7_cbr1_scale"
  type: "Scale"
  bottom: "L1_b7_cbr1_bn_top"
  top: "L1_b7_cbr1_bn_top"
  scale_param {
    bias_term: true
  }
}
layer {
  name: "L1_b7_cbr1_relu"
  type: "ReLU"
  bottom: "L1_b7_cbr1_bn_top"
  top: "L1_b7_cbr1_bn_top"
}
layer {
  name: "L1_b7_cbr2_conv"
  type: "Convolution"
  bottom: "L1_b7_cbr1_bn_top"
  top: "L1_b7_cbr2_conv_top"
  param {
    lr_mult: 1
    decay_mult: 1
  }
  param {
    lr_mult: 2
    decay_mult: 0
  }
  convolution_param {
    num_output: 16
    pad: 1
    kernel_size: 3
    stride: 1
    weight_filler {
      type: "msra"
    }
    bias_filler {
      type: "constant"
    }
  }
}
layer {
  name: "L1_b7_cbr2_bn"
  type: "BatchNorm"
  bottom: "L1_b7_cbr2_conv_top"
  top: "L1_b7_cbr2_bn_top"
  include {
    phase: TRAIN
  }
  batch_norm_param {
    use_global_stats: false
    moving_average_fraction: 0.95
  }
}
layer {
  name: "L1_b7_cbr2_scale"
  type: "Scale"
  bottom: "L1_b7_cbr2_bn_top"
  top: "L1_b7_cbr2_bn_top"
  scale_param {
    bias_term: true
  }
}
layer {
  name: "L1_b7_sum_eltwise"
  type: "Eltwise"
  bottom: "L1_b7_cbr2_bn_top"
  bottom: "L1_b6_sum_eltwise_top"
  top: "L1_b7_sum_eltwise_top"
  eltwise_param {
    operation: SUM
  }
}
layer {
  name: "L1_b7_relu"
  type: "ReLU"
  bottom: "L1_b7_sum_eltwise_top"
  top: "L1_b7_sum_eltwise_top"
}
layer {
  name: "L1_b8_cbr1_conv"
  type: "Convolution"
  bottom: "L1_b7_sum_eltwise_top"
  top: "L1_b8_cbr1_conv_top"
  param {
    lr_mult: 1
    decay_mult: 1
  }
  param {
    lr_mult: 2
    decay_mult: 0
  }
  convolution_param {
    num_output: 16
    pad: 1
    kernel_size: 3
    stride: 1
    weight_filler {
      type: "msra"
    }
    bias_filler {
      type: "constant"
    }
  }
}
layer {
  name: "L1_b8_cbr1_bn"
  type: "BatchNorm"
  bottom: "L1_b8_cbr1_conv_top"
  top: "L1_b8_cbr1_bn_top"
  include {
    phase: TRAIN
  }
  batch_norm_param {
    use_global_stats: false
    moving_average_fraction: 0.95
  }
}
layer {
  name: "L1_b8_cbr1_scale"
  type: "Scale"
  bottom: "L1_b8_cbr1_bn_top"
  top: "L1_b8_cbr1_bn_top"
  scale_param {
    bias_term: true
  }
}
layer {
  name: "L1_b8_cbr1_relu"
  type: "ReLU"
  bottom: "L1_b8_cbr1_bn_top"
  top: "L1_b8_cbr1_bn_top"
}
layer {
  name: "L1_b8_cbr2_conv"
  type: "Convolution"
  bottom: "L1_b8_cbr1_bn_top"
  top: "L1_b8_cbr2_conv_top"
  param {
    lr_mult: 1
    decay_mult: 1
  }
  param {
    lr_mult: 2
    decay_mult: 0
  }
  convolution_param {
    num_output: 16
    pad: 1
    kernel_size: 3
    stride: 1
    weight_filler {
      type: "msra"
    }
    bias_filler {
      type: "constant"
    }
  }
}
layer {
  name: "L1_b8_cbr2_bn"
  type: "BatchNorm"
  bottom: "L1_b8_cbr2_conv_top"
  top: "L1_b8_cbr2_bn_top"
  include {
    phase: TRAIN
  }
  batch_norm_param {
    use_global_stats: false
    moving_average_fraction: 0.95
  }
}
layer {
  name: "L1_b8_cbr2_scale"
  type: "Scale"
  bottom: "L1_b8_cbr2_bn_top"
  top: "L1_b8_cbr2_bn_top"
  scale_param {
    bias_term: true
  }
}
layer {
  name: "L1_b8_sum_eltwise"
  type: "Eltwise"
  bottom: "L1_b8_cbr2_bn_top"
  bottom: "L1_b7_sum_eltwise_top"
  top: "L1_b8_sum_eltwise_top"
  eltwise_param {
    operation: SUM
  }
}
layer {
  name: "L1_b8_relu"
  type: "ReLU"
  bottom: "L1_b8_sum_eltwise_top"
  top: "L1_b8_sum_eltwise_top"
}
layer {
  name: "L1_b9_cbr1_conv"
  type: "Convolution"
  bottom: "L1_b8_sum_eltwise_top"
  top: "L1_b9_cbr1_conv_top"
  param {
    lr_mult: 1
    decay_mult: 1
  }
  param {
    lr_mult: 2
    decay_mult: 0
  }
  convolution_param {
    num_output: 16
    pad: 1
    kernel_size: 3
    stride: 1
    weight_filler {
      type: "msra"
    }
    bias_filler {
      type: "constant"
    }
  }
}
layer {
  name: "L1_b9_cbr1_bn"
  type: "BatchNorm"
  bottom: "L1_b9_cbr1_conv_top"
  top: "L1_b9_cbr1_bn_top"
  include {
    phase: TRAIN
  }
  batch_norm_param {
    use_global_stats: false
    moving_average_fraction: 0.95
  }
}
layer {
  name: "L1_b9_cbr1_scale"
  type: "Scale"
  bottom: "L1_b9_cbr1_bn_top"
  top: "L1_b9_cbr1_bn_top"
  scale_param {
    bias_term: true
  }
}
layer {
  name: "L1_b9_cbr1_relu"
  type: "ReLU"
  bottom: "L1_b9_cbr1_bn_top"
  top: "L1_b9_cbr1_bn_top"
}
layer {
  name: "L1_b9_cbr2_conv"
  type: "Convolution"
  bottom: "L1_b9_cbr1_bn_top"
  top: "L1_b9_cbr2_conv_top"
  param {
    lr_mult: 1
    decay_mult: 1
  }
  param {
    lr_mult: 2
    decay_mult: 0
  }
  convolution_param {
    num_output: 16
    pad: 1
    kernel_size: 3
    stride: 1
    weight_filler {
      type: "msra"
    }
    bias_filler {
      type: "constant"
    }
  }
}
layer {
  name: "L1_b9_cbr2_bn"
  type: "BatchNorm"
  bottom: "L1_b9_cbr2_conv_top"
  top: "L1_b9_cbr2_bn_top"
  include {
    phase: TRAIN
  }
  batch_norm_param {
    use_global_stats: false
    moving_average_fraction: 0.95
  }
}
layer {
  name: "L1_b9_cbr2_scale"
  type: "Scale"
  bottom: "L1_b9_cbr2_bn_top"
  top: "L1_b9_cbr2_bn_top"
  scale_param {
    bias_term: true
  }
}
layer {
  name: "L1_b9_sum_eltwise"
  type: "Eltwise"
  bottom: "L1_b9_cbr2_bn_top"
  bottom: "L1_b8_sum_eltwise_top"
  top: "L1_b9_sum_eltwise_top"
  eltwise_param {
    operation: SUM
  }
}
layer {
  name: "L1_b9_relu"
  type: "ReLU"
  bottom: "L1_b9_sum_eltwise_top"
  top: "L1_b9_sum_eltwise_top"
}
layer {
  name: "L2_b1_cbr1_conv"
  type: "Convolution"
  bottom: "L1_b9_sum_eltwise_top"
  top: "L2_b1_cbr1_conv_top"
  param {
    lr_mult: 1
    decay_mult: 1
  }
  param {
    lr_mult: 2
    decay_mult: 0
  }
  convolution_param {
    num_output: 16
    pad: 1
    kernel_size: 3
    stride: 2
    weight_filler {
      type: "msra"
    }
    bias_filler {
      type: "constant"
    }
  }
}
layer {
  name: "L2_b1_cbr1_bn"
  type: "BatchNorm"
  bottom: "L2_b1_cbr1_conv_top"
  top: "L2_b1_cbr1_bn_top"
  include {
    phase: TRAIN
  }
  batch_norm_param {
    use_global_stats: false
    moving_average_fraction: 0.95
  }
}
layer {
  name: "L2_b1_cbr1_scale"
  type: "Scale"
  bottom: "L2_b1_cbr1_bn_top"
  top: "L2_b1_cbr1_bn_top"
  scale_param {
    bias_term: true
  }
}
layer {
  name: "L2_b1_cbr1_relu"
  type: "ReLU"
  bottom: "L2_b1_cbr1_bn_top"
  top: "L2_b1_cbr1_bn_top"
}
layer {
  name: "L2_b1_cbr2_conv"
  type: "Convolution"
  bottom: "L2_b1_cbr1_bn_top"
  top: "L2_b1_cbr2_conv_top"
  param {
    lr_mult: 1
    decay_mult: 1
  }
  param {
    lr_mult: 2
    decay_mult: 0
  }
  convolution_param {
    num_output: 16
    pad: 1
    kernel_size: 3
    stride: 1
    weight_filler {
      type: "msra"
    }
    bias_filler {
      type: "constant"
    }
  }
}
layer {
  name: "L2_b1_cbr2_bn"
  type: "BatchNorm"
  bottom: "L2_b1_cbr2_conv_top"
  top: "L2_b1_cbr2_bn_top"
  include {
    phase: TRAIN
  }
  batch_norm_param {
    use_global_stats: false
    moving_average_fraction: 0.95
  }
}
layer {
  name: "L2_b1_cbr2_scale"
  type: "Scale"
  bottom: "L2_b1_cbr2_bn_top"
  top: "L2_b1_cbr2_bn_top"
  scale_param {
    bias_term: true
  }
}
layer {
  name: "L2_b1_pool"
  type: "Pooling"
  bottom: "L1_b9_sum_eltwise_top"
  top: "L2_b1_pool"
  pooling_param {
    pool: AVE
    kernel_size: 3
    stride: 2
  }
}
layer {
  name: "L2_b1_sum_eltwise"
  type: "Eltwise"
  bottom: "L2_b1_cbr2_bn_top"
  bottom: "L2_b1_pool"
  top: "L2_b1_sum_eltwise_top"
  eltwise_param {
    operation: SUM
  }
}
layer {
  name: "L2_b1_relu"
  type: "ReLU"
  bottom: "L2_b1_sum_eltwise_top"
  top: "L2_b1_sum_eltwise_top"
}
layer {
  name: "L2_b1_zeros"
  type: "DummyData"
  top: "L2_b1_zeros"
  dummy_data_param {
    data_filler {
      type: "constant"
      value: 0
    }
    shape {
      dim: 125
      dim: 16
      dim: 16
      dim: 16
    }
  }
}
layer {
  name: "L2_b1_concat0"
  type: "Concat"
  bottom: "L2_b1_sum_eltwise_top"
  bottom: "L2_b1_zeros"
  top: "L2_b1_concat0"
  concat_param {
    axis: 1
  }
}
layer {
  name: "L2_b2_cbr1_conv"
  type: "Convolution"
  bottom: "L2_b1_concat0"
  top: "L2_b2_cbr1_conv_top"
  param {
    lr_mult: 1
    decay_mult: 1
  }
  param {
    lr_mult: 2
    decay_mult: 0
  }
  convolution_param {
    num_output: 32
    pad: 1
    kernel_size: 3
    stride: 1
    weight_filler {
      type: "msra"
    }
    bias_filler {
      type: "constant"
    }
  }
}
layer {
  name: "L2_b2_cbr1_bn"
  type: "BatchNorm"
  bottom: "L2_b2_cbr1_conv_top"
  top: "L2_b2_cbr1_bn_top"
  include {
    phase: TRAIN
  }
  batch_norm_param {
    use_global_stats: false
    moving_average_fraction: 0.95
  }
}
layer {
  name: "L2_b2_cbr1_scale"
  type: "Scale"
  bottom: "L2_b2_cbr1_bn_top"
  top: "L2_b2_cbr1_bn_top"
  scale_param {
    bias_term: true
  }
}
layer {
  name: "L2_b2_cbr1_relu"
  type: "ReLU"
  bottom: "L2_b2_cbr1_bn_top"
  top: "L2_b2_cbr1_bn_top"
}
layer {
  name: "L2_b2_cbr2_conv"
  type: "Convolution"
  bottom: "L2_b2_cbr1_bn_top"
  top: "L2_b2_cbr2_conv_top"
  param {
    lr_mult: 1
    decay_mult: 1
  }
  param {
    lr_mult: 2
    decay_mult: 0
  }
  convolution_param {
    num_output: 32
    pad: 1
    kernel_size: 3
    stride: 1
    weight_filler {
      type: "msra"
    }
    bias_filler {
      type: "constant"
    }
  }
}
layer {
  name: "L2_b2_cbr2_bn"
  type: "BatchNorm"
  bottom: "L2_b2_cbr2_conv_top"
  top: "L2_b2_cbr2_bn_top"
  include {
    phase: TRAIN
  }
  batch_norm_param {
    use_global_stats: false
    moving_average_fraction: 0.95
  }
}
layer {
  name: "L2_b2_cbr2_scale"
  type: "Scale"
  bottom: "L2_b2_cbr2_bn_top"
  top: "L2_b2_cbr2_bn_top"
  scale_param {
    bias_term: true
  }
}
layer {
  name: "L2_b2_sum_eltwise"
  type: "Eltwise"
  bottom: "L2_b2_cbr2_bn_top"
  bottom: "L2_b1_concat0"
  top: "L2_b2_sum_eltwise_top"
  eltwise_param {
    operation: SUM
  }
}
layer {
  name: "L2_b2_relu"
  type: "ReLU"
  bottom: "L2_b2_sum_eltwise_top"
  top: "L2_b2_sum_eltwise_top"
}
layer {
  name: "L2_b3_cbr1_conv"
  type: "Convolution"
  bottom: "L2_b2_sum_eltwise_top"
  top: "L2_b3_cbr1_conv_top"
  param {
    lr_mult: 1
    decay_mult: 1
  }
  param {
    lr_mult: 2
    decay_mult: 0
  }
  convolution_param {
    num_output: 32
    pad: 1
    kernel_size: 3
    stride: 1
    weight_filler {
      type: "msra"
    }
    bias_filler {
      type: "constant"
    }
  }
}
layer {
  name: "L2_b3_cbr1_bn"
  type: "BatchNorm"
  bottom: "L2_b3_cbr1_conv_top"
  top: "L2_b3_cbr1_bn_top"
  include {
    phase: TRAIN
  }
  batch_norm_param {
    use_global_stats: false
    moving_average_fraction: 0.95
  }
}
layer {
  name: "L2_b3_cbr1_scale"
  type: "Scale"
  bottom: "L2_b3_cbr1_bn_top"
  top: "L2_b3_cbr1_bn_top"
  scale_param {
    bias_term: true
  }
}
layer {
  name: "L2_b3_cbr1_relu"
  type: "ReLU"
  bottom: "L2_b3_cbr1_bn_top"
  top: "L2_b3_cbr1_bn_top"
}
layer {
  name: "L2_b3_cbr2_conv"
  type: "Convolution"
  bottom: "L2_b3_cbr1_bn_top"
  top: "L2_b3_cbr2_conv_top"
  param {
    lr_mult: 1
    decay_mult: 1
  }
  param {
    lr_mult: 2
    decay_mult: 0
  }
  convolution_param {
    num_output: 32
    pad: 1
    kernel_size: 3
    stride: 1
    weight_filler {
      type: "msra"
    }
    bias_filler {
      type: "constant"
    }
  }
}
layer {
  name: "L2_b3_cbr2_bn"
  type: "BatchNorm"
  bottom: "L2_b3_cbr2_conv_top"
  top: "L2_b3_cbr2_bn_top"
  include {
    phase: TRAIN
  }
  batch_norm_param {
    use_global_stats: false
    moving_average_fraction: 0.95
  }
}
layer {
  name: "L2_b3_cbr2_scale"
  type: "Scale"
  bottom: "L2_b3_cbr2_bn_top"
  top: "L2_b3_cbr2_bn_top"
  scale_param {
    bias_term: true
  }
}
layer {
  name: "L2_b3_sum_eltwise"
  type: "Eltwise"
  bottom: "L2_b3_cbr2_bn_top"
  bottom: "L2_b2_sum_eltwise_top"
  top: "L2_b3_sum_eltwise_top"
  eltwise_param {
    operation: SUM
  }
}
layer {
  name: "L2_b3_relu"
  type: "ReLU"
  bottom: "L2_b3_sum_eltwise_top"
  top: "L2_b3_sum_eltwise_top"
}
layer {
  name: "L2_b4_cbr1_conv"
  type: "Convolution"
  bottom: "L2_b3_sum_eltwise_top"
  top: "L2_b4_cbr1_conv_top"
  param {
    lr_mult: 1
    decay_mult: 1
  }
  param {
    lr_mult: 2
    decay_mult: 0
  }
  convolution_param {
    num_output: 32
    pad: 1
    kernel_size: 3
    stride: 1
    weight_filler {
      type: "msra"
    }
    bias_filler {
      type: "constant"
    }
  }
}
layer {
  name: "L2_b4_cbr1_bn"
  type: "BatchNorm"
  bottom: "L2_b4_cbr1_conv_top"
  top: "L2_b4_cbr1_bn_top"
  include {
    phase: TRAIN
  }
  batch_norm_param {
    use_global_stats: false
    moving_average_fraction: 0.95
  }
}
layer {
  name: "L2_b4_cbr1_scale"
  type: "Scale"
  bottom: "L2_b4_cbr1_bn_top"
  top: "L2_b4_cbr1_bn_top"
  scale_param {
    bias_term: true
  }
}
layer {
  name: "L2_b4_cbr1_relu"
  type: "ReLU"
  bottom: "L2_b4_cbr1_bn_top"
  top: "L2_b4_cbr1_bn_top"
}
layer {
  name: "L2_b4_cbr2_conv"
  type: "Convolution"
  bottom: "L2_b4_cbr1_bn_top"
  top: "L2_b4_cbr2_conv_top"
  param {
    lr_mult: 1
    decay_mult: 1
  }
  param {
    lr_mult: 2
    decay_mult: 0
  }
  convolution_param {
    num_output: 32
    pad: 1
    kernel_size: 3
    stride: 1
    weight_filler {
      type: "msra"
    }
    bias_filler {
      type: "constant"
    }
  }
}
layer {
  name: "L2_b4_cbr2_bn"
  type: "BatchNorm"
  bottom: "L2_b4_cbr2_conv_top"
  top: "L2_b4_cbr2_bn_top"
  include {
    phase: TRAIN
  }
  batch_norm_param {
    use_global_stats: false
    moving_average_fraction: 0.95
  }
}
layer {
  name: "L2_b4_cbr2_scale"
  type: "Scale"
  bottom: "L2_b4_cbr2_bn_top"
  top: "L2_b4_cbr2_bn_top"
  scale_param {
    bias_term: true
  }
}
layer {
  name: "L2_b4_sum_eltwise"
  type: "Eltwise"
  bottom: "L2_b4_cbr2_bn_top"
  bottom: "L2_b3_sum_eltwise_top"
  top: "L2_b4_sum_eltwise_top"
  eltwise_param {
    operation: SUM
  }
}
layer {
  name: "L2_b4_relu"
  type: "ReLU"
  bottom: "L2_b4_sum_eltwise_top"
  top: "L2_b4_sum_eltwise_top"
}
layer {
  name: "L2_b5_cbr1_conv"
  type: "Convolution"
  bottom: "L2_b4_sum_eltwise_top"
  top: "L2_b5_cbr1_conv_top"
  param {
    lr_mult: 1
    decay_mult: 1
  }
  param {
    lr_mult: 2
    decay_mult: 0
  }
  convolution_param {
    num_output: 32
    pad: 1
    kernel_size: 3
    stride: 1
    weight_filler {
      type: "msra"
    }
    bias_filler {
      type: "constant"
    }
  }
}
layer {
  name: "L2_b5_cbr1_bn"
  type: "BatchNorm"
  bottom: "L2_b5_cbr1_conv_top"
  top: "L2_b5_cbr1_bn_top"
  include {
    phase: TRAIN
  }
  batch_norm_param {
    use_global_stats: false
    moving_average_fraction: 0.95
  }
}
layer {
  name: "L2_b5_cbr1_scale"
  type: "Scale"
  bottom: "L2_b5_cbr1_bn_top"
  top: "L2_b5_cbr1_bn_top"
  scale_param {
    bias_term: true
  }
}
layer {
  name: "L2_b5_cbr1_relu"
  type: "ReLU"
  bottom: "L2_b5_cbr1_bn_top"
  top: "L2_b5_cbr1_bn_top"
}
layer {
  name: "L2_b5_cbr2_conv"
  type: "Convolution"
  bottom: "L2_b5_cbr1_bn_top"
  top: "L2_b5_cbr2_conv_top"
  param {
    lr_mult: 1
    decay_mult: 1
  }
  param {
    lr_mult: 2
    decay_mult: 0
  }
  convolution_param {
    num_output: 32
    pad: 1
    kernel_size: 3
    stride: 1
    weight_filler {
      type: "msra"
    }
    bias_filler {
      type: "constant"
    }
  }
}
layer {
  name: "L2_b5_cbr2_bn"
  type: "BatchNorm"
  bottom: "L2_b5_cbr2_conv_top"
  top: "L2_b5_cbr2_bn_top"
  include {
    phase: TRAIN
  }
  batch_norm_param {
    use_global_stats: false
    moving_average_fraction: 0.95
  }
}
layer {
  name: "L2_b5_cbr2_scale"
  type: "Scale"
  bottom: "L2_b5_cbr2_bn_top"
  top: "L2_b5_cbr2_bn_top"
  scale_param {
    bias_term: true
  }
}
layer {
  name: "L2_b5_sum_eltwise"
  type: "Eltwise"
  bottom: "L2_b5_cbr2_bn_top"
  bottom: "L2_b4_sum_eltwise_top"
  top: "L2_b5_sum_eltwise_top"
  eltwise_param {
    operation: SUM
  }
}
layer {
  name: "L2_b5_relu"
  type: "ReLU"
  bottom: "L2_b5_sum_eltwise_top"
  top: "L2_b5_sum_eltwise_top"
}
layer {
  name: "L2_b6_cbr1_conv"
  type: "Convolution"
  bottom: "L2_b5_sum_eltwise_top"
  top: "L2_b6_cbr1_conv_top"
  param {
    lr_mult: 1
    decay_mult: 1
  }
  param {
    lr_mult: 2
    decay_mult: 0
  }
  convolution_param {
    num_output: 32
    pad: 1
    kernel_size: 3
    stride: 1
    weight_filler {
      type: "msra"
    }
    bias_filler {
      type: "constant"
    }
  }
}
layer {
  name: "L2_b6_cbr1_bn"
  type: "BatchNorm"
  bottom: "L2_b6_cbr1_conv_top"
  top: "L2_b6_cbr1_bn_top"
  include {
    phase: TRAIN
  }
  batch_norm_param {
    use_global_stats: false
    moving_average_fraction: 0.95
  }
}
layer {
  name: "L2_b6_c
I0821 06:49:43.749997 32299 layer_factory.hpp:77] Creating layer dataLayer
I0821 06:49:43.751224 32299 net.cpp:100] Creating Layer dataLayer
I0821 06:49:43.751312 32299 net.cpp:408] dataLayer -> data_top
I0821 06:49:43.751523 32299 net.cpp:408] dataLayer -> label
I0821 06:49:43.751653 32299 data_transformer.cpp:25] Loading mean file from: examples/cifar10/mean.binaryproto
I0821 06:49:43.762519 32305 db_lmdb.cpp:35] Opened lmdb examples/cifar10/cifar10_train_lmdb
I0821 06:49:43.848953 32299 data_layer.cpp:41] output data size: 125,3,32,32
I0821 06:49:43.855955 32299 net.cpp:150] Setting up dataLayer
I0821 06:49:43.856019 32299 net.cpp:157] Top shape: 125 3 32 32 (384000)
I0821 06:49:43.856031 32299 net.cpp:157] Top shape: 125 (125)
I0821 06:49:43.856036 32299 net.cpp:165] Memory required for data: 1536500
I0821 06:49:43.856053 32299 layer_factory.hpp:77] Creating layer label_dataLayer_1_split
I0821 06:49:43.856070 32299 net.cpp:100] Creating Layer label_dataLayer_1_split
I0821 06:49:43.856078 32299 net.cpp:434] label_dataLayer_1_split <- label
I0821 06:49:43.856103 32299 net.cpp:408] label_dataLayer_1_split -> label_dataLayer_1_split_0
I0821 06:49:43.856120 32299 net.cpp:408] label_dataLayer_1_split -> label_dataLayer_1_split_1
I0821 06:49:43.856709 32299 net.cpp:150] Setting up label_dataLayer_1_split
I0821 06:49:43.856734 32299 net.cpp:157] Top shape: 125 (125)
I0821 06:49:43.856740 32299 net.cpp:157] Top shape: 125 (125)
I0821 06:49:43.856745 32299 net.cpp:165] Memory required for data: 1537500
I0821 06:49:43.856752 32299 layer_factory.hpp:77] Creating layer pre_conv
I0821 06:49:43.856828 32299 net.cpp:100] Creating Layer pre_conv
I0821 06:49:43.856840 32299 net.cpp:434] pre_conv <- data_top
I0821 06:49:43.856853 32299 net.cpp:408] pre_conv -> pre_conv_top
I0821 06:49:43.859066 32306 blocking_queue.cpp:50] Waiting for data
I0821 06:49:43.860371 32299 net.cpp:150] Setting up pre_conv
I0821 06:49:43.860399 32299 net.cpp:157] Top shape: 125 16 32 32 (2048000)
I0821 06:49:43.860405 32299 net.cpp:165] Memory required for data: 9729500
I0821 06:49:43.860476 32299 layer_factory.hpp:77] Creating layer pre_bn
I0821 06:49:43.861855 32299 net.cpp:100] Creating Layer pre_bn
I0821 06:49:43.861871 32299 net.cpp:434] pre_bn <- pre_conv_top
I0821 06:49:43.861881 32299 net.cpp:408] pre_bn -> pre_bn_top
I0821 06:49:43.862190 32299 net.cpp:150] Setting up pre_bn
I0821 06:49:43.862206 32299 net.cpp:157] Top shape: 125 16 32 32 (2048000)
I0821 06:49:43.862211 32299 net.cpp:165] Memory required for data: 17921500
I0821 06:49:43.862228 32299 layer_factory.hpp:77] Creating layer pre_scale
I0821 06:49:43.862285 32299 net.cpp:100] Creating Layer pre_scale
I0821 06:49:43.862295 32299 net.cpp:434] pre_scale <- pre_bn_top
I0821 06:49:43.862308 32299 net.cpp:395] pre_scale -> pre_bn_top (in-place)
I0821 06:49:43.862489 32299 layer_factory.hpp:77] Creating layer pre_scale
I0821 06:49:43.863308 32299 net.cpp:150] Setting up pre_scale
I0821 06:49:43.863327 32299 net.cpp:157] Top shape: 125 16 32 32 (2048000)
I0821 06:49:43.863337 32299 net.cpp:165] Memory required for data: 26113500
I0821 06:49:43.863349 32299 layer_factory.hpp:77] Creating layer pre_relu
I0821 06:49:43.863400 32299 net.cpp:100] Creating Layer pre_relu
I0821 06:49:43.863410 32299 net.cpp:434] pre_relu <- pre_bn_top
I0821 06:49:43.863422 32299 net.cpp:395] pre_relu -> pre_bn_top (in-place)
I0821 06:49:43.863435 32299 net.cpp:150] Setting up pre_relu
I0821 06:49:43.863442 32299 net.cpp:157] Top shape: 125 16 32 32 (2048000)
I0821 06:49:43.863447 32299 net.cpp:165] Memory required for data: 34305500
I0821 06:49:43.863453 32299 layer_factory.hpp:77] Creating layer pre_bn_top_pre_relu_0_split
I0821 06:49:43.863463 32299 net.cpp:100] Creating Layer pre_bn_top_pre_relu_0_split
I0821 06:49:43.863469 32299 net.cpp:434] pre_bn_top_pre_relu_0_split <- pre_bn_top
I0821 06:49:43.863476 32299 net.cpp:408] pre_bn_top_pre_relu_0_split -> pre_bn_top_pre_relu_0_split_0
I0821 06:49:43.863487 32299 net.cpp:408] pre_bn_top_pre_relu_0_split -> pre_bn_top_pre_relu_0_split_1
I0821 06:49:43.863535 32299 net.cpp:150] Setting up pre_bn_top_pre_relu_0_split
I0821 06:49:43.863548 32299 net.cpp:157] Top shape: 125 16 32 32 (2048000)
I0821 06:49:43.863555 32299 net.cpp:157] Top shape: 125 16 32 32 (2048000)
I0821 06:49:43.863559 32299 net.cpp:165] Memory required for data: 50689500
I0821 06:49:43.863565 32299 layer_factory.hpp:77] Creating layer L1_b1_cbr1_conv
I0821 06:49:43.863582 32299 net.cpp:100] Creating Layer L1_b1_cbr1_conv
I0821 06:49:43.863589 32299 net.cpp:434] L1_b1_cbr1_conv <- pre_bn_top_pre_relu_0_split_0
I0821 06:49:43.863598 32299 net.cpp:408] L1_b1_cbr1_conv -> L1_b1_cbr1_conv_top
I0821 06:49:43.863898 32299 net.cpp:150] Setting up L1_b1_cbr1_conv
I0821 06:49:43.863914 32299 net.cpp:157] Top shape: 125 16 32 32 (2048000)
I0821 06:49:43.863919 32299 net.cpp:165] Memory required for data: 58881500
I0821 06:49:43.863931 32299 layer_factory.hpp:77] Creating layer L1_b1_cbr1_bn
I0821 06:49:43.863946 32299 net.cpp:100] Creating Layer L1_b1_cbr1_bn
I0821 06:49:43.863952 32299 net.cpp:434] L1_b1_cbr1_bn <- L1_b1_cbr1_conv_top
I0821 06:49:43.863965 32299 net.cpp:408] L1_b1_cbr1_bn -> L1_b1_cbr1_bn_top
I0821 06:49:43.864192 32299 net.cpp:150] Setting up L1_b1_cbr1_bn
I0821 06:49:43.864205 32299 net.cpp:157] Top shape: 125 16 32 32 (2048000)
I0821 06:49:43.864210 32299 net.cpp:165] Memory required for data: 67073500
I0821 06:49:43.864222 32299 layer_factory.hpp:77] Creating layer L1_b1_cbr1_scale
I0821 06:49:43.864231 32299 net.cpp:100] Creating Layer L1_b1_cbr1_scale
I0821 06:49:43.864238 32299 net.cpp:434] L1_b1_cbr1_scale <- L1_b1_cbr1_bn_top
I0821 06:49:43.864245 32299 net.cpp:395] L1_b1_cbr1_scale -> L1_b1_cbr1_bn_top (in-place)
I0821 06:49:43.864298 32299 layer_factory.hpp:77] Creating layer L1_b1_cbr1_scale
I0821 06:49:43.864439 32299 net.cpp:150] Setting up L1_b1_cbr1_scale
I0821 06:49:43.864452 32299 net.cpp:157] Top shape: 125 16 32 32 (2048000)
I0821 06:49:43.864457 32299 net.cpp:165] Memory required for data: 75265500
I0821 06:49:43.864467 32299 layer_factory.hpp:77] Creating layer L1_b1_cbr1_relu
I0821 06:49:43.864483 32299 net.cpp:100] Creating Layer L1_b1_cbr1_relu
I0821 06:49:43.864490 32299 net.cpp:434] L1_b1_cbr1_relu <- L1_b1_cbr1_bn_top
I0821 06:49:43.864500 32299 net.cpp:395] L1_b1_cbr1_relu -> L1_b1_cbr1_bn_top (in-place)
I0821 06:49:43.864511 32299 net.cpp:150] Setting up L1_b1_cbr1_relu
I0821 06:49:43.864517 32299 net.cpp:157] Top shape: 125 16 32 32 (2048000)
I0821 06:49:43.864522 32299 net.cpp:165] Memory required for data: 83457500
I0821 06:49:43.864527 32299 layer_factory.hpp:77] Creating layer L1_b1_cbr2_conv
I0821 06:49:43.864542 32299 net.cpp:100] Creating Layer L1_b1_cbr2_conv
I0821 06:49:43.864547 32299 net.cpp:434] L1_b1_cbr2_conv <- L1_b1_cbr1_bn_top
I0821 06:49:43.864560 32299 net.cpp:408] L1_b1_cbr2_conv -> L1_b1_cbr2_conv_top
I0821 06:49:43.864859 32299 net.cpp:150] Setting up L1_b1_cbr2_conv
I0821 06:49:43.864874 32299 net.cpp:157] Top shape: 125 16 32 32 (2048000)
I0821 06:49:43.864879 32299 net.cpp:165] Memory required for data: 91649500
I0821 06:49:43.864888 32299 layer_factory.hpp:77] Creating layer L1_b1_cbr2_bn
I0821 06:49:43.864900 32299 net.cpp:100] Creating Layer L1_b1_cbr2_bn
I0821 06:49:43.864907 32299 net.cpp:434] L1_b1_cbr2_bn <- L1_b1_cbr2_conv_top
I0821 06:49:43.864915 32299 net.cpp:408] L1_b1_cbr2_bn -> L1_b1_cbr2_bn_top
I0821 06:49:43.865149 32299 net.cpp:150] Setting up L1_b1_cbr2_bn
I0821 06:49:43.865161 32299 net.cpp:157] Top shape: 125 16 32 32 (2048000)
I0821 06:49:43.865166 32299 net.cpp:165] Memory required for data: 99841500
I0821 06:49:43.865181 32299 layer_factory.hpp:77] Creating layer L1_b1_cbr2_scale
I0821 06:49:43.865191 32299 net.cpp:100] Creating Layer L1_b1_cbr2_scale
I0821 06:49:43.865196 32299 net.cpp:434] L1_b1_cbr2_scale <- L1_b1_cbr2_bn_top
I0821 06:49:43.865208 32299 net.cpp:395] L1_b1_cbr2_scale -> L1_b1_cbr2_bn_top (in-place)
I0821 06:49:43.865262 32299 layer_factory.hpp:77] Creating layer L1_b1_cbr2_scale
I0821 06:49:43.865406 32299 net.cpp:150] Setting up L1_b1_cbr2_scale
I0821 06:49:43.865418 32299 net.cpp:157] Top shape: 125 16 32 32 (2048000)
I0821 06:49:43.865424 32299 net.cpp:165] Memory required for data: 108033500
I0821 06:49:43.865433 32299 layer_factory.hpp:77] Creating layer L1_b1_sum_eltwise
I0821 06:49:43.865487 32299 net.cpp:100] Creating Layer L1_b1_sum_eltwise
I0821 06:49:43.865496 32299 net.cpp:434] L1_b1_sum_eltwise <- L1_b1_cbr2_bn_top
I0821 06:49:43.865504 32299 net.cpp:434] L1_b1_sum_eltwise <- pre_bn_top_pre_relu_0_split_1
I0821 06:49:43.865514 32299 net.cpp:408] L1_b1_sum_eltwise -> L1_b1_sum_eltwise_top
I0821 06:49:43.865586 32299 net.cpp:150] Setting up L1_b1_sum_eltwise
I0821 06:49:43.865600 32299 net.cpp:157] Top shape: 125 16 32 32 (2048000)
I0821 06:49:43.865605 32299 net.cpp:165] Memory required for data: 116225500
I0821 06:49:43.865612 32299 layer_factory.hpp:77] Creating layer L1_b1_relu
I0821 06:49:43.865620 32299 net.cpp:100] Creating Layer L1_b1_relu
I0821 06:49:43.865625 32299 net.cpp:434] L1_b1_relu <- L1_b1_sum_eltwise_top
I0821 06:49:43.865633 32299 net.cpp:395] L1_b1_relu -> L1_b1_sum_eltwise_top (in-place)
I0821 06:49:43.865643 32299 net.cpp:150] Setting up L1_b1_relu
I0821 06:49:43.865650 32299 net.cpp:157] Top shape: 125 16 32 32 (2048000)
I0821 06:49:43.865655 32299 net.cpp:165] Memory required for data: 124417500
I0821 06:49:43.865659 32299 layer_factory.hpp:77] Creating layer L1_b1_sum_eltwise_top_L1_b1_relu_0_split
I0821 06:49:43.865669 32299 net.cpp:100] Creating Layer L1_b1_sum_eltwise_top_L1_b1_relu_0_split
I0821 06:49:43.865674 32299 net.cpp:434] L1_b1_sum_eltwise_top_L1_b1_relu_0_split <- L1_b1_sum_eltwise_top
I0821 06:49:43.865684 32299 net.cpp:408] L1_b1_sum_eltwise_top_L1_b1_relu_0_split -> L1_b1_sum_eltwise_top_L1_b1_relu_0_split_0
I0821 06:49:43.865694 32299 net.cpp:408] L1_b1_sum_eltwise_top_L1_b1_relu_0_split -> L1_b1_sum_eltwise_top_L1_b1_relu_0_split_1
I0821 06:49:43.865736 32299 net.cpp:150] Setting up L1_b1_sum_eltwise_top_L1_b1_relu_0_split
I0821 06:49:43.865751 32299 net.cpp:157] Top shape: 125 16 32 32 (2048000)
I0821 06:49:43.865757 32299 net.cpp:157] Top shape: 125 16 32 32 (2048000)
I0821 06:49:43.865769 32299 net.cpp:165] Memory required for data: 140801500
I0821 06:49:43.865775 32299 layer_factory.hpp:77] Creating layer L1_b2_cbr1_conv
I0821 06:49:43.865787 32299 net.cpp:100] Creating Layer L1_b2_cbr1_conv
I0821 06:49:43.865792 32299 net.cpp:434] L1_b2_cbr1_conv <- L1_b1_sum_eltwise_top_L1_b1_relu_0_split_0
I0821 06:49:43.865802 32299 net.cpp:408] L1_b2_cbr1_conv -> L1_b2_cbr1_conv_top
I0821 06:49:43.866125 32299 net.cpp:150] Setting up L1_b2_cbr1_conv
I0821 06:49:43.866139 32299 net.cpp:157] Top shape: 125 16 32 32 (2048000)
I0821 06:49:43.866145 32299 net.cpp:165] Memory required for data: 148993500
I0821 06:49:43.866154 32299 layer_factory.hpp:77] Creating layer L1_b2_cbr1_bn
I0821 06:49:43.866168 32299 net.cpp:100] Creating Layer L1_b2_cbr1_bn
I0821 06:49:43.866173 32299 net.cpp:434] L1_b2_cbr1_bn <- L1_b2_cbr1_conv_top
I0821 06:49:43.866183 32299 net.cpp:408] L1_b2_cbr1_bn -> L1_b2_cbr1_bn_top
I0821 06:49:43.866420 32299 net.cpp:150] Setting up L1_b2_cbr1_bn
I0821 06:49:43.866435 32299 net.cpp:157] Top shape: 125 16 32 32 (2048000)
I0821 06:49:43.866439 32299 net.cpp:165] Memory required for data: 157185500
I0821 06:49:43.866451 32299 layer_factory.hpp:77] Creating layer L1_b2_cbr1_scale
I0821 06:49:43.866463 32299 net.cpp:100] Creating Layer L1_b2_cbr1_scale
I0821 06:49:43.866469 32299 net.cpp:434] L1_b2_cbr1_scale <- L1_b2_cbr1_bn_top
I0821 06:49:43.866477 32299 net.cpp:395] L1_b2_cbr1_scale -> L1_b2_cbr1_bn_top (in-place)
I0821 06:49:43.866528 32299 layer_factory.hpp:77] Creating layer L1_b2_cbr1_scale
I0821 06:49:43.866664 32299 net.cpp:150] Setting up L1_b2_cbr1_scale
I0821 06:49:43.866677 32299 net.cpp:157] Top shape: 125 16 32 32 (2048000)
I0821 06:49:43.866683 32299 net.cpp:165] Memory required for data: 165377500
I0821 06:49:43.866691 32299 layer_factory.hpp:77] Creating layer L1_b2_cbr1_relu
I0821 06:49:43.866699 32299 net.cpp:100] Creating Layer L1_b2_cbr1_relu
I0821 06:49:43.866705 32299 net.cpp:434] L1_b2_cbr1_relu <- L1_b2_cbr1_bn_top
I0821 06:49:43.866716 32299 net.cpp:395] L1_b2_cbr1_relu -> L1_b2_cbr1_bn_top (in-place)
I0821 06:49:43.866726 32299 net.cpp:150] Setting up L1_b2_cbr1_relu
I0821 06:49:43.866734 32299 net.cpp:157] Top shape: 125 16 32 32 (2048000)
I0821 06:49:43.866739 32299 net.cpp:165] Memory required for data: 173569500
I0821 06:49:43.866744 32299 layer_factory.hpp:77] Creating layer L1_b2_cbr2_conv
I0821 06:49:43.866757 32299 net.cpp:100] Creating Layer L1_b2_cbr2_conv
I0821 06:49:43.866763 32299 net.cpp:434] L1_b2_cbr2_conv <- L1_b2_cbr1_bn_top
I0821 06:49:43.866771 32299 net.cpp:408] L1_b2_cbr2_conv -> L1_b2_cbr2_conv_top
I0821 06:49:43.867079 32299 net.cpp:150] Setting up L1_b2_cbr2_conv
I0821 06:49:43.867092 32299 net.cpp:157] Top shape: 125 16 32 32 (2048000)
I0821 06:49:43.867097 32299 net.cpp:165] Memory required for data: 181761500
I0821 06:49:43.867106 32299 layer_factory.hpp:77] Creating layer L1_b2_cbr2_bn
I0821 06:49:43.867120 32299 net.cpp:100] Creating Layer L1_b2_cbr2_bn
I0821 06:49:43.867125 32299 net.cpp:434] L1_b2_cbr2_bn <- L1_b2_cbr2_conv_top
I0821 06:49:43.867133 32299 net.cpp:408] L1_b2_cbr2_bn -> L1_b2_cbr2_bn_top
I0821 06:49:43.867372 32299 net.cpp:150] Setting up L1_b2_cbr2_bn
I0821 06:49:43.867385 32299 net.cpp:157] Top shape: 125 16 32 32 (2048000)
I0821 06:49:43.867390 32299 net.cpp:165] Memory required for data: 189953500
I0821 06:49:43.867410 32299 layer_factory.hpp:77] Creating layer L1_b2_cbr2_scale
I0821 06:49:43.867420 32299 net.cpp:100] Creating Layer L1_b2_cbr2_scale
I0821 06:49:43.867426 32299 net.cpp:434] L1_b2_cbr2_scale <- L1_b2_cbr2_bn_top
I0821 06:49:43.867436 32299 net.cpp:395] L1_b2_cbr2_scale -> L1_b2_cbr2_bn_top (in-place)
I0821 06:49:43.867489 32299 layer_factory.hpp:77] Creating layer L1_b2_cbr2_scale
I0821 06:49:43.867626 32299 net.cpp:150] Setting up L1_b2_cbr2_scale
I0821 06:49:43.867640 32299 net.cpp:157] Top shape: 125 16 32 32 (2048000)
I0821 06:49:43.867645 32299 net.cpp:165] Memory required for data: 198145500
I0821 06:49:43.867655 32299 layer_factory.hpp:77] Creating layer L1_b2_sum_eltwise
I0821 06:49:43.867673 32299 net.cpp:100] Creating Layer L1_b2_sum_eltwise
I0821 06:49:43.867679 32299 net.cpp:434] L1_b2_sum_eltwise <- L1_b2_cbr2_bn_top
I0821 06:49:43.867687 32299 net.cpp:434] L1_b2_sum_eltwise <- L1_b1_sum_eltwise_top_L1_b1_relu_0_split_1
I0821 06:49:43.867696 32299 net.cpp:408] L1_b2_sum_eltwise -> L1_b2_sum_eltwise_top
I0821 06:49:43.867728 32299 net.cpp:150] Setting up L1_b2_sum_eltwise
I0821 06:49:43.867741 32299 net.cpp:157] Top shape: 125 16 32 32 (2048000)
I0821 06:49:43.867745 32299 net.cpp:165] Memory required for data: 206337500
I0821 06:49:43.867751 32299 layer_factory.hpp:77] Creating layer L1_b2_relu
I0821 06:49:43.867759 32299 net.cpp:100] Creating Layer L1_b2_relu
I0821 06:49:43.867764 32299 net.cpp:434] L1_b2_relu <- L1_b2_sum_eltwise_top
I0821 06:49:43.867774 32299 net.cpp:395] L1_b2_relu -> L1_b2_sum_eltwise_top (in-place)
I0821 06:49:43.867784 32299 net.cpp:150] Setting up L1_b2_relu
I0821 06:49:43.867791 32299 net.cpp:157] Top shape: 125 16 32 32 (2048000)
I0821 06:49:43.867796 32299 net.cpp:165] Memory required for data: 214529500
I0821 06:49:43.867801 32299 layer_factory.hpp:77] Creating layer L1_b2_sum_eltwise_top_L1_b2_relu_0_split
I0821 06:49:43.867808 32299 net.cpp:100] Creating Layer L1_b2_sum_eltwise_top_L1_b2_relu_0_split
I0821 06:49:43.867813 32299 net.cpp:434] L1_b2_sum_eltwise_top_L1_b2_relu_0_split <- L1_b2_sum_eltwise_top
I0821 06:49:43.867821 32299 net.cpp:408] L1_b2_sum_eltwise_top_L1_b2_relu_0_split -> L1_b2_sum_eltwise_top_L1_b2_relu_0_split_0
I0821 06:49:43.867831 32299 net.cpp:408] L1_b2_sum_eltwise_top_L1_b2_relu_0_split -> L1_b2_sum_eltwise_top_L1_b2_relu_0_split_1
I0821 06:49:43.867875 32299 net.cpp:150] Setting up L1_b2_sum_eltwise_top_L1_b2_relu_0_split
I0821 06:49:43.867887 32299 net.cpp:157] Top shape: 125 16 32 32 (2048000)
I0821 06:49:43.867894 32299 net.cpp:157] Top shape: 125 16 32 32 (2048000)
I0821 06:49:43.867898 32299 net.cpp:165] Memory required for data: 230913500
I0821 06:49:43.867903 32299 layer_factory.hpp:77] Creating layer L1_b3_cbr1_conv
I0821 06:49:43.867918 32299 net.cpp:100] Creating Layer L1_b3_cbr1_conv
I0821 06:49:43.867924 32299 net.cpp:434] L1_b3_cbr1_conv <- L1_b2_sum_eltwise_top_L1_b2_relu_0_split_0
I0821 06:49:43.867933 32299 net.cpp:408] L1_b3_cbr1_conv -> L1_b3_cbr1_conv_top
I0821 06:49:43.868232 32299 net.cpp:150] Setting up L1_b3_cbr1_conv
I0821 06:49:43.868245 32299 net.cpp:157] Top shape: 125 16 32 32 (2048000)
I0821 06:49:43.868250 32299 net.cpp:165] Memory required for data: 239105500
I0821 06:49:43.868259 32299 layer_factory.hpp:77] Creating layer L1_b3_cbr1_bn
I0821 06:49:43.868269 32299 net.cpp:100] Creating Layer L1_b3_cbr1_bn
I0821 06:49:43.868275 32299 net.cpp:434] L1_b3_cbr1_bn <- L1_b3_cbr1_conv_top
I0821 06:49:43.868286 32299 net.cpp:408] L1_b3_cbr1_bn -> L1_b3_cbr1_bn_top
I0821 06:49:43.868528 32299 net.cpp:150] Setting up L1_b3_cbr1_bn
I0821 06:49:43.868544 32299 net.cpp:157] Top shape: 125 16 32 32 (2048000)
I0821 06:49:43.868551 32299 net.cpp:165] Memory required for data: 247297500
I0821 06:49:43.868561 32299 layer_factory.hpp:77] Creating layer L1_b3_cbr1_scale
I0821 06:49:43.868569 32299 net.cpp:100] Creating Layer L1_b3_cbr1_scale
I0821 06:49:43.868577 32299 net.cpp:434] L1_b3_cbr1_scale <- L1_b3_cbr1_bn_top
I0821 06:49:43.868584 32299 net.cpp:395] L1_b3_cbr1_scale -> L1_b3_cbr1_bn_top (in-place)
I0821 06:49:43.868635 32299 layer_factory.hpp:77] Creating layer L1_b3_cbr1_scale
I0821 06:49:43.868777 32299 net.cpp:150] Setting up L1_b3_cbr1_scale
I0821 06:49:43.868789 32299 net.cpp:157] Top shape: 125 16 32 32 (2048000)
I0821 06:49:43.868794 32299 net.cpp:165] Memory required for data: 255489500
I0821 06:49:43.868803 32299 layer_factory.hpp:77] Creating layer L1_b3_cbr1_relu
I0821 06:49:43.868815 32299 net.cpp:100] Creating Layer L1_b3_cbr1_relu
I0821 06:49:43.868821 32299 net.cpp:434] L1_b3_cbr1_relu <- L1_b3_cbr1_bn_top
I0821 06:49:43.868829 32299 net.cpp:395] L1_b3_cbr1_relu -> L1_b3_cbr1_bn_top (in-place)
I0821 06:49:43.868839 32299 net.cpp:150] Setting up L1_b3_cbr1_relu
I0821 06:49:43.868856 32299 net.cpp:157] Top shape: 125 16 32 32 (2048000)
I0821 06:49:43.868861 32299 net.cpp:165] Memory required for data: 263681500
I0821 06:49:43.868865 32299 layer_factory.hpp:77] Creating layer L1_b3_cbr2_conv
I0821 06:49:43.868877 32299 net.cpp:100] Creating Layer L1_b3_cbr2_conv
I0821 06:49:43.868883 32299 net.cpp:434] L1_b3_cbr2_conv <- L1_b3_cbr1_bn_top
I0821 06:49:43.868894 32299 net.cpp:408] L1_b3_cbr2_conv -> L1_b3_cbr2_conv_top
I0821 06:49:43.869199 32299 net.cpp:150] Setting up L1_b3_cbr2_conv
I0821 06:49:43.869212 32299 net.cpp:157] Top shape: 125 16 32 32 (2048000)
I0821 06:49:43.869217 32299 net.cpp:165] Memory required for data: 271873500
I0821 06:49:43.869226 32299 layer_factory.hpp:77] Creating layer L1_b3_cbr2_bn
I0821 06:49:43.869242 32299 net.cpp:100] Creating Layer L1_b3_cbr2_bn
I0821 06:49:43.869248 32299 net.cpp:434] L1_b3_cbr2_bn <- L1_b3_cbr2_conv_top
I0821 06:49:43.869257 32299 net.cpp:408] L1_b3_cbr2_bn -> L1_b3_cbr2_bn_top
I0821 06:49:43.869496 32299 net.cpp:150] Setting up L1_b3_cbr2_bn
I0821 06:49:43.869513 32299 net.cpp:157] Top shape: 125 16 32 32 (2048000)
I0821 06:49:43.869518 32299 net.cpp:165] Memory required for data: 280065500
I0821 06:49:43.869529 32299 layer_factory.hpp:77] Creating layer L1_b3_cbr2_scale
I0821 06:49:43.869539 32299 net.cpp:100] Creating Layer L1_b3_cbr2_scale
I0821 06:49:43.869544 32299 net.cpp:434] L1_b3_cbr2_scale <- L1_b3_cbr2_bn_top
I0821 06:49:43.869552 32299 net.cpp:395] L1_b3_cbr2_scale -> L1_b3_cbr2_bn_top (in-place)
I0821 06:49:43.869603 32299 layer_factory.hpp:77] Creating layer L1_b3_cbr2_scale
I0821 06:49:43.869740 32299 net.cpp:150] Setting up L1_b3_cbr2_scale
I0821 06:49:43.869753 32299 net.cpp:157] Top shape: 125 16 32 32 (2048000)
I0821 06:49:43.869758 32299 net.cpp:165] Memory required for data: 288257500
I0821 06:49:43.869768 32299 layer_factory.hpp:77] Creating layer L1_b3_sum_eltwise
I0821 06:49:43.869781 32299 net.cpp:100] Creating Layer L1_b3_sum_eltwise
I0821 06:49:43.869786 32299 net.cpp:434] L1_b3_sum_eltwise <- L1_b3_cbr2_bn_top
I0821 06:49:43.869794 32299 net.cpp:434] L1_b3_sum_eltwise <- L1_b2_sum_eltwise_top_L1_b2_relu_0_split_1
I0821 06:49:43.869804 32299 net.cpp:408] L1_b3_sum_eltwise -> L1_b3_sum_eltwise_top
I0821 06:49:43.869835 32299 net.cpp:150] Setting up L1_b3_sum_eltwise
I0821 06:49:43.869844 32299 net.cpp:157] Top shape: 125 16 32 32 (2048000)
I0821 06:49:43.869849 32299 net.cpp:165] Memory required for data: 296449500
I0821 06:49:43.869854 32299 layer_factory.hpp:77] Creating layer L1_b3_relu
I0821 06:49:43.869865 32299 net.cpp:100] Creating Layer L1_b3_relu
I0821 06:49:43.869871 32299 net.cpp:434] L1_b3_relu <- L1_b3_sum_eltwise_top
I0821 06:49:43.869879 32299 net.cpp:395] L1_b3_relu -> L1_b3_sum_eltwise_top (in-place)
I0821 06:49:43.869889 32299 net.cpp:150] Setting up L1_b3_relu
I0821 06:49:43.869895 32299 net.cpp:157] Top shape: 125 16 32 32 (2048000)
I0821 06:49:43.869899 32299 net.cpp:165] Memory required for data: 304641500
I0821 06:49:43.869904 32299 layer_factory.hpp:77] Creating layer L1_b3_sum_eltwise_top_L1_b3_relu_0_split
I0821 06:49:43.869911 32299 net.cpp:100] Creating Layer L1_b3_sum_eltwise_top_L1_b3_relu_0_split
I0821 06:49:43.869916 32299 net.cpp:434] L1_b3_sum_eltwise_top_L1_b3_relu_0_split <- L1_b3_sum_eltwise_top
I0821 06:49:43.869925 32299 net.cpp:408] L1_b3_sum_eltwise_top_L1_b3_relu_0_split -> L1_b3_sum_eltwise_top_L1_b3_relu_0_split_0
I0821 06:49:43.870093 32299 net.cpp:408] L1_b3_sum_eltwise_top_L1_b3_relu_0_split -> L1_b3_sum_eltwise_top_L1_b3_relu_0_split_1
I0821 06:49:43.870149 32299 net.cpp:150] Setting up L1_b3_sum_eltwise_top_L1_b3_relu_0_split
I0821 06:49:43.870162 32299 net.cpp:157] Top shape: 125 16 32 32 (2048000)
I0821 06:49:43.870168 32299 net.cpp:157] Top shape: 125 16 32 32 (2048000)
I0821 06:49:43.870173 32299 net.cpp:165] Memory required for data: 321025500
I0821 06:49:43.870179 32299 layer_factory.hpp:77] Creating layer L1_b4_cbr1_conv
I0821 06:49:43.870193 32299 net.cpp:100] Creating Layer L1_b4_cbr1_conv
I0821 06:49:43.870199 32299 net.cpp:434] L1_b4_cbr1_conv <- L1_b3_sum_eltwise_top_L1_b3_relu_0_split_0
I0821 06:49:43.870215 32299 net.cpp:408] L1_b4_cbr1_conv -> L1_b4_cbr1_conv_top
I0821 06:49:43.870535 32299 net.cpp:150] Setting up L1_b4_cbr1_conv
I0821 06:49:43.870550 32299 net.cpp:157] Top shape: 125 16 32 32 (2048000)
I0821 06:49:43.870555 32299 net.cpp:165] Memory required for data: 329217500
I0821 06:49:43.870565 32299 layer_factory.hpp:77] Creating layer L1_b4_cbr1_bn
I0821 06:49:43.870579 32299 net.cpp:100] Creating Layer L1_b4_cbr1_bn
I0821 06:49:43.870586 32299 net.cpp:434] L1_b4_cbr1_bn <- L1_b4_cbr1_conv_top
I0821 06:49:43.870595 32299 net.cpp:408] L1_b4_cbr1_bn -> L1_b4_cbr1_bn_top
I0821 06:49:43.870831 32299 net.cpp:150] Setting up L1_b4_cbr1_bn
I0821 06:49:43.870846 32299 net.cpp:157] Top shape: 125 16 32 32 (2048000)
I0821 06:49:43.870849 32299 net.cpp:165] Memory required for data: 337409500
I0821 06:49:43.870860 32299 layer_factory.hpp:77] Creating layer L1_b4_cbr1_scale
I0821 06:49:43.870870 32299 net.cpp:100] Creating Layer L1_b4_cbr1_scale
I0821 06:49:43.870877 32299 net.cpp:434] L1_b4_cbr1_scale <- L1_b4_cbr1_bn_top
I0821 06:49:43.870883 32299 net.cpp:395] L1_b4_cbr1_scale -> L1_b4_cbr1_bn_top (in-place)
I0821 06:49:43.870939 32299 layer_factory.hpp:77] Creating layer L1_b4_cbr1_scale
I0821 06:49:43.871076 32299 net.cpp:150] Setting up L1_b4_cbr1_scale
I0821 06:49:43.871089 32299 net.cpp:157] Top shape: 125 16 32 32 (2048000)
I0821 06:49:43.871094 32299 net.cpp:165] Memory required for data: 345601500
I0821 06:49:43.871104 32299 layer_factory.hpp:77] Creating layer L1_b4_cbr1_relu
I0821 06:49:43.871111 32299 net.cpp:100] Creating Layer L1_b4_cbr1_relu
I0821 06:49:43.871117 32299 net.cpp:434] L1_b4_cbr1_relu <- L1_b4_cbr1_bn_top
I0821 06:49:43.871129 32299 net.cpp:395] L1_b4_cbr1_relu -> L1_b4_cbr1_bn_top (in-place)
I0821 06:49:43.871139 32299 net.cpp:150] Setting up L1_b4_cbr1_relu
I0821 06:49:43.871145 32299 net.cpp:157] Top shape: 125 16 32 32 (2048000)
I0821 06:49:43.871150 32299 net.cpp:165] Memory required for data: 353793500
I0821 06:49:43.871155 32299 layer_factory.hpp:77] Creating layer L1_b4_cbr2_conv
I0821 06:49:43.871166 32299 net.cpp:100] Creating Layer L1_b4_cbr2_conv
I0821 06:49:43.871172 32299 net.cpp:434] L1_b4_cbr2_conv <- L1_b4_cbr1_bn_top
I0821 06:49:43.871183 32299 net.cpp:408] L1_b4_cbr2_conv -> L1_b4_cbr2_conv_top
I0821 06:49:43.871500 32299 net.cpp:150] Setting up L1_b4_cbr2_conv
I0821 06:49:43.871515 32299 net.cpp:157] Top shape: 125 16 32 32 (2048000)
I0821 06:49:43.871520 32299 net.cpp:165] Memory required for data: 361985500
I0821 06:49:43.871529 32299 layer_factory.hpp:77] Creating layer L1_b4_cbr2_bn
I0821 06:49:43.871538 32299 net.cpp:100] Creating Layer L1_b4_cbr2_bn
I0821 06:49:43.871544 32299 net.cpp:434] L1_b4_cbr2_bn <- L1_b4_cbr2_conv_top
I0821 06:49:43.871559 32299 net.cpp:408] L1_b4_cbr2_bn -> L1_b4_cbr2_bn_top
I0821 06:49:43.871798 32299 net.cpp:150] Setting up L1_b4_cbr2_bn
I0821 06:49:43.871811 32299 net.cpp:157] Top shape: 125 16 32 32 (2048000)
I0821 06:49:43.871816 32299 net.cpp:165] Memory required for data: 370177500
I0821 06:49:43.871827 32299 layer_factory.hpp:77] Creating layer L1_b4_cbr2_scale
I0821 06:49:43.871836 32299 net.cpp:100] Creating Layer L1_b4_cbr2_scale
I0821 06:49:43.871842 32299 net.cpp:434] L1_b4_cbr2_scale <- L1_b4_cbr2_bn_top
I0821 06:49:43.871850 32299 net.cpp:395] L1_b4_cbr2_scale -> L1_b4_cbr2_bn_top (in-place)
I0821 06:49:43.871904 32299 layer_factory.hpp:77] Creating layer L1_b4_cbr2_scale
I0821 06:49:43.872040 32299 net.cpp:150] Setting up L1_b4_cbr2_scale
I0821 06:49:43.872053 32299 net.cpp:157] Top shape: 125 16 32 32 (2048000)
I0821 06:49:43.872058 32299 net.cpp:165] Memory required for data: 378369500
I0821 06:49:43.872067 32299 layer_factory.hpp:77] Creating layer L1_b4_sum_eltwise
I0821 06:49:43.872076 32299 net.cpp:100] Creating Layer L1_b4_sum_eltwise
I0821 06:49:43.872082 32299 net.cpp:434] L1_b4_sum_eltwise <- L1_b4_cbr2_bn_top
I0821 06:49:43.872090 32299 net.cpp:434] L1_b4_sum_eltwise <- L1_b3_sum_eltwise_top_L1_b3_relu_0_split_1
I0821 06:49:43.872102 32299 net.cpp:408] L1_b4_sum_eltwise -> L1_b4_sum_eltwise_top
I0821 06:49:43.872139 32299 net.cpp:150] Setting up L1_b4_sum_eltwise
I0821 06:49:43.872149 32299 net.cpp:157] Top shape: 125 16 32 32 (2048000)
I0821 06:49:43.872154 32299 net.cpp:165] Memory required for data: 386561500
I0821 06:49:43.872159 32299 layer_factory.hpp:77] Creating layer L1_b4_relu
I0821 06:49:43.872172 32299 net.cpp:100] Creating Layer L1_b4_relu
I0821 06:49:43.872179 32299 net.cpp:434] L1_b4_relu <- L1_b4_sum_eltwise_top
I0821 06:49:43.872185 32299 net.cpp:395] L1_b4_relu -> L1_b4_sum_eltwise_top (in-place)
I0821 06:49:43.872195 32299 net.cpp:150] Setting up L1_b4_relu
I0821 06:49:43.872202 32299 net.cpp:157] Top shape: 125 16 32 32 (2048000)
I0821 06:49:43.872207 32299 net.cpp:165] Memory required for data: 394753500
I0821 06:49:43.872212 32299 layer_factory.hpp:77] Creating layer L1_b4_sum_eltwise_top_L1_b4_relu_0_split
I0821 06:49:43.872220 32299 net.cpp:100] Creating Layer L1_b4_sum_eltwise_top_L1_b4_relu_0_split
I0821 06:49:43.872225 32299 net.cpp:434] L1_b4_sum_eltwise_top_L1_b4_relu_0_split <- L1_b4_sum_eltwise_top
I0821 06:49:43.872232 32299 net.cpp:408] L1_b4_sum_eltwise_top_L1_b4_relu_0_split -> L1_b4_sum_eltwise_top_L1_b4_relu_0_split_0
I0821 06:49:43.872242 32299 net.cpp:408] L1_b4_sum_eltwise_top_L1_b4_relu_0_split -> L1_b4_sum_eltwise_top_L1_b4_relu_0_split_1
I0821 06:49:43.872287 32299 net.cpp:150] Setting up L1_b4_sum_eltwise_top_L1_b4_relu_0_split
I0821 06:49:43.872298 32299 net.cpp:157] Top shape: 125 16 32 32 (2048000)
I0821 06:49:43.872305 32299 net.cpp:157] Top shape: 125 16 32 32 (2048000)
I0821 06:49:43.872309 32299 net.cpp:165] Memory required for data: 411137500
I0821 06:49:43.872314 32299 layer_factory.hpp:77] Creating layer L1_b5_cbr1_conv
I0821 06:49:43.872334 32299 net.cpp:100] Creating Layer L1_b5_cbr1_conv
I0821 06:49:43.872341 32299 net.cpp:434] L1_b5_cbr1_conv <- L1_b4_sum_eltwise_top_L1_b4_relu_0_split_0
I0821 06:49:43.872351 32299 net.cpp:408] L1_b5_cbr1_conv -> L1_b5_cbr1_conv_top
I0821 06:49:43.872660 32299 net.cpp:150] Setting up L1_b5_cbr1_conv
I0821 06:49:43.872674 32299 net.cpp:157] Top shape: 125 16 32 32 (2048000)
I0821 06:49:43.872679 32299 net.cpp:165] Memory required for data: 419329500
I0821 06:49:43.872702 32299 layer_factory.hpp:77] Creating layer L1_b5_cbr1_bn
I0821 06:49:43.872714 32299 net.cpp:100] Creating Layer L1_b5_cbr1_bn
I0821 06:49:43.872721 32299 net.cpp:434] L1_b5_cbr1_bn <- L1_b5_cbr1_conv_top
I0821 06:49:43.872732 32299 net.cpp:408] L1_b5_cbr1_bn -> L1_b5_cbr1_bn_top
I0821 06:49:43.872972 32299 net.cpp:150] Setting up L1_b5_cbr1_bn
I0821 06:49:43.872985 32299 net.cpp:157] Top shape: 125 16 32 32 (2048000)
I0821 06:49:43.872990 32299 net.cpp:165] Memory required for data: 427521500
I0821 06:49:43.873001 32299 layer_factory.hpp:77] Creating layer L1_b5_cbr1_scale
I0821 06:49:43.873010 32299 net.cpp:100] Creating Layer L1_b5_cbr1_scale
I0821 06:49:43.873016 32299 net.cpp:434] L1_b5_cbr1_scale <- L1_b5_cbr1_bn_top
I0821 06:49:43.873024 32299 net.cpp:395] L1_b5_cbr1_scale -> L1_b5_cbr1_bn_top (in-place)
I0821 06:49:43.873080 32299 layer_factory.hpp:77] Creating layer L1_b5_cbr1_scale
I0821 06:49:43.873217 32299 net.cpp:150] Setting up L1_b5_cbr1_scale
I0821 06:49:43.873230 32299 net.cpp:157] Top shape: 125 16 32 32 (2048000)
I0821 06:49:43.873235 32299 net.cpp:165] Memory required for data: 435713500
I0821 06:49:43.873245 32299 layer_factory.hpp:77] Creating layer L1_b5_cbr1_relu
I0821 06:49:43.873252 32299 net.cpp:100] Creating Layer L1_b5_cbr1_relu
I0821 06:49:43.873258 32299 net.cpp:434] L1_b5_cbr1_relu <- L1_b5_cbr1_bn_top
I0821 06:49:43.873270 32299 net.cpp:395] L1_b5_cbr1_relu -> L1_b5_cbr1_bn_top (in-place)
I0821 06:49:43.873280 32299 net.cpp:150] Setting up L1_b5_cbr1_relu
I0821 06:49:43.873286 32299 net.cpp:157] Top shape: 125 16 32 32 (2048000)
I0821 06:49:43.873291 32299 net.cpp:165] Memory required for data: 443905500
I0821 06:49:43.873296 32299 layer_factory.hpp:77] Creating layer L1_b5_cbr2_conv
I0821 06:49:43.873309 32299 net.cpp:100] Creating Layer L1_b5_cbr2_conv
I0821 06:49:43.873316 32299 net.cpp:434] L1_b5_cbr2_conv <- L1_b5_cbr1_bn_top
I0821 06:49:43.873337 32299 net.cpp:408] L1_b5_cbr2_conv -> L1_b5_cbr2_conv_top
I0821 06:49:43.873652 32299 net.cpp:150] Setting up L1_b5_cbr2_conv
I0821 06:49:43.873667 32299 net.cpp:157] Top shape: 125 16 32 32 (2048000)
I0821 06:49:43.873672 32299 net.cpp:165] Memory required for data: 452097500
I0821 06:49:43.873682 32299 layer_factory.hpp:77] Creating layer L1_b5_cbr2_bn
I0821 06:49:43.873695 32299 net.cpp:100] Creating Layer L1_b5_cbr2_bn
I0821 06:49:43.873703 32299 net.cpp:434] L1_b5_cbr2_bn <- L1_b5_cbr2_conv_top
I0821 06:49:43.873711 32299 net.cpp:408] L1_b5_cbr2_bn -> L1_b5_cbr2_bn_top
I0821 06:49:43.873946 32299 net.cpp:150] Setting up L1_b5_cbr2_bn
I0821 06:49:43.873961 32299 net.cpp:157] Top shape: 125 16 32 32 (2048000)
I0821 06:49:43.873966 32299 net.cpp:165] Memory required for data: 460289500
I0821 06:49:43.873977 32299 layer_factory.hpp:77] Creating layer L1_b5_cbr2_scale
I0821 06:49:43.873987 32299 net.cpp:100] Creating Layer L1_b5_cbr2_scale
I0821 06:49:43.873993 32299 net.cpp:434] L1_b5_cbr2_scale <- L1_b5_cbr2_bn_top
I0821 06:49:43.874001 32299 net.cpp:395] L1_b5_cbr2_scale -> L1_b5_cbr2_bn_top (in-place)
I0821 06:49:43.874053 32299 layer_factory.hpp:77] Creating layer L1_b5_cbr2_scale
I0821 06:49:43.874191 32299 net.cpp:150] Setting up L1_b5_cbr2_scale
I0821 06:49:43.874203 32299 net.cpp:157] Top shape: 125 16 32 32 (2048000)
I0821 06:49:43.874208 32299 net.cpp:165] Memory required for data: 468481500
I0821 06:49:43.874218 32299 layer_factory.hpp:77] Creating layer L1_b5_sum_eltwise
I0821 06:49:43.874233 32299 net.cpp:100] Creating Layer L1_b5_sum_eltwise
I0821 06:49:43.874239 32299 net.cpp:434] L1_b5_sum_eltwise <- L1_b5_cbr2_bn_top
I0821 06:49:43.874246 32299 net.cpp:434] L1_b5_sum_eltwise <- L1_b4_sum_eltwise_top_L1_b4_relu_0_split_1
I0821 06:49:43.874258 32299 net.cpp:408] L1_b5_sum_eltwise -> L1_b5_sum_eltwise_top
I0821 06:49:43.874287 32299 net.cpp:150] Setting up L1_b5_sum_eltwise
I0821 06:49:43.874300 32299 net.cpp:157] Top shape: 125 16 32 32 (2048000)
I0821 06:49:43.874305 32299 net.cpp:165] Memory required for data: 476673500
I0821 06:49:43.874310 32299 layer_factory.hpp:77] Creating layer L1_b5_relu
I0821 06:49:43.874320 32299 net.cpp:100] Creating Layer L1_b5_relu
I0821 06:49:43.874326 32299 net.cpp:434] L1_b5_relu <- L1_b5_sum_eltwise_top
I0821 06:49:43.874341 32299 net.cpp:395] L1_b5_relu -> L1_b5_sum_eltwise_top (in-place)
I0821 06:49:43.874351 32299 net.cpp:150] Setting up L1_b5_relu
I0821 06:49:43.874357 32299 net.cpp:157] Top shape: 125 16 32 32 (2048000)
I0821 06:49:43.874362 32299 net.cpp:165] Memory required for data: 484865500
I0821 06:49:43.874367 32299 layer_factory.hpp:77] Creating layer L1_b5_sum_eltwise_top_L1_b5_relu_0_split
I0821 06:49:43.874374 32299 net.cpp:100] Creating Layer L1_b5_sum_eltwise_top_L1_b5_relu_0_split
I0821 06:49:43.874379 32299 net.cpp:434] L1_b5_sum_eltwise_top_L1_b5_relu_0_split <- L1_b5_sum_eltwise_top
I0821 06:49:43.874387 32299 net.cpp:408] L1_b5_sum_eltwise_top_L1_b5_relu_0_split -> L1_b5_sum_eltwise_top_L1_b5_relu_0_split_0
I0821 06:49:43.874397 32299 net.cpp:408] L1_b5_sum_eltwise_top_L1_b5_relu_0_split -> L1_b5_sum_eltwise_top_L1_b5_relu_0_split_1
I0821 06:49:43.874444 32299 net.cpp:150] Setting up L1_b5_sum_eltwise_top_L1_b5_relu_0_split
I0821 06:49:43.874455 32299 net.cpp:157] Top shape: 125 16 32 32 (2048000)
I0821 06:49:43.874461 32299 net.cpp:157] Top shape: 125 16 32 32 (2048000)
I0821 06:49:43.874466 32299 net.cpp:165] Memory required for data: 501249500
I0821 06:49:43.874471 32299 layer_factory.hpp:77] Creating layer L1_b6_cbr1_conv
I0821 06:49:43.874485 32299 net.cpp:100] Creating Layer L1_b6_cbr1_conv
I0821 06:49:43.874491 32299 net.cpp:434] L1_b6_cbr1_conv <- L1_b5_sum_eltwise_top_L1_b5_relu_0_split_0
I0821 06:49:43.874501 32299 net.cpp:408] L1_b6_cbr1_conv -> L1_b6_cbr1_conv_top
I0821 06:49:43.874806 32299 net.cpp:150] Setting up L1_b6_cbr1_conv
I0821 06:49:43.874819 32299 net.cpp:157] Top shape: 125 16 32 32 (2048000)
I0821 06:49:43.874825 32299 net.cpp:165] Memory required for data: 509441500
I0821 06:49:43.874840 32299 layer_factory.hpp:77] Creating layer L1_b6_cbr1_bn
I0821 06:49:43.874853 32299 net.cpp:100] Creating Layer L1_b6_cbr1_bn
I0821 06:49:43.874861 32299 net.cpp:434] L1_b6_cbr1_bn <- L1_b6_cbr1_conv_top
I0821 06:49:43.874868 32299 net.cpp:408] L1_b6_cbr1_bn -> L1_b6_cbr1_bn_top
I0821 06:49:43.875108 32299 net.cpp:150] Setting up L1_b6_cbr1_bn
I0821 06:49:43.875120 32299 net.cpp:157] Top shape: 125 16 32 32 (2048000)
I0821 06:49:43.875125 32299 net.cpp:165] Memory required for data: 517633500
I0821 06:49:43.875135 32299 layer_factory.hpp:77] Creating layer L1_b6_cbr1_scale
I0821 06:49:43.875144 32299 net.cpp:100] Creating Layer L1_b6_cbr1_scale
I0821 06:49:43.875150 32299 net.cpp:434] L1_b6_cbr1_scale <- L1_b6_cbr1_bn_top
I0821 06:49:43.875159 32299 net.cpp:395] L1_b6_cbr1_scale -> L1_b6_cbr1_bn_top (in-place)
I0821 06:49:43.875212 32299 layer_factory.hpp:77] Creating layer L1_b6_cbr1_scale
I0821 06:49:43.875363 32299 net.cpp:150] Setting up L1_b6_cbr1_scale
I0821 06:49:43.875377 32299 net.cpp:157] Top shape: 125 16 32 32 (2048000)
I0821 06:49:43.875382 32299 net.cpp:165] Memory required for data: 525825500
I0821 06:49:43.875391 32299 layer_factory.hpp:77] Creating layer L1_b6_cbr1_relu
I0821 06:49:43.875401 32299 net.cpp:100] Creating Layer L1_b6_cbr1_relu
I0821 06:49:43.875406 32299 net.cpp:434] L1_b6_cbr1_relu <- L1_b6_cbr1_bn_top
I0821 06:49:43.875416 32299 net.cpp:395] L1_b6_cbr1_relu -> L1_b6_cbr1_bn_top (in-place)
I0821 06:49:43.875427 32299 net.cpp:150] Setting up L1_b6_cbr1_relu
I0821 06:49:43.875434 32299 net.cpp:157] Top shape: 125 16 32 32 (2048000)
I0821 06:49:43.875438 32299 net.cpp:165] Memory required for data: 534017500
I0821 06:49:43.875443 32299 layer_factory.hpp:77] Creating layer L1_b6_cbr2_conv
I0821 06:49:43.875454 32299 net.cpp:100] Creating Layer L1_b6_cbr2_conv
I0821 06:49:43.875459 32299 net.cpp:434] L1_b6_cbr2_conv <- L1_b6_cbr1_bn_top
I0821 06:49:43.875471 32299 net.cpp:408] L1_b6_cbr2_conv -> L1_b6_cbr2_conv_top
I0821 06:49:43.875782 32299 net.cpp:150] Setting up L1_b6_cbr2_conv
I0821 06:49:43.875797 32299 net.cpp:157] Top shape: 125 16 32 32 (2048000)
I0821 06:49:43.875802 32299 net.cpp:165] Memory required for data: 542209500
I0821 06:49:43.875810 32299 layer_factory.hpp:77] Creating layer L1_b6_cbr2_bn
I0821 06:49:43.875820 32299 net.cpp:100] Creating Layer L1_b6_cbr2_bn
I0821 06:49:43.875826 32299 net.cpp:434] L1_b6_cbr2_bn <- L1_b6_cbr2_conv_top
I0821 06:49:43.875838 32299 net.cpp:408] L1_b6_cbr2_bn -> L1_b6_cbr2_bn_top
I0821 06:49:43.876077 32299 net.cpp:150] Setting up L1_b6_cbr2_bn
I0821 06:49:43.876093 32299 net.cpp:157] Top shape: 125 16 32 32 (2048000)
I0821 06:49:43.876098 32299 net.cpp:165] Memory required for data: 550401500
I0821 06:49:43.876109 32299 layer_factory.hpp:77] Creating layer L1_b6_cbr2_scale
I0821 06:49:43.876118 32299 net.cpp:100] Creating Layer L1_b6_cbr2_scale
I0821 06:49:43.876124 32299 net.cpp:434] L1_b6_cbr2_scale <- L1_b6_cbr2_bn_top
I0821 06:49:43.876132 32299 net.cpp:395] L1_b6_cbr2_scale -> L1_b6_cbr2_bn_top (in-place)
I0821 06:49:43.876185 32299 layer_factory.hpp:77] Creating layer L1_b6_cbr2_scale
I0821 06:49:43.876325 32299 net.cpp:150] Setting up L1_b6_cbr2_scale
I0821 06:49:43.876344 32299 net.cpp:157] Top shape: 125 16 32 32 (2048000)
I0821 06:49:43.876349 32299 net.cpp:165] Memory required for data: 558593500
I0821 06:49:43.876359 32299 layer_factory.hpp:77] Creating layer L1_b6_sum_eltwise
I0821 06:49:43.876379 32299 net.cpp:100] Creating Layer L1_b6_sum_eltwise
I0821 06:49:43.876384 32299 net.cpp:434] L1_b6_sum_eltwise <- L1_b6_cbr2_bn_top
I0821 06:49:43.876392 32299 net.cpp:434] L1_b6_sum_eltwise <- L1_b5_sum_eltwise_top_L1_b5_relu_0_split_1
I0821 06:49:43.876400 32299 net.cpp:408] L1_b6_sum_eltwise -> L1_b6_sum_eltwise_top
I0821 06:49:43.876435 32299 net.cpp:150] Setting up L1_b6_sum_eltwise
I0821 06:49:43.876447 32299 net.cpp:157] Top shape: 125 16 32 32 (2048000)
I0821 06:49:43.876452 32299 net.cpp:165] Memory required for data: 566785500
I0821 06:49:43.876458 32299 layer_factory.hpp:77] Creating layer L1_b6_relu
I0821 06:49:43.876474 32299 net.cpp:100] Creating Layer L1_b6_relu
I0821 06:49:43.876480 32299 net.cpp:434] L1_b6_relu <- L1_b6_sum_eltwise_top
I0821 06:49:43.876487 32299 net.cpp:395] L1_b6_relu -> L1_b6_sum_eltwise_top (in-place)
I0821 06:49:43.876497 32299 net.cpp:150] Setting up L1_b6_relu
I0821 06:49:43.876504 32299 net.cpp:157] Top shape: 125 16 32 32 (2048000)
I0821 06:49:43.876509 32299 net.cpp:165] Memory required for data: 574977500
I0821 06:49:43.876514 32299 layer_factory.hpp:77] Creating layer L1_b6_sum_eltwise_top_L1_b6_relu_0_split
I0821 06:49:43.876521 32299 net.cpp:100] Creating Layer L1_b6_sum_eltwise_top_L1_b6_relu_0_split
I0821 06:49:43.876526 32299 net.cpp:434] L1_b6_sum_eltwise_top_L1_b6_relu_0_split <- L1_b6_sum_eltwise_top
I0821 06:49:43.876538 32299 net.cpp:408] L1_b6_sum_eltwise_top_L1_b6_relu_0_split -> L1_b6_sum_eltwise_top_L1_b6_relu_0_split_0
I0821 06:49:43.876547 32299 net.cpp:408] L1_b6_sum_eltwise_top_L1_b6_relu_0_split -> L1_b6_sum_eltwise_top_L1_b6_relu_0_split_1
I0821 06:49:43.876590 32299 net.cpp:150] Setting up L1_b6_sum_eltwise_top_L1_b6_relu_0_split
I0821 06:49:43.876600 32299 net.cpp:157] Top shape: 125 16 32 32 (2048000)
I0821 06:49:43.876607 32299 net.cpp:157] Top shape: 125 16 32 32 (2048000)
I0821 06:49:43.876612 32299 net.cpp:165] Memory required for data: 591361500
I0821 06:49:43.876617 32299 layer_factory.hpp:77] Creating layer L1_b7_cbr1_conv
I0821 06:49:43.876631 32299 net.cpp:100] Creating Layer L1_b7_cbr1_conv
I0821 06:49:43.876637 32299 net.cpp:434] L1_b7_cbr1_conv <- L1_b6_sum_eltwise_top_L1_b6_relu_0_split_0
I0821 06:49:43.876647 32299 net.cpp:408] L1_b7_cbr1_conv -> L1_b7_cbr1_conv_top
I0821 06:49:43.876958 32299 net.cpp:150] Setting up L1_b7_cbr1_conv
I0821 06:49:43.876972 32299 net.cpp:157] Top shape: 125 16 32 32 (2048000)
I0821 06:49:43.876977 32299 net.cpp:165] Memory required for data: 599553500
I0821 06:49:43.876986 32299 layer_factory.hpp:77] Creating layer L1_b7_cbr1_bn
I0821 06:49:43.876998 32299 net.cpp:100] Creating Layer L1_b7_cbr1_bn
I0821 06:49:43.877005 32299 net.cpp:434] L1_b7_cbr1_bn <- L1_b7_cbr1_conv_top
I0821 06:49:43.877017 32299 net.cpp:408] L1_b7_cbr1_bn -> L1_b7_cbr1_bn_top
I0821 06:49:43.877255 32299 net.cpp:150] Setting up L1_b7_cbr1_bn
I0821 06:49:43.877269 32299 net.cpp:157] Top shape: 125 16 32 32 (2048000)
I0821 06:49:43.877274 32299 net.cpp:165] Memory required for data: 607745500
I0821 06:49:43.877285 32299 layer_factory.hpp:77] Creating layer L1_b7_cbr1_scale
I0821 06:49:43.877293 32299 net.cpp:100] Creating Layer L1_b7_cbr1_scale
I0821 06:49:43.877300 32299 net.cpp:434] L1_b7_cbr1_scale <- L1_b7_cbr1_bn_top
I0821 06:49:43.877315 32299 net.cpp:395] L1_b7_cbr1_scale -> L1_b7_cbr1_bn_top (in-place)
I0821 06:49:43.877373 32299 layer_factory.hpp:77] Creating layer L1_b7_cbr1_scale
I0821 06:49:43.877513 32299 net.cpp:150] Setting up L1_b7_cbr1_scale
I0821 06:49:43.877529 32299 net.cpp:157] Top shape: 125 16 32 32 (2048000)
I0821 06:49:43.877534 32299 net.cpp:165] Memory required for data: 615937500
I0821 06:49:43.877544 32299 layer_factory.hpp:77] Creating layer L1_b7_cbr1_relu
I0821 06:49:43.877552 32299 net.cpp:100] Creating Layer L1_b7_cbr1_relu
I0821 06:49:43.877559 32299 net.cpp:434] L1_b7_cbr1_relu <- L1_b7_cbr1_bn_top
I0821 06:49:43.877566 32299 net.cpp:395] L1_b7_cbr1_relu -> L1_b7_cbr1_bn_top (in-place)
I0821 06:49:43.877576 32299 net.cpp:150] Setting up L1_b7_cbr1_relu
I0821 06:49:43.877583 32299 net.cpp:157] Top shape: 125 16 32 32 (2048000)
I0821 06:49:43.877588 32299 net.cpp:165] Memory required for data: 624129500
I0821 06:49:43.877593 32299 layer_factory.hpp:77] Creating layer L1_b7_cbr2_conv
I0821 06:49:43.877606 32299 net.cpp:100] Creating Layer L1_b7_cbr2_conv
I0821 06:49:43.877612 32299 net.cpp:434] L1_b7_cbr2_conv <- L1_b7_cbr1_bn_top
I0821 06:49:43.877625 32299 net.cpp:408] L1_b7_cbr2_conv -> L1_b7_cbr2_conv_top
I0821 06:49:43.877938 32299 net.cpp:150] Setting up L1_b7_cbr2_conv
I0821 06:49:43.877952 32299 net.cpp:157] Top shape: 125 16 32 32 (2048000)
I0821 06:49:43.877957 32299 net.cpp:165] Memory required for data: 632321500
I0821 06:49:43.877974 32299 layer_factory.hpp:77] Creating layer L1_b7_cbr2_bn
I0821 06:49:43.877987 32299 net.cpp:100] Creating Layer L1_b7_cbr2_bn
I0821 06:49:43.877993 32299 net.cpp:434] L1_b7_cbr2_bn <- L1_b7_cbr2_conv_top
I0821 06:49:43.878005 32299 net.cpp:408] L1_b7_cbr2_bn -> L1_b7_cbr2_bn_top
I0821 06:49:43.878242 32299 net.cpp:150] Setting up L1_b7_cbr2_bn
I0821 06:49:43.878255 32299 net.cpp:157] Top shape: 125 16 32 32 (2048000)
I0821 06:49:43.878260 32299 net.cpp:165] Memory required for data: 640513500
I0821 06:49:43.878271 32299 layer_factory.hpp:77] Creating layer L1_b7_cbr2_scale
I0821 06:49:43.878280 32299 net.cpp:100] Creating Layer L1_b7_cbr2_scale
I0821 06:49:43.878286 32299 net.cpp:434] L1_b7_cbr2_scale <- L1_b7_cbr2_bn_top
I0821 06:49:43.878294 32299 net.cpp:395] L1_b7_cbr2_scale -> L1_b7_cbr2_bn_top (in-place)
I0821 06:49:43.878357 32299 layer_factory.hpp:77] Creating layer L1_b7_cbr2_scale
I0821 06:49:43.878497 32299 net.cpp:150] Setting up L1_b7_cbr2_scale
I0821 06:49:43.878510 32299 net.cpp:157] Top shape: 125 16 32 32 (2048000)
I0821 06:49:43.878515 32299 net.cpp:165] Memory required for data: 648705500
I0821 06:49:43.878525 32299 layer_factory.hpp:77] Creating layer L1_b7_sum_eltwise
I0821 06:49:43.878537 32299 net.cpp:100] Creating Layer L1_b7_sum_eltwise
I0821 06:49:43.878543 32299 net.cpp:434] L1_b7_sum_eltwise <- L1_b7_cbr2_bn_top
I0821 06:49:43.878551 32299 net.cpp:434] L1_b7_sum_eltwise <- L1_b6_sum_eltwise_top_L1_b6_relu_0_split_1
I0821 06:49:43.878559 32299 net.cpp:408] L1_b7_sum_eltwise -> L1_b7_sum_eltwise_top
I0821 06:49:43.878593 32299 net.cpp:150] Setting up L1_b7_sum_eltwise
I0821 06:49:43.878605 32299 net.cpp:157] Top shape: 125 16 32 32 (2048000)
I0821 06:49:43.878610 32299 net.cpp:165] Memory required for data: 656897500
I0821 06:49:43.878615 32299 layer_factory.hpp:77] Creating layer L1_b7_relu
I0821 06:49:43.878623 32299 net.cpp:100] Creating Layer L1_b7_relu
I0821 06:49:43.878628 32299 net.cpp:434] L1_b7_relu <- L1_b7_sum_eltwise_top
I0821 06:49:43.878638 32299 net.cpp:395] L1_b7_relu -> L1_b7_sum_eltwise_top (in-place)
I0821 06:49:43.878648 32299 net.cpp:150] Setting up L1_b7_relu
I0821 06:49:43.878655 32299 net.cpp:157] Top shape: 125 16 32 32 (2048000)
I0821 06:49:43.878660 32299 net.cpp:165] Memory required for data: 665089500
I0821 06:49:43.878665 32299 layer_factory.hpp:77] Creating layer L1_b7_sum_eltwise_top_L1_b7_relu_0_split
I0821 06:49:43.878672 32299 net.cpp:100] Creating Layer L1_b7_sum_eltwise_top_L1_b7_relu_0_split
I0821 06:49:43.878677 32299 net.cpp:434] L1_b7_sum_eltwise_top_L1_b7_relu_0_split <- L1_b7_sum_eltwise_top
I0821 06:49:43.878690 32299 net.cpp:408] L1_b7_sum_eltwise_top_L1_b7_relu_0_split -> L1_b7_sum_eltwise_top_L1_b7_relu_0_split_0
I0821 06:49:43.878700 32299 net.cpp:408] L1_b7_sum_eltwise_top_L1_b7_relu_0_split -> L1_b7_sum_eltwise_top_L1_b7_relu_0_split_1
I0821 06:49:43.878742 32299 net.cpp:150] Setting up L1_b7_sum_eltwise_top_L1_b7_relu_0_split
I0821 06:49:43.878753 32299 net.cpp:157] Top shape: 125 16 32 32 (2048000)
I0821 06:49:43.878760 32299 net.cpp:157] Top shape: 125 16 32 32 (2048000)
I0821 06:49:43.878765 32299 net.cpp:165] Memory required for data: 681473500
I0821 06:49:43.878770 32299 layer_factory.hpp:77] Creating layer L1_b8_cbr1_conv
I0821 06:49:43.878784 32299 net.cpp:100] Creating Layer L1_b8_cbr1_conv
I0821 06:49:43.878792 32299 net.cpp:434] L1_b8_cbr1_conv <- L1_b7_sum_eltwise_top_L1_b7_relu_0_split_0
I0821 06:49:43.878800 32299 net.cpp:408] L1_b8_cbr1_conv -> L1_b8_cbr1_conv_top
I0821 06:49:43.879117 32299 net.cpp:150] Setting up L1_b8_cbr1_conv
I0821 06:49:43.879132 32299 net.cpp:157] Top shape: 125 16 32 32 (2048000)
I0821 06:49:43.879137 32299 net.cpp:165] Memory required for data: 689665500
I0821 06:49:43.879146 32299 layer_factory.hpp:77] Creating layer L1_b8_cbr1_bn
I0821 06:49:43.879160 32299 net.cpp:100] Creating Layer L1_b8_cbr1_bn
I0821 06:49:43.879168 32299 net.cpp:434] L1_b8_cbr1_bn <- L1_b8_cbr1_conv_top
I0821 06:49:43.879179 32299 net.cpp:408] L1_b8_cbr1_bn -> L1_b8_cbr1_bn_top
I0821 06:49:43.879433 32299 net.cpp:150] Setting up L1_b8_cbr1_bn
I0821 06:49:43.879447 32299 net.cpp:157] Top shape: 125 16 32 32 (2048000)
I0821 06:49:43.879452 32299 net.cpp:165] Memory required for data: 697857500
I0821 06:49:43.879463 32299 layer_factory.hpp:77] Creating layer L1_b8_cbr1_scale
I0821 06:49:43.879472 32299 net.cpp:100] Creating Layer L1_b8_cbr1_scale
I0821 06:49:43.879478 32299 net.cpp:434] L1_b8_cbr1_scale <- L1_b8_cbr1_bn_top
I0821 06:49:43.879487 32299 net.cpp:395] L1_b8_cbr1_scale -> L1_b8_cbr1_bn_top (in-place)
I0821 06:49:43.879541 32299 layer_factory.hpp:77] Creating layer L1_b8_cbr1_scale
I0821 06:49:43.879679 32299 net.cpp:150] Setting up L1_b8_cbr1_scale
I0821 06:49:43.879693 32299 net.cpp:157] Top shape: 125 16 32 32 (2048000)
I0821 06:49:43.879698 32299 net.cpp:165] Memory required for data: 706049500
I0821 06:49:43.879706 32299 layer_factory.hpp:77] Creating layer L1_b8_cbr1_relu
I0821 06:49:43.879719 32299 net.cpp:100] Creating Layer L1_b8_cbr1_relu
I0821 06:49:43.879725 32299 net.cpp:434] L1_b8_cbr1_relu <- L1_b8_cbr1_bn_top
I0821 06:49:43.879734 32299 net.cpp:395] L1_b8_cbr1_relu -> L1_b8_cbr1_bn_top (in-place)
I0821 06:49:43.879743 32299 net.cpp:150] Setting up L1_b8_cbr1_relu
I0821 06:49:43.879750 32299 net.cpp:157] Top shape: 125 16 32 32 (2048000)
I0821 06:49:43.879755 32299 net.cpp:165] Memory required for data: 714241500
I0821 06:49:43.879760 32299 layer_factory.hpp:77] Creating layer L1_b8_cbr2_conv
I0821 06:49:43.879773 32299 net.cpp:100] Creating Layer L1_b8_cbr2_conv
I0821 06:49:43.879781 32299 net.cpp:434] L1_b8_cbr2_conv <- L1_b8_cbr1_bn_top
I0821 06:49:43.879791 32299 net.cpp:408] L1_b8_cbr2_conv -> L1_b8_cbr2_conv_top
I0821 06:49:43.880110 32299 net.cpp:150] Setting up L1_b8_cbr2_conv
I0821 06:49:43.880123 32299 net.cpp:157] Top shape: 125 16 32 32 (2048000)
I0821 06:49:43.880128 32299 net.cpp:165] Memory required for data: 722433500
I0821 06:49:43.880137 32299 layer_factory.hpp:77] Creating layer L1_b8_cbr2_bn
I0821 06:49:43.880149 32299 net.cpp:100] Creating Layer L1_b8_cbr2_bn
I0821 06:49:43.880156 32299 net.cpp:434] L1_b8_cbr2_bn <- L1_b8_cbr2_conv_top
I0821 06:49:43.880165 32299 net.cpp:408] L1_b8_cbr2_bn -> L1_b8_cbr2_bn_top
I0821 06:49:43.880424 32299 net.cpp:150] Setting up L1_b8_cbr2_bn
I0821 06:49:43.880437 32299 net.cpp:157] Top shape: 125 16 32 32 (2048000)
I0821 06:49:43.880442 32299 net.cpp:165] Memory required for data: 730625500
I0821 06:49:43.880453 32299 layer_factory.hpp:77] Creating layer L1_b8_cbr2_scale
I0821 06:49:43.880462 32299 net.cpp:100] Creating Layer L1_b8_cbr2_scale
I0821 06:49:43.880468 32299 net.cpp:434] L1_b8_cbr2_scale <- L1_b8_cbr2_bn_top
I0821 06:49:43.880476 32299 net.cpp:395] L1_b8_cbr2_scale -> L1_b8_cbr2_bn_top (in-place)
I0821 06:49:43.880532 32299 layer_factory.hpp:77] Creating layer L1_b8_cbr2_scale
I0821 06:49:43.880676 32299 net.cpp:150] Setting up L1_b8_cbr2_scale
I0821 06:49:43.880688 32299 net.cpp:157] Top shape: 125 16 32 32 (2048000)
I0821 06:49:43.880693 32299 net.cpp:165] Memory required for data: 738817500
I0821 06:49:43.880703 32299 layer_factory.hpp:77] Creating layer L1_b8_sum_eltwise
I0821 06:49:43.880712 32299 net.cpp:100] Creating Layer L1_b8_sum_eltwise
I0821 06:49:43.880719 32299 net.cpp:434] L1_b8_sum_eltwise <- L1_b8_cbr2_bn_top
I0821 06:49:43.880726 32299 net.cpp:434] L1_b8_sum_eltwise <- L1_b7_sum_eltwise_top_L1_b7_relu_0_split_1
I0821 06:49:43.880738 32299 net.cpp:408] L1_b8_sum_eltwise -> L1_b8_sum_eltwise_top
I0821 06:49:43.880769 32299 net.cpp:150] Setting up L1_b8_sum_eltwise
I0821 06:49:43.880780 32299 net.cpp:157] Top shape: 125 16 32 32 (2048000)
I0821 06:49:43.880785 32299 net.cpp:165] Memory required for data: 747009500
I0821 06:49:43.880791 32299 layer_factory.hpp:77] Creating layer L1_b8_relu
I0821 06:49:43.880801 32299 net.cpp:100] Creating Layer L1_b8_relu
I0821 06:49:43.880808 32299 net.cpp:434] L1_b8_relu <- L1_b8_sum_eltwise_top
I0821 06:49:43.880815 32299 net.cpp:395] L1_b8_relu -> L1_b8_sum_eltwise_top (in-place)
I0821 06:49:43.880825 32299 net.cpp:150] Setting up L1_b8_relu
I0821 06:49:43.880832 32299 net.cpp:157] Top shape: 125 16 32 32 (2048000)
I0821 06:49:43.880843 32299 net.cpp:165] Memory required for data: 755201500
I0821 06:49:43.880848 32299 layer_factory.hpp:77] Creating layer L1_b8_sum_eltwise_top_L1_b8_relu_0_split
I0821 06:49:43.880856 32299 net.cpp:100] Creating Layer L1_b8_sum_eltwise_top_L1_b8_relu_0_split
I0821 06:49:43.880861 32299 net.cpp:434] L1_b8_sum_eltwise_top_L1_b8_relu_0_split <- L1_b8_sum_eltwise_top
I0821 06:49:43.880868 32299 net.cpp:408] L1_b8_sum_eltwise_top_L1_b8_relu_0_split -> L1_b8_sum_eltwise_top_L1_b8_relu_0_split_0
I0821 06:49:43.880878 32299 net.cpp:408] L1_b8_sum_eltwise_top_L1_b8_relu_0_split -> L1_b8_sum_eltwise_top_L1_b8_relu_0_split_1
I0821 06:49:43.880925 32299 net.cpp:150] Setting up L1_b8_sum_eltwise_top_L1_b8_relu_0_split
I0821 06:49:43.880937 32299 net.cpp:157] Top shape: 125 16 32 32 (2048000)
I0821 06:49:43.880944 32299 net.cpp:157] Top shape: 125 16 32 32 (2048000)
I0821 06:49:43.880949 32299 net.cpp:165] Memory required for data: 771585500
I0821 06:49:43.880954 32299 layer_factory.hpp:77] Creating layer L1_b9_cbr1_conv
I0821 06:49:43.880967 32299 net.cpp:100] Creating Layer L1_b9_cbr1_conv
I0821 06:49:43.880973 32299 net.cpp:434] L1_b9_cbr1_conv <- L1_b8_sum_eltwise_top_L1_b8_relu_0_split_0
I0821 06:49:43.880983 32299 net.cpp:408] L1_b9_cbr1_conv -> L1_b9_cbr1_conv_top
I0821 06:49:43.881309 32299 net.cpp:150] Setting up L1_b9_cbr1_conv
I0821 06:49:43.881326 32299 net.cpp:157] Top shape: 125 16 32 32 (2048000)
I0821 06:49:43.881337 32299 net.cpp:165] Memory required for data: 779777500
I0821 06:49:43.881347 32299 layer_factory.hpp:77] Creating layer L1_b9_cbr1_bn
I0821 06:49:43.881357 32299 net.cpp:100] Creating Layer L1_b9_cbr1_bn
I0821 06:49:43.881363 32299 net.cpp:434] L1_b9_cbr1_bn <- L1_b9_cbr1_conv_top
I0821 06:49:43.881372 32299 net.cpp:408] L1_b9_cbr1_bn -> L1_b9_cbr1_bn_top
I0821 06:49:43.881620 32299 net.cpp:150] Setting up L1_b9_cbr1_bn
I0821 06:49:43.881633 32299 net.cpp:157] Top shape: 125 16 32 32 (2048000)
I0821 06:49:43.881639 32299 net.cpp:165] Memory required for data: 787969500
I0821 06:49:43.881649 32299 layer_factory.hpp:77] Creating layer L1_b9_cbr1_scale
I0821 06:49:43.881661 32299 net.cpp:100] Creating Layer L1_b9_cbr1_scale
I0821 06:49:43.881667 32299 net.cpp:434] L1_b9_cbr1_scale <- L1_b9_cbr1_bn_top
I0821 06:49:43.881675 32299 net.cpp:395] L1_b9_cbr1_scale -> L1_b9_cbr1_bn_top (in-place)
I0821 06:49:43.881736 32299 layer_factory.hpp:77] Creating layer L1_b9_cbr1_scale
I0821 06:49:43.881882 32299 net.cpp:150] Setting up L1_b9_cbr1_scale
I0821 06:49:43.881894 32299 net.cpp:157] Top shape: 125 16 32 32 (2048000)
I0821 06:49:43.881899 32299 net.cpp:165] Memory required for data: 796161500
I0821 06:49:43.881909 32299 layer_factory.hpp:77] Creating layer L1_b9_cbr1_relu
I0821 06:49:43.881918 32299 net.cpp:100] Creating Layer L1_b9_cbr1_relu
I0821 06:49:43.881924 32299 net.cpp:434] L1_b9_cbr1_relu <- L1_b9_cbr1_bn_top
I0821 06:49:43.881934 32299 net.cpp:395] L1_b9_cbr1_relu -> L1_b9_cbr1_bn_top (in-place)
I0821 06:49:43.881944 32299 net.cpp:150] Setting up L1_b9_cbr1_relu
I0821 06:49:43.881953 32299 net.cpp:157] Top shape: 125 16 32 32 (2048000)
I0821 06:49:43.881956 32299 net.cpp:165] Memory required for data: 804353500
I0821 06:49:43.881961 32299 layer_factory.hpp:77] Creating layer L1_b9_cbr2_conv
I0821 06:49:43.881974 32299 net.cpp:100] Creating Layer L1_b9_cbr2_conv
I0821 06:49:43.881980 32299 net.cpp:434] L1_b9_cbr2_conv <- L1_b9_cbr1_bn_top
I0821 06:49:43.881989 32299 net.cpp:408] L1_b9_cbr2_conv -> L1_b9_cbr2_conv_top
I0821 06:49:43.882308 32299 net.cpp:150] Setting up L1_b9_cbr2_conv
I0821 06:49:43.882320 32299 net.cpp:157] Top shape: 125 16 32 32 (2048000)
I0821 06:49:43.882325 32299 net.cpp:165] Memory required for data: 812545500
I0821 06:49:43.882341 32299 layer_factory.hpp:77] Creating layer L1_b9_cbr2_bn
I0821 06:49:43.882354 32299 net.cpp:100] Creating Layer L1_b9_cbr2_bn
I0821 06:49:43.882361 32299 net.cpp:434] L1_b9_cbr2_bn <- L1_b9_cbr2_conv_top
I0821 06:49:43.882369 32299 net.cpp:408] L1_b9_cbr2_bn -> L1_b9_cbr2_bn_top
I0821 06:49:43.882844 32299 net.cpp:150] Setting up L1_b9_cbr2_bn
I0821 06:49:43.882860 32299 net.cpp:157] Top shape: 125 16 32 32 (2048000)
I0821 06:49:43.882865 32299 net.cpp:165] Memory required for data: 820737500
I0821 06:49:43.882899 32299 layer_factory.hpp:77] Creating layer L1_b9_cbr2_scale
I0821 06:49:43.882910 32299 net.cpp:100] Creating Layer L1_b9_cbr2_scale
I0821 06:49:43.882917 32299 net.cpp:434] L1_b9_cbr2_scale <- L1_b9_cbr2_bn_top
I0821 06:49:43.882925 32299 net.cpp:395] L1_b9_cbr2_scale -> L1_b9_cbr2_bn_top (in-place)
I0821 06:49:43.882984 32299 layer_factory.hpp:77] Creating layer L1_b9_cbr2_scale
I0821 06:49:43.883232 32299 net.cpp:150] Setting up L1_b9_cbr2_scale
I0821 06:49:43.883246 32299 net.cpp:157] Top shape: 125 16 32 32 (2048000)
I0821 06:49:43.883252 32299 net.cpp:165] Memory required for data: 828929500
I0821 06:49:43.883262 32299 layer_factory.hpp:77] Creating layer L1_b9_sum_eltwise
I0821 06:49:43.883272 32299 net.cpp:100] Creating Layer L1_b9_sum_eltwise
I0821 06:49:43.883278 32299 net.cpp:434] L1_b9_sum_eltwise <- L1_b9_cbr2_bn_top
I0821 06:49:43.883285 32299 net.cpp:434] L1_b9_sum_eltwise <- L1_b8_sum_eltwise_top_L1_b8_relu_0_split_1
I0821 06:49:43.883294 32299 net.cpp:408] L1_b9_sum_eltwise -> L1_b9_sum_eltwise_top
I0821 06:49:43.883337 32299 net.cpp:150] Setting up L1_b9_sum_eltwise
I0821 06:49:43.883349 32299 net.cpp:157] Top shape: 125 16 32 32 (2048000)
I0821 06:49:43.883354 32299 net.cpp:165] Memory required for data: 837121500
I0821 06:49:43.883359 32299 layer_factory.hpp:77] Creating layer L1_b9_relu
I0821 06:49:43.883368 32299 net.cpp:100] Creating Layer L1_b9_relu
I0821 06:49:43.883373 32299 net.cpp:434] L1_b9_relu <- L1_b9_sum_eltwise_top
I0821 06:49:43.883384 32299 net.cpp:395] L1_b9_relu -> L1_b9_sum_eltwise_top (in-place)
I0821 06:49:43.883394 32299 net.cpp:150] Setting up L1_b9_relu
I0821 06:49:43.883402 32299 net.cpp:157] Top shape: 125 16 32 32 (2048000)
I0821 06:49:43.883406 32299 net.cpp:165] Memory required for data: 845313500
I0821 06:49:43.883411 32299 layer_factory.hpp:77] Creating layer L1_b9_sum_eltwise_top_L1_b9_relu_0_split
I0821 06:49:43.883419 32299 net.cpp:100] Creating Layer L1_b9_sum_eltwise_top_L1_b9_relu_0_split
I0821 06:49:43.883424 32299 net.cpp:434] L1_b9_sum_eltwise_top_L1_b9_relu_0_split <- L1_b9_sum_eltwise_top
I0821 06:49:43.883438 32299 net.cpp:408] L1_b9_sum_eltwise_top_L1_b9_relu_0_split -> L1_b9_sum_eltwise_top_L1_b9_relu_0_split_0
I0821 06:49:43.883450 32299 net.cpp:408] L1_b9_sum_eltwise_top_L1_b9_relu_0_split -> L1_b9_sum_eltwise_top_L1_b9_relu_0_split_1
I0821 06:49:43.883494 32299 net.cpp:150] Setting up L1_b9_sum_eltwise_top_L1_b9_relu_0_split
I0821 06:49:43.883507 32299 net.cpp:157] Top shape: 125 16 32 32 (2048000)
I0821 06:49:43.883513 32299 net.cpp:157] Top shape: 125 16 32 32 (2048000)
I0821 06:49:43.883517 32299 net.cpp:165] Memory required for data: 861697500
I0821 06:49:43.883522 32299 layer_factory.hpp:77] Creating layer L2_b1_cbr1_conv
I0821 06:49:43.883538 32299 net.cpp:100] Creating Layer L2_b1_cbr1_conv
I0821 06:49:43.883543 32299 net.cpp:434] L2_b1_cbr1_conv <- L1_b9_sum_eltwise_top_L1_b9_relu_0_split_0
I0821 06:49:43.883553 32299 net.cpp:408] L2_b1_cbr1_conv -> L2_b1_cbr1_conv_top
I0821 06:49:43.883878 32299 net.cpp:150] Setting up L2_b1_cbr1_conv
I0821 06:49:43.883893 32299 net.cpp:157] Top shape: 125 16 16 16 (512000)
I0821 06:49:43.883898 32299 net.cpp:165] Memory required for data: 863745500
I0821 06:49:43.883906 32299 layer_factory.hpp:77] Creating layer L2_b1_cbr1_bn
I0821 06:49:43.883919 32299 net.cpp:100] Creating Layer L2_b1_cbr1_bn
I0821 06:49:43.883925 32299 net.cpp:434] L2_b1_cbr1_bn <- L2_b1_cbr1_conv_top
I0821 06:49:43.883934 32299 net.cpp:408] L2_b1_cbr1_bn -> L2_b1_cbr1_bn_top
I0821 06:49:43.884171 32299 net.cpp:150] Setting up L2_b1_cbr1_bn
I0821 06:49:43.884183 32299 net.cpp:157] Top shape: 125 16 16 16 (512000)
I0821 06:49:43.884188 32299 net.cpp:165] Memory required for data: 865793500
I0821 06:49:43.884199 32299 layer_factory.hpp:77] Creating layer L2_b1_cbr1_scale
I0821 06:49:43.884208 32299 net.cpp:100] Creating Layer L2_b1_cbr1_scale
I0821 06:49:43.884220 32299 net.cpp:434] L2_b1_cbr1_scale <- L2_b1_cbr1_bn_top
I0821 06:49:43.884233 32299 net.cpp:395] L2_b1_cbr1_scale -> L2_b1_cbr1_bn_top (in-place)
I0821 06:49:43.884289 32299 layer_factory.hpp:77] Creating layer L2_b1_cbr1_scale
I0821 06:49:43.884439 32299 net.cpp:150] Setting up L2_b1_cbr1_scale
I0821 06:49:43.884454 32299 net.cpp:157] Top shape: 125 16 16 16 (512000)
I0821 06:49:43.884459 32299 net.cpp:165] Memory required for data: 867841500
I0821 06:49:43.884469 32299 layer_factory.hpp:77] Creating layer L2_b1_cbr1_relu
I0821 06:49:43.884476 32299 net.cpp:100] Creating Layer L2_b1_cbr1_relu
I0821 06:49:43.884482 32299 net.cpp:434] L2_b1_cbr1_relu <- L2_b1_cbr1_bn_top
I0821 06:49:43.884490 32299 net.cpp:395] L2_b1_cbr1_relu -> L2_b1_cbr1_bn_top (in-place)
I0821 06:49:43.884500 32299 net.cpp:150] Setting up L2_b1_cbr1_relu
I0821 06:49:43.884507 32299 net.cpp:157] Top shape: 125 16 16 16 (512000)
I0821 06:49:43.884511 32299 net.cpp:165] Memory required for data: 869889500
I0821 06:49:43.884516 32299 layer_factory.hpp:77] Creating layer L2_b1_cbr2_conv
I0821 06:49:43.884531 32299 net.cpp:100] Creating Layer L2_b1_cbr2_conv
I0821 06:49:43.884536 32299 net.cpp:434] L2_b1_cbr2_conv <- L2_b1_cbr1_bn_top
I0821 06:49:43.884547 32299 net.cpp:408] L2_b1_cbr2_conv -> L2_b1_cbr2_conv_top
I0821 06:49:43.884871 32299 net.cpp:150] Setting up L2_b1_cbr2_conv
I0821 06:49:43.884886 32299 net.cpp:157] Top shape: 125 16 16 16 (512000)
I0821 06:49:43.884891 32299 net.cpp:165] Memory required for data: 871937500
I0821 06:49:43.884901 32299 layer_factory.hpp:77] Creating layer L2_b1_cbr2_bn
I0821 06:49:43.884912 32299 net.cpp:100] Creating Layer L2_b1_cbr2_bn
I0821 06:49:43.884918 32299 net.cpp:434] L2_b1_cbr2_bn <- L2_b1_cbr2_conv_top
I0821 06:49:43.884932 32299 net.cpp:408] L2_b1_cbr2_bn -> L2_b1_cbr2_bn_top
I0821 06:49:43.885174 32299 net.cpp:150] Setting up L2_b1_cbr2_bn
I0821 06:49:43.885187 32299 net.cpp:157] Top shape: 125 16 16 16 (512000)
I0821 06:49:43.885192 32299 net.cpp:165] Memory required for data: 873985500
I0821 06:49:43.885203 32299 layer_factory.hpp:77] Creating layer L2_b1_cbr2_scale
I0821 06:49:43.885212 32299 net.cpp:100] Creating Layer L2_b1_cbr2_scale
I0821 06:49:43.885218 32299 net.cpp:434] L2_b1_cbr2_scale <- L2_b1_cbr2_bn_top
I0821 06:49:43.885226 32299 net.cpp:395] L2_b1_cbr2_scale -> L2_b1_cbr2_bn_top (in-place)
I0821 06:49:43.885283 32299 layer_factory.hpp:77] Creating layer L2_b1_cbr2_scale
I0821 06:49:43.885435 32299 net.cpp:150] Setting up L2_b1_cbr2_scale
I0821 06:49:43.885452 32299 net.cpp:157] Top shape: 125 16 16 16 (512000)
I0821 06:49:43.885457 32299 net.cpp:165] Memory required for data: 876033500
I0821 06:49:43.885468 32299 layer_factory.hpp:77] Creating layer L2_b1_pool
I0821 06:49:43.885478 32299 net.cpp:100] Creating Layer L2_b1_pool
I0821 06:49:43.885483 32299 net.cpp:434] L2_b1_pool <- L1_b9_sum_eltwise_top_L1_b9_relu_0_split_1
I0821 06:49:43.885493 32299 net.cpp:408] L2_b1_pool -> L2_b1_pool
I0821 06:49:43.885584 32299 net.cpp:150] Setting up L2_b1_pool
I0821 06:49:43.885599 32299 net.cpp:157] Top shape: 125 16 16 16 (512000)
I0821 06:49:43.885604 32299 net.cpp:165] Memory required for data: 878081500
I0821 06:49:43.885610 32299 layer_factory.hpp:77] Creating layer L2_b1_sum_eltwise
I0821 06:49:43.885620 32299 net.cpp:100] Creating Layer L2_b1_sum_eltwise
I0821 06:49:43.885627 32299 net.cpp:434] L2_b1_sum_eltwise <- L2_b1_cbr2_bn_top
I0821 06:49:43.885633 32299 net.cpp:434] L2_b1_sum_eltwise <- L2_b1_pool
I0821 06:49:43.885644 32299 net.cpp:408] L2_b1_sum_eltwise -> L2_b1_sum_eltwise_top
I0821 06:49:43.885679 32299 net.cpp:150] Setting up L2_b1_sum_eltwise
I0821 06:49:43.885690 32299 net.cpp:157] Top shape: 125 16 16 16 (512000)
I0821 06:49:43.885695 32299 net.cpp:165] Memory required for data: 880129500
I0821 06:49:43.885701 32299 layer_factory.hpp:77] Creating layer L2_b1_relu
I0821 06:49:43.885712 32299 net.cpp:100] Creating Layer L2_b1_relu
I0821 06:49:43.885718 32299 net.cpp:434] L2_b1_relu <- L2_b1_sum_eltwise_top
I0821 06:49:43.885725 32299 net.cpp:395] L2_b1_relu -> L2_b1_sum_eltwise_top (in-place)
I0821 06:49:43.885742 32299 net.cpp:150] Setting up L2_b1_relu
I0821 06:49:43.885751 32299 net.cpp:157] Top shape: 125 16 16 16 (512000)
I0821 06:49:43.885754 32299 net.cpp:165] Memory required for data: 882177500
I0821 06:49:43.885759 32299 layer_factory.hpp:77] Creating layer L2_b1_zeros
I0821 06:49:43.885812 32299 net.cpp:100] Creating Layer L2_b1_zeros
I0821 06:49:43.885829 32299 net.cpp:408] L2_b1_zeros -> L2_b1_zeros
I0821 06:49:43.888128 32299 net.cpp:150] Setting up L2_b1_zeros
I0821 06:49:43.888147 32299 net.cpp:157] Top shape: 125 16 16 16 (512000)
I0821 06:49:43.888152 32299 net.cpp:165] Memory required for data: 884225500
I0821 06:49:43.888159 32299 layer_factory.hpp:77] Creating layer L2_b1_concat0
I0821 06:49:43.888169 32299 net.cpp:100] Creating Layer L2_b1_concat0
I0821 06:49:43.888175 32299 net.cpp:434] L2_b1_concat0 <- L2_b1_sum_eltwise_top
I0821 06:49:43.888182 32299 net.cpp:434] L2_b1_concat0 <- L2_b1_zeros
I0821 06:49:43.888195 32299 net.cpp:408] L2_b1_concat0 -> L2_b1_concat0
I0821 06:49:43.888273 32299 net.cpp:150] Setting up L2_b1_concat0
I0821 06:49:43.888290 32299 net.cpp:157] Top shape: 125 32 16 16 (1024000)
I0821 06:49:43.888295 32299 net.cpp:165] Memory required for data: 888321500
I0821 06:49:43.888301 32299 layer_factory.hpp:77] Creating layer L2_b1_concat0_L2_b1_concat0_0_split
I0821 06:49:43.888310 32299 net.cpp:100] Creating Layer L2_b1_concat0_L2_b1_concat0_0_split
I0821 06:49:43.888316 32299 net.cpp:434] L2_b1_concat0_L2_b1_concat0_0_split <- L2_b1_concat0
I0821 06:49:43.888324 32299 net.cpp:408] L2_b1_concat0_L2_b1_concat0_0_split -> L2_b1_concat0_L2_b1_concat0_0_split_0
I0821 06:49:43.888345 32299 net.cpp:408] L2_b1_concat0_L2_b1_concat0_0_split -> L2_b1_concat0_L2_b1_concat0_0_split_1
I0821 06:49:43.888396 32299 net.cpp:150] Setting up L2_b1_concat0_L2_b1_concat0_0_split
I0821 06:49:43.888407 32299 net.cpp:157] Top shape: 125 32 16 16 (1024000)
I0821 06:49:43.888414 32299 net.cpp:157] Top shape: 125 32 16 16 (1024000)
I0821 06:49:43.888418 32299 net.cpp:165] Memory required for data: 896513500
I0821 06:49:43.888424 32299 layer_factory.hpp:77] Creating layer L2_b2_cbr1_conv
I0821 06:49:43.888438 32299 net.cpp:100] Creating Layer L2_b2_cbr1_conv
I0821 06:49:43.888445 32299 net.cpp:434] L2_b2_cbr1_conv <- L2_b1_concat0_L2_b1_concat0_0_split_0
I0821 06:49:43.888458 32299 net.cpp:408] L2_b2_cbr1_conv -> L2_b2_cbr1_conv_top
I0821 06:49:43.889894 32299 net.cpp:150] Setting up L2_b2_cbr1_conv
I0821 06:49:43.889910 32299 net.cpp:157] Top shape: 125 32 16 16 (1024000)
I0821 06:49:43.889915 32299 net.cpp:165] Memory required for data: 900609500
I0821 06:49:43.889926 32299 layer_factory.hpp:77] Creating layer L2_b2_cbr1_bn
I0821 06:49:43.889940 32299 net.cpp:100] Creating Layer L2_b2_cbr1_bn
I0821 06:49:43.889946 32299 net.cpp:434] L2_b2_cbr1_bn <- L2_b2_cbr1_conv_top
I0821 06:49:43.889955 32299 net.cpp:408] L2_b2_cbr1_bn -> L2_b2_cbr1_bn_top
I0821 06:49:43.890203 32299 net.cpp:150] Setting up L2_b2_cbr1_bn
I0821 06:49:43.890216 32299 net.cpp:157] Top shape: 125 32 16 16 (1024000)
I0821 06:49:43.890221 32299 net.cpp:165] Memory required for data: 904705500
I0821 06:49:43.890233 32299 layer_factory.hpp:77] Creating layer L2_b2_cbr1_scale
I0821 06:49:43.890242 32299 net.cpp:100] Creating Layer L2_b2_cbr1_scale
I0821 06:49:43.890249 32299 net.cpp:434] L2_b2_cbr1_scale <- L2_b2_cbr1_bn_top
I0821 06:49:43.890259 32299 net.cpp:395] L2_b2_cbr1_scale -> L2_b2_cbr1_bn_top (in-place)
I0821 06:49:43.890316 32299 layer_factory.hpp:77] Creating layer L2_b2_cbr1_scale
I0821 06:49:43.890472 32299 net.cpp:150] Setting up L2_b2_cbr1_scale
I0821 06:49:43.890486 32299 net.cpp:157] Top shape: 125 32 16 16 (1024000)
I0821 06:49:43.890491 32299 net.cpp:165] Memory required for data: 908801500
I0821 06:49:43.890501 32299 layer_factory.hpp:77] Creating layer L2_b2_cbr1_relu
I0821 06:49:43.890509 32299 net.cpp:100] Creating Layer L2_b2_cbr1_relu
I0821 06:49:43.890516 32299 net.cpp:434] L2_b2_cbr1_relu <- L2_b2_cbr1_bn_top
I0821 06:49:43.890527 32299 net.cpp:395] L2_b2_cbr1_relu -> L2_b2_cbr1_bn_top (in-place)
I0821 06:49:43.890545 32299 net.cpp:150] Setting up L2_b2_cbr1_relu
I0821 06:49:43.890552 32299 net.cpp:157] Top shape: 125 32 16 16 (1024000)
I0821 06:49:43.890558 32299 net.cpp:165] Memory required for data: 912897500
I0821 06:49:43.890563 32299 layer_factory.hpp:77] Creating layer L2_b2_cbr2_conv
I0821 06:49:43.890576 32299 net.cpp:100] Creating Layer L2_b2_cbr2_conv
I0821 06:49:43.890583 32299 net.cpp:434] L2_b2_cbr2_conv <- L2_b2_cbr1_bn_top
I0821 06:49:43.890592 32299 net.cpp:408] L2_b2_cbr2_conv -> L2_b2_cbr2_conv_top
I0821 06:49:43.891050 32299 net.cpp:150] Setting up L2_b2_cbr2_conv
I0821 06:49:43.891064 32299 net.cpp:157] Top shape: 125 32 16 16 (1024000)
I0821 06:49:43.891070 32299 net.cpp:165] Memory required for data: 916993500
I0821 06:49:43.891079 32299 layer_factory.hpp:77] Creating layer L2_b2_cbr2_bn
I0821 06:49:43.891089 32299 net.cpp:100] Creating Layer L2_b2_cbr2_bn
I0821 06:49:43.891095 32299 net.cpp:434] L2_b2_cbr2_bn <- L2_b2_cbr2_conv_top
I0821 06:49:43.891108 32299 net.cpp:408] L2_b2_cbr2_bn -> L2_b2_cbr2_bn_top
I0821 06:49:43.891360 32299 net.cpp:150] Setting up L2_b2_cbr2_bn
I0821 06:49:43.891373 32299 net.cpp:157] Top shape: 125 32 16 16 (1024000)
I0821 06:49:43.891378 32299 net.cpp:165] Memory required for data: 921089500
I0821 06:49:43.891389 32299 layer_factory.hpp:77] Creating layer L2_b2_cbr2_scale
I0821 06:49:43.891398 32299 net.cpp:100] Creating Layer L2_b2_cbr2_scale
I0821 06:49:43.891405 32299 net.cpp:434] L2_b2_cbr2_scale <- L2_b2_cbr2_bn_top
I0821 06:49:43.891412 32299 net.cpp:395] L2_b2_cbr2_scale -> L2_b2_cbr2_bn_top (in-place)
I0821 06:49:43.891470 32299 layer_factory.hpp:77] Creating layer L2_b2_cbr2_scale
I0821 06:49:43.891613 32299 net.cpp:150] Setting up L2_b2_cbr2_scale
I0821 06:49:43.891628 32299 net.cpp:157] Top shape: 125 32 16 16 (1024000)
I0821 06:49:43.891633 32299 net.cpp:165] Memory required for data: 925185500
I0821 06:49:43.891643 32299 layer_factory.hpp:77] Creating layer L2_b2_sum_eltwise
I0821 06:49:43.891652 32299 net.cpp:100] Creating Layer L2_b2_sum_eltwise
I0821 06:49:43.891659 32299 net.cpp:434] L2_b2_sum_eltwise <- L2_b2_cbr2_bn_top
I0821 06:49:43.891666 32299 net.cpp:434] L2_b2_sum_eltwise <- L2_b1_concat0_L2_b1_concat0_0_split_1
I0821 06:49:43.891674 32299 net.cpp:408] L2_b2_sum_eltwise -> L2_b2_sum_eltwise_top
I0821 06:49:43.891705 32299 net.cpp:150] Setting up L2_b2_sum_eltwise
I0821 06:49:43.891715 32299 net.cpp:157] Top shape: 125 32 16 16 (1024000)
I0821 06:49:43.891719 32299 net.cpp:165] Memory required for data: 929281500
I0821 06:49:43.891724 32299 layer_factory.hpp:77] Creating layer L2_b2_relu
I0821 06:49:43.891732 32299 net.cpp:100] Creating Layer L2_b2_relu
I0821 06:49:43.891739 32299 net.cpp:434] L2_b2_relu <- L2_b2_sum_eltwise_top
I0821 06:49:43.891749 32299 net.cpp:395] L2_b2_relu -> L2_b2_sum_eltwise_top (in-place)
I0821 06:49:43.891759 32299 net.cpp:150] Setting up L2_b2_relu
I0821 06:49:43.891767 32299 net.cpp:157] Top shape: 125 32 16 16 (1024000)
I0821 06:49:43.891772 32299 net.cpp:165] Memory required for data: 933377500
I0821 06:49:43.891777 32299 layer_factory.hpp:77] Creating layer L2_b2_sum_eltwise_top_L2_b2_relu_0_split
I0821 06:49:43.891783 32299 net.cpp:100] Creating Layer L2_b2_sum_eltwise_top_L2_b2_relu_0_split
I0821 06:49:43.891789 32299 net.cpp:434] L2_b2_sum_eltwise_top_L2_b2_relu_0_split <- L2_b2_sum_eltwise_top
I0821 06:49:43.891799 32299 net.cpp:408] L2_b2_sum_eltwise_top_L2_b2_relu_0_split -> L2_b2_sum_eltwise_top_L2_b2_relu_0_split_0
I0821 06:49:43.891809 32299 net.cpp:408] L2_b2_sum_eltwise_top_L2_b2_relu_0_split -> L2_b2_sum_eltwise_top_L2_b2_relu_0_split_1
I0821 06:49:43.891852 32299 net.cpp:150] Setting up L2_b2_sum_eltwise_top_L2_b2_relu_0_split
I0821 06:49:43.891865 32299 net.cpp:157] Top shape: 125 32 16 16 (1024000)
I0821 06:49:43.891870 32299 net.cpp:157] Top shape: 125 32 16 16 (1024000)
I0821 06:49:43.891875 32299 net.cpp:165] Memory required for data: 941569500
I0821 06:49:43.891880 32299 layer_factory.hpp:77] Creating layer L2_b3_cbr1_conv
I0821 06:49:43.891901 32299 net.cpp:100] Creating Layer L2_b3_cbr1_conv
I0821 06:49:43.891908 32299 net.cpp:434] L2_b3_cbr1_conv <- L2_b2_sum_eltwise_top_L2_b2_relu_0_split_0
I0821 06:49:43.891918 32299 net.cpp:408] L2_b3_cbr1_conv -> L2_b3_cbr1_conv_top
I0821 06:49:43.892397 32299 net.cpp:150] Setting up L2_b3_cbr1_conv
I0821 06:49:43.892412 32299 net.cpp:157] Top shape: 125 32 16 16 (1024000)
I0821 06:49:43.892417 32299 net.cpp:165] Memory required for data: 945665500
I0821 06:49:43.892427 32299 layer_factory.hpp:77] Creating layer L2_b3_cbr1_bn
I0821 06:49:43.892439 32299 net.cpp:100] Creating Layer L2_b3_cbr1_bn
I0821 06:49:43.892446 32299 net.cpp:434] L2_b3_cbr1_bn <- L2_b3_cbr1_conv_top
I0821 06:49:43.892454 32299 net.cpp:408] L2_b3_cbr1_bn -> L2_b3_cbr1_bn_top
I0821 06:49:43.892699 32299 net.cpp:150] Setting up L2_b3_cbr1_bn
I0821 06:49:43.892711 32299 net.cpp:157] Top shape: 125 32 16 16 (1024000)
I0821 06:49:43.892716 32299 net.cpp:165] Memory required for data: 949761500
I0821 06:49:43.892727 32299 layer_factory.hpp:77] Creating layer L2_b3_cbr1_scale
I0821 06:49:43.892735 32299 net.cpp:100] Creating Layer L2_b3_cbr1_scale
I0821 06:49:43.892742 32299 net.cpp:434] L2_b3_cbr1_scale <- L2_b3_cbr1_bn_top
I0821 06:49:43.892752 32299 net.cpp:395] L2_b3_cbr1_scale -> L2_b3_cbr1_bn_top (in-place)
I0821 06:49:43.892807 32299 layer_factory.hpp:77] Creating layer L2_b3_cbr1_scale
I0821 06:49:43.892958 32299 net.cpp:150] Setting up L2_b3_cbr1_scale
I0821 06:49:43.892971 32299 net.cpp:157] Top shape: 125 32 16 16 (1024000)
I0821 06:49:43.892976 32299 net.cpp:165] Memory required for data: 953857500
I0821 06:49:43.892985 32299 layer_factory.hpp:77] Creating layer L2_b3_cbr1_relu
I0821 06:49:43.892994 32299 net.cpp:100] Creating Layer L2_b3_cbr1_relu
I0821 06:49:43.893000 32299 net.cpp:434] L2_b3_cbr1_relu <- L2_b3_cbr1_bn_top
I0821 06:49:43.893007 32299 net.cpp:395] L2_b3_cbr1_relu -> L2_b3_cbr1_bn_top (in-place)
I0821 06:49:43.893018 32299 net.cpp:150] Setting up L2_b3_cbr1_relu
I0821 06:49:43.893024 32299 net.cpp:157] Top shape: 125 32 16 16 (1024000)
I0821 06:49:43.893028 32299 net.cpp:165] Memory required for data: 957953500
I0821 06:49:43.893033 32299 layer_factory.hpp:77] Creating layer L2_b3_cbr2_conv
I0821 06:49:43.893048 32299 net.cpp:100] Creating Layer L2_b3_cbr2_conv
I0821 06:49:43.893054 32299 net.cpp:434] L2_b3_cbr2_conv <- L2_b3_cbr1_bn_top
I0821 06:49:43.893064 32299 net.cpp:408] L2_b3_cbr2_conv -> L2_b3_cbr2_conv_top
I0821 06:49:43.893537 32299 net.cpp:150] Setting up L2_b3_cbr2_conv
I0821 06:49:43.893551 32299 net.cpp:157] Top shape: 125 32 16 16 (1024000)
I0821 06:49:43.893556 32299 net.cpp:165] Memory required for data: 962049500
I0821 06:49:43.893566 32299 layer_factory.hpp:77] Creating layer L2_b3_cbr2_bn
I0821 06:49:43.893579 32299 net.cpp:100] Creating Layer L2_b3_cbr2_bn
I0821 06:49:43.893585 32299 net.cpp:434] L2_b3_cbr2_bn <- L2_b3_cbr2_conv_top
I0821 06:49:43.893596 32299 net.cpp:408] L2_b3_cbr2_bn -> L2_b3_cbr2_bn_top
I0821 06:49:43.893842 32299 net.cpp:150] Setting up L2_b3_cbr2_bn
I0821 06:49:43.893856 32299 net.cpp:157] Top shape: 125 32 16 16 (1024000)
I0821 06:49:43.893860 32299 net.cpp:165] Memory required for data: 966145500
I0821 06:49:43.893872 32299 layer_factory.hpp:77] Creating layer L2_b3_cbr2_scale
I0821 06:49:43.893880 32299 net.cpp:100] Creating Layer L2_b3_cbr2_scale
I0821 06:49:43.893887 32299 net.cpp:434] L2_b3_cbr2_scale <- L2_b3_cbr2_bn_top
I0821 06:49:43.893894 32299 net.cpp:395] L2_b3_cbr2_scale -> L2_b3_cbr2_bn_top (in-place)
I0821 06:49:43.893952 32299 layer_factory.hpp:77] Creating layer L2_b3_cbr2_scale
I0821 06:49:43.894100 32299 net.cpp:150] Setting up L2_b3_cbr2_scale
I0821 06:49:43.894114 32299 net.cpp:157] Top shape: 125 32 16 16 (1024000)
I0821 06:49:43.894119 32299 net.cpp:165] Memory required for data: 970241500
I0821 06:49:43.894129 32299 layer_factory.hpp:77] Creating layer L2_b3_sum_eltwise
I0821 06:49:43.894140 32299 net.cpp:100] Creating Layer L2_b3_sum_eltwise
I0821 06:49:43.894146 32299 net.cpp:434] L2_b3_sum_eltwise <- L2_b3_cbr2_bn_top
I0821 06:49:43.894155 32299 net.cpp:434] L2_b3_sum_eltwise <- L2_b2_sum_eltwise_top_L2_b2_relu_0_split_1
I0821 06:49:43.894170 32299 net.cpp:408] L2_b3_sum_eltwise -> L2_b3_sum_eltwise_top
I0821 06:49:43.894201 32299 net.cpp:150] Setting up L2_b3_sum_eltwise
I0821 06:49:43.894212 32299 net.cpp:157] Top shape: 125 32 16 16 (1024000)
I0821 06:49:43.894217 32299 net.cpp:165] Memory required for data: 974337500
I0821 06:49:43.894222 32299 layer_factory.hpp:77] Creating layer L2_b3_relu
I0821 06:49:43.894244 32299 net.cpp:100] Creating Layer L2_b3_relu
I0821 06:49:43.894251 32299 net.cpp:434] L2_b3_relu <- L2_b3_sum_eltwise_top
I0821 06:49:43.894259 32299 net.cpp:395] L2_b3_relu -> L2_b3_sum_eltwise_top (in-place)
I0821 06:49:43.894268 32299 net.cpp:150] Setting up L2_b3_relu
I0821 06:49:43.894276 32299 net.cpp:157] Top shape: 125 32 16 16 (1024000)
I0821 06:49:43.894280 32299 net.cpp:165] Memory required for data: 978433500
I0821 06:49:43.894286 32299 layer_factory.hpp:77] Creating layer L2_b3_sum_eltwise_top_L2_b3_relu_0_split
I0821 06:49:43.894294 32299 net.cpp:100] Creating Layer L2_b3_sum_eltwise_top_L2_b3_relu_0_split
I0821 06:49:43.894299 32299 net.cpp:434] L2_b3_sum_eltwise_top_L2_b3_relu_0_split <- L2_b3_sum_eltwise_top
I0821 06:49:43.894306 32299 net.cpp:408] L2_b3_sum_eltwise_top_L2_b3_relu_0_split -> L2_b3_sum_eltwise_top_L2_b3_relu_0_split_0
I0821 06:49:43.894316 32299 net.cpp:408] L2_b3_sum_eltwise_top_L2_b3_relu_0_split -> L2_b3_sum_eltwise_top_L2_b3_relu_0_split_1
I0821 06:49:43.894372 32299 net.cpp:150] Setting up L2_b3_sum_eltwise_top_L2_b3_relu_0_split
I0821 06:49:43.894385 32299 net.cpp:157] Top shape: 125 32 16 16 (1024000)
I0821 06:49:43.894392 32299 net.cpp:157] Top shape: 125 32 16 16 (1024000)
I0821 06:49:43.894397 32299 net.cpp:165] Memory required for data: 986625500
I0821 06:49:43.894402 32299 layer_factory.hpp:77] Creating layer L2_b4_cbr1_conv
I0821 06:49:43.894418 32299 net.cpp:100] Creating Layer L2_b4_cbr1_conv
I0821 06:49:43.894425 32299 net.cpp:434] L2_b4_cbr1_conv <- L2_b3_sum_eltwise_top_L2_b3_relu_0_split_0
I0821 06:49:43.894435 32299 net.cpp:408] L2_b4_cbr1_conv -> L2_b4_cbr1_conv_top
I0821 06:49:43.894896 32299 net.cpp:150] Setting up L2_b4_cbr1_conv
I0821 06:49:43.894909 32299 net.cpp:157] Top shape: 125 32 16 16 (1024000)
I0821 06:49:43.894914 32299 net.cpp:165] Memory required for data: 990721500
I0821 06:49:43.894923 32299 layer_factory.hpp:77] Creating layer L2_b4_cbr1_bn
I0821 06:49:43.894937 32299 net.cpp:100] Creating Layer L2_b4_cbr1_bn
I0821 06:49:43.894942 32299 net.cpp:434] L2_b4_cbr1_bn <- L2_b4_cbr1_conv_top
I0821 06:49:43.894953 32299 net.cpp:408] L2_b4_cbr1_bn -> L2_b4_cbr1_bn_top
I0821 06:49:43.895198 32299 net.cpp:150] Setting up L2_b4_cbr1_bn
I0821 06:49:43.895215 32299 net.cpp:157] Top shape: 125 32 16 16 (1024000)
I0821 06:49:43.895220 32299 net.cpp:165] Memory required for data: 994817500
I0821 06:49:43.895231 32299 layer_factory.hpp:77] Creating layer L2_b4_cbr1_scale
I0821 06:49:43.895239 32299 net.cpp:100] Creating Layer L2_b4_cbr1_scale
I0821 06:49:43.895246 32299 net.cpp:434] L2_b4_cbr1_scale <- L2_b4_cbr1_bn_top
I0821 06:49:43.895253 32299 net.cpp:395] L2_b4_cbr1_scale -> L2_b4_cbr1_bn_top (in-place)
I0821 06:49:43.895308 32299 layer_factory.hpp:77] Creating layer L2_b4_cbr1_scale
I0821 06:49:43.895462 32299 net.cpp:150] Setting up L2_b4_cbr1_scale
I0821 06:49:43.895475 32299 net.cpp:157] Top shape: 125 32 16 16 (1024000)
I0821 06:49:43.895479 32299 net.cpp:165] Memory required for data: 998913500
I0821 06:49:43.895489 32299 layer_factory.hpp:77] Creating layer L2_b4_cbr1_relu
I0821 06:49:43.895498 32299 net.cpp:100] Creating Layer L2_b4_cbr1_relu
I0821 06:49:43.895504 32299 net.cpp:434] L2_b4_cbr1_relu <- L2_b4_cbr1_bn_top
I0821 06:49:43.895514 32299 net.cpp:395] L2_b4_cbr1_relu -> L2_b4_cbr1_bn_top (in-place)
I0821 06:49:43.895525 32299 net.cpp:150] Setting up L2_b4_cbr1_relu
I0821 06:49:43.895532 32299 net.cpp:157] Top shape: 125 32 16 16 (1024000)
I0821 06:49:43.895536 32299 net.cpp:165] Memory required for data: 1003009500
I0821 06:49:43.895541 32299 layer_factory.hpp:77] Creating layer L2_b4_cbr2_conv
I0821 06:49:43.895562 32299 net.cpp:100] Creating Layer L2_b4_cbr2_conv
I0821 06:49:43.895568 32299 net.cpp:434] L2_b4_cbr2_conv <- L2_b4_cbr1_bn_top
I0821 06:49:43.895577 32299 net.cpp:408] L2_b4_cbr2_conv -> L2_b4_cbr2_conv_top
I0821 06:49:43.896031 32299 net.cpp:150] Setting up L2_b4_cbr2_conv
I0821 06:49:43.896045 32299 net.cpp:157] Top shape: 125 32 16 16 (1024000)
I0821 06:49:43.896050 32299 net.cpp:165] Memory required for data: 1007105500
I0821 06:49:43.896059 32299 layer_factory.hpp:77] Creating layer L2_b4_cbr2_bn
I0821 06:49:43.896075 32299 net.cpp:100] Creating Layer L2_b4_cbr2_bn
I0821 06:49:43.896082 32299 net.cpp:434] L2_b4_cbr2_bn <- L2_b4_cbr2_conv_top
I0821 06:49:43.896091 32299 net.cpp:408] L2_b4_cbr2_bn -> L2_b4_cbr2_bn_top
I0821 06:49:43.896344 32299 net.cpp:150] Setting up L2_b4_cbr2_bn
I0821 06:49:43.896358 32299 net.cpp:157] Top shape: 125 32 16 16 (1024000)
I0821 06:49:43.896363 32299 net.cpp:165] Memory required for data: 1011201500
I0821 06:49:43.896373 32299 layer_factory.hpp:77] Creating layer L2_b4_cbr2_scale
I0821 06:49:43.896385 32299 net.cpp:100] Creating Layer L2_b4_cbr2_scale
I0821 06:49:43.896392 32299 net.cpp:434] L2_b4_cbr2_scale <- L2_b4_cbr2_bn_top
I0821 06:49:43.896400 32299 net.cpp:395] L2_b4_cbr2_scale -> L2_b4_cbr2_bn_top (in-place)
I0821 06:49:43.896455 32299 layer_factory.hpp:77] Creating layer L2_b4_cbr2_scale
I0821 06:49:43.896600 32299 net.cpp:150] Setting up L2_b4_cbr2_scale
I0821 06:49:43.896613 32299 net.cpp:157] Top shape: 125 32 16 16 (1024000)
I0821 06:49:43.896617 32299 net.cpp:165] Memory required for data: 1015297500
I0821 06:49:43.896627 32299 layer_factory.hpp:77] Creating layer L2_b4_sum_eltwise
I0821 06:49:43.896639 32299 net.cpp:100] Creating Layer L2_b4_sum_eltwise
I0821 06:49:43.896646 32299 net.cpp:434] L2_b4_sum_eltwise <- L2_b4_cbr2_bn_top
I0821 06:49:43.896653 32299 net.cpp:434] L2_b4_sum_eltwise <- L2_b3_sum_eltwise_top_L2_b3_relu_0_split_1
I0821 06:49:43.896663 32299 net.cpp:408] L2_b4_sum_eltwise -> L2_b4_sum_eltwise_top
I0821 06:49:43.896692 32299 net.cpp:150] Setting up L2_b4_sum_eltwise
I0821 06:49:43.896700 32299 net.cpp:157] Top shape: 125 32 16 16 (1024000)
I0821 06:49:43.896705 32299 net.cpp:165] Memory required for data: 1019393500
I0821 06:49:43.896710 32299 layer_factory.hpp:77] Creating layer L2_b4_relu
I0821 06:49:43.896718 32299 net.cpp:100] Creating Layer L2_b4_relu
I0821 06:49:43.896724 32299 net.cpp:434] L2_b4_relu <- L2_b4_sum_eltwise_top
I0821 06:49:43.896734 32299 net.cpp:395] L2_b4_relu -> L2_b4_sum_eltwise_top (in-place)
I0821 06:49:43.896745 32299 net.cpp:150] Setting up L2_b4_relu
I0821 06:49:43.896752 32299 net.cpp:157] Top shape: 125 32 16 16 (1024000)
I0821 06:49:43.896756 32299 net.cpp:165] Memory required for data: 1023489500
I0821 06:49:43.896762 32299 layer_factory.hpp:77] Creating layer L2_b4_sum_eltwise_top_L2_b4_relu_0_split
I0821 06:49:43.896770 32299 net.cpp:100] Creating Layer L2_b4_sum_eltwise_top_L2_b4_relu_0_split
I0821 06:49:43.896775 32299 net.cpp:434] L2_b4_sum_eltwise_top_L2_b4_relu_0_split <- L2_b4_sum_eltwise_top
I0821 06:49:43.896782 32299 net.cpp:408] L2_b4_sum_eltwise_top_L2_b4_relu_0_split -> L2_b4_sum_eltwise_top_L2_b4_relu_0_split_0
I0821 06:49:43.896791 32299 net.cpp:408] L2_b4_sum_eltwise_top_L2_b4_relu_0_split -> L2_b4_sum_eltwise_top_L2_b4_relu_0_split_1
I0821 06:49:43.896838 32299 net.cpp:150] Setting up L2_b4_sum_eltwise_top_L2_b4_relu_0_split
I0821 06:49:43.896850 32299 net.cpp:157] Top shape: 125 32 16 16 (1024000)
I0821 06:49:43.896857 32299 net.cpp:157] Top shape: 125 32 16 16 (1024000)
I0821 06:49:43.896862 32299 net.cpp:165] Memory required for data: 1031681500
I0821 06:49:43.896867 32299 layer_factory.hpp:77] Creating layer L2_b5_cbr1_conv
I0821 06:49:43.896880 32299 net.cpp:100] Creating Layer L2_b5_cbr1_conv
I0821 06:49:43.896888 32299 net.cpp:434] L2_b5_cbr1_conv <- L2_b4_sum_eltwise_top_L2_b4_relu_0_split_0
I0821 06:49:43.896896 32299 net.cpp:408] L2_b5_cbr1_conv -> L2_b5_cbr1_conv_top
I0821 06:49:43.897361 32299 net.cpp:150] Setting up L2_b5_cbr1_conv
I0821 06:49:43.897382 32299 net.cpp:157] Top shape: 125 32 16 16 (1024000)
I0821 06:49:43.897387 32299 net.cpp:165] Memory required for data: 1035777500
I0821 06:49:43.897397 32299 layer_factory.hpp:77] Creating layer L2_b5_cbr1_bn
I0821 06:49:43.897409 32299 net.cpp:100] Creating Layer L2_b5_cbr1_bn
I0821 06:49:43.897416 32299 net.cpp:434] L2_b5_cbr1_bn <- L2_b5_cbr1_conv_top
I0821 06:49:43.897424 32299 net.cpp:408] L2_b5_cbr1_bn -> L2_b5_cbr1_bn_top
I0821 06:49:43.897671 32299 net.cpp:150] Setting up L2_b5_cbr1_bn
I0821 06:49:43.897687 32299 net.cpp:157] Top shape: 125 32 16 16 (1024000)
I0821 06:49:43.897692 32299 net.cpp:165] Memory required for data: 1039873500
I0821 06:49:43.897702 32299 layer_factory.hpp:77] Creating layer L2_b5_cbr1_scale
I0821 06:49:43.897711 32299 net.cpp:100] Creating Layer L2_b5_cbr1_scale
I0821 06:49:43.897717 32299 net.cpp:434] L2_b5_cbr1_scale <- L2_b5_cbr1_bn_top
I0821 06:49:43.897725 32299 net.cpp:395] L2_b5_cbr1_scale -> L2_b5_cbr1_bn_top (in-place)
I0821 06:49:43.897779 32299 layer_factory.hpp:77] Creating layer L2_b5_cbr1_scale
I0821 06:49:43.897933 32299 net.cpp:150] Setting up L2_b5_cbr1_scale
I0821 06:49:43.897946 32299 net.cpp:157] Top shape: 125 32 16 16 (1024000)
I0821 06:49:43.897951 32299 net.cpp:165] Memory required for data: 1043969500
I0821 06:49:43.897961 32299 layer_factory.hpp:77] Creating layer L2_b5_cbr1_relu
I0821 06:49:43.897969 32299 net.cpp:100] Creating Layer L2_b5_cbr1_relu
I0821 06:49:43.897975 32299 net.cpp:434] L2_b5_cbr1_relu <- L2_b5_cbr1_bn_top
I0821 06:49:43.897986 32299 net.cpp:395] L2_b5_cbr1_relu -> L2_b5_cbr1_bn_top (in-place)
I0821 06:49:43.897996 32299 net.cpp:150] Setting up L2_b5_cbr1_relu
I0821 06:49:43.898003 32299 net.cpp:157] Top shape: 125 32 16 16 (1024000)
I0821 06:49:43.898008 32299 net.cpp:165] Memory required for data: 1048065500
I0821 06:49:43.898013 32299 layer_factory.hpp:77] Creating layer L2_b5_cbr2_conv
I0821 06:49:43.898026 32299 net.cpp:100] Creating Layer L2_b5_cbr2_conv
I0821 06:49:43.898033 32299 net.cpp:434] L2_b5_cbr2_conv <- L2_b5_cbr1_bn_top
I0821 06:49:43.898041 32299 net.cpp:408] L2_b5_cbr2_conv -> L2_b5_cbr2_conv_top
I0821 06:49:43.898531 32299 net.cpp:150] Setting up L2_b5_cbr2_conv
I0821 06:49:43.898546 32299 net.cpp:157] Top shape: 125 32 16 16 (1024000)
I0821 06:49:43.898551 32299 net.cpp:165] Memory required for data: 1052161500
I0821 06:49:43.898561 32299 layer_factory.hpp:77] Creating layer L2_b5_cbr2_bn
I0821 06:49:43.898571 32299 net.cpp:100] Creating Layer L2_b5_cbr2_bn
I0821 06:49:43.898576 32299 net.cpp:434] L2_b5_cbr2_bn <- L2_b5_cbr2_conv_top
I0821 06:49:43.898588 32299 net.cpp:408] L2_b5_cbr2_bn -> L2_b5_cbr2_bn_top
I0821 06:49:43.898838 32299 net.cpp:150] Setting up L2_b5_cbr2_bn
I0821 06:49:43.898850 32299 net.cpp:157] Top shape: 125 32 16 16 (1024000)
I0821 06:49:43.898855 32299 net.cpp:165] Memory required for data: 1056257500
I0821 06:49:43.898866 32299 layer_factory.hpp:77] Creating layer L2_b5_cbr2_scale
I0821 06:49:43.898878 32299 net.cpp:100] Creating Layer L2_b5_cbr2_scale
I0821 06:49:43.898885 32299 net.cpp:434] L2_b5_cbr2_scale <- L2_b5_cbr2_bn_top
I0821 06:49:43.898893 32299 net.cpp:395] L2_b5_cbr2_scale -> L2_b5_cbr2_bn_top (in-place)
I0821 06:49:43.898947 32299 layer_factory.hpp:77] Creating layer L2_b5_cbr2_scale
I0821 06:49:43.899094 32299 net.cpp:150] Setting up L2_b5_cbr2_scale
I0821 06:49:43.899107 32299 net.cpp:157] Top shape: 125 32 16 16 (1024000)
I0821 06:49:43.899112 32299 net.cpp:165] Memory required for data: 1060353500
I0821 06:49:43.899121 32299 layer_factory.hpp:77] Creating layer L2_b5_sum_eltwise
I0821 06:49:43.899134 32299 net.cpp:100] Creating Layer L2_b5_sum_eltwise
I0821 06:49:43.899140 32299 net.cpp:434] L2_b5_sum_eltwise <- L2_b5_cbr2_bn_top
I0821 06:49:43.899147 32299 net.cpp:434] L2_b5_sum_eltwise <- L2_b4_sum_eltwise_top_L2_b4_relu_0_split_1
I0821 06:49:43.899158 32299 net.cpp:408] L2_b5_sum_eltwise -> L2_b5_sum_eltwise_top
I0821 06:49:43.899185 32299 net.cpp:150] Setting up L2_b5_sum_eltwise
I0821 06:49:43.899194 32299 net.cpp:157] Top shape: 125 32 16 16 (1024000)
I0821 06:49:43.899206 32299 net.cpp:165] Memory required for data: 1064449500
I0821 06:49:43.899211 32299 layer_factory.hpp:77] Creating layer L2_b5_relu
I0821 06:49:43.899219 32299 net.cpp:100] Creating Layer L2_b5_relu
I0821 06:49:43.899225 32299 net.cpp:434] L2_b5_relu <- L2_b5_sum_eltwise_top
I0821 06:49:43.899235 32299 net.cpp:395] L2_b5_relu -> L2_b5_sum_eltwise_top (in-place)
I0821 06:49:43.899245 32299 net.cpp:150] Setting up L2_b5_relu
I0821 06:49:43.899253 32299 net.cpp:157] Top shape: 125 32 16 16 (1024000)
I0821 06:49:43.899257 32299 net.cpp:165] Memory required for data: 1068545500
I0821 06:49:43.899262 32299 layer_factory.hpp:77] Creating layer L2_b5_sum_eltwise_top_L2_b5_relu_0_split
I0821 06:49:43.899269 32299 net.cpp:100] Creating Layer L2_b5_sum_eltwise_top_L2_b5_relu_0_split
I0821 06:49:43.899276 32299 net.cpp:434] L2_b5_sum_eltwise_top_L2_b5_relu_0_split <- L2_b5_sum_eltwise_top
I0821 06:49:43.899282 32299 net.cpp:408] L2_b5_sum_eltwise_top_L2_b5_relu_0_split -> L2_b5_sum_eltwise_top_L2_b5_relu_0_split_0
I0821 06:49:43.899292 32299 net.cpp:408] L2_b5_sum_eltwise_top_L2_b5_relu_0_split -> L2_b5_sum_eltwise_top_L2_b5_relu_0_split_1
I0821 06:49:43.899346 32299 net.cpp:150] Setting up L2_b5_sum_eltwise_top_L2_b5_relu_0_split
I0821 06:49:43.899359 32299 net.cpp:157] Top shape: 125 32 16 16 (1024000)
I0821 06:49:43.899366 32299 net.cpp:157] Top shape: 125 32 16 16 (1024000)
I0821 06:49:43.899370 32299 net.cpp:165] Memory required for data: 1076737500
I0821 06:49:43.899376 32299 layer_factory.hpp:77] Creating layer L2_b6_cbr1_conv
I0821 06:49:43.899387 32299 net.cpp:100] Creating Layer L2_b6_cbr1_conv
I0821 06:49:43.899394 32299 net.cpp:434] L2_b6_cbr1_conv <- L2_b5_sum_eltwise_top_L2_b5_relu_0_split_0
I0821 06:49:43.899405 32299 net.cpp:408] L2_b6_cbr1_conv -> L2_b6_cbr1_conv_top
I0821 06:49:43.899873 32299 net.cpp:150] Setting up L2_b6_cbr1_conv
I0821 06:49:43.899888 32299 net.cpp:157] Top shape: 125 32 16 16 (1024000)
I0821 06:49:43.899893 32299 net.cpp:165] Memory required for data: 1080833500
I0821 06:49:43.899901 32299 layer_factory.hpp:77] Creating layer L2_b6_cbr1_bn
I0821 06:49:43.899914 32299 net.cpp:100] Creating Layer L2_b6_cbr1_bn
I0821 06:49:43.899921 32299 net.cpp:434] L2_b6_cbr1_bn <- L2_b6_cbr1_conv_top
I0821 06:49:43.899930 32299 net.cpp:408] L2_b6_cbr1_bn -> L2_b6_cbr1_bn_top
I0821 06:49:43.900180 32299 net.cpp:150] Setting up L2_b6_cbr1_bn
I0821 06:49:43.900193 32299 net.cpp:157] Top shape: 125 32 16 16 (1024000)
I0821 06:49:43.900198 32299 net.cpp:165] Memory required for data: 1084929500
I0821 06:49:43.900209 32299 layer_factory.hpp:77] Creating layer L2_b6_cbr1_scale
I0821 06:49:43.900221 32299 net.cpp:100] Creating Layer L2_b6_cbr1_scale
I0821 06:49:43.900228 32299 net.cpp:434] L2_b6_cbr1_scale <- L2_b6_cbr1_bn_top
I0821 06:49:43.900236 32299 net.cpp:395] L2_b6_cbr1_scale -> L2_b6_cbr1_bn_top (in-place)
I0821 06:49:43.900291 32299 layer_factory.hpp:77] Creating layer L2_b6_cbr1_scale
I0821 06:49:43.900444 32299 net.cpp:150] Setting up L2_b6_cbr1_scale
I0821 06:49:43.900457 32299 net.cpp:157] Top shape: 125 32 16 16 (1024000)
I0821 06:49:43.900462 32299 net.cpp:165] Memory required for data: 1089025500
I0821 06:49:43.900471 32299 layer_factory.hpp:77] Creating layer L2_b6_cbr1_relu
I0821 06:49:43.900482 32299 net.cpp:100] Creating Layer L2_b6_cbr1_relu
I0821 06:49:43.900490 32299 net.cpp:434] L2_b6_cbr1_relu <- L2_b6_cbr1_bn_top
I0821 06:49:43.900499 32299 net.cpp:395] L2_b6_cbr1_relu -> L2_b6_cbr1_bn_top (in-place)
I0821 06:49:43.900511 32299 net.cpp:150] Setting up L2_b6_cbr1_relu
I0821 06:49:43.900517 32299 net.cpp:157] Top shape: 125 32 16 16 (1024000)
I0821 06:49:43.900521 32299 net.cpp:165] Memory required for data: 1093121500
I0821 06:49:43.900527 32299 layer_factory.hpp:77] Creating layer L2_b6_cbr2_conv
I0821 06:49:43.900538 32299 net.cpp:100] Creating Layer L2_b6_cbr2_conv
I0821 06:49:43.900544 32299 net.cpp:434] L2_b6_cbr2_conv <- L2_b6_cbr1_bn_top
I0821 06:49:43.900557 32299 net.cpp:408] L2_b6_cbr2_conv -> L2_b6_cbr2_conv_top
I0821 06:49:43.901011 32299 net.cpp:150] Setting up L2_b6_cbr2_conv
I0821 06:49:43.901031 32299 net.cpp:157] Top shape: 125 32 16 16 (1024000)
I0821 06:49:43.901037 32299 net.cpp:165] Memory required for data: 1097217500
I0821 06:49:43.901046 32299 layer_factory.hpp:77] Creating layer L2_b6_cbr2_bn
I0821 06:49:43.901057 32299 net.cpp:100] Creating Layer L2_b6_cbr2_bn
I0821 06:49:43.901062 32299 net.cpp:434] L2_b6_cbr2_bn <- L2_b6_cbr2_conv_top
I0821 06:49:43.901073 32299 net.cpp:408] L2_b6_cbr2_bn -> L2_b6_cbr2_bn_top
I0821 06:49:43.901321 32299 net.cpp:150] Setting up L2_b6_cbr2_bn
I0821 06:49:43.901340 32299 net.cpp:157] Top shape: 125 32 16 16 (1024000)
I0821 06:49:43.901346 32299 net.cpp:165] Memory required for data: 1101313500
I0821 06:49:43.901357 32299 layer_factory.hpp:77] Creating layer L2_b6_cbr2_scale
I0821 06:49:43.901370 32299 net.cpp:100] Creating Layer L2_b6_cbr2_scale
I0821 06:49:43.901376 32299 net.cpp:434] L2_b6_cbr2_scale <- L2_b6_cbr2_bn_top
I0821 06:49:43.901383 32299 net.cpp:395] L2_b6_cbr2_scale -> L2_b6_cbr2_bn_top (in-place)
I0821 06:49:43.901438 32299 layer_factory.hpp:77] Creating layer L2_b6_cbr2_scale
I0821 06:49:43.901584 32299 net.cpp:150] Setting up L2_b6_cbr2_scale
I0821 06:49:43.901597 32299 net.cpp:157] Top shape: 125 32 16 16 (1024000)
I0821 06:49:43.901602 32299 net.cpp:165] Memory required for data: 1105409500
I0821 06:49:43.901612 32299 layer_factory.hpp:77] Creating layer L2_b6_sum_eltwise
I0821 06:49:43.901624 32299 net.cpp:100] Creating Layer L2_b6_sum_eltwise
I0821 06:49:43.901630 32299 net.cpp:434] L2_b6_sum_eltwise <- L2_b6_cbr2_bn_top
I0821 06:49:43.901638 32299 net.cpp:434] L2_b6_sum_eltwise <- L2_b5_sum_eltwise_top_L2_b5_relu_0_split_1
I0821 06:49:43.901646 32299 net.cpp:408] L2_b6_sum_eltwise -> L2_b6_sum_eltwise_top
I0821 06:49:43.901675 32299 net.cpp:150] Setting up L2_b6_sum_eltwise
I0821 06:49:43.901685 32299 net.cpp:157] Top shape: 125 32 16 16 (1024000)
I0821 06:49:43.901690 32299 net.cpp:165] Memory required for data: 1109505500
I0821 06:49:43.901695 32299 layer_factory.hpp:77] Creating layer L2_b6_relu
I0821 06:49:43.901703 32299 net.cpp:100] Creating Layer L2_b6_relu
I0821 06:49:43.901710 32299 net.cpp:434] L2_b6_relu <- L2_b6_sum_eltwise_top
I0821 06:49:43.901720 32299 net.cpp:395] L2_b6_relu -> L2_b6_sum_eltwise_top (in-place)
I0821 06:49:43.901729 32299 net.cpp:150] Setting up L2_b6_relu
I0821 06:49:43.901737 32299 net.cpp:157] Top shape: 125 32 16 16 (1024000)
I0821 06:49:43.901742 32299 net.cpp:165] Memory required for data: 1113601500
I0821 06:49:43.901746 32299 layer_factory.hpp:77] Creating layer L2_b6_sum_eltwise_top_L2_b6_relu_0_split
I0821 06:49:43.901754 32299 net.cpp:100] Creating Layer L2_b6_sum_eltwise_top_L2_b6_relu_0_split
I0821 06:49:43.901759 32299 net.cpp:434] L2_b6_sum_eltwise_top_L2_b6_relu_0_split <- L2_b6_sum_eltwise_top
I0821 06:49:43.901767 32299 net.cpp:408] L2_b6_sum_eltwise_top_L2_b6_relu_0_split -> L2_b6_sum_eltwise_top_L2_b6_relu_0_split_0
I0821 06:49:43.901777 32299 net.cpp:408] L2_b6_sum_eltwise_top_L2_b6_relu_0_split -> L2_b6_sum_eltwise_top_L2_b6_relu_0_split_1
I0821 06:49:43.901823 32299 net.cpp:150] Setting up L2_b6_sum_eltwise_top_L2_b6_relu_0_split
I0821 06:49:43.901835 32299 net.cpp:157] Top shape: 125 32 16 16 (1024000)
I0821 06:49:43.901841 32299 net.cpp:157] Top shape: 125 32 16 16 (1024000)
I0821 06:49:43.901846 32299 net.cpp:165] Memory required for data: 1121793500
I0821 06:49:43.901851 32299 layer_factory.hpp:77] Creating layer L2_b7_cbr1_conv
I0821 06:49:43.901862 32299 net.cpp:100] Creating Layer L2_b7_cbr1_conv
I0821 06:49:43.901868 32299 net.cpp:434] L2_b7_cbr1_conv <- L2_b6_sum_eltwise_top_L2_b6_relu_0_split_0
I0821 06:49:43.901880 32299 net.cpp:408] L2_b7_cbr1_conv -> L2_b7_cbr1_conv_top
I0821 06:49:43.902350 32299 net.cpp:150] Setting up L2_b7_cbr1_conv
I0821 06:49:43.902364 32299 net.cpp:157] Top shape: 125 32 16 16 (1024000)
I0821 06:49:43.902369 32299 net.cpp:165] Memory required for data: 1125889500
I0821 06:49:43.902379 32299 layer_factory.hpp:77] Creating layer L2_b7_cbr1_bn
I0821 06:49:43.902389 32299 net.cpp:100] Creating Layer L2_b7_cbr1_bn
I0821 06:49:43.902401 32299 net.cpp:434] L2_b7_cbr1_bn <- L2_b7_cbr1_conv_top
I0821 06:49:43.902413 32299 net.cpp:408] L2_b7_cbr1_bn -> L2_b7_cbr1_bn_top
I0821 06:49:43.902662 32299 net.cpp:150] Setting up L2_b7_cbr1_bn
I0821 06:49:43.902675 32299 net.cpp:157] Top shape: 125 32 16 16 (1024000)
I0821 06:49:43.902680 32299 net.cpp:165] Memory required for data: 1129985500
I0821 06:49:43.902691 32299 layer_factory.hpp:77] Creating layer L2_b7_cbr1_scale
I0821 06:49:43.902704 32299 net.cpp:100] Creating Layer L2_b7_cbr1_scale
I0821 06:49:43.902709 32299 net.cpp:434] L2_b7_cbr1_scale <- L2_b7_cbr1_bn_top
I0821 06:49:43.902717 32299 net.cpp:395] L2_b7_cbr1_scale -> L2_b7_cbr1_bn_top (in-place)
I0821 06:49:43.902772 32299 layer_factory.hpp:77] Creating layer L2_b7_cbr1_scale
I0821 06:49:43.902923 32299 net.cpp:150] Setting up L2_b7_cbr1_scale
I0821 06:49:43.902936 32299 net.cpp:157] Top shape: 125 32 16 16 (1024000)
I0821 06:49:43.902941 32299 net.cpp:165] Memory required for data: 1134081500
I0821 06:49:43.902951 32299 layer_factory.hpp:77] Creating layer L2_b7_cbr1_relu
I0821 06:49:43.902963 32299 net.cpp:100] Creating Layer L2_b7_cbr1_relu
I0821 06:49:43.902969 32299 net.cpp:434] L2_b7_cbr1_relu <- L2_b7_cbr1_bn_top
I0821 06:49:43.902977 32299 net.cpp:395] L2_b7_cbr1_relu -> L2_b7_cbr1_bn_top (in-place)
I0821 06:49:43.902987 32299 net.cpp:150] Setting up L2_b7_cbr1_relu
I0821 06:49:43.902997 32299 net.cpp:157] Top shape: 125 32 16 16 (1024000)
I0821 06:49:43.903002 32299 net.cpp:165] Memory required for data: 1138177500
I0821 06:49:43.903007 32299 layer_factory.hpp:77] Creating layer L2_b7_cbr2_conv
I0821 06:49:43.903018 32299 net.cpp:100] Creating Layer L2_b7_cbr2_conv
I0821 06:49:43.903024 32299 net.cpp:434] L2_b7_cbr2_conv <- L2_b7_cbr1_bn_top
I0821 06:49:43.903035 32299 net.cpp:408] L2_b7_cbr2_conv -> L2_b7_cbr2_conv_top
I0821 06:49:43.903504 32299 net.cpp:150] Setting up L2_b7_cbr2_conv
I0821 06:49:43.903519 32299 net.cpp:157] Top shape: 125 32 16 16 (1024000)
I0821 06:49:43.903524 32299 net.cpp:165] Memory required for data: 1142273500
I0821 06:49:43.903533 32299 layer_factory.hpp:77] Creating layer L2_b7_cbr2_bn
I0821 06:49:43.903543 32299 net.cpp:100] Creating Layer L2_b7_cbr2_bn
I0821 06:49:43.903549 32299 net.cpp:434] L2_b7_cbr2_bn <- L2_b7_cbr2_conv_top
I0821 06:49:43.903560 32299 net.cpp:408] L2_b7_cbr2_bn -> L2_b7_cbr2_bn_top
I0821 06:49:43.903831 32299 net.cpp:150] Setting up L2_b7_cbr2_bn
I0821 06:49:43.903846 32299 net.cpp:157] Top shape: 125 32 16 16 (1024000)
I0821 06:49:43.903851 32299 net.cpp:165] Memory required for data: 1146369500
I0821 06:49:43.903861 32299 layer_factory.hpp:77] Creating layer L2_b7_cbr2_scale
I0821 06:49:43.903874 32299 net.cpp:100] Creating Layer L2_b7_cbr2_scale
I0821 06:49:43.903882 32299 net.cpp:434] L2_b7_cbr2_scale <- L2_b7_cbr2_bn_top
I0821 06:49:43.903889 32299 net.cpp:395] L2_b7_cbr2_scale -> L2_b7_cbr2_bn_top (in-place)
I0821 06:49:43.903944 32299 layer_factory.hpp:77] Creating layer L2_b7_cbr2_scale
I0821 06:49:43.904093 32299 net.cpp:150] Setting up L2_b7_cbr2_scale
I0821 06:49:43.904106 32299 net.cpp:157] Top shape: 125 32 16 16 (1024000)
I0821 06:49:43.904111 32299 net.cpp:165] Memory required for data: 1150465500
I0821 06:49:43.904121 32299 layer_factory.hpp:77] Creating layer L2_b7_sum_eltwise
I0821 06:49:43.904134 32299 net.cpp:100] Creating Layer L2_b7_sum_eltwise
I0821 06:49:43.904140 32299 net.cpp:434] L2_b7_sum_eltwise <- L2_b7_cbr2_bn_top
I0821 06:49:43.904148 32299 net.cpp:434] L2_b7_sum_eltwise <- L2_b6_sum_eltwise_top_L2_b6_relu_0_split_1
I0821 06:49:43.904156 32299 net.cpp:408] L2_b7_sum_eltwise -> L2_b7_sum_eltwise_top
I0821 06:49:43.904187 32299 net.cpp:150] Setting up L2_b7_sum_eltwise
I0821 06:49:43.904199 32299 net.cpp:157] Top shape: 125 32 16 16 (1024000)
I0821 06:49:43.904203 32299 net.cpp:165] Memory required for data: 1154561500
I0821 06:49:43.904209 32299 layer_factory.hpp:77] Creating layer L2_b7_relu
I0821 06:49:43.904217 32299 net.cpp:100] Creating Layer L2_b7_relu
I0821 06:49:43.904223 32299 net.cpp:434] L2_b7_relu <- L2_b7_sum_eltwise_top
I0821 06:49:43.904233 32299 net.cpp:395] L2_b7_relu -> L2_b7_sum_eltwise_top (in-place)
I0821 06:49:43.904249 32299 net.cpp:150] Setting up L2_b7_relu
I0821 06:49:43.904258 32299 net.cpp:157] Top shape: 125 32 16 16 (1024000)
I0821 06:49:43.904263 32299 net.cpp:165] Memory required for data: 1158657500
I0821 06:49:43.904268 32299 layer_factory.hpp:77] Creating layer L2_b7_sum_eltwise_top_L2_b7_relu_0_split
I0821 06:49:43.904273 32299 net.cpp:100] Creating Layer L2_b7_sum_eltwise_top_L2_b7_relu_0_split
I0821 06:49:43.904279 32299 net.cpp:434] L2_b7_sum_eltwise_top_L2_b7_relu_0_split <- L2_b7_sum_eltwise_top
I0821 06:49:43.904286 32299 net.cpp:408] L2_b7_sum_eltwise_top_L2_b7_relu_0_split -> L2_b7_sum_eltwise_top_L2_b7_relu_0_split_0
I0821 06:49:43.904296 32299 net.cpp:408] L2_b7_sum_eltwise_top_L2_b7_relu_0_split -> L2_b7_sum_eltwise_top_L2_b7_relu_0_split_1
I0821 06:49:43.904353 32299 net.cpp:150] Setting up L2_b7_sum_eltwise_top_L2_b7_relu_0_split
I0821 06:49:43.904366 32299 net.cpp:157] Top shape: 125 32 16 16 (1024000)
I0821 06:49:43.904373 32299 net.cpp:157] Top shape: 125 32 16 16 (1024000)
I0821 06:49:43.904377 32299 net.cpp:165] Memory required for data: 1166849500
I0821 06:49:43.904383 32299 layer_factory.hpp:77] Creating layer L2_b8_cbr1_conv
I0821 06:49:43.904394 32299 net.cpp:100] Creating Layer L2_b8_cbr1_conv
I0821 06:49:43.904402 32299 net.cpp:434] L2_b8_cbr1_conv <- L2_b7_sum_eltwise_top_L2_b7_relu_0_split_0
I0821 06:49:43.904413 32299 net.cpp:408] L2_b8_cbr1_conv -> L2_b8_cbr1_conv_top
I0821 06:49:43.904886 32299 net.cpp:150] Setting up L2_b8_cbr1_conv
I0821 06:49:43.904901 32299 net.cpp:157] Top shape: 125 32 16 16 (1024000)
I0821 06:49:43.904906 32299 net.cpp:165] Memory required for data: 1170945500
I0821 06:49:43.904916 32299 layer_factory.hpp:77] Creating layer L2_b8_cbr1_bn
I0821 06:49:43.904925 32299 net.cpp:100] Creating Layer L2_b8_cbr1_bn
I0821 06:49:43.904932 32299 net.cpp:434] L2_b8_cbr1_bn <- L2_b8_cbr1_conv_top
I0821 06:49:43.904942 32299 net.cpp:408] L2_b8_cbr1_bn -> L2_b8_cbr1_bn_top
I0821 06:49:43.905196 32299 net.cpp:150] Setting up L2_b8_cbr1_bn
I0821 06:49:43.905210 32299 net.cpp:157] Top shape: 125 32 16 16 (1024000)
I0821 06:49:43.905215 32299 net.cpp:165] Memory required for data: 1175041500
I0821 06:49:43.905225 32299 layer_factory.hpp:77] Creating layer L2_b8_cbr1_scale
I0821 06:49:43.905237 32299 net.cpp:100] Creating Layer L2_b8_cbr1_scale
I0821 06:49:43.905244 32299 net.cpp:434] L2_b8_cbr1_scale <- L2_b8_cbr1_bn_top
I0821 06:49:43.905252 32299 net.cpp:395] L2_b8_cbr1_scale -> L2_b8_cbr1_bn_top (in-place)
I0821 06:49:43.905308 32299 layer_factory.hpp:77] Creating layer L2_b8_cbr1_scale
I0821 06:49:43.905467 32299 net.cpp:150] Setting up L2_b8_cbr1_scale
I0821 06:49:43.905480 32299 net.cpp:157] Top shape: 125 32 16 16 (1024000)
I0821 06:49:43.905485 32299 net.cpp:165] Memory required for data: 1179137500
I0821 06:49:43.905494 32299 layer_factory.hpp:77] Creating layer L2_b8_cbr1_relu
I0821 06:49:43.905506 32299 net.cpp:100] Creating Layer L2_b8_cbr1_relu
I0821 06:49:43.905513 32299 net.cpp:434] L2_b8_cbr1_relu <- L2_b8_cbr1_bn_top
I0821 06:49:43.905520 32299 net.cpp:395] L2_b8_cbr1_relu -> L2_b8_cbr1_bn_top (in-place)
I0821 06:49:43.905530 32299 net.cpp:150] Setting up L2_b8_cbr1_relu
I0821 06:49:43.905537 32299 net.cpp:157] Top shape: 125 32 16 16 (1024000)
I0821 06:49:43.905542 32299 net.cpp:165] Memory required for data: 1183233500
I0821 06:49:43.905547 32299 layer_factory.hpp:77] Creating layer L2_b8_cbr2_conv
I0821 06:49:43.905560 32299 net.cpp:100] Creating Layer L2_b8_cbr2_conv
I0821 06:49:43.905567 32299 net.cpp:434] L2_b8_cbr2_conv <- L2_b8_cbr1_bn_top
I0821 06:49:43.905578 32299 net.cpp:408] L2_b8_cbr2_conv -> L2_b8_cbr2_conv_top
I0821 06:49:43.906044 32299 net.cpp:150] Setting up L2_b8_cbr2_conv
I0821 06:49:43.906057 32299 net.cpp:157] Top shape: 125 32 16 16 (1024000)
I0821 06:49:43.906062 32299 net.cpp:165] Memory required for data: 1187329500
I0821 06:49:43.906071 32299 layer_factory.hpp:77] Creating layer L2_b8_cbr2_bn
I0821 06:49:43.906081 32299 net.cpp:100] Creating Layer L2_b8_cbr2_bn
I0821 06:49:43.906095 32299 net.cpp:434] L2_b8_cbr2_bn <- L2_b8_cbr2_conv_top
I0821 06:49:43.906110 32299 net.cpp:408] L2_b8_cbr2_bn -> L2_b8_cbr2_bn_top
I0821 06:49:43.906370 32299 net.cpp:150] Setting up L2_b8_cbr2_bn
I0821 06:49:43.906384 32299 net.cpp:157] Top shape: 125 32 16 16 (1024000)
I0821 06:49:43.906390 32299 net.cpp:165] Memory required for data: 1191425500
I0821 06:49:43.906400 32299 layer_factory.hpp:77] Creating layer L2_b8_cbr2_scale
I0821 06:49:43.906415 32299 net.cpp:100] Creating Layer L2_b8_cbr2_scale
I0821 06:49:43.906422 32299 net.cpp:434] L2_b8_cbr2_scale <- L2_b8_cbr2_bn_top
I0821 06:49:43.906430 32299 net.cpp:395] L2_b8_cbr2_scale -> L2_b8_cbr2_bn_top (in-place)
I0821 06:49:43.906486 32299 layer_factory.hpp:77] Creating layer L2_b8_cbr2_scale
I0821 06:49:43.906637 32299 net.cpp:150] Setting up L2_b8_cbr2_scale
I0821 06:49:43.906651 32299 net.cpp:157] Top shape: 125 32 16 16 (1024000)
I0821 06:49:43.906656 32299 net.cpp:165] Memory required for data: 1195521500
I0821 06:49:43.906664 32299 layer_factory.hpp:77] Creating layer L2_b8_sum_eltwise
I0821 06:49:43.906674 32299 net.cpp:100] Creating Layer L2_b8_sum_eltwise
I0821 06:49:43.906680 32299 net.cpp:434] L2_b8_sum_eltwise <- L2_b8_cbr2_bn_top
I0821 06:49:43.906690 32299 net.cpp:434] L2_b8_sum_eltwise <- L2_b7_sum_eltwise_top_L2_b7_relu_0_split_1
I0821 06:49:43.906699 32299 net.cpp:408] L2_b8_sum_eltwise -> L2_b8_sum_eltwise_top
I0821 06:49:43.906726 32299 net.cpp:150] Setting up L2_b8_sum_eltwise
I0821 06:49:43.906739 32299 net.cpp:157] Top shape: 125 32 16 16 (1024000)
I0821 06:49:43.906744 32299 net.cpp:165] Memory required for data: 1199617500
I0821 06:49:43.906749 32299 layer_factory.hpp:77] Creating layer L2_b8_relu
I0821 06:49:43.906759 32299 net.cpp:100] Creating Layer L2_b8_relu
I0821 06:49:43.906764 32299 net.cpp:434] L2_b8_relu <- L2_b8_sum_eltwise_top
I0821 06:49:43.906771 32299 net.cpp:395] L2_b8_relu -> L2_b8_sum_eltwise_top (in-place)
I0821 06:49:43.906781 32299 net.cpp:150] Setting up L2_b8_relu
I0821 06:49:43.906788 32299 net.cpp:157] Top shape: 125 32 16 16 (1024000)
I0821 06:49:43.906792 32299 net.cpp:165] Memory required for data: 1203713500
I0821 06:49:43.906797 32299 layer_factory.hpp:77] Creating layer L2_b8_sum_eltwise_top_L2_b8_relu_0_split
I0821 06:49:43.906807 32299 net.cpp:100] Creating Layer L2_b8_sum_eltwise_top_L2_b8_relu_0_split
I0821 06:49:43.906813 32299 net.cpp:434] L2_b8_sum_eltwise_top_L2_b8_relu_0_split <- L2_b8_sum_eltwise_top
I0821 06:49:43.906821 32299 net.cpp:408] L2_b8_sum_eltwise_top_L2_b8_relu_0_split -> L2_b8_sum_eltwise_top_L2_b8_relu_0_split_0
I0821 06:49:43.906844 32299 net.cpp:408] L2_b8_sum_eltwise_top_L2_b8_relu_0_split -> L2_b8_sum_eltwise_top_L2_b8_relu_0_split_1
I0821 06:49:43.906893 32299 net.cpp:150] Setting up L2_b8_sum_eltwise_top_L2_b8_relu_0_split
I0821 06:49:43.906908 32299 net.cpp:157] Top shape: 125 32 16 16 (1024000)
I0821 06:49:43.906914 32299 net.cpp:157] Top shape: 125 32 16 16 (1024000)
I0821 06:49:43.906919 32299 net.cpp:165] Memory required for data: 1211905500
I0821 06:49:43.906924 32299 layer_factory.hpp:77] Creating layer L2_b9_cbr1_conv
I0821 06:49:43.906936 32299 net.cpp:100] Creating Layer L2_b9_cbr1_conv
I0821 06:49:43.906942 32299 net.cpp:434] L2_b9_cbr1_conv <- L2_b8_sum_eltwise_top_L2_b8_relu_0_split_0
I0821 06:49:43.906952 32299 net.cpp:408] L2_b9_cbr1_conv -> L2_b9_cbr1_conv_top
I0821 06:49:43.907428 32299 net.cpp:150] Setting up L2_b9_cbr1_conv
I0821 06:49:43.907441 32299 net.cpp:157] Top shape: 125 32 16 16 (1024000)
I0821 06:49:43.907446 32299 net.cpp:165] Memory required for data: 1216001500
I0821 06:49:43.907456 32299 layer_factory.hpp:77] Creating layer L2_b9_cbr1_bn
I0821 06:49:43.907469 32299 net.cpp:100] Creating Layer L2_b9_cbr1_bn
I0821 06:49:43.907475 32299 net.cpp:434] L2_b9_cbr1_bn <- L2_b9_cbr1_conv_top
I0821 06:49:43.907485 32299 net.cpp:408] L2_b9_cbr1_bn -> L2_b9_cbr1_bn_top
I0821 06:49:43.907735 32299 net.cpp:150] Setting up L2_b9_cbr1_bn
I0821 06:49:43.907748 32299 net.cpp:157] Top shape: 125 32 16 16 (1024000)
I0821 06:49:43.907753 32299 net.cpp:165] Memory required for data: 1220097500
I0821 06:49:43.907771 32299 layer_factory.hpp:77] Creating layer L2_b9_cbr1_scale
I0821 06:49:43.907780 32299 net.cpp:100] Creating Layer L2_b9_cbr1_scale
I0821 06:49:43.907788 32299 net.cpp:434] L2_b9_cbr1_scale <- L2_b9_cbr1_bn_top
I0821 06:49:43.907799 32299 net.cpp:395] L2_b9_cbr1_scale -> L2_b9_cbr1_bn_top (in-place)
I0821 06:49:43.907855 32299 layer_factory.hpp:77] Creating layer L2_b9_cbr1_scale
I0821 06:49:43.908007 32299 net.cpp:150] Setting up L2_b9_cbr1_scale
I0821 06:49:43.908020 32299 net.cpp:157] Top shape: 125 32 16 16 (1024000)
I0821 06:49:43.908025 32299 net.cpp:165] Memory required for data: 1224193500
I0821 06:49:43.908035 32299 layer_factory.hpp:77] Creating layer L2_b9_cbr1_relu
I0821 06:49:43.908043 32299 net.cpp:100] Creating Layer L2_b9_cbr1_relu
I0821 06:49:43.908049 32299 net.cpp:434] L2_b9_cbr1_relu <- L2_b9_cbr1_bn_top
I0821 06:49:43.908062 32299 net.cpp:395] L2_b9_cbr1_relu -> L2_b9_cbr1_bn_top (in-place)
I0821 06:49:43.908072 32299 net.cpp:150] Setting up L2_b9_cbr1_relu
I0821 06:49:43.908080 32299 net.cpp:157] Top shape: 125 32 16 16 (1024000)
I0821 06:49:43.908084 32299 net.cpp:165] Memory required for data: 1228289500
I0821 06:49:43.908089 32299 layer_factory.hpp:77] Creating layer L2_b9_cbr2_conv
I0821 06:49:43.908103 32299 net.cpp:100] Creating Layer L2_b9_cbr2_conv
I0821 06:49:43.908109 32299 net.cpp:434] L2_b9_cbr2_conv <- L2_b9_cbr1_bn_top
I0821 06:49:43.908118 32299 net.cpp:408] L2_b9_cbr2_conv -> L2_b9_cbr2_conv_top
I0821 06:49:43.908591 32299 net.cpp:150] Setting up L2_b9_cbr2_conv
I0821 06:49:43.908604 32299 net.cpp:157] Top shape: 125 32 16 16 (1024000)
I0821 06:49:43.908609 32299 net.cpp:165] Memory required for data: 1232385500
I0821 06:49:43.908619 32299 layer_factory.hpp:77] Creating layer L2_b9_cbr2_bn
I0821 06:49:43.908632 32299 net.cpp:100] Creating Layer L2_b9_cbr2_bn
I0821 06:49:43.908638 32299 net.cpp:434] L2_b9_cbr2_bn <- L2_b9_cbr2_conv_top
I0821 06:49:43.908646 32299 net.cpp:408] L2_b9_cbr2_bn -> L2_b9_cbr2_bn_top
I0821 06:49:43.908900 32299 net.cpp:150] Setting up L2_b9_cbr2_bn
I0821 06:49:43.908912 32299 net.cpp:157] Top shape: 125 32 16 16 (1024000)
I0821 06:49:43.908917 32299 net.cpp:165] Memory required for data: 1236481500
I0821 06:49:43.908962 32299 layer_factory.hpp:77] Creating layer L2_b9_cbr2_scale
I0821 06:49:43.908974 32299 net.cpp:100] Creating Layer L2_b9_cbr2_scale
I0821 06:49:43.908982 32299 net.cpp:434] L2_b9_cbr2_scale <- L2_b9_cbr2_bn_top
I0821 06:49:43.908989 32299 net.cpp:395] L2_b9_cbr2_scale -> L2_b9_cbr2_bn_top (in-place)
I0821 06:49:43.909049 32299 layer_factory.hpp:77] Creating layer L2_b9_cbr2_scale
I0821 06:49:43.909201 32299 net.cpp:150] Setting up L2_b9_cbr2_scale
I0821 06:49:43.909214 32299 net.cpp:157] Top shape: 125 32 16 16 (1024000)
I0821 06:49:43.909219 32299 net.cpp:165] Memory required for data: 1240577500
I0821 06:49:43.909229 32299 layer_factory.hpp:77] Creating layer L2_b9_sum_eltwise
I0821 06:49:43.909238 32299 net.cpp:100] Creating Layer L2_b9_sum_eltwise
I0821 06:49:43.909245 32299 net.cpp:434] L2_b9_sum_eltwise <- L2_b9_cbr2_bn_top
I0821 06:49:43.909251 32299 net.cpp:434] L2_b9_sum_eltwise <- L2_b8_sum_eltwise_top_L2_b8_relu_0_split_1
I0821 06:49:43.909262 32299 net.cpp:408] L2_b9_sum_eltwise -> L2_b9_sum_eltwise_top
I0821 06:49:43.909291 32299 net.cpp:150] Setting up L2_b9_sum_eltwise
I0821 06:49:43.909301 32299 net.cpp:157] Top shape: 125 32 16 16 (1024000)
I0821 06:49:43.909306 32299 net.cpp:165] Memory required for data: 1244673500
I0821 06:49:43.909310 32299 layer_factory.hpp:77] Creating layer L2_b9_relu
I0821 06:49:43.909322 32299 net.cpp:100] Creating Layer L2_b9_relu
I0821 06:49:43.909332 32299 net.cpp:434] L2_b9_relu <- L2_b9_sum_eltwise_top
I0821 06:49:43.909342 32299 net.cpp:395] L2_b9_relu -> L2_b9_sum_eltwise_top (in-place)
I0821 06:49:43.909351 32299 net.cpp:150] Setting up L2_b9_relu
I0821 06:49:43.909359 32299 net.cpp:157] Top shape: 125 32 16 16 (1024000)
I0821 06:49:43.909363 32299 net.cpp:165] Memory required for data: 1248769500
I0821 06:49:43.909368 32299 layer_factory.hpp:77] Creating layer L2_b9_sum_eltwise_top_L2_b9_relu_0_split
I0821 06:49:43.909385 32299 net.cpp:100] Creating Layer L2_b9_sum_eltwise_top_L2_b9_relu_0_split
I0821 06:49:43.909391 32299 net.cpp:434] L2_b9_sum_eltwise_top_L2_b9_relu_0_split <- L2_b9_sum_eltwise_top
I0821 06:49:43.909399 32299 net.cpp:408] L2_b9_sum_eltwise_top_L2_b9_relu_0_split -> L2_b9_sum_eltwise_top_L2_b9_relu_0_split_0
I0821 06:49:43.909409 32299 net.cpp:408] L2_b9_sum_eltwise_top_L2_b9_relu_0_split -> L2_b9_sum_eltwise_top_L2_b9_relu_0_split_1
I0821 06:49:43.909458 32299 net.cpp:150] Setting up L2_b9_sum_eltwise_top_L2_b9_relu_0_split
I0821 06:49:43.909471 32299 net.cpp:157] Top shape: 125 32 16 16 (1024000)
I0821 06:49:43.909477 32299 net.cpp:157] Top shape: 125 32 16 16 (1024000)
I0821 06:49:43.909482 32299 net.cpp:165] Memory required for data: 1256961500
I0821 06:49:43.909487 32299 layer_factory.hpp:77] Creating layer L3_b1_cbr1_conv
I0821 06:49:43.909502 32299 net.cpp:100] Creating Layer L3_b1_cbr1_conv
I0821 06:49:43.909508 32299 net.cpp:434] L3_b1_cbr1_conv <- L2_b9_sum_eltwise_top_L2_b9_relu_0_split_0
I0821 06:49:43.909518 32299 net.cpp:408] L3_b1_cbr1_conv -> L3_b1_cbr1_conv_top
I0821 06:49:43.909996 32299 net.cpp:150] Setting up L3_b1_cbr1_conv
I0821 06:49:43.910009 32299 net.cpp:157] Top shape: 125 32 8 8 (256000)
I0821 06:49:43.910014 32299 net.cpp:165] Memory required for data: 1257985500
I0821 06:49:43.910023 32299 layer_factory.hpp:77] Creating layer L3_b1_cbr1_bn
I0821 06:49:43.910035 32299 net.cpp:100] Creating Layer L3_b1_cbr1_bn
I0821 06:49:43.910043 32299 net.cpp:434] L3_b1_cbr1_bn <- L3_b1_cbr1_conv_top
I0821 06:49:43.910050 32299 net.cpp:408] L3_b1_cbr1_bn -> L3_b1_cbr1_bn_top
I0821 06:49:43.910316 32299 net.cpp:150] Setting up L3_b1_cbr1_bn
I0821 06:49:43.910334 32299 net.cpp:157] Top shape: 125 32 8 8 (256000)
I0821 06:49:43.910341 32299 net.cpp:165] Memory required for data: 1259009500
I0821 06:49:43.910351 32299 layer_factory.hpp:77] Creating layer L3_b1_cbr1_scale
I0821 06:49:43.910360 32299 net.cpp:100] Creating Layer L3_b1_cbr1_scale
I0821 06:49:43.910367 32299 net.cpp:434] L3_b1_cbr1_scale <- L3_b1_cbr1_bn_top
I0821 06:49:43.910375 32299 net.cpp:395] L3_b1_cbr1_scale -> L3_b1_cbr1_bn_top (in-place)
I0821 06:49:43.910434 32299 layer_factory.hpp:77] Creating layer L3_b1_cbr1_scale
I0821 06:49:43.910590 32299 net.cpp:150] Setting up L3_b1_cbr1_scale
I0821 06:49:43.910604 32299 net.cpp:157] Top shape: 125 32 8 8 (256000)
I0821 06:49:43.910609 32299 net.cpp:165] Memory required for data: 1260033500
I0821 06:49:43.910617 32299 layer_factory.hpp:77] Creating layer L3_b1_cbr1_relu
I0821 06:49:43.910626 32299 net.cpp:100] Creating Layer L3_b1_cbr1_relu
I0821 06:49:43.910632 32299 net.cpp:434] L3_b1_cbr1_relu <- L3_b1_cbr1_bn_top
I0821 06:49:43.910642 32299 net.cpp:395] L3_b1_cbr1_relu -> L3_b1_cbr1_bn_top (in-place)
I0821 06:49:43.910653 32299 net.cpp:150] Setting up L3_b1_cbr1_relu
I0821 06:49:43.910660 32299 net.cpp:157] Top shape: 125 32 8 8 (256000)
I0821 06:49:43.910665 32299 net.cpp:165] Memory required for data: 1261057500
I0821 06:49:43.910670 32299 layer_factory.hpp:77] Creating layer L3_b1_cbr2_conv
I0821 06:49:43.910683 32299 net.cpp:100] Creating Layer L3_b1_cbr2_conv
I0821 06:49:43.910689 32299 net.cpp:434] L3_b1_cbr2_conv <- L3_b1_cbr1_bn_top
I0821 06:49:43.910699 32299 net.cpp:408] L3_b1_cbr2_conv -> L3_b1_cbr2_conv_top
I0821 06:49:43.911176 32299 net.cpp:150] Setting up L3_b1_cbr2_conv
I0821 06:49:43.911190 32299 net.cpp:157] Top shape: 125 32 8 8 (256000)
I0821 06:49:43.911195 32299 net.cpp:165] Memory required for data: 1262081500
I0821 06:49:43.911204 32299 layer_factory.hpp:77] Creating layer L3_b1_cbr2_bn
I0821 06:49:43.911216 32299 net.cpp:100] Creating Layer L3_b1_cbr2_bn
I0821 06:49:43.911223 32299 net.cpp:434] L3_b1_cbr2_bn <- L3_b1_cbr2_conv_top
I0821 06:49:43.911231 32299 net.cpp:408] L3_b1_cbr2_bn -> L3_b1_cbr2_bn_top
I0821 06:49:43.911502 32299 net.cpp:150] Setting up L3_b1_cbr2_bn
I0821 06:49:43.911516 32299 net.cpp:157] Top shape: 125 32 8 8 (256000)
I0821 06:49:43.911521 32299 net.cpp:165] Memory required for data: 1263105500
I0821 06:49:43.911538 32299 layer_factory.hpp:77] Creating layer L3_b1_cbr2_scale
I0821 06:49:43.911550 32299 net.cpp:100] Creating Layer L3_b1_cbr2_scale
I0821 06:49:43.911557 32299 net.cpp:434] L3_b1_cbr2_scale <- L3_b1_cbr2_bn_top
I0821 06:49:43.911566 32299 net.cpp:395] L3_b1_cbr2_scale -> L3_b1_cbr2_bn_top (in-place)
I0821 06:49:43.911625 32299 layer_factory.hpp:77] Creating layer L3_b1_cbr2_scale
I0821 06:49:43.911783 32299 net.cpp:150] Setting up L3_b1_cbr2_scale
I0821 06:49:43.911797 32299 net.cpp:157] Top shape: 125 32 8 8 (256000)
I0821 06:49:43.911801 32299 net.cpp:165] Memory required for data: 1264129500
I0821 06:49:43.911810 32299 layer_factory.hpp:77] Creating layer L3_b1_pool
I0821 06:49:43.911823 32299 net.cpp:100] Creating Layer L3_b1_pool
I0821 06:49:43.911829 32299 net.cpp:434] L3_b1_pool <- L2_b9_sum_eltwise_top_L2_b9_relu_0_split_1
I0821 06:49:43.911841 32299 net.cpp:408] L3_b1_pool -> L3_b1_pool
I0821 06:49:43.911876 32299 net.cpp:150] Setting up L3_b1_pool
I0821 06:49:43.911888 32299 net.cpp:157] Top shape: 125 32 8 8 (256000)
I0821 06:49:43.911893 32299 net.cpp:165] Memory required for data: 1265153500
I0821 06:49:43.911898 32299 layer_factory.hpp:77] Creating layer L3_b1_sum_eltwise
I0821 06:49:43.911911 32299 net.cpp:100] Creating Layer L3_b1_sum_eltwise
I0821 06:49:43.911917 32299 net.cpp:434] L3_b1_sum_eltwise <- L3_b1_cbr2_bn_top
I0821 06:49:43.911924 32299 net.cpp:434] L3_b1_sum_eltwise <- L3_b1_pool
I0821 06:49:43.911932 32299 net.cpp:408] L3_b1_sum_eltwise -> L3_b1_sum_eltwise_top
I0821 06:49:43.911964 32299 net.cpp:150] Setting up L3_b1_sum_eltwise
I0821 06:49:43.911974 32299 net.cpp:157] Top shape: 125 32 8 8 (256000)
I0821 06:49:43.911979 32299 net.cpp:165] Memory required for data: 1266177500
I0821 06:49:43.911984 32299 layer_factory.hpp:77] Creating layer L3_b1_relu
I0821 06:49:43.911993 32299 net.cpp:100] Creating Layer L3_b1_relu
I0821 06:49:43.911998 32299 net.cpp:434] L3_b1_relu <- L3_b1_sum_eltwise_top
I0821 06:49:43.912009 32299 net.cpp:395] L3_b1_relu -> L3_b1_sum_eltwise_top (in-place)
I0821 06:49:43.912019 32299 net.cpp:150] Setting up L3_b1_relu
I0821 06:49:43.912026 32299 net.cpp:157] Top shape: 125 32 8 8 (256000)
I0821 06:49:43.912030 32299 net.cpp:165] Memory required for data: 1267201500
I0821 06:49:43.912035 32299 layer_factory.hpp:77] Creating layer L3_b1_zeros
I0821 06:49:43.912045 32299 net.cpp:100] Creating Layer L3_b1_zeros
I0821 06:49:43.912052 32299 net.cpp:408] L3_b1_zeros -> L3_b1_zeros
I0821 06:49:43.913270 32299 net.cpp:150] Setting up L3_b1_zeros
I0821 06:49:43.913287 32299 net.cpp:157] Top shape: 125 32 8 8 (256000)
I0821 06:49:43.913293 32299 net.cpp:165] Memory required for data: 1268225500
I0821 06:49:43.913300 32299 layer_factory.hpp:77] Creating layer L3_b1_concat0
I0821 06:49:43.913311 32299 net.cpp:100] Creating Layer L3_b1_concat0
I0821 06:49:43.913318 32299 net.cpp:434] L3_b1_concat0 <- L3_b1_sum_eltwise_top
I0821 06:49:43.913326 32299 net.cpp:434] L3_b1_concat0 <- L3_b1_zeros
I0821 06:49:43.913341 32299 net.cpp:408] L3_b1_concat0 -> L3_b1_concat0
I0821 06:49:43.913384 32299 net.cpp:150] Setting up L3_b1_concat0
I0821 06:49:43.913396 32299 net.cpp:157] Top shape: 125 64 8 8 (512000)
I0821 06:49:43.913401 32299 net.cpp:165] Memory required for data: 1270273500
I0821 06:49:43.913408 32299 layer_factory.hpp:77] Creating layer L3_b1_concat0_L3_b1_concat0_0_split
I0821 06:49:43.913415 32299 net.cpp:100] Creating Layer L3_b1_concat0_L3_b1_concat0_0_split
I0821 06:49:43.913421 32299 net.cpp:434] L3_b1_concat0_L3_b1_concat0_0_split <- L3_b1_concat0
I0821 06:49:43.913432 32299 net.cpp:408] L3_b1_concat0_L3_b1_concat0_0_split -> L3_b1_concat0_L3_b1_concat0_0_split_0
I0821 06:49:43.913444 32299 net.cpp:408] L3_b1_concat0_L3_b1_concat0_0_split -> L3_b1_concat0_L3_b1_concat0_0_split_1
I0821 06:49:43.913494 32299 net.cpp:150] Setting up L3_b1_concat0_L3_b1_concat0_0_split
I0821 06:49:43.913506 32299 net.cpp:157] Top shape: 125 64 8 8 (512000)
I0821 06:49:43.913512 32299 net.cpp:157] Top shape: 125 64 8 8 (512000)
I0821 06:49:43.913524 32299 net.cpp:165] Memory required for data: 1274369500
I0821 06:49:43.913529 32299 layer_factory.hpp:77] Creating layer L3_b2_cbr1_conv
I0821 06:49:43.913542 32299 net.cpp:100] Creating Layer L3_b2_cbr1_conv
I0821 06:49:43.913548 32299 net.cpp:434] L3_b2_cbr1_conv <- L3_b1_concat0_L3_b1_concat0_0_split_0
I0821 06:49:43.913560 32299 net.cpp:408] L3_b2_cbr1_conv -> L3_b2_cbr1_conv_top
I0821 06:49:43.915539 32299 net.cpp:150] Setting up L3_b2_cbr1_conv
I0821 06:49:43.915556 32299 net.cpp:157] Top shape: 125 64 8 8 (512000)
I0821 06:49:43.915562 32299 net.cpp:165] Memory required for data: 1276417500
I0821 06:49:43.915572 32299 layer_factory.hpp:77] Creating layer L3_b2_cbr1_bn
I0821 06:49:43.915585 32299 net.cpp:100] Creating Layer L3_b2_cbr1_bn
I0821 06:49:43.915592 32299 net.cpp:434] L3_b2_cbr1_bn <- L3_b2_cbr1_conv_top
I0821 06:49:43.915603 32299 net.cpp:408] L3_b2_cbr1_bn -> L3_b2_cbr1_bn_top
I0821 06:49:43.915863 32299 net.cpp:150] Setting up L3_b2_cbr1_bn
I0821 06:49:43.915875 32299 net.cpp:157] Top shape: 125 64 8 8 (512000)
I0821 06:49:43.915880 32299 net.cpp:165] Memory required for data: 1278465500
I0821 06:49:43.915891 32299 layer_factory.hpp:77] Creating layer L3_b2_cbr1_scale
I0821 06:49:43.915901 32299 net.cpp:100] Creating Layer L3_b2_cbr1_scale
I0821 06:49:43.915907 32299 net.cpp:434] L3_b2_cbr1_scale <- L3_b2_cbr1_bn_top
I0821 06:49:43.915920 32299 net.cpp:395] L3_b2_cbr1_scale -> L3_b2_cbr1_bn_top (in-place)
I0821 06:49:43.915977 32299 layer_factory.hpp:77] Creating layer L3_b2_cbr1_scale
I0821 06:49:43.916131 32299 net.cpp:150] Setting up L3_b2_cbr1_scale
I0821 06:49:43.916143 32299 net.cpp:157] Top shape: 125 64 8 8 (512000)
I0821 06:49:43.916148 32299 net.cpp:165] Memory required for data: 1280513500
I0821 06:49:43.916157 32299 layer_factory.hpp:77] Creating layer L3_b2_cbr1_relu
I0821 06:49:43.916167 32299 net.cpp:100] Creating Layer L3_b2_cbr1_relu
I0821 06:49:43.916173 32299 net.cpp:434] L3_b2_cbr1_relu <- L3_b2_cbr1_bn_top
I0821 06:49:43.916183 32299 net.cpp:395] L3_b2_cbr1_relu -> L3_b2_cbr1_bn_top (in-place)
I0821 06:49:43.916194 32299 net.cpp:150] Setting up L3_b2_cbr1_relu
I0821 06:49:43.916201 32299 net.cpp:157] Top shape: 125 64 8 8 (512000)
I0821 06:49:43.916206 32299 net.cpp:165] Memory required for data: 1282561500
I0821 06:49:43.916211 32299 layer_factory.hpp:77] Creating layer L3_b2_cbr2_conv
I0821 06:49:43.916225 32299 net.cpp:100] Creating Layer L3_b2_cbr2_conv
I0821 06:49:43.916232 32299 net.cpp:434] L3_b2_cbr2_conv <- L3_b2_cbr1_bn_top
I0821 06:49:43.916241 32299 net.cpp:408] L3_b2_cbr2_conv -> L3_b2_cbr2_conv_top
I0821 06:49:43.917265 32299 net.cpp:150] Setting up L3_b2_cbr2_conv
I0821 06:49:43.917280 32299 net.cpp:157] Top shape: 125 64 8 8 (512000)
I0821 06:49:43.917285 32299 net.cpp:165] Memory required for data: 1284609500
I0821 06:49:43.917295 32299 layer_factory.hpp:77] Creating layer L3_b2_cbr2_bn
I0821 06:49:43.917307 32299 net.cpp:100] Creating Layer L3_b2_cbr2_bn
I0821 06:49:43.917315 32299 net.cpp:434] L3_b2_cbr2_bn <- L3_b2_cbr2_conv_top
I0821 06:49:43.917323 32299 net.cpp:408] L3_b2_cbr2_bn -> L3_b2_cbr2_bn_top
I0821 06:49:43.917594 32299 net.cpp:150] Setting up L3_b2_cbr2_bn
I0821 06:49:43.917608 32299 net.cpp:157] Top shape: 125 64 8 8 (512000)
I0821 06:49:43.917613 32299 net.cpp:165] Memory required for data: 1286657500
I0821 06:49:43.917624 32299 layer_factory.hpp:77] Creating layer L3_b2_cbr2_scale
I0821 06:49:43.917636 32299 net.cpp:100] Creating Layer L3_b2_cbr2_scale
I0821 06:49:43.917644 32299 net.cpp:434] L3_b2_cbr2_scale <- L3_b2_cbr2_bn_top
I0821 06:49:43.917654 32299 net.cpp:395] L3_b2_cbr2_scale -> L3_b2_cbr2_bn_top (in-place)
I0821 06:49:43.917711 32299 layer_factory.hpp:77] Creating layer L3_b2_cbr2_scale
I0821 06:49:43.917867 32299 net.cpp:150] Setting up L3_b2_cbr2_scale
I0821 06:49:43.917881 32299 net.cpp:157] Top shape: 125 64 8 8 (512000)
I0821 06:49:43.917884 32299 net.cpp:165] Memory required for data: 1288705500
I0821 06:49:43.917894 32299 layer_factory.hpp:77] Creating layer L3_b2_sum_eltwise
I0821 06:49:43.917904 32299 net.cpp:100] Creating Layer L3_b2_sum_eltwise
I0821 06:49:43.917918 32299 net.cpp:434] L3_b2_sum_eltwise <- L3_b2_cbr2_bn_top
I0821 06:49:43.917927 32299 net.cpp:434] L3_b2_sum_eltwise <- L3_b1_concat0_L3_b1_concat0_0_split_1
I0821 06:49:43.917937 32299 net.cpp:408] L3_b2_sum_eltwise -> L3_b2_sum_eltwise_top
I0821 06:49:43.917973 32299 net.cpp:150] Setting up L3_b2_sum_eltwise
I0821 06:49:43.917982 32299 net.cpp:157] Top shape: 125 64 8 8 (512000)
I0821 06:49:43.917986 32299 net.cpp:165] Memory required for data: 1290753500
I0821 06:49:43.917992 32299 layer_factory.hpp:77] Creating layer L3_b2_relu
I0821 06:49:43.918004 32299 net.cpp:100] Creating Layer L3_b2_relu
I0821 06:49:43.918009 32299 net.cpp:434] L3_b2_relu <- L3_b2_sum_eltwise_top
I0821 06:49:43.918016 32299 net.cpp:395] L3_b2_relu -> L3_b2_sum_eltwise_top (in-place)
I0821 06:49:43.918027 32299 net.cpp:150] Setting up L3_b2_relu
I0821 06:49:43.918035 32299 net.cpp:157] Top shape: 125 64 8 8 (512000)
I0821 06:49:43.918040 32299 net.cpp:165] Memory required for data: 1292801500
I0821 06:49:43.918043 32299 layer_factory.hpp:77] Creating layer L3_b2_sum_eltwise_top_L3_b2_relu_0_split
I0821 06:49:43.918051 32299 net.cpp:100] Creating Layer L3_b2_sum_eltwise_top_L3_b2_relu_0_split
I0821 06:49:43.918056 32299 net.cpp:434] L3_b2_sum_eltwise_top_L3_b2_relu_0_split <- L3_b2_sum_eltwise_top
I0821 06:49:43.918064 32299 net.cpp:408] L3_b2_sum_eltwise_top_L3_b2_relu_0_split -> L3_b2_sum_eltwise_top_L3_b2_relu_0_split_0
I0821 06:49:43.918074 32299 net.cpp:408] L3_b2_sum_eltwise_top_L3_b2_relu_0_split -> L3_b2_sum_eltwise_top_L3_b2_relu_0_split_1
I0821 06:49:43.918125 32299 net.cpp:150] Setting up L3_b2_sum_eltwise_top_L3_b2_relu_0_split
I0821 06:49:43.918138 32299 net.cpp:157] Top shape: 125 64 8 8 (512000)
I0821 06:49:43.918144 32299 net.cpp:157] Top shape: 125 64 8 8 (512000)
I0821 06:49:43.918148 32299 net.cpp:165] Memory required for data: 1296897500
I0821 06:49:43.918154 32299 layer_factory.hpp:77] Creating layer L3_b3_cbr1_conv
I0821 06:49:43.918169 32299 net.cpp:100] Creating Layer L3_b3_cbr1_conv
I0821 06:49:43.918175 32299 net.cpp:434] L3_b3_cbr1_conv <- L3_b2_sum_eltwise_top_L3_b2_relu_0_split_0
I0821 06:49:43.918185 32299 net.cpp:408] L3_b3_cbr1_conv -> L3_b3_cbr1_conv_top
I0821 06:49:43.919200 32299 net.cpp:150] Setting up L3_b3_cbr1_conv
I0821 06:49:43.919215 32299 net.cpp:157] Top shape: 125 64 8 8 (512000)
I0821 06:49:43.919221 32299 net.cpp:165] Memory required for data: 1298945500
I0821 06:49:43.919230 32299 layer_factory.hpp:77] Creating layer L3_b3_cbr1_bn
I0821 06:49:43.919244 32299 net.cpp:100] Creating Layer L3_b3_cbr1_bn
I0821 06:49:43.919250 32299 net.cpp:434] L3_b3_cbr1_bn <- L3_b3_cbr1_conv_top
I0821 06:49:43.919260 32299 net.cpp:408] L3_b3_cbr1_bn -> L3_b3_cbr1_bn_top
I0821 06:49:43.919528 32299 net.cpp:150] Setting up L3_b3_cbr1_bn
I0821 06:49:43.919541 32299 net.cpp:157] Top shape: 125 64 8 8 (512000)
I0821 06:49:43.919546 32299 net.cpp:165] Memory required for data: 1300993500
I0821 06:49:43.919558 32299 layer_factory.hpp:77] Creating layer L3_b3_cbr1_scale
I0821 06:49:43.919566 32299 net.cpp:100] Creating Layer L3_b3_cbr1_scale
I0821 06:49:43.919574 32299 net.cpp:434] L3_b3_cbr1_scale <- L3_b3_cbr1_bn_top
I0821 06:49:43.919585 32299 net.cpp:395] L3_b3_cbr1_scale -> L3_b3_cbr1_bn_top (in-place)
I0821 06:49:43.919646 32299 layer_factory.hpp:77] Creating layer L3_b3_cbr1_scale
I0821 06:49:43.919802 32299 net.cpp:150] Setting up L3_b3_cbr1_scale
I0821 06:49:43.919816 32299 net.cpp:157] Top shape: 125 64 8 8 (512000)
I0821 06:49:43.919821 32299 net.cpp:165] Memory required for data: 1303041500
I0821 06:49:43.919829 32299 layer_factory.hpp:77] Creating layer L3_b3_cbr1_relu
I0821 06:49:43.919838 32299 net.cpp:100] Creating Layer L3_b3_cbr1_relu
I0821 06:49:43.919844 32299 net.cpp:434] L3_b3_cbr1_relu <- L3_b3_cbr1_bn_top
I0821 06:49:43.919854 32299 net.cpp:395] L3_b3_cbr1_relu -> L3_b3_cbr1_bn_top (in-place)
I0821 06:49:43.919865 32299 net.cpp:150] Setting up L3_b3_cbr1_relu
I0821 06:49:43.919872 32299 net.cpp:157] Top shape: 125 64 8 8 (512000)
I0821 06:49:43.919883 32299 net.cpp:165] Memory required for data: 1305089500
I0821 06:49:43.919889 32299 layer_factory.hpp:77] Creating layer L3_b3_cbr2_conv
I0821 06:49:43.919903 32299 net.cpp:100] Creating Layer L3_b3_cbr2_conv
I0821 06:49:43.919910 32299 net.cpp:434] L3_b3_cbr2_conv <- L3_b3_cbr1_bn_top
I0821 06:49:43.919921 32299 net.cpp:408] L3_b3_cbr2_conv -> L3_b3_cbr2_conv_top
I0821 06:49:43.920946 32299 net.cpp:150] Setting up L3_b3_cbr2_conv
I0821 06:49:43.920961 32299 net.cpp:157] Top shape: 125 64 8 8 (512000)
I0821 06:49:43.920966 32299 net.cpp:165] Memory required for data: 1307137500
I0821 06:49:43.920975 32299 layer_factory.hpp:77] Creating layer L3_b3_cbr2_bn
I0821 06:49:43.920985 32299 net.cpp:100] Creating Layer L3_b3_cbr2_bn
I0821 06:49:43.920991 32299 net.cpp:434] L3_b3_cbr2_bn <- L3_b3_cbr2_conv_top
I0821 06:49:43.921003 32299 net.cpp:408] L3_b3_cbr2_bn -> L3_b3_cbr2_bn_top
I0821 06:49:43.921272 32299 net.cpp:150] Setting up L3_b3_cbr2_bn
I0821 06:49:43.921288 32299 net.cpp:157] Top shape: 125 64 8 8 (512000)
I0821 06:49:43.921293 32299 net.cpp:165] Memory required for data: 1309185500
I0821 06:49:43.921303 32299 layer_factory.hpp:77] Creating layer L3_b3_cbr2_scale
I0821 06:49:43.921313 32299 net.cpp:100] Creating Layer L3_b3_cbr2_scale
I0821 06:49:43.921319 32299 net.cpp:434] L3_b3_cbr2_scale <- L3_b3_cbr2_bn_top
I0821 06:49:43.921331 32299 net.cpp:395] L3_b3_cbr2_scale -> L3_b3_cbr2_bn_top (in-place)
I0821 06:49:43.921392 32299 layer_factory.hpp:77] Creating layer L3_b3_cbr2_scale
I0821 06:49:43.921547 32299 net.cpp:150] Setting up L3_b3_cbr2_scale
I0821 06:49:43.921561 32299 net.cpp:157] Top shape: 125 64 8 8 (512000)
I0821 06:49:43.921566 32299 net.cpp:165] Memory required for data: 1311233500
I0821 06:49:43.921574 32299 layer_factory.hpp:77] Creating layer L3_b3_sum_eltwise
I0821 06:49:43.921584 32299 net.cpp:100] Creating Layer L3_b3_sum_eltwise
I0821 06:49:43.921596 32299 net.cpp:434] L3_b3_sum_eltwise <- L3_b3_cbr2_bn_top
I0821 06:49:43.921603 32299 net.cpp:434] L3_b3_sum_eltwise <- L3_b2_sum_eltwise_top_L3_b2_relu_0_split_1
I0821 06:49:43.921612 32299 net.cpp:408] L3_b3_sum_eltwise -> L3_b3_sum_eltwise_top
I0821 06:49:43.921650 32299 net.cpp:150] Setting up L3_b3_sum_eltwise
I0821 06:49:43.921663 32299 net.cpp:157] Top shape: 125 64 8 8 (512000)
I0821 06:49:43.921669 32299 net.cpp:165] Memory required for data: 1313281500
I0821 06:49:43.921674 32299 layer_factory.hpp:77] Creating layer L3_b3_relu
I0821 06:49:43.921681 32299 net.cpp:100] Creating Layer L3_b3_relu
I0821 06:49:43.921687 32299 net.cpp:434] L3_b3_relu <- L3_b3_sum_eltwise_top
I0821 06:49:43.921695 32299 net.cpp:395] L3_b3_relu -> L3_b3_sum_eltwise_top (in-place)
I0821 06:49:43.921705 32299 net.cpp:150] Setting up L3_b3_relu
I0821 06:49:43.921712 32299 net.cpp:157] Top shape: 125 64 8 8 (512000)
I0821 06:49:43.921716 32299 net.cpp:165] Memory required for data: 1315329500
I0821 06:49:43.921721 32299 layer_factory.hpp:77] Creating layer L3_b3_sum_eltwise_top_L3_b3_relu_0_split
I0821 06:49:43.921730 32299 net.cpp:100] Creating Layer L3_b3_sum_eltwise_top_L3_b3_relu_0_split
I0821 06:49:43.921735 32299 net.cpp:434] L3_b3_sum_eltwise_top_L3_b3_relu_0_split <- L3_b3_sum_eltwise_top
I0821 06:49:43.921741 32299 net.cpp:408] L3_b3_sum_eltwise_top_L3_b3_relu_0_split -> L3_b3_sum_eltwise_top_L3_b3_relu_0_split_0
I0821 06:49:43.921752 32299 net.cpp:408] L3_b3_sum_eltwise_top_L3_b3_relu_0_split -> L3_b3_sum_eltwise_top_L3_b3_relu_0_split_1
I0821 06:49:43.921802 32299 net.cpp:150] Setting up L3_b3_sum_eltwise_top_L3_b3_relu_0_split
I0821 06:49:43.921813 32299 net.cpp:157] Top shape: 125 64 8 8 (512000)
I0821 06:49:43.921819 32299 net.cpp:157] Top shape: 125 64 8 8 (512000)
I0821 06:49:43.921824 32299 net.cpp:165] Memory required for data: 1319425500
I0821 06:49:43.921829 32299 layer_factory.hpp:77] Creating layer L3_b4_cbr1_conv
I0821 06:49:43.921844 32299 net.cpp:100] Creating Layer L3_b4_cbr1_conv
I0821 06:49:43.921850 32299 net.cpp:434] L3_b4_cbr1_conv <- L3_b3_sum_eltwise_top_L3_b3_relu_0_split_0
I0821 06:49:43.921860 32299 net.cpp:408] L3_b4_cbr1_conv -> L3_b4_cbr1_conv_top
I0821 06:49:43.922915 32299 net.cpp:150] Setting up L3_b4_cbr1_conv
I0821 06:49:43.922931 32299 net.cpp:157] Top shape: 125 64 8 8 (512000)
I0821 06:49:43.922936 32299 net.cpp:165] Memory required for data: 1321473500
I0821 06:49:43.922946 32299 layer_factory.hpp:77] Creating layer L3_b4_cbr1_bn
I0821 06:49:43.922955 32299 net.cpp:100] Creating Layer L3_b4_cbr1_bn
I0821 06:49:43.922962 32299 net.cpp:434] L3_b4_cbr1_bn <- L3_b4_cbr1_conv_top
I0821 06:49:43.922974 32299 net.cpp:408] L3_b4_cbr1_bn -> L3_b4_cbr1_bn_top
I0821 06:49:43.923243 32299 net.cpp:150] Setting up L3_b4_cbr1_bn
I0821 06:49:43.923255 32299 net.cpp:157] Top shape: 125 64 8 8 (512000)
I0821 06:49:43.923260 32299 net.cpp:165] Memory required for data: 1323521500
I0821 06:49:43.923272 32299 layer_factory.hpp:77] Creating layer L3_b4_cbr1_scale
I0821 06:49:43.923281 32299 net.cpp:100] Creating Layer L3_b4_cbr1_scale
I0821 06:49:43.923287 32299 net.cpp:434] L3_b4_cbr1_scale <- L3_b4_cbr1_bn_top
I0821 06:49:43.923298 32299 net.cpp:395] L3_b4_cbr1_scale -> L3_b4_cbr1_bn_top (in-place)
I0821 06:49:43.923363 32299 layer_factory.hpp:77] Creating layer L3_b4_cbr1_scale
I0821 06:49:43.923522 32299 net.cpp:150] Setting up L3_b4_cbr1_scale
I0821 06:49:43.923535 32299 net.cpp:157] Top shape: 125 64 8 8 (512000)
I0821 06:49:43.923540 32299 net.cpp:165] Memory required for data: 1325569500
I0821 06:49:43.923549 32299 layer_factory.hpp:77] Creating layer L3_b4_cbr1_relu
I0821 06:49:43.923562 32299 net.cpp:100] Creating Layer L3_b4_cbr1_relu
I0821 06:49:43.923568 32299 net.cpp:434] L3_b4_cbr1_relu <- L3_b4_cbr1_bn_top
I0821 06:49:43.923575 32299 net.cpp:395] L3_b4_cbr1_relu -> L3_b4_cbr1_bn_top (in-place)
I0821 06:49:43.923585 32299 net.cpp:150] Setting up L3_b4_cbr1_relu
I0821 06:49:43.923593 32299 net.cpp:157] Top shape: 125 64 8 8 (512000)
I0821 06:49:43.923598 32299 net.cpp:165] Memory required for data: 1327617500
I0821 06:49:43.923602 32299 layer_factory.hpp:77] Creating layer L3_b4_cbr2_conv
I0821 06:49:43.923616 32299 net.cpp:100] Creating Layer L3_b4_cbr2_conv
I0821 06:49:43.923622 32299 net.cpp:434] L3_b4_cbr2_conv <- L3_b4_cbr1_bn_top
I0821 06:49:43.923633 32299 net.cpp:408] L3_b4_cbr2_conv -> L3_b4_cbr2_conv_top
I0821 06:49:43.924667 32299 net.cpp:150] Setting up L3_b4_cbr2_conv
I0821 06:49:43.924682 32299 net.cpp:157] Top shape: 125 64 8 8 (512000)
I0821 06:49:43.924688 32299 net.cpp:165] Memory required for data: 1329665500
I0821 06:49:43.924697 32299 layer_factory.hpp:77] Creating layer L3_b4_cbr2_bn
I0821 06:49:43.924707 32299 net.cpp:100] Creating Layer L3_b4_cbr2_bn
I0821 06:49:43.924713 32299 net.cpp:434] L3_b4_cbr2_bn <- L3_b4_cbr2_conv_top
I0821 06:49:43.924726 32299 net.cpp:408] L3_b4_cbr2_bn -> L3_b4_cbr2_bn_top
I0821 06:49:43.924998 32299 net.cpp:150] Setting up L3_b4_cbr2_bn
I0821 06:49:43.925014 32299 net.cpp:157] Top shape: 125 64 8 8 (512000)
I0821 06:49:43.925019 32299 net.cpp:165] Memory required for data: 1331713500
I0821 06:49:43.925029 32299 layer_factory.hpp:77] Creating layer L3_b4_cbr2_scale
I0821 06:49:43.925038 32299 net.cpp:100] Creating Layer L3_b4_cbr2_scale
I0821 06:49:43.925045 32299 net.cpp:434] L3_b4_cbr2_scale <- L3_b4_cbr2_bn_top
I0821 06:49:43.925052 32299 net.cpp:395] L3_b4_cbr2_scale -> L3_b4_cbr2_bn_top (in-place)
I0821 06:49:43.925110 32299 layer_factory.hpp:77] Creating layer L3_b4_cbr2_scale
I0821 06:49:43.925274 32299 net.cpp:150] Setting up L3_b4_cbr2_scale
I0821 06:49:43.925287 32299 net.cpp:157] Top shape: 125 64 8 8 (512000)
I0821 06:49:43.925292 32299 net.cpp:165] Memory required for data: 1333761500
I0821 06:49:43.925302 32299 layer_factory.hpp:77] Creating layer L3_b4_sum_eltwise
I0821 06:49:43.925314 32299 net.cpp:100] Creating Layer L3_b4_sum_eltwise
I0821 06:49:43.925320 32299 net.cpp:434] L3_b4_sum_eltwise <- L3_b4_cbr2_bn_top
I0821 06:49:43.925333 32299 net.cpp:434] L3_b4_sum_eltwise <- L3_b3_sum_eltwise_top_L3_b3_relu_0_split_1
I0821 06:49:43.925343 32299 net.cpp:408] L3_b4_sum_eltwise -> L3_b4_sum_eltwise_top
I0821 06:49:43.925382 32299 net.cpp:150] Setting up L3_b4_sum_eltwise
I0821 06:49:43.925398 32299 net.cpp:157] Top shape: 125 64 8 8 (512000)
I0821 06:49:43.925405 32299 net.cpp:165] Memory required for data: 1335809500
I0821 06:49:43.925410 32299 layer_factory.hpp:77] Creating layer L3_b4_relu
I0821 06:49:43.925417 32299 net.cpp:100] Creating Layer L3_b4_relu
I0821 06:49:43.925423 32299 net.cpp:434] L3_b4_relu <- L3_b4_sum_eltwise_top
I0821 06:49:43.925431 32299 net.cpp:395] L3_b4_relu -> L3_b4_sum_eltwise_top (in-place)
I0821 06:49:43.925441 32299 net.cpp:150] Setting up L3_b4_relu
I0821 06:49:43.925448 32299 net.cpp:157] Top shape: 125 64 8 8 (512000)
I0821 06:49:43.925452 32299 net.cpp:165] Memory required for data: 1337857500
I0821 06:49:43.925457 32299 layer_factory.hpp:77] Creating layer L3_b4_sum_eltwise_top_L3_b4_relu_0_split
I0821 06:49:43.925464 32299 net.cpp:100] Creating Layer L3_b4_sum_eltwise_top_L3_b4_relu_0_split
I0821 06:49:43.925469 32299 net.cpp:434] L3_b4_sum_eltwise_top_L3_b4_relu_0_split <- L3_b4_sum_eltwise_top
I0821 06:49:43.925480 32299 net.cpp:408] L3_b4_sum_eltwise_top_L3_b4_relu_0_split -> L3_b4_sum_eltwise_top_L3_b4_relu_0_split_0
I0821 06:49:43.925492 32299 net.cpp:408] L3_b4_sum_eltwise_top_L3_b4_relu_0_split -> L3_b4_sum_eltwise_top_L3_b4_relu_0_split_1
I0821 06:49:43.925539 32299 net.cpp:150] Setting up L3_b4_sum_eltwise_top_L3_b4_relu_0_split
I0821 06:49:43.925550 32299 net.cpp:157] Top shape: 125 64 8 8 (512000)
I0821 06:49:43.925557 32299 net.cpp:157] Top shape: 125 64 8 8 (512000)
I0821 06:49:43.925561 32299 net.cpp:165] Memory required for data: 1341953500
I0821 06:49:43.925567 32299 layer_factory.hpp:77] Creating layer L3_b5_cbr1_conv
I0821 06:49:43.925581 32299 net.cpp:100] Creating Layer L3_b5_cbr1_conv
I0821 06:49:43.925588 32299 net.cpp:434] L3_b5_cbr1_conv <- L3_b4_sum_eltwise_top_L3_b4_relu_0_split_0
I0821 06:49:43.925597 32299 net.cpp:408] L3_b5_cbr1_conv -> L3_b5_cbr1_conv_top
I0821 06:49:43.926646 32299 net.cpp:150] Setting up L3_b5_cbr1_conv
I0821 06:49:43.926662 32299 net.cpp:157] Top shape: 125 64 8 8 (512000)
I0821 06:49:43.926667 32299 net.cpp:165] Memory required for data: 1344001500
I0821 06:49:43.926677 32299 layer_factory.hpp:77] Creating layer L3_b5_cbr1_bn
I0821 06:49:43.926690 32299 net.cpp:100] Creating Layer L3_b5_cbr1_bn
I0821 06:49:43.926697 32299 net.cpp:434] L3_b5_cbr1_bn <- L3_b5_cbr1_conv_top
I0821 06:49:43.926707 32299 net.cpp:408] L3_b5_cbr1_bn -> L3_b5_cbr1_bn_top
I0821 06:49:43.927944 32299 net.cpp:150] Setting up L3_b5_cbr1_bn
I0821 06:49:43.927963 32299 net.cpp:157] Top shape: 125 64 8 8 (512000)
I0821 06:49:43.927969 32299 net.cpp:165] Memory required for data: 1346049500
I0821 06:49:43.927981 32299 layer_factory.hpp:77] Creating layer L3_b5_cbr1_scale
I0821 06:49:43.927991 32299 net.cpp:100] Creating Layer L3_b5_cbr1_scale
I0821 06:49:43.927999 32299 net.cpp:434] L3_b5_cbr1_scale <- L3_b5_cbr1_bn_top
I0821 06:49:43.928009 32299 net.cpp:395] L3_b5_cbr1_scale -> L3_b5_cbr1_bn_top (in-place)
I0821 06:49:43.928071 32299 layer_factory.hpp:77] Creating layer L3_b5_cbr1_scale
I0821 06:49:43.928230 32299 net.cpp:150] Setting up L3_b5_cbr1_scale
I0821 06:49:43.928242 32299 net.cpp:157] Top shape: 125 64 8 8 (512000)
I0821 06:49:43.928247 32299 net.cpp:165] Memory required for data: 1348097500
I0821 06:49:43.928257 32299 layer_factory.hpp:77] Creating layer L3_b5_cbr1_relu
I0821 06:49:43.928268 32299 net.cpp:100] Creating Layer L3_b5_cbr1_relu
I0821 06:49:43.928275 32299 net.cpp:434] L3_b5_cbr1_relu <- L3_b5_cbr1_bn_top
I0821 06:49:43.928282 32299 net.cpp:395] L3_b5_cbr1_relu -> L3_b5_cbr1_bn_top (in-place)
I0821 06:49:43.928293 32299 net.cpp:150] Setting up L3_b5_cbr1_relu
I0821 06:49:43.928300 32299 net.cpp:157] Top shape: 125 64 8 8 (512000)
I0821 06:49:43.928305 32299 net.cpp:165] Memory required for data: 1350145500
I0821 06:49:43.928310 32299 layer_factory.hpp:77] Creating layer L3_b5_cbr2_conv
I0821 06:49:43.928324 32299 net.cpp:100] Creating Layer L3_b5_cbr2_conv
I0821 06:49:43.928336 32299 net.cpp:434] L3_b5_cbr2_conv <- L3_b5_cbr1_bn_top
I0821 06:49:43.928347 32299 net.cpp:408] L3_b5_cbr2_conv -> L3_b5_cbr2_conv_top
I0821 06:49:43.930343 32299 net.cpp:150] Setting up L3_b5_cbr2_conv
I0821 06:49:43.930366 32299 net.cpp:157] Top shape: 125 64 8 8 (512000)
I0821 06:49:43.930371 32299 net.cpp:165] Memory required for data: 1352193500
I0821 06:49:43.930382 32299 layer_factory.hpp:77] Creating layer L3_b5_cbr2_bn
I0821 06:49:43.930392 32299 net.cpp:100] Creating Layer L3_b5_cbr2_bn
I0821 06:49:43.930399 32299 net.cpp:434] L3_b5_cbr2_bn <- L3_b5_cbr2_conv_top
I0821 06:49:43.930410 32299 net.cpp:408] L3_b5_cbr2_bn -> L3_b5_cbr2_bn_top
I0821 06:49:43.930680 32299 net.cpp:150] Setting up L3_b5_cbr2_bn
I0821 06:49:43.930696 32299 net.cpp:157] Top shape: 125 64 8 8 (512000)
I0821 06:49:43.930701 32299 net.cpp:165] Memory required for data: 1354241500
I0821 06:49:43.930711 32299 layer_factory.hpp:77] Creating layer L3_b5_cbr2_scale
I0821 06:49:43.930721 32299 net.cpp:100] Creating Layer L3_b5_cbr2_scale
I0821 06:49:43.930727 32299 net.cpp:434] L3_b5_cbr2_scale <- L3_b5_cbr2_bn_top
I0821 06:49:43.930735 32299 net.cpp:395] L3_b5_cbr2_scale -> L3_b5_cbr2_bn_top (in-place)
I0821 06:49:43.930794 32299 layer_factory.hpp:77] Creating layer L3_b5_cbr2_scale
I0821 06:49:43.930946 32299 net.cpp:150] Setting up L3_b5_cbr2_scale
I0821 06:49:43.930959 32299 net.cpp:157] Top shape: 125 64 8 8 (512000)
I0821 06:49:43.930964 32299 net.cpp:165] Memory required for data: 1356289500
I0821 06:49:43.930974 32299 layer_factory.hpp:77] Creating layer L3_b5_sum_eltwise
I0821 06:49:43.930986 32299 net.cpp:100] Creating Layer L3_b5_sum_eltwise
I0821 06:49:43.930994 32299 net.cpp:434] L3_b5_sum_eltwise <- L3_b5_cbr2_bn_top
I0821 06:49:43.931001 32299 net.cpp:434] L3_b5_sum_eltwise <- L3_b4_sum_eltwise_top_L3_b4_relu_0_split_1
I0821 06:49:43.931010 32299 net.cpp:408] L3_b5_sum_eltwise -> L3_b5_sum_eltwise_top
I0821 06:49:43.931046 32299 net.cpp:150] Setting up L3_b5_sum_eltwise
I0821 06:49:43.931056 32299 net.cpp:157] Top shape: 125 64 8 8 (512000)
I0821 06:49:43.931061 32299 net.cpp:165] Memory required for data: 1358337500
I0821 06:49:43.931067 32299 layer_factory.hpp:77] Creating layer L3_b5_relu
I0821 06:49:43.931076 32299 net.cpp:100] Creating Layer L3_b5_relu
I0821 06:49:43.931082 32299 net.cpp:434] L3_b5_relu <- L3_b5_sum_eltwise_top
I0821 06:49:43.931088 32299 net.cpp:395] L3_b5_relu -> L3_b5_sum_eltwise_top (in-place)
I0821 06:49:43.931098 32299 net.cpp:150] Setting up L3_b5_relu
I0821 06:49:43.931105 32299 net.cpp:157] Top shape: 125 64 8 8 (512000)
I0821 06:49:43.931110 32299 net.cpp:165] Memory required for data: 1360385500
I0821 06:49:43.931114 32299 layer_factory.hpp:77] Creating layer L3_b5_sum_eltwise_top_L3_b5_relu_0_split
I0821 06:49:43.931121 32299 net.cpp:100] Creating Layer L3_b5_sum_eltwise_top_L3_b5_relu_0_split
I0821 06:49:43.931128 32299 net.cpp:434] L3_b5_sum_eltwise_top_L3_b5_relu_0_split <- L3_b5_sum_eltwise_top
I0821 06:49:43.931138 32299 net.cpp:408] L3_b5_sum_eltwise_top_L3_b5_relu_0_split -> L3_b5_sum_eltwise_top_L3_b5_relu_0_split_0
I0821 06:49:43.931149 32299 net.cpp:408] L3_b5_sum_eltwise_top_L3_b5_relu_0_split -> L3_b5_sum_eltwise_top_L3_b5_relu_0_split_1
I0821 06:49:43.931195 32299 net.cpp:150] Setting up L3_b5_sum_eltwise_top_L3_b5_relu_0_split
I0821 06:49:43.931205 32299 net.cpp:157] Top shape: 125 64 8 8 (512000)
I0821 06:49:43.931212 32299 net.cpp:157] Top shape: 125 64 8 8 (512000)
I0821 06:49:43.931216 32299 net.cpp:165] Memory required for data: 1364481500
I0821 06:49:43.931221 32299 layer_factory.hpp:77] Creating layer L3_b6_cbr1_conv
I0821 06:49:43.931236 32299 net.cpp:100] Creating Layer L3_b6_cbr1_conv
I0821 06:49:43.931242 32299 net.cpp:434] L3_b6_cbr1_conv <- L3_b5_sum_eltwise_top_L3_b5_relu_0_split_0
I0821 06:49:43.931252 32299 net.cpp:408] L3_b6_cbr1_conv -> L3_b6_cbr1_conv_top
I0821 06:49:43.932273 32299 net.cpp:150] Setting up L3_b6_cbr1_conv
I0821 06:49:43.932288 32299 net.cpp:157] Top shape: 125 64 8 8 (512000)
I0821 06:49:43.932294 32299 net.cpp:165] Memory required for data: 1366529500
I0821 06:49:43.932303 32299 layer_factory.hpp:77] Creating layer L3_b6_cbr1_bn
I0821 06:49:43.932317 32299 net.cpp:100] Creating Layer L3_b6_cbr1_bn
I0821 06:49:43.932335 32299 net.cpp:434] L3_b6_cbr1_bn <- L3_b6_cbr1_conv_top
I0821 06:49:43.932346 32299 net.cpp:408] L3_b6_cbr1_bn -> L3_b6_cbr1_bn_top
I0821 06:49:43.932612 32299 net.cpp:150] Setting up L3_b6_cbr1_bn
I0821 06:49:43.932626 32299 net.cpp:157] Top shape: 125 64 8 8 (512000)
I0821 06:49:43.932631 32299 net.cpp:165] Memory required for data: 1368577500
I0821 06:49:43.932641 32299 layer_factory.hpp:77] Creating layer L3_b6_cbr1_scale
I0821 06:49:43.932651 32299 net.cpp:100] Creating Layer L3_b6_cbr1_scale
I0821 06:49:43.932657 32299 net.cpp:434] L3_b6_cbr1_scale <- L3_b6_cbr1_bn_top
I0821 06:49:43.932668 32299 net.cpp:395] L3_b6_cbr1_scale -> L3_b6_cbr1_bn_top (in-place)
I0821 06:49:43.932725 32299 layer_factory.hpp:77] Creating layer L3_b6_cbr1_scale
I0821 06:49:43.932883 32299 net.cpp:150] Setting up L3_b6_cbr1_scale
I0821 06:49:43.932895 32299 net.cpp:157] Top shape: 125 64 8 8 (512000)
I0821 06:49:43.932900 32299 net.cpp:165] Memory required for data: 1370625500
I0821 06:49:43.932910 32299 layer_factory.hpp:77] Creating layer L3_b6_cbr1_relu
I0821 06:49:43.932921 32299 net.cpp:100] Creating Layer L3_b6_cbr1_relu
I0821 06:49:43.932929 32299 net.cpp:434] L3_b6_cbr1_relu <- L3_b6_cbr1_bn_top
I0821 06:49:43.932935 32299 net.cpp:395] L3_b6_cbr1_relu -> L3_b6_cbr1_bn_top (in-place)
I0821 06:49:43.932945 32299 net.cpp:150] Setting up L3_b6_cbr1_relu
I0821 06:49:43.932953 32299 net.cpp:157] Top shape: 125 64 8 8 (512000)
I0821 06:49:43.932957 32299 net.cpp:165] Memory required for data: 1372673500
I0821 06:49:43.932962 32299 layer_factory.hpp:77] Creating layer L3_b6_cbr2_conv
I0821 06:49:43.932977 32299 net.cpp:100] Creating Layer L3_b6_cbr2_conv
I0821 06:49:43.932983 32299 net.cpp:434] L3_b6_cbr2_conv <- L3_b6_cbr1_bn_top
I0821 06:49:43.932994 32299 net.cpp:408] L3_b6_cbr2_conv -> L3_b6_cbr2_conv_top
I0821 06:49:43.934010 32299 net.cpp:150] Setting up L3_b6_cbr2_conv
I0821 06:49:43.934025 32299 net.cpp:157] Top shape: 125 64 8 8 (512000)
I0821 06:49:43.934029 32299 net.cpp:165] Memory required for data: 1374721500
I0821 06:49:43.934038 32299 layer_factory.hpp:77] Creating layer L3_b6_cbr2_bn
I0821 06:49:43.934048 32299 net.cpp:100] Creating Layer L3_b6_cbr2_bn
I0821 06:49:43.934056 32299 net.cpp:434] L3_b6_cbr2_bn <- L3_b6_cbr2_conv_top
I0821 06:49:43.934067 32299 net.cpp:408] L3_b6_cbr2_bn -> L3_b6_cbr2_bn_top
I0821 06:49:43.934334 32299 net.cpp:150] Setting up L3_b6_cbr2_bn
I0821 06:49:43.934350 32299 net.cpp:157] Top shape: 125 64 8 8 (512000)
I0821 06:49:43.934355 32299 net.cpp:165] Memory required for data: 1376769500
I0821 06:49:43.934366 32299 layer_factory.hpp:77] Creating layer L3_b6_cbr2_scale
I0821 06:49:43.934376 32299 net.cpp:100] Creating Layer L3_b6_cbr2_scale
I0821 06:49:43.934382 32299 net.cpp:434] L3_b6_cbr2_scale <- L3_b6_cbr2_bn_top
I0821 06:49:43.934391 32299 net.cpp:395] L3_b6_cbr2_scale -> L3_b6_cbr2_bn_top (in-place)
I0821 06:49:43.934448 32299 layer_factory.hpp:77] Creating layer L3_b6_cbr2_scale
I0821 06:49:43.934600 32299 net.cpp:150] Setting up L3_b6_cbr2_scale
I0821 06:49:43.934612 32299 net.cpp:157] Top shape: 125 64 8 8 (512000)
I0821 06:49:43.934617 32299 net.cpp:165] Memory required for data: 1378817500
I0821 06:49:43.934626 32299 layer_factory.hpp:77] Creating layer L3_b6_sum_eltwise
I0821 06:49:43.934641 32299 net.cpp:100] Creating Layer L3_b6_sum_eltwise
I0821 06:49:43.934648 32299 net.cpp:434] L3_b6_sum_eltwise <- L3_b6_cbr2_bn_top
I0821 06:49:43.934655 32299 net.cpp:434] L3_b6_sum_eltwise <- L3_b5_sum_eltwise_top_L3_b5_relu_0_split_1
I0821 06:49:43.934664 32299 net.cpp:408] L3_b6_sum_eltwise -> L3_b6_sum_eltwise_top
I0821 06:49:43.934700 32299 net.cpp:150] Setting up L3_b6_sum_eltwise
I0821 06:49:43.934711 32299 net.cpp:157] Top shape: 125 64 8 8 (512000)
I0821 06:49:43.934716 32299 net.cpp:165] Memory required for data: 1380865500
I0821 06:49:43.934721 32299 layer_factory.hpp:77] Creating layer L3_b6_relu
I0821 06:49:43.934729 32299 net.cpp:100] Creating Layer L3_b6_relu
I0821 06:49:43.934736 32299 net.cpp:434] L3_b6_relu <- L3_b6_sum_eltwise_top
I0821 06:49:43.934749 32299 net.cpp:395] L3_b6_relu -> L3_b6_sum_eltwise_top (in-place)
I0821 06:49:43.934759 32299 net.cpp:150] Setting up L3_b6_relu
I0821 06:49:43.934767 32299 net.cpp:157] Top shape: 125 64 8 8 (512000)
I0821 06:49:43.934772 32299 net.cpp:165] Memory required for data: 1382913500
I0821 06:49:43.934777 32299 layer_factory.hpp:77] Creating layer L3_b6_sum_eltwise_top_L3_b6_relu_0_split
I0821 06:49:43.934784 32299 net.cpp:100] Creating Layer L3_b6_sum_eltwise_top_L3_b6_relu_0_split
I0821 06:49:43.934789 32299 net.cpp:434] L3_b6_sum_eltwise_top_L3_b6_relu_0_split <- L3_b6_sum_eltwise_top
I0821 06:49:43.934800 32299 net.cpp:408] L3_b6_sum_eltwise_top_L3_b6_relu_0_split -> L3_b6_sum_eltwise_top_L3_b6_relu_0_split_0
I0821 06:49:43.934810 32299 net.cpp:408] L3_b6_sum_eltwise_top_L3_b6_relu_0_split -> L3_b6_sum_eltwise_top_L3_b6_relu_0_split_1
I0821 06:49:43.934857 32299 net.cpp:150] Setting up L3_b6_sum_eltwise_top_L3_b6_relu_0_split
I0821 06:49:43.934870 32299 net.cpp:157] Top shape: 125 64 8 8 (512000)
I0821 06:49:43.934876 32299 net.cpp:157] Top shape: 125 64 8 8 (512000)
I0821 06:49:43.934880 32299 net.cpp:165] Memory required for data: 1387009500
I0821 06:49:43.934885 32299 layer_factory.hpp:77] Creating layer L3_b7_cbr1_conv
I0821 06:49:43.934900 32299 net.cpp:100] Creating Layer L3_b7_cbr1_conv
I0821 06:49:43.934906 32299 net.cpp:434] L3_b7_cbr1_conv <- L3_b6_sum_eltwise_top_L3_b6_relu_0_split_0
I0821 06:49:43.934916 32299 net.cpp:408] L3_b7_cbr1_conv -> L3_b7_cbr1_conv_top
I0821 06:49:43.935940 32299 net.cpp:150] Setting up L3_b7_cbr1_conv
I0821 06:49:43.935955 32299 net.cpp:157] Top shape: 125 64 8 8 (512000)
I0821 06:49:43.935961 32299 net.cpp:165] Memory required for data: 1389057500
I0821 06:49:43.935969 32299 layer_factory.hpp:77] Creating layer L3_b7_cbr1_bn
I0821 06:49:43.935982 32299 net.cpp:100] Creating Layer L3_b7_cbr1_bn
I0821 06:49:43.935989 32299 net.cpp:434] L3_b7_cbr1_bn <- L3_b7_cbr1_conv_top
I0821 06:49:43.935997 32299 net.cpp:408] L3_b7_cbr1_bn -> L3_b7_cbr1_bn_top
I0821 06:49:43.936259 32299 net.cpp:150] Setting up L3_b7_cbr1_bn
I0821 06:49:43.936272 32299 net.cpp:157] Top shape: 125 64 8 8 (512000)
I0821 06:49:43.936277 32299 net.cpp:165] Memory required for data: 1391105500
I0821 06:49:43.936287 32299 layer_factory.hpp:77] Creating layer L3_b7_cbr1_scale
I0821 06:49:43.936300 32299 net.cpp:100] Creating Layer L3_b7_cbr1_scale
I0821 06:49:43.936306 32299 net.cpp:434] L3_b7_cbr1_scale <- L3_b7_cbr1_bn_top
I0821 06:49:43.936314 32299 net.cpp:395] L3_b7_cbr1_scale -> L3_b7_cbr1_bn_top (in-place)
I0821 06:49:43.936381 32299 layer_factory.hpp:77] Creating layer L3_b7_cbr1_scale
I0821 06:49:43.936542 32299 net.cpp:150] Setting up L3_b7_cbr1_scale
I0821 06:49:43.936554 32299 net.cpp:157] Top shape: 125 64 8 8 (512000)
I0821 06:49:43.936559 32299 net.cpp:165] Memory required for data: 1393153500
I0821 06:49:43.936568 32299 layer_factory.hpp:77] Creating layer L3_b7_cbr1_relu
I0821 06:49:43.936604 32299 net.cpp:100] Creating Layer L3_b7_cbr1_relu
I0821 06:49:43.936614 32299 net.cpp:434] L3_b7_cbr1_relu <- L3_b7_cbr1_bn_top
I0821 06:49:43.936622 32299 net.cpp:395] L3_b7_cbr1_relu -> L3_b7_cbr1_bn_top (in-place)
I0821 06:49:43.936632 32299 net.cpp:150] Setting up L3_b7_cbr1_relu
I0821 06:49:43.936640 32299 net.cpp:157] Top shape: 125 64 8 8 (512000)
I0821 06:49:43.936645 32299 net.cpp:165] Memory required for data: 1395201500
I0821 06:49:43.936650 32299 layer_factory.hpp:77] Creating layer L3_b7_cbr2_conv
I0821 06:49:43.936662 32299 net.cpp:100] Creating Layer L3_b7_cbr2_conv
I0821 06:49:43.936667 32299 net.cpp:434] L3_b7_cbr2_conv <- L3_b7_cbr1_bn_top
I0821 06:49:43.936676 32299 net.cpp:408] L3_b7_cbr2_conv -> L3_b7_cbr2_conv_top
I0821 06:49:43.937702 32299 net.cpp:150] Setting up L3_b7_cbr2_conv
I0821 06:49:43.937717 32299 net.cpp:157] Top shape: 125 64 8 8 (512000)
I0821 06:49:43.937722 32299 net.cpp:165] Memory required for data: 1397249500
I0821 06:49:43.937732 32299 layer_factory.hpp:77] Creating layer L3_b7_cbr2_bn
I0821 06:49:43.937741 32299 net.cpp:100] Creating Layer L3_b7_cbr2_bn
I0821 06:49:43.937754 32299 net.cpp:434] L3_b7_cbr2_bn <- L3_b7_cbr2_conv_top
I0821 06:49:43.937767 32299 net.cpp:408] L3_b7_cbr2_bn -> L3_b7_cbr2_bn_top
I0821 06:49:43.938030 32299 net.cpp:150] Setting up L3_b7_cbr2_bn
I0821 06:49:43.938042 32299 net.cpp:157] Top shape: 125 64 8 8 (512000)
I0821 06:49:43.938047 32299 net.cpp:165] Memory required for data: 1399297500
I0821 06:49:43.938058 32299 layer_factory.hpp:77] Creating layer L3_b7_cbr2_scale
I0821 06:49:43.938067 32299 net.cpp:100] Creating Layer L3_b7_cbr2_scale
I0821 06:49:43.938073 32299 net.cpp:434] L3_b7_cbr2_scale <- L3_b7_cbr2_bn_top
I0821 06:49:43.938084 32299 net.cpp:395] L3_b7_cbr2_scale -> L3_b7_cbr2_bn_top (in-place)
I0821 06:49:43.938141 32299 layer_factory.hpp:77] Creating layer L3_b7_cbr2_scale
I0821 06:49:43.938298 32299 net.cpp:150] Setting up L3_b7_cbr2_scale
I0821 06:49:43.938311 32299 net.cpp:157] Top shape: 125 64 8 8 (512000)
I0821 06:49:43.938316 32299 net.cpp:165] Memory required for data: 1401345500
I0821 06:49:43.938325 32299 layer_factory.hpp:77] Creating layer L3_b7_sum_eltwise
I0821 06:49:43.938344 32299 net.cpp:100] Creating Layer L3_b7_sum_eltwise
I0821 06:49:43.938351 32299 net.cpp:434] L3_b7_sum_eltwise <- L3_b7_cbr2_bn_top
I0821 06:49:43.938359 32299 net.cpp:434] L3_b7_sum_eltwise <- L3_b6_sum_eltwise_top_L3_b6_relu_0_split_1
I0821 06:49:43.938367 32299 net.cpp:408] L3_b7_sum_eltwise -> L3_b7_sum_eltwise_top
I0821 06:49:43.938406 32299 net.cpp:150] Setting up L3_b7_sum_eltwise
I0821 06:49:43.938418 32299 net.cpp:157] Top shape: 125 64 8 8 (512000)
I0821 06:49:43.938423 32299 net.cpp:165] Memory required for data: 1403393500
I0821 06:49:43.938428 32299 layer_factory.hpp:77] Creating layer L3_b7_relu
I0821 06:49:43.938436 32299 net.cpp:100] Creating Layer L3_b7_relu
I0821 06:49:43.938442 32299 net.cpp:434] L3_b7_relu <- L3_b7_sum_eltwise_top
I0821 06:49:43.938452 32299 net.cpp:395] L3_b7_relu -> L3_b7_sum_eltwise_top (in-place)
I0821 06:49:43.938462 32299 net.cpp:150] Setting up L3_b7_relu
I0821 06:49:43.938469 32299 net.cpp:157] Top shape: 125 64 8 8 (512000)
I0821 06:49:43.938474 32299 net.cpp:165] Memory required for data: 1405441500
I0821 06:49:43.938479 32299 layer_factory.hpp:77] Creating layer L3_b7_sum_eltwise_top_L3_b7_relu_0_split
I0821 06:49:43.938486 32299 net.cpp:100] Creating Layer L3_b7_sum_eltwise_top_L3_b7_relu_0_split
I0821 06:49:43.938493 32299 net.cpp:434] L3_b7_sum_eltwise_top_L3_b7_relu_0_split <- L3_b7_sum_eltwise_top
I0821 06:49:43.938499 32299 net.cpp:408] L3_b7_sum_eltwise_top_L3_b7_relu_0_split -> L3_b7_sum_eltwise_top_L3_b7_relu_0_split_0
I0821 06:49:43.938510 32299 net.cpp:408] L3_b7_sum_eltwise_top_L3_b7_relu_0_split -> L3_b7_sum_eltwise_top_L3_b7_relu_0_split_1
I0821 06:49:43.938560 32299 net.cpp:150] Setting up L3_b7_sum_eltwise_top_L3_b7_relu_0_split
I0821 06:49:43.938571 32299 net.cpp:157] Top shape: 125 64 8 8 (512000)
I0821 06:49:43.938577 32299 net.cpp:157] Top shape: 125 64 8 8 (512000)
I0821 06:49:43.938582 32299 net.cpp:165] Memory required for data: 1409537500
I0821 06:49:43.938587 32299 layer_factory.hpp:77] Creating layer L3_b8_cbr1_conv
I0821 06:49:43.938598 32299 net.cpp:100] Creating Layer L3_b8_cbr1_conv
I0821 06:49:43.938604 32299 net.cpp:434] L3_b8_cbr1_conv <- L3_b7_sum_eltwise_top_L3_b7_relu_0_split_0
I0821 06:49:43.938616 32299 net.cpp:408] L3_b8_cbr1_conv -> L3_b8_cbr1_conv_top
I0821 06:49:43.939633 32299 net.cpp:150] Setting up L3_b8_cbr1_conv
I0821 06:49:43.939648 32299 net.cpp:157] Top shape: 125 64 8 8 (512000)
I0821 06:49:43.939653 32299 net.cpp:165] Memory required for data: 1411585500
I0821 06:49:43.939663 32299 layer_factory.hpp:77] Creating layer L3_b8_cbr1_bn
I0821 06:49:43.939677 32299 net.cpp:100] Creating Layer L3_b8_cbr1_bn
I0821 06:49:43.939682 32299 net.cpp:434] L3_b8_cbr1_bn <- L3_b8_cbr1_conv_top
I0821 06:49:43.939692 32299 net.cpp:408] L3_b8_cbr1_bn -> L3_b8_cbr1_bn_top
I0821 06:49:43.939959 32299 net.cpp:150] Setting up L3_b8_cbr1_bn
I0821 06:49:43.939970 32299 net.cpp:157] Top shape: 125 64 8 8 (512000)
I0821 06:49:43.939975 32299 net.cpp:165] Memory required for data: 1413633500
I0821 06:49:43.939993 32299 layer_factory.hpp:77] Creating layer L3_b8_cbr1_scale
I0821 06:49:43.940002 32299 net.cpp:100] Creating Layer L3_b8_cbr1_scale
I0821 06:49:43.940008 32299 net.cpp:434] L3_b8_cbr1_scale <- L3_b8_cbr1_bn_top
I0821 06:49:43.940016 32299 net.cpp:395] L3_b8_cbr1_scale -> L3_b8_cbr1_bn_top (in-place)
I0821 06:49:43.940078 32299 layer_factory.hpp:77] Creating layer L3_b8_cbr1_scale
I0821 06:49:43.940230 32299 net.cpp:150] Setting up L3_b8_cbr1_scale
I0821 06:49:43.940245 32299 net.cpp:157] Top shape: 125 64 8 8 (512000)
I0821 06:49:43.940250 32299 net.cpp:165] Memory required for data: 1415681500
I0821 06:49:43.940259 32299 layer_factory.hpp:77] Creating layer L3_b8_cbr1_relu
I0821 06:49:43.940268 32299 net.cpp:100] Creating Layer L3_b8_cbr1_relu
I0821 06:49:43.940274 32299 net.cpp:434] L3_b8_cbr1_relu <- L3_b8_cbr1_bn_top
I0821 06:49:43.940281 32299 net.cpp:395] L3_b8_cbr1_relu -> L3_b8_cbr1_bn_top (in-place)
I0821 06:49:43.940291 32299 net.cpp:150] Setting up L3_b8_cbr1_relu
I0821 06:49:43.940299 32299 net.cpp:157] Top shape: 125 64 8 8 (512000)
I0821 06:49:43.940304 32299 net.cpp:165] Memory required for data: 1417729500
I0821 06:49:43.940307 32299 layer_factory.hpp:77] Creating layer L3_b8_cbr2_conv
I0821 06:49:43.940321 32299 net.cpp:100] Creating Layer L3_b8_cbr2_conv
I0821 06:49:43.940333 32299 net.cpp:434] L3_b8_cbr2_conv <- L3_b8_cbr1_bn_top
I0821 06:49:43.940346 32299 net.cpp:408] L3_b8_cbr2_conv -> L3_b8_cbr2_conv_top
I0821 06:49:43.941364 32299 net.cpp:150] Setting up L3_b8_cbr2_conv
I0821 06:49:43.941378 32299 net.cpp:157] Top shape: 125 64 8 8 (512000)
I0821 06:49:43.941383 32299 net.cpp:165] Memory required for data: 1419777500
I0821 06:49:43.941392 32299 layer_factory.hpp:77] Creating layer L3_b8_cbr2_bn
I0821 06:49:43.941406 32299 net.cpp:100] Creating Layer L3_b8_cbr2_bn
I0821 06:49:43.941411 32299 net.cpp:434] L3_b8_cbr2_bn <- L3_b8_cbr2_conv_top
I0821 06:49:43.941421 32299 net.cpp:408] L3_b8_cbr2_bn -> L3_b8_cbr2_bn_top
I0821 06:49:43.941676 32299 net.cpp:150] Setting up L3_b8_cbr2_bn
I0821 06:49:43.941689 32299 net.cpp:157] Top shape: 125 64 8 8 (512000)
I0821 06:49:43.941694 32299 net.cpp:165] Memory required for data: 1421825500
I0821 06:49:43.941705 32299 layer_factory.hpp:77] Creating layer L3_b8_cbr2_scale
I0821 06:49:43.941717 32299 net.cpp:100] Creating Layer L3_b8_cbr2_scale
I0821 06:49:43.941725 32299 net.cpp:434] L3_b8_cbr2_scale <- L3_b8_cbr2_bn_top
I0821 06:49:43.941732 32299 net.cpp:395] L3_b8_cbr2_scale -> L3_b8_cbr2_bn_top (in-place)
I0821 06:49:43.941792 32299 layer_factory.hpp:77] Creating layer L3_b8_cbr2_scale
I0821 06:49:43.941948 32299 net.cpp:150] Setting up L3_b8_cbr2_scale
I0821 06:49:43.941961 32299 net.cpp:157] Top shape: 125 64 8 8 (512000)
I0821 06:49:43.941965 32299 net.cpp:165] Memory required for data: 1423873500
I0821 06:49:43.941975 32299 layer_factory.hpp:77] Creating layer L3_b8_sum_eltwise
I0821 06:49:43.941987 32299 net.cpp:100] Creating Layer L3_b8_sum_eltwise
I0821 06:49:43.941993 32299 net.cpp:434] L3_b8_sum_eltwise <- L3_b8_cbr2_bn_top
I0821 06:49:43.942001 32299 net.cpp:434] L3_b8_sum_eltwise <- L3_b7_sum_eltwise_top_L3_b7_relu_0_split_1
I0821 06:49:43.942009 32299 net.cpp:408] L3_b8_sum_eltwise -> L3_b8_sum_eltwise_top
I0821 06:49:43.942044 32299 net.cpp:150] Setting up L3_b8_sum_eltwise
I0821 06:49:43.942056 32299 net.cpp:157] Top shape: 125 64 8 8 (512000)
I0821 06:49:43.942061 32299 net.cpp:165] Memory required for data: 1425921500
I0821 06:49:43.942066 32299 layer_factory.hpp:77] Creating layer L3_b8_relu
I0821 06:49:43.942075 32299 net.cpp:100] Creating Layer L3_b8_relu
I0821 06:49:43.942080 32299 net.cpp:434] L3_b8_relu <- L3_b8_sum_eltwise_top
I0821 06:49:43.942090 32299 net.cpp:395] L3_b8_relu -> L3_b8_sum_eltwise_top (in-place)
I0821 06:49:43.942101 32299 net.cpp:150] Setting up L3_b8_relu
I0821 06:49:43.942108 32299 net.cpp:157] Top shape: 125 64 8 8 (512000)
I0821 06:49:43.942112 32299 net.cpp:165] Memory required for data: 1427969500
I0821 06:49:43.942117 32299 layer_factory.hpp:77] Creating layer L3_b8_sum_eltwise_top_L3_b8_relu_0_split
I0821 06:49:43.942131 32299 net.cpp:100] Creating Layer L3_b8_sum_eltwise_top_L3_b8_relu_0_split
I0821 06:49:43.942137 32299 net.cpp:434] L3_b8_sum_eltwise_top_L3_b8_relu_0_split <- L3_b8_sum_eltwise_top
I0821 06:49:43.942145 32299 net.cpp:408] L3_b8_sum_eltwise_top_L3_b8_relu_0_split -> L3_b8_sum_eltwise_top_L3_b8_relu_0_split_0
I0821 06:49:43.942157 32299 net.cpp:408] L3_b8_sum_eltwise_top_L3_b8_relu_0_split -> L3_b8_sum_eltwise_top_L3_b8_relu_0_split_1
I0821 06:49:43.942205 32299 net.cpp:150] Setting up L3_b8_sum_eltwise_top_L3_b8_relu_0_split
I0821 06:49:43.942217 32299 net.cpp:157] Top shape: 125 64 8 8 (512000)
I0821 06:49:43.942224 32299 net.cpp:157] Top shape: 125 64 8 8 (512000)
I0821 06:49:43.942229 32299 net.cpp:165] Memory required for data: 1432065500
I0821 06:49:43.942234 32299 layer_factory.hpp:77] Creating layer L3_b9_cbr1_conv
I0821 06:49:43.942247 32299 net.cpp:100] Creating Layer L3_b9_cbr1_conv
I0821 06:49:43.942255 32299 net.cpp:434] L3_b9_cbr1_conv <- L3_b8_sum_eltwise_top_L3_b8_relu_0_split_0
I0821 06:49:43.942265 32299 net.cpp:408] L3_b9_cbr1_conv -> L3_b9_cbr1_conv_top
I0821 06:49:43.944237 32299 net.cpp:150] Setting up L3_b9_cbr1_conv
I0821 06:49:43.944254 32299 net.cpp:157] Top shape: 125 64 8 8 (512000)
I0821 06:49:43.944259 32299 net.cpp:165] Memory required for data: 1434113500
I0821 06:49:43.944269 32299 layer_factory.hpp:77] Creating layer L3_b9_cbr1_bn
I0821 06:49:43.944283 32299 net.cpp:100] Creating Layer L3_b9_cbr1_bn
I0821 06:49:43.944289 32299 net.cpp:434] L3_b9_cbr1_bn <- L3_b9_cbr1_conv_top
I0821 06:49:43.944298 32299 net.cpp:408] L3_b9_cbr1_bn -> L3_b9_cbr1_bn_top
I0821 06:49:43.944571 32299 net.cpp:150] Setting up L3_b9_cbr1_bn
I0821 06:49:43.944583 32299 net.cpp:157] Top shape: 125 64 8 8 (512000)
I0821 06:49:43.944588 32299 net.cpp:165] Memory required for data: 1436161500
I0821 06:49:43.944599 32299 layer_factory.hpp:77] Creating layer L3_b9_cbr1_scale
I0821 06:49:43.944612 32299 net.cpp:100] Creating Layer L3_b9_cbr1_scale
I0821 06:49:43.944618 32299 net.cpp:434] L3_b9_cbr1_scale <- L3_b9_cbr1_bn_top
I0821 06:49:43.944629 32299 net.cpp:395] L3_b9_cbr1_scale -> L3_b9_cbr1_bn_top (in-place)
I0821 06:49:43.944689 32299 layer_factory.hpp:77] Creating layer L3_b9_cbr1_scale
I0821 06:49:43.944854 32299 net.cpp:150] Setting up L3_b9_cbr1_scale
I0821 06:49:43.944866 32299 net.cpp:157] Top shape: 125 64 8 8 (512000)
I0821 06:49:43.944871 32299 net.cpp:165] Memory required for data: 1438209500
I0821 06:49:43.944880 32299 layer_factory.hpp:77] Creating layer L3_b9_cbr1_relu
I0821 06:49:43.944890 32299 net.cpp:100] Creating Layer L3_b9_cbr1_relu
I0821 06:49:43.944895 32299 net.cpp:434] L3_b9_cbr1_relu <- L3_b9_cbr1_bn_top
I0821 06:49:43.944906 32299 net.cpp:395] L3_b9_cbr1_relu -> L3_b9_cbr1_bn_top (in-place)
I0821 06:49:43.944917 32299 net.cpp:150] Setting up L3_b9_cbr1_relu
I0821 06:49:43.944924 32299 net.cpp:157] Top shape: 125 64 8 8 (512000)
I0821 06:49:43.944929 32299 net.cpp:165] Memory required for data: 1440257500
I0821 06:49:43.944934 32299 layer_factory.hpp:77] Creating layer L3_b9_cbr2_conv
I0821 06:49:43.944946 32299 net.cpp:100] Creating Layer L3_b9_cbr2_conv
I0821 06:49:43.944952 32299 net.cpp:434] L3_b9_cbr2_conv <- L3_b9_cbr1_bn_top
I0821 06:49:43.944963 32299 net.cpp:408] L3_b9_cbr2_conv -> L3_b9_cbr2_conv_top
I0821 06:49:43.945976 32299 net.cpp:150] Setting up L3_b9_cbr2_conv
I0821 06:49:43.945991 32299 net.cpp:157] Top shape: 125 64 8 8 (512000)
I0821 06:49:43.945996 32299 net.cpp:165] Memory required for data: 1442305500
I0821 06:49:43.946005 32299 layer_factory.hpp:77] Creating layer L3_b9_cbr2_bn
I0821 06:49:43.946017 32299 net.cpp:100] Creating Layer L3_b9_cbr2_bn
I0821 06:49:43.946024 32299 net.cpp:434] L3_b9_cbr2_bn <- L3_b9_cbr2_conv_top
I0821 06:49:43.946033 32299 net.cpp:408] L3_b9_cbr2_bn -> L3_b9_cbr2_bn_top
I0821 06:49:43.946295 32299 net.cpp:150] Setting up L3_b9_cbr2_bn
I0821 06:49:43.946308 32299 net.cpp:157] Top shape: 125 64 8 8 (512000)
I0821 06:49:43.946313 32299 net.cpp:165] Memory required for data: 1444353500
I0821 06:49:43.946338 32299 layer_factory.hpp:77] Creating layer L3_b9_cbr2_scale
I0821 06:49:43.946348 32299 net.cpp:100] Creating Layer L3_b9_cbr2_scale
I0821 06:49:43.946355 32299 net.cpp:434] L3_b9_cbr2_scale <- L3_b9_cbr2_bn_top
I0821 06:49:43.946363 32299 net.cpp:395] L3_b9_cbr2_scale -> L3_b9_cbr2_bn_top (in-place)
I0821 06:49:43.946424 32299 layer_factory.hpp:77] Creating layer L3_b9_cbr2_scale
I0821 06:49:43.946578 32299 net.cpp:150] Setting up L3_b9_cbr2_scale
I0821 06:49:43.946590 32299 net.cpp:157] Top shape: 125 64 8 8 (512000)
I0821 06:49:43.946595 32299 net.cpp:165] Memory required for data: 1446401500
I0821 06:49:43.946604 32299 layer_factory.hpp:77] Creating layer L3_b9_sum_eltwise
I0821 06:49:43.946614 32299 net.cpp:100] Creating Layer L3_b9_sum_eltwise
I0821 06:49:43.946620 32299 net.cpp:434] L3_b9_sum_eltwise <- L3_b9_cbr2_bn_top
I0821 06:49:43.946629 32299 net.cpp:434] L3_b9_sum_eltwise <- L3_b8_sum_eltwise_top_L3_b8_relu_0_split_1
I0821 06:49:43.946640 32299 net.cpp:408] L3_b9_sum_eltwise -> L3_b9_sum_eltwise_top
I0821 06:49:43.946672 32299 net.cpp:150] Setting up L3_b9_sum_eltwise
I0821 06:49:43.946684 32299 net.cpp:157] Top shape: 125 64 8 8 (512000)
I0821 06:49:43.946689 32299 net.cpp:165] Memory required for data: 1448449500
I0821 06:49:43.946694 32299 layer_factory.hpp:77] Creating layer L3_b9_relu
I0821 06:49:43.946705 32299 net.cpp:100] Creating Layer L3_b9_relu
I0821 06:49:43.946712 32299 net.cpp:434] L3_b9_relu <- L3_b9_sum_eltwise_top
I0821 06:49:43.946719 32299 net.cpp:395] L3_b9_relu -> L3_b9_sum_eltwise_top (in-place)
I0821 06:49:43.946729 32299 net.cpp:150] Setting up L3_b9_relu
I0821 06:49:43.946738 32299 net.cpp:157] Top shape: 125 64 8 8 (512000)
I0821 06:49:43.946741 32299 net.cpp:165] Memory required for data: 1450497500
I0821 06:49:43.946746 32299 layer_factory.hpp:77] Creating layer post_pool
I0821 06:49:43.946758 32299 net.cpp:100] Creating Layer post_pool
I0821 06:49:43.946763 32299 net.cpp:434] post_pool <- L3_b9_sum_eltwise_top
I0821 06:49:43.946771 32299 net.cpp:408] post_pool -> post_pool
I0821 06:49:43.946805 32299 net.cpp:150] Setting up post_pool
I0821 06:49:43.946815 32299 net.cpp:157] Top shape: 125 64 1 1 (8000)
I0821 06:49:43.946820 32299 net.cpp:165] Memory required for data: 1450529500
I0821 06:49:43.946825 32299 layer_factory.hpp:77] Creating layer post_FC
I0821 06:49:43.946918 32299 net.cpp:100] Creating Layer post_FC
I0821 06:49:43.946931 32299 net.cpp:434] post_FC <- post_pool
I0821 06:49:43.946946 32299 net.cpp:408] post_FC -> post_FC_top
I0821 06:49:43.947203 32299 net.cpp:150] Setting up post_FC
I0821 06:49:43.947219 32299 net.cpp:157] Top shape: 125 10 (1250)
I0821 06:49:43.947224 32299 net.cpp:165] Memory required for data: 1450534500
I0821 06:49:43.947234 32299 layer_factory.hpp:77] Creating layer post_FC_top_post_FC_0_split
I0821 06:49:43.947243 32299 net.cpp:100] Creating Layer post_FC_top_post_FC_0_split
I0821 06:49:43.947249 32299 net.cpp:434] post_FC_top_post_FC_0_split <- post_FC_top
I0821 06:49:43.947262 32299 net.cpp:408] post_FC_top_post_FC_0_split -> post_FC_top_post_FC_0_split_0
I0821 06:49:43.947273 32299 net.cpp:408] post_FC_top_post_FC_0_split -> post_FC_top_post_FC_0_split_1
I0821 06:49:43.947322 32299 net.cpp:150] Setting up post_FC_top_post_FC_0_split
I0821 06:49:43.947340 32299 net.cpp:157] Top shape: 125 10 (1250)
I0821 06:49:43.947347 32299 net.cpp:157] Top shape: 125 10 (1250)
I0821 06:49:43.947352 32299 net.cpp:165] Memory required for data: 1450544500
I0821 06:49:43.947357 32299 layer_factory.hpp:77] Creating layer accuracy
I0821 06:49:43.947402 32299 net.cpp:100] Creating Layer accuracy
I0821 06:49:43.947413 32299 net.cpp:434] accuracy <- post_FC_top_post_FC_0_split_0
I0821 06:49:43.947422 32299 net.cpp:434] accuracy <- label_dataLayer_1_split_0
I0821 06:49:43.947430 32299 net.cpp:408] accuracy -> accuracy
…
