…
I0817 16:08:12.710681 17615 net.cpp:322] The NetState phase (0) differed from the phase (1) specified by a rule in layer L3_b9_cbr2_bn
I0817 16:08:12.712389 17615 net.cpp:58] Initializing net from parameters: 
name: "Cifar-Resnet"
state {
  phase: TRAIN
  level: 0
  stage: ""
}
layer {
  name: "dataLayer"
  type: "Data"
  top: "data_top"
  top: "label"
  include {
    phase: TRAIN
  }
  transform_param {
    mirror: true
    crop_size: 32
    mean_file: "examples/cifar10/mean.binaryproto"
  }
  data_param {
    source: "examples/cifar10/cifar10_train10k_lmdb"
    batch_size: 125
    backend: LMDB
  }
  image_data_param {
    shuffle: true
  }
}
layer {
  name: "pre_conv"
  type: "Convolution"
  bottom: "data_top"
  top: "pre_conv_top"
  param {
    lr_mult: 1
    decay_mult: 1
  }
  param {
    lr_mult: 2
    decay_mult: 0
  }
  convolution_param {
    num_output: 16
    pad: 1
    kernel_size: 3
    stride: 1
    weight_filler {
      type: "msra"
    }
    bias_filler {
      type: "constant"
    }
  }
}
layer {
  name: "pre_bn"
  type: "BatchNorm"
  bottom: "pre_conv_top"
  top: "pre_bn_top"
  include {
    phase: TRAIN
  }
  batch_norm_param {
    use_global_stats: false
    moving_average_fraction: 0.95
  }
}
layer {
  name: "pre_scale"
  type: "Scale"
  bottom: "pre_bn_top"
  top: "pre_bn_top"
  scale_param {
    bias_term: true
  }
}
layer {
  name: "pre_relu"
  type: "ReLU"
  bottom: "pre_bn_top"
  top: "pre_bn_top"
}
layer {
  name: "L1_b1_cbr1_conv"
  type: "Convolution"
  bottom: "pre_bn_top"
  top: "L1_b1_cbr1_conv_top"
  param {
    lr_mult: 1
    decay_mult: 1
  }
  param {
    lr_mult: 2
    decay_mult: 0
  }
  convolution_param {
    num_output: 16
    pad: 1
    kernel_size: 3
    stride: 1
    weight_filler {
      type: "msra"
    }
    bias_filler {
      type: "constant"
    }
  }
}
layer {
  name: "L1_b1_cbr1_bn"
  type: "BatchNorm"
  bottom: "L1_b1_cbr1_conv_top"
  top: "L1_b1_cbr1_bn_top"
  include {
    phase: TRAIN
  }
  batch_norm_param {
    use_global_stats: false
    moving_average_fraction: 0.95
  }
}
layer {
  name: "L1_b1_cbr1_scale"
  type: "Scale"
  bottom: "L1_b1_cbr1_bn_top"
  top: "L1_b1_cbr1_bn_top"
  scale_param {
    bias_term: true
  }
}
layer {
  name: "L1_b1_cbr1_relu"
  type: "ReLU"
  bottom: "L1_b1_cbr1_bn_top"
  top: "L1_b1_cbr1_bn_top"
}
layer {
  name: "L1_b1_cbr2_conv"
  type: "Convolution"
  bottom: "L1_b1_cbr1_bn_top"
  top: "L1_b1_cbr2_conv_top"
  param {
    lr_mult: 1
    decay_mult: 1
  }
  param {
    lr_mult: 2
    decay_mult: 0
  }
  convolution_param {
    num_output: 16
    pad: 1
    kernel_size: 3
    stride: 1
    weight_filler {
      type: "msra"
    }
    bias_filler {
      type: "constant"
    }
  }
}
layer {
  name: "L1_b1_cbr2_bn"
  type: "BatchNorm"
  bottom: "L1_b1_cbr2_conv_top"
  top: "L1_b1_cbr2_bn_top"
  include {
    phase: TRAIN
  }
  batch_norm_param {
    use_global_stats: false
    moving_average_fraction: 0.95
  }
}
layer {
  name: "L1_b1_cbr2_scale"
  type: "Scale"
  bottom: "L1_b1_cbr2_bn_top"
  top: "L1_b1_cbr2_bn_top"
  scale_param {
    bias_term: true
  }
}
layer {
  name: "L1_b1_sum_eltwise"
  type: "Eltwise"
  bottom: "L1_b1_cbr2_bn_top"
  bottom: "pre_bn_top"
  top: "L1_b1_sum_eltwise_top"
  eltwise_param {
    operation: SUM
  }
}
layer {
  name: "L1_b1_relu"
  type: "ReLU"
  bottom: "L1_b1_sum_eltwise_top"
  top: "L1_b1_sum_eltwise_top"
}
layer {
  name: "L1_b2_cbr1_conv"
  type: "Convolution"
  bottom: "L1_b1_sum_eltwise_top"
  top: "L1_b2_cbr1_conv_top"
  param {
    lr_mult: 1
    decay_mult: 1
  }
  param {
    lr_mult: 2
    decay_mult: 0
  }
  convolution_param {
    num_output: 16
    pad: 1
    kernel_size: 3
    stride: 1
    weight_filler {
      type: "msra"
    }
    bias_filler {
      type: "constant"
    }
  }
}
layer {
  name: "L1_b2_cbr1_bn"
  type: "BatchNorm"
  bottom: "L1_b2_cbr1_conv_top"
  top: "L1_b2_cbr1_bn_top"
  include {
    phase: TRAIN
  }
  batch_norm_param {
    use_global_stats: false
    moving_average_fraction: 0.95
  }
}
layer {
  name: "L1_b2_cbr1_scale"
  type: "Scale"
  bottom: "L1_b2_cbr1_bn_top"
  top: "L1_b2_cbr1_bn_top"
  scale_param {
    bias_term: true
  }
}
layer {
  name: "L1_b2_cbr1_relu"
  type: "ReLU"
  bottom: "L1_b2_cbr1_bn_top"
  top: "L1_b2_cbr1_bn_top"
}
layer {
  name: "L1_b2_cbr2_conv"
  type: "Convolution"
  bottom: "L1_b2_cbr1_bn_top"
  top: "L1_b2_cbr2_conv_top"
  param {
    lr_mult: 1
    decay_mult: 1
  }
  param {
    lr_mult: 2
    decay_mult: 0
  }
  convolution_param {
    num_output: 16
    pad: 1
    kernel_size: 3
    stride: 1
    weight_filler {
      type: "msra"
    }
    bias_filler {
      type: "constant"
    }
  }
}
layer {
  name: "L1_b2_cbr2_bn"
  type: "BatchNorm"
  bottom: "L1_b2_cbr2_conv_top"
  top: "L1_b2_cbr2_bn_top"
  include {
    phase: TRAIN
  }
  batch_norm_param {
    use_global_stats: false
    moving_average_fraction: 0.95
  }
}
layer {
  name: "L1_b2_cbr2_scale"
  type: "Scale"
  bottom: "L1_b2_cbr2_bn_top"
  top: "L1_b2_cbr2_bn_top"
  scale_param {
    bias_term: true
  }
}
layer {
  name: "L1_b2_sum_eltwise"
  type: "Eltwise"
  bottom: "L1_b2_cbr2_bn_top"
  bottom: "L1_b1_sum_eltwise_top"
  top: "L1_b2_sum_eltwise_top"
  eltwise_param {
    operation: SUM
  }
}
layer {
  name: "L1_b2_relu"
  type: "ReLU"
  bottom: "L1_b2_sum_eltwise_top"
  top: "L1_b2_sum_eltwise_top"
}
layer {
  name: "L1_b3_cbr1_conv"
  type: "Convolution"
  bottom: "L1_b2_sum_eltwise_top"
  top: "L1_b3_cbr1_conv_top"
  param {
    lr_mult: 1
    decay_mult: 1
  }
  param {
    lr_mult: 2
    decay_mult: 0
  }
  convolution_param {
    num_output: 16
    pad: 1
    kernel_size: 3
    stride: 1
    weight_filler {
      type: "msra"
    }
    bias_filler {
      type: "constant"
    }
  }
}
layer {
  name: "L1_b3_cbr1_bn"
  type: "BatchNorm"
  bottom: "L1_b3_cbr1_conv_top"
  top: "L1_b3_cbr1_bn_top"
  include {
    phase: TRAIN
  }
  batch_norm_param {
    use_global_stats: false
    moving_average_fraction: 0.95
  }
}
layer {
  name: "L1_b3_cbr1_scale"
  type: "Scale"
  bottom: "L1_b3_cbr1_bn_top"
  top: "L1_b3_cbr1_bn_top"
  scale_param {
    bias_term: true
  }
}
layer {
  name: "L1_b3_cbr1_relu"
  type: "ReLU"
  bottom: "L1_b3_cbr1_bn_top"
  top: "L1_b3_cbr1_bn_top"
}
layer {
  name: "L1_b3_cbr2_conv"
  type: "Convolution"
  bottom: "L1_b3_cbr1_bn_top"
  top: "L1_b3_cbr2_conv_top"
  param {
    lr_mult: 1
    decay_mult: 1
  }
  param {
    lr_mult: 2
    decay_mult: 0
  }
  convolution_param {
    num_output: 16
    pad: 1
    kernel_size: 3
    stride: 1
    weight_filler {
      type: "msra"
    }
    bias_filler {
      type: "constant"
    }
  }
}
layer {
  name: "L1_b3_cbr2_bn"
  type: "BatchNorm"
  bottom: "L1_b3_cbr2_conv_top"
  top: "L1_b3_cbr2_bn_top"
  include {
    phase: TRAIN
  }
  batch_norm_param {
    use_global_stats: false
    moving_average_fraction: 0.95
  }
}
layer {
  name: "L1_b3_cbr2_scale"
  type: "Scale"
  bottom: "L1_b3_cbr2_bn_top"
  top: "L1_b3_cbr2_bn_top"
  scale_param {
    bias_term: true
  }
}
layer {
  name: "L1_b3_sum_eltwise"
  type: "Eltwise"
  bottom: "L1_b3_cbr2_bn_top"
  bottom: "L1_b2_sum_eltwise_top"
  top: "L1_b3_sum_eltwise_top"
  eltwise_param {
    operation: SUM
  }
}
layer {
  name: "L1_b3_relu"
  type: "ReLU"
  bottom: "L1_b3_sum_eltwise_top"
  top: "L1_b3_sum_eltwise_top"
}
layer {
  name: "L1_b4_cbr1_conv"
  type: "Convolution"
  bottom: "L1_b3_sum_eltwise_top"
  top: "L1_b4_cbr1_conv_top"
  param {
    lr_mult: 1
    decay_mult: 1
  }
  param {
    lr_mult: 2
    decay_mult: 0
  }
  convolution_param {
    num_output: 16
    pad: 1
    kernel_size: 3
    stride: 1
    weight_filler {
      type: "msra"
    }
    bias_filler {
      type: "constant"
    }
  }
}
layer {
  name: "L1_b4_cbr1_bn"
  type: "BatchNorm"
  bottom: "L1_b4_cbr1_conv_top"
  top: "L1_b4_cbr1_bn_top"
  include {
    phase: TRAIN
  }
  batch_norm_param {
    use_global_stats: false
    moving_average_fraction: 0.95
  }
}
layer {
  name: "L1_b4_cbr1_scale"
  type: "Scale"
  bottom: "L1_b4_cbr1_bn_top"
  top: "L1_b4_cbr1_bn_top"
  scale_param {
    bias_term: true
  }
}
layer {
  name: "L1_b4_cbr1_relu"
  type: "ReLU"
  bottom: "L1_b4_cbr1_bn_top"
  top: "L1_b4_cbr1_bn_top"
}
layer {
  name: "L1_b4_cbr2_conv"
  type: "Convolution"
  bottom: "L1_b4_cbr1_bn_top"
  top: "L1_b4_cbr2_conv_top"
  param {
    lr_mult: 1
    decay_mult: 1
  }
  param {
    lr_mult: 2
    decay_mult: 0
  }
  convolution_param {
    num_output: 16
    pad: 1
    kernel_size: 3
    stride: 1
    weight_filler {
      type: "msra"
    }
    bias_filler {
      type: "constant"
    }
  }
}
layer {
  name: "L1_b4_cbr2_bn"
  type: "BatchNorm"
  bottom: "L1_b4_cbr2_conv_top"
  top: "L1_b4_cbr2_bn_top"
  include {
    phase: TRAIN
  }
  batch_norm_param {
    use_global_stats: false
    moving_average_fraction: 0.95
  }
}
layer {
  name: "L1_b4_cbr2_scale"
  type: "Scale"
  bottom: "L1_b4_cbr2_bn_top"
  top: "L1_b4_cbr2_bn_top"
  scale_param {
    bias_term: true
  }
}
layer {
  name: "L1_b4_sum_eltwise"
  type: "Eltwise"
  bottom: "L1_b4_cbr2_bn_top"
  bottom: "L1_b3_sum_eltwise_top"
  top: "L1_b4_sum_eltwise_top"
  eltwise_param {
    operation: SUM
  }
}
layer {
  name: "L1_b4_relu"
  type: "ReLU"
  bottom: "L1_b4_sum_eltwise_top"
  top: "L1_b4_sum_eltwise_top"
}
layer {
  name: "L1_b5_cbr1_conv"
  type: "Convolution"
  bottom: "L1_b4_sum_eltwise_top"
  top: "L1_b5_cbr1_conv_top"
  param {
    lr_mult: 1
    decay_mult: 1
  }
  param {
    lr_mult: 2
    decay_mult: 0
  }
  convolution_param {
    num_output: 16
    pad: 1
    kernel_size: 3
    stride: 1
    weight_filler {
      type: "msra"
    }
    bias_filler {
      type: "constant"
    }
  }
}
layer {
  name: "L1_b5_cbr1_bn"
  type: "BatchNorm"
  bottom: "L1_b5_cbr1_conv_top"
  top: "L1_b5_cbr1_bn_top"
  include {
    phase: TRAIN
  }
  batch_norm_param {
    use_global_stats: false
    moving_average_fraction: 0.95
  }
}
layer {
  name: "L1_b5_cbr1_scale"
  type: "Scale"
  bottom: "L1_b5_cbr1_bn_top"
  top: "L1_b5_cbr1_bn_top"
  scale_param {
    bias_term: true
  }
}
layer {
  name: "L1_b5_cbr1_relu"
  type: "ReLU"
  bottom: "L1_b5_cbr1_bn_top"
  top: "L1_b5_cbr1_bn_top"
}
layer {
  name: "L1_b5_cbr2_conv"
  type: "Convolution"
  bottom: "L1_b5_cbr1_bn_top"
  top: "L1_b5_cbr2_conv_top"
  param {
    lr_mult: 1
    decay_mult: 1
  }
  param {
    lr_mult: 2
    decay_mult: 0
  }
  convolution_param {
    num_output: 16
    pad: 1
    kernel_size: 3
    stride: 1
    weight_filler {
      type: "msra"
    }
    bias_filler {
      type: "constant"
    }
  }
}
layer {
  name: "L1_b5_cbr2_bn"
  type: "BatchNorm"
  bottom: "L1_b5_cbr2_conv_top"
  top: "L1_b5_cbr2_bn_top"
  include {
    phase: TRAIN
  }
  batch_norm_param {
    use_global_stats: false
    moving_average_fraction: 0.95
  }
}
layer {
  name: "L1_b5_cbr2_scale"
  type: "Scale"
  bottom: "L1_b5_cbr2_bn_top"
  top: "L1_b5_cbr2_bn_top"
  scale_param {
    bias_term: true
  }
}
layer {
  name: "L1_b5_sum_eltwise"
  type: "Eltwise"
  bottom: "L1_b5_cbr2_bn_top"
  bottom: "L1_b4_sum_eltwise_top"
  top: "L1_b5_sum_eltwise_top"
  eltwise_param {
    operation: SUM
  }
}
layer {
  name: "L1_b5_relu"
  type: "ReLU"
  bottom: "L1_b5_sum_eltwise_top"
  top: "L1_b5_sum_eltwise_top"
}
layer {
  name: "L1_b6_cbr1_conv"
  type: "Convolution"
  bottom: "L1_b5_sum_eltwise_top"
  top: "L1_b6_cbr1_conv_top"
  param {
    lr_mult: 1
    decay_mult: 1
  }
  param {
    lr_mult: 2
    decay_mult: 0
  }
  convolution_param {
    num_output: 16
    pad: 1
    kernel_size: 3
    stride: 1
    weight_filler {
      type: "msra"
    }
    bias_filler {
      type: "constant"
    }
  }
}
layer {
  name: "L1_b6_cbr1_bn"
  type: "BatchNorm"
  bottom: "L1_b6_cbr1_conv_top"
  top: "L1_b6_cbr1_bn_top"
  include {
    phase: TRAIN
  }
  batch_norm_param {
    use_global_stats: false
    moving_average_fraction: 0.95
  }
}
layer {
  name: "L1_b6_cbr1_scale"
  type: "Scale"
  bottom: "L1_b6_cbr1_bn_top"
  top: "L1_b6_cbr1_bn_top"
  scale_param {
    bias_term: true
  }
}
layer {
  name: "L1_b6_cbr1_relu"
  type: "ReLU"
  bottom: "L1_b6_cbr1_bn_top"
  top: "L1_b6_cbr1_bn_top"
}
layer {
  name: "L1_b6_cbr2_conv"
  type: "Convolution"
  bottom: "L1_b6_cbr1_bn_top"
  top: "L1_b6_cbr2_conv_top"
  param {
    lr_mult: 1
    decay_mult: 1
  }
  param {
    lr_mult: 2
    decay_mult: 0
  }
  convolution_param {
    num_output: 16
    pad: 1
    kernel_size: 3
    stride: 1
    weight_filler {
      type: "msra"
    }
    bias_filler {
      type: "constant"
    }
  }
}
layer {
  name: "L1_b6_cbr2_bn"
  type: "BatchNorm"
  bottom: "L1_b6_cbr2_conv_top"
  top: "L1_b6_cbr2_bn_top"
  include {
    phase: TRAIN
  }
  batch_norm_param {
    use_global_stats: false
    moving_average_fraction: 0.95
  }
}
layer {
  name: "L1_b6_cbr2_scale"
  type: "Scale"
  bottom: "L1_b6_cbr2_bn_top"
  top: "L1_b6_cbr2_bn_top"
  scale_param {
    bias_term: true
  }
}
layer {
  name: "L1_b6_sum_eltwise"
  type: "Eltwise"
  bottom: "L1_b6_cbr2_bn_top"
  bottom: "L1_b5_sum_eltwise_top"
  top: "L1_b6_sum_eltwise_top"
  eltwise_param {
    operation: SUM
  }
}
layer {
  name: "L1_b6_relu"
  type: "ReLU"
  bottom: "L1_b6_sum_eltwise_top"
  top: "L1_b6_sum_eltwise_top"
}
layer {
  name: "L1_b7_cbr1_conv"
  type: "Convolution"
  bottom: "L1_b6_sum_eltwise_top"
  top: "L1_b7_cbr1_conv_top"
  param {
    lr_mult: 1
    decay_mult: 1
  }
  param {
    lr_mult: 2
    decay_mult: 0
  }
  convolution_param {
    num_output: 16
    pad: 1
    kernel_size: 3
    stride: 1
    weight_filler {
      type: "msra"
    }
    bias_filler {
      type: "constant"
    }
  }
}
layer {
  name: "L1_b7_cbr1_bn"
  type: "BatchNorm"
  bottom: "L1_b7_cbr1_conv_top"
  top: "L1_b7_cbr1_bn_top"
  include {
    phase: TRAIN
  }
  batch_norm_param {
    use_global_stats: false
    moving_average_fraction: 0.95
  }
}
layer {
  name: "L1_b7_cbr1_scale"
  type: "Scale"
  bottom: "L1_b7_cbr1_bn_top"
  top: "L1_b7_cbr1_bn_top"
  scale_param {
    bias_term: true
  }
}
layer {
  name: "L1_b7_cbr1_relu"
  type: "ReLU"
  bottom: "L1_b7_cbr1_bn_top"
  top: "L1_b7_cbr1_bn_top"
}
layer {
  name: "L1_b7_cbr2_conv"
  type: "Convolution"
  bottom: "L1_b7_cbr1_bn_top"
  top: "L1_b7_cbr2_conv_top"
  param {
    lr_mult: 1
    decay_mult: 1
  }
  param {
    lr_mult: 2
    decay_mult: 0
  }
  convolution_param {
    num_output: 16
    pad: 1
    kernel_size: 3
    stride: 1
    weight_filler {
      type: "msra"
    }
    bias_filler {
      type: "constant"
    }
  }
}
layer {
  name: "L1_b7_cbr2_bn"
  type: "BatchNorm"
  bottom: "L1_b7_cbr2_conv_top"
  top: "L1_b7_cbr2_bn_top"
  include {
    phase: TRAIN
  }
  batch_norm_param {
    use_global_stats: false
    moving_average_fraction: 0.95
  }
}
layer {
  name: "L1_b7_cbr2_scale"
  type: "Scale"
  bottom: "L1_b7_cbr2_bn_top"
  top: "L1_b7_cbr2_bn_top"
  scale_param {
    bias_term: true
  }
}
layer {
  name: "L1_b7_sum_eltwise"
  type: "Eltwise"
  bottom: "L1_b7_cbr2_bn_top"
  bottom: "L1_b6_sum_eltwise_top"
  top: "L1_b7_sum_eltwise_top"
  eltwise_param {
    operation: SUM
  }
}
layer {
  name: "L1_b7_relu"
  type: "ReLU"
  bottom: "L1_b7_sum_eltwise_top"
  top: "L1_b7_sum_eltwise_top"
}
layer {
  name: "L1_b8_cbr1_conv"
  type: "Convolution"
  bottom: "L1_b7_sum_eltwise_top"
  top: "L1_b8_cbr1_conv_top"
  param {
    lr_mult: 1
    decay_mult: 1
  }
  param {
    lr_mult: 2
    decay_mult: 0
  }
  convolution_param {
    num_output: 16
    pad: 1
    kernel_size: 3
    stride: 1
    weight_filler {
      type: "msra"
    }
    bias_filler {
      type: "constant"
    }
  }
}
layer {
  name: "L1_b8_cbr1_bn"
  type: "BatchNorm"
  bottom: "L1_b8_cbr1_conv_top"
  top: "L1_b8_cbr1_bn_top"
  include {
    phase: TRAIN
  }
  batch_norm_param {
    use_global_stats: false
    moving_average_fraction: 0.95
  }
}
layer {
  name: "L1_b8_cbr1_scale"
  type: "Scale"
  bottom: "L1_b8_cbr1_bn_top"
  top: "L1_b8_cbr1_bn_top"
  scale_param {
    bias_term: true
  }
}
layer {
  name: "L1_b8_cbr1_relu"
  type: "ReLU"
  bottom: "L1_b8_cbr1_bn_top"
  top: "L1_b8_cbr1_bn_top"
}
layer {
  name: "L1_b8_cbr2_conv"
  type: "Convolution"
  bottom: "L1_b8_cbr1_bn_top"
  top: "L1_b8_cbr2_conv_top"
  param {
    lr_mult: 1
    decay_mult: 1
  }
  param {
    lr_mult: 2
    decay_mult: 0
  }
  convolution_param {
    num_output: 16
    pad: 1
    kernel_size: 3
    stride: 1
    weight_filler {
      type: "msra"
    }
    bias_filler {
      type: "constant"
    }
  }
}
layer {
  name: "L1_b8_cbr2_bn"
  type: "BatchNorm"
  bottom: "L1_b8_cbr2_conv_top"
  top: "L1_b8_cbr2_bn_top"
  include {
    phase: TRAIN
  }
  batch_norm_param {
    use_global_stats: false
    moving_average_fraction: 0.95
  }
}
layer {
  name: "L1_b8_cbr2_scale"
  type: "Scale"
  bottom: "L1_b8_cbr2_bn_top"
  top: "L1_b8_cbr2_bn_top"
  scale_param {
    bias_term: true
  }
}
layer {
  name: "L1_b8_sum_eltwise"
  type: "Eltwise"
  bottom: "L1_b8_cbr2_bn_top"
  bottom: "L1_b7_sum_eltwise_top"
  top: "L1_b8_sum_eltwise_top"
  eltwise_param {
    operation: SUM
  }
}
layer {
  name: "L1_b8_relu"
  type: "ReLU"
  bottom: "L1_b8_sum_eltwise_top"
  top: "L1_b8_sum_eltwise_top"
}
layer {
  name: "L1_b9_cbr1_conv"
  type: "Convolution"
  bottom: "L1_b8_sum_eltwise_top"
  top: "L1_b9_cbr1_conv_top"
  param {
    lr_mult: 1
    decay_mult: 1
  }
  param {
    lr_mult: 2
    decay_mult: 0
  }
  convolution_param {
    num_output: 16
    pad: 1
    kernel_size: 3
    stride: 1
    weight_filler {
      type: "msra"
    }
    bias_filler {
      type: "constant"
    }
  }
}
layer {
  name: "L1_b9_cbr1_bn"
  type: "BatchNorm"
  bottom: "L1_b9_cbr1_conv_top"
  top: "L1_b9_cbr1_bn_top"
  include {
    phase: TRAIN
  }
  batch_norm_param {
    use_global_stats: false
    moving_average_fraction: 0.95
  }
}
layer {
  name: "L1_b9_cbr1_scale"
  type: "Scale"
  bottom: "L1_b9_cbr1_bn_top"
  top: "L1_b9_cbr1_bn_top"
  scale_param {
    bias_term: true
  }
}
layer {
  name: "L1_b9_cbr1_relu"
  type: "ReLU"
  bottom: "L1_b9_cbr1_bn_top"
  top: "L1_b9_cbr1_bn_top"
}
layer {
  name: "L1_b9_cbr2_conv"
  type: "Convolution"
  bottom: "L1_b9_cbr1_bn_top"
  top: "L1_b9_cbr2_conv_top"
  param {
    lr_mult: 1
    decay_mult: 1
  }
  param {
    lr_mult: 2
    decay_mult: 0
  }
  convolution_param {
    num_output: 16
    pad: 1
    kernel_size: 3
    stride: 1
    weight_filler {
      type: "msra"
    }
    bias_filler {
      type: "constant"
    }
  }
}
layer {
  name: "L1_b9_cbr2_bn"
  type: "BatchNorm"
  bottom: "L1_b9_cbr2_conv_top"
  top: "L1_b9_cbr2_bn_top"
  include {
    phase: TRAIN
  }
  batch_norm_param {
    use_global_stats: false
    moving_average_fraction: 0.95
  }
}
layer {
  name: "L1_b9_cbr2_scale"
  type: "Scale"
  bottom: "L1_b9_cbr2_bn_top"
  top: "L1_b9_cbr2_bn_top"
  scale_param {
    bias_term: true
  }
}
layer {
  name: "L1_b9_sum_eltwise"
  type: "Eltwise"
  bottom: "L1_b9_cbr2_bn_top"
  bottom: "L1_b8_sum_eltwise_top"
  top: "L1_b9_sum_eltwise_top"
  eltwise_param {
    operation: SUM
  }
}
layer {
  name: "L1_b9_relu"
  type: "ReLU"
  bottom: "L1_b9_sum_eltwise_top"
  top: "L1_b9_sum_eltwise_top"
}
layer {
  name: "L2_b1_cbr1_conv"
  type: "Convolution"
  bottom: "L1_b9_sum_eltwise_top"
  top: "L2_b1_cbr1_conv_top"
  param {
    lr_mult: 1
    decay_mult: 1
  }
  param {
    lr_mult: 2
    decay_mult: 0
  }
  convolution_param {
    num_output: 16
    pad: 1
    kernel_size: 3
    stride: 2
    weight_filler {
      type: "msra"
    }
    bias_filler {
      type: "constant"
    }
  }
}
layer {
  name: "L2_b1_cbr1_bn"
  type: "BatchNorm"
  bottom: "L2_b1_cbr1_conv_top"
  top: "L2_b1_cbr1_bn_top"
  include {
    phase: TRAIN
  }
  batch_norm_param {
    use_global_stats: false
    moving_average_fraction: 0.95
  }
}
layer {
  name: "L2_b1_cbr1_scale"
  type: "Scale"
  bottom: "L2_b1_cbr1_bn_top"
  top: "L2_b1_cbr1_bn_top"
  scale_param {
    bias_term: true
  }
}
layer {
  name: "L2_b1_cbr1_relu"
  type: "ReLU"
  bottom: "L2_b1_cbr1_bn_top"
  top: "L2_b1_cbr1_bn_top"
}
layer {
  name: "L2_b1_cbr2_conv"
  type: "Convolution"
  bottom: "L2_b1_cbr1_bn_top"
  top: "L2_b1_cbr2_conv_top"
  param {
    lr_mult: 1
    decay_mult: 1
  }
  param {
    lr_mult: 2
    decay_mult: 0
  }
  convolution_param {
    num_output: 16
    pad: 1
    kernel_size: 3
    stride: 1
    weight_filler {
      type: "msra"
    }
    bias_filler {
      type: "constant"
    }
  }
}
layer {
  name: "L2_b1_cbr2_bn"
  type: "BatchNorm"
  bottom: "L2_b1_cbr2_conv_top"
  top: "L2_b1_cbr2_bn_top"
  include {
    phase: TRAIN
  }
  batch_norm_param {
    use_global_stats: false
    moving_average_fraction: 0.95
  }
}
layer {
  name: "L2_b1_cbr2_scale"
  type: "Scale"
  bottom: "L2_b1_cbr2_bn_top"
  top: "L2_b1_cbr2_bn_top"
  scale_param {
    bias_term: true
  }
}
layer {
  name: "L2_b1_pool"
  type: "Pooling"
  bottom: "L1_b9_sum_eltwise_top"
  top: "L2_b1_pool"
  pooling_param {
    pool: AVE
    kernel_size: 3
    stride: 2
  }
}
layer {
  name: "L2_b1_sum_eltwise"
  type: "Eltwise"
  bottom: "L2_b1_cbr2_bn_top"
  bottom: "L2_b1_pool"
  top: "L2_b1_sum_eltwise_top"
  eltwise_param {
    operation: SUM
  }
}
layer {
  name: "L2_b1_relu"
  type: "ReLU"
  bottom: "L2_b1_sum_eltwise_top"
  top: "L2_b1_sum_eltwise_top"
}
layer {
  name: "L2_b1_zeros"
  type: "DummyData"
  top: "L2_b1_zeros"
  dummy_data_param {
    data_filler {
      type: "constant"
      value: 0
    }
    shape {
      dim: 125
      dim: 16
      dim: 16
      dim: 16
    }
  }
}
layer {
  name: "L2_b1_concat0"
  type: "Concat"
  bottom: "L2_b1_sum_eltwise_top"
  bottom: "L2_b1_zeros"
  top: "L2_b1_concat0"
  concat_param {
    axis: 1
  }
}
layer {
  name: "L2_b2_cbr1_conv"
  type: "Convolution"
  bottom: "L2_b1_concat0"
  top: "L2_b2_cbr1_conv_top"
  param {
    lr_mult: 1
    decay_mult: 1
  }
  param {
    lr_mult: 2
    decay_mult: 0
  }
  convolution_param {
    num_output: 32
    pad: 1
    kernel_size: 3
    stride: 1
    weight_filler {
      type: "msra"
    }
    bias_filler {
      type: "constant"
    }
  }
}
layer {
  name: "L2_b2_cbr1_bn"
  type: "BatchNorm"
  bottom: "L2_b2_cbr1_conv_top"
  top: "L2_b2_cbr1_bn_top"
  include {
    phase: TRAIN
  }
  batch_norm_param {
    use_global_stats: false
    moving_average_fraction: 0.95
  }
}
layer {
  name: "L2_b2_cbr1_scale"
  type: "Scale"
  bottom: "L2_b2_cbr1_bn_top"
  top: "L2_b2_cbr1_bn_top"
  scale_param {
    bias_term: true
  }
}
layer {
  name: "L2_b2_cbr1_relu"
  type: "ReLU"
  bottom: "L2_b2_cbr1_bn_top"
  top: "L2_b2_cbr1_bn_top"
}
layer {
  name: "L2_b2_cbr2_conv"
  type: "Convolution"
  bottom: "L2_b2_cbr1_bn_top"
  top: "L2_b2_cbr2_conv_top"
  param {
    lr_mult: 1
    decay_mult: 1
  }
  param {
    lr_mult: 2
    decay_mult: 0
  }
  convolution_param {
    num_output: 32
    pad: 1
    kernel_size: 3
    stride: 1
    weight_filler {
      type: "msra"
    }
    bias_filler {
      type: "constant"
    }
  }
}
layer {
  name: "L2_b2_cbr2_bn"
  type: "BatchNorm"
  bottom: "L2_b2_cbr2_conv_top"
  top: "L2_b2_cbr2_bn_top"
  include {
    phase: TRAIN
  }
  batch_norm_param {
    use_global_stats: false
    moving_average_fraction: 0.95
  }
}
layer {
  name: "L2_b2_cbr2_scale"
  type: "Scale"
  bottom: "L2_b2_cbr2_bn_top"
  top: "L2_b2_cbr2_bn_top"
  scale_param {
    bias_term: true
  }
}
layer {
  name: "L2_b2_sum_eltwise"
  type: "Eltwise"
  bottom: "L2_b2_cbr2_bn_top"
  bottom: "L2_b1_concat0"
  top: "L2_b2_sum_eltwise_top"
  eltwise_param {
    operation: SUM
  }
}
layer {
  name: "L2_b2_relu"
  type: "ReLU"
  bottom: "L2_b2_sum_eltwise_top"
  top: "L2_b2_sum_eltwise_top"
}
layer {
  name: "L2_b3_cbr1_conv"
  type: "Convolution"
  bottom: "L2_b2_sum_eltwise_top"
  top: "L2_b3_cbr1_conv_top"
  param {
    lr_mult: 1
    decay_mult: 1
  }
  param {
    lr_mult: 2
    decay_mult: 0
  }
  convolution_param {
    num_output: 32
    pad: 1
    kernel_size: 3
    stride: 1
    weight_filler {
      type: "msra"
    }
    bias_filler {
      type: "constant"
    }
  }
}
layer {
  name: "L2_b3_cbr1_bn"
  type: "BatchNorm"
  bottom: "L2_b3_cbr1_conv_top"
  top: "L2_b3_cbr1_bn_top"
  include {
    phase: TRAIN
  }
  batch_norm_param {
    use_global_stats: false
    moving_average_fraction: 0.95
  }
}
layer {
  name: "L2_b3_cbr1_scale"
  type: "Scale"
  bottom: "L2_b3_cbr1_bn_top"
  top: "L2_b3_cbr1_bn_top"
  scale_param {
    bias_term: true
  }
}
layer {
  name: "L2_b3_cbr1_relu"
  type: "ReLU"
  bottom: "L2_b3_cbr1_bn_top"
  top: "L2_b3_cbr1_bn_top"
}
layer {
  name: "L2_b3_cbr2_conv"
  type: "Convolution"
  bottom: "L2_b3_cbr1_bn_top"
  top: "L2_b3_cbr2_conv_top"
  param {
    lr_mult: 1
    decay_mult: 1
  }
  param {
    lr_mult: 2
    decay_mult: 0
  }
  convolution_param {
    num_output: 32
    pad: 1
    kernel_size: 3
    stride: 1
    weight_filler {
      type: "msra"
    }
    bias_filler {
      type: "constant"
    }
  }
}
layer {
  name: "L2_b3_cbr2_bn"
  type: "BatchNorm"
  bottom: "L2_b3_cbr2_conv_top"
  top: "L2_b3_cbr2_bn_top"
  include {
    phase: TRAIN
  }
  batch_norm_param {
    use_global_stats: false
    moving_average_fraction: 0.95
  }
}
layer {
  name: "L2_b3_cbr2_scale"
  type: "Scale"
  bottom: "L2_b3_cbr2_bn_top"
  top: "L2_b3_cbr2_bn_top"
  scale_param {
    bias_term: true
  }
}
layer {
  name: "L2_b3_sum_eltwise"
  type: "Eltwise"
  bottom: "L2_b3_cbr2_bn_top"
  bottom: "L2_b2_sum_eltwise_top"
  top: "L2_b3_sum_eltwise_top"
  eltwise_param {
    operation: SUM
  }
}
layer {
  name: "L2_b3_relu"
  type: "ReLU"
  bottom: "L2_b3_sum_eltwise_top"
  top: "L2_b3_sum_eltwise_top"
}
layer {
  name: "L2_b4_cbr1_conv"
  type: "Convolution"
  bottom: "L2_b3_sum_eltwise_top"
  top: "L2_b4_cbr1_conv_top"
  param {
    lr_mult: 1
    decay_mult: 1
  }
  param {
    lr_mult: 2
    decay_mult: 0
  }
  convolution_param {
    num_output: 32
    pad: 1
    kernel_size: 3
    stride: 1
    weight_filler {
      type: "msra"
    }
    bias_filler {
      type: "constant"
    }
  }
}
layer {
  name: "L2_b4_cbr1_bn"
  type: "BatchNorm"
  bottom: "L2_b4_cbr1_conv_top"
  top: "L2_b4_cbr1_bn_top"
  include {
    phase: TRAIN
  }
  batch_norm_param {
    use_global_stats: false
    moving_average_fraction: 0.95
  }
}
layer {
  name: "L2_b4_cbr1_scale"
  type: "Scale"
  bottom: "L2_b4_cbr1_bn_top"
  top: "L2_b4_cbr1_bn_top"
  scale_param {
    bias_term: true
  }
}
layer {
  name: "L2_b4_cbr1_relu"
  type: "ReLU"
  bottom: "L2_b4_cbr1_bn_top"
  top: "L2_b4_cbr1_bn_top"
}
layer {
  name: "L2_b4_cbr2_conv"
  type: "Convolution"
  bottom: "L2_b4_cbr1_bn_top"
  top: "L2_b4_cbr2_conv_top"
  param {
    lr_mult: 1
    decay_mult: 1
  }
  param {
    lr_mult: 2
    decay_mult: 0
  }
  convolution_param {
    num_output: 32
    pad: 1
    kernel_size: 3
    stride: 1
    weight_filler {
      type: "msra"
    }
    bias_filler {
      type: "constant"
    }
  }
}
layer {
  name: "L2_b4_cbr2_bn"
  type: "BatchNorm"
  bottom: "L2_b4_cbr2_conv_top"
  top: "L2_b4_cbr2_bn_top"
  include {
    phase: TRAIN
  }
  batch_norm_param {
    use_global_stats: false
    moving_average_fraction: 0.95
  }
}
layer {
  name: "L2_b4_cbr2_scale"
  type: "Scale"
  bottom: "L2_b4_cbr2_bn_top"
  top: "L2_b4_cbr2_bn_top"
  scale_param {
    bias_term: true
  }
}
layer {
  name: "L2_b4_sum_eltwise"
  type: "Eltwise"
  bottom: "L2_b4_cbr2_bn_top"
  bottom: "L2_b3_sum_eltwise_top"
  top: "L2_b4_sum_eltwise_top"
  eltwise_param {
    operation: SUM
  }
}
layer {
  name: "L2_b4_relu"
  type: "ReLU"
  bottom: "L2_b4_sum_eltwise_top"
  top: "L2_b4_sum_eltwise_top"
}
layer {
  name: "L2_b5_cbr1_conv"
  type: "Convolution"
  bottom: "L2_b4_sum_eltwise_top"
  top: "L2_b5_cbr1_conv_top"
  param {
    lr_mult: 1
    decay_mult: 1
  }
  param {
    lr_mult: 2
    decay_mult: 0
  }
  convolution_param {
    num_output: 32
    pad: 1
    kernel_size: 3
    stride: 1
    weight_filler {
      type: "msra"
    }
    bias_filler {
      type: "constant"
    }
  }
}
layer {
  name: "L2_b5_cbr1_bn"
  type: "BatchNorm"
  bottom: "L2_b5_cbr1_conv_top"
  top: "L2_b5_cbr1_bn_top"
  include {
    phase: TRAIN
  }
  batch_norm_param {
    use_global_stats: false
    moving_average_fraction: 0.95
  }
}
layer {
  name: "L2_b5_cbr1_scale"
  type: "Scale"
  bottom: "L2_b5_cbr1_bn_top"
  top: "L2_b5_cbr1_bn_top"
  scale_param {
    bias_term: true
  }
}
layer {
  name: "L2_b5_cbr1_relu"
  type: "ReLU"
  bottom: "L2_b5_cbr1_bn_top"
  top: "L2_b5_cbr1_bn_top"
}
layer {
  name: "L2_b5_cbr2_conv"
  type: "Convolution"
  bottom: "L2_b5_cbr1_bn_top"
  top: "L2_b5_cbr2_conv_top"
  param {
    lr_mult: 1
    decay_mult: 1
  }
  param {
    lr_mult: 2
    decay_mult: 0
  }
  convolution_param {
    num_output: 32
    pad: 1
    kernel_size: 3
    stride: 1
    weight_filler {
      type: "msra"
    }
    bias_filler {
      type: "constant"
    }
  }
}
layer {
  name: "L2_b5_cbr2_bn"
  type: "BatchNorm"
  bottom: "L2_b5_cbr2_conv_top"
  top: "L2_b5_cbr2_bn_top"
  include {
    phase: TRAIN
  }
  batch_norm_param {
    use_global_stats: false
    moving_average_fraction: 0.95
  }
}
layer {
  name: "L2_b5_cbr2_scale"
  type: "Scale"
  bottom: "L2_b5_cbr2_bn_top"
  top: "L2_b5_cbr2_bn_top"
  scale_param {
    bias_term: true
  }
}
layer {
  name: "L2_b5_sum_eltwise"
  type: "Eltwise"
  bottom: "L2_b5_cbr2_bn_top"
  bottom: "L2_b4_sum_eltwise_top"
  top: "L2_b5_sum_eltwise_top"
  eltwise_param {
    operation: SUM
  }
}
layer {
  name: "L2_b5_relu"
  type: "ReLU"
  bottom: "L2_b5_sum_eltwise_top"
  top: "L2_b5_sum_eltwise_top"
}
layer {
  name: "L2_b6_cbr1_conv"
  type: "Convolution"
  bottom: "L2_b5_sum_eltwise_top"
  top: "L2_b6_cbr1_conv_top"
  param {
    lr_mult: 1
    decay_mult: 1
  }
  param {
    lr_mult: 2
    decay_mult: 0
  }
  convolution_param {
    num_output: 32
    pad: 1
    kernel_size: 3
    stride: 1
    weight_filler {
      type: "msra"
    }
    bias_filler {
      type: "constant"
    }
  }
}
layer {
  name: "L2_b6_cbr1_bn"
  type: "BatchNorm"
  bottom: "L2_b6_cbr1_conv_top"
  top: "L2_b6_cbr1_bn_top"
  include {
    phase: TRAIN
  }
  batch_norm_param {
    use_global_stats: false
    moving_average_fraction: 0.95
  }
}
layer {
  name: "L2_b
I0817 16:08:12.714296 17615 layer_factory.hpp:77] Creating layer dataLayer
I0817 16:08:12.715435 17615 net.cpp:100] Creating Layer dataLayer
I0817 16:08:12.715502 17615 net.cpp:408] dataLayer -> data_top
I0817 16:08:12.715685 17615 net.cpp:408] dataLayer -> label
I0817 16:08:12.715777 17615 data_transformer.cpp:25] Loading mean file from: examples/cifar10/mean.binaryproto
I0817 16:08:12.746305 17620 db_lmdb.cpp:35] Opened lmdb examples/cifar10/cifar10_train10k_lmdb
I0817 16:08:12.746752 17615 data_layer.cpp:41] output data size: 125,3,32,32
I0817 16:08:12.754341 17615 net.cpp:150] Setting up dataLayer
I0817 16:08:12.754403 17615 net.cpp:157] Top shape: 125 3 32 32 (384000)
I0817 16:08:12.754416 17615 net.cpp:157] Top shape: 125 (125)
I0817 16:08:12.754422 17615 net.cpp:165] Memory required for data: 1536500
I0817 16:08:12.754436 17615 layer_factory.hpp:77] Creating layer label_dataLayer_1_split
I0817 16:08:12.754449 17615 net.cpp:100] Creating Layer label_dataLayer_1_split
I0817 16:08:12.754457 17615 net.cpp:434] label_dataLayer_1_split <- label
I0817 16:08:12.754474 17615 net.cpp:408] label_dataLayer_1_split -> label_dataLayer_1_split_0
I0817 16:08:12.754489 17615 net.cpp:408] label_dataLayer_1_split -> label_dataLayer_1_split_1
I0817 16:08:12.754560 17615 net.cpp:150] Setting up label_dataLayer_1_split
I0817 16:08:12.754575 17615 net.cpp:157] Top shape: 125 (125)
I0817 16:08:12.754581 17615 net.cpp:157] Top shape: 125 (125)
I0817 16:08:12.754586 17615 net.cpp:165] Memory required for data: 1537500
I0817 16:08:12.754591 17615 layer_factory.hpp:77] Creating layer pre_conv
I0817 16:08:12.754658 17615 net.cpp:100] Creating Layer pre_conv
I0817 16:08:12.754672 17615 net.cpp:434] pre_conv <- data_top
I0817 16:08:12.754684 17615 net.cpp:408] pre_conv -> pre_conv_top
I0817 16:08:12.756400 17615 net.cpp:150] Setting up pre_conv
I0817 16:08:12.756422 17615 net.cpp:157] Top shape: 125 16 32 32 (2048000)
I0817 16:08:12.756428 17615 net.cpp:165] Memory required for data: 9729500
I0817 16:08:12.756490 17615 layer_factory.hpp:77] Creating layer pre_bn
I0817 16:08:12.756557 17615 net.cpp:100] Creating Layer pre_bn
I0817 16:08:12.756569 17615 net.cpp:434] pre_bn <- pre_conv_top
I0817 16:08:12.756578 17615 net.cpp:408] pre_bn -> pre_bn_top
I0817 16:08:12.757114 17621 blocking_queue.cpp:50] Waiting for data
I0817 16:08:12.757135 17615 net.cpp:150] Setting up pre_bn
I0817 16:08:12.757155 17615 net.cpp:157] Top shape: 125 16 32 32 (2048000)
I0817 16:08:12.757161 17615 net.cpp:165] Memory required for data: 17921500
I0817 16:08:12.757179 17615 layer_factory.hpp:77] Creating layer pre_scale
I0817 16:08:12.757232 17615 net.cpp:100] Creating Layer pre_scale
I0817 16:08:12.757242 17615 net.cpp:434] pre_scale <- pre_bn_top
I0817 16:08:12.757252 17615 net.cpp:395] pre_scale -> pre_bn_top (in-place)
I0817 16:08:12.757423 17615 layer_factory.hpp:77] Creating layer pre_scale
I0817 16:08:12.757683 17615 net.cpp:150] Setting up pre_scale
I0817 16:08:12.757699 17615 net.cpp:157] Top shape: 125 16 32 32 (2048000)
I0817 16:08:12.757704 17615 net.cpp:165] Memory required for data: 26113500
I0817 16:08:12.757715 17615 layer_factory.hpp:77] Creating layer pre_relu
I0817 16:08:12.757760 17615 net.cpp:100] Creating Layer pre_relu
I0817 16:08:12.757771 17615 net.cpp:434] pre_relu <- pre_bn_top
I0817 16:08:12.757781 17615 net.cpp:395] pre_relu -> pre_bn_top (in-place)
I0817 16:08:12.757793 17615 net.cpp:150] Setting up pre_relu
I0817 16:08:12.757800 17615 net.cpp:157] Top shape: 125 16 32 32 (2048000)
I0817 16:08:12.757805 17615 net.cpp:165] Memory required for data: 34305500
I0817 16:08:12.757810 17615 layer_factory.hpp:77] Creating layer pre_bn_top_pre_relu_0_split
I0817 16:08:12.757818 17615 net.cpp:100] Creating Layer pre_bn_top_pre_relu_0_split
I0817 16:08:12.757823 17615 net.cpp:434] pre_bn_top_pre_relu_0_split <- pre_bn_top
I0817 16:08:12.757833 17615 net.cpp:408] pre_bn_top_pre_relu_0_split -> pre_bn_top_pre_relu_0_split_0
I0817 16:08:12.757843 17615 net.cpp:408] pre_bn_top_pre_relu_0_split -> pre_bn_top_pre_relu_0_split_1
I0817 16:08:12.757889 17615 net.cpp:150] Setting up pre_bn_top_pre_relu_0_split
I0817 16:08:12.757901 17615 net.cpp:157] Top shape: 125 16 32 32 (2048000)
I0817 16:08:12.757908 17615 net.cpp:157] Top shape: 125 16 32 32 (2048000)
I0817 16:08:12.757913 17615 net.cpp:165] Memory required for data: 50689500
I0817 16:08:12.757918 17615 layer_factory.hpp:77] Creating layer L1_b1_cbr1_conv
I0817 16:08:12.757933 17615 net.cpp:100] Creating Layer L1_b1_cbr1_conv
I0817 16:08:12.757939 17615 net.cpp:434] L1_b1_cbr1_conv <- pre_bn_top_pre_relu_0_split_0
I0817 16:08:12.757948 17615 net.cpp:408] L1_b1_cbr1_conv -> L1_b1_cbr1_conv_top
I0817 16:08:12.758255 17615 net.cpp:150] Setting up L1_b1_cbr1_conv
I0817 16:08:12.758270 17615 net.cpp:157] Top shape: 125 16 32 32 (2048000)
I0817 16:08:12.758275 17615 net.cpp:165] Memory required for data: 58881500
I0817 16:08:12.758291 17615 layer_factory.hpp:77] Creating layer L1_b1_cbr1_bn
I0817 16:08:12.758306 17615 net.cpp:100] Creating Layer L1_b1_cbr1_bn
I0817 16:08:12.758311 17615 net.cpp:434] L1_b1_cbr1_bn <- L1_b1_cbr1_conv_top
I0817 16:08:12.758319 17615 net.cpp:408] L1_b1_cbr1_bn -> L1_b1_cbr1_bn_top
I0817 16:08:12.758546 17615 net.cpp:150] Setting up L1_b1_cbr1_bn
I0817 16:08:12.758560 17615 net.cpp:157] Top shape: 125 16 32 32 (2048000)
I0817 16:08:12.758565 17615 net.cpp:165] Memory required for data: 67073500
I0817 16:08:12.758576 17615 layer_factory.hpp:77] Creating layer L1_b1_cbr1_scale
I0817 16:08:12.758586 17615 net.cpp:100] Creating Layer L1_b1_cbr1_scale
I0817 16:08:12.758591 17615 net.cpp:434] L1_b1_cbr1_scale <- L1_b1_cbr1_bn_top
I0817 16:08:12.758602 17615 net.cpp:395] L1_b1_cbr1_scale -> L1_b1_cbr1_bn_top (in-place)
I0817 16:08:12.758659 17615 layer_factory.hpp:77] Creating layer L1_b1_cbr1_scale
I0817 16:08:12.758800 17615 net.cpp:150] Setting up L1_b1_cbr1_scale
I0817 16:08:12.758815 17615 net.cpp:157] Top shape: 125 16 32 32 (2048000)
I0817 16:08:12.758819 17615 net.cpp:165] Memory required for data: 75265500
I0817 16:08:12.758828 17615 layer_factory.hpp:77] Creating layer L1_b1_cbr1_relu
I0817 16:08:12.758844 17615 net.cpp:100] Creating Layer L1_b1_cbr1_relu
I0817 16:08:12.758852 17615 net.cpp:434] L1_b1_cbr1_relu <- L1_b1_cbr1_bn_top
I0817 16:08:12.758858 17615 net.cpp:395] L1_b1_cbr1_relu -> L1_b1_cbr1_bn_top (in-place)
I0817 16:08:12.758867 17615 net.cpp:150] Setting up L1_b1_cbr1_relu
I0817 16:08:12.758874 17615 net.cpp:157] Top shape: 125 16 32 32 (2048000)
I0817 16:08:12.758879 17615 net.cpp:165] Memory required for data: 83457500
I0817 16:08:12.758884 17615 layer_factory.hpp:77] Creating layer L1_b1_cbr2_conv
I0817 16:08:12.758899 17615 net.cpp:100] Creating Layer L1_b1_cbr2_conv
I0817 16:08:12.758905 17615 net.cpp:434] L1_b1_cbr2_conv <- L1_b1_cbr1_bn_top
I0817 16:08:12.758916 17615 net.cpp:408] L1_b1_cbr2_conv -> L1_b1_cbr2_conv_top
I0817 16:08:12.759220 17615 net.cpp:150] Setting up L1_b1_cbr2_conv
I0817 16:08:12.759234 17615 net.cpp:157] Top shape: 125 16 32 32 (2048000)
I0817 16:08:12.759239 17615 net.cpp:165] Memory required for data: 91649500
I0817 16:08:12.759248 17615 layer_factory.hpp:77] Creating layer L1_b1_cbr2_bn
I0817 16:08:12.759268 17615 net.cpp:100] Creating Layer L1_b1_cbr2_bn
I0817 16:08:12.759274 17615 net.cpp:434] L1_b1_cbr2_bn <- L1_b1_cbr2_conv_top
I0817 16:08:12.759285 17615 net.cpp:408] L1_b1_cbr2_bn -> L1_b1_cbr2_bn_top
I0817 16:08:12.759516 17615 net.cpp:150] Setting up L1_b1_cbr2_bn
I0817 16:08:12.759528 17615 net.cpp:157] Top shape: 125 16 32 32 (2048000)
I0817 16:08:12.759533 17615 net.cpp:165] Memory required for data: 99841500
I0817 16:08:12.759547 17615 layer_factory.hpp:77] Creating layer L1_b1_cbr2_scale
I0817 16:08:12.759559 17615 net.cpp:100] Creating Layer L1_b1_cbr2_scale
I0817 16:08:12.759565 17615 net.cpp:434] L1_b1_cbr2_scale <- L1_b1_cbr2_bn_top
I0817 16:08:12.759573 17615 net.cpp:395] L1_b1_cbr2_scale -> L1_b1_cbr2_bn_top (in-place)
I0817 16:08:12.759636 17615 layer_factory.hpp:77] Creating layer L1_b1_cbr2_scale
I0817 16:08:12.759773 17615 net.cpp:150] Setting up L1_b1_cbr2_scale
I0817 16:08:12.759788 17615 net.cpp:157] Top shape: 125 16 32 32 (2048000)
I0817 16:08:12.759793 17615 net.cpp:165] Memory required for data: 108033500
I0817 16:08:12.759801 17615 layer_factory.hpp:77] Creating layer L1_b1_sum_eltwise
I0817 16:08:12.759852 17615 net.cpp:100] Creating Layer L1_b1_sum_eltwise
I0817 16:08:12.759863 17615 net.cpp:434] L1_b1_sum_eltwise <- L1_b1_cbr2_bn_top
I0817 16:08:12.759871 17615 net.cpp:434] L1_b1_sum_eltwise <- pre_bn_top_pre_relu_0_split_1
I0817 16:08:12.759883 17615 net.cpp:408] L1_b1_sum_eltwise -> L1_b1_sum_eltwise_top
I0817 16:08:12.759953 17615 net.cpp:150] Setting up L1_b1_sum_eltwise
I0817 16:08:12.759970 17615 net.cpp:157] Top shape: 125 16 32 32 (2048000)
I0817 16:08:12.759976 17615 net.cpp:165] Memory required for data: 116225500
I0817 16:08:12.759982 17615 layer_factory.hpp:77] Creating layer L1_b1_relu
I0817 16:08:12.759990 17615 net.cpp:100] Creating Layer L1_b1_relu
I0817 16:08:12.759996 17615 net.cpp:434] L1_b1_relu <- L1_b1_sum_eltwise_top
I0817 16:08:12.760004 17615 net.cpp:395] L1_b1_relu -> L1_b1_sum_eltwise_top (in-place)
I0817 16:08:12.760013 17615 net.cpp:150] Setting up L1_b1_relu
I0817 16:08:12.760020 17615 net.cpp:157] Top shape: 125 16 32 32 (2048000)
I0817 16:08:12.760025 17615 net.cpp:165] Memory required for data: 124417500
I0817 16:08:12.760030 17615 layer_factory.hpp:77] Creating layer L1_b1_sum_eltwise_top_L1_b1_relu_0_split
I0817 16:08:12.760051 17615 net.cpp:100] Creating Layer L1_b1_sum_eltwise_top_L1_b1_relu_0_split
I0817 16:08:12.760057 17615 net.cpp:434] L1_b1_sum_eltwise_top_L1_b1_relu_0_split <- L1_b1_sum_eltwise_top
I0817 16:08:12.760064 17615 net.cpp:408] L1_b1_sum_eltwise_top_L1_b1_relu_0_split -> L1_b1_sum_eltwise_top_L1_b1_relu_0_split_0
I0817 16:08:12.760073 17615 net.cpp:408] L1_b1_sum_eltwise_top_L1_b1_relu_0_split -> L1_b1_sum_eltwise_top_L1_b1_relu_0_split_1
I0817 16:08:12.760118 17615 net.cpp:150] Setting up L1_b1_sum_eltwise_top_L1_b1_relu_0_split
I0817 16:08:12.760129 17615 net.cpp:157] Top shape: 125 16 32 32 (2048000)
I0817 16:08:12.760136 17615 net.cpp:157] Top shape: 125 16 32 32 (2048000)
I0817 16:08:12.760149 17615 net.cpp:165] Memory required for data: 140801500
I0817 16:08:12.760154 17615 layer_factory.hpp:77] Creating layer L1_b2_cbr1_conv
I0817 16:08:12.760165 17615 net.cpp:100] Creating Layer L1_b2_cbr1_conv
I0817 16:08:12.760171 17615 net.cpp:434] L1_b2_cbr1_conv <- L1_b1_sum_eltwise_top_L1_b1_relu_0_split_0
I0817 16:08:12.760184 17615 net.cpp:408] L1_b2_cbr1_conv -> L1_b2_cbr1_conv_top
I0817 16:08:12.760514 17615 net.cpp:150] Setting up L1_b2_cbr1_conv
I0817 16:08:12.760529 17615 net.cpp:157] Top shape: 125 16 32 32 (2048000)
I0817 16:08:12.760534 17615 net.cpp:165] Memory required for data: 148993500
I0817 16:08:12.760543 17615 layer_factory.hpp:77] Creating layer L1_b2_cbr1_bn
I0817 16:08:12.760552 17615 net.cpp:100] Creating Layer L1_b2_cbr1_bn
I0817 16:08:12.760558 17615 net.cpp:434] L1_b2_cbr1_bn <- L1_b2_cbr1_conv_top
I0817 16:08:12.760571 17615 net.cpp:408] L1_b2_cbr1_bn -> L1_b2_cbr1_bn_top
I0817 16:08:12.760849 17615 net.cpp:150] Setting up L1_b2_cbr1_bn
I0817 16:08:12.760869 17615 net.cpp:157] Top shape: 125 16 32 32 (2048000)
I0817 16:08:12.760874 17615 net.cpp:165] Memory required for data: 157185500
I0817 16:08:12.760885 17615 layer_factory.hpp:77] Creating layer L1_b2_cbr1_scale
I0817 16:08:12.760895 17615 net.cpp:100] Creating Layer L1_b2_cbr1_scale
I0817 16:08:12.760900 17615 net.cpp:434] L1_b2_cbr1_scale <- L1_b2_cbr1_bn_top
I0817 16:08:12.760907 17615 net.cpp:395] L1_b2_cbr1_scale -> L1_b2_cbr1_bn_top (in-place)
I0817 16:08:12.760958 17615 layer_factory.hpp:77] Creating layer L1_b2_cbr1_scale
I0817 16:08:12.761101 17615 net.cpp:150] Setting up L1_b2_cbr1_scale
I0817 16:08:12.761113 17615 net.cpp:157] Top shape: 125 16 32 32 (2048000)
I0817 16:08:12.761118 17615 net.cpp:165] Memory required for data: 165377500
I0817 16:08:12.761128 17615 layer_factory.hpp:77] Creating layer L1_b2_cbr1_relu
I0817 16:08:12.761139 17615 net.cpp:100] Creating Layer L1_b2_cbr1_relu
I0817 16:08:12.761145 17615 net.cpp:434] L1_b2_cbr1_relu <- L1_b2_cbr1_bn_top
I0817 16:08:12.761152 17615 net.cpp:395] L1_b2_cbr1_relu -> L1_b2_cbr1_bn_top (in-place)
I0817 16:08:12.761162 17615 net.cpp:150] Setting up L1_b2_cbr1_relu
I0817 16:08:12.761168 17615 net.cpp:157] Top shape: 125 16 32 32 (2048000)
I0817 16:08:12.761173 17615 net.cpp:165] Memory required for data: 173569500
I0817 16:08:12.761178 17615 layer_factory.hpp:77] Creating layer L1_b2_cbr2_conv
I0817 16:08:12.761193 17615 net.cpp:100] Creating Layer L1_b2_cbr2_conv
I0817 16:08:12.761198 17615 net.cpp:434] L1_b2_cbr2_conv <- L1_b2_cbr1_bn_top
I0817 16:08:12.761209 17615 net.cpp:408] L1_b2_cbr2_conv -> L1_b2_cbr2_conv_top
I0817 16:08:12.761509 17615 net.cpp:150] Setting up L1_b2_cbr2_conv
I0817 16:08:12.761523 17615 net.cpp:157] Top shape: 125 16 32 32 (2048000)
I0817 16:08:12.761528 17615 net.cpp:165] Memory required for data: 181761500
I0817 16:08:12.761538 17615 layer_factory.hpp:77] Creating layer L1_b2_cbr2_bn
I0817 16:08:12.761546 17615 net.cpp:100] Creating Layer L1_b2_cbr2_bn
I0817 16:08:12.761553 17615 net.cpp:434] L1_b2_cbr2_bn <- L1_b2_cbr2_conv_top
I0817 16:08:12.761562 17615 net.cpp:408] L1_b2_cbr2_bn -> L1_b2_cbr2_bn_top
I0817 16:08:12.761804 17615 net.cpp:150] Setting up L1_b2_cbr2_bn
I0817 16:08:12.761818 17615 net.cpp:157] Top shape: 125 16 32 32 (2048000)
I0817 16:08:12.761823 17615 net.cpp:165] Memory required for data: 189953500
I0817 16:08:12.761842 17615 layer_factory.hpp:77] Creating layer L1_b2_cbr2_scale
I0817 16:08:12.761852 17615 net.cpp:100] Creating Layer L1_b2_cbr2_scale
I0817 16:08:12.761857 17615 net.cpp:434] L1_b2_cbr2_scale <- L1_b2_cbr2_bn_top
I0817 16:08:12.761864 17615 net.cpp:395] L1_b2_cbr2_scale -> L1_b2_cbr2_bn_top (in-place)
I0817 16:08:12.761919 17615 layer_factory.hpp:77] Creating layer L1_b2_cbr2_scale
I0817 16:08:12.762058 17615 net.cpp:150] Setting up L1_b2_cbr2_scale
I0817 16:08:12.762071 17615 net.cpp:157] Top shape: 125 16 32 32 (2048000)
I0817 16:08:12.762076 17615 net.cpp:165] Memory required for data: 198145500
I0817 16:08:12.762085 17615 layer_factory.hpp:77] Creating layer L1_b2_sum_eltwise
I0817 16:08:12.762101 17615 net.cpp:100] Creating Layer L1_b2_sum_eltwise
I0817 16:08:12.762118 17615 net.cpp:434] L1_b2_sum_eltwise <- L1_b2_cbr2_bn_top
I0817 16:08:12.762125 17615 net.cpp:434] L1_b2_sum_eltwise <- L1_b1_sum_eltwise_top_L1_b1_relu_0_split_1
I0817 16:08:12.762133 17615 net.cpp:408] L1_b2_sum_eltwise -> L1_b2_sum_eltwise_top
I0817 16:08:12.762167 17615 net.cpp:150] Setting up L1_b2_sum_eltwise
I0817 16:08:12.762178 17615 net.cpp:157] Top shape: 125 16 32 32 (2048000)
I0817 16:08:12.762183 17615 net.cpp:165] Memory required for data: 206337500
I0817 16:08:12.762189 17615 layer_factory.hpp:77] Creating layer L1_b2_relu
I0817 16:08:12.762197 17615 net.cpp:100] Creating Layer L1_b2_relu
I0817 16:08:12.762202 17615 net.cpp:434] L1_b2_relu <- L1_b2_sum_eltwise_top
I0817 16:08:12.762209 17615 net.cpp:395] L1_b2_relu -> L1_b2_sum_eltwise_top (in-place)
I0817 16:08:12.762218 17615 net.cpp:150] Setting up L1_b2_relu
I0817 16:08:12.762224 17615 net.cpp:157] Top shape: 125 16 32 32 (2048000)
I0817 16:08:12.762229 17615 net.cpp:165] Memory required for data: 214529500
I0817 16:08:12.762233 17615 layer_factory.hpp:77] Creating layer L1_b2_sum_eltwise_top_L1_b2_relu_0_split
I0817 16:08:12.762241 17615 net.cpp:100] Creating Layer L1_b2_sum_eltwise_top_L1_b2_relu_0_split
I0817 16:08:12.762246 17615 net.cpp:434] L1_b2_sum_eltwise_top_L1_b2_relu_0_split <- L1_b2_sum_eltwise_top
I0817 16:08:12.762253 17615 net.cpp:408] L1_b2_sum_eltwise_top_L1_b2_relu_0_split -> L1_b2_sum_eltwise_top_L1_b2_relu_0_split_0
I0817 16:08:12.762262 17615 net.cpp:408] L1_b2_sum_eltwise_top_L1_b2_relu_0_split -> L1_b2_sum_eltwise_top_L1_b2_relu_0_split_1
I0817 16:08:12.762306 17615 net.cpp:150] Setting up L1_b2_sum_eltwise_top_L1_b2_relu_0_split
I0817 16:08:12.762318 17615 net.cpp:157] Top shape: 125 16 32 32 (2048000)
I0817 16:08:12.762325 17615 net.cpp:157] Top shape: 125 16 32 32 (2048000)
I0817 16:08:12.762329 17615 net.cpp:165] Memory required for data: 230913500
I0817 16:08:12.762334 17615 layer_factory.hpp:77] Creating layer L1_b3_cbr1_conv
I0817 16:08:12.762348 17615 net.cpp:100] Creating Layer L1_b3_cbr1_conv
I0817 16:08:12.762354 17615 net.cpp:434] L1_b3_cbr1_conv <- L1_b2_sum_eltwise_top_L1_b2_relu_0_split_0
I0817 16:08:12.762364 17615 net.cpp:408] L1_b3_cbr1_conv -> L1_b3_cbr1_conv_top
I0817 16:08:12.762675 17615 net.cpp:150] Setting up L1_b3_cbr1_conv
I0817 16:08:12.762688 17615 net.cpp:157] Top shape: 125 16 32 32 (2048000)
I0817 16:08:12.762694 17615 net.cpp:165] Memory required for data: 239105500
I0817 16:08:12.762702 17615 layer_factory.hpp:77] Creating layer L1_b3_cbr1_bn
I0817 16:08:12.762714 17615 net.cpp:100] Creating Layer L1_b3_cbr1_bn
I0817 16:08:12.762720 17615 net.cpp:434] L1_b3_cbr1_bn <- L1_b3_cbr1_conv_top
I0817 16:08:12.762732 17615 net.cpp:408] L1_b3_cbr1_bn -> L1_b3_cbr1_bn_top
I0817 16:08:12.762961 17615 net.cpp:150] Setting up L1_b3_cbr1_bn
I0817 16:08:12.762974 17615 net.cpp:157] Top shape: 125 16 32 32 (2048000)
I0817 16:08:12.762979 17615 net.cpp:165] Memory required for data: 247297500
I0817 16:08:12.762990 17615 layer_factory.hpp:77] Creating layer L1_b3_cbr1_scale
I0817 16:08:12.762998 17615 net.cpp:100] Creating Layer L1_b3_cbr1_scale
I0817 16:08:12.763005 17615 net.cpp:434] L1_b3_cbr1_scale <- L1_b3_cbr1_bn_top
I0817 16:08:12.763012 17615 net.cpp:395] L1_b3_cbr1_scale -> L1_b3_cbr1_bn_top (in-place)
I0817 16:08:12.763069 17615 layer_factory.hpp:77] Creating layer L1_b3_cbr1_scale
I0817 16:08:12.763207 17615 net.cpp:150] Setting up L1_b3_cbr1_scale
I0817 16:08:12.763221 17615 net.cpp:157] Top shape: 125 16 32 32 (2048000)
I0817 16:08:12.763226 17615 net.cpp:165] Memory required for data: 255489500
I0817 16:08:12.763234 17615 layer_factory.hpp:77] Creating layer L1_b3_cbr1_relu
I0817 16:08:12.763245 17615 net.cpp:100] Creating Layer L1_b3_cbr1_relu
I0817 16:08:12.763250 17615 net.cpp:434] L1_b3_cbr1_relu <- L1_b3_cbr1_bn_top
I0817 16:08:12.763258 17615 net.cpp:395] L1_b3_cbr1_relu -> L1_b3_cbr1_bn_top (in-place)
I0817 16:08:12.763267 17615 net.cpp:150] Setting up L1_b3_cbr1_relu
I0817 16:08:12.763281 17615 net.cpp:157] Top shape: 125 16 32 32 (2048000)
I0817 16:08:12.763286 17615 net.cpp:165] Memory required for data: 263681500
I0817 16:08:12.763291 17615 layer_factory.hpp:77] Creating layer L1_b3_cbr2_conv
I0817 16:08:12.763305 17615 net.cpp:100] Creating Layer L1_b3_cbr2_conv
I0817 16:08:12.763311 17615 net.cpp:434] L1_b3_cbr2_conv <- L1_b3_cbr1_bn_top
I0817 16:08:12.763322 17615 net.cpp:408] L1_b3_cbr2_conv -> L1_b3_cbr2_conv_top
I0817 16:08:12.763635 17615 net.cpp:150] Setting up L1_b3_cbr2_conv
I0817 16:08:12.763649 17615 net.cpp:157] Top shape: 125 16 32 32 (2048000)
I0817 16:08:12.763655 17615 net.cpp:165] Memory required for data: 271873500
I0817 16:08:12.763664 17615 layer_factory.hpp:77] Creating layer L1_b3_cbr2_bn
I0817 16:08:12.763679 17615 net.cpp:100] Creating Layer L1_b3_cbr2_bn
I0817 16:08:12.763685 17615 net.cpp:434] L1_b3_cbr2_bn <- L1_b3_cbr2_conv_top
I0817 16:08:12.763695 17615 net.cpp:408] L1_b3_cbr2_bn -> L1_b3_cbr2_bn_top
I0817 16:08:12.763934 17615 net.cpp:150] Setting up L1_b3_cbr2_bn
I0817 16:08:12.763948 17615 net.cpp:157] Top shape: 125 16 32 32 (2048000)
I0817 16:08:12.763953 17615 net.cpp:165] Memory required for data: 280065500
I0817 16:08:12.763963 17615 layer_factory.hpp:77] Creating layer L1_b3_cbr2_scale
I0817 16:08:12.763972 17615 net.cpp:100] Creating Layer L1_b3_cbr2_scale
I0817 16:08:12.763978 17615 net.cpp:434] L1_b3_cbr2_scale <- L1_b3_cbr2_bn_top
I0817 16:08:12.763985 17615 net.cpp:395] L1_b3_cbr2_scale -> L1_b3_cbr2_bn_top (in-place)
I0817 16:08:12.764039 17615 layer_factory.hpp:77] Creating layer L1_b3_cbr2_scale
I0817 16:08:12.764180 17615 net.cpp:150] Setting up L1_b3_cbr2_scale
I0817 16:08:12.764194 17615 net.cpp:157] Top shape: 125 16 32 32 (2048000)
I0817 16:08:12.764199 17615 net.cpp:165] Memory required for data: 288257500
I0817 16:08:12.764209 17615 layer_factory.hpp:77] Creating layer L1_b3_sum_eltwise
I0817 16:08:12.764219 17615 net.cpp:100] Creating Layer L1_b3_sum_eltwise
I0817 16:08:12.764226 17615 net.cpp:434] L1_b3_sum_eltwise <- L1_b3_cbr2_bn_top
I0817 16:08:12.764232 17615 net.cpp:434] L1_b3_sum_eltwise <- L1_b2_sum_eltwise_top_L1_b2_relu_0_split_1
I0817 16:08:12.764240 17615 net.cpp:408] L1_b3_sum_eltwise -> L1_b3_sum_eltwise_top
I0817 16:08:12.764273 17615 net.cpp:150] Setting up L1_b3_sum_eltwise
I0817 16:08:12.764283 17615 net.cpp:157] Top shape: 125 16 32 32 (2048000)
I0817 16:08:12.764288 17615 net.cpp:165] Memory required for data: 296449500
I0817 16:08:12.764293 17615 layer_factory.hpp:77] Creating layer L1_b3_relu
I0817 16:08:12.764302 17615 net.cpp:100] Creating Layer L1_b3_relu
I0817 16:08:12.764307 17615 net.cpp:434] L1_b3_relu <- L1_b3_sum_eltwise_top
I0817 16:08:12.764317 17615 net.cpp:395] L1_b3_relu -> L1_b3_sum_eltwise_top (in-place)
I0817 16:08:12.764325 17615 net.cpp:150] Setting up L1_b3_relu
I0817 16:08:12.764333 17615 net.cpp:157] Top shape: 125 16 32 32 (2048000)
I0817 16:08:12.764336 17615 net.cpp:165] Memory required for data: 304641500
I0817 16:08:12.764341 17615 layer_factory.hpp:77] Creating layer L1_b3_sum_eltwise_top_L1_b3_relu_0_split
I0817 16:08:12.764349 17615 net.cpp:100] Creating Layer L1_b3_sum_eltwise_top_L1_b3_relu_0_split
I0817 16:08:12.764354 17615 net.cpp:434] L1_b3_sum_eltwise_top_L1_b3_relu_0_split <- L1_b3_sum_eltwise_top
I0817 16:08:12.764364 17615 net.cpp:408] L1_b3_sum_eltwise_top_L1_b3_relu_0_split -> L1_b3_sum_eltwise_top_L1_b3_relu_0_split_0
I0817 16:08:12.764374 17615 net.cpp:408] L1_b3_sum_eltwise_top_L1_b3_relu_0_split -> L1_b3_sum_eltwise_top_L1_b3_relu_0_split_1
I0817 16:08:12.764415 17615 net.cpp:150] Setting up L1_b3_sum_eltwise_top_L1_b3_relu_0_split
I0817 16:08:12.764425 17615 net.cpp:157] Top shape: 125 16 32 32 (2048000)
I0817 16:08:12.764432 17615 net.cpp:157] Top shape: 125 16 32 32 (2048000)
I0817 16:08:12.764437 17615 net.cpp:165] Memory required for data: 321025500
I0817 16:08:12.764442 17615 layer_factory.hpp:77] Creating layer L1_b4_cbr1_conv
I0817 16:08:12.764457 17615 net.cpp:100] Creating Layer L1_b4_cbr1_conv
I0817 16:08:12.764464 17615 net.cpp:434] L1_b4_cbr1_conv <- L1_b3_sum_eltwise_top_L1_b3_relu_0_split_0
I0817 16:08:12.764479 17615 net.cpp:408] L1_b4_cbr1_conv -> L1_b4_cbr1_conv_top
I0817 16:08:12.764797 17615 net.cpp:150] Setting up L1_b4_cbr1_conv
I0817 16:08:12.764812 17615 net.cpp:157] Top shape: 125 16 32 32 (2048000)
I0817 16:08:12.764817 17615 net.cpp:165] Memory required for data: 329217500
I0817 16:08:12.764827 17615 layer_factory.hpp:77] Creating layer L1_b4_cbr1_bn
I0817 16:08:12.764838 17615 net.cpp:100] Creating Layer L1_b4_cbr1_bn
I0817 16:08:12.764844 17615 net.cpp:434] L1_b4_cbr1_bn <- L1_b4_cbr1_conv_top
I0817 16:08:12.764855 17615 net.cpp:408] L1_b4_cbr1_bn -> L1_b4_cbr1_bn_top
I0817 16:08:12.765087 17615 net.cpp:150] Setting up L1_b4_cbr1_bn
I0817 16:08:12.765101 17615 net.cpp:157] Top shape: 125 16 32 32 (2048000)
I0817 16:08:12.765106 17615 net.cpp:165] Memory required for data: 337409500
I0817 16:08:12.765116 17615 layer_factory.hpp:77] Creating layer L1_b4_cbr1_scale
I0817 16:08:12.765125 17615 net.cpp:100] Creating Layer L1_b4_cbr1_scale
I0817 16:08:12.765130 17615 net.cpp:434] L1_b4_cbr1_scale <- L1_b4_cbr1_bn_top
I0817 16:08:12.765141 17615 net.cpp:395] L1_b4_cbr1_scale -> L1_b4_cbr1_bn_top (in-place)
I0817 16:08:12.765194 17615 layer_factory.hpp:77] Creating layer L1_b4_cbr1_scale
I0817 16:08:12.765331 17615 net.cpp:150] Setting up L1_b4_cbr1_scale
I0817 16:08:12.765350 17615 net.cpp:157] Top shape: 125 16 32 32 (2048000)
I0817 16:08:12.765357 17615 net.cpp:165] Memory required for data: 345601500
I0817 16:08:12.765365 17615 layer_factory.hpp:77] Creating layer L1_b4_cbr1_relu
I0817 16:08:12.765373 17615 net.cpp:100] Creating Layer L1_b4_cbr1_relu
I0817 16:08:12.765378 17615 net.cpp:434] L1_b4_cbr1_relu <- L1_b4_cbr1_bn_top
I0817 16:08:12.765385 17615 net.cpp:395] L1_b4_cbr1_relu -> L1_b4_cbr1_bn_top (in-place)
I0817 16:08:12.765395 17615 net.cpp:150] Setting up L1_b4_cbr1_relu
I0817 16:08:12.765401 17615 net.cpp:157] Top shape: 125 16 32 32 (2048000)
I0817 16:08:12.765406 17615 net.cpp:165] Memory required for data: 353793500
I0817 16:08:12.765411 17615 layer_factory.hpp:77] Creating layer L1_b4_cbr2_conv
I0817 16:08:12.765425 17615 net.cpp:100] Creating Layer L1_b4_cbr2_conv
I0817 16:08:12.765431 17615 net.cpp:434] L1_b4_cbr2_conv <- L1_b4_cbr1_bn_top
I0817 16:08:12.765441 17615 net.cpp:408] L1_b4_cbr2_conv -> L1_b4_cbr2_conv_top
I0817 16:08:12.765760 17615 net.cpp:150] Setting up L1_b4_cbr2_conv
I0817 16:08:12.765775 17615 net.cpp:157] Top shape: 125 16 32 32 (2048000)
I0817 16:08:12.765780 17615 net.cpp:165] Memory required for data: 361985500
I0817 16:08:12.765789 17615 layer_factory.hpp:77] Creating layer L1_b4_cbr2_bn
I0817 16:08:12.765800 17615 net.cpp:100] Creating Layer L1_b4_cbr2_bn
I0817 16:08:12.765806 17615 net.cpp:434] L1_b4_cbr2_bn <- L1_b4_cbr2_conv_top
I0817 16:08:12.765817 17615 net.cpp:408] L1_b4_cbr2_bn -> L1_b4_cbr2_bn_top
I0817 16:08:12.766053 17615 net.cpp:150] Setting up L1_b4_cbr2_bn
I0817 16:08:12.766067 17615 net.cpp:157] Top shape: 125 16 32 32 (2048000)
I0817 16:08:12.766072 17615 net.cpp:165] Memory required for data: 370177500
I0817 16:08:12.766082 17615 layer_factory.hpp:77] Creating layer L1_b4_cbr2_scale
I0817 16:08:12.766090 17615 net.cpp:100] Creating Layer L1_b4_cbr2_scale
I0817 16:08:12.766096 17615 net.cpp:434] L1_b4_cbr2_scale <- L1_b4_cbr2_bn_top
I0817 16:08:12.766106 17615 net.cpp:395] L1_b4_cbr2_scale -> L1_b4_cbr2_bn_top (in-place)
I0817 16:08:12.766160 17615 layer_factory.hpp:77] Creating layer L1_b4_cbr2_scale
I0817 16:08:12.766299 17615 net.cpp:150] Setting up L1_b4_cbr2_scale
I0817 16:08:12.766314 17615 net.cpp:157] Top shape: 125 16 32 32 (2048000)
I0817 16:08:12.766319 17615 net.cpp:165] Memory required for data: 378369500
I0817 16:08:12.766329 17615 layer_factory.hpp:77] Creating layer L1_b4_sum_eltwise
I0817 16:08:12.766336 17615 net.cpp:100] Creating Layer L1_b4_sum_eltwise
I0817 16:08:12.766342 17615 net.cpp:434] L1_b4_sum_eltwise <- L1_b4_cbr2_bn_top
I0817 16:08:12.766350 17615 net.cpp:434] L1_b4_sum_eltwise <- L1_b3_sum_eltwise_top_L1_b3_relu_0_split_1
I0817 16:08:12.766357 17615 net.cpp:408] L1_b4_sum_eltwise -> L1_b4_sum_eltwise_top
I0817 16:08:12.766398 17615 net.cpp:150] Setting up L1_b4_sum_eltwise
I0817 16:08:12.766408 17615 net.cpp:157] Top shape: 125 16 32 32 (2048000)
I0817 16:08:12.766413 17615 net.cpp:165] Memory required for data: 386561500
I0817 16:08:12.766418 17615 layer_factory.hpp:77] Creating layer L1_b4_relu
I0817 16:08:12.766429 17615 net.cpp:100] Creating Layer L1_b4_relu
I0817 16:08:12.766435 17615 net.cpp:434] L1_b4_relu <- L1_b4_sum_eltwise_top
I0817 16:08:12.766443 17615 net.cpp:395] L1_b4_relu -> L1_b4_sum_eltwise_top (in-place)
I0817 16:08:12.766453 17615 net.cpp:150] Setting up L1_b4_relu
I0817 16:08:12.766458 17615 net.cpp:157] Top shape: 125 16 32 32 (2048000)
I0817 16:08:12.766463 17615 net.cpp:165] Memory required for data: 394753500
I0817 16:08:12.766469 17615 layer_factory.hpp:77] Creating layer L1_b4_sum_eltwise_top_L1_b4_relu_0_split
I0817 16:08:12.766479 17615 net.cpp:100] Creating Layer L1_b4_sum_eltwise_top_L1_b4_relu_0_split
I0817 16:08:12.766484 17615 net.cpp:434] L1_b4_sum_eltwise_top_L1_b4_relu_0_split <- L1_b4_sum_eltwise_top
I0817 16:08:12.766491 17615 net.cpp:408] L1_b4_sum_eltwise_top_L1_b4_relu_0_split -> L1_b4_sum_eltwise_top_L1_b4_relu_0_split_0
I0817 16:08:12.766500 17615 net.cpp:408] L1_b4_sum_eltwise_top_L1_b4_relu_0_split -> L1_b4_sum_eltwise_top_L1_b4_relu_0_split_1
I0817 16:08:12.766542 17615 net.cpp:150] Setting up L1_b4_sum_eltwise_top_L1_b4_relu_0_split
I0817 16:08:12.766556 17615 net.cpp:157] Top shape: 125 16 32 32 (2048000)
I0817 16:08:12.766564 17615 net.cpp:157] Top shape: 125 16 32 32 (2048000)
I0817 16:08:12.766569 17615 net.cpp:165] Memory required for data: 411137500
I0817 16:08:12.766574 17615 layer_factory.hpp:77] Creating layer L1_b5_cbr1_conv
I0817 16:08:12.766585 17615 net.cpp:100] Creating Layer L1_b5_cbr1_conv
I0817 16:08:12.766592 17615 net.cpp:434] L1_b5_cbr1_conv <- L1_b4_sum_eltwise_top_L1_b4_relu_0_split_0
I0817 16:08:12.766600 17615 net.cpp:408] L1_b5_cbr1_conv -> L1_b5_cbr1_conv_top
I0817 16:08:12.766943 17615 net.cpp:150] Setting up L1_b5_cbr1_conv
I0817 16:08:12.766958 17615 net.cpp:157] Top shape: 125 16 32 32 (2048000)
I0817 16:08:12.766963 17615 net.cpp:165] Memory required for data: 419329500
I0817 16:08:12.766989 17615 layer_factory.hpp:77] Creating layer L1_b5_cbr1_bn
I0817 16:08:12.767001 17615 net.cpp:100] Creating Layer L1_b5_cbr1_bn
I0817 16:08:12.767007 17615 net.cpp:434] L1_b5_cbr1_bn <- L1_b5_cbr1_conv_top
I0817 16:08:12.767016 17615 net.cpp:408] L1_b5_cbr1_bn -> L1_b5_cbr1_bn_top
I0817 16:08:12.767253 17615 net.cpp:150] Setting up L1_b5_cbr1_bn
I0817 16:08:12.767267 17615 net.cpp:157] Top shape: 125 16 32 32 (2048000)
I0817 16:08:12.767272 17615 net.cpp:165] Memory required for data: 427521500
I0817 16:08:12.767282 17615 layer_factory.hpp:77] Creating layer L1_b5_cbr1_scale
I0817 16:08:12.767292 17615 net.cpp:100] Creating Layer L1_b5_cbr1_scale
I0817 16:08:12.767297 17615 net.cpp:434] L1_b5_cbr1_scale <- L1_b5_cbr1_bn_top
I0817 16:08:12.767310 17615 net.cpp:395] L1_b5_cbr1_scale -> L1_b5_cbr1_bn_top (in-place)
I0817 16:08:12.767362 17615 layer_factory.hpp:77] Creating layer L1_b5_cbr1_scale
I0817 16:08:12.767499 17615 net.cpp:150] Setting up L1_b5_cbr1_scale
I0817 16:08:12.767515 17615 net.cpp:157] Top shape: 125 16 32 32 (2048000)
I0817 16:08:12.767521 17615 net.cpp:165] Memory required for data: 435713500
I0817 16:08:12.767530 17615 layer_factory.hpp:77] Creating layer L1_b5_cbr1_relu
I0817 16:08:12.767539 17615 net.cpp:100] Creating Layer L1_b5_cbr1_relu
I0817 16:08:12.767544 17615 net.cpp:434] L1_b5_cbr1_relu <- L1_b5_cbr1_bn_top
I0817 16:08:12.767550 17615 net.cpp:395] L1_b5_cbr1_relu -> L1_b5_cbr1_bn_top (in-place)
I0817 16:08:12.767560 17615 net.cpp:150] Setting up L1_b5_cbr1_relu
I0817 16:08:12.767566 17615 net.cpp:157] Top shape: 125 16 32 32 (2048000)
I0817 16:08:12.767571 17615 net.cpp:165] Memory required for data: 443905500
I0817 16:08:12.767576 17615 layer_factory.hpp:77] Creating layer L1_b5_cbr2_conv
I0817 16:08:12.767590 17615 net.cpp:100] Creating Layer L1_b5_cbr2_conv
I0817 16:08:12.767596 17615 net.cpp:434] L1_b5_cbr2_conv <- L1_b5_cbr1_bn_top
I0817 16:08:12.767630 17615 net.cpp:408] L1_b5_cbr2_conv -> L1_b5_cbr2_conv_top
I0817 16:08:12.767941 17615 net.cpp:150] Setting up L1_b5_cbr2_conv
I0817 16:08:12.767956 17615 net.cpp:157] Top shape: 125 16 32 32 (2048000)
I0817 16:08:12.767961 17615 net.cpp:165] Memory required for data: 452097500
I0817 16:08:12.767971 17615 layer_factory.hpp:77] Creating layer L1_b5_cbr2_bn
I0817 16:08:12.767982 17615 net.cpp:100] Creating Layer L1_b5_cbr2_bn
I0817 16:08:12.767988 17615 net.cpp:434] L1_b5_cbr2_bn <- L1_b5_cbr2_conv_top
I0817 16:08:12.767999 17615 net.cpp:408] L1_b5_cbr2_bn -> L1_b5_cbr2_bn_top
I0817 16:08:12.768232 17615 net.cpp:150] Setting up L1_b5_cbr2_bn
I0817 16:08:12.768245 17615 net.cpp:157] Top shape: 125 16 32 32 (2048000)
I0817 16:08:12.768250 17615 net.cpp:165] Memory required for data: 460289500
I0817 16:08:12.768261 17615 layer_factory.hpp:77] Creating layer L1_b5_cbr2_scale
I0817 16:08:12.768270 17615 net.cpp:100] Creating Layer L1_b5_cbr2_scale
I0817 16:08:12.768275 17615 net.cpp:434] L1_b5_cbr2_scale <- L1_b5_cbr2_bn_top
I0817 16:08:12.768283 17615 net.cpp:395] L1_b5_cbr2_scale -> L1_b5_cbr2_bn_top (in-place)
I0817 16:08:12.768339 17615 layer_factory.hpp:77] Creating layer L1_b5_cbr2_scale
I0817 16:08:12.768476 17615 net.cpp:150] Setting up L1_b5_cbr2_scale
I0817 16:08:12.768489 17615 net.cpp:157] Top shape: 125 16 32 32 (2048000)
I0817 16:08:12.768494 17615 net.cpp:165] Memory required for data: 468481500
I0817 16:08:12.768504 17615 layer_factory.hpp:77] Creating layer L1_b5_sum_eltwise
I0817 16:08:12.768517 17615 net.cpp:100] Creating Layer L1_b5_sum_eltwise
I0817 16:08:12.768522 17615 net.cpp:434] L1_b5_sum_eltwise <- L1_b5_cbr2_bn_top
I0817 16:08:12.768529 17615 net.cpp:434] L1_b5_sum_eltwise <- L1_b4_sum_eltwise_top_L1_b4_relu_0_split_1
I0817 16:08:12.768537 17615 net.cpp:408] L1_b5_sum_eltwise -> L1_b5_sum_eltwise_top
I0817 16:08:12.768569 17615 net.cpp:150] Setting up L1_b5_sum_eltwise
I0817 16:08:12.768579 17615 net.cpp:157] Top shape: 125 16 32 32 (2048000)
I0817 16:08:12.768584 17615 net.cpp:165] Memory required for data: 476673500
I0817 16:08:12.768589 17615 layer_factory.hpp:77] Creating layer L1_b5_relu
I0817 16:08:12.768596 17615 net.cpp:100] Creating Layer L1_b5_relu
I0817 16:08:12.768601 17615 net.cpp:434] L1_b5_relu <- L1_b5_sum_eltwise_top
I0817 16:08:12.768617 17615 net.cpp:395] L1_b5_relu -> L1_b5_sum_eltwise_top (in-place)
I0817 16:08:12.768628 17615 net.cpp:150] Setting up L1_b5_relu
I0817 16:08:12.768635 17615 net.cpp:157] Top shape: 125 16 32 32 (2048000)
I0817 16:08:12.768640 17615 net.cpp:165] Memory required for data: 484865500
I0817 16:08:12.768646 17615 layer_factory.hpp:77] Creating layer L1_b5_sum_eltwise_top_L1_b5_relu_0_split
I0817 16:08:12.768652 17615 net.cpp:100] Creating Layer L1_b5_sum_eltwise_top_L1_b5_relu_0_split
I0817 16:08:12.768657 17615 net.cpp:434] L1_b5_sum_eltwise_top_L1_b5_relu_0_split <- L1_b5_sum_eltwise_top
I0817 16:08:12.768667 17615 net.cpp:408] L1_b5_sum_eltwise_top_L1_b5_relu_0_split -> L1_b5_sum_eltwise_top_L1_b5_relu_0_split_0
I0817 16:08:12.768676 17615 net.cpp:408] L1_b5_sum_eltwise_top_L1_b5_relu_0_split -> L1_b5_sum_eltwise_top_L1_b5_relu_0_split_1
I0817 16:08:12.768719 17615 net.cpp:150] Setting up L1_b5_sum_eltwise_top_L1_b5_relu_0_split
I0817 16:08:12.768731 17615 net.cpp:157] Top shape: 125 16 32 32 (2048000)
I0817 16:08:12.768738 17615 net.cpp:157] Top shape: 125 16 32 32 (2048000)
I0817 16:08:12.768743 17615 net.cpp:165] Memory required for data: 501249500
I0817 16:08:12.768748 17615 layer_factory.hpp:77] Creating layer L1_b6_cbr1_conv
I0817 16:08:12.768762 17615 net.cpp:100] Creating Layer L1_b6_cbr1_conv
I0817 16:08:12.768769 17615 net.cpp:434] L1_b6_cbr1_conv <- L1_b5_sum_eltwise_top_L1_b5_relu_0_split_0
I0817 16:08:12.768777 17615 net.cpp:408] L1_b6_cbr1_conv -> L1_b6_cbr1_conv_top
I0817 16:08:12.769089 17615 net.cpp:150] Setting up L1_b6_cbr1_conv
I0817 16:08:12.769104 17615 net.cpp:157] Top shape: 125 16 32 32 (2048000)
I0817 16:08:12.769109 17615 net.cpp:165] Memory required for data: 509441500
I0817 16:08:12.769124 17615 layer_factory.hpp:77] Creating layer L1_b6_cbr1_bn
I0817 16:08:12.769136 17615 net.cpp:100] Creating Layer L1_b6_cbr1_bn
I0817 16:08:12.769142 17615 net.cpp:434] L1_b6_cbr1_bn <- L1_b6_cbr1_conv_top
I0817 16:08:12.769153 17615 net.cpp:408] L1_b6_cbr1_bn -> L1_b6_cbr1_bn_top
I0817 16:08:12.769387 17615 net.cpp:150] Setting up L1_b6_cbr1_bn
I0817 16:08:12.769400 17615 net.cpp:157] Top shape: 125 16 32 32 (2048000)
I0817 16:08:12.769405 17615 net.cpp:165] Memory required for data: 517633500
I0817 16:08:12.769417 17615 layer_factory.hpp:77] Creating layer L1_b6_cbr1_scale
I0817 16:08:12.769424 17615 net.cpp:100] Creating Layer L1_b6_cbr1_scale
I0817 16:08:12.769430 17615 net.cpp:434] L1_b6_cbr1_scale <- L1_b6_cbr1_bn_top
I0817 16:08:12.769441 17615 net.cpp:395] L1_b6_cbr1_scale -> L1_b6_cbr1_bn_top (in-place)
I0817 16:08:12.769493 17615 layer_factory.hpp:77] Creating layer L1_b6_cbr1_scale
I0817 16:08:12.769639 17615 net.cpp:150] Setting up L1_b6_cbr1_scale
I0817 16:08:12.769655 17615 net.cpp:157] Top shape: 125 16 32 32 (2048000)
I0817 16:08:12.769661 17615 net.cpp:165] Memory required for data: 525825500
I0817 16:08:12.769670 17615 layer_factory.hpp:77] Creating layer L1_b6_cbr1_relu
I0817 16:08:12.769678 17615 net.cpp:100] Creating Layer L1_b6_cbr1_relu
I0817 16:08:12.769685 17615 net.cpp:434] L1_b6_cbr1_relu <- L1_b6_cbr1_bn_top
I0817 16:08:12.769691 17615 net.cpp:395] L1_b6_cbr1_relu -> L1_b6_cbr1_bn_top (in-place)
I0817 16:08:12.769701 17615 net.cpp:150] Setting up L1_b6_cbr1_relu
I0817 16:08:12.769707 17615 net.cpp:157] Top shape: 125 16 32 32 (2048000)
I0817 16:08:12.769712 17615 net.cpp:165] Memory required for data: 534017500
I0817 16:08:12.769716 17615 layer_factory.hpp:77] Creating layer L1_b6_cbr2_conv
I0817 16:08:12.769732 17615 net.cpp:100] Creating Layer L1_b6_cbr2_conv
I0817 16:08:12.769738 17615 net.cpp:434] L1_b6_cbr2_conv <- L1_b6_cbr1_bn_top
I0817 16:08:12.769749 17615 net.cpp:408] L1_b6_cbr2_conv -> L1_b6_cbr2_conv_top
I0817 16:08:12.770061 17615 net.cpp:150] Setting up L1_b6_cbr2_conv
I0817 16:08:12.770076 17615 net.cpp:157] Top shape: 125 16 32 32 (2048000)
I0817 16:08:12.770081 17615 net.cpp:165] Memory required for data: 542209500
I0817 16:08:12.770089 17615 layer_factory.hpp:77] Creating layer L1_b6_cbr2_bn
I0817 16:08:12.770100 17615 net.cpp:100] Creating Layer L1_b6_cbr2_bn
I0817 16:08:12.770107 17615 net.cpp:434] L1_b6_cbr2_bn <- L1_b6_cbr2_conv_top
I0817 16:08:12.770118 17615 net.cpp:408] L1_b6_cbr2_bn -> L1_b6_cbr2_bn_top
I0817 16:08:12.770350 17615 net.cpp:150] Setting up L1_b6_cbr2_bn
I0817 16:08:12.770364 17615 net.cpp:157] Top shape: 125 16 32 32 (2048000)
I0817 16:08:12.770368 17615 net.cpp:165] Memory required for data: 550401500
I0817 16:08:12.770380 17615 layer_factory.hpp:77] Creating layer L1_b6_cbr2_scale
I0817 16:08:12.770387 17615 net.cpp:100] Creating Layer L1_b6_cbr2_scale
I0817 16:08:12.770393 17615 net.cpp:434] L1_b6_cbr2_scale <- L1_b6_cbr2_bn_top
I0817 16:08:12.770401 17615 net.cpp:395] L1_b6_cbr2_scale -> L1_b6_cbr2_bn_top (in-place)
I0817 16:08:12.770454 17615 layer_factory.hpp:77] Creating layer L1_b6_cbr2_scale
I0817 16:08:12.770594 17615 net.cpp:150] Setting up L1_b6_cbr2_scale
I0817 16:08:12.770607 17615 net.cpp:157] Top shape: 125 16 32 32 (2048000)
I0817 16:08:12.770618 17615 net.cpp:165] Memory required for data: 558593500
I0817 16:08:12.770628 17615 layer_factory.hpp:77] Creating layer L1_b6_sum_eltwise
I0817 16:08:12.770645 17615 net.cpp:100] Creating Layer L1_b6_sum_eltwise
I0817 16:08:12.770653 17615 net.cpp:434] L1_b6_sum_eltwise <- L1_b6_cbr2_bn_top
I0817 16:08:12.770659 17615 net.cpp:434] L1_b6_sum_eltwise <- L1_b5_sum_eltwise_top_L1_b5_relu_0_split_1
I0817 16:08:12.770669 17615 net.cpp:408] L1_b6_sum_eltwise -> L1_b6_sum_eltwise_top
I0817 16:08:12.770702 17615 net.cpp:150] Setting up L1_b6_sum_eltwise
I0817 16:08:12.770717 17615 net.cpp:157] Top shape: 125 16 32 32 (2048000)
I0817 16:08:12.770722 17615 net.cpp:165] Memory required for data: 566785500
I0817 16:08:12.770728 17615 layer_factory.hpp:77] Creating layer L1_b6_relu
I0817 16:08:12.770745 17615 net.cpp:100] Creating Layer L1_b6_relu
I0817 16:08:12.770750 17615 net.cpp:434] L1_b6_relu <- L1_b6_sum_eltwise_top
I0817 16:08:12.770757 17615 net.cpp:395] L1_b6_relu -> L1_b6_sum_eltwise_top (in-place)
I0817 16:08:12.770766 17615 net.cpp:150] Setting up L1_b6_relu
I0817 16:08:12.770773 17615 net.cpp:157] Top shape: 125 16 32 32 (2048000)
I0817 16:08:12.770778 17615 net.cpp:165] Memory required for data: 574977500
I0817 16:08:12.770783 17615 layer_factory.hpp:77] Creating layer L1_b6_sum_eltwise_top_L1_b6_relu_0_split
I0817 16:08:12.770793 17615 net.cpp:100] Creating Layer L1_b6_sum_eltwise_top_L1_b6_relu_0_split
I0817 16:08:12.770798 17615 net.cpp:434] L1_b6_sum_eltwise_top_L1_b6_relu_0_split <- L1_b6_sum_eltwise_top
I0817 16:08:12.770805 17615 net.cpp:408] L1_b6_sum_eltwise_top_L1_b6_relu_0_split -> L1_b6_sum_eltwise_top_L1_b6_relu_0_split_0
I0817 16:08:12.770815 17615 net.cpp:408] L1_b6_sum_eltwise_top_L1_b6_relu_0_split -> L1_b6_sum_eltwise_top_L1_b6_relu_0_split_1
I0817 16:08:12.770860 17615 net.cpp:150] Setting up L1_b6_sum_eltwise_top_L1_b6_relu_0_split
I0817 16:08:12.770872 17615 net.cpp:157] Top shape: 125 16 32 32 (2048000)
I0817 16:08:12.770879 17615 net.cpp:157] Top shape: 125 16 32 32 (2048000)
I0817 16:08:12.770884 17615 net.cpp:165] Memory required for data: 591361500
I0817 16:08:12.770889 17615 layer_factory.hpp:77] Creating layer L1_b7_cbr1_conv
I0817 16:08:12.770901 17615 net.cpp:100] Creating Layer L1_b7_cbr1_conv
I0817 16:08:12.770907 17615 net.cpp:434] L1_b7_cbr1_conv <- L1_b6_sum_eltwise_top_L1_b6_relu_0_split_0
I0817 16:08:12.770918 17615 net.cpp:408] L1_b7_cbr1_conv -> L1_b7_cbr1_conv_top
I0817 16:08:12.771232 17615 net.cpp:150] Setting up L1_b7_cbr1_conv
I0817 16:08:12.771246 17615 net.cpp:157] Top shape: 125 16 32 32 (2048000)
I0817 16:08:12.771251 17615 net.cpp:165] Memory required for data: 599553500
I0817 16:08:12.771260 17615 layer_factory.hpp:77] Creating layer L1_b7_cbr1_bn
I0817 16:08:12.771270 17615 net.cpp:100] Creating Layer L1_b7_cbr1_bn
I0817 16:08:12.771275 17615 net.cpp:434] L1_b7_cbr1_bn <- L1_b7_cbr1_conv_top
I0817 16:08:12.771283 17615 net.cpp:408] L1_b7_cbr1_bn -> L1_b7_cbr1_bn_top
I0817 16:08:12.771524 17615 net.cpp:150] Setting up L1_b7_cbr1_bn
I0817 16:08:12.771538 17615 net.cpp:157] Top shape: 125 16 32 32 (2048000)
I0817 16:08:12.771543 17615 net.cpp:165] Memory required for data: 607745500
I0817 16:08:12.771553 17615 layer_factory.hpp:77] Creating layer L1_b7_cbr1_scale
I0817 16:08:12.771565 17615 net.cpp:100] Creating Layer L1_b7_cbr1_scale
I0817 16:08:12.771571 17615 net.cpp:434] L1_b7_cbr1_scale <- L1_b7_cbr1_bn_top
I0817 16:08:12.771579 17615 net.cpp:395] L1_b7_cbr1_scale -> L1_b7_cbr1_bn_top (in-place)
I0817 16:08:12.771639 17615 layer_factory.hpp:77] Creating layer L1_b7_cbr1_scale
I0817 16:08:12.771780 17615 net.cpp:150] Setting up L1_b7_cbr1_scale
I0817 16:08:12.771793 17615 net.cpp:157] Top shape: 125 16 32 32 (2048000)
I0817 16:08:12.771800 17615 net.cpp:165] Memory required for data: 615937500
I0817 16:08:12.771808 17615 layer_factory.hpp:77] Creating layer L1_b7_cbr1_relu
I0817 16:08:12.771816 17615 net.cpp:100] Creating Layer L1_b7_cbr1_relu
I0817 16:08:12.771821 17615 net.cpp:434] L1_b7_cbr1_relu <- L1_b7_cbr1_bn_top
I0817 16:08:12.771833 17615 net.cpp:395] L1_b7_cbr1_relu -> L1_b7_cbr1_bn_top (in-place)
I0817 16:08:12.771843 17615 net.cpp:150] Setting up L1_b7_cbr1_relu
I0817 16:08:12.771852 17615 net.cpp:157] Top shape: 125 16 32 32 (2048000)
I0817 16:08:12.771855 17615 net.cpp:165] Memory required for data: 624129500
I0817 16:08:12.771860 17615 layer_factory.hpp:77] Creating layer L1_b7_cbr2_conv
I0817 16:08:12.771874 17615 net.cpp:100] Creating Layer L1_b7_cbr2_conv
I0817 16:08:12.771880 17615 net.cpp:434] L1_b7_cbr2_conv <- L1_b7_cbr1_bn_top
I0817 16:08:12.771888 17615 net.cpp:408] L1_b7_cbr2_conv -> L1_b7_cbr2_conv_top
I0817 16:08:12.772194 17615 net.cpp:150] Setting up L1_b7_cbr2_conv
I0817 16:08:12.772207 17615 net.cpp:157] Top shape: 125 16 32 32 (2048000)
I0817 16:08:12.772212 17615 net.cpp:165] Memory required for data: 632321500
I0817 16:08:12.772228 17615 layer_factory.hpp:77] Creating layer L1_b7_cbr2_bn
I0817 16:08:12.772240 17615 net.cpp:100] Creating Layer L1_b7_cbr2_bn
I0817 16:08:12.772248 17615 net.cpp:434] L1_b7_cbr2_bn <- L1_b7_cbr2_conv_top
I0817 16:08:12.772255 17615 net.cpp:408] L1_b7_cbr2_bn -> L1_b7_cbr2_bn_top
I0817 16:08:12.772496 17615 net.cpp:150] Setting up L1_b7_cbr2_bn
I0817 16:08:12.772509 17615 net.cpp:157] Top shape: 125 16 32 32 (2048000)
I0817 16:08:12.772514 17615 net.cpp:165] Memory required for data: 640513500
I0817 16:08:12.772526 17615 layer_factory.hpp:77] Creating layer L1_b7_cbr2_scale
I0817 16:08:12.772534 17615 net.cpp:100] Creating Layer L1_b7_cbr2_scale
I0817 16:08:12.772539 17615 net.cpp:434] L1_b7_cbr2_scale <- L1_b7_cbr2_bn_top
I0817 16:08:12.772550 17615 net.cpp:395] L1_b7_cbr2_scale -> L1_b7_cbr2_bn_top (in-place)
I0817 16:08:12.772605 17615 layer_factory.hpp:77] Creating layer L1_b7_cbr2_scale
I0817 16:08:12.772754 17615 net.cpp:150] Setting up L1_b7_cbr2_scale
I0817 16:08:12.772768 17615 net.cpp:157] Top shape: 125 16 32 32 (2048000)
I0817 16:08:12.772773 17615 net.cpp:165] Memory required for data: 648705500
I0817 16:08:12.772783 17615 layer_factory.hpp:77] Creating layer L1_b7_sum_eltwise
I0817 16:08:12.772791 17615 net.cpp:100] Creating Layer L1_b7_sum_eltwise
I0817 16:08:12.772797 17615 net.cpp:434] L1_b7_sum_eltwise <- L1_b7_cbr2_bn_top
I0817 16:08:12.772804 17615 net.cpp:434] L1_b7_sum_eltwise <- L1_b6_sum_eltwise_top_L1_b6_relu_0_split_1
I0817 16:08:12.772815 17615 net.cpp:408] L1_b7_sum_eltwise -> L1_b7_sum_eltwise_top
I0817 16:08:12.772846 17615 net.cpp:150] Setting up L1_b7_sum_eltwise
I0817 16:08:12.772858 17615 net.cpp:157] Top shape: 125 16 32 32 (2048000)
I0817 16:08:12.772864 17615 net.cpp:165] Memory required for data: 656897500
I0817 16:08:12.772869 17615 layer_factory.hpp:77] Creating layer L1_b7_relu
I0817 16:08:12.772877 17615 net.cpp:100] Creating Layer L1_b7_relu
I0817 16:08:12.772882 17615 net.cpp:434] L1_b7_relu <- L1_b7_sum_eltwise_top
I0817 16:08:12.772891 17615 net.cpp:395] L1_b7_relu -> L1_b7_sum_eltwise_top (in-place)
I0817 16:08:12.772898 17615 net.cpp:150] Setting up L1_b7_relu
I0817 16:08:12.772905 17615 net.cpp:157] Top shape: 125 16 32 32 (2048000)
I0817 16:08:12.772910 17615 net.cpp:165] Memory required for data: 665089500
I0817 16:08:12.772914 17615 layer_factory.hpp:77] Creating layer L1_b7_sum_eltwise_top_L1_b7_relu_0_split
I0817 16:08:12.772924 17615 net.cpp:100] Creating Layer L1_b7_sum_eltwise_top_L1_b7_relu_0_split
I0817 16:08:12.772929 17615 net.cpp:434] L1_b7_sum_eltwise_top_L1_b7_relu_0_split <- L1_b7_sum_eltwise_top
I0817 16:08:12.772938 17615 net.cpp:408] L1_b7_sum_eltwise_top_L1_b7_relu_0_split -> L1_b7_sum_eltwise_top_L1_b7_relu_0_split_0
I0817 16:08:12.772946 17615 net.cpp:408] L1_b7_sum_eltwise_top_L1_b7_relu_0_split -> L1_b7_sum_eltwise_top_L1_b7_relu_0_split_1
I0817 16:08:12.772991 17615 net.cpp:150] Setting up L1_b7_sum_eltwise_top_L1_b7_relu_0_split
I0817 16:08:12.773003 17615 net.cpp:157] Top shape: 125 16 32 32 (2048000)
I0817 16:08:12.773010 17615 net.cpp:157] Top shape: 125 16 32 32 (2048000)
I0817 16:08:12.773015 17615 net.cpp:165] Memory required for data: 681473500
I0817 16:08:12.773020 17615 layer_factory.hpp:77] Creating layer L1_b8_cbr1_conv
I0817 16:08:12.773031 17615 net.cpp:100] Creating Layer L1_b8_cbr1_conv
I0817 16:08:12.773037 17615 net.cpp:434] L1_b8_cbr1_conv <- L1_b7_sum_eltwise_top_L1_b7_relu_0_split_0
I0817 16:08:12.773049 17615 net.cpp:408] L1_b8_cbr1_conv -> L1_b8_cbr1_conv_top
I0817 16:08:12.773365 17615 net.cpp:150] Setting up L1_b8_cbr1_conv
I0817 16:08:12.773380 17615 net.cpp:157] Top shape: 125 16 32 32 (2048000)
I0817 16:08:12.773385 17615 net.cpp:165] Memory required for data: 689665500
I0817 16:08:12.773393 17615 layer_factory.hpp:77] Creating layer L1_b8_cbr1_bn
I0817 16:08:12.773403 17615 net.cpp:100] Creating Layer L1_b8_cbr1_bn
I0817 16:08:12.773409 17615 net.cpp:434] L1_b8_cbr1_bn <- L1_b8_cbr1_conv_top
I0817 16:08:12.773416 17615 net.cpp:408] L1_b8_cbr1_bn -> L1_b8_cbr1_bn_top
I0817 16:08:12.773675 17615 net.cpp:150] Setting up L1_b8_cbr1_bn
I0817 16:08:12.773689 17615 net.cpp:157] Top shape: 125 16 32 32 (2048000)
I0817 16:08:12.773694 17615 net.cpp:165] Memory required for data: 697857500
I0817 16:08:12.773705 17615 layer_factory.hpp:77] Creating layer L1_b8_cbr1_scale
I0817 16:08:12.773716 17615 net.cpp:100] Creating Layer L1_b8_cbr1_scale
I0817 16:08:12.773722 17615 net.cpp:434] L1_b8_cbr1_scale <- L1_b8_cbr1_bn_top
I0817 16:08:12.773730 17615 net.cpp:395] L1_b8_cbr1_scale -> L1_b8_cbr1_bn_top (in-place)
I0817 16:08:12.773787 17615 layer_factory.hpp:77] Creating layer L1_b8_cbr1_scale
I0817 16:08:12.773929 17615 net.cpp:150] Setting up L1_b8_cbr1_scale
I0817 16:08:12.773943 17615 net.cpp:157] Top shape: 125 16 32 32 (2048000)
I0817 16:08:12.773948 17615 net.cpp:165] Memory required for data: 706049500
I0817 16:08:12.773957 17615 layer_factory.hpp:77] Creating layer L1_b8_cbr1_relu
I0817 16:08:12.773965 17615 net.cpp:100] Creating Layer L1_b8_cbr1_relu
I0817 16:08:12.773972 17615 net.cpp:434] L1_b8_cbr1_relu <- L1_b8_cbr1_bn_top
I0817 16:08:12.773982 17615 net.cpp:395] L1_b8_cbr1_relu -> L1_b8_cbr1_bn_top (in-place)
I0817 16:08:12.773991 17615 net.cpp:150] Setting up L1_b8_cbr1_relu
I0817 16:08:12.773998 17615 net.cpp:157] Top shape: 125 16 32 32 (2048000)
I0817 16:08:12.774003 17615 net.cpp:165] Memory required for data: 714241500
I0817 16:08:12.774008 17615 layer_factory.hpp:77] Creating layer L1_b8_cbr2_conv
I0817 16:08:12.774024 17615 net.cpp:100] Creating Layer L1_b8_cbr2_conv
I0817 16:08:12.774029 17615 net.cpp:434] L1_b8_cbr2_conv <- L1_b8_cbr1_bn_top
I0817 16:08:12.774039 17615 net.cpp:408] L1_b8_cbr2_conv -> L1_b8_cbr2_conv_top
I0817 16:08:12.774353 17615 net.cpp:150] Setting up L1_b8_cbr2_conv
I0817 16:08:12.774366 17615 net.cpp:157] Top shape: 125 16 32 32 (2048000)
I0817 16:08:12.774371 17615 net.cpp:165] Memory required for data: 722433500
I0817 16:08:12.774380 17615 layer_factory.hpp:77] Creating layer L1_b8_cbr2_bn
I0817 16:08:12.774392 17615 net.cpp:100] Creating Layer L1_b8_cbr2_bn
I0817 16:08:12.774399 17615 net.cpp:434] L1_b8_cbr2_bn <- L1_b8_cbr2_conv_top
I0817 16:08:12.774406 17615 net.cpp:408] L1_b8_cbr2_bn -> L1_b8_cbr2_bn_top
I0817 16:08:12.774655 17615 net.cpp:150] Setting up L1_b8_cbr2_bn
I0817 16:08:12.774668 17615 net.cpp:157] Top shape: 125 16 32 32 (2048000)
I0817 16:08:12.774673 17615 net.cpp:165] Memory required for data: 730625500
I0817 16:08:12.774684 17615 layer_factory.hpp:77] Creating layer L1_b8_cbr2_scale
I0817 16:08:12.774693 17615 net.cpp:100] Creating Layer L1_b8_cbr2_scale
I0817 16:08:12.774699 17615 net.cpp:434] L1_b8_cbr2_scale <- L1_b8_cbr2_bn_top
I0817 16:08:12.774710 17615 net.cpp:395] L1_b8_cbr2_scale -> L1_b8_cbr2_bn_top (in-place)
I0817 16:08:12.774762 17615 layer_factory.hpp:77] Creating layer L1_b8_cbr2_scale
I0817 16:08:12.774900 17615 net.cpp:150] Setting up L1_b8_cbr2_scale
I0817 16:08:12.774916 17615 net.cpp:157] Top shape: 125 16 32 32 (2048000)
I0817 16:08:12.774921 17615 net.cpp:165] Memory required for data: 738817500
I0817 16:08:12.774930 17615 layer_factory.hpp:77] Creating layer L1_b8_sum_eltwise
I0817 16:08:12.774940 17615 net.cpp:100] Creating Layer L1_b8_sum_eltwise
I0817 16:08:12.774946 17615 net.cpp:434] L1_b8_sum_eltwise <- L1_b8_cbr2_bn_top
I0817 16:08:12.774953 17615 net.cpp:434] L1_b8_sum_eltwise <- L1_b7_sum_eltwise_top_L1_b7_relu_0_split_1
I0817 16:08:12.774960 17615 net.cpp:408] L1_b8_sum_eltwise -> L1_b8_sum_eltwise_top
I0817 16:08:12.774993 17615 net.cpp:150] Setting up L1_b8_sum_eltwise
I0817 16:08:12.775003 17615 net.cpp:157] Top shape: 125 16 32 32 (2048000)
I0817 16:08:12.775007 17615 net.cpp:165] Memory required for data: 747009500
I0817 16:08:12.775012 17615 layer_factory.hpp:77] Creating layer L1_b8_relu
I0817 16:08:12.775023 17615 net.cpp:100] Creating Layer L1_b8_relu
I0817 16:08:12.775029 17615 net.cpp:434] L1_b8_relu <- L1_b8_sum_eltwise_top
I0817 16:08:12.775037 17615 net.cpp:395] L1_b8_relu -> L1_b8_sum_eltwise_top (in-place)
I0817 16:08:12.775045 17615 net.cpp:150] Setting up L1_b8_relu
I0817 16:08:12.775053 17615 net.cpp:157] Top shape: 125 16 32 32 (2048000)
I0817 16:08:12.775063 17615 net.cpp:165] Memory required for data: 755201500
I0817 16:08:12.775068 17615 layer_factory.hpp:77] Creating layer L1_b8_sum_eltwise_top_L1_b8_relu_0_split
I0817 16:08:12.775079 17615 net.cpp:100] Creating Layer L1_b8_sum_eltwise_top_L1_b8_relu_0_split
I0817 16:08:12.775084 17615 net.cpp:434] L1_b8_sum_eltwise_top_L1_b8_relu_0_split <- L1_b8_sum_eltwise_top
I0817 16:08:12.775091 17615 net.cpp:408] L1_b8_sum_eltwise_top_L1_b8_relu_0_split -> L1_b8_sum_eltwise_top_L1_b8_relu_0_split_0
I0817 16:08:12.775101 17615 net.cpp:408] L1_b8_sum_eltwise_top_L1_b8_relu_0_split -> L1_b8_sum_eltwise_top_L1_b8_relu_0_split_1
I0817 16:08:12.775143 17615 net.cpp:150] Setting up L1_b8_sum_eltwise_top_L1_b8_relu_0_split
I0817 16:08:12.775158 17615 net.cpp:157] Top shape: 125 16 32 32 (2048000)
I0817 16:08:12.775166 17615 net.cpp:157] Top shape: 125 16 32 32 (2048000)
I0817 16:08:12.775171 17615 net.cpp:165] Memory required for data: 771585500
I0817 16:08:12.775177 17615 layer_factory.hpp:77] Creating layer L1_b9_cbr1_conv
I0817 16:08:12.775187 17615 net.cpp:100] Creating Layer L1_b9_cbr1_conv
I0817 16:08:12.775193 17615 net.cpp:434] L1_b9_cbr1_conv <- L1_b8_sum_eltwise_top_L1_b8_relu_0_split_0
I0817 16:08:12.775202 17615 net.cpp:408] L1_b9_cbr1_conv -> L1_b9_cbr1_conv_top
I0817 16:08:12.775526 17615 net.cpp:150] Setting up L1_b9_cbr1_conv
I0817 16:08:12.775540 17615 net.cpp:157] Top shape: 125 16 32 32 (2048000)
I0817 16:08:12.775545 17615 net.cpp:165] Memory required for data: 779777500
I0817 16:08:12.775554 17615 layer_factory.hpp:77] Creating layer L1_b9_cbr1_bn
I0817 16:08:12.775566 17615 net.cpp:100] Creating Layer L1_b9_cbr1_bn
I0817 16:08:12.775573 17615 net.cpp:434] L1_b9_cbr1_bn <- L1_b9_cbr1_conv_top
I0817 16:08:12.775581 17615 net.cpp:408] L1_b9_cbr1_bn -> L1_b9_cbr1_bn_top
I0817 16:08:12.775833 17615 net.cpp:150] Setting up L1_b9_cbr1_bn
I0817 16:08:12.775851 17615 net.cpp:157] Top shape: 125 16 32 32 (2048000)
I0817 16:08:12.775856 17615 net.cpp:165] Memory required for data: 787969500
I0817 16:08:12.775866 17615 layer_factory.hpp:77] Creating layer L1_b9_cbr1_scale
I0817 16:08:12.775874 17615 net.cpp:100] Creating Layer L1_b9_cbr1_scale
I0817 16:08:12.775880 17615 net.cpp:434] L1_b9_cbr1_scale <- L1_b9_cbr1_bn_top
I0817 16:08:12.775888 17615 net.cpp:395] L1_b9_cbr1_scale -> L1_b9_cbr1_bn_top (in-place)
I0817 16:08:12.775940 17615 layer_factory.hpp:77] Creating layer L1_b9_cbr1_scale
I0817 16:08:12.776087 17615 net.cpp:150] Setting up L1_b9_cbr1_scale
I0817 16:08:12.776100 17615 net.cpp:157] Top shape: 125 16 32 32 (2048000)
I0817 16:08:12.776105 17615 net.cpp:165] Memory required for data: 796161500
I0817 16:08:12.776114 17615 layer_factory.hpp:77] Creating layer L1_b9_cbr1_relu
I0817 16:08:12.776125 17615 net.cpp:100] Creating Layer L1_b9_cbr1_relu
I0817 16:08:12.776131 17615 net.cpp:434] L1_b9_cbr1_relu <- L1_b9_cbr1_bn_top
I0817 16:08:12.776139 17615 net.cpp:395] L1_b9_cbr1_relu -> L1_b9_cbr1_bn_top (in-place)
I0817 16:08:12.776151 17615 net.cpp:150] Setting up L1_b9_cbr1_relu
I0817 16:08:12.776159 17615 net.cpp:157] Top shape: 125 16 32 32 (2048000)
I0817 16:08:12.776163 17615 net.cpp:165] Memory required for data: 804353500
I0817 16:08:12.776168 17615 layer_factory.hpp:77] Creating layer L1_b9_cbr2_conv
I0817 16:08:12.776178 17615 net.cpp:100] Creating Layer L1_b9_cbr2_conv
I0817 16:08:12.776185 17615 net.cpp:434] L1_b9_cbr2_conv <- L1_b9_cbr1_bn_top
I0817 16:08:12.776196 17615 net.cpp:408] L1_b9_cbr2_conv -> L1_b9_cbr2_conv_top
I0817 16:08:12.776510 17615 net.cpp:150] Setting up L1_b9_cbr2_conv
I0817 16:08:12.776525 17615 net.cpp:157] Top shape: 125 16 32 32 (2048000)
I0817 16:08:12.776530 17615 net.cpp:165] Memory required for data: 812545500
I0817 16:08:12.776538 17615 layer_factory.hpp:77] Creating layer L1_b9_cbr2_bn
I0817 16:08:12.776547 17615 net.cpp:100] Creating Layer L1_b9_cbr2_bn
I0817 16:08:12.776553 17615 net.cpp:434] L1_b9_cbr2_bn <- L1_b9_cbr2_conv_top
I0817 16:08:12.776564 17615 net.cpp:408] L1_b9_cbr2_bn -> L1_b9_cbr2_bn_top
I0817 16:08:12.776819 17615 net.cpp:150] Setting up L1_b9_cbr2_bn
I0817 16:08:12.776834 17615 net.cpp:157] Top shape: 125 16 32 32 (2048000)
I0817 16:08:12.776839 17615 net.cpp:165] Memory required for data: 820737500
I0817 16:08:12.776867 17615 layer_factory.hpp:77] Creating layer L1_b9_cbr2_scale
I0817 16:08:12.776880 17615 net.cpp:100] Creating Layer L1_b9_cbr2_scale
I0817 16:08:12.776886 17615 net.cpp:434] L1_b9_cbr2_scale <- L1_b9_cbr2_bn_top
I0817 16:08:12.776895 17615 net.cpp:395] L1_b9_cbr2_scale -> L1_b9_cbr2_bn_top (in-place)
I0817 16:08:12.776947 17615 layer_factory.hpp:77] Creating layer L1_b9_cbr2_scale
I0817 16:08:12.777087 17615 net.cpp:150] Setting up L1_b9_cbr2_scale
I0817 16:08:12.777101 17615 net.cpp:157] Top shape: 125 16 32 32 (2048000)
I0817 16:08:12.777106 17615 net.cpp:165] Memory required for data: 828929500
I0817 16:08:12.777114 17615 layer_factory.hpp:77] Creating layer L1_b9_sum_eltwise
I0817 16:08:12.777123 17615 net.cpp:100] Creating Layer L1_b9_sum_eltwise
I0817 16:08:12.777129 17615 net.cpp:434] L1_b9_sum_eltwise <- L1_b9_cbr2_bn_top
I0817 16:08:12.777137 17615 net.cpp:434] L1_b9_sum_eltwise <- L1_b8_sum_eltwise_top_L1_b8_relu_0_split_1
I0817 16:08:12.777148 17615 net.cpp:408] L1_b9_sum_eltwise -> L1_b9_sum_eltwise_top
I0817 16:08:12.777179 17615 net.cpp:150] Setting up L1_b9_sum_eltwise
I0817 16:08:12.777190 17615 net.cpp:157] Top shape: 125 16 32 32 (2048000)
I0817 16:08:12.777195 17615 net.cpp:165] Memory required for data: 837121500
I0817 16:08:12.777201 17615 layer_factory.hpp:77] Creating layer L1_b9_relu
I0817 16:08:12.777209 17615 net.cpp:100] Creating Layer L1_b9_relu
I0817 16:08:12.777215 17615 net.cpp:434] L1_b9_relu <- L1_b9_sum_eltwise_top
I0817 16:08:12.777221 17615 net.cpp:395] L1_b9_relu -> L1_b9_sum_eltwise_top (in-place)
I0817 16:08:12.777230 17615 net.cpp:150] Setting up L1_b9_relu
I0817 16:08:12.777237 17615 net.cpp:157] Top shape: 125 16 32 32 (2048000)
I0817 16:08:12.777241 17615 net.cpp:165] Memory required for data: 845313500
I0817 16:08:12.777246 17615 layer_factory.hpp:77] Creating layer L1_b9_sum_eltwise_top_L1_b9_relu_0_split
I0817 16:08:12.777256 17615 net.cpp:100] Creating Layer L1_b9_sum_eltwise_top_L1_b9_relu_0_split
I0817 16:08:12.777261 17615 net.cpp:434] L1_b9_sum_eltwise_top_L1_b9_relu_0_split <- L1_b9_sum_eltwise_top
I0817 16:08:12.777269 17615 net.cpp:408] L1_b9_sum_eltwise_top_L1_b9_relu_0_split -> L1_b9_sum_eltwise_top_L1_b9_relu_0_split_0
I0817 16:08:12.777278 17615 net.cpp:408] L1_b9_sum_eltwise_top_L1_b9_relu_0_split -> L1_b9_sum_eltwise_top_L1_b9_relu_0_split_1
I0817 16:08:12.777328 17615 net.cpp:150] Setting up L1_b9_sum_eltwise_top_L1_b9_relu_0_split
I0817 16:08:12.777339 17615 net.cpp:157] Top shape: 125 16 32 32 (2048000)
I0817 16:08:12.777346 17615 net.cpp:157] Top shape: 125 16 32 32 (2048000)
I0817 16:08:12.777350 17615 net.cpp:165] Memory required for data: 861697500
I0817 16:08:12.777355 17615 layer_factory.hpp:77] Creating layer L2_b1_cbr1_conv
I0817 16:08:12.777366 17615 net.cpp:100] Creating Layer L2_b1_cbr1_conv
I0817 16:08:12.777374 17615 net.cpp:434] L2_b1_cbr1_conv <- L1_b9_sum_eltwise_top_L1_b9_relu_0_split_0
I0817 16:08:12.777384 17615 net.cpp:408] L2_b1_cbr1_conv -> L2_b1_cbr1_conv_top
I0817 16:08:12.777710 17615 net.cpp:150] Setting up L2_b1_cbr1_conv
I0817 16:08:12.777724 17615 net.cpp:157] Top shape: 125 16 16 16 (512000)
I0817 16:08:12.777729 17615 net.cpp:165] Memory required for data: 863745500
I0817 16:08:12.777739 17615 layer_factory.hpp:77] Creating layer L2_b1_cbr1_bn
I0817 16:08:12.777747 17615 net.cpp:100] Creating Layer L2_b1_cbr1_bn
I0817 16:08:12.777753 17615 net.cpp:434] L2_b1_cbr1_bn <- L2_b1_cbr1_conv_top
I0817 16:08:12.777765 17615 net.cpp:408] L2_b1_cbr1_bn -> L2_b1_cbr1_bn_top
I0817 16:08:12.778026 17615 net.cpp:150] Setting up L2_b1_cbr1_bn
I0817 16:08:12.778040 17615 net.cpp:157] Top shape: 125 16 16 16 (512000)
I0817 16:08:12.778046 17615 net.cpp:165] Memory required for data: 865793500
I0817 16:08:12.778057 17615 layer_factory.hpp:77] Creating layer L2_b1_cbr1_scale
I0817 16:08:12.778069 17615 net.cpp:100] Creating Layer L2_b1_cbr1_scale
I0817 16:08:12.778081 17615 net.cpp:434] L2_b1_cbr1_scale <- L2_b1_cbr1_bn_top
I0817 16:08:12.778090 17615 net.cpp:395] L2_b1_cbr1_scale -> L2_b1_cbr1_bn_top (in-place)
I0817 16:08:12.778144 17615 layer_factory.hpp:77] Creating layer L2_b1_cbr1_scale
I0817 16:08:12.778285 17615 net.cpp:150] Setting up L2_b1_cbr1_scale
I0817 16:08:12.778297 17615 net.cpp:157] Top shape: 125 16 16 16 (512000)
I0817 16:08:12.778303 17615 net.cpp:165] Memory required for data: 867841500
I0817 16:08:12.778312 17615 layer_factory.hpp:77] Creating layer L2_b1_cbr1_relu
I0817 16:08:12.778322 17615 net.cpp:100] Creating Layer L2_b1_cbr1_relu
I0817 16:08:12.778329 17615 net.cpp:434] L2_b1_cbr1_relu <- L2_b1_cbr1_bn_top
I0817 16:08:12.778337 17615 net.cpp:395] L2_b1_cbr1_relu -> L2_b1_cbr1_bn_top (in-place)
I0817 16:08:12.778347 17615 net.cpp:150] Setting up L2_b1_cbr1_relu
I0817 16:08:12.778352 17615 net.cpp:157] Top shape: 125 16 16 16 (512000)
I0817 16:08:12.778357 17615 net.cpp:165] Memory required for data: 869889500
I0817 16:08:12.778362 17615 layer_factory.hpp:77] Creating layer L2_b1_cbr2_conv
I0817 16:08:12.778378 17615 net.cpp:100] Creating Layer L2_b1_cbr2_conv
I0817 16:08:12.778384 17615 net.cpp:434] L2_b1_cbr2_conv <- L2_b1_cbr1_bn_top
I0817 16:08:12.778396 17615 net.cpp:408] L2_b1_cbr2_conv -> L2_b1_cbr2_conv_top
I0817 16:08:12.778718 17615 net.cpp:150] Setting up L2_b1_cbr2_conv
I0817 16:08:12.778733 17615 net.cpp:157] Top shape: 125 16 16 16 (512000)
I0817 16:08:12.778738 17615 net.cpp:165] Memory required for data: 871937500
I0817 16:08:12.778748 17615 layer_factory.hpp:77] Creating layer L2_b1_cbr2_bn
I0817 16:08:12.778756 17615 net.cpp:100] Creating Layer L2_b1_cbr2_bn
I0817 16:08:12.778762 17615 net.cpp:434] L2_b1_cbr2_bn <- L2_b1_cbr2_conv_top
I0817 16:08:12.778770 17615 net.cpp:408] L2_b1_cbr2_bn -> L2_b1_cbr2_bn_top
I0817 16:08:12.779012 17615 net.cpp:150] Setting up L2_b1_cbr2_bn
I0817 16:08:12.779026 17615 net.cpp:157] Top shape: 125 16 16 16 (512000)
I0817 16:08:12.779031 17615 net.cpp:165] Memory required for data: 873985500
I0817 16:08:12.779042 17615 layer_factory.hpp:77] Creating layer L2_b1_cbr2_scale
I0817 16:08:12.779049 17615 net.cpp:100] Creating Layer L2_b1_cbr2_scale
I0817 16:08:12.779055 17615 net.cpp:434] L2_b1_cbr2_scale <- L2_b1_cbr2_bn_top
I0817 16:08:12.779067 17615 net.cpp:395] L2_b1_cbr2_scale -> L2_b1_cbr2_bn_top (in-place)
I0817 16:08:12.779121 17615 layer_factory.hpp:77] Creating layer L2_b1_cbr2_scale
I0817 16:08:12.779268 17615 net.cpp:150] Setting up L2_b1_cbr2_scale
I0817 16:08:12.779280 17615 net.cpp:157] Top shape: 125 16 16 16 (512000)
I0817 16:08:12.779286 17615 net.cpp:165] Memory required for data: 876033500
I0817 16:08:12.779295 17615 layer_factory.hpp:77] Creating layer L2_b1_pool
I0817 16:08:12.779305 17615 net.cpp:100] Creating Layer L2_b1_pool
I0817 16:08:12.779311 17615 net.cpp:434] L2_b1_pool <- L1_b9_sum_eltwise_top_L1_b9_relu_0_split_1
I0817 16:08:12.779325 17615 net.cpp:408] L2_b1_pool -> L2_b1_pool
I0817 16:08:12.779407 17615 net.cpp:150] Setting up L2_b1_pool
I0817 16:08:12.779428 17615 net.cpp:157] Top shape: 125 16 16 16 (512000)
I0817 16:08:12.779433 17615 net.cpp:165] Memory required for data: 878081500
I0817 16:08:12.779438 17615 layer_factory.hpp:77] Creating layer L2_b1_sum_eltwise
I0817 16:08:12.779448 17615 net.cpp:100] Creating Layer L2_b1_sum_eltwise
I0817 16:08:12.779454 17615 net.cpp:434] L2_b1_sum_eltwise <- L2_b1_cbr2_bn_top
I0817 16:08:12.779461 17615 net.cpp:434] L2_b1_sum_eltwise <- L2_b1_pool
I0817 16:08:12.779469 17615 net.cpp:408] L2_b1_sum_eltwise -> L2_b1_sum_eltwise_top
I0817 16:08:12.779505 17615 net.cpp:150] Setting up L2_b1_sum_eltwise
I0817 16:08:12.779517 17615 net.cpp:157] Top shape: 125 16 16 16 (512000)
I0817 16:08:12.779522 17615 net.cpp:165] Memory required for data: 880129500
I0817 16:08:12.779527 17615 layer_factory.hpp:77] Creating layer L2_b1_relu
I0817 16:08:12.779536 17615 net.cpp:100] Creating Layer L2_b1_relu
I0817 16:08:12.779541 17615 net.cpp:434] L2_b1_relu <- L2_b1_sum_eltwise_top
I0817 16:08:12.779548 17615 net.cpp:395] L2_b1_relu -> L2_b1_sum_eltwise_top (in-place)
I0817 16:08:12.779566 17615 net.cpp:150] Setting up L2_b1_relu
I0817 16:08:12.779572 17615 net.cpp:157] Top shape: 125 16 16 16 (512000)
I0817 16:08:12.779577 17615 net.cpp:165] Memory required for data: 882177500
I0817 16:08:12.779582 17615 layer_factory.hpp:77] Creating layer L2_b1_zeros
I0817 16:08:12.779639 17615 net.cpp:100] Creating Layer L2_b1_zeros
I0817 16:08:12.779654 17615 net.cpp:408] L2_b1_zeros -> L2_b1_zeros
I0817 16:08:12.781968 17615 net.cpp:150] Setting up L2_b1_zeros
I0817 16:08:12.781991 17615 net.cpp:157] Top shape: 125 16 16 16 (512000)
I0817 16:08:12.781996 17615 net.cpp:165] Memory required for data: 884225500
I0817 16:08:12.782002 17615 layer_factory.hpp:77] Creating layer L2_b1_concat0
I0817 16:08:12.782013 17615 net.cpp:100] Creating Layer L2_b1_concat0
I0817 16:08:12.782019 17615 net.cpp:434] L2_b1_concat0 <- L2_b1_sum_eltwise_top
I0817 16:08:12.782027 17615 net.cpp:434] L2_b1_concat0 <- L2_b1_zeros
I0817 16:08:12.782035 17615 net.cpp:408] L2_b1_concat0 -> L2_b1_concat0
I0817 16:08:12.782115 17615 net.cpp:150] Setting up L2_b1_concat0
I0817 16:08:12.782131 17615 net.cpp:157] Top shape: 125 32 16 16 (1024000)
I0817 16:08:12.782136 17615 net.cpp:165] Memory required for data: 888321500
I0817 16:08:12.782142 17615 layer_factory.hpp:77] Creating layer L2_b1_concat0_L2_b1_concat0_0_split
I0817 16:08:12.782150 17615 net.cpp:100] Creating Layer L2_b1_concat0_L2_b1_concat0_0_split
I0817 16:08:12.782162 17615 net.cpp:434] L2_b1_concat0_L2_b1_concat0_0_split <- L2_b1_concat0
I0817 16:08:12.782171 17615 net.cpp:408] L2_b1_concat0_L2_b1_concat0_0_split -> L2_b1_concat0_L2_b1_concat0_0_split_0
I0817 16:08:12.782181 17615 net.cpp:408] L2_b1_concat0_L2_b1_concat0_0_split -> L2_b1_concat0_L2_b1_concat0_0_split_1
I0817 16:08:12.782232 17615 net.cpp:150] Setting up L2_b1_concat0_L2_b1_concat0_0_split
I0817 16:08:12.782243 17615 net.cpp:157] Top shape: 125 32 16 16 (1024000)
I0817 16:08:12.782249 17615 net.cpp:157] Top shape: 125 32 16 16 (1024000)
I0817 16:08:12.782254 17615 net.cpp:165] Memory required for data: 896513500
I0817 16:08:12.782260 17615 layer_factory.hpp:77] Creating layer L2_b2_cbr1_conv
I0817 16:08:12.782274 17615 net.cpp:100] Creating Layer L2_b2_cbr1_conv
I0817 16:08:12.782281 17615 net.cpp:434] L2_b2_cbr1_conv <- L2_b1_concat0_L2_b1_concat0_0_split_0
I0817 16:08:12.782290 17615 net.cpp:408] L2_b2_cbr1_conv -> L2_b2_cbr1_conv_top
I0817 16:08:12.783732 17615 net.cpp:150] Setting up L2_b2_cbr1_conv
I0817 16:08:12.783751 17615 net.cpp:157] Top shape: 125 32 16 16 (1024000)
I0817 16:08:12.783756 17615 net.cpp:165] Memory required for data: 900609500
I0817 16:08:12.783766 17615 layer_factory.hpp:77] Creating layer L2_b2_cbr1_bn
I0817 16:08:12.783776 17615 net.cpp:100] Creating Layer L2_b2_cbr1_bn
I0817 16:08:12.783782 17615 net.cpp:434] L2_b2_cbr1_bn <- L2_b2_cbr1_conv_top
I0817 16:08:12.783793 17615 net.cpp:408] L2_b2_cbr1_bn -> L2_b2_cbr1_bn_top
I0817 16:08:12.784040 17615 net.cpp:150] Setting up L2_b2_cbr1_bn
I0817 16:08:12.784054 17615 net.cpp:157] Top shape: 125 32 16 16 (1024000)
I0817 16:08:12.784060 17615 net.cpp:165] Memory required for data: 904705500
I0817 16:08:12.784070 17615 layer_factory.hpp:77] Creating layer L2_b2_cbr1_scale
I0817 16:08:12.784081 17615 net.cpp:100] Creating Layer L2_b2_cbr1_scale
I0817 16:08:12.784088 17615 net.cpp:434] L2_b2_cbr1_scale <- L2_b2_cbr1_bn_top
I0817 16:08:12.784096 17615 net.cpp:395] L2_b2_cbr1_scale -> L2_b2_cbr1_bn_top (in-place)
I0817 16:08:12.784150 17615 layer_factory.hpp:77] Creating layer L2_b2_cbr1_scale
I0817 16:08:12.784298 17615 net.cpp:150] Setting up L2_b2_cbr1_scale
I0817 16:08:12.784312 17615 net.cpp:157] Top shape: 125 32 16 16 (1024000)
I0817 16:08:12.784317 17615 net.cpp:165] Memory required for data: 908801500
I0817 16:08:12.784325 17615 layer_factory.hpp:77] Creating layer L2_b2_cbr1_relu
I0817 16:08:12.784337 17615 net.cpp:100] Creating Layer L2_b2_cbr1_relu
I0817 16:08:12.784343 17615 net.cpp:434] L2_b2_cbr1_relu <- L2_b2_cbr1_bn_top
I0817 16:08:12.784351 17615 net.cpp:395] L2_b2_cbr1_relu -> L2_b2_cbr1_bn_top (in-place)
I0817 16:08:12.784368 17615 net.cpp:150] Setting up L2_b2_cbr1_relu
I0817 16:08:12.784376 17615 net.cpp:157] Top shape: 125 32 16 16 (1024000)
I0817 16:08:12.784381 17615 net.cpp:165] Memory required for data: 912897500
I0817 16:08:12.784386 17615 layer_factory.hpp:77] Creating layer L2_b2_cbr2_conv
I0817 16:08:12.784404 17615 net.cpp:100] Creating Layer L2_b2_cbr2_conv
I0817 16:08:12.784409 17615 net.cpp:434] L2_b2_cbr2_conv <- L2_b2_cbr1_bn_top
I0817 16:08:12.784420 17615 net.cpp:408] L2_b2_cbr2_conv -> L2_b2_cbr2_conv_top
I0817 16:08:12.784883 17615 net.cpp:150] Setting up L2_b2_cbr2_conv
I0817 16:08:12.784898 17615 net.cpp:157] Top shape: 125 32 16 16 (1024000)
I0817 16:08:12.784904 17615 net.cpp:165] Memory required for data: 916993500
I0817 16:08:12.784912 17615 layer_factory.hpp:77] Creating layer L2_b2_cbr2_bn
I0817 16:08:12.784922 17615 net.cpp:100] Creating Layer L2_b2_cbr2_bn
I0817 16:08:12.784929 17615 net.cpp:434] L2_b2_cbr2_bn <- L2_b2_cbr2_conv_top
I0817 16:08:12.784936 17615 net.cpp:408] L2_b2_cbr2_bn -> L2_b2_cbr2_bn_top
I0817 16:08:12.785182 17615 net.cpp:150] Setting up L2_b2_cbr2_bn
I0817 16:08:12.785197 17615 net.cpp:157] Top shape: 125 32 16 16 (1024000)
I0817 16:08:12.785202 17615 net.cpp:165] Memory required for data: 921089500
I0817 16:08:12.785212 17615 layer_factory.hpp:77] Creating layer L2_b2_cbr2_scale
I0817 16:08:12.785221 17615 net.cpp:100] Creating Layer L2_b2_cbr2_scale
I0817 16:08:12.785228 17615 net.cpp:434] L2_b2_cbr2_scale <- L2_b2_cbr2_bn_top
I0817 16:08:12.785238 17615 net.cpp:395] L2_b2_cbr2_scale -> L2_b2_cbr2_bn_top (in-place)
I0817 16:08:12.785292 17615 layer_factory.hpp:77] Creating layer L2_b2_cbr2_scale
I0817 16:08:12.785437 17615 net.cpp:150] Setting up L2_b2_cbr2_scale
I0817 16:08:12.785450 17615 net.cpp:157] Top shape: 125 32 16 16 (1024000)
I0817 16:08:12.785455 17615 net.cpp:165] Memory required for data: 925185500
I0817 16:08:12.785465 17615 layer_factory.hpp:77] Creating layer L2_b2_sum_eltwise
I0817 16:08:12.785473 17615 net.cpp:100] Creating Layer L2_b2_sum_eltwise
I0817 16:08:12.785480 17615 net.cpp:434] L2_b2_sum_eltwise <- L2_b2_cbr2_bn_top
I0817 16:08:12.785487 17615 net.cpp:434] L2_b2_sum_eltwise <- L2_b1_concat0_L2_b1_concat0_0_split_1
I0817 16:08:12.785497 17615 net.cpp:408] L2_b2_sum_eltwise -> L2_b2_sum_eltwise_top
I0817 16:08:12.785524 17615 net.cpp:150] Setting up L2_b2_sum_eltwise
I0817 16:08:12.785537 17615 net.cpp:157] Top shape: 125 32 16 16 (1024000)
I0817 16:08:12.785542 17615 net.cpp:165] Memory required for data: 929281500
I0817 16:08:12.785547 17615 layer_factory.hpp:77] Creating layer L2_b2_relu
I0817 16:08:12.785555 17615 net.cpp:100] Creating Layer L2_b2_relu
I0817 16:08:12.785562 17615 net.cpp:434] L2_b2_relu <- L2_b2_sum_eltwise_top
I0817 16:08:12.785568 17615 net.cpp:395] L2_b2_relu -> L2_b2_sum_eltwise_top (in-place)
I0817 16:08:12.785578 17615 net.cpp:150] Setting up L2_b2_relu
I0817 16:08:12.785584 17615 net.cpp:157] Top shape: 125 32 16 16 (1024000)
I0817 16:08:12.785588 17615 net.cpp:165] Memory required for data: 933377500
I0817 16:08:12.785593 17615 layer_factory.hpp:77] Creating layer L2_b2_sum_eltwise_top_L2_b2_relu_0_split
I0817 16:08:12.785604 17615 net.cpp:100] Creating Layer L2_b2_sum_eltwise_top_L2_b2_relu_0_split
I0817 16:08:12.785609 17615 net.cpp:434] L2_b2_sum_eltwise_top_L2_b2_relu_0_split <- L2_b2_sum_eltwise_top
I0817 16:08:12.785624 17615 net.cpp:408] L2_b2_sum_eltwise_top_L2_b2_relu_0_split -> L2_b2_sum_eltwise_top_L2_b2_relu_0_split_0
I0817 16:08:12.785634 17615 net.cpp:408] L2_b2_sum_eltwise_top_L2_b2_relu_0_split -> L2_b2_sum_eltwise_top_L2_b2_relu_0_split_1
I0817 16:08:12.785681 17615 net.cpp:150] Setting up L2_b2_sum_eltwise_top_L2_b2_relu_0_split
I0817 16:08:12.785693 17615 net.cpp:157] Top shape: 125 32 16 16 (1024000)
I0817 16:08:12.785701 17615 net.cpp:157] Top shape: 125 32 16 16 (1024000)
I0817 16:08:12.785704 17615 net.cpp:165] Memory required for data: 941569500
I0817 16:08:12.785711 17615 layer_factory.hpp:77] Creating layer L2_b3_cbr1_conv
I0817 16:08:12.785728 17615 net.cpp:100] Creating Layer L2_b3_cbr1_conv
I0817 16:08:12.785735 17615 net.cpp:434] L2_b3_cbr1_conv <- L2_b2_sum_eltwise_top_L2_b2_relu_0_split_0
I0817 16:08:12.785748 17615 net.cpp:408] L2_b3_cbr1_conv -> L2_b3_cbr1_conv_top
I0817 16:08:12.786211 17615 net.cpp:150] Setting up L2_b3_cbr1_conv
I0817 16:08:12.786224 17615 net.cpp:157] Top shape: 125 32 16 16 (1024000)
I0817 16:08:12.786231 17615 net.cpp:165] Memory required for data: 945665500
I0817 16:08:12.786238 17615 layer_factory.hpp:77] Creating layer L2_b3_cbr1_bn
I0817 16:08:12.786247 17615 net.cpp:100] Creating Layer L2_b3_cbr1_bn
I0817 16:08:12.786254 17615 net.cpp:434] L2_b3_cbr1_bn <- L2_b3_cbr1_conv_top
I0817 16:08:12.786265 17615 net.cpp:408] L2_b3_cbr1_bn -> L2_b3_cbr1_bn_top
I0817 16:08:12.786512 17615 net.cpp:150] Setting up L2_b3_cbr1_bn
I0817 16:08:12.786525 17615 net.cpp:157] Top shape: 125 32 16 16 (1024000)
I0817 16:08:12.786530 17615 net.cpp:165] Memory required for data: 949761500
I0817 16:08:12.786540 17615 layer_factory.hpp:77] Creating layer L2_b3_cbr1_scale
I0817 16:08:12.786552 17615 net.cpp:100] Creating Layer L2_b3_cbr1_scale
I0817 16:08:12.786558 17615 net.cpp:434] L2_b3_cbr1_scale <- L2_b3_cbr1_bn_top
I0817 16:08:12.786566 17615 net.cpp:395] L2_b3_cbr1_scale -> L2_b3_cbr1_bn_top (in-place)
I0817 16:08:12.786626 17615 layer_factory.hpp:77] Creating layer L2_b3_cbr1_scale
I0817 16:08:12.786782 17615 net.cpp:150] Setting up L2_b3_cbr1_scale
I0817 16:08:12.786795 17615 net.cpp:157] Top shape: 125 32 16 16 (1024000)
I0817 16:08:12.786800 17615 net.cpp:165] Memory required for data: 953857500
I0817 16:08:12.786809 17615 layer_factory.hpp:77] Creating layer L2_b3_cbr1_relu
I0817 16:08:12.786818 17615 net.cpp:100] Creating Layer L2_b3_cbr1_relu
I0817 16:08:12.786823 17615 net.cpp:434] L2_b3_cbr1_relu <- L2_b3_cbr1_bn_top
I0817 16:08:12.786834 17615 net.cpp:395] L2_b3_cbr1_relu -> L2_b3_cbr1_bn_top (in-place)
I0817 16:08:12.786844 17615 net.cpp:150] Setting up L2_b3_cbr1_relu
I0817 16:08:12.786850 17615 net.cpp:157] Top shape: 125 32 16 16 (1024000)
I0817 16:08:12.786855 17615 net.cpp:165] Memory required for data: 957953500
I0817 16:08:12.786860 17615 layer_factory.hpp:77] Creating layer L2_b3_cbr2_conv
I0817 16:08:12.786873 17615 net.cpp:100] Creating Layer L2_b3_cbr2_conv
I0817 16:08:12.786880 17615 net.cpp:434] L2_b3_cbr2_conv <- L2_b3_cbr1_bn_top
I0817 16:08:12.786890 17615 net.cpp:408] L2_b3_cbr2_conv -> L2_b3_cbr2_conv_top
I0817 16:08:12.787346 17615 net.cpp:150] Setting up L2_b3_cbr2_conv
I0817 16:08:12.787361 17615 net.cpp:157] Top shape: 125 32 16 16 (1024000)
I0817 16:08:12.787366 17615 net.cpp:165] Memory required for data: 962049500
I0817 16:08:12.787375 17615 layer_factory.hpp:77] Creating layer L2_b3_cbr2_bn
I0817 16:08:12.787384 17615 net.cpp:100] Creating Layer L2_b3_cbr2_bn
I0817 16:08:12.787390 17615 net.cpp:434] L2_b3_cbr2_bn <- L2_b3_cbr2_conv_top
I0817 16:08:12.787398 17615 net.cpp:408] L2_b3_cbr2_bn -> L2_b3_cbr2_bn_top
I0817 16:08:12.787653 17615 net.cpp:150] Setting up L2_b3_cbr2_bn
I0817 16:08:12.787667 17615 net.cpp:157] Top shape: 125 32 16 16 (1024000)
I0817 16:08:12.787672 17615 net.cpp:165] Memory required for data: 966145500
I0817 16:08:12.787683 17615 layer_factory.hpp:77] Creating layer L2_b3_cbr2_scale
I0817 16:08:12.787691 17615 net.cpp:100] Creating Layer L2_b3_cbr2_scale
I0817 16:08:12.787698 17615 net.cpp:434] L2_b3_cbr2_scale <- L2_b3_cbr2_bn_top
I0817 16:08:12.787708 17615 net.cpp:395] L2_b3_cbr2_scale -> L2_b3_cbr2_bn_top (in-place)
I0817 16:08:12.787761 17615 layer_factory.hpp:77] Creating layer L2_b3_cbr2_scale
I0817 16:08:12.787912 17615 net.cpp:150] Setting up L2_b3_cbr2_scale
I0817 16:08:12.787925 17615 net.cpp:157] Top shape: 125 32 16 16 (1024000)
I0817 16:08:12.787930 17615 net.cpp:165] Memory required for data: 970241500
I0817 16:08:12.787940 17615 layer_factory.hpp:77] Creating layer L2_b3_sum_eltwise
I0817 16:08:12.787948 17615 net.cpp:100] Creating Layer L2_b3_sum_eltwise
I0817 16:08:12.787955 17615 net.cpp:434] L2_b3_sum_eltwise <- L2_b3_cbr2_bn_top
I0817 16:08:12.787961 17615 net.cpp:434] L2_b3_sum_eltwise <- L2_b2_sum_eltwise_top_L2_b2_relu_0_split_1
I0817 16:08:12.787978 17615 net.cpp:408] L2_b3_sum_eltwise -> L2_b3_sum_eltwise_top
I0817 16:08:12.788007 17615 net.cpp:150] Setting up L2_b3_sum_eltwise
I0817 16:08:12.788018 17615 net.cpp:157] Top shape: 125 32 16 16 (1024000)
I0817 16:08:12.788023 17615 net.cpp:165] Memory required for data: 974337500
I0817 16:08:12.788029 17615 layer_factory.hpp:77] Creating layer L2_b3_relu
I0817 16:08:12.788050 17615 net.cpp:100] Creating Layer L2_b3_relu
I0817 16:08:12.788058 17615 net.cpp:434] L2_b3_relu <- L2_b3_sum_eltwise_top
I0817 16:08:12.788064 17615 net.cpp:395] L2_b3_relu -> L2_b3_sum_eltwise_top (in-place)
I0817 16:08:12.788074 17615 net.cpp:150] Setting up L2_b3_relu
I0817 16:08:12.788081 17615 net.cpp:157] Top shape: 125 32 16 16 (1024000)
I0817 16:08:12.788085 17615 net.cpp:165] Memory required for data: 978433500
I0817 16:08:12.788091 17615 layer_factory.hpp:77] Creating layer L2_b3_sum_eltwise_top_L2_b3_relu_0_split
I0817 16:08:12.788099 17615 net.cpp:100] Creating Layer L2_b3_sum_eltwise_top_L2_b3_relu_0_split
I0817 16:08:12.788103 17615 net.cpp:434] L2_b3_sum_eltwise_top_L2_b3_relu_0_split <- L2_b3_sum_eltwise_top
I0817 16:08:12.788113 17615 net.cpp:408] L2_b3_sum_eltwise_top_L2_b3_relu_0_split -> L2_b3_sum_eltwise_top_L2_b3_relu_0_split_0
I0817 16:08:12.788123 17615 net.cpp:408] L2_b3_sum_eltwise_top_L2_b3_relu_0_split -> L2_b3_sum_eltwise_top_L2_b3_relu_0_split_1
I0817 16:08:12.788168 17615 net.cpp:150] Setting up L2_b3_sum_eltwise_top_L2_b3_relu_0_split
I0817 16:08:12.788180 17615 net.cpp:157] Top shape: 125 32 16 16 (1024000)
I0817 16:08:12.788187 17615 net.cpp:157] Top shape: 125 32 16 16 (1024000)
I0817 16:08:12.788192 17615 net.cpp:165] Memory required for data: 986625500
I0817 16:08:12.788197 17615 layer_factory.hpp:77] Creating layer L2_b4_cbr1_conv
I0817 16:08:12.788210 17615 net.cpp:100] Creating Layer L2_b4_cbr1_conv
I0817 16:08:12.788218 17615 net.cpp:434] L2_b4_cbr1_conv <- L2_b3_sum_eltwise_top_L2_b3_relu_0_split_0
I0817 16:08:12.788229 17615 net.cpp:408] L2_b4_cbr1_conv -> L2_b4_cbr1_conv_top
I0817 16:08:12.788696 17615 net.cpp:150] Setting up L2_b4_cbr1_conv
I0817 16:08:12.788710 17615 net.cpp:157] Top shape: 125 32 16 16 (1024000)
I0817 16:08:12.788715 17615 net.cpp:165] Memory required for data: 990721500
I0817 16:08:12.788724 17615 layer_factory.hpp:77] Creating layer L2_b4_cbr1_bn
I0817 16:08:12.788736 17615 net.cpp:100] Creating Layer L2_b4_cbr1_bn
I0817 16:08:12.788743 17615 net.cpp:434] L2_b4_cbr1_bn <- L2_b4_cbr1_conv_top
I0817 16:08:12.788750 17615 net.cpp:408] L2_b4_cbr1_bn -> L2_b4_cbr1_bn_top
I0817 16:08:12.788992 17615 net.cpp:150] Setting up L2_b4_cbr1_bn
I0817 16:08:12.789005 17615 net.cpp:157] Top shape: 125 32 16 16 (1024000)
I0817 16:08:12.789011 17615 net.cpp:165] Memory required for data: 994817500
I0817 16:08:12.789021 17615 layer_factory.hpp:77] Creating layer L2_b4_cbr1_scale
I0817 16:08:12.789029 17615 net.cpp:100] Creating Layer L2_b4_cbr1_scale
I0817 16:08:12.789036 17615 net.cpp:434] L2_b4_cbr1_scale <- L2_b4_cbr1_bn_top
I0817 16:08:12.789043 17615 net.cpp:395] L2_b4_cbr1_scale -> L2_b4_cbr1_bn_top (in-place)
I0817 16:08:12.789099 17615 layer_factory.hpp:77] Creating layer L2_b4_cbr1_scale
I0817 16:08:12.789243 17615 net.cpp:150] Setting up L2_b4_cbr1_scale
I0817 16:08:12.789259 17615 net.cpp:157] Top shape: 125 32 16 16 (1024000)
I0817 16:08:12.789264 17615 net.cpp:165] Memory required for data: 998913500
I0817 16:08:12.789273 17615 layer_factory.hpp:77] Creating layer L2_b4_cbr1_relu
I0817 16:08:12.789281 17615 net.cpp:100] Creating Layer L2_b4_cbr1_relu
I0817 16:08:12.789288 17615 net.cpp:434] L2_b4_cbr1_relu <- L2_b4_cbr1_bn_top
I0817 16:08:12.789294 17615 net.cpp:395] L2_b4_cbr1_relu -> L2_b4_cbr1_bn_top (in-place)
I0817 16:08:12.789304 17615 net.cpp:150] Setting up L2_b4_cbr1_relu
I0817 16:08:12.789310 17615 net.cpp:157] Top shape: 125 32 16 16 (1024000)
I0817 16:08:12.789315 17615 net.cpp:165] Memory required for data: 1003009500
I0817 16:08:12.789320 17615 layer_factory.hpp:77] Creating layer L2_b4_cbr2_conv
I0817 16:08:12.789340 17615 net.cpp:100] Creating Layer L2_b4_cbr2_conv
I0817 16:08:12.789347 17615 net.cpp:434] L2_b4_cbr2_conv <- L2_b4_cbr1_bn_top
I0817 16:08:12.789358 17615 net.cpp:408] L2_b4_cbr2_conv -> L2_b4_cbr2_conv_top
I0817 16:08:12.789825 17615 net.cpp:150] Setting up L2_b4_cbr2_conv
I0817 16:08:12.789840 17615 net.cpp:157] Top shape: 125 32 16 16 (1024000)
I0817 16:08:12.789845 17615 net.cpp:165] Memory required for data: 1007105500
I0817 16:08:12.789855 17615 layer_factory.hpp:77] Creating layer L2_b4_cbr2_bn
I0817 16:08:12.789867 17615 net.cpp:100] Creating Layer L2_b4_cbr2_bn
I0817 16:08:12.789875 17615 net.cpp:434] L2_b4_cbr2_bn <- L2_b4_cbr2_conv_top
I0817 16:08:12.789885 17615 net.cpp:408] L2_b4_cbr2_bn -> L2_b4_cbr2_bn_top
I0817 16:08:12.790127 17615 net.cpp:150] Setting up L2_b4_cbr2_bn
I0817 16:08:12.790140 17615 net.cpp:157] Top shape: 125 32 16 16 (1024000)
I0817 16:08:12.790145 17615 net.cpp:165] Memory required for data: 1011201500
I0817 16:08:12.790155 17615 layer_factory.hpp:77] Creating layer L2_b4_cbr2_scale
I0817 16:08:12.790164 17615 net.cpp:100] Creating Layer L2_b4_cbr2_scale
I0817 16:08:12.790170 17615 net.cpp:434] L2_b4_cbr2_scale <- L2_b4_cbr2_bn_top
I0817 16:08:12.790177 17615 net.cpp:395] L2_b4_cbr2_scale -> L2_b4_cbr2_bn_top (in-place)
I0817 16:08:12.790235 17615 layer_factory.hpp:77] Creating layer L2_b4_cbr2_scale
I0817 16:08:12.790380 17615 net.cpp:150] Setting up L2_b4_cbr2_scale
I0817 16:08:12.790393 17615 net.cpp:157] Top shape: 125 32 16 16 (1024000)
I0817 16:08:12.790398 17615 net.cpp:165] Memory required for data: 1015297500
I0817 16:08:12.790407 17615 layer_factory.hpp:77] Creating layer L2_b4_sum_eltwise
I0817 16:08:12.790421 17615 net.cpp:100] Creating Layer L2_b4_sum_eltwise
I0817 16:08:12.790427 17615 net.cpp:434] L2_b4_sum_eltwise <- L2_b4_cbr2_bn_top
I0817 16:08:12.790434 17615 net.cpp:434] L2_b4_sum_eltwise <- L2_b3_sum_eltwise_top_L2_b3_relu_0_split_1
I0817 16:08:12.790442 17615 net.cpp:408] L2_b4_sum_eltwise -> L2_b4_sum_eltwise_top
I0817 16:08:12.790472 17615 net.cpp:150] Setting up L2_b4_sum_eltwise
I0817 16:08:12.790482 17615 net.cpp:157] Top shape: 125 32 16 16 (1024000)
I0817 16:08:12.790487 17615 net.cpp:165] Memory required for data: 1019393500
I0817 16:08:12.790491 17615 layer_factory.hpp:77] Creating layer L2_b4_relu
I0817 16:08:12.790499 17615 net.cpp:100] Creating Layer L2_b4_relu
I0817 16:08:12.790504 17615 net.cpp:434] L2_b4_relu <- L2_b4_sum_eltwise_top
I0817 16:08:12.790514 17615 net.cpp:395] L2_b4_relu -> L2_b4_sum_eltwise_top (in-place)
I0817 16:08:12.790524 17615 net.cpp:150] Setting up L2_b4_relu
I0817 16:08:12.790531 17615 net.cpp:157] Top shape: 125 32 16 16 (1024000)
I0817 16:08:12.790535 17615 net.cpp:165] Memory required for data: 1023489500
I0817 16:08:12.790540 17615 layer_factory.hpp:77] Creating layer L2_b4_sum_eltwise_top_L2_b4_relu_0_split
I0817 16:08:12.790547 17615 net.cpp:100] Creating Layer L2_b4_sum_eltwise_top_L2_b4_relu_0_split
I0817 16:08:12.790552 17615 net.cpp:434] L2_b4_sum_eltwise_top_L2_b4_relu_0_split <- L2_b4_sum_eltwise_top
I0817 16:08:12.790560 17615 net.cpp:408] L2_b4_sum_eltwise_top_L2_b4_relu_0_split -> L2_b4_sum_eltwise_top_L2_b4_relu_0_split_0
I0817 16:08:12.790570 17615 net.cpp:408] L2_b4_sum_eltwise_top_L2_b4_relu_0_split -> L2_b4_sum_eltwise_top_L2_b4_relu_0_split_1
I0817 16:08:12.790621 17615 net.cpp:150] Setting up L2_b4_sum_eltwise_top_L2_b4_relu_0_split
I0817 16:08:12.790633 17615 net.cpp:157] Top shape: 125 32 16 16 (1024000)
I0817 16:08:12.790640 17615 net.cpp:157] Top shape: 125 32 16 16 (1024000)
I0817 16:08:12.790645 17615 net.cpp:165] Memory required for data: 1031681500
I0817 16:08:12.790650 17615 layer_factory.hpp:77] Creating layer L2_b5_cbr1_conv
I0817 16:08:12.790670 17615 net.cpp:100] Creating Layer L2_b5_cbr1_conv
I0817 16:08:12.790678 17615 net.cpp:434] L2_b5_cbr1_conv <- L2_b4_sum_eltwise_top_L2_b4_relu_0_split_0
I0817 16:08:12.790686 17615 net.cpp:408] L2_b5_cbr1_conv -> L2_b5_cbr1_conv_top
I0817 16:08:12.791152 17615 net.cpp:150] Setting up L2_b5_cbr1_conv
I0817 16:08:12.791173 17615 net.cpp:157] Top shape: 125 32 16 16 (1024000)
I0817 16:08:12.791178 17615 net.cpp:165] Memory required for data: 1035777500
I0817 16:08:12.791188 17615 layer_factory.hpp:77] Creating layer L2_b5_cbr1_bn
I0817 16:08:12.791196 17615 net.cpp:100] Creating Layer L2_b5_cbr1_bn
I0817 16:08:12.791203 17615 net.cpp:434] L2_b5_cbr1_bn <- L2_b5_cbr1_conv_top
I0817 16:08:12.791214 17615 net.cpp:408] L2_b5_cbr1_bn -> L2_b5_cbr1_bn_top
I0817 16:08:12.791462 17615 net.cpp:150] Setting up L2_b5_cbr1_bn
I0817 16:08:12.791476 17615 net.cpp:157] Top shape: 125 32 16 16 (1024000)
I0817 16:08:12.791481 17615 net.cpp:165] Memory required for data: 1039873500
I0817 16:08:12.791491 17615 layer_factory.hpp:77] Creating layer L2_b5_cbr1_scale
I0817 16:08:12.791501 17615 net.cpp:100] Creating Layer L2_b5_cbr1_scale
I0817 16:08:12.791507 17615 net.cpp:434] L2_b5_cbr1_scale <- L2_b5_cbr1_bn_top
I0817 16:08:12.791514 17615 net.cpp:395] L2_b5_cbr1_scale -> L2_b5_cbr1_bn_top (in-place)
I0817 16:08:12.791570 17615 layer_factory.hpp:77] Creating layer L2_b5_cbr1_scale
I0817 16:08:12.791725 17615 net.cpp:150] Setting up L2_b5_cbr1_scale
I0817 16:08:12.791741 17615 net.cpp:157] Top shape: 125 32 16 16 (1024000)
I0817 16:08:12.791748 17615 net.cpp:165] Memory required for data: 1043969500
I0817 16:08:12.791756 17615 layer_factory.hpp:77] Creating layer L2_b5_cbr1_relu
I0817 16:08:12.791764 17615 net.cpp:100] Creating Layer L2_b5_cbr1_relu
I0817 16:08:12.791770 17615 net.cpp:434] L2_b5_cbr1_relu <- L2_b5_cbr1_bn_top
I0817 16:08:12.791777 17615 net.cpp:395] L2_b5_cbr1_relu -> L2_b5_cbr1_bn_top (in-place)
I0817 16:08:12.791786 17615 net.cpp:150] Setting up L2_b5_cbr1_relu
I0817 16:08:12.791793 17615 net.cpp:157] Top shape: 125 32 16 16 (1024000)
I0817 16:08:12.791798 17615 net.cpp:165] Memory required for data: 1048065500
I0817 16:08:12.791802 17615 layer_factory.hpp:77] Creating layer L2_b5_cbr2_conv
I0817 16:08:12.791816 17615 net.cpp:100] Creating Layer L2_b5_cbr2_conv
I0817 16:08:12.791822 17615 net.cpp:434] L2_b5_cbr2_conv <- L2_b5_cbr1_bn_top
I0817 16:08:12.791833 17615 net.cpp:408] L2_b5_cbr2_conv -> L2_b5_cbr2_conv_top
I0817 16:08:12.792290 17615 net.cpp:150] Setting up L2_b5_cbr2_conv
I0817 16:08:12.792304 17615 net.cpp:157] Top shape: 125 32 16 16 (1024000)
I0817 16:08:12.792309 17615 net.cpp:165] Memory required for data: 1052161500
I0817 16:08:12.792318 17615 layer_factory.hpp:77] Creating layer L2_b5_cbr2_bn
I0817 16:08:12.792330 17615 net.cpp:100] Creating Layer L2_b5_cbr2_bn
I0817 16:08:12.792337 17615 net.cpp:434] L2_b5_cbr2_bn <- L2_b5_cbr2_conv_top
I0817 16:08:12.792347 17615 net.cpp:408] L2_b5_cbr2_bn -> L2_b5_cbr2_bn_top
I0817 16:08:12.792593 17615 net.cpp:150] Setting up L2_b5_cbr2_bn
I0817 16:08:12.792606 17615 net.cpp:157] Top shape: 125 32 16 16 (1024000)
I0817 16:08:12.792618 17615 net.cpp:165] Memory required for data: 1056257500
I0817 16:08:12.792629 17615 layer_factory.hpp:77] Creating layer L2_b5_cbr2_scale
I0817 16:08:12.792637 17615 net.cpp:100] Creating Layer L2_b5_cbr2_scale
I0817 16:08:12.792644 17615 net.cpp:434] L2_b5_cbr2_scale <- L2_b5_cbr2_bn_top
I0817 16:08:12.792650 17615 net.cpp:395] L2_b5_cbr2_scale -> L2_b5_cbr2_bn_top (in-place)
I0817 16:08:12.792708 17615 layer_factory.hpp:77] Creating layer L2_b5_cbr2_scale
I0817 16:08:12.792856 17615 net.cpp:150] Setting up L2_b5_cbr2_scale
I0817 16:08:12.792870 17615 net.cpp:157] Top shape: 125 32 16 16 (1024000)
I0817 16:08:12.792874 17615 net.cpp:165] Memory required for data: 1060353500
I0817 16:08:12.792883 17615 layer_factory.hpp:77] Creating layer L2_b5_sum_eltwise
I0817 16:08:12.792896 17615 net.cpp:100] Creating Layer L2_b5_sum_eltwise
I0817 16:08:12.792902 17615 net.cpp:434] L2_b5_sum_eltwise <- L2_b5_cbr2_bn_top
I0817 16:08:12.792909 17615 net.cpp:434] L2_b5_sum_eltwise <- L2_b4_sum_eltwise_top_L2_b4_relu_0_split_1
I0817 16:08:12.792917 17615 net.cpp:408] L2_b5_sum_eltwise -> L2_b5_sum_eltwise_top
I0817 16:08:12.792943 17615 net.cpp:150] Setting up L2_b5_sum_eltwise
I0817 16:08:12.792953 17615 net.cpp:157] Top shape: 125 32 16 16 (1024000)
I0817 16:08:12.792963 17615 net.cpp:165] Memory required for data: 1064449500
I0817 16:08:12.792969 17615 layer_factory.hpp:77] Creating layer L2_b5_relu
I0817 16:08:12.792979 17615 net.cpp:100] Creating Layer L2_b5_relu
I0817 16:08:12.792985 17615 net.cpp:434] L2_b5_relu <- L2_b5_sum_eltwise_top
I0817 16:08:12.792992 17615 net.cpp:395] L2_b5_relu -> L2_b5_sum_eltwise_top (in-place)
I0817 16:08:12.793002 17615 net.cpp:150] Setting up L2_b5_relu
I0817 16:08:12.793009 17615 net.cpp:157] Top shape: 125 32 16 16 (1024000)
I0817 16:08:12.793014 17615 net.cpp:165] Memory required for data: 1068545500
I0817 16:08:12.793018 17615 layer_factory.hpp:77] Creating layer L2_b5_sum_eltwise_top_L2_b5_relu_0_split
I0817 16:08:12.793026 17615 net.cpp:100] Creating Layer L2_b5_sum_eltwise_top_L2_b5_relu_0_split
I0817 16:08:12.793031 17615 net.cpp:434] L2_b5_sum_eltwise_top_L2_b5_relu_0_split <- L2_b5_sum_eltwise_top
I0817 16:08:12.793038 17615 net.cpp:408] L2_b5_sum_eltwise_top_L2_b5_relu_0_split -> L2_b5_sum_eltwise_top_L2_b5_relu_0_split_0
I0817 16:08:12.793047 17615 net.cpp:408] L2_b5_sum_eltwise_top_L2_b5_relu_0_split -> L2_b5_sum_eltwise_top_L2_b5_relu_0_split_1
I0817 16:08:12.793094 17615 net.cpp:150] Setting up L2_b5_sum_eltwise_top_L2_b5_relu_0_split
I0817 16:08:12.793107 17615 net.cpp:157] Top shape: 125 32 16 16 (1024000)
I0817 16:08:12.793113 17615 net.cpp:157] Top shape: 125 32 16 16 (1024000)
I0817 16:08:12.793118 17615 net.cpp:165] Memory required for data: 1076737500
I0817 16:08:12.793123 17615 layer_factory.hpp:77] Creating layer L2_b6_cbr1_conv
I0817 16:08:12.793138 17615 net.cpp:100] Creating Layer L2_b6_cbr1_conv
I0817 16:08:12.793143 17615 net.cpp:434] L2_b6_cbr1_conv <- L2_b5_sum_eltwise_top_L2_b5_relu_0_split_0
I0817 16:08:12.793153 17615 net.cpp:408] L2_b6_cbr1_conv -> L2_b6_cbr1_conv_top
I0817 16:08:12.793622 17615 net.cpp:150] Setting up L2_b6_cbr1_conv
I0817 16:08:12.793635 17615 net.cpp:157] Top shape: 125 32 16 16 (1024000)
I0817 16:08:12.793640 17615 net.cpp:165] Memory required for data: 1080833500
I0817 16:08:12.793649 17615 layer_factory.hpp:77] Creating layer L2_b6_cbr1_bn
I0817 16:08:12.793661 17615 net.cpp:100] Creating Layer L2_b6_cbr1_bn
I0817 16:08:12.793668 17615 net.cpp:434] L2_b6_cbr1_bn <- L2_b6_cbr1_conv_top
I0817 16:08:12.793679 17615 net.cpp:408] L2_b6_cbr1_bn -> L2_b6_cbr1_bn_top
I0817 16:08:12.793927 17615 net.cpp:150] Setting up L2_b6_cbr1_bn
I0817 16:08:12.793941 17615 net.cpp:157] Top shape: 125 32 16 16 (1024000)
I0817 16:08:12.793946 17615 net.cpp:165] Memory required for data: 1084929500
I0817 16:08:12.793956 17615 layer_factory.hpp:77] Creating layer L2_b6_cbr1_scale
I0817 16:08:12.793963 17615 net.cpp:100] Creating Layer L2_b6_cbr1_scale
I0817 16:08:12.793970 17615 net.cpp:434] L2_b6_cbr1_scale <- L2_b6_cbr1_bn_top
I0817 16:08:12.793977 17615 net.cpp:395] L2_b6_cbr1_scale -> L2_b6_cbr1_bn_top (in-place)
I0817 16:08:12.794034 17615 layer_factory.hpp:77] Creating layer L2_b6_cbr1_scale
I0817 16:08:12.794178 17615 net.cpp:150] Setting up L2_b6_cbr1_scale
I0817 16:08:12.794191 17615 net.cpp:157] Top shape: 125 32 16 16 (1024000)
I0817 16:08:12.794196 17615 net.cpp:165] Memory required for data: 1089025500
I0817 16:08:12.794205 17615 layer_factory.hpp:77] Creating layer L2_b6_cbr1_relu
I0817 16:08:12.794216 17615 net.cpp:100] Creating Layer L2_b6_cbr1_relu
I0817 16:08:12.794222 17615 net.cpp:434] L2_b6_cbr1_relu <- L2_b6_cbr1_bn_top
I0817 16:08:12.794229 17615 net.cpp:395] L2_b6_cbr1_relu -> L2_b6_cbr1_bn_top (in-place)
I0817 16:08:12.794239 17615 net.cpp:150] Setting up L2_b6_cbr1_relu
I0817 16:08:12.794246 17615 net.cpp:157] Top shape: 125 32 16 16 (1024000)
I0817 16:08:12.794250 17615 net.cpp:165] Memory required for data: 1093121500
I0817 16:08:12.794255 17615 layer_factory.hpp:77] Creating layer L2_b6_cbr2_conv
I0817 16:08:12.794270 17615 net.cpp:100] Creating Layer L2_b6_cbr2_conv
I0817 16:08:12.794275 17615 net.cpp:434] L2_b6_cbr2_conv <- L2_b6_cbr1_bn_top
I0817 16:08:12.794286 17615 net.cpp:408] L2_b6_cbr2_conv -> L2_b6_cbr2_conv_top
I0817 16:08:12.794785 17615 net.cpp:150] Setting up L2_b6_cbr2_conv
I0817 16:08:12.794808 17615 net.cpp:157] Top shape: 125 32 16 16 (1024000)
I0817 16:08:12.794814 17615 net.cpp:165] Memory required for data: 1097217500
I0817 16:08:12.794823 17615 layer_factory.hpp:77] Creating layer L2_b6_cbr2_bn
I0817 16:08:12.794839 17615 net.cpp:100] Creating Layer L2_b6_cbr2_bn
I0817 16:08:12.794845 17615 net.cpp:434] L2_b6_cbr2_bn <- L2_b6_cbr2_conv_top
I0817 16:08:12.794857 17615 net.cpp:408] L2_b6_cbr2_bn -> L2_b6_cbr2_bn_top
I0817 16:08:12.795100 17615 net.cpp:150] Setting up L2_b6_cbr2_bn
I0817 16:08:12.795116 17615 net.cpp:157] Top shape: 125 32 16 16 (1024000)
I0817 16:08:12.795121 17615 net.cpp:165] Memory required for data: 1101313500
I0817 16:08:12.795132 17615 layer_factory.hpp:77] Creating layer L2_b6_cbr2_scale
I0817 16:08:12.795140 17615 net.cpp:100] Creating Layer L2_b6_cbr2_scale
I0817 16:08:12.795147 17615 net.cpp:434] L2_b6_cbr2_scale <- L2_b6_cbr2_bn_top
I0817 16:08:12.795155 17615 net.cpp:395] L2_b6_cbr2_scale -> L2_b6_cbr2_bn_top (in-place)
I0817 16:08:12.795212 17615 layer_factory.hpp:77] Creating layer L2_b6_cbr2_scale
I0817 16:08:12.795356 17615 net.cpp:150] Setting up L2_b6_cbr2_scale
I0817 16:08:12.795369 17615 net.cpp:157] Top shape: 125 32 16 16 (1024000)
I0817 16:08:12.795374 17615 net.cpp:165] Memory required for data: 1105409500
I0817 16:08:12.795383 17615 layer_factory.hpp:77] Creating layer L2_b6_sum_eltwise
I0817 16:08:12.795393 17615 net.cpp:100] Creating Layer L2_b6_sum_eltwise
I0817 16:08:12.795403 17615 net.cpp:434] L2_b6_sum_eltwise <- L2_b6_cbr2_bn_top
I0817 16:08:12.795409 17615 net.cpp:434] L2_b6_sum_eltwise <- L2_b5_sum_eltwise_top_L2_b5_relu_0_split_1
I0817 16:08:12.795416 17615 net.cpp:408] L2_b6_sum_eltwise -> L2_b6_sum_eltwise_top
I0817 16:08:12.795444 17615 net.cpp:150] Setting up L2_b6_sum_eltwise
I0817 16:08:12.795452 17615 net.cpp:157] Top shape: 125 32 16 16 (1024000)
I0817 16:08:12.795457 17615 net.cpp:165] Memory required for data: 1109505500
I0817 16:08:12.795462 17615 layer_factory.hpp:77] Creating layer L2_b6_relu
I0817 16:08:12.795473 17615 net.cpp:100] Creating Layer L2_b6_relu
I0817 16:08:12.795480 17615 net.cpp:434] L2_b6_relu <- L2_b6_sum_eltwise_top
I0817 16:08:12.795486 17615 net.cpp:395] L2_b6_relu -> L2_b6_sum_eltwise_top (in-place)
I0817 16:08:12.795495 17615 net.cpp:150] Setting up L2_b6_relu
I0817 16:08:12.795502 17615 net.cpp:157] Top shape: 125 32 16 16 (1024000)
I0817 16:08:12.795506 17615 net.cpp:165] Memory required for data: 1113601500
I0817 16:08:12.795511 17615 layer_factory.hpp:77] Creating layer L2_b6_sum_eltwise_top_L2_b6_relu_0_split
I0817 16:08:12.795519 17615 net.cpp:100] Creating Layer L2_b6_sum_eltwise_top_L2_b6_relu_0_split
I0817 16:08:12.795524 17615 net.cpp:434] L2_b6_sum_eltwise_top_L2_b6_relu_0_split <- L2_b6_sum_eltwise_top
I0817 16:08:12.795532 17615 net.cpp:408] L2_b6_sum_eltwise_top_L2_b6_relu_0_split -> L2_b6_sum_eltwise_top_L2_b6_relu_0_split_0
I0817 16:08:12.795542 17615 net.cpp:408] L2_b6_sum_eltwise_top_L2_b6_relu_0_split -> L2_b6_sum_eltwise_top_L2_b6_relu_0_split_1
I0817 16:08:12.795588 17615 net.cpp:150] Setting up L2_b6_sum_eltwise_top_L2_b6_relu_0_split
I0817 16:08:12.795598 17615 net.cpp:157] Top shape: 125 32 16 16 (1024000)
I0817 16:08:12.795604 17615 net.cpp:157] Top shape: 125 32 16 16 (1024000)
I0817 16:08:12.795609 17615 net.cpp:165] Memory required for data: 1121793500
I0817 16:08:12.795622 17615 layer_factory.hpp:77] Creating layer L2_b7_cbr1_conv
I0817 16:08:12.795636 17615 net.cpp:100] Creating Layer L2_b7_cbr1_conv
I0817 16:08:12.795644 17615 net.cpp:434] L2_b7_cbr1_conv <- L2_b6_sum_eltwise_top_L2_b6_relu_0_split_0
I0817 16:08:12.795652 17615 net.cpp:408] L2_b7_cbr1_conv -> L2_b7_cbr1_conv_top
I0817 16:08:12.796118 17615 net.cpp:150] Setting up L2_b7_cbr1_conv
I0817 16:08:12.796131 17615 net.cpp:157] Top shape: 125 32 16 16 (1024000)
I0817 16:08:12.796138 17615 net.cpp:165] Memory required for data: 1125889500
I0817 16:08:12.796145 17615 layer_factory.hpp:77] Creating layer L2_b7_cbr1_bn
I0817 16:08:12.796157 17615 net.cpp:100] Creating Layer L2_b7_cbr1_bn
I0817 16:08:12.796170 17615 net.cpp:434] L2_b7_cbr1_bn <- L2_b7_cbr1_conv_top
I0817 16:08:12.796182 17615 net.cpp:408] L2_b7_cbr1_bn -> L2_b7_cbr1_bn_top
I0817 16:08:12.796437 17615 net.cpp:150] Setting up L2_b7_cbr1_bn
I0817 16:08:12.796450 17615 net.cpp:157] Top shape: 125 32 16 16 (1024000)
I0817 16:08:12.796455 17615 net.cpp:165] Memory required for data: 1129985500
I0817 16:08:12.796465 17615 layer_factory.hpp:77] Creating layer L2_b7_cbr1_scale
I0817 16:08:12.796474 17615 net.cpp:100] Creating Layer L2_b7_cbr1_scale
I0817 16:08:12.796480 17615 net.cpp:434] L2_b7_cbr1_scale <- L2_b7_cbr1_bn_top
I0817 16:08:12.796489 17615 net.cpp:395] L2_b7_cbr1_scale -> L2_b7_cbr1_bn_top (in-place)
I0817 16:08:12.796545 17615 layer_factory.hpp:77] Creating layer L2_b7_cbr1_scale
I0817 16:08:12.796701 17615 net.cpp:150] Setting up L2_b7_cbr1_scale
I0817 16:08:12.796715 17615 net.cpp:157] Top shape: 125 32 16 16 (1024000)
I0817 16:08:12.796720 17615 net.cpp:165] Memory required for data: 1134081500
I0817 16:08:12.796730 17615 layer_factory.hpp:77] Creating layer L2_b7_cbr1_relu
I0817 16:08:12.796741 17615 net.cpp:100] Creating Layer L2_b7_cbr1_relu
I0817 16:08:12.796747 17615 net.cpp:434] L2_b7_cbr1_relu <- L2_b7_cbr1_bn_top
I0817 16:08:12.796754 17615 net.cpp:395] L2_b7_cbr1_relu -> L2_b7_cbr1_bn_top (in-place)
I0817 16:08:12.796764 17615 net.cpp:150] Setting up L2_b7_cbr1_relu
I0817 16:08:12.796772 17615 net.cpp:157] Top shape: 125 32 16 16 (1024000)
I0817 16:08:12.796777 17615 net.cpp:165] Memory required for data: 1138177500
I0817 16:08:12.796780 17615 layer_factory.hpp:77] Creating layer L2_b7_cbr2_conv
I0817 16:08:12.796794 17615 net.cpp:100] Creating Layer L2_b7_cbr2_conv
I0817 16:08:12.796800 17615 net.cpp:434] L2_b7_cbr2_conv <- L2_b7_cbr1_bn_top
I0817 16:08:12.796809 17615 net.cpp:408] L2_b7_cbr2_conv -> L2_b7_cbr2_conv_top
I0817 16:08:12.797273 17615 net.cpp:150] Setting up L2_b7_cbr2_conv
I0817 16:08:12.797287 17615 net.cpp:157] Top shape: 125 32 16 16 (1024000)
I0817 16:08:12.797292 17615 net.cpp:165] Memory required for data: 1142273500
I0817 16:08:12.797300 17615 layer_factory.hpp:77] Creating layer L2_b7_cbr2_bn
I0817 16:08:12.797312 17615 net.cpp:100] Creating Layer L2_b7_cbr2_bn
I0817 16:08:12.797319 17615 net.cpp:434] L2_b7_cbr2_bn <- L2_b7_cbr2_conv_top
I0817 16:08:12.797327 17615 net.cpp:408] L2_b7_cbr2_bn -> L2_b7_cbr2_bn_top
I0817 16:08:12.797575 17615 net.cpp:150] Setting up L2_b7_cbr2_bn
I0817 16:08:12.797593 17615 net.cpp:157] Top shape: 125 32 16 16 (1024000)
I0817 16:08:12.797598 17615 net.cpp:165] Memory required for data: 1146369500
I0817 16:08:12.797610 17615 layer_factory.hpp:77] Creating layer L2_b7_cbr2_scale
I0817 16:08:12.797624 17615 net.cpp:100] Creating Layer L2_b7_cbr2_scale
I0817 16:08:12.797631 17615 net.cpp:434] L2_b7_cbr2_scale <- L2_b7_cbr2_bn_top
I0817 16:08:12.797638 17615 net.cpp:395] L2_b7_cbr2_scale -> L2_b7_cbr2_bn_top (in-place)
I0817 16:08:12.797693 17615 layer_factory.hpp:77] Creating layer L2_b7_cbr2_scale
I0817 16:08:12.797844 17615 net.cpp:150] Setting up L2_b7_cbr2_scale
I0817 16:08:12.797857 17615 net.cpp:157] Top shape: 125 32 16 16 (1024000)
I0817 16:08:12.797863 17615 net.cpp:165] Memory required for data: 1150465500
I0817 16:08:12.797871 17615 layer_factory.hpp:77] Creating layer L2_b7_sum_eltwise
I0817 16:08:12.797880 17615 net.cpp:100] Creating Layer L2_b7_sum_eltwise
I0817 16:08:12.797886 17615 net.cpp:434] L2_b7_sum_eltwise <- L2_b7_cbr2_bn_top
I0817 16:08:12.797894 17615 net.cpp:434] L2_b7_sum_eltwise <- L2_b6_sum_eltwise_top_L2_b6_relu_0_split_1
I0817 16:08:12.797906 17615 net.cpp:408] L2_b7_sum_eltwise -> L2_b7_sum_eltwise_top
I0817 16:08:12.797933 17615 net.cpp:150] Setting up L2_b7_sum_eltwise
I0817 16:08:12.797943 17615 net.cpp:157] Top shape: 125 32 16 16 (1024000)
I0817 16:08:12.797948 17615 net.cpp:165] Memory required for data: 1154561500
I0817 16:08:12.797953 17615 layer_factory.hpp:77] Creating layer L2_b7_relu
I0817 16:08:12.797965 17615 net.cpp:100] Creating Layer L2_b7_relu
I0817 16:08:12.797971 17615 net.cpp:434] L2_b7_relu <- L2_b7_sum_eltwise_top
I0817 16:08:12.797984 17615 net.cpp:395] L2_b7_relu -> L2_b7_sum_eltwise_top (in-place)
I0817 16:08:12.797994 17615 net.cpp:150] Setting up L2_b7_relu
I0817 16:08:12.798002 17615 net.cpp:157] Top shape: 125 32 16 16 (1024000)
I0817 16:08:12.798007 17615 net.cpp:165] Memory required for data: 1158657500
I0817 16:08:12.798010 17615 layer_factory.hpp:77] Creating layer L2_b7_sum_eltwise_top_L2_b7_relu_0_split
I0817 16:08:12.798018 17615 net.cpp:100] Creating Layer L2_b7_sum_eltwise_top_L2_b7_relu_0_split
I0817 16:08:12.798023 17615 net.cpp:434] L2_b7_sum_eltwise_top_L2_b7_relu_0_split <- L2_b7_sum_eltwise_top
I0817 16:08:12.798030 17615 net.cpp:408] L2_b7_sum_eltwise_top_L2_b7_relu_0_split -> L2_b7_sum_eltwise_top_L2_b7_relu_0_split_0
I0817 16:08:12.798040 17615 net.cpp:408] L2_b7_sum_eltwise_top_L2_b7_relu_0_split -> L2_b7_sum_eltwise_top_L2_b7_relu_0_split_1
I0817 16:08:12.798087 17615 net.cpp:150] Setting up L2_b7_sum_eltwise_top_L2_b7_relu_0_split
I0817 16:08:12.798099 17615 net.cpp:157] Top shape: 125 32 16 16 (1024000)
I0817 16:08:12.798106 17615 net.cpp:157] Top shape: 125 32 16 16 (1024000)
I0817 16:08:12.798111 17615 net.cpp:165] Memory required for data: 1166849500
I0817 16:08:12.798116 17615 layer_factory.hpp:77] Creating layer L2_b8_cbr1_conv
I0817 16:08:12.798130 17615 net.cpp:100] Creating Layer L2_b8_cbr1_conv
I0817 16:08:12.798137 17615 net.cpp:434] L2_b8_cbr1_conv <- L2_b7_sum_eltwise_top_L2_b7_relu_0_split_0
I0817 16:08:12.798146 17615 net.cpp:408] L2_b8_cbr1_conv -> L2_b8_cbr1_conv_top
I0817 16:08:12.798619 17615 net.cpp:150] Setting up L2_b8_cbr1_conv
I0817 16:08:12.798635 17615 net.cpp:157] Top shape: 125 32 16 16 (1024000)
I0817 16:08:12.798640 17615 net.cpp:165] Memory required for data: 1170945500
I0817 16:08:12.798648 17615 layer_factory.hpp:77] Creating layer L2_b8_cbr1_bn
I0817 16:08:12.798660 17615 net.cpp:100] Creating Layer L2_b8_cbr1_bn
I0817 16:08:12.798667 17615 net.cpp:434] L2_b8_cbr1_bn <- L2_b8_cbr1_conv_top
I0817 16:08:12.798677 17615 net.cpp:408] L2_b8_cbr1_bn -> L2_b8_cbr1_bn_top
I0817 16:08:12.798931 17615 net.cpp:150] Setting up L2_b8_cbr1_bn
I0817 16:08:12.798945 17615 net.cpp:157] Top shape: 125 32 16 16 (1024000)
I0817 16:08:12.798950 17615 net.cpp:165] Memory required for data: 1175041500
I0817 16:08:12.798960 17615 layer_factory.hpp:77] Creating layer L2_b8_cbr1_scale
I0817 16:08:12.798969 17615 net.cpp:100] Creating Layer L2_b8_cbr1_scale
I0817 16:08:12.798975 17615 net.cpp:434] L2_b8_cbr1_scale <- L2_b8_cbr1_bn_top
I0817 16:08:12.798984 17615 net.cpp:395] L2_b8_cbr1_scale -> L2_b8_cbr1_bn_top (in-place)
I0817 16:08:12.799041 17615 layer_factory.hpp:77] Creating layer L2_b8_cbr1_scale
I0817 16:08:12.799193 17615 net.cpp:150] Setting up L2_b8_cbr1_scale
I0817 16:08:12.799206 17615 net.cpp:157] Top shape: 125 32 16 16 (1024000)
I0817 16:08:12.799211 17615 net.cpp:165] Memory required for data: 1179137500
I0817 16:08:12.799221 17615 layer_factory.hpp:77] Creating layer L2_b8_cbr1_relu
I0817 16:08:12.799228 17615 net.cpp:100] Creating Layer L2_b8_cbr1_relu
I0817 16:08:12.799234 17615 net.cpp:434] L2_b8_cbr1_relu <- L2_b8_cbr1_bn_top
I0817 16:08:12.799244 17615 net.cpp:395] L2_b8_cbr1_relu -> L2_b8_cbr1_bn_top (in-place)
I0817 16:08:12.799254 17615 net.cpp:150] Setting up L2_b8_cbr1_relu
I0817 16:08:12.799262 17615 net.cpp:157] Top shape: 125 32 16 16 (1024000)
I0817 16:08:12.799265 17615 net.cpp:165] Memory required for data: 1183233500
I0817 16:08:12.799270 17615 layer_factory.hpp:77] Creating layer L2_b8_cbr2_conv
I0817 16:08:12.799284 17615 net.cpp:100] Creating Layer L2_b8_cbr2_conv
I0817 16:08:12.799290 17615 net.cpp:434] L2_b8_cbr2_conv <- L2_b8_cbr1_bn_top
I0817 16:08:12.799299 17615 net.cpp:408] L2_b8_cbr2_conv -> L2_b8_cbr2_conv_top
I0817 16:08:12.799770 17615 net.cpp:150] Setting up L2_b8_cbr2_conv
I0817 16:08:12.799785 17615 net.cpp:157] Top shape: 125 32 16 16 (1024000)
I0817 16:08:12.799790 17615 net.cpp:165] Memory required for data: 1187329500
I0817 16:08:12.799799 17615 layer_factory.hpp:77] Creating layer L2_b8_cbr2_bn
I0817 16:08:12.799811 17615 net.cpp:100] Creating Layer L2_b8_cbr2_bn
I0817 16:08:12.799825 17615 net.cpp:434] L2_b8_cbr2_bn <- L2_b8_cbr2_conv_top
I0817 16:08:12.799834 17615 net.cpp:408] L2_b8_cbr2_bn -> L2_b8_cbr2_bn_top
I0817 16:08:12.800091 17615 net.cpp:150] Setting up L2_b8_cbr2_bn
I0817 16:08:12.800107 17615 net.cpp:157] Top shape: 125 32 16 16 (1024000)
I0817 16:08:12.800112 17615 net.cpp:165] Memory required for data: 1191425500
I0817 16:08:12.800122 17615 layer_factory.hpp:77] Creating layer L2_b8_cbr2_scale
I0817 16:08:12.800130 17615 net.cpp:100] Creating Layer L2_b8_cbr2_scale
I0817 16:08:12.800137 17615 net.cpp:434] L2_b8_cbr2_scale <- L2_b8_cbr2_bn_top
I0817 16:08:12.800144 17615 net.cpp:395] L2_b8_cbr2_scale -> L2_b8_cbr2_bn_top (in-place)
I0817 16:08:12.800199 17615 layer_factory.hpp:77] Creating layer L2_b8_cbr2_scale
I0817 16:08:12.800348 17615 net.cpp:150] Setting up L2_b8_cbr2_scale
I0817 16:08:12.800361 17615 net.cpp:157] Top shape: 125 32 16 16 (1024000)
I0817 16:08:12.800366 17615 net.cpp:165] Memory required for data: 1195521500
I0817 16:08:12.800375 17615 layer_factory.hpp:77] Creating layer L2_b8_sum_eltwise
I0817 16:08:12.800384 17615 net.cpp:100] Creating Layer L2_b8_sum_eltwise
I0817 16:08:12.800390 17615 net.cpp:434] L2_b8_sum_eltwise <- L2_b8_cbr2_bn_top
I0817 16:08:12.800397 17615 net.cpp:434] L2_b8_sum_eltwise <- L2_b7_sum_eltwise_top_L2_b7_relu_0_split_1
I0817 16:08:12.800408 17615 net.cpp:408] L2_b8_sum_eltwise -> L2_b8_sum_eltwise_top
I0817 16:08:12.800436 17615 net.cpp:150] Setting up L2_b8_sum_eltwise
I0817 16:08:12.800444 17615 net.cpp:157] Top shape: 125 32 16 16 (1024000)
I0817 16:08:12.800448 17615 net.cpp:165] Memory required for data: 1199617500
I0817 16:08:12.800454 17615 layer_factory.hpp:77] Creating layer L2_b8_relu
I0817 16:08:12.800462 17615 net.cpp:100] Creating Layer L2_b8_relu
I0817 16:08:12.800467 17615 net.cpp:434] L2_b8_relu <- L2_b8_sum_eltwise_top
I0817 16:08:12.800477 17615 net.cpp:395] L2_b8_relu -> L2_b8_sum_eltwise_top (in-place)
I0817 16:08:12.800487 17615 net.cpp:150] Setting up L2_b8_relu
I0817 16:08:12.800493 17615 net.cpp:157] Top shape: 125 32 16 16 (1024000)
I0817 16:08:12.800498 17615 net.cpp:165] Memory required for data: 1203713500
I0817 16:08:12.800503 17615 layer_factory.hpp:77] Creating layer L2_b8_sum_eltwise_top_L2_b8_relu_0_split
I0817 16:08:12.800509 17615 net.cpp:100] Creating Layer L2_b8_sum_eltwise_top_L2_b8_relu_0_split
I0817 16:08:12.800516 17615 net.cpp:434] L2_b8_sum_eltwise_top_L2_b8_relu_0_split <- L2_b8_sum_eltwise_top
I0817 16:08:12.800523 17615 net.cpp:408] L2_b8_sum_eltwise_top_L2_b8_relu_0_split -> L2_b8_sum_eltwise_top_L2_b8_relu_0_split_0
I0817 16:08:12.800545 17615 net.cpp:408] L2_b8_sum_eltwise_top_L2_b8_relu_0_split -> L2_b8_sum_eltwise_top_L2_b8_relu_0_split_1
I0817 16:08:12.800595 17615 net.cpp:150] Setting up L2_b8_sum_eltwise_top_L2_b8_relu_0_split
I0817 16:08:12.800608 17615 net.cpp:157] Top shape: 125 32 16 16 (1024000)
I0817 16:08:12.800621 17615 net.cpp:157] Top shape: 125 32 16 16 (1024000)
I0817 16:08:12.800626 17615 net.cpp:165] Memory required for data: 1211905500
I0817 16:08:12.800631 17615 layer_factory.hpp:77] Creating layer L2_b9_cbr1_conv
I0817 16:08:12.800643 17615 net.cpp:100] Creating Layer L2_b9_cbr1_conv
I0817 16:08:12.800650 17615 net.cpp:434] L2_b9_cbr1_conv <- L2_b8_sum_eltwise_top_L2_b8_relu_0_split_0
I0817 16:08:12.800663 17615 net.cpp:408] L2_b9_cbr1_conv -> L2_b9_cbr1_conv_top
I0817 16:08:12.801131 17615 net.cpp:150] Setting up L2_b9_cbr1_conv
I0817 16:08:12.801144 17615 net.cpp:157] Top shape: 125 32 16 16 (1024000)
I0817 16:08:12.801151 17615 net.cpp:165] Memory required for data: 1216001500
I0817 16:08:12.801159 17615 layer_factory.hpp:77] Creating layer L2_b9_cbr1_bn
I0817 16:08:12.801172 17615 net.cpp:100] Creating Layer L2_b9_cbr1_bn
I0817 16:08:12.801177 17615 net.cpp:434] L2_b9_cbr1_bn <- L2_b9_cbr1_conv_top
I0817 16:08:12.801185 17615 net.cpp:408] L2_b9_cbr1_bn -> L2_b9_cbr1_bn_top
I0817 16:08:12.801434 17615 net.cpp:150] Setting up L2_b9_cbr1_bn
I0817 16:08:12.801446 17615 net.cpp:157] Top shape: 125 32 16 16 (1024000)
I0817 16:08:12.801451 17615 net.cpp:165] Memory required for data: 1220097500
I0817 16:08:12.801471 17615 layer_factory.hpp:77] Creating layer L2_b9_cbr1_scale
I0817 16:08:12.801483 17615 net.cpp:100] Creating Layer L2_b9_cbr1_scale
I0817 16:08:12.801491 17615 net.cpp:434] L2_b9_cbr1_scale <- L2_b9_cbr1_bn_top
I0817 16:08:12.801498 17615 net.cpp:395] L2_b9_cbr1_scale -> L2_b9_cbr1_bn_top (in-place)
I0817 16:08:12.801553 17615 layer_factory.hpp:77] Creating layer L2_b9_cbr1_scale
I0817 16:08:12.801710 17615 net.cpp:150] Setting up L2_b9_cbr1_scale
I0817 16:08:12.801724 17615 net.cpp:157] Top shape: 125 32 16 16 (1024000)
I0817 16:08:12.801729 17615 net.cpp:165] Memory required for data: 1224193500
I0817 16:08:12.801738 17615 layer_factory.hpp:77] Creating layer L2_b9_cbr1_relu
I0817 16:08:12.801749 17615 net.cpp:100] Creating Layer L2_b9_cbr1_relu
I0817 16:08:12.801756 17615 net.cpp:434] L2_b9_cbr1_relu <- L2_b9_cbr1_bn_top
I0817 16:08:12.801766 17615 net.cpp:395] L2_b9_cbr1_relu -> L2_b9_cbr1_bn_top (in-place)
I0817 16:08:12.801776 17615 net.cpp:150] Setting up L2_b9_cbr1_relu
I0817 16:08:12.801784 17615 net.cpp:157] Top shape: 125 32 16 16 (1024000)
I0817 16:08:12.801789 17615 net.cpp:165] Memory required for data: 1228289500
I0817 16:08:12.801792 17615 layer_factory.hpp:77] Creating layer L2_b9_cbr2_conv
I0817 16:08:12.801803 17615 net.cpp:100] Creating Layer L2_b9_cbr2_conv
I0817 16:08:12.801810 17615 net.cpp:434] L2_b9_cbr2_conv <- L2_b9_cbr1_bn_top
I0817 16:08:12.801820 17615 net.cpp:408] L2_b9_cbr2_conv -> L2_b9_cbr2_conv_top
I0817 16:08:12.802280 17615 net.cpp:150] Setting up L2_b9_cbr2_conv
I0817 16:08:12.802294 17615 net.cpp:157] Top shape: 125 32 16 16 (1024000)
I0817 16:08:12.802300 17615 net.cpp:165] Memory required for data: 1232385500
I0817 16:08:12.802309 17615 layer_factory.hpp:77] Creating layer L2_b9_cbr2_bn
I0817 16:08:12.802317 17615 net.cpp:100] Creating Layer L2_b9_cbr2_bn
I0817 16:08:12.802325 17615 net.cpp:434] L2_b9_cbr2_bn <- L2_b9_cbr2_conv_top
I0817 16:08:12.802335 17615 net.cpp:408] L2_b9_cbr2_bn -> L2_b9_cbr2_bn_top
I0817 16:08:12.802585 17615 net.cpp:150] Setting up L2_b9_cbr2_bn
I0817 16:08:12.802598 17615 net.cpp:157] Top shape: 125 32 16 16 (1024000)
I0817 16:08:12.802603 17615 net.cpp:165] Memory required for data: 1236481500
I0817 16:08:12.802651 17615 layer_factory.hpp:77] Creating layer L2_b9_cbr2_scale
I0817 16:08:12.802670 17615 net.cpp:100] Creating Layer L2_b9_cbr2_scale
I0817 16:08:12.802676 17615 net.cpp:434] L2_b9_cbr2_scale <- L2_b9_cbr2_bn_top
I0817 16:08:12.802685 17615 net.cpp:395] L2_b9_cbr2_scale -> L2_b9_cbr2_bn_top (in-place)
I0817 16:08:12.802745 17615 layer_factory.hpp:77] Creating layer L2_b9_cbr2_scale
I0817 16:08:12.802892 17615 net.cpp:150] Setting up L2_b9_cbr2_scale
I0817 16:08:12.802912 17615 net.cpp:157] Top shape: 125 32 16 16 (1024000)
I0817 16:08:12.802918 17615 net.cpp:165] Memory required for data: 1240577500
I0817 16:08:12.802927 17615 layer_factory.hpp:77] Creating layer L2_b9_sum_eltwise
I0817 16:08:12.802937 17615 net.cpp:100] Creating Layer L2_b9_sum_eltwise
I0817 16:08:12.802943 17615 net.cpp:434] L2_b9_sum_eltwise <- L2_b9_cbr2_bn_top
I0817 16:08:12.802950 17615 net.cpp:434] L2_b9_sum_eltwise <- L2_b8_sum_eltwise_top_L2_b8_relu_0_split_1
I0817 16:08:12.802958 17615 net.cpp:408] L2_b9_sum_eltwise -> L2_b9_sum_eltwise_top
I0817 16:08:12.802987 17615 net.cpp:150] Setting up L2_b9_sum_eltwise
I0817 16:08:12.802997 17615 net.cpp:157] Top shape: 125 32 16 16 (1024000)
I0817 16:08:12.803001 17615 net.cpp:165] Memory required for data: 1244673500
I0817 16:08:12.803007 17615 layer_factory.hpp:77] Creating layer L2_b9_relu
I0817 16:08:12.803014 17615 net.cpp:100] Creating Layer L2_b9_relu
I0817 16:08:12.803020 17615 net.cpp:434] L2_b9_relu <- L2_b9_sum_eltwise_top
I0817 16:08:12.803030 17615 net.cpp:395] L2_b9_relu -> L2_b9_sum_eltwise_top (in-place)
I0817 16:08:12.803040 17615 net.cpp:150] Setting up L2_b9_relu
I0817 16:08:12.803047 17615 net.cpp:157] Top shape: 125 32 16 16 (1024000)
I0817 16:08:12.803051 17615 net.cpp:165] Memory required for data: 1248769500
I0817 16:08:12.803056 17615 layer_factory.hpp:77] Creating layer L2_b9_sum_eltwise_top_L2_b9_relu_0_split
I0817 16:08:12.803071 17615 net.cpp:100] Creating Layer L2_b9_sum_eltwise_top_L2_b9_relu_0_split
I0817 16:08:12.803076 17615 net.cpp:434] L2_b9_sum_eltwise_top_L2_b9_relu_0_split <- L2_b9_sum_eltwise_top
I0817 16:08:12.803086 17615 net.cpp:408] L2_b9_sum_eltwise_top_L2_b9_relu_0_split -> L2_b9_sum_eltwise_top_L2_b9_relu_0_split_0
I0817 16:08:12.803097 17615 net.cpp:408] L2_b9_sum_eltwise_top_L2_b9_relu_0_split -> L2_b9_sum_eltwise_top_L2_b9_relu_0_split_1
I0817 16:08:12.803141 17615 net.cpp:150] Setting up L2_b9_sum_eltwise_top_L2_b9_relu_0_split
I0817 16:08:12.803153 17615 net.cpp:157] Top shape: 125 32 16 16 (1024000)
I0817 16:08:12.803159 17615 net.cpp:157] Top shape: 125 32 16 16 (1024000)
I0817 16:08:12.803164 17615 net.cpp:165] Memory required for data: 1256961500
I0817 16:08:12.803169 17615 layer_factory.hpp:77] Creating layer L3_b1_cbr1_conv
I0817 16:08:12.803184 17615 net.cpp:100] Creating Layer L3_b1_cbr1_conv
I0817 16:08:12.803190 17615 net.cpp:434] L3_b1_cbr1_conv <- L2_b9_sum_eltwise_top_L2_b9_relu_0_split_0
I0817 16:08:12.803200 17615 net.cpp:408] L3_b1_cbr1_conv -> L3_b1_cbr1_conv_top
I0817 16:08:12.803683 17615 net.cpp:150] Setting up L3_b1_cbr1_conv
I0817 16:08:12.803699 17615 net.cpp:157] Top shape: 125 32 8 8 (256000)
I0817 16:08:12.803704 17615 net.cpp:165] Memory required for data: 1257985500
I0817 16:08:12.803711 17615 layer_factory.hpp:77] Creating layer L3_b1_cbr1_bn
I0817 16:08:12.803724 17615 net.cpp:100] Creating Layer L3_b1_cbr1_bn
I0817 16:08:12.803730 17615 net.cpp:434] L3_b1_cbr1_bn <- L3_b1_cbr1_conv_top
I0817 16:08:12.803738 17615 net.cpp:408] L3_b1_cbr1_bn -> L3_b1_cbr1_bn_top
I0817 16:08:12.804025 17615 net.cpp:150] Setting up L3_b1_cbr1_bn
I0817 16:08:12.804046 17615 net.cpp:157] Top shape: 125 32 8 8 (256000)
I0817 16:08:12.804051 17615 net.cpp:165] Memory required for data: 1259009500
I0817 16:08:12.804062 17615 layer_factory.hpp:77] Creating layer L3_b1_cbr1_scale
I0817 16:08:12.804075 17615 net.cpp:100] Creating Layer L3_b1_cbr1_scale
I0817 16:08:12.804080 17615 net.cpp:434] L3_b1_cbr1_scale <- L3_b1_cbr1_bn_top
I0817 16:08:12.804088 17615 net.cpp:395] L3_b1_cbr1_scale -> L3_b1_cbr1_bn_top (in-place)
I0817 16:08:12.804147 17615 layer_factory.hpp:77] Creating layer L3_b1_cbr1_scale
I0817 16:08:12.804301 17615 net.cpp:150] Setting up L3_b1_cbr1_scale
I0817 16:08:12.804313 17615 net.cpp:157] Top shape: 125 32 8 8 (256000)
I0817 16:08:12.804318 17615 net.cpp:165] Memory required for data: 1260033500
I0817 16:08:12.804327 17615 layer_factory.hpp:77] Creating layer L3_b1_cbr1_relu
I0817 16:08:12.804338 17615 net.cpp:100] Creating Layer L3_b1_cbr1_relu
I0817 16:08:12.804344 17615 net.cpp:434] L3_b1_cbr1_relu <- L3_b1_cbr1_bn_top
I0817 16:08:12.804352 17615 net.cpp:395] L3_b1_cbr1_relu -> L3_b1_cbr1_bn_top (in-place)
I0817 16:08:12.804361 17615 net.cpp:150] Setting up L3_b1_cbr1_relu
I0817 16:08:12.804368 17615 net.cpp:157] Top shape: 125 32 8 8 (256000)
I0817 16:08:12.804373 17615 net.cpp:165] Memory required for data: 1261057500
I0817 16:08:12.804376 17615 layer_factory.hpp:77] Creating layer L3_b1_cbr2_conv
I0817 16:08:12.804391 17615 net.cpp:100] Creating Layer L3_b1_cbr2_conv
I0817 16:08:12.804397 17615 net.cpp:434] L3_b1_cbr2_conv <- L3_b1_cbr1_bn_top
I0817 16:08:12.804407 17615 net.cpp:408] L3_b1_cbr2_conv -> L3_b1_cbr2_conv_top
I0817 16:08:12.804888 17615 net.cpp:150] Setting up L3_b1_cbr2_conv
I0817 16:08:12.804901 17615 net.cpp:157] Top shape: 125 32 8 8 (256000)
I0817 16:08:12.804906 17615 net.cpp:165] Memory required for data: 1262081500
I0817 16:08:12.804915 17615 layer_factory.hpp:77] Creating layer L3_b1_cbr2_bn
I0817 16:08:12.804924 17615 net.cpp:100] Creating Layer L3_b1_cbr2_bn
I0817 16:08:12.804930 17615 net.cpp:434] L3_b1_cbr2_bn <- L3_b1_cbr2_conv_top
I0817 16:08:12.804942 17615 net.cpp:408] L3_b1_cbr2_bn -> L3_b1_cbr2_bn_top
I0817 16:08:12.805198 17615 net.cpp:150] Setting up L3_b1_cbr2_bn
I0817 16:08:12.805214 17615 net.cpp:157] Top shape: 125 32 8 8 (256000)
I0817 16:08:12.805219 17615 net.cpp:165] Memory required for data: 1263105500
I0817 16:08:12.805236 17615 layer_factory.hpp:77] Creating layer L3_b1_cbr2_scale
I0817 16:08:12.805245 17615 net.cpp:100] Creating Layer L3_b1_cbr2_scale
I0817 16:08:12.805251 17615 net.cpp:434] L3_b1_cbr2_scale <- L3_b1_cbr2_bn_top
I0817 16:08:12.805259 17615 net.cpp:395] L3_b1_cbr2_scale -> L3_b1_cbr2_bn_top (in-place)
I0817 16:08:12.805315 17615 layer_factory.hpp:77] Creating layer L3_b1_cbr2_scale
I0817 16:08:12.805469 17615 net.cpp:150] Setting up L3_b1_cbr2_scale
I0817 16:08:12.805482 17615 net.cpp:157] Top shape: 125 32 8 8 (256000)
I0817 16:08:12.805487 17615 net.cpp:165] Memory required for data: 1264129500
I0817 16:08:12.805497 17615 layer_factory.hpp:77] Creating layer L3_b1_pool
I0817 16:08:12.805510 17615 net.cpp:100] Creating Layer L3_b1_pool
I0817 16:08:12.805516 17615 net.cpp:434] L3_b1_pool <- L2_b9_sum_eltwise_top_L2_b9_relu_0_split_1
I0817 16:08:12.805524 17615 net.cpp:408] L3_b1_pool -> L3_b1_pool
I0817 16:08:12.805562 17615 net.cpp:150] Setting up L3_b1_pool
I0817 16:08:12.805570 17615 net.cpp:157] Top shape: 125 32 8 8 (256000)
I0817 16:08:12.805575 17615 net.cpp:165] Memory required for data: 1265153500
I0817 16:08:12.805580 17615 layer_factory.hpp:77] Creating layer L3_b1_sum_eltwise
I0817 16:08:12.805589 17615 net.cpp:100] Creating Layer L3_b1_sum_eltwise
I0817 16:08:12.805595 17615 net.cpp:434] L3_b1_sum_eltwise <- L3_b1_cbr2_bn_top
I0817 16:08:12.805603 17615 net.cpp:434] L3_b1_sum_eltwise <- L3_b1_pool
I0817 16:08:12.805609 17615 net.cpp:408] L3_b1_sum_eltwise -> L3_b1_sum_eltwise_top
I0817 16:08:12.805652 17615 net.cpp:150] Setting up L3_b1_sum_eltwise
I0817 16:08:12.805662 17615 net.cpp:157] Top shape: 125 32 8 8 (256000)
I0817 16:08:12.805667 17615 net.cpp:165] Memory required for data: 1266177500
I0817 16:08:12.805673 17615 layer_factory.hpp:77] Creating layer L3_b1_relu
I0817 16:08:12.805680 17615 net.cpp:100] Creating Layer L3_b1_relu
I0817 16:08:12.805686 17615 net.cpp:434] L3_b1_relu <- L3_b1_sum_eltwise_top
I0817 16:08:12.805694 17615 net.cpp:395] L3_b1_relu -> L3_b1_sum_eltwise_top (in-place)
I0817 16:08:12.805702 17615 net.cpp:150] Setting up L3_b1_relu
I0817 16:08:12.805709 17615 net.cpp:157] Top shape: 125 32 8 8 (256000)
I0817 16:08:12.805714 17615 net.cpp:165] Memory required for data: 1267201500
I0817 16:08:12.805719 17615 layer_factory.hpp:77] Creating layer L3_b1_zeros
I0817 16:08:12.805728 17615 net.cpp:100] Creating Layer L3_b1_zeros
I0817 16:08:12.805738 17615 net.cpp:408] L3_b1_zeros -> L3_b1_zeros
I0817 16:08:12.806959 17615 net.cpp:150] Setting up L3_b1_zeros
I0817 16:08:12.806977 17615 net.cpp:157] Top shape: 125 32 8 8 (256000)
I0817 16:08:12.806982 17615 net.cpp:165] Memory required for data: 1268225500
I0817 16:08:12.806988 17615 layer_factory.hpp:77] Creating layer L3_b1_concat0
I0817 16:08:12.806998 17615 net.cpp:100] Creating Layer L3_b1_concat0
I0817 16:08:12.807008 17615 net.cpp:434] L3_b1_concat0 <- L3_b1_sum_eltwise_top
I0817 16:08:12.807015 17615 net.cpp:434] L3_b1_concat0 <- L3_b1_zeros
I0817 16:08:12.807024 17615 net.cpp:408] L3_b1_concat0 -> L3_b1_concat0
I0817 16:08:12.807062 17615 net.cpp:150] Setting up L3_b1_concat0
I0817 16:08:12.807080 17615 net.cpp:157] Top shape: 125 64 8 8 (512000)
I0817 16:08:12.807085 17615 net.cpp:165] Memory required for data: 1270273500
I0817 16:08:12.807090 17615 layer_factory.hpp:77] Creating layer L3_b1_concat0_L3_b1_concat0_0_split
I0817 16:08:12.807097 17615 net.cpp:100] Creating Layer L3_b1_concat0_L3_b1_concat0_0_split
I0817 16:08:12.807103 17615 net.cpp:434] L3_b1_concat0_L3_b1_concat0_0_split <- L3_b1_concat0
I0817 16:08:12.807114 17615 net.cpp:408] L3_b1_concat0_L3_b1_concat0_0_split -> L3_b1_concat0_L3_b1_concat0_0_split_0
I0817 16:08:12.807124 17615 net.cpp:408] L3_b1_concat0_L3_b1_concat0_0_split -> L3_b1_concat0_L3_b1_concat0_0_split_1
I0817 16:08:12.807171 17615 net.cpp:150] Setting up L3_b1_concat0_L3_b1_concat0_0_split
I0817 16:08:12.807185 17615 net.cpp:157] Top shape: 125 64 8 8 (512000)
I0817 16:08:12.807193 17615 net.cpp:157] Top shape: 125 64 8 8 (512000)
I0817 16:08:12.807204 17615 net.cpp:165] Memory required for data: 1274369500
I0817 16:08:12.807209 17615 layer_factory.hpp:77] Creating layer L3_b2_cbr1_conv
I0817 16:08:12.807221 17615 net.cpp:100] Creating Layer L3_b2_cbr1_conv
I0817 16:08:12.807227 17615 net.cpp:434] L3_b2_cbr1_conv <- L3_b1_concat0_L3_b1_concat0_0_split_0
I0817 16:08:12.807240 17615 net.cpp:408] L3_b2_cbr1_conv -> L3_b2_cbr1_conv_top
I0817 16:08:12.809219 17615 net.cpp:150] Setting up L3_b2_cbr1_conv
I0817 16:08:12.809237 17615 net.cpp:157] Top shape: 125 64 8 8 (512000)
I0817 16:08:12.809243 17615 net.cpp:165] Memory required for data: 1276417500
I0817 16:08:12.809252 17615 layer_factory.hpp:77] Creating layer L3_b2_cbr1_bn
I0817 16:08:12.809265 17615 net.cpp:100] Creating Layer L3_b2_cbr1_bn
I0817 16:08:12.809273 17615 net.cpp:434] L3_b2_cbr1_bn <- L3_b2_cbr1_conv_top
I0817 16:08:12.809281 17615 net.cpp:408] L3_b2_cbr1_bn -> L3_b2_cbr1_bn_top
I0817 16:08:12.809545 17615 net.cpp:150] Setting up L3_b2_cbr1_bn
I0817 16:08:12.809557 17615 net.cpp:157] Top shape: 125 64 8 8 (512000)
I0817 16:08:12.809563 17615 net.cpp:165] Memory required for data: 1278465500
I0817 16:08:12.809574 17615 layer_factory.hpp:77] Creating layer L3_b2_cbr1_scale
I0817 16:08:12.809586 17615 net.cpp:100] Creating Layer L3_b2_cbr1_scale
I0817 16:08:12.809592 17615 net.cpp:434] L3_b2_cbr1_scale <- L3_b2_cbr1_bn_top
I0817 16:08:12.809600 17615 net.cpp:395] L3_b2_cbr1_scale -> L3_b2_cbr1_bn_top (in-place)
I0817 16:08:12.809666 17615 layer_factory.hpp:77] Creating layer L3_b2_cbr1_scale
I0817 16:08:12.809823 17615 net.cpp:150] Setting up L3_b2_cbr1_scale
I0817 16:08:12.809837 17615 net.cpp:157] Top shape: 125 64 8 8 (512000)
I0817 16:08:12.809842 17615 net.cpp:165] Memory required for data: 1280513500
I0817 16:08:12.809851 17615 layer_factory.hpp:77] Creating layer L3_b2_cbr1_relu
I0817 16:08:12.809865 17615 net.cpp:100] Creating Layer L3_b2_cbr1_relu
I0817 16:08:12.809872 17615 net.cpp:434] L3_b2_cbr1_relu <- L3_b2_cbr1_bn_top
I0817 16:08:12.809882 17615 net.cpp:395] L3_b2_cbr1_relu -> L3_b2_cbr1_bn_top (in-place)
I0817 16:08:12.809892 17615 net.cpp:150] Setting up L3_b2_cbr1_relu
I0817 16:08:12.809900 17615 net.cpp:157] Top shape: 125 64 8 8 (512000)
I0817 16:08:12.809904 17615 net.cpp:165] Memory required for data: 1282561500
I0817 16:08:12.809909 17615 layer_factory.hpp:77] Creating layer L3_b2_cbr2_conv
I0817 16:08:12.809921 17615 net.cpp:100] Creating Layer L3_b2_cbr2_conv
I0817 16:08:12.809926 17615 net.cpp:434] L3_b2_cbr2_conv <- L3_b2_cbr1_bn_top
I0817 16:08:12.809937 17615 net.cpp:408] L3_b2_cbr2_conv -> L3_b2_cbr2_conv_top
I0817 16:08:12.810961 17615 net.cpp:150] Setting up L3_b2_cbr2_conv
I0817 16:08:12.810976 17615 net.cpp:157] Top shape: 125 64 8 8 (512000)
I0817 16:08:12.810981 17615 net.cpp:165] Memory required for data: 1284609500
I0817 16:08:12.810989 17615 layer_factory.hpp:77] Creating layer L3_b2_cbr2_bn
I0817 16:08:12.811002 17615 net.cpp:100] Creating Layer L3_b2_cbr2_bn
I0817 16:08:12.811008 17615 net.cpp:434] L3_b2_cbr2_bn <- L3_b2_cbr2_conv_top
I0817 16:08:12.811017 17615 net.cpp:408] L3_b2_cbr2_bn -> L3_b2_cbr2_bn_top
I0817 16:08:12.811282 17615 net.cpp:150] Setting up L3_b2_cbr2_bn
I0817 16:08:12.811295 17615 net.cpp:157] Top shape: 125 64 8 8 (512000)
I0817 16:08:12.811300 17615 net.cpp:165] Memory required for data: 1286657500
I0817 16:08:12.811311 17615 layer_factory.hpp:77] Creating layer L3_b2_cbr2_scale
I0817 16:08:12.811319 17615 net.cpp:100] Creating Layer L3_b2_cbr2_scale
I0817 16:08:12.811326 17615 net.cpp:434] L3_b2_cbr2_scale <- L3_b2_cbr2_bn_top
I0817 16:08:12.811333 17615 net.cpp:395] L3_b2_cbr2_scale -> L3_b2_cbr2_bn_top (in-place)
I0817 16:08:12.811393 17615 layer_factory.hpp:77] Creating layer L3_b2_cbr2_scale
I0817 16:08:12.811545 17615 net.cpp:150] Setting up L3_b2_cbr2_scale
I0817 16:08:12.811561 17615 net.cpp:157] Top shape: 125 64 8 8 (512000)
I0817 16:08:12.811566 17615 net.cpp:165] Memory required for data: 1288705500
I0817 16:08:12.811576 17615 layer_factory.hpp:77] Creating layer L3_b2_sum_eltwise
I0817 16:08:12.811585 17615 net.cpp:100] Creating Layer L3_b2_sum_eltwise
I0817 16:08:12.811599 17615 net.cpp:434] L3_b2_sum_eltwise <- L3_b2_cbr2_bn_top
I0817 16:08:12.811606 17615 net.cpp:434] L3_b2_sum_eltwise <- L3_b1_concat0_L3_b1_concat0_0_split_1
I0817 16:08:12.811620 17615 net.cpp:408] L3_b2_sum_eltwise -> L3_b2_sum_eltwise_top
I0817 16:08:12.811659 17615 net.cpp:150] Setting up L3_b2_sum_eltwise
I0817 16:08:12.811669 17615 net.cpp:157] Top shape: 125 64 8 8 (512000)
I0817 16:08:12.811674 17615 net.cpp:165] Memory required for data: 1290753500
I0817 16:08:12.811679 17615 layer_factory.hpp:77] Creating layer L3_b2_relu
I0817 16:08:12.811686 17615 net.cpp:100] Creating Layer L3_b2_relu
I0817 16:08:12.811692 17615 net.cpp:434] L3_b2_relu <- L3_b2_sum_eltwise_top
I0817 16:08:12.811700 17615 net.cpp:395] L3_b2_relu -> L3_b2_sum_eltwise_top (in-place)
I0817 16:08:12.811709 17615 net.cpp:150] Setting up L3_b2_relu
I0817 16:08:12.811717 17615 net.cpp:157] Top shape: 125 64 8 8 (512000)
I0817 16:08:12.811722 17615 net.cpp:165] Memory required for data: 1292801500
I0817 16:08:12.811727 17615 layer_factory.hpp:77] Creating layer L3_b2_sum_eltwise_top_L3_b2_relu_0_split
I0817 16:08:12.811736 17615 net.cpp:100] Creating Layer L3_b2_sum_eltwise_top_L3_b2_relu_0_split
I0817 16:08:12.811741 17615 net.cpp:434] L3_b2_sum_eltwise_top_L3_b2_relu_0_split <- L3_b2_sum_eltwise_top
I0817 16:08:12.811749 17615 net.cpp:408] L3_b2_sum_eltwise_top_L3_b2_relu_0_split -> L3_b2_sum_eltwise_top_L3_b2_relu_0_split_0
I0817 16:08:12.811758 17615 net.cpp:408] L3_b2_sum_eltwise_top_L3_b2_relu_0_split -> L3_b2_sum_eltwise_top_L3_b2_relu_0_split_1
I0817 16:08:12.811803 17615 net.cpp:150] Setting up L3_b2_sum_eltwise_top_L3_b2_relu_0_split
I0817 16:08:12.811820 17615 net.cpp:157] Top shape: 125 64 8 8 (512000)
I0817 16:08:12.811826 17615 net.cpp:157] Top shape: 125 64 8 8 (512000)
I0817 16:08:12.811831 17615 net.cpp:165] Memory required for data: 1296897500
I0817 16:08:12.811836 17615 layer_factory.hpp:77] Creating layer L3_b3_cbr1_conv
I0817 16:08:12.811848 17615 net.cpp:100] Creating Layer L3_b3_cbr1_conv
I0817 16:08:12.811856 17615 net.cpp:434] L3_b3_cbr1_conv <- L3_b2_sum_eltwise_top_L3_b2_relu_0_split_0
I0817 16:08:12.811864 17615 net.cpp:408] L3_b3_cbr1_conv -> L3_b3_cbr1_conv_top
I0817 16:08:12.812891 17615 net.cpp:150] Setting up L3_b3_cbr1_conv
I0817 16:08:12.812904 17615 net.cpp:157] Top shape: 125 64 8 8 (512000)
I0817 16:08:12.812911 17615 net.cpp:165] Memory required for data: 1298945500
I0817 16:08:12.812919 17615 layer_factory.hpp:77] Creating layer L3_b3_cbr1_bn
I0817 16:08:12.812932 17615 net.cpp:100] Creating Layer L3_b3_cbr1_bn
I0817 16:08:12.812937 17615 net.cpp:434] L3_b3_cbr1_bn <- L3_b3_cbr1_conv_top
I0817 16:08:12.812947 17615 net.cpp:408] L3_b3_cbr1_bn -> L3_b3_cbr1_bn_top
I0817 16:08:12.813207 17615 net.cpp:150] Setting up L3_b3_cbr1_bn
I0817 16:08:12.813221 17615 net.cpp:157] Top shape: 125 64 8 8 (512000)
I0817 16:08:12.813226 17615 net.cpp:165] Memory required for data: 1300993500
I0817 16:08:12.813236 17615 layer_factory.hpp:77] Creating layer L3_b3_cbr1_scale
I0817 16:08:12.813248 17615 net.cpp:100] Creating Layer L3_b3_cbr1_scale
I0817 16:08:12.813254 17615 net.cpp:434] L3_b3_cbr1_scale <- L3_b3_cbr1_bn_top
I0817 16:08:12.813266 17615 net.cpp:395] L3_b3_cbr1_scale -> L3_b3_cbr1_bn_top (in-place)
I0817 16:08:12.813323 17615 layer_factory.hpp:77] Creating layer L3_b3_cbr1_scale
I0817 16:08:12.813479 17615 net.cpp:150] Setting up L3_b3_cbr1_scale
I0817 16:08:12.813493 17615 net.cpp:157] Top shape: 125 64 8 8 (512000)
I0817 16:08:12.813498 17615 net.cpp:165] Memory required for data: 1303041500
I0817 16:08:12.813508 17615 layer_factory.hpp:77] Creating layer L3_b3_cbr1_relu
I0817 16:08:12.813515 17615 net.cpp:100] Creating Layer L3_b3_cbr1_relu
I0817 16:08:12.813521 17615 net.cpp:434] L3_b3_cbr1_relu <- L3_b3_cbr1_bn_top
I0817 16:08:12.813531 17615 net.cpp:395] L3_b3_cbr1_relu -> L3_b3_cbr1_bn_top (in-place)
I0817 16:08:12.813541 17615 net.cpp:150] Setting up L3_b3_cbr1_relu
I0817 16:08:12.813549 17615 net.cpp:157] Top shape: 125 64 8 8 (512000)
I0817 16:08:12.813560 17615 net.cpp:165] Memory required for data: 1305089500
I0817 16:08:12.813565 17615 layer_factory.hpp:77] Creating layer L3_b3_cbr2_conv
I0817 16:08:12.813577 17615 net.cpp:100] Creating Layer L3_b3_cbr2_conv
I0817 16:08:12.813582 17615 net.cpp:434] L3_b3_cbr2_conv <- L3_b3_cbr1_bn_top
I0817 16:08:12.813594 17615 net.cpp:408] L3_b3_cbr2_conv -> L3_b3_cbr2_conv_top
I0817 16:08:12.814610 17615 net.cpp:150] Setting up L3_b3_cbr2_conv
I0817 16:08:12.814630 17615 net.cpp:157] Top shape: 125 64 8 8 (512000)
I0817 16:08:12.814635 17615 net.cpp:165] Memory required for data: 1307137500
I0817 16:08:12.814644 17615 layer_factory.hpp:77] Creating layer L3_b3_cbr2_bn
I0817 16:08:12.814656 17615 net.cpp:100] Creating Layer L3_b3_cbr2_bn
I0817 16:08:12.814663 17615 net.cpp:434] L3_b3_cbr2_bn <- L3_b3_cbr2_conv_top
I0817 16:08:12.814672 17615 net.cpp:408] L3_b3_cbr2_bn -> L3_b3_cbr2_bn_top
I0817 16:08:12.814936 17615 net.cpp:150] Setting up L3_b3_cbr2_bn
I0817 16:08:12.814950 17615 net.cpp:157] Top shape: 125 64 8 8 (512000)
I0817 16:08:12.814955 17615 net.cpp:165] Memory required for data: 1309185500
I0817 16:08:12.814965 17615 layer_factory.hpp:77] Creating layer L3_b3_cbr2_scale
I0817 16:08:12.814975 17615 net.cpp:100] Creating Layer L3_b3_cbr2_scale
I0817 16:08:12.814980 17615 net.cpp:434] L3_b3_cbr2_scale <- L3_b3_cbr2_bn_top
I0817 16:08:12.814988 17615 net.cpp:395] L3_b3_cbr2_scale -> L3_b3_cbr2_bn_top (in-place)
I0817 16:08:12.815050 17615 layer_factory.hpp:77] Creating layer L3_b3_cbr2_scale
I0817 16:08:12.815209 17615 net.cpp:150] Setting up L3_b3_cbr2_scale
I0817 16:08:12.815223 17615 net.cpp:157] Top shape: 125 64 8 8 (512000)
I0817 16:08:12.815228 17615 net.cpp:165] Memory required for data: 1311233500
I0817 16:08:12.815238 17615 layer_factory.hpp:77] Creating layer L3_b3_sum_eltwise
I0817 16:08:12.815246 17615 net.cpp:100] Creating Layer L3_b3_sum_eltwise
I0817 16:08:12.815253 17615 net.cpp:434] L3_b3_sum_eltwise <- L3_b3_cbr2_bn_top
I0817 16:08:12.815260 17615 net.cpp:434] L3_b3_sum_eltwise <- L3_b2_sum_eltwise_top_L3_b2_relu_0_split_1
I0817 16:08:12.815273 17615 net.cpp:408] L3_b3_sum_eltwise -> L3_b3_sum_eltwise_top
I0817 16:08:12.815305 17615 net.cpp:150] Setting up L3_b3_sum_eltwise
I0817 16:08:12.815315 17615 net.cpp:157] Top shape: 125 64 8 8 (512000)
I0817 16:08:12.815320 17615 net.cpp:165] Memory required for data: 1313281500
I0817 16:08:12.815325 17615 layer_factory.hpp:77] Creating layer L3_b3_relu
I0817 16:08:12.815336 17615 net.cpp:100] Creating Layer L3_b3_relu
I0817 16:08:12.815342 17615 net.cpp:434] L3_b3_relu <- L3_b3_sum_eltwise_top
I0817 16:08:12.815349 17615 net.cpp:395] L3_b3_relu -> L3_b3_sum_eltwise_top (in-place)
I0817 16:08:12.815358 17615 net.cpp:150] Setting up L3_b3_relu
I0817 16:08:12.815366 17615 net.cpp:157] Top shape: 125 64 8 8 (512000)
I0817 16:08:12.815369 17615 net.cpp:165] Memory required for data: 1315329500
I0817 16:08:12.815374 17615 layer_factory.hpp:77] Creating layer L3_b3_sum_eltwise_top_L3_b3_relu_0_split
I0817 16:08:12.815384 17615 net.cpp:100] Creating Layer L3_b3_sum_eltwise_top_L3_b3_relu_0_split
I0817 16:08:12.815390 17615 net.cpp:434] L3_b3_sum_eltwise_top_L3_b3_relu_0_split <- L3_b3_sum_eltwise_top
I0817 16:08:12.815397 17615 net.cpp:408] L3_b3_sum_eltwise_top_L3_b3_relu_0_split -> L3_b3_sum_eltwise_top_L3_b3_relu_0_split_0
I0817 16:08:12.815407 17615 net.cpp:408] L3_b3_sum_eltwise_top_L3_b3_relu_0_split -> L3_b3_sum_eltwise_top_L3_b3_relu_0_split_1
I0817 16:08:12.815451 17615 net.cpp:150] Setting up L3_b3_sum_eltwise_top_L3_b3_relu_0_split
I0817 16:08:12.815466 17615 net.cpp:157] Top shape: 125 64 8 8 (512000)
I0817 16:08:12.815474 17615 net.cpp:157] Top shape: 125 64 8 8 (512000)
I0817 16:08:12.815479 17615 net.cpp:165] Memory required for data: 1319425500
I0817 16:08:12.815484 17615 layer_factory.hpp:77] Creating layer L3_b4_cbr1_conv
I0817 16:08:12.815495 17615 net.cpp:100] Creating Layer L3_b4_cbr1_conv
I0817 16:08:12.815501 17615 net.cpp:434] L3_b4_cbr1_conv <- L3_b3_sum_eltwise_top_L3_b3_relu_0_split_0
I0817 16:08:12.815510 17615 net.cpp:408] L3_b4_cbr1_conv -> L3_b4_cbr1_conv_top
I0817 16:08:12.816542 17615 net.cpp:150] Setting up L3_b4_cbr1_conv
I0817 16:08:12.816557 17615 net.cpp:157] Top shape: 125 64 8 8 (512000)
I0817 16:08:12.816563 17615 net.cpp:165] Memory required for data: 1321473500
I0817 16:08:12.816571 17615 layer_factory.hpp:77] Creating layer L3_b4_cbr1_bn
I0817 16:08:12.816583 17615 net.cpp:100] Creating Layer L3_b4_cbr1_bn
I0817 16:08:12.816591 17615 net.cpp:434] L3_b4_cbr1_bn <- L3_b4_cbr1_conv_top
I0817 16:08:12.816598 17615 net.cpp:408] L3_b4_cbr1_bn -> L3_b4_cbr1_bn_top
I0817 16:08:12.816874 17615 net.cpp:150] Setting up L3_b4_cbr1_bn
I0817 16:08:12.816889 17615 net.cpp:157] Top shape: 125 64 8 8 (512000)
I0817 16:08:12.816893 17615 net.cpp:165] Memory required for data: 1323521500
I0817 16:08:12.816903 17615 layer_factory.hpp:77] Creating layer L3_b4_cbr1_scale
I0817 16:08:12.816915 17615 net.cpp:100] Creating Layer L3_b4_cbr1_scale
I0817 16:08:12.816922 17615 net.cpp:434] L3_b4_cbr1_scale <- L3_b4_cbr1_bn_top
I0817 16:08:12.816932 17615 net.cpp:395] L3_b4_cbr1_scale -> L3_b4_cbr1_bn_top (in-place)
I0817 16:08:12.816989 17615 layer_factory.hpp:77] Creating layer L3_b4_cbr1_scale
I0817 16:08:12.817152 17615 net.cpp:150] Setting up L3_b4_cbr1_scale
I0817 16:08:12.817164 17615 net.cpp:157] Top shape: 125 64 8 8 (512000)
I0817 16:08:12.817169 17615 net.cpp:165] Memory required for data: 1325569500
I0817 16:08:12.817179 17615 layer_factory.hpp:77] Creating layer L3_b4_cbr1_relu
I0817 16:08:12.817188 17615 net.cpp:100] Creating Layer L3_b4_cbr1_relu
I0817 16:08:12.817193 17615 net.cpp:434] L3_b4_cbr1_relu <- L3_b4_cbr1_bn_top
I0817 16:08:12.817203 17615 net.cpp:395] L3_b4_cbr1_relu -> L3_b4_cbr1_bn_top (in-place)
I0817 16:08:12.817214 17615 net.cpp:150] Setting up L3_b4_cbr1_relu
I0817 16:08:12.817220 17615 net.cpp:157] Top shape: 125 64 8 8 (512000)
I0817 16:08:12.817224 17615 net.cpp:165] Memory required for data: 1327617500
I0817 16:08:12.817229 17615 layer_factory.hpp:77] Creating layer L3_b4_cbr2_conv
I0817 16:08:12.817243 17615 net.cpp:100] Creating Layer L3_b4_cbr2_conv
I0817 16:08:12.817250 17615 net.cpp:434] L3_b4_cbr2_conv <- L3_b4_cbr1_bn_top
I0817 16:08:12.817258 17615 net.cpp:408] L3_b4_cbr2_conv -> L3_b4_cbr2_conv_top
I0817 16:08:12.818289 17615 net.cpp:150] Setting up L3_b4_cbr2_conv
I0817 16:08:12.818303 17615 net.cpp:157] Top shape: 125 64 8 8 (512000)
I0817 16:08:12.818308 17615 net.cpp:165] Memory required for data: 1329665500
I0817 16:08:12.818317 17615 layer_factory.hpp:77] Creating layer L3_b4_cbr2_bn
I0817 16:08:12.818331 17615 net.cpp:100] Creating Layer L3_b4_cbr2_bn
I0817 16:08:12.818338 17615 net.cpp:434] L3_b4_cbr2_bn <- L3_b4_cbr2_conv_top
I0817 16:08:12.818346 17615 net.cpp:408] L3_b4_cbr2_bn -> L3_b4_cbr2_bn_top
I0817 16:08:12.818624 17615 net.cpp:150] Setting up L3_b4_cbr2_bn
I0817 16:08:12.818639 17615 net.cpp:157] Top shape: 125 64 8 8 (512000)
I0817 16:08:12.818644 17615 net.cpp:165] Memory required for data: 1331713500
I0817 16:08:12.818653 17615 layer_factory.hpp:77] Creating layer L3_b4_cbr2_scale
I0817 16:08:12.818661 17615 net.cpp:100] Creating Layer L3_b4_cbr2_scale
I0817 16:08:12.818668 17615 net.cpp:434] L3_b4_cbr2_scale <- L3_b4_cbr2_bn_top
I0817 16:08:12.818675 17615 net.cpp:395] L3_b4_cbr2_scale -> L3_b4_cbr2_bn_top (in-place)
I0817 16:08:12.818737 17615 layer_factory.hpp:77] Creating layer L3_b4_cbr2_scale
I0817 16:08:12.818902 17615 net.cpp:150] Setting up L3_b4_cbr2_scale
I0817 16:08:12.818915 17615 net.cpp:157] Top shape: 125 64 8 8 (512000)
I0817 16:08:12.818922 17615 net.cpp:165] Memory required for data: 1333761500
I0817 16:08:12.818930 17615 layer_factory.hpp:77] Creating layer L3_b4_sum_eltwise
I0817 16:08:12.818939 17615 net.cpp:100] Creating Layer L3_b4_sum_eltwise
I0817 16:08:12.818945 17615 net.cpp:434] L3_b4_sum_eltwise <- L3_b4_cbr2_bn_top
I0817 16:08:12.818953 17615 net.cpp:434] L3_b4_sum_eltwise <- L3_b3_sum_eltwise_top_L3_b3_relu_0_split_1
I0817 16:08:12.818963 17615 net.cpp:408] L3_b4_sum_eltwise -> L3_b4_sum_eltwise_top
I0817 16:08:12.818996 17615 net.cpp:150] Setting up L3_b4_sum_eltwise
I0817 16:08:12.819016 17615 net.cpp:157] Top shape: 125 64 8 8 (512000)
I0817 16:08:12.819021 17615 net.cpp:165] Memory required for data: 1335809500
I0817 16:08:12.819026 17615 layer_factory.hpp:77] Creating layer L3_b4_relu
I0817 16:08:12.819034 17615 net.cpp:100] Creating Layer L3_b4_relu
I0817 16:08:12.819041 17615 net.cpp:434] L3_b4_relu <- L3_b4_sum_eltwise_top
I0817 16:08:12.819047 17615 net.cpp:395] L3_b4_relu -> L3_b4_sum_eltwise_top (in-place)
I0817 16:08:12.819056 17615 net.cpp:150] Setting up L3_b4_relu
I0817 16:08:12.819063 17615 net.cpp:157] Top shape: 125 64 8 8 (512000)
I0817 16:08:12.819068 17615 net.cpp:165] Memory required for data: 1337857500
I0817 16:08:12.819073 17615 layer_factory.hpp:77] Creating layer L3_b4_sum_eltwise_top_L3_b4_relu_0_split
I0817 16:08:12.819083 17615 net.cpp:100] Creating Layer L3_b4_sum_eltwise_top_L3_b4_relu_0_split
I0817 16:08:12.819089 17615 net.cpp:434] L3_b4_sum_eltwise_top_L3_b4_relu_0_split <- L3_b4_sum_eltwise_top
I0817 16:08:12.819097 17615 net.cpp:408] L3_b4_sum_eltwise_top_L3_b4_relu_0_split -> L3_b4_sum_eltwise_top_L3_b4_relu_0_split_0
I0817 16:08:12.819106 17615 net.cpp:408] L3_b4_sum_eltwise_top_L3_b4_relu_0_split -> L3_b4_sum_eltwise_top_L3_b4_relu_0_split_1
I0817 16:08:12.819155 17615 net.cpp:150] Setting up L3_b4_sum_eltwise_top_L3_b4_relu_0_split
I0817 16:08:12.819167 17615 net.cpp:157] Top shape: 125 64 8 8 (512000)
I0817 16:08:12.819175 17615 net.cpp:157] Top shape: 125 64 8 8 (512000)
I0817 16:08:12.819180 17615 net.cpp:165] Memory required for data: 1341953500
I0817 16:08:12.819185 17615 layer_factory.hpp:77] Creating layer L3_b5_cbr1_conv
I0817 16:08:12.819195 17615 net.cpp:100] Creating Layer L3_b5_cbr1_conv
I0817 16:08:12.819202 17615 net.cpp:434] L3_b5_cbr1_conv <- L3_b4_sum_eltwise_top_L3_b4_relu_0_split_0
I0817 16:08:12.819216 17615 net.cpp:408] L3_b5_cbr1_conv -> L3_b5_cbr1_conv_top
I0817 16:08:12.820250 17615 net.cpp:150] Setting up L3_b5_cbr1_conv
I0817 16:08:12.820266 17615 net.cpp:157] Top shape: 125 64 8 8 (512000)
I0817 16:08:12.820271 17615 net.cpp:165] Memory required for data: 1344001500
I0817 16:08:12.820279 17615 layer_factory.hpp:77] Creating layer L3_b5_cbr1_bn
I0817 16:08:12.820288 17615 net.cpp:100] Creating Layer L3_b5_cbr1_bn
I0817 16:08:12.820294 17615 net.cpp:434] L3_b5_cbr1_bn <- L3_b5_cbr1_conv_top
I0817 16:08:12.820307 17615 net.cpp:408] L3_b5_cbr1_bn -> L3_b5_cbr1_bn_top
I0817 16:08:12.821571 17615 net.cpp:150] Setting up L3_b5_cbr1_bn
I0817 16:08:12.821588 17615 net.cpp:157] Top shape: 125 64 8 8 (512000)
I0817 16:08:12.821593 17615 net.cpp:165] Memory required for data: 1346049500
I0817 16:08:12.821605 17615 layer_factory.hpp:77] Creating layer L3_b5_cbr1_scale
I0817 16:08:12.821620 17615 net.cpp:100] Creating Layer L3_b5_cbr1_scale
I0817 16:08:12.821627 17615 net.cpp:434] L3_b5_cbr1_scale <- L3_b5_cbr1_bn_top
I0817 16:08:12.821635 17615 net.cpp:395] L3_b5_cbr1_scale -> L3_b5_cbr1_bn_top (in-place)
I0817 16:08:12.821699 17615 layer_factory.hpp:77] Creating layer L3_b5_cbr1_scale
I0817 16:08:12.821861 17615 net.cpp:150] Setting up L3_b5_cbr1_scale
I0817 16:08:12.821873 17615 net.cpp:157] Top shape: 125 64 8 8 (512000)
I0817 16:08:12.821879 17615 net.cpp:165] Memory required for data: 1348097500
I0817 16:08:12.821888 17615 layer_factory.hpp:77] Creating layer L3_b5_cbr1_relu
I0817 16:08:12.821897 17615 net.cpp:100] Creating Layer L3_b5_cbr1_relu
I0817 16:08:12.821902 17615 net.cpp:434] L3_b5_cbr1_relu <- L3_b5_cbr1_bn_top
I0817 16:08:12.821913 17615 net.cpp:395] L3_b5_cbr1_relu -> L3_b5_cbr1_bn_top (in-place)
I0817 16:08:12.821923 17615 net.cpp:150] Setting up L3_b5_cbr1_relu
I0817 16:08:12.821930 17615 net.cpp:157] Top shape: 125 64 8 8 (512000)
I0817 16:08:12.821935 17615 net.cpp:165] Memory required for data: 1350145500
I0817 16:08:12.821940 17615 layer_factory.hpp:77] Creating layer L3_b5_cbr2_conv
I0817 16:08:12.821954 17615 net.cpp:100] Creating Layer L3_b5_cbr2_conv
I0817 16:08:12.821960 17615 net.cpp:434] L3_b5_cbr2_conv <- L3_b5_cbr1_bn_top
I0817 16:08:12.821969 17615 net.cpp:408] L3_b5_cbr2_conv -> L3_b5_cbr2_conv_top
I0817 16:08:12.823976 17615 net.cpp:150] Setting up L3_b5_cbr2_conv
I0817 16:08:12.823993 17615 net.cpp:157] Top shape: 125 64 8 8 (512000)
I0817 16:08:12.823999 17615 net.cpp:165] Memory required for data: 1352193500
I0817 16:08:12.824008 17615 layer_factory.hpp:77] Creating layer L3_b5_cbr2_bn
I0817 16:08:12.824021 17615 net.cpp:100] Creating Layer L3_b5_cbr2_bn
I0817 16:08:12.824028 17615 net.cpp:434] L3_b5_cbr2_bn <- L3_b5_cbr2_conv_top
I0817 16:08:12.824038 17615 net.cpp:408] L3_b5_cbr2_bn -> L3_b5_cbr2_bn_top
I0817 16:08:12.824300 17615 net.cpp:150] Setting up L3_b5_cbr2_bn
I0817 16:08:12.824313 17615 net.cpp:157] Top shape: 125 64 8 8 (512000)
I0817 16:08:12.824318 17615 net.cpp:165] Memory required for data: 1354241500
I0817 16:08:12.824328 17615 layer_factory.hpp:77] Creating layer L3_b5_cbr2_scale
I0817 16:08:12.824338 17615 net.cpp:100] Creating Layer L3_b5_cbr2_scale
I0817 16:08:12.824344 17615 net.cpp:434] L3_b5_cbr2_scale <- L3_b5_cbr2_bn_top
I0817 16:08:12.824352 17615 net.cpp:395] L3_b5_cbr2_scale -> L3_b5_cbr2_bn_top (in-place)
I0817 16:08:12.824411 17615 layer_factory.hpp:77] Creating layer L3_b5_cbr2_scale
I0817 16:08:12.824565 17615 net.cpp:150] Setting up L3_b5_cbr2_scale
I0817 16:08:12.824579 17615 net.cpp:157] Top shape: 125 64 8 8 (512000)
I0817 16:08:12.824584 17615 net.cpp:165] Memory required for data: 1356289500
I0817 16:08:12.824594 17615 layer_factory.hpp:77] Creating layer L3_b5_sum_eltwise
I0817 16:08:12.824602 17615 net.cpp:100] Creating Layer L3_b5_sum_eltwise
I0817 16:08:12.824609 17615 net.cpp:434] L3_b5_sum_eltwise <- L3_b5_cbr2_bn_top
I0817 16:08:12.824622 17615 net.cpp:434] L3_b5_sum_eltwise <- L3_b4_sum_eltwise_top_L3_b4_relu_0_split_1
I0817 16:08:12.824633 17615 net.cpp:408] L3_b5_sum_eltwise -> L3_b5_sum_eltwise_top
I0817 16:08:12.824667 17615 net.cpp:150] Setting up L3_b5_sum_eltwise
I0817 16:08:12.824682 17615 net.cpp:157] Top shape: 125 64 8 8 (512000)
I0817 16:08:12.824687 17615 net.cpp:165] Memory required for data: 1358337500
I0817 16:08:12.824692 17615 layer_factory.hpp:77] Creating layer L3_b5_relu
I0817 16:08:12.824700 17615 net.cpp:100] Creating Layer L3_b5_relu
I0817 16:08:12.824707 17615 net.cpp:434] L3_b5_relu <- L3_b5_sum_eltwise_top
I0817 16:08:12.824713 17615 net.cpp:395] L3_b5_relu -> L3_b5_sum_eltwise_top (in-place)
I0817 16:08:12.824723 17615 net.cpp:150] Setting up L3_b5_relu
I0817 16:08:12.824729 17615 net.cpp:157] Top shape: 125 64 8 8 (512000)
I0817 16:08:12.824734 17615 net.cpp:165] Memory required for data: 1360385500
I0817 16:08:12.824739 17615 layer_factory.hpp:77] Creating layer L3_b5_sum_eltwise_top_L3_b5_relu_0_split
I0817 16:08:12.824749 17615 net.cpp:100] Creating Layer L3_b5_sum_eltwise_top_L3_b5_relu_0_split
I0817 16:08:12.824755 17615 net.cpp:434] L3_b5_sum_eltwise_top_L3_b5_relu_0_split <- L3_b5_sum_eltwise_top
I0817 16:08:12.824762 17615 net.cpp:408] L3_b5_sum_eltwise_top_L3_b5_relu_0_split -> L3_b5_sum_eltwise_top_L3_b5_relu_0_split_0
I0817 16:08:12.824772 17615 net.cpp:408] L3_b5_sum_eltwise_top_L3_b5_relu_0_split -> L3_b5_sum_eltwise_top_L3_b5_relu_0_split_1
I0817 16:08:12.824816 17615 net.cpp:150] Setting up L3_b5_sum_eltwise_top_L3_b5_relu_0_split
I0817 16:08:12.824831 17615 net.cpp:157] Top shape: 125 64 8 8 (512000)
I0817 16:08:12.824838 17615 net.cpp:157] Top shape: 125 64 8 8 (512000)
I0817 16:08:12.824843 17615 net.cpp:165] Memory required for data: 1364481500
I0817 16:08:12.824848 17615 layer_factory.hpp:77] Creating layer L3_b6_cbr1_conv
I0817 16:08:12.824861 17615 net.cpp:100] Creating Layer L3_b6_cbr1_conv
I0817 16:08:12.824867 17615 net.cpp:434] L3_b6_cbr1_conv <- L3_b5_sum_eltwise_top_L3_b5_relu_0_split_0
I0817 16:08:12.824875 17615 net.cpp:408] L3_b6_cbr1_conv -> L3_b6_cbr1_conv_top
I0817 16:08:12.825896 17615 net.cpp:150] Setting up L3_b6_cbr1_conv
I0817 16:08:12.825917 17615 net.cpp:157] Top shape: 125 64 8 8 (512000)
I0817 16:08:12.825922 17615 net.cpp:165] Memory required for data: 1366529500
I0817 16:08:12.825932 17615 layer_factory.hpp:77] Creating layer L3_b6_cbr1_bn
I0817 16:08:12.825942 17615 net.cpp:100] Creating Layer L3_b6_cbr1_bn
I0817 16:08:12.825954 17615 net.cpp:434] L3_b6_cbr1_bn <- L3_b6_cbr1_conv_top
I0817 16:08:12.825968 17615 net.cpp:408] L3_b6_cbr1_bn -> L3_b6_cbr1_bn_top
I0817 16:08:12.826225 17615 net.cpp:150] Setting up L3_b6_cbr1_bn
I0817 16:08:12.826238 17615 net.cpp:157] Top shape: 125 64 8 8 (512000)
I0817 16:08:12.826244 17615 net.cpp:165] Memory required for data: 1368577500
I0817 16:08:12.826254 17615 layer_factory.hpp:77] Creating layer L3_b6_cbr1_scale
I0817 16:08:12.826267 17615 net.cpp:100] Creating Layer L3_b6_cbr1_scale
I0817 16:08:12.826273 17615 net.cpp:434] L3_b6_cbr1_scale <- L3_b6_cbr1_bn_top
I0817 16:08:12.826282 17615 net.cpp:395] L3_b6_cbr1_scale -> L3_b6_cbr1_bn_top (in-place)
I0817 16:08:12.826336 17615 layer_factory.hpp:77] Creating layer L3_b6_cbr1_scale
I0817 16:08:12.826489 17615 net.cpp:150] Setting up L3_b6_cbr1_scale
I0817 16:08:12.826503 17615 net.cpp:157] Top shape: 125 64 8 8 (512000)
I0817 16:08:12.826508 17615 net.cpp:165] Memory required for data: 1370625500
I0817 16:08:12.826516 17615 layer_factory.hpp:77] Creating layer L3_b6_cbr1_relu
I0817 16:08:12.826525 17615 net.cpp:100] Creating Layer L3_b6_cbr1_relu
I0817 16:08:12.826531 17615 net.cpp:434] L3_b6_cbr1_relu <- L3_b6_cbr1_bn_top
I0817 16:08:12.826541 17615 net.cpp:395] L3_b6_cbr1_relu -> L3_b6_cbr1_bn_top (in-place)
I0817 16:08:12.826551 17615 net.cpp:150] Setting up L3_b6_cbr1_relu
I0817 16:08:12.826558 17615 net.cpp:157] Top shape: 125 64 8 8 (512000)
I0817 16:08:12.826563 17615 net.cpp:165] Memory required for data: 1372673500
I0817 16:08:12.826568 17615 layer_factory.hpp:77] Creating layer L3_b6_cbr2_conv
I0817 16:08:12.826581 17615 net.cpp:100] Creating Layer L3_b6_cbr2_conv
I0817 16:08:12.826588 17615 net.cpp:434] L3_b6_cbr2_conv <- L3_b6_cbr1_bn_top
I0817 16:08:12.826596 17615 net.cpp:408] L3_b6_cbr2_conv -> L3_b6_cbr2_conv_top
I0817 16:08:12.827601 17615 net.cpp:150] Setting up L3_b6_cbr2_conv
I0817 16:08:12.827620 17615 net.cpp:157] Top shape: 125 64 8 8 (512000)
I0817 16:08:12.827626 17615 net.cpp:165] Memory required for data: 1374721500
I0817 16:08:12.827636 17615 layer_factory.hpp:77] Creating layer L3_b6_cbr2_bn
I0817 16:08:12.827647 17615 net.cpp:100] Creating Layer L3_b6_cbr2_bn
I0817 16:08:12.827654 17615 net.cpp:434] L3_b6_cbr2_bn <- L3_b6_cbr2_conv_top
I0817 16:08:12.827663 17615 net.cpp:408] L3_b6_cbr2_bn -> L3_b6_cbr2_bn_top
I0817 16:08:12.827921 17615 net.cpp:150] Setting up L3_b6_cbr2_bn
I0817 16:08:12.827934 17615 net.cpp:157] Top shape: 125 64 8 8 (512000)
I0817 16:08:12.827939 17615 net.cpp:165] Memory required for data: 1376769500
I0817 16:08:12.827950 17615 layer_factory.hpp:77] Creating layer L3_b6_cbr2_scale
I0817 16:08:12.827958 17615 net.cpp:100] Creating Layer L3_b6_cbr2_scale
I0817 16:08:12.827965 17615 net.cpp:434] L3_b6_cbr2_scale <- L3_b6_cbr2_bn_top
I0817 16:08:12.827972 17615 net.cpp:395] L3_b6_cbr2_scale -> L3_b6_cbr2_bn_top (in-place)
I0817 16:08:12.828033 17615 layer_factory.hpp:77] Creating layer L3_b6_cbr2_scale
I0817 16:08:12.828191 17615 net.cpp:150] Setting up L3_b6_cbr2_scale
I0817 16:08:12.828203 17615 net.cpp:157] Top shape: 125 64 8 8 (512000)
I0817 16:08:12.828208 17615 net.cpp:165] Memory required for data: 1378817500
I0817 16:08:12.828217 17615 layer_factory.hpp:77] Creating layer L3_b6_sum_eltwise
I0817 16:08:12.828227 17615 net.cpp:100] Creating Layer L3_b6_sum_eltwise
I0817 16:08:12.828233 17615 net.cpp:434] L3_b6_sum_eltwise <- L3_b6_cbr2_bn_top
I0817 16:08:12.828240 17615 net.cpp:434] L3_b6_sum_eltwise <- L3_b5_sum_eltwise_top_L3_b5_relu_0_split_1
I0817 16:08:12.828250 17615 net.cpp:408] L3_b6_sum_eltwise -> L3_b6_sum_eltwise_top
I0817 16:08:12.828284 17615 net.cpp:150] Setting up L3_b6_sum_eltwise
I0817 16:08:12.828295 17615 net.cpp:157] Top shape: 125 64 8 8 (512000)
I0817 16:08:12.828301 17615 net.cpp:165] Memory required for data: 1380865500
I0817 16:08:12.828306 17615 layer_factory.hpp:77] Creating layer L3_b6_relu
I0817 16:08:12.828313 17615 net.cpp:100] Creating Layer L3_b6_relu
I0817 16:08:12.828320 17615 net.cpp:434] L3_b6_relu <- L3_b6_sum_eltwise_top
I0817 16:08:12.828333 17615 net.cpp:395] L3_b6_relu -> L3_b6_sum_eltwise_top (in-place)
I0817 16:08:12.828344 17615 net.cpp:150] Setting up L3_b6_relu
I0817 16:08:12.828351 17615 net.cpp:157] Top shape: 125 64 8 8 (512000)
I0817 16:08:12.828356 17615 net.cpp:165] Memory required for data: 1382913500
I0817 16:08:12.828361 17615 layer_factory.hpp:77] Creating layer L3_b6_sum_eltwise_top_L3_b6_relu_0_split
I0817 16:08:12.828371 17615 net.cpp:100] Creating Layer L3_b6_sum_eltwise_top_L3_b6_relu_0_split
I0817 16:08:12.828377 17615 net.cpp:434] L3_b6_sum_eltwise_top_L3_b6_relu_0_split <- L3_b6_sum_eltwise_top
I0817 16:08:12.828383 17615 net.cpp:408] L3_b6_sum_eltwise_top_L3_b6_relu_0_split -> L3_b6_sum_eltwise_top_L3_b6_relu_0_split_0
I0817 16:08:12.828393 17615 net.cpp:408] L3_b6_sum_eltwise_top_L3_b6_relu_0_split -> L3_b6_sum_eltwise_top_L3_b6_relu_0_split_1
I0817 16:08:12.828440 17615 net.cpp:150] Setting up L3_b6_sum_eltwise_top_L3_b6_relu_0_split
I0817 16:08:12.828452 17615 net.cpp:157] Top shape: 125 64 8 8 (512000)
I0817 16:08:12.828459 17615 net.cpp:157] Top shape: 125 64 8 8 (512000)
I0817 16:08:12.828464 17615 net.cpp:165] Memory required for data: 1387009500
I0817 16:08:12.828469 17615 layer_factory.hpp:77] Creating layer L3_b7_cbr1_conv
I0817 16:08:12.828480 17615 net.cpp:100] Creating Layer L3_b7_cbr1_conv
I0817 16:08:12.828487 17615 net.cpp:434] L3_b7_cbr1_conv <- L3_b6_sum_eltwise_top_L3_b6_relu_0_split_0
I0817 16:08:12.828500 17615 net.cpp:408] L3_b7_cbr1_conv -> L3_b7_cbr1_conv_top
I0817 16:08:12.829515 17615 net.cpp:150] Setting up L3_b7_cbr1_conv
I0817 16:08:12.829530 17615 net.cpp:157] Top shape: 125 64 8 8 (512000)
I0817 16:08:12.829535 17615 net.cpp:165] Memory required for data: 1389057500
I0817 16:08:12.829545 17615 layer_factory.hpp:77] Creating layer L3_b7_cbr1_bn
I0817 16:08:12.829555 17615 net.cpp:100] Creating Layer L3_b7_cbr1_bn
I0817 16:08:12.829560 17615 net.cpp:434] L3_b7_cbr1_bn <- L3_b7_cbr1_conv_top
I0817 16:08:12.829571 17615 net.cpp:408] L3_b7_cbr1_bn -> L3_b7_cbr1_bn_top
I0817 16:08:12.829838 17615 net.cpp:150] Setting up L3_b7_cbr1_bn
I0817 16:08:12.829855 17615 net.cpp:157] Top shape: 125 64 8 8 (512000)
I0817 16:08:12.829860 17615 net.cpp:165] Memory required for data: 1391105500
I0817 16:08:12.829871 17615 layer_factory.hpp:77] Creating layer L3_b7_cbr1_scale
I0817 16:08:12.829880 17615 net.cpp:100] Creating Layer L3_b7_cbr1_scale
I0817 16:08:12.829886 17615 net.cpp:434] L3_b7_cbr1_scale <- L3_b7_cbr1_bn_top
I0817 16:08:12.829895 17615 net.cpp:395] L3_b7_cbr1_scale -> L3_b7_cbr1_bn_top (in-place)
I0817 16:08:12.829952 17615 layer_factory.hpp:77] Creating layer L3_b7_cbr1_scale
I0817 16:08:12.830111 17615 net.cpp:150] Setting up L3_b7_cbr1_scale
I0817 16:08:12.830124 17615 net.cpp:157] Top shape: 125 64 8 8 (512000)
I0817 16:08:12.830129 17615 net.cpp:165] Memory required for data: 1393153500
I0817 16:08:12.830138 17615 layer_factory.hpp:77] Creating layer L3_b7_cbr1_relu
I0817 16:08:12.830171 17615 net.cpp:100] Creating Layer L3_b7_cbr1_relu
I0817 16:08:12.830180 17615 net.cpp:434] L3_b7_cbr1_relu <- L3_b7_cbr1_bn_top
I0817 16:08:12.830188 17615 net.cpp:395] L3_b7_cbr1_relu -> L3_b7_cbr1_bn_top (in-place)
I0817 16:08:12.830198 17615 net.cpp:150] Setting up L3_b7_cbr1_relu
I0817 16:08:12.830205 17615 net.cpp:157] Top shape: 125 64 8 8 (512000)
I0817 16:08:12.830209 17615 net.cpp:165] Memory required for data: 1395201500
I0817 16:08:12.830215 17615 layer_factory.hpp:77] Creating layer L3_b7_cbr2_conv
I0817 16:08:12.830226 17615 net.cpp:100] Creating Layer L3_b7_cbr2_conv
I0817 16:08:12.830232 17615 net.cpp:434] L3_b7_cbr2_conv <- L3_b7_cbr1_bn_top
I0817 16:08:12.830245 17615 net.cpp:408] L3_b7_cbr2_conv -> L3_b7_cbr2_conv_top
I0817 16:08:12.831267 17615 net.cpp:150] Setting up L3_b7_cbr2_conv
I0817 16:08:12.831282 17615 net.cpp:157] Top shape: 125 64 8 8 (512000)
I0817 16:08:12.831288 17615 net.cpp:165] Memory required for data: 1397249500
I0817 16:08:12.831296 17615 layer_factory.hpp:77] Creating layer L3_b7_cbr2_bn
I0817 16:08:12.831306 17615 net.cpp:100] Creating Layer L3_b7_cbr2_bn
I0817 16:08:12.831320 17615 net.cpp:434] L3_b7_cbr2_bn <- L3_b7_cbr2_conv_top
I0817 16:08:12.831328 17615 net.cpp:408] L3_b7_cbr2_bn -> L3_b7_cbr2_bn_top
I0817 16:08:12.831593 17615 net.cpp:150] Setting up L3_b7_cbr2_bn
I0817 16:08:12.831607 17615 net.cpp:157] Top shape: 125 64 8 8 (512000)
I0817 16:08:12.831617 17615 net.cpp:165] Memory required for data: 1399297500
I0817 16:08:12.831629 17615 layer_factory.hpp:77] Creating layer L3_b7_cbr2_scale
I0817 16:08:12.831640 17615 net.cpp:100] Creating Layer L3_b7_cbr2_scale
I0817 16:08:12.831647 17615 net.cpp:434] L3_b7_cbr2_scale <- L3_b7_cbr2_bn_top
I0817 16:08:12.831657 17615 net.cpp:395] L3_b7_cbr2_scale -> L3_b7_cbr2_bn_top (in-place)
I0817 16:08:12.831715 17615 layer_factory.hpp:77] Creating layer L3_b7_cbr2_scale
I0817 16:08:12.831871 17615 net.cpp:150] Setting up L3_b7_cbr2_scale
I0817 16:08:12.831884 17615 net.cpp:157] Top shape: 125 64 8 8 (512000)
I0817 16:08:12.831889 17615 net.cpp:165] Memory required for data: 1401345500
I0817 16:08:12.831898 17615 layer_factory.hpp:77] Creating layer L3_b7_sum_eltwise
I0817 16:08:12.831907 17615 net.cpp:100] Creating Layer L3_b7_sum_eltwise
I0817 16:08:12.831913 17615 net.cpp:434] L3_b7_sum_eltwise <- L3_b7_cbr2_bn_top
I0817 16:08:12.831920 17615 net.cpp:434] L3_b7_sum_eltwise <- L3_b6_sum_eltwise_top_L3_b6_relu_0_split_1
I0817 16:08:12.831933 17615 net.cpp:408] L3_b7_sum_eltwise -> L3_b7_sum_eltwise_top
I0817 16:08:12.831965 17615 net.cpp:150] Setting up L3_b7_sum_eltwise
I0817 16:08:12.831974 17615 net.cpp:157] Top shape: 125 64 8 8 (512000)
I0817 16:08:12.831979 17615 net.cpp:165] Memory required for data: 1403393500
I0817 16:08:12.831984 17615 layer_factory.hpp:77] Creating layer L3_b7_relu
I0817 16:08:12.831995 17615 net.cpp:100] Creating Layer L3_b7_relu
I0817 16:08:12.832000 17615 net.cpp:434] L3_b7_relu <- L3_b7_sum_eltwise_top
I0817 16:08:12.832007 17615 net.cpp:395] L3_b7_relu -> L3_b7_sum_eltwise_top (in-place)
I0817 16:08:12.832017 17615 net.cpp:150] Setting up L3_b7_relu
I0817 16:08:12.832023 17615 net.cpp:157] Top shape: 125 64 8 8 (512000)
I0817 16:08:12.832028 17615 net.cpp:165] Memory required for data: 1405441500
I0817 16:08:12.832033 17615 layer_factory.hpp:77] Creating layer L3_b7_sum_eltwise_top_L3_b7_relu_0_split
I0817 16:08:12.832041 17615 net.cpp:100] Creating Layer L3_b7_sum_eltwise_top_L3_b7_relu_0_split
I0817 16:08:12.832046 17615 net.cpp:434] L3_b7_sum_eltwise_top_L3_b7_relu_0_split <- L3_b7_sum_eltwise_top
I0817 16:08:12.832053 17615 net.cpp:408] L3_b7_sum_eltwise_top_L3_b7_relu_0_split -> L3_b7_sum_eltwise_top_L3_b7_relu_0_split_0
I0817 16:08:12.832062 17615 net.cpp:408] L3_b7_sum_eltwise_top_L3_b7_relu_0_split -> L3_b7_sum_eltwise_top_L3_b7_relu_0_split_1
I0817 16:08:12.832110 17615 net.cpp:150] Setting up L3_b7_sum_eltwise_top_L3_b7_relu_0_split
I0817 16:08:12.832123 17615 net.cpp:157] Top shape: 125 64 8 8 (512000)
I0817 16:08:12.832129 17615 net.cpp:157] Top shape: 125 64 8 8 (512000)
I0817 16:08:12.832134 17615 net.cpp:165] Memory required for data: 1409537500
I0817 16:08:12.832139 17615 layer_factory.hpp:77] Creating layer L3_b8_cbr1_conv
I0817 16:08:12.832152 17615 net.cpp:100] Creating Layer L3_b8_cbr1_conv
I0817 16:08:12.832159 17615 net.cpp:434] L3_b8_cbr1_conv <- L3_b7_sum_eltwise_top_L3_b7_relu_0_split_0
I0817 16:08:12.832168 17615 net.cpp:408] L3_b8_cbr1_conv -> L3_b8_cbr1_conv_top
I0817 16:08:12.833187 17615 net.cpp:150] Setting up L3_b8_cbr1_conv
I0817 16:08:12.833202 17615 net.cpp:157] Top shape: 125 64 8 8 (512000)
I0817 16:08:12.833207 17615 net.cpp:165] Memory required for data: 1411585500
I0817 16:08:12.833216 17615 layer_factory.hpp:77] Creating layer L3_b8_cbr1_bn
I0817 16:08:12.833228 17615 net.cpp:100] Creating Layer L3_b8_cbr1_bn
I0817 16:08:12.833235 17615 net.cpp:434] L3_b8_cbr1_bn <- L3_b8_cbr1_conv_top
I0817 16:08:12.833245 17615 net.cpp:408] L3_b8_cbr1_bn -> L3_b8_cbr1_bn_top
I0817 16:08:12.833508 17615 net.cpp:150] Setting up L3_b8_cbr1_bn
I0817 16:08:12.833521 17615 net.cpp:157] Top shape: 125 64 8 8 (512000)
I0817 16:08:12.833526 17615 net.cpp:165] Memory required for data: 1413633500
I0817 16:08:12.833544 17615 layer_factory.hpp:77] Creating layer L3_b8_cbr1_scale
I0817 16:08:12.833554 17615 net.cpp:100] Creating Layer L3_b8_cbr1_scale
I0817 16:08:12.833559 17615 net.cpp:434] L3_b8_cbr1_scale <- L3_b8_cbr1_bn_top
I0817 16:08:12.833570 17615 net.cpp:395] L3_b8_cbr1_scale -> L3_b8_cbr1_bn_top (in-place)
I0817 16:08:12.833639 17615 layer_factory.hpp:77] Creating layer L3_b8_cbr1_scale
I0817 16:08:12.833801 17615 net.cpp:150] Setting up L3_b8_cbr1_scale
I0817 16:08:12.833814 17615 net.cpp:157] Top shape: 125 64 8 8 (512000)
I0817 16:08:12.833819 17615 net.cpp:165] Memory required for data: 1415681500
I0817 16:08:12.833828 17615 layer_factory.hpp:77] Creating layer L3_b8_cbr1_relu
I0817 16:08:12.833837 17615 net.cpp:100] Creating Layer L3_b8_cbr1_relu
I0817 16:08:12.833843 17615 net.cpp:434] L3_b8_cbr1_relu <- L3_b8_cbr1_bn_top
I0817 16:08:12.833853 17615 net.cpp:395] L3_b8_cbr1_relu -> L3_b8_cbr1_bn_top (in-place)
I0817 16:08:12.833863 17615 net.cpp:150] Setting up L3_b8_cbr1_relu
I0817 16:08:12.833870 17615 net.cpp:157] Top shape: 125 64 8 8 (512000)
I0817 16:08:12.833875 17615 net.cpp:165] Memory required for data: 1417729500
I0817 16:08:12.833880 17615 layer_factory.hpp:77] Creating layer L3_b8_cbr2_conv
I0817 16:08:12.833894 17615 net.cpp:100] Creating Layer L3_b8_cbr2_conv
I0817 16:08:12.833900 17615 net.cpp:434] L3_b8_cbr2_conv <- L3_b8_cbr1_bn_top
I0817 16:08:12.833911 17615 net.cpp:408] L3_b8_cbr2_conv -> L3_b8_cbr2_conv_top
I0817 16:08:12.834926 17615 net.cpp:150] Setting up L3_b8_cbr2_conv
I0817 16:08:12.834941 17615 net.cpp:157] Top shape: 125 64 8 8 (512000)
I0817 16:08:12.834946 17615 net.cpp:165] Memory required for data: 1419777500
I0817 16:08:12.834955 17615 layer_factory.hpp:77] Creating layer L3_b8_cbr2_bn
I0817 16:08:12.834964 17615 net.cpp:100] Creating Layer L3_b8_cbr2_bn
I0817 16:08:12.834971 17615 net.cpp:434] L3_b8_cbr2_bn <- L3_b8_cbr2_conv_top
I0817 16:08:12.834982 17615 net.cpp:408] L3_b8_cbr2_bn -> L3_b8_cbr2_bn_top
I0817 16:08:12.835248 17615 net.cpp:150] Setting up L3_b8_cbr2_bn
I0817 16:08:12.835264 17615 net.cpp:157] Top shape: 125 64 8 8 (512000)
I0817 16:08:12.835269 17615 net.cpp:165] Memory required for data: 1421825500
I0817 16:08:12.835280 17615 layer_factory.hpp:77] Creating layer L3_b8_cbr2_scale
I0817 16:08:12.835289 17615 net.cpp:100] Creating Layer L3_b8_cbr2_scale
I0817 16:08:12.835295 17615 net.cpp:434] L3_b8_cbr2_scale <- L3_b8_cbr2_bn_top
I0817 16:08:12.835304 17615 net.cpp:395] L3_b8_cbr2_scale -> L3_b8_cbr2_bn_top (in-place)
I0817 16:08:12.835361 17615 layer_factory.hpp:77] Creating layer L3_b8_cbr2_scale
I0817 16:08:12.835516 17615 net.cpp:150] Setting up L3_b8_cbr2_scale
I0817 16:08:12.835530 17615 net.cpp:157] Top shape: 125 64 8 8 (512000)
I0817 16:08:12.835535 17615 net.cpp:165] Memory required for data: 1423873500
I0817 16:08:12.835543 17615 layer_factory.hpp:77] Creating layer L3_b8_sum_eltwise
I0817 16:08:12.835554 17615 net.cpp:100] Creating Layer L3_b8_sum_eltwise
I0817 16:08:12.835561 17615 net.cpp:434] L3_b8_sum_eltwise <- L3_b8_cbr2_bn_top
I0817 16:08:12.835568 17615 net.cpp:434] L3_b8_sum_eltwise <- L3_b7_sum_eltwise_top_L3_b7_relu_0_split_1
I0817 16:08:12.835577 17615 net.cpp:408] L3_b8_sum_eltwise -> L3_b8_sum_eltwise_top
I0817 16:08:12.835618 17615 net.cpp:150] Setting up L3_b8_sum_eltwise
I0817 16:08:12.835630 17615 net.cpp:157] Top shape: 125 64 8 8 (512000)
I0817 16:08:12.835635 17615 net.cpp:165] Memory required for data: 1425921500
I0817 16:08:12.835641 17615 layer_factory.hpp:77] Creating layer L3_b8_relu
I0817 16:08:12.835649 17615 net.cpp:100] Creating Layer L3_b8_relu
I0817 16:08:12.835659 17615 net.cpp:434] L3_b8_relu <- L3_b8_sum_eltwise_top
I0817 16:08:12.835671 17615 net.cpp:395] L3_b8_relu -> L3_b8_sum_eltwise_top (in-place)
I0817 16:08:12.835686 17615 net.cpp:150] Setting up L3_b8_relu
I0817 16:08:12.835698 17615 net.cpp:157] Top shape: 125 64 8 8 (512000)
I0817 16:08:12.835706 17615 net.cpp:165] Memory required for data: 1427969500
I0817 16:08:12.835716 17615 layer_factory.hpp:77] Creating layer L3_b8_sum_eltwise_top_L3_b8_relu_0_split
I0817 16:08:12.835748 17615 net.cpp:100] Creating Layer L3_b8_sum_eltwise_top_L3_b8_relu_0_split
I0817 16:08:12.835759 17615 net.cpp:434] L3_b8_sum_eltwise_top_L3_b8_relu_0_split <- L3_b8_sum_eltwise_top
I0817 16:08:12.835779 17615 net.cpp:408] L3_b8_sum_eltwise_top_L3_b8_relu_0_split -> L3_b8_sum_eltwise_top_L3_b8_relu_0_split_0
I0817 16:08:12.835798 17615 net.cpp:408] L3_b8_sum_eltwise_top_L3_b8_relu_0_split -> L3_b8_sum_eltwise_top_L3_b8_relu_0_split_1
I0817 16:08:12.835865 17615 net.cpp:150] Setting up L3_b8_sum_eltwise_top_L3_b8_relu_0_split
I0817 16:08:12.835881 17615 net.cpp:157] Top shape: 125 64 8 8 (512000)
I0817 16:08:12.835888 17615 net.cpp:157] Top shape: 125 64 8 8 (512000)
I0817 16:08:12.835893 17615 net.cpp:165] Memory required for data: 1432065500
I0817 16:08:12.835898 17615 layer_factory.hpp:77] Creating layer L3_b9_cbr1_conv
I0817 16:08:12.835914 17615 net.cpp:100] Creating Layer L3_b9_cbr1_conv
I0817 16:08:12.835922 17615 net.cpp:434] L3_b9_cbr1_conv <- L3_b8_sum_eltwise_top_L3_b8_relu_0_split_0
I0817 16:08:12.835930 17615 net.cpp:408] L3_b9_cbr1_conv -> L3_b9_cbr1_conv_top
I0817 16:08:12.837934 17615 net.cpp:150] Setting up L3_b9_cbr1_conv
I0817 16:08:12.837952 17615 net.cpp:157] Top shape: 125 64 8 8 (512000)
I0817 16:08:12.837957 17615 net.cpp:165] Memory required for data: 1434113500
I0817 16:08:12.837967 17615 layer_factory.hpp:77] Creating layer L3_b9_cbr1_bn
I0817 16:08:12.837976 17615 net.cpp:100] Creating Layer L3_b9_cbr1_bn
I0817 16:08:12.837983 17615 net.cpp:434] L3_b9_cbr1_bn <- L3_b9_cbr1_conv_top
I0817 16:08:12.837994 17615 net.cpp:408] L3_b9_cbr1_bn -> L3_b9_cbr1_bn_top
I0817 16:08:12.838265 17615 net.cpp:150] Setting up L3_b9_cbr1_bn
I0817 16:08:12.838279 17615 net.cpp:157] Top shape: 125 64 8 8 (512000)
I0817 16:08:12.838284 17615 net.cpp:165] Memory required for data: 1436161500
I0817 16:08:12.838294 17615 layer_factory.hpp:77] Creating layer L3_b9_cbr1_scale
I0817 16:08:12.838304 17615 net.cpp:100] Creating Layer L3_b9_cbr1_scale
I0817 16:08:12.838310 17615 net.cpp:434] L3_b9_cbr1_scale <- L3_b9_cbr1_bn_top
I0817 16:08:12.838318 17615 net.cpp:395] L3_b9_cbr1_scale -> L3_b9_cbr1_bn_top (in-place)
I0817 16:08:12.838378 17615 layer_factory.hpp:77] Creating layer L3_b9_cbr1_scale
I0817 16:08:12.838536 17615 net.cpp:150] Setting up L3_b9_cbr1_scale
I0817 16:08:12.838551 17615 net.cpp:157] Top shape: 125 64 8 8 (512000)
I0817 16:08:12.838557 17615 net.cpp:165] Memory required for data: 1438209500
I0817 16:08:12.838567 17615 layer_factory.hpp:77] Creating layer L3_b9_cbr1_relu
I0817 16:08:12.838574 17615 net.cpp:100] Creating Layer L3_b9_cbr1_relu
I0817 16:08:12.838580 17615 net.cpp:434] L3_b9_cbr1_relu <- L3_b9_cbr1_bn_top
I0817 16:08:12.838588 17615 net.cpp:395] L3_b9_cbr1_relu -> L3_b9_cbr1_bn_top (in-place)
I0817 16:08:12.838598 17615 net.cpp:150] Setting up L3_b9_cbr1_relu
I0817 16:08:12.838604 17615 net.cpp:157] Top shape: 125 64 8 8 (512000)
I0817 16:08:12.838609 17615 net.cpp:165] Memory required for data: 1440257500
I0817 16:08:12.838620 17615 layer_factory.hpp:77] Creating layer L3_b9_cbr2_conv
I0817 16:08:12.838636 17615 net.cpp:100] Creating Layer L3_b9_cbr2_conv
I0817 16:08:12.838642 17615 net.cpp:434] L3_b9_cbr2_conv <- L3_b9_cbr1_bn_top
I0817 16:08:12.838651 17615 net.cpp:408] L3_b9_cbr2_conv -> L3_b9_cbr2_conv_top
I0817 16:08:12.839676 17615 net.cpp:150] Setting up L3_b9_cbr2_conv
I0817 16:08:12.839691 17615 net.cpp:157] Top shape: 125 64 8 8 (512000)
I0817 16:08:12.839696 17615 net.cpp:165] Memory required for data: 1442305500
I0817 16:08:12.839705 17615 layer_factory.hpp:77] Creating layer L3_b9_cbr2_bn
I0817 16:08:12.839717 17615 net.cpp:100] Creating Layer L3_b9_cbr2_bn
I0817 16:08:12.839725 17615 net.cpp:434] L3_b9_cbr2_bn <- L3_b9_cbr2_conv_top
I0817 16:08:12.839735 17615 net.cpp:408] L3_b9_cbr2_bn -> L3_b9_cbr2_bn_top
I0817 16:08:12.839998 17615 net.cpp:150] Setting up L3_b9_cbr2_bn
I0817 16:08:12.840011 17615 net.cpp:157] Top shape: 125 64 8 8 (512000)
I0817 16:08:12.840018 17615 net.cpp:165] Memory required for data: 1444353500
I0817 16:08:12.840035 17615 layer_factory.hpp:77] Creating layer L3_b9_cbr2_scale
I0817 16:08:12.840044 17615 net.cpp:100] Creating Layer L3_b9_cbr2_scale
I0817 16:08:12.840050 17615 net.cpp:434] L3_b9_cbr2_scale <- L3_b9_cbr2_bn_top
I0817 16:08:12.840061 17615 net.cpp:395] L3_b9_cbr2_scale -> L3_b9_cbr2_bn_top (in-place)
I0817 16:08:12.840119 17615 layer_factory.hpp:77] Creating layer L3_b9_cbr2_scale
I0817 16:08:12.840279 17615 net.cpp:150] Setting up L3_b9_cbr2_scale
I0817 16:08:12.840292 17615 net.cpp:157] Top shape: 125 64 8 8 (512000)
I0817 16:08:12.840297 17615 net.cpp:165] Memory required for data: 1446401500
I0817 16:08:12.840306 17615 layer_factory.hpp:77] Creating layer L3_b9_sum_eltwise
I0817 16:08:12.840318 17615 net.cpp:100] Creating Layer L3_b9_sum_eltwise
I0817 16:08:12.840325 17615 net.cpp:434] L3_b9_sum_eltwise <- L3_b9_cbr2_bn_top
I0817 16:08:12.840332 17615 net.cpp:434] L3_b9_sum_eltwise <- L3_b8_sum_eltwise_top_L3_b8_relu_0_split_1
I0817 16:08:12.840340 17615 net.cpp:408] L3_b9_sum_eltwise -> L3_b9_sum_eltwise_top
I0817 16:08:12.840376 17615 net.cpp:150] Setting up L3_b9_sum_eltwise
I0817 16:08:12.840389 17615 net.cpp:157] Top shape: 125 64 8 8 (512000)
I0817 16:08:12.840394 17615 net.cpp:165] Memory required for data: 1448449500
I0817 16:08:12.840399 17615 layer_factory.hpp:77] Creating layer L3_b9_relu
I0817 16:08:12.840406 17615 net.cpp:100] Creating Layer L3_b9_relu
I0817 16:08:12.840412 17615 net.cpp:434] L3_b9_relu <- L3_b9_sum_eltwise_top
I0817 16:08:12.840422 17615 net.cpp:395] L3_b9_relu -> L3_b9_sum_eltwise_top (in-place)
I0817 16:08:12.840432 17615 net.cpp:150] Setting up L3_b9_relu
I0817 16:08:12.840440 17615 net.cpp:157] Top shape: 125 64 8 8 (512000)
I0817 16:08:12.840443 17615 net.cpp:165] Memory required for data: 1450497500
I0817 16:08:12.840448 17615 layer_factory.hpp:77] Creating layer post_pool
I0817 16:08:12.840456 17615 net.cpp:100] Creating Layer post_pool
I0817 16:08:12.840462 17615 net.cpp:434] post_pool <- L3_b9_sum_eltwise_top
I0817 16:08:12.840469 17615 net.cpp:408] post_pool -> post_pool
I0817 16:08:12.840503 17615 net.cpp:150] Setting up post_pool
I0817 16:08:12.840515 17615 net.cpp:157] Top shape: 125 64 1 1 (8000)
I0817 16:08:12.840520 17615 net.cpp:165] Memory required for data: 1450529500
I0817 16:08:12.840525 17615 layer_factory.hpp:77] Creating layer post_FC
I0817 16:08:12.840618 17615 net.cpp:100] Creating Layer post_FC
I0817 16:08:12.840633 17615 net.cpp:434] post_FC <- post_pool
I0817 16:08:12.840643 17615 net.cpp:408] post_FC -> post_FC_top
I0817 16:08:12.840891 17615 net.cpp:150] Setting up post_FC
I0817 16:08:12.840909 17615 net.cpp:157] Top shape: 125 10 (1250)
I0817 16:08:12.840915 17615 net.cpp:165] Memory required for data: 1450534500
I0817 16:08:12.840925 17615 layer_factory.hpp:77] Creating layer post_FC_top_post_FC_0_split
I0817 16:08:12.840934 17615 net.cpp:100] Creating Layer post_FC_top_post_FC_0_split
I0817 16:08:12.840939 17615 net.cpp:434] post_FC_top_post_FC_0_split <- post_FC_top
I0817 16:08:12.840947 17615 net.cpp:408] post_FC_top_post_FC_0_split -> post_FC_top_post_FC_0_split_0
I0817 16:08:12.840957 17615 net.cpp:408] post_FC_top_post_FC_0_split -> post_FC_top_post_FC_0_split_1
I0817 16:08:12.841007 17615 net.cpp:150] Setting up post_FC_top_post_FC_0_split
I0817 16:08:12.841019 17615 net.cpp:157] Top shape: 125 10 (1250)
I0817 16:08:12.841027 17615 net.cpp:157] Top shape: 125 10 (1250)
I0817 16:08:12.841030 17615 net.cpp:165] Memory required for data: 1450544500
I0817 16:08:12.841037 17615 layer_factory.hpp:77] Creating layer accuracy
I0817 16:08:12.841078 17615 net.cpp:100] Creating Layer accuracy
I0817 16:08:12.841089 17615 net.cpp:434] accuracy <- post_FC_top_post_FC_0_split_0
I0817 16:08:12.841097 17615 net.cpp:434] accuracy <- label_dataLayer_1_split_0
I0817 16:08:12.841109 17615 net.cpp:408] accuracy -> accuracy
…
