…
I0821 06:48:43.519837 32543 net.cpp:322] The NetState phase (0) differed from the phase (1) specified by a rule in layer L3_b9_cbr2_bn
I0821 06:48:43.521600 32543 net.cpp:58] Initializing net from parameters: 
name: "Cifar-Resnet"
state {
  phase: TRAIN
  level: 0
  stage: ""
}
layer {
  name: "dataLayer"
  type: "Data"
  top: "data_top"
  top: "label"
  include {
    phase: TRAIN
  }
  transform_param {
    mirror: true
    crop_size: 32
    mean_file: "examples/cifar10/mean.binaryproto"
  }
  data_param {
    source: "examples/cifar10/cifar10_train_lmdb"
    batch_size: 125
    backend: LMDB
  }
  image_data_param {
    shuffle: true
  }
}
layer {
  name: "pre_conv"
  type: "Convolution"
  bottom: "data_top"
  top: "pre_conv_top"
  param {
    lr_mult: 1
    decay_mult: 1
  }
  param {
    lr_mult: 2
    decay_mult: 0
  }
  convolution_param {
    num_output: 16
    pad: 1
    kernel_size: 3
    stride: 1
    weight_filler {
      type: "msra"
    }
    bias_filler {
      type: "constant"
    }
  }
}
layer {
  name: "pre_bn"
  type: "BatchNorm"
  bottom: "pre_conv_top"
  top: "pre_bn_top"
  include {
    phase: TRAIN
  }
  batch_norm_param {
    use_global_stats: false
    moving_average_fraction: 0.95
  }
}
layer {
  name: "pre_scale"
  type: "Scale"
  bottom: "pre_bn_top"
  top: "pre_bn_top"
  scale_param {
    bias_term: true
  }
}
layer {
  name: "pre_relu"
  type: "ReLU"
  bottom: "pre_bn_top"
  top: "pre_bn_top"
}
layer {
  name: "L1_b1_cbr1_conv"
  type: "Convolution"
  bottom: "pre_bn_top"
  top: "L1_b1_cbr1_conv_top"
  param {
    lr_mult: 1
    decay_mult: 1
  }
  param {
    lr_mult: 2
    decay_mult: 0
  }
  convolution_param {
    num_output: 16
    pad: 1
    kernel_size: 3
    stride: 1
    weight_filler {
      type: "msra"
    }
    bias_filler {
      type: "constant"
    }
  }
}
layer {
  name: "L1_b1_cbr1_bn"
  type: "BatchNorm"
  bottom: "L1_b1_cbr1_conv_top"
  top: "L1_b1_cbr1_bn_top"
  include {
    phase: TRAIN
  }
  batch_norm_param {
    use_global_stats: false
    moving_average_fraction: 0.95
  }
}
layer {
  name: "L1_b1_cbr1_scale"
  type: "Scale"
  bottom: "L1_b1_cbr1_bn_top"
  top: "L1_b1_cbr1_bn_top"
  scale_param {
    bias_term: true
  }
}
layer {
  name: "L1_b1_cbr1_relu"
  type: "ReLU"
  bottom: "L1_b1_cbr1_bn_top"
  top: "L1_b1_cbr1_bn_top"
}
layer {
  name: "L1_b1_cbr2_conv"
  type: "Convolution"
  bottom: "L1_b1_cbr1_bn_top"
  top: "L1_b1_cbr2_conv_top"
  param {
    lr_mult: 1
    decay_mult: 1
  }
  param {
    lr_mult: 2
    decay_mult: 0
  }
  convolution_param {
    num_output: 16
    pad: 1
    kernel_size: 3
    stride: 1
    weight_filler {
      type: "msra"
    }
    bias_filler {
      type: "constant"
    }
  }
}
layer {
  name: "L1_b1_cbr2_bn"
  type: "BatchNorm"
  bottom: "L1_b1_cbr2_conv_top"
  top: "L1_b1_cbr2_bn_top"
  include {
    phase: TRAIN
  }
  batch_norm_param {
    use_global_stats: false
    moving_average_fraction: 0.95
  }
}
layer {
  name: "L1_b1_cbr2_scale"
  type: "Scale"
  bottom: "L1_b1_cbr2_bn_top"
  top: "L1_b1_cbr2_bn_top"
  scale_param {
    bias_term: true
  }
}
layer {
  name: "L1_b1_sum_eltwise"
  type: "Eltwise"
  bottom: "L1_b1_cbr2_bn_top"
  bottom: "pre_bn_top"
  top: "L1_b1_sum_eltwise_top"
  eltwise_param {
    operation: SUM
  }
}
layer {
  name: "L1_b1_relu"
  type: "ReLU"
  bottom: "L1_b1_sum_eltwise_top"
  top: "L1_b1_sum_eltwise_top"
}
layer {
  name: "L1_b2_cbr1_conv"
  type: "Convolution"
  bottom: "L1_b1_sum_eltwise_top"
  top: "L1_b2_cbr1_conv_top"
  param {
    lr_mult: 1
    decay_mult: 1
  }
  param {
    lr_mult: 2
    decay_mult: 0
  }
  convolution_param {
    num_output: 16
    pad: 1
    kernel_size: 3
    stride: 1
    weight_filler {
      type: "msra"
    }
    bias_filler {
      type: "constant"
    }
  }
}
layer {
  name: "L1_b2_cbr1_bn"
  type: "BatchNorm"
  bottom: "L1_b2_cbr1_conv_top"
  top: "L1_b2_cbr1_bn_top"
  include {
    phase: TRAIN
  }
  batch_norm_param {
    use_global_stats: false
    moving_average_fraction: 0.95
  }
}
layer {
  name: "L1_b2_cbr1_scale"
  type: "Scale"
  bottom: "L1_b2_cbr1_bn_top"
  top: "L1_b2_cbr1_bn_top"
  scale_param {
    bias_term: true
  }
}
layer {
  name: "L1_b2_cbr1_relu"
  type: "ReLU"
  bottom: "L1_b2_cbr1_bn_top"
  top: "L1_b2_cbr1_bn_top"
}
layer {
  name: "L1_b2_cbr2_conv"
  type: "Convolution"
  bottom: "L1_b2_cbr1_bn_top"
  top: "L1_b2_cbr2_conv_top"
  param {
    lr_mult: 1
    decay_mult: 1
  }
  param {
    lr_mult: 2
    decay_mult: 0
  }
  convolution_param {
    num_output: 16
    pad: 1
    kernel_size: 3
    stride: 1
    weight_filler {
      type: "msra"
    }
    bias_filler {
      type: "constant"
    }
  }
}
layer {
  name: "L1_b2_cbr2_bn"
  type: "BatchNorm"
  bottom: "L1_b2_cbr2_conv_top"
  top: "L1_b2_cbr2_bn_top"
  include {
    phase: TRAIN
  }
  batch_norm_param {
    use_global_stats: false
    moving_average_fraction: 0.95
  }
}
layer {
  name: "L1_b2_cbr2_scale"
  type: "Scale"
  bottom: "L1_b2_cbr2_bn_top"
  top: "L1_b2_cbr2_bn_top"
  scale_param {
    bias_term: true
  }
}
layer {
  name: "L1_b2_sum_eltwise"
  type: "Eltwise"
  bottom: "L1_b2_cbr2_bn_top"
  bottom: "L1_b1_sum_eltwise_top"
  top: "L1_b2_sum_eltwise_top"
  eltwise_param {
    operation: SUM
  }
}
layer {
  name: "L1_b2_relu"
  type: "ReLU"
  bottom: "L1_b2_sum_eltwise_top"
  top: "L1_b2_sum_eltwise_top"
}
layer {
  name: "L1_b3_cbr1_conv"
  type: "Convolution"
  bottom: "L1_b2_sum_eltwise_top"
  top: "L1_b3_cbr1_conv_top"
  param {
    lr_mult: 1
    decay_mult: 1
  }
  param {
    lr_mult: 2
    decay_mult: 0
  }
  convolution_param {
    num_output: 16
    pad: 1
    kernel_size: 3
    stride: 1
    weight_filler {
      type: "msra"
    }
    bias_filler {
      type: "constant"
    }
  }
}
layer {
  name: "L1_b3_cbr1_bn"
  type: "BatchNorm"
  bottom: "L1_b3_cbr1_conv_top"
  top: "L1_b3_cbr1_bn_top"
  include {
    phase: TRAIN
  }
  batch_norm_param {
    use_global_stats: false
    moving_average_fraction: 0.95
  }
}
layer {
  name: "L1_b3_cbr1_scale"
  type: "Scale"
  bottom: "L1_b3_cbr1_bn_top"
  top: "L1_b3_cbr1_bn_top"
  scale_param {
    bias_term: true
  }
}
layer {
  name: "L1_b3_cbr1_relu"
  type: "ReLU"
  bottom: "L1_b3_cbr1_bn_top"
  top: "L1_b3_cbr1_bn_top"
}
layer {
  name: "L1_b3_cbr2_conv"
  type: "Convolution"
  bottom: "L1_b3_cbr1_bn_top"
  top: "L1_b3_cbr2_conv_top"
  param {
    lr_mult: 1
    decay_mult: 1
  }
  param {
    lr_mult: 2
    decay_mult: 0
  }
  convolution_param {
    num_output: 16
    pad: 1
    kernel_size: 3
    stride: 1
    weight_filler {
      type: "msra"
    }
    bias_filler {
      type: "constant"
    }
  }
}
layer {
  name: "L1_b3_cbr2_bn"
  type: "BatchNorm"
  bottom: "L1_b3_cbr2_conv_top"
  top: "L1_b3_cbr2_bn_top"
  include {
    phase: TRAIN
  }
  batch_norm_param {
    use_global_stats: false
    moving_average_fraction: 0.95
  }
}
layer {
  name: "L1_b3_cbr2_scale"
  type: "Scale"
  bottom: "L1_b3_cbr2_bn_top"
  top: "L1_b3_cbr2_bn_top"
  scale_param {
    bias_term: true
  }
}
layer {
  name: "L1_b3_sum_eltwise"
  type: "Eltwise"
  bottom: "L1_b3_cbr2_bn_top"
  bottom: "L1_b2_sum_eltwise_top"
  top: "L1_b3_sum_eltwise_top"
  eltwise_param {
    operation: SUM
  }
}
layer {
  name: "L1_b3_relu"
  type: "ReLU"
  bottom: "L1_b3_sum_eltwise_top"
  top: "L1_b3_sum_eltwise_top"
}
layer {
  name: "L1_b4_cbr1_conv"
  type: "Convolution"
  bottom: "L1_b3_sum_eltwise_top"
  top: "L1_b4_cbr1_conv_top"
  param {
    lr_mult: 1
    decay_mult: 1
  }
  param {
    lr_mult: 2
    decay_mult: 0
  }
  convolution_param {
    num_output: 16
    pad: 1
    kernel_size: 3
    stride: 1
    weight_filler {
      type: "msra"
    }
    bias_filler {
      type: "constant"
    }
  }
}
layer {
  name: "L1_b4_cbr1_bn"
  type: "BatchNorm"
  bottom: "L1_b4_cbr1_conv_top"
  top: "L1_b4_cbr1_bn_top"
  include {
    phase: TRAIN
  }
  batch_norm_param {
    use_global_stats: false
    moving_average_fraction: 0.95
  }
}
layer {
  name: "L1_b4_cbr1_scale"
  type: "Scale"
  bottom: "L1_b4_cbr1_bn_top"
  top: "L1_b4_cbr1_bn_top"
  scale_param {
    bias_term: true
  }
}
layer {
  name: "L1_b4_cbr1_relu"
  type: "ReLU"
  bottom: "L1_b4_cbr1_bn_top"
  top: "L1_b4_cbr1_bn_top"
}
layer {
  name: "L1_b4_cbr2_conv"
  type: "Convolution"
  bottom: "L1_b4_cbr1_bn_top"
  top: "L1_b4_cbr2_conv_top"
  param {
    lr_mult: 1
    decay_mult: 1
  }
  param {
    lr_mult: 2
    decay_mult: 0
  }
  convolution_param {
    num_output: 16
    pad: 1
    kernel_size: 3
    stride: 1
    weight_filler {
      type: "msra"
    }
    bias_filler {
      type: "constant"
    }
  }
}
layer {
  name: "L1_b4_cbr2_bn"
  type: "BatchNorm"
  bottom: "L1_b4_cbr2_conv_top"
  top: "L1_b4_cbr2_bn_top"
  include {
    phase: TRAIN
  }
  batch_norm_param {
    use_global_stats: false
    moving_average_fraction: 0.95
  }
}
layer {
  name: "L1_b4_cbr2_scale"
  type: "Scale"
  bottom: "L1_b4_cbr2_bn_top"
  top: "L1_b4_cbr2_bn_top"
  scale_param {
    bias_term: true
  }
}
layer {
  name: "L1_b4_sum_eltwise"
  type: "Eltwise"
  bottom: "L1_b4_cbr2_bn_top"
  bottom: "L1_b3_sum_eltwise_top"
  top: "L1_b4_sum_eltwise_top"
  eltwise_param {
    operation: SUM
  }
}
layer {
  name: "L1_b4_relu"
  type: "ReLU"
  bottom: "L1_b4_sum_eltwise_top"
  top: "L1_b4_sum_eltwise_top"
}
layer {
  name: "L1_b5_cbr1_conv"
  type: "Convolution"
  bottom: "L1_b4_sum_eltwise_top"
  top: "L1_b5_cbr1_conv_top"
  param {
    lr_mult: 1
    decay_mult: 1
  }
  param {
    lr_mult: 2
    decay_mult: 0
  }
  convolution_param {
    num_output: 16
    pad: 1
    kernel_size: 3
    stride: 1
    weight_filler {
      type: "msra"
    }
    bias_filler {
      type: "constant"
    }
  }
}
layer {
  name: "L1_b5_cbr1_bn"
  type: "BatchNorm"
  bottom: "L1_b5_cbr1_conv_top"
  top: "L1_b5_cbr1_bn_top"
  include {
    phase: TRAIN
  }
  batch_norm_param {
    use_global_stats: false
    moving_average_fraction: 0.95
  }
}
layer {
  name: "L1_b5_cbr1_scale"
  type: "Scale"
  bottom: "L1_b5_cbr1_bn_top"
  top: "L1_b5_cbr1_bn_top"
  scale_param {
    bias_term: true
  }
}
layer {
  name: "L1_b5_cbr1_relu"
  type: "ReLU"
  bottom: "L1_b5_cbr1_bn_top"
  top: "L1_b5_cbr1_bn_top"
}
layer {
  name: "L1_b5_cbr2_conv"
  type: "Convolution"
  bottom: "L1_b5_cbr1_bn_top"
  top: "L1_b5_cbr2_conv_top"
  param {
    lr_mult: 1
    decay_mult: 1
  }
  param {
    lr_mult: 2
    decay_mult: 0
  }
  convolution_param {
    num_output: 16
    pad: 1
    kernel_size: 3
    stride: 1
    weight_filler {
      type: "msra"
    }
    bias_filler {
      type: "constant"
    }
  }
}
layer {
  name: "L1_b5_cbr2_bn"
  type: "BatchNorm"
  bottom: "L1_b5_cbr2_conv_top"
  top: "L1_b5_cbr2_bn_top"
  include {
    phase: TRAIN
  }
  batch_norm_param {
    use_global_stats: false
    moving_average_fraction: 0.95
  }
}
layer {
  name: "L1_b5_cbr2_scale"
  type: "Scale"
  bottom: "L1_b5_cbr2_bn_top"
  top: "L1_b5_cbr2_bn_top"
  scale_param {
    bias_term: true
  }
}
layer {
  name: "L1_b5_sum_eltwise"
  type: "Eltwise"
  bottom: "L1_b5_cbr2_bn_top"
  bottom: "L1_b4_sum_eltwise_top"
  top: "L1_b5_sum_eltwise_top"
  eltwise_param {
    operation: SUM
  }
}
layer {
  name: "L1_b5_relu"
  type: "ReLU"
  bottom: "L1_b5_sum_eltwise_top"
  top: "L1_b5_sum_eltwise_top"
}
layer {
  name: "L1_b6_cbr1_conv"
  type: "Convolution"
  bottom: "L1_b5_sum_eltwise_top"
  top: "L1_b6_cbr1_conv_top"
  param {
    lr_mult: 1
    decay_mult: 1
  }
  param {
    lr_mult: 2
    decay_mult: 0
  }
  convolution_param {
    num_output: 16
    pad: 1
    kernel_size: 3
    stride: 1
    weight_filler {
      type: "msra"
    }
    bias_filler {
      type: "constant"
    }
  }
}
layer {
  name: "L1_b6_cbr1_bn"
  type: "BatchNorm"
  bottom: "L1_b6_cbr1_conv_top"
  top: "L1_b6_cbr1_bn_top"
  include {
    phase: TRAIN
  }
  batch_norm_param {
    use_global_stats: false
    moving_average_fraction: 0.95
  }
}
layer {
  name: "L1_b6_cbr1_scale"
  type: "Scale"
  bottom: "L1_b6_cbr1_bn_top"
  top: "L1_b6_cbr1_bn_top"
  scale_param {
    bias_term: true
  }
}
layer {
  name: "L1_b6_cbr1_relu"
  type: "ReLU"
  bottom: "L1_b6_cbr1_bn_top"
  top: "L1_b6_cbr1_bn_top"
}
layer {
  name: "L1_b6_cbr2_conv"
  type: "Convolution"
  bottom: "L1_b6_cbr1_bn_top"
  top: "L1_b6_cbr2_conv_top"
  param {
    lr_mult: 1
    decay_mult: 1
  }
  param {
    lr_mult: 2
    decay_mult: 0
  }
  convolution_param {
    num_output: 16
    pad: 1
    kernel_size: 3
    stride: 1
    weight_filler {
      type: "msra"
    }
    bias_filler {
      type: "constant"
    }
  }
}
layer {
  name: "L1_b6_cbr2_bn"
  type: "BatchNorm"
  bottom: "L1_b6_cbr2_conv_top"
  top: "L1_b6_cbr2_bn_top"
  include {
    phase: TRAIN
  }
  batch_norm_param {
    use_global_stats: false
    moving_average_fraction: 0.95
  }
}
layer {
  name: "L1_b6_cbr2_scale"
  type: "Scale"
  bottom: "L1_b6_cbr2_bn_top"
  top: "L1_b6_cbr2_bn_top"
  scale_param {
    bias_term: true
  }
}
layer {
  name: "L1_b6_sum_eltwise"
  type: "Eltwise"
  bottom: "L1_b6_cbr2_bn_top"
  bottom: "L1_b5_sum_eltwise_top"
  top: "L1_b6_sum_eltwise_top"
  eltwise_param {
    operation: SUM
  }
}
layer {
  name: "L1_b6_relu"
  type: "ReLU"
  bottom: "L1_b6_sum_eltwise_top"
  top: "L1_b6_sum_eltwise_top"
}
layer {
  name: "L1_b7_cbr1_conv"
  type: "Convolution"
  bottom: "L1_b6_sum_eltwise_top"
  top: "L1_b7_cbr1_conv_top"
  param {
    lr_mult: 1
    decay_mult: 1
  }
  param {
    lr_mult: 2
    decay_mult: 0
  }
  convolution_param {
    num_output: 16
    pad: 1
    kernel_size: 3
    stride: 1
    weight_filler {
      type: "msra"
    }
    bias_filler {
      type: "constant"
    }
  }
}
layer {
  name: "L1_b7_cbr1_bn"
  type: "BatchNorm"
  bottom: "L1_b7_cbr1_conv_top"
  top: "L1_b7_cbr1_bn_top"
  include {
    phase: TRAIN
  }
  batch_norm_param {
    use_global_stats: false
    moving_average_fraction: 0.95
  }
}
layer {
  name: "L1_b7_cbr1_scale"
  type: "Scale"
  bottom: "L1_b7_cbr1_bn_top"
  top: "L1_b7_cbr1_bn_top"
  scale_param {
    bias_term: true
  }
}
layer {
  name: "L1_b7_cbr1_relu"
  type: "ReLU"
  bottom: "L1_b7_cbr1_bn_top"
  top: "L1_b7_cbr1_bn_top"
}
layer {
  name: "L1_b7_cbr2_conv"
  type: "Convolution"
  bottom: "L1_b7_cbr1_bn_top"
  top: "L1_b7_cbr2_conv_top"
  param {
    lr_mult: 1
    decay_mult: 1
  }
  param {
    lr_mult: 2
    decay_mult: 0
  }
  convolution_param {
    num_output: 16
    pad: 1
    kernel_size: 3
    stride: 1
    weight_filler {
      type: "msra"
    }
    bias_filler {
      type: "constant"
    }
  }
}
layer {
  name: "L1_b7_cbr2_bn"
  type: "BatchNorm"
  bottom: "L1_b7_cbr2_conv_top"
  top: "L1_b7_cbr2_bn_top"
  include {
    phase: TRAIN
  }
  batch_norm_param {
    use_global_stats: false
    moving_average_fraction: 0.95
  }
}
layer {
  name: "L1_b7_cbr2_scale"
  type: "Scale"
  bottom: "L1_b7_cbr2_bn_top"
  top: "L1_b7_cbr2_bn_top"
  scale_param {
    bias_term: true
  }
}
layer {
  name: "L1_b7_sum_eltwise"
  type: "Eltwise"
  bottom: "L1_b7_cbr2_bn_top"
  bottom: "L1_b6_sum_eltwise_top"
  top: "L1_b7_sum_eltwise_top"
  eltwise_param {
    operation: SUM
  }
}
layer {
  name: "L1_b7_relu"
  type: "ReLU"
  bottom: "L1_b7_sum_eltwise_top"
  top: "L1_b7_sum_eltwise_top"
}
layer {
  name: "L1_b8_cbr1_conv"
  type: "Convolution"
  bottom: "L1_b7_sum_eltwise_top"
  top: "L1_b8_cbr1_conv_top"
  param {
    lr_mult: 1
    decay_mult: 1
  }
  param {
    lr_mult: 2
    decay_mult: 0
  }
  convolution_param {
    num_output: 16
    pad: 1
    kernel_size: 3
    stride: 1
    weight_filler {
      type: "msra"
    }
    bias_filler {
      type: "constant"
    }
  }
}
layer {
  name: "L1_b8_cbr1_bn"
  type: "BatchNorm"
  bottom: "L1_b8_cbr1_conv_top"
  top: "L1_b8_cbr1_bn_top"
  include {
    phase: TRAIN
  }
  batch_norm_param {
    use_global_stats: false
    moving_average_fraction: 0.95
  }
}
layer {
  name: "L1_b8_cbr1_scale"
  type: "Scale"
  bottom: "L1_b8_cbr1_bn_top"
  top: "L1_b8_cbr1_bn_top"
  scale_param {
    bias_term: true
  }
}
layer {
  name: "L1_b8_cbr1_relu"
  type: "ReLU"
  bottom: "L1_b8_cbr1_bn_top"
  top: "L1_b8_cbr1_bn_top"
}
layer {
  name: "L1_b8_cbr2_conv"
  type: "Convolution"
  bottom: "L1_b8_cbr1_bn_top"
  top: "L1_b8_cbr2_conv_top"
  param {
    lr_mult: 1
    decay_mult: 1
  }
  param {
    lr_mult: 2
    decay_mult: 0
  }
  convolution_param {
    num_output: 16
    pad: 1
    kernel_size: 3
    stride: 1
    weight_filler {
      type: "msra"
    }
    bias_filler {
      type: "constant"
    }
  }
}
layer {
  name: "L1_b8_cbr2_bn"
  type: "BatchNorm"
  bottom: "L1_b8_cbr2_conv_top"
  top: "L1_b8_cbr2_bn_top"
  include {
    phase: TRAIN
  }
  batch_norm_param {
    use_global_stats: false
    moving_average_fraction: 0.95
  }
}
layer {
  name: "L1_b8_cbr2_scale"
  type: "Scale"
  bottom: "L1_b8_cbr2_bn_top"
  top: "L1_b8_cbr2_bn_top"
  scale_param {
    bias_term: true
  }
}
layer {
  name: "L1_b8_sum_eltwise"
  type: "Eltwise"
  bottom: "L1_b8_cbr2_bn_top"
  bottom: "L1_b7_sum_eltwise_top"
  top: "L1_b8_sum_eltwise_top"
  eltwise_param {
    operation: SUM
  }
}
layer {
  name: "L1_b8_relu"
  type: "ReLU"
  bottom: "L1_b8_sum_eltwise_top"
  top: "L1_b8_sum_eltwise_top"
}
layer {
  name: "L1_b9_cbr1_conv"
  type: "Convolution"
  bottom: "L1_b8_sum_eltwise_top"
  top: "L1_b9_cbr1_conv_top"
  param {
    lr_mult: 1
    decay_mult: 1
  }
  param {
    lr_mult: 2
    decay_mult: 0
  }
  convolution_param {
    num_output: 16
    pad: 1
    kernel_size: 3
    stride: 1
    weight_filler {
      type: "msra"
    }
    bias_filler {
      type: "constant"
    }
  }
}
layer {
  name: "L1_b9_cbr1_bn"
  type: "BatchNorm"
  bottom: "L1_b9_cbr1_conv_top"
  top: "L1_b9_cbr1_bn_top"
  include {
    phase: TRAIN
  }
  batch_norm_param {
    use_global_stats: false
    moving_average_fraction: 0.95
  }
}
layer {
  name: "L1_b9_cbr1_scale"
  type: "Scale"
  bottom: "L1_b9_cbr1_bn_top"
  top: "L1_b9_cbr1_bn_top"
  scale_param {
    bias_term: true
  }
}
layer {
  name: "L1_b9_cbr1_relu"
  type: "ReLU"
  bottom: "L1_b9_cbr1_bn_top"
  top: "L1_b9_cbr1_bn_top"
}
layer {
  name: "L1_b9_cbr2_conv"
  type: "Convolution"
  bottom: "L1_b9_cbr1_bn_top"
  top: "L1_b9_cbr2_conv_top"
  param {
    lr_mult: 1
    decay_mult: 1
  }
  param {
    lr_mult: 2
    decay_mult: 0
  }
  convolution_param {
    num_output: 16
    pad: 1
    kernel_size: 3
    stride: 1
    weight_filler {
      type: "msra"
    }
    bias_filler {
      type: "constant"
    }
  }
}
layer {
  name: "L1_b9_cbr2_bn"
  type: "BatchNorm"
  bottom: "L1_b9_cbr2_conv_top"
  top: "L1_b9_cbr2_bn_top"
  include {
    phase: TRAIN
  }
  batch_norm_param {
    use_global_stats: false
    moving_average_fraction: 0.95
  }
}
layer {
  name: "L1_b9_cbr2_scale"
  type: "Scale"
  bottom: "L1_b9_cbr2_bn_top"
  top: "L1_b9_cbr2_bn_top"
  scale_param {
    bias_term: true
  }
}
layer {
  name: "L1_b9_sum_eltwise"
  type: "Eltwise"
  bottom: "L1_b9_cbr2_bn_top"
  bottom: "L1_b8_sum_eltwise_top"
  top: "L1_b9_sum_eltwise_top"
  eltwise_param {
    operation: SUM
  }
}
layer {
  name: "L1_b9_relu"
  type: "ReLU"
  bottom: "L1_b9_sum_eltwise_top"
  top: "L1_b9_sum_eltwise_top"
}
layer {
  name: "L2_b1_cbr1_conv"
  type: "Convolution"
  bottom: "L1_b9_sum_eltwise_top"
  top: "L2_b1_cbr1_conv_top"
  param {
    lr_mult: 1
    decay_mult: 1
  }
  param {
    lr_mult: 2
    decay_mult: 0
  }
  convolution_param {
    num_output: 16
    pad: 1
    kernel_size: 3
    stride: 2
    weight_filler {
      type: "msra"
    }
    bias_filler {
      type: "constant"
    }
  }
}
layer {
  name: "L2_b1_cbr1_bn"
  type: "BatchNorm"
  bottom: "L2_b1_cbr1_conv_top"
  top: "L2_b1_cbr1_bn_top"
  include {
    phase: TRAIN
  }
  batch_norm_param {
    use_global_stats: false
    moving_average_fraction: 0.95
  }
}
layer {
  name: "L2_b1_cbr1_scale"
  type: "Scale"
  bottom: "L2_b1_cbr1_bn_top"
  top: "L2_b1_cbr1_bn_top"
  scale_param {
    bias_term: true
  }
}
layer {
  name: "L2_b1_cbr1_relu"
  type: "ReLU"
  bottom: "L2_b1_cbr1_bn_top"
  top: "L2_b1_cbr1_bn_top"
}
layer {
  name: "L2_b1_cbr2_conv"
  type: "Convolution"
  bottom: "L2_b1_cbr1_bn_top"
  top: "L2_b1_cbr2_conv_top"
  param {
    lr_mult: 1
    decay_mult: 1
  }
  param {
    lr_mult: 2
    decay_mult: 0
  }
  convolution_param {
    num_output: 16
    pad: 1
    kernel_size: 3
    stride: 1
    weight_filler {
      type: "msra"
    }
    bias_filler {
      type: "constant"
    }
  }
}
layer {
  name: "L2_b1_cbr2_bn"
  type: "BatchNorm"
  bottom: "L2_b1_cbr2_conv_top"
  top: "L2_b1_cbr2_bn_top"
  include {
    phase: TRAIN
  }
  batch_norm_param {
    use_global_stats: false
    moving_average_fraction: 0.95
  }
}
layer {
  name: "L2_b1_cbr2_scale"
  type: "Scale"
  bottom: "L2_b1_cbr2_bn_top"
  top: "L2_b1_cbr2_bn_top"
  scale_param {
    bias_term: true
  }
}
layer {
  name: "L2_b1_pool"
  type: "Pooling"
  bottom: "L1_b9_sum_eltwise_top"
  top: "L2_b1_pool"
  pooling_param {
    pool: AVE
    kernel_size: 3
    stride: 2
  }
}
layer {
  name: "L2_b1_sum_eltwise"
  type: "Eltwise"
  bottom: "L2_b1_cbr2_bn_top"
  bottom: "L2_b1_pool"
  top: "L2_b1_sum_eltwise_top"
  eltwise_param {
    operation: SUM
  }
}
layer {
  name: "L2_b1_relu"
  type: "ReLU"
  bottom: "L2_b1_sum_eltwise_top"
  top: "L2_b1_sum_eltwise_top"
}
layer {
  name: "L2_b1_zeros"
  type: "DummyData"
  top: "L2_b1_zeros"
  dummy_data_param {
    data_filler {
      type: "constant"
      value: 0
    }
    shape {
      dim: 125
      dim: 16
      dim: 16
      dim: 16
    }
  }
}
layer {
  name: "L2_b1_concat0"
  type: "Concat"
  bottom: "L2_b1_sum_eltwise_top"
  bottom: "L2_b1_zeros"
  top: "L2_b1_concat0"
  concat_param {
    axis: 1
  }
}
layer {
  name: "L2_b2_cbr1_conv"
  type: "Convolution"
  bottom: "L2_b1_concat0"
  top: "L2_b2_cbr1_conv_top"
  param {
    lr_mult: 1
    decay_mult: 1
  }
  param {
    lr_mult: 2
    decay_mult: 0
  }
  convolution_param {
    num_output: 32
    pad: 1
    kernel_size: 3
    stride: 1
    weight_filler {
      type: "msra"
    }
    bias_filler {
      type: "constant"
    }
  }
}
layer {
  name: "L2_b2_cbr1_bn"
  type: "BatchNorm"
  bottom: "L2_b2_cbr1_conv_top"
  top: "L2_b2_cbr1_bn_top"
  include {
    phase: TRAIN
  }
  batch_norm_param {
    use_global_stats: false
    moving_average_fraction: 0.95
  }
}
layer {
  name: "L2_b2_cbr1_scale"
  type: "Scale"
  bottom: "L2_b2_cbr1_bn_top"
  top: "L2_b2_cbr1_bn_top"
  scale_param {
    bias_term: true
  }
}
layer {
  name: "L2_b2_cbr1_relu"
  type: "ReLU"
  bottom: "L2_b2_cbr1_bn_top"
  top: "L2_b2_cbr1_bn_top"
}
layer {
  name: "L2_b2_cbr2_conv"
  type: "Convolution"
  bottom: "L2_b2_cbr1_bn_top"
  top: "L2_b2_cbr2_conv_top"
  param {
    lr_mult: 1
    decay_mult: 1
  }
  param {
    lr_mult: 2
    decay_mult: 0
  }
  convolution_param {
    num_output: 32
    pad: 1
    kernel_size: 3
    stride: 1
    weight_filler {
      type: "msra"
    }
    bias_filler {
      type: "constant"
    }
  }
}
layer {
  name: "L2_b2_cbr2_bn"
  type: "BatchNorm"
  bottom: "L2_b2_cbr2_conv_top"
  top: "L2_b2_cbr2_bn_top"
  include {
    phase: TRAIN
  }
  batch_norm_param {
    use_global_stats: false
    moving_average_fraction: 0.95
  }
}
layer {
  name: "L2_b2_cbr2_scale"
  type: "Scale"
  bottom: "L2_b2_cbr2_bn_top"
  top: "L2_b2_cbr2_bn_top"
  scale_param {
    bias_term: true
  }
}
layer {
  name: "L2_b2_sum_eltwise"
  type: "Eltwise"
  bottom: "L2_b2_cbr2_bn_top"
  bottom: "L2_b1_concat0"
  top: "L2_b2_sum_eltwise_top"
  eltwise_param {
    operation: SUM
  }
}
layer {
  name: "L2_b2_relu"
  type: "ReLU"
  bottom: "L2_b2_sum_eltwise_top"
  top: "L2_b2_sum_eltwise_top"
}
layer {
  name: "L2_b3_cbr1_conv"
  type: "Convolution"
  bottom: "L2_b2_sum_eltwise_top"
  top: "L2_b3_cbr1_conv_top"
  param {
    lr_mult: 1
    decay_mult: 1
  }
  param {
    lr_mult: 2
    decay_mult: 0
  }
  convolution_param {
    num_output: 32
    pad: 1
    kernel_size: 3
    stride: 1
    weight_filler {
      type: "msra"
    }
    bias_filler {
      type: "constant"
    }
  }
}
layer {
  name: "L2_b3_cbr1_bn"
  type: "BatchNorm"
  bottom: "L2_b3_cbr1_conv_top"
  top: "L2_b3_cbr1_bn_top"
  include {
    phase: TRAIN
  }
  batch_norm_param {
    use_global_stats: false
    moving_average_fraction: 0.95
  }
}
layer {
  name: "L2_b3_cbr1_scale"
  type: "Scale"
  bottom: "L2_b3_cbr1_bn_top"
  top: "L2_b3_cbr1_bn_top"
  scale_param {
    bias_term: true
  }
}
layer {
  name: "L2_b3_cbr1_relu"
  type: "ReLU"
  bottom: "L2_b3_cbr1_bn_top"
  top: "L2_b3_cbr1_bn_top"
}
layer {
  name: "L2_b3_cbr2_conv"
  type: "Convolution"
  bottom: "L2_b3_cbr1_bn_top"
  top: "L2_b3_cbr2_conv_top"
  param {
    lr_mult: 1
    decay_mult: 1
  }
  param {
    lr_mult: 2
    decay_mult: 0
  }
  convolution_param {
    num_output: 32
    pad: 1
    kernel_size: 3
    stride: 1
    weight_filler {
      type: "msra"
    }
    bias_filler {
      type: "constant"
    }
  }
}
layer {
  name: "L2_b3_cbr2_bn"
  type: "BatchNorm"
  bottom: "L2_b3_cbr2_conv_top"
  top: "L2_b3_cbr2_bn_top"
  include {
    phase: TRAIN
  }
  batch_norm_param {
    use_global_stats: false
    moving_average_fraction: 0.95
  }
}
layer {
  name: "L2_b3_cbr2_scale"
  type: "Scale"
  bottom: "L2_b3_cbr2_bn_top"
  top: "L2_b3_cbr2_bn_top"
  scale_param {
    bias_term: true
  }
}
layer {
  name: "L2_b3_sum_eltwise"
  type: "Eltwise"
  bottom: "L2_b3_cbr2_bn_top"
  bottom: "L2_b2_sum_eltwise_top"
  top: "L2_b3_sum_eltwise_top"
  eltwise_param {
    operation: SUM
  }
}
layer {
  name: "L2_b3_relu"
  type: "ReLU"
  bottom: "L2_b3_sum_eltwise_top"
  top: "L2_b3_sum_eltwise_top"
}
layer {
  name: "L2_b4_cbr1_conv"
  type: "Convolution"
  bottom: "L2_b3_sum_eltwise_top"
  top: "L2_b4_cbr1_conv_top"
  param {
    lr_mult: 1
    decay_mult: 1
  }
  param {
    lr_mult: 2
    decay_mult: 0
  }
  convolution_param {
    num_output: 32
    pad: 1
    kernel_size: 3
    stride: 1
    weight_filler {
      type: "msra"
    }
    bias_filler {
      type: "constant"
    }
  }
}
layer {
  name: "L2_b4_cbr1_bn"
  type: "BatchNorm"
  bottom: "L2_b4_cbr1_conv_top"
  top: "L2_b4_cbr1_bn_top"
  include {
    phase: TRAIN
  }
  batch_norm_param {
    use_global_stats: false
    moving_average_fraction: 0.95
  }
}
layer {
  name: "L2_b4_cbr1_scale"
  type: "Scale"
  bottom: "L2_b4_cbr1_bn_top"
  top: "L2_b4_cbr1_bn_top"
  scale_param {
    bias_term: true
  }
}
layer {
  name: "L2_b4_cbr1_relu"
  type: "ReLU"
  bottom: "L2_b4_cbr1_bn_top"
  top: "L2_b4_cbr1_bn_top"
}
layer {
  name: "L2_b4_cbr2_conv"
  type: "Convolution"
  bottom: "L2_b4_cbr1_bn_top"
  top: "L2_b4_cbr2_conv_top"
  param {
    lr_mult: 1
    decay_mult: 1
  }
  param {
    lr_mult: 2
    decay_mult: 0
  }
  convolution_param {
    num_output: 32
    pad: 1
    kernel_size: 3
    stride: 1
    weight_filler {
      type: "msra"
    }
    bias_filler {
      type: "constant"
    }
  }
}
layer {
  name: "L2_b4_cbr2_bn"
  type: "BatchNorm"
  bottom: "L2_b4_cbr2_conv_top"
  top: "L2_b4_cbr2_bn_top"
  include {
    phase: TRAIN
  }
  batch_norm_param {
    use_global_stats: false
    moving_average_fraction: 0.95
  }
}
layer {
  name: "L2_b4_cbr2_scale"
  type: "Scale"
  bottom: "L2_b4_cbr2_bn_top"
  top: "L2_b4_cbr2_bn_top"
  scale_param {
    bias_term: true
  }
}
layer {
  name: "L2_b4_sum_eltwise"
  type: "Eltwise"
  bottom: "L2_b4_cbr2_bn_top"
  bottom: "L2_b3_sum_eltwise_top"
  top: "L2_b4_sum_eltwise_top"
  eltwise_param {
    operation: SUM
  }
}
layer {
  name: "L2_b4_relu"
  type: "ReLU"
  bottom: "L2_b4_sum_eltwise_top"
  top: "L2_b4_sum_eltwise_top"
}
layer {
  name: "L2_b5_cbr1_conv"
  type: "Convolution"
  bottom: "L2_b4_sum_eltwise_top"
  top: "L2_b5_cbr1_conv_top"
  param {
    lr_mult: 1
    decay_mult: 1
  }
  param {
    lr_mult: 2
    decay_mult: 0
  }
  convolution_param {
    num_output: 32
    pad: 1
    kernel_size: 3
    stride: 1
    weight_filler {
      type: "msra"
    }
    bias_filler {
      type: "constant"
    }
  }
}
layer {
  name: "L2_b5_cbr1_bn"
  type: "BatchNorm"
  bottom: "L2_b5_cbr1_conv_top"
  top: "L2_b5_cbr1_bn_top"
  include {
    phase: TRAIN
  }
  batch_norm_param {
    use_global_stats: false
    moving_average_fraction: 0.95
  }
}
layer {
  name: "L2_b5_cbr1_scale"
  type: "Scale"
  bottom: "L2_b5_cbr1_bn_top"
  top: "L2_b5_cbr1_bn_top"
  scale_param {
    bias_term: true
  }
}
layer {
  name: "L2_b5_cbr1_relu"
  type: "ReLU"
  bottom: "L2_b5_cbr1_bn_top"
  top: "L2_b5_cbr1_bn_top"
}
layer {
  name: "L2_b5_cbr2_conv"
  type: "Convolution"
  bottom: "L2_b5_cbr1_bn_top"
  top: "L2_b5_cbr2_conv_top"
  param {
    lr_mult: 1
    decay_mult: 1
  }
  param {
    lr_mult: 2
    decay_mult: 0
  }
  convolution_param {
    num_output: 32
    pad: 1
    kernel_size: 3
    stride: 1
    weight_filler {
      type: "msra"
    }
    bias_filler {
      type: "constant"
    }
  }
}
layer {
  name: "L2_b5_cbr2_bn"
  type: "BatchNorm"
  bottom: "L2_b5_cbr2_conv_top"
  top: "L2_b5_cbr2_bn_top"
  include {
    phase: TRAIN
  }
  batch_norm_param {
    use_global_stats: false
    moving_average_fraction: 0.95
  }
}
layer {
  name: "L2_b5_cbr2_scale"
  type: "Scale"
  bottom: "L2_b5_cbr2_bn_top"
  top: "L2_b5_cbr2_bn_top"
  scale_param {
    bias_term: true
  }
}
layer {
  name: "L2_b5_sum_eltwise"
  type: "Eltwise"
  bottom: "L2_b5_cbr2_bn_top"
  bottom: "L2_b4_sum_eltwise_top"
  top: "L2_b5_sum_eltwise_top"
  eltwise_param {
    operation: SUM
  }
}
layer {
  name: "L2_b5_relu"
  type: "ReLU"
  bottom: "L2_b5_sum_eltwise_top"
  top: "L2_b5_sum_eltwise_top"
}
layer {
  name: "L2_b6_cbr1_conv"
  type: "Convolution"
  bottom: "L2_b5_sum_eltwise_top"
  top: "L2_b6_cbr1_conv_top"
  param {
    lr_mult: 1
    decay_mult: 1
  }
  param {
    lr_mult: 2
    decay_mult: 0
  }
  convolution_param {
    num_output: 32
    pad: 1
    kernel_size: 3
    stride: 1
    weight_filler {
      type: "msra"
    }
    bias_filler {
      type: "constant"
    }
  }
}
layer {
  name: "L2_b6_cbr1_bn"
  type: "BatchNorm"
  bottom: "L2_b6_cbr1_conv_top"
  top: "L2_b6_cbr1_bn_top"
  include {
    phase: TRAIN
  }
  batch_norm_param {
    use_global_stats: false
    moving_average_fraction: 0.95
  }
}
layer {
  name: "L2_b6_c
I0821 06:48:43.523707 32543 layer_factory.hpp:77] Creating layer dataLayer
I0821 06:48:43.524942 32543 net.cpp:100] Creating Layer dataLayer
I0821 06:48:43.525020 32543 net.cpp:408] dataLayer -> data_top
I0821 06:48:43.525243 32543 net.cpp:408] dataLayer -> label
I0821 06:48:43.525370 32543 data_transformer.cpp:25] Loading mean file from: examples/cifar10/mean.binaryproto
I0821 06:48:43.532778 32549 db_lmdb.cpp:35] Opened lmdb examples/cifar10/cifar10_train_lmdb
I0821 06:48:43.584661 32543 data_layer.cpp:41] output data size: 125,3,32,32
I0821 06:48:43.592945 32543 net.cpp:150] Setting up dataLayer
I0821 06:48:43.593008 32543 net.cpp:157] Top shape: 125 3 32 32 (384000)
I0821 06:48:43.593019 32543 net.cpp:157] Top shape: 125 (125)
I0821 06:48:43.593025 32543 net.cpp:165] Memory required for data: 1536500
I0821 06:48:43.593040 32543 layer_factory.hpp:77] Creating layer label_dataLayer_1_split
I0821 06:48:43.593055 32543 net.cpp:100] Creating Layer label_dataLayer_1_split
I0821 06:48:43.593063 32543 net.cpp:434] label_dataLayer_1_split <- label
I0821 06:48:43.593082 32543 net.cpp:408] label_dataLayer_1_split -> label_dataLayer_1_split_0
I0821 06:48:43.593098 32543 net.cpp:408] label_dataLayer_1_split -> label_dataLayer_1_split_1
I0821 06:48:43.593178 32543 net.cpp:150] Setting up label_dataLayer_1_split
I0821 06:48:43.593197 32543 net.cpp:157] Top shape: 125 (125)
I0821 06:48:43.593205 32543 net.cpp:157] Top shape: 125 (125)
I0821 06:48:43.593209 32543 net.cpp:165] Memory required for data: 1537500
I0821 06:48:43.593215 32543 layer_factory.hpp:77] Creating layer pre_conv
I0821 06:48:43.593277 32543 net.cpp:100] Creating Layer pre_conv
I0821 06:48:43.593289 32543 net.cpp:434] pre_conv <- data_top
I0821 06:48:43.593299 32543 net.cpp:408] pre_conv -> pre_conv_top
I0821 06:48:43.596437 32550 blocking_queue.cpp:50] Waiting for data
I0821 06:48:43.596457 32543 net.cpp:150] Setting up pre_conv
I0821 06:48:43.596478 32543 net.cpp:157] Top shape: 125 16 32 32 (2048000)
I0821 06:48:43.596484 32543 net.cpp:165] Memory required for data: 9729500
I0821 06:48:43.596559 32543 layer_factory.hpp:77] Creating layer pre_bn
I0821 06:48:43.597776 32543 net.cpp:100] Creating Layer pre_bn
I0821 06:48:43.597791 32543 net.cpp:434] pre_bn <- pre_conv_top
I0821 06:48:43.597801 32543 net.cpp:408] pre_bn -> pre_bn_top
I0821 06:48:43.598114 32543 net.cpp:150] Setting up pre_bn
I0821 06:48:43.598137 32543 net.cpp:157] Top shape: 125 16 32 32 (2048000)
I0821 06:48:43.598143 32543 net.cpp:165] Memory required for data: 17921500
I0821 06:48:43.598161 32543 layer_factory.hpp:77] Creating layer pre_scale
I0821 06:48:43.598214 32543 net.cpp:100] Creating Layer pre_scale
I0821 06:48:43.598224 32543 net.cpp:434] pre_scale <- pre_bn_top
I0821 06:48:43.598237 32543 net.cpp:395] pre_scale -> pre_bn_top (in-place)
I0821 06:48:43.598410 32543 layer_factory.hpp:77] Creating layer pre_scale
I0821 06:48:43.599231 32543 net.cpp:150] Setting up pre_scale
I0821 06:48:43.599247 32543 net.cpp:157] Top shape: 125 16 32 32 (2048000)
I0821 06:48:43.599253 32543 net.cpp:165] Memory required for data: 26113500
I0821 06:48:43.599264 32543 layer_factory.hpp:77] Creating layer pre_relu
I0821 06:48:43.599313 32543 net.cpp:100] Creating Layer pre_relu
I0821 06:48:43.599323 32543 net.cpp:434] pre_relu <- pre_bn_top
I0821 06:48:43.599334 32543 net.cpp:395] pre_relu -> pre_bn_top (in-place)
I0821 06:48:43.599345 32543 net.cpp:150] Setting up pre_relu
I0821 06:48:43.599354 32543 net.cpp:157] Top shape: 125 16 32 32 (2048000)
I0821 06:48:43.599359 32543 net.cpp:165] Memory required for data: 34305500
I0821 06:48:43.599364 32543 layer_factory.hpp:77] Creating layer pre_bn_top_pre_relu_0_split
I0821 06:48:43.599370 32543 net.cpp:100] Creating Layer pre_bn_top_pre_relu_0_split
I0821 06:48:43.599375 32543 net.cpp:434] pre_bn_top_pre_relu_0_split <- pre_bn_top
I0821 06:48:43.599385 32543 net.cpp:408] pre_bn_top_pre_relu_0_split -> pre_bn_top_pre_relu_0_split_0
I0821 06:48:43.599395 32543 net.cpp:408] pre_bn_top_pre_relu_0_split -> pre_bn_top_pre_relu_0_split_1
I0821 06:48:43.599444 32543 net.cpp:150] Setting up pre_bn_top_pre_relu_0_split
I0821 06:48:43.599457 32543 net.cpp:157] Top shape: 125 16 32 32 (2048000)
I0821 06:48:43.599462 32543 net.cpp:157] Top shape: 125 16 32 32 (2048000)
I0821 06:48:43.599467 32543 net.cpp:165] Memory required for data: 50689500
I0821 06:48:43.599472 32543 layer_factory.hpp:77] Creating layer L1_b1_cbr1_conv
I0821 06:48:43.599484 32543 net.cpp:100] Creating Layer L1_b1_cbr1_conv
I0821 06:48:43.599490 32543 net.cpp:434] L1_b1_cbr1_conv <- pre_bn_top_pre_relu_0_split_0
I0821 06:48:43.599501 32543 net.cpp:408] L1_b1_cbr1_conv -> L1_b1_cbr1_conv_top
I0821 06:48:43.599815 32543 net.cpp:150] Setting up L1_b1_cbr1_conv
I0821 06:48:43.599829 32543 net.cpp:157] Top shape: 125 16 32 32 (2048000)
I0821 06:48:43.599834 32543 net.cpp:165] Memory required for data: 58881500
I0821 06:48:43.599846 32543 layer_factory.hpp:77] Creating layer L1_b1_cbr1_bn
I0821 06:48:43.599862 32543 net.cpp:100] Creating Layer L1_b1_cbr1_bn
I0821 06:48:43.599869 32543 net.cpp:434] L1_b1_cbr1_bn <- L1_b1_cbr1_conv_top
I0821 06:48:43.599877 32543 net.cpp:408] L1_b1_cbr1_bn -> L1_b1_cbr1_bn_top
I0821 06:48:43.600109 32543 net.cpp:150] Setting up L1_b1_cbr1_bn
I0821 06:48:43.600132 32543 net.cpp:157] Top shape: 125 16 32 32 (2048000)
I0821 06:48:43.600138 32543 net.cpp:165] Memory required for data: 67073500
I0821 06:48:43.600149 32543 layer_factory.hpp:77] Creating layer L1_b1_cbr1_scale
I0821 06:48:43.600158 32543 net.cpp:100] Creating Layer L1_b1_cbr1_scale
I0821 06:48:43.600163 32543 net.cpp:434] L1_b1_cbr1_scale <- L1_b1_cbr1_bn_top
I0821 06:48:43.600172 32543 net.cpp:395] L1_b1_cbr1_scale -> L1_b1_cbr1_bn_top (in-place)
I0821 06:48:43.600224 32543 layer_factory.hpp:77] Creating layer L1_b1_cbr1_scale
I0821 06:48:43.600360 32543 net.cpp:150] Setting up L1_b1_cbr1_scale
I0821 06:48:43.600373 32543 net.cpp:157] Top shape: 125 16 32 32 (2048000)
I0821 06:48:43.600378 32543 net.cpp:165] Memory required for data: 75265500
I0821 06:48:43.600386 32543 layer_factory.hpp:77] Creating layer L1_b1_cbr1_relu
I0821 06:48:43.600405 32543 net.cpp:100] Creating Layer L1_b1_cbr1_relu
I0821 06:48:43.600411 32543 net.cpp:434] L1_b1_cbr1_relu <- L1_b1_cbr1_bn_top
I0821 06:48:43.600419 32543 net.cpp:395] L1_b1_cbr1_relu -> L1_b1_cbr1_bn_top (in-place)
I0821 06:48:43.600432 32543 net.cpp:150] Setting up L1_b1_cbr1_relu
I0821 06:48:43.600440 32543 net.cpp:157] Top shape: 125 16 32 32 (2048000)
I0821 06:48:43.600445 32543 net.cpp:165] Memory required for data: 83457500
I0821 06:48:43.600450 32543 layer_factory.hpp:77] Creating layer L1_b1_cbr2_conv
I0821 06:48:43.600461 32543 net.cpp:100] Creating Layer L1_b1_cbr2_conv
I0821 06:48:43.600466 32543 net.cpp:434] L1_b1_cbr2_conv <- L1_b1_cbr1_bn_top
I0821 06:48:43.600477 32543 net.cpp:408] L1_b1_cbr2_conv -> L1_b1_cbr2_conv_top
I0821 06:48:43.600782 32543 net.cpp:150] Setting up L1_b1_cbr2_conv
I0821 06:48:43.600796 32543 net.cpp:157] Top shape: 125 16 32 32 (2048000)
I0821 06:48:43.600801 32543 net.cpp:165] Memory required for data: 91649500
I0821 06:48:43.600811 32543 layer_factory.hpp:77] Creating layer L1_b1_cbr2_bn
I0821 06:48:43.600819 32543 net.cpp:100] Creating Layer L1_b1_cbr2_bn
I0821 06:48:43.600826 32543 net.cpp:434] L1_b1_cbr2_bn <- L1_b1_cbr2_conv_top
I0821 06:48:43.600836 32543 net.cpp:408] L1_b1_cbr2_bn -> L1_b1_cbr2_bn_top
I0821 06:48:43.601068 32543 net.cpp:150] Setting up L1_b1_cbr2_bn
I0821 06:48:43.601080 32543 net.cpp:157] Top shape: 125 16 32 32 (2048000)
I0821 06:48:43.601085 32543 net.cpp:165] Memory required for data: 99841500
I0821 06:48:43.601102 32543 layer_factory.hpp:77] Creating layer L1_b1_cbr2_scale
I0821 06:48:43.601112 32543 net.cpp:100] Creating Layer L1_b1_cbr2_scale
I0821 06:48:43.601122 32543 net.cpp:434] L1_b1_cbr2_scale <- L1_b1_cbr2_bn_top
I0821 06:48:43.601131 32543 net.cpp:395] L1_b1_cbr2_scale -> L1_b1_cbr2_bn_top (in-place)
I0821 06:48:43.601188 32543 layer_factory.hpp:77] Creating layer L1_b1_cbr2_scale
I0821 06:48:43.601327 32543 net.cpp:150] Setting up L1_b1_cbr2_scale
I0821 06:48:43.601341 32543 net.cpp:157] Top shape: 125 16 32 32 (2048000)
I0821 06:48:43.601346 32543 net.cpp:165] Memory required for data: 108033500
I0821 06:48:43.601354 32543 layer_factory.hpp:77] Creating layer L1_b1_sum_eltwise
I0821 06:48:43.601403 32543 net.cpp:100] Creating Layer L1_b1_sum_eltwise
I0821 06:48:43.601415 32543 net.cpp:434] L1_b1_sum_eltwise <- L1_b1_cbr2_bn_top
I0821 06:48:43.601423 32543 net.cpp:434] L1_b1_sum_eltwise <- pre_bn_top_pre_relu_0_split_1
I0821 06:48:43.601434 32543 net.cpp:408] L1_b1_sum_eltwise -> L1_b1_sum_eltwise_top
I0821 06:48:43.601505 32543 net.cpp:150] Setting up L1_b1_sum_eltwise
I0821 06:48:43.601519 32543 net.cpp:157] Top shape: 125 16 32 32 (2048000)
I0821 06:48:43.601524 32543 net.cpp:165] Memory required for data: 116225500
I0821 06:48:43.601531 32543 layer_factory.hpp:77] Creating layer L1_b1_relu
I0821 06:48:43.601542 32543 net.cpp:100] Creating Layer L1_b1_relu
I0821 06:48:43.601548 32543 net.cpp:434] L1_b1_relu <- L1_b1_sum_eltwise_top
I0821 06:48:43.601555 32543 net.cpp:395] L1_b1_relu -> L1_b1_sum_eltwise_top (in-place)
I0821 06:48:43.601565 32543 net.cpp:150] Setting up L1_b1_relu
I0821 06:48:43.601572 32543 net.cpp:157] Top shape: 125 16 32 32 (2048000)
I0821 06:48:43.601577 32543 net.cpp:165] Memory required for data: 124417500
I0821 06:48:43.601582 32543 layer_factory.hpp:77] Creating layer L1_b1_sum_eltwise_top_L1_b1_relu_0_split
I0821 06:48:43.601590 32543 net.cpp:100] Creating Layer L1_b1_sum_eltwise_top_L1_b1_relu_0_split
I0821 06:48:43.601596 32543 net.cpp:434] L1_b1_sum_eltwise_top_L1_b1_relu_0_split <- L1_b1_sum_eltwise_top
I0821 06:48:43.601603 32543 net.cpp:408] L1_b1_sum_eltwise_top_L1_b1_relu_0_split -> L1_b1_sum_eltwise_top_L1_b1_relu_0_split_0
I0821 06:48:43.601613 32543 net.cpp:408] L1_b1_sum_eltwise_top_L1_b1_relu_0_split -> L1_b1_sum_eltwise_top_L1_b1_relu_0_split_1
I0821 06:48:43.601657 32543 net.cpp:150] Setting up L1_b1_sum_eltwise_top_L1_b1_relu_0_split
I0821 06:48:43.601668 32543 net.cpp:157] Top shape: 125 16 32 32 (2048000)
I0821 06:48:43.601675 32543 net.cpp:157] Top shape: 125 16 32 32 (2048000)
I0821 06:48:43.601686 32543 net.cpp:165] Memory required for data: 140801500
I0821 06:48:43.601692 32543 layer_factory.hpp:77] Creating layer L1_b2_cbr1_conv
I0821 06:48:43.601706 32543 net.cpp:100] Creating Layer L1_b2_cbr1_conv
I0821 06:48:43.601713 32543 net.cpp:434] L1_b2_cbr1_conv <- L1_b1_sum_eltwise_top_L1_b1_relu_0_split_0
I0821 06:48:43.601722 32543 net.cpp:408] L1_b2_cbr1_conv -> L1_b2_cbr1_conv_top
I0821 06:48:43.602032 32543 net.cpp:150] Setting up L1_b2_cbr1_conv
I0821 06:48:43.602046 32543 net.cpp:157] Top shape: 125 16 32 32 (2048000)
I0821 06:48:43.602051 32543 net.cpp:165] Memory required for data: 148993500
I0821 06:48:43.602061 32543 layer_factory.hpp:77] Creating layer L1_b2_cbr1_bn
I0821 06:48:43.602074 32543 net.cpp:100] Creating Layer L1_b2_cbr1_bn
I0821 06:48:43.602080 32543 net.cpp:434] L1_b2_cbr1_bn <- L1_b2_cbr1_conv_top
I0821 06:48:43.602090 32543 net.cpp:408] L1_b2_cbr1_bn -> L1_b2_cbr1_bn_top
I0821 06:48:43.602331 32543 net.cpp:150] Setting up L1_b2_cbr1_bn
I0821 06:48:43.602346 32543 net.cpp:157] Top shape: 125 16 32 32 (2048000)
I0821 06:48:43.602351 32543 net.cpp:165] Memory required for data: 157185500
I0821 06:48:43.602361 32543 layer_factory.hpp:77] Creating layer L1_b2_cbr1_scale
I0821 06:48:43.602370 32543 net.cpp:100] Creating Layer L1_b2_cbr1_scale
I0821 06:48:43.602376 32543 net.cpp:434] L1_b2_cbr1_scale <- L1_b2_cbr1_bn_top
I0821 06:48:43.602387 32543 net.cpp:395] L1_b2_cbr1_scale -> L1_b2_cbr1_bn_top (in-place)
I0821 06:48:43.602439 32543 layer_factory.hpp:77] Creating layer L1_b2_cbr1_scale
I0821 06:48:43.602572 32543 net.cpp:150] Setting up L1_b2_cbr1_scale
I0821 06:48:43.602589 32543 net.cpp:157] Top shape: 125 16 32 32 (2048000)
I0821 06:48:43.602594 32543 net.cpp:165] Memory required for data: 165377500
I0821 06:48:43.602603 32543 layer_factory.hpp:77] Creating layer L1_b2_cbr1_relu
I0821 06:48:43.602612 32543 net.cpp:100] Creating Layer L1_b2_cbr1_relu
I0821 06:48:43.602617 32543 net.cpp:434] L1_b2_cbr1_relu <- L1_b2_cbr1_bn_top
I0821 06:48:43.602624 32543 net.cpp:395] L1_b2_cbr1_relu -> L1_b2_cbr1_bn_top (in-place)
I0821 06:48:43.602633 32543 net.cpp:150] Setting up L1_b2_cbr1_relu
I0821 06:48:43.602640 32543 net.cpp:157] Top shape: 125 16 32 32 (2048000)
I0821 06:48:43.602645 32543 net.cpp:165] Memory required for data: 173569500
I0821 06:48:43.602649 32543 layer_factory.hpp:77] Creating layer L1_b2_cbr2_conv
I0821 06:48:43.602663 32543 net.cpp:100] Creating Layer L1_b2_cbr2_conv
I0821 06:48:43.602669 32543 net.cpp:434] L1_b2_cbr2_conv <- L1_b2_cbr1_bn_top
I0821 06:48:43.602680 32543 net.cpp:408] L1_b2_cbr2_conv -> L1_b2_cbr2_conv_top
I0821 06:48:43.602987 32543 net.cpp:150] Setting up L1_b2_cbr2_conv
I0821 06:48:43.602999 32543 net.cpp:157] Top shape: 125 16 32 32 (2048000)
I0821 06:48:43.603004 32543 net.cpp:165] Memory required for data: 181761500
I0821 06:48:43.603013 32543 layer_factory.hpp:77] Creating layer L1_b2_cbr2_bn
I0821 06:48:43.603029 32543 net.cpp:100] Creating Layer L1_b2_cbr2_bn
I0821 06:48:43.603034 32543 net.cpp:434] L1_b2_cbr2_bn <- L1_b2_cbr2_conv_top
I0821 06:48:43.603045 32543 net.cpp:408] L1_b2_cbr2_bn -> L1_b2_cbr2_bn_top
I0821 06:48:43.603284 32543 net.cpp:150] Setting up L1_b2_cbr2_bn
I0821 06:48:43.603298 32543 net.cpp:157] Top shape: 125 16 32 32 (2048000)
I0821 06:48:43.603303 32543 net.cpp:165] Memory required for data: 189953500
I0821 06:48:43.603318 32543 layer_factory.hpp:77] Creating layer L1_b2_cbr2_scale
I0821 06:48:43.603332 32543 net.cpp:100] Creating Layer L1_b2_cbr2_scale
I0821 06:48:43.603338 32543 net.cpp:434] L1_b2_cbr2_scale <- L1_b2_cbr2_bn_top
I0821 06:48:43.603345 32543 net.cpp:395] L1_b2_cbr2_scale -> L1_b2_cbr2_bn_top (in-place)
I0821 06:48:43.603399 32543 layer_factory.hpp:77] Creating layer L1_b2_cbr2_scale
I0821 06:48:43.603539 32543 net.cpp:150] Setting up L1_b2_cbr2_scale
I0821 06:48:43.603552 32543 net.cpp:157] Top shape: 125 16 32 32 (2048000)
I0821 06:48:43.603557 32543 net.cpp:165] Memory required for data: 198145500
I0821 06:48:43.603566 32543 layer_factory.hpp:77] Creating layer L1_b2_sum_eltwise
I0821 06:48:43.603582 32543 net.cpp:100] Creating Layer L1_b2_sum_eltwise
I0821 06:48:43.603588 32543 net.cpp:434] L1_b2_sum_eltwise <- L1_b2_cbr2_bn_top
I0821 06:48:43.603595 32543 net.cpp:434] L1_b2_sum_eltwise <- L1_b1_sum_eltwise_top_L1_b1_relu_0_split_1
I0821 06:48:43.603606 32543 net.cpp:408] L1_b2_sum_eltwise -> L1_b2_sum_eltwise_top
I0821 06:48:43.603641 32543 net.cpp:150] Setting up L1_b2_sum_eltwise
I0821 06:48:43.603651 32543 net.cpp:157] Top shape: 125 16 32 32 (2048000)
I0821 06:48:43.603655 32543 net.cpp:165] Memory required for data: 206337500
I0821 06:48:43.603660 32543 layer_factory.hpp:77] Creating layer L1_b2_relu
I0821 06:48:43.603668 32543 net.cpp:100] Creating Layer L1_b2_relu
I0821 06:48:43.603673 32543 net.cpp:434] L1_b2_relu <- L1_b2_sum_eltwise_top
I0821 06:48:43.603680 32543 net.cpp:395] L1_b2_relu -> L1_b2_sum_eltwise_top (in-place)
I0821 06:48:43.603693 32543 net.cpp:150] Setting up L1_b2_relu
I0821 06:48:43.603699 32543 net.cpp:157] Top shape: 125 16 32 32 (2048000)
I0821 06:48:43.603704 32543 net.cpp:165] Memory required for data: 214529500
I0821 06:48:43.603709 32543 layer_factory.hpp:77] Creating layer L1_b2_sum_eltwise_top_L1_b2_relu_0_split
I0821 06:48:43.603716 32543 net.cpp:100] Creating Layer L1_b2_sum_eltwise_top_L1_b2_relu_0_split
I0821 06:48:43.603721 32543 net.cpp:434] L1_b2_sum_eltwise_top_L1_b2_relu_0_split <- L1_b2_sum_eltwise_top
I0821 06:48:43.603729 32543 net.cpp:408] L1_b2_sum_eltwise_top_L1_b2_relu_0_split -> L1_b2_sum_eltwise_top_L1_b2_relu_0_split_0
I0821 06:48:43.603737 32543 net.cpp:408] L1_b2_sum_eltwise_top_L1_b2_relu_0_split -> L1_b2_sum_eltwise_top_L1_b2_relu_0_split_1
I0821 06:48:43.603780 32543 net.cpp:150] Setting up L1_b2_sum_eltwise_top_L1_b2_relu_0_split
I0821 06:48:43.603792 32543 net.cpp:157] Top shape: 125 16 32 32 (2048000)
I0821 06:48:43.603798 32543 net.cpp:157] Top shape: 125 16 32 32 (2048000)
I0821 06:48:43.603803 32543 net.cpp:165] Memory required for data: 230913500
I0821 06:48:43.603808 32543 layer_factory.hpp:77] Creating layer L1_b3_cbr1_conv
I0821 06:48:43.603819 32543 net.cpp:100] Creating Layer L1_b3_cbr1_conv
I0821 06:48:43.603826 32543 net.cpp:434] L1_b3_cbr1_conv <- L1_b2_sum_eltwise_top_L1_b2_relu_0_split_0
I0821 06:48:43.603837 32543 net.cpp:408] L1_b3_cbr1_conv -> L1_b3_cbr1_conv_top
I0821 06:48:43.604148 32543 net.cpp:150] Setting up L1_b3_cbr1_conv
I0821 06:48:43.604162 32543 net.cpp:157] Top shape: 125 16 32 32 (2048000)
I0821 06:48:43.604167 32543 net.cpp:165] Memory required for data: 239105500
I0821 06:48:43.604176 32543 layer_factory.hpp:77] Creating layer L1_b3_cbr1_bn
I0821 06:48:43.604185 32543 net.cpp:100] Creating Layer L1_b3_cbr1_bn
I0821 06:48:43.604192 32543 net.cpp:434] L1_b3_cbr1_bn <- L1_b3_cbr1_conv_top
I0821 06:48:43.604202 32543 net.cpp:408] L1_b3_cbr1_bn -> L1_b3_cbr1_bn_top
I0821 06:48:43.604440 32543 net.cpp:150] Setting up L1_b3_cbr1_bn
I0821 06:48:43.604454 32543 net.cpp:157] Top shape: 125 16 32 32 (2048000)
I0821 06:48:43.604459 32543 net.cpp:165] Memory required for data: 247297500
I0821 06:48:43.604468 32543 layer_factory.hpp:77] Creating layer L1_b3_cbr1_scale
I0821 06:48:43.604480 32543 net.cpp:100] Creating Layer L1_b3_cbr1_scale
I0821 06:48:43.604485 32543 net.cpp:434] L1_b3_cbr1_scale <- L1_b3_cbr1_bn_top
I0821 06:48:43.604493 32543 net.cpp:395] L1_b3_cbr1_scale -> L1_b3_cbr1_bn_top (in-place)
I0821 06:48:43.604543 32543 layer_factory.hpp:77] Creating layer L1_b3_cbr1_scale
I0821 06:48:43.604681 32543 net.cpp:150] Setting up L1_b3_cbr1_scale
I0821 06:48:43.604694 32543 net.cpp:157] Top shape: 125 16 32 32 (2048000)
I0821 06:48:43.604699 32543 net.cpp:165] Memory required for data: 255489500
I0821 06:48:43.604708 32543 layer_factory.hpp:77] Creating layer L1_b3_cbr1_relu
I0821 06:48:43.604717 32543 net.cpp:100] Creating Layer L1_b3_cbr1_relu
I0821 06:48:43.604722 32543 net.cpp:434] L1_b3_cbr1_relu <- L1_b3_cbr1_bn_top
I0821 06:48:43.604732 32543 net.cpp:395] L1_b3_cbr1_relu -> L1_b3_cbr1_bn_top (in-place)
I0821 06:48:43.604742 32543 net.cpp:150] Setting up L1_b3_cbr1_relu
I0821 06:48:43.604755 32543 net.cpp:157] Top shape: 125 16 32 32 (2048000)
I0821 06:48:43.604760 32543 net.cpp:165] Memory required for data: 263681500
I0821 06:48:43.604765 32543 layer_factory.hpp:77] Creating layer L1_b3_cbr2_conv
I0821 06:48:43.604779 32543 net.cpp:100] Creating Layer L1_b3_cbr2_conv
I0821 06:48:43.604785 32543 net.cpp:434] L1_b3_cbr2_conv <- L1_b3_cbr1_bn_top
I0821 06:48:43.604794 32543 net.cpp:408] L1_b3_cbr2_conv -> L1_b3_cbr2_conv_top
I0821 06:48:43.605099 32543 net.cpp:150] Setting up L1_b3_cbr2_conv
I0821 06:48:43.605113 32543 net.cpp:157] Top shape: 125 16 32 32 (2048000)
I0821 06:48:43.605123 32543 net.cpp:165] Memory required for data: 271873500
I0821 06:48:43.605134 32543 layer_factory.hpp:77] Creating layer L1_b3_cbr2_bn
I0821 06:48:43.605147 32543 net.cpp:100] Creating Layer L1_b3_cbr2_bn
I0821 06:48:43.605154 32543 net.cpp:434] L1_b3_cbr2_bn <- L1_b3_cbr2_conv_top
I0821 06:48:43.605166 32543 net.cpp:408] L1_b3_cbr2_bn -> L1_b3_cbr2_bn_top
I0821 06:48:43.605399 32543 net.cpp:150] Setting up L1_b3_cbr2_bn
I0821 06:48:43.605412 32543 net.cpp:157] Top shape: 125 16 32 32 (2048000)
I0821 06:48:43.605417 32543 net.cpp:165] Memory required for data: 280065500
I0821 06:48:43.605427 32543 layer_factory.hpp:77] Creating layer L1_b3_cbr2_scale
I0821 06:48:43.605439 32543 net.cpp:100] Creating Layer L1_b3_cbr2_scale
I0821 06:48:43.605445 32543 net.cpp:434] L1_b3_cbr2_scale <- L1_b3_cbr2_bn_top
I0821 06:48:43.605453 32543 net.cpp:395] L1_b3_cbr2_scale -> L1_b3_cbr2_bn_top (in-place)
I0821 06:48:43.605504 32543 layer_factory.hpp:77] Creating layer L1_b3_cbr2_scale
I0821 06:48:43.605639 32543 net.cpp:150] Setting up L1_b3_cbr2_scale
I0821 06:48:43.605653 32543 net.cpp:157] Top shape: 125 16 32 32 (2048000)
I0821 06:48:43.605657 32543 net.cpp:165] Memory required for data: 288257500
I0821 06:48:43.605665 32543 layer_factory.hpp:77] Creating layer L1_b3_sum_eltwise
I0821 06:48:43.605680 32543 net.cpp:100] Creating Layer L1_b3_sum_eltwise
I0821 06:48:43.605686 32543 net.cpp:434] L1_b3_sum_eltwise <- L1_b3_cbr2_bn_top
I0821 06:48:43.605693 32543 net.cpp:434] L1_b3_sum_eltwise <- L1_b2_sum_eltwise_top_L1_b2_relu_0_split_1
I0821 06:48:43.605700 32543 net.cpp:408] L1_b3_sum_eltwise -> L1_b3_sum_eltwise_top
I0821 06:48:43.605733 32543 net.cpp:150] Setting up L1_b3_sum_eltwise
I0821 06:48:43.605746 32543 net.cpp:157] Top shape: 125 16 32 32 (2048000)
I0821 06:48:43.605751 32543 net.cpp:165] Memory required for data: 296449500
I0821 06:48:43.605756 32543 layer_factory.hpp:77] Creating layer L1_b3_relu
I0821 06:48:43.605763 32543 net.cpp:100] Creating Layer L1_b3_relu
I0821 06:48:43.605768 32543 net.cpp:434] L1_b3_relu <- L1_b3_sum_eltwise_top
I0821 06:48:43.605778 32543 net.cpp:395] L1_b3_relu -> L1_b3_sum_eltwise_top (in-place)
I0821 06:48:43.605787 32543 net.cpp:150] Setting up L1_b3_relu
I0821 06:48:43.605794 32543 net.cpp:157] Top shape: 125 16 32 32 (2048000)
I0821 06:48:43.605799 32543 net.cpp:165] Memory required for data: 304641500
I0821 06:48:43.605804 32543 layer_factory.hpp:77] Creating layer L1_b3_sum_eltwise_top_L1_b3_relu_0_split
I0821 06:48:43.605811 32543 net.cpp:100] Creating Layer L1_b3_sum_eltwise_top_L1_b3_relu_0_split
I0821 06:48:43.605816 32543 net.cpp:434] L1_b3_sum_eltwise_top_L1_b3_relu_0_split <- L1_b3_sum_eltwise_top
I0821 06:48:43.605823 32543 net.cpp:408] L1_b3_sum_eltwise_top_L1_b3_relu_0_split -> L1_b3_sum_eltwise_top_L1_b3_relu_0_split_0
I0821 06:48:43.605834 32543 net.cpp:408] L1_b3_sum_eltwise_top_L1_b3_relu_0_split -> L1_b3_sum_eltwise_top_L1_b3_relu_0_split_1
I0821 06:48:43.605878 32543 net.cpp:150] Setting up L1_b3_sum_eltwise_top_L1_b3_relu_0_split
I0821 06:48:43.605890 32543 net.cpp:157] Top shape: 125 16 32 32 (2048000)
I0821 06:48:43.605896 32543 net.cpp:157] Top shape: 125 16 32 32 (2048000)
I0821 06:48:43.605901 32543 net.cpp:165] Memory required for data: 321025500
I0821 06:48:43.605906 32543 layer_factory.hpp:77] Creating layer L1_b4_cbr1_conv
I0821 06:48:43.605917 32543 net.cpp:100] Creating Layer L1_b4_cbr1_conv
I0821 06:48:43.605923 32543 net.cpp:434] L1_b4_cbr1_conv <- L1_b3_sum_eltwise_top_L1_b3_relu_0_split_0
I0821 06:48:43.605942 32543 net.cpp:408] L1_b4_cbr1_conv -> L1_b4_cbr1_conv_top
I0821 06:48:43.606266 32543 net.cpp:150] Setting up L1_b4_cbr1_conv
I0821 06:48:43.606281 32543 net.cpp:157] Top shape: 125 16 32 32 (2048000)
I0821 06:48:43.606286 32543 net.cpp:165] Memory required for data: 329217500
I0821 06:48:43.606294 32543 layer_factory.hpp:77] Creating layer L1_b4_cbr1_bn
I0821 06:48:43.606303 32543 net.cpp:100] Creating Layer L1_b4_cbr1_bn
I0821 06:48:43.606309 32543 net.cpp:434] L1_b4_cbr1_bn <- L1_b4_cbr1_conv_top
I0821 06:48:43.606320 32543 net.cpp:408] L1_b4_cbr1_bn -> L1_b4_cbr1_bn_top
I0821 06:48:43.606556 32543 net.cpp:150] Setting up L1_b4_cbr1_bn
I0821 06:48:43.606570 32543 net.cpp:157] Top shape: 125 16 32 32 (2048000)
I0821 06:48:43.606575 32543 net.cpp:165] Memory required for data: 337409500
I0821 06:48:43.606583 32543 layer_factory.hpp:77] Creating layer L1_b4_cbr1_scale
I0821 06:48:43.606597 32543 net.cpp:100] Creating Layer L1_b4_cbr1_scale
I0821 06:48:43.606603 32543 net.cpp:434] L1_b4_cbr1_scale <- L1_b4_cbr1_bn_top
I0821 06:48:43.606611 32543 net.cpp:395] L1_b4_cbr1_scale -> L1_b4_cbr1_bn_top (in-place)
I0821 06:48:43.606663 32543 layer_factory.hpp:77] Creating layer L1_b4_cbr1_scale
I0821 06:48:43.606803 32543 net.cpp:150] Setting up L1_b4_cbr1_scale
I0821 06:48:43.606817 32543 net.cpp:157] Top shape: 125 16 32 32 (2048000)
I0821 06:48:43.606822 32543 net.cpp:165] Memory required for data: 345601500
I0821 06:48:43.606832 32543 layer_factory.hpp:77] Creating layer L1_b4_cbr1_relu
I0821 06:48:43.606842 32543 net.cpp:100] Creating Layer L1_b4_cbr1_relu
I0821 06:48:43.606848 32543 net.cpp:434] L1_b4_cbr1_relu <- L1_b4_cbr1_bn_top
I0821 06:48:43.606855 32543 net.cpp:395] L1_b4_cbr1_relu -> L1_b4_cbr1_bn_top (in-place)
I0821 06:48:43.606864 32543 net.cpp:150] Setting up L1_b4_cbr1_relu
I0821 06:48:43.606870 32543 net.cpp:157] Top shape: 125 16 32 32 (2048000)
I0821 06:48:43.606875 32543 net.cpp:165] Memory required for data: 353793500
I0821 06:48:43.606880 32543 layer_factory.hpp:77] Creating layer L1_b4_cbr2_conv
I0821 06:48:43.606894 32543 net.cpp:100] Creating Layer L1_b4_cbr2_conv
I0821 06:48:43.606900 32543 net.cpp:434] L1_b4_cbr2_conv <- L1_b4_cbr1_bn_top
I0821 06:48:43.606911 32543 net.cpp:408] L1_b4_cbr2_conv -> L1_b4_cbr2_conv_top
I0821 06:48:43.607234 32543 net.cpp:150] Setting up L1_b4_cbr2_conv
I0821 06:48:43.607247 32543 net.cpp:157] Top shape: 125 16 32 32 (2048000)
I0821 06:48:43.607252 32543 net.cpp:165] Memory required for data: 361985500
I0821 06:48:43.607261 32543 layer_factory.hpp:77] Creating layer L1_b4_cbr2_bn
I0821 06:48:43.607270 32543 net.cpp:100] Creating Layer L1_b4_cbr2_bn
I0821 06:48:43.607276 32543 net.cpp:434] L1_b4_cbr2_bn <- L1_b4_cbr2_conv_top
I0821 06:48:43.607285 32543 net.cpp:408] L1_b4_cbr2_bn -> L1_b4_cbr2_bn_top
I0821 06:48:43.607525 32543 net.cpp:150] Setting up L1_b4_cbr2_bn
I0821 06:48:43.607539 32543 net.cpp:157] Top shape: 125 16 32 32 (2048000)
I0821 06:48:43.607544 32543 net.cpp:165] Memory required for data: 370177500
I0821 06:48:43.607558 32543 layer_factory.hpp:77] Creating layer L1_b4_cbr2_scale
I0821 06:48:43.607566 32543 net.cpp:100] Creating Layer L1_b4_cbr2_scale
I0821 06:48:43.607573 32543 net.cpp:434] L1_b4_cbr2_scale <- L1_b4_cbr2_bn_top
I0821 06:48:43.607581 32543 net.cpp:395] L1_b4_cbr2_scale -> L1_b4_cbr2_bn_top (in-place)
I0821 06:48:43.607633 32543 layer_factory.hpp:77] Creating layer L1_b4_cbr2_scale
I0821 06:48:43.607771 32543 net.cpp:150] Setting up L1_b4_cbr2_scale
I0821 06:48:43.607784 32543 net.cpp:157] Top shape: 125 16 32 32 (2048000)
I0821 06:48:43.607789 32543 net.cpp:165] Memory required for data: 378369500
I0821 06:48:43.607797 32543 layer_factory.hpp:77] Creating layer L1_b4_sum_eltwise
I0821 06:48:43.607810 32543 net.cpp:100] Creating Layer L1_b4_sum_eltwise
I0821 06:48:43.607816 32543 net.cpp:434] L1_b4_sum_eltwise <- L1_b4_cbr2_bn_top
I0821 06:48:43.607823 32543 net.cpp:434] L1_b4_sum_eltwise <- L1_b3_sum_eltwise_top_L1_b3_relu_0_split_1
I0821 06:48:43.607834 32543 net.cpp:408] L1_b4_sum_eltwise -> L1_b4_sum_eltwise_top
I0821 06:48:43.607872 32543 net.cpp:150] Setting up L1_b4_sum_eltwise
I0821 06:48:43.607882 32543 net.cpp:157] Top shape: 125 16 32 32 (2048000)
I0821 06:48:43.607887 32543 net.cpp:165] Memory required for data: 386561500
I0821 06:48:43.607892 32543 layer_factory.hpp:77] Creating layer L1_b4_relu
I0821 06:48:43.607903 32543 net.cpp:100] Creating Layer L1_b4_relu
I0821 06:48:43.607908 32543 net.cpp:434] L1_b4_relu <- L1_b4_sum_eltwise_top
I0821 06:48:43.607916 32543 net.cpp:395] L1_b4_relu -> L1_b4_sum_eltwise_top (in-place)
I0821 06:48:43.607924 32543 net.cpp:150] Setting up L1_b4_relu
I0821 06:48:43.607931 32543 net.cpp:157] Top shape: 125 16 32 32 (2048000)
I0821 06:48:43.607936 32543 net.cpp:165] Memory required for data: 394753500
I0821 06:48:43.607940 32543 layer_factory.hpp:77] Creating layer L1_b4_sum_eltwise_top_L1_b4_relu_0_split
I0821 06:48:43.607949 32543 net.cpp:100] Creating Layer L1_b4_sum_eltwise_top_L1_b4_relu_0_split
I0821 06:48:43.607954 32543 net.cpp:434] L1_b4_sum_eltwise_top_L1_b4_relu_0_split <- L1_b4_sum_eltwise_top
I0821 06:48:43.607960 32543 net.cpp:408] L1_b4_sum_eltwise_top_L1_b4_relu_0_split -> L1_b4_sum_eltwise_top_L1_b4_relu_0_split_0
I0821 06:48:43.607969 32543 net.cpp:408] L1_b4_sum_eltwise_top_L1_b4_relu_0_split -> L1_b4_sum_eltwise_top_L1_b4_relu_0_split_1
I0821 06:48:43.608013 32543 net.cpp:150] Setting up L1_b4_sum_eltwise_top_L1_b4_relu_0_split
I0821 06:48:43.608024 32543 net.cpp:157] Top shape: 125 16 32 32 (2048000)
I0821 06:48:43.608031 32543 net.cpp:157] Top shape: 125 16 32 32 (2048000)
I0821 06:48:43.608036 32543 net.cpp:165] Memory required for data: 411137500
I0821 06:48:43.608042 32543 layer_factory.hpp:77] Creating layer L1_b5_cbr1_conv
I0821 06:48:43.608054 32543 net.cpp:100] Creating Layer L1_b5_cbr1_conv
I0821 06:48:43.608062 32543 net.cpp:434] L1_b5_cbr1_conv <- L1_b4_sum_eltwise_top_L1_b4_relu_0_split_0
I0821 06:48:43.608069 32543 net.cpp:408] L1_b5_cbr1_conv -> L1_b5_cbr1_conv_top
I0821 06:48:43.608388 32543 net.cpp:150] Setting up L1_b5_cbr1_conv
I0821 06:48:43.608402 32543 net.cpp:157] Top shape: 125 16 32 32 (2048000)
I0821 06:48:43.608407 32543 net.cpp:165] Memory required for data: 419329500
I0821 06:48:43.608431 32543 layer_factory.hpp:77] Creating layer L1_b5_cbr1_bn
I0821 06:48:43.608444 32543 net.cpp:100] Creating Layer L1_b5_cbr1_bn
I0821 06:48:43.608450 32543 net.cpp:434] L1_b5_cbr1_bn <- L1_b5_cbr1_conv_top
I0821 06:48:43.608458 32543 net.cpp:408] L1_b5_cbr1_bn -> L1_b5_cbr1_bn_top
I0821 06:48:43.608700 32543 net.cpp:150] Setting up L1_b5_cbr1_bn
I0821 06:48:43.608716 32543 net.cpp:157] Top shape: 125 16 32 32 (2048000)
I0821 06:48:43.608721 32543 net.cpp:165] Memory required for data: 427521500
I0821 06:48:43.608732 32543 layer_factory.hpp:77] Creating layer L1_b5_cbr1_scale
I0821 06:48:43.608741 32543 net.cpp:100] Creating Layer L1_b5_cbr1_scale
I0821 06:48:43.608747 32543 net.cpp:434] L1_b5_cbr1_scale <- L1_b5_cbr1_bn_top
I0821 06:48:43.608755 32543 net.cpp:395] L1_b5_cbr1_scale -> L1_b5_cbr1_bn_top (in-place)
I0821 06:48:43.608806 32543 layer_factory.hpp:77] Creating layer L1_b5_cbr1_scale
I0821 06:48:43.608947 32543 net.cpp:150] Setting up L1_b5_cbr1_scale
I0821 06:48:43.608959 32543 net.cpp:157] Top shape: 125 16 32 32 (2048000)
I0821 06:48:43.608964 32543 net.cpp:165] Memory required for data: 435713500
I0821 06:48:43.608973 32543 layer_factory.hpp:77] Creating layer L1_b5_cbr1_relu
I0821 06:48:43.608984 32543 net.cpp:100] Creating Layer L1_b5_cbr1_relu
I0821 06:48:43.608990 32543 net.cpp:434] L1_b5_cbr1_relu <- L1_b5_cbr1_bn_top
I0821 06:48:43.608997 32543 net.cpp:395] L1_b5_cbr1_relu -> L1_b5_cbr1_bn_top (in-place)
I0821 06:48:43.609007 32543 net.cpp:150] Setting up L1_b5_cbr1_relu
I0821 06:48:43.609014 32543 net.cpp:157] Top shape: 125 16 32 32 (2048000)
I0821 06:48:43.609019 32543 net.cpp:165] Memory required for data: 443905500
I0821 06:48:43.609024 32543 layer_factory.hpp:77] Creating layer L1_b5_cbr2_conv
I0821 06:48:43.609037 32543 net.cpp:100] Creating Layer L1_b5_cbr2_conv
I0821 06:48:43.609043 32543 net.cpp:434] L1_b5_cbr2_conv <- L1_b5_cbr1_bn_top
I0821 06:48:43.609061 32543 net.cpp:408] L1_b5_cbr2_conv -> L1_b5_cbr2_conv_top
I0821 06:48:43.609385 32543 net.cpp:150] Setting up L1_b5_cbr2_conv
I0821 06:48:43.609398 32543 net.cpp:157] Top shape: 125 16 32 32 (2048000)
I0821 06:48:43.609405 32543 net.cpp:165] Memory required for data: 452097500
I0821 06:48:43.609413 32543 layer_factory.hpp:77] Creating layer L1_b5_cbr2_bn
I0821 06:48:43.609422 32543 net.cpp:100] Creating Layer L1_b5_cbr2_bn
I0821 06:48:43.609428 32543 net.cpp:434] L1_b5_cbr2_bn <- L1_b5_cbr2_conv_top
I0821 06:48:43.609439 32543 net.cpp:408] L1_b5_cbr2_bn -> L1_b5_cbr2_bn_top
I0821 06:48:43.609675 32543 net.cpp:150] Setting up L1_b5_cbr2_bn
I0821 06:48:43.609688 32543 net.cpp:157] Top shape: 125 16 32 32 (2048000)
I0821 06:48:43.609694 32543 net.cpp:165] Memory required for data: 460289500
I0821 06:48:43.609704 32543 layer_factory.hpp:77] Creating layer L1_b5_cbr2_scale
I0821 06:48:43.609714 32543 net.cpp:100] Creating Layer L1_b5_cbr2_scale
I0821 06:48:43.609720 32543 net.cpp:434] L1_b5_cbr2_scale <- L1_b5_cbr2_bn_top
I0821 06:48:43.609728 32543 net.cpp:395] L1_b5_cbr2_scale -> L1_b5_cbr2_bn_top (in-place)
I0821 06:48:43.609779 32543 layer_factory.hpp:77] Creating layer L1_b5_cbr2_scale
I0821 06:48:43.609920 32543 net.cpp:150] Setting up L1_b5_cbr2_scale
I0821 06:48:43.609933 32543 net.cpp:157] Top shape: 125 16 32 32 (2048000)
I0821 06:48:43.609938 32543 net.cpp:165] Memory required for data: 468481500
I0821 06:48:43.609947 32543 layer_factory.hpp:77] Creating layer L1_b5_sum_eltwise
I0821 06:48:43.609959 32543 net.cpp:100] Creating Layer L1_b5_sum_eltwise
I0821 06:48:43.609966 32543 net.cpp:434] L1_b5_sum_eltwise <- L1_b5_cbr2_bn_top
I0821 06:48:43.609972 32543 net.cpp:434] L1_b5_sum_eltwise <- L1_b4_sum_eltwise_top_L1_b4_relu_0_split_1
I0821 06:48:43.609980 32543 net.cpp:408] L1_b5_sum_eltwise -> L1_b5_sum_eltwise_top
I0821 06:48:43.610015 32543 net.cpp:150] Setting up L1_b5_sum_eltwise
I0821 06:48:43.610025 32543 net.cpp:157] Top shape: 125 16 32 32 (2048000)
I0821 06:48:43.610029 32543 net.cpp:165] Memory required for data: 476673500
I0821 06:48:43.610035 32543 layer_factory.hpp:77] Creating layer L1_b5_relu
I0821 06:48:43.610043 32543 net.cpp:100] Creating Layer L1_b5_relu
I0821 06:48:43.610049 32543 net.cpp:434] L1_b5_relu <- L1_b5_sum_eltwise_top
I0821 06:48:43.610057 32543 net.cpp:395] L1_b5_relu -> L1_b5_sum_eltwise_top (in-place)
I0821 06:48:43.610067 32543 net.cpp:150] Setting up L1_b5_relu
I0821 06:48:43.610074 32543 net.cpp:157] Top shape: 125 16 32 32 (2048000)
I0821 06:48:43.610079 32543 net.cpp:165] Memory required for data: 484865500
I0821 06:48:43.610083 32543 layer_factory.hpp:77] Creating layer L1_b5_sum_eltwise_top_L1_b5_relu_0_split
I0821 06:48:43.610090 32543 net.cpp:100] Creating Layer L1_b5_sum_eltwise_top_L1_b5_relu_0_split
I0821 06:48:43.610095 32543 net.cpp:434] L1_b5_sum_eltwise_top_L1_b5_relu_0_split <- L1_b5_sum_eltwise_top
I0821 06:48:43.610102 32543 net.cpp:408] L1_b5_sum_eltwise_top_L1_b5_relu_0_split -> L1_b5_sum_eltwise_top_L1_b5_relu_0_split_0
I0821 06:48:43.610111 32543 net.cpp:408] L1_b5_sum_eltwise_top_L1_b5_relu_0_split -> L1_b5_sum_eltwise_top_L1_b5_relu_0_split_1
I0821 06:48:43.610164 32543 net.cpp:150] Setting up L1_b5_sum_eltwise_top_L1_b5_relu_0_split
I0821 06:48:43.610177 32543 net.cpp:157] Top shape: 125 16 32 32 (2048000)
I0821 06:48:43.610183 32543 net.cpp:157] Top shape: 125 16 32 32 (2048000)
I0821 06:48:43.610188 32543 net.cpp:165] Memory required for data: 501249500
I0821 06:48:43.610193 32543 layer_factory.hpp:77] Creating layer L1_b6_cbr1_conv
I0821 06:48:43.610203 32543 net.cpp:100] Creating Layer L1_b6_cbr1_conv
I0821 06:48:43.610209 32543 net.cpp:434] L1_b6_cbr1_conv <- L1_b5_sum_eltwise_top_L1_b5_relu_0_split_0
I0821 06:48:43.610221 32543 net.cpp:408] L1_b6_cbr1_conv -> L1_b6_cbr1_conv_top
I0821 06:48:43.610532 32543 net.cpp:150] Setting up L1_b6_cbr1_conv
I0821 06:48:43.610545 32543 net.cpp:157] Top shape: 125 16 32 32 (2048000)
I0821 06:48:43.610550 32543 net.cpp:165] Memory required for data: 509441500
I0821 06:48:43.610566 32543 layer_factory.hpp:77] Creating layer L1_b6_cbr1_bn
I0821 06:48:43.610575 32543 net.cpp:100] Creating Layer L1_b6_cbr1_bn
I0821 06:48:43.610581 32543 net.cpp:434] L1_b6_cbr1_bn <- L1_b6_cbr1_conv_top
I0821 06:48:43.610592 32543 net.cpp:408] L1_b6_cbr1_bn -> L1_b6_cbr1_bn_top
I0821 06:48:43.610828 32543 net.cpp:150] Setting up L1_b6_cbr1_bn
I0821 06:48:43.610841 32543 net.cpp:157] Top shape: 125 16 32 32 (2048000)
I0821 06:48:43.610846 32543 net.cpp:165] Memory required for data: 517633500
I0821 06:48:43.610857 32543 layer_factory.hpp:77] Creating layer L1_b6_cbr1_scale
I0821 06:48:43.610867 32543 net.cpp:100] Creating Layer L1_b6_cbr1_scale
I0821 06:48:43.610873 32543 net.cpp:434] L1_b6_cbr1_scale <- L1_b6_cbr1_bn_top
I0821 06:48:43.610882 32543 net.cpp:395] L1_b6_cbr1_scale -> L1_b6_cbr1_bn_top (in-place)
I0821 06:48:43.610932 32543 layer_factory.hpp:77] Creating layer L1_b6_cbr1_scale
I0821 06:48:43.611071 32543 net.cpp:150] Setting up L1_b6_cbr1_scale
I0821 06:48:43.611084 32543 net.cpp:157] Top shape: 125 16 32 32 (2048000)
I0821 06:48:43.611089 32543 net.cpp:165] Memory required for data: 525825500
I0821 06:48:43.611099 32543 layer_factory.hpp:77] Creating layer L1_b6_cbr1_relu
I0821 06:48:43.611109 32543 net.cpp:100] Creating Layer L1_b6_cbr1_relu
I0821 06:48:43.611115 32543 net.cpp:434] L1_b6_cbr1_relu <- L1_b6_cbr1_bn_top
I0821 06:48:43.611129 32543 net.cpp:395] L1_b6_cbr1_relu -> L1_b6_cbr1_bn_top (in-place)
I0821 06:48:43.611140 32543 net.cpp:150] Setting up L1_b6_cbr1_relu
I0821 06:48:43.611146 32543 net.cpp:157] Top shape: 125 16 32 32 (2048000)
I0821 06:48:43.611151 32543 net.cpp:165] Memory required for data: 534017500
I0821 06:48:43.611155 32543 layer_factory.hpp:77] Creating layer L1_b6_cbr2_conv
I0821 06:48:43.611171 32543 net.cpp:100] Creating Layer L1_b6_cbr2_conv
I0821 06:48:43.611176 32543 net.cpp:434] L1_b6_cbr2_conv <- L1_b6_cbr1_bn_top
I0821 06:48:43.611186 32543 net.cpp:408] L1_b6_cbr2_conv -> L1_b6_cbr2_conv_top
I0821 06:48:43.611505 32543 net.cpp:150] Setting up L1_b6_cbr2_conv
I0821 06:48:43.611518 32543 net.cpp:157] Top shape: 125 16 32 32 (2048000)
I0821 06:48:43.611523 32543 net.cpp:165] Memory required for data: 542209500
I0821 06:48:43.611531 32543 layer_factory.hpp:77] Creating layer L1_b6_cbr2_bn
I0821 06:48:43.611541 32543 net.cpp:100] Creating Layer L1_b6_cbr2_bn
I0821 06:48:43.611546 32543 net.cpp:434] L1_b6_cbr2_bn <- L1_b6_cbr2_conv_top
I0821 06:48:43.611554 32543 net.cpp:408] L1_b6_cbr2_bn -> L1_b6_cbr2_bn_top
I0821 06:48:43.611796 32543 net.cpp:150] Setting up L1_b6_cbr2_bn
I0821 06:48:43.611809 32543 net.cpp:157] Top shape: 125 16 32 32 (2048000)
I0821 06:48:43.611814 32543 net.cpp:165] Memory required for data: 550401500
I0821 06:48:43.611824 32543 layer_factory.hpp:77] Creating layer L1_b6_cbr2_scale
I0821 06:48:43.611836 32543 net.cpp:100] Creating Layer L1_b6_cbr2_scale
I0821 06:48:43.611842 32543 net.cpp:434] L1_b6_cbr2_scale <- L1_b6_cbr2_bn_top
I0821 06:48:43.611850 32543 net.cpp:395] L1_b6_cbr2_scale -> L1_b6_cbr2_bn_top (in-place)
I0821 06:48:43.611904 32543 layer_factory.hpp:77] Creating layer L1_b6_cbr2_scale
I0821 06:48:43.612046 32543 net.cpp:150] Setting up L1_b6_cbr2_scale
I0821 06:48:43.612057 32543 net.cpp:157] Top shape: 125 16 32 32 (2048000)
I0821 06:48:43.612062 32543 net.cpp:165] Memory required for data: 558593500
I0821 06:48:43.612071 32543 layer_factory.hpp:77] Creating layer L1_b6_sum_eltwise
I0821 06:48:43.612088 32543 net.cpp:100] Creating Layer L1_b6_sum_eltwise
I0821 06:48:43.612097 32543 net.cpp:434] L1_b6_sum_eltwise <- L1_b6_cbr2_bn_top
I0821 06:48:43.612104 32543 net.cpp:434] L1_b6_sum_eltwise <- L1_b5_sum_eltwise_top_L1_b5_relu_0_split_1
I0821 06:48:43.612112 32543 net.cpp:408] L1_b6_sum_eltwise -> L1_b6_sum_eltwise_top
I0821 06:48:43.612150 32543 net.cpp:150] Setting up L1_b6_sum_eltwise
I0821 06:48:43.612164 32543 net.cpp:157] Top shape: 125 16 32 32 (2048000)
I0821 06:48:43.612169 32543 net.cpp:165] Memory required for data: 566785500
I0821 06:48:43.612174 32543 layer_factory.hpp:77] Creating layer L1_b6_relu
I0821 06:48:43.612192 32543 net.cpp:100] Creating Layer L1_b6_relu
I0821 06:48:43.612200 32543 net.cpp:434] L1_b6_relu <- L1_b6_sum_eltwise_top
I0821 06:48:43.612206 32543 net.cpp:395] L1_b6_relu -> L1_b6_sum_eltwise_top (in-place)
I0821 06:48:43.612215 32543 net.cpp:150] Setting up L1_b6_relu
I0821 06:48:43.612222 32543 net.cpp:157] Top shape: 125 16 32 32 (2048000)
I0821 06:48:43.612227 32543 net.cpp:165] Memory required for data: 574977500
I0821 06:48:43.612232 32543 layer_factory.hpp:77] Creating layer L1_b6_sum_eltwise_top_L1_b6_relu_0_split
I0821 06:48:43.612239 32543 net.cpp:100] Creating Layer L1_b6_sum_eltwise_top_L1_b6_relu_0_split
I0821 06:48:43.612244 32543 net.cpp:434] L1_b6_sum_eltwise_top_L1_b6_relu_0_split <- L1_b6_sum_eltwise_top
I0821 06:48:43.612251 32543 net.cpp:408] L1_b6_sum_eltwise_top_L1_b6_relu_0_split -> L1_b6_sum_eltwise_top_L1_b6_relu_0_split_0
I0821 06:48:43.612262 32543 net.cpp:408] L1_b6_sum_eltwise_top_L1_b6_relu_0_split -> L1_b6_sum_eltwise_top_L1_b6_relu_0_split_1
I0821 06:48:43.612308 32543 net.cpp:150] Setting up L1_b6_sum_eltwise_top_L1_b6_relu_0_split
I0821 06:48:43.612318 32543 net.cpp:157] Top shape: 125 16 32 32 (2048000)
I0821 06:48:43.612325 32543 net.cpp:157] Top shape: 125 16 32 32 (2048000)
I0821 06:48:43.612330 32543 net.cpp:165] Memory required for data: 591361500
I0821 06:48:43.612335 32543 layer_factory.hpp:77] Creating layer L1_b7_cbr1_conv
I0821 06:48:43.612349 32543 net.cpp:100] Creating Layer L1_b7_cbr1_conv
I0821 06:48:43.612355 32543 net.cpp:434] L1_b7_cbr1_conv <- L1_b6_sum_eltwise_top_L1_b6_relu_0_split_0
I0821 06:48:43.612365 32543 net.cpp:408] L1_b7_cbr1_conv -> L1_b7_cbr1_conv_top
I0821 06:48:43.612680 32543 net.cpp:150] Setting up L1_b7_cbr1_conv
I0821 06:48:43.612694 32543 net.cpp:157] Top shape: 125 16 32 32 (2048000)
I0821 06:48:43.612699 32543 net.cpp:165] Memory required for data: 599553500
I0821 06:48:43.612709 32543 layer_factory.hpp:77] Creating layer L1_b7_cbr1_bn
I0821 06:48:43.612720 32543 net.cpp:100] Creating Layer L1_b7_cbr1_bn
I0821 06:48:43.612726 32543 net.cpp:434] L1_b7_cbr1_bn <- L1_b7_cbr1_conv_top
I0821 06:48:43.612735 32543 net.cpp:408] L1_b7_cbr1_bn -> L1_b7_cbr1_bn_top
I0821 06:48:43.612973 32543 net.cpp:150] Setting up L1_b7_cbr1_bn
I0821 06:48:43.612987 32543 net.cpp:157] Top shape: 125 16 32 32 (2048000)
I0821 06:48:43.612992 32543 net.cpp:165] Memory required for data: 607745500
I0821 06:48:43.613001 32543 layer_factory.hpp:77] Creating layer L1_b7_cbr1_scale
I0821 06:48:43.613010 32543 net.cpp:100] Creating Layer L1_b7_cbr1_scale
I0821 06:48:43.613016 32543 net.cpp:434] L1_b7_cbr1_scale <- L1_b7_cbr1_bn_top
I0821 06:48:43.613024 32543 net.cpp:395] L1_b7_cbr1_scale -> L1_b7_cbr1_bn_top (in-place)
I0821 06:48:43.613080 32543 layer_factory.hpp:77] Creating layer L1_b7_cbr1_scale
I0821 06:48:43.613227 32543 net.cpp:150] Setting up L1_b7_cbr1_scale
I0821 06:48:43.613241 32543 net.cpp:157] Top shape: 125 16 32 32 (2048000)
I0821 06:48:43.613246 32543 net.cpp:165] Memory required for data: 615937500
I0821 06:48:43.613255 32543 layer_factory.hpp:77] Creating layer L1_b7_cbr1_relu
I0821 06:48:43.613263 32543 net.cpp:100] Creating Layer L1_b7_cbr1_relu
I0821 06:48:43.613270 32543 net.cpp:434] L1_b7_cbr1_relu <- L1_b7_cbr1_bn_top
I0821 06:48:43.613281 32543 net.cpp:395] L1_b7_cbr1_relu -> L1_b7_cbr1_bn_top (in-place)
I0821 06:48:43.613291 32543 net.cpp:150] Setting up L1_b7_cbr1_relu
I0821 06:48:43.613297 32543 net.cpp:157] Top shape: 125 16 32 32 (2048000)
I0821 06:48:43.613301 32543 net.cpp:165] Memory required for data: 624129500
I0821 06:48:43.613306 32543 layer_factory.hpp:77] Creating layer L1_b7_cbr2_conv
I0821 06:48:43.613320 32543 net.cpp:100] Creating Layer L1_b7_cbr2_conv
I0821 06:48:43.613327 32543 net.cpp:434] L1_b7_cbr2_conv <- L1_b7_cbr1_bn_top
I0821 06:48:43.613334 32543 net.cpp:408] L1_b7_cbr2_conv -> L1_b7_cbr2_conv_top
I0821 06:48:43.613651 32543 net.cpp:150] Setting up L1_b7_cbr2_conv
I0821 06:48:43.613664 32543 net.cpp:157] Top shape: 125 16 32 32 (2048000)
I0821 06:48:43.613669 32543 net.cpp:165] Memory required for data: 632321500
I0821 06:48:43.613685 32543 layer_factory.hpp:77] Creating layer L1_b7_cbr2_bn
I0821 06:48:43.613698 32543 net.cpp:100] Creating Layer L1_b7_cbr2_bn
I0821 06:48:43.613703 32543 net.cpp:434] L1_b7_cbr2_bn <- L1_b7_cbr2_conv_top
I0821 06:48:43.613713 32543 net.cpp:408] L1_b7_cbr2_bn -> L1_b7_cbr2_bn_top
I0821 06:48:43.613950 32543 net.cpp:150] Setting up L1_b7_cbr2_bn
I0821 06:48:43.613966 32543 net.cpp:157] Top shape: 125 16 32 32 (2048000)
I0821 06:48:43.613971 32543 net.cpp:165] Memory required for data: 640513500
I0821 06:48:43.613981 32543 layer_factory.hpp:77] Creating layer L1_b7_cbr2_scale
I0821 06:48:43.613991 32543 net.cpp:100] Creating Layer L1_b7_cbr2_scale
I0821 06:48:43.613996 32543 net.cpp:434] L1_b7_cbr2_scale <- L1_b7_cbr2_bn_top
I0821 06:48:43.614004 32543 net.cpp:395] L1_b7_cbr2_scale -> L1_b7_cbr2_bn_top (in-place)
I0821 06:48:43.614058 32543 layer_factory.hpp:77] Creating layer L1_b7_cbr2_scale
I0821 06:48:43.614204 32543 net.cpp:150] Setting up L1_b7_cbr2_scale
I0821 06:48:43.614218 32543 net.cpp:157] Top shape: 125 16 32 32 (2048000)
I0821 06:48:43.614223 32543 net.cpp:165] Memory required for data: 648705500
I0821 06:48:43.614233 32543 layer_factory.hpp:77] Creating layer L1_b7_sum_eltwise
I0821 06:48:43.614244 32543 net.cpp:100] Creating Layer L1_b7_sum_eltwise
I0821 06:48:43.614250 32543 net.cpp:434] L1_b7_sum_eltwise <- L1_b7_cbr2_bn_top
I0821 06:48:43.614258 32543 net.cpp:434] L1_b7_sum_eltwise <- L1_b6_sum_eltwise_top_L1_b6_relu_0_split_1
I0821 06:48:43.614267 32543 net.cpp:408] L1_b7_sum_eltwise -> L1_b7_sum_eltwise_top
I0821 06:48:43.614298 32543 net.cpp:150] Setting up L1_b7_sum_eltwise
I0821 06:48:43.614307 32543 net.cpp:157] Top shape: 125 16 32 32 (2048000)
I0821 06:48:43.614311 32543 net.cpp:165] Memory required for data: 656897500
I0821 06:48:43.614317 32543 layer_factory.hpp:77] Creating layer L1_b7_relu
I0821 06:48:43.614327 32543 net.cpp:100] Creating Layer L1_b7_relu
I0821 06:48:43.614333 32543 net.cpp:434] L1_b7_relu <- L1_b7_sum_eltwise_top
I0821 06:48:43.614341 32543 net.cpp:395] L1_b7_relu -> L1_b7_sum_eltwise_top (in-place)
I0821 06:48:43.614349 32543 net.cpp:150] Setting up L1_b7_relu
I0821 06:48:43.614356 32543 net.cpp:157] Top shape: 125 16 32 32 (2048000)
I0821 06:48:43.614362 32543 net.cpp:165] Memory required for data: 665089500
I0821 06:48:43.614365 32543 layer_factory.hpp:77] Creating layer L1_b7_sum_eltwise_top_L1_b7_relu_0_split
I0821 06:48:43.614372 32543 net.cpp:100] Creating Layer L1_b7_sum_eltwise_top_L1_b7_relu_0_split
I0821 06:48:43.614378 32543 net.cpp:434] L1_b7_sum_eltwise_top_L1_b7_relu_0_split <- L1_b7_sum_eltwise_top
I0821 06:48:43.614385 32543 net.cpp:408] L1_b7_sum_eltwise_top_L1_b7_relu_0_split -> L1_b7_sum_eltwise_top_L1_b7_relu_0_split_0
I0821 06:48:43.614394 32543 net.cpp:408] L1_b7_sum_eltwise_top_L1_b7_relu_0_split -> L1_b7_sum_eltwise_top_L1_b7_relu_0_split_1
I0821 06:48:43.614441 32543 net.cpp:150] Setting up L1_b7_sum_eltwise_top_L1_b7_relu_0_split
I0821 06:48:43.614454 32543 net.cpp:157] Top shape: 125 16 32 32 (2048000)
I0821 06:48:43.614459 32543 net.cpp:157] Top shape: 125 16 32 32 (2048000)
I0821 06:48:43.614464 32543 net.cpp:165] Memory required for data: 681473500
I0821 06:48:43.614470 32543 layer_factory.hpp:77] Creating layer L1_b8_cbr1_conv
I0821 06:48:43.614482 32543 net.cpp:100] Creating Layer L1_b8_cbr1_conv
I0821 06:48:43.614490 32543 net.cpp:434] L1_b8_cbr1_conv <- L1_b7_sum_eltwise_top_L1_b7_relu_0_split_0
I0821 06:48:43.614497 32543 net.cpp:408] L1_b8_cbr1_conv -> L1_b8_cbr1_conv_top
I0821 06:48:43.614814 32543 net.cpp:150] Setting up L1_b8_cbr1_conv
I0821 06:48:43.614827 32543 net.cpp:157] Top shape: 125 16 32 32 (2048000)
I0821 06:48:43.614832 32543 net.cpp:165] Memory required for data: 689665500
I0821 06:48:43.614841 32543 layer_factory.hpp:77] Creating layer L1_b8_cbr1_bn
I0821 06:48:43.614855 32543 net.cpp:100] Creating Layer L1_b8_cbr1_bn
I0821 06:48:43.614861 32543 net.cpp:434] L1_b8_cbr1_bn <- L1_b8_cbr1_conv_top
I0821 06:48:43.614869 32543 net.cpp:408] L1_b8_cbr1_bn -> L1_b8_cbr1_bn_top
I0821 06:48:43.615128 32543 net.cpp:150] Setting up L1_b8_cbr1_bn
I0821 06:48:43.615141 32543 net.cpp:157] Top shape: 125 16 32 32 (2048000)
I0821 06:48:43.615146 32543 net.cpp:165] Memory required for data: 697857500
I0821 06:48:43.615156 32543 layer_factory.hpp:77] Creating layer L1_b8_cbr1_scale
I0821 06:48:43.615165 32543 net.cpp:100] Creating Layer L1_b8_cbr1_scale
I0821 06:48:43.615171 32543 net.cpp:434] L1_b8_cbr1_scale <- L1_b8_cbr1_bn_top
I0821 06:48:43.615180 32543 net.cpp:395] L1_b8_cbr1_scale -> L1_b8_cbr1_bn_top (in-place)
I0821 06:48:43.615234 32543 layer_factory.hpp:77] Creating layer L1_b8_cbr1_scale
I0821 06:48:43.615381 32543 net.cpp:150] Setting up L1_b8_cbr1_scale
I0821 06:48:43.615393 32543 net.cpp:157] Top shape: 125 16 32 32 (2048000)
I0821 06:48:43.615398 32543 net.cpp:165] Memory required for data: 706049500
I0821 06:48:43.615407 32543 layer_factory.hpp:77] Creating layer L1_b8_cbr1_relu
I0821 06:48:43.615416 32543 net.cpp:100] Creating Layer L1_b8_cbr1_relu
I0821 06:48:43.615422 32543 net.cpp:434] L1_b8_cbr1_relu <- L1_b8_cbr1_bn_top
I0821 06:48:43.615432 32543 net.cpp:395] L1_b8_cbr1_relu -> L1_b8_cbr1_bn_top (in-place)
I0821 06:48:43.615440 32543 net.cpp:150] Setting up L1_b8_cbr1_relu
I0821 06:48:43.615447 32543 net.cpp:157] Top shape: 125 16 32 32 (2048000)
I0821 06:48:43.615453 32543 net.cpp:165] Memory required for data: 714241500
I0821 06:48:43.615458 32543 layer_factory.hpp:77] Creating layer L1_b8_cbr2_conv
I0821 06:48:43.615468 32543 net.cpp:100] Creating Layer L1_b8_cbr2_conv
I0821 06:48:43.615473 32543 net.cpp:434] L1_b8_cbr2_conv <- L1_b8_cbr1_bn_top
I0821 06:48:43.615484 32543 net.cpp:408] L1_b8_cbr2_conv -> L1_b8_cbr2_conv_top
I0821 06:48:43.615805 32543 net.cpp:150] Setting up L1_b8_cbr2_conv
I0821 06:48:43.615818 32543 net.cpp:157] Top shape: 125 16 32 32 (2048000)
I0821 06:48:43.615823 32543 net.cpp:165] Memory required for data: 722433500
I0821 06:48:43.615833 32543 layer_factory.hpp:77] Creating layer L1_b8_cbr2_bn
I0821 06:48:43.615841 32543 net.cpp:100] Creating Layer L1_b8_cbr2_bn
I0821 06:48:43.615847 32543 net.cpp:434] L1_b8_cbr2_bn <- L1_b8_cbr2_conv_top
I0821 06:48:43.615859 32543 net.cpp:408] L1_b8_cbr2_bn -> L1_b8_cbr2_bn_top
I0821 06:48:43.616107 32543 net.cpp:150] Setting up L1_b8_cbr2_bn
I0821 06:48:43.616128 32543 net.cpp:157] Top shape: 125 16 32 32 (2048000)
I0821 06:48:43.616134 32543 net.cpp:165] Memory required for data: 730625500
I0821 06:48:43.616145 32543 layer_factory.hpp:77] Creating layer L1_b8_cbr2_scale
I0821 06:48:43.616154 32543 net.cpp:100] Creating Layer L1_b8_cbr2_scale
I0821 06:48:43.616160 32543 net.cpp:434] L1_b8_cbr2_scale <- L1_b8_cbr2_bn_top
I0821 06:48:43.616168 32543 net.cpp:395] L1_b8_cbr2_scale -> L1_b8_cbr2_bn_top (in-place)
I0821 06:48:43.616220 32543 layer_factory.hpp:77] Creating layer L1_b8_cbr2_scale
I0821 06:48:43.616361 32543 net.cpp:150] Setting up L1_b8_cbr2_scale
I0821 06:48:43.616374 32543 net.cpp:157] Top shape: 125 16 32 32 (2048000)
I0821 06:48:43.616379 32543 net.cpp:165] Memory required for data: 738817500
I0821 06:48:43.616389 32543 layer_factory.hpp:77] Creating layer L1_b8_sum_eltwise
I0821 06:48:43.616400 32543 net.cpp:100] Creating Layer L1_b8_sum_eltwise
I0821 06:48:43.616406 32543 net.cpp:434] L1_b8_sum_eltwise <- L1_b8_cbr2_bn_top
I0821 06:48:43.616413 32543 net.cpp:434] L1_b8_sum_eltwise <- L1_b7_sum_eltwise_top_L1_b7_relu_0_split_1
I0821 06:48:43.616425 32543 net.cpp:408] L1_b8_sum_eltwise -> L1_b8_sum_eltwise_top
I0821 06:48:43.616456 32543 net.cpp:150] Setting up L1_b8_sum_eltwise
I0821 06:48:43.616466 32543 net.cpp:157] Top shape: 125 16 32 32 (2048000)
I0821 06:48:43.616469 32543 net.cpp:165] Memory required for data: 747009500
I0821 06:48:43.616474 32543 layer_factory.hpp:77] Creating layer L1_b8_relu
I0821 06:48:43.616482 32543 net.cpp:100] Creating Layer L1_b8_relu
I0821 06:48:43.616487 32543 net.cpp:434] L1_b8_relu <- L1_b8_sum_eltwise_top
I0821 06:48:43.616497 32543 net.cpp:395] L1_b8_relu -> L1_b8_sum_eltwise_top (in-place)
I0821 06:48:43.616508 32543 net.cpp:150] Setting up L1_b8_relu
I0821 06:48:43.616514 32543 net.cpp:157] Top shape: 125 16 32 32 (2048000)
I0821 06:48:43.616524 32543 net.cpp:165] Memory required for data: 755201500
I0821 06:48:43.616529 32543 layer_factory.hpp:77] Creating layer L1_b8_sum_eltwise_top_L1_b8_relu_0_split
I0821 06:48:43.616538 32543 net.cpp:100] Creating Layer L1_b8_sum_eltwise_top_L1_b8_relu_0_split
I0821 06:48:43.616542 32543 net.cpp:434] L1_b8_sum_eltwise_top_L1_b8_relu_0_split <- L1_b8_sum_eltwise_top
I0821 06:48:43.616550 32543 net.cpp:408] L1_b8_sum_eltwise_top_L1_b8_relu_0_split -> L1_b8_sum_eltwise_top_L1_b8_relu_0_split_0
I0821 06:48:43.616559 32543 net.cpp:408] L1_b8_sum_eltwise_top_L1_b8_relu_0_split -> L1_b8_sum_eltwise_top_L1_b8_relu_0_split_1
I0821 06:48:43.616605 32543 net.cpp:150] Setting up L1_b8_sum_eltwise_top_L1_b8_relu_0_split
I0821 06:48:43.616617 32543 net.cpp:157] Top shape: 125 16 32 32 (2048000)
I0821 06:48:43.616624 32543 net.cpp:157] Top shape: 125 16 32 32 (2048000)
I0821 06:48:43.616628 32543 net.cpp:165] Memory required for data: 771585500
I0821 06:48:43.616633 32543 layer_factory.hpp:77] Creating layer L1_b9_cbr1_conv
I0821 06:48:43.616647 32543 net.cpp:100] Creating Layer L1_b9_cbr1_conv
I0821 06:48:43.616653 32543 net.cpp:434] L1_b9_cbr1_conv <- L1_b8_sum_eltwise_top_L1_b8_relu_0_split_0
I0821 06:48:43.616662 32543 net.cpp:408] L1_b9_cbr1_conv -> L1_b9_cbr1_conv_top
I0821 06:48:43.616987 32543 net.cpp:150] Setting up L1_b9_cbr1_conv
I0821 06:48:43.617004 32543 net.cpp:157] Top shape: 125 16 32 32 (2048000)
I0821 06:48:43.617009 32543 net.cpp:165] Memory required for data: 779777500
I0821 06:48:43.617018 32543 layer_factory.hpp:77] Creating layer L1_b9_cbr1_bn
I0821 06:48:43.617030 32543 net.cpp:100] Creating Layer L1_b9_cbr1_bn
I0821 06:48:43.617036 32543 net.cpp:434] L1_b9_cbr1_bn <- L1_b9_cbr1_conv_top
I0821 06:48:43.617044 32543 net.cpp:408] L1_b9_cbr1_bn -> L1_b9_cbr1_bn_top
I0821 06:48:43.617297 32543 net.cpp:150] Setting up L1_b9_cbr1_bn
I0821 06:48:43.617311 32543 net.cpp:157] Top shape: 125 16 32 32 (2048000)
I0821 06:48:43.617316 32543 net.cpp:165] Memory required for data: 787969500
I0821 06:48:43.617327 32543 layer_factory.hpp:77] Creating layer L1_b9_cbr1_scale
I0821 06:48:43.617336 32543 net.cpp:100] Creating Layer L1_b9_cbr1_scale
I0821 06:48:43.617341 32543 net.cpp:434] L1_b9_cbr1_scale <- L1_b9_cbr1_bn_top
I0821 06:48:43.617352 32543 net.cpp:395] L1_b9_cbr1_scale -> L1_b9_cbr1_bn_top (in-place)
I0821 06:48:43.617406 32543 layer_factory.hpp:77] Creating layer L1_b9_cbr1_scale
I0821 06:48:43.617552 32543 net.cpp:150] Setting up L1_b9_cbr1_scale
I0821 06:48:43.617568 32543 net.cpp:157] Top shape: 125 16 32 32 (2048000)
I0821 06:48:43.617573 32543 net.cpp:165] Memory required for data: 796161500
I0821 06:48:43.617581 32543 layer_factory.hpp:77] Creating layer L1_b9_cbr1_relu
I0821 06:48:43.617589 32543 net.cpp:100] Creating Layer L1_b9_cbr1_relu
I0821 06:48:43.617595 32543 net.cpp:434] L1_b9_cbr1_relu <- L1_b9_cbr1_bn_top
I0821 06:48:43.617602 32543 net.cpp:395] L1_b9_cbr1_relu -> L1_b9_cbr1_bn_top (in-place)
I0821 06:48:43.617611 32543 net.cpp:150] Setting up L1_b9_cbr1_relu
I0821 06:48:43.617619 32543 net.cpp:157] Top shape: 125 16 32 32 (2048000)
I0821 06:48:43.617624 32543 net.cpp:165] Memory required for data: 804353500
I0821 06:48:43.617627 32543 layer_factory.hpp:77] Creating layer L1_b9_cbr2_conv
I0821 06:48:43.617641 32543 net.cpp:100] Creating Layer L1_b9_cbr2_conv
I0821 06:48:43.617647 32543 net.cpp:434] L1_b9_cbr2_conv <- L1_b9_cbr1_bn_top
I0821 06:48:43.617658 32543 net.cpp:408] L1_b9_cbr2_conv -> L1_b9_cbr2_conv_top
I0821 06:48:43.617985 32543 net.cpp:150] Setting up L1_b9_cbr2_conv
I0821 06:48:43.618000 32543 net.cpp:157] Top shape: 125 16 32 32 (2048000)
I0821 06:48:43.618005 32543 net.cpp:165] Memory required for data: 812545500
I0821 06:48:43.618012 32543 layer_factory.hpp:77] Creating layer L1_b9_cbr2_bn
I0821 06:48:43.618024 32543 net.cpp:100] Creating Layer L1_b9_cbr2_bn
I0821 06:48:43.618031 32543 net.cpp:434] L1_b9_cbr2_bn <- L1_b9_cbr2_conv_top
I0821 06:48:43.618041 32543 net.cpp:408] L1_b9_cbr2_bn -> L1_b9_cbr2_bn_top
I0821 06:48:43.618295 32543 net.cpp:150] Setting up L1_b9_cbr2_bn
I0821 06:48:43.618309 32543 net.cpp:157] Top shape: 125 16 32 32 (2048000)
I0821 06:48:43.618314 32543 net.cpp:165] Memory required for data: 820737500
I0821 06:48:43.618345 32543 layer_factory.hpp:77] Creating layer L1_b9_cbr2_scale
I0821 06:48:43.618355 32543 net.cpp:100] Creating Layer L1_b9_cbr2_scale
I0821 06:48:43.618361 32543 net.cpp:434] L1_b9_cbr2_scale <- L1_b9_cbr2_bn_top
I0821 06:48:43.618371 32543 net.cpp:395] L1_b9_cbr2_scale -> L1_b9_cbr2_bn_top (in-place)
I0821 06:48:43.618427 32543 layer_factory.hpp:77] Creating layer L1_b9_cbr2_scale
I0821 06:48:43.618568 32543 net.cpp:150] Setting up L1_b9_cbr2_scale
I0821 06:48:43.618582 32543 net.cpp:157] Top shape: 125 16 32 32 (2048000)
I0821 06:48:43.618587 32543 net.cpp:165] Memory required for data: 828929500
I0821 06:48:43.618595 32543 layer_factory.hpp:77] Creating layer L1_b9_sum_eltwise
I0821 06:48:43.618604 32543 net.cpp:100] Creating Layer L1_b9_sum_eltwise
I0821 06:48:43.618610 32543 net.cpp:434] L1_b9_sum_eltwise <- L1_b9_cbr2_bn_top
I0821 06:48:43.618618 32543 net.cpp:434] L1_b9_sum_eltwise <- L1_b8_sum_eltwise_top_L1_b8_relu_0_split_1
I0821 06:48:43.618624 32543 net.cpp:408] L1_b9_sum_eltwise -> L1_b9_sum_eltwise_top
I0821 06:48:43.618655 32543 net.cpp:150] Setting up L1_b9_sum_eltwise
I0821 06:48:43.618664 32543 net.cpp:157] Top shape: 125 16 32 32 (2048000)
I0821 06:48:43.618669 32543 net.cpp:165] Memory required for data: 837121500
I0821 06:48:43.618674 32543 layer_factory.hpp:77] Creating layer L1_b9_relu
I0821 06:48:43.618685 32543 net.cpp:100] Creating Layer L1_b9_relu
I0821 06:48:43.618691 32543 net.cpp:434] L1_b9_relu <- L1_b9_sum_eltwise_top
I0821 06:48:43.618698 32543 net.cpp:395] L1_b9_relu -> L1_b9_sum_eltwise_top (in-place)
I0821 06:48:43.618707 32543 net.cpp:150] Setting up L1_b9_relu
I0821 06:48:43.618715 32543 net.cpp:157] Top shape: 125 16 32 32 (2048000)
I0821 06:48:43.618718 32543 net.cpp:165] Memory required for data: 845313500
I0821 06:48:43.618723 32543 layer_factory.hpp:77] Creating layer L1_b9_sum_eltwise_top_L1_b9_relu_0_split
I0821 06:48:43.618734 32543 net.cpp:100] Creating Layer L1_b9_sum_eltwise_top_L1_b9_relu_0_split
I0821 06:48:43.618741 32543 net.cpp:434] L1_b9_sum_eltwise_top_L1_b9_relu_0_split <- L1_b9_sum_eltwise_top
I0821 06:48:43.618747 32543 net.cpp:408] L1_b9_sum_eltwise_top_L1_b9_relu_0_split -> L1_b9_sum_eltwise_top_L1_b9_relu_0_split_0
I0821 06:48:43.618757 32543 net.cpp:408] L1_b9_sum_eltwise_top_L1_b9_relu_0_split -> L1_b9_sum_eltwise_top_L1_b9_relu_0_split_1
I0821 06:48:43.618804 32543 net.cpp:150] Setting up L1_b9_sum_eltwise_top_L1_b9_relu_0_split
I0821 06:48:43.618816 32543 net.cpp:157] Top shape: 125 16 32 32 (2048000)
I0821 06:48:43.618824 32543 net.cpp:157] Top shape: 125 16 32 32 (2048000)
I0821 06:48:43.618827 32543 net.cpp:165] Memory required for data: 861697500
I0821 06:48:43.618832 32543 layer_factory.hpp:77] Creating layer L2_b1_cbr1_conv
I0821 06:48:43.618846 32543 net.cpp:100] Creating Layer L2_b1_cbr1_conv
I0821 06:48:43.618852 32543 net.cpp:434] L2_b1_cbr1_conv <- L1_b9_sum_eltwise_top_L1_b9_relu_0_split_0
I0821 06:48:43.618861 32543 net.cpp:408] L2_b1_cbr1_conv -> L2_b1_cbr1_conv_top
I0821 06:48:43.619194 32543 net.cpp:150] Setting up L2_b1_cbr1_conv
I0821 06:48:43.619209 32543 net.cpp:157] Top shape: 125 16 16 16 (512000)
I0821 06:48:43.619215 32543 net.cpp:165] Memory required for data: 863745500
I0821 06:48:43.619223 32543 layer_factory.hpp:77] Creating layer L2_b1_cbr1_bn
I0821 06:48:43.619235 32543 net.cpp:100] Creating Layer L2_b1_cbr1_bn
I0821 06:48:43.619241 32543 net.cpp:434] L2_b1_cbr1_bn <- L2_b1_cbr1_conv_top
I0821 06:48:43.619252 32543 net.cpp:408] L2_b1_cbr1_bn -> L2_b1_cbr1_bn_top
I0821 06:48:43.619490 32543 net.cpp:150] Setting up L2_b1_cbr1_bn
I0821 06:48:43.619503 32543 net.cpp:157] Top shape: 125 16 16 16 (512000)
I0821 06:48:43.619508 32543 net.cpp:165] Memory required for data: 865793500
I0821 06:48:43.619518 32543 layer_factory.hpp:77] Creating layer L2_b1_cbr1_scale
I0821 06:48:43.619527 32543 net.cpp:100] Creating Layer L2_b1_cbr1_scale
I0821 06:48:43.619540 32543 net.cpp:434] L2_b1_cbr1_scale <- L2_b1_cbr1_bn_top
I0821 06:48:43.619549 32543 net.cpp:395] L2_b1_cbr1_scale -> L2_b1_cbr1_bn_top (in-place)
I0821 06:48:43.619604 32543 layer_factory.hpp:77] Creating layer L2_b1_cbr1_scale
I0821 06:48:43.619743 32543 net.cpp:150] Setting up L2_b1_cbr1_scale
I0821 06:48:43.619755 32543 net.cpp:157] Top shape: 125 16 16 16 (512000)
I0821 06:48:43.619760 32543 net.cpp:165] Memory required for data: 867841500
I0821 06:48:43.619770 32543 layer_factory.hpp:77] Creating layer L2_b1_cbr1_relu
I0821 06:48:43.619781 32543 net.cpp:100] Creating Layer L2_b1_cbr1_relu
I0821 06:48:43.619786 32543 net.cpp:434] L2_b1_cbr1_relu <- L2_b1_cbr1_bn_top
I0821 06:48:43.619793 32543 net.cpp:395] L2_b1_cbr1_relu -> L2_b1_cbr1_bn_top (in-place)
I0821 06:48:43.619803 32543 net.cpp:150] Setting up L2_b1_cbr1_relu
I0821 06:48:43.619809 32543 net.cpp:157] Top shape: 125 16 16 16 (512000)
I0821 06:48:43.619814 32543 net.cpp:165] Memory required for data: 869889500
I0821 06:48:43.619819 32543 layer_factory.hpp:77] Creating layer L2_b1_cbr2_conv
I0821 06:48:43.619833 32543 net.cpp:100] Creating Layer L2_b1_cbr2_conv
I0821 06:48:43.619839 32543 net.cpp:434] L2_b1_cbr2_conv <- L2_b1_cbr1_bn_top
I0821 06:48:43.619848 32543 net.cpp:408] L2_b1_cbr2_conv -> L2_b1_cbr2_conv_top
I0821 06:48:43.620177 32543 net.cpp:150] Setting up L2_b1_cbr2_conv
I0821 06:48:43.620192 32543 net.cpp:157] Top shape: 125 16 16 16 (512000)
I0821 06:48:43.620196 32543 net.cpp:165] Memory required for data: 871937500
I0821 06:48:43.620205 32543 layer_factory.hpp:77] Creating layer L2_b1_cbr2_bn
I0821 06:48:43.620218 32543 net.cpp:100] Creating Layer L2_b1_cbr2_bn
I0821 06:48:43.620223 32543 net.cpp:434] L2_b1_cbr2_bn <- L2_b1_cbr2_conv_top
I0821 06:48:43.620232 32543 net.cpp:408] L2_b1_cbr2_bn -> L2_b1_cbr2_bn_top
I0821 06:48:43.620477 32543 net.cpp:150] Setting up L2_b1_cbr2_bn
I0821 06:48:43.620493 32543 net.cpp:157] Top shape: 125 16 16 16 (512000)
I0821 06:48:43.620498 32543 net.cpp:165] Memory required for data: 873985500
I0821 06:48:43.620508 32543 layer_factory.hpp:77] Creating layer L2_b1_cbr2_scale
I0821 06:48:43.620517 32543 net.cpp:100] Creating Layer L2_b1_cbr2_scale
I0821 06:48:43.620522 32543 net.cpp:434] L2_b1_cbr2_scale <- L2_b1_cbr2_bn_top
I0821 06:48:43.620530 32543 net.cpp:395] L2_b1_cbr2_scale -> L2_b1_cbr2_bn_top (in-place)
I0821 06:48:43.620584 32543 layer_factory.hpp:77] Creating layer L2_b1_cbr2_scale
I0821 06:48:43.620731 32543 net.cpp:150] Setting up L2_b1_cbr2_scale
I0821 06:48:43.620744 32543 net.cpp:157] Top shape: 125 16 16 16 (512000)
I0821 06:48:43.620749 32543 net.cpp:165] Memory required for data: 876033500
I0821 06:48:43.620759 32543 layer_factory.hpp:77] Creating layer L2_b1_pool
I0821 06:48:43.620769 32543 net.cpp:100] Creating Layer L2_b1_pool
I0821 06:48:43.620775 32543 net.cpp:434] L2_b1_pool <- L1_b9_sum_eltwise_top_L1_b9_relu_0_split_1
I0821 06:48:43.620786 32543 net.cpp:408] L2_b1_pool -> L2_b1_pool
I0821 06:48:43.620872 32543 net.cpp:150] Setting up L2_b1_pool
I0821 06:48:43.620887 32543 net.cpp:157] Top shape: 125 16 16 16 (512000)
I0821 06:48:43.620893 32543 net.cpp:165] Memory required for data: 878081500
I0821 06:48:43.620898 32543 layer_factory.hpp:77] Creating layer L2_b1_sum_eltwise
I0821 06:48:43.620910 32543 net.cpp:100] Creating Layer L2_b1_sum_eltwise
I0821 06:48:43.620918 32543 net.cpp:434] L2_b1_sum_eltwise <- L2_b1_cbr2_bn_top
I0821 06:48:43.620924 32543 net.cpp:434] L2_b1_sum_eltwise <- L2_b1_pool
I0821 06:48:43.620931 32543 net.cpp:408] L2_b1_sum_eltwise -> L2_b1_sum_eltwise_top
I0821 06:48:43.620965 32543 net.cpp:150] Setting up L2_b1_sum_eltwise
I0821 06:48:43.620973 32543 net.cpp:157] Top shape: 125 16 16 16 (512000)
I0821 06:48:43.620978 32543 net.cpp:165] Memory required for data: 880129500
I0821 06:48:43.620983 32543 layer_factory.hpp:77] Creating layer L2_b1_relu
I0821 06:48:43.620990 32543 net.cpp:100] Creating Layer L2_b1_relu
I0821 06:48:43.620996 32543 net.cpp:434] L2_b1_relu <- L2_b1_sum_eltwise_top
I0821 06:48:43.621007 32543 net.cpp:395] L2_b1_relu -> L2_b1_sum_eltwise_top (in-place)
I0821 06:48:43.621023 32543 net.cpp:150] Setting up L2_b1_relu
I0821 06:48:43.621031 32543 net.cpp:157] Top shape: 125 16 16 16 (512000)
I0821 06:48:43.621035 32543 net.cpp:165] Memory required for data: 882177500
I0821 06:48:43.621040 32543 layer_factory.hpp:77] Creating layer L2_b1_zeros
I0821 06:48:43.621093 32543 net.cpp:100] Creating Layer L2_b1_zeros
I0821 06:48:43.621107 32543 net.cpp:408] L2_b1_zeros -> L2_b1_zeros
I0821 06:48:43.623419 32543 net.cpp:150] Setting up L2_b1_zeros
I0821 06:48:43.623437 32543 net.cpp:157] Top shape: 125 16 16 16 (512000)
I0821 06:48:43.623443 32543 net.cpp:165] Memory required for data: 884225500
I0821 06:48:43.623450 32543 layer_factory.hpp:77] Creating layer L2_b1_concat0
I0821 06:48:43.623462 32543 net.cpp:100] Creating Layer L2_b1_concat0
I0821 06:48:43.623469 32543 net.cpp:434] L2_b1_concat0 <- L2_b1_sum_eltwise_top
I0821 06:48:43.623476 32543 net.cpp:434] L2_b1_concat0 <- L2_b1_zeros
I0821 06:48:43.623484 32543 net.cpp:408] L2_b1_concat0 -> L2_b1_concat0
I0821 06:48:43.623565 32543 net.cpp:150] Setting up L2_b1_concat0
I0821 06:48:43.623580 32543 net.cpp:157] Top shape: 125 32 16 16 (1024000)
I0821 06:48:43.623585 32543 net.cpp:165] Memory required for data: 888321500
I0821 06:48:43.623591 32543 layer_factory.hpp:77] Creating layer L2_b1_concat0_L2_b1_concat0_0_split
I0821 06:48:43.623600 32543 net.cpp:100] Creating Layer L2_b1_concat0_L2_b1_concat0_0_split
I0821 06:48:43.623605 32543 net.cpp:434] L2_b1_concat0_L2_b1_concat0_0_split <- L2_b1_concat0
I0821 06:48:43.623616 32543 net.cpp:408] L2_b1_concat0_L2_b1_concat0_0_split -> L2_b1_concat0_L2_b1_concat0_0_split_0
I0821 06:48:43.623627 32543 net.cpp:408] L2_b1_concat0_L2_b1_concat0_0_split -> L2_b1_concat0_L2_b1_concat0_0_split_1
I0821 06:48:43.623677 32543 net.cpp:150] Setting up L2_b1_concat0_L2_b1_concat0_0_split
I0821 06:48:43.623690 32543 net.cpp:157] Top shape: 125 32 16 16 (1024000)
I0821 06:48:43.623697 32543 net.cpp:157] Top shape: 125 32 16 16 (1024000)
I0821 06:48:43.623702 32543 net.cpp:165] Memory required for data: 896513500
I0821 06:48:43.623708 32543 layer_factory.hpp:77] Creating layer L2_b2_cbr1_conv
I0821 06:48:43.623718 32543 net.cpp:100] Creating Layer L2_b2_cbr1_conv
I0821 06:48:43.623725 32543 net.cpp:434] L2_b2_cbr1_conv <- L2_b1_concat0_L2_b1_concat0_0_split_0
I0821 06:48:43.623734 32543 net.cpp:408] L2_b2_cbr1_conv -> L2_b2_cbr1_conv_top
I0821 06:48:43.625198 32543 net.cpp:150] Setting up L2_b2_cbr1_conv
I0821 06:48:43.625216 32543 net.cpp:157] Top shape: 125 32 16 16 (1024000)
I0821 06:48:43.625221 32543 net.cpp:165] Memory required for data: 900609500
I0821 06:48:43.625231 32543 layer_factory.hpp:77] Creating layer L2_b2_cbr1_bn
I0821 06:48:43.625244 32543 net.cpp:100] Creating Layer L2_b2_cbr1_bn
I0821 06:48:43.625252 32543 net.cpp:434] L2_b2_cbr1_bn <- L2_b2_cbr1_conv_top
I0821 06:48:43.625263 32543 net.cpp:408] L2_b2_cbr1_bn -> L2_b2_cbr1_bn_top
I0821 06:48:43.625505 32543 net.cpp:150] Setting up L2_b2_cbr1_bn
I0821 06:48:43.625519 32543 net.cpp:157] Top shape: 125 32 16 16 (1024000)
I0821 06:48:43.625524 32543 net.cpp:165] Memory required for data: 904705500
I0821 06:48:43.625535 32543 layer_factory.hpp:77] Creating layer L2_b2_cbr1_scale
I0821 06:48:43.625543 32543 net.cpp:100] Creating Layer L2_b2_cbr1_scale
I0821 06:48:43.625550 32543 net.cpp:434] L2_b2_cbr1_scale <- L2_b2_cbr1_bn_top
I0821 06:48:43.625557 32543 net.cpp:395] L2_b2_cbr1_scale -> L2_b2_cbr1_bn_top (in-place)
I0821 06:48:43.625615 32543 layer_factory.hpp:77] Creating layer L2_b2_cbr1_scale
I0821 06:48:43.625761 32543 net.cpp:150] Setting up L2_b2_cbr1_scale
I0821 06:48:43.625774 32543 net.cpp:157] Top shape: 125 32 16 16 (1024000)
I0821 06:48:43.625779 32543 net.cpp:165] Memory required for data: 908801500
I0821 06:48:43.625789 32543 layer_factory.hpp:77] Creating layer L2_b2_cbr1_relu
I0821 06:48:43.625800 32543 net.cpp:100] Creating Layer L2_b2_cbr1_relu
I0821 06:48:43.625807 32543 net.cpp:434] L2_b2_cbr1_relu <- L2_b2_cbr1_bn_top
I0821 06:48:43.625814 32543 net.cpp:395] L2_b2_cbr1_relu -> L2_b2_cbr1_bn_top (in-place)
I0821 06:48:43.625831 32543 net.cpp:150] Setting up L2_b2_cbr1_relu
I0821 06:48:43.625839 32543 net.cpp:157] Top shape: 125 32 16 16 (1024000)
I0821 06:48:43.625844 32543 net.cpp:165] Memory required for data: 912897500
I0821 06:48:43.625849 32543 layer_factory.hpp:77] Creating layer L2_b2_cbr2_conv
I0821 06:48:43.625864 32543 net.cpp:100] Creating Layer L2_b2_cbr2_conv
I0821 06:48:43.625869 32543 net.cpp:434] L2_b2_cbr2_conv <- L2_b2_cbr1_bn_top
I0821 06:48:43.625881 32543 net.cpp:408] L2_b2_cbr2_conv -> L2_b2_cbr2_conv_top
I0821 06:48:43.626379 32543 net.cpp:150] Setting up L2_b2_cbr2_conv
I0821 06:48:43.626394 32543 net.cpp:157] Top shape: 125 32 16 16 (1024000)
I0821 06:48:43.626399 32543 net.cpp:165] Memory required for data: 916993500
I0821 06:48:43.626407 32543 layer_factory.hpp:77] Creating layer L2_b2_cbr2_bn
I0821 06:48:43.626420 32543 net.cpp:100] Creating Layer L2_b2_cbr2_bn
I0821 06:48:43.626426 32543 net.cpp:434] L2_b2_cbr2_bn <- L2_b2_cbr2_conv_top
I0821 06:48:43.626437 32543 net.cpp:408] L2_b2_cbr2_bn -> L2_b2_cbr2_bn_top
I0821 06:48:43.626684 32543 net.cpp:150] Setting up L2_b2_cbr2_bn
I0821 06:48:43.626700 32543 net.cpp:157] Top shape: 125 32 16 16 (1024000)
I0821 06:48:43.626705 32543 net.cpp:165] Memory required for data: 921089500
I0821 06:48:43.626715 32543 layer_factory.hpp:77] Creating layer L2_b2_cbr2_scale
I0821 06:48:43.626724 32543 net.cpp:100] Creating Layer L2_b2_cbr2_scale
I0821 06:48:43.626730 32543 net.cpp:434] L2_b2_cbr2_scale <- L2_b2_cbr2_bn_top
I0821 06:48:43.626739 32543 net.cpp:395] L2_b2_cbr2_scale -> L2_b2_cbr2_bn_top (in-place)
I0821 06:48:43.626792 32543 layer_factory.hpp:77] Creating layer L2_b2_cbr2_scale
I0821 06:48:43.626937 32543 net.cpp:150] Setting up L2_b2_cbr2_scale
I0821 06:48:43.626950 32543 net.cpp:157] Top shape: 125 32 16 16 (1024000)
I0821 06:48:43.626955 32543 net.cpp:165] Memory required for data: 925185500
I0821 06:48:43.626963 32543 layer_factory.hpp:77] Creating layer L2_b2_sum_eltwise
I0821 06:48:43.626973 32543 net.cpp:100] Creating Layer L2_b2_sum_eltwise
I0821 06:48:43.626979 32543 net.cpp:434] L2_b2_sum_eltwise <- L2_b2_cbr2_bn_top
I0821 06:48:43.626989 32543 net.cpp:434] L2_b2_sum_eltwise <- L2_b1_concat0_L2_b1_concat0_0_split_1
I0821 06:48:43.626997 32543 net.cpp:408] L2_b2_sum_eltwise -> L2_b2_sum_eltwise_top
I0821 06:48:43.627023 32543 net.cpp:150] Setting up L2_b2_sum_eltwise
I0821 06:48:43.627032 32543 net.cpp:157] Top shape: 125 32 16 16 (1024000)
I0821 06:48:43.627038 32543 net.cpp:165] Memory required for data: 929281500
I0821 06:48:43.627043 32543 layer_factory.hpp:77] Creating layer L2_b2_relu
I0821 06:48:43.627053 32543 net.cpp:100] Creating Layer L2_b2_relu
I0821 06:48:43.627060 32543 net.cpp:434] L2_b2_relu <- L2_b2_sum_eltwise_top
I0821 06:48:43.627068 32543 net.cpp:395] L2_b2_relu -> L2_b2_sum_eltwise_top (in-place)
I0821 06:48:43.627076 32543 net.cpp:150] Setting up L2_b2_relu
I0821 06:48:43.627082 32543 net.cpp:157] Top shape: 125 32 16 16 (1024000)
I0821 06:48:43.627087 32543 net.cpp:165] Memory required for data: 933377500
I0821 06:48:43.627092 32543 layer_factory.hpp:77] Creating layer L2_b2_sum_eltwise_top_L2_b2_relu_0_split
I0821 06:48:43.627099 32543 net.cpp:100] Creating Layer L2_b2_sum_eltwise_top_L2_b2_relu_0_split
I0821 06:48:43.627104 32543 net.cpp:434] L2_b2_sum_eltwise_top_L2_b2_relu_0_split <- L2_b2_sum_eltwise_top
I0821 06:48:43.627111 32543 net.cpp:408] L2_b2_sum_eltwise_top_L2_b2_relu_0_split -> L2_b2_sum_eltwise_top_L2_b2_relu_0_split_0
I0821 06:48:43.627127 32543 net.cpp:408] L2_b2_sum_eltwise_top_L2_b2_relu_0_split -> L2_b2_sum_eltwise_top_L2_b2_relu_0_split_1
I0821 06:48:43.627177 32543 net.cpp:150] Setting up L2_b2_sum_eltwise_top_L2_b2_relu_0_split
I0821 06:48:43.627188 32543 net.cpp:157] Top shape: 125 32 16 16 (1024000)
I0821 06:48:43.627194 32543 net.cpp:157] Top shape: 125 32 16 16 (1024000)
I0821 06:48:43.627199 32543 net.cpp:165] Memory required for data: 941569500
I0821 06:48:43.627204 32543 layer_factory.hpp:77] Creating layer L2_b3_cbr1_conv
I0821 06:48:43.627226 32543 net.cpp:100] Creating Layer L2_b3_cbr1_conv
I0821 06:48:43.627233 32543 net.cpp:434] L2_b3_cbr1_conv <- L2_b2_sum_eltwise_top_L2_b2_relu_0_split_0
I0821 06:48:43.627243 32543 net.cpp:408] L2_b3_cbr1_conv -> L2_b3_cbr1_conv_top
I0821 06:48:43.627733 32543 net.cpp:150] Setting up L2_b3_cbr1_conv
I0821 06:48:43.627748 32543 net.cpp:157] Top shape: 125 32 16 16 (1024000)
I0821 06:48:43.627753 32543 net.cpp:165] Memory required for data: 945665500
I0821 06:48:43.627760 32543 layer_factory.hpp:77] Creating layer L2_b3_cbr1_bn
I0821 06:48:43.627773 32543 net.cpp:100] Creating Layer L2_b3_cbr1_bn
I0821 06:48:43.627779 32543 net.cpp:434] L2_b3_cbr1_bn <- L2_b3_cbr1_conv_top
I0821 06:48:43.627790 32543 net.cpp:408] L2_b3_cbr1_bn -> L2_b3_cbr1_bn_top
I0821 06:48:43.628031 32543 net.cpp:150] Setting up L2_b3_cbr1_bn
I0821 06:48:43.628044 32543 net.cpp:157] Top shape: 125 32 16 16 (1024000)
I0821 06:48:43.628049 32543 net.cpp:165] Memory required for data: 949761500
I0821 06:48:43.628059 32543 layer_factory.hpp:77] Creating layer L2_b3_cbr1_scale
I0821 06:48:43.628068 32543 net.cpp:100] Creating Layer L2_b3_cbr1_scale
I0821 06:48:43.628074 32543 net.cpp:434] L2_b3_cbr1_scale <- L2_b3_cbr1_bn_top
I0821 06:48:43.628082 32543 net.cpp:395] L2_b3_cbr1_scale -> L2_b3_cbr1_bn_top (in-place)
I0821 06:48:43.628145 32543 layer_factory.hpp:77] Creating layer L2_b3_cbr1_scale
I0821 06:48:43.628294 32543 net.cpp:150] Setting up L2_b3_cbr1_scale
I0821 06:48:43.628309 32543 net.cpp:157] Top shape: 125 32 16 16 (1024000)
I0821 06:48:43.628314 32543 net.cpp:165] Memory required for data: 953857500
I0821 06:48:43.628322 32543 layer_factory.hpp:77] Creating layer L2_b3_cbr1_relu
I0821 06:48:43.628334 32543 net.cpp:100] Creating Layer L2_b3_cbr1_relu
I0821 06:48:43.628340 32543 net.cpp:434] L2_b3_cbr1_relu <- L2_b3_cbr1_bn_top
I0821 06:48:43.628346 32543 net.cpp:395] L2_b3_cbr1_relu -> L2_b3_cbr1_bn_top (in-place)
I0821 06:48:43.628356 32543 net.cpp:150] Setting up L2_b3_cbr1_relu
I0821 06:48:43.628363 32543 net.cpp:157] Top shape: 125 32 16 16 (1024000)
I0821 06:48:43.628367 32543 net.cpp:165] Memory required for data: 957953500
I0821 06:48:43.628372 32543 layer_factory.hpp:77] Creating layer L2_b3_cbr2_conv
I0821 06:48:43.628386 32543 net.cpp:100] Creating Layer L2_b3_cbr2_conv
I0821 06:48:43.628392 32543 net.cpp:434] L2_b3_cbr2_conv <- L2_b3_cbr1_bn_top
I0821 06:48:43.628401 32543 net.cpp:408] L2_b3_cbr2_conv -> L2_b3_cbr2_conv_top
I0821 06:48:43.628883 32543 net.cpp:150] Setting up L2_b3_cbr2_conv
I0821 06:48:43.628896 32543 net.cpp:157] Top shape: 125 32 16 16 (1024000)
I0821 06:48:43.628901 32543 net.cpp:165] Memory required for data: 962049500
I0821 06:48:43.628911 32543 layer_factory.hpp:77] Creating layer L2_b3_cbr2_bn
I0821 06:48:43.628922 32543 net.cpp:100] Creating Layer L2_b3_cbr2_bn
I0821 06:48:43.628929 32543 net.cpp:434] L2_b3_cbr2_bn <- L2_b3_cbr2_conv_top
I0821 06:48:43.628937 32543 net.cpp:408] L2_b3_cbr2_bn -> L2_b3_cbr2_bn_top
I0821 06:48:43.629192 32543 net.cpp:150] Setting up L2_b3_cbr2_bn
I0821 06:48:43.629209 32543 net.cpp:157] Top shape: 125 32 16 16 (1024000)
I0821 06:48:43.629214 32543 net.cpp:165] Memory required for data: 966145500
I0821 06:48:43.629225 32543 layer_factory.hpp:77] Creating layer L2_b3_cbr2_scale
I0821 06:48:43.629233 32543 net.cpp:100] Creating Layer L2_b3_cbr2_scale
I0821 06:48:43.629240 32543 net.cpp:434] L2_b3_cbr2_scale <- L2_b3_cbr2_bn_top
I0821 06:48:43.629247 32543 net.cpp:395] L2_b3_cbr2_scale -> L2_b3_cbr2_bn_top (in-place)
I0821 06:48:43.629302 32543 layer_factory.hpp:77] Creating layer L2_b3_cbr2_scale
I0821 06:48:43.629452 32543 net.cpp:150] Setting up L2_b3_cbr2_scale
I0821 06:48:43.629464 32543 net.cpp:157] Top shape: 125 32 16 16 (1024000)
I0821 06:48:43.629469 32543 net.cpp:165] Memory required for data: 970241500
I0821 06:48:43.629478 32543 layer_factory.hpp:77] Creating layer L2_b3_sum_eltwise
I0821 06:48:43.629487 32543 net.cpp:100] Creating Layer L2_b3_sum_eltwise
I0821 06:48:43.629493 32543 net.cpp:434] L2_b3_sum_eltwise <- L2_b3_cbr2_bn_top
I0821 06:48:43.629500 32543 net.cpp:434] L2_b3_sum_eltwise <- L2_b2_sum_eltwise_top_L2_b2_relu_0_split_1
I0821 06:48:43.629519 32543 net.cpp:408] L2_b3_sum_eltwise -> L2_b3_sum_eltwise_top
I0821 06:48:43.629547 32543 net.cpp:150] Setting up L2_b3_sum_eltwise
I0821 06:48:43.629557 32543 net.cpp:157] Top shape: 125 32 16 16 (1024000)
I0821 06:48:43.629561 32543 net.cpp:165] Memory required for data: 974337500
I0821 06:48:43.629567 32543 layer_factory.hpp:77] Creating layer L2_b3_relu
I0821 06:48:43.629590 32543 net.cpp:100] Creating Layer L2_b3_relu
I0821 06:48:43.629596 32543 net.cpp:434] L2_b3_relu <- L2_b3_sum_eltwise_top
I0821 06:48:43.629603 32543 net.cpp:395] L2_b3_relu -> L2_b3_sum_eltwise_top (in-place)
I0821 06:48:43.629612 32543 net.cpp:150] Setting up L2_b3_relu
I0821 06:48:43.629619 32543 net.cpp:157] Top shape: 125 32 16 16 (1024000)
I0821 06:48:43.629624 32543 net.cpp:165] Memory required for data: 978433500
I0821 06:48:43.629629 32543 layer_factory.hpp:77] Creating layer L2_b3_sum_eltwise_top_L2_b3_relu_0_split
I0821 06:48:43.629637 32543 net.cpp:100] Creating Layer L2_b3_sum_eltwise_top_L2_b3_relu_0_split
I0821 06:48:43.629642 32543 net.cpp:434] L2_b3_sum_eltwise_top_L2_b3_relu_0_split <- L2_b3_sum_eltwise_top
I0821 06:48:43.629649 32543 net.cpp:408] L2_b3_sum_eltwise_top_L2_b3_relu_0_split -> L2_b3_sum_eltwise_top_L2_b3_relu_0_split_0
I0821 06:48:43.629658 32543 net.cpp:408] L2_b3_sum_eltwise_top_L2_b3_relu_0_split -> L2_b3_sum_eltwise_top_L2_b3_relu_0_split_1
I0821 06:48:43.629707 32543 net.cpp:150] Setting up L2_b3_sum_eltwise_top_L2_b3_relu_0_split
I0821 06:48:43.629719 32543 net.cpp:157] Top shape: 125 32 16 16 (1024000)
I0821 06:48:43.629725 32543 net.cpp:157] Top shape: 125 32 16 16 (1024000)
I0821 06:48:43.629730 32543 net.cpp:165] Memory required for data: 986625500
I0821 06:48:43.629735 32543 layer_factory.hpp:77] Creating layer L2_b4_cbr1_conv
I0821 06:48:43.629746 32543 net.cpp:100] Creating Layer L2_b4_cbr1_conv
I0821 06:48:43.629752 32543 net.cpp:434] L2_b4_cbr1_conv <- L2_b3_sum_eltwise_top_L2_b3_relu_0_split_0
I0821 06:48:43.629766 32543 net.cpp:408] L2_b4_cbr1_conv -> L2_b4_cbr1_conv_top
I0821 06:48:43.630259 32543 net.cpp:150] Setting up L2_b4_cbr1_conv
I0821 06:48:43.630273 32543 net.cpp:157] Top shape: 125 32 16 16 (1024000)
I0821 06:48:43.630278 32543 net.cpp:165] Memory required for data: 990721500
I0821 06:48:43.630287 32543 layer_factory.hpp:77] Creating layer L2_b4_cbr1_bn
I0821 06:48:43.630297 32543 net.cpp:100] Creating Layer L2_b4_cbr1_bn
I0821 06:48:43.630303 32543 net.cpp:434] L2_b4_cbr1_bn <- L2_b4_cbr1_conv_top
I0821 06:48:43.630316 32543 net.cpp:408] L2_b4_cbr1_bn -> L2_b4_cbr1_bn_top
I0821 06:48:43.630563 32543 net.cpp:150] Setting up L2_b4_cbr1_bn
I0821 06:48:43.630576 32543 net.cpp:157] Top shape: 125 32 16 16 (1024000)
I0821 06:48:43.630581 32543 net.cpp:165] Memory required for data: 994817500
I0821 06:48:43.630591 32543 layer_factory.hpp:77] Creating layer L2_b4_cbr1_scale
I0821 06:48:43.630604 32543 net.cpp:100] Creating Layer L2_b4_cbr1_scale
I0821 06:48:43.630609 32543 net.cpp:434] L2_b4_cbr1_scale <- L2_b4_cbr1_bn_top
I0821 06:48:43.630617 32543 net.cpp:395] L2_b4_cbr1_scale -> L2_b4_cbr1_bn_top (in-place)
I0821 06:48:43.630671 32543 layer_factory.hpp:77] Creating layer L2_b4_cbr1_scale
I0821 06:48:43.630816 32543 net.cpp:150] Setting up L2_b4_cbr1_scale
I0821 06:48:43.630830 32543 net.cpp:157] Top shape: 125 32 16 16 (1024000)
I0821 06:48:43.630834 32543 net.cpp:165] Memory required for data: 998913500
I0821 06:48:43.630843 32543 layer_factory.hpp:77] Creating layer L2_b4_cbr1_relu
I0821 06:48:43.630854 32543 net.cpp:100] Creating Layer L2_b4_cbr1_relu
I0821 06:48:43.630861 32543 net.cpp:434] L2_b4_cbr1_relu <- L2_b4_cbr1_bn_top
I0821 06:48:43.630867 32543 net.cpp:395] L2_b4_cbr1_relu -> L2_b4_cbr1_bn_top (in-place)
I0821 06:48:43.630877 32543 net.cpp:150] Setting up L2_b4_cbr1_relu
I0821 06:48:43.630884 32543 net.cpp:157] Top shape: 125 32 16 16 (1024000)
I0821 06:48:43.630888 32543 net.cpp:165] Memory required for data: 1003009500
I0821 06:48:43.630894 32543 layer_factory.hpp:77] Creating layer L2_b4_cbr2_conv
I0821 06:48:43.630914 32543 net.cpp:100] Creating Layer L2_b4_cbr2_conv
I0821 06:48:43.630921 32543 net.cpp:434] L2_b4_cbr2_conv <- L2_b4_cbr1_bn_top
I0821 06:48:43.630933 32543 net.cpp:408] L2_b4_cbr2_conv -> L2_b4_cbr2_conv_top
I0821 06:48:43.631418 32543 net.cpp:150] Setting up L2_b4_cbr2_conv
I0821 06:48:43.631433 32543 net.cpp:157] Top shape: 125 32 16 16 (1024000)
I0821 06:48:43.631438 32543 net.cpp:165] Memory required for data: 1007105500
I0821 06:48:43.631448 32543 layer_factory.hpp:77] Creating layer L2_b4_cbr2_bn
I0821 06:48:43.631456 32543 net.cpp:100] Creating Layer L2_b4_cbr2_bn
I0821 06:48:43.631463 32543 net.cpp:434] L2_b4_cbr2_bn <- L2_b4_cbr2_conv_top
I0821 06:48:43.631474 32543 net.cpp:408] L2_b4_cbr2_bn -> L2_b4_cbr2_bn_top
I0821 06:48:43.631721 32543 net.cpp:150] Setting up L2_b4_cbr2_bn
I0821 06:48:43.631734 32543 net.cpp:157] Top shape: 125 32 16 16 (1024000)
I0821 06:48:43.631739 32543 net.cpp:165] Memory required for data: 1011201500
I0821 06:48:43.631749 32543 layer_factory.hpp:77] Creating layer L2_b4_cbr2_scale
I0821 06:48:43.631760 32543 net.cpp:100] Creating Layer L2_b4_cbr2_scale
I0821 06:48:43.631767 32543 net.cpp:434] L2_b4_cbr2_scale <- L2_b4_cbr2_bn_top
I0821 06:48:43.631774 32543 net.cpp:395] L2_b4_cbr2_scale -> L2_b4_cbr2_bn_top (in-place)
I0821 06:48:43.631829 32543 layer_factory.hpp:77] Creating layer L2_b4_cbr2_scale
I0821 06:48:43.631975 32543 net.cpp:150] Setting up L2_b4_cbr2_scale
I0821 06:48:43.631989 32543 net.cpp:157] Top shape: 125 32 16 16 (1024000)
I0821 06:48:43.631994 32543 net.cpp:165] Memory required for data: 1015297500
I0821 06:48:43.632001 32543 layer_factory.hpp:77] Creating layer L2_b4_sum_eltwise
I0821 06:48:43.632015 32543 net.cpp:100] Creating Layer L2_b4_sum_eltwise
I0821 06:48:43.632022 32543 net.cpp:434] L2_b4_sum_eltwise <- L2_b4_cbr2_bn_top
I0821 06:48:43.632030 32543 net.cpp:434] L2_b4_sum_eltwise <- L2_b3_sum_eltwise_top_L2_b3_relu_0_split_1
I0821 06:48:43.632037 32543 net.cpp:408] L2_b4_sum_eltwise -> L2_b4_sum_eltwise_top
I0821 06:48:43.632067 32543 net.cpp:150] Setting up L2_b4_sum_eltwise
I0821 06:48:43.632076 32543 net.cpp:157] Top shape: 125 32 16 16 (1024000)
I0821 06:48:43.632081 32543 net.cpp:165] Memory required for data: 1019393500
I0821 06:48:43.632086 32543 layer_factory.hpp:77] Creating layer L2_b4_relu
I0821 06:48:43.632094 32543 net.cpp:100] Creating Layer L2_b4_relu
I0821 06:48:43.632100 32543 net.cpp:434] L2_b4_relu <- L2_b4_sum_eltwise_top
I0821 06:48:43.632107 32543 net.cpp:395] L2_b4_relu -> L2_b4_sum_eltwise_top (in-place)
I0821 06:48:43.632125 32543 net.cpp:150] Setting up L2_b4_relu
I0821 06:48:43.632133 32543 net.cpp:157] Top shape: 125 32 16 16 (1024000)
I0821 06:48:43.632138 32543 net.cpp:165] Memory required for data: 1023489500
I0821 06:48:43.632143 32543 layer_factory.hpp:77] Creating layer L2_b4_sum_eltwise_top_L2_b4_relu_0_split
I0821 06:48:43.632150 32543 net.cpp:100] Creating Layer L2_b4_sum_eltwise_top_L2_b4_relu_0_split
I0821 06:48:43.632156 32543 net.cpp:434] L2_b4_sum_eltwise_top_L2_b4_relu_0_split <- L2_b4_sum_eltwise_top
I0821 06:48:43.632164 32543 net.cpp:408] L2_b4_sum_eltwise_top_L2_b4_relu_0_split -> L2_b4_sum_eltwise_top_L2_b4_relu_0_split_0
I0821 06:48:43.632174 32543 net.cpp:408] L2_b4_sum_eltwise_top_L2_b4_relu_0_split -> L2_b4_sum_eltwise_top_L2_b4_relu_0_split_1
I0821 06:48:43.632221 32543 net.cpp:150] Setting up L2_b4_sum_eltwise_top_L2_b4_relu_0_split
I0821 06:48:43.632233 32543 net.cpp:157] Top shape: 125 32 16 16 (1024000)
I0821 06:48:43.632241 32543 net.cpp:157] Top shape: 125 32 16 16 (1024000)
I0821 06:48:43.632244 32543 net.cpp:165] Memory required for data: 1031681500
I0821 06:48:43.632249 32543 layer_factory.hpp:77] Creating layer L2_b5_cbr1_conv
I0821 06:48:43.632261 32543 net.cpp:100] Creating Layer L2_b5_cbr1_conv
I0821 06:48:43.632267 32543 net.cpp:434] L2_b5_cbr1_conv <- L2_b4_sum_eltwise_top_L2_b4_relu_0_split_0
I0821 06:48:43.632278 32543 net.cpp:408] L2_b5_cbr1_conv -> L2_b5_cbr1_conv_top
I0821 06:48:43.632766 32543 net.cpp:150] Setting up L2_b5_cbr1_conv
I0821 06:48:43.632786 32543 net.cpp:157] Top shape: 125 32 16 16 (1024000)
I0821 06:48:43.632791 32543 net.cpp:165] Memory required for data: 1035777500
I0821 06:48:43.632799 32543 layer_factory.hpp:77] Creating layer L2_b5_cbr1_bn
I0821 06:48:43.632808 32543 net.cpp:100] Creating Layer L2_b5_cbr1_bn
I0821 06:48:43.632814 32543 net.cpp:434] L2_b5_cbr1_bn <- L2_b5_cbr1_conv_top
I0821 06:48:43.632827 32543 net.cpp:408] L2_b5_cbr1_bn -> L2_b5_cbr1_bn_top
I0821 06:48:43.633078 32543 net.cpp:150] Setting up L2_b5_cbr1_bn
I0821 06:48:43.633092 32543 net.cpp:157] Top shape: 125 32 16 16 (1024000)
I0821 06:48:43.633097 32543 net.cpp:165] Memory required for data: 1039873500
I0821 06:48:43.633107 32543 layer_factory.hpp:77] Creating layer L2_b5_cbr1_scale
I0821 06:48:43.633126 32543 net.cpp:100] Creating Layer L2_b5_cbr1_scale
I0821 06:48:43.633132 32543 net.cpp:434] L2_b5_cbr1_scale <- L2_b5_cbr1_bn_top
I0821 06:48:43.633141 32543 net.cpp:395] L2_b5_cbr1_scale -> L2_b5_cbr1_bn_top (in-place)
I0821 06:48:43.633196 32543 layer_factory.hpp:77] Creating layer L2_b5_cbr1_scale
I0821 06:48:43.633348 32543 net.cpp:150] Setting up L2_b5_cbr1_scale
I0821 06:48:43.633361 32543 net.cpp:157] Top shape: 125 32 16 16 (1024000)
I0821 06:48:43.633366 32543 net.cpp:165] Memory required for data: 1043969500
I0821 06:48:43.633376 32543 layer_factory.hpp:77] Creating layer L2_b5_cbr1_relu
I0821 06:48:43.633388 32543 net.cpp:100] Creating Layer L2_b5_cbr1_relu
I0821 06:48:43.633394 32543 net.cpp:434] L2_b5_cbr1_relu <- L2_b5_cbr1_bn_top
I0821 06:48:43.633400 32543 net.cpp:395] L2_b5_cbr1_relu -> L2_b5_cbr1_bn_top (in-place)
I0821 06:48:43.633410 32543 net.cpp:150] Setting up L2_b5_cbr1_relu
I0821 06:48:43.633416 32543 net.cpp:157] Top shape: 125 32 16 16 (1024000)
I0821 06:48:43.633421 32543 net.cpp:165] Memory required for data: 1048065500
I0821 06:48:43.633426 32543 layer_factory.hpp:77] Creating layer L2_b5_cbr2_conv
I0821 06:48:43.633440 32543 net.cpp:100] Creating Layer L2_b5_cbr2_conv
I0821 06:48:43.633446 32543 net.cpp:434] L2_b5_cbr2_conv <- L2_b5_cbr1_bn_top
I0821 06:48:43.633456 32543 net.cpp:408] L2_b5_cbr2_conv -> L2_b5_cbr2_conv_top
I0821 06:48:43.633944 32543 net.cpp:150] Setting up L2_b5_cbr2_conv
I0821 06:48:43.633956 32543 net.cpp:157] Top shape: 125 32 16 16 (1024000)
I0821 06:48:43.633961 32543 net.cpp:165] Memory required for data: 1052161500
I0821 06:48:43.633970 32543 layer_factory.hpp:77] Creating layer L2_b5_cbr2_bn
I0821 06:48:43.633980 32543 net.cpp:100] Creating Layer L2_b5_cbr2_bn
I0821 06:48:43.633985 32543 net.cpp:434] L2_b5_cbr2_bn <- L2_b5_cbr2_conv_top
I0821 06:48:43.633996 32543 net.cpp:408] L2_b5_cbr2_bn -> L2_b5_cbr2_bn_top
I0821 06:48:43.634253 32543 net.cpp:150] Setting up L2_b5_cbr2_bn
I0821 06:48:43.634268 32543 net.cpp:157] Top shape: 125 32 16 16 (1024000)
I0821 06:48:43.634272 32543 net.cpp:165] Memory required for data: 1056257500
I0821 06:48:43.634282 32543 layer_factory.hpp:77] Creating layer L2_b5_cbr2_scale
I0821 06:48:43.634294 32543 net.cpp:100] Creating Layer L2_b5_cbr2_scale
I0821 06:48:43.634300 32543 net.cpp:434] L2_b5_cbr2_scale <- L2_b5_cbr2_bn_top
I0821 06:48:43.634308 32543 net.cpp:395] L2_b5_cbr2_scale -> L2_b5_cbr2_bn_top (in-place)
I0821 06:48:43.634359 32543 layer_factory.hpp:77] Creating layer L2_b5_cbr2_scale
I0821 06:48:43.634531 32543 net.cpp:150] Setting up L2_b5_cbr2_scale
I0821 06:48:43.634546 32543 net.cpp:157] Top shape: 125 32 16 16 (1024000)
I0821 06:48:43.634551 32543 net.cpp:165] Memory required for data: 1060353500
I0821 06:48:43.634559 32543 layer_factory.hpp:77] Creating layer L2_b5_sum_eltwise
I0821 06:48:43.634569 32543 net.cpp:100] Creating Layer L2_b5_sum_eltwise
I0821 06:48:43.634575 32543 net.cpp:434] L2_b5_sum_eltwise <- L2_b5_cbr2_bn_top
I0821 06:48:43.634582 32543 net.cpp:434] L2_b5_sum_eltwise <- L2_b4_sum_eltwise_top_L2_b4_relu_0_split_1
I0821 06:48:43.634593 32543 net.cpp:408] L2_b5_sum_eltwise -> L2_b5_sum_eltwise_top
I0821 06:48:43.634620 32543 net.cpp:150] Setting up L2_b5_sum_eltwise
I0821 06:48:43.634632 32543 net.cpp:157] Top shape: 125 32 16 16 (1024000)
I0821 06:48:43.634644 32543 net.cpp:165] Memory required for data: 1064449500
I0821 06:48:43.634649 32543 layer_factory.hpp:77] Creating layer L2_b5_relu
I0821 06:48:43.634657 32543 net.cpp:100] Creating Layer L2_b5_relu
I0821 06:48:43.634663 32543 net.cpp:434] L2_b5_relu <- L2_b5_sum_eltwise_top
I0821 06:48:43.634670 32543 net.cpp:395] L2_b5_relu -> L2_b5_sum_eltwise_top (in-place)
I0821 06:48:43.634680 32543 net.cpp:150] Setting up L2_b5_relu
I0821 06:48:43.634686 32543 net.cpp:157] Top shape: 125 32 16 16 (1024000)
I0821 06:48:43.634691 32543 net.cpp:165] Memory required for data: 1068545500
I0821 06:48:43.634696 32543 layer_factory.hpp:77] Creating layer L2_b5_sum_eltwise_top_L2_b5_relu_0_split
I0821 06:48:43.634706 32543 net.cpp:100] Creating Layer L2_b5_sum_eltwise_top_L2_b5_relu_0_split
I0821 06:48:43.634711 32543 net.cpp:434] L2_b5_sum_eltwise_top_L2_b5_relu_0_split <- L2_b5_sum_eltwise_top
I0821 06:48:43.634718 32543 net.cpp:408] L2_b5_sum_eltwise_top_L2_b5_relu_0_split -> L2_b5_sum_eltwise_top_L2_b5_relu_0_split_0
I0821 06:48:43.634728 32543 net.cpp:408] L2_b5_sum_eltwise_top_L2_b5_relu_0_split -> L2_b5_sum_eltwise_top_L2_b5_relu_0_split_1
I0821 06:48:43.634775 32543 net.cpp:150] Setting up L2_b5_sum_eltwise_top_L2_b5_relu_0_split
I0821 06:48:43.634788 32543 net.cpp:157] Top shape: 125 32 16 16 (1024000)
I0821 06:48:43.634794 32543 net.cpp:157] Top shape: 125 32 16 16 (1024000)
I0821 06:48:43.634799 32543 net.cpp:165] Memory required for data: 1076737500
I0821 06:48:43.634804 32543 layer_factory.hpp:77] Creating layer L2_b6_cbr1_conv
I0821 06:48:43.634815 32543 net.cpp:100] Creating Layer L2_b6_cbr1_conv
I0821 06:48:43.634821 32543 net.cpp:434] L2_b6_cbr1_conv <- L2_b5_sum_eltwise_top_L2_b5_relu_0_split_0
I0821 06:48:43.634834 32543 net.cpp:408] L2_b6_cbr1_conv -> L2_b6_cbr1_conv_top
I0821 06:48:43.635337 32543 net.cpp:150] Setting up L2_b6_cbr1_conv
I0821 06:48:43.635351 32543 net.cpp:157] Top shape: 125 32 16 16 (1024000)
I0821 06:48:43.635357 32543 net.cpp:165] Memory required for data: 1080833500
I0821 06:48:43.635366 32543 layer_factory.hpp:77] Creating layer L2_b6_cbr1_bn
I0821 06:48:43.635375 32543 net.cpp:100] Creating Layer L2_b6_cbr1_bn
I0821 06:48:43.635381 32543 net.cpp:434] L2_b6_cbr1_bn <- L2_b6_cbr1_conv_top
I0821 06:48:43.635392 32543 net.cpp:408] L2_b6_cbr1_bn -> L2_b6_cbr1_bn_top
I0821 06:48:43.635643 32543 net.cpp:150] Setting up L2_b6_cbr1_bn
I0821 06:48:43.635655 32543 net.cpp:157] Top shape: 125 32 16 16 (1024000)
I0821 06:48:43.635660 32543 net.cpp:165] Memory required for data: 1084929500
I0821 06:48:43.635670 32543 layer_factory.hpp:77] Creating layer L2_b6_cbr1_scale
I0821 06:48:43.635682 32543 net.cpp:100] Creating Layer L2_b6_cbr1_scale
I0821 06:48:43.635689 32543 net.cpp:434] L2_b6_cbr1_scale <- L2_b6_cbr1_bn_top
I0821 06:48:43.635696 32543 net.cpp:395] L2_b6_cbr1_scale -> L2_b6_cbr1_bn_top (in-place)
I0821 06:48:43.635751 32543 layer_factory.hpp:77] Creating layer L2_b6_cbr1_scale
I0821 06:48:43.635896 32543 net.cpp:150] Setting up L2_b6_cbr1_scale
I0821 06:48:43.635910 32543 net.cpp:157] Top shape: 125 32 16 16 (1024000)
I0821 06:48:43.635915 32543 net.cpp:165] Memory required for data: 1089025500
I0821 06:48:43.635922 32543 layer_factory.hpp:77] Creating layer L2_b6_cbr1_relu
I0821 06:48:43.635933 32543 net.cpp:100] Creating Layer L2_b6_cbr1_relu
I0821 06:48:43.635941 32543 net.cpp:434] L2_b6_cbr1_relu <- L2_b6_cbr1_bn_top
I0821 06:48:43.635947 32543 net.cpp:395] L2_b6_cbr1_relu -> L2_b6_cbr1_bn_top (in-place)
I0821 06:48:43.635957 32543 net.cpp:150] Setting up L2_b6_cbr1_relu
I0821 06:48:43.635963 32543 net.cpp:157] Top shape: 125 32 16 16 (1024000)
I0821 06:48:43.635968 32543 net.cpp:165] Memory required for data: 1093121500
I0821 06:48:43.635972 32543 layer_factory.hpp:77] Creating layer L2_b6_cbr2_conv
I0821 06:48:43.635988 32543 net.cpp:100] Creating Layer L2_b6_cbr2_conv
I0821 06:48:43.635994 32543 net.cpp:434] L2_b6_cbr2_conv <- L2_b6_cbr1_bn_top
I0821 06:48:43.636005 32543 net.cpp:408] L2_b6_cbr2_conv -> L2_b6_cbr2_conv_top
I0821 06:48:43.636495 32543 net.cpp:150] Setting up L2_b6_cbr2_conv
I0821 06:48:43.636517 32543 net.cpp:157] Top shape: 125 32 16 16 (1024000)
I0821 06:48:43.636521 32543 net.cpp:165] Memory required for data: 1097217500
I0821 06:48:43.636530 32543 layer_factory.hpp:77] Creating layer L2_b6_cbr2_bn
I0821 06:48:43.636540 32543 net.cpp:100] Creating Layer L2_b6_cbr2_bn
I0821 06:48:43.636546 32543 net.cpp:434] L2_b6_cbr2_bn <- L2_b6_cbr2_conv_top
I0821 06:48:43.636554 32543 net.cpp:408] L2_b6_cbr2_bn -> L2_b6_cbr2_bn_top
I0821 06:48:43.636803 32543 net.cpp:150] Setting up L2_b6_cbr2_bn
I0821 06:48:43.636816 32543 net.cpp:157] Top shape: 125 32 16 16 (1024000)
I0821 06:48:43.636821 32543 net.cpp:165] Memory required for data: 1101313500
I0821 06:48:43.636831 32543 layer_factory.hpp:77] Creating layer L2_b6_cbr2_scale
I0821 06:48:43.636840 32543 net.cpp:100] Creating Layer L2_b6_cbr2_scale
I0821 06:48:43.636847 32543 net.cpp:434] L2_b6_cbr2_scale <- L2_b6_cbr2_bn_top
I0821 06:48:43.636860 32543 net.cpp:395] L2_b6_cbr2_scale -> L2_b6_cbr2_bn_top (in-place)
I0821 06:48:43.636914 32543 layer_factory.hpp:77] Creating layer L2_b6_cbr2_scale
I0821 06:48:43.637063 32543 net.cpp:150] Setting up L2_b6_cbr2_scale
I0821 06:48:43.637075 32543 net.cpp:157] Top shape: 125 32 16 16 (1024000)
I0821 06:48:43.637079 32543 net.cpp:165] Memory required for data: 1105409500
I0821 06:48:43.637089 32543 layer_factory.hpp:77] Creating layer L2_b6_sum_eltwise
I0821 06:48:43.637097 32543 net.cpp:100] Creating Layer L2_b6_sum_eltwise
I0821 06:48:43.637104 32543 net.cpp:434] L2_b6_sum_eltwise <- L2_b6_cbr2_bn_top
I0821 06:48:43.637111 32543 net.cpp:434] L2_b6_sum_eltwise <- L2_b5_sum_eltwise_top_L2_b5_relu_0_split_1
I0821 06:48:43.637127 32543 net.cpp:408] L2_b6_sum_eltwise -> L2_b6_sum_eltwise_top
I0821 06:48:43.637156 32543 net.cpp:150] Setting up L2_b6_sum_eltwise
I0821 06:48:43.637169 32543 net.cpp:157] Top shape: 125 32 16 16 (1024000)
I0821 06:48:43.637174 32543 net.cpp:165] Memory required for data: 1109505500
I0821 06:48:43.637179 32543 layer_factory.hpp:77] Creating layer L2_b6_relu
I0821 06:48:43.637187 32543 net.cpp:100] Creating Layer L2_b6_relu
I0821 06:48:43.637193 32543 net.cpp:434] L2_b6_relu <- L2_b6_sum_eltwise_top
I0821 06:48:43.637200 32543 net.cpp:395] L2_b6_relu -> L2_b6_sum_eltwise_top (in-place)
I0821 06:48:43.637209 32543 net.cpp:150] Setting up L2_b6_relu
I0821 06:48:43.637217 32543 net.cpp:157] Top shape: 125 32 16 16 (1024000)
I0821 06:48:43.637220 32543 net.cpp:165] Memory required for data: 1113601500
I0821 06:48:43.637225 32543 layer_factory.hpp:77] Creating layer L2_b6_sum_eltwise_top_L2_b6_relu_0_split
I0821 06:48:43.637235 32543 net.cpp:100] Creating Layer L2_b6_sum_eltwise_top_L2_b6_relu_0_split
I0821 06:48:43.637241 32543 net.cpp:434] L2_b6_sum_eltwise_top_L2_b6_relu_0_split <- L2_b6_sum_eltwise_top
I0821 06:48:43.637248 32543 net.cpp:408] L2_b6_sum_eltwise_top_L2_b6_relu_0_split -> L2_b6_sum_eltwise_top_L2_b6_relu_0_split_0
I0821 06:48:43.637259 32543 net.cpp:408] L2_b6_sum_eltwise_top_L2_b6_relu_0_split -> L2_b6_sum_eltwise_top_L2_b6_relu_0_split_1
I0821 06:48:43.637302 32543 net.cpp:150] Setting up L2_b6_sum_eltwise_top_L2_b6_relu_0_split
I0821 06:48:43.637316 32543 net.cpp:157] Top shape: 125 32 16 16 (1024000)
I0821 06:48:43.637323 32543 net.cpp:157] Top shape: 125 32 16 16 (1024000)
I0821 06:48:43.637328 32543 net.cpp:165] Memory required for data: 1121793500
I0821 06:48:43.637333 32543 layer_factory.hpp:77] Creating layer L2_b7_cbr1_conv
I0821 06:48:43.637346 32543 net.cpp:100] Creating Layer L2_b7_cbr1_conv
I0821 06:48:43.637352 32543 net.cpp:434] L2_b7_cbr1_conv <- L2_b6_sum_eltwise_top_L2_b6_relu_0_split_0
I0821 06:48:43.637361 32543 net.cpp:408] L2_b7_cbr1_conv -> L2_b7_cbr1_conv_top
I0821 06:48:43.637854 32543 net.cpp:150] Setting up L2_b7_cbr1_conv
I0821 06:48:43.637871 32543 net.cpp:157] Top shape: 125 32 16 16 (1024000)
I0821 06:48:43.637876 32543 net.cpp:165] Memory required for data: 1125889500
I0821 06:48:43.637886 32543 layer_factory.hpp:77] Creating layer L2_b7_cbr1_bn
I0821 06:48:43.637894 32543 net.cpp:100] Creating Layer L2_b7_cbr1_bn
I0821 06:48:43.637907 32543 net.cpp:434] L2_b7_cbr1_bn <- L2_b7_cbr1_conv_top
I0821 06:48:43.637920 32543 net.cpp:408] L2_b7_cbr1_bn -> L2_b7_cbr1_bn_top
I0821 06:48:43.638182 32543 net.cpp:150] Setting up L2_b7_cbr1_bn
I0821 06:48:43.638196 32543 net.cpp:157] Top shape: 125 32 16 16 (1024000)
I0821 06:48:43.638201 32543 net.cpp:165] Memory required for data: 1129985500
I0821 06:48:43.638211 32543 layer_factory.hpp:77] Creating layer L2_b7_cbr1_scale
I0821 06:48:43.638223 32543 net.cpp:100] Creating Layer L2_b7_cbr1_scale
I0821 06:48:43.638231 32543 net.cpp:434] L2_b7_cbr1_scale <- L2_b7_cbr1_bn_top
I0821 06:48:43.638237 32543 net.cpp:395] L2_b7_cbr1_scale -> L2_b7_cbr1_bn_top (in-place)
I0821 06:48:43.638290 32543 layer_factory.hpp:77] Creating layer L2_b7_cbr1_scale
I0821 06:48:43.638442 32543 net.cpp:150] Setting up L2_b7_cbr1_scale
I0821 06:48:43.638455 32543 net.cpp:157] Top shape: 125 32 16 16 (1024000)
I0821 06:48:43.638460 32543 net.cpp:165] Memory required for data: 1134081500
I0821 06:48:43.638469 32543 layer_factory.hpp:77] Creating layer L2_b7_cbr1_relu
I0821 06:48:43.638478 32543 net.cpp:100] Creating Layer L2_b7_cbr1_relu
I0821 06:48:43.638484 32543 net.cpp:434] L2_b7_cbr1_relu <- L2_b7_cbr1_bn_top
I0821 06:48:43.638499 32543 net.cpp:395] L2_b7_cbr1_relu -> L2_b7_cbr1_bn_top (in-place)
I0821 06:48:43.638509 32543 net.cpp:150] Setting up L2_b7_cbr1_relu
I0821 06:48:43.638516 32543 net.cpp:157] Top shape: 125 32 16 16 (1024000)
I0821 06:48:43.638520 32543 net.cpp:165] Memory required for data: 1138177500
I0821 06:48:43.638525 32543 layer_factory.hpp:77] Creating layer L2_b7_cbr2_conv
I0821 06:48:43.638540 32543 net.cpp:100] Creating Layer L2_b7_cbr2_conv
I0821 06:48:43.638545 32543 net.cpp:434] L2_b7_cbr2_conv <- L2_b7_cbr1_bn_top
I0821 06:48:43.638555 32543 net.cpp:408] L2_b7_cbr2_conv -> L2_b7_cbr2_conv_top
I0821 06:48:43.639044 32543 net.cpp:150] Setting up L2_b7_cbr2_conv
I0821 06:48:43.639057 32543 net.cpp:157] Top shape: 125 32 16 16 (1024000)
I0821 06:48:43.639062 32543 net.cpp:165] Memory required for data: 1142273500
I0821 06:48:43.639071 32543 layer_factory.hpp:77] Creating layer L2_b7_cbr2_bn
I0821 06:48:43.639083 32543 net.cpp:100] Creating Layer L2_b7_cbr2_bn
I0821 06:48:43.639091 32543 net.cpp:434] L2_b7_cbr2_bn <- L2_b7_cbr2_conv_top
I0821 06:48:43.639098 32543 net.cpp:408] L2_b7_cbr2_bn -> L2_b7_cbr2_bn_top
I0821 06:48:43.639358 32543 net.cpp:150] Setting up L2_b7_cbr2_bn
I0821 06:48:43.639371 32543 net.cpp:157] Top shape: 125 32 16 16 (1024000)
I0821 06:48:43.639376 32543 net.cpp:165] Memory required for data: 1146369500
I0821 06:48:43.639386 32543 layer_factory.hpp:77] Creating layer L2_b7_cbr2_scale
I0821 06:48:43.639395 32543 net.cpp:100] Creating Layer L2_b7_cbr2_scale
I0821 06:48:43.639401 32543 net.cpp:434] L2_b7_cbr2_scale <- L2_b7_cbr2_bn_top
I0821 06:48:43.639413 32543 net.cpp:395] L2_b7_cbr2_scale -> L2_b7_cbr2_bn_top (in-place)
I0821 06:48:43.639470 32543 layer_factory.hpp:77] Creating layer L2_b7_cbr2_scale
I0821 06:48:43.639621 32543 net.cpp:150] Setting up L2_b7_cbr2_scale
I0821 06:48:43.639633 32543 net.cpp:157] Top shape: 125 32 16 16 (1024000)
I0821 06:48:43.639638 32543 net.cpp:165] Memory required for data: 1150465500
I0821 06:48:43.639647 32543 layer_factory.hpp:77] Creating layer L2_b7_sum_eltwise
I0821 06:48:43.639657 32543 net.cpp:100] Creating Layer L2_b7_sum_eltwise
I0821 06:48:43.639663 32543 net.cpp:434] L2_b7_sum_eltwise <- L2_b7_cbr2_bn_top
I0821 06:48:43.639670 32543 net.cpp:434] L2_b7_sum_eltwise <- L2_b6_sum_eltwise_top_L2_b6_relu_0_split_1
I0821 06:48:43.639680 32543 net.cpp:408] L2_b7_sum_eltwise -> L2_b7_sum_eltwise_top
I0821 06:48:43.639708 32543 net.cpp:150] Setting up L2_b7_sum_eltwise
I0821 06:48:43.639717 32543 net.cpp:157] Top shape: 125 32 16 16 (1024000)
I0821 06:48:43.639721 32543 net.cpp:165] Memory required for data: 1154561500
I0821 06:48:43.639727 32543 layer_factory.hpp:77] Creating layer L2_b7_relu
I0821 06:48:43.639737 32543 net.cpp:100] Creating Layer L2_b7_relu
I0821 06:48:43.639744 32543 net.cpp:434] L2_b7_relu <- L2_b7_sum_eltwise_top
I0821 06:48:43.639750 32543 net.cpp:395] L2_b7_relu -> L2_b7_sum_eltwise_top (in-place)
I0821 06:48:43.639766 32543 net.cpp:150] Setting up L2_b7_relu
I0821 06:48:43.639775 32543 net.cpp:157] Top shape: 125 32 16 16 (1024000)
I0821 06:48:43.639778 32543 net.cpp:165] Memory required for data: 1158657500
I0821 06:48:43.639783 32543 layer_factory.hpp:77] Creating layer L2_b7_sum_eltwise_top_L2_b7_relu_0_split
I0821 06:48:43.639793 32543 net.cpp:100] Creating Layer L2_b7_sum_eltwise_top_L2_b7_relu_0_split
I0821 06:48:43.639799 32543 net.cpp:434] L2_b7_sum_eltwise_top_L2_b7_relu_0_split <- L2_b7_sum_eltwise_top
I0821 06:48:43.639806 32543 net.cpp:408] L2_b7_sum_eltwise_top_L2_b7_relu_0_split -> L2_b7_sum_eltwise_top_L2_b7_relu_0_split_0
I0821 06:48:43.639816 32543 net.cpp:408] L2_b7_sum_eltwise_top_L2_b7_relu_0_split -> L2_b7_sum_eltwise_top_L2_b7_relu_0_split_1
I0821 06:48:43.639861 32543 net.cpp:150] Setting up L2_b7_sum_eltwise_top_L2_b7_relu_0_split
I0821 06:48:43.639876 32543 net.cpp:157] Top shape: 125 32 16 16 (1024000)
I0821 06:48:43.639883 32543 net.cpp:157] Top shape: 125 32 16 16 (1024000)
I0821 06:48:43.639889 32543 net.cpp:165] Memory required for data: 1166849500
I0821 06:48:43.639894 32543 layer_factory.hpp:77] Creating layer L2_b8_cbr1_conv
I0821 06:48:43.639904 32543 net.cpp:100] Creating Layer L2_b8_cbr1_conv
I0821 06:48:43.639910 32543 net.cpp:434] L2_b8_cbr1_conv <- L2_b7_sum_eltwise_top_L2_b7_relu_0_split_0
I0821 06:48:43.639919 32543 net.cpp:408] L2_b8_cbr1_conv -> L2_b8_cbr1_conv_top
I0821 06:48:43.640424 32543 net.cpp:150] Setting up L2_b8_cbr1_conv
I0821 06:48:43.640439 32543 net.cpp:157] Top shape: 125 32 16 16 (1024000)
I0821 06:48:43.640444 32543 net.cpp:165] Memory required for data: 1170945500
I0821 06:48:43.640452 32543 layer_factory.hpp:77] Creating layer L2_b8_cbr1_bn
I0821 06:48:43.640465 32543 net.cpp:100] Creating Layer L2_b8_cbr1_bn
I0821 06:48:43.640470 32543 net.cpp:434] L2_b8_cbr1_bn <- L2_b8_cbr1_conv_top
I0821 06:48:43.640480 32543 net.cpp:408] L2_b8_cbr1_bn -> L2_b8_cbr1_bn_top
I0821 06:48:43.640738 32543 net.cpp:150] Setting up L2_b8_cbr1_bn
I0821 06:48:43.640750 32543 net.cpp:157] Top shape: 125 32 16 16 (1024000)
I0821 06:48:43.640755 32543 net.cpp:165] Memory required for data: 1175041500
I0821 06:48:43.640766 32543 layer_factory.hpp:77] Creating layer L2_b8_cbr1_scale
I0821 06:48:43.640774 32543 net.cpp:100] Creating Layer L2_b8_cbr1_scale
I0821 06:48:43.640780 32543 net.cpp:434] L2_b8_cbr1_scale <- L2_b8_cbr1_bn_top
I0821 06:48:43.640791 32543 net.cpp:395] L2_b8_cbr1_scale -> L2_b8_cbr1_bn_top (in-place)
I0821 06:48:43.640847 32543 layer_factory.hpp:77] Creating layer L2_b8_cbr1_scale
I0821 06:48:43.641001 32543 net.cpp:150] Setting up L2_b8_cbr1_scale
I0821 06:48:43.641014 32543 net.cpp:157] Top shape: 125 32 16 16 (1024000)
I0821 06:48:43.641019 32543 net.cpp:165] Memory required for data: 1179137500
I0821 06:48:43.641028 32543 layer_factory.hpp:77] Creating layer L2_b8_cbr1_relu
I0821 06:48:43.641036 32543 net.cpp:100] Creating Layer L2_b8_cbr1_relu
I0821 06:48:43.641042 32543 net.cpp:434] L2_b8_cbr1_relu <- L2_b8_cbr1_bn_top
I0821 06:48:43.641052 32543 net.cpp:395] L2_b8_cbr1_relu -> L2_b8_cbr1_bn_top (in-place)
I0821 06:48:43.641062 32543 net.cpp:150] Setting up L2_b8_cbr1_relu
I0821 06:48:43.641069 32543 net.cpp:157] Top shape: 125 32 16 16 (1024000)
I0821 06:48:43.641073 32543 net.cpp:165] Memory required for data: 1183233500
I0821 06:48:43.641078 32543 layer_factory.hpp:77] Creating layer L2_b8_cbr2_conv
I0821 06:48:43.641093 32543 net.cpp:100] Creating Layer L2_b8_cbr2_conv
I0821 06:48:43.641098 32543 net.cpp:434] L2_b8_cbr2_conv <- L2_b8_cbr1_bn_top
I0821 06:48:43.641106 32543 net.cpp:408] L2_b8_cbr2_conv -> L2_b8_cbr2_conv_top
I0821 06:48:43.641607 32543 net.cpp:150] Setting up L2_b8_cbr2_conv
I0821 06:48:43.641621 32543 net.cpp:157] Top shape: 125 32 16 16 (1024000)
I0821 06:48:43.641626 32543 net.cpp:165] Memory required for data: 1187329500
I0821 06:48:43.641635 32543 layer_factory.hpp:77] Creating layer L2_b8_cbr2_bn
I0821 06:48:43.641647 32543 net.cpp:100] Creating Layer L2_b8_cbr2_bn
I0821 06:48:43.641661 32543 net.cpp:434] L2_b8_cbr2_bn <- L2_b8_cbr2_conv_top
I0821 06:48:43.641670 32543 net.cpp:408] L2_b8_cbr2_bn -> L2_b8_cbr2_bn_top
I0821 06:48:43.641923 32543 net.cpp:150] Setting up L2_b8_cbr2_bn
I0821 06:48:43.641937 32543 net.cpp:157] Top shape: 125 32 16 16 (1024000)
I0821 06:48:43.641942 32543 net.cpp:165] Memory required for data: 1191425500
I0821 06:48:43.641952 32543 layer_factory.hpp:77] Creating layer L2_b8_cbr2_scale
I0821 06:48:43.641960 32543 net.cpp:100] Creating Layer L2_b8_cbr2_scale
I0821 06:48:43.641966 32543 net.cpp:434] L2_b8_cbr2_scale <- L2_b8_cbr2_bn_top
I0821 06:48:43.641976 32543 net.cpp:395] L2_b8_cbr2_scale -> L2_b8_cbr2_bn_top (in-place)
I0821 06:48:43.642033 32543 layer_factory.hpp:77] Creating layer L2_b8_cbr2_scale
I0821 06:48:43.642194 32543 net.cpp:150] Setting up L2_b8_cbr2_scale
I0821 06:48:43.642210 32543 net.cpp:157] Top shape: 125 32 16 16 (1024000)
I0821 06:48:43.642215 32543 net.cpp:165] Memory required for data: 1195521500
I0821 06:48:43.642222 32543 layer_factory.hpp:77] Creating layer L2_b8_sum_eltwise
I0821 06:48:43.642231 32543 net.cpp:100] Creating Layer L2_b8_sum_eltwise
I0821 06:48:43.642237 32543 net.cpp:434] L2_b8_sum_eltwise <- L2_b8_cbr2_bn_top
I0821 06:48:43.642244 32543 net.cpp:434] L2_b8_sum_eltwise <- L2_b7_sum_eltwise_top_L2_b7_relu_0_split_1
I0821 06:48:43.642256 32543 net.cpp:408] L2_b8_sum_eltwise -> L2_b8_sum_eltwise_top
I0821 06:48:43.642282 32543 net.cpp:150] Setting up L2_b8_sum_eltwise
I0821 06:48:43.642292 32543 net.cpp:157] Top shape: 125 32 16 16 (1024000)
I0821 06:48:43.642297 32543 net.cpp:165] Memory required for data: 1199617500
I0821 06:48:43.642302 32543 layer_factory.hpp:77] Creating layer L2_b8_relu
I0821 06:48:43.642313 32543 net.cpp:100] Creating Layer L2_b8_relu
I0821 06:48:43.642319 32543 net.cpp:434] L2_b8_relu <- L2_b8_sum_eltwise_top
I0821 06:48:43.642326 32543 net.cpp:395] L2_b8_relu -> L2_b8_sum_eltwise_top (in-place)
I0821 06:48:43.642335 32543 net.cpp:150] Setting up L2_b8_relu
I0821 06:48:43.642343 32543 net.cpp:157] Top shape: 125 32 16 16 (1024000)
I0821 06:48:43.642348 32543 net.cpp:165] Memory required for data: 1203713500
I0821 06:48:43.642352 32543 layer_factory.hpp:77] Creating layer L2_b8_sum_eltwise_top_L2_b8_relu_0_split
I0821 06:48:43.642359 32543 net.cpp:100] Creating Layer L2_b8_sum_eltwise_top_L2_b8_relu_0_split
I0821 06:48:43.642364 32543 net.cpp:434] L2_b8_sum_eltwise_top_L2_b8_relu_0_split <- L2_b8_sum_eltwise_top
I0821 06:48:43.642374 32543 net.cpp:408] L2_b8_sum_eltwise_top_L2_b8_relu_0_split -> L2_b8_sum_eltwise_top_L2_b8_relu_0_split_0
I0821 06:48:43.642396 32543 net.cpp:408] L2_b8_sum_eltwise_top_L2_b8_relu_0_split -> L2_b8_sum_eltwise_top_L2_b8_relu_0_split_1
I0821 06:48:43.642443 32543 net.cpp:150] Setting up L2_b8_sum_eltwise_top_L2_b8_relu_0_split
I0821 06:48:43.642457 32543 net.cpp:157] Top shape: 125 32 16 16 (1024000)
I0821 06:48:43.642462 32543 net.cpp:157] Top shape: 125 32 16 16 (1024000)
I0821 06:48:43.642467 32543 net.cpp:165] Memory required for data: 1211905500
I0821 06:48:43.642472 32543 layer_factory.hpp:77] Creating layer L2_b9_cbr1_conv
I0821 06:48:43.642488 32543 net.cpp:100] Creating Layer L2_b9_cbr1_conv
I0821 06:48:43.642494 32543 net.cpp:434] L2_b9_cbr1_conv <- L2_b8_sum_eltwise_top_L2_b8_relu_0_split_0
I0821 06:48:43.642508 32543 net.cpp:408] L2_b9_cbr1_conv -> L2_b9_cbr1_conv_top
I0821 06:48:43.643005 32543 net.cpp:150] Setting up L2_b9_cbr1_conv
I0821 06:48:43.643019 32543 net.cpp:157] Top shape: 125 32 16 16 (1024000)
I0821 06:48:43.643024 32543 net.cpp:165] Memory required for data: 1216001500
I0821 06:48:43.643033 32543 layer_factory.hpp:77] Creating layer L2_b9_cbr1_bn
I0821 06:48:43.643044 32543 net.cpp:100] Creating Layer L2_b9_cbr1_bn
I0821 06:48:43.643051 32543 net.cpp:434] L2_b9_cbr1_bn <- L2_b9_cbr1_conv_top
I0821 06:48:43.643059 32543 net.cpp:408] L2_b9_cbr1_bn -> L2_b9_cbr1_bn_top
I0821 06:48:43.643337 32543 net.cpp:150] Setting up L2_b9_cbr1_bn
I0821 06:48:43.643350 32543 net.cpp:157] Top shape: 125 32 16 16 (1024000)
I0821 06:48:43.643355 32543 net.cpp:165] Memory required for data: 1220097500
I0821 06:48:43.643373 32543 layer_factory.hpp:77] Creating layer L2_b9_cbr1_scale
I0821 06:48:43.643383 32543 net.cpp:100] Creating Layer L2_b9_cbr1_scale
I0821 06:48:43.643389 32543 net.cpp:434] L2_b9_cbr1_scale <- L2_b9_cbr1_bn_top
I0821 06:48:43.643398 32543 net.cpp:395] L2_b9_cbr1_scale -> L2_b9_cbr1_bn_top (in-place)
I0821 06:48:43.643456 32543 layer_factory.hpp:77] Creating layer L2_b9_cbr1_scale
I0821 06:48:43.643605 32543 net.cpp:150] Setting up L2_b9_cbr1_scale
I0821 06:48:43.643620 32543 net.cpp:157] Top shape: 125 32 16 16 (1024000)
I0821 06:48:43.643625 32543 net.cpp:165] Memory required for data: 1224193500
I0821 06:48:43.643635 32543 layer_factory.hpp:77] Creating layer L2_b9_cbr1_relu
I0821 06:48:43.643642 32543 net.cpp:100] Creating Layer L2_b9_cbr1_relu
I0821 06:48:43.643648 32543 net.cpp:434] L2_b9_cbr1_relu <- L2_b9_cbr1_bn_top
I0821 06:48:43.643656 32543 net.cpp:395] L2_b9_cbr1_relu -> L2_b9_cbr1_bn_top (in-place)
I0821 06:48:43.643666 32543 net.cpp:150] Setting up L2_b9_cbr1_relu
I0821 06:48:43.643672 32543 net.cpp:157] Top shape: 125 32 16 16 (1024000)
I0821 06:48:43.643676 32543 net.cpp:165] Memory required for data: 1228289500
I0821 06:48:43.643682 32543 layer_factory.hpp:77] Creating layer L2_b9_cbr2_conv
I0821 06:48:43.643694 32543 net.cpp:100] Creating Layer L2_b9_cbr2_conv
I0821 06:48:43.643702 32543 net.cpp:434] L2_b9_cbr2_conv <- L2_b9_cbr1_bn_top
I0821 06:48:43.643714 32543 net.cpp:408] L2_b9_cbr2_conv -> L2_b9_cbr2_conv_top
I0821 06:48:43.644212 32543 net.cpp:150] Setting up L2_b9_cbr2_conv
I0821 06:48:43.644227 32543 net.cpp:157] Top shape: 125 32 16 16 (1024000)
I0821 06:48:43.644232 32543 net.cpp:165] Memory required for data: 1232385500
I0821 06:48:43.644240 32543 layer_factory.hpp:77] Creating layer L2_b9_cbr2_bn
I0821 06:48:43.644253 32543 net.cpp:100] Creating Layer L2_b9_cbr2_bn
I0821 06:48:43.644258 32543 net.cpp:434] L2_b9_cbr2_bn <- L2_b9_cbr2_conv_top
I0821 06:48:43.644269 32543 net.cpp:408] L2_b9_cbr2_bn -> L2_b9_cbr2_bn_top
I0821 06:48:43.644520 32543 net.cpp:150] Setting up L2_b9_cbr2_bn
I0821 06:48:43.644532 32543 net.cpp:157] Top shape: 125 32 16 16 (1024000)
I0821 06:48:43.644536 32543 net.cpp:165] Memory required for data: 1236481500
I0821 06:48:43.644579 32543 layer_factory.hpp:77] Creating layer L2_b9_cbr2_scale
I0821 06:48:43.644594 32543 net.cpp:100] Creating Layer L2_b9_cbr2_scale
I0821 06:48:43.644601 32543 net.cpp:434] L2_b9_cbr2_scale <- L2_b9_cbr2_bn_top
I0821 06:48:43.644608 32543 net.cpp:395] L2_b9_cbr2_scale -> L2_b9_cbr2_bn_top (in-place)
I0821 06:48:43.644670 32543 layer_factory.hpp:77] Creating layer L2_b9_cbr2_scale
I0821 06:48:43.644821 32543 net.cpp:150] Setting up L2_b9_cbr2_scale
I0821 06:48:43.644834 32543 net.cpp:157] Top shape: 125 32 16 16 (1024000)
I0821 06:48:43.644839 32543 net.cpp:165] Memory required for data: 1240577500
I0821 06:48:43.644848 32543 layer_factory.hpp:77] Creating layer L2_b9_sum_eltwise
I0821 06:48:43.644860 32543 net.cpp:100] Creating Layer L2_b9_sum_eltwise
I0821 06:48:43.644867 32543 net.cpp:434] L2_b9_sum_eltwise <- L2_b9_cbr2_bn_top
I0821 06:48:43.644875 32543 net.cpp:434] L2_b9_sum_eltwise <- L2_b8_sum_eltwise_top_L2_b8_relu_0_split_1
I0821 06:48:43.644882 32543 net.cpp:408] L2_b9_sum_eltwise -> L2_b9_sum_eltwise_top
I0821 06:48:43.644912 32543 net.cpp:150] Setting up L2_b9_sum_eltwise
I0821 06:48:43.644922 32543 net.cpp:157] Top shape: 125 32 16 16 (1024000)
I0821 06:48:43.644927 32543 net.cpp:165] Memory required for data: 1244673500
I0821 06:48:43.644932 32543 layer_factory.hpp:77] Creating layer L2_b9_relu
I0821 06:48:43.644939 32543 net.cpp:100] Creating Layer L2_b9_relu
I0821 06:48:43.644945 32543 net.cpp:434] L2_b9_relu <- L2_b9_sum_eltwise_top
I0821 06:48:43.644955 32543 net.cpp:395] L2_b9_relu -> L2_b9_sum_eltwise_top (in-place)
I0821 06:48:43.644964 32543 net.cpp:150] Setting up L2_b9_relu
I0821 06:48:43.644971 32543 net.cpp:157] Top shape: 125 32 16 16 (1024000)
I0821 06:48:43.644976 32543 net.cpp:165] Memory required for data: 1248769500
I0821 06:48:43.644980 32543 layer_factory.hpp:77] Creating layer L2_b9_sum_eltwise_top_L2_b9_relu_0_split
I0821 06:48:43.644994 32543 net.cpp:100] Creating Layer L2_b9_sum_eltwise_top_L2_b9_relu_0_split
I0821 06:48:43.645000 32543 net.cpp:434] L2_b9_sum_eltwise_top_L2_b9_relu_0_split <- L2_b9_sum_eltwise_top
I0821 06:48:43.645011 32543 net.cpp:408] L2_b9_sum_eltwise_top_L2_b9_relu_0_split -> L2_b9_sum_eltwise_top_L2_b9_relu_0_split_0
I0821 06:48:43.645021 32543 net.cpp:408] L2_b9_sum_eltwise_top_L2_b9_relu_0_split -> L2_b9_sum_eltwise_top_L2_b9_relu_0_split_1
I0821 06:48:43.645071 32543 net.cpp:150] Setting up L2_b9_sum_eltwise_top_L2_b9_relu_0_split
I0821 06:48:43.645082 32543 net.cpp:157] Top shape: 125 32 16 16 (1024000)
I0821 06:48:43.645088 32543 net.cpp:157] Top shape: 125 32 16 16 (1024000)
I0821 06:48:43.645093 32543 net.cpp:165] Memory required for data: 1256961500
I0821 06:48:43.645098 32543 layer_factory.hpp:77] Creating layer L3_b1_cbr1_conv
I0821 06:48:43.645109 32543 net.cpp:100] Creating Layer L3_b1_cbr1_conv
I0821 06:48:43.645117 32543 net.cpp:434] L3_b1_cbr1_conv <- L2_b9_sum_eltwise_top_L2_b9_relu_0_split_0
I0821 06:48:43.645134 32543 net.cpp:408] L3_b1_cbr1_conv -> L3_b1_cbr1_conv_top
I0821 06:48:43.645635 32543 net.cpp:150] Setting up L3_b1_cbr1_conv
I0821 06:48:43.645650 32543 net.cpp:157] Top shape: 125 32 8 8 (256000)
I0821 06:48:43.645655 32543 net.cpp:165] Memory required for data: 1257985500
I0821 06:48:43.645664 32543 layer_factory.hpp:77] Creating layer L3_b1_cbr1_bn
I0821 06:48:43.645673 32543 net.cpp:100] Creating Layer L3_b1_cbr1_bn
I0821 06:48:43.645679 32543 net.cpp:434] L3_b1_cbr1_bn <- L3_b1_cbr1_conv_top
I0821 06:48:43.645690 32543 net.cpp:408] L3_b1_cbr1_bn -> L3_b1_cbr1_bn_top
I0821 06:48:43.645956 32543 net.cpp:150] Setting up L3_b1_cbr1_bn
I0821 06:48:43.645969 32543 net.cpp:157] Top shape: 125 32 8 8 (256000)
I0821 06:48:43.645973 32543 net.cpp:165] Memory required for data: 1259009500
I0821 06:48:43.645983 32543 layer_factory.hpp:77] Creating layer L3_b1_cbr1_scale
I0821 06:48:43.645992 32543 net.cpp:100] Creating Layer L3_b1_cbr1_scale
I0821 06:48:43.645999 32543 net.cpp:434] L3_b1_cbr1_scale <- L3_b1_cbr1_bn_top
I0821 06:48:43.646006 32543 net.cpp:395] L3_b1_cbr1_scale -> L3_b1_cbr1_bn_top (in-place)
I0821 06:48:43.646064 32543 layer_factory.hpp:77] Creating layer L3_b1_cbr1_scale
I0821 06:48:43.646224 32543 net.cpp:150] Setting up L3_b1_cbr1_scale
I0821 06:48:43.646240 32543 net.cpp:157] Top shape: 125 32 8 8 (256000)
I0821 06:48:43.646246 32543 net.cpp:165] Memory required for data: 1260033500
I0821 06:48:43.646255 32543 layer_factory.hpp:77] Creating layer L3_b1_cbr1_relu
I0821 06:48:43.646263 32543 net.cpp:100] Creating Layer L3_b1_cbr1_relu
I0821 06:48:43.646270 32543 net.cpp:434] L3_b1_cbr1_relu <- L3_b1_cbr1_bn_top
I0821 06:48:43.646276 32543 net.cpp:395] L3_b1_cbr1_relu -> L3_b1_cbr1_bn_top (in-place)
I0821 06:48:43.646286 32543 net.cpp:150] Setting up L3_b1_cbr1_relu
I0821 06:48:43.646292 32543 net.cpp:157] Top shape: 125 32 8 8 (256000)
I0821 06:48:43.646297 32543 net.cpp:165] Memory required for data: 1261057500
I0821 06:48:43.646302 32543 layer_factory.hpp:77] Creating layer L3_b1_cbr2_conv
I0821 06:48:43.646315 32543 net.cpp:100] Creating Layer L3_b1_cbr2_conv
I0821 06:48:43.646322 32543 net.cpp:434] L3_b1_cbr2_conv <- L3_b1_cbr1_bn_top
I0821 06:48:43.646330 32543 net.cpp:408] L3_b1_cbr2_conv -> L3_b1_cbr2_conv_top
I0821 06:48:43.646833 32543 net.cpp:150] Setting up L3_b1_cbr2_conv
I0821 06:48:43.646847 32543 net.cpp:157] Top shape: 125 32 8 8 (256000)
I0821 06:48:43.646852 32543 net.cpp:165] Memory required for data: 1262081500
I0821 06:48:43.646862 32543 layer_factory.hpp:77] Creating layer L3_b1_cbr2_bn
I0821 06:48:43.646873 32543 net.cpp:100] Creating Layer L3_b1_cbr2_bn
I0821 06:48:43.646879 32543 net.cpp:434] L3_b1_cbr2_bn <- L3_b1_cbr2_conv_top
I0821 06:48:43.646890 32543 net.cpp:408] L3_b1_cbr2_bn -> L3_b1_cbr2_bn_top
I0821 06:48:43.647156 32543 net.cpp:150] Setting up L3_b1_cbr2_bn
I0821 06:48:43.647171 32543 net.cpp:157] Top shape: 125 32 8 8 (256000)
I0821 06:48:43.647176 32543 net.cpp:165] Memory required for data: 1263105500
I0821 06:48:43.647194 32543 layer_factory.hpp:77] Creating layer L3_b1_cbr2_scale
I0821 06:48:43.647203 32543 net.cpp:100] Creating Layer L3_b1_cbr2_scale
I0821 06:48:43.647210 32543 net.cpp:434] L3_b1_cbr2_scale <- L3_b1_cbr2_bn_top
I0821 06:48:43.647222 32543 net.cpp:395] L3_b1_cbr2_scale -> L3_b1_cbr2_bn_top (in-place)
I0821 06:48:43.647279 32543 layer_factory.hpp:77] Creating layer L3_b1_cbr2_scale
I0821 06:48:43.647435 32543 net.cpp:150] Setting up L3_b1_cbr2_scale
I0821 06:48:43.647449 32543 net.cpp:157] Top shape: 125 32 8 8 (256000)
I0821 06:48:43.647452 32543 net.cpp:165] Memory required for data: 1264129500
I0821 06:48:43.647462 32543 layer_factory.hpp:77] Creating layer L3_b1_pool
I0821 06:48:43.647475 32543 net.cpp:100] Creating Layer L3_b1_pool
I0821 06:48:43.647481 32543 net.cpp:434] L3_b1_pool <- L2_b9_sum_eltwise_top_L2_b9_relu_0_split_1
I0821 06:48:43.647490 32543 net.cpp:408] L3_b1_pool -> L3_b1_pool
I0821 06:48:43.647527 32543 net.cpp:150] Setting up L3_b1_pool
I0821 06:48:43.647537 32543 net.cpp:157] Top shape: 125 32 8 8 (256000)
I0821 06:48:43.647541 32543 net.cpp:165] Memory required for data: 1265153500
I0821 06:48:43.647547 32543 layer_factory.hpp:77] Creating layer L3_b1_sum_eltwise
I0821 06:48:43.647555 32543 net.cpp:100] Creating Layer L3_b1_sum_eltwise
I0821 06:48:43.647562 32543 net.cpp:434] L3_b1_sum_eltwise <- L3_b1_cbr2_bn_top
I0821 06:48:43.647568 32543 net.cpp:434] L3_b1_sum_eltwise <- L3_b1_pool
I0821 06:48:43.647578 32543 net.cpp:408] L3_b1_sum_eltwise -> L3_b1_sum_eltwise_top
I0821 06:48:43.647610 32543 net.cpp:150] Setting up L3_b1_sum_eltwise
I0821 06:48:43.647619 32543 net.cpp:157] Top shape: 125 32 8 8 (256000)
I0821 06:48:43.647624 32543 net.cpp:165] Memory required for data: 1266177500
I0821 06:48:43.647629 32543 layer_factory.hpp:77] Creating layer L3_b1_relu
I0821 06:48:43.647637 32543 net.cpp:100] Creating Layer L3_b1_relu
I0821 06:48:43.647642 32543 net.cpp:434] L3_b1_relu <- L3_b1_sum_eltwise_top
I0821 06:48:43.647652 32543 net.cpp:395] L3_b1_relu -> L3_b1_sum_eltwise_top (in-place)
I0821 06:48:43.647662 32543 net.cpp:150] Setting up L3_b1_relu
I0821 06:48:43.647670 32543 net.cpp:157] Top shape: 125 32 8 8 (256000)
I0821 06:48:43.647673 32543 net.cpp:165] Memory required for data: 1267201500
I0821 06:48:43.647678 32543 layer_factory.hpp:77] Creating layer L3_b1_zeros
I0821 06:48:43.647687 32543 net.cpp:100] Creating Layer L3_b1_zeros
I0821 06:48:43.647694 32543 net.cpp:408] L3_b1_zeros -> L3_b1_zeros
I0821 06:48:43.648927 32543 net.cpp:150] Setting up L3_b1_zeros
I0821 06:48:43.648947 32543 net.cpp:157] Top shape: 125 32 8 8 (256000)
I0821 06:48:43.648952 32543 net.cpp:165] Memory required for data: 1268225500
I0821 06:48:43.648957 32543 layer_factory.hpp:77] Creating layer L3_b1_concat0
I0821 06:48:43.648967 32543 net.cpp:100] Creating Layer L3_b1_concat0
I0821 06:48:43.648973 32543 net.cpp:434] L3_b1_concat0 <- L3_b1_sum_eltwise_top
I0821 06:48:43.648980 32543 net.cpp:434] L3_b1_concat0 <- L3_b1_zeros
I0821 06:48:43.648991 32543 net.cpp:408] L3_b1_concat0 -> L3_b1_concat0
I0821 06:48:43.649032 32543 net.cpp:150] Setting up L3_b1_concat0
I0821 06:48:43.649047 32543 net.cpp:157] Top shape: 125 64 8 8 (512000)
I0821 06:48:43.649052 32543 net.cpp:165] Memory required for data: 1270273500
I0821 06:48:43.649057 32543 layer_factory.hpp:77] Creating layer L3_b1_concat0_L3_b1_concat0_0_split
I0821 06:48:43.649065 32543 net.cpp:100] Creating Layer L3_b1_concat0_L3_b1_concat0_0_split
I0821 06:48:43.649071 32543 net.cpp:434] L3_b1_concat0_L3_b1_concat0_0_split <- L3_b1_concat0
I0821 06:48:43.649080 32543 net.cpp:408] L3_b1_concat0_L3_b1_concat0_0_split -> L3_b1_concat0_L3_b1_concat0_0_split_0
I0821 06:48:43.649091 32543 net.cpp:408] L3_b1_concat0_L3_b1_concat0_0_split -> L3_b1_concat0_L3_b1_concat0_0_split_1
I0821 06:48:43.649147 32543 net.cpp:150] Setting up L3_b1_concat0_L3_b1_concat0_0_split
I0821 06:48:43.649160 32543 net.cpp:157] Top shape: 125 64 8 8 (512000)
I0821 06:48:43.649166 32543 net.cpp:157] Top shape: 125 64 8 8 (512000)
I0821 06:48:43.649178 32543 net.cpp:165] Memory required for data: 1274369500
I0821 06:48:43.649184 32543 layer_factory.hpp:77] Creating layer L3_b2_cbr1_conv
I0821 06:48:43.649199 32543 net.cpp:100] Creating Layer L3_b2_cbr1_conv
I0821 06:48:43.649206 32543 net.cpp:434] L3_b2_cbr1_conv <- L3_b1_concat0_L3_b1_concat0_0_split_0
I0821 06:48:43.649215 32543 net.cpp:408] L3_b2_cbr1_conv -> L3_b2_cbr1_conv_top
I0821 06:48:43.651309 32543 net.cpp:150] Setting up L3_b2_cbr1_conv
I0821 06:48:43.651327 32543 net.cpp:157] Top shape: 125 64 8 8 (512000)
I0821 06:48:43.651332 32543 net.cpp:165] Memory required for data: 1276417500
I0821 06:48:43.651342 32543 layer_factory.hpp:77] Creating layer L3_b2_cbr1_bn
I0821 06:48:43.651355 32543 net.cpp:100] Creating Layer L3_b2_cbr1_bn
I0821 06:48:43.651362 32543 net.cpp:434] L3_b2_cbr1_bn <- L3_b2_cbr1_conv_top
I0821 06:48:43.651371 32543 net.cpp:408] L3_b2_cbr1_bn -> L3_b2_cbr1_bn_top
I0821 06:48:43.651636 32543 net.cpp:150] Setting up L3_b2_cbr1_bn
I0821 06:48:43.651649 32543 net.cpp:157] Top shape: 125 64 8 8 (512000)
I0821 06:48:43.651654 32543 net.cpp:165] Memory required for data: 1278465500
I0821 06:48:43.651665 32543 layer_factory.hpp:77] Creating layer L3_b2_cbr1_scale
I0821 06:48:43.651674 32543 net.cpp:100] Creating Layer L3_b2_cbr1_scale
I0821 06:48:43.651681 32543 net.cpp:434] L3_b2_cbr1_scale <- L3_b2_cbr1_bn_top
I0821 06:48:43.651690 32543 net.cpp:395] L3_b2_cbr1_scale -> L3_b2_cbr1_bn_top (in-place)
I0821 06:48:43.651751 32543 layer_factory.hpp:77] Creating layer L3_b2_cbr1_scale
I0821 06:48:43.651906 32543 net.cpp:150] Setting up L3_b2_cbr1_scale
I0821 06:48:43.651918 32543 net.cpp:157] Top shape: 125 64 8 8 (512000)
I0821 06:48:43.651923 32543 net.cpp:165] Memory required for data: 1280513500
I0821 06:48:43.651933 32543 layer_factory.hpp:77] Creating layer L3_b2_cbr1_relu
I0821 06:48:43.651942 32543 net.cpp:100] Creating Layer L3_b2_cbr1_relu
I0821 06:48:43.651947 32543 net.cpp:434] L3_b2_cbr1_relu <- L3_b2_cbr1_bn_top
I0821 06:48:43.651954 32543 net.cpp:395] L3_b2_cbr1_relu -> L3_b2_cbr1_bn_top (in-place)
I0821 06:48:43.651964 32543 net.cpp:150] Setting up L3_b2_cbr1_relu
I0821 06:48:43.651971 32543 net.cpp:157] Top shape: 125 64 8 8 (512000)
I0821 06:48:43.651976 32543 net.cpp:165] Memory required for data: 1282561500
I0821 06:48:43.651980 32543 layer_factory.hpp:77] Creating layer L3_b2_cbr2_conv
I0821 06:48:43.651995 32543 net.cpp:100] Creating Layer L3_b2_cbr2_conv
I0821 06:48:43.652001 32543 net.cpp:434] L3_b2_cbr2_conv <- L3_b2_cbr1_bn_top
I0821 06:48:43.652012 32543 net.cpp:408] L3_b2_cbr2_conv -> L3_b2_cbr2_conv_top
I0821 06:48:43.653137 32543 net.cpp:150] Setting up L3_b2_cbr2_conv
I0821 06:48:43.653152 32543 net.cpp:157] Top shape: 125 64 8 8 (512000)
I0821 06:48:43.653157 32543 net.cpp:165] Memory required for data: 1284609500
I0821 06:48:43.653167 32543 layer_factory.hpp:77] Creating layer L3_b2_cbr2_bn
I0821 06:48:43.653178 32543 net.cpp:100] Creating Layer L3_b2_cbr2_bn
I0821 06:48:43.653185 32543 net.cpp:434] L3_b2_cbr2_bn <- L3_b2_cbr2_conv_top
I0821 06:48:43.653194 32543 net.cpp:408] L3_b2_cbr2_bn -> L3_b2_cbr2_bn_top
I0821 06:48:43.653460 32543 net.cpp:150] Setting up L3_b2_cbr2_bn
I0821 06:48:43.653472 32543 net.cpp:157] Top shape: 125 64 8 8 (512000)
I0821 06:48:43.653477 32543 net.cpp:165] Memory required for data: 1286657500
I0821 06:48:43.653488 32543 layer_factory.hpp:77] Creating layer L3_b2_cbr2_scale
I0821 06:48:43.653499 32543 net.cpp:100] Creating Layer L3_b2_cbr2_scale
I0821 06:48:43.653506 32543 net.cpp:434] L3_b2_cbr2_scale <- L3_b2_cbr2_bn_top
I0821 06:48:43.653514 32543 net.cpp:395] L3_b2_cbr2_scale -> L3_b2_cbr2_bn_top (in-place)
I0821 06:48:43.653573 32543 layer_factory.hpp:77] Creating layer L3_b2_cbr2_scale
I0821 06:48:43.653728 32543 net.cpp:150] Setting up L3_b2_cbr2_scale
I0821 06:48:43.653741 32543 net.cpp:157] Top shape: 125 64 8 8 (512000)
I0821 06:48:43.653746 32543 net.cpp:165] Memory required for data: 1288705500
I0821 06:48:43.653754 32543 layer_factory.hpp:77] Creating layer L3_b2_sum_eltwise
I0821 06:48:43.653767 32543 net.cpp:100] Creating Layer L3_b2_sum_eltwise
I0821 06:48:43.653780 32543 net.cpp:434] L3_b2_sum_eltwise <- L3_b2_cbr2_bn_top
I0821 06:48:43.653789 32543 net.cpp:434] L3_b2_sum_eltwise <- L3_b1_concat0_L3_b1_concat0_0_split_1
I0821 06:48:43.653796 32543 net.cpp:408] L3_b2_sum_eltwise -> L3_b2_sum_eltwise_top
I0821 06:48:43.653833 32543 net.cpp:150] Setting up L3_b2_sum_eltwise
I0821 06:48:43.653843 32543 net.cpp:157] Top shape: 125 64 8 8 (512000)
I0821 06:48:43.653847 32543 net.cpp:165] Memory required for data: 1290753500
I0821 06:48:43.653852 32543 layer_factory.hpp:77] Creating layer L3_b2_relu
I0821 06:48:43.653861 32543 net.cpp:100] Creating Layer L3_b2_relu
I0821 06:48:43.653867 32543 net.cpp:434] L3_b2_relu <- L3_b2_sum_eltwise_top
I0821 06:48:43.653877 32543 net.cpp:395] L3_b2_relu -> L3_b2_sum_eltwise_top (in-place)
I0821 06:48:43.653887 32543 net.cpp:150] Setting up L3_b2_relu
I0821 06:48:43.653894 32543 net.cpp:157] Top shape: 125 64 8 8 (512000)
I0821 06:48:43.653898 32543 net.cpp:165] Memory required for data: 1292801500
I0821 06:48:43.653903 32543 layer_factory.hpp:77] Creating layer L3_b2_sum_eltwise_top_L3_b2_relu_0_split
I0821 06:48:43.653910 32543 net.cpp:100] Creating Layer L3_b2_sum_eltwise_top_L3_b2_relu_0_split
I0821 06:48:43.653915 32543 net.cpp:434] L3_b2_sum_eltwise_top_L3_b2_relu_0_split <- L3_b2_sum_eltwise_top
I0821 06:48:43.653923 32543 net.cpp:408] L3_b2_sum_eltwise_top_L3_b2_relu_0_split -> L3_b2_sum_eltwise_top_L3_b2_relu_0_split_0
I0821 06:48:43.653933 32543 net.cpp:408] L3_b2_sum_eltwise_top_L3_b2_relu_0_split -> L3_b2_sum_eltwise_top_L3_b2_relu_0_split_1
I0821 06:48:43.653981 32543 net.cpp:150] Setting up L3_b2_sum_eltwise_top_L3_b2_relu_0_split
I0821 06:48:43.653993 32543 net.cpp:157] Top shape: 125 64 8 8 (512000)
I0821 06:48:43.654000 32543 net.cpp:157] Top shape: 125 64 8 8 (512000)
I0821 06:48:43.654005 32543 net.cpp:165] Memory required for data: 1296897500
I0821 06:48:43.654009 32543 layer_factory.hpp:77] Creating layer L3_b3_cbr1_conv
I0821 06:48:43.654023 32543 net.cpp:100] Creating Layer L3_b3_cbr1_conv
I0821 06:48:43.654031 32543 net.cpp:434] L3_b3_cbr1_conv <- L3_b2_sum_eltwise_top_L3_b2_relu_0_split_0
I0821 06:48:43.654039 32543 net.cpp:408] L3_b3_cbr1_conv -> L3_b3_cbr1_conv_top
I0821 06:48:43.655164 32543 net.cpp:150] Setting up L3_b3_cbr1_conv
I0821 06:48:43.655180 32543 net.cpp:157] Top shape: 125 64 8 8 (512000)
I0821 06:48:43.655185 32543 net.cpp:165] Memory required for data: 1298945500
I0821 06:48:43.655194 32543 layer_factory.hpp:77] Creating layer L3_b3_cbr1_bn
I0821 06:48:43.655206 32543 net.cpp:100] Creating Layer L3_b3_cbr1_bn
I0821 06:48:43.655213 32543 net.cpp:434] L3_b3_cbr1_bn <- L3_b3_cbr1_conv_top
I0821 06:48:43.655221 32543 net.cpp:408] L3_b3_cbr1_bn -> L3_b3_cbr1_bn_top
I0821 06:48:43.655484 32543 net.cpp:150] Setting up L3_b3_cbr1_bn
I0821 06:48:43.655498 32543 net.cpp:157] Top shape: 125 64 8 8 (512000)
I0821 06:48:43.655503 32543 net.cpp:165] Memory required for data: 1300993500
I0821 06:48:43.655513 32543 layer_factory.hpp:77] Creating layer L3_b3_cbr1_scale
I0821 06:48:43.655521 32543 net.cpp:100] Creating Layer L3_b3_cbr1_scale
I0821 06:48:43.655527 32543 net.cpp:434] L3_b3_cbr1_scale <- L3_b3_cbr1_bn_top
I0821 06:48:43.655535 32543 net.cpp:395] L3_b3_cbr1_scale -> L3_b3_cbr1_bn_top (in-place)
I0821 06:48:43.655598 32543 layer_factory.hpp:77] Creating layer L3_b3_cbr1_scale
I0821 06:48:43.655755 32543 net.cpp:150] Setting up L3_b3_cbr1_scale
I0821 06:48:43.655767 32543 net.cpp:157] Top shape: 125 64 8 8 (512000)
I0821 06:48:43.655772 32543 net.cpp:165] Memory required for data: 1303041500
I0821 06:48:43.655781 32543 layer_factory.hpp:77] Creating layer L3_b3_cbr1_relu
I0821 06:48:43.655789 32543 net.cpp:100] Creating Layer L3_b3_cbr1_relu
I0821 06:48:43.655797 32543 net.cpp:434] L3_b3_cbr1_relu <- L3_b3_cbr1_bn_top
I0821 06:48:43.655803 32543 net.cpp:395] L3_b3_cbr1_relu -> L3_b3_cbr1_bn_top (in-place)
I0821 06:48:43.655817 32543 net.cpp:150] Setting up L3_b3_cbr1_relu
I0821 06:48:43.655823 32543 net.cpp:157] Top shape: 125 64 8 8 (512000)
I0821 06:48:43.655834 32543 net.cpp:165] Memory required for data: 1305089500
I0821 06:48:43.655839 32543 layer_factory.hpp:77] Creating layer L3_b3_cbr2_conv
I0821 06:48:43.655851 32543 net.cpp:100] Creating Layer L3_b3_cbr2_conv
I0821 06:48:43.655860 32543 net.cpp:434] L3_b3_cbr2_conv <- L3_b3_cbr1_bn_top
I0821 06:48:43.655869 32543 net.cpp:408] L3_b3_cbr2_conv -> L3_b3_cbr2_conv_top
I0821 06:48:43.656989 32543 net.cpp:150] Setting up L3_b3_cbr2_conv
I0821 06:48:43.657004 32543 net.cpp:157] Top shape: 125 64 8 8 (512000)
I0821 06:48:43.657009 32543 net.cpp:165] Memory required for data: 1307137500
I0821 06:48:43.657019 32543 layer_factory.hpp:77] Creating layer L3_b3_cbr2_bn
I0821 06:48:43.657032 32543 net.cpp:100] Creating Layer L3_b3_cbr2_bn
I0821 06:48:43.657037 32543 net.cpp:434] L3_b3_cbr2_bn <- L3_b3_cbr2_conv_top
I0821 06:48:43.657045 32543 net.cpp:408] L3_b3_cbr2_bn -> L3_b3_cbr2_bn_top
I0821 06:48:43.657322 32543 net.cpp:150] Setting up L3_b3_cbr2_bn
I0821 06:48:43.657336 32543 net.cpp:157] Top shape: 125 64 8 8 (512000)
I0821 06:48:43.657341 32543 net.cpp:165] Memory required for data: 1309185500
I0821 06:48:43.657351 32543 layer_factory.hpp:77] Creating layer L3_b3_cbr2_scale
I0821 06:48:43.657363 32543 net.cpp:100] Creating Layer L3_b3_cbr2_scale
I0821 06:48:43.657371 32543 net.cpp:434] L3_b3_cbr2_scale <- L3_b3_cbr2_bn_top
I0821 06:48:43.657378 32543 net.cpp:395] L3_b3_cbr2_scale -> L3_b3_cbr2_bn_top (in-place)
I0821 06:48:43.657438 32543 layer_factory.hpp:77] Creating layer L3_b3_cbr2_scale
I0821 06:48:43.657603 32543 net.cpp:150] Setting up L3_b3_cbr2_scale
I0821 06:48:43.657615 32543 net.cpp:157] Top shape: 125 64 8 8 (512000)
I0821 06:48:43.657620 32543 net.cpp:165] Memory required for data: 1311233500
I0821 06:48:43.657629 32543 layer_factory.hpp:77] Creating layer L3_b3_sum_eltwise
I0821 06:48:43.657641 32543 net.cpp:100] Creating Layer L3_b3_sum_eltwise
I0821 06:48:43.657649 32543 net.cpp:434] L3_b3_sum_eltwise <- L3_b3_cbr2_bn_top
I0821 06:48:43.657655 32543 net.cpp:434] L3_b3_sum_eltwise <- L3_b2_sum_eltwise_top_L3_b2_relu_0_split_1
I0821 06:48:43.657666 32543 net.cpp:408] L3_b3_sum_eltwise -> L3_b3_sum_eltwise_top
I0821 06:48:43.657699 32543 net.cpp:150] Setting up L3_b3_sum_eltwise
I0821 06:48:43.657711 32543 net.cpp:157] Top shape: 125 64 8 8 (512000)
I0821 06:48:43.657716 32543 net.cpp:165] Memory required for data: 1313281500
I0821 06:48:43.657721 32543 layer_factory.hpp:77] Creating layer L3_b3_relu
I0821 06:48:43.657735 32543 net.cpp:100] Creating Layer L3_b3_relu
I0821 06:48:43.657742 32543 net.cpp:434] L3_b3_relu <- L3_b3_sum_eltwise_top
I0821 06:48:43.657749 32543 net.cpp:395] L3_b3_relu -> L3_b3_sum_eltwise_top (in-place)
I0821 06:48:43.657758 32543 net.cpp:150] Setting up L3_b3_relu
I0821 06:48:43.657765 32543 net.cpp:157] Top shape: 125 64 8 8 (512000)
I0821 06:48:43.657770 32543 net.cpp:165] Memory required for data: 1315329500
I0821 06:48:43.657774 32543 layer_factory.hpp:77] Creating layer L3_b3_sum_eltwise_top_L3_b3_relu_0_split
I0821 06:48:43.657781 32543 net.cpp:100] Creating Layer L3_b3_sum_eltwise_top_L3_b3_relu_0_split
I0821 06:48:43.657788 32543 net.cpp:434] L3_b3_sum_eltwise_top_L3_b3_relu_0_split <- L3_b3_sum_eltwise_top
I0821 06:48:43.657794 32543 net.cpp:408] L3_b3_sum_eltwise_top_L3_b3_relu_0_split -> L3_b3_sum_eltwise_top_L3_b3_relu_0_split_0
I0821 06:48:43.657804 32543 net.cpp:408] L3_b3_sum_eltwise_top_L3_b3_relu_0_split -> L3_b3_sum_eltwise_top_L3_b3_relu_0_split_1
I0821 06:48:43.657853 32543 net.cpp:150] Setting up L3_b3_sum_eltwise_top_L3_b3_relu_0_split
I0821 06:48:43.657865 32543 net.cpp:157] Top shape: 125 64 8 8 (512000)
I0821 06:48:43.657871 32543 net.cpp:157] Top shape: 125 64 8 8 (512000)
I0821 06:48:43.657876 32543 net.cpp:165] Memory required for data: 1319425500
I0821 06:48:43.657881 32543 layer_factory.hpp:77] Creating layer L3_b4_cbr1_conv
I0821 06:48:43.657894 32543 net.cpp:100] Creating Layer L3_b4_cbr1_conv
I0821 06:48:43.657902 32543 net.cpp:434] L3_b4_cbr1_conv <- L3_b3_sum_eltwise_top_L3_b3_relu_0_split_0
I0821 06:48:43.657910 32543 net.cpp:408] L3_b4_cbr1_conv -> L3_b4_cbr1_conv_top
I0821 06:48:43.659039 32543 net.cpp:150] Setting up L3_b4_cbr1_conv
I0821 06:48:43.659054 32543 net.cpp:157] Top shape: 125 64 8 8 (512000)
I0821 06:48:43.659060 32543 net.cpp:165] Memory required for data: 1321473500
I0821 06:48:43.659068 32543 layer_factory.hpp:77] Creating layer L3_b4_cbr1_bn
I0821 06:48:43.659080 32543 net.cpp:100] Creating Layer L3_b4_cbr1_bn
I0821 06:48:43.659087 32543 net.cpp:434] L3_b4_cbr1_bn <- L3_b4_cbr1_conv_top
I0821 06:48:43.659098 32543 net.cpp:408] L3_b4_cbr1_bn -> L3_b4_cbr1_bn_top
I0821 06:48:43.659374 32543 net.cpp:150] Setting up L3_b4_cbr1_bn
I0821 06:48:43.659389 32543 net.cpp:157] Top shape: 125 64 8 8 (512000)
I0821 06:48:43.659394 32543 net.cpp:165] Memory required for data: 1323521500
I0821 06:48:43.659404 32543 layer_factory.hpp:77] Creating layer L3_b4_cbr1_scale
I0821 06:48:43.659413 32543 net.cpp:100] Creating Layer L3_b4_cbr1_scale
I0821 06:48:43.659420 32543 net.cpp:434] L3_b4_cbr1_scale <- L3_b4_cbr1_bn_top
I0821 06:48:43.659427 32543 net.cpp:395] L3_b4_cbr1_scale -> L3_b4_cbr1_bn_top (in-place)
I0821 06:48:43.659487 32543 layer_factory.hpp:77] Creating layer L3_b4_cbr1_scale
I0821 06:48:43.659646 32543 net.cpp:150] Setting up L3_b4_cbr1_scale
I0821 06:48:43.659658 32543 net.cpp:157] Top shape: 125 64 8 8 (512000)
I0821 06:48:43.659663 32543 net.cpp:165] Memory required for data: 1325569500
I0821 06:48:43.659673 32543 layer_factory.hpp:77] Creating layer L3_b4_cbr1_relu
I0821 06:48:43.659682 32543 net.cpp:100] Creating Layer L3_b4_cbr1_relu
I0821 06:48:43.659687 32543 net.cpp:434] L3_b4_cbr1_relu <- L3_b4_cbr1_bn_top
I0821 06:48:43.659698 32543 net.cpp:395] L3_b4_cbr1_relu -> L3_b4_cbr1_bn_top (in-place)
I0821 06:48:43.659708 32543 net.cpp:150] Setting up L3_b4_cbr1_relu
I0821 06:48:43.659714 32543 net.cpp:157] Top shape: 125 64 8 8 (512000)
I0821 06:48:43.659718 32543 net.cpp:165] Memory required for data: 1327617500
I0821 06:48:43.659723 32543 layer_factory.hpp:77] Creating layer L3_b4_cbr2_conv
I0821 06:48:43.659737 32543 net.cpp:100] Creating Layer L3_b4_cbr2_conv
I0821 06:48:43.659744 32543 net.cpp:434] L3_b4_cbr2_conv <- L3_b4_cbr1_bn_top
I0821 06:48:43.659752 32543 net.cpp:408] L3_b4_cbr2_conv -> L3_b4_cbr2_conv_top
I0821 06:48:43.660879 32543 net.cpp:150] Setting up L3_b4_cbr2_conv
I0821 06:48:43.660894 32543 net.cpp:157] Top shape: 125 64 8 8 (512000)
I0821 06:48:43.660899 32543 net.cpp:165] Memory required for data: 1329665500
I0821 06:48:43.660909 32543 layer_factory.hpp:77] Creating layer L3_b4_cbr2_bn
I0821 06:48:43.660922 32543 net.cpp:100] Creating Layer L3_b4_cbr2_bn
I0821 06:48:43.660928 32543 net.cpp:434] L3_b4_cbr2_bn <- L3_b4_cbr2_conv_top
I0821 06:48:43.660935 32543 net.cpp:408] L3_b4_cbr2_bn -> L3_b4_cbr2_bn_top
I0821 06:48:43.661217 32543 net.cpp:150] Setting up L3_b4_cbr2_bn
I0821 06:48:43.661231 32543 net.cpp:157] Top shape: 125 64 8 8 (512000)
I0821 06:48:43.661236 32543 net.cpp:165] Memory required for data: 1331713500
I0821 06:48:43.661247 32543 layer_factory.hpp:77] Creating layer L3_b4_cbr2_scale
I0821 06:48:43.661257 32543 net.cpp:100] Creating Layer L3_b4_cbr2_scale
I0821 06:48:43.661264 32543 net.cpp:434] L3_b4_cbr2_scale <- L3_b4_cbr2_bn_top
I0821 06:48:43.661273 32543 net.cpp:395] L3_b4_cbr2_scale -> L3_b4_cbr2_bn_top (in-place)
I0821 06:48:43.661334 32543 layer_factory.hpp:77] Creating layer L3_b4_cbr2_scale
I0821 06:48:43.661496 32543 net.cpp:150] Setting up L3_b4_cbr2_scale
I0821 06:48:43.661509 32543 net.cpp:157] Top shape: 125 64 8 8 (512000)
I0821 06:48:43.661514 32543 net.cpp:165] Memory required for data: 1333761500
I0821 06:48:43.661522 32543 layer_factory.hpp:77] Creating layer L3_b4_sum_eltwise
I0821 06:48:43.661535 32543 net.cpp:100] Creating Layer L3_b4_sum_eltwise
I0821 06:48:43.661541 32543 net.cpp:434] L3_b4_sum_eltwise <- L3_b4_cbr2_bn_top
I0821 06:48:43.661548 32543 net.cpp:434] L3_b4_sum_eltwise <- L3_b3_sum_eltwise_top_L3_b3_relu_0_split_1
I0821 06:48:43.661558 32543 net.cpp:408] L3_b4_sum_eltwise -> L3_b4_sum_eltwise_top
I0821 06:48:43.661592 32543 net.cpp:150] Setting up L3_b4_sum_eltwise
I0821 06:48:43.661608 32543 net.cpp:157] Top shape: 125 64 8 8 (512000)
I0821 06:48:43.661612 32543 net.cpp:165] Memory required for data: 1335809500
I0821 06:48:43.661618 32543 layer_factory.hpp:77] Creating layer L3_b4_relu
I0821 06:48:43.661628 32543 net.cpp:100] Creating Layer L3_b4_relu
I0821 06:48:43.661634 32543 net.cpp:434] L3_b4_relu <- L3_b4_sum_eltwise_top
I0821 06:48:43.661641 32543 net.cpp:395] L3_b4_relu -> L3_b4_sum_eltwise_top (in-place)
I0821 06:48:43.661651 32543 net.cpp:150] Setting up L3_b4_relu
I0821 06:48:43.661659 32543 net.cpp:157] Top shape: 125 64 8 8 (512000)
I0821 06:48:43.661662 32543 net.cpp:165] Memory required for data: 1337857500
I0821 06:48:43.661667 32543 layer_factory.hpp:77] Creating layer L3_b4_sum_eltwise_top_L3_b4_relu_0_split
I0821 06:48:43.661674 32543 net.cpp:100] Creating Layer L3_b4_sum_eltwise_top_L3_b4_relu_0_split
I0821 06:48:43.661679 32543 net.cpp:434] L3_b4_sum_eltwise_top_L3_b4_relu_0_split <- L3_b4_sum_eltwise_top
I0821 06:48:43.661687 32543 net.cpp:408] L3_b4_sum_eltwise_top_L3_b4_relu_0_split -> L3_b4_sum_eltwise_top_L3_b4_relu_0_split_0
I0821 06:48:43.661696 32543 net.cpp:408] L3_b4_sum_eltwise_top_L3_b4_relu_0_split -> L3_b4_sum_eltwise_top_L3_b4_relu_0_split_1
I0821 06:48:43.661747 32543 net.cpp:150] Setting up L3_b4_sum_eltwise_top_L3_b4_relu_0_split
I0821 06:48:43.661758 32543 net.cpp:157] Top shape: 125 64 8 8 (512000)
I0821 06:48:43.661765 32543 net.cpp:157] Top shape: 125 64 8 8 (512000)
I0821 06:48:43.661769 32543 net.cpp:165] Memory required for data: 1341953500
I0821 06:48:43.661774 32543 layer_factory.hpp:77] Creating layer L3_b5_cbr1_conv
I0821 06:48:43.661789 32543 net.cpp:100] Creating Layer L3_b5_cbr1_conv
I0821 06:48:43.661795 32543 net.cpp:434] L3_b5_cbr1_conv <- L3_b4_sum_eltwise_top_L3_b4_relu_0_split_0
I0821 06:48:43.661804 32543 net.cpp:408] L3_b5_cbr1_conv -> L3_b5_cbr1_conv_top
I0821 06:48:43.662957 32543 net.cpp:150] Setting up L3_b5_cbr1_conv
I0821 06:48:43.662973 32543 net.cpp:157] Top shape: 125 64 8 8 (512000)
I0821 06:48:43.662978 32543 net.cpp:165] Memory required for data: 1344001500
I0821 06:48:43.662987 32543 layer_factory.hpp:77] Creating layer L3_b5_cbr1_bn
I0821 06:48:43.662999 32543 net.cpp:100] Creating Layer L3_b5_cbr1_bn
I0821 06:48:43.663007 32543 net.cpp:434] L3_b5_cbr1_bn <- L3_b5_cbr1_conv_top
I0821 06:48:43.663017 32543 net.cpp:408] L3_b5_cbr1_bn -> L3_b5_cbr1_bn_top
I0821 06:48:43.664284 32543 net.cpp:150] Setting up L3_b5_cbr1_bn
I0821 06:48:43.664302 32543 net.cpp:157] Top shape: 125 64 8 8 (512000)
I0821 06:48:43.664307 32543 net.cpp:165] Memory required for data: 1346049500
I0821 06:48:43.664319 32543 layer_factory.hpp:77] Creating layer L3_b5_cbr1_scale
I0821 06:48:43.664332 32543 net.cpp:100] Creating Layer L3_b5_cbr1_scale
I0821 06:48:43.664340 32543 net.cpp:434] L3_b5_cbr1_scale <- L3_b5_cbr1_bn_top
I0821 06:48:43.664347 32543 net.cpp:395] L3_b5_cbr1_scale -> L3_b5_cbr1_bn_top (in-place)
I0821 06:48:43.664413 32543 layer_factory.hpp:77] Creating layer L3_b5_cbr1_scale
I0821 06:48:43.664574 32543 net.cpp:150] Setting up L3_b5_cbr1_scale
I0821 06:48:43.664587 32543 net.cpp:157] Top shape: 125 64 8 8 (512000)
I0821 06:48:43.664592 32543 net.cpp:165] Memory required for data: 1348097500
I0821 06:48:43.664602 32543 layer_factory.hpp:77] Creating layer L3_b5_cbr1_relu
I0821 06:48:43.664613 32543 net.cpp:100] Creating Layer L3_b5_cbr1_relu
I0821 06:48:43.664619 32543 net.cpp:434] L3_b5_cbr1_relu <- L3_b5_cbr1_bn_top
I0821 06:48:43.664629 32543 net.cpp:395] L3_b5_cbr1_relu -> L3_b5_cbr1_bn_top (in-place)
I0821 06:48:43.664639 32543 net.cpp:150] Setting up L3_b5_cbr1_relu
I0821 06:48:43.664646 32543 net.cpp:157] Top shape: 125 64 8 8 (512000)
I0821 06:48:43.664651 32543 net.cpp:165] Memory required for data: 1350145500
I0821 06:48:43.664656 32543 layer_factory.hpp:77] Creating layer L3_b5_cbr2_conv
I0821 06:48:43.664667 32543 net.cpp:100] Creating Layer L3_b5_cbr2_conv
I0821 06:48:43.664674 32543 net.cpp:434] L3_b5_cbr2_conv <- L3_b5_cbr1_bn_top
I0821 06:48:43.664685 32543 net.cpp:408] L3_b5_cbr2_conv -> L3_b5_cbr2_conv_top
I0821 06:48:43.666831 32543 net.cpp:150] Setting up L3_b5_cbr2_conv
I0821 06:48:43.666848 32543 net.cpp:157] Top shape: 125 64 8 8 (512000)
I0821 06:48:43.666854 32543 net.cpp:165] Memory required for data: 1352193500
I0821 06:48:43.666863 32543 layer_factory.hpp:77] Creating layer L3_b5_cbr2_bn
I0821 06:48:43.666877 32543 net.cpp:100] Creating Layer L3_b5_cbr2_bn
I0821 06:48:43.666884 32543 net.cpp:434] L3_b5_cbr2_bn <- L3_b5_cbr2_conv_top
I0821 06:48:43.666893 32543 net.cpp:408] L3_b5_cbr2_bn -> L3_b5_cbr2_bn_top
I0821 06:48:43.667165 32543 net.cpp:150] Setting up L3_b5_cbr2_bn
I0821 06:48:43.667179 32543 net.cpp:157] Top shape: 125 64 8 8 (512000)
I0821 06:48:43.667184 32543 net.cpp:165] Memory required for data: 1354241500
I0821 06:48:43.667196 32543 layer_factory.hpp:77] Creating layer L3_b5_cbr2_scale
I0821 06:48:43.667207 32543 net.cpp:100] Creating Layer L3_b5_cbr2_scale
I0821 06:48:43.667214 32543 net.cpp:434] L3_b5_cbr2_scale <- L3_b5_cbr2_bn_top
I0821 06:48:43.667222 32543 net.cpp:395] L3_b5_cbr2_scale -> L3_b5_cbr2_bn_top (in-place)
I0821 06:48:43.667282 32543 layer_factory.hpp:77] Creating layer L3_b5_cbr2_scale
I0821 06:48:43.667435 32543 net.cpp:150] Setting up L3_b5_cbr2_scale
I0821 06:48:43.667448 32543 net.cpp:157] Top shape: 125 64 8 8 (512000)
I0821 06:48:43.667454 32543 net.cpp:165] Memory required for data: 1356289500
I0821 06:48:43.667462 32543 layer_factory.hpp:77] Creating layer L3_b5_sum_eltwise
I0821 06:48:43.667474 32543 net.cpp:100] Creating Layer L3_b5_sum_eltwise
I0821 06:48:43.667481 32543 net.cpp:434] L3_b5_sum_eltwise <- L3_b5_cbr2_bn_top
I0821 06:48:43.667490 32543 net.cpp:434] L3_b5_sum_eltwise <- L3_b4_sum_eltwise_top_L3_b4_relu_0_split_1
I0821 06:48:43.667500 32543 net.cpp:408] L3_b5_sum_eltwise -> L3_b5_sum_eltwise_top
I0821 06:48:43.667532 32543 net.cpp:150] Setting up L3_b5_sum_eltwise
I0821 06:48:43.667543 32543 net.cpp:157] Top shape: 125 64 8 8 (512000)
I0821 06:48:43.667547 32543 net.cpp:165] Memory required for data: 1358337500
I0821 06:48:43.667553 32543 layer_factory.hpp:77] Creating layer L3_b5_relu
I0821 06:48:43.667564 32543 net.cpp:100] Creating Layer L3_b5_relu
I0821 06:48:43.667570 32543 net.cpp:434] L3_b5_relu <- L3_b5_sum_eltwise_top
I0821 06:48:43.667578 32543 net.cpp:395] L3_b5_relu -> L3_b5_sum_eltwise_top (in-place)
I0821 06:48:43.667587 32543 net.cpp:150] Setting up L3_b5_relu
I0821 06:48:43.667594 32543 net.cpp:157] Top shape: 125 64 8 8 (512000)
I0821 06:48:43.667599 32543 net.cpp:165] Memory required for data: 1360385500
I0821 06:48:43.667603 32543 layer_factory.hpp:77] Creating layer L3_b5_sum_eltwise_top_L3_b5_relu_0_split
I0821 06:48:43.667611 32543 net.cpp:100] Creating Layer L3_b5_sum_eltwise_top_L3_b5_relu_0_split
I0821 06:48:43.667616 32543 net.cpp:434] L3_b5_sum_eltwise_top_L3_b5_relu_0_split <- L3_b5_sum_eltwise_top
I0821 06:48:43.667623 32543 net.cpp:408] L3_b5_sum_eltwise_top_L3_b5_relu_0_split -> L3_b5_sum_eltwise_top_L3_b5_relu_0_split_0
I0821 06:48:43.667634 32543 net.cpp:408] L3_b5_sum_eltwise_top_L3_b5_relu_0_split -> L3_b5_sum_eltwise_top_L3_b5_relu_0_split_1
I0821 06:48:43.667680 32543 net.cpp:150] Setting up L3_b5_sum_eltwise_top_L3_b5_relu_0_split
I0821 06:48:43.667690 32543 net.cpp:157] Top shape: 125 64 8 8 (512000)
I0821 06:48:43.667697 32543 net.cpp:157] Top shape: 125 64 8 8 (512000)
I0821 06:48:43.667701 32543 net.cpp:165] Memory required for data: 1364481500
I0821 06:48:43.667706 32543 layer_factory.hpp:77] Creating layer L3_b6_cbr1_conv
I0821 06:48:43.667721 32543 net.cpp:100] Creating Layer L3_b6_cbr1_conv
I0821 06:48:43.667745 32543 net.cpp:434] L3_b6_cbr1_conv <- L3_b5_sum_eltwise_top_L3_b5_relu_0_split_0
I0821 06:48:43.667757 32543 net.cpp:408] L3_b6_cbr1_conv -> L3_b6_cbr1_conv_top
I0821 06:48:43.668870 32543 net.cpp:150] Setting up L3_b6_cbr1_conv
I0821 06:48:43.668886 32543 net.cpp:157] Top shape: 125 64 8 8 (512000)
I0821 06:48:43.668891 32543 net.cpp:165] Memory required for data: 1366529500
I0821 06:48:43.668900 32543 layer_factory.hpp:77] Creating layer L3_b6_cbr1_bn
I0821 06:48:43.668913 32543 net.cpp:100] Creating Layer L3_b6_cbr1_bn
I0821 06:48:43.668927 32543 net.cpp:434] L3_b6_cbr1_bn <- L3_b6_cbr1_conv_top
I0821 06:48:43.668941 32543 net.cpp:408] L3_b6_cbr1_bn -> L3_b6_cbr1_bn_top
I0821 06:48:43.669206 32543 net.cpp:150] Setting up L3_b6_cbr1_bn
I0821 06:48:43.669220 32543 net.cpp:157] Top shape: 125 64 8 8 (512000)
I0821 06:48:43.669225 32543 net.cpp:165] Memory required for data: 1368577500
I0821 06:48:43.669235 32543 layer_factory.hpp:77] Creating layer L3_b6_cbr1_scale
I0821 06:48:43.669245 32543 net.cpp:100] Creating Layer L3_b6_cbr1_scale
I0821 06:48:43.669250 32543 net.cpp:434] L3_b6_cbr1_scale <- L3_b6_cbr1_bn_top
I0821 06:48:43.669262 32543 net.cpp:395] L3_b6_cbr1_scale -> L3_b6_cbr1_bn_top (in-place)
I0821 06:48:43.669319 32543 layer_factory.hpp:77] Creating layer L3_b6_cbr1_scale
I0821 06:48:43.669471 32543 net.cpp:150] Setting up L3_b6_cbr1_scale
I0821 06:48:43.669483 32543 net.cpp:157] Top shape: 125 64 8 8 (512000)
I0821 06:48:43.669488 32543 net.cpp:165] Memory required for data: 1370625500
I0821 06:48:43.669497 32543 layer_factory.hpp:77] Creating layer L3_b6_cbr1_relu
I0821 06:48:43.669505 32543 net.cpp:100] Creating Layer L3_b6_cbr1_relu
I0821 06:48:43.669512 32543 net.cpp:434] L3_b6_cbr1_relu <- L3_b6_cbr1_bn_top
I0821 06:48:43.669523 32543 net.cpp:395] L3_b6_cbr1_relu -> L3_b6_cbr1_bn_top (in-place)
I0821 06:48:43.669533 32543 net.cpp:150] Setting up L3_b6_cbr1_relu
I0821 06:48:43.669540 32543 net.cpp:157] Top shape: 125 64 8 8 (512000)
I0821 06:48:43.669544 32543 net.cpp:165] Memory required for data: 1372673500
I0821 06:48:43.669549 32543 layer_factory.hpp:77] Creating layer L3_b6_cbr2_conv
I0821 06:48:43.669564 32543 net.cpp:100] Creating Layer L3_b6_cbr2_conv
I0821 06:48:43.669570 32543 net.cpp:434] L3_b6_cbr2_conv <- L3_b6_cbr1_bn_top
I0821 06:48:43.669579 32543 net.cpp:408] L3_b6_cbr2_conv -> L3_b6_cbr2_conv_top
I0821 06:48:43.670744 32543 net.cpp:150] Setting up L3_b6_cbr2_conv
I0821 06:48:43.670761 32543 net.cpp:157] Top shape: 125 64 8 8 (512000)
I0821 06:48:43.670766 32543 net.cpp:165] Memory required for data: 1374721500
I0821 06:48:43.670775 32543 layer_factory.hpp:77] Creating layer L3_b6_cbr2_bn
I0821 06:48:43.670789 32543 net.cpp:100] Creating Layer L3_b6_cbr2_bn
I0821 06:48:43.670795 32543 net.cpp:434] L3_b6_cbr2_bn <- L3_b6_cbr2_conv_top
I0821 06:48:43.670804 32543 net.cpp:408] L3_b6_cbr2_bn -> L3_b6_cbr2_bn_top
I0821 06:48:43.671061 32543 net.cpp:150] Setting up L3_b6_cbr2_bn
I0821 06:48:43.671073 32543 net.cpp:157] Top shape: 125 64 8 8 (512000)
I0821 06:48:43.671078 32543 net.cpp:165] Memory required for data: 1376769500
I0821 06:48:43.671088 32543 layer_factory.hpp:77] Creating layer L3_b6_cbr2_scale
I0821 06:48:43.671103 32543 net.cpp:100] Creating Layer L3_b6_cbr2_scale
I0821 06:48:43.671108 32543 net.cpp:434] L3_b6_cbr2_scale <- L3_b6_cbr2_bn_top
I0821 06:48:43.671116 32543 net.cpp:395] L3_b6_cbr2_scale -> L3_b6_cbr2_bn_top (in-place)
I0821 06:48:43.671185 32543 layer_factory.hpp:77] Creating layer L3_b6_cbr2_scale
I0821 06:48:43.671342 32543 net.cpp:150] Setting up L3_b6_cbr2_scale
I0821 06:48:43.671355 32543 net.cpp:157] Top shape: 125 64 8 8 (512000)
I0821 06:48:43.671360 32543 net.cpp:165] Memory required for data: 1378817500
I0821 06:48:43.671370 32543 layer_factory.hpp:77] Creating layer L3_b6_sum_eltwise
I0821 06:48:43.671380 32543 net.cpp:100] Creating Layer L3_b6_sum_eltwise
I0821 06:48:43.671386 32543 net.cpp:434] L3_b6_sum_eltwise <- L3_b6_cbr2_bn_top
I0821 06:48:43.671393 32543 net.cpp:434] L3_b6_sum_eltwise <- L3_b5_sum_eltwise_top_L3_b5_relu_0_split_1
I0821 06:48:43.671406 32543 net.cpp:408] L3_b6_sum_eltwise -> L3_b6_sum_eltwise_top
I0821 06:48:43.671439 32543 net.cpp:150] Setting up L3_b6_sum_eltwise
I0821 06:48:43.671450 32543 net.cpp:157] Top shape: 125 64 8 8 (512000)
I0821 06:48:43.671455 32543 net.cpp:165] Memory required for data: 1380865500
I0821 06:48:43.671460 32543 layer_factory.hpp:77] Creating layer L3_b6_relu
I0821 06:48:43.671473 32543 net.cpp:100] Creating Layer L3_b6_relu
I0821 06:48:43.671478 32543 net.cpp:434] L3_b6_relu <- L3_b6_sum_eltwise_top
I0821 06:48:43.671492 32543 net.cpp:395] L3_b6_relu -> L3_b6_sum_eltwise_top (in-place)
I0821 06:48:43.671502 32543 net.cpp:150] Setting up L3_b6_relu
I0821 06:48:43.671509 32543 net.cpp:157] Top shape: 125 64 8 8 (512000)
I0821 06:48:43.671514 32543 net.cpp:165] Memory required for data: 1382913500
I0821 06:48:43.671519 32543 layer_factory.hpp:77] Creating layer L3_b6_sum_eltwise_top_L3_b6_relu_0_split
I0821 06:48:43.671526 32543 net.cpp:100] Creating Layer L3_b6_sum_eltwise_top_L3_b6_relu_0_split
I0821 06:48:43.671532 32543 net.cpp:434] L3_b6_sum_eltwise_top_L3_b6_relu_0_split <- L3_b6_sum_eltwise_top
I0821 06:48:43.671540 32543 net.cpp:408] L3_b6_sum_eltwise_top_L3_b6_relu_0_split -> L3_b6_sum_eltwise_top_L3_b6_relu_0_split_0
I0821 06:48:43.671550 32543 net.cpp:408] L3_b6_sum_eltwise_top_L3_b6_relu_0_split -> L3_b6_sum_eltwise_top_L3_b6_relu_0_split_1
I0821 06:48:43.671597 32543 net.cpp:150] Setting up L3_b6_sum_eltwise_top_L3_b6_relu_0_split
I0821 06:48:43.671608 32543 net.cpp:157] Top shape: 125 64 8 8 (512000)
I0821 06:48:43.671615 32543 net.cpp:157] Top shape: 125 64 8 8 (512000)
I0821 06:48:43.671619 32543 net.cpp:165] Memory required for data: 1387009500
I0821 06:48:43.671624 32543 layer_factory.hpp:77] Creating layer L3_b7_cbr1_conv
I0821 06:48:43.671638 32543 net.cpp:100] Creating Layer L3_b7_cbr1_conv
I0821 06:48:43.671645 32543 net.cpp:434] L3_b7_cbr1_conv <- L3_b6_sum_eltwise_top_L3_b6_relu_0_split_0
I0821 06:48:43.671655 32543 net.cpp:408] L3_b7_cbr1_conv -> L3_b7_cbr1_conv_top
I0821 06:48:43.672760 32543 net.cpp:150] Setting up L3_b7_cbr1_conv
I0821 06:48:43.672775 32543 net.cpp:157] Top shape: 125 64 8 8 (512000)
I0821 06:48:43.672780 32543 net.cpp:165] Memory required for data: 1389057500
I0821 06:48:43.672788 32543 layer_factory.hpp:77] Creating layer L3_b7_cbr1_bn
I0821 06:48:43.672801 32543 net.cpp:100] Creating Layer L3_b7_cbr1_bn
I0821 06:48:43.672807 32543 net.cpp:434] L3_b7_cbr1_bn <- L3_b7_cbr1_conv_top
I0821 06:48:43.672818 32543 net.cpp:408] L3_b7_cbr1_bn -> L3_b7_cbr1_bn_top
I0821 06:48:43.673071 32543 net.cpp:150] Setting up L3_b7_cbr1_bn
I0821 06:48:43.673084 32543 net.cpp:157] Top shape: 125 64 8 8 (512000)
I0821 06:48:43.673089 32543 net.cpp:165] Memory required for data: 1391105500
I0821 06:48:43.673100 32543 layer_factory.hpp:77] Creating layer L3_b7_cbr1_scale
I0821 06:48:43.673110 32543 net.cpp:100] Creating Layer L3_b7_cbr1_scale
I0821 06:48:43.673115 32543 net.cpp:434] L3_b7_cbr1_scale <- L3_b7_cbr1_bn_top
I0821 06:48:43.673132 32543 net.cpp:395] L3_b7_cbr1_scale -> L3_b7_cbr1_bn_top (in-place)
I0821 06:48:43.673190 32543 layer_factory.hpp:77] Creating layer L3_b7_cbr1_scale
I0821 06:48:43.673346 32543 net.cpp:150] Setting up L3_b7_cbr1_scale
I0821 06:48:43.673359 32543 net.cpp:157] Top shape: 125 64 8 8 (512000)
I0821 06:48:43.673364 32543 net.cpp:165] Memory required for data: 1393153500
I0821 06:48:43.673373 32543 layer_factory.hpp:77] Creating layer L3_b7_cbr1_relu
I0821 06:48:43.673406 32543 net.cpp:100] Creating Layer L3_b7_cbr1_relu
I0821 06:48:43.673414 32543 net.cpp:434] L3_b7_cbr1_relu <- L3_b7_cbr1_bn_top
I0821 06:48:43.673422 32543 net.cpp:395] L3_b7_cbr1_relu -> L3_b7_cbr1_bn_top (in-place)
I0821 06:48:43.673434 32543 net.cpp:150] Setting up L3_b7_cbr1_relu
I0821 06:48:43.673440 32543 net.cpp:157] Top shape: 125 64 8 8 (512000)
I0821 06:48:43.673444 32543 net.cpp:165] Memory required for data: 1395201500
I0821 06:48:43.673450 32543 layer_factory.hpp:77] Creating layer L3_b7_cbr2_conv
I0821 06:48:43.673465 32543 net.cpp:100] Creating Layer L3_b7_cbr2_conv
I0821 06:48:43.673471 32543 net.cpp:434] L3_b7_cbr2_conv <- L3_b7_cbr1_bn_top
I0821 06:48:43.673480 32543 net.cpp:408] L3_b7_cbr2_conv -> L3_b7_cbr2_conv_top
I0821 06:48:43.674604 32543 net.cpp:150] Setting up L3_b7_cbr2_conv
I0821 06:48:43.674619 32543 net.cpp:157] Top shape: 125 64 8 8 (512000)
I0821 06:48:43.674624 32543 net.cpp:165] Memory required for data: 1397249500
I0821 06:48:43.674633 32543 layer_factory.hpp:77] Creating layer L3_b7_cbr2_bn
I0821 06:48:43.674648 32543 net.cpp:100] Creating Layer L3_b7_cbr2_bn
I0821 06:48:43.674661 32543 net.cpp:434] L3_b7_cbr2_bn <- L3_b7_cbr2_conv_top
I0821 06:48:43.674672 32543 net.cpp:408] L3_b7_cbr2_bn -> L3_b7_cbr2_bn_top
I0821 06:48:43.674937 32543 net.cpp:150] Setting up L3_b7_cbr2_bn
I0821 06:48:43.674949 32543 net.cpp:157] Top shape: 125 64 8 8 (512000)
I0821 06:48:43.674954 32543 net.cpp:165] Memory required for data: 1399297500
I0821 06:48:43.674964 32543 layer_factory.hpp:77] Creating layer L3_b7_cbr2_scale
I0821 06:48:43.674973 32543 net.cpp:100] Creating Layer L3_b7_cbr2_scale
I0821 06:48:43.674979 32543 net.cpp:434] L3_b7_cbr2_scale <- L3_b7_cbr2_bn_top
I0821 06:48:43.674988 32543 net.cpp:395] L3_b7_cbr2_scale -> L3_b7_cbr2_bn_top (in-place)
I0821 06:48:43.675047 32543 layer_factory.hpp:77] Creating layer L3_b7_cbr2_scale
I0821 06:48:43.675209 32543 net.cpp:150] Setting up L3_b7_cbr2_scale
I0821 06:48:43.675223 32543 net.cpp:157] Top shape: 125 64 8 8 (512000)
I0821 06:48:43.675228 32543 net.cpp:165] Memory required for data: 1401345500
I0821 06:48:43.675237 32543 layer_factory.hpp:77] Creating layer L3_b7_sum_eltwise
I0821 06:48:43.675246 32543 net.cpp:100] Creating Layer L3_b7_sum_eltwise
I0821 06:48:43.675253 32543 net.cpp:434] L3_b7_sum_eltwise <- L3_b7_cbr2_bn_top
I0821 06:48:43.675261 32543 net.cpp:434] L3_b7_sum_eltwise <- L3_b6_sum_eltwise_top_L3_b6_relu_0_split_1
I0821 06:48:43.675271 32543 net.cpp:408] L3_b7_sum_eltwise -> L3_b7_sum_eltwise_top
I0821 06:48:43.675304 32543 net.cpp:150] Setting up L3_b7_sum_eltwise
I0821 06:48:43.675317 32543 net.cpp:157] Top shape: 125 64 8 8 (512000)
I0821 06:48:43.675321 32543 net.cpp:165] Memory required for data: 1403393500
I0821 06:48:43.675326 32543 layer_factory.hpp:77] Creating layer L3_b7_relu
I0821 06:48:43.675334 32543 net.cpp:100] Creating Layer L3_b7_relu
I0821 06:48:43.675340 32543 net.cpp:434] L3_b7_relu <- L3_b7_sum_eltwise_top
I0821 06:48:43.675348 32543 net.cpp:395] L3_b7_relu -> L3_b7_sum_eltwise_top (in-place)
I0821 06:48:43.675356 32543 net.cpp:150] Setting up L3_b7_relu
I0821 06:48:43.675364 32543 net.cpp:157] Top shape: 125 64 8 8 (512000)
I0821 06:48:43.675369 32543 net.cpp:165] Memory required for data: 1405441500
I0821 06:48:43.675372 32543 layer_factory.hpp:77] Creating layer L3_b7_sum_eltwise_top_L3_b7_relu_0_split
I0821 06:48:43.675384 32543 net.cpp:100] Creating Layer L3_b7_sum_eltwise_top_L3_b7_relu_0_split
I0821 06:48:43.675390 32543 net.cpp:434] L3_b7_sum_eltwise_top_L3_b7_relu_0_split <- L3_b7_sum_eltwise_top
I0821 06:48:43.675397 32543 net.cpp:408] L3_b7_sum_eltwise_top_L3_b7_relu_0_split -> L3_b7_sum_eltwise_top_L3_b7_relu_0_split_0
I0821 06:48:43.675407 32543 net.cpp:408] L3_b7_sum_eltwise_top_L3_b7_relu_0_split -> L3_b7_sum_eltwise_top_L3_b7_relu_0_split_1
I0821 06:48:43.675456 32543 net.cpp:150] Setting up L3_b7_sum_eltwise_top_L3_b7_relu_0_split
I0821 06:48:43.675467 32543 net.cpp:157] Top shape: 125 64 8 8 (512000)
I0821 06:48:43.675472 32543 net.cpp:157] Top shape: 125 64 8 8 (512000)
I0821 06:48:43.675477 32543 net.cpp:165] Memory required for data: 1409537500
I0821 06:48:43.675482 32543 layer_factory.hpp:77] Creating layer L3_b8_cbr1_conv
I0821 06:48:43.675493 32543 net.cpp:100] Creating Layer L3_b8_cbr1_conv
I0821 06:48:43.675500 32543 net.cpp:434] L3_b8_cbr1_conv <- L3_b7_sum_eltwise_top_L3_b7_relu_0_split_0
I0821 06:48:43.675511 32543 net.cpp:408] L3_b8_cbr1_conv -> L3_b8_cbr1_conv_top
I0821 06:48:43.676626 32543 net.cpp:150] Setting up L3_b8_cbr1_conv
I0821 06:48:43.676641 32543 net.cpp:157] Top shape: 125 64 8 8 (512000)
I0821 06:48:43.676646 32543 net.cpp:165] Memory required for data: 1411585500
I0821 06:48:43.676656 32543 layer_factory.hpp:77] Creating layer L3_b8_cbr1_bn
I0821 06:48:43.676663 32543 net.cpp:100] Creating Layer L3_b8_cbr1_bn
I0821 06:48:43.676671 32543 net.cpp:434] L3_b8_cbr1_bn <- L3_b8_cbr1_conv_top
I0821 06:48:43.676681 32543 net.cpp:408] L3_b8_cbr1_bn -> L3_b8_cbr1_bn_top
I0821 06:48:43.676947 32543 net.cpp:150] Setting up L3_b8_cbr1_bn
I0821 06:48:43.676964 32543 net.cpp:157] Top shape: 125 64 8 8 (512000)
I0821 06:48:43.676968 32543 net.cpp:165] Memory required for data: 1413633500
I0821 06:48:43.676985 32543 layer_factory.hpp:77] Creating layer L3_b8_cbr1_scale
I0821 06:48:43.676995 32543 net.cpp:100] Creating Layer L3_b8_cbr1_scale
I0821 06:48:43.677000 32543 net.cpp:434] L3_b8_cbr1_scale <- L3_b8_cbr1_bn_top
I0821 06:48:43.677008 32543 net.cpp:395] L3_b8_cbr1_scale -> L3_b8_cbr1_bn_top (in-place)
I0821 06:48:43.677067 32543 layer_factory.hpp:77] Creating layer L3_b8_cbr1_scale
I0821 06:48:43.677232 32543 net.cpp:150] Setting up L3_b8_cbr1_scale
I0821 06:48:43.677247 32543 net.cpp:157] Top shape: 125 64 8 8 (512000)
I0821 06:48:43.677251 32543 net.cpp:165] Memory required for data: 1415681500
I0821 06:48:43.677260 32543 layer_factory.hpp:77] Creating layer L3_b8_cbr1_relu
I0821 06:48:43.677271 32543 net.cpp:100] Creating Layer L3_b8_cbr1_relu
I0821 06:48:43.677278 32543 net.cpp:434] L3_b8_cbr1_relu <- L3_b8_cbr1_bn_top
I0821 06:48:43.677285 32543 net.cpp:395] L3_b8_cbr1_relu -> L3_b8_cbr1_bn_top (in-place)
I0821 06:48:43.677295 32543 net.cpp:150] Setting up L3_b8_cbr1_relu
I0821 06:48:43.677302 32543 net.cpp:157] Top shape: 125 64 8 8 (512000)
I0821 06:48:43.677306 32543 net.cpp:165] Memory required for data: 1417729500
I0821 06:48:43.677311 32543 layer_factory.hpp:77] Creating layer L3_b8_cbr2_conv
I0821 06:48:43.677325 32543 net.cpp:100] Creating Layer L3_b8_cbr2_conv
I0821 06:48:43.677331 32543 net.cpp:434] L3_b8_cbr2_conv <- L3_b8_cbr1_bn_top
I0821 06:48:43.677340 32543 net.cpp:408] L3_b8_cbr2_conv -> L3_b8_cbr2_conv_top
I0821 06:48:43.678457 32543 net.cpp:150] Setting up L3_b8_cbr2_conv
I0821 06:48:43.678472 32543 net.cpp:157] Top shape: 125 64 8 8 (512000)
I0821 06:48:43.678478 32543 net.cpp:165] Memory required for data: 1419777500
I0821 06:48:43.678485 32543 layer_factory.hpp:77] Creating layer L3_b8_cbr2_bn
I0821 06:48:43.678499 32543 net.cpp:100] Creating Layer L3_b8_cbr2_bn
I0821 06:48:43.678506 32543 net.cpp:434] L3_b8_cbr2_bn <- L3_b8_cbr2_conv_top
I0821 06:48:43.678517 32543 net.cpp:408] L3_b8_cbr2_bn -> L3_b8_cbr2_bn_top
I0821 06:48:43.678777 32543 net.cpp:150] Setting up L3_b8_cbr2_bn
I0821 06:48:43.678791 32543 net.cpp:157] Top shape: 125 64 8 8 (512000)
I0821 06:48:43.678795 32543 net.cpp:165] Memory required for data: 1421825500
I0821 06:48:43.678805 32543 layer_factory.hpp:77] Creating layer L3_b8_cbr2_scale
I0821 06:48:43.678815 32543 net.cpp:100] Creating Layer L3_b8_cbr2_scale
I0821 06:48:43.678822 32543 net.cpp:434] L3_b8_cbr2_scale <- L3_b8_cbr2_bn_top
I0821 06:48:43.678833 32543 net.cpp:395] L3_b8_cbr2_scale -> L3_b8_cbr2_bn_top (in-place)
I0821 06:48:43.678889 32543 layer_factory.hpp:77] Creating layer L3_b8_cbr2_scale
I0821 06:48:43.679046 32543 net.cpp:150] Setting up L3_b8_cbr2_scale
I0821 06:48:43.679059 32543 net.cpp:157] Top shape: 125 64 8 8 (512000)
I0821 06:48:43.679064 32543 net.cpp:165] Memory required for data: 1423873500
I0821 06:48:43.679074 32543 layer_factory.hpp:77] Creating layer L3_b8_sum_eltwise
I0821 06:48:43.679082 32543 net.cpp:100] Creating Layer L3_b8_sum_eltwise
I0821 06:48:43.679088 32543 net.cpp:434] L3_b8_sum_eltwise <- L3_b8_cbr2_bn_top
I0821 06:48:43.679095 32543 net.cpp:434] L3_b8_sum_eltwise <- L3_b7_sum_eltwise_top_L3_b7_relu_0_split_1
I0821 06:48:43.679108 32543 net.cpp:408] L3_b8_sum_eltwise -> L3_b8_sum_eltwise_top
I0821 06:48:43.679152 32543 net.cpp:150] Setting up L3_b8_sum_eltwise
I0821 06:48:43.679164 32543 net.cpp:157] Top shape: 125 64 8 8 (512000)
I0821 06:48:43.679168 32543 net.cpp:165] Memory required for data: 1425921500
I0821 06:48:43.679174 32543 layer_factory.hpp:77] Creating layer L3_b8_relu
I0821 06:48:43.679181 32543 net.cpp:100] Creating Layer L3_b8_relu
I0821 06:48:43.679188 32543 net.cpp:434] L3_b8_relu <- L3_b8_sum_eltwise_top
I0821 06:48:43.679198 32543 net.cpp:395] L3_b8_relu -> L3_b8_sum_eltwise_top (in-place)
I0821 06:48:43.679208 32543 net.cpp:150] Setting up L3_b8_relu
I0821 06:48:43.679214 32543 net.cpp:157] Top shape: 125 64 8 8 (512000)
I0821 06:48:43.679219 32543 net.cpp:165] Memory required for data: 1427969500
I0821 06:48:43.679224 32543 layer_factory.hpp:77] Creating layer L3_b8_sum_eltwise_top_L3_b8_relu_0_split
I0821 06:48:43.679237 32543 net.cpp:100] Creating Layer L3_b8_sum_eltwise_top_L3_b8_relu_0_split
I0821 06:48:43.679244 32543 net.cpp:434] L3_b8_sum_eltwise_top_L3_b8_relu_0_split <- L3_b8_sum_eltwise_top
I0821 06:48:43.679251 32543 net.cpp:408] L3_b8_sum_eltwise_top_L3_b8_relu_0_split -> L3_b8_sum_eltwise_top_L3_b8_relu_0_split_0
I0821 06:48:43.679260 32543 net.cpp:408] L3_b8_sum_eltwise_top_L3_b8_relu_0_split -> L3_b8_sum_eltwise_top_L3_b8_relu_0_split_1
I0821 06:48:43.679309 32543 net.cpp:150] Setting up L3_b8_sum_eltwise_top_L3_b8_relu_0_split
I0821 06:48:43.679322 32543 net.cpp:157] Top shape: 125 64 8 8 (512000)
I0821 06:48:43.679327 32543 net.cpp:157] Top shape: 125 64 8 8 (512000)
I0821 06:48:43.679332 32543 net.cpp:165] Memory required for data: 1432065500
I0821 06:48:43.679337 32543 layer_factory.hpp:77] Creating layer L3_b9_cbr1_conv
I0821 06:48:43.679348 32543 net.cpp:100] Creating Layer L3_b9_cbr1_conv
I0821 06:48:43.679354 32543 net.cpp:434] L3_b9_cbr1_conv <- L3_b8_sum_eltwise_top_L3_b8_relu_0_split_0
I0821 06:48:43.679368 32543 net.cpp:408] L3_b9_cbr1_conv -> L3_b9_cbr1_conv_top
I0821 06:48:43.681480 32543 net.cpp:150] Setting up L3_b9_cbr1_conv
I0821 06:48:43.681499 32543 net.cpp:157] Top shape: 125 64 8 8 (512000)
I0821 06:48:43.681504 32543 net.cpp:165] Memory required for data: 1434113500
I0821 06:48:43.681514 32543 layer_factory.hpp:77] Creating layer L3_b9_cbr1_bn
I0821 06:48:43.681524 32543 net.cpp:100] Creating Layer L3_b9_cbr1_bn
I0821 06:48:43.681532 32543 net.cpp:434] L3_b9_cbr1_bn <- L3_b9_cbr1_conv_top
I0821 06:48:43.681541 32543 net.cpp:408] L3_b9_cbr1_bn -> L3_b9_cbr1_bn_top
I0821 06:48:43.681804 32543 net.cpp:150] Setting up L3_b9_cbr1_bn
I0821 06:48:43.681818 32543 net.cpp:157] Top shape: 125 64 8 8 (512000)
I0821 06:48:43.681823 32543 net.cpp:165] Memory required for data: 1436161500
I0821 06:48:43.681833 32543 layer_factory.hpp:77] Creating layer L3_b9_cbr1_scale
I0821 06:48:43.681841 32543 net.cpp:100] Creating Layer L3_b9_cbr1_scale
I0821 06:48:43.681848 32543 net.cpp:434] L3_b9_cbr1_scale <- L3_b9_cbr1_bn_top
I0821 06:48:43.681859 32543 net.cpp:395] L3_b9_cbr1_scale -> L3_b9_cbr1_bn_top (in-place)
I0821 06:48:43.681917 32543 layer_factory.hpp:77] Creating layer L3_b9_cbr1_scale
I0821 06:48:43.682078 32543 net.cpp:150] Setting up L3_b9_cbr1_scale
I0821 06:48:43.682092 32543 net.cpp:157] Top shape: 125 64 8 8 (512000)
I0821 06:48:43.682097 32543 net.cpp:165] Memory required for data: 1438209500
I0821 06:48:43.682106 32543 layer_factory.hpp:77] Creating layer L3_b9_cbr1_relu
I0821 06:48:43.682117 32543 net.cpp:100] Creating Layer L3_b9_cbr1_relu
I0821 06:48:43.682129 32543 net.cpp:434] L3_b9_cbr1_relu <- L3_b9_cbr1_bn_top
I0821 06:48:43.682137 32543 net.cpp:395] L3_b9_cbr1_relu -> L3_b9_cbr1_bn_top (in-place)
I0821 06:48:43.682147 32543 net.cpp:150] Setting up L3_b9_cbr1_relu
I0821 06:48:43.682154 32543 net.cpp:157] Top shape: 125 64 8 8 (512000)
I0821 06:48:43.682159 32543 net.cpp:165] Memory required for data: 1440257500
I0821 06:48:43.682164 32543 layer_factory.hpp:77] Creating layer L3_b9_cbr2_conv
I0821 06:48:43.682179 32543 net.cpp:100] Creating Layer L3_b9_cbr2_conv
I0821 06:48:43.682185 32543 net.cpp:434] L3_b9_cbr2_conv <- L3_b9_cbr1_bn_top
I0821 06:48:43.682198 32543 net.cpp:408] L3_b9_cbr2_conv -> L3_b9_cbr2_conv_top
I0821 06:48:43.683316 32543 net.cpp:150] Setting up L3_b9_cbr2_conv
I0821 06:48:43.683331 32543 net.cpp:157] Top shape: 125 64 8 8 (512000)
I0821 06:48:43.683336 32543 net.cpp:165] Memory required for data: 1442305500
I0821 06:48:43.683346 32543 layer_factory.hpp:77] Creating layer L3_b9_cbr2_bn
I0821 06:48:43.683354 32543 net.cpp:100] Creating Layer L3_b9_cbr2_bn
I0821 06:48:43.683360 32543 net.cpp:434] L3_b9_cbr2_bn <- L3_b9_cbr2_conv_top
I0821 06:48:43.683372 32543 net.cpp:408] L3_b9_cbr2_bn -> L3_b9_cbr2_bn_top
I0821 06:48:43.683634 32543 net.cpp:150] Setting up L3_b9_cbr2_bn
I0821 06:48:43.683650 32543 net.cpp:157] Top shape: 125 64 8 8 (512000)
I0821 06:48:43.683655 32543 net.cpp:165] Memory required for data: 1444353500
I0821 06:48:43.683671 32543 layer_factory.hpp:77] Creating layer L3_b9_cbr2_scale
I0821 06:48:43.683681 32543 net.cpp:100] Creating Layer L3_b9_cbr2_scale
I0821 06:48:43.683687 32543 net.cpp:434] L3_b9_cbr2_scale <- L3_b9_cbr2_bn_top
I0821 06:48:43.683696 32543 net.cpp:395] L3_b9_cbr2_scale -> L3_b9_cbr2_bn_top (in-place)
I0821 06:48:43.683753 32543 layer_factory.hpp:77] Creating layer L3_b9_cbr2_scale
I0821 06:48:43.683908 32543 net.cpp:150] Setting up L3_b9_cbr2_scale
I0821 06:48:43.683921 32543 net.cpp:157] Top shape: 125 64 8 8 (512000)
I0821 06:48:43.683926 32543 net.cpp:165] Memory required for data: 1446401500
I0821 06:48:43.683935 32543 layer_factory.hpp:77] Creating layer L3_b9_sum_eltwise
I0821 06:48:43.683948 32543 net.cpp:100] Creating Layer L3_b9_sum_eltwise
I0821 06:48:43.683954 32543 net.cpp:434] L3_b9_sum_eltwise <- L3_b9_cbr2_bn_top
I0821 06:48:43.683961 32543 net.cpp:434] L3_b9_sum_eltwise <- L3_b8_sum_eltwise_top_L3_b8_relu_0_split_1
I0821 06:48:43.683969 32543 net.cpp:408] L3_b9_sum_eltwise -> L3_b9_sum_eltwise_top
I0821 06:48:43.684005 32543 net.cpp:150] Setting up L3_b9_sum_eltwise
I0821 06:48:43.684017 32543 net.cpp:157] Top shape: 125 64 8 8 (512000)
I0821 06:48:43.684022 32543 net.cpp:165] Memory required for data: 1448449500
I0821 06:48:43.684026 32543 layer_factory.hpp:77] Creating layer L3_b9_relu
I0821 06:48:43.684034 32543 net.cpp:100] Creating Layer L3_b9_relu
I0821 06:48:43.684041 32543 net.cpp:434] L3_b9_relu <- L3_b9_sum_eltwise_top
I0821 06:48:43.684047 32543 net.cpp:395] L3_b9_relu -> L3_b9_sum_eltwise_top (in-place)
I0821 06:48:43.684057 32543 net.cpp:150] Setting up L3_b9_relu
I0821 06:48:43.684063 32543 net.cpp:157] Top shape: 125 64 8 8 (512000)
I0821 06:48:43.684068 32543 net.cpp:165] Memory required for data: 1450497500
I0821 06:48:43.684073 32543 layer_factory.hpp:77] Creating layer post_pool
I0821 06:48:43.684082 32543 net.cpp:100] Creating Layer post_pool
I0821 06:48:43.684087 32543 net.cpp:434] post_pool <- L3_b9_sum_eltwise_top
I0821 06:48:43.684098 32543 net.cpp:408] post_pool -> post_pool
I0821 06:48:43.684139 32543 net.cpp:150] Setting up post_pool
I0821 06:48:43.684151 32543 net.cpp:157] Top shape: 125 64 1 1 (8000)
I0821 06:48:43.684155 32543 net.cpp:165] Memory required for data: 1450529500
I0821 06:48:43.684161 32543 layer_factory.hpp:77] Creating layer post_FC
I0821 06:48:43.684257 32543 net.cpp:100] Creating Layer post_FC
I0821 06:48:43.684269 32543 net.cpp:434] post_FC <- post_pool
I0821 06:48:43.684284 32543 net.cpp:408] post_FC -> post_FC_top
I0821 06:48:43.684545 32543 net.cpp:150] Setting up post_FC
I0821 06:48:43.684561 32543 net.cpp:157] Top shape: 125 10 (1250)
I0821 06:48:43.684566 32543 net.cpp:165] Memory required for data: 1450534500
I0821 06:48:43.684576 32543 layer_factory.hpp:77] Creating layer post_FC_top_post_FC_0_split
I0821 06:48:43.684587 32543 net.cpp:100] Creating Layer post_FC_top_post_FC_0_split
I0821 06:48:43.684593 32543 net.cpp:434] post_FC_top_post_FC_0_split <- post_FC_top
I0821 06:48:43.684602 32543 net.cpp:408] post_FC_top_post_FC_0_split -> post_FC_top_post_FC_0_split_0
I0821 06:48:43.684612 32543 net.cpp:408] post_FC_top_post_FC_0_split -> post_FC_top_post_FC_0_split_1
I0821 06:48:43.684664 32543 net.cpp:150] Setting up post_FC_top_post_FC_0_split
I0821 06:48:43.684676 32543 net.cpp:157] Top shape: 125 10 (1250)
I0821 06:48:43.684682 32543 net.cpp:157] Top shape: 125 10 (1250)
I0821 06:48:43.684687 32543 net.cpp:165] Memory required for data: 1450544500
I0821 06:48:43.684692 32543 layer_factory.hpp:77] Creating layer accuracy
I0821 06:48:43.684736 32543 net.cpp:100] Creating Layer accuracy
I0821 06:48:43.684747 32543 net.cpp:434] accuracy <- post_FC_top_post_FC_0_split_0
I0821 06:48:43.684756 32543 net.cpp:434] accuracy <- label_dataLayer_1_split_0
I0821 06:48:43.684763 32543 net.cpp:408] accuracy -> accuracy
…
