…
I0817 16:07:12.514873 17621 net.cpp:322] The NetState phase (0) differed from the phase (1) specified by a rule in layer L3_b9_cbr2_bn
I0817 16:07:12.516609 17621 net.cpp:58] Initializing net from parameters: 
name: "Cifar-Resnet"
state {
  phase: TRAIN
  level: 0
  stage: ""
}
layer {
  name: "dataLayer"
  type: "Data"
  top: "data_top"
  top: "label"
  include {
    phase: TRAIN
  }
  transform_param {
    mirror: true
    crop_size: 32
    mean_file: "examples/cifar10/mean.binaryproto"
  }
  data_param {
    source: "examples/cifar10/cifar10_train20k_lmdb"
    batch_size: 125
    backend: LMDB
  }
  image_data_param {
    shuffle: true
  }
}
layer {
  name: "pre_conv"
  type: "Convolution"
  bottom: "data_top"
  top: "pre_conv_top"
  param {
    lr_mult: 1
    decay_mult: 1
  }
  param {
    lr_mult: 2
    decay_mult: 0
  }
  convolution_param {
    num_output: 16
    pad: 1
    kernel_size: 3
    stride: 1
    weight_filler {
      type: "msra"
    }
    bias_filler {
      type: "constant"
    }
  }
}
layer {
  name: "pre_bn"
  type: "BatchNorm"
  bottom: "pre_conv_top"
  top: "pre_bn_top"
  include {
    phase: TRAIN
  }
  batch_norm_param {
    use_global_stats: false
    moving_average_fraction: 0.95
  }
}
layer {
  name: "pre_scale"
  type: "Scale"
  bottom: "pre_bn_top"
  top: "pre_bn_top"
  scale_param {
    bias_term: true
  }
}
layer {
  name: "pre_relu"
  type: "ReLU"
  bottom: "pre_bn_top"
  top: "pre_bn_top"
}
layer {
  name: "L1_b1_cbr1_conv"
  type: "Convolution"
  bottom: "pre_bn_top"
  top: "L1_b1_cbr1_conv_top"
  param {
    lr_mult: 1
    decay_mult: 1
  }
  param {
    lr_mult: 2
    decay_mult: 0
  }
  convolution_param {
    num_output: 16
    pad: 1
    kernel_size: 3
    stride: 1
    weight_filler {
      type: "msra"
    }
    bias_filler {
      type: "constant"
    }
  }
}
layer {
  name: "L1_b1_cbr1_bn"
  type: "BatchNorm"
  bottom: "L1_b1_cbr1_conv_top"
  top: "L1_b1_cbr1_bn_top"
  include {
    phase: TRAIN
  }
  batch_norm_param {
    use_global_stats: false
    moving_average_fraction: 0.95
  }
}
layer {
  name: "L1_b1_cbr1_scale"
  type: "Scale"
  bottom: "L1_b1_cbr1_bn_top"
  top: "L1_b1_cbr1_bn_top"
  scale_param {
    bias_term: true
  }
}
layer {
  name: "L1_b1_cbr1_relu"
  type: "ReLU"
  bottom: "L1_b1_cbr1_bn_top"
  top: "L1_b1_cbr1_bn_top"
}
layer {
  name: "L1_b1_cbr2_conv"
  type: "Convolution"
  bottom: "L1_b1_cbr1_bn_top"
  top: "L1_b1_cbr2_conv_top"
  param {
    lr_mult: 1
    decay_mult: 1
  }
  param {
    lr_mult: 2
    decay_mult: 0
  }
  convolution_param {
    num_output: 16
    pad: 1
    kernel_size: 3
    stride: 1
    weight_filler {
      type: "msra"
    }
    bias_filler {
      type: "constant"
    }
  }
}
layer {
  name: "L1_b1_cbr2_bn"
  type: "BatchNorm"
  bottom: "L1_b1_cbr2_conv_top"
  top: "L1_b1_cbr2_bn_top"
  include {
    phase: TRAIN
  }
  batch_norm_param {
    use_global_stats: false
    moving_average_fraction: 0.95
  }
}
layer {
  name: "L1_b1_cbr2_scale"
  type: "Scale"
  bottom: "L1_b1_cbr2_bn_top"
  top: "L1_b1_cbr2_bn_top"
  scale_param {
    bias_term: true
  }
}
layer {
  name: "L1_b1_sum_eltwise"
  type: "Eltwise"
  bottom: "L1_b1_cbr2_bn_top"
  bottom: "pre_bn_top"
  top: "L1_b1_sum_eltwise_top"
  eltwise_param {
    operation: SUM
  }
}
layer {
  name: "L1_b1_relu"
  type: "ReLU"
  bottom: "L1_b1_sum_eltwise_top"
  top: "L1_b1_sum_eltwise_top"
}
layer {
  name: "L1_b2_cbr1_conv"
  type: "Convolution"
  bottom: "L1_b1_sum_eltwise_top"
  top: "L1_b2_cbr1_conv_top"
  param {
    lr_mult: 1
    decay_mult: 1
  }
  param {
    lr_mult: 2
    decay_mult: 0
  }
  convolution_param {
    num_output: 16
    pad: 1
    kernel_size: 3
    stride: 1
    weight_filler {
      type: "msra"
    }
    bias_filler {
      type: "constant"
    }
  }
}
layer {
  name: "L1_b2_cbr1_bn"
  type: "BatchNorm"
  bottom: "L1_b2_cbr1_conv_top"
  top: "L1_b2_cbr1_bn_top"
  include {
    phase: TRAIN
  }
  batch_norm_param {
    use_global_stats: false
    moving_average_fraction: 0.95
  }
}
layer {
  name: "L1_b2_cbr1_scale"
  type: "Scale"
  bottom: "L1_b2_cbr1_bn_top"
  top: "L1_b2_cbr1_bn_top"
  scale_param {
    bias_term: true
  }
}
layer {
  name: "L1_b2_cbr1_relu"
  type: "ReLU"
  bottom: "L1_b2_cbr1_bn_top"
  top: "L1_b2_cbr1_bn_top"
}
layer {
  name: "L1_b2_cbr2_conv"
  type: "Convolution"
  bottom: "L1_b2_cbr1_bn_top"
  top: "L1_b2_cbr2_conv_top"
  param {
    lr_mult: 1
    decay_mult: 1
  }
  param {
    lr_mult: 2
    decay_mult: 0
  }
  convolution_param {
    num_output: 16
    pad: 1
    kernel_size: 3
    stride: 1
    weight_filler {
      type: "msra"
    }
    bias_filler {
      type: "constant"
    }
  }
}
layer {
  name: "L1_b2_cbr2_bn"
  type: "BatchNorm"
  bottom: "L1_b2_cbr2_conv_top"
  top: "L1_b2_cbr2_bn_top"
  include {
    phase: TRAIN
  }
  batch_norm_param {
    use_global_stats: false
    moving_average_fraction: 0.95
  }
}
layer {
  name: "L1_b2_cbr2_scale"
  type: "Scale"
  bottom: "L1_b2_cbr2_bn_top"
  top: "L1_b2_cbr2_bn_top"
  scale_param {
    bias_term: true
  }
}
layer {
  name: "L1_b2_sum_eltwise"
  type: "Eltwise"
  bottom: "L1_b2_cbr2_bn_top"
  bottom: "L1_b1_sum_eltwise_top"
  top: "L1_b2_sum_eltwise_top"
  eltwise_param {
    operation: SUM
  }
}
layer {
  name: "L1_b2_relu"
  type: "ReLU"
  bottom: "L1_b2_sum_eltwise_top"
  top: "L1_b2_sum_eltwise_top"
}
layer {
  name: "L1_b3_cbr1_conv"
  type: "Convolution"
  bottom: "L1_b2_sum_eltwise_top"
  top: "L1_b3_cbr1_conv_top"
  param {
    lr_mult: 1
    decay_mult: 1
  }
  param {
    lr_mult: 2
    decay_mult: 0
  }
  convolution_param {
    num_output: 16
    pad: 1
    kernel_size: 3
    stride: 1
    weight_filler {
      type: "msra"
    }
    bias_filler {
      type: "constant"
    }
  }
}
layer {
  name: "L1_b3_cbr1_bn"
  type: "BatchNorm"
  bottom: "L1_b3_cbr1_conv_top"
  top: "L1_b3_cbr1_bn_top"
  include {
    phase: TRAIN
  }
  batch_norm_param {
    use_global_stats: false
    moving_average_fraction: 0.95
  }
}
layer {
  name: "L1_b3_cbr1_scale"
  type: "Scale"
  bottom: "L1_b3_cbr1_bn_top"
  top: "L1_b3_cbr1_bn_top"
  scale_param {
    bias_term: true
  }
}
layer {
  name: "L1_b3_cbr1_relu"
  type: "ReLU"
  bottom: "L1_b3_cbr1_bn_top"
  top: "L1_b3_cbr1_bn_top"
}
layer {
  name: "L1_b3_cbr2_conv"
  type: "Convolution"
  bottom: "L1_b3_cbr1_bn_top"
  top: "L1_b3_cbr2_conv_top"
  param {
    lr_mult: 1
    decay_mult: 1
  }
  param {
    lr_mult: 2
    decay_mult: 0
  }
  convolution_param {
    num_output: 16
    pad: 1
    kernel_size: 3
    stride: 1
    weight_filler {
      type: "msra"
    }
    bias_filler {
      type: "constant"
    }
  }
}
layer {
  name: "L1_b3_cbr2_bn"
  type: "BatchNorm"
  bottom: "L1_b3_cbr2_conv_top"
  top: "L1_b3_cbr2_bn_top"
  include {
    phase: TRAIN
  }
  batch_norm_param {
    use_global_stats: false
    moving_average_fraction: 0.95
  }
}
layer {
  name: "L1_b3_cbr2_scale"
  type: "Scale"
  bottom: "L1_b3_cbr2_bn_top"
  top: "L1_b3_cbr2_bn_top"
  scale_param {
    bias_term: true
  }
}
layer {
  name: "L1_b3_sum_eltwise"
  type: "Eltwise"
  bottom: "L1_b3_cbr2_bn_top"
  bottom: "L1_b2_sum_eltwise_top"
  top: "L1_b3_sum_eltwise_top"
  eltwise_param {
    operation: SUM
  }
}
layer {
  name: "L1_b3_relu"
  type: "ReLU"
  bottom: "L1_b3_sum_eltwise_top"
  top: "L1_b3_sum_eltwise_top"
}
layer {
  name: "L1_b4_cbr1_conv"
  type: "Convolution"
  bottom: "L1_b3_sum_eltwise_top"
  top: "L1_b4_cbr1_conv_top"
  param {
    lr_mult: 1
    decay_mult: 1
  }
  param {
    lr_mult: 2
    decay_mult: 0
  }
  convolution_param {
    num_output: 16
    pad: 1
    kernel_size: 3
    stride: 1
    weight_filler {
      type: "msra"
    }
    bias_filler {
      type: "constant"
    }
  }
}
layer {
  name: "L1_b4_cbr1_bn"
  type: "BatchNorm"
  bottom: "L1_b4_cbr1_conv_top"
  top: "L1_b4_cbr1_bn_top"
  include {
    phase: TRAIN
  }
  batch_norm_param {
    use_global_stats: false
    moving_average_fraction: 0.95
  }
}
layer {
  name: "L1_b4_cbr1_scale"
  type: "Scale"
  bottom: "L1_b4_cbr1_bn_top"
  top: "L1_b4_cbr1_bn_top"
  scale_param {
    bias_term: true
  }
}
layer {
  name: "L1_b4_cbr1_relu"
  type: "ReLU"
  bottom: "L1_b4_cbr1_bn_top"
  top: "L1_b4_cbr1_bn_top"
}
layer {
  name: "L1_b4_cbr2_conv"
  type: "Convolution"
  bottom: "L1_b4_cbr1_bn_top"
  top: "L1_b4_cbr2_conv_top"
  param {
    lr_mult: 1
    decay_mult: 1
  }
  param {
    lr_mult: 2
    decay_mult: 0
  }
  convolution_param {
    num_output: 16
    pad: 1
    kernel_size: 3
    stride: 1
    weight_filler {
      type: "msra"
    }
    bias_filler {
      type: "constant"
    }
  }
}
layer {
  name: "L1_b4_cbr2_bn"
  type: "BatchNorm"
  bottom: "L1_b4_cbr2_conv_top"
  top: "L1_b4_cbr2_bn_top"
  include {
    phase: TRAIN
  }
  batch_norm_param {
    use_global_stats: false
    moving_average_fraction: 0.95
  }
}
layer {
  name: "L1_b4_cbr2_scale"
  type: "Scale"
  bottom: "L1_b4_cbr2_bn_top"
  top: "L1_b4_cbr2_bn_top"
  scale_param {
    bias_term: true
  }
}
layer {
  name: "L1_b4_sum_eltwise"
  type: "Eltwise"
  bottom: "L1_b4_cbr2_bn_top"
  bottom: "L1_b3_sum_eltwise_top"
  top: "L1_b4_sum_eltwise_top"
  eltwise_param {
    operation: SUM
  }
}
layer {
  name: "L1_b4_relu"
  type: "ReLU"
  bottom: "L1_b4_sum_eltwise_top"
  top: "L1_b4_sum_eltwise_top"
}
layer {
  name: "L1_b5_cbr1_conv"
  type: "Convolution"
  bottom: "L1_b4_sum_eltwise_top"
  top: "L1_b5_cbr1_conv_top"
  param {
    lr_mult: 1
    decay_mult: 1
  }
  param {
    lr_mult: 2
    decay_mult: 0
  }
  convolution_param {
    num_output: 16
    pad: 1
    kernel_size: 3
    stride: 1
    weight_filler {
      type: "msra"
    }
    bias_filler {
      type: "constant"
    }
  }
}
layer {
  name: "L1_b5_cbr1_bn"
  type: "BatchNorm"
  bottom: "L1_b5_cbr1_conv_top"
  top: "L1_b5_cbr1_bn_top"
  include {
    phase: TRAIN
  }
  batch_norm_param {
    use_global_stats: false
    moving_average_fraction: 0.95
  }
}
layer {
  name: "L1_b5_cbr1_scale"
  type: "Scale"
  bottom: "L1_b5_cbr1_bn_top"
  top: "L1_b5_cbr1_bn_top"
  scale_param {
    bias_term: true
  }
}
layer {
  name: "L1_b5_cbr1_relu"
  type: "ReLU"
  bottom: "L1_b5_cbr1_bn_top"
  top: "L1_b5_cbr1_bn_top"
}
layer {
  name: "L1_b5_cbr2_conv"
  type: "Convolution"
  bottom: "L1_b5_cbr1_bn_top"
  top: "L1_b5_cbr2_conv_top"
  param {
    lr_mult: 1
    decay_mult: 1
  }
  param {
    lr_mult: 2
    decay_mult: 0
  }
  convolution_param {
    num_output: 16
    pad: 1
    kernel_size: 3
    stride: 1
    weight_filler {
      type: "msra"
    }
    bias_filler {
      type: "constant"
    }
  }
}
layer {
  name: "L1_b5_cbr2_bn"
  type: "BatchNorm"
  bottom: "L1_b5_cbr2_conv_top"
  top: "L1_b5_cbr2_bn_top"
  include {
    phase: TRAIN
  }
  batch_norm_param {
    use_global_stats: false
    moving_average_fraction: 0.95
  }
}
layer {
  name: "L1_b5_cbr2_scale"
  type: "Scale"
  bottom: "L1_b5_cbr2_bn_top"
  top: "L1_b5_cbr2_bn_top"
  scale_param {
    bias_term: true
  }
}
layer {
  name: "L1_b5_sum_eltwise"
  type: "Eltwise"
  bottom: "L1_b5_cbr2_bn_top"
  bottom: "L1_b4_sum_eltwise_top"
  top: "L1_b5_sum_eltwise_top"
  eltwise_param {
    operation: SUM
  }
}
layer {
  name: "L1_b5_relu"
  type: "ReLU"
  bottom: "L1_b5_sum_eltwise_top"
  top: "L1_b5_sum_eltwise_top"
}
layer {
  name: "L1_b6_cbr1_conv"
  type: "Convolution"
  bottom: "L1_b5_sum_eltwise_top"
  top: "L1_b6_cbr1_conv_top"
  param {
    lr_mult: 1
    decay_mult: 1
  }
  param {
    lr_mult: 2
    decay_mult: 0
  }
  convolution_param {
    num_output: 16
    pad: 1
    kernel_size: 3
    stride: 1
    weight_filler {
      type: "msra"
    }
    bias_filler {
      type: "constant"
    }
  }
}
layer {
  name: "L1_b6_cbr1_bn"
  type: "BatchNorm"
  bottom: "L1_b6_cbr1_conv_top"
  top: "L1_b6_cbr1_bn_top"
  include {
    phase: TRAIN
  }
  batch_norm_param {
    use_global_stats: false
    moving_average_fraction: 0.95
  }
}
layer {
  name: "L1_b6_cbr1_scale"
  type: "Scale"
  bottom: "L1_b6_cbr1_bn_top"
  top: "L1_b6_cbr1_bn_top"
  scale_param {
    bias_term: true
  }
}
layer {
  name: "L1_b6_cbr1_relu"
  type: "ReLU"
  bottom: "L1_b6_cbr1_bn_top"
  top: "L1_b6_cbr1_bn_top"
}
layer {
  name: "L1_b6_cbr2_conv"
  type: "Convolution"
  bottom: "L1_b6_cbr1_bn_top"
  top: "L1_b6_cbr2_conv_top"
  param {
    lr_mult: 1
    decay_mult: 1
  }
  param {
    lr_mult: 2
    decay_mult: 0
  }
  convolution_param {
    num_output: 16
    pad: 1
    kernel_size: 3
    stride: 1
    weight_filler {
      type: "msra"
    }
    bias_filler {
      type: "constant"
    }
  }
}
layer {
  name: "L1_b6_cbr2_bn"
  type: "BatchNorm"
  bottom: "L1_b6_cbr2_conv_top"
  top: "L1_b6_cbr2_bn_top"
  include {
    phase: TRAIN
  }
  batch_norm_param {
    use_global_stats: false
    moving_average_fraction: 0.95
  }
}
layer {
  name: "L1_b6_cbr2_scale"
  type: "Scale"
  bottom: "L1_b6_cbr2_bn_top"
  top: "L1_b6_cbr2_bn_top"
  scale_param {
    bias_term: true
  }
}
layer {
  name: "L1_b6_sum_eltwise"
  type: "Eltwise"
  bottom: "L1_b6_cbr2_bn_top"
  bottom: "L1_b5_sum_eltwise_top"
  top: "L1_b6_sum_eltwise_top"
  eltwise_param {
    operation: SUM
  }
}
layer {
  name: "L1_b6_relu"
  type: "ReLU"
  bottom: "L1_b6_sum_eltwise_top"
  top: "L1_b6_sum_eltwise_top"
}
layer {
  name: "L1_b7_cbr1_conv"
  type: "Convolution"
  bottom: "L1_b6_sum_eltwise_top"
  top: "L1_b7_cbr1_conv_top"
  param {
    lr_mult: 1
    decay_mult: 1
  }
  param {
    lr_mult: 2
    decay_mult: 0
  }
  convolution_param {
    num_output: 16
    pad: 1
    kernel_size: 3
    stride: 1
    weight_filler {
      type: "msra"
    }
    bias_filler {
      type: "constant"
    }
  }
}
layer {
  name: "L1_b7_cbr1_bn"
  type: "BatchNorm"
  bottom: "L1_b7_cbr1_conv_top"
  top: "L1_b7_cbr1_bn_top"
  include {
    phase: TRAIN
  }
  batch_norm_param {
    use_global_stats: false
    moving_average_fraction: 0.95
  }
}
layer {
  name: "L1_b7_cbr1_scale"
  type: "Scale"
  bottom: "L1_b7_cbr1_bn_top"
  top: "L1_b7_cbr1_bn_top"
  scale_param {
    bias_term: true
  }
}
layer {
  name: "L1_b7_cbr1_relu"
  type: "ReLU"
  bottom: "L1_b7_cbr1_bn_top"
  top: "L1_b7_cbr1_bn_top"
}
layer {
  name: "L1_b7_cbr2_conv"
  type: "Convolution"
  bottom: "L1_b7_cbr1_bn_top"
  top: "L1_b7_cbr2_conv_top"
  param {
    lr_mult: 1
    decay_mult: 1
  }
  param {
    lr_mult: 2
    decay_mult: 0
  }
  convolution_param {
    num_output: 16
    pad: 1
    kernel_size: 3
    stride: 1
    weight_filler {
      type: "msra"
    }
    bias_filler {
      type: "constant"
    }
  }
}
layer {
  name: "L1_b7_cbr2_bn"
  type: "BatchNorm"
  bottom: "L1_b7_cbr2_conv_top"
  top: "L1_b7_cbr2_bn_top"
  include {
    phase: TRAIN
  }
  batch_norm_param {
    use_global_stats: false
    moving_average_fraction: 0.95
  }
}
layer {
  name: "L1_b7_cbr2_scale"
  type: "Scale"
  bottom: "L1_b7_cbr2_bn_top"
  top: "L1_b7_cbr2_bn_top"
  scale_param {
    bias_term: true
  }
}
layer {
  name: "L1_b7_sum_eltwise"
  type: "Eltwise"
  bottom: "L1_b7_cbr2_bn_top"
  bottom: "L1_b6_sum_eltwise_top"
  top: "L1_b7_sum_eltwise_top"
  eltwise_param {
    operation: SUM
  }
}
layer {
  name: "L1_b7_relu"
  type: "ReLU"
  bottom: "L1_b7_sum_eltwise_top"
  top: "L1_b7_sum_eltwise_top"
}
layer {
  name: "L1_b8_cbr1_conv"
  type: "Convolution"
  bottom: "L1_b7_sum_eltwise_top"
  top: "L1_b8_cbr1_conv_top"
  param {
    lr_mult: 1
    decay_mult: 1
  }
  param {
    lr_mult: 2
    decay_mult: 0
  }
  convolution_param {
    num_output: 16
    pad: 1
    kernel_size: 3
    stride: 1
    weight_filler {
      type: "msra"
    }
    bias_filler {
      type: "constant"
    }
  }
}
layer {
  name: "L1_b8_cbr1_bn"
  type: "BatchNorm"
  bottom: "L1_b8_cbr1_conv_top"
  top: "L1_b8_cbr1_bn_top"
  include {
    phase: TRAIN
  }
  batch_norm_param {
    use_global_stats: false
    moving_average_fraction: 0.95
  }
}
layer {
  name: "L1_b8_cbr1_scale"
  type: "Scale"
  bottom: "L1_b8_cbr1_bn_top"
  top: "L1_b8_cbr1_bn_top"
  scale_param {
    bias_term: true
  }
}
layer {
  name: "L1_b8_cbr1_relu"
  type: "ReLU"
  bottom: "L1_b8_cbr1_bn_top"
  top: "L1_b8_cbr1_bn_top"
}
layer {
  name: "L1_b8_cbr2_conv"
  type: "Convolution"
  bottom: "L1_b8_cbr1_bn_top"
  top: "L1_b8_cbr2_conv_top"
  param {
    lr_mult: 1
    decay_mult: 1
  }
  param {
    lr_mult: 2
    decay_mult: 0
  }
  convolution_param {
    num_output: 16
    pad: 1
    kernel_size: 3
    stride: 1
    weight_filler {
      type: "msra"
    }
    bias_filler {
      type: "constant"
    }
  }
}
layer {
  name: "L1_b8_cbr2_bn"
  type: "BatchNorm"
  bottom: "L1_b8_cbr2_conv_top"
  top: "L1_b8_cbr2_bn_top"
  include {
    phase: TRAIN
  }
  batch_norm_param {
    use_global_stats: false
    moving_average_fraction: 0.95
  }
}
layer {
  name: "L1_b8_cbr2_scale"
  type: "Scale"
  bottom: "L1_b8_cbr2_bn_top"
  top: "L1_b8_cbr2_bn_top"
  scale_param {
    bias_term: true
  }
}
layer {
  name: "L1_b8_sum_eltwise"
  type: "Eltwise"
  bottom: "L1_b8_cbr2_bn_top"
  bottom: "L1_b7_sum_eltwise_top"
  top: "L1_b8_sum_eltwise_top"
  eltwise_param {
    operation: SUM
  }
}
layer {
  name: "L1_b8_relu"
  type: "ReLU"
  bottom: "L1_b8_sum_eltwise_top"
  top: "L1_b8_sum_eltwise_top"
}
layer {
  name: "L1_b9_cbr1_conv"
  type: "Convolution"
  bottom: "L1_b8_sum_eltwise_top"
  top: "L1_b9_cbr1_conv_top"
  param {
    lr_mult: 1
    decay_mult: 1
  }
  param {
    lr_mult: 2
    decay_mult: 0
  }
  convolution_param {
    num_output: 16
    pad: 1
    kernel_size: 3
    stride: 1
    weight_filler {
      type: "msra"
    }
    bias_filler {
      type: "constant"
    }
  }
}
layer {
  name: "L1_b9_cbr1_bn"
  type: "BatchNorm"
  bottom: "L1_b9_cbr1_conv_top"
  top: "L1_b9_cbr1_bn_top"
  include {
    phase: TRAIN
  }
  batch_norm_param {
    use_global_stats: false
    moving_average_fraction: 0.95
  }
}
layer {
  name: "L1_b9_cbr1_scale"
  type: "Scale"
  bottom: "L1_b9_cbr1_bn_top"
  top: "L1_b9_cbr1_bn_top"
  scale_param {
    bias_term: true
  }
}
layer {
  name: "L1_b9_cbr1_relu"
  type: "ReLU"
  bottom: "L1_b9_cbr1_bn_top"
  top: "L1_b9_cbr1_bn_top"
}
layer {
  name: "L1_b9_cbr2_conv"
  type: "Convolution"
  bottom: "L1_b9_cbr1_bn_top"
  top: "L1_b9_cbr2_conv_top"
  param {
    lr_mult: 1
    decay_mult: 1
  }
  param {
    lr_mult: 2
    decay_mult: 0
  }
  convolution_param {
    num_output: 16
    pad: 1
    kernel_size: 3
    stride: 1
    weight_filler {
      type: "msra"
    }
    bias_filler {
      type: "constant"
    }
  }
}
layer {
  name: "L1_b9_cbr2_bn"
  type: "BatchNorm"
  bottom: "L1_b9_cbr2_conv_top"
  top: "L1_b9_cbr2_bn_top"
  include {
    phase: TRAIN
  }
  batch_norm_param {
    use_global_stats: false
    moving_average_fraction: 0.95
  }
}
layer {
  name: "L1_b9_cbr2_scale"
  type: "Scale"
  bottom: "L1_b9_cbr2_bn_top"
  top: "L1_b9_cbr2_bn_top"
  scale_param {
    bias_term: true
  }
}
layer {
  name: "L1_b9_sum_eltwise"
  type: "Eltwise"
  bottom: "L1_b9_cbr2_bn_top"
  bottom: "L1_b8_sum_eltwise_top"
  top: "L1_b9_sum_eltwise_top"
  eltwise_param {
    operation: SUM
  }
}
layer {
  name: "L1_b9_relu"
  type: "ReLU"
  bottom: "L1_b9_sum_eltwise_top"
  top: "L1_b9_sum_eltwise_top"
}
layer {
  name: "L2_b1_cbr1_conv"
  type: "Convolution"
  bottom: "L1_b9_sum_eltwise_top"
  top: "L2_b1_cbr1_conv_top"
  param {
    lr_mult: 1
    decay_mult: 1
  }
  param {
    lr_mult: 2
    decay_mult: 0
  }
  convolution_param {
    num_output: 16
    pad: 1
    kernel_size: 3
    stride: 2
    weight_filler {
      type: "msra"
    }
    bias_filler {
      type: "constant"
    }
  }
}
layer {
  name: "L2_b1_cbr1_bn"
  type: "BatchNorm"
  bottom: "L2_b1_cbr1_conv_top"
  top: "L2_b1_cbr1_bn_top"
  include {
    phase: TRAIN
  }
  batch_norm_param {
    use_global_stats: false
    moving_average_fraction: 0.95
  }
}
layer {
  name: "L2_b1_cbr1_scale"
  type: "Scale"
  bottom: "L2_b1_cbr1_bn_top"
  top: "L2_b1_cbr1_bn_top"
  scale_param {
    bias_term: true
  }
}
layer {
  name: "L2_b1_cbr1_relu"
  type: "ReLU"
  bottom: "L2_b1_cbr1_bn_top"
  top: "L2_b1_cbr1_bn_top"
}
layer {
  name: "L2_b1_cbr2_conv"
  type: "Convolution"
  bottom: "L2_b1_cbr1_bn_top"
  top: "L2_b1_cbr2_conv_top"
  param {
    lr_mult: 1
    decay_mult: 1
  }
  param {
    lr_mult: 2
    decay_mult: 0
  }
  convolution_param {
    num_output: 16
    pad: 1
    kernel_size: 3
    stride: 1
    weight_filler {
      type: "msra"
    }
    bias_filler {
      type: "constant"
    }
  }
}
layer {
  name: "L2_b1_cbr2_bn"
  type: "BatchNorm"
  bottom: "L2_b1_cbr2_conv_top"
  top: "L2_b1_cbr2_bn_top"
  include {
    phase: TRAIN
  }
  batch_norm_param {
    use_global_stats: false
    moving_average_fraction: 0.95
  }
}
layer {
  name: "L2_b1_cbr2_scale"
  type: "Scale"
  bottom: "L2_b1_cbr2_bn_top"
  top: "L2_b1_cbr2_bn_top"
  scale_param {
    bias_term: true
  }
}
layer {
  name: "L2_b1_pool"
  type: "Pooling"
  bottom: "L1_b9_sum_eltwise_top"
  top: "L2_b1_pool"
  pooling_param {
    pool: AVE
    kernel_size: 3
    stride: 2
  }
}
layer {
  name: "L2_b1_sum_eltwise"
  type: "Eltwise"
  bottom: "L2_b1_cbr2_bn_top"
  bottom: "L2_b1_pool"
  top: "L2_b1_sum_eltwise_top"
  eltwise_param {
    operation: SUM
  }
}
layer {
  name: "L2_b1_relu"
  type: "ReLU"
  bottom: "L2_b1_sum_eltwise_top"
  top: "L2_b1_sum_eltwise_top"
}
layer {
  name: "L2_b1_zeros"
  type: "DummyData"
  top: "L2_b1_zeros"
  dummy_data_param {
    data_filler {
      type: "constant"
      value: 0
    }
    shape {
      dim: 125
      dim: 16
      dim: 16
      dim: 16
    }
  }
}
layer {
  name: "L2_b1_concat0"
  type: "Concat"
  bottom: "L2_b1_sum_eltwise_top"
  bottom: "L2_b1_zeros"
  top: "L2_b1_concat0"
  concat_param {
    axis: 1
  }
}
layer {
  name: "L2_b2_cbr1_conv"
  type: "Convolution"
  bottom: "L2_b1_concat0"
  top: "L2_b2_cbr1_conv_top"
  param {
    lr_mult: 1
    decay_mult: 1
  }
  param {
    lr_mult: 2
    decay_mult: 0
  }
  convolution_param {
    num_output: 32
    pad: 1
    kernel_size: 3
    stride: 1
    weight_filler {
      type: "msra"
    }
    bias_filler {
      type: "constant"
    }
  }
}
layer {
  name: "L2_b2_cbr1_bn"
  type: "BatchNorm"
  bottom: "L2_b2_cbr1_conv_top"
  top: "L2_b2_cbr1_bn_top"
  include {
    phase: TRAIN
  }
  batch_norm_param {
    use_global_stats: false
    moving_average_fraction: 0.95
  }
}
layer {
  name: "L2_b2_cbr1_scale"
  type: "Scale"
  bottom: "L2_b2_cbr1_bn_top"
  top: "L2_b2_cbr1_bn_top"
  scale_param {
    bias_term: true
  }
}
layer {
  name: "L2_b2_cbr1_relu"
  type: "ReLU"
  bottom: "L2_b2_cbr1_bn_top"
  top: "L2_b2_cbr1_bn_top"
}
layer {
  name: "L2_b2_cbr2_conv"
  type: "Convolution"
  bottom: "L2_b2_cbr1_bn_top"
  top: "L2_b2_cbr2_conv_top"
  param {
    lr_mult: 1
    decay_mult: 1
  }
  param {
    lr_mult: 2
    decay_mult: 0
  }
  convolution_param {
    num_output: 32
    pad: 1
    kernel_size: 3
    stride: 1
    weight_filler {
      type: "msra"
    }
    bias_filler {
      type: "constant"
    }
  }
}
layer {
  name: "L2_b2_cbr2_bn"
  type: "BatchNorm"
  bottom: "L2_b2_cbr2_conv_top"
  top: "L2_b2_cbr2_bn_top"
  include {
    phase: TRAIN
  }
  batch_norm_param {
    use_global_stats: false
    moving_average_fraction: 0.95
  }
}
layer {
  name: "L2_b2_cbr2_scale"
  type: "Scale"
  bottom: "L2_b2_cbr2_bn_top"
  top: "L2_b2_cbr2_bn_top"
  scale_param {
    bias_term: true
  }
}
layer {
  name: "L2_b2_sum_eltwise"
  type: "Eltwise"
  bottom: "L2_b2_cbr2_bn_top"
  bottom: "L2_b1_concat0"
  top: "L2_b2_sum_eltwise_top"
  eltwise_param {
    operation: SUM
  }
}
layer {
  name: "L2_b2_relu"
  type: "ReLU"
  bottom: "L2_b2_sum_eltwise_top"
  top: "L2_b2_sum_eltwise_top"
}
layer {
  name: "L2_b3_cbr1_conv"
  type: "Convolution"
  bottom: "L2_b2_sum_eltwise_top"
  top: "L2_b3_cbr1_conv_top"
  param {
    lr_mult: 1
    decay_mult: 1
  }
  param {
    lr_mult: 2
    decay_mult: 0
  }
  convolution_param {
    num_output: 32
    pad: 1
    kernel_size: 3
    stride: 1
    weight_filler {
      type: "msra"
    }
    bias_filler {
      type: "constant"
    }
  }
}
layer {
  name: "L2_b3_cbr1_bn"
  type: "BatchNorm"
  bottom: "L2_b3_cbr1_conv_top"
  top: "L2_b3_cbr1_bn_top"
  include {
    phase: TRAIN
  }
  batch_norm_param {
    use_global_stats: false
    moving_average_fraction: 0.95
  }
}
layer {
  name: "L2_b3_cbr1_scale"
  type: "Scale"
  bottom: "L2_b3_cbr1_bn_top"
  top: "L2_b3_cbr1_bn_top"
  scale_param {
    bias_term: true
  }
}
layer {
  name: "L2_b3_cbr1_relu"
  type: "ReLU"
  bottom: "L2_b3_cbr1_bn_top"
  top: "L2_b3_cbr1_bn_top"
}
layer {
  name: "L2_b3_cbr2_conv"
  type: "Convolution"
  bottom: "L2_b3_cbr1_bn_top"
  top: "L2_b3_cbr2_conv_top"
  param {
    lr_mult: 1
    decay_mult: 1
  }
  param {
    lr_mult: 2
    decay_mult: 0
  }
  convolution_param {
    num_output: 32
    pad: 1
    kernel_size: 3
    stride: 1
    weight_filler {
      type: "msra"
    }
    bias_filler {
      type: "constant"
    }
  }
}
layer {
  name: "L2_b3_cbr2_bn"
  type: "BatchNorm"
  bottom: "L2_b3_cbr2_conv_top"
  top: "L2_b3_cbr2_bn_top"
  include {
    phase: TRAIN
  }
  batch_norm_param {
    use_global_stats: false
    moving_average_fraction: 0.95
  }
}
layer {
  name: "L2_b3_cbr2_scale"
  type: "Scale"
  bottom: "L2_b3_cbr2_bn_top"
  top: "L2_b3_cbr2_bn_top"
  scale_param {
    bias_term: true
  }
}
layer {
  name: "L2_b3_sum_eltwise"
  type: "Eltwise"
  bottom: "L2_b3_cbr2_bn_top"
  bottom: "L2_b2_sum_eltwise_top"
  top: "L2_b3_sum_eltwise_top"
  eltwise_param {
    operation: SUM
  }
}
layer {
  name: "L2_b3_relu"
  type: "ReLU"
  bottom: "L2_b3_sum_eltwise_top"
  top: "L2_b3_sum_eltwise_top"
}
layer {
  name: "L2_b4_cbr1_conv"
  type: "Convolution"
  bottom: "L2_b3_sum_eltwise_top"
  top: "L2_b4_cbr1_conv_top"
  param {
    lr_mult: 1
    decay_mult: 1
  }
  param {
    lr_mult: 2
    decay_mult: 0
  }
  convolution_param {
    num_output: 32
    pad: 1
    kernel_size: 3
    stride: 1
    weight_filler {
      type: "msra"
    }
    bias_filler {
      type: "constant"
    }
  }
}
layer {
  name: "L2_b4_cbr1_bn"
  type: "BatchNorm"
  bottom: "L2_b4_cbr1_conv_top"
  top: "L2_b4_cbr1_bn_top"
  include {
    phase: TRAIN
  }
  batch_norm_param {
    use_global_stats: false
    moving_average_fraction: 0.95
  }
}
layer {
  name: "L2_b4_cbr1_scale"
  type: "Scale"
  bottom: "L2_b4_cbr1_bn_top"
  top: "L2_b4_cbr1_bn_top"
  scale_param {
    bias_term: true
  }
}
layer {
  name: "L2_b4_cbr1_relu"
  type: "ReLU"
  bottom: "L2_b4_cbr1_bn_top"
  top: "L2_b4_cbr1_bn_top"
}
layer {
  name: "L2_b4_cbr2_conv"
  type: "Convolution"
  bottom: "L2_b4_cbr1_bn_top"
  top: "L2_b4_cbr2_conv_top"
  param {
    lr_mult: 1
    decay_mult: 1
  }
  param {
    lr_mult: 2
    decay_mult: 0
  }
  convolution_param {
    num_output: 32
    pad: 1
    kernel_size: 3
    stride: 1
    weight_filler {
      type: "msra"
    }
    bias_filler {
      type: "constant"
    }
  }
}
layer {
  name: "L2_b4_cbr2_bn"
  type: "BatchNorm"
  bottom: "L2_b4_cbr2_conv_top"
  top: "L2_b4_cbr2_bn_top"
  include {
    phase: TRAIN
  }
  batch_norm_param {
    use_global_stats: false
    moving_average_fraction: 0.95
  }
}
layer {
  name: "L2_b4_cbr2_scale"
  type: "Scale"
  bottom: "L2_b4_cbr2_bn_top"
  top: "L2_b4_cbr2_bn_top"
  scale_param {
    bias_term: true
  }
}
layer {
  name: "L2_b4_sum_eltwise"
  type: "Eltwise"
  bottom: "L2_b4_cbr2_bn_top"
  bottom: "L2_b3_sum_eltwise_top"
  top: "L2_b4_sum_eltwise_top"
  eltwise_param {
    operation: SUM
  }
}
layer {
  name: "L2_b4_relu"
  type: "ReLU"
  bottom: "L2_b4_sum_eltwise_top"
  top: "L2_b4_sum_eltwise_top"
}
layer {
  name: "L2_b5_cbr1_conv"
  type: "Convolution"
  bottom: "L2_b4_sum_eltwise_top"
  top: "L2_b5_cbr1_conv_top"
  param {
    lr_mult: 1
    decay_mult: 1
  }
  param {
    lr_mult: 2
    decay_mult: 0
  }
  convolution_param {
    num_output: 32
    pad: 1
    kernel_size: 3
    stride: 1
    weight_filler {
      type: "msra"
    }
    bias_filler {
      type: "constant"
    }
  }
}
layer {
  name: "L2_b5_cbr1_bn"
  type: "BatchNorm"
  bottom: "L2_b5_cbr1_conv_top"
  top: "L2_b5_cbr1_bn_top"
  include {
    phase: TRAIN
  }
  batch_norm_param {
    use_global_stats: false
    moving_average_fraction: 0.95
  }
}
layer {
  name: "L2_b5_cbr1_scale"
  type: "Scale"
  bottom: "L2_b5_cbr1_bn_top"
  top: "L2_b5_cbr1_bn_top"
  scale_param {
    bias_term: true
  }
}
layer {
  name: "L2_b5_cbr1_relu"
  type: "ReLU"
  bottom: "L2_b5_cbr1_bn_top"
  top: "L2_b5_cbr1_bn_top"
}
layer {
  name: "L2_b5_cbr2_conv"
  type: "Convolution"
  bottom: "L2_b5_cbr1_bn_top"
  top: "L2_b5_cbr2_conv_top"
  param {
    lr_mult: 1
    decay_mult: 1
  }
  param {
    lr_mult: 2
    decay_mult: 0
  }
  convolution_param {
    num_output: 32
    pad: 1
    kernel_size: 3
    stride: 1
    weight_filler {
      type: "msra"
    }
    bias_filler {
      type: "constant"
    }
  }
}
layer {
  name: "L2_b5_cbr2_bn"
  type: "BatchNorm"
  bottom: "L2_b5_cbr2_conv_top"
  top: "L2_b5_cbr2_bn_top"
  include {
    phase: TRAIN
  }
  batch_norm_param {
    use_global_stats: false
    moving_average_fraction: 0.95
  }
}
layer {
  name: "L2_b5_cbr2_scale"
  type: "Scale"
  bottom: "L2_b5_cbr2_bn_top"
  top: "L2_b5_cbr2_bn_top"
  scale_param {
    bias_term: true
  }
}
layer {
  name: "L2_b5_sum_eltwise"
  type: "Eltwise"
  bottom: "L2_b5_cbr2_bn_top"
  bottom: "L2_b4_sum_eltwise_top"
  top: "L2_b5_sum_eltwise_top"
  eltwise_param {
    operation: SUM
  }
}
layer {
  name: "L2_b5_relu"
  type: "ReLU"
  bottom: "L2_b5_sum_eltwise_top"
  top: "L2_b5_sum_eltwise_top"
}
layer {
  name: "L2_b6_cbr1_conv"
  type: "Convolution"
  bottom: "L2_b5_sum_eltwise_top"
  top: "L2_b6_cbr1_conv_top"
  param {
    lr_mult: 1
    decay_mult: 1
  }
  param {
    lr_mult: 2
    decay_mult: 0
  }
  convolution_param {
    num_output: 32
    pad: 1
    kernel_size: 3
    stride: 1
    weight_filler {
      type: "msra"
    }
    bias_filler {
      type: "constant"
    }
  }
}
layer {
  name: "L2_b6_cbr1_bn"
  type: "BatchNorm"
  bottom: "L2_b6_cbr1_conv_top"
  top: "L2_b6_cbr1_bn_top"
  include {
    phase: TRAIN
  }
  batch_norm_param {
    use_global_stats: false
    moving_average_fraction: 0.95
  }
}
layer {
  name: "L2_b
I0817 16:07:12.518676 17621 layer_factory.hpp:77] Creating layer dataLayer
I0817 16:07:12.520558 17621 net.cpp:100] Creating Layer dataLayer
I0817 16:07:12.520637 17621 net.cpp:408] dataLayer -> data_top
I0817 16:07:12.520843 17621 net.cpp:408] dataLayer -> label
I0817 16:07:12.520959 17621 data_transformer.cpp:25] Loading mean file from: examples/cifar10/mean.binaryproto
I0817 16:07:12.626410 17626 db_lmdb.cpp:35] Opened lmdb examples/cifar10/cifar10_train20k_lmdb
I0817 16:07:12.626857 17621 data_layer.cpp:41] output data size: 125,3,32,32
I0817 16:07:12.634059 17621 net.cpp:150] Setting up dataLayer
I0817 16:07:12.634122 17621 net.cpp:157] Top shape: 125 3 32 32 (384000)
I0817 16:07:12.634137 17621 net.cpp:157] Top shape: 125 (125)
I0817 16:07:12.634143 17621 net.cpp:165] Memory required for data: 1536500
I0817 16:07:12.634158 17621 layer_factory.hpp:77] Creating layer label_dataLayer_1_split
I0817 16:07:12.634174 17621 net.cpp:100] Creating Layer label_dataLayer_1_split
I0817 16:07:12.634183 17621 net.cpp:434] label_dataLayer_1_split <- label
I0817 16:07:12.634205 17621 net.cpp:408] label_dataLayer_1_split -> label_dataLayer_1_split_0
I0817 16:07:12.634222 17621 net.cpp:408] label_dataLayer_1_split -> label_dataLayer_1_split_1
I0817 16:07:12.634290 17621 net.cpp:150] Setting up label_dataLayer_1_split
I0817 16:07:12.634304 17621 net.cpp:157] Top shape: 125 (125)
I0817 16:07:12.634310 17621 net.cpp:157] Top shape: 125 (125)
I0817 16:07:12.634315 17621 net.cpp:165] Memory required for data: 1537500
I0817 16:07:12.634320 17621 layer_factory.hpp:77] Creating layer pre_conv
I0817 16:07:12.634382 17621 net.cpp:100] Creating Layer pre_conv
I0817 16:07:12.634394 17621 net.cpp:434] pre_conv <- data_top
I0817 16:07:12.634407 17621 net.cpp:408] pre_conv -> pre_conv_top
I0817 16:07:12.636137 17621 net.cpp:150] Setting up pre_conv
I0817 16:07:12.636157 17621 net.cpp:157] Top shape: 125 16 32 32 (2048000)
I0817 16:07:12.636163 17621 net.cpp:165] Memory required for data: 9729500
I0817 16:07:12.636231 17621 layer_factory.hpp:77] Creating layer pre_bn
I0817 16:07:12.636301 17621 net.cpp:100] Creating Layer pre_bn
I0817 16:07:12.636312 17621 net.cpp:434] pre_bn <- pre_conv_top
I0817 16:07:12.636325 17621 net.cpp:408] pre_bn -> pre_bn_top
I0817 16:07:12.636765 17627 blocking_queue.cpp:50] Waiting for data
I0817 16:07:12.636883 17621 net.cpp:150] Setting up pre_bn
I0817 16:07:12.636901 17621 net.cpp:157] Top shape: 125 16 32 32 (2048000)
I0817 16:07:12.636907 17621 net.cpp:165] Memory required for data: 17921500
I0817 16:07:12.636925 17621 layer_factory.hpp:77] Creating layer pre_scale
I0817 16:07:12.636973 17621 net.cpp:100] Creating Layer pre_scale
I0817 16:07:12.636986 17621 net.cpp:434] pre_scale <- pre_bn_top
I0817 16:07:12.636997 17621 net.cpp:395] pre_scale -> pre_bn_top (in-place)
I0817 16:07:12.637171 17621 layer_factory.hpp:77] Creating layer pre_scale
I0817 16:07:12.637429 17621 net.cpp:150] Setting up pre_scale
I0817 16:07:12.637444 17621 net.cpp:157] Top shape: 125 16 32 32 (2048000)
I0817 16:07:12.637449 17621 net.cpp:165] Memory required for data: 26113500
I0817 16:07:12.637460 17621 layer_factory.hpp:77] Creating layer pre_relu
I0817 16:07:12.637506 17621 net.cpp:100] Creating Layer pre_relu
I0817 16:07:12.637516 17621 net.cpp:434] pre_relu <- pre_bn_top
I0817 16:07:12.637526 17621 net.cpp:395] pre_relu -> pre_bn_top (in-place)
I0817 16:07:12.637537 17621 net.cpp:150] Setting up pre_relu
I0817 16:07:12.637543 17621 net.cpp:157] Top shape: 125 16 32 32 (2048000)
I0817 16:07:12.637548 17621 net.cpp:165] Memory required for data: 34305500
I0817 16:07:12.637553 17621 layer_factory.hpp:77] Creating layer pre_bn_top_pre_relu_0_split
I0817 16:07:12.637563 17621 net.cpp:100] Creating Layer pre_bn_top_pre_relu_0_split
I0817 16:07:12.637569 17621 net.cpp:434] pre_bn_top_pre_relu_0_split <- pre_bn_top
I0817 16:07:12.637576 17621 net.cpp:408] pre_bn_top_pre_relu_0_split -> pre_bn_top_pre_relu_0_split_0
I0817 16:07:12.637586 17621 net.cpp:408] pre_bn_top_pre_relu_0_split -> pre_bn_top_pre_relu_0_split_1
I0817 16:07:12.637635 17621 net.cpp:150] Setting up pre_bn_top_pre_relu_0_split
I0817 16:07:12.637650 17621 net.cpp:157] Top shape: 125 16 32 32 (2048000)
I0817 16:07:12.637657 17621 net.cpp:157] Top shape: 125 16 32 32 (2048000)
I0817 16:07:12.637661 17621 net.cpp:165] Memory required for data: 50689500
I0817 16:07:12.637666 17621 layer_factory.hpp:77] Creating layer L1_b1_cbr1_conv
I0817 16:07:12.637678 17621 net.cpp:100] Creating Layer L1_b1_cbr1_conv
I0817 16:07:12.637684 17621 net.cpp:434] L1_b1_cbr1_conv <- pre_bn_top_pre_relu_0_split_0
I0817 16:07:12.637693 17621 net.cpp:408] L1_b1_cbr1_conv -> L1_b1_cbr1_conv_top
I0817 16:07:12.638010 17621 net.cpp:150] Setting up L1_b1_cbr1_conv
I0817 16:07:12.638026 17621 net.cpp:157] Top shape: 125 16 32 32 (2048000)
I0817 16:07:12.638031 17621 net.cpp:165] Memory required for data: 58881500
I0817 16:07:12.638043 17621 layer_factory.hpp:77] Creating layer L1_b1_cbr1_bn
I0817 16:07:12.638058 17621 net.cpp:100] Creating Layer L1_b1_cbr1_bn
I0817 16:07:12.638064 17621 net.cpp:434] L1_b1_cbr1_bn <- L1_b1_cbr1_conv_top
I0817 16:07:12.638075 17621 net.cpp:408] L1_b1_cbr1_bn -> L1_b1_cbr1_bn_top
I0817 16:07:12.638314 17621 net.cpp:150] Setting up L1_b1_cbr1_bn
I0817 16:07:12.638327 17621 net.cpp:157] Top shape: 125 16 32 32 (2048000)
I0817 16:07:12.638332 17621 net.cpp:165] Memory required for data: 67073500
I0817 16:07:12.638344 17621 layer_factory.hpp:77] Creating layer L1_b1_cbr1_scale
I0817 16:07:12.638355 17621 net.cpp:100] Creating Layer L1_b1_cbr1_scale
I0817 16:07:12.638361 17621 net.cpp:434] L1_b1_cbr1_scale <- L1_b1_cbr1_bn_top
I0817 16:07:12.638370 17621 net.cpp:395] L1_b1_cbr1_scale -> L1_b1_cbr1_bn_top (in-place)
I0817 16:07:12.638419 17621 layer_factory.hpp:77] Creating layer L1_b1_cbr1_scale
I0817 16:07:12.638556 17621 net.cpp:150] Setting up L1_b1_cbr1_scale
I0817 16:07:12.638568 17621 net.cpp:157] Top shape: 125 16 32 32 (2048000)
I0817 16:07:12.638573 17621 net.cpp:165] Memory required for data: 75265500
I0817 16:07:12.638582 17621 layer_factory.hpp:77] Creating layer L1_b1_cbr1_relu
I0817 16:07:12.638599 17621 net.cpp:100] Creating Layer L1_b1_cbr1_relu
I0817 16:07:12.638605 17621 net.cpp:434] L1_b1_cbr1_relu <- L1_b1_cbr1_bn_top
I0817 16:07:12.638615 17621 net.cpp:395] L1_b1_cbr1_relu -> L1_b1_cbr1_bn_top (in-place)
I0817 16:07:12.638625 17621 net.cpp:150] Setting up L1_b1_cbr1_relu
I0817 16:07:12.638633 17621 net.cpp:157] Top shape: 125 16 32 32 (2048000)
I0817 16:07:12.638638 17621 net.cpp:165] Memory required for data: 83457500
I0817 16:07:12.638643 17621 layer_factory.hpp:77] Creating layer L1_b1_cbr2_conv
I0817 16:07:12.638659 17621 net.cpp:100] Creating Layer L1_b1_cbr2_conv
I0817 16:07:12.638665 17621 net.cpp:434] L1_b1_cbr2_conv <- L1_b1_cbr1_bn_top
I0817 16:07:12.638676 17621 net.cpp:408] L1_b1_cbr2_conv -> L1_b1_cbr2_conv_top
I0817 16:07:12.638985 17621 net.cpp:150] Setting up L1_b1_cbr2_conv
I0817 16:07:12.639000 17621 net.cpp:157] Top shape: 125 16 32 32 (2048000)
I0817 16:07:12.639005 17621 net.cpp:165] Memory required for data: 91649500
I0817 16:07:12.639014 17621 layer_factory.hpp:77] Creating layer L1_b1_cbr2_bn
I0817 16:07:12.639024 17621 net.cpp:100] Creating Layer L1_b1_cbr2_bn
I0817 16:07:12.639029 17621 net.cpp:434] L1_b1_cbr2_bn <- L1_b1_cbr2_conv_top
I0817 16:07:12.639037 17621 net.cpp:408] L1_b1_cbr2_bn -> L1_b1_cbr2_bn_top
I0817 16:07:12.639267 17621 net.cpp:150] Setting up L1_b1_cbr2_bn
I0817 16:07:12.639281 17621 net.cpp:157] Top shape: 125 16 32 32 (2048000)
I0817 16:07:12.639286 17621 net.cpp:165] Memory required for data: 99841500
I0817 16:07:12.639303 17621 layer_factory.hpp:77] Creating layer L1_b1_cbr2_scale
I0817 16:07:12.639313 17621 net.cpp:100] Creating Layer L1_b1_cbr2_scale
I0817 16:07:12.639318 17621 net.cpp:434] L1_b1_cbr2_scale <- L1_b1_cbr2_bn_top
I0817 16:07:12.639328 17621 net.cpp:395] L1_b1_cbr2_scale -> L1_b1_cbr2_bn_top (in-place)
I0817 16:07:12.639382 17621 layer_factory.hpp:77] Creating layer L1_b1_cbr2_scale
I0817 16:07:12.639520 17621 net.cpp:150] Setting up L1_b1_cbr2_scale
I0817 16:07:12.639533 17621 net.cpp:157] Top shape: 125 16 32 32 (2048000)
I0817 16:07:12.639539 17621 net.cpp:165] Memory required for data: 108033500
I0817 16:07:12.639549 17621 layer_factory.hpp:77] Creating layer L1_b1_sum_eltwise
I0817 16:07:12.639600 17621 net.cpp:100] Creating Layer L1_b1_sum_eltwise
I0817 16:07:12.639612 17621 net.cpp:434] L1_b1_sum_eltwise <- L1_b1_cbr2_bn_top
I0817 16:07:12.639619 17621 net.cpp:434] L1_b1_sum_eltwise <- pre_bn_top_pre_relu_0_split_1
I0817 16:07:12.639627 17621 net.cpp:408] L1_b1_sum_eltwise -> L1_b1_sum_eltwise_top
I0817 16:07:12.639699 17621 net.cpp:150] Setting up L1_b1_sum_eltwise
I0817 16:07:12.639714 17621 net.cpp:157] Top shape: 125 16 32 32 (2048000)
I0817 16:07:12.639719 17621 net.cpp:165] Memory required for data: 116225500
I0817 16:07:12.639725 17621 layer_factory.hpp:77] Creating layer L1_b1_relu
I0817 16:07:12.639734 17621 net.cpp:100] Creating Layer L1_b1_relu
I0817 16:07:12.639739 17621 net.cpp:434] L1_b1_relu <- L1_b1_sum_eltwise_top
I0817 16:07:12.639750 17621 net.cpp:395] L1_b1_relu -> L1_b1_sum_eltwise_top (in-place)
I0817 16:07:12.639777 17621 net.cpp:150] Setting up L1_b1_relu
I0817 16:07:12.639786 17621 net.cpp:157] Top shape: 125 16 32 32 (2048000)
I0817 16:07:12.639789 17621 net.cpp:165] Memory required for data: 124417500
I0817 16:07:12.639794 17621 layer_factory.hpp:77] Creating layer L1_b1_sum_eltwise_top_L1_b1_relu_0_split
I0817 16:07:12.639804 17621 net.cpp:100] Creating Layer L1_b1_sum_eltwise_top_L1_b1_relu_0_split
I0817 16:07:12.639809 17621 net.cpp:434] L1_b1_sum_eltwise_top_L1_b1_relu_0_split <- L1_b1_sum_eltwise_top
I0817 16:07:12.639817 17621 net.cpp:408] L1_b1_sum_eltwise_top_L1_b1_relu_0_split -> L1_b1_sum_eltwise_top_L1_b1_relu_0_split_0
I0817 16:07:12.639827 17621 net.cpp:408] L1_b1_sum_eltwise_top_L1_b1_relu_0_split -> L1_b1_sum_eltwise_top_L1_b1_relu_0_split_1
I0817 16:07:12.639871 17621 net.cpp:150] Setting up L1_b1_sum_eltwise_top_L1_b1_relu_0_split
I0817 16:07:12.639883 17621 net.cpp:157] Top shape: 125 16 32 32 (2048000)
I0817 16:07:12.639889 17621 net.cpp:157] Top shape: 125 16 32 32 (2048000)
I0817 16:07:12.639901 17621 net.cpp:165] Memory required for data: 140801500
I0817 16:07:12.639907 17621 layer_factory.hpp:77] Creating layer L1_b2_cbr1_conv
I0817 16:07:12.639921 17621 net.cpp:100] Creating Layer L1_b2_cbr1_conv
I0817 16:07:12.639928 17621 net.cpp:434] L1_b2_cbr1_conv <- L1_b1_sum_eltwise_top_L1_b1_relu_0_split_0
I0817 16:07:12.639937 17621 net.cpp:408] L1_b2_cbr1_conv -> L1_b2_cbr1_conv_top
I0817 16:07:12.640241 17621 net.cpp:150] Setting up L1_b2_cbr1_conv
I0817 16:07:12.640259 17621 net.cpp:157] Top shape: 125 16 32 32 (2048000)
I0817 16:07:12.640264 17621 net.cpp:165] Memory required for data: 148993500
I0817 16:07:12.640274 17621 layer_factory.hpp:77] Creating layer L1_b2_cbr1_bn
I0817 16:07:12.640287 17621 net.cpp:100] Creating Layer L1_b2_cbr1_bn
I0817 16:07:12.640293 17621 net.cpp:434] L1_b2_cbr1_bn <- L1_b2_cbr1_conv_top
I0817 16:07:12.640301 17621 net.cpp:408] L1_b2_cbr1_bn -> L1_b2_cbr1_bn_top
I0817 16:07:12.640547 17621 net.cpp:150] Setting up L1_b2_cbr1_bn
I0817 16:07:12.640559 17621 net.cpp:157] Top shape: 125 16 32 32 (2048000)
I0817 16:07:12.640565 17621 net.cpp:165] Memory required for data: 157185500
I0817 16:07:12.640575 17621 layer_factory.hpp:77] Creating layer L1_b2_cbr1_scale
I0817 16:07:12.640584 17621 net.cpp:100] Creating Layer L1_b2_cbr1_scale
I0817 16:07:12.640590 17621 net.cpp:434] L1_b2_cbr1_scale <- L1_b2_cbr1_bn_top
I0817 16:07:12.640597 17621 net.cpp:395] L1_b2_cbr1_scale -> L1_b2_cbr1_bn_top (in-place)
I0817 16:07:12.640651 17621 layer_factory.hpp:77] Creating layer L1_b2_cbr1_scale
I0817 16:07:12.640799 17621 net.cpp:150] Setting up L1_b2_cbr1_scale
I0817 16:07:12.640812 17621 net.cpp:157] Top shape: 125 16 32 32 (2048000)
I0817 16:07:12.640817 17621 net.cpp:165] Memory required for data: 165377500
I0817 16:07:12.640826 17621 layer_factory.hpp:77] Creating layer L1_b2_cbr1_relu
I0817 16:07:12.640836 17621 net.cpp:100] Creating Layer L1_b2_cbr1_relu
I0817 16:07:12.640841 17621 net.cpp:434] L1_b2_cbr1_relu <- L1_b2_cbr1_bn_top
I0817 16:07:12.640851 17621 net.cpp:395] L1_b2_cbr1_relu -> L1_b2_cbr1_bn_top (in-place)
I0817 16:07:12.640861 17621 net.cpp:150] Setting up L1_b2_cbr1_relu
I0817 16:07:12.640867 17621 net.cpp:157] Top shape: 125 16 32 32 (2048000)
I0817 16:07:12.640872 17621 net.cpp:165] Memory required for data: 173569500
I0817 16:07:12.640877 17621 layer_factory.hpp:77] Creating layer L1_b2_cbr2_conv
I0817 16:07:12.640890 17621 net.cpp:100] Creating Layer L1_b2_cbr2_conv
I0817 16:07:12.640897 17621 net.cpp:434] L1_b2_cbr2_conv <- L1_b2_cbr1_bn_top
I0817 16:07:12.640905 17621 net.cpp:408] L1_b2_cbr2_conv -> L1_b2_cbr2_conv_top
I0817 16:07:12.641204 17621 net.cpp:150] Setting up L1_b2_cbr2_conv
I0817 16:07:12.641218 17621 net.cpp:157] Top shape: 125 16 32 32 (2048000)
I0817 16:07:12.641223 17621 net.cpp:165] Memory required for data: 181761500
I0817 16:07:12.641232 17621 layer_factory.hpp:77] Creating layer L1_b2_cbr2_bn
I0817 16:07:12.641247 17621 net.cpp:100] Creating Layer L1_b2_cbr2_bn
I0817 16:07:12.641253 17621 net.cpp:434] L1_b2_cbr2_bn <- L1_b2_cbr2_conv_top
I0817 16:07:12.641263 17621 net.cpp:408] L1_b2_cbr2_bn -> L1_b2_cbr2_bn_top
I0817 16:07:12.641499 17621 net.cpp:150] Setting up L1_b2_cbr2_bn
I0817 16:07:12.641515 17621 net.cpp:157] Top shape: 125 16 32 32 (2048000)
I0817 16:07:12.641520 17621 net.cpp:165] Memory required for data: 189953500
I0817 16:07:12.641535 17621 layer_factory.hpp:77] Creating layer L1_b2_cbr2_scale
I0817 16:07:12.641546 17621 net.cpp:100] Creating Layer L1_b2_cbr2_scale
I0817 16:07:12.641551 17621 net.cpp:434] L1_b2_cbr2_scale <- L1_b2_cbr2_bn_top
I0817 16:07:12.641561 17621 net.cpp:395] L1_b2_cbr2_scale -> L1_b2_cbr2_bn_top (in-place)
I0817 16:07:12.641614 17621 layer_factory.hpp:77] Creating layer L1_b2_cbr2_scale
I0817 16:07:12.641762 17621 net.cpp:150] Setting up L1_b2_cbr2_scale
I0817 16:07:12.641778 17621 net.cpp:157] Top shape: 125 16 32 32 (2048000)
I0817 16:07:12.641784 17621 net.cpp:165] Memory required for data: 198145500
I0817 16:07:12.641793 17621 layer_factory.hpp:77] Creating layer L1_b2_sum_eltwise
I0817 16:07:12.641810 17621 net.cpp:100] Creating Layer L1_b2_sum_eltwise
I0817 16:07:12.641816 17621 net.cpp:434] L1_b2_sum_eltwise <- L1_b2_cbr2_bn_top
I0817 16:07:12.641824 17621 net.cpp:434] L1_b2_sum_eltwise <- L1_b1_sum_eltwise_top_L1_b1_relu_0_split_1
I0817 16:07:12.641831 17621 net.cpp:408] L1_b2_sum_eltwise -> L1_b2_sum_eltwise_top
I0817 16:07:12.641866 17621 net.cpp:150] Setting up L1_b2_sum_eltwise
I0817 16:07:12.641878 17621 net.cpp:157] Top shape: 125 16 32 32 (2048000)
I0817 16:07:12.641883 17621 net.cpp:165] Memory required for data: 206337500
I0817 16:07:12.641888 17621 layer_factory.hpp:77] Creating layer L1_b2_relu
I0817 16:07:12.641896 17621 net.cpp:100] Creating Layer L1_b2_relu
I0817 16:07:12.641901 17621 net.cpp:434] L1_b2_relu <- L1_b2_sum_eltwise_top
I0817 16:07:12.641908 17621 net.cpp:395] L1_b2_relu -> L1_b2_sum_eltwise_top (in-place)
I0817 16:07:12.641917 17621 net.cpp:150] Setting up L1_b2_relu
I0817 16:07:12.641924 17621 net.cpp:157] Top shape: 125 16 32 32 (2048000)
I0817 16:07:12.641928 17621 net.cpp:165] Memory required for data: 214529500
I0817 16:07:12.641933 17621 layer_factory.hpp:77] Creating layer L1_b2_sum_eltwise_top_L1_b2_relu_0_split
I0817 16:07:12.641943 17621 net.cpp:100] Creating Layer L1_b2_sum_eltwise_top_L1_b2_relu_0_split
I0817 16:07:12.641949 17621 net.cpp:434] L1_b2_sum_eltwise_top_L1_b2_relu_0_split <- L1_b2_sum_eltwise_top
I0817 16:07:12.641957 17621 net.cpp:408] L1_b2_sum_eltwise_top_L1_b2_relu_0_split -> L1_b2_sum_eltwise_top_L1_b2_relu_0_split_0
I0817 16:07:12.641965 17621 net.cpp:408] L1_b2_sum_eltwise_top_L1_b2_relu_0_split -> L1_b2_sum_eltwise_top_L1_b2_relu_0_split_1
I0817 16:07:12.642007 17621 net.cpp:150] Setting up L1_b2_sum_eltwise_top_L1_b2_relu_0_split
I0817 16:07:12.642021 17621 net.cpp:157] Top shape: 125 16 32 32 (2048000)
I0817 16:07:12.642029 17621 net.cpp:157] Top shape: 125 16 32 32 (2048000)
I0817 16:07:12.642032 17621 net.cpp:165] Memory required for data: 230913500
I0817 16:07:12.642037 17621 layer_factory.hpp:77] Creating layer L1_b3_cbr1_conv
I0817 16:07:12.642050 17621 net.cpp:100] Creating Layer L1_b3_cbr1_conv
I0817 16:07:12.642055 17621 net.cpp:434] L1_b3_cbr1_conv <- L1_b2_sum_eltwise_top_L1_b2_relu_0_split_0
I0817 16:07:12.642063 17621 net.cpp:408] L1_b3_cbr1_conv -> L1_b3_cbr1_conv_top
I0817 16:07:12.642370 17621 net.cpp:150] Setting up L1_b3_cbr1_conv
I0817 16:07:12.642385 17621 net.cpp:157] Top shape: 125 16 32 32 (2048000)
I0817 16:07:12.642390 17621 net.cpp:165] Memory required for data: 239105500
I0817 16:07:12.642398 17621 layer_factory.hpp:77] Creating layer L1_b3_cbr1_bn
I0817 16:07:12.642410 17621 net.cpp:100] Creating Layer L1_b3_cbr1_bn
I0817 16:07:12.642416 17621 net.cpp:434] L1_b3_cbr1_bn <- L1_b3_cbr1_conv_top
I0817 16:07:12.642424 17621 net.cpp:408] L1_b3_cbr1_bn -> L1_b3_cbr1_bn_top
I0817 16:07:12.642658 17621 net.cpp:150] Setting up L1_b3_cbr1_bn
I0817 16:07:12.642671 17621 net.cpp:157] Top shape: 125 16 32 32 (2048000)
I0817 16:07:12.642675 17621 net.cpp:165] Memory required for data: 247297500
I0817 16:07:12.642686 17621 layer_factory.hpp:77] Creating layer L1_b3_cbr1_scale
I0817 16:07:12.642695 17621 net.cpp:100] Creating Layer L1_b3_cbr1_scale
I0817 16:07:12.642701 17621 net.cpp:434] L1_b3_cbr1_scale <- L1_b3_cbr1_bn_top
I0817 16:07:12.642711 17621 net.cpp:395] L1_b3_cbr1_scale -> L1_b3_cbr1_bn_top (in-place)
I0817 16:07:12.642771 17621 layer_factory.hpp:77] Creating layer L1_b3_cbr1_scale
I0817 16:07:12.642913 17621 net.cpp:150] Setting up L1_b3_cbr1_scale
I0817 16:07:12.642926 17621 net.cpp:157] Top shape: 125 16 32 32 (2048000)
I0817 16:07:12.642931 17621 net.cpp:165] Memory required for data: 255489500
I0817 16:07:12.642940 17621 layer_factory.hpp:77] Creating layer L1_b3_cbr1_relu
I0817 16:07:12.642948 17621 net.cpp:100] Creating Layer L1_b3_cbr1_relu
I0817 16:07:12.642954 17621 net.cpp:434] L1_b3_cbr1_relu <- L1_b3_cbr1_bn_top
I0817 16:07:12.642961 17621 net.cpp:395] L1_b3_cbr1_relu -> L1_b3_cbr1_bn_top (in-place)
I0817 16:07:12.642971 17621 net.cpp:150] Setting up L1_b3_cbr1_relu
I0817 16:07:12.642985 17621 net.cpp:157] Top shape: 125 16 32 32 (2048000)
I0817 16:07:12.642990 17621 net.cpp:165] Memory required for data: 263681500
I0817 16:07:12.642995 17621 layer_factory.hpp:77] Creating layer L1_b3_cbr2_conv
I0817 16:07:12.643009 17621 net.cpp:100] Creating Layer L1_b3_cbr2_conv
I0817 16:07:12.643015 17621 net.cpp:434] L1_b3_cbr2_conv <- L1_b3_cbr1_bn_top
I0817 16:07:12.643026 17621 net.cpp:408] L1_b3_cbr2_conv -> L1_b3_cbr2_conv_top
I0817 16:07:12.643337 17621 net.cpp:150] Setting up L1_b3_cbr2_conv
I0817 16:07:12.643352 17621 net.cpp:157] Top shape: 125 16 32 32 (2048000)
I0817 16:07:12.643357 17621 net.cpp:165] Memory required for data: 271873500
I0817 16:07:12.643364 17621 layer_factory.hpp:77] Creating layer L1_b3_cbr2_bn
I0817 16:07:12.643383 17621 net.cpp:100] Creating Layer L1_b3_cbr2_bn
I0817 16:07:12.643388 17621 net.cpp:434] L1_b3_cbr2_bn <- L1_b3_cbr2_conv_top
I0817 16:07:12.643396 17621 net.cpp:408] L1_b3_cbr2_bn -> L1_b3_cbr2_bn_top
I0817 16:07:12.643630 17621 net.cpp:150] Setting up L1_b3_cbr2_bn
I0817 16:07:12.643642 17621 net.cpp:157] Top shape: 125 16 32 32 (2048000)
I0817 16:07:12.643648 17621 net.cpp:165] Memory required for data: 280065500
I0817 16:07:12.643658 17621 layer_factory.hpp:77] Creating layer L1_b3_cbr2_scale
I0817 16:07:12.643667 17621 net.cpp:100] Creating Layer L1_b3_cbr2_scale
I0817 16:07:12.643673 17621 net.cpp:434] L1_b3_cbr2_scale <- L1_b3_cbr2_bn_top
I0817 16:07:12.643683 17621 net.cpp:395] L1_b3_cbr2_scale -> L1_b3_cbr2_bn_top (in-place)
I0817 16:07:12.643735 17621 layer_factory.hpp:77] Creating layer L1_b3_cbr2_scale
I0817 16:07:12.643882 17621 net.cpp:150] Setting up L1_b3_cbr2_scale
I0817 16:07:12.643895 17621 net.cpp:157] Top shape: 125 16 32 32 (2048000)
I0817 16:07:12.643900 17621 net.cpp:165] Memory required for data: 288257500
I0817 16:07:12.643909 17621 layer_factory.hpp:77] Creating layer L1_b3_sum_eltwise
I0817 16:07:12.643918 17621 net.cpp:100] Creating Layer L1_b3_sum_eltwise
I0817 16:07:12.643924 17621 net.cpp:434] L1_b3_sum_eltwise <- L1_b3_cbr2_bn_top
I0817 16:07:12.643931 17621 net.cpp:434] L1_b3_sum_eltwise <- L1_b2_sum_eltwise_top_L1_b2_relu_0_split_1
I0817 16:07:12.643942 17621 net.cpp:408] L1_b3_sum_eltwise -> L1_b3_sum_eltwise_top
I0817 16:07:12.643972 17621 net.cpp:150] Setting up L1_b3_sum_eltwise
I0817 16:07:12.643985 17621 net.cpp:157] Top shape: 125 16 32 32 (2048000)
I0817 16:07:12.643990 17621 net.cpp:165] Memory required for data: 296449500
I0817 16:07:12.643996 17621 layer_factory.hpp:77] Creating layer L1_b3_relu
I0817 16:07:12.644003 17621 net.cpp:100] Creating Layer L1_b3_relu
I0817 16:07:12.644008 17621 net.cpp:434] L1_b3_relu <- L1_b3_sum_eltwise_top
I0817 16:07:12.644016 17621 net.cpp:395] L1_b3_relu -> L1_b3_sum_eltwise_top (in-place)
I0817 16:07:12.644024 17621 net.cpp:150] Setting up L1_b3_relu
I0817 16:07:12.644032 17621 net.cpp:157] Top shape: 125 16 32 32 (2048000)
I0817 16:07:12.644035 17621 net.cpp:165] Memory required for data: 304641500
I0817 16:07:12.644040 17621 layer_factory.hpp:77] Creating layer L1_b3_sum_eltwise_top_L1_b3_relu_0_split
I0817 16:07:12.644050 17621 net.cpp:100] Creating Layer L1_b3_sum_eltwise_top_L1_b3_relu_0_split
I0817 16:07:12.644055 17621 net.cpp:434] L1_b3_sum_eltwise_top_L1_b3_relu_0_split <- L1_b3_sum_eltwise_top
I0817 16:07:12.644063 17621 net.cpp:408] L1_b3_sum_eltwise_top_L1_b3_relu_0_split -> L1_b3_sum_eltwise_top_L1_b3_relu_0_split_0
I0817 16:07:12.644073 17621 net.cpp:408] L1_b3_sum_eltwise_top_L1_b3_relu_0_split -> L1_b3_sum_eltwise_top_L1_b3_relu_0_split_1
I0817 16:07:12.644116 17621 net.cpp:150] Setting up L1_b3_sum_eltwise_top_L1_b3_relu_0_split
I0817 16:07:12.644127 17621 net.cpp:157] Top shape: 125 16 32 32 (2048000)
I0817 16:07:12.644134 17621 net.cpp:157] Top shape: 125 16 32 32 (2048000)
I0817 16:07:12.644140 17621 net.cpp:165] Memory required for data: 321025500
I0817 16:07:12.644145 17621 layer_factory.hpp:77] Creating layer L1_b4_cbr1_conv
I0817 16:07:12.644155 17621 net.cpp:100] Creating Layer L1_b4_cbr1_conv
I0817 16:07:12.644161 17621 net.cpp:434] L1_b4_cbr1_conv <- L1_b3_sum_eltwise_top_L1_b3_relu_0_split_0
I0817 16:07:12.644189 17621 net.cpp:408] L1_b4_cbr1_conv -> L1_b4_cbr1_conv_top
I0817 16:07:12.644502 17621 net.cpp:150] Setting up L1_b4_cbr1_conv
I0817 16:07:12.644517 17621 net.cpp:157] Top shape: 125 16 32 32 (2048000)
I0817 16:07:12.644521 17621 net.cpp:165] Memory required for data: 329217500
I0817 16:07:12.644531 17621 layer_factory.hpp:77] Creating layer L1_b4_cbr1_bn
I0817 16:07:12.644539 17621 net.cpp:100] Creating Layer L1_b4_cbr1_bn
I0817 16:07:12.644546 17621 net.cpp:434] L1_b4_cbr1_bn <- L1_b4_cbr1_conv_top
I0817 16:07:12.644554 17621 net.cpp:408] L1_b4_cbr1_bn -> L1_b4_cbr1_bn_top
I0817 16:07:12.644806 17621 net.cpp:150] Setting up L1_b4_cbr1_bn
I0817 16:07:12.644819 17621 net.cpp:157] Top shape: 125 16 32 32 (2048000)
I0817 16:07:12.644825 17621 net.cpp:165] Memory required for data: 337409500
I0817 16:07:12.644835 17621 layer_factory.hpp:77] Creating layer L1_b4_cbr1_scale
I0817 16:07:12.644847 17621 net.cpp:100] Creating Layer L1_b4_cbr1_scale
I0817 16:07:12.644855 17621 net.cpp:434] L1_b4_cbr1_scale <- L1_b4_cbr1_bn_top
I0817 16:07:12.644861 17621 net.cpp:395] L1_b4_cbr1_scale -> L1_b4_cbr1_bn_top (in-place)
I0817 16:07:12.644917 17621 layer_factory.hpp:77] Creating layer L1_b4_cbr1_scale
I0817 16:07:12.645058 17621 net.cpp:150] Setting up L1_b4_cbr1_scale
I0817 16:07:12.645071 17621 net.cpp:157] Top shape: 125 16 32 32 (2048000)
I0817 16:07:12.645076 17621 net.cpp:165] Memory required for data: 345601500
I0817 16:07:12.645086 17621 layer_factory.hpp:77] Creating layer L1_b4_cbr1_relu
I0817 16:07:12.645093 17621 net.cpp:100] Creating Layer L1_b4_cbr1_relu
I0817 16:07:12.645098 17621 net.cpp:434] L1_b4_cbr1_relu <- L1_b4_cbr1_bn_top
I0817 16:07:12.645109 17621 net.cpp:395] L1_b4_cbr1_relu -> L1_b4_cbr1_bn_top (in-place)
I0817 16:07:12.645119 17621 net.cpp:150] Setting up L1_b4_cbr1_relu
I0817 16:07:12.645126 17621 net.cpp:157] Top shape: 125 16 32 32 (2048000)
I0817 16:07:12.645130 17621 net.cpp:165] Memory required for data: 353793500
I0817 16:07:12.645135 17621 layer_factory.hpp:77] Creating layer L1_b4_cbr2_conv
I0817 16:07:12.645149 17621 net.cpp:100] Creating Layer L1_b4_cbr2_conv
I0817 16:07:12.645155 17621 net.cpp:434] L1_b4_cbr2_conv <- L1_b4_cbr1_bn_top
I0817 16:07:12.645164 17621 net.cpp:408] L1_b4_cbr2_conv -> L1_b4_cbr2_conv_top
I0817 16:07:12.645473 17621 net.cpp:150] Setting up L1_b4_cbr2_conv
I0817 16:07:12.645486 17621 net.cpp:157] Top shape: 125 16 32 32 (2048000)
I0817 16:07:12.645491 17621 net.cpp:165] Memory required for data: 361985500
I0817 16:07:12.645500 17621 layer_factory.hpp:77] Creating layer L1_b4_cbr2_bn
I0817 16:07:12.645512 17621 net.cpp:100] Creating Layer L1_b4_cbr2_bn
I0817 16:07:12.645519 17621 net.cpp:434] L1_b4_cbr2_bn <- L1_b4_cbr2_conv_top
I0817 16:07:12.645526 17621 net.cpp:408] L1_b4_cbr2_bn -> L1_b4_cbr2_bn_top
I0817 16:07:12.645771 17621 net.cpp:150] Setting up L1_b4_cbr2_bn
I0817 16:07:12.645786 17621 net.cpp:157] Top shape: 125 16 32 32 (2048000)
I0817 16:07:12.645792 17621 net.cpp:165] Memory required for data: 370177500
I0817 16:07:12.645802 17621 layer_factory.hpp:77] Creating layer L1_b4_cbr2_scale
I0817 16:07:12.645813 17621 net.cpp:100] Creating Layer L1_b4_cbr2_scale
I0817 16:07:12.645819 17621 net.cpp:434] L1_b4_cbr2_scale <- L1_b4_cbr2_bn_top
I0817 16:07:12.645826 17621 net.cpp:395] L1_b4_cbr2_scale -> L1_b4_cbr2_bn_top (in-place)
I0817 16:07:12.645884 17621 layer_factory.hpp:77] Creating layer L1_b4_cbr2_scale
I0817 16:07:12.646026 17621 net.cpp:150] Setting up L1_b4_cbr2_scale
I0817 16:07:12.646039 17621 net.cpp:157] Top shape: 125 16 32 32 (2048000)
I0817 16:07:12.646044 17621 net.cpp:165] Memory required for data: 378369500
I0817 16:07:12.646054 17621 layer_factory.hpp:77] Creating layer L1_b4_sum_eltwise
I0817 16:07:12.646062 17621 net.cpp:100] Creating Layer L1_b4_sum_eltwise
I0817 16:07:12.646069 17621 net.cpp:434] L1_b4_sum_eltwise <- L1_b4_cbr2_bn_top
I0817 16:07:12.646075 17621 net.cpp:434] L1_b4_sum_eltwise <- L1_b3_sum_eltwise_top_L1_b3_relu_0_split_1
I0817 16:07:12.646085 17621 net.cpp:408] L1_b4_sum_eltwise -> L1_b4_sum_eltwise_top
I0817 16:07:12.646128 17621 net.cpp:150] Setting up L1_b4_sum_eltwise
I0817 16:07:12.646138 17621 net.cpp:157] Top shape: 125 16 32 32 (2048000)
I0817 16:07:12.646143 17621 net.cpp:165] Memory required for data: 386561500
I0817 16:07:12.646148 17621 layer_factory.hpp:77] Creating layer L1_b4_relu
I0817 16:07:12.646157 17621 net.cpp:100] Creating Layer L1_b4_relu
I0817 16:07:12.646162 17621 net.cpp:434] L1_b4_relu <- L1_b4_sum_eltwise_top
I0817 16:07:12.646173 17621 net.cpp:395] L1_b4_relu -> L1_b4_sum_eltwise_top (in-place)
I0817 16:07:12.646183 17621 net.cpp:150] Setting up L1_b4_relu
I0817 16:07:12.646189 17621 net.cpp:157] Top shape: 125 16 32 32 (2048000)
I0817 16:07:12.646193 17621 net.cpp:165] Memory required for data: 394753500
I0817 16:07:12.646198 17621 layer_factory.hpp:77] Creating layer L1_b4_sum_eltwise_top_L1_b4_relu_0_split
I0817 16:07:12.646205 17621 net.cpp:100] Creating Layer L1_b4_sum_eltwise_top_L1_b4_relu_0_split
I0817 16:07:12.646210 17621 net.cpp:434] L1_b4_sum_eltwise_top_L1_b4_relu_0_split <- L1_b4_sum_eltwise_top
I0817 16:07:12.646217 17621 net.cpp:408] L1_b4_sum_eltwise_top_L1_b4_relu_0_split -> L1_b4_sum_eltwise_top_L1_b4_relu_0_split_0
I0817 16:07:12.646226 17621 net.cpp:408] L1_b4_sum_eltwise_top_L1_b4_relu_0_split -> L1_b4_sum_eltwise_top_L1_b4_relu_0_split_1
I0817 16:07:12.646270 17621 net.cpp:150] Setting up L1_b4_sum_eltwise_top_L1_b4_relu_0_split
I0817 16:07:12.646282 17621 net.cpp:157] Top shape: 125 16 32 32 (2048000)
I0817 16:07:12.646288 17621 net.cpp:157] Top shape: 125 16 32 32 (2048000)
I0817 16:07:12.646293 17621 net.cpp:165] Memory required for data: 411137500
I0817 16:07:12.646298 17621 layer_factory.hpp:77] Creating layer L1_b5_cbr1_conv
I0817 16:07:12.646309 17621 net.cpp:100] Creating Layer L1_b5_cbr1_conv
I0817 16:07:12.646314 17621 net.cpp:434] L1_b5_cbr1_conv <- L1_b4_sum_eltwise_top_L1_b4_relu_0_split_0
I0817 16:07:12.646327 17621 net.cpp:408] L1_b5_cbr1_conv -> L1_b5_cbr1_conv_top
I0817 16:07:12.646637 17621 net.cpp:150] Setting up L1_b5_cbr1_conv
I0817 16:07:12.646651 17621 net.cpp:157] Top shape: 125 16 32 32 (2048000)
I0817 16:07:12.646656 17621 net.cpp:165] Memory required for data: 419329500
I0817 16:07:12.646679 17621 layer_factory.hpp:77] Creating layer L1_b5_cbr1_bn
I0817 16:07:12.646689 17621 net.cpp:100] Creating Layer L1_b5_cbr1_bn
I0817 16:07:12.646695 17621 net.cpp:434] L1_b5_cbr1_bn <- L1_b5_cbr1_conv_top
I0817 16:07:12.646706 17621 net.cpp:408] L1_b5_cbr1_bn -> L1_b5_cbr1_bn_top
I0817 16:07:12.646953 17621 net.cpp:150] Setting up L1_b5_cbr1_bn
I0817 16:07:12.646967 17621 net.cpp:157] Top shape: 125 16 32 32 (2048000)
I0817 16:07:12.646972 17621 net.cpp:165] Memory required for data: 427521500
I0817 16:07:12.646982 17621 layer_factory.hpp:77] Creating layer L1_b5_cbr1_scale
I0817 16:07:12.646994 17621 net.cpp:100] Creating Layer L1_b5_cbr1_scale
I0817 16:07:12.647001 17621 net.cpp:434] L1_b5_cbr1_scale <- L1_b5_cbr1_bn_top
I0817 16:07:12.647009 17621 net.cpp:395] L1_b5_cbr1_scale -> L1_b5_cbr1_bn_top (in-place)
I0817 16:07:12.647060 17621 layer_factory.hpp:77] Creating layer L1_b5_cbr1_scale
I0817 16:07:12.647202 17621 net.cpp:150] Setting up L1_b5_cbr1_scale
I0817 16:07:12.647214 17621 net.cpp:157] Top shape: 125 16 32 32 (2048000)
I0817 16:07:12.647219 17621 net.cpp:165] Memory required for data: 435713500
I0817 16:07:12.647228 17621 layer_factory.hpp:77] Creating layer L1_b5_cbr1_relu
I0817 16:07:12.647236 17621 net.cpp:100] Creating Layer L1_b5_cbr1_relu
I0817 16:07:12.647243 17621 net.cpp:434] L1_b5_cbr1_relu <- L1_b5_cbr1_bn_top
I0817 16:07:12.647253 17621 net.cpp:395] L1_b5_cbr1_relu -> L1_b5_cbr1_bn_top (in-place)
I0817 16:07:12.647263 17621 net.cpp:150] Setting up L1_b5_cbr1_relu
I0817 16:07:12.647269 17621 net.cpp:157] Top shape: 125 16 32 32 (2048000)
I0817 16:07:12.647274 17621 net.cpp:165] Memory required for data: 443905500
I0817 16:07:12.647279 17621 layer_factory.hpp:77] Creating layer L1_b5_cbr2_conv
I0817 16:07:12.647292 17621 net.cpp:100] Creating Layer L1_b5_cbr2_conv
I0817 16:07:12.647298 17621 net.cpp:434] L1_b5_cbr2_conv <- L1_b5_cbr1_bn_top
I0817 16:07:12.647313 17621 net.cpp:408] L1_b5_cbr2_conv -> L1_b5_cbr2_conv_top
I0817 16:07:12.647627 17621 net.cpp:150] Setting up L1_b5_cbr2_conv
I0817 16:07:12.647642 17621 net.cpp:157] Top shape: 125 16 32 32 (2048000)
I0817 16:07:12.647647 17621 net.cpp:165] Memory required for data: 452097500
I0817 16:07:12.647655 17621 layer_factory.hpp:77] Creating layer L1_b5_cbr2_bn
I0817 16:07:12.647670 17621 net.cpp:100] Creating Layer L1_b5_cbr2_bn
I0817 16:07:12.647676 17621 net.cpp:434] L1_b5_cbr2_bn <- L1_b5_cbr2_conv_top
I0817 16:07:12.647685 17621 net.cpp:408] L1_b5_cbr2_bn -> L1_b5_cbr2_bn_top
I0817 16:07:12.647931 17621 net.cpp:150] Setting up L1_b5_cbr2_bn
I0817 16:07:12.647945 17621 net.cpp:157] Top shape: 125 16 32 32 (2048000)
I0817 16:07:12.647950 17621 net.cpp:165] Memory required for data: 460289500
I0817 16:07:12.647961 17621 layer_factory.hpp:77] Creating layer L1_b5_cbr2_scale
I0817 16:07:12.647969 17621 net.cpp:100] Creating Layer L1_b5_cbr2_scale
I0817 16:07:12.647975 17621 net.cpp:434] L1_b5_cbr2_scale <- L1_b5_cbr2_bn_top
I0817 16:07:12.647986 17621 net.cpp:395] L1_b5_cbr2_scale -> L1_b5_cbr2_bn_top (in-place)
I0817 16:07:12.648038 17621 layer_factory.hpp:77] Creating layer L1_b5_cbr2_scale
I0817 16:07:12.648180 17621 net.cpp:150] Setting up L1_b5_cbr2_scale
I0817 16:07:12.648193 17621 net.cpp:157] Top shape: 125 16 32 32 (2048000)
I0817 16:07:12.648198 17621 net.cpp:165] Memory required for data: 468481500
I0817 16:07:12.648207 17621 layer_factory.hpp:77] Creating layer L1_b5_sum_eltwise
I0817 16:07:12.648216 17621 net.cpp:100] Creating Layer L1_b5_sum_eltwise
I0817 16:07:12.648222 17621 net.cpp:434] L1_b5_sum_eltwise <- L1_b5_cbr2_bn_top
I0817 16:07:12.648228 17621 net.cpp:434] L1_b5_sum_eltwise <- L1_b4_sum_eltwise_top_L1_b4_relu_0_split_1
I0817 16:07:12.648239 17621 net.cpp:408] L1_b5_sum_eltwise -> L1_b5_sum_eltwise_top
I0817 16:07:12.648270 17621 net.cpp:150] Setting up L1_b5_sum_eltwise
I0817 16:07:12.648283 17621 net.cpp:157] Top shape: 125 16 32 32 (2048000)
I0817 16:07:12.648288 17621 net.cpp:165] Memory required for data: 476673500
I0817 16:07:12.648293 17621 layer_factory.hpp:77] Creating layer L1_b5_relu
I0817 16:07:12.648300 17621 net.cpp:100] Creating Layer L1_b5_relu
I0817 16:07:12.648305 17621 net.cpp:434] L1_b5_relu <- L1_b5_sum_eltwise_top
I0817 16:07:12.648313 17621 net.cpp:395] L1_b5_relu -> L1_b5_sum_eltwise_top (in-place)
I0817 16:07:12.648321 17621 net.cpp:150] Setting up L1_b5_relu
I0817 16:07:12.648329 17621 net.cpp:157] Top shape: 125 16 32 32 (2048000)
I0817 16:07:12.648334 17621 net.cpp:165] Memory required for data: 484865500
I0817 16:07:12.648337 17621 layer_factory.hpp:77] Creating layer L1_b5_sum_eltwise_top_L1_b5_relu_0_split
I0817 16:07:12.648347 17621 net.cpp:100] Creating Layer L1_b5_sum_eltwise_top_L1_b5_relu_0_split
I0817 16:07:12.648353 17621 net.cpp:434] L1_b5_sum_eltwise_top_L1_b5_relu_0_split <- L1_b5_sum_eltwise_top
I0817 16:07:12.648360 17621 net.cpp:408] L1_b5_sum_eltwise_top_L1_b5_relu_0_split -> L1_b5_sum_eltwise_top_L1_b5_relu_0_split_0
I0817 16:07:12.648370 17621 net.cpp:408] L1_b5_sum_eltwise_top_L1_b5_relu_0_split -> L1_b5_sum_eltwise_top_L1_b5_relu_0_split_1
I0817 16:07:12.648416 17621 net.cpp:150] Setting up L1_b5_sum_eltwise_top_L1_b5_relu_0_split
I0817 16:07:12.648427 17621 net.cpp:157] Top shape: 125 16 32 32 (2048000)
I0817 16:07:12.648433 17621 net.cpp:157] Top shape: 125 16 32 32 (2048000)
I0817 16:07:12.648438 17621 net.cpp:165] Memory required for data: 501249500
I0817 16:07:12.648443 17621 layer_factory.hpp:77] Creating layer L1_b6_cbr1_conv
I0817 16:07:12.648453 17621 net.cpp:100] Creating Layer L1_b6_cbr1_conv
I0817 16:07:12.648459 17621 net.cpp:434] L1_b6_cbr1_conv <- L1_b5_sum_eltwise_top_L1_b5_relu_0_split_0
I0817 16:07:12.648471 17621 net.cpp:408] L1_b6_cbr1_conv -> L1_b6_cbr1_conv_top
I0817 16:07:12.648787 17621 net.cpp:150] Setting up L1_b6_cbr1_conv
I0817 16:07:12.648802 17621 net.cpp:157] Top shape: 125 16 32 32 (2048000)
I0817 16:07:12.648808 17621 net.cpp:165] Memory required for data: 509441500
I0817 16:07:12.648823 17621 layer_factory.hpp:77] Creating layer L1_b6_cbr1_bn
I0817 16:07:12.648833 17621 net.cpp:100] Creating Layer L1_b6_cbr1_bn
I0817 16:07:12.648838 17621 net.cpp:434] L1_b6_cbr1_bn <- L1_b6_cbr1_conv_top
I0817 16:07:12.648846 17621 net.cpp:408] L1_b6_cbr1_bn -> L1_b6_cbr1_bn_top
I0817 16:07:12.649091 17621 net.cpp:150] Setting up L1_b6_cbr1_bn
I0817 16:07:12.649103 17621 net.cpp:157] Top shape: 125 16 32 32 (2048000)
I0817 16:07:12.649108 17621 net.cpp:165] Memory required for data: 517633500
I0817 16:07:12.649118 17621 layer_factory.hpp:77] Creating layer L1_b6_cbr1_scale
I0817 16:07:12.649130 17621 net.cpp:100] Creating Layer L1_b6_cbr1_scale
I0817 16:07:12.649137 17621 net.cpp:434] L1_b6_cbr1_scale <- L1_b6_cbr1_bn_top
I0817 16:07:12.649144 17621 net.cpp:395] L1_b6_cbr1_scale -> L1_b6_cbr1_bn_top (in-place)
I0817 16:07:12.649199 17621 layer_factory.hpp:77] Creating layer L1_b6_cbr1_scale
I0817 16:07:12.649339 17621 net.cpp:150] Setting up L1_b6_cbr1_scale
I0817 16:07:12.649353 17621 net.cpp:157] Top shape: 125 16 32 32 (2048000)
I0817 16:07:12.649358 17621 net.cpp:165] Memory required for data: 525825500
I0817 16:07:12.649366 17621 layer_factory.hpp:77] Creating layer L1_b6_cbr1_relu
I0817 16:07:12.649374 17621 net.cpp:100] Creating Layer L1_b6_cbr1_relu
I0817 16:07:12.649380 17621 net.cpp:434] L1_b6_cbr1_relu <- L1_b6_cbr1_bn_top
I0817 16:07:12.649390 17621 net.cpp:395] L1_b6_cbr1_relu -> L1_b6_cbr1_bn_top (in-place)
I0817 16:07:12.649400 17621 net.cpp:150] Setting up L1_b6_cbr1_relu
I0817 16:07:12.649407 17621 net.cpp:157] Top shape: 125 16 32 32 (2048000)
I0817 16:07:12.649412 17621 net.cpp:165] Memory required for data: 534017500
I0817 16:07:12.649416 17621 layer_factory.hpp:77] Creating layer L1_b6_cbr2_conv
I0817 16:07:12.649430 17621 net.cpp:100] Creating Layer L1_b6_cbr2_conv
I0817 16:07:12.649436 17621 net.cpp:434] L1_b6_cbr2_conv <- L1_b6_cbr1_bn_top
I0817 16:07:12.649446 17621 net.cpp:408] L1_b6_cbr2_conv -> L1_b6_cbr2_conv_top
I0817 16:07:12.649765 17621 net.cpp:150] Setting up L1_b6_cbr2_conv
I0817 16:07:12.649778 17621 net.cpp:157] Top shape: 125 16 32 32 (2048000)
I0817 16:07:12.649783 17621 net.cpp:165] Memory required for data: 542209500
I0817 16:07:12.649792 17621 layer_factory.hpp:77] Creating layer L1_b6_cbr2_bn
I0817 16:07:12.649804 17621 net.cpp:100] Creating Layer L1_b6_cbr2_bn
I0817 16:07:12.649811 17621 net.cpp:434] L1_b6_cbr2_bn <- L1_b6_cbr2_conv_top
I0817 16:07:12.649819 17621 net.cpp:408] L1_b6_cbr2_bn -> L1_b6_cbr2_bn_top
I0817 16:07:12.650058 17621 net.cpp:150] Setting up L1_b6_cbr2_bn
I0817 16:07:12.650071 17621 net.cpp:157] Top shape: 125 16 32 32 (2048000)
I0817 16:07:12.650076 17621 net.cpp:165] Memory required for data: 550401500
I0817 16:07:12.650086 17621 layer_factory.hpp:77] Creating layer L1_b6_cbr2_scale
I0817 16:07:12.650095 17621 net.cpp:100] Creating Layer L1_b6_cbr2_scale
I0817 16:07:12.650101 17621 net.cpp:434] L1_b6_cbr2_scale <- L1_b6_cbr2_bn_top
I0817 16:07:12.650111 17621 net.cpp:395] L1_b6_cbr2_scale -> L1_b6_cbr2_bn_top (in-place)
I0817 16:07:12.650163 17621 layer_factory.hpp:77] Creating layer L1_b6_cbr2_scale
I0817 16:07:12.650302 17621 net.cpp:150] Setting up L1_b6_cbr2_scale
I0817 16:07:12.650318 17621 net.cpp:157] Top shape: 125 16 32 32 (2048000)
I0817 16:07:12.650323 17621 net.cpp:165] Memory required for data: 558593500
I0817 16:07:12.650332 17621 layer_factory.hpp:77] Creating layer L1_b6_sum_eltwise
I0817 16:07:12.650352 17621 net.cpp:100] Creating Layer L1_b6_sum_eltwise
I0817 16:07:12.650359 17621 net.cpp:434] L1_b6_sum_eltwise <- L1_b6_cbr2_bn_top
I0817 16:07:12.650367 17621 net.cpp:434] L1_b6_sum_eltwise <- L1_b5_sum_eltwise_top_L1_b5_relu_0_split_1
I0817 16:07:12.650374 17621 net.cpp:408] L1_b6_sum_eltwise -> L1_b6_sum_eltwise_top
I0817 16:07:12.650409 17621 net.cpp:150] Setting up L1_b6_sum_eltwise
I0817 16:07:12.650420 17621 net.cpp:157] Top shape: 125 16 32 32 (2048000)
I0817 16:07:12.650425 17621 net.cpp:165] Memory required for data: 566785500
I0817 16:07:12.650431 17621 layer_factory.hpp:77] Creating layer L1_b6_relu
I0817 16:07:12.650449 17621 net.cpp:100] Creating Layer L1_b6_relu
I0817 16:07:12.650454 17621 net.cpp:434] L1_b6_relu <- L1_b6_sum_eltwise_top
I0817 16:07:12.650465 17621 net.cpp:395] L1_b6_relu -> L1_b6_sum_eltwise_top (in-place)
I0817 16:07:12.650475 17621 net.cpp:150] Setting up L1_b6_relu
I0817 16:07:12.650482 17621 net.cpp:157] Top shape: 125 16 32 32 (2048000)
I0817 16:07:12.650486 17621 net.cpp:165] Memory required for data: 574977500
I0817 16:07:12.650491 17621 layer_factory.hpp:77] Creating layer L1_b6_sum_eltwise_top_L1_b6_relu_0_split
I0817 16:07:12.650498 17621 net.cpp:100] Creating Layer L1_b6_sum_eltwise_top_L1_b6_relu_0_split
I0817 16:07:12.650504 17621 net.cpp:434] L1_b6_sum_eltwise_top_L1_b6_relu_0_split <- L1_b6_sum_eltwise_top
I0817 16:07:12.650511 17621 net.cpp:408] L1_b6_sum_eltwise_top_L1_b6_relu_0_split -> L1_b6_sum_eltwise_top_L1_b6_relu_0_split_0
I0817 16:07:12.650521 17621 net.cpp:408] L1_b6_sum_eltwise_top_L1_b6_relu_0_split -> L1_b6_sum_eltwise_top_L1_b6_relu_0_split_1
I0817 16:07:12.650568 17621 net.cpp:150] Setting up L1_b6_sum_eltwise_top_L1_b6_relu_0_split
I0817 16:07:12.650578 17621 net.cpp:157] Top shape: 125 16 32 32 (2048000)
I0817 16:07:12.650585 17621 net.cpp:157] Top shape: 125 16 32 32 (2048000)
I0817 16:07:12.650589 17621 net.cpp:165] Memory required for data: 591361500
I0817 16:07:12.650595 17621 layer_factory.hpp:77] Creating layer L1_b7_cbr1_conv
I0817 16:07:12.650606 17621 net.cpp:100] Creating Layer L1_b7_cbr1_conv
I0817 16:07:12.650612 17621 net.cpp:434] L1_b7_cbr1_conv <- L1_b6_sum_eltwise_top_L1_b6_relu_0_split_0
I0817 16:07:12.650624 17621 net.cpp:408] L1_b7_cbr1_conv -> L1_b7_cbr1_conv_top
I0817 16:07:12.650948 17621 net.cpp:150] Setting up L1_b7_cbr1_conv
I0817 16:07:12.650962 17621 net.cpp:157] Top shape: 125 16 32 32 (2048000)
I0817 16:07:12.650967 17621 net.cpp:165] Memory required for data: 599553500
I0817 16:07:12.650976 17621 layer_factory.hpp:77] Creating layer L1_b7_cbr1_bn
I0817 16:07:12.650985 17621 net.cpp:100] Creating Layer L1_b7_cbr1_bn
I0817 16:07:12.650991 17621 net.cpp:434] L1_b7_cbr1_bn <- L1_b7_cbr1_conv_top
I0817 16:07:12.651002 17621 net.cpp:408] L1_b7_cbr1_bn -> L1_b7_cbr1_bn_top
I0817 16:07:12.651242 17621 net.cpp:150] Setting up L1_b7_cbr1_bn
I0817 16:07:12.651258 17621 net.cpp:157] Top shape: 125 16 32 32 (2048000)
I0817 16:07:12.651263 17621 net.cpp:165] Memory required for data: 607745500
I0817 16:07:12.651274 17621 layer_factory.hpp:77] Creating layer L1_b7_cbr1_scale
I0817 16:07:12.651283 17621 net.cpp:100] Creating Layer L1_b7_cbr1_scale
I0817 16:07:12.651289 17621 net.cpp:434] L1_b7_cbr1_scale <- L1_b7_cbr1_bn_top
I0817 16:07:12.651296 17621 net.cpp:395] L1_b7_cbr1_scale -> L1_b7_cbr1_bn_top (in-place)
I0817 16:07:12.651348 17621 layer_factory.hpp:77] Creating layer L1_b7_cbr1_scale
I0817 16:07:12.651489 17621 net.cpp:150] Setting up L1_b7_cbr1_scale
I0817 16:07:12.651501 17621 net.cpp:157] Top shape: 125 16 32 32 (2048000)
I0817 16:07:12.651506 17621 net.cpp:165] Memory required for data: 615937500
I0817 16:07:12.651515 17621 layer_factory.hpp:77] Creating layer L1_b7_cbr1_relu
I0817 16:07:12.651525 17621 net.cpp:100] Creating Layer L1_b7_cbr1_relu
I0817 16:07:12.651532 17621 net.cpp:434] L1_b7_cbr1_relu <- L1_b7_cbr1_bn_top
I0817 16:07:12.651540 17621 net.cpp:395] L1_b7_cbr1_relu -> L1_b7_cbr1_bn_top (in-place)
I0817 16:07:12.651549 17621 net.cpp:150] Setting up L1_b7_cbr1_relu
I0817 16:07:12.651556 17621 net.cpp:157] Top shape: 125 16 32 32 (2048000)
I0817 16:07:12.651561 17621 net.cpp:165] Memory required for data: 624129500
I0817 16:07:12.651566 17621 layer_factory.hpp:77] Creating layer L1_b7_cbr2_conv
I0817 16:07:12.651581 17621 net.cpp:100] Creating Layer L1_b7_cbr2_conv
I0817 16:07:12.651587 17621 net.cpp:434] L1_b7_cbr2_conv <- L1_b7_cbr1_bn_top
I0817 16:07:12.651597 17621 net.cpp:408] L1_b7_cbr2_conv -> L1_b7_cbr2_conv_top
I0817 16:07:12.651916 17621 net.cpp:150] Setting up L1_b7_cbr2_conv
I0817 16:07:12.651932 17621 net.cpp:157] Top shape: 125 16 32 32 (2048000)
I0817 16:07:12.651937 17621 net.cpp:165] Memory required for data: 632321500
I0817 16:07:12.651957 17621 layer_factory.hpp:77] Creating layer L1_b7_cbr2_bn
I0817 16:07:12.651967 17621 net.cpp:100] Creating Layer L1_b7_cbr2_bn
I0817 16:07:12.651973 17621 net.cpp:434] L1_b7_cbr2_bn <- L1_b7_cbr2_conv_top
I0817 16:07:12.651983 17621 net.cpp:408] L1_b7_cbr2_bn -> L1_b7_cbr2_bn_top
I0817 16:07:12.652223 17621 net.cpp:150] Setting up L1_b7_cbr2_bn
I0817 16:07:12.652237 17621 net.cpp:157] Top shape: 125 16 32 32 (2048000)
I0817 16:07:12.652242 17621 net.cpp:165] Memory required for data: 640513500
I0817 16:07:12.652252 17621 layer_factory.hpp:77] Creating layer L1_b7_cbr2_scale
I0817 16:07:12.652264 17621 net.cpp:100] Creating Layer L1_b7_cbr2_scale
I0817 16:07:12.652271 17621 net.cpp:434] L1_b7_cbr2_scale <- L1_b7_cbr2_bn_top
I0817 16:07:12.652278 17621 net.cpp:395] L1_b7_cbr2_scale -> L1_b7_cbr2_bn_top (in-place)
I0817 16:07:12.652331 17621 layer_factory.hpp:77] Creating layer L1_b7_cbr2_scale
I0817 16:07:12.652470 17621 net.cpp:150] Setting up L1_b7_cbr2_scale
I0817 16:07:12.652483 17621 net.cpp:157] Top shape: 125 16 32 32 (2048000)
I0817 16:07:12.652488 17621 net.cpp:165] Memory required for data: 648705500
I0817 16:07:12.652498 17621 layer_factory.hpp:77] Creating layer L1_b7_sum_eltwise
I0817 16:07:12.652509 17621 net.cpp:100] Creating Layer L1_b7_sum_eltwise
I0817 16:07:12.652516 17621 net.cpp:434] L1_b7_sum_eltwise <- L1_b7_cbr2_bn_top
I0817 16:07:12.652523 17621 net.cpp:434] L1_b7_sum_eltwise <- L1_b6_sum_eltwise_top_L1_b6_relu_0_split_1
I0817 16:07:12.652530 17621 net.cpp:408] L1_b7_sum_eltwise -> L1_b7_sum_eltwise_top
I0817 16:07:12.652565 17621 net.cpp:150] Setting up L1_b7_sum_eltwise
I0817 16:07:12.652573 17621 net.cpp:157] Top shape: 125 16 32 32 (2048000)
I0817 16:07:12.652578 17621 net.cpp:165] Memory required for data: 656897500
I0817 16:07:12.652583 17621 layer_factory.hpp:77] Creating layer L1_b7_relu
I0817 16:07:12.652591 17621 net.cpp:100] Creating Layer L1_b7_relu
I0817 16:07:12.652596 17621 net.cpp:434] L1_b7_relu <- L1_b7_sum_eltwise_top
I0817 16:07:12.652606 17621 net.cpp:395] L1_b7_relu -> L1_b7_sum_eltwise_top (in-place)
I0817 16:07:12.652616 17621 net.cpp:150] Setting up L1_b7_relu
I0817 16:07:12.652623 17621 net.cpp:157] Top shape: 125 16 32 32 (2048000)
I0817 16:07:12.652627 17621 net.cpp:165] Memory required for data: 665089500
I0817 16:07:12.652632 17621 layer_factory.hpp:77] Creating layer L1_b7_sum_eltwise_top_L1_b7_relu_0_split
I0817 16:07:12.652639 17621 net.cpp:100] Creating Layer L1_b7_sum_eltwise_top_L1_b7_relu_0_split
I0817 16:07:12.652644 17621 net.cpp:434] L1_b7_sum_eltwise_top_L1_b7_relu_0_split <- L1_b7_sum_eltwise_top
I0817 16:07:12.652652 17621 net.cpp:408] L1_b7_sum_eltwise_top_L1_b7_relu_0_split -> L1_b7_sum_eltwise_top_L1_b7_relu_0_split_0
I0817 16:07:12.652662 17621 net.cpp:408] L1_b7_sum_eltwise_top_L1_b7_relu_0_split -> L1_b7_sum_eltwise_top_L1_b7_relu_0_split_1
I0817 16:07:12.652705 17621 net.cpp:150] Setting up L1_b7_sum_eltwise_top_L1_b7_relu_0_split
I0817 16:07:12.652717 17621 net.cpp:157] Top shape: 125 16 32 32 (2048000)
I0817 16:07:12.652724 17621 net.cpp:157] Top shape: 125 16 32 32 (2048000)
I0817 16:07:12.652729 17621 net.cpp:165] Memory required for data: 681473500
I0817 16:07:12.652734 17621 layer_factory.hpp:77] Creating layer L1_b8_cbr1_conv
I0817 16:07:12.652745 17621 net.cpp:100] Creating Layer L1_b8_cbr1_conv
I0817 16:07:12.652756 17621 net.cpp:434] L1_b8_cbr1_conv <- L1_b7_sum_eltwise_top_L1_b7_relu_0_split_0
I0817 16:07:12.652770 17621 net.cpp:408] L1_b8_cbr1_conv -> L1_b8_cbr1_conv_top
I0817 16:07:12.653080 17621 net.cpp:150] Setting up L1_b8_cbr1_conv
I0817 16:07:12.653095 17621 net.cpp:157] Top shape: 125 16 32 32 (2048000)
I0817 16:07:12.653100 17621 net.cpp:165] Memory required for data: 689665500
I0817 16:07:12.653108 17621 layer_factory.hpp:77] Creating layer L1_b8_cbr1_bn
I0817 16:07:12.653117 17621 net.cpp:100] Creating Layer L1_b8_cbr1_bn
I0817 16:07:12.653123 17621 net.cpp:434] L1_b8_cbr1_bn <- L1_b8_cbr1_conv_top
I0817 16:07:12.653136 17621 net.cpp:408] L1_b8_cbr1_bn -> L1_b8_cbr1_bn_top
I0817 16:07:12.653389 17621 net.cpp:150] Setting up L1_b8_cbr1_bn
I0817 16:07:12.653403 17621 net.cpp:157] Top shape: 125 16 32 32 (2048000)
I0817 16:07:12.653409 17621 net.cpp:165] Memory required for data: 697857500
I0817 16:07:12.653419 17621 layer_factory.hpp:77] Creating layer L1_b8_cbr1_scale
I0817 16:07:12.653430 17621 net.cpp:100] Creating Layer L1_b8_cbr1_scale
I0817 16:07:12.653437 17621 net.cpp:434] L1_b8_cbr1_scale <- L1_b8_cbr1_bn_top
I0817 16:07:12.653445 17621 net.cpp:395] L1_b8_cbr1_scale -> L1_b8_cbr1_bn_top (in-place)
I0817 16:07:12.653497 17621 layer_factory.hpp:77] Creating layer L1_b8_cbr1_scale
I0817 16:07:12.653642 17621 net.cpp:150] Setting up L1_b8_cbr1_scale
I0817 16:07:12.653656 17621 net.cpp:157] Top shape: 125 16 32 32 (2048000)
I0817 16:07:12.653661 17621 net.cpp:165] Memory required for data: 706049500
I0817 16:07:12.653671 17621 layer_factory.hpp:77] Creating layer L1_b8_cbr1_relu
I0817 16:07:12.653681 17621 net.cpp:100] Creating Layer L1_b8_cbr1_relu
I0817 16:07:12.653688 17621 net.cpp:434] L1_b8_cbr1_relu <- L1_b8_cbr1_bn_top
I0817 16:07:12.653695 17621 net.cpp:395] L1_b8_cbr1_relu -> L1_b8_cbr1_bn_top (in-place)
I0817 16:07:12.653705 17621 net.cpp:150] Setting up L1_b8_cbr1_relu
I0817 16:07:12.653712 17621 net.cpp:157] Top shape: 125 16 32 32 (2048000)
I0817 16:07:12.653717 17621 net.cpp:165] Memory required for data: 714241500
I0817 16:07:12.653722 17621 layer_factory.hpp:77] Creating layer L1_b8_cbr2_conv
I0817 16:07:12.653735 17621 net.cpp:100] Creating Layer L1_b8_cbr2_conv
I0817 16:07:12.653741 17621 net.cpp:434] L1_b8_cbr2_conv <- L1_b8_cbr1_bn_top
I0817 16:07:12.653758 17621 net.cpp:408] L1_b8_cbr2_conv -> L1_b8_cbr2_conv_top
I0817 16:07:12.654073 17621 net.cpp:150] Setting up L1_b8_cbr2_conv
I0817 16:07:12.654088 17621 net.cpp:157] Top shape: 125 16 32 32 (2048000)
I0817 16:07:12.654093 17621 net.cpp:165] Memory required for data: 722433500
I0817 16:07:12.654101 17621 layer_factory.hpp:77] Creating layer L1_b8_cbr2_bn
I0817 16:07:12.654111 17621 net.cpp:100] Creating Layer L1_b8_cbr2_bn
I0817 16:07:12.654117 17621 net.cpp:434] L1_b8_cbr2_bn <- L1_b8_cbr2_conv_top
I0817 16:07:12.654125 17621 net.cpp:408] L1_b8_cbr2_bn -> L1_b8_cbr2_bn_top
I0817 16:07:12.654369 17621 net.cpp:150] Setting up L1_b8_cbr2_bn
I0817 16:07:12.654382 17621 net.cpp:157] Top shape: 125 16 32 32 (2048000)
I0817 16:07:12.654387 17621 net.cpp:165] Memory required for data: 730625500
I0817 16:07:12.654398 17621 layer_factory.hpp:77] Creating layer L1_b8_cbr2_scale
I0817 16:07:12.654412 17621 net.cpp:100] Creating Layer L1_b8_cbr2_scale
I0817 16:07:12.654417 17621 net.cpp:434] L1_b8_cbr2_scale <- L1_b8_cbr2_bn_top
I0817 16:07:12.654425 17621 net.cpp:395] L1_b8_cbr2_scale -> L1_b8_cbr2_bn_top (in-place)
I0817 16:07:12.654480 17621 layer_factory.hpp:77] Creating layer L1_b8_cbr2_scale
I0817 16:07:12.654620 17621 net.cpp:150] Setting up L1_b8_cbr2_scale
I0817 16:07:12.654633 17621 net.cpp:157] Top shape: 125 16 32 32 (2048000)
I0817 16:07:12.654637 17621 net.cpp:165] Memory required for data: 738817500
I0817 16:07:12.654646 17621 layer_factory.hpp:77] Creating layer L1_b8_sum_eltwise
I0817 16:07:12.654655 17621 net.cpp:100] Creating Layer L1_b8_sum_eltwise
I0817 16:07:12.654661 17621 net.cpp:434] L1_b8_sum_eltwise <- L1_b8_cbr2_bn_top
I0817 16:07:12.654669 17621 net.cpp:434] L1_b8_sum_eltwise <- L1_b7_sum_eltwise_top_L1_b7_relu_0_split_1
I0817 16:07:12.654680 17621 net.cpp:408] L1_b8_sum_eltwise -> L1_b8_sum_eltwise_top
I0817 16:07:12.654716 17621 net.cpp:150] Setting up L1_b8_sum_eltwise
I0817 16:07:12.654727 17621 net.cpp:157] Top shape: 125 16 32 32 (2048000)
I0817 16:07:12.654732 17621 net.cpp:165] Memory required for data: 747009500
I0817 16:07:12.654738 17621 layer_factory.hpp:77] Creating layer L1_b8_relu
I0817 16:07:12.654745 17621 net.cpp:100] Creating Layer L1_b8_relu
I0817 16:07:12.654757 17621 net.cpp:434] L1_b8_relu <- L1_b8_sum_eltwise_top
I0817 16:07:12.654767 17621 net.cpp:395] L1_b8_relu -> L1_b8_sum_eltwise_top (in-place)
I0817 16:07:12.654778 17621 net.cpp:150] Setting up L1_b8_relu
I0817 16:07:12.654784 17621 net.cpp:157] Top shape: 125 16 32 32 (2048000)
I0817 16:07:12.654796 17621 net.cpp:165] Memory required for data: 755201500
I0817 16:07:12.654801 17621 layer_factory.hpp:77] Creating layer L1_b8_sum_eltwise_top_L1_b8_relu_0_split
I0817 16:07:12.654808 17621 net.cpp:100] Creating Layer L1_b8_sum_eltwise_top_L1_b8_relu_0_split
I0817 16:07:12.654814 17621 net.cpp:434] L1_b8_sum_eltwise_top_L1_b8_relu_0_split <- L1_b8_sum_eltwise_top
I0817 16:07:12.654821 17621 net.cpp:408] L1_b8_sum_eltwise_top_L1_b8_relu_0_split -> L1_b8_sum_eltwise_top_L1_b8_relu_0_split_0
I0817 16:07:12.654831 17621 net.cpp:408] L1_b8_sum_eltwise_top_L1_b8_relu_0_split -> L1_b8_sum_eltwise_top_L1_b8_relu_0_split_1
I0817 16:07:12.654877 17621 net.cpp:150] Setting up L1_b8_sum_eltwise_top_L1_b8_relu_0_split
I0817 16:07:12.654889 17621 net.cpp:157] Top shape: 125 16 32 32 (2048000)
I0817 16:07:12.654896 17621 net.cpp:157] Top shape: 125 16 32 32 (2048000)
I0817 16:07:12.654901 17621 net.cpp:165] Memory required for data: 771585500
I0817 16:07:12.654906 17621 layer_factory.hpp:77] Creating layer L1_b9_cbr1_conv
I0817 16:07:12.654917 17621 net.cpp:100] Creating Layer L1_b9_cbr1_conv
I0817 16:07:12.654923 17621 net.cpp:434] L1_b9_cbr1_conv <- L1_b8_sum_eltwise_top_L1_b8_relu_0_split_0
I0817 16:07:12.654935 17621 net.cpp:408] L1_b9_cbr1_conv -> L1_b9_cbr1_conv_top
I0817 16:07:12.655258 17621 net.cpp:150] Setting up L1_b9_cbr1_conv
I0817 16:07:12.655273 17621 net.cpp:157] Top shape: 125 16 32 32 (2048000)
I0817 16:07:12.655278 17621 net.cpp:165] Memory required for data: 779777500
I0817 16:07:12.655287 17621 layer_factory.hpp:77] Creating layer L1_b9_cbr1_bn
I0817 16:07:12.655302 17621 net.cpp:100] Creating Layer L1_b9_cbr1_bn
I0817 16:07:12.655308 17621 net.cpp:434] L1_b9_cbr1_bn <- L1_b9_cbr1_conv_top
I0817 16:07:12.655319 17621 net.cpp:408] L1_b9_cbr1_bn -> L1_b9_cbr1_bn_top
I0817 16:07:12.655562 17621 net.cpp:150] Setting up L1_b9_cbr1_bn
I0817 16:07:12.655575 17621 net.cpp:157] Top shape: 125 16 32 32 (2048000)
I0817 16:07:12.655580 17621 net.cpp:165] Memory required for data: 787969500
I0817 16:07:12.655591 17621 layer_factory.hpp:77] Creating layer L1_b9_cbr1_scale
I0817 16:07:12.655599 17621 net.cpp:100] Creating Layer L1_b9_cbr1_scale
I0817 16:07:12.655606 17621 net.cpp:434] L1_b9_cbr1_scale <- L1_b9_cbr1_bn_top
I0817 16:07:12.655613 17621 net.cpp:395] L1_b9_cbr1_scale -> L1_b9_cbr1_bn_top (in-place)
I0817 16:07:12.655669 17621 layer_factory.hpp:77] Creating layer L1_b9_cbr1_scale
I0817 16:07:12.655820 17621 net.cpp:150] Setting up L1_b9_cbr1_scale
I0817 16:07:12.655834 17621 net.cpp:157] Top shape: 125 16 32 32 (2048000)
I0817 16:07:12.655839 17621 net.cpp:165] Memory required for data: 796161500
I0817 16:07:12.655848 17621 layer_factory.hpp:77] Creating layer L1_b9_cbr1_relu
I0817 16:07:12.655856 17621 net.cpp:100] Creating Layer L1_b9_cbr1_relu
I0817 16:07:12.655866 17621 net.cpp:434] L1_b9_cbr1_relu <- L1_b9_cbr1_bn_top
I0817 16:07:12.655874 17621 net.cpp:395] L1_b9_cbr1_relu -> L1_b9_cbr1_bn_top (in-place)
I0817 16:07:12.655884 17621 net.cpp:150] Setting up L1_b9_cbr1_relu
I0817 16:07:12.655890 17621 net.cpp:157] Top shape: 125 16 32 32 (2048000)
I0817 16:07:12.655895 17621 net.cpp:165] Memory required for data: 804353500
I0817 16:07:12.655900 17621 layer_factory.hpp:77] Creating layer L1_b9_cbr2_conv
I0817 16:07:12.655915 17621 net.cpp:100] Creating Layer L1_b9_cbr2_conv
I0817 16:07:12.655920 17621 net.cpp:434] L1_b9_cbr2_conv <- L1_b9_cbr1_bn_top
I0817 16:07:12.655931 17621 net.cpp:408] L1_b9_cbr2_conv -> L1_b9_cbr2_conv_top
I0817 16:07:12.656252 17621 net.cpp:150] Setting up L1_b9_cbr2_conv
I0817 16:07:12.656266 17621 net.cpp:157] Top shape: 125 16 32 32 (2048000)
I0817 16:07:12.656271 17621 net.cpp:165] Memory required for data: 812545500
I0817 16:07:12.656280 17621 layer_factory.hpp:77] Creating layer L1_b9_cbr2_bn
I0817 16:07:12.656292 17621 net.cpp:100] Creating Layer L1_b9_cbr2_bn
I0817 16:07:12.656299 17621 net.cpp:434] L1_b9_cbr2_bn <- L1_b9_cbr2_conv_top
I0817 16:07:12.656307 17621 net.cpp:408] L1_b9_cbr2_bn -> L1_b9_cbr2_bn_top
I0817 16:07:12.656559 17621 net.cpp:150] Setting up L1_b9_cbr2_bn
I0817 16:07:12.656574 17621 net.cpp:157] Top shape: 125 16 32 32 (2048000)
I0817 16:07:12.656579 17621 net.cpp:165] Memory required for data: 820737500
I0817 16:07:12.656610 17621 layer_factory.hpp:77] Creating layer L1_b9_cbr2_scale
I0817 16:07:12.656620 17621 net.cpp:100] Creating Layer L1_b9_cbr2_scale
I0817 16:07:12.656626 17621 net.cpp:434] L1_b9_cbr2_scale <- L1_b9_cbr2_bn_top
I0817 16:07:12.656633 17621 net.cpp:395] L1_b9_cbr2_scale -> L1_b9_cbr2_bn_top (in-place)
I0817 16:07:12.656687 17621 layer_factory.hpp:77] Creating layer L1_b9_cbr2_scale
I0817 16:07:12.656836 17621 net.cpp:150] Setting up L1_b9_cbr2_scale
I0817 16:07:12.656850 17621 net.cpp:157] Top shape: 125 16 32 32 (2048000)
I0817 16:07:12.656855 17621 net.cpp:165] Memory required for data: 828929500
I0817 16:07:12.656864 17621 layer_factory.hpp:77] Creating layer L1_b9_sum_eltwise
I0817 16:07:12.656877 17621 net.cpp:100] Creating Layer L1_b9_sum_eltwise
I0817 16:07:12.656883 17621 net.cpp:434] L1_b9_sum_eltwise <- L1_b9_cbr2_bn_top
I0817 16:07:12.656890 17621 net.cpp:434] L1_b9_sum_eltwise <- L1_b8_sum_eltwise_top_L1_b8_relu_0_split_1
I0817 16:07:12.656898 17621 net.cpp:408] L1_b9_sum_eltwise -> L1_b9_sum_eltwise_top
I0817 16:07:12.656929 17621 net.cpp:150] Setting up L1_b9_sum_eltwise
I0817 16:07:12.656939 17621 net.cpp:157] Top shape: 125 16 32 32 (2048000)
I0817 16:07:12.656944 17621 net.cpp:165] Memory required for data: 837121500
I0817 16:07:12.656949 17621 layer_factory.hpp:77] Creating layer L1_b9_relu
I0817 16:07:12.656956 17621 net.cpp:100] Creating Layer L1_b9_relu
I0817 16:07:12.656961 17621 net.cpp:434] L1_b9_relu <- L1_b9_sum_eltwise_top
I0817 16:07:12.656972 17621 net.cpp:395] L1_b9_relu -> L1_b9_sum_eltwise_top (in-place)
I0817 16:07:12.656982 17621 net.cpp:150] Setting up L1_b9_relu
I0817 16:07:12.656989 17621 net.cpp:157] Top shape: 125 16 32 32 (2048000)
I0817 16:07:12.656994 17621 net.cpp:165] Memory required for data: 845313500
I0817 16:07:12.656998 17621 layer_factory.hpp:77] Creating layer L1_b9_sum_eltwise_top_L1_b9_relu_0_split
I0817 16:07:12.657006 17621 net.cpp:100] Creating Layer L1_b9_sum_eltwise_top_L1_b9_relu_0_split
I0817 16:07:12.657016 17621 net.cpp:434] L1_b9_sum_eltwise_top_L1_b9_relu_0_split <- L1_b9_sum_eltwise_top
I0817 16:07:12.657023 17621 net.cpp:408] L1_b9_sum_eltwise_top_L1_b9_relu_0_split -> L1_b9_sum_eltwise_top_L1_b9_relu_0_split_0
I0817 16:07:12.657033 17621 net.cpp:408] L1_b9_sum_eltwise_top_L1_b9_relu_0_split -> L1_b9_sum_eltwise_top_L1_b9_relu_0_split_1
I0817 16:07:12.657078 17621 net.cpp:150] Setting up L1_b9_sum_eltwise_top_L1_b9_relu_0_split
I0817 16:07:12.657090 17621 net.cpp:157] Top shape: 125 16 32 32 (2048000)
I0817 16:07:12.657097 17621 net.cpp:157] Top shape: 125 16 32 32 (2048000)
I0817 16:07:12.657102 17621 net.cpp:165] Memory required for data: 861697500
I0817 16:07:12.657107 17621 layer_factory.hpp:77] Creating layer L2_b1_cbr1_conv
I0817 16:07:12.657117 17621 net.cpp:100] Creating Layer L2_b1_cbr1_conv
I0817 16:07:12.657124 17621 net.cpp:434] L2_b1_cbr1_conv <- L1_b9_sum_eltwise_top_L1_b9_relu_0_split_0
I0817 16:07:12.657135 17621 net.cpp:408] L2_b1_cbr1_conv -> L2_b1_cbr1_conv_top
I0817 16:07:12.657455 17621 net.cpp:150] Setting up L2_b1_cbr1_conv
I0817 16:07:12.657469 17621 net.cpp:157] Top shape: 125 16 16 16 (512000)
I0817 16:07:12.657474 17621 net.cpp:165] Memory required for data: 863745500
I0817 16:07:12.657483 17621 layer_factory.hpp:77] Creating layer L2_b1_cbr1_bn
I0817 16:07:12.657495 17621 net.cpp:100] Creating Layer L2_b1_cbr1_bn
I0817 16:07:12.657501 17621 net.cpp:434] L2_b1_cbr1_bn <- L2_b1_cbr1_conv_top
I0817 16:07:12.657510 17621 net.cpp:408] L2_b1_cbr1_bn -> L2_b1_cbr1_bn_top
I0817 16:07:12.657757 17621 net.cpp:150] Setting up L2_b1_cbr1_bn
I0817 16:07:12.657774 17621 net.cpp:157] Top shape: 125 16 16 16 (512000)
I0817 16:07:12.657779 17621 net.cpp:165] Memory required for data: 865793500
I0817 16:07:12.657791 17621 layer_factory.hpp:77] Creating layer L2_b1_cbr1_scale
I0817 16:07:12.657799 17621 net.cpp:100] Creating Layer L2_b1_cbr1_scale
I0817 16:07:12.657812 17621 net.cpp:434] L2_b1_cbr1_scale <- L2_b1_cbr1_bn_top
I0817 16:07:12.657820 17621 net.cpp:395] L2_b1_cbr1_scale -> L2_b1_cbr1_bn_top (in-place)
I0817 16:07:12.657874 17621 layer_factory.hpp:77] Creating layer L2_b1_cbr1_scale
I0817 16:07:12.658020 17621 net.cpp:150] Setting up L2_b1_cbr1_scale
I0817 16:07:12.658032 17621 net.cpp:157] Top shape: 125 16 16 16 (512000)
I0817 16:07:12.658037 17621 net.cpp:165] Memory required for data: 867841500
I0817 16:07:12.658046 17621 layer_factory.hpp:77] Creating layer L2_b1_cbr1_relu
I0817 16:07:12.658054 17621 net.cpp:100] Creating Layer L2_b1_cbr1_relu
I0817 16:07:12.658061 17621 net.cpp:434] L2_b1_cbr1_relu <- L2_b1_cbr1_bn_top
I0817 16:07:12.658071 17621 net.cpp:395] L2_b1_cbr1_relu -> L2_b1_cbr1_bn_top (in-place)
I0817 16:07:12.658080 17621 net.cpp:150] Setting up L2_b1_cbr1_relu
I0817 16:07:12.658087 17621 net.cpp:157] Top shape: 125 16 16 16 (512000)
I0817 16:07:12.658092 17621 net.cpp:165] Memory required for data: 869889500
I0817 16:07:12.658097 17621 layer_factory.hpp:77] Creating layer L2_b1_cbr2_conv
I0817 16:07:12.658108 17621 net.cpp:100] Creating Layer L2_b1_cbr2_conv
I0817 16:07:12.658114 17621 net.cpp:434] L2_b1_cbr2_conv <- L2_b1_cbr1_bn_top
I0817 16:07:12.658125 17621 net.cpp:408] L2_b1_cbr2_conv -> L2_b1_cbr2_conv_top
I0817 16:07:12.658440 17621 net.cpp:150] Setting up L2_b1_cbr2_conv
I0817 16:07:12.658454 17621 net.cpp:157] Top shape: 125 16 16 16 (512000)
I0817 16:07:12.658460 17621 net.cpp:165] Memory required for data: 871937500
I0817 16:07:12.658469 17621 layer_factory.hpp:77] Creating layer L2_b1_cbr2_bn
I0817 16:07:12.658478 17621 net.cpp:100] Creating Layer L2_b1_cbr2_bn
I0817 16:07:12.658484 17621 net.cpp:434] L2_b1_cbr2_bn <- L2_b1_cbr2_conv_top
I0817 16:07:12.658498 17621 net.cpp:408] L2_b1_cbr2_bn -> L2_b1_cbr2_bn_top
I0817 16:07:12.658742 17621 net.cpp:150] Setting up L2_b1_cbr2_bn
I0817 16:07:12.658762 17621 net.cpp:157] Top shape: 125 16 16 16 (512000)
I0817 16:07:12.658767 17621 net.cpp:165] Memory required for data: 873985500
I0817 16:07:12.658778 17621 layer_factory.hpp:77] Creating layer L2_b1_cbr2_scale
I0817 16:07:12.658790 17621 net.cpp:100] Creating Layer L2_b1_cbr2_scale
I0817 16:07:12.658797 17621 net.cpp:434] L2_b1_cbr2_scale <- L2_b1_cbr2_bn_top
I0817 16:07:12.658805 17621 net.cpp:395] L2_b1_cbr2_scale -> L2_b1_cbr2_bn_top (in-place)
I0817 16:07:12.658861 17621 layer_factory.hpp:77] Creating layer L2_b1_cbr2_scale
I0817 16:07:12.659008 17621 net.cpp:150] Setting up L2_b1_cbr2_scale
I0817 16:07:12.659020 17621 net.cpp:157] Top shape: 125 16 16 16 (512000)
I0817 16:07:12.659025 17621 net.cpp:165] Memory required for data: 876033500
I0817 16:07:12.659035 17621 layer_factory.hpp:77] Creating layer L2_b1_pool
I0817 16:07:12.659050 17621 net.cpp:100] Creating Layer L2_b1_pool
I0817 16:07:12.659057 17621 net.cpp:434] L2_b1_pool <- L1_b9_sum_eltwise_top_L1_b9_relu_0_split_1
I0817 16:07:12.659070 17621 net.cpp:408] L2_b1_pool -> L2_b1_pool
I0817 16:07:12.659154 17621 net.cpp:150] Setting up L2_b1_pool
I0817 16:07:12.659169 17621 net.cpp:157] Top shape: 125 16 16 16 (512000)
I0817 16:07:12.659175 17621 net.cpp:165] Memory required for data: 878081500
I0817 16:07:12.659180 17621 layer_factory.hpp:77] Creating layer L2_b1_sum_eltwise
I0817 16:07:12.659190 17621 net.cpp:100] Creating Layer L2_b1_sum_eltwise
I0817 16:07:12.659196 17621 net.cpp:434] L2_b1_sum_eltwise <- L2_b1_cbr2_bn_top
I0817 16:07:12.659204 17621 net.cpp:434] L2_b1_sum_eltwise <- L2_b1_pool
I0817 16:07:12.659214 17621 net.cpp:408] L2_b1_sum_eltwise -> L2_b1_sum_eltwise_top
I0817 16:07:12.659248 17621 net.cpp:150] Setting up L2_b1_sum_eltwise
I0817 16:07:12.659257 17621 net.cpp:157] Top shape: 125 16 16 16 (512000)
I0817 16:07:12.659261 17621 net.cpp:165] Memory required for data: 880129500
I0817 16:07:12.659267 17621 layer_factory.hpp:77] Creating layer L2_b1_relu
I0817 16:07:12.659274 17621 net.cpp:100] Creating Layer L2_b1_relu
I0817 16:07:12.659281 17621 net.cpp:434] L2_b1_relu <- L2_b1_sum_eltwise_top
I0817 16:07:12.659291 17621 net.cpp:395] L2_b1_relu -> L2_b1_sum_eltwise_top (in-place)
I0817 16:07:12.659307 17621 net.cpp:150] Setting up L2_b1_relu
I0817 16:07:12.659315 17621 net.cpp:157] Top shape: 125 16 16 16 (512000)
I0817 16:07:12.659319 17621 net.cpp:165] Memory required for data: 882177500
I0817 16:07:12.659324 17621 layer_factory.hpp:77] Creating layer L2_b1_zeros
I0817 16:07:12.659371 17621 net.cpp:100] Creating Layer L2_b1_zeros
I0817 16:07:12.659385 17621 net.cpp:408] L2_b1_zeros -> L2_b1_zeros
I0817 16:07:12.661715 17621 net.cpp:150] Setting up L2_b1_zeros
I0817 16:07:12.661734 17621 net.cpp:157] Top shape: 125 16 16 16 (512000)
I0817 16:07:12.661739 17621 net.cpp:165] Memory required for data: 884225500
I0817 16:07:12.661746 17621 layer_factory.hpp:77] Creating layer L2_b1_concat0
I0817 16:07:12.661761 17621 net.cpp:100] Creating Layer L2_b1_concat0
I0817 16:07:12.661769 17621 net.cpp:434] L2_b1_concat0 <- L2_b1_sum_eltwise_top
I0817 16:07:12.661777 17621 net.cpp:434] L2_b1_concat0 <- L2_b1_zeros
I0817 16:07:12.661787 17621 net.cpp:408] L2_b1_concat0 -> L2_b1_concat0
I0817 16:07:12.661865 17621 net.cpp:150] Setting up L2_b1_concat0
I0817 16:07:12.661885 17621 net.cpp:157] Top shape: 125 32 16 16 (1024000)
I0817 16:07:12.661890 17621 net.cpp:165] Memory required for data: 888321500
I0817 16:07:12.661895 17621 layer_factory.hpp:77] Creating layer L2_b1_concat0_L2_b1_concat0_0_split
I0817 16:07:12.661903 17621 net.cpp:100] Creating Layer L2_b1_concat0_L2_b1_concat0_0_split
I0817 16:07:12.661909 17621 net.cpp:434] L2_b1_concat0_L2_b1_concat0_0_split <- L2_b1_concat0
I0817 16:07:12.661917 17621 net.cpp:408] L2_b1_concat0_L2_b1_concat0_0_split -> L2_b1_concat0_L2_b1_concat0_0_split_0
I0817 16:07:12.661931 17621 net.cpp:408] L2_b1_concat0_L2_b1_concat0_0_split -> L2_b1_concat0_L2_b1_concat0_0_split_1
I0817 16:07:12.662005 17621 net.cpp:150] Setting up L2_b1_concat0_L2_b1_concat0_0_split
I0817 16:07:12.662019 17621 net.cpp:157] Top shape: 125 32 16 16 (1024000)
I0817 16:07:12.662026 17621 net.cpp:157] Top shape: 125 32 16 16 (1024000)
I0817 16:07:12.662031 17621 net.cpp:165] Memory required for data: 896513500
I0817 16:07:12.662036 17621 layer_factory.hpp:77] Creating layer L2_b2_cbr1_conv
I0817 16:07:12.662052 17621 net.cpp:100] Creating Layer L2_b2_cbr1_conv
I0817 16:07:12.662060 17621 net.cpp:434] L2_b2_cbr1_conv <- L2_b1_concat0_L2_b1_concat0_0_split_0
I0817 16:07:12.662070 17621 net.cpp:408] L2_b2_cbr1_conv -> L2_b2_cbr1_conv_top
I0817 16:07:12.663527 17621 net.cpp:150] Setting up L2_b2_cbr1_conv
I0817 16:07:12.663544 17621 net.cpp:157] Top shape: 125 32 16 16 (1024000)
I0817 16:07:12.663549 17621 net.cpp:165] Memory required for data: 900609500
I0817 16:07:12.663559 17621 layer_factory.hpp:77] Creating layer L2_b2_cbr1_bn
I0817 16:07:12.663573 17621 net.cpp:100] Creating Layer L2_b2_cbr1_bn
I0817 16:07:12.663580 17621 net.cpp:434] L2_b2_cbr1_bn <- L2_b2_cbr1_conv_top
I0817 16:07:12.663589 17621 net.cpp:408] L2_b2_cbr1_bn -> L2_b2_cbr1_bn_top
I0817 16:07:12.663849 17621 net.cpp:150] Setting up L2_b2_cbr1_bn
I0817 16:07:12.663866 17621 net.cpp:157] Top shape: 125 32 16 16 (1024000)
I0817 16:07:12.663872 17621 net.cpp:165] Memory required for data: 904705500
I0817 16:07:12.663883 17621 layer_factory.hpp:77] Creating layer L2_b2_cbr1_scale
I0817 16:07:12.663893 17621 net.cpp:100] Creating Layer L2_b2_cbr1_scale
I0817 16:07:12.663899 17621 net.cpp:434] L2_b2_cbr1_scale <- L2_b2_cbr1_bn_top
I0817 16:07:12.663908 17621 net.cpp:395] L2_b2_cbr1_scale -> L2_b2_cbr1_bn_top (in-place)
I0817 16:07:12.663964 17621 layer_factory.hpp:77] Creating layer L2_b2_cbr1_scale
I0817 16:07:12.664114 17621 net.cpp:150] Setting up L2_b2_cbr1_scale
I0817 16:07:12.664127 17621 net.cpp:157] Top shape: 125 32 16 16 (1024000)
I0817 16:07:12.664132 17621 net.cpp:165] Memory required for data: 908801500
I0817 16:07:12.664141 17621 layer_factory.hpp:77] Creating layer L2_b2_cbr1_relu
I0817 16:07:12.664149 17621 net.cpp:100] Creating Layer L2_b2_cbr1_relu
I0817 16:07:12.664156 17621 net.cpp:434] L2_b2_cbr1_relu <- L2_b2_cbr1_bn_top
I0817 16:07:12.664166 17621 net.cpp:395] L2_b2_cbr1_relu -> L2_b2_cbr1_bn_top (in-place)
I0817 16:07:12.664186 17621 net.cpp:150] Setting up L2_b2_cbr1_relu
I0817 16:07:12.664192 17621 net.cpp:157] Top shape: 125 32 16 16 (1024000)
I0817 16:07:12.664197 17621 net.cpp:165] Memory required for data: 912897500
I0817 16:07:12.664202 17621 layer_factory.hpp:77] Creating layer L2_b2_cbr2_conv
I0817 16:07:12.664216 17621 net.cpp:100] Creating Layer L2_b2_cbr2_conv
I0817 16:07:12.664222 17621 net.cpp:434] L2_b2_cbr2_conv <- L2_b2_cbr1_bn_top
I0817 16:07:12.664232 17621 net.cpp:408] L2_b2_cbr2_conv -> L2_b2_cbr2_conv_top
I0817 16:07:12.664687 17621 net.cpp:150] Setting up L2_b2_cbr2_conv
I0817 16:07:12.664702 17621 net.cpp:157] Top shape: 125 32 16 16 (1024000)
I0817 16:07:12.664707 17621 net.cpp:165] Memory required for data: 916993500
I0817 16:07:12.664716 17621 layer_factory.hpp:77] Creating layer L2_b2_cbr2_bn
I0817 16:07:12.664726 17621 net.cpp:100] Creating Layer L2_b2_cbr2_bn
I0817 16:07:12.664731 17621 net.cpp:434] L2_b2_cbr2_bn <- L2_b2_cbr2_conv_top
I0817 16:07:12.664742 17621 net.cpp:408] L2_b2_cbr2_bn -> L2_b2_cbr2_bn_top
I0817 16:07:12.664995 17621 net.cpp:150] Setting up L2_b2_cbr2_bn
I0817 16:07:12.665009 17621 net.cpp:157] Top shape: 125 32 16 16 (1024000)
I0817 16:07:12.665014 17621 net.cpp:165] Memory required for data: 921089500
I0817 16:07:12.665025 17621 layer_factory.hpp:77] Creating layer L2_b2_cbr2_scale
I0817 16:07:12.665037 17621 net.cpp:100] Creating Layer L2_b2_cbr2_scale
I0817 16:07:12.665045 17621 net.cpp:434] L2_b2_cbr2_scale <- L2_b2_cbr2_bn_top
I0817 16:07:12.665052 17621 net.cpp:395] L2_b2_cbr2_scale -> L2_b2_cbr2_bn_top (in-place)
I0817 16:07:12.665107 17621 layer_factory.hpp:77] Creating layer L2_b2_cbr2_scale
I0817 16:07:12.665251 17621 net.cpp:150] Setting up L2_b2_cbr2_scale
I0817 16:07:12.665264 17621 net.cpp:157] Top shape: 125 32 16 16 (1024000)
I0817 16:07:12.665269 17621 net.cpp:165] Memory required for data: 925185500
I0817 16:07:12.665279 17621 layer_factory.hpp:77] Creating layer L2_b2_sum_eltwise
I0817 16:07:12.665293 17621 net.cpp:100] Creating Layer L2_b2_sum_eltwise
I0817 16:07:12.665300 17621 net.cpp:434] L2_b2_sum_eltwise <- L2_b2_cbr2_bn_top
I0817 16:07:12.665307 17621 net.cpp:434] L2_b2_sum_eltwise <- L2_b1_concat0_L2_b1_concat0_0_split_1
I0817 16:07:12.665320 17621 net.cpp:408] L2_b2_sum_eltwise -> L2_b2_sum_eltwise_top
I0817 16:07:12.665347 17621 net.cpp:150] Setting up L2_b2_sum_eltwise
I0817 16:07:12.665359 17621 net.cpp:157] Top shape: 125 32 16 16 (1024000)
I0817 16:07:12.665364 17621 net.cpp:165] Memory required for data: 929281500
I0817 16:07:12.665369 17621 layer_factory.hpp:77] Creating layer L2_b2_relu
I0817 16:07:12.665376 17621 net.cpp:100] Creating Layer L2_b2_relu
I0817 16:07:12.665382 17621 net.cpp:434] L2_b2_relu <- L2_b2_sum_eltwise_top
I0817 16:07:12.665392 17621 net.cpp:395] L2_b2_relu -> L2_b2_sum_eltwise_top (in-place)
I0817 16:07:12.665402 17621 net.cpp:150] Setting up L2_b2_relu
I0817 16:07:12.665410 17621 net.cpp:157] Top shape: 125 32 16 16 (1024000)
I0817 16:07:12.665415 17621 net.cpp:165] Memory required for data: 933377500
I0817 16:07:12.665419 17621 layer_factory.hpp:77] Creating layer L2_b2_sum_eltwise_top_L2_b2_relu_0_split
I0817 16:07:12.665426 17621 net.cpp:100] Creating Layer L2_b2_sum_eltwise_top_L2_b2_relu_0_split
I0817 16:07:12.665432 17621 net.cpp:434] L2_b2_sum_eltwise_top_L2_b2_relu_0_split <- L2_b2_sum_eltwise_top
I0817 16:07:12.665439 17621 net.cpp:408] L2_b2_sum_eltwise_top_L2_b2_relu_0_split -> L2_b2_sum_eltwise_top_L2_b2_relu_0_split_0
I0817 16:07:12.665448 17621 net.cpp:408] L2_b2_sum_eltwise_top_L2_b2_relu_0_split -> L2_b2_sum_eltwise_top_L2_b2_relu_0_split_1
I0817 16:07:12.665498 17621 net.cpp:150] Setting up L2_b2_sum_eltwise_top_L2_b2_relu_0_split
I0817 16:07:12.665508 17621 net.cpp:157] Top shape: 125 32 16 16 (1024000)
I0817 16:07:12.665515 17621 net.cpp:157] Top shape: 125 32 16 16 (1024000)
I0817 16:07:12.665520 17621 net.cpp:165] Memory required for data: 941569500
I0817 16:07:12.665525 17621 layer_factory.hpp:77] Creating layer L2_b3_cbr1_conv
I0817 16:07:12.665544 17621 net.cpp:100] Creating Layer L2_b3_cbr1_conv
I0817 16:07:12.665550 17621 net.cpp:434] L2_b3_cbr1_conv <- L2_b2_sum_eltwise_top_L2_b2_relu_0_split_0
I0817 16:07:12.665563 17621 net.cpp:408] L2_b3_cbr1_conv -> L2_b3_cbr1_conv_top
I0817 16:07:12.666039 17621 net.cpp:150] Setting up L2_b3_cbr1_conv
I0817 16:07:12.666054 17621 net.cpp:157] Top shape: 125 32 16 16 (1024000)
I0817 16:07:12.666059 17621 net.cpp:165] Memory required for data: 945665500
I0817 16:07:12.666069 17621 layer_factory.hpp:77] Creating layer L2_b3_cbr1_bn
I0817 16:07:12.666080 17621 net.cpp:100] Creating Layer L2_b3_cbr1_bn
I0817 16:07:12.666087 17621 net.cpp:434] L2_b3_cbr1_bn <- L2_b3_cbr1_conv_top
I0817 16:07:12.666095 17621 net.cpp:408] L2_b3_cbr1_bn -> L2_b3_cbr1_bn_top
I0817 16:07:12.666342 17621 net.cpp:150] Setting up L2_b3_cbr1_bn
I0817 16:07:12.666354 17621 net.cpp:157] Top shape: 125 32 16 16 (1024000)
I0817 16:07:12.666379 17621 net.cpp:165] Memory required for data: 949761500
I0817 16:07:12.666391 17621 layer_factory.hpp:77] Creating layer L2_b3_cbr1_scale
I0817 16:07:12.666404 17621 net.cpp:100] Creating Layer L2_b3_cbr1_scale
I0817 16:07:12.666411 17621 net.cpp:434] L2_b3_cbr1_scale <- L2_b3_cbr1_bn_top
I0817 16:07:12.666419 17621 net.cpp:395] L2_b3_cbr1_scale -> L2_b3_cbr1_bn_top (in-place)
I0817 16:07:12.666476 17621 layer_factory.hpp:77] Creating layer L2_b3_cbr1_scale
I0817 16:07:12.666623 17621 net.cpp:150] Setting up L2_b3_cbr1_scale
I0817 16:07:12.666635 17621 net.cpp:157] Top shape: 125 32 16 16 (1024000)
I0817 16:07:12.666640 17621 net.cpp:165] Memory required for data: 953857500
I0817 16:07:12.666649 17621 layer_factory.hpp:77] Creating layer L2_b3_cbr1_relu
I0817 16:07:12.666661 17621 net.cpp:100] Creating Layer L2_b3_cbr1_relu
I0817 16:07:12.666667 17621 net.cpp:434] L2_b3_cbr1_relu <- L2_b3_cbr1_bn_top
I0817 16:07:12.666677 17621 net.cpp:395] L2_b3_cbr1_relu -> L2_b3_cbr1_bn_top (in-place)
I0817 16:07:12.666687 17621 net.cpp:150] Setting up L2_b3_cbr1_relu
I0817 16:07:12.666693 17621 net.cpp:157] Top shape: 125 32 16 16 (1024000)
I0817 16:07:12.666698 17621 net.cpp:165] Memory required for data: 957953500
I0817 16:07:12.666703 17621 layer_factory.hpp:77] Creating layer L2_b3_cbr2_conv
I0817 16:07:12.666714 17621 net.cpp:100] Creating Layer L2_b3_cbr2_conv
I0817 16:07:12.666719 17621 net.cpp:434] L2_b3_cbr2_conv <- L2_b3_cbr1_bn_top
I0817 16:07:12.666731 17621 net.cpp:408] L2_b3_cbr2_conv -> L2_b3_cbr2_conv_top
I0817 16:07:12.667197 17621 net.cpp:150] Setting up L2_b3_cbr2_conv
I0817 16:07:12.667212 17621 net.cpp:157] Top shape: 125 32 16 16 (1024000)
I0817 16:07:12.667217 17621 net.cpp:165] Memory required for data: 962049500
I0817 16:07:12.667227 17621 layer_factory.hpp:77] Creating layer L2_b3_cbr2_bn
I0817 16:07:12.667235 17621 net.cpp:100] Creating Layer L2_b3_cbr2_bn
I0817 16:07:12.667243 17621 net.cpp:434] L2_b3_cbr2_bn <- L2_b3_cbr2_conv_top
I0817 16:07:12.667253 17621 net.cpp:408] L2_b3_cbr2_bn -> L2_b3_cbr2_bn_top
I0817 16:07:12.667505 17621 net.cpp:150] Setting up L2_b3_cbr2_bn
I0817 16:07:12.667520 17621 net.cpp:157] Top shape: 125 32 16 16 (1024000)
I0817 16:07:12.667524 17621 net.cpp:165] Memory required for data: 966145500
I0817 16:07:12.667534 17621 layer_factory.hpp:77] Creating layer L2_b3_cbr2_scale
I0817 16:07:12.667546 17621 net.cpp:100] Creating Layer L2_b3_cbr2_scale
I0817 16:07:12.667553 17621 net.cpp:434] L2_b3_cbr2_scale <- L2_b3_cbr2_bn_top
I0817 16:07:12.667560 17621 net.cpp:395] L2_b3_cbr2_scale -> L2_b3_cbr2_bn_top (in-place)
I0817 16:07:12.667614 17621 layer_factory.hpp:77] Creating layer L2_b3_cbr2_scale
I0817 16:07:12.667771 17621 net.cpp:150] Setting up L2_b3_cbr2_scale
I0817 16:07:12.667785 17621 net.cpp:157] Top shape: 125 32 16 16 (1024000)
I0817 16:07:12.667790 17621 net.cpp:165] Memory required for data: 970241500
I0817 16:07:12.667799 17621 layer_factory.hpp:77] Creating layer L2_b3_sum_eltwise
I0817 16:07:12.667811 17621 net.cpp:100] Creating Layer L2_b3_sum_eltwise
I0817 16:07:12.667819 17621 net.cpp:434] L2_b3_sum_eltwise <- L2_b3_cbr2_bn_top
I0817 16:07:12.667825 17621 net.cpp:434] L2_b3_sum_eltwise <- L2_b2_sum_eltwise_top_L2_b2_relu_0_split_1
I0817 16:07:12.667840 17621 net.cpp:408] L2_b3_sum_eltwise -> L2_b3_sum_eltwise_top
I0817 16:07:12.667873 17621 net.cpp:150] Setting up L2_b3_sum_eltwise
I0817 16:07:12.667883 17621 net.cpp:157] Top shape: 125 32 16 16 (1024000)
I0817 16:07:12.667888 17621 net.cpp:165] Memory required for data: 974337500
I0817 16:07:12.667893 17621 layer_factory.hpp:77] Creating layer L2_b3_relu
I0817 16:07:12.667914 17621 net.cpp:100] Creating Layer L2_b3_relu
I0817 16:07:12.667922 17621 net.cpp:434] L2_b3_relu <- L2_b3_sum_eltwise_top
I0817 16:07:12.667928 17621 net.cpp:395] L2_b3_relu -> L2_b3_sum_eltwise_top (in-place)
I0817 16:07:12.667938 17621 net.cpp:150] Setting up L2_b3_relu
I0817 16:07:12.667945 17621 net.cpp:157] Top shape: 125 32 16 16 (1024000)
I0817 16:07:12.667949 17621 net.cpp:165] Memory required for data: 978433500
I0817 16:07:12.667955 17621 layer_factory.hpp:77] Creating layer L2_b3_sum_eltwise_top_L2_b3_relu_0_split
I0817 16:07:12.667965 17621 net.cpp:100] Creating Layer L2_b3_sum_eltwise_top_L2_b3_relu_0_split
I0817 16:07:12.667970 17621 net.cpp:434] L2_b3_sum_eltwise_top_L2_b3_relu_0_split <- L2_b3_sum_eltwise_top
I0817 16:07:12.667979 17621 net.cpp:408] L2_b3_sum_eltwise_top_L2_b3_relu_0_split -> L2_b3_sum_eltwise_top_L2_b3_relu_0_split_0
I0817 16:07:12.667987 17621 net.cpp:408] L2_b3_sum_eltwise_top_L2_b3_relu_0_split -> L2_b3_sum_eltwise_top_L2_b3_relu_0_split_1
I0817 16:07:12.668032 17621 net.cpp:150] Setting up L2_b3_sum_eltwise_top_L2_b3_relu_0_split
I0817 16:07:12.668047 17621 net.cpp:157] Top shape: 125 32 16 16 (1024000)
I0817 16:07:12.668054 17621 net.cpp:157] Top shape: 125 32 16 16 (1024000)
I0817 16:07:12.668059 17621 net.cpp:165] Memory required for data: 986625500
I0817 16:07:12.668064 17621 layer_factory.hpp:77] Creating layer L2_b4_cbr1_conv
I0817 16:07:12.668076 17621 net.cpp:100] Creating Layer L2_b4_cbr1_conv
I0817 16:07:12.668081 17621 net.cpp:434] L2_b4_cbr1_conv <- L2_b3_sum_eltwise_top_L2_b3_relu_0_split_0
I0817 16:07:12.668090 17621 net.cpp:408] L2_b4_cbr1_conv -> L2_b4_cbr1_conv_top
I0817 16:07:12.668553 17621 net.cpp:150] Setting up L2_b4_cbr1_conv
I0817 16:07:12.668570 17621 net.cpp:157] Top shape: 125 32 16 16 (1024000)
I0817 16:07:12.668576 17621 net.cpp:165] Memory required for data: 990721500
I0817 16:07:12.668584 17621 layer_factory.hpp:77] Creating layer L2_b4_cbr1_bn
I0817 16:07:12.668594 17621 net.cpp:100] Creating Layer L2_b4_cbr1_bn
I0817 16:07:12.668601 17621 net.cpp:434] L2_b4_cbr1_bn <- L2_b4_cbr1_conv_top
I0817 16:07:12.668608 17621 net.cpp:408] L2_b4_cbr1_bn -> L2_b4_cbr1_bn_top
I0817 16:07:12.668861 17621 net.cpp:150] Setting up L2_b4_cbr1_bn
I0817 16:07:12.668875 17621 net.cpp:157] Top shape: 125 32 16 16 (1024000)
I0817 16:07:12.668880 17621 net.cpp:165] Memory required for data: 994817500
I0817 16:07:12.668890 17621 layer_factory.hpp:77] Creating layer L2_b4_cbr1_scale
I0817 16:07:12.668902 17621 net.cpp:100] Creating Layer L2_b4_cbr1_scale
I0817 16:07:12.668910 17621 net.cpp:434] L2_b4_cbr1_scale <- L2_b4_cbr1_bn_top
I0817 16:07:12.668917 17621 net.cpp:395] L2_b4_cbr1_scale -> L2_b4_cbr1_bn_top (in-place)
I0817 16:07:12.668975 17621 layer_factory.hpp:77] Creating layer L2_b4_cbr1_scale
I0817 16:07:12.669122 17621 net.cpp:150] Setting up L2_b4_cbr1_scale
I0817 16:07:12.669136 17621 net.cpp:157] Top shape: 125 32 16 16 (1024000)
I0817 16:07:12.669140 17621 net.cpp:165] Memory required for data: 998913500
I0817 16:07:12.669149 17621 layer_factory.hpp:77] Creating layer L2_b4_cbr1_relu
I0817 16:07:12.669157 17621 net.cpp:100] Creating Layer L2_b4_cbr1_relu
I0817 16:07:12.669163 17621 net.cpp:434] L2_b4_cbr1_relu <- L2_b4_cbr1_bn_top
I0817 16:07:12.669173 17621 net.cpp:395] L2_b4_cbr1_relu -> L2_b4_cbr1_bn_top (in-place)
I0817 16:07:12.669183 17621 net.cpp:150] Setting up L2_b4_cbr1_relu
I0817 16:07:12.669190 17621 net.cpp:157] Top shape: 125 32 16 16 (1024000)
I0817 16:07:12.669194 17621 net.cpp:165] Memory required for data: 1003009500
I0817 16:07:12.669199 17621 layer_factory.hpp:77] Creating layer L2_b4_cbr2_conv
I0817 16:07:12.669220 17621 net.cpp:100] Creating Layer L2_b4_cbr2_conv
I0817 16:07:12.669227 17621 net.cpp:434] L2_b4_cbr2_conv <- L2_b4_cbr1_bn_top
I0817 16:07:12.669235 17621 net.cpp:408] L2_b4_cbr2_conv -> L2_b4_cbr2_conv_top
I0817 16:07:12.669697 17621 net.cpp:150] Setting up L2_b4_cbr2_conv
I0817 16:07:12.669713 17621 net.cpp:157] Top shape: 125 32 16 16 (1024000)
I0817 16:07:12.669718 17621 net.cpp:165] Memory required for data: 1007105500
I0817 16:07:12.669726 17621 layer_factory.hpp:77] Creating layer L2_b4_cbr2_bn
I0817 16:07:12.669739 17621 net.cpp:100] Creating Layer L2_b4_cbr2_bn
I0817 16:07:12.669746 17621 net.cpp:434] L2_b4_cbr2_bn <- L2_b4_cbr2_conv_top
I0817 16:07:12.669760 17621 net.cpp:408] L2_b4_cbr2_bn -> L2_b4_cbr2_bn_top
I0817 16:07:12.670006 17621 net.cpp:150] Setting up L2_b4_cbr2_bn
I0817 16:07:12.670019 17621 net.cpp:157] Top shape: 125 32 16 16 (1024000)
I0817 16:07:12.670024 17621 net.cpp:165] Memory required for data: 1011201500
I0817 16:07:12.670035 17621 layer_factory.hpp:77] Creating layer L2_b4_cbr2_scale
I0817 16:07:12.670044 17621 net.cpp:100] Creating Layer L2_b4_cbr2_scale
I0817 16:07:12.670050 17621 net.cpp:434] L2_b4_cbr2_scale <- L2_b4_cbr2_bn_top
I0817 16:07:12.670061 17621 net.cpp:395] L2_b4_cbr2_scale -> L2_b4_cbr2_bn_top (in-place)
I0817 16:07:12.670116 17621 layer_factory.hpp:77] Creating layer L2_b4_cbr2_scale
I0817 16:07:12.670264 17621 net.cpp:150] Setting up L2_b4_cbr2_scale
I0817 16:07:12.670277 17621 net.cpp:157] Top shape: 125 32 16 16 (1024000)
I0817 16:07:12.670282 17621 net.cpp:165] Memory required for data: 1015297500
I0817 16:07:12.670291 17621 layer_factory.hpp:77] Creating layer L2_b4_sum_eltwise
I0817 16:07:12.670300 17621 net.cpp:100] Creating Layer L2_b4_sum_eltwise
I0817 16:07:12.670306 17621 net.cpp:434] L2_b4_sum_eltwise <- L2_b4_cbr2_bn_top
I0817 16:07:12.670312 17621 net.cpp:434] L2_b4_sum_eltwise <- L2_b3_sum_eltwise_top_L2_b3_relu_0_split_1
I0817 16:07:12.670323 17621 net.cpp:408] L2_b4_sum_eltwise -> L2_b4_sum_eltwise_top
I0817 16:07:12.670351 17621 net.cpp:150] Setting up L2_b4_sum_eltwise
I0817 16:07:12.670359 17621 net.cpp:157] Top shape: 125 32 16 16 (1024000)
I0817 16:07:12.670364 17621 net.cpp:165] Memory required for data: 1019393500
I0817 16:07:12.670369 17621 layer_factory.hpp:77] Creating layer L2_b4_relu
I0817 16:07:12.670380 17621 net.cpp:100] Creating Layer L2_b4_relu
I0817 16:07:12.670387 17621 net.cpp:434] L2_b4_relu <- L2_b4_sum_eltwise_top
I0817 16:07:12.670393 17621 net.cpp:395] L2_b4_relu -> L2_b4_sum_eltwise_top (in-place)
I0817 16:07:12.670403 17621 net.cpp:150] Setting up L2_b4_relu
I0817 16:07:12.670410 17621 net.cpp:157] Top shape: 125 32 16 16 (1024000)
I0817 16:07:12.670414 17621 net.cpp:165] Memory required for data: 1023489500
I0817 16:07:12.670419 17621 layer_factory.hpp:77] Creating layer L2_b4_sum_eltwise_top_L2_b4_relu_0_split
I0817 16:07:12.670429 17621 net.cpp:100] Creating Layer L2_b4_sum_eltwise_top_L2_b4_relu_0_split
I0817 16:07:12.670435 17621 net.cpp:434] L2_b4_sum_eltwise_top_L2_b4_relu_0_split <- L2_b4_sum_eltwise_top
I0817 16:07:12.670442 17621 net.cpp:408] L2_b4_sum_eltwise_top_L2_b4_relu_0_split -> L2_b4_sum_eltwise_top_L2_b4_relu_0_split_0
I0817 16:07:12.670452 17621 net.cpp:408] L2_b4_sum_eltwise_top_L2_b4_relu_0_split -> L2_b4_sum_eltwise_top_L2_b4_relu_0_split_1
I0817 16:07:12.670496 17621 net.cpp:150] Setting up L2_b4_sum_eltwise_top_L2_b4_relu_0_split
I0817 16:07:12.670513 17621 net.cpp:157] Top shape: 125 32 16 16 (1024000)
I0817 16:07:12.670521 17621 net.cpp:157] Top shape: 125 32 16 16 (1024000)
I0817 16:07:12.670526 17621 net.cpp:165] Memory required for data: 1031681500
I0817 16:07:12.670531 17621 layer_factory.hpp:77] Creating layer L2_b5_cbr1_conv
I0817 16:07:12.670542 17621 net.cpp:100] Creating Layer L2_b5_cbr1_conv
I0817 16:07:12.670547 17621 net.cpp:434] L2_b5_cbr1_conv <- L2_b4_sum_eltwise_top_L2_b4_relu_0_split_0
I0817 16:07:12.670557 17621 net.cpp:408] L2_b5_cbr1_conv -> L2_b5_cbr1_conv_top
I0817 16:07:12.671030 17621 net.cpp:150] Setting up L2_b5_cbr1_conv
I0817 16:07:12.671049 17621 net.cpp:157] Top shape: 125 32 16 16 (1024000)
I0817 16:07:12.671056 17621 net.cpp:165] Memory required for data: 1035777500
I0817 16:07:12.671064 17621 layer_factory.hpp:77] Creating layer L2_b5_cbr1_bn
I0817 16:07:12.671077 17621 net.cpp:100] Creating Layer L2_b5_cbr1_bn
I0817 16:07:12.671083 17621 net.cpp:434] L2_b5_cbr1_bn <- L2_b5_cbr1_conv_top
I0817 16:07:12.671092 17621 net.cpp:408] L2_b5_cbr1_bn -> L2_b5_cbr1_bn_top
I0817 16:07:12.671339 17621 net.cpp:150] Setting up L2_b5_cbr1_bn
I0817 16:07:12.671352 17621 net.cpp:157] Top shape: 125 32 16 16 (1024000)
I0817 16:07:12.671357 17621 net.cpp:165] Memory required for data: 1039873500
I0817 16:07:12.671367 17621 layer_factory.hpp:77] Creating layer L2_b5_cbr1_scale
I0817 16:07:12.671376 17621 net.cpp:100] Creating Layer L2_b5_cbr1_scale
I0817 16:07:12.671382 17621 net.cpp:434] L2_b5_cbr1_scale <- L2_b5_cbr1_bn_top
I0817 16:07:12.671393 17621 net.cpp:395] L2_b5_cbr1_scale -> L2_b5_cbr1_bn_top (in-place)
I0817 16:07:12.671448 17621 layer_factory.hpp:77] Creating layer L2_b5_cbr1_scale
I0817 16:07:12.671600 17621 net.cpp:150] Setting up L2_b5_cbr1_scale
I0817 16:07:12.671613 17621 net.cpp:157] Top shape: 125 32 16 16 (1024000)
I0817 16:07:12.671617 17621 net.cpp:165] Memory required for data: 1043969500
I0817 16:07:12.671627 17621 layer_factory.hpp:77] Creating layer L2_b5_cbr1_relu
I0817 16:07:12.671634 17621 net.cpp:100] Creating Layer L2_b5_cbr1_relu
I0817 16:07:12.671640 17621 net.cpp:434] L2_b5_cbr1_relu <- L2_b5_cbr1_bn_top
I0817 16:07:12.671651 17621 net.cpp:395] L2_b5_cbr1_relu -> L2_b5_cbr1_bn_top (in-place)
I0817 16:07:12.671660 17621 net.cpp:150] Setting up L2_b5_cbr1_relu
I0817 16:07:12.671667 17621 net.cpp:157] Top shape: 125 32 16 16 (1024000)
I0817 16:07:12.671672 17621 net.cpp:165] Memory required for data: 1048065500
I0817 16:07:12.671677 17621 layer_factory.hpp:77] Creating layer L2_b5_cbr2_conv
I0817 16:07:12.671691 17621 net.cpp:100] Creating Layer L2_b5_cbr2_conv
I0817 16:07:12.671697 17621 net.cpp:434] L2_b5_cbr2_conv <- L2_b5_cbr1_bn_top
I0817 16:07:12.671706 17621 net.cpp:408] L2_b5_cbr2_conv -> L2_b5_cbr2_conv_top
I0817 16:07:12.672178 17621 net.cpp:150] Setting up L2_b5_cbr2_conv
I0817 16:07:12.672191 17621 net.cpp:157] Top shape: 125 32 16 16 (1024000)
I0817 16:07:12.672196 17621 net.cpp:165] Memory required for data: 1052161500
I0817 16:07:12.672205 17621 layer_factory.hpp:77] Creating layer L2_b5_cbr2_bn
I0817 16:07:12.672219 17621 net.cpp:100] Creating Layer L2_b5_cbr2_bn
I0817 16:07:12.672224 17621 net.cpp:434] L2_b5_cbr2_bn <- L2_b5_cbr2_conv_top
I0817 16:07:12.672232 17621 net.cpp:408] L2_b5_cbr2_bn -> L2_b5_cbr2_bn_top
I0817 16:07:12.672477 17621 net.cpp:150] Setting up L2_b5_cbr2_bn
I0817 16:07:12.672490 17621 net.cpp:157] Top shape: 125 32 16 16 (1024000)
I0817 16:07:12.672495 17621 net.cpp:165] Memory required for data: 1056257500
I0817 16:07:12.672507 17621 layer_factory.hpp:77] Creating layer L2_b5_cbr2_scale
I0817 16:07:12.672514 17621 net.cpp:100] Creating Layer L2_b5_cbr2_scale
I0817 16:07:12.672520 17621 net.cpp:434] L2_b5_cbr2_scale <- L2_b5_cbr2_bn_top
I0817 16:07:12.672531 17621 net.cpp:395] L2_b5_cbr2_scale -> L2_b5_cbr2_bn_top (in-place)
I0817 16:07:12.672586 17621 layer_factory.hpp:77] Creating layer L2_b5_cbr2_scale
I0817 16:07:12.672734 17621 net.cpp:150] Setting up L2_b5_cbr2_scale
I0817 16:07:12.672747 17621 net.cpp:157] Top shape: 125 32 16 16 (1024000)
I0817 16:07:12.672757 17621 net.cpp:165] Memory required for data: 1060353500
I0817 16:07:12.672767 17621 layer_factory.hpp:77] Creating layer L2_b5_sum_eltwise
I0817 16:07:12.672776 17621 net.cpp:100] Creating Layer L2_b5_sum_eltwise
I0817 16:07:12.672783 17621 net.cpp:434] L2_b5_sum_eltwise <- L2_b5_cbr2_bn_top
I0817 16:07:12.672791 17621 net.cpp:434] L2_b5_sum_eltwise <- L2_b4_sum_eltwise_top_L2_b4_relu_0_split_1
I0817 16:07:12.672801 17621 net.cpp:408] L2_b5_sum_eltwise -> L2_b5_sum_eltwise_top
I0817 16:07:12.672828 17621 net.cpp:150] Setting up L2_b5_sum_eltwise
I0817 16:07:12.672837 17621 net.cpp:157] Top shape: 125 32 16 16 (1024000)
I0817 16:07:12.672849 17621 net.cpp:165] Memory required for data: 1064449500
I0817 16:07:12.672855 17621 layer_factory.hpp:77] Creating layer L2_b5_relu
I0817 16:07:12.672863 17621 net.cpp:100] Creating Layer L2_b5_relu
I0817 16:07:12.672873 17621 net.cpp:434] L2_b5_relu <- L2_b5_sum_eltwise_top
I0817 16:07:12.672879 17621 net.cpp:395] L2_b5_relu -> L2_b5_sum_eltwise_top (in-place)
I0817 16:07:12.672889 17621 net.cpp:150] Setting up L2_b5_relu
I0817 16:07:12.672896 17621 net.cpp:157] Top shape: 125 32 16 16 (1024000)
I0817 16:07:12.672900 17621 net.cpp:165] Memory required for data: 1068545500
I0817 16:07:12.672905 17621 layer_factory.hpp:77] Creating layer L2_b5_sum_eltwise_top_L2_b5_relu_0_split
I0817 16:07:12.672912 17621 net.cpp:100] Creating Layer L2_b5_sum_eltwise_top_L2_b5_relu_0_split
I0817 16:07:12.672917 17621 net.cpp:434] L2_b5_sum_eltwise_top_L2_b5_relu_0_split <- L2_b5_sum_eltwise_top
I0817 16:07:12.672929 17621 net.cpp:408] L2_b5_sum_eltwise_top_L2_b5_relu_0_split -> L2_b5_sum_eltwise_top_L2_b5_relu_0_split_0
I0817 16:07:12.672938 17621 net.cpp:408] L2_b5_sum_eltwise_top_L2_b5_relu_0_split -> L2_b5_sum_eltwise_top_L2_b5_relu_0_split_1
I0817 16:07:12.672982 17621 net.cpp:150] Setting up L2_b5_sum_eltwise_top_L2_b5_relu_0_split
I0817 16:07:12.672994 17621 net.cpp:157] Top shape: 125 32 16 16 (1024000)
I0817 16:07:12.673001 17621 net.cpp:157] Top shape: 125 32 16 16 (1024000)
I0817 16:07:12.673005 17621 net.cpp:165] Memory required for data: 1076737500
I0817 16:07:12.673010 17621 layer_factory.hpp:77] Creating layer L2_b6_cbr1_conv
I0817 16:07:12.673024 17621 net.cpp:100] Creating Layer L2_b6_cbr1_conv
I0817 16:07:12.673032 17621 net.cpp:434] L2_b6_cbr1_conv <- L2_b5_sum_eltwise_top_L2_b5_relu_0_split_0
I0817 16:07:12.673040 17621 net.cpp:408] L2_b6_cbr1_conv -> L2_b6_cbr1_conv_top
I0817 16:07:12.673509 17621 net.cpp:150] Setting up L2_b6_cbr1_conv
I0817 16:07:12.673523 17621 net.cpp:157] Top shape: 125 32 16 16 (1024000)
I0817 16:07:12.673528 17621 net.cpp:165] Memory required for data: 1080833500
I0817 16:07:12.673537 17621 layer_factory.hpp:77] Creating layer L2_b6_cbr1_bn
I0817 16:07:12.673549 17621 net.cpp:100] Creating Layer L2_b6_cbr1_bn
I0817 16:07:12.673555 17621 net.cpp:434] L2_b6_cbr1_bn <- L2_b6_cbr1_conv_top
I0817 16:07:12.673564 17621 net.cpp:408] L2_b6_cbr1_bn -> L2_b6_cbr1_bn_top
I0817 16:07:12.673825 17621 net.cpp:150] Setting up L2_b6_cbr1_bn
I0817 16:07:12.673840 17621 net.cpp:157] Top shape: 125 32 16 16 (1024000)
I0817 16:07:12.673844 17621 net.cpp:165] Memory required for data: 1084929500
I0817 16:07:12.673856 17621 layer_factory.hpp:77] Creating layer L2_b6_cbr1_scale
I0817 16:07:12.673863 17621 net.cpp:100] Creating Layer L2_b6_cbr1_scale
I0817 16:07:12.673871 17621 net.cpp:434] L2_b6_cbr1_scale <- L2_b6_cbr1_bn_top
I0817 16:07:12.673880 17621 net.cpp:395] L2_b6_cbr1_scale -> L2_b6_cbr1_bn_top (in-place)
I0817 16:07:12.673938 17621 layer_factory.hpp:77] Creating layer L2_b6_cbr1_scale
I0817 16:07:12.674088 17621 net.cpp:150] Setting up L2_b6_cbr1_scale
I0817 16:07:12.674101 17621 net.cpp:157] Top shape: 125 32 16 16 (1024000)
I0817 16:07:12.674106 17621 net.cpp:165] Memory required for data: 1089025500
I0817 16:07:12.674115 17621 layer_factory.hpp:77] Creating layer L2_b6_cbr1_relu
I0817 16:07:12.674124 17621 net.cpp:100] Creating Layer L2_b6_cbr1_relu
I0817 16:07:12.674129 17621 net.cpp:434] L2_b6_cbr1_relu <- L2_b6_cbr1_bn_top
I0817 16:07:12.674139 17621 net.cpp:395] L2_b6_cbr1_relu -> L2_b6_cbr1_bn_top (in-place)
I0817 16:07:12.674149 17621 net.cpp:150] Setting up L2_b6_cbr1_relu
I0817 16:07:12.674156 17621 net.cpp:157] Top shape: 125 32 16 16 (1024000)
I0817 16:07:12.674161 17621 net.cpp:165] Memory required for data: 1093121500
I0817 16:07:12.674166 17621 layer_factory.hpp:77] Creating layer L2_b6_cbr2_conv
I0817 16:07:12.674180 17621 net.cpp:100] Creating Layer L2_b6_cbr2_conv
I0817 16:07:12.674186 17621 net.cpp:434] L2_b6_cbr2_conv <- L2_b6_cbr1_bn_top
I0817 16:07:12.674195 17621 net.cpp:408] L2_b6_cbr2_conv -> L2_b6_cbr2_conv_top
I0817 16:07:12.674662 17621 net.cpp:150] Setting up L2_b6_cbr2_conv
I0817 16:07:12.674682 17621 net.cpp:157] Top shape: 125 32 16 16 (1024000)
I0817 16:07:12.674687 17621 net.cpp:165] Memory required for data: 1097217500
I0817 16:07:12.674696 17621 layer_factory.hpp:77] Creating layer L2_b6_cbr2_bn
I0817 16:07:12.674710 17621 net.cpp:100] Creating Layer L2_b6_cbr2_bn
I0817 16:07:12.674716 17621 net.cpp:434] L2_b6_cbr2_bn <- L2_b6_cbr2_conv_top
I0817 16:07:12.674724 17621 net.cpp:408] L2_b6_cbr2_bn -> L2_b6_cbr2_bn_top
I0817 16:07:12.674976 17621 net.cpp:150] Setting up L2_b6_cbr2_bn
I0817 16:07:12.674989 17621 net.cpp:157] Top shape: 125 32 16 16 (1024000)
I0817 16:07:12.674994 17621 net.cpp:165] Memory required for data: 1101313500
I0817 16:07:12.675005 17621 layer_factory.hpp:77] Creating layer L2_b6_cbr2_scale
I0817 16:07:12.675014 17621 net.cpp:100] Creating Layer L2_b6_cbr2_scale
I0817 16:07:12.675020 17621 net.cpp:434] L2_b6_cbr2_scale <- L2_b6_cbr2_bn_top
I0817 16:07:12.675029 17621 net.cpp:395] L2_b6_cbr2_scale -> L2_b6_cbr2_bn_top (in-place)
I0817 16:07:12.675086 17621 layer_factory.hpp:77] Creating layer L2_b6_cbr2_scale
I0817 16:07:12.675232 17621 net.cpp:150] Setting up L2_b6_cbr2_scale
I0817 16:07:12.675248 17621 net.cpp:157] Top shape: 125 32 16 16 (1024000)
I0817 16:07:12.675253 17621 net.cpp:165] Memory required for data: 1105409500
I0817 16:07:12.675263 17621 layer_factory.hpp:77] Creating layer L2_b6_sum_eltwise
I0817 16:07:12.675271 17621 net.cpp:100] Creating Layer L2_b6_sum_eltwise
I0817 16:07:12.675278 17621 net.cpp:434] L2_b6_sum_eltwise <- L2_b6_cbr2_bn_top
I0817 16:07:12.675285 17621 net.cpp:434] L2_b6_sum_eltwise <- L2_b5_sum_eltwise_top_L2_b5_relu_0_split_1
I0817 16:07:12.675292 17621 net.cpp:408] L2_b6_sum_eltwise -> L2_b6_sum_eltwise_top
I0817 16:07:12.675323 17621 net.cpp:150] Setting up L2_b6_sum_eltwise
I0817 16:07:12.675333 17621 net.cpp:157] Top shape: 125 32 16 16 (1024000)
I0817 16:07:12.675338 17621 net.cpp:165] Memory required for data: 1109505500
I0817 16:07:12.675343 17621 layer_factory.hpp:77] Creating layer L2_b6_relu
I0817 16:07:12.675350 17621 net.cpp:100] Creating Layer L2_b6_relu
I0817 16:07:12.675355 17621 net.cpp:434] L2_b6_relu <- L2_b6_sum_eltwise_top
I0817 16:07:12.675365 17621 net.cpp:395] L2_b6_relu -> L2_b6_sum_eltwise_top (in-place)
I0817 16:07:12.675375 17621 net.cpp:150] Setting up L2_b6_relu
I0817 16:07:12.675382 17621 net.cpp:157] Top shape: 125 32 16 16 (1024000)
I0817 16:07:12.675386 17621 net.cpp:165] Memory required for data: 1113601500
I0817 16:07:12.675391 17621 layer_factory.hpp:77] Creating layer L2_b6_sum_eltwise_top_L2_b6_relu_0_split
I0817 16:07:12.675398 17621 net.cpp:100] Creating Layer L2_b6_sum_eltwise_top_L2_b6_relu_0_split
I0817 16:07:12.675403 17621 net.cpp:434] L2_b6_sum_eltwise_top_L2_b6_relu_0_split <- L2_b6_sum_eltwise_top
I0817 16:07:12.675413 17621 net.cpp:408] L2_b6_sum_eltwise_top_L2_b6_relu_0_split -> L2_b6_sum_eltwise_top_L2_b6_relu_0_split_0
I0817 16:07:12.675423 17621 net.cpp:408] L2_b6_sum_eltwise_top_L2_b6_relu_0_split -> L2_b6_sum_eltwise_top_L2_b6_relu_0_split_1
I0817 16:07:12.675467 17621 net.cpp:150] Setting up L2_b6_sum_eltwise_top_L2_b6_relu_0_split
I0817 16:07:12.675478 17621 net.cpp:157] Top shape: 125 32 16 16 (1024000)
I0817 16:07:12.675484 17621 net.cpp:157] Top shape: 125 32 16 16 (1024000)
I0817 16:07:12.675489 17621 net.cpp:165] Memory required for data: 1121793500
I0817 16:07:12.675494 17621 layer_factory.hpp:77] Creating layer L2_b7_cbr1_conv
I0817 16:07:12.675508 17621 net.cpp:100] Creating Layer L2_b7_cbr1_conv
I0817 16:07:12.675515 17621 net.cpp:434] L2_b7_cbr1_conv <- L2_b6_sum_eltwise_top_L2_b6_relu_0_split_0
I0817 16:07:12.675524 17621 net.cpp:408] L2_b7_cbr1_conv -> L2_b7_cbr1_conv_top
I0817 16:07:12.676010 17621 net.cpp:150] Setting up L2_b7_cbr1_conv
I0817 16:07:12.676025 17621 net.cpp:157] Top shape: 125 32 16 16 (1024000)
I0817 16:07:12.676030 17621 net.cpp:165] Memory required for data: 1125889500
I0817 16:07:12.676039 17621 layer_factory.hpp:77] Creating layer L2_b7_cbr1_bn
I0817 16:07:12.676054 17621 net.cpp:100] Creating Layer L2_b7_cbr1_bn
I0817 16:07:12.676066 17621 net.cpp:434] L2_b7_cbr1_bn <- L2_b7_cbr1_conv_top
I0817 16:07:12.676074 17621 net.cpp:408] L2_b7_cbr1_bn -> L2_b7_cbr1_bn_top
I0817 16:07:12.676327 17621 net.cpp:150] Setting up L2_b7_cbr1_bn
I0817 16:07:12.676340 17621 net.cpp:157] Top shape: 125 32 16 16 (1024000)
I0817 16:07:12.676345 17621 net.cpp:165] Memory required for data: 1129985500
I0817 16:07:12.676357 17621 layer_factory.hpp:77] Creating layer L2_b7_cbr1_scale
I0817 16:07:12.676365 17621 net.cpp:100] Creating Layer L2_b7_cbr1_scale
I0817 16:07:12.676371 17621 net.cpp:434] L2_b7_cbr1_scale <- L2_b7_cbr1_bn_top
I0817 16:07:12.676381 17621 net.cpp:395] L2_b7_cbr1_scale -> L2_b7_cbr1_bn_top (in-place)
I0817 16:07:12.676439 17621 layer_factory.hpp:77] Creating layer L2_b7_cbr1_scale
I0817 16:07:12.676587 17621 net.cpp:150] Setting up L2_b7_cbr1_scale
I0817 16:07:12.676600 17621 net.cpp:157] Top shape: 125 32 16 16 (1024000)
I0817 16:07:12.676605 17621 net.cpp:165] Memory required for data: 1134081500
I0817 16:07:12.676614 17621 layer_factory.hpp:77] Creating layer L2_b7_cbr1_relu
I0817 16:07:12.676621 17621 net.cpp:100] Creating Layer L2_b7_cbr1_relu
I0817 16:07:12.676627 17621 net.cpp:434] L2_b7_cbr1_relu <- L2_b7_cbr1_bn_top
I0817 16:07:12.676635 17621 net.cpp:395] L2_b7_cbr1_relu -> L2_b7_cbr1_bn_top (in-place)
I0817 16:07:12.676645 17621 net.cpp:150] Setting up L2_b7_cbr1_relu
I0817 16:07:12.676651 17621 net.cpp:157] Top shape: 125 32 16 16 (1024000)
I0817 16:07:12.676656 17621 net.cpp:165] Memory required for data: 1138177500
I0817 16:07:12.676661 17621 layer_factory.hpp:77] Creating layer L2_b7_cbr2_conv
I0817 16:07:12.676676 17621 net.cpp:100] Creating Layer L2_b7_cbr2_conv
I0817 16:07:12.676682 17621 net.cpp:434] L2_b7_cbr2_conv <- L2_b7_cbr1_bn_top
I0817 16:07:12.676693 17621 net.cpp:408] L2_b7_cbr2_conv -> L2_b7_cbr2_conv_top
I0817 16:07:12.677165 17621 net.cpp:150] Setting up L2_b7_cbr2_conv
I0817 16:07:12.677178 17621 net.cpp:157] Top shape: 125 32 16 16 (1024000)
I0817 16:07:12.677183 17621 net.cpp:165] Memory required for data: 1142273500
I0817 16:07:12.677192 17621 layer_factory.hpp:77] Creating layer L2_b7_cbr2_bn
I0817 16:07:12.677204 17621 net.cpp:100] Creating Layer L2_b7_cbr2_bn
I0817 16:07:12.677211 17621 net.cpp:434] L2_b7_cbr2_bn <- L2_b7_cbr2_conv_top
I0817 16:07:12.677222 17621 net.cpp:408] L2_b7_cbr2_bn -> L2_b7_cbr2_bn_top
I0817 16:07:12.677472 17621 net.cpp:150] Setting up L2_b7_cbr2_bn
I0817 16:07:12.677485 17621 net.cpp:157] Top shape: 125 32 16 16 (1024000)
I0817 16:07:12.677490 17621 net.cpp:165] Memory required for data: 1146369500
I0817 16:07:12.677500 17621 layer_factory.hpp:77] Creating layer L2_b7_cbr2_scale
I0817 16:07:12.677510 17621 net.cpp:100] Creating Layer L2_b7_cbr2_scale
I0817 16:07:12.677516 17621 net.cpp:434] L2_b7_cbr2_scale <- L2_b7_cbr2_bn_top
I0817 16:07:12.677523 17621 net.cpp:395] L2_b7_cbr2_scale -> L2_b7_cbr2_bn_top (in-place)
I0817 16:07:12.677583 17621 layer_factory.hpp:77] Creating layer L2_b7_cbr2_scale
I0817 16:07:12.677733 17621 net.cpp:150] Setting up L2_b7_cbr2_scale
I0817 16:07:12.677749 17621 net.cpp:157] Top shape: 125 32 16 16 (1024000)
I0817 16:07:12.677760 17621 net.cpp:165] Memory required for data: 1150465500
I0817 16:07:12.677769 17621 layer_factory.hpp:77] Creating layer L2_b7_sum_eltwise
I0817 16:07:12.677779 17621 net.cpp:100] Creating Layer L2_b7_sum_eltwise
I0817 16:07:12.677786 17621 net.cpp:434] L2_b7_sum_eltwise <- L2_b7_cbr2_bn_top
I0817 16:07:12.677793 17621 net.cpp:434] L2_b7_sum_eltwise <- L2_b6_sum_eltwise_top_L2_b6_relu_0_split_1
I0817 16:07:12.677801 17621 net.cpp:408] L2_b7_sum_eltwise -> L2_b7_sum_eltwise_top
I0817 16:07:12.677832 17621 net.cpp:150] Setting up L2_b7_sum_eltwise
I0817 16:07:12.677842 17621 net.cpp:157] Top shape: 125 32 16 16 (1024000)
I0817 16:07:12.677846 17621 net.cpp:165] Memory required for data: 1154561500
I0817 16:07:12.677852 17621 layer_factory.hpp:77] Creating layer L2_b7_relu
I0817 16:07:12.677860 17621 net.cpp:100] Creating Layer L2_b7_relu
I0817 16:07:12.677866 17621 net.cpp:434] L2_b7_relu <- L2_b7_sum_eltwise_top
I0817 16:07:12.677882 17621 net.cpp:395] L2_b7_relu -> L2_b7_sum_eltwise_top (in-place)
I0817 16:07:12.677893 17621 net.cpp:150] Setting up L2_b7_relu
I0817 16:07:12.677901 17621 net.cpp:157] Top shape: 125 32 16 16 (1024000)
I0817 16:07:12.677906 17621 net.cpp:165] Memory required for data: 1158657500
I0817 16:07:12.677911 17621 layer_factory.hpp:77] Creating layer L2_b7_sum_eltwise_top_L2_b7_relu_0_split
I0817 16:07:12.677917 17621 net.cpp:100] Creating Layer L2_b7_sum_eltwise_top_L2_b7_relu_0_split
I0817 16:07:12.677923 17621 net.cpp:434] L2_b7_sum_eltwise_top_L2_b7_relu_0_split <- L2_b7_sum_eltwise_top
I0817 16:07:12.677933 17621 net.cpp:408] L2_b7_sum_eltwise_top_L2_b7_relu_0_split -> L2_b7_sum_eltwise_top_L2_b7_relu_0_split_0
I0817 16:07:12.677943 17621 net.cpp:408] L2_b7_sum_eltwise_top_L2_b7_relu_0_split -> L2_b7_sum_eltwise_top_L2_b7_relu_0_split_1
I0817 16:07:12.677989 17621 net.cpp:150] Setting up L2_b7_sum_eltwise_top_L2_b7_relu_0_split
I0817 16:07:12.677999 17621 net.cpp:157] Top shape: 125 32 16 16 (1024000)
I0817 16:07:12.678006 17621 net.cpp:157] Top shape: 125 32 16 16 (1024000)
I0817 16:07:12.678010 17621 net.cpp:165] Memory required for data: 1166849500
I0817 16:07:12.678016 17621 layer_factory.hpp:77] Creating layer L2_b8_cbr1_conv
I0817 16:07:12.678030 17621 net.cpp:100] Creating Layer L2_b8_cbr1_conv
I0817 16:07:12.678037 17621 net.cpp:434] L2_b8_cbr1_conv <- L2_b7_sum_eltwise_top_L2_b7_relu_0_split_0
I0817 16:07:12.678046 17621 net.cpp:408] L2_b8_cbr1_conv -> L2_b8_cbr1_conv_top
I0817 16:07:12.678520 17621 net.cpp:150] Setting up L2_b8_cbr1_conv
I0817 16:07:12.678534 17621 net.cpp:157] Top shape: 125 32 16 16 (1024000)
I0817 16:07:12.678539 17621 net.cpp:165] Memory required for data: 1170945500
I0817 16:07:12.678548 17621 layer_factory.hpp:77] Creating layer L2_b8_cbr1_bn
I0817 16:07:12.678560 17621 net.cpp:100] Creating Layer L2_b8_cbr1_bn
I0817 16:07:12.678567 17621 net.cpp:434] L2_b8_cbr1_bn <- L2_b8_cbr1_conv_top
I0817 16:07:12.678575 17621 net.cpp:408] L2_b8_cbr1_bn -> L2_b8_cbr1_bn_top
I0817 16:07:12.678833 17621 net.cpp:150] Setting up L2_b8_cbr1_bn
I0817 16:07:12.678845 17621 net.cpp:157] Top shape: 125 32 16 16 (1024000)
I0817 16:07:12.678850 17621 net.cpp:165] Memory required for data: 1175041500
I0817 16:07:12.678861 17621 layer_factory.hpp:77] Creating layer L2_b8_cbr1_scale
I0817 16:07:12.678870 17621 net.cpp:100] Creating Layer L2_b8_cbr1_scale
I0817 16:07:12.678876 17621 net.cpp:434] L2_b8_cbr1_scale <- L2_b8_cbr1_bn_top
I0817 16:07:12.678884 17621 net.cpp:395] L2_b8_cbr1_scale -> L2_b8_cbr1_bn_top (in-place)
I0817 16:07:12.678942 17621 layer_factory.hpp:77] Creating layer L2_b8_cbr1_scale
I0817 16:07:12.679096 17621 net.cpp:150] Setting up L2_b8_cbr1_scale
I0817 16:07:12.679112 17621 net.cpp:157] Top shape: 125 32 16 16 (1024000)
I0817 16:07:12.679117 17621 net.cpp:165] Memory required for data: 1179137500
I0817 16:07:12.679127 17621 layer_factory.hpp:77] Creating layer L2_b8_cbr1_relu
I0817 16:07:12.679134 17621 net.cpp:100] Creating Layer L2_b8_cbr1_relu
I0817 16:07:12.679141 17621 net.cpp:434] L2_b8_cbr1_relu <- L2_b8_cbr1_bn_top
I0817 16:07:12.679148 17621 net.cpp:395] L2_b8_cbr1_relu -> L2_b8_cbr1_bn_top (in-place)
I0817 16:07:12.679158 17621 net.cpp:150] Setting up L2_b8_cbr1_relu
I0817 16:07:12.679164 17621 net.cpp:157] Top shape: 125 32 16 16 (1024000)
I0817 16:07:12.679169 17621 net.cpp:165] Memory required for data: 1183233500
I0817 16:07:12.679173 17621 layer_factory.hpp:77] Creating layer L2_b8_cbr2_conv
I0817 16:07:12.679188 17621 net.cpp:100] Creating Layer L2_b8_cbr2_conv
I0817 16:07:12.679194 17621 net.cpp:434] L2_b8_cbr2_conv <- L2_b8_cbr1_bn_top
I0817 16:07:12.679205 17621 net.cpp:408] L2_b8_cbr2_conv -> L2_b8_cbr2_conv_top
I0817 16:07:12.679672 17621 net.cpp:150] Setting up L2_b8_cbr2_conv
I0817 16:07:12.679687 17621 net.cpp:157] Top shape: 125 32 16 16 (1024000)
I0817 16:07:12.679692 17621 net.cpp:165] Memory required for data: 1187329500
I0817 16:07:12.679699 17621 layer_factory.hpp:77] Creating layer L2_b8_cbr2_bn
I0817 16:07:12.679711 17621 net.cpp:100] Creating Layer L2_b8_cbr2_bn
I0817 16:07:12.679726 17621 net.cpp:434] L2_b8_cbr2_bn <- L2_b8_cbr2_conv_top
I0817 16:07:12.679738 17621 net.cpp:408] L2_b8_cbr2_bn -> L2_b8_cbr2_bn_top
I0817 16:07:12.680001 17621 net.cpp:150] Setting up L2_b8_cbr2_bn
I0817 16:07:12.680014 17621 net.cpp:157] Top shape: 125 32 16 16 (1024000)
I0817 16:07:12.680019 17621 net.cpp:165] Memory required for data: 1191425500
I0817 16:07:12.680029 17621 layer_factory.hpp:77] Creating layer L2_b8_cbr2_scale
I0817 16:07:12.680038 17621 net.cpp:100] Creating Layer L2_b8_cbr2_scale
I0817 16:07:12.680045 17621 net.cpp:434] L2_b8_cbr2_scale <- L2_b8_cbr2_bn_top
I0817 16:07:12.680052 17621 net.cpp:395] L2_b8_cbr2_scale -> L2_b8_cbr2_bn_top (in-place)
I0817 16:07:12.680111 17621 layer_factory.hpp:77] Creating layer L2_b8_cbr2_scale
I0817 16:07:12.680258 17621 net.cpp:150] Setting up L2_b8_cbr2_scale
I0817 16:07:12.680271 17621 net.cpp:157] Top shape: 125 32 16 16 (1024000)
I0817 16:07:12.680276 17621 net.cpp:165] Memory required for data: 1195521500
I0817 16:07:12.680285 17621 layer_factory.hpp:77] Creating layer L2_b8_sum_eltwise
I0817 16:07:12.680297 17621 net.cpp:100] Creating Layer L2_b8_sum_eltwise
I0817 16:07:12.680304 17621 net.cpp:434] L2_b8_sum_eltwise <- L2_b8_cbr2_bn_top
I0817 16:07:12.680310 17621 net.cpp:434] L2_b8_sum_eltwise <- L2_b7_sum_eltwise_top_L2_b7_relu_0_split_1
I0817 16:07:12.680318 17621 net.cpp:408] L2_b8_sum_eltwise -> L2_b8_sum_eltwise_top
I0817 16:07:12.680346 17621 net.cpp:150] Setting up L2_b8_sum_eltwise
I0817 16:07:12.680354 17621 net.cpp:157] Top shape: 125 32 16 16 (1024000)
I0817 16:07:12.680358 17621 net.cpp:165] Memory required for data: 1199617500
I0817 16:07:12.680363 17621 layer_factory.hpp:77] Creating layer L2_b8_relu
I0817 16:07:12.680374 17621 net.cpp:100] Creating Layer L2_b8_relu
I0817 16:07:12.680380 17621 net.cpp:434] L2_b8_relu <- L2_b8_sum_eltwise_top
I0817 16:07:12.680388 17621 net.cpp:395] L2_b8_relu -> L2_b8_sum_eltwise_top (in-place)
I0817 16:07:12.680397 17621 net.cpp:150] Setting up L2_b8_relu
I0817 16:07:12.680404 17621 net.cpp:157] Top shape: 125 32 16 16 (1024000)
I0817 16:07:12.680409 17621 net.cpp:165] Memory required for data: 1203713500
I0817 16:07:12.680413 17621 layer_factory.hpp:77] Creating layer L2_b8_sum_eltwise_top_L2_b8_relu_0_split
I0817 16:07:12.680421 17621 net.cpp:100] Creating Layer L2_b8_sum_eltwise_top_L2_b8_relu_0_split
I0817 16:07:12.680426 17621 net.cpp:434] L2_b8_sum_eltwise_top_L2_b8_relu_0_split <- L2_b8_sum_eltwise_top
I0817 16:07:12.680433 17621 net.cpp:408] L2_b8_sum_eltwise_top_L2_b8_relu_0_split -> L2_b8_sum_eltwise_top_L2_b8_relu_0_split_0
I0817 16:07:12.680456 17621 net.cpp:408] L2_b8_sum_eltwise_top_L2_b8_relu_0_split -> L2_b8_sum_eltwise_top_L2_b8_relu_0_split_1
I0817 16:07:12.680506 17621 net.cpp:150] Setting up L2_b8_sum_eltwise_top_L2_b8_relu_0_split
I0817 16:07:12.680518 17621 net.cpp:157] Top shape: 125 32 16 16 (1024000)
I0817 16:07:12.680526 17621 net.cpp:157] Top shape: 125 32 16 16 (1024000)
I0817 16:07:12.680531 17621 net.cpp:165] Memory required for data: 1211905500
I0817 16:07:12.680536 17621 layer_factory.hpp:77] Creating layer L2_b9_cbr1_conv
I0817 16:07:12.680549 17621 net.cpp:100] Creating Layer L2_b9_cbr1_conv
I0817 16:07:12.680557 17621 net.cpp:434] L2_b9_cbr1_conv <- L2_b8_sum_eltwise_top_L2_b8_relu_0_split_0
I0817 16:07:12.680569 17621 net.cpp:408] L2_b9_cbr1_conv -> L2_b9_cbr1_conv_top
I0817 16:07:12.681051 17621 net.cpp:150] Setting up L2_b9_cbr1_conv
I0817 16:07:12.681066 17621 net.cpp:157] Top shape: 125 32 16 16 (1024000)
I0817 16:07:12.681071 17621 net.cpp:165] Memory required for data: 1216001500
I0817 16:07:12.681080 17621 layer_factory.hpp:77] Creating layer L2_b9_cbr1_bn
I0817 16:07:12.681092 17621 net.cpp:100] Creating Layer L2_b9_cbr1_bn
I0817 16:07:12.681099 17621 net.cpp:434] L2_b9_cbr1_bn <- L2_b9_cbr1_conv_top
I0817 16:07:12.681110 17621 net.cpp:408] L2_b9_cbr1_bn -> L2_b9_cbr1_bn_top
I0817 16:07:12.681357 17621 net.cpp:150] Setting up L2_b9_cbr1_bn
I0817 16:07:12.681370 17621 net.cpp:157] Top shape: 125 32 16 16 (1024000)
I0817 16:07:12.681375 17621 net.cpp:165] Memory required for data: 1220097500
I0817 16:07:12.681392 17621 layer_factory.hpp:77] Creating layer L2_b9_cbr1_scale
I0817 16:07:12.681402 17621 net.cpp:100] Creating Layer L2_b9_cbr1_scale
I0817 16:07:12.681408 17621 net.cpp:434] L2_b9_cbr1_scale <- L2_b9_cbr1_bn_top
I0817 16:07:12.681416 17621 net.cpp:395] L2_b9_cbr1_scale -> L2_b9_cbr1_bn_top (in-place)
I0817 16:07:12.681476 17621 layer_factory.hpp:77] Creating layer L2_b9_cbr1_scale
I0817 16:07:12.681624 17621 net.cpp:150] Setting up L2_b9_cbr1_scale
I0817 16:07:12.681638 17621 net.cpp:157] Top shape: 125 32 16 16 (1024000)
I0817 16:07:12.681643 17621 net.cpp:165] Memory required for data: 1224193500
I0817 16:07:12.681651 17621 layer_factory.hpp:77] Creating layer L2_b9_cbr1_relu
I0817 16:07:12.681661 17621 net.cpp:100] Creating Layer L2_b9_cbr1_relu
I0817 16:07:12.681668 17621 net.cpp:434] L2_b9_cbr1_relu <- L2_b9_cbr1_bn_top
I0817 16:07:12.681675 17621 net.cpp:395] L2_b9_cbr1_relu -> L2_b9_cbr1_bn_top (in-place)
I0817 16:07:12.681685 17621 net.cpp:150] Setting up L2_b9_cbr1_relu
I0817 16:07:12.681692 17621 net.cpp:157] Top shape: 125 32 16 16 (1024000)
I0817 16:07:12.681696 17621 net.cpp:165] Memory required for data: 1228289500
I0817 16:07:12.681701 17621 layer_factory.hpp:77] Creating layer L2_b9_cbr2_conv
I0817 16:07:12.681715 17621 net.cpp:100] Creating Layer L2_b9_cbr2_conv
I0817 16:07:12.681721 17621 net.cpp:434] L2_b9_cbr2_conv <- L2_b9_cbr1_bn_top
I0817 16:07:12.681730 17621 net.cpp:408] L2_b9_cbr2_conv -> L2_b9_cbr2_conv_top
I0817 16:07:12.682204 17621 net.cpp:150] Setting up L2_b9_cbr2_conv
I0817 16:07:12.682217 17621 net.cpp:157] Top shape: 125 32 16 16 (1024000)
I0817 16:07:12.682222 17621 net.cpp:165] Memory required for data: 1232385500
I0817 16:07:12.682231 17621 layer_factory.hpp:77] Creating layer L2_b9_cbr2_bn
I0817 16:07:12.682245 17621 net.cpp:100] Creating Layer L2_b9_cbr2_bn
I0817 16:07:12.682251 17621 net.cpp:434] L2_b9_cbr2_bn <- L2_b9_cbr2_conv_top
I0817 16:07:12.682260 17621 net.cpp:408] L2_b9_cbr2_bn -> L2_b9_cbr2_bn_top
I0817 16:07:12.682514 17621 net.cpp:150] Setting up L2_b9_cbr2_bn
I0817 16:07:12.682530 17621 net.cpp:157] Top shape: 125 32 16 16 (1024000)
I0817 16:07:12.682536 17621 net.cpp:165] Memory required for data: 1236481500
I0817 16:07:12.682577 17621 layer_factory.hpp:77] Creating layer L2_b9_cbr2_scale
I0817 16:07:12.682592 17621 net.cpp:100] Creating Layer L2_b9_cbr2_scale
I0817 16:07:12.682600 17621 net.cpp:434] L2_b9_cbr2_scale <- L2_b9_cbr2_bn_top
I0817 16:07:12.682607 17621 net.cpp:395] L2_b9_cbr2_scale -> L2_b9_cbr2_bn_top (in-place)
I0817 16:07:12.682663 17621 layer_factory.hpp:77] Creating layer L2_b9_cbr2_scale
I0817 16:07:12.682817 17621 net.cpp:150] Setting up L2_b9_cbr2_scale
I0817 16:07:12.682832 17621 net.cpp:157] Top shape: 125 32 16 16 (1024000)
I0817 16:07:12.682837 17621 net.cpp:165] Memory required for data: 1240577500
I0817 16:07:12.682845 17621 layer_factory.hpp:77] Creating layer L2_b9_sum_eltwise
I0817 16:07:12.682854 17621 net.cpp:100] Creating Layer L2_b9_sum_eltwise
I0817 16:07:12.682862 17621 net.cpp:434] L2_b9_sum_eltwise <- L2_b9_cbr2_bn_top
I0817 16:07:12.682868 17621 net.cpp:434] L2_b9_sum_eltwise <- L2_b8_sum_eltwise_top_L2_b8_relu_0_split_1
I0817 16:07:12.682880 17621 net.cpp:408] L2_b9_sum_eltwise -> L2_b9_sum_eltwise_top
I0817 16:07:12.682909 17621 net.cpp:150] Setting up L2_b9_sum_eltwise
I0817 16:07:12.682919 17621 net.cpp:157] Top shape: 125 32 16 16 (1024000)
I0817 16:07:12.682924 17621 net.cpp:165] Memory required for data: 1244673500
I0817 16:07:12.682929 17621 layer_factory.hpp:77] Creating layer L2_b9_relu
I0817 16:07:12.682940 17621 net.cpp:100] Creating Layer L2_b9_relu
I0817 16:07:12.682945 17621 net.cpp:434] L2_b9_relu <- L2_b9_sum_eltwise_top
I0817 16:07:12.682952 17621 net.cpp:395] L2_b9_relu -> L2_b9_sum_eltwise_top (in-place)
I0817 16:07:12.682961 17621 net.cpp:150] Setting up L2_b9_relu
I0817 16:07:12.682970 17621 net.cpp:157] Top shape: 125 32 16 16 (1024000)
I0817 16:07:12.682973 17621 net.cpp:165] Memory required for data: 1248769500
I0817 16:07:12.682978 17621 layer_factory.hpp:77] Creating layer L2_b9_sum_eltwise_top_L2_b9_relu_0_split
I0817 16:07:12.682996 17621 net.cpp:100] Creating Layer L2_b9_sum_eltwise_top_L2_b9_relu_0_split
I0817 16:07:12.683001 17621 net.cpp:434] L2_b9_sum_eltwise_top_L2_b9_relu_0_split <- L2_b9_sum_eltwise_top
I0817 16:07:12.683009 17621 net.cpp:408] L2_b9_sum_eltwise_top_L2_b9_relu_0_split -> L2_b9_sum_eltwise_top_L2_b9_relu_0_split_0
I0817 16:07:12.683019 17621 net.cpp:408] L2_b9_sum_eltwise_top_L2_b9_relu_0_split -> L2_b9_sum_eltwise_top_L2_b9_relu_0_split_1
I0817 16:07:12.683090 17621 net.cpp:150] Setting up L2_b9_sum_eltwise_top_L2_b9_relu_0_split
I0817 16:07:12.683115 17621 net.cpp:157] Top shape: 125 32 16 16 (1024000)
I0817 16:07:12.683122 17621 net.cpp:157] Top shape: 125 32 16 16 (1024000)
I0817 16:07:12.683126 17621 net.cpp:165] Memory required for data: 1256961500
I0817 16:07:12.683131 17621 layer_factory.hpp:77] Creating layer L3_b1_cbr1_conv
I0817 16:07:12.683143 17621 net.cpp:100] Creating Layer L3_b1_cbr1_conv
I0817 16:07:12.683151 17621 net.cpp:434] L3_b1_cbr1_conv <- L2_b9_sum_eltwise_top_L2_b9_relu_0_split_0
I0817 16:07:12.683159 17621 net.cpp:408] L3_b1_cbr1_conv -> L3_b1_cbr1_conv_top
I0817 16:07:12.683634 17621 net.cpp:150] Setting up L3_b1_cbr1_conv
I0817 16:07:12.683648 17621 net.cpp:157] Top shape: 125 32 8 8 (256000)
I0817 16:07:12.683653 17621 net.cpp:165] Memory required for data: 1257985500
I0817 16:07:12.683661 17621 layer_factory.hpp:77] Creating layer L3_b1_cbr1_bn
I0817 16:07:12.683675 17621 net.cpp:100] Creating Layer L3_b1_cbr1_bn
I0817 16:07:12.683681 17621 net.cpp:434] L3_b1_cbr1_bn <- L3_b1_cbr1_conv_top
I0817 16:07:12.683689 17621 net.cpp:408] L3_b1_cbr1_bn -> L3_b1_cbr1_bn_top
I0817 16:07:12.683961 17621 net.cpp:150] Setting up L3_b1_cbr1_bn
I0817 16:07:12.683975 17621 net.cpp:157] Top shape: 125 32 8 8 (256000)
I0817 16:07:12.683980 17621 net.cpp:165] Memory required for data: 1259009500
I0817 16:07:12.683991 17621 layer_factory.hpp:77] Creating layer L3_b1_cbr1_scale
I0817 16:07:12.684003 17621 net.cpp:100] Creating Layer L3_b1_cbr1_scale
I0817 16:07:12.684010 17621 net.cpp:434] L3_b1_cbr1_scale <- L3_b1_cbr1_bn_top
I0817 16:07:12.684020 17621 net.cpp:395] L3_b1_cbr1_scale -> L3_b1_cbr1_bn_top (in-place)
I0817 16:07:12.684075 17621 layer_factory.hpp:77] Creating layer L3_b1_cbr1_scale
I0817 16:07:12.684236 17621 net.cpp:150] Setting up L3_b1_cbr1_scale
I0817 16:07:12.684248 17621 net.cpp:157] Top shape: 125 32 8 8 (256000)
I0817 16:07:12.684253 17621 net.cpp:165] Memory required for data: 1260033500
I0817 16:07:12.684262 17621 layer_factory.hpp:77] Creating layer L3_b1_cbr1_relu
I0817 16:07:12.684270 17621 net.cpp:100] Creating Layer L3_b1_cbr1_relu
I0817 16:07:12.684276 17621 net.cpp:434] L3_b1_cbr1_relu <- L3_b1_cbr1_bn_top
I0817 16:07:12.684288 17621 net.cpp:395] L3_b1_cbr1_relu -> L3_b1_cbr1_bn_top (in-place)
I0817 16:07:12.684296 17621 net.cpp:150] Setting up L3_b1_cbr1_relu
I0817 16:07:12.684304 17621 net.cpp:157] Top shape: 125 32 8 8 (256000)
I0817 16:07:12.684309 17621 net.cpp:165] Memory required for data: 1261057500
I0817 16:07:12.684314 17621 layer_factory.hpp:77] Creating layer L3_b1_cbr2_conv
I0817 16:07:12.684327 17621 net.cpp:100] Creating Layer L3_b1_cbr2_conv
I0817 16:07:12.684334 17621 net.cpp:434] L3_b1_cbr2_conv <- L3_b1_cbr1_bn_top
I0817 16:07:12.684342 17621 net.cpp:408] L3_b1_cbr2_conv -> L3_b1_cbr2_conv_top
I0817 16:07:12.684845 17621 net.cpp:150] Setting up L3_b1_cbr2_conv
I0817 16:07:12.684860 17621 net.cpp:157] Top shape: 125 32 8 8 (256000)
I0817 16:07:12.684865 17621 net.cpp:165] Memory required for data: 1262081500
I0817 16:07:12.684875 17621 layer_factory.hpp:77] Creating layer L3_b1_cbr2_bn
I0817 16:07:12.684886 17621 net.cpp:100] Creating Layer L3_b1_cbr2_bn
I0817 16:07:12.684893 17621 net.cpp:434] L3_b1_cbr2_bn <- L3_b1_cbr2_conv_top
I0817 16:07:12.684902 17621 net.cpp:408] L3_b1_cbr2_bn -> L3_b1_cbr2_bn_top
I0817 16:07:12.685159 17621 net.cpp:150] Setting up L3_b1_cbr2_bn
I0817 16:07:12.685173 17621 net.cpp:157] Top shape: 125 32 8 8 (256000)
I0817 16:07:12.685178 17621 net.cpp:165] Memory required for data: 1263105500
I0817 16:07:12.685195 17621 layer_factory.hpp:77] Creating layer L3_b1_cbr2_scale
I0817 16:07:12.685205 17621 net.cpp:100] Creating Layer L3_b1_cbr2_scale
I0817 16:07:12.685211 17621 net.cpp:434] L3_b1_cbr2_scale <- L3_b1_cbr2_bn_top
I0817 16:07:12.685219 17621 net.cpp:395] L3_b1_cbr2_scale -> L3_b1_cbr2_bn_top (in-place)
I0817 16:07:12.685277 17621 layer_factory.hpp:77] Creating layer L3_b1_cbr2_scale
I0817 16:07:12.685433 17621 net.cpp:150] Setting up L3_b1_cbr2_scale
I0817 16:07:12.685446 17621 net.cpp:157] Top shape: 125 32 8 8 (256000)
I0817 16:07:12.685451 17621 net.cpp:165] Memory required for data: 1264129500
I0817 16:07:12.685461 17621 layer_factory.hpp:77] Creating layer L3_b1_pool
I0817 16:07:12.685470 17621 net.cpp:100] Creating Layer L3_b1_pool
I0817 16:07:12.685477 17621 net.cpp:434] L3_b1_pool <- L2_b9_sum_eltwise_top_L2_b9_relu_0_split_1
I0817 16:07:12.685488 17621 net.cpp:408] L3_b1_pool -> L3_b1_pool
I0817 16:07:12.685523 17621 net.cpp:150] Setting up L3_b1_pool
I0817 16:07:12.685535 17621 net.cpp:157] Top shape: 125 32 8 8 (256000)
I0817 16:07:12.685540 17621 net.cpp:165] Memory required for data: 1265153500
I0817 16:07:12.685545 17621 layer_factory.hpp:77] Creating layer L3_b1_sum_eltwise
I0817 16:07:12.685554 17621 net.cpp:100] Creating Layer L3_b1_sum_eltwise
I0817 16:07:12.685560 17621 net.cpp:434] L3_b1_sum_eltwise <- L3_b1_cbr2_bn_top
I0817 16:07:12.685566 17621 net.cpp:434] L3_b1_sum_eltwise <- L3_b1_pool
I0817 16:07:12.685575 17621 net.cpp:408] L3_b1_sum_eltwise -> L3_b1_sum_eltwise_top
I0817 16:07:12.685608 17621 net.cpp:150] Setting up L3_b1_sum_eltwise
I0817 16:07:12.685618 17621 net.cpp:157] Top shape: 125 32 8 8 (256000)
I0817 16:07:12.685623 17621 net.cpp:165] Memory required for data: 1266177500
I0817 16:07:12.685628 17621 layer_factory.hpp:77] Creating layer L3_b1_relu
I0817 16:07:12.685636 17621 net.cpp:100] Creating Layer L3_b1_relu
I0817 16:07:12.685642 17621 net.cpp:434] L3_b1_relu <- L3_b1_sum_eltwise_top
I0817 16:07:12.685648 17621 net.cpp:395] L3_b1_relu -> L3_b1_sum_eltwise_top (in-place)
I0817 16:07:12.685657 17621 net.cpp:150] Setting up L3_b1_relu
I0817 16:07:12.685664 17621 net.cpp:157] Top shape: 125 32 8 8 (256000)
I0817 16:07:12.685669 17621 net.cpp:165] Memory required for data: 1267201500
I0817 16:07:12.685673 17621 layer_factory.hpp:77] Creating layer L3_b1_zeros
I0817 16:07:12.685685 17621 net.cpp:100] Creating Layer L3_b1_zeros
I0817 16:07:12.685693 17621 net.cpp:408] L3_b1_zeros -> L3_b1_zeros
I0817 16:07:12.686935 17621 net.cpp:150] Setting up L3_b1_zeros
I0817 16:07:12.686956 17621 net.cpp:157] Top shape: 125 32 8 8 (256000)
I0817 16:07:12.686962 17621 net.cpp:165] Memory required for data: 1268225500
I0817 16:07:12.686969 17621 layer_factory.hpp:77] Creating layer L3_b1_concat0
I0817 16:07:12.686977 17621 net.cpp:100] Creating Layer L3_b1_concat0
I0817 16:07:12.686985 17621 net.cpp:434] L3_b1_concat0 <- L3_b1_sum_eltwise_top
I0817 16:07:12.686991 17621 net.cpp:434] L3_b1_concat0 <- L3_b1_zeros
I0817 16:07:12.687000 17621 net.cpp:408] L3_b1_concat0 -> L3_b1_concat0
I0817 16:07:12.687041 17621 net.cpp:150] Setting up L3_b1_concat0
I0817 16:07:12.687054 17621 net.cpp:157] Top shape: 125 64 8 8 (512000)
I0817 16:07:12.687059 17621 net.cpp:165] Memory required for data: 1270273500
I0817 16:07:12.687064 17621 layer_factory.hpp:77] Creating layer L3_b1_concat0_L3_b1_concat0_0_split
I0817 16:07:12.687074 17621 net.cpp:100] Creating Layer L3_b1_concat0_L3_b1_concat0_0_split
I0817 16:07:12.687081 17621 net.cpp:434] L3_b1_concat0_L3_b1_concat0_0_split <- L3_b1_concat0
I0817 16:07:12.687088 17621 net.cpp:408] L3_b1_concat0_L3_b1_concat0_0_split -> L3_b1_concat0_L3_b1_concat0_0_split_0
I0817 16:07:12.687098 17621 net.cpp:408] L3_b1_concat0_L3_b1_concat0_0_split -> L3_b1_concat0_L3_b1_concat0_0_split_1
I0817 16:07:12.687150 17621 net.cpp:150] Setting up L3_b1_concat0_L3_b1_concat0_0_split
I0817 16:07:12.687162 17621 net.cpp:157] Top shape: 125 64 8 8 (512000)
I0817 16:07:12.687170 17621 net.cpp:157] Top shape: 125 64 8 8 (512000)
I0817 16:07:12.687181 17621 net.cpp:165] Memory required for data: 1274369500
I0817 16:07:12.687187 17621 layer_factory.hpp:77] Creating layer L3_b2_cbr1_conv
I0817 16:07:12.687202 17621 net.cpp:100] Creating Layer L3_b2_cbr1_conv
I0817 16:07:12.687208 17621 net.cpp:434] L3_b2_cbr1_conv <- L3_b1_concat0_L3_b1_concat0_0_split_0
I0817 16:07:12.687218 17621 net.cpp:408] L3_b2_cbr1_conv -> L3_b2_cbr1_conv_top
I0817 16:07:12.689204 17621 net.cpp:150] Setting up L3_b2_cbr1_conv
I0817 16:07:12.689224 17621 net.cpp:157] Top shape: 125 64 8 8 (512000)
I0817 16:07:12.689230 17621 net.cpp:165] Memory required for data: 1276417500
I0817 16:07:12.689240 17621 layer_factory.hpp:77] Creating layer L3_b2_cbr1_bn
I0817 16:07:12.689250 17621 net.cpp:100] Creating Layer L3_b2_cbr1_bn
I0817 16:07:12.689256 17621 net.cpp:434] L3_b2_cbr1_bn <- L3_b2_cbr1_conv_top
I0817 16:07:12.689268 17621 net.cpp:408] L3_b2_cbr1_bn -> L3_b2_cbr1_bn_top
I0817 16:07:12.689534 17621 net.cpp:150] Setting up L3_b2_cbr1_bn
I0817 16:07:12.689550 17621 net.cpp:157] Top shape: 125 64 8 8 (512000)
I0817 16:07:12.689555 17621 net.cpp:165] Memory required for data: 1278465500
I0817 16:07:12.689566 17621 layer_factory.hpp:77] Creating layer L3_b2_cbr1_scale
I0817 16:07:12.689576 17621 net.cpp:100] Creating Layer L3_b2_cbr1_scale
I0817 16:07:12.689582 17621 net.cpp:434] L3_b2_cbr1_scale <- L3_b2_cbr1_bn_top
I0817 16:07:12.689590 17621 net.cpp:395] L3_b2_cbr1_scale -> L3_b2_cbr1_bn_top (in-place)
I0817 16:07:12.689648 17621 layer_factory.hpp:77] Creating layer L3_b2_cbr1_scale
I0817 16:07:12.689812 17621 net.cpp:150] Setting up L3_b2_cbr1_scale
I0817 16:07:12.689826 17621 net.cpp:157] Top shape: 125 64 8 8 (512000)
I0817 16:07:12.689831 17621 net.cpp:165] Memory required for data: 1280513500
I0817 16:07:12.689841 17621 layer_factory.hpp:77] Creating layer L3_b2_cbr1_relu
I0817 16:07:12.689852 17621 net.cpp:100] Creating Layer L3_b2_cbr1_relu
I0817 16:07:12.689859 17621 net.cpp:434] L3_b2_cbr1_relu <- L3_b2_cbr1_bn_top
I0817 16:07:12.689867 17621 net.cpp:395] L3_b2_cbr1_relu -> L3_b2_cbr1_bn_top (in-place)
I0817 16:07:12.689877 17621 net.cpp:150] Setting up L3_b2_cbr1_relu
I0817 16:07:12.689884 17621 net.cpp:157] Top shape: 125 64 8 8 (512000)
I0817 16:07:12.689888 17621 net.cpp:165] Memory required for data: 1282561500
I0817 16:07:12.689893 17621 layer_factory.hpp:77] Creating layer L3_b2_cbr2_conv
I0817 16:07:12.689908 17621 net.cpp:100] Creating Layer L3_b2_cbr2_conv
I0817 16:07:12.689914 17621 net.cpp:434] L3_b2_cbr2_conv <- L3_b2_cbr1_bn_top
I0817 16:07:12.689924 17621 net.cpp:408] L3_b2_cbr2_conv -> L3_b2_cbr2_conv_top
I0817 16:07:12.690945 17621 net.cpp:150] Setting up L3_b2_cbr2_conv
I0817 16:07:12.690960 17621 net.cpp:157] Top shape: 125 64 8 8 (512000)
I0817 16:07:12.690965 17621 net.cpp:165] Memory required for data: 1284609500
I0817 16:07:12.690975 17621 layer_factory.hpp:77] Creating layer L3_b2_cbr2_bn
I0817 16:07:12.690987 17621 net.cpp:100] Creating Layer L3_b2_cbr2_bn
I0817 16:07:12.690995 17621 net.cpp:434] L3_b2_cbr2_bn <- L3_b2_cbr2_conv_top
I0817 16:07:12.691006 17621 net.cpp:408] L3_b2_cbr2_bn -> L3_b2_cbr2_bn_top
I0817 16:07:12.691272 17621 net.cpp:150] Setting up L3_b2_cbr2_bn
I0817 16:07:12.691285 17621 net.cpp:157] Top shape: 125 64 8 8 (512000)
I0817 16:07:12.691290 17621 net.cpp:165] Memory required for data: 1286657500
I0817 16:07:12.691300 17621 layer_factory.hpp:77] Creating layer L3_b2_cbr2_scale
I0817 16:07:12.691309 17621 net.cpp:100] Creating Layer L3_b2_cbr2_scale
I0817 16:07:12.691316 17621 net.cpp:434] L3_b2_cbr2_scale <- L3_b2_cbr2_bn_top
I0817 16:07:12.691326 17621 net.cpp:395] L3_b2_cbr2_scale -> L3_b2_cbr2_bn_top (in-place)
I0817 16:07:12.691385 17621 layer_factory.hpp:77] Creating layer L3_b2_cbr2_scale
I0817 16:07:12.691542 17621 net.cpp:150] Setting up L3_b2_cbr2_scale
I0817 16:07:12.691555 17621 net.cpp:157] Top shape: 125 64 8 8 (512000)
I0817 16:07:12.691560 17621 net.cpp:165] Memory required for data: 1288705500
I0817 16:07:12.691570 17621 layer_factory.hpp:77] Creating layer L3_b2_sum_eltwise
I0817 16:07:12.691578 17621 net.cpp:100] Creating Layer L3_b2_sum_eltwise
I0817 16:07:12.691596 17621 net.cpp:434] L3_b2_sum_eltwise <- L3_b2_cbr2_bn_top
I0817 16:07:12.691604 17621 net.cpp:434] L3_b2_sum_eltwise <- L3_b1_concat0_L3_b1_concat0_0_split_1
I0817 16:07:12.691615 17621 net.cpp:408] L3_b2_sum_eltwise -> L3_b2_sum_eltwise_top
I0817 16:07:12.691654 17621 net.cpp:150] Setting up L3_b2_sum_eltwise
I0817 16:07:12.691668 17621 net.cpp:157] Top shape: 125 64 8 8 (512000)
I0817 16:07:12.691673 17621 net.cpp:165] Memory required for data: 1290753500
I0817 16:07:12.691678 17621 layer_factory.hpp:77] Creating layer L3_b2_relu
I0817 16:07:12.691685 17621 net.cpp:100] Creating Layer L3_b2_relu
I0817 16:07:12.691691 17621 net.cpp:434] L3_b2_relu <- L3_b2_sum_eltwise_top
I0817 16:07:12.691701 17621 net.cpp:395] L3_b2_relu -> L3_b2_sum_eltwise_top (in-place)
I0817 16:07:12.691711 17621 net.cpp:150] Setting up L3_b2_relu
I0817 16:07:12.691720 17621 net.cpp:157] Top shape: 125 64 8 8 (512000)
I0817 16:07:12.691723 17621 net.cpp:165] Memory required for data: 1292801500
I0817 16:07:12.691728 17621 layer_factory.hpp:77] Creating layer L3_b2_sum_eltwise_top_L3_b2_relu_0_split
I0817 16:07:12.691735 17621 net.cpp:100] Creating Layer L3_b2_sum_eltwise_top_L3_b2_relu_0_split
I0817 16:07:12.691740 17621 net.cpp:434] L3_b2_sum_eltwise_top_L3_b2_relu_0_split <- L3_b2_sum_eltwise_top
I0817 16:07:12.691748 17621 net.cpp:408] L3_b2_sum_eltwise_top_L3_b2_relu_0_split -> L3_b2_sum_eltwise_top_L3_b2_relu_0_split_0
I0817 16:07:12.691764 17621 net.cpp:408] L3_b2_sum_eltwise_top_L3_b2_relu_0_split -> L3_b2_sum_eltwise_top_L3_b2_relu_0_split_1
I0817 16:07:12.691817 17621 net.cpp:150] Setting up L3_b2_sum_eltwise_top_L3_b2_relu_0_split
I0817 16:07:12.691829 17621 net.cpp:157] Top shape: 125 64 8 8 (512000)
I0817 16:07:12.691836 17621 net.cpp:157] Top shape: 125 64 8 8 (512000)
I0817 16:07:12.691840 17621 net.cpp:165] Memory required for data: 1296897500
I0817 16:07:12.691845 17621 layer_factory.hpp:77] Creating layer L3_b3_cbr1_conv
I0817 16:07:12.691857 17621 net.cpp:100] Creating Layer L3_b3_cbr1_conv
I0817 16:07:12.691864 17621 net.cpp:434] L3_b3_cbr1_conv <- L3_b2_sum_eltwise_top_L3_b2_relu_0_split_0
I0817 16:07:12.691875 17621 net.cpp:408] L3_b3_cbr1_conv -> L3_b3_cbr1_conv_top
I0817 16:07:12.692901 17621 net.cpp:150] Setting up L3_b3_cbr1_conv
I0817 16:07:12.692916 17621 net.cpp:157] Top shape: 125 64 8 8 (512000)
I0817 16:07:12.692921 17621 net.cpp:165] Memory required for data: 1298945500
I0817 16:07:12.692930 17621 layer_factory.hpp:77] Creating layer L3_b3_cbr1_bn
I0817 16:07:12.692939 17621 net.cpp:100] Creating Layer L3_b3_cbr1_bn
I0817 16:07:12.692946 17621 net.cpp:434] L3_b3_cbr1_bn <- L3_b3_cbr1_conv_top
I0817 16:07:12.692957 17621 net.cpp:408] L3_b3_cbr1_bn -> L3_b3_cbr1_bn_top
I0817 16:07:12.693219 17621 net.cpp:150] Setting up L3_b3_cbr1_bn
I0817 16:07:12.693236 17621 net.cpp:157] Top shape: 125 64 8 8 (512000)
I0817 16:07:12.693241 17621 net.cpp:165] Memory required for data: 1300993500
I0817 16:07:12.693253 17621 layer_factory.hpp:77] Creating layer L3_b3_cbr1_scale
I0817 16:07:12.693261 17621 net.cpp:100] Creating Layer L3_b3_cbr1_scale
I0817 16:07:12.693267 17621 net.cpp:434] L3_b3_cbr1_scale <- L3_b3_cbr1_bn_top
I0817 16:07:12.693274 17621 net.cpp:395] L3_b3_cbr1_scale -> L3_b3_cbr1_bn_top (in-place)
I0817 16:07:12.693331 17621 layer_factory.hpp:77] Creating layer L3_b3_cbr1_scale
I0817 16:07:12.693486 17621 net.cpp:150] Setting up L3_b3_cbr1_scale
I0817 16:07:12.693498 17621 net.cpp:157] Top shape: 125 64 8 8 (512000)
I0817 16:07:12.693503 17621 net.cpp:165] Memory required for data: 1303041500
I0817 16:07:12.693512 17621 layer_factory.hpp:77] Creating layer L3_b3_cbr1_relu
I0817 16:07:12.693523 17621 net.cpp:100] Creating Layer L3_b3_cbr1_relu
I0817 16:07:12.693531 17621 net.cpp:434] L3_b3_cbr1_relu <- L3_b3_cbr1_bn_top
I0817 16:07:12.693537 17621 net.cpp:395] L3_b3_cbr1_relu -> L3_b3_cbr1_bn_top (in-place)
I0817 16:07:12.693547 17621 net.cpp:150] Setting up L3_b3_cbr1_relu
I0817 16:07:12.693554 17621 net.cpp:157] Top shape: 125 64 8 8 (512000)
I0817 16:07:12.693567 17621 net.cpp:165] Memory required for data: 1305089500
I0817 16:07:12.693572 17621 layer_factory.hpp:77] Creating layer L3_b3_cbr2_conv
I0817 16:07:12.693585 17621 net.cpp:100] Creating Layer L3_b3_cbr2_conv
I0817 16:07:12.693591 17621 net.cpp:434] L3_b3_cbr2_conv <- L3_b3_cbr1_bn_top
I0817 16:07:12.693600 17621 net.cpp:408] L3_b3_cbr2_conv -> L3_b3_cbr2_conv_top
I0817 16:07:12.694625 17621 net.cpp:150] Setting up L3_b3_cbr2_conv
I0817 16:07:12.694641 17621 net.cpp:157] Top shape: 125 64 8 8 (512000)
I0817 16:07:12.694646 17621 net.cpp:165] Memory required for data: 1307137500
I0817 16:07:12.694655 17621 layer_factory.hpp:77] Creating layer L3_b3_cbr2_bn
I0817 16:07:12.694667 17621 net.cpp:100] Creating Layer L3_b3_cbr2_bn
I0817 16:07:12.694674 17621 net.cpp:434] L3_b3_cbr2_bn <- L3_b3_cbr2_conv_top
I0817 16:07:12.694687 17621 net.cpp:408] L3_b3_cbr2_bn -> L3_b3_cbr2_bn_top
I0817 16:07:12.694958 17621 net.cpp:150] Setting up L3_b3_cbr2_bn
I0817 16:07:12.694972 17621 net.cpp:157] Top shape: 125 64 8 8 (512000)
I0817 16:07:12.694977 17621 net.cpp:165] Memory required for data: 1309185500
I0817 16:07:12.694988 17621 layer_factory.hpp:77] Creating layer L3_b3_cbr2_scale
I0817 16:07:12.694998 17621 net.cpp:100] Creating Layer L3_b3_cbr2_scale
I0817 16:07:12.695003 17621 net.cpp:434] L3_b3_cbr2_scale <- L3_b3_cbr2_bn_top
I0817 16:07:12.695014 17621 net.cpp:395] L3_b3_cbr2_scale -> L3_b3_cbr2_bn_top (in-place)
I0817 16:07:12.695073 17621 layer_factory.hpp:77] Creating layer L3_b3_cbr2_scale
I0817 16:07:12.695230 17621 net.cpp:150] Setting up L3_b3_cbr2_scale
I0817 16:07:12.695243 17621 net.cpp:157] Top shape: 125 64 8 8 (512000)
I0817 16:07:12.695248 17621 net.cpp:165] Memory required for data: 1311233500
I0817 16:07:12.695258 17621 layer_factory.hpp:77] Creating layer L3_b3_sum_eltwise
I0817 16:07:12.695267 17621 net.cpp:100] Creating Layer L3_b3_sum_eltwise
I0817 16:07:12.695273 17621 net.cpp:434] L3_b3_sum_eltwise <- L3_b3_cbr2_bn_top
I0817 16:07:12.695284 17621 net.cpp:434] L3_b3_sum_eltwise <- L3_b2_sum_eltwise_top_L3_b2_relu_0_split_1
I0817 16:07:12.695293 17621 net.cpp:408] L3_b3_sum_eltwise -> L3_b3_sum_eltwise_top
I0817 16:07:12.695329 17621 net.cpp:150] Setting up L3_b3_sum_eltwise
I0817 16:07:12.695341 17621 net.cpp:157] Top shape: 125 64 8 8 (512000)
I0817 16:07:12.695346 17621 net.cpp:165] Memory required for data: 1313281500
I0817 16:07:12.695351 17621 layer_factory.hpp:77] Creating layer L3_b3_relu
I0817 16:07:12.695359 17621 net.cpp:100] Creating Layer L3_b3_relu
I0817 16:07:12.695365 17621 net.cpp:434] L3_b3_relu <- L3_b3_sum_eltwise_top
I0817 16:07:12.695375 17621 net.cpp:395] L3_b3_relu -> L3_b3_sum_eltwise_top (in-place)
I0817 16:07:12.695385 17621 net.cpp:150] Setting up L3_b3_relu
I0817 16:07:12.695392 17621 net.cpp:157] Top shape: 125 64 8 8 (512000)
I0817 16:07:12.695397 17621 net.cpp:165] Memory required for data: 1315329500
I0817 16:07:12.695402 17621 layer_factory.hpp:77] Creating layer L3_b3_sum_eltwise_top_L3_b3_relu_0_split
I0817 16:07:12.695410 17621 net.cpp:100] Creating Layer L3_b3_sum_eltwise_top_L3_b3_relu_0_split
I0817 16:07:12.695415 17621 net.cpp:434] L3_b3_sum_eltwise_top_L3_b3_relu_0_split <- L3_b3_sum_eltwise_top
I0817 16:07:12.695422 17621 net.cpp:408] L3_b3_sum_eltwise_top_L3_b3_relu_0_split -> L3_b3_sum_eltwise_top_L3_b3_relu_0_split_0
I0817 16:07:12.695432 17621 net.cpp:408] L3_b3_sum_eltwise_top_L3_b3_relu_0_split -> L3_b3_sum_eltwise_top_L3_b3_relu_0_split_1
I0817 16:07:12.695480 17621 net.cpp:150] Setting up L3_b3_sum_eltwise_top_L3_b3_relu_0_split
I0817 16:07:12.695492 17621 net.cpp:157] Top shape: 125 64 8 8 (512000)
I0817 16:07:12.695498 17621 net.cpp:157] Top shape: 125 64 8 8 (512000)
I0817 16:07:12.695503 17621 net.cpp:165] Memory required for data: 1319425500
I0817 16:07:12.695508 17621 layer_factory.hpp:77] Creating layer L3_b4_cbr1_conv
I0817 16:07:12.695519 17621 net.cpp:100] Creating Layer L3_b4_cbr1_conv
I0817 16:07:12.695525 17621 net.cpp:434] L3_b4_cbr1_conv <- L3_b3_sum_eltwise_top_L3_b3_relu_0_split_0
I0817 16:07:12.695538 17621 net.cpp:408] L3_b4_cbr1_conv -> L3_b4_cbr1_conv_top
I0817 16:07:12.696569 17621 net.cpp:150] Setting up L3_b4_cbr1_conv
I0817 16:07:12.696584 17621 net.cpp:157] Top shape: 125 64 8 8 (512000)
I0817 16:07:12.696589 17621 net.cpp:165] Memory required for data: 1321473500
I0817 16:07:12.696599 17621 layer_factory.hpp:77] Creating layer L3_b4_cbr1_bn
I0817 16:07:12.696607 17621 net.cpp:100] Creating Layer L3_b4_cbr1_bn
I0817 16:07:12.696614 17621 net.cpp:434] L3_b4_cbr1_bn <- L3_b4_cbr1_conv_top
I0817 16:07:12.696625 17621 net.cpp:408] L3_b4_cbr1_bn -> L3_b4_cbr1_bn_top
I0817 16:07:12.696907 17621 net.cpp:150] Setting up L3_b4_cbr1_bn
I0817 16:07:12.696920 17621 net.cpp:157] Top shape: 125 64 8 8 (512000)
I0817 16:07:12.696925 17621 net.cpp:165] Memory required for data: 1323521500
I0817 16:07:12.696936 17621 layer_factory.hpp:77] Creating layer L3_b4_cbr1_scale
I0817 16:07:12.696945 17621 net.cpp:100] Creating Layer L3_b4_cbr1_scale
I0817 16:07:12.696951 17621 net.cpp:434] L3_b4_cbr1_scale <- L3_b4_cbr1_bn_top
I0817 16:07:12.696959 17621 net.cpp:395] L3_b4_cbr1_scale -> L3_b4_cbr1_bn_top (in-place)
I0817 16:07:12.697022 17621 layer_factory.hpp:77] Creating layer L3_b4_cbr1_scale
I0817 16:07:12.697204 17621 net.cpp:150] Setting up L3_b4_cbr1_scale
I0817 16:07:12.697221 17621 net.cpp:157] Top shape: 125 64 8 8 (512000)
I0817 16:07:12.697227 17621 net.cpp:165] Memory required for data: 1325569500
I0817 16:07:12.697237 17621 layer_factory.hpp:77] Creating layer L3_b4_cbr1_relu
I0817 16:07:12.697244 17621 net.cpp:100] Creating Layer L3_b4_cbr1_relu
I0817 16:07:12.697250 17621 net.cpp:434] L3_b4_cbr1_relu <- L3_b4_cbr1_bn_top
I0817 16:07:12.697258 17621 net.cpp:395] L3_b4_cbr1_relu -> L3_b4_cbr1_bn_top (in-place)
I0817 16:07:12.697268 17621 net.cpp:150] Setting up L3_b4_cbr1_relu
I0817 16:07:12.697275 17621 net.cpp:157] Top shape: 125 64 8 8 (512000)
I0817 16:07:12.697279 17621 net.cpp:165] Memory required for data: 1327617500
I0817 16:07:12.697284 17621 layer_factory.hpp:77] Creating layer L3_b4_cbr2_conv
I0817 16:07:12.697299 17621 net.cpp:100] Creating Layer L3_b4_cbr2_conv
I0817 16:07:12.697305 17621 net.cpp:434] L3_b4_cbr2_conv <- L3_b4_cbr1_bn_top
I0817 16:07:12.697314 17621 net.cpp:408] L3_b4_cbr2_conv -> L3_b4_cbr2_conv_top
I0817 16:07:12.698355 17621 net.cpp:150] Setting up L3_b4_cbr2_conv
I0817 16:07:12.698370 17621 net.cpp:157] Top shape: 125 64 8 8 (512000)
I0817 16:07:12.698375 17621 net.cpp:165] Memory required for data: 1329665500
I0817 16:07:12.698385 17621 layer_factory.hpp:77] Creating layer L3_b4_cbr2_bn
I0817 16:07:12.698397 17621 net.cpp:100] Creating Layer L3_b4_cbr2_bn
I0817 16:07:12.698405 17621 net.cpp:434] L3_b4_cbr2_bn <- L3_b4_cbr2_conv_top
I0817 16:07:12.698415 17621 net.cpp:408] L3_b4_cbr2_bn -> L3_b4_cbr2_bn_top
I0817 16:07:12.698684 17621 net.cpp:150] Setting up L3_b4_cbr2_bn
I0817 16:07:12.698698 17621 net.cpp:157] Top shape: 125 64 8 8 (512000)
I0817 16:07:12.698703 17621 net.cpp:165] Memory required for data: 1331713500
I0817 16:07:12.698714 17621 layer_factory.hpp:77] Creating layer L3_b4_cbr2_scale
I0817 16:07:12.698722 17621 net.cpp:100] Creating Layer L3_b4_cbr2_scale
I0817 16:07:12.698729 17621 net.cpp:434] L3_b4_cbr2_scale <- L3_b4_cbr2_bn_top
I0817 16:07:12.698740 17621 net.cpp:395] L3_b4_cbr2_scale -> L3_b4_cbr2_bn_top (in-place)
I0817 16:07:12.698806 17621 layer_factory.hpp:77] Creating layer L3_b4_cbr2_scale
I0817 16:07:12.698971 17621 net.cpp:150] Setting up L3_b4_cbr2_scale
I0817 16:07:12.698983 17621 net.cpp:157] Top shape: 125 64 8 8 (512000)
I0817 16:07:12.698988 17621 net.cpp:165] Memory required for data: 1333761500
I0817 16:07:12.698997 17621 layer_factory.hpp:77] Creating layer L3_b4_sum_eltwise
I0817 16:07:12.699012 17621 net.cpp:100] Creating Layer L3_b4_sum_eltwise
I0817 16:07:12.699019 17621 net.cpp:434] L3_b4_sum_eltwise <- L3_b4_cbr2_bn_top
I0817 16:07:12.699026 17621 net.cpp:434] L3_b4_sum_eltwise <- L3_b3_sum_eltwise_top_L3_b3_relu_0_split_1
I0817 16:07:12.699034 17621 net.cpp:408] L3_b4_sum_eltwise -> L3_b4_sum_eltwise_top
I0817 16:07:12.699071 17621 net.cpp:150] Setting up L3_b4_sum_eltwise
I0817 16:07:12.699089 17621 net.cpp:157] Top shape: 125 64 8 8 (512000)
I0817 16:07:12.699093 17621 net.cpp:165] Memory required for data: 1335809500
I0817 16:07:12.699098 17621 layer_factory.hpp:77] Creating layer L3_b4_relu
I0817 16:07:12.699106 17621 net.cpp:100] Creating Layer L3_b4_relu
I0817 16:07:12.699112 17621 net.cpp:434] L3_b4_relu <- L3_b4_sum_eltwise_top
I0817 16:07:12.699122 17621 net.cpp:395] L3_b4_relu -> L3_b4_sum_eltwise_top (in-place)
I0817 16:07:12.699133 17621 net.cpp:150] Setting up L3_b4_relu
I0817 16:07:12.699141 17621 net.cpp:157] Top shape: 125 64 8 8 (512000)
I0817 16:07:12.699144 17621 net.cpp:165] Memory required for data: 1337857500
I0817 16:07:12.699149 17621 layer_factory.hpp:77] Creating layer L3_b4_sum_eltwise_top_L3_b4_relu_0_split
I0817 16:07:12.699156 17621 net.cpp:100] Creating Layer L3_b4_sum_eltwise_top_L3_b4_relu_0_split
I0817 16:07:12.699162 17621 net.cpp:434] L3_b4_sum_eltwise_top_L3_b4_relu_0_split <- L3_b4_sum_eltwise_top
I0817 16:07:12.699169 17621 net.cpp:408] L3_b4_sum_eltwise_top_L3_b4_relu_0_split -> L3_b4_sum_eltwise_top_L3_b4_relu_0_split_0
I0817 16:07:12.699178 17621 net.cpp:408] L3_b4_sum_eltwise_top_L3_b4_relu_0_split -> L3_b4_sum_eltwise_top_L3_b4_relu_0_split_1
I0817 16:07:12.699229 17621 net.cpp:150] Setting up L3_b4_sum_eltwise_top_L3_b4_relu_0_split
I0817 16:07:12.699240 17621 net.cpp:157] Top shape: 125 64 8 8 (512000)
I0817 16:07:12.699246 17621 net.cpp:157] Top shape: 125 64 8 8 (512000)
I0817 16:07:12.699251 17621 net.cpp:165] Memory required for data: 1341953500
I0817 16:07:12.699256 17621 layer_factory.hpp:77] Creating layer L3_b5_cbr1_conv
I0817 16:07:12.699267 17621 net.cpp:100] Creating Layer L3_b5_cbr1_conv
I0817 16:07:12.699275 17621 net.cpp:434] L3_b5_cbr1_conv <- L3_b4_sum_eltwise_top_L3_b4_relu_0_split_0
I0817 16:07:12.699285 17621 net.cpp:408] L3_b5_cbr1_conv -> L3_b5_cbr1_conv_top
I0817 16:07:12.700328 17621 net.cpp:150] Setting up L3_b5_cbr1_conv
I0817 16:07:12.700343 17621 net.cpp:157] Top shape: 125 64 8 8 (512000)
I0817 16:07:12.700350 17621 net.cpp:165] Memory required for data: 1344001500
I0817 16:07:12.700358 17621 layer_factory.hpp:77] Creating layer L3_b5_cbr1_bn
I0817 16:07:12.700371 17621 net.cpp:100] Creating Layer L3_b5_cbr1_bn
I0817 16:07:12.700378 17621 net.cpp:434] L3_b5_cbr1_bn <- L3_b5_cbr1_conv_top
I0817 16:07:12.700387 17621 net.cpp:408] L3_b5_cbr1_bn -> L3_b5_cbr1_bn_top
I0817 16:07:12.701647 17621 net.cpp:150] Setting up L3_b5_cbr1_bn
I0817 16:07:12.701665 17621 net.cpp:157] Top shape: 125 64 8 8 (512000)
I0817 16:07:12.701670 17621 net.cpp:165] Memory required for data: 1346049500
I0817 16:07:12.701683 17621 layer_factory.hpp:77] Creating layer L3_b5_cbr1_scale
I0817 16:07:12.701692 17621 net.cpp:100] Creating Layer L3_b5_cbr1_scale
I0817 16:07:12.701699 17621 net.cpp:434] L3_b5_cbr1_scale <- L3_b5_cbr1_bn_top
I0817 16:07:12.701710 17621 net.cpp:395] L3_b5_cbr1_scale -> L3_b5_cbr1_bn_top (in-place)
I0817 16:07:12.701778 17621 layer_factory.hpp:77] Creating layer L3_b5_cbr1_scale
I0817 16:07:12.701942 17621 net.cpp:150] Setting up L3_b5_cbr1_scale
I0817 16:07:12.701956 17621 net.cpp:157] Top shape: 125 64 8 8 (512000)
I0817 16:07:12.701961 17621 net.cpp:165] Memory required for data: 1348097500
I0817 16:07:12.701970 17621 layer_factory.hpp:77] Creating layer L3_b5_cbr1_relu
I0817 16:07:12.701982 17621 net.cpp:100] Creating Layer L3_b5_cbr1_relu
I0817 16:07:12.701988 17621 net.cpp:434] L3_b5_cbr1_relu <- L3_b5_cbr1_bn_top
I0817 16:07:12.701997 17621 net.cpp:395] L3_b5_cbr1_relu -> L3_b5_cbr1_bn_top (in-place)
I0817 16:07:12.702006 17621 net.cpp:150] Setting up L3_b5_cbr1_relu
I0817 16:07:12.702013 17621 net.cpp:157] Top shape: 125 64 8 8 (512000)
I0817 16:07:12.702018 17621 net.cpp:165] Memory required for data: 1350145500
I0817 16:07:12.702023 17621 layer_factory.hpp:77] Creating layer L3_b5_cbr2_conv
I0817 16:07:12.702038 17621 net.cpp:100] Creating Layer L3_b5_cbr2_conv
I0817 16:07:12.702044 17621 net.cpp:434] L3_b5_cbr2_conv <- L3_b5_cbr1_bn_top
I0817 16:07:12.702055 17621 net.cpp:408] L3_b5_cbr2_conv -> L3_b5_cbr2_conv_top
I0817 16:07:12.704069 17621 net.cpp:150] Setting up L3_b5_cbr2_conv
I0817 16:07:12.704087 17621 net.cpp:157] Top shape: 125 64 8 8 (512000)
I0817 16:07:12.704093 17621 net.cpp:165] Memory required for data: 1352193500
I0817 16:07:12.704103 17621 layer_factory.hpp:77] Creating layer L3_b5_cbr2_bn
I0817 16:07:12.704116 17621 net.cpp:100] Creating Layer L3_b5_cbr2_bn
I0817 16:07:12.704123 17621 net.cpp:434] L3_b5_cbr2_bn <- L3_b5_cbr2_conv_top
I0817 16:07:12.704135 17621 net.cpp:408] L3_b5_cbr2_bn -> L3_b5_cbr2_bn_top
I0817 16:07:12.704393 17621 net.cpp:150] Setting up L3_b5_cbr2_bn
I0817 16:07:12.704406 17621 net.cpp:157] Top shape: 125 64 8 8 (512000)
I0817 16:07:12.704411 17621 net.cpp:165] Memory required for data: 1354241500
I0817 16:07:12.704422 17621 layer_factory.hpp:77] Creating layer L3_b5_cbr2_scale
I0817 16:07:12.704432 17621 net.cpp:100] Creating Layer L3_b5_cbr2_scale
I0817 16:07:12.704438 17621 net.cpp:434] L3_b5_cbr2_scale <- L3_b5_cbr2_bn_top
I0817 16:07:12.704448 17621 net.cpp:395] L3_b5_cbr2_scale -> L3_b5_cbr2_bn_top (in-place)
I0817 16:07:12.704506 17621 layer_factory.hpp:77] Creating layer L3_b5_cbr2_scale
I0817 16:07:12.704666 17621 net.cpp:150] Setting up L3_b5_cbr2_scale
I0817 16:07:12.704679 17621 net.cpp:157] Top shape: 125 64 8 8 (512000)
I0817 16:07:12.704684 17621 net.cpp:165] Memory required for data: 1356289500
I0817 16:07:12.704694 17621 layer_factory.hpp:77] Creating layer L3_b5_sum_eltwise
I0817 16:07:12.704706 17621 net.cpp:100] Creating Layer L3_b5_sum_eltwise
I0817 16:07:12.704713 17621 net.cpp:434] L3_b5_sum_eltwise <- L3_b5_cbr2_bn_top
I0817 16:07:12.704720 17621 net.cpp:434] L3_b5_sum_eltwise <- L3_b4_sum_eltwise_top_L3_b4_relu_0_split_1
I0817 16:07:12.704728 17621 net.cpp:408] L3_b5_sum_eltwise -> L3_b5_sum_eltwise_top
I0817 16:07:12.704771 17621 net.cpp:150] Setting up L3_b5_sum_eltwise
I0817 16:07:12.704784 17621 net.cpp:157] Top shape: 125 64 8 8 (512000)
I0817 16:07:12.704789 17621 net.cpp:165] Memory required for data: 1358337500
I0817 16:07:12.704794 17621 layer_factory.hpp:77] Creating layer L3_b5_relu
I0817 16:07:12.704802 17621 net.cpp:100] Creating Layer L3_b5_relu
I0817 16:07:12.704808 17621 net.cpp:434] L3_b5_relu <- L3_b5_sum_eltwise_top
I0817 16:07:12.704818 17621 net.cpp:395] L3_b5_relu -> L3_b5_sum_eltwise_top (in-place)
I0817 16:07:12.704829 17621 net.cpp:150] Setting up L3_b5_relu
I0817 16:07:12.704836 17621 net.cpp:157] Top shape: 125 64 8 8 (512000)
I0817 16:07:12.704840 17621 net.cpp:165] Memory required for data: 1360385500
I0817 16:07:12.704845 17621 layer_factory.hpp:77] Creating layer L3_b5_sum_eltwise_top_L3_b5_relu_0_split
I0817 16:07:12.704852 17621 net.cpp:100] Creating Layer L3_b5_sum_eltwise_top_L3_b5_relu_0_split
I0817 16:07:12.704859 17621 net.cpp:434] L3_b5_sum_eltwise_top_L3_b5_relu_0_split <- L3_b5_sum_eltwise_top
I0817 16:07:12.704865 17621 net.cpp:408] L3_b5_sum_eltwise_top_L3_b5_relu_0_split -> L3_b5_sum_eltwise_top_L3_b5_relu_0_split_0
I0817 16:07:12.704876 17621 net.cpp:408] L3_b5_sum_eltwise_top_L3_b5_relu_0_split -> L3_b5_sum_eltwise_top_L3_b5_relu_0_split_1
I0817 16:07:12.704924 17621 net.cpp:150] Setting up L3_b5_sum_eltwise_top_L3_b5_relu_0_split
I0817 16:07:12.704936 17621 net.cpp:157] Top shape: 125 64 8 8 (512000)
I0817 16:07:12.704942 17621 net.cpp:157] Top shape: 125 64 8 8 (512000)
I0817 16:07:12.704947 17621 net.cpp:165] Memory required for data: 1364481500
I0817 16:07:12.704952 17621 layer_factory.hpp:77] Creating layer L3_b6_cbr1_conv
I0817 16:07:12.704963 17621 net.cpp:100] Creating Layer L3_b6_cbr1_conv
I0817 16:07:12.704970 17621 net.cpp:434] L3_b6_cbr1_conv <- L3_b5_sum_eltwise_top_L3_b5_relu_0_split_0
I0817 16:07:12.704982 17621 net.cpp:408] L3_b6_cbr1_conv -> L3_b6_cbr1_conv_top
I0817 16:07:12.705999 17621 net.cpp:150] Setting up L3_b6_cbr1_conv
I0817 16:07:12.706014 17621 net.cpp:157] Top shape: 125 64 8 8 (512000)
I0817 16:07:12.706019 17621 net.cpp:165] Memory required for data: 1366529500
I0817 16:07:12.706028 17621 layer_factory.hpp:77] Creating layer L3_b6_cbr1_bn
I0817 16:07:12.706038 17621 net.cpp:100] Creating Layer L3_b6_cbr1_bn
I0817 16:07:12.706053 17621 net.cpp:434] L3_b6_cbr1_bn <- L3_b6_cbr1_conv_top
I0817 16:07:12.706064 17621 net.cpp:408] L3_b6_cbr1_bn -> L3_b6_cbr1_bn_top
I0817 16:07:12.706326 17621 net.cpp:150] Setting up L3_b6_cbr1_bn
I0817 16:07:12.706339 17621 net.cpp:157] Top shape: 125 64 8 8 (512000)
I0817 16:07:12.706344 17621 net.cpp:165] Memory required for data: 1368577500
I0817 16:07:12.706354 17621 layer_factory.hpp:77] Creating layer L3_b6_cbr1_scale
I0817 16:07:12.706364 17621 net.cpp:100] Creating Layer L3_b6_cbr1_scale
I0817 16:07:12.706370 17621 net.cpp:434] L3_b6_cbr1_scale <- L3_b6_cbr1_bn_top
I0817 16:07:12.706378 17621 net.cpp:395] L3_b6_cbr1_scale -> L3_b6_cbr1_bn_top (in-place)
I0817 16:07:12.706437 17621 layer_factory.hpp:77] Creating layer L3_b6_cbr1_scale
I0817 16:07:12.706586 17621 net.cpp:150] Setting up L3_b6_cbr1_scale
I0817 16:07:12.706604 17621 net.cpp:157] Top shape: 125 64 8 8 (512000)
I0817 16:07:12.706609 17621 net.cpp:165] Memory required for data: 1370625500
I0817 16:07:12.706617 17621 layer_factory.hpp:77] Creating layer L3_b6_cbr1_relu
I0817 16:07:12.706626 17621 net.cpp:100] Creating Layer L3_b6_cbr1_relu
I0817 16:07:12.706632 17621 net.cpp:434] L3_b6_cbr1_relu <- L3_b6_cbr1_bn_top
I0817 16:07:12.706640 17621 net.cpp:395] L3_b6_cbr1_relu -> L3_b6_cbr1_bn_top (in-place)
I0817 16:07:12.706650 17621 net.cpp:150] Setting up L3_b6_cbr1_relu
I0817 16:07:12.706656 17621 net.cpp:157] Top shape: 125 64 8 8 (512000)
I0817 16:07:12.706660 17621 net.cpp:165] Memory required for data: 1372673500
I0817 16:07:12.706665 17621 layer_factory.hpp:77] Creating layer L3_b6_cbr2_conv
I0817 16:07:12.706679 17621 net.cpp:100] Creating Layer L3_b6_cbr2_conv
I0817 16:07:12.706686 17621 net.cpp:434] L3_b6_cbr2_conv <- L3_b6_cbr1_bn_top
I0817 16:07:12.706694 17621 net.cpp:408] L3_b6_cbr2_conv -> L3_b6_cbr2_conv_top
I0817 16:07:12.707708 17621 net.cpp:150] Setting up L3_b6_cbr2_conv
I0817 16:07:12.707723 17621 net.cpp:157] Top shape: 125 64 8 8 (512000)
I0817 16:07:12.707728 17621 net.cpp:165] Memory required for data: 1374721500
I0817 16:07:12.707737 17621 layer_factory.hpp:77] Creating layer L3_b6_cbr2_bn
I0817 16:07:12.707757 17621 net.cpp:100] Creating Layer L3_b6_cbr2_bn
I0817 16:07:12.707765 17621 net.cpp:434] L3_b6_cbr2_bn <- L3_b6_cbr2_conv_top
I0817 16:07:12.707777 17621 net.cpp:408] L3_b6_cbr2_bn -> L3_b6_cbr2_bn_top
I0817 16:07:12.708031 17621 net.cpp:150] Setting up L3_b6_cbr2_bn
I0817 16:07:12.708045 17621 net.cpp:157] Top shape: 125 64 8 8 (512000)
I0817 16:07:12.708050 17621 net.cpp:165] Memory required for data: 1376769500
I0817 16:07:12.708060 17621 layer_factory.hpp:77] Creating layer L3_b6_cbr2_scale
I0817 16:07:12.708070 17621 net.cpp:100] Creating Layer L3_b6_cbr2_scale
I0817 16:07:12.708076 17621 net.cpp:434] L3_b6_cbr2_scale <- L3_b6_cbr2_bn_top
I0817 16:07:12.708087 17621 net.cpp:395] L3_b6_cbr2_scale -> L3_b6_cbr2_bn_top (in-place)
I0817 16:07:12.708144 17621 layer_factory.hpp:77] Creating layer L3_b6_cbr2_scale
I0817 16:07:12.708297 17621 net.cpp:150] Setting up L3_b6_cbr2_scale
I0817 16:07:12.708310 17621 net.cpp:157] Top shape: 125 64 8 8 (512000)
I0817 16:07:12.708315 17621 net.cpp:165] Memory required for data: 1378817500
I0817 16:07:12.708324 17621 layer_factory.hpp:77] Creating layer L3_b6_sum_eltwise
I0817 16:07:12.708336 17621 net.cpp:100] Creating Layer L3_b6_sum_eltwise
I0817 16:07:12.708343 17621 net.cpp:434] L3_b6_sum_eltwise <- L3_b6_cbr2_bn_top
I0817 16:07:12.708350 17621 net.cpp:434] L3_b6_sum_eltwise <- L3_b5_sum_eltwise_top_L3_b5_relu_0_split_1
I0817 16:07:12.708359 17621 net.cpp:408] L3_b6_sum_eltwise -> L3_b6_sum_eltwise_top
I0817 16:07:12.708395 17621 net.cpp:150] Setting up L3_b6_sum_eltwise
I0817 16:07:12.708406 17621 net.cpp:157] Top shape: 125 64 8 8 (512000)
I0817 16:07:12.708411 17621 net.cpp:165] Memory required for data: 1380865500
I0817 16:07:12.708416 17621 layer_factory.hpp:77] Creating layer L3_b6_relu
I0817 16:07:12.708425 17621 net.cpp:100] Creating Layer L3_b6_relu
I0817 16:07:12.708431 17621 net.cpp:434] L3_b6_relu <- L3_b6_sum_eltwise_top
I0817 16:07:12.708447 17621 net.cpp:395] L3_b6_relu -> L3_b6_sum_eltwise_top (in-place)
I0817 16:07:12.708458 17621 net.cpp:150] Setting up L3_b6_relu
I0817 16:07:12.708465 17621 net.cpp:157] Top shape: 125 64 8 8 (512000)
I0817 16:07:12.708469 17621 net.cpp:165] Memory required for data: 1382913500
I0817 16:07:12.708474 17621 layer_factory.hpp:77] Creating layer L3_b6_sum_eltwise_top_L3_b6_relu_0_split
I0817 16:07:12.708482 17621 net.cpp:100] Creating Layer L3_b6_sum_eltwise_top_L3_b6_relu_0_split
I0817 16:07:12.708487 17621 net.cpp:434] L3_b6_sum_eltwise_top_L3_b6_relu_0_split <- L3_b6_sum_eltwise_top
I0817 16:07:12.708495 17621 net.cpp:408] L3_b6_sum_eltwise_top_L3_b6_relu_0_split -> L3_b6_sum_eltwise_top_L3_b6_relu_0_split_0
I0817 16:07:12.708505 17621 net.cpp:408] L3_b6_sum_eltwise_top_L3_b6_relu_0_split -> L3_b6_sum_eltwise_top_L3_b6_relu_0_split_1
I0817 16:07:12.708554 17621 net.cpp:150] Setting up L3_b6_sum_eltwise_top_L3_b6_relu_0_split
I0817 16:07:12.708565 17621 net.cpp:157] Top shape: 125 64 8 8 (512000)
I0817 16:07:12.708572 17621 net.cpp:157] Top shape: 125 64 8 8 (512000)
I0817 16:07:12.708576 17621 net.cpp:165] Memory required for data: 1387009500
I0817 16:07:12.708581 17621 layer_factory.hpp:77] Creating layer L3_b7_cbr1_conv
I0817 16:07:12.708592 17621 net.cpp:100] Creating Layer L3_b7_cbr1_conv
I0817 16:07:12.708600 17621 net.cpp:434] L3_b7_cbr1_conv <- L3_b6_sum_eltwise_top_L3_b6_relu_0_split_0
I0817 16:07:12.708611 17621 net.cpp:408] L3_b7_cbr1_conv -> L3_b7_cbr1_conv_top
I0817 16:07:12.709630 17621 net.cpp:150] Setting up L3_b7_cbr1_conv
I0817 16:07:12.709645 17621 net.cpp:157] Top shape: 125 64 8 8 (512000)
I0817 16:07:12.709650 17621 net.cpp:165] Memory required for data: 1389057500
I0817 16:07:12.709659 17621 layer_factory.hpp:77] Creating layer L3_b7_cbr1_bn
I0817 16:07:12.709671 17621 net.cpp:100] Creating Layer L3_b7_cbr1_bn
I0817 16:07:12.709678 17621 net.cpp:434] L3_b7_cbr1_bn <- L3_b7_cbr1_conv_top
I0817 16:07:12.709687 17621 net.cpp:408] L3_b7_cbr1_bn -> L3_b7_cbr1_bn_top
I0817 16:07:12.709959 17621 net.cpp:150] Setting up L3_b7_cbr1_bn
I0817 16:07:12.709971 17621 net.cpp:157] Top shape: 125 64 8 8 (512000)
I0817 16:07:12.709976 17621 net.cpp:165] Memory required for data: 1391105500
I0817 16:07:12.709987 17621 layer_factory.hpp:77] Creating layer L3_b7_cbr1_scale
I0817 16:07:12.709996 17621 net.cpp:100] Creating Layer L3_b7_cbr1_scale
I0817 16:07:12.710002 17621 net.cpp:434] L3_b7_cbr1_scale <- L3_b7_cbr1_bn_top
I0817 16:07:12.710011 17621 net.cpp:395] L3_b7_cbr1_scale -> L3_b7_cbr1_bn_top (in-place)
I0817 16:07:12.710070 17621 layer_factory.hpp:77] Creating layer L3_b7_cbr1_scale
I0817 16:07:12.710227 17621 net.cpp:150] Setting up L3_b7_cbr1_scale
I0817 16:07:12.710242 17621 net.cpp:157] Top shape: 125 64 8 8 (512000)
I0817 16:07:12.710247 17621 net.cpp:165] Memory required for data: 1393153500
I0817 16:07:12.710258 17621 layer_factory.hpp:77] Creating layer L3_b7_cbr1_relu
I0817 16:07:12.710291 17621 net.cpp:100] Creating Layer L3_b7_cbr1_relu
I0817 16:07:12.710300 17621 net.cpp:434] L3_b7_cbr1_relu <- L3_b7_cbr1_bn_top
I0817 16:07:12.710309 17621 net.cpp:395] L3_b7_cbr1_relu -> L3_b7_cbr1_bn_top (in-place)
I0817 16:07:12.710319 17621 net.cpp:150] Setting up L3_b7_cbr1_relu
I0817 16:07:12.710326 17621 net.cpp:157] Top shape: 125 64 8 8 (512000)
I0817 16:07:12.710331 17621 net.cpp:165] Memory required for data: 1395201500
I0817 16:07:12.710337 17621 layer_factory.hpp:77] Creating layer L3_b7_cbr2_conv
I0817 16:07:12.710351 17621 net.cpp:100] Creating Layer L3_b7_cbr2_conv
I0817 16:07:12.710357 17621 net.cpp:434] L3_b7_cbr2_conv <- L3_b7_cbr1_bn_top
I0817 16:07:12.710366 17621 net.cpp:408] L3_b7_cbr2_conv -> L3_b7_cbr2_conv_top
I0817 16:07:12.711388 17621 net.cpp:150] Setting up L3_b7_cbr2_conv
I0817 16:07:12.711403 17621 net.cpp:157] Top shape: 125 64 8 8 (512000)
I0817 16:07:12.711408 17621 net.cpp:165] Memory required for data: 1397249500
I0817 16:07:12.711417 17621 layer_factory.hpp:77] Creating layer L3_b7_cbr2_bn
I0817 16:07:12.711426 17621 net.cpp:100] Creating Layer L3_b7_cbr2_bn
I0817 16:07:12.711439 17621 net.cpp:434] L3_b7_cbr2_bn <- L3_b7_cbr2_conv_top
I0817 16:07:12.711452 17621 net.cpp:408] L3_b7_cbr2_bn -> L3_b7_cbr2_bn_top
I0817 16:07:12.711720 17621 net.cpp:150] Setting up L3_b7_cbr2_bn
I0817 16:07:12.711733 17621 net.cpp:157] Top shape: 125 64 8 8 (512000)
I0817 16:07:12.711738 17621 net.cpp:165] Memory required for data: 1399297500
I0817 16:07:12.711750 17621 layer_factory.hpp:77] Creating layer L3_b7_cbr2_scale
I0817 16:07:12.711765 17621 net.cpp:100] Creating Layer L3_b7_cbr2_scale
I0817 16:07:12.711771 17621 net.cpp:434] L3_b7_cbr2_scale <- L3_b7_cbr2_bn_top
I0817 16:07:12.711779 17621 net.cpp:395] L3_b7_cbr2_scale -> L3_b7_cbr2_bn_top (in-place)
I0817 16:07:12.711840 17621 layer_factory.hpp:77] Creating layer L3_b7_cbr2_scale
I0817 16:07:12.711997 17621 net.cpp:150] Setting up L3_b7_cbr2_scale
I0817 16:07:12.712013 17621 net.cpp:157] Top shape: 125 64 8 8 (512000)
I0817 16:07:12.712018 17621 net.cpp:165] Memory required for data: 1401345500
I0817 16:07:12.712028 17621 layer_factory.hpp:77] Creating layer L3_b7_sum_eltwise
I0817 16:07:12.712036 17621 net.cpp:100] Creating Layer L3_b7_sum_eltwise
I0817 16:07:12.712043 17621 net.cpp:434] L3_b7_sum_eltwise <- L3_b7_cbr2_bn_top
I0817 16:07:12.712049 17621 net.cpp:434] L3_b7_sum_eltwise <- L3_b6_sum_eltwise_top_L3_b6_relu_0_split_1
I0817 16:07:12.712057 17621 net.cpp:408] L3_b7_sum_eltwise -> L3_b7_sum_eltwise_top
I0817 16:07:12.712093 17621 net.cpp:150] Setting up L3_b7_sum_eltwise
I0817 16:07:12.712105 17621 net.cpp:157] Top shape: 125 64 8 8 (512000)
I0817 16:07:12.712110 17621 net.cpp:165] Memory required for data: 1403393500
I0817 16:07:12.712116 17621 layer_factory.hpp:77] Creating layer L3_b7_relu
I0817 16:07:12.712123 17621 net.cpp:100] Creating Layer L3_b7_relu
I0817 16:07:12.712129 17621 net.cpp:434] L3_b7_relu <- L3_b7_sum_eltwise_top
I0817 16:07:12.712136 17621 net.cpp:395] L3_b7_relu -> L3_b7_sum_eltwise_top (in-place)
I0817 16:07:12.712146 17621 net.cpp:150] Setting up L3_b7_relu
I0817 16:07:12.712152 17621 net.cpp:157] Top shape: 125 64 8 8 (512000)
I0817 16:07:12.712157 17621 net.cpp:165] Memory required for data: 1405441500
I0817 16:07:12.712162 17621 layer_factory.hpp:77] Creating layer L3_b7_sum_eltwise_top_L3_b7_relu_0_split
I0817 16:07:12.712168 17621 net.cpp:100] Creating Layer L3_b7_sum_eltwise_top_L3_b7_relu_0_split
I0817 16:07:12.712173 17621 net.cpp:434] L3_b7_sum_eltwise_top_L3_b7_relu_0_split <- L3_b7_sum_eltwise_top
I0817 16:07:12.712185 17621 net.cpp:408] L3_b7_sum_eltwise_top_L3_b7_relu_0_split -> L3_b7_sum_eltwise_top_L3_b7_relu_0_split_0
I0817 16:07:12.712195 17621 net.cpp:408] L3_b7_sum_eltwise_top_L3_b7_relu_0_split -> L3_b7_sum_eltwise_top_L3_b7_relu_0_split_1
I0817 16:07:12.712240 17621 net.cpp:150] Setting up L3_b7_sum_eltwise_top_L3_b7_relu_0_split
I0817 16:07:12.712255 17621 net.cpp:157] Top shape: 125 64 8 8 (512000)
I0817 16:07:12.712262 17621 net.cpp:157] Top shape: 125 64 8 8 (512000)
I0817 16:07:12.712267 17621 net.cpp:165] Memory required for data: 1409537500
I0817 16:07:12.712272 17621 layer_factory.hpp:77] Creating layer L3_b8_cbr1_conv
I0817 16:07:12.712283 17621 net.cpp:100] Creating Layer L3_b8_cbr1_conv
I0817 16:07:12.712290 17621 net.cpp:434] L3_b8_cbr1_conv <- L3_b7_sum_eltwise_top_L3_b7_relu_0_split_0
I0817 16:07:12.712298 17621 net.cpp:408] L3_b8_cbr1_conv -> L3_b8_cbr1_conv_top
I0817 16:07:12.713320 17621 net.cpp:150] Setting up L3_b8_cbr1_conv
I0817 16:07:12.713335 17621 net.cpp:157] Top shape: 125 64 8 8 (512000)
I0817 16:07:12.713340 17621 net.cpp:165] Memory required for data: 1411585500
I0817 16:07:12.713349 17621 layer_factory.hpp:77] Creating layer L3_b8_cbr1_bn
I0817 16:07:12.713361 17621 net.cpp:100] Creating Layer L3_b8_cbr1_bn
I0817 16:07:12.713368 17621 net.cpp:434] L3_b8_cbr1_bn <- L3_b8_cbr1_conv_top
I0817 16:07:12.713376 17621 net.cpp:408] L3_b8_cbr1_bn -> L3_b8_cbr1_bn_top
I0817 16:07:12.713639 17621 net.cpp:150] Setting up L3_b8_cbr1_bn
I0817 16:07:12.713652 17621 net.cpp:157] Top shape: 125 64 8 8 (512000)
I0817 16:07:12.713657 17621 net.cpp:165] Memory required for data: 1413633500
I0817 16:07:12.713675 17621 layer_factory.hpp:77] Creating layer L3_b8_cbr1_scale
I0817 16:07:12.713688 17621 net.cpp:100] Creating Layer L3_b8_cbr1_scale
I0817 16:07:12.713696 17621 net.cpp:434] L3_b8_cbr1_scale <- L3_b8_cbr1_bn_top
I0817 16:07:12.713703 17621 net.cpp:395] L3_b8_cbr1_scale -> L3_b8_cbr1_bn_top (in-place)
I0817 16:07:12.713770 17621 layer_factory.hpp:77] Creating layer L3_b8_cbr1_scale
I0817 16:07:12.713928 17621 net.cpp:150] Setting up L3_b8_cbr1_scale
I0817 16:07:12.713942 17621 net.cpp:157] Top shape: 125 64 8 8 (512000)
I0817 16:07:12.713946 17621 net.cpp:165] Memory required for data: 1415681500
I0817 16:07:12.713956 17621 layer_factory.hpp:77] Creating layer L3_b8_cbr1_relu
I0817 16:07:12.713966 17621 net.cpp:100] Creating Layer L3_b8_cbr1_relu
I0817 16:07:12.713973 17621 net.cpp:434] L3_b8_cbr1_relu <- L3_b8_cbr1_bn_top
I0817 16:07:12.713984 17621 net.cpp:395] L3_b8_cbr1_relu -> L3_b8_cbr1_bn_top (in-place)
I0817 16:07:12.713994 17621 net.cpp:150] Setting up L3_b8_cbr1_relu
I0817 16:07:12.714000 17621 net.cpp:157] Top shape: 125 64 8 8 (512000)
I0817 16:07:12.714005 17621 net.cpp:165] Memory required for data: 1417729500
I0817 16:07:12.714010 17621 layer_factory.hpp:77] Creating layer L3_b8_cbr2_conv
I0817 16:07:12.714021 17621 net.cpp:100] Creating Layer L3_b8_cbr2_conv
I0817 16:07:12.714027 17621 net.cpp:434] L3_b8_cbr2_conv <- L3_b8_cbr1_bn_top
I0817 16:07:12.714041 17621 net.cpp:408] L3_b8_cbr2_conv -> L3_b8_cbr2_conv_top
I0817 16:07:12.715054 17621 net.cpp:150] Setting up L3_b8_cbr2_conv
I0817 16:07:12.715068 17621 net.cpp:157] Top shape: 125 64 8 8 (512000)
I0817 16:07:12.715073 17621 net.cpp:165] Memory required for data: 1419777500
I0817 16:07:12.715082 17621 layer_factory.hpp:77] Creating layer L3_b8_cbr2_bn
I0817 16:07:12.715096 17621 net.cpp:100] Creating Layer L3_b8_cbr2_bn
I0817 16:07:12.715103 17621 net.cpp:434] L3_b8_cbr2_bn <- L3_b8_cbr2_conv_top
I0817 16:07:12.715112 17621 net.cpp:408] L3_b8_cbr2_bn -> L3_b8_cbr2_bn_top
I0817 16:07:12.715376 17621 net.cpp:150] Setting up L3_b8_cbr2_bn
I0817 16:07:12.715389 17621 net.cpp:157] Top shape: 125 64 8 8 (512000)
I0817 16:07:12.715394 17621 net.cpp:165] Memory required for data: 1421825500
I0817 16:07:12.715404 17621 layer_factory.hpp:77] Creating layer L3_b8_cbr2_scale
I0817 16:07:12.715414 17621 net.cpp:100] Creating Layer L3_b8_cbr2_scale
I0817 16:07:12.715420 17621 net.cpp:434] L3_b8_cbr2_scale <- L3_b8_cbr2_bn_top
I0817 16:07:12.715427 17621 net.cpp:395] L3_b8_cbr2_scale -> L3_b8_cbr2_bn_top (in-place)
I0817 16:07:12.715487 17621 layer_factory.hpp:77] Creating layer L3_b8_cbr2_scale
I0817 16:07:12.715642 17621 net.cpp:150] Setting up L3_b8_cbr2_scale
I0817 16:07:12.715659 17621 net.cpp:157] Top shape: 125 64 8 8 (512000)
I0817 16:07:12.715664 17621 net.cpp:165] Memory required for data: 1423873500
I0817 16:07:12.715673 17621 layer_factory.hpp:77] Creating layer L3_b8_sum_eltwise
I0817 16:07:12.715682 17621 net.cpp:100] Creating Layer L3_b8_sum_eltwise
I0817 16:07:12.715689 17621 net.cpp:434] L3_b8_sum_eltwise <- L3_b8_cbr2_bn_top
I0817 16:07:12.715697 17621 net.cpp:434] L3_b8_sum_eltwise <- L3_b7_sum_eltwise_top_L3_b7_relu_0_split_1
I0817 16:07:12.715704 17621 net.cpp:408] L3_b8_sum_eltwise -> L3_b8_sum_eltwise_top
I0817 16:07:12.715739 17621 net.cpp:150] Setting up L3_b8_sum_eltwise
I0817 16:07:12.715757 17621 net.cpp:157] Top shape: 125 64 8 8 (512000)
I0817 16:07:12.715762 17621 net.cpp:165] Memory required for data: 1425921500
I0817 16:07:12.715768 17621 layer_factory.hpp:77] Creating layer L3_b8_relu
I0817 16:07:12.715776 17621 net.cpp:100] Creating Layer L3_b8_relu
I0817 16:07:12.715782 17621 net.cpp:434] L3_b8_relu <- L3_b8_sum_eltwise_top
I0817 16:07:12.715790 17621 net.cpp:395] L3_b8_relu -> L3_b8_sum_eltwise_top (in-place)
I0817 16:07:12.715798 17621 net.cpp:150] Setting up L3_b8_relu
I0817 16:07:12.715806 17621 net.cpp:157] Top shape: 125 64 8 8 (512000)
I0817 16:07:12.715811 17621 net.cpp:165] Memory required for data: 1427969500
I0817 16:07:12.715816 17621 layer_factory.hpp:77] Creating layer L3_b8_sum_eltwise_top_L3_b8_relu_0_split
I0817 16:07:12.715832 17621 net.cpp:100] Creating Layer L3_b8_sum_eltwise_top_L3_b8_relu_0_split
I0817 16:07:12.715838 17621 net.cpp:434] L3_b8_sum_eltwise_top_L3_b8_relu_0_split <- L3_b8_sum_eltwise_top
I0817 16:07:12.715847 17621 net.cpp:408] L3_b8_sum_eltwise_top_L3_b8_relu_0_split -> L3_b8_sum_eltwise_top_L3_b8_relu_0_split_0
I0817 16:07:12.715857 17621 net.cpp:408] L3_b8_sum_eltwise_top_L3_b8_relu_0_split -> L3_b8_sum_eltwise_top_L3_b8_relu_0_split_1
I0817 16:07:12.715903 17621 net.cpp:150] Setting up L3_b8_sum_eltwise_top_L3_b8_relu_0_split
I0817 16:07:12.715917 17621 net.cpp:157] Top shape: 125 64 8 8 (512000)
I0817 16:07:12.715925 17621 net.cpp:157] Top shape: 125 64 8 8 (512000)
I0817 16:07:12.715929 17621 net.cpp:165] Memory required for data: 1432065500
I0817 16:07:12.715935 17621 layer_factory.hpp:77] Creating layer L3_b9_cbr1_conv
I0817 16:07:12.715946 17621 net.cpp:100] Creating Layer L3_b9_cbr1_conv
I0817 16:07:12.715952 17621 net.cpp:434] L3_b9_cbr1_conv <- L3_b8_sum_eltwise_top_L3_b8_relu_0_split_0
I0817 16:07:12.715962 17621 net.cpp:408] L3_b9_cbr1_conv -> L3_b9_cbr1_conv_top
I0817 16:07:12.717957 17621 net.cpp:150] Setting up L3_b9_cbr1_conv
I0817 16:07:12.717973 17621 net.cpp:157] Top shape: 125 64 8 8 (512000)
I0817 16:07:12.717979 17621 net.cpp:165] Memory required for data: 1434113500
I0817 16:07:12.717989 17621 layer_factory.hpp:77] Creating layer L3_b9_cbr1_bn
I0817 16:07:12.718001 17621 net.cpp:100] Creating Layer L3_b9_cbr1_bn
I0817 16:07:12.718009 17621 net.cpp:434] L3_b9_cbr1_bn <- L3_b9_cbr1_conv_top
I0817 16:07:12.718020 17621 net.cpp:408] L3_b9_cbr1_bn -> L3_b9_cbr1_bn_top
I0817 16:07:12.718282 17621 net.cpp:150] Setting up L3_b9_cbr1_bn
I0817 16:07:12.718296 17621 net.cpp:157] Top shape: 125 64 8 8 (512000)
I0817 16:07:12.718300 17621 net.cpp:165] Memory required for data: 1436161500
I0817 16:07:12.718312 17621 layer_factory.hpp:77] Creating layer L3_b9_cbr1_scale
I0817 16:07:12.718320 17621 net.cpp:100] Creating Layer L3_b9_cbr1_scale
I0817 16:07:12.718327 17621 net.cpp:434] L3_b9_cbr1_scale <- L3_b9_cbr1_bn_top
I0817 16:07:12.718338 17621 net.cpp:395] L3_b9_cbr1_scale -> L3_b9_cbr1_bn_top (in-place)
I0817 16:07:12.718395 17621 layer_factory.hpp:77] Creating layer L3_b9_cbr1_scale
I0817 16:07:12.718554 17621 net.cpp:150] Setting up L3_b9_cbr1_scale
I0817 16:07:12.718569 17621 net.cpp:157] Top shape: 125 64 8 8 (512000)
I0817 16:07:12.718574 17621 net.cpp:165] Memory required for data: 1438209500
I0817 16:07:12.718582 17621 layer_factory.hpp:77] Creating layer L3_b9_cbr1_relu
I0817 16:07:12.718590 17621 net.cpp:100] Creating Layer L3_b9_cbr1_relu
I0817 16:07:12.718596 17621 net.cpp:434] L3_b9_cbr1_relu <- L3_b9_cbr1_bn_top
I0817 16:07:12.718607 17621 net.cpp:395] L3_b9_cbr1_relu -> L3_b9_cbr1_bn_top (in-place)
I0817 16:07:12.718617 17621 net.cpp:150] Setting up L3_b9_cbr1_relu
I0817 16:07:12.718624 17621 net.cpp:157] Top shape: 125 64 8 8 (512000)
I0817 16:07:12.718628 17621 net.cpp:165] Memory required for data: 1440257500
I0817 16:07:12.718633 17621 layer_factory.hpp:77] Creating layer L3_b9_cbr2_conv
I0817 16:07:12.718648 17621 net.cpp:100] Creating Layer L3_b9_cbr2_conv
I0817 16:07:12.718654 17621 net.cpp:434] L3_b9_cbr2_conv <- L3_b9_cbr1_bn_top
I0817 16:07:12.718663 17621 net.cpp:408] L3_b9_cbr2_conv -> L3_b9_cbr2_conv_top
I0817 16:07:12.719684 17621 net.cpp:150] Setting up L3_b9_cbr2_conv
I0817 16:07:12.719699 17621 net.cpp:157] Top shape: 125 64 8 8 (512000)
I0817 16:07:12.719704 17621 net.cpp:165] Memory required for data: 1442305500
I0817 16:07:12.719713 17621 layer_factory.hpp:77] Creating layer L3_b9_cbr2_bn
I0817 16:07:12.719725 17621 net.cpp:100] Creating Layer L3_b9_cbr2_bn
I0817 16:07:12.719733 17621 net.cpp:434] L3_b9_cbr2_bn <- L3_b9_cbr2_conv_top
I0817 16:07:12.719741 17621 net.cpp:408] L3_b9_cbr2_bn -> L3_b9_cbr2_bn_top
I0817 16:07:12.720015 17621 net.cpp:150] Setting up L3_b9_cbr2_bn
I0817 16:07:12.720028 17621 net.cpp:157] Top shape: 125 64 8 8 (512000)
I0817 16:07:12.720033 17621 net.cpp:165] Memory required for data: 1444353500
I0817 16:07:12.720052 17621 layer_factory.hpp:77] Creating layer L3_b9_cbr2_scale
I0817 16:07:12.720064 17621 net.cpp:100] Creating Layer L3_b9_cbr2_scale
I0817 16:07:12.720072 17621 net.cpp:434] L3_b9_cbr2_scale <- L3_b9_cbr2_bn_top
I0817 16:07:12.720079 17621 net.cpp:395] L3_b9_cbr2_scale -> L3_b9_cbr2_bn_top (in-place)
I0817 16:07:12.720140 17621 layer_factory.hpp:77] Creating layer L3_b9_cbr2_scale
I0817 16:07:12.720296 17621 net.cpp:150] Setting up L3_b9_cbr2_scale
I0817 16:07:12.720309 17621 net.cpp:157] Top shape: 125 64 8 8 (512000)
I0817 16:07:12.720314 17621 net.cpp:165] Memory required for data: 1446401500
I0817 16:07:12.720324 17621 layer_factory.hpp:77] Creating layer L3_b9_sum_eltwise
I0817 16:07:12.720333 17621 net.cpp:100] Creating Layer L3_b9_sum_eltwise
I0817 16:07:12.720340 17621 net.cpp:434] L3_b9_sum_eltwise <- L3_b9_cbr2_bn_top
I0817 16:07:12.720346 17621 net.cpp:434] L3_b9_sum_eltwise <- L3_b8_sum_eltwise_top_L3_b8_relu_0_split_1
I0817 16:07:12.720357 17621 net.cpp:408] L3_b9_sum_eltwise -> L3_b9_sum_eltwise_top
I0817 16:07:12.720391 17621 net.cpp:150] Setting up L3_b9_sum_eltwise
I0817 16:07:12.720402 17621 net.cpp:157] Top shape: 125 64 8 8 (512000)
I0817 16:07:12.720407 17621 net.cpp:165] Memory required for data: 1448449500
I0817 16:07:12.720413 17621 layer_factory.hpp:77] Creating layer L3_b9_relu
I0817 16:07:12.720425 17621 net.cpp:100] Creating Layer L3_b9_relu
I0817 16:07:12.720432 17621 net.cpp:434] L3_b9_relu <- L3_b9_sum_eltwise_top
I0817 16:07:12.720439 17621 net.cpp:395] L3_b9_relu -> L3_b9_sum_eltwise_top (in-place)
I0817 16:07:12.720449 17621 net.cpp:150] Setting up L3_b9_relu
I0817 16:07:12.720456 17621 net.cpp:157] Top shape: 125 64 8 8 (512000)
I0817 16:07:12.720460 17621 net.cpp:165] Memory required for data: 1450497500
I0817 16:07:12.720465 17621 layer_factory.hpp:77] Creating layer post_pool
I0817 16:07:12.720474 17621 net.cpp:100] Creating Layer post_pool
I0817 16:07:12.720479 17621 net.cpp:434] post_pool <- L3_b9_sum_eltwise_top
I0817 16:07:12.720487 17621 net.cpp:408] post_pool -> post_pool
I0817 16:07:12.720525 17621 net.cpp:150] Setting up post_pool
I0817 16:07:12.720535 17621 net.cpp:157] Top shape: 125 64 1 1 (8000)
I0817 16:07:12.720540 17621 net.cpp:165] Memory required for data: 1450529500
I0817 16:07:12.720544 17621 layer_factory.hpp:77] Creating layer post_FC
I0817 16:07:12.720630 17621 net.cpp:100] Creating Layer post_FC
I0817 16:07:12.720643 17621 net.cpp:434] post_FC <- post_pool
I0817 16:07:12.720652 17621 net.cpp:408] post_FC -> post_FC_top
I0817 16:07:12.720904 17621 net.cpp:150] Setting up post_FC
I0817 16:07:12.720921 17621 net.cpp:157] Top shape: 125 10 (1250)
I0817 16:07:12.720926 17621 net.cpp:165] Memory required for data: 1450534500
I0817 16:07:12.720935 17621 layer_factory.hpp:77] Creating layer post_FC_top_post_FC_0_split
I0817 16:07:12.720943 17621 net.cpp:100] Creating Layer post_FC_top_post_FC_0_split
I0817 16:07:12.720949 17621 net.cpp:434] post_FC_top_post_FC_0_split <- post_FC_top
I0817 16:07:12.720960 17621 net.cpp:408] post_FC_top_post_FC_0_split -> post_FC_top_post_FC_0_split_0
I0817 16:07:12.720971 17621 net.cpp:408] post_FC_top_post_FC_0_split -> post_FC_top_post_FC_0_split_1
I0817 16:07:12.721019 17621 net.cpp:150] Setting up post_FC_top_post_FC_0_split
I0817 16:07:12.721030 17621 net.cpp:157] Top shape: 125 10 (1250)
I0817 16:07:12.721037 17621 net.cpp:157] Top shape: 125 10 (1250)
I0817 16:07:12.721041 17621 net.cpp:165] Memory required for data: 1450544500
I0817 16:07:12.721046 17621 layer_factory.hpp:77] Creating layer accuracy
I0817 16:07:12.721092 17621 net.cpp:100] Creating Layer accuracy
I0817 16:07:12.721104 17621 net.cpp:434] accuracy <- post_FC_top_post_FC_0_split_0
I0817 16:07:12.721112 17621 net.cpp:434] accuracy <- label_dataLayer_1_split_0
I0817 16:07:12.721119 17621 net.cpp:408] accuracy -> accuracy
…
