…
I0821 06:46:14.358075 32352 net.cpp:322] The NetState phase (0) differed from the phase (1) specified by a rule in layer L3_b9_cbr2_bn
I0821 06:46:14.359838 32352 net.cpp:58] Initializing net from parameters: 
name: "Cifar-Resnet"
state {
  phase: TRAIN
  level: 0
  stage: ""
}
layer {
  name: "dataLayer"
  type: "Data"
  top: "data_top"
  top: "label"
  include {
    phase: TRAIN
  }
  transform_param {
    mirror: true
    crop_size: 32
    mean_file: "examples/cifar10/mean.binaryproto"
  }
  data_param {
    source: "examples/cifar10/cifar10_train_lmdb"
    batch_size: 125
    backend: LMDB
  }
  image_data_param {
    shuffle: true
  }
}
layer {
  name: "pre_conv"
  type: "Convolution"
  bottom: "data_top"
  top: "pre_conv_top"
  param {
    lr_mult: 1
    decay_mult: 1
  }
  param {
    lr_mult: 2
    decay_mult: 0
  }
  convolution_param {
    num_output: 16
    pad: 1
    kernel_size: 3
    stride: 1
    weight_filler {
      type: "msra"
    }
    bias_filler {
      type: "constant"
    }
  }
}
layer {
  name: "pre_bn"
  type: "BatchNorm"
  bottom: "pre_conv_top"
  top: "pre_bn_top"
  include {
    phase: TRAIN
  }
  batch_norm_param {
    use_global_stats: false
    moving_average_fraction: 0.95
  }
}
layer {
  name: "pre_scale"
  type: "Scale"
  bottom: "pre_bn_top"
  top: "pre_bn_top"
  scale_param {
    bias_term: true
  }
}
layer {
  name: "pre_relu"
  type: "ReLU"
  bottom: "pre_bn_top"
  top: "pre_bn_top"
}
layer {
  name: "L1_b1_cbr1_conv"
  type: "Convolution"
  bottom: "pre_bn_top"
  top: "L1_b1_cbr1_conv_top"
  param {
    lr_mult: 1
    decay_mult: 1
  }
  param {
    lr_mult: 2
    decay_mult: 0
  }
  convolution_param {
    num_output: 16
    pad: 1
    kernel_size: 3
    stride: 1
    weight_filler {
      type: "msra"
    }
    bias_filler {
      type: "constant"
    }
  }
}
layer {
  name: "L1_b1_cbr1_bn"
  type: "BatchNorm"
  bottom: "L1_b1_cbr1_conv_top"
  top: "L1_b1_cbr1_bn_top"
  include {
    phase: TRAIN
  }
  batch_norm_param {
    use_global_stats: false
    moving_average_fraction: 0.95
  }
}
layer {
  name: "L1_b1_cbr1_scale"
  type: "Scale"
  bottom: "L1_b1_cbr1_bn_top"
  top: "L1_b1_cbr1_bn_top"
  scale_param {
    bias_term: true
  }
}
layer {
  name: "L1_b1_cbr1_relu"
  type: "ReLU"
  bottom: "L1_b1_cbr1_bn_top"
  top: "L1_b1_cbr1_bn_top"
}
layer {
  name: "L1_b1_cbr2_conv"
  type: "Convolution"
  bottom: "L1_b1_cbr1_bn_top"
  top: "L1_b1_cbr2_conv_top"
  param {
    lr_mult: 1
    decay_mult: 1
  }
  param {
    lr_mult: 2
    decay_mult: 0
  }
  convolution_param {
    num_output: 16
    pad: 1
    kernel_size: 3
    stride: 1
    weight_filler {
      type: "msra"
    }
    bias_filler {
      type: "constant"
    }
  }
}
layer {
  name: "L1_b1_cbr2_bn"
  type: "BatchNorm"
  bottom: "L1_b1_cbr2_conv_top"
  top: "L1_b1_cbr2_bn_top"
  include {
    phase: TRAIN
  }
  batch_norm_param {
    use_global_stats: false
    moving_average_fraction: 0.95
  }
}
layer {
  name: "L1_b1_cbr2_scale"
  type: "Scale"
  bottom: "L1_b1_cbr2_bn_top"
  top: "L1_b1_cbr2_bn_top"
  scale_param {
    bias_term: true
  }
}
layer {
  name: "L1_b1_sum_eltwise"
  type: "Eltwise"
  bottom: "L1_b1_cbr2_bn_top"
  bottom: "pre_bn_top"
  top: "L1_b1_sum_eltwise_top"
  eltwise_param {
    operation: SUM
  }
}
layer {
  name: "L1_b1_relu"
  type: "ReLU"
  bottom: "L1_b1_sum_eltwise_top"
  top: "L1_b1_sum_eltwise_top"
}
layer {
  name: "L1_b2_cbr1_conv"
  type: "Convolution"
  bottom: "L1_b1_sum_eltwise_top"
  top: "L1_b2_cbr1_conv_top"
  param {
    lr_mult: 1
    decay_mult: 1
  }
  param {
    lr_mult: 2
    decay_mult: 0
  }
  convolution_param {
    num_output: 16
    pad: 1
    kernel_size: 3
    stride: 1
    weight_filler {
      type: "msra"
    }
    bias_filler {
      type: "constant"
    }
  }
}
layer {
  name: "L1_b2_cbr1_bn"
  type: "BatchNorm"
  bottom: "L1_b2_cbr1_conv_top"
  top: "L1_b2_cbr1_bn_top"
  include {
    phase: TRAIN
  }
  batch_norm_param {
    use_global_stats: false
    moving_average_fraction: 0.95
  }
}
layer {
  name: "L1_b2_cbr1_scale"
  type: "Scale"
  bottom: "L1_b2_cbr1_bn_top"
  top: "L1_b2_cbr1_bn_top"
  scale_param {
    bias_term: true
  }
}
layer {
  name: "L1_b2_cbr1_relu"
  type: "ReLU"
  bottom: "L1_b2_cbr1_bn_top"
  top: "L1_b2_cbr1_bn_top"
}
layer {
  name: "L1_b2_cbr2_conv"
  type: "Convolution"
  bottom: "L1_b2_cbr1_bn_top"
  top: "L1_b2_cbr2_conv_top"
  param {
    lr_mult: 1
    decay_mult: 1
  }
  param {
    lr_mult: 2
    decay_mult: 0
  }
  convolution_param {
    num_output: 16
    pad: 1
    kernel_size: 3
    stride: 1
    weight_filler {
      type: "msra"
    }
    bias_filler {
      type: "constant"
    }
  }
}
layer {
  name: "L1_b2_cbr2_bn"
  type: "BatchNorm"
  bottom: "L1_b2_cbr2_conv_top"
  top: "L1_b2_cbr2_bn_top"
  include {
    phase: TRAIN
  }
  batch_norm_param {
    use_global_stats: false
    moving_average_fraction: 0.95
  }
}
layer {
  name: "L1_b2_cbr2_scale"
  type: "Scale"
  bottom: "L1_b2_cbr2_bn_top"
  top: "L1_b2_cbr2_bn_top"
  scale_param {
    bias_term: true
  }
}
layer {
  name: "L1_b2_sum_eltwise"
  type: "Eltwise"
  bottom: "L1_b2_cbr2_bn_top"
  bottom: "L1_b1_sum_eltwise_top"
  top: "L1_b2_sum_eltwise_top"
  eltwise_param {
    operation: SUM
  }
}
layer {
  name: "L1_b2_relu"
  type: "ReLU"
  bottom: "L1_b2_sum_eltwise_top"
  top: "L1_b2_sum_eltwise_top"
}
layer {
  name: "L1_b3_cbr1_conv"
  type: "Convolution"
  bottom: "L1_b2_sum_eltwise_top"
  top: "L1_b3_cbr1_conv_top"
  param {
    lr_mult: 1
    decay_mult: 1
  }
  param {
    lr_mult: 2
    decay_mult: 0
  }
  convolution_param {
    num_output: 16
    pad: 1
    kernel_size: 3
    stride: 1
    weight_filler {
      type: "msra"
    }
    bias_filler {
      type: "constant"
    }
  }
}
layer {
  name: "L1_b3_cbr1_bn"
  type: "BatchNorm"
  bottom: "L1_b3_cbr1_conv_top"
  top: "L1_b3_cbr1_bn_top"
  include {
    phase: TRAIN
  }
  batch_norm_param {
    use_global_stats: false
    moving_average_fraction: 0.95
  }
}
layer {
  name: "L1_b3_cbr1_scale"
  type: "Scale"
  bottom: "L1_b3_cbr1_bn_top"
  top: "L1_b3_cbr1_bn_top"
  scale_param {
    bias_term: true
  }
}
layer {
  name: "L1_b3_cbr1_relu"
  type: "ReLU"
  bottom: "L1_b3_cbr1_bn_top"
  top: "L1_b3_cbr1_bn_top"
}
layer {
  name: "L1_b3_cbr2_conv"
  type: "Convolution"
  bottom: "L1_b3_cbr1_bn_top"
  top: "L1_b3_cbr2_conv_top"
  param {
    lr_mult: 1
    decay_mult: 1
  }
  param {
    lr_mult: 2
    decay_mult: 0
  }
  convolution_param {
    num_output: 16
    pad: 1
    kernel_size: 3
    stride: 1
    weight_filler {
      type: "msra"
    }
    bias_filler {
      type: "constant"
    }
  }
}
layer {
  name: "L1_b3_cbr2_bn"
  type: "BatchNorm"
  bottom: "L1_b3_cbr2_conv_top"
  top: "L1_b3_cbr2_bn_top"
  include {
    phase: TRAIN
  }
  batch_norm_param {
    use_global_stats: false
    moving_average_fraction: 0.95
  }
}
layer {
  name: "L1_b3_cbr2_scale"
  type: "Scale"
  bottom: "L1_b3_cbr2_bn_top"
  top: "L1_b3_cbr2_bn_top"
  scale_param {
    bias_term: true
  }
}
layer {
  name: "L1_b3_sum_eltwise"
  type: "Eltwise"
  bottom: "L1_b3_cbr2_bn_top"
  bottom: "L1_b2_sum_eltwise_top"
  top: "L1_b3_sum_eltwise_top"
  eltwise_param {
    operation: SUM
  }
}
layer {
  name: "L1_b3_relu"
  type: "ReLU"
  bottom: "L1_b3_sum_eltwise_top"
  top: "L1_b3_sum_eltwise_top"
}
layer {
  name: "L1_b4_cbr1_conv"
  type: "Convolution"
  bottom: "L1_b3_sum_eltwise_top"
  top: "L1_b4_cbr1_conv_top"
  param {
    lr_mult: 1
    decay_mult: 1
  }
  param {
    lr_mult: 2
    decay_mult: 0
  }
  convolution_param {
    num_output: 16
    pad: 1
    kernel_size: 3
    stride: 1
    weight_filler {
      type: "msra"
    }
    bias_filler {
      type: "constant"
    }
  }
}
layer {
  name: "L1_b4_cbr1_bn"
  type: "BatchNorm"
  bottom: "L1_b4_cbr1_conv_top"
  top: "L1_b4_cbr1_bn_top"
  include {
    phase: TRAIN
  }
  batch_norm_param {
    use_global_stats: false
    moving_average_fraction: 0.95
  }
}
layer {
  name: "L1_b4_cbr1_scale"
  type: "Scale"
  bottom: "L1_b4_cbr1_bn_top"
  top: "L1_b4_cbr1_bn_top"
  scale_param {
    bias_term: true
  }
}
layer {
  name: "L1_b4_cbr1_relu"
  type: "ReLU"
  bottom: "L1_b4_cbr1_bn_top"
  top: "L1_b4_cbr1_bn_top"
}
layer {
  name: "L1_b4_cbr2_conv"
  type: "Convolution"
  bottom: "L1_b4_cbr1_bn_top"
  top: "L1_b4_cbr2_conv_top"
  param {
    lr_mult: 1
    decay_mult: 1
  }
  param {
    lr_mult: 2
    decay_mult: 0
  }
  convolution_param {
    num_output: 16
    pad: 1
    kernel_size: 3
    stride: 1
    weight_filler {
      type: "msra"
    }
    bias_filler {
      type: "constant"
    }
  }
}
layer {
  name: "L1_b4_cbr2_bn"
  type: "BatchNorm"
  bottom: "L1_b4_cbr2_conv_top"
  top: "L1_b4_cbr2_bn_top"
  include {
    phase: TRAIN
  }
  batch_norm_param {
    use_global_stats: false
    moving_average_fraction: 0.95
  }
}
layer {
  name: "L1_b4_cbr2_scale"
  type: "Scale"
  bottom: "L1_b4_cbr2_bn_top"
  top: "L1_b4_cbr2_bn_top"
  scale_param {
    bias_term: true
  }
}
layer {
  name: "L1_b4_sum_eltwise"
  type: "Eltwise"
  bottom: "L1_b4_cbr2_bn_top"
  bottom: "L1_b3_sum_eltwise_top"
  top: "L1_b4_sum_eltwise_top"
  eltwise_param {
    operation: SUM
  }
}
layer {
  name: "L1_b4_relu"
  type: "ReLU"
  bottom: "L1_b4_sum_eltwise_top"
  top: "L1_b4_sum_eltwise_top"
}
layer {
  name: "L1_b5_cbr1_conv"
  type: "Convolution"
  bottom: "L1_b4_sum_eltwise_top"
  top: "L1_b5_cbr1_conv_top"
  param {
    lr_mult: 1
    decay_mult: 1
  }
  param {
    lr_mult: 2
    decay_mult: 0
  }
  convolution_param {
    num_output: 16
    pad: 1
    kernel_size: 3
    stride: 1
    weight_filler {
      type: "msra"
    }
    bias_filler {
      type: "constant"
    }
  }
}
layer {
  name: "L1_b5_cbr1_bn"
  type: "BatchNorm"
  bottom: "L1_b5_cbr1_conv_top"
  top: "L1_b5_cbr1_bn_top"
  include {
    phase: TRAIN
  }
  batch_norm_param {
    use_global_stats: false
    moving_average_fraction: 0.95
  }
}
layer {
  name: "L1_b5_cbr1_scale"
  type: "Scale"
  bottom: "L1_b5_cbr1_bn_top"
  top: "L1_b5_cbr1_bn_top"
  scale_param {
    bias_term: true
  }
}
layer {
  name: "L1_b5_cbr1_relu"
  type: "ReLU"
  bottom: "L1_b5_cbr1_bn_top"
  top: "L1_b5_cbr1_bn_top"
}
layer {
  name: "L1_b5_cbr2_conv"
  type: "Convolution"
  bottom: "L1_b5_cbr1_bn_top"
  top: "L1_b5_cbr2_conv_top"
  param {
    lr_mult: 1
    decay_mult: 1
  }
  param {
    lr_mult: 2
    decay_mult: 0
  }
  convolution_param {
    num_output: 16
    pad: 1
    kernel_size: 3
    stride: 1
    weight_filler {
      type: "msra"
    }
    bias_filler {
      type: "constant"
    }
  }
}
layer {
  name: "L1_b5_cbr2_bn"
  type: "BatchNorm"
  bottom: "L1_b5_cbr2_conv_top"
  top: "L1_b5_cbr2_bn_top"
  include {
    phase: TRAIN
  }
  batch_norm_param {
    use_global_stats: false
    moving_average_fraction: 0.95
  }
}
layer {
  name: "L1_b5_cbr2_scale"
  type: "Scale"
  bottom: "L1_b5_cbr2_bn_top"
  top: "L1_b5_cbr2_bn_top"
  scale_param {
    bias_term: true
  }
}
layer {
  name: "L1_b5_sum_eltwise"
  type: "Eltwise"
  bottom: "L1_b5_cbr2_bn_top"
  bottom: "L1_b4_sum_eltwise_top"
  top: "L1_b5_sum_eltwise_top"
  eltwise_param {
    operation: SUM
  }
}
layer {
  name: "L1_b5_relu"
  type: "ReLU"
  bottom: "L1_b5_sum_eltwise_top"
  top: "L1_b5_sum_eltwise_top"
}
layer {
  name: "L1_b6_cbr1_conv"
  type: "Convolution"
  bottom: "L1_b5_sum_eltwise_top"
  top: "L1_b6_cbr1_conv_top"
  param {
    lr_mult: 1
    decay_mult: 1
  }
  param {
    lr_mult: 2
    decay_mult: 0
  }
  convolution_param {
    num_output: 16
    pad: 1
    kernel_size: 3
    stride: 1
    weight_filler {
      type: "msra"
    }
    bias_filler {
      type: "constant"
    }
  }
}
layer {
  name: "L1_b6_cbr1_bn"
  type: "BatchNorm"
  bottom: "L1_b6_cbr1_conv_top"
  top: "L1_b6_cbr1_bn_top"
  include {
    phase: TRAIN
  }
  batch_norm_param {
    use_global_stats: false
    moving_average_fraction: 0.95
  }
}
layer {
  name: "L1_b6_cbr1_scale"
  type: "Scale"
  bottom: "L1_b6_cbr1_bn_top"
  top: "L1_b6_cbr1_bn_top"
  scale_param {
    bias_term: true
  }
}
layer {
  name: "L1_b6_cbr1_relu"
  type: "ReLU"
  bottom: "L1_b6_cbr1_bn_top"
  top: "L1_b6_cbr1_bn_top"
}
layer {
  name: "L1_b6_cbr2_conv"
  type: "Convolution"
  bottom: "L1_b6_cbr1_bn_top"
  top: "L1_b6_cbr2_conv_top"
  param {
    lr_mult: 1
    decay_mult: 1
  }
  param {
    lr_mult: 2
    decay_mult: 0
  }
  convolution_param {
    num_output: 16
    pad: 1
    kernel_size: 3
    stride: 1
    weight_filler {
      type: "msra"
    }
    bias_filler {
      type: "constant"
    }
  }
}
layer {
  name: "L1_b6_cbr2_bn"
  type: "BatchNorm"
  bottom: "L1_b6_cbr2_conv_top"
  top: "L1_b6_cbr2_bn_top"
  include {
    phase: TRAIN
  }
  batch_norm_param {
    use_global_stats: false
    moving_average_fraction: 0.95
  }
}
layer {
  name: "L1_b6_cbr2_scale"
  type: "Scale"
  bottom: "L1_b6_cbr2_bn_top"
  top: "L1_b6_cbr2_bn_top"
  scale_param {
    bias_term: true
  }
}
layer {
  name: "L1_b6_sum_eltwise"
  type: "Eltwise"
  bottom: "L1_b6_cbr2_bn_top"
  bottom: "L1_b5_sum_eltwise_top"
  top: "L1_b6_sum_eltwise_top"
  eltwise_param {
    operation: SUM
  }
}
layer {
  name: "L1_b6_relu"
  type: "ReLU"
  bottom: "L1_b6_sum_eltwise_top"
  top: "L1_b6_sum_eltwise_top"
}
layer {
  name: "L1_b7_cbr1_conv"
  type: "Convolution"
  bottom: "L1_b6_sum_eltwise_top"
  top: "L1_b7_cbr1_conv_top"
  param {
    lr_mult: 1
    decay_mult: 1
  }
  param {
    lr_mult: 2
    decay_mult: 0
  }
  convolution_param {
    num_output: 16
    pad: 1
    kernel_size: 3
    stride: 1
    weight_filler {
      type: "msra"
    }
    bias_filler {
      type: "constant"
    }
  }
}
layer {
  name: "L1_b7_cbr1_bn"
  type: "BatchNorm"
  bottom: "L1_b7_cbr1_conv_top"
  top: "L1_b7_cbr1_bn_top"
  include {
    phase: TRAIN
  }
  batch_norm_param {
    use_global_stats: false
    moving_average_fraction: 0.95
  }
}
layer {
  name: "L1_b7_cbr1_scale"
  type: "Scale"
  bottom: "L1_b7_cbr1_bn_top"
  top: "L1_b7_cbr1_bn_top"
  scale_param {
    bias_term: true
  }
}
layer {
  name: "L1_b7_cbr1_relu"
  type: "ReLU"
  bottom: "L1_b7_cbr1_bn_top"
  top: "L1_b7_cbr1_bn_top"
}
layer {
  name: "L1_b7_cbr2_conv"
  type: "Convolution"
  bottom: "L1_b7_cbr1_bn_top"
  top: "L1_b7_cbr2_conv_top"
  param {
    lr_mult: 1
    decay_mult: 1
  }
  param {
    lr_mult: 2
    decay_mult: 0
  }
  convolution_param {
    num_output: 16
    pad: 1
    kernel_size: 3
    stride: 1
    weight_filler {
      type: "msra"
    }
    bias_filler {
      type: "constant"
    }
  }
}
layer {
  name: "L1_b7_cbr2_bn"
  type: "BatchNorm"
  bottom: "L1_b7_cbr2_conv_top"
  top: "L1_b7_cbr2_bn_top"
  include {
    phase: TRAIN
  }
  batch_norm_param {
    use_global_stats: false
    moving_average_fraction: 0.95
  }
}
layer {
  name: "L1_b7_cbr2_scale"
  type: "Scale"
  bottom: "L1_b7_cbr2_bn_top"
  top: "L1_b7_cbr2_bn_top"
  scale_param {
    bias_term: true
  }
}
layer {
  name: "L1_b7_sum_eltwise"
  type: "Eltwise"
  bottom: "L1_b7_cbr2_bn_top"
  bottom: "L1_b6_sum_eltwise_top"
  top: "L1_b7_sum_eltwise_top"
  eltwise_param {
    operation: SUM
  }
}
layer {
  name: "L1_b7_relu"
  type: "ReLU"
  bottom: "L1_b7_sum_eltwise_top"
  top: "L1_b7_sum_eltwise_top"
}
layer {
  name: "L1_b8_cbr1_conv"
  type: "Convolution"
  bottom: "L1_b7_sum_eltwise_top"
  top: "L1_b8_cbr1_conv_top"
  param {
    lr_mult: 1
    decay_mult: 1
  }
  param {
    lr_mult: 2
    decay_mult: 0
  }
  convolution_param {
    num_output: 16
    pad: 1
    kernel_size: 3
    stride: 1
    weight_filler {
      type: "msra"
    }
    bias_filler {
      type: "constant"
    }
  }
}
layer {
  name: "L1_b8_cbr1_bn"
  type: "BatchNorm"
  bottom: "L1_b8_cbr1_conv_top"
  top: "L1_b8_cbr1_bn_top"
  include {
    phase: TRAIN
  }
  batch_norm_param {
    use_global_stats: false
    moving_average_fraction: 0.95
  }
}
layer {
  name: "L1_b8_cbr1_scale"
  type: "Scale"
  bottom: "L1_b8_cbr1_bn_top"
  top: "L1_b8_cbr1_bn_top"
  scale_param {
    bias_term: true
  }
}
layer {
  name: "L1_b8_cbr1_relu"
  type: "ReLU"
  bottom: "L1_b8_cbr1_bn_top"
  top: "L1_b8_cbr1_bn_top"
}
layer {
  name: "L1_b8_cbr2_conv"
  type: "Convolution"
  bottom: "L1_b8_cbr1_bn_top"
  top: "L1_b8_cbr2_conv_top"
  param {
    lr_mult: 1
    decay_mult: 1
  }
  param {
    lr_mult: 2
    decay_mult: 0
  }
  convolution_param {
    num_output: 16
    pad: 1
    kernel_size: 3
    stride: 1
    weight_filler {
      type: "msra"
    }
    bias_filler {
      type: "constant"
    }
  }
}
layer {
  name: "L1_b8_cbr2_bn"
  type: "BatchNorm"
  bottom: "L1_b8_cbr2_conv_top"
  top: "L1_b8_cbr2_bn_top"
  include {
    phase: TRAIN
  }
  batch_norm_param {
    use_global_stats: false
    moving_average_fraction: 0.95
  }
}
layer {
  name: "L1_b8_cbr2_scale"
  type: "Scale"
  bottom: "L1_b8_cbr2_bn_top"
  top: "L1_b8_cbr2_bn_top"
  scale_param {
    bias_term: true
  }
}
layer {
  name: "L1_b8_sum_eltwise"
  type: "Eltwise"
  bottom: "L1_b8_cbr2_bn_top"
  bottom: "L1_b7_sum_eltwise_top"
  top: "L1_b8_sum_eltwise_top"
  eltwise_param {
    operation: SUM
  }
}
layer {
  name: "L1_b8_relu"
  type: "ReLU"
  bottom: "L1_b8_sum_eltwise_top"
  top: "L1_b8_sum_eltwise_top"
}
layer {
  name: "L1_b9_cbr1_conv"
  type: "Convolution"
  bottom: "L1_b8_sum_eltwise_top"
  top: "L1_b9_cbr1_conv_top"
  param {
    lr_mult: 1
    decay_mult: 1
  }
  param {
    lr_mult: 2
    decay_mult: 0
  }
  convolution_param {
    num_output: 16
    pad: 1
    kernel_size: 3
    stride: 1
    weight_filler {
      type: "msra"
    }
    bias_filler {
      type: "constant"
    }
  }
}
layer {
  name: "L1_b9_cbr1_bn"
  type: "BatchNorm"
  bottom: "L1_b9_cbr1_conv_top"
  top: "L1_b9_cbr1_bn_top"
  include {
    phase: TRAIN
  }
  batch_norm_param {
    use_global_stats: false
    moving_average_fraction: 0.95
  }
}
layer {
  name: "L1_b9_cbr1_scale"
  type: "Scale"
  bottom: "L1_b9_cbr1_bn_top"
  top: "L1_b9_cbr1_bn_top"
  scale_param {
    bias_term: true
  }
}
layer {
  name: "L1_b9_cbr1_relu"
  type: "ReLU"
  bottom: "L1_b9_cbr1_bn_top"
  top: "L1_b9_cbr1_bn_top"
}
layer {
  name: "L1_b9_cbr2_conv"
  type: "Convolution"
  bottom: "L1_b9_cbr1_bn_top"
  top: "L1_b9_cbr2_conv_top"
  param {
    lr_mult: 1
    decay_mult: 1
  }
  param {
    lr_mult: 2
    decay_mult: 0
  }
  convolution_param {
    num_output: 16
    pad: 1
    kernel_size: 3
    stride: 1
    weight_filler {
      type: "msra"
    }
    bias_filler {
      type: "constant"
    }
  }
}
layer {
  name: "L1_b9_cbr2_bn"
  type: "BatchNorm"
  bottom: "L1_b9_cbr2_conv_top"
  top: "L1_b9_cbr2_bn_top"
  include {
    phase: TRAIN
  }
  batch_norm_param {
    use_global_stats: false
    moving_average_fraction: 0.95
  }
}
layer {
  name: "L1_b9_cbr2_scale"
  type: "Scale"
  bottom: "L1_b9_cbr2_bn_top"
  top: "L1_b9_cbr2_bn_top"
  scale_param {
    bias_term: true
  }
}
layer {
  name: "L1_b9_sum_eltwise"
  type: "Eltwise"
  bottom: "L1_b9_cbr2_bn_top"
  bottom: "L1_b8_sum_eltwise_top"
  top: "L1_b9_sum_eltwise_top"
  eltwise_param {
    operation: SUM
  }
}
layer {
  name: "L1_b9_relu"
  type: "ReLU"
  bottom: "L1_b9_sum_eltwise_top"
  top: "L1_b9_sum_eltwise_top"
}
layer {
  name: "L2_b1_cbr1_conv"
  type: "Convolution"
  bottom: "L1_b9_sum_eltwise_top"
  top: "L2_b1_cbr1_conv_top"
  param {
    lr_mult: 1
    decay_mult: 1
  }
  param {
    lr_mult: 2
    decay_mult: 0
  }
  convolution_param {
    num_output: 16
    pad: 1
    kernel_size: 3
    stride: 2
    weight_filler {
      type: "msra"
    }
    bias_filler {
      type: "constant"
    }
  }
}
layer {
  name: "L2_b1_cbr1_bn"
  type: "BatchNorm"
  bottom: "L2_b1_cbr1_conv_top"
  top: "L2_b1_cbr1_bn_top"
  include {
    phase: TRAIN
  }
  batch_norm_param {
    use_global_stats: false
    moving_average_fraction: 0.95
  }
}
layer {
  name: "L2_b1_cbr1_scale"
  type: "Scale"
  bottom: "L2_b1_cbr1_bn_top"
  top: "L2_b1_cbr1_bn_top"
  scale_param {
    bias_term: true
  }
}
layer {
  name: "L2_b1_cbr1_relu"
  type: "ReLU"
  bottom: "L2_b1_cbr1_bn_top"
  top: "L2_b1_cbr1_bn_top"
}
layer {
  name: "L2_b1_cbr2_conv"
  type: "Convolution"
  bottom: "L2_b1_cbr1_bn_top"
  top: "L2_b1_cbr2_conv_top"
  param {
    lr_mult: 1
    decay_mult: 1
  }
  param {
    lr_mult: 2
    decay_mult: 0
  }
  convolution_param {
    num_output: 16
    pad: 1
    kernel_size: 3
    stride: 1
    weight_filler {
      type: "msra"
    }
    bias_filler {
      type: "constant"
    }
  }
}
layer {
  name: "L2_b1_cbr2_bn"
  type: "BatchNorm"
  bottom: "L2_b1_cbr2_conv_top"
  top: "L2_b1_cbr2_bn_top"
  include {
    phase: TRAIN
  }
  batch_norm_param {
    use_global_stats: false
    moving_average_fraction: 0.95
  }
}
layer {
  name: "L2_b1_cbr2_scale"
  type: "Scale"
  bottom: "L2_b1_cbr2_bn_top"
  top: "L2_b1_cbr2_bn_top"
  scale_param {
    bias_term: true
  }
}
layer {
  name: "L2_b1_pool"
  type: "Pooling"
  bottom: "L1_b9_sum_eltwise_top"
  top: "L2_b1_pool"
  pooling_param {
    pool: AVE
    kernel_size: 3
    stride: 2
  }
}
layer {
  name: "L2_b1_sum_eltwise"
  type: "Eltwise"
  bottom: "L2_b1_cbr2_bn_top"
  bottom: "L2_b1_pool"
  top: "L2_b1_sum_eltwise_top"
  eltwise_param {
    operation: SUM
  }
}
layer {
  name: "L2_b1_relu"
  type: "ReLU"
  bottom: "L2_b1_sum_eltwise_top"
  top: "L2_b1_sum_eltwise_top"
}
layer {
  name: "L2_b1_zeros"
  type: "DummyData"
  top: "L2_b1_zeros"
  dummy_data_param {
    data_filler {
      type: "constant"
      value: 0
    }
    shape {
      dim: 125
      dim: 16
      dim: 16
      dim: 16
    }
  }
}
layer {
  name: "L2_b1_concat0"
  type: "Concat"
  bottom: "L2_b1_sum_eltwise_top"
  bottom: "L2_b1_zeros"
  top: "L2_b1_concat0"
  concat_param {
    axis: 1
  }
}
layer {
  name: "L2_b2_cbr1_conv"
  type: "Convolution"
  bottom: "L2_b1_concat0"
  top: "L2_b2_cbr1_conv_top"
  param {
    lr_mult: 1
    decay_mult: 1
  }
  param {
    lr_mult: 2
    decay_mult: 0
  }
  convolution_param {
    num_output: 32
    pad: 1
    kernel_size: 3
    stride: 1
    weight_filler {
      type: "msra"
    }
    bias_filler {
      type: "constant"
    }
  }
}
layer {
  name: "L2_b2_cbr1_bn"
  type: "BatchNorm"
  bottom: "L2_b2_cbr1_conv_top"
  top: "L2_b2_cbr1_bn_top"
  include {
    phase: TRAIN
  }
  batch_norm_param {
    use_global_stats: false
    moving_average_fraction: 0.95
  }
}
layer {
  name: "L2_b2_cbr1_scale"
  type: "Scale"
  bottom: "L2_b2_cbr1_bn_top"
  top: "L2_b2_cbr1_bn_top"
  scale_param {
    bias_term: true
  }
}
layer {
  name: "L2_b2_cbr1_relu"
  type: "ReLU"
  bottom: "L2_b2_cbr1_bn_top"
  top: "L2_b2_cbr1_bn_top"
}
layer {
  name: "L2_b2_cbr2_conv"
  type: "Convolution"
  bottom: "L2_b2_cbr1_bn_top"
  top: "L2_b2_cbr2_conv_top"
  param {
    lr_mult: 1
    decay_mult: 1
  }
  param {
    lr_mult: 2
    decay_mult: 0
  }
  convolution_param {
    num_output: 32
    pad: 1
    kernel_size: 3
    stride: 1
    weight_filler {
      type: "msra"
    }
    bias_filler {
      type: "constant"
    }
  }
}
layer {
  name: "L2_b2_cbr2_bn"
  type: "BatchNorm"
  bottom: "L2_b2_cbr2_conv_top"
  top: "L2_b2_cbr2_bn_top"
  include {
    phase: TRAIN
  }
  batch_norm_param {
    use_global_stats: false
    moving_average_fraction: 0.95
  }
}
layer {
  name: "L2_b2_cbr2_scale"
  type: "Scale"
  bottom: "L2_b2_cbr2_bn_top"
  top: "L2_b2_cbr2_bn_top"
  scale_param {
    bias_term: true
  }
}
layer {
  name: "L2_b2_sum_eltwise"
  type: "Eltwise"
  bottom: "L2_b2_cbr2_bn_top"
  bottom: "L2_b1_concat0"
  top: "L2_b2_sum_eltwise_top"
  eltwise_param {
    operation: SUM
  }
}
layer {
  name: "L2_b2_relu"
  type: "ReLU"
  bottom: "L2_b2_sum_eltwise_top"
  top: "L2_b2_sum_eltwise_top"
}
layer {
  name: "L2_b3_cbr1_conv"
  type: "Convolution"
  bottom: "L2_b2_sum_eltwise_top"
  top: "L2_b3_cbr1_conv_top"
  param {
    lr_mult: 1
    decay_mult: 1
  }
  param {
    lr_mult: 2
    decay_mult: 0
  }
  convolution_param {
    num_output: 32
    pad: 1
    kernel_size: 3
    stride: 1
    weight_filler {
      type: "msra"
    }
    bias_filler {
      type: "constant"
    }
  }
}
layer {
  name: "L2_b3_cbr1_bn"
  type: "BatchNorm"
  bottom: "L2_b3_cbr1_conv_top"
  top: "L2_b3_cbr1_bn_top"
  include {
    phase: TRAIN
  }
  batch_norm_param {
    use_global_stats: false
    moving_average_fraction: 0.95
  }
}
layer {
  name: "L2_b3_cbr1_scale"
  type: "Scale"
  bottom: "L2_b3_cbr1_bn_top"
  top: "L2_b3_cbr1_bn_top"
  scale_param {
    bias_term: true
  }
}
layer {
  name: "L2_b3_cbr1_relu"
  type: "ReLU"
  bottom: "L2_b3_cbr1_bn_top"
  top: "L2_b3_cbr1_bn_top"
}
layer {
  name: "L2_b3_cbr2_conv"
  type: "Convolution"
  bottom: "L2_b3_cbr1_bn_top"
  top: "L2_b3_cbr2_conv_top"
  param {
    lr_mult: 1
    decay_mult: 1
  }
  param {
    lr_mult: 2
    decay_mult: 0
  }
  convolution_param {
    num_output: 32
    pad: 1
    kernel_size: 3
    stride: 1
    weight_filler {
      type: "msra"
    }
    bias_filler {
      type: "constant"
    }
  }
}
layer {
  name: "L2_b3_cbr2_bn"
  type: "BatchNorm"
  bottom: "L2_b3_cbr2_conv_top"
  top: "L2_b3_cbr2_bn_top"
  include {
    phase: TRAIN
  }
  batch_norm_param {
    use_global_stats: false
    moving_average_fraction: 0.95
  }
}
layer {
  name: "L2_b3_cbr2_scale"
  type: "Scale"
  bottom: "L2_b3_cbr2_bn_top"
  top: "L2_b3_cbr2_bn_top"
  scale_param {
    bias_term: true
  }
}
layer {
  name: "L2_b3_sum_eltwise"
  type: "Eltwise"
  bottom: "L2_b3_cbr2_bn_top"
  bottom: "L2_b2_sum_eltwise_top"
  top: "L2_b3_sum_eltwise_top"
  eltwise_param {
    operation: SUM
  }
}
layer {
  name: "L2_b3_relu"
  type: "ReLU"
  bottom: "L2_b3_sum_eltwise_top"
  top: "L2_b3_sum_eltwise_top"
}
layer {
  name: "L2_b4_cbr1_conv"
  type: "Convolution"
  bottom: "L2_b3_sum_eltwise_top"
  top: "L2_b4_cbr1_conv_top"
  param {
    lr_mult: 1
    decay_mult: 1
  }
  param {
    lr_mult: 2
    decay_mult: 0
  }
  convolution_param {
    num_output: 32
    pad: 1
    kernel_size: 3
    stride: 1
    weight_filler {
      type: "msra"
    }
    bias_filler {
      type: "constant"
    }
  }
}
layer {
  name: "L2_b4_cbr1_bn"
  type: "BatchNorm"
  bottom: "L2_b4_cbr1_conv_top"
  top: "L2_b4_cbr1_bn_top"
  include {
    phase: TRAIN
  }
  batch_norm_param {
    use_global_stats: false
    moving_average_fraction: 0.95
  }
}
layer {
  name: "L2_b4_cbr1_scale"
  type: "Scale"
  bottom: "L2_b4_cbr1_bn_top"
  top: "L2_b4_cbr1_bn_top"
  scale_param {
    bias_term: true
  }
}
layer {
  name: "L2_b4_cbr1_relu"
  type: "ReLU"
  bottom: "L2_b4_cbr1_bn_top"
  top: "L2_b4_cbr1_bn_top"
}
layer {
  name: "L2_b4_cbr2_conv"
  type: "Convolution"
  bottom: "L2_b4_cbr1_bn_top"
  top: "L2_b4_cbr2_conv_top"
  param {
    lr_mult: 1
    decay_mult: 1
  }
  param {
    lr_mult: 2
    decay_mult: 0
  }
  convolution_param {
    num_output: 32
    pad: 1
    kernel_size: 3
    stride: 1
    weight_filler {
      type: "msra"
    }
    bias_filler {
      type: "constant"
    }
  }
}
layer {
  name: "L2_b4_cbr2_bn"
  type: "BatchNorm"
  bottom: "L2_b4_cbr2_conv_top"
  top: "L2_b4_cbr2_bn_top"
  include {
    phase: TRAIN
  }
  batch_norm_param {
    use_global_stats: false
    moving_average_fraction: 0.95
  }
}
layer {
  name: "L2_b4_cbr2_scale"
  type: "Scale"
  bottom: "L2_b4_cbr2_bn_top"
  top: "L2_b4_cbr2_bn_top"
  scale_param {
    bias_term: true
  }
}
layer {
  name: "L2_b4_sum_eltwise"
  type: "Eltwise"
  bottom: "L2_b4_cbr2_bn_top"
  bottom: "L2_b3_sum_eltwise_top"
  top: "L2_b4_sum_eltwise_top"
  eltwise_param {
    operation: SUM
  }
}
layer {
  name: "L2_b4_relu"
  type: "ReLU"
  bottom: "L2_b4_sum_eltwise_top"
  top: "L2_b4_sum_eltwise_top"
}
layer {
  name: "L2_b5_cbr1_conv"
  type: "Convolution"
  bottom: "L2_b4_sum_eltwise_top"
  top: "L2_b5_cbr1_conv_top"
  param {
    lr_mult: 1
    decay_mult: 1
  }
  param {
    lr_mult: 2
    decay_mult: 0
  }
  convolution_param {
    num_output: 32
    pad: 1
    kernel_size: 3
    stride: 1
    weight_filler {
      type: "msra"
    }
    bias_filler {
      type: "constant"
    }
  }
}
layer {
  name: "L2_b5_cbr1_bn"
  type: "BatchNorm"
  bottom: "L2_b5_cbr1_conv_top"
  top: "L2_b5_cbr1_bn_top"
  include {
    phase: TRAIN
  }
  batch_norm_param {
    use_global_stats: false
    moving_average_fraction: 0.95
  }
}
layer {
  name: "L2_b5_cbr1_scale"
  type: "Scale"
  bottom: "L2_b5_cbr1_bn_top"
  top: "L2_b5_cbr1_bn_top"
  scale_param {
    bias_term: true
  }
}
layer {
  name: "L2_b5_cbr1_relu"
  type: "ReLU"
  bottom: "L2_b5_cbr1_bn_top"
  top: "L2_b5_cbr1_bn_top"
}
layer {
  name: "L2_b5_cbr2_conv"
  type: "Convolution"
  bottom: "L2_b5_cbr1_bn_top"
  top: "L2_b5_cbr2_conv_top"
  param {
    lr_mult: 1
    decay_mult: 1
  }
  param {
    lr_mult: 2
    decay_mult: 0
  }
  convolution_param {
    num_output: 32
    pad: 1
    kernel_size: 3
    stride: 1
    weight_filler {
      type: "msra"
    }
    bias_filler {
      type: "constant"
    }
  }
}
layer {
  name: "L2_b5_cbr2_bn"
  type: "BatchNorm"
  bottom: "L2_b5_cbr2_conv_top"
  top: "L2_b5_cbr2_bn_top"
  include {
    phase: TRAIN
  }
  batch_norm_param {
    use_global_stats: false
    moving_average_fraction: 0.95
  }
}
layer {
  name: "L2_b5_cbr2_scale"
  type: "Scale"
  bottom: "L2_b5_cbr2_bn_top"
  top: "L2_b5_cbr2_bn_top"
  scale_param {
    bias_term: true
  }
}
layer {
  name: "L2_b5_sum_eltwise"
  type: "Eltwise"
  bottom: "L2_b5_cbr2_bn_top"
  bottom: "L2_b4_sum_eltwise_top"
  top: "L2_b5_sum_eltwise_top"
  eltwise_param {
    operation: SUM
  }
}
layer {
  name: "L2_b5_relu"
  type: "ReLU"
  bottom: "L2_b5_sum_eltwise_top"
  top: "L2_b5_sum_eltwise_top"
}
layer {
  name: "L2_b6_cbr1_conv"
  type: "Convolution"
  bottom: "L2_b5_sum_eltwise_top"
  top: "L2_b6_cbr1_conv_top"
  param {
    lr_mult: 1
    decay_mult: 1
  }
  param {
    lr_mult: 2
    decay_mult: 0
  }
  convolution_param {
    num_output: 32
    pad: 1
    kernel_size: 3
    stride: 1
    weight_filler {
      type: "msra"
    }
    bias_filler {
      type: "constant"
    }
  }
}
layer {
  name: "L2_b6_cbr1_bn"
  type: "BatchNorm"
  bottom: "L2_b6_cbr1_conv_top"
  top: "L2_b6_cbr1_bn_top"
  include {
    phase: TRAIN
  }
  batch_norm_param {
    use_global_stats: false
    moving_average_fraction: 0.95
  }
}
layer {
  name: "L2_b6_c
I0821 06:46:14.361923 32352 layer_factory.hpp:77] Creating layer dataLayer
I0821 06:46:14.363124 32352 net.cpp:100] Creating Layer dataLayer
I0821 06:46:14.363201 32352 net.cpp:408] dataLayer -> data_top
I0821 06:46:14.363390 32352 net.cpp:408] dataLayer -> label
I0821 06:46:14.363508 32352 data_transformer.cpp:25] Loading mean file from: examples/cifar10/mean.binaryproto
I0821 06:46:14.373512 32357 db_lmdb.cpp:35] Opened lmdb examples/cifar10/cifar10_train_lmdb
I0821 06:46:14.396286 32352 data_layer.cpp:41] output data size: 125,3,32,32
I0821 06:46:14.404170 32352 net.cpp:150] Setting up dataLayer
I0821 06:46:14.404239 32352 net.cpp:157] Top shape: 125 3 32 32 (384000)
I0821 06:46:14.404256 32352 net.cpp:157] Top shape: 125 (125)
I0821 06:46:14.404263 32352 net.cpp:165] Memory required for data: 1536500
I0821 06:46:14.404276 32352 layer_factory.hpp:77] Creating layer label_dataLayer_1_split
I0821 06:46:14.404291 32352 net.cpp:100] Creating Layer label_dataLayer_1_split
I0821 06:46:14.404307 32352 net.cpp:434] label_dataLayer_1_split <- label
I0821 06:46:14.404325 32352 net.cpp:408] label_dataLayer_1_split -> label_dataLayer_1_split_0
I0821 06:46:14.404340 32352 net.cpp:408] label_dataLayer_1_split -> label_dataLayer_1_split_1
I0821 06:46:14.404403 32352 net.cpp:150] Setting up label_dataLayer_1_split
I0821 06:46:14.404417 32352 net.cpp:157] Top shape: 125 (125)
I0821 06:46:14.404423 32352 net.cpp:157] Top shape: 125 (125)
I0821 06:46:14.404428 32352 net.cpp:165] Memory required for data: 1537500
I0821 06:46:14.404433 32352 layer_factory.hpp:77] Creating layer pre_conv
I0821 06:46:14.404497 32352 net.cpp:100] Creating Layer pre_conv
I0821 06:46:14.404508 32352 net.cpp:434] pre_conv <- data_top
I0821 06:46:14.404521 32352 net.cpp:408] pre_conv -> pre_conv_top
I0821 06:46:14.406410 32352 net.cpp:150] Setting up pre_conv
I0821 06:46:14.406430 32352 net.cpp:157] Top shape: 125 16 32 32 (2048000)
I0821 06:46:14.406436 32352 net.cpp:165] Memory required for data: 9729500
I0821 06:46:14.406497 32352 layer_factory.hpp:77] Creating layer pre_bn
I0821 06:46:14.406564 32352 net.cpp:100] Creating Layer pre_bn
I0821 06:46:14.406574 32352 net.cpp:434] pre_bn <- pre_conv_top
I0821 06:46:14.406584 32352 net.cpp:408] pre_bn -> pre_bn_top
I0821 06:46:14.406973 32352 net.cpp:150] Setting up pre_bn
I0821 06:46:14.406991 32352 net.cpp:157] Top shape: 125 16 32 32 (2048000)
I0821 06:46:14.406997 32352 net.cpp:165] Memory required for data: 17921500
I0821 06:46:14.407016 32352 layer_factory.hpp:77] Creating layer pre_scale
I0821 06:46:14.407068 32352 net.cpp:100] Creating Layer pre_scale
I0821 06:46:14.407078 32352 net.cpp:434] pre_scale <- pre_bn_top
I0821 06:46:14.407088 32352 net.cpp:395] pre_scale -> pre_bn_top (in-place)
I0821 06:46:14.407253 32358 blocking_queue.cpp:50] Waiting for data
I0821 06:46:14.407260 32352 layer_factory.hpp:77] Creating layer pre_scale
I0821 06:46:14.407521 32352 net.cpp:150] Setting up pre_scale
I0821 06:46:14.407537 32352 net.cpp:157] Top shape: 125 16 32 32 (2048000)
I0821 06:46:14.407543 32352 net.cpp:165] Memory required for data: 26113500
I0821 06:46:14.407553 32352 layer_factory.hpp:77] Creating layer pre_relu
I0821 06:46:14.407598 32352 net.cpp:100] Creating Layer pre_relu
I0821 06:46:14.407608 32352 net.cpp:434] pre_relu <- pre_bn_top
I0821 06:46:14.407621 32352 net.cpp:395] pre_relu -> pre_bn_top (in-place)
I0821 06:46:14.407632 32352 net.cpp:150] Setting up pre_relu
I0821 06:46:14.407640 32352 net.cpp:157] Top shape: 125 16 32 32 (2048000)
I0821 06:46:14.407645 32352 net.cpp:165] Memory required for data: 34305500
I0821 06:46:14.407655 32352 layer_factory.hpp:77] Creating layer pre_bn_top_pre_relu_0_split
I0821 06:46:14.407665 32352 net.cpp:100] Creating Layer pre_bn_top_pre_relu_0_split
I0821 06:46:14.407670 32352 net.cpp:434] pre_bn_top_pre_relu_0_split <- pre_bn_top
I0821 06:46:14.407680 32352 net.cpp:408] pre_bn_top_pre_relu_0_split -> pre_bn_top_pre_relu_0_split_0
I0821 06:46:14.407690 32352 net.cpp:408] pre_bn_top_pre_relu_0_split -> pre_bn_top_pre_relu_0_split_1
I0821 06:46:14.407733 32352 net.cpp:150] Setting up pre_bn_top_pre_relu_0_split
I0821 06:46:14.407745 32352 net.cpp:157] Top shape: 125 16 32 32 (2048000)
I0821 06:46:14.407752 32352 net.cpp:157] Top shape: 125 16 32 32 (2048000)
I0821 06:46:14.407757 32352 net.cpp:165] Memory required for data: 50689500
I0821 06:46:14.407763 32352 layer_factory.hpp:77] Creating layer L1_b1_cbr1_conv
I0821 06:46:14.407781 32352 net.cpp:100] Creating Layer L1_b1_cbr1_conv
I0821 06:46:14.407788 32352 net.cpp:434] L1_b1_cbr1_conv <- pre_bn_top_pre_relu_0_split_0
I0821 06:46:14.407796 32352 net.cpp:408] L1_b1_cbr1_conv -> L1_b1_cbr1_conv_top
I0821 06:46:14.408119 32352 net.cpp:150] Setting up L1_b1_cbr1_conv
I0821 06:46:14.408135 32352 net.cpp:157] Top shape: 125 16 32 32 (2048000)
I0821 06:46:14.408140 32352 net.cpp:165] Memory required for data: 58881500
I0821 06:46:14.408154 32352 layer_factory.hpp:77] Creating layer L1_b1_cbr1_bn
I0821 06:46:14.408167 32352 net.cpp:100] Creating Layer L1_b1_cbr1_bn
I0821 06:46:14.408174 32352 net.cpp:434] L1_b1_cbr1_bn <- L1_b1_cbr1_conv_top
I0821 06:46:14.408181 32352 net.cpp:408] L1_b1_cbr1_bn -> L1_b1_cbr1_bn_top
I0821 06:46:14.408409 32352 net.cpp:150] Setting up L1_b1_cbr1_bn
I0821 06:46:14.408422 32352 net.cpp:157] Top shape: 125 16 32 32 (2048000)
I0821 06:46:14.408427 32352 net.cpp:165] Memory required for data: 67073500
I0821 06:46:14.408438 32352 layer_factory.hpp:77] Creating layer L1_b1_cbr1_scale
I0821 06:46:14.408450 32352 net.cpp:100] Creating Layer L1_b1_cbr1_scale
I0821 06:46:14.408457 32352 net.cpp:434] L1_b1_cbr1_scale <- L1_b1_cbr1_bn_top
I0821 06:46:14.408464 32352 net.cpp:395] L1_b1_cbr1_scale -> L1_b1_cbr1_bn_top (in-place)
I0821 06:46:14.408514 32352 layer_factory.hpp:77] Creating layer L1_b1_cbr1_scale
I0821 06:46:14.408656 32352 net.cpp:150] Setting up L1_b1_cbr1_scale
I0821 06:46:14.408669 32352 net.cpp:157] Top shape: 125 16 32 32 (2048000)
I0821 06:46:14.408675 32352 net.cpp:165] Memory required for data: 75265500
I0821 06:46:14.408684 32352 layer_factory.hpp:77] Creating layer L1_b1_cbr1_relu
I0821 06:46:14.408700 32352 net.cpp:100] Creating Layer L1_b1_cbr1_relu
I0821 06:46:14.408706 32352 net.cpp:434] L1_b1_cbr1_relu <- L1_b1_cbr1_bn_top
I0821 06:46:14.408716 32352 net.cpp:395] L1_b1_cbr1_relu -> L1_b1_cbr1_bn_top (in-place)
I0821 06:46:14.408726 32352 net.cpp:150] Setting up L1_b1_cbr1_relu
I0821 06:46:14.408735 32352 net.cpp:157] Top shape: 125 16 32 32 (2048000)
I0821 06:46:14.408738 32352 net.cpp:165] Memory required for data: 83457500
I0821 06:46:14.408743 32352 layer_factory.hpp:77] Creating layer L1_b1_cbr2_conv
I0821 06:46:14.408757 32352 net.cpp:100] Creating Layer L1_b1_cbr2_conv
I0821 06:46:14.408762 32352 net.cpp:434] L1_b1_cbr2_conv <- L1_b1_cbr1_bn_top
I0821 06:46:14.408771 32352 net.cpp:408] L1_b1_cbr2_conv -> L1_b1_cbr2_conv_top
I0821 06:46:14.409078 32352 net.cpp:150] Setting up L1_b1_cbr2_conv
I0821 06:46:14.409092 32352 net.cpp:157] Top shape: 125 16 32 32 (2048000)
I0821 06:46:14.409097 32352 net.cpp:165] Memory required for data: 91649500
I0821 06:46:14.409106 32352 layer_factory.hpp:77] Creating layer L1_b1_cbr2_bn
I0821 06:46:14.409117 32352 net.cpp:100] Creating Layer L1_b1_cbr2_bn
I0821 06:46:14.409123 32352 net.cpp:434] L1_b1_cbr2_bn <- L1_b1_cbr2_conv_top
I0821 06:46:14.409132 32352 net.cpp:408] L1_b1_cbr2_bn -> L1_b1_cbr2_bn_top
I0821 06:46:14.409363 32352 net.cpp:150] Setting up L1_b1_cbr2_bn
I0821 06:46:14.409376 32352 net.cpp:157] Top shape: 125 16 32 32 (2048000)
I0821 06:46:14.409382 32352 net.cpp:165] Memory required for data: 99841500
I0821 06:46:14.409396 32352 layer_factory.hpp:77] Creating layer L1_b1_cbr2_scale
I0821 06:46:14.409409 32352 net.cpp:100] Creating Layer L1_b1_cbr2_scale
I0821 06:46:14.409415 32352 net.cpp:434] L1_b1_cbr2_scale <- L1_b1_cbr2_bn_top
I0821 06:46:14.409422 32352 net.cpp:395] L1_b1_cbr2_scale -> L1_b1_cbr2_bn_top (in-place)
I0821 06:46:14.409477 32352 layer_factory.hpp:77] Creating layer L1_b1_cbr2_scale
I0821 06:46:14.409616 32352 net.cpp:150] Setting up L1_b1_cbr2_scale
I0821 06:46:14.409631 32352 net.cpp:157] Top shape: 125 16 32 32 (2048000)
I0821 06:46:14.409636 32352 net.cpp:165] Memory required for data: 108033500
I0821 06:46:14.409643 32352 layer_factory.hpp:77] Creating layer L1_b1_sum_eltwise
I0821 06:46:14.409699 32352 net.cpp:100] Creating Layer L1_b1_sum_eltwise
I0821 06:46:14.409713 32352 net.cpp:434] L1_b1_sum_eltwise <- L1_b1_cbr2_bn_top
I0821 06:46:14.409720 32352 net.cpp:434] L1_b1_sum_eltwise <- pre_bn_top_pre_relu_0_split_1
I0821 06:46:14.409732 32352 net.cpp:408] L1_b1_sum_eltwise -> L1_b1_sum_eltwise_top
I0821 06:46:14.409807 32352 net.cpp:150] Setting up L1_b1_sum_eltwise
I0821 06:46:14.409822 32352 net.cpp:157] Top shape: 125 16 32 32 (2048000)
I0821 06:46:14.409828 32352 net.cpp:165] Memory required for data: 116225500
I0821 06:46:14.409834 32352 layer_factory.hpp:77] Creating layer L1_b1_relu
I0821 06:46:14.409842 32352 net.cpp:100] Creating Layer L1_b1_relu
I0821 06:46:14.409847 32352 net.cpp:434] L1_b1_relu <- L1_b1_sum_eltwise_top
I0821 06:46:14.409858 32352 net.cpp:395] L1_b1_relu -> L1_b1_sum_eltwise_top (in-place)
I0821 06:46:14.409868 32352 net.cpp:150] Setting up L1_b1_relu
I0821 06:46:14.409875 32352 net.cpp:157] Top shape: 125 16 32 32 (2048000)
I0821 06:46:14.409879 32352 net.cpp:165] Memory required for data: 124417500
I0821 06:46:14.409884 32352 layer_factory.hpp:77] Creating layer L1_b1_sum_eltwise_top_L1_b1_relu_0_split
I0821 06:46:14.409893 32352 net.cpp:100] Creating Layer L1_b1_sum_eltwise_top_L1_b1_relu_0_split
I0821 06:46:14.409898 32352 net.cpp:434] L1_b1_sum_eltwise_top_L1_b1_relu_0_split <- L1_b1_sum_eltwise_top
I0821 06:46:14.409905 32352 net.cpp:408] L1_b1_sum_eltwise_top_L1_b1_relu_0_split -> L1_b1_sum_eltwise_top_L1_b1_relu_0_split_0
I0821 06:46:14.409914 32352 net.cpp:408] L1_b1_sum_eltwise_top_L1_b1_relu_0_split -> L1_b1_sum_eltwise_top_L1_b1_relu_0_split_1
I0821 06:46:14.409960 32352 net.cpp:150] Setting up L1_b1_sum_eltwise_top_L1_b1_relu_0_split
I0821 06:46:14.409971 32352 net.cpp:157] Top shape: 125 16 32 32 (2048000)
I0821 06:46:14.409977 32352 net.cpp:157] Top shape: 125 16 32 32 (2048000)
I0821 06:46:14.409991 32352 net.cpp:165] Memory required for data: 140801500
I0821 06:46:14.409996 32352 layer_factory.hpp:77] Creating layer L1_b2_cbr1_conv
I0821 06:46:14.410007 32352 net.cpp:100] Creating Layer L1_b2_cbr1_conv
I0821 06:46:14.410013 32352 net.cpp:434] L1_b2_cbr1_conv <- L1_b1_sum_eltwise_top_L1_b1_relu_0_split_0
I0821 06:46:14.410025 32352 net.cpp:408] L1_b2_cbr1_conv -> L1_b2_cbr1_conv_top
I0821 06:46:14.410327 32352 net.cpp:150] Setting up L1_b2_cbr1_conv
I0821 06:46:14.410341 32352 net.cpp:157] Top shape: 125 16 32 32 (2048000)
I0821 06:46:14.410346 32352 net.cpp:165] Memory required for data: 148993500
I0821 06:46:14.410356 32352 layer_factory.hpp:77] Creating layer L1_b2_cbr1_bn
I0821 06:46:14.410364 32352 net.cpp:100] Creating Layer L1_b2_cbr1_bn
I0821 06:46:14.410370 32352 net.cpp:434] L1_b2_cbr1_bn <- L1_b2_cbr1_conv_top
I0821 06:46:14.410382 32352 net.cpp:408] L1_b2_cbr1_bn -> L1_b2_cbr1_bn_top
I0821 06:46:14.410620 32352 net.cpp:150] Setting up L1_b2_cbr1_bn
I0821 06:46:14.410636 32352 net.cpp:157] Top shape: 125 16 32 32 (2048000)
I0821 06:46:14.410641 32352 net.cpp:165] Memory required for data: 157185500
I0821 06:46:14.410660 32352 layer_factory.hpp:77] Creating layer L1_b2_cbr1_scale
I0821 06:46:14.410670 32352 net.cpp:100] Creating Layer L1_b2_cbr1_scale
I0821 06:46:14.410676 32352 net.cpp:434] L1_b2_cbr1_scale <- L1_b2_cbr1_bn_top
I0821 06:46:14.410682 32352 net.cpp:395] L1_b2_cbr1_scale -> L1_b2_cbr1_bn_top (in-place)
I0821 06:46:14.410734 32352 layer_factory.hpp:77] Creating layer L1_b2_cbr1_scale
I0821 06:46:14.410876 32352 net.cpp:150] Setting up L1_b2_cbr1_scale
I0821 06:46:14.410889 32352 net.cpp:157] Top shape: 125 16 32 32 (2048000)
I0821 06:46:14.410894 32352 net.cpp:165] Memory required for data: 165377500
I0821 06:46:14.410903 32352 layer_factory.hpp:77] Creating layer L1_b2_cbr1_relu
I0821 06:46:14.410914 32352 net.cpp:100] Creating Layer L1_b2_cbr1_relu
I0821 06:46:14.410920 32352 net.cpp:434] L1_b2_cbr1_relu <- L1_b2_cbr1_bn_top
I0821 06:46:14.410928 32352 net.cpp:395] L1_b2_cbr1_relu -> L1_b2_cbr1_bn_top (in-place)
I0821 06:46:14.410936 32352 net.cpp:150] Setting up L1_b2_cbr1_relu
I0821 06:46:14.410946 32352 net.cpp:157] Top shape: 125 16 32 32 (2048000)
I0821 06:46:14.410951 32352 net.cpp:165] Memory required for data: 173569500
I0821 06:46:14.410956 32352 layer_factory.hpp:77] Creating layer L1_b2_cbr2_conv
I0821 06:46:14.410967 32352 net.cpp:100] Creating Layer L1_b2_cbr2_conv
I0821 06:46:14.410972 32352 net.cpp:434] L1_b2_cbr2_conv <- L1_b2_cbr1_bn_top
I0821 06:46:14.410984 32352 net.cpp:408] L1_b2_cbr2_conv -> L1_b2_cbr2_conv_top
I0821 06:46:14.411283 32352 net.cpp:150] Setting up L1_b2_cbr2_conv
I0821 06:46:14.411296 32352 net.cpp:157] Top shape: 125 16 32 32 (2048000)
I0821 06:46:14.411301 32352 net.cpp:165] Memory required for data: 181761500
I0821 06:46:14.411310 32352 layer_factory.hpp:77] Creating layer L1_b2_cbr2_bn
I0821 06:46:14.411319 32352 net.cpp:100] Creating Layer L1_b2_cbr2_bn
I0821 06:46:14.411324 32352 net.cpp:434] L1_b2_cbr2_bn <- L1_b2_cbr2_conv_top
I0821 06:46:14.411337 32352 net.cpp:408] L1_b2_cbr2_bn -> L1_b2_cbr2_bn_top
I0821 06:46:14.411571 32352 net.cpp:150] Setting up L1_b2_cbr2_bn
I0821 06:46:14.411583 32352 net.cpp:157] Top shape: 125 16 32 32 (2048000)
I0821 06:46:14.411588 32352 net.cpp:165] Memory required for data: 189953500
I0821 06:46:14.411607 32352 layer_factory.hpp:77] Creating layer L1_b2_cbr2_scale
I0821 06:46:14.411617 32352 net.cpp:100] Creating Layer L1_b2_cbr2_scale
I0821 06:46:14.411623 32352 net.cpp:434] L1_b2_cbr2_scale <- L1_b2_cbr2_bn_top
I0821 06:46:14.411629 32352 net.cpp:395] L1_b2_cbr2_scale -> L1_b2_cbr2_bn_top (in-place)
I0821 06:46:14.411690 32352 layer_factory.hpp:77] Creating layer L1_b2_cbr2_scale
I0821 06:46:14.411828 32352 net.cpp:150] Setting up L1_b2_cbr2_scale
I0821 06:46:14.411840 32352 net.cpp:157] Top shape: 125 16 32 32 (2048000)
I0821 06:46:14.411845 32352 net.cpp:165] Memory required for data: 198145500
I0821 06:46:14.411854 32352 layer_factory.hpp:77] Creating layer L1_b2_sum_eltwise
I0821 06:46:14.411873 32352 net.cpp:100] Creating Layer L1_b2_sum_eltwise
I0821 06:46:14.411880 32352 net.cpp:434] L1_b2_sum_eltwise <- L1_b2_cbr2_bn_top
I0821 06:46:14.411886 32352 net.cpp:434] L1_b2_sum_eltwise <- L1_b1_sum_eltwise_top_L1_b1_relu_0_split_1
I0821 06:46:14.411895 32352 net.cpp:408] L1_b2_sum_eltwise -> L1_b2_sum_eltwise_top
I0821 06:46:14.411928 32352 net.cpp:150] Setting up L1_b2_sum_eltwise
I0821 06:46:14.411940 32352 net.cpp:157] Top shape: 125 16 32 32 (2048000)
I0821 06:46:14.411945 32352 net.cpp:165] Memory required for data: 206337500
I0821 06:46:14.411950 32352 layer_factory.hpp:77] Creating layer L1_b2_relu
I0821 06:46:14.411958 32352 net.cpp:100] Creating Layer L1_b2_relu
I0821 06:46:14.411963 32352 net.cpp:434] L1_b2_relu <- L1_b2_sum_eltwise_top
I0821 06:46:14.411970 32352 net.cpp:395] L1_b2_relu -> L1_b2_sum_eltwise_top (in-place)
I0821 06:46:14.411978 32352 net.cpp:150] Setting up L1_b2_relu
I0821 06:46:14.411985 32352 net.cpp:157] Top shape: 125 16 32 32 (2048000)
I0821 06:46:14.411990 32352 net.cpp:165] Memory required for data: 214529500
I0821 06:46:14.411994 32352 layer_factory.hpp:77] Creating layer L1_b2_sum_eltwise_top_L1_b2_relu_0_split
I0821 06:46:14.412001 32352 net.cpp:100] Creating Layer L1_b2_sum_eltwise_top_L1_b2_relu_0_split
I0821 06:46:14.412006 32352 net.cpp:434] L1_b2_sum_eltwise_top_L1_b2_relu_0_split <- L1_b2_sum_eltwise_top
I0821 06:46:14.412016 32352 net.cpp:408] L1_b2_sum_eltwise_top_L1_b2_relu_0_split -> L1_b2_sum_eltwise_top_L1_b2_relu_0_split_0
I0821 06:46:14.412026 32352 net.cpp:408] L1_b2_sum_eltwise_top_L1_b2_relu_0_split -> L1_b2_sum_eltwise_top_L1_b2_relu_0_split_1
I0821 06:46:14.412066 32352 net.cpp:150] Setting up L1_b2_sum_eltwise_top_L1_b2_relu_0_split
I0821 06:46:14.412077 32352 net.cpp:157] Top shape: 125 16 32 32 (2048000)
I0821 06:46:14.412084 32352 net.cpp:157] Top shape: 125 16 32 32 (2048000)
I0821 06:46:14.412088 32352 net.cpp:165] Memory required for data: 230913500
I0821 06:46:14.412093 32352 layer_factory.hpp:77] Creating layer L1_b3_cbr1_conv
I0821 06:46:14.412107 32352 net.cpp:100] Creating Layer L1_b3_cbr1_conv
I0821 06:46:14.412113 32352 net.cpp:434] L1_b3_cbr1_conv <- L1_b2_sum_eltwise_top_L1_b2_relu_0_split_0
I0821 06:46:14.412122 32352 net.cpp:408] L1_b3_cbr1_conv -> L1_b3_cbr1_conv_top
I0821 06:46:14.412428 32352 net.cpp:150] Setting up L1_b3_cbr1_conv
I0821 06:46:14.412442 32352 net.cpp:157] Top shape: 125 16 32 32 (2048000)
I0821 06:46:14.412447 32352 net.cpp:165] Memory required for data: 239105500
I0821 06:46:14.412456 32352 layer_factory.hpp:77] Creating layer L1_b3_cbr1_bn
I0821 06:46:14.412467 32352 net.cpp:100] Creating Layer L1_b3_cbr1_bn
I0821 06:46:14.412473 32352 net.cpp:434] L1_b3_cbr1_bn <- L1_b3_cbr1_conv_top
I0821 06:46:14.412483 32352 net.cpp:408] L1_b3_cbr1_bn -> L1_b3_cbr1_bn_top
I0821 06:46:14.412724 32352 net.cpp:150] Setting up L1_b3_cbr1_bn
I0821 06:46:14.412736 32352 net.cpp:157] Top shape: 125 16 32 32 (2048000)
I0821 06:46:14.412741 32352 net.cpp:165] Memory required for data: 247297500
I0821 06:46:14.412752 32352 layer_factory.hpp:77] Creating layer L1_b3_cbr1_scale
I0821 06:46:14.412760 32352 net.cpp:100] Creating Layer L1_b3_cbr1_scale
I0821 06:46:14.412766 32352 net.cpp:434] L1_b3_cbr1_scale <- L1_b3_cbr1_bn_top
I0821 06:46:14.412775 32352 net.cpp:395] L1_b3_cbr1_scale -> L1_b3_cbr1_bn_top (in-place)
I0821 06:46:14.412827 32352 layer_factory.hpp:77] Creating layer L1_b3_cbr1_scale
I0821 06:46:14.412966 32352 net.cpp:150] Setting up L1_b3_cbr1_scale
I0821 06:46:14.412978 32352 net.cpp:157] Top shape: 125 16 32 32 (2048000)
I0821 06:46:14.412983 32352 net.cpp:165] Memory required for data: 255489500
I0821 06:46:14.412992 32352 layer_factory.hpp:77] Creating layer L1_b3_cbr1_relu
I0821 06:46:14.413002 32352 net.cpp:100] Creating Layer L1_b3_cbr1_relu
I0821 06:46:14.413008 32352 net.cpp:434] L1_b3_cbr1_relu <- L1_b3_cbr1_bn_top
I0821 06:46:14.413017 32352 net.cpp:395] L1_b3_cbr1_relu -> L1_b3_cbr1_bn_top (in-place)
I0821 06:46:14.413025 32352 net.cpp:150] Setting up L1_b3_cbr1_relu
I0821 06:46:14.413039 32352 net.cpp:157] Top shape: 125 16 32 32 (2048000)
I0821 06:46:14.413044 32352 net.cpp:165] Memory required for data: 263681500
I0821 06:46:14.413049 32352 layer_factory.hpp:77] Creating layer L1_b3_cbr2_conv
I0821 06:46:14.413064 32352 net.cpp:100] Creating Layer L1_b3_cbr2_conv
I0821 06:46:14.413069 32352 net.cpp:434] L1_b3_cbr2_conv <- L1_b3_cbr1_bn_top
I0821 06:46:14.413080 32352 net.cpp:408] L1_b3_cbr2_conv -> L1_b3_cbr2_conv_top
I0821 06:46:14.413388 32352 net.cpp:150] Setting up L1_b3_cbr2_conv
I0821 06:46:14.413403 32352 net.cpp:157] Top shape: 125 16 32 32 (2048000)
I0821 06:46:14.413408 32352 net.cpp:165] Memory required for data: 271873500
I0821 06:46:14.413416 32352 layer_factory.hpp:77] Creating layer L1_b3_cbr2_bn
I0821 06:46:14.413432 32352 net.cpp:100] Creating Layer L1_b3_cbr2_bn
I0821 06:46:14.413439 32352 net.cpp:434] L1_b3_cbr2_bn <- L1_b3_cbr2_conv_top
I0821 06:46:14.413447 32352 net.cpp:408] L1_b3_cbr2_bn -> L1_b3_cbr2_bn_top
I0821 06:46:14.413702 32352 net.cpp:150] Setting up L1_b3_cbr2_bn
I0821 06:46:14.413714 32352 net.cpp:157] Top shape: 125 16 32 32 (2048000)
I0821 06:46:14.413719 32352 net.cpp:165] Memory required for data: 280065500
I0821 06:46:14.413730 32352 layer_factory.hpp:77] Creating layer L1_b3_cbr2_scale
I0821 06:46:14.413739 32352 net.cpp:100] Creating Layer L1_b3_cbr2_scale
I0821 06:46:14.413744 32352 net.cpp:434] L1_b3_cbr2_scale <- L1_b3_cbr2_bn_top
I0821 06:46:14.413755 32352 net.cpp:395] L1_b3_cbr2_scale -> L1_b3_cbr2_bn_top (in-place)
I0821 06:46:14.413807 32352 layer_factory.hpp:77] Creating layer L1_b3_cbr2_scale
I0821 06:46:14.413940 32352 net.cpp:150] Setting up L1_b3_cbr2_scale
I0821 06:46:14.413955 32352 net.cpp:157] Top shape: 125 16 32 32 (2048000)
I0821 06:46:14.413961 32352 net.cpp:165] Memory required for data: 288257500
I0821 06:46:14.413970 32352 layer_factory.hpp:77] Creating layer L1_b3_sum_eltwise
I0821 06:46:14.413978 32352 net.cpp:100] Creating Layer L1_b3_sum_eltwise
I0821 06:46:14.413985 32352 net.cpp:434] L1_b3_sum_eltwise <- L1_b3_cbr2_bn_top
I0821 06:46:14.413990 32352 net.cpp:434] L1_b3_sum_eltwise <- L1_b2_sum_eltwise_top_L1_b2_relu_0_split_1
I0821 06:46:14.413998 32352 net.cpp:408] L1_b3_sum_eltwise -> L1_b3_sum_eltwise_top
I0821 06:46:14.414031 32352 net.cpp:150] Setting up L1_b3_sum_eltwise
I0821 06:46:14.414041 32352 net.cpp:157] Top shape: 125 16 32 32 (2048000)
I0821 06:46:14.414046 32352 net.cpp:165] Memory required for data: 296449500
I0821 06:46:14.414050 32352 layer_factory.hpp:77] Creating layer L1_b3_relu
I0821 06:46:14.414060 32352 net.cpp:100] Creating Layer L1_b3_relu
I0821 06:46:14.414067 32352 net.cpp:434] L1_b3_relu <- L1_b3_sum_eltwise_top
I0821 06:46:14.414073 32352 net.cpp:395] L1_b3_relu -> L1_b3_sum_eltwise_top (in-place)
I0821 06:46:14.414083 32352 net.cpp:150] Setting up L1_b3_relu
I0821 06:46:14.414088 32352 net.cpp:157] Top shape: 125 16 32 32 (2048000)
I0821 06:46:14.414093 32352 net.cpp:165] Memory required for data: 304641500
I0821 06:46:14.414098 32352 layer_factory.hpp:77] Creating layer L1_b3_sum_eltwise_top_L1_b3_relu_0_split
I0821 06:46:14.414104 32352 net.cpp:100] Creating Layer L1_b3_sum_eltwise_top_L1_b3_relu_0_split
I0821 06:46:14.414109 32352 net.cpp:434] L1_b3_sum_eltwise_top_L1_b3_relu_0_split <- L1_b3_sum_eltwise_top
I0821 06:46:14.414119 32352 net.cpp:408] L1_b3_sum_eltwise_top_L1_b3_relu_0_split -> L1_b3_sum_eltwise_top_L1_b3_relu_0_split_0
I0821 06:46:14.414129 32352 net.cpp:408] L1_b3_sum_eltwise_top_L1_b3_relu_0_split -> L1_b3_sum_eltwise_top_L1_b3_relu_0_split_1
I0821 06:46:14.414170 32352 net.cpp:150] Setting up L1_b3_sum_eltwise_top_L1_b3_relu_0_split
I0821 06:46:14.414185 32352 net.cpp:157] Top shape: 125 16 32 32 (2048000)
I0821 06:46:14.414191 32352 net.cpp:157] Top shape: 125 16 32 32 (2048000)
I0821 06:46:14.414196 32352 net.cpp:165] Memory required for data: 321025500
I0821 06:46:14.414201 32352 layer_factory.hpp:77] Creating layer L1_b4_cbr1_conv
I0821 06:46:14.414212 32352 net.cpp:100] Creating Layer L1_b4_cbr1_conv
I0821 06:46:14.414218 32352 net.cpp:434] L1_b4_cbr1_conv <- L1_b3_sum_eltwise_top_L1_b3_relu_0_split_0
I0821 06:46:14.414234 32352 net.cpp:408] L1_b4_cbr1_conv -> L1_b4_cbr1_conv_top
I0821 06:46:14.414548 32352 net.cpp:150] Setting up L1_b4_cbr1_conv
I0821 06:46:14.414562 32352 net.cpp:157] Top shape: 125 16 32 32 (2048000)
I0821 06:46:14.414567 32352 net.cpp:165] Memory required for data: 329217500
I0821 06:46:14.414577 32352 layer_factory.hpp:77] Creating layer L1_b4_cbr1_bn
I0821 06:46:14.414588 32352 net.cpp:100] Creating Layer L1_b4_cbr1_bn
I0821 06:46:14.414594 32352 net.cpp:434] L1_b4_cbr1_bn <- L1_b4_cbr1_conv_top
I0821 06:46:14.414602 32352 net.cpp:408] L1_b4_cbr1_bn -> L1_b4_cbr1_bn_top
I0821 06:46:14.414849 32352 net.cpp:150] Setting up L1_b4_cbr1_bn
I0821 06:46:14.414862 32352 net.cpp:157] Top shape: 125 16 32 32 (2048000)
I0821 06:46:14.414867 32352 net.cpp:165] Memory required for data: 337409500
I0821 06:46:14.414878 32352 layer_factory.hpp:77] Creating layer L1_b4_cbr1_scale
I0821 06:46:14.414886 32352 net.cpp:100] Creating Layer L1_b4_cbr1_scale
I0821 06:46:14.414892 32352 net.cpp:434] L1_b4_cbr1_scale <- L1_b4_cbr1_bn_top
I0821 06:46:14.414903 32352 net.cpp:395] L1_b4_cbr1_scale -> L1_b4_cbr1_bn_top (in-place)
I0821 06:46:14.414954 32352 layer_factory.hpp:77] Creating layer L1_b4_cbr1_scale
I0821 06:46:14.415096 32352 net.cpp:150] Setting up L1_b4_cbr1_scale
I0821 06:46:14.415112 32352 net.cpp:157] Top shape: 125 16 32 32 (2048000)
I0821 06:46:14.415117 32352 net.cpp:165] Memory required for data: 345601500
I0821 06:46:14.415125 32352 layer_factory.hpp:77] Creating layer L1_b4_cbr1_relu
I0821 06:46:14.415133 32352 net.cpp:100] Creating Layer L1_b4_cbr1_relu
I0821 06:46:14.415138 32352 net.cpp:434] L1_b4_cbr1_relu <- L1_b4_cbr1_bn_top
I0821 06:46:14.415146 32352 net.cpp:395] L1_b4_cbr1_relu -> L1_b4_cbr1_bn_top (in-place)
I0821 06:46:14.415155 32352 net.cpp:150] Setting up L1_b4_cbr1_relu
I0821 06:46:14.415163 32352 net.cpp:157] Top shape: 125 16 32 32 (2048000)
I0821 06:46:14.415166 32352 net.cpp:165] Memory required for data: 353793500
I0821 06:46:14.415171 32352 layer_factory.hpp:77] Creating layer L1_b4_cbr2_conv
I0821 06:46:14.415184 32352 net.cpp:100] Creating Layer L1_b4_cbr2_conv
I0821 06:46:14.415190 32352 net.cpp:434] L1_b4_cbr2_conv <- L1_b4_cbr1_bn_top
I0821 06:46:14.415201 32352 net.cpp:408] L1_b4_cbr2_conv -> L1_b4_cbr2_conv_top
I0821 06:46:14.415508 32352 net.cpp:150] Setting up L1_b4_cbr2_conv
I0821 06:46:14.415521 32352 net.cpp:157] Top shape: 125 16 32 32 (2048000)
I0821 06:46:14.415526 32352 net.cpp:165] Memory required for data: 361985500
I0821 06:46:14.415534 32352 layer_factory.hpp:77] Creating layer L1_b4_cbr2_bn
I0821 06:46:14.415546 32352 net.cpp:100] Creating Layer L1_b4_cbr2_bn
I0821 06:46:14.415552 32352 net.cpp:434] L1_b4_cbr2_bn <- L1_b4_cbr2_conv_top
I0821 06:46:14.415563 32352 net.cpp:408] L1_b4_cbr2_bn -> L1_b4_cbr2_bn_top
I0821 06:46:14.415808 32352 net.cpp:150] Setting up L1_b4_cbr2_bn
I0821 06:46:14.415822 32352 net.cpp:157] Top shape: 125 16 32 32 (2048000)
I0821 06:46:14.415828 32352 net.cpp:165] Memory required for data: 370177500
I0821 06:46:14.415838 32352 layer_factory.hpp:77] Creating layer L1_b4_cbr2_scale
I0821 06:46:14.415846 32352 net.cpp:100] Creating Layer L1_b4_cbr2_scale
I0821 06:46:14.415853 32352 net.cpp:434] L1_b4_cbr2_scale <- L1_b4_cbr2_bn_top
I0821 06:46:14.415863 32352 net.cpp:395] L1_b4_cbr2_scale -> L1_b4_cbr2_bn_top (in-place)
I0821 06:46:14.415916 32352 layer_factory.hpp:77] Creating layer L1_b4_cbr2_scale
I0821 06:46:14.416054 32352 net.cpp:150] Setting up L1_b4_cbr2_scale
I0821 06:46:14.416067 32352 net.cpp:157] Top shape: 125 16 32 32 (2048000)
I0821 06:46:14.416072 32352 net.cpp:165] Memory required for data: 378369500
I0821 06:46:14.416081 32352 layer_factory.hpp:77] Creating layer L1_b4_sum_eltwise
I0821 06:46:14.416090 32352 net.cpp:100] Creating Layer L1_b4_sum_eltwise
I0821 06:46:14.416095 32352 net.cpp:434] L1_b4_sum_eltwise <- L1_b4_cbr2_bn_top
I0821 06:46:14.416102 32352 net.cpp:434] L1_b4_sum_eltwise <- L1_b3_sum_eltwise_top_L1_b3_relu_0_split_1
I0821 06:46:14.416112 32352 net.cpp:408] L1_b4_sum_eltwise -> L1_b4_sum_eltwise_top
I0821 06:46:14.416151 32352 net.cpp:150] Setting up L1_b4_sum_eltwise
I0821 06:46:14.416164 32352 net.cpp:157] Top shape: 125 16 32 32 (2048000)
I0821 06:46:14.416169 32352 net.cpp:165] Memory required for data: 386561500
I0821 06:46:14.416174 32352 layer_factory.hpp:77] Creating layer L1_b4_relu
I0821 06:46:14.416182 32352 net.cpp:100] Creating Layer L1_b4_relu
I0821 06:46:14.416188 32352 net.cpp:434] L1_b4_relu <- L1_b4_sum_eltwise_top
I0821 06:46:14.416194 32352 net.cpp:395] L1_b4_relu -> L1_b4_sum_eltwise_top (in-place)
I0821 06:46:14.416203 32352 net.cpp:150] Setting up L1_b4_relu
I0821 06:46:14.416209 32352 net.cpp:157] Top shape: 125 16 32 32 (2048000)
I0821 06:46:14.416214 32352 net.cpp:165] Memory required for data: 394753500
I0821 06:46:14.416219 32352 layer_factory.hpp:77] Creating layer L1_b4_sum_eltwise_top_L1_b4_relu_0_split
I0821 06:46:14.416230 32352 net.cpp:100] Creating Layer L1_b4_sum_eltwise_top_L1_b4_relu_0_split
I0821 06:46:14.416236 32352 net.cpp:434] L1_b4_sum_eltwise_top_L1_b4_relu_0_split <- L1_b4_sum_eltwise_top
I0821 06:46:14.416244 32352 net.cpp:408] L1_b4_sum_eltwise_top_L1_b4_relu_0_split -> L1_b4_sum_eltwise_top_L1_b4_relu_0_split_0
I0821 06:46:14.416252 32352 net.cpp:408] L1_b4_sum_eltwise_top_L1_b4_relu_0_split -> L1_b4_sum_eltwise_top_L1_b4_relu_0_split_1
I0821 06:46:14.416296 32352 net.cpp:150] Setting up L1_b4_sum_eltwise_top_L1_b4_relu_0_split
I0821 06:46:14.416308 32352 net.cpp:157] Top shape: 125 16 32 32 (2048000)
I0821 06:46:14.416314 32352 net.cpp:157] Top shape: 125 16 32 32 (2048000)
I0821 06:46:14.416319 32352 net.cpp:165] Memory required for data: 411137500
I0821 06:46:14.416324 32352 layer_factory.hpp:77] Creating layer L1_b5_cbr1_conv
I0821 06:46:14.416334 32352 net.cpp:100] Creating Layer L1_b5_cbr1_conv
I0821 06:46:14.416340 32352 net.cpp:434] L1_b5_cbr1_conv <- L1_b4_sum_eltwise_top_L1_b4_relu_0_split_0
I0821 06:46:14.416352 32352 net.cpp:408] L1_b5_cbr1_conv -> L1_b5_cbr1_conv_top
I0821 06:46:14.416676 32352 net.cpp:150] Setting up L1_b5_cbr1_conv
I0821 06:46:14.416690 32352 net.cpp:157] Top shape: 125 16 32 32 (2048000)
I0821 06:46:14.416695 32352 net.cpp:165] Memory required for data: 419329500
I0821 06:46:14.416715 32352 layer_factory.hpp:77] Creating layer L1_b5_cbr1_bn
I0821 06:46:14.416728 32352 net.cpp:100] Creating Layer L1_b5_cbr1_bn
I0821 06:46:14.416733 32352 net.cpp:434] L1_b5_cbr1_bn <- L1_b5_cbr1_conv_top
I0821 06:46:14.416741 32352 net.cpp:408] L1_b5_cbr1_bn -> L1_b5_cbr1_bn_top
I0821 06:46:14.416981 32352 net.cpp:150] Setting up L1_b5_cbr1_bn
I0821 06:46:14.416995 32352 net.cpp:157] Top shape: 125 16 32 32 (2048000)
I0821 06:46:14.416999 32352 net.cpp:165] Memory required for data: 427521500
I0821 06:46:14.417011 32352 layer_factory.hpp:77] Creating layer L1_b5_cbr1_scale
I0821 06:46:14.417018 32352 net.cpp:100] Creating Layer L1_b5_cbr1_scale
I0821 06:46:14.417024 32352 net.cpp:434] L1_b5_cbr1_scale <- L1_b5_cbr1_bn_top
I0821 06:46:14.417034 32352 net.cpp:395] L1_b5_cbr1_scale -> L1_b5_cbr1_bn_top (in-place)
I0821 06:46:14.417086 32352 layer_factory.hpp:77] Creating layer L1_b5_cbr1_scale
I0821 06:46:14.417227 32352 net.cpp:150] Setting up L1_b5_cbr1_scale
I0821 06:46:14.417238 32352 net.cpp:157] Top shape: 125 16 32 32 (2048000)
I0821 06:46:14.417243 32352 net.cpp:165] Memory required for data: 435713500
I0821 06:46:14.417253 32352 layer_factory.hpp:77] Creating layer L1_b5_cbr1_relu
I0821 06:46:14.417261 32352 net.cpp:100] Creating Layer L1_b5_cbr1_relu
I0821 06:46:14.417266 32352 net.cpp:434] L1_b5_cbr1_relu <- L1_b5_cbr1_bn_top
I0821 06:46:14.417273 32352 net.cpp:395] L1_b5_cbr1_relu -> L1_b5_cbr1_bn_top (in-place)
I0821 06:46:14.417282 32352 net.cpp:150] Setting up L1_b5_cbr1_relu
I0821 06:46:14.417289 32352 net.cpp:157] Top shape: 125 16 32 32 (2048000)
I0821 06:46:14.417294 32352 net.cpp:165] Memory required for data: 443905500
I0821 06:46:14.417299 32352 layer_factory.hpp:77] Creating layer L1_b5_cbr2_conv
I0821 06:46:14.417311 32352 net.cpp:100] Creating Layer L1_b5_cbr2_conv
I0821 06:46:14.417317 32352 net.cpp:434] L1_b5_cbr2_conv <- L1_b5_cbr1_bn_top
I0821 06:46:14.417335 32352 net.cpp:408] L1_b5_cbr2_conv -> L1_b5_cbr2_conv_top
I0821 06:46:14.417647 32352 net.cpp:150] Setting up L1_b5_cbr2_conv
I0821 06:46:14.417667 32352 net.cpp:157] Top shape: 125 16 32 32 (2048000)
I0821 06:46:14.417672 32352 net.cpp:165] Memory required for data: 452097500
I0821 06:46:14.417681 32352 layer_factory.hpp:77] Creating layer L1_b5_cbr2_bn
I0821 06:46:14.417695 32352 net.cpp:100] Creating Layer L1_b5_cbr2_bn
I0821 06:46:14.417701 32352 net.cpp:434] L1_b5_cbr2_bn <- L1_b5_cbr2_conv_top
I0821 06:46:14.417712 32352 net.cpp:408] L1_b5_cbr2_bn -> L1_b5_cbr2_bn_top
I0821 06:46:14.417950 32352 net.cpp:150] Setting up L1_b5_cbr2_bn
I0821 06:46:14.417963 32352 net.cpp:157] Top shape: 125 16 32 32 (2048000)
I0821 06:46:14.417968 32352 net.cpp:165] Memory required for data: 460289500
I0821 06:46:14.417978 32352 layer_factory.hpp:77] Creating layer L1_b5_cbr2_scale
I0821 06:46:14.417986 32352 net.cpp:100] Creating Layer L1_b5_cbr2_scale
I0821 06:46:14.417991 32352 net.cpp:434] L1_b5_cbr2_scale <- L1_b5_cbr2_bn_top
I0821 06:46:14.418002 32352 net.cpp:395] L1_b5_cbr2_scale -> L1_b5_cbr2_bn_top (in-place)
I0821 06:46:14.418053 32352 layer_factory.hpp:77] Creating layer L1_b5_cbr2_scale
I0821 06:46:14.418190 32352 net.cpp:150] Setting up L1_b5_cbr2_scale
I0821 06:46:14.418207 32352 net.cpp:157] Top shape: 125 16 32 32 (2048000)
I0821 06:46:14.418212 32352 net.cpp:165] Memory required for data: 468481500
I0821 06:46:14.418221 32352 layer_factory.hpp:77] Creating layer L1_b5_sum_eltwise
I0821 06:46:14.418231 32352 net.cpp:100] Creating Layer L1_b5_sum_eltwise
I0821 06:46:14.418236 32352 net.cpp:434] L1_b5_sum_eltwise <- L1_b5_cbr2_bn_top
I0821 06:46:14.418242 32352 net.cpp:434] L1_b5_sum_eltwise <- L1_b4_sum_eltwise_top_L1_b4_relu_0_split_1
I0821 06:46:14.418251 32352 net.cpp:408] L1_b5_sum_eltwise -> L1_b5_sum_eltwise_top
I0821 06:46:14.418282 32352 net.cpp:150] Setting up L1_b5_sum_eltwise
I0821 06:46:14.418292 32352 net.cpp:157] Top shape: 125 16 32 32 (2048000)
I0821 06:46:14.418296 32352 net.cpp:165] Memory required for data: 476673500
I0821 06:46:14.418301 32352 layer_factory.hpp:77] Creating layer L1_b5_relu
I0821 06:46:14.418309 32352 net.cpp:100] Creating Layer L1_b5_relu
I0821 06:46:14.418318 32352 net.cpp:434] L1_b5_relu <- L1_b5_sum_eltwise_top
I0821 06:46:14.418324 32352 net.cpp:395] L1_b5_relu -> L1_b5_sum_eltwise_top (in-place)
I0821 06:46:14.418334 32352 net.cpp:150] Setting up L1_b5_relu
I0821 06:46:14.418340 32352 net.cpp:157] Top shape: 125 16 32 32 (2048000)
I0821 06:46:14.418345 32352 net.cpp:165] Memory required for data: 484865500
I0821 06:46:14.418349 32352 layer_factory.hpp:77] Creating layer L1_b5_sum_eltwise_top_L1_b5_relu_0_split
I0821 06:46:14.418356 32352 net.cpp:100] Creating Layer L1_b5_sum_eltwise_top_L1_b5_relu_0_split
I0821 06:46:14.418361 32352 net.cpp:434] L1_b5_sum_eltwise_top_L1_b5_relu_0_split <- L1_b5_sum_eltwise_top
I0821 06:46:14.418371 32352 net.cpp:408] L1_b5_sum_eltwise_top_L1_b5_relu_0_split -> L1_b5_sum_eltwise_top_L1_b5_relu_0_split_0
I0821 06:46:14.418380 32352 net.cpp:408] L1_b5_sum_eltwise_top_L1_b5_relu_0_split -> L1_b5_sum_eltwise_top_L1_b5_relu_0_split_1
I0821 06:46:14.418421 32352 net.cpp:150] Setting up L1_b5_sum_eltwise_top_L1_b5_relu_0_split
I0821 06:46:14.418433 32352 net.cpp:157] Top shape: 125 16 32 32 (2048000)
I0821 06:46:14.418439 32352 net.cpp:157] Top shape: 125 16 32 32 (2048000)
I0821 06:46:14.418444 32352 net.cpp:165] Memory required for data: 501249500
I0821 06:46:14.418449 32352 layer_factory.hpp:77] Creating layer L1_b6_cbr1_conv
I0821 06:46:14.418463 32352 net.cpp:100] Creating Layer L1_b6_cbr1_conv
I0821 06:46:14.418469 32352 net.cpp:434] L1_b6_cbr1_conv <- L1_b5_sum_eltwise_top_L1_b5_relu_0_split_0
I0821 06:46:14.418478 32352 net.cpp:408] L1_b6_cbr1_conv -> L1_b6_cbr1_conv_top
I0821 06:46:14.418794 32352 net.cpp:150] Setting up L1_b6_cbr1_conv
I0821 06:46:14.418809 32352 net.cpp:157] Top shape: 125 16 32 32 (2048000)
I0821 06:46:14.418814 32352 net.cpp:165] Memory required for data: 509441500
I0821 06:46:14.418830 32352 layer_factory.hpp:77] Creating layer L1_b6_cbr1_bn
I0821 06:46:14.418843 32352 net.cpp:100] Creating Layer L1_b6_cbr1_bn
I0821 06:46:14.418848 32352 net.cpp:434] L1_b6_cbr1_bn <- L1_b6_cbr1_conv_top
I0821 06:46:14.418857 32352 net.cpp:408] L1_b6_cbr1_bn -> L1_b6_cbr1_bn_top
I0821 06:46:14.419093 32352 net.cpp:150] Setting up L1_b6_cbr1_bn
I0821 06:46:14.419106 32352 net.cpp:157] Top shape: 125 16 32 32 (2048000)
I0821 06:46:14.419111 32352 net.cpp:165] Memory required for data: 517633500
I0821 06:46:14.419122 32352 layer_factory.hpp:77] Creating layer L1_b6_cbr1_scale
I0821 06:46:14.419131 32352 net.cpp:100] Creating Layer L1_b6_cbr1_scale
I0821 06:46:14.419137 32352 net.cpp:434] L1_b6_cbr1_scale <- L1_b6_cbr1_bn_top
I0821 06:46:14.419147 32352 net.cpp:395] L1_b6_cbr1_scale -> L1_b6_cbr1_bn_top (in-place)
I0821 06:46:14.419199 32352 layer_factory.hpp:77] Creating layer L1_b6_cbr1_scale
I0821 06:46:14.419342 32352 net.cpp:150] Setting up L1_b6_cbr1_scale
I0821 06:46:14.419358 32352 net.cpp:157] Top shape: 125 16 32 32 (2048000)
I0821 06:46:14.419363 32352 net.cpp:165] Memory required for data: 525825500
I0821 06:46:14.419371 32352 layer_factory.hpp:77] Creating layer L1_b6_cbr1_relu
I0821 06:46:14.419379 32352 net.cpp:100] Creating Layer L1_b6_cbr1_relu
I0821 06:46:14.419385 32352 net.cpp:434] L1_b6_cbr1_relu <- L1_b6_cbr1_bn_top
I0821 06:46:14.419392 32352 net.cpp:395] L1_b6_cbr1_relu -> L1_b6_cbr1_bn_top (in-place)
I0821 06:46:14.419401 32352 net.cpp:150] Setting up L1_b6_cbr1_relu
I0821 06:46:14.419409 32352 net.cpp:157] Top shape: 125 16 32 32 (2048000)
I0821 06:46:14.419412 32352 net.cpp:165] Memory required for data: 534017500
I0821 06:46:14.419417 32352 layer_factory.hpp:77] Creating layer L1_b6_cbr2_conv
I0821 06:46:14.419431 32352 net.cpp:100] Creating Layer L1_b6_cbr2_conv
I0821 06:46:14.419436 32352 net.cpp:434] L1_b6_cbr2_conv <- L1_b6_cbr1_bn_top
I0821 06:46:14.419447 32352 net.cpp:408] L1_b6_cbr2_conv -> L1_b6_cbr2_conv_top
I0821 06:46:14.419773 32352 net.cpp:150] Setting up L1_b6_cbr2_conv
I0821 06:46:14.419787 32352 net.cpp:157] Top shape: 125 16 32 32 (2048000)
I0821 06:46:14.419792 32352 net.cpp:165] Memory required for data: 542209500
I0821 06:46:14.419801 32352 layer_factory.hpp:77] Creating layer L1_b6_cbr2_bn
I0821 06:46:14.419812 32352 net.cpp:100] Creating Layer L1_b6_cbr2_bn
I0821 06:46:14.419819 32352 net.cpp:434] L1_b6_cbr2_bn <- L1_b6_cbr2_conv_top
I0821 06:46:14.419829 32352 net.cpp:408] L1_b6_cbr2_bn -> L1_b6_cbr2_bn_top
I0821 06:46:14.420068 32352 net.cpp:150] Setting up L1_b6_cbr2_bn
I0821 06:46:14.420080 32352 net.cpp:157] Top shape: 125 16 32 32 (2048000)
I0821 06:46:14.420085 32352 net.cpp:165] Memory required for data: 550401500
I0821 06:46:14.420096 32352 layer_factory.hpp:77] Creating layer L1_b6_cbr2_scale
I0821 06:46:14.420104 32352 net.cpp:100] Creating Layer L1_b6_cbr2_scale
I0821 06:46:14.420110 32352 net.cpp:434] L1_b6_cbr2_scale <- L1_b6_cbr2_bn_top
I0821 06:46:14.420117 32352 net.cpp:395] L1_b6_cbr2_scale -> L1_b6_cbr2_bn_top (in-place)
I0821 06:46:14.420172 32352 layer_factory.hpp:77] Creating layer L1_b6_cbr2_scale
I0821 06:46:14.420312 32352 net.cpp:150] Setting up L1_b6_cbr2_scale
I0821 06:46:14.420325 32352 net.cpp:157] Top shape: 125 16 32 32 (2048000)
I0821 06:46:14.420331 32352 net.cpp:165] Memory required for data: 558593500
I0821 06:46:14.420338 32352 layer_factory.hpp:77] Creating layer L1_b6_sum_eltwise
I0821 06:46:14.420357 32352 net.cpp:100] Creating Layer L1_b6_sum_eltwise
I0821 06:46:14.420364 32352 net.cpp:434] L1_b6_sum_eltwise <- L1_b6_cbr2_bn_top
I0821 06:46:14.420372 32352 net.cpp:434] L1_b6_sum_eltwise <- L1_b5_sum_eltwise_top_L1_b5_relu_0_split_1
I0821 06:46:14.420379 32352 net.cpp:408] L1_b6_sum_eltwise -> L1_b6_sum_eltwise_top
I0821 06:46:14.420413 32352 net.cpp:150] Setting up L1_b6_sum_eltwise
I0821 06:46:14.420425 32352 net.cpp:157] Top shape: 125 16 32 32 (2048000)
I0821 06:46:14.420430 32352 net.cpp:165] Memory required for data: 566785500
I0821 06:46:14.420435 32352 layer_factory.hpp:77] Creating layer L1_b6_relu
I0821 06:46:14.420452 32352 net.cpp:100] Creating Layer L1_b6_relu
I0821 06:46:14.420459 32352 net.cpp:434] L1_b6_relu <- L1_b6_sum_eltwise_top
I0821 06:46:14.420469 32352 net.cpp:395] L1_b6_relu -> L1_b6_sum_eltwise_top (in-place)
I0821 06:46:14.420478 32352 net.cpp:150] Setting up L1_b6_relu
I0821 06:46:14.420485 32352 net.cpp:157] Top shape: 125 16 32 32 (2048000)
I0821 06:46:14.420490 32352 net.cpp:165] Memory required for data: 574977500
I0821 06:46:14.420495 32352 layer_factory.hpp:77] Creating layer L1_b6_sum_eltwise_top_L1_b6_relu_0_split
I0821 06:46:14.420501 32352 net.cpp:100] Creating Layer L1_b6_sum_eltwise_top_L1_b6_relu_0_split
I0821 06:46:14.420506 32352 net.cpp:434] L1_b6_sum_eltwise_top_L1_b6_relu_0_split <- L1_b6_sum_eltwise_top
I0821 06:46:14.420513 32352 net.cpp:408] L1_b6_sum_eltwise_top_L1_b6_relu_0_split -> L1_b6_sum_eltwise_top_L1_b6_relu_0_split_0
I0821 06:46:14.420522 32352 net.cpp:408] L1_b6_sum_eltwise_top_L1_b6_relu_0_split -> L1_b6_sum_eltwise_top_L1_b6_relu_0_split_1
I0821 06:46:14.420568 32352 net.cpp:150] Setting up L1_b6_sum_eltwise_top_L1_b6_relu_0_split
I0821 06:46:14.420579 32352 net.cpp:157] Top shape: 125 16 32 32 (2048000)
I0821 06:46:14.420586 32352 net.cpp:157] Top shape: 125 16 32 32 (2048000)
I0821 06:46:14.420590 32352 net.cpp:165] Memory required for data: 591361500
I0821 06:46:14.420595 32352 layer_factory.hpp:77] Creating layer L1_b7_cbr1_conv
I0821 06:46:14.420606 32352 net.cpp:100] Creating Layer L1_b7_cbr1_conv
I0821 06:46:14.420613 32352 net.cpp:434] L1_b7_cbr1_conv <- L1_b6_sum_eltwise_top_L1_b6_relu_0_split_0
I0821 06:46:14.420624 32352 net.cpp:408] L1_b7_cbr1_conv -> L1_b7_cbr1_conv_top
I0821 06:46:14.420951 32352 net.cpp:150] Setting up L1_b7_cbr1_conv
I0821 06:46:14.420966 32352 net.cpp:157] Top shape: 125 16 32 32 (2048000)
I0821 06:46:14.420971 32352 net.cpp:165] Memory required for data: 599553500
I0821 06:46:14.420980 32352 layer_factory.hpp:77] Creating layer L1_b7_cbr1_bn
I0821 06:46:14.420989 32352 net.cpp:100] Creating Layer L1_b7_cbr1_bn
I0821 06:46:14.420994 32352 net.cpp:434] L1_b7_cbr1_bn <- L1_b7_cbr1_conv_top
I0821 06:46:14.421005 32352 net.cpp:408] L1_b7_cbr1_bn -> L1_b7_cbr1_bn_top
I0821 06:46:14.421244 32352 net.cpp:150] Setting up L1_b7_cbr1_bn
I0821 06:46:14.421257 32352 net.cpp:157] Top shape: 125 16 32 32 (2048000)
I0821 06:46:14.421262 32352 net.cpp:165] Memory required for data: 607745500
I0821 06:46:14.421272 32352 layer_factory.hpp:77] Creating layer L1_b7_cbr1_scale
I0821 06:46:14.421284 32352 net.cpp:100] Creating Layer L1_b7_cbr1_scale
I0821 06:46:14.421290 32352 net.cpp:434] L1_b7_cbr1_scale <- L1_b7_cbr1_bn_top
I0821 06:46:14.421298 32352 net.cpp:395] L1_b7_cbr1_scale -> L1_b7_cbr1_bn_top (in-place)
I0821 06:46:14.421350 32352 layer_factory.hpp:77] Creating layer L1_b7_cbr1_scale
I0821 06:46:14.421491 32352 net.cpp:150] Setting up L1_b7_cbr1_scale
I0821 06:46:14.421504 32352 net.cpp:157] Top shape: 125 16 32 32 (2048000)
I0821 06:46:14.421509 32352 net.cpp:165] Memory required for data: 615937500
I0821 06:46:14.421517 32352 layer_factory.hpp:77] Creating layer L1_b7_cbr1_relu
I0821 06:46:14.421525 32352 net.cpp:100] Creating Layer L1_b7_cbr1_relu
I0821 06:46:14.421531 32352 net.cpp:434] L1_b7_cbr1_relu <- L1_b7_cbr1_bn_top
I0821 06:46:14.421541 32352 net.cpp:395] L1_b7_cbr1_relu -> L1_b7_cbr1_bn_top (in-place)
I0821 06:46:14.421551 32352 net.cpp:150] Setting up L1_b7_cbr1_relu
I0821 06:46:14.421558 32352 net.cpp:157] Top shape: 125 16 32 32 (2048000)
I0821 06:46:14.421562 32352 net.cpp:165] Memory required for data: 624129500
I0821 06:46:14.421567 32352 layer_factory.hpp:77] Creating layer L1_b7_cbr2_conv
I0821 06:46:14.421582 32352 net.cpp:100] Creating Layer L1_b7_cbr2_conv
I0821 06:46:14.421588 32352 net.cpp:434] L1_b7_cbr2_conv <- L1_b7_cbr1_bn_top
I0821 06:46:14.421597 32352 net.cpp:408] L1_b7_cbr2_conv -> L1_b7_cbr2_conv_top
I0821 06:46:14.421914 32352 net.cpp:150] Setting up L1_b7_cbr2_conv
I0821 06:46:14.421929 32352 net.cpp:157] Top shape: 125 16 32 32 (2048000)
I0821 06:46:14.421934 32352 net.cpp:165] Memory required for data: 632321500
I0821 06:46:14.421950 32352 layer_factory.hpp:77] Creating layer L1_b7_cbr2_bn
I0821 06:46:14.421963 32352 net.cpp:100] Creating Layer L1_b7_cbr2_bn
I0821 06:46:14.421969 32352 net.cpp:434] L1_b7_cbr2_bn <- L1_b7_cbr2_conv_top
I0821 06:46:14.421978 32352 net.cpp:408] L1_b7_cbr2_bn -> L1_b7_cbr2_bn_top
I0821 06:46:14.422219 32352 net.cpp:150] Setting up L1_b7_cbr2_bn
I0821 06:46:14.422231 32352 net.cpp:157] Top shape: 125 16 32 32 (2048000)
I0821 06:46:14.422236 32352 net.cpp:165] Memory required for data: 640513500
I0821 06:46:14.422246 32352 layer_factory.hpp:77] Creating layer L1_b7_cbr2_scale
I0821 06:46:14.422261 32352 net.cpp:100] Creating Layer L1_b7_cbr2_scale
I0821 06:46:14.422267 32352 net.cpp:434] L1_b7_cbr2_scale <- L1_b7_cbr2_bn_top
I0821 06:46:14.422276 32352 net.cpp:395] L1_b7_cbr2_scale -> L1_b7_cbr2_bn_top (in-place)
I0821 06:46:14.422327 32352 layer_factory.hpp:77] Creating layer L1_b7_cbr2_scale
I0821 06:46:14.422471 32352 net.cpp:150] Setting up L1_b7_cbr2_scale
I0821 06:46:14.422483 32352 net.cpp:157] Top shape: 125 16 32 32 (2048000)
I0821 06:46:14.422488 32352 net.cpp:165] Memory required for data: 648705500
I0821 06:46:14.422497 32352 layer_factory.hpp:77] Creating layer L1_b7_sum_eltwise
I0821 06:46:14.422505 32352 net.cpp:100] Creating Layer L1_b7_sum_eltwise
I0821 06:46:14.422511 32352 net.cpp:434] L1_b7_sum_eltwise <- L1_b7_cbr2_bn_top
I0821 06:46:14.422518 32352 net.cpp:434] L1_b7_sum_eltwise <- L1_b6_sum_eltwise_top_L1_b6_relu_0_split_1
I0821 06:46:14.422529 32352 net.cpp:408] L1_b7_sum_eltwise -> L1_b7_sum_eltwise_top
I0821 06:46:14.422560 32352 net.cpp:150] Setting up L1_b7_sum_eltwise
I0821 06:46:14.422572 32352 net.cpp:157] Top shape: 125 16 32 32 (2048000)
I0821 06:46:14.422577 32352 net.cpp:165] Memory required for data: 656897500
I0821 06:46:14.422582 32352 layer_factory.hpp:77] Creating layer L1_b7_relu
I0821 06:46:14.422590 32352 net.cpp:100] Creating Layer L1_b7_relu
I0821 06:46:14.422595 32352 net.cpp:434] L1_b7_relu <- L1_b7_sum_eltwise_top
I0821 06:46:14.422602 32352 net.cpp:395] L1_b7_relu -> L1_b7_sum_eltwise_top (in-place)
I0821 06:46:14.422611 32352 net.cpp:150] Setting up L1_b7_relu
I0821 06:46:14.422618 32352 net.cpp:157] Top shape: 125 16 32 32 (2048000)
I0821 06:46:14.422623 32352 net.cpp:165] Memory required for data: 665089500
I0821 06:46:14.422627 32352 layer_factory.hpp:77] Creating layer L1_b7_sum_eltwise_top_L1_b7_relu_0_split
I0821 06:46:14.422637 32352 net.cpp:100] Creating Layer L1_b7_sum_eltwise_top_L1_b7_relu_0_split
I0821 06:46:14.422643 32352 net.cpp:434] L1_b7_sum_eltwise_top_L1_b7_relu_0_split <- L1_b7_sum_eltwise_top
I0821 06:46:14.422657 32352 net.cpp:408] L1_b7_sum_eltwise_top_L1_b7_relu_0_split -> L1_b7_sum_eltwise_top_L1_b7_relu_0_split_0
I0821 06:46:14.422667 32352 net.cpp:408] L1_b7_sum_eltwise_top_L1_b7_relu_0_split -> L1_b7_sum_eltwise_top_L1_b7_relu_0_split_1
I0821 06:46:14.422714 32352 net.cpp:150] Setting up L1_b7_sum_eltwise_top_L1_b7_relu_0_split
I0821 06:46:14.422726 32352 net.cpp:157] Top shape: 125 16 32 32 (2048000)
I0821 06:46:14.422732 32352 net.cpp:157] Top shape: 125 16 32 32 (2048000)
I0821 06:46:14.422737 32352 net.cpp:165] Memory required for data: 681473500
I0821 06:46:14.422742 32352 layer_factory.hpp:77] Creating layer L1_b8_cbr1_conv
I0821 06:46:14.422754 32352 net.cpp:100] Creating Layer L1_b8_cbr1_conv
I0821 06:46:14.422760 32352 net.cpp:434] L1_b8_cbr1_conv <- L1_b7_sum_eltwise_top_L1_b7_relu_0_split_0
I0821 06:46:14.422771 32352 net.cpp:408] L1_b8_cbr1_conv -> L1_b8_cbr1_conv_top
I0821 06:46:14.423086 32352 net.cpp:150] Setting up L1_b8_cbr1_conv
I0821 06:46:14.423100 32352 net.cpp:157] Top shape: 125 16 32 32 (2048000)
I0821 06:46:14.423105 32352 net.cpp:165] Memory required for data: 689665500
I0821 06:46:14.423115 32352 layer_factory.hpp:77] Creating layer L1_b8_cbr1_bn
I0821 06:46:14.423123 32352 net.cpp:100] Creating Layer L1_b8_cbr1_bn
I0821 06:46:14.423130 32352 net.cpp:434] L1_b8_cbr1_bn <- L1_b8_cbr1_conv_top
I0821 06:46:14.423137 32352 net.cpp:408] L1_b8_cbr1_bn -> L1_b8_cbr1_bn_top
I0821 06:46:14.423394 32352 net.cpp:150] Setting up L1_b8_cbr1_bn
I0821 06:46:14.423408 32352 net.cpp:157] Top shape: 125 16 32 32 (2048000)
I0821 06:46:14.423413 32352 net.cpp:165] Memory required for data: 697857500
I0821 06:46:14.423422 32352 layer_factory.hpp:77] Creating layer L1_b8_cbr1_scale
I0821 06:46:14.423434 32352 net.cpp:100] Creating Layer L1_b8_cbr1_scale
I0821 06:46:14.423440 32352 net.cpp:434] L1_b8_cbr1_scale <- L1_b8_cbr1_bn_top
I0821 06:46:14.423449 32352 net.cpp:395] L1_b8_cbr1_scale -> L1_b8_cbr1_bn_top (in-place)
I0821 06:46:14.423503 32352 layer_factory.hpp:77] Creating layer L1_b8_cbr1_scale
I0821 06:46:14.423657 32352 net.cpp:150] Setting up L1_b8_cbr1_scale
I0821 06:46:14.423671 32352 net.cpp:157] Top shape: 125 16 32 32 (2048000)
I0821 06:46:14.423676 32352 net.cpp:165] Memory required for data: 706049500
I0821 06:46:14.423686 32352 layer_factory.hpp:77] Creating layer L1_b8_cbr1_relu
I0821 06:46:14.423693 32352 net.cpp:100] Creating Layer L1_b8_cbr1_relu
I0821 06:46:14.423699 32352 net.cpp:434] L1_b8_cbr1_relu <- L1_b8_cbr1_bn_top
I0821 06:46:14.423709 32352 net.cpp:395] L1_b8_cbr1_relu -> L1_b8_cbr1_bn_top (in-place)
I0821 06:46:14.423719 32352 net.cpp:150] Setting up L1_b8_cbr1_relu
I0821 06:46:14.423727 32352 net.cpp:157] Top shape: 125 16 32 32 (2048000)
I0821 06:46:14.423732 32352 net.cpp:165] Memory required for data: 714241500
I0821 06:46:14.423737 32352 layer_factory.hpp:77] Creating layer L1_b8_cbr2_conv
I0821 06:46:14.423749 32352 net.cpp:100] Creating Layer L1_b8_cbr2_conv
I0821 06:46:14.423755 32352 net.cpp:434] L1_b8_cbr2_conv <- L1_b8_cbr1_bn_top
I0821 06:46:14.423764 32352 net.cpp:408] L1_b8_cbr2_conv -> L1_b8_cbr2_conv_top
I0821 06:46:14.424079 32352 net.cpp:150] Setting up L1_b8_cbr2_conv
I0821 06:46:14.424093 32352 net.cpp:157] Top shape: 125 16 32 32 (2048000)
I0821 06:46:14.424098 32352 net.cpp:165] Memory required for data: 722433500
I0821 06:46:14.424106 32352 layer_factory.hpp:77] Creating layer L1_b8_cbr2_bn
I0821 06:46:14.424119 32352 net.cpp:100] Creating Layer L1_b8_cbr2_bn
I0821 06:46:14.424125 32352 net.cpp:434] L1_b8_cbr2_bn <- L1_b8_cbr2_conv_top
I0821 06:46:14.424134 32352 net.cpp:408] L1_b8_cbr2_bn -> L1_b8_cbr2_bn_top
I0821 06:46:14.424378 32352 net.cpp:150] Setting up L1_b8_cbr2_bn
I0821 06:46:14.424391 32352 net.cpp:157] Top shape: 125 16 32 32 (2048000)
I0821 06:46:14.424396 32352 net.cpp:165] Memory required for data: 730625500
I0821 06:46:14.424407 32352 layer_factory.hpp:77] Creating layer L1_b8_cbr2_scale
I0821 06:46:14.424414 32352 net.cpp:100] Creating Layer L1_b8_cbr2_scale
I0821 06:46:14.424420 32352 net.cpp:434] L1_b8_cbr2_scale <- L1_b8_cbr2_bn_top
I0821 06:46:14.424432 32352 net.cpp:395] L1_b8_cbr2_scale -> L1_b8_cbr2_bn_top (in-place)
I0821 06:46:14.424484 32352 layer_factory.hpp:77] Creating layer L1_b8_cbr2_scale
I0821 06:46:14.424625 32352 net.cpp:150] Setting up L1_b8_cbr2_scale
I0821 06:46:14.424638 32352 net.cpp:157] Top shape: 125 16 32 32 (2048000)
I0821 06:46:14.424643 32352 net.cpp:165] Memory required for data: 738817500
I0821 06:46:14.424657 32352 layer_factory.hpp:77] Creating layer L1_b8_sum_eltwise
I0821 06:46:14.424667 32352 net.cpp:100] Creating Layer L1_b8_sum_eltwise
I0821 06:46:14.424674 32352 net.cpp:434] L1_b8_sum_eltwise <- L1_b8_cbr2_bn_top
I0821 06:46:14.424681 32352 net.cpp:434] L1_b8_sum_eltwise <- L1_b7_sum_eltwise_top_L1_b7_relu_0_split_1
I0821 06:46:14.424691 32352 net.cpp:408] L1_b8_sum_eltwise -> L1_b8_sum_eltwise_top
I0821 06:46:14.424723 32352 net.cpp:150] Setting up L1_b8_sum_eltwise
I0821 06:46:14.424736 32352 net.cpp:157] Top shape: 125 16 32 32 (2048000)
I0821 06:46:14.424741 32352 net.cpp:165] Memory required for data: 747009500
I0821 06:46:14.424746 32352 layer_factory.hpp:77] Creating layer L1_b8_relu
I0821 06:46:14.424753 32352 net.cpp:100] Creating Layer L1_b8_relu
I0821 06:46:14.424758 32352 net.cpp:434] L1_b8_relu <- L1_b8_sum_eltwise_top
I0821 06:46:14.424765 32352 net.cpp:395] L1_b8_relu -> L1_b8_sum_eltwise_top (in-place)
I0821 06:46:14.424774 32352 net.cpp:150] Setting up L1_b8_relu
I0821 06:46:14.424782 32352 net.cpp:157] Top shape: 125 16 32 32 (2048000)
I0821 06:46:14.424793 32352 net.cpp:165] Memory required for data: 755201500
I0821 06:46:14.424798 32352 layer_factory.hpp:77] Creating layer L1_b8_sum_eltwise_top_L1_b8_relu_0_split
I0821 06:46:14.424808 32352 net.cpp:100] Creating Layer L1_b8_sum_eltwise_top_L1_b8_relu_0_split
I0821 06:46:14.424813 32352 net.cpp:434] L1_b8_sum_eltwise_top_L1_b8_relu_0_split <- L1_b8_sum_eltwise_top
I0821 06:46:14.424821 32352 net.cpp:408] L1_b8_sum_eltwise_top_L1_b8_relu_0_split -> L1_b8_sum_eltwise_top_L1_b8_relu_0_split_0
I0821 06:46:14.424831 32352 net.cpp:408] L1_b8_sum_eltwise_top_L1_b8_relu_0_split -> L1_b8_sum_eltwise_top_L1_b8_relu_0_split_1
I0821 06:46:14.424878 32352 net.cpp:150] Setting up L1_b8_sum_eltwise_top_L1_b8_relu_0_split
I0821 06:46:14.424890 32352 net.cpp:157] Top shape: 125 16 32 32 (2048000)
I0821 06:46:14.424896 32352 net.cpp:157] Top shape: 125 16 32 32 (2048000)
I0821 06:46:14.424901 32352 net.cpp:165] Memory required for data: 771585500
I0821 06:46:14.424906 32352 layer_factory.hpp:77] Creating layer L1_b9_cbr1_conv
I0821 06:46:14.424916 32352 net.cpp:100] Creating Layer L1_b9_cbr1_conv
I0821 06:46:14.424922 32352 net.cpp:434] L1_b9_cbr1_conv <- L1_b8_sum_eltwise_top_L1_b8_relu_0_split_0
I0821 06:46:14.424934 32352 net.cpp:408] L1_b9_cbr1_conv -> L1_b9_cbr1_conv_top
I0821 06:46:14.425257 32352 net.cpp:150] Setting up L1_b9_cbr1_conv
I0821 06:46:14.425271 32352 net.cpp:157] Top shape: 125 16 32 32 (2048000)
I0821 06:46:14.425276 32352 net.cpp:165] Memory required for data: 779777500
I0821 06:46:14.425285 32352 layer_factory.hpp:77] Creating layer L1_b9_cbr1_bn
I0821 06:46:14.425302 32352 net.cpp:100] Creating Layer L1_b9_cbr1_bn
I0821 06:46:14.425308 32352 net.cpp:434] L1_b9_cbr1_bn <- L1_b9_cbr1_conv_top
I0821 06:46:14.425318 32352 net.cpp:408] L1_b9_cbr1_bn -> L1_b9_cbr1_bn_top
I0821 06:46:14.425565 32352 net.cpp:150] Setting up L1_b9_cbr1_bn
I0821 06:46:14.425577 32352 net.cpp:157] Top shape: 125 16 32 32 (2048000)
I0821 06:46:14.425582 32352 net.cpp:165] Memory required for data: 787969500
I0821 06:46:14.425593 32352 layer_factory.hpp:77] Creating layer L1_b9_cbr1_scale
I0821 06:46:14.425601 32352 net.cpp:100] Creating Layer L1_b9_cbr1_scale
I0821 06:46:14.425607 32352 net.cpp:434] L1_b9_cbr1_scale <- L1_b9_cbr1_bn_top
I0821 06:46:14.425614 32352 net.cpp:395] L1_b9_cbr1_scale -> L1_b9_cbr1_bn_top (in-place)
I0821 06:46:14.425676 32352 layer_factory.hpp:77] Creating layer L1_b9_cbr1_scale
I0821 06:46:14.425823 32352 net.cpp:150] Setting up L1_b9_cbr1_scale
I0821 06:46:14.425837 32352 net.cpp:157] Top shape: 125 16 32 32 (2048000)
I0821 06:46:14.425842 32352 net.cpp:165] Memory required for data: 796161500
I0821 06:46:14.425850 32352 layer_factory.hpp:77] Creating layer L1_b9_cbr1_relu
I0821 06:46:14.425858 32352 net.cpp:100] Creating Layer L1_b9_cbr1_relu
I0821 06:46:14.425864 32352 net.cpp:434] L1_b9_cbr1_relu <- L1_b9_cbr1_bn_top
I0821 06:46:14.425874 32352 net.cpp:395] L1_b9_cbr1_relu -> L1_b9_cbr1_bn_top (in-place)
I0821 06:46:14.425884 32352 net.cpp:150] Setting up L1_b9_cbr1_relu
I0821 06:46:14.425891 32352 net.cpp:157] Top shape: 125 16 32 32 (2048000)
I0821 06:46:14.425895 32352 net.cpp:165] Memory required for data: 804353500
I0821 06:46:14.425900 32352 layer_factory.hpp:77] Creating layer L1_b9_cbr2_conv
I0821 06:46:14.425911 32352 net.cpp:100] Creating Layer L1_b9_cbr2_conv
I0821 06:46:14.425917 32352 net.cpp:434] L1_b9_cbr2_conv <- L1_b9_cbr1_bn_top
I0821 06:46:14.425927 32352 net.cpp:408] L1_b9_cbr2_conv -> L1_b9_cbr2_conv_top
I0821 06:46:14.426246 32352 net.cpp:150] Setting up L1_b9_cbr2_conv
I0821 06:46:14.426259 32352 net.cpp:157] Top shape: 125 16 32 32 (2048000)
I0821 06:46:14.426265 32352 net.cpp:165] Memory required for data: 812545500
I0821 06:46:14.426273 32352 layer_factory.hpp:77] Creating layer L1_b9_cbr2_bn
I0821 06:46:14.426282 32352 net.cpp:100] Creating Layer L1_b9_cbr2_bn
I0821 06:46:14.426288 32352 net.cpp:434] L1_b9_cbr2_bn <- L1_b9_cbr2_conv_top
I0821 06:46:14.426298 32352 net.cpp:408] L1_b9_cbr2_bn -> L1_b9_cbr2_bn_top
I0821 06:46:14.426549 32352 net.cpp:150] Setting up L1_b9_cbr2_bn
I0821 06:46:14.426565 32352 net.cpp:157] Top shape: 125 16 32 32 (2048000)
I0821 06:46:14.426570 32352 net.cpp:165] Memory required for data: 820737500
I0821 06:46:14.426602 32352 layer_factory.hpp:77] Creating layer L1_b9_cbr2_scale
I0821 06:46:14.426617 32352 net.cpp:100] Creating Layer L1_b9_cbr2_scale
I0821 06:46:14.426625 32352 net.cpp:434] L1_b9_cbr2_scale <- L1_b9_cbr2_bn_top
I0821 06:46:14.426631 32352 net.cpp:395] L1_b9_cbr2_scale -> L1_b9_cbr2_bn_top (in-place)
I0821 06:46:14.426693 32352 layer_factory.hpp:77] Creating layer L1_b9_cbr2_scale
I0821 06:46:14.426837 32352 net.cpp:150] Setting up L1_b9_cbr2_scale
I0821 06:46:14.426851 32352 net.cpp:157] Top shape: 125 16 32 32 (2048000)
I0821 06:46:14.426856 32352 net.cpp:165] Memory required for data: 828929500
I0821 06:46:14.426865 32352 layer_factory.hpp:77] Creating layer L1_b9_sum_eltwise
I0821 06:46:14.426874 32352 net.cpp:100] Creating Layer L1_b9_sum_eltwise
I0821 06:46:14.426880 32352 net.cpp:434] L1_b9_sum_eltwise <- L1_b9_cbr2_bn_top
I0821 06:46:14.426887 32352 net.cpp:434] L1_b9_sum_eltwise <- L1_b8_sum_eltwise_top_L1_b8_relu_0_split_1
I0821 06:46:14.426898 32352 net.cpp:408] L1_b9_sum_eltwise -> L1_b9_sum_eltwise_top
I0821 06:46:14.426928 32352 net.cpp:150] Setting up L1_b9_sum_eltwise
I0821 06:46:14.426937 32352 net.cpp:157] Top shape: 125 16 32 32 (2048000)
I0821 06:46:14.426941 32352 net.cpp:165] Memory required for data: 837121500
I0821 06:46:14.426946 32352 layer_factory.hpp:77] Creating layer L1_b9_relu
I0821 06:46:14.426954 32352 net.cpp:100] Creating Layer L1_b9_relu
I0821 06:46:14.426960 32352 net.cpp:434] L1_b9_relu <- L1_b9_sum_eltwise_top
I0821 06:46:14.426970 32352 net.cpp:395] L1_b9_relu -> L1_b9_sum_eltwise_top (in-place)
I0821 06:46:14.426980 32352 net.cpp:150] Setting up L1_b9_relu
I0821 06:46:14.426986 32352 net.cpp:157] Top shape: 125 16 32 32 (2048000)
I0821 06:46:14.426990 32352 net.cpp:165] Memory required for data: 845313500
I0821 06:46:14.426995 32352 layer_factory.hpp:77] Creating layer L1_b9_sum_eltwise_top_L1_b9_relu_0_split
I0821 06:46:14.427002 32352 net.cpp:100] Creating Layer L1_b9_sum_eltwise_top_L1_b9_relu_0_split
I0821 06:46:14.427007 32352 net.cpp:434] L1_b9_sum_eltwise_top_L1_b9_relu_0_split <- L1_b9_sum_eltwise_top
I0821 06:46:14.427018 32352 net.cpp:408] L1_b9_sum_eltwise_top_L1_b9_relu_0_split -> L1_b9_sum_eltwise_top_L1_b9_relu_0_split_0
I0821 06:46:14.427028 32352 net.cpp:408] L1_b9_sum_eltwise_top_L1_b9_relu_0_split -> L1_b9_sum_eltwise_top_L1_b9_relu_0_split_1
I0821 06:46:14.427073 32352 net.cpp:150] Setting up L1_b9_sum_eltwise_top_L1_b9_relu_0_split
I0821 06:46:14.427085 32352 net.cpp:157] Top shape: 125 16 32 32 (2048000)
I0821 06:46:14.427091 32352 net.cpp:157] Top shape: 125 16 32 32 (2048000)
I0821 06:46:14.427096 32352 net.cpp:165] Memory required for data: 861697500
I0821 06:46:14.427101 32352 layer_factory.hpp:77] Creating layer L2_b1_cbr1_conv
I0821 06:46:14.427112 32352 net.cpp:100] Creating Layer L2_b1_cbr1_conv
I0821 06:46:14.427119 32352 net.cpp:434] L2_b1_cbr1_conv <- L1_b9_sum_eltwise_top_L1_b9_relu_0_split_0
I0821 06:46:14.427130 32352 net.cpp:408] L2_b1_cbr1_conv -> L2_b1_cbr1_conv_top
I0821 06:46:14.427448 32352 net.cpp:150] Setting up L2_b1_cbr1_conv
I0821 06:46:14.427462 32352 net.cpp:157] Top shape: 125 16 16 16 (512000)
I0821 06:46:14.427467 32352 net.cpp:165] Memory required for data: 863745500
I0821 06:46:14.427476 32352 layer_factory.hpp:77] Creating layer L2_b1_cbr1_bn
I0821 06:46:14.427485 32352 net.cpp:100] Creating Layer L2_b1_cbr1_bn
I0821 06:46:14.427491 32352 net.cpp:434] L2_b1_cbr1_bn <- L2_b1_cbr1_conv_top
I0821 06:46:14.427502 32352 net.cpp:408] L2_b1_cbr1_bn -> L2_b1_cbr1_bn_top
I0821 06:46:14.427749 32352 net.cpp:150] Setting up L2_b1_cbr1_bn
I0821 06:46:14.427762 32352 net.cpp:157] Top shape: 125 16 16 16 (512000)
I0821 06:46:14.427767 32352 net.cpp:165] Memory required for data: 865793500
I0821 06:46:14.427778 32352 layer_factory.hpp:77] Creating layer L2_b1_cbr1_scale
I0821 06:46:14.427791 32352 net.cpp:100] Creating Layer L2_b1_cbr1_scale
I0821 06:46:14.427804 32352 net.cpp:434] L2_b1_cbr1_scale <- L2_b1_cbr1_bn_top
I0821 06:46:14.427812 32352 net.cpp:395] L2_b1_cbr1_scale -> L2_b1_cbr1_bn_top (in-place)
I0821 06:46:14.427866 32352 layer_factory.hpp:77] Creating layer L2_b1_cbr1_scale
I0821 06:46:14.428010 32352 net.cpp:150] Setting up L2_b1_cbr1_scale
I0821 06:46:14.428023 32352 net.cpp:157] Top shape: 125 16 16 16 (512000)
I0821 06:46:14.428028 32352 net.cpp:165] Memory required for data: 867841500
I0821 06:46:14.428037 32352 layer_factory.hpp:77] Creating layer L2_b1_cbr1_relu
I0821 06:46:14.428048 32352 net.cpp:100] Creating Layer L2_b1_cbr1_relu
I0821 06:46:14.428055 32352 net.cpp:434] L2_b1_cbr1_relu <- L2_b1_cbr1_bn_top
I0821 06:46:14.428061 32352 net.cpp:395] L2_b1_cbr1_relu -> L2_b1_cbr1_bn_top (in-place)
I0821 06:46:14.428071 32352 net.cpp:150] Setting up L2_b1_cbr1_relu
I0821 06:46:14.428077 32352 net.cpp:157] Top shape: 125 16 16 16 (512000)
I0821 06:46:14.428081 32352 net.cpp:165] Memory required for data: 869889500
I0821 06:46:14.428086 32352 layer_factory.hpp:77] Creating layer L2_b1_cbr2_conv
I0821 06:46:14.428100 32352 net.cpp:100] Creating Layer L2_b1_cbr2_conv
I0821 06:46:14.428107 32352 net.cpp:434] L2_b1_cbr2_conv <- L2_b1_cbr1_bn_top
I0821 06:46:14.428117 32352 net.cpp:408] L2_b1_cbr2_conv -> L2_b1_cbr2_conv_top
I0821 06:46:14.428433 32352 net.cpp:150] Setting up L2_b1_cbr2_conv
I0821 06:46:14.428447 32352 net.cpp:157] Top shape: 125 16 16 16 (512000)
I0821 06:46:14.428452 32352 net.cpp:165] Memory required for data: 871937500
I0821 06:46:14.428459 32352 layer_factory.hpp:77] Creating layer L2_b1_cbr2_bn
I0821 06:46:14.428468 32352 net.cpp:100] Creating Layer L2_b1_cbr2_bn
I0821 06:46:14.428474 32352 net.cpp:434] L2_b1_cbr2_bn <- L2_b1_cbr2_conv_top
I0821 06:46:14.428488 32352 net.cpp:408] L2_b1_cbr2_bn -> L2_b1_cbr2_bn_top
I0821 06:46:14.428741 32352 net.cpp:150] Setting up L2_b1_cbr2_bn
I0821 06:46:14.428755 32352 net.cpp:157] Top shape: 125 16 16 16 (512000)
I0821 06:46:14.428761 32352 net.cpp:165] Memory required for data: 873985500
I0821 06:46:14.428771 32352 layer_factory.hpp:77] Creating layer L2_b1_cbr2_scale
I0821 06:46:14.428782 32352 net.cpp:100] Creating Layer L2_b1_cbr2_scale
I0821 06:46:14.428788 32352 net.cpp:434] L2_b1_cbr2_scale <- L2_b1_cbr2_bn_top
I0821 06:46:14.428797 32352 net.cpp:395] L2_b1_cbr2_scale -> L2_b1_cbr2_bn_top (in-place)
I0821 06:46:14.428848 32352 layer_factory.hpp:77] Creating layer L2_b1_cbr2_scale
I0821 06:46:14.428993 32352 net.cpp:150] Setting up L2_b1_cbr2_scale
I0821 06:46:14.429006 32352 net.cpp:157] Top shape: 125 16 16 16 (512000)
I0821 06:46:14.429011 32352 net.cpp:165] Memory required for data: 876033500
I0821 06:46:14.429020 32352 layer_factory.hpp:77] Creating layer L2_b1_pool
I0821 06:46:14.429030 32352 net.cpp:100] Creating Layer L2_b1_pool
I0821 06:46:14.429036 32352 net.cpp:434] L2_b1_pool <- L1_b9_sum_eltwise_top_L1_b9_relu_0_split_1
I0821 06:46:14.429049 32352 net.cpp:408] L2_b1_pool -> L2_b1_pool
I0821 06:46:14.429132 32352 net.cpp:150] Setting up L2_b1_pool
I0821 06:46:14.429154 32352 net.cpp:157] Top shape: 125 16 16 16 (512000)
I0821 06:46:14.429160 32352 net.cpp:165] Memory required for data: 878081500
I0821 06:46:14.429165 32352 layer_factory.hpp:77] Creating layer L2_b1_sum_eltwise
I0821 06:46:14.429175 32352 net.cpp:100] Creating Layer L2_b1_sum_eltwise
I0821 06:46:14.429181 32352 net.cpp:434] L2_b1_sum_eltwise <- L2_b1_cbr2_bn_top
I0821 06:46:14.429188 32352 net.cpp:434] L2_b1_sum_eltwise <- L2_b1_pool
I0821 06:46:14.429199 32352 net.cpp:408] L2_b1_sum_eltwise -> L2_b1_sum_eltwise_top
I0821 06:46:14.429234 32352 net.cpp:150] Setting up L2_b1_sum_eltwise
I0821 06:46:14.429245 32352 net.cpp:157] Top shape: 125 16 16 16 (512000)
I0821 06:46:14.429250 32352 net.cpp:165] Memory required for data: 880129500
I0821 06:46:14.429255 32352 layer_factory.hpp:77] Creating layer L2_b1_relu
I0821 06:46:14.429263 32352 net.cpp:100] Creating Layer L2_b1_relu
I0821 06:46:14.429268 32352 net.cpp:434] L2_b1_relu <- L2_b1_sum_eltwise_top
I0821 06:46:14.429275 32352 net.cpp:395] L2_b1_relu -> L2_b1_sum_eltwise_top (in-place)
I0821 06:46:14.429293 32352 net.cpp:150] Setting up L2_b1_relu
I0821 06:46:14.429301 32352 net.cpp:157] Top shape: 125 16 16 16 (512000)
I0821 06:46:14.429306 32352 net.cpp:165] Memory required for data: 882177500
I0821 06:46:14.429311 32352 layer_factory.hpp:77] Creating layer L2_b1_zeros
I0821 06:46:14.429361 32352 net.cpp:100] Creating Layer L2_b1_zeros
I0821 06:46:14.429375 32352 net.cpp:408] L2_b1_zeros -> L2_b1_zeros
I0821 06:46:14.431743 32352 net.cpp:150] Setting up L2_b1_zeros
I0821 06:46:14.431771 32352 net.cpp:157] Top shape: 125 16 16 16 (512000)
I0821 06:46:14.431777 32352 net.cpp:165] Memory required for data: 884225500
I0821 06:46:14.431782 32352 layer_factory.hpp:77] Creating layer L2_b1_concat0
I0821 06:46:14.431792 32352 net.cpp:100] Creating Layer L2_b1_concat0
I0821 06:46:14.431798 32352 net.cpp:434] L2_b1_concat0 <- L2_b1_sum_eltwise_top
I0821 06:46:14.431807 32352 net.cpp:434] L2_b1_concat0 <- L2_b1_zeros
I0821 06:46:14.431813 32352 net.cpp:408] L2_b1_concat0 -> L2_b1_concat0
I0821 06:46:14.431895 32352 net.cpp:150] Setting up L2_b1_concat0
I0821 06:46:14.431910 32352 net.cpp:157] Top shape: 125 32 16 16 (1024000)
I0821 06:46:14.431915 32352 net.cpp:165] Memory required for data: 888321500
I0821 06:46:14.431921 32352 layer_factory.hpp:77] Creating layer L2_b1_concat0_L2_b1_concat0_0_split
I0821 06:46:14.431932 32352 net.cpp:100] Creating Layer L2_b1_concat0_L2_b1_concat0_0_split
I0821 06:46:14.431938 32352 net.cpp:434] L2_b1_concat0_L2_b1_concat0_0_split <- L2_b1_concat0
I0821 06:46:14.431946 32352 net.cpp:408] L2_b1_concat0_L2_b1_concat0_0_split -> L2_b1_concat0_L2_b1_concat0_0_split_0
I0821 06:46:14.431957 32352 net.cpp:408] L2_b1_concat0_L2_b1_concat0_0_split -> L2_b1_concat0_L2_b1_concat0_0_split_1
I0821 06:46:14.432008 32352 net.cpp:150] Setting up L2_b1_concat0_L2_b1_concat0_0_split
I0821 06:46:14.432019 32352 net.cpp:157] Top shape: 125 32 16 16 (1024000)
I0821 06:46:14.432026 32352 net.cpp:157] Top shape: 125 32 16 16 (1024000)
I0821 06:46:14.432030 32352 net.cpp:165] Memory required for data: 896513500
I0821 06:46:14.432035 32352 layer_factory.hpp:77] Creating layer L2_b2_cbr1_conv
I0821 06:46:14.432050 32352 net.cpp:100] Creating Layer L2_b2_cbr1_conv
I0821 06:46:14.432057 32352 net.cpp:434] L2_b2_cbr1_conv <- L2_b1_concat0_L2_b1_concat0_0_split_0
I0821 06:46:14.432066 32352 net.cpp:408] L2_b2_cbr1_conv -> L2_b2_cbr1_conv_top
I0821 06:46:14.433532 32352 net.cpp:150] Setting up L2_b2_cbr1_conv
I0821 06:46:14.433550 32352 net.cpp:157] Top shape: 125 32 16 16 (1024000)
I0821 06:46:14.433555 32352 net.cpp:165] Memory required for data: 900609500
I0821 06:46:14.433565 32352 layer_factory.hpp:77] Creating layer L2_b2_cbr1_bn
I0821 06:46:14.433575 32352 net.cpp:100] Creating Layer L2_b2_cbr1_bn
I0821 06:46:14.433581 32352 net.cpp:434] L2_b2_cbr1_bn <- L2_b2_cbr1_conv_top
I0821 06:46:14.433593 32352 net.cpp:408] L2_b2_cbr1_bn -> L2_b2_cbr1_bn_top
I0821 06:46:14.433851 32352 net.cpp:150] Setting up L2_b2_cbr1_bn
I0821 06:46:14.433866 32352 net.cpp:157] Top shape: 125 32 16 16 (1024000)
I0821 06:46:14.433871 32352 net.cpp:165] Memory required for data: 904705500
I0821 06:46:14.433881 32352 layer_factory.hpp:77] Creating layer L2_b2_cbr1_scale
I0821 06:46:14.433892 32352 net.cpp:100] Creating Layer L2_b2_cbr1_scale
I0821 06:46:14.433899 32352 net.cpp:434] L2_b2_cbr1_scale <- L2_b2_cbr1_bn_top
I0821 06:46:14.433907 32352 net.cpp:395] L2_b2_cbr1_scale -> L2_b2_cbr1_bn_top (in-place)
I0821 06:46:14.433962 32352 layer_factory.hpp:77] Creating layer L2_b2_cbr1_scale
I0821 06:46:14.434111 32352 net.cpp:150] Setting up L2_b2_cbr1_scale
I0821 06:46:14.434124 32352 net.cpp:157] Top shape: 125 32 16 16 (1024000)
I0821 06:46:14.434129 32352 net.cpp:165] Memory required for data: 908801500
I0821 06:46:14.434139 32352 layer_factory.hpp:77] Creating layer L2_b2_cbr1_relu
I0821 06:46:14.434152 32352 net.cpp:100] Creating Layer L2_b2_cbr1_relu
I0821 06:46:14.434159 32352 net.cpp:434] L2_b2_cbr1_relu <- L2_b2_cbr1_bn_top
I0821 06:46:14.434166 32352 net.cpp:395] L2_b2_cbr1_relu -> L2_b2_cbr1_bn_top (in-place)
I0821 06:46:14.434185 32352 net.cpp:150] Setting up L2_b2_cbr1_relu
I0821 06:46:14.434193 32352 net.cpp:157] Top shape: 125 32 16 16 (1024000)
I0821 06:46:14.434197 32352 net.cpp:165] Memory required for data: 912897500
I0821 06:46:14.434202 32352 layer_factory.hpp:77] Creating layer L2_b2_cbr2_conv
I0821 06:46:14.434217 32352 net.cpp:100] Creating Layer L2_b2_cbr2_conv
I0821 06:46:14.434223 32352 net.cpp:434] L2_b2_cbr2_conv <- L2_b2_cbr1_bn_top
I0821 06:46:14.434234 32352 net.cpp:408] L2_b2_cbr2_conv -> L2_b2_cbr2_conv_top
I0821 06:46:14.434856 32352 net.cpp:150] Setting up L2_b2_cbr2_conv
I0821 06:46:14.434872 32352 net.cpp:157] Top shape: 125 32 16 16 (1024000)
I0821 06:46:14.434877 32352 net.cpp:165] Memory required for data: 916993500
I0821 06:46:14.434886 32352 layer_factory.hpp:77] Creating layer L2_b2_cbr2_bn
I0821 06:46:14.434897 32352 net.cpp:100] Creating Layer L2_b2_cbr2_bn
I0821 06:46:14.434903 32352 net.cpp:434] L2_b2_cbr2_bn <- L2_b2_cbr2_conv_top
I0821 06:46:14.434914 32352 net.cpp:408] L2_b2_cbr2_bn -> L2_b2_cbr2_bn_top
I0821 06:46:14.435163 32352 net.cpp:150] Setting up L2_b2_cbr2_bn
I0821 06:46:14.435176 32352 net.cpp:157] Top shape: 125 32 16 16 (1024000)
I0821 06:46:14.435181 32352 net.cpp:165] Memory required for data: 921089500
I0821 06:46:14.435191 32352 layer_factory.hpp:77] Creating layer L2_b2_cbr2_scale
I0821 06:46:14.435204 32352 net.cpp:100] Creating Layer L2_b2_cbr2_scale
I0821 06:46:14.435210 32352 net.cpp:434] L2_b2_cbr2_scale <- L2_b2_cbr2_bn_top
I0821 06:46:14.435219 32352 net.cpp:395] L2_b2_cbr2_scale -> L2_b2_cbr2_bn_top (in-place)
I0821 06:46:14.435272 32352 layer_factory.hpp:77] Creating layer L2_b2_cbr2_scale
I0821 06:46:14.435418 32352 net.cpp:150] Setting up L2_b2_cbr2_scale
I0821 06:46:14.435431 32352 net.cpp:157] Top shape: 125 32 16 16 (1024000)
I0821 06:46:14.435436 32352 net.cpp:165] Memory required for data: 925185500
I0821 06:46:14.435446 32352 layer_factory.hpp:77] Creating layer L2_b2_sum_eltwise
I0821 06:46:14.435458 32352 net.cpp:100] Creating Layer L2_b2_sum_eltwise
I0821 06:46:14.435464 32352 net.cpp:434] L2_b2_sum_eltwise <- L2_b2_cbr2_bn_top
I0821 06:46:14.435472 32352 net.cpp:434] L2_b2_sum_eltwise <- L2_b1_concat0_L2_b1_concat0_0_split_1
I0821 06:46:14.435479 32352 net.cpp:408] L2_b2_sum_eltwise -> L2_b2_sum_eltwise_top
I0821 06:46:14.435509 32352 net.cpp:150] Setting up L2_b2_sum_eltwise
I0821 06:46:14.435518 32352 net.cpp:157] Top shape: 125 32 16 16 (1024000)
I0821 06:46:14.435523 32352 net.cpp:165] Memory required for data: 929281500
I0821 06:46:14.435528 32352 layer_factory.hpp:77] Creating layer L2_b2_relu
I0821 06:46:14.435536 32352 net.cpp:100] Creating Layer L2_b2_relu
I0821 06:46:14.435541 32352 net.cpp:434] L2_b2_relu <- L2_b2_sum_eltwise_top
I0821 06:46:14.435549 32352 net.cpp:395] L2_b2_relu -> L2_b2_sum_eltwise_top (in-place)
I0821 06:46:14.435557 32352 net.cpp:150] Setting up L2_b2_relu
I0821 06:46:14.435564 32352 net.cpp:157] Top shape: 125 32 16 16 (1024000)
I0821 06:46:14.435569 32352 net.cpp:165] Memory required for data: 933377500
I0821 06:46:14.435573 32352 layer_factory.hpp:77] Creating layer L2_b2_sum_eltwise_top_L2_b2_relu_0_split
I0821 06:46:14.435583 32352 net.cpp:100] Creating Layer L2_b2_sum_eltwise_top_L2_b2_relu_0_split
I0821 06:46:14.435588 32352 net.cpp:434] L2_b2_sum_eltwise_top_L2_b2_relu_0_split <- L2_b2_sum_eltwise_top
I0821 06:46:14.435596 32352 net.cpp:408] L2_b2_sum_eltwise_top_L2_b2_relu_0_split -> L2_b2_sum_eltwise_top_L2_b2_relu_0_split_0
I0821 06:46:14.435606 32352 net.cpp:408] L2_b2_sum_eltwise_top_L2_b2_relu_0_split -> L2_b2_sum_eltwise_top_L2_b2_relu_0_split_1
I0821 06:46:14.435658 32352 net.cpp:150] Setting up L2_b2_sum_eltwise_top_L2_b2_relu_0_split
I0821 06:46:14.435672 32352 net.cpp:157] Top shape: 125 32 16 16 (1024000)
I0821 06:46:14.435678 32352 net.cpp:157] Top shape: 125 32 16 16 (1024000)
I0821 06:46:14.435683 32352 net.cpp:165] Memory required for data: 941569500
I0821 06:46:14.435688 32352 layer_factory.hpp:77] Creating layer L2_b3_cbr1_conv
I0821 06:46:14.435706 32352 net.cpp:100] Creating Layer L2_b3_cbr1_conv
I0821 06:46:14.435714 32352 net.cpp:434] L2_b3_cbr1_conv <- L2_b2_sum_eltwise_top_L2_b2_relu_0_split_0
I0821 06:46:14.435725 32352 net.cpp:408] L2_b3_cbr1_conv -> L2_b3_cbr1_conv_top
I0821 06:46:14.436189 32352 net.cpp:150] Setting up L2_b3_cbr1_conv
I0821 06:46:14.436203 32352 net.cpp:157] Top shape: 125 32 16 16 (1024000)
I0821 06:46:14.436208 32352 net.cpp:165] Memory required for data: 945665500
I0821 06:46:14.436218 32352 layer_factory.hpp:77] Creating layer L2_b3_cbr1_bn
I0821 06:46:14.436228 32352 net.cpp:100] Creating Layer L2_b3_cbr1_bn
I0821 06:46:14.436233 32352 net.cpp:434] L2_b3_cbr1_bn <- L2_b3_cbr1_conv_top
I0821 06:46:14.436249 32352 net.cpp:408] L2_b3_cbr1_bn -> L2_b3_cbr1_bn_top
I0821 06:46:14.436491 32352 net.cpp:150] Setting up L2_b3_cbr1_bn
I0821 06:46:14.436504 32352 net.cpp:157] Top shape: 125 32 16 16 (1024000)
I0821 06:46:14.436509 32352 net.cpp:165] Memory required for data: 949761500
I0821 06:46:14.436519 32352 layer_factory.hpp:77] Creating layer L2_b3_cbr1_scale
I0821 06:46:14.436532 32352 net.cpp:100] Creating Layer L2_b3_cbr1_scale
I0821 06:46:14.436537 32352 net.cpp:434] L2_b3_cbr1_scale <- L2_b3_cbr1_bn_top
I0821 06:46:14.436544 32352 net.cpp:395] L2_b3_cbr1_scale -> L2_b3_cbr1_bn_top (in-place)
I0821 06:46:14.436599 32352 layer_factory.hpp:77] Creating layer L2_b3_cbr1_scale
I0821 06:46:14.436753 32352 net.cpp:150] Setting up L2_b3_cbr1_scale
I0821 06:46:14.436766 32352 net.cpp:157] Top shape: 125 32 16 16 (1024000)
I0821 06:46:14.436771 32352 net.cpp:165] Memory required for data: 953857500
I0821 06:46:14.436780 32352 layer_factory.hpp:77] Creating layer L2_b3_cbr1_relu
I0821 06:46:14.436791 32352 net.cpp:100] Creating Layer L2_b3_cbr1_relu
I0821 06:46:14.436797 32352 net.cpp:434] L2_b3_cbr1_relu <- L2_b3_cbr1_bn_top
I0821 06:46:14.436805 32352 net.cpp:395] L2_b3_cbr1_relu -> L2_b3_cbr1_bn_top (in-place)
I0821 06:46:14.436815 32352 net.cpp:150] Setting up L2_b3_cbr1_relu
I0821 06:46:14.436820 32352 net.cpp:157] Top shape: 125 32 16 16 (1024000)
I0821 06:46:14.436825 32352 net.cpp:165] Memory required for data: 957953500
I0821 06:46:14.436830 32352 layer_factory.hpp:77] Creating layer L2_b3_cbr2_conv
I0821 06:46:14.436843 32352 net.cpp:100] Creating Layer L2_b3_cbr2_conv
I0821 06:46:14.436849 32352 net.cpp:434] L2_b3_cbr2_conv <- L2_b3_cbr1_bn_top
I0821 06:46:14.436861 32352 net.cpp:408] L2_b3_cbr2_conv -> L2_b3_cbr2_conv_top
I0821 06:46:14.437316 32352 net.cpp:150] Setting up L2_b3_cbr2_conv
I0821 06:46:14.437330 32352 net.cpp:157] Top shape: 125 32 16 16 (1024000)
I0821 06:46:14.437335 32352 net.cpp:165] Memory required for data: 962049500
I0821 06:46:14.437345 32352 layer_factory.hpp:77] Creating layer L2_b3_cbr2_bn
I0821 06:46:14.437353 32352 net.cpp:100] Creating Layer L2_b3_cbr2_bn
I0821 06:46:14.437360 32352 net.cpp:434] L2_b3_cbr2_bn <- L2_b3_cbr2_conv_top
I0821 06:46:14.437367 32352 net.cpp:408] L2_b3_cbr2_bn -> L2_b3_cbr2_bn_top
I0821 06:46:14.437615 32352 net.cpp:150] Setting up L2_b3_cbr2_bn
I0821 06:46:14.437628 32352 net.cpp:157] Top shape: 125 32 16 16 (1024000)
I0821 06:46:14.437633 32352 net.cpp:165] Memory required for data: 966145500
I0821 06:46:14.437644 32352 layer_factory.hpp:77] Creating layer L2_b3_cbr2_scale
I0821 06:46:14.437657 32352 net.cpp:100] Creating Layer L2_b3_cbr2_scale
I0821 06:46:14.437664 32352 net.cpp:434] L2_b3_cbr2_scale <- L2_b3_cbr2_bn_top
I0821 06:46:14.437675 32352 net.cpp:395] L2_b3_cbr2_scale -> L2_b3_cbr2_bn_top (in-place)
I0821 06:46:14.437731 32352 layer_factory.hpp:77] Creating layer L2_b3_cbr2_scale
I0821 06:46:14.437885 32352 net.cpp:150] Setting up L2_b3_cbr2_scale
I0821 06:46:14.437898 32352 net.cpp:157] Top shape: 125 32 16 16 (1024000)
I0821 06:46:14.437903 32352 net.cpp:165] Memory required for data: 970241500
I0821 06:46:14.437912 32352 layer_factory.hpp:77] Creating layer L2_b3_sum_eltwise
I0821 06:46:14.437922 32352 net.cpp:100] Creating Layer L2_b3_sum_eltwise
I0821 06:46:14.437927 32352 net.cpp:434] L2_b3_sum_eltwise <- L2_b3_cbr2_bn_top
I0821 06:46:14.437934 32352 net.cpp:434] L2_b3_sum_eltwise <- L2_b2_sum_eltwise_top_L2_b2_relu_0_split_1
I0821 06:46:14.437952 32352 net.cpp:408] L2_b3_sum_eltwise -> L2_b3_sum_eltwise_top
I0821 06:46:14.437980 32352 net.cpp:150] Setting up L2_b3_sum_eltwise
I0821 06:46:14.437994 32352 net.cpp:157] Top shape: 125 32 16 16 (1024000)
I0821 06:46:14.437999 32352 net.cpp:165] Memory required for data: 974337500
I0821 06:46:14.438004 32352 layer_factory.hpp:77] Creating layer L2_b3_relu
I0821 06:46:14.438024 32352 net.cpp:100] Creating Layer L2_b3_relu
I0821 06:46:14.438030 32352 net.cpp:434] L2_b3_relu <- L2_b3_sum_eltwise_top
I0821 06:46:14.438038 32352 net.cpp:395] L2_b3_relu -> L2_b3_sum_eltwise_top (in-place)
I0821 06:46:14.438047 32352 net.cpp:150] Setting up L2_b3_relu
I0821 06:46:14.438055 32352 net.cpp:157] Top shape: 125 32 16 16 (1024000)
I0821 06:46:14.438060 32352 net.cpp:165] Memory required for data: 978433500
I0821 06:46:14.438066 32352 layer_factory.hpp:77] Creating layer L2_b3_sum_eltwise_top_L2_b3_relu_0_split
I0821 06:46:14.438072 32352 net.cpp:100] Creating Layer L2_b3_sum_eltwise_top_L2_b3_relu_0_split
I0821 06:46:14.438077 32352 net.cpp:434] L2_b3_sum_eltwise_top_L2_b3_relu_0_split <- L2_b3_sum_eltwise_top
I0821 06:46:14.438087 32352 net.cpp:408] L2_b3_sum_eltwise_top_L2_b3_relu_0_split -> L2_b3_sum_eltwise_top_L2_b3_relu_0_split_0
I0821 06:46:14.438097 32352 net.cpp:408] L2_b3_sum_eltwise_top_L2_b3_relu_0_split -> L2_b3_sum_eltwise_top_L2_b3_relu_0_split_1
I0821 06:46:14.438143 32352 net.cpp:150] Setting up L2_b3_sum_eltwise_top_L2_b3_relu_0_split
I0821 06:46:14.438154 32352 net.cpp:157] Top shape: 125 32 16 16 (1024000)
I0821 06:46:14.438160 32352 net.cpp:157] Top shape: 125 32 16 16 (1024000)
I0821 06:46:14.438165 32352 net.cpp:165] Memory required for data: 986625500
I0821 06:46:14.438170 32352 layer_factory.hpp:77] Creating layer L2_b4_cbr1_conv
I0821 06:46:14.438186 32352 net.cpp:100] Creating Layer L2_b4_cbr1_conv
I0821 06:46:14.438194 32352 net.cpp:434] L2_b4_cbr1_conv <- L2_b3_sum_eltwise_top_L2_b3_relu_0_split_0
I0821 06:46:14.438202 32352 net.cpp:408] L2_b4_cbr1_conv -> L2_b4_cbr1_conv_top
I0821 06:46:14.438668 32352 net.cpp:150] Setting up L2_b4_cbr1_conv
I0821 06:46:14.438683 32352 net.cpp:157] Top shape: 125 32 16 16 (1024000)
I0821 06:46:14.438688 32352 net.cpp:165] Memory required for data: 990721500
I0821 06:46:14.438697 32352 layer_factory.hpp:77] Creating layer L2_b4_cbr1_bn
I0821 06:46:14.438709 32352 net.cpp:100] Creating Layer L2_b4_cbr1_bn
I0821 06:46:14.438715 32352 net.cpp:434] L2_b4_cbr1_bn <- L2_b4_cbr1_conv_top
I0821 06:46:14.438724 32352 net.cpp:408] L2_b4_cbr1_bn -> L2_b4_cbr1_bn_top
I0821 06:46:14.438971 32352 net.cpp:150] Setting up L2_b4_cbr1_bn
I0821 06:46:14.438984 32352 net.cpp:157] Top shape: 125 32 16 16 (1024000)
I0821 06:46:14.438989 32352 net.cpp:165] Memory required for data: 994817500
I0821 06:46:14.438999 32352 layer_factory.hpp:77] Creating layer L2_b4_cbr1_scale
I0821 06:46:14.439008 32352 net.cpp:100] Creating Layer L2_b4_cbr1_scale
I0821 06:46:14.439014 32352 net.cpp:434] L2_b4_cbr1_scale <- L2_b4_cbr1_bn_top
I0821 06:46:14.439025 32352 net.cpp:395] L2_b4_cbr1_scale -> L2_b4_cbr1_bn_top (in-place)
I0821 06:46:14.439080 32352 layer_factory.hpp:77] Creating layer L2_b4_cbr1_scale
I0821 06:46:14.439227 32352 net.cpp:150] Setting up L2_b4_cbr1_scale
I0821 06:46:14.439239 32352 net.cpp:157] Top shape: 125 32 16 16 (1024000)
I0821 06:46:14.439244 32352 net.cpp:165] Memory required for data: 998913500
I0821 06:46:14.439254 32352 layer_factory.hpp:77] Creating layer L2_b4_cbr1_relu
I0821 06:46:14.439261 32352 net.cpp:100] Creating Layer L2_b4_cbr1_relu
I0821 06:46:14.439267 32352 net.cpp:434] L2_b4_cbr1_relu <- L2_b4_cbr1_bn_top
I0821 06:46:14.439275 32352 net.cpp:395] L2_b4_cbr1_relu -> L2_b4_cbr1_bn_top (in-place)
I0821 06:46:14.439286 32352 net.cpp:150] Setting up L2_b4_cbr1_relu
I0821 06:46:14.439294 32352 net.cpp:157] Top shape: 125 32 16 16 (1024000)
I0821 06:46:14.439298 32352 net.cpp:165] Memory required for data: 1003009500
I0821 06:46:14.439303 32352 layer_factory.hpp:77] Creating layer L2_b4_cbr2_conv
I0821 06:46:14.439321 32352 net.cpp:100] Creating Layer L2_b4_cbr2_conv
I0821 06:46:14.439333 32352 net.cpp:434] L2_b4_cbr2_conv <- L2_b4_cbr1_bn_top
I0821 06:46:14.439342 32352 net.cpp:408] L2_b4_cbr2_conv -> L2_b4_cbr2_conv_top
I0821 06:46:14.439811 32352 net.cpp:150] Setting up L2_b4_cbr2_conv
I0821 06:46:14.439826 32352 net.cpp:157] Top shape: 125 32 16 16 (1024000)
I0821 06:46:14.439831 32352 net.cpp:165] Memory required for data: 1007105500
I0821 06:46:14.439839 32352 layer_factory.hpp:77] Creating layer L2_b4_cbr2_bn
I0821 06:46:14.439854 32352 net.cpp:100] Creating Layer L2_b4_cbr2_bn
I0821 06:46:14.439862 32352 net.cpp:434] L2_b4_cbr2_bn <- L2_b4_cbr2_conv_top
I0821 06:46:14.439872 32352 net.cpp:408] L2_b4_cbr2_bn -> L2_b4_cbr2_bn_top
I0821 06:46:14.440115 32352 net.cpp:150] Setting up L2_b4_cbr2_bn
I0821 06:46:14.440129 32352 net.cpp:157] Top shape: 125 32 16 16 (1024000)
I0821 06:46:14.440135 32352 net.cpp:165] Memory required for data: 1011201500
I0821 06:46:14.440145 32352 layer_factory.hpp:77] Creating layer L2_b4_cbr2_scale
I0821 06:46:14.440152 32352 net.cpp:100] Creating Layer L2_b4_cbr2_scale
I0821 06:46:14.440158 32352 net.cpp:434] L2_b4_cbr2_scale <- L2_b4_cbr2_bn_top
I0821 06:46:14.440166 32352 net.cpp:395] L2_b4_cbr2_scale -> L2_b4_cbr2_bn_top (in-place)
I0821 06:46:14.440223 32352 layer_factory.hpp:77] Creating layer L2_b4_cbr2_scale
I0821 06:46:14.440367 32352 net.cpp:150] Setting up L2_b4_cbr2_scale
I0821 06:46:14.440384 32352 net.cpp:157] Top shape: 125 32 16 16 (1024000)
I0821 06:46:14.440389 32352 net.cpp:165] Memory required for data: 1015297500
I0821 06:46:14.440398 32352 layer_factory.hpp:77] Creating layer L2_b4_sum_eltwise
I0821 06:46:14.440407 32352 net.cpp:100] Creating Layer L2_b4_sum_eltwise
I0821 06:46:14.440413 32352 net.cpp:434] L2_b4_sum_eltwise <- L2_b4_cbr2_bn_top
I0821 06:46:14.440419 32352 net.cpp:434] L2_b4_sum_eltwise <- L2_b3_sum_eltwise_top_L2_b3_relu_0_split_1
I0821 06:46:14.440428 32352 net.cpp:408] L2_b4_sum_eltwise -> L2_b4_sum_eltwise_top
I0821 06:46:14.440456 32352 net.cpp:150] Setting up L2_b4_sum_eltwise
I0821 06:46:14.440465 32352 net.cpp:157] Top shape: 125 32 16 16 (1024000)
I0821 06:46:14.440470 32352 net.cpp:165] Memory required for data: 1019393500
I0821 06:46:14.440475 32352 layer_factory.hpp:77] Creating layer L2_b4_relu
I0821 06:46:14.440484 32352 net.cpp:100] Creating Layer L2_b4_relu
I0821 06:46:14.440488 32352 net.cpp:434] L2_b4_relu <- L2_b4_sum_eltwise_top
I0821 06:46:14.440498 32352 net.cpp:395] L2_b4_relu -> L2_b4_sum_eltwise_top (in-place)
I0821 06:46:14.440507 32352 net.cpp:150] Setting up L2_b4_relu
I0821 06:46:14.440515 32352 net.cpp:157] Top shape: 125 32 16 16 (1024000)
I0821 06:46:14.440518 32352 net.cpp:165] Memory required for data: 1023489500
I0821 06:46:14.440523 32352 layer_factory.hpp:77] Creating layer L2_b4_sum_eltwise_top_L2_b4_relu_0_split
I0821 06:46:14.440531 32352 net.cpp:100] Creating Layer L2_b4_sum_eltwise_top_L2_b4_relu_0_split
I0821 06:46:14.440536 32352 net.cpp:434] L2_b4_sum_eltwise_top_L2_b4_relu_0_split <- L2_b4_sum_eltwise_top
I0821 06:46:14.440546 32352 net.cpp:408] L2_b4_sum_eltwise_top_L2_b4_relu_0_split -> L2_b4_sum_eltwise_top_L2_b4_relu_0_split_0
I0821 06:46:14.440554 32352 net.cpp:408] L2_b4_sum_eltwise_top_L2_b4_relu_0_split -> L2_b4_sum_eltwise_top_L2_b4_relu_0_split_1
I0821 06:46:14.440598 32352 net.cpp:150] Setting up L2_b4_sum_eltwise_top_L2_b4_relu_0_split
I0821 06:46:14.440609 32352 net.cpp:157] Top shape: 125 32 16 16 (1024000)
I0821 06:46:14.440615 32352 net.cpp:157] Top shape: 125 32 16 16 (1024000)
I0821 06:46:14.440620 32352 net.cpp:165] Memory required for data: 1031681500
I0821 06:46:14.440625 32352 layer_factory.hpp:77] Creating layer L2_b5_cbr1_conv
I0821 06:46:14.440640 32352 net.cpp:100] Creating Layer L2_b5_cbr1_conv
I0821 06:46:14.440647 32352 net.cpp:434] L2_b5_cbr1_conv <- L2_b4_sum_eltwise_top_L2_b4_relu_0_split_0
I0821 06:46:14.440663 32352 net.cpp:408] L2_b5_cbr1_conv -> L2_b5_cbr1_conv_top
I0821 06:46:14.441125 32352 net.cpp:150] Setting up L2_b5_cbr1_conv
I0821 06:46:14.441146 32352 net.cpp:157] Top shape: 125 32 16 16 (1024000)
I0821 06:46:14.441151 32352 net.cpp:165] Memory required for data: 1035777500
I0821 06:46:14.441160 32352 layer_factory.hpp:77] Creating layer L2_b5_cbr1_bn
I0821 06:46:14.441172 32352 net.cpp:100] Creating Layer L2_b5_cbr1_bn
I0821 06:46:14.441179 32352 net.cpp:434] L2_b5_cbr1_bn <- L2_b5_cbr1_conv_top
I0821 06:46:14.441186 32352 net.cpp:408] L2_b5_cbr1_bn -> L2_b5_cbr1_bn_top
I0821 06:46:14.441437 32352 net.cpp:150] Setting up L2_b5_cbr1_bn
I0821 06:46:14.441450 32352 net.cpp:157] Top shape: 125 32 16 16 (1024000)
I0821 06:46:14.441455 32352 net.cpp:165] Memory required for data: 1039873500
I0821 06:46:14.441467 32352 layer_factory.hpp:77] Creating layer L2_b5_cbr1_scale
I0821 06:46:14.441474 32352 net.cpp:100] Creating Layer L2_b5_cbr1_scale
I0821 06:46:14.441480 32352 net.cpp:434] L2_b5_cbr1_scale <- L2_b5_cbr1_bn_top
I0821 06:46:14.441488 32352 net.cpp:395] L2_b5_cbr1_scale -> L2_b5_cbr1_bn_top (in-place)
I0821 06:46:14.441545 32352 layer_factory.hpp:77] Creating layer L2_b5_cbr1_scale
I0821 06:46:14.441701 32352 net.cpp:150] Setting up L2_b5_cbr1_scale
I0821 06:46:14.441717 32352 net.cpp:157] Top shape: 125 32 16 16 (1024000)
I0821 06:46:14.441722 32352 net.cpp:165] Memory required for data: 1043969500
I0821 06:46:14.441731 32352 layer_factory.hpp:77] Creating layer L2_b5_cbr1_relu
I0821 06:46:14.441740 32352 net.cpp:100] Creating Layer L2_b5_cbr1_relu
I0821 06:46:14.441745 32352 net.cpp:434] L2_b5_cbr1_relu <- L2_b5_cbr1_bn_top
I0821 06:46:14.441752 32352 net.cpp:395] L2_b5_cbr1_relu -> L2_b5_cbr1_bn_top (in-place)
I0821 06:46:14.441761 32352 net.cpp:150] Setting up L2_b5_cbr1_relu
I0821 06:46:14.441768 32352 net.cpp:157] Top shape: 125 32 16 16 (1024000)
I0821 06:46:14.441773 32352 net.cpp:165] Memory required for data: 1048065500
I0821 06:46:14.441777 32352 layer_factory.hpp:77] Creating layer L2_b5_cbr2_conv
I0821 06:46:14.441792 32352 net.cpp:100] Creating Layer L2_b5_cbr2_conv
I0821 06:46:14.441797 32352 net.cpp:434] L2_b5_cbr2_conv <- L2_b5_cbr1_bn_top
I0821 06:46:14.441808 32352 net.cpp:408] L2_b5_cbr2_conv -> L2_b5_cbr2_conv_top
I0821 06:46:14.442270 32352 net.cpp:150] Setting up L2_b5_cbr2_conv
I0821 06:46:14.442283 32352 net.cpp:157] Top shape: 125 32 16 16 (1024000)
I0821 06:46:14.442288 32352 net.cpp:165] Memory required for data: 1052161500
I0821 06:46:14.442297 32352 layer_factory.hpp:77] Creating layer L2_b5_cbr2_bn
I0821 06:46:14.442308 32352 net.cpp:100] Creating Layer L2_b5_cbr2_bn
I0821 06:46:14.442315 32352 net.cpp:434] L2_b5_cbr2_bn <- L2_b5_cbr2_conv_top
I0821 06:46:14.442325 32352 net.cpp:408] L2_b5_cbr2_bn -> L2_b5_cbr2_bn_top
I0821 06:46:14.442569 32352 net.cpp:150] Setting up L2_b5_cbr2_bn
I0821 06:46:14.442582 32352 net.cpp:157] Top shape: 125 32 16 16 (1024000)
I0821 06:46:14.442587 32352 net.cpp:165] Memory required for data: 1056257500
I0821 06:46:14.442597 32352 layer_factory.hpp:77] Creating layer L2_b5_cbr2_scale
I0821 06:46:14.442606 32352 net.cpp:100] Creating Layer L2_b5_cbr2_scale
I0821 06:46:14.442612 32352 net.cpp:434] L2_b5_cbr2_scale <- L2_b5_cbr2_bn_top
I0821 06:46:14.442620 32352 net.cpp:395] L2_b5_cbr2_scale -> L2_b5_cbr2_bn_top (in-place)
I0821 06:46:14.442683 32352 layer_factory.hpp:77] Creating layer L2_b5_cbr2_scale
I0821 06:46:14.442834 32352 net.cpp:150] Setting up L2_b5_cbr2_scale
I0821 06:46:14.442847 32352 net.cpp:157] Top shape: 125 32 16 16 (1024000)
I0821 06:46:14.442852 32352 net.cpp:165] Memory required for data: 1060353500
I0821 06:46:14.442862 32352 layer_factory.hpp:77] Creating layer L2_b5_sum_eltwise
I0821 06:46:14.442873 32352 net.cpp:100] Creating Layer L2_b5_sum_eltwise
I0821 06:46:14.442879 32352 net.cpp:434] L2_b5_sum_eltwise <- L2_b5_cbr2_bn_top
I0821 06:46:14.442886 32352 net.cpp:434] L2_b5_sum_eltwise <- L2_b4_sum_eltwise_top_L2_b4_relu_0_split_1
I0821 06:46:14.442894 32352 net.cpp:408] L2_b5_sum_eltwise -> L2_b5_sum_eltwise_top
I0821 06:46:14.442920 32352 net.cpp:150] Setting up L2_b5_sum_eltwise
I0821 06:46:14.442929 32352 net.cpp:157] Top shape: 125 32 16 16 (1024000)
I0821 06:46:14.442941 32352 net.cpp:165] Memory required for data: 1064449500
I0821 06:46:14.442947 32352 layer_factory.hpp:77] Creating layer L2_b5_relu
I0821 06:46:14.442957 32352 net.cpp:100] Creating Layer L2_b5_relu
I0821 06:46:14.442963 32352 net.cpp:434] L2_b5_relu <- L2_b5_sum_eltwise_top
I0821 06:46:14.442973 32352 net.cpp:395] L2_b5_relu -> L2_b5_sum_eltwise_top (in-place)
I0821 06:46:14.442983 32352 net.cpp:150] Setting up L2_b5_relu
I0821 06:46:14.442991 32352 net.cpp:157] Top shape: 125 32 16 16 (1024000)
I0821 06:46:14.442994 32352 net.cpp:165] Memory required for data: 1068545500
I0821 06:46:14.442999 32352 layer_factory.hpp:77] Creating layer L2_b5_sum_eltwise_top_L2_b5_relu_0_split
I0821 06:46:14.443006 32352 net.cpp:100] Creating Layer L2_b5_sum_eltwise_top_L2_b5_relu_0_split
I0821 06:46:14.443011 32352 net.cpp:434] L2_b5_sum_eltwise_top_L2_b5_relu_0_split <- L2_b5_sum_eltwise_top
I0821 06:46:14.443018 32352 net.cpp:408] L2_b5_sum_eltwise_top_L2_b5_relu_0_split -> L2_b5_sum_eltwise_top_L2_b5_relu_0_split_0
I0821 06:46:14.443028 32352 net.cpp:408] L2_b5_sum_eltwise_top_L2_b5_relu_0_split -> L2_b5_sum_eltwise_top_L2_b5_relu_0_split_1
I0821 06:46:14.443075 32352 net.cpp:150] Setting up L2_b5_sum_eltwise_top_L2_b5_relu_0_split
I0821 06:46:14.443087 32352 net.cpp:157] Top shape: 125 32 16 16 (1024000)
I0821 06:46:14.443094 32352 net.cpp:157] Top shape: 125 32 16 16 (1024000)
I0821 06:46:14.443099 32352 net.cpp:165] Memory required for data: 1076737500
I0821 06:46:14.443104 32352 layer_factory.hpp:77] Creating layer L2_b6_cbr1_conv
I0821 06:46:14.443117 32352 net.cpp:100] Creating Layer L2_b6_cbr1_conv
I0821 06:46:14.443123 32352 net.cpp:434] L2_b6_cbr1_conv <- L2_b5_sum_eltwise_top_L2_b5_relu_0_split_0
I0821 06:46:14.443132 32352 net.cpp:408] L2_b6_cbr1_conv -> L2_b6_cbr1_conv_top
I0821 06:46:14.443600 32352 net.cpp:150] Setting up L2_b6_cbr1_conv
I0821 06:46:14.443614 32352 net.cpp:157] Top shape: 125 32 16 16 (1024000)
I0821 06:46:14.443619 32352 net.cpp:165] Memory required for data: 1080833500
I0821 06:46:14.443629 32352 layer_factory.hpp:77] Creating layer L2_b6_cbr1_bn
I0821 06:46:14.443639 32352 net.cpp:100] Creating Layer L2_b6_cbr1_bn
I0821 06:46:14.443646 32352 net.cpp:434] L2_b6_cbr1_bn <- L2_b6_cbr1_conv_top
I0821 06:46:14.443663 32352 net.cpp:408] L2_b6_cbr1_bn -> L2_b6_cbr1_bn_top
I0821 06:46:14.443972 32352 net.cpp:150] Setting up L2_b6_cbr1_bn
I0821 06:46:14.443995 32352 net.cpp:157] Top shape: 125 32 16 16 (1024000)
I0821 06:46:14.444005 32352 net.cpp:165] Memory required for data: 1084929500
I0821 06:46:14.444018 32352 layer_factory.hpp:77] Creating layer L2_b6_cbr1_scale
I0821 06:46:14.444028 32352 net.cpp:100] Creating Layer L2_b6_cbr1_scale
I0821 06:46:14.444034 32352 net.cpp:434] L2_b6_cbr1_scale <- L2_b6_cbr1_bn_top
I0821 06:46:14.444042 32352 net.cpp:395] L2_b6_cbr1_scale -> L2_b6_cbr1_bn_top (in-place)
I0821 06:46:14.444103 32352 layer_factory.hpp:77] Creating layer L2_b6_cbr1_scale
I0821 06:46:14.444250 32352 net.cpp:150] Setting up L2_b6_cbr1_scale
I0821 06:46:14.444272 32352 net.cpp:157] Top shape: 125 32 16 16 (1024000)
I0821 06:46:14.444281 32352 net.cpp:165] Memory required for data: 1089025500
I0821 06:46:14.444298 32352 layer_factory.hpp:77] Creating layer L2_b6_cbr1_relu
I0821 06:46:14.444308 32352 net.cpp:100] Creating Layer L2_b6_cbr1_relu
I0821 06:46:14.444320 32352 net.cpp:434] L2_b6_cbr1_relu <- L2_b6_cbr1_bn_top
I0821 06:46:14.444339 32352 net.cpp:395] L2_b6_cbr1_relu -> L2_b6_cbr1_bn_top (in-place)
I0821 06:46:14.444355 32352 net.cpp:150] Setting up L2_b6_cbr1_relu
I0821 06:46:14.444367 32352 net.cpp:157] Top shape: 125 32 16 16 (1024000)
I0821 06:46:14.444375 32352 net.cpp:165] Memory required for data: 1093121500
I0821 06:46:14.444384 32352 layer_factory.hpp:77] Creating layer L2_b6_cbr2_conv
I0821 06:46:14.444401 32352 net.cpp:100] Creating Layer L2_b6_cbr2_conv
I0821 06:46:14.444406 32352 net.cpp:434] L2_b6_cbr2_conv <- L2_b6_cbr1_bn_top
I0821 06:46:14.444418 32352 net.cpp:408] L2_b6_cbr2_conv -> L2_b6_cbr2_conv_top
I0821 06:46:14.444900 32352 net.cpp:150] Setting up L2_b6_cbr2_conv
I0821 06:46:14.444922 32352 net.cpp:157] Top shape: 125 32 16 16 (1024000)
I0821 06:46:14.444928 32352 net.cpp:165] Memory required for data: 1097217500
I0821 06:46:14.444937 32352 layer_factory.hpp:77] Creating layer L2_b6_cbr2_bn
I0821 06:46:14.444949 32352 net.cpp:100] Creating Layer L2_b6_cbr2_bn
I0821 06:46:14.444957 32352 net.cpp:434] L2_b6_cbr2_bn <- L2_b6_cbr2_conv_top
I0821 06:46:14.444967 32352 net.cpp:408] L2_b6_cbr2_bn -> L2_b6_cbr2_bn_top
I0821 06:46:14.445215 32352 net.cpp:150] Setting up L2_b6_cbr2_bn
I0821 06:46:14.445230 32352 net.cpp:157] Top shape: 125 32 16 16 (1024000)
I0821 06:46:14.445235 32352 net.cpp:165] Memory required for data: 1101313500
I0821 06:46:14.445245 32352 layer_factory.hpp:77] Creating layer L2_b6_cbr2_scale
I0821 06:46:14.445253 32352 net.cpp:100] Creating Layer L2_b6_cbr2_scale
I0821 06:46:14.445260 32352 net.cpp:434] L2_b6_cbr2_scale <- L2_b6_cbr2_bn_top
I0821 06:46:14.445267 32352 net.cpp:395] L2_b6_cbr2_scale -> L2_b6_cbr2_bn_top (in-place)
I0821 06:46:14.445327 32352 layer_factory.hpp:77] Creating layer L2_b6_cbr2_scale
I0821 06:46:14.445472 32352 net.cpp:150] Setting up L2_b6_cbr2_scale
I0821 06:46:14.445484 32352 net.cpp:157] Top shape: 125 32 16 16 (1024000)
I0821 06:46:14.445489 32352 net.cpp:165] Memory required for data: 1105409500
I0821 06:46:14.445498 32352 layer_factory.hpp:77] Creating layer L2_b6_sum_eltwise
I0821 06:46:14.445510 32352 net.cpp:100] Creating Layer L2_b6_sum_eltwise
I0821 06:46:14.445516 32352 net.cpp:434] L2_b6_sum_eltwise <- L2_b6_cbr2_bn_top
I0821 06:46:14.445523 32352 net.cpp:434] L2_b6_sum_eltwise <- L2_b5_sum_eltwise_top_L2_b5_relu_0_split_1
I0821 06:46:14.445531 32352 net.cpp:408] L2_b6_sum_eltwise -> L2_b6_sum_eltwise_top
I0821 06:46:14.445557 32352 net.cpp:150] Setting up L2_b6_sum_eltwise
I0821 06:46:14.445566 32352 net.cpp:157] Top shape: 125 32 16 16 (1024000)
I0821 06:46:14.445571 32352 net.cpp:165] Memory required for data: 1109505500
I0821 06:46:14.445576 32352 layer_factory.hpp:77] Creating layer L2_b6_relu
I0821 06:46:14.445587 32352 net.cpp:100] Creating Layer L2_b6_relu
I0821 06:46:14.445593 32352 net.cpp:434] L2_b6_relu <- L2_b6_sum_eltwise_top
I0821 06:46:14.445600 32352 net.cpp:395] L2_b6_relu -> L2_b6_sum_eltwise_top (in-place)
I0821 06:46:14.445610 32352 net.cpp:150] Setting up L2_b6_relu
I0821 06:46:14.445616 32352 net.cpp:157] Top shape: 125 32 16 16 (1024000)
I0821 06:46:14.445621 32352 net.cpp:165] Memory required for data: 1113601500
I0821 06:46:14.445626 32352 layer_factory.hpp:77] Creating layer L2_b6_sum_eltwise_top_L2_b6_relu_0_split
I0821 06:46:14.445632 32352 net.cpp:100] Creating Layer L2_b6_sum_eltwise_top_L2_b6_relu_0_split
I0821 06:46:14.445637 32352 net.cpp:434] L2_b6_sum_eltwise_top_L2_b6_relu_0_split <- L2_b6_sum_eltwise_top
I0821 06:46:14.445644 32352 net.cpp:408] L2_b6_sum_eltwise_top_L2_b6_relu_0_split -> L2_b6_sum_eltwise_top_L2_b6_relu_0_split_0
I0821 06:46:14.445660 32352 net.cpp:408] L2_b6_sum_eltwise_top_L2_b6_relu_0_split -> L2_b6_sum_eltwise_top_L2_b6_relu_0_split_1
I0821 06:46:14.445709 32352 net.cpp:150] Setting up L2_b6_sum_eltwise_top_L2_b6_relu_0_split
I0821 06:46:14.445721 32352 net.cpp:157] Top shape: 125 32 16 16 (1024000)
I0821 06:46:14.445727 32352 net.cpp:157] Top shape: 125 32 16 16 (1024000)
I0821 06:46:14.445732 32352 net.cpp:165] Memory required for data: 1121793500
I0821 06:46:14.445737 32352 layer_factory.hpp:77] Creating layer L2_b7_cbr1_conv
I0821 06:46:14.445751 32352 net.cpp:100] Creating Layer L2_b7_cbr1_conv
I0821 06:46:14.445757 32352 net.cpp:434] L2_b7_cbr1_conv <- L2_b6_sum_eltwise_top_L2_b6_relu_0_split_0
I0821 06:46:14.445766 32352 net.cpp:408] L2_b7_cbr1_conv -> L2_b7_cbr1_conv_top
I0821 06:46:14.446236 32352 net.cpp:150] Setting up L2_b7_cbr1_conv
I0821 06:46:14.446251 32352 net.cpp:157] Top shape: 125 32 16 16 (1024000)
I0821 06:46:14.446256 32352 net.cpp:165] Memory required for data: 1125889500
I0821 06:46:14.446264 32352 layer_factory.hpp:77] Creating layer L2_b7_cbr1_bn
I0821 06:46:14.446277 32352 net.cpp:100] Creating Layer L2_b7_cbr1_bn
I0821 06:46:14.446290 32352 net.cpp:434] L2_b7_cbr1_bn <- L2_b7_cbr1_conv_top
I0821 06:46:14.446303 32352 net.cpp:408] L2_b7_cbr1_bn -> L2_b7_cbr1_bn_top
I0821 06:46:14.446557 32352 net.cpp:150] Setting up L2_b7_cbr1_bn
I0821 06:46:14.446570 32352 net.cpp:157] Top shape: 125 32 16 16 (1024000)
I0821 06:46:14.446575 32352 net.cpp:165] Memory required for data: 1129985500
I0821 06:46:14.446585 32352 layer_factory.hpp:77] Creating layer L2_b7_cbr1_scale
I0821 06:46:14.446594 32352 net.cpp:100] Creating Layer L2_b7_cbr1_scale
I0821 06:46:14.446601 32352 net.cpp:434] L2_b7_cbr1_scale <- L2_b7_cbr1_bn_top
I0821 06:46:14.446609 32352 net.cpp:395] L2_b7_cbr1_scale -> L2_b7_cbr1_bn_top (in-place)
I0821 06:46:14.446673 32352 layer_factory.hpp:77] Creating layer L2_b7_cbr1_scale
I0821 06:46:14.446823 32352 net.cpp:150] Setting up L2_b7_cbr1_scale
I0821 06:46:14.446836 32352 net.cpp:157] Top shape: 125 32 16 16 (1024000)
I0821 06:46:14.446841 32352 net.cpp:165] Memory required for data: 1134081500
I0821 06:46:14.446851 32352 layer_factory.hpp:77] Creating layer L2_b7_cbr1_relu
I0821 06:46:14.446861 32352 net.cpp:100] Creating Layer L2_b7_cbr1_relu
I0821 06:46:14.446867 32352 net.cpp:434] L2_b7_cbr1_relu <- L2_b7_cbr1_bn_top
I0821 06:46:14.446874 32352 net.cpp:395] L2_b7_cbr1_relu -> L2_b7_cbr1_bn_top (in-place)
I0821 06:46:14.446884 32352 net.cpp:150] Setting up L2_b7_cbr1_relu
I0821 06:46:14.446892 32352 net.cpp:157] Top shape: 125 32 16 16 (1024000)
I0821 06:46:14.446895 32352 net.cpp:165] Memory required for data: 1138177500
I0821 06:46:14.446900 32352 layer_factory.hpp:77] Creating layer L2_b7_cbr2_conv
I0821 06:46:14.446915 32352 net.cpp:100] Creating Layer L2_b7_cbr2_conv
I0821 06:46:14.446923 32352 net.cpp:434] L2_b7_cbr2_conv <- L2_b7_cbr1_bn_top
I0821 06:46:14.446933 32352 net.cpp:408] L2_b7_cbr2_conv -> L2_b7_cbr2_conv_top
I0821 06:46:14.447396 32352 net.cpp:150] Setting up L2_b7_cbr2_conv
I0821 06:46:14.447409 32352 net.cpp:157] Top shape: 125 32 16 16 (1024000)
I0821 06:46:14.447414 32352 net.cpp:165] Memory required for data: 1142273500
I0821 06:46:14.447423 32352 layer_factory.hpp:77] Creating layer L2_b7_cbr2_bn
I0821 06:46:14.447435 32352 net.cpp:100] Creating Layer L2_b7_cbr2_bn
I0821 06:46:14.447441 32352 net.cpp:434] L2_b7_cbr2_bn <- L2_b7_cbr2_conv_top
I0821 06:46:14.447453 32352 net.cpp:408] L2_b7_cbr2_bn -> L2_b7_cbr2_bn_top
I0821 06:46:14.447710 32352 net.cpp:150] Setting up L2_b7_cbr2_bn
I0821 06:46:14.447727 32352 net.cpp:157] Top shape: 125 32 16 16 (1024000)
I0821 06:46:14.447732 32352 net.cpp:165] Memory required for data: 1146369500
I0821 06:46:14.447743 32352 layer_factory.hpp:77] Creating layer L2_b7_cbr2_scale
I0821 06:46:14.447752 32352 net.cpp:100] Creating Layer L2_b7_cbr2_scale
I0821 06:46:14.447758 32352 net.cpp:434] L2_b7_cbr2_scale <- L2_b7_cbr2_bn_top
I0821 06:46:14.447765 32352 net.cpp:395] L2_b7_cbr2_scale -> L2_b7_cbr2_bn_top (in-place)
I0821 06:46:14.447821 32352 layer_factory.hpp:77] Creating layer L2_b7_cbr2_scale
I0821 06:46:14.447978 32352 net.cpp:150] Setting up L2_b7_cbr2_scale
I0821 06:46:14.447990 32352 net.cpp:157] Top shape: 125 32 16 16 (1024000)
I0821 06:46:14.447995 32352 net.cpp:165] Memory required for data: 1150465500
I0821 06:46:14.448004 32352 layer_factory.hpp:77] Creating layer L2_b7_sum_eltwise
I0821 06:46:14.448014 32352 net.cpp:100] Creating Layer L2_b7_sum_eltwise
I0821 06:46:14.448022 32352 net.cpp:434] L2_b7_sum_eltwise <- L2_b7_cbr2_bn_top
I0821 06:46:14.448029 32352 net.cpp:434] L2_b7_sum_eltwise <- L2_b6_sum_eltwise_top_L2_b6_relu_0_split_1
I0821 06:46:14.448037 32352 net.cpp:408] L2_b7_sum_eltwise -> L2_b7_sum_eltwise_top
I0821 06:46:14.448065 32352 net.cpp:150] Setting up L2_b7_sum_eltwise
I0821 06:46:14.448073 32352 net.cpp:157] Top shape: 125 32 16 16 (1024000)
I0821 06:46:14.448078 32352 net.cpp:165] Memory required for data: 1154561500
I0821 06:46:14.448083 32352 layer_factory.hpp:77] Creating layer L2_b7_relu
I0821 06:46:14.448094 32352 net.cpp:100] Creating Layer L2_b7_relu
I0821 06:46:14.448101 32352 net.cpp:434] L2_b7_relu <- L2_b7_sum_eltwise_top
I0821 06:46:14.448107 32352 net.cpp:395] L2_b7_relu -> L2_b7_sum_eltwise_top (in-place)
I0821 06:46:14.448123 32352 net.cpp:150] Setting up L2_b7_relu
I0821 06:46:14.448132 32352 net.cpp:157] Top shape: 125 32 16 16 (1024000)
I0821 06:46:14.448135 32352 net.cpp:165] Memory required for data: 1158657500
I0821 06:46:14.448140 32352 layer_factory.hpp:77] Creating layer L2_b7_sum_eltwise_top_L2_b7_relu_0_split
I0821 06:46:14.448148 32352 net.cpp:100] Creating Layer L2_b7_sum_eltwise_top_L2_b7_relu_0_split
I0821 06:46:14.448153 32352 net.cpp:434] L2_b7_sum_eltwise_top_L2_b7_relu_0_split <- L2_b7_sum_eltwise_top
I0821 06:46:14.448160 32352 net.cpp:408] L2_b7_sum_eltwise_top_L2_b7_relu_0_split -> L2_b7_sum_eltwise_top_L2_b7_relu_0_split_0
I0821 06:46:14.448170 32352 net.cpp:408] L2_b7_sum_eltwise_top_L2_b7_relu_0_split -> L2_b7_sum_eltwise_top_L2_b7_relu_0_split_1
I0821 06:46:14.448218 32352 net.cpp:150] Setting up L2_b7_sum_eltwise_top_L2_b7_relu_0_split
I0821 06:46:14.448230 32352 net.cpp:157] Top shape: 125 32 16 16 (1024000)
I0821 06:46:14.448237 32352 net.cpp:157] Top shape: 125 32 16 16 (1024000)
I0821 06:46:14.448241 32352 net.cpp:165] Memory required for data: 1166849500
I0821 06:46:14.448246 32352 layer_factory.hpp:77] Creating layer L2_b8_cbr1_conv
I0821 06:46:14.448261 32352 net.cpp:100] Creating Layer L2_b8_cbr1_conv
I0821 06:46:14.448267 32352 net.cpp:434] L2_b8_cbr1_conv <- L2_b7_sum_eltwise_top_L2_b7_relu_0_split_0
I0821 06:46:14.448276 32352 net.cpp:408] L2_b8_cbr1_conv -> L2_b8_cbr1_conv_top
I0821 06:46:14.448756 32352 net.cpp:150] Setting up L2_b8_cbr1_conv
I0821 06:46:14.448771 32352 net.cpp:157] Top shape: 125 32 16 16 (1024000)
I0821 06:46:14.448776 32352 net.cpp:165] Memory required for data: 1170945500
I0821 06:46:14.448786 32352 layer_factory.hpp:77] Creating layer L2_b8_cbr1_bn
I0821 06:46:14.448797 32352 net.cpp:100] Creating Layer L2_b8_cbr1_bn
I0821 06:46:14.448803 32352 net.cpp:434] L2_b8_cbr1_bn <- L2_b8_cbr1_conv_top
I0821 06:46:14.448814 32352 net.cpp:408] L2_b8_cbr1_bn -> L2_b8_cbr1_bn_top
I0821 06:46:14.449065 32352 net.cpp:150] Setting up L2_b8_cbr1_bn
I0821 06:46:14.449079 32352 net.cpp:157] Top shape: 125 32 16 16 (1024000)
I0821 06:46:14.449084 32352 net.cpp:165] Memory required for data: 1175041500
I0821 06:46:14.449095 32352 layer_factory.hpp:77] Creating layer L2_b8_cbr1_scale
I0821 06:46:14.449103 32352 net.cpp:100] Creating Layer L2_b8_cbr1_scale
I0821 06:46:14.449110 32352 net.cpp:434] L2_b8_cbr1_scale <- L2_b8_cbr1_bn_top
I0821 06:46:14.449116 32352 net.cpp:395] L2_b8_cbr1_scale -> L2_b8_cbr1_bn_top (in-place)
I0821 06:46:14.449174 32352 layer_factory.hpp:77] Creating layer L2_b8_cbr1_scale
I0821 06:46:14.449324 32352 net.cpp:150] Setting up L2_b8_cbr1_scale
I0821 06:46:14.449337 32352 net.cpp:157] Top shape: 125 32 16 16 (1024000)
I0821 06:46:14.449342 32352 net.cpp:165] Memory required for data: 1179137500
I0821 06:46:14.449352 32352 layer_factory.hpp:77] Creating layer L2_b8_cbr1_relu
I0821 06:46:14.449362 32352 net.cpp:100] Creating Layer L2_b8_cbr1_relu
I0821 06:46:14.449368 32352 net.cpp:434] L2_b8_cbr1_relu <- L2_b8_cbr1_bn_top
I0821 06:46:14.449375 32352 net.cpp:395] L2_b8_cbr1_relu -> L2_b8_cbr1_bn_top (in-place)
I0821 06:46:14.449384 32352 net.cpp:150] Setting up L2_b8_cbr1_relu
I0821 06:46:14.449391 32352 net.cpp:157] Top shape: 125 32 16 16 (1024000)
I0821 06:46:14.449396 32352 net.cpp:165] Memory required for data: 1183233500
I0821 06:46:14.449400 32352 layer_factory.hpp:77] Creating layer L2_b8_cbr2_conv
I0821 06:46:14.449414 32352 net.cpp:100] Creating Layer L2_b8_cbr2_conv
I0821 06:46:14.449420 32352 net.cpp:434] L2_b8_cbr2_conv <- L2_b8_cbr1_bn_top
I0821 06:46:14.449429 32352 net.cpp:408] L2_b8_cbr2_conv -> L2_b8_cbr2_conv_top
I0821 06:46:14.449899 32352 net.cpp:150] Setting up L2_b8_cbr2_conv
I0821 06:46:14.449914 32352 net.cpp:157] Top shape: 125 32 16 16 (1024000)
I0821 06:46:14.449919 32352 net.cpp:165] Memory required for data: 1187329500
I0821 06:46:14.449928 32352 layer_factory.hpp:77] Creating layer L2_b8_cbr2_bn
I0821 06:46:14.449944 32352 net.cpp:100] Creating Layer L2_b8_cbr2_bn
I0821 06:46:14.449959 32352 net.cpp:434] L2_b8_cbr2_bn <- L2_b8_cbr2_conv_top
I0821 06:46:14.449967 32352 net.cpp:408] L2_b8_cbr2_bn -> L2_b8_cbr2_bn_top
I0821 06:46:14.450224 32352 net.cpp:150] Setting up L2_b8_cbr2_bn
I0821 06:46:14.450240 32352 net.cpp:157] Top shape: 125 32 16 16 (1024000)
I0821 06:46:14.450245 32352 net.cpp:165] Memory required for data: 1191425500
I0821 06:46:14.450256 32352 layer_factory.hpp:77] Creating layer L2_b8_cbr2_scale
I0821 06:46:14.450265 32352 net.cpp:100] Creating Layer L2_b8_cbr2_scale
I0821 06:46:14.450271 32352 net.cpp:434] L2_b8_cbr2_scale <- L2_b8_cbr2_bn_top
I0821 06:46:14.450278 32352 net.cpp:395] L2_b8_cbr2_scale -> L2_b8_cbr2_bn_top (in-place)
I0821 06:46:14.450335 32352 layer_factory.hpp:77] Creating layer L2_b8_cbr2_scale
I0821 06:46:14.450485 32352 net.cpp:150] Setting up L2_b8_cbr2_scale
I0821 06:46:14.450498 32352 net.cpp:157] Top shape: 125 32 16 16 (1024000)
I0821 06:46:14.450503 32352 net.cpp:165] Memory required for data: 1195521500
I0821 06:46:14.450512 32352 layer_factory.hpp:77] Creating layer L2_b8_sum_eltwise
I0821 06:46:14.450520 32352 net.cpp:100] Creating Layer L2_b8_sum_eltwise
I0821 06:46:14.450527 32352 net.cpp:434] L2_b8_sum_eltwise <- L2_b8_cbr2_bn_top
I0821 06:46:14.450533 32352 net.cpp:434] L2_b8_sum_eltwise <- L2_b7_sum_eltwise_top_L2_b7_relu_0_split_1
I0821 06:46:14.450544 32352 net.cpp:408] L2_b8_sum_eltwise -> L2_b8_sum_eltwise_top
I0821 06:46:14.450572 32352 net.cpp:150] Setting up L2_b8_sum_eltwise
I0821 06:46:14.450582 32352 net.cpp:157] Top shape: 125 32 16 16 (1024000)
I0821 06:46:14.450585 32352 net.cpp:165] Memory required for data: 1199617500
I0821 06:46:14.450590 32352 layer_factory.hpp:77] Creating layer L2_b8_relu
I0821 06:46:14.450601 32352 net.cpp:100] Creating Layer L2_b8_relu
I0821 06:46:14.450608 32352 net.cpp:434] L2_b8_relu <- L2_b8_sum_eltwise_top
I0821 06:46:14.450614 32352 net.cpp:395] L2_b8_relu -> L2_b8_sum_eltwise_top (in-place)
I0821 06:46:14.450623 32352 net.cpp:150] Setting up L2_b8_relu
I0821 06:46:14.450630 32352 net.cpp:157] Top shape: 125 32 16 16 (1024000)
I0821 06:46:14.450634 32352 net.cpp:165] Memory required for data: 1203713500
I0821 06:46:14.450639 32352 layer_factory.hpp:77] Creating layer L2_b8_sum_eltwise_top_L2_b8_relu_0_split
I0821 06:46:14.450645 32352 net.cpp:100] Creating Layer L2_b8_sum_eltwise_top_L2_b8_relu_0_split
I0821 06:46:14.450659 32352 net.cpp:434] L2_b8_sum_eltwise_top_L2_b8_relu_0_split <- L2_b8_sum_eltwise_top
I0821 06:46:14.450666 32352 net.cpp:408] L2_b8_sum_eltwise_top_L2_b8_relu_0_split -> L2_b8_sum_eltwise_top_L2_b8_relu_0_split_0
I0821 06:46:14.450690 32352 net.cpp:408] L2_b8_sum_eltwise_top_L2_b8_relu_0_split -> L2_b8_sum_eltwise_top_L2_b8_relu_0_split_1
I0821 06:46:14.450740 32352 net.cpp:150] Setting up L2_b8_sum_eltwise_top_L2_b8_relu_0_split
I0821 06:46:14.450753 32352 net.cpp:157] Top shape: 125 32 16 16 (1024000)
I0821 06:46:14.450760 32352 net.cpp:157] Top shape: 125 32 16 16 (1024000)
I0821 06:46:14.450764 32352 net.cpp:165] Memory required for data: 1211905500
I0821 06:46:14.450769 32352 layer_factory.hpp:77] Creating layer L2_b9_cbr1_conv
I0821 06:46:14.450781 32352 net.cpp:100] Creating Layer L2_b9_cbr1_conv
I0821 06:46:14.450788 32352 net.cpp:434] L2_b9_cbr1_conv <- L2_b8_sum_eltwise_top_L2_b8_relu_0_split_0
I0821 06:46:14.450801 32352 net.cpp:408] L2_b9_cbr1_conv -> L2_b9_cbr1_conv_top
I0821 06:46:14.451267 32352 net.cpp:150] Setting up L2_b9_cbr1_conv
I0821 06:46:14.451280 32352 net.cpp:157] Top shape: 125 32 16 16 (1024000)
I0821 06:46:14.451285 32352 net.cpp:165] Memory required for data: 1216001500
I0821 06:46:14.451293 32352 layer_factory.hpp:77] Creating layer L2_b9_cbr1_bn
I0821 06:46:14.451305 32352 net.cpp:100] Creating Layer L2_b9_cbr1_bn
I0821 06:46:14.451313 32352 net.cpp:434] L2_b9_cbr1_bn <- L2_b9_cbr1_conv_top
I0821 06:46:14.451320 32352 net.cpp:408] L2_b9_cbr1_bn -> L2_b9_cbr1_bn_top
I0821 06:46:14.451572 32352 net.cpp:150] Setting up L2_b9_cbr1_bn
I0821 06:46:14.451588 32352 net.cpp:157] Top shape: 125 32 16 16 (1024000)
I0821 06:46:14.451593 32352 net.cpp:165] Memory required for data: 1220097500
I0821 06:46:14.451611 32352 layer_factory.hpp:77] Creating layer L2_b9_cbr1_scale
I0821 06:46:14.451620 32352 net.cpp:100] Creating Layer L2_b9_cbr1_scale
I0821 06:46:14.451627 32352 net.cpp:434] L2_b9_cbr1_scale <- L2_b9_cbr1_bn_top
I0821 06:46:14.451634 32352 net.cpp:395] L2_b9_cbr1_scale -> L2_b9_cbr1_bn_top (in-place)
I0821 06:46:14.451697 32352 layer_factory.hpp:77] Creating layer L2_b9_cbr1_scale
I0821 06:46:14.451853 32352 net.cpp:150] Setting up L2_b9_cbr1_scale
I0821 06:46:14.451866 32352 net.cpp:157] Top shape: 125 32 16 16 (1024000)
I0821 06:46:14.451871 32352 net.cpp:165] Memory required for data: 1224193500
I0821 06:46:14.451880 32352 layer_factory.hpp:77] Creating layer L2_b9_cbr1_relu
I0821 06:46:14.451889 32352 net.cpp:100] Creating Layer L2_b9_cbr1_relu
I0821 06:46:14.451894 32352 net.cpp:434] L2_b9_cbr1_relu <- L2_b9_cbr1_bn_top
I0821 06:46:14.451905 32352 net.cpp:395] L2_b9_cbr1_relu -> L2_b9_cbr1_bn_top (in-place)
I0821 06:46:14.451915 32352 net.cpp:150] Setting up L2_b9_cbr1_relu
I0821 06:46:14.451921 32352 net.cpp:157] Top shape: 125 32 16 16 (1024000)
I0821 06:46:14.451926 32352 net.cpp:165] Memory required for data: 1228289500
I0821 06:46:14.451930 32352 layer_factory.hpp:77] Creating layer L2_b9_cbr2_conv
I0821 06:46:14.451941 32352 net.cpp:100] Creating Layer L2_b9_cbr2_conv
I0821 06:46:14.451947 32352 net.cpp:434] L2_b9_cbr2_conv <- L2_b9_cbr1_bn_top
I0821 06:46:14.451958 32352 net.cpp:408] L2_b9_cbr2_conv -> L2_b9_cbr2_conv_top
I0821 06:46:14.452421 32352 net.cpp:150] Setting up L2_b9_cbr2_conv
I0821 06:46:14.452436 32352 net.cpp:157] Top shape: 125 32 16 16 (1024000)
I0821 06:46:14.452441 32352 net.cpp:165] Memory required for data: 1232385500
I0821 06:46:14.452450 32352 layer_factory.hpp:77] Creating layer L2_b9_cbr2_bn
I0821 06:46:14.452458 32352 net.cpp:100] Creating Layer L2_b9_cbr2_bn
I0821 06:46:14.452466 32352 net.cpp:434] L2_b9_cbr2_bn <- L2_b9_cbr2_conv_top
I0821 06:46:14.452476 32352 net.cpp:408] L2_b9_cbr2_bn -> L2_b9_cbr2_bn_top
I0821 06:46:14.452736 32352 net.cpp:150] Setting up L2_b9_cbr2_bn
I0821 06:46:14.452750 32352 net.cpp:157] Top shape: 125 32 16 16 (1024000)
I0821 06:46:14.452755 32352 net.cpp:165] Memory required for data: 1236481500
I0821 06:46:14.452800 32352 layer_factory.hpp:77] Creating layer L2_b9_cbr2_scale
I0821 06:46:14.452812 32352 net.cpp:100] Creating Layer L2_b9_cbr2_scale
I0821 06:46:14.452819 32352 net.cpp:434] L2_b9_cbr2_scale <- L2_b9_cbr2_bn_top
I0821 06:46:14.452826 32352 net.cpp:395] L2_b9_cbr2_scale -> L2_b9_cbr2_bn_top (in-place)
I0821 06:46:14.452885 32352 layer_factory.hpp:77] Creating layer L2_b9_cbr2_scale
I0821 06:46:14.453037 32352 net.cpp:150] Setting up L2_b9_cbr2_scale
I0821 06:46:14.453052 32352 net.cpp:157] Top shape: 125 32 16 16 (1024000)
I0821 06:46:14.453058 32352 net.cpp:165] Memory required for data: 1240577500
I0821 06:46:14.453068 32352 layer_factory.hpp:77] Creating layer L2_b9_sum_eltwise
I0821 06:46:14.453076 32352 net.cpp:100] Creating Layer L2_b9_sum_eltwise
I0821 06:46:14.453083 32352 net.cpp:434] L2_b9_sum_eltwise <- L2_b9_cbr2_bn_top
I0821 06:46:14.453089 32352 net.cpp:434] L2_b9_sum_eltwise <- L2_b8_sum_eltwise_top_L2_b8_relu_0_split_1
I0821 06:46:14.453097 32352 net.cpp:408] L2_b9_sum_eltwise -> L2_b9_sum_eltwise_top
I0821 06:46:14.453127 32352 net.cpp:150] Setting up L2_b9_sum_eltwise
I0821 06:46:14.453137 32352 net.cpp:157] Top shape: 125 32 16 16 (1024000)
I0821 06:46:14.453142 32352 net.cpp:165] Memory required for data: 1244673500
I0821 06:46:14.453147 32352 layer_factory.hpp:77] Creating layer L2_b9_relu
I0821 06:46:14.453155 32352 net.cpp:100] Creating Layer L2_b9_relu
I0821 06:46:14.453161 32352 net.cpp:434] L2_b9_relu <- L2_b9_sum_eltwise_top
I0821 06:46:14.453171 32352 net.cpp:395] L2_b9_relu -> L2_b9_sum_eltwise_top (in-place)
I0821 06:46:14.453179 32352 net.cpp:150] Setting up L2_b9_relu
I0821 06:46:14.453187 32352 net.cpp:157] Top shape: 125 32 16 16 (1024000)
I0821 06:46:14.453191 32352 net.cpp:165] Memory required for data: 1248769500
I0821 06:46:14.453197 32352 layer_factory.hpp:77] Creating layer L2_b9_sum_eltwise_top_L2_b9_relu_0_split
I0821 06:46:14.453210 32352 net.cpp:100] Creating Layer L2_b9_sum_eltwise_top_L2_b9_relu_0_split
I0821 06:46:14.453217 32352 net.cpp:434] L2_b9_sum_eltwise_top_L2_b9_relu_0_split <- L2_b9_sum_eltwise_top
I0821 06:46:14.453227 32352 net.cpp:408] L2_b9_sum_eltwise_top_L2_b9_relu_0_split -> L2_b9_sum_eltwise_top_L2_b9_relu_0_split_0
I0821 06:46:14.453238 32352 net.cpp:408] L2_b9_sum_eltwise_top_L2_b9_relu_0_split -> L2_b9_sum_eltwise_top_L2_b9_relu_0_split_1
I0821 06:46:14.453282 32352 net.cpp:150] Setting up L2_b9_sum_eltwise_top_L2_b9_relu_0_split
I0821 06:46:14.453294 32352 net.cpp:157] Top shape: 125 32 16 16 (1024000)
I0821 06:46:14.453301 32352 net.cpp:157] Top shape: 125 32 16 16 (1024000)
I0821 06:46:14.453305 32352 net.cpp:165] Memory required for data: 1256961500
I0821 06:46:14.453310 32352 layer_factory.hpp:77] Creating layer L3_b1_cbr1_conv
I0821 06:46:14.453325 32352 net.cpp:100] Creating Layer L3_b1_cbr1_conv
I0821 06:46:14.453331 32352 net.cpp:434] L3_b1_cbr1_conv <- L2_b9_sum_eltwise_top_L2_b9_relu_0_split_0
I0821 06:46:14.453341 32352 net.cpp:408] L3_b1_cbr1_conv -> L3_b1_cbr1_conv_top
I0821 06:46:14.453820 32352 net.cpp:150] Setting up L3_b1_cbr1_conv
I0821 06:46:14.453835 32352 net.cpp:157] Top shape: 125 32 8 8 (256000)
I0821 06:46:14.453840 32352 net.cpp:165] Memory required for data: 1257985500
I0821 06:46:14.453850 32352 layer_factory.hpp:77] Creating layer L3_b1_cbr1_bn
I0821 06:46:14.453861 32352 net.cpp:100] Creating Layer L3_b1_cbr1_bn
I0821 06:46:14.453867 32352 net.cpp:434] L3_b1_cbr1_bn <- L3_b1_cbr1_conv_top
I0821 06:46:14.453876 32352 net.cpp:408] L3_b1_cbr1_bn -> L3_b1_cbr1_bn_top
I0821 06:46:14.454138 32352 net.cpp:150] Setting up L3_b1_cbr1_bn
I0821 06:46:14.454151 32352 net.cpp:157] Top shape: 125 32 8 8 (256000)
I0821 06:46:14.454156 32352 net.cpp:165] Memory required for data: 1259009500
I0821 06:46:14.454166 32352 layer_factory.hpp:77] Creating layer L3_b1_cbr1_scale
I0821 06:46:14.454179 32352 net.cpp:100] Creating Layer L3_b1_cbr1_scale
I0821 06:46:14.454185 32352 net.cpp:434] L3_b1_cbr1_scale <- L3_b1_cbr1_bn_top
I0821 06:46:14.454192 32352 net.cpp:395] L3_b1_cbr1_scale -> L3_b1_cbr1_bn_top (in-place)
I0821 06:46:14.454251 32352 layer_factory.hpp:77] Creating layer L3_b1_cbr1_scale
I0821 06:46:14.454404 32352 net.cpp:150] Setting up L3_b1_cbr1_scale
I0821 06:46:14.454416 32352 net.cpp:157] Top shape: 125 32 8 8 (256000)
I0821 06:46:14.454421 32352 net.cpp:165] Memory required for data: 1260033500
I0821 06:46:14.454432 32352 layer_factory.hpp:77] Creating layer L3_b1_cbr1_relu
I0821 06:46:14.454442 32352 net.cpp:100] Creating Layer L3_b1_cbr1_relu
I0821 06:46:14.454448 32352 net.cpp:434] L3_b1_cbr1_relu <- L3_b1_cbr1_bn_top
I0821 06:46:14.454455 32352 net.cpp:395] L3_b1_cbr1_relu -> L3_b1_cbr1_bn_top (in-place)
I0821 06:46:14.454464 32352 net.cpp:150] Setting up L3_b1_cbr1_relu
I0821 06:46:14.454471 32352 net.cpp:157] Top shape: 125 32 8 8 (256000)
I0821 06:46:14.454476 32352 net.cpp:165] Memory required for data: 1261057500
I0821 06:46:14.454483 32352 layer_factory.hpp:77] Creating layer L3_b1_cbr2_conv
I0821 06:46:14.454495 32352 net.cpp:100] Creating Layer L3_b1_cbr2_conv
I0821 06:46:14.454500 32352 net.cpp:434] L3_b1_cbr2_conv <- L3_b1_cbr1_bn_top
I0821 06:46:14.454512 32352 net.cpp:408] L3_b1_cbr2_conv -> L3_b1_cbr2_conv_top
I0821 06:46:14.454996 32352 net.cpp:150] Setting up L3_b1_cbr2_conv
I0821 06:46:14.455011 32352 net.cpp:157] Top shape: 125 32 8 8 (256000)
I0821 06:46:14.455016 32352 net.cpp:165] Memory required for data: 1262081500
I0821 06:46:14.455025 32352 layer_factory.hpp:77] Creating layer L3_b1_cbr2_bn
I0821 06:46:14.455034 32352 net.cpp:100] Creating Layer L3_b1_cbr2_bn
I0821 06:46:14.455040 32352 net.cpp:434] L3_b1_cbr2_bn <- L3_b1_cbr2_conv_top
I0821 06:46:14.455051 32352 net.cpp:408] L3_b1_cbr2_bn -> L3_b1_cbr2_bn_top
I0821 06:46:14.455312 32352 net.cpp:150] Setting up L3_b1_cbr2_bn
I0821 06:46:14.455325 32352 net.cpp:157] Top shape: 125 32 8 8 (256000)
I0821 06:46:14.455330 32352 net.cpp:165] Memory required for data: 1263105500
I0821 06:46:14.455348 32352 layer_factory.hpp:77] Creating layer L3_b1_cbr2_scale
I0821 06:46:14.455358 32352 net.cpp:100] Creating Layer L3_b1_cbr2_scale
I0821 06:46:14.455363 32352 net.cpp:434] L3_b1_cbr2_scale <- L3_b1_cbr2_bn_top
I0821 06:46:14.455371 32352 net.cpp:395] L3_b1_cbr2_scale -> L3_b1_cbr2_bn_top (in-place)
I0821 06:46:14.455430 32352 layer_factory.hpp:77] Creating layer L3_b1_cbr2_scale
I0821 06:46:14.455585 32352 net.cpp:150] Setting up L3_b1_cbr2_scale
I0821 06:46:14.455600 32352 net.cpp:157] Top shape: 125 32 8 8 (256000)
I0821 06:46:14.455605 32352 net.cpp:165] Memory required for data: 1264129500
I0821 06:46:14.455615 32352 layer_factory.hpp:77] Creating layer L3_b1_pool
I0821 06:46:14.455623 32352 net.cpp:100] Creating Layer L3_b1_pool
I0821 06:46:14.455631 32352 net.cpp:434] L3_b1_pool <- L2_b9_sum_eltwise_top_L2_b9_relu_0_split_1
I0821 06:46:14.455638 32352 net.cpp:408] L3_b1_pool -> L3_b1_pool
I0821 06:46:14.455682 32352 net.cpp:150] Setting up L3_b1_pool
I0821 06:46:14.455693 32352 net.cpp:157] Top shape: 125 32 8 8 (256000)
I0821 06:46:14.455698 32352 net.cpp:165] Memory required for data: 1265153500
I0821 06:46:14.455703 32352 layer_factory.hpp:77] Creating layer L3_b1_sum_eltwise
I0821 06:46:14.455711 32352 net.cpp:100] Creating Layer L3_b1_sum_eltwise
I0821 06:46:14.455718 32352 net.cpp:434] L3_b1_sum_eltwise <- L3_b1_cbr2_bn_top
I0821 06:46:14.455724 32352 net.cpp:434] L3_b1_sum_eltwise <- L3_b1_pool
I0821 06:46:14.455732 32352 net.cpp:408] L3_b1_sum_eltwise -> L3_b1_sum_eltwise_top
I0821 06:46:14.455767 32352 net.cpp:150] Setting up L3_b1_sum_eltwise
I0821 06:46:14.455776 32352 net.cpp:157] Top shape: 125 32 8 8 (256000)
I0821 06:46:14.455781 32352 net.cpp:165] Memory required for data: 1266177500
I0821 06:46:14.455786 32352 layer_factory.hpp:77] Creating layer L3_b1_relu
I0821 06:46:14.455795 32352 net.cpp:100] Creating Layer L3_b1_relu
I0821 06:46:14.455799 32352 net.cpp:434] L3_b1_relu <- L3_b1_sum_eltwise_top
I0821 06:46:14.455806 32352 net.cpp:395] L3_b1_relu -> L3_b1_sum_eltwise_top (in-place)
I0821 06:46:14.455816 32352 net.cpp:150] Setting up L3_b1_relu
I0821 06:46:14.455822 32352 net.cpp:157] Top shape: 125 32 8 8 (256000)
I0821 06:46:14.455827 32352 net.cpp:165] Memory required for data: 1267201500
I0821 06:46:14.455832 32352 layer_factory.hpp:77] Creating layer L3_b1_zeros
I0821 06:46:14.455840 32352 net.cpp:100] Creating Layer L3_b1_zeros
I0821 06:46:14.455852 32352 net.cpp:408] L3_b1_zeros -> L3_b1_zeros
I0821 06:46:14.457092 32352 net.cpp:150] Setting up L3_b1_zeros
I0821 06:46:14.457109 32352 net.cpp:157] Top shape: 125 32 8 8 (256000)
I0821 06:46:14.457114 32352 net.cpp:165] Memory required for data: 1268225500
I0821 06:46:14.457120 32352 layer_factory.hpp:77] Creating layer L3_b1_concat0
I0821 06:46:14.457134 32352 net.cpp:100] Creating Layer L3_b1_concat0
I0821 06:46:14.457139 32352 net.cpp:434] L3_b1_concat0 <- L3_b1_sum_eltwise_top
I0821 06:46:14.457147 32352 net.cpp:434] L3_b1_concat0 <- L3_b1_zeros
I0821 06:46:14.457154 32352 net.cpp:408] L3_b1_concat0 -> L3_b1_concat0
I0821 06:46:14.457197 32352 net.cpp:150] Setting up L3_b1_concat0
I0821 06:46:14.457209 32352 net.cpp:157] Top shape: 125 64 8 8 (512000)
I0821 06:46:14.457214 32352 net.cpp:165] Memory required for data: 1270273500
I0821 06:46:14.457221 32352 layer_factory.hpp:77] Creating layer L3_b1_concat0_L3_b1_concat0_0_split
I0821 06:46:14.457227 32352 net.cpp:100] Creating Layer L3_b1_concat0_L3_b1_concat0_0_split
I0821 06:46:14.457233 32352 net.cpp:434] L3_b1_concat0_L3_b1_concat0_0_split <- L3_b1_concat0
I0821 06:46:14.457244 32352 net.cpp:408] L3_b1_concat0_L3_b1_concat0_0_split -> L3_b1_concat0_L3_b1_concat0_0_split_0
I0821 06:46:14.457254 32352 net.cpp:408] L3_b1_concat0_L3_b1_concat0_0_split -> L3_b1_concat0_L3_b1_concat0_0_split_1
I0821 06:46:14.457304 32352 net.cpp:150] Setting up L3_b1_concat0_L3_b1_concat0_0_split
I0821 06:46:14.457319 32352 net.cpp:157] Top shape: 125 64 8 8 (512000)
I0821 06:46:14.457325 32352 net.cpp:157] Top shape: 125 64 8 8 (512000)
I0821 06:46:14.457337 32352 net.cpp:165] Memory required for data: 1274369500
I0821 06:46:14.457343 32352 layer_factory.hpp:77] Creating layer L3_b2_cbr1_conv
I0821 06:46:14.457358 32352 net.cpp:100] Creating Layer L3_b2_cbr1_conv
I0821 06:46:14.457365 32352 net.cpp:434] L3_b2_cbr1_conv <- L3_b1_concat0_L3_b1_concat0_0_split_0
I0821 06:46:14.457375 32352 net.cpp:408] L3_b2_cbr1_conv -> L3_b2_cbr1_conv_top
I0821 06:46:14.459386 32352 net.cpp:150] Setting up L3_b2_cbr1_conv
I0821 06:46:14.459404 32352 net.cpp:157] Top shape: 125 64 8 8 (512000)
I0821 06:46:14.459410 32352 net.cpp:165] Memory required for data: 1276417500
I0821 06:46:14.459419 32352 layer_factory.hpp:77] Creating layer L3_b2_cbr1_bn
I0821 06:46:14.459432 32352 net.cpp:100] Creating Layer L3_b2_cbr1_bn
I0821 06:46:14.459439 32352 net.cpp:434] L3_b2_cbr1_bn <- L3_b2_cbr1_conv_top
I0821 06:46:14.459447 32352 net.cpp:408] L3_b2_cbr1_bn -> L3_b2_cbr1_bn_top
I0821 06:46:14.459720 32352 net.cpp:150] Setting up L3_b2_cbr1_bn
I0821 06:46:14.459734 32352 net.cpp:157] Top shape: 125 64 8 8 (512000)
I0821 06:46:14.459739 32352 net.cpp:165] Memory required for data: 1278465500
I0821 06:46:14.459750 32352 layer_factory.hpp:77] Creating layer L3_b2_cbr1_scale
I0821 06:46:14.459763 32352 net.cpp:100] Creating Layer L3_b2_cbr1_scale
I0821 06:46:14.459769 32352 net.cpp:434] L3_b2_cbr1_scale <- L3_b2_cbr1_bn_top
I0821 06:46:14.459779 32352 net.cpp:395] L3_b2_cbr1_scale -> L3_b2_cbr1_bn_top (in-place)
I0821 06:46:14.459836 32352 layer_factory.hpp:77] Creating layer L3_b2_cbr1_scale
I0821 06:46:14.460000 32352 net.cpp:150] Setting up L3_b2_cbr1_scale
I0821 06:46:14.460013 32352 net.cpp:157] Top shape: 125 64 8 8 (512000)
I0821 06:46:14.460018 32352 net.cpp:165] Memory required for data: 1280513500
I0821 06:46:14.460027 32352 layer_factory.hpp:77] Creating layer L3_b2_cbr1_relu
I0821 06:46:14.460036 32352 net.cpp:100] Creating Layer L3_b2_cbr1_relu
I0821 06:46:14.460041 32352 net.cpp:434] L3_b2_cbr1_relu <- L3_b2_cbr1_bn_top
I0821 06:46:14.460052 32352 net.cpp:395] L3_b2_cbr1_relu -> L3_b2_cbr1_bn_top (in-place)
I0821 06:46:14.460062 32352 net.cpp:150] Setting up L3_b2_cbr1_relu
I0821 06:46:14.460069 32352 net.cpp:157] Top shape: 125 64 8 8 (512000)
I0821 06:46:14.460073 32352 net.cpp:165] Memory required for data: 1282561500
I0821 06:46:14.460078 32352 layer_factory.hpp:77] Creating layer L3_b2_cbr2_conv
I0821 06:46:14.460090 32352 net.cpp:100] Creating Layer L3_b2_cbr2_conv
I0821 06:46:14.460096 32352 net.cpp:434] L3_b2_cbr2_conv <- L3_b2_cbr1_bn_top
I0821 06:46:14.460108 32352 net.cpp:408] L3_b2_cbr2_conv -> L3_b2_cbr2_conv_top
I0821 06:46:14.461132 32352 net.cpp:150] Setting up L3_b2_cbr2_conv
I0821 06:46:14.461146 32352 net.cpp:157] Top shape: 125 64 8 8 (512000)
I0821 06:46:14.461151 32352 net.cpp:165] Memory required for data: 1284609500
I0821 06:46:14.461160 32352 layer_factory.hpp:77] Creating layer L3_b2_cbr2_bn
I0821 06:46:14.461172 32352 net.cpp:100] Creating Layer L3_b2_cbr2_bn
I0821 06:46:14.461179 32352 net.cpp:434] L3_b2_cbr2_bn <- L3_b2_cbr2_conv_top
I0821 06:46:14.461187 32352 net.cpp:408] L3_b2_cbr2_bn -> L3_b2_cbr2_bn_top
I0821 06:46:14.461455 32352 net.cpp:150] Setting up L3_b2_cbr2_bn
I0821 06:46:14.461468 32352 net.cpp:157] Top shape: 125 64 8 8 (512000)
I0821 06:46:14.461473 32352 net.cpp:165] Memory required for data: 1286657500
I0821 06:46:14.461484 32352 layer_factory.hpp:77] Creating layer L3_b2_cbr2_scale
I0821 06:46:14.461493 32352 net.cpp:100] Creating Layer L3_b2_cbr2_scale
I0821 06:46:14.461499 32352 net.cpp:434] L3_b2_cbr2_scale <- L3_b2_cbr2_bn_top
I0821 06:46:14.461508 32352 net.cpp:395] L3_b2_cbr2_scale -> L3_b2_cbr2_bn_top (in-place)
I0821 06:46:14.461566 32352 layer_factory.hpp:77] Creating layer L3_b2_cbr2_scale
I0821 06:46:14.461730 32352 net.cpp:150] Setting up L3_b2_cbr2_scale
I0821 06:46:14.461745 32352 net.cpp:157] Top shape: 125 64 8 8 (512000)
I0821 06:46:14.461750 32352 net.cpp:165] Memory required for data: 1288705500
I0821 06:46:14.461758 32352 layer_factory.hpp:77] Creating layer L3_b2_sum_eltwise
I0821 06:46:14.461768 32352 net.cpp:100] Creating Layer L3_b2_sum_eltwise
I0821 06:46:14.461782 32352 net.cpp:434] L3_b2_sum_eltwise <- L3_b2_cbr2_bn_top
I0821 06:46:14.461791 32352 net.cpp:434] L3_b2_sum_eltwise <- L3_b1_concat0_L3_b1_concat0_0_split_1
I0821 06:46:14.461802 32352 net.cpp:408] L3_b2_sum_eltwise -> L3_b2_sum_eltwise_top
I0821 06:46:14.461836 32352 net.cpp:150] Setting up L3_b2_sum_eltwise
I0821 06:46:14.461851 32352 net.cpp:157] Top shape: 125 64 8 8 (512000)
I0821 06:46:14.461858 32352 net.cpp:165] Memory required for data: 1290753500
I0821 06:46:14.461863 32352 layer_factory.hpp:77] Creating layer L3_b2_relu
I0821 06:46:14.461870 32352 net.cpp:100] Creating Layer L3_b2_relu
I0821 06:46:14.461876 32352 net.cpp:434] L3_b2_relu <- L3_b2_sum_eltwise_top
I0821 06:46:14.461884 32352 net.cpp:395] L3_b2_relu -> L3_b2_sum_eltwise_top (in-place)
I0821 06:46:14.461892 32352 net.cpp:150] Setting up L3_b2_relu
I0821 06:46:14.461899 32352 net.cpp:157] Top shape: 125 64 8 8 (512000)
I0821 06:46:14.461904 32352 net.cpp:165] Memory required for data: 1292801500
I0821 06:46:14.461908 32352 layer_factory.hpp:77] Creating layer L3_b2_sum_eltwise_top_L3_b2_relu_0_split
I0821 06:46:14.461920 32352 net.cpp:100] Creating Layer L3_b2_sum_eltwise_top_L3_b2_relu_0_split
I0821 06:46:14.461925 32352 net.cpp:434] L3_b2_sum_eltwise_top_L3_b2_relu_0_split <- L3_b2_sum_eltwise_top
I0821 06:46:14.461932 32352 net.cpp:408] L3_b2_sum_eltwise_top_L3_b2_relu_0_split -> L3_b2_sum_eltwise_top_L3_b2_relu_0_split_0
I0821 06:46:14.461942 32352 net.cpp:408] L3_b2_sum_eltwise_top_L3_b2_relu_0_split -> L3_b2_sum_eltwise_top_L3_b2_relu_0_split_1
I0821 06:46:14.461988 32352 net.cpp:150] Setting up L3_b2_sum_eltwise_top_L3_b2_relu_0_split
I0821 06:46:14.462004 32352 net.cpp:157] Top shape: 125 64 8 8 (512000)
I0821 06:46:14.462011 32352 net.cpp:157] Top shape: 125 64 8 8 (512000)
I0821 06:46:14.462016 32352 net.cpp:165] Memory required for data: 1296897500
I0821 06:46:14.462021 32352 layer_factory.hpp:77] Creating layer L3_b3_cbr1_conv
I0821 06:46:14.462033 32352 net.cpp:100] Creating Layer L3_b3_cbr1_conv
I0821 06:46:14.462039 32352 net.cpp:434] L3_b3_cbr1_conv <- L3_b2_sum_eltwise_top_L3_b2_relu_0_split_0
I0821 06:46:14.462049 32352 net.cpp:408] L3_b3_cbr1_conv -> L3_b3_cbr1_conv_top
I0821 06:46:14.463075 32352 net.cpp:150] Setting up L3_b3_cbr1_conv
I0821 06:46:14.463094 32352 net.cpp:157] Top shape: 125 64 8 8 (512000)
I0821 06:46:14.463099 32352 net.cpp:165] Memory required for data: 1298945500
I0821 06:46:14.463109 32352 layer_factory.hpp:77] Creating layer L3_b3_cbr1_bn
I0821 06:46:14.463117 32352 net.cpp:100] Creating Layer L3_b3_cbr1_bn
I0821 06:46:14.463124 32352 net.cpp:434] L3_b3_cbr1_bn <- L3_b3_cbr1_conv_top
I0821 06:46:14.463132 32352 net.cpp:408] L3_b3_cbr1_bn -> L3_b3_cbr1_bn_top
I0821 06:46:14.463397 32352 net.cpp:150] Setting up L3_b3_cbr1_bn
I0821 06:46:14.463409 32352 net.cpp:157] Top shape: 125 64 8 8 (512000)
I0821 06:46:14.463414 32352 net.cpp:165] Memory required for data: 1300993500
I0821 06:46:14.463425 32352 layer_factory.hpp:77] Creating layer L3_b3_cbr1_scale
I0821 06:46:14.463436 32352 net.cpp:100] Creating Layer L3_b3_cbr1_scale
I0821 06:46:14.463443 32352 net.cpp:434] L3_b3_cbr1_scale <- L3_b3_cbr1_bn_top
I0821 06:46:14.463454 32352 net.cpp:395] L3_b3_cbr1_scale -> L3_b3_cbr1_bn_top (in-place)
I0821 06:46:14.463511 32352 layer_factory.hpp:77] Creating layer L3_b3_cbr1_scale
I0821 06:46:14.463676 32352 net.cpp:150] Setting up L3_b3_cbr1_scale
I0821 06:46:14.463690 32352 net.cpp:157] Top shape: 125 64 8 8 (512000)
I0821 06:46:14.463696 32352 net.cpp:165] Memory required for data: 1303041500
I0821 06:46:14.463704 32352 layer_factory.hpp:77] Creating layer L3_b3_cbr1_relu
I0821 06:46:14.463712 32352 net.cpp:100] Creating Layer L3_b3_cbr1_relu
I0821 06:46:14.463718 32352 net.cpp:434] L3_b3_cbr1_relu <- L3_b3_cbr1_bn_top
I0821 06:46:14.463728 32352 net.cpp:395] L3_b3_cbr1_relu -> L3_b3_cbr1_bn_top (in-place)
I0821 06:46:14.463738 32352 net.cpp:150] Setting up L3_b3_cbr1_relu
I0821 06:46:14.463745 32352 net.cpp:157] Top shape: 125 64 8 8 (512000)
I0821 06:46:14.463757 32352 net.cpp:165] Memory required for data: 1305089500
I0821 06:46:14.463762 32352 layer_factory.hpp:77] Creating layer L3_b3_cbr2_conv
I0821 06:46:14.463776 32352 net.cpp:100] Creating Layer L3_b3_cbr2_conv
I0821 06:46:14.463783 32352 net.cpp:434] L3_b3_cbr2_conv <- L3_b3_cbr1_bn_top
I0821 06:46:14.463791 32352 net.cpp:408] L3_b3_cbr2_conv -> L3_b3_cbr2_conv_top
I0821 06:46:14.464810 32352 net.cpp:150] Setting up L3_b3_cbr2_conv
I0821 06:46:14.464825 32352 net.cpp:157] Top shape: 125 64 8 8 (512000)
I0821 06:46:14.464830 32352 net.cpp:165] Memory required for data: 1307137500
I0821 06:46:14.464839 32352 layer_factory.hpp:77] Creating layer L3_b3_cbr2_bn
I0821 06:46:14.464853 32352 net.cpp:100] Creating Layer L3_b3_cbr2_bn
I0821 06:46:14.464859 32352 net.cpp:434] L3_b3_cbr2_bn <- L3_b3_cbr2_conv_top
I0821 06:46:14.464867 32352 net.cpp:408] L3_b3_cbr2_bn -> L3_b3_cbr2_bn_top
I0821 06:46:14.465138 32352 net.cpp:150] Setting up L3_b3_cbr2_bn
I0821 06:46:14.465152 32352 net.cpp:157] Top shape: 125 64 8 8 (512000)
I0821 06:46:14.465157 32352 net.cpp:165] Memory required for data: 1309185500
I0821 06:46:14.465167 32352 layer_factory.hpp:77] Creating layer L3_b3_cbr2_scale
I0821 06:46:14.465176 32352 net.cpp:100] Creating Layer L3_b3_cbr2_scale
I0821 06:46:14.465183 32352 net.cpp:434] L3_b3_cbr2_scale <- L3_b3_cbr2_bn_top
I0821 06:46:14.465189 32352 net.cpp:395] L3_b3_cbr2_scale -> L3_b3_cbr2_bn_top (in-place)
I0821 06:46:14.465250 32352 layer_factory.hpp:77] Creating layer L3_b3_cbr2_scale
I0821 06:46:14.465406 32352 net.cpp:150] Setting up L3_b3_cbr2_scale
I0821 06:46:14.465420 32352 net.cpp:157] Top shape: 125 64 8 8 (512000)
I0821 06:46:14.465425 32352 net.cpp:165] Memory required for data: 1311233500
I0821 06:46:14.465433 32352 layer_factory.hpp:77] Creating layer L3_b3_sum_eltwise
I0821 06:46:14.465442 32352 net.cpp:100] Creating Layer L3_b3_sum_eltwise
I0821 06:46:14.465448 32352 net.cpp:434] L3_b3_sum_eltwise <- L3_b3_cbr2_bn_top
I0821 06:46:14.465456 32352 net.cpp:434] L3_b3_sum_eltwise <- L3_b2_sum_eltwise_top_L3_b2_relu_0_split_1
I0821 06:46:14.465467 32352 net.cpp:408] L3_b3_sum_eltwise -> L3_b3_sum_eltwise_top
I0821 06:46:14.465502 32352 net.cpp:150] Setting up L3_b3_sum_eltwise
I0821 06:46:14.465517 32352 net.cpp:157] Top shape: 125 64 8 8 (512000)
I0821 06:46:14.465522 32352 net.cpp:165] Memory required for data: 1313281500
I0821 06:46:14.465526 32352 layer_factory.hpp:77] Creating layer L3_b3_relu
I0821 06:46:14.465534 32352 net.cpp:100] Creating Layer L3_b3_relu
I0821 06:46:14.465539 32352 net.cpp:434] L3_b3_relu <- L3_b3_sum_eltwise_top
I0821 06:46:14.465546 32352 net.cpp:395] L3_b3_relu -> L3_b3_sum_eltwise_top (in-place)
I0821 06:46:14.465555 32352 net.cpp:150] Setting up L3_b3_relu
I0821 06:46:14.465562 32352 net.cpp:157] Top shape: 125 64 8 8 (512000)
I0821 06:46:14.465567 32352 net.cpp:165] Memory required for data: 1315329500
I0821 06:46:14.465571 32352 layer_factory.hpp:77] Creating layer L3_b3_sum_eltwise_top_L3_b3_relu_0_split
I0821 06:46:14.465581 32352 net.cpp:100] Creating Layer L3_b3_sum_eltwise_top_L3_b3_relu_0_split
I0821 06:46:14.465587 32352 net.cpp:434] L3_b3_sum_eltwise_top_L3_b3_relu_0_split <- L3_b3_sum_eltwise_top
I0821 06:46:14.465595 32352 net.cpp:408] L3_b3_sum_eltwise_top_L3_b3_relu_0_split -> L3_b3_sum_eltwise_top_L3_b3_relu_0_split_0
I0821 06:46:14.465605 32352 net.cpp:408] L3_b3_sum_eltwise_top_L3_b3_relu_0_split -> L3_b3_sum_eltwise_top_L3_b3_relu_0_split_1
I0821 06:46:14.465658 32352 net.cpp:150] Setting up L3_b3_sum_eltwise_top_L3_b3_relu_0_split
I0821 06:46:14.465672 32352 net.cpp:157] Top shape: 125 64 8 8 (512000)
I0821 06:46:14.465678 32352 net.cpp:157] Top shape: 125 64 8 8 (512000)
I0821 06:46:14.465683 32352 net.cpp:165] Memory required for data: 1319425500
I0821 06:46:14.465688 32352 layer_factory.hpp:77] Creating layer L3_b4_cbr1_conv
I0821 06:46:14.465699 32352 net.cpp:100] Creating Layer L3_b4_cbr1_conv
I0821 06:46:14.465705 32352 net.cpp:434] L3_b4_cbr1_conv <- L3_b3_sum_eltwise_top_L3_b3_relu_0_split_0
I0821 06:46:14.465718 32352 net.cpp:408] L3_b4_cbr1_conv -> L3_b4_cbr1_conv_top
I0821 06:46:14.466748 32352 net.cpp:150] Setting up L3_b4_cbr1_conv
I0821 06:46:14.466764 32352 net.cpp:157] Top shape: 125 64 8 8 (512000)
I0821 06:46:14.466769 32352 net.cpp:165] Memory required for data: 1321473500
I0821 06:46:14.466778 32352 layer_factory.hpp:77] Creating layer L3_b4_cbr1_bn
I0821 06:46:14.466787 32352 net.cpp:100] Creating Layer L3_b4_cbr1_bn
I0821 06:46:14.466794 32352 net.cpp:434] L3_b4_cbr1_bn <- L3_b4_cbr1_conv_top
I0821 06:46:14.466805 32352 net.cpp:408] L3_b4_cbr1_bn -> L3_b4_cbr1_bn_top
I0821 06:46:14.467077 32352 net.cpp:150] Setting up L3_b4_cbr1_bn
I0821 06:46:14.467093 32352 net.cpp:157] Top shape: 125 64 8 8 (512000)
I0821 06:46:14.467099 32352 net.cpp:165] Memory required for data: 1323521500
I0821 06:46:14.467109 32352 layer_factory.hpp:77] Creating layer L3_b4_cbr1_scale
I0821 06:46:14.467118 32352 net.cpp:100] Creating Layer L3_b4_cbr1_scale
I0821 06:46:14.467125 32352 net.cpp:434] L3_b4_cbr1_scale <- L3_b4_cbr1_bn_top
I0821 06:46:14.467133 32352 net.cpp:395] L3_b4_cbr1_scale -> L3_b4_cbr1_bn_top (in-place)
I0821 06:46:14.467192 32352 layer_factory.hpp:77] Creating layer L3_b4_cbr1_scale
I0821 06:46:14.467355 32352 net.cpp:150] Setting up L3_b4_cbr1_scale
I0821 06:46:14.467367 32352 net.cpp:157] Top shape: 125 64 8 8 (512000)
I0821 06:46:14.467372 32352 net.cpp:165] Memory required for data: 1325569500
I0821 06:46:14.467382 32352 layer_factory.hpp:77] Creating layer L3_b4_cbr1_relu
I0821 06:46:14.467391 32352 net.cpp:100] Creating Layer L3_b4_cbr1_relu
I0821 06:46:14.467396 32352 net.cpp:434] L3_b4_cbr1_relu <- L3_b4_cbr1_bn_top
I0821 06:46:14.467406 32352 net.cpp:395] L3_b4_cbr1_relu -> L3_b4_cbr1_bn_top (in-place)
I0821 06:46:14.467417 32352 net.cpp:150] Setting up L3_b4_cbr1_relu
I0821 06:46:14.467423 32352 net.cpp:157] Top shape: 125 64 8 8 (512000)
I0821 06:46:14.467428 32352 net.cpp:165] Memory required for data: 1327617500
I0821 06:46:14.467432 32352 layer_factory.hpp:77] Creating layer L3_b4_cbr2_conv
I0821 06:46:14.467447 32352 net.cpp:100] Creating Layer L3_b4_cbr2_conv
I0821 06:46:14.467453 32352 net.cpp:434] L3_b4_cbr2_conv <- L3_b4_cbr1_bn_top
I0821 06:46:14.467461 32352 net.cpp:408] L3_b4_cbr2_conv -> L3_b4_cbr2_conv_top
I0821 06:46:14.468488 32352 net.cpp:150] Setting up L3_b4_cbr2_conv
I0821 06:46:14.468503 32352 net.cpp:157] Top shape: 125 64 8 8 (512000)
I0821 06:46:14.468508 32352 net.cpp:165] Memory required for data: 1329665500
I0821 06:46:14.468518 32352 layer_factory.hpp:77] Creating layer L3_b4_cbr2_bn
I0821 06:46:14.468528 32352 net.cpp:100] Creating Layer L3_b4_cbr2_bn
I0821 06:46:14.468535 32352 net.cpp:434] L3_b4_cbr2_bn <- L3_b4_cbr2_conv_top
I0821 06:46:14.468546 32352 net.cpp:408] L3_b4_cbr2_bn -> L3_b4_cbr2_bn_top
I0821 06:46:14.468822 32352 net.cpp:150] Setting up L3_b4_cbr2_bn
I0821 06:46:14.468837 32352 net.cpp:157] Top shape: 125 64 8 8 (512000)
I0821 06:46:14.468842 32352 net.cpp:165] Memory required for data: 1331713500
I0821 06:46:14.468852 32352 layer_factory.hpp:77] Creating layer L3_b4_cbr2_scale
I0821 06:46:14.468861 32352 net.cpp:100] Creating Layer L3_b4_cbr2_scale
I0821 06:46:14.468868 32352 net.cpp:434] L3_b4_cbr2_scale <- L3_b4_cbr2_bn_top
I0821 06:46:14.468874 32352 net.cpp:395] L3_b4_cbr2_scale -> L3_b4_cbr2_bn_top (in-place)
I0821 06:46:14.468936 32352 layer_factory.hpp:77] Creating layer L3_b4_cbr2_scale
I0821 06:46:14.469100 32352 net.cpp:150] Setting up L3_b4_cbr2_scale
I0821 06:46:14.469113 32352 net.cpp:157] Top shape: 125 64 8 8 (512000)
I0821 06:46:14.469118 32352 net.cpp:165] Memory required for data: 1333761500
I0821 06:46:14.469127 32352 layer_factory.hpp:77] Creating layer L3_b4_sum_eltwise
I0821 06:46:14.469136 32352 net.cpp:100] Creating Layer L3_b4_sum_eltwise
I0821 06:46:14.469142 32352 net.cpp:434] L3_b4_sum_eltwise <- L3_b4_cbr2_bn_top
I0821 06:46:14.469149 32352 net.cpp:434] L3_b4_sum_eltwise <- L3_b3_sum_eltwise_top_L3_b3_relu_0_split_1
I0821 06:46:14.469161 32352 net.cpp:408] L3_b4_sum_eltwise -> L3_b4_sum_eltwise_top
I0821 06:46:14.469193 32352 net.cpp:150] Setting up L3_b4_sum_eltwise
I0821 06:46:14.469213 32352 net.cpp:157] Top shape: 125 64 8 8 (512000)
I0821 06:46:14.469218 32352 net.cpp:165] Memory required for data: 1335809500
I0821 06:46:14.469223 32352 layer_factory.hpp:77] Creating layer L3_b4_relu
I0821 06:46:14.469231 32352 net.cpp:100] Creating Layer L3_b4_relu
I0821 06:46:14.469238 32352 net.cpp:434] L3_b4_relu <- L3_b4_sum_eltwise_top
I0821 06:46:14.469244 32352 net.cpp:395] L3_b4_relu -> L3_b4_sum_eltwise_top (in-place)
I0821 06:46:14.469254 32352 net.cpp:150] Setting up L3_b4_relu
I0821 06:46:14.469260 32352 net.cpp:157] Top shape: 125 64 8 8 (512000)
I0821 06:46:14.469265 32352 net.cpp:165] Memory required for data: 1337857500
I0821 06:46:14.469269 32352 layer_factory.hpp:77] Creating layer L3_b4_sum_eltwise_top_L3_b4_relu_0_split
I0821 06:46:14.469280 32352 net.cpp:100] Creating Layer L3_b4_sum_eltwise_top_L3_b4_relu_0_split
I0821 06:46:14.469285 32352 net.cpp:434] L3_b4_sum_eltwise_top_L3_b4_relu_0_split <- L3_b4_sum_eltwise_top
I0821 06:46:14.469293 32352 net.cpp:408] L3_b4_sum_eltwise_top_L3_b4_relu_0_split -> L3_b4_sum_eltwise_top_L3_b4_relu_0_split_0
I0821 06:46:14.469302 32352 net.cpp:408] L3_b4_sum_eltwise_top_L3_b4_relu_0_split -> L3_b4_sum_eltwise_top_L3_b4_relu_0_split_1
I0821 06:46:14.469352 32352 net.cpp:150] Setting up L3_b4_sum_eltwise_top_L3_b4_relu_0_split
I0821 06:46:14.469364 32352 net.cpp:157] Top shape: 125 64 8 8 (512000)
I0821 06:46:14.469370 32352 net.cpp:157] Top shape: 125 64 8 8 (512000)
I0821 06:46:14.469375 32352 net.cpp:165] Memory required for data: 1341953500
I0821 06:46:14.469380 32352 layer_factory.hpp:77] Creating layer L3_b5_cbr1_conv
I0821 06:46:14.469391 32352 net.cpp:100] Creating Layer L3_b5_cbr1_conv
I0821 06:46:14.469398 32352 net.cpp:434] L3_b5_cbr1_conv <- L3_b4_sum_eltwise_top_L3_b4_relu_0_split_0
I0821 06:46:14.469410 32352 net.cpp:408] L3_b5_cbr1_conv -> L3_b5_cbr1_conv_top
I0821 06:46:14.470443 32352 net.cpp:150] Setting up L3_b5_cbr1_conv
I0821 06:46:14.470459 32352 net.cpp:157] Top shape: 125 64 8 8 (512000)
I0821 06:46:14.470464 32352 net.cpp:165] Memory required for data: 1344001500
I0821 06:46:14.470474 32352 layer_factory.hpp:77] Creating layer L3_b5_cbr1_bn
I0821 06:46:14.470482 32352 net.cpp:100] Creating Layer L3_b5_cbr1_bn
I0821 06:46:14.470489 32352 net.cpp:434] L3_b5_cbr1_bn <- L3_b5_cbr1_conv_top
I0821 06:46:14.470500 32352 net.cpp:408] L3_b5_cbr1_bn -> L3_b5_cbr1_bn_top
I0821 06:46:14.471771 32352 net.cpp:150] Setting up L3_b5_cbr1_bn
I0821 06:46:14.471787 32352 net.cpp:157] Top shape: 125 64 8 8 (512000)
I0821 06:46:14.471793 32352 net.cpp:165] Memory required for data: 1346049500
I0821 06:46:14.471806 32352 layer_factory.hpp:77] Creating layer L3_b5_cbr1_scale
I0821 06:46:14.471815 32352 net.cpp:100] Creating Layer L3_b5_cbr1_scale
I0821 06:46:14.471822 32352 net.cpp:434] L3_b5_cbr1_scale <- L3_b5_cbr1_bn_top
I0821 06:46:14.471830 32352 net.cpp:395] L3_b5_cbr1_scale -> L3_b5_cbr1_bn_top (in-place)
I0821 06:46:14.471894 32352 layer_factory.hpp:77] Creating layer L3_b5_cbr1_scale
I0821 06:46:14.472054 32352 net.cpp:150] Setting up L3_b5_cbr1_scale
I0821 06:46:14.472066 32352 net.cpp:157] Top shape: 125 64 8 8 (512000)
I0821 06:46:14.472071 32352 net.cpp:165] Memory required for data: 1348097500
I0821 06:46:14.472080 32352 layer_factory.hpp:77] Creating layer L3_b5_cbr1_relu
I0821 06:46:14.472090 32352 net.cpp:100] Creating Layer L3_b5_cbr1_relu
I0821 06:46:14.472095 32352 net.cpp:434] L3_b5_cbr1_relu <- L3_b5_cbr1_bn_top
I0821 06:46:14.472105 32352 net.cpp:395] L3_b5_cbr1_relu -> L3_b5_cbr1_bn_top (in-place)
I0821 06:46:14.472116 32352 net.cpp:150] Setting up L3_b5_cbr1_relu
I0821 06:46:14.472122 32352 net.cpp:157] Top shape: 125 64 8 8 (512000)
I0821 06:46:14.472127 32352 net.cpp:165] Memory required for data: 1350145500
I0821 06:46:14.472132 32352 layer_factory.hpp:77] Creating layer L3_b5_cbr2_conv
I0821 06:46:14.472146 32352 net.cpp:100] Creating Layer L3_b5_cbr2_conv
I0821 06:46:14.472153 32352 net.cpp:434] L3_b5_cbr2_conv <- L3_b5_cbr1_bn_top
I0821 06:46:14.472162 32352 net.cpp:408] L3_b5_cbr2_conv -> L3_b5_cbr2_conv_top
I0821 06:46:14.474195 32352 net.cpp:150] Setting up L3_b5_cbr2_conv
I0821 06:46:14.474211 32352 net.cpp:157] Top shape: 125 64 8 8 (512000)
I0821 06:46:14.474217 32352 net.cpp:165] Memory required for data: 1352193500
I0821 06:46:14.474226 32352 layer_factory.hpp:77] Creating layer L3_b5_cbr2_bn
I0821 06:46:14.474241 32352 net.cpp:100] Creating Layer L3_b5_cbr2_bn
I0821 06:46:14.474247 32352 net.cpp:434] L3_b5_cbr2_bn <- L3_b5_cbr2_conv_top
I0821 06:46:14.474256 32352 net.cpp:408] L3_b5_cbr2_bn -> L3_b5_cbr2_bn_top
I0821 06:46:14.474515 32352 net.cpp:150] Setting up L3_b5_cbr2_bn
I0821 06:46:14.474529 32352 net.cpp:157] Top shape: 125 64 8 8 (512000)
I0821 06:46:14.474534 32352 net.cpp:165] Memory required for data: 1354241500
I0821 06:46:14.474545 32352 layer_factory.hpp:77] Creating layer L3_b5_cbr2_scale
I0821 06:46:14.474552 32352 net.cpp:100] Creating Layer L3_b5_cbr2_scale
I0821 06:46:14.474560 32352 net.cpp:434] L3_b5_cbr2_scale <- L3_b5_cbr2_bn_top
I0821 06:46:14.474566 32352 net.cpp:395] L3_b5_cbr2_scale -> L3_b5_cbr2_bn_top (in-place)
I0821 06:46:14.474625 32352 layer_factory.hpp:77] Creating layer L3_b5_cbr2_scale
I0821 06:46:14.474788 32352 net.cpp:150] Setting up L3_b5_cbr2_scale
I0821 06:46:14.474803 32352 net.cpp:157] Top shape: 125 64 8 8 (512000)
I0821 06:46:14.474808 32352 net.cpp:165] Memory required for data: 1356289500
I0821 06:46:14.474817 32352 layer_factory.hpp:77] Creating layer L3_b5_sum_eltwise
I0821 06:46:14.474828 32352 net.cpp:100] Creating Layer L3_b5_sum_eltwise
I0821 06:46:14.474833 32352 net.cpp:434] L3_b5_sum_eltwise <- L3_b5_cbr2_bn_top
I0821 06:46:14.474840 32352 net.cpp:434] L3_b5_sum_eltwise <- L3_b4_sum_eltwise_top_L3_b4_relu_0_split_1
I0821 06:46:14.474851 32352 net.cpp:408] L3_b5_sum_eltwise -> L3_b5_sum_eltwise_top
I0821 06:46:14.474884 32352 net.cpp:150] Setting up L3_b5_sum_eltwise
I0821 06:46:14.474900 32352 net.cpp:157] Top shape: 125 64 8 8 (512000)
I0821 06:46:14.474905 32352 net.cpp:165] Memory required for data: 1358337500
I0821 06:46:14.474910 32352 layer_factory.hpp:77] Creating layer L3_b5_relu
I0821 06:46:14.474917 32352 net.cpp:100] Creating Layer L3_b5_relu
I0821 06:46:14.474923 32352 net.cpp:434] L3_b5_relu <- L3_b5_sum_eltwise_top
I0821 06:46:14.474931 32352 net.cpp:395] L3_b5_relu -> L3_b5_sum_eltwise_top (in-place)
I0821 06:46:14.474941 32352 net.cpp:150] Setting up L3_b5_relu
I0821 06:46:14.474947 32352 net.cpp:157] Top shape: 125 64 8 8 (512000)
I0821 06:46:14.474951 32352 net.cpp:165] Memory required for data: 1360385500
I0821 06:46:14.474956 32352 layer_factory.hpp:77] Creating layer L3_b5_sum_eltwise_top_L3_b5_relu_0_split
I0821 06:46:14.474967 32352 net.cpp:100] Creating Layer L3_b5_sum_eltwise_top_L3_b5_relu_0_split
I0821 06:46:14.474972 32352 net.cpp:434] L3_b5_sum_eltwise_top_L3_b5_relu_0_split <- L3_b5_sum_eltwise_top
I0821 06:46:14.474979 32352 net.cpp:408] L3_b5_sum_eltwise_top_L3_b5_relu_0_split -> L3_b5_sum_eltwise_top_L3_b5_relu_0_split_0
I0821 06:46:14.474989 32352 net.cpp:408] L3_b5_sum_eltwise_top_L3_b5_relu_0_split -> L3_b5_sum_eltwise_top_L3_b5_relu_0_split_1
I0821 06:46:14.475037 32352 net.cpp:150] Setting up L3_b5_sum_eltwise_top_L3_b5_relu_0_split
I0821 06:46:14.475049 32352 net.cpp:157] Top shape: 125 64 8 8 (512000)
I0821 06:46:14.475055 32352 net.cpp:157] Top shape: 125 64 8 8 (512000)
I0821 06:46:14.475059 32352 net.cpp:165] Memory required for data: 1364481500
I0821 06:46:14.475064 32352 layer_factory.hpp:77] Creating layer L3_b6_cbr1_conv
I0821 06:46:14.475076 32352 net.cpp:100] Creating Layer L3_b6_cbr1_conv
I0821 06:46:14.475082 32352 net.cpp:434] L3_b6_cbr1_conv <- L3_b5_sum_eltwise_top_L3_b5_relu_0_split_0
I0821 06:46:14.475095 32352 net.cpp:408] L3_b6_cbr1_conv -> L3_b6_cbr1_conv_top
I0821 06:46:14.476115 32352 net.cpp:150] Setting up L3_b6_cbr1_conv
I0821 06:46:14.476130 32352 net.cpp:157] Top shape: 125 64 8 8 (512000)
I0821 06:46:14.476135 32352 net.cpp:165] Memory required for data: 1366529500
I0821 06:46:14.476145 32352 layer_factory.hpp:77] Creating layer L3_b6_cbr1_bn
I0821 06:46:14.476155 32352 net.cpp:100] Creating Layer L3_b6_cbr1_bn
I0821 06:46:14.476168 32352 net.cpp:434] L3_b6_cbr1_bn <- L3_b6_cbr1_conv_top
I0821 06:46:14.476182 32352 net.cpp:408] L3_b6_cbr1_bn -> L3_b6_cbr1_bn_top
I0821 06:46:14.476438 32352 net.cpp:150] Setting up L3_b6_cbr1_bn
I0821 06:46:14.476454 32352 net.cpp:157] Top shape: 125 64 8 8 (512000)
I0821 06:46:14.476460 32352 net.cpp:165] Memory required for data: 1368577500
I0821 06:46:14.476471 32352 layer_factory.hpp:77] Creating layer L3_b6_cbr1_scale
I0821 06:46:14.476480 32352 net.cpp:100] Creating Layer L3_b6_cbr1_scale
I0821 06:46:14.476486 32352 net.cpp:434] L3_b6_cbr1_scale <- L3_b6_cbr1_bn_top
I0821 06:46:14.476495 32352 net.cpp:395] L3_b6_cbr1_scale -> L3_b6_cbr1_bn_top (in-place)
I0821 06:46:14.476549 32352 layer_factory.hpp:77] Creating layer L3_b6_cbr1_scale
I0821 06:46:14.476711 32352 net.cpp:150] Setting up L3_b6_cbr1_scale
I0821 06:46:14.476725 32352 net.cpp:157] Top shape: 125 64 8 8 (512000)
I0821 06:46:14.476730 32352 net.cpp:165] Memory required for data: 1370625500
I0821 06:46:14.476739 32352 layer_factory.hpp:77] Creating layer L3_b6_cbr1_relu
I0821 06:46:14.476748 32352 net.cpp:100] Creating Layer L3_b6_cbr1_relu
I0821 06:46:14.476754 32352 net.cpp:434] L3_b6_cbr1_relu <- L3_b6_cbr1_bn_top
I0821 06:46:14.476764 32352 net.cpp:395] L3_b6_cbr1_relu -> L3_b6_cbr1_bn_top (in-place)
I0821 06:46:14.476774 32352 net.cpp:150] Setting up L3_b6_cbr1_relu
I0821 06:46:14.476781 32352 net.cpp:157] Top shape: 125 64 8 8 (512000)
I0821 06:46:14.476785 32352 net.cpp:165] Memory required for data: 1372673500
I0821 06:46:14.476790 32352 layer_factory.hpp:77] Creating layer L3_b6_cbr2_conv
I0821 06:46:14.476804 32352 net.cpp:100] Creating Layer L3_b6_cbr2_conv
I0821 06:46:14.476810 32352 net.cpp:434] L3_b6_cbr2_conv <- L3_b6_cbr1_bn_top
I0821 06:46:14.476819 32352 net.cpp:408] L3_b6_cbr2_conv -> L3_b6_cbr2_conv_top
I0821 06:46:14.477828 32352 net.cpp:150] Setting up L3_b6_cbr2_conv
I0821 06:46:14.477843 32352 net.cpp:157] Top shape: 125 64 8 8 (512000)
I0821 06:46:14.477847 32352 net.cpp:165] Memory required for data: 1374721500
I0821 06:46:14.477856 32352 layer_factory.hpp:77] Creating layer L3_b6_cbr2_bn
I0821 06:46:14.477870 32352 net.cpp:100] Creating Layer L3_b6_cbr2_bn
I0821 06:46:14.477877 32352 net.cpp:434] L3_b6_cbr2_bn <- L3_b6_cbr2_conv_top
I0821 06:46:14.477888 32352 net.cpp:408] L3_b6_cbr2_bn -> L3_b6_cbr2_bn_top
I0821 06:46:14.478148 32352 net.cpp:150] Setting up L3_b6_cbr2_bn
I0821 06:46:14.478162 32352 net.cpp:157] Top shape: 125 64 8 8 (512000)
I0821 06:46:14.478166 32352 net.cpp:165] Memory required for data: 1376769500
I0821 06:46:14.478178 32352 layer_factory.hpp:77] Creating layer L3_b6_cbr2_scale
I0821 06:46:14.478185 32352 net.cpp:100] Creating Layer L3_b6_cbr2_scale
I0821 06:46:14.478193 32352 net.cpp:434] L3_b6_cbr2_scale <- L3_b6_cbr2_bn_top
I0821 06:46:14.478202 32352 net.cpp:395] L3_b6_cbr2_scale -> L3_b6_cbr2_bn_top (in-place)
I0821 06:46:14.478260 32352 layer_factory.hpp:77] Creating layer L3_b6_cbr2_scale
I0821 06:46:14.478412 32352 net.cpp:150] Setting up L3_b6_cbr2_scale
I0821 06:46:14.478425 32352 net.cpp:157] Top shape: 125 64 8 8 (512000)
I0821 06:46:14.478430 32352 net.cpp:165] Memory required for data: 1378817500
I0821 06:46:14.478438 32352 layer_factory.hpp:77] Creating layer L3_b6_sum_eltwise
I0821 06:46:14.478447 32352 net.cpp:100] Creating Layer L3_b6_sum_eltwise
I0821 06:46:14.478453 32352 net.cpp:434] L3_b6_sum_eltwise <- L3_b6_cbr2_bn_top
I0821 06:46:14.478461 32352 net.cpp:434] L3_b6_sum_eltwise <- L3_b5_sum_eltwise_top_L3_b5_relu_0_split_1
I0821 06:46:14.478471 32352 net.cpp:408] L3_b6_sum_eltwise -> L3_b6_sum_eltwise_top
I0821 06:46:14.478507 32352 net.cpp:150] Setting up L3_b6_sum_eltwise
I0821 06:46:14.478519 32352 net.cpp:157] Top shape: 125 64 8 8 (512000)
I0821 06:46:14.478524 32352 net.cpp:165] Memory required for data: 1380865500
I0821 06:46:14.478529 32352 layer_factory.hpp:77] Creating layer L3_b6_relu
I0821 06:46:14.478536 32352 net.cpp:100] Creating Layer L3_b6_relu
I0821 06:46:14.478543 32352 net.cpp:434] L3_b6_relu <- L3_b6_sum_eltwise_top
I0821 06:46:14.478557 32352 net.cpp:395] L3_b6_relu -> L3_b6_sum_eltwise_top (in-place)
I0821 06:46:14.478569 32352 net.cpp:150] Setting up L3_b6_relu
I0821 06:46:14.478575 32352 net.cpp:157] Top shape: 125 64 8 8 (512000)
I0821 06:46:14.478579 32352 net.cpp:165] Memory required for data: 1382913500
I0821 06:46:14.478585 32352 layer_factory.hpp:77] Creating layer L3_b6_sum_eltwise_top_L3_b6_relu_0_split
I0821 06:46:14.478595 32352 net.cpp:100] Creating Layer L3_b6_sum_eltwise_top_L3_b6_relu_0_split
I0821 06:46:14.478600 32352 net.cpp:434] L3_b6_sum_eltwise_top_L3_b6_relu_0_split <- L3_b6_sum_eltwise_top
I0821 06:46:14.478608 32352 net.cpp:408] L3_b6_sum_eltwise_top_L3_b6_relu_0_split -> L3_b6_sum_eltwise_top_L3_b6_relu_0_split_0
I0821 06:46:14.478618 32352 net.cpp:408] L3_b6_sum_eltwise_top_L3_b6_relu_0_split -> L3_b6_sum_eltwise_top_L3_b6_relu_0_split_1
I0821 06:46:14.478673 32352 net.cpp:150] Setting up L3_b6_sum_eltwise_top_L3_b6_relu_0_split
I0821 06:46:14.478687 32352 net.cpp:157] Top shape: 125 64 8 8 (512000)
I0821 06:46:14.478693 32352 net.cpp:157] Top shape: 125 64 8 8 (512000)
I0821 06:46:14.478698 32352 net.cpp:165] Memory required for data: 1387009500
I0821 06:46:14.478703 32352 layer_factory.hpp:77] Creating layer L3_b7_cbr1_conv
I0821 06:46:14.478714 32352 net.cpp:100] Creating Layer L3_b7_cbr1_conv
I0821 06:46:14.478720 32352 net.cpp:434] L3_b7_cbr1_conv <- L3_b6_sum_eltwise_top_L3_b6_relu_0_split_0
I0821 06:46:14.478732 32352 net.cpp:408] L3_b7_cbr1_conv -> L3_b7_cbr1_conv_top
I0821 06:46:14.479753 32352 net.cpp:150] Setting up L3_b7_cbr1_conv
I0821 06:46:14.479768 32352 net.cpp:157] Top shape: 125 64 8 8 (512000)
I0821 06:46:14.479773 32352 net.cpp:165] Memory required for data: 1389057500
I0821 06:46:14.479782 32352 layer_factory.hpp:77] Creating layer L3_b7_cbr1_bn
I0821 06:46:14.479791 32352 net.cpp:100] Creating Layer L3_b7_cbr1_bn
I0821 06:46:14.479797 32352 net.cpp:434] L3_b7_cbr1_bn <- L3_b7_cbr1_conv_top
I0821 06:46:14.479809 32352 net.cpp:408] L3_b7_cbr1_bn -> L3_b7_cbr1_bn_top
I0821 06:46:14.480069 32352 net.cpp:150] Setting up L3_b7_cbr1_bn
I0821 06:46:14.480085 32352 net.cpp:157] Top shape: 125 64 8 8 (512000)
I0821 06:46:14.480090 32352 net.cpp:165] Memory required for data: 1391105500
I0821 06:46:14.480100 32352 layer_factory.hpp:77] Creating layer L3_b7_cbr1_scale
I0821 06:46:14.480110 32352 net.cpp:100] Creating Layer L3_b7_cbr1_scale
I0821 06:46:14.480116 32352 net.cpp:434] L3_b7_cbr1_scale <- L3_b7_cbr1_bn_top
I0821 06:46:14.480123 32352 net.cpp:395] L3_b7_cbr1_scale -> L3_b7_cbr1_bn_top (in-place)
I0821 06:46:14.480180 32352 layer_factory.hpp:77] Creating layer L3_b7_cbr1_scale
I0821 06:46:14.480341 32352 net.cpp:150] Setting up L3_b7_cbr1_scale
I0821 06:46:14.480355 32352 net.cpp:157] Top shape: 125 64 8 8 (512000)
I0821 06:46:14.480360 32352 net.cpp:165] Memory required for data: 1393153500
I0821 06:46:14.480368 32352 layer_factory.hpp:77] Creating layer L3_b7_cbr1_relu
I0821 06:46:14.480403 32352 net.cpp:100] Creating Layer L3_b7_cbr1_relu
I0821 06:46:14.480412 32352 net.cpp:434] L3_b7_cbr1_relu <- L3_b7_cbr1_bn_top
I0821 06:46:14.480420 32352 net.cpp:395] L3_b7_cbr1_relu -> L3_b7_cbr1_bn_top (in-place)
I0821 06:46:14.480430 32352 net.cpp:150] Setting up L3_b7_cbr1_relu
I0821 06:46:14.480437 32352 net.cpp:157] Top shape: 125 64 8 8 (512000)
I0821 06:46:14.480443 32352 net.cpp:165] Memory required for data: 1395201500
I0821 06:46:14.480448 32352 layer_factory.hpp:77] Creating layer L3_b7_cbr2_conv
I0821 06:46:14.480459 32352 net.cpp:100] Creating Layer L3_b7_cbr2_conv
I0821 06:46:14.480465 32352 net.cpp:434] L3_b7_cbr2_conv <- L3_b7_cbr1_bn_top
I0821 06:46:14.480476 32352 net.cpp:408] L3_b7_cbr2_conv -> L3_b7_cbr2_conv_top
I0821 06:46:14.481505 32352 net.cpp:150] Setting up L3_b7_cbr2_conv
I0821 06:46:14.481520 32352 net.cpp:157] Top shape: 125 64 8 8 (512000)
I0821 06:46:14.481525 32352 net.cpp:165] Memory required for data: 1397249500
I0821 06:46:14.481534 32352 layer_factory.hpp:77] Creating layer L3_b7_cbr2_bn
I0821 06:46:14.481544 32352 net.cpp:100] Creating Layer L3_b7_cbr2_bn
I0821 06:46:14.481557 32352 net.cpp:434] L3_b7_cbr2_bn <- L3_b7_cbr2_conv_top
I0821 06:46:14.481570 32352 net.cpp:408] L3_b7_cbr2_bn -> L3_b7_cbr2_bn_top
I0821 06:46:14.481844 32352 net.cpp:150] Setting up L3_b7_cbr2_bn
I0821 06:46:14.481860 32352 net.cpp:157] Top shape: 125 64 8 8 (512000)
I0821 06:46:14.481866 32352 net.cpp:165] Memory required for data: 1399297500
I0821 06:46:14.481876 32352 layer_factory.hpp:77] Creating layer L3_b7_cbr2_scale
I0821 06:46:14.481885 32352 net.cpp:100] Creating Layer L3_b7_cbr2_scale
I0821 06:46:14.481891 32352 net.cpp:434] L3_b7_cbr2_scale <- L3_b7_cbr2_bn_top
I0821 06:46:14.481899 32352 net.cpp:395] L3_b7_cbr2_scale -> L3_b7_cbr2_bn_top (in-place)
I0821 06:46:14.481957 32352 layer_factory.hpp:77] Creating layer L3_b7_cbr2_scale
I0821 06:46:14.482112 32352 net.cpp:150] Setting up L3_b7_cbr2_scale
I0821 06:46:14.482125 32352 net.cpp:157] Top shape: 125 64 8 8 (512000)
I0821 06:46:14.482131 32352 net.cpp:165] Memory required for data: 1401345500
I0821 06:46:14.482138 32352 layer_factory.hpp:77] Creating layer L3_b7_sum_eltwise
I0821 06:46:14.482151 32352 net.cpp:100] Creating Layer L3_b7_sum_eltwise
I0821 06:46:14.482157 32352 net.cpp:434] L3_b7_sum_eltwise <- L3_b7_cbr2_bn_top
I0821 06:46:14.482164 32352 net.cpp:434] L3_b7_sum_eltwise <- L3_b6_sum_eltwise_top_L3_b6_relu_0_split_1
I0821 06:46:14.482172 32352 net.cpp:408] L3_b7_sum_eltwise -> L3_b7_sum_eltwise_top
I0821 06:46:14.482209 32352 net.cpp:150] Setting up L3_b7_sum_eltwise
I0821 06:46:14.482220 32352 net.cpp:157] Top shape: 125 64 8 8 (512000)
I0821 06:46:14.482225 32352 net.cpp:165] Memory required for data: 1403393500
I0821 06:46:14.482230 32352 layer_factory.hpp:77] Creating layer L3_b7_relu
I0821 06:46:14.482239 32352 net.cpp:100] Creating Layer L3_b7_relu
I0821 06:46:14.482244 32352 net.cpp:434] L3_b7_relu <- L3_b7_sum_eltwise_top
I0821 06:46:14.482251 32352 net.cpp:395] L3_b7_relu -> L3_b7_sum_eltwise_top (in-place)
I0821 06:46:14.482260 32352 net.cpp:150] Setting up L3_b7_relu
I0821 06:46:14.482267 32352 net.cpp:157] Top shape: 125 64 8 8 (512000)
I0821 06:46:14.482271 32352 net.cpp:165] Memory required for data: 1405441500
I0821 06:46:14.482277 32352 layer_factory.hpp:77] Creating layer L3_b7_sum_eltwise_top_L3_b7_relu_0_split
I0821 06:46:14.482283 32352 net.cpp:100] Creating Layer L3_b7_sum_eltwise_top_L3_b7_relu_0_split
I0821 06:46:14.482290 32352 net.cpp:434] L3_b7_sum_eltwise_top_L3_b7_relu_0_split <- L3_b7_sum_eltwise_top
I0821 06:46:14.482300 32352 net.cpp:408] L3_b7_sum_eltwise_top_L3_b7_relu_0_split -> L3_b7_sum_eltwise_top_L3_b7_relu_0_split_0
I0821 06:46:14.482309 32352 net.cpp:408] L3_b7_sum_eltwise_top_L3_b7_relu_0_split -> L3_b7_sum_eltwise_top_L3_b7_relu_0_split_1
I0821 06:46:14.482354 32352 net.cpp:150] Setting up L3_b7_sum_eltwise_top_L3_b7_relu_0_split
I0821 06:46:14.482365 32352 net.cpp:157] Top shape: 125 64 8 8 (512000)
I0821 06:46:14.482372 32352 net.cpp:157] Top shape: 125 64 8 8 (512000)
I0821 06:46:14.482376 32352 net.cpp:165] Memory required for data: 1409537500
I0821 06:46:14.482381 32352 layer_factory.hpp:77] Creating layer L3_b8_cbr1_conv
I0821 06:46:14.482395 32352 net.cpp:100] Creating Layer L3_b8_cbr1_conv
I0821 06:46:14.482403 32352 net.cpp:434] L3_b8_cbr1_conv <- L3_b7_sum_eltwise_top_L3_b7_relu_0_split_0
I0821 06:46:14.482411 32352 net.cpp:408] L3_b8_cbr1_conv -> L3_b8_cbr1_conv_top
I0821 06:46:14.483438 32352 net.cpp:150] Setting up L3_b8_cbr1_conv
I0821 06:46:14.483453 32352 net.cpp:157] Top shape: 125 64 8 8 (512000)
I0821 06:46:14.483458 32352 net.cpp:165] Memory required for data: 1411585500
I0821 06:46:14.483466 32352 layer_factory.hpp:77] Creating layer L3_b8_cbr1_bn
I0821 06:46:14.483475 32352 net.cpp:100] Creating Layer L3_b8_cbr1_bn
I0821 06:46:14.483485 32352 net.cpp:434] L3_b8_cbr1_bn <- L3_b8_cbr1_conv_top
I0821 06:46:14.483494 32352 net.cpp:408] L3_b8_cbr1_bn -> L3_b8_cbr1_bn_top
I0821 06:46:14.483758 32352 net.cpp:150] Setting up L3_b8_cbr1_bn
I0821 06:46:14.483772 32352 net.cpp:157] Top shape: 125 64 8 8 (512000)
I0821 06:46:14.483777 32352 net.cpp:165] Memory required for data: 1413633500
I0821 06:46:14.483796 32352 layer_factory.hpp:77] Creating layer L3_b8_cbr1_scale
I0821 06:46:14.483805 32352 net.cpp:100] Creating Layer L3_b8_cbr1_scale
I0821 06:46:14.483811 32352 net.cpp:434] L3_b8_cbr1_scale <- L3_b8_cbr1_bn_top
I0821 06:46:14.483822 32352 net.cpp:395] L3_b8_cbr1_scale -> L3_b8_cbr1_bn_top (in-place)
I0821 06:46:14.483881 32352 layer_factory.hpp:77] Creating layer L3_b8_cbr1_scale
I0821 06:46:14.484037 32352 net.cpp:150] Setting up L3_b8_cbr1_scale
I0821 06:46:14.484050 32352 net.cpp:157] Top shape: 125 64 8 8 (512000)
I0821 06:46:14.484055 32352 net.cpp:165] Memory required for data: 1415681500
I0821 06:46:14.484064 32352 layer_factory.hpp:77] Creating layer L3_b8_cbr1_relu
I0821 06:46:14.484076 32352 net.cpp:100] Creating Layer L3_b8_cbr1_relu
I0821 06:46:14.484081 32352 net.cpp:434] L3_b8_cbr1_relu <- L3_b8_cbr1_bn_top
I0821 06:46:14.484089 32352 net.cpp:395] L3_b8_cbr1_relu -> L3_b8_cbr1_bn_top (in-place)
I0821 06:46:14.484098 32352 net.cpp:150] Setting up L3_b8_cbr1_relu
I0821 06:46:14.484105 32352 net.cpp:157] Top shape: 125 64 8 8 (512000)
I0821 06:46:14.484110 32352 net.cpp:165] Memory required for data: 1417729500
I0821 06:46:14.484114 32352 layer_factory.hpp:77] Creating layer L3_b8_cbr2_conv
I0821 06:46:14.484128 32352 net.cpp:100] Creating Layer L3_b8_cbr2_conv
I0821 06:46:14.484134 32352 net.cpp:434] L3_b8_cbr2_conv <- L3_b8_cbr1_bn_top
I0821 06:46:14.484145 32352 net.cpp:408] L3_b8_cbr2_conv -> L3_b8_cbr2_conv_top
I0821 06:46:14.485162 32352 net.cpp:150] Setting up L3_b8_cbr2_conv
I0821 06:46:14.485177 32352 net.cpp:157] Top shape: 125 64 8 8 (512000)
I0821 06:46:14.485182 32352 net.cpp:165] Memory required for data: 1419777500
I0821 06:46:14.485190 32352 layer_factory.hpp:77] Creating layer L3_b8_cbr2_bn
I0821 06:46:14.485199 32352 net.cpp:100] Creating Layer L3_b8_cbr2_bn
I0821 06:46:14.485205 32352 net.cpp:434] L3_b8_cbr2_bn <- L3_b8_cbr2_conv_top
I0821 06:46:14.485216 32352 net.cpp:408] L3_b8_cbr2_bn -> L3_b8_cbr2_bn_top
I0821 06:46:14.485512 32352 net.cpp:150] Setting up L3_b8_cbr2_bn
I0821 06:46:14.485534 32352 net.cpp:157] Top shape: 125 64 8 8 (512000)
I0821 06:46:14.485543 32352 net.cpp:165] Memory required for data: 1421825500
I0821 06:46:14.485563 32352 layer_factory.hpp:77] Creating layer L3_b8_cbr2_scale
I0821 06:46:14.485579 32352 net.cpp:100] Creating Layer L3_b8_cbr2_scale
I0821 06:46:14.485589 32352 net.cpp:434] L3_b8_cbr2_scale <- L3_b8_cbr2_bn_top
I0821 06:46:14.485602 32352 net.cpp:395] L3_b8_cbr2_scale -> L3_b8_cbr2_bn_top (in-place)
I0821 06:46:14.485678 32352 layer_factory.hpp:77] Creating layer L3_b8_cbr2_scale
I0821 06:46:14.485841 32352 net.cpp:150] Setting up L3_b8_cbr2_scale
I0821 06:46:14.485853 32352 net.cpp:157] Top shape: 125 64 8 8 (512000)
I0821 06:46:14.485858 32352 net.cpp:165] Memory required for data: 1423873500
I0821 06:46:14.485868 32352 layer_factory.hpp:77] Creating layer L3_b8_sum_eltwise
I0821 06:46:14.485880 32352 net.cpp:100] Creating Layer L3_b8_sum_eltwise
I0821 06:46:14.485888 32352 net.cpp:434] L3_b8_sum_eltwise <- L3_b8_cbr2_bn_top
I0821 06:46:14.485894 32352 net.cpp:434] L3_b8_sum_eltwise <- L3_b7_sum_eltwise_top_L3_b7_relu_0_split_1
I0821 06:46:14.485903 32352 net.cpp:408] L3_b8_sum_eltwise -> L3_b8_sum_eltwise_top
I0821 06:46:14.485939 32352 net.cpp:150] Setting up L3_b8_sum_eltwise
I0821 06:46:14.485949 32352 net.cpp:157] Top shape: 125 64 8 8 (512000)
I0821 06:46:14.485954 32352 net.cpp:165] Memory required for data: 1425921500
I0821 06:46:14.485960 32352 layer_factory.hpp:77] Creating layer L3_b8_relu
I0821 06:46:14.485967 32352 net.cpp:100] Creating Layer L3_b8_relu
I0821 06:46:14.485973 32352 net.cpp:434] L3_b8_relu <- L3_b8_sum_eltwise_top
I0821 06:46:14.485980 32352 net.cpp:395] L3_b8_relu -> L3_b8_sum_eltwise_top (in-place)
I0821 06:46:14.485990 32352 net.cpp:150] Setting up L3_b8_relu
I0821 06:46:14.485996 32352 net.cpp:157] Top shape: 125 64 8 8 (512000)
I0821 06:46:14.486001 32352 net.cpp:165] Memory required for data: 1427969500
I0821 06:46:14.486006 32352 layer_factory.hpp:77] Creating layer L3_b8_sum_eltwise_top_L3_b8_relu_0_split
I0821 06:46:14.486021 32352 net.cpp:100] Creating Layer L3_b8_sum_eltwise_top_L3_b8_relu_0_split
I0821 06:46:14.486027 32352 net.cpp:434] L3_b8_sum_eltwise_top_L3_b8_relu_0_split <- L3_b8_sum_eltwise_top
I0821 06:46:14.486037 32352 net.cpp:408] L3_b8_sum_eltwise_top_L3_b8_relu_0_split -> L3_b8_sum_eltwise_top_L3_b8_relu_0_split_0
I0821 06:46:14.486047 32352 net.cpp:408] L3_b8_sum_eltwise_top_L3_b8_relu_0_split -> L3_b8_sum_eltwise_top_L3_b8_relu_0_split_1
I0821 06:46:14.486093 32352 net.cpp:150] Setting up L3_b8_sum_eltwise_top_L3_b8_relu_0_split
I0821 06:46:14.486105 32352 net.cpp:157] Top shape: 125 64 8 8 (512000)
I0821 06:46:14.486112 32352 net.cpp:157] Top shape: 125 64 8 8 (512000)
I0821 06:46:14.486117 32352 net.cpp:165] Memory required for data: 1432065500
I0821 06:46:14.486122 32352 layer_factory.hpp:77] Creating layer L3_b9_cbr1_conv
I0821 06:46:14.486138 32352 net.cpp:100] Creating Layer L3_b9_cbr1_conv
I0821 06:46:14.486145 32352 net.cpp:434] L3_b9_cbr1_conv <- L3_b8_sum_eltwise_top_L3_b8_relu_0_split_0
I0821 06:46:14.486155 32352 net.cpp:408] L3_b9_cbr1_conv -> L3_b9_cbr1_conv_top
I0821 06:46:14.488173 32352 net.cpp:150] Setting up L3_b9_cbr1_conv
I0821 06:46:14.488191 32352 net.cpp:157] Top shape: 125 64 8 8 (512000)
I0821 06:46:14.488198 32352 net.cpp:165] Memory required for data: 1434113500
I0821 06:46:14.488206 32352 layer_factory.hpp:77] Creating layer L3_b9_cbr1_bn
I0821 06:46:14.488219 32352 net.cpp:100] Creating Layer L3_b9_cbr1_bn
I0821 06:46:14.488226 32352 net.cpp:434] L3_b9_cbr1_bn <- L3_b9_cbr1_conv_top
I0821 06:46:14.488234 32352 net.cpp:408] L3_b9_cbr1_bn -> L3_b9_cbr1_bn_top
I0821 06:46:14.488507 32352 net.cpp:150] Setting up L3_b9_cbr1_bn
I0821 06:46:14.488521 32352 net.cpp:157] Top shape: 125 64 8 8 (512000)
I0821 06:46:14.488526 32352 net.cpp:165] Memory required for data: 1436161500
I0821 06:46:14.488536 32352 layer_factory.hpp:77] Creating layer L3_b9_cbr1_scale
I0821 06:46:14.488545 32352 net.cpp:100] Creating Layer L3_b9_cbr1_scale
I0821 06:46:14.488551 32352 net.cpp:434] L3_b9_cbr1_scale <- L3_b9_cbr1_bn_top
I0821 06:46:14.488559 32352 net.cpp:395] L3_b9_cbr1_scale -> L3_b9_cbr1_bn_top (in-place)
I0821 06:46:14.488620 32352 layer_factory.hpp:77] Creating layer L3_b9_cbr1_scale
I0821 06:46:14.488783 32352 net.cpp:150] Setting up L3_b9_cbr1_scale
I0821 06:46:14.488801 32352 net.cpp:157] Top shape: 125 64 8 8 (512000)
I0821 06:46:14.488806 32352 net.cpp:165] Memory required for data: 1438209500
I0821 06:46:14.488816 32352 layer_factory.hpp:77] Creating layer L3_b9_cbr1_relu
I0821 06:46:14.488823 32352 net.cpp:100] Creating Layer L3_b9_cbr1_relu
I0821 06:46:14.488829 32352 net.cpp:434] L3_b9_cbr1_relu <- L3_b9_cbr1_bn_top
I0821 06:46:14.488837 32352 net.cpp:395] L3_b9_cbr1_relu -> L3_b9_cbr1_bn_top (in-place)
I0821 06:46:14.488847 32352 net.cpp:150] Setting up L3_b9_cbr1_relu
I0821 06:46:14.488853 32352 net.cpp:157] Top shape: 125 64 8 8 (512000)
I0821 06:46:14.488857 32352 net.cpp:165] Memory required for data: 1440257500
I0821 06:46:14.488862 32352 layer_factory.hpp:77] Creating layer L3_b9_cbr2_conv
I0821 06:46:14.488876 32352 net.cpp:100] Creating Layer L3_b9_cbr2_conv
I0821 06:46:14.488883 32352 net.cpp:434] L3_b9_cbr2_conv <- L3_b9_cbr1_bn_top
I0821 06:46:14.488891 32352 net.cpp:408] L3_b9_cbr2_conv -> L3_b9_cbr2_conv_top
I0821 06:46:14.489920 32352 net.cpp:150] Setting up L3_b9_cbr2_conv
I0821 06:46:14.489935 32352 net.cpp:157] Top shape: 125 64 8 8 (512000)
I0821 06:46:14.489940 32352 net.cpp:165] Memory required for data: 1442305500
I0821 06:46:14.489949 32352 layer_factory.hpp:77] Creating layer L3_b9_cbr2_bn
I0821 06:46:14.489961 32352 net.cpp:100] Creating Layer L3_b9_cbr2_bn
I0821 06:46:14.489969 32352 net.cpp:434] L3_b9_cbr2_bn <- L3_b9_cbr2_conv_top
I0821 06:46:14.489976 32352 net.cpp:408] L3_b9_cbr2_bn -> L3_b9_cbr2_bn_top
I0821 06:46:14.490241 32352 net.cpp:150] Setting up L3_b9_cbr2_bn
I0821 06:46:14.490253 32352 net.cpp:157] Top shape: 125 64 8 8 (512000)
I0821 06:46:14.490258 32352 net.cpp:165] Memory required for data: 1444353500
I0821 06:46:14.490278 32352 layer_factory.hpp:77] Creating layer L3_b9_cbr2_scale
I0821 06:46:14.490296 32352 net.cpp:100] Creating Layer L3_b9_cbr2_scale
I0821 06:46:14.490303 32352 net.cpp:434] L3_b9_cbr2_scale <- L3_b9_cbr2_bn_top
I0821 06:46:14.490310 32352 net.cpp:395] L3_b9_cbr2_scale -> L3_b9_cbr2_bn_top (in-place)
I0821 06:46:14.490370 32352 layer_factory.hpp:77] Creating layer L3_b9_cbr2_scale
I0821 06:46:14.490528 32352 net.cpp:150] Setting up L3_b9_cbr2_scale
I0821 06:46:14.490541 32352 net.cpp:157] Top shape: 125 64 8 8 (512000)
I0821 06:46:14.490546 32352 net.cpp:165] Memory required for data: 1446401500
I0821 06:46:14.490556 32352 layer_factory.hpp:77] Creating layer L3_b9_sum_eltwise
I0821 06:46:14.490567 32352 net.cpp:100] Creating Layer L3_b9_sum_eltwise
I0821 06:46:14.490574 32352 net.cpp:434] L3_b9_sum_eltwise <- L3_b9_cbr2_bn_top
I0821 06:46:14.490581 32352 net.cpp:434] L3_b9_sum_eltwise <- L3_b8_sum_eltwise_top_L3_b8_relu_0_split_1
I0821 06:46:14.490589 32352 net.cpp:408] L3_b9_sum_eltwise -> L3_b9_sum_eltwise_top
I0821 06:46:14.490625 32352 net.cpp:150] Setting up L3_b9_sum_eltwise
I0821 06:46:14.490638 32352 net.cpp:157] Top shape: 125 64 8 8 (512000)
I0821 06:46:14.490643 32352 net.cpp:165] Memory required for data: 1448449500
I0821 06:46:14.490648 32352 layer_factory.hpp:77] Creating layer L3_b9_relu
I0821 06:46:14.490662 32352 net.cpp:100] Creating Layer L3_b9_relu
I0821 06:46:14.490669 32352 net.cpp:434] L3_b9_relu <- L3_b9_sum_eltwise_top
I0821 06:46:14.490679 32352 net.cpp:395] L3_b9_relu -> L3_b9_sum_eltwise_top (in-place)
I0821 06:46:14.490689 32352 net.cpp:150] Setting up L3_b9_relu
I0821 06:46:14.490695 32352 net.cpp:157] Top shape: 125 64 8 8 (512000)
I0821 06:46:14.490700 32352 net.cpp:165] Memory required for data: 1450497500
I0821 06:46:14.490705 32352 layer_factory.hpp:77] Creating layer post_pool
I0821 06:46:14.490713 32352 net.cpp:100] Creating Layer post_pool
I0821 06:46:14.490720 32352 net.cpp:434] post_pool <- L3_b9_sum_eltwise_top
I0821 06:46:14.490728 32352 net.cpp:408] post_pool -> post_pool
I0821 06:46:14.490762 32352 net.cpp:150] Setting up post_pool
I0821 06:46:14.490777 32352 net.cpp:157] Top shape: 125 64 1 1 (8000)
I0821 06:46:14.490782 32352 net.cpp:165] Memory required for data: 1450529500
I0821 06:46:14.490787 32352 layer_factory.hpp:77] Creating layer post_FC
I0821 06:46:14.490873 32352 net.cpp:100] Creating Layer post_FC
I0821 06:46:14.490887 32352 net.cpp:434] post_FC <- post_pool
I0821 06:46:14.490897 32352 net.cpp:408] post_FC -> post_FC_top
I0821 06:46:14.491142 32352 net.cpp:150] Setting up post_FC
I0821 06:46:14.491161 32352 net.cpp:157] Top shape: 125 10 (1250)
I0821 06:46:14.491168 32352 net.cpp:165] Memory required for data: 1450534500
I0821 06:46:14.491176 32352 layer_factory.hpp:77] Creating layer post_FC_top_post_FC_0_split
I0821 06:46:14.491185 32352 net.cpp:100] Creating Layer post_FC_top_post_FC_0_split
I0821 06:46:14.491191 32352 net.cpp:434] post_FC_top_post_FC_0_split <- post_FC_top
I0821 06:46:14.491199 32352 net.cpp:408] post_FC_top_post_FC_0_split -> post_FC_top_post_FC_0_split_0
I0821 06:46:14.491209 32352 net.cpp:408] post_FC_top_post_FC_0_split -> post_FC_top_post_FC_0_split_1
I0821 06:46:14.491261 32352 net.cpp:150] Setting up post_FC_top_post_FC_0_split
I0821 06:46:14.491272 32352 net.cpp:157] Top shape: 125 10 (1250)
I0821 06:46:14.491279 32352 net.cpp:157] Top shape: 125 10 (1250)
I0821 06:46:14.491283 32352 net.cpp:165] Memory required for data: 1450544500
I0821 06:46:14.491289 32352 layer_factory.hpp:77] Creating layer accuracy
I0821 06:46:14.491333 32352 net.cpp:100] Creating Layer accuracy
I0821 06:46:14.491346 32352 net.cpp:434] accuracy <- post_FC_top_post_FC_0_split_0
I0821 06:46:14.491358 32352 net.cpp:434] accuracy <- label_dataLayer_1_split_0
I0821 06:46:14.491366 32352 net.cpp:408] accuracy -> accuracy
…
