…
I0821 06:45:44.563022  1322 net.cpp:322] The NetState phase (0) differed from the phase (1) specified by a rule in layer L3_b9_cbr2_bn
I0821 06:45:44.564787  1322 net.cpp:58] Initializing net from parameters: 
name: "Cifar-Resnet"
state {
  phase: TRAIN
  level: 0
  stage: ""
}
layer {
  name: "dataLayer"
  type: "Data"
  top: "data_top"
  top: "label"
  include {
    phase: TRAIN
  }
  transform_param {
    mirror: true
    crop_size: 32
    mean_file: "examples/cifar10/mean.binaryproto"
  }
  data_param {
    source: "examples/cifar10/cifar10_train_lmdb"
    batch_size: 125
    backend: LMDB
  }
  image_data_param {
    shuffle: true
  }
}
layer {
  name: "pre_conv"
  type: "Convolution"
  bottom: "data_top"
  top: "pre_conv_top"
  param {
    lr_mult: 1
    decay_mult: 1
  }
  param {
    lr_mult: 2
    decay_mult: 0
  }
  convolution_param {
    num_output: 16
    pad: 1
    kernel_size: 3
    stride: 1
    weight_filler {
      type: "msra"
    }
    bias_filler {
      type: "constant"
    }
  }
}
layer {
  name: "pre_bn"
  type: "BatchNorm"
  bottom: "pre_conv_top"
  top: "pre_bn_top"
  include {
    phase: TRAIN
  }
  batch_norm_param {
    use_global_stats: false
    moving_average_fraction: 0.95
  }
}
layer {
  name: "pre_scale"
  type: "Scale"
  bottom: "pre_bn_top"
  top: "pre_bn_top"
  scale_param {
    bias_term: true
  }
}
layer {
  name: "pre_relu"
  type: "ReLU"
  bottom: "pre_bn_top"
  top: "pre_bn_top"
}
layer {
  name: "L1_b1_cbr1_conv"
  type: "Convolution"
  bottom: "pre_bn_top"
  top: "L1_b1_cbr1_conv_top"
  param {
    lr_mult: 1
    decay_mult: 1
  }
  param {
    lr_mult: 2
    decay_mult: 0
  }
  convolution_param {
    num_output: 16
    pad: 1
    kernel_size: 3
    stride: 1
    weight_filler {
      type: "msra"
    }
    bias_filler {
      type: "constant"
    }
  }
}
layer {
  name: "L1_b1_cbr1_bn"
  type: "BatchNorm"
  bottom: "L1_b1_cbr1_conv_top"
  top: "L1_b1_cbr1_bn_top"
  include {
    phase: TRAIN
  }
  batch_norm_param {
    use_global_stats: false
    moving_average_fraction: 0.95
  }
}
layer {
  name: "L1_b1_cbr1_scale"
  type: "Scale"
  bottom: "L1_b1_cbr1_bn_top"
  top: "L1_b1_cbr1_bn_top"
  scale_param {
    bias_term: true
  }
}
layer {
  name: "L1_b1_cbr1_relu"
  type: "ReLU"
  bottom: "L1_b1_cbr1_bn_top"
  top: "L1_b1_cbr1_bn_top"
}
layer {
  name: "L1_b1_cbr2_conv"
  type: "Convolution"
  bottom: "L1_b1_cbr1_bn_top"
  top: "L1_b1_cbr2_conv_top"
  param {
    lr_mult: 1
    decay_mult: 1
  }
  param {
    lr_mult: 2
    decay_mult: 0
  }
  convolution_param {
    num_output: 16
    pad: 1
    kernel_size: 3
    stride: 1
    weight_filler {
      type: "msra"
    }
    bias_filler {
      type: "constant"
    }
  }
}
layer {
  name: "L1_b1_cbr2_bn"
  type: "BatchNorm"
  bottom: "L1_b1_cbr2_conv_top"
  top: "L1_b1_cbr2_bn_top"
  include {
    phase: TRAIN
  }
  batch_norm_param {
    use_global_stats: false
    moving_average_fraction: 0.95
  }
}
layer {
  name: "L1_b1_cbr2_scale"
  type: "Scale"
  bottom: "L1_b1_cbr2_bn_top"
  top: "L1_b1_cbr2_bn_top"
  scale_param {
    bias_term: true
  }
}
layer {
  name: "L1_b1_sum_eltwise"
  type: "Eltwise"
  bottom: "L1_b1_cbr2_bn_top"
  bottom: "pre_bn_top"
  top: "L1_b1_sum_eltwise_top"
  eltwise_param {
    operation: SUM
  }
}
layer {
  name: "L1_b1_relu"
  type: "ReLU"
  bottom: "L1_b1_sum_eltwise_top"
  top: "L1_b1_sum_eltwise_top"
}
layer {
  name: "L1_b2_cbr1_conv"
  type: "Convolution"
  bottom: "L1_b1_sum_eltwise_top"
  top: "L1_b2_cbr1_conv_top"
  param {
    lr_mult: 1
    decay_mult: 1
  }
  param {
    lr_mult: 2
    decay_mult: 0
  }
  convolution_param {
    num_output: 16
    pad: 1
    kernel_size: 3
    stride: 1
    weight_filler {
      type: "msra"
    }
    bias_filler {
      type: "constant"
    }
  }
}
layer {
  name: "L1_b2_cbr1_bn"
  type: "BatchNorm"
  bottom: "L1_b2_cbr1_conv_top"
  top: "L1_b2_cbr1_bn_top"
  include {
    phase: TRAIN
  }
  batch_norm_param {
    use_global_stats: false
    moving_average_fraction: 0.95
  }
}
layer {
  name: "L1_b2_cbr1_scale"
  type: "Scale"
  bottom: "L1_b2_cbr1_bn_top"
  top: "L1_b2_cbr1_bn_top"
  scale_param {
    bias_term: true
  }
}
layer {
  name: "L1_b2_cbr1_relu"
  type: "ReLU"
  bottom: "L1_b2_cbr1_bn_top"
  top: "L1_b2_cbr1_bn_top"
}
layer {
  name: "L1_b2_cbr2_conv"
  type: "Convolution"
  bottom: "L1_b2_cbr1_bn_top"
  top: "L1_b2_cbr2_conv_top"
  param {
    lr_mult: 1
    decay_mult: 1
  }
  param {
    lr_mult: 2
    decay_mult: 0
  }
  convolution_param {
    num_output: 16
    pad: 1
    kernel_size: 3
    stride: 1
    weight_filler {
      type: "msra"
    }
    bias_filler {
      type: "constant"
    }
  }
}
layer {
  name: "L1_b2_cbr2_bn"
  type: "BatchNorm"
  bottom: "L1_b2_cbr2_conv_top"
  top: "L1_b2_cbr2_bn_top"
  include {
    phase: TRAIN
  }
  batch_norm_param {
    use_global_stats: false
    moving_average_fraction: 0.95
  }
}
layer {
  name: "L1_b2_cbr2_scale"
  type: "Scale"
  bottom: "L1_b2_cbr2_bn_top"
  top: "L1_b2_cbr2_bn_top"
  scale_param {
    bias_term: true
  }
}
layer {
  name: "L1_b2_sum_eltwise"
  type: "Eltwise"
  bottom: "L1_b2_cbr2_bn_top"
  bottom: "L1_b1_sum_eltwise_top"
  top: "L1_b2_sum_eltwise_top"
  eltwise_param {
    operation: SUM
  }
}
layer {
  name: "L1_b2_relu"
  type: "ReLU"
  bottom: "L1_b2_sum_eltwise_top"
  top: "L1_b2_sum_eltwise_top"
}
layer {
  name: "L1_b3_cbr1_conv"
  type: "Convolution"
  bottom: "L1_b2_sum_eltwise_top"
  top: "L1_b3_cbr1_conv_top"
  param {
    lr_mult: 1
    decay_mult: 1
  }
  param {
    lr_mult: 2
    decay_mult: 0
  }
  convolution_param {
    num_output: 16
    pad: 1
    kernel_size: 3
    stride: 1
    weight_filler {
      type: "msra"
    }
    bias_filler {
      type: "constant"
    }
  }
}
layer {
  name: "L1_b3_cbr1_bn"
  type: "BatchNorm"
  bottom: "L1_b3_cbr1_conv_top"
  top: "L1_b3_cbr1_bn_top"
  include {
    phase: TRAIN
  }
  batch_norm_param {
    use_global_stats: false
    moving_average_fraction: 0.95
  }
}
layer {
  name: "L1_b3_cbr1_scale"
  type: "Scale"
  bottom: "L1_b3_cbr1_bn_top"
  top: "L1_b3_cbr1_bn_top"
  scale_param {
    bias_term: true
  }
}
layer {
  name: "L1_b3_cbr1_relu"
  type: "ReLU"
  bottom: "L1_b3_cbr1_bn_top"
  top: "L1_b3_cbr1_bn_top"
}
layer {
  name: "L1_b3_cbr2_conv"
  type: "Convolution"
  bottom: "L1_b3_cbr1_bn_top"
  top: "L1_b3_cbr2_conv_top"
  param {
    lr_mult: 1
    decay_mult: 1
  }
  param {
    lr_mult: 2
    decay_mult: 0
  }
  convolution_param {
    num_output: 16
    pad: 1
    kernel_size: 3
    stride: 1
    weight_filler {
      type: "msra"
    }
    bias_filler {
      type: "constant"
    }
  }
}
layer {
  name: "L1_b3_cbr2_bn"
  type: "BatchNorm"
  bottom: "L1_b3_cbr2_conv_top"
  top: "L1_b3_cbr2_bn_top"
  include {
    phase: TRAIN
  }
  batch_norm_param {
    use_global_stats: false
    moving_average_fraction: 0.95
  }
}
layer {
  name: "L1_b3_cbr2_scale"
  type: "Scale"
  bottom: "L1_b3_cbr2_bn_top"
  top: "L1_b3_cbr2_bn_top"
  scale_param {
    bias_term: true
  }
}
layer {
  name: "L1_b3_sum_eltwise"
  type: "Eltwise"
  bottom: "L1_b3_cbr2_bn_top"
  bottom: "L1_b2_sum_eltwise_top"
  top: "L1_b3_sum_eltwise_top"
  eltwise_param {
    operation: SUM
  }
}
layer {
  name: "L1_b3_relu"
  type: "ReLU"
  bottom: "L1_b3_sum_eltwise_top"
  top: "L1_b3_sum_eltwise_top"
}
layer {
  name: "L1_b4_cbr1_conv"
  type: "Convolution"
  bottom: "L1_b3_sum_eltwise_top"
  top: "L1_b4_cbr1_conv_top"
  param {
    lr_mult: 1
    decay_mult: 1
  }
  param {
    lr_mult: 2
    decay_mult: 0
  }
  convolution_param {
    num_output: 16
    pad: 1
    kernel_size: 3
    stride: 1
    weight_filler {
      type: "msra"
    }
    bias_filler {
      type: "constant"
    }
  }
}
layer {
  name: "L1_b4_cbr1_bn"
  type: "BatchNorm"
  bottom: "L1_b4_cbr1_conv_top"
  top: "L1_b4_cbr1_bn_top"
  include {
    phase: TRAIN
  }
  batch_norm_param {
    use_global_stats: false
    moving_average_fraction: 0.95
  }
}
layer {
  name: "L1_b4_cbr1_scale"
  type: "Scale"
  bottom: "L1_b4_cbr1_bn_top"
  top: "L1_b4_cbr1_bn_top"
  scale_param {
    bias_term: true
  }
}
layer {
  name: "L1_b4_cbr1_relu"
  type: "ReLU"
  bottom: "L1_b4_cbr1_bn_top"
  top: "L1_b4_cbr1_bn_top"
}
layer {
  name: "L1_b4_cbr2_conv"
  type: "Convolution"
  bottom: "L1_b4_cbr1_bn_top"
  top: "L1_b4_cbr2_conv_top"
  param {
    lr_mult: 1
    decay_mult: 1
  }
  param {
    lr_mult: 2
    decay_mult: 0
  }
  convolution_param {
    num_output: 16
    pad: 1
    kernel_size: 3
    stride: 1
    weight_filler {
      type: "msra"
    }
    bias_filler {
      type: "constant"
    }
  }
}
layer {
  name: "L1_b4_cbr2_bn"
  type: "BatchNorm"
  bottom: "L1_b4_cbr2_conv_top"
  top: "L1_b4_cbr2_bn_top"
  include {
    phase: TRAIN
  }
  batch_norm_param {
    use_global_stats: false
    moving_average_fraction: 0.95
  }
}
layer {
  name: "L1_b4_cbr2_scale"
  type: "Scale"
  bottom: "L1_b4_cbr2_bn_top"
  top: "L1_b4_cbr2_bn_top"
  scale_param {
    bias_term: true
  }
}
layer {
  name: "L1_b4_sum_eltwise"
  type: "Eltwise"
  bottom: "L1_b4_cbr2_bn_top"
  bottom: "L1_b3_sum_eltwise_top"
  top: "L1_b4_sum_eltwise_top"
  eltwise_param {
    operation: SUM
  }
}
layer {
  name: "L1_b4_relu"
  type: "ReLU"
  bottom: "L1_b4_sum_eltwise_top"
  top: "L1_b4_sum_eltwise_top"
}
layer {
  name: "L1_b5_cbr1_conv"
  type: "Convolution"
  bottom: "L1_b4_sum_eltwise_top"
  top: "L1_b5_cbr1_conv_top"
  param {
    lr_mult: 1
    decay_mult: 1
  }
  param {
    lr_mult: 2
    decay_mult: 0
  }
  convolution_param {
    num_output: 16
    pad: 1
    kernel_size: 3
    stride: 1
    weight_filler {
      type: "msra"
    }
    bias_filler {
      type: "constant"
    }
  }
}
layer {
  name: "L1_b5_cbr1_bn"
  type: "BatchNorm"
  bottom: "L1_b5_cbr1_conv_top"
  top: "L1_b5_cbr1_bn_top"
  include {
    phase: TRAIN
  }
  batch_norm_param {
    use_global_stats: false
    moving_average_fraction: 0.95
  }
}
layer {
  name: "L1_b5_cbr1_scale"
  type: "Scale"
  bottom: "L1_b5_cbr1_bn_top"
  top: "L1_b5_cbr1_bn_top"
  scale_param {
    bias_term: true
  }
}
layer {
  name: "L1_b5_cbr1_relu"
  type: "ReLU"
  bottom: "L1_b5_cbr1_bn_top"
  top: "L1_b5_cbr1_bn_top"
}
layer {
  name: "L1_b5_cbr2_conv"
  type: "Convolution"
  bottom: "L1_b5_cbr1_bn_top"
  top: "L1_b5_cbr2_conv_top"
  param {
    lr_mult: 1
    decay_mult: 1
  }
  param {
    lr_mult: 2
    decay_mult: 0
  }
  convolution_param {
    num_output: 16
    pad: 1
    kernel_size: 3
    stride: 1
    weight_filler {
      type: "msra"
    }
    bias_filler {
      type: "constant"
    }
  }
}
layer {
  name: "L1_b5_cbr2_bn"
  type: "BatchNorm"
  bottom: "L1_b5_cbr2_conv_top"
  top: "L1_b5_cbr2_bn_top"
  include {
    phase: TRAIN
  }
  batch_norm_param {
    use_global_stats: false
    moving_average_fraction: 0.95
  }
}
layer {
  name: "L1_b5_cbr2_scale"
  type: "Scale"
  bottom: "L1_b5_cbr2_bn_top"
  top: "L1_b5_cbr2_bn_top"
  scale_param {
    bias_term: true
  }
}
layer {
  name: "L1_b5_sum_eltwise"
  type: "Eltwise"
  bottom: "L1_b5_cbr2_bn_top"
  bottom: "L1_b4_sum_eltwise_top"
  top: "L1_b5_sum_eltwise_top"
  eltwise_param {
    operation: SUM
  }
}
layer {
  name: "L1_b5_relu"
  type: "ReLU"
  bottom: "L1_b5_sum_eltwise_top"
  top: "L1_b5_sum_eltwise_top"
}
layer {
  name: "L1_b6_cbr1_conv"
  type: "Convolution"
  bottom: "L1_b5_sum_eltwise_top"
  top: "L1_b6_cbr1_conv_top"
  param {
    lr_mult: 1
    decay_mult: 1
  }
  param {
    lr_mult: 2
    decay_mult: 0
  }
  convolution_param {
    num_output: 16
    pad: 1
    kernel_size: 3
    stride: 1
    weight_filler {
      type: "msra"
    }
    bias_filler {
      type: "constant"
    }
  }
}
layer {
  name: "L1_b6_cbr1_bn"
  type: "BatchNorm"
  bottom: "L1_b6_cbr1_conv_top"
  top: "L1_b6_cbr1_bn_top"
  include {
    phase: TRAIN
  }
  batch_norm_param {
    use_global_stats: false
    moving_average_fraction: 0.95
  }
}
layer {
  name: "L1_b6_cbr1_scale"
  type: "Scale"
  bottom: "L1_b6_cbr1_bn_top"
  top: "L1_b6_cbr1_bn_top"
  scale_param {
    bias_term: true
  }
}
layer {
  name: "L1_b6_cbr1_relu"
  type: "ReLU"
  bottom: "L1_b6_cbr1_bn_top"
  top: "L1_b6_cbr1_bn_top"
}
layer {
  name: "L1_b6_cbr2_conv"
  type: "Convolution"
  bottom: "L1_b6_cbr1_bn_top"
  top: "L1_b6_cbr2_conv_top"
  param {
    lr_mult: 1
    decay_mult: 1
  }
  param {
    lr_mult: 2
    decay_mult: 0
  }
  convolution_param {
    num_output: 16
    pad: 1
    kernel_size: 3
    stride: 1
    weight_filler {
      type: "msra"
    }
    bias_filler {
      type: "constant"
    }
  }
}
layer {
  name: "L1_b6_cbr2_bn"
  type: "BatchNorm"
  bottom: "L1_b6_cbr2_conv_top"
  top: "L1_b6_cbr2_bn_top"
  include {
    phase: TRAIN
  }
  batch_norm_param {
    use_global_stats: false
    moving_average_fraction: 0.95
  }
}
layer {
  name: "L1_b6_cbr2_scale"
  type: "Scale"
  bottom: "L1_b6_cbr2_bn_top"
  top: "L1_b6_cbr2_bn_top"
  scale_param {
    bias_term: true
  }
}
layer {
  name: "L1_b6_sum_eltwise"
  type: "Eltwise"
  bottom: "L1_b6_cbr2_bn_top"
  bottom: "L1_b5_sum_eltwise_top"
  top: "L1_b6_sum_eltwise_top"
  eltwise_param {
    operation: SUM
  }
}
layer {
  name: "L1_b6_relu"
  type: "ReLU"
  bottom: "L1_b6_sum_eltwise_top"
  top: "L1_b6_sum_eltwise_top"
}
layer {
  name: "L1_b7_cbr1_conv"
  type: "Convolution"
  bottom: "L1_b6_sum_eltwise_top"
  top: "L1_b7_cbr1_conv_top"
  param {
    lr_mult: 1
    decay_mult: 1
  }
  param {
    lr_mult: 2
    decay_mult: 0
  }
  convolution_param {
    num_output: 16
    pad: 1
    kernel_size: 3
    stride: 1
    weight_filler {
      type: "msra"
    }
    bias_filler {
      type: "constant"
    }
  }
}
layer {
  name: "L1_b7_cbr1_bn"
  type: "BatchNorm"
  bottom: "L1_b7_cbr1_conv_top"
  top: "L1_b7_cbr1_bn_top"
  include {
    phase: TRAIN
  }
  batch_norm_param {
    use_global_stats: false
    moving_average_fraction: 0.95
  }
}
layer {
  name: "L1_b7_cbr1_scale"
  type: "Scale"
  bottom: "L1_b7_cbr1_bn_top"
  top: "L1_b7_cbr1_bn_top"
  scale_param {
    bias_term: true
  }
}
layer {
  name: "L1_b7_cbr1_relu"
  type: "ReLU"
  bottom: "L1_b7_cbr1_bn_top"
  top: "L1_b7_cbr1_bn_top"
}
layer {
  name: "L1_b7_cbr2_conv"
  type: "Convolution"
  bottom: "L1_b7_cbr1_bn_top"
  top: "L1_b7_cbr2_conv_top"
  param {
    lr_mult: 1
    decay_mult: 1
  }
  param {
    lr_mult: 2
    decay_mult: 0
  }
  convolution_param {
    num_output: 16
    pad: 1
    kernel_size: 3
    stride: 1
    weight_filler {
      type: "msra"
    }
    bias_filler {
      type: "constant"
    }
  }
}
layer {
  name: "L1_b7_cbr2_bn"
  type: "BatchNorm"
  bottom: "L1_b7_cbr2_conv_top"
  top: "L1_b7_cbr2_bn_top"
  include {
    phase: TRAIN
  }
  batch_norm_param {
    use_global_stats: false
    moving_average_fraction: 0.95
  }
}
layer {
  name: "L1_b7_cbr2_scale"
  type: "Scale"
  bottom: "L1_b7_cbr2_bn_top"
  top: "L1_b7_cbr2_bn_top"
  scale_param {
    bias_term: true
  }
}
layer {
  name: "L1_b7_sum_eltwise"
  type: "Eltwise"
  bottom: "L1_b7_cbr2_bn_top"
  bottom: "L1_b6_sum_eltwise_top"
  top: "L1_b7_sum_eltwise_top"
  eltwise_param {
    operation: SUM
  }
}
layer {
  name: "L1_b7_relu"
  type: "ReLU"
  bottom: "L1_b7_sum_eltwise_top"
  top: "L1_b7_sum_eltwise_top"
}
layer {
  name: "L1_b8_cbr1_conv"
  type: "Convolution"
  bottom: "L1_b7_sum_eltwise_top"
  top: "L1_b8_cbr1_conv_top"
  param {
    lr_mult: 1
    decay_mult: 1
  }
  param {
    lr_mult: 2
    decay_mult: 0
  }
  convolution_param {
    num_output: 16
    pad: 1
    kernel_size: 3
    stride: 1
    weight_filler {
      type: "msra"
    }
    bias_filler {
      type: "constant"
    }
  }
}
layer {
  name: "L1_b8_cbr1_bn"
  type: "BatchNorm"
  bottom: "L1_b8_cbr1_conv_top"
  top: "L1_b8_cbr1_bn_top"
  include {
    phase: TRAIN
  }
  batch_norm_param {
    use_global_stats: false
    moving_average_fraction: 0.95
  }
}
layer {
  name: "L1_b8_cbr1_scale"
  type: "Scale"
  bottom: "L1_b8_cbr1_bn_top"
  top: "L1_b8_cbr1_bn_top"
  scale_param {
    bias_term: true
  }
}
layer {
  name: "L1_b8_cbr1_relu"
  type: "ReLU"
  bottom: "L1_b8_cbr1_bn_top"
  top: "L1_b8_cbr1_bn_top"
}
layer {
  name: "L1_b8_cbr2_conv"
  type: "Convolution"
  bottom: "L1_b8_cbr1_bn_top"
  top: "L1_b8_cbr2_conv_top"
  param {
    lr_mult: 1
    decay_mult: 1
  }
  param {
    lr_mult: 2
    decay_mult: 0
  }
  convolution_param {
    num_output: 16
    pad: 1
    kernel_size: 3
    stride: 1
    weight_filler {
      type: "msra"
    }
    bias_filler {
      type: "constant"
    }
  }
}
layer {
  name: "L1_b8_cbr2_bn"
  type: "BatchNorm"
  bottom: "L1_b8_cbr2_conv_top"
  top: "L1_b8_cbr2_bn_top"
  include {
    phase: TRAIN
  }
  batch_norm_param {
    use_global_stats: false
    moving_average_fraction: 0.95
  }
}
layer {
  name: "L1_b8_cbr2_scale"
  type: "Scale"
  bottom: "L1_b8_cbr2_bn_top"
  top: "L1_b8_cbr2_bn_top"
  scale_param {
    bias_term: true
  }
}
layer {
  name: "L1_b8_sum_eltwise"
  type: "Eltwise"
  bottom: "L1_b8_cbr2_bn_top"
  bottom: "L1_b7_sum_eltwise_top"
  top: "L1_b8_sum_eltwise_top"
  eltwise_param {
    operation: SUM
  }
}
layer {
  name: "L1_b8_relu"
  type: "ReLU"
  bottom: "L1_b8_sum_eltwise_top"
  top: "L1_b8_sum_eltwise_top"
}
layer {
  name: "L1_b9_cbr1_conv"
  type: "Convolution"
  bottom: "L1_b8_sum_eltwise_top"
  top: "L1_b9_cbr1_conv_top"
  param {
    lr_mult: 1
    decay_mult: 1
  }
  param {
    lr_mult: 2
    decay_mult: 0
  }
  convolution_param {
    num_output: 16
    pad: 1
    kernel_size: 3
    stride: 1
    weight_filler {
      type: "msra"
    }
    bias_filler {
      type: "constant"
    }
  }
}
layer {
  name: "L1_b9_cbr1_bn"
  type: "BatchNorm"
  bottom: "L1_b9_cbr1_conv_top"
  top: "L1_b9_cbr1_bn_top"
  include {
    phase: TRAIN
  }
  batch_norm_param {
    use_global_stats: false
    moving_average_fraction: 0.95
  }
}
layer {
  name: "L1_b9_cbr1_scale"
  type: "Scale"
  bottom: "L1_b9_cbr1_bn_top"
  top: "L1_b9_cbr1_bn_top"
  scale_param {
    bias_term: true
  }
}
layer {
  name: "L1_b9_cbr1_relu"
  type: "ReLU"
  bottom: "L1_b9_cbr1_bn_top"
  top: "L1_b9_cbr1_bn_top"
}
layer {
  name: "L1_b9_cbr2_conv"
  type: "Convolution"
  bottom: "L1_b9_cbr1_bn_top"
  top: "L1_b9_cbr2_conv_top"
  param {
    lr_mult: 1
    decay_mult: 1
  }
  param {
    lr_mult: 2
    decay_mult: 0
  }
  convolution_param {
    num_output: 16
    pad: 1
    kernel_size: 3
    stride: 1
    weight_filler {
      type: "msra"
    }
    bias_filler {
      type: "constant"
    }
  }
}
layer {
  name: "L1_b9_cbr2_bn"
  type: "BatchNorm"
  bottom: "L1_b9_cbr2_conv_top"
  top: "L1_b9_cbr2_bn_top"
  include {
    phase: TRAIN
  }
  batch_norm_param {
    use_global_stats: false
    moving_average_fraction: 0.95
  }
}
layer {
  name: "L1_b9_cbr2_scale"
  type: "Scale"
  bottom: "L1_b9_cbr2_bn_top"
  top: "L1_b9_cbr2_bn_top"
  scale_param {
    bias_term: true
  }
}
layer {
  name: "L1_b9_sum_eltwise"
  type: "Eltwise"
  bottom: "L1_b9_cbr2_bn_top"
  bottom: "L1_b8_sum_eltwise_top"
  top: "L1_b9_sum_eltwise_top"
  eltwise_param {
    operation: SUM
  }
}
layer {
  name: "L1_b9_relu"
  type: "ReLU"
  bottom: "L1_b9_sum_eltwise_top"
  top: "L1_b9_sum_eltwise_top"
}
layer {
  name: "L2_b1_cbr1_conv"
  type: "Convolution"
  bottom: "L1_b9_sum_eltwise_top"
  top: "L2_b1_cbr1_conv_top"
  param {
    lr_mult: 1
    decay_mult: 1
  }
  param {
    lr_mult: 2
    decay_mult: 0
  }
  convolution_param {
    num_output: 16
    pad: 1
    kernel_size: 3
    stride: 2
    weight_filler {
      type: "msra"
    }
    bias_filler {
      type: "constant"
    }
  }
}
layer {
  name: "L2_b1_cbr1_bn"
  type: "BatchNorm"
  bottom: "L2_b1_cbr1_conv_top"
  top: "L2_b1_cbr1_bn_top"
  include {
    phase: TRAIN
  }
  batch_norm_param {
    use_global_stats: false
    moving_average_fraction: 0.95
  }
}
layer {
  name: "L2_b1_cbr1_scale"
  type: "Scale"
  bottom: "L2_b1_cbr1_bn_top"
  top: "L2_b1_cbr1_bn_top"
  scale_param {
    bias_term: true
  }
}
layer {
  name: "L2_b1_cbr1_relu"
  type: "ReLU"
  bottom: "L2_b1_cbr1_bn_top"
  top: "L2_b1_cbr1_bn_top"
}
layer {
  name: "L2_b1_cbr2_conv"
  type: "Convolution"
  bottom: "L2_b1_cbr1_bn_top"
  top: "L2_b1_cbr2_conv_top"
  param {
    lr_mult: 1
    decay_mult: 1
  }
  param {
    lr_mult: 2
    decay_mult: 0
  }
  convolution_param {
    num_output: 16
    pad: 1
    kernel_size: 3
    stride: 1
    weight_filler {
      type: "msra"
    }
    bias_filler {
      type: "constant"
    }
  }
}
layer {
  name: "L2_b1_cbr2_bn"
  type: "BatchNorm"
  bottom: "L2_b1_cbr2_conv_top"
  top: "L2_b1_cbr2_bn_top"
  include {
    phase: TRAIN
  }
  batch_norm_param {
    use_global_stats: false
    moving_average_fraction: 0.95
  }
}
layer {
  name: "L2_b1_cbr2_scale"
  type: "Scale"
  bottom: "L2_b1_cbr2_bn_top"
  top: "L2_b1_cbr2_bn_top"
  scale_param {
    bias_term: true
  }
}
layer {
  name: "L2_b1_pool"
  type: "Pooling"
  bottom: "L1_b9_sum_eltwise_top"
  top: "L2_b1_pool"
  pooling_param {
    pool: AVE
    kernel_size: 3
    stride: 2
  }
}
layer {
  name: "L2_b1_sum_eltwise"
  type: "Eltwise"
  bottom: "L2_b1_cbr2_bn_top"
  bottom: "L2_b1_pool"
  top: "L2_b1_sum_eltwise_top"
  eltwise_param {
    operation: SUM
  }
}
layer {
  name: "L2_b1_relu"
  type: "ReLU"
  bottom: "L2_b1_sum_eltwise_top"
  top: "L2_b1_sum_eltwise_top"
}
layer {
  name: "L2_b1_zeros"
  type: "DummyData"
  top: "L2_b1_zeros"
  dummy_data_param {
    data_filler {
      type: "constant"
      value: 0
    }
    shape {
      dim: 125
      dim: 16
      dim: 16
      dim: 16
    }
  }
}
layer {
  name: "L2_b1_concat0"
  type: "Concat"
  bottom: "L2_b1_sum_eltwise_top"
  bottom: "L2_b1_zeros"
  top: "L2_b1_concat0"
  concat_param {
    axis: 1
  }
}
layer {
  name: "L2_b2_cbr1_conv"
  type: "Convolution"
  bottom: "L2_b1_concat0"
  top: "L2_b2_cbr1_conv_top"
  param {
    lr_mult: 1
    decay_mult: 1
  }
  param {
    lr_mult: 2
    decay_mult: 0
  }
  convolution_param {
    num_output: 32
    pad: 1
    kernel_size: 3
    stride: 1
    weight_filler {
      type: "msra"
    }
    bias_filler {
      type: "constant"
    }
  }
}
layer {
  name: "L2_b2_cbr1_bn"
  type: "BatchNorm"
  bottom: "L2_b2_cbr1_conv_top"
  top: "L2_b2_cbr1_bn_top"
  include {
    phase: TRAIN
  }
  batch_norm_param {
    use_global_stats: false
    moving_average_fraction: 0.95
  }
}
layer {
  name: "L2_b2_cbr1_scale"
  type: "Scale"
  bottom: "L2_b2_cbr1_bn_top"
  top: "L2_b2_cbr1_bn_top"
  scale_param {
    bias_term: true
  }
}
layer {
  name: "L2_b2_cbr1_relu"
  type: "ReLU"
  bottom: "L2_b2_cbr1_bn_top"
  top: "L2_b2_cbr1_bn_top"
}
layer {
  name: "L2_b2_cbr2_conv"
  type: "Convolution"
  bottom: "L2_b2_cbr1_bn_top"
  top: "L2_b2_cbr2_conv_top"
  param {
    lr_mult: 1
    decay_mult: 1
  }
  param {
    lr_mult: 2
    decay_mult: 0
  }
  convolution_param {
    num_output: 32
    pad: 1
    kernel_size: 3
    stride: 1
    weight_filler {
      type: "msra"
    }
    bias_filler {
      type: "constant"
    }
  }
}
layer {
  name: "L2_b2_cbr2_bn"
  type: "BatchNorm"
  bottom: "L2_b2_cbr2_conv_top"
  top: "L2_b2_cbr2_bn_top"
  include {
    phase: TRAIN
  }
  batch_norm_param {
    use_global_stats: false
    moving_average_fraction: 0.95
  }
}
layer {
  name: "L2_b2_cbr2_scale"
  type: "Scale"
  bottom: "L2_b2_cbr2_bn_top"
  top: "L2_b2_cbr2_bn_top"
  scale_param {
    bias_term: true
  }
}
layer {
  name: "L2_b2_sum_eltwise"
  type: "Eltwise"
  bottom: "L2_b2_cbr2_bn_top"
  bottom: "L2_b1_concat0"
  top: "L2_b2_sum_eltwise_top"
  eltwise_param {
    operation: SUM
  }
}
layer {
  name: "L2_b2_relu"
  type: "ReLU"
  bottom: "L2_b2_sum_eltwise_top"
  top: "L2_b2_sum_eltwise_top"
}
layer {
  name: "L2_b3_cbr1_conv"
  type: "Convolution"
  bottom: "L2_b2_sum_eltwise_top"
  top: "L2_b3_cbr1_conv_top"
  param {
    lr_mult: 1
    decay_mult: 1
  }
  param {
    lr_mult: 2
    decay_mult: 0
  }
  convolution_param {
    num_output: 32
    pad: 1
    kernel_size: 3
    stride: 1
    weight_filler {
      type: "msra"
    }
    bias_filler {
      type: "constant"
    }
  }
}
layer {
  name: "L2_b3_cbr1_bn"
  type: "BatchNorm"
  bottom: "L2_b3_cbr1_conv_top"
  top: "L2_b3_cbr1_bn_top"
  include {
    phase: TRAIN
  }
  batch_norm_param {
    use_global_stats: false
    moving_average_fraction: 0.95
  }
}
layer {
  name: "L2_b3_cbr1_scale"
  type: "Scale"
  bottom: "L2_b3_cbr1_bn_top"
  top: "L2_b3_cbr1_bn_top"
  scale_param {
    bias_term: true
  }
}
layer {
  name: "L2_b3_cbr1_relu"
  type: "ReLU"
  bottom: "L2_b3_cbr1_bn_top"
  top: "L2_b3_cbr1_bn_top"
}
layer {
  name: "L2_b3_cbr2_conv"
  type: "Convolution"
  bottom: "L2_b3_cbr1_bn_top"
  top: "L2_b3_cbr2_conv_top"
  param {
    lr_mult: 1
    decay_mult: 1
  }
  param {
    lr_mult: 2
    decay_mult: 0
  }
  convolution_param {
    num_output: 32
    pad: 1
    kernel_size: 3
    stride: 1
    weight_filler {
      type: "msra"
    }
    bias_filler {
      type: "constant"
    }
  }
}
layer {
  name: "L2_b3_cbr2_bn"
  type: "BatchNorm"
  bottom: "L2_b3_cbr2_conv_top"
  top: "L2_b3_cbr2_bn_top"
  include {
    phase: TRAIN
  }
  batch_norm_param {
    use_global_stats: false
    moving_average_fraction: 0.95
  }
}
layer {
  name: "L2_b3_cbr2_scale"
  type: "Scale"
  bottom: "L2_b3_cbr2_bn_top"
  top: "L2_b3_cbr2_bn_top"
  scale_param {
    bias_term: true
  }
}
layer {
  name: "L2_b3_sum_eltwise"
  type: "Eltwise"
  bottom: "L2_b3_cbr2_bn_top"
  bottom: "L2_b2_sum_eltwise_top"
  top: "L2_b3_sum_eltwise_top"
  eltwise_param {
    operation: SUM
  }
}
layer {
  name: "L2_b3_relu"
  type: "ReLU"
  bottom: "L2_b3_sum_eltwise_top"
  top: "L2_b3_sum_eltwise_top"
}
layer {
  name: "L2_b4_cbr1_conv"
  type: "Convolution"
  bottom: "L2_b3_sum_eltwise_top"
  top: "L2_b4_cbr1_conv_top"
  param {
    lr_mult: 1
    decay_mult: 1
  }
  param {
    lr_mult: 2
    decay_mult: 0
  }
  convolution_param {
    num_output: 32
    pad: 1
    kernel_size: 3
    stride: 1
    weight_filler {
      type: "msra"
    }
    bias_filler {
      type: "constant"
    }
  }
}
layer {
  name: "L2_b4_cbr1_bn"
  type: "BatchNorm"
  bottom: "L2_b4_cbr1_conv_top"
  top: "L2_b4_cbr1_bn_top"
  include {
    phase: TRAIN
  }
  batch_norm_param {
    use_global_stats: false
    moving_average_fraction: 0.95
  }
}
layer {
  name: "L2_b4_cbr1_scale"
  type: "Scale"
  bottom: "L2_b4_cbr1_bn_top"
  top: "L2_b4_cbr1_bn_top"
  scale_param {
    bias_term: true
  }
}
layer {
  name: "L2_b4_cbr1_relu"
  type: "ReLU"
  bottom: "L2_b4_cbr1_bn_top"
  top: "L2_b4_cbr1_bn_top"
}
layer {
  name: "L2_b4_cbr2_conv"
  type: "Convolution"
  bottom: "L2_b4_cbr1_bn_top"
  top: "L2_b4_cbr2_conv_top"
  param {
    lr_mult: 1
    decay_mult: 1
  }
  param {
    lr_mult: 2
    decay_mult: 0
  }
  convolution_param {
    num_output: 32
    pad: 1
    kernel_size: 3
    stride: 1
    weight_filler {
      type: "msra"
    }
    bias_filler {
      type: "constant"
    }
  }
}
layer {
  name: "L2_b4_cbr2_bn"
  type: "BatchNorm"
  bottom: "L2_b4_cbr2_conv_top"
  top: "L2_b4_cbr2_bn_top"
  include {
    phase: TRAIN
  }
  batch_norm_param {
    use_global_stats: false
    moving_average_fraction: 0.95
  }
}
layer {
  name: "L2_b4_cbr2_scale"
  type: "Scale"
  bottom: "L2_b4_cbr2_bn_top"
  top: "L2_b4_cbr2_bn_top"
  scale_param {
    bias_term: true
  }
}
layer {
  name: "L2_b4_sum_eltwise"
  type: "Eltwise"
  bottom: "L2_b4_cbr2_bn_top"
  bottom: "L2_b3_sum_eltwise_top"
  top: "L2_b4_sum_eltwise_top"
  eltwise_param {
    operation: SUM
  }
}
layer {
  name: "L2_b4_relu"
  type: "ReLU"
  bottom: "L2_b4_sum_eltwise_top"
  top: "L2_b4_sum_eltwise_top"
}
layer {
  name: "L2_b5_cbr1_conv"
  type: "Convolution"
  bottom: "L2_b4_sum_eltwise_top"
  top: "L2_b5_cbr1_conv_top"
  param {
    lr_mult: 1
    decay_mult: 1
  }
  param {
    lr_mult: 2
    decay_mult: 0
  }
  convolution_param {
    num_output: 32
    pad: 1
    kernel_size: 3
    stride: 1
    weight_filler {
      type: "msra"
    }
    bias_filler {
      type: "constant"
    }
  }
}
layer {
  name: "L2_b5_cbr1_bn"
  type: "BatchNorm"
  bottom: "L2_b5_cbr1_conv_top"
  top: "L2_b5_cbr1_bn_top"
  include {
    phase: TRAIN
  }
  batch_norm_param {
    use_global_stats: false
    moving_average_fraction: 0.95
  }
}
layer {
  name: "L2_b5_cbr1_scale"
  type: "Scale"
  bottom: "L2_b5_cbr1_bn_top"
  top: "L2_b5_cbr1_bn_top"
  scale_param {
    bias_term: true
  }
}
layer {
  name: "L2_b5_cbr1_relu"
  type: "ReLU"
  bottom: "L2_b5_cbr1_bn_top"
  top: "L2_b5_cbr1_bn_top"
}
layer {
  name: "L2_b5_cbr2_conv"
  type: "Convolution"
  bottom: "L2_b5_cbr1_bn_top"
  top: "L2_b5_cbr2_conv_top"
  param {
    lr_mult: 1
    decay_mult: 1
  }
  param {
    lr_mult: 2
    decay_mult: 0
  }
  convolution_param {
    num_output: 32
    pad: 1
    kernel_size: 3
    stride: 1
    weight_filler {
      type: "msra"
    }
    bias_filler {
      type: "constant"
    }
  }
}
layer {
  name: "L2_b5_cbr2_bn"
  type: "BatchNorm"
  bottom: "L2_b5_cbr2_conv_top"
  top: "L2_b5_cbr2_bn_top"
  include {
    phase: TRAIN
  }
  batch_norm_param {
    use_global_stats: false
    moving_average_fraction: 0.95
  }
}
layer {
  name: "L2_b5_cbr2_scale"
  type: "Scale"
  bottom: "L2_b5_cbr2_bn_top"
  top: "L2_b5_cbr2_bn_top"
  scale_param {
    bias_term: true
  }
}
layer {
  name: "L2_b5_sum_eltwise"
  type: "Eltwise"
  bottom: "L2_b5_cbr2_bn_top"
  bottom: "L2_b4_sum_eltwise_top"
  top: "L2_b5_sum_eltwise_top"
  eltwise_param {
    operation: SUM
  }
}
layer {
  name: "L2_b5_relu"
  type: "ReLU"
  bottom: "L2_b5_sum_eltwise_top"
  top: "L2_b5_sum_eltwise_top"
}
layer {
  name: "L2_b6_cbr1_conv"
  type: "Convolution"
  bottom: "L2_b5_sum_eltwise_top"
  top: "L2_b6_cbr1_conv_top"
  param {
    lr_mult: 1
    decay_mult: 1
  }
  param {
    lr_mult: 2
    decay_mult: 0
  }
  convolution_param {
    num_output: 32
    pad: 1
    kernel_size: 3
    stride: 1
    weight_filler {
      type: "msra"
    }
    bias_filler {
      type: "constant"
    }
  }
}
layer {
  name: "L2_b6_cbr1_bn"
  type: "BatchNorm"
  bottom: "L2_b6_cbr1_conv_top"
  top: "L2_b6_cbr1_bn_top"
  include {
    phase: TRAIN
  }
  batch_norm_param {
    use_global_stats: false
    moving_average_fraction: 0.95
  }
}
layer {
  name: "L2_b6_c
I0821 06:45:44.566951  1322 layer_factory.hpp:77] Creating layer dataLayer
I0821 06:45:44.568725  1322 net.cpp:100] Creating Layer dataLayer
I0821 06:45:44.568802  1322 net.cpp:408] dataLayer -> data_top
I0821 06:45:44.569036  1322 net.cpp:408] dataLayer -> label
I0821 06:45:44.569169  1322 data_transformer.cpp:25] Loading mean file from: examples/cifar10/mean.binaryproto
I0821 06:45:44.580819  1327 db_lmdb.cpp:35] Opened lmdb examples/cifar10/cifar10_train_lmdb
I0821 06:45:44.629539  1322 data_layer.cpp:41] output data size: 125,3,32,32
I0821 06:45:44.636646  1322 net.cpp:150] Setting up dataLayer
I0821 06:45:44.636710  1322 net.cpp:157] Top shape: 125 3 32 32 (384000)
I0821 06:45:44.636724  1322 net.cpp:157] Top shape: 125 (125)
I0821 06:45:44.636730  1322 net.cpp:165] Memory required for data: 1536500
I0821 06:45:44.636746  1322 layer_factory.hpp:77] Creating layer label_dataLayer_1_split
I0821 06:45:44.636762  1322 net.cpp:100] Creating Layer label_dataLayer_1_split
I0821 06:45:44.636770  1322 net.cpp:434] label_dataLayer_1_split <- label
I0821 06:45:44.636790  1322 net.cpp:408] label_dataLayer_1_split -> label_dataLayer_1_split_0
I0821 06:45:44.636806  1322 net.cpp:408] label_dataLayer_1_split -> label_dataLayer_1_split_1
I0821 06:45:44.636884  1322 net.cpp:150] Setting up label_dataLayer_1_split
I0821 06:45:44.636900  1322 net.cpp:157] Top shape: 125 (125)
I0821 06:45:44.636907  1322 net.cpp:157] Top shape: 125 (125)
I0821 06:45:44.636912  1322 net.cpp:165] Memory required for data: 1537500
I0821 06:45:44.636917  1322 layer_factory.hpp:77] Creating layer pre_conv
I0821 06:45:44.636982  1322 net.cpp:100] Creating Layer pre_conv
I0821 06:45:44.636994  1322 net.cpp:434] pre_conv <- data_top
I0821 06:45:44.637007  1322 net.cpp:408] pre_conv -> pre_conv_top
I0821 06:45:44.640036  1328 blocking_queue.cpp:50] Waiting for data
I0821 06:45:44.640056  1322 net.cpp:150] Setting up pre_conv
I0821 06:45:44.640076  1322 net.cpp:157] Top shape: 125 16 32 32 (2048000)
I0821 06:45:44.640082  1322 net.cpp:165] Memory required for data: 9729500
I0821 06:45:44.640156  1322 layer_factory.hpp:77] Creating layer pre_bn
I0821 06:45:44.641803  1322 net.cpp:100] Creating Layer pre_bn
I0821 06:45:44.641818  1322 net.cpp:434] pre_bn <- pre_conv_top
I0821 06:45:44.641834  1322 net.cpp:408] pre_bn -> pre_bn_top
I0821 06:45:44.642149  1322 net.cpp:150] Setting up pre_bn
I0821 06:45:44.642165  1322 net.cpp:157] Top shape: 125 16 32 32 (2048000)
I0821 06:45:44.642170  1322 net.cpp:165] Memory required for data: 17921500
I0821 06:45:44.642189  1322 layer_factory.hpp:77] Creating layer pre_scale
I0821 06:45:44.642249  1322 net.cpp:100] Creating Layer pre_scale
I0821 06:45:44.642261  1322 net.cpp:434] pre_scale <- pre_bn_top
I0821 06:45:44.642274  1322 net.cpp:395] pre_scale -> pre_bn_top (in-place)
I0821 06:45:44.642454  1322 layer_factory.hpp:77] Creating layer pre_scale
I0821 06:45:44.643393  1322 net.cpp:150] Setting up pre_scale
I0821 06:45:44.643409  1322 net.cpp:157] Top shape: 125 16 32 32 (2048000)
I0821 06:45:44.643415  1322 net.cpp:165] Memory required for data: 26113500
I0821 06:45:44.643425  1322 layer_factory.hpp:77] Creating layer pre_relu
I0821 06:45:44.643474  1322 net.cpp:100] Creating Layer pre_relu
I0821 06:45:44.643486  1322 net.cpp:434] pre_relu <- pre_bn_top
I0821 06:45:44.643497  1322 net.cpp:395] pre_relu -> pre_bn_top (in-place)
I0821 06:45:44.643510  1322 net.cpp:150] Setting up pre_relu
I0821 06:45:44.643517  1322 net.cpp:157] Top shape: 125 16 32 32 (2048000)
I0821 06:45:44.643522  1322 net.cpp:165] Memory required for data: 34305500
I0821 06:45:44.643527  1322 layer_factory.hpp:77] Creating layer pre_bn_top_pre_relu_0_split
I0821 06:45:44.643535  1322 net.cpp:100] Creating Layer pre_bn_top_pre_relu_0_split
I0821 06:45:44.643540  1322 net.cpp:434] pre_bn_top_pre_relu_0_split <- pre_bn_top
I0821 06:45:44.643550  1322 net.cpp:408] pre_bn_top_pre_relu_0_split -> pre_bn_top_pre_relu_0_split_0
I0821 06:45:44.643560  1322 net.cpp:408] pre_bn_top_pre_relu_0_split -> pre_bn_top_pre_relu_0_split_1
I0821 06:45:44.643610  1322 net.cpp:150] Setting up pre_bn_top_pre_relu_0_split
I0821 06:45:44.643621  1322 net.cpp:157] Top shape: 125 16 32 32 (2048000)
I0821 06:45:44.643628  1322 net.cpp:157] Top shape: 125 16 32 32 (2048000)
I0821 06:45:44.643632  1322 net.cpp:165] Memory required for data: 50689500
I0821 06:45:44.643637  1322 layer_factory.hpp:77] Creating layer L1_b1_cbr1_conv
I0821 06:45:44.643651  1322 net.cpp:100] Creating Layer L1_b1_cbr1_conv
I0821 06:45:44.643656  1322 net.cpp:434] L1_b1_cbr1_conv <- pre_bn_top_pre_relu_0_split_0
I0821 06:45:44.643667  1322 net.cpp:408] L1_b1_cbr1_conv -> L1_b1_cbr1_conv_top
I0821 06:45:44.643983  1322 net.cpp:150] Setting up L1_b1_cbr1_conv
I0821 06:45:44.643997  1322 net.cpp:157] Top shape: 125 16 32 32 (2048000)
I0821 06:45:44.644003  1322 net.cpp:165] Memory required for data: 58881500
I0821 06:45:44.644016  1322 layer_factory.hpp:77] Creating layer L1_b1_cbr1_bn
I0821 06:45:44.644035  1322 net.cpp:100] Creating Layer L1_b1_cbr1_bn
I0821 06:45:44.644042  1322 net.cpp:434] L1_b1_cbr1_bn <- L1_b1_cbr1_conv_top
I0821 06:45:44.644052  1322 net.cpp:408] L1_b1_cbr1_bn -> L1_b1_cbr1_bn_top
I0821 06:45:44.644291  1322 net.cpp:150] Setting up L1_b1_cbr1_bn
I0821 06:45:44.644315  1322 net.cpp:157] Top shape: 125 16 32 32 (2048000)
I0821 06:45:44.644320  1322 net.cpp:165] Memory required for data: 67073500
I0821 06:45:44.644330  1322 layer_factory.hpp:77] Creating layer L1_b1_cbr1_scale
I0821 06:45:44.644340  1322 net.cpp:100] Creating Layer L1_b1_cbr1_scale
I0821 06:45:44.644345  1322 net.cpp:434] L1_b1_cbr1_scale <- L1_b1_cbr1_bn_top
I0821 06:45:44.644353  1322 net.cpp:395] L1_b1_cbr1_scale -> L1_b1_cbr1_bn_top (in-place)
I0821 06:45:44.644403  1322 layer_factory.hpp:77] Creating layer L1_b1_cbr1_scale
I0821 06:45:44.644541  1322 net.cpp:150] Setting up L1_b1_cbr1_scale
I0821 06:45:44.644553  1322 net.cpp:157] Top shape: 125 16 32 32 (2048000)
I0821 06:45:44.644558  1322 net.cpp:165] Memory required for data: 75265500
I0821 06:45:44.644567  1322 layer_factory.hpp:77] Creating layer L1_b1_cbr1_relu
I0821 06:45:44.644585  1322 net.cpp:100] Creating Layer L1_b1_cbr1_relu
I0821 06:45:44.644592  1322 net.cpp:434] L1_b1_cbr1_relu <- L1_b1_cbr1_bn_top
I0821 06:45:44.644601  1322 net.cpp:395] L1_b1_cbr1_relu -> L1_b1_cbr1_bn_top (in-place)
I0821 06:45:44.644611  1322 net.cpp:150] Setting up L1_b1_cbr1_relu
I0821 06:45:44.644618  1322 net.cpp:157] Top shape: 125 16 32 32 (2048000)
I0821 06:45:44.644623  1322 net.cpp:165] Memory required for data: 83457500
I0821 06:45:44.644629  1322 layer_factory.hpp:77] Creating layer L1_b1_cbr2_conv
I0821 06:45:44.644639  1322 net.cpp:100] Creating Layer L1_b1_cbr2_conv
I0821 06:45:44.644644  1322 net.cpp:434] L1_b1_cbr2_conv <- L1_b1_cbr1_bn_top
I0821 06:45:44.644657  1322 net.cpp:408] L1_b1_cbr2_conv -> L1_b1_cbr2_conv_top
I0821 06:45:44.644968  1322 net.cpp:150] Setting up L1_b1_cbr2_conv
I0821 06:45:44.644981  1322 net.cpp:157] Top shape: 125 16 32 32 (2048000)
I0821 06:45:44.644986  1322 net.cpp:165] Memory required for data: 91649500
I0821 06:45:44.644995  1322 layer_factory.hpp:77] Creating layer L1_b1_cbr2_bn
I0821 06:45:44.645005  1322 net.cpp:100] Creating Layer L1_b1_cbr2_bn
I0821 06:45:44.645010  1322 net.cpp:434] L1_b1_cbr2_bn <- L1_b1_cbr2_conv_top
I0821 06:45:44.645022  1322 net.cpp:408] L1_b1_cbr2_bn -> L1_b1_cbr2_bn_top
I0821 06:45:44.645251  1322 net.cpp:150] Setting up L1_b1_cbr2_bn
I0821 06:45:44.645264  1322 net.cpp:157] Top shape: 125 16 32 32 (2048000)
I0821 06:45:44.645269  1322 net.cpp:165] Memory required for data: 99841500
I0821 06:45:44.645287  1322 layer_factory.hpp:77] Creating layer L1_b1_cbr2_scale
I0821 06:45:44.645295  1322 net.cpp:100] Creating Layer L1_b1_cbr2_scale
I0821 06:45:44.645300  1322 net.cpp:434] L1_b1_cbr2_scale <- L1_b1_cbr2_bn_top
I0821 06:45:44.645308  1322 net.cpp:395] L1_b1_cbr2_scale -> L1_b1_cbr2_bn_top (in-place)
I0821 06:45:44.645365  1322 layer_factory.hpp:77] Creating layer L1_b1_cbr2_scale
I0821 06:45:44.645504  1322 net.cpp:150] Setting up L1_b1_cbr2_scale
I0821 06:45:44.645516  1322 net.cpp:157] Top shape: 125 16 32 32 (2048000)
I0821 06:45:44.645521  1322 net.cpp:165] Memory required for data: 108033500
I0821 06:45:44.645531  1322 layer_factory.hpp:77] Creating layer L1_b1_sum_eltwise
I0821 06:45:44.645582  1322 net.cpp:100] Creating Layer L1_b1_sum_eltwise
I0821 06:45:44.645594  1322 net.cpp:434] L1_b1_sum_eltwise <- L1_b1_cbr2_bn_top
I0821 06:45:44.645601  1322 net.cpp:434] L1_b1_sum_eltwise <- pre_bn_top_pre_relu_0_split_1
I0821 06:45:44.645613  1322 net.cpp:408] L1_b1_sum_eltwise -> L1_b1_sum_eltwise_top
I0821 06:45:44.645685  1322 net.cpp:150] Setting up L1_b1_sum_eltwise
I0821 06:45:44.645700  1322 net.cpp:157] Top shape: 125 16 32 32 (2048000)
I0821 06:45:44.645705  1322 net.cpp:165] Memory required for data: 116225500
I0821 06:45:44.645711  1322 layer_factory.hpp:77] Creating layer L1_b1_relu
I0821 06:45:44.645723  1322 net.cpp:100] Creating Layer L1_b1_relu
I0821 06:45:44.645730  1322 net.cpp:434] L1_b1_relu <- L1_b1_sum_eltwise_top
I0821 06:45:44.645736  1322 net.cpp:395] L1_b1_relu -> L1_b1_sum_eltwise_top (in-place)
I0821 06:45:44.645746  1322 net.cpp:150] Setting up L1_b1_relu
I0821 06:45:44.645753  1322 net.cpp:157] Top shape: 125 16 32 32 (2048000)
I0821 06:45:44.645758  1322 net.cpp:165] Memory required for data: 124417500
I0821 06:45:44.645763  1322 layer_factory.hpp:77] Creating layer L1_b1_sum_eltwise_top_L1_b1_relu_0_split
I0821 06:45:44.645772  1322 net.cpp:100] Creating Layer L1_b1_sum_eltwise_top_L1_b1_relu_0_split
I0821 06:45:44.645777  1322 net.cpp:434] L1_b1_sum_eltwise_top_L1_b1_relu_0_split <- L1_b1_sum_eltwise_top
I0821 06:45:44.645784  1322 net.cpp:408] L1_b1_sum_eltwise_top_L1_b1_relu_0_split -> L1_b1_sum_eltwise_top_L1_b1_relu_0_split_0
I0821 06:45:44.645794  1322 net.cpp:408] L1_b1_sum_eltwise_top_L1_b1_relu_0_split -> L1_b1_sum_eltwise_top_L1_b1_relu_0_split_1
I0821 06:45:44.645844  1322 net.cpp:150] Setting up L1_b1_sum_eltwise_top_L1_b1_relu_0_split
I0821 06:45:44.645856  1322 net.cpp:157] Top shape: 125 16 32 32 (2048000)
I0821 06:45:44.645864  1322 net.cpp:157] Top shape: 125 16 32 32 (2048000)
I0821 06:45:44.645875  1322 net.cpp:165] Memory required for data: 140801500
I0821 06:45:44.645880  1322 layer_factory.hpp:77] Creating layer L1_b2_cbr1_conv
I0821 06:45:44.645895  1322 net.cpp:100] Creating Layer L1_b2_cbr1_conv
I0821 06:45:44.645901  1322 net.cpp:434] L1_b2_cbr1_conv <- L1_b1_sum_eltwise_top_L1_b1_relu_0_split_0
I0821 06:45:44.645910  1322 net.cpp:408] L1_b2_cbr1_conv -> L1_b2_cbr1_conv_top
I0821 06:45:44.646216  1322 net.cpp:150] Setting up L1_b2_cbr1_conv
I0821 06:45:44.646230  1322 net.cpp:157] Top shape: 125 16 32 32 (2048000)
I0821 06:45:44.646235  1322 net.cpp:165] Memory required for data: 148993500
I0821 06:45:44.646245  1322 layer_factory.hpp:77] Creating layer L1_b2_cbr1_bn
I0821 06:45:44.646256  1322 net.cpp:100] Creating Layer L1_b2_cbr1_bn
I0821 06:45:44.646262  1322 net.cpp:434] L1_b2_cbr1_bn <- L1_b2_cbr1_conv_top
I0821 06:45:44.646275  1322 net.cpp:408] L1_b2_cbr1_bn -> L1_b2_cbr1_bn_top
I0821 06:45:44.646510  1322 net.cpp:150] Setting up L1_b2_cbr1_bn
I0821 06:45:44.646524  1322 net.cpp:157] Top shape: 125 16 32 32 (2048000)
I0821 06:45:44.646528  1322 net.cpp:165] Memory required for data: 157185500
I0821 06:45:44.646539  1322 layer_factory.hpp:77] Creating layer L1_b2_cbr1_scale
I0821 06:45:44.646548  1322 net.cpp:100] Creating Layer L1_b2_cbr1_scale
I0821 06:45:44.646554  1322 net.cpp:434] L1_b2_cbr1_scale <- L1_b2_cbr1_bn_top
I0821 06:45:44.646564  1322 net.cpp:395] L1_b2_cbr1_scale -> L1_b2_cbr1_bn_top (in-place)
I0821 06:45:44.646615  1322 layer_factory.hpp:77] Creating layer L1_b2_cbr1_scale
I0821 06:45:44.646749  1322 net.cpp:150] Setting up L1_b2_cbr1_scale
I0821 06:45:44.646764  1322 net.cpp:157] Top shape: 125 16 32 32 (2048000)
I0821 06:45:44.646769  1322 net.cpp:165] Memory required for data: 165377500
I0821 06:45:44.646777  1322 layer_factory.hpp:77] Creating layer L1_b2_cbr1_relu
I0821 06:45:44.646785  1322 net.cpp:100] Creating Layer L1_b2_cbr1_relu
I0821 06:45:44.646790  1322 net.cpp:434] L1_b2_cbr1_relu <- L1_b2_cbr1_bn_top
I0821 06:45:44.646798  1322 net.cpp:395] L1_b2_cbr1_relu -> L1_b2_cbr1_bn_top (in-place)
I0821 06:45:44.646807  1322 net.cpp:150] Setting up L1_b2_cbr1_relu
I0821 06:45:44.646814  1322 net.cpp:157] Top shape: 125 16 32 32 (2048000)
I0821 06:45:44.646818  1322 net.cpp:165] Memory required for data: 173569500
I0821 06:45:44.646823  1322 layer_factory.hpp:77] Creating layer L1_b2_cbr2_conv
I0821 06:45:44.646845  1322 net.cpp:100] Creating Layer L1_b2_cbr2_conv
I0821 06:45:44.646852  1322 net.cpp:434] L1_b2_cbr2_conv <- L1_b2_cbr1_bn_top
I0821 06:45:44.646865  1322 net.cpp:408] L1_b2_cbr2_conv -> L1_b2_cbr2_conv_top
I0821 06:45:44.647167  1322 net.cpp:150] Setting up L1_b2_cbr2_conv
I0821 06:45:44.647181  1322 net.cpp:157] Top shape: 125 16 32 32 (2048000)
I0821 06:45:44.647186  1322 net.cpp:165] Memory required for data: 181761500
I0821 06:45:44.647195  1322 layer_factory.hpp:77] Creating layer L1_b2_cbr2_bn
I0821 06:45:44.647207  1322 net.cpp:100] Creating Layer L1_b2_cbr2_bn
I0821 06:45:44.647213  1322 net.cpp:434] L1_b2_cbr2_bn <- L1_b2_cbr2_conv_top
I0821 06:45:44.647223  1322 net.cpp:408] L1_b2_cbr2_bn -> L1_b2_cbr2_bn_top
I0821 06:45:44.647466  1322 net.cpp:150] Setting up L1_b2_cbr2_bn
I0821 06:45:44.647480  1322 net.cpp:157] Top shape: 125 16 32 32 (2048000)
I0821 06:45:44.647485  1322 net.cpp:165] Memory required for data: 189953500
I0821 06:45:44.647500  1322 layer_factory.hpp:77] Creating layer L1_b2_cbr2_scale
I0821 06:45:44.647513  1322 net.cpp:100] Creating Layer L1_b2_cbr2_scale
I0821 06:45:44.647519  1322 net.cpp:434] L1_b2_cbr2_scale <- L1_b2_cbr2_bn_top
I0821 06:45:44.647527  1322 net.cpp:395] L1_b2_cbr2_scale -> L1_b2_cbr2_bn_top (in-place)
I0821 06:45:44.647583  1322 layer_factory.hpp:77] Creating layer L1_b2_cbr2_scale
I0821 06:45:44.647719  1322 net.cpp:150] Setting up L1_b2_cbr2_scale
I0821 06:45:44.647732  1322 net.cpp:157] Top shape: 125 16 32 32 (2048000)
I0821 06:45:44.647737  1322 net.cpp:165] Memory required for data: 198145500
I0821 06:45:44.647745  1322 layer_factory.hpp:77] Creating layer L1_b2_sum_eltwise
I0821 06:45:44.647761  1322 net.cpp:100] Creating Layer L1_b2_sum_eltwise
I0821 06:45:44.647768  1322 net.cpp:434] L1_b2_sum_eltwise <- L1_b2_cbr2_bn_top
I0821 06:45:44.647774  1322 net.cpp:434] L1_b2_sum_eltwise <- L1_b1_sum_eltwise_top_L1_b1_relu_0_split_1
I0821 06:45:44.647785  1322 net.cpp:408] L1_b2_sum_eltwise -> L1_b2_sum_eltwise_top
I0821 06:45:44.647819  1322 net.cpp:150] Setting up L1_b2_sum_eltwise
I0821 06:45:44.647835  1322 net.cpp:157] Top shape: 125 16 32 32 (2048000)
I0821 06:45:44.647840  1322 net.cpp:165] Memory required for data: 206337500
I0821 06:45:44.647845  1322 layer_factory.hpp:77] Creating layer L1_b2_relu
I0821 06:45:44.647852  1322 net.cpp:100] Creating Layer L1_b2_relu
I0821 06:45:44.647857  1322 net.cpp:434] L1_b2_relu <- L1_b2_sum_eltwise_top
I0821 06:45:44.647868  1322 net.cpp:395] L1_b2_relu -> L1_b2_sum_eltwise_top (in-place)
I0821 06:45:44.647877  1322 net.cpp:150] Setting up L1_b2_relu
I0821 06:45:44.647884  1322 net.cpp:157] Top shape: 125 16 32 32 (2048000)
I0821 06:45:44.647889  1322 net.cpp:165] Memory required for data: 214529500
I0821 06:45:44.647894  1322 layer_factory.hpp:77] Creating layer L1_b2_sum_eltwise_top_L1_b2_relu_0_split
I0821 06:45:44.647902  1322 net.cpp:100] Creating Layer L1_b2_sum_eltwise_top_L1_b2_relu_0_split
I0821 06:45:44.647905  1322 net.cpp:434] L1_b2_sum_eltwise_top_L1_b2_relu_0_split <- L1_b2_sum_eltwise_top
I0821 06:45:44.647913  1322 net.cpp:408] L1_b2_sum_eltwise_top_L1_b2_relu_0_split -> L1_b2_sum_eltwise_top_L1_b2_relu_0_split_0
I0821 06:45:44.647922  1322 net.cpp:408] L1_b2_sum_eltwise_top_L1_b2_relu_0_split -> L1_b2_sum_eltwise_top_L1_b2_relu_0_split_1
I0821 06:45:44.647967  1322 net.cpp:150] Setting up L1_b2_sum_eltwise_top_L1_b2_relu_0_split
I0821 06:45:44.647979  1322 net.cpp:157] Top shape: 125 16 32 32 (2048000)
I0821 06:45:44.647985  1322 net.cpp:157] Top shape: 125 16 32 32 (2048000)
I0821 06:45:44.647989  1322 net.cpp:165] Memory required for data: 230913500
I0821 06:45:44.647994  1322 layer_factory.hpp:77] Creating layer L1_b3_cbr1_conv
I0821 06:45:44.648005  1322 net.cpp:100] Creating Layer L1_b3_cbr1_conv
I0821 06:45:44.648011  1322 net.cpp:434] L1_b3_cbr1_conv <- L1_b2_sum_eltwise_top_L1_b2_relu_0_split_0
I0821 06:45:44.648023  1322 net.cpp:408] L1_b3_cbr1_conv -> L1_b3_cbr1_conv_top
I0821 06:45:44.648322  1322 net.cpp:150] Setting up L1_b3_cbr1_conv
I0821 06:45:44.648336  1322 net.cpp:157] Top shape: 125 16 32 32 (2048000)
I0821 06:45:44.648341  1322 net.cpp:165] Memory required for data: 239105500
I0821 06:45:44.648350  1322 layer_factory.hpp:77] Creating layer L1_b3_cbr1_bn
I0821 06:45:44.648360  1322 net.cpp:100] Creating Layer L1_b3_cbr1_bn
I0821 06:45:44.648365  1322 net.cpp:434] L1_b3_cbr1_bn <- L1_b3_cbr1_conv_top
I0821 06:45:44.648375  1322 net.cpp:408] L1_b3_cbr1_bn -> L1_b3_cbr1_bn_top
I0821 06:45:44.648615  1322 net.cpp:150] Setting up L1_b3_cbr1_bn
I0821 06:45:44.648627  1322 net.cpp:157] Top shape: 125 16 32 32 (2048000)
I0821 06:45:44.648633  1322 net.cpp:165] Memory required for data: 247297500
I0821 06:45:44.648643  1322 layer_factory.hpp:77] Creating layer L1_b3_cbr1_scale
I0821 06:45:44.648654  1322 net.cpp:100] Creating Layer L1_b3_cbr1_scale
I0821 06:45:44.648660  1322 net.cpp:434] L1_b3_cbr1_scale <- L1_b3_cbr1_bn_top
I0821 06:45:44.648669  1322 net.cpp:395] L1_b3_cbr1_scale -> L1_b3_cbr1_bn_top (in-place)
I0821 06:45:44.648718  1322 layer_factory.hpp:77] Creating layer L1_b3_cbr1_scale
I0821 06:45:44.648864  1322 net.cpp:150] Setting up L1_b3_cbr1_scale
I0821 06:45:44.648878  1322 net.cpp:157] Top shape: 125 16 32 32 (2048000)
I0821 06:45:44.648883  1322 net.cpp:165] Memory required for data: 255489500
I0821 06:45:44.648892  1322 layer_factory.hpp:77] Creating layer L1_b3_cbr1_relu
I0821 06:45:44.648900  1322 net.cpp:100] Creating Layer L1_b3_cbr1_relu
I0821 06:45:44.648905  1322 net.cpp:434] L1_b3_cbr1_relu <- L1_b3_cbr1_bn_top
I0821 06:45:44.648916  1322 net.cpp:395] L1_b3_cbr1_relu -> L1_b3_cbr1_bn_top (in-place)
I0821 06:45:44.648926  1322 net.cpp:150] Setting up L1_b3_cbr1_relu
I0821 06:45:44.648939  1322 net.cpp:157] Top shape: 125 16 32 32 (2048000)
I0821 06:45:44.648944  1322 net.cpp:165] Memory required for data: 263681500
I0821 06:45:44.648949  1322 layer_factory.hpp:77] Creating layer L1_b3_cbr2_conv
I0821 06:45:44.648963  1322 net.cpp:100] Creating Layer L1_b3_cbr2_conv
I0821 06:45:44.648969  1322 net.cpp:434] L1_b3_cbr2_conv <- L1_b3_cbr1_bn_top
I0821 06:45:44.648977  1322 net.cpp:408] L1_b3_cbr2_conv -> L1_b3_cbr2_conv_top
I0821 06:45:44.649304  1322 net.cpp:150] Setting up L1_b3_cbr2_conv
I0821 06:45:44.649318  1322 net.cpp:157] Top shape: 125 16 32 32 (2048000)
I0821 06:45:44.649323  1322 net.cpp:165] Memory required for data: 271873500
I0821 06:45:44.649333  1322 layer_factory.hpp:77] Creating layer L1_b3_cbr2_bn
I0821 06:45:44.649346  1322 net.cpp:100] Creating Layer L1_b3_cbr2_bn
I0821 06:45:44.649353  1322 net.cpp:434] L1_b3_cbr2_bn <- L1_b3_cbr2_conv_top
I0821 06:45:44.649364  1322 net.cpp:408] L1_b3_cbr2_bn -> L1_b3_cbr2_bn_top
I0821 06:45:44.649598  1322 net.cpp:150] Setting up L1_b3_cbr2_bn
I0821 06:45:44.649611  1322 net.cpp:157] Top shape: 125 16 32 32 (2048000)
I0821 06:45:44.649616  1322 net.cpp:165] Memory required for data: 280065500
I0821 06:45:44.649626  1322 layer_factory.hpp:77] Creating layer L1_b3_cbr2_scale
I0821 06:45:44.649638  1322 net.cpp:100] Creating Layer L1_b3_cbr2_scale
I0821 06:45:44.649644  1322 net.cpp:434] L1_b3_cbr2_scale <- L1_b3_cbr2_bn_top
I0821 06:45:44.649652  1322 net.cpp:395] L1_b3_cbr2_scale -> L1_b3_cbr2_bn_top (in-place)
I0821 06:45:44.649703  1322 layer_factory.hpp:77] Creating layer L1_b3_cbr2_scale
I0821 06:45:44.649849  1322 net.cpp:150] Setting up L1_b3_cbr2_scale
I0821 06:45:44.649863  1322 net.cpp:157] Top shape: 125 16 32 32 (2048000)
I0821 06:45:44.649868  1322 net.cpp:165] Memory required for data: 288257500
I0821 06:45:44.649876  1322 layer_factory.hpp:77] Creating layer L1_b3_sum_eltwise
I0821 06:45:44.649888  1322 net.cpp:100] Creating Layer L1_b3_sum_eltwise
I0821 06:45:44.649894  1322 net.cpp:434] L1_b3_sum_eltwise <- L1_b3_cbr2_bn_top
I0821 06:45:44.649901  1322 net.cpp:434] L1_b3_sum_eltwise <- L1_b2_sum_eltwise_top_L1_b2_relu_0_split_1
I0821 06:45:44.649909  1322 net.cpp:408] L1_b3_sum_eltwise -> L1_b3_sum_eltwise_top
I0821 06:45:44.649943  1322 net.cpp:150] Setting up L1_b3_sum_eltwise
I0821 06:45:44.649955  1322 net.cpp:157] Top shape: 125 16 32 32 (2048000)
I0821 06:45:44.649960  1322 net.cpp:165] Memory required for data: 296449500
I0821 06:45:44.649966  1322 layer_factory.hpp:77] Creating layer L1_b3_relu
I0821 06:45:44.649973  1322 net.cpp:100] Creating Layer L1_b3_relu
I0821 06:45:44.649979  1322 net.cpp:434] L1_b3_relu <- L1_b3_sum_eltwise_top
I0821 06:45:44.649989  1322 net.cpp:395] L1_b3_relu -> L1_b3_sum_eltwise_top (in-place)
I0821 06:45:44.649998  1322 net.cpp:150] Setting up L1_b3_relu
I0821 06:45:44.650005  1322 net.cpp:157] Top shape: 125 16 32 32 (2048000)
I0821 06:45:44.650010  1322 net.cpp:165] Memory required for data: 304641500
I0821 06:45:44.650015  1322 layer_factory.hpp:77] Creating layer L1_b3_sum_eltwise_top_L1_b3_relu_0_split
I0821 06:45:44.650022  1322 net.cpp:100] Creating Layer L1_b3_sum_eltwise_top_L1_b3_relu_0_split
I0821 06:45:44.650027  1322 net.cpp:434] L1_b3_sum_eltwise_top_L1_b3_relu_0_split <- L1_b3_sum_eltwise_top
I0821 06:45:44.650034  1322 net.cpp:408] L1_b3_sum_eltwise_top_L1_b3_relu_0_split -> L1_b3_sum_eltwise_top_L1_b3_relu_0_split_0
I0821 06:45:44.650043  1322 net.cpp:408] L1_b3_sum_eltwise_top_L1_b3_relu_0_split -> L1_b3_sum_eltwise_top_L1_b3_relu_0_split_1
I0821 06:45:44.650087  1322 net.cpp:150] Setting up L1_b3_sum_eltwise_top_L1_b3_relu_0_split
I0821 06:45:44.650099  1322 net.cpp:157] Top shape: 125 16 32 32 (2048000)
I0821 06:45:44.650105  1322 net.cpp:157] Top shape: 125 16 32 32 (2048000)
I0821 06:45:44.650110  1322 net.cpp:165] Memory required for data: 321025500
I0821 06:45:44.650115  1322 layer_factory.hpp:77] Creating layer L1_b4_cbr1_conv
I0821 06:45:44.650126  1322 net.cpp:100] Creating Layer L1_b4_cbr1_conv
I0821 06:45:44.650131  1322 net.cpp:434] L1_b4_cbr1_conv <- L1_b3_sum_eltwise_top_L1_b3_relu_0_split_0
I0821 06:45:44.650151  1322 net.cpp:408] L1_b4_cbr1_conv -> L1_b4_cbr1_conv_top
I0821 06:45:44.650460  1322 net.cpp:150] Setting up L1_b4_cbr1_conv
I0821 06:45:44.650473  1322 net.cpp:157] Top shape: 125 16 32 32 (2048000)
I0821 06:45:44.650477  1322 net.cpp:165] Memory required for data: 329217500
I0821 06:45:44.650486  1322 layer_factory.hpp:77] Creating layer L1_b4_cbr1_bn
I0821 06:45:44.650496  1322 net.cpp:100] Creating Layer L1_b4_cbr1_bn
I0821 06:45:44.650501  1322 net.cpp:434] L1_b4_cbr1_bn <- L1_b4_cbr1_conv_top
I0821 06:45:44.650512  1322 net.cpp:408] L1_b4_cbr1_bn -> L1_b4_cbr1_bn_top
I0821 06:45:44.650748  1322 net.cpp:150] Setting up L1_b4_cbr1_bn
I0821 06:45:44.650761  1322 net.cpp:157] Top shape: 125 16 32 32 (2048000)
I0821 06:45:44.650766  1322 net.cpp:165] Memory required for data: 337409500
I0821 06:45:44.650776  1322 layer_factory.hpp:77] Creating layer L1_b4_cbr1_scale
I0821 06:45:44.650789  1322 net.cpp:100] Creating Layer L1_b4_cbr1_scale
I0821 06:45:44.650794  1322 net.cpp:434] L1_b4_cbr1_scale <- L1_b4_cbr1_bn_top
I0821 06:45:44.650801  1322 net.cpp:395] L1_b4_cbr1_scale -> L1_b4_cbr1_bn_top (in-place)
I0821 06:45:44.650866  1322 layer_factory.hpp:77] Creating layer L1_b4_cbr1_scale
I0821 06:45:44.651011  1322 net.cpp:150] Setting up L1_b4_cbr1_scale
I0821 06:45:44.651024  1322 net.cpp:157] Top shape: 125 16 32 32 (2048000)
I0821 06:45:44.651029  1322 net.cpp:165] Memory required for data: 345601500
I0821 06:45:44.651038  1322 layer_factory.hpp:77] Creating layer L1_b4_cbr1_relu
I0821 06:45:44.651049  1322 net.cpp:100] Creating Layer L1_b4_cbr1_relu
I0821 06:45:44.651054  1322 net.cpp:434] L1_b4_cbr1_relu <- L1_b4_cbr1_bn_top
I0821 06:45:44.651062  1322 net.cpp:395] L1_b4_cbr1_relu -> L1_b4_cbr1_bn_top (in-place)
I0821 06:45:44.651072  1322 net.cpp:150] Setting up L1_b4_cbr1_relu
I0821 06:45:44.651078  1322 net.cpp:157] Top shape: 125 16 32 32 (2048000)
I0821 06:45:44.651083  1322 net.cpp:165] Memory required for data: 353793500
I0821 06:45:44.651087  1322 layer_factory.hpp:77] Creating layer L1_b4_cbr2_conv
I0821 06:45:44.651101  1322 net.cpp:100] Creating Layer L1_b4_cbr2_conv
I0821 06:45:44.651108  1322 net.cpp:434] L1_b4_cbr2_conv <- L1_b4_cbr1_bn_top
I0821 06:45:44.651120  1322 net.cpp:408] L1_b4_cbr2_conv -> L1_b4_cbr2_conv_top
I0821 06:45:44.651423  1322 net.cpp:150] Setting up L1_b4_cbr2_conv
I0821 06:45:44.651437  1322 net.cpp:157] Top shape: 125 16 32 32 (2048000)
I0821 06:45:44.651443  1322 net.cpp:165] Memory required for data: 361985500
I0821 06:45:44.651450  1322 layer_factory.hpp:77] Creating layer L1_b4_cbr2_bn
I0821 06:45:44.651459  1322 net.cpp:100] Creating Layer L1_b4_cbr2_bn
I0821 06:45:44.651465  1322 net.cpp:434] L1_b4_cbr2_bn <- L1_b4_cbr2_conv_top
I0821 06:45:44.651473  1322 net.cpp:408] L1_b4_cbr2_bn -> L1_b4_cbr2_bn_top
I0821 06:45:44.651712  1322 net.cpp:150] Setting up L1_b4_cbr2_bn
I0821 06:45:44.651726  1322 net.cpp:157] Top shape: 125 16 32 32 (2048000)
I0821 06:45:44.651731  1322 net.cpp:165] Memory required for data: 370177500
I0821 06:45:44.651743  1322 layer_factory.hpp:77] Creating layer L1_b4_cbr2_scale
I0821 06:45:44.651752  1322 net.cpp:100] Creating Layer L1_b4_cbr2_scale
I0821 06:45:44.651757  1322 net.cpp:434] L1_b4_cbr2_scale <- L1_b4_cbr2_bn_top
I0821 06:45:44.651767  1322 net.cpp:395] L1_b4_cbr2_scale -> L1_b4_cbr2_bn_top (in-place)
I0821 06:45:44.651819  1322 layer_factory.hpp:77] Creating layer L1_b4_cbr2_scale
I0821 06:45:44.651963  1322 net.cpp:150] Setting up L1_b4_cbr2_scale
I0821 06:45:44.651976  1322 net.cpp:157] Top shape: 125 16 32 32 (2048000)
I0821 06:45:44.651981  1322 net.cpp:165] Memory required for data: 378369500
I0821 06:45:44.651990  1322 layer_factory.hpp:77] Creating layer L1_b4_sum_eltwise
I0821 06:45:44.652003  1322 net.cpp:100] Creating Layer L1_b4_sum_eltwise
I0821 06:45:44.652007  1322 net.cpp:434] L1_b4_sum_eltwise <- L1_b4_cbr2_bn_top
I0821 06:45:44.652014  1322 net.cpp:434] L1_b4_sum_eltwise <- L1_b3_sum_eltwise_top_L1_b3_relu_0_split_1
I0821 06:45:44.652025  1322 net.cpp:408] L1_b4_sum_eltwise -> L1_b4_sum_eltwise_top
I0821 06:45:44.652062  1322 net.cpp:150] Setting up L1_b4_sum_eltwise
I0821 06:45:44.652072  1322 net.cpp:157] Top shape: 125 16 32 32 (2048000)
I0821 06:45:44.652077  1322 net.cpp:165] Memory required for data: 386561500
I0821 06:45:44.652082  1322 layer_factory.hpp:77] Creating layer L1_b4_relu
I0821 06:45:44.652094  1322 net.cpp:100] Creating Layer L1_b4_relu
I0821 06:45:44.652099  1322 net.cpp:434] L1_b4_relu <- L1_b4_sum_eltwise_top
I0821 06:45:44.652107  1322 net.cpp:395] L1_b4_relu -> L1_b4_sum_eltwise_top (in-place)
I0821 06:45:44.652117  1322 net.cpp:150] Setting up L1_b4_relu
I0821 06:45:44.652123  1322 net.cpp:157] Top shape: 125 16 32 32 (2048000)
I0821 06:45:44.652127  1322 net.cpp:165] Memory required for data: 394753500
I0821 06:45:44.652132  1322 layer_factory.hpp:77] Creating layer L1_b4_sum_eltwise_top_L1_b4_relu_0_split
I0821 06:45:44.652139  1322 net.cpp:100] Creating Layer L1_b4_sum_eltwise_top_L1_b4_relu_0_split
I0821 06:45:44.652145  1322 net.cpp:434] L1_b4_sum_eltwise_top_L1_b4_relu_0_split <- L1_b4_sum_eltwise_top
I0821 06:45:44.652153  1322 net.cpp:408] L1_b4_sum_eltwise_top_L1_b4_relu_0_split -> L1_b4_sum_eltwise_top_L1_b4_relu_0_split_0
I0821 06:45:44.652161  1322 net.cpp:408] L1_b4_sum_eltwise_top_L1_b4_relu_0_split -> L1_b4_sum_eltwise_top_L1_b4_relu_0_split_1
I0821 06:45:44.652206  1322 net.cpp:150] Setting up L1_b4_sum_eltwise_top_L1_b4_relu_0_split
I0821 06:45:44.652217  1322 net.cpp:157] Top shape: 125 16 32 32 (2048000)
I0821 06:45:44.652225  1322 net.cpp:157] Top shape: 125 16 32 32 (2048000)
I0821 06:45:44.652230  1322 net.cpp:165] Memory required for data: 411137500
I0821 06:45:44.652235  1322 layer_factory.hpp:77] Creating layer L1_b5_cbr1_conv
I0821 06:45:44.652247  1322 net.cpp:100] Creating Layer L1_b5_cbr1_conv
I0821 06:45:44.652253  1322 net.cpp:434] L1_b5_cbr1_conv <- L1_b4_sum_eltwise_top_L1_b4_relu_0_split_0
I0821 06:45:44.652262  1322 net.cpp:408] L1_b5_cbr1_conv -> L1_b5_cbr1_conv_top
I0821 06:45:44.652570  1322 net.cpp:150] Setting up L1_b5_cbr1_conv
I0821 06:45:44.652582  1322 net.cpp:157] Top shape: 125 16 32 32 (2048000)
I0821 06:45:44.652587  1322 net.cpp:165] Memory required for data: 419329500
I0821 06:45:44.652612  1322 layer_factory.hpp:77] Creating layer L1_b5_cbr1_bn
I0821 06:45:44.652624  1322 net.cpp:100] Creating Layer L1_b5_cbr1_bn
I0821 06:45:44.652631  1322 net.cpp:434] L1_b5_cbr1_bn <- L1_b5_cbr1_conv_top
I0821 06:45:44.652639  1322 net.cpp:408] L1_b5_cbr1_bn -> L1_b5_cbr1_bn_top
I0821 06:45:44.652887  1322 net.cpp:150] Setting up L1_b5_cbr1_bn
I0821 06:45:44.652904  1322 net.cpp:157] Top shape: 125 16 32 32 (2048000)
I0821 06:45:44.652909  1322 net.cpp:165] Memory required for data: 427521500
I0821 06:45:44.652920  1322 layer_factory.hpp:77] Creating layer L1_b5_cbr1_scale
I0821 06:45:44.652930  1322 net.cpp:100] Creating Layer L1_b5_cbr1_scale
I0821 06:45:44.652935  1322 net.cpp:434] L1_b5_cbr1_scale <- L1_b5_cbr1_bn_top
I0821 06:45:44.652942  1322 net.cpp:395] L1_b5_cbr1_scale -> L1_b5_cbr1_bn_top (in-place)
I0821 06:45:44.652994  1322 layer_factory.hpp:77] Creating layer L1_b5_cbr1_scale
I0821 06:45:44.653133  1322 net.cpp:150] Setting up L1_b5_cbr1_scale
I0821 06:45:44.653146  1322 net.cpp:157] Top shape: 125 16 32 32 (2048000)
I0821 06:45:44.653151  1322 net.cpp:165] Memory required for data: 435713500
I0821 06:45:44.653159  1322 layer_factory.hpp:77] Creating layer L1_b5_cbr1_relu
I0821 06:45:44.653170  1322 net.cpp:100] Creating Layer L1_b5_cbr1_relu
I0821 06:45:44.653177  1322 net.cpp:434] L1_b5_cbr1_relu <- L1_b5_cbr1_bn_top
I0821 06:45:44.653183  1322 net.cpp:395] L1_b5_cbr1_relu -> L1_b5_cbr1_bn_top (in-place)
I0821 06:45:44.653193  1322 net.cpp:150] Setting up L1_b5_cbr1_relu
I0821 06:45:44.653200  1322 net.cpp:157] Top shape: 125 16 32 32 (2048000)
I0821 06:45:44.653204  1322 net.cpp:165] Memory required for data: 443905500
I0821 06:45:44.653209  1322 layer_factory.hpp:77] Creating layer L1_b5_cbr2_conv
I0821 06:45:44.653223  1322 net.cpp:100] Creating Layer L1_b5_cbr2_conv
I0821 06:45:44.653229  1322 net.cpp:434] L1_b5_cbr2_conv <- L1_b5_cbr1_bn_top
I0821 06:45:44.653247  1322 net.cpp:408] L1_b5_cbr2_conv -> L1_b5_cbr2_conv_top
I0821 06:45:44.653554  1322 net.cpp:150] Setting up L1_b5_cbr2_conv
I0821 06:45:44.653568  1322 net.cpp:157] Top shape: 125 16 32 32 (2048000)
I0821 06:45:44.653573  1322 net.cpp:165] Memory required for data: 452097500
I0821 06:45:44.653583  1322 layer_factory.hpp:77] Creating layer L1_b5_cbr2_bn
I0821 06:45:44.653592  1322 net.cpp:100] Creating Layer L1_b5_cbr2_bn
I0821 06:45:44.653597  1322 net.cpp:434] L1_b5_cbr2_bn <- L1_b5_cbr2_conv_top
I0821 06:45:44.653610  1322 net.cpp:408] L1_b5_cbr2_bn -> L1_b5_cbr2_bn_top
I0821 06:45:44.653852  1322 net.cpp:150] Setting up L1_b5_cbr2_bn
I0821 06:45:44.653865  1322 net.cpp:157] Top shape: 125 16 32 32 (2048000)
I0821 06:45:44.653870  1322 net.cpp:165] Memory required for data: 460289500
I0821 06:45:44.653880  1322 layer_factory.hpp:77] Creating layer L1_b5_cbr2_scale
I0821 06:45:44.653892  1322 net.cpp:100] Creating Layer L1_b5_cbr2_scale
I0821 06:45:44.653898  1322 net.cpp:434] L1_b5_cbr2_scale <- L1_b5_cbr2_bn_top
I0821 06:45:44.653906  1322 net.cpp:395] L1_b5_cbr2_scale -> L1_b5_cbr2_bn_top (in-place)
I0821 06:45:44.653959  1322 layer_factory.hpp:77] Creating layer L1_b5_cbr2_scale
I0821 06:45:44.654101  1322 net.cpp:150] Setting up L1_b5_cbr2_scale
I0821 06:45:44.654114  1322 net.cpp:157] Top shape: 125 16 32 32 (2048000)
I0821 06:45:44.654119  1322 net.cpp:165] Memory required for data: 468481500
I0821 06:45:44.654129  1322 layer_factory.hpp:77] Creating layer L1_b5_sum_eltwise
I0821 06:45:44.654140  1322 net.cpp:100] Creating Layer L1_b5_sum_eltwise
I0821 06:45:44.654146  1322 net.cpp:434] L1_b5_sum_eltwise <- L1_b5_cbr2_bn_top
I0821 06:45:44.654153  1322 net.cpp:434] L1_b5_sum_eltwise <- L1_b4_sum_eltwise_top_L1_b4_relu_0_split_1
I0821 06:45:44.654160  1322 net.cpp:408] L1_b5_sum_eltwise -> L1_b5_sum_eltwise_top
I0821 06:45:44.654194  1322 net.cpp:150] Setting up L1_b5_sum_eltwise
I0821 06:45:44.654204  1322 net.cpp:157] Top shape: 125 16 32 32 (2048000)
I0821 06:45:44.654208  1322 net.cpp:165] Memory required for data: 476673500
I0821 06:45:44.654213  1322 layer_factory.hpp:77] Creating layer L1_b5_relu
I0821 06:45:44.654222  1322 net.cpp:100] Creating Layer L1_b5_relu
I0821 06:45:44.654227  1322 net.cpp:434] L1_b5_relu <- L1_b5_sum_eltwise_top
I0821 06:45:44.654237  1322 net.cpp:395] L1_b5_relu -> L1_b5_sum_eltwise_top (in-place)
I0821 06:45:44.654247  1322 net.cpp:150] Setting up L1_b5_relu
I0821 06:45:44.654253  1322 net.cpp:157] Top shape: 125 16 32 32 (2048000)
I0821 06:45:44.654258  1322 net.cpp:165] Memory required for data: 484865500
I0821 06:45:44.654263  1322 layer_factory.hpp:77] Creating layer L1_b5_sum_eltwise_top_L1_b5_relu_0_split
I0821 06:45:44.654269  1322 net.cpp:100] Creating Layer L1_b5_sum_eltwise_top_L1_b5_relu_0_split
I0821 06:45:44.654274  1322 net.cpp:434] L1_b5_sum_eltwise_top_L1_b5_relu_0_split <- L1_b5_sum_eltwise_top
I0821 06:45:44.654281  1322 net.cpp:408] L1_b5_sum_eltwise_top_L1_b5_relu_0_split -> L1_b5_sum_eltwise_top_L1_b5_relu_0_split_0
I0821 06:45:44.654290  1322 net.cpp:408] L1_b5_sum_eltwise_top_L1_b5_relu_0_split -> L1_b5_sum_eltwise_top_L1_b5_relu_0_split_1
I0821 06:45:44.654335  1322 net.cpp:150] Setting up L1_b5_sum_eltwise_top_L1_b5_relu_0_split
I0821 06:45:44.654346  1322 net.cpp:157] Top shape: 125 16 32 32 (2048000)
I0821 06:45:44.654353  1322 net.cpp:157] Top shape: 125 16 32 32 (2048000)
I0821 06:45:44.654357  1322 net.cpp:165] Memory required for data: 501249500
I0821 06:45:44.654362  1322 layer_factory.hpp:77] Creating layer L1_b6_cbr1_conv
I0821 06:45:44.654372  1322 net.cpp:100] Creating Layer L1_b6_cbr1_conv
I0821 06:45:44.654378  1322 net.cpp:434] L1_b6_cbr1_conv <- L1_b5_sum_eltwise_top_L1_b5_relu_0_split_0
I0821 06:45:44.654391  1322 net.cpp:408] L1_b6_cbr1_conv -> L1_b6_cbr1_conv_top
I0821 06:45:44.654696  1322 net.cpp:150] Setting up L1_b6_cbr1_conv
I0821 06:45:44.654711  1322 net.cpp:157] Top shape: 125 16 32 32 (2048000)
I0821 06:45:44.654716  1322 net.cpp:165] Memory required for data: 509441500
I0821 06:45:44.654731  1322 layer_factory.hpp:77] Creating layer L1_b6_cbr1_bn
I0821 06:45:44.654739  1322 net.cpp:100] Creating Layer L1_b6_cbr1_bn
I0821 06:45:44.654745  1322 net.cpp:434] L1_b6_cbr1_bn <- L1_b6_cbr1_conv_top
I0821 06:45:44.654757  1322 net.cpp:408] L1_b6_cbr1_bn -> L1_b6_cbr1_bn_top
I0821 06:45:44.655000  1322 net.cpp:150] Setting up L1_b6_cbr1_bn
I0821 06:45:44.655014  1322 net.cpp:157] Top shape: 125 16 32 32 (2048000)
I0821 06:45:44.655019  1322 net.cpp:165] Memory required for data: 517633500
I0821 06:45:44.655030  1322 layer_factory.hpp:77] Creating layer L1_b6_cbr1_scale
I0821 06:45:44.655041  1322 net.cpp:100] Creating Layer L1_b6_cbr1_scale
I0821 06:45:44.655046  1322 net.cpp:434] L1_b6_cbr1_scale <- L1_b6_cbr1_bn_top
I0821 06:45:44.655055  1322 net.cpp:395] L1_b6_cbr1_scale -> L1_b6_cbr1_bn_top (in-place)
I0821 06:45:44.655105  1322 layer_factory.hpp:77] Creating layer L1_b6_cbr1_scale
I0821 06:45:44.655244  1322 net.cpp:150] Setting up L1_b6_cbr1_scale
I0821 06:45:44.655256  1322 net.cpp:157] Top shape: 125 16 32 32 (2048000)
I0821 06:45:44.655261  1322 net.cpp:165] Memory required for data: 525825500
I0821 06:45:44.655270  1322 layer_factory.hpp:77] Creating layer L1_b6_cbr1_relu
I0821 06:45:44.655283  1322 net.cpp:100] Creating Layer L1_b6_cbr1_relu
I0821 06:45:44.655289  1322 net.cpp:434] L1_b6_cbr1_relu <- L1_b6_cbr1_bn_top
I0821 06:45:44.655297  1322 net.cpp:395] L1_b6_cbr1_relu -> L1_b6_cbr1_bn_top (in-place)
I0821 06:45:44.655306  1322 net.cpp:150] Setting up L1_b6_cbr1_relu
I0821 06:45:44.655313  1322 net.cpp:157] Top shape: 125 16 32 32 (2048000)
I0821 06:45:44.655318  1322 net.cpp:165] Memory required for data: 534017500
I0821 06:45:44.655323  1322 layer_factory.hpp:77] Creating layer L1_b6_cbr2_conv
I0821 06:45:44.655338  1322 net.cpp:100] Creating Layer L1_b6_cbr2_conv
I0821 06:45:44.655344  1322 net.cpp:434] L1_b6_cbr2_conv <- L1_b6_cbr1_bn_top
I0821 06:45:44.655354  1322 net.cpp:408] L1_b6_cbr2_conv -> L1_b6_cbr2_conv_top
I0821 06:45:44.655668  1322 net.cpp:150] Setting up L1_b6_cbr2_conv
I0821 06:45:44.655683  1322 net.cpp:157] Top shape: 125 16 32 32 (2048000)
I0821 06:45:44.655686  1322 net.cpp:165] Memory required for data: 542209500
I0821 06:45:44.655695  1322 layer_factory.hpp:77] Creating layer L1_b6_cbr2_bn
I0821 06:45:44.655704  1322 net.cpp:100] Creating Layer L1_b6_cbr2_bn
I0821 06:45:44.655710  1322 net.cpp:434] L1_b6_cbr2_bn <- L1_b6_cbr2_conv_top
I0821 06:45:44.655719  1322 net.cpp:408] L1_b6_cbr2_bn -> L1_b6_cbr2_bn_top
I0821 06:45:44.655966  1322 net.cpp:150] Setting up L1_b6_cbr2_bn
I0821 06:45:44.655978  1322 net.cpp:157] Top shape: 125 16 32 32 (2048000)
I0821 06:45:44.655983  1322 net.cpp:165] Memory required for data: 550401500
I0821 06:45:44.655994  1322 layer_factory.hpp:77] Creating layer L1_b6_cbr2_scale
I0821 06:45:44.656005  1322 net.cpp:100] Creating Layer L1_b6_cbr2_scale
I0821 06:45:44.656011  1322 net.cpp:434] L1_b6_cbr2_scale <- L1_b6_cbr2_bn_top
I0821 06:45:44.656019  1322 net.cpp:395] L1_b6_cbr2_scale -> L1_b6_cbr2_bn_top (in-place)
I0821 06:45:44.656075  1322 layer_factory.hpp:77] Creating layer L1_b6_cbr2_scale
I0821 06:45:44.656213  1322 net.cpp:150] Setting up L1_b6_cbr2_scale
I0821 06:45:44.656225  1322 net.cpp:157] Top shape: 125 16 32 32 (2048000)
I0821 06:45:44.656230  1322 net.cpp:165] Memory required for data: 558593500
I0821 06:45:44.656239  1322 layer_factory.hpp:77] Creating layer L1_b6_sum_eltwise
I0821 06:45:44.656257  1322 net.cpp:100] Creating Layer L1_b6_sum_eltwise
I0821 06:45:44.656265  1322 net.cpp:434] L1_b6_sum_eltwise <- L1_b6_cbr2_bn_top
I0821 06:45:44.656271  1322 net.cpp:434] L1_b6_sum_eltwise <- L1_b5_sum_eltwise_top_L1_b5_relu_0_split_1
I0821 06:45:44.656280  1322 net.cpp:408] L1_b6_sum_eltwise -> L1_b6_sum_eltwise_top
I0821 06:45:44.656311  1322 net.cpp:150] Setting up L1_b6_sum_eltwise
I0821 06:45:44.656322  1322 net.cpp:157] Top shape: 125 16 32 32 (2048000)
I0821 06:45:44.656327  1322 net.cpp:165] Memory required for data: 566785500
I0821 06:45:44.656332  1322 layer_factory.hpp:77] Creating layer L1_b6_relu
I0821 06:45:44.656350  1322 net.cpp:100] Creating Layer L1_b6_relu
I0821 06:45:44.656358  1322 net.cpp:434] L1_b6_relu <- L1_b6_sum_eltwise_top
I0821 06:45:44.656364  1322 net.cpp:395] L1_b6_relu -> L1_b6_sum_eltwise_top (in-place)
I0821 06:45:44.656373  1322 net.cpp:150] Setting up L1_b6_relu
I0821 06:45:44.656381  1322 net.cpp:157] Top shape: 125 16 32 32 (2048000)
I0821 06:45:44.656385  1322 net.cpp:165] Memory required for data: 574977500
I0821 06:45:44.656390  1322 layer_factory.hpp:77] Creating layer L1_b6_sum_eltwise_top_L1_b6_relu_0_split
I0821 06:45:44.656397  1322 net.cpp:100] Creating Layer L1_b6_sum_eltwise_top_L1_b6_relu_0_split
I0821 06:45:44.656402  1322 net.cpp:434] L1_b6_sum_eltwise_top_L1_b6_relu_0_split <- L1_b6_sum_eltwise_top
I0821 06:45:44.656409  1322 net.cpp:408] L1_b6_sum_eltwise_top_L1_b6_relu_0_split -> L1_b6_sum_eltwise_top_L1_b6_relu_0_split_0
I0821 06:45:44.656419  1322 net.cpp:408] L1_b6_sum_eltwise_top_L1_b6_relu_0_split -> L1_b6_sum_eltwise_top_L1_b6_relu_0_split_1
I0821 06:45:44.656464  1322 net.cpp:150] Setting up L1_b6_sum_eltwise_top_L1_b6_relu_0_split
I0821 06:45:44.656476  1322 net.cpp:157] Top shape: 125 16 32 32 (2048000)
I0821 06:45:44.656482  1322 net.cpp:157] Top shape: 125 16 32 32 (2048000)
I0821 06:45:44.656486  1322 net.cpp:165] Memory required for data: 591361500
I0821 06:45:44.656491  1322 layer_factory.hpp:77] Creating layer L1_b7_cbr1_conv
I0821 06:45:44.656505  1322 net.cpp:100] Creating Layer L1_b7_cbr1_conv
I0821 06:45:44.656512  1322 net.cpp:434] L1_b7_cbr1_conv <- L1_b6_sum_eltwise_top_L1_b6_relu_0_split_0
I0821 06:45:44.656520  1322 net.cpp:408] L1_b7_cbr1_conv -> L1_b7_cbr1_conv_top
I0821 06:45:44.656836  1322 net.cpp:150] Setting up L1_b7_cbr1_conv
I0821 06:45:44.656852  1322 net.cpp:157] Top shape: 125 16 32 32 (2048000)
I0821 06:45:44.656857  1322 net.cpp:165] Memory required for data: 599553500
I0821 06:45:44.656865  1322 layer_factory.hpp:77] Creating layer L1_b7_cbr1_bn
I0821 06:45:44.656877  1322 net.cpp:100] Creating Layer L1_b7_cbr1_bn
I0821 06:45:44.656883  1322 net.cpp:434] L1_b7_cbr1_bn <- L1_b7_cbr1_conv_top
I0821 06:45:44.656891  1322 net.cpp:408] L1_b7_cbr1_bn -> L1_b7_cbr1_bn_top
I0821 06:45:44.657136  1322 net.cpp:150] Setting up L1_b7_cbr1_bn
I0821 06:45:44.657150  1322 net.cpp:157] Top shape: 125 16 32 32 (2048000)
I0821 06:45:44.657155  1322 net.cpp:165] Memory required for data: 607745500
I0821 06:45:44.657165  1322 layer_factory.hpp:77] Creating layer L1_b7_cbr1_scale
I0821 06:45:44.657173  1322 net.cpp:100] Creating Layer L1_b7_cbr1_scale
I0821 06:45:44.657179  1322 net.cpp:434] L1_b7_cbr1_scale <- L1_b7_cbr1_bn_top
I0821 06:45:44.657186  1322 net.cpp:395] L1_b7_cbr1_scale -> L1_b7_cbr1_bn_top (in-place)
I0821 06:45:44.657241  1322 layer_factory.hpp:77] Creating layer L1_b7_cbr1_scale
I0821 06:45:44.657379  1322 net.cpp:150] Setting up L1_b7_cbr1_scale
I0821 06:45:44.657392  1322 net.cpp:157] Top shape: 125 16 32 32 (2048000)
I0821 06:45:44.657397  1322 net.cpp:165] Memory required for data: 615937500
I0821 06:45:44.657405  1322 layer_factory.hpp:77] Creating layer L1_b7_cbr1_relu
I0821 06:45:44.657413  1322 net.cpp:100] Creating Layer L1_b7_cbr1_relu
I0821 06:45:44.657419  1322 net.cpp:434] L1_b7_cbr1_relu <- L1_b7_cbr1_bn_top
I0821 06:45:44.657430  1322 net.cpp:395] L1_b7_cbr1_relu -> L1_b7_cbr1_bn_top (in-place)
I0821 06:45:44.657439  1322 net.cpp:150] Setting up L1_b7_cbr1_relu
I0821 06:45:44.657446  1322 net.cpp:157] Top shape: 125 16 32 32 (2048000)
I0821 06:45:44.657451  1322 net.cpp:165] Memory required for data: 624129500
I0821 06:45:44.657456  1322 layer_factory.hpp:77] Creating layer L1_b7_cbr2_conv
I0821 06:45:44.657470  1322 net.cpp:100] Creating Layer L1_b7_cbr2_conv
I0821 06:45:44.657476  1322 net.cpp:434] L1_b7_cbr2_conv <- L1_b7_cbr1_bn_top
I0821 06:45:44.657485  1322 net.cpp:408] L1_b7_cbr2_conv -> L1_b7_cbr2_conv_top
I0821 06:45:44.657793  1322 net.cpp:150] Setting up L1_b7_cbr2_conv
I0821 06:45:44.657807  1322 net.cpp:157] Top shape: 125 16 32 32 (2048000)
I0821 06:45:44.657812  1322 net.cpp:165] Memory required for data: 632321500
I0821 06:45:44.657833  1322 layer_factory.hpp:77] Creating layer L1_b7_cbr2_bn
I0821 06:45:44.657846  1322 net.cpp:100] Creating Layer L1_b7_cbr2_bn
I0821 06:45:44.657853  1322 net.cpp:434] L1_b7_cbr2_bn <- L1_b7_cbr2_conv_top
I0821 06:45:44.657861  1322 net.cpp:408] L1_b7_cbr2_bn -> L1_b7_cbr2_bn_top
I0821 06:45:44.658100  1322 net.cpp:150] Setting up L1_b7_cbr2_bn
I0821 06:45:44.658116  1322 net.cpp:157] Top shape: 125 16 32 32 (2048000)
I0821 06:45:44.658121  1322 net.cpp:165] Memory required for data: 640513500
I0821 06:45:44.658131  1322 layer_factory.hpp:77] Creating layer L1_b7_cbr2_scale
I0821 06:45:44.658140  1322 net.cpp:100] Creating Layer L1_b7_cbr2_scale
I0821 06:45:44.658146  1322 net.cpp:434] L1_b7_cbr2_scale <- L1_b7_cbr2_bn_top
I0821 06:45:44.658154  1322 net.cpp:395] L1_b7_cbr2_scale -> L1_b7_cbr2_bn_top (in-place)
I0821 06:45:44.658206  1322 layer_factory.hpp:77] Creating layer L1_b7_cbr2_scale
I0821 06:45:44.658350  1322 net.cpp:150] Setting up L1_b7_cbr2_scale
I0821 06:45:44.658363  1322 net.cpp:157] Top shape: 125 16 32 32 (2048000)
I0821 06:45:44.658368  1322 net.cpp:165] Memory required for data: 648705500
I0821 06:45:44.658377  1322 layer_factory.hpp:77] Creating layer L1_b7_sum_eltwise
I0821 06:45:44.658388  1322 net.cpp:100] Creating Layer L1_b7_sum_eltwise
I0821 06:45:44.658394  1322 net.cpp:434] L1_b7_sum_eltwise <- L1_b7_cbr2_bn_top
I0821 06:45:44.658402  1322 net.cpp:434] L1_b7_sum_eltwise <- L1_b6_sum_eltwise_top_L1_b6_relu_0_split_1
I0821 06:45:44.658412  1322 net.cpp:408] L1_b7_sum_eltwise -> L1_b7_sum_eltwise_top
I0821 06:45:44.658443  1322 net.cpp:150] Setting up L1_b7_sum_eltwise
I0821 06:45:44.658454  1322 net.cpp:157] Top shape: 125 16 32 32 (2048000)
I0821 06:45:44.658459  1322 net.cpp:165] Memory required for data: 656897500
I0821 06:45:44.658464  1322 layer_factory.hpp:77] Creating layer L1_b7_relu
I0821 06:45:44.658475  1322 net.cpp:100] Creating Layer L1_b7_relu
I0821 06:45:44.658481  1322 net.cpp:434] L1_b7_relu <- L1_b7_sum_eltwise_top
I0821 06:45:44.658488  1322 net.cpp:395] L1_b7_relu -> L1_b7_sum_eltwise_top (in-place)
I0821 06:45:44.658499  1322 net.cpp:150] Setting up L1_b7_relu
I0821 06:45:44.658504  1322 net.cpp:157] Top shape: 125 16 32 32 (2048000)
I0821 06:45:44.658509  1322 net.cpp:165] Memory required for data: 665089500
I0821 06:45:44.658514  1322 layer_factory.hpp:77] Creating layer L1_b7_sum_eltwise_top_L1_b7_relu_0_split
I0821 06:45:44.658521  1322 net.cpp:100] Creating Layer L1_b7_sum_eltwise_top_L1_b7_relu_0_split
I0821 06:45:44.658526  1322 net.cpp:434] L1_b7_sum_eltwise_top_L1_b7_relu_0_split <- L1_b7_sum_eltwise_top
I0821 06:45:44.658534  1322 net.cpp:408] L1_b7_sum_eltwise_top_L1_b7_relu_0_split -> L1_b7_sum_eltwise_top_L1_b7_relu_0_split_0
I0821 06:45:44.658543  1322 net.cpp:408] L1_b7_sum_eltwise_top_L1_b7_relu_0_split -> L1_b7_sum_eltwise_top_L1_b7_relu_0_split_1
I0821 06:45:44.658589  1322 net.cpp:150] Setting up L1_b7_sum_eltwise_top_L1_b7_relu_0_split
I0821 06:45:44.658601  1322 net.cpp:157] Top shape: 125 16 32 32 (2048000)
I0821 06:45:44.658607  1322 net.cpp:157] Top shape: 125 16 32 32 (2048000)
I0821 06:45:44.658612  1322 net.cpp:165] Memory required for data: 681473500
I0821 06:45:44.658617  1322 layer_factory.hpp:77] Creating layer L1_b8_cbr1_conv
I0821 06:45:44.658630  1322 net.cpp:100] Creating Layer L1_b8_cbr1_conv
I0821 06:45:44.658637  1322 net.cpp:434] L1_b8_cbr1_conv <- L1_b7_sum_eltwise_top_L1_b7_relu_0_split_0
I0821 06:45:44.658645  1322 net.cpp:408] L1_b8_cbr1_conv -> L1_b8_cbr1_conv_top
I0821 06:45:44.658965  1322 net.cpp:150] Setting up L1_b8_cbr1_conv
I0821 06:45:44.658979  1322 net.cpp:157] Top shape: 125 16 32 32 (2048000)
I0821 06:45:44.658984  1322 net.cpp:165] Memory required for data: 689665500
I0821 06:45:44.658993  1322 layer_factory.hpp:77] Creating layer L1_b8_cbr1_bn
I0821 06:45:44.659004  1322 net.cpp:100] Creating Layer L1_b8_cbr1_bn
I0821 06:45:44.659010  1322 net.cpp:434] L1_b8_cbr1_bn <- L1_b8_cbr1_conv_top
I0821 06:45:44.659019  1322 net.cpp:408] L1_b8_cbr1_bn -> L1_b8_cbr1_bn_top
I0821 06:45:44.659271  1322 net.cpp:150] Setting up L1_b8_cbr1_bn
I0821 06:45:44.659286  1322 net.cpp:157] Top shape: 125 16 32 32 (2048000)
I0821 06:45:44.659291  1322 net.cpp:165] Memory required for data: 697857500
I0821 06:45:44.659301  1322 layer_factory.hpp:77] Creating layer L1_b8_cbr1_scale
I0821 06:45:44.659309  1322 net.cpp:100] Creating Layer L1_b8_cbr1_scale
I0821 06:45:44.659314  1322 net.cpp:434] L1_b8_cbr1_scale <- L1_b8_cbr1_bn_top
I0821 06:45:44.659322  1322 net.cpp:395] L1_b8_cbr1_scale -> L1_b8_cbr1_bn_top (in-place)
I0821 06:45:44.659377  1322 layer_factory.hpp:77] Creating layer L1_b8_cbr1_scale
I0821 06:45:44.659523  1322 net.cpp:150] Setting up L1_b8_cbr1_scale
I0821 06:45:44.659535  1322 net.cpp:157] Top shape: 125 16 32 32 (2048000)
I0821 06:45:44.659540  1322 net.cpp:165] Memory required for data: 706049500
I0821 06:45:44.659549  1322 layer_factory.hpp:77] Creating layer L1_b8_cbr1_relu
I0821 06:45:44.659557  1322 net.cpp:100] Creating Layer L1_b8_cbr1_relu
I0821 06:45:44.659562  1322 net.cpp:434] L1_b8_cbr1_relu <- L1_b8_cbr1_bn_top
I0821 06:45:44.659574  1322 net.cpp:395] L1_b8_cbr1_relu -> L1_b8_cbr1_bn_top (in-place)
I0821 06:45:44.659582  1322 net.cpp:150] Setting up L1_b8_cbr1_relu
I0821 06:45:44.659590  1322 net.cpp:157] Top shape: 125 16 32 32 (2048000)
I0821 06:45:44.659595  1322 net.cpp:165] Memory required for data: 714241500
I0821 06:45:44.659598  1322 layer_factory.hpp:77] Creating layer L1_b8_cbr2_conv
I0821 06:45:44.659610  1322 net.cpp:100] Creating Layer L1_b8_cbr2_conv
I0821 06:45:44.659615  1322 net.cpp:434] L1_b8_cbr2_conv <- L1_b8_cbr1_bn_top
I0821 06:45:44.659626  1322 net.cpp:408] L1_b8_cbr2_conv -> L1_b8_cbr2_conv_top
I0821 06:45:44.659950  1322 net.cpp:150] Setting up L1_b8_cbr2_conv
I0821 06:45:44.659965  1322 net.cpp:157] Top shape: 125 16 32 32 (2048000)
I0821 06:45:44.659970  1322 net.cpp:165] Memory required for data: 722433500
I0821 06:45:44.659977  1322 layer_factory.hpp:77] Creating layer L1_b8_cbr2_bn
I0821 06:45:44.659986  1322 net.cpp:100] Creating Layer L1_b8_cbr2_bn
I0821 06:45:44.659992  1322 net.cpp:434] L1_b8_cbr2_bn <- L1_b8_cbr2_conv_top
I0821 06:45:44.660004  1322 net.cpp:408] L1_b8_cbr2_bn -> L1_b8_cbr2_bn_top
I0821 06:45:44.660248  1322 net.cpp:150] Setting up L1_b8_cbr2_bn
I0821 06:45:44.660264  1322 net.cpp:157] Top shape: 125 16 32 32 (2048000)
I0821 06:45:44.660269  1322 net.cpp:165] Memory required for data: 730625500
I0821 06:45:44.660279  1322 layer_factory.hpp:77] Creating layer L1_b8_cbr2_scale
I0821 06:45:44.660289  1322 net.cpp:100] Creating Layer L1_b8_cbr2_scale
I0821 06:45:44.660295  1322 net.cpp:434] L1_b8_cbr2_scale <- L1_b8_cbr2_bn_top
I0821 06:45:44.660302  1322 net.cpp:395] L1_b8_cbr2_scale -> L1_b8_cbr2_bn_top (in-place)
I0821 06:45:44.660356  1322 layer_factory.hpp:77] Creating layer L1_b8_cbr2_scale
I0821 06:45:44.660495  1322 net.cpp:150] Setting up L1_b8_cbr2_scale
I0821 06:45:44.660508  1322 net.cpp:157] Top shape: 125 16 32 32 (2048000)
I0821 06:45:44.660512  1322 net.cpp:165] Memory required for data: 738817500
I0821 06:45:44.660521  1322 layer_factory.hpp:77] Creating layer L1_b8_sum_eltwise
I0821 06:45:44.660533  1322 net.cpp:100] Creating Layer L1_b8_sum_eltwise
I0821 06:45:44.660539  1322 net.cpp:434] L1_b8_sum_eltwise <- L1_b8_cbr2_bn_top
I0821 06:45:44.660547  1322 net.cpp:434] L1_b8_sum_eltwise <- L1_b7_sum_eltwise_top_L1_b7_relu_0_split_1
I0821 06:45:44.660557  1322 net.cpp:408] L1_b8_sum_eltwise -> L1_b8_sum_eltwise_top
I0821 06:45:44.660588  1322 net.cpp:150] Setting up L1_b8_sum_eltwise
I0821 06:45:44.660598  1322 net.cpp:157] Top shape: 125 16 32 32 (2048000)
I0821 06:45:44.660601  1322 net.cpp:165] Memory required for data: 747009500
I0821 06:45:44.660607  1322 layer_factory.hpp:77] Creating layer L1_b8_relu
I0821 06:45:44.660617  1322 net.cpp:100] Creating Layer L1_b8_relu
I0821 06:45:44.660624  1322 net.cpp:434] L1_b8_relu <- L1_b8_sum_eltwise_top
I0821 06:45:44.660630  1322 net.cpp:395] L1_b8_relu -> L1_b8_sum_eltwise_top (in-place)
I0821 06:45:44.660640  1322 net.cpp:150] Setting up L1_b8_relu
I0821 06:45:44.660646  1322 net.cpp:157] Top shape: 125 16 32 32 (2048000)
I0821 06:45:44.660657  1322 net.cpp:165] Memory required for data: 755201500
I0821 06:45:44.660662  1322 layer_factory.hpp:77] Creating layer L1_b8_sum_eltwise_top_L1_b8_relu_0_split
I0821 06:45:44.660670  1322 net.cpp:100] Creating Layer L1_b8_sum_eltwise_top_L1_b8_relu_0_split
I0821 06:45:44.660675  1322 net.cpp:434] L1_b8_sum_eltwise_top_L1_b8_relu_0_split <- L1_b8_sum_eltwise_top
I0821 06:45:44.660682  1322 net.cpp:408] L1_b8_sum_eltwise_top_L1_b8_relu_0_split -> L1_b8_sum_eltwise_top_L1_b8_relu_0_split_0
I0821 06:45:44.660691  1322 net.cpp:408] L1_b8_sum_eltwise_top_L1_b8_relu_0_split -> L1_b8_sum_eltwise_top_L1_b8_relu_0_split_1
I0821 06:45:44.660737  1322 net.cpp:150] Setting up L1_b8_sum_eltwise_top_L1_b8_relu_0_split
I0821 06:45:44.660749  1322 net.cpp:157] Top shape: 125 16 32 32 (2048000)
I0821 06:45:44.660756  1322 net.cpp:157] Top shape: 125 16 32 32 (2048000)
I0821 06:45:44.660760  1322 net.cpp:165] Memory required for data: 771585500
I0821 06:45:44.660765  1322 layer_factory.hpp:77] Creating layer L1_b9_cbr1_conv
I0821 06:45:44.660779  1322 net.cpp:100] Creating Layer L1_b9_cbr1_conv
I0821 06:45:44.660785  1322 net.cpp:434] L1_b9_cbr1_conv <- L1_b8_sum_eltwise_top_L1_b8_relu_0_split_0
I0821 06:45:44.660795  1322 net.cpp:408] L1_b9_cbr1_conv -> L1_b9_cbr1_conv_top
I0821 06:45:44.661123  1322 net.cpp:150] Setting up L1_b9_cbr1_conv
I0821 06:45:44.661139  1322 net.cpp:157] Top shape: 125 16 32 32 (2048000)
I0821 06:45:44.661144  1322 net.cpp:165] Memory required for data: 779777500
I0821 06:45:44.661154  1322 layer_factory.hpp:77] Creating layer L1_b9_cbr1_bn
I0821 06:45:44.661165  1322 net.cpp:100] Creating Layer L1_b9_cbr1_bn
I0821 06:45:44.661171  1322 net.cpp:434] L1_b9_cbr1_bn <- L1_b9_cbr1_conv_top
I0821 06:45:44.661180  1322 net.cpp:408] L1_b9_cbr1_bn -> L1_b9_cbr1_bn_top
I0821 06:45:44.661427  1322 net.cpp:150] Setting up L1_b9_cbr1_bn
I0821 06:45:44.661442  1322 net.cpp:157] Top shape: 125 16 32 32 (2048000)
I0821 06:45:44.661447  1322 net.cpp:165] Memory required for data: 787969500
I0821 06:45:44.661456  1322 layer_factory.hpp:77] Creating layer L1_b9_cbr1_scale
I0821 06:45:44.661465  1322 net.cpp:100] Creating Layer L1_b9_cbr1_scale
I0821 06:45:44.661471  1322 net.cpp:434] L1_b9_cbr1_scale <- L1_b9_cbr1_bn_top
I0821 06:45:44.661481  1322 net.cpp:395] L1_b9_cbr1_scale -> L1_b9_cbr1_bn_top (in-place)
I0821 06:45:44.661535  1322 layer_factory.hpp:77] Creating layer L1_b9_cbr1_scale
I0821 06:45:44.661679  1322 net.cpp:150] Setting up L1_b9_cbr1_scale
I0821 06:45:44.661694  1322 net.cpp:157] Top shape: 125 16 32 32 (2048000)
I0821 06:45:44.661698  1322 net.cpp:165] Memory required for data: 796161500
I0821 06:45:44.661706  1322 layer_factory.hpp:77] Creating layer L1_b9_cbr1_relu
I0821 06:45:44.661715  1322 net.cpp:100] Creating Layer L1_b9_cbr1_relu
I0821 06:45:44.661720  1322 net.cpp:434] L1_b9_cbr1_relu <- L1_b9_cbr1_bn_top
I0821 06:45:44.661728  1322 net.cpp:395] L1_b9_cbr1_relu -> L1_b9_cbr1_bn_top (in-place)
I0821 06:45:44.661737  1322 net.cpp:150] Setting up L1_b9_cbr1_relu
I0821 06:45:44.661744  1322 net.cpp:157] Top shape: 125 16 32 32 (2048000)
I0821 06:45:44.661748  1322 net.cpp:165] Memory required for data: 804353500
I0821 06:45:44.661753  1322 layer_factory.hpp:77] Creating layer L1_b9_cbr2_conv
I0821 06:45:44.661767  1322 net.cpp:100] Creating Layer L1_b9_cbr2_conv
I0821 06:45:44.661773  1322 net.cpp:434] L1_b9_cbr2_conv <- L1_b9_cbr1_bn_top
I0821 06:45:44.661784  1322 net.cpp:408] L1_b9_cbr2_conv -> L1_b9_cbr2_conv_top
I0821 06:45:44.662111  1322 net.cpp:150] Setting up L1_b9_cbr2_conv
I0821 06:45:44.662125  1322 net.cpp:157] Top shape: 125 16 32 32 (2048000)
I0821 06:45:44.662130  1322 net.cpp:165] Memory required for data: 812545500
I0821 06:45:44.662139  1322 layer_factory.hpp:77] Creating layer L1_b9_cbr2_bn
I0821 06:45:44.662151  1322 net.cpp:100] Creating Layer L1_b9_cbr2_bn
I0821 06:45:44.662158  1322 net.cpp:434] L1_b9_cbr2_bn <- L1_b9_cbr2_conv_top
I0821 06:45:44.662168  1322 net.cpp:408] L1_b9_cbr2_bn -> L1_b9_cbr2_bn_top
I0821 06:45:44.662412  1322 net.cpp:150] Setting up L1_b9_cbr2_bn
I0821 06:45:44.662426  1322 net.cpp:157] Top shape: 125 16 32 32 (2048000)
I0821 06:45:44.662431  1322 net.cpp:165] Memory required for data: 820737500
I0821 06:45:44.662462  1322 layer_factory.hpp:77] Creating layer L1_b9_cbr2_scale
I0821 06:45:44.662474  1322 net.cpp:100] Creating Layer L1_b9_cbr2_scale
I0821 06:45:44.662480  1322 net.cpp:434] L1_b9_cbr2_scale <- L1_b9_cbr2_bn_top
I0821 06:45:44.662488  1322 net.cpp:395] L1_b9_cbr2_scale -> L1_b9_cbr2_bn_top (in-place)
I0821 06:45:44.662544  1322 layer_factory.hpp:77] Creating layer L1_b9_cbr2_scale
I0821 06:45:44.662689  1322 net.cpp:150] Setting up L1_b9_cbr2_scale
I0821 06:45:44.662701  1322 net.cpp:157] Top shape: 125 16 32 32 (2048000)
I0821 06:45:44.662706  1322 net.cpp:165] Memory required for data: 828929500
I0821 06:45:44.662715  1322 layer_factory.hpp:77] Creating layer L1_b9_sum_eltwise
I0821 06:45:44.662724  1322 net.cpp:100] Creating Layer L1_b9_sum_eltwise
I0821 06:45:44.662730  1322 net.cpp:434] L1_b9_sum_eltwise <- L1_b9_cbr2_bn_top
I0821 06:45:44.662737  1322 net.cpp:434] L1_b9_sum_eltwise <- L1_b8_sum_eltwise_top_L1_b8_relu_0_split_1
I0821 06:45:44.662744  1322 net.cpp:408] L1_b9_sum_eltwise -> L1_b9_sum_eltwise_top
I0821 06:45:44.662775  1322 net.cpp:150] Setting up L1_b9_sum_eltwise
I0821 06:45:44.662784  1322 net.cpp:157] Top shape: 125 16 32 32 (2048000)
I0821 06:45:44.662789  1322 net.cpp:165] Memory required for data: 837121500
I0821 06:45:44.662794  1322 layer_factory.hpp:77] Creating layer L1_b9_relu
I0821 06:45:44.662806  1322 net.cpp:100] Creating Layer L1_b9_relu
I0821 06:45:44.662813  1322 net.cpp:434] L1_b9_relu <- L1_b9_sum_eltwise_top
I0821 06:45:44.662820  1322 net.cpp:395] L1_b9_relu -> L1_b9_sum_eltwise_top (in-place)
I0821 06:45:44.662835  1322 net.cpp:150] Setting up L1_b9_relu
I0821 06:45:44.662847  1322 net.cpp:157] Top shape: 125 16 32 32 (2048000)
I0821 06:45:44.662852  1322 net.cpp:165] Memory required for data: 845313500
I0821 06:45:44.662856  1322 layer_factory.hpp:77] Creating layer L1_b9_sum_eltwise_top_L1_b9_relu_0_split
I0821 06:45:44.662864  1322 net.cpp:100] Creating Layer L1_b9_sum_eltwise_top_L1_b9_relu_0_split
I0821 06:45:44.662869  1322 net.cpp:434] L1_b9_sum_eltwise_top_L1_b9_relu_0_split <- L1_b9_sum_eltwise_top
I0821 06:45:44.662876  1322 net.cpp:408] L1_b9_sum_eltwise_top_L1_b9_relu_0_split -> L1_b9_sum_eltwise_top_L1_b9_relu_0_split_0
I0821 06:45:44.662885  1322 net.cpp:408] L1_b9_sum_eltwise_top_L1_b9_relu_0_split -> L1_b9_sum_eltwise_top_L1_b9_relu_0_split_1
I0821 06:45:44.662933  1322 net.cpp:150] Setting up L1_b9_sum_eltwise_top_L1_b9_relu_0_split
I0821 06:45:44.662945  1322 net.cpp:157] Top shape: 125 16 32 32 (2048000)
I0821 06:45:44.662951  1322 net.cpp:157] Top shape: 125 16 32 32 (2048000)
I0821 06:45:44.662955  1322 net.cpp:165] Memory required for data: 861697500
I0821 06:45:44.662961  1322 layer_factory.hpp:77] Creating layer L2_b1_cbr1_conv
I0821 06:45:44.662974  1322 net.cpp:100] Creating Layer L2_b1_cbr1_conv
I0821 06:45:44.662981  1322 net.cpp:434] L2_b1_cbr1_conv <- L1_b9_sum_eltwise_top_L1_b9_relu_0_split_0
I0821 06:45:44.662989  1322 net.cpp:408] L2_b1_cbr1_conv -> L2_b1_cbr1_conv_top
I0821 06:45:44.663311  1322 net.cpp:150] Setting up L2_b1_cbr1_conv
I0821 06:45:44.663324  1322 net.cpp:157] Top shape: 125 16 16 16 (512000)
I0821 06:45:44.663329  1322 net.cpp:165] Memory required for data: 863745500
I0821 06:45:44.663338  1322 layer_factory.hpp:77] Creating layer L2_b1_cbr1_bn
I0821 06:45:44.663349  1322 net.cpp:100] Creating Layer L2_b1_cbr1_bn
I0821 06:45:44.663357  1322 net.cpp:434] L2_b1_cbr1_bn <- L2_b1_cbr1_conv_top
I0821 06:45:44.663367  1322 net.cpp:408] L2_b1_cbr1_bn -> L2_b1_cbr1_bn_top
I0821 06:45:44.663605  1322 net.cpp:150] Setting up L2_b1_cbr1_bn
I0821 06:45:44.663617  1322 net.cpp:157] Top shape: 125 16 16 16 (512000)
I0821 06:45:44.663622  1322 net.cpp:165] Memory required for data: 865793500
I0821 06:45:44.663633  1322 layer_factory.hpp:77] Creating layer L2_b1_cbr1_scale
I0821 06:45:44.663641  1322 net.cpp:100] Creating Layer L2_b1_cbr1_scale
I0821 06:45:44.663655  1322 net.cpp:434] L2_b1_cbr1_scale <- L2_b1_cbr1_bn_top
I0821 06:45:44.663662  1322 net.cpp:395] L2_b1_cbr1_scale -> L2_b1_cbr1_bn_top (in-place)
I0821 06:45:44.663720  1322 layer_factory.hpp:77] Creating layer L2_b1_cbr1_scale
I0821 06:45:44.663866  1322 net.cpp:150] Setting up L2_b1_cbr1_scale
I0821 06:45:44.663879  1322 net.cpp:157] Top shape: 125 16 16 16 (512000)
I0821 06:45:44.663884  1322 net.cpp:165] Memory required for data: 867841500
I0821 06:45:44.663893  1322 layer_factory.hpp:77] Creating layer L2_b1_cbr1_relu
I0821 06:45:44.663904  1322 net.cpp:100] Creating Layer L2_b1_cbr1_relu
I0821 06:45:44.663910  1322 net.cpp:434] L2_b1_cbr1_relu <- L2_b1_cbr1_bn_top
I0821 06:45:44.663918  1322 net.cpp:395] L2_b1_cbr1_relu -> L2_b1_cbr1_bn_top (in-place)
I0821 06:45:44.663926  1322 net.cpp:150] Setting up L2_b1_cbr1_relu
I0821 06:45:44.663933  1322 net.cpp:157] Top shape: 125 16 16 16 (512000)
I0821 06:45:44.663938  1322 net.cpp:165] Memory required for data: 869889500
I0821 06:45:44.663942  1322 layer_factory.hpp:77] Creating layer L2_b1_cbr2_conv
I0821 06:45:44.663956  1322 net.cpp:100] Creating Layer L2_b1_cbr2_conv
I0821 06:45:44.663962  1322 net.cpp:434] L2_b1_cbr2_conv <- L2_b1_cbr1_bn_top
I0821 06:45:44.663971  1322 net.cpp:408] L2_b1_cbr2_conv -> L2_b1_cbr2_conv_top
I0821 06:45:44.664294  1322 net.cpp:150] Setting up L2_b1_cbr2_conv
I0821 06:45:44.664307  1322 net.cpp:157] Top shape: 125 16 16 16 (512000)
I0821 06:45:44.664312  1322 net.cpp:165] Memory required for data: 871937500
I0821 06:45:44.664320  1322 layer_factory.hpp:77] Creating layer L2_b1_cbr2_bn
I0821 06:45:44.664332  1322 net.cpp:100] Creating Layer L2_b1_cbr2_bn
I0821 06:45:44.664338  1322 net.cpp:434] L2_b1_cbr2_bn <- L2_b1_cbr2_conv_top
I0821 06:45:44.664347  1322 net.cpp:408] L2_b1_cbr2_bn -> L2_b1_cbr2_bn_top
I0821 06:45:44.664592  1322 net.cpp:150] Setting up L2_b1_cbr2_bn
I0821 06:45:44.664607  1322 net.cpp:157] Top shape: 125 16 16 16 (512000)
I0821 06:45:44.664611  1322 net.cpp:165] Memory required for data: 873985500
I0821 06:45:44.664623  1322 layer_factory.hpp:77] Creating layer L2_b1_cbr2_scale
I0821 06:45:44.664630  1322 net.cpp:100] Creating Layer L2_b1_cbr2_scale
I0821 06:45:44.664636  1322 net.cpp:434] L2_b1_cbr2_scale <- L2_b1_cbr2_bn_top
I0821 06:45:44.664644  1322 net.cpp:395] L2_b1_cbr2_scale -> L2_b1_cbr2_bn_top (in-place)
I0821 06:45:44.664698  1322 layer_factory.hpp:77] Creating layer L2_b1_cbr2_scale
I0821 06:45:44.664852  1322 net.cpp:150] Setting up L2_b1_cbr2_scale
I0821 06:45:44.664865  1322 net.cpp:157] Top shape: 125 16 16 16 (512000)
I0821 06:45:44.664870  1322 net.cpp:165] Memory required for data: 876033500
I0821 06:45:44.664880  1322 layer_factory.hpp:77] Creating layer L2_b1_pool
I0821 06:45:44.664892  1322 net.cpp:100] Creating Layer L2_b1_pool
I0821 06:45:44.664898  1322 net.cpp:434] L2_b1_pool <- L1_b9_sum_eltwise_top_L1_b9_relu_0_split_1
I0821 06:45:44.664911  1322 net.cpp:408] L2_b1_pool -> L2_b1_pool
I0821 06:45:44.665000  1322 net.cpp:150] Setting up L2_b1_pool
I0821 06:45:44.665014  1322 net.cpp:157] Top shape: 125 16 16 16 (512000)
I0821 06:45:44.665020  1322 net.cpp:165] Memory required for data: 878081500
I0821 06:45:44.665025  1322 layer_factory.hpp:77] Creating layer L2_b1_sum_eltwise
I0821 06:45:44.665038  1322 net.cpp:100] Creating Layer L2_b1_sum_eltwise
I0821 06:45:44.665045  1322 net.cpp:434] L2_b1_sum_eltwise <- L2_b1_cbr2_bn_top
I0821 06:45:44.665052  1322 net.cpp:434] L2_b1_sum_eltwise <- L2_b1_pool
I0821 06:45:44.665060  1322 net.cpp:408] L2_b1_sum_eltwise -> L2_b1_sum_eltwise_top
I0821 06:45:44.665093  1322 net.cpp:150] Setting up L2_b1_sum_eltwise
I0821 06:45:44.665102  1322 net.cpp:157] Top shape: 125 16 16 16 (512000)
I0821 06:45:44.665107  1322 net.cpp:165] Memory required for data: 880129500
I0821 06:45:44.665112  1322 layer_factory.hpp:77] Creating layer L2_b1_relu
I0821 06:45:44.665119  1322 net.cpp:100] Creating Layer L2_b1_relu
I0821 06:45:44.665125  1322 net.cpp:434] L2_b1_relu <- L2_b1_sum_eltwise_top
I0821 06:45:44.665135  1322 net.cpp:395] L2_b1_relu -> L2_b1_sum_eltwise_top (in-place)
I0821 06:45:44.665153  1322 net.cpp:150] Setting up L2_b1_relu
I0821 06:45:44.665159  1322 net.cpp:157] Top shape: 125 16 16 16 (512000)
I0821 06:45:44.665164  1322 net.cpp:165] Memory required for data: 882177500
I0821 06:45:44.665169  1322 layer_factory.hpp:77] Creating layer L2_b1_zeros
I0821 06:45:44.665225  1322 net.cpp:100] Creating Layer L2_b1_zeros
I0821 06:45:44.665240  1322 net.cpp:408] L2_b1_zeros -> L2_b1_zeros
I0821 06:45:44.667611  1322 net.cpp:150] Setting up L2_b1_zeros
I0821 06:45:44.667629  1322 net.cpp:157] Top shape: 125 16 16 16 (512000)
I0821 06:45:44.667635  1322 net.cpp:165] Memory required for data: 884225500
I0821 06:45:44.667641  1322 layer_factory.hpp:77] Creating layer L2_b1_concat0
I0821 06:45:44.667659  1322 net.cpp:100] Creating Layer L2_b1_concat0
I0821 06:45:44.667665  1322 net.cpp:434] L2_b1_concat0 <- L2_b1_sum_eltwise_top
I0821 06:45:44.667672  1322 net.cpp:434] L2_b1_concat0 <- L2_b1_zeros
I0821 06:45:44.667680  1322 net.cpp:408] L2_b1_concat0 -> L2_b1_concat0
I0821 06:45:44.667763  1322 net.cpp:150] Setting up L2_b1_concat0
I0821 06:45:44.667778  1322 net.cpp:157] Top shape: 125 32 16 16 (1024000)
I0821 06:45:44.667783  1322 net.cpp:165] Memory required for data: 888321500
I0821 06:45:44.667789  1322 layer_factory.hpp:77] Creating layer L2_b1_concat0_L2_b1_concat0_0_split
I0821 06:45:44.667798  1322 net.cpp:100] Creating Layer L2_b1_concat0_L2_b1_concat0_0_split
I0821 06:45:44.667804  1322 net.cpp:434] L2_b1_concat0_L2_b1_concat0_0_split <- L2_b1_concat0
I0821 06:45:44.667814  1322 net.cpp:408] L2_b1_concat0_L2_b1_concat0_0_split -> L2_b1_concat0_L2_b1_concat0_0_split_0
I0821 06:45:44.667825  1322 net.cpp:408] L2_b1_concat0_L2_b1_concat0_0_split -> L2_b1_concat0_L2_b1_concat0_0_split_1
I0821 06:45:44.667882  1322 net.cpp:150] Setting up L2_b1_concat0_L2_b1_concat0_0_split
I0821 06:45:44.667896  1322 net.cpp:157] Top shape: 125 32 16 16 (1024000)
I0821 06:45:44.667904  1322 net.cpp:157] Top shape: 125 32 16 16 (1024000)
I0821 06:45:44.667908  1322 net.cpp:165] Memory required for data: 896513500
I0821 06:45:44.667914  1322 layer_factory.hpp:77] Creating layer L2_b2_cbr1_conv
I0821 06:45:44.667925  1322 net.cpp:100] Creating Layer L2_b2_cbr1_conv
I0821 06:45:44.667932  1322 net.cpp:434] L2_b2_cbr1_conv <- L2_b1_concat0_L2_b1_concat0_0_split_0
I0821 06:45:44.667942  1322 net.cpp:408] L2_b2_cbr1_conv -> L2_b2_cbr1_conv_top
I0821 06:45:44.669386  1322 net.cpp:150] Setting up L2_b2_cbr1_conv
I0821 06:45:44.669404  1322 net.cpp:157] Top shape: 125 32 16 16 (1024000)
I0821 06:45:44.669409  1322 net.cpp:165] Memory required for data: 900609500
I0821 06:45:44.669419  1322 layer_factory.hpp:77] Creating layer L2_b2_cbr1_bn
I0821 06:45:44.669431  1322 net.cpp:100] Creating Layer L2_b2_cbr1_bn
I0821 06:45:44.669438  1322 net.cpp:434] L2_b2_cbr1_bn <- L2_b2_cbr1_conv_top
I0821 06:45:44.669450  1322 net.cpp:408] L2_b2_cbr1_bn -> L2_b2_cbr1_bn_top
I0821 06:45:44.669693  1322 net.cpp:150] Setting up L2_b2_cbr1_bn
I0821 06:45:44.669706  1322 net.cpp:157] Top shape: 125 32 16 16 (1024000)
I0821 06:45:44.669711  1322 net.cpp:165] Memory required for data: 904705500
I0821 06:45:44.669723  1322 layer_factory.hpp:77] Creating layer L2_b2_cbr1_scale
I0821 06:45:44.669731  1322 net.cpp:100] Creating Layer L2_b2_cbr1_scale
I0821 06:45:44.669737  1322 net.cpp:434] L2_b2_cbr1_scale <- L2_b2_cbr1_bn_top
I0821 06:45:44.669745  1322 net.cpp:395] L2_b2_cbr1_scale -> L2_b2_cbr1_bn_top (in-place)
I0821 06:45:44.669803  1322 layer_factory.hpp:77] Creating layer L2_b2_cbr1_scale
I0821 06:45:44.669955  1322 net.cpp:150] Setting up L2_b2_cbr1_scale
I0821 06:45:44.669970  1322 net.cpp:157] Top shape: 125 32 16 16 (1024000)
I0821 06:45:44.669975  1322 net.cpp:165] Memory required for data: 908801500
I0821 06:45:44.669983  1322 layer_factory.hpp:77] Creating layer L2_b2_cbr1_relu
I0821 06:45:44.669994  1322 net.cpp:100] Creating Layer L2_b2_cbr1_relu
I0821 06:45:44.670001  1322 net.cpp:434] L2_b2_cbr1_relu <- L2_b2_cbr1_bn_top
I0821 06:45:44.670008  1322 net.cpp:395] L2_b2_cbr1_relu -> L2_b2_cbr1_bn_top (in-place)
I0821 06:45:44.670027  1322 net.cpp:150] Setting up L2_b2_cbr1_relu
I0821 06:45:44.670034  1322 net.cpp:157] Top shape: 125 32 16 16 (1024000)
I0821 06:45:44.670038  1322 net.cpp:165] Memory required for data: 912897500
I0821 06:45:44.670043  1322 layer_factory.hpp:77] Creating layer L2_b2_cbr2_conv
I0821 06:45:44.670058  1322 net.cpp:100] Creating Layer L2_b2_cbr2_conv
I0821 06:45:44.670064  1322 net.cpp:434] L2_b2_cbr2_conv <- L2_b2_cbr1_bn_top
I0821 06:45:44.670075  1322 net.cpp:408] L2_b2_cbr2_conv -> L2_b2_cbr2_conv_top
I0821 06:45:44.670539  1322 net.cpp:150] Setting up L2_b2_cbr2_conv
I0821 06:45:44.670554  1322 net.cpp:157] Top shape: 125 32 16 16 (1024000)
I0821 06:45:44.670558  1322 net.cpp:165] Memory required for data: 916993500
I0821 06:45:44.670567  1322 layer_factory.hpp:77] Creating layer L2_b2_cbr2_bn
I0821 06:45:44.670580  1322 net.cpp:100] Creating Layer L2_b2_cbr2_bn
I0821 06:45:44.670586  1322 net.cpp:434] L2_b2_cbr2_bn <- L2_b2_cbr2_conv_top
I0821 06:45:44.670598  1322 net.cpp:408] L2_b2_cbr2_bn -> L2_b2_cbr2_bn_top
I0821 06:45:44.670850  1322 net.cpp:150] Setting up L2_b2_cbr2_bn
I0821 06:45:44.670863  1322 net.cpp:157] Top shape: 125 32 16 16 (1024000)
I0821 06:45:44.670868  1322 net.cpp:165] Memory required for data: 921089500
I0821 06:45:44.670879  1322 layer_factory.hpp:77] Creating layer L2_b2_cbr2_scale
I0821 06:45:44.670888  1322 net.cpp:100] Creating Layer L2_b2_cbr2_scale
I0821 06:45:44.670893  1322 net.cpp:434] L2_b2_cbr2_scale <- L2_b2_cbr2_bn_top
I0821 06:45:44.670902  1322 net.cpp:395] L2_b2_cbr2_scale -> L2_b2_cbr2_bn_top (in-place)
I0821 06:45:44.670959  1322 layer_factory.hpp:77] Creating layer L2_b2_cbr2_scale
I0821 06:45:44.671103  1322 net.cpp:150] Setting up L2_b2_cbr2_scale
I0821 06:45:44.671115  1322 net.cpp:157] Top shape: 125 32 16 16 (1024000)
I0821 06:45:44.671120  1322 net.cpp:165] Memory required for data: 925185500
I0821 06:45:44.671129  1322 layer_factory.hpp:77] Creating layer L2_b2_sum_eltwise
I0821 06:45:44.671141  1322 net.cpp:100] Creating Layer L2_b2_sum_eltwise
I0821 06:45:44.671147  1322 net.cpp:434] L2_b2_sum_eltwise <- L2_b2_cbr2_bn_top
I0821 06:45:44.671154  1322 net.cpp:434] L2_b2_sum_eltwise <- L2_b1_concat0_L2_b1_concat0_0_split_1
I0821 06:45:44.671162  1322 net.cpp:408] L2_b2_sum_eltwise -> L2_b2_sum_eltwise_top
I0821 06:45:44.671190  1322 net.cpp:150] Setting up L2_b2_sum_eltwise
I0821 06:45:44.671198  1322 net.cpp:157] Top shape: 125 32 16 16 (1024000)
I0821 06:45:44.671203  1322 net.cpp:165] Memory required for data: 929281500
I0821 06:45:44.671208  1322 layer_factory.hpp:77] Creating layer L2_b2_relu
I0821 06:45:44.671219  1322 net.cpp:100] Creating Layer L2_b2_relu
I0821 06:45:44.671226  1322 net.cpp:434] L2_b2_relu <- L2_b2_sum_eltwise_top
I0821 06:45:44.671232  1322 net.cpp:395] L2_b2_relu -> L2_b2_sum_eltwise_top (in-place)
I0821 06:45:44.671241  1322 net.cpp:150] Setting up L2_b2_relu
I0821 06:45:44.671248  1322 net.cpp:157] Top shape: 125 32 16 16 (1024000)
I0821 06:45:44.671253  1322 net.cpp:165] Memory required for data: 933377500
I0821 06:45:44.671258  1322 layer_factory.hpp:77] Creating layer L2_b2_sum_eltwise_top_L2_b2_relu_0_split
I0821 06:45:44.671265  1322 net.cpp:100] Creating Layer L2_b2_sum_eltwise_top_L2_b2_relu_0_split
I0821 06:45:44.671272  1322 net.cpp:434] L2_b2_sum_eltwise_top_L2_b2_relu_0_split <- L2_b2_sum_eltwise_top
I0821 06:45:44.671278  1322 net.cpp:408] L2_b2_sum_eltwise_top_L2_b2_relu_0_split -> L2_b2_sum_eltwise_top_L2_b2_relu_0_split_0
I0821 06:45:44.671288  1322 net.cpp:408] L2_b2_sum_eltwise_top_L2_b2_relu_0_split -> L2_b2_sum_eltwise_top_L2_b2_relu_0_split_1
I0821 06:45:44.671334  1322 net.cpp:150] Setting up L2_b2_sum_eltwise_top_L2_b2_relu_0_split
I0821 06:45:44.671346  1322 net.cpp:157] Top shape: 125 32 16 16 (1024000)
I0821 06:45:44.671352  1322 net.cpp:157] Top shape: 125 32 16 16 (1024000)
I0821 06:45:44.671357  1322 net.cpp:165] Memory required for data: 941569500
I0821 06:45:44.671362  1322 layer_factory.hpp:77] Creating layer L2_b3_cbr1_conv
I0821 06:45:44.671383  1322 net.cpp:100] Creating Layer L2_b3_cbr1_conv
I0821 06:45:44.671391  1322 net.cpp:434] L2_b3_cbr1_conv <- L2_b2_sum_eltwise_top_L2_b2_relu_0_split_0
I0821 06:45:44.671401  1322 net.cpp:408] L2_b3_cbr1_conv -> L2_b3_cbr1_conv_top
I0821 06:45:44.671871  1322 net.cpp:150] Setting up L2_b3_cbr1_conv
I0821 06:45:44.671886  1322 net.cpp:157] Top shape: 125 32 16 16 (1024000)
I0821 06:45:44.671891  1322 net.cpp:165] Memory required for data: 945665500
I0821 06:45:44.671900  1322 layer_factory.hpp:77] Creating layer L2_b3_cbr1_bn
I0821 06:45:44.671912  1322 net.cpp:100] Creating Layer L2_b3_cbr1_bn
I0821 06:45:44.671919  1322 net.cpp:434] L2_b3_cbr1_bn <- L2_b3_cbr1_conv_top
I0821 06:45:44.671931  1322 net.cpp:408] L2_b3_cbr1_bn -> L2_b3_cbr1_bn_top
I0821 06:45:44.672174  1322 net.cpp:150] Setting up L2_b3_cbr1_bn
I0821 06:45:44.672188  1322 net.cpp:157] Top shape: 125 32 16 16 (1024000)
I0821 06:45:44.672193  1322 net.cpp:165] Memory required for data: 949761500
I0821 06:45:44.672202  1322 layer_factory.hpp:77] Creating layer L2_b3_cbr1_scale
I0821 06:45:44.672211  1322 net.cpp:100] Creating Layer L2_b3_cbr1_scale
I0821 06:45:44.672216  1322 net.cpp:434] L2_b3_cbr1_scale <- L2_b3_cbr1_bn_top
I0821 06:45:44.672224  1322 net.cpp:395] L2_b3_cbr1_scale -> L2_b3_cbr1_bn_top (in-place)
I0821 06:45:44.672282  1322 layer_factory.hpp:77] Creating layer L2_b3_cbr1_scale
I0821 06:45:44.672430  1322 net.cpp:150] Setting up L2_b3_cbr1_scale
I0821 06:45:44.672442  1322 net.cpp:157] Top shape: 125 32 16 16 (1024000)
I0821 06:45:44.672447  1322 net.cpp:165] Memory required for data: 953857500
I0821 06:45:44.672456  1322 layer_factory.hpp:77] Creating layer L2_b3_cbr1_relu
I0821 06:45:44.672467  1322 net.cpp:100] Creating Layer L2_b3_cbr1_relu
I0821 06:45:44.672473  1322 net.cpp:434] L2_b3_cbr1_relu <- L2_b3_cbr1_bn_top
I0821 06:45:44.672482  1322 net.cpp:395] L2_b3_cbr1_relu -> L2_b3_cbr1_bn_top (in-place)
I0821 06:45:44.672490  1322 net.cpp:150] Setting up L2_b3_cbr1_relu
I0821 06:45:44.672497  1322 net.cpp:157] Top shape: 125 32 16 16 (1024000)
I0821 06:45:44.672502  1322 net.cpp:165] Memory required for data: 957953500
I0821 06:45:44.672508  1322 layer_factory.hpp:77] Creating layer L2_b3_cbr2_conv
I0821 06:45:44.672521  1322 net.cpp:100] Creating Layer L2_b3_cbr2_conv
I0821 06:45:44.672528  1322 net.cpp:434] L2_b3_cbr2_conv <- L2_b3_cbr1_bn_top
I0821 06:45:44.672536  1322 net.cpp:408] L2_b3_cbr2_conv -> L2_b3_cbr2_conv_top
I0821 06:45:44.673002  1322 net.cpp:150] Setting up L2_b3_cbr2_conv
I0821 06:45:44.673015  1322 net.cpp:157] Top shape: 125 32 16 16 (1024000)
I0821 06:45:44.673020  1322 net.cpp:165] Memory required for data: 962049500
I0821 06:45:44.673029  1322 layer_factory.hpp:77] Creating layer L2_b3_cbr2_bn
I0821 06:45:44.673041  1322 net.cpp:100] Creating Layer L2_b3_cbr2_bn
I0821 06:45:44.673048  1322 net.cpp:434] L2_b3_cbr2_bn <- L2_b3_cbr2_conv_top
I0821 06:45:44.673056  1322 net.cpp:408] L2_b3_cbr2_bn -> L2_b3_cbr2_bn_top
I0821 06:45:44.673303  1322 net.cpp:150] Setting up L2_b3_cbr2_bn
I0821 06:45:44.673319  1322 net.cpp:157] Top shape: 125 32 16 16 (1024000)
I0821 06:45:44.673324  1322 net.cpp:165] Memory required for data: 966145500
I0821 06:45:44.673334  1322 layer_factory.hpp:77] Creating layer L2_b3_cbr2_scale
I0821 06:45:44.673343  1322 net.cpp:100] Creating Layer L2_b3_cbr2_scale
I0821 06:45:44.673349  1322 net.cpp:434] L2_b3_cbr2_scale <- L2_b3_cbr2_bn_top
I0821 06:45:44.673357  1322 net.cpp:395] L2_b3_cbr2_scale -> L2_b3_cbr2_bn_top (in-place)
I0821 06:45:44.673411  1322 layer_factory.hpp:77] Creating layer L2_b3_cbr2_scale
I0821 06:45:44.673560  1322 net.cpp:150] Setting up L2_b3_cbr2_scale
I0821 06:45:44.673573  1322 net.cpp:157] Top shape: 125 32 16 16 (1024000)
I0821 06:45:44.673578  1322 net.cpp:165] Memory required for data: 970241500
I0821 06:45:44.673586  1322 layer_factory.hpp:77] Creating layer L2_b3_sum_eltwise
I0821 06:45:44.673595  1322 net.cpp:100] Creating Layer L2_b3_sum_eltwise
I0821 06:45:44.673601  1322 net.cpp:434] L2_b3_sum_eltwise <- L2_b3_cbr2_bn_top
I0821 06:45:44.673609  1322 net.cpp:434] L2_b3_sum_eltwise <- L2_b2_sum_eltwise_top_L2_b2_relu_0_split_1
I0821 06:45:44.673630  1322 net.cpp:408] L2_b3_sum_eltwise -> L2_b3_sum_eltwise_top
I0821 06:45:44.673658  1322 net.cpp:150] Setting up L2_b3_sum_eltwise
I0821 06:45:44.673668  1322 net.cpp:157] Top shape: 125 32 16 16 (1024000)
I0821 06:45:44.673672  1322 net.cpp:165] Memory required for data: 974337500
I0821 06:45:44.673677  1322 layer_factory.hpp:77] Creating layer L2_b3_relu
I0821 06:45:44.673701  1322 net.cpp:100] Creating Layer L2_b3_relu
I0821 06:45:44.673707  1322 net.cpp:434] L2_b3_relu <- L2_b3_sum_eltwise_top
I0821 06:45:44.673714  1322 net.cpp:395] L2_b3_relu -> L2_b3_sum_eltwise_top (in-place)
I0821 06:45:44.673724  1322 net.cpp:150] Setting up L2_b3_relu
I0821 06:45:44.673732  1322 net.cpp:157] Top shape: 125 32 16 16 (1024000)
I0821 06:45:44.673735  1322 net.cpp:165] Memory required for data: 978433500
I0821 06:45:44.673741  1322 layer_factory.hpp:77] Creating layer L2_b3_sum_eltwise_top_L2_b3_relu_0_split
I0821 06:45:44.673748  1322 net.cpp:100] Creating Layer L2_b3_sum_eltwise_top_L2_b3_relu_0_split
I0821 06:45:44.673753  1322 net.cpp:434] L2_b3_sum_eltwise_top_L2_b3_relu_0_split <- L2_b3_sum_eltwise_top
I0821 06:45:44.673760  1322 net.cpp:408] L2_b3_sum_eltwise_top_L2_b3_relu_0_split -> L2_b3_sum_eltwise_top_L2_b3_relu_0_split_0
I0821 06:45:44.673770  1322 net.cpp:408] L2_b3_sum_eltwise_top_L2_b3_relu_0_split -> L2_b3_sum_eltwise_top_L2_b3_relu_0_split_1
I0821 06:45:44.673818  1322 net.cpp:150] Setting up L2_b3_sum_eltwise_top_L2_b3_relu_0_split
I0821 06:45:44.673835  1322 net.cpp:157] Top shape: 125 32 16 16 (1024000)
I0821 06:45:44.673842  1322 net.cpp:157] Top shape: 125 32 16 16 (1024000)
I0821 06:45:44.673846  1322 net.cpp:165] Memory required for data: 986625500
I0821 06:45:44.673852  1322 layer_factory.hpp:77] Creating layer L2_b4_cbr1_conv
I0821 06:45:44.673863  1322 net.cpp:100] Creating Layer L2_b4_cbr1_conv
I0821 06:45:44.673869  1322 net.cpp:434] L2_b4_cbr1_conv <- L2_b3_sum_eltwise_top_L2_b3_relu_0_split_0
I0821 06:45:44.673882  1322 net.cpp:408] L2_b4_cbr1_conv -> L2_b4_cbr1_conv_top
I0821 06:45:44.674341  1322 net.cpp:150] Setting up L2_b4_cbr1_conv
I0821 06:45:44.674355  1322 net.cpp:157] Top shape: 125 32 16 16 (1024000)
I0821 06:45:44.674360  1322 net.cpp:165] Memory required for data: 990721500
I0821 06:45:44.674370  1322 layer_factory.hpp:77] Creating layer L2_b4_cbr1_bn
I0821 06:45:44.674378  1322 net.cpp:100] Creating Layer L2_b4_cbr1_bn
I0821 06:45:44.674384  1322 net.cpp:434] L2_b4_cbr1_bn <- L2_b4_cbr1_conv_top
I0821 06:45:44.674397  1322 net.cpp:408] L2_b4_cbr1_bn -> L2_b4_cbr1_bn_top
I0821 06:45:44.674643  1322 net.cpp:150] Setting up L2_b4_cbr1_bn
I0821 06:45:44.674656  1322 net.cpp:157] Top shape: 125 32 16 16 (1024000)
I0821 06:45:44.674661  1322 net.cpp:165] Memory required for data: 994817500
I0821 06:45:44.674671  1322 layer_factory.hpp:77] Creating layer L2_b4_cbr1_scale
I0821 06:45:44.674684  1322 net.cpp:100] Creating Layer L2_b4_cbr1_scale
I0821 06:45:44.674690  1322 net.cpp:434] L2_b4_cbr1_scale <- L2_b4_cbr1_bn_top
I0821 06:45:44.674696  1322 net.cpp:395] L2_b4_cbr1_scale -> L2_b4_cbr1_bn_top (in-place)
I0821 06:45:44.674751  1322 layer_factory.hpp:77] Creating layer L2_b4_cbr1_scale
I0821 06:45:44.674903  1322 net.cpp:150] Setting up L2_b4_cbr1_scale
I0821 06:45:44.674916  1322 net.cpp:157] Top shape: 125 32 16 16 (1024000)
I0821 06:45:44.674921  1322 net.cpp:165] Memory required for data: 998913500
I0821 06:45:44.674931  1322 layer_factory.hpp:77] Creating layer L2_b4_cbr1_relu
I0821 06:45:44.674942  1322 net.cpp:100] Creating Layer L2_b4_cbr1_relu
I0821 06:45:44.674947  1322 net.cpp:434] L2_b4_cbr1_relu <- L2_b4_cbr1_bn_top
I0821 06:45:44.674955  1322 net.cpp:395] L2_b4_cbr1_relu -> L2_b4_cbr1_bn_top (in-place)
I0821 06:45:44.674964  1322 net.cpp:150] Setting up L2_b4_cbr1_relu
I0821 06:45:44.674974  1322 net.cpp:157] Top shape: 125 32 16 16 (1024000)
I0821 06:45:44.674979  1322 net.cpp:165] Memory required for data: 1003009500
I0821 06:45:44.674984  1322 layer_factory.hpp:77] Creating layer L2_b4_cbr2_conv
I0821 06:45:44.675002  1322 net.cpp:100] Creating Layer L2_b4_cbr2_conv
I0821 06:45:44.675009  1322 net.cpp:434] L2_b4_cbr2_conv <- L2_b4_cbr1_bn_top
I0821 06:45:44.675019  1322 net.cpp:408] L2_b4_cbr2_conv -> L2_b4_cbr2_conv_top
I0821 06:45:44.675475  1322 net.cpp:150] Setting up L2_b4_cbr2_conv
I0821 06:45:44.675490  1322 net.cpp:157] Top shape: 125 32 16 16 (1024000)
I0821 06:45:44.675495  1322 net.cpp:165] Memory required for data: 1007105500
I0821 06:45:44.675503  1322 layer_factory.hpp:77] Creating layer L2_b4_cbr2_bn
I0821 06:45:44.675513  1322 net.cpp:100] Creating Layer L2_b4_cbr2_bn
I0821 06:45:44.675519  1322 net.cpp:434] L2_b4_cbr2_bn <- L2_b4_cbr2_conv_top
I0821 06:45:44.675532  1322 net.cpp:408] L2_b4_cbr2_bn -> L2_b4_cbr2_bn_top
I0821 06:45:44.675775  1322 net.cpp:150] Setting up L2_b4_cbr2_bn
I0821 06:45:44.675786  1322 net.cpp:157] Top shape: 125 32 16 16 (1024000)
I0821 06:45:44.675791  1322 net.cpp:165] Memory required for data: 1011201500
I0821 06:45:44.675801  1322 layer_factory.hpp:77] Creating layer L2_b4_cbr2_scale
I0821 06:45:44.675812  1322 net.cpp:100] Creating Layer L2_b4_cbr2_scale
I0821 06:45:44.675819  1322 net.cpp:434] L2_b4_cbr2_scale <- L2_b4_cbr2_bn_top
I0821 06:45:44.675827  1322 net.cpp:395] L2_b4_cbr2_scale -> L2_b4_cbr2_bn_top (in-place)
I0821 06:45:44.675887  1322 layer_factory.hpp:77] Creating layer L2_b4_cbr2_scale
I0821 06:45:44.676033  1322 net.cpp:150] Setting up L2_b4_cbr2_scale
I0821 06:45:44.676045  1322 net.cpp:157] Top shape: 125 32 16 16 (1024000)
I0821 06:45:44.676050  1322 net.cpp:165] Memory required for data: 1015297500
I0821 06:45:44.676059  1322 layer_factory.hpp:77] Creating layer L2_b4_sum_eltwise
I0821 06:45:44.676074  1322 net.cpp:100] Creating Layer L2_b4_sum_eltwise
I0821 06:45:44.676079  1322 net.cpp:434] L2_b4_sum_eltwise <- L2_b4_cbr2_bn_top
I0821 06:45:44.676086  1322 net.cpp:434] L2_b4_sum_eltwise <- L2_b3_sum_eltwise_top_L2_b3_relu_0_split_1
I0821 06:45:44.676095  1322 net.cpp:408] L2_b4_sum_eltwise -> L2_b4_sum_eltwise_top
I0821 06:45:44.676125  1322 net.cpp:150] Setting up L2_b4_sum_eltwise
I0821 06:45:44.676133  1322 net.cpp:157] Top shape: 125 32 16 16 (1024000)
I0821 06:45:44.676138  1322 net.cpp:165] Memory required for data: 1019393500
I0821 06:45:44.676143  1322 layer_factory.hpp:77] Creating layer L2_b4_relu
I0821 06:45:44.676151  1322 net.cpp:100] Creating Layer L2_b4_relu
I0821 06:45:44.676156  1322 net.cpp:434] L2_b4_relu <- L2_b4_sum_eltwise_top
I0821 06:45:44.676167  1322 net.cpp:395] L2_b4_relu -> L2_b4_sum_eltwise_top (in-place)
I0821 06:45:44.676177  1322 net.cpp:150] Setting up L2_b4_relu
I0821 06:45:44.676183  1322 net.cpp:157] Top shape: 125 32 16 16 (1024000)
I0821 06:45:44.676187  1322 net.cpp:165] Memory required for data: 1023489500
I0821 06:45:44.676192  1322 layer_factory.hpp:77] Creating layer L2_b4_sum_eltwise_top_L2_b4_relu_0_split
I0821 06:45:44.676199  1322 net.cpp:100] Creating Layer L2_b4_sum_eltwise_top_L2_b4_relu_0_split
I0821 06:45:44.676204  1322 net.cpp:434] L2_b4_sum_eltwise_top_L2_b4_relu_0_split <- L2_b4_sum_eltwise_top
I0821 06:45:44.676213  1322 net.cpp:408] L2_b4_sum_eltwise_top_L2_b4_relu_0_split -> L2_b4_sum_eltwise_top_L2_b4_relu_0_split_0
I0821 06:45:44.676221  1322 net.cpp:408] L2_b4_sum_eltwise_top_L2_b4_relu_0_split -> L2_b4_sum_eltwise_top_L2_b4_relu_0_split_1
I0821 06:45:44.676267  1322 net.cpp:150] Setting up L2_b4_sum_eltwise_top_L2_b4_relu_0_split
I0821 06:45:44.676278  1322 net.cpp:157] Top shape: 125 32 16 16 (1024000)
I0821 06:45:44.676285  1322 net.cpp:157] Top shape: 125 32 16 16 (1024000)
I0821 06:45:44.676290  1322 net.cpp:165] Memory required for data: 1031681500
I0821 06:45:44.676295  1322 layer_factory.hpp:77] Creating layer L2_b5_cbr1_conv
I0821 06:45:44.676306  1322 net.cpp:100] Creating Layer L2_b5_cbr1_conv
I0821 06:45:44.676311  1322 net.cpp:434] L2_b5_cbr1_conv <- L2_b4_sum_eltwise_top_L2_b4_relu_0_split_0
I0821 06:45:44.676323  1322 net.cpp:408] L2_b5_cbr1_conv -> L2_b5_cbr1_conv_top
I0821 06:45:44.676779  1322 net.cpp:150] Setting up L2_b5_cbr1_conv
I0821 06:45:44.676800  1322 net.cpp:157] Top shape: 125 32 16 16 (1024000)
I0821 06:45:44.676805  1322 net.cpp:165] Memory required for data: 1035777500
I0821 06:45:44.676813  1322 layer_factory.hpp:77] Creating layer L2_b5_cbr1_bn
I0821 06:45:44.676822  1322 net.cpp:100] Creating Layer L2_b5_cbr1_bn
I0821 06:45:44.676833  1322 net.cpp:434] L2_b5_cbr1_bn <- L2_b5_cbr1_conv_top
I0821 06:45:44.676846  1322 net.cpp:408] L2_b5_cbr1_bn -> L2_b5_cbr1_bn_top
I0821 06:45:44.677095  1322 net.cpp:150] Setting up L2_b5_cbr1_bn
I0821 06:45:44.677109  1322 net.cpp:157] Top shape: 125 32 16 16 (1024000)
I0821 06:45:44.677114  1322 net.cpp:165] Memory required for data: 1039873500
I0821 06:45:44.677124  1322 layer_factory.hpp:77] Creating layer L2_b5_cbr1_scale
I0821 06:45:44.677135  1322 net.cpp:100] Creating Layer L2_b5_cbr1_scale
I0821 06:45:44.677141  1322 net.cpp:434] L2_b5_cbr1_scale <- L2_b5_cbr1_bn_top
I0821 06:45:44.677150  1322 net.cpp:395] L2_b5_cbr1_scale -> L2_b5_cbr1_bn_top (in-place)
I0821 06:45:44.677203  1322 layer_factory.hpp:77] Creating layer L2_b5_cbr1_scale
I0821 06:45:44.677351  1322 net.cpp:150] Setting up L2_b5_cbr1_scale
I0821 06:45:44.677363  1322 net.cpp:157] Top shape: 125 32 16 16 (1024000)
I0821 06:45:44.677368  1322 net.cpp:165] Memory required for data: 1043969500
I0821 06:45:44.677377  1322 layer_factory.hpp:77] Creating layer L2_b5_cbr1_relu
I0821 06:45:44.677388  1322 net.cpp:100] Creating Layer L2_b5_cbr1_relu
I0821 06:45:44.677395  1322 net.cpp:434] L2_b5_cbr1_relu <- L2_b5_cbr1_bn_top
I0821 06:45:44.677402  1322 net.cpp:395] L2_b5_cbr1_relu -> L2_b5_cbr1_bn_top (in-place)
I0821 06:45:44.677412  1322 net.cpp:150] Setting up L2_b5_cbr1_relu
I0821 06:45:44.677419  1322 net.cpp:157] Top shape: 125 32 16 16 (1024000)
I0821 06:45:44.677423  1322 net.cpp:165] Memory required for data: 1048065500
I0821 06:45:44.677428  1322 layer_factory.hpp:77] Creating layer L2_b5_cbr2_conv
I0821 06:45:44.677443  1322 net.cpp:100] Creating Layer L2_b5_cbr2_conv
I0821 06:45:44.677448  1322 net.cpp:434] L2_b5_cbr2_conv <- L2_b5_cbr1_bn_top
I0821 06:45:44.677459  1322 net.cpp:408] L2_b5_cbr2_conv -> L2_b5_cbr2_conv_top
I0821 06:45:44.677919  1322 net.cpp:150] Setting up L2_b5_cbr2_conv
I0821 06:45:44.677934  1322 net.cpp:157] Top shape: 125 32 16 16 (1024000)
I0821 06:45:44.677939  1322 net.cpp:165] Memory required for data: 1052161500
I0821 06:45:44.677947  1322 layer_factory.hpp:77] Creating layer L2_b5_cbr2_bn
I0821 06:45:44.677958  1322 net.cpp:100] Creating Layer L2_b5_cbr2_bn
I0821 06:45:44.677963  1322 net.cpp:434] L2_b5_cbr2_bn <- L2_b5_cbr2_conv_top
I0821 06:45:44.677974  1322 net.cpp:408] L2_b5_cbr2_bn -> L2_b5_cbr2_bn_top
I0821 06:45:44.678223  1322 net.cpp:150] Setting up L2_b5_cbr2_bn
I0821 06:45:44.678236  1322 net.cpp:157] Top shape: 125 32 16 16 (1024000)
I0821 06:45:44.678241  1322 net.cpp:165] Memory required for data: 1056257500
I0821 06:45:44.678252  1322 layer_factory.hpp:77] Creating layer L2_b5_cbr2_scale
I0821 06:45:44.678263  1322 net.cpp:100] Creating Layer L2_b5_cbr2_scale
I0821 06:45:44.678269  1322 net.cpp:434] L2_b5_cbr2_scale <- L2_b5_cbr2_bn_top
I0821 06:45:44.678277  1322 net.cpp:395] L2_b5_cbr2_scale -> L2_b5_cbr2_bn_top (in-place)
I0821 06:45:44.678333  1322 layer_factory.hpp:77] Creating layer L2_b5_cbr2_scale
I0821 06:45:44.678479  1322 net.cpp:150] Setting up L2_b5_cbr2_scale
I0821 06:45:44.678491  1322 net.cpp:157] Top shape: 125 32 16 16 (1024000)
I0821 06:45:44.678496  1322 net.cpp:165] Memory required for data: 1060353500
I0821 06:45:44.678505  1322 layer_factory.hpp:77] Creating layer L2_b5_sum_eltwise
I0821 06:45:44.678515  1322 net.cpp:100] Creating Layer L2_b5_sum_eltwise
I0821 06:45:44.678521  1322 net.cpp:434] L2_b5_sum_eltwise <- L2_b5_cbr2_bn_top
I0821 06:45:44.678530  1322 net.cpp:434] L2_b5_sum_eltwise <- L2_b4_sum_eltwise_top_L2_b4_relu_0_split_1
I0821 06:45:44.678539  1322 net.cpp:408] L2_b5_sum_eltwise -> L2_b5_sum_eltwise_top
I0821 06:45:44.678565  1322 net.cpp:150] Setting up L2_b5_sum_eltwise
I0821 06:45:44.678577  1322 net.cpp:157] Top shape: 125 32 16 16 (1024000)
I0821 06:45:44.678591  1322 net.cpp:165] Memory required for data: 1064449500
I0821 06:45:44.678596  1322 layer_factory.hpp:77] Creating layer L2_b5_relu
I0821 06:45:44.678604  1322 net.cpp:100] Creating Layer L2_b5_relu
I0821 06:45:44.678609  1322 net.cpp:434] L2_b5_relu <- L2_b5_sum_eltwise_top
I0821 06:45:44.678617  1322 net.cpp:395] L2_b5_relu -> L2_b5_sum_eltwise_top (in-place)
I0821 06:45:44.678627  1322 net.cpp:150] Setting up L2_b5_relu
I0821 06:45:44.678633  1322 net.cpp:157] Top shape: 125 32 16 16 (1024000)
I0821 06:45:44.678637  1322 net.cpp:165] Memory required for data: 1068545500
I0821 06:45:44.678642  1322 layer_factory.hpp:77] Creating layer L2_b5_sum_eltwise_top_L2_b5_relu_0_split
I0821 06:45:44.678653  1322 net.cpp:100] Creating Layer L2_b5_sum_eltwise_top_L2_b5_relu_0_split
I0821 06:45:44.678658  1322 net.cpp:434] L2_b5_sum_eltwise_top_L2_b5_relu_0_split <- L2_b5_sum_eltwise_top
I0821 06:45:44.678665  1322 net.cpp:408] L2_b5_sum_eltwise_top_L2_b5_relu_0_split -> L2_b5_sum_eltwise_top_L2_b5_relu_0_split_0
I0821 06:45:44.678675  1322 net.cpp:408] L2_b5_sum_eltwise_top_L2_b5_relu_0_split -> L2_b5_sum_eltwise_top_L2_b5_relu_0_split_1
I0821 06:45:44.678722  1322 net.cpp:150] Setting up L2_b5_sum_eltwise_top_L2_b5_relu_0_split
I0821 06:45:44.678735  1322 net.cpp:157] Top shape: 125 32 16 16 (1024000)
I0821 06:45:44.678740  1322 net.cpp:157] Top shape: 125 32 16 16 (1024000)
I0821 06:45:44.678745  1322 net.cpp:165] Memory required for data: 1076737500
I0821 06:45:44.678750  1322 layer_factory.hpp:77] Creating layer L2_b6_cbr1_conv
I0821 06:45:44.678761  1322 net.cpp:100] Creating Layer L2_b6_cbr1_conv
I0821 06:45:44.678767  1322 net.cpp:434] L2_b6_cbr1_conv <- L2_b5_sum_eltwise_top_L2_b5_relu_0_split_0
I0821 06:45:44.678779  1322 net.cpp:408] L2_b6_cbr1_conv -> L2_b6_cbr1_conv_top
I0821 06:45:44.679249  1322 net.cpp:150] Setting up L2_b6_cbr1_conv
I0821 06:45:44.679262  1322 net.cpp:157] Top shape: 125 32 16 16 (1024000)
I0821 06:45:44.679267  1322 net.cpp:165] Memory required for data: 1080833500
I0821 06:45:44.679276  1322 layer_factory.hpp:77] Creating layer L2_b6_cbr1_bn
I0821 06:45:44.679286  1322 net.cpp:100] Creating Layer L2_b6_cbr1_bn
I0821 06:45:44.679292  1322 net.cpp:434] L2_b6_cbr1_bn <- L2_b6_cbr1_conv_top
I0821 06:45:44.679303  1322 net.cpp:408] L2_b6_cbr1_bn -> L2_b6_cbr1_bn_top
I0821 06:45:44.679554  1322 net.cpp:150] Setting up L2_b6_cbr1_bn
I0821 06:45:44.679567  1322 net.cpp:157] Top shape: 125 32 16 16 (1024000)
I0821 06:45:44.679572  1322 net.cpp:165] Memory required for data: 1084929500
I0821 06:45:44.679584  1322 layer_factory.hpp:77] Creating layer L2_b6_cbr1_scale
I0821 06:45:44.679594  1322 net.cpp:100] Creating Layer L2_b6_cbr1_scale
I0821 06:45:44.679600  1322 net.cpp:434] L2_b6_cbr1_scale <- L2_b6_cbr1_bn_top
I0821 06:45:44.679608  1322 net.cpp:395] L2_b6_cbr1_scale -> L2_b6_cbr1_bn_top (in-place)
I0821 06:45:44.679662  1322 layer_factory.hpp:77] Creating layer L2_b6_cbr1_scale
I0821 06:45:44.679813  1322 net.cpp:150] Setting up L2_b6_cbr1_scale
I0821 06:45:44.679826  1322 net.cpp:157] Top shape: 125 32 16 16 (1024000)
I0821 06:45:44.679836  1322 net.cpp:165] Memory required for data: 1089025500
I0821 06:45:44.679846  1322 layer_factory.hpp:77] Creating layer L2_b6_cbr1_relu
I0821 06:45:44.679857  1322 net.cpp:100] Creating Layer L2_b6_cbr1_relu
I0821 06:45:44.679863  1322 net.cpp:434] L2_b6_cbr1_relu <- L2_b6_cbr1_bn_top
I0821 06:45:44.679870  1322 net.cpp:395] L2_b6_cbr1_relu -> L2_b6_cbr1_bn_top (in-place)
I0821 06:45:44.679880  1322 net.cpp:150] Setting up L2_b6_cbr1_relu
I0821 06:45:44.679888  1322 net.cpp:157] Top shape: 125 32 16 16 (1024000)
I0821 06:45:44.679893  1322 net.cpp:165] Memory required for data: 1093121500
I0821 06:45:44.679896  1322 layer_factory.hpp:77] Creating layer L2_b6_cbr2_conv
I0821 06:45:44.679913  1322 net.cpp:100] Creating Layer L2_b6_cbr2_conv
I0821 06:45:44.679919  1322 net.cpp:434] L2_b6_cbr2_conv <- L2_b6_cbr1_bn_top
I0821 06:45:44.679929  1322 net.cpp:408] L2_b6_cbr2_conv -> L2_b6_cbr2_conv_top
I0821 06:45:44.680388  1322 net.cpp:150] Setting up L2_b6_cbr2_conv
I0821 06:45:44.680408  1322 net.cpp:157] Top shape: 125 32 16 16 (1024000)
I0821 06:45:44.680414  1322 net.cpp:165] Memory required for data: 1097217500
I0821 06:45:44.680423  1322 layer_factory.hpp:77] Creating layer L2_b6_cbr2_bn
I0821 06:45:44.680433  1322 net.cpp:100] Creating Layer L2_b6_cbr2_bn
I0821 06:45:44.680438  1322 net.cpp:434] L2_b6_cbr2_bn <- L2_b6_cbr2_conv_top
I0821 06:45:44.680446  1322 net.cpp:408] L2_b6_cbr2_bn -> L2_b6_cbr2_bn_top
I0821 06:45:44.680696  1322 net.cpp:150] Setting up L2_b6_cbr2_bn
I0821 06:45:44.680707  1322 net.cpp:157] Top shape: 125 32 16 16 (1024000)
I0821 06:45:44.680712  1322 net.cpp:165] Memory required for data: 1101313500
I0821 06:45:44.680722  1322 layer_factory.hpp:77] Creating layer L2_b6_cbr2_scale
I0821 06:45:44.680732  1322 net.cpp:100] Creating Layer L2_b6_cbr2_scale
I0821 06:45:44.680737  1322 net.cpp:434] L2_b6_cbr2_scale <- L2_b6_cbr2_bn_top
I0821 06:45:44.680748  1322 net.cpp:395] L2_b6_cbr2_scale -> L2_b6_cbr2_bn_top (in-place)
I0821 06:45:44.680804  1322 layer_factory.hpp:77] Creating layer L2_b6_cbr2_scale
I0821 06:45:44.680958  1322 net.cpp:150] Setting up L2_b6_cbr2_scale
I0821 06:45:44.680970  1322 net.cpp:157] Top shape: 125 32 16 16 (1024000)
I0821 06:45:44.680975  1322 net.cpp:165] Memory required for data: 1105409500
I0821 06:45:44.680984  1322 layer_factory.hpp:77] Creating layer L2_b6_sum_eltwise
I0821 06:45:44.680994  1322 net.cpp:100] Creating Layer L2_b6_sum_eltwise
I0821 06:45:44.680999  1322 net.cpp:434] L2_b6_sum_eltwise <- L2_b6_cbr2_bn_top
I0821 06:45:44.681005  1322 net.cpp:434] L2_b6_sum_eltwise <- L2_b5_sum_eltwise_top_L2_b5_relu_0_split_1
I0821 06:45:44.681016  1322 net.cpp:408] L2_b6_sum_eltwise -> L2_b6_sum_eltwise_top
I0821 06:45:44.681043  1322 net.cpp:150] Setting up L2_b6_sum_eltwise
I0821 06:45:44.681056  1322 net.cpp:157] Top shape: 125 32 16 16 (1024000)
I0821 06:45:44.681061  1322 net.cpp:165] Memory required for data: 1109505500
I0821 06:45:44.681066  1322 layer_factory.hpp:77] Creating layer L2_b6_relu
I0821 06:45:44.681073  1322 net.cpp:100] Creating Layer L2_b6_relu
I0821 06:45:44.681079  1322 net.cpp:434] L2_b6_relu <- L2_b6_sum_eltwise_top
I0821 06:45:44.681087  1322 net.cpp:395] L2_b6_relu -> L2_b6_sum_eltwise_top (in-place)
I0821 06:45:44.681095  1322 net.cpp:150] Setting up L2_b6_relu
I0821 06:45:44.681102  1322 net.cpp:157] Top shape: 125 32 16 16 (1024000)
I0821 06:45:44.681107  1322 net.cpp:165] Memory required for data: 1113601500
I0821 06:45:44.681112  1322 layer_factory.hpp:77] Creating layer L2_b6_sum_eltwise_top_L2_b6_relu_0_split
I0821 06:45:44.681121  1322 net.cpp:100] Creating Layer L2_b6_sum_eltwise_top_L2_b6_relu_0_split
I0821 06:45:44.681128  1322 net.cpp:434] L2_b6_sum_eltwise_top_L2_b6_relu_0_split <- L2_b6_sum_eltwise_top
I0821 06:45:44.681134  1322 net.cpp:408] L2_b6_sum_eltwise_top_L2_b6_relu_0_split -> L2_b6_sum_eltwise_top_L2_b6_relu_0_split_0
I0821 06:45:44.681144  1322 net.cpp:408] L2_b6_sum_eltwise_top_L2_b6_relu_0_split -> L2_b6_sum_eltwise_top_L2_b6_relu_0_split_1
I0821 06:45:44.681190  1322 net.cpp:150] Setting up L2_b6_sum_eltwise_top_L2_b6_relu_0_split
I0821 06:45:44.681202  1322 net.cpp:157] Top shape: 125 32 16 16 (1024000)
I0821 06:45:44.681210  1322 net.cpp:157] Top shape: 125 32 16 16 (1024000)
I0821 06:45:44.681213  1322 net.cpp:165] Memory required for data: 1121793500
I0821 06:45:44.681218  1322 layer_factory.hpp:77] Creating layer L2_b7_cbr1_conv
I0821 06:45:44.681229  1322 net.cpp:100] Creating Layer L2_b7_cbr1_conv
I0821 06:45:44.681236  1322 net.cpp:434] L2_b7_cbr1_conv <- L2_b6_sum_eltwise_top_L2_b6_relu_0_split_0
I0821 06:45:44.681247  1322 net.cpp:408] L2_b7_cbr1_conv -> L2_b7_cbr1_conv_top
I0821 06:45:44.681712  1322 net.cpp:150] Setting up L2_b7_cbr1_conv
I0821 06:45:44.681725  1322 net.cpp:157] Top shape: 125 32 16 16 (1024000)
I0821 06:45:44.681730  1322 net.cpp:165] Memory required for data: 1125889500
I0821 06:45:44.681740  1322 layer_factory.hpp:77] Creating layer L2_b7_cbr1_bn
I0821 06:45:44.681748  1322 net.cpp:100] Creating Layer L2_b7_cbr1_bn
I0821 06:45:44.681761  1322 net.cpp:434] L2_b7_cbr1_bn <- L2_b7_cbr1_conv_top
I0821 06:45:44.681773  1322 net.cpp:408] L2_b7_cbr1_bn -> L2_b7_cbr1_bn_top
I0821 06:45:44.682031  1322 net.cpp:150] Setting up L2_b7_cbr1_bn
I0821 06:45:44.682045  1322 net.cpp:157] Top shape: 125 32 16 16 (1024000)
I0821 06:45:44.682050  1322 net.cpp:165] Memory required for data: 1129985500
I0821 06:45:44.682060  1322 layer_factory.hpp:77] Creating layer L2_b7_cbr1_scale
I0821 06:45:44.682072  1322 net.cpp:100] Creating Layer L2_b7_cbr1_scale
I0821 06:45:44.682078  1322 net.cpp:434] L2_b7_cbr1_scale <- L2_b7_cbr1_bn_top
I0821 06:45:44.682086  1322 net.cpp:395] L2_b7_cbr1_scale -> L2_b7_cbr1_bn_top (in-place)
I0821 06:45:44.682144  1322 layer_factory.hpp:77] Creating layer L2_b7_cbr1_scale
I0821 06:45:44.682296  1322 net.cpp:150] Setting up L2_b7_cbr1_scale
I0821 06:45:44.682308  1322 net.cpp:157] Top shape: 125 32 16 16 (1024000)
I0821 06:45:44.682313  1322 net.cpp:165] Memory required for data: 1134081500
I0821 06:45:44.682323  1322 layer_factory.hpp:77] Creating layer L2_b7_cbr1_relu
I0821 06:45:44.682330  1322 net.cpp:100] Creating Layer L2_b7_cbr1_relu
I0821 06:45:44.682337  1322 net.cpp:434] L2_b7_cbr1_relu <- L2_b7_cbr1_bn_top
I0821 06:45:44.682348  1322 net.cpp:395] L2_b7_cbr1_relu -> L2_b7_cbr1_bn_top (in-place)
I0821 06:45:44.682358  1322 net.cpp:150] Setting up L2_b7_cbr1_relu
I0821 06:45:44.682364  1322 net.cpp:157] Top shape: 125 32 16 16 (1024000)
I0821 06:45:44.682368  1322 net.cpp:165] Memory required for data: 1138177500
I0821 06:45:44.682374  1322 layer_factory.hpp:77] Creating layer L2_b7_cbr2_conv
I0821 06:45:44.682387  1322 net.cpp:100] Creating Layer L2_b7_cbr2_conv
I0821 06:45:44.682394  1322 net.cpp:434] L2_b7_cbr2_conv <- L2_b7_cbr1_bn_top
I0821 06:45:44.682404  1322 net.cpp:408] L2_b7_cbr2_conv -> L2_b7_cbr2_conv_top
I0821 06:45:44.682873  1322 net.cpp:150] Setting up L2_b7_cbr2_conv
I0821 06:45:44.682888  1322 net.cpp:157] Top shape: 125 32 16 16 (1024000)
I0821 06:45:44.682893  1322 net.cpp:165] Memory required for data: 1142273500
I0821 06:45:44.682901  1322 layer_factory.hpp:77] Creating layer L2_b7_cbr2_bn
I0821 06:45:44.682910  1322 net.cpp:100] Creating Layer L2_b7_cbr2_bn
I0821 06:45:44.682916  1322 net.cpp:434] L2_b7_cbr2_bn <- L2_b7_cbr2_conv_top
I0821 06:45:44.682925  1322 net.cpp:408] L2_b7_cbr2_bn -> L2_b7_cbr2_bn_top
I0821 06:45:44.683172  1322 net.cpp:150] Setting up L2_b7_cbr2_bn
I0821 06:45:44.683185  1322 net.cpp:157] Top shape: 125 32 16 16 (1024000)
I0821 06:45:44.683189  1322 net.cpp:165] Memory required for data: 1146369500
I0821 06:45:44.683200  1322 layer_factory.hpp:77] Creating layer L2_b7_cbr2_scale
I0821 06:45:44.683208  1322 net.cpp:100] Creating Layer L2_b7_cbr2_scale
I0821 06:45:44.683214  1322 net.cpp:434] L2_b7_cbr2_scale <- L2_b7_cbr2_bn_top
I0821 06:45:44.683226  1322 net.cpp:395] L2_b7_cbr2_scale -> L2_b7_cbr2_bn_top (in-place)
I0821 06:45:44.683284  1322 layer_factory.hpp:77] Creating layer L2_b7_cbr2_scale
I0821 06:45:44.683429  1322 net.cpp:150] Setting up L2_b7_cbr2_scale
I0821 06:45:44.683441  1322 net.cpp:157] Top shape: 125 32 16 16 (1024000)
I0821 06:45:44.683446  1322 net.cpp:165] Memory required for data: 1150465500
I0821 06:45:44.683455  1322 layer_factory.hpp:77] Creating layer L2_b7_sum_eltwise
I0821 06:45:44.683465  1322 net.cpp:100] Creating Layer L2_b7_sum_eltwise
I0821 06:45:44.683470  1322 net.cpp:434] L2_b7_sum_eltwise <- L2_b7_cbr2_bn_top
I0821 06:45:44.683477  1322 net.cpp:434] L2_b7_sum_eltwise <- L2_b6_sum_eltwise_top_L2_b6_relu_0_split_1
I0821 06:45:44.683487  1322 net.cpp:408] L2_b7_sum_eltwise -> L2_b7_sum_eltwise_top
I0821 06:45:44.683514  1322 net.cpp:150] Setting up L2_b7_sum_eltwise
I0821 06:45:44.683523  1322 net.cpp:157] Top shape: 125 32 16 16 (1024000)
I0821 06:45:44.683528  1322 net.cpp:165] Memory required for data: 1154561500
I0821 06:45:44.683533  1322 layer_factory.hpp:77] Creating layer L2_b7_relu
I0821 06:45:44.683544  1322 net.cpp:100] Creating Layer L2_b7_relu
I0821 06:45:44.683550  1322 net.cpp:434] L2_b7_relu <- L2_b7_sum_eltwise_top
I0821 06:45:44.683564  1322 net.cpp:395] L2_b7_relu -> L2_b7_sum_eltwise_top (in-place)
I0821 06:45:44.683574  1322 net.cpp:150] Setting up L2_b7_relu
I0821 06:45:44.683581  1322 net.cpp:157] Top shape: 125 32 16 16 (1024000)
I0821 06:45:44.683585  1322 net.cpp:165] Memory required for data: 1158657500
I0821 06:45:44.683590  1322 layer_factory.hpp:77] Creating layer L2_b7_sum_eltwise_top_L2_b7_relu_0_split
I0821 06:45:44.683600  1322 net.cpp:100] Creating Layer L2_b7_sum_eltwise_top_L2_b7_relu_0_split
I0821 06:45:44.683606  1322 net.cpp:434] L2_b7_sum_eltwise_top_L2_b7_relu_0_split <- L2_b7_sum_eltwise_top
I0821 06:45:44.683614  1322 net.cpp:408] L2_b7_sum_eltwise_top_L2_b7_relu_0_split -> L2_b7_sum_eltwise_top_L2_b7_relu_0_split_0
I0821 06:45:44.683624  1322 net.cpp:408] L2_b7_sum_eltwise_top_L2_b7_relu_0_split -> L2_b7_sum_eltwise_top_L2_b7_relu_0_split_1
I0821 06:45:44.683668  1322 net.cpp:150] Setting up L2_b7_sum_eltwise_top_L2_b7_relu_0_split
I0821 06:45:44.683682  1322 net.cpp:157] Top shape: 125 32 16 16 (1024000)
I0821 06:45:44.683689  1322 net.cpp:157] Top shape: 125 32 16 16 (1024000)
I0821 06:45:44.683694  1322 net.cpp:165] Memory required for data: 1166849500
I0821 06:45:44.683699  1322 layer_factory.hpp:77] Creating layer L2_b8_cbr1_conv
I0821 06:45:44.683710  1322 net.cpp:100] Creating Layer L2_b8_cbr1_conv
I0821 06:45:44.683717  1322 net.cpp:434] L2_b8_cbr1_conv <- L2_b7_sum_eltwise_top_L2_b7_relu_0_split_0
I0821 06:45:44.683725  1322 net.cpp:408] L2_b8_cbr1_conv -> L2_b8_cbr1_conv_top
I0821 06:45:44.684203  1322 net.cpp:150] Setting up L2_b8_cbr1_conv
I0821 06:45:44.684218  1322 net.cpp:157] Top shape: 125 32 16 16 (1024000)
I0821 06:45:44.684223  1322 net.cpp:165] Memory required for data: 1170945500
I0821 06:45:44.684232  1322 layer_factory.hpp:77] Creating layer L2_b8_cbr1_bn
I0821 06:45:44.684244  1322 net.cpp:100] Creating Layer L2_b8_cbr1_bn
I0821 06:45:44.684250  1322 net.cpp:434] L2_b8_cbr1_bn <- L2_b8_cbr1_conv_top
I0821 06:45:44.684259  1322 net.cpp:408] L2_b8_cbr1_bn -> L2_b8_cbr1_bn_top
I0821 06:45:44.684511  1322 net.cpp:150] Setting up L2_b8_cbr1_bn
I0821 06:45:44.684525  1322 net.cpp:157] Top shape: 125 32 16 16 (1024000)
I0821 06:45:44.684530  1322 net.cpp:165] Memory required for data: 1175041500
I0821 06:45:44.684540  1322 layer_factory.hpp:77] Creating layer L2_b8_cbr1_scale
I0821 06:45:44.684548  1322 net.cpp:100] Creating Layer L2_b8_cbr1_scale
I0821 06:45:44.684554  1322 net.cpp:434] L2_b8_cbr1_scale <- L2_b8_cbr1_bn_top
I0821 06:45:44.684566  1322 net.cpp:395] L2_b8_cbr1_scale -> L2_b8_cbr1_bn_top (in-place)
I0821 06:45:44.684622  1322 layer_factory.hpp:77] Creating layer L2_b8_cbr1_scale
I0821 06:45:44.684772  1322 net.cpp:150] Setting up L2_b8_cbr1_scale
I0821 06:45:44.684785  1322 net.cpp:157] Top shape: 125 32 16 16 (1024000)
I0821 06:45:44.684790  1322 net.cpp:165] Memory required for data: 1179137500
I0821 06:45:44.684799  1322 layer_factory.hpp:77] Creating layer L2_b8_cbr1_relu
I0821 06:45:44.684808  1322 net.cpp:100] Creating Layer L2_b8_cbr1_relu
I0821 06:45:44.684814  1322 net.cpp:434] L2_b8_cbr1_relu <- L2_b8_cbr1_bn_top
I0821 06:45:44.684824  1322 net.cpp:395] L2_b8_cbr1_relu -> L2_b8_cbr1_bn_top (in-place)
I0821 06:45:44.684841  1322 net.cpp:150] Setting up L2_b8_cbr1_relu
I0821 06:45:44.684849  1322 net.cpp:157] Top shape: 125 32 16 16 (1024000)
I0821 06:45:44.684854  1322 net.cpp:165] Memory required for data: 1183233500
I0821 06:45:44.684859  1322 layer_factory.hpp:77] Creating layer L2_b8_cbr2_conv
I0821 06:45:44.684873  1322 net.cpp:100] Creating Layer L2_b8_cbr2_conv
I0821 06:45:44.684880  1322 net.cpp:434] L2_b8_cbr2_conv <- L2_b8_cbr1_bn_top
I0821 06:45:44.684888  1322 net.cpp:408] L2_b8_cbr2_conv -> L2_b8_cbr2_conv_top
I0821 06:45:44.685351  1322 net.cpp:150] Setting up L2_b8_cbr2_conv
I0821 06:45:44.685364  1322 net.cpp:157] Top shape: 125 32 16 16 (1024000)
I0821 06:45:44.685369  1322 net.cpp:165] Memory required for data: 1187329500
I0821 06:45:44.685379  1322 layer_factory.hpp:77] Creating layer L2_b8_cbr2_bn
I0821 06:45:44.685390  1322 net.cpp:100] Creating Layer L2_b8_cbr2_bn
I0821 06:45:44.685405  1322 net.cpp:434] L2_b8_cbr2_bn <- L2_b8_cbr2_conv_top
I0821 06:45:44.685413  1322 net.cpp:408] L2_b8_cbr2_bn -> L2_b8_cbr2_bn_top
I0821 06:45:44.685670  1322 net.cpp:150] Setting up L2_b8_cbr2_bn
I0821 06:45:44.685683  1322 net.cpp:157] Top shape: 125 32 16 16 (1024000)
I0821 06:45:44.685688  1322 net.cpp:165] Memory required for data: 1191425500
I0821 06:45:44.685698  1322 layer_factory.hpp:77] Creating layer L2_b8_cbr2_scale
I0821 06:45:44.685708  1322 net.cpp:100] Creating Layer L2_b8_cbr2_scale
I0821 06:45:44.685714  1322 net.cpp:434] L2_b8_cbr2_scale <- L2_b8_cbr2_bn_top
I0821 06:45:44.685724  1322 net.cpp:395] L2_b8_cbr2_scale -> L2_b8_cbr2_bn_top (in-place)
I0821 06:45:44.685781  1322 layer_factory.hpp:77] Creating layer L2_b8_cbr2_scale
I0821 06:45:44.686113  1322 net.cpp:150] Setting up L2_b8_cbr2_scale
I0821 06:45:44.686130  1322 net.cpp:157] Top shape: 125 32 16 16 (1024000)
I0821 06:45:44.686134  1322 net.cpp:165] Memory required for data: 1195521500
I0821 06:45:44.686143  1322 layer_factory.hpp:77] Creating layer L2_b8_sum_eltwise
I0821 06:45:44.686153  1322 net.cpp:100] Creating Layer L2_b8_sum_eltwise
I0821 06:45:44.686159  1322 net.cpp:434] L2_b8_sum_eltwise <- L2_b8_cbr2_bn_top
I0821 06:45:44.686167  1322 net.cpp:434] L2_b8_sum_eltwise <- L2_b7_sum_eltwise_top_L2_b7_relu_0_split_1
I0821 06:45:44.686179  1322 net.cpp:408] L2_b8_sum_eltwise -> L2_b8_sum_eltwise_top
I0821 06:45:44.686208  1322 net.cpp:150] Setting up L2_b8_sum_eltwise
I0821 06:45:44.686218  1322 net.cpp:157] Top shape: 125 32 16 16 (1024000)
I0821 06:45:44.686223  1322 net.cpp:165] Memory required for data: 1199617500
I0821 06:45:44.686228  1322 layer_factory.hpp:77] Creating layer L2_b8_relu
I0821 06:45:44.686239  1322 net.cpp:100] Creating Layer L2_b8_relu
I0821 06:45:44.686244  1322 net.cpp:434] L2_b8_relu <- L2_b8_sum_eltwise_top
I0821 06:45:44.686251  1322 net.cpp:395] L2_b8_relu -> L2_b8_sum_eltwise_top (in-place)
I0821 06:45:44.686261  1322 net.cpp:150] Setting up L2_b8_relu
I0821 06:45:44.686269  1322 net.cpp:157] Top shape: 125 32 16 16 (1024000)
I0821 06:45:44.686272  1322 net.cpp:165] Memory required for data: 1203713500
I0821 06:45:44.686277  1322 layer_factory.hpp:77] Creating layer L2_b8_sum_eltwise_top_L2_b8_relu_0_split
I0821 06:45:44.686285  1322 net.cpp:100] Creating Layer L2_b8_sum_eltwise_top_L2_b8_relu_0_split
I0821 06:45:44.686290  1322 net.cpp:434] L2_b8_sum_eltwise_top_L2_b8_relu_0_split <- L2_b8_sum_eltwise_top
I0821 06:45:44.686300  1322 net.cpp:408] L2_b8_sum_eltwise_top_L2_b8_relu_0_split -> L2_b8_sum_eltwise_top_L2_b8_relu_0_split_0
I0821 06:45:44.686322  1322 net.cpp:408] L2_b8_sum_eltwise_top_L2_b8_relu_0_split -> L2_b8_sum_eltwise_top_L2_b8_relu_0_split_1
I0821 06:45:44.686369  1322 net.cpp:150] Setting up L2_b8_sum_eltwise_top_L2_b8_relu_0_split
I0821 06:45:44.686381  1322 net.cpp:157] Top shape: 125 32 16 16 (1024000)
I0821 06:45:44.686388  1322 net.cpp:157] Top shape: 125 32 16 16 (1024000)
I0821 06:45:44.686393  1322 net.cpp:165] Memory required for data: 1211905500
I0821 06:45:44.686398  1322 layer_factory.hpp:77] Creating layer L2_b9_cbr1_conv
I0821 06:45:44.686413  1322 net.cpp:100] Creating Layer L2_b9_cbr1_conv
I0821 06:45:44.686419  1322 net.cpp:434] L2_b9_cbr1_conv <- L2_b8_sum_eltwise_top_L2_b8_relu_0_split_0
I0821 06:45:44.686432  1322 net.cpp:408] L2_b9_cbr1_conv -> L2_b9_cbr1_conv_top
I0821 06:45:44.686913  1322 net.cpp:150] Setting up L2_b9_cbr1_conv
I0821 06:45:44.686928  1322 net.cpp:157] Top shape: 125 32 16 16 (1024000)
I0821 06:45:44.686933  1322 net.cpp:165] Memory required for data: 1216001500
I0821 06:45:44.686942  1322 layer_factory.hpp:77] Creating layer L2_b9_cbr1_bn
I0821 06:45:44.686954  1322 net.cpp:100] Creating Layer L2_b9_cbr1_bn
I0821 06:45:44.686961  1322 net.cpp:434] L2_b9_cbr1_bn <- L2_b9_cbr1_conv_top
I0821 06:45:44.686969  1322 net.cpp:408] L2_b9_cbr1_bn -> L2_b9_cbr1_bn_top
I0821 06:45:44.687216  1322 net.cpp:150] Setting up L2_b9_cbr1_bn
I0821 06:45:44.687229  1322 net.cpp:157] Top shape: 125 32 16 16 (1024000)
I0821 06:45:44.687234  1322 net.cpp:165] Memory required for data: 1220097500
I0821 06:45:44.687252  1322 layer_factory.hpp:77] Creating layer L2_b9_cbr1_scale
I0821 06:45:44.687260  1322 net.cpp:100] Creating Layer L2_b9_cbr1_scale
I0821 06:45:44.687268  1322 net.cpp:434] L2_b9_cbr1_scale <- L2_b9_cbr1_bn_top
I0821 06:45:44.687278  1322 net.cpp:395] L2_b9_cbr1_scale -> L2_b9_cbr1_bn_top (in-place)
I0821 06:45:44.687335  1322 layer_factory.hpp:77] Creating layer L2_b9_cbr1_scale
I0821 06:45:44.687490  1322 net.cpp:150] Setting up L2_b9_cbr1_scale
I0821 06:45:44.687503  1322 net.cpp:157] Top shape: 125 32 16 16 (1024000)
I0821 06:45:44.687508  1322 net.cpp:165] Memory required for data: 1224193500
I0821 06:45:44.687517  1322 layer_factory.hpp:77] Creating layer L2_b9_cbr1_relu
I0821 06:45:44.687525  1322 net.cpp:100] Creating Layer L2_b9_cbr1_relu
I0821 06:45:44.687531  1322 net.cpp:434] L2_b9_cbr1_relu <- L2_b9_cbr1_bn_top
I0821 06:45:44.687539  1322 net.cpp:395] L2_b9_cbr1_relu -> L2_b9_cbr1_bn_top (in-place)
I0821 06:45:44.687548  1322 net.cpp:150] Setting up L2_b9_cbr1_relu
I0821 06:45:44.687556  1322 net.cpp:157] Top shape: 125 32 16 16 (1024000)
I0821 06:45:44.687561  1322 net.cpp:165] Memory required for data: 1228289500
I0821 06:45:44.687564  1322 layer_factory.hpp:77] Creating layer L2_b9_cbr2_conv
I0821 06:45:44.687578  1322 net.cpp:100] Creating Layer L2_b9_cbr2_conv
I0821 06:45:44.687585  1322 net.cpp:434] L2_b9_cbr2_conv <- L2_b9_cbr1_bn_top
I0821 06:45:44.687597  1322 net.cpp:408] L2_b9_cbr2_conv -> L2_b9_cbr2_conv_top
I0821 06:45:44.688072  1322 net.cpp:150] Setting up L2_b9_cbr2_conv
I0821 06:45:44.688086  1322 net.cpp:157] Top shape: 125 32 16 16 (1024000)
I0821 06:45:44.688091  1322 net.cpp:165] Memory required for data: 1232385500
I0821 06:45:44.688100  1322 layer_factory.hpp:77] Creating layer L2_b9_cbr2_bn
I0821 06:45:44.688112  1322 net.cpp:100] Creating Layer L2_b9_cbr2_bn
I0821 06:45:44.688119  1322 net.cpp:434] L2_b9_cbr2_bn <- L2_b9_cbr2_conv_top
I0821 06:45:44.688130  1322 net.cpp:408] L2_b9_cbr2_bn -> L2_b9_cbr2_bn_top
I0821 06:45:44.688382  1322 net.cpp:150] Setting up L2_b9_cbr2_bn
I0821 06:45:44.688395  1322 net.cpp:157] Top shape: 125 32 16 16 (1024000)
I0821 06:45:44.688400  1322 net.cpp:165] Memory required for data: 1236481500
I0821 06:45:44.688446  1322 layer_factory.hpp:77] Creating layer L2_b9_cbr2_scale
I0821 06:45:44.688457  1322 net.cpp:100] Creating Layer L2_b9_cbr2_scale
I0821 06:45:44.688463  1322 net.cpp:434] L2_b9_cbr2_scale <- L2_b9_cbr2_bn_top
I0821 06:45:44.688472  1322 net.cpp:395] L2_b9_cbr2_scale -> L2_b9_cbr2_bn_top (in-place)
I0821 06:45:44.688534  1322 layer_factory.hpp:77] Creating layer L2_b9_cbr2_scale
I0821 06:45:44.688686  1322 net.cpp:150] Setting up L2_b9_cbr2_scale
I0821 06:45:44.688699  1322 net.cpp:157] Top shape: 125 32 16 16 (1024000)
I0821 06:45:44.688704  1322 net.cpp:165] Memory required for data: 1240577500
I0821 06:45:44.688714  1322 layer_factory.hpp:77] Creating layer L2_b9_sum_eltwise
I0821 06:45:44.688725  1322 net.cpp:100] Creating Layer L2_b9_sum_eltwise
I0821 06:45:44.688731  1322 net.cpp:434] L2_b9_sum_eltwise <- L2_b9_cbr2_bn_top
I0821 06:45:44.688738  1322 net.cpp:434] L2_b9_sum_eltwise <- L2_b8_sum_eltwise_top_L2_b8_relu_0_split_1
I0821 06:45:44.688747  1322 net.cpp:408] L2_b9_sum_eltwise -> L2_b9_sum_eltwise_top
I0821 06:45:44.688777  1322 net.cpp:150] Setting up L2_b9_sum_eltwise
I0821 06:45:44.688787  1322 net.cpp:157] Top shape: 125 32 16 16 (1024000)
I0821 06:45:44.688791  1322 net.cpp:165] Memory required for data: 1244673500
I0821 06:45:44.688796  1322 layer_factory.hpp:77] Creating layer L2_b9_relu
I0821 06:45:44.688804  1322 net.cpp:100] Creating Layer L2_b9_relu
I0821 06:45:44.688810  1322 net.cpp:434] L2_b9_relu <- L2_b9_sum_eltwise_top
I0821 06:45:44.688820  1322 net.cpp:395] L2_b9_relu -> L2_b9_sum_eltwise_top (in-place)
I0821 06:45:44.688835  1322 net.cpp:150] Setting up L2_b9_relu
I0821 06:45:44.688843  1322 net.cpp:157] Top shape: 125 32 16 16 (1024000)
I0821 06:45:44.688848  1322 net.cpp:165] Memory required for data: 1248769500
I0821 06:45:44.688853  1322 layer_factory.hpp:77] Creating layer L2_b9_sum_eltwise_top_L2_b9_relu_0_split
I0821 06:45:44.688870  1322 net.cpp:100] Creating Layer L2_b9_sum_eltwise_top_L2_b9_relu_0_split
I0821 06:45:44.688876  1322 net.cpp:434] L2_b9_sum_eltwise_top_L2_b9_relu_0_split <- L2_b9_sum_eltwise_top
I0821 06:45:44.688886  1322 net.cpp:408] L2_b9_sum_eltwise_top_L2_b9_relu_0_split -> L2_b9_sum_eltwise_top_L2_b9_relu_0_split_0
I0821 06:45:44.688897  1322 net.cpp:408] L2_b9_sum_eltwise_top_L2_b9_relu_0_split -> L2_b9_sum_eltwise_top_L2_b9_relu_0_split_1
I0821 06:45:44.688946  1322 net.cpp:150] Setting up L2_b9_sum_eltwise_top_L2_b9_relu_0_split
I0821 06:45:44.688958  1322 net.cpp:157] Top shape: 125 32 16 16 (1024000)
I0821 06:45:44.688966  1322 net.cpp:157] Top shape: 125 32 16 16 (1024000)
I0821 06:45:44.688969  1322 net.cpp:165] Memory required for data: 1256961500
I0821 06:45:44.688974  1322 layer_factory.hpp:77] Creating layer L3_b1_cbr1_conv
I0821 06:45:44.688987  1322 net.cpp:100] Creating Layer L3_b1_cbr1_conv
I0821 06:45:44.688992  1322 net.cpp:434] L3_b1_cbr1_conv <- L2_b9_sum_eltwise_top_L2_b9_relu_0_split_0
I0821 06:45:44.689004  1322 net.cpp:408] L3_b1_cbr1_conv -> L3_b1_cbr1_conv_top
I0821 06:45:44.689474  1322 net.cpp:150] Setting up L3_b1_cbr1_conv
I0821 06:45:44.689489  1322 net.cpp:157] Top shape: 125 32 8 8 (256000)
I0821 06:45:44.689493  1322 net.cpp:165] Memory required for data: 1257985500
I0821 06:45:44.689502  1322 layer_factory.hpp:77] Creating layer L3_b1_cbr1_bn
I0821 06:45:44.689512  1322 net.cpp:100] Creating Layer L3_b1_cbr1_bn
I0821 06:45:44.689517  1322 net.cpp:434] L3_b1_cbr1_bn <- L3_b1_cbr1_conv_top
I0821 06:45:44.689528  1322 net.cpp:408] L3_b1_cbr1_bn -> L3_b1_cbr1_bn_top
I0821 06:45:44.689793  1322 net.cpp:150] Setting up L3_b1_cbr1_bn
I0821 06:45:44.689806  1322 net.cpp:157] Top shape: 125 32 8 8 (256000)
I0821 06:45:44.689811  1322 net.cpp:165] Memory required for data: 1259009500
I0821 06:45:44.689821  1322 layer_factory.hpp:77] Creating layer L3_b1_cbr1_scale
I0821 06:45:44.689836  1322 net.cpp:100] Creating Layer L3_b1_cbr1_scale
I0821 06:45:44.689842  1322 net.cpp:434] L3_b1_cbr1_scale <- L3_b1_cbr1_bn_top
I0821 06:45:44.689851  1322 net.cpp:395] L3_b1_cbr1_scale -> L3_b1_cbr1_bn_top (in-place)
I0821 06:45:44.689910  1322 layer_factory.hpp:77] Creating layer L3_b1_cbr1_scale
I0821 06:45:44.690062  1322 net.cpp:150] Setting up L3_b1_cbr1_scale
I0821 06:45:44.690078  1322 net.cpp:157] Top shape: 125 32 8 8 (256000)
I0821 06:45:44.690083  1322 net.cpp:165] Memory required for data: 1260033500
I0821 06:45:44.690093  1322 layer_factory.hpp:77] Creating layer L3_b1_cbr1_relu
I0821 06:45:44.690100  1322 net.cpp:100] Creating Layer L3_b1_cbr1_relu
I0821 06:45:44.690106  1322 net.cpp:434] L3_b1_cbr1_relu <- L3_b1_cbr1_bn_top
I0821 06:45:44.690114  1322 net.cpp:395] L3_b1_cbr1_relu -> L3_b1_cbr1_bn_top (in-place)
I0821 06:45:44.690124  1322 net.cpp:150] Setting up L3_b1_cbr1_relu
I0821 06:45:44.690129  1322 net.cpp:157] Top shape: 125 32 8 8 (256000)
I0821 06:45:44.690135  1322 net.cpp:165] Memory required for data: 1261057500
I0821 06:45:44.690138  1322 layer_factory.hpp:77] Creating layer L3_b1_cbr2_conv
I0821 06:45:44.690152  1322 net.cpp:100] Creating Layer L3_b1_cbr2_conv
I0821 06:45:44.690158  1322 net.cpp:434] L3_b1_cbr2_conv <- L3_b1_cbr1_bn_top
I0821 06:45:44.690167  1322 net.cpp:408] L3_b1_cbr2_conv -> L3_b1_cbr2_conv_top
I0821 06:45:44.690641  1322 net.cpp:150] Setting up L3_b1_cbr2_conv
I0821 06:45:44.690655  1322 net.cpp:157] Top shape: 125 32 8 8 (256000)
I0821 06:45:44.690660  1322 net.cpp:165] Memory required for data: 1262081500
I0821 06:45:44.690670  1322 layer_factory.hpp:77] Creating layer L3_b1_cbr2_bn
I0821 06:45:44.690681  1322 net.cpp:100] Creating Layer L3_b1_cbr2_bn
I0821 06:45:44.690687  1322 net.cpp:434] L3_b1_cbr2_bn <- L3_b1_cbr2_conv_top
I0821 06:45:44.690698  1322 net.cpp:408] L3_b1_cbr2_bn -> L3_b1_cbr2_bn_top
I0821 06:45:44.690966  1322 net.cpp:150] Setting up L3_b1_cbr2_bn
I0821 06:45:44.690979  1322 net.cpp:157] Top shape: 125 32 8 8 (256000)
I0821 06:45:44.690984  1322 net.cpp:165] Memory required for data: 1263105500
I0821 06:45:44.691001  1322 layer_factory.hpp:77] Creating layer L3_b1_cbr2_scale
I0821 06:45:44.691011  1322 net.cpp:100] Creating Layer L3_b1_cbr2_scale
I0821 06:45:44.691017  1322 net.cpp:434] L3_b1_cbr2_scale <- L3_b1_cbr2_bn_top
I0821 06:45:44.691027  1322 net.cpp:395] L3_b1_cbr2_scale -> L3_b1_cbr2_bn_top (in-place)
I0821 06:45:44.691084  1322 layer_factory.hpp:77] Creating layer L3_b1_cbr2_scale
I0821 06:45:44.691241  1322 net.cpp:150] Setting up L3_b1_cbr2_scale
I0821 06:45:44.691253  1322 net.cpp:157] Top shape: 125 32 8 8 (256000)
I0821 06:45:44.691258  1322 net.cpp:165] Memory required for data: 1264129500
I0821 06:45:44.691267  1322 layer_factory.hpp:77] Creating layer L3_b1_pool
I0821 06:45:44.691279  1322 net.cpp:100] Creating Layer L3_b1_pool
I0821 06:45:44.691287  1322 net.cpp:434] L3_b1_pool <- L2_b9_sum_eltwise_top_L2_b9_relu_0_split_1
I0821 06:45:44.691294  1322 net.cpp:408] L3_b1_pool -> L3_b1_pool
I0821 06:45:44.691331  1322 net.cpp:150] Setting up L3_b1_pool
I0821 06:45:44.691341  1322 net.cpp:157] Top shape: 125 32 8 8 (256000)
I0821 06:45:44.691346  1322 net.cpp:165] Memory required for data: 1265153500
I0821 06:45:44.691351  1322 layer_factory.hpp:77] Creating layer L3_b1_sum_eltwise
I0821 06:45:44.691359  1322 net.cpp:100] Creating Layer L3_b1_sum_eltwise
I0821 06:45:44.691365  1322 net.cpp:434] L3_b1_sum_eltwise <- L3_b1_cbr2_bn_top
I0821 06:45:44.691372  1322 net.cpp:434] L3_b1_sum_eltwise <- L3_b1_pool
I0821 06:45:44.691382  1322 net.cpp:408] L3_b1_sum_eltwise -> L3_b1_sum_eltwise_top
I0821 06:45:44.691413  1322 net.cpp:150] Setting up L3_b1_sum_eltwise
I0821 06:45:44.691423  1322 net.cpp:157] Top shape: 125 32 8 8 (256000)
I0821 06:45:44.691427  1322 net.cpp:165] Memory required for data: 1266177500
I0821 06:45:44.691432  1322 layer_factory.hpp:77] Creating layer L3_b1_relu
I0821 06:45:44.691440  1322 net.cpp:100] Creating Layer L3_b1_relu
I0821 06:45:44.691445  1322 net.cpp:434] L3_b1_relu <- L3_b1_sum_eltwise_top
I0821 06:45:44.691455  1322 net.cpp:395] L3_b1_relu -> L3_b1_sum_eltwise_top (in-place)
I0821 06:45:44.691465  1322 net.cpp:150] Setting up L3_b1_relu
I0821 06:45:44.691473  1322 net.cpp:157] Top shape: 125 32 8 8 (256000)
I0821 06:45:44.691478  1322 net.cpp:165] Memory required for data: 1267201500
I0821 06:45:44.691483  1322 layer_factory.hpp:77] Creating layer L3_b1_zeros
I0821 06:45:44.691491  1322 net.cpp:100] Creating Layer L3_b1_zeros
I0821 06:45:44.691498  1322 net.cpp:408] L3_b1_zeros -> L3_b1_zeros
I0821 06:45:44.692733  1322 net.cpp:150] Setting up L3_b1_zeros
I0821 06:45:44.692751  1322 net.cpp:157] Top shape: 125 32 8 8 (256000)
I0821 06:45:44.692756  1322 net.cpp:165] Memory required for data: 1268225500
I0821 06:45:44.692762  1322 layer_factory.hpp:77] Creating layer L3_b1_concat0
I0821 06:45:44.692771  1322 net.cpp:100] Creating Layer L3_b1_concat0
I0821 06:45:44.692777  1322 net.cpp:434] L3_b1_concat0 <- L3_b1_sum_eltwise_top
I0821 06:45:44.692785  1322 net.cpp:434] L3_b1_concat0 <- L3_b1_zeros
I0821 06:45:44.692795  1322 net.cpp:408] L3_b1_concat0 -> L3_b1_concat0
I0821 06:45:44.692845  1322 net.cpp:150] Setting up L3_b1_concat0
I0821 06:45:44.692857  1322 net.cpp:157] Top shape: 125 64 8 8 (512000)
I0821 06:45:44.692862  1322 net.cpp:165] Memory required for data: 1270273500
I0821 06:45:44.692867  1322 layer_factory.hpp:77] Creating layer L3_b1_concat0_L3_b1_concat0_0_split
I0821 06:45:44.692875  1322 net.cpp:100] Creating Layer L3_b1_concat0_L3_b1_concat0_0_split
I0821 06:45:44.692881  1322 net.cpp:434] L3_b1_concat0_L3_b1_concat0_0_split <- L3_b1_concat0
I0821 06:45:44.692893  1322 net.cpp:408] L3_b1_concat0_L3_b1_concat0_0_split -> L3_b1_concat0_L3_b1_concat0_0_split_0
I0821 06:45:44.692903  1322 net.cpp:408] L3_b1_concat0_L3_b1_concat0_0_split -> L3_b1_concat0_L3_b1_concat0_0_split_1
I0821 06:45:44.692950  1322 net.cpp:150] Setting up L3_b1_concat0_L3_b1_concat0_0_split
I0821 06:45:44.692961  1322 net.cpp:157] Top shape: 125 64 8 8 (512000)
I0821 06:45:44.692968  1322 net.cpp:157] Top shape: 125 64 8 8 (512000)
I0821 06:45:44.692983  1322 net.cpp:165] Memory required for data: 1274369500
I0821 06:45:44.692988  1322 layer_factory.hpp:77] Creating layer L3_b2_cbr1_conv
I0821 06:45:44.693003  1322 net.cpp:100] Creating Layer L3_b2_cbr1_conv
I0821 06:45:44.693009  1322 net.cpp:434] L3_b2_cbr1_conv <- L3_b1_concat0_L3_b1_concat0_0_split_0
I0821 06:45:44.693019  1322 net.cpp:408] L3_b2_cbr1_conv -> L3_b2_cbr1_conv_top
I0821 06:45:44.695029  1322 net.cpp:150] Setting up L3_b2_cbr1_conv
I0821 06:45:44.695046  1322 net.cpp:157] Top shape: 125 64 8 8 (512000)
I0821 06:45:44.695051  1322 net.cpp:165] Memory required for data: 1276417500
I0821 06:45:44.695060  1322 layer_factory.hpp:77] Creating layer L3_b2_cbr1_bn
I0821 06:45:44.695073  1322 net.cpp:100] Creating Layer L3_b2_cbr1_bn
I0821 06:45:44.695080  1322 net.cpp:434] L3_b2_cbr1_bn <- L3_b2_cbr1_conv_top
I0821 06:45:44.695089  1322 net.cpp:408] L3_b2_cbr1_bn -> L3_b2_cbr1_bn_top
I0821 06:45:44.695354  1322 net.cpp:150] Setting up L3_b2_cbr1_bn
I0821 06:45:44.695367  1322 net.cpp:157] Top shape: 125 64 8 8 (512000)
I0821 06:45:44.695372  1322 net.cpp:165] Memory required for data: 1278465500
I0821 06:45:44.695384  1322 layer_factory.hpp:77] Creating layer L3_b2_cbr1_scale
I0821 06:45:44.695392  1322 net.cpp:100] Creating Layer L3_b2_cbr1_scale
I0821 06:45:44.695399  1322 net.cpp:434] L3_b2_cbr1_scale <- L3_b2_cbr1_bn_top
I0821 06:45:44.695406  1322 net.cpp:395] L3_b2_cbr1_scale -> L3_b2_cbr1_bn_top (in-place)
I0821 06:45:44.695467  1322 layer_factory.hpp:77] Creating layer L3_b2_cbr1_scale
I0821 06:45:44.695623  1322 net.cpp:150] Setting up L3_b2_cbr1_scale
I0821 06:45:44.695636  1322 net.cpp:157] Top shape: 125 64 8 8 (512000)
I0821 06:45:44.695641  1322 net.cpp:165] Memory required for data: 1280513500
I0821 06:45:44.695650  1322 layer_factory.hpp:77] Creating layer L3_b2_cbr1_relu
I0821 06:45:44.695658  1322 net.cpp:100] Creating Layer L3_b2_cbr1_relu
I0821 06:45:44.695664  1322 net.cpp:434] L3_b2_cbr1_relu <- L3_b2_cbr1_bn_top
I0821 06:45:44.695672  1322 net.cpp:395] L3_b2_cbr1_relu -> L3_b2_cbr1_bn_top (in-place)
I0821 06:45:44.695682  1322 net.cpp:150] Setting up L3_b2_cbr1_relu
I0821 06:45:44.695688  1322 net.cpp:157] Top shape: 125 64 8 8 (512000)
I0821 06:45:44.695693  1322 net.cpp:165] Memory required for data: 1282561500
I0821 06:45:44.695698  1322 layer_factory.hpp:77] Creating layer L3_b2_cbr2_conv
I0821 06:45:44.695713  1322 net.cpp:100] Creating Layer L3_b2_cbr2_conv
I0821 06:45:44.695719  1322 net.cpp:434] L3_b2_cbr2_conv <- L3_b2_cbr1_bn_top
I0821 06:45:44.695730  1322 net.cpp:408] L3_b2_cbr2_conv -> L3_b2_cbr2_conv_top
I0821 06:45:44.696758  1322 net.cpp:150] Setting up L3_b2_cbr2_conv
I0821 06:45:44.696774  1322 net.cpp:157] Top shape: 125 64 8 8 (512000)
I0821 06:45:44.696779  1322 net.cpp:165] Memory required for data: 1284609500
I0821 06:45:44.696787  1322 layer_factory.hpp:77] Creating layer L3_b2_cbr2_bn
I0821 06:45:44.696799  1322 net.cpp:100] Creating Layer L3_b2_cbr2_bn
I0821 06:45:44.696806  1322 net.cpp:434] L3_b2_cbr2_bn <- L3_b2_cbr2_conv_top
I0821 06:45:44.696815  1322 net.cpp:408] L3_b2_cbr2_bn -> L3_b2_cbr2_bn_top
I0821 06:45:44.697085  1322 net.cpp:150] Setting up L3_b2_cbr2_bn
I0821 06:45:44.697098  1322 net.cpp:157] Top shape: 125 64 8 8 (512000)
I0821 06:45:44.697103  1322 net.cpp:165] Memory required for data: 1286657500
I0821 06:45:44.697114  1322 layer_factory.hpp:77] Creating layer L3_b2_cbr2_scale
I0821 06:45:44.697126  1322 net.cpp:100] Creating Layer L3_b2_cbr2_scale
I0821 06:45:44.697132  1322 net.cpp:434] L3_b2_cbr2_scale <- L3_b2_cbr2_bn_top
I0821 06:45:44.697141  1322 net.cpp:395] L3_b2_cbr2_scale -> L3_b2_cbr2_bn_top (in-place)
I0821 06:45:44.697201  1322 layer_factory.hpp:77] Creating layer L3_b2_cbr2_scale
I0821 06:45:44.697357  1322 net.cpp:150] Setting up L3_b2_cbr2_scale
I0821 06:45:44.697371  1322 net.cpp:157] Top shape: 125 64 8 8 (512000)
I0821 06:45:44.697376  1322 net.cpp:165] Memory required for data: 1288705500
I0821 06:45:44.697384  1322 layer_factory.hpp:77] Creating layer L3_b2_sum_eltwise
I0821 06:45:44.697396  1322 net.cpp:100] Creating Layer L3_b2_sum_eltwise
I0821 06:45:44.697410  1322 net.cpp:434] L3_b2_sum_eltwise <- L3_b2_cbr2_bn_top
I0821 06:45:44.697418  1322 net.cpp:434] L3_b2_sum_eltwise <- L3_b1_concat0_L3_b1_concat0_0_split_1
I0821 06:45:44.697429  1322 net.cpp:408] L3_b2_sum_eltwise -> L3_b2_sum_eltwise_top
I0821 06:45:44.697464  1322 net.cpp:150] Setting up L3_b2_sum_eltwise
I0821 06:45:44.697474  1322 net.cpp:157] Top shape: 125 64 8 8 (512000)
I0821 06:45:44.697479  1322 net.cpp:165] Memory required for data: 1290753500
I0821 06:45:44.697484  1322 layer_factory.hpp:77] Creating layer L3_b2_relu
I0821 06:45:44.697496  1322 net.cpp:100] Creating Layer L3_b2_relu
I0821 06:45:44.697502  1322 net.cpp:434] L3_b2_relu <- L3_b2_sum_eltwise_top
I0821 06:45:44.697510  1322 net.cpp:395] L3_b2_relu -> L3_b2_sum_eltwise_top (in-place)
I0821 06:45:44.697520  1322 net.cpp:150] Setting up L3_b2_relu
I0821 06:45:44.697526  1322 net.cpp:157] Top shape: 125 64 8 8 (512000)
I0821 06:45:44.697530  1322 net.cpp:165] Memory required for data: 1292801500
I0821 06:45:44.697535  1322 layer_factory.hpp:77] Creating layer L3_b2_sum_eltwise_top_L3_b2_relu_0_split
I0821 06:45:44.697542  1322 net.cpp:100] Creating Layer L3_b2_sum_eltwise_top_L3_b2_relu_0_split
I0821 06:45:44.697548  1322 net.cpp:434] L3_b2_sum_eltwise_top_L3_b2_relu_0_split <- L3_b2_sum_eltwise_top
I0821 06:45:44.697556  1322 net.cpp:408] L3_b2_sum_eltwise_top_L3_b2_relu_0_split -> L3_b2_sum_eltwise_top_L3_b2_relu_0_split_0
I0821 06:45:44.697566  1322 net.cpp:408] L3_b2_sum_eltwise_top_L3_b2_relu_0_split -> L3_b2_sum_eltwise_top_L3_b2_relu_0_split_1
I0821 06:45:44.697614  1322 net.cpp:150] Setting up L3_b2_sum_eltwise_top_L3_b2_relu_0_split
I0821 06:45:44.697625  1322 net.cpp:157] Top shape: 125 64 8 8 (512000)
I0821 06:45:44.697633  1322 net.cpp:157] Top shape: 125 64 8 8 (512000)
I0821 06:45:44.697636  1322 net.cpp:165] Memory required for data: 1296897500
I0821 06:45:44.697643  1322 layer_factory.hpp:77] Creating layer L3_b3_cbr1_conv
I0821 06:45:44.697656  1322 net.cpp:100] Creating Layer L3_b3_cbr1_conv
I0821 06:45:44.697662  1322 net.cpp:434] L3_b3_cbr1_conv <- L3_b2_sum_eltwise_top_L3_b2_relu_0_split_0
I0821 06:45:44.697672  1322 net.cpp:408] L3_b3_cbr1_conv -> L3_b3_cbr1_conv_top
I0821 06:45:44.698698  1322 net.cpp:150] Setting up L3_b3_cbr1_conv
I0821 06:45:44.698712  1322 net.cpp:157] Top shape: 125 64 8 8 (512000)
I0821 06:45:44.698717  1322 net.cpp:165] Memory required for data: 1298945500
I0821 06:45:44.698725  1322 layer_factory.hpp:77] Creating layer L3_b3_cbr1_bn
I0821 06:45:44.698737  1322 net.cpp:100] Creating Layer L3_b3_cbr1_bn
I0821 06:45:44.698745  1322 net.cpp:434] L3_b3_cbr1_bn <- L3_b3_cbr1_conv_top
I0821 06:45:44.698753  1322 net.cpp:408] L3_b3_cbr1_bn -> L3_b3_cbr1_bn_top
I0821 06:45:44.699028  1322 net.cpp:150] Setting up L3_b3_cbr1_bn
I0821 06:45:44.699041  1322 net.cpp:157] Top shape: 125 64 8 8 (512000)
I0821 06:45:44.699046  1322 net.cpp:165] Memory required for data: 1300993500
I0821 06:45:44.699056  1322 layer_factory.hpp:77] Creating layer L3_b3_cbr1_scale
I0821 06:45:44.699065  1322 net.cpp:100] Creating Layer L3_b3_cbr1_scale
I0821 06:45:44.699071  1322 net.cpp:434] L3_b3_cbr1_scale <- L3_b3_cbr1_bn_top
I0821 06:45:44.699079  1322 net.cpp:395] L3_b3_cbr1_scale -> L3_b3_cbr1_bn_top (in-place)
I0821 06:45:44.699142  1322 layer_factory.hpp:77] Creating layer L3_b3_cbr1_scale
I0821 06:45:44.699298  1322 net.cpp:150] Setting up L3_b3_cbr1_scale
I0821 06:45:44.699311  1322 net.cpp:157] Top shape: 125 64 8 8 (512000)
I0821 06:45:44.699316  1322 net.cpp:165] Memory required for data: 1303041500
I0821 06:45:44.699326  1322 layer_factory.hpp:77] Creating layer L3_b3_cbr1_relu
I0821 06:45:44.699333  1322 net.cpp:100] Creating Layer L3_b3_cbr1_relu
I0821 06:45:44.699340  1322 net.cpp:434] L3_b3_cbr1_relu <- L3_b3_cbr1_bn_top
I0821 06:45:44.699350  1322 net.cpp:395] L3_b3_cbr1_relu -> L3_b3_cbr1_bn_top (in-place)
I0821 06:45:44.699360  1322 net.cpp:150] Setting up L3_b3_cbr1_relu
I0821 06:45:44.699368  1322 net.cpp:157] Top shape: 125 64 8 8 (512000)
I0821 06:45:44.699379  1322 net.cpp:165] Memory required for data: 1305089500
I0821 06:45:44.699384  1322 layer_factory.hpp:77] Creating layer L3_b3_cbr2_conv
I0821 06:45:44.699398  1322 net.cpp:100] Creating Layer L3_b3_cbr2_conv
I0821 06:45:44.699405  1322 net.cpp:434] L3_b3_cbr2_conv <- L3_b3_cbr1_bn_top
I0821 06:45:44.699414  1322 net.cpp:408] L3_b3_cbr2_conv -> L3_b3_cbr2_conv_top
I0821 06:45:44.700438  1322 net.cpp:150] Setting up L3_b3_cbr2_conv
I0821 06:45:44.700453  1322 net.cpp:157] Top shape: 125 64 8 8 (512000)
I0821 06:45:44.700458  1322 net.cpp:165] Memory required for data: 1307137500
I0821 06:45:44.700466  1322 layer_factory.hpp:77] Creating layer L3_b3_cbr2_bn
I0821 06:45:44.700479  1322 net.cpp:100] Creating Layer L3_b3_cbr2_bn
I0821 06:45:44.700485  1322 net.cpp:434] L3_b3_cbr2_bn <- L3_b3_cbr2_conv_top
I0821 06:45:44.700494  1322 net.cpp:408] L3_b3_cbr2_bn -> L3_b3_cbr2_bn_top
I0821 06:45:44.700775  1322 net.cpp:150] Setting up L3_b3_cbr2_bn
I0821 06:45:44.700788  1322 net.cpp:157] Top shape: 125 64 8 8 (512000)
I0821 06:45:44.700793  1322 net.cpp:165] Memory required for data: 1309185500
I0821 06:45:44.700803  1322 layer_factory.hpp:77] Creating layer L3_b3_cbr2_scale
I0821 06:45:44.700815  1322 net.cpp:100] Creating Layer L3_b3_cbr2_scale
I0821 06:45:44.700821  1322 net.cpp:434] L3_b3_cbr2_scale <- L3_b3_cbr2_bn_top
I0821 06:45:44.700835  1322 net.cpp:395] L3_b3_cbr2_scale -> L3_b3_cbr2_bn_top (in-place)
I0821 06:45:44.700897  1322 layer_factory.hpp:77] Creating layer L3_b3_cbr2_scale
I0821 06:45:44.701061  1322 net.cpp:150] Setting up L3_b3_cbr2_scale
I0821 06:45:44.701073  1322 net.cpp:157] Top shape: 125 64 8 8 (512000)
I0821 06:45:44.701078  1322 net.cpp:165] Memory required for data: 1311233500
I0821 06:45:44.701087  1322 layer_factory.hpp:77] Creating layer L3_b3_sum_eltwise
I0821 06:45:44.701099  1322 net.cpp:100] Creating Layer L3_b3_sum_eltwise
I0821 06:45:44.701107  1322 net.cpp:434] L3_b3_sum_eltwise <- L3_b3_cbr2_bn_top
I0821 06:45:44.701113  1322 net.cpp:434] L3_b3_sum_eltwise <- L3_b2_sum_eltwise_top_L3_b2_relu_0_split_1
I0821 06:45:44.701124  1322 net.cpp:408] L3_b3_sum_eltwise -> L3_b3_sum_eltwise_top
I0821 06:45:44.701159  1322 net.cpp:150] Setting up L3_b3_sum_eltwise
I0821 06:45:44.701170  1322 net.cpp:157] Top shape: 125 64 8 8 (512000)
I0821 06:45:44.701174  1322 net.cpp:165] Memory required for data: 1313281500
I0821 06:45:44.701180  1322 layer_factory.hpp:77] Creating layer L3_b3_relu
I0821 06:45:44.701191  1322 net.cpp:100] Creating Layer L3_b3_relu
I0821 06:45:44.701197  1322 net.cpp:434] L3_b3_relu <- L3_b3_sum_eltwise_top
I0821 06:45:44.701205  1322 net.cpp:395] L3_b3_relu -> L3_b3_sum_eltwise_top (in-place)
I0821 06:45:44.701215  1322 net.cpp:150] Setting up L3_b3_relu
I0821 06:45:44.701221  1322 net.cpp:157] Top shape: 125 64 8 8 (512000)
I0821 06:45:44.701225  1322 net.cpp:165] Memory required for data: 1315329500
I0821 06:45:44.701231  1322 layer_factory.hpp:77] Creating layer L3_b3_sum_eltwise_top_L3_b3_relu_0_split
I0821 06:45:44.701237  1322 net.cpp:100] Creating Layer L3_b3_sum_eltwise_top_L3_b3_relu_0_split
I0821 06:45:44.701243  1322 net.cpp:434] L3_b3_sum_eltwise_top_L3_b3_relu_0_split <- L3_b3_sum_eltwise_top
I0821 06:45:44.701251  1322 net.cpp:408] L3_b3_sum_eltwise_top_L3_b3_relu_0_split -> L3_b3_sum_eltwise_top_L3_b3_relu_0_split_0
I0821 06:45:44.701261  1322 net.cpp:408] L3_b3_sum_eltwise_top_L3_b3_relu_0_split -> L3_b3_sum_eltwise_top_L3_b3_relu_0_split_1
I0821 06:45:44.701309  1322 net.cpp:150] Setting up L3_b3_sum_eltwise_top_L3_b3_relu_0_split
I0821 06:45:44.701320  1322 net.cpp:157] Top shape: 125 64 8 8 (512000)
I0821 06:45:44.701328  1322 net.cpp:157] Top shape: 125 64 8 8 (512000)
I0821 06:45:44.701331  1322 net.cpp:165] Memory required for data: 1319425500
I0821 06:45:44.701336  1322 layer_factory.hpp:77] Creating layer L3_b4_cbr1_conv
I0821 06:45:44.701350  1322 net.cpp:100] Creating Layer L3_b4_cbr1_conv
I0821 06:45:44.701357  1322 net.cpp:434] L3_b4_cbr1_conv <- L3_b3_sum_eltwise_top_L3_b3_relu_0_split_0
I0821 06:45:44.701366  1322 net.cpp:408] L3_b4_cbr1_conv -> L3_b4_cbr1_conv_top
I0821 06:45:44.702394  1322 net.cpp:150] Setting up L3_b4_cbr1_conv
I0821 06:45:44.702409  1322 net.cpp:157] Top shape: 125 64 8 8 (512000)
I0821 06:45:44.702414  1322 net.cpp:165] Memory required for data: 1321473500
I0821 06:45:44.702424  1322 layer_factory.hpp:77] Creating layer L3_b4_cbr1_bn
I0821 06:45:44.702435  1322 net.cpp:100] Creating Layer L3_b4_cbr1_bn
I0821 06:45:44.702441  1322 net.cpp:434] L3_b4_cbr1_bn <- L3_b4_cbr1_conv_top
I0821 06:45:44.702452  1322 net.cpp:408] L3_b4_cbr1_bn -> L3_b4_cbr1_bn_top
I0821 06:45:44.702723  1322 net.cpp:150] Setting up L3_b4_cbr1_bn
I0821 06:45:44.702736  1322 net.cpp:157] Top shape: 125 64 8 8 (512000)
I0821 06:45:44.702741  1322 net.cpp:165] Memory required for data: 1323521500
I0821 06:45:44.702751  1322 layer_factory.hpp:77] Creating layer L3_b4_cbr1_scale
I0821 06:45:44.702760  1322 net.cpp:100] Creating Layer L3_b4_cbr1_scale
I0821 06:45:44.702766  1322 net.cpp:434] L3_b4_cbr1_scale <- L3_b4_cbr1_bn_top
I0821 06:45:44.702775  1322 net.cpp:395] L3_b4_cbr1_scale -> L3_b4_cbr1_bn_top (in-place)
I0821 06:45:44.702841  1322 layer_factory.hpp:77] Creating layer L3_b4_cbr1_scale
I0821 06:45:44.703001  1322 net.cpp:150] Setting up L3_b4_cbr1_scale
I0821 06:45:44.703013  1322 net.cpp:157] Top shape: 125 64 8 8 (512000)
I0821 06:45:44.703018  1322 net.cpp:165] Memory required for data: 1325569500
I0821 06:45:44.703027  1322 layer_factory.hpp:77] Creating layer L3_b4_cbr1_relu
I0821 06:45:44.703035  1322 net.cpp:100] Creating Layer L3_b4_cbr1_relu
I0821 06:45:44.703042  1322 net.cpp:434] L3_b4_cbr1_relu <- L3_b4_cbr1_bn_top
I0821 06:45:44.703052  1322 net.cpp:395] L3_b4_cbr1_relu -> L3_b4_cbr1_bn_top (in-place)
I0821 06:45:44.703061  1322 net.cpp:150] Setting up L3_b4_cbr1_relu
I0821 06:45:44.703068  1322 net.cpp:157] Top shape: 125 64 8 8 (512000)
I0821 06:45:44.703073  1322 net.cpp:165] Memory required for data: 1327617500
I0821 06:45:44.703078  1322 layer_factory.hpp:77] Creating layer L3_b4_cbr2_conv
I0821 06:45:44.703094  1322 net.cpp:100] Creating Layer L3_b4_cbr2_conv
I0821 06:45:44.703099  1322 net.cpp:434] L3_b4_cbr2_conv <- L3_b4_cbr1_bn_top
I0821 06:45:44.703107  1322 net.cpp:408] L3_b4_cbr2_conv -> L3_b4_cbr2_conv_top
I0821 06:45:44.704145  1322 net.cpp:150] Setting up L3_b4_cbr2_conv
I0821 06:45:44.704160  1322 net.cpp:157] Top shape: 125 64 8 8 (512000)
I0821 06:45:44.704165  1322 net.cpp:165] Memory required for data: 1329665500
I0821 06:45:44.704174  1322 layer_factory.hpp:77] Creating layer L3_b4_cbr2_bn
I0821 06:45:44.704186  1322 net.cpp:100] Creating Layer L3_b4_cbr2_bn
I0821 06:45:44.704193  1322 net.cpp:434] L3_b4_cbr2_bn <- L3_b4_cbr2_conv_top
I0821 06:45:44.704201  1322 net.cpp:408] L3_b4_cbr2_bn -> L3_b4_cbr2_bn_top
I0821 06:45:44.704475  1322 net.cpp:150] Setting up L3_b4_cbr2_bn
I0821 06:45:44.704488  1322 net.cpp:157] Top shape: 125 64 8 8 (512000)
I0821 06:45:44.704493  1322 net.cpp:165] Memory required for data: 1331713500
I0821 06:45:44.704504  1322 layer_factory.hpp:77] Creating layer L3_b4_cbr2_scale
I0821 06:45:44.704515  1322 net.cpp:100] Creating Layer L3_b4_cbr2_scale
I0821 06:45:44.704521  1322 net.cpp:434] L3_b4_cbr2_scale <- L3_b4_cbr2_bn_top
I0821 06:45:44.704530  1322 net.cpp:395] L3_b4_cbr2_scale -> L3_b4_cbr2_bn_top (in-place)
I0821 06:45:44.704591  1322 layer_factory.hpp:77] Creating layer L3_b4_cbr2_scale
I0821 06:45:44.704754  1322 net.cpp:150] Setting up L3_b4_cbr2_scale
I0821 06:45:44.704767  1322 net.cpp:157] Top shape: 125 64 8 8 (512000)
I0821 06:45:44.704772  1322 net.cpp:165] Memory required for data: 1333761500
I0821 06:45:44.704782  1322 layer_factory.hpp:77] Creating layer L3_b4_sum_eltwise
I0821 06:45:44.704793  1322 net.cpp:100] Creating Layer L3_b4_sum_eltwise
I0821 06:45:44.704799  1322 net.cpp:434] L3_b4_sum_eltwise <- L3_b4_cbr2_bn_top
I0821 06:45:44.704807  1322 net.cpp:434] L3_b4_sum_eltwise <- L3_b3_sum_eltwise_top_L3_b3_relu_0_split_1
I0821 06:45:44.704818  1322 net.cpp:408] L3_b4_sum_eltwise -> L3_b4_sum_eltwise_top
I0821 06:45:44.704856  1322 net.cpp:150] Setting up L3_b4_sum_eltwise
I0821 06:45:44.704874  1322 net.cpp:157] Top shape: 125 64 8 8 (512000)
I0821 06:45:44.704879  1322 net.cpp:165] Memory required for data: 1335809500
I0821 06:45:44.704885  1322 layer_factory.hpp:77] Creating layer L3_b4_relu
I0821 06:45:44.704895  1322 net.cpp:100] Creating Layer L3_b4_relu
I0821 06:45:44.704901  1322 net.cpp:434] L3_b4_relu <- L3_b4_sum_eltwise_top
I0821 06:45:44.704908  1322 net.cpp:395] L3_b4_relu -> L3_b4_sum_eltwise_top (in-place)
I0821 06:45:44.704918  1322 net.cpp:150] Setting up L3_b4_relu
I0821 06:45:44.704926  1322 net.cpp:157] Top shape: 125 64 8 8 (512000)
I0821 06:45:44.704931  1322 net.cpp:165] Memory required for data: 1337857500
I0821 06:45:44.704934  1322 layer_factory.hpp:77] Creating layer L3_b4_sum_eltwise_top_L3_b4_relu_0_split
I0821 06:45:44.704942  1322 net.cpp:100] Creating Layer L3_b4_sum_eltwise_top_L3_b4_relu_0_split
I0821 06:45:44.704947  1322 net.cpp:434] L3_b4_sum_eltwise_top_L3_b4_relu_0_split <- L3_b4_sum_eltwise_top
I0821 06:45:44.704954  1322 net.cpp:408] L3_b4_sum_eltwise_top_L3_b4_relu_0_split -> L3_b4_sum_eltwise_top_L3_b4_relu_0_split_0
I0821 06:45:44.704964  1322 net.cpp:408] L3_b4_sum_eltwise_top_L3_b4_relu_0_split -> L3_b4_sum_eltwise_top_L3_b4_relu_0_split_1
I0821 06:45:44.705014  1322 net.cpp:150] Setting up L3_b4_sum_eltwise_top_L3_b4_relu_0_split
I0821 06:45:44.705026  1322 net.cpp:157] Top shape: 125 64 8 8 (512000)
I0821 06:45:44.705034  1322 net.cpp:157] Top shape: 125 64 8 8 (512000)
I0821 06:45:44.705037  1322 net.cpp:165] Memory required for data: 1341953500
I0821 06:45:44.705042  1322 layer_factory.hpp:77] Creating layer L3_b5_cbr1_conv
I0821 06:45:44.705057  1322 net.cpp:100] Creating Layer L3_b5_cbr1_conv
I0821 06:45:44.705063  1322 net.cpp:434] L3_b5_cbr1_conv <- L3_b4_sum_eltwise_top_L3_b4_relu_0_split_0
I0821 06:45:44.705072  1322 net.cpp:408] L3_b5_cbr1_conv -> L3_b5_cbr1_conv_top
I0821 06:45:44.706101  1322 net.cpp:150] Setting up L3_b5_cbr1_conv
I0821 06:45:44.706117  1322 net.cpp:157] Top shape: 125 64 8 8 (512000)
I0821 06:45:44.706121  1322 net.cpp:165] Memory required for data: 1344001500
I0821 06:45:44.706130  1322 layer_factory.hpp:77] Creating layer L3_b5_cbr1_bn
I0821 06:45:44.706142  1322 net.cpp:100] Creating Layer L3_b5_cbr1_bn
I0821 06:45:44.706149  1322 net.cpp:434] L3_b5_cbr1_bn <- L3_b5_cbr1_conv_top
I0821 06:45:44.706161  1322 net.cpp:408] L3_b5_cbr1_bn -> L3_b5_cbr1_bn_top
I0821 06:45:44.707419  1322 net.cpp:150] Setting up L3_b5_cbr1_bn
I0821 06:45:44.707437  1322 net.cpp:157] Top shape: 125 64 8 8 (512000)
I0821 06:45:44.707442  1322 net.cpp:165] Memory required for data: 1346049500
I0821 06:45:44.707453  1322 layer_factory.hpp:77] Creating layer L3_b5_cbr1_scale
I0821 06:45:44.707465  1322 net.cpp:100] Creating Layer L3_b5_cbr1_scale
I0821 06:45:44.707473  1322 net.cpp:434] L3_b5_cbr1_scale <- L3_b5_cbr1_bn_top
I0821 06:45:44.707480  1322 net.cpp:395] L3_b5_cbr1_scale -> L3_b5_cbr1_bn_top (in-place)
I0821 06:45:44.707547  1322 layer_factory.hpp:77] Creating layer L3_b5_cbr1_scale
I0821 06:45:44.707710  1322 net.cpp:150] Setting up L3_b5_cbr1_scale
I0821 06:45:44.707722  1322 net.cpp:157] Top shape: 125 64 8 8 (512000)
I0821 06:45:44.707727  1322 net.cpp:165] Memory required for data: 1348097500
I0821 06:45:44.707736  1322 layer_factory.hpp:77] Creating layer L3_b5_cbr1_relu
I0821 06:45:44.707744  1322 net.cpp:100] Creating Layer L3_b5_cbr1_relu
I0821 06:45:44.707751  1322 net.cpp:434] L3_b5_cbr1_relu <- L3_b5_cbr1_bn_top
I0821 06:45:44.707762  1322 net.cpp:395] L3_b5_cbr1_relu -> L3_b5_cbr1_bn_top (in-place)
I0821 06:45:44.707772  1322 net.cpp:150] Setting up L3_b5_cbr1_relu
I0821 06:45:44.707779  1322 net.cpp:157] Top shape: 125 64 8 8 (512000)
I0821 06:45:44.707783  1322 net.cpp:165] Memory required for data: 1350145500
I0821 06:45:44.707789  1322 layer_factory.hpp:77] Creating layer L3_b5_cbr2_conv
I0821 06:45:44.707800  1322 net.cpp:100] Creating Layer L3_b5_cbr2_conv
I0821 06:45:44.707806  1322 net.cpp:434] L3_b5_cbr2_conv <- L3_b5_cbr1_bn_top
I0821 06:45:44.707818  1322 net.cpp:408] L3_b5_cbr2_conv -> L3_b5_cbr2_conv_top
I0821 06:45:44.709820  1322 net.cpp:150] Setting up L3_b5_cbr2_conv
I0821 06:45:44.709843  1322 net.cpp:157] Top shape: 125 64 8 8 (512000)
I0821 06:45:44.709849  1322 net.cpp:165] Memory required for data: 1352193500
I0821 06:45:44.709858  1322 layer_factory.hpp:77] Creating layer L3_b5_cbr2_bn
I0821 06:45:44.709872  1322 net.cpp:100] Creating Layer L3_b5_cbr2_bn
I0821 06:45:44.709878  1322 net.cpp:434] L3_b5_cbr2_bn <- L3_b5_cbr2_conv_top
I0821 06:45:44.709887  1322 net.cpp:408] L3_b5_cbr2_bn -> L3_b5_cbr2_bn_top
I0821 06:45:44.710150  1322 net.cpp:150] Setting up L3_b5_cbr2_bn
I0821 06:45:44.710165  1322 net.cpp:157] Top shape: 125 64 8 8 (512000)
I0821 06:45:44.710170  1322 net.cpp:165] Memory required for data: 1354241500
I0821 06:45:44.710180  1322 layer_factory.hpp:77] Creating layer L3_b5_cbr2_scale
I0821 06:45:44.710191  1322 net.cpp:100] Creating Layer L3_b5_cbr2_scale
I0821 06:45:44.710198  1322 net.cpp:434] L3_b5_cbr2_scale <- L3_b5_cbr2_bn_top
I0821 06:45:44.710206  1322 net.cpp:395] L3_b5_cbr2_scale -> L3_b5_cbr2_bn_top (in-place)
I0821 06:45:44.710265  1322 layer_factory.hpp:77] Creating layer L3_b5_cbr2_scale
I0821 06:45:44.710418  1322 net.cpp:150] Setting up L3_b5_cbr2_scale
I0821 06:45:44.710431  1322 net.cpp:157] Top shape: 125 64 8 8 (512000)
I0821 06:45:44.710436  1322 net.cpp:165] Memory required for data: 1356289500
I0821 06:45:44.710445  1322 layer_factory.hpp:77] Creating layer L3_b5_sum_eltwise
I0821 06:45:44.710458  1322 net.cpp:100] Creating Layer L3_b5_sum_eltwise
I0821 06:45:44.710464  1322 net.cpp:434] L3_b5_sum_eltwise <- L3_b5_cbr2_bn_top
I0821 06:45:44.710471  1322 net.cpp:434] L3_b5_sum_eltwise <- L3_b4_sum_eltwise_top_L3_b4_relu_0_split_1
I0821 06:45:44.710482  1322 net.cpp:408] L3_b5_sum_eltwise -> L3_b5_sum_eltwise_top
I0821 06:45:44.710515  1322 net.cpp:150] Setting up L3_b5_sum_eltwise
I0821 06:45:44.710526  1322 net.cpp:157] Top shape: 125 64 8 8 (512000)
I0821 06:45:44.710531  1322 net.cpp:165] Memory required for data: 1358337500
I0821 06:45:44.710536  1322 layer_factory.hpp:77] Creating layer L3_b5_relu
I0821 06:45:44.710547  1322 net.cpp:100] Creating Layer L3_b5_relu
I0821 06:45:44.710553  1322 net.cpp:434] L3_b5_relu <- L3_b5_sum_eltwise_top
I0821 06:45:44.710561  1322 net.cpp:395] L3_b5_relu -> L3_b5_sum_eltwise_top (in-place)
I0821 06:45:44.710571  1322 net.cpp:150] Setting up L3_b5_relu
I0821 06:45:44.710577  1322 net.cpp:157] Top shape: 125 64 8 8 (512000)
I0821 06:45:44.710582  1322 net.cpp:165] Memory required for data: 1360385500
I0821 06:45:44.710587  1322 layer_factory.hpp:77] Creating layer L3_b5_sum_eltwise_top_L3_b5_relu_0_split
I0821 06:45:44.710594  1322 net.cpp:100] Creating Layer L3_b5_sum_eltwise_top_L3_b5_relu_0_split
I0821 06:45:44.710599  1322 net.cpp:434] L3_b5_sum_eltwise_top_L3_b5_relu_0_split <- L3_b5_sum_eltwise_top
I0821 06:45:44.710606  1322 net.cpp:408] L3_b5_sum_eltwise_top_L3_b5_relu_0_split -> L3_b5_sum_eltwise_top_L3_b5_relu_0_split_0
I0821 06:45:44.710615  1322 net.cpp:408] L3_b5_sum_eltwise_top_L3_b5_relu_0_split -> L3_b5_sum_eltwise_top_L3_b5_relu_0_split_1
I0821 06:45:44.710664  1322 net.cpp:150] Setting up L3_b5_sum_eltwise_top_L3_b5_relu_0_split
I0821 06:45:44.710675  1322 net.cpp:157] Top shape: 125 64 8 8 (512000)
I0821 06:45:44.710681  1322 net.cpp:157] Top shape: 125 64 8 8 (512000)
I0821 06:45:44.710686  1322 net.cpp:165] Memory required for data: 1364481500
I0821 06:45:44.710691  1322 layer_factory.hpp:77] Creating layer L3_b6_cbr1_conv
I0821 06:45:44.710705  1322 net.cpp:100] Creating Layer L3_b6_cbr1_conv
I0821 06:45:44.710711  1322 net.cpp:434] L3_b6_cbr1_conv <- L3_b5_sum_eltwise_top_L3_b5_relu_0_split_0
I0821 06:45:44.710721  1322 net.cpp:408] L3_b6_cbr1_conv -> L3_b6_cbr1_conv_top
I0821 06:45:44.711735  1322 net.cpp:150] Setting up L3_b6_cbr1_conv
I0821 06:45:44.711750  1322 net.cpp:157] Top shape: 125 64 8 8 (512000)
I0821 06:45:44.711755  1322 net.cpp:165] Memory required for data: 1366529500
I0821 06:45:44.711763  1322 layer_factory.hpp:77] Creating layer L3_b6_cbr1_bn
I0821 06:45:44.711776  1322 net.cpp:100] Creating Layer L3_b6_cbr1_bn
I0821 06:45:44.711789  1322 net.cpp:434] L3_b6_cbr1_bn <- L3_b6_cbr1_conv_top
I0821 06:45:44.711802  1322 net.cpp:408] L3_b6_cbr1_bn -> L3_b6_cbr1_bn_top
I0821 06:45:44.712066  1322 net.cpp:150] Setting up L3_b6_cbr1_bn
I0821 06:45:44.712080  1322 net.cpp:157] Top shape: 125 64 8 8 (512000)
I0821 06:45:44.712085  1322 net.cpp:165] Memory required for data: 1368577500
I0821 06:45:44.712095  1322 layer_factory.hpp:77] Creating layer L3_b6_cbr1_scale
I0821 06:45:44.712105  1322 net.cpp:100] Creating Layer L3_b6_cbr1_scale
I0821 06:45:44.712110  1322 net.cpp:434] L3_b6_cbr1_scale <- L3_b6_cbr1_bn_top
I0821 06:45:44.712121  1322 net.cpp:395] L3_b6_cbr1_scale -> L3_b6_cbr1_bn_top (in-place)
I0821 06:45:44.712179  1322 layer_factory.hpp:77] Creating layer L3_b6_cbr1_scale
I0821 06:45:44.712332  1322 net.cpp:150] Setting up L3_b6_cbr1_scale
I0821 06:45:44.712344  1322 net.cpp:157] Top shape: 125 64 8 8 (512000)
I0821 06:45:44.712349  1322 net.cpp:165] Memory required for data: 1370625500
I0821 06:45:44.712358  1322 layer_factory.hpp:77] Creating layer L3_b6_cbr1_relu
I0821 06:45:44.712366  1322 net.cpp:100] Creating Layer L3_b6_cbr1_relu
I0821 06:45:44.712373  1322 net.cpp:434] L3_b6_cbr1_relu <- L3_b6_cbr1_bn_top
I0821 06:45:44.712384  1322 net.cpp:395] L3_b6_cbr1_relu -> L3_b6_cbr1_bn_top (in-place)
I0821 06:45:44.712394  1322 net.cpp:150] Setting up L3_b6_cbr1_relu
I0821 06:45:44.712401  1322 net.cpp:157] Top shape: 125 64 8 8 (512000)
I0821 06:45:44.712406  1322 net.cpp:165] Memory required for data: 1372673500
I0821 06:45:44.712410  1322 layer_factory.hpp:77] Creating layer L3_b6_cbr2_conv
I0821 06:45:44.712425  1322 net.cpp:100] Creating Layer L3_b6_cbr2_conv
I0821 06:45:44.712431  1322 net.cpp:434] L3_b6_cbr2_conv <- L3_b6_cbr1_bn_top
I0821 06:45:44.712440  1322 net.cpp:408] L3_b6_cbr2_conv -> L3_b6_cbr2_conv_top
I0821 06:45:44.713450  1322 net.cpp:150] Setting up L3_b6_cbr2_conv
I0821 06:45:44.713465  1322 net.cpp:157] Top shape: 125 64 8 8 (512000)
I0821 06:45:44.713470  1322 net.cpp:165] Memory required for data: 1374721500
I0821 06:45:44.713479  1322 layer_factory.hpp:77] Creating layer L3_b6_cbr2_bn
I0821 06:45:44.713491  1322 net.cpp:100] Creating Layer L3_b6_cbr2_bn
I0821 06:45:44.713498  1322 net.cpp:434] L3_b6_cbr2_bn <- L3_b6_cbr2_conv_top
I0821 06:45:44.713507  1322 net.cpp:408] L3_b6_cbr2_bn -> L3_b6_cbr2_bn_top
I0821 06:45:44.713764  1322 net.cpp:150] Setting up L3_b6_cbr2_bn
I0821 06:45:44.713778  1322 net.cpp:157] Top shape: 125 64 8 8 (512000)
I0821 06:45:44.713783  1322 net.cpp:165] Memory required for data: 1376769500
I0821 06:45:44.713793  1322 layer_factory.hpp:77] Creating layer L3_b6_cbr2_scale
I0821 06:45:44.713805  1322 net.cpp:100] Creating Layer L3_b6_cbr2_scale
I0821 06:45:44.713812  1322 net.cpp:434] L3_b6_cbr2_scale <- L3_b6_cbr2_bn_top
I0821 06:45:44.713820  1322 net.cpp:395] L3_b6_cbr2_scale -> L3_b6_cbr2_bn_top (in-place)
I0821 06:45:44.713886  1322 layer_factory.hpp:77] Creating layer L3_b6_cbr2_scale
I0821 06:45:44.714047  1322 net.cpp:150] Setting up L3_b6_cbr2_scale
I0821 06:45:44.714061  1322 net.cpp:157] Top shape: 125 64 8 8 (512000)
I0821 06:45:44.714066  1322 net.cpp:165] Memory required for data: 1378817500
I0821 06:45:44.714074  1322 layer_factory.hpp:77] Creating layer L3_b6_sum_eltwise
I0821 06:45:44.714083  1322 net.cpp:100] Creating Layer L3_b6_sum_eltwise
I0821 06:45:44.714090  1322 net.cpp:434] L3_b6_sum_eltwise <- L3_b6_cbr2_bn_top
I0821 06:45:44.714097  1322 net.cpp:434] L3_b6_sum_eltwise <- L3_b5_sum_eltwise_top_L3_b5_relu_0_split_1
I0821 06:45:44.714108  1322 net.cpp:408] L3_b6_sum_eltwise -> L3_b6_sum_eltwise_top
I0821 06:45:44.714141  1322 net.cpp:150] Setting up L3_b6_sum_eltwise
I0821 06:45:44.714154  1322 net.cpp:157] Top shape: 125 64 8 8 (512000)
I0821 06:45:44.714159  1322 net.cpp:165] Memory required for data: 1380865500
I0821 06:45:44.714164  1322 layer_factory.hpp:77] Creating layer L3_b6_relu
I0821 06:45:44.714174  1322 net.cpp:100] Creating Layer L3_b6_relu
I0821 06:45:44.714180  1322 net.cpp:434] L3_b6_relu <- L3_b6_sum_eltwise_top
I0821 06:45:44.714193  1322 net.cpp:395] L3_b6_relu -> L3_b6_sum_eltwise_top (in-place)
I0821 06:45:44.714205  1322 net.cpp:150] Setting up L3_b6_relu
I0821 06:45:44.714211  1322 net.cpp:157] Top shape: 125 64 8 8 (512000)
I0821 06:45:44.714216  1322 net.cpp:165] Memory required for data: 1382913500
I0821 06:45:44.714221  1322 layer_factory.hpp:77] Creating layer L3_b6_sum_eltwise_top_L3_b6_relu_0_split
I0821 06:45:44.714228  1322 net.cpp:100] Creating Layer L3_b6_sum_eltwise_top_L3_b6_relu_0_split
I0821 06:45:44.714233  1322 net.cpp:434] L3_b6_sum_eltwise_top_L3_b6_relu_0_split <- L3_b6_sum_eltwise_top
I0821 06:45:44.714241  1322 net.cpp:408] L3_b6_sum_eltwise_top_L3_b6_relu_0_split -> L3_b6_sum_eltwise_top_L3_b6_relu_0_split_0
I0821 06:45:44.714251  1322 net.cpp:408] L3_b6_sum_eltwise_top_L3_b6_relu_0_split -> L3_b6_sum_eltwise_top_L3_b6_relu_0_split_1
I0821 06:45:44.714299  1322 net.cpp:150] Setting up L3_b6_sum_eltwise_top_L3_b6_relu_0_split
I0821 06:45:44.714311  1322 net.cpp:157] Top shape: 125 64 8 8 (512000)
I0821 06:45:44.714318  1322 net.cpp:157] Top shape: 125 64 8 8 (512000)
I0821 06:45:44.714323  1322 net.cpp:165] Memory required for data: 1387009500
I0821 06:45:44.714328  1322 layer_factory.hpp:77] Creating layer L3_b7_cbr1_conv
I0821 06:45:44.714341  1322 net.cpp:100] Creating Layer L3_b7_cbr1_conv
I0821 06:45:44.714347  1322 net.cpp:434] L3_b7_cbr1_conv <- L3_b6_sum_eltwise_top_L3_b6_relu_0_split_0
I0821 06:45:44.714356  1322 net.cpp:408] L3_b7_cbr1_conv -> L3_b7_cbr1_conv_top
I0821 06:45:44.715368  1322 net.cpp:150] Setting up L3_b7_cbr1_conv
I0821 06:45:44.715382  1322 net.cpp:157] Top shape: 125 64 8 8 (512000)
I0821 06:45:44.715386  1322 net.cpp:165] Memory required for data: 1389057500
I0821 06:45:44.715396  1322 layer_factory.hpp:77] Creating layer L3_b7_cbr1_bn
I0821 06:45:44.715409  1322 net.cpp:100] Creating Layer L3_b7_cbr1_bn
I0821 06:45:44.715415  1322 net.cpp:434] L3_b7_cbr1_bn <- L3_b7_cbr1_conv_top
I0821 06:45:44.715426  1322 net.cpp:408] L3_b7_cbr1_bn -> L3_b7_cbr1_bn_top
I0821 06:45:44.715683  1322 net.cpp:150] Setting up L3_b7_cbr1_bn
I0821 06:45:44.715695  1322 net.cpp:157] Top shape: 125 64 8 8 (512000)
I0821 06:45:44.715700  1322 net.cpp:165] Memory required for data: 1391105500
I0821 06:45:44.715710  1322 layer_factory.hpp:77] Creating layer L3_b7_cbr1_scale
I0821 06:45:44.715719  1322 net.cpp:100] Creating Layer L3_b7_cbr1_scale
I0821 06:45:44.715725  1322 net.cpp:434] L3_b7_cbr1_scale <- L3_b7_cbr1_bn_top
I0821 06:45:44.715736  1322 net.cpp:395] L3_b7_cbr1_scale -> L3_b7_cbr1_bn_top (in-place)
I0821 06:45:44.715793  1322 layer_factory.hpp:77] Creating layer L3_b7_cbr1_scale
I0821 06:45:44.715951  1322 net.cpp:150] Setting up L3_b7_cbr1_scale
I0821 06:45:44.715965  1322 net.cpp:157] Top shape: 125 64 8 8 (512000)
I0821 06:45:44.715970  1322 net.cpp:165] Memory required for data: 1393153500
I0821 06:45:44.715978  1322 layer_factory.hpp:77] Creating layer L3_b7_cbr1_relu
I0821 06:45:44.716013  1322 net.cpp:100] Creating Layer L3_b7_cbr1_relu
I0821 06:45:44.716022  1322 net.cpp:434] L3_b7_cbr1_relu <- L3_b7_cbr1_bn_top
I0821 06:45:44.716030  1322 net.cpp:395] L3_b7_cbr1_relu -> L3_b7_cbr1_bn_top (in-place)
I0821 06:45:44.716042  1322 net.cpp:150] Setting up L3_b7_cbr1_relu
I0821 06:45:44.716048  1322 net.cpp:157] Top shape: 125 64 8 8 (512000)
I0821 06:45:44.716053  1322 net.cpp:165] Memory required for data: 1395201500
I0821 06:45:44.716058  1322 layer_factory.hpp:77] Creating layer L3_b7_cbr2_conv
I0821 06:45:44.716073  1322 net.cpp:100] Creating Layer L3_b7_cbr2_conv
I0821 06:45:44.716078  1322 net.cpp:434] L3_b7_cbr2_conv <- L3_b7_cbr1_bn_top
I0821 06:45:44.716087  1322 net.cpp:408] L3_b7_cbr2_conv -> L3_b7_cbr2_conv_top
I0821 06:45:44.717126  1322 net.cpp:150] Setting up L3_b7_cbr2_conv
I0821 06:45:44.717140  1322 net.cpp:157] Top shape: 125 64 8 8 (512000)
I0821 06:45:44.717145  1322 net.cpp:165] Memory required for data: 1397249500
I0821 06:45:44.717154  1322 layer_factory.hpp:77] Creating layer L3_b7_cbr2_bn
I0821 06:45:44.717166  1322 net.cpp:100] Creating Layer L3_b7_cbr2_bn
I0821 06:45:44.717180  1322 net.cpp:434] L3_b7_cbr2_bn <- L3_b7_cbr2_conv_top
I0821 06:45:44.717191  1322 net.cpp:408] L3_b7_cbr2_bn -> L3_b7_cbr2_bn_top
I0821 06:45:44.717453  1322 net.cpp:150] Setting up L3_b7_cbr2_bn
I0821 06:45:44.717468  1322 net.cpp:157] Top shape: 125 64 8 8 (512000)
I0821 06:45:44.717471  1322 net.cpp:165] Memory required for data: 1399297500
I0821 06:45:44.717483  1322 layer_factory.hpp:77] Creating layer L3_b7_cbr2_scale
I0821 06:45:44.717491  1322 net.cpp:100] Creating Layer L3_b7_cbr2_scale
I0821 06:45:44.717499  1322 net.cpp:434] L3_b7_cbr2_scale <- L3_b7_cbr2_bn_top
I0821 06:45:44.717509  1322 net.cpp:395] L3_b7_cbr2_scale -> L3_b7_cbr2_bn_top (in-place)
I0821 06:45:44.717567  1322 layer_factory.hpp:77] Creating layer L3_b7_cbr2_scale
I0821 06:45:44.717721  1322 net.cpp:150] Setting up L3_b7_cbr2_scale
I0821 06:45:44.717734  1322 net.cpp:157] Top shape: 125 64 8 8 (512000)
I0821 06:45:44.717738  1322 net.cpp:165] Memory required for data: 1401345500
I0821 06:45:44.717747  1322 layer_factory.hpp:77] Creating layer L3_b7_sum_eltwise
I0821 06:45:44.717756  1322 net.cpp:100] Creating Layer L3_b7_sum_eltwise
I0821 06:45:44.717762  1322 net.cpp:434] L3_b7_sum_eltwise <- L3_b7_cbr2_bn_top
I0821 06:45:44.717769  1322 net.cpp:434] L3_b7_sum_eltwise <- L3_b6_sum_eltwise_top_L3_b6_relu_0_split_1
I0821 06:45:44.717780  1322 net.cpp:408] L3_b7_sum_eltwise -> L3_b7_sum_eltwise_top
I0821 06:45:44.717813  1322 net.cpp:150] Setting up L3_b7_sum_eltwise
I0821 06:45:44.717826  1322 net.cpp:157] Top shape: 125 64 8 8 (512000)
I0821 06:45:44.717838  1322 net.cpp:165] Memory required for data: 1403393500
I0821 06:45:44.717842  1322 layer_factory.hpp:77] Creating layer L3_b7_relu
I0821 06:45:44.717851  1322 net.cpp:100] Creating Layer L3_b7_relu
I0821 06:45:44.717856  1322 net.cpp:434] L3_b7_relu <- L3_b7_sum_eltwise_top
I0821 06:45:44.717864  1322 net.cpp:395] L3_b7_relu -> L3_b7_sum_eltwise_top (in-place)
I0821 06:45:44.717874  1322 net.cpp:150] Setting up L3_b7_relu
I0821 06:45:44.717880  1322 net.cpp:157] Top shape: 125 64 8 8 (512000)
I0821 06:45:44.717885  1322 net.cpp:165] Memory required for data: 1405441500
I0821 06:45:44.717890  1322 layer_factory.hpp:77] Creating layer L3_b7_sum_eltwise_top_L3_b7_relu_0_split
I0821 06:45:44.717901  1322 net.cpp:100] Creating Layer L3_b7_sum_eltwise_top_L3_b7_relu_0_split
I0821 06:45:44.717907  1322 net.cpp:434] L3_b7_sum_eltwise_top_L3_b7_relu_0_split <- L3_b7_sum_eltwise_top
I0821 06:45:44.717914  1322 net.cpp:408] L3_b7_sum_eltwise_top_L3_b7_relu_0_split -> L3_b7_sum_eltwise_top_L3_b7_relu_0_split_0
I0821 06:45:44.717924  1322 net.cpp:408] L3_b7_sum_eltwise_top_L3_b7_relu_0_split -> L3_b7_sum_eltwise_top_L3_b7_relu_0_split_1
I0821 06:45:44.717973  1322 net.cpp:150] Setting up L3_b7_sum_eltwise_top_L3_b7_relu_0_split
I0821 06:45:44.717985  1322 net.cpp:157] Top shape: 125 64 8 8 (512000)
I0821 06:45:44.717993  1322 net.cpp:157] Top shape: 125 64 8 8 (512000)
I0821 06:45:44.717996  1322 net.cpp:165] Memory required for data: 1409537500
I0821 06:45:44.718001  1322 layer_factory.hpp:77] Creating layer L3_b8_cbr1_conv
I0821 06:45:44.718013  1322 net.cpp:100] Creating Layer L3_b8_cbr1_conv
I0821 06:45:44.718019  1322 net.cpp:434] L3_b8_cbr1_conv <- L3_b7_sum_eltwise_top_L3_b7_relu_0_split_0
I0821 06:45:44.718030  1322 net.cpp:408] L3_b8_cbr1_conv -> L3_b8_cbr1_conv_top
I0821 06:45:44.719049  1322 net.cpp:150] Setting up L3_b8_cbr1_conv
I0821 06:45:44.719063  1322 net.cpp:157] Top shape: 125 64 8 8 (512000)
I0821 06:45:44.719069  1322 net.cpp:165] Memory required for data: 1411585500
I0821 06:45:44.719077  1322 layer_factory.hpp:77] Creating layer L3_b8_cbr1_bn
I0821 06:45:44.719086  1322 net.cpp:100] Creating Layer L3_b8_cbr1_bn
I0821 06:45:44.719092  1322 net.cpp:434] L3_b8_cbr1_bn <- L3_b8_cbr1_conv_top
I0821 06:45:44.719105  1322 net.cpp:408] L3_b8_cbr1_bn -> L3_b8_cbr1_bn_top
I0821 06:45:44.719373  1322 net.cpp:150] Setting up L3_b8_cbr1_bn
I0821 06:45:44.719389  1322 net.cpp:157] Top shape: 125 64 8 8 (512000)
I0821 06:45:44.719394  1322 net.cpp:165] Memory required for data: 1413633500
I0821 06:45:44.719411  1322 layer_factory.hpp:77] Creating layer L3_b8_cbr1_scale
I0821 06:45:44.719420  1322 net.cpp:100] Creating Layer L3_b8_cbr1_scale
I0821 06:45:44.719426  1322 net.cpp:434] L3_b8_cbr1_scale <- L3_b8_cbr1_bn_top
I0821 06:45:44.719434  1322 net.cpp:395] L3_b8_cbr1_scale -> L3_b8_cbr1_bn_top (in-place)
I0821 06:45:44.719496  1322 layer_factory.hpp:77] Creating layer L3_b8_cbr1_scale
I0821 06:45:44.719653  1322 net.cpp:150] Setting up L3_b8_cbr1_scale
I0821 06:45:44.719666  1322 net.cpp:157] Top shape: 125 64 8 8 (512000)
I0821 06:45:44.719671  1322 net.cpp:165] Memory required for data: 1415681500
I0821 06:45:44.719679  1322 layer_factory.hpp:77] Creating layer L3_b8_cbr1_relu
I0821 06:45:44.719691  1322 net.cpp:100] Creating Layer L3_b8_cbr1_relu
I0821 06:45:44.719696  1322 net.cpp:434] L3_b8_cbr1_relu <- L3_b8_cbr1_bn_top
I0821 06:45:44.719704  1322 net.cpp:395] L3_b8_cbr1_relu -> L3_b8_cbr1_bn_top (in-place)
I0821 06:45:44.719713  1322 net.cpp:150] Setting up L3_b8_cbr1_relu
I0821 06:45:44.719720  1322 net.cpp:157] Top shape: 125 64 8 8 (512000)
I0821 06:45:44.719725  1322 net.cpp:165] Memory required for data: 1417729500
I0821 06:45:44.719730  1322 layer_factory.hpp:77] Creating layer L3_b8_cbr2_conv
I0821 06:45:44.719744  1322 net.cpp:100] Creating Layer L3_b8_cbr2_conv
I0821 06:45:44.719750  1322 net.cpp:434] L3_b8_cbr2_conv <- L3_b8_cbr1_bn_top
I0821 06:45:44.719758  1322 net.cpp:408] L3_b8_cbr2_conv -> L3_b8_cbr2_conv_top
I0821 06:45:44.720777  1322 net.cpp:150] Setting up L3_b8_cbr2_conv
I0821 06:45:44.720793  1322 net.cpp:157] Top shape: 125 64 8 8 (512000)
I0821 06:45:44.720798  1322 net.cpp:165] Memory required for data: 1419777500
I0821 06:45:44.720806  1322 layer_factory.hpp:77] Creating layer L3_b8_cbr2_bn
I0821 06:45:44.720820  1322 net.cpp:100] Creating Layer L3_b8_cbr2_bn
I0821 06:45:44.720826  1322 net.cpp:434] L3_b8_cbr2_bn <- L3_b8_cbr2_conv_top
I0821 06:45:44.720844  1322 net.cpp:408] L3_b8_cbr2_bn -> L3_b8_cbr2_bn_top
I0821 06:45:44.721105  1322 net.cpp:150] Setting up L3_b8_cbr2_bn
I0821 06:45:44.721118  1322 net.cpp:157] Top shape: 125 64 8 8 (512000)
I0821 06:45:44.721123  1322 net.cpp:165] Memory required for data: 1421825500
I0821 06:45:44.721134  1322 layer_factory.hpp:77] Creating layer L3_b8_cbr2_scale
I0821 06:45:44.721143  1322 net.cpp:100] Creating Layer L3_b8_cbr2_scale
I0821 06:45:44.721148  1322 net.cpp:434] L3_b8_cbr2_scale <- L3_b8_cbr2_bn_top
I0821 06:45:44.721159  1322 net.cpp:395] L3_b8_cbr2_scale -> L3_b8_cbr2_bn_top (in-place)
I0821 06:45:44.721217  1322 layer_factory.hpp:77] Creating layer L3_b8_cbr2_scale
I0821 06:45:44.721375  1322 net.cpp:150] Setting up L3_b8_cbr2_scale
I0821 06:45:44.721387  1322 net.cpp:157] Top shape: 125 64 8 8 (512000)
I0821 06:45:44.721392  1322 net.cpp:165] Memory required for data: 1423873500
I0821 06:45:44.721401  1322 layer_factory.hpp:77] Creating layer L3_b8_sum_eltwise
I0821 06:45:44.721410  1322 net.cpp:100] Creating Layer L3_b8_sum_eltwise
I0821 06:45:44.721417  1322 net.cpp:434] L3_b8_sum_eltwise <- L3_b8_cbr2_bn_top
I0821 06:45:44.721424  1322 net.cpp:434] L3_b8_sum_eltwise <- L3_b7_sum_eltwise_top_L3_b7_relu_0_split_1
I0821 06:45:44.721436  1322 net.cpp:408] L3_b8_sum_eltwise -> L3_b8_sum_eltwise_top
I0821 06:45:44.721472  1322 net.cpp:150] Setting up L3_b8_sum_eltwise
I0821 06:45:44.721482  1322 net.cpp:157] Top shape: 125 64 8 8 (512000)
I0821 06:45:44.721487  1322 net.cpp:165] Memory required for data: 1425921500
I0821 06:45:44.721493  1322 layer_factory.hpp:77] Creating layer L3_b8_relu
I0821 06:45:44.721500  1322 net.cpp:100] Creating Layer L3_b8_relu
I0821 06:45:44.721505  1322 net.cpp:434] L3_b8_relu <- L3_b8_sum_eltwise_top
I0821 06:45:44.721515  1322 net.cpp:395] L3_b8_relu -> L3_b8_sum_eltwise_top (in-place)
I0821 06:45:44.721525  1322 net.cpp:150] Setting up L3_b8_relu
I0821 06:45:44.721532  1322 net.cpp:157] Top shape: 125 64 8 8 (512000)
I0821 06:45:44.721537  1322 net.cpp:165] Memory required for data: 1427969500
I0821 06:45:44.721541  1322 layer_factory.hpp:77] Creating layer L3_b8_sum_eltwise_top_L3_b8_relu_0_split
I0821 06:45:44.721555  1322 net.cpp:100] Creating Layer L3_b8_sum_eltwise_top_L3_b8_relu_0_split
I0821 06:45:44.721561  1322 net.cpp:434] L3_b8_sum_eltwise_top_L3_b8_relu_0_split <- L3_b8_sum_eltwise_top
I0821 06:45:44.721570  1322 net.cpp:408] L3_b8_sum_eltwise_top_L3_b8_relu_0_split -> L3_b8_sum_eltwise_top_L3_b8_relu_0_split_0
I0821 06:45:44.721578  1322 net.cpp:408] L3_b8_sum_eltwise_top_L3_b8_relu_0_split -> L3_b8_sum_eltwise_top_L3_b8_relu_0_split_1
I0821 06:45:44.721628  1322 net.cpp:150] Setting up L3_b8_sum_eltwise_top_L3_b8_relu_0_split
I0821 06:45:44.721639  1322 net.cpp:157] Top shape: 125 64 8 8 (512000)
I0821 06:45:44.721647  1322 net.cpp:157] Top shape: 125 64 8 8 (512000)
I0821 06:45:44.721650  1322 net.cpp:165] Memory required for data: 1432065500
I0821 06:45:44.721655  1322 layer_factory.hpp:77] Creating layer L3_b9_cbr1_conv
I0821 06:45:44.721666  1322 net.cpp:100] Creating Layer L3_b9_cbr1_conv
I0821 06:45:44.721673  1322 net.cpp:434] L3_b9_cbr1_conv <- L3_b8_sum_eltwise_top_L3_b8_relu_0_split_0
I0821 06:45:44.721684  1322 net.cpp:408] L3_b9_cbr1_conv -> L3_b9_cbr1_conv_top
I0821 06:45:44.723685  1322 net.cpp:150] Setting up L3_b9_cbr1_conv
I0821 06:45:44.723702  1322 net.cpp:157] Top shape: 125 64 8 8 (512000)
I0821 06:45:44.723707  1322 net.cpp:165] Memory required for data: 1434113500
I0821 06:45:44.723717  1322 layer_factory.hpp:77] Creating layer L3_b9_cbr1_bn
I0821 06:45:44.723731  1322 net.cpp:100] Creating Layer L3_b9_cbr1_bn
I0821 06:45:44.723737  1322 net.cpp:434] L3_b9_cbr1_bn <- L3_b9_cbr1_conv_top
I0821 06:45:44.723745  1322 net.cpp:408] L3_b9_cbr1_bn -> L3_b9_cbr1_bn_top
I0821 06:45:44.724017  1322 net.cpp:150] Setting up L3_b9_cbr1_bn
I0821 06:45:44.724030  1322 net.cpp:157] Top shape: 125 64 8 8 (512000)
I0821 06:45:44.724035  1322 net.cpp:165] Memory required for data: 1436161500
I0821 06:45:44.724046  1322 layer_factory.hpp:77] Creating layer L3_b9_cbr1_scale
I0821 06:45:44.724061  1322 net.cpp:100] Creating Layer L3_b9_cbr1_scale
I0821 06:45:44.724066  1322 net.cpp:434] L3_b9_cbr1_scale <- L3_b9_cbr1_bn_top
I0821 06:45:44.724074  1322 net.cpp:395] L3_b9_cbr1_scale -> L3_b9_cbr1_bn_top (in-place)
I0821 06:45:44.724134  1322 layer_factory.hpp:77] Creating layer L3_b9_cbr1_scale
I0821 06:45:44.724294  1322 net.cpp:150] Setting up L3_b9_cbr1_scale
I0821 06:45:44.724306  1322 net.cpp:157] Top shape: 125 64 8 8 (512000)
I0821 06:45:44.724311  1322 net.cpp:165] Memory required for data: 1438209500
I0821 06:45:44.724321  1322 layer_factory.hpp:77] Creating layer L3_b9_cbr1_relu
I0821 06:45:44.724333  1322 net.cpp:100] Creating Layer L3_b9_cbr1_relu
I0821 06:45:44.724339  1322 net.cpp:434] L3_b9_cbr1_relu <- L3_b9_cbr1_bn_top
I0821 06:45:44.724345  1322 net.cpp:395] L3_b9_cbr1_relu -> L3_b9_cbr1_bn_top (in-place)
I0821 06:45:44.724355  1322 net.cpp:150] Setting up L3_b9_cbr1_relu
I0821 06:45:44.724362  1322 net.cpp:157] Top shape: 125 64 8 8 (512000)
I0821 06:45:44.724367  1322 net.cpp:165] Memory required for data: 1440257500
I0821 06:45:44.724372  1322 layer_factory.hpp:77] Creating layer L3_b9_cbr2_conv
I0821 06:45:44.724386  1322 net.cpp:100] Creating Layer L3_b9_cbr2_conv
I0821 06:45:44.724392  1322 net.cpp:434] L3_b9_cbr2_conv <- L3_b9_cbr1_bn_top
I0821 06:45:44.724403  1322 net.cpp:408] L3_b9_cbr2_conv -> L3_b9_cbr2_conv_top
I0821 06:45:44.725430  1322 net.cpp:150] Setting up L3_b9_cbr2_conv
I0821 06:45:44.725445  1322 net.cpp:157] Top shape: 125 64 8 8 (512000)
I0821 06:45:44.725450  1322 net.cpp:165] Memory required for data: 1442305500
I0821 06:45:44.725459  1322 layer_factory.hpp:77] Creating layer L3_b9_cbr2_bn
I0821 06:45:44.725468  1322 net.cpp:100] Creating Layer L3_b9_cbr2_bn
I0821 06:45:44.725476  1322 net.cpp:434] L3_b9_cbr2_bn <- L3_b9_cbr2_conv_top
I0821 06:45:44.725486  1322 net.cpp:408] L3_b9_cbr2_bn -> L3_b9_cbr2_bn_top
I0821 06:45:44.725750  1322 net.cpp:150] Setting up L3_b9_cbr2_bn
I0821 06:45:44.725765  1322 net.cpp:157] Top shape: 125 64 8 8 (512000)
I0821 06:45:44.725771  1322 net.cpp:165] Memory required for data: 1444353500
I0821 06:45:44.725790  1322 layer_factory.hpp:77] Creating layer L3_b9_cbr2_scale
I0821 06:45:44.725798  1322 net.cpp:100] Creating Layer L3_b9_cbr2_scale
I0821 06:45:44.725805  1322 net.cpp:434] L3_b9_cbr2_scale <- L3_b9_cbr2_bn_top
I0821 06:45:44.725812  1322 net.cpp:395] L3_b9_cbr2_scale -> L3_b9_cbr2_bn_top (in-place)
I0821 06:45:44.725878  1322 layer_factory.hpp:77] Creating layer L3_b9_cbr2_scale
I0821 06:45:44.726035  1322 net.cpp:150] Setting up L3_b9_cbr2_scale
I0821 06:45:44.726048  1322 net.cpp:157] Top shape: 125 64 8 8 (512000)
I0821 06:45:44.726053  1322 net.cpp:165] Memory required for data: 1446401500
I0821 06:45:44.726063  1322 layer_factory.hpp:77] Creating layer L3_b9_sum_eltwise
I0821 06:45:44.726074  1322 net.cpp:100] Creating Layer L3_b9_sum_eltwise
I0821 06:45:44.726081  1322 net.cpp:434] L3_b9_sum_eltwise <- L3_b9_cbr2_bn_top
I0821 06:45:44.726089  1322 net.cpp:434] L3_b9_sum_eltwise <- L3_b8_sum_eltwise_top_L3_b8_relu_0_split_1
I0821 06:45:44.726096  1322 net.cpp:408] L3_b9_sum_eltwise -> L3_b9_sum_eltwise_top
I0821 06:45:44.726135  1322 net.cpp:150] Setting up L3_b9_sum_eltwise
I0821 06:45:44.726147  1322 net.cpp:157] Top shape: 125 64 8 8 (512000)
I0821 06:45:44.726151  1322 net.cpp:165] Memory required for data: 1448449500
I0821 06:45:44.726157  1322 layer_factory.hpp:77] Creating layer L3_b9_relu
I0821 06:45:44.726164  1322 net.cpp:100] Creating Layer L3_b9_relu
I0821 06:45:44.726171  1322 net.cpp:434] L3_b9_relu <- L3_b9_sum_eltwise_top
I0821 06:45:44.726177  1322 net.cpp:395] L3_b9_relu -> L3_b9_sum_eltwise_top (in-place)
I0821 06:45:44.726187  1322 net.cpp:150] Setting up L3_b9_relu
I0821 06:45:44.726194  1322 net.cpp:157] Top shape: 125 64 8 8 (512000)
I0821 06:45:44.726198  1322 net.cpp:165] Memory required for data: 1450497500
I0821 06:45:44.726203  1322 layer_factory.hpp:77] Creating layer post_pool
I0821 06:45:44.726212  1322 net.cpp:100] Creating Layer post_pool
I0821 06:45:44.726217  1322 net.cpp:434] post_pool <- L3_b9_sum_eltwise_top
I0821 06:45:44.726228  1322 net.cpp:408] post_pool -> post_pool
I0821 06:45:44.726263  1322 net.cpp:150] Setting up post_pool
I0821 06:45:44.726274  1322 net.cpp:157] Top shape: 125 64 1 1 (8000)
I0821 06:45:44.726279  1322 net.cpp:165] Memory required for data: 1450529500
I0821 06:45:44.726284  1322 layer_factory.hpp:77] Creating layer post_FC
I0821 06:45:44.726380  1322 net.cpp:100] Creating Layer post_FC
I0821 06:45:44.726393  1322 net.cpp:434] post_FC <- post_pool
I0821 06:45:44.726408  1322 net.cpp:408] post_FC -> post_FC_top
I0821 06:45:44.726670  1322 net.cpp:150] Setting up post_FC
I0821 06:45:44.726686  1322 net.cpp:157] Top shape: 125 10 (1250)
I0821 06:45:44.726691  1322 net.cpp:165] Memory required for data: 1450534500
I0821 06:45:44.726699  1322 layer_factory.hpp:77] Creating layer post_FC_top_post_FC_0_split
I0821 06:45:44.726711  1322 net.cpp:100] Creating Layer post_FC_top_post_FC_0_split
I0821 06:45:44.726718  1322 net.cpp:434] post_FC_top_post_FC_0_split <- post_FC_top
I0821 06:45:44.726727  1322 net.cpp:408] post_FC_top_post_FC_0_split -> post_FC_top_post_FC_0_split_0
I0821 06:45:44.726737  1322 net.cpp:408] post_FC_top_post_FC_0_split -> post_FC_top_post_FC_0_split_1
I0821 06:45:44.726789  1322 net.cpp:150] Setting up post_FC_top_post_FC_0_split
I0821 06:45:44.726801  1322 net.cpp:157] Top shape: 125 10 (1250)
I0821 06:45:44.726809  1322 net.cpp:157] Top shape: 125 10 (1250)
I0821 06:45:44.726814  1322 net.cpp:165] Memory required for data: 1450544500
I0821 06:45:44.726819  1322 layer_factory.hpp:77] Creating layer accuracy
I0821 06:45:44.726871  1322 net.cpp:100] Creating Layer accuracy
I0821 06:45:44.726883  1322 net.cpp:434] accuracy <- post_FC_top_post_FC_0_split_0
I0821 06:45:44.726891  1322 net.cpp:434] accuracy <- label_dataLayer_1_split_0
I0821 06:45:44.726899  1322 net.cpp:408] accuracy -> accuracy
…
