…
I0817 16:29:31.789494 17472 net.cpp:322] The NetState phase (0) differed from the phase (1) specified by a rule in layer L3_b9_cbr2_bn
I0817 16:29:31.791250 17472 net.cpp:58] Initializing net from parameters: 
name: "Cifar-Resnet"
state {
  phase: TRAIN
  level: 0
  stage: ""
}
layer {
  name: "dataLayer"
  type: "Data"
  top: "data_top"
  top: "label"
  include {
    phase: TRAIN
  }
  transform_param {
    mirror: true
    crop_size: 32
    mean_file: "examples/cifar10/mean.binaryproto"
  }
  data_param {
    source: "examples/cifar10/cifar10_train_lmdb"
    batch_size: 125
    backend: LMDB
  }
  image_data_param {
    shuffle: true
  }
}
layer {
  name: "pre_conv"
  type: "Convolution"
  bottom: "data_top"
  top: "pre_conv_top"
  param {
    lr_mult: 1
    decay_mult: 1
  }
  param {
    lr_mult: 2
    decay_mult: 0
  }
  convolution_param {
    num_output: 16
    pad: 1
    kernel_size: 3
    stride: 1
    weight_filler {
      type: "msra"
    }
    bias_filler {
      type: "constant"
    }
  }
}
layer {
  name: "pre_bn"
  type: "BatchNorm"
  bottom: "pre_conv_top"
  top: "pre_bn_top"
  include {
    phase: TRAIN
  }
  batch_norm_param {
    use_global_stats: false
    moving_average_fraction: 0.95
  }
}
layer {
  name: "pre_scale"
  type: "Scale"
  bottom: "pre_bn_top"
  top: "pre_bn_top"
  scale_param {
    bias_term: true
  }
}
layer {
  name: "pre_relu"
  type: "ReLU"
  bottom: "pre_bn_top"
  top: "pre_bn_top"
}
layer {
  name: "L1_b1_cbr1_conv"
  type: "Convolution"
  bottom: "pre_bn_top"
  top: "L1_b1_cbr1_conv_top"
  param {
    lr_mult: 1
    decay_mult: 1
  }
  param {
    lr_mult: 2
    decay_mult: 0
  }
  convolution_param {
    num_output: 16
    pad: 1
    kernel_size: 3
    stride: 1
    weight_filler {
      type: "msra"
    }
    bias_filler {
      type: "constant"
    }
  }
}
layer {
  name: "L1_b1_cbr1_bn"
  type: "BatchNorm"
  bottom: "L1_b1_cbr1_conv_top"
  top: "L1_b1_cbr1_bn_top"
  include {
    phase: TRAIN
  }
  batch_norm_param {
    use_global_stats: false
    moving_average_fraction: 0.95
  }
}
layer {
  name: "L1_b1_cbr1_scale"
  type: "Scale"
  bottom: "L1_b1_cbr1_bn_top"
  top: "L1_b1_cbr1_bn_top"
  scale_param {
    bias_term: true
  }
}
layer {
  name: "L1_b1_cbr1_relu"
  type: "ReLU"
  bottom: "L1_b1_cbr1_bn_top"
  top: "L1_b1_cbr1_bn_top"
}
layer {
  name: "L1_b1_cbr2_conv"
  type: "Convolution"
  bottom: "L1_b1_cbr1_bn_top"
  top: "L1_b1_cbr2_conv_top"
  param {
    lr_mult: 1
    decay_mult: 1
  }
  param {
    lr_mult: 2
    decay_mult: 0
  }
  convolution_param {
    num_output: 16
    pad: 1
    kernel_size: 3
    stride: 1
    weight_filler {
      type: "msra"
    }
    bias_filler {
      type: "constant"
    }
  }
}
layer {
  name: "L1_b1_cbr2_bn"
  type: "BatchNorm"
  bottom: "L1_b1_cbr2_conv_top"
  top: "L1_b1_cbr2_bn_top"
  include {
    phase: TRAIN
  }
  batch_norm_param {
    use_global_stats: false
    moving_average_fraction: 0.95
  }
}
layer {
  name: "L1_b1_cbr2_scale"
  type: "Scale"
  bottom: "L1_b1_cbr2_bn_top"
  top: "L1_b1_cbr2_bn_top"
  scale_param {
    bias_term: true
  }
}
layer {
  name: "L1_b1_sum_eltwise"
  type: "Eltwise"
  bottom: "L1_b1_cbr2_bn_top"
  bottom: "pre_bn_top"
  top: "L1_b1_sum_eltwise_top"
  eltwise_param {
    operation: SUM
  }
}
layer {
  name: "L1_b1_relu"
  type: "ReLU"
  bottom: "L1_b1_sum_eltwise_top"
  top: "L1_b1_sum_eltwise_top"
}
layer {
  name: "L1_b2_cbr1_conv"
  type: "Convolution"
  bottom: "L1_b1_sum_eltwise_top"
  top: "L1_b2_cbr1_conv_top"
  param {
    lr_mult: 1
    decay_mult: 1
  }
  param {
    lr_mult: 2
    decay_mult: 0
  }
  convolution_param {
    num_output: 16
    pad: 1
    kernel_size: 3
    stride: 1
    weight_filler {
      type: "msra"
    }
    bias_filler {
      type: "constant"
    }
  }
}
layer {
  name: "L1_b2_cbr1_bn"
  type: "BatchNorm"
  bottom: "L1_b2_cbr1_conv_top"
  top: "L1_b2_cbr1_bn_top"
  include {
    phase: TRAIN
  }
  batch_norm_param {
    use_global_stats: false
    moving_average_fraction: 0.95
  }
}
layer {
  name: "L1_b2_cbr1_scale"
  type: "Scale"
  bottom: "L1_b2_cbr1_bn_top"
  top: "L1_b2_cbr1_bn_top"
  scale_param {
    bias_term: true
  }
}
layer {
  name: "L1_b2_cbr1_relu"
  type: "ReLU"
  bottom: "L1_b2_cbr1_bn_top"
  top: "L1_b2_cbr1_bn_top"
}
layer {
  name: "L1_b2_cbr2_conv"
  type: "Convolution"
  bottom: "L1_b2_cbr1_bn_top"
  top: "L1_b2_cbr2_conv_top"
  param {
    lr_mult: 1
    decay_mult: 1
  }
  param {
    lr_mult: 2
    decay_mult: 0
  }
  convolution_param {
    num_output: 16
    pad: 1
    kernel_size: 3
    stride: 1
    weight_filler {
      type: "msra"
    }
    bias_filler {
      type: "constant"
    }
  }
}
layer {
  name: "L1_b2_cbr2_bn"
  type: "BatchNorm"
  bottom: "L1_b2_cbr2_conv_top"
  top: "L1_b2_cbr2_bn_top"
  include {
    phase: TRAIN
  }
  batch_norm_param {
    use_global_stats: false
    moving_average_fraction: 0.95
  }
}
layer {
  name: "L1_b2_cbr2_scale"
  type: "Scale"
  bottom: "L1_b2_cbr2_bn_top"
  top: "L1_b2_cbr2_bn_top"
  scale_param {
    bias_term: true
  }
}
layer {
  name: "L1_b2_sum_eltwise"
  type: "Eltwise"
  bottom: "L1_b2_cbr2_bn_top"
  bottom: "L1_b1_sum_eltwise_top"
  top: "L1_b2_sum_eltwise_top"
  eltwise_param {
    operation: SUM
  }
}
layer {
  name: "L1_b2_relu"
  type: "ReLU"
  bottom: "L1_b2_sum_eltwise_top"
  top: "L1_b2_sum_eltwise_top"
}
layer {
  name: "L1_b3_cbr1_conv"
  type: "Convolution"
  bottom: "L1_b2_sum_eltwise_top"
  top: "L1_b3_cbr1_conv_top"
  param {
    lr_mult: 1
    decay_mult: 1
  }
  param {
    lr_mult: 2
    decay_mult: 0
  }
  convolution_param {
    num_output: 16
    pad: 1
    kernel_size: 3
    stride: 1
    weight_filler {
      type: "msra"
    }
    bias_filler {
      type: "constant"
    }
  }
}
layer {
  name: "L1_b3_cbr1_bn"
  type: "BatchNorm"
  bottom: "L1_b3_cbr1_conv_top"
  top: "L1_b3_cbr1_bn_top"
  include {
    phase: TRAIN
  }
  batch_norm_param {
    use_global_stats: false
    moving_average_fraction: 0.95
  }
}
layer {
  name: "L1_b3_cbr1_scale"
  type: "Scale"
  bottom: "L1_b3_cbr1_bn_top"
  top: "L1_b3_cbr1_bn_top"
  scale_param {
    bias_term: true
  }
}
layer {
  name: "L1_b3_cbr1_relu"
  type: "ReLU"
  bottom: "L1_b3_cbr1_bn_top"
  top: "L1_b3_cbr1_bn_top"
}
layer {
  name: "L1_b3_cbr2_conv"
  type: "Convolution"
  bottom: "L1_b3_cbr1_bn_top"
  top: "L1_b3_cbr2_conv_top"
  param {
    lr_mult: 1
    decay_mult: 1
  }
  param {
    lr_mult: 2
    decay_mult: 0
  }
  convolution_param {
    num_output: 16
    pad: 1
    kernel_size: 3
    stride: 1
    weight_filler {
      type: "msra"
    }
    bias_filler {
      type: "constant"
    }
  }
}
layer {
  name: "L1_b3_cbr2_bn"
  type: "BatchNorm"
  bottom: "L1_b3_cbr2_conv_top"
  top: "L1_b3_cbr2_bn_top"
  include {
    phase: TRAIN
  }
  batch_norm_param {
    use_global_stats: false
    moving_average_fraction: 0.95
  }
}
layer {
  name: "L1_b3_cbr2_scale"
  type: "Scale"
  bottom: "L1_b3_cbr2_bn_top"
  top: "L1_b3_cbr2_bn_top"
  scale_param {
    bias_term: true
  }
}
layer {
  name: "L1_b3_sum_eltwise"
  type: "Eltwise"
  bottom: "L1_b3_cbr2_bn_top"
  bottom: "L1_b2_sum_eltwise_top"
  top: "L1_b3_sum_eltwise_top"
  eltwise_param {
    operation: SUM
  }
}
layer {
  name: "L1_b3_relu"
  type: "ReLU"
  bottom: "L1_b3_sum_eltwise_top"
  top: "L1_b3_sum_eltwise_top"
}
layer {
  name: "L1_b4_cbr1_conv"
  type: "Convolution"
  bottom: "L1_b3_sum_eltwise_top"
  top: "L1_b4_cbr1_conv_top"
  param {
    lr_mult: 1
    decay_mult: 1
  }
  param {
    lr_mult: 2
    decay_mult: 0
  }
  convolution_param {
    num_output: 16
    pad: 1
    kernel_size: 3
    stride: 1
    weight_filler {
      type: "msra"
    }
    bias_filler {
      type: "constant"
    }
  }
}
layer {
  name: "L1_b4_cbr1_bn"
  type: "BatchNorm"
  bottom: "L1_b4_cbr1_conv_top"
  top: "L1_b4_cbr1_bn_top"
  include {
    phase: TRAIN
  }
  batch_norm_param {
    use_global_stats: false
    moving_average_fraction: 0.95
  }
}
layer {
  name: "L1_b4_cbr1_scale"
  type: "Scale"
  bottom: "L1_b4_cbr1_bn_top"
  top: "L1_b4_cbr1_bn_top"
  scale_param {
    bias_term: true
  }
}
layer {
  name: "L1_b4_cbr1_relu"
  type: "ReLU"
  bottom: "L1_b4_cbr1_bn_top"
  top: "L1_b4_cbr1_bn_top"
}
layer {
  name: "L1_b4_cbr2_conv"
  type: "Convolution"
  bottom: "L1_b4_cbr1_bn_top"
  top: "L1_b4_cbr2_conv_top"
  param {
    lr_mult: 1
    decay_mult: 1
  }
  param {
    lr_mult: 2
    decay_mult: 0
  }
  convolution_param {
    num_output: 16
    pad: 1
    kernel_size: 3
    stride: 1
    weight_filler {
      type: "msra"
    }
    bias_filler {
      type: "constant"
    }
  }
}
layer {
  name: "L1_b4_cbr2_bn"
  type: "BatchNorm"
  bottom: "L1_b4_cbr2_conv_top"
  top: "L1_b4_cbr2_bn_top"
  include {
    phase: TRAIN
  }
  batch_norm_param {
    use_global_stats: false
    moving_average_fraction: 0.95
  }
}
layer {
  name: "L1_b4_cbr2_scale"
  type: "Scale"
  bottom: "L1_b4_cbr2_bn_top"
  top: "L1_b4_cbr2_bn_top"
  scale_param {
    bias_term: true
  }
}
layer {
  name: "L1_b4_sum_eltwise"
  type: "Eltwise"
  bottom: "L1_b4_cbr2_bn_top"
  bottom: "L1_b3_sum_eltwise_top"
  top: "L1_b4_sum_eltwise_top"
  eltwise_param {
    operation: SUM
  }
}
layer {
  name: "L1_b4_relu"
  type: "ReLU"
  bottom: "L1_b4_sum_eltwise_top"
  top: "L1_b4_sum_eltwise_top"
}
layer {
  name: "L1_b5_cbr1_conv"
  type: "Convolution"
  bottom: "L1_b4_sum_eltwise_top"
  top: "L1_b5_cbr1_conv_top"
  param {
    lr_mult: 1
    decay_mult: 1
  }
  param {
    lr_mult: 2
    decay_mult: 0
  }
  convolution_param {
    num_output: 16
    pad: 1
    kernel_size: 3
    stride: 1
    weight_filler {
      type: "msra"
    }
    bias_filler {
      type: "constant"
    }
  }
}
layer {
  name: "L1_b5_cbr1_bn"
  type: "BatchNorm"
  bottom: "L1_b5_cbr1_conv_top"
  top: "L1_b5_cbr1_bn_top"
  include {
    phase: TRAIN
  }
  batch_norm_param {
    use_global_stats: false
    moving_average_fraction: 0.95
  }
}
layer {
  name: "L1_b5_cbr1_scale"
  type: "Scale"
  bottom: "L1_b5_cbr1_bn_top"
  top: "L1_b5_cbr1_bn_top"
  scale_param {
    bias_term: true
  }
}
layer {
  name: "L1_b5_cbr1_relu"
  type: "ReLU"
  bottom: "L1_b5_cbr1_bn_top"
  top: "L1_b5_cbr1_bn_top"
}
layer {
  name: "L1_b5_cbr2_conv"
  type: "Convolution"
  bottom: "L1_b5_cbr1_bn_top"
  top: "L1_b5_cbr2_conv_top"
  param {
    lr_mult: 1
    decay_mult: 1
  }
  param {
    lr_mult: 2
    decay_mult: 0
  }
  convolution_param {
    num_output: 16
    pad: 1
    kernel_size: 3
    stride: 1
    weight_filler {
      type: "msra"
    }
    bias_filler {
      type: "constant"
    }
  }
}
layer {
  name: "L1_b5_cbr2_bn"
  type: "BatchNorm"
  bottom: "L1_b5_cbr2_conv_top"
  top: "L1_b5_cbr2_bn_top"
  include {
    phase: TRAIN
  }
  batch_norm_param {
    use_global_stats: false
    moving_average_fraction: 0.95
  }
}
layer {
  name: "L1_b5_cbr2_scale"
  type: "Scale"
  bottom: "L1_b5_cbr2_bn_top"
  top: "L1_b5_cbr2_bn_top"
  scale_param {
    bias_term: true
  }
}
layer {
  name: "L1_b5_sum_eltwise"
  type: "Eltwise"
  bottom: "L1_b5_cbr2_bn_top"
  bottom: "L1_b4_sum_eltwise_top"
  top: "L1_b5_sum_eltwise_top"
  eltwise_param {
    operation: SUM
  }
}
layer {
  name: "L1_b5_relu"
  type: "ReLU"
  bottom: "L1_b5_sum_eltwise_top"
  top: "L1_b5_sum_eltwise_top"
}
layer {
  name: "L1_b6_cbr1_conv"
  type: "Convolution"
  bottom: "L1_b5_sum_eltwise_top"
  top: "L1_b6_cbr1_conv_top"
  param {
    lr_mult: 1
    decay_mult: 1
  }
  param {
    lr_mult: 2
    decay_mult: 0
  }
  convolution_param {
    num_output: 16
    pad: 1
    kernel_size: 3
    stride: 1
    weight_filler {
      type: "msra"
    }
    bias_filler {
      type: "constant"
    }
  }
}
layer {
  name: "L1_b6_cbr1_bn"
  type: "BatchNorm"
  bottom: "L1_b6_cbr1_conv_top"
  top: "L1_b6_cbr1_bn_top"
  include {
    phase: TRAIN
  }
  batch_norm_param {
    use_global_stats: false
    moving_average_fraction: 0.95
  }
}
layer {
  name: "L1_b6_cbr1_scale"
  type: "Scale"
  bottom: "L1_b6_cbr1_bn_top"
  top: "L1_b6_cbr1_bn_top"
  scale_param {
    bias_term: true
  }
}
layer {
  name: "L1_b6_cbr1_relu"
  type: "ReLU"
  bottom: "L1_b6_cbr1_bn_top"
  top: "L1_b6_cbr1_bn_top"
}
layer {
  name: "L1_b6_cbr2_conv"
  type: "Convolution"
  bottom: "L1_b6_cbr1_bn_top"
  top: "L1_b6_cbr2_conv_top"
  param {
    lr_mult: 1
    decay_mult: 1
  }
  param {
    lr_mult: 2
    decay_mult: 0
  }
  convolution_param {
    num_output: 16
    pad: 1
    kernel_size: 3
    stride: 1
    weight_filler {
      type: "msra"
    }
    bias_filler {
      type: "constant"
    }
  }
}
layer {
  name: "L1_b6_cbr2_bn"
  type: "BatchNorm"
  bottom: "L1_b6_cbr2_conv_top"
  top: "L1_b6_cbr2_bn_top"
  include {
    phase: TRAIN
  }
  batch_norm_param {
    use_global_stats: false
    moving_average_fraction: 0.95
  }
}
layer {
  name: "L1_b6_cbr2_scale"
  type: "Scale"
  bottom: "L1_b6_cbr2_bn_top"
  top: "L1_b6_cbr2_bn_top"
  scale_param {
    bias_term: true
  }
}
layer {
  name: "L1_b6_sum_eltwise"
  type: "Eltwise"
  bottom: "L1_b6_cbr2_bn_top"
  bottom: "L1_b5_sum_eltwise_top"
  top: "L1_b6_sum_eltwise_top"
  eltwise_param {
    operation: SUM
  }
}
layer {
  name: "L1_b6_relu"
  type: "ReLU"
  bottom: "L1_b6_sum_eltwise_top"
  top: "L1_b6_sum_eltwise_top"
}
layer {
  name: "L1_b7_cbr1_conv"
  type: "Convolution"
  bottom: "L1_b6_sum_eltwise_top"
  top: "L1_b7_cbr1_conv_top"
  param {
    lr_mult: 1
    decay_mult: 1
  }
  param {
    lr_mult: 2
    decay_mult: 0
  }
  convolution_param {
    num_output: 16
    pad: 1
    kernel_size: 3
    stride: 1
    weight_filler {
      type: "msra"
    }
    bias_filler {
      type: "constant"
    }
  }
}
layer {
  name: "L1_b7_cbr1_bn"
  type: "BatchNorm"
  bottom: "L1_b7_cbr1_conv_top"
  top: "L1_b7_cbr1_bn_top"
  include {
    phase: TRAIN
  }
  batch_norm_param {
    use_global_stats: false
    moving_average_fraction: 0.95
  }
}
layer {
  name: "L1_b7_cbr1_scale"
  type: "Scale"
  bottom: "L1_b7_cbr1_bn_top"
  top: "L1_b7_cbr1_bn_top"
  scale_param {
    bias_term: true
  }
}
layer {
  name: "L1_b7_cbr1_relu"
  type: "ReLU"
  bottom: "L1_b7_cbr1_bn_top"
  top: "L1_b7_cbr1_bn_top"
}
layer {
  name: "L1_b7_cbr2_conv"
  type: "Convolution"
  bottom: "L1_b7_cbr1_bn_top"
  top: "L1_b7_cbr2_conv_top"
  param {
    lr_mult: 1
    decay_mult: 1
  }
  param {
    lr_mult: 2
    decay_mult: 0
  }
  convolution_param {
    num_output: 16
    pad: 1
    kernel_size: 3
    stride: 1
    weight_filler {
      type: "msra"
    }
    bias_filler {
      type: "constant"
    }
  }
}
layer {
  name: "L1_b7_cbr2_bn"
  type: "BatchNorm"
  bottom: "L1_b7_cbr2_conv_top"
  top: "L1_b7_cbr2_bn_top"
  include {
    phase: TRAIN
  }
  batch_norm_param {
    use_global_stats: false
    moving_average_fraction: 0.95
  }
}
layer {
  name: "L1_b7_cbr2_scale"
  type: "Scale"
  bottom: "L1_b7_cbr2_bn_top"
  top: "L1_b7_cbr2_bn_top"
  scale_param {
    bias_term: true
  }
}
layer {
  name: "L1_b7_sum_eltwise"
  type: "Eltwise"
  bottom: "L1_b7_cbr2_bn_top"
  bottom: "L1_b6_sum_eltwise_top"
  top: "L1_b7_sum_eltwise_top"
  eltwise_param {
    operation: SUM
  }
}
layer {
  name: "L1_b7_relu"
  type: "ReLU"
  bottom: "L1_b7_sum_eltwise_top"
  top: "L1_b7_sum_eltwise_top"
}
layer {
  name: "L1_b8_cbr1_conv"
  type: "Convolution"
  bottom: "L1_b7_sum_eltwise_top"
  top: "L1_b8_cbr1_conv_top"
  param {
    lr_mult: 1
    decay_mult: 1
  }
  param {
    lr_mult: 2
    decay_mult: 0
  }
  convolution_param {
    num_output: 16
    pad: 1
    kernel_size: 3
    stride: 1
    weight_filler {
      type: "msra"
    }
    bias_filler {
      type: "constant"
    }
  }
}
layer {
  name: "L1_b8_cbr1_bn"
  type: "BatchNorm"
  bottom: "L1_b8_cbr1_conv_top"
  top: "L1_b8_cbr1_bn_top"
  include {
    phase: TRAIN
  }
  batch_norm_param {
    use_global_stats: false
    moving_average_fraction: 0.95
  }
}
layer {
  name: "L1_b8_cbr1_scale"
  type: "Scale"
  bottom: "L1_b8_cbr1_bn_top"
  top: "L1_b8_cbr1_bn_top"
  scale_param {
    bias_term: true
  }
}
layer {
  name: "L1_b8_cbr1_relu"
  type: "ReLU"
  bottom: "L1_b8_cbr1_bn_top"
  top: "L1_b8_cbr1_bn_top"
}
layer {
  name: "L1_b8_cbr2_conv"
  type: "Convolution"
  bottom: "L1_b8_cbr1_bn_top"
  top: "L1_b8_cbr2_conv_top"
  param {
    lr_mult: 1
    decay_mult: 1
  }
  param {
    lr_mult: 2
    decay_mult: 0
  }
  convolution_param {
    num_output: 16
    pad: 1
    kernel_size: 3
    stride: 1
    weight_filler {
      type: "msra"
    }
    bias_filler {
      type: "constant"
    }
  }
}
layer {
  name: "L1_b8_cbr2_bn"
  type: "BatchNorm"
  bottom: "L1_b8_cbr2_conv_top"
  top: "L1_b8_cbr2_bn_top"
  include {
    phase: TRAIN
  }
  batch_norm_param {
    use_global_stats: false
    moving_average_fraction: 0.95
  }
}
layer {
  name: "L1_b8_cbr2_scale"
  type: "Scale"
  bottom: "L1_b8_cbr2_bn_top"
  top: "L1_b8_cbr2_bn_top"
  scale_param {
    bias_term: true
  }
}
layer {
  name: "L1_b8_sum_eltwise"
  type: "Eltwise"
  bottom: "L1_b8_cbr2_bn_top"
  bottom: "L1_b7_sum_eltwise_top"
  top: "L1_b8_sum_eltwise_top"
  eltwise_param {
    operation: SUM
  }
}
layer {
  name: "L1_b8_relu"
  type: "ReLU"
  bottom: "L1_b8_sum_eltwise_top"
  top: "L1_b8_sum_eltwise_top"
}
layer {
  name: "L1_b9_cbr1_conv"
  type: "Convolution"
  bottom: "L1_b8_sum_eltwise_top"
  top: "L1_b9_cbr1_conv_top"
  param {
    lr_mult: 1
    decay_mult: 1
  }
  param {
    lr_mult: 2
    decay_mult: 0
  }
  convolution_param {
    num_output: 16
    pad: 1
    kernel_size: 3
    stride: 1
    weight_filler {
      type: "msra"
    }
    bias_filler {
      type: "constant"
    }
  }
}
layer {
  name: "L1_b9_cbr1_bn"
  type: "BatchNorm"
  bottom: "L1_b9_cbr1_conv_top"
  top: "L1_b9_cbr1_bn_top"
  include {
    phase: TRAIN
  }
  batch_norm_param {
    use_global_stats: false
    moving_average_fraction: 0.95
  }
}
layer {
  name: "L1_b9_cbr1_scale"
  type: "Scale"
  bottom: "L1_b9_cbr1_bn_top"
  top: "L1_b9_cbr1_bn_top"
  scale_param {
    bias_term: true
  }
}
layer {
  name: "L1_b9_cbr1_relu"
  type: "ReLU"
  bottom: "L1_b9_cbr1_bn_top"
  top: "L1_b9_cbr1_bn_top"
}
layer {
  name: "L1_b9_cbr2_conv"
  type: "Convolution"
  bottom: "L1_b9_cbr1_bn_top"
  top: "L1_b9_cbr2_conv_top"
  param {
    lr_mult: 1
    decay_mult: 1
  }
  param {
    lr_mult: 2
    decay_mult: 0
  }
  convolution_param {
    num_output: 16
    pad: 1
    kernel_size: 3
    stride: 1
    weight_filler {
      type: "msra"
    }
    bias_filler {
      type: "constant"
    }
  }
}
layer {
  name: "L1_b9_cbr2_bn"
  type: "BatchNorm"
  bottom: "L1_b9_cbr2_conv_top"
  top: "L1_b9_cbr2_bn_top"
  include {
    phase: TRAIN
  }
  batch_norm_param {
    use_global_stats: false
    moving_average_fraction: 0.95
  }
}
layer {
  name: "L1_b9_cbr2_scale"
  type: "Scale"
  bottom: "L1_b9_cbr2_bn_top"
  top: "L1_b9_cbr2_bn_top"
  scale_param {
    bias_term: true
  }
}
layer {
  name: "L1_b9_sum_eltwise"
  type: "Eltwise"
  bottom: "L1_b9_cbr2_bn_top"
  bottom: "L1_b8_sum_eltwise_top"
  top: "L1_b9_sum_eltwise_top"
  eltwise_param {
    operation: SUM
  }
}
layer {
  name: "L1_b9_relu"
  type: "ReLU"
  bottom: "L1_b9_sum_eltwise_top"
  top: "L1_b9_sum_eltwise_top"
}
layer {
  name: "L2_b1_cbr1_conv"
  type: "Convolution"
  bottom: "L1_b9_sum_eltwise_top"
  top: "L2_b1_cbr1_conv_top"
  param {
    lr_mult: 1
    decay_mult: 1
  }
  param {
    lr_mult: 2
    decay_mult: 0
  }
  convolution_param {
    num_output: 16
    pad: 1
    kernel_size: 3
    stride: 2
    weight_filler {
      type: "msra"
    }
    bias_filler {
      type: "constant"
    }
  }
}
layer {
  name: "L2_b1_cbr1_bn"
  type: "BatchNorm"
  bottom: "L2_b1_cbr1_conv_top"
  top: "L2_b1_cbr1_bn_top"
  include {
    phase: TRAIN
  }
  batch_norm_param {
    use_global_stats: false
    moving_average_fraction: 0.95
  }
}
layer {
  name: "L2_b1_cbr1_scale"
  type: "Scale"
  bottom: "L2_b1_cbr1_bn_top"
  top: "L2_b1_cbr1_bn_top"
  scale_param {
    bias_term: true
  }
}
layer {
  name: "L2_b1_cbr1_relu"
  type: "ReLU"
  bottom: "L2_b1_cbr1_bn_top"
  top: "L2_b1_cbr1_bn_top"
}
layer {
  name: "L2_b1_cbr2_conv"
  type: "Convolution"
  bottom: "L2_b1_cbr1_bn_top"
  top: "L2_b1_cbr2_conv_top"
  param {
    lr_mult: 1
    decay_mult: 1
  }
  param {
    lr_mult: 2
    decay_mult: 0
  }
  convolution_param {
    num_output: 16
    pad: 1
    kernel_size: 3
    stride: 1
    weight_filler {
      type: "msra"
    }
    bias_filler {
      type: "constant"
    }
  }
}
layer {
  name: "L2_b1_cbr2_bn"
  type: "BatchNorm"
  bottom: "L2_b1_cbr2_conv_top"
  top: "L2_b1_cbr2_bn_top"
  include {
    phase: TRAIN
  }
  batch_norm_param {
    use_global_stats: false
    moving_average_fraction: 0.95
  }
}
layer {
  name: "L2_b1_cbr2_scale"
  type: "Scale"
  bottom: "L2_b1_cbr2_bn_top"
  top: "L2_b1_cbr2_bn_top"
  scale_param {
    bias_term: true
  }
}
layer {
  name: "L2_b1_pool"
  type: "Pooling"
  bottom: "L1_b9_sum_eltwise_top"
  top: "L2_b1_pool"
  pooling_param {
    pool: AVE
    kernel_size: 3
    stride: 2
  }
}
layer {
  name: "L2_b1_sum_eltwise"
  type: "Eltwise"
  bottom: "L2_b1_cbr2_bn_top"
  bottom: "L2_b1_pool"
  top: "L2_b1_sum_eltwise_top"
  eltwise_param {
    operation: SUM
  }
}
layer {
  name: "L2_b1_relu"
  type: "ReLU"
  bottom: "L2_b1_sum_eltwise_top"
  top: "L2_b1_sum_eltwise_top"
}
layer {
  name: "L2_b1_zeros"
  type: "DummyData"
  top: "L2_b1_zeros"
  dummy_data_param {
    data_filler {
      type: "constant"
      value: 0
    }
    shape {
      dim: 125
      dim: 16
      dim: 16
      dim: 16
    }
  }
}
layer {
  name: "L2_b1_concat0"
  type: "Concat"
  bottom: "L2_b1_sum_eltwise_top"
  bottom: "L2_b1_zeros"
  top: "L2_b1_concat0"
  concat_param {
    axis: 1
  }
}
layer {
  name: "L2_b2_cbr1_conv"
  type: "Convolution"
  bottom: "L2_b1_concat0"
  top: "L2_b2_cbr1_conv_top"
  param {
    lr_mult: 1
    decay_mult: 1
  }
  param {
    lr_mult: 2
    decay_mult: 0
  }
  convolution_param {
    num_output: 32
    pad: 1
    kernel_size: 3
    stride: 1
    weight_filler {
      type: "msra"
    }
    bias_filler {
      type: "constant"
    }
  }
}
layer {
  name: "L2_b2_cbr1_bn"
  type: "BatchNorm"
  bottom: "L2_b2_cbr1_conv_top"
  top: "L2_b2_cbr1_bn_top"
  include {
    phase: TRAIN
  }
  batch_norm_param {
    use_global_stats: false
    moving_average_fraction: 0.95
  }
}
layer {
  name: "L2_b2_cbr1_scale"
  type: "Scale"
  bottom: "L2_b2_cbr1_bn_top"
  top: "L2_b2_cbr1_bn_top"
  scale_param {
    bias_term: true
  }
}
layer {
  name: "L2_b2_cbr1_relu"
  type: "ReLU"
  bottom: "L2_b2_cbr1_bn_top"
  top: "L2_b2_cbr1_bn_top"
}
layer {
  name: "L2_b2_cbr2_conv"
  type: "Convolution"
  bottom: "L2_b2_cbr1_bn_top"
  top: "L2_b2_cbr2_conv_top"
  param {
    lr_mult: 1
    decay_mult: 1
  }
  param {
    lr_mult: 2
    decay_mult: 0
  }
  convolution_param {
    num_output: 32
    pad: 1
    kernel_size: 3
    stride: 1
    weight_filler {
      type: "msra"
    }
    bias_filler {
      type: "constant"
    }
  }
}
layer {
  name: "L2_b2_cbr2_bn"
  type: "BatchNorm"
  bottom: "L2_b2_cbr2_conv_top"
  top: "L2_b2_cbr2_bn_top"
  include {
    phase: TRAIN
  }
  batch_norm_param {
    use_global_stats: false
    moving_average_fraction: 0.95
  }
}
layer {
  name: "L2_b2_cbr2_scale"
  type: "Scale"
  bottom: "L2_b2_cbr2_bn_top"
  top: "L2_b2_cbr2_bn_top"
  scale_param {
    bias_term: true
  }
}
layer {
  name: "L2_b2_sum_eltwise"
  type: "Eltwise"
  bottom: "L2_b2_cbr2_bn_top"
  bottom: "L2_b1_concat0"
  top: "L2_b2_sum_eltwise_top"
  eltwise_param {
    operation: SUM
  }
}
layer {
  name: "L2_b2_relu"
  type: "ReLU"
  bottom: "L2_b2_sum_eltwise_top"
  top: "L2_b2_sum_eltwise_top"
}
layer {
  name: "L2_b3_cbr1_conv"
  type: "Convolution"
  bottom: "L2_b2_sum_eltwise_top"
  top: "L2_b3_cbr1_conv_top"
  param {
    lr_mult: 1
    decay_mult: 1
  }
  param {
    lr_mult: 2
    decay_mult: 0
  }
  convolution_param {
    num_output: 32
    pad: 1
    kernel_size: 3
    stride: 1
    weight_filler {
      type: "msra"
    }
    bias_filler {
      type: "constant"
    }
  }
}
layer {
  name: "L2_b3_cbr1_bn"
  type: "BatchNorm"
  bottom: "L2_b3_cbr1_conv_top"
  top: "L2_b3_cbr1_bn_top"
  include {
    phase: TRAIN
  }
  batch_norm_param {
    use_global_stats: false
    moving_average_fraction: 0.95
  }
}
layer {
  name: "L2_b3_cbr1_scale"
  type: "Scale"
  bottom: "L2_b3_cbr1_bn_top"
  top: "L2_b3_cbr1_bn_top"
  scale_param {
    bias_term: true
  }
}
layer {
  name: "L2_b3_cbr1_relu"
  type: "ReLU"
  bottom: "L2_b3_cbr1_bn_top"
  top: "L2_b3_cbr1_bn_top"
}
layer {
  name: "L2_b3_cbr2_conv"
  type: "Convolution"
  bottom: "L2_b3_cbr1_bn_top"
  top: "L2_b3_cbr2_conv_top"
  param {
    lr_mult: 1
    decay_mult: 1
  }
  param {
    lr_mult: 2
    decay_mult: 0
  }
  convolution_param {
    num_output: 32
    pad: 1
    kernel_size: 3
    stride: 1
    weight_filler {
      type: "msra"
    }
    bias_filler {
      type: "constant"
    }
  }
}
layer {
  name: "L2_b3_cbr2_bn"
  type: "BatchNorm"
  bottom: "L2_b3_cbr2_conv_top"
  top: "L2_b3_cbr2_bn_top"
  include {
    phase: TRAIN
  }
  batch_norm_param {
    use_global_stats: false
    moving_average_fraction: 0.95
  }
}
layer {
  name: "L2_b3_cbr2_scale"
  type: "Scale"
  bottom: "L2_b3_cbr2_bn_top"
  top: "L2_b3_cbr2_bn_top"
  scale_param {
    bias_term: true
  }
}
layer {
  name: "L2_b3_sum_eltwise"
  type: "Eltwise"
  bottom: "L2_b3_cbr2_bn_top"
  bottom: "L2_b2_sum_eltwise_top"
  top: "L2_b3_sum_eltwise_top"
  eltwise_param {
    operation: SUM
  }
}
layer {
  name: "L2_b3_relu"
  type: "ReLU"
  bottom: "L2_b3_sum_eltwise_top"
  top: "L2_b3_sum_eltwise_top"
}
layer {
  name: "L2_b4_cbr1_conv"
  type: "Convolution"
  bottom: "L2_b3_sum_eltwise_top"
  top: "L2_b4_cbr1_conv_top"
  param {
    lr_mult: 1
    decay_mult: 1
  }
  param {
    lr_mult: 2
    decay_mult: 0
  }
  convolution_param {
    num_output: 32
    pad: 1
    kernel_size: 3
    stride: 1
    weight_filler {
      type: "msra"
    }
    bias_filler {
      type: "constant"
    }
  }
}
layer {
  name: "L2_b4_cbr1_bn"
  type: "BatchNorm"
  bottom: "L2_b4_cbr1_conv_top"
  top: "L2_b4_cbr1_bn_top"
  include {
    phase: TRAIN
  }
  batch_norm_param {
    use_global_stats: false
    moving_average_fraction: 0.95
  }
}
layer {
  name: "L2_b4_cbr1_scale"
  type: "Scale"
  bottom: "L2_b4_cbr1_bn_top"
  top: "L2_b4_cbr1_bn_top"
  scale_param {
    bias_term: true
  }
}
layer {
  name: "L2_b4_cbr1_relu"
  type: "ReLU"
  bottom: "L2_b4_cbr1_bn_top"
  top: "L2_b4_cbr1_bn_top"
}
layer {
  name: "L2_b4_cbr2_conv"
  type: "Convolution"
  bottom: "L2_b4_cbr1_bn_top"
  top: "L2_b4_cbr2_conv_top"
  param {
    lr_mult: 1
    decay_mult: 1
  }
  param {
    lr_mult: 2
    decay_mult: 0
  }
  convolution_param {
    num_output: 32
    pad: 1
    kernel_size: 3
    stride: 1
    weight_filler {
      type: "msra"
    }
    bias_filler {
      type: "constant"
    }
  }
}
layer {
  name: "L2_b4_cbr2_bn"
  type: "BatchNorm"
  bottom: "L2_b4_cbr2_conv_top"
  top: "L2_b4_cbr2_bn_top"
  include {
    phase: TRAIN
  }
  batch_norm_param {
    use_global_stats: false
    moving_average_fraction: 0.95
  }
}
layer {
  name: "L2_b4_cbr2_scale"
  type: "Scale"
  bottom: "L2_b4_cbr2_bn_top"
  top: "L2_b4_cbr2_bn_top"
  scale_param {
    bias_term: true
  }
}
layer {
  name: "L2_b4_sum_eltwise"
  type: "Eltwise"
  bottom: "L2_b4_cbr2_bn_top"
  bottom: "L2_b3_sum_eltwise_top"
  top: "L2_b4_sum_eltwise_top"
  eltwise_param {
    operation: SUM
  }
}
layer {
  name: "L2_b4_relu"
  type: "ReLU"
  bottom: "L2_b4_sum_eltwise_top"
  top: "L2_b4_sum_eltwise_top"
}
layer {
  name: "L2_b5_cbr1_conv"
  type: "Convolution"
  bottom: "L2_b4_sum_eltwise_top"
  top: "L2_b5_cbr1_conv_top"
  param {
    lr_mult: 1
    decay_mult: 1
  }
  param {
    lr_mult: 2
    decay_mult: 0
  }
  convolution_param {
    num_output: 32
    pad: 1
    kernel_size: 3
    stride: 1
    weight_filler {
      type: "msra"
    }
    bias_filler {
      type: "constant"
    }
  }
}
layer {
  name: "L2_b5_cbr1_bn"
  type: "BatchNorm"
  bottom: "L2_b5_cbr1_conv_top"
  top: "L2_b5_cbr1_bn_top"
  include {
    phase: TRAIN
  }
  batch_norm_param {
    use_global_stats: false
    moving_average_fraction: 0.95
  }
}
layer {
  name: "L2_b5_cbr1_scale"
  type: "Scale"
  bottom: "L2_b5_cbr1_bn_top"
  top: "L2_b5_cbr1_bn_top"
  scale_param {
    bias_term: true
  }
}
layer {
  name: "L2_b5_cbr1_relu"
  type: "ReLU"
  bottom: "L2_b5_cbr1_bn_top"
  top: "L2_b5_cbr1_bn_top"
}
layer {
  name: "L2_b5_cbr2_conv"
  type: "Convolution"
  bottom: "L2_b5_cbr1_bn_top"
  top: "L2_b5_cbr2_conv_top"
  param {
    lr_mult: 1
    decay_mult: 1
  }
  param {
    lr_mult: 2
    decay_mult: 0
  }
  convolution_param {
    num_output: 32
    pad: 1
    kernel_size: 3
    stride: 1
    weight_filler {
      type: "msra"
    }
    bias_filler {
      type: "constant"
    }
  }
}
layer {
  name: "L2_b5_cbr2_bn"
  type: "BatchNorm"
  bottom: "L2_b5_cbr2_conv_top"
  top: "L2_b5_cbr2_bn_top"
  include {
    phase: TRAIN
  }
  batch_norm_param {
    use_global_stats: false
    moving_average_fraction: 0.95
  }
}
layer {
  name: "L2_b5_cbr2_scale"
  type: "Scale"
  bottom: "L2_b5_cbr2_bn_top"
  top: "L2_b5_cbr2_bn_top"
  scale_param {
    bias_term: true
  }
}
layer {
  name: "L2_b5_sum_eltwise"
  type: "Eltwise"
  bottom: "L2_b5_cbr2_bn_top"
  bottom: "L2_b4_sum_eltwise_top"
  top: "L2_b5_sum_eltwise_top"
  eltwise_param {
    operation: SUM
  }
}
layer {
  name: "L2_b5_relu"
  type: "ReLU"
  bottom: "L2_b5_sum_eltwise_top"
  top: "L2_b5_sum_eltwise_top"
}
layer {
  name: "L2_b6_cbr1_conv"
  type: "Convolution"
  bottom: "L2_b5_sum_eltwise_top"
  top: "L2_b6_cbr1_conv_top"
  param {
    lr_mult: 1
    decay_mult: 1
  }
  param {
    lr_mult: 2
    decay_mult: 0
  }
  convolution_param {
    num_output: 32
    pad: 1
    kernel_size: 3
    stride: 1
    weight_filler {
      type: "msra"
    }
    bias_filler {
      type: "constant"
    }
  }
}
layer {
  name: "L2_b6_cbr1_bn"
  type: "BatchNorm"
  bottom: "L2_b6_cbr1_conv_top"
  top: "L2_b6_cbr1_bn_top"
  include {
    phase: TRAIN
  }
  batch_norm_param {
    use_global_stats: false
    moving_average_fraction: 0.95
  }
}
layer {
  name: "L2_b6_c
I0817 16:29:31.793385 17472 layer_factory.hpp:77] Creating layer dataLayer
I0817 16:29:31.794610 17472 net.cpp:100] Creating Layer dataLayer
I0817 16:29:31.794697 17472 net.cpp:408] dataLayer -> data_top
I0817 16:29:31.794879 17472 net.cpp:408] dataLayer -> label
I0817 16:29:31.794998 17472 data_transformer.cpp:25] Loading mean file from: examples/cifar10/mean.binaryproto
I0817 16:29:31.804155 17477 db_lmdb.cpp:35] Opened lmdb examples/cifar10/cifar10_train_lmdb
I0817 16:29:31.826515 17472 data_layer.cpp:41] output data size: 125,3,32,32
I0817 16:29:31.834045 17472 net.cpp:150] Setting up dataLayer
I0817 16:29:31.834116 17472 net.cpp:157] Top shape: 125 3 32 32 (384000)
I0817 16:29:31.834132 17472 net.cpp:157] Top shape: 125 (125)
I0817 16:29:31.834139 17472 net.cpp:165] Memory required for data: 1536500
I0817 16:29:31.834156 17472 layer_factory.hpp:77] Creating layer label_dataLayer_1_split
I0817 16:29:31.834170 17472 net.cpp:100] Creating Layer label_dataLayer_1_split
I0817 16:29:31.834178 17472 net.cpp:434] label_dataLayer_1_split <- label
I0817 16:29:31.834197 17472 net.cpp:408] label_dataLayer_1_split -> label_dataLayer_1_split_0
I0817 16:29:31.834213 17472 net.cpp:408] label_dataLayer_1_split -> label_dataLayer_1_split_1
I0817 16:29:31.834357 17472 net.cpp:150] Setting up label_dataLayer_1_split
I0817 16:29:31.834372 17472 net.cpp:157] Top shape: 125 (125)
I0817 16:29:31.834379 17472 net.cpp:157] Top shape: 125 (125)
I0817 16:29:31.834384 17472 net.cpp:165] Memory required for data: 1537500
I0817 16:29:31.834389 17472 layer_factory.hpp:77] Creating layer pre_conv
I0817 16:29:31.834457 17472 net.cpp:100] Creating Layer pre_conv
I0817 16:29:31.834470 17472 net.cpp:434] pre_conv <- data_top
I0817 16:29:31.834482 17472 net.cpp:408] pre_conv -> pre_conv_top
I0817 16:29:31.836349 17472 net.cpp:150] Setting up pre_conv
I0817 16:29:31.836369 17472 net.cpp:157] Top shape: 125 16 32 32 (2048000)
I0817 16:29:31.836374 17472 net.cpp:165] Memory required for data: 9729500
I0817 16:29:31.836434 17472 layer_factory.hpp:77] Creating layer pre_bn
I0817 16:29:31.836500 17472 net.cpp:100] Creating Layer pre_bn
I0817 16:29:31.836511 17472 net.cpp:434] pre_bn <- pre_conv_top
I0817 16:29:31.836521 17472 net.cpp:408] pre_bn -> pre_bn_top
I0817 16:29:31.837172 17472 net.cpp:150] Setting up pre_bn
I0817 16:29:31.837190 17472 net.cpp:157] Top shape: 125 16 32 32 (2048000)
I0817 16:29:31.837196 17472 net.cpp:165] Memory required for data: 17921500
I0817 16:29:31.837214 17472 layer_factory.hpp:77] Creating layer pre_scale
I0817 16:29:31.837235 17478 blocking_queue.cpp:50] Waiting for data
I0817 16:29:31.837266 17472 net.cpp:100] Creating Layer pre_scale
I0817 16:29:31.837277 17472 net.cpp:434] pre_scale <- pre_bn_top
I0817 16:29:31.837286 17472 net.cpp:395] pre_scale -> pre_bn_top (in-place)
I0817 16:29:31.837460 17472 layer_factory.hpp:77] Creating layer pre_scale
I0817 16:29:31.837715 17472 net.cpp:150] Setting up pre_scale
I0817 16:29:31.837730 17472 net.cpp:157] Top shape: 125 16 32 32 (2048000)
I0817 16:29:31.837736 17472 net.cpp:165] Memory required for data: 26113500
I0817 16:29:31.837754 17472 layer_factory.hpp:77] Creating layer pre_relu
I0817 16:29:31.837796 17472 net.cpp:100] Creating Layer pre_relu
I0817 16:29:31.837805 17472 net.cpp:434] pre_relu <- pre_bn_top
I0817 16:29:31.837817 17472 net.cpp:395] pre_relu -> pre_bn_top (in-place)
I0817 16:29:31.837828 17472 net.cpp:150] Setting up pre_relu
I0817 16:29:31.837836 17472 net.cpp:157] Top shape: 125 16 32 32 (2048000)
I0817 16:29:31.837841 17472 net.cpp:165] Memory required for data: 34305500
I0817 16:29:31.837846 17472 layer_factory.hpp:77] Creating layer pre_bn_top_pre_relu_0_split
I0817 16:29:31.837852 17472 net.cpp:100] Creating Layer pre_bn_top_pre_relu_0_split
I0817 16:29:31.837857 17472 net.cpp:434] pre_bn_top_pre_relu_0_split <- pre_bn_top
I0817 16:29:31.837867 17472 net.cpp:408] pre_bn_top_pre_relu_0_split -> pre_bn_top_pre_relu_0_split_0
I0817 16:29:31.837878 17472 net.cpp:408] pre_bn_top_pre_relu_0_split -> pre_bn_top_pre_relu_0_split_1
I0817 16:29:31.837923 17472 net.cpp:150] Setting up pre_bn_top_pre_relu_0_split
I0817 16:29:31.837934 17472 net.cpp:157] Top shape: 125 16 32 32 (2048000)
I0817 16:29:31.837940 17472 net.cpp:157] Top shape: 125 16 32 32 (2048000)
I0817 16:29:31.837945 17472 net.cpp:165] Memory required for data: 50689500
I0817 16:29:31.837950 17472 layer_factory.hpp:77] Creating layer L1_b1_cbr1_conv
I0817 16:29:31.837965 17472 net.cpp:100] Creating Layer L1_b1_cbr1_conv
I0817 16:29:31.837971 17472 net.cpp:434] L1_b1_cbr1_conv <- pre_bn_top_pre_relu_0_split_0
I0817 16:29:31.837980 17472 net.cpp:408] L1_b1_cbr1_conv -> L1_b1_cbr1_conv_top
I0817 16:29:31.838312 17472 net.cpp:150] Setting up L1_b1_cbr1_conv
I0817 16:29:31.838327 17472 net.cpp:157] Top shape: 125 16 32 32 (2048000)
I0817 16:29:31.838333 17472 net.cpp:165] Memory required for data: 58881500
I0817 16:29:31.838346 17472 layer_factory.hpp:77] Creating layer L1_b1_cbr1_bn
I0817 16:29:31.838361 17472 net.cpp:100] Creating Layer L1_b1_cbr1_bn
I0817 16:29:31.838367 17472 net.cpp:434] L1_b1_cbr1_bn <- L1_b1_cbr1_conv_top
I0817 16:29:31.838376 17472 net.cpp:408] L1_b1_cbr1_bn -> L1_b1_cbr1_bn_top
I0817 16:29:31.838605 17472 net.cpp:150] Setting up L1_b1_cbr1_bn
I0817 16:29:31.838618 17472 net.cpp:157] Top shape: 125 16 32 32 (2048000)
I0817 16:29:31.838624 17472 net.cpp:165] Memory required for data: 67073500
I0817 16:29:31.838634 17472 layer_factory.hpp:77] Creating layer L1_b1_cbr1_scale
I0817 16:29:31.838645 17472 net.cpp:100] Creating Layer L1_b1_cbr1_scale
I0817 16:29:31.838651 17472 net.cpp:434] L1_b1_cbr1_scale <- L1_b1_cbr1_bn_top
I0817 16:29:31.838660 17472 net.cpp:395] L1_b1_cbr1_scale -> L1_b1_cbr1_bn_top (in-place)
I0817 16:29:31.838712 17472 layer_factory.hpp:77] Creating layer L1_b1_cbr1_scale
I0817 16:29:31.838846 17472 net.cpp:150] Setting up L1_b1_cbr1_scale
I0817 16:29:31.838860 17472 net.cpp:157] Top shape: 125 16 32 32 (2048000)
I0817 16:29:31.838865 17472 net.cpp:165] Memory required for data: 75265500
I0817 16:29:31.838873 17472 layer_factory.hpp:77] Creating layer L1_b1_cbr1_relu
I0817 16:29:31.838889 17472 net.cpp:100] Creating Layer L1_b1_cbr1_relu
I0817 16:29:31.838896 17472 net.cpp:434] L1_b1_cbr1_relu <- L1_b1_cbr1_bn_top
I0817 16:29:31.838906 17472 net.cpp:395] L1_b1_cbr1_relu -> L1_b1_cbr1_bn_top (in-place)
I0817 16:29:31.838915 17472 net.cpp:150] Setting up L1_b1_cbr1_relu
I0817 16:29:31.838922 17472 net.cpp:157] Top shape: 125 16 32 32 (2048000)
I0817 16:29:31.838927 17472 net.cpp:165] Memory required for data: 83457500
I0817 16:29:31.838932 17472 layer_factory.hpp:77] Creating layer L1_b1_cbr2_conv
I0817 16:29:31.838946 17472 net.cpp:100] Creating Layer L1_b1_cbr2_conv
I0817 16:29:31.838953 17472 net.cpp:434] L1_b1_cbr2_conv <- L1_b1_cbr1_bn_top
I0817 16:29:31.838960 17472 net.cpp:408] L1_b1_cbr2_conv -> L1_b1_cbr2_conv_top
I0817 16:29:31.839267 17472 net.cpp:150] Setting up L1_b1_cbr2_conv
I0817 16:29:31.839280 17472 net.cpp:157] Top shape: 125 16 32 32 (2048000)
I0817 16:29:31.839285 17472 net.cpp:165] Memory required for data: 91649500
I0817 16:29:31.839294 17472 layer_factory.hpp:77] Creating layer L1_b1_cbr2_bn
I0817 16:29:31.839308 17472 net.cpp:100] Creating Layer L1_b1_cbr2_bn
I0817 16:29:31.839313 17472 net.cpp:434] L1_b1_cbr2_bn <- L1_b1_cbr2_conv_top
I0817 16:29:31.839321 17472 net.cpp:408] L1_b1_cbr2_bn -> L1_b1_cbr2_bn_top
I0817 16:29:31.839546 17472 net.cpp:150] Setting up L1_b1_cbr2_bn
I0817 16:29:31.839560 17472 net.cpp:157] Top shape: 125 16 32 32 (2048000)
I0817 16:29:31.839565 17472 net.cpp:165] Memory required for data: 99841500
I0817 16:29:31.839578 17472 layer_factory.hpp:77] Creating layer L1_b1_cbr2_scale
I0817 16:29:31.839591 17472 net.cpp:100] Creating Layer L1_b1_cbr2_scale
I0817 16:29:31.839597 17472 net.cpp:434] L1_b1_cbr2_scale <- L1_b1_cbr2_bn_top
I0817 16:29:31.839606 17472 net.cpp:395] L1_b1_cbr2_scale -> L1_b1_cbr2_bn_top (in-place)
I0817 16:29:31.839663 17472 layer_factory.hpp:77] Creating layer L1_b1_cbr2_scale
I0817 16:29:31.839805 17472 net.cpp:150] Setting up L1_b1_cbr2_scale
I0817 16:29:31.839818 17472 net.cpp:157] Top shape: 125 16 32 32 (2048000)
I0817 16:29:31.839823 17472 net.cpp:165] Memory required for data: 108033500
I0817 16:29:31.839831 17472 layer_factory.hpp:77] Creating layer L1_b1_sum_eltwise
I0817 16:29:31.839882 17472 net.cpp:100] Creating Layer L1_b1_sum_eltwise
I0817 16:29:31.839893 17472 net.cpp:434] L1_b1_sum_eltwise <- L1_b1_cbr2_bn_top
I0817 16:29:31.839901 17472 net.cpp:434] L1_b1_sum_eltwise <- pre_bn_top_pre_relu_0_split_1
I0817 16:29:31.839912 17472 net.cpp:408] L1_b1_sum_eltwise -> L1_b1_sum_eltwise_top
I0817 16:29:31.839985 17472 net.cpp:150] Setting up L1_b1_sum_eltwise
I0817 16:29:31.839999 17472 net.cpp:157] Top shape: 125 16 32 32 (2048000)
I0817 16:29:31.840004 17472 net.cpp:165] Memory required for data: 116225500
I0817 16:29:31.840010 17472 layer_factory.hpp:77] Creating layer L1_b1_relu
I0817 16:29:31.840018 17472 net.cpp:100] Creating Layer L1_b1_relu
I0817 16:29:31.840025 17472 net.cpp:434] L1_b1_relu <- L1_b1_sum_eltwise_top
I0817 16:29:31.840035 17472 net.cpp:395] L1_b1_relu -> L1_b1_sum_eltwise_top (in-place)
I0817 16:29:31.840045 17472 net.cpp:150] Setting up L1_b1_relu
I0817 16:29:31.840052 17472 net.cpp:157] Top shape: 125 16 32 32 (2048000)
I0817 16:29:31.840057 17472 net.cpp:165] Memory required for data: 124417500
I0817 16:29:31.840062 17472 layer_factory.hpp:77] Creating layer L1_b1_sum_eltwise_top_L1_b1_relu_0_split
I0817 16:29:31.840071 17472 net.cpp:100] Creating Layer L1_b1_sum_eltwise_top_L1_b1_relu_0_split
I0817 16:29:31.840076 17472 net.cpp:434] L1_b1_sum_eltwise_top_L1_b1_relu_0_split <- L1_b1_sum_eltwise_top
I0817 16:29:31.840083 17472 net.cpp:408] L1_b1_sum_eltwise_top_L1_b1_relu_0_split -> L1_b1_sum_eltwise_top_L1_b1_relu_0_split_0
I0817 16:29:31.840093 17472 net.cpp:408] L1_b1_sum_eltwise_top_L1_b1_relu_0_split -> L1_b1_sum_eltwise_top_L1_b1_relu_0_split_1
I0817 16:29:31.840142 17472 net.cpp:150] Setting up L1_b1_sum_eltwise_top_L1_b1_relu_0_split
I0817 16:29:31.840155 17472 net.cpp:157] Top shape: 125 16 32 32 (2048000)
I0817 16:29:31.840162 17472 net.cpp:157] Top shape: 125 16 32 32 (2048000)
I0817 16:29:31.840173 17472 net.cpp:165] Memory required for data: 140801500
I0817 16:29:31.840178 17472 layer_factory.hpp:77] Creating layer L1_b2_cbr1_conv
I0817 16:29:31.840190 17472 net.cpp:100] Creating Layer L1_b2_cbr1_conv
I0817 16:29:31.840196 17472 net.cpp:434] L1_b2_cbr1_conv <- L1_b1_sum_eltwise_top_L1_b1_relu_0_split_0
I0817 16:29:31.840209 17472 net.cpp:408] L1_b2_cbr1_conv -> L1_b2_cbr1_conv_top
I0817 16:29:31.840507 17472 net.cpp:150] Setting up L1_b2_cbr1_conv
I0817 16:29:31.840520 17472 net.cpp:157] Top shape: 125 16 32 32 (2048000)
I0817 16:29:31.840525 17472 net.cpp:165] Memory required for data: 148993500
I0817 16:29:31.840544 17472 layer_factory.hpp:77] Creating layer L1_b2_cbr1_bn
I0817 16:29:31.840553 17472 net.cpp:100] Creating Layer L1_b2_cbr1_bn
I0817 16:29:31.840559 17472 net.cpp:434] L1_b2_cbr1_bn <- L1_b2_cbr1_conv_top
I0817 16:29:31.840572 17472 net.cpp:408] L1_b2_cbr1_bn -> L1_b2_cbr1_bn_top
I0817 16:29:31.840811 17472 net.cpp:150] Setting up L1_b2_cbr1_bn
I0817 16:29:31.840827 17472 net.cpp:157] Top shape: 125 16 32 32 (2048000)
I0817 16:29:31.840832 17472 net.cpp:165] Memory required for data: 157185500
I0817 16:29:31.840843 17472 layer_factory.hpp:77] Creating layer L1_b2_cbr1_scale
I0817 16:29:31.840852 17472 net.cpp:100] Creating Layer L1_b2_cbr1_scale
I0817 16:29:31.840857 17472 net.cpp:434] L1_b2_cbr1_scale <- L1_b2_cbr1_bn_top
I0817 16:29:31.840865 17472 net.cpp:395] L1_b2_cbr1_scale -> L1_b2_cbr1_bn_top (in-place)
I0817 16:29:31.840915 17472 layer_factory.hpp:77] Creating layer L1_b2_cbr1_scale
I0817 16:29:31.841053 17472 net.cpp:150] Setting up L1_b2_cbr1_scale
I0817 16:29:31.841065 17472 net.cpp:157] Top shape: 125 16 32 32 (2048000)
I0817 16:29:31.841070 17472 net.cpp:165] Memory required for data: 165377500
I0817 16:29:31.841079 17472 layer_factory.hpp:77] Creating layer L1_b2_cbr1_relu
I0817 16:29:31.841094 17472 net.cpp:100] Creating Layer L1_b2_cbr1_relu
I0817 16:29:31.841099 17472 net.cpp:434] L1_b2_cbr1_relu <- L1_b2_cbr1_bn_top
I0817 16:29:31.841116 17472 net.cpp:395] L1_b2_cbr1_relu -> L1_b2_cbr1_bn_top (in-place)
I0817 16:29:31.841127 17472 net.cpp:150] Setting up L1_b2_cbr1_relu
I0817 16:29:31.841135 17472 net.cpp:157] Top shape: 125 16 32 32 (2048000)
I0817 16:29:31.841140 17472 net.cpp:165] Memory required for data: 173569500
I0817 16:29:31.841143 17472 layer_factory.hpp:77] Creating layer L1_b2_cbr2_conv
I0817 16:29:31.841154 17472 net.cpp:100] Creating Layer L1_b2_cbr2_conv
I0817 16:29:31.841161 17472 net.cpp:434] L1_b2_cbr2_conv <- L1_b2_cbr1_bn_top
I0817 16:29:31.841171 17472 net.cpp:408] L1_b2_cbr2_conv -> L1_b2_cbr2_conv_top
I0817 16:29:31.841467 17472 net.cpp:150] Setting up L1_b2_cbr2_conv
I0817 16:29:31.841480 17472 net.cpp:157] Top shape: 125 16 32 32 (2048000)
I0817 16:29:31.841485 17472 net.cpp:165] Memory required for data: 181761500
I0817 16:29:31.841495 17472 layer_factory.hpp:77] Creating layer L1_b2_cbr2_bn
I0817 16:29:31.841503 17472 net.cpp:100] Creating Layer L1_b2_cbr2_bn
I0817 16:29:31.841509 17472 net.cpp:434] L1_b2_cbr2_bn <- L1_b2_cbr2_conv_top
I0817 16:29:31.841519 17472 net.cpp:408] L1_b2_cbr2_bn -> L1_b2_cbr2_bn_top
I0817 16:29:31.841751 17472 net.cpp:150] Setting up L1_b2_cbr2_bn
I0817 16:29:31.841764 17472 net.cpp:157] Top shape: 125 16 32 32 (2048000)
I0817 16:29:31.841769 17472 net.cpp:165] Memory required for data: 189953500
I0817 16:29:31.841787 17472 layer_factory.hpp:77] Creating layer L1_b2_cbr2_scale
I0817 16:29:31.841797 17472 net.cpp:100] Creating Layer L1_b2_cbr2_scale
I0817 16:29:31.841804 17472 net.cpp:434] L1_b2_cbr2_scale <- L1_b2_cbr2_bn_top
I0817 16:29:31.841814 17472 net.cpp:395] L1_b2_cbr2_scale -> L1_b2_cbr2_bn_top (in-place)
I0817 16:29:31.841866 17472 layer_factory.hpp:77] Creating layer L1_b2_cbr2_scale
I0817 16:29:31.842000 17472 net.cpp:150] Setting up L1_b2_cbr2_scale
I0817 16:29:31.842012 17472 net.cpp:157] Top shape: 125 16 32 32 (2048000)
I0817 16:29:31.842016 17472 net.cpp:165] Memory required for data: 198145500
I0817 16:29:31.842025 17472 layer_factory.hpp:77] Creating layer L1_b2_sum_eltwise
I0817 16:29:31.842044 17472 net.cpp:100] Creating Layer L1_b2_sum_eltwise
I0817 16:29:31.842051 17472 net.cpp:434] L1_b2_sum_eltwise <- L1_b2_cbr2_bn_top
I0817 16:29:31.842057 17472 net.cpp:434] L1_b2_sum_eltwise <- L1_b1_sum_eltwise_top_L1_b1_relu_0_split_1
I0817 16:29:31.842066 17472 net.cpp:408] L1_b2_sum_eltwise -> L1_b2_sum_eltwise_top
I0817 16:29:31.842098 17472 net.cpp:150] Setting up L1_b2_sum_eltwise
I0817 16:29:31.842118 17472 net.cpp:157] Top shape: 125 16 32 32 (2048000)
I0817 16:29:31.842123 17472 net.cpp:165] Memory required for data: 206337500
I0817 16:29:31.842128 17472 layer_factory.hpp:77] Creating layer L1_b2_relu
I0817 16:29:31.842136 17472 net.cpp:100] Creating Layer L1_b2_relu
I0817 16:29:31.842142 17472 net.cpp:434] L1_b2_relu <- L1_b2_sum_eltwise_top
I0817 16:29:31.842149 17472 net.cpp:395] L1_b2_relu -> L1_b2_sum_eltwise_top (in-place)
I0817 16:29:31.842157 17472 net.cpp:150] Setting up L1_b2_relu
I0817 16:29:31.842164 17472 net.cpp:157] Top shape: 125 16 32 32 (2048000)
I0817 16:29:31.842170 17472 net.cpp:165] Memory required for data: 214529500
I0817 16:29:31.842173 17472 layer_factory.hpp:77] Creating layer L1_b2_sum_eltwise_top_L1_b2_relu_0_split
I0817 16:29:31.842180 17472 net.cpp:100] Creating Layer L1_b2_sum_eltwise_top_L1_b2_relu_0_split
I0817 16:29:31.842185 17472 net.cpp:434] L1_b2_sum_eltwise_top_L1_b2_relu_0_split <- L1_b2_sum_eltwise_top
I0817 16:29:31.842196 17472 net.cpp:408] L1_b2_sum_eltwise_top_L1_b2_relu_0_split -> L1_b2_sum_eltwise_top_L1_b2_relu_0_split_0
I0817 16:29:31.842206 17472 net.cpp:408] L1_b2_sum_eltwise_top_L1_b2_relu_0_split -> L1_b2_sum_eltwise_top_L1_b2_relu_0_split_1
I0817 16:29:31.842247 17472 net.cpp:150] Setting up L1_b2_sum_eltwise_top_L1_b2_relu_0_split
I0817 16:29:31.842258 17472 net.cpp:157] Top shape: 125 16 32 32 (2048000)
I0817 16:29:31.842264 17472 net.cpp:157] Top shape: 125 16 32 32 (2048000)
I0817 16:29:31.842269 17472 net.cpp:165] Memory required for data: 230913500
I0817 16:29:31.842274 17472 layer_factory.hpp:77] Creating layer L1_b3_cbr1_conv
I0817 16:29:31.842288 17472 net.cpp:100] Creating Layer L1_b3_cbr1_conv
I0817 16:29:31.842294 17472 net.cpp:434] L1_b3_cbr1_conv <- L1_b2_sum_eltwise_top_L1_b2_relu_0_split_0
I0817 16:29:31.842303 17472 net.cpp:408] L1_b3_cbr1_conv -> L1_b3_cbr1_conv_top
I0817 16:29:31.842605 17472 net.cpp:150] Setting up L1_b3_cbr1_conv
I0817 16:29:31.842619 17472 net.cpp:157] Top shape: 125 16 32 32 (2048000)
I0817 16:29:31.842623 17472 net.cpp:165] Memory required for data: 239105500
I0817 16:29:31.842633 17472 layer_factory.hpp:77] Creating layer L1_b3_cbr1_bn
I0817 16:29:31.842646 17472 net.cpp:100] Creating Layer L1_b3_cbr1_bn
I0817 16:29:31.842653 17472 net.cpp:434] L1_b3_cbr1_bn <- L1_b3_cbr1_conv_top
I0817 16:29:31.842665 17472 net.cpp:408] L1_b3_cbr1_bn -> L1_b3_cbr1_bn_top
I0817 16:29:31.842895 17472 net.cpp:150] Setting up L1_b3_cbr1_bn
I0817 16:29:31.842907 17472 net.cpp:157] Top shape: 125 16 32 32 (2048000)
I0817 16:29:31.842912 17472 net.cpp:165] Memory required for data: 247297500
I0817 16:29:31.842923 17472 layer_factory.hpp:77] Creating layer L1_b3_cbr1_scale
I0817 16:29:31.842931 17472 net.cpp:100] Creating Layer L1_b3_cbr1_scale
I0817 16:29:31.842937 17472 net.cpp:434] L1_b3_cbr1_scale <- L1_b3_cbr1_bn_top
I0817 16:29:31.842947 17472 net.cpp:395] L1_b3_cbr1_scale -> L1_b3_cbr1_bn_top (in-place)
I0817 16:29:31.842998 17472 layer_factory.hpp:77] Creating layer L1_b3_cbr1_scale
I0817 16:29:31.843140 17472 net.cpp:150] Setting up L1_b3_cbr1_scale
I0817 16:29:31.843158 17472 net.cpp:157] Top shape: 125 16 32 32 (2048000)
I0817 16:29:31.843163 17472 net.cpp:165] Memory required for data: 255489500
I0817 16:29:31.843171 17472 layer_factory.hpp:77] Creating layer L1_b3_cbr1_relu
I0817 16:29:31.843179 17472 net.cpp:100] Creating Layer L1_b3_cbr1_relu
I0817 16:29:31.843185 17472 net.cpp:434] L1_b3_cbr1_relu <- L1_b3_cbr1_bn_top
I0817 16:29:31.843192 17472 net.cpp:395] L1_b3_cbr1_relu -> L1_b3_cbr1_bn_top (in-place)
I0817 16:29:31.843201 17472 net.cpp:150] Setting up L1_b3_cbr1_relu
I0817 16:29:31.843215 17472 net.cpp:157] Top shape: 125 16 32 32 (2048000)
I0817 16:29:31.843220 17472 net.cpp:165] Memory required for data: 263681500
I0817 16:29:31.843225 17472 layer_factory.hpp:77] Creating layer L1_b3_cbr2_conv
I0817 16:29:31.843240 17472 net.cpp:100] Creating Layer L1_b3_cbr2_conv
I0817 16:29:31.843245 17472 net.cpp:434] L1_b3_cbr2_conv <- L1_b3_cbr1_bn_top
I0817 16:29:31.843256 17472 net.cpp:408] L1_b3_cbr2_conv -> L1_b3_cbr2_conv_top
I0817 16:29:31.843555 17472 net.cpp:150] Setting up L1_b3_cbr2_conv
I0817 16:29:31.843569 17472 net.cpp:157] Top shape: 125 16 32 32 (2048000)
I0817 16:29:31.843575 17472 net.cpp:165] Memory required for data: 271873500
I0817 16:29:31.843583 17472 layer_factory.hpp:77] Creating layer L1_b3_cbr2_bn
I0817 16:29:31.843600 17472 net.cpp:100] Creating Layer L1_b3_cbr2_bn
I0817 16:29:31.843606 17472 net.cpp:434] L1_b3_cbr2_bn <- L1_b3_cbr2_conv_top
I0817 16:29:31.843614 17472 net.cpp:408] L1_b3_cbr2_bn -> L1_b3_cbr2_bn_top
I0817 16:29:31.843840 17472 net.cpp:150] Setting up L1_b3_cbr2_bn
I0817 16:29:31.843852 17472 net.cpp:157] Top shape: 125 16 32 32 (2048000)
I0817 16:29:31.843858 17472 net.cpp:165] Memory required for data: 280065500
I0817 16:29:31.843868 17472 layer_factory.hpp:77] Creating layer L1_b3_cbr2_scale
I0817 16:29:31.843876 17472 net.cpp:100] Creating Layer L1_b3_cbr2_scale
I0817 16:29:31.843883 17472 net.cpp:434] L1_b3_cbr2_scale <- L1_b3_cbr2_bn_top
I0817 16:29:31.843893 17472 net.cpp:395] L1_b3_cbr2_scale -> L1_b3_cbr2_bn_top (in-place)
I0817 16:29:31.843943 17472 layer_factory.hpp:77] Creating layer L1_b3_cbr2_scale
I0817 16:29:31.844079 17472 net.cpp:150] Setting up L1_b3_cbr2_scale
I0817 16:29:31.844094 17472 net.cpp:157] Top shape: 125 16 32 32 (2048000)
I0817 16:29:31.844099 17472 net.cpp:165] Memory required for data: 288257500
I0817 16:29:31.844120 17472 layer_factory.hpp:77] Creating layer L1_b3_sum_eltwise
I0817 16:29:31.844130 17472 net.cpp:100] Creating Layer L1_b3_sum_eltwise
I0817 16:29:31.844136 17472 net.cpp:434] L1_b3_sum_eltwise <- L1_b3_cbr2_bn_top
I0817 16:29:31.844142 17472 net.cpp:434] L1_b3_sum_eltwise <- L1_b2_sum_eltwise_top_L1_b2_relu_0_split_1
I0817 16:29:31.844151 17472 net.cpp:408] L1_b3_sum_eltwise -> L1_b3_sum_eltwise_top
I0817 16:29:31.844183 17472 net.cpp:150] Setting up L1_b3_sum_eltwise
I0817 16:29:31.844203 17472 net.cpp:157] Top shape: 125 16 32 32 (2048000)
I0817 16:29:31.844208 17472 net.cpp:165] Memory required for data: 296449500
I0817 16:29:31.844213 17472 layer_factory.hpp:77] Creating layer L1_b3_relu
I0817 16:29:31.844223 17472 net.cpp:100] Creating Layer L1_b3_relu
I0817 16:29:31.844230 17472 net.cpp:434] L1_b3_relu <- L1_b3_sum_eltwise_top
I0817 16:29:31.844238 17472 net.cpp:395] L1_b3_relu -> L1_b3_sum_eltwise_top (in-place)
I0817 16:29:31.844246 17472 net.cpp:150] Setting up L1_b3_relu
I0817 16:29:31.844254 17472 net.cpp:157] Top shape: 125 16 32 32 (2048000)
I0817 16:29:31.844257 17472 net.cpp:165] Memory required for data: 304641500
I0817 16:29:31.844262 17472 layer_factory.hpp:77] Creating layer L1_b3_sum_eltwise_top_L1_b3_relu_0_split
I0817 16:29:31.844272 17472 net.cpp:100] Creating Layer L1_b3_sum_eltwise_top_L1_b3_relu_0_split
I0817 16:29:31.844277 17472 net.cpp:434] L1_b3_sum_eltwise_top_L1_b3_relu_0_split <- L1_b3_sum_eltwise_top
I0817 16:29:31.844285 17472 net.cpp:408] L1_b3_sum_eltwise_top_L1_b3_relu_0_split -> L1_b3_sum_eltwise_top_L1_b3_relu_0_split_0
I0817 16:29:31.844295 17472 net.cpp:408] L1_b3_sum_eltwise_top_L1_b3_relu_0_split -> L1_b3_sum_eltwise_top_L1_b3_relu_0_split_1
I0817 16:29:31.844336 17472 net.cpp:150] Setting up L1_b3_sum_eltwise_top_L1_b3_relu_0_split
I0817 16:29:31.844349 17472 net.cpp:157] Top shape: 125 16 32 32 (2048000)
I0817 16:29:31.844357 17472 net.cpp:157] Top shape: 125 16 32 32 (2048000)
I0817 16:29:31.844360 17472 net.cpp:165] Memory required for data: 321025500
I0817 16:29:31.844365 17472 layer_factory.hpp:77] Creating layer L1_b4_cbr1_conv
I0817 16:29:31.844377 17472 net.cpp:100] Creating Layer L1_b4_cbr1_conv
I0817 16:29:31.844383 17472 net.cpp:434] L1_b4_cbr1_conv <- L1_b3_sum_eltwise_top_L1_b3_relu_0_split_0
I0817 16:29:31.844398 17472 net.cpp:408] L1_b4_cbr1_conv -> L1_b4_cbr1_conv_top
I0817 16:29:31.844703 17472 net.cpp:150] Setting up L1_b4_cbr1_conv
I0817 16:29:31.844717 17472 net.cpp:157] Top shape: 125 16 32 32 (2048000)
I0817 16:29:31.844722 17472 net.cpp:165] Memory required for data: 329217500
I0817 16:29:31.844732 17472 layer_factory.hpp:77] Creating layer L1_b4_cbr1_bn
I0817 16:29:31.844743 17472 net.cpp:100] Creating Layer L1_b4_cbr1_bn
I0817 16:29:31.844749 17472 net.cpp:434] L1_b4_cbr1_bn <- L1_b4_cbr1_conv_top
I0817 16:29:31.844758 17472 net.cpp:408] L1_b4_cbr1_bn -> L1_b4_cbr1_bn_top
I0817 16:29:31.844987 17472 net.cpp:150] Setting up L1_b4_cbr1_bn
I0817 16:29:31.845000 17472 net.cpp:157] Top shape: 125 16 32 32 (2048000)
I0817 16:29:31.845005 17472 net.cpp:165] Memory required for data: 337409500
I0817 16:29:31.845016 17472 layer_factory.hpp:77] Creating layer L1_b4_cbr1_scale
I0817 16:29:31.845024 17472 net.cpp:100] Creating Layer L1_b4_cbr1_scale
I0817 16:29:31.845031 17472 net.cpp:434] L1_b4_cbr1_scale <- L1_b4_cbr1_bn_top
I0817 16:29:31.845041 17472 net.cpp:395] L1_b4_cbr1_scale -> L1_b4_cbr1_bn_top (in-place)
I0817 16:29:31.845091 17472 layer_factory.hpp:77] Creating layer L1_b4_cbr1_scale
I0817 16:29:31.845238 17472 net.cpp:150] Setting up L1_b4_cbr1_scale
I0817 16:29:31.845252 17472 net.cpp:157] Top shape: 125 16 32 32 (2048000)
I0817 16:29:31.845257 17472 net.cpp:165] Memory required for data: 345601500
I0817 16:29:31.845265 17472 layer_factory.hpp:77] Creating layer L1_b4_cbr1_relu
I0817 16:29:31.845274 17472 net.cpp:100] Creating Layer L1_b4_cbr1_relu
I0817 16:29:31.845279 17472 net.cpp:434] L1_b4_cbr1_relu <- L1_b4_cbr1_bn_top
I0817 16:29:31.845286 17472 net.cpp:395] L1_b4_cbr1_relu -> L1_b4_cbr1_bn_top (in-place)
I0817 16:29:31.845295 17472 net.cpp:150] Setting up L1_b4_cbr1_relu
I0817 16:29:31.845302 17472 net.cpp:157] Top shape: 125 16 32 32 (2048000)
I0817 16:29:31.845306 17472 net.cpp:165] Memory required for data: 353793500
I0817 16:29:31.845311 17472 layer_factory.hpp:77] Creating layer L1_b4_cbr2_conv
I0817 16:29:31.845325 17472 net.cpp:100] Creating Layer L1_b4_cbr2_conv
I0817 16:29:31.845331 17472 net.cpp:434] L1_b4_cbr2_conv <- L1_b4_cbr1_bn_top
I0817 16:29:31.845342 17472 net.cpp:408] L1_b4_cbr2_conv -> L1_b4_cbr2_conv_top
I0817 16:29:31.845654 17472 net.cpp:150] Setting up L1_b4_cbr2_conv
I0817 16:29:31.845667 17472 net.cpp:157] Top shape: 125 16 32 32 (2048000)
I0817 16:29:31.845672 17472 net.cpp:165] Memory required for data: 361985500
I0817 16:29:31.845680 17472 layer_factory.hpp:77] Creating layer L1_b4_cbr2_bn
I0817 16:29:31.845692 17472 net.cpp:100] Creating Layer L1_b4_cbr2_bn
I0817 16:29:31.845698 17472 net.cpp:434] L1_b4_cbr2_bn <- L1_b4_cbr2_conv_top
I0817 16:29:31.845710 17472 net.cpp:408] L1_b4_cbr2_bn -> L1_b4_cbr2_bn_top
I0817 16:29:31.845947 17472 net.cpp:150] Setting up L1_b4_cbr2_bn
I0817 16:29:31.845959 17472 net.cpp:157] Top shape: 125 16 32 32 (2048000)
I0817 16:29:31.845964 17472 net.cpp:165] Memory required for data: 370177500
I0817 16:29:31.845974 17472 layer_factory.hpp:77] Creating layer L1_b4_cbr2_scale
I0817 16:29:31.845986 17472 net.cpp:100] Creating Layer L1_b4_cbr2_scale
I0817 16:29:31.845993 17472 net.cpp:434] L1_b4_cbr2_scale <- L1_b4_cbr2_bn_top
I0817 16:29:31.845999 17472 net.cpp:395] L1_b4_cbr2_scale -> L1_b4_cbr2_bn_top (in-place)
I0817 16:29:31.846051 17472 layer_factory.hpp:77] Creating layer L1_b4_cbr2_scale
I0817 16:29:31.846194 17472 net.cpp:150] Setting up L1_b4_cbr2_scale
I0817 16:29:31.846207 17472 net.cpp:157] Top shape: 125 16 32 32 (2048000)
I0817 16:29:31.846212 17472 net.cpp:165] Memory required for data: 378369500
I0817 16:29:31.846221 17472 layer_factory.hpp:77] Creating layer L1_b4_sum_eltwise
I0817 16:29:31.846230 17472 net.cpp:100] Creating Layer L1_b4_sum_eltwise
I0817 16:29:31.846236 17472 net.cpp:434] L1_b4_sum_eltwise <- L1_b4_cbr2_bn_top
I0817 16:29:31.846242 17472 net.cpp:434] L1_b4_sum_eltwise <- L1_b3_sum_eltwise_top_L1_b3_relu_0_split_1
I0817 16:29:31.846253 17472 net.cpp:408] L1_b4_sum_eltwise -> L1_b4_sum_eltwise_top
I0817 16:29:31.846290 17472 net.cpp:150] Setting up L1_b4_sum_eltwise
I0817 16:29:31.846303 17472 net.cpp:157] Top shape: 125 16 32 32 (2048000)
I0817 16:29:31.846308 17472 net.cpp:165] Memory required for data: 386561500
I0817 16:29:31.846313 17472 layer_factory.hpp:77] Creating layer L1_b4_relu
I0817 16:29:31.846320 17472 net.cpp:100] Creating Layer L1_b4_relu
I0817 16:29:31.846326 17472 net.cpp:434] L1_b4_relu <- L1_b4_sum_eltwise_top
I0817 16:29:31.846333 17472 net.cpp:395] L1_b4_relu -> L1_b4_sum_eltwise_top (in-place)
I0817 16:29:31.846343 17472 net.cpp:150] Setting up L1_b4_relu
I0817 16:29:31.846349 17472 net.cpp:157] Top shape: 125 16 32 32 (2048000)
I0817 16:29:31.846354 17472 net.cpp:165] Memory required for data: 394753500
I0817 16:29:31.846359 17472 layer_factory.hpp:77] Creating layer L1_b4_sum_eltwise_top_L1_b4_relu_0_split
I0817 16:29:31.846369 17472 net.cpp:100] Creating Layer L1_b4_sum_eltwise_top_L1_b4_relu_0_split
I0817 16:29:31.846375 17472 net.cpp:434] L1_b4_sum_eltwise_top_L1_b4_relu_0_split <- L1_b4_sum_eltwise_top
I0817 16:29:31.846382 17472 net.cpp:408] L1_b4_sum_eltwise_top_L1_b4_relu_0_split -> L1_b4_sum_eltwise_top_L1_b4_relu_0_split_0
I0817 16:29:31.846392 17472 net.cpp:408] L1_b4_sum_eltwise_top_L1_b4_relu_0_split -> L1_b4_sum_eltwise_top_L1_b4_relu_0_split_1
I0817 16:29:31.846436 17472 net.cpp:150] Setting up L1_b4_sum_eltwise_top_L1_b4_relu_0_split
I0817 16:29:31.846447 17472 net.cpp:157] Top shape: 125 16 32 32 (2048000)
I0817 16:29:31.846453 17472 net.cpp:157] Top shape: 125 16 32 32 (2048000)
I0817 16:29:31.846458 17472 net.cpp:165] Memory required for data: 411137500
I0817 16:29:31.846463 17472 layer_factory.hpp:77] Creating layer L1_b5_cbr1_conv
I0817 16:29:31.846474 17472 net.cpp:100] Creating Layer L1_b5_cbr1_conv
I0817 16:29:31.846480 17472 net.cpp:434] L1_b5_cbr1_conv <- L1_b4_sum_eltwise_top_L1_b4_relu_0_split_0
I0817 16:29:31.846491 17472 net.cpp:408] L1_b5_cbr1_conv -> L1_b5_cbr1_conv_top
I0817 16:29:31.846799 17472 net.cpp:150] Setting up L1_b5_cbr1_conv
I0817 16:29:31.846813 17472 net.cpp:157] Top shape: 125 16 32 32 (2048000)
I0817 16:29:31.846818 17472 net.cpp:165] Memory required for data: 419329500
I0817 16:29:31.846837 17472 layer_factory.hpp:77] Creating layer L1_b5_cbr1_bn
I0817 16:29:31.846850 17472 net.cpp:100] Creating Layer L1_b5_cbr1_bn
I0817 16:29:31.846856 17472 net.cpp:434] L1_b5_cbr1_bn <- L1_b5_cbr1_conv_top
I0817 16:29:31.846869 17472 net.cpp:408] L1_b5_cbr1_bn -> L1_b5_cbr1_bn_top
I0817 16:29:31.847111 17472 net.cpp:150] Setting up L1_b5_cbr1_bn
I0817 16:29:31.847126 17472 net.cpp:157] Top shape: 125 16 32 32 (2048000)
I0817 16:29:31.847131 17472 net.cpp:165] Memory required for data: 427521500
I0817 16:29:31.847141 17472 layer_factory.hpp:77] Creating layer L1_b5_cbr1_scale
I0817 16:29:31.847149 17472 net.cpp:100] Creating Layer L1_b5_cbr1_scale
I0817 16:29:31.847157 17472 net.cpp:434] L1_b5_cbr1_scale <- L1_b5_cbr1_bn_top
I0817 16:29:31.847167 17472 net.cpp:395] L1_b5_cbr1_scale -> L1_b5_cbr1_bn_top (in-place)
I0817 16:29:31.847216 17472 layer_factory.hpp:77] Creating layer L1_b5_cbr1_scale
I0817 16:29:31.847357 17472 net.cpp:150] Setting up L1_b5_cbr1_scale
I0817 16:29:31.847369 17472 net.cpp:157] Top shape: 125 16 32 32 (2048000)
I0817 16:29:31.847374 17472 net.cpp:165] Memory required for data: 435713500
I0817 16:29:31.847383 17472 layer_factory.hpp:77] Creating layer L1_b5_cbr1_relu
I0817 16:29:31.847391 17472 net.cpp:100] Creating Layer L1_b5_cbr1_relu
I0817 16:29:31.847398 17472 net.cpp:434] L1_b5_cbr1_relu <- L1_b5_cbr1_bn_top
I0817 16:29:31.847407 17472 net.cpp:395] L1_b5_cbr1_relu -> L1_b5_cbr1_bn_top (in-place)
I0817 16:29:31.847417 17472 net.cpp:150] Setting up L1_b5_cbr1_relu
I0817 16:29:31.847424 17472 net.cpp:157] Top shape: 125 16 32 32 (2048000)
I0817 16:29:31.847429 17472 net.cpp:165] Memory required for data: 443905500
I0817 16:29:31.847434 17472 layer_factory.hpp:77] Creating layer L1_b5_cbr2_conv
I0817 16:29:31.847447 17472 net.cpp:100] Creating Layer L1_b5_cbr2_conv
I0817 16:29:31.847453 17472 net.cpp:434] L1_b5_cbr2_conv <- L1_b5_cbr1_bn_top
I0817 16:29:31.847467 17472 net.cpp:408] L1_b5_cbr2_conv -> L1_b5_cbr2_conv_top
I0817 16:29:31.847784 17472 net.cpp:150] Setting up L1_b5_cbr2_conv
I0817 16:29:31.847797 17472 net.cpp:157] Top shape: 125 16 32 32 (2048000)
I0817 16:29:31.847802 17472 net.cpp:165] Memory required for data: 452097500
I0817 16:29:31.847811 17472 layer_factory.hpp:77] Creating layer L1_b5_cbr2_bn
I0817 16:29:31.847820 17472 net.cpp:100] Creating Layer L1_b5_cbr2_bn
I0817 16:29:31.847829 17472 net.cpp:434] L1_b5_cbr2_bn <- L1_b5_cbr2_conv_top
I0817 16:29:31.847838 17472 net.cpp:408] L1_b5_cbr2_bn -> L1_b5_cbr2_bn_top
I0817 16:29:31.848067 17472 net.cpp:150] Setting up L1_b5_cbr2_bn
I0817 16:29:31.848079 17472 net.cpp:157] Top shape: 125 16 32 32 (2048000)
I0817 16:29:31.848084 17472 net.cpp:165] Memory required for data: 460289500
I0817 16:29:31.848094 17472 layer_factory.hpp:77] Creating layer L1_b5_cbr2_scale
I0817 16:29:31.848103 17472 net.cpp:100] Creating Layer L1_b5_cbr2_scale
I0817 16:29:31.848114 17472 net.cpp:434] L1_b5_cbr2_scale <- L1_b5_cbr2_bn_top
I0817 16:29:31.848126 17472 net.cpp:395] L1_b5_cbr2_scale -> L1_b5_cbr2_bn_top (in-place)
I0817 16:29:31.848178 17472 layer_factory.hpp:77] Creating layer L1_b5_cbr2_scale
I0817 16:29:31.848314 17472 net.cpp:150] Setting up L1_b5_cbr2_scale
I0817 16:29:31.848330 17472 net.cpp:157] Top shape: 125 16 32 32 (2048000)
I0817 16:29:31.848335 17472 net.cpp:165] Memory required for data: 468481500
I0817 16:29:31.848345 17472 layer_factory.hpp:77] Creating layer L1_b5_sum_eltwise
I0817 16:29:31.848353 17472 net.cpp:100] Creating Layer L1_b5_sum_eltwise
I0817 16:29:31.848359 17472 net.cpp:434] L1_b5_sum_eltwise <- L1_b5_cbr2_bn_top
I0817 16:29:31.848366 17472 net.cpp:434] L1_b5_sum_eltwise <- L1_b4_sum_eltwise_top_L1_b4_relu_0_split_1
I0817 16:29:31.848373 17472 net.cpp:408] L1_b5_sum_eltwise -> L1_b5_sum_eltwise_top
I0817 16:29:31.848405 17472 net.cpp:150] Setting up L1_b5_sum_eltwise
I0817 16:29:31.848415 17472 net.cpp:157] Top shape: 125 16 32 32 (2048000)
I0817 16:29:31.848419 17472 net.cpp:165] Memory required for data: 476673500
I0817 16:29:31.848424 17472 layer_factory.hpp:77] Creating layer L1_b5_relu
I0817 16:29:31.848435 17472 net.cpp:100] Creating Layer L1_b5_relu
I0817 16:29:31.848441 17472 net.cpp:434] L1_b5_relu <- L1_b5_sum_eltwise_top
I0817 16:29:31.848448 17472 net.cpp:395] L1_b5_relu -> L1_b5_sum_eltwise_top (in-place)
I0817 16:29:31.848457 17472 net.cpp:150] Setting up L1_b5_relu
I0817 16:29:31.848464 17472 net.cpp:157] Top shape: 125 16 32 32 (2048000)
I0817 16:29:31.848469 17472 net.cpp:165] Memory required for data: 484865500
I0817 16:29:31.848474 17472 layer_factory.hpp:77] Creating layer L1_b5_sum_eltwise_top_L1_b5_relu_0_split
I0817 16:29:31.848482 17472 net.cpp:100] Creating Layer L1_b5_sum_eltwise_top_L1_b5_relu_0_split
I0817 16:29:31.848489 17472 net.cpp:434] L1_b5_sum_eltwise_top_L1_b5_relu_0_split <- L1_b5_sum_eltwise_top
I0817 16:29:31.848495 17472 net.cpp:408] L1_b5_sum_eltwise_top_L1_b5_relu_0_split -> L1_b5_sum_eltwise_top_L1_b5_relu_0_split_0
I0817 16:29:31.848505 17472 net.cpp:408] L1_b5_sum_eltwise_top_L1_b5_relu_0_split -> L1_b5_sum_eltwise_top_L1_b5_relu_0_split_1
I0817 16:29:31.848546 17472 net.cpp:150] Setting up L1_b5_sum_eltwise_top_L1_b5_relu_0_split
I0817 16:29:31.848559 17472 net.cpp:157] Top shape: 125 16 32 32 (2048000)
I0817 16:29:31.848567 17472 net.cpp:157] Top shape: 125 16 32 32 (2048000)
I0817 16:29:31.848572 17472 net.cpp:165] Memory required for data: 501249500
I0817 16:29:31.848577 17472 layer_factory.hpp:77] Creating layer L1_b6_cbr1_conv
I0817 16:29:31.848587 17472 net.cpp:100] Creating Layer L1_b6_cbr1_conv
I0817 16:29:31.848592 17472 net.cpp:434] L1_b6_cbr1_conv <- L1_b5_sum_eltwise_top_L1_b5_relu_0_split_0
I0817 16:29:31.848601 17472 net.cpp:408] L1_b6_cbr1_conv -> L1_b6_cbr1_conv_top
I0817 16:29:31.848904 17472 net.cpp:150] Setting up L1_b6_cbr1_conv
I0817 16:29:31.848917 17472 net.cpp:157] Top shape: 125 16 32 32 (2048000)
I0817 16:29:31.848922 17472 net.cpp:165] Memory required for data: 509441500
I0817 16:29:31.848938 17472 layer_factory.hpp:77] Creating layer L1_b6_cbr1_bn
I0817 16:29:31.848951 17472 net.cpp:100] Creating Layer L1_b6_cbr1_bn
I0817 16:29:31.848958 17472 net.cpp:434] L1_b6_cbr1_bn <- L1_b6_cbr1_conv_top
I0817 16:29:31.848965 17472 net.cpp:408] L1_b6_cbr1_bn -> L1_b6_cbr1_bn_top
I0817 16:29:31.849203 17472 net.cpp:150] Setting up L1_b6_cbr1_bn
I0817 16:29:31.849216 17472 net.cpp:157] Top shape: 125 16 32 32 (2048000)
I0817 16:29:31.849221 17472 net.cpp:165] Memory required for data: 517633500
I0817 16:29:31.849231 17472 layer_factory.hpp:77] Creating layer L1_b6_cbr1_scale
I0817 16:29:31.849241 17472 net.cpp:100] Creating Layer L1_b6_cbr1_scale
I0817 16:29:31.849246 17472 net.cpp:434] L1_b6_cbr1_scale <- L1_b6_cbr1_bn_top
I0817 16:29:31.849256 17472 net.cpp:395] L1_b6_cbr1_scale -> L1_b6_cbr1_bn_top (in-place)
I0817 16:29:31.849308 17472 layer_factory.hpp:77] Creating layer L1_b6_cbr1_scale
I0817 16:29:31.849449 17472 net.cpp:150] Setting up L1_b6_cbr1_scale
I0817 16:29:31.849462 17472 net.cpp:157] Top shape: 125 16 32 32 (2048000)
I0817 16:29:31.849467 17472 net.cpp:165] Memory required for data: 525825500
I0817 16:29:31.849475 17472 layer_factory.hpp:77] Creating layer L1_b6_cbr1_relu
I0817 16:29:31.849483 17472 net.cpp:100] Creating Layer L1_b6_cbr1_relu
I0817 16:29:31.849489 17472 net.cpp:434] L1_b6_cbr1_relu <- L1_b6_cbr1_bn_top
I0817 16:29:31.849496 17472 net.cpp:395] L1_b6_cbr1_relu -> L1_b6_cbr1_bn_top (in-place)
I0817 16:29:31.849505 17472 net.cpp:150] Setting up L1_b6_cbr1_relu
I0817 16:29:31.849512 17472 net.cpp:157] Top shape: 125 16 32 32 (2048000)
I0817 16:29:31.849517 17472 net.cpp:165] Memory required for data: 534017500
I0817 16:29:31.849521 17472 layer_factory.hpp:77] Creating layer L1_b6_cbr2_conv
I0817 16:29:31.849535 17472 net.cpp:100] Creating Layer L1_b6_cbr2_conv
I0817 16:29:31.849541 17472 net.cpp:434] L1_b6_cbr2_conv <- L1_b6_cbr1_bn_top
I0817 16:29:31.849551 17472 net.cpp:408] L1_b6_cbr2_conv -> L1_b6_cbr2_conv_top
I0817 16:29:31.849869 17472 net.cpp:150] Setting up L1_b6_cbr2_conv
I0817 16:29:31.849881 17472 net.cpp:157] Top shape: 125 16 32 32 (2048000)
I0817 16:29:31.849886 17472 net.cpp:165] Memory required for data: 542209500
I0817 16:29:31.849896 17472 layer_factory.hpp:77] Creating layer L1_b6_cbr2_bn
I0817 16:29:31.849907 17472 net.cpp:100] Creating Layer L1_b6_cbr2_bn
I0817 16:29:31.849915 17472 net.cpp:434] L1_b6_cbr2_bn <- L1_b6_cbr2_conv_top
I0817 16:29:31.849925 17472 net.cpp:408] L1_b6_cbr2_bn -> L1_b6_cbr2_bn_top
I0817 16:29:31.850165 17472 net.cpp:150] Setting up L1_b6_cbr2_bn
I0817 16:29:31.850178 17472 net.cpp:157] Top shape: 125 16 32 32 (2048000)
I0817 16:29:31.850183 17472 net.cpp:165] Memory required for data: 550401500
I0817 16:29:31.850193 17472 layer_factory.hpp:77] Creating layer L1_b6_cbr2_scale
I0817 16:29:31.850203 17472 net.cpp:100] Creating Layer L1_b6_cbr2_scale
I0817 16:29:31.850208 17472 net.cpp:434] L1_b6_cbr2_scale <- L1_b6_cbr2_bn_top
I0817 16:29:31.850219 17472 net.cpp:395] L1_b6_cbr2_scale -> L1_b6_cbr2_bn_top (in-place)
I0817 16:29:31.850270 17472 layer_factory.hpp:77] Creating layer L1_b6_cbr2_scale
I0817 16:29:31.850407 17472 net.cpp:150] Setting up L1_b6_cbr2_scale
I0817 16:29:31.850420 17472 net.cpp:157] Top shape: 125 16 32 32 (2048000)
I0817 16:29:31.850425 17472 net.cpp:165] Memory required for data: 558593500
I0817 16:29:31.850435 17472 layer_factory.hpp:77] Creating layer L1_b6_sum_eltwise
I0817 16:29:31.850453 17472 net.cpp:100] Creating Layer L1_b6_sum_eltwise
I0817 16:29:31.850459 17472 net.cpp:434] L1_b6_sum_eltwise <- L1_b6_cbr2_bn_top
I0817 16:29:31.850466 17472 net.cpp:434] L1_b6_sum_eltwise <- L1_b5_sum_eltwise_top_L1_b5_relu_0_split_1
I0817 16:29:31.850474 17472 net.cpp:408] L1_b6_sum_eltwise -> L1_b6_sum_eltwise_top
I0817 16:29:31.850508 17472 net.cpp:150] Setting up L1_b6_sum_eltwise
I0817 16:29:31.850519 17472 net.cpp:157] Top shape: 125 16 32 32 (2048000)
I0817 16:29:31.850524 17472 net.cpp:165] Memory required for data: 566785500
I0817 16:29:31.850529 17472 layer_factory.hpp:77] Creating layer L1_b6_relu
I0817 16:29:31.850545 17472 net.cpp:100] Creating Layer L1_b6_relu
I0817 16:29:31.850551 17472 net.cpp:434] L1_b6_relu <- L1_b6_sum_eltwise_top
I0817 16:29:31.850561 17472 net.cpp:395] L1_b6_relu -> L1_b6_sum_eltwise_top (in-place)
I0817 16:29:31.850570 17472 net.cpp:150] Setting up L1_b6_relu
I0817 16:29:31.850577 17472 net.cpp:157] Top shape: 125 16 32 32 (2048000)
I0817 16:29:31.850582 17472 net.cpp:165] Memory required for data: 574977500
I0817 16:29:31.850586 17472 layer_factory.hpp:77] Creating layer L1_b6_sum_eltwise_top_L1_b6_relu_0_split
I0817 16:29:31.850594 17472 net.cpp:100] Creating Layer L1_b6_sum_eltwise_top_L1_b6_relu_0_split
I0817 16:29:31.850599 17472 net.cpp:434] L1_b6_sum_eltwise_top_L1_b6_relu_0_split <- L1_b6_sum_eltwise_top
I0817 16:29:31.850606 17472 net.cpp:408] L1_b6_sum_eltwise_top_L1_b6_relu_0_split -> L1_b6_sum_eltwise_top_L1_b6_relu_0_split_0
I0817 16:29:31.850615 17472 net.cpp:408] L1_b6_sum_eltwise_top_L1_b6_relu_0_split -> L1_b6_sum_eltwise_top_L1_b6_relu_0_split_1
I0817 16:29:31.850661 17472 net.cpp:150] Setting up L1_b6_sum_eltwise_top_L1_b6_relu_0_split
I0817 16:29:31.850672 17472 net.cpp:157] Top shape: 125 16 32 32 (2048000)
I0817 16:29:31.850678 17472 net.cpp:157] Top shape: 125 16 32 32 (2048000)
I0817 16:29:31.850682 17472 net.cpp:165] Memory required for data: 591361500
I0817 16:29:31.850687 17472 layer_factory.hpp:77] Creating layer L1_b7_cbr1_conv
I0817 16:29:31.850698 17472 net.cpp:100] Creating Layer L1_b7_cbr1_conv
I0817 16:29:31.850704 17472 net.cpp:434] L1_b7_cbr1_conv <- L1_b6_sum_eltwise_top_L1_b6_relu_0_split_0
I0817 16:29:31.850715 17472 net.cpp:408] L1_b7_cbr1_conv -> L1_b7_cbr1_conv_top
I0817 16:29:31.851023 17472 net.cpp:150] Setting up L1_b7_cbr1_conv
I0817 16:29:31.851037 17472 net.cpp:157] Top shape: 125 16 32 32 (2048000)
I0817 16:29:31.851042 17472 net.cpp:165] Memory required for data: 599553500
I0817 16:29:31.851050 17472 layer_factory.hpp:77] Creating layer L1_b7_cbr1_bn
I0817 16:29:31.851059 17472 net.cpp:100] Creating Layer L1_b7_cbr1_bn
I0817 16:29:31.851065 17472 net.cpp:434] L1_b7_cbr1_bn <- L1_b7_cbr1_conv_top
I0817 16:29:31.851078 17472 net.cpp:408] L1_b7_cbr1_bn -> L1_b7_cbr1_bn_top
I0817 16:29:31.851325 17472 net.cpp:150] Setting up L1_b7_cbr1_bn
I0817 16:29:31.851339 17472 net.cpp:157] Top shape: 125 16 32 32 (2048000)
I0817 16:29:31.851344 17472 net.cpp:165] Memory required for data: 607745500
I0817 16:29:31.851354 17472 layer_factory.hpp:77] Creating layer L1_b7_cbr1_scale
I0817 16:29:31.851366 17472 net.cpp:100] Creating Layer L1_b7_cbr1_scale
I0817 16:29:31.851372 17472 net.cpp:434] L1_b7_cbr1_scale <- L1_b7_cbr1_bn_top
I0817 16:29:31.851380 17472 net.cpp:395] L1_b7_cbr1_scale -> L1_b7_cbr1_bn_top (in-place)
I0817 16:29:31.851431 17472 layer_factory.hpp:77] Creating layer L1_b7_cbr1_scale
I0817 16:29:31.851567 17472 net.cpp:150] Setting up L1_b7_cbr1_scale
I0817 16:29:31.851579 17472 net.cpp:157] Top shape: 125 16 32 32 (2048000)
I0817 16:29:31.851584 17472 net.cpp:165] Memory required for data: 615937500
I0817 16:29:31.851593 17472 layer_factory.hpp:77] Creating layer L1_b7_cbr1_relu
I0817 16:29:31.851603 17472 net.cpp:100] Creating Layer L1_b7_cbr1_relu
I0817 16:29:31.851608 17472 net.cpp:434] L1_b7_cbr1_relu <- L1_b7_cbr1_bn_top
I0817 16:29:31.851617 17472 net.cpp:395] L1_b7_cbr1_relu -> L1_b7_cbr1_bn_top (in-place)
I0817 16:29:31.851627 17472 net.cpp:150] Setting up L1_b7_cbr1_relu
I0817 16:29:31.851634 17472 net.cpp:157] Top shape: 125 16 32 32 (2048000)
I0817 16:29:31.851639 17472 net.cpp:165] Memory required for data: 624129500
I0817 16:29:31.851644 17472 layer_factory.hpp:77] Creating layer L1_b7_cbr2_conv
I0817 16:29:31.851658 17472 net.cpp:100] Creating Layer L1_b7_cbr2_conv
I0817 16:29:31.851665 17472 net.cpp:434] L1_b7_cbr2_conv <- L1_b7_cbr1_bn_top
I0817 16:29:31.851675 17472 net.cpp:408] L1_b7_cbr2_conv -> L1_b7_cbr2_conv_top
I0817 16:29:31.851980 17472 net.cpp:150] Setting up L1_b7_cbr2_conv
I0817 16:29:31.851994 17472 net.cpp:157] Top shape: 125 16 32 32 (2048000)
I0817 16:29:31.851999 17472 net.cpp:165] Memory required for data: 632321500
I0817 16:29:31.852015 17472 layer_factory.hpp:77] Creating layer L1_b7_cbr2_bn
I0817 16:29:31.852025 17472 net.cpp:100] Creating Layer L1_b7_cbr2_bn
I0817 16:29:31.852030 17472 net.cpp:434] L1_b7_cbr2_bn <- L1_b7_cbr2_conv_top
I0817 16:29:31.852038 17472 net.cpp:408] L1_b7_cbr2_bn -> L1_b7_cbr2_bn_top
I0817 16:29:31.852280 17472 net.cpp:150] Setting up L1_b7_cbr2_bn
I0817 16:29:31.852293 17472 net.cpp:157] Top shape: 125 16 32 32 (2048000)
I0817 16:29:31.852298 17472 net.cpp:165] Memory required for data: 640513500
I0817 16:29:31.852308 17472 layer_factory.hpp:77] Creating layer L1_b7_cbr2_scale
I0817 16:29:31.852320 17472 net.cpp:100] Creating Layer L1_b7_cbr2_scale
I0817 16:29:31.852326 17472 net.cpp:434] L1_b7_cbr2_scale <- L1_b7_cbr2_bn_top
I0817 16:29:31.852334 17472 net.cpp:395] L1_b7_cbr2_scale -> L1_b7_cbr2_bn_top (in-place)
I0817 16:29:31.852390 17472 layer_factory.hpp:77] Creating layer L1_b7_cbr2_scale
I0817 16:29:31.852530 17472 net.cpp:150] Setting up L1_b7_cbr2_scale
I0817 16:29:31.852543 17472 net.cpp:157] Top shape: 125 16 32 32 (2048000)
I0817 16:29:31.852547 17472 net.cpp:165] Memory required for data: 648705500
I0817 16:29:31.852556 17472 layer_factory.hpp:77] Creating layer L1_b7_sum_eltwise
I0817 16:29:31.852566 17472 net.cpp:100] Creating Layer L1_b7_sum_eltwise
I0817 16:29:31.852571 17472 net.cpp:434] L1_b7_sum_eltwise <- L1_b7_cbr2_bn_top
I0817 16:29:31.852578 17472 net.cpp:434] L1_b7_sum_eltwise <- L1_b6_sum_eltwise_top_L1_b6_relu_0_split_1
I0817 16:29:31.852591 17472 net.cpp:408] L1_b7_sum_eltwise -> L1_b7_sum_eltwise_top
I0817 16:29:31.852625 17472 net.cpp:150] Setting up L1_b7_sum_eltwise
I0817 16:29:31.852638 17472 net.cpp:157] Top shape: 125 16 32 32 (2048000)
I0817 16:29:31.852641 17472 net.cpp:165] Memory required for data: 656897500
I0817 16:29:31.852648 17472 layer_factory.hpp:77] Creating layer L1_b7_relu
I0817 16:29:31.852655 17472 net.cpp:100] Creating Layer L1_b7_relu
I0817 16:29:31.852661 17472 net.cpp:434] L1_b7_relu <- L1_b7_sum_eltwise_top
I0817 16:29:31.852669 17472 net.cpp:395] L1_b7_relu -> L1_b7_sum_eltwise_top (in-place)
I0817 16:29:31.852679 17472 net.cpp:150] Setting up L1_b7_relu
I0817 16:29:31.852687 17472 net.cpp:157] Top shape: 125 16 32 32 (2048000)
I0817 16:29:31.852691 17472 net.cpp:165] Memory required for data: 665089500
I0817 16:29:31.852696 17472 layer_factory.hpp:77] Creating layer L1_b7_sum_eltwise_top_L1_b7_relu_0_split
I0817 16:29:31.852704 17472 net.cpp:100] Creating Layer L1_b7_sum_eltwise_top_L1_b7_relu_0_split
I0817 16:29:31.852708 17472 net.cpp:434] L1_b7_sum_eltwise_top_L1_b7_relu_0_split <- L1_b7_sum_eltwise_top
I0817 16:29:31.852715 17472 net.cpp:408] L1_b7_sum_eltwise_top_L1_b7_relu_0_split -> L1_b7_sum_eltwise_top_L1_b7_relu_0_split_0
I0817 16:29:31.852725 17472 net.cpp:408] L1_b7_sum_eltwise_top_L1_b7_relu_0_split -> L1_b7_sum_eltwise_top_L1_b7_relu_0_split_1
I0817 16:29:31.852769 17472 net.cpp:150] Setting up L1_b7_sum_eltwise_top_L1_b7_relu_0_split
I0817 16:29:31.852780 17472 net.cpp:157] Top shape: 125 16 32 32 (2048000)
I0817 16:29:31.852787 17472 net.cpp:157] Top shape: 125 16 32 32 (2048000)
I0817 16:29:31.852792 17472 net.cpp:165] Memory required for data: 681473500
I0817 16:29:31.852797 17472 layer_factory.hpp:77] Creating layer L1_b8_cbr1_conv
I0817 16:29:31.852808 17472 net.cpp:100] Creating Layer L1_b8_cbr1_conv
I0817 16:29:31.852813 17472 net.cpp:434] L1_b8_cbr1_conv <- L1_b7_sum_eltwise_top_L1_b7_relu_0_split_0
I0817 16:29:31.852825 17472 net.cpp:408] L1_b8_cbr1_conv -> L1_b8_cbr1_conv_top
I0817 16:29:31.853142 17472 net.cpp:150] Setting up L1_b8_cbr1_conv
I0817 16:29:31.853155 17472 net.cpp:157] Top shape: 125 16 32 32 (2048000)
I0817 16:29:31.853159 17472 net.cpp:165] Memory required for data: 689665500
I0817 16:29:31.853168 17472 layer_factory.hpp:77] Creating layer L1_b8_cbr1_bn
I0817 16:29:31.853178 17472 net.cpp:100] Creating Layer L1_b8_cbr1_bn
I0817 16:29:31.853184 17472 net.cpp:434] L1_b8_cbr1_bn <- L1_b8_cbr1_conv_top
I0817 16:29:31.853196 17472 net.cpp:408] L1_b8_cbr1_bn -> L1_b8_cbr1_bn_top
I0817 16:29:31.853440 17472 net.cpp:150] Setting up L1_b8_cbr1_bn
I0817 16:29:31.853453 17472 net.cpp:157] Top shape: 125 16 32 32 (2048000)
I0817 16:29:31.853458 17472 net.cpp:165] Memory required for data: 697857500
I0817 16:29:31.853468 17472 layer_factory.hpp:77] Creating layer L1_b8_cbr1_scale
I0817 16:29:31.853480 17472 net.cpp:100] Creating Layer L1_b8_cbr1_scale
I0817 16:29:31.853487 17472 net.cpp:434] L1_b8_cbr1_scale <- L1_b8_cbr1_bn_top
I0817 16:29:31.853494 17472 net.cpp:395] L1_b8_cbr1_scale -> L1_b8_cbr1_bn_top (in-place)
I0817 16:29:31.853545 17472 layer_factory.hpp:77] Creating layer L1_b8_cbr1_scale
I0817 16:29:31.853685 17472 net.cpp:150] Setting up L1_b8_cbr1_scale
I0817 16:29:31.853698 17472 net.cpp:157] Top shape: 125 16 32 32 (2048000)
I0817 16:29:31.853703 17472 net.cpp:165] Memory required for data: 706049500
I0817 16:29:31.853711 17472 layer_factory.hpp:77] Creating layer L1_b8_cbr1_relu
I0817 16:29:31.853719 17472 net.cpp:100] Creating Layer L1_b8_cbr1_relu
I0817 16:29:31.853725 17472 net.cpp:434] L1_b8_cbr1_relu <- L1_b8_cbr1_bn_top
I0817 16:29:31.853735 17472 net.cpp:395] L1_b8_cbr1_relu -> L1_b8_cbr1_bn_top (in-place)
I0817 16:29:31.853744 17472 net.cpp:150] Setting up L1_b8_cbr1_relu
I0817 16:29:31.853751 17472 net.cpp:157] Top shape: 125 16 32 32 (2048000)
I0817 16:29:31.853756 17472 net.cpp:165] Memory required for data: 714241500
I0817 16:29:31.853761 17472 layer_factory.hpp:77] Creating layer L1_b8_cbr2_conv
I0817 16:29:31.853775 17472 net.cpp:100] Creating Layer L1_b8_cbr2_conv
I0817 16:29:31.853780 17472 net.cpp:434] L1_b8_cbr2_conv <- L1_b8_cbr1_bn_top
I0817 16:29:31.853788 17472 net.cpp:408] L1_b8_cbr2_conv -> L1_b8_cbr2_conv_top
I0817 16:29:31.854101 17472 net.cpp:150] Setting up L1_b8_cbr2_conv
I0817 16:29:31.854121 17472 net.cpp:157] Top shape: 125 16 32 32 (2048000)
I0817 16:29:31.854126 17472 net.cpp:165] Memory required for data: 722433500
I0817 16:29:31.854135 17472 layer_factory.hpp:77] Creating layer L1_b8_cbr2_bn
I0817 16:29:31.854147 17472 net.cpp:100] Creating Layer L1_b8_cbr2_bn
I0817 16:29:31.854153 17472 net.cpp:434] L1_b8_cbr2_bn <- L1_b8_cbr2_conv_top
I0817 16:29:31.854161 17472 net.cpp:408] L1_b8_cbr2_bn -> L1_b8_cbr2_bn_top
I0817 16:29:31.854406 17472 net.cpp:150] Setting up L1_b8_cbr2_bn
I0817 16:29:31.854419 17472 net.cpp:157] Top shape: 125 16 32 32 (2048000)
I0817 16:29:31.854424 17472 net.cpp:165] Memory required for data: 730625500
I0817 16:29:31.854434 17472 layer_factory.hpp:77] Creating layer L1_b8_cbr2_scale
I0817 16:29:31.854447 17472 net.cpp:100] Creating Layer L1_b8_cbr2_scale
I0817 16:29:31.854454 17472 net.cpp:434] L1_b8_cbr2_scale <- L1_b8_cbr2_bn_top
I0817 16:29:31.854461 17472 net.cpp:395] L1_b8_cbr2_scale -> L1_b8_cbr2_bn_top (in-place)
I0817 16:29:31.854514 17472 layer_factory.hpp:77] Creating layer L1_b8_cbr2_scale
I0817 16:29:31.854653 17472 net.cpp:150] Setting up L1_b8_cbr2_scale
I0817 16:29:31.854665 17472 net.cpp:157] Top shape: 125 16 32 32 (2048000)
I0817 16:29:31.854671 17472 net.cpp:165] Memory required for data: 738817500
I0817 16:29:31.854679 17472 layer_factory.hpp:77] Creating layer L1_b8_sum_eltwise
I0817 16:29:31.854688 17472 net.cpp:100] Creating Layer L1_b8_sum_eltwise
I0817 16:29:31.854694 17472 net.cpp:434] L1_b8_sum_eltwise <- L1_b8_cbr2_bn_top
I0817 16:29:31.854701 17472 net.cpp:434] L1_b8_sum_eltwise <- L1_b7_sum_eltwise_top_L1_b7_relu_0_split_1
I0817 16:29:31.854712 17472 net.cpp:408] L1_b8_sum_eltwise -> L1_b8_sum_eltwise_top
I0817 16:29:31.854743 17472 net.cpp:150] Setting up L1_b8_sum_eltwise
I0817 16:29:31.854755 17472 net.cpp:157] Top shape: 125 16 32 32 (2048000)
I0817 16:29:31.854759 17472 net.cpp:165] Memory required for data: 747009500
I0817 16:29:31.854764 17472 layer_factory.hpp:77] Creating layer L1_b8_relu
I0817 16:29:31.854773 17472 net.cpp:100] Creating Layer L1_b8_relu
I0817 16:29:31.854779 17472 net.cpp:434] L1_b8_relu <- L1_b8_sum_eltwise_top
I0817 16:29:31.854785 17472 net.cpp:395] L1_b8_relu -> L1_b8_sum_eltwise_top (in-place)
I0817 16:29:31.854794 17472 net.cpp:150] Setting up L1_b8_relu
I0817 16:29:31.854807 17472 net.cpp:157] Top shape: 125 16 32 32 (2048000)
I0817 16:29:31.854812 17472 net.cpp:165] Memory required for data: 755201500
I0817 16:29:31.854817 17472 layer_factory.hpp:77] Creating layer L1_b8_sum_eltwise_top_L1_b8_relu_0_split
I0817 16:29:31.854827 17472 net.cpp:100] Creating Layer L1_b8_sum_eltwise_top_L1_b8_relu_0_split
I0817 16:29:31.854832 17472 net.cpp:434] L1_b8_sum_eltwise_top_L1_b8_relu_0_split <- L1_b8_sum_eltwise_top
I0817 16:29:31.854840 17472 net.cpp:408] L1_b8_sum_eltwise_top_L1_b8_relu_0_split -> L1_b8_sum_eltwise_top_L1_b8_relu_0_split_0
I0817 16:29:31.854849 17472 net.cpp:408] L1_b8_sum_eltwise_top_L1_b8_relu_0_split -> L1_b8_sum_eltwise_top_L1_b8_relu_0_split_1
I0817 16:29:31.854895 17472 net.cpp:150] Setting up L1_b8_sum_eltwise_top_L1_b8_relu_0_split
I0817 16:29:31.854907 17472 net.cpp:157] Top shape: 125 16 32 32 (2048000)
I0817 16:29:31.854913 17472 net.cpp:157] Top shape: 125 16 32 32 (2048000)
I0817 16:29:31.854918 17472 net.cpp:165] Memory required for data: 771585500
I0817 16:29:31.854923 17472 layer_factory.hpp:77] Creating layer L1_b9_cbr1_conv
I0817 16:29:31.854934 17472 net.cpp:100] Creating Layer L1_b9_cbr1_conv
I0817 16:29:31.854940 17472 net.cpp:434] L1_b9_cbr1_conv <- L1_b8_sum_eltwise_top_L1_b8_relu_0_split_0
I0817 16:29:31.854951 17472 net.cpp:408] L1_b9_cbr1_conv -> L1_b9_cbr1_conv_top
I0817 16:29:31.855283 17472 net.cpp:150] Setting up L1_b9_cbr1_conv
I0817 16:29:31.855298 17472 net.cpp:157] Top shape: 125 16 32 32 (2048000)
I0817 16:29:31.855303 17472 net.cpp:165] Memory required for data: 779777500
I0817 16:29:31.855311 17472 layer_factory.hpp:77] Creating layer L1_b9_cbr1_bn
I0817 16:29:31.855324 17472 net.cpp:100] Creating Layer L1_b9_cbr1_bn
I0817 16:29:31.855329 17472 net.cpp:434] L1_b9_cbr1_bn <- L1_b9_cbr1_conv_top
I0817 16:29:31.855339 17472 net.cpp:408] L1_b9_cbr1_bn -> L1_b9_cbr1_bn_top
I0817 16:29:31.855582 17472 net.cpp:150] Setting up L1_b9_cbr1_bn
I0817 16:29:31.855594 17472 net.cpp:157] Top shape: 125 16 32 32 (2048000)
I0817 16:29:31.855599 17472 net.cpp:165] Memory required for data: 787969500
I0817 16:29:31.855609 17472 layer_factory.hpp:77] Creating layer L1_b9_cbr1_scale
I0817 16:29:31.855618 17472 net.cpp:100] Creating Layer L1_b9_cbr1_scale
I0817 16:29:31.855624 17472 net.cpp:434] L1_b9_cbr1_scale <- L1_b9_cbr1_bn_top
I0817 16:29:31.855631 17472 net.cpp:395] L1_b9_cbr1_scale -> L1_b9_cbr1_bn_top (in-place)
I0817 16:29:31.855686 17472 layer_factory.hpp:77] Creating layer L1_b9_cbr1_scale
I0817 16:29:31.855830 17472 net.cpp:150] Setting up L1_b9_cbr1_scale
I0817 16:29:31.855844 17472 net.cpp:157] Top shape: 125 16 32 32 (2048000)
I0817 16:29:31.855849 17472 net.cpp:165] Memory required for data: 796161500
I0817 16:29:31.855856 17472 layer_factory.hpp:77] Creating layer L1_b9_cbr1_relu
I0817 16:29:31.855865 17472 net.cpp:100] Creating Layer L1_b9_cbr1_relu
I0817 16:29:31.855871 17472 net.cpp:434] L1_b9_cbr1_relu <- L1_b9_cbr1_bn_top
I0817 16:29:31.855881 17472 net.cpp:395] L1_b9_cbr1_relu -> L1_b9_cbr1_bn_top (in-place)
I0817 16:29:31.855891 17472 net.cpp:150] Setting up L1_b9_cbr1_relu
I0817 16:29:31.855898 17472 net.cpp:157] Top shape: 125 16 32 32 (2048000)
I0817 16:29:31.855902 17472 net.cpp:165] Memory required for data: 804353500
I0817 16:29:31.855907 17472 layer_factory.hpp:77] Creating layer L1_b9_cbr2_conv
I0817 16:29:31.855921 17472 net.cpp:100] Creating Layer L1_b9_cbr2_conv
I0817 16:29:31.855927 17472 net.cpp:434] L1_b9_cbr2_conv <- L1_b9_cbr1_bn_top
I0817 16:29:31.855936 17472 net.cpp:408] L1_b9_cbr2_conv -> L1_b9_cbr2_conv_top
I0817 16:29:31.856259 17472 net.cpp:150] Setting up L1_b9_cbr2_conv
I0817 16:29:31.856273 17472 net.cpp:157] Top shape: 125 16 32 32 (2048000)
I0817 16:29:31.856278 17472 net.cpp:165] Memory required for data: 812545500
I0817 16:29:31.856287 17472 layer_factory.hpp:77] Creating layer L1_b9_cbr2_bn
I0817 16:29:31.856297 17472 net.cpp:100] Creating Layer L1_b9_cbr2_bn
I0817 16:29:31.856302 17472 net.cpp:434] L1_b9_cbr2_bn <- L1_b9_cbr2_conv_top
I0817 16:29:31.856313 17472 net.cpp:408] L1_b9_cbr2_bn -> L1_b9_cbr2_bn_top
I0817 16:29:31.856560 17472 net.cpp:150] Setting up L1_b9_cbr2_bn
I0817 16:29:31.856575 17472 net.cpp:157] Top shape: 125 16 32 32 (2048000)
I0817 16:29:31.856580 17472 net.cpp:165] Memory required for data: 820737500
I0817 16:29:31.856611 17472 layer_factory.hpp:77] Creating layer L1_b9_cbr2_scale
I0817 16:29:31.856621 17472 net.cpp:100] Creating Layer L1_b9_cbr2_scale
I0817 16:29:31.856627 17472 net.cpp:434] L1_b9_cbr2_scale <- L1_b9_cbr2_bn_top
I0817 16:29:31.856636 17472 net.cpp:395] L1_b9_cbr2_scale -> L1_b9_cbr2_bn_top (in-place)
I0817 16:29:31.856689 17472 layer_factory.hpp:77] Creating layer L1_b9_cbr2_scale
I0817 16:29:31.856833 17472 net.cpp:150] Setting up L1_b9_cbr2_scale
I0817 16:29:31.856845 17472 net.cpp:157] Top shape: 125 16 32 32 (2048000)
I0817 16:29:31.856850 17472 net.cpp:165] Memory required for data: 828929500
I0817 16:29:31.856859 17472 layer_factory.hpp:77] Creating layer L1_b9_sum_eltwise
I0817 16:29:31.856868 17472 net.cpp:100] Creating Layer L1_b9_sum_eltwise
I0817 16:29:31.856874 17472 net.cpp:434] L1_b9_sum_eltwise <- L1_b9_cbr2_bn_top
I0817 16:29:31.856881 17472 net.cpp:434] L1_b9_sum_eltwise <- L1_b8_sum_eltwise_top_L1_b8_relu_0_split_1
I0817 16:29:31.856892 17472 net.cpp:408] L1_b9_sum_eltwise -> L1_b9_sum_eltwise_top
I0817 16:29:31.856923 17472 net.cpp:150] Setting up L1_b9_sum_eltwise
I0817 16:29:31.856932 17472 net.cpp:157] Top shape: 125 16 32 32 (2048000)
I0817 16:29:31.856936 17472 net.cpp:165] Memory required for data: 837121500
I0817 16:29:31.856941 17472 layer_factory.hpp:77] Creating layer L1_b9_relu
I0817 16:29:31.856950 17472 net.cpp:100] Creating Layer L1_b9_relu
I0817 16:29:31.856954 17472 net.cpp:434] L1_b9_relu <- L1_b9_sum_eltwise_top
I0817 16:29:31.856966 17472 net.cpp:395] L1_b9_relu -> L1_b9_sum_eltwise_top (in-place)
I0817 16:29:31.856974 17472 net.cpp:150] Setting up L1_b9_relu
I0817 16:29:31.856981 17472 net.cpp:157] Top shape: 125 16 32 32 (2048000)
I0817 16:29:31.856986 17472 net.cpp:165] Memory required for data: 845313500
I0817 16:29:31.856990 17472 layer_factory.hpp:77] Creating layer L1_b9_sum_eltwise_top_L1_b9_relu_0_split
I0817 16:29:31.856997 17472 net.cpp:100] Creating Layer L1_b9_sum_eltwise_top_L1_b9_relu_0_split
I0817 16:29:31.857002 17472 net.cpp:434] L1_b9_sum_eltwise_top_L1_b9_relu_0_split <- L1_b9_sum_eltwise_top
I0817 16:29:31.857014 17472 net.cpp:408] L1_b9_sum_eltwise_top_L1_b9_relu_0_split -> L1_b9_sum_eltwise_top_L1_b9_relu_0_split_0
I0817 16:29:31.857024 17472 net.cpp:408] L1_b9_sum_eltwise_top_L1_b9_relu_0_split -> L1_b9_sum_eltwise_top_L1_b9_relu_0_split_1
I0817 16:29:31.857069 17472 net.cpp:150] Setting up L1_b9_sum_eltwise_top_L1_b9_relu_0_split
I0817 16:29:31.857080 17472 net.cpp:157] Top shape: 125 16 32 32 (2048000)
I0817 16:29:31.857086 17472 net.cpp:157] Top shape: 125 16 32 32 (2048000)
I0817 16:29:31.857091 17472 net.cpp:165] Memory required for data: 861697500
I0817 16:29:31.857096 17472 layer_factory.hpp:77] Creating layer L2_b1_cbr1_conv
I0817 16:29:31.857112 17472 net.cpp:100] Creating Layer L2_b1_cbr1_conv
I0817 16:29:31.857120 17472 net.cpp:434] L2_b1_cbr1_conv <- L1_b9_sum_eltwise_top_L1_b9_relu_0_split_0
I0817 16:29:31.857131 17472 net.cpp:408] L2_b1_cbr1_conv -> L2_b1_cbr1_conv_top
I0817 16:29:31.857455 17472 net.cpp:150] Setting up L2_b1_cbr1_conv
I0817 16:29:31.857468 17472 net.cpp:157] Top shape: 125 16 16 16 (512000)
I0817 16:29:31.857473 17472 net.cpp:165] Memory required for data: 863745500
I0817 16:29:31.857482 17472 layer_factory.hpp:77] Creating layer L2_b1_cbr1_bn
I0817 16:29:31.857491 17472 net.cpp:100] Creating Layer L2_b1_cbr1_bn
I0817 16:29:31.857497 17472 net.cpp:434] L2_b1_cbr1_bn <- L2_b1_cbr1_conv_top
I0817 16:29:31.857508 17472 net.cpp:408] L2_b1_cbr1_bn -> L2_b1_cbr1_bn_top
I0817 16:29:31.857743 17472 net.cpp:150] Setting up L2_b1_cbr1_bn
I0817 16:29:31.857754 17472 net.cpp:157] Top shape: 125 16 16 16 (512000)
I0817 16:29:31.857759 17472 net.cpp:165] Memory required for data: 865793500
I0817 16:29:31.857769 17472 layer_factory.hpp:77] Creating layer L2_b1_cbr1_scale
I0817 16:29:31.857785 17472 net.cpp:100] Creating Layer L2_b1_cbr1_scale
I0817 16:29:31.857798 17472 net.cpp:434] L2_b1_cbr1_scale <- L2_b1_cbr1_bn_top
I0817 16:29:31.857806 17472 net.cpp:395] L2_b1_cbr1_scale -> L2_b1_cbr1_bn_top (in-place)
I0817 16:29:31.857861 17472 layer_factory.hpp:77] Creating layer L2_b1_cbr1_scale
I0817 16:29:31.858001 17472 net.cpp:150] Setting up L2_b1_cbr1_scale
I0817 16:29:31.858013 17472 net.cpp:157] Top shape: 125 16 16 16 (512000)
I0817 16:29:31.858018 17472 net.cpp:165] Memory required for data: 867841500
I0817 16:29:31.858027 17472 layer_factory.hpp:77] Creating layer L2_b1_cbr1_relu
I0817 16:29:31.858038 17472 net.cpp:100] Creating Layer L2_b1_cbr1_relu
I0817 16:29:31.858044 17472 net.cpp:434] L2_b1_cbr1_relu <- L2_b1_cbr1_bn_top
I0817 16:29:31.858052 17472 net.cpp:395] L2_b1_cbr1_relu -> L2_b1_cbr1_bn_top (in-place)
I0817 16:29:31.858062 17472 net.cpp:150] Setting up L2_b1_cbr1_relu
I0817 16:29:31.858068 17472 net.cpp:157] Top shape: 125 16 16 16 (512000)
I0817 16:29:31.858072 17472 net.cpp:165] Memory required for data: 869889500
I0817 16:29:31.858078 17472 layer_factory.hpp:77] Creating layer L2_b1_cbr2_conv
I0817 16:29:31.858091 17472 net.cpp:100] Creating Layer L2_b1_cbr2_conv
I0817 16:29:31.858098 17472 net.cpp:434] L2_b1_cbr2_conv <- L2_b1_cbr1_bn_top
I0817 16:29:31.858114 17472 net.cpp:408] L2_b1_cbr2_conv -> L2_b1_cbr2_conv_top
I0817 16:29:31.858433 17472 net.cpp:150] Setting up L2_b1_cbr2_conv
I0817 16:29:31.858445 17472 net.cpp:157] Top shape: 125 16 16 16 (512000)
I0817 16:29:31.858450 17472 net.cpp:165] Memory required for data: 871937500
I0817 16:29:31.858459 17472 layer_factory.hpp:77] Creating layer L2_b1_cbr2_bn
I0817 16:29:31.858469 17472 net.cpp:100] Creating Layer L2_b1_cbr2_bn
I0817 16:29:31.858475 17472 net.cpp:434] L2_b1_cbr2_bn <- L2_b1_cbr2_conv_top
I0817 16:29:31.858486 17472 net.cpp:408] L2_b1_cbr2_bn -> L2_b1_cbr2_bn_top
I0817 16:29:31.858729 17472 net.cpp:150] Setting up L2_b1_cbr2_bn
I0817 16:29:31.858741 17472 net.cpp:157] Top shape: 125 16 16 16 (512000)
I0817 16:29:31.858747 17472 net.cpp:165] Memory required for data: 873985500
I0817 16:29:31.858757 17472 layer_factory.hpp:77] Creating layer L2_b1_cbr2_scale
I0817 16:29:31.858768 17472 net.cpp:100] Creating Layer L2_b1_cbr2_scale
I0817 16:29:31.858775 17472 net.cpp:434] L2_b1_cbr2_scale <- L2_b1_cbr2_bn_top
I0817 16:29:31.858783 17472 net.cpp:395] L2_b1_cbr2_scale -> L2_b1_cbr2_bn_top (in-place)
I0817 16:29:31.858836 17472 layer_factory.hpp:77] Creating layer L2_b1_cbr2_scale
I0817 16:29:31.858979 17472 net.cpp:150] Setting up L2_b1_cbr2_scale
I0817 16:29:31.858991 17472 net.cpp:157] Top shape: 125 16 16 16 (512000)
I0817 16:29:31.858996 17472 net.cpp:165] Memory required for data: 876033500
I0817 16:29:31.859005 17472 layer_factory.hpp:77] Creating layer L2_b1_pool
I0817 16:29:31.859020 17472 net.cpp:100] Creating Layer L2_b1_pool
I0817 16:29:31.859026 17472 net.cpp:434] L2_b1_pool <- L1_b9_sum_eltwise_top_L1_b9_relu_0_split_1
I0817 16:29:31.859035 17472 net.cpp:408] L2_b1_pool -> L2_b1_pool
I0817 16:29:31.859129 17472 net.cpp:150] Setting up L2_b1_pool
I0817 16:29:31.859144 17472 net.cpp:157] Top shape: 125 16 16 16 (512000)
I0817 16:29:31.859149 17472 net.cpp:165] Memory required for data: 878081500
I0817 16:29:31.859155 17472 layer_factory.hpp:77] Creating layer L2_b1_sum_eltwise
I0817 16:29:31.859164 17472 net.cpp:100] Creating Layer L2_b1_sum_eltwise
I0817 16:29:31.859171 17472 net.cpp:434] L2_b1_sum_eltwise <- L2_b1_cbr2_bn_top
I0817 16:29:31.859177 17472 net.cpp:434] L2_b1_sum_eltwise <- L2_b1_pool
I0817 16:29:31.859189 17472 net.cpp:408] L2_b1_sum_eltwise -> L2_b1_sum_eltwise_top
I0817 16:29:31.859221 17472 net.cpp:150] Setting up L2_b1_sum_eltwise
I0817 16:29:31.859231 17472 net.cpp:157] Top shape: 125 16 16 16 (512000)
I0817 16:29:31.859236 17472 net.cpp:165] Memory required for data: 880129500
I0817 16:29:31.859241 17472 layer_factory.hpp:77] Creating layer L2_b1_relu
I0817 16:29:31.859248 17472 net.cpp:100] Creating Layer L2_b1_relu
I0817 16:29:31.859254 17472 net.cpp:434] L2_b1_relu <- L2_b1_sum_eltwise_top
I0817 16:29:31.859268 17472 net.cpp:395] L2_b1_relu -> L2_b1_sum_eltwise_top (in-place)
I0817 16:29:31.859278 17472 net.cpp:150] Setting up L2_b1_relu
I0817 16:29:31.859285 17472 net.cpp:157] Top shape: 125 16 16 16 (512000)
I0817 16:29:31.859290 17472 net.cpp:165] Memory required for data: 882177500
I0817 16:29:31.859294 17472 layer_factory.hpp:77] Creating layer L2_b1_zeros
I0817 16:29:31.859345 17472 net.cpp:100] Creating Layer L2_b1_zeros
I0817 16:29:31.859359 17472 net.cpp:408] L2_b1_zeros -> L2_b1_zeros
I0817 16:29:31.861726 17472 net.cpp:150] Setting up L2_b1_zeros
I0817 16:29:31.861744 17472 net.cpp:157] Top shape: 125 16 16 16 (512000)
I0817 16:29:31.861749 17472 net.cpp:165] Memory required for data: 884225500
I0817 16:29:31.861755 17472 layer_factory.hpp:77] Creating layer L2_b1_concat0
I0817 16:29:31.861766 17472 net.cpp:100] Creating Layer L2_b1_concat0
I0817 16:29:31.861773 17472 net.cpp:434] L2_b1_concat0 <- L2_b1_sum_eltwise_top
I0817 16:29:31.861779 17472 net.cpp:434] L2_b1_concat0 <- L2_b1_zeros
I0817 16:29:31.861790 17472 net.cpp:408] L2_b1_concat0 -> L2_b1_concat0
I0817 16:29:31.861866 17472 net.cpp:150] Setting up L2_b1_concat0
I0817 16:29:31.861881 17472 net.cpp:157] Top shape: 125 32 16 16 (1024000)
I0817 16:29:31.861891 17472 net.cpp:165] Memory required for data: 888321500
I0817 16:29:31.861896 17472 layer_factory.hpp:77] Creating layer L2_b1_concat0_L2_b1_concat0_0_split
I0817 16:29:31.861904 17472 net.cpp:100] Creating Layer L2_b1_concat0_L2_b1_concat0_0_split
I0817 16:29:31.861910 17472 net.cpp:434] L2_b1_concat0_L2_b1_concat0_0_split <- L2_b1_concat0
I0817 16:29:31.861918 17472 net.cpp:408] L2_b1_concat0_L2_b1_concat0_0_split -> L2_b1_concat0_L2_b1_concat0_0_split_0
I0817 16:29:31.861928 17472 net.cpp:408] L2_b1_concat0_L2_b1_concat0_0_split -> L2_b1_concat0_L2_b1_concat0_0_split_1
I0817 16:29:31.861979 17472 net.cpp:150] Setting up L2_b1_concat0_L2_b1_concat0_0_split
I0817 16:29:31.861989 17472 net.cpp:157] Top shape: 125 32 16 16 (1024000)
I0817 16:29:31.861996 17472 net.cpp:157] Top shape: 125 32 16 16 (1024000)
I0817 16:29:31.862001 17472 net.cpp:165] Memory required for data: 896513500
I0817 16:29:31.862006 17472 layer_factory.hpp:77] Creating layer L2_b2_cbr1_conv
I0817 16:29:31.862022 17472 net.cpp:100] Creating Layer L2_b2_cbr1_conv
I0817 16:29:31.862030 17472 net.cpp:434] L2_b2_cbr1_conv <- L2_b1_concat0_L2_b1_concat0_0_split_0
I0817 16:29:31.862038 17472 net.cpp:408] L2_b2_cbr1_conv -> L2_b2_cbr1_conv_top
I0817 16:29:31.863502 17472 net.cpp:150] Setting up L2_b2_cbr1_conv
I0817 16:29:31.863520 17472 net.cpp:157] Top shape: 125 32 16 16 (1024000)
I0817 16:29:31.863525 17472 net.cpp:165] Memory required for data: 900609500
I0817 16:29:31.863535 17472 layer_factory.hpp:77] Creating layer L2_b2_cbr1_bn
I0817 16:29:31.863548 17472 net.cpp:100] Creating Layer L2_b2_cbr1_bn
I0817 16:29:31.863554 17472 net.cpp:434] L2_b2_cbr1_bn <- L2_b2_cbr1_conv_top
I0817 16:29:31.863564 17472 net.cpp:408] L2_b2_cbr1_bn -> L2_b2_cbr1_bn_top
I0817 16:29:31.863806 17472 net.cpp:150] Setting up L2_b2_cbr1_bn
I0817 16:29:31.863819 17472 net.cpp:157] Top shape: 125 32 16 16 (1024000)
I0817 16:29:31.863824 17472 net.cpp:165] Memory required for data: 904705500
I0817 16:29:31.863836 17472 layer_factory.hpp:77] Creating layer L2_b2_cbr1_scale
I0817 16:29:31.863847 17472 net.cpp:100] Creating Layer L2_b2_cbr1_scale
I0817 16:29:31.863854 17472 net.cpp:434] L2_b2_cbr1_scale <- L2_b2_cbr1_bn_top
I0817 16:29:31.863862 17472 net.cpp:395] L2_b2_cbr1_scale -> L2_b2_cbr1_bn_top (in-place)
I0817 16:29:31.863916 17472 layer_factory.hpp:77] Creating layer L2_b2_cbr1_scale
I0817 16:29:31.864063 17472 net.cpp:150] Setting up L2_b2_cbr1_scale
I0817 16:29:31.864076 17472 net.cpp:157] Top shape: 125 32 16 16 (1024000)
I0817 16:29:31.864081 17472 net.cpp:165] Memory required for data: 908801500
I0817 16:29:31.864090 17472 layer_factory.hpp:77] Creating layer L2_b2_cbr1_relu
I0817 16:29:31.864101 17472 net.cpp:100] Creating Layer L2_b2_cbr1_relu
I0817 16:29:31.864114 17472 net.cpp:434] L2_b2_cbr1_relu <- L2_b2_cbr1_bn_top
I0817 16:29:31.864122 17472 net.cpp:395] L2_b2_cbr1_relu -> L2_b2_cbr1_bn_top (in-place)
I0817 16:29:31.864142 17472 net.cpp:150] Setting up L2_b2_cbr1_relu
I0817 16:29:31.864151 17472 net.cpp:157] Top shape: 125 32 16 16 (1024000)
I0817 16:29:31.864156 17472 net.cpp:165] Memory required for data: 912897500
I0817 16:29:31.864161 17472 layer_factory.hpp:77] Creating layer L2_b2_cbr2_conv
I0817 16:29:31.864172 17472 net.cpp:100] Creating Layer L2_b2_cbr2_conv
I0817 16:29:31.864177 17472 net.cpp:434] L2_b2_cbr2_conv <- L2_b2_cbr1_bn_top
I0817 16:29:31.864189 17472 net.cpp:408] L2_b2_cbr2_conv -> L2_b2_cbr2_conv_top
I0817 16:29:31.864670 17472 net.cpp:150] Setting up L2_b2_cbr2_conv
I0817 16:29:31.864683 17472 net.cpp:157] Top shape: 125 32 16 16 (1024000)
I0817 16:29:31.864688 17472 net.cpp:165] Memory required for data: 916993500
I0817 16:29:31.864697 17472 layer_factory.hpp:77] Creating layer L2_b2_cbr2_bn
I0817 16:29:31.864707 17472 net.cpp:100] Creating Layer L2_b2_cbr2_bn
I0817 16:29:31.864713 17472 net.cpp:434] L2_b2_cbr2_bn <- L2_b2_cbr2_conv_top
I0817 16:29:31.864724 17472 net.cpp:408] L2_b2_cbr2_bn -> L2_b2_cbr2_bn_top
I0817 16:29:31.864967 17472 net.cpp:150] Setting up L2_b2_cbr2_bn
I0817 16:29:31.864980 17472 net.cpp:157] Top shape: 125 32 16 16 (1024000)
I0817 16:29:31.864985 17472 net.cpp:165] Memory required for data: 921089500
I0817 16:29:31.864996 17472 layer_factory.hpp:77] Creating layer L2_b2_cbr2_scale
I0817 16:29:31.865008 17472 net.cpp:100] Creating Layer L2_b2_cbr2_scale
I0817 16:29:31.865015 17472 net.cpp:434] L2_b2_cbr2_scale <- L2_b2_cbr2_bn_top
I0817 16:29:31.865022 17472 net.cpp:395] L2_b2_cbr2_scale -> L2_b2_cbr2_bn_top (in-place)
I0817 16:29:31.865077 17472 layer_factory.hpp:77] Creating layer L2_b2_cbr2_scale
I0817 16:29:31.865226 17472 net.cpp:150] Setting up L2_b2_cbr2_scale
I0817 16:29:31.865241 17472 net.cpp:157] Top shape: 125 32 16 16 (1024000)
I0817 16:29:31.865245 17472 net.cpp:165] Memory required for data: 925185500
I0817 16:29:31.865254 17472 layer_factory.hpp:77] Creating layer L2_b2_sum_eltwise
I0817 16:29:31.865267 17472 net.cpp:100] Creating Layer L2_b2_sum_eltwise
I0817 16:29:31.865273 17472 net.cpp:434] L2_b2_sum_eltwise <- L2_b2_cbr2_bn_top
I0817 16:29:31.865280 17472 net.cpp:434] L2_b2_sum_eltwise <- L2_b1_concat0_L2_b1_concat0_0_split_1
I0817 16:29:31.865288 17472 net.cpp:408] L2_b2_sum_eltwise -> L2_b2_sum_eltwise_top
I0817 16:29:31.865317 17472 net.cpp:150] Setting up L2_b2_sum_eltwise
I0817 16:29:31.865327 17472 net.cpp:157] Top shape: 125 32 16 16 (1024000)
I0817 16:29:31.865332 17472 net.cpp:165] Memory required for data: 929281500
I0817 16:29:31.865337 17472 layer_factory.hpp:77] Creating layer L2_b2_relu
I0817 16:29:31.865345 17472 net.cpp:100] Creating Layer L2_b2_relu
I0817 16:29:31.865350 17472 net.cpp:434] L2_b2_relu <- L2_b2_sum_eltwise_top
I0817 16:29:31.865360 17472 net.cpp:395] L2_b2_relu -> L2_b2_sum_eltwise_top (in-place)
I0817 16:29:31.865370 17472 net.cpp:150] Setting up L2_b2_relu
I0817 16:29:31.865377 17472 net.cpp:157] Top shape: 125 32 16 16 (1024000)
I0817 16:29:31.865382 17472 net.cpp:165] Memory required for data: 933377500
I0817 16:29:31.865386 17472 layer_factory.hpp:77] Creating layer L2_b2_sum_eltwise_top_L2_b2_relu_0_split
I0817 16:29:31.865394 17472 net.cpp:100] Creating Layer L2_b2_sum_eltwise_top_L2_b2_relu_0_split
I0817 16:29:31.865399 17472 net.cpp:434] L2_b2_sum_eltwise_top_L2_b2_relu_0_split <- L2_b2_sum_eltwise_top
I0817 16:29:31.865406 17472 net.cpp:408] L2_b2_sum_eltwise_top_L2_b2_relu_0_split -> L2_b2_sum_eltwise_top_L2_b2_relu_0_split_0
I0817 16:29:31.865417 17472 net.cpp:408] L2_b2_sum_eltwise_top_L2_b2_relu_0_split -> L2_b2_sum_eltwise_top_L2_b2_relu_0_split_1
I0817 16:29:31.865464 17472 net.cpp:150] Setting up L2_b2_sum_eltwise_top_L2_b2_relu_0_split
I0817 16:29:31.865476 17472 net.cpp:157] Top shape: 125 32 16 16 (1024000)
I0817 16:29:31.865483 17472 net.cpp:157] Top shape: 125 32 16 16 (1024000)
I0817 16:29:31.865487 17472 net.cpp:165] Memory required for data: 941569500
I0817 16:29:31.865492 17472 layer_factory.hpp:77] Creating layer L2_b3_cbr1_conv
I0817 16:29:31.865510 17472 net.cpp:100] Creating Layer L2_b3_cbr1_conv
I0817 16:29:31.865516 17472 net.cpp:434] L2_b3_cbr1_conv <- L2_b2_sum_eltwise_top_L2_b2_relu_0_split_0
I0817 16:29:31.865528 17472 net.cpp:408] L2_b3_cbr1_conv -> L2_b3_cbr1_conv_top
I0817 16:29:31.865986 17472 net.cpp:150] Setting up L2_b3_cbr1_conv
I0817 16:29:31.865999 17472 net.cpp:157] Top shape: 125 32 16 16 (1024000)
I0817 16:29:31.866004 17472 net.cpp:165] Memory required for data: 945665500
I0817 16:29:31.866014 17472 layer_factory.hpp:77] Creating layer L2_b3_cbr1_bn
I0817 16:29:31.866024 17472 net.cpp:100] Creating Layer L2_b3_cbr1_bn
I0817 16:29:31.866029 17472 net.cpp:434] L2_b3_cbr1_bn <- L2_b3_cbr1_conv_top
I0817 16:29:31.866040 17472 net.cpp:408] L2_b3_cbr1_bn -> L2_b3_cbr1_bn_top
I0817 16:29:31.866291 17472 net.cpp:150] Setting up L2_b3_cbr1_bn
I0817 16:29:31.866305 17472 net.cpp:157] Top shape: 125 32 16 16 (1024000)
I0817 16:29:31.866310 17472 net.cpp:165] Memory required for data: 949761500
I0817 16:29:31.866322 17472 layer_factory.hpp:77] Creating layer L2_b3_cbr1_scale
I0817 16:29:31.866333 17472 net.cpp:100] Creating Layer L2_b3_cbr1_scale
I0817 16:29:31.866339 17472 net.cpp:434] L2_b3_cbr1_scale <- L2_b3_cbr1_bn_top
I0817 16:29:31.866348 17472 net.cpp:395] L2_b3_cbr1_scale -> L2_b3_cbr1_bn_top (in-place)
I0817 16:29:31.866403 17472 layer_factory.hpp:77] Creating layer L2_b3_cbr1_scale
I0817 16:29:31.866546 17472 net.cpp:150] Setting up L2_b3_cbr1_scale
I0817 16:29:31.866559 17472 net.cpp:157] Top shape: 125 32 16 16 (1024000)
I0817 16:29:31.866564 17472 net.cpp:165] Memory required for data: 953857500
I0817 16:29:31.866572 17472 layer_factory.hpp:77] Creating layer L2_b3_cbr1_relu
I0817 16:29:31.866583 17472 net.cpp:100] Creating Layer L2_b3_cbr1_relu
I0817 16:29:31.866590 17472 net.cpp:434] L2_b3_cbr1_relu <- L2_b3_cbr1_bn_top
I0817 16:29:31.866597 17472 net.cpp:395] L2_b3_cbr1_relu -> L2_b3_cbr1_bn_top (in-place)
I0817 16:29:31.866606 17472 net.cpp:150] Setting up L2_b3_cbr1_relu
I0817 16:29:31.866613 17472 net.cpp:157] Top shape: 125 32 16 16 (1024000)
I0817 16:29:31.866618 17472 net.cpp:165] Memory required for data: 957953500
I0817 16:29:31.866623 17472 layer_factory.hpp:77] Creating layer L2_b3_cbr2_conv
I0817 16:29:31.866637 17472 net.cpp:100] Creating Layer L2_b3_cbr2_conv
I0817 16:29:31.866643 17472 net.cpp:434] L2_b3_cbr2_conv <- L2_b3_cbr1_bn_top
I0817 16:29:31.866654 17472 net.cpp:408] L2_b3_cbr2_conv -> L2_b3_cbr2_conv_top
I0817 16:29:31.867113 17472 net.cpp:150] Setting up L2_b3_cbr2_conv
I0817 16:29:31.867127 17472 net.cpp:157] Top shape: 125 32 16 16 (1024000)
I0817 16:29:31.867132 17472 net.cpp:165] Memory required for data: 962049500
I0817 16:29:31.867141 17472 layer_factory.hpp:77] Creating layer L2_b3_cbr2_bn
I0817 16:29:31.867151 17472 net.cpp:100] Creating Layer L2_b3_cbr2_bn
I0817 16:29:31.867156 17472 net.cpp:434] L2_b3_cbr2_bn <- L2_b3_cbr2_conv_top
I0817 16:29:31.867167 17472 net.cpp:408] L2_b3_cbr2_bn -> L2_b3_cbr2_bn_top
I0817 16:29:31.867414 17472 net.cpp:150] Setting up L2_b3_cbr2_bn
I0817 16:29:31.867427 17472 net.cpp:157] Top shape: 125 32 16 16 (1024000)
I0817 16:29:31.867432 17472 net.cpp:165] Memory required for data: 966145500
I0817 16:29:31.867442 17472 layer_factory.hpp:77] Creating layer L2_b3_cbr2_scale
I0817 16:29:31.867455 17472 net.cpp:100] Creating Layer L2_b3_cbr2_scale
I0817 16:29:31.867460 17472 net.cpp:434] L2_b3_cbr2_scale <- L2_b3_cbr2_bn_top
I0817 16:29:31.867468 17472 net.cpp:395] L2_b3_cbr2_scale -> L2_b3_cbr2_bn_top (in-place)
I0817 16:29:31.867522 17472 layer_factory.hpp:77] Creating layer L2_b3_cbr2_scale
I0817 16:29:31.867668 17472 net.cpp:150] Setting up L2_b3_cbr2_scale
I0817 16:29:31.867681 17472 net.cpp:157] Top shape: 125 32 16 16 (1024000)
I0817 16:29:31.867686 17472 net.cpp:165] Memory required for data: 970241500
I0817 16:29:31.867694 17472 layer_factory.hpp:77] Creating layer L2_b3_sum_eltwise
I0817 16:29:31.867708 17472 net.cpp:100] Creating Layer L2_b3_sum_eltwise
I0817 16:29:31.867715 17472 net.cpp:434] L2_b3_sum_eltwise <- L2_b3_cbr2_bn_top
I0817 16:29:31.867729 17472 net.cpp:434] L2_b3_sum_eltwise <- L2_b2_sum_eltwise_top_L2_b2_relu_0_split_1
I0817 16:29:31.867738 17472 net.cpp:408] L2_b3_sum_eltwise -> L2_b3_sum_eltwise_top
I0817 16:29:31.867764 17472 net.cpp:150] Setting up L2_b3_sum_eltwise
I0817 16:29:31.867779 17472 net.cpp:157] Top shape: 125 32 16 16 (1024000)
I0817 16:29:31.867784 17472 net.cpp:165] Memory required for data: 974337500
I0817 16:29:31.867789 17472 layer_factory.hpp:77] Creating layer L2_b3_relu
I0817 16:29:31.867808 17472 net.cpp:100] Creating Layer L2_b3_relu
I0817 16:29:31.867815 17472 net.cpp:434] L2_b3_relu <- L2_b3_sum_eltwise_top
I0817 16:29:31.867823 17472 net.cpp:395] L2_b3_relu -> L2_b3_sum_eltwise_top (in-place)
I0817 16:29:31.867832 17472 net.cpp:150] Setting up L2_b3_relu
I0817 16:29:31.867839 17472 net.cpp:157] Top shape: 125 32 16 16 (1024000)
I0817 16:29:31.867844 17472 net.cpp:165] Memory required for data: 978433500
I0817 16:29:31.867849 17472 layer_factory.hpp:77] Creating layer L2_b3_sum_eltwise_top_L2_b3_relu_0_split
I0817 16:29:31.867856 17472 net.cpp:100] Creating Layer L2_b3_sum_eltwise_top_L2_b3_relu_0_split
I0817 16:29:31.867861 17472 net.cpp:434] L2_b3_sum_eltwise_top_L2_b3_relu_0_split <- L2_b3_sum_eltwise_top
I0817 16:29:31.867871 17472 net.cpp:408] L2_b3_sum_eltwise_top_L2_b3_relu_0_split -> L2_b3_sum_eltwise_top_L2_b3_relu_0_split_0
I0817 16:29:31.867882 17472 net.cpp:408] L2_b3_sum_eltwise_top_L2_b3_relu_0_split -> L2_b3_sum_eltwise_top_L2_b3_relu_0_split_1
I0817 16:29:31.867928 17472 net.cpp:150] Setting up L2_b3_sum_eltwise_top_L2_b3_relu_0_split
I0817 16:29:31.867941 17472 net.cpp:157] Top shape: 125 32 16 16 (1024000)
I0817 16:29:31.867949 17472 net.cpp:157] Top shape: 125 32 16 16 (1024000)
I0817 16:29:31.867954 17472 net.cpp:165] Memory required for data: 986625500
I0817 16:29:31.867959 17472 layer_factory.hpp:77] Creating layer L2_b4_cbr1_conv
I0817 16:29:31.867969 17472 net.cpp:100] Creating Layer L2_b4_cbr1_conv
I0817 16:29:31.867975 17472 net.cpp:434] L2_b4_cbr1_conv <- L2_b3_sum_eltwise_top_L2_b3_relu_0_split_0
I0817 16:29:31.867985 17472 net.cpp:408] L2_b4_cbr1_conv -> L2_b4_cbr1_conv_top
I0817 16:29:31.868445 17472 net.cpp:150] Setting up L2_b4_cbr1_conv
I0817 16:29:31.868459 17472 net.cpp:157] Top shape: 125 32 16 16 (1024000)
I0817 16:29:31.868464 17472 net.cpp:165] Memory required for data: 990721500
I0817 16:29:31.868474 17472 layer_factory.hpp:77] Creating layer L2_b4_cbr1_bn
I0817 16:29:31.868485 17472 net.cpp:100] Creating Layer L2_b4_cbr1_bn
I0817 16:29:31.868491 17472 net.cpp:434] L2_b4_cbr1_bn <- L2_b4_cbr1_conv_top
I0817 16:29:31.868500 17472 net.cpp:408] L2_b4_cbr1_bn -> L2_b4_cbr1_bn_top
I0817 16:29:31.868742 17472 net.cpp:150] Setting up L2_b4_cbr1_bn
I0817 16:29:31.868755 17472 net.cpp:157] Top shape: 125 32 16 16 (1024000)
I0817 16:29:31.868760 17472 net.cpp:165] Memory required for data: 994817500
I0817 16:29:31.868770 17472 layer_factory.hpp:77] Creating layer L2_b4_cbr1_scale
I0817 16:29:31.868779 17472 net.cpp:100] Creating Layer L2_b4_cbr1_scale
I0817 16:29:31.868785 17472 net.cpp:434] L2_b4_cbr1_scale <- L2_b4_cbr1_bn_top
I0817 16:29:31.868795 17472 net.cpp:395] L2_b4_cbr1_scale -> L2_b4_cbr1_bn_top (in-place)
I0817 16:29:31.868850 17472 layer_factory.hpp:77] Creating layer L2_b4_cbr1_scale
I0817 16:29:31.868996 17472 net.cpp:150] Setting up L2_b4_cbr1_scale
I0817 16:29:31.869009 17472 net.cpp:157] Top shape: 125 32 16 16 (1024000)
I0817 16:29:31.869014 17472 net.cpp:165] Memory required for data: 998913500
I0817 16:29:31.869022 17472 layer_factory.hpp:77] Creating layer L2_b4_cbr1_relu
I0817 16:29:31.869031 17472 net.cpp:100] Creating Layer L2_b4_cbr1_relu
I0817 16:29:31.869037 17472 net.cpp:434] L2_b4_cbr1_relu <- L2_b4_cbr1_bn_top
I0817 16:29:31.869047 17472 net.cpp:395] L2_b4_cbr1_relu -> L2_b4_cbr1_bn_top (in-place)
I0817 16:29:31.869057 17472 net.cpp:150] Setting up L2_b4_cbr1_relu
I0817 16:29:31.869065 17472 net.cpp:157] Top shape: 125 32 16 16 (1024000)
I0817 16:29:31.869068 17472 net.cpp:165] Memory required for data: 1003009500
I0817 16:29:31.869073 17472 layer_factory.hpp:77] Creating layer L2_b4_cbr2_conv
I0817 16:29:31.869094 17472 net.cpp:100] Creating Layer L2_b4_cbr2_conv
I0817 16:29:31.869101 17472 net.cpp:434] L2_b4_cbr2_conv <- L2_b4_cbr1_bn_top
I0817 16:29:31.869114 17472 net.cpp:408] L2_b4_cbr2_conv -> L2_b4_cbr2_conv_top
I0817 16:29:31.869576 17472 net.cpp:150] Setting up L2_b4_cbr2_conv
I0817 16:29:31.869590 17472 net.cpp:157] Top shape: 125 32 16 16 (1024000)
I0817 16:29:31.869596 17472 net.cpp:165] Memory required for data: 1007105500
I0817 16:29:31.869604 17472 layer_factory.hpp:77] Creating layer L2_b4_cbr2_bn
I0817 16:29:31.869616 17472 net.cpp:100] Creating Layer L2_b4_cbr2_bn
I0817 16:29:31.869622 17472 net.cpp:434] L2_b4_cbr2_bn <- L2_b4_cbr2_conv_top
I0817 16:29:31.869630 17472 net.cpp:408] L2_b4_cbr2_bn -> L2_b4_cbr2_bn_top
I0817 16:29:31.869869 17472 net.cpp:150] Setting up L2_b4_cbr2_bn
I0817 16:29:31.869882 17472 net.cpp:157] Top shape: 125 32 16 16 (1024000)
I0817 16:29:31.869887 17472 net.cpp:165] Memory required for data: 1011201500
I0817 16:29:31.869897 17472 layer_factory.hpp:77] Creating layer L2_b4_cbr2_scale
I0817 16:29:31.869905 17472 net.cpp:100] Creating Layer L2_b4_cbr2_scale
I0817 16:29:31.869911 17472 net.cpp:434] L2_b4_cbr2_scale <- L2_b4_cbr2_bn_top
I0817 16:29:31.869920 17472 net.cpp:395] L2_b4_cbr2_scale -> L2_b4_cbr2_bn_top (in-place)
I0817 16:29:31.869974 17472 layer_factory.hpp:77] Creating layer L2_b4_cbr2_scale
I0817 16:29:31.870122 17472 net.cpp:150] Setting up L2_b4_cbr2_scale
I0817 16:29:31.870139 17472 net.cpp:157] Top shape: 125 32 16 16 (1024000)
I0817 16:29:31.870144 17472 net.cpp:165] Memory required for data: 1015297500
I0817 16:29:31.870153 17472 layer_factory.hpp:77] Creating layer L2_b4_sum_eltwise
I0817 16:29:31.870162 17472 net.cpp:100] Creating Layer L2_b4_sum_eltwise
I0817 16:29:31.870168 17472 net.cpp:434] L2_b4_sum_eltwise <- L2_b4_cbr2_bn_top
I0817 16:29:31.870175 17472 net.cpp:434] L2_b4_sum_eltwise <- L2_b3_sum_eltwise_top_L2_b3_relu_0_split_1
I0817 16:29:31.870183 17472 net.cpp:408] L2_b4_sum_eltwise -> L2_b4_sum_eltwise_top
I0817 16:29:31.870213 17472 net.cpp:150] Setting up L2_b4_sum_eltwise
I0817 16:29:31.870223 17472 net.cpp:157] Top shape: 125 32 16 16 (1024000)
I0817 16:29:31.870226 17472 net.cpp:165] Memory required for data: 1019393500
I0817 16:29:31.870231 17472 layer_factory.hpp:77] Creating layer L2_b4_relu
I0817 16:29:31.870239 17472 net.cpp:100] Creating Layer L2_b4_relu
I0817 16:29:31.870245 17472 net.cpp:434] L2_b4_relu <- L2_b4_sum_eltwise_top
I0817 16:29:31.870254 17472 net.cpp:395] L2_b4_relu -> L2_b4_sum_eltwise_top (in-place)
I0817 16:29:31.870263 17472 net.cpp:150] Setting up L2_b4_relu
I0817 16:29:31.870270 17472 net.cpp:157] Top shape: 125 32 16 16 (1024000)
I0817 16:29:31.870275 17472 net.cpp:165] Memory required for data: 1023489500
I0817 16:29:31.870280 17472 layer_factory.hpp:77] Creating layer L2_b4_sum_eltwise_top_L2_b4_relu_0_split
I0817 16:29:31.870286 17472 net.cpp:100] Creating Layer L2_b4_sum_eltwise_top_L2_b4_relu_0_split
I0817 16:29:31.870291 17472 net.cpp:434] L2_b4_sum_eltwise_top_L2_b4_relu_0_split <- L2_b4_sum_eltwise_top
I0817 16:29:31.870301 17472 net.cpp:408] L2_b4_sum_eltwise_top_L2_b4_relu_0_split -> L2_b4_sum_eltwise_top_L2_b4_relu_0_split_0
I0817 16:29:31.870312 17472 net.cpp:408] L2_b4_sum_eltwise_top_L2_b4_relu_0_split -> L2_b4_sum_eltwise_top_L2_b4_relu_0_split_1
I0817 16:29:31.870355 17472 net.cpp:150] Setting up L2_b4_sum_eltwise_top_L2_b4_relu_0_split
I0817 16:29:31.870367 17472 net.cpp:157] Top shape: 125 32 16 16 (1024000)
I0817 16:29:31.870373 17472 net.cpp:157] Top shape: 125 32 16 16 (1024000)
I0817 16:29:31.870378 17472 net.cpp:165] Memory required for data: 1031681500
I0817 16:29:31.870383 17472 layer_factory.hpp:77] Creating layer L2_b5_cbr1_conv
I0817 16:29:31.870396 17472 net.cpp:100] Creating Layer L2_b5_cbr1_conv
I0817 16:29:31.870402 17472 net.cpp:434] L2_b5_cbr1_conv <- L2_b4_sum_eltwise_top_L2_b4_relu_0_split_0
I0817 16:29:31.870411 17472 net.cpp:408] L2_b5_cbr1_conv -> L2_b5_cbr1_conv_top
I0817 16:29:31.870867 17472 net.cpp:150] Setting up L2_b5_cbr1_conv
I0817 16:29:31.870887 17472 net.cpp:157] Top shape: 125 32 16 16 (1024000)
I0817 16:29:31.870893 17472 net.cpp:165] Memory required for data: 1035777500
I0817 16:29:31.870901 17472 layer_factory.hpp:77] Creating layer L2_b5_cbr1_bn
I0817 16:29:31.870913 17472 net.cpp:100] Creating Layer L2_b5_cbr1_bn
I0817 16:29:31.870919 17472 net.cpp:434] L2_b5_cbr1_bn <- L2_b5_cbr1_conv_top
I0817 16:29:31.870928 17472 net.cpp:408] L2_b5_cbr1_bn -> L2_b5_cbr1_bn_top
I0817 16:29:31.871186 17472 net.cpp:150] Setting up L2_b5_cbr1_bn
I0817 16:29:31.871201 17472 net.cpp:157] Top shape: 125 32 16 16 (1024000)
I0817 16:29:31.871206 17472 net.cpp:165] Memory required for data: 1039873500
I0817 16:29:31.871215 17472 layer_factory.hpp:77] Creating layer L2_b5_cbr1_scale
I0817 16:29:31.871224 17472 net.cpp:100] Creating Layer L2_b5_cbr1_scale
I0817 16:29:31.871230 17472 net.cpp:434] L2_b5_cbr1_scale <- L2_b5_cbr1_bn_top
I0817 16:29:31.871242 17472 net.cpp:395] L2_b5_cbr1_scale -> L2_b5_cbr1_bn_top (in-place)
I0817 16:29:31.871296 17472 layer_factory.hpp:77] Creating layer L2_b5_cbr1_scale
I0817 16:29:31.871443 17472 net.cpp:150] Setting up L2_b5_cbr1_scale
I0817 16:29:31.871455 17472 net.cpp:157] Top shape: 125 32 16 16 (1024000)
I0817 16:29:31.871460 17472 net.cpp:165] Memory required for data: 1043969500
I0817 16:29:31.871469 17472 layer_factory.hpp:77] Creating layer L2_b5_cbr1_relu
I0817 16:29:31.871477 17472 net.cpp:100] Creating Layer L2_b5_cbr1_relu
I0817 16:29:31.871484 17472 net.cpp:434] L2_b5_cbr1_relu <- L2_b5_cbr1_bn_top
I0817 16:29:31.871490 17472 net.cpp:395] L2_b5_cbr1_relu -> L2_b5_cbr1_bn_top (in-place)
I0817 16:29:31.871502 17472 net.cpp:150] Setting up L2_b5_cbr1_relu
I0817 16:29:31.871510 17472 net.cpp:157] Top shape: 125 32 16 16 (1024000)
I0817 16:29:31.871515 17472 net.cpp:165] Memory required for data: 1048065500
I0817 16:29:31.871520 17472 layer_factory.hpp:77] Creating layer L2_b5_cbr2_conv
I0817 16:29:31.871529 17472 net.cpp:100] Creating Layer L2_b5_cbr2_conv
I0817 16:29:31.871538 17472 net.cpp:434] L2_b5_cbr2_conv <- L2_b5_cbr1_bn_top
I0817 16:29:31.871546 17472 net.cpp:408] L2_b5_cbr2_conv -> L2_b5_cbr2_conv_top
I0817 16:29:31.872005 17472 net.cpp:150] Setting up L2_b5_cbr2_conv
I0817 16:29:31.872020 17472 net.cpp:157] Top shape: 125 32 16 16 (1024000)
I0817 16:29:31.872025 17472 net.cpp:165] Memory required for data: 1052161500
I0817 16:29:31.872033 17472 layer_factory.hpp:77] Creating layer L2_b5_cbr2_bn
I0817 16:29:31.872045 17472 net.cpp:100] Creating Layer L2_b5_cbr2_bn
I0817 16:29:31.872051 17472 net.cpp:434] L2_b5_cbr2_bn <- L2_b5_cbr2_conv_top
I0817 16:29:31.872062 17472 net.cpp:408] L2_b5_cbr2_bn -> L2_b5_cbr2_bn_top
I0817 16:29:31.872309 17472 net.cpp:150] Setting up L2_b5_cbr2_bn
I0817 16:29:31.872323 17472 net.cpp:157] Top shape: 125 32 16 16 (1024000)
I0817 16:29:31.872328 17472 net.cpp:165] Memory required for data: 1056257500
I0817 16:29:31.872337 17472 layer_factory.hpp:77] Creating layer L2_b5_cbr2_scale
I0817 16:29:31.872346 17472 net.cpp:100] Creating Layer L2_b5_cbr2_scale
I0817 16:29:31.872352 17472 net.cpp:434] L2_b5_cbr2_scale <- L2_b5_cbr2_bn_top
I0817 16:29:31.872359 17472 net.cpp:395] L2_b5_cbr2_scale -> L2_b5_cbr2_bn_top (in-place)
I0817 16:29:31.872416 17472 layer_factory.hpp:77] Creating layer L2_b5_cbr2_scale
I0817 16:29:31.872561 17472 net.cpp:150] Setting up L2_b5_cbr2_scale
I0817 16:29:31.872577 17472 net.cpp:157] Top shape: 125 32 16 16 (1024000)
I0817 16:29:31.872582 17472 net.cpp:165] Memory required for data: 1060353500
I0817 16:29:31.872591 17472 layer_factory.hpp:77] Creating layer L2_b5_sum_eltwise
I0817 16:29:31.872601 17472 net.cpp:100] Creating Layer L2_b5_sum_eltwise
I0817 16:29:31.872606 17472 net.cpp:434] L2_b5_sum_eltwise <- L2_b5_cbr2_bn_top
I0817 16:29:31.872613 17472 net.cpp:434] L2_b5_sum_eltwise <- L2_b4_sum_eltwise_top_L2_b4_relu_0_split_1
I0817 16:29:31.872620 17472 net.cpp:408] L2_b5_sum_eltwise -> L2_b5_sum_eltwise_top
I0817 16:29:31.872650 17472 net.cpp:150] Setting up L2_b5_sum_eltwise
I0817 16:29:31.872659 17472 net.cpp:157] Top shape: 125 32 16 16 (1024000)
I0817 16:29:31.872670 17472 net.cpp:165] Memory required for data: 1064449500
I0817 16:29:31.872675 17472 layer_factory.hpp:77] Creating layer L2_b5_relu
I0817 16:29:31.872684 17472 net.cpp:100] Creating Layer L2_b5_relu
I0817 16:29:31.872689 17472 net.cpp:434] L2_b5_relu <- L2_b5_sum_eltwise_top
I0817 16:29:31.872702 17472 net.cpp:395] L2_b5_relu -> L2_b5_sum_eltwise_top (in-place)
I0817 16:29:31.872712 17472 net.cpp:150] Setting up L2_b5_relu
I0817 16:29:31.872720 17472 net.cpp:157] Top shape: 125 32 16 16 (1024000)
I0817 16:29:31.872725 17472 net.cpp:165] Memory required for data: 1068545500
I0817 16:29:31.872728 17472 layer_factory.hpp:77] Creating layer L2_b5_sum_eltwise_top_L2_b5_relu_0_split
I0817 16:29:31.872735 17472 net.cpp:100] Creating Layer L2_b5_sum_eltwise_top_L2_b5_relu_0_split
I0817 16:29:31.872741 17472 net.cpp:434] L2_b5_sum_eltwise_top_L2_b5_relu_0_split <- L2_b5_sum_eltwise_top
I0817 16:29:31.872751 17472 net.cpp:408] L2_b5_sum_eltwise_top_L2_b5_relu_0_split -> L2_b5_sum_eltwise_top_L2_b5_relu_0_split_0
I0817 16:29:31.872761 17472 net.cpp:408] L2_b5_sum_eltwise_top_L2_b5_relu_0_split -> L2_b5_sum_eltwise_top_L2_b5_relu_0_split_1
I0817 16:29:31.872805 17472 net.cpp:150] Setting up L2_b5_sum_eltwise_top_L2_b5_relu_0_split
I0817 16:29:31.872817 17472 net.cpp:157] Top shape: 125 32 16 16 (1024000)
I0817 16:29:31.872822 17472 net.cpp:157] Top shape: 125 32 16 16 (1024000)
I0817 16:29:31.872826 17472 net.cpp:165] Memory required for data: 1076737500
I0817 16:29:31.872833 17472 layer_factory.hpp:77] Creating layer L2_b6_cbr1_conv
I0817 16:29:31.872846 17472 net.cpp:100] Creating Layer L2_b6_cbr1_conv
I0817 16:29:31.872853 17472 net.cpp:434] L2_b6_cbr1_conv <- L2_b5_sum_eltwise_top_L2_b5_relu_0_split_0
I0817 16:29:31.872861 17472 net.cpp:408] L2_b6_cbr1_conv -> L2_b6_cbr1_conv_top
I0817 16:29:31.873337 17472 net.cpp:150] Setting up L2_b6_cbr1_conv
I0817 16:29:31.873353 17472 net.cpp:157] Top shape: 125 32 16 16 (1024000)
I0817 16:29:31.873358 17472 net.cpp:165] Memory required for data: 1080833500
I0817 16:29:31.873366 17472 layer_factory.hpp:77] Creating layer L2_b6_cbr1_bn
I0817 16:29:31.873378 17472 net.cpp:100] Creating Layer L2_b6_cbr1_bn
I0817 16:29:31.873384 17472 net.cpp:434] L2_b6_cbr1_bn <- L2_b6_cbr1_conv_top
I0817 16:29:31.873392 17472 net.cpp:408] L2_b6_cbr1_bn -> L2_b6_cbr1_bn_top
I0817 16:29:31.873633 17472 net.cpp:150] Setting up L2_b6_cbr1_bn
I0817 16:29:31.873646 17472 net.cpp:157] Top shape: 125 32 16 16 (1024000)
I0817 16:29:31.873651 17472 net.cpp:165] Memory required for data: 1084929500
I0817 16:29:31.873661 17472 layer_factory.hpp:77] Creating layer L2_b6_cbr1_scale
I0817 16:29:31.873670 17472 net.cpp:100] Creating Layer L2_b6_cbr1_scale
I0817 16:29:31.873677 17472 net.cpp:434] L2_b6_cbr1_scale <- L2_b6_cbr1_bn_top
I0817 16:29:31.873683 17472 net.cpp:395] L2_b6_cbr1_scale -> L2_b6_cbr1_bn_top (in-place)
I0817 16:29:31.873739 17472 layer_factory.hpp:77] Creating layer L2_b6_cbr1_scale
I0817 16:29:31.873881 17472 net.cpp:150] Setting up L2_b6_cbr1_scale
I0817 16:29:31.873896 17472 net.cpp:157] Top shape: 125 32 16 16 (1024000)
I0817 16:29:31.873901 17472 net.cpp:165] Memory required for data: 1089025500
I0817 16:29:31.873909 17472 layer_factory.hpp:77] Creating layer L2_b6_cbr1_relu
I0817 16:29:31.873919 17472 net.cpp:100] Creating Layer L2_b6_cbr1_relu
I0817 16:29:31.873924 17472 net.cpp:434] L2_b6_cbr1_relu <- L2_b6_cbr1_bn_top
I0817 16:29:31.873931 17472 net.cpp:395] L2_b6_cbr1_relu -> L2_b6_cbr1_bn_top (in-place)
I0817 16:29:31.873940 17472 net.cpp:150] Setting up L2_b6_cbr1_relu
I0817 16:29:31.873947 17472 net.cpp:157] Top shape: 125 32 16 16 (1024000)
I0817 16:29:31.873951 17472 net.cpp:165] Memory required for data: 1093121500
I0817 16:29:31.873956 17472 layer_factory.hpp:77] Creating layer L2_b6_cbr2_conv
I0817 16:29:31.873970 17472 net.cpp:100] Creating Layer L2_b6_cbr2_conv
I0817 16:29:31.873976 17472 net.cpp:434] L2_b6_cbr2_conv <- L2_b6_cbr1_bn_top
I0817 16:29:31.873987 17472 net.cpp:408] L2_b6_cbr2_conv -> L2_b6_cbr2_conv_top
I0817 16:29:31.874451 17472 net.cpp:150] Setting up L2_b6_cbr2_conv
I0817 16:29:31.874471 17472 net.cpp:157] Top shape: 125 32 16 16 (1024000)
I0817 16:29:31.874477 17472 net.cpp:165] Memory required for data: 1097217500
I0817 16:29:31.874485 17472 layer_factory.hpp:77] Creating layer L2_b6_cbr2_bn
I0817 16:29:31.874497 17472 net.cpp:100] Creating Layer L2_b6_cbr2_bn
I0817 16:29:31.874505 17472 net.cpp:434] L2_b6_cbr2_bn <- L2_b6_cbr2_conv_top
I0817 16:29:31.874516 17472 net.cpp:408] L2_b6_cbr2_bn -> L2_b6_cbr2_bn_top
I0817 16:29:31.874759 17472 net.cpp:150] Setting up L2_b6_cbr2_bn
I0817 16:29:31.874771 17472 net.cpp:157] Top shape: 125 32 16 16 (1024000)
I0817 16:29:31.874776 17472 net.cpp:165] Memory required for data: 1101313500
I0817 16:29:31.874786 17472 layer_factory.hpp:77] Creating layer L2_b6_cbr2_scale
I0817 16:29:31.874795 17472 net.cpp:100] Creating Layer L2_b6_cbr2_scale
I0817 16:29:31.874801 17472 net.cpp:434] L2_b6_cbr2_scale <- L2_b6_cbr2_bn_top
I0817 16:29:31.874809 17472 net.cpp:395] L2_b6_cbr2_scale -> L2_b6_cbr2_bn_top (in-place)
I0817 16:29:31.874866 17472 layer_factory.hpp:77] Creating layer L2_b6_cbr2_scale
I0817 16:29:31.875010 17472 net.cpp:150] Setting up L2_b6_cbr2_scale
I0817 16:29:31.875023 17472 net.cpp:157] Top shape: 125 32 16 16 (1024000)
I0817 16:29:31.875027 17472 net.cpp:165] Memory required for data: 1105409500
I0817 16:29:31.875036 17472 layer_factory.hpp:77] Creating layer L2_b6_sum_eltwise
I0817 16:29:31.875048 17472 net.cpp:100] Creating Layer L2_b6_sum_eltwise
I0817 16:29:31.875056 17472 net.cpp:434] L2_b6_sum_eltwise <- L2_b6_cbr2_bn_top
I0817 16:29:31.875062 17472 net.cpp:434] L2_b6_sum_eltwise <- L2_b5_sum_eltwise_top_L2_b5_relu_0_split_1
I0817 16:29:31.875069 17472 net.cpp:408] L2_b6_sum_eltwise -> L2_b6_sum_eltwise_top
I0817 16:29:31.875095 17472 net.cpp:150] Setting up L2_b6_sum_eltwise
I0817 16:29:31.875104 17472 net.cpp:157] Top shape: 125 32 16 16 (1024000)
I0817 16:29:31.875115 17472 net.cpp:165] Memory required for data: 1109505500
I0817 16:29:31.875121 17472 layer_factory.hpp:77] Creating layer L2_b6_relu
I0817 16:29:31.875133 17472 net.cpp:100] Creating Layer L2_b6_relu
I0817 16:29:31.875138 17472 net.cpp:434] L2_b6_relu <- L2_b6_sum_eltwise_top
I0817 16:29:31.875149 17472 net.cpp:395] L2_b6_relu -> L2_b6_sum_eltwise_top (in-place)
I0817 16:29:31.875157 17472 net.cpp:150] Setting up L2_b6_relu
I0817 16:29:31.875165 17472 net.cpp:157] Top shape: 125 32 16 16 (1024000)
I0817 16:29:31.875169 17472 net.cpp:165] Memory required for data: 1113601500
I0817 16:29:31.875174 17472 layer_factory.hpp:77] Creating layer L2_b6_sum_eltwise_top_L2_b6_relu_0_split
I0817 16:29:31.875181 17472 net.cpp:100] Creating Layer L2_b6_sum_eltwise_top_L2_b6_relu_0_split
I0817 16:29:31.875186 17472 net.cpp:434] L2_b6_sum_eltwise_top_L2_b6_relu_0_split <- L2_b6_sum_eltwise_top
I0817 16:29:31.875193 17472 net.cpp:408] L2_b6_sum_eltwise_top_L2_b6_relu_0_split -> L2_b6_sum_eltwise_top_L2_b6_relu_0_split_0
I0817 16:29:31.875203 17472 net.cpp:408] L2_b6_sum_eltwise_top_L2_b6_relu_0_split -> L2_b6_sum_eltwise_top_L2_b6_relu_0_split_1
I0817 16:29:31.875250 17472 net.cpp:150] Setting up L2_b6_sum_eltwise_top_L2_b6_relu_0_split
I0817 16:29:31.875262 17472 net.cpp:157] Top shape: 125 32 16 16 (1024000)
I0817 16:29:31.875268 17472 net.cpp:157] Top shape: 125 32 16 16 (1024000)
I0817 16:29:31.875273 17472 net.cpp:165] Memory required for data: 1121793500
I0817 16:29:31.875277 17472 layer_factory.hpp:77] Creating layer L2_b7_cbr1_conv
I0817 16:29:31.875291 17472 net.cpp:100] Creating Layer L2_b7_cbr1_conv
I0817 16:29:31.875298 17472 net.cpp:434] L2_b7_cbr1_conv <- L2_b6_sum_eltwise_top_L2_b6_relu_0_split_0
I0817 16:29:31.875308 17472 net.cpp:408] L2_b7_cbr1_conv -> L2_b7_cbr1_conv_top
I0817 16:29:31.875767 17472 net.cpp:150] Setting up L2_b7_cbr1_conv
I0817 16:29:31.875782 17472 net.cpp:157] Top shape: 125 32 16 16 (1024000)
I0817 16:29:31.875787 17472 net.cpp:165] Memory required for data: 1125889500
I0817 16:29:31.875794 17472 layer_factory.hpp:77] Creating layer L2_b7_cbr1_bn
I0817 16:29:31.875807 17472 net.cpp:100] Creating Layer L2_b7_cbr1_bn
I0817 16:29:31.875819 17472 net.cpp:434] L2_b7_cbr1_bn <- L2_b7_cbr1_conv_top
I0817 16:29:31.875833 17472 net.cpp:408] L2_b7_cbr1_bn -> L2_b7_cbr1_bn_top
I0817 16:29:31.876076 17472 net.cpp:150] Setting up L2_b7_cbr1_bn
I0817 16:29:31.876090 17472 net.cpp:157] Top shape: 125 32 16 16 (1024000)
I0817 16:29:31.876094 17472 net.cpp:165] Memory required for data: 1129985500
I0817 16:29:31.876106 17472 layer_factory.hpp:77] Creating layer L2_b7_cbr1_scale
I0817 16:29:31.876121 17472 net.cpp:100] Creating Layer L2_b7_cbr1_scale
I0817 16:29:31.876127 17472 net.cpp:434] L2_b7_cbr1_scale <- L2_b7_cbr1_bn_top
I0817 16:29:31.876134 17472 net.cpp:395] L2_b7_cbr1_scale -> L2_b7_cbr1_bn_top (in-place)
I0817 16:29:31.876204 17472 layer_factory.hpp:77] Creating layer L2_b7_cbr1_scale
I0817 16:29:31.876348 17472 net.cpp:150] Setting up L2_b7_cbr1_scale
I0817 16:29:31.876363 17472 net.cpp:157] Top shape: 125 32 16 16 (1024000)
I0817 16:29:31.876368 17472 net.cpp:165] Memory required for data: 1134081500
I0817 16:29:31.876377 17472 layer_factory.hpp:77] Creating layer L2_b7_cbr1_relu
I0817 16:29:31.876385 17472 net.cpp:100] Creating Layer L2_b7_cbr1_relu
I0817 16:29:31.876391 17472 net.cpp:434] L2_b7_cbr1_relu <- L2_b7_cbr1_bn_top
I0817 16:29:31.876399 17472 net.cpp:395] L2_b7_cbr1_relu -> L2_b7_cbr1_bn_top (in-place)
I0817 16:29:31.876408 17472 net.cpp:150] Setting up L2_b7_cbr1_relu
I0817 16:29:31.876415 17472 net.cpp:157] Top shape: 125 32 16 16 (1024000)
I0817 16:29:31.876420 17472 net.cpp:165] Memory required for data: 1138177500
I0817 16:29:31.876425 17472 layer_factory.hpp:77] Creating layer L2_b7_cbr2_conv
I0817 16:29:31.876440 17472 net.cpp:100] Creating Layer L2_b7_cbr2_conv
I0817 16:29:31.876446 17472 net.cpp:434] L2_b7_cbr2_conv <- L2_b7_cbr1_bn_top
I0817 16:29:31.876457 17472 net.cpp:408] L2_b7_cbr2_conv -> L2_b7_cbr2_conv_top
I0817 16:29:31.876920 17472 net.cpp:150] Setting up L2_b7_cbr2_conv
I0817 16:29:31.876935 17472 net.cpp:157] Top shape: 125 32 16 16 (1024000)
I0817 16:29:31.876940 17472 net.cpp:165] Memory required for data: 1142273500
I0817 16:29:31.876948 17472 layer_factory.hpp:77] Creating layer L2_b7_cbr2_bn
I0817 16:29:31.876960 17472 net.cpp:100] Creating Layer L2_b7_cbr2_bn
I0817 16:29:31.876966 17472 net.cpp:434] L2_b7_cbr2_bn <- L2_b7_cbr2_conv_top
I0817 16:29:31.876977 17472 net.cpp:408] L2_b7_cbr2_bn -> L2_b7_cbr2_bn_top
I0817 16:29:31.877235 17472 net.cpp:150] Setting up L2_b7_cbr2_bn
I0817 16:29:31.877249 17472 net.cpp:157] Top shape: 125 32 16 16 (1024000)
I0817 16:29:31.877254 17472 net.cpp:165] Memory required for data: 1146369500
I0817 16:29:31.877264 17472 layer_factory.hpp:77] Creating layer L2_b7_cbr2_scale
I0817 16:29:31.877274 17472 net.cpp:100] Creating Layer L2_b7_cbr2_scale
I0817 16:29:31.877279 17472 net.cpp:434] L2_b7_cbr2_scale <- L2_b7_cbr2_bn_top
I0817 16:29:31.877286 17472 net.cpp:395] L2_b7_cbr2_scale -> L2_b7_cbr2_bn_top (in-place)
I0817 16:29:31.877344 17472 layer_factory.hpp:77] Creating layer L2_b7_cbr2_scale
I0817 16:29:31.877490 17472 net.cpp:150] Setting up L2_b7_cbr2_scale
I0817 16:29:31.877501 17472 net.cpp:157] Top shape: 125 32 16 16 (1024000)
I0817 16:29:31.877506 17472 net.cpp:165] Memory required for data: 1150465500
I0817 16:29:31.877514 17472 layer_factory.hpp:77] Creating layer L2_b7_sum_eltwise
I0817 16:29:31.877526 17472 net.cpp:100] Creating Layer L2_b7_sum_eltwise
I0817 16:29:31.877533 17472 net.cpp:434] L2_b7_sum_eltwise <- L2_b7_cbr2_bn_top
I0817 16:29:31.877539 17472 net.cpp:434] L2_b7_sum_eltwise <- L2_b6_sum_eltwise_top_L2_b6_relu_0_split_1
I0817 16:29:31.877547 17472 net.cpp:408] L2_b7_sum_eltwise -> L2_b7_sum_eltwise_top
I0817 16:29:31.877573 17472 net.cpp:150] Setting up L2_b7_sum_eltwise
I0817 16:29:31.877583 17472 net.cpp:157] Top shape: 125 32 16 16 (1024000)
I0817 16:29:31.877588 17472 net.cpp:165] Memory required for data: 1154561500
I0817 16:29:31.877593 17472 layer_factory.hpp:77] Creating layer L2_b7_relu
I0817 16:29:31.877604 17472 net.cpp:100] Creating Layer L2_b7_relu
I0817 16:29:31.877609 17472 net.cpp:434] L2_b7_relu <- L2_b7_sum_eltwise_top
I0817 16:29:31.877622 17472 net.cpp:395] L2_b7_relu -> L2_b7_sum_eltwise_top (in-place)
I0817 16:29:31.877632 17472 net.cpp:150] Setting up L2_b7_relu
I0817 16:29:31.877640 17472 net.cpp:157] Top shape: 125 32 16 16 (1024000)
I0817 16:29:31.877645 17472 net.cpp:165] Memory required for data: 1158657500
I0817 16:29:31.877650 17472 layer_factory.hpp:77] Creating layer L2_b7_sum_eltwise_top_L2_b7_relu_0_split
I0817 16:29:31.877656 17472 net.cpp:100] Creating Layer L2_b7_sum_eltwise_top_L2_b7_relu_0_split
I0817 16:29:31.877661 17472 net.cpp:434] L2_b7_sum_eltwise_top_L2_b7_relu_0_split <- L2_b7_sum_eltwise_top
I0817 16:29:31.877668 17472 net.cpp:408] L2_b7_sum_eltwise_top_L2_b7_relu_0_split -> L2_b7_sum_eltwise_top_L2_b7_relu_0_split_0
I0817 16:29:31.877678 17472 net.cpp:408] L2_b7_sum_eltwise_top_L2_b7_relu_0_split -> L2_b7_sum_eltwise_top_L2_b7_relu_0_split_1
I0817 16:29:31.877727 17472 net.cpp:150] Setting up L2_b7_sum_eltwise_top_L2_b7_relu_0_split
I0817 16:29:31.877739 17472 net.cpp:157] Top shape: 125 32 16 16 (1024000)
I0817 16:29:31.877745 17472 net.cpp:157] Top shape: 125 32 16 16 (1024000)
I0817 16:29:31.877750 17472 net.cpp:165] Memory required for data: 1166849500
I0817 16:29:31.877755 17472 layer_factory.hpp:77] Creating layer L2_b8_cbr1_conv
I0817 16:29:31.877771 17472 net.cpp:100] Creating Layer L2_b8_cbr1_conv
I0817 16:29:31.877777 17472 net.cpp:434] L2_b8_cbr1_conv <- L2_b7_sum_eltwise_top_L2_b7_relu_0_split_0
I0817 16:29:31.877786 17472 net.cpp:408] L2_b8_cbr1_conv -> L2_b8_cbr1_conv_top
I0817 16:29:31.878288 17472 net.cpp:150] Setting up L2_b8_cbr1_conv
I0817 16:29:31.878306 17472 net.cpp:157] Top shape: 125 32 16 16 (1024000)
I0817 16:29:31.878311 17472 net.cpp:165] Memory required for data: 1170945500
I0817 16:29:31.878320 17472 layer_factory.hpp:77] Creating layer L2_b8_cbr1_bn
I0817 16:29:31.878332 17472 net.cpp:100] Creating Layer L2_b8_cbr1_bn
I0817 16:29:31.878340 17472 net.cpp:434] L2_b8_cbr1_bn <- L2_b8_cbr1_conv_top
I0817 16:29:31.878350 17472 net.cpp:408] L2_b8_cbr1_bn -> L2_b8_cbr1_bn_top
I0817 16:29:31.878595 17472 net.cpp:150] Setting up L2_b8_cbr1_bn
I0817 16:29:31.878608 17472 net.cpp:157] Top shape: 125 32 16 16 (1024000)
I0817 16:29:31.878613 17472 net.cpp:165] Memory required for data: 1175041500
I0817 16:29:31.878623 17472 layer_factory.hpp:77] Creating layer L2_b8_cbr1_scale
I0817 16:29:31.878633 17472 net.cpp:100] Creating Layer L2_b8_cbr1_scale
I0817 16:29:31.878638 17472 net.cpp:434] L2_b8_cbr1_scale <- L2_b8_cbr1_bn_top
I0817 16:29:31.878645 17472 net.cpp:395] L2_b8_cbr1_scale -> L2_b8_cbr1_bn_top (in-place)
I0817 16:29:31.878703 17472 layer_factory.hpp:77] Creating layer L2_b8_cbr1_scale
I0817 16:29:31.878854 17472 net.cpp:150] Setting up L2_b8_cbr1_scale
I0817 16:29:31.878865 17472 net.cpp:157] Top shape: 125 32 16 16 (1024000)
I0817 16:29:31.878870 17472 net.cpp:165] Memory required for data: 1179137500
I0817 16:29:31.878880 17472 layer_factory.hpp:77] Creating layer L2_b8_cbr1_relu
I0817 16:29:31.878890 17472 net.cpp:100] Creating Layer L2_b8_cbr1_relu
I0817 16:29:31.878896 17472 net.cpp:434] L2_b8_cbr1_relu <- L2_b8_cbr1_bn_top
I0817 16:29:31.878903 17472 net.cpp:395] L2_b8_cbr1_relu -> L2_b8_cbr1_bn_top (in-place)
I0817 16:29:31.878913 17472 net.cpp:150] Setting up L2_b8_cbr1_relu
I0817 16:29:31.878921 17472 net.cpp:157] Top shape: 125 32 16 16 (1024000)
I0817 16:29:31.878924 17472 net.cpp:165] Memory required for data: 1183233500
I0817 16:29:31.878929 17472 layer_factory.hpp:77] Creating layer L2_b8_cbr2_conv
I0817 16:29:31.878943 17472 net.cpp:100] Creating Layer L2_b8_cbr2_conv
I0817 16:29:31.878949 17472 net.cpp:434] L2_b8_cbr2_conv <- L2_b8_cbr1_bn_top
I0817 16:29:31.878960 17472 net.cpp:408] L2_b8_cbr2_conv -> L2_b8_cbr2_conv_top
I0817 16:29:31.879432 17472 net.cpp:150] Setting up L2_b8_cbr2_conv
I0817 16:29:31.879446 17472 net.cpp:157] Top shape: 125 32 16 16 (1024000)
I0817 16:29:31.879451 17472 net.cpp:165] Memory required for data: 1187329500
I0817 16:29:31.879461 17472 layer_factory.hpp:77] Creating layer L2_b8_cbr2_bn
I0817 16:29:31.879472 17472 net.cpp:100] Creating Layer L2_b8_cbr2_bn
I0817 16:29:31.879487 17472 net.cpp:434] L2_b8_cbr2_bn <- L2_b8_cbr2_conv_top
I0817 16:29:31.879498 17472 net.cpp:408] L2_b8_cbr2_bn -> L2_b8_cbr2_bn_top
I0817 16:29:31.879751 17472 net.cpp:150] Setting up L2_b8_cbr2_bn
I0817 16:29:31.879767 17472 net.cpp:157] Top shape: 125 32 16 16 (1024000)
I0817 16:29:31.879772 17472 net.cpp:165] Memory required for data: 1191425500
I0817 16:29:31.879782 17472 layer_factory.hpp:77] Creating layer L2_b8_cbr2_scale
I0817 16:29:31.879791 17472 net.cpp:100] Creating Layer L2_b8_cbr2_scale
I0817 16:29:31.879797 17472 net.cpp:434] L2_b8_cbr2_scale <- L2_b8_cbr2_bn_top
I0817 16:29:31.879804 17472 net.cpp:395] L2_b8_cbr2_scale -> L2_b8_cbr2_bn_top (in-place)
I0817 16:29:31.879859 17472 layer_factory.hpp:77] Creating layer L2_b8_cbr2_scale
I0817 16:29:31.880007 17472 net.cpp:150] Setting up L2_b8_cbr2_scale
I0817 16:29:31.880020 17472 net.cpp:157] Top shape: 125 32 16 16 (1024000)
I0817 16:29:31.880025 17472 net.cpp:165] Memory required for data: 1195521500
I0817 16:29:31.880033 17472 layer_factory.hpp:77] Creating layer L2_b8_sum_eltwise
I0817 16:29:31.880043 17472 net.cpp:100] Creating Layer L2_b8_sum_eltwise
I0817 16:29:31.880048 17472 net.cpp:434] L2_b8_sum_eltwise <- L2_b8_cbr2_bn_top
I0817 16:29:31.880059 17472 net.cpp:434] L2_b8_sum_eltwise <- L2_b7_sum_eltwise_top_L2_b7_relu_0_split_1
I0817 16:29:31.880066 17472 net.cpp:408] L2_b8_sum_eltwise -> L2_b8_sum_eltwise_top
I0817 16:29:31.880093 17472 net.cpp:150] Setting up L2_b8_sum_eltwise
I0817 16:29:31.880102 17472 net.cpp:157] Top shape: 125 32 16 16 (1024000)
I0817 16:29:31.880112 17472 net.cpp:165] Memory required for data: 1199617500
I0817 16:29:31.880118 17472 layer_factory.hpp:77] Creating layer L2_b8_relu
I0817 16:29:31.880129 17472 net.cpp:100] Creating Layer L2_b8_relu
I0817 16:29:31.880136 17472 net.cpp:434] L2_b8_relu <- L2_b8_sum_eltwise_top
I0817 16:29:31.880142 17472 net.cpp:395] L2_b8_relu -> L2_b8_sum_eltwise_top (in-place)
I0817 16:29:31.880152 17472 net.cpp:150] Setting up L2_b8_relu
I0817 16:29:31.880159 17472 net.cpp:157] Top shape: 125 32 16 16 (1024000)
I0817 16:29:31.880163 17472 net.cpp:165] Memory required for data: 1203713500
I0817 16:29:31.880168 17472 layer_factory.hpp:77] Creating layer L2_b8_sum_eltwise_top_L2_b8_relu_0_split
I0817 16:29:31.880175 17472 net.cpp:100] Creating Layer L2_b8_sum_eltwise_top_L2_b8_relu_0_split
I0817 16:29:31.880182 17472 net.cpp:434] L2_b8_sum_eltwise_top_L2_b8_relu_0_split <- L2_b8_sum_eltwise_top
I0817 16:29:31.880188 17472 net.cpp:408] L2_b8_sum_eltwise_top_L2_b8_relu_0_split -> L2_b8_sum_eltwise_top_L2_b8_relu_0_split_0
I0817 16:29:31.880210 17472 net.cpp:408] L2_b8_sum_eltwise_top_L2_b8_relu_0_split -> L2_b8_sum_eltwise_top_L2_b8_relu_0_split_1
I0817 16:29:31.880260 17472 net.cpp:150] Setting up L2_b8_sum_eltwise_top_L2_b8_relu_0_split
I0817 16:29:31.880273 17472 net.cpp:157] Top shape: 125 32 16 16 (1024000)
I0817 16:29:31.880280 17472 net.cpp:157] Top shape: 125 32 16 16 (1024000)
I0817 16:29:31.880285 17472 net.cpp:165] Memory required for data: 1211905500
I0817 16:29:31.880290 17472 layer_factory.hpp:77] Creating layer L2_b9_cbr1_conv
I0817 16:29:31.880303 17472 net.cpp:100] Creating Layer L2_b9_cbr1_conv
I0817 16:29:31.880309 17472 net.cpp:434] L2_b9_cbr1_conv <- L2_b8_sum_eltwise_top_L2_b8_relu_0_split_0
I0817 16:29:31.880318 17472 net.cpp:408] L2_b9_cbr1_conv -> L2_b9_cbr1_conv_top
I0817 16:29:31.880785 17472 net.cpp:150] Setting up L2_b9_cbr1_conv
I0817 16:29:31.880800 17472 net.cpp:157] Top shape: 125 32 16 16 (1024000)
I0817 16:29:31.880805 17472 net.cpp:165] Memory required for data: 1216001500
I0817 16:29:31.880813 17472 layer_factory.hpp:77] Creating layer L2_b9_cbr1_bn
I0817 16:29:31.880825 17472 net.cpp:100] Creating Layer L2_b9_cbr1_bn
I0817 16:29:31.880832 17472 net.cpp:434] L2_b9_cbr1_bn <- L2_b9_cbr1_conv_top
I0817 16:29:31.880841 17472 net.cpp:408] L2_b9_cbr1_bn -> L2_b9_cbr1_bn_top
I0817 16:29:31.881088 17472 net.cpp:150] Setting up L2_b9_cbr1_bn
I0817 16:29:31.881103 17472 net.cpp:157] Top shape: 125 32 16 16 (1024000)
I0817 16:29:31.881120 17472 net.cpp:165] Memory required for data: 1220097500
I0817 16:29:31.881131 17472 layer_factory.hpp:77] Creating layer L2_b9_cbr1_scale
I0817 16:29:31.881140 17472 net.cpp:100] Creating Layer L2_b9_cbr1_scale
I0817 16:29:31.881147 17472 net.cpp:434] L2_b9_cbr1_scale <- L2_b9_cbr1_bn_top
I0817 16:29:31.881155 17472 net.cpp:395] L2_b9_cbr1_scale -> L2_b9_cbr1_bn_top (in-place)
I0817 16:29:31.881213 17472 layer_factory.hpp:77] Creating layer L2_b9_cbr1_scale
I0817 16:29:31.881371 17472 net.cpp:150] Setting up L2_b9_cbr1_scale
I0817 16:29:31.881383 17472 net.cpp:157] Top shape: 125 32 16 16 (1024000)
I0817 16:29:31.881388 17472 net.cpp:165] Memory required for data: 1224193500
I0817 16:29:31.881397 17472 layer_factory.hpp:77] Creating layer L2_b9_cbr1_relu
I0817 16:29:31.881405 17472 net.cpp:100] Creating Layer L2_b9_cbr1_relu
I0817 16:29:31.881412 17472 net.cpp:434] L2_b9_cbr1_relu <- L2_b9_cbr1_bn_top
I0817 16:29:31.881422 17472 net.cpp:395] L2_b9_cbr1_relu -> L2_b9_cbr1_bn_top (in-place)
I0817 16:29:31.881431 17472 net.cpp:150] Setting up L2_b9_cbr1_relu
I0817 16:29:31.881438 17472 net.cpp:157] Top shape: 125 32 16 16 (1024000)
I0817 16:29:31.881443 17472 net.cpp:165] Memory required for data: 1228289500
I0817 16:29:31.881448 17472 layer_factory.hpp:77] Creating layer L2_b9_cbr2_conv
I0817 16:29:31.881461 17472 net.cpp:100] Creating Layer L2_b9_cbr2_conv
I0817 16:29:31.881467 17472 net.cpp:434] L2_b9_cbr2_conv <- L2_b9_cbr1_bn_top
I0817 16:29:31.881476 17472 net.cpp:408] L2_b9_cbr2_conv -> L2_b9_cbr2_conv_top
I0817 16:29:31.881933 17472 net.cpp:150] Setting up L2_b9_cbr2_conv
I0817 16:29:31.881947 17472 net.cpp:157] Top shape: 125 32 16 16 (1024000)
I0817 16:29:31.881953 17472 net.cpp:165] Memory required for data: 1232385500
I0817 16:29:31.881960 17472 layer_factory.hpp:77] Creating layer L2_b9_cbr2_bn
I0817 16:29:31.881973 17472 net.cpp:100] Creating Layer L2_b9_cbr2_bn
I0817 16:29:31.881978 17472 net.cpp:434] L2_b9_cbr2_bn <- L2_b9_cbr2_conv_top
I0817 16:29:31.881988 17472 net.cpp:408] L2_b9_cbr2_bn -> L2_b9_cbr2_bn_top
I0817 16:29:31.882246 17472 net.cpp:150] Setting up L2_b9_cbr2_bn
I0817 16:29:31.882258 17472 net.cpp:157] Top shape: 125 32 16 16 (1024000)
I0817 16:29:31.882263 17472 net.cpp:165] Memory required for data: 1236481500
I0817 16:29:31.882308 17472 layer_factory.hpp:77] Creating layer L2_b9_cbr2_scale
I0817 16:29:31.882320 17472 net.cpp:100] Creating Layer L2_b9_cbr2_scale
I0817 16:29:31.882326 17472 net.cpp:434] L2_b9_cbr2_scale <- L2_b9_cbr2_bn_top
I0817 16:29:31.882334 17472 net.cpp:395] L2_b9_cbr2_scale -> L2_b9_cbr2_bn_top (in-place)
I0817 16:29:31.882393 17472 layer_factory.hpp:77] Creating layer L2_b9_cbr2_scale
I0817 16:29:31.882544 17472 net.cpp:150] Setting up L2_b9_cbr2_scale
I0817 16:29:31.882556 17472 net.cpp:157] Top shape: 125 32 16 16 (1024000)
I0817 16:29:31.882561 17472 net.cpp:165] Memory required for data: 1240577500
I0817 16:29:31.882570 17472 layer_factory.hpp:77] Creating layer L2_b9_sum_eltwise
I0817 16:29:31.882580 17472 net.cpp:100] Creating Layer L2_b9_sum_eltwise
I0817 16:29:31.882586 17472 net.cpp:434] L2_b9_sum_eltwise <- L2_b9_cbr2_bn_top
I0817 16:29:31.882593 17472 net.cpp:434] L2_b9_sum_eltwise <- L2_b8_sum_eltwise_top_L2_b8_relu_0_split_1
I0817 16:29:31.882603 17472 net.cpp:408] L2_b9_sum_eltwise -> L2_b9_sum_eltwise_top
I0817 16:29:31.882632 17472 net.cpp:150] Setting up L2_b9_sum_eltwise
I0817 16:29:31.882640 17472 net.cpp:157] Top shape: 125 32 16 16 (1024000)
I0817 16:29:31.882645 17472 net.cpp:165] Memory required for data: 1244673500
I0817 16:29:31.882650 17472 layer_factory.hpp:77] Creating layer L2_b9_relu
I0817 16:29:31.882661 17472 net.cpp:100] Creating Layer L2_b9_relu
I0817 16:29:31.882668 17472 net.cpp:434] L2_b9_relu <- L2_b9_sum_eltwise_top
I0817 16:29:31.882674 17472 net.cpp:395] L2_b9_relu -> L2_b9_sum_eltwise_top (in-place)
I0817 16:29:31.882683 17472 net.cpp:150] Setting up L2_b9_relu
I0817 16:29:31.882690 17472 net.cpp:157] Top shape: 125 32 16 16 (1024000)
I0817 16:29:31.882695 17472 net.cpp:165] Memory required for data: 1248769500
I0817 16:29:31.882709 17472 layer_factory.hpp:77] Creating layer L2_b9_sum_eltwise_top_L2_b9_relu_0_split
I0817 16:29:31.882716 17472 net.cpp:100] Creating Layer L2_b9_sum_eltwise_top_L2_b9_relu_0_split
I0817 16:29:31.882722 17472 net.cpp:434] L2_b9_sum_eltwise_top_L2_b9_relu_0_split <- L2_b9_sum_eltwise_top
I0817 16:29:31.882737 17472 net.cpp:408] L2_b9_sum_eltwise_top_L2_b9_relu_0_split -> L2_b9_sum_eltwise_top_L2_b9_relu_0_split_0
I0817 16:29:31.882748 17472 net.cpp:408] L2_b9_sum_eltwise_top_L2_b9_relu_0_split -> L2_b9_sum_eltwise_top_L2_b9_relu_0_split_1
I0817 16:29:31.882794 17472 net.cpp:150] Setting up L2_b9_sum_eltwise_top_L2_b9_relu_0_split
I0817 16:29:31.882809 17472 net.cpp:157] Top shape: 125 32 16 16 (1024000)
I0817 16:29:31.882817 17472 net.cpp:157] Top shape: 125 32 16 16 (1024000)
I0817 16:29:31.882820 17472 net.cpp:165] Memory required for data: 1256961500
I0817 16:29:31.882825 17472 layer_factory.hpp:77] Creating layer L3_b1_cbr1_conv
I0817 16:29:31.882836 17472 net.cpp:100] Creating Layer L3_b1_cbr1_conv
I0817 16:29:31.882843 17472 net.cpp:434] L3_b1_cbr1_conv <- L2_b9_sum_eltwise_top_L2_b9_relu_0_split_0
I0817 16:29:31.882851 17472 net.cpp:408] L3_b1_cbr1_conv -> L3_b1_cbr1_conv_top
I0817 16:29:31.883333 17472 net.cpp:150] Setting up L3_b1_cbr1_conv
I0817 16:29:31.883348 17472 net.cpp:157] Top shape: 125 32 8 8 (256000)
I0817 16:29:31.883353 17472 net.cpp:165] Memory required for data: 1257985500
I0817 16:29:31.883361 17472 layer_factory.hpp:77] Creating layer L3_b1_cbr1_bn
I0817 16:29:31.883374 17472 net.cpp:100] Creating Layer L3_b1_cbr1_bn
I0817 16:29:31.883380 17472 net.cpp:434] L3_b1_cbr1_bn <- L3_b1_cbr1_conv_top
I0817 16:29:31.883388 17472 net.cpp:408] L3_b1_cbr1_bn -> L3_b1_cbr1_bn_top
I0817 16:29:31.883648 17472 net.cpp:150] Setting up L3_b1_cbr1_bn
I0817 16:29:31.883661 17472 net.cpp:157] Top shape: 125 32 8 8 (256000)
I0817 16:29:31.883666 17472 net.cpp:165] Memory required for data: 1259009500
I0817 16:29:31.883677 17472 layer_factory.hpp:77] Creating layer L3_b1_cbr1_scale
I0817 16:29:31.883688 17472 net.cpp:100] Creating Layer L3_b1_cbr1_scale
I0817 16:29:31.883694 17472 net.cpp:434] L3_b1_cbr1_scale <- L3_b1_cbr1_bn_top
I0817 16:29:31.883702 17472 net.cpp:395] L3_b1_cbr1_scale -> L3_b1_cbr1_bn_top (in-place)
I0817 16:29:31.883759 17472 layer_factory.hpp:77] Creating layer L3_b1_cbr1_scale
I0817 16:29:31.883911 17472 net.cpp:150] Setting up L3_b1_cbr1_scale
I0817 16:29:31.883924 17472 net.cpp:157] Top shape: 125 32 8 8 (256000)
I0817 16:29:31.883929 17472 net.cpp:165] Memory required for data: 1260033500
I0817 16:29:31.883939 17472 layer_factory.hpp:77] Creating layer L3_b1_cbr1_relu
I0817 16:29:31.883949 17472 net.cpp:100] Creating Layer L3_b1_cbr1_relu
I0817 16:29:31.883955 17472 net.cpp:434] L3_b1_cbr1_relu <- L3_b1_cbr1_bn_top
I0817 16:29:31.883965 17472 net.cpp:395] L3_b1_cbr1_relu -> L3_b1_cbr1_bn_top (in-place)
I0817 16:29:31.883975 17472 net.cpp:150] Setting up L3_b1_cbr1_relu
I0817 16:29:31.883982 17472 net.cpp:157] Top shape: 125 32 8 8 (256000)
I0817 16:29:31.883987 17472 net.cpp:165] Memory required for data: 1261057500
I0817 16:29:31.883991 17472 layer_factory.hpp:77] Creating layer L3_b1_cbr2_conv
I0817 16:29:31.884002 17472 net.cpp:100] Creating Layer L3_b1_cbr2_conv
I0817 16:29:31.884008 17472 net.cpp:434] L3_b1_cbr2_conv <- L3_b1_cbr1_bn_top
I0817 16:29:31.884019 17472 net.cpp:408] L3_b1_cbr2_conv -> L3_b1_cbr2_conv_top
I0817 16:29:31.884491 17472 net.cpp:150] Setting up L3_b1_cbr2_conv
I0817 16:29:31.884505 17472 net.cpp:157] Top shape: 125 32 8 8 (256000)
I0817 16:29:31.884510 17472 net.cpp:165] Memory required for data: 1262081500
I0817 16:29:31.884519 17472 layer_factory.hpp:77] Creating layer L3_b1_cbr2_bn
I0817 16:29:31.884531 17472 net.cpp:100] Creating Layer L3_b1_cbr2_bn
I0817 16:29:31.884538 17472 net.cpp:434] L3_b1_cbr2_bn <- L3_b1_cbr2_conv_top
I0817 16:29:31.884546 17472 net.cpp:408] L3_b1_cbr2_bn -> L3_b1_cbr2_bn_top
I0817 16:29:31.884807 17472 net.cpp:150] Setting up L3_b1_cbr2_bn
I0817 16:29:31.884820 17472 net.cpp:157] Top shape: 125 32 8 8 (256000)
I0817 16:29:31.884831 17472 net.cpp:165] Memory required for data: 1263105500
I0817 16:29:31.884841 17472 layer_factory.hpp:77] Creating layer L3_b1_cbr2_scale
I0817 16:29:31.884850 17472 net.cpp:100] Creating Layer L3_b1_cbr2_scale
I0817 16:29:31.884856 17472 net.cpp:434] L3_b1_cbr2_scale <- L3_b1_cbr2_bn_top
I0817 16:29:31.884863 17472 net.cpp:395] L3_b1_cbr2_scale -> L3_b1_cbr2_bn_top (in-place)
I0817 16:29:31.884922 17472 layer_factory.hpp:77] Creating layer L3_b1_cbr2_scale
I0817 16:29:31.885076 17472 net.cpp:150] Setting up L3_b1_cbr2_scale
I0817 16:29:31.885092 17472 net.cpp:157] Top shape: 125 32 8 8 (256000)
I0817 16:29:31.885097 17472 net.cpp:165] Memory required for data: 1264129500
I0817 16:29:31.885107 17472 layer_factory.hpp:77] Creating layer L3_b1_pool
I0817 16:29:31.885121 17472 net.cpp:100] Creating Layer L3_b1_pool
I0817 16:29:31.885128 17472 net.cpp:434] L3_b1_pool <- L2_b9_sum_eltwise_top_L2_b9_relu_0_split_1
I0817 16:29:31.885136 17472 net.cpp:408] L3_b1_pool -> L3_b1_pool
I0817 16:29:31.885174 17472 net.cpp:150] Setting up L3_b1_pool
I0817 16:29:31.885185 17472 net.cpp:157] Top shape: 125 32 8 8 (256000)
I0817 16:29:31.885188 17472 net.cpp:165] Memory required for data: 1265153500
I0817 16:29:31.885202 17472 layer_factory.hpp:77] Creating layer L3_b1_sum_eltwise
I0817 16:29:31.885211 17472 net.cpp:100] Creating Layer L3_b1_sum_eltwise
I0817 16:29:31.885217 17472 net.cpp:434] L3_b1_sum_eltwise <- L3_b1_cbr2_bn_top
I0817 16:29:31.885223 17472 net.cpp:434] L3_b1_sum_eltwise <- L3_b1_pool
I0817 16:29:31.885231 17472 net.cpp:408] L3_b1_sum_eltwise -> L3_b1_sum_eltwise_top
I0817 16:29:31.885265 17472 net.cpp:150] Setting up L3_b1_sum_eltwise
I0817 16:29:31.885277 17472 net.cpp:157] Top shape: 125 32 8 8 (256000)
I0817 16:29:31.885282 17472 net.cpp:165] Memory required for data: 1266177500
I0817 16:29:31.885295 17472 layer_factory.hpp:77] Creating layer L3_b1_relu
I0817 16:29:31.885303 17472 net.cpp:100] Creating Layer L3_b1_relu
I0817 16:29:31.885308 17472 net.cpp:434] L3_b1_relu <- L3_b1_sum_eltwise_top
I0817 16:29:31.885315 17472 net.cpp:395] L3_b1_relu -> L3_b1_sum_eltwise_top (in-place)
I0817 16:29:31.885324 17472 net.cpp:150] Setting up L3_b1_relu
I0817 16:29:31.885331 17472 net.cpp:157] Top shape: 125 32 8 8 (256000)
I0817 16:29:31.885335 17472 net.cpp:165] Memory required for data: 1267201500
I0817 16:29:31.885340 17472 layer_factory.hpp:77] Creating layer L3_b1_zeros
I0817 16:29:31.885349 17472 net.cpp:100] Creating Layer L3_b1_zeros
I0817 16:29:31.885360 17472 net.cpp:408] L3_b1_zeros -> L3_b1_zeros
I0817 16:29:31.886605 17472 net.cpp:150] Setting up L3_b1_zeros
I0817 16:29:31.886623 17472 net.cpp:157] Top shape: 125 32 8 8 (256000)
I0817 16:29:31.886629 17472 net.cpp:165] Memory required for data: 1268225500
I0817 16:29:31.886634 17472 layer_factory.hpp:77] Creating layer L3_b1_concat0
I0817 16:29:31.886646 17472 net.cpp:100] Creating Layer L3_b1_concat0
I0817 16:29:31.886653 17472 net.cpp:434] L3_b1_concat0 <- L3_b1_sum_eltwise_top
I0817 16:29:31.886660 17472 net.cpp:434] L3_b1_concat0 <- L3_b1_zeros
I0817 16:29:31.886668 17472 net.cpp:408] L3_b1_concat0 -> L3_b1_concat0
I0817 16:29:31.886710 17472 net.cpp:150] Setting up L3_b1_concat0
I0817 16:29:31.886723 17472 net.cpp:157] Top shape: 125 64 8 8 (512000)
I0817 16:29:31.886728 17472 net.cpp:165] Memory required for data: 1270273500
I0817 16:29:31.886732 17472 layer_factory.hpp:77] Creating layer L3_b1_concat0_L3_b1_concat0_0_split
I0817 16:29:31.886740 17472 net.cpp:100] Creating Layer L3_b1_concat0_L3_b1_concat0_0_split
I0817 16:29:31.886746 17472 net.cpp:434] L3_b1_concat0_L3_b1_concat0_0_split <- L3_b1_concat0
I0817 16:29:31.886756 17472 net.cpp:408] L3_b1_concat0_L3_b1_concat0_0_split -> L3_b1_concat0_L3_b1_concat0_0_split_0
I0817 16:29:31.886766 17472 net.cpp:408] L3_b1_concat0_L3_b1_concat0_0_split -> L3_b1_concat0_L3_b1_concat0_0_split_1
I0817 16:29:31.886813 17472 net.cpp:150] Setting up L3_b1_concat0_L3_b1_concat0_0_split
I0817 16:29:31.886831 17472 net.cpp:157] Top shape: 125 64 8 8 (512000)
I0817 16:29:31.886837 17472 net.cpp:157] Top shape: 125 64 8 8 (512000)
I0817 16:29:31.886848 17472 net.cpp:165] Memory required for data: 1274369500
I0817 16:29:31.886854 17472 layer_factory.hpp:77] Creating layer L3_b2_cbr1_conv
I0817 16:29:31.886868 17472 net.cpp:100] Creating Layer L3_b2_cbr1_conv
I0817 16:29:31.886875 17472 net.cpp:434] L3_b2_cbr1_conv <- L3_b1_concat0_L3_b1_concat0_0_split_0
I0817 16:29:31.886885 17472 net.cpp:408] L3_b2_cbr1_conv -> L3_b2_cbr1_conv_top
I0817 16:29:31.888871 17472 net.cpp:150] Setting up L3_b2_cbr1_conv
I0817 16:29:31.888891 17472 net.cpp:157] Top shape: 125 64 8 8 (512000)
I0817 16:29:31.888897 17472 net.cpp:165] Memory required for data: 1276417500
I0817 16:29:31.888906 17472 layer_factory.hpp:77] Creating layer L3_b2_cbr1_bn
I0817 16:29:31.888916 17472 net.cpp:100] Creating Layer L3_b2_cbr1_bn
I0817 16:29:31.888923 17472 net.cpp:434] L3_b2_cbr1_bn <- L3_b2_cbr1_conv_top
I0817 16:29:31.888934 17472 net.cpp:408] L3_b2_cbr1_bn -> L3_b2_cbr1_bn_top
I0817 16:29:31.889202 17472 net.cpp:150] Setting up L3_b2_cbr1_bn
I0817 16:29:31.889216 17472 net.cpp:157] Top shape: 125 64 8 8 (512000)
I0817 16:29:31.889221 17472 net.cpp:165] Memory required for data: 1278465500
I0817 16:29:31.889231 17472 layer_factory.hpp:77] Creating layer L3_b2_cbr1_scale
I0817 16:29:31.889243 17472 net.cpp:100] Creating Layer L3_b2_cbr1_scale
I0817 16:29:31.889250 17472 net.cpp:434] L3_b2_cbr1_scale <- L3_b2_cbr1_bn_top
I0817 16:29:31.889258 17472 net.cpp:395] L3_b2_cbr1_scale -> L3_b2_cbr1_bn_top (in-place)
I0817 16:29:31.889315 17472 layer_factory.hpp:77] Creating layer L3_b2_cbr1_scale
I0817 16:29:31.889473 17472 net.cpp:150] Setting up L3_b2_cbr1_scale
I0817 16:29:31.889487 17472 net.cpp:157] Top shape: 125 64 8 8 (512000)
I0817 16:29:31.889492 17472 net.cpp:165] Memory required for data: 1280513500
I0817 16:29:31.889500 17472 layer_factory.hpp:77] Creating layer L3_b2_cbr1_relu
I0817 16:29:31.889509 17472 net.cpp:100] Creating Layer L3_b2_cbr1_relu
I0817 16:29:31.889515 17472 net.cpp:434] L3_b2_cbr1_relu <- L3_b2_cbr1_bn_top
I0817 16:29:31.889525 17472 net.cpp:395] L3_b2_cbr1_relu -> L3_b2_cbr1_bn_top (in-place)
I0817 16:29:31.889535 17472 net.cpp:150] Setting up L3_b2_cbr1_relu
I0817 16:29:31.889544 17472 net.cpp:157] Top shape: 125 64 8 8 (512000)
I0817 16:29:31.889547 17472 net.cpp:165] Memory required for data: 1282561500
I0817 16:29:31.889552 17472 layer_factory.hpp:77] Creating layer L3_b2_cbr2_conv
I0817 16:29:31.889566 17472 net.cpp:100] Creating Layer L3_b2_cbr2_conv
I0817 16:29:31.889574 17472 net.cpp:434] L3_b2_cbr2_conv <- L3_b2_cbr1_bn_top
I0817 16:29:31.889582 17472 net.cpp:408] L3_b2_cbr2_conv -> L3_b2_cbr2_conv_top
I0817 16:29:31.890609 17472 net.cpp:150] Setting up L3_b2_cbr2_conv
I0817 16:29:31.890624 17472 net.cpp:157] Top shape: 125 64 8 8 (512000)
I0817 16:29:31.890628 17472 net.cpp:165] Memory required for data: 1284609500
I0817 16:29:31.890637 17472 layer_factory.hpp:77] Creating layer L3_b2_cbr2_bn
I0817 16:29:31.890650 17472 net.cpp:100] Creating Layer L3_b2_cbr2_bn
I0817 16:29:31.890656 17472 net.cpp:434] L3_b2_cbr2_bn <- L3_b2_cbr2_conv_top
I0817 16:29:31.890664 17472 net.cpp:408] L3_b2_cbr2_bn -> L3_b2_cbr2_bn_top
I0817 16:29:31.890926 17472 net.cpp:150] Setting up L3_b2_cbr2_bn
I0817 16:29:31.890939 17472 net.cpp:157] Top shape: 125 64 8 8 (512000)
I0817 16:29:31.890944 17472 net.cpp:165] Memory required for data: 1286657500
I0817 16:29:31.890954 17472 layer_factory.hpp:77] Creating layer L3_b2_cbr2_scale
I0817 16:29:31.890964 17472 net.cpp:100] Creating Layer L3_b2_cbr2_scale
I0817 16:29:31.890970 17472 net.cpp:434] L3_b2_cbr2_scale <- L3_b2_cbr2_bn_top
I0817 16:29:31.890977 17472 net.cpp:395] L3_b2_cbr2_scale -> L3_b2_cbr2_bn_top (in-place)
I0817 16:29:31.891036 17472 layer_factory.hpp:77] Creating layer L3_b2_cbr2_scale
I0817 16:29:31.891198 17472 net.cpp:150] Setting up L3_b2_cbr2_scale
I0817 16:29:31.891211 17472 net.cpp:157] Top shape: 125 64 8 8 (512000)
I0817 16:29:31.891216 17472 net.cpp:165] Memory required for data: 1288705500
I0817 16:29:31.891225 17472 layer_factory.hpp:77] Creating layer L3_b2_sum_eltwise
I0817 16:29:31.891242 17472 net.cpp:100] Creating Layer L3_b2_sum_eltwise
I0817 16:29:31.891249 17472 net.cpp:434] L3_b2_sum_eltwise <- L3_b2_cbr2_bn_top
I0817 16:29:31.891257 17472 net.cpp:434] L3_b2_sum_eltwise <- L3_b1_concat0_L3_b1_concat0_0_split_1
I0817 16:29:31.891268 17472 net.cpp:408] L3_b2_sum_eltwise -> L3_b2_sum_eltwise_top
I0817 16:29:31.891302 17472 net.cpp:150] Setting up L3_b2_sum_eltwise
I0817 16:29:31.891317 17472 net.cpp:157] Top shape: 125 64 8 8 (512000)
I0817 16:29:31.891322 17472 net.cpp:165] Memory required for data: 1290753500
I0817 16:29:31.891327 17472 layer_factory.hpp:77] Creating layer L3_b2_relu
I0817 16:29:31.891335 17472 net.cpp:100] Creating Layer L3_b2_relu
I0817 16:29:31.891341 17472 net.cpp:434] L3_b2_relu <- L3_b2_sum_eltwise_top
I0817 16:29:31.891348 17472 net.cpp:395] L3_b2_relu -> L3_b2_sum_eltwise_top (in-place)
I0817 16:29:31.891357 17472 net.cpp:150] Setting up L3_b2_relu
I0817 16:29:31.891364 17472 net.cpp:157] Top shape: 125 64 8 8 (512000)
I0817 16:29:31.891369 17472 net.cpp:165] Memory required for data: 1292801500
I0817 16:29:31.891373 17472 layer_factory.hpp:77] Creating layer L3_b2_sum_eltwise_top_L3_b2_relu_0_split
I0817 16:29:31.891383 17472 net.cpp:100] Creating Layer L3_b2_sum_eltwise_top_L3_b2_relu_0_split
I0817 16:29:31.891389 17472 net.cpp:434] L3_b2_sum_eltwise_top_L3_b2_relu_0_split <- L3_b2_sum_eltwise_top
I0817 16:29:31.891397 17472 net.cpp:408] L3_b2_sum_eltwise_top_L3_b2_relu_0_split -> L3_b2_sum_eltwise_top_L3_b2_relu_0_split_0
I0817 16:29:31.891407 17472 net.cpp:408] L3_b2_sum_eltwise_top_L3_b2_relu_0_split -> L3_b2_sum_eltwise_top_L3_b2_relu_0_split_1
I0817 16:29:31.891456 17472 net.cpp:150] Setting up L3_b2_sum_eltwise_top_L3_b2_relu_0_split
I0817 16:29:31.891469 17472 net.cpp:157] Top shape: 125 64 8 8 (512000)
I0817 16:29:31.891475 17472 net.cpp:157] Top shape: 125 64 8 8 (512000)
I0817 16:29:31.891479 17472 net.cpp:165] Memory required for data: 1296897500
I0817 16:29:31.891484 17472 layer_factory.hpp:77] Creating layer L3_b3_cbr1_conv
I0817 16:29:31.891496 17472 net.cpp:100] Creating Layer L3_b3_cbr1_conv
I0817 16:29:31.891502 17472 net.cpp:434] L3_b3_cbr1_conv <- L3_b2_sum_eltwise_top_L3_b2_relu_0_split_0
I0817 16:29:31.891515 17472 net.cpp:408] L3_b3_cbr1_conv -> L3_b3_cbr1_conv_top
I0817 16:29:31.892570 17472 net.cpp:150] Setting up L3_b3_cbr1_conv
I0817 16:29:31.892585 17472 net.cpp:157] Top shape: 125 64 8 8 (512000)
I0817 16:29:31.892590 17472 net.cpp:165] Memory required for data: 1298945500
I0817 16:29:31.892599 17472 layer_factory.hpp:77] Creating layer L3_b3_cbr1_bn
I0817 16:29:31.892609 17472 net.cpp:100] Creating Layer L3_b3_cbr1_bn
I0817 16:29:31.892616 17472 net.cpp:434] L3_b3_cbr1_bn <- L3_b3_cbr1_conv_top
I0817 16:29:31.892627 17472 net.cpp:408] L3_b3_cbr1_bn -> L3_b3_cbr1_bn_top
I0817 16:29:31.892894 17472 net.cpp:150] Setting up L3_b3_cbr1_bn
I0817 16:29:31.892911 17472 net.cpp:157] Top shape: 125 64 8 8 (512000)
I0817 16:29:31.892916 17472 net.cpp:165] Memory required for data: 1300993500
I0817 16:29:31.892927 17472 layer_factory.hpp:77] Creating layer L3_b3_cbr1_scale
I0817 16:29:31.892936 17472 net.cpp:100] Creating Layer L3_b3_cbr1_scale
I0817 16:29:31.892942 17472 net.cpp:434] L3_b3_cbr1_scale <- L3_b3_cbr1_bn_top
I0817 16:29:31.892951 17472 net.cpp:395] L3_b3_cbr1_scale -> L3_b3_cbr1_bn_top (in-place)
I0817 16:29:31.893009 17472 layer_factory.hpp:77] Creating layer L3_b3_cbr1_scale
I0817 16:29:31.893173 17472 net.cpp:150] Setting up L3_b3_cbr1_scale
I0817 16:29:31.893187 17472 net.cpp:157] Top shape: 125 64 8 8 (512000)
I0817 16:29:31.893193 17472 net.cpp:165] Memory required for data: 1303041500
I0817 16:29:31.893201 17472 layer_factory.hpp:77] Creating layer L3_b3_cbr1_relu
I0817 16:29:31.893209 17472 net.cpp:100] Creating Layer L3_b3_cbr1_relu
I0817 16:29:31.893215 17472 net.cpp:434] L3_b3_cbr1_relu <- L3_b3_cbr1_bn_top
I0817 16:29:31.893225 17472 net.cpp:395] L3_b3_cbr1_relu -> L3_b3_cbr1_bn_top (in-place)
I0817 16:29:31.893236 17472 net.cpp:150] Setting up L3_b3_cbr1_relu
I0817 16:29:31.893244 17472 net.cpp:157] Top shape: 125 64 8 8 (512000)
I0817 16:29:31.893254 17472 net.cpp:165] Memory required for data: 1305089500
I0817 16:29:31.893260 17472 layer_factory.hpp:77] Creating layer L3_b3_cbr2_conv
I0817 16:29:31.893275 17472 net.cpp:100] Creating Layer L3_b3_cbr2_conv
I0817 16:29:31.893280 17472 net.cpp:434] L3_b3_cbr2_conv <- L3_b3_cbr1_bn_top
I0817 16:29:31.893290 17472 net.cpp:408] L3_b3_cbr2_conv -> L3_b3_cbr2_conv_top
I0817 16:29:31.894304 17472 net.cpp:150] Setting up L3_b3_cbr2_conv
I0817 16:29:31.894317 17472 net.cpp:157] Top shape: 125 64 8 8 (512000)
I0817 16:29:31.894322 17472 net.cpp:165] Memory required for data: 1307137500
I0817 16:29:31.894331 17472 layer_factory.hpp:77] Creating layer L3_b3_cbr2_bn
I0817 16:29:31.894343 17472 net.cpp:100] Creating Layer L3_b3_cbr2_bn
I0817 16:29:31.894351 17472 net.cpp:434] L3_b3_cbr2_bn <- L3_b3_cbr2_conv_top
I0817 16:29:31.894362 17472 net.cpp:408] L3_b3_cbr2_bn -> L3_b3_cbr2_bn_top
I0817 16:29:31.894624 17472 net.cpp:150] Setting up L3_b3_cbr2_bn
I0817 16:29:31.894636 17472 net.cpp:157] Top shape: 125 64 8 8 (512000)
I0817 16:29:31.894641 17472 net.cpp:165] Memory required for data: 1309185500
I0817 16:29:31.894651 17472 layer_factory.hpp:77] Creating layer L3_b3_cbr2_scale
I0817 16:29:31.894660 17472 net.cpp:100] Creating Layer L3_b3_cbr2_scale
I0817 16:29:31.894666 17472 net.cpp:434] L3_b3_cbr2_scale <- L3_b3_cbr2_bn_top
I0817 16:29:31.894675 17472 net.cpp:395] L3_b3_cbr2_scale -> L3_b3_cbr2_bn_top (in-place)
I0817 16:29:31.894734 17472 layer_factory.hpp:77] Creating layer L3_b3_cbr2_scale
I0817 16:29:31.894892 17472 net.cpp:150] Setting up L3_b3_cbr2_scale
I0817 16:29:31.894906 17472 net.cpp:157] Top shape: 125 64 8 8 (512000)
I0817 16:29:31.894911 17472 net.cpp:165] Memory required for data: 1311233500
I0817 16:29:31.894919 17472 layer_factory.hpp:77] Creating layer L3_b3_sum_eltwise
I0817 16:29:31.894928 17472 net.cpp:100] Creating Layer L3_b3_sum_eltwise
I0817 16:29:31.894934 17472 net.cpp:434] L3_b3_sum_eltwise <- L3_b3_cbr2_bn_top
I0817 16:29:31.894942 17472 net.cpp:434] L3_b3_sum_eltwise <- L3_b2_sum_eltwise_top_L3_b2_relu_0_split_1
I0817 16:29:31.894953 17472 net.cpp:408] L3_b3_sum_eltwise -> L3_b3_sum_eltwise_top
I0817 16:29:31.894986 17472 net.cpp:150] Setting up L3_b3_sum_eltwise
I0817 16:29:31.895001 17472 net.cpp:157] Top shape: 125 64 8 8 (512000)
I0817 16:29:31.895006 17472 net.cpp:165] Memory required for data: 1313281500
I0817 16:29:31.895011 17472 layer_factory.hpp:77] Creating layer L3_b3_relu
I0817 16:29:31.895020 17472 net.cpp:100] Creating Layer L3_b3_relu
I0817 16:29:31.895025 17472 net.cpp:434] L3_b3_relu <- L3_b3_sum_eltwise_top
I0817 16:29:31.895032 17472 net.cpp:395] L3_b3_relu -> L3_b3_sum_eltwise_top (in-place)
I0817 16:29:31.895041 17472 net.cpp:150] Setting up L3_b3_relu
I0817 16:29:31.895048 17472 net.cpp:157] Top shape: 125 64 8 8 (512000)
I0817 16:29:31.895052 17472 net.cpp:165] Memory required for data: 1315329500
I0817 16:29:31.895057 17472 layer_factory.hpp:77] Creating layer L3_b3_sum_eltwise_top_L3_b3_relu_0_split
I0817 16:29:31.895067 17472 net.cpp:100] Creating Layer L3_b3_sum_eltwise_top_L3_b3_relu_0_split
I0817 16:29:31.895072 17472 net.cpp:434] L3_b3_sum_eltwise_top_L3_b3_relu_0_split <- L3_b3_sum_eltwise_top
I0817 16:29:31.895081 17472 net.cpp:408] L3_b3_sum_eltwise_top_L3_b3_relu_0_split -> L3_b3_sum_eltwise_top_L3_b3_relu_0_split_0
I0817 16:29:31.895089 17472 net.cpp:408] L3_b3_sum_eltwise_top_L3_b3_relu_0_split -> L3_b3_sum_eltwise_top_L3_b3_relu_0_split_1
I0817 16:29:31.895145 17472 net.cpp:150] Setting up L3_b3_sum_eltwise_top_L3_b3_relu_0_split
I0817 16:29:31.895157 17472 net.cpp:157] Top shape: 125 64 8 8 (512000)
I0817 16:29:31.895164 17472 net.cpp:157] Top shape: 125 64 8 8 (512000)
I0817 16:29:31.895169 17472 net.cpp:165] Memory required for data: 1319425500
I0817 16:29:31.895174 17472 layer_factory.hpp:77] Creating layer L3_b4_cbr1_conv
I0817 16:29:31.895185 17472 net.cpp:100] Creating Layer L3_b4_cbr1_conv
I0817 16:29:31.895191 17472 net.cpp:434] L3_b4_cbr1_conv <- L3_b3_sum_eltwise_top_L3_b3_relu_0_split_0
I0817 16:29:31.895203 17472 net.cpp:408] L3_b4_cbr1_conv -> L3_b4_cbr1_conv_top
I0817 16:29:31.896230 17472 net.cpp:150] Setting up L3_b4_cbr1_conv
I0817 16:29:31.896245 17472 net.cpp:157] Top shape: 125 64 8 8 (512000)
I0817 16:29:31.896250 17472 net.cpp:165] Memory required for data: 1321473500
I0817 16:29:31.896258 17472 layer_factory.hpp:77] Creating layer L3_b4_cbr1_bn
I0817 16:29:31.896268 17472 net.cpp:100] Creating Layer L3_b4_cbr1_bn
I0817 16:29:31.896275 17472 net.cpp:434] L3_b4_cbr1_bn <- L3_b4_cbr1_conv_top
I0817 16:29:31.896286 17472 net.cpp:408] L3_b4_cbr1_bn -> L3_b4_cbr1_bn_top
I0817 16:29:31.896559 17472 net.cpp:150] Setting up L3_b4_cbr1_bn
I0817 16:29:31.896574 17472 net.cpp:157] Top shape: 125 64 8 8 (512000)
I0817 16:29:31.896579 17472 net.cpp:165] Memory required for data: 1323521500
I0817 16:29:31.896589 17472 layer_factory.hpp:77] Creating layer L3_b4_cbr1_scale
I0817 16:29:31.896597 17472 net.cpp:100] Creating Layer L3_b4_cbr1_scale
I0817 16:29:31.896603 17472 net.cpp:434] L3_b4_cbr1_scale <- L3_b4_cbr1_bn_top
I0817 16:29:31.896611 17472 net.cpp:395] L3_b4_cbr1_scale -> L3_b4_cbr1_bn_top (in-place)
I0817 16:29:31.896669 17472 layer_factory.hpp:77] Creating layer L3_b4_cbr1_scale
I0817 16:29:31.896826 17472 net.cpp:150] Setting up L3_b4_cbr1_scale
I0817 16:29:31.896838 17472 net.cpp:157] Top shape: 125 64 8 8 (512000)
I0817 16:29:31.896843 17472 net.cpp:165] Memory required for data: 1325569500
I0817 16:29:31.896852 17472 layer_factory.hpp:77] Creating layer L3_b4_cbr1_relu
I0817 16:29:31.896863 17472 net.cpp:100] Creating Layer L3_b4_cbr1_relu
I0817 16:29:31.896869 17472 net.cpp:434] L3_b4_cbr1_relu <- L3_b4_cbr1_bn_top
I0817 16:29:31.896877 17472 net.cpp:395] L3_b4_cbr1_relu -> L3_b4_cbr1_bn_top (in-place)
I0817 16:29:31.896886 17472 net.cpp:150] Setting up L3_b4_cbr1_relu
I0817 16:29:31.896893 17472 net.cpp:157] Top shape: 125 64 8 8 (512000)
I0817 16:29:31.896898 17472 net.cpp:165] Memory required for data: 1327617500
I0817 16:29:31.896903 17472 layer_factory.hpp:77] Creating layer L3_b4_cbr2_conv
I0817 16:29:31.896916 17472 net.cpp:100] Creating Layer L3_b4_cbr2_conv
I0817 16:29:31.896924 17472 net.cpp:434] L3_b4_cbr2_conv <- L3_b4_cbr1_bn_top
I0817 16:29:31.896931 17472 net.cpp:408] L3_b4_cbr2_conv -> L3_b4_cbr2_conv_top
I0817 16:29:31.897964 17472 net.cpp:150] Setting up L3_b4_cbr2_conv
I0817 16:29:31.897979 17472 net.cpp:157] Top shape: 125 64 8 8 (512000)
I0817 16:29:31.897984 17472 net.cpp:165] Memory required for data: 1329665500
I0817 16:29:31.897992 17472 layer_factory.hpp:77] Creating layer L3_b4_cbr2_bn
I0817 16:29:31.898005 17472 net.cpp:100] Creating Layer L3_b4_cbr2_bn
I0817 16:29:31.898011 17472 net.cpp:434] L3_b4_cbr2_bn <- L3_b4_cbr2_conv_top
I0817 16:29:31.898022 17472 net.cpp:408] L3_b4_cbr2_bn -> L3_b4_cbr2_bn_top
I0817 16:29:31.898298 17472 net.cpp:150] Setting up L3_b4_cbr2_bn
I0817 16:29:31.898310 17472 net.cpp:157] Top shape: 125 64 8 8 (512000)
I0817 16:29:31.898315 17472 net.cpp:165] Memory required for data: 1331713500
I0817 16:29:31.898326 17472 layer_factory.hpp:77] Creating layer L3_b4_cbr2_scale
I0817 16:29:31.898335 17472 net.cpp:100] Creating Layer L3_b4_cbr2_scale
I0817 16:29:31.898341 17472 net.cpp:434] L3_b4_cbr2_scale <- L3_b4_cbr2_bn_top
I0817 16:29:31.898351 17472 net.cpp:395] L3_b4_cbr2_scale -> L3_b4_cbr2_bn_top (in-place)
I0817 16:29:31.898411 17472 layer_factory.hpp:77] Creating layer L3_b4_cbr2_scale
I0817 16:29:31.898574 17472 net.cpp:150] Setting up L3_b4_cbr2_scale
I0817 16:29:31.898587 17472 net.cpp:157] Top shape: 125 64 8 8 (512000)
I0817 16:29:31.898591 17472 net.cpp:165] Memory required for data: 1333761500
I0817 16:29:31.898600 17472 layer_factory.hpp:77] Creating layer L3_b4_sum_eltwise
I0817 16:29:31.898610 17472 net.cpp:100] Creating Layer L3_b4_sum_eltwise
I0817 16:29:31.898617 17472 net.cpp:434] L3_b4_sum_eltwise <- L3_b4_cbr2_bn_top
I0817 16:29:31.898623 17472 net.cpp:434] L3_b4_sum_eltwise <- L3_b3_sum_eltwise_top_L3_b3_relu_0_split_1
I0817 16:29:31.898633 17472 net.cpp:408] L3_b4_sum_eltwise -> L3_b4_sum_eltwise_top
I0817 16:29:31.898671 17472 net.cpp:150] Setting up L3_b4_sum_eltwise
I0817 16:29:31.898687 17472 net.cpp:157] Top shape: 125 64 8 8 (512000)
I0817 16:29:31.898692 17472 net.cpp:165] Memory required for data: 1335809500
I0817 16:29:31.898697 17472 layer_factory.hpp:77] Creating layer L3_b4_relu
I0817 16:29:31.898705 17472 net.cpp:100] Creating Layer L3_b4_relu
I0817 16:29:31.898711 17472 net.cpp:434] L3_b4_relu <- L3_b4_sum_eltwise_top
I0817 16:29:31.898720 17472 net.cpp:395] L3_b4_relu -> L3_b4_sum_eltwise_top (in-place)
I0817 16:29:31.898730 17472 net.cpp:150] Setting up L3_b4_relu
I0817 16:29:31.898738 17472 net.cpp:157] Top shape: 125 64 8 8 (512000)
I0817 16:29:31.898742 17472 net.cpp:165] Memory required for data: 1337857500
I0817 16:29:31.898747 17472 layer_factory.hpp:77] Creating layer L3_b4_sum_eltwise_top_L3_b4_relu_0_split
I0817 16:29:31.898754 17472 net.cpp:100] Creating Layer L3_b4_sum_eltwise_top_L3_b4_relu_0_split
I0817 16:29:31.898759 17472 net.cpp:434] L3_b4_sum_eltwise_top_L3_b4_relu_0_split <- L3_b4_sum_eltwise_top
I0817 16:29:31.898767 17472 net.cpp:408] L3_b4_sum_eltwise_top_L3_b4_relu_0_split -> L3_b4_sum_eltwise_top_L3_b4_relu_0_split_0
I0817 16:29:31.898777 17472 net.cpp:408] L3_b4_sum_eltwise_top_L3_b4_relu_0_split -> L3_b4_sum_eltwise_top_L3_b4_relu_0_split_1
I0817 16:29:31.898828 17472 net.cpp:150] Setting up L3_b4_sum_eltwise_top_L3_b4_relu_0_split
I0817 16:29:31.898838 17472 net.cpp:157] Top shape: 125 64 8 8 (512000)
I0817 16:29:31.898845 17472 net.cpp:157] Top shape: 125 64 8 8 (512000)
I0817 16:29:31.898849 17472 net.cpp:165] Memory required for data: 1341953500
I0817 16:29:31.898854 17472 layer_factory.hpp:77] Creating layer L3_b5_cbr1_conv
I0817 16:29:31.898865 17472 net.cpp:100] Creating Layer L3_b5_cbr1_conv
I0817 16:29:31.898871 17472 net.cpp:434] L3_b5_cbr1_conv <- L3_b4_sum_eltwise_top_L3_b4_relu_0_split_0
I0817 16:29:31.898883 17472 net.cpp:408] L3_b5_cbr1_conv -> L3_b5_cbr1_conv_top
I0817 16:29:31.899914 17472 net.cpp:150] Setting up L3_b5_cbr1_conv
I0817 16:29:31.899927 17472 net.cpp:157] Top shape: 125 64 8 8 (512000)
I0817 16:29:31.899932 17472 net.cpp:165] Memory required for data: 1344001500
I0817 16:29:31.899941 17472 layer_factory.hpp:77] Creating layer L3_b5_cbr1_bn
I0817 16:29:31.899951 17472 net.cpp:100] Creating Layer L3_b5_cbr1_bn
I0817 16:29:31.899957 17472 net.cpp:434] L3_b5_cbr1_bn <- L3_b5_cbr1_conv_top
I0817 16:29:31.899968 17472 net.cpp:408] L3_b5_cbr1_bn -> L3_b5_cbr1_bn_top
I0817 16:29:31.901232 17472 net.cpp:150] Setting up L3_b5_cbr1_bn
I0817 16:29:31.901249 17472 net.cpp:157] Top shape: 125 64 8 8 (512000)
I0817 16:29:31.901254 17472 net.cpp:165] Memory required for data: 1346049500
I0817 16:29:31.901268 17472 layer_factory.hpp:77] Creating layer L3_b5_cbr1_scale
I0817 16:29:31.901276 17472 net.cpp:100] Creating Layer L3_b5_cbr1_scale
I0817 16:29:31.901283 17472 net.cpp:434] L3_b5_cbr1_scale <- L3_b5_cbr1_bn_top
I0817 16:29:31.901294 17472 net.cpp:395] L3_b5_cbr1_scale -> L3_b5_cbr1_bn_top (in-place)
I0817 16:29:31.901356 17472 layer_factory.hpp:77] Creating layer L3_b5_cbr1_scale
I0817 16:29:31.901516 17472 net.cpp:150] Setting up L3_b5_cbr1_scale
I0817 16:29:31.901528 17472 net.cpp:157] Top shape: 125 64 8 8 (512000)
I0817 16:29:31.901533 17472 net.cpp:165] Memory required for data: 1348097500
I0817 16:29:31.901542 17472 layer_factory.hpp:77] Creating layer L3_b5_cbr1_relu
I0817 16:29:31.901551 17472 net.cpp:100] Creating Layer L3_b5_cbr1_relu
I0817 16:29:31.901556 17472 net.cpp:434] L3_b5_cbr1_relu <- L3_b5_cbr1_bn_top
I0817 16:29:31.901566 17472 net.cpp:395] L3_b5_cbr1_relu -> L3_b5_cbr1_bn_top (in-place)
I0817 16:29:31.901577 17472 net.cpp:150] Setting up L3_b5_cbr1_relu
I0817 16:29:31.901584 17472 net.cpp:157] Top shape: 125 64 8 8 (512000)
I0817 16:29:31.901588 17472 net.cpp:165] Memory required for data: 1350145500
I0817 16:29:31.901593 17472 layer_factory.hpp:77] Creating layer L3_b5_cbr2_conv
I0817 16:29:31.901607 17472 net.cpp:100] Creating Layer L3_b5_cbr2_conv
I0817 16:29:31.901614 17472 net.cpp:434] L3_b5_cbr2_conv <- L3_b5_cbr1_bn_top
I0817 16:29:31.901623 17472 net.cpp:408] L3_b5_cbr2_conv -> L3_b5_cbr2_conv_top
I0817 16:29:31.903641 17472 net.cpp:150] Setting up L3_b5_cbr2_conv
I0817 16:29:31.903658 17472 net.cpp:157] Top shape: 125 64 8 8 (512000)
I0817 16:29:31.903664 17472 net.cpp:165] Memory required for data: 1352193500
I0817 16:29:31.903673 17472 layer_factory.hpp:77] Creating layer L3_b5_cbr2_bn
I0817 16:29:31.903687 17472 net.cpp:100] Creating Layer L3_b5_cbr2_bn
I0817 16:29:31.903693 17472 net.cpp:434] L3_b5_cbr2_bn <- L3_b5_cbr2_conv_top
I0817 16:29:31.903704 17472 net.cpp:408] L3_b5_cbr2_bn -> L3_b5_cbr2_bn_top
I0817 16:29:31.903966 17472 net.cpp:150] Setting up L3_b5_cbr2_bn
I0817 16:29:31.903980 17472 net.cpp:157] Top shape: 125 64 8 8 (512000)
I0817 16:29:31.903985 17472 net.cpp:165] Memory required for data: 1354241500
I0817 16:29:31.903995 17472 layer_factory.hpp:77] Creating layer L3_b5_cbr2_scale
I0817 16:29:31.904005 17472 net.cpp:100] Creating Layer L3_b5_cbr2_scale
I0817 16:29:31.904011 17472 net.cpp:434] L3_b5_cbr2_scale <- L3_b5_cbr2_bn_top
I0817 16:29:31.904021 17472 net.cpp:395] L3_b5_cbr2_scale -> L3_b5_cbr2_bn_top (in-place)
I0817 16:29:31.904080 17472 layer_factory.hpp:77] Creating layer L3_b5_cbr2_scale
I0817 16:29:31.904242 17472 net.cpp:150] Setting up L3_b5_cbr2_scale
I0817 16:29:31.904256 17472 net.cpp:157] Top shape: 125 64 8 8 (512000)
I0817 16:29:31.904261 17472 net.cpp:165] Memory required for data: 1356289500
I0817 16:29:31.904270 17472 layer_factory.hpp:77] Creating layer L3_b5_sum_eltwise
I0817 16:29:31.904280 17472 net.cpp:100] Creating Layer L3_b5_sum_eltwise
I0817 16:29:31.904286 17472 net.cpp:434] L3_b5_sum_eltwise <- L3_b5_cbr2_bn_top
I0817 16:29:31.904294 17472 net.cpp:434] L3_b5_sum_eltwise <- L3_b4_sum_eltwise_top_L3_b4_relu_0_split_1
I0817 16:29:31.904304 17472 net.cpp:408] L3_b5_sum_eltwise -> L3_b5_sum_eltwise_top
I0817 16:29:31.904340 17472 net.cpp:150] Setting up L3_b5_sum_eltwise
I0817 16:29:31.904352 17472 net.cpp:157] Top shape: 125 64 8 8 (512000)
I0817 16:29:31.904357 17472 net.cpp:165] Memory required for data: 1358337500
I0817 16:29:31.904362 17472 layer_factory.hpp:77] Creating layer L3_b5_relu
I0817 16:29:31.904371 17472 net.cpp:100] Creating Layer L3_b5_relu
I0817 16:29:31.904376 17472 net.cpp:434] L3_b5_relu <- L3_b5_sum_eltwise_top
I0817 16:29:31.904383 17472 net.cpp:395] L3_b5_relu -> L3_b5_sum_eltwise_top (in-place)
I0817 16:29:31.904395 17472 net.cpp:150] Setting up L3_b5_relu
I0817 16:29:31.904403 17472 net.cpp:157] Top shape: 125 64 8 8 (512000)
I0817 16:29:31.904407 17472 net.cpp:165] Memory required for data: 1360385500
I0817 16:29:31.904412 17472 layer_factory.hpp:77] Creating layer L3_b5_sum_eltwise_top_L3_b5_relu_0_split
I0817 16:29:31.904419 17472 net.cpp:100] Creating Layer L3_b5_sum_eltwise_top_L3_b5_relu_0_split
I0817 16:29:31.904424 17472 net.cpp:434] L3_b5_sum_eltwise_top_L3_b5_relu_0_split <- L3_b5_sum_eltwise_top
I0817 16:29:31.904433 17472 net.cpp:408] L3_b5_sum_eltwise_top_L3_b5_relu_0_split -> L3_b5_sum_eltwise_top_L3_b5_relu_0_split_0
I0817 16:29:31.904443 17472 net.cpp:408] L3_b5_sum_eltwise_top_L3_b5_relu_0_split -> L3_b5_sum_eltwise_top_L3_b5_relu_0_split_1
I0817 16:29:31.904490 17472 net.cpp:150] Setting up L3_b5_sum_eltwise_top_L3_b5_relu_0_split
I0817 16:29:31.904501 17472 net.cpp:157] Top shape: 125 64 8 8 (512000)
I0817 16:29:31.904508 17472 net.cpp:157] Top shape: 125 64 8 8 (512000)
I0817 16:29:31.904512 17472 net.cpp:165] Memory required for data: 1364481500
I0817 16:29:31.904517 17472 layer_factory.hpp:77] Creating layer L3_b6_cbr1_conv
I0817 16:29:31.904530 17472 net.cpp:100] Creating Layer L3_b6_cbr1_conv
I0817 16:29:31.904536 17472 net.cpp:434] L3_b6_cbr1_conv <- L3_b5_sum_eltwise_top_L3_b5_relu_0_split_0
I0817 16:29:31.904547 17472 net.cpp:408] L3_b6_cbr1_conv -> L3_b6_cbr1_conv_top
I0817 16:29:31.905565 17472 net.cpp:150] Setting up L3_b6_cbr1_conv
I0817 16:29:31.905580 17472 net.cpp:157] Top shape: 125 64 8 8 (512000)
I0817 16:29:31.905586 17472 net.cpp:165] Memory required for data: 1366529500
I0817 16:29:31.905594 17472 layer_factory.hpp:77] Creating layer L3_b6_cbr1_bn
I0817 16:29:31.905603 17472 net.cpp:100] Creating Layer L3_b6_cbr1_bn
I0817 16:29:31.905617 17472 net.cpp:434] L3_b6_cbr1_bn <- L3_b6_cbr1_conv_top
I0817 16:29:31.905630 17472 net.cpp:408] L3_b6_cbr1_bn -> L3_b6_cbr1_bn_top
I0817 16:29:31.905892 17472 net.cpp:150] Setting up L3_b6_cbr1_bn
I0817 16:29:31.905907 17472 net.cpp:157] Top shape: 125 64 8 8 (512000)
I0817 16:29:31.905912 17472 net.cpp:165] Memory required for data: 1368577500
I0817 16:29:31.905922 17472 layer_factory.hpp:77] Creating layer L3_b6_cbr1_scale
I0817 16:29:31.905931 17472 net.cpp:100] Creating Layer L3_b6_cbr1_scale
I0817 16:29:31.905938 17472 net.cpp:434] L3_b6_cbr1_scale <- L3_b6_cbr1_bn_top
I0817 16:29:31.905946 17472 net.cpp:395] L3_b6_cbr1_scale -> L3_b6_cbr1_bn_top (in-place)
I0817 16:29:31.906004 17472 layer_factory.hpp:77] Creating layer L3_b6_cbr1_scale
I0817 16:29:31.906167 17472 net.cpp:150] Setting up L3_b6_cbr1_scale
I0817 16:29:31.906180 17472 net.cpp:157] Top shape: 125 64 8 8 (512000)
I0817 16:29:31.906185 17472 net.cpp:165] Memory required for data: 1370625500
I0817 16:29:31.906194 17472 layer_factory.hpp:77] Creating layer L3_b6_cbr1_relu
I0817 16:29:31.906205 17472 net.cpp:100] Creating Layer L3_b6_cbr1_relu
I0817 16:29:31.906213 17472 net.cpp:434] L3_b6_cbr1_relu <- L3_b6_cbr1_bn_top
I0817 16:29:31.906219 17472 net.cpp:395] L3_b6_cbr1_relu -> L3_b6_cbr1_bn_top (in-place)
I0817 16:29:31.906229 17472 net.cpp:150] Setting up L3_b6_cbr1_relu
I0817 16:29:31.906236 17472 net.cpp:157] Top shape: 125 64 8 8 (512000)
I0817 16:29:31.906241 17472 net.cpp:165] Memory required for data: 1372673500
I0817 16:29:31.906246 17472 layer_factory.hpp:77] Creating layer L3_b6_cbr2_conv
I0817 16:29:31.906260 17472 net.cpp:100] Creating Layer L3_b6_cbr2_conv
I0817 16:29:31.906266 17472 net.cpp:434] L3_b6_cbr2_conv <- L3_b6_cbr1_bn_top
I0817 16:29:31.906275 17472 net.cpp:408] L3_b6_cbr2_conv -> L3_b6_cbr2_conv_top
I0817 16:29:31.907289 17472 net.cpp:150] Setting up L3_b6_cbr2_conv
I0817 16:29:31.907302 17472 net.cpp:157] Top shape: 125 64 8 8 (512000)
I0817 16:29:31.907307 17472 net.cpp:165] Memory required for data: 1374721500
I0817 16:29:31.907316 17472 layer_factory.hpp:77] Creating layer L3_b6_cbr2_bn
I0817 16:29:31.907330 17472 net.cpp:100] Creating Layer L3_b6_cbr2_bn
I0817 16:29:31.907336 17472 net.cpp:434] L3_b6_cbr2_bn <- L3_b6_cbr2_conv_top
I0817 16:29:31.907346 17472 net.cpp:408] L3_b6_cbr2_bn -> L3_b6_cbr2_bn_top
I0817 16:29:31.907605 17472 net.cpp:150] Setting up L3_b6_cbr2_bn
I0817 16:29:31.907618 17472 net.cpp:157] Top shape: 125 64 8 8 (512000)
I0817 16:29:31.907624 17472 net.cpp:165] Memory required for data: 1376769500
I0817 16:29:31.907634 17472 layer_factory.hpp:77] Creating layer L3_b6_cbr2_scale
I0817 16:29:31.907642 17472 net.cpp:100] Creating Layer L3_b6_cbr2_scale
I0817 16:29:31.907649 17472 net.cpp:434] L3_b6_cbr2_scale <- L3_b6_cbr2_bn_top
I0817 16:29:31.907660 17472 net.cpp:395] L3_b6_cbr2_scale -> L3_b6_cbr2_bn_top (in-place)
I0817 16:29:31.907717 17472 layer_factory.hpp:77] Creating layer L3_b6_cbr2_scale
I0817 16:29:31.907873 17472 net.cpp:150] Setting up L3_b6_cbr2_scale
I0817 16:29:31.907886 17472 net.cpp:157] Top shape: 125 64 8 8 (512000)
I0817 16:29:31.907891 17472 net.cpp:165] Memory required for data: 1378817500
I0817 16:29:31.907899 17472 layer_factory.hpp:77] Creating layer L3_b6_sum_eltwise
I0817 16:29:31.907908 17472 net.cpp:100] Creating Layer L3_b6_sum_eltwise
I0817 16:29:31.907915 17472 net.cpp:434] L3_b6_sum_eltwise <- L3_b6_cbr2_bn_top
I0817 16:29:31.907922 17472 net.cpp:434] L3_b6_sum_eltwise <- L3_b5_sum_eltwise_top_L3_b5_relu_0_split_1
I0817 16:29:31.907932 17472 net.cpp:408] L3_b6_sum_eltwise -> L3_b6_sum_eltwise_top
I0817 16:29:31.907969 17472 net.cpp:150] Setting up L3_b6_sum_eltwise
I0817 16:29:31.907981 17472 net.cpp:157] Top shape: 125 64 8 8 (512000)
I0817 16:29:31.907985 17472 net.cpp:165] Memory required for data: 1380865500
I0817 16:29:31.907990 17472 layer_factory.hpp:77] Creating layer L3_b6_relu
I0817 16:29:31.907999 17472 net.cpp:100] Creating Layer L3_b6_relu
I0817 16:29:31.908004 17472 net.cpp:434] L3_b6_relu <- L3_b6_sum_eltwise_top
I0817 16:29:31.908020 17472 net.cpp:395] L3_b6_relu -> L3_b6_sum_eltwise_top (in-place)
I0817 16:29:31.908031 17472 net.cpp:150] Setting up L3_b6_relu
I0817 16:29:31.908038 17472 net.cpp:157] Top shape: 125 64 8 8 (512000)
I0817 16:29:31.908042 17472 net.cpp:165] Memory required for data: 1382913500
I0817 16:29:31.908047 17472 layer_factory.hpp:77] Creating layer L3_b6_sum_eltwise_top_L3_b6_relu_0_split
I0817 16:29:31.908054 17472 net.cpp:100] Creating Layer L3_b6_sum_eltwise_top_L3_b6_relu_0_split
I0817 16:29:31.908059 17472 net.cpp:434] L3_b6_sum_eltwise_top_L3_b6_relu_0_split <- L3_b6_sum_eltwise_top
I0817 16:29:31.908067 17472 net.cpp:408] L3_b6_sum_eltwise_top_L3_b6_relu_0_split -> L3_b6_sum_eltwise_top_L3_b6_relu_0_split_0
I0817 16:29:31.908077 17472 net.cpp:408] L3_b6_sum_eltwise_top_L3_b6_relu_0_split -> L3_b6_sum_eltwise_top_L3_b6_relu_0_split_1
I0817 16:29:31.908130 17472 net.cpp:150] Setting up L3_b6_sum_eltwise_top_L3_b6_relu_0_split
I0817 16:29:31.908143 17472 net.cpp:157] Top shape: 125 64 8 8 (512000)
I0817 16:29:31.908150 17472 net.cpp:157] Top shape: 125 64 8 8 (512000)
I0817 16:29:31.908154 17472 net.cpp:165] Memory required for data: 1387009500
I0817 16:29:31.908159 17472 layer_factory.hpp:77] Creating layer L3_b7_cbr1_conv
I0817 16:29:31.908170 17472 net.cpp:100] Creating Layer L3_b7_cbr1_conv
I0817 16:29:31.908177 17472 net.cpp:434] L3_b7_cbr1_conv <- L3_b6_sum_eltwise_top_L3_b6_relu_0_split_0
I0817 16:29:31.908190 17472 net.cpp:408] L3_b7_cbr1_conv -> L3_b7_cbr1_conv_top
I0817 16:29:31.909210 17472 net.cpp:150] Setting up L3_b7_cbr1_conv
I0817 16:29:31.909225 17472 net.cpp:157] Top shape: 125 64 8 8 (512000)
I0817 16:29:31.909230 17472 net.cpp:165] Memory required for data: 1389057500
I0817 16:29:31.909240 17472 layer_factory.hpp:77] Creating layer L3_b7_cbr1_bn
I0817 16:29:31.909248 17472 net.cpp:100] Creating Layer L3_b7_cbr1_bn
I0817 16:29:31.909255 17472 net.cpp:434] L3_b7_cbr1_bn <- L3_b7_cbr1_conv_top
I0817 16:29:31.909265 17472 net.cpp:408] L3_b7_cbr1_bn -> L3_b7_cbr1_bn_top
I0817 16:29:31.909530 17472 net.cpp:150] Setting up L3_b7_cbr1_bn
I0817 16:29:31.909543 17472 net.cpp:157] Top shape: 125 64 8 8 (512000)
I0817 16:29:31.909548 17472 net.cpp:165] Memory required for data: 1391105500
I0817 16:29:31.909559 17472 layer_factory.hpp:77] Creating layer L3_b7_cbr1_scale
I0817 16:29:31.909567 17472 net.cpp:100] Creating Layer L3_b7_cbr1_scale
I0817 16:29:31.909574 17472 net.cpp:434] L3_b7_cbr1_scale <- L3_b7_cbr1_bn_top
I0817 16:29:31.909581 17472 net.cpp:395] L3_b7_cbr1_scale -> L3_b7_cbr1_bn_top (in-place)
I0817 16:29:31.909641 17472 layer_factory.hpp:77] Creating layer L3_b7_cbr1_scale
I0817 16:29:31.909795 17472 net.cpp:150] Setting up L3_b7_cbr1_scale
I0817 16:29:31.909807 17472 net.cpp:157] Top shape: 125 64 8 8 (512000)
I0817 16:29:31.909812 17472 net.cpp:165] Memory required for data: 1393153500
I0817 16:29:31.909821 17472 layer_factory.hpp:77] Creating layer L3_b7_cbr1_relu
I0817 16:29:31.909857 17472 net.cpp:100] Creating Layer L3_b7_cbr1_relu
I0817 16:29:31.909864 17472 net.cpp:434] L3_b7_cbr1_relu <- L3_b7_cbr1_bn_top
I0817 16:29:31.909873 17472 net.cpp:395] L3_b7_cbr1_relu -> L3_b7_cbr1_bn_top (in-place)
I0817 16:29:31.909883 17472 net.cpp:150] Setting up L3_b7_cbr1_relu
I0817 16:29:31.909890 17472 net.cpp:157] Top shape: 125 64 8 8 (512000)
I0817 16:29:31.909895 17472 net.cpp:165] Memory required for data: 1395201500
I0817 16:29:31.909900 17472 layer_factory.hpp:77] Creating layer L3_b7_cbr2_conv
I0817 16:29:31.909912 17472 net.cpp:100] Creating Layer L3_b7_cbr2_conv
I0817 16:29:31.909917 17472 net.cpp:434] L3_b7_cbr2_conv <- L3_b7_cbr1_bn_top
I0817 16:29:31.909932 17472 net.cpp:408] L3_b7_cbr2_conv -> L3_b7_cbr2_conv_top
I0817 16:29:31.910951 17472 net.cpp:150] Setting up L3_b7_cbr2_conv
I0817 16:29:31.910965 17472 net.cpp:157] Top shape: 125 64 8 8 (512000)
I0817 16:29:31.910970 17472 net.cpp:165] Memory required for data: 1397249500
I0817 16:29:31.910979 17472 layer_factory.hpp:77] Creating layer L3_b7_cbr2_bn
I0817 16:29:31.910989 17472 net.cpp:100] Creating Layer L3_b7_cbr2_bn
I0817 16:29:31.911002 17472 net.cpp:434] L3_b7_cbr2_bn <- L3_b7_cbr2_conv_top
I0817 16:29:31.911013 17472 net.cpp:408] L3_b7_cbr2_bn -> L3_b7_cbr2_bn_top
I0817 16:29:31.911284 17472 net.cpp:150] Setting up L3_b7_cbr2_bn
I0817 16:29:31.911300 17472 net.cpp:157] Top shape: 125 64 8 8 (512000)
I0817 16:29:31.911305 17472 net.cpp:165] Memory required for data: 1399297500
I0817 16:29:31.911315 17472 layer_factory.hpp:77] Creating layer L3_b7_cbr2_scale
I0817 16:29:31.911324 17472 net.cpp:100] Creating Layer L3_b7_cbr2_scale
I0817 16:29:31.911330 17472 net.cpp:434] L3_b7_cbr2_scale <- L3_b7_cbr2_bn_top
I0817 16:29:31.911339 17472 net.cpp:395] L3_b7_cbr2_scale -> L3_b7_cbr2_bn_top (in-place)
I0817 16:29:31.911394 17472 layer_factory.hpp:77] Creating layer L3_b7_cbr2_scale
I0817 16:29:31.911551 17472 net.cpp:150] Setting up L3_b7_cbr2_scale
I0817 16:29:31.911564 17472 net.cpp:157] Top shape: 125 64 8 8 (512000)
I0817 16:29:31.911569 17472 net.cpp:165] Memory required for data: 1401345500
I0817 16:29:31.911578 17472 layer_factory.hpp:77] Creating layer L3_b7_sum_eltwise
I0817 16:29:31.911589 17472 net.cpp:100] Creating Layer L3_b7_sum_eltwise
I0817 16:29:31.911597 17472 net.cpp:434] L3_b7_sum_eltwise <- L3_b7_cbr2_bn_top
I0817 16:29:31.911603 17472 net.cpp:434] L3_b7_sum_eltwise <- L3_b6_sum_eltwise_top_L3_b6_relu_0_split_1
I0817 16:29:31.911612 17472 net.cpp:408] L3_b7_sum_eltwise -> L3_b7_sum_eltwise_top
I0817 16:29:31.911649 17472 net.cpp:150] Setting up L3_b7_sum_eltwise
I0817 16:29:31.911661 17472 net.cpp:157] Top shape: 125 64 8 8 (512000)
I0817 16:29:31.911665 17472 net.cpp:165] Memory required for data: 1403393500
I0817 16:29:31.911670 17472 layer_factory.hpp:77] Creating layer L3_b7_relu
I0817 16:29:31.911679 17472 net.cpp:100] Creating Layer L3_b7_relu
I0817 16:29:31.911684 17472 net.cpp:434] L3_b7_relu <- L3_b7_sum_eltwise_top
I0817 16:29:31.911691 17472 net.cpp:395] L3_b7_relu -> L3_b7_sum_eltwise_top (in-place)
I0817 16:29:31.911700 17472 net.cpp:150] Setting up L3_b7_relu
I0817 16:29:31.911707 17472 net.cpp:157] Top shape: 125 64 8 8 (512000)
I0817 16:29:31.911712 17472 net.cpp:165] Memory required for data: 1405441500
I0817 16:29:31.911717 17472 layer_factory.hpp:77] Creating layer L3_b7_sum_eltwise_top_L3_b7_relu_0_split
I0817 16:29:31.911725 17472 net.cpp:100] Creating Layer L3_b7_sum_eltwise_top_L3_b7_relu_0_split
I0817 16:29:31.911730 17472 net.cpp:434] L3_b7_sum_eltwise_top_L3_b7_relu_0_split <- L3_b7_sum_eltwise_top
I0817 16:29:31.911741 17472 net.cpp:408] L3_b7_sum_eltwise_top_L3_b7_relu_0_split -> L3_b7_sum_eltwise_top_L3_b7_relu_0_split_0
I0817 16:29:31.911751 17472 net.cpp:408] L3_b7_sum_eltwise_top_L3_b7_relu_0_split -> L3_b7_sum_eltwise_top_L3_b7_relu_0_split_1
I0817 16:29:31.911795 17472 net.cpp:150] Setting up L3_b7_sum_eltwise_top_L3_b7_relu_0_split
I0817 16:29:31.911806 17472 net.cpp:157] Top shape: 125 64 8 8 (512000)
I0817 16:29:31.911813 17472 net.cpp:157] Top shape: 125 64 8 8 (512000)
I0817 16:29:31.911818 17472 net.cpp:165] Memory required for data: 1409537500
I0817 16:29:31.911823 17472 layer_factory.hpp:77] Creating layer L3_b8_cbr1_conv
I0817 16:29:31.911837 17472 net.cpp:100] Creating Layer L3_b8_cbr1_conv
I0817 16:29:31.911844 17472 net.cpp:434] L3_b8_cbr1_conv <- L3_b7_sum_eltwise_top_L3_b7_relu_0_split_0
I0817 16:29:31.911854 17472 net.cpp:408] L3_b8_cbr1_conv -> L3_b8_cbr1_conv_top
I0817 16:29:31.912868 17472 net.cpp:150] Setting up L3_b8_cbr1_conv
I0817 16:29:31.912883 17472 net.cpp:157] Top shape: 125 64 8 8 (512000)
I0817 16:29:31.912889 17472 net.cpp:165] Memory required for data: 1411585500
I0817 16:29:31.912896 17472 layer_factory.hpp:77] Creating layer L3_b8_cbr1_bn
I0817 16:29:31.912910 17472 net.cpp:100] Creating Layer L3_b8_cbr1_bn
I0817 16:29:31.912917 17472 net.cpp:434] L3_b8_cbr1_bn <- L3_b8_cbr1_conv_top
I0817 16:29:31.912925 17472 net.cpp:408] L3_b8_cbr1_bn -> L3_b8_cbr1_bn_top
I0817 16:29:31.913193 17472 net.cpp:150] Setting up L3_b8_cbr1_bn
I0817 16:29:31.913206 17472 net.cpp:157] Top shape: 125 64 8 8 (512000)
I0817 16:29:31.913211 17472 net.cpp:165] Memory required for data: 1413633500
I0817 16:29:31.913228 17472 layer_factory.hpp:77] Creating layer L3_b8_cbr1_scale
I0817 16:29:31.913240 17472 net.cpp:100] Creating Layer L3_b8_cbr1_scale
I0817 16:29:31.913246 17472 net.cpp:434] L3_b8_cbr1_scale <- L3_b8_cbr1_bn_top
I0817 16:29:31.913254 17472 net.cpp:395] L3_b8_cbr1_scale -> L3_b8_cbr1_bn_top (in-place)
I0817 16:29:31.913316 17472 layer_factory.hpp:77] Creating layer L3_b8_cbr1_scale
I0817 16:29:31.913470 17472 net.cpp:150] Setting up L3_b8_cbr1_scale
I0817 16:29:31.913482 17472 net.cpp:157] Top shape: 125 64 8 8 (512000)
I0817 16:29:31.913487 17472 net.cpp:165] Memory required for data: 1415681500
I0817 16:29:31.913496 17472 layer_factory.hpp:77] Creating layer L3_b8_cbr1_relu
I0817 16:29:31.913508 17472 net.cpp:100] Creating Layer L3_b8_cbr1_relu
I0817 16:29:31.913514 17472 net.cpp:434] L3_b8_cbr1_relu <- L3_b8_cbr1_bn_top
I0817 16:29:31.913522 17472 net.cpp:395] L3_b8_cbr1_relu -> L3_b8_cbr1_bn_top (in-place)
I0817 16:29:31.913532 17472 net.cpp:150] Setting up L3_b8_cbr1_relu
I0817 16:29:31.913538 17472 net.cpp:157] Top shape: 125 64 8 8 (512000)
I0817 16:29:31.913543 17472 net.cpp:165] Memory required for data: 1417729500
I0817 16:29:31.913548 17472 layer_factory.hpp:77] Creating layer L3_b8_cbr2_conv
I0817 16:29:31.913563 17472 net.cpp:100] Creating Layer L3_b8_cbr2_conv
I0817 16:29:31.913568 17472 net.cpp:434] L3_b8_cbr2_conv <- L3_b8_cbr1_bn_top
I0817 16:29:31.913579 17472 net.cpp:408] L3_b8_cbr2_conv -> L3_b8_cbr2_conv_top
I0817 16:29:31.914597 17472 net.cpp:150] Setting up L3_b8_cbr2_conv
I0817 16:29:31.914610 17472 net.cpp:157] Top shape: 125 64 8 8 (512000)
I0817 16:29:31.914615 17472 net.cpp:165] Memory required for data: 1419777500
I0817 16:29:31.914624 17472 layer_factory.hpp:77] Creating layer L3_b8_cbr2_bn
I0817 16:29:31.914634 17472 net.cpp:100] Creating Layer L3_b8_cbr2_bn
I0817 16:29:31.914640 17472 net.cpp:434] L3_b8_cbr2_bn <- L3_b8_cbr2_conv_top
I0817 16:29:31.914654 17472 net.cpp:408] L3_b8_cbr2_bn -> L3_b8_cbr2_bn_top
I0817 16:29:31.914916 17472 net.cpp:150] Setting up L3_b8_cbr2_bn
I0817 16:29:31.914932 17472 net.cpp:157] Top shape: 125 64 8 8 (512000)
I0817 16:29:31.914937 17472 net.cpp:165] Memory required for data: 1421825500
I0817 16:29:31.914947 17472 layer_factory.hpp:77] Creating layer L3_b8_cbr2_scale
I0817 16:29:31.914955 17472 net.cpp:100] Creating Layer L3_b8_cbr2_scale
I0817 16:29:31.914961 17472 net.cpp:434] L3_b8_cbr2_scale <- L3_b8_cbr2_bn_top
I0817 16:29:31.914968 17472 net.cpp:395] L3_b8_cbr2_scale -> L3_b8_cbr2_bn_top (in-place)
I0817 16:29:31.915029 17472 layer_factory.hpp:77] Creating layer L3_b8_cbr2_scale
I0817 16:29:31.915191 17472 net.cpp:150] Setting up L3_b8_cbr2_scale
I0817 16:29:31.915205 17472 net.cpp:157] Top shape: 125 64 8 8 (512000)
I0817 16:29:31.915210 17472 net.cpp:165] Memory required for data: 1423873500
I0817 16:29:31.915218 17472 layer_factory.hpp:77] Creating layer L3_b8_sum_eltwise
I0817 16:29:31.915230 17472 net.cpp:100] Creating Layer L3_b8_sum_eltwise
I0817 16:29:31.915236 17472 net.cpp:434] L3_b8_sum_eltwise <- L3_b8_cbr2_bn_top
I0817 16:29:31.915243 17472 net.cpp:434] L3_b8_sum_eltwise <- L3_b7_sum_eltwise_top_L3_b7_relu_0_split_1
I0817 16:29:31.915251 17472 net.cpp:408] L3_b8_sum_eltwise -> L3_b8_sum_eltwise_top
I0817 16:29:31.915287 17472 net.cpp:150] Setting up L3_b8_sum_eltwise
I0817 16:29:31.915299 17472 net.cpp:157] Top shape: 125 64 8 8 (512000)
I0817 16:29:31.915303 17472 net.cpp:165] Memory required for data: 1425921500
I0817 16:29:31.915309 17472 layer_factory.hpp:77] Creating layer L3_b8_relu
I0817 16:29:31.915318 17472 net.cpp:100] Creating Layer L3_b8_relu
I0817 16:29:31.915323 17472 net.cpp:434] L3_b8_relu <- L3_b8_sum_eltwise_top
I0817 16:29:31.915330 17472 net.cpp:395] L3_b8_relu -> L3_b8_sum_eltwise_top (in-place)
I0817 16:29:31.915339 17472 net.cpp:150] Setting up L3_b8_relu
I0817 16:29:31.915346 17472 net.cpp:157] Top shape: 125 64 8 8 (512000)
I0817 16:29:31.915350 17472 net.cpp:165] Memory required for data: 1427969500
I0817 16:29:31.915355 17472 layer_factory.hpp:77] Creating layer L3_b8_sum_eltwise_top_L3_b8_relu_0_split
I0817 16:29:31.915369 17472 net.cpp:100] Creating Layer L3_b8_sum_eltwise_top_L3_b8_relu_0_split
I0817 16:29:31.915375 17472 net.cpp:434] L3_b8_sum_eltwise_top_L3_b8_relu_0_split <- L3_b8_sum_eltwise_top
I0817 16:29:31.915385 17472 net.cpp:408] L3_b8_sum_eltwise_top_L3_b8_relu_0_split -> L3_b8_sum_eltwise_top_L3_b8_relu_0_split_0
I0817 16:29:31.915395 17472 net.cpp:408] L3_b8_sum_eltwise_top_L3_b8_relu_0_split -> L3_b8_sum_eltwise_top_L3_b8_relu_0_split_1
I0817 16:29:31.915441 17472 net.cpp:150] Setting up L3_b8_sum_eltwise_top_L3_b8_relu_0_split
I0817 16:29:31.915453 17472 net.cpp:157] Top shape: 125 64 8 8 (512000)
I0817 16:29:31.915459 17472 net.cpp:157] Top shape: 125 64 8 8 (512000)
I0817 16:29:31.915464 17472 net.cpp:165] Memory required for data: 1432065500
I0817 16:29:31.915469 17472 layer_factory.hpp:77] Creating layer L3_b9_cbr1_conv
I0817 16:29:31.915483 17472 net.cpp:100] Creating Layer L3_b9_cbr1_conv
I0817 16:29:31.915490 17472 net.cpp:434] L3_b9_cbr1_conv <- L3_b8_sum_eltwise_top_L3_b8_relu_0_split_0
I0817 16:29:31.915499 17472 net.cpp:408] L3_b9_cbr1_conv -> L3_b9_cbr1_conv_top
I0817 16:29:31.917495 17472 net.cpp:150] Setting up L3_b9_cbr1_conv
I0817 16:29:31.917512 17472 net.cpp:157] Top shape: 125 64 8 8 (512000)
I0817 16:29:31.917518 17472 net.cpp:165] Memory required for data: 1434113500
I0817 16:29:31.917527 17472 layer_factory.hpp:77] Creating layer L3_b9_cbr1_bn
I0817 16:29:31.917541 17472 net.cpp:100] Creating Layer L3_b9_cbr1_bn
I0817 16:29:31.917547 17472 net.cpp:434] L3_b9_cbr1_bn <- L3_b9_cbr1_conv_top
I0817 16:29:31.917557 17472 net.cpp:408] L3_b9_cbr1_bn -> L3_b9_cbr1_bn_top
I0817 16:29:31.917827 17472 net.cpp:150] Setting up L3_b9_cbr1_bn
I0817 16:29:31.917840 17472 net.cpp:157] Top shape: 125 64 8 8 (512000)
I0817 16:29:31.917845 17472 net.cpp:165] Memory required for data: 1436161500
I0817 16:29:31.917855 17472 layer_factory.hpp:77] Creating layer L3_b9_cbr1_scale
I0817 16:29:31.917865 17472 net.cpp:100] Creating Layer L3_b9_cbr1_scale
I0817 16:29:31.917870 17472 net.cpp:434] L3_b9_cbr1_scale <- L3_b9_cbr1_bn_top
I0817 16:29:31.917878 17472 net.cpp:395] L3_b9_cbr1_scale -> L3_b9_cbr1_bn_top (in-place)
I0817 16:29:31.917939 17472 layer_factory.hpp:77] Creating layer L3_b9_cbr1_scale
I0817 16:29:31.918099 17472 net.cpp:150] Setting up L3_b9_cbr1_scale
I0817 16:29:31.918118 17472 net.cpp:157] Top shape: 125 64 8 8 (512000)
I0817 16:29:31.918124 17472 net.cpp:165] Memory required for data: 1438209500
I0817 16:29:31.918133 17472 layer_factory.hpp:77] Creating layer L3_b9_cbr1_relu
I0817 16:29:31.918141 17472 net.cpp:100] Creating Layer L3_b9_cbr1_relu
I0817 16:29:31.918148 17472 net.cpp:434] L3_b9_cbr1_relu <- L3_b9_cbr1_bn_top
I0817 16:29:31.918155 17472 net.cpp:395] L3_b9_cbr1_relu -> L3_b9_cbr1_bn_top (in-place)
I0817 16:29:31.918165 17472 net.cpp:150] Setting up L3_b9_cbr1_relu
I0817 16:29:31.918172 17472 net.cpp:157] Top shape: 125 64 8 8 (512000)
I0817 16:29:31.918177 17472 net.cpp:165] Memory required for data: 1440257500
I0817 16:29:31.918181 17472 layer_factory.hpp:77] Creating layer L3_b9_cbr2_conv
I0817 16:29:31.918196 17472 net.cpp:100] Creating Layer L3_b9_cbr2_conv
I0817 16:29:31.918202 17472 net.cpp:434] L3_b9_cbr2_conv <- L3_b9_cbr1_bn_top
I0817 16:29:31.918213 17472 net.cpp:408] L3_b9_cbr2_conv -> L3_b9_cbr2_conv_top
I0817 16:29:31.919240 17472 net.cpp:150] Setting up L3_b9_cbr2_conv
I0817 16:29:31.919255 17472 net.cpp:157] Top shape: 125 64 8 8 (512000)
I0817 16:29:31.919260 17472 net.cpp:165] Memory required for data: 1442305500
I0817 16:29:31.919270 17472 layer_factory.hpp:77] Creating layer L3_b9_cbr2_bn
I0817 16:29:31.919282 17472 net.cpp:100] Creating Layer L3_b9_cbr2_bn
I0817 16:29:31.919288 17472 net.cpp:434] L3_b9_cbr2_bn <- L3_b9_cbr2_conv_top
I0817 16:29:31.919296 17472 net.cpp:408] L3_b9_cbr2_bn -> L3_b9_cbr2_bn_top
I0817 16:29:31.919559 17472 net.cpp:150] Setting up L3_b9_cbr2_bn
I0817 16:29:31.919571 17472 net.cpp:157] Top shape: 125 64 8 8 (512000)
I0817 16:29:31.919576 17472 net.cpp:165] Memory required for data: 1444353500
I0817 16:29:31.919595 17472 layer_factory.hpp:77] Creating layer L3_b9_cbr2_scale
I0817 16:29:31.919606 17472 net.cpp:100] Creating Layer L3_b9_cbr2_scale
I0817 16:29:31.919613 17472 net.cpp:434] L3_b9_cbr2_scale <- L3_b9_cbr2_bn_top
I0817 16:29:31.919620 17472 net.cpp:395] L3_b9_cbr2_scale -> L3_b9_cbr2_bn_top (in-place)
I0817 16:29:31.919682 17472 layer_factory.hpp:77] Creating layer L3_b9_cbr2_scale
I0817 16:29:31.919836 17472 net.cpp:150] Setting up L3_b9_cbr2_scale
I0817 16:29:31.919847 17472 net.cpp:157] Top shape: 125 64 8 8 (512000)
I0817 16:29:31.919852 17472 net.cpp:165] Memory required for data: 1446401500
I0817 16:29:31.919862 17472 layer_factory.hpp:77] Creating layer L3_b9_sum_eltwise
I0817 16:29:31.919875 17472 net.cpp:100] Creating Layer L3_b9_sum_eltwise
I0817 16:29:31.919883 17472 net.cpp:434] L3_b9_sum_eltwise <- L3_b9_cbr2_bn_top
I0817 16:29:31.919889 17472 net.cpp:434] L3_b9_sum_eltwise <- L3_b8_sum_eltwise_top_L3_b8_relu_0_split_1
I0817 16:29:31.919900 17472 net.cpp:408] L3_b9_sum_eltwise -> L3_b9_sum_eltwise_top
I0817 16:29:31.919934 17472 net.cpp:150] Setting up L3_b9_sum_eltwise
I0817 16:29:31.919945 17472 net.cpp:157] Top shape: 125 64 8 8 (512000)
I0817 16:29:31.919950 17472 net.cpp:165] Memory required for data: 1448449500
I0817 16:29:31.919955 17472 layer_factory.hpp:77] Creating layer L3_b9_relu
I0817 16:29:31.919967 17472 net.cpp:100] Creating Layer L3_b9_relu
I0817 16:29:31.919975 17472 net.cpp:434] L3_b9_relu <- L3_b9_sum_eltwise_top
I0817 16:29:31.919981 17472 net.cpp:395] L3_b9_relu -> L3_b9_sum_eltwise_top (in-place)
I0817 16:29:31.919991 17472 net.cpp:150] Setting up L3_b9_relu
I0817 16:29:31.919998 17472 net.cpp:157] Top shape: 125 64 8 8 (512000)
I0817 16:29:31.920002 17472 net.cpp:165] Memory required for data: 1450497500
I0817 16:29:31.920007 17472 layer_factory.hpp:77] Creating layer post_pool
I0817 16:29:31.920016 17472 net.cpp:100] Creating Layer post_pool
I0817 16:29:31.920020 17472 net.cpp:434] post_pool <- L3_b9_sum_eltwise_top
I0817 16:29:31.920028 17472 net.cpp:408] post_pool -> post_pool
I0817 16:29:31.920063 17472 net.cpp:150] Setting up post_pool
I0817 16:29:31.920076 17472 net.cpp:157] Top shape: 125 64 1 1 (8000)
I0817 16:29:31.920081 17472 net.cpp:165] Memory required for data: 1450529500
I0817 16:29:31.920087 17472 layer_factory.hpp:77] Creating layer post_FC
I0817 16:29:31.920177 17472 net.cpp:100] Creating Layer post_FC
I0817 16:29:31.920192 17472 net.cpp:434] post_FC <- post_pool
I0817 16:29:31.920200 17472 net.cpp:408] post_FC -> post_FC_top
I0817 16:29:31.920447 17472 net.cpp:150] Setting up post_FC
I0817 16:29:31.920462 17472 net.cpp:157] Top shape: 125 10 (1250)
I0817 16:29:31.920467 17472 net.cpp:165] Memory required for data: 1450534500
I0817 16:29:31.920477 17472 layer_factory.hpp:77] Creating layer post_FC_top_post_FC_0_split
I0817 16:29:31.920485 17472 net.cpp:100] Creating Layer post_FC_top_post_FC_0_split
I0817 16:29:31.920491 17472 net.cpp:434] post_FC_top_post_FC_0_split <- post_FC_top
I0817 16:29:31.920500 17472 net.cpp:408] post_FC_top_post_FC_0_split -> post_FC_top_post_FC_0_split_0
I0817 16:29:31.920513 17472 net.cpp:408] post_FC_top_post_FC_0_split -> post_FC_top_post_FC_0_split_1
I0817 16:29:31.920560 17472 net.cpp:150] Setting up post_FC_top_post_FC_0_split
I0817 16:29:31.920572 17472 net.cpp:157] Top shape: 125 10 (1250)
I0817 16:29:31.920578 17472 net.cpp:157] Top shape: 125 10 (1250)
I0817 16:29:31.920583 17472 net.cpp:165] Memory required for data: 1450544500
I0817 16:29:31.920588 17472 layer_factory.hpp:77] Creating layer accuracy
I0817 16:29:31.920634 17472 net.cpp:100] Creating Layer accuracy
I0817 16:29:31.920645 17472 net.cpp:434] accuracy <- post_FC_top_post_FC_0_split_0
I0817 16:29:31.920653 17472 net.cpp:434] accuracy <- label_dataLayer_1_split_0
I0817 16:29:31.920661 17472 net.cpp:408] accuracy -> accuracy
…
