…
I0821 06:45:14.689199 31846 net.cpp:322] The NetState phase (0) differed from the phase (1) specified by a rule in layer L3_b9_cbr2_bn
I0821 06:45:14.690948 31846 net.cpp:58] Initializing net from parameters: 
name: "Cifar-Resnet"
state {
  phase: TRAIN
  level: 0
  stage: ""
}
layer {
  name: "dataLayer"
  type: "Data"
  top: "data_top"
  top: "label"
  include {
    phase: TRAIN
  }
  transform_param {
    mirror: true
    crop_size: 32
    mean_file: "examples/cifar10/mean.binaryproto"
  }
  data_param {
    source: "examples/cifar10/cifar10_train_lmdb"
    batch_size: 125
    backend: LMDB
  }
  image_data_param {
    shuffle: true
  }
}
layer {
  name: "pre_conv"
  type: "Convolution"
  bottom: "data_top"
  top: "pre_conv_top"
  param {
    lr_mult: 1
    decay_mult: 1
  }
  param {
    lr_mult: 2
    decay_mult: 0
  }
  convolution_param {
    num_output: 16
    pad: 1
    kernel_size: 3
    stride: 1
    weight_filler {
      type: "msra"
    }
    bias_filler {
      type: "constant"
    }
  }
}
layer {
  name: "pre_bn"
  type: "BatchNorm"
  bottom: "pre_conv_top"
  top: "pre_bn_top"
  include {
    phase: TRAIN
  }
  batch_norm_param {
    use_global_stats: false
    moving_average_fraction: 0.95
  }
}
layer {
  name: "pre_scale"
  type: "Scale"
  bottom: "pre_bn_top"
  top: "pre_bn_top"
  scale_param {
    bias_term: true
  }
}
layer {
  name: "pre_relu"
  type: "ReLU"
  bottom: "pre_bn_top"
  top: "pre_bn_top"
}
layer {
  name: "L1_b1_cbr1_conv"
  type: "Convolution"
  bottom: "pre_bn_top"
  top: "L1_b1_cbr1_conv_top"
  param {
    lr_mult: 1
    decay_mult: 1
  }
  param {
    lr_mult: 2
    decay_mult: 0
  }
  convolution_param {
    num_output: 16
    pad: 1
    kernel_size: 3
    stride: 1
    weight_filler {
      type: "msra"
    }
    bias_filler {
      type: "constant"
    }
  }
}
layer {
  name: "L1_b1_cbr1_bn"
  type: "BatchNorm"
  bottom: "L1_b1_cbr1_conv_top"
  top: "L1_b1_cbr1_bn_top"
  include {
    phase: TRAIN
  }
  batch_norm_param {
    use_global_stats: false
    moving_average_fraction: 0.95
  }
}
layer {
  name: "L1_b1_cbr1_scale"
  type: "Scale"
  bottom: "L1_b1_cbr1_bn_top"
  top: "L1_b1_cbr1_bn_top"
  scale_param {
    bias_term: true
  }
}
layer {
  name: "L1_b1_cbr1_relu"
  type: "ReLU"
  bottom: "L1_b1_cbr1_bn_top"
  top: "L1_b1_cbr1_bn_top"
}
layer {
  name: "L1_b1_cbr2_conv"
  type: "Convolution"
  bottom: "L1_b1_cbr1_bn_top"
  top: "L1_b1_cbr2_conv_top"
  param {
    lr_mult: 1
    decay_mult: 1
  }
  param {
    lr_mult: 2
    decay_mult: 0
  }
  convolution_param {
    num_output: 16
    pad: 1
    kernel_size: 3
    stride: 1
    weight_filler {
      type: "msra"
    }
    bias_filler {
      type: "constant"
    }
  }
}
layer {
  name: "L1_b1_cbr2_bn"
  type: "BatchNorm"
  bottom: "L1_b1_cbr2_conv_top"
  top: "L1_b1_cbr2_bn_top"
  include {
    phase: TRAIN
  }
  batch_norm_param {
    use_global_stats: false
    moving_average_fraction: 0.95
  }
}
layer {
  name: "L1_b1_cbr2_scale"
  type: "Scale"
  bottom: "L1_b1_cbr2_bn_top"
  top: "L1_b1_cbr2_bn_top"
  scale_param {
    bias_term: true
  }
}
layer {
  name: "L1_b1_sum_eltwise"
  type: "Eltwise"
  bottom: "L1_b1_cbr2_bn_top"
  bottom: "pre_bn_top"
  top: "L1_b1_sum_eltwise_top"
  eltwise_param {
    operation: SUM
  }
}
layer {
  name: "L1_b1_relu"
  type: "ReLU"
  bottom: "L1_b1_sum_eltwise_top"
  top: "L1_b1_sum_eltwise_top"
}
layer {
  name: "L1_b2_cbr1_conv"
  type: "Convolution"
  bottom: "L1_b1_sum_eltwise_top"
  top: "L1_b2_cbr1_conv_top"
  param {
    lr_mult: 1
    decay_mult: 1
  }
  param {
    lr_mult: 2
    decay_mult: 0
  }
  convolution_param {
    num_output: 16
    pad: 1
    kernel_size: 3
    stride: 1
    weight_filler {
      type: "msra"
    }
    bias_filler {
      type: "constant"
    }
  }
}
layer {
  name: "L1_b2_cbr1_bn"
  type: "BatchNorm"
  bottom: "L1_b2_cbr1_conv_top"
  top: "L1_b2_cbr1_bn_top"
  include {
    phase: TRAIN
  }
  batch_norm_param {
    use_global_stats: false
    moving_average_fraction: 0.95
  }
}
layer {
  name: "L1_b2_cbr1_scale"
  type: "Scale"
  bottom: "L1_b2_cbr1_bn_top"
  top: "L1_b2_cbr1_bn_top"
  scale_param {
    bias_term: true
  }
}
layer {
  name: "L1_b2_cbr1_relu"
  type: "ReLU"
  bottom: "L1_b2_cbr1_bn_top"
  top: "L1_b2_cbr1_bn_top"
}
layer {
  name: "L1_b2_cbr2_conv"
  type: "Convolution"
  bottom: "L1_b2_cbr1_bn_top"
  top: "L1_b2_cbr2_conv_top"
  param {
    lr_mult: 1
    decay_mult: 1
  }
  param {
    lr_mult: 2
    decay_mult: 0
  }
  convolution_param {
    num_output: 16
    pad: 1
    kernel_size: 3
    stride: 1
    weight_filler {
      type: "msra"
    }
    bias_filler {
      type: "constant"
    }
  }
}
layer {
  name: "L1_b2_cbr2_bn"
  type: "BatchNorm"
  bottom: "L1_b2_cbr2_conv_top"
  top: "L1_b2_cbr2_bn_top"
  include {
    phase: TRAIN
  }
  batch_norm_param {
    use_global_stats: false
    moving_average_fraction: 0.95
  }
}
layer {
  name: "L1_b2_cbr2_scale"
  type: "Scale"
  bottom: "L1_b2_cbr2_bn_top"
  top: "L1_b2_cbr2_bn_top"
  scale_param {
    bias_term: true
  }
}
layer {
  name: "L1_b2_sum_eltwise"
  type: "Eltwise"
  bottom: "L1_b2_cbr2_bn_top"
  bottom: "L1_b1_sum_eltwise_top"
  top: "L1_b2_sum_eltwise_top"
  eltwise_param {
    operation: SUM
  }
}
layer {
  name: "L1_b2_relu"
  type: "ReLU"
  bottom: "L1_b2_sum_eltwise_top"
  top: "L1_b2_sum_eltwise_top"
}
layer {
  name: "L1_b3_cbr1_conv"
  type: "Convolution"
  bottom: "L1_b2_sum_eltwise_top"
  top: "L1_b3_cbr1_conv_top"
  param {
    lr_mult: 1
    decay_mult: 1
  }
  param {
    lr_mult: 2
    decay_mult: 0
  }
  convolution_param {
    num_output: 16
    pad: 1
    kernel_size: 3
    stride: 1
    weight_filler {
      type: "msra"
    }
    bias_filler {
      type: "constant"
    }
  }
}
layer {
  name: "L1_b3_cbr1_bn"
  type: "BatchNorm"
  bottom: "L1_b3_cbr1_conv_top"
  top: "L1_b3_cbr1_bn_top"
  include {
    phase: TRAIN
  }
  batch_norm_param {
    use_global_stats: false
    moving_average_fraction: 0.95
  }
}
layer {
  name: "L1_b3_cbr1_scale"
  type: "Scale"
  bottom: "L1_b3_cbr1_bn_top"
  top: "L1_b3_cbr1_bn_top"
  scale_param {
    bias_term: true
  }
}
layer {
  name: "L1_b3_cbr1_relu"
  type: "ReLU"
  bottom: "L1_b3_cbr1_bn_top"
  top: "L1_b3_cbr1_bn_top"
}
layer {
  name: "L1_b3_cbr2_conv"
  type: "Convolution"
  bottom: "L1_b3_cbr1_bn_top"
  top: "L1_b3_cbr2_conv_top"
  param {
    lr_mult: 1
    decay_mult: 1
  }
  param {
    lr_mult: 2
    decay_mult: 0
  }
  convolution_param {
    num_output: 16
    pad: 1
    kernel_size: 3
    stride: 1
    weight_filler {
      type: "msra"
    }
    bias_filler {
      type: "constant"
    }
  }
}
layer {
  name: "L1_b3_cbr2_bn"
  type: "BatchNorm"
  bottom: "L1_b3_cbr2_conv_top"
  top: "L1_b3_cbr2_bn_top"
  include {
    phase: TRAIN
  }
  batch_norm_param {
    use_global_stats: false
    moving_average_fraction: 0.95
  }
}
layer {
  name: "L1_b3_cbr2_scale"
  type: "Scale"
  bottom: "L1_b3_cbr2_bn_top"
  top: "L1_b3_cbr2_bn_top"
  scale_param {
    bias_term: true
  }
}
layer {
  name: "L1_b3_sum_eltwise"
  type: "Eltwise"
  bottom: "L1_b3_cbr2_bn_top"
  bottom: "L1_b2_sum_eltwise_top"
  top: "L1_b3_sum_eltwise_top"
  eltwise_param {
    operation: SUM
  }
}
layer {
  name: "L1_b3_relu"
  type: "ReLU"
  bottom: "L1_b3_sum_eltwise_top"
  top: "L1_b3_sum_eltwise_top"
}
layer {
  name: "L1_b4_cbr1_conv"
  type: "Convolution"
  bottom: "L1_b3_sum_eltwise_top"
  top: "L1_b4_cbr1_conv_top"
  param {
    lr_mult: 1
    decay_mult: 1
  }
  param {
    lr_mult: 2
    decay_mult: 0
  }
  convolution_param {
    num_output: 16
    pad: 1
    kernel_size: 3
    stride: 1
    weight_filler {
      type: "msra"
    }
    bias_filler {
      type: "constant"
    }
  }
}
layer {
  name: "L1_b4_cbr1_bn"
  type: "BatchNorm"
  bottom: "L1_b4_cbr1_conv_top"
  top: "L1_b4_cbr1_bn_top"
  include {
    phase: TRAIN
  }
  batch_norm_param {
    use_global_stats: false
    moving_average_fraction: 0.95
  }
}
layer {
  name: "L1_b4_cbr1_scale"
  type: "Scale"
  bottom: "L1_b4_cbr1_bn_top"
  top: "L1_b4_cbr1_bn_top"
  scale_param {
    bias_term: true
  }
}
layer {
  name: "L1_b4_cbr1_relu"
  type: "ReLU"
  bottom: "L1_b4_cbr1_bn_top"
  top: "L1_b4_cbr1_bn_top"
}
layer {
  name: "L1_b4_cbr2_conv"
  type: "Convolution"
  bottom: "L1_b4_cbr1_bn_top"
  top: "L1_b4_cbr2_conv_top"
  param {
    lr_mult: 1
    decay_mult: 1
  }
  param {
    lr_mult: 2
    decay_mult: 0
  }
  convolution_param {
    num_output: 16
    pad: 1
    kernel_size: 3
    stride: 1
    weight_filler {
      type: "msra"
    }
    bias_filler {
      type: "constant"
    }
  }
}
layer {
  name: "L1_b4_cbr2_bn"
  type: "BatchNorm"
  bottom: "L1_b4_cbr2_conv_top"
  top: "L1_b4_cbr2_bn_top"
  include {
    phase: TRAIN
  }
  batch_norm_param {
    use_global_stats: false
    moving_average_fraction: 0.95
  }
}
layer {
  name: "L1_b4_cbr2_scale"
  type: "Scale"
  bottom: "L1_b4_cbr2_bn_top"
  top: "L1_b4_cbr2_bn_top"
  scale_param {
    bias_term: true
  }
}
layer {
  name: "L1_b4_sum_eltwise"
  type: "Eltwise"
  bottom: "L1_b4_cbr2_bn_top"
  bottom: "L1_b3_sum_eltwise_top"
  top: "L1_b4_sum_eltwise_top"
  eltwise_param {
    operation: SUM
  }
}
layer {
  name: "L1_b4_relu"
  type: "ReLU"
  bottom: "L1_b4_sum_eltwise_top"
  top: "L1_b4_sum_eltwise_top"
}
layer {
  name: "L1_b5_cbr1_conv"
  type: "Convolution"
  bottom: "L1_b4_sum_eltwise_top"
  top: "L1_b5_cbr1_conv_top"
  param {
    lr_mult: 1
    decay_mult: 1
  }
  param {
    lr_mult: 2
    decay_mult: 0
  }
  convolution_param {
    num_output: 16
    pad: 1
    kernel_size: 3
    stride: 1
    weight_filler {
      type: "msra"
    }
    bias_filler {
      type: "constant"
    }
  }
}
layer {
  name: "L1_b5_cbr1_bn"
  type: "BatchNorm"
  bottom: "L1_b5_cbr1_conv_top"
  top: "L1_b5_cbr1_bn_top"
  include {
    phase: TRAIN
  }
  batch_norm_param {
    use_global_stats: false
    moving_average_fraction: 0.95
  }
}
layer {
  name: "L1_b5_cbr1_scale"
  type: "Scale"
  bottom: "L1_b5_cbr1_bn_top"
  top: "L1_b5_cbr1_bn_top"
  scale_param {
    bias_term: true
  }
}
layer {
  name: "L1_b5_cbr1_relu"
  type: "ReLU"
  bottom: "L1_b5_cbr1_bn_top"
  top: "L1_b5_cbr1_bn_top"
}
layer {
  name: "L1_b5_cbr2_conv"
  type: "Convolution"
  bottom: "L1_b5_cbr1_bn_top"
  top: "L1_b5_cbr2_conv_top"
  param {
    lr_mult: 1
    decay_mult: 1
  }
  param {
    lr_mult: 2
    decay_mult: 0
  }
  convolution_param {
    num_output: 16
    pad: 1
    kernel_size: 3
    stride: 1
    weight_filler {
      type: "msra"
    }
    bias_filler {
      type: "constant"
    }
  }
}
layer {
  name: "L1_b5_cbr2_bn"
  type: "BatchNorm"
  bottom: "L1_b5_cbr2_conv_top"
  top: "L1_b5_cbr2_bn_top"
  include {
    phase: TRAIN
  }
  batch_norm_param {
    use_global_stats: false
    moving_average_fraction: 0.95
  }
}
layer {
  name: "L1_b5_cbr2_scale"
  type: "Scale"
  bottom: "L1_b5_cbr2_bn_top"
  top: "L1_b5_cbr2_bn_top"
  scale_param {
    bias_term: true
  }
}
layer {
  name: "L1_b5_sum_eltwise"
  type: "Eltwise"
  bottom: "L1_b5_cbr2_bn_top"
  bottom: "L1_b4_sum_eltwise_top"
  top: "L1_b5_sum_eltwise_top"
  eltwise_param {
    operation: SUM
  }
}
layer {
  name: "L1_b5_relu"
  type: "ReLU"
  bottom: "L1_b5_sum_eltwise_top"
  top: "L1_b5_sum_eltwise_top"
}
layer {
  name: "L1_b6_cbr1_conv"
  type: "Convolution"
  bottom: "L1_b5_sum_eltwise_top"
  top: "L1_b6_cbr1_conv_top"
  param {
    lr_mult: 1
    decay_mult: 1
  }
  param {
    lr_mult: 2
    decay_mult: 0
  }
  convolution_param {
    num_output: 16
    pad: 1
    kernel_size: 3
    stride: 1
    weight_filler {
      type: "msra"
    }
    bias_filler {
      type: "constant"
    }
  }
}
layer {
  name: "L1_b6_cbr1_bn"
  type: "BatchNorm"
  bottom: "L1_b6_cbr1_conv_top"
  top: "L1_b6_cbr1_bn_top"
  include {
    phase: TRAIN
  }
  batch_norm_param {
    use_global_stats: false
    moving_average_fraction: 0.95
  }
}
layer {
  name: "L1_b6_cbr1_scale"
  type: "Scale"
  bottom: "L1_b6_cbr1_bn_top"
  top: "L1_b6_cbr1_bn_top"
  scale_param {
    bias_term: true
  }
}
layer {
  name: "L1_b6_cbr1_relu"
  type: "ReLU"
  bottom: "L1_b6_cbr1_bn_top"
  top: "L1_b6_cbr1_bn_top"
}
layer {
  name: "L1_b6_cbr2_conv"
  type: "Convolution"
  bottom: "L1_b6_cbr1_bn_top"
  top: "L1_b6_cbr2_conv_top"
  param {
    lr_mult: 1
    decay_mult: 1
  }
  param {
    lr_mult: 2
    decay_mult: 0
  }
  convolution_param {
    num_output: 16
    pad: 1
    kernel_size: 3
    stride: 1
    weight_filler {
      type: "msra"
    }
    bias_filler {
      type: "constant"
    }
  }
}
layer {
  name: "L1_b6_cbr2_bn"
  type: "BatchNorm"
  bottom: "L1_b6_cbr2_conv_top"
  top: "L1_b6_cbr2_bn_top"
  include {
    phase: TRAIN
  }
  batch_norm_param {
    use_global_stats: false
    moving_average_fraction: 0.95
  }
}
layer {
  name: "L1_b6_cbr2_scale"
  type: "Scale"
  bottom: "L1_b6_cbr2_bn_top"
  top: "L1_b6_cbr2_bn_top"
  scale_param {
    bias_term: true
  }
}
layer {
  name: "L1_b6_sum_eltwise"
  type: "Eltwise"
  bottom: "L1_b6_cbr2_bn_top"
  bottom: "L1_b5_sum_eltwise_top"
  top: "L1_b6_sum_eltwise_top"
  eltwise_param {
    operation: SUM
  }
}
layer {
  name: "L1_b6_relu"
  type: "ReLU"
  bottom: "L1_b6_sum_eltwise_top"
  top: "L1_b6_sum_eltwise_top"
}
layer {
  name: "L1_b7_cbr1_conv"
  type: "Convolution"
  bottom: "L1_b6_sum_eltwise_top"
  top: "L1_b7_cbr1_conv_top"
  param {
    lr_mult: 1
    decay_mult: 1
  }
  param {
    lr_mult: 2
    decay_mult: 0
  }
  convolution_param {
    num_output: 16
    pad: 1
    kernel_size: 3
    stride: 1
    weight_filler {
      type: "msra"
    }
    bias_filler {
      type: "constant"
    }
  }
}
layer {
  name: "L1_b7_cbr1_bn"
  type: "BatchNorm"
  bottom: "L1_b7_cbr1_conv_top"
  top: "L1_b7_cbr1_bn_top"
  include {
    phase: TRAIN
  }
  batch_norm_param {
    use_global_stats: false
    moving_average_fraction: 0.95
  }
}
layer {
  name: "L1_b7_cbr1_scale"
  type: "Scale"
  bottom: "L1_b7_cbr1_bn_top"
  top: "L1_b7_cbr1_bn_top"
  scale_param {
    bias_term: true
  }
}
layer {
  name: "L1_b7_cbr1_relu"
  type: "ReLU"
  bottom: "L1_b7_cbr1_bn_top"
  top: "L1_b7_cbr1_bn_top"
}
layer {
  name: "L1_b7_cbr2_conv"
  type: "Convolution"
  bottom: "L1_b7_cbr1_bn_top"
  top: "L1_b7_cbr2_conv_top"
  param {
    lr_mult: 1
    decay_mult: 1
  }
  param {
    lr_mult: 2
    decay_mult: 0
  }
  convolution_param {
    num_output: 16
    pad: 1
    kernel_size: 3
    stride: 1
    weight_filler {
      type: "msra"
    }
    bias_filler {
      type: "constant"
    }
  }
}
layer {
  name: "L1_b7_cbr2_bn"
  type: "BatchNorm"
  bottom: "L1_b7_cbr2_conv_top"
  top: "L1_b7_cbr2_bn_top"
  include {
    phase: TRAIN
  }
  batch_norm_param {
    use_global_stats: false
    moving_average_fraction: 0.95
  }
}
layer {
  name: "L1_b7_cbr2_scale"
  type: "Scale"
  bottom: "L1_b7_cbr2_bn_top"
  top: "L1_b7_cbr2_bn_top"
  scale_param {
    bias_term: true
  }
}
layer {
  name: "L1_b7_sum_eltwise"
  type: "Eltwise"
  bottom: "L1_b7_cbr2_bn_top"
  bottom: "L1_b6_sum_eltwise_top"
  top: "L1_b7_sum_eltwise_top"
  eltwise_param {
    operation: SUM
  }
}
layer {
  name: "L1_b7_relu"
  type: "ReLU"
  bottom: "L1_b7_sum_eltwise_top"
  top: "L1_b7_sum_eltwise_top"
}
layer {
  name: "L1_b8_cbr1_conv"
  type: "Convolution"
  bottom: "L1_b7_sum_eltwise_top"
  top: "L1_b8_cbr1_conv_top"
  param {
    lr_mult: 1
    decay_mult: 1
  }
  param {
    lr_mult: 2
    decay_mult: 0
  }
  convolution_param {
    num_output: 16
    pad: 1
    kernel_size: 3
    stride: 1
    weight_filler {
      type: "msra"
    }
    bias_filler {
      type: "constant"
    }
  }
}
layer {
  name: "L1_b8_cbr1_bn"
  type: "BatchNorm"
  bottom: "L1_b8_cbr1_conv_top"
  top: "L1_b8_cbr1_bn_top"
  include {
    phase: TRAIN
  }
  batch_norm_param {
    use_global_stats: false
    moving_average_fraction: 0.95
  }
}
layer {
  name: "L1_b8_cbr1_scale"
  type: "Scale"
  bottom: "L1_b8_cbr1_bn_top"
  top: "L1_b8_cbr1_bn_top"
  scale_param {
    bias_term: true
  }
}
layer {
  name: "L1_b8_cbr1_relu"
  type: "ReLU"
  bottom: "L1_b8_cbr1_bn_top"
  top: "L1_b8_cbr1_bn_top"
}
layer {
  name: "L1_b8_cbr2_conv"
  type: "Convolution"
  bottom: "L1_b8_cbr1_bn_top"
  top: "L1_b8_cbr2_conv_top"
  param {
    lr_mult: 1
    decay_mult: 1
  }
  param {
    lr_mult: 2
    decay_mult: 0
  }
  convolution_param {
    num_output: 16
    pad: 1
    kernel_size: 3
    stride: 1
    weight_filler {
      type: "msra"
    }
    bias_filler {
      type: "constant"
    }
  }
}
layer {
  name: "L1_b8_cbr2_bn"
  type: "BatchNorm"
  bottom: "L1_b8_cbr2_conv_top"
  top: "L1_b8_cbr2_bn_top"
  include {
    phase: TRAIN
  }
  batch_norm_param {
    use_global_stats: false
    moving_average_fraction: 0.95
  }
}
layer {
  name: "L1_b8_cbr2_scale"
  type: "Scale"
  bottom: "L1_b8_cbr2_bn_top"
  top: "L1_b8_cbr2_bn_top"
  scale_param {
    bias_term: true
  }
}
layer {
  name: "L1_b8_sum_eltwise"
  type: "Eltwise"
  bottom: "L1_b8_cbr2_bn_top"
  bottom: "L1_b7_sum_eltwise_top"
  top: "L1_b8_sum_eltwise_top"
  eltwise_param {
    operation: SUM
  }
}
layer {
  name: "L1_b8_relu"
  type: "ReLU"
  bottom: "L1_b8_sum_eltwise_top"
  top: "L1_b8_sum_eltwise_top"
}
layer {
  name: "L1_b9_cbr1_conv"
  type: "Convolution"
  bottom: "L1_b8_sum_eltwise_top"
  top: "L1_b9_cbr1_conv_top"
  param {
    lr_mult: 1
    decay_mult: 1
  }
  param {
    lr_mult: 2
    decay_mult: 0
  }
  convolution_param {
    num_output: 16
    pad: 1
    kernel_size: 3
    stride: 1
    weight_filler {
      type: "msra"
    }
    bias_filler {
      type: "constant"
    }
  }
}
layer {
  name: "L1_b9_cbr1_bn"
  type: "BatchNorm"
  bottom: "L1_b9_cbr1_conv_top"
  top: "L1_b9_cbr1_bn_top"
  include {
    phase: TRAIN
  }
  batch_norm_param {
    use_global_stats: false
    moving_average_fraction: 0.95
  }
}
layer {
  name: "L1_b9_cbr1_scale"
  type: "Scale"
  bottom: "L1_b9_cbr1_bn_top"
  top: "L1_b9_cbr1_bn_top"
  scale_param {
    bias_term: true
  }
}
layer {
  name: "L1_b9_cbr1_relu"
  type: "ReLU"
  bottom: "L1_b9_cbr1_bn_top"
  top: "L1_b9_cbr1_bn_top"
}
layer {
  name: "L1_b9_cbr2_conv"
  type: "Convolution"
  bottom: "L1_b9_cbr1_bn_top"
  top: "L1_b9_cbr2_conv_top"
  param {
    lr_mult: 1
    decay_mult: 1
  }
  param {
    lr_mult: 2
    decay_mult: 0
  }
  convolution_param {
    num_output: 16
    pad: 1
    kernel_size: 3
    stride: 1
    weight_filler {
      type: "msra"
    }
    bias_filler {
      type: "constant"
    }
  }
}
layer {
  name: "L1_b9_cbr2_bn"
  type: "BatchNorm"
  bottom: "L1_b9_cbr2_conv_top"
  top: "L1_b9_cbr2_bn_top"
  include {
    phase: TRAIN
  }
  batch_norm_param {
    use_global_stats: false
    moving_average_fraction: 0.95
  }
}
layer {
  name: "L1_b9_cbr2_scale"
  type: "Scale"
  bottom: "L1_b9_cbr2_bn_top"
  top: "L1_b9_cbr2_bn_top"
  scale_param {
    bias_term: true
  }
}
layer {
  name: "L1_b9_sum_eltwise"
  type: "Eltwise"
  bottom: "L1_b9_cbr2_bn_top"
  bottom: "L1_b8_sum_eltwise_top"
  top: "L1_b9_sum_eltwise_top"
  eltwise_param {
    operation: SUM
  }
}
layer {
  name: "L1_b9_relu"
  type: "ReLU"
  bottom: "L1_b9_sum_eltwise_top"
  top: "L1_b9_sum_eltwise_top"
}
layer {
  name: "L2_b1_cbr1_conv"
  type: "Convolution"
  bottom: "L1_b9_sum_eltwise_top"
  top: "L2_b1_cbr1_conv_top"
  param {
    lr_mult: 1
    decay_mult: 1
  }
  param {
    lr_mult: 2
    decay_mult: 0
  }
  convolution_param {
    num_output: 16
    pad: 1
    kernel_size: 3
    stride: 2
    weight_filler {
      type: "msra"
    }
    bias_filler {
      type: "constant"
    }
  }
}
layer {
  name: "L2_b1_cbr1_bn"
  type: "BatchNorm"
  bottom: "L2_b1_cbr1_conv_top"
  top: "L2_b1_cbr1_bn_top"
  include {
    phase: TRAIN
  }
  batch_norm_param {
    use_global_stats: false
    moving_average_fraction: 0.95
  }
}
layer {
  name: "L2_b1_cbr1_scale"
  type: "Scale"
  bottom: "L2_b1_cbr1_bn_top"
  top: "L2_b1_cbr1_bn_top"
  scale_param {
    bias_term: true
  }
}
layer {
  name: "L2_b1_cbr1_relu"
  type: "ReLU"
  bottom: "L2_b1_cbr1_bn_top"
  top: "L2_b1_cbr1_bn_top"
}
layer {
  name: "L2_b1_cbr2_conv"
  type: "Convolution"
  bottom: "L2_b1_cbr1_bn_top"
  top: "L2_b1_cbr2_conv_top"
  param {
    lr_mult: 1
    decay_mult: 1
  }
  param {
    lr_mult: 2
    decay_mult: 0
  }
  convolution_param {
    num_output: 16
    pad: 1
    kernel_size: 3
    stride: 1
    weight_filler {
      type: "msra"
    }
    bias_filler {
      type: "constant"
    }
  }
}
layer {
  name: "L2_b1_cbr2_bn"
  type: "BatchNorm"
  bottom: "L2_b1_cbr2_conv_top"
  top: "L2_b1_cbr2_bn_top"
  include {
    phase: TRAIN
  }
  batch_norm_param {
    use_global_stats: false
    moving_average_fraction: 0.95
  }
}
layer {
  name: "L2_b1_cbr2_scale"
  type: "Scale"
  bottom: "L2_b1_cbr2_bn_top"
  top: "L2_b1_cbr2_bn_top"
  scale_param {
    bias_term: true
  }
}
layer {
  name: "L2_b1_pool"
  type: "Pooling"
  bottom: "L1_b9_sum_eltwise_top"
  top: "L2_b1_pool"
  pooling_param {
    pool: AVE
    kernel_size: 3
    stride: 2
  }
}
layer {
  name: "L2_b1_sum_eltwise"
  type: "Eltwise"
  bottom: "L2_b1_cbr2_bn_top"
  bottom: "L2_b1_pool"
  top: "L2_b1_sum_eltwise_top"
  eltwise_param {
    operation: SUM
  }
}
layer {
  name: "L2_b1_relu"
  type: "ReLU"
  bottom: "L2_b1_sum_eltwise_top"
  top: "L2_b1_sum_eltwise_top"
}
layer {
  name: "L2_b1_zeros"
  type: "DummyData"
  top: "L2_b1_zeros"
  dummy_data_param {
    data_filler {
      type: "constant"
      value: 0
    }
    shape {
      dim: 125
      dim: 16
      dim: 16
      dim: 16
    }
  }
}
layer {
  name: "L2_b1_concat0"
  type: "Concat"
  bottom: "L2_b1_sum_eltwise_top"
  bottom: "L2_b1_zeros"
  top: "L2_b1_concat0"
  concat_param {
    axis: 1
  }
}
layer {
  name: "L2_b2_cbr1_conv"
  type: "Convolution"
  bottom: "L2_b1_concat0"
  top: "L2_b2_cbr1_conv_top"
  param {
    lr_mult: 1
    decay_mult: 1
  }
  param {
    lr_mult: 2
    decay_mult: 0
  }
  convolution_param {
    num_output: 32
    pad: 1
    kernel_size: 3
    stride: 1
    weight_filler {
      type: "msra"
    }
    bias_filler {
      type: "constant"
    }
  }
}
layer {
  name: "L2_b2_cbr1_bn"
  type: "BatchNorm"
  bottom: "L2_b2_cbr1_conv_top"
  top: "L2_b2_cbr1_bn_top"
  include {
    phase: TRAIN
  }
  batch_norm_param {
    use_global_stats: false
    moving_average_fraction: 0.95
  }
}
layer {
  name: "L2_b2_cbr1_scale"
  type: "Scale"
  bottom: "L2_b2_cbr1_bn_top"
  top: "L2_b2_cbr1_bn_top"
  scale_param {
    bias_term: true
  }
}
layer {
  name: "L2_b2_cbr1_relu"
  type: "ReLU"
  bottom: "L2_b2_cbr1_bn_top"
  top: "L2_b2_cbr1_bn_top"
}
layer {
  name: "L2_b2_cbr2_conv"
  type: "Convolution"
  bottom: "L2_b2_cbr1_bn_top"
  top: "L2_b2_cbr2_conv_top"
  param {
    lr_mult: 1
    decay_mult: 1
  }
  param {
    lr_mult: 2
    decay_mult: 0
  }
  convolution_param {
    num_output: 32
    pad: 1
    kernel_size: 3
    stride: 1
    weight_filler {
      type: "msra"
    }
    bias_filler {
      type: "constant"
    }
  }
}
layer {
  name: "L2_b2_cbr2_bn"
  type: "BatchNorm"
  bottom: "L2_b2_cbr2_conv_top"
  top: "L2_b2_cbr2_bn_top"
  include {
    phase: TRAIN
  }
  batch_norm_param {
    use_global_stats: false
    moving_average_fraction: 0.95
  }
}
layer {
  name: "L2_b2_cbr2_scale"
  type: "Scale"
  bottom: "L2_b2_cbr2_bn_top"
  top: "L2_b2_cbr2_bn_top"
  scale_param {
    bias_term: true
  }
}
layer {
  name: "L2_b2_sum_eltwise"
  type: "Eltwise"
  bottom: "L2_b2_cbr2_bn_top"
  bottom: "L2_b1_concat0"
  top: "L2_b2_sum_eltwise_top"
  eltwise_param {
    operation: SUM
  }
}
layer {
  name: "L2_b2_relu"
  type: "ReLU"
  bottom: "L2_b2_sum_eltwise_top"
  top: "L2_b2_sum_eltwise_top"
}
layer {
  name: "L2_b3_cbr1_conv"
  type: "Convolution"
  bottom: "L2_b2_sum_eltwise_top"
  top: "L2_b3_cbr1_conv_top"
  param {
    lr_mult: 1
    decay_mult: 1
  }
  param {
    lr_mult: 2
    decay_mult: 0
  }
  convolution_param {
    num_output: 32
    pad: 1
    kernel_size: 3
    stride: 1
    weight_filler {
      type: "msra"
    }
    bias_filler {
      type: "constant"
    }
  }
}
layer {
  name: "L2_b3_cbr1_bn"
  type: "BatchNorm"
  bottom: "L2_b3_cbr1_conv_top"
  top: "L2_b3_cbr1_bn_top"
  include {
    phase: TRAIN
  }
  batch_norm_param {
    use_global_stats: false
    moving_average_fraction: 0.95
  }
}
layer {
  name: "L2_b3_cbr1_scale"
  type: "Scale"
  bottom: "L2_b3_cbr1_bn_top"
  top: "L2_b3_cbr1_bn_top"
  scale_param {
    bias_term: true
  }
}
layer {
  name: "L2_b3_cbr1_relu"
  type: "ReLU"
  bottom: "L2_b3_cbr1_bn_top"
  top: "L2_b3_cbr1_bn_top"
}
layer {
  name: "L2_b3_cbr2_conv"
  type: "Convolution"
  bottom: "L2_b3_cbr1_bn_top"
  top: "L2_b3_cbr2_conv_top"
  param {
    lr_mult: 1
    decay_mult: 1
  }
  param {
    lr_mult: 2
    decay_mult: 0
  }
  convolution_param {
    num_output: 32
    pad: 1
    kernel_size: 3
    stride: 1
    weight_filler {
      type: "msra"
    }
    bias_filler {
      type: "constant"
    }
  }
}
layer {
  name: "L2_b3_cbr2_bn"
  type: "BatchNorm"
  bottom: "L2_b3_cbr2_conv_top"
  top: "L2_b3_cbr2_bn_top"
  include {
    phase: TRAIN
  }
  batch_norm_param {
    use_global_stats: false
    moving_average_fraction: 0.95
  }
}
layer {
  name: "L2_b3_cbr2_scale"
  type: "Scale"
  bottom: "L2_b3_cbr2_bn_top"
  top: "L2_b3_cbr2_bn_top"
  scale_param {
    bias_term: true
  }
}
layer {
  name: "L2_b3_sum_eltwise"
  type: "Eltwise"
  bottom: "L2_b3_cbr2_bn_top"
  bottom: "L2_b2_sum_eltwise_top"
  top: "L2_b3_sum_eltwise_top"
  eltwise_param {
    operation: SUM
  }
}
layer {
  name: "L2_b3_relu"
  type: "ReLU"
  bottom: "L2_b3_sum_eltwise_top"
  top: "L2_b3_sum_eltwise_top"
}
layer {
  name: "L2_b4_cbr1_conv"
  type: "Convolution"
  bottom: "L2_b3_sum_eltwise_top"
  top: "L2_b4_cbr1_conv_top"
  param {
    lr_mult: 1
    decay_mult: 1
  }
  param {
    lr_mult: 2
    decay_mult: 0
  }
  convolution_param {
    num_output: 32
    pad: 1
    kernel_size: 3
    stride: 1
    weight_filler {
      type: "msra"
    }
    bias_filler {
      type: "constant"
    }
  }
}
layer {
  name: "L2_b4_cbr1_bn"
  type: "BatchNorm"
  bottom: "L2_b4_cbr1_conv_top"
  top: "L2_b4_cbr1_bn_top"
  include {
    phase: TRAIN
  }
  batch_norm_param {
    use_global_stats: false
    moving_average_fraction: 0.95
  }
}
layer {
  name: "L2_b4_cbr1_scale"
  type: "Scale"
  bottom: "L2_b4_cbr1_bn_top"
  top: "L2_b4_cbr1_bn_top"
  scale_param {
    bias_term: true
  }
}
layer {
  name: "L2_b4_cbr1_relu"
  type: "ReLU"
  bottom: "L2_b4_cbr1_bn_top"
  top: "L2_b4_cbr1_bn_top"
}
layer {
  name: "L2_b4_cbr2_conv"
  type: "Convolution"
  bottom: "L2_b4_cbr1_bn_top"
  top: "L2_b4_cbr2_conv_top"
  param {
    lr_mult: 1
    decay_mult: 1
  }
  param {
    lr_mult: 2
    decay_mult: 0
  }
  convolution_param {
    num_output: 32
    pad: 1
    kernel_size: 3
    stride: 1
    weight_filler {
      type: "msra"
    }
    bias_filler {
      type: "constant"
    }
  }
}
layer {
  name: "L2_b4_cbr2_bn"
  type: "BatchNorm"
  bottom: "L2_b4_cbr2_conv_top"
  top: "L2_b4_cbr2_bn_top"
  include {
    phase: TRAIN
  }
  batch_norm_param {
    use_global_stats: false
    moving_average_fraction: 0.95
  }
}
layer {
  name: "L2_b4_cbr2_scale"
  type: "Scale"
  bottom: "L2_b4_cbr2_bn_top"
  top: "L2_b4_cbr2_bn_top"
  scale_param {
    bias_term: true
  }
}
layer {
  name: "L2_b4_sum_eltwise"
  type: "Eltwise"
  bottom: "L2_b4_cbr2_bn_top"
  bottom: "L2_b3_sum_eltwise_top"
  top: "L2_b4_sum_eltwise_top"
  eltwise_param {
    operation: SUM
  }
}
layer {
  name: "L2_b4_relu"
  type: "ReLU"
  bottom: "L2_b4_sum_eltwise_top"
  top: "L2_b4_sum_eltwise_top"
}
layer {
  name: "L2_b5_cbr1_conv"
  type: "Convolution"
  bottom: "L2_b4_sum_eltwise_top"
  top: "L2_b5_cbr1_conv_top"
  param {
    lr_mult: 1
    decay_mult: 1
  }
  param {
    lr_mult: 2
    decay_mult: 0
  }
  convolution_param {
    num_output: 32
    pad: 1
    kernel_size: 3
    stride: 1
    weight_filler {
      type: "msra"
    }
    bias_filler {
      type: "constant"
    }
  }
}
layer {
  name: "L2_b5_cbr1_bn"
  type: "BatchNorm"
  bottom: "L2_b5_cbr1_conv_top"
  top: "L2_b5_cbr1_bn_top"
  include {
    phase: TRAIN
  }
  batch_norm_param {
    use_global_stats: false
    moving_average_fraction: 0.95
  }
}
layer {
  name: "L2_b5_cbr1_scale"
  type: "Scale"
  bottom: "L2_b5_cbr1_bn_top"
  top: "L2_b5_cbr1_bn_top"
  scale_param {
    bias_term: true
  }
}
layer {
  name: "L2_b5_cbr1_relu"
  type: "ReLU"
  bottom: "L2_b5_cbr1_bn_top"
  top: "L2_b5_cbr1_bn_top"
}
layer {
  name: "L2_b5_cbr2_conv"
  type: "Convolution"
  bottom: "L2_b5_cbr1_bn_top"
  top: "L2_b5_cbr2_conv_top"
  param {
    lr_mult: 1
    decay_mult: 1
  }
  param {
    lr_mult: 2
    decay_mult: 0
  }
  convolution_param {
    num_output: 32
    pad: 1
    kernel_size: 3
    stride: 1
    weight_filler {
      type: "msra"
    }
    bias_filler {
      type: "constant"
    }
  }
}
layer {
  name: "L2_b5_cbr2_bn"
  type: "BatchNorm"
  bottom: "L2_b5_cbr2_conv_top"
  top: "L2_b5_cbr2_bn_top"
  include {
    phase: TRAIN
  }
  batch_norm_param {
    use_global_stats: false
    moving_average_fraction: 0.95
  }
}
layer {
  name: "L2_b5_cbr2_scale"
  type: "Scale"
  bottom: "L2_b5_cbr2_bn_top"
  top: "L2_b5_cbr2_bn_top"
  scale_param {
    bias_term: true
  }
}
layer {
  name: "L2_b5_sum_eltwise"
  type: "Eltwise"
  bottom: "L2_b5_cbr2_bn_top"
  bottom: "L2_b4_sum_eltwise_top"
  top: "L2_b5_sum_eltwise_top"
  eltwise_param {
    operation: SUM
  }
}
layer {
  name: "L2_b5_relu"
  type: "ReLU"
  bottom: "L2_b5_sum_eltwise_top"
  top: "L2_b5_sum_eltwise_top"
}
layer {
  name: "L2_b6_cbr1_conv"
  type: "Convolution"
  bottom: "L2_b5_sum_eltwise_top"
  top: "L2_b6_cbr1_conv_top"
  param {
    lr_mult: 1
    decay_mult: 1
  }
  param {
    lr_mult: 2
    decay_mult: 0
  }
  convolution_param {
    num_output: 32
    pad: 1
    kernel_size: 3
    stride: 1
    weight_filler {
      type: "msra"
    }
    bias_filler {
      type: "constant"
    }
  }
}
layer {
  name: "L2_b6_cbr1_bn"
  type: "BatchNorm"
  bottom: "L2_b6_cbr1_conv_top"
  top: "L2_b6_cbr1_bn_top"
  include {
    phase: TRAIN
  }
  batch_norm_param {
    use_global_stats: false
    moving_average_fraction: 0.95
  }
}
layer {
  name: "L2_b6_c
I0821 06:45:14.693069 31846 layer_factory.hpp:77] Creating layer dataLayer
I0821 06:45:14.694305 31846 net.cpp:100] Creating Layer dataLayer
I0821 06:45:14.694387 31846 net.cpp:408] dataLayer -> data_top
I0821 06:45:14.694598 31846 net.cpp:408] dataLayer -> label
I0821 06:45:14.694727 31846 data_transformer.cpp:25] Loading mean file from: examples/cifar10/mean.binaryproto
I0821 06:45:14.803741 31851 db_lmdb.cpp:35] Opened lmdb examples/cifar10/cifar10_train_lmdb
I0821 06:45:14.979378 31846 data_layer.cpp:41] output data size: 125,3,32,32
I0821 06:45:14.986333 31846 net.cpp:150] Setting up dataLayer
I0821 06:45:14.986397 31846 net.cpp:157] Top shape: 125 3 32 32 (384000)
I0821 06:45:14.986409 31846 net.cpp:157] Top shape: 125 (125)
I0821 06:45:14.986414 31846 net.cpp:165] Memory required for data: 1536500
I0821 06:45:14.986438 31846 layer_factory.hpp:77] Creating layer label_dataLayer_1_split
I0821 06:45:14.986454 31846 net.cpp:100] Creating Layer label_dataLayer_1_split
I0821 06:45:14.986464 31846 net.cpp:434] label_dataLayer_1_split <- label
I0821 06:45:14.986488 31846 net.cpp:408] label_dataLayer_1_split -> label_dataLayer_1_split_0
I0821 06:45:14.986507 31846 net.cpp:408] label_dataLayer_1_split -> label_dataLayer_1_split_1
I0821 06:45:14.986577 31846 net.cpp:150] Setting up label_dataLayer_1_split
I0821 06:45:14.986593 31846 net.cpp:157] Top shape: 125 (125)
I0821 06:45:14.986599 31846 net.cpp:157] Top shape: 125 (125)
I0821 06:45:14.986604 31846 net.cpp:165] Memory required for data: 1537500
I0821 06:45:14.986610 31846 layer_factory.hpp:77] Creating layer pre_conv
I0821 06:45:14.986673 31846 net.cpp:100] Creating Layer pre_conv
I0821 06:45:14.986685 31846 net.cpp:434] pre_conv <- data_top
I0821 06:45:14.986696 31846 net.cpp:408] pre_conv -> pre_conv_top
I0821 06:45:14.989073 31852 blocking_queue.cpp:50] Waiting for data
I0821 06:45:14.997246 31846 net.cpp:150] Setting up pre_conv
I0821 06:45:14.997274 31846 net.cpp:157] Top shape: 125 16 32 32 (2048000)
I0821 06:45:14.997282 31846 net.cpp:165] Memory required for data: 9729500
I0821 06:45:14.997355 31846 layer_factory.hpp:77] Creating layer pre_bn
I0821 06:45:15.004544 31846 net.cpp:100] Creating Layer pre_bn
I0821 06:45:15.004565 31846 net.cpp:434] pre_bn <- pre_conv_top
I0821 06:45:15.004581 31846 net.cpp:408] pre_bn -> pre_bn_top
I0821 06:45:15.004904 31846 net.cpp:150] Setting up pre_bn
I0821 06:45:15.004920 31846 net.cpp:157] Top shape: 125 16 32 32 (2048000)
I0821 06:45:15.004926 31846 net.cpp:165] Memory required for data: 17921500
I0821 06:45:15.004943 31846 layer_factory.hpp:77] Creating layer pre_scale
I0821 06:45:15.005002 31846 net.cpp:100] Creating Layer pre_scale
I0821 06:45:15.005013 31846 net.cpp:434] pre_scale <- pre_bn_top
I0821 06:45:15.005025 31846 net.cpp:395] pre_scale -> pre_bn_top (in-place)
I0821 06:45:15.005208 31846 layer_factory.hpp:77] Creating layer pre_scale
I0821 06:45:15.008476 31846 net.cpp:150] Setting up pre_scale
I0821 06:45:15.008502 31846 net.cpp:157] Top shape: 125 16 32 32 (2048000)
I0821 06:45:15.008508 31846 net.cpp:165] Memory required for data: 26113500
I0821 06:45:15.008520 31846 layer_factory.hpp:77] Creating layer pre_relu
I0821 06:45:15.008575 31846 net.cpp:100] Creating Layer pre_relu
I0821 06:45:15.008585 31846 net.cpp:434] pre_relu <- pre_bn_top
I0821 06:45:15.008594 31846 net.cpp:395] pre_relu -> pre_bn_top (in-place)
I0821 06:45:15.008605 31846 net.cpp:150] Setting up pre_relu
I0821 06:45:15.008613 31846 net.cpp:157] Top shape: 125 16 32 32 (2048000)
I0821 06:45:15.008618 31846 net.cpp:165] Memory required for data: 34305500
I0821 06:45:15.008623 31846 layer_factory.hpp:77] Creating layer pre_bn_top_pre_relu_0_split
I0821 06:45:15.008635 31846 net.cpp:100] Creating Layer pre_bn_top_pre_relu_0_split
I0821 06:45:15.008641 31846 net.cpp:434] pre_bn_top_pre_relu_0_split <- pre_bn_top
I0821 06:45:15.008648 31846 net.cpp:408] pre_bn_top_pre_relu_0_split -> pre_bn_top_pre_relu_0_split_0
I0821 06:45:15.008657 31846 net.cpp:408] pre_bn_top_pre_relu_0_split -> pre_bn_top_pre_relu_0_split_1
I0821 06:45:15.008709 31846 net.cpp:150] Setting up pre_bn_top_pre_relu_0_split
I0821 06:45:15.008723 31846 net.cpp:157] Top shape: 125 16 32 32 (2048000)
I0821 06:45:15.008729 31846 net.cpp:157] Top shape: 125 16 32 32 (2048000)
I0821 06:45:15.008733 31846 net.cpp:165] Memory required for data: 50689500
I0821 06:45:15.008739 31846 layer_factory.hpp:77] Creating layer L1_b1_cbr1_conv
I0821 06:45:15.008751 31846 net.cpp:100] Creating Layer L1_b1_cbr1_conv
I0821 06:45:15.008757 31846 net.cpp:434] L1_b1_cbr1_conv <- pre_bn_top_pre_relu_0_split_0
I0821 06:45:15.008769 31846 net.cpp:408] L1_b1_cbr1_conv -> L1_b1_cbr1_conv_top
I0821 06:45:15.009091 31846 net.cpp:150] Setting up L1_b1_cbr1_conv
I0821 06:45:15.009106 31846 net.cpp:157] Top shape: 125 16 32 32 (2048000)
I0821 06:45:15.009111 31846 net.cpp:165] Memory required for data: 58881500
I0821 06:45:15.009124 31846 layer_factory.hpp:77] Creating layer L1_b1_cbr1_bn
I0821 06:45:15.009136 31846 net.cpp:100] Creating Layer L1_b1_cbr1_bn
I0821 06:45:15.009142 31846 net.cpp:434] L1_b1_cbr1_bn <- L1_b1_cbr1_conv_top
I0821 06:45:15.009160 31846 net.cpp:408] L1_b1_cbr1_bn -> L1_b1_cbr1_bn_top
I0821 06:45:15.009389 31846 net.cpp:150] Setting up L1_b1_cbr1_bn
I0821 06:45:15.009403 31846 net.cpp:157] Top shape: 125 16 32 32 (2048000)
I0821 06:45:15.009408 31846 net.cpp:165] Memory required for data: 67073500
I0821 06:45:15.009419 31846 layer_factory.hpp:77] Creating layer L1_b1_cbr1_scale
I0821 06:45:15.009438 31846 net.cpp:100] Creating Layer L1_b1_cbr1_scale
I0821 06:45:15.009445 31846 net.cpp:434] L1_b1_cbr1_scale <- L1_b1_cbr1_bn_top
I0821 06:45:15.009454 31846 net.cpp:395] L1_b1_cbr1_scale -> L1_b1_cbr1_bn_top (in-place)
I0821 06:45:15.009505 31846 layer_factory.hpp:77] Creating layer L1_b1_cbr1_scale
I0821 06:45:15.009640 31846 net.cpp:150] Setting up L1_b1_cbr1_scale
I0821 06:45:15.009654 31846 net.cpp:157] Top shape: 125 16 32 32 (2048000)
I0821 06:45:15.009658 31846 net.cpp:165] Memory required for data: 75265500
I0821 06:45:15.009667 31846 layer_factory.hpp:77] Creating layer L1_b1_cbr1_relu
I0821 06:45:15.009687 31846 net.cpp:100] Creating Layer L1_b1_cbr1_relu
I0821 06:45:15.009693 31846 net.cpp:434] L1_b1_cbr1_relu <- L1_b1_cbr1_bn_top
I0821 06:45:15.009701 31846 net.cpp:395] L1_b1_cbr1_relu -> L1_b1_cbr1_bn_top (in-place)
I0821 06:45:15.009711 31846 net.cpp:150] Setting up L1_b1_cbr1_relu
I0821 06:45:15.009717 31846 net.cpp:157] Top shape: 125 16 32 32 (2048000)
I0821 06:45:15.009722 31846 net.cpp:165] Memory required for data: 83457500
I0821 06:45:15.009727 31846 layer_factory.hpp:77] Creating layer L1_b1_cbr2_conv
I0821 06:45:15.009742 31846 net.cpp:100] Creating Layer L1_b1_cbr2_conv
I0821 06:45:15.009748 31846 net.cpp:434] L1_b1_cbr2_conv <- L1_b1_cbr1_bn_top
I0821 06:45:15.009759 31846 net.cpp:408] L1_b1_cbr2_conv -> L1_b1_cbr2_conv_top
I0821 06:45:15.010056 31846 net.cpp:150] Setting up L1_b1_cbr2_conv
I0821 06:45:15.010068 31846 net.cpp:157] Top shape: 125 16 32 32 (2048000)
I0821 06:45:15.010073 31846 net.cpp:165] Memory required for data: 91649500
I0821 06:45:15.010082 31846 layer_factory.hpp:77] Creating layer L1_b1_cbr2_bn
I0821 06:45:15.010092 31846 net.cpp:100] Creating Layer L1_b1_cbr2_bn
I0821 06:45:15.010097 31846 net.cpp:434] L1_b1_cbr2_bn <- L1_b1_cbr2_conv_top
I0821 06:45:15.010108 31846 net.cpp:408] L1_b1_cbr2_bn -> L1_b1_cbr2_bn_top
I0821 06:45:15.010336 31846 net.cpp:150] Setting up L1_b1_cbr2_bn
I0821 06:45:15.010349 31846 net.cpp:157] Top shape: 125 16 32 32 (2048000)
I0821 06:45:15.010354 31846 net.cpp:165] Memory required for data: 99841500
I0821 06:45:15.010371 31846 layer_factory.hpp:77] Creating layer L1_b1_cbr2_scale
I0821 06:45:15.010381 31846 net.cpp:100] Creating Layer L1_b1_cbr2_scale
I0821 06:45:15.010387 31846 net.cpp:434] L1_b1_cbr2_scale <- L1_b1_cbr2_bn_top
I0821 06:45:15.010395 31846 net.cpp:395] L1_b1_cbr2_scale -> L1_b1_cbr2_bn_top (in-place)
I0821 06:45:15.010457 31846 layer_factory.hpp:77] Creating layer L1_b1_cbr2_scale
I0821 06:45:15.010594 31846 net.cpp:150] Setting up L1_b1_cbr2_scale
I0821 06:45:15.010608 31846 net.cpp:157] Top shape: 125 16 32 32 (2048000)
I0821 06:45:15.010613 31846 net.cpp:165] Memory required for data: 108033500
I0821 06:45:15.010622 31846 layer_factory.hpp:77] Creating layer L1_b1_sum_eltwise
I0821 06:45:15.010677 31846 net.cpp:100] Creating Layer L1_b1_sum_eltwise
I0821 06:45:15.010690 31846 net.cpp:434] L1_b1_sum_eltwise <- L1_b1_cbr2_bn_top
I0821 06:45:15.010697 31846 net.cpp:434] L1_b1_sum_eltwise <- pre_bn_top_pre_relu_0_split_1
I0821 06:45:15.010709 31846 net.cpp:408] L1_b1_sum_eltwise -> L1_b1_sum_eltwise_top
I0821 06:45:15.010782 31846 net.cpp:150] Setting up L1_b1_sum_eltwise
I0821 06:45:15.010795 31846 net.cpp:157] Top shape: 125 16 32 32 (2048000)
I0821 06:45:15.010800 31846 net.cpp:165] Memory required for data: 116225500
I0821 06:45:15.010807 31846 layer_factory.hpp:77] Creating layer L1_b1_relu
I0821 06:45:15.010818 31846 net.cpp:100] Creating Layer L1_b1_relu
I0821 06:45:15.010825 31846 net.cpp:434] L1_b1_relu <- L1_b1_sum_eltwise_top
I0821 06:45:15.010833 31846 net.cpp:395] L1_b1_relu -> L1_b1_sum_eltwise_top (in-place)
I0821 06:45:15.010841 31846 net.cpp:150] Setting up L1_b1_relu
I0821 06:45:15.010848 31846 net.cpp:157] Top shape: 125 16 32 32 (2048000)
I0821 06:45:15.010854 31846 net.cpp:165] Memory required for data: 124417500
I0821 06:45:15.010859 31846 layer_factory.hpp:77] Creating layer L1_b1_sum_eltwise_top_L1_b1_relu_0_split
I0821 06:45:15.010867 31846 net.cpp:100] Creating Layer L1_b1_sum_eltwise_top_L1_b1_relu_0_split
I0821 06:45:15.010874 31846 net.cpp:434] L1_b1_sum_eltwise_top_L1_b1_relu_0_split <- L1_b1_sum_eltwise_top
I0821 06:45:15.010880 31846 net.cpp:408] L1_b1_sum_eltwise_top_L1_b1_relu_0_split -> L1_b1_sum_eltwise_top_L1_b1_relu_0_split_0
I0821 06:45:15.010888 31846 net.cpp:408] L1_b1_sum_eltwise_top_L1_b1_relu_0_split -> L1_b1_sum_eltwise_top_L1_b1_relu_0_split_1
I0821 06:45:15.010933 31846 net.cpp:150] Setting up L1_b1_sum_eltwise_top_L1_b1_relu_0_split
I0821 06:45:15.010944 31846 net.cpp:157] Top shape: 125 16 32 32 (2048000)
I0821 06:45:15.010951 31846 net.cpp:157] Top shape: 125 16 32 32 (2048000)
I0821 06:45:15.010963 31846 net.cpp:165] Memory required for data: 140801500
I0821 06:45:15.010969 31846 layer_factory.hpp:77] Creating layer L1_b2_cbr1_conv
I0821 06:45:15.010983 31846 net.cpp:100] Creating Layer L1_b2_cbr1_conv
I0821 06:45:15.010989 31846 net.cpp:434] L1_b2_cbr1_conv <- L1_b1_sum_eltwise_top_L1_b1_relu_0_split_0
I0821 06:45:15.010998 31846 net.cpp:408] L1_b2_cbr1_conv -> L1_b2_cbr1_conv_top
I0821 06:45:15.011303 31846 net.cpp:150] Setting up L1_b2_cbr1_conv
I0821 06:45:15.011317 31846 net.cpp:157] Top shape: 125 16 32 32 (2048000)
I0821 06:45:15.011322 31846 net.cpp:165] Memory required for data: 148993500
I0821 06:45:15.011330 31846 layer_factory.hpp:77] Creating layer L1_b2_cbr1_bn
I0821 06:45:15.011344 31846 net.cpp:100] Creating Layer L1_b2_cbr1_bn
I0821 06:45:15.011350 31846 net.cpp:434] L1_b2_cbr1_bn <- L1_b2_cbr1_conv_top
I0821 06:45:15.011358 31846 net.cpp:408] L1_b2_cbr1_bn -> L1_b2_cbr1_bn_top
I0821 06:45:15.011603 31846 net.cpp:150] Setting up L1_b2_cbr1_bn
I0821 06:45:15.011617 31846 net.cpp:157] Top shape: 125 16 32 32 (2048000)
I0821 06:45:15.011623 31846 net.cpp:165] Memory required for data: 157185500
I0821 06:45:15.011633 31846 layer_factory.hpp:77] Creating layer L1_b2_cbr1_scale
I0821 06:45:15.011642 31846 net.cpp:100] Creating Layer L1_b2_cbr1_scale
I0821 06:45:15.011648 31846 net.cpp:434] L1_b2_cbr1_scale <- L1_b2_cbr1_bn_top
I0821 06:45:15.011656 31846 net.cpp:395] L1_b2_cbr1_scale -> L1_b2_cbr1_bn_top (in-place)
I0821 06:45:15.011735 31846 layer_factory.hpp:77] Creating layer L1_b2_cbr1_scale
I0821 06:45:15.011880 31846 net.cpp:150] Setting up L1_b2_cbr1_scale
I0821 06:45:15.011893 31846 net.cpp:157] Top shape: 125 16 32 32 (2048000)
I0821 06:45:15.011898 31846 net.cpp:165] Memory required for data: 165377500
I0821 06:45:15.011907 31846 layer_factory.hpp:77] Creating layer L1_b2_cbr1_relu
I0821 06:45:15.011919 31846 net.cpp:100] Creating Layer L1_b2_cbr1_relu
I0821 06:45:15.011926 31846 net.cpp:434] L1_b2_cbr1_relu <- L1_b2_cbr1_bn_top
I0821 06:45:15.011934 31846 net.cpp:395] L1_b2_cbr1_relu -> L1_b2_cbr1_bn_top (in-place)
I0821 06:45:15.011942 31846 net.cpp:150] Setting up L1_b2_cbr1_relu
I0821 06:45:15.011950 31846 net.cpp:157] Top shape: 125 16 32 32 (2048000)
I0821 06:45:15.011955 31846 net.cpp:165] Memory required for data: 173569500
I0821 06:45:15.011958 31846 layer_factory.hpp:77] Creating layer L1_b2_cbr2_conv
I0821 06:45:15.011972 31846 net.cpp:100] Creating Layer L1_b2_cbr2_conv
I0821 06:45:15.011978 31846 net.cpp:434] L1_b2_cbr2_conv <- L1_b2_cbr1_bn_top
I0821 06:45:15.011992 31846 net.cpp:408] L1_b2_cbr2_conv -> L1_b2_cbr2_conv_top
I0821 06:45:15.012295 31846 net.cpp:150] Setting up L1_b2_cbr2_conv
I0821 06:45:15.012307 31846 net.cpp:157] Top shape: 125 16 32 32 (2048000)
I0821 06:45:15.012312 31846 net.cpp:165] Memory required for data: 181761500
I0821 06:45:15.012321 31846 layer_factory.hpp:77] Creating layer L1_b2_cbr2_bn
I0821 06:45:15.012333 31846 net.cpp:100] Creating Layer L1_b2_cbr2_bn
I0821 06:45:15.012339 31846 net.cpp:434] L1_b2_cbr2_bn <- L1_b2_cbr2_conv_top
I0821 06:45:15.012347 31846 net.cpp:408] L1_b2_cbr2_bn -> L1_b2_cbr2_bn_top
I0821 06:45:15.012594 31846 net.cpp:150] Setting up L1_b2_cbr2_bn
I0821 06:45:15.012609 31846 net.cpp:157] Top shape: 125 16 32 32 (2048000)
I0821 06:45:15.012614 31846 net.cpp:165] Memory required for data: 189953500
I0821 06:45:15.012629 31846 layer_factory.hpp:77] Creating layer L1_b2_cbr2_scale
I0821 06:45:15.012641 31846 net.cpp:100] Creating Layer L1_b2_cbr2_scale
I0821 06:45:15.012647 31846 net.cpp:434] L1_b2_cbr2_scale <- L1_b2_cbr2_bn_top
I0821 06:45:15.012655 31846 net.cpp:395] L1_b2_cbr2_scale -> L1_b2_cbr2_bn_top (in-place)
I0821 06:45:15.012708 31846 layer_factory.hpp:77] Creating layer L1_b2_cbr2_scale
I0821 06:45:15.012845 31846 net.cpp:150] Setting up L1_b2_cbr2_scale
I0821 06:45:15.012858 31846 net.cpp:157] Top shape: 125 16 32 32 (2048000)
I0821 06:45:15.012863 31846 net.cpp:165] Memory required for data: 198145500
I0821 06:45:15.012872 31846 layer_factory.hpp:77] Creating layer L1_b2_sum_eltwise
I0821 06:45:15.012889 31846 net.cpp:100] Creating Layer L1_b2_sum_eltwise
I0821 06:45:15.012895 31846 net.cpp:434] L1_b2_sum_eltwise <- L1_b2_cbr2_bn_top
I0821 06:45:15.012902 31846 net.cpp:434] L1_b2_sum_eltwise <- L1_b1_sum_eltwise_top_L1_b1_relu_0_split_1
I0821 06:45:15.012912 31846 net.cpp:408] L1_b2_sum_eltwise -> L1_b2_sum_eltwise_top
I0821 06:45:15.012943 31846 net.cpp:150] Setting up L1_b2_sum_eltwise
I0821 06:45:15.012953 31846 net.cpp:157] Top shape: 125 16 32 32 (2048000)
I0821 06:45:15.012958 31846 net.cpp:165] Memory required for data: 206337500
I0821 06:45:15.012962 31846 layer_factory.hpp:77] Creating layer L1_b2_relu
I0821 06:45:15.012970 31846 net.cpp:100] Creating Layer L1_b2_relu
I0821 06:45:15.012975 31846 net.cpp:434] L1_b2_relu <- L1_b2_sum_eltwise_top
I0821 06:45:15.012982 31846 net.cpp:395] L1_b2_relu -> L1_b2_sum_eltwise_top (in-place)
I0821 06:45:15.012991 31846 net.cpp:150] Setting up L1_b2_relu
I0821 06:45:15.012998 31846 net.cpp:157] Top shape: 125 16 32 32 (2048000)
I0821 06:45:15.013003 31846 net.cpp:165] Memory required for data: 214529500
I0821 06:45:15.013007 31846 layer_factory.hpp:77] Creating layer L1_b2_sum_eltwise_top_L1_b2_relu_0_split
I0821 06:45:15.013018 31846 net.cpp:100] Creating Layer L1_b2_sum_eltwise_top_L1_b2_relu_0_split
I0821 06:45:15.013023 31846 net.cpp:434] L1_b2_sum_eltwise_top_L1_b2_relu_0_split <- L1_b2_sum_eltwise_top
I0821 06:45:15.013031 31846 net.cpp:408] L1_b2_sum_eltwise_top_L1_b2_relu_0_split -> L1_b2_sum_eltwise_top_L1_b2_relu_0_split_0
I0821 06:45:15.013039 31846 net.cpp:408] L1_b2_sum_eltwise_top_L1_b2_relu_0_split -> L1_b2_sum_eltwise_top_L1_b2_relu_0_split_1
I0821 06:45:15.013082 31846 net.cpp:150] Setting up L1_b2_sum_eltwise_top_L1_b2_relu_0_split
I0821 06:45:15.013093 31846 net.cpp:157] Top shape: 125 16 32 32 (2048000)
I0821 06:45:15.013100 31846 net.cpp:157] Top shape: 125 16 32 32 (2048000)
I0821 06:45:15.013105 31846 net.cpp:165] Memory required for data: 230913500
I0821 06:45:15.013110 31846 layer_factory.hpp:77] Creating layer L1_b3_cbr1_conv
I0821 06:45:15.013121 31846 net.cpp:100] Creating Layer L1_b3_cbr1_conv
I0821 06:45:15.013128 31846 net.cpp:434] L1_b3_cbr1_conv <- L1_b2_sum_eltwise_top_L1_b2_relu_0_split_0
I0821 06:45:15.013139 31846 net.cpp:408] L1_b3_cbr1_conv -> L1_b3_cbr1_conv_top
I0821 06:45:15.013450 31846 net.cpp:150] Setting up L1_b3_cbr1_conv
I0821 06:45:15.013464 31846 net.cpp:157] Top shape: 125 16 32 32 (2048000)
I0821 06:45:15.013469 31846 net.cpp:165] Memory required for data: 239105500
I0821 06:45:15.013478 31846 layer_factory.hpp:77] Creating layer L1_b3_cbr1_bn
I0821 06:45:15.013487 31846 net.cpp:100] Creating Layer L1_b3_cbr1_bn
I0821 06:45:15.013494 31846 net.cpp:434] L1_b3_cbr1_bn <- L1_b3_cbr1_conv_top
I0821 06:45:15.013501 31846 net.cpp:408] L1_b3_cbr1_bn -> L1_b3_cbr1_bn_top
I0821 06:45:15.013737 31846 net.cpp:150] Setting up L1_b3_cbr1_bn
I0821 06:45:15.013751 31846 net.cpp:157] Top shape: 125 16 32 32 (2048000)
I0821 06:45:15.013756 31846 net.cpp:165] Memory required for data: 247297500
I0821 06:45:15.013767 31846 layer_factory.hpp:77] Creating layer L1_b3_cbr1_scale
I0821 06:45:15.013778 31846 net.cpp:100] Creating Layer L1_b3_cbr1_scale
I0821 06:45:15.013784 31846 net.cpp:434] L1_b3_cbr1_scale <- L1_b3_cbr1_bn_top
I0821 06:45:15.013792 31846 net.cpp:395] L1_b3_cbr1_scale -> L1_b3_cbr1_bn_top (in-place)
I0821 06:45:15.013844 31846 layer_factory.hpp:77] Creating layer L1_b3_cbr1_scale
I0821 06:45:15.013983 31846 net.cpp:150] Setting up L1_b3_cbr1_scale
I0821 06:45:15.013995 31846 net.cpp:157] Top shape: 125 16 32 32 (2048000)
I0821 06:45:15.014000 31846 net.cpp:165] Memory required for data: 255489500
I0821 06:45:15.014009 31846 layer_factory.hpp:77] Creating layer L1_b3_cbr1_relu
I0821 06:45:15.014017 31846 net.cpp:100] Creating Layer L1_b3_cbr1_relu
I0821 06:45:15.014024 31846 net.cpp:434] L1_b3_cbr1_relu <- L1_b3_cbr1_bn_top
I0821 06:45:15.014034 31846 net.cpp:395] L1_b3_cbr1_relu -> L1_b3_cbr1_bn_top (in-place)
I0821 06:45:15.014044 31846 net.cpp:150] Setting up L1_b3_cbr1_relu
I0821 06:45:15.014057 31846 net.cpp:157] Top shape: 125 16 32 32 (2048000)
I0821 06:45:15.014062 31846 net.cpp:165] Memory required for data: 263681500
I0821 06:45:15.014067 31846 layer_factory.hpp:77] Creating layer L1_b3_cbr2_conv
I0821 06:45:15.014081 31846 net.cpp:100] Creating Layer L1_b3_cbr2_conv
I0821 06:45:15.014087 31846 net.cpp:434] L1_b3_cbr2_conv <- L1_b3_cbr1_bn_top
I0821 06:45:15.014096 31846 net.cpp:408] L1_b3_cbr2_conv -> L1_b3_cbr2_conv_top
I0821 06:45:15.014401 31846 net.cpp:150] Setting up L1_b3_cbr2_conv
I0821 06:45:15.014415 31846 net.cpp:157] Top shape: 125 16 32 32 (2048000)
I0821 06:45:15.014420 31846 net.cpp:165] Memory required for data: 271873500
I0821 06:45:15.014436 31846 layer_factory.hpp:77] Creating layer L1_b3_cbr2_bn
I0821 06:45:15.014451 31846 net.cpp:100] Creating Layer L1_b3_cbr2_bn
I0821 06:45:15.014457 31846 net.cpp:434] L1_b3_cbr2_bn <- L1_b3_cbr2_conv_top
I0821 06:45:15.014466 31846 net.cpp:408] L1_b3_cbr2_bn -> L1_b3_cbr2_bn_top
I0821 06:45:15.014698 31846 net.cpp:150] Setting up L1_b3_cbr2_bn
I0821 06:45:15.014711 31846 net.cpp:157] Top shape: 125 16 32 32 (2048000)
I0821 06:45:15.014716 31846 net.cpp:165] Memory required for data: 280065500
I0821 06:45:15.014726 31846 layer_factory.hpp:77] Creating layer L1_b3_cbr2_scale
I0821 06:45:15.014739 31846 net.cpp:100] Creating Layer L1_b3_cbr2_scale
I0821 06:45:15.014744 31846 net.cpp:434] L1_b3_cbr2_scale <- L1_b3_cbr2_bn_top
I0821 06:45:15.014752 31846 net.cpp:395] L1_b3_cbr2_scale -> L1_b3_cbr2_bn_top (in-place)
I0821 06:45:15.014806 31846 layer_factory.hpp:77] Creating layer L1_b3_cbr2_scale
I0821 06:45:15.014943 31846 net.cpp:150] Setting up L1_b3_cbr2_scale
I0821 06:45:15.014956 31846 net.cpp:157] Top shape: 125 16 32 32 (2048000)
I0821 06:45:15.014961 31846 net.cpp:165] Memory required for data: 288257500
I0821 06:45:15.014971 31846 layer_factory.hpp:77] Creating layer L1_b3_sum_eltwise
I0821 06:45:15.014979 31846 net.cpp:100] Creating Layer L1_b3_sum_eltwise
I0821 06:45:15.014986 31846 net.cpp:434] L1_b3_sum_eltwise <- L1_b3_cbr2_bn_top
I0821 06:45:15.014992 31846 net.cpp:434] L1_b3_sum_eltwise <- L1_b2_sum_eltwise_top_L1_b2_relu_0_split_1
I0821 06:45:15.015002 31846 net.cpp:408] L1_b3_sum_eltwise -> L1_b3_sum_eltwise_top
I0821 06:45:15.015035 31846 net.cpp:150] Setting up L1_b3_sum_eltwise
I0821 06:45:15.015044 31846 net.cpp:157] Top shape: 125 16 32 32 (2048000)
I0821 06:45:15.015048 31846 net.cpp:165] Memory required for data: 296449500
I0821 06:45:15.015054 31846 layer_factory.hpp:77] Creating layer L1_b3_relu
I0821 06:45:15.015063 31846 net.cpp:100] Creating Layer L1_b3_relu
I0821 06:45:15.015067 31846 net.cpp:434] L1_b3_relu <- L1_b3_sum_eltwise_top
I0821 06:45:15.015077 31846 net.cpp:395] L1_b3_relu -> L1_b3_sum_eltwise_top (in-place)
I0821 06:45:15.015086 31846 net.cpp:150] Setting up L1_b3_relu
I0821 06:45:15.015094 31846 net.cpp:157] Top shape: 125 16 32 32 (2048000)
I0821 06:45:15.015097 31846 net.cpp:165] Memory required for data: 304641500
I0821 06:45:15.015102 31846 layer_factory.hpp:77] Creating layer L1_b3_sum_eltwise_top_L1_b3_relu_0_split
I0821 06:45:15.015110 31846 net.cpp:100] Creating Layer L1_b3_sum_eltwise_top_L1_b3_relu_0_split
I0821 06:45:15.015115 31846 net.cpp:434] L1_b3_sum_eltwise_top_L1_b3_relu_0_split <- L1_b3_sum_eltwise_top
I0821 06:45:15.015122 31846 net.cpp:408] L1_b3_sum_eltwise_top_L1_b3_relu_0_split -> L1_b3_sum_eltwise_top_L1_b3_relu_0_split_0
I0821 06:45:15.015131 31846 net.cpp:408] L1_b3_sum_eltwise_top_L1_b3_relu_0_split -> L1_b3_sum_eltwise_top_L1_b3_relu_0_split_1
I0821 06:45:15.015175 31846 net.cpp:150] Setting up L1_b3_sum_eltwise_top_L1_b3_relu_0_split
I0821 06:45:15.015187 31846 net.cpp:157] Top shape: 125 16 32 32 (2048000)
I0821 06:45:15.015193 31846 net.cpp:157] Top shape: 125 16 32 32 (2048000)
I0821 06:45:15.015198 31846 net.cpp:165] Memory required for data: 321025500
I0821 06:45:15.015203 31846 layer_factory.hpp:77] Creating layer L1_b4_cbr1_conv
I0821 06:45:15.015214 31846 net.cpp:100] Creating Layer L1_b4_cbr1_conv
I0821 06:45:15.015220 31846 net.cpp:434] L1_b4_cbr1_conv <- L1_b3_sum_eltwise_top_L1_b3_relu_0_split_0
I0821 06:45:15.015239 31846 net.cpp:408] L1_b4_cbr1_conv -> L1_b4_cbr1_conv_top
I0821 06:45:15.015552 31846 net.cpp:150] Setting up L1_b4_cbr1_conv
I0821 06:45:15.015566 31846 net.cpp:157] Top shape: 125 16 32 32 (2048000)
I0821 06:45:15.015571 31846 net.cpp:165] Memory required for data: 329217500
I0821 06:45:15.015580 31846 layer_factory.hpp:77] Creating layer L1_b4_cbr1_bn
I0821 06:45:15.015589 31846 net.cpp:100] Creating Layer L1_b4_cbr1_bn
I0821 06:45:15.015595 31846 net.cpp:434] L1_b4_cbr1_bn <- L1_b4_cbr1_conv_top
I0821 06:45:15.015606 31846 net.cpp:408] L1_b4_cbr1_bn -> L1_b4_cbr1_bn_top
I0821 06:45:15.015846 31846 net.cpp:150] Setting up L1_b4_cbr1_bn
I0821 06:45:15.015858 31846 net.cpp:157] Top shape: 125 16 32 32 (2048000)
I0821 06:45:15.015863 31846 net.cpp:165] Memory required for data: 337409500
I0821 06:45:15.015873 31846 layer_factory.hpp:77] Creating layer L1_b4_cbr1_scale
I0821 06:45:15.015884 31846 net.cpp:100] Creating Layer L1_b4_cbr1_scale
I0821 06:45:15.015890 31846 net.cpp:434] L1_b4_cbr1_scale <- L1_b4_cbr1_bn_top
I0821 06:45:15.015898 31846 net.cpp:395] L1_b4_cbr1_scale -> L1_b4_cbr1_bn_top (in-place)
I0821 06:45:15.015951 31846 layer_factory.hpp:77] Creating layer L1_b4_cbr1_scale
I0821 06:45:15.016093 31846 net.cpp:150] Setting up L1_b4_cbr1_scale
I0821 06:45:15.016105 31846 net.cpp:157] Top shape: 125 16 32 32 (2048000)
I0821 06:45:15.016110 31846 net.cpp:165] Memory required for data: 345601500
I0821 06:45:15.016119 31846 layer_factory.hpp:77] Creating layer L1_b4_cbr1_relu
I0821 06:45:15.016127 31846 net.cpp:100] Creating Layer L1_b4_cbr1_relu
I0821 06:45:15.016134 31846 net.cpp:434] L1_b4_cbr1_relu <- L1_b4_cbr1_bn_top
I0821 06:45:15.016144 31846 net.cpp:395] L1_b4_cbr1_relu -> L1_b4_cbr1_bn_top (in-place)
I0821 06:45:15.016152 31846 net.cpp:150] Setting up L1_b4_cbr1_relu
I0821 06:45:15.016160 31846 net.cpp:157] Top shape: 125 16 32 32 (2048000)
I0821 06:45:15.016165 31846 net.cpp:165] Memory required for data: 353793500
I0821 06:45:15.016170 31846 layer_factory.hpp:77] Creating layer L1_b4_cbr2_conv
I0821 06:45:15.016183 31846 net.cpp:100] Creating Layer L1_b4_cbr2_conv
I0821 06:45:15.016189 31846 net.cpp:434] L1_b4_cbr2_conv <- L1_b4_cbr1_bn_top
I0821 06:45:15.016202 31846 net.cpp:408] L1_b4_cbr2_conv -> L1_b4_cbr2_conv_top
I0821 06:45:15.016518 31846 net.cpp:150] Setting up L1_b4_cbr2_conv
I0821 06:45:15.016533 31846 net.cpp:157] Top shape: 125 16 32 32 (2048000)
I0821 06:45:15.016538 31846 net.cpp:165] Memory required for data: 361985500
I0821 06:45:15.016547 31846 layer_factory.hpp:77] Creating layer L1_b4_cbr2_bn
I0821 06:45:15.016556 31846 net.cpp:100] Creating Layer L1_b4_cbr2_bn
I0821 06:45:15.016561 31846 net.cpp:434] L1_b4_cbr2_bn <- L1_b4_cbr2_conv_top
I0821 06:45:15.016569 31846 net.cpp:408] L1_b4_cbr2_bn -> L1_b4_cbr2_bn_top
I0821 06:45:15.016809 31846 net.cpp:150] Setting up L1_b4_cbr2_bn
I0821 06:45:15.016824 31846 net.cpp:157] Top shape: 125 16 32 32 (2048000)
I0821 06:45:15.016829 31846 net.cpp:165] Memory required for data: 370177500
I0821 06:45:15.016839 31846 layer_factory.hpp:77] Creating layer L1_b4_cbr2_scale
I0821 06:45:15.016850 31846 net.cpp:100] Creating Layer L1_b4_cbr2_scale
I0821 06:45:15.016856 31846 net.cpp:434] L1_b4_cbr2_scale <- L1_b4_cbr2_bn_top
I0821 06:45:15.016866 31846 net.cpp:395] L1_b4_cbr2_scale -> L1_b4_cbr2_bn_top (in-place)
I0821 06:45:15.016918 31846 layer_factory.hpp:77] Creating layer L1_b4_cbr2_scale
I0821 06:45:15.017055 31846 net.cpp:150] Setting up L1_b4_cbr2_scale
I0821 06:45:15.017068 31846 net.cpp:157] Top shape: 125 16 32 32 (2048000)
I0821 06:45:15.017073 31846 net.cpp:165] Memory required for data: 378369500
I0821 06:45:15.017082 31846 layer_factory.hpp:77] Creating layer L1_b4_sum_eltwise
I0821 06:45:15.017093 31846 net.cpp:100] Creating Layer L1_b4_sum_eltwise
I0821 06:45:15.017099 31846 net.cpp:434] L1_b4_sum_eltwise <- L1_b4_cbr2_bn_top
I0821 06:45:15.017107 31846 net.cpp:434] L1_b4_sum_eltwise <- L1_b3_sum_eltwise_top_L1_b3_relu_0_split_1
I0821 06:45:15.017114 31846 net.cpp:408] L1_b4_sum_eltwise -> L1_b4_sum_eltwise_top
I0821 06:45:15.017156 31846 net.cpp:150] Setting up L1_b4_sum_eltwise
I0821 06:45:15.017166 31846 net.cpp:157] Top shape: 125 16 32 32 (2048000)
I0821 06:45:15.017171 31846 net.cpp:165] Memory required for data: 386561500
I0821 06:45:15.017176 31846 layer_factory.hpp:77] Creating layer L1_b4_relu
I0821 06:45:15.017184 31846 net.cpp:100] Creating Layer L1_b4_relu
I0821 06:45:15.017190 31846 net.cpp:434] L1_b4_relu <- L1_b4_sum_eltwise_top
I0821 06:45:15.017199 31846 net.cpp:395] L1_b4_relu -> L1_b4_sum_eltwise_top (in-place)
I0821 06:45:15.017210 31846 net.cpp:150] Setting up L1_b4_relu
I0821 06:45:15.017216 31846 net.cpp:157] Top shape: 125 16 32 32 (2048000)
I0821 06:45:15.017221 31846 net.cpp:165] Memory required for data: 394753500
I0821 06:45:15.017225 31846 layer_factory.hpp:77] Creating layer L1_b4_sum_eltwise_top_L1_b4_relu_0_split
I0821 06:45:15.017232 31846 net.cpp:100] Creating Layer L1_b4_sum_eltwise_top_L1_b4_relu_0_split
I0821 06:45:15.017238 31846 net.cpp:434] L1_b4_sum_eltwise_top_L1_b4_relu_0_split <- L1_b4_sum_eltwise_top
I0821 06:45:15.017246 31846 net.cpp:408] L1_b4_sum_eltwise_top_L1_b4_relu_0_split -> L1_b4_sum_eltwise_top_L1_b4_relu_0_split_0
I0821 06:45:15.017254 31846 net.cpp:408] L1_b4_sum_eltwise_top_L1_b4_relu_0_split -> L1_b4_sum_eltwise_top_L1_b4_relu_0_split_1
I0821 06:45:15.017298 31846 net.cpp:150] Setting up L1_b4_sum_eltwise_top_L1_b4_relu_0_split
I0821 06:45:15.017310 31846 net.cpp:157] Top shape: 125 16 32 32 (2048000)
I0821 06:45:15.017316 31846 net.cpp:157] Top shape: 125 16 32 32 (2048000)
I0821 06:45:15.017321 31846 net.cpp:165] Memory required for data: 411137500
I0821 06:45:15.017326 31846 layer_factory.hpp:77] Creating layer L1_b5_cbr1_conv
I0821 06:45:15.017338 31846 net.cpp:100] Creating Layer L1_b5_cbr1_conv
I0821 06:45:15.017343 31846 net.cpp:434] L1_b5_cbr1_conv <- L1_b4_sum_eltwise_top_L1_b4_relu_0_split_0
I0821 06:45:15.017354 31846 net.cpp:408] L1_b5_cbr1_conv -> L1_b5_cbr1_conv_top
I0821 06:45:15.017666 31846 net.cpp:150] Setting up L1_b5_cbr1_conv
I0821 06:45:15.017681 31846 net.cpp:157] Top shape: 125 16 32 32 (2048000)
I0821 06:45:15.017686 31846 net.cpp:165] Memory required for data: 419329500
I0821 06:45:15.017710 31846 layer_factory.hpp:77] Creating layer L1_b5_cbr1_bn
I0821 06:45:15.017724 31846 net.cpp:100] Creating Layer L1_b5_cbr1_bn
I0821 06:45:15.017729 31846 net.cpp:434] L1_b5_cbr1_bn <- L1_b5_cbr1_conv_top
I0821 06:45:15.017737 31846 net.cpp:408] L1_b5_cbr1_bn -> L1_b5_cbr1_bn_top
I0821 06:45:15.017978 31846 net.cpp:150] Setting up L1_b5_cbr1_bn
I0821 06:45:15.017992 31846 net.cpp:157] Top shape: 125 16 32 32 (2048000)
I0821 06:45:15.017997 31846 net.cpp:165] Memory required for data: 427521500
I0821 06:45:15.018007 31846 layer_factory.hpp:77] Creating layer L1_b5_cbr1_scale
I0821 06:45:15.018018 31846 net.cpp:100] Creating Layer L1_b5_cbr1_scale
I0821 06:45:15.018024 31846 net.cpp:434] L1_b5_cbr1_scale <- L1_b5_cbr1_bn_top
I0821 06:45:15.018033 31846 net.cpp:395] L1_b5_cbr1_scale -> L1_b5_cbr1_bn_top (in-place)
I0821 06:45:15.018084 31846 layer_factory.hpp:77] Creating layer L1_b5_cbr1_scale
I0821 06:45:15.018223 31846 net.cpp:150] Setting up L1_b5_cbr1_scale
I0821 06:45:15.018235 31846 net.cpp:157] Top shape: 125 16 32 32 (2048000)
I0821 06:45:15.018240 31846 net.cpp:165] Memory required for data: 435713500
I0821 06:45:15.018249 31846 layer_factory.hpp:77] Creating layer L1_b5_cbr1_relu
I0821 06:45:15.018260 31846 net.cpp:100] Creating Layer L1_b5_cbr1_relu
I0821 06:45:15.018266 31846 net.cpp:434] L1_b5_cbr1_relu <- L1_b5_cbr1_bn_top
I0821 06:45:15.018273 31846 net.cpp:395] L1_b5_cbr1_relu -> L1_b5_cbr1_bn_top (in-place)
I0821 06:45:15.018282 31846 net.cpp:150] Setting up L1_b5_cbr1_relu
I0821 06:45:15.018290 31846 net.cpp:157] Top shape: 125 16 32 32 (2048000)
I0821 06:45:15.018295 31846 net.cpp:165] Memory required for data: 443905500
I0821 06:45:15.018298 31846 layer_factory.hpp:77] Creating layer L1_b5_cbr2_conv
I0821 06:45:15.018312 31846 net.cpp:100] Creating Layer L1_b5_cbr2_conv
I0821 06:45:15.018318 31846 net.cpp:434] L1_b5_cbr2_conv <- L1_b5_cbr1_bn_top
I0821 06:45:15.018337 31846 net.cpp:408] L1_b5_cbr2_conv -> L1_b5_cbr2_conv_top
I0821 06:45:15.018656 31846 net.cpp:150] Setting up L1_b5_cbr2_conv
I0821 06:45:15.018671 31846 net.cpp:157] Top shape: 125 16 32 32 (2048000)
I0821 06:45:15.018676 31846 net.cpp:165] Memory required for data: 452097500
I0821 06:45:15.018684 31846 layer_factory.hpp:77] Creating layer L1_b5_cbr2_bn
I0821 06:45:15.018693 31846 net.cpp:100] Creating Layer L1_b5_cbr2_bn
I0821 06:45:15.018699 31846 net.cpp:434] L1_b5_cbr2_bn <- L1_b5_cbr2_conv_top
I0821 06:45:15.018708 31846 net.cpp:408] L1_b5_cbr2_bn -> L1_b5_cbr2_bn_top
I0821 06:45:15.018945 31846 net.cpp:150] Setting up L1_b5_cbr2_bn
I0821 06:45:15.018959 31846 net.cpp:157] Top shape: 125 16 32 32 (2048000)
I0821 06:45:15.018963 31846 net.cpp:165] Memory required for data: 460289500
I0821 06:45:15.018973 31846 layer_factory.hpp:77] Creating layer L1_b5_cbr2_scale
I0821 06:45:15.018985 31846 net.cpp:100] Creating Layer L1_b5_cbr2_scale
I0821 06:45:15.018991 31846 net.cpp:434] L1_b5_cbr2_scale <- L1_b5_cbr2_bn_top
I0821 06:45:15.018999 31846 net.cpp:395] L1_b5_cbr2_scale -> L1_b5_cbr2_bn_top (in-place)
I0821 06:45:15.019053 31846 layer_factory.hpp:77] Creating layer L1_b5_cbr2_scale
I0821 06:45:15.019196 31846 net.cpp:150] Setting up L1_b5_cbr2_scale
I0821 06:45:15.019208 31846 net.cpp:157] Top shape: 125 16 32 32 (2048000)
I0821 06:45:15.019213 31846 net.cpp:165] Memory required for data: 468481500
I0821 06:45:15.019222 31846 layer_factory.hpp:77] Creating layer L1_b5_sum_eltwise
I0821 06:45:15.019253 31846 net.cpp:100] Creating Layer L1_b5_sum_eltwise
I0821 06:45:15.019259 31846 net.cpp:434] L1_b5_sum_eltwise <- L1_b5_cbr2_bn_top
I0821 06:45:15.019268 31846 net.cpp:434] L1_b5_sum_eltwise <- L1_b4_sum_eltwise_top_L1_b4_relu_0_split_1
I0821 06:45:15.019278 31846 net.cpp:408] L1_b5_sum_eltwise -> L1_b5_sum_eltwise_top
I0821 06:45:15.019317 31846 net.cpp:150] Setting up L1_b5_sum_eltwise
I0821 06:45:15.019328 31846 net.cpp:157] Top shape: 125 16 32 32 (2048000)
I0821 06:45:15.019333 31846 net.cpp:165] Memory required for data: 476673500
I0821 06:45:15.019340 31846 layer_factory.hpp:77] Creating layer L1_b5_relu
I0821 06:45:15.019346 31846 net.cpp:100] Creating Layer L1_b5_relu
I0821 06:45:15.019352 31846 net.cpp:434] L1_b5_relu <- L1_b5_sum_eltwise_top
I0821 06:45:15.019361 31846 net.cpp:395] L1_b5_relu -> L1_b5_sum_eltwise_top (in-place)
I0821 06:45:15.019371 31846 net.cpp:150] Setting up L1_b5_relu
I0821 06:45:15.019378 31846 net.cpp:157] Top shape: 125 16 32 32 (2048000)
I0821 06:45:15.019382 31846 net.cpp:165] Memory required for data: 484865500
I0821 06:45:15.019387 31846 layer_factory.hpp:77] Creating layer L1_b5_sum_eltwise_top_L1_b5_relu_0_split
I0821 06:45:15.019394 31846 net.cpp:100] Creating Layer L1_b5_sum_eltwise_top_L1_b5_relu_0_split
I0821 06:45:15.019400 31846 net.cpp:434] L1_b5_sum_eltwise_top_L1_b5_relu_0_split <- L1_b5_sum_eltwise_top
I0821 06:45:15.019407 31846 net.cpp:408] L1_b5_sum_eltwise_top_L1_b5_relu_0_split -> L1_b5_sum_eltwise_top_L1_b5_relu_0_split_0
I0821 06:45:15.019417 31846 net.cpp:408] L1_b5_sum_eltwise_top_L1_b5_relu_0_split -> L1_b5_sum_eltwise_top_L1_b5_relu_0_split_1
I0821 06:45:15.019469 31846 net.cpp:150] Setting up L1_b5_sum_eltwise_top_L1_b5_relu_0_split
I0821 06:45:15.019481 31846 net.cpp:157] Top shape: 125 16 32 32 (2048000)
I0821 06:45:15.019489 31846 net.cpp:157] Top shape: 125 16 32 32 (2048000)
I0821 06:45:15.019492 31846 net.cpp:165] Memory required for data: 501249500
I0821 06:45:15.019497 31846 layer_factory.hpp:77] Creating layer L1_b6_cbr1_conv
I0821 06:45:15.019510 31846 net.cpp:100] Creating Layer L1_b6_cbr1_conv
I0821 06:45:15.019515 31846 net.cpp:434] L1_b6_cbr1_conv <- L1_b5_sum_eltwise_top_L1_b5_relu_0_split_0
I0821 06:45:15.019543 31846 net.cpp:408] L1_b6_cbr1_conv -> L1_b6_cbr1_conv_top
I0821 06:45:15.019857 31846 net.cpp:150] Setting up L1_b6_cbr1_conv
I0821 06:45:15.019871 31846 net.cpp:157] Top shape: 125 16 32 32 (2048000)
I0821 06:45:15.019876 31846 net.cpp:165] Memory required for data: 509441500
I0821 06:45:15.019892 31846 layer_factory.hpp:77] Creating layer L1_b6_cbr1_bn
I0821 06:45:15.019902 31846 net.cpp:100] Creating Layer L1_b6_cbr1_bn
I0821 06:45:15.019908 31846 net.cpp:434] L1_b6_cbr1_bn <- L1_b6_cbr1_conv_top
I0821 06:45:15.019919 31846 net.cpp:408] L1_b6_cbr1_bn -> L1_b6_cbr1_bn_top
I0821 06:45:15.020159 31846 net.cpp:150] Setting up L1_b6_cbr1_bn
I0821 06:45:15.020171 31846 net.cpp:157] Top shape: 125 16 32 32 (2048000)
I0821 06:45:15.020176 31846 net.cpp:165] Memory required for data: 517633500
I0821 06:45:15.020187 31846 layer_factory.hpp:77] Creating layer L1_b6_cbr1_scale
I0821 06:45:15.020198 31846 net.cpp:100] Creating Layer L1_b6_cbr1_scale
I0821 06:45:15.020205 31846 net.cpp:434] L1_b6_cbr1_scale <- L1_b6_cbr1_bn_top
I0821 06:45:15.020212 31846 net.cpp:395] L1_b6_cbr1_scale -> L1_b6_cbr1_bn_top (in-place)
I0821 06:45:15.020264 31846 layer_factory.hpp:77] Creating layer L1_b6_cbr1_scale
I0821 06:45:15.020403 31846 net.cpp:150] Setting up L1_b6_cbr1_scale
I0821 06:45:15.020416 31846 net.cpp:157] Top shape: 125 16 32 32 (2048000)
I0821 06:45:15.020428 31846 net.cpp:165] Memory required for data: 525825500
I0821 06:45:15.020438 31846 layer_factory.hpp:77] Creating layer L1_b6_cbr1_relu
I0821 06:45:15.020447 31846 net.cpp:100] Creating Layer L1_b6_cbr1_relu
I0821 06:45:15.020453 31846 net.cpp:434] L1_b6_cbr1_relu <- L1_b6_cbr1_bn_top
I0821 06:45:15.020463 31846 net.cpp:395] L1_b6_cbr1_relu -> L1_b6_cbr1_bn_top (in-place)
I0821 06:45:15.020474 31846 net.cpp:150] Setting up L1_b6_cbr1_relu
I0821 06:45:15.020481 31846 net.cpp:157] Top shape: 125 16 32 32 (2048000)
I0821 06:45:15.020485 31846 net.cpp:165] Memory required for data: 534017500
I0821 06:45:15.020490 31846 layer_factory.hpp:77] Creating layer L1_b6_cbr2_conv
I0821 06:45:15.020504 31846 net.cpp:100] Creating Layer L1_b6_cbr2_conv
I0821 06:45:15.020510 31846 net.cpp:434] L1_b6_cbr2_conv <- L1_b6_cbr1_bn_top
I0821 06:45:15.020520 31846 net.cpp:408] L1_b6_cbr2_conv -> L1_b6_cbr2_conv_top
I0821 06:45:15.020838 31846 net.cpp:150] Setting up L1_b6_cbr2_conv
I0821 06:45:15.020851 31846 net.cpp:157] Top shape: 125 16 32 32 (2048000)
I0821 06:45:15.020856 31846 net.cpp:165] Memory required for data: 542209500
I0821 06:45:15.020865 31846 layer_factory.hpp:77] Creating layer L1_b6_cbr2_bn
I0821 06:45:15.020874 31846 net.cpp:100] Creating Layer L1_b6_cbr2_bn
I0821 06:45:15.020880 31846 net.cpp:434] L1_b6_cbr2_bn <- L1_b6_cbr2_conv_top
I0821 06:45:15.020889 31846 net.cpp:408] L1_b6_cbr2_bn -> L1_b6_cbr2_bn_top
I0821 06:45:15.021131 31846 net.cpp:150] Setting up L1_b6_cbr2_bn
I0821 06:45:15.021145 31846 net.cpp:157] Top shape: 125 16 32 32 (2048000)
I0821 06:45:15.021150 31846 net.cpp:165] Memory required for data: 550401500
I0821 06:45:15.021160 31846 layer_factory.hpp:77] Creating layer L1_b6_cbr2_scale
I0821 06:45:15.021172 31846 net.cpp:100] Creating Layer L1_b6_cbr2_scale
I0821 06:45:15.021178 31846 net.cpp:434] L1_b6_cbr2_scale <- L1_b6_cbr2_bn_top
I0821 06:45:15.021185 31846 net.cpp:395] L1_b6_cbr2_scale -> L1_b6_cbr2_bn_top (in-place)
I0821 06:45:15.021240 31846 layer_factory.hpp:77] Creating layer L1_b6_cbr2_scale
I0821 06:45:15.021378 31846 net.cpp:150] Setting up L1_b6_cbr2_scale
I0821 06:45:15.021391 31846 net.cpp:157] Top shape: 125 16 32 32 (2048000)
I0821 06:45:15.021396 31846 net.cpp:165] Memory required for data: 558593500
I0821 06:45:15.021404 31846 layer_factory.hpp:77] Creating layer L1_b6_sum_eltwise
I0821 06:45:15.021427 31846 net.cpp:100] Creating Layer L1_b6_sum_eltwise
I0821 06:45:15.021435 31846 net.cpp:434] L1_b6_sum_eltwise <- L1_b6_cbr2_bn_top
I0821 06:45:15.021442 31846 net.cpp:434] L1_b6_sum_eltwise <- L1_b5_sum_eltwise_top_L1_b5_relu_0_split_1
I0821 06:45:15.021453 31846 net.cpp:408] L1_b6_sum_eltwise -> L1_b6_sum_eltwise_top
I0821 06:45:15.021486 31846 net.cpp:150] Setting up L1_b6_sum_eltwise
I0821 06:45:15.021497 31846 net.cpp:157] Top shape: 125 16 32 32 (2048000)
I0821 06:45:15.021502 31846 net.cpp:165] Memory required for data: 566785500
I0821 06:45:15.021512 31846 layer_factory.hpp:77] Creating layer L1_b6_relu
I0821 06:45:15.021530 31846 net.cpp:100] Creating Layer L1_b6_relu
I0821 06:45:15.021538 31846 net.cpp:434] L1_b6_relu <- L1_b6_sum_eltwise_top
I0821 06:45:15.021544 31846 net.cpp:395] L1_b6_relu -> L1_b6_sum_eltwise_top (in-place)
I0821 06:45:15.021553 31846 net.cpp:150] Setting up L1_b6_relu
I0821 06:45:15.021560 31846 net.cpp:157] Top shape: 125 16 32 32 (2048000)
I0821 06:45:15.021565 31846 net.cpp:165] Memory required for data: 574977500
I0821 06:45:15.021570 31846 layer_factory.hpp:77] Creating layer L1_b6_sum_eltwise_top_L1_b6_relu_0_split
I0821 06:45:15.021577 31846 net.cpp:100] Creating Layer L1_b6_sum_eltwise_top_L1_b6_relu_0_split
I0821 06:45:15.021582 31846 net.cpp:434] L1_b6_sum_eltwise_top_L1_b6_relu_0_split <- L1_b6_sum_eltwise_top
I0821 06:45:15.021589 31846 net.cpp:408] L1_b6_sum_eltwise_top_L1_b6_relu_0_split -> L1_b6_sum_eltwise_top_L1_b6_relu_0_split_0
I0821 06:45:15.021598 31846 net.cpp:408] L1_b6_sum_eltwise_top_L1_b6_relu_0_split -> L1_b6_sum_eltwise_top_L1_b6_relu_0_split_1
I0821 06:45:15.021644 31846 net.cpp:150] Setting up L1_b6_sum_eltwise_top_L1_b6_relu_0_split
I0821 06:45:15.021656 31846 net.cpp:157] Top shape: 125 16 32 32 (2048000)
I0821 06:45:15.021662 31846 net.cpp:157] Top shape: 125 16 32 32 (2048000)
I0821 06:45:15.021667 31846 net.cpp:165] Memory required for data: 591361500
I0821 06:45:15.021672 31846 layer_factory.hpp:77] Creating layer L1_b7_cbr1_conv
I0821 06:45:15.021687 31846 net.cpp:100] Creating Layer L1_b7_cbr1_conv
I0821 06:45:15.021693 31846 net.cpp:434] L1_b7_cbr1_conv <- L1_b6_sum_eltwise_top_L1_b6_relu_0_split_0
I0821 06:45:15.021703 31846 net.cpp:408] L1_b7_cbr1_conv -> L1_b7_cbr1_conv_top
I0821 06:45:15.022011 31846 net.cpp:150] Setting up L1_b7_cbr1_conv
I0821 06:45:15.022024 31846 net.cpp:157] Top shape: 125 16 32 32 (2048000)
I0821 06:45:15.022029 31846 net.cpp:165] Memory required for data: 599553500
I0821 06:45:15.022038 31846 layer_factory.hpp:77] Creating layer L1_b7_cbr1_bn
I0821 06:45:15.022050 31846 net.cpp:100] Creating Layer L1_b7_cbr1_bn
I0821 06:45:15.022056 31846 net.cpp:434] L1_b7_cbr1_bn <- L1_b7_cbr1_conv_top
I0821 06:45:15.022064 31846 net.cpp:408] L1_b7_cbr1_bn -> L1_b7_cbr1_bn_top
I0821 06:45:15.022310 31846 net.cpp:150] Setting up L1_b7_cbr1_bn
I0821 06:45:15.022322 31846 net.cpp:157] Top shape: 125 16 32 32 (2048000)
I0821 06:45:15.022327 31846 net.cpp:165] Memory required for data: 607745500
I0821 06:45:15.022337 31846 layer_factory.hpp:77] Creating layer L1_b7_cbr1_scale
I0821 06:45:15.022346 31846 net.cpp:100] Creating Layer L1_b7_cbr1_scale
I0821 06:45:15.022351 31846 net.cpp:434] L1_b7_cbr1_scale <- L1_b7_cbr1_bn_top
I0821 06:45:15.022359 31846 net.cpp:395] L1_b7_cbr1_scale -> L1_b7_cbr1_bn_top (in-place)
I0821 06:45:15.022411 31846 layer_factory.hpp:77] Creating layer L1_b7_cbr1_scale
I0821 06:45:15.022558 31846 net.cpp:150] Setting up L1_b7_cbr1_scale
I0821 06:45:15.022572 31846 net.cpp:157] Top shape: 125 16 32 32 (2048000)
I0821 06:45:15.022578 31846 net.cpp:165] Memory required for data: 615937500
I0821 06:45:15.022586 31846 layer_factory.hpp:77] Creating layer L1_b7_cbr1_relu
I0821 06:45:15.022595 31846 net.cpp:100] Creating Layer L1_b7_cbr1_relu
I0821 06:45:15.022601 31846 net.cpp:434] L1_b7_cbr1_relu <- L1_b7_cbr1_bn_top
I0821 06:45:15.022613 31846 net.cpp:395] L1_b7_cbr1_relu -> L1_b7_cbr1_bn_top (in-place)
I0821 06:45:15.022622 31846 net.cpp:150] Setting up L1_b7_cbr1_relu
I0821 06:45:15.022629 31846 net.cpp:157] Top shape: 125 16 32 32 (2048000)
I0821 06:45:15.022634 31846 net.cpp:165] Memory required for data: 624129500
I0821 06:45:15.022639 31846 layer_factory.hpp:77] Creating layer L1_b7_cbr2_conv
I0821 06:45:15.022650 31846 net.cpp:100] Creating Layer L1_b7_cbr2_conv
I0821 06:45:15.022655 31846 net.cpp:434] L1_b7_cbr2_conv <- L1_b7_cbr1_bn_top
I0821 06:45:15.022666 31846 net.cpp:408] L1_b7_cbr2_conv -> L1_b7_cbr2_conv_top
I0821 06:45:15.022977 31846 net.cpp:150] Setting up L1_b7_cbr2_conv
I0821 06:45:15.022991 31846 net.cpp:157] Top shape: 125 16 32 32 (2048000)
I0821 06:45:15.022996 31846 net.cpp:165] Memory required for data: 632321500
I0821 06:45:15.023012 31846 layer_factory.hpp:77] Creating layer L1_b7_cbr2_bn
I0821 06:45:15.023022 31846 net.cpp:100] Creating Layer L1_b7_cbr2_bn
I0821 06:45:15.023028 31846 net.cpp:434] L1_b7_cbr2_bn <- L1_b7_cbr2_conv_top
I0821 06:45:15.023039 31846 net.cpp:408] L1_b7_cbr2_bn -> L1_b7_cbr2_bn_top
I0821 06:45:15.023280 31846 net.cpp:150] Setting up L1_b7_cbr2_bn
I0821 06:45:15.023295 31846 net.cpp:157] Top shape: 125 16 32 32 (2048000)
I0821 06:45:15.023301 31846 net.cpp:165] Memory required for data: 640513500
I0821 06:45:15.023311 31846 layer_factory.hpp:77] Creating layer L1_b7_cbr2_scale
I0821 06:45:15.023320 31846 net.cpp:100] Creating Layer L1_b7_cbr2_scale
I0821 06:45:15.023326 31846 net.cpp:434] L1_b7_cbr2_scale <- L1_b7_cbr2_bn_top
I0821 06:45:15.023334 31846 net.cpp:395] L1_b7_cbr2_scale -> L1_b7_cbr2_bn_top (in-place)
I0821 06:45:15.023386 31846 layer_factory.hpp:77] Creating layer L1_b7_cbr2_scale
I0821 06:45:15.023536 31846 net.cpp:150] Setting up L1_b7_cbr2_scale
I0821 06:45:15.023550 31846 net.cpp:157] Top shape: 125 16 32 32 (2048000)
I0821 06:45:15.023555 31846 net.cpp:165] Memory required for data: 648705500
I0821 06:45:15.023564 31846 layer_factory.hpp:77] Creating layer L1_b7_sum_eltwise
I0821 06:45:15.023576 31846 net.cpp:100] Creating Layer L1_b7_sum_eltwise
I0821 06:45:15.023583 31846 net.cpp:434] L1_b7_sum_eltwise <- L1_b7_cbr2_bn_top
I0821 06:45:15.023591 31846 net.cpp:434] L1_b7_sum_eltwise <- L1_b6_sum_eltwise_top_L1_b6_relu_0_split_1
I0821 06:45:15.023597 31846 net.cpp:408] L1_b7_sum_eltwise -> L1_b7_sum_eltwise_top
I0821 06:45:15.023632 31846 net.cpp:150] Setting up L1_b7_sum_eltwise
I0821 06:45:15.023640 31846 net.cpp:157] Top shape: 125 16 32 32 (2048000)
I0821 06:45:15.023645 31846 net.cpp:165] Memory required for data: 656897500
I0821 06:45:15.023650 31846 layer_factory.hpp:77] Creating layer L1_b7_relu
I0821 06:45:15.023658 31846 net.cpp:100] Creating Layer L1_b7_relu
I0821 06:45:15.023664 31846 net.cpp:434] L1_b7_relu <- L1_b7_sum_eltwise_top
I0821 06:45:15.023674 31846 net.cpp:395] L1_b7_relu -> L1_b7_sum_eltwise_top (in-place)
I0821 06:45:15.023684 31846 net.cpp:150] Setting up L1_b7_relu
I0821 06:45:15.023691 31846 net.cpp:157] Top shape: 125 16 32 32 (2048000)
I0821 06:45:15.023695 31846 net.cpp:165] Memory required for data: 665089500
I0821 06:45:15.023700 31846 layer_factory.hpp:77] Creating layer L1_b7_sum_eltwise_top_L1_b7_relu_0_split
I0821 06:45:15.023707 31846 net.cpp:100] Creating Layer L1_b7_sum_eltwise_top_L1_b7_relu_0_split
I0821 06:45:15.023712 31846 net.cpp:434] L1_b7_sum_eltwise_top_L1_b7_relu_0_split <- L1_b7_sum_eltwise_top
I0821 06:45:15.023720 31846 net.cpp:408] L1_b7_sum_eltwise_top_L1_b7_relu_0_split -> L1_b7_sum_eltwise_top_L1_b7_relu_0_split_0
I0821 06:45:15.023730 31846 net.cpp:408] L1_b7_sum_eltwise_top_L1_b7_relu_0_split -> L1_b7_sum_eltwise_top_L1_b7_relu_0_split_1
I0821 06:45:15.023773 31846 net.cpp:150] Setting up L1_b7_sum_eltwise_top_L1_b7_relu_0_split
I0821 06:45:15.023785 31846 net.cpp:157] Top shape: 125 16 32 32 (2048000)
I0821 06:45:15.023792 31846 net.cpp:157] Top shape: 125 16 32 32 (2048000)
I0821 06:45:15.023797 31846 net.cpp:165] Memory required for data: 681473500
I0821 06:45:15.023802 31846 layer_factory.hpp:77] Creating layer L1_b8_cbr1_conv
I0821 06:45:15.023815 31846 net.cpp:100] Creating Layer L1_b8_cbr1_conv
I0821 06:45:15.023823 31846 net.cpp:434] L1_b8_cbr1_conv <- L1_b7_sum_eltwise_top_L1_b7_relu_0_split_0
I0821 06:45:15.023831 31846 net.cpp:408] L1_b8_cbr1_conv -> L1_b8_cbr1_conv_top
I0821 06:45:15.024142 31846 net.cpp:150] Setting up L1_b8_cbr1_conv
I0821 06:45:15.024157 31846 net.cpp:157] Top shape: 125 16 32 32 (2048000)
I0821 06:45:15.024161 31846 net.cpp:165] Memory required for data: 689665500
I0821 06:45:15.024170 31846 layer_factory.hpp:77] Creating layer L1_b8_cbr1_bn
I0821 06:45:15.024183 31846 net.cpp:100] Creating Layer L1_b8_cbr1_bn
I0821 06:45:15.024189 31846 net.cpp:434] L1_b8_cbr1_bn <- L1_b8_cbr1_conv_top
I0821 06:45:15.024199 31846 net.cpp:408] L1_b8_cbr1_bn -> L1_b8_cbr1_bn_top
I0821 06:45:15.024454 31846 net.cpp:150] Setting up L1_b8_cbr1_bn
I0821 06:45:15.024471 31846 net.cpp:157] Top shape: 125 16 32 32 (2048000)
I0821 06:45:15.024477 31846 net.cpp:165] Memory required for data: 697857500
I0821 06:45:15.024487 31846 layer_factory.hpp:77] Creating layer L1_b8_cbr1_scale
I0821 06:45:15.024497 31846 net.cpp:100] Creating Layer L1_b8_cbr1_scale
I0821 06:45:15.024502 31846 net.cpp:434] L1_b8_cbr1_scale <- L1_b8_cbr1_bn_top
I0821 06:45:15.024510 31846 net.cpp:395] L1_b8_cbr1_scale -> L1_b8_cbr1_bn_top (in-place)
I0821 06:45:15.024562 31846 layer_factory.hpp:77] Creating layer L1_b8_cbr1_scale
I0821 06:45:15.024705 31846 net.cpp:150] Setting up L1_b8_cbr1_scale
I0821 06:45:15.024719 31846 net.cpp:157] Top shape: 125 16 32 32 (2048000)
I0821 06:45:15.024724 31846 net.cpp:165] Memory required for data: 706049500
I0821 06:45:15.024734 31846 layer_factory.hpp:77] Creating layer L1_b8_cbr1_relu
I0821 06:45:15.024744 31846 net.cpp:100] Creating Layer L1_b8_cbr1_relu
I0821 06:45:15.024751 31846 net.cpp:434] L1_b8_cbr1_relu <- L1_b8_cbr1_bn_top
I0821 06:45:15.024758 31846 net.cpp:395] L1_b8_cbr1_relu -> L1_b8_cbr1_bn_top (in-place)
I0821 06:45:15.024770 31846 net.cpp:150] Setting up L1_b8_cbr1_relu
I0821 06:45:15.024777 31846 net.cpp:157] Top shape: 125 16 32 32 (2048000)
I0821 06:45:15.024782 31846 net.cpp:165] Memory required for data: 714241500
I0821 06:45:15.024787 31846 layer_factory.hpp:77] Creating layer L1_b8_cbr2_conv
I0821 06:45:15.024798 31846 net.cpp:100] Creating Layer L1_b8_cbr2_conv
I0821 06:45:15.024803 31846 net.cpp:434] L1_b8_cbr2_conv <- L1_b8_cbr1_bn_top
I0821 06:45:15.024816 31846 net.cpp:408] L1_b8_cbr2_conv -> L1_b8_cbr2_conv_top
I0821 06:45:15.025126 31846 net.cpp:150] Setting up L1_b8_cbr2_conv
I0821 06:45:15.025141 31846 net.cpp:157] Top shape: 125 16 32 32 (2048000)
I0821 06:45:15.025146 31846 net.cpp:165] Memory required for data: 722433500
I0821 06:45:15.025154 31846 layer_factory.hpp:77] Creating layer L1_b8_cbr2_bn
I0821 06:45:15.025162 31846 net.cpp:100] Creating Layer L1_b8_cbr2_bn
I0821 06:45:15.025169 31846 net.cpp:434] L1_b8_cbr2_bn <- L1_b8_cbr2_conv_top
I0821 06:45:15.025180 31846 net.cpp:408] L1_b8_cbr2_bn -> L1_b8_cbr2_bn_top
I0821 06:45:15.025430 31846 net.cpp:150] Setting up L1_b8_cbr2_bn
I0821 06:45:15.025444 31846 net.cpp:157] Top shape: 125 16 32 32 (2048000)
I0821 06:45:15.025449 31846 net.cpp:165] Memory required for data: 730625500
I0821 06:45:15.025460 31846 layer_factory.hpp:77] Creating layer L1_b8_cbr2_scale
I0821 06:45:15.025472 31846 net.cpp:100] Creating Layer L1_b8_cbr2_scale
I0821 06:45:15.025478 31846 net.cpp:434] L1_b8_cbr2_scale <- L1_b8_cbr2_bn_top
I0821 06:45:15.025486 31846 net.cpp:395] L1_b8_cbr2_scale -> L1_b8_cbr2_bn_top (in-place)
I0821 06:45:15.025539 31846 layer_factory.hpp:77] Creating layer L1_b8_cbr2_scale
I0821 06:45:15.025679 31846 net.cpp:150] Setting up L1_b8_cbr2_scale
I0821 06:45:15.025691 31846 net.cpp:157] Top shape: 125 16 32 32 (2048000)
I0821 06:45:15.025696 31846 net.cpp:165] Memory required for data: 738817500
I0821 06:45:15.025705 31846 layer_factory.hpp:77] Creating layer L1_b8_sum_eltwise
I0821 06:45:15.025717 31846 net.cpp:100] Creating Layer L1_b8_sum_eltwise
I0821 06:45:15.025724 31846 net.cpp:434] L1_b8_sum_eltwise <- L1_b8_cbr2_bn_top
I0821 06:45:15.025732 31846 net.cpp:434] L1_b8_sum_eltwise <- L1_b7_sum_eltwise_top_L1_b7_relu_0_split_1
I0821 06:45:15.025738 31846 net.cpp:408] L1_b8_sum_eltwise -> L1_b8_sum_eltwise_top
I0821 06:45:15.025773 31846 net.cpp:150] Setting up L1_b8_sum_eltwise
I0821 06:45:15.025781 31846 net.cpp:157] Top shape: 125 16 32 32 (2048000)
I0821 06:45:15.025786 31846 net.cpp:165] Memory required for data: 747009500
I0821 06:45:15.025792 31846 layer_factory.hpp:77] Creating layer L1_b8_relu
I0821 06:45:15.025799 31846 net.cpp:100] Creating Layer L1_b8_relu
I0821 06:45:15.025805 31846 net.cpp:434] L1_b8_relu <- L1_b8_sum_eltwise_top
I0821 06:45:15.025815 31846 net.cpp:395] L1_b8_relu -> L1_b8_sum_eltwise_top (in-place)
I0821 06:45:15.025825 31846 net.cpp:150] Setting up L1_b8_relu
I0821 06:45:15.025831 31846 net.cpp:157] Top shape: 125 16 32 32 (2048000)
I0821 06:45:15.025842 31846 net.cpp:165] Memory required for data: 755201500
I0821 06:45:15.025848 31846 layer_factory.hpp:77] Creating layer L1_b8_sum_eltwise_top_L1_b8_relu_0_split
I0821 06:45:15.025856 31846 net.cpp:100] Creating Layer L1_b8_sum_eltwise_top_L1_b8_relu_0_split
I0821 06:45:15.025861 31846 net.cpp:434] L1_b8_sum_eltwise_top_L1_b8_relu_0_split <- L1_b8_sum_eltwise_top
I0821 06:45:15.025868 31846 net.cpp:408] L1_b8_sum_eltwise_top_L1_b8_relu_0_split -> L1_b8_sum_eltwise_top_L1_b8_relu_0_split_0
I0821 06:45:15.025877 31846 net.cpp:408] L1_b8_sum_eltwise_top_L1_b8_relu_0_split -> L1_b8_sum_eltwise_top_L1_b8_relu_0_split_1
I0821 06:45:15.025923 31846 net.cpp:150] Setting up L1_b8_sum_eltwise_top_L1_b8_relu_0_split
I0821 06:45:15.025935 31846 net.cpp:157] Top shape: 125 16 32 32 (2048000)
I0821 06:45:15.025943 31846 net.cpp:157] Top shape: 125 16 32 32 (2048000)
I0821 06:45:15.025946 31846 net.cpp:165] Memory required for data: 771585500
I0821 06:45:15.025951 31846 layer_factory.hpp:77] Creating layer L1_b9_cbr1_conv
I0821 06:45:15.025962 31846 net.cpp:100] Creating Layer L1_b9_cbr1_conv
I0821 06:45:15.025969 31846 net.cpp:434] L1_b9_cbr1_conv <- L1_b8_sum_eltwise_top_L1_b8_relu_0_split_0
I0821 06:45:15.025980 31846 net.cpp:408] L1_b9_cbr1_conv -> L1_b9_cbr1_conv_top
I0821 06:45:15.026302 31846 net.cpp:150] Setting up L1_b9_cbr1_conv
I0821 06:45:15.026321 31846 net.cpp:157] Top shape: 125 16 32 32 (2048000)
I0821 06:45:15.026326 31846 net.cpp:165] Memory required for data: 779777500
I0821 06:45:15.026335 31846 layer_factory.hpp:77] Creating layer L1_b9_cbr1_bn
I0821 06:45:15.026345 31846 net.cpp:100] Creating Layer L1_b9_cbr1_bn
I0821 06:45:15.026350 31846 net.cpp:434] L1_b9_cbr1_bn <- L1_b9_cbr1_conv_top
I0821 06:45:15.026362 31846 net.cpp:408] L1_b9_cbr1_bn -> L1_b9_cbr1_bn_top
I0821 06:45:15.026613 31846 net.cpp:150] Setting up L1_b9_cbr1_bn
I0821 06:45:15.026628 31846 net.cpp:157] Top shape: 125 16 32 32 (2048000)
I0821 06:45:15.026633 31846 net.cpp:165] Memory required for data: 787969500
I0821 06:45:15.026643 31846 layer_factory.hpp:77] Creating layer L1_b9_cbr1_scale
I0821 06:45:15.026652 31846 net.cpp:100] Creating Layer L1_b9_cbr1_scale
I0821 06:45:15.026659 31846 net.cpp:434] L1_b9_cbr1_scale <- L1_b9_cbr1_bn_top
I0821 06:45:15.026669 31846 net.cpp:395] L1_b9_cbr1_scale -> L1_b9_cbr1_bn_top (in-place)
I0821 06:45:15.026721 31846 layer_factory.hpp:77] Creating layer L1_b9_cbr1_scale
I0821 06:45:15.026863 31846 net.cpp:150] Setting up L1_b9_cbr1_scale
I0821 06:45:15.026880 31846 net.cpp:157] Top shape: 125 16 32 32 (2048000)
I0821 06:45:15.026885 31846 net.cpp:165] Memory required for data: 796161500
I0821 06:45:15.026895 31846 layer_factory.hpp:77] Creating layer L1_b9_cbr1_relu
I0821 06:45:15.026901 31846 net.cpp:100] Creating Layer L1_b9_cbr1_relu
I0821 06:45:15.026907 31846 net.cpp:434] L1_b9_cbr1_relu <- L1_b9_cbr1_bn_top
I0821 06:45:15.026914 31846 net.cpp:395] L1_b9_cbr1_relu -> L1_b9_cbr1_bn_top (in-place)
I0821 06:45:15.026924 31846 net.cpp:150] Setting up L1_b9_cbr1_relu
I0821 06:45:15.026931 31846 net.cpp:157] Top shape: 125 16 32 32 (2048000)
I0821 06:45:15.026935 31846 net.cpp:165] Memory required for data: 804353500
I0821 06:45:15.026940 31846 layer_factory.hpp:77] Creating layer L1_b9_cbr2_conv
I0821 06:45:15.026954 31846 net.cpp:100] Creating Layer L1_b9_cbr2_conv
I0821 06:45:15.026960 31846 net.cpp:434] L1_b9_cbr2_conv <- L1_b9_cbr1_bn_top
I0821 06:45:15.026970 31846 net.cpp:408] L1_b9_cbr2_conv -> L1_b9_cbr2_conv_top
I0821 06:45:15.027287 31846 net.cpp:150] Setting up L1_b9_cbr2_conv
I0821 06:45:15.027302 31846 net.cpp:157] Top shape: 125 16 32 32 (2048000)
I0821 06:45:15.027307 31846 net.cpp:165] Memory required for data: 812545500
I0821 06:45:15.027314 31846 layer_factory.hpp:77] Creating layer L1_b9_cbr2_bn
I0821 06:45:15.027326 31846 net.cpp:100] Creating Layer L1_b9_cbr2_bn
I0821 06:45:15.027333 31846 net.cpp:434] L1_b9_cbr2_bn <- L1_b9_cbr2_conv_top
I0821 06:45:15.027343 31846 net.cpp:408] L1_b9_cbr2_bn -> L1_b9_cbr2_bn_top
I0821 06:45:15.027598 31846 net.cpp:150] Setting up L1_b9_cbr2_bn
I0821 06:45:15.027612 31846 net.cpp:157] Top shape: 125 16 32 32 (2048000)
I0821 06:45:15.027617 31846 net.cpp:165] Memory required for data: 820737500
I0821 06:45:15.027649 31846 layer_factory.hpp:77] Creating layer L1_b9_cbr2_scale
I0821 06:45:15.027659 31846 net.cpp:100] Creating Layer L1_b9_cbr2_scale
I0821 06:45:15.027665 31846 net.cpp:434] L1_b9_cbr2_scale <- L1_b9_cbr2_bn_top
I0821 06:45:15.027675 31846 net.cpp:395] L1_b9_cbr2_scale -> L1_b9_cbr2_bn_top (in-place)
I0821 06:45:15.027727 31846 layer_factory.hpp:77] Creating layer L1_b9_cbr2_scale
I0821 06:45:15.027873 31846 net.cpp:150] Setting up L1_b9_cbr2_scale
I0821 06:45:15.027886 31846 net.cpp:157] Top shape: 125 16 32 32 (2048000)
I0821 06:45:15.027891 31846 net.cpp:165] Memory required for data: 828929500
I0821 06:45:15.027900 31846 layer_factory.hpp:77] Creating layer L1_b9_sum_eltwise
I0821 06:45:15.027912 31846 net.cpp:100] Creating Layer L1_b9_sum_eltwise
I0821 06:45:15.027918 31846 net.cpp:434] L1_b9_sum_eltwise <- L1_b9_cbr2_bn_top
I0821 06:45:15.027925 31846 net.cpp:434] L1_b9_sum_eltwise <- L1_b8_sum_eltwise_top_L1_b8_relu_0_split_1
I0821 06:45:15.027932 31846 net.cpp:408] L1_b9_sum_eltwise -> L1_b9_sum_eltwise_top
I0821 06:45:15.027964 31846 net.cpp:150] Setting up L1_b9_sum_eltwise
I0821 06:45:15.027973 31846 net.cpp:157] Top shape: 125 16 32 32 (2048000)
I0821 06:45:15.027978 31846 net.cpp:165] Memory required for data: 837121500
I0821 06:45:15.027983 31846 layer_factory.hpp:77] Creating layer L1_b9_relu
I0821 06:45:15.027994 31846 net.cpp:100] Creating Layer L1_b9_relu
I0821 06:45:15.028000 31846 net.cpp:434] L1_b9_relu <- L1_b9_sum_eltwise_top
I0821 06:45:15.028007 31846 net.cpp:395] L1_b9_relu -> L1_b9_sum_eltwise_top (in-place)
I0821 06:45:15.028017 31846 net.cpp:150] Setting up L1_b9_relu
I0821 06:45:15.028023 31846 net.cpp:157] Top shape: 125 16 32 32 (2048000)
I0821 06:45:15.028028 31846 net.cpp:165] Memory required for data: 845313500
I0821 06:45:15.028033 31846 layer_factory.hpp:77] Creating layer L1_b9_sum_eltwise_top_L1_b9_relu_0_split
I0821 06:45:15.028044 31846 net.cpp:100] Creating Layer L1_b9_sum_eltwise_top_L1_b9_relu_0_split
I0821 06:45:15.028050 31846 net.cpp:434] L1_b9_sum_eltwise_top_L1_b9_relu_0_split <- L1_b9_sum_eltwise_top
I0821 06:45:15.028057 31846 net.cpp:408] L1_b9_sum_eltwise_top_L1_b9_relu_0_split -> L1_b9_sum_eltwise_top_L1_b9_relu_0_split_0
I0821 06:45:15.028066 31846 net.cpp:408] L1_b9_sum_eltwise_top_L1_b9_relu_0_split -> L1_b9_sum_eltwise_top_L1_b9_relu_0_split_1
I0821 06:45:15.028111 31846 net.cpp:150] Setting up L1_b9_sum_eltwise_top_L1_b9_relu_0_split
I0821 06:45:15.028122 31846 net.cpp:157] Top shape: 125 16 32 32 (2048000)
I0821 06:45:15.028129 31846 net.cpp:157] Top shape: 125 16 32 32 (2048000)
I0821 06:45:15.028133 31846 net.cpp:165] Memory required for data: 861697500
I0821 06:45:15.028139 31846 layer_factory.hpp:77] Creating layer L2_b1_cbr1_conv
I0821 06:45:15.028153 31846 net.cpp:100] Creating Layer L2_b1_cbr1_conv
I0821 06:45:15.028159 31846 net.cpp:434] L2_b1_cbr1_conv <- L1_b9_sum_eltwise_top_L1_b9_relu_0_split_0
I0821 06:45:15.028168 31846 net.cpp:408] L2_b1_cbr1_conv -> L2_b1_cbr1_conv_top
I0821 06:45:15.028492 31846 net.cpp:150] Setting up L2_b1_cbr1_conv
I0821 06:45:15.028506 31846 net.cpp:157] Top shape: 125 16 16 16 (512000)
I0821 06:45:15.028512 31846 net.cpp:165] Memory required for data: 863745500
I0821 06:45:15.028520 31846 layer_factory.hpp:77] Creating layer L2_b1_cbr1_bn
I0821 06:45:15.028532 31846 net.cpp:100] Creating Layer L2_b1_cbr1_bn
I0821 06:45:15.028538 31846 net.cpp:434] L2_b1_cbr1_bn <- L2_b1_cbr1_conv_top
I0821 06:45:15.028549 31846 net.cpp:408] L2_b1_cbr1_bn -> L2_b1_cbr1_bn_top
I0821 06:45:15.028785 31846 net.cpp:150] Setting up L2_b1_cbr1_bn
I0821 06:45:15.028798 31846 net.cpp:157] Top shape: 125 16 16 16 (512000)
I0821 06:45:15.028803 31846 net.cpp:165] Memory required for data: 865793500
I0821 06:45:15.028813 31846 layer_factory.hpp:77] Creating layer L2_b1_cbr1_scale
I0821 06:45:15.028822 31846 net.cpp:100] Creating Layer L2_b1_cbr1_scale
I0821 06:45:15.028836 31846 net.cpp:434] L2_b1_cbr1_scale <- L2_b1_cbr1_bn_top
I0821 06:45:15.028844 31846 net.cpp:395] L2_b1_cbr1_scale -> L2_b1_cbr1_bn_top (in-place)
I0821 06:45:15.028898 31846 layer_factory.hpp:77] Creating layer L2_b1_cbr1_scale
I0821 06:45:15.029036 31846 net.cpp:150] Setting up L2_b1_cbr1_scale
I0821 06:45:15.029049 31846 net.cpp:157] Top shape: 125 16 16 16 (512000)
I0821 06:45:15.029054 31846 net.cpp:165] Memory required for data: 867841500
I0821 06:45:15.029063 31846 layer_factory.hpp:77] Creating layer L2_b1_cbr1_relu
I0821 06:45:15.029072 31846 net.cpp:100] Creating Layer L2_b1_cbr1_relu
I0821 06:45:15.029078 31846 net.cpp:434] L2_b1_cbr1_relu <- L2_b1_cbr1_bn_top
I0821 06:45:15.029088 31846 net.cpp:395] L2_b1_cbr1_relu -> L2_b1_cbr1_bn_top (in-place)
I0821 06:45:15.029098 31846 net.cpp:150] Setting up L2_b1_cbr1_relu
I0821 06:45:15.029104 31846 net.cpp:157] Top shape: 125 16 16 16 (512000)
I0821 06:45:15.029109 31846 net.cpp:165] Memory required for data: 869889500
I0821 06:45:15.029114 31846 layer_factory.hpp:77] Creating layer L2_b1_cbr2_conv
I0821 06:45:15.029127 31846 net.cpp:100] Creating Layer L2_b1_cbr2_conv
I0821 06:45:15.029134 31846 net.cpp:434] L2_b1_cbr2_conv <- L2_b1_cbr1_bn_top
I0821 06:45:15.029142 31846 net.cpp:408] L2_b1_cbr2_conv -> L2_b1_cbr2_conv_top
I0821 06:45:15.029465 31846 net.cpp:150] Setting up L2_b1_cbr2_conv
I0821 06:45:15.029479 31846 net.cpp:157] Top shape: 125 16 16 16 (512000)
I0821 06:45:15.029484 31846 net.cpp:165] Memory required for data: 871937500
I0821 06:45:15.029494 31846 layer_factory.hpp:77] Creating layer L2_b1_cbr2_bn
I0821 06:45:15.029507 31846 net.cpp:100] Creating Layer L2_b1_cbr2_bn
I0821 06:45:15.029513 31846 net.cpp:434] L2_b1_cbr2_bn <- L2_b1_cbr2_conv_top
I0821 06:45:15.029522 31846 net.cpp:408] L2_b1_cbr2_bn -> L2_b1_cbr2_bn_top
I0821 06:45:15.029765 31846 net.cpp:150] Setting up L2_b1_cbr2_bn
I0821 06:45:15.029781 31846 net.cpp:157] Top shape: 125 16 16 16 (512000)
I0821 06:45:15.029786 31846 net.cpp:165] Memory required for data: 873985500
I0821 06:45:15.029796 31846 layer_factory.hpp:77] Creating layer L2_b1_cbr2_scale
I0821 06:45:15.029805 31846 net.cpp:100] Creating Layer L2_b1_cbr2_scale
I0821 06:45:15.029811 31846 net.cpp:434] L2_b1_cbr2_scale <- L2_b1_cbr2_bn_top
I0821 06:45:15.029819 31846 net.cpp:395] L2_b1_cbr2_scale -> L2_b1_cbr2_bn_top (in-place)
I0821 06:45:15.029872 31846 layer_factory.hpp:77] Creating layer L2_b1_cbr2_scale
I0821 06:45:15.030017 31846 net.cpp:150] Setting up L2_b1_cbr2_scale
I0821 06:45:15.030030 31846 net.cpp:157] Top shape: 125 16 16 16 (512000)
I0821 06:45:15.030035 31846 net.cpp:165] Memory required for data: 876033500
I0821 06:45:15.030045 31846 layer_factory.hpp:77] Creating layer L2_b1_pool
I0821 06:45:15.030055 31846 net.cpp:100] Creating Layer L2_b1_pool
I0821 06:45:15.030061 31846 net.cpp:434] L2_b1_pool <- L1_b9_sum_eltwise_top_L1_b9_relu_0_split_1
I0821 06:45:15.030072 31846 net.cpp:408] L2_b1_pool -> L2_b1_pool
I0821 06:45:15.030160 31846 net.cpp:150] Setting up L2_b1_pool
I0821 06:45:15.030175 31846 net.cpp:157] Top shape: 125 16 16 16 (512000)
I0821 06:45:15.030180 31846 net.cpp:165] Memory required for data: 878081500
I0821 06:45:15.030185 31846 layer_factory.hpp:77] Creating layer L2_b1_sum_eltwise
I0821 06:45:15.030200 31846 net.cpp:100] Creating Layer L2_b1_sum_eltwise
I0821 06:45:15.030205 31846 net.cpp:434] L2_b1_sum_eltwise <- L2_b1_cbr2_bn_top
I0821 06:45:15.030212 31846 net.cpp:434] L2_b1_sum_eltwise <- L2_b1_pool
I0821 06:45:15.030220 31846 net.cpp:408] L2_b1_sum_eltwise -> L2_b1_sum_eltwise_top
I0821 06:45:15.030252 31846 net.cpp:150] Setting up L2_b1_sum_eltwise
I0821 06:45:15.030261 31846 net.cpp:157] Top shape: 125 16 16 16 (512000)
I0821 06:45:15.030266 31846 net.cpp:165] Memory required for data: 880129500
I0821 06:45:15.030272 31846 layer_factory.hpp:77] Creating layer L2_b1_relu
I0821 06:45:15.030278 31846 net.cpp:100] Creating Layer L2_b1_relu
I0821 06:45:15.030284 31846 net.cpp:434] L2_b1_relu <- L2_b1_sum_eltwise_top
I0821 06:45:15.030294 31846 net.cpp:395] L2_b1_relu -> L2_b1_sum_eltwise_top (in-place)
I0821 06:45:15.030311 31846 net.cpp:150] Setting up L2_b1_relu
I0821 06:45:15.030319 31846 net.cpp:157] Top shape: 125 16 16 16 (512000)
I0821 06:45:15.030324 31846 net.cpp:165] Memory required for data: 882177500
I0821 06:45:15.030328 31846 layer_factory.hpp:77] Creating layer L2_b1_zeros
I0821 06:45:15.030382 31846 net.cpp:100] Creating Layer L2_b1_zeros
I0821 06:45:15.030396 31846 net.cpp:408] L2_b1_zeros -> L2_b1_zeros
I0821 06:45:15.032778 31846 net.cpp:150] Setting up L2_b1_zeros
I0821 06:45:15.032797 31846 net.cpp:157] Top shape: 125 16 16 16 (512000)
I0821 06:45:15.032804 31846 net.cpp:165] Memory required for data: 884225500
I0821 06:45:15.032809 31846 layer_factory.hpp:77] Creating layer L2_b1_concat0
I0821 06:45:15.032819 31846 net.cpp:100] Creating Layer L2_b1_concat0
I0821 06:45:15.032825 31846 net.cpp:434] L2_b1_concat0 <- L2_b1_sum_eltwise_top
I0821 06:45:15.032836 31846 net.cpp:434] L2_b1_concat0 <- L2_b1_zeros
I0821 06:45:15.032845 31846 net.cpp:408] L2_b1_concat0 -> L2_b1_concat0
I0821 06:45:15.032927 31846 net.cpp:150] Setting up L2_b1_concat0
I0821 06:45:15.032943 31846 net.cpp:157] Top shape: 125 32 16 16 (1024000)
I0821 06:45:15.032948 31846 net.cpp:165] Memory required for data: 888321500
I0821 06:45:15.032953 31846 layer_factory.hpp:77] Creating layer L2_b1_concat0_L2_b1_concat0_0_split
I0821 06:45:15.032963 31846 net.cpp:100] Creating Layer L2_b1_concat0_L2_b1_concat0_0_split
I0821 06:45:15.032968 31846 net.cpp:434] L2_b1_concat0_L2_b1_concat0_0_split <- L2_b1_concat0
I0821 06:45:15.032979 31846 net.cpp:408] L2_b1_concat0_L2_b1_concat0_0_split -> L2_b1_concat0_L2_b1_concat0_0_split_0
I0821 06:45:15.032989 31846 net.cpp:408] L2_b1_concat0_L2_b1_concat0_0_split -> L2_b1_concat0_L2_b1_concat0_0_split_1
I0821 06:45:15.033037 31846 net.cpp:150] Setting up L2_b1_concat0_L2_b1_concat0_0_split
I0821 06:45:15.033052 31846 net.cpp:157] Top shape: 125 32 16 16 (1024000)
I0821 06:45:15.033059 31846 net.cpp:157] Top shape: 125 32 16 16 (1024000)
I0821 06:45:15.033064 31846 net.cpp:165] Memory required for data: 896513500
I0821 06:45:15.033069 31846 layer_factory.hpp:77] Creating layer L2_b2_cbr1_conv
I0821 06:45:15.033082 31846 net.cpp:100] Creating Layer L2_b2_cbr1_conv
I0821 06:45:15.033087 31846 net.cpp:434] L2_b2_cbr1_conv <- L2_b1_concat0_L2_b1_concat0_0_split_0
I0821 06:45:15.033097 31846 net.cpp:408] L2_b2_cbr1_conv -> L2_b2_cbr1_conv_top
I0821 06:45:15.034553 31846 net.cpp:150] Setting up L2_b2_cbr1_conv
I0821 06:45:15.034570 31846 net.cpp:157] Top shape: 125 32 16 16 (1024000)
I0821 06:45:15.034575 31846 net.cpp:165] Memory required for data: 900609500
I0821 06:45:15.034585 31846 layer_factory.hpp:77] Creating layer L2_b2_cbr1_bn
I0821 06:45:15.034598 31846 net.cpp:100] Creating Layer L2_b2_cbr1_bn
I0821 06:45:15.034605 31846 net.cpp:434] L2_b2_cbr1_bn <- L2_b2_cbr1_conv_top
I0821 06:45:15.034616 31846 net.cpp:408] L2_b2_cbr1_bn -> L2_b2_cbr1_bn_top
I0821 06:45:15.034864 31846 net.cpp:150] Setting up L2_b2_cbr1_bn
I0821 06:45:15.034878 31846 net.cpp:157] Top shape: 125 32 16 16 (1024000)
I0821 06:45:15.034883 31846 net.cpp:165] Memory required for data: 904705500
I0821 06:45:15.034894 31846 layer_factory.hpp:77] Creating layer L2_b2_cbr1_scale
I0821 06:45:15.034904 31846 net.cpp:100] Creating Layer L2_b2_cbr1_scale
I0821 06:45:15.034909 31846 net.cpp:434] L2_b2_cbr1_scale <- L2_b2_cbr1_bn_top
I0821 06:45:15.034917 31846 net.cpp:395] L2_b2_cbr1_scale -> L2_b2_cbr1_bn_top (in-place)
I0821 06:45:15.034976 31846 layer_factory.hpp:77] Creating layer L2_b2_cbr1_scale
I0821 06:45:15.035120 31846 net.cpp:150] Setting up L2_b2_cbr1_scale
I0821 06:45:15.035133 31846 net.cpp:157] Top shape: 125 32 16 16 (1024000)
I0821 06:45:15.035138 31846 net.cpp:165] Memory required for data: 908801500
I0821 06:45:15.035147 31846 layer_factory.hpp:77] Creating layer L2_b2_cbr1_relu
I0821 06:45:15.035156 31846 net.cpp:100] Creating Layer L2_b2_cbr1_relu
I0821 06:45:15.035164 31846 net.cpp:434] L2_b2_cbr1_relu <- L2_b2_cbr1_bn_top
I0821 06:45:15.035172 31846 net.cpp:395] L2_b2_cbr1_relu -> L2_b2_cbr1_bn_top (in-place)
I0821 06:45:15.035190 31846 net.cpp:150] Setting up L2_b2_cbr1_relu
I0821 06:45:15.035198 31846 net.cpp:157] Top shape: 125 32 16 16 (1024000)
I0821 06:45:15.035203 31846 net.cpp:165] Memory required for data: 912897500
I0821 06:45:15.035208 31846 layer_factory.hpp:77] Creating layer L2_b2_cbr2_conv
I0821 06:45:15.035223 31846 net.cpp:100] Creating Layer L2_b2_cbr2_conv
I0821 06:45:15.035229 31846 net.cpp:434] L2_b2_cbr2_conv <- L2_b2_cbr1_bn_top
I0821 06:45:15.035238 31846 net.cpp:408] L2_b2_cbr2_conv -> L2_b2_cbr2_conv_top
I0821 06:45:15.035704 31846 net.cpp:150] Setting up L2_b2_cbr2_conv
I0821 06:45:15.035719 31846 net.cpp:157] Top shape: 125 32 16 16 (1024000)
I0821 06:45:15.035724 31846 net.cpp:165] Memory required for data: 916993500
I0821 06:45:15.035733 31846 layer_factory.hpp:77] Creating layer L2_b2_cbr2_bn
I0821 06:45:15.035745 31846 net.cpp:100] Creating Layer L2_b2_cbr2_bn
I0821 06:45:15.035753 31846 net.cpp:434] L2_b2_cbr2_bn <- L2_b2_cbr2_conv_top
I0821 06:45:15.035760 31846 net.cpp:408] L2_b2_cbr2_bn -> L2_b2_cbr2_bn_top
I0821 06:45:15.036001 31846 net.cpp:150] Setting up L2_b2_cbr2_bn
I0821 06:45:15.036017 31846 net.cpp:157] Top shape: 125 32 16 16 (1024000)
I0821 06:45:15.036022 31846 net.cpp:165] Memory required for data: 921089500
I0821 06:45:15.036033 31846 layer_factory.hpp:77] Creating layer L2_b2_cbr2_scale
I0821 06:45:15.036043 31846 net.cpp:100] Creating Layer L2_b2_cbr2_scale
I0821 06:45:15.036049 31846 net.cpp:434] L2_b2_cbr2_scale <- L2_b2_cbr2_bn_top
I0821 06:45:15.036056 31846 net.cpp:395] L2_b2_cbr2_scale -> L2_b2_cbr2_bn_top (in-place)
I0821 06:45:15.036109 31846 layer_factory.hpp:77] Creating layer L2_b2_cbr2_scale
I0821 06:45:15.036252 31846 net.cpp:150] Setting up L2_b2_cbr2_scale
I0821 06:45:15.036265 31846 net.cpp:157] Top shape: 125 32 16 16 (1024000)
I0821 06:45:15.036270 31846 net.cpp:165] Memory required for data: 925185500
I0821 06:45:15.036279 31846 layer_factory.hpp:77] Creating layer L2_b2_sum_eltwise
I0821 06:45:15.036288 31846 net.cpp:100] Creating Layer L2_b2_sum_eltwise
I0821 06:45:15.036294 31846 net.cpp:434] L2_b2_sum_eltwise <- L2_b2_cbr2_bn_top
I0821 06:45:15.036301 31846 net.cpp:434] L2_b2_sum_eltwise <- L2_b1_concat0_L2_b1_concat0_0_split_1
I0821 06:45:15.036312 31846 net.cpp:408] L2_b2_sum_eltwise -> L2_b2_sum_eltwise_top
I0821 06:45:15.036339 31846 net.cpp:150] Setting up L2_b2_sum_eltwise
I0821 06:45:15.036347 31846 net.cpp:157] Top shape: 125 32 16 16 (1024000)
I0821 06:45:15.036352 31846 net.cpp:165] Memory required for data: 929281500
I0821 06:45:15.036357 31846 layer_factory.hpp:77] Creating layer L2_b2_relu
I0821 06:45:15.036368 31846 net.cpp:100] Creating Layer L2_b2_relu
I0821 06:45:15.036375 31846 net.cpp:434] L2_b2_relu <- L2_b2_sum_eltwise_top
I0821 06:45:15.036381 31846 net.cpp:395] L2_b2_relu -> L2_b2_sum_eltwise_top (in-place)
I0821 06:45:15.036391 31846 net.cpp:150] Setting up L2_b2_relu
I0821 06:45:15.036397 31846 net.cpp:157] Top shape: 125 32 16 16 (1024000)
I0821 06:45:15.036402 31846 net.cpp:165] Memory required for data: 933377500
I0821 06:45:15.036407 31846 layer_factory.hpp:77] Creating layer L2_b2_sum_eltwise_top_L2_b2_relu_0_split
I0821 06:45:15.036414 31846 net.cpp:100] Creating Layer L2_b2_sum_eltwise_top_L2_b2_relu_0_split
I0821 06:45:15.036419 31846 net.cpp:434] L2_b2_sum_eltwise_top_L2_b2_relu_0_split <- L2_b2_sum_eltwise_top
I0821 06:45:15.036433 31846 net.cpp:408] L2_b2_sum_eltwise_top_L2_b2_relu_0_split -> L2_b2_sum_eltwise_top_L2_b2_relu_0_split_0
I0821 06:45:15.036443 31846 net.cpp:408] L2_b2_sum_eltwise_top_L2_b2_relu_0_split -> L2_b2_sum_eltwise_top_L2_b2_relu_0_split_1
I0821 06:45:15.036492 31846 net.cpp:150] Setting up L2_b2_sum_eltwise_top_L2_b2_relu_0_split
I0821 06:45:15.036504 31846 net.cpp:157] Top shape: 125 32 16 16 (1024000)
I0821 06:45:15.036511 31846 net.cpp:157] Top shape: 125 32 16 16 (1024000)
I0821 06:45:15.036515 31846 net.cpp:165] Memory required for data: 941569500
I0821 06:45:15.036521 31846 layer_factory.hpp:77] Creating layer L2_b3_cbr1_conv
I0821 06:45:15.036542 31846 net.cpp:100] Creating Layer L2_b3_cbr1_conv
I0821 06:45:15.036550 31846 net.cpp:434] L2_b3_cbr1_conv <- L2_b2_sum_eltwise_top_L2_b2_relu_0_split_0
I0821 06:45:15.036558 31846 net.cpp:408] L2_b3_cbr1_conv -> L2_b3_cbr1_conv_top
I0821 06:45:15.037021 31846 net.cpp:150] Setting up L2_b3_cbr1_conv
I0821 06:45:15.037035 31846 net.cpp:157] Top shape: 125 32 16 16 (1024000)
I0821 06:45:15.037040 31846 net.cpp:165] Memory required for data: 945665500
I0821 06:45:15.037050 31846 layer_factory.hpp:77] Creating layer L2_b3_cbr1_bn
I0821 06:45:15.037062 31846 net.cpp:100] Creating Layer L2_b3_cbr1_bn
I0821 06:45:15.037068 31846 net.cpp:434] L2_b3_cbr1_bn <- L2_b3_cbr1_conv_top
I0821 06:45:15.037077 31846 net.cpp:408] L2_b3_cbr1_bn -> L2_b3_cbr1_bn_top
I0821 06:45:15.037324 31846 net.cpp:150] Setting up L2_b3_cbr1_bn
I0821 06:45:15.037340 31846 net.cpp:157] Top shape: 125 32 16 16 (1024000)
I0821 06:45:15.037345 31846 net.cpp:165] Memory required for data: 949761500
I0821 06:45:15.037355 31846 layer_factory.hpp:77] Creating layer L2_b3_cbr1_scale
I0821 06:45:15.037364 31846 net.cpp:100] Creating Layer L2_b3_cbr1_scale
I0821 06:45:15.037370 31846 net.cpp:434] L2_b3_cbr1_scale <- L2_b3_cbr1_bn_top
I0821 06:45:15.037379 31846 net.cpp:395] L2_b3_cbr1_scale -> L2_b3_cbr1_bn_top (in-place)
I0821 06:45:15.037441 31846 layer_factory.hpp:77] Creating layer L2_b3_cbr1_scale
I0821 06:45:15.037588 31846 net.cpp:150] Setting up L2_b3_cbr1_scale
I0821 06:45:15.037601 31846 net.cpp:157] Top shape: 125 32 16 16 (1024000)
I0821 06:45:15.037606 31846 net.cpp:165] Memory required for data: 953857500
I0821 06:45:15.037616 31846 layer_factory.hpp:77] Creating layer L2_b3_cbr1_relu
I0821 06:45:15.037623 31846 net.cpp:100] Creating Layer L2_b3_cbr1_relu
I0821 06:45:15.037629 31846 net.cpp:434] L2_b3_cbr1_relu <- L2_b3_cbr1_bn_top
I0821 06:45:15.037639 31846 net.cpp:395] L2_b3_cbr1_relu -> L2_b3_cbr1_bn_top (in-place)
I0821 06:45:15.037649 31846 net.cpp:150] Setting up L2_b3_cbr1_relu
I0821 06:45:15.037657 31846 net.cpp:157] Top shape: 125 32 16 16 (1024000)
I0821 06:45:15.037662 31846 net.cpp:165] Memory required for data: 957953500
I0821 06:45:15.037667 31846 layer_factory.hpp:77] Creating layer L2_b3_cbr2_conv
I0821 06:45:15.037680 31846 net.cpp:100] Creating Layer L2_b3_cbr2_conv
I0821 06:45:15.037686 31846 net.cpp:434] L2_b3_cbr2_conv <- L2_b3_cbr1_bn_top
I0821 06:45:15.037695 31846 net.cpp:408] L2_b3_cbr2_conv -> L2_b3_cbr2_conv_top
I0821 06:45:15.038149 31846 net.cpp:150] Setting up L2_b3_cbr2_conv
I0821 06:45:15.038164 31846 net.cpp:157] Top shape: 125 32 16 16 (1024000)
I0821 06:45:15.038168 31846 net.cpp:165] Memory required for data: 962049500
I0821 06:45:15.038177 31846 layer_factory.hpp:77] Creating layer L2_b3_cbr2_bn
I0821 06:45:15.038189 31846 net.cpp:100] Creating Layer L2_b3_cbr2_bn
I0821 06:45:15.038195 31846 net.cpp:434] L2_b3_cbr2_bn <- L2_b3_cbr2_conv_top
I0821 06:45:15.038204 31846 net.cpp:408] L2_b3_cbr2_bn -> L2_b3_cbr2_bn_top
I0821 06:45:15.038463 31846 net.cpp:150] Setting up L2_b3_cbr2_bn
I0821 06:45:15.038477 31846 net.cpp:157] Top shape: 125 32 16 16 (1024000)
I0821 06:45:15.038482 31846 net.cpp:165] Memory required for data: 966145500
I0821 06:45:15.038492 31846 layer_factory.hpp:77] Creating layer L2_b3_cbr2_scale
I0821 06:45:15.038504 31846 net.cpp:100] Creating Layer L2_b3_cbr2_scale
I0821 06:45:15.038511 31846 net.cpp:434] L2_b3_cbr2_scale <- L2_b3_cbr2_bn_top
I0821 06:45:15.038519 31846 net.cpp:395] L2_b3_cbr2_scale -> L2_b3_cbr2_bn_top (in-place)
I0821 06:45:15.038573 31846 layer_factory.hpp:77] Creating layer L2_b3_cbr2_scale
I0821 06:45:15.038720 31846 net.cpp:150] Setting up L2_b3_cbr2_scale
I0821 06:45:15.038733 31846 net.cpp:157] Top shape: 125 32 16 16 (1024000)
I0821 06:45:15.038738 31846 net.cpp:165] Memory required for data: 970241500
I0821 06:45:15.038748 31846 layer_factory.hpp:77] Creating layer L2_b3_sum_eltwise
I0821 06:45:15.038758 31846 net.cpp:100] Creating Layer L2_b3_sum_eltwise
I0821 06:45:15.038765 31846 net.cpp:434] L2_b3_sum_eltwise <- L2_b3_cbr2_bn_top
I0821 06:45:15.038772 31846 net.cpp:434] L2_b3_sum_eltwise <- L2_b2_sum_eltwise_top_L2_b2_relu_0_split_1
I0821 06:45:15.038794 31846 net.cpp:408] L2_b3_sum_eltwise -> L2_b3_sum_eltwise_top
I0821 06:45:15.038822 31846 net.cpp:150] Setting up L2_b3_sum_eltwise
I0821 06:45:15.038831 31846 net.cpp:157] Top shape: 125 32 16 16 (1024000)
I0821 06:45:15.038836 31846 net.cpp:165] Memory required for data: 974337500
I0821 06:45:15.038841 31846 layer_factory.hpp:77] Creating layer L2_b3_relu
I0821 06:45:15.038862 31846 net.cpp:100] Creating Layer L2_b3_relu
I0821 06:45:15.038868 31846 net.cpp:434] L2_b3_relu <- L2_b3_sum_eltwise_top
I0821 06:45:15.038877 31846 net.cpp:395] L2_b3_relu -> L2_b3_sum_eltwise_top (in-place)
I0821 06:45:15.038885 31846 net.cpp:150] Setting up L2_b3_relu
I0821 06:45:15.038892 31846 net.cpp:157] Top shape: 125 32 16 16 (1024000)
I0821 06:45:15.038897 31846 net.cpp:165] Memory required for data: 978433500
I0821 06:45:15.038902 31846 layer_factory.hpp:77] Creating layer L2_b3_sum_eltwise_top_L2_b3_relu_0_split
I0821 06:45:15.038913 31846 net.cpp:100] Creating Layer L2_b3_sum_eltwise_top_L2_b3_relu_0_split
I0821 06:45:15.038918 31846 net.cpp:434] L2_b3_sum_eltwise_top_L2_b3_relu_0_split <- L2_b3_sum_eltwise_top
I0821 06:45:15.038925 31846 net.cpp:408] L2_b3_sum_eltwise_top_L2_b3_relu_0_split -> L2_b3_sum_eltwise_top_L2_b3_relu_0_split_0
I0821 06:45:15.038934 31846 net.cpp:408] L2_b3_sum_eltwise_top_L2_b3_relu_0_split -> L2_b3_sum_eltwise_top_L2_b3_relu_0_split_1
I0821 06:45:15.038982 31846 net.cpp:150] Setting up L2_b3_sum_eltwise_top_L2_b3_relu_0_split
I0821 06:45:15.038995 31846 net.cpp:157] Top shape: 125 32 16 16 (1024000)
I0821 06:45:15.039001 31846 net.cpp:157] Top shape: 125 32 16 16 (1024000)
I0821 06:45:15.039005 31846 net.cpp:165] Memory required for data: 986625500
I0821 06:45:15.039011 31846 layer_factory.hpp:77] Creating layer L2_b4_cbr1_conv
I0821 06:45:15.039022 31846 net.cpp:100] Creating Layer L2_b4_cbr1_conv
I0821 06:45:15.039028 31846 net.cpp:434] L2_b4_cbr1_conv <- L2_b3_sum_eltwise_top_L2_b3_relu_0_split_0
I0821 06:45:15.039041 31846 net.cpp:408] L2_b4_cbr1_conv -> L2_b4_cbr1_conv_top
I0821 06:45:15.039501 31846 net.cpp:150] Setting up L2_b4_cbr1_conv
I0821 06:45:15.039515 31846 net.cpp:157] Top shape: 125 32 16 16 (1024000)
I0821 06:45:15.039520 31846 net.cpp:165] Memory required for data: 990721500
I0821 06:45:15.039530 31846 layer_factory.hpp:77] Creating layer L2_b4_cbr1_bn
I0821 06:45:15.039539 31846 net.cpp:100] Creating Layer L2_b4_cbr1_bn
I0821 06:45:15.039546 31846 net.cpp:434] L2_b4_cbr1_bn <- L2_b4_cbr1_conv_top
I0821 06:45:15.039556 31846 net.cpp:408] L2_b4_cbr1_bn -> L2_b4_cbr1_bn_top
I0821 06:45:15.039801 31846 net.cpp:150] Setting up L2_b4_cbr1_bn
I0821 06:45:15.039814 31846 net.cpp:157] Top shape: 125 32 16 16 (1024000)
I0821 06:45:15.039819 31846 net.cpp:165] Memory required for data: 994817500
I0821 06:45:15.039829 31846 layer_factory.hpp:77] Creating layer L2_b4_cbr1_scale
I0821 06:45:15.039841 31846 net.cpp:100] Creating Layer L2_b4_cbr1_scale
I0821 06:45:15.039849 31846 net.cpp:434] L2_b4_cbr1_scale <- L2_b4_cbr1_bn_top
I0821 06:45:15.039855 31846 net.cpp:395] L2_b4_cbr1_scale -> L2_b4_cbr1_bn_top (in-place)
I0821 06:45:15.039909 31846 layer_factory.hpp:77] Creating layer L2_b4_cbr1_scale
I0821 06:45:15.040052 31846 net.cpp:150] Setting up L2_b4_cbr1_scale
I0821 06:45:15.040066 31846 net.cpp:157] Top shape: 125 32 16 16 (1024000)
I0821 06:45:15.040071 31846 net.cpp:165] Memory required for data: 998913500
I0821 06:45:15.040079 31846 layer_factory.hpp:77] Creating layer L2_b4_cbr1_relu
I0821 06:45:15.040091 31846 net.cpp:100] Creating Layer L2_b4_cbr1_relu
I0821 06:45:15.040096 31846 net.cpp:434] L2_b4_cbr1_relu <- L2_b4_cbr1_bn_top
I0821 06:45:15.040103 31846 net.cpp:395] L2_b4_cbr1_relu -> L2_b4_cbr1_bn_top (in-place)
I0821 06:45:15.040113 31846 net.cpp:150] Setting up L2_b4_cbr1_relu
I0821 06:45:15.040119 31846 net.cpp:157] Top shape: 125 32 16 16 (1024000)
I0821 06:45:15.040124 31846 net.cpp:165] Memory required for data: 1003009500
I0821 06:45:15.040129 31846 layer_factory.hpp:77] Creating layer L2_b4_cbr2_conv
I0821 06:45:15.040150 31846 net.cpp:100] Creating Layer L2_b4_cbr2_conv
I0821 06:45:15.040158 31846 net.cpp:434] L2_b4_cbr2_conv <- L2_b4_cbr1_bn_top
I0821 06:45:15.040168 31846 net.cpp:408] L2_b4_cbr2_conv -> L2_b4_cbr2_conv_top
I0821 06:45:15.040629 31846 net.cpp:150] Setting up L2_b4_cbr2_conv
I0821 06:45:15.040644 31846 net.cpp:157] Top shape: 125 32 16 16 (1024000)
I0821 06:45:15.040649 31846 net.cpp:165] Memory required for data: 1007105500
I0821 06:45:15.040658 31846 layer_factory.hpp:77] Creating layer L2_b4_cbr2_bn
I0821 06:45:15.040668 31846 net.cpp:100] Creating Layer L2_b4_cbr2_bn
I0821 06:45:15.040673 31846 net.cpp:434] L2_b4_cbr2_bn <- L2_b4_cbr2_conv_top
I0821 06:45:15.040681 31846 net.cpp:408] L2_b4_cbr2_bn -> L2_b4_cbr2_bn_top
I0821 06:45:15.040930 31846 net.cpp:150] Setting up L2_b4_cbr2_bn
I0821 06:45:15.040942 31846 net.cpp:157] Top shape: 125 32 16 16 (1024000)
I0821 06:45:15.040947 31846 net.cpp:165] Memory required for data: 1011201500
I0821 06:45:15.040957 31846 layer_factory.hpp:77] Creating layer L2_b4_cbr2_scale
I0821 06:45:15.040966 31846 net.cpp:100] Creating Layer L2_b4_cbr2_scale
I0821 06:45:15.040971 31846 net.cpp:434] L2_b4_cbr2_scale <- L2_b4_cbr2_bn_top
I0821 06:45:15.040982 31846 net.cpp:395] L2_b4_cbr2_scale -> L2_b4_cbr2_bn_top (in-place)
I0821 06:45:15.041036 31846 layer_factory.hpp:77] Creating layer L2_b4_cbr2_scale
I0821 06:45:15.041180 31846 net.cpp:150] Setting up L2_b4_cbr2_scale
I0821 06:45:15.041193 31846 net.cpp:157] Top shape: 125 32 16 16 (1024000)
I0821 06:45:15.041198 31846 net.cpp:165] Memory required for data: 1015297500
I0821 06:45:15.041206 31846 layer_factory.hpp:77] Creating layer L2_b4_sum_eltwise
I0821 06:45:15.041215 31846 net.cpp:100] Creating Layer L2_b4_sum_eltwise
I0821 06:45:15.041221 31846 net.cpp:434] L2_b4_sum_eltwise <- L2_b4_cbr2_bn_top
I0821 06:45:15.041229 31846 net.cpp:434] L2_b4_sum_eltwise <- L2_b3_sum_eltwise_top_L2_b3_relu_0_split_1
I0821 06:45:15.041239 31846 net.cpp:408] L2_b4_sum_eltwise -> L2_b4_sum_eltwise_top
I0821 06:45:15.041265 31846 net.cpp:150] Setting up L2_b4_sum_eltwise
I0821 06:45:15.041277 31846 net.cpp:157] Top shape: 125 32 16 16 (1024000)
I0821 06:45:15.041282 31846 net.cpp:165] Memory required for data: 1019393500
I0821 06:45:15.041287 31846 layer_factory.hpp:77] Creating layer L2_b4_relu
I0821 06:45:15.041296 31846 net.cpp:100] Creating Layer L2_b4_relu
I0821 06:45:15.041301 31846 net.cpp:434] L2_b4_relu <- L2_b4_sum_eltwise_top
I0821 06:45:15.041307 31846 net.cpp:395] L2_b4_relu -> L2_b4_sum_eltwise_top (in-place)
I0821 06:45:15.041316 31846 net.cpp:150] Setting up L2_b4_relu
I0821 06:45:15.041323 31846 net.cpp:157] Top shape: 125 32 16 16 (1024000)
I0821 06:45:15.041328 31846 net.cpp:165] Memory required for data: 1023489500
I0821 06:45:15.041333 31846 layer_factory.hpp:77] Creating layer L2_b4_sum_eltwise_top_L2_b4_relu_0_split
I0821 06:45:15.041343 31846 net.cpp:100] Creating Layer L2_b4_sum_eltwise_top_L2_b4_relu_0_split
I0821 06:45:15.041348 31846 net.cpp:434] L2_b4_sum_eltwise_top_L2_b4_relu_0_split <- L2_b4_sum_eltwise_top
I0821 06:45:15.041357 31846 net.cpp:408] L2_b4_sum_eltwise_top_L2_b4_relu_0_split -> L2_b4_sum_eltwise_top_L2_b4_relu_0_split_0
I0821 06:45:15.041365 31846 net.cpp:408] L2_b4_sum_eltwise_top_L2_b4_relu_0_split -> L2_b4_sum_eltwise_top_L2_b4_relu_0_split_1
I0821 06:45:15.041411 31846 net.cpp:150] Setting up L2_b4_sum_eltwise_top_L2_b4_relu_0_split
I0821 06:45:15.041429 31846 net.cpp:157] Top shape: 125 32 16 16 (1024000)
I0821 06:45:15.041436 31846 net.cpp:157] Top shape: 125 32 16 16 (1024000)
I0821 06:45:15.041440 31846 net.cpp:165] Memory required for data: 1031681500
I0821 06:45:15.041446 31846 layer_factory.hpp:77] Creating layer L2_b5_cbr1_conv
I0821 06:45:15.041456 31846 net.cpp:100] Creating Layer L2_b5_cbr1_conv
I0821 06:45:15.041463 31846 net.cpp:434] L2_b5_cbr1_conv <- L2_b4_sum_eltwise_top_L2_b4_relu_0_split_0
I0821 06:45:15.041474 31846 net.cpp:408] L2_b5_cbr1_conv -> L2_b5_cbr1_conv_top
I0821 06:45:15.041939 31846 net.cpp:150] Setting up L2_b5_cbr1_conv
I0821 06:45:15.041960 31846 net.cpp:157] Top shape: 125 32 16 16 (1024000)
I0821 06:45:15.041965 31846 net.cpp:165] Memory required for data: 1035777500
I0821 06:45:15.041975 31846 layer_factory.hpp:77] Creating layer L2_b5_cbr1_bn
I0821 06:45:15.041985 31846 net.cpp:100] Creating Layer L2_b5_cbr1_bn
I0821 06:45:15.041990 31846 net.cpp:434] L2_b5_cbr1_bn <- L2_b5_cbr1_conv_top
I0821 06:45:15.042001 31846 net.cpp:408] L2_b5_cbr1_bn -> L2_b5_cbr1_bn_top
I0821 06:45:15.042253 31846 net.cpp:150] Setting up L2_b5_cbr1_bn
I0821 06:45:15.042265 31846 net.cpp:157] Top shape: 125 32 16 16 (1024000)
I0821 06:45:15.042270 31846 net.cpp:165] Memory required for data: 1039873500
I0821 06:45:15.042280 31846 layer_factory.hpp:77] Creating layer L2_b5_cbr1_scale
I0821 06:45:15.042292 31846 net.cpp:100] Creating Layer L2_b5_cbr1_scale
I0821 06:45:15.042299 31846 net.cpp:434] L2_b5_cbr1_scale <- L2_b5_cbr1_bn_top
I0821 06:45:15.042306 31846 net.cpp:395] L2_b5_cbr1_scale -> L2_b5_cbr1_bn_top (in-place)
I0821 06:45:15.042361 31846 layer_factory.hpp:77] Creating layer L2_b5_cbr1_scale
I0821 06:45:15.042518 31846 net.cpp:150] Setting up L2_b5_cbr1_scale
I0821 06:45:15.042532 31846 net.cpp:157] Top shape: 125 32 16 16 (1024000)
I0821 06:45:15.042537 31846 net.cpp:165] Memory required for data: 1043969500
I0821 06:45:15.042546 31846 layer_factory.hpp:77] Creating layer L2_b5_cbr1_relu
I0821 06:45:15.042556 31846 net.cpp:100] Creating Layer L2_b5_cbr1_relu
I0821 06:45:15.042562 31846 net.cpp:434] L2_b5_cbr1_relu <- L2_b5_cbr1_bn_top
I0821 06:45:15.042572 31846 net.cpp:395] L2_b5_cbr1_relu -> L2_b5_cbr1_bn_top (in-place)
I0821 06:45:15.042582 31846 net.cpp:150] Setting up L2_b5_cbr1_relu
I0821 06:45:15.042588 31846 net.cpp:157] Top shape: 125 32 16 16 (1024000)
I0821 06:45:15.042593 31846 net.cpp:165] Memory required for data: 1048065500
I0821 06:45:15.042598 31846 layer_factory.hpp:77] Creating layer L2_b5_cbr2_conv
I0821 06:45:15.042613 31846 net.cpp:100] Creating Layer L2_b5_cbr2_conv
I0821 06:45:15.042618 31846 net.cpp:434] L2_b5_cbr2_conv <- L2_b5_cbr1_bn_top
I0821 06:45:15.042629 31846 net.cpp:408] L2_b5_cbr2_conv -> L2_b5_cbr2_conv_top
I0821 06:45:15.043083 31846 net.cpp:150] Setting up L2_b5_cbr2_conv
I0821 06:45:15.043097 31846 net.cpp:157] Top shape: 125 32 16 16 (1024000)
I0821 06:45:15.043102 31846 net.cpp:165] Memory required for data: 1052161500
I0821 06:45:15.043112 31846 layer_factory.hpp:77] Creating layer L2_b5_cbr2_bn
I0821 06:45:15.043120 31846 net.cpp:100] Creating Layer L2_b5_cbr2_bn
I0821 06:45:15.043126 31846 net.cpp:434] L2_b5_cbr2_bn <- L2_b5_cbr2_conv_top
I0821 06:45:15.043135 31846 net.cpp:408] L2_b5_cbr2_bn -> L2_b5_cbr2_bn_top
I0821 06:45:15.043381 31846 net.cpp:150] Setting up L2_b5_cbr2_bn
I0821 06:45:15.043393 31846 net.cpp:157] Top shape: 125 32 16 16 (1024000)
I0821 06:45:15.043398 31846 net.cpp:165] Memory required for data: 1056257500
I0821 06:45:15.043408 31846 layer_factory.hpp:77] Creating layer L2_b5_cbr2_scale
I0821 06:45:15.043417 31846 net.cpp:100] Creating Layer L2_b5_cbr2_scale
I0821 06:45:15.043577 31846 net.cpp:434] L2_b5_cbr2_scale <- L2_b5_cbr2_bn_top
I0821 06:45:15.043596 31846 net.cpp:395] L2_b5_cbr2_scale -> L2_b5_cbr2_bn_top (in-place)
I0821 06:45:15.043656 31846 layer_factory.hpp:77] Creating layer L2_b5_cbr2_scale
I0821 06:45:15.043803 31846 net.cpp:150] Setting up L2_b5_cbr2_scale
I0821 06:45:15.043817 31846 net.cpp:157] Top shape: 125 32 16 16 (1024000)
I0821 06:45:15.043822 31846 net.cpp:165] Memory required for data: 1060353500
I0821 06:45:15.043830 31846 layer_factory.hpp:77] Creating layer L2_b5_sum_eltwise
I0821 06:45:15.043839 31846 net.cpp:100] Creating Layer L2_b5_sum_eltwise
I0821 06:45:15.043845 31846 net.cpp:434] L2_b5_sum_eltwise <- L2_b5_cbr2_bn_top
I0821 06:45:15.043853 31846 net.cpp:434] L2_b5_sum_eltwise <- L2_b4_sum_eltwise_top_L2_b4_relu_0_split_1
I0821 06:45:15.043864 31846 net.cpp:408] L2_b5_sum_eltwise -> L2_b5_sum_eltwise_top
I0821 06:45:15.043890 31846 net.cpp:150] Setting up L2_b5_sum_eltwise
I0821 06:45:15.043900 31846 net.cpp:157] Top shape: 125 32 16 16 (1024000)
I0821 06:45:15.043911 31846 net.cpp:165] Memory required for data: 1064449500
I0821 06:45:15.043917 31846 layer_factory.hpp:77] Creating layer L2_b5_relu
I0821 06:45:15.043927 31846 net.cpp:100] Creating Layer L2_b5_relu
I0821 06:45:15.043934 31846 net.cpp:434] L2_b5_relu <- L2_b5_sum_eltwise_top
I0821 06:45:15.043941 31846 net.cpp:395] L2_b5_relu -> L2_b5_sum_eltwise_top (in-place)
I0821 06:45:15.043951 31846 net.cpp:150] Setting up L2_b5_relu
I0821 06:45:15.043957 31846 net.cpp:157] Top shape: 125 32 16 16 (1024000)
I0821 06:45:15.043962 31846 net.cpp:165] Memory required for data: 1068545500
I0821 06:45:15.043967 31846 layer_factory.hpp:77] Creating layer L2_b5_sum_eltwise_top_L2_b5_relu_0_split
I0821 06:45:15.043979 31846 net.cpp:100] Creating Layer L2_b5_sum_eltwise_top_L2_b5_relu_0_split
I0821 06:45:15.043985 31846 net.cpp:434] L2_b5_sum_eltwise_top_L2_b5_relu_0_split <- L2_b5_sum_eltwise_top
I0821 06:45:15.043992 31846 net.cpp:408] L2_b5_sum_eltwise_top_L2_b5_relu_0_split -> L2_b5_sum_eltwise_top_L2_b5_relu_0_split_0
I0821 06:45:15.044003 31846 net.cpp:408] L2_b5_sum_eltwise_top_L2_b5_relu_0_split -> L2_b5_sum_eltwise_top_L2_b5_relu_0_split_1
I0821 06:45:15.044046 31846 net.cpp:150] Setting up L2_b5_sum_eltwise_top_L2_b5_relu_0_split
I0821 06:45:15.044061 31846 net.cpp:157] Top shape: 125 32 16 16 (1024000)
I0821 06:45:15.044068 31846 net.cpp:157] Top shape: 125 32 16 16 (1024000)
I0821 06:45:15.044073 31846 net.cpp:165] Memory required for data: 1076737500
I0821 06:45:15.044078 31846 layer_factory.hpp:77] Creating layer L2_b6_cbr1_conv
I0821 06:45:15.044090 31846 net.cpp:100] Creating Layer L2_b6_cbr1_conv
I0821 06:45:15.044095 31846 net.cpp:434] L2_b6_cbr1_conv <- L2_b5_sum_eltwise_top_L2_b5_relu_0_split_0
I0821 06:45:15.044104 31846 net.cpp:408] L2_b6_cbr1_conv -> L2_b6_cbr1_conv_top
I0821 06:45:15.044577 31846 net.cpp:150] Setting up L2_b6_cbr1_conv
I0821 06:45:15.044594 31846 net.cpp:157] Top shape: 125 32 16 16 (1024000)
I0821 06:45:15.044598 31846 net.cpp:165] Memory required for data: 1080833500
I0821 06:45:15.044607 31846 layer_factory.hpp:77] Creating layer L2_b6_cbr1_bn
I0821 06:45:15.044620 31846 net.cpp:100] Creating Layer L2_b6_cbr1_bn
I0821 06:45:15.044626 31846 net.cpp:434] L2_b6_cbr1_bn <- L2_b6_cbr1_conv_top
I0821 06:45:15.044634 31846 net.cpp:408] L2_b6_cbr1_bn -> L2_b6_cbr1_bn_top
I0821 06:45:15.044888 31846 net.cpp:150] Setting up L2_b6_cbr1_bn
I0821 06:45:15.044901 31846 net.cpp:157] Top shape: 125 32 16 16 (1024000)
I0821 06:45:15.044906 31846 net.cpp:165] Memory required for data: 1084929500
I0821 06:45:15.044916 31846 layer_factory.hpp:77] Creating layer L2_b6_cbr1_scale
I0821 06:45:15.044925 31846 net.cpp:100] Creating Layer L2_b6_cbr1_scale
I0821 06:45:15.044931 31846 net.cpp:434] L2_b6_cbr1_scale <- L2_b6_cbr1_bn_top
I0821 06:45:15.044942 31846 net.cpp:395] L2_b6_cbr1_scale -> L2_b6_cbr1_bn_top (in-place)
I0821 06:45:15.044997 31846 layer_factory.hpp:77] Creating layer L2_b6_cbr1_scale
I0821 06:45:15.045142 31846 net.cpp:150] Setting up L2_b6_cbr1_scale
I0821 06:45:15.045156 31846 net.cpp:157] Top shape: 125 32 16 16 (1024000)
I0821 06:45:15.045159 31846 net.cpp:165] Memory required for data: 1089025500
I0821 06:45:15.045168 31846 layer_factory.hpp:77] Creating layer L2_b6_cbr1_relu
I0821 06:45:15.045177 31846 net.cpp:100] Creating Layer L2_b6_cbr1_relu
I0821 06:45:15.045183 31846 net.cpp:434] L2_b6_cbr1_relu <- L2_b6_cbr1_bn_top
I0821 06:45:15.045193 31846 net.cpp:395] L2_b6_cbr1_relu -> L2_b6_cbr1_bn_top (in-place)
I0821 06:45:15.045203 31846 net.cpp:150] Setting up L2_b6_cbr1_relu
I0821 06:45:15.045210 31846 net.cpp:157] Top shape: 125 32 16 16 (1024000)
I0821 06:45:15.045214 31846 net.cpp:165] Memory required for data: 1093121500
I0821 06:45:15.045219 31846 layer_factory.hpp:77] Creating layer L2_b6_cbr2_conv
I0821 06:45:15.045233 31846 net.cpp:100] Creating Layer L2_b6_cbr2_conv
I0821 06:45:15.045239 31846 net.cpp:434] L2_b6_cbr2_conv <- L2_b6_cbr1_bn_top
I0821 06:45:15.045248 31846 net.cpp:408] L2_b6_cbr2_conv -> L2_b6_cbr2_conv_top
I0821 06:45:15.045713 31846 net.cpp:150] Setting up L2_b6_cbr2_conv
I0821 06:45:15.045734 31846 net.cpp:157] Top shape: 125 32 16 16 (1024000)
I0821 06:45:15.045740 31846 net.cpp:165] Memory required for data: 1097217500
I0821 06:45:15.045749 31846 layer_factory.hpp:77] Creating layer L2_b6_cbr2_bn
I0821 06:45:15.045761 31846 net.cpp:100] Creating Layer L2_b6_cbr2_bn
I0821 06:45:15.045768 31846 net.cpp:434] L2_b6_cbr2_bn <- L2_b6_cbr2_conv_top
I0821 06:45:15.045776 31846 net.cpp:408] L2_b6_cbr2_bn -> L2_b6_cbr2_bn_top
I0821 06:45:15.046025 31846 net.cpp:150] Setting up L2_b6_cbr2_bn
I0821 06:45:15.046038 31846 net.cpp:157] Top shape: 125 32 16 16 (1024000)
I0821 06:45:15.046043 31846 net.cpp:165] Memory required for data: 1101313500
I0821 06:45:15.046053 31846 layer_factory.hpp:77] Creating layer L2_b6_cbr2_scale
I0821 06:45:15.046062 31846 net.cpp:100] Creating Layer L2_b6_cbr2_scale
I0821 06:45:15.046068 31846 net.cpp:434] L2_b6_cbr2_scale <- L2_b6_cbr2_bn_top
I0821 06:45:15.046078 31846 net.cpp:395] L2_b6_cbr2_scale -> L2_b6_cbr2_bn_top (in-place)
I0821 06:45:15.046133 31846 layer_factory.hpp:77] Creating layer L2_b6_cbr2_scale
I0821 06:45:15.046278 31846 net.cpp:150] Setting up L2_b6_cbr2_scale
I0821 06:45:15.046291 31846 net.cpp:157] Top shape: 125 32 16 16 (1024000)
I0821 06:45:15.046296 31846 net.cpp:165] Memory required for data: 1105409500
I0821 06:45:15.046305 31846 layer_factory.hpp:77] Creating layer L2_b6_sum_eltwise
I0821 06:45:15.046314 31846 net.cpp:100] Creating Layer L2_b6_sum_eltwise
I0821 06:45:15.046320 31846 net.cpp:434] L2_b6_sum_eltwise <- L2_b6_cbr2_bn_top
I0821 06:45:15.046327 31846 net.cpp:434] L2_b6_sum_eltwise <- L2_b5_sum_eltwise_top_L2_b5_relu_0_split_1
I0821 06:45:15.046339 31846 net.cpp:408] L2_b6_sum_eltwise -> L2_b6_sum_eltwise_top
I0821 06:45:15.046365 31846 net.cpp:150] Setting up L2_b6_sum_eltwise
I0821 06:45:15.046373 31846 net.cpp:157] Top shape: 125 32 16 16 (1024000)
I0821 06:45:15.046378 31846 net.cpp:165] Memory required for data: 1109505500
I0821 06:45:15.046383 31846 layer_factory.hpp:77] Creating layer L2_b6_relu
I0821 06:45:15.046394 31846 net.cpp:100] Creating Layer L2_b6_relu
I0821 06:45:15.046399 31846 net.cpp:434] L2_b6_relu <- L2_b6_sum_eltwise_top
I0821 06:45:15.046406 31846 net.cpp:395] L2_b6_relu -> L2_b6_sum_eltwise_top (in-place)
I0821 06:45:15.046416 31846 net.cpp:150] Setting up L2_b6_relu
I0821 06:45:15.046428 31846 net.cpp:157] Top shape: 125 32 16 16 (1024000)
I0821 06:45:15.046434 31846 net.cpp:165] Memory required for data: 1113601500
I0821 06:45:15.046439 31846 layer_factory.hpp:77] Creating layer L2_b6_sum_eltwise_top_L2_b6_relu_0_split
I0821 06:45:15.046450 31846 net.cpp:100] Creating Layer L2_b6_sum_eltwise_top_L2_b6_relu_0_split
I0821 06:45:15.046456 31846 net.cpp:434] L2_b6_sum_eltwise_top_L2_b6_relu_0_split <- L2_b6_sum_eltwise_top
I0821 06:45:15.046463 31846 net.cpp:408] L2_b6_sum_eltwise_top_L2_b6_relu_0_split -> L2_b6_sum_eltwise_top_L2_b6_relu_0_split_0
I0821 06:45:15.046473 31846 net.cpp:408] L2_b6_sum_eltwise_top_L2_b6_relu_0_split -> L2_b6_sum_eltwise_top_L2_b6_relu_0_split_1
I0821 06:45:15.046517 31846 net.cpp:150] Setting up L2_b6_sum_eltwise_top_L2_b6_relu_0_split
I0821 06:45:15.046531 31846 net.cpp:157] Top shape: 125 32 16 16 (1024000)
I0821 06:45:15.046538 31846 net.cpp:157] Top shape: 125 32 16 16 (1024000)
I0821 06:45:15.046542 31846 net.cpp:165] Memory required for data: 1121793500
I0821 06:45:15.046547 31846 layer_factory.hpp:77] Creating layer L2_b7_cbr1_conv
I0821 06:45:15.046558 31846 net.cpp:100] Creating Layer L2_b7_cbr1_conv
I0821 06:45:15.046564 31846 net.cpp:434] L2_b7_cbr1_conv <- L2_b6_sum_eltwise_top_L2_b6_relu_0_split_0
I0821 06:45:15.046573 31846 net.cpp:408] L2_b7_cbr1_conv -> L2_b7_cbr1_conv_top
I0821 06:45:15.047039 31846 net.cpp:150] Setting up L2_b7_cbr1_conv
I0821 06:45:15.047052 31846 net.cpp:157] Top shape: 125 32 16 16 (1024000)
I0821 06:45:15.047057 31846 net.cpp:165] Memory required for data: 1125889500
I0821 06:45:15.047066 31846 layer_factory.hpp:77] Creating layer L2_b7_cbr1_bn
I0821 06:45:15.047078 31846 net.cpp:100] Creating Layer L2_b7_cbr1_bn
I0821 06:45:15.047091 31846 net.cpp:434] L2_b7_cbr1_bn <- L2_b7_cbr1_conv_top
I0821 06:45:15.047101 31846 net.cpp:408] L2_b7_cbr1_bn -> L2_b7_cbr1_bn_top
I0821 06:45:15.047349 31846 net.cpp:150] Setting up L2_b7_cbr1_bn
I0821 06:45:15.047363 31846 net.cpp:157] Top shape: 125 32 16 16 (1024000)
I0821 06:45:15.047368 31846 net.cpp:165] Memory required for data: 1129985500
I0821 06:45:15.047377 31846 layer_factory.hpp:77] Creating layer L2_b7_cbr1_scale
I0821 06:45:15.047386 31846 net.cpp:100] Creating Layer L2_b7_cbr1_scale
I0821 06:45:15.047392 31846 net.cpp:434] L2_b7_cbr1_scale <- L2_b7_cbr1_bn_top
I0821 06:45:15.047402 31846 net.cpp:395] L2_b7_cbr1_scale -> L2_b7_cbr1_bn_top (in-place)
I0821 06:45:15.047466 31846 layer_factory.hpp:77] Creating layer L2_b7_cbr1_scale
I0821 06:45:15.047616 31846 net.cpp:150] Setting up L2_b7_cbr1_scale
I0821 06:45:15.047628 31846 net.cpp:157] Top shape: 125 32 16 16 (1024000)
I0821 06:45:15.047633 31846 net.cpp:165] Memory required for data: 1134081500
I0821 06:45:15.047642 31846 layer_factory.hpp:77] Creating layer L2_b7_cbr1_relu
I0821 06:45:15.047650 31846 net.cpp:100] Creating Layer L2_b7_cbr1_relu
I0821 06:45:15.047657 31846 net.cpp:434] L2_b7_cbr1_relu <- L2_b7_cbr1_bn_top
I0821 06:45:15.047668 31846 net.cpp:395] L2_b7_cbr1_relu -> L2_b7_cbr1_bn_top (in-place)
I0821 06:45:15.047678 31846 net.cpp:150] Setting up L2_b7_cbr1_relu
I0821 06:45:15.047685 31846 net.cpp:157] Top shape: 125 32 16 16 (1024000)
I0821 06:45:15.047690 31846 net.cpp:165] Memory required for data: 1138177500
I0821 06:45:15.047695 31846 layer_factory.hpp:77] Creating layer L2_b7_cbr2_conv
I0821 06:45:15.047708 31846 net.cpp:100] Creating Layer L2_b7_cbr2_conv
I0821 06:45:15.047714 31846 net.cpp:434] L2_b7_cbr2_conv <- L2_b7_cbr1_bn_top
I0821 06:45:15.047724 31846 net.cpp:408] L2_b7_cbr2_conv -> L2_b7_cbr2_conv_top
I0821 06:45:15.048187 31846 net.cpp:150] Setting up L2_b7_cbr2_conv
I0821 06:45:15.048200 31846 net.cpp:157] Top shape: 125 32 16 16 (1024000)
I0821 06:45:15.048205 31846 net.cpp:165] Memory required for data: 1142273500
I0821 06:45:15.048213 31846 layer_factory.hpp:77] Creating layer L2_b7_cbr2_bn
I0821 06:45:15.048225 31846 net.cpp:100] Creating Layer L2_b7_cbr2_bn
I0821 06:45:15.048231 31846 net.cpp:434] L2_b7_cbr2_bn <- L2_b7_cbr2_conv_top
I0821 06:45:15.048240 31846 net.cpp:408] L2_b7_cbr2_bn -> L2_b7_cbr2_bn_top
I0821 06:45:15.048492 31846 net.cpp:150] Setting up L2_b7_cbr2_bn
I0821 06:45:15.048506 31846 net.cpp:157] Top shape: 125 32 16 16 (1024000)
I0821 06:45:15.048511 31846 net.cpp:165] Memory required for data: 1146369500
I0821 06:45:15.048522 31846 layer_factory.hpp:77] Creating layer L2_b7_cbr2_scale
I0821 06:45:15.048530 31846 net.cpp:100] Creating Layer L2_b7_cbr2_scale
I0821 06:45:15.048537 31846 net.cpp:434] L2_b7_cbr2_scale <- L2_b7_cbr2_bn_top
I0821 06:45:15.048548 31846 net.cpp:395] L2_b7_cbr2_scale -> L2_b7_cbr2_bn_top (in-place)
I0821 06:45:15.048604 31846 layer_factory.hpp:77] Creating layer L2_b7_cbr2_scale
I0821 06:45:15.048753 31846 net.cpp:150] Setting up L2_b7_cbr2_scale
I0821 06:45:15.048765 31846 net.cpp:157] Top shape: 125 32 16 16 (1024000)
I0821 06:45:15.048770 31846 net.cpp:165] Memory required for data: 1150465500
I0821 06:45:15.048779 31846 layer_factory.hpp:77] Creating layer L2_b7_sum_eltwise
I0821 06:45:15.048789 31846 net.cpp:100] Creating Layer L2_b7_sum_eltwise
I0821 06:45:15.048794 31846 net.cpp:434] L2_b7_sum_eltwise <- L2_b7_cbr2_bn_top
I0821 06:45:15.048801 31846 net.cpp:434] L2_b7_sum_eltwise <- L2_b6_sum_eltwise_top_L2_b6_relu_0_split_1
I0821 06:45:15.048812 31846 net.cpp:408] L2_b7_sum_eltwise -> L2_b7_sum_eltwise_top
I0821 06:45:15.048840 31846 net.cpp:150] Setting up L2_b7_sum_eltwise
I0821 06:45:15.048848 31846 net.cpp:157] Top shape: 125 32 16 16 (1024000)
I0821 06:45:15.048853 31846 net.cpp:165] Memory required for data: 1154561500
I0821 06:45:15.048858 31846 layer_factory.hpp:77] Creating layer L2_b7_relu
I0821 06:45:15.048866 31846 net.cpp:100] Creating Layer L2_b7_relu
I0821 06:45:15.048876 31846 net.cpp:434] L2_b7_relu <- L2_b7_sum_eltwise_top
I0821 06:45:15.048890 31846 net.cpp:395] L2_b7_relu -> L2_b7_sum_eltwise_top (in-place)
I0821 06:45:15.048900 31846 net.cpp:150] Setting up L2_b7_relu
I0821 06:45:15.048907 31846 net.cpp:157] Top shape: 125 32 16 16 (1024000)
I0821 06:45:15.048912 31846 net.cpp:165] Memory required for data: 1158657500
I0821 06:45:15.048916 31846 layer_factory.hpp:77] Creating layer L2_b7_sum_eltwise_top_L2_b7_relu_0_split
I0821 06:45:15.048923 31846 net.cpp:100] Creating Layer L2_b7_sum_eltwise_top_L2_b7_relu_0_split
I0821 06:45:15.048928 31846 net.cpp:434] L2_b7_sum_eltwise_top_L2_b7_relu_0_split <- L2_b7_sum_eltwise_top
I0821 06:45:15.048938 31846 net.cpp:408] L2_b7_sum_eltwise_top_L2_b7_relu_0_split -> L2_b7_sum_eltwise_top_L2_b7_relu_0_split_0
I0821 06:45:15.048949 31846 net.cpp:408] L2_b7_sum_eltwise_top_L2_b7_relu_0_split -> L2_b7_sum_eltwise_top_L2_b7_relu_0_split_1
I0821 06:45:15.048992 31846 net.cpp:150] Setting up L2_b7_sum_eltwise_top_L2_b7_relu_0_split
I0821 06:45:15.049005 31846 net.cpp:157] Top shape: 125 32 16 16 (1024000)
I0821 06:45:15.049010 31846 net.cpp:157] Top shape: 125 32 16 16 (1024000)
I0821 06:45:15.049015 31846 net.cpp:165] Memory required for data: 1166849500
I0821 06:45:15.049021 31846 layer_factory.hpp:77] Creating layer L2_b8_cbr1_conv
I0821 06:45:15.049036 31846 net.cpp:100] Creating Layer L2_b8_cbr1_conv
I0821 06:45:15.049041 31846 net.cpp:434] L2_b8_cbr1_conv <- L2_b7_sum_eltwise_top_L2_b7_relu_0_split_0
I0821 06:45:15.049051 31846 net.cpp:408] L2_b8_cbr1_conv -> L2_b8_cbr1_conv_top
I0821 06:45:15.049526 31846 net.cpp:150] Setting up L2_b8_cbr1_conv
I0821 06:45:15.049541 31846 net.cpp:157] Top shape: 125 32 16 16 (1024000)
I0821 06:45:15.049546 31846 net.cpp:165] Memory required for data: 1170945500
I0821 06:45:15.049556 31846 layer_factory.hpp:77] Creating layer L2_b8_cbr1_bn
I0821 06:45:15.049567 31846 net.cpp:100] Creating Layer L2_b8_cbr1_bn
I0821 06:45:15.049574 31846 net.cpp:434] L2_b8_cbr1_bn <- L2_b8_cbr1_conv_top
I0821 06:45:15.049582 31846 net.cpp:408] L2_b8_cbr1_bn -> L2_b8_cbr1_bn_top
I0821 06:45:15.049830 31846 net.cpp:150] Setting up L2_b8_cbr1_bn
I0821 06:45:15.049844 31846 net.cpp:157] Top shape: 125 32 16 16 (1024000)
I0821 06:45:15.049849 31846 net.cpp:165] Memory required for data: 1175041500
I0821 06:45:15.049860 31846 layer_factory.hpp:77] Creating layer L2_b8_cbr1_scale
I0821 06:45:15.049868 31846 net.cpp:100] Creating Layer L2_b8_cbr1_scale
I0821 06:45:15.049875 31846 net.cpp:434] L2_b8_cbr1_scale <- L2_b8_cbr1_bn_top
I0821 06:45:15.049885 31846 net.cpp:395] L2_b8_cbr1_scale -> L2_b8_cbr1_bn_top (in-place)
I0821 06:45:15.049939 31846 layer_factory.hpp:77] Creating layer L2_b8_cbr1_scale
I0821 06:45:15.050089 31846 net.cpp:150] Setting up L2_b8_cbr1_scale
I0821 06:45:15.050102 31846 net.cpp:157] Top shape: 125 32 16 16 (1024000)
I0821 06:45:15.050107 31846 net.cpp:165] Memory required for data: 1179137500
I0821 06:45:15.050117 31846 layer_factory.hpp:77] Creating layer L2_b8_cbr1_relu
I0821 06:45:15.050124 31846 net.cpp:100] Creating Layer L2_b8_cbr1_relu
I0821 06:45:15.050130 31846 net.cpp:434] L2_b8_cbr1_relu <- L2_b8_cbr1_bn_top
I0821 06:45:15.050140 31846 net.cpp:395] L2_b8_cbr1_relu -> L2_b8_cbr1_bn_top (in-place)
I0821 06:45:15.050150 31846 net.cpp:150] Setting up L2_b8_cbr1_relu
I0821 06:45:15.050158 31846 net.cpp:157] Top shape: 125 32 16 16 (1024000)
I0821 06:45:15.050163 31846 net.cpp:165] Memory required for data: 1183233500
I0821 06:45:15.050166 31846 layer_factory.hpp:77] Creating layer L2_b8_cbr2_conv
I0821 06:45:15.050180 31846 net.cpp:100] Creating Layer L2_b8_cbr2_conv
I0821 06:45:15.050187 31846 net.cpp:434] L2_b8_cbr2_conv <- L2_b8_cbr1_bn_top
I0821 06:45:15.050195 31846 net.cpp:408] L2_b8_cbr2_conv -> L2_b8_cbr2_conv_top
I0821 06:45:15.050665 31846 net.cpp:150] Setting up L2_b8_cbr2_conv
I0821 06:45:15.050680 31846 net.cpp:157] Top shape: 125 32 16 16 (1024000)
I0821 06:45:15.050685 31846 net.cpp:165] Memory required for data: 1187329500
I0821 06:45:15.050694 31846 layer_factory.hpp:77] Creating layer L2_b8_cbr2_bn
I0821 06:45:15.050704 31846 net.cpp:100] Creating Layer L2_b8_cbr2_bn
I0821 06:45:15.050720 31846 net.cpp:434] L2_b8_cbr2_bn <- L2_b8_cbr2_conv_top
I0821 06:45:15.050729 31846 net.cpp:408] L2_b8_cbr2_bn -> L2_b8_cbr2_bn_top
I0821 06:45:15.050981 31846 net.cpp:150] Setting up L2_b8_cbr2_bn
I0821 06:45:15.050994 31846 net.cpp:157] Top shape: 125 32 16 16 (1024000)
I0821 06:45:15.050999 31846 net.cpp:165] Memory required for data: 1191425500
I0821 06:45:15.051010 31846 layer_factory.hpp:77] Creating layer L2_b8_cbr2_scale
I0821 06:45:15.051018 31846 net.cpp:100] Creating Layer L2_b8_cbr2_scale
I0821 06:45:15.051025 31846 net.cpp:434] L2_b8_cbr2_scale <- L2_b8_cbr2_bn_top
I0821 06:45:15.051033 31846 net.cpp:395] L2_b8_cbr2_scale -> L2_b8_cbr2_bn_top (in-place)
I0821 06:45:15.051090 31846 layer_factory.hpp:77] Creating layer L2_b8_cbr2_scale
I0821 06:45:15.051234 31846 net.cpp:150] Setting up L2_b8_cbr2_scale
I0821 06:45:15.051250 31846 net.cpp:157] Top shape: 125 32 16 16 (1024000)
I0821 06:45:15.051255 31846 net.cpp:165] Memory required for data: 1195521500
I0821 06:45:15.051265 31846 layer_factory.hpp:77] Creating layer L2_b8_sum_eltwise
I0821 06:45:15.051273 31846 net.cpp:100] Creating Layer L2_b8_sum_eltwise
I0821 06:45:15.051280 31846 net.cpp:434] L2_b8_sum_eltwise <- L2_b8_cbr2_bn_top
I0821 06:45:15.051286 31846 net.cpp:434] L2_b8_sum_eltwise <- L2_b7_sum_eltwise_top_L2_b7_relu_0_split_1
I0821 06:45:15.051293 31846 net.cpp:408] L2_b8_sum_eltwise -> L2_b8_sum_eltwise_top
I0821 06:45:15.051323 31846 net.cpp:150] Setting up L2_b8_sum_eltwise
I0821 06:45:15.051332 31846 net.cpp:157] Top shape: 125 32 16 16 (1024000)
I0821 06:45:15.051337 31846 net.cpp:165] Memory required for data: 1199617500
I0821 06:45:15.051342 31846 layer_factory.hpp:77] Creating layer L2_b8_relu
I0821 06:45:15.051350 31846 net.cpp:100] Creating Layer L2_b8_relu
I0821 06:45:15.051355 31846 net.cpp:434] L2_b8_relu <- L2_b8_sum_eltwise_top
I0821 06:45:15.051365 31846 net.cpp:395] L2_b8_relu -> L2_b8_sum_eltwise_top (in-place)
I0821 06:45:15.051374 31846 net.cpp:150] Setting up L2_b8_relu
I0821 06:45:15.051381 31846 net.cpp:157] Top shape: 125 32 16 16 (1024000)
I0821 06:45:15.051386 31846 net.cpp:165] Memory required for data: 1203713500
I0821 06:45:15.051390 31846 layer_factory.hpp:77] Creating layer L2_b8_sum_eltwise_top_L2_b8_relu_0_split
I0821 06:45:15.051398 31846 net.cpp:100] Creating Layer L2_b8_sum_eltwise_top_L2_b8_relu_0_split
I0821 06:45:15.051403 31846 net.cpp:434] L2_b8_sum_eltwise_top_L2_b8_relu_0_split <- L2_b8_sum_eltwise_top
I0821 06:45:15.051414 31846 net.cpp:408] L2_b8_sum_eltwise_top_L2_b8_relu_0_split -> L2_b8_sum_eltwise_top_L2_b8_relu_0_split_0
I0821 06:45:15.051442 31846 net.cpp:408] L2_b8_sum_eltwise_top_L2_b8_relu_0_split -> L2_b8_sum_eltwise_top_L2_b8_relu_0_split_1
I0821 06:45:15.051493 31846 net.cpp:150] Setting up L2_b8_sum_eltwise_top_L2_b8_relu_0_split
I0821 06:45:15.051506 31846 net.cpp:157] Top shape: 125 32 16 16 (1024000)
I0821 06:45:15.051512 31846 net.cpp:157] Top shape: 125 32 16 16 (1024000)
I0821 06:45:15.051517 31846 net.cpp:165] Memory required for data: 1211905500
I0821 06:45:15.051523 31846 layer_factory.hpp:77] Creating layer L2_b9_cbr1_conv
I0821 06:45:15.051538 31846 net.cpp:100] Creating Layer L2_b9_cbr1_conv
I0821 06:45:15.051544 31846 net.cpp:434] L2_b9_cbr1_conv <- L2_b8_sum_eltwise_top_L2_b8_relu_0_split_0
I0821 06:45:15.051558 31846 net.cpp:408] L2_b9_cbr1_conv -> L2_b9_cbr1_conv_top
I0821 06:45:15.052026 31846 net.cpp:150] Setting up L2_b9_cbr1_conv
I0821 06:45:15.052039 31846 net.cpp:157] Top shape: 125 32 16 16 (1024000)
I0821 06:45:15.052044 31846 net.cpp:165] Memory required for data: 1216001500
I0821 06:45:15.052053 31846 layer_factory.hpp:77] Creating layer L2_b9_cbr1_bn
I0821 06:45:15.052065 31846 net.cpp:100] Creating Layer L2_b9_cbr1_bn
I0821 06:45:15.052072 31846 net.cpp:434] L2_b9_cbr1_bn <- L2_b9_cbr1_conv_top
I0821 06:45:15.052083 31846 net.cpp:408] L2_b9_cbr1_bn -> L2_b9_cbr1_bn_top
I0821 06:45:15.052328 31846 net.cpp:150] Setting up L2_b9_cbr1_bn
I0821 06:45:15.052341 31846 net.cpp:157] Top shape: 125 32 16 16 (1024000)
I0821 06:45:15.052346 31846 net.cpp:165] Memory required for data: 1220097500
I0821 06:45:15.052364 31846 layer_factory.hpp:77] Creating layer L2_b9_cbr1_scale
I0821 06:45:15.052373 31846 net.cpp:100] Creating Layer L2_b9_cbr1_scale
I0821 06:45:15.052381 31846 net.cpp:434] L2_b9_cbr1_scale <- L2_b9_cbr1_bn_top
I0821 06:45:15.052387 31846 net.cpp:395] L2_b9_cbr1_scale -> L2_b9_cbr1_bn_top (in-place)
I0821 06:45:15.052453 31846 layer_factory.hpp:77] Creating layer L2_b9_cbr1_scale
I0821 06:45:15.052605 31846 net.cpp:150] Setting up L2_b9_cbr1_scale
I0821 06:45:15.052621 31846 net.cpp:157] Top shape: 125 32 16 16 (1024000)
I0821 06:45:15.052626 31846 net.cpp:165] Memory required for data: 1224193500
I0821 06:45:15.052635 31846 layer_factory.hpp:77] Creating layer L2_b9_cbr1_relu
I0821 06:45:15.052644 31846 net.cpp:100] Creating Layer L2_b9_cbr1_relu
I0821 06:45:15.052650 31846 net.cpp:434] L2_b9_cbr1_relu <- L2_b9_cbr1_bn_top
I0821 06:45:15.052657 31846 net.cpp:395] L2_b9_cbr1_relu -> L2_b9_cbr1_bn_top (in-place)
I0821 06:45:15.052666 31846 net.cpp:150] Setting up L2_b9_cbr1_relu
I0821 06:45:15.052673 31846 net.cpp:157] Top shape: 125 32 16 16 (1024000)
I0821 06:45:15.052678 31846 net.cpp:165] Memory required for data: 1228289500
I0821 06:45:15.052683 31846 layer_factory.hpp:77] Creating layer L2_b9_cbr2_conv
I0821 06:45:15.052696 31846 net.cpp:100] Creating Layer L2_b9_cbr2_conv
I0821 06:45:15.052702 31846 net.cpp:434] L2_b9_cbr2_conv <- L2_b9_cbr1_bn_top
I0821 06:45:15.052713 31846 net.cpp:408] L2_b9_cbr2_conv -> L2_b9_cbr2_conv_top
I0821 06:45:15.053179 31846 net.cpp:150] Setting up L2_b9_cbr2_conv
I0821 06:45:15.053192 31846 net.cpp:157] Top shape: 125 32 16 16 (1024000)
I0821 06:45:15.053197 31846 net.cpp:165] Memory required for data: 1232385500
I0821 06:45:15.053206 31846 layer_factory.hpp:77] Creating layer L2_b9_cbr2_bn
I0821 06:45:15.053218 31846 net.cpp:100] Creating Layer L2_b9_cbr2_bn
I0821 06:45:15.053225 31846 net.cpp:434] L2_b9_cbr2_bn <- L2_b9_cbr2_conv_top
I0821 06:45:15.053236 31846 net.cpp:408] L2_b9_cbr2_bn -> L2_b9_cbr2_bn_top
I0821 06:45:15.053494 31846 net.cpp:150] Setting up L2_b9_cbr2_bn
I0821 06:45:15.053508 31846 net.cpp:157] Top shape: 125 32 16 16 (1024000)
I0821 06:45:15.053514 31846 net.cpp:165] Memory required for data: 1236481500
I0821 06:45:15.053555 31846 layer_factory.hpp:77] Creating layer L2_b9_cbr2_scale
I0821 06:45:15.053570 31846 net.cpp:100] Creating Layer L2_b9_cbr2_scale
I0821 06:45:15.053577 31846 net.cpp:434] L2_b9_cbr2_scale <- L2_b9_cbr2_bn_top
I0821 06:45:15.053586 31846 net.cpp:395] L2_b9_cbr2_scale -> L2_b9_cbr2_bn_top (in-place)
I0821 06:45:15.053644 31846 layer_factory.hpp:77] Creating layer L2_b9_cbr2_scale
I0821 06:45:15.053791 31846 net.cpp:150] Setting up L2_b9_cbr2_scale
I0821 06:45:15.053803 31846 net.cpp:157] Top shape: 125 32 16 16 (1024000)
I0821 06:45:15.053808 31846 net.cpp:165] Memory required for data: 1240577500
I0821 06:45:15.053817 31846 layer_factory.hpp:77] Creating layer L2_b9_sum_eltwise
I0821 06:45:15.053829 31846 net.cpp:100] Creating Layer L2_b9_sum_eltwise
I0821 06:45:15.053835 31846 net.cpp:434] L2_b9_sum_eltwise <- L2_b9_cbr2_bn_top
I0821 06:45:15.053843 31846 net.cpp:434] L2_b9_sum_eltwise <- L2_b8_sum_eltwise_top_L2_b8_relu_0_split_1
I0821 06:45:15.053850 31846 net.cpp:408] L2_b9_sum_eltwise -> L2_b9_sum_eltwise_top
I0821 06:45:15.053877 31846 net.cpp:150] Setting up L2_b9_sum_eltwise
I0821 06:45:15.053890 31846 net.cpp:157] Top shape: 125 32 16 16 (1024000)
I0821 06:45:15.053895 31846 net.cpp:165] Memory required for data: 1244673500
I0821 06:45:15.053900 31846 layer_factory.hpp:77] Creating layer L2_b9_relu
I0821 06:45:15.053908 31846 net.cpp:100] Creating Layer L2_b9_relu
I0821 06:45:15.053915 31846 net.cpp:434] L2_b9_relu <- L2_b9_sum_eltwise_top
I0821 06:45:15.053921 31846 net.cpp:395] L2_b9_relu -> L2_b9_sum_eltwise_top (in-place)
I0821 06:45:15.053930 31846 net.cpp:150] Setting up L2_b9_relu
I0821 06:45:15.053937 31846 net.cpp:157] Top shape: 125 32 16 16 (1024000)
I0821 06:45:15.053941 31846 net.cpp:165] Memory required for data: 1248769500
I0821 06:45:15.053946 31846 layer_factory.hpp:77] Creating layer L2_b9_sum_eltwise_top_L2_b9_relu_0_split
I0821 06:45:15.053966 31846 net.cpp:100] Creating Layer L2_b9_sum_eltwise_top_L2_b9_relu_0_split
I0821 06:45:15.053972 31846 net.cpp:434] L2_b9_sum_eltwise_top_L2_b9_relu_0_split <- L2_b9_sum_eltwise_top
I0821 06:45:15.053979 31846 net.cpp:408] L2_b9_sum_eltwise_top_L2_b9_relu_0_split -> L2_b9_sum_eltwise_top_L2_b9_relu_0_split_0
I0821 06:45:15.053992 31846 net.cpp:408] L2_b9_sum_eltwise_top_L2_b9_relu_0_split -> L2_b9_sum_eltwise_top_L2_b9_relu_0_split_1
I0821 06:45:15.054040 31846 net.cpp:150] Setting up L2_b9_sum_eltwise_top_L2_b9_relu_0_split
I0821 06:45:15.054052 31846 net.cpp:157] Top shape: 125 32 16 16 (1024000)
I0821 06:45:15.054059 31846 net.cpp:157] Top shape: 125 32 16 16 (1024000)
I0821 06:45:15.054064 31846 net.cpp:165] Memory required for data: 1256961500
I0821 06:45:15.054069 31846 layer_factory.hpp:77] Creating layer L3_b1_cbr1_conv
I0821 06:45:15.054080 31846 net.cpp:100] Creating Layer L3_b1_cbr1_conv
I0821 06:45:15.054087 31846 net.cpp:434] L3_b1_cbr1_conv <- L2_b9_sum_eltwise_top_L2_b9_relu_0_split_0
I0821 06:45:15.054098 31846 net.cpp:408] L3_b1_cbr1_conv -> L3_b1_cbr1_conv_top
I0821 06:45:15.054581 31846 net.cpp:150] Setting up L3_b1_cbr1_conv
I0821 06:45:15.054596 31846 net.cpp:157] Top shape: 125 32 8 8 (256000)
I0821 06:45:15.054601 31846 net.cpp:165] Memory required for data: 1257985500
I0821 06:45:15.054610 31846 layer_factory.hpp:77] Creating layer L3_b1_cbr1_bn
I0821 06:45:15.054620 31846 net.cpp:100] Creating Layer L3_b1_cbr1_bn
I0821 06:45:15.054625 31846 net.cpp:434] L3_b1_cbr1_bn <- L3_b1_cbr1_conv_top
I0821 06:45:15.054636 31846 net.cpp:408] L3_b1_cbr1_bn -> L3_b1_cbr1_bn_top
I0821 06:45:15.054901 31846 net.cpp:150] Setting up L3_b1_cbr1_bn
I0821 06:45:15.054918 31846 net.cpp:157] Top shape: 125 32 8 8 (256000)
I0821 06:45:15.054922 31846 net.cpp:165] Memory required for data: 1259009500
I0821 06:45:15.054934 31846 layer_factory.hpp:77] Creating layer L3_b1_cbr1_scale
I0821 06:45:15.054942 31846 net.cpp:100] Creating Layer L3_b1_cbr1_scale
I0821 06:45:15.054949 31846 net.cpp:434] L3_b1_cbr1_scale <- L3_b1_cbr1_bn_top
I0821 06:45:15.054956 31846 net.cpp:395] L3_b1_cbr1_scale -> L3_b1_cbr1_bn_top (in-place)
I0821 06:45:15.055011 31846 layer_factory.hpp:77] Creating layer L3_b1_cbr1_scale
I0821 06:45:15.055164 31846 net.cpp:150] Setting up L3_b1_cbr1_scale
I0821 06:45:15.055177 31846 net.cpp:157] Top shape: 125 32 8 8 (256000)
I0821 06:45:15.055182 31846 net.cpp:165] Memory required for data: 1260033500
I0821 06:45:15.055191 31846 layer_factory.hpp:77] Creating layer L3_b1_cbr1_relu
I0821 06:45:15.055202 31846 net.cpp:100] Creating Layer L3_b1_cbr1_relu
I0821 06:45:15.055209 31846 net.cpp:434] L3_b1_cbr1_relu <- L3_b1_cbr1_bn_top
I0821 06:45:15.055217 31846 net.cpp:395] L3_b1_cbr1_relu -> L3_b1_cbr1_bn_top (in-place)
I0821 06:45:15.055225 31846 net.cpp:150] Setting up L3_b1_cbr1_relu
I0821 06:45:15.055233 31846 net.cpp:157] Top shape: 125 32 8 8 (256000)
I0821 06:45:15.055238 31846 net.cpp:165] Memory required for data: 1261057500
I0821 06:45:15.055243 31846 layer_factory.hpp:77] Creating layer L3_b1_cbr2_conv
I0821 06:45:15.055255 31846 net.cpp:100] Creating Layer L3_b1_cbr2_conv
I0821 06:45:15.055261 31846 net.cpp:434] L3_b1_cbr2_conv <- L3_b1_cbr1_bn_top
I0821 06:45:15.055270 31846 net.cpp:408] L3_b1_cbr2_conv -> L3_b1_cbr2_conv_top
I0821 06:45:15.055747 31846 net.cpp:150] Setting up L3_b1_cbr2_conv
I0821 06:45:15.055761 31846 net.cpp:157] Top shape: 125 32 8 8 (256000)
I0821 06:45:15.055766 31846 net.cpp:165] Memory required for data: 1262081500
I0821 06:45:15.055775 31846 layer_factory.hpp:77] Creating layer L3_b1_cbr2_bn
I0821 06:45:15.055788 31846 net.cpp:100] Creating Layer L3_b1_cbr2_bn
I0821 06:45:15.055794 31846 net.cpp:434] L3_b1_cbr2_bn <- L3_b1_cbr2_conv_top
I0821 06:45:15.055804 31846 net.cpp:408] L3_b1_cbr2_bn -> L3_b1_cbr2_bn_top
I0821 06:45:15.056064 31846 net.cpp:150] Setting up L3_b1_cbr2_bn
I0821 06:45:15.056077 31846 net.cpp:157] Top shape: 125 32 8 8 (256000)
I0821 06:45:15.056082 31846 net.cpp:165] Memory required for data: 1263105500
I0821 06:45:15.056100 31846 layer_factory.hpp:77] Creating layer L3_b1_cbr2_scale
I0821 06:45:15.056109 31846 net.cpp:100] Creating Layer L3_b1_cbr2_scale
I0821 06:45:15.056115 31846 net.cpp:434] L3_b1_cbr2_scale <- L3_b1_cbr2_bn_top
I0821 06:45:15.056126 31846 net.cpp:395] L3_b1_cbr2_scale -> L3_b1_cbr2_bn_top (in-place)
I0821 06:45:15.056182 31846 layer_factory.hpp:77] Creating layer L3_b1_cbr2_scale
I0821 06:45:15.056339 31846 net.cpp:150] Setting up L3_b1_cbr2_scale
I0821 06:45:15.056351 31846 net.cpp:157] Top shape: 125 32 8 8 (256000)
I0821 06:45:15.056356 31846 net.cpp:165] Memory required for data: 1264129500
I0821 06:45:15.056365 31846 layer_factory.hpp:77] Creating layer L3_b1_pool
I0821 06:45:15.056375 31846 net.cpp:100] Creating Layer L3_b1_pool
I0821 06:45:15.056380 31846 net.cpp:434] L3_b1_pool <- L2_b9_sum_eltwise_top_L2_b9_relu_0_split_1
I0821 06:45:15.056392 31846 net.cpp:408] L3_b1_pool -> L3_b1_pool
I0821 06:45:15.056437 31846 net.cpp:150] Setting up L3_b1_pool
I0821 06:45:15.056448 31846 net.cpp:157] Top shape: 125 32 8 8 (256000)
I0821 06:45:15.056453 31846 net.cpp:165] Memory required for data: 1265153500
I0821 06:45:15.056459 31846 layer_factory.hpp:77] Creating layer L3_b1_sum_eltwise
I0821 06:45:15.056468 31846 net.cpp:100] Creating Layer L3_b1_sum_eltwise
I0821 06:45:15.056473 31846 net.cpp:434] L3_b1_sum_eltwise <- L3_b1_cbr2_bn_top
I0821 06:45:15.056480 31846 net.cpp:434] L3_b1_sum_eltwise <- L3_b1_pool
I0821 06:45:15.056490 31846 net.cpp:408] L3_b1_sum_eltwise -> L3_b1_sum_eltwise_top
I0821 06:45:15.056524 31846 net.cpp:150] Setting up L3_b1_sum_eltwise
I0821 06:45:15.056532 31846 net.cpp:157] Top shape: 125 32 8 8 (256000)
I0821 06:45:15.056537 31846 net.cpp:165] Memory required for data: 1266177500
I0821 06:45:15.056542 31846 layer_factory.hpp:77] Creating layer L3_b1_relu
I0821 06:45:15.056550 31846 net.cpp:100] Creating Layer L3_b1_relu
I0821 06:45:15.056555 31846 net.cpp:434] L3_b1_relu <- L3_b1_sum_eltwise_top
I0821 06:45:15.056562 31846 net.cpp:395] L3_b1_relu -> L3_b1_sum_eltwise_top (in-place)
I0821 06:45:15.056571 31846 net.cpp:150] Setting up L3_b1_relu
I0821 06:45:15.056578 31846 net.cpp:157] Top shape: 125 32 8 8 (256000)
I0821 06:45:15.056583 31846 net.cpp:165] Memory required for data: 1267201500
I0821 06:45:15.056588 31846 layer_factory.hpp:77] Creating layer L3_b1_zeros
I0821 06:45:15.056601 31846 net.cpp:100] Creating Layer L3_b1_zeros
I0821 06:45:15.056608 31846 net.cpp:408] L3_b1_zeros -> L3_b1_zeros
I0821 06:45:15.057850 31846 net.cpp:150] Setting up L3_b1_zeros
I0821 06:45:15.057868 31846 net.cpp:157] Top shape: 125 32 8 8 (256000)
I0821 06:45:15.057873 31846 net.cpp:165] Memory required for data: 1268225500
I0821 06:45:15.057879 31846 layer_factory.hpp:77] Creating layer L3_b1_concat0
I0821 06:45:15.057888 31846 net.cpp:100] Creating Layer L3_b1_concat0
I0821 06:45:15.057895 31846 net.cpp:434] L3_b1_concat0 <- L3_b1_sum_eltwise_top
I0821 06:45:15.057902 31846 net.cpp:434] L3_b1_concat0 <- L3_b1_zeros
I0821 06:45:15.057912 31846 net.cpp:408] L3_b1_concat0 -> L3_b1_concat0
I0821 06:45:15.057952 31846 net.cpp:150] Setting up L3_b1_concat0
I0821 06:45:15.057968 31846 net.cpp:157] Top shape: 125 64 8 8 (512000)
I0821 06:45:15.057973 31846 net.cpp:165] Memory required for data: 1270273500
I0821 06:45:15.057978 31846 layer_factory.hpp:77] Creating layer L3_b1_concat0_L3_b1_concat0_0_split
I0821 06:45:15.057986 31846 net.cpp:100] Creating Layer L3_b1_concat0_L3_b1_concat0_0_split
I0821 06:45:15.057991 31846 net.cpp:434] L3_b1_concat0_L3_b1_concat0_0_split <- L3_b1_concat0
I0821 06:45:15.057999 31846 net.cpp:408] L3_b1_concat0_L3_b1_concat0_0_split -> L3_b1_concat0_L3_b1_concat0_0_split_0
I0821 06:45:15.058008 31846 net.cpp:408] L3_b1_concat0_L3_b1_concat0_0_split -> L3_b1_concat0_L3_b1_concat0_0_split_1
I0821 06:45:15.058060 31846 net.cpp:150] Setting up L3_b1_concat0_L3_b1_concat0_0_split
I0821 06:45:15.058073 31846 net.cpp:157] Top shape: 125 64 8 8 (512000)
I0821 06:45:15.058079 31846 net.cpp:157] Top shape: 125 64 8 8 (512000)
I0821 06:45:15.058094 31846 net.cpp:165] Memory required for data: 1274369500
I0821 06:45:15.058100 31846 layer_factory.hpp:77] Creating layer L3_b2_cbr1_conv
I0821 06:45:15.058115 31846 net.cpp:100] Creating Layer L3_b2_cbr1_conv
I0821 06:45:15.058122 31846 net.cpp:434] L3_b2_cbr1_conv <- L3_b1_concat0_L3_b1_concat0_0_split_0
I0821 06:45:15.058131 31846 net.cpp:408] L3_b2_cbr1_conv -> L3_b2_cbr1_conv_top
I0821 06:45:15.060118 31846 net.cpp:150] Setting up L3_b2_cbr1_conv
I0821 06:45:15.060137 31846 net.cpp:157] Top shape: 125 64 8 8 (512000)
I0821 06:45:15.060142 31846 net.cpp:165] Memory required for data: 1276417500
I0821 06:45:15.060151 31846 layer_factory.hpp:77] Creating layer L3_b2_cbr1_bn
I0821 06:45:15.060161 31846 net.cpp:100] Creating Layer L3_b2_cbr1_bn
I0821 06:45:15.060168 31846 net.cpp:434] L3_b2_cbr1_bn <- L3_b2_cbr1_conv_top
I0821 06:45:15.060179 31846 net.cpp:408] L3_b2_cbr1_bn -> L3_b2_cbr1_bn_top
I0821 06:45:15.060449 31846 net.cpp:150] Setting up L3_b2_cbr1_bn
I0821 06:45:15.060462 31846 net.cpp:157] Top shape: 125 64 8 8 (512000)
I0821 06:45:15.060467 31846 net.cpp:165] Memory required for data: 1278465500
I0821 06:45:15.060478 31846 layer_factory.hpp:77] Creating layer L3_b2_cbr1_scale
I0821 06:45:15.060487 31846 net.cpp:100] Creating Layer L3_b2_cbr1_scale
I0821 06:45:15.060494 31846 net.cpp:434] L3_b2_cbr1_scale <- L3_b2_cbr1_bn_top
I0821 06:45:15.060501 31846 net.cpp:395] L3_b2_cbr1_scale -> L3_b2_cbr1_bn_top (in-place)
I0821 06:45:15.060561 31846 layer_factory.hpp:77] Creating layer L3_b2_cbr1_scale
I0821 06:45:15.060716 31846 net.cpp:150] Setting up L3_b2_cbr1_scale
I0821 06:45:15.060732 31846 net.cpp:157] Top shape: 125 64 8 8 (512000)
I0821 06:45:15.060737 31846 net.cpp:165] Memory required for data: 1280513500
I0821 06:45:15.060746 31846 layer_factory.hpp:77] Creating layer L3_b2_cbr1_relu
I0821 06:45:15.060755 31846 net.cpp:100] Creating Layer L3_b2_cbr1_relu
I0821 06:45:15.060760 31846 net.cpp:434] L3_b2_cbr1_relu <- L3_b2_cbr1_bn_top
I0821 06:45:15.060767 31846 net.cpp:395] L3_b2_cbr1_relu -> L3_b2_cbr1_bn_top (in-place)
I0821 06:45:15.060777 31846 net.cpp:150] Setting up L3_b2_cbr1_relu
I0821 06:45:15.060784 31846 net.cpp:157] Top shape: 125 64 8 8 (512000)
I0821 06:45:15.060789 31846 net.cpp:165] Memory required for data: 1282561500
I0821 06:45:15.060793 31846 layer_factory.hpp:77] Creating layer L3_b2_cbr2_conv
I0821 06:45:15.060808 31846 net.cpp:100] Creating Layer L3_b2_cbr2_conv
I0821 06:45:15.060816 31846 net.cpp:434] L3_b2_cbr2_conv <- L3_b2_cbr1_bn_top
I0821 06:45:15.060823 31846 net.cpp:408] L3_b2_cbr2_conv -> L3_b2_cbr2_conv_top
I0821 06:45:15.061873 31846 net.cpp:150] Setting up L3_b2_cbr2_conv
I0821 06:45:15.061888 31846 net.cpp:157] Top shape: 125 64 8 8 (512000)
I0821 06:45:15.061894 31846 net.cpp:165] Memory required for data: 1284609500
I0821 06:45:15.061902 31846 layer_factory.hpp:77] Creating layer L3_b2_cbr2_bn
I0821 06:45:15.061915 31846 net.cpp:100] Creating Layer L3_b2_cbr2_bn
I0821 06:45:15.061923 31846 net.cpp:434] L3_b2_cbr2_bn <- L3_b2_cbr2_conv_top
I0821 06:45:15.061933 31846 net.cpp:408] L3_b2_cbr2_bn -> L3_b2_cbr2_bn_top
I0821 06:45:15.062194 31846 net.cpp:150] Setting up L3_b2_cbr2_bn
I0821 06:45:15.062208 31846 net.cpp:157] Top shape: 125 64 8 8 (512000)
I0821 06:45:15.062213 31846 net.cpp:165] Memory required for data: 1286657500
I0821 06:45:15.062224 31846 layer_factory.hpp:77] Creating layer L3_b2_cbr2_scale
I0821 06:45:15.062233 31846 net.cpp:100] Creating Layer L3_b2_cbr2_scale
I0821 06:45:15.062239 31846 net.cpp:434] L3_b2_cbr2_scale <- L3_b2_cbr2_bn_top
I0821 06:45:15.062249 31846 net.cpp:395] L3_b2_cbr2_scale -> L3_b2_cbr2_bn_top (in-place)
I0821 06:45:15.062307 31846 layer_factory.hpp:77] Creating layer L3_b2_cbr2_scale
I0821 06:45:15.062469 31846 net.cpp:150] Setting up L3_b2_cbr2_scale
I0821 06:45:15.062482 31846 net.cpp:157] Top shape: 125 64 8 8 (512000)
I0821 06:45:15.062487 31846 net.cpp:165] Memory required for data: 1288705500
I0821 06:45:15.062497 31846 layer_factory.hpp:77] Creating layer L3_b2_sum_eltwise
I0821 06:45:15.062510 31846 net.cpp:100] Creating Layer L3_b2_sum_eltwise
I0821 06:45:15.062525 31846 net.cpp:434] L3_b2_sum_eltwise <- L3_b2_cbr2_bn_top
I0821 06:45:15.062532 31846 net.cpp:434] L3_b2_sum_eltwise <- L3_b1_concat0_L3_b1_concat0_0_split_1
I0821 06:45:15.062541 31846 net.cpp:408] L3_b2_sum_eltwise -> L3_b2_sum_eltwise_top
I0821 06:45:15.062578 31846 net.cpp:150] Setting up L3_b2_sum_eltwise
I0821 06:45:15.062590 31846 net.cpp:157] Top shape: 125 64 8 8 (512000)
I0821 06:45:15.062595 31846 net.cpp:165] Memory required for data: 1290753500
I0821 06:45:15.062600 31846 layer_factory.hpp:77] Creating layer L3_b2_relu
I0821 06:45:15.062608 31846 net.cpp:100] Creating Layer L3_b2_relu
I0821 06:45:15.062614 31846 net.cpp:434] L3_b2_relu <- L3_b2_sum_eltwise_top
I0821 06:45:15.062624 31846 net.cpp:395] L3_b2_relu -> L3_b2_sum_eltwise_top (in-place)
I0821 06:45:15.062634 31846 net.cpp:150] Setting up L3_b2_relu
I0821 06:45:15.062641 31846 net.cpp:157] Top shape: 125 64 8 8 (512000)
I0821 06:45:15.062645 31846 net.cpp:165] Memory required for data: 1292801500
I0821 06:45:15.062650 31846 layer_factory.hpp:77] Creating layer L3_b2_sum_eltwise_top_L3_b2_relu_0_split
I0821 06:45:15.062657 31846 net.cpp:100] Creating Layer L3_b2_sum_eltwise_top_L3_b2_relu_0_split
I0821 06:45:15.062664 31846 net.cpp:434] L3_b2_sum_eltwise_top_L3_b2_relu_0_split <- L3_b2_sum_eltwise_top
I0821 06:45:15.062670 31846 net.cpp:408] L3_b2_sum_eltwise_top_L3_b2_relu_0_split -> L3_b2_sum_eltwise_top_L3_b2_relu_0_split_0
I0821 06:45:15.062680 31846 net.cpp:408] L3_b2_sum_eltwise_top_L3_b2_relu_0_split -> L3_b2_sum_eltwise_top_L3_b2_relu_0_split_1
I0821 06:45:15.062731 31846 net.cpp:150] Setting up L3_b2_sum_eltwise_top_L3_b2_relu_0_split
I0821 06:45:15.062742 31846 net.cpp:157] Top shape: 125 64 8 8 (512000)
I0821 06:45:15.062749 31846 net.cpp:157] Top shape: 125 64 8 8 (512000)
I0821 06:45:15.062754 31846 net.cpp:165] Memory required for data: 1296897500
I0821 06:45:15.062759 31846 layer_factory.hpp:77] Creating layer L3_b3_cbr1_conv
I0821 06:45:15.062772 31846 net.cpp:100] Creating Layer L3_b3_cbr1_conv
I0821 06:45:15.062777 31846 net.cpp:434] L3_b3_cbr1_conv <- L3_b2_sum_eltwise_top_L3_b2_relu_0_split_0
I0821 06:45:15.062789 31846 net.cpp:408] L3_b3_cbr1_conv -> L3_b3_cbr1_conv_top
I0821 06:45:15.063805 31846 net.cpp:150] Setting up L3_b3_cbr1_conv
I0821 06:45:15.063820 31846 net.cpp:157] Top shape: 125 64 8 8 (512000)
I0821 06:45:15.063825 31846 net.cpp:165] Memory required for data: 1298945500
I0821 06:45:15.063834 31846 layer_factory.hpp:77] Creating layer L3_b3_cbr1_bn
I0821 06:45:15.063846 31846 net.cpp:100] Creating Layer L3_b3_cbr1_bn
I0821 06:45:15.063853 31846 net.cpp:434] L3_b3_cbr1_bn <- L3_b3_cbr1_conv_top
I0821 06:45:15.063861 31846 net.cpp:408] L3_b3_cbr1_bn -> L3_b3_cbr1_bn_top
I0821 06:45:15.064128 31846 net.cpp:150] Setting up L3_b3_cbr1_bn
I0821 06:45:15.064141 31846 net.cpp:157] Top shape: 125 64 8 8 (512000)
I0821 06:45:15.064147 31846 net.cpp:165] Memory required for data: 1300993500
I0821 06:45:15.064157 31846 layer_factory.hpp:77] Creating layer L3_b3_cbr1_scale
I0821 06:45:15.064167 31846 net.cpp:100] Creating Layer L3_b3_cbr1_scale
I0821 06:45:15.064172 31846 net.cpp:434] L3_b3_cbr1_scale <- L3_b3_cbr1_bn_top
I0821 06:45:15.064179 31846 net.cpp:395] L3_b3_cbr1_scale -> L3_b3_cbr1_bn_top (in-place)
I0821 06:45:15.064239 31846 layer_factory.hpp:77] Creating layer L3_b3_cbr1_scale
I0821 06:45:15.064391 31846 net.cpp:150] Setting up L3_b3_cbr1_scale
I0821 06:45:15.064407 31846 net.cpp:157] Top shape: 125 64 8 8 (512000)
I0821 06:45:15.064412 31846 net.cpp:165] Memory required for data: 1303041500
I0821 06:45:15.064426 31846 layer_factory.hpp:77] Creating layer L3_b3_cbr1_relu
I0821 06:45:15.064436 31846 net.cpp:100] Creating Layer L3_b3_cbr1_relu
I0821 06:45:15.064442 31846 net.cpp:434] L3_b3_cbr1_relu <- L3_b3_cbr1_bn_top
I0821 06:45:15.064450 31846 net.cpp:395] L3_b3_cbr1_relu -> L3_b3_cbr1_bn_top (in-place)
I0821 06:45:15.064460 31846 net.cpp:150] Setting up L3_b3_cbr1_relu
I0821 06:45:15.064466 31846 net.cpp:157] Top shape: 125 64 8 8 (512000)
I0821 06:45:15.064478 31846 net.cpp:165] Memory required for data: 1305089500
I0821 06:45:15.064484 31846 layer_factory.hpp:77] Creating layer L3_b3_cbr2_conv
I0821 06:45:15.064498 31846 net.cpp:100] Creating Layer L3_b3_cbr2_conv
I0821 06:45:15.064505 31846 net.cpp:434] L3_b3_cbr2_conv <- L3_b3_cbr1_bn_top
I0821 06:45:15.064513 31846 net.cpp:408] L3_b3_cbr2_conv -> L3_b3_cbr2_conv_top
I0821 06:45:15.065533 31846 net.cpp:150] Setting up L3_b3_cbr2_conv
I0821 06:45:15.065548 31846 net.cpp:157] Top shape: 125 64 8 8 (512000)
I0821 06:45:15.065553 31846 net.cpp:165] Memory required for data: 1307137500
I0821 06:45:15.065562 31846 layer_factory.hpp:77] Creating layer L3_b3_cbr2_bn
I0821 06:45:15.065575 31846 net.cpp:100] Creating Layer L3_b3_cbr2_bn
I0821 06:45:15.065582 31846 net.cpp:434] L3_b3_cbr2_bn <- L3_b3_cbr2_conv_top
I0821 06:45:15.065592 31846 net.cpp:408] L3_b3_cbr2_bn -> L3_b3_cbr2_bn_top
I0821 06:45:15.065853 31846 net.cpp:150] Setting up L3_b3_cbr2_bn
I0821 06:45:15.065866 31846 net.cpp:157] Top shape: 125 64 8 8 (512000)
I0821 06:45:15.065871 31846 net.cpp:165] Memory required for data: 1309185500
I0821 06:45:15.065881 31846 layer_factory.hpp:77] Creating layer L3_b3_cbr2_scale
I0821 06:45:15.065892 31846 net.cpp:100] Creating Layer L3_b3_cbr2_scale
I0821 06:45:15.065899 31846 net.cpp:434] L3_b3_cbr2_scale <- L3_b3_cbr2_bn_top
I0821 06:45:15.065907 31846 net.cpp:395] L3_b3_cbr2_scale -> L3_b3_cbr2_bn_top (in-place)
I0821 06:45:15.065964 31846 layer_factory.hpp:77] Creating layer L3_b3_cbr2_scale
I0821 06:45:15.066121 31846 net.cpp:150] Setting up L3_b3_cbr2_scale
I0821 06:45:15.066134 31846 net.cpp:157] Top shape: 125 64 8 8 (512000)
I0821 06:45:15.066139 31846 net.cpp:165] Memory required for data: 1311233500
I0821 06:45:15.066148 31846 layer_factory.hpp:77] Creating layer L3_b3_sum_eltwise
I0821 06:45:15.066162 31846 net.cpp:100] Creating Layer L3_b3_sum_eltwise
I0821 06:45:15.066169 31846 net.cpp:434] L3_b3_sum_eltwise <- L3_b3_cbr2_bn_top
I0821 06:45:15.066176 31846 net.cpp:434] L3_b3_sum_eltwise <- L3_b2_sum_eltwise_top_L3_b2_relu_0_split_1
I0821 06:45:15.066184 31846 net.cpp:408] L3_b3_sum_eltwise -> L3_b3_sum_eltwise_top
I0821 06:45:15.066220 31846 net.cpp:150] Setting up L3_b3_sum_eltwise
I0821 06:45:15.066231 31846 net.cpp:157] Top shape: 125 64 8 8 (512000)
I0821 06:45:15.066236 31846 net.cpp:165] Memory required for data: 1313281500
I0821 06:45:15.066241 31846 layer_factory.hpp:77] Creating layer L3_b3_relu
I0821 06:45:15.066249 31846 net.cpp:100] Creating Layer L3_b3_relu
I0821 06:45:15.066256 31846 net.cpp:434] L3_b3_relu <- L3_b3_sum_eltwise_top
I0821 06:45:15.066265 31846 net.cpp:395] L3_b3_relu -> L3_b3_sum_eltwise_top (in-place)
I0821 06:45:15.066275 31846 net.cpp:150] Setting up L3_b3_relu
I0821 06:45:15.066282 31846 net.cpp:157] Top shape: 125 64 8 8 (512000)
I0821 06:45:15.066287 31846 net.cpp:165] Memory required for data: 1315329500
I0821 06:45:15.066292 31846 layer_factory.hpp:77] Creating layer L3_b3_sum_eltwise_top_L3_b3_relu_0_split
I0821 06:45:15.066298 31846 net.cpp:100] Creating Layer L3_b3_sum_eltwise_top_L3_b3_relu_0_split
I0821 06:45:15.066304 31846 net.cpp:434] L3_b3_sum_eltwise_top_L3_b3_relu_0_split <- L3_b3_sum_eltwise_top
I0821 06:45:15.066311 31846 net.cpp:408] L3_b3_sum_eltwise_top_L3_b3_relu_0_split -> L3_b3_sum_eltwise_top_L3_b3_relu_0_split_0
I0821 06:45:15.066320 31846 net.cpp:408] L3_b3_sum_eltwise_top_L3_b3_relu_0_split -> L3_b3_sum_eltwise_top_L3_b3_relu_0_split_1
I0821 06:45:15.066370 31846 net.cpp:150] Setting up L3_b3_sum_eltwise_top_L3_b3_relu_0_split
I0821 06:45:15.066380 31846 net.cpp:157] Top shape: 125 64 8 8 (512000)
I0821 06:45:15.066387 31846 net.cpp:157] Top shape: 125 64 8 8 (512000)
I0821 06:45:15.066392 31846 net.cpp:165] Memory required for data: 1319425500
I0821 06:45:15.066397 31846 layer_factory.hpp:77] Creating layer L3_b4_cbr1_conv
I0821 06:45:15.066408 31846 net.cpp:100] Creating Layer L3_b4_cbr1_conv
I0821 06:45:15.066414 31846 net.cpp:434] L3_b4_cbr1_conv <- L3_b3_sum_eltwise_top_L3_b3_relu_0_split_0
I0821 06:45:15.066432 31846 net.cpp:408] L3_b4_cbr1_conv -> L3_b4_cbr1_conv_top
I0821 06:45:15.067486 31846 net.cpp:150] Setting up L3_b4_cbr1_conv
I0821 06:45:15.067502 31846 net.cpp:157] Top shape: 125 64 8 8 (512000)
I0821 06:45:15.067507 31846 net.cpp:165] Memory required for data: 1321473500
I0821 06:45:15.067517 31846 layer_factory.hpp:77] Creating layer L3_b4_cbr1_bn
I0821 06:45:15.067528 31846 net.cpp:100] Creating Layer L3_b4_cbr1_bn
I0821 06:45:15.067535 31846 net.cpp:434] L3_b4_cbr1_bn <- L3_b4_cbr1_conv_top
I0821 06:45:15.067544 31846 net.cpp:408] L3_b4_cbr1_bn -> L3_b4_cbr1_bn_top
I0821 06:45:15.067811 31846 net.cpp:150] Setting up L3_b4_cbr1_bn
I0821 06:45:15.067824 31846 net.cpp:157] Top shape: 125 64 8 8 (512000)
I0821 06:45:15.067829 31846 net.cpp:165] Memory required for data: 1323521500
I0821 06:45:15.067839 31846 layer_factory.hpp:77] Creating layer L3_b4_cbr1_scale
I0821 06:45:15.067848 31846 net.cpp:100] Creating Layer L3_b4_cbr1_scale
I0821 06:45:15.067854 31846 net.cpp:434] L3_b4_cbr1_scale <- L3_b4_cbr1_bn_top
I0821 06:45:15.067862 31846 net.cpp:395] L3_b4_cbr1_scale -> L3_b4_cbr1_bn_top (in-place)
I0821 06:45:15.067921 31846 layer_factory.hpp:77] Creating layer L3_b4_cbr1_scale
I0821 06:45:15.068081 31846 net.cpp:150] Setting up L3_b4_cbr1_scale
I0821 06:45:15.068095 31846 net.cpp:157] Top shape: 125 64 8 8 (512000)
I0821 06:45:15.068100 31846 net.cpp:165] Memory required for data: 1325569500
I0821 06:45:15.068109 31846 layer_factory.hpp:77] Creating layer L3_b4_cbr1_relu
I0821 06:45:15.068119 31846 net.cpp:100] Creating Layer L3_b4_cbr1_relu
I0821 06:45:15.068125 31846 net.cpp:434] L3_b4_cbr1_relu <- L3_b4_cbr1_bn_top
I0821 06:45:15.068131 31846 net.cpp:395] L3_b4_cbr1_relu -> L3_b4_cbr1_bn_top (in-place)
I0821 06:45:15.068141 31846 net.cpp:150] Setting up L3_b4_cbr1_relu
I0821 06:45:15.068148 31846 net.cpp:157] Top shape: 125 64 8 8 (512000)
I0821 06:45:15.068152 31846 net.cpp:165] Memory required for data: 1327617500
I0821 06:45:15.068157 31846 layer_factory.hpp:77] Creating layer L3_b4_cbr2_conv
I0821 06:45:15.068171 31846 net.cpp:100] Creating Layer L3_b4_cbr2_conv
I0821 06:45:15.068177 31846 net.cpp:434] L3_b4_cbr2_conv <- L3_b4_cbr1_bn_top
I0821 06:45:15.068188 31846 net.cpp:408] L3_b4_cbr2_conv -> L3_b4_cbr2_conv_top
I0821 06:45:15.069226 31846 net.cpp:150] Setting up L3_b4_cbr2_conv
I0821 06:45:15.069242 31846 net.cpp:157] Top shape: 125 64 8 8 (512000)
I0821 06:45:15.069247 31846 net.cpp:165] Memory required for data: 1329665500
I0821 06:45:15.069255 31846 layer_factory.hpp:77] Creating layer L3_b4_cbr2_bn
I0821 06:45:15.069268 31846 net.cpp:100] Creating Layer L3_b4_cbr2_bn
I0821 06:45:15.069274 31846 net.cpp:434] L3_b4_cbr2_bn <- L3_b4_cbr2_conv_top
I0821 06:45:15.069283 31846 net.cpp:408] L3_b4_cbr2_bn -> L3_b4_cbr2_bn_top
I0821 06:45:15.069557 31846 net.cpp:150] Setting up L3_b4_cbr2_bn
I0821 06:45:15.069571 31846 net.cpp:157] Top shape: 125 64 8 8 (512000)
I0821 06:45:15.069576 31846 net.cpp:165] Memory required for data: 1331713500
I0821 06:45:15.069586 31846 layer_factory.hpp:77] Creating layer L3_b4_cbr2_scale
I0821 06:45:15.069598 31846 net.cpp:100] Creating Layer L3_b4_cbr2_scale
I0821 06:45:15.069605 31846 net.cpp:434] L3_b4_cbr2_scale <- L3_b4_cbr2_bn_top
I0821 06:45:15.069612 31846 net.cpp:395] L3_b4_cbr2_scale -> L3_b4_cbr2_bn_top (in-place)
I0821 06:45:15.069674 31846 layer_factory.hpp:77] Creating layer L3_b4_cbr2_scale
I0821 06:45:15.069835 31846 net.cpp:150] Setting up L3_b4_cbr2_scale
I0821 06:45:15.069849 31846 net.cpp:157] Top shape: 125 64 8 8 (512000)
I0821 06:45:15.069854 31846 net.cpp:165] Memory required for data: 1333761500
I0821 06:45:15.069862 31846 layer_factory.hpp:77] Creating layer L3_b4_sum_eltwise
I0821 06:45:15.069875 31846 net.cpp:100] Creating Layer L3_b4_sum_eltwise
I0821 06:45:15.069881 31846 net.cpp:434] L3_b4_sum_eltwise <- L3_b4_cbr2_bn_top
I0821 06:45:15.069888 31846 net.cpp:434] L3_b4_sum_eltwise <- L3_b3_sum_eltwise_top_L3_b3_relu_0_split_1
I0821 06:45:15.069898 31846 net.cpp:408] L3_b4_sum_eltwise -> L3_b4_sum_eltwise_top
I0821 06:45:15.069932 31846 net.cpp:150] Setting up L3_b4_sum_eltwise
I0821 06:45:15.069948 31846 net.cpp:157] Top shape: 125 64 8 8 (512000)
I0821 06:45:15.069953 31846 net.cpp:165] Memory required for data: 1335809500
I0821 06:45:15.069958 31846 layer_factory.hpp:77] Creating layer L3_b4_relu
I0821 06:45:15.069967 31846 net.cpp:100] Creating Layer L3_b4_relu
I0821 06:45:15.069972 31846 net.cpp:434] L3_b4_relu <- L3_b4_sum_eltwise_top
I0821 06:45:15.069983 31846 net.cpp:395] L3_b4_relu -> L3_b4_sum_eltwise_top (in-place)
I0821 06:45:15.069993 31846 net.cpp:150] Setting up L3_b4_relu
I0821 06:45:15.069999 31846 net.cpp:157] Top shape: 125 64 8 8 (512000)
I0821 06:45:15.070003 31846 net.cpp:165] Memory required for data: 1337857500
I0821 06:45:15.070008 31846 layer_factory.hpp:77] Creating layer L3_b4_sum_eltwise_top_L3_b4_relu_0_split
I0821 06:45:15.070015 31846 net.cpp:100] Creating Layer L3_b4_sum_eltwise_top_L3_b4_relu_0_split
I0821 06:45:15.070020 31846 net.cpp:434] L3_b4_sum_eltwise_top_L3_b4_relu_0_split <- L3_b4_sum_eltwise_top
I0821 06:45:15.070029 31846 net.cpp:408] L3_b4_sum_eltwise_top_L3_b4_relu_0_split -> L3_b4_sum_eltwise_top_L3_b4_relu_0_split_0
I0821 06:45:15.070037 31846 net.cpp:408] L3_b4_sum_eltwise_top_L3_b4_relu_0_split -> L3_b4_sum_eltwise_top_L3_b4_relu_0_split_1
I0821 06:45:15.070263 31846 net.cpp:150] Setting up L3_b4_sum_eltwise_top_L3_b4_relu_0_split
I0821 06:45:15.070278 31846 net.cpp:157] Top shape: 125 64 8 8 (512000)
I0821 06:45:15.070286 31846 net.cpp:157] Top shape: 125 64 8 8 (512000)
I0821 06:45:15.070291 31846 net.cpp:165] Memory required for data: 1341953500
I0821 06:45:15.070296 31846 layer_factory.hpp:77] Creating layer L3_b5_cbr1_conv
I0821 06:45:15.070310 31846 net.cpp:100] Creating Layer L3_b5_cbr1_conv
I0821 06:45:15.070317 31846 net.cpp:434] L3_b5_cbr1_conv <- L3_b4_sum_eltwise_top_L3_b4_relu_0_split_0
I0821 06:45:15.070327 31846 net.cpp:408] L3_b5_cbr1_conv -> L3_b5_cbr1_conv_top
I0821 06:45:15.071353 31846 net.cpp:150] Setting up L3_b5_cbr1_conv
I0821 06:45:15.071368 31846 net.cpp:157] Top shape: 125 64 8 8 (512000)
I0821 06:45:15.071374 31846 net.cpp:165] Memory required for data: 1344001500
I0821 06:45:15.071383 31846 layer_factory.hpp:77] Creating layer L3_b5_cbr1_bn
I0821 06:45:15.071398 31846 net.cpp:100] Creating Layer L3_b5_cbr1_bn
I0821 06:45:15.071405 31846 net.cpp:434] L3_b5_cbr1_bn <- L3_b5_cbr1_conv_top
I0821 06:45:15.071413 31846 net.cpp:408] L3_b5_cbr1_bn -> L3_b5_cbr1_bn_top
I0821 06:45:15.072692 31846 net.cpp:150] Setting up L3_b5_cbr1_bn
I0821 06:45:15.072710 31846 net.cpp:157] Top shape: 125 64 8 8 (512000)
I0821 06:45:15.072715 31846 net.cpp:165] Memory required for data: 1346049500
I0821 06:45:15.072727 31846 layer_factory.hpp:77] Creating layer L3_b5_cbr1_scale
I0821 06:45:15.072741 31846 net.cpp:100] Creating Layer L3_b5_cbr1_scale
I0821 06:45:15.072747 31846 net.cpp:434] L3_b5_cbr1_scale <- L3_b5_cbr1_bn_top
I0821 06:45:15.072755 31846 net.cpp:395] L3_b5_cbr1_scale -> L3_b5_cbr1_bn_top (in-place)
I0821 06:45:15.072819 31846 layer_factory.hpp:77] Creating layer L3_b5_cbr1_scale
I0821 06:45:15.072979 31846 net.cpp:150] Setting up L3_b5_cbr1_scale
I0821 06:45:15.072993 31846 net.cpp:157] Top shape: 125 64 8 8 (512000)
I0821 06:45:15.072999 31846 net.cpp:165] Memory required for data: 1348097500
I0821 06:45:15.073007 31846 layer_factory.hpp:77] Creating layer L3_b5_cbr1_relu
I0821 06:45:15.073019 31846 net.cpp:100] Creating Layer L3_b5_cbr1_relu
I0821 06:45:15.073024 31846 net.cpp:434] L3_b5_cbr1_relu <- L3_b5_cbr1_bn_top
I0821 06:45:15.073032 31846 net.cpp:395] L3_b5_cbr1_relu -> L3_b5_cbr1_bn_top (in-place)
I0821 06:45:15.073041 31846 net.cpp:150] Setting up L3_b5_cbr1_relu
I0821 06:45:15.073048 31846 net.cpp:157] Top shape: 125 64 8 8 (512000)
I0821 06:45:15.073053 31846 net.cpp:165] Memory required for data: 1350145500
I0821 06:45:15.073058 31846 layer_factory.hpp:77] Creating layer L3_b5_cbr2_conv
I0821 06:45:15.073072 31846 net.cpp:100] Creating Layer L3_b5_cbr2_conv
I0821 06:45:15.073078 31846 net.cpp:434] L3_b5_cbr2_conv <- L3_b5_cbr1_bn_top
I0821 06:45:15.073091 31846 net.cpp:408] L3_b5_cbr2_conv -> L3_b5_cbr2_conv_top
I0821 06:45:15.075104 31846 net.cpp:150] Setting up L3_b5_cbr2_conv
I0821 06:45:15.075122 31846 net.cpp:157] Top shape: 125 64 8 8 (512000)
I0821 06:45:15.075127 31846 net.cpp:165] Memory required for data: 1352193500
I0821 06:45:15.075137 31846 layer_factory.hpp:77] Creating layer L3_b5_cbr2_bn
I0821 06:45:15.075150 31846 net.cpp:100] Creating Layer L3_b5_cbr2_bn
I0821 06:45:15.075157 31846 net.cpp:434] L3_b5_cbr2_bn <- L3_b5_cbr2_conv_top
I0821 06:45:15.075165 31846 net.cpp:408] L3_b5_cbr2_bn -> L3_b5_cbr2_bn_top
I0821 06:45:15.075435 31846 net.cpp:150] Setting up L3_b5_cbr2_bn
I0821 06:45:15.075449 31846 net.cpp:157] Top shape: 125 64 8 8 (512000)
I0821 06:45:15.075454 31846 net.cpp:165] Memory required for data: 1354241500
I0821 06:45:15.075464 31846 layer_factory.hpp:77] Creating layer L3_b5_cbr2_scale
I0821 06:45:15.075476 31846 net.cpp:100] Creating Layer L3_b5_cbr2_scale
I0821 06:45:15.075484 31846 net.cpp:434] L3_b5_cbr2_scale <- L3_b5_cbr2_bn_top
I0821 06:45:15.075491 31846 net.cpp:395] L3_b5_cbr2_scale -> L3_b5_cbr2_bn_top (in-place)
I0821 06:45:15.075552 31846 layer_factory.hpp:77] Creating layer L3_b5_cbr2_scale
I0821 06:45:15.075708 31846 net.cpp:150] Setting up L3_b5_cbr2_scale
I0821 06:45:15.075722 31846 net.cpp:157] Top shape: 125 64 8 8 (512000)
I0821 06:45:15.075727 31846 net.cpp:165] Memory required for data: 1356289500
I0821 06:45:15.075736 31846 layer_factory.hpp:77] Creating layer L3_b5_sum_eltwise
I0821 06:45:15.075748 31846 net.cpp:100] Creating Layer L3_b5_sum_eltwise
I0821 06:45:15.075755 31846 net.cpp:434] L3_b5_sum_eltwise <- L3_b5_cbr2_bn_top
I0821 06:45:15.075762 31846 net.cpp:434] L3_b5_sum_eltwise <- L3_b4_sum_eltwise_top_L3_b4_relu_0_split_1
I0821 06:45:15.075770 31846 net.cpp:408] L3_b5_sum_eltwise -> L3_b5_sum_eltwise_top
I0821 06:45:15.075805 31846 net.cpp:150] Setting up L3_b5_sum_eltwise
I0821 06:45:15.075815 31846 net.cpp:157] Top shape: 125 64 8 8 (512000)
I0821 06:45:15.075819 31846 net.cpp:165] Memory required for data: 1358337500
I0821 06:45:15.075824 31846 layer_factory.hpp:77] Creating layer L3_b5_relu
I0821 06:45:15.075832 31846 net.cpp:100] Creating Layer L3_b5_relu
I0821 06:45:15.075839 31846 net.cpp:434] L3_b5_relu <- L3_b5_sum_eltwise_top
I0821 06:45:15.075848 31846 net.cpp:395] L3_b5_relu -> L3_b5_sum_eltwise_top (in-place)
I0821 06:45:15.075858 31846 net.cpp:150] Setting up L3_b5_relu
I0821 06:45:15.075865 31846 net.cpp:157] Top shape: 125 64 8 8 (512000)
I0821 06:45:15.075870 31846 net.cpp:165] Memory required for data: 1360385500
I0821 06:45:15.075875 31846 layer_factory.hpp:77] Creating layer L3_b5_sum_eltwise_top_L3_b5_relu_0_split
I0821 06:45:15.075881 31846 net.cpp:100] Creating Layer L3_b5_sum_eltwise_top_L3_b5_relu_0_split
I0821 06:45:15.075887 31846 net.cpp:434] L3_b5_sum_eltwise_top_L3_b5_relu_0_split <- L3_b5_sum_eltwise_top
I0821 06:45:15.075894 31846 net.cpp:408] L3_b5_sum_eltwise_top_L3_b5_relu_0_split -> L3_b5_sum_eltwise_top_L3_b5_relu_0_split_0
I0821 06:45:15.075903 31846 net.cpp:408] L3_b5_sum_eltwise_top_L3_b5_relu_0_split -> L3_b5_sum_eltwise_top_L3_b5_relu_0_split_1
I0821 06:45:15.075951 31846 net.cpp:150] Setting up L3_b5_sum_eltwise_top_L3_b5_relu_0_split
I0821 06:45:15.075963 31846 net.cpp:157] Top shape: 125 64 8 8 (512000)
I0821 06:45:15.075970 31846 net.cpp:157] Top shape: 125 64 8 8 (512000)
I0821 06:45:15.075974 31846 net.cpp:165] Memory required for data: 1364481500
I0821 06:45:15.075979 31846 layer_factory.hpp:77] Creating layer L3_b6_cbr1_conv
I0821 06:45:15.075994 31846 net.cpp:100] Creating Layer L3_b6_cbr1_conv
I0821 06:45:15.076000 31846 net.cpp:434] L3_b6_cbr1_conv <- L3_b5_sum_eltwise_top_L3_b5_relu_0_split_0
I0821 06:45:15.076009 31846 net.cpp:408] L3_b6_cbr1_conv -> L3_b6_cbr1_conv_top
I0821 06:45:15.077020 31846 net.cpp:150] Setting up L3_b6_cbr1_conv
I0821 06:45:15.077035 31846 net.cpp:157] Top shape: 125 64 8 8 (512000)
I0821 06:45:15.077040 31846 net.cpp:165] Memory required for data: 1366529500
I0821 06:45:15.077050 31846 layer_factory.hpp:77] Creating layer L3_b6_cbr1_bn
I0821 06:45:15.077064 31846 net.cpp:100] Creating Layer L3_b6_cbr1_bn
I0821 06:45:15.077077 31846 net.cpp:434] L3_b6_cbr1_bn <- L3_b6_cbr1_conv_top
I0821 06:45:15.077087 31846 net.cpp:408] L3_b6_cbr1_bn -> L3_b6_cbr1_bn_top
I0821 06:45:15.077349 31846 net.cpp:150] Setting up L3_b6_cbr1_bn
I0821 06:45:15.077363 31846 net.cpp:157] Top shape: 125 64 8 8 (512000)
I0821 06:45:15.077368 31846 net.cpp:165] Memory required for data: 1368577500
I0821 06:45:15.077378 31846 layer_factory.hpp:77] Creating layer L3_b6_cbr1_scale
I0821 06:45:15.077388 31846 net.cpp:100] Creating Layer L3_b6_cbr1_scale
I0821 06:45:15.077394 31846 net.cpp:434] L3_b6_cbr1_scale <- L3_b6_cbr1_bn_top
I0821 06:45:15.077401 31846 net.cpp:395] L3_b6_cbr1_scale -> L3_b6_cbr1_bn_top (in-place)
I0821 06:45:15.077467 31846 layer_factory.hpp:77] Creating layer L3_b6_cbr1_scale
I0821 06:45:15.077620 31846 net.cpp:150] Setting up L3_b6_cbr1_scale
I0821 06:45:15.077633 31846 net.cpp:157] Top shape: 125 64 8 8 (512000)
I0821 06:45:15.077638 31846 net.cpp:165] Memory required for data: 1370625500
I0821 06:45:15.077647 31846 layer_factory.hpp:77] Creating layer L3_b6_cbr1_relu
I0821 06:45:15.077656 31846 net.cpp:100] Creating Layer L3_b6_cbr1_relu
I0821 06:45:15.077662 31846 net.cpp:434] L3_b6_cbr1_relu <- L3_b6_cbr1_bn_top
I0821 06:45:15.077669 31846 net.cpp:395] L3_b6_cbr1_relu -> L3_b6_cbr1_bn_top (in-place)
I0821 06:45:15.077683 31846 net.cpp:150] Setting up L3_b6_cbr1_relu
I0821 06:45:15.077690 31846 net.cpp:157] Top shape: 125 64 8 8 (512000)
I0821 06:45:15.077695 31846 net.cpp:165] Memory required for data: 1372673500
I0821 06:45:15.077700 31846 layer_factory.hpp:77] Creating layer L3_b6_cbr2_conv
I0821 06:45:15.077711 31846 net.cpp:100] Creating Layer L3_b6_cbr2_conv
I0821 06:45:15.077720 31846 net.cpp:434] L3_b6_cbr2_conv <- L3_b6_cbr1_bn_top
I0821 06:45:15.077729 31846 net.cpp:408] L3_b6_cbr2_conv -> L3_b6_cbr2_conv_top
I0821 06:45:15.078747 31846 net.cpp:150] Setting up L3_b6_cbr2_conv
I0821 06:45:15.078761 31846 net.cpp:157] Top shape: 125 64 8 8 (512000)
I0821 06:45:15.078766 31846 net.cpp:165] Memory required for data: 1374721500
I0821 06:45:15.078775 31846 layer_factory.hpp:77] Creating layer L3_b6_cbr2_bn
I0821 06:45:15.078788 31846 net.cpp:100] Creating Layer L3_b6_cbr2_bn
I0821 06:45:15.078794 31846 net.cpp:434] L3_b6_cbr2_bn <- L3_b6_cbr2_conv_top
I0821 06:45:15.078802 31846 net.cpp:408] L3_b6_cbr2_bn -> L3_b6_cbr2_bn_top
I0821 06:45:15.079064 31846 net.cpp:150] Setting up L3_b6_cbr2_bn
I0821 06:45:15.079077 31846 net.cpp:157] Top shape: 125 64 8 8 (512000)
I0821 06:45:15.079082 31846 net.cpp:165] Memory required for data: 1376769500
I0821 06:45:15.079092 31846 layer_factory.hpp:77] Creating layer L3_b6_cbr2_scale
I0821 06:45:15.079105 31846 net.cpp:100] Creating Layer L3_b6_cbr2_scale
I0821 06:45:15.079113 31846 net.cpp:434] L3_b6_cbr2_scale <- L3_b6_cbr2_bn_top
I0821 06:45:15.079120 31846 net.cpp:395] L3_b6_cbr2_scale -> L3_b6_cbr2_bn_top (in-place)
I0821 06:45:15.079180 31846 layer_factory.hpp:77] Creating layer L3_b6_cbr2_scale
I0821 06:45:15.079337 31846 net.cpp:150] Setting up L3_b6_cbr2_scale
I0821 06:45:15.079350 31846 net.cpp:157] Top shape: 125 64 8 8 (512000)
I0821 06:45:15.079355 31846 net.cpp:165] Memory required for data: 1378817500
I0821 06:45:15.079365 31846 layer_factory.hpp:77] Creating layer L3_b6_sum_eltwise
I0821 06:45:15.079375 31846 net.cpp:100] Creating Layer L3_b6_sum_eltwise
I0821 06:45:15.079382 31846 net.cpp:434] L3_b6_sum_eltwise <- L3_b6_cbr2_bn_top
I0821 06:45:15.079390 31846 net.cpp:434] L3_b6_sum_eltwise <- L3_b5_sum_eltwise_top_L3_b5_relu_0_split_1
I0821 06:45:15.079399 31846 net.cpp:408] L3_b6_sum_eltwise -> L3_b6_sum_eltwise_top
I0821 06:45:15.079438 31846 net.cpp:150] Setting up L3_b6_sum_eltwise
I0821 06:45:15.079452 31846 net.cpp:157] Top shape: 125 64 8 8 (512000)
I0821 06:45:15.079457 31846 net.cpp:165] Memory required for data: 1380865500
I0821 06:45:15.079463 31846 layer_factory.hpp:77] Creating layer L3_b6_relu
I0821 06:45:15.079473 31846 net.cpp:100] Creating Layer L3_b6_relu
I0821 06:45:15.079479 31846 net.cpp:434] L3_b6_relu <- L3_b6_sum_eltwise_top
I0821 06:45:15.079493 31846 net.cpp:395] L3_b6_relu -> L3_b6_sum_eltwise_top (in-place)
I0821 06:45:15.079504 31846 net.cpp:150] Setting up L3_b6_relu
I0821 06:45:15.079511 31846 net.cpp:157] Top shape: 125 64 8 8 (512000)
I0821 06:45:15.079516 31846 net.cpp:165] Memory required for data: 1382913500
I0821 06:45:15.079521 31846 layer_factory.hpp:77] Creating layer L3_b6_sum_eltwise_top_L3_b6_relu_0_split
I0821 06:45:15.079529 31846 net.cpp:100] Creating Layer L3_b6_sum_eltwise_top_L3_b6_relu_0_split
I0821 06:45:15.079533 31846 net.cpp:434] L3_b6_sum_eltwise_top_L3_b6_relu_0_split <- L3_b6_sum_eltwise_top
I0821 06:45:15.079541 31846 net.cpp:408] L3_b6_sum_eltwise_top_L3_b6_relu_0_split -> L3_b6_sum_eltwise_top_L3_b6_relu_0_split_0
I0821 06:45:15.079550 31846 net.cpp:408] L3_b6_sum_eltwise_top_L3_b6_relu_0_split -> L3_b6_sum_eltwise_top_L3_b6_relu_0_split_1
I0821 06:45:15.079601 31846 net.cpp:150] Setting up L3_b6_sum_eltwise_top_L3_b6_relu_0_split
I0821 06:45:15.079612 31846 net.cpp:157] Top shape: 125 64 8 8 (512000)
I0821 06:45:15.079618 31846 net.cpp:157] Top shape: 125 64 8 8 (512000)
I0821 06:45:15.079623 31846 net.cpp:165] Memory required for data: 1387009500
I0821 06:45:15.079628 31846 layer_factory.hpp:77] Creating layer L3_b7_cbr1_conv
I0821 06:45:15.079643 31846 net.cpp:100] Creating Layer L3_b7_cbr1_conv
I0821 06:45:15.079649 31846 net.cpp:434] L3_b7_cbr1_conv <- L3_b6_sum_eltwise_top_L3_b6_relu_0_split_0
I0821 06:45:15.079658 31846 net.cpp:408] L3_b7_cbr1_conv -> L3_b7_cbr1_conv_top
I0821 06:45:15.080672 31846 net.cpp:150] Setting up L3_b7_cbr1_conv
I0821 06:45:15.080687 31846 net.cpp:157] Top shape: 125 64 8 8 (512000)
I0821 06:45:15.080693 31846 net.cpp:165] Memory required for data: 1389057500
I0821 06:45:15.080703 31846 layer_factory.hpp:77] Creating layer L3_b7_cbr1_bn
I0821 06:45:15.080714 31846 net.cpp:100] Creating Layer L3_b7_cbr1_bn
I0821 06:45:15.080720 31846 net.cpp:434] L3_b7_cbr1_bn <- L3_b7_cbr1_conv_top
I0821 06:45:15.080729 31846 net.cpp:408] L3_b7_cbr1_bn -> L3_b7_cbr1_bn_top
I0821 06:45:15.080992 31846 net.cpp:150] Setting up L3_b7_cbr1_bn
I0821 06:45:15.081007 31846 net.cpp:157] Top shape: 125 64 8 8 (512000)
I0821 06:45:15.081012 31846 net.cpp:165] Memory required for data: 1391105500
I0821 06:45:15.081022 31846 layer_factory.hpp:77] Creating layer L3_b7_cbr1_scale
I0821 06:45:15.081030 31846 net.cpp:100] Creating Layer L3_b7_cbr1_scale
I0821 06:45:15.081037 31846 net.cpp:434] L3_b7_cbr1_scale <- L3_b7_cbr1_bn_top
I0821 06:45:15.081044 31846 net.cpp:395] L3_b7_cbr1_scale -> L3_b7_cbr1_bn_top (in-place)
I0821 06:45:15.081104 31846 layer_factory.hpp:77] Creating layer L3_b7_cbr1_scale
I0821 06:45:15.081260 31846 net.cpp:150] Setting up L3_b7_cbr1_scale
I0821 06:45:15.081274 31846 net.cpp:157] Top shape: 125 64 8 8 (512000)
I0821 06:45:15.081279 31846 net.cpp:165] Memory required for data: 1393153500
I0821 06:45:15.081288 31846 layer_factory.hpp:77] Creating layer L3_b7_cbr1_relu
I0821 06:45:15.081323 31846 net.cpp:100] Creating Layer L3_b7_cbr1_relu
I0821 06:45:15.081332 31846 net.cpp:434] L3_b7_cbr1_relu <- L3_b7_cbr1_bn_top
I0821 06:45:15.081341 31846 net.cpp:395] L3_b7_cbr1_relu -> L3_b7_cbr1_bn_top (in-place)
I0821 06:45:15.081351 31846 net.cpp:150] Setting up L3_b7_cbr1_relu
I0821 06:45:15.081357 31846 net.cpp:157] Top shape: 125 64 8 8 (512000)
I0821 06:45:15.081362 31846 net.cpp:165] Memory required for data: 1395201500
I0821 06:45:15.081367 31846 layer_factory.hpp:77] Creating layer L3_b7_cbr2_conv
I0821 06:45:15.081382 31846 net.cpp:100] Creating Layer L3_b7_cbr2_conv
I0821 06:45:15.081388 31846 net.cpp:434] L3_b7_cbr2_conv <- L3_b7_cbr1_bn_top
I0821 06:45:15.081396 31846 net.cpp:408] L3_b7_cbr2_conv -> L3_b7_cbr2_conv_top
I0821 06:45:15.082429 31846 net.cpp:150] Setting up L3_b7_cbr2_conv
I0821 06:45:15.082444 31846 net.cpp:157] Top shape: 125 64 8 8 (512000)
I0821 06:45:15.082449 31846 net.cpp:165] Memory required for data: 1397249500
I0821 06:45:15.082458 31846 layer_factory.hpp:77] Creating layer L3_b7_cbr2_bn
I0821 06:45:15.082470 31846 net.cpp:100] Creating Layer L3_b7_cbr2_bn
I0821 06:45:15.082484 31846 net.cpp:434] L3_b7_cbr2_bn <- L3_b7_cbr2_conv_top
I0821 06:45:15.082494 31846 net.cpp:408] L3_b7_cbr2_bn -> L3_b7_cbr2_bn_top
I0821 06:45:15.082758 31846 net.cpp:150] Setting up L3_b7_cbr2_bn
I0821 06:45:15.082772 31846 net.cpp:157] Top shape: 125 64 8 8 (512000)
I0821 06:45:15.082777 31846 net.cpp:165] Memory required for data: 1399297500
I0821 06:45:15.082787 31846 layer_factory.hpp:77] Creating layer L3_b7_cbr2_scale
I0821 06:45:15.082797 31846 net.cpp:100] Creating Layer L3_b7_cbr2_scale
I0821 06:45:15.082803 31846 net.cpp:434] L3_b7_cbr2_scale <- L3_b7_cbr2_bn_top
I0821 06:45:15.082810 31846 net.cpp:395] L3_b7_cbr2_scale -> L3_b7_cbr2_bn_top (in-place)
I0821 06:45:15.082870 31846 layer_factory.hpp:77] Creating layer L3_b7_cbr2_scale
I0821 06:45:15.083024 31846 net.cpp:150] Setting up L3_b7_cbr2_scale
I0821 06:45:15.083037 31846 net.cpp:157] Top shape: 125 64 8 8 (512000)
I0821 06:45:15.083042 31846 net.cpp:165] Memory required for data: 1401345500
I0821 06:45:15.083051 31846 layer_factory.hpp:77] Creating layer L3_b7_sum_eltwise
I0821 06:45:15.083060 31846 net.cpp:100] Creating Layer L3_b7_sum_eltwise
I0821 06:45:15.083066 31846 net.cpp:434] L3_b7_sum_eltwise <- L3_b7_cbr2_bn_top
I0821 06:45:15.083073 31846 net.cpp:434] L3_b7_sum_eltwise <- L3_b6_sum_eltwise_top_L3_b6_relu_0_split_1
I0821 06:45:15.083084 31846 net.cpp:408] L3_b7_sum_eltwise -> L3_b7_sum_eltwise_top
I0821 06:45:15.083117 31846 net.cpp:150] Setting up L3_b7_sum_eltwise
I0821 06:45:15.083129 31846 net.cpp:157] Top shape: 125 64 8 8 (512000)
I0821 06:45:15.083134 31846 net.cpp:165] Memory required for data: 1403393500
I0821 06:45:15.083139 31846 layer_factory.hpp:77] Creating layer L3_b7_relu
I0821 06:45:15.083148 31846 net.cpp:100] Creating Layer L3_b7_relu
I0821 06:45:15.083153 31846 net.cpp:434] L3_b7_relu <- L3_b7_sum_eltwise_top
I0821 06:45:15.083160 31846 net.cpp:395] L3_b7_relu -> L3_b7_sum_eltwise_top (in-place)
I0821 06:45:15.083169 31846 net.cpp:150] Setting up L3_b7_relu
I0821 06:45:15.083176 31846 net.cpp:157] Top shape: 125 64 8 8 (512000)
I0821 06:45:15.083180 31846 net.cpp:165] Memory required for data: 1405441500
I0821 06:45:15.083185 31846 layer_factory.hpp:77] Creating layer L3_b7_sum_eltwise_top_L3_b7_relu_0_split
I0821 06:45:15.083196 31846 net.cpp:100] Creating Layer L3_b7_sum_eltwise_top_L3_b7_relu_0_split
I0821 06:45:15.083202 31846 net.cpp:434] L3_b7_sum_eltwise_top_L3_b7_relu_0_split <- L3_b7_sum_eltwise_top
I0821 06:45:15.083209 31846 net.cpp:408] L3_b7_sum_eltwise_top_L3_b7_relu_0_split -> L3_b7_sum_eltwise_top_L3_b7_relu_0_split_0
I0821 06:45:15.083218 31846 net.cpp:408] L3_b7_sum_eltwise_top_L3_b7_relu_0_split -> L3_b7_sum_eltwise_top_L3_b7_relu_0_split_1
I0821 06:45:15.083263 31846 net.cpp:150] Setting up L3_b7_sum_eltwise_top_L3_b7_relu_0_split
I0821 06:45:15.083278 31846 net.cpp:157] Top shape: 125 64 8 8 (512000)
I0821 06:45:15.083286 31846 net.cpp:157] Top shape: 125 64 8 8 (512000)
I0821 06:45:15.083290 31846 net.cpp:165] Memory required for data: 1409537500
I0821 06:45:15.083295 31846 layer_factory.hpp:77] Creating layer L3_b8_cbr1_conv
I0821 06:45:15.083307 31846 net.cpp:100] Creating Layer L3_b8_cbr1_conv
I0821 06:45:15.083313 31846 net.cpp:434] L3_b8_cbr1_conv <- L3_b7_sum_eltwise_top_L3_b7_relu_0_split_0
I0821 06:45:15.083323 31846 net.cpp:408] L3_b8_cbr1_conv -> L3_b8_cbr1_conv_top
I0821 06:45:15.084342 31846 net.cpp:150] Setting up L3_b8_cbr1_conv
I0821 06:45:15.084360 31846 net.cpp:157] Top shape: 125 64 8 8 (512000)
I0821 06:45:15.084365 31846 net.cpp:165] Memory required for data: 1411585500
I0821 06:45:15.084374 31846 layer_factory.hpp:77] Creating layer L3_b8_cbr1_bn
I0821 06:45:15.084383 31846 net.cpp:100] Creating Layer L3_b8_cbr1_bn
I0821 06:45:15.084390 31846 net.cpp:434] L3_b8_cbr1_bn <- L3_b8_cbr1_conv_top
I0821 06:45:15.084401 31846 net.cpp:408] L3_b8_cbr1_bn -> L3_b8_cbr1_bn_top
I0821 06:45:15.084676 31846 net.cpp:150] Setting up L3_b8_cbr1_bn
I0821 06:45:15.084692 31846 net.cpp:157] Top shape: 125 64 8 8 (512000)
I0821 06:45:15.084697 31846 net.cpp:165] Memory required for data: 1413633500
I0821 06:45:15.084713 31846 layer_factory.hpp:77] Creating layer L3_b8_cbr1_scale
I0821 06:45:15.084725 31846 net.cpp:100] Creating Layer L3_b8_cbr1_scale
I0821 06:45:15.084733 31846 net.cpp:434] L3_b8_cbr1_scale <- L3_b8_cbr1_bn_top
I0821 06:45:15.084739 31846 net.cpp:395] L3_b8_cbr1_scale -> L3_b8_cbr1_bn_top (in-place)
I0821 06:45:15.084797 31846 layer_factory.hpp:77] Creating layer L3_b8_cbr1_scale
I0821 06:45:15.084957 31846 net.cpp:150] Setting up L3_b8_cbr1_scale
I0821 06:45:15.084970 31846 net.cpp:157] Top shape: 125 64 8 8 (512000)
I0821 06:45:15.084975 31846 net.cpp:165] Memory required for data: 1415681500
I0821 06:45:15.084985 31846 layer_factory.hpp:77] Creating layer L3_b8_cbr1_relu
I0821 06:45:15.084992 31846 net.cpp:100] Creating Layer L3_b8_cbr1_relu
I0821 06:45:15.084998 31846 net.cpp:434] L3_b8_cbr1_relu <- L3_b8_cbr1_bn_top
I0821 06:45:15.085008 31846 net.cpp:395] L3_b8_cbr1_relu -> L3_b8_cbr1_bn_top (in-place)
I0821 06:45:15.085018 31846 net.cpp:150] Setting up L3_b8_cbr1_relu
I0821 06:45:15.085026 31846 net.cpp:157] Top shape: 125 64 8 8 (512000)
I0821 06:45:15.085029 31846 net.cpp:165] Memory required for data: 1417729500
I0821 06:45:15.085034 31846 layer_factory.hpp:77] Creating layer L3_b8_cbr2_conv
I0821 06:45:15.085048 31846 net.cpp:100] Creating Layer L3_b8_cbr2_conv
I0821 06:45:15.085054 31846 net.cpp:434] L3_b8_cbr2_conv <- L3_b8_cbr1_bn_top
I0821 06:45:15.085063 31846 net.cpp:408] L3_b8_cbr2_conv -> L3_b8_cbr2_conv_top
I0821 06:45:15.086076 31846 net.cpp:150] Setting up L3_b8_cbr2_conv
I0821 06:45:15.086091 31846 net.cpp:157] Top shape: 125 64 8 8 (512000)
I0821 06:45:15.086096 31846 net.cpp:165] Memory required for data: 1419777500
I0821 06:45:15.086104 31846 layer_factory.hpp:77] Creating layer L3_b8_cbr2_bn
I0821 06:45:15.086117 31846 net.cpp:100] Creating Layer L3_b8_cbr2_bn
I0821 06:45:15.086124 31846 net.cpp:434] L3_b8_cbr2_bn <- L3_b8_cbr2_conv_top
I0821 06:45:15.086133 31846 net.cpp:408] L3_b8_cbr2_bn -> L3_b8_cbr2_bn_top
I0821 06:45:15.086391 31846 net.cpp:150] Setting up L3_b8_cbr2_bn
I0821 06:45:15.086405 31846 net.cpp:157] Top shape: 125 64 8 8 (512000)
I0821 06:45:15.086410 31846 net.cpp:165] Memory required for data: 1421825500
I0821 06:45:15.086419 31846 layer_factory.hpp:77] Creating layer L3_b8_cbr2_scale
I0821 06:45:15.086434 31846 net.cpp:100] Creating Layer L3_b8_cbr2_scale
I0821 06:45:15.086441 31846 net.cpp:434] L3_b8_cbr2_scale <- L3_b8_cbr2_bn_top
I0821 06:45:15.086448 31846 net.cpp:395] L3_b8_cbr2_scale -> L3_b8_cbr2_bn_top (in-place)
I0821 06:45:15.086519 31846 layer_factory.hpp:77] Creating layer L3_b8_cbr2_scale
I0821 06:45:15.086678 31846 net.cpp:150] Setting up L3_b8_cbr2_scale
I0821 06:45:15.086691 31846 net.cpp:157] Top shape: 125 64 8 8 (512000)
I0821 06:45:15.086696 31846 net.cpp:165] Memory required for data: 1423873500
I0821 06:45:15.086706 31846 layer_factory.hpp:77] Creating layer L3_b8_sum_eltwise
I0821 06:45:15.086715 31846 net.cpp:100] Creating Layer L3_b8_sum_eltwise
I0821 06:45:15.086722 31846 net.cpp:434] L3_b8_sum_eltwise <- L3_b8_cbr2_bn_top
I0821 06:45:15.086729 31846 net.cpp:434] L3_b8_sum_eltwise <- L3_b7_sum_eltwise_top_L3_b7_relu_0_split_1
I0821 06:45:15.086740 31846 net.cpp:408] L3_b8_sum_eltwise -> L3_b8_sum_eltwise_top
I0821 06:45:15.086772 31846 net.cpp:150] Setting up L3_b8_sum_eltwise
I0821 06:45:15.086786 31846 net.cpp:157] Top shape: 125 64 8 8 (512000)
I0821 06:45:15.086789 31846 net.cpp:165] Memory required for data: 1425921500
I0821 06:45:15.086796 31846 layer_factory.hpp:77] Creating layer L3_b8_relu
I0821 06:45:15.086802 31846 net.cpp:100] Creating Layer L3_b8_relu
I0821 06:45:15.086808 31846 net.cpp:434] L3_b8_relu <- L3_b8_sum_eltwise_top
I0821 06:45:15.086815 31846 net.cpp:395] L3_b8_relu -> L3_b8_sum_eltwise_top (in-place)
I0821 06:45:15.086824 31846 net.cpp:150] Setting up L3_b8_relu
I0821 06:45:15.086832 31846 net.cpp:157] Top shape: 125 64 8 8 (512000)
I0821 06:45:15.086836 31846 net.cpp:165] Memory required for data: 1427969500
I0821 06:45:15.086841 31846 layer_factory.hpp:77] Creating layer L3_b8_sum_eltwise_top_L3_b8_relu_0_split
I0821 06:45:15.086858 31846 net.cpp:100] Creating Layer L3_b8_sum_eltwise_top_L3_b8_relu_0_split
I0821 06:45:15.086864 31846 net.cpp:434] L3_b8_sum_eltwise_top_L3_b8_relu_0_split <- L3_b8_sum_eltwise_top
I0821 06:45:15.086871 31846 net.cpp:408] L3_b8_sum_eltwise_top_L3_b8_relu_0_split -> L3_b8_sum_eltwise_top_L3_b8_relu_0_split_0
I0821 06:45:15.086881 31846 net.cpp:408] L3_b8_sum_eltwise_top_L3_b8_relu_0_split -> L3_b8_sum_eltwise_top_L3_b8_relu_0_split_1
I0821 06:45:15.086930 31846 net.cpp:150] Setting up L3_b8_sum_eltwise_top_L3_b8_relu_0_split
I0821 06:45:15.086941 31846 net.cpp:157] Top shape: 125 64 8 8 (512000)
I0821 06:45:15.086948 31846 net.cpp:157] Top shape: 125 64 8 8 (512000)
I0821 06:45:15.086953 31846 net.cpp:165] Memory required for data: 1432065500
I0821 06:45:15.086958 31846 layer_factory.hpp:77] Creating layer L3_b9_cbr1_conv
I0821 06:45:15.086969 31846 net.cpp:100] Creating Layer L3_b9_cbr1_conv
I0821 06:45:15.086977 31846 net.cpp:434] L3_b9_cbr1_conv <- L3_b8_sum_eltwise_top_L3_b8_relu_0_split_0
I0821 06:45:15.086987 31846 net.cpp:408] L3_b9_cbr1_conv -> L3_b9_cbr1_conv_top
I0821 06:45:15.089005 31846 net.cpp:150] Setting up L3_b9_cbr1_conv
I0821 06:45:15.089023 31846 net.cpp:157] Top shape: 125 64 8 8 (512000)
I0821 06:45:15.089030 31846 net.cpp:165] Memory required for data: 1434113500
I0821 06:45:15.089038 31846 layer_factory.hpp:77] Creating layer L3_b9_cbr1_bn
I0821 06:45:15.089051 31846 net.cpp:100] Creating Layer L3_b9_cbr1_bn
I0821 06:45:15.089059 31846 net.cpp:434] L3_b9_cbr1_bn <- L3_b9_cbr1_conv_top
I0821 06:45:15.089071 31846 net.cpp:408] L3_b9_cbr1_bn -> L3_b9_cbr1_bn_top
I0821 06:45:15.089332 31846 net.cpp:150] Setting up L3_b9_cbr1_bn
I0821 06:45:15.089346 31846 net.cpp:157] Top shape: 125 64 8 8 (512000)
I0821 06:45:15.089351 31846 net.cpp:165] Memory required for data: 1436161500
I0821 06:45:15.089361 31846 layer_factory.hpp:77] Creating layer L3_b9_cbr1_scale
I0821 06:45:15.089370 31846 net.cpp:100] Creating Layer L3_b9_cbr1_scale
I0821 06:45:15.089377 31846 net.cpp:434] L3_b9_cbr1_scale <- L3_b9_cbr1_bn_top
I0821 06:45:15.089390 31846 net.cpp:395] L3_b9_cbr1_scale -> L3_b9_cbr1_bn_top (in-place)
I0821 06:45:15.089457 31846 layer_factory.hpp:77] Creating layer L3_b9_cbr1_scale
I0821 06:45:15.089615 31846 net.cpp:150] Setting up L3_b9_cbr1_scale
I0821 06:45:15.089628 31846 net.cpp:157] Top shape: 125 64 8 8 (512000)
I0821 06:45:15.089633 31846 net.cpp:165] Memory required for data: 1438209500
I0821 06:45:15.089643 31846 layer_factory.hpp:77] Creating layer L3_b9_cbr1_relu
I0821 06:45:15.089651 31846 net.cpp:100] Creating Layer L3_b9_cbr1_relu
I0821 06:45:15.089658 31846 net.cpp:434] L3_b9_cbr1_relu <- L3_b9_cbr1_bn_top
I0821 06:45:15.089668 31846 net.cpp:395] L3_b9_cbr1_relu -> L3_b9_cbr1_bn_top (in-place)
I0821 06:45:15.089679 31846 net.cpp:150] Setting up L3_b9_cbr1_relu
I0821 06:45:15.089685 31846 net.cpp:157] Top shape: 125 64 8 8 (512000)
I0821 06:45:15.089689 31846 net.cpp:165] Memory required for data: 1440257500
I0821 06:45:15.089694 31846 layer_factory.hpp:77] Creating layer L3_b9_cbr2_conv
I0821 06:45:15.089709 31846 net.cpp:100] Creating Layer L3_b9_cbr2_conv
I0821 06:45:15.089715 31846 net.cpp:434] L3_b9_cbr2_conv <- L3_b9_cbr1_bn_top
I0821 06:45:15.089726 31846 net.cpp:408] L3_b9_cbr2_conv -> L3_b9_cbr2_conv_top
I0821 06:45:15.090741 31846 net.cpp:150] Setting up L3_b9_cbr2_conv
I0821 06:45:15.090756 31846 net.cpp:157] Top shape: 125 64 8 8 (512000)
I0821 06:45:15.090761 31846 net.cpp:165] Memory required for data: 1442305500
I0821 06:45:15.090770 31846 layer_factory.hpp:77] Creating layer L3_b9_cbr2_bn
I0821 06:45:15.090780 31846 net.cpp:100] Creating Layer L3_b9_cbr2_bn
I0821 06:45:15.090787 31846 net.cpp:434] L3_b9_cbr2_bn <- L3_b9_cbr2_conv_top
I0821 06:45:15.090798 31846 net.cpp:408] L3_b9_cbr2_bn -> L3_b9_cbr2_bn_top
I0821 06:45:15.091065 31846 net.cpp:150] Setting up L3_b9_cbr2_bn
I0821 06:45:15.091079 31846 net.cpp:157] Top shape: 125 64 8 8 (512000)
I0821 06:45:15.091084 31846 net.cpp:165] Memory required for data: 1444353500
I0821 06:45:15.091104 31846 layer_factory.hpp:77] Creating layer L3_b9_cbr2_scale
I0821 06:45:15.091115 31846 net.cpp:100] Creating Layer L3_b9_cbr2_scale
I0821 06:45:15.091122 31846 net.cpp:434] L3_b9_cbr2_scale <- L3_b9_cbr2_bn_top
I0821 06:45:15.091130 31846 net.cpp:395] L3_b9_cbr2_scale -> L3_b9_cbr2_bn_top (in-place)
I0821 06:45:15.091188 31846 layer_factory.hpp:77] Creating layer L3_b9_cbr2_scale
I0821 06:45:15.091343 31846 net.cpp:150] Setting up L3_b9_cbr2_scale
I0821 06:45:15.091356 31846 net.cpp:157] Top shape: 125 64 8 8 (512000)
I0821 06:45:15.091361 31846 net.cpp:165] Memory required for data: 1446401500
I0821 06:45:15.091370 31846 layer_factory.hpp:77] Creating layer L3_b9_sum_eltwise
I0821 06:45:15.091379 31846 net.cpp:100] Creating Layer L3_b9_sum_eltwise
I0821 06:45:15.091385 31846 net.cpp:434] L3_b9_sum_eltwise <- L3_b9_cbr2_bn_top
I0821 06:45:15.091392 31846 net.cpp:434] L3_b9_sum_eltwise <- L3_b8_sum_eltwise_top_L3_b8_relu_0_split_1
I0821 06:45:15.091404 31846 net.cpp:408] L3_b9_sum_eltwise -> L3_b9_sum_eltwise_top
I0821 06:45:15.091444 31846 net.cpp:150] Setting up L3_b9_sum_eltwise
I0821 06:45:15.091457 31846 net.cpp:157] Top shape: 125 64 8 8 (512000)
I0821 06:45:15.091462 31846 net.cpp:165] Memory required for data: 1448449500
I0821 06:45:15.091467 31846 layer_factory.hpp:77] Creating layer L3_b9_relu
I0821 06:45:15.091481 31846 net.cpp:100] Creating Layer L3_b9_relu
I0821 06:45:15.091487 31846 net.cpp:434] L3_b9_relu <- L3_b9_sum_eltwise_top
I0821 06:45:15.091495 31846 net.cpp:395] L3_b9_relu -> L3_b9_sum_eltwise_top (in-place)
I0821 06:45:15.091505 31846 net.cpp:150] Setting up L3_b9_relu
I0821 06:45:15.091511 31846 net.cpp:157] Top shape: 125 64 8 8 (512000)
I0821 06:45:15.091516 31846 net.cpp:165] Memory required for data: 1450497500
I0821 06:45:15.091521 31846 layer_factory.hpp:77] Creating layer post_pool
I0821 06:45:15.091528 31846 net.cpp:100] Creating Layer post_pool
I0821 06:45:15.091534 31846 net.cpp:434] post_pool <- L3_b9_sum_eltwise_top
I0821 06:45:15.091544 31846 net.cpp:408] post_pool -> post_pool
I0821 06:45:15.091579 31846 net.cpp:150] Setting up post_pool
I0821 06:45:15.091589 31846 net.cpp:157] Top shape: 125 64 1 1 (8000)
I0821 06:45:15.091594 31846 net.cpp:165] Memory required for data: 1450529500
I0821 06:45:15.091599 31846 layer_factory.hpp:77] Creating layer post_FC
I0821 06:45:15.091696 31846 net.cpp:100] Creating Layer post_FC
I0821 06:45:15.091709 31846 net.cpp:434] post_FC <- post_pool
I0821 06:45:15.091719 31846 net.cpp:408] post_FC -> post_FC_top
I0821 06:45:15.091979 31846 net.cpp:150] Setting up post_FC
I0821 06:45:15.091995 31846 net.cpp:157] Top shape: 125 10 (1250)
I0821 06:45:15.092000 31846 net.cpp:165] Memory required for data: 1450534500
I0821 06:45:15.092010 31846 layer_factory.hpp:77] Creating layer post_FC_top_post_FC_0_split
I0821 06:45:15.092018 31846 net.cpp:100] Creating Layer post_FC_top_post_FC_0_split
I0821 06:45:15.092025 31846 net.cpp:434] post_FC_top_post_FC_0_split <- post_FC_top
I0821 06:45:15.092036 31846 net.cpp:408] post_FC_top_post_FC_0_split -> post_FC_top_post_FC_0_split_0
I0821 06:45:15.092046 31846 net.cpp:408] post_FC_top_post_FC_0_split -> post_FC_top_post_FC_0_split_1
I0821 06:45:15.092097 31846 net.cpp:150] Setting up post_FC_top_post_FC_0_split
I0821 06:45:15.092110 31846 net.cpp:157] Top shape: 125 10 (1250)
I0821 06:45:15.092118 31846 net.cpp:157] Top shape: 125 10 (1250)
I0821 06:45:15.092123 31846 net.cpp:165] Memory required for data: 1450544500
I0821 06:45:15.092128 31846 layer_factory.hpp:77] Creating layer accuracy
I0821 06:45:15.092172 31846 net.cpp:100] Creating Layer accuracy
I0821 06:45:15.092185 31846 net.cpp:434] accuracy <- post_FC_top_post_FC_0_split_0
I0821 06:45:15.092191 31846 net.cpp:434] accuracy <- label_dataLayer_1_split_0
I0821 06:45:15.092200 31846 net.cpp:408] accuracy -> accuracy
…
