…
I0817 16:06:12.305152 17619 net.cpp:322] The NetState phase (0) differed from the phase (1) specified by a rule in layer L3_b9_cbr2_bn
I0817 16:06:12.306900 17619 net.cpp:58] Initializing net from parameters: 
name: "Cifar-Resnet"
state {
  phase: TRAIN
  level: 0
  stage: ""
}
layer {
  name: "dataLayer"
  type: "Data"
  top: "data_top"
  top: "label"
  include {
    phase: TRAIN
  }
  transform_param {
    mirror: true
    crop_size: 32
    mean_file: "examples/cifar10/mean.binaryproto"
  }
  data_param {
    source: "examples/cifar10/cifar10_train30k_lmdb"
    batch_size: 125
    backend: LMDB
  }
  image_data_param {
    shuffle: true
  }
}
layer {
  name: "pre_conv"
  type: "Convolution"
  bottom: "data_top"
  top: "pre_conv_top"
  param {
    lr_mult: 1
    decay_mult: 1
  }
  param {
    lr_mult: 2
    decay_mult: 0
  }
  convolution_param {
    num_output: 16
    pad: 1
    kernel_size: 3
    stride: 1
    weight_filler {
      type: "msra"
    }
    bias_filler {
      type: "constant"
    }
  }
}
layer {
  name: "pre_bn"
  type: "BatchNorm"
  bottom: "pre_conv_top"
  top: "pre_bn_top"
  include {
    phase: TRAIN
  }
  batch_norm_param {
    use_global_stats: false
    moving_average_fraction: 0.95
  }
}
layer {
  name: "pre_scale"
  type: "Scale"
  bottom: "pre_bn_top"
  top: "pre_bn_top"
  scale_param {
    bias_term: true
  }
}
layer {
  name: "pre_relu"
  type: "ReLU"
  bottom: "pre_bn_top"
  top: "pre_bn_top"
}
layer {
  name: "L1_b1_cbr1_conv"
  type: "Convolution"
  bottom: "pre_bn_top"
  top: "L1_b1_cbr1_conv_top"
  param {
    lr_mult: 1
    decay_mult: 1
  }
  param {
    lr_mult: 2
    decay_mult: 0
  }
  convolution_param {
    num_output: 16
    pad: 1
    kernel_size: 3
    stride: 1
    weight_filler {
      type: "msra"
    }
    bias_filler {
      type: "constant"
    }
  }
}
layer {
  name: "L1_b1_cbr1_bn"
  type: "BatchNorm"
  bottom: "L1_b1_cbr1_conv_top"
  top: "L1_b1_cbr1_bn_top"
  include {
    phase: TRAIN
  }
  batch_norm_param {
    use_global_stats: false
    moving_average_fraction: 0.95
  }
}
layer {
  name: "L1_b1_cbr1_scale"
  type: "Scale"
  bottom: "L1_b1_cbr1_bn_top"
  top: "L1_b1_cbr1_bn_top"
  scale_param {
    bias_term: true
  }
}
layer {
  name: "L1_b1_cbr1_relu"
  type: "ReLU"
  bottom: "L1_b1_cbr1_bn_top"
  top: "L1_b1_cbr1_bn_top"
}
layer {
  name: "L1_b1_cbr2_conv"
  type: "Convolution"
  bottom: "L1_b1_cbr1_bn_top"
  top: "L1_b1_cbr2_conv_top"
  param {
    lr_mult: 1
    decay_mult: 1
  }
  param {
    lr_mult: 2
    decay_mult: 0
  }
  convolution_param {
    num_output: 16
    pad: 1
    kernel_size: 3
    stride: 1
    weight_filler {
      type: "msra"
    }
    bias_filler {
      type: "constant"
    }
  }
}
layer {
  name: "L1_b1_cbr2_bn"
  type: "BatchNorm"
  bottom: "L1_b1_cbr2_conv_top"
  top: "L1_b1_cbr2_bn_top"
  include {
    phase: TRAIN
  }
  batch_norm_param {
    use_global_stats: false
    moving_average_fraction: 0.95
  }
}
layer {
  name: "L1_b1_cbr2_scale"
  type: "Scale"
  bottom: "L1_b1_cbr2_bn_top"
  top: "L1_b1_cbr2_bn_top"
  scale_param {
    bias_term: true
  }
}
layer {
  name: "L1_b1_sum_eltwise"
  type: "Eltwise"
  bottom: "L1_b1_cbr2_bn_top"
  bottom: "pre_bn_top"
  top: "L1_b1_sum_eltwise_top"
  eltwise_param {
    operation: SUM
  }
}
layer {
  name: "L1_b1_relu"
  type: "ReLU"
  bottom: "L1_b1_sum_eltwise_top"
  top: "L1_b1_sum_eltwise_top"
}
layer {
  name: "L1_b2_cbr1_conv"
  type: "Convolution"
  bottom: "L1_b1_sum_eltwise_top"
  top: "L1_b2_cbr1_conv_top"
  param {
    lr_mult: 1
    decay_mult: 1
  }
  param {
    lr_mult: 2
    decay_mult: 0
  }
  convolution_param {
    num_output: 16
    pad: 1
    kernel_size: 3
    stride: 1
    weight_filler {
      type: "msra"
    }
    bias_filler {
      type: "constant"
    }
  }
}
layer {
  name: "L1_b2_cbr1_bn"
  type: "BatchNorm"
  bottom: "L1_b2_cbr1_conv_top"
  top: "L1_b2_cbr1_bn_top"
  include {
    phase: TRAIN
  }
  batch_norm_param {
    use_global_stats: false
    moving_average_fraction: 0.95
  }
}
layer {
  name: "L1_b2_cbr1_scale"
  type: "Scale"
  bottom: "L1_b2_cbr1_bn_top"
  top: "L1_b2_cbr1_bn_top"
  scale_param {
    bias_term: true
  }
}
layer {
  name: "L1_b2_cbr1_relu"
  type: "ReLU"
  bottom: "L1_b2_cbr1_bn_top"
  top: "L1_b2_cbr1_bn_top"
}
layer {
  name: "L1_b2_cbr2_conv"
  type: "Convolution"
  bottom: "L1_b2_cbr1_bn_top"
  top: "L1_b2_cbr2_conv_top"
  param {
    lr_mult: 1
    decay_mult: 1
  }
  param {
    lr_mult: 2
    decay_mult: 0
  }
  convolution_param {
    num_output: 16
    pad: 1
    kernel_size: 3
    stride: 1
    weight_filler {
      type: "msra"
    }
    bias_filler {
      type: "constant"
    }
  }
}
layer {
  name: "L1_b2_cbr2_bn"
  type: "BatchNorm"
  bottom: "L1_b2_cbr2_conv_top"
  top: "L1_b2_cbr2_bn_top"
  include {
    phase: TRAIN
  }
  batch_norm_param {
    use_global_stats: false
    moving_average_fraction: 0.95
  }
}
layer {
  name: "L1_b2_cbr2_scale"
  type: "Scale"
  bottom: "L1_b2_cbr2_bn_top"
  top: "L1_b2_cbr2_bn_top"
  scale_param {
    bias_term: true
  }
}
layer {
  name: "L1_b2_sum_eltwise"
  type: "Eltwise"
  bottom: "L1_b2_cbr2_bn_top"
  bottom: "L1_b1_sum_eltwise_top"
  top: "L1_b2_sum_eltwise_top"
  eltwise_param {
    operation: SUM
  }
}
layer {
  name: "L1_b2_relu"
  type: "ReLU"
  bottom: "L1_b2_sum_eltwise_top"
  top: "L1_b2_sum_eltwise_top"
}
layer {
  name: "L1_b3_cbr1_conv"
  type: "Convolution"
  bottom: "L1_b2_sum_eltwise_top"
  top: "L1_b3_cbr1_conv_top"
  param {
    lr_mult: 1
    decay_mult: 1
  }
  param {
    lr_mult: 2
    decay_mult: 0
  }
  convolution_param {
    num_output: 16
    pad: 1
    kernel_size: 3
    stride: 1
    weight_filler {
      type: "msra"
    }
    bias_filler {
      type: "constant"
    }
  }
}
layer {
  name: "L1_b3_cbr1_bn"
  type: "BatchNorm"
  bottom: "L1_b3_cbr1_conv_top"
  top: "L1_b3_cbr1_bn_top"
  include {
    phase: TRAIN
  }
  batch_norm_param {
    use_global_stats: false
    moving_average_fraction: 0.95
  }
}
layer {
  name: "L1_b3_cbr1_scale"
  type: "Scale"
  bottom: "L1_b3_cbr1_bn_top"
  top: "L1_b3_cbr1_bn_top"
  scale_param {
    bias_term: true
  }
}
layer {
  name: "L1_b3_cbr1_relu"
  type: "ReLU"
  bottom: "L1_b3_cbr1_bn_top"
  top: "L1_b3_cbr1_bn_top"
}
layer {
  name: "L1_b3_cbr2_conv"
  type: "Convolution"
  bottom: "L1_b3_cbr1_bn_top"
  top: "L1_b3_cbr2_conv_top"
  param {
    lr_mult: 1
    decay_mult: 1
  }
  param {
    lr_mult: 2
    decay_mult: 0
  }
  convolution_param {
    num_output: 16
    pad: 1
    kernel_size: 3
    stride: 1
    weight_filler {
      type: "msra"
    }
    bias_filler {
      type: "constant"
    }
  }
}
layer {
  name: "L1_b3_cbr2_bn"
  type: "BatchNorm"
  bottom: "L1_b3_cbr2_conv_top"
  top: "L1_b3_cbr2_bn_top"
  include {
    phase: TRAIN
  }
  batch_norm_param {
    use_global_stats: false
    moving_average_fraction: 0.95
  }
}
layer {
  name: "L1_b3_cbr2_scale"
  type: "Scale"
  bottom: "L1_b3_cbr2_bn_top"
  top: "L1_b3_cbr2_bn_top"
  scale_param {
    bias_term: true
  }
}
layer {
  name: "L1_b3_sum_eltwise"
  type: "Eltwise"
  bottom: "L1_b3_cbr2_bn_top"
  bottom: "L1_b2_sum_eltwise_top"
  top: "L1_b3_sum_eltwise_top"
  eltwise_param {
    operation: SUM
  }
}
layer {
  name: "L1_b3_relu"
  type: "ReLU"
  bottom: "L1_b3_sum_eltwise_top"
  top: "L1_b3_sum_eltwise_top"
}
layer {
  name: "L1_b4_cbr1_conv"
  type: "Convolution"
  bottom: "L1_b3_sum_eltwise_top"
  top: "L1_b4_cbr1_conv_top"
  param {
    lr_mult: 1
    decay_mult: 1
  }
  param {
    lr_mult: 2
    decay_mult: 0
  }
  convolution_param {
    num_output: 16
    pad: 1
    kernel_size: 3
    stride: 1
    weight_filler {
      type: "msra"
    }
    bias_filler {
      type: "constant"
    }
  }
}
layer {
  name: "L1_b4_cbr1_bn"
  type: "BatchNorm"
  bottom: "L1_b4_cbr1_conv_top"
  top: "L1_b4_cbr1_bn_top"
  include {
    phase: TRAIN
  }
  batch_norm_param {
    use_global_stats: false
    moving_average_fraction: 0.95
  }
}
layer {
  name: "L1_b4_cbr1_scale"
  type: "Scale"
  bottom: "L1_b4_cbr1_bn_top"
  top: "L1_b4_cbr1_bn_top"
  scale_param {
    bias_term: true
  }
}
layer {
  name: "L1_b4_cbr1_relu"
  type: "ReLU"
  bottom: "L1_b4_cbr1_bn_top"
  top: "L1_b4_cbr1_bn_top"
}
layer {
  name: "L1_b4_cbr2_conv"
  type: "Convolution"
  bottom: "L1_b4_cbr1_bn_top"
  top: "L1_b4_cbr2_conv_top"
  param {
    lr_mult: 1
    decay_mult: 1
  }
  param {
    lr_mult: 2
    decay_mult: 0
  }
  convolution_param {
    num_output: 16
    pad: 1
    kernel_size: 3
    stride: 1
    weight_filler {
      type: "msra"
    }
    bias_filler {
      type: "constant"
    }
  }
}
layer {
  name: "L1_b4_cbr2_bn"
  type: "BatchNorm"
  bottom: "L1_b4_cbr2_conv_top"
  top: "L1_b4_cbr2_bn_top"
  include {
    phase: TRAIN
  }
  batch_norm_param {
    use_global_stats: false
    moving_average_fraction: 0.95
  }
}
layer {
  name: "L1_b4_cbr2_scale"
  type: "Scale"
  bottom: "L1_b4_cbr2_bn_top"
  top: "L1_b4_cbr2_bn_top"
  scale_param {
    bias_term: true
  }
}
layer {
  name: "L1_b4_sum_eltwise"
  type: "Eltwise"
  bottom: "L1_b4_cbr2_bn_top"
  bottom: "L1_b3_sum_eltwise_top"
  top: "L1_b4_sum_eltwise_top"
  eltwise_param {
    operation: SUM
  }
}
layer {
  name: "L1_b4_relu"
  type: "ReLU"
  bottom: "L1_b4_sum_eltwise_top"
  top: "L1_b4_sum_eltwise_top"
}
layer {
  name: "L1_b5_cbr1_conv"
  type: "Convolution"
  bottom: "L1_b4_sum_eltwise_top"
  top: "L1_b5_cbr1_conv_top"
  param {
    lr_mult: 1
    decay_mult: 1
  }
  param {
    lr_mult: 2
    decay_mult: 0
  }
  convolution_param {
    num_output: 16
    pad: 1
    kernel_size: 3
    stride: 1
    weight_filler {
      type: "msra"
    }
    bias_filler {
      type: "constant"
    }
  }
}
layer {
  name: "L1_b5_cbr1_bn"
  type: "BatchNorm"
  bottom: "L1_b5_cbr1_conv_top"
  top: "L1_b5_cbr1_bn_top"
  include {
    phase: TRAIN
  }
  batch_norm_param {
    use_global_stats: false
    moving_average_fraction: 0.95
  }
}
layer {
  name: "L1_b5_cbr1_scale"
  type: "Scale"
  bottom: "L1_b5_cbr1_bn_top"
  top: "L1_b5_cbr1_bn_top"
  scale_param {
    bias_term: true
  }
}
layer {
  name: "L1_b5_cbr1_relu"
  type: "ReLU"
  bottom: "L1_b5_cbr1_bn_top"
  top: "L1_b5_cbr1_bn_top"
}
layer {
  name: "L1_b5_cbr2_conv"
  type: "Convolution"
  bottom: "L1_b5_cbr1_bn_top"
  top: "L1_b5_cbr2_conv_top"
  param {
    lr_mult: 1
    decay_mult: 1
  }
  param {
    lr_mult: 2
    decay_mult: 0
  }
  convolution_param {
    num_output: 16
    pad: 1
    kernel_size: 3
    stride: 1
    weight_filler {
      type: "msra"
    }
    bias_filler {
      type: "constant"
    }
  }
}
layer {
  name: "L1_b5_cbr2_bn"
  type: "BatchNorm"
  bottom: "L1_b5_cbr2_conv_top"
  top: "L1_b5_cbr2_bn_top"
  include {
    phase: TRAIN
  }
  batch_norm_param {
    use_global_stats: false
    moving_average_fraction: 0.95
  }
}
layer {
  name: "L1_b5_cbr2_scale"
  type: "Scale"
  bottom: "L1_b5_cbr2_bn_top"
  top: "L1_b5_cbr2_bn_top"
  scale_param {
    bias_term: true
  }
}
layer {
  name: "L1_b5_sum_eltwise"
  type: "Eltwise"
  bottom: "L1_b5_cbr2_bn_top"
  bottom: "L1_b4_sum_eltwise_top"
  top: "L1_b5_sum_eltwise_top"
  eltwise_param {
    operation: SUM
  }
}
layer {
  name: "L1_b5_relu"
  type: "ReLU"
  bottom: "L1_b5_sum_eltwise_top"
  top: "L1_b5_sum_eltwise_top"
}
layer {
  name: "L1_b6_cbr1_conv"
  type: "Convolution"
  bottom: "L1_b5_sum_eltwise_top"
  top: "L1_b6_cbr1_conv_top"
  param {
    lr_mult: 1
    decay_mult: 1
  }
  param {
    lr_mult: 2
    decay_mult: 0
  }
  convolution_param {
    num_output: 16
    pad: 1
    kernel_size: 3
    stride: 1
    weight_filler {
      type: "msra"
    }
    bias_filler {
      type: "constant"
    }
  }
}
layer {
  name: "L1_b6_cbr1_bn"
  type: "BatchNorm"
  bottom: "L1_b6_cbr1_conv_top"
  top: "L1_b6_cbr1_bn_top"
  include {
    phase: TRAIN
  }
  batch_norm_param {
    use_global_stats: false
    moving_average_fraction: 0.95
  }
}
layer {
  name: "L1_b6_cbr1_scale"
  type: "Scale"
  bottom: "L1_b6_cbr1_bn_top"
  top: "L1_b6_cbr1_bn_top"
  scale_param {
    bias_term: true
  }
}
layer {
  name: "L1_b6_cbr1_relu"
  type: "ReLU"
  bottom: "L1_b6_cbr1_bn_top"
  top: "L1_b6_cbr1_bn_top"
}
layer {
  name: "L1_b6_cbr2_conv"
  type: "Convolution"
  bottom: "L1_b6_cbr1_bn_top"
  top: "L1_b6_cbr2_conv_top"
  param {
    lr_mult: 1
    decay_mult: 1
  }
  param {
    lr_mult: 2
    decay_mult: 0
  }
  convolution_param {
    num_output: 16
    pad: 1
    kernel_size: 3
    stride: 1
    weight_filler {
      type: "msra"
    }
    bias_filler {
      type: "constant"
    }
  }
}
layer {
  name: "L1_b6_cbr2_bn"
  type: "BatchNorm"
  bottom: "L1_b6_cbr2_conv_top"
  top: "L1_b6_cbr2_bn_top"
  include {
    phase: TRAIN
  }
  batch_norm_param {
    use_global_stats: false
    moving_average_fraction: 0.95
  }
}
layer {
  name: "L1_b6_cbr2_scale"
  type: "Scale"
  bottom: "L1_b6_cbr2_bn_top"
  top: "L1_b6_cbr2_bn_top"
  scale_param {
    bias_term: true
  }
}
layer {
  name: "L1_b6_sum_eltwise"
  type: "Eltwise"
  bottom: "L1_b6_cbr2_bn_top"
  bottom: "L1_b5_sum_eltwise_top"
  top: "L1_b6_sum_eltwise_top"
  eltwise_param {
    operation: SUM
  }
}
layer {
  name: "L1_b6_relu"
  type: "ReLU"
  bottom: "L1_b6_sum_eltwise_top"
  top: "L1_b6_sum_eltwise_top"
}
layer {
  name: "L1_b7_cbr1_conv"
  type: "Convolution"
  bottom: "L1_b6_sum_eltwise_top"
  top: "L1_b7_cbr1_conv_top"
  param {
    lr_mult: 1
    decay_mult: 1
  }
  param {
    lr_mult: 2
    decay_mult: 0
  }
  convolution_param {
    num_output: 16
    pad: 1
    kernel_size: 3
    stride: 1
    weight_filler {
      type: "msra"
    }
    bias_filler {
      type: "constant"
    }
  }
}
layer {
  name: "L1_b7_cbr1_bn"
  type: "BatchNorm"
  bottom: "L1_b7_cbr1_conv_top"
  top: "L1_b7_cbr1_bn_top"
  include {
    phase: TRAIN
  }
  batch_norm_param {
    use_global_stats: false
    moving_average_fraction: 0.95
  }
}
layer {
  name: "L1_b7_cbr1_scale"
  type: "Scale"
  bottom: "L1_b7_cbr1_bn_top"
  top: "L1_b7_cbr1_bn_top"
  scale_param {
    bias_term: true
  }
}
layer {
  name: "L1_b7_cbr1_relu"
  type: "ReLU"
  bottom: "L1_b7_cbr1_bn_top"
  top: "L1_b7_cbr1_bn_top"
}
layer {
  name: "L1_b7_cbr2_conv"
  type: "Convolution"
  bottom: "L1_b7_cbr1_bn_top"
  top: "L1_b7_cbr2_conv_top"
  param {
    lr_mult: 1
    decay_mult: 1
  }
  param {
    lr_mult: 2
    decay_mult: 0
  }
  convolution_param {
    num_output: 16
    pad: 1
    kernel_size: 3
    stride: 1
    weight_filler {
      type: "msra"
    }
    bias_filler {
      type: "constant"
    }
  }
}
layer {
  name: "L1_b7_cbr2_bn"
  type: "BatchNorm"
  bottom: "L1_b7_cbr2_conv_top"
  top: "L1_b7_cbr2_bn_top"
  include {
    phase: TRAIN
  }
  batch_norm_param {
    use_global_stats: false
    moving_average_fraction: 0.95
  }
}
layer {
  name: "L1_b7_cbr2_scale"
  type: "Scale"
  bottom: "L1_b7_cbr2_bn_top"
  top: "L1_b7_cbr2_bn_top"
  scale_param {
    bias_term: true
  }
}
layer {
  name: "L1_b7_sum_eltwise"
  type: "Eltwise"
  bottom: "L1_b7_cbr2_bn_top"
  bottom: "L1_b6_sum_eltwise_top"
  top: "L1_b7_sum_eltwise_top"
  eltwise_param {
    operation: SUM
  }
}
layer {
  name: "L1_b7_relu"
  type: "ReLU"
  bottom: "L1_b7_sum_eltwise_top"
  top: "L1_b7_sum_eltwise_top"
}
layer {
  name: "L1_b8_cbr1_conv"
  type: "Convolution"
  bottom: "L1_b7_sum_eltwise_top"
  top: "L1_b8_cbr1_conv_top"
  param {
    lr_mult: 1
    decay_mult: 1
  }
  param {
    lr_mult: 2
    decay_mult: 0
  }
  convolution_param {
    num_output: 16
    pad: 1
    kernel_size: 3
    stride: 1
    weight_filler {
      type: "msra"
    }
    bias_filler {
      type: "constant"
    }
  }
}
layer {
  name: "L1_b8_cbr1_bn"
  type: "BatchNorm"
  bottom: "L1_b8_cbr1_conv_top"
  top: "L1_b8_cbr1_bn_top"
  include {
    phase: TRAIN
  }
  batch_norm_param {
    use_global_stats: false
    moving_average_fraction: 0.95
  }
}
layer {
  name: "L1_b8_cbr1_scale"
  type: "Scale"
  bottom: "L1_b8_cbr1_bn_top"
  top: "L1_b8_cbr1_bn_top"
  scale_param {
    bias_term: true
  }
}
layer {
  name: "L1_b8_cbr1_relu"
  type: "ReLU"
  bottom: "L1_b8_cbr1_bn_top"
  top: "L1_b8_cbr1_bn_top"
}
layer {
  name: "L1_b8_cbr2_conv"
  type: "Convolution"
  bottom: "L1_b8_cbr1_bn_top"
  top: "L1_b8_cbr2_conv_top"
  param {
    lr_mult: 1
    decay_mult: 1
  }
  param {
    lr_mult: 2
    decay_mult: 0
  }
  convolution_param {
    num_output: 16
    pad: 1
    kernel_size: 3
    stride: 1
    weight_filler {
      type: "msra"
    }
    bias_filler {
      type: "constant"
    }
  }
}
layer {
  name: "L1_b8_cbr2_bn"
  type: "BatchNorm"
  bottom: "L1_b8_cbr2_conv_top"
  top: "L1_b8_cbr2_bn_top"
  include {
    phase: TRAIN
  }
  batch_norm_param {
    use_global_stats: false
    moving_average_fraction: 0.95
  }
}
layer {
  name: "L1_b8_cbr2_scale"
  type: "Scale"
  bottom: "L1_b8_cbr2_bn_top"
  top: "L1_b8_cbr2_bn_top"
  scale_param {
    bias_term: true
  }
}
layer {
  name: "L1_b8_sum_eltwise"
  type: "Eltwise"
  bottom: "L1_b8_cbr2_bn_top"
  bottom: "L1_b7_sum_eltwise_top"
  top: "L1_b8_sum_eltwise_top"
  eltwise_param {
    operation: SUM
  }
}
layer {
  name: "L1_b8_relu"
  type: "ReLU"
  bottom: "L1_b8_sum_eltwise_top"
  top: "L1_b8_sum_eltwise_top"
}
layer {
  name: "L1_b9_cbr1_conv"
  type: "Convolution"
  bottom: "L1_b8_sum_eltwise_top"
  top: "L1_b9_cbr1_conv_top"
  param {
    lr_mult: 1
    decay_mult: 1
  }
  param {
    lr_mult: 2
    decay_mult: 0
  }
  convolution_param {
    num_output: 16
    pad: 1
    kernel_size: 3
    stride: 1
    weight_filler {
      type: "msra"
    }
    bias_filler {
      type: "constant"
    }
  }
}
layer {
  name: "L1_b9_cbr1_bn"
  type: "BatchNorm"
  bottom: "L1_b9_cbr1_conv_top"
  top: "L1_b9_cbr1_bn_top"
  include {
    phase: TRAIN
  }
  batch_norm_param {
    use_global_stats: false
    moving_average_fraction: 0.95
  }
}
layer {
  name: "L1_b9_cbr1_scale"
  type: "Scale"
  bottom: "L1_b9_cbr1_bn_top"
  top: "L1_b9_cbr1_bn_top"
  scale_param {
    bias_term: true
  }
}
layer {
  name: "L1_b9_cbr1_relu"
  type: "ReLU"
  bottom: "L1_b9_cbr1_bn_top"
  top: "L1_b9_cbr1_bn_top"
}
layer {
  name: "L1_b9_cbr2_conv"
  type: "Convolution"
  bottom: "L1_b9_cbr1_bn_top"
  top: "L1_b9_cbr2_conv_top"
  param {
    lr_mult: 1
    decay_mult: 1
  }
  param {
    lr_mult: 2
    decay_mult: 0
  }
  convolution_param {
    num_output: 16
    pad: 1
    kernel_size: 3
    stride: 1
    weight_filler {
      type: "msra"
    }
    bias_filler {
      type: "constant"
    }
  }
}
layer {
  name: "L1_b9_cbr2_bn"
  type: "BatchNorm"
  bottom: "L1_b9_cbr2_conv_top"
  top: "L1_b9_cbr2_bn_top"
  include {
    phase: TRAIN
  }
  batch_norm_param {
    use_global_stats: false
    moving_average_fraction: 0.95
  }
}
layer {
  name: "L1_b9_cbr2_scale"
  type: "Scale"
  bottom: "L1_b9_cbr2_bn_top"
  top: "L1_b9_cbr2_bn_top"
  scale_param {
    bias_term: true
  }
}
layer {
  name: "L1_b9_sum_eltwise"
  type: "Eltwise"
  bottom: "L1_b9_cbr2_bn_top"
  bottom: "L1_b8_sum_eltwise_top"
  top: "L1_b9_sum_eltwise_top"
  eltwise_param {
    operation: SUM
  }
}
layer {
  name: "L1_b9_relu"
  type: "ReLU"
  bottom: "L1_b9_sum_eltwise_top"
  top: "L1_b9_sum_eltwise_top"
}
layer {
  name: "L2_b1_cbr1_conv"
  type: "Convolution"
  bottom: "L1_b9_sum_eltwise_top"
  top: "L2_b1_cbr1_conv_top"
  param {
    lr_mult: 1
    decay_mult: 1
  }
  param {
    lr_mult: 2
    decay_mult: 0
  }
  convolution_param {
    num_output: 16
    pad: 1
    kernel_size: 3
    stride: 2
    weight_filler {
      type: "msra"
    }
    bias_filler {
      type: "constant"
    }
  }
}
layer {
  name: "L2_b1_cbr1_bn"
  type: "BatchNorm"
  bottom: "L2_b1_cbr1_conv_top"
  top: "L2_b1_cbr1_bn_top"
  include {
    phase: TRAIN
  }
  batch_norm_param {
    use_global_stats: false
    moving_average_fraction: 0.95
  }
}
layer {
  name: "L2_b1_cbr1_scale"
  type: "Scale"
  bottom: "L2_b1_cbr1_bn_top"
  top: "L2_b1_cbr1_bn_top"
  scale_param {
    bias_term: true
  }
}
layer {
  name: "L2_b1_cbr1_relu"
  type: "ReLU"
  bottom: "L2_b1_cbr1_bn_top"
  top: "L2_b1_cbr1_bn_top"
}
layer {
  name: "L2_b1_cbr2_conv"
  type: "Convolution"
  bottom: "L2_b1_cbr1_bn_top"
  top: "L2_b1_cbr2_conv_top"
  param {
    lr_mult: 1
    decay_mult: 1
  }
  param {
    lr_mult: 2
    decay_mult: 0
  }
  convolution_param {
    num_output: 16
    pad: 1
    kernel_size: 3
    stride: 1
    weight_filler {
      type: "msra"
    }
    bias_filler {
      type: "constant"
    }
  }
}
layer {
  name: "L2_b1_cbr2_bn"
  type: "BatchNorm"
  bottom: "L2_b1_cbr2_conv_top"
  top: "L2_b1_cbr2_bn_top"
  include {
    phase: TRAIN
  }
  batch_norm_param {
    use_global_stats: false
    moving_average_fraction: 0.95
  }
}
layer {
  name: "L2_b1_cbr2_scale"
  type: "Scale"
  bottom: "L2_b1_cbr2_bn_top"
  top: "L2_b1_cbr2_bn_top"
  scale_param {
    bias_term: true
  }
}
layer {
  name: "L2_b1_pool"
  type: "Pooling"
  bottom: "L1_b9_sum_eltwise_top"
  top: "L2_b1_pool"
  pooling_param {
    pool: AVE
    kernel_size: 3
    stride: 2
  }
}
layer {
  name: "L2_b1_sum_eltwise"
  type: "Eltwise"
  bottom: "L2_b1_cbr2_bn_top"
  bottom: "L2_b1_pool"
  top: "L2_b1_sum_eltwise_top"
  eltwise_param {
    operation: SUM
  }
}
layer {
  name: "L2_b1_relu"
  type: "ReLU"
  bottom: "L2_b1_sum_eltwise_top"
  top: "L2_b1_sum_eltwise_top"
}
layer {
  name: "L2_b1_zeros"
  type: "DummyData"
  top: "L2_b1_zeros"
  dummy_data_param {
    data_filler {
      type: "constant"
      value: 0
    }
    shape {
      dim: 125
      dim: 16
      dim: 16
      dim: 16
    }
  }
}
layer {
  name: "L2_b1_concat0"
  type: "Concat"
  bottom: "L2_b1_sum_eltwise_top"
  bottom: "L2_b1_zeros"
  top: "L2_b1_concat0"
  concat_param {
    axis: 1
  }
}
layer {
  name: "L2_b2_cbr1_conv"
  type: "Convolution"
  bottom: "L2_b1_concat0"
  top: "L2_b2_cbr1_conv_top"
  param {
    lr_mult: 1
    decay_mult: 1
  }
  param {
    lr_mult: 2
    decay_mult: 0
  }
  convolution_param {
    num_output: 32
    pad: 1
    kernel_size: 3
    stride: 1
    weight_filler {
      type: "msra"
    }
    bias_filler {
      type: "constant"
    }
  }
}
layer {
  name: "L2_b2_cbr1_bn"
  type: "BatchNorm"
  bottom: "L2_b2_cbr1_conv_top"
  top: "L2_b2_cbr1_bn_top"
  include {
    phase: TRAIN
  }
  batch_norm_param {
    use_global_stats: false
    moving_average_fraction: 0.95
  }
}
layer {
  name: "L2_b2_cbr1_scale"
  type: "Scale"
  bottom: "L2_b2_cbr1_bn_top"
  top: "L2_b2_cbr1_bn_top"
  scale_param {
    bias_term: true
  }
}
layer {
  name: "L2_b2_cbr1_relu"
  type: "ReLU"
  bottom: "L2_b2_cbr1_bn_top"
  top: "L2_b2_cbr1_bn_top"
}
layer {
  name: "L2_b2_cbr2_conv"
  type: "Convolution"
  bottom: "L2_b2_cbr1_bn_top"
  top: "L2_b2_cbr2_conv_top"
  param {
    lr_mult: 1
    decay_mult: 1
  }
  param {
    lr_mult: 2
    decay_mult: 0
  }
  convolution_param {
    num_output: 32
    pad: 1
    kernel_size: 3
    stride: 1
    weight_filler {
      type: "msra"
    }
    bias_filler {
      type: "constant"
    }
  }
}
layer {
  name: "L2_b2_cbr2_bn"
  type: "BatchNorm"
  bottom: "L2_b2_cbr2_conv_top"
  top: "L2_b2_cbr2_bn_top"
  include {
    phase: TRAIN
  }
  batch_norm_param {
    use_global_stats: false
    moving_average_fraction: 0.95
  }
}
layer {
  name: "L2_b2_cbr2_scale"
  type: "Scale"
  bottom: "L2_b2_cbr2_bn_top"
  top: "L2_b2_cbr2_bn_top"
  scale_param {
    bias_term: true
  }
}
layer {
  name: "L2_b2_sum_eltwise"
  type: "Eltwise"
  bottom: "L2_b2_cbr2_bn_top"
  bottom: "L2_b1_concat0"
  top: "L2_b2_sum_eltwise_top"
  eltwise_param {
    operation: SUM
  }
}
layer {
  name: "L2_b2_relu"
  type: "ReLU"
  bottom: "L2_b2_sum_eltwise_top"
  top: "L2_b2_sum_eltwise_top"
}
layer {
  name: "L2_b3_cbr1_conv"
  type: "Convolution"
  bottom: "L2_b2_sum_eltwise_top"
  top: "L2_b3_cbr1_conv_top"
  param {
    lr_mult: 1
    decay_mult: 1
  }
  param {
    lr_mult: 2
    decay_mult: 0
  }
  convolution_param {
    num_output: 32
    pad: 1
    kernel_size: 3
    stride: 1
    weight_filler {
      type: "msra"
    }
    bias_filler {
      type: "constant"
    }
  }
}
layer {
  name: "L2_b3_cbr1_bn"
  type: "BatchNorm"
  bottom: "L2_b3_cbr1_conv_top"
  top: "L2_b3_cbr1_bn_top"
  include {
    phase: TRAIN
  }
  batch_norm_param {
    use_global_stats: false
    moving_average_fraction: 0.95
  }
}
layer {
  name: "L2_b3_cbr1_scale"
  type: "Scale"
  bottom: "L2_b3_cbr1_bn_top"
  top: "L2_b3_cbr1_bn_top"
  scale_param {
    bias_term: true
  }
}
layer {
  name: "L2_b3_cbr1_relu"
  type: "ReLU"
  bottom: "L2_b3_cbr1_bn_top"
  top: "L2_b3_cbr1_bn_top"
}
layer {
  name: "L2_b3_cbr2_conv"
  type: "Convolution"
  bottom: "L2_b3_cbr1_bn_top"
  top: "L2_b3_cbr2_conv_top"
  param {
    lr_mult: 1
    decay_mult: 1
  }
  param {
    lr_mult: 2
    decay_mult: 0
  }
  convolution_param {
    num_output: 32
    pad: 1
    kernel_size: 3
    stride: 1
    weight_filler {
      type: "msra"
    }
    bias_filler {
      type: "constant"
    }
  }
}
layer {
  name: "L2_b3_cbr2_bn"
  type: "BatchNorm"
  bottom: "L2_b3_cbr2_conv_top"
  top: "L2_b3_cbr2_bn_top"
  include {
    phase: TRAIN
  }
  batch_norm_param {
    use_global_stats: false
    moving_average_fraction: 0.95
  }
}
layer {
  name: "L2_b3_cbr2_scale"
  type: "Scale"
  bottom: "L2_b3_cbr2_bn_top"
  top: "L2_b3_cbr2_bn_top"
  scale_param {
    bias_term: true
  }
}
layer {
  name: "L2_b3_sum_eltwise"
  type: "Eltwise"
  bottom: "L2_b3_cbr2_bn_top"
  bottom: "L2_b2_sum_eltwise_top"
  top: "L2_b3_sum_eltwise_top"
  eltwise_param {
    operation: SUM
  }
}
layer {
  name: "L2_b3_relu"
  type: "ReLU"
  bottom: "L2_b3_sum_eltwise_top"
  top: "L2_b3_sum_eltwise_top"
}
layer {
  name: "L2_b4_cbr1_conv"
  type: "Convolution"
  bottom: "L2_b3_sum_eltwise_top"
  top: "L2_b4_cbr1_conv_top"
  param {
    lr_mult: 1
    decay_mult: 1
  }
  param {
    lr_mult: 2
    decay_mult: 0
  }
  convolution_param {
    num_output: 32
    pad: 1
    kernel_size: 3
    stride: 1
    weight_filler {
      type: "msra"
    }
    bias_filler {
      type: "constant"
    }
  }
}
layer {
  name: "L2_b4_cbr1_bn"
  type: "BatchNorm"
  bottom: "L2_b4_cbr1_conv_top"
  top: "L2_b4_cbr1_bn_top"
  include {
    phase: TRAIN
  }
  batch_norm_param {
    use_global_stats: false
    moving_average_fraction: 0.95
  }
}
layer {
  name: "L2_b4_cbr1_scale"
  type: "Scale"
  bottom: "L2_b4_cbr1_bn_top"
  top: "L2_b4_cbr1_bn_top"
  scale_param {
    bias_term: true
  }
}
layer {
  name: "L2_b4_cbr1_relu"
  type: "ReLU"
  bottom: "L2_b4_cbr1_bn_top"
  top: "L2_b4_cbr1_bn_top"
}
layer {
  name: "L2_b4_cbr2_conv"
  type: "Convolution"
  bottom: "L2_b4_cbr1_bn_top"
  top: "L2_b4_cbr2_conv_top"
  param {
    lr_mult: 1
    decay_mult: 1
  }
  param {
    lr_mult: 2
    decay_mult: 0
  }
  convolution_param {
    num_output: 32
    pad: 1
    kernel_size: 3
    stride: 1
    weight_filler {
      type: "msra"
    }
    bias_filler {
      type: "constant"
    }
  }
}
layer {
  name: "L2_b4_cbr2_bn"
  type: "BatchNorm"
  bottom: "L2_b4_cbr2_conv_top"
  top: "L2_b4_cbr2_bn_top"
  include {
    phase: TRAIN
  }
  batch_norm_param {
    use_global_stats: false
    moving_average_fraction: 0.95
  }
}
layer {
  name: "L2_b4_cbr2_scale"
  type: "Scale"
  bottom: "L2_b4_cbr2_bn_top"
  top: "L2_b4_cbr2_bn_top"
  scale_param {
    bias_term: true
  }
}
layer {
  name: "L2_b4_sum_eltwise"
  type: "Eltwise"
  bottom: "L2_b4_cbr2_bn_top"
  bottom: "L2_b3_sum_eltwise_top"
  top: "L2_b4_sum_eltwise_top"
  eltwise_param {
    operation: SUM
  }
}
layer {
  name: "L2_b4_relu"
  type: "ReLU"
  bottom: "L2_b4_sum_eltwise_top"
  top: "L2_b4_sum_eltwise_top"
}
layer {
  name: "L2_b5_cbr1_conv"
  type: "Convolution"
  bottom: "L2_b4_sum_eltwise_top"
  top: "L2_b5_cbr1_conv_top"
  param {
    lr_mult: 1
    decay_mult: 1
  }
  param {
    lr_mult: 2
    decay_mult: 0
  }
  convolution_param {
    num_output: 32
    pad: 1
    kernel_size: 3
    stride: 1
    weight_filler {
      type: "msra"
    }
    bias_filler {
      type: "constant"
    }
  }
}
layer {
  name: "L2_b5_cbr1_bn"
  type: "BatchNorm"
  bottom: "L2_b5_cbr1_conv_top"
  top: "L2_b5_cbr1_bn_top"
  include {
    phase: TRAIN
  }
  batch_norm_param {
    use_global_stats: false
    moving_average_fraction: 0.95
  }
}
layer {
  name: "L2_b5_cbr1_scale"
  type: "Scale"
  bottom: "L2_b5_cbr1_bn_top"
  top: "L2_b5_cbr1_bn_top"
  scale_param {
    bias_term: true
  }
}
layer {
  name: "L2_b5_cbr1_relu"
  type: "ReLU"
  bottom: "L2_b5_cbr1_bn_top"
  top: "L2_b5_cbr1_bn_top"
}
layer {
  name: "L2_b5_cbr2_conv"
  type: "Convolution"
  bottom: "L2_b5_cbr1_bn_top"
  top: "L2_b5_cbr2_conv_top"
  param {
    lr_mult: 1
    decay_mult: 1
  }
  param {
    lr_mult: 2
    decay_mult: 0
  }
  convolution_param {
    num_output: 32
    pad: 1
    kernel_size: 3
    stride: 1
    weight_filler {
      type: "msra"
    }
    bias_filler {
      type: "constant"
    }
  }
}
layer {
  name: "L2_b5_cbr2_bn"
  type: "BatchNorm"
  bottom: "L2_b5_cbr2_conv_top"
  top: "L2_b5_cbr2_bn_top"
  include {
    phase: TRAIN
  }
  batch_norm_param {
    use_global_stats: false
    moving_average_fraction: 0.95
  }
}
layer {
  name: "L2_b5_cbr2_scale"
  type: "Scale"
  bottom: "L2_b5_cbr2_bn_top"
  top: "L2_b5_cbr2_bn_top"
  scale_param {
    bias_term: true
  }
}
layer {
  name: "L2_b5_sum_eltwise"
  type: "Eltwise"
  bottom: "L2_b5_cbr2_bn_top"
  bottom: "L2_b4_sum_eltwise_top"
  top: "L2_b5_sum_eltwise_top"
  eltwise_param {
    operation: SUM
  }
}
layer {
  name: "L2_b5_relu"
  type: "ReLU"
  bottom: "L2_b5_sum_eltwise_top"
  top: "L2_b5_sum_eltwise_top"
}
layer {
  name: "L2_b6_cbr1_conv"
  type: "Convolution"
  bottom: "L2_b5_sum_eltwise_top"
  top: "L2_b6_cbr1_conv_top"
  param {
    lr_mult: 1
    decay_mult: 1
  }
  param {
    lr_mult: 2
    decay_mult: 0
  }
  convolution_param {
    num_output: 32
    pad: 1
    kernel_size: 3
    stride: 1
    weight_filler {
      type: "msra"
    }
    bias_filler {
      type: "constant"
    }
  }
}
layer {
  name: "L2_b6_cbr1_bn"
  type: "BatchNorm"
  bottom: "L2_b6_cbr1_conv_top"
  top: "L2_b6_cbr1_bn_top"
  include {
    phase: TRAIN
  }
  batch_norm_param {
    use_global_stats: false
    moving_average_fraction: 0.95
  }
}
layer {
  name: "L2_b
I0817 16:06:12.308953 17619 layer_factory.hpp:77] Creating layer dataLayer
I0817 16:06:12.310138 17619 net.cpp:100] Creating Layer dataLayer
I0817 16:06:12.310210 17619 net.cpp:408] dataLayer -> data_top
I0817 16:06:12.310410 17619 net.cpp:408] dataLayer -> label
I0817 16:06:12.310525 17619 data_transformer.cpp:25] Loading mean file from: examples/cifar10/mean.binaryproto
I0817 16:06:12.443207 17624 db_lmdb.cpp:35] Opened lmdb examples/cifar10/cifar10_train30k_lmdb
I0817 16:06:12.443711 17619 data_layer.cpp:41] output data size: 125,3,32,32
I0817 16:06:12.450789 17619 net.cpp:150] Setting up dataLayer
I0817 16:06:12.450850 17619 net.cpp:157] Top shape: 125 3 32 32 (384000)
I0817 16:06:12.450863 17619 net.cpp:157] Top shape: 125 (125)
I0817 16:06:12.450870 17619 net.cpp:165] Memory required for data: 1536500
I0817 16:06:12.450883 17619 layer_factory.hpp:77] Creating layer label_dataLayer_1_split
I0817 16:06:12.450897 17619 net.cpp:100] Creating Layer label_dataLayer_1_split
I0817 16:06:12.450906 17619 net.cpp:434] label_dataLayer_1_split <- label
I0817 16:06:12.450922 17619 net.cpp:408] label_dataLayer_1_split -> label_dataLayer_1_split_0
I0817 16:06:12.450937 17619 net.cpp:408] label_dataLayer_1_split -> label_dataLayer_1_split_1
I0817 16:06:12.451020 17619 net.cpp:150] Setting up label_dataLayer_1_split
I0817 16:06:12.451033 17619 net.cpp:157] Top shape: 125 (125)
I0817 16:06:12.451040 17619 net.cpp:157] Top shape: 125 (125)
I0817 16:06:12.451045 17619 net.cpp:165] Memory required for data: 1537500
I0817 16:06:12.451051 17619 layer_factory.hpp:77] Creating layer pre_conv
I0817 16:06:12.451112 17619 net.cpp:100] Creating Layer pre_conv
I0817 16:06:12.451123 17619 net.cpp:434] pre_conv <- data_top
I0817 16:06:12.451136 17619 net.cpp:408] pre_conv -> pre_conv_top
I0817 16:06:12.452854 17619 net.cpp:150] Setting up pre_conv
I0817 16:06:12.452873 17619 net.cpp:157] Top shape: 125 16 32 32 (2048000)
I0817 16:06:12.452879 17619 net.cpp:165] Memory required for data: 9729500
I0817 16:06:12.452947 17619 layer_factory.hpp:77] Creating layer pre_bn
I0817 16:06:12.453013 17619 net.cpp:100] Creating Layer pre_bn
I0817 16:06:12.453025 17619 net.cpp:434] pre_bn <- pre_conv_top
I0817 16:06:12.453034 17619 net.cpp:408] pre_bn -> pre_bn_top
I0817 16:06:12.453506 17625 blocking_queue.cpp:50] Waiting for data
I0817 16:06:12.453601 17619 net.cpp:150] Setting up pre_bn
I0817 16:06:12.453621 17619 net.cpp:157] Top shape: 125 16 32 32 (2048000)
I0817 16:06:12.453627 17619 net.cpp:165] Memory required for data: 17921500
I0817 16:06:12.453644 17619 layer_factory.hpp:77] Creating layer pre_scale
I0817 16:06:12.453694 17619 net.cpp:100] Creating Layer pre_scale
I0817 16:06:12.453716 17619 net.cpp:434] pre_scale <- pre_bn_top
I0817 16:06:12.453725 17619 net.cpp:395] pre_scale -> pre_bn_top (in-place)
I0817 16:06:12.453888 17619 layer_factory.hpp:77] Creating layer pre_scale
I0817 16:06:12.454157 17619 net.cpp:150] Setting up pre_scale
I0817 16:06:12.454174 17619 net.cpp:157] Top shape: 125 16 32 32 (2048000)
I0817 16:06:12.454179 17619 net.cpp:165] Memory required for data: 26113500
I0817 16:06:12.454188 17619 layer_factory.hpp:77] Creating layer pre_relu
I0817 16:06:12.454229 17619 net.cpp:100] Creating Layer pre_relu
I0817 16:06:12.454238 17619 net.cpp:434] pre_relu <- pre_bn_top
I0817 16:06:12.454249 17619 net.cpp:395] pre_relu -> pre_bn_top (in-place)
I0817 16:06:12.454260 17619 net.cpp:150] Setting up pre_relu
I0817 16:06:12.454267 17619 net.cpp:157] Top shape: 125 16 32 32 (2048000)
I0817 16:06:12.454272 17619 net.cpp:165] Memory required for data: 34305500
I0817 16:06:12.454277 17619 layer_factory.hpp:77] Creating layer pre_bn_top_pre_relu_0_split
I0817 16:06:12.454285 17619 net.cpp:100] Creating Layer pre_bn_top_pre_relu_0_split
I0817 16:06:12.454290 17619 net.cpp:434] pre_bn_top_pre_relu_0_split <- pre_bn_top
I0817 16:06:12.454299 17619 net.cpp:408] pre_bn_top_pre_relu_0_split -> pre_bn_top_pre_relu_0_split_0
I0817 16:06:12.454309 17619 net.cpp:408] pre_bn_top_pre_relu_0_split -> pre_bn_top_pre_relu_0_split_1
I0817 16:06:12.454355 17619 net.cpp:150] Setting up pre_bn_top_pre_relu_0_split
I0817 16:06:12.454365 17619 net.cpp:157] Top shape: 125 16 32 32 (2048000)
I0817 16:06:12.454372 17619 net.cpp:157] Top shape: 125 16 32 32 (2048000)
I0817 16:06:12.454377 17619 net.cpp:165] Memory required for data: 50689500
I0817 16:06:12.454382 17619 layer_factory.hpp:77] Creating layer L1_b1_cbr1_conv
I0817 16:06:12.454397 17619 net.cpp:100] Creating Layer L1_b1_cbr1_conv
I0817 16:06:12.454403 17619 net.cpp:434] L1_b1_cbr1_conv <- pre_bn_top_pre_relu_0_split_0
I0817 16:06:12.454412 17619 net.cpp:408] L1_b1_cbr1_conv -> L1_b1_cbr1_conv_top
I0817 16:06:12.454744 17619 net.cpp:150] Setting up L1_b1_cbr1_conv
I0817 16:06:12.454761 17619 net.cpp:157] Top shape: 125 16 32 32 (2048000)
I0817 16:06:12.454766 17619 net.cpp:165] Memory required for data: 58881500
I0817 16:06:12.454778 17619 layer_factory.hpp:77] Creating layer L1_b1_cbr1_bn
I0817 16:06:12.454792 17619 net.cpp:100] Creating Layer L1_b1_cbr1_bn
I0817 16:06:12.454798 17619 net.cpp:434] L1_b1_cbr1_bn <- L1_b1_cbr1_conv_top
I0817 16:06:12.454807 17619 net.cpp:408] L1_b1_cbr1_bn -> L1_b1_cbr1_bn_top
I0817 16:06:12.455034 17619 net.cpp:150] Setting up L1_b1_cbr1_bn
I0817 16:06:12.455047 17619 net.cpp:157] Top shape: 125 16 32 32 (2048000)
I0817 16:06:12.455052 17619 net.cpp:165] Memory required for data: 67073500
I0817 16:06:12.455063 17619 layer_factory.hpp:77] Creating layer L1_b1_cbr1_scale
I0817 16:06:12.455078 17619 net.cpp:100] Creating Layer L1_b1_cbr1_scale
I0817 16:06:12.455083 17619 net.cpp:434] L1_b1_cbr1_scale <- L1_b1_cbr1_bn_top
I0817 16:06:12.455091 17619 net.cpp:395] L1_b1_cbr1_scale -> L1_b1_cbr1_bn_top (in-place)
I0817 16:06:12.455142 17619 layer_factory.hpp:77] Creating layer L1_b1_cbr1_scale
I0817 16:06:12.455286 17619 net.cpp:150] Setting up L1_b1_cbr1_scale
I0817 16:06:12.455298 17619 net.cpp:157] Top shape: 125 16 32 32 (2048000)
I0817 16:06:12.455303 17619 net.cpp:165] Memory required for data: 75265500
I0817 16:06:12.455312 17619 layer_factory.hpp:77] Creating layer L1_b1_cbr1_relu
I0817 16:06:12.455328 17619 net.cpp:100] Creating Layer L1_b1_cbr1_relu
I0817 16:06:12.455334 17619 net.cpp:434] L1_b1_cbr1_relu <- L1_b1_cbr1_bn_top
I0817 16:06:12.455344 17619 net.cpp:395] L1_b1_cbr1_relu -> L1_b1_cbr1_bn_top (in-place)
I0817 16:06:12.455354 17619 net.cpp:150] Setting up L1_b1_cbr1_relu
I0817 16:06:12.455361 17619 net.cpp:157] Top shape: 125 16 32 32 (2048000)
I0817 16:06:12.455366 17619 net.cpp:165] Memory required for data: 83457500
I0817 16:06:12.455370 17619 layer_factory.hpp:77] Creating layer L1_b1_cbr2_conv
I0817 16:06:12.455385 17619 net.cpp:100] Creating Layer L1_b1_cbr2_conv
I0817 16:06:12.455390 17619 net.cpp:434] L1_b1_cbr2_conv <- L1_b1_cbr1_bn_top
I0817 16:06:12.455399 17619 net.cpp:408] L1_b1_cbr2_conv -> L1_b1_cbr2_conv_top
I0817 16:06:12.455708 17619 net.cpp:150] Setting up L1_b1_cbr2_conv
I0817 16:06:12.455724 17619 net.cpp:157] Top shape: 125 16 32 32 (2048000)
I0817 16:06:12.455729 17619 net.cpp:165] Memory required for data: 91649500
I0817 16:06:12.455737 17619 layer_factory.hpp:77] Creating layer L1_b1_cbr2_bn
I0817 16:06:12.455749 17619 net.cpp:100] Creating Layer L1_b1_cbr2_bn
I0817 16:06:12.455755 17619 net.cpp:434] L1_b1_cbr2_bn <- L1_b1_cbr2_conv_top
I0817 16:06:12.455763 17619 net.cpp:408] L1_b1_cbr2_bn -> L1_b1_cbr2_bn_top
I0817 16:06:12.455989 17619 net.cpp:150] Setting up L1_b1_cbr2_bn
I0817 16:06:12.456003 17619 net.cpp:157] Top shape: 125 16 32 32 (2048000)
I0817 16:06:12.456008 17619 net.cpp:165] Memory required for data: 99841500
I0817 16:06:12.456022 17619 layer_factory.hpp:77] Creating layer L1_b1_cbr2_scale
I0817 16:06:12.456035 17619 net.cpp:100] Creating Layer L1_b1_cbr2_scale
I0817 16:06:12.456040 17619 net.cpp:434] L1_b1_cbr2_scale <- L1_b1_cbr2_bn_top
I0817 16:06:12.456048 17619 net.cpp:395] L1_b1_cbr2_scale -> L1_b1_cbr2_bn_top (in-place)
I0817 16:06:12.456104 17619 layer_factory.hpp:77] Creating layer L1_b1_cbr2_scale
I0817 16:06:12.456243 17619 net.cpp:150] Setting up L1_b1_cbr2_scale
I0817 16:06:12.456255 17619 net.cpp:157] Top shape: 125 16 32 32 (2048000)
I0817 16:06:12.456260 17619 net.cpp:165] Memory required for data: 108033500
I0817 16:06:12.456269 17619 layer_factory.hpp:77] Creating layer L1_b1_sum_eltwise
I0817 16:06:12.456318 17619 net.cpp:100] Creating Layer L1_b1_sum_eltwise
I0817 16:06:12.456329 17619 net.cpp:434] L1_b1_sum_eltwise <- L1_b1_cbr2_bn_top
I0817 16:06:12.456336 17619 net.cpp:434] L1_b1_sum_eltwise <- pre_bn_top_pre_relu_0_split_1
I0817 16:06:12.456348 17619 net.cpp:408] L1_b1_sum_eltwise -> L1_b1_sum_eltwise_top
I0817 16:06:12.456424 17619 net.cpp:150] Setting up L1_b1_sum_eltwise
I0817 16:06:12.456439 17619 net.cpp:157] Top shape: 125 16 32 32 (2048000)
I0817 16:06:12.456444 17619 net.cpp:165] Memory required for data: 116225500
I0817 16:06:12.456449 17619 layer_factory.hpp:77] Creating layer L1_b1_relu
I0817 16:06:12.456459 17619 net.cpp:100] Creating Layer L1_b1_relu
I0817 16:06:12.456465 17619 net.cpp:434] L1_b1_relu <- L1_b1_sum_eltwise_top
I0817 16:06:12.456475 17619 net.cpp:395] L1_b1_relu -> L1_b1_sum_eltwise_top (in-place)
I0817 16:06:12.456485 17619 net.cpp:150] Setting up L1_b1_relu
I0817 16:06:12.456491 17619 net.cpp:157] Top shape: 125 16 32 32 (2048000)
I0817 16:06:12.456496 17619 net.cpp:165] Memory required for data: 124417500
I0817 16:06:12.456501 17619 layer_factory.hpp:77] Creating layer L1_b1_sum_eltwise_top_L1_b1_relu_0_split
I0817 16:06:12.456509 17619 net.cpp:100] Creating Layer L1_b1_sum_eltwise_top_L1_b1_relu_0_split
I0817 16:06:12.456516 17619 net.cpp:434] L1_b1_sum_eltwise_top_L1_b1_relu_0_split <- L1_b1_sum_eltwise_top
I0817 16:06:12.456522 17619 net.cpp:408] L1_b1_sum_eltwise_top_L1_b1_relu_0_split -> L1_b1_sum_eltwise_top_L1_b1_relu_0_split_0
I0817 16:06:12.456532 17619 net.cpp:408] L1_b1_sum_eltwise_top_L1_b1_relu_0_split -> L1_b1_sum_eltwise_top_L1_b1_relu_0_split_1
I0817 16:06:12.456575 17619 net.cpp:150] Setting up L1_b1_sum_eltwise_top_L1_b1_relu_0_split
I0817 16:06:12.456588 17619 net.cpp:157] Top shape: 125 16 32 32 (2048000)
I0817 16:06:12.456594 17619 net.cpp:157] Top shape: 125 16 32 32 (2048000)
I0817 16:06:12.456605 17619 net.cpp:165] Memory required for data: 140801500
I0817 16:06:12.456611 17619 layer_factory.hpp:77] Creating layer L1_b2_cbr1_conv
I0817 16:06:12.456624 17619 net.cpp:100] Creating Layer L1_b2_cbr1_conv
I0817 16:06:12.456629 17619 net.cpp:434] L1_b2_cbr1_conv <- L1_b1_sum_eltwise_top_L1_b1_relu_0_split_0
I0817 16:06:12.456640 17619 net.cpp:408] L1_b2_cbr1_conv -> L1_b2_cbr1_conv_top
I0817 16:06:12.456959 17619 net.cpp:150] Setting up L1_b2_cbr1_conv
I0817 16:06:12.456974 17619 net.cpp:157] Top shape: 125 16 32 32 (2048000)
I0817 16:06:12.456979 17619 net.cpp:165] Memory required for data: 148993500
I0817 16:06:12.456987 17619 layer_factory.hpp:77] Creating layer L1_b2_cbr1_bn
I0817 16:06:12.456996 17619 net.cpp:100] Creating Layer L1_b2_cbr1_bn
I0817 16:06:12.457002 17619 net.cpp:434] L1_b2_cbr1_bn <- L1_b2_cbr1_conv_top
I0817 16:06:12.457015 17619 net.cpp:408] L1_b2_cbr1_bn -> L1_b2_cbr1_bn_top
I0817 16:06:12.457262 17619 net.cpp:150] Setting up L1_b2_cbr1_bn
I0817 16:06:12.457278 17619 net.cpp:157] Top shape: 125 16 32 32 (2048000)
I0817 16:06:12.457283 17619 net.cpp:165] Memory required for data: 157185500
I0817 16:06:12.457294 17619 layer_factory.hpp:77] Creating layer L1_b2_cbr1_scale
I0817 16:06:12.457304 17619 net.cpp:100] Creating Layer L1_b2_cbr1_scale
I0817 16:06:12.457309 17619 net.cpp:434] L1_b2_cbr1_scale <- L1_b2_cbr1_bn_top
I0817 16:06:12.457316 17619 net.cpp:395] L1_b2_cbr1_scale -> L1_b2_cbr1_bn_top (in-place)
I0817 16:06:12.457366 17619 layer_factory.hpp:77] Creating layer L1_b2_cbr1_scale
I0817 16:06:12.457505 17619 net.cpp:150] Setting up L1_b2_cbr1_scale
I0817 16:06:12.457518 17619 net.cpp:157] Top shape: 125 16 32 32 (2048000)
I0817 16:06:12.457523 17619 net.cpp:165] Memory required for data: 165377500
I0817 16:06:12.457531 17619 layer_factory.hpp:77] Creating layer L1_b2_cbr1_relu
I0817 16:06:12.457542 17619 net.cpp:100] Creating Layer L1_b2_cbr1_relu
I0817 16:06:12.457548 17619 net.cpp:434] L1_b2_cbr1_relu <- L1_b2_cbr1_bn_top
I0817 16:06:12.457556 17619 net.cpp:395] L1_b2_cbr1_relu -> L1_b2_cbr1_bn_top (in-place)
I0817 16:06:12.457564 17619 net.cpp:150] Setting up L1_b2_cbr1_relu
I0817 16:06:12.457574 17619 net.cpp:157] Top shape: 125 16 32 32 (2048000)
I0817 16:06:12.457579 17619 net.cpp:165] Memory required for data: 173569500
I0817 16:06:12.457584 17619 layer_factory.hpp:77] Creating layer L1_b2_cbr2_conv
I0817 16:06:12.457595 17619 net.cpp:100] Creating Layer L1_b2_cbr2_conv
I0817 16:06:12.457600 17619 net.cpp:434] L1_b2_cbr2_conv <- L1_b2_cbr1_bn_top
I0817 16:06:12.457612 17619 net.cpp:408] L1_b2_cbr2_conv -> L1_b2_cbr2_conv_top
I0817 16:06:12.457921 17619 net.cpp:150] Setting up L1_b2_cbr2_conv
I0817 16:06:12.457936 17619 net.cpp:157] Top shape: 125 16 32 32 (2048000)
I0817 16:06:12.457940 17619 net.cpp:165] Memory required for data: 181761500
I0817 16:06:12.457948 17619 layer_factory.hpp:77] Creating layer L1_b2_cbr2_bn
I0817 16:06:12.457957 17619 net.cpp:100] Creating Layer L1_b2_cbr2_bn
I0817 16:06:12.457963 17619 net.cpp:434] L1_b2_cbr2_bn <- L1_b2_cbr2_conv_top
I0817 16:06:12.457976 17619 net.cpp:408] L1_b2_cbr2_bn -> L1_b2_cbr2_bn_top
I0817 16:06:12.458216 17619 net.cpp:150] Setting up L1_b2_cbr2_bn
I0817 16:06:12.458230 17619 net.cpp:157] Top shape: 125 16 32 32 (2048000)
I0817 16:06:12.458235 17619 net.cpp:165] Memory required for data: 189953500
I0817 16:06:12.458252 17619 layer_factory.hpp:77] Creating layer L1_b2_cbr2_scale
I0817 16:06:12.458262 17619 net.cpp:100] Creating Layer L1_b2_cbr2_scale
I0817 16:06:12.458268 17619 net.cpp:434] L1_b2_cbr2_scale <- L1_b2_cbr2_bn_top
I0817 16:06:12.458276 17619 net.cpp:395] L1_b2_cbr2_scale -> L1_b2_cbr2_bn_top (in-place)
I0817 16:06:12.458330 17619 layer_factory.hpp:77] Creating layer L1_b2_cbr2_scale
I0817 16:06:12.458492 17619 net.cpp:150] Setting up L1_b2_cbr2_scale
I0817 16:06:12.458505 17619 net.cpp:157] Top shape: 125 16 32 32 (2048000)
I0817 16:06:12.458510 17619 net.cpp:165] Memory required for data: 198145500
I0817 16:06:12.458519 17619 layer_factory.hpp:77] Creating layer L1_b2_sum_eltwise
I0817 16:06:12.458537 17619 net.cpp:100] Creating Layer L1_b2_sum_eltwise
I0817 16:06:12.458544 17619 net.cpp:434] L1_b2_sum_eltwise <- L1_b2_cbr2_bn_top
I0817 16:06:12.458551 17619 net.cpp:434] L1_b2_sum_eltwise <- L1_b1_sum_eltwise_top_L1_b1_relu_0_split_1
I0817 16:06:12.458559 17619 net.cpp:408] L1_b2_sum_eltwise -> L1_b2_sum_eltwise_top
I0817 16:06:12.458592 17619 net.cpp:150] Setting up L1_b2_sum_eltwise
I0817 16:06:12.458602 17619 net.cpp:157] Top shape: 125 16 32 32 (2048000)
I0817 16:06:12.458607 17619 net.cpp:165] Memory required for data: 206337500
I0817 16:06:12.458612 17619 layer_factory.hpp:77] Creating layer L1_b2_relu
I0817 16:06:12.458621 17619 net.cpp:100] Creating Layer L1_b2_relu
I0817 16:06:12.458626 17619 net.cpp:434] L1_b2_relu <- L1_b2_sum_eltwise_top
I0817 16:06:12.458632 17619 net.cpp:395] L1_b2_relu -> L1_b2_sum_eltwise_top (in-place)
I0817 16:06:12.458642 17619 net.cpp:150] Setting up L1_b2_relu
I0817 16:06:12.458647 17619 net.cpp:157] Top shape: 125 16 32 32 (2048000)
I0817 16:06:12.458652 17619 net.cpp:165] Memory required for data: 214529500
I0817 16:06:12.458657 17619 layer_factory.hpp:77] Creating layer L1_b2_sum_eltwise_top_L1_b2_relu_0_split
I0817 16:06:12.458664 17619 net.cpp:100] Creating Layer L1_b2_sum_eltwise_top_L1_b2_relu_0_split
I0817 16:06:12.458669 17619 net.cpp:434] L1_b2_sum_eltwise_top_L1_b2_relu_0_split <- L1_b2_sum_eltwise_top
I0817 16:06:12.458679 17619 net.cpp:408] L1_b2_sum_eltwise_top_L1_b2_relu_0_split -> L1_b2_sum_eltwise_top_L1_b2_relu_0_split_0
I0817 16:06:12.458688 17619 net.cpp:408] L1_b2_sum_eltwise_top_L1_b2_relu_0_split -> L1_b2_sum_eltwise_top_L1_b2_relu_0_split_1
I0817 16:06:12.458735 17619 net.cpp:150] Setting up L1_b2_sum_eltwise_top_L1_b2_relu_0_split
I0817 16:06:12.458747 17619 net.cpp:157] Top shape: 125 16 32 32 (2048000)
I0817 16:06:12.458755 17619 net.cpp:157] Top shape: 125 16 32 32 (2048000)
I0817 16:06:12.458760 17619 net.cpp:165] Memory required for data: 230913500
I0817 16:06:12.458765 17619 layer_factory.hpp:77] Creating layer L1_b3_cbr1_conv
I0817 16:06:12.458780 17619 net.cpp:100] Creating Layer L1_b3_cbr1_conv
I0817 16:06:12.458786 17619 net.cpp:434] L1_b3_cbr1_conv <- L1_b2_sum_eltwise_top_L1_b2_relu_0_split_0
I0817 16:06:12.458794 17619 net.cpp:408] L1_b3_cbr1_conv -> L1_b3_cbr1_conv_top
I0817 16:06:12.459100 17619 net.cpp:150] Setting up L1_b3_cbr1_conv
I0817 16:06:12.459113 17619 net.cpp:157] Top shape: 125 16 32 32 (2048000)
I0817 16:06:12.459118 17619 net.cpp:165] Memory required for data: 239105500
I0817 16:06:12.459127 17619 layer_factory.hpp:77] Creating layer L1_b3_cbr1_bn
I0817 16:06:12.459138 17619 net.cpp:100] Creating Layer L1_b3_cbr1_bn
I0817 16:06:12.459144 17619 net.cpp:434] L1_b3_cbr1_bn <- L1_b3_cbr1_conv_top
I0817 16:06:12.459156 17619 net.cpp:408] L1_b3_cbr1_bn -> L1_b3_cbr1_bn_top
I0817 16:06:12.459386 17619 net.cpp:150] Setting up L1_b3_cbr1_bn
I0817 16:06:12.459399 17619 net.cpp:157] Top shape: 125 16 32 32 (2048000)
I0817 16:06:12.459404 17619 net.cpp:165] Memory required for data: 247297500
I0817 16:06:12.459414 17619 layer_factory.hpp:77] Creating layer L1_b3_cbr1_scale
I0817 16:06:12.459424 17619 net.cpp:100] Creating Layer L1_b3_cbr1_scale
I0817 16:06:12.459429 17619 net.cpp:434] L1_b3_cbr1_scale <- L1_b3_cbr1_bn_top
I0817 16:06:12.459436 17619 net.cpp:395] L1_b3_cbr1_scale -> L1_b3_cbr1_bn_top (in-place)
I0817 16:06:12.459493 17619 layer_factory.hpp:77] Creating layer L1_b3_cbr1_scale
I0817 16:06:12.459632 17619 net.cpp:150] Setting up L1_b3_cbr1_scale
I0817 16:06:12.459645 17619 net.cpp:157] Top shape: 125 16 32 32 (2048000)
I0817 16:06:12.459650 17619 net.cpp:165] Memory required for data: 255489500
I0817 16:06:12.459659 17619 layer_factory.hpp:77] Creating layer L1_b3_cbr1_relu
I0817 16:06:12.459669 17619 net.cpp:100] Creating Layer L1_b3_cbr1_relu
I0817 16:06:12.459676 17619 net.cpp:434] L1_b3_cbr1_relu <- L1_b3_cbr1_bn_top
I0817 16:06:12.459683 17619 net.cpp:395] L1_b3_cbr1_relu -> L1_b3_cbr1_bn_top (in-place)
I0817 16:06:12.459692 17619 net.cpp:150] Setting up L1_b3_cbr1_relu
I0817 16:06:12.459712 17619 net.cpp:157] Top shape: 125 16 32 32 (2048000)
I0817 16:06:12.459718 17619 net.cpp:165] Memory required for data: 263681500
I0817 16:06:12.459723 17619 layer_factory.hpp:77] Creating layer L1_b3_cbr2_conv
I0817 16:06:12.459738 17619 net.cpp:100] Creating Layer L1_b3_cbr2_conv
I0817 16:06:12.459743 17619 net.cpp:434] L1_b3_cbr2_conv <- L1_b3_cbr1_bn_top
I0817 16:06:12.459753 17619 net.cpp:408] L1_b3_cbr2_conv -> L1_b3_cbr2_conv_top
I0817 16:06:12.460062 17619 net.cpp:150] Setting up L1_b3_cbr2_conv
I0817 16:06:12.460077 17619 net.cpp:157] Top shape: 125 16 32 32 (2048000)
I0817 16:06:12.460081 17619 net.cpp:165] Memory required for data: 271873500
I0817 16:06:12.460089 17619 layer_factory.hpp:77] Creating layer L1_b3_cbr2_bn
I0817 16:06:12.460106 17619 net.cpp:100] Creating Layer L1_b3_cbr2_bn
I0817 16:06:12.460113 17619 net.cpp:434] L1_b3_cbr2_bn <- L1_b3_cbr2_conv_top
I0817 16:06:12.460120 17619 net.cpp:408] L1_b3_cbr2_bn -> L1_b3_cbr2_bn_top
I0817 16:06:12.460350 17619 net.cpp:150] Setting up L1_b3_cbr2_bn
I0817 16:06:12.460363 17619 net.cpp:157] Top shape: 125 16 32 32 (2048000)
I0817 16:06:12.460368 17619 net.cpp:165] Memory required for data: 280065500
I0817 16:06:12.460378 17619 layer_factory.hpp:77] Creating layer L1_b3_cbr2_scale
I0817 16:06:12.460387 17619 net.cpp:100] Creating Layer L1_b3_cbr2_scale
I0817 16:06:12.460392 17619 net.cpp:434] L1_b3_cbr2_scale <- L1_b3_cbr2_bn_top
I0817 16:06:12.460403 17619 net.cpp:395] L1_b3_cbr2_scale -> L1_b3_cbr2_bn_top (in-place)
I0817 16:06:12.460455 17619 layer_factory.hpp:77] Creating layer L1_b3_cbr2_scale
I0817 16:06:12.460589 17619 net.cpp:150] Setting up L1_b3_cbr2_scale
I0817 16:06:12.460604 17619 net.cpp:157] Top shape: 125 16 32 32 (2048000)
I0817 16:06:12.460609 17619 net.cpp:165] Memory required for data: 288257500
I0817 16:06:12.460618 17619 layer_factory.hpp:77] Creating layer L1_b3_sum_eltwise
I0817 16:06:12.460628 17619 net.cpp:100] Creating Layer L1_b3_sum_eltwise
I0817 16:06:12.460633 17619 net.cpp:434] L1_b3_sum_eltwise <- L1_b3_cbr2_bn_top
I0817 16:06:12.460639 17619 net.cpp:434] L1_b3_sum_eltwise <- L1_b2_sum_eltwise_top_L1_b2_relu_0_split_1
I0817 16:06:12.460646 17619 net.cpp:408] L1_b3_sum_eltwise -> L1_b3_sum_eltwise_top
I0817 16:06:12.460680 17619 net.cpp:150] Setting up L1_b3_sum_eltwise
I0817 16:06:12.460690 17619 net.cpp:157] Top shape: 125 16 32 32 (2048000)
I0817 16:06:12.460695 17619 net.cpp:165] Memory required for data: 296449500
I0817 16:06:12.460707 17619 layer_factory.hpp:77] Creating layer L1_b3_relu
I0817 16:06:12.460719 17619 net.cpp:100] Creating Layer L1_b3_relu
I0817 16:06:12.460726 17619 net.cpp:434] L1_b3_relu <- L1_b3_sum_eltwise_top
I0817 16:06:12.460732 17619 net.cpp:395] L1_b3_relu -> L1_b3_sum_eltwise_top (in-place)
I0817 16:06:12.460741 17619 net.cpp:150] Setting up L1_b3_relu
I0817 16:06:12.460748 17619 net.cpp:157] Top shape: 125 16 32 32 (2048000)
I0817 16:06:12.460753 17619 net.cpp:165] Memory required for data: 304641500
I0817 16:06:12.460757 17619 layer_factory.hpp:77] Creating layer L1_b3_sum_eltwise_top_L1_b3_relu_0_split
I0817 16:06:12.460764 17619 net.cpp:100] Creating Layer L1_b3_sum_eltwise_top_L1_b3_relu_0_split
I0817 16:06:12.460769 17619 net.cpp:434] L1_b3_sum_eltwise_top_L1_b3_relu_0_split <- L1_b3_sum_eltwise_top
I0817 16:06:12.460779 17619 net.cpp:408] L1_b3_sum_eltwise_top_L1_b3_relu_0_split -> L1_b3_sum_eltwise_top_L1_b3_relu_0_split_0
I0817 16:06:12.460788 17619 net.cpp:408] L1_b3_sum_eltwise_top_L1_b3_relu_0_split -> L1_b3_sum_eltwise_top_L1_b3_relu_0_split_1
I0817 16:06:12.460829 17619 net.cpp:150] Setting up L1_b3_sum_eltwise_top_L1_b3_relu_0_split
I0817 16:06:12.460846 17619 net.cpp:157] Top shape: 125 16 32 32 (2048000)
I0817 16:06:12.460853 17619 net.cpp:157] Top shape: 125 16 32 32 (2048000)
I0817 16:06:12.460857 17619 net.cpp:165] Memory required for data: 321025500
I0817 16:06:12.460862 17619 layer_factory.hpp:77] Creating layer L1_b4_cbr1_conv
I0817 16:06:12.460875 17619 net.cpp:100] Creating Layer L1_b4_cbr1_conv
I0817 16:06:12.460880 17619 net.cpp:434] L1_b4_cbr1_conv <- L1_b3_sum_eltwise_top_L1_b3_relu_0_split_0
I0817 16:06:12.460896 17619 net.cpp:408] L1_b4_cbr1_conv -> L1_b4_cbr1_conv_top
I0817 16:06:12.461206 17619 net.cpp:150] Setting up L1_b4_cbr1_conv
I0817 16:06:12.461220 17619 net.cpp:157] Top shape: 125 16 32 32 (2048000)
I0817 16:06:12.461225 17619 net.cpp:165] Memory required for data: 329217500
I0817 16:06:12.461235 17619 layer_factory.hpp:77] Creating layer L1_b4_cbr1_bn
I0817 16:06:12.461246 17619 net.cpp:100] Creating Layer L1_b4_cbr1_bn
I0817 16:06:12.461251 17619 net.cpp:434] L1_b4_cbr1_bn <- L1_b4_cbr1_conv_top
I0817 16:06:12.461259 17619 net.cpp:408] L1_b4_cbr1_bn -> L1_b4_cbr1_bn_top
I0817 16:06:12.461498 17619 net.cpp:150] Setting up L1_b4_cbr1_bn
I0817 16:06:12.461513 17619 net.cpp:157] Top shape: 125 16 32 32 (2048000)
I0817 16:06:12.461518 17619 net.cpp:165] Memory required for data: 337409500
I0817 16:06:12.461527 17619 layer_factory.hpp:77] Creating layer L1_b4_cbr1_scale
I0817 16:06:12.461536 17619 net.cpp:100] Creating Layer L1_b4_cbr1_scale
I0817 16:06:12.461542 17619 net.cpp:434] L1_b4_cbr1_scale <- L1_b4_cbr1_bn_top
I0817 16:06:12.461552 17619 net.cpp:395] L1_b4_cbr1_scale -> L1_b4_cbr1_bn_top (in-place)
I0817 16:06:12.461606 17619 layer_factory.hpp:77] Creating layer L1_b4_cbr1_scale
I0817 16:06:12.461752 17619 net.cpp:150] Setting up L1_b4_cbr1_scale
I0817 16:06:12.461768 17619 net.cpp:157] Top shape: 125 16 32 32 (2048000)
I0817 16:06:12.461774 17619 net.cpp:165] Memory required for data: 345601500
I0817 16:06:12.461783 17619 layer_factory.hpp:77] Creating layer L1_b4_cbr1_relu
I0817 16:06:12.461791 17619 net.cpp:100] Creating Layer L1_b4_cbr1_relu
I0817 16:06:12.461796 17619 net.cpp:434] L1_b4_cbr1_relu <- L1_b4_cbr1_bn_top
I0817 16:06:12.461803 17619 net.cpp:395] L1_b4_cbr1_relu -> L1_b4_cbr1_bn_top (in-place)
I0817 16:06:12.461812 17619 net.cpp:150] Setting up L1_b4_cbr1_relu
I0817 16:06:12.461819 17619 net.cpp:157] Top shape: 125 16 32 32 (2048000)
I0817 16:06:12.461824 17619 net.cpp:165] Memory required for data: 353793500
I0817 16:06:12.461829 17619 layer_factory.hpp:77] Creating layer L1_b4_cbr2_conv
I0817 16:06:12.461843 17619 net.cpp:100] Creating Layer L1_b4_cbr2_conv
I0817 16:06:12.461848 17619 net.cpp:434] L1_b4_cbr2_conv <- L1_b4_cbr1_bn_top
I0817 16:06:12.461859 17619 net.cpp:408] L1_b4_cbr2_conv -> L1_b4_cbr2_conv_top
I0817 16:06:12.462170 17619 net.cpp:150] Setting up L1_b4_cbr2_conv
I0817 16:06:12.462183 17619 net.cpp:157] Top shape: 125 16 32 32 (2048000)
I0817 16:06:12.462188 17619 net.cpp:165] Memory required for data: 361985500
I0817 16:06:12.462198 17619 layer_factory.hpp:77] Creating layer L1_b4_cbr2_bn
I0817 16:06:12.462209 17619 net.cpp:100] Creating Layer L1_b4_cbr2_bn
I0817 16:06:12.462215 17619 net.cpp:434] L1_b4_cbr2_bn <- L1_b4_cbr2_conv_top
I0817 16:06:12.462225 17619 net.cpp:408] L1_b4_cbr2_bn -> L1_b4_cbr2_bn_top
I0817 16:06:12.462465 17619 net.cpp:150] Setting up L1_b4_cbr2_bn
I0817 16:06:12.462477 17619 net.cpp:157] Top shape: 125 16 32 32 (2048000)
I0817 16:06:12.462482 17619 net.cpp:165] Memory required for data: 370177500
I0817 16:06:12.462493 17619 layer_factory.hpp:77] Creating layer L1_b4_cbr2_scale
I0817 16:06:12.462504 17619 net.cpp:100] Creating Layer L1_b4_cbr2_scale
I0817 16:06:12.462510 17619 net.cpp:434] L1_b4_cbr2_scale <- L1_b4_cbr2_bn_top
I0817 16:06:12.462517 17619 net.cpp:395] L1_b4_cbr2_scale -> L1_b4_cbr2_bn_top (in-place)
I0817 16:06:12.462569 17619 layer_factory.hpp:77] Creating layer L1_b4_cbr2_scale
I0817 16:06:12.462710 17619 net.cpp:150] Setting up L1_b4_cbr2_scale
I0817 16:06:12.462723 17619 net.cpp:157] Top shape: 125 16 32 32 (2048000)
I0817 16:06:12.462729 17619 net.cpp:165] Memory required for data: 378369500
I0817 16:06:12.462738 17619 layer_factory.hpp:77] Creating layer L1_b4_sum_eltwise
I0817 16:06:12.462746 17619 net.cpp:100] Creating Layer L1_b4_sum_eltwise
I0817 16:06:12.462752 17619 net.cpp:434] L1_b4_sum_eltwise <- L1_b4_cbr2_bn_top
I0817 16:06:12.462759 17619 net.cpp:434] L1_b4_sum_eltwise <- L1_b3_sum_eltwise_top_L1_b3_relu_0_split_1
I0817 16:06:12.462769 17619 net.cpp:408] L1_b4_sum_eltwise -> L1_b4_sum_eltwise_top
I0817 16:06:12.462807 17619 net.cpp:150] Setting up L1_b4_sum_eltwise
I0817 16:06:12.462821 17619 net.cpp:157] Top shape: 125 16 32 32 (2048000)
I0817 16:06:12.462826 17619 net.cpp:165] Memory required for data: 386561500
I0817 16:06:12.462831 17619 layer_factory.hpp:77] Creating layer L1_b4_relu
I0817 16:06:12.462838 17619 net.cpp:100] Creating Layer L1_b4_relu
I0817 16:06:12.462844 17619 net.cpp:434] L1_b4_relu <- L1_b4_sum_eltwise_top
I0817 16:06:12.462852 17619 net.cpp:395] L1_b4_relu -> L1_b4_sum_eltwise_top (in-place)
I0817 16:06:12.462860 17619 net.cpp:150] Setting up L1_b4_relu
I0817 16:06:12.462867 17619 net.cpp:157] Top shape: 125 16 32 32 (2048000)
I0817 16:06:12.462872 17619 net.cpp:165] Memory required for data: 394753500
I0817 16:06:12.462877 17619 layer_factory.hpp:77] Creating layer L1_b4_sum_eltwise_top_L1_b4_relu_0_split
I0817 16:06:12.462888 17619 net.cpp:100] Creating Layer L1_b4_sum_eltwise_top_L1_b4_relu_0_split
I0817 16:06:12.462893 17619 net.cpp:434] L1_b4_sum_eltwise_top_L1_b4_relu_0_split <- L1_b4_sum_eltwise_top
I0817 16:06:12.462900 17619 net.cpp:408] L1_b4_sum_eltwise_top_L1_b4_relu_0_split -> L1_b4_sum_eltwise_top_L1_b4_relu_0_split_0
I0817 16:06:12.462909 17619 net.cpp:408] L1_b4_sum_eltwise_top_L1_b4_relu_0_split -> L1_b4_sum_eltwise_top_L1_b4_relu_0_split_1
I0817 16:06:12.462952 17619 net.cpp:150] Setting up L1_b4_sum_eltwise_top_L1_b4_relu_0_split
I0817 16:06:12.462965 17619 net.cpp:157] Top shape: 125 16 32 32 (2048000)
I0817 16:06:12.462970 17619 net.cpp:157] Top shape: 125 16 32 32 (2048000)
I0817 16:06:12.462975 17619 net.cpp:165] Memory required for data: 411137500
I0817 16:06:12.462980 17619 layer_factory.hpp:77] Creating layer L1_b5_cbr1_conv
I0817 16:06:12.462991 17619 net.cpp:100] Creating Layer L1_b5_cbr1_conv
I0817 16:06:12.462997 17619 net.cpp:434] L1_b5_cbr1_conv <- L1_b4_sum_eltwise_top_L1_b4_relu_0_split_0
I0817 16:06:12.463008 17619 net.cpp:408] L1_b5_cbr1_conv -> L1_b5_cbr1_conv_top
I0817 16:06:12.463320 17619 net.cpp:150] Setting up L1_b5_cbr1_conv
I0817 16:06:12.463333 17619 net.cpp:157] Top shape: 125 16 32 32 (2048000)
I0817 16:06:12.463337 17619 net.cpp:165] Memory required for data: 419329500
I0817 16:06:12.463357 17619 layer_factory.hpp:77] Creating layer L1_b5_cbr1_bn
I0817 16:06:12.463369 17619 net.cpp:100] Creating Layer L1_b5_cbr1_bn
I0817 16:06:12.463376 17619 net.cpp:434] L1_b5_cbr1_bn <- L1_b5_cbr1_conv_top
I0817 16:06:12.463383 17619 net.cpp:408] L1_b5_cbr1_bn -> L1_b5_cbr1_bn_top
I0817 16:06:12.463621 17619 net.cpp:150] Setting up L1_b5_cbr1_bn
I0817 16:06:12.463634 17619 net.cpp:157] Top shape: 125 16 32 32 (2048000)
I0817 16:06:12.463639 17619 net.cpp:165] Memory required for data: 427521500
I0817 16:06:12.463650 17619 layer_factory.hpp:77] Creating layer L1_b5_cbr1_scale
I0817 16:06:12.463660 17619 net.cpp:100] Creating Layer L1_b5_cbr1_scale
I0817 16:06:12.463665 17619 net.cpp:434] L1_b5_cbr1_scale <- L1_b5_cbr1_bn_top
I0817 16:06:12.463675 17619 net.cpp:395] L1_b5_cbr1_scale -> L1_b5_cbr1_bn_top (in-place)
I0817 16:06:12.463733 17619 layer_factory.hpp:77] Creating layer L1_b5_cbr1_scale
I0817 16:06:12.463876 17619 net.cpp:150] Setting up L1_b5_cbr1_scale
I0817 16:06:12.463889 17619 net.cpp:157] Top shape: 125 16 32 32 (2048000)
I0817 16:06:12.463893 17619 net.cpp:165] Memory required for data: 435713500
I0817 16:06:12.463902 17619 layer_factory.hpp:77] Creating layer L1_b5_cbr1_relu
I0817 16:06:12.463910 17619 net.cpp:100] Creating Layer L1_b5_cbr1_relu
I0817 16:06:12.463917 17619 net.cpp:434] L1_b5_cbr1_relu <- L1_b5_cbr1_bn_top
I0817 16:06:12.463923 17619 net.cpp:395] L1_b5_cbr1_relu -> L1_b5_cbr1_bn_top (in-place)
I0817 16:06:12.463933 17619 net.cpp:150] Setting up L1_b5_cbr1_relu
I0817 16:06:12.463939 17619 net.cpp:157] Top shape: 125 16 32 32 (2048000)
I0817 16:06:12.463944 17619 net.cpp:165] Memory required for data: 443905500
I0817 16:06:12.463949 17619 layer_factory.hpp:77] Creating layer L1_b5_cbr2_conv
I0817 16:06:12.463963 17619 net.cpp:100] Creating Layer L1_b5_cbr2_conv
I0817 16:06:12.463968 17619 net.cpp:434] L1_b5_cbr2_conv <- L1_b5_cbr1_bn_top
I0817 16:06:12.463986 17619 net.cpp:408] L1_b5_cbr2_conv -> L1_b5_cbr2_conv_top
I0817 16:06:12.464298 17619 net.cpp:150] Setting up L1_b5_cbr2_conv
I0817 16:06:12.464311 17619 net.cpp:157] Top shape: 125 16 32 32 (2048000)
I0817 16:06:12.464316 17619 net.cpp:165] Memory required for data: 452097500
I0817 16:06:12.464324 17619 layer_factory.hpp:77] Creating layer L1_b5_cbr2_bn
I0817 16:06:12.464339 17619 net.cpp:100] Creating Layer L1_b5_cbr2_bn
I0817 16:06:12.464344 17619 net.cpp:434] L1_b5_cbr2_bn <- L1_b5_cbr2_conv_top
I0817 16:06:12.464354 17619 net.cpp:408] L1_b5_cbr2_bn -> L1_b5_cbr2_bn_top
I0817 16:06:12.464586 17619 net.cpp:150] Setting up L1_b5_cbr2_bn
I0817 16:06:12.464597 17619 net.cpp:157] Top shape: 125 16 32 32 (2048000)
I0817 16:06:12.464602 17619 net.cpp:165] Memory required for data: 460289500
I0817 16:06:12.464612 17619 layer_factory.hpp:77] Creating layer L1_b5_cbr2_scale
I0817 16:06:12.464620 17619 net.cpp:100] Creating Layer L1_b5_cbr2_scale
I0817 16:06:12.464627 17619 net.cpp:434] L1_b5_cbr2_scale <- L1_b5_cbr2_bn_top
I0817 16:06:12.464637 17619 net.cpp:395] L1_b5_cbr2_scale -> L1_b5_cbr2_bn_top (in-place)
I0817 16:06:12.464689 17619 layer_factory.hpp:77] Creating layer L1_b5_cbr2_scale
I0817 16:06:12.464831 17619 net.cpp:150] Setting up L1_b5_cbr2_scale
I0817 16:06:12.464849 17619 net.cpp:157] Top shape: 125 16 32 32 (2048000)
I0817 16:06:12.464854 17619 net.cpp:165] Memory required for data: 468481500
I0817 16:06:12.464864 17619 layer_factory.hpp:77] Creating layer L1_b5_sum_eltwise
I0817 16:06:12.464872 17619 net.cpp:100] Creating Layer L1_b5_sum_eltwise
I0817 16:06:12.464879 17619 net.cpp:434] L1_b5_sum_eltwise <- L1_b5_cbr2_bn_top
I0817 16:06:12.464884 17619 net.cpp:434] L1_b5_sum_eltwise <- L1_b4_sum_eltwise_top_L1_b4_relu_0_split_1
I0817 16:06:12.464892 17619 net.cpp:408] L1_b5_sum_eltwise -> L1_b5_sum_eltwise_top
I0817 16:06:12.464926 17619 net.cpp:150] Setting up L1_b5_sum_eltwise
I0817 16:06:12.464937 17619 net.cpp:157] Top shape: 125 16 32 32 (2048000)
I0817 16:06:12.464942 17619 net.cpp:165] Memory required for data: 476673500
I0817 16:06:12.464947 17619 layer_factory.hpp:77] Creating layer L1_b5_relu
I0817 16:06:12.464957 17619 net.cpp:100] Creating Layer L1_b5_relu
I0817 16:06:12.464963 17619 net.cpp:434] L1_b5_relu <- L1_b5_sum_eltwise_top
I0817 16:06:12.464970 17619 net.cpp:395] L1_b5_relu -> L1_b5_sum_eltwise_top (in-place)
I0817 16:06:12.464979 17619 net.cpp:150] Setting up L1_b5_relu
I0817 16:06:12.464987 17619 net.cpp:157] Top shape: 125 16 32 32 (2048000)
I0817 16:06:12.464990 17619 net.cpp:165] Memory required for data: 484865500
I0817 16:06:12.464995 17619 layer_factory.hpp:77] Creating layer L1_b5_sum_eltwise_top_L1_b5_relu_0_split
I0817 16:06:12.465003 17619 net.cpp:100] Creating Layer L1_b5_sum_eltwise_top_L1_b5_relu_0_split
I0817 16:06:12.465008 17619 net.cpp:434] L1_b5_sum_eltwise_top_L1_b5_relu_0_split <- L1_b5_sum_eltwise_top
I0817 16:06:12.465018 17619 net.cpp:408] L1_b5_sum_eltwise_top_L1_b5_relu_0_split -> L1_b5_sum_eltwise_top_L1_b5_relu_0_split_0
I0817 16:06:12.465028 17619 net.cpp:408] L1_b5_sum_eltwise_top_L1_b5_relu_0_split -> L1_b5_sum_eltwise_top_L1_b5_relu_0_split_1
I0817 16:06:12.465068 17619 net.cpp:150] Setting up L1_b5_sum_eltwise_top_L1_b5_relu_0_split
I0817 16:06:12.465080 17619 net.cpp:157] Top shape: 125 16 32 32 (2048000)
I0817 16:06:12.465085 17619 net.cpp:157] Top shape: 125 16 32 32 (2048000)
I0817 16:06:12.465090 17619 net.cpp:165] Memory required for data: 501249500
I0817 16:06:12.465095 17619 layer_factory.hpp:77] Creating layer L1_b6_cbr1_conv
I0817 16:06:12.465109 17619 net.cpp:100] Creating Layer L1_b6_cbr1_conv
I0817 16:06:12.465116 17619 net.cpp:434] L1_b6_cbr1_conv <- L1_b5_sum_eltwise_top_L1_b5_relu_0_split_0
I0817 16:06:12.465124 17619 net.cpp:408] L1_b6_cbr1_conv -> L1_b6_cbr1_conv_top
I0817 16:06:12.465435 17619 net.cpp:150] Setting up L1_b6_cbr1_conv
I0817 16:06:12.465448 17619 net.cpp:157] Top shape: 125 16 32 32 (2048000)
I0817 16:06:12.465453 17619 net.cpp:165] Memory required for data: 509441500
I0817 16:06:12.465469 17619 layer_factory.hpp:77] Creating layer L1_b6_cbr1_bn
I0817 16:06:12.465481 17619 net.cpp:100] Creating Layer L1_b6_cbr1_bn
I0817 16:06:12.465487 17619 net.cpp:434] L1_b6_cbr1_bn <- L1_b6_cbr1_conv_top
I0817 16:06:12.465495 17619 net.cpp:408] L1_b6_cbr1_bn -> L1_b6_cbr1_bn_top
I0817 16:06:12.465737 17619 net.cpp:150] Setting up L1_b6_cbr1_bn
I0817 16:06:12.465751 17619 net.cpp:157] Top shape: 125 16 32 32 (2048000)
I0817 16:06:12.465756 17619 net.cpp:165] Memory required for data: 517633500
I0817 16:06:12.465766 17619 layer_factory.hpp:77] Creating layer L1_b6_cbr1_scale
I0817 16:06:12.465775 17619 net.cpp:100] Creating Layer L1_b6_cbr1_scale
I0817 16:06:12.465780 17619 net.cpp:434] L1_b6_cbr1_scale <- L1_b6_cbr1_bn_top
I0817 16:06:12.465791 17619 net.cpp:395] L1_b6_cbr1_scale -> L1_b6_cbr1_bn_top (in-place)
I0817 16:06:12.465842 17619 layer_factory.hpp:77] Creating layer L1_b6_cbr1_scale
I0817 16:06:12.465979 17619 net.cpp:150] Setting up L1_b6_cbr1_scale
I0817 16:06:12.465994 17619 net.cpp:157] Top shape: 125 16 32 32 (2048000)
I0817 16:06:12.465999 17619 net.cpp:165] Memory required for data: 525825500
I0817 16:06:12.466008 17619 layer_factory.hpp:77] Creating layer L1_b6_cbr1_relu
I0817 16:06:12.466017 17619 net.cpp:100] Creating Layer L1_b6_cbr1_relu
I0817 16:06:12.466022 17619 net.cpp:434] L1_b6_cbr1_relu <- L1_b6_cbr1_bn_top
I0817 16:06:12.466029 17619 net.cpp:395] L1_b6_cbr1_relu -> L1_b6_cbr1_bn_top (in-place)
I0817 16:06:12.466038 17619 net.cpp:150] Setting up L1_b6_cbr1_relu
I0817 16:06:12.466045 17619 net.cpp:157] Top shape: 125 16 32 32 (2048000)
I0817 16:06:12.466050 17619 net.cpp:165] Memory required for data: 534017500
I0817 16:06:12.466054 17619 layer_factory.hpp:77] Creating layer L1_b6_cbr2_conv
I0817 16:06:12.466068 17619 net.cpp:100] Creating Layer L1_b6_cbr2_conv
I0817 16:06:12.466074 17619 net.cpp:434] L1_b6_cbr2_conv <- L1_b6_cbr1_bn_top
I0817 16:06:12.466085 17619 net.cpp:408] L1_b6_cbr2_conv -> L1_b6_cbr2_conv_top
I0817 16:06:12.466398 17619 net.cpp:150] Setting up L1_b6_cbr2_conv
I0817 16:06:12.466411 17619 net.cpp:157] Top shape: 125 16 32 32 (2048000)
I0817 16:06:12.466416 17619 net.cpp:165] Memory required for data: 542209500
I0817 16:06:12.466424 17619 layer_factory.hpp:77] Creating layer L1_b6_cbr2_bn
I0817 16:06:12.466436 17619 net.cpp:100] Creating Layer L1_b6_cbr2_bn
I0817 16:06:12.466442 17619 net.cpp:434] L1_b6_cbr2_bn <- L1_b6_cbr2_conv_top
I0817 16:06:12.466452 17619 net.cpp:408] L1_b6_cbr2_bn -> L1_b6_cbr2_bn_top
I0817 16:06:12.466688 17619 net.cpp:150] Setting up L1_b6_cbr2_bn
I0817 16:06:12.466707 17619 net.cpp:157] Top shape: 125 16 32 32 (2048000)
I0817 16:06:12.466713 17619 net.cpp:165] Memory required for data: 550401500
I0817 16:06:12.466723 17619 layer_factory.hpp:77] Creating layer L1_b6_cbr2_scale
I0817 16:06:12.466732 17619 net.cpp:100] Creating Layer L1_b6_cbr2_scale
I0817 16:06:12.466738 17619 net.cpp:434] L1_b6_cbr2_scale <- L1_b6_cbr2_bn_top
I0817 16:06:12.466747 17619 net.cpp:395] L1_b6_cbr2_scale -> L1_b6_cbr2_bn_top (in-place)
I0817 16:06:12.466801 17619 layer_factory.hpp:77] Creating layer L1_b6_cbr2_scale
I0817 16:06:12.466938 17619 net.cpp:150] Setting up L1_b6_cbr2_scale
I0817 16:06:12.466951 17619 net.cpp:157] Top shape: 125 16 32 32 (2048000)
I0817 16:06:12.466956 17619 net.cpp:165] Memory required for data: 558593500
I0817 16:06:12.466965 17619 layer_factory.hpp:77] Creating layer L1_b6_sum_eltwise
I0817 16:06:12.466984 17619 net.cpp:100] Creating Layer L1_b6_sum_eltwise
I0817 16:06:12.466989 17619 net.cpp:434] L1_b6_sum_eltwise <- L1_b6_cbr2_bn_top
I0817 16:06:12.466996 17619 net.cpp:434] L1_b6_sum_eltwise <- L1_b5_sum_eltwise_top_L1_b5_relu_0_split_1
I0817 16:06:12.467005 17619 net.cpp:408] L1_b6_sum_eltwise -> L1_b6_sum_eltwise_top
I0817 16:06:12.467038 17619 net.cpp:150] Setting up L1_b6_sum_eltwise
I0817 16:06:12.467049 17619 net.cpp:157] Top shape: 125 16 32 32 (2048000)
I0817 16:06:12.467054 17619 net.cpp:165] Memory required for data: 566785500
I0817 16:06:12.467061 17619 layer_factory.hpp:77] Creating layer L1_b6_relu
I0817 16:06:12.467077 17619 net.cpp:100] Creating Layer L1_b6_relu
I0817 16:06:12.467082 17619 net.cpp:434] L1_b6_relu <- L1_b6_sum_eltwise_top
I0817 16:06:12.467092 17619 net.cpp:395] L1_b6_relu -> L1_b6_sum_eltwise_top (in-place)
I0817 16:06:12.467103 17619 net.cpp:150] Setting up L1_b6_relu
I0817 16:06:12.467109 17619 net.cpp:157] Top shape: 125 16 32 32 (2048000)
I0817 16:06:12.467113 17619 net.cpp:165] Memory required for data: 574977500
I0817 16:06:12.467118 17619 layer_factory.hpp:77] Creating layer L1_b6_sum_eltwise_top_L1_b6_relu_0_split
I0817 16:06:12.467125 17619 net.cpp:100] Creating Layer L1_b6_sum_eltwise_top_L1_b6_relu_0_split
I0817 16:06:12.467130 17619 net.cpp:434] L1_b6_sum_eltwise_top_L1_b6_relu_0_split <- L1_b6_sum_eltwise_top
I0817 16:06:12.467139 17619 net.cpp:408] L1_b6_sum_eltwise_top_L1_b6_relu_0_split -> L1_b6_sum_eltwise_top_L1_b6_relu_0_split_0
I0817 16:06:12.467147 17619 net.cpp:408] L1_b6_sum_eltwise_top_L1_b6_relu_0_split -> L1_b6_sum_eltwise_top_L1_b6_relu_0_split_1
I0817 16:06:12.467191 17619 net.cpp:150] Setting up L1_b6_sum_eltwise_top_L1_b6_relu_0_split
I0817 16:06:12.467203 17619 net.cpp:157] Top shape: 125 16 32 32 (2048000)
I0817 16:06:12.467211 17619 net.cpp:157] Top shape: 125 16 32 32 (2048000)
I0817 16:06:12.467214 17619 net.cpp:165] Memory required for data: 591361500
I0817 16:06:12.467219 17619 layer_factory.hpp:77] Creating layer L1_b7_cbr1_conv
I0817 16:06:12.467231 17619 net.cpp:100] Creating Layer L1_b7_cbr1_conv
I0817 16:06:12.467236 17619 net.cpp:434] L1_b7_cbr1_conv <- L1_b6_sum_eltwise_top_L1_b6_relu_0_split_0
I0817 16:06:12.467248 17619 net.cpp:408] L1_b7_cbr1_conv -> L1_b7_cbr1_conv_top
I0817 16:06:12.467561 17619 net.cpp:150] Setting up L1_b7_cbr1_conv
I0817 16:06:12.467574 17619 net.cpp:157] Top shape: 125 16 32 32 (2048000)
I0817 16:06:12.467579 17619 net.cpp:165] Memory required for data: 599553500
I0817 16:06:12.467588 17619 layer_factory.hpp:77] Creating layer L1_b7_cbr1_bn
I0817 16:06:12.467597 17619 net.cpp:100] Creating Layer L1_b7_cbr1_bn
I0817 16:06:12.467603 17619 net.cpp:434] L1_b7_cbr1_bn <- L1_b7_cbr1_conv_top
I0817 16:06:12.467613 17619 net.cpp:408] L1_b7_cbr1_bn -> L1_b7_cbr1_bn_top
I0817 16:06:12.467860 17619 net.cpp:150] Setting up L1_b7_cbr1_bn
I0817 16:06:12.467874 17619 net.cpp:157] Top shape: 125 16 32 32 (2048000)
I0817 16:06:12.467878 17619 net.cpp:165] Memory required for data: 607745500
I0817 16:06:12.467890 17619 layer_factory.hpp:77] Creating layer L1_b7_cbr1_scale
I0817 16:06:12.467900 17619 net.cpp:100] Creating Layer L1_b7_cbr1_scale
I0817 16:06:12.467906 17619 net.cpp:434] L1_b7_cbr1_scale <- L1_b7_cbr1_bn_top
I0817 16:06:12.467914 17619 net.cpp:395] L1_b7_cbr1_scale -> L1_b7_cbr1_bn_top (in-place)
I0817 16:06:12.467965 17619 layer_factory.hpp:77] Creating layer L1_b7_cbr1_scale
I0817 16:06:12.468108 17619 net.cpp:150] Setting up L1_b7_cbr1_scale
I0817 16:06:12.468122 17619 net.cpp:157] Top shape: 125 16 32 32 (2048000)
I0817 16:06:12.468125 17619 net.cpp:165] Memory required for data: 615937500
I0817 16:06:12.468134 17619 layer_factory.hpp:77] Creating layer L1_b7_cbr1_relu
I0817 16:06:12.468142 17619 net.cpp:100] Creating Layer L1_b7_cbr1_relu
I0817 16:06:12.468148 17619 net.cpp:434] L1_b7_cbr1_relu <- L1_b7_cbr1_bn_top
I0817 16:06:12.468158 17619 net.cpp:395] L1_b7_cbr1_relu -> L1_b7_cbr1_bn_top (in-place)
I0817 16:06:12.468168 17619 net.cpp:150] Setting up L1_b7_cbr1_relu
I0817 16:06:12.468174 17619 net.cpp:157] Top shape: 125 16 32 32 (2048000)
I0817 16:06:12.468179 17619 net.cpp:165] Memory required for data: 624129500
I0817 16:06:12.468183 17619 layer_factory.hpp:77] Creating layer L1_b7_cbr2_conv
I0817 16:06:12.468199 17619 net.cpp:100] Creating Layer L1_b7_cbr2_conv
I0817 16:06:12.468205 17619 net.cpp:434] L1_b7_cbr2_conv <- L1_b7_cbr1_bn_top
I0817 16:06:12.468216 17619 net.cpp:408] L1_b7_cbr2_conv -> L1_b7_cbr2_conv_top
I0817 16:06:12.468524 17619 net.cpp:150] Setting up L1_b7_cbr2_conv
I0817 16:06:12.468539 17619 net.cpp:157] Top shape: 125 16 32 32 (2048000)
I0817 16:06:12.468544 17619 net.cpp:165] Memory required for data: 632321500
I0817 16:06:12.468560 17619 layer_factory.hpp:77] Creating layer L1_b7_cbr2_bn
I0817 16:06:12.468569 17619 net.cpp:100] Creating Layer L1_b7_cbr2_bn
I0817 16:06:12.468575 17619 net.cpp:434] L1_b7_cbr2_bn <- L1_b7_cbr2_conv_top
I0817 16:06:12.468583 17619 net.cpp:408] L1_b7_cbr2_bn -> L1_b7_cbr2_bn_top
I0817 16:06:12.468828 17619 net.cpp:150] Setting up L1_b7_cbr2_bn
I0817 16:06:12.468842 17619 net.cpp:157] Top shape: 125 16 32 32 (2048000)
I0817 16:06:12.468847 17619 net.cpp:165] Memory required for data: 640513500
I0817 16:06:12.468858 17619 layer_factory.hpp:77] Creating layer L1_b7_cbr2_scale
I0817 16:06:12.468869 17619 net.cpp:100] Creating Layer L1_b7_cbr2_scale
I0817 16:06:12.468876 17619 net.cpp:434] L1_b7_cbr2_scale <- L1_b7_cbr2_bn_top
I0817 16:06:12.468883 17619 net.cpp:395] L1_b7_cbr2_scale -> L1_b7_cbr2_bn_top (in-place)
I0817 16:06:12.468940 17619 layer_factory.hpp:77] Creating layer L1_b7_cbr2_scale
I0817 16:06:12.469077 17619 net.cpp:150] Setting up L1_b7_cbr2_scale
I0817 16:06:12.469090 17619 net.cpp:157] Top shape: 125 16 32 32 (2048000)
I0817 16:06:12.469095 17619 net.cpp:165] Memory required for data: 648705500
I0817 16:06:12.469105 17619 layer_factory.hpp:77] Creating layer L1_b7_sum_eltwise
I0817 16:06:12.469113 17619 net.cpp:100] Creating Layer L1_b7_sum_eltwise
I0817 16:06:12.469120 17619 net.cpp:434] L1_b7_sum_eltwise <- L1_b7_cbr2_bn_top
I0817 16:06:12.469125 17619 net.cpp:434] L1_b7_sum_eltwise <- L1_b6_sum_eltwise_top_L1_b6_relu_0_split_1
I0817 16:06:12.469136 17619 net.cpp:408] L1_b7_sum_eltwise -> L1_b7_sum_eltwise_top
I0817 16:06:12.469166 17619 net.cpp:150] Setting up L1_b7_sum_eltwise
I0817 16:06:12.469179 17619 net.cpp:157] Top shape: 125 16 32 32 (2048000)
I0817 16:06:12.469184 17619 net.cpp:165] Memory required for data: 656897500
I0817 16:06:12.469189 17619 layer_factory.hpp:77] Creating layer L1_b7_relu
I0817 16:06:12.469197 17619 net.cpp:100] Creating Layer L1_b7_relu
I0817 16:06:12.469202 17619 net.cpp:434] L1_b7_relu <- L1_b7_sum_eltwise_top
I0817 16:06:12.469209 17619 net.cpp:395] L1_b7_relu -> L1_b7_sum_eltwise_top (in-place)
I0817 16:06:12.469218 17619 net.cpp:150] Setting up L1_b7_relu
I0817 16:06:12.469225 17619 net.cpp:157] Top shape: 125 16 32 32 (2048000)
I0817 16:06:12.469229 17619 net.cpp:165] Memory required for data: 665089500
I0817 16:06:12.469234 17619 layer_factory.hpp:77] Creating layer L1_b7_sum_eltwise_top_L1_b7_relu_0_split
I0817 16:06:12.469244 17619 net.cpp:100] Creating Layer L1_b7_sum_eltwise_top_L1_b7_relu_0_split
I0817 16:06:12.469249 17619 net.cpp:434] L1_b7_sum_eltwise_top_L1_b7_relu_0_split <- L1_b7_sum_eltwise_top
I0817 16:06:12.469256 17619 net.cpp:408] L1_b7_sum_eltwise_top_L1_b7_relu_0_split -> L1_b7_sum_eltwise_top_L1_b7_relu_0_split_0
I0817 16:06:12.469266 17619 net.cpp:408] L1_b7_sum_eltwise_top_L1_b7_relu_0_split -> L1_b7_sum_eltwise_top_L1_b7_relu_0_split_1
I0817 16:06:12.469310 17619 net.cpp:150] Setting up L1_b7_sum_eltwise_top_L1_b7_relu_0_split
I0817 16:06:12.469321 17619 net.cpp:157] Top shape: 125 16 32 32 (2048000)
I0817 16:06:12.469328 17619 net.cpp:157] Top shape: 125 16 32 32 (2048000)
I0817 16:06:12.469332 17619 net.cpp:165] Memory required for data: 681473500
I0817 16:06:12.469338 17619 layer_factory.hpp:77] Creating layer L1_b8_cbr1_conv
I0817 16:06:12.469349 17619 net.cpp:100] Creating Layer L1_b8_cbr1_conv
I0817 16:06:12.469355 17619 net.cpp:434] L1_b8_cbr1_conv <- L1_b7_sum_eltwise_top_L1_b7_relu_0_split_0
I0817 16:06:12.469367 17619 net.cpp:408] L1_b8_cbr1_conv -> L1_b8_cbr1_conv_top
I0817 16:06:12.469679 17619 net.cpp:150] Setting up L1_b8_cbr1_conv
I0817 16:06:12.469693 17619 net.cpp:157] Top shape: 125 16 32 32 (2048000)
I0817 16:06:12.469704 17619 net.cpp:165] Memory required for data: 689665500
I0817 16:06:12.469714 17619 layer_factory.hpp:77] Creating layer L1_b8_cbr1_bn
I0817 16:06:12.469723 17619 net.cpp:100] Creating Layer L1_b8_cbr1_bn
I0817 16:06:12.469729 17619 net.cpp:434] L1_b8_cbr1_bn <- L1_b8_cbr1_conv_top
I0817 16:06:12.469738 17619 net.cpp:408] L1_b8_cbr1_bn -> L1_b8_cbr1_bn_top
I0817 16:06:12.469987 17619 net.cpp:150] Setting up L1_b8_cbr1_bn
I0817 16:06:12.470001 17619 net.cpp:157] Top shape: 125 16 32 32 (2048000)
I0817 16:06:12.470006 17619 net.cpp:165] Memory required for data: 697857500
I0817 16:06:12.470016 17619 layer_factory.hpp:77] Creating layer L1_b8_cbr1_scale
I0817 16:06:12.470027 17619 net.cpp:100] Creating Layer L1_b8_cbr1_scale
I0817 16:06:12.470033 17619 net.cpp:434] L1_b8_cbr1_scale <- L1_b8_cbr1_bn_top
I0817 16:06:12.470041 17619 net.cpp:395] L1_b8_cbr1_scale -> L1_b8_cbr1_bn_top (in-place)
I0817 16:06:12.470095 17619 layer_factory.hpp:77] Creating layer L1_b8_cbr1_scale
I0817 16:06:12.470240 17619 net.cpp:150] Setting up L1_b8_cbr1_scale
I0817 16:06:12.470254 17619 net.cpp:157] Top shape: 125 16 32 32 (2048000)
I0817 16:06:12.470259 17619 net.cpp:165] Memory required for data: 706049500
I0817 16:06:12.470268 17619 layer_factory.hpp:77] Creating layer L1_b8_cbr1_relu
I0817 16:06:12.470275 17619 net.cpp:100] Creating Layer L1_b8_cbr1_relu
I0817 16:06:12.470281 17619 net.cpp:434] L1_b8_cbr1_relu <- L1_b8_cbr1_bn_top
I0817 16:06:12.470291 17619 net.cpp:395] L1_b8_cbr1_relu -> L1_b8_cbr1_bn_top (in-place)
I0817 16:06:12.470301 17619 net.cpp:150] Setting up L1_b8_cbr1_relu
I0817 16:06:12.470309 17619 net.cpp:157] Top shape: 125 16 32 32 (2048000)
I0817 16:06:12.470312 17619 net.cpp:165] Memory required for data: 714241500
I0817 16:06:12.470317 17619 layer_factory.hpp:77] Creating layer L1_b8_cbr2_conv
I0817 16:06:12.470331 17619 net.cpp:100] Creating Layer L1_b8_cbr2_conv
I0817 16:06:12.470337 17619 net.cpp:434] L1_b8_cbr2_conv <- L1_b8_cbr1_bn_top
I0817 16:06:12.470345 17619 net.cpp:408] L1_b8_cbr2_conv -> L1_b8_cbr2_conv_top
I0817 16:06:12.470655 17619 net.cpp:150] Setting up L1_b8_cbr2_conv
I0817 16:06:12.470669 17619 net.cpp:157] Top shape: 125 16 32 32 (2048000)
I0817 16:06:12.470674 17619 net.cpp:165] Memory required for data: 722433500
I0817 16:06:12.470683 17619 layer_factory.hpp:77] Creating layer L1_b8_cbr2_bn
I0817 16:06:12.470695 17619 net.cpp:100] Creating Layer L1_b8_cbr2_bn
I0817 16:06:12.470707 17619 net.cpp:434] L1_b8_cbr2_bn <- L1_b8_cbr2_conv_top
I0817 16:06:12.470716 17619 net.cpp:408] L1_b8_cbr2_bn -> L1_b8_cbr2_bn_top
I0817 16:06:12.470964 17619 net.cpp:150] Setting up L1_b8_cbr2_bn
I0817 16:06:12.470978 17619 net.cpp:157] Top shape: 125 16 32 32 (2048000)
I0817 16:06:12.470983 17619 net.cpp:165] Memory required for data: 730625500
I0817 16:06:12.470993 17619 layer_factory.hpp:77] Creating layer L1_b8_cbr2_scale
I0817 16:06:12.471002 17619 net.cpp:100] Creating Layer L1_b8_cbr2_scale
I0817 16:06:12.471009 17619 net.cpp:434] L1_b8_cbr2_scale <- L1_b8_cbr2_bn_top
I0817 16:06:12.471019 17619 net.cpp:395] L1_b8_cbr2_scale -> L1_b8_cbr2_bn_top (in-place)
I0817 16:06:12.471073 17619 layer_factory.hpp:77] Creating layer L1_b8_cbr2_scale
I0817 16:06:12.471213 17619 net.cpp:150] Setting up L1_b8_cbr2_scale
I0817 16:06:12.471226 17619 net.cpp:157] Top shape: 125 16 32 32 (2048000)
I0817 16:06:12.471231 17619 net.cpp:165] Memory required for data: 738817500
I0817 16:06:12.471240 17619 layer_factory.hpp:77] Creating layer L1_b8_sum_eltwise
I0817 16:06:12.471248 17619 net.cpp:100] Creating Layer L1_b8_sum_eltwise
I0817 16:06:12.471254 17619 net.cpp:434] L1_b8_sum_eltwise <- L1_b8_cbr2_bn_top
I0817 16:06:12.471261 17619 net.cpp:434] L1_b8_sum_eltwise <- L1_b7_sum_eltwise_top_L1_b7_relu_0_split_1
I0817 16:06:12.471271 17619 net.cpp:408] L1_b8_sum_eltwise -> L1_b8_sum_eltwise_top
I0817 16:06:12.471302 17619 net.cpp:150] Setting up L1_b8_sum_eltwise
I0817 16:06:12.471315 17619 net.cpp:157] Top shape: 125 16 32 32 (2048000)
I0817 16:06:12.471320 17619 net.cpp:165] Memory required for data: 747009500
I0817 16:06:12.471325 17619 layer_factory.hpp:77] Creating layer L1_b8_relu
I0817 16:06:12.471333 17619 net.cpp:100] Creating Layer L1_b8_relu
I0817 16:06:12.471338 17619 net.cpp:434] L1_b8_relu <- L1_b8_sum_eltwise_top
I0817 16:06:12.471345 17619 net.cpp:395] L1_b8_relu -> L1_b8_sum_eltwise_top (in-place)
I0817 16:06:12.471354 17619 net.cpp:150] Setting up L1_b8_relu
I0817 16:06:12.471361 17619 net.cpp:157] Top shape: 125 16 32 32 (2048000)
I0817 16:06:12.471372 17619 net.cpp:165] Memory required for data: 755201500
I0817 16:06:12.471379 17619 layer_factory.hpp:77] Creating layer L1_b8_sum_eltwise_top_L1_b8_relu_0_split
I0817 16:06:12.471388 17619 net.cpp:100] Creating Layer L1_b8_sum_eltwise_top_L1_b8_relu_0_split
I0817 16:06:12.471393 17619 net.cpp:434] L1_b8_sum_eltwise_top_L1_b8_relu_0_split <- L1_b8_sum_eltwise_top
I0817 16:06:12.471401 17619 net.cpp:408] L1_b8_sum_eltwise_top_L1_b8_relu_0_split -> L1_b8_sum_eltwise_top_L1_b8_relu_0_split_0
I0817 16:06:12.471410 17619 net.cpp:408] L1_b8_sum_eltwise_top_L1_b8_relu_0_split -> L1_b8_sum_eltwise_top_L1_b8_relu_0_split_1
I0817 16:06:12.471457 17619 net.cpp:150] Setting up L1_b8_sum_eltwise_top_L1_b8_relu_0_split
I0817 16:06:12.471467 17619 net.cpp:157] Top shape: 125 16 32 32 (2048000)
I0817 16:06:12.471474 17619 net.cpp:157] Top shape: 125 16 32 32 (2048000)
I0817 16:06:12.471478 17619 net.cpp:165] Memory required for data: 771585500
I0817 16:06:12.471484 17619 layer_factory.hpp:77] Creating layer L1_b9_cbr1_conv
I0817 16:06:12.471494 17619 net.cpp:100] Creating Layer L1_b9_cbr1_conv
I0817 16:06:12.471500 17619 net.cpp:434] L1_b9_cbr1_conv <- L1_b8_sum_eltwise_top_L1_b8_relu_0_split_0
I0817 16:06:12.471513 17619 net.cpp:408] L1_b9_cbr1_conv -> L1_b9_cbr1_conv_top
I0817 16:06:12.471844 17619 net.cpp:150] Setting up L1_b9_cbr1_conv
I0817 16:06:12.471859 17619 net.cpp:157] Top shape: 125 16 32 32 (2048000)
I0817 16:06:12.471864 17619 net.cpp:165] Memory required for data: 779777500
I0817 16:06:12.471873 17619 layer_factory.hpp:77] Creating layer L1_b9_cbr1_bn
I0817 16:06:12.471887 17619 net.cpp:100] Creating Layer L1_b9_cbr1_bn
I0817 16:06:12.471894 17619 net.cpp:434] L1_b9_cbr1_bn <- L1_b9_cbr1_conv_top
I0817 16:06:12.471902 17619 net.cpp:408] L1_b9_cbr1_bn -> L1_b9_cbr1_bn_top
I0817 16:06:12.472151 17619 net.cpp:150] Setting up L1_b9_cbr1_bn
I0817 16:06:12.472163 17619 net.cpp:157] Top shape: 125 16 32 32 (2048000)
I0817 16:06:12.472168 17619 net.cpp:165] Memory required for data: 787969500
I0817 16:06:12.472178 17619 layer_factory.hpp:77] Creating layer L1_b9_cbr1_scale
I0817 16:06:12.472187 17619 net.cpp:100] Creating Layer L1_b9_cbr1_scale
I0817 16:06:12.472193 17619 net.cpp:434] L1_b9_cbr1_scale <- L1_b9_cbr1_bn_top
I0817 16:06:12.472200 17619 net.cpp:395] L1_b9_cbr1_scale -> L1_b9_cbr1_bn_top (in-place)
I0817 16:06:12.472254 17619 layer_factory.hpp:77] Creating layer L1_b9_cbr1_scale
I0817 16:06:12.472404 17619 net.cpp:150] Setting up L1_b9_cbr1_scale
I0817 16:06:12.472416 17619 net.cpp:157] Top shape: 125 16 32 32 (2048000)
I0817 16:06:12.472421 17619 net.cpp:165] Memory required for data: 796161500
I0817 16:06:12.472430 17619 layer_factory.hpp:77] Creating layer L1_b9_cbr1_relu
I0817 16:06:12.472439 17619 net.cpp:100] Creating Layer L1_b9_cbr1_relu
I0817 16:06:12.472445 17619 net.cpp:434] L1_b9_cbr1_relu <- L1_b9_cbr1_bn_top
I0817 16:06:12.472455 17619 net.cpp:395] L1_b9_cbr1_relu -> L1_b9_cbr1_bn_top (in-place)
I0817 16:06:12.472463 17619 net.cpp:150] Setting up L1_b9_cbr1_relu
I0817 16:06:12.472470 17619 net.cpp:157] Top shape: 125 16 32 32 (2048000)
I0817 16:06:12.472476 17619 net.cpp:165] Memory required for data: 804353500
I0817 16:06:12.472481 17619 layer_factory.hpp:77] Creating layer L1_b9_cbr2_conv
I0817 16:06:12.472491 17619 net.cpp:100] Creating Layer L1_b9_cbr2_conv
I0817 16:06:12.472496 17619 net.cpp:434] L1_b9_cbr2_conv <- L1_b9_cbr1_bn_top
I0817 16:06:12.472507 17619 net.cpp:408] L1_b9_cbr2_conv -> L1_b9_cbr2_conv_top
I0817 16:06:12.472836 17619 net.cpp:150] Setting up L1_b9_cbr2_conv
I0817 16:06:12.472851 17619 net.cpp:157] Top shape: 125 16 32 32 (2048000)
I0817 16:06:12.472856 17619 net.cpp:165] Memory required for data: 812545500
I0817 16:06:12.472864 17619 layer_factory.hpp:77] Creating layer L1_b9_cbr2_bn
I0817 16:06:12.472873 17619 net.cpp:100] Creating Layer L1_b9_cbr2_bn
I0817 16:06:12.472879 17619 net.cpp:434] L1_b9_cbr2_bn <- L1_b9_cbr2_conv_top
I0817 16:06:12.472889 17619 net.cpp:408] L1_b9_cbr2_bn -> L1_b9_cbr2_bn_top
I0817 16:06:12.473140 17619 net.cpp:150] Setting up L1_b9_cbr2_bn
I0817 16:06:12.473155 17619 net.cpp:157] Top shape: 125 16 32 32 (2048000)
I0817 16:06:12.473160 17619 net.cpp:165] Memory required for data: 820737500
I0817 16:06:12.473188 17619 layer_factory.hpp:77] Creating layer L1_b9_cbr2_scale
I0817 16:06:12.473201 17619 net.cpp:100] Creating Layer L1_b9_cbr2_scale
I0817 16:06:12.473206 17619 net.cpp:434] L1_b9_cbr2_scale <- L1_b9_cbr2_bn_top
I0817 16:06:12.473214 17619 net.cpp:395] L1_b9_cbr2_scale -> L1_b9_cbr2_bn_top (in-place)
I0817 16:06:12.473268 17619 layer_factory.hpp:77] Creating layer L1_b9_cbr2_scale
I0817 16:06:12.473413 17619 net.cpp:150] Setting up L1_b9_cbr2_scale
I0817 16:06:12.473428 17619 net.cpp:157] Top shape: 125 16 32 32 (2048000)
I0817 16:06:12.473433 17619 net.cpp:165] Memory required for data: 828929500
I0817 16:06:12.473440 17619 layer_factory.hpp:77] Creating layer L1_b9_sum_eltwise
I0817 16:06:12.473450 17619 net.cpp:100] Creating Layer L1_b9_sum_eltwise
I0817 16:06:12.473456 17619 net.cpp:434] L1_b9_sum_eltwise <- L1_b9_cbr2_bn_top
I0817 16:06:12.473464 17619 net.cpp:434] L1_b9_sum_eltwise <- L1_b8_sum_eltwise_top_L1_b8_relu_0_split_1
I0817 16:06:12.473474 17619 net.cpp:408] L1_b9_sum_eltwise -> L1_b9_sum_eltwise_top
I0817 16:06:12.473505 17619 net.cpp:150] Setting up L1_b9_sum_eltwise
I0817 16:06:12.473517 17619 net.cpp:157] Top shape: 125 16 32 32 (2048000)
I0817 16:06:12.473522 17619 net.cpp:165] Memory required for data: 837121500
I0817 16:06:12.473528 17619 layer_factory.hpp:77] Creating layer L1_b9_relu
I0817 16:06:12.473536 17619 net.cpp:100] Creating Layer L1_b9_relu
I0817 16:06:12.473541 17619 net.cpp:434] L1_b9_relu <- L1_b9_sum_eltwise_top
I0817 16:06:12.473551 17619 net.cpp:395] L1_b9_relu -> L1_b9_sum_eltwise_top (in-place)
I0817 16:06:12.473561 17619 net.cpp:150] Setting up L1_b9_relu
I0817 16:06:12.473567 17619 net.cpp:157] Top shape: 125 16 32 32 (2048000)
I0817 16:06:12.473572 17619 net.cpp:165] Memory required for data: 845313500
I0817 16:06:12.473577 17619 layer_factory.hpp:77] Creating layer L1_b9_sum_eltwise_top_L1_b9_relu_0_split
I0817 16:06:12.473583 17619 net.cpp:100] Creating Layer L1_b9_sum_eltwise_top_L1_b9_relu_0_split
I0817 16:06:12.473588 17619 net.cpp:434] L1_b9_sum_eltwise_top_L1_b9_relu_0_split <- L1_b9_sum_eltwise_top
I0817 16:06:12.473599 17619 net.cpp:408] L1_b9_sum_eltwise_top_L1_b9_relu_0_split -> L1_b9_sum_eltwise_top_L1_b9_relu_0_split_0
I0817 16:06:12.473609 17619 net.cpp:408] L1_b9_sum_eltwise_top_L1_b9_relu_0_split -> L1_b9_sum_eltwise_top_L1_b9_relu_0_split_1
I0817 16:06:12.473655 17619 net.cpp:150] Setting up L1_b9_sum_eltwise_top_L1_b9_relu_0_split
I0817 16:06:12.473666 17619 net.cpp:157] Top shape: 125 16 32 32 (2048000)
I0817 16:06:12.473673 17619 net.cpp:157] Top shape: 125 16 32 32 (2048000)
I0817 16:06:12.473678 17619 net.cpp:165] Memory required for data: 861697500
I0817 16:06:12.473683 17619 layer_factory.hpp:77] Creating layer L2_b1_cbr1_conv
I0817 16:06:12.473695 17619 net.cpp:100] Creating Layer L2_b1_cbr1_conv
I0817 16:06:12.473706 17619 net.cpp:434] L2_b1_cbr1_conv <- L1_b9_sum_eltwise_top_L1_b9_relu_0_split_0
I0817 16:06:12.473719 17619 net.cpp:408] L2_b1_cbr1_conv -> L2_b1_cbr1_conv_top
I0817 16:06:12.474040 17619 net.cpp:150] Setting up L2_b1_cbr1_conv
I0817 16:06:12.474054 17619 net.cpp:157] Top shape: 125 16 16 16 (512000)
I0817 16:06:12.474061 17619 net.cpp:165] Memory required for data: 863745500
I0817 16:06:12.474069 17619 layer_factory.hpp:77] Creating layer L2_b1_cbr1_bn
I0817 16:06:12.474078 17619 net.cpp:100] Creating Layer L2_b1_cbr1_bn
I0817 16:06:12.474084 17619 net.cpp:434] L2_b1_cbr1_bn <- L2_b1_cbr1_conv_top
I0817 16:06:12.474095 17619 net.cpp:408] L2_b1_cbr1_bn -> L2_b1_cbr1_bn_top
I0817 16:06:12.474333 17619 net.cpp:150] Setting up L2_b1_cbr1_bn
I0817 16:06:12.474345 17619 net.cpp:157] Top shape: 125 16 16 16 (512000)
I0817 16:06:12.474350 17619 net.cpp:165] Memory required for data: 865793500
I0817 16:06:12.474360 17619 layer_factory.hpp:77] Creating layer L2_b1_cbr1_scale
I0817 16:06:12.474373 17619 net.cpp:100] Creating Layer L2_b1_cbr1_scale
I0817 16:06:12.474385 17619 net.cpp:434] L2_b1_cbr1_scale <- L2_b1_cbr1_bn_top
I0817 16:06:12.474395 17619 net.cpp:395] L2_b1_cbr1_scale -> L2_b1_cbr1_bn_top (in-place)
I0817 16:06:12.474447 17619 layer_factory.hpp:77] Creating layer L2_b1_cbr1_scale
I0817 16:06:12.474587 17619 net.cpp:150] Setting up L2_b1_cbr1_scale
I0817 16:06:12.474601 17619 net.cpp:157] Top shape: 125 16 16 16 (512000)
I0817 16:06:12.474606 17619 net.cpp:165] Memory required for data: 867841500
I0817 16:06:12.474614 17619 layer_factory.hpp:77] Creating layer L2_b1_cbr1_relu
I0817 16:06:12.474624 17619 net.cpp:100] Creating Layer L2_b1_cbr1_relu
I0817 16:06:12.474630 17619 net.cpp:434] L2_b1_cbr1_relu <- L2_b1_cbr1_bn_top
I0817 16:06:12.474638 17619 net.cpp:395] L2_b1_cbr1_relu -> L2_b1_cbr1_bn_top (in-place)
I0817 16:06:12.474647 17619 net.cpp:150] Setting up L2_b1_cbr1_relu
I0817 16:06:12.474654 17619 net.cpp:157] Top shape: 125 16 16 16 (512000)
I0817 16:06:12.474658 17619 net.cpp:165] Memory required for data: 869889500
I0817 16:06:12.474663 17619 layer_factory.hpp:77] Creating layer L2_b1_cbr2_conv
I0817 16:06:12.474676 17619 net.cpp:100] Creating Layer L2_b1_cbr2_conv
I0817 16:06:12.474684 17619 net.cpp:434] L2_b1_cbr2_conv <- L2_b1_cbr1_bn_top
I0817 16:06:12.474694 17619 net.cpp:408] L2_b1_cbr2_conv -> L2_b1_cbr2_conv_top
I0817 16:06:12.475014 17619 net.cpp:150] Setting up L2_b1_cbr2_conv
I0817 16:06:12.475029 17619 net.cpp:157] Top shape: 125 16 16 16 (512000)
I0817 16:06:12.475034 17619 net.cpp:165] Memory required for data: 871937500
I0817 16:06:12.475044 17619 layer_factory.hpp:77] Creating layer L2_b1_cbr2_bn
I0817 16:06:12.475051 17619 net.cpp:100] Creating Layer L2_b1_cbr2_bn
I0817 16:06:12.475059 17619 net.cpp:434] L2_b1_cbr2_bn <- L2_b1_cbr2_conv_top
I0817 16:06:12.475070 17619 net.cpp:408] L2_b1_cbr2_bn -> L2_b1_cbr2_bn_top
I0817 16:06:12.475316 17619 net.cpp:150] Setting up L2_b1_cbr2_bn
I0817 16:06:12.475329 17619 net.cpp:157] Top shape: 125 16 16 16 (512000)
I0817 16:06:12.475333 17619 net.cpp:165] Memory required for data: 873985500
I0817 16:06:12.475344 17619 layer_factory.hpp:77] Creating layer L2_b1_cbr2_scale
I0817 16:06:12.475356 17619 net.cpp:100] Creating Layer L2_b1_cbr2_scale
I0817 16:06:12.475363 17619 net.cpp:434] L2_b1_cbr2_scale <- L2_b1_cbr2_bn_top
I0817 16:06:12.475369 17619 net.cpp:395] L2_b1_cbr2_scale -> L2_b1_cbr2_bn_top (in-place)
I0817 16:06:12.475422 17619 layer_factory.hpp:77] Creating layer L2_b1_cbr2_scale
I0817 16:06:12.475565 17619 net.cpp:150] Setting up L2_b1_cbr2_scale
I0817 16:06:12.475579 17619 net.cpp:157] Top shape: 125 16 16 16 (512000)
I0817 16:06:12.475584 17619 net.cpp:165] Memory required for data: 876033500
I0817 16:06:12.475591 17619 layer_factory.hpp:77] Creating layer L2_b1_pool
I0817 16:06:12.475602 17619 net.cpp:100] Creating Layer L2_b1_pool
I0817 16:06:12.475608 17619 net.cpp:434] L2_b1_pool <- L1_b9_sum_eltwise_top_L1_b9_relu_0_split_1
I0817 16:06:12.475620 17619 net.cpp:408] L2_b1_pool -> L2_b1_pool
I0817 16:06:12.475709 17619 net.cpp:150] Setting up L2_b1_pool
I0817 16:06:12.475728 17619 net.cpp:157] Top shape: 125 16 16 16 (512000)
I0817 16:06:12.475734 17619 net.cpp:165] Memory required for data: 878081500
I0817 16:06:12.475740 17619 layer_factory.hpp:77] Creating layer L2_b1_sum_eltwise
I0817 16:06:12.475749 17619 net.cpp:100] Creating Layer L2_b1_sum_eltwise
I0817 16:06:12.475755 17619 net.cpp:434] L2_b1_sum_eltwise <- L2_b1_cbr2_bn_top
I0817 16:06:12.475762 17619 net.cpp:434] L2_b1_sum_eltwise <- L2_b1_pool
I0817 16:06:12.475772 17619 net.cpp:408] L2_b1_sum_eltwise -> L2_b1_sum_eltwise_top
I0817 16:06:12.475806 17619 net.cpp:150] Setting up L2_b1_sum_eltwise
I0817 16:06:12.475816 17619 net.cpp:157] Top shape: 125 16 16 16 (512000)
I0817 16:06:12.475821 17619 net.cpp:165] Memory required for data: 880129500
I0817 16:06:12.475826 17619 layer_factory.hpp:77] Creating layer L2_b1_relu
I0817 16:06:12.475834 17619 net.cpp:100] Creating Layer L2_b1_relu
I0817 16:06:12.475841 17619 net.cpp:434] L2_b1_relu <- L2_b1_sum_eltwise_top
I0817 16:06:12.475847 17619 net.cpp:395] L2_b1_relu -> L2_b1_sum_eltwise_top (in-place)
I0817 16:06:12.475864 17619 net.cpp:150] Setting up L2_b1_relu
I0817 16:06:12.475872 17619 net.cpp:157] Top shape: 125 16 16 16 (512000)
I0817 16:06:12.475877 17619 net.cpp:165] Memory required for data: 882177500
I0817 16:06:12.475881 17619 layer_factory.hpp:77] Creating layer L2_b1_zeros
I0817 16:06:12.475929 17619 net.cpp:100] Creating Layer L2_b1_zeros
I0817 16:06:12.475944 17619 net.cpp:408] L2_b1_zeros -> L2_b1_zeros
I0817 16:06:12.478292 17619 net.cpp:150] Setting up L2_b1_zeros
I0817 16:06:12.478312 17619 net.cpp:157] Top shape: 125 16 16 16 (512000)
I0817 16:06:12.478317 17619 net.cpp:165] Memory required for data: 884225500
I0817 16:06:12.478322 17619 layer_factory.hpp:77] Creating layer L2_b1_concat0
I0817 16:06:12.478332 17619 net.cpp:100] Creating Layer L2_b1_concat0
I0817 16:06:12.478339 17619 net.cpp:434] L2_b1_concat0 <- L2_b1_sum_eltwise_top
I0817 16:06:12.478346 17619 net.cpp:434] L2_b1_concat0 <- L2_b1_zeros
I0817 16:06:12.478354 17619 net.cpp:408] L2_b1_concat0 -> L2_b1_concat0
I0817 16:06:12.478433 17619 net.cpp:150] Setting up L2_b1_concat0
I0817 16:06:12.478447 17619 net.cpp:157] Top shape: 125 32 16 16 (1024000)
I0817 16:06:12.478452 17619 net.cpp:165] Memory required for data: 888321500
I0817 16:06:12.478458 17619 layer_factory.hpp:77] Creating layer L2_b1_concat0_L2_b1_concat0_0_split
I0817 16:06:12.478469 17619 net.cpp:100] Creating Layer L2_b1_concat0_L2_b1_concat0_0_split
I0817 16:06:12.478476 17619 net.cpp:434] L2_b1_concat0_L2_b1_concat0_0_split <- L2_b1_concat0
I0817 16:06:12.478483 17619 net.cpp:408] L2_b1_concat0_L2_b1_concat0_0_split -> L2_b1_concat0_L2_b1_concat0_0_split_0
I0817 16:06:12.478493 17619 net.cpp:408] L2_b1_concat0_L2_b1_concat0_0_split -> L2_b1_concat0_L2_b1_concat0_0_split_1
I0817 16:06:12.478543 17619 net.cpp:150] Setting up L2_b1_concat0_L2_b1_concat0_0_split
I0817 16:06:12.478555 17619 net.cpp:157] Top shape: 125 32 16 16 (1024000)
I0817 16:06:12.478561 17619 net.cpp:157] Top shape: 125 32 16 16 (1024000)
I0817 16:06:12.478566 17619 net.cpp:165] Memory required for data: 896513500
I0817 16:06:12.478571 17619 layer_factory.hpp:77] Creating layer L2_b2_cbr1_conv
I0817 16:06:12.478585 17619 net.cpp:100] Creating Layer L2_b2_cbr1_conv
I0817 16:06:12.478592 17619 net.cpp:434] L2_b2_cbr1_conv <- L2_b1_concat0_L2_b1_concat0_0_split_0
I0817 16:06:12.478601 17619 net.cpp:408] L2_b2_cbr1_conv -> L2_b2_cbr1_conv_top
I0817 16:06:12.480047 17619 net.cpp:150] Setting up L2_b2_cbr1_conv
I0817 16:06:12.480064 17619 net.cpp:157] Top shape: 125 32 16 16 (1024000)
I0817 16:06:12.480070 17619 net.cpp:165] Memory required for data: 900609500
I0817 16:06:12.480079 17619 layer_factory.hpp:77] Creating layer L2_b2_cbr1_bn
I0817 16:06:12.480089 17619 net.cpp:100] Creating Layer L2_b2_cbr1_bn
I0817 16:06:12.480096 17619 net.cpp:434] L2_b2_cbr1_bn <- L2_b2_cbr1_conv_top
I0817 16:06:12.480108 17619 net.cpp:408] L2_b2_cbr1_bn -> L2_b2_cbr1_bn_top
I0817 16:06:12.480352 17619 net.cpp:150] Setting up L2_b2_cbr1_bn
I0817 16:06:12.480365 17619 net.cpp:157] Top shape: 125 32 16 16 (1024000)
I0817 16:06:12.480370 17619 net.cpp:165] Memory required for data: 904705500
I0817 16:06:12.480381 17619 layer_factory.hpp:77] Creating layer L2_b2_cbr1_scale
I0817 16:06:12.480392 17619 net.cpp:100] Creating Layer L2_b2_cbr1_scale
I0817 16:06:12.480399 17619 net.cpp:434] L2_b2_cbr1_scale <- L2_b2_cbr1_bn_top
I0817 16:06:12.480407 17619 net.cpp:395] L2_b2_cbr1_scale -> L2_b2_cbr1_bn_top (in-place)
I0817 16:06:12.480461 17619 layer_factory.hpp:77] Creating layer L2_b2_cbr1_scale
I0817 16:06:12.480607 17619 net.cpp:150] Setting up L2_b2_cbr1_scale
I0817 16:06:12.480620 17619 net.cpp:157] Top shape: 125 32 16 16 (1024000)
I0817 16:06:12.480626 17619 net.cpp:165] Memory required for data: 908801500
I0817 16:06:12.480635 17619 layer_factory.hpp:77] Creating layer L2_b2_cbr1_relu
I0817 16:06:12.480646 17619 net.cpp:100] Creating Layer L2_b2_cbr1_relu
I0817 16:06:12.480653 17619 net.cpp:434] L2_b2_cbr1_relu <- L2_b2_cbr1_bn_top
I0817 16:06:12.480659 17619 net.cpp:395] L2_b2_cbr1_relu -> L2_b2_cbr1_bn_top (in-place)
I0817 16:06:12.480677 17619 net.cpp:150] Setting up L2_b2_cbr1_relu
I0817 16:06:12.480685 17619 net.cpp:157] Top shape: 125 32 16 16 (1024000)
I0817 16:06:12.480690 17619 net.cpp:165] Memory required for data: 912897500
I0817 16:06:12.480695 17619 layer_factory.hpp:77] Creating layer L2_b2_cbr2_conv
I0817 16:06:12.480715 17619 net.cpp:100] Creating Layer L2_b2_cbr2_conv
I0817 16:06:12.480723 17619 net.cpp:434] L2_b2_cbr2_conv <- L2_b2_cbr1_bn_top
I0817 16:06:12.480734 17619 net.cpp:408] L2_b2_cbr2_conv -> L2_b2_cbr2_conv_top
I0817 16:06:12.481187 17619 net.cpp:150] Setting up L2_b2_cbr2_conv
I0817 16:06:12.481201 17619 net.cpp:157] Top shape: 125 32 16 16 (1024000)
I0817 16:06:12.481207 17619 net.cpp:165] Memory required for data: 916993500
I0817 16:06:12.481215 17619 layer_factory.hpp:77] Creating layer L2_b2_cbr2_bn
I0817 16:06:12.481225 17619 net.cpp:100] Creating Layer L2_b2_cbr2_bn
I0817 16:06:12.481230 17619 net.cpp:434] L2_b2_cbr2_bn <- L2_b2_cbr2_conv_top
I0817 16:06:12.481242 17619 net.cpp:408] L2_b2_cbr2_bn -> L2_b2_cbr2_bn_top
I0817 16:06:12.481487 17619 net.cpp:150] Setting up L2_b2_cbr2_bn
I0817 16:06:12.481499 17619 net.cpp:157] Top shape: 125 32 16 16 (1024000)
I0817 16:06:12.481504 17619 net.cpp:165] Memory required for data: 921089500
I0817 16:06:12.481515 17619 layer_factory.hpp:77] Creating layer L2_b2_cbr2_scale
I0817 16:06:12.481526 17619 net.cpp:100] Creating Layer L2_b2_cbr2_scale
I0817 16:06:12.481534 17619 net.cpp:434] L2_b2_cbr2_scale <- L2_b2_cbr2_bn_top
I0817 16:06:12.481540 17619 net.cpp:395] L2_b2_cbr2_scale -> L2_b2_cbr2_bn_top (in-place)
I0817 16:06:12.481595 17619 layer_factory.hpp:77] Creating layer L2_b2_cbr2_scale
I0817 16:06:12.481744 17619 net.cpp:150] Setting up L2_b2_cbr2_scale
I0817 16:06:12.481757 17619 net.cpp:157] Top shape: 125 32 16 16 (1024000)
I0817 16:06:12.481762 17619 net.cpp:165] Memory required for data: 925185500
I0817 16:06:12.481771 17619 layer_factory.hpp:77] Creating layer L2_b2_sum_eltwise
I0817 16:06:12.481783 17619 net.cpp:100] Creating Layer L2_b2_sum_eltwise
I0817 16:06:12.481789 17619 net.cpp:434] L2_b2_sum_eltwise <- L2_b2_cbr2_bn_top
I0817 16:06:12.481797 17619 net.cpp:434] L2_b2_sum_eltwise <- L2_b1_concat0_L2_b1_concat0_0_split_1
I0817 16:06:12.481804 17619 net.cpp:408] L2_b2_sum_eltwise -> L2_b2_sum_eltwise_top
I0817 16:06:12.481834 17619 net.cpp:150] Setting up L2_b2_sum_eltwise
I0817 16:06:12.481844 17619 net.cpp:157] Top shape: 125 32 16 16 (1024000)
I0817 16:06:12.481848 17619 net.cpp:165] Memory required for data: 929281500
I0817 16:06:12.481854 17619 layer_factory.hpp:77] Creating layer L2_b2_relu
I0817 16:06:12.481861 17619 net.cpp:100] Creating Layer L2_b2_relu
I0817 16:06:12.481868 17619 net.cpp:434] L2_b2_relu <- L2_b2_sum_eltwise_top
I0817 16:06:12.481874 17619 net.cpp:395] L2_b2_relu -> L2_b2_sum_eltwise_top (in-place)
I0817 16:06:12.481885 17619 net.cpp:150] Setting up L2_b2_relu
I0817 16:06:12.481894 17619 net.cpp:157] Top shape: 125 32 16 16 (1024000)
I0817 16:06:12.481897 17619 net.cpp:165] Memory required for data: 933377500
I0817 16:06:12.481902 17619 layer_factory.hpp:77] Creating layer L2_b2_sum_eltwise_top_L2_b2_relu_0_split
I0817 16:06:12.481909 17619 net.cpp:100] Creating Layer L2_b2_sum_eltwise_top_L2_b2_relu_0_split
I0817 16:06:12.481915 17619 net.cpp:434] L2_b2_sum_eltwise_top_L2_b2_relu_0_split <- L2_b2_sum_eltwise_top
I0817 16:06:12.481922 17619 net.cpp:408] L2_b2_sum_eltwise_top_L2_b2_relu_0_split -> L2_b2_sum_eltwise_top_L2_b2_relu_0_split_0
I0817 16:06:12.481930 17619 net.cpp:408] L2_b2_sum_eltwise_top_L2_b2_relu_0_split -> L2_b2_sum_eltwise_top_L2_b2_relu_0_split_1
I0817 16:06:12.481977 17619 net.cpp:150] Setting up L2_b2_sum_eltwise_top_L2_b2_relu_0_split
I0817 16:06:12.481989 17619 net.cpp:157] Top shape: 125 32 16 16 (1024000)
I0817 16:06:12.481997 17619 net.cpp:157] Top shape: 125 32 16 16 (1024000)
I0817 16:06:12.482000 17619 net.cpp:165] Memory required for data: 941569500
I0817 16:06:12.482005 17619 layer_factory.hpp:77] Creating layer L2_b3_cbr1_conv
I0817 16:06:12.482024 17619 net.cpp:100] Creating Layer L2_b3_cbr1_conv
I0817 16:06:12.482030 17619 net.cpp:434] L2_b3_cbr1_conv <- L2_b2_sum_eltwise_top_L2_b2_relu_0_split_0
I0817 16:06:12.482043 17619 net.cpp:408] L2_b3_cbr1_conv -> L2_b3_cbr1_conv_top
I0817 16:06:12.482523 17619 net.cpp:150] Setting up L2_b3_cbr1_conv
I0817 16:06:12.482556 17619 net.cpp:157] Top shape: 125 32 16 16 (1024000)
I0817 16:06:12.482563 17619 net.cpp:165] Memory required for data: 945665500
I0817 16:06:12.482573 17619 layer_factory.hpp:77] Creating layer L2_b3_cbr1_bn
I0817 16:06:12.482581 17619 net.cpp:100] Creating Layer L2_b3_cbr1_bn
I0817 16:06:12.482587 17619 net.cpp:434] L2_b3_cbr1_bn <- L2_b3_cbr1_conv_top
I0817 16:06:12.482599 17619 net.cpp:408] L2_b3_cbr1_bn -> L2_b3_cbr1_bn_top
I0817 16:06:12.482858 17619 net.cpp:150] Setting up L2_b3_cbr1_bn
I0817 16:06:12.482872 17619 net.cpp:157] Top shape: 125 32 16 16 (1024000)
I0817 16:06:12.482877 17619 net.cpp:165] Memory required for data: 949761500
I0817 16:06:12.482887 17619 layer_factory.hpp:77] Creating layer L2_b3_cbr1_scale
I0817 16:06:12.482899 17619 net.cpp:100] Creating Layer L2_b3_cbr1_scale
I0817 16:06:12.482905 17619 net.cpp:434] L2_b3_cbr1_scale <- L2_b3_cbr1_bn_top
I0817 16:06:12.482913 17619 net.cpp:395] L2_b3_cbr1_scale -> L2_b3_cbr1_bn_top (in-place)
I0817 16:06:12.482990 17619 layer_factory.hpp:77] Creating layer L2_b3_cbr1_scale
I0817 16:06:12.483136 17619 net.cpp:150] Setting up L2_b3_cbr1_scale
I0817 16:06:12.483150 17619 net.cpp:157] Top shape: 125 32 16 16 (1024000)
I0817 16:06:12.483155 17619 net.cpp:165] Memory required for data: 953857500
I0817 16:06:12.483163 17619 layer_factory.hpp:77] Creating layer L2_b3_cbr1_relu
I0817 16:06:12.483175 17619 net.cpp:100] Creating Layer L2_b3_cbr1_relu
I0817 16:06:12.483180 17619 net.cpp:434] L2_b3_cbr1_relu <- L2_b3_cbr1_bn_top
I0817 16:06:12.483188 17619 net.cpp:395] L2_b3_cbr1_relu -> L2_b3_cbr1_bn_top (in-place)
I0817 16:06:12.483197 17619 net.cpp:150] Setting up L2_b3_cbr1_relu
I0817 16:06:12.483204 17619 net.cpp:157] Top shape: 125 32 16 16 (1024000)
I0817 16:06:12.483208 17619 net.cpp:165] Memory required for data: 957953500
I0817 16:06:12.483213 17619 layer_factory.hpp:77] Creating layer L2_b3_cbr2_conv
I0817 16:06:12.483227 17619 net.cpp:100] Creating Layer L2_b3_cbr2_conv
I0817 16:06:12.483233 17619 net.cpp:434] L2_b3_cbr2_conv <- L2_b3_cbr1_bn_top
I0817 16:06:12.483244 17619 net.cpp:408] L2_b3_cbr2_conv -> L2_b3_cbr2_conv_top
I0817 16:06:12.483691 17619 net.cpp:150] Setting up L2_b3_cbr2_conv
I0817 16:06:12.483713 17619 net.cpp:157] Top shape: 125 32 16 16 (1024000)
I0817 16:06:12.483718 17619 net.cpp:165] Memory required for data: 962049500
I0817 16:06:12.483727 17619 layer_factory.hpp:77] Creating layer L2_b3_cbr2_bn
I0817 16:06:12.483736 17619 net.cpp:100] Creating Layer L2_b3_cbr2_bn
I0817 16:06:12.483742 17619 net.cpp:434] L2_b3_cbr2_bn <- L2_b3_cbr2_conv_top
I0817 16:06:12.483750 17619 net.cpp:408] L2_b3_cbr2_bn -> L2_b3_cbr2_bn_top
I0817 16:06:12.483994 17619 net.cpp:150] Setting up L2_b3_cbr2_bn
I0817 16:06:12.484007 17619 net.cpp:157] Top shape: 125 32 16 16 (1024000)
I0817 16:06:12.484012 17619 net.cpp:165] Memory required for data: 966145500
I0817 16:06:12.484022 17619 layer_factory.hpp:77] Creating layer L2_b3_cbr2_scale
I0817 16:06:12.484031 17619 net.cpp:100] Creating Layer L2_b3_cbr2_scale
I0817 16:06:12.484037 17619 net.cpp:434] L2_b3_cbr2_scale <- L2_b3_cbr2_bn_top
I0817 16:06:12.484047 17619 net.cpp:395] L2_b3_cbr2_scale -> L2_b3_cbr2_bn_top (in-place)
I0817 16:06:12.484102 17619 layer_factory.hpp:77] Creating layer L2_b3_cbr2_scale
I0817 16:06:12.484247 17619 net.cpp:150] Setting up L2_b3_cbr2_scale
I0817 16:06:12.484261 17619 net.cpp:157] Top shape: 125 32 16 16 (1024000)
I0817 16:06:12.484266 17619 net.cpp:165] Memory required for data: 970241500
I0817 16:06:12.484274 17619 layer_factory.hpp:77] Creating layer L2_b3_sum_eltwise
I0817 16:06:12.484283 17619 net.cpp:100] Creating Layer L2_b3_sum_eltwise
I0817 16:06:12.484289 17619 net.cpp:434] L2_b3_sum_eltwise <- L2_b3_cbr2_bn_top
I0817 16:06:12.484297 17619 net.cpp:434] L2_b3_sum_eltwise <- L2_b2_sum_eltwise_top_L2_b2_relu_0_split_1
I0817 16:06:12.484313 17619 net.cpp:408] L2_b3_sum_eltwise -> L2_b3_sum_eltwise_top
I0817 16:06:12.484342 17619 net.cpp:150] Setting up L2_b3_sum_eltwise
I0817 16:06:12.484354 17619 net.cpp:157] Top shape: 125 32 16 16 (1024000)
I0817 16:06:12.484359 17619 net.cpp:165] Memory required for data: 974337500
I0817 16:06:12.484364 17619 layer_factory.hpp:77] Creating layer L2_b3_relu
I0817 16:06:12.484385 17619 net.cpp:100] Creating Layer L2_b3_relu
I0817 16:06:12.484392 17619 net.cpp:434] L2_b3_relu <- L2_b3_sum_eltwise_top
I0817 16:06:12.484400 17619 net.cpp:395] L2_b3_relu -> L2_b3_sum_eltwise_top (in-place)
I0817 16:06:12.484408 17619 net.cpp:150] Setting up L2_b3_relu
I0817 16:06:12.484416 17619 net.cpp:157] Top shape: 125 32 16 16 (1024000)
I0817 16:06:12.484421 17619 net.cpp:165] Memory required for data: 978433500
I0817 16:06:12.484426 17619 layer_factory.hpp:77] Creating layer L2_b3_sum_eltwise_top_L2_b3_relu_0_split
I0817 16:06:12.484433 17619 net.cpp:100] Creating Layer L2_b3_sum_eltwise_top_L2_b3_relu_0_split
I0817 16:06:12.484438 17619 net.cpp:434] L2_b3_sum_eltwise_top_L2_b3_relu_0_split <- L2_b3_sum_eltwise_top
I0817 16:06:12.484448 17619 net.cpp:408] L2_b3_sum_eltwise_top_L2_b3_relu_0_split -> L2_b3_sum_eltwise_top_L2_b3_relu_0_split_0
I0817 16:06:12.484458 17619 net.cpp:408] L2_b3_sum_eltwise_top_L2_b3_relu_0_split -> L2_b3_sum_eltwise_top_L2_b3_relu_0_split_1
I0817 16:06:12.484503 17619 net.cpp:150] Setting up L2_b3_sum_eltwise_top_L2_b3_relu_0_split
I0817 16:06:12.484514 17619 net.cpp:157] Top shape: 125 32 16 16 (1024000)
I0817 16:06:12.484520 17619 net.cpp:157] Top shape: 125 32 16 16 (1024000)
I0817 16:06:12.484525 17619 net.cpp:165] Memory required for data: 986625500
I0817 16:06:12.484530 17619 layer_factory.hpp:77] Creating layer L2_b4_cbr1_conv
I0817 16:06:12.484547 17619 net.cpp:100] Creating Layer L2_b4_cbr1_conv
I0817 16:06:12.484553 17619 net.cpp:434] L2_b4_cbr1_conv <- L2_b3_sum_eltwise_top_L2_b3_relu_0_split_0
I0817 16:06:12.484562 17619 net.cpp:408] L2_b4_cbr1_conv -> L2_b4_cbr1_conv_top
I0817 16:06:12.485033 17619 net.cpp:150] Setting up L2_b4_cbr1_conv
I0817 16:06:12.485047 17619 net.cpp:157] Top shape: 125 32 16 16 (1024000)
I0817 16:06:12.485052 17619 net.cpp:165] Memory required for data: 990721500
I0817 16:06:12.485061 17619 layer_factory.hpp:77] Creating layer L2_b4_cbr1_bn
I0817 16:06:12.485074 17619 net.cpp:100] Creating Layer L2_b4_cbr1_bn
I0817 16:06:12.485080 17619 net.cpp:434] L2_b4_cbr1_bn <- L2_b4_cbr1_conv_top
I0817 16:06:12.485088 17619 net.cpp:408] L2_b4_cbr1_bn -> L2_b4_cbr1_bn_top
I0817 16:06:12.485330 17619 net.cpp:150] Setting up L2_b4_cbr1_bn
I0817 16:06:12.485343 17619 net.cpp:157] Top shape: 125 32 16 16 (1024000)
I0817 16:06:12.485348 17619 net.cpp:165] Memory required for data: 994817500
I0817 16:06:12.485358 17619 layer_factory.hpp:77] Creating layer L2_b4_cbr1_scale
I0817 16:06:12.485368 17619 net.cpp:100] Creating Layer L2_b4_cbr1_scale
I0817 16:06:12.485373 17619 net.cpp:434] L2_b4_cbr1_scale <- L2_b4_cbr1_bn_top
I0817 16:06:12.485383 17619 net.cpp:395] L2_b4_cbr1_scale -> L2_b4_cbr1_bn_top (in-place)
I0817 16:06:12.485437 17619 layer_factory.hpp:77] Creating layer L2_b4_cbr1_scale
I0817 16:06:12.485580 17619 net.cpp:150] Setting up L2_b4_cbr1_scale
I0817 16:06:12.485594 17619 net.cpp:157] Top shape: 125 32 16 16 (1024000)
I0817 16:06:12.485599 17619 net.cpp:165] Memory required for data: 998913500
I0817 16:06:12.485607 17619 layer_factory.hpp:77] Creating layer L2_b4_cbr1_relu
I0817 16:06:12.485615 17619 net.cpp:100] Creating Layer L2_b4_cbr1_relu
I0817 16:06:12.485621 17619 net.cpp:434] L2_b4_cbr1_relu <- L2_b4_cbr1_bn_top
I0817 16:06:12.485631 17619 net.cpp:395] L2_b4_cbr1_relu -> L2_b4_cbr1_bn_top (in-place)
I0817 16:06:12.485641 17619 net.cpp:150] Setting up L2_b4_cbr1_relu
I0817 16:06:12.485648 17619 net.cpp:157] Top shape: 125 32 16 16 (1024000)
I0817 16:06:12.485652 17619 net.cpp:165] Memory required for data: 1003009500
I0817 16:06:12.485657 17619 layer_factory.hpp:77] Creating layer L2_b4_cbr2_conv
I0817 16:06:12.485678 17619 net.cpp:100] Creating Layer L2_b4_cbr2_conv
I0817 16:06:12.485685 17619 net.cpp:434] L2_b4_cbr2_conv <- L2_b4_cbr1_bn_top
I0817 16:06:12.485693 17619 net.cpp:408] L2_b4_cbr2_conv -> L2_b4_cbr2_conv_top
I0817 16:06:12.486152 17619 net.cpp:150] Setting up L2_b4_cbr2_conv
I0817 16:06:12.486167 17619 net.cpp:157] Top shape: 125 32 16 16 (1024000)
I0817 16:06:12.486173 17619 net.cpp:165] Memory required for data: 1007105500
I0817 16:06:12.486181 17619 layer_factory.hpp:77] Creating layer L2_b4_cbr2_bn
I0817 16:06:12.486196 17619 net.cpp:100] Creating Layer L2_b4_cbr2_bn
I0817 16:06:12.486202 17619 net.cpp:434] L2_b4_cbr2_bn <- L2_b4_cbr2_conv_top
I0817 16:06:12.486212 17619 net.cpp:408] L2_b4_cbr2_bn -> L2_b4_cbr2_bn_top
I0817 16:06:12.486452 17619 net.cpp:150] Setting up L2_b4_cbr2_bn
I0817 16:06:12.486465 17619 net.cpp:157] Top shape: 125 32 16 16 (1024000)
I0817 16:06:12.486469 17619 net.cpp:165] Memory required for data: 1011201500
I0817 16:06:12.486480 17619 layer_factory.hpp:77] Creating layer L2_b4_cbr2_scale
I0817 16:06:12.486488 17619 net.cpp:100] Creating Layer L2_b4_cbr2_scale
I0817 16:06:12.486495 17619 net.cpp:434] L2_b4_cbr2_scale <- L2_b4_cbr2_bn_top
I0817 16:06:12.486502 17619 net.cpp:395] L2_b4_cbr2_scale -> L2_b4_cbr2_bn_top (in-place)
I0817 16:06:12.486560 17619 layer_factory.hpp:77] Creating layer L2_b4_cbr2_scale
I0817 16:06:12.486706 17619 net.cpp:150] Setting up L2_b4_cbr2_scale
I0817 16:06:12.486723 17619 net.cpp:157] Top shape: 125 32 16 16 (1024000)
I0817 16:06:12.486728 17619 net.cpp:165] Memory required for data: 1015297500
I0817 16:06:12.486737 17619 layer_factory.hpp:77] Creating layer L2_b4_sum_eltwise
I0817 16:06:12.486747 17619 net.cpp:100] Creating Layer L2_b4_sum_eltwise
I0817 16:06:12.486753 17619 net.cpp:434] L2_b4_sum_eltwise <- L2_b4_cbr2_bn_top
I0817 16:06:12.486759 17619 net.cpp:434] L2_b4_sum_eltwise <- L2_b3_sum_eltwise_top_L2_b3_relu_0_split_1
I0817 16:06:12.486768 17619 net.cpp:408] L2_b4_sum_eltwise -> L2_b4_sum_eltwise_top
I0817 16:06:12.486796 17619 net.cpp:150] Setting up L2_b4_sum_eltwise
I0817 16:06:12.486806 17619 net.cpp:157] Top shape: 125 32 16 16 (1024000)
I0817 16:06:12.486811 17619 net.cpp:165] Memory required for data: 1019393500
I0817 16:06:12.486816 17619 layer_factory.hpp:77] Creating layer L2_b4_relu
I0817 16:06:12.486824 17619 net.cpp:100] Creating Layer L2_b4_relu
I0817 16:06:12.486829 17619 net.cpp:434] L2_b4_relu <- L2_b4_sum_eltwise_top
I0817 16:06:12.486838 17619 net.cpp:395] L2_b4_relu -> L2_b4_sum_eltwise_top (in-place)
I0817 16:06:12.486848 17619 net.cpp:150] Setting up L2_b4_relu
I0817 16:06:12.486855 17619 net.cpp:157] Top shape: 125 32 16 16 (1024000)
I0817 16:06:12.486860 17619 net.cpp:165] Memory required for data: 1023489500
I0817 16:06:12.486865 17619 layer_factory.hpp:77] Creating layer L2_b4_sum_eltwise_top_L2_b4_relu_0_split
I0817 16:06:12.486871 17619 net.cpp:100] Creating Layer L2_b4_sum_eltwise_top_L2_b4_relu_0_split
I0817 16:06:12.486876 17619 net.cpp:434] L2_b4_sum_eltwise_top_L2_b4_relu_0_split <- L2_b4_sum_eltwise_top
I0817 16:06:12.486886 17619 net.cpp:408] L2_b4_sum_eltwise_top_L2_b4_relu_0_split -> L2_b4_sum_eltwise_top_L2_b4_relu_0_split_0
I0817 16:06:12.486896 17619 net.cpp:408] L2_b4_sum_eltwise_top_L2_b4_relu_0_split -> L2_b4_sum_eltwise_top_L2_b4_relu_0_split_1
I0817 16:06:12.486938 17619 net.cpp:150] Setting up L2_b4_sum_eltwise_top_L2_b4_relu_0_split
I0817 16:06:12.486950 17619 net.cpp:157] Top shape: 125 32 16 16 (1024000)
I0817 16:06:12.486956 17619 net.cpp:157] Top shape: 125 32 16 16 (1024000)
I0817 16:06:12.486961 17619 net.cpp:165] Memory required for data: 1031681500
I0817 16:06:12.486966 17619 layer_factory.hpp:77] Creating layer L2_b5_cbr1_conv
I0817 16:06:12.486981 17619 net.cpp:100] Creating Layer L2_b5_cbr1_conv
I0817 16:06:12.486987 17619 net.cpp:434] L2_b5_cbr1_conv <- L2_b4_sum_eltwise_top_L2_b4_relu_0_split_0
I0817 16:06:12.486996 17619 net.cpp:408] L2_b5_cbr1_conv -> L2_b5_cbr1_conv_top
I0817 16:06:12.487454 17619 net.cpp:150] Setting up L2_b5_cbr1_conv
I0817 16:06:12.487474 17619 net.cpp:157] Top shape: 125 32 16 16 (1024000)
I0817 16:06:12.487480 17619 net.cpp:165] Memory required for data: 1035777500
I0817 16:06:12.487489 17619 layer_factory.hpp:77] Creating layer L2_b5_cbr1_bn
I0817 16:06:12.487500 17619 net.cpp:100] Creating Layer L2_b5_cbr1_bn
I0817 16:06:12.487507 17619 net.cpp:434] L2_b5_cbr1_bn <- L2_b5_cbr1_conv_top
I0817 16:06:12.487515 17619 net.cpp:408] L2_b5_cbr1_bn -> L2_b5_cbr1_bn_top
I0817 16:06:12.487762 17619 net.cpp:150] Setting up L2_b5_cbr1_bn
I0817 16:06:12.487776 17619 net.cpp:157] Top shape: 125 32 16 16 (1024000)
I0817 16:06:12.487782 17619 net.cpp:165] Memory required for data: 1039873500
I0817 16:06:12.487792 17619 layer_factory.hpp:77] Creating layer L2_b5_cbr1_scale
I0817 16:06:12.487800 17619 net.cpp:100] Creating Layer L2_b5_cbr1_scale
I0817 16:06:12.487807 17619 net.cpp:434] L2_b5_cbr1_scale <- L2_b5_cbr1_bn_top
I0817 16:06:12.487813 17619 net.cpp:395] L2_b5_cbr1_scale -> L2_b5_cbr1_bn_top (in-place)
I0817 16:06:12.487870 17619 layer_factory.hpp:77] Creating layer L2_b5_cbr1_scale
I0817 16:06:12.488015 17619 net.cpp:150] Setting up L2_b5_cbr1_scale
I0817 16:06:12.488031 17619 net.cpp:157] Top shape: 125 32 16 16 (1024000)
I0817 16:06:12.488036 17619 net.cpp:165] Memory required for data: 1043969500
I0817 16:06:12.488045 17619 layer_factory.hpp:77] Creating layer L2_b5_cbr1_relu
I0817 16:06:12.488054 17619 net.cpp:100] Creating Layer L2_b5_cbr1_relu
I0817 16:06:12.488059 17619 net.cpp:434] L2_b5_cbr1_relu <- L2_b5_cbr1_bn_top
I0817 16:06:12.488066 17619 net.cpp:395] L2_b5_cbr1_relu -> L2_b5_cbr1_bn_top (in-place)
I0817 16:06:12.488075 17619 net.cpp:150] Setting up L2_b5_cbr1_relu
I0817 16:06:12.488082 17619 net.cpp:157] Top shape: 125 32 16 16 (1024000)
I0817 16:06:12.488086 17619 net.cpp:165] Memory required for data: 1048065500
I0817 16:06:12.488091 17619 layer_factory.hpp:77] Creating layer L2_b5_cbr2_conv
I0817 16:06:12.488107 17619 net.cpp:100] Creating Layer L2_b5_cbr2_conv
I0817 16:06:12.488113 17619 net.cpp:434] L2_b5_cbr2_conv <- L2_b5_cbr1_bn_top
I0817 16:06:12.488124 17619 net.cpp:408] L2_b5_cbr2_conv -> L2_b5_cbr2_conv_top
I0817 16:06:12.488584 17619 net.cpp:150] Setting up L2_b5_cbr2_conv
I0817 16:06:12.488598 17619 net.cpp:157] Top shape: 125 32 16 16 (1024000)
I0817 16:06:12.488603 17619 net.cpp:165] Memory required for data: 1052161500
I0817 16:06:12.488612 17619 layer_factory.hpp:77] Creating layer L2_b5_cbr2_bn
I0817 16:06:12.488625 17619 net.cpp:100] Creating Layer L2_b5_cbr2_bn
I0817 16:06:12.488631 17619 net.cpp:434] L2_b5_cbr2_bn <- L2_b5_cbr2_conv_top
I0817 16:06:12.488641 17619 net.cpp:408] L2_b5_cbr2_bn -> L2_b5_cbr2_bn_top
I0817 16:06:12.488886 17619 net.cpp:150] Setting up L2_b5_cbr2_bn
I0817 16:06:12.488899 17619 net.cpp:157] Top shape: 125 32 16 16 (1024000)
I0817 16:06:12.488904 17619 net.cpp:165] Memory required for data: 1056257500
I0817 16:06:12.488915 17619 layer_factory.hpp:77] Creating layer L2_b5_cbr2_scale
I0817 16:06:12.488924 17619 net.cpp:100] Creating Layer L2_b5_cbr2_scale
I0817 16:06:12.488930 17619 net.cpp:434] L2_b5_cbr2_scale <- L2_b5_cbr2_bn_top
I0817 16:06:12.488937 17619 net.cpp:395] L2_b5_cbr2_scale -> L2_b5_cbr2_bn_top (in-place)
I0817 16:06:12.488993 17619 layer_factory.hpp:77] Creating layer L2_b5_cbr2_scale
I0817 16:06:12.489135 17619 net.cpp:150] Setting up L2_b5_cbr2_scale
I0817 16:06:12.489146 17619 net.cpp:157] Top shape: 125 32 16 16 (1024000)
I0817 16:06:12.489151 17619 net.cpp:165] Memory required for data: 1060353500
I0817 16:06:12.489161 17619 layer_factory.hpp:77] Creating layer L2_b5_sum_eltwise
I0817 16:06:12.489172 17619 net.cpp:100] Creating Layer L2_b5_sum_eltwise
I0817 16:06:12.489178 17619 net.cpp:434] L2_b5_sum_eltwise <- L2_b5_cbr2_bn_top
I0817 16:06:12.489186 17619 net.cpp:434] L2_b5_sum_eltwise <- L2_b4_sum_eltwise_top_L2_b4_relu_0_split_1
I0817 16:06:12.489192 17619 net.cpp:408] L2_b5_sum_eltwise -> L2_b5_sum_eltwise_top
I0817 16:06:12.489222 17619 net.cpp:150] Setting up L2_b5_sum_eltwise
I0817 16:06:12.489231 17619 net.cpp:157] Top shape: 125 32 16 16 (1024000)
I0817 16:06:12.489243 17619 net.cpp:165] Memory required for data: 1064449500
I0817 16:06:12.489248 17619 layer_factory.hpp:77] Creating layer L2_b5_relu
I0817 16:06:12.489255 17619 net.cpp:100] Creating Layer L2_b5_relu
I0817 16:06:12.489261 17619 net.cpp:434] L2_b5_relu <- L2_b5_sum_eltwise_top
I0817 16:06:12.489271 17619 net.cpp:395] L2_b5_relu -> L2_b5_sum_eltwise_top (in-place)
I0817 16:06:12.489280 17619 net.cpp:150] Setting up L2_b5_relu
I0817 16:06:12.489287 17619 net.cpp:157] Top shape: 125 32 16 16 (1024000)
I0817 16:06:12.489292 17619 net.cpp:165] Memory required for data: 1068545500
I0817 16:06:12.489296 17619 layer_factory.hpp:77] Creating layer L2_b5_sum_eltwise_top_L2_b5_relu_0_split
I0817 16:06:12.489305 17619 net.cpp:100] Creating Layer L2_b5_sum_eltwise_top_L2_b5_relu_0_split
I0817 16:06:12.489310 17619 net.cpp:434] L2_b5_sum_eltwise_top_L2_b5_relu_0_split <- L2_b5_sum_eltwise_top
I0817 16:06:12.489316 17619 net.cpp:408] L2_b5_sum_eltwise_top_L2_b5_relu_0_split -> L2_b5_sum_eltwise_top_L2_b5_relu_0_split_0
I0817 16:06:12.489326 17619 net.cpp:408] L2_b5_sum_eltwise_top_L2_b5_relu_0_split -> L2_b5_sum_eltwise_top_L2_b5_relu_0_split_1
I0817 16:06:12.489372 17619 net.cpp:150] Setting up L2_b5_sum_eltwise_top_L2_b5_relu_0_split
I0817 16:06:12.489383 17619 net.cpp:157] Top shape: 125 32 16 16 (1024000)
I0817 16:06:12.489389 17619 net.cpp:157] Top shape: 125 32 16 16 (1024000)
I0817 16:06:12.489394 17619 net.cpp:165] Memory required for data: 1076737500
I0817 16:06:12.489399 17619 layer_factory.hpp:77] Creating layer L2_b6_cbr1_conv
I0817 16:06:12.489413 17619 net.cpp:100] Creating Layer L2_b6_cbr1_conv
I0817 16:06:12.489419 17619 net.cpp:434] L2_b6_cbr1_conv <- L2_b5_sum_eltwise_top_L2_b5_relu_0_split_0
I0817 16:06:12.489428 17619 net.cpp:408] L2_b6_cbr1_conv -> L2_b6_cbr1_conv_top
I0817 16:06:12.489898 17619 net.cpp:150] Setting up L2_b6_cbr1_conv
I0817 16:06:12.489913 17619 net.cpp:157] Top shape: 125 32 16 16 (1024000)
I0817 16:06:12.489918 17619 net.cpp:165] Memory required for data: 1080833500
I0817 16:06:12.489928 17619 layer_factory.hpp:77] Creating layer L2_b6_cbr1_bn
I0817 16:06:12.489936 17619 net.cpp:100] Creating Layer L2_b6_cbr1_bn
I0817 16:06:12.489943 17619 net.cpp:434] L2_b6_cbr1_bn <- L2_b6_cbr1_conv_top
I0817 16:06:12.489956 17619 net.cpp:408] L2_b6_cbr1_bn -> L2_b6_cbr1_bn_top
I0817 16:06:12.490198 17619 net.cpp:150] Setting up L2_b6_cbr1_bn
I0817 16:06:12.490211 17619 net.cpp:157] Top shape: 125 32 16 16 (1024000)
I0817 16:06:12.490216 17619 net.cpp:165] Memory required for data: 1084929500
I0817 16:06:12.490226 17619 layer_factory.hpp:77] Creating layer L2_b6_cbr1_scale
I0817 16:06:12.490236 17619 net.cpp:100] Creating Layer L2_b6_cbr1_scale
I0817 16:06:12.490242 17619 net.cpp:434] L2_b6_cbr1_scale <- L2_b6_cbr1_bn_top
I0817 16:06:12.490249 17619 net.cpp:395] L2_b6_cbr1_scale -> L2_b6_cbr1_bn_top (in-place)
I0817 16:06:12.490304 17619 layer_factory.hpp:77] Creating layer L2_b6_cbr1_scale
I0817 16:06:12.490445 17619 net.cpp:150] Setting up L2_b6_cbr1_scale
I0817 16:06:12.490460 17619 net.cpp:157] Top shape: 125 32 16 16 (1024000)
I0817 16:06:12.490465 17619 net.cpp:165] Memory required for data: 1089025500
I0817 16:06:12.490474 17619 layer_factory.hpp:77] Creating layer L2_b6_cbr1_relu
I0817 16:06:12.490483 17619 net.cpp:100] Creating Layer L2_b6_cbr1_relu
I0817 16:06:12.490489 17619 net.cpp:434] L2_b6_cbr1_relu <- L2_b6_cbr1_bn_top
I0817 16:06:12.490495 17619 net.cpp:395] L2_b6_cbr1_relu -> L2_b6_cbr1_bn_top (in-place)
I0817 16:06:12.490504 17619 net.cpp:150] Setting up L2_b6_cbr1_relu
I0817 16:06:12.490511 17619 net.cpp:157] Top shape: 125 32 16 16 (1024000)
I0817 16:06:12.490516 17619 net.cpp:165] Memory required for data: 1093121500
I0817 16:06:12.490521 17619 layer_factory.hpp:77] Creating layer L2_b6_cbr2_conv
I0817 16:06:12.490535 17619 net.cpp:100] Creating Layer L2_b6_cbr2_conv
I0817 16:06:12.490540 17619 net.cpp:434] L2_b6_cbr2_conv <- L2_b6_cbr1_bn_top
I0817 16:06:12.490551 17619 net.cpp:408] L2_b6_cbr2_conv -> L2_b6_cbr2_conv_top
I0817 16:06:12.491016 17619 net.cpp:150] Setting up L2_b6_cbr2_conv
I0817 16:06:12.491037 17619 net.cpp:157] Top shape: 125 32 16 16 (1024000)
I0817 16:06:12.491044 17619 net.cpp:165] Memory required for data: 1097217500
I0817 16:06:12.491052 17619 layer_factory.hpp:77] Creating layer L2_b6_cbr2_bn
I0817 16:06:12.491065 17619 net.cpp:100] Creating Layer L2_b6_cbr2_bn
I0817 16:06:12.491070 17619 net.cpp:434] L2_b6_cbr2_bn <- L2_b6_cbr2_conv_top
I0817 16:06:12.491081 17619 net.cpp:408] L2_b6_cbr2_bn -> L2_b6_cbr2_bn_top
I0817 16:06:12.491322 17619 net.cpp:150] Setting up L2_b6_cbr2_bn
I0817 16:06:12.491335 17619 net.cpp:157] Top shape: 125 32 16 16 (1024000)
I0817 16:06:12.491339 17619 net.cpp:165] Memory required for data: 1101313500
I0817 16:06:12.491350 17619 layer_factory.hpp:77] Creating layer L2_b6_cbr2_scale
I0817 16:06:12.491358 17619 net.cpp:100] Creating Layer L2_b6_cbr2_scale
I0817 16:06:12.491364 17619 net.cpp:434] L2_b6_cbr2_scale <- L2_b6_cbr2_bn_top
I0817 16:06:12.491372 17619 net.cpp:395] L2_b6_cbr2_scale -> L2_b6_cbr2_bn_top (in-place)
I0817 16:06:12.491431 17619 layer_factory.hpp:77] Creating layer L2_b6_cbr2_scale
I0817 16:06:12.491574 17619 net.cpp:150] Setting up L2_b6_cbr2_scale
I0817 16:06:12.491586 17619 net.cpp:157] Top shape: 125 32 16 16 (1024000)
I0817 16:06:12.491591 17619 net.cpp:165] Memory required for data: 1105409500
I0817 16:06:12.491600 17619 layer_factory.hpp:77] Creating layer L2_b6_sum_eltwise
I0817 16:06:12.491611 17619 net.cpp:100] Creating Layer L2_b6_sum_eltwise
I0817 16:06:12.491618 17619 net.cpp:434] L2_b6_sum_eltwise <- L2_b6_cbr2_bn_top
I0817 16:06:12.491626 17619 net.cpp:434] L2_b6_sum_eltwise <- L2_b5_sum_eltwise_top_L2_b5_relu_0_split_1
I0817 16:06:12.491632 17619 net.cpp:408] L2_b6_sum_eltwise -> L2_b6_sum_eltwise_top
I0817 16:06:12.491659 17619 net.cpp:150] Setting up L2_b6_sum_eltwise
I0817 16:06:12.491668 17619 net.cpp:157] Top shape: 125 32 16 16 (1024000)
I0817 16:06:12.491673 17619 net.cpp:165] Memory required for data: 1109505500
I0817 16:06:12.491678 17619 layer_factory.hpp:77] Creating layer L2_b6_relu
I0817 16:06:12.491688 17619 net.cpp:100] Creating Layer L2_b6_relu
I0817 16:06:12.491694 17619 net.cpp:434] L2_b6_relu <- L2_b6_sum_eltwise_top
I0817 16:06:12.491708 17619 net.cpp:395] L2_b6_relu -> L2_b6_sum_eltwise_top (in-place)
I0817 16:06:12.491717 17619 net.cpp:150] Setting up L2_b6_relu
I0817 16:06:12.491725 17619 net.cpp:157] Top shape: 125 32 16 16 (1024000)
I0817 16:06:12.491729 17619 net.cpp:165] Memory required for data: 1113601500
I0817 16:06:12.491734 17619 layer_factory.hpp:77] Creating layer L2_b6_sum_eltwise_top_L2_b6_relu_0_split
I0817 16:06:12.491742 17619 net.cpp:100] Creating Layer L2_b6_sum_eltwise_top_L2_b6_relu_0_split
I0817 16:06:12.491747 17619 net.cpp:434] L2_b6_sum_eltwise_top_L2_b6_relu_0_split <- L2_b6_sum_eltwise_top
I0817 16:06:12.491755 17619 net.cpp:408] L2_b6_sum_eltwise_top_L2_b6_relu_0_split -> L2_b6_sum_eltwise_top_L2_b6_relu_0_split_0
I0817 16:06:12.491763 17619 net.cpp:408] L2_b6_sum_eltwise_top_L2_b6_relu_0_split -> L2_b6_sum_eltwise_top_L2_b6_relu_0_split_1
I0817 16:06:12.491811 17619 net.cpp:150] Setting up L2_b6_sum_eltwise_top_L2_b6_relu_0_split
I0817 16:06:12.491822 17619 net.cpp:157] Top shape: 125 32 16 16 (1024000)
I0817 16:06:12.491828 17619 net.cpp:157] Top shape: 125 32 16 16 (1024000)
I0817 16:06:12.491833 17619 net.cpp:165] Memory required for data: 1121793500
I0817 16:06:12.491838 17619 layer_factory.hpp:77] Creating layer L2_b7_cbr1_conv
I0817 16:06:12.491852 17619 net.cpp:100] Creating Layer L2_b7_cbr1_conv
I0817 16:06:12.491858 17619 net.cpp:434] L2_b7_cbr1_conv <- L2_b6_sum_eltwise_top_L2_b6_relu_0_split_0
I0817 16:06:12.491868 17619 net.cpp:408] L2_b7_cbr1_conv -> L2_b7_cbr1_conv_top
I0817 16:06:12.492331 17619 net.cpp:150] Setting up L2_b7_cbr1_conv
I0817 16:06:12.492346 17619 net.cpp:157] Top shape: 125 32 16 16 (1024000)
I0817 16:06:12.492350 17619 net.cpp:165] Memory required for data: 1125889500
I0817 16:06:12.492358 17619 layer_factory.hpp:77] Creating layer L2_b7_cbr1_bn
I0817 16:06:12.492370 17619 net.cpp:100] Creating Layer L2_b7_cbr1_bn
I0817 16:06:12.492383 17619 net.cpp:434] L2_b7_cbr1_bn <- L2_b7_cbr1_conv_top
I0817 16:06:12.492396 17619 net.cpp:408] L2_b7_cbr1_bn -> L2_b7_cbr1_bn_top
I0817 16:06:12.492640 17619 net.cpp:150] Setting up L2_b7_cbr1_bn
I0817 16:06:12.492653 17619 net.cpp:157] Top shape: 125 32 16 16 (1024000)
I0817 16:06:12.492658 17619 net.cpp:165] Memory required for data: 1129985500
I0817 16:06:12.492668 17619 layer_factory.hpp:77] Creating layer L2_b7_cbr1_scale
I0817 16:06:12.492677 17619 net.cpp:100] Creating Layer L2_b7_cbr1_scale
I0817 16:06:12.492683 17619 net.cpp:434] L2_b7_cbr1_scale <- L2_b7_cbr1_bn_top
I0817 16:06:12.492691 17619 net.cpp:395] L2_b7_cbr1_scale -> L2_b7_cbr1_bn_top (in-place)
I0817 16:06:12.492756 17619 layer_factory.hpp:77] Creating layer L2_b7_cbr1_scale
I0817 16:06:12.492903 17619 net.cpp:150] Setting up L2_b7_cbr1_scale
I0817 16:06:12.492916 17619 net.cpp:157] Top shape: 125 32 16 16 (1024000)
I0817 16:06:12.492921 17619 net.cpp:165] Memory required for data: 1134081500
I0817 16:06:12.492930 17619 layer_factory.hpp:77] Creating layer L2_b7_cbr1_relu
I0817 16:06:12.492940 17619 net.cpp:100] Creating Layer L2_b7_cbr1_relu
I0817 16:06:12.492947 17619 net.cpp:434] L2_b7_cbr1_relu <- L2_b7_cbr1_bn_top
I0817 16:06:12.492954 17619 net.cpp:395] L2_b7_cbr1_relu -> L2_b7_cbr1_bn_top (in-place)
I0817 16:06:12.492964 17619 net.cpp:150] Setting up L2_b7_cbr1_relu
I0817 16:06:12.492970 17619 net.cpp:157] Top shape: 125 32 16 16 (1024000)
I0817 16:06:12.492975 17619 net.cpp:165] Memory required for data: 1138177500
I0817 16:06:12.492980 17619 layer_factory.hpp:77] Creating layer L2_b7_cbr2_conv
I0817 16:06:12.492995 17619 net.cpp:100] Creating Layer L2_b7_cbr2_conv
I0817 16:06:12.493001 17619 net.cpp:434] L2_b7_cbr2_conv <- L2_b7_cbr1_bn_top
I0817 16:06:12.493012 17619 net.cpp:408] L2_b7_cbr2_conv -> L2_b7_cbr2_conv_top
I0817 16:06:12.493480 17619 net.cpp:150] Setting up L2_b7_cbr2_conv
I0817 16:06:12.493494 17619 net.cpp:157] Top shape: 125 32 16 16 (1024000)
I0817 16:06:12.493499 17619 net.cpp:165] Memory required for data: 1142273500
I0817 16:06:12.493508 17619 layer_factory.hpp:77] Creating layer L2_b7_cbr2_bn
I0817 16:06:12.493520 17619 net.cpp:100] Creating Layer L2_b7_cbr2_bn
I0817 16:06:12.493526 17619 net.cpp:434] L2_b7_cbr2_bn <- L2_b7_cbr2_conv_top
I0817 16:06:12.493537 17619 net.cpp:408] L2_b7_cbr2_bn -> L2_b7_cbr2_bn_top
I0817 16:06:12.493789 17619 net.cpp:150] Setting up L2_b7_cbr2_bn
I0817 16:06:12.493808 17619 net.cpp:157] Top shape: 125 32 16 16 (1024000)
I0817 16:06:12.493813 17619 net.cpp:165] Memory required for data: 1146369500
I0817 16:06:12.493822 17619 layer_factory.hpp:77] Creating layer L2_b7_cbr2_scale
I0817 16:06:12.493831 17619 net.cpp:100] Creating Layer L2_b7_cbr2_scale
I0817 16:06:12.493837 17619 net.cpp:434] L2_b7_cbr2_scale <- L2_b7_cbr2_bn_top
I0817 16:06:12.493845 17619 net.cpp:395] L2_b7_cbr2_scale -> L2_b7_cbr2_bn_top (in-place)
I0817 16:06:12.493902 17619 layer_factory.hpp:77] Creating layer L2_b7_cbr2_scale
I0817 16:06:12.494048 17619 net.cpp:150] Setting up L2_b7_cbr2_scale
I0817 16:06:12.494061 17619 net.cpp:157] Top shape: 125 32 16 16 (1024000)
I0817 16:06:12.494066 17619 net.cpp:165] Memory required for data: 1150465500
I0817 16:06:12.494076 17619 layer_factory.hpp:77] Creating layer L2_b7_sum_eltwise
I0817 16:06:12.494083 17619 net.cpp:100] Creating Layer L2_b7_sum_eltwise
I0817 16:06:12.494093 17619 net.cpp:434] L2_b7_sum_eltwise <- L2_b7_cbr2_bn_top
I0817 16:06:12.494101 17619 net.cpp:434] L2_b7_sum_eltwise <- L2_b6_sum_eltwise_top_L2_b6_relu_0_split_1
I0817 16:06:12.494107 17619 net.cpp:408] L2_b7_sum_eltwise -> L2_b7_sum_eltwise_top
I0817 16:06:12.494134 17619 net.cpp:150] Setting up L2_b7_sum_eltwise
I0817 16:06:12.494143 17619 net.cpp:157] Top shape: 125 32 16 16 (1024000)
I0817 16:06:12.494148 17619 net.cpp:165] Memory required for data: 1154561500
I0817 16:06:12.494153 17619 layer_factory.hpp:77] Creating layer L2_b7_relu
I0817 16:06:12.494163 17619 net.cpp:100] Creating Layer L2_b7_relu
I0817 16:06:12.494169 17619 net.cpp:434] L2_b7_relu <- L2_b7_sum_eltwise_top
I0817 16:06:12.494184 17619 net.cpp:395] L2_b7_relu -> L2_b7_sum_eltwise_top (in-place)
I0817 16:06:12.494194 17619 net.cpp:150] Setting up L2_b7_relu
I0817 16:06:12.494200 17619 net.cpp:157] Top shape: 125 32 16 16 (1024000)
I0817 16:06:12.494204 17619 net.cpp:165] Memory required for data: 1158657500
I0817 16:06:12.494210 17619 layer_factory.hpp:77] Creating layer L2_b7_sum_eltwise_top_L2_b7_relu_0_split
I0817 16:06:12.494216 17619 net.cpp:100] Creating Layer L2_b7_sum_eltwise_top_L2_b7_relu_0_split
I0817 16:06:12.494221 17619 net.cpp:434] L2_b7_sum_eltwise_top_L2_b7_relu_0_split <- L2_b7_sum_eltwise_top
I0817 16:06:12.494228 17619 net.cpp:408] L2_b7_sum_eltwise_top_L2_b7_relu_0_split -> L2_b7_sum_eltwise_top_L2_b7_relu_0_split_0
I0817 16:06:12.494238 17619 net.cpp:408] L2_b7_sum_eltwise_top_L2_b7_relu_0_split -> L2_b7_sum_eltwise_top_L2_b7_relu_0_split_1
I0817 16:06:12.494285 17619 net.cpp:150] Setting up L2_b7_sum_eltwise_top_L2_b7_relu_0_split
I0817 16:06:12.494297 17619 net.cpp:157] Top shape: 125 32 16 16 (1024000)
I0817 16:06:12.494303 17619 net.cpp:157] Top shape: 125 32 16 16 (1024000)
I0817 16:06:12.494308 17619 net.cpp:165] Memory required for data: 1166849500
I0817 16:06:12.494313 17619 layer_factory.hpp:77] Creating layer L2_b8_cbr1_conv
I0817 16:06:12.494328 17619 net.cpp:100] Creating Layer L2_b8_cbr1_conv
I0817 16:06:12.494334 17619 net.cpp:434] L2_b8_cbr1_conv <- L2_b7_sum_eltwise_top_L2_b7_relu_0_split_0
I0817 16:06:12.494343 17619 net.cpp:408] L2_b8_cbr1_conv -> L2_b8_cbr1_conv_top
I0817 16:06:12.494818 17619 net.cpp:150] Setting up L2_b8_cbr1_conv
I0817 16:06:12.494832 17619 net.cpp:157] Top shape: 125 32 16 16 (1024000)
I0817 16:06:12.494838 17619 net.cpp:165] Memory required for data: 1170945500
I0817 16:06:12.494846 17619 layer_factory.hpp:77] Creating layer L2_b8_cbr1_bn
I0817 16:06:12.494858 17619 net.cpp:100] Creating Layer L2_b8_cbr1_bn
I0817 16:06:12.494864 17619 net.cpp:434] L2_b8_cbr1_bn <- L2_b8_cbr1_conv_top
I0817 16:06:12.494875 17619 net.cpp:408] L2_b8_cbr1_bn -> L2_b8_cbr1_bn_top
I0817 16:06:12.495127 17619 net.cpp:150] Setting up L2_b8_cbr1_bn
I0817 16:06:12.495141 17619 net.cpp:157] Top shape: 125 32 16 16 (1024000)
I0817 16:06:12.495146 17619 net.cpp:165] Memory required for data: 1175041500
I0817 16:06:12.495156 17619 layer_factory.hpp:77] Creating layer L2_b8_cbr1_scale
I0817 16:06:12.495164 17619 net.cpp:100] Creating Layer L2_b8_cbr1_scale
I0817 16:06:12.495172 17619 net.cpp:434] L2_b8_cbr1_scale <- L2_b8_cbr1_bn_top
I0817 16:06:12.495178 17619 net.cpp:395] L2_b8_cbr1_scale -> L2_b8_cbr1_bn_top (in-place)
I0817 16:06:12.495236 17619 layer_factory.hpp:77] Creating layer L2_b8_cbr1_scale
I0817 16:06:12.495386 17619 net.cpp:150] Setting up L2_b8_cbr1_scale
I0817 16:06:12.495399 17619 net.cpp:157] Top shape: 125 32 16 16 (1024000)
I0817 16:06:12.495404 17619 net.cpp:165] Memory required for data: 1179137500
I0817 16:06:12.495414 17619 layer_factory.hpp:77] Creating layer L2_b8_cbr1_relu
I0817 16:06:12.495424 17619 net.cpp:100] Creating Layer L2_b8_cbr1_relu
I0817 16:06:12.495430 17619 net.cpp:434] L2_b8_cbr1_relu <- L2_b8_cbr1_bn_top
I0817 16:06:12.495437 17619 net.cpp:395] L2_b8_cbr1_relu -> L2_b8_cbr1_bn_top (in-place)
I0817 16:06:12.495446 17619 net.cpp:150] Setting up L2_b8_cbr1_relu
I0817 16:06:12.495453 17619 net.cpp:157] Top shape: 125 32 16 16 (1024000)
I0817 16:06:12.495458 17619 net.cpp:165] Memory required for data: 1183233500
I0817 16:06:12.495463 17619 layer_factory.hpp:77] Creating layer L2_b8_cbr2_conv
I0817 16:06:12.495476 17619 net.cpp:100] Creating Layer L2_b8_cbr2_conv
I0817 16:06:12.495483 17619 net.cpp:434] L2_b8_cbr2_conv <- L2_b8_cbr1_bn_top
I0817 16:06:12.495491 17619 net.cpp:408] L2_b8_cbr2_conv -> L2_b8_cbr2_conv_top
I0817 16:06:12.495965 17619 net.cpp:150] Setting up L2_b8_cbr2_conv
I0817 16:06:12.495980 17619 net.cpp:157] Top shape: 125 32 16 16 (1024000)
I0817 16:06:12.495985 17619 net.cpp:165] Memory required for data: 1187329500
I0817 16:06:12.495993 17619 layer_factory.hpp:77] Creating layer L2_b8_cbr2_bn
I0817 16:06:12.496004 17619 net.cpp:100] Creating Layer L2_b8_cbr2_bn
I0817 16:06:12.496019 17619 net.cpp:434] L2_b8_cbr2_bn <- L2_b8_cbr2_conv_top
I0817 16:06:12.496027 17619 net.cpp:408] L2_b8_cbr2_bn -> L2_b8_cbr2_bn_top
I0817 16:06:12.496282 17619 net.cpp:150] Setting up L2_b8_cbr2_bn
I0817 16:06:12.496299 17619 net.cpp:157] Top shape: 125 32 16 16 (1024000)
I0817 16:06:12.496304 17619 net.cpp:165] Memory required for data: 1191425500
I0817 16:06:12.496315 17619 layer_factory.hpp:77] Creating layer L2_b8_cbr2_scale
I0817 16:06:12.496322 17619 net.cpp:100] Creating Layer L2_b8_cbr2_scale
I0817 16:06:12.496330 17619 net.cpp:434] L2_b8_cbr2_scale <- L2_b8_cbr2_bn_top
I0817 16:06:12.496336 17619 net.cpp:395] L2_b8_cbr2_scale -> L2_b8_cbr2_bn_top (in-place)
I0817 16:06:12.496392 17619 layer_factory.hpp:77] Creating layer L2_b8_cbr2_scale
I0817 16:06:12.496546 17619 net.cpp:150] Setting up L2_b8_cbr2_scale
I0817 16:06:12.496558 17619 net.cpp:157] Top shape: 125 32 16 16 (1024000)
I0817 16:06:12.496563 17619 net.cpp:165] Memory required for data: 1195521500
I0817 16:06:12.496572 17619 layer_factory.hpp:77] Creating layer L2_b8_sum_eltwise
I0817 16:06:12.496580 17619 net.cpp:100] Creating Layer L2_b8_sum_eltwise
I0817 16:06:12.496587 17619 net.cpp:434] L2_b8_sum_eltwise <- L2_b8_cbr2_bn_top
I0817 16:06:12.496593 17619 net.cpp:434] L2_b8_sum_eltwise <- L2_b7_sum_eltwise_top_L2_b7_relu_0_split_1
I0817 16:06:12.496604 17619 net.cpp:408] L2_b8_sum_eltwise -> L2_b8_sum_eltwise_top
I0817 16:06:12.496631 17619 net.cpp:150] Setting up L2_b8_sum_eltwise
I0817 16:06:12.496640 17619 net.cpp:157] Top shape: 125 32 16 16 (1024000)
I0817 16:06:12.496645 17619 net.cpp:165] Memory required for data: 1199617500
I0817 16:06:12.496650 17619 layer_factory.hpp:77] Creating layer L2_b8_relu
I0817 16:06:12.496661 17619 net.cpp:100] Creating Layer L2_b8_relu
I0817 16:06:12.496667 17619 net.cpp:434] L2_b8_relu <- L2_b8_sum_eltwise_top
I0817 16:06:12.496675 17619 net.cpp:395] L2_b8_relu -> L2_b8_sum_eltwise_top (in-place)
I0817 16:06:12.496683 17619 net.cpp:150] Setting up L2_b8_relu
I0817 16:06:12.496690 17619 net.cpp:157] Top shape: 125 32 16 16 (1024000)
I0817 16:06:12.496695 17619 net.cpp:165] Memory required for data: 1203713500
I0817 16:06:12.496706 17619 layer_factory.hpp:77] Creating layer L2_b8_sum_eltwise_top_L2_b8_relu_0_split
I0817 16:06:12.496713 17619 net.cpp:100] Creating Layer L2_b8_sum_eltwise_top_L2_b8_relu_0_split
I0817 16:06:12.496719 17619 net.cpp:434] L2_b8_sum_eltwise_top_L2_b8_relu_0_split <- L2_b8_sum_eltwise_top
I0817 16:06:12.496726 17619 net.cpp:408] L2_b8_sum_eltwise_top_L2_b8_relu_0_split -> L2_b8_sum_eltwise_top_L2_b8_relu_0_split_0
I0817 16:06:12.496749 17619 net.cpp:408] L2_b8_sum_eltwise_top_L2_b8_relu_0_split -> L2_b8_sum_eltwise_top_L2_b8_relu_0_split_1
I0817 16:06:12.496799 17619 net.cpp:150] Setting up L2_b8_sum_eltwise_top_L2_b8_relu_0_split
I0817 16:06:12.496812 17619 net.cpp:157] Top shape: 125 32 16 16 (1024000)
I0817 16:06:12.496819 17619 net.cpp:157] Top shape: 125 32 16 16 (1024000)
I0817 16:06:12.496824 17619 net.cpp:165] Memory required for data: 1211905500
I0817 16:06:12.496829 17619 layer_factory.hpp:77] Creating layer L2_b9_cbr1_conv
I0817 16:06:12.496840 17619 net.cpp:100] Creating Layer L2_b9_cbr1_conv
I0817 16:06:12.496846 17619 net.cpp:434] L2_b9_cbr1_conv <- L2_b8_sum_eltwise_top_L2_b8_relu_0_split_0
I0817 16:06:12.496860 17619 net.cpp:408] L2_b9_cbr1_conv -> L2_b9_cbr1_conv_top
I0817 16:06:12.497329 17619 net.cpp:150] Setting up L2_b9_cbr1_conv
I0817 16:06:12.497344 17619 net.cpp:157] Top shape: 125 32 16 16 (1024000)
I0817 16:06:12.497349 17619 net.cpp:165] Memory required for data: 1216001500
I0817 16:06:12.497356 17619 layer_factory.hpp:77] Creating layer L2_b9_cbr1_bn
I0817 16:06:12.497369 17619 net.cpp:100] Creating Layer L2_b9_cbr1_bn
I0817 16:06:12.497375 17619 net.cpp:434] L2_b9_cbr1_bn <- L2_b9_cbr1_conv_top
I0817 16:06:12.497383 17619 net.cpp:408] L2_b9_cbr1_bn -> L2_b9_cbr1_bn_top
I0817 16:06:12.497632 17619 net.cpp:150] Setting up L2_b9_cbr1_bn
I0817 16:06:12.497647 17619 net.cpp:157] Top shape: 125 32 16 16 (1024000)
I0817 16:06:12.497651 17619 net.cpp:165] Memory required for data: 1220097500
I0817 16:06:12.497669 17619 layer_factory.hpp:77] Creating layer L2_b9_cbr1_scale
I0817 16:06:12.497678 17619 net.cpp:100] Creating Layer L2_b9_cbr1_scale
I0817 16:06:12.497684 17619 net.cpp:434] L2_b9_cbr1_scale <- L2_b9_cbr1_bn_top
I0817 16:06:12.497691 17619 net.cpp:395] L2_b9_cbr1_scale -> L2_b9_cbr1_bn_top (in-place)
I0817 16:06:12.497753 17619 layer_factory.hpp:77] Creating layer L2_b9_cbr1_scale
I0817 16:06:12.497906 17619 net.cpp:150] Setting up L2_b9_cbr1_scale
I0817 16:06:12.497920 17619 net.cpp:157] Top shape: 125 32 16 16 (1024000)
I0817 16:06:12.497925 17619 net.cpp:165] Memory required for data: 1224193500
I0817 16:06:12.497933 17619 layer_factory.hpp:77] Creating layer L2_b9_cbr1_relu
I0817 16:06:12.497941 17619 net.cpp:100] Creating Layer L2_b9_cbr1_relu
I0817 16:06:12.497947 17619 net.cpp:434] L2_b9_cbr1_relu <- L2_b9_cbr1_bn_top
I0817 16:06:12.497957 17619 net.cpp:395] L2_b9_cbr1_relu -> L2_b9_cbr1_bn_top (in-place)
I0817 16:06:12.497967 17619 net.cpp:150] Setting up L2_b9_cbr1_relu
I0817 16:06:12.497974 17619 net.cpp:157] Top shape: 125 32 16 16 (1024000)
I0817 16:06:12.497979 17619 net.cpp:165] Memory required for data: 1228289500
I0817 16:06:12.497983 17619 layer_factory.hpp:77] Creating layer L2_b9_cbr2_conv
I0817 16:06:12.497995 17619 net.cpp:100] Creating Layer L2_b9_cbr2_conv
I0817 16:06:12.498000 17619 net.cpp:434] L2_b9_cbr2_conv <- L2_b9_cbr1_bn_top
I0817 16:06:12.498011 17619 net.cpp:408] L2_b9_cbr2_conv -> L2_b9_cbr2_conv_top
I0817 16:06:12.498476 17619 net.cpp:150] Setting up L2_b9_cbr2_conv
I0817 16:06:12.498491 17619 net.cpp:157] Top shape: 125 32 16 16 (1024000)
I0817 16:06:12.498495 17619 net.cpp:165] Memory required for data: 1232385500
I0817 16:06:12.498504 17619 layer_factory.hpp:77] Creating layer L2_b9_cbr2_bn
I0817 16:06:12.498513 17619 net.cpp:100] Creating Layer L2_b9_cbr2_bn
I0817 16:06:12.498520 17619 net.cpp:434] L2_b9_cbr2_bn <- L2_b9_cbr2_conv_top
I0817 16:06:12.498531 17619 net.cpp:408] L2_b9_cbr2_bn -> L2_b9_cbr2_bn_top
I0817 16:06:12.498795 17619 net.cpp:150] Setting up L2_b9_cbr2_bn
I0817 16:06:12.498808 17619 net.cpp:157] Top shape: 125 32 16 16 (1024000)
I0817 16:06:12.498813 17619 net.cpp:165] Memory required for data: 1236481500
I0817 16:06:12.498857 17619 layer_factory.hpp:77] Creating layer L2_b9_cbr2_scale
I0817 16:06:12.498869 17619 net.cpp:100] Creating Layer L2_b9_cbr2_scale
I0817 16:06:12.498875 17619 net.cpp:434] L2_b9_cbr2_scale <- L2_b9_cbr2_bn_top
I0817 16:06:12.498883 17619 net.cpp:395] L2_b9_cbr2_scale -> L2_b9_cbr2_bn_top (in-place)
I0817 16:06:12.498944 17619 layer_factory.hpp:77] Creating layer L2_b9_cbr2_scale
I0817 16:06:12.499091 17619 net.cpp:150] Setting up L2_b9_cbr2_scale
I0817 16:06:12.499109 17619 net.cpp:157] Top shape: 125 32 16 16 (1024000)
I0817 16:06:12.499114 17619 net.cpp:165] Memory required for data: 1240577500
I0817 16:06:12.499122 17619 layer_factory.hpp:77] Creating layer L2_b9_sum_eltwise
I0817 16:06:12.499132 17619 net.cpp:100] Creating Layer L2_b9_sum_eltwise
I0817 16:06:12.499138 17619 net.cpp:434] L2_b9_sum_eltwise <- L2_b9_cbr2_bn_top
I0817 16:06:12.499145 17619 net.cpp:434] L2_b9_sum_eltwise <- L2_b8_sum_eltwise_top_L2_b8_relu_0_split_1
I0817 16:06:12.499153 17619 net.cpp:408] L2_b9_sum_eltwise -> L2_b9_sum_eltwise_top
I0817 16:06:12.499183 17619 net.cpp:150] Setting up L2_b9_sum_eltwise
I0817 16:06:12.499195 17619 net.cpp:157] Top shape: 125 32 16 16 (1024000)
I0817 16:06:12.499200 17619 net.cpp:165] Memory required for data: 1244673500
I0817 16:06:12.499205 17619 layer_factory.hpp:77] Creating layer L2_b9_relu
I0817 16:06:12.499213 17619 net.cpp:100] Creating Layer L2_b9_relu
I0817 16:06:12.499219 17619 net.cpp:434] L2_b9_relu <- L2_b9_sum_eltwise_top
I0817 16:06:12.499229 17619 net.cpp:395] L2_b9_relu -> L2_b9_sum_eltwise_top (in-place)
I0817 16:06:12.499238 17619 net.cpp:150] Setting up L2_b9_relu
I0817 16:06:12.499245 17619 net.cpp:157] Top shape: 125 32 16 16 (1024000)
I0817 16:06:12.499250 17619 net.cpp:165] Memory required for data: 1248769500
I0817 16:06:12.499255 17619 layer_factory.hpp:77] Creating layer L2_b9_sum_eltwise_top_L2_b9_relu_0_split
I0817 16:06:12.499269 17619 net.cpp:100] Creating Layer L2_b9_sum_eltwise_top_L2_b9_relu_0_split
I0817 16:06:12.499275 17619 net.cpp:434] L2_b9_sum_eltwise_top_L2_b9_relu_0_split <- L2_b9_sum_eltwise_top
I0817 16:06:12.499285 17619 net.cpp:408] L2_b9_sum_eltwise_top_L2_b9_relu_0_split -> L2_b9_sum_eltwise_top_L2_b9_relu_0_split_0
I0817 16:06:12.499295 17619 net.cpp:408] L2_b9_sum_eltwise_top_L2_b9_relu_0_split -> L2_b9_sum_eltwise_top_L2_b9_relu_0_split_1
I0817 16:06:12.499341 17619 net.cpp:150] Setting up L2_b9_sum_eltwise_top_L2_b9_relu_0_split
I0817 16:06:12.499352 17619 net.cpp:157] Top shape: 125 32 16 16 (1024000)
I0817 16:06:12.499359 17619 net.cpp:157] Top shape: 125 32 16 16 (1024000)
I0817 16:06:12.499363 17619 net.cpp:165] Memory required for data: 1256961500
I0817 16:06:12.499368 17619 layer_factory.hpp:77] Creating layer L3_b1_cbr1_conv
I0817 16:06:12.499382 17619 net.cpp:100] Creating Layer L3_b1_cbr1_conv
I0817 16:06:12.499389 17619 net.cpp:434] L3_b1_cbr1_conv <- L2_b9_sum_eltwise_top_L2_b9_relu_0_split_0
I0817 16:06:12.499398 17619 net.cpp:408] L3_b1_cbr1_conv -> L3_b1_cbr1_conv_top
I0817 16:06:12.499882 17619 net.cpp:150] Setting up L3_b1_cbr1_conv
I0817 16:06:12.499897 17619 net.cpp:157] Top shape: 125 32 8 8 (256000)
I0817 16:06:12.499902 17619 net.cpp:165] Memory required for data: 1257985500
I0817 16:06:12.499912 17619 layer_factory.hpp:77] Creating layer L3_b1_cbr1_bn
I0817 16:06:12.499923 17619 net.cpp:100] Creating Layer L3_b1_cbr1_bn
I0817 16:06:12.499929 17619 net.cpp:434] L3_b1_cbr1_bn <- L3_b1_cbr1_conv_top
I0817 16:06:12.499938 17619 net.cpp:408] L3_b1_cbr1_bn -> L3_b1_cbr1_bn_top
I0817 16:06:12.500208 17619 net.cpp:150] Setting up L3_b1_cbr1_bn
I0817 16:06:12.500222 17619 net.cpp:157] Top shape: 125 32 8 8 (256000)
I0817 16:06:12.500226 17619 net.cpp:165] Memory required for data: 1259009500
I0817 16:06:12.500237 17619 layer_factory.hpp:77] Creating layer L3_b1_cbr1_scale
I0817 16:06:12.500248 17619 net.cpp:100] Creating Layer L3_b1_cbr1_scale
I0817 16:06:12.500255 17619 net.cpp:434] L3_b1_cbr1_scale <- L3_b1_cbr1_bn_top
I0817 16:06:12.500262 17619 net.cpp:395] L3_b1_cbr1_scale -> L3_b1_cbr1_bn_top (in-place)
I0817 16:06:12.500320 17619 layer_factory.hpp:77] Creating layer L3_b1_cbr1_scale
I0817 16:06:12.500474 17619 net.cpp:150] Setting up L3_b1_cbr1_scale
I0817 16:06:12.500488 17619 net.cpp:157] Top shape: 125 32 8 8 (256000)
I0817 16:06:12.500494 17619 net.cpp:165] Memory required for data: 1260033500
I0817 16:06:12.500501 17619 layer_factory.hpp:77] Creating layer L3_b1_cbr1_relu
I0817 16:06:12.500512 17619 net.cpp:100] Creating Layer L3_b1_cbr1_relu
I0817 16:06:12.500519 17619 net.cpp:434] L3_b1_cbr1_relu <- L3_b1_cbr1_bn_top
I0817 16:06:12.500526 17619 net.cpp:395] L3_b1_cbr1_relu -> L3_b1_cbr1_bn_top (in-place)
I0817 16:06:12.500535 17619 net.cpp:150] Setting up L3_b1_cbr1_relu
I0817 16:06:12.500545 17619 net.cpp:157] Top shape: 125 32 8 8 (256000)
I0817 16:06:12.500550 17619 net.cpp:165] Memory required for data: 1261057500
I0817 16:06:12.500555 17619 layer_factory.hpp:77] Creating layer L3_b1_cbr2_conv
I0817 16:06:12.500566 17619 net.cpp:100] Creating Layer L3_b1_cbr2_conv
I0817 16:06:12.500571 17619 net.cpp:434] L3_b1_cbr2_conv <- L3_b1_cbr1_bn_top
I0817 16:06:12.500581 17619 net.cpp:408] L3_b1_cbr2_conv -> L3_b1_cbr2_conv_top
I0817 16:06:12.501060 17619 net.cpp:150] Setting up L3_b1_cbr2_conv
I0817 16:06:12.501075 17619 net.cpp:157] Top shape: 125 32 8 8 (256000)
I0817 16:06:12.501080 17619 net.cpp:165] Memory required for data: 1262081500
I0817 16:06:12.501088 17619 layer_factory.hpp:77] Creating layer L3_b1_cbr2_bn
I0817 16:06:12.501097 17619 net.cpp:100] Creating Layer L3_b1_cbr2_bn
I0817 16:06:12.501104 17619 net.cpp:434] L3_b1_cbr2_bn <- L3_b1_cbr2_conv_top
I0817 16:06:12.501114 17619 net.cpp:408] L3_b1_cbr2_bn -> L3_b1_cbr2_bn_top
I0817 16:06:12.501375 17619 net.cpp:150] Setting up L3_b1_cbr2_bn
I0817 16:06:12.501389 17619 net.cpp:157] Top shape: 125 32 8 8 (256000)
I0817 16:06:12.501394 17619 net.cpp:165] Memory required for data: 1263105500
I0817 16:06:12.501410 17619 layer_factory.hpp:77] Creating layer L3_b1_cbr2_scale
I0817 16:06:12.501420 17619 net.cpp:100] Creating Layer L3_b1_cbr2_scale
I0817 16:06:12.501425 17619 net.cpp:434] L3_b1_cbr2_scale <- L3_b1_cbr2_bn_top
I0817 16:06:12.501433 17619 net.cpp:395] L3_b1_cbr2_scale -> L3_b1_cbr2_bn_top (in-place)
I0817 16:06:12.501493 17619 layer_factory.hpp:77] Creating layer L3_b1_cbr2_scale
I0817 16:06:12.501646 17619 net.cpp:150] Setting up L3_b1_cbr2_scale
I0817 16:06:12.501662 17619 net.cpp:157] Top shape: 125 32 8 8 (256000)
I0817 16:06:12.501667 17619 net.cpp:165] Memory required for data: 1264129500
I0817 16:06:12.501677 17619 layer_factory.hpp:77] Creating layer L3_b1_pool
I0817 16:06:12.501685 17619 net.cpp:100] Creating Layer L3_b1_pool
I0817 16:06:12.501691 17619 net.cpp:434] L3_b1_pool <- L2_b9_sum_eltwise_top_L2_b9_relu_0_split_1
I0817 16:06:12.501704 17619 net.cpp:408] L3_b1_pool -> L3_b1_pool
I0817 16:06:12.501744 17619 net.cpp:150] Setting up L3_b1_pool
I0817 16:06:12.501757 17619 net.cpp:157] Top shape: 125 32 8 8 (256000)
I0817 16:06:12.501762 17619 net.cpp:165] Memory required for data: 1265153500
I0817 16:06:12.501767 17619 layer_factory.hpp:77] Creating layer L3_b1_sum_eltwise
I0817 16:06:12.501776 17619 net.cpp:100] Creating Layer L3_b1_sum_eltwise
I0817 16:06:12.501782 17619 net.cpp:434] L3_b1_sum_eltwise <- L3_b1_cbr2_bn_top
I0817 16:06:12.501788 17619 net.cpp:434] L3_b1_sum_eltwise <- L3_b1_pool
I0817 16:06:12.501796 17619 net.cpp:408] L3_b1_sum_eltwise -> L3_b1_sum_eltwise_top
I0817 16:06:12.501832 17619 net.cpp:150] Setting up L3_b1_sum_eltwise
I0817 16:06:12.501842 17619 net.cpp:157] Top shape: 125 32 8 8 (256000)
I0817 16:06:12.501845 17619 net.cpp:165] Memory required for data: 1266177500
I0817 16:06:12.501850 17619 layer_factory.hpp:77] Creating layer L3_b1_relu
I0817 16:06:12.501858 17619 net.cpp:100] Creating Layer L3_b1_relu
I0817 16:06:12.501864 17619 net.cpp:434] L3_b1_relu <- L3_b1_sum_eltwise_top
I0817 16:06:12.501870 17619 net.cpp:395] L3_b1_relu -> L3_b1_sum_eltwise_top (in-place)
I0817 16:06:12.501880 17619 net.cpp:150] Setting up L3_b1_relu
I0817 16:06:12.501886 17619 net.cpp:157] Top shape: 125 32 8 8 (256000)
I0817 16:06:12.501891 17619 net.cpp:165] Memory required for data: 1267201500
I0817 16:06:12.501896 17619 layer_factory.hpp:77] Creating layer L3_b1_zeros
I0817 16:06:12.501905 17619 net.cpp:100] Creating Layer L3_b1_zeros
I0817 16:06:12.501915 17619 net.cpp:408] L3_b1_zeros -> L3_b1_zeros
I0817 16:06:12.503167 17619 net.cpp:150] Setting up L3_b1_zeros
I0817 16:06:12.503186 17619 net.cpp:157] Top shape: 125 32 8 8 (256000)
I0817 16:06:12.503191 17619 net.cpp:165] Memory required for data: 1268225500
I0817 16:06:12.503197 17619 layer_factory.hpp:77] Creating layer L3_b1_concat0
I0817 16:06:12.503211 17619 net.cpp:100] Creating Layer L3_b1_concat0
I0817 16:06:12.503217 17619 net.cpp:434] L3_b1_concat0 <- L3_b1_sum_eltwise_top
I0817 16:06:12.503224 17619 net.cpp:434] L3_b1_concat0 <- L3_b1_zeros
I0817 16:06:12.503232 17619 net.cpp:408] L3_b1_concat0 -> L3_b1_concat0
I0817 16:06:12.503275 17619 net.cpp:150] Setting up L3_b1_concat0
I0817 16:06:12.503288 17619 net.cpp:157] Top shape: 125 64 8 8 (512000)
I0817 16:06:12.503293 17619 net.cpp:165] Memory required for data: 1270273500
I0817 16:06:12.503298 17619 layer_factory.hpp:77] Creating layer L3_b1_concat0_L3_b1_concat0_0_split
I0817 16:06:12.503305 17619 net.cpp:100] Creating Layer L3_b1_concat0_L3_b1_concat0_0_split
I0817 16:06:12.503311 17619 net.cpp:434] L3_b1_concat0_L3_b1_concat0_0_split <- L3_b1_concat0
I0817 16:06:12.503321 17619 net.cpp:408] L3_b1_concat0_L3_b1_concat0_0_split -> L3_b1_concat0_L3_b1_concat0_0_split_0
I0817 16:06:12.503331 17619 net.cpp:408] L3_b1_concat0_L3_b1_concat0_0_split -> L3_b1_concat0_L3_b1_concat0_0_split_1
I0817 16:06:12.503382 17619 net.cpp:150] Setting up L3_b1_concat0_L3_b1_concat0_0_split
I0817 16:06:12.503396 17619 net.cpp:157] Top shape: 125 64 8 8 (512000)
I0817 16:06:12.503403 17619 net.cpp:157] Top shape: 125 64 8 8 (512000)
I0817 16:06:12.503415 17619 net.cpp:165] Memory required for data: 1274369500
I0817 16:06:12.503422 17619 layer_factory.hpp:77] Creating layer L3_b2_cbr1_conv
I0817 16:06:12.503435 17619 net.cpp:100] Creating Layer L3_b2_cbr1_conv
I0817 16:06:12.503443 17619 net.cpp:434] L3_b2_cbr1_conv <- L3_b1_concat0_L3_b1_concat0_0_split_0
I0817 16:06:12.503453 17619 net.cpp:408] L3_b2_cbr1_conv -> L3_b2_cbr1_conv_top
I0817 16:06:12.505434 17619 net.cpp:150] Setting up L3_b2_cbr1_conv
I0817 16:06:12.505452 17619 net.cpp:157] Top shape: 125 64 8 8 (512000)
I0817 16:06:12.505457 17619 net.cpp:165] Memory required for data: 1276417500
I0817 16:06:12.505467 17619 layer_factory.hpp:77] Creating layer L3_b2_cbr1_bn
I0817 16:06:12.505481 17619 net.cpp:100] Creating Layer L3_b2_cbr1_bn
I0817 16:06:12.505486 17619 net.cpp:434] L3_b2_cbr1_bn <- L3_b2_cbr1_conv_top
I0817 16:06:12.505496 17619 net.cpp:408] L3_b2_cbr1_bn -> L3_b2_cbr1_bn_top
I0817 16:06:12.505766 17619 net.cpp:150] Setting up L3_b2_cbr1_bn
I0817 16:06:12.505779 17619 net.cpp:157] Top shape: 125 64 8 8 (512000)
I0817 16:06:12.505785 17619 net.cpp:165] Memory required for data: 1278465500
I0817 16:06:12.505795 17619 layer_factory.hpp:77] Creating layer L3_b2_cbr1_scale
I0817 16:06:12.505807 17619 net.cpp:100] Creating Layer L3_b2_cbr1_scale
I0817 16:06:12.505815 17619 net.cpp:434] L3_b2_cbr1_scale <- L3_b2_cbr1_bn_top
I0817 16:06:12.505825 17619 net.cpp:395] L3_b2_cbr1_scale -> L3_b2_cbr1_bn_top (in-place)
I0817 16:06:12.505882 17619 layer_factory.hpp:77] Creating layer L3_b2_cbr1_scale
I0817 16:06:12.506038 17619 net.cpp:150] Setting up L3_b2_cbr1_scale
I0817 16:06:12.506052 17619 net.cpp:157] Top shape: 125 64 8 8 (512000)
I0817 16:06:12.506057 17619 net.cpp:165] Memory required for data: 1280513500
I0817 16:06:12.506065 17619 layer_factory.hpp:77] Creating layer L3_b2_cbr1_relu
I0817 16:06:12.506073 17619 net.cpp:100] Creating Layer L3_b2_cbr1_relu
I0817 16:06:12.506079 17619 net.cpp:434] L3_b2_cbr1_relu <- L3_b2_cbr1_bn_top
I0817 16:06:12.506090 17619 net.cpp:395] L3_b2_cbr1_relu -> L3_b2_cbr1_bn_top (in-place)
I0817 16:06:12.506100 17619 net.cpp:150] Setting up L3_b2_cbr1_relu
I0817 16:06:12.506108 17619 net.cpp:157] Top shape: 125 64 8 8 (512000)
I0817 16:06:12.506112 17619 net.cpp:165] Memory required for data: 1282561500
I0817 16:06:12.506116 17619 layer_factory.hpp:77] Creating layer L3_b2_cbr2_conv
I0817 16:06:12.506129 17619 net.cpp:100] Creating Layer L3_b2_cbr2_conv
I0817 16:06:12.506134 17619 net.cpp:434] L3_b2_cbr2_conv <- L3_b2_cbr1_bn_top
I0817 16:06:12.506145 17619 net.cpp:408] L3_b2_cbr2_conv -> L3_b2_cbr2_conv_top
I0817 16:06:12.507169 17619 net.cpp:150] Setting up L3_b2_cbr2_conv
I0817 16:06:12.507184 17619 net.cpp:157] Top shape: 125 64 8 8 (512000)
I0817 16:06:12.507189 17619 net.cpp:165] Memory required for data: 1284609500
I0817 16:06:12.507197 17619 layer_factory.hpp:77] Creating layer L3_b2_cbr2_bn
I0817 16:06:12.507210 17619 net.cpp:100] Creating Layer L3_b2_cbr2_bn
I0817 16:06:12.507216 17619 net.cpp:434] L3_b2_cbr2_bn <- L3_b2_cbr2_conv_top
I0817 16:06:12.507225 17619 net.cpp:408] L3_b2_cbr2_bn -> L3_b2_cbr2_bn_top
I0817 16:06:12.507493 17619 net.cpp:150] Setting up L3_b2_cbr2_bn
I0817 16:06:12.507508 17619 net.cpp:157] Top shape: 125 64 8 8 (512000)
I0817 16:06:12.507513 17619 net.cpp:165] Memory required for data: 1286657500
I0817 16:06:12.507522 17619 layer_factory.hpp:77] Creating layer L3_b2_cbr2_scale
I0817 16:06:12.507531 17619 net.cpp:100] Creating Layer L3_b2_cbr2_scale
I0817 16:06:12.507539 17619 net.cpp:434] L3_b2_cbr2_scale <- L3_b2_cbr2_bn_top
I0817 16:06:12.507545 17619 net.cpp:395] L3_b2_cbr2_scale -> L3_b2_cbr2_bn_top (in-place)
I0817 16:06:12.507606 17619 layer_factory.hpp:77] Creating layer L3_b2_cbr2_scale
I0817 16:06:12.507768 17619 net.cpp:150] Setting up L3_b2_cbr2_scale
I0817 16:06:12.507782 17619 net.cpp:157] Top shape: 125 64 8 8 (512000)
I0817 16:06:12.507787 17619 net.cpp:165] Memory required for data: 1288705500
I0817 16:06:12.507797 17619 layer_factory.hpp:77] Creating layer L3_b2_sum_eltwise
I0817 16:06:12.507805 17619 net.cpp:100] Creating Layer L3_b2_sum_eltwise
I0817 16:06:12.507820 17619 net.cpp:434] L3_b2_sum_eltwise <- L3_b2_cbr2_bn_top
I0817 16:06:12.507827 17619 net.cpp:434] L3_b2_sum_eltwise <- L3_b1_concat0_L3_b1_concat0_0_split_1
I0817 16:06:12.507838 17619 net.cpp:408] L3_b2_sum_eltwise -> L3_b2_sum_eltwise_top
I0817 16:06:12.507874 17619 net.cpp:150] Setting up L3_b2_sum_eltwise
I0817 16:06:12.507885 17619 net.cpp:157] Top shape: 125 64 8 8 (512000)
I0817 16:06:12.507890 17619 net.cpp:165] Memory required for data: 1290753500
I0817 16:06:12.507896 17619 layer_factory.hpp:77] Creating layer L3_b2_relu
I0817 16:06:12.507903 17619 net.cpp:100] Creating Layer L3_b2_relu
I0817 16:06:12.507910 17619 net.cpp:434] L3_b2_relu <- L3_b2_sum_eltwise_top
I0817 16:06:12.507916 17619 net.cpp:395] L3_b2_relu -> L3_b2_sum_eltwise_top (in-place)
I0817 16:06:12.507925 17619 net.cpp:150] Setting up L3_b2_relu
I0817 16:06:12.507932 17619 net.cpp:157] Top shape: 125 64 8 8 (512000)
I0817 16:06:12.507937 17619 net.cpp:165] Memory required for data: 1292801500
I0817 16:06:12.507941 17619 layer_factory.hpp:77] Creating layer L3_b2_sum_eltwise_top_L3_b2_relu_0_split
I0817 16:06:12.507952 17619 net.cpp:100] Creating Layer L3_b2_sum_eltwise_top_L3_b2_relu_0_split
I0817 16:06:12.507958 17619 net.cpp:434] L3_b2_sum_eltwise_top_L3_b2_relu_0_split <- L3_b2_sum_eltwise_top
I0817 16:06:12.507966 17619 net.cpp:408] L3_b2_sum_eltwise_top_L3_b2_relu_0_split -> L3_b2_sum_eltwise_top_L3_b2_relu_0_split_0
I0817 16:06:12.507975 17619 net.cpp:408] L3_b2_sum_eltwise_top_L3_b2_relu_0_split -> L3_b2_sum_eltwise_top_L3_b2_relu_0_split_1
I0817 16:06:12.508020 17619 net.cpp:150] Setting up L3_b2_sum_eltwise_top_L3_b2_relu_0_split
I0817 16:06:12.508036 17619 net.cpp:157] Top shape: 125 64 8 8 (512000)
I0817 16:06:12.508044 17619 net.cpp:157] Top shape: 125 64 8 8 (512000)
I0817 16:06:12.508049 17619 net.cpp:165] Memory required for data: 1296897500
I0817 16:06:12.508054 17619 layer_factory.hpp:77] Creating layer L3_b3_cbr1_conv
I0817 16:06:12.508064 17619 net.cpp:100] Creating Layer L3_b3_cbr1_conv
I0817 16:06:12.508071 17619 net.cpp:434] L3_b3_cbr1_conv <- L3_b2_sum_eltwise_top_L3_b2_relu_0_split_0
I0817 16:06:12.508080 17619 net.cpp:408] L3_b3_cbr1_conv -> L3_b3_cbr1_conv_top
I0817 16:06:12.509099 17619 net.cpp:150] Setting up L3_b3_cbr1_conv
I0817 16:06:12.509116 17619 net.cpp:157] Top shape: 125 64 8 8 (512000)
I0817 16:06:12.509121 17619 net.cpp:165] Memory required for data: 1298945500
I0817 16:06:12.509130 17619 layer_factory.hpp:77] Creating layer L3_b3_cbr1_bn
I0817 16:06:12.509140 17619 net.cpp:100] Creating Layer L3_b3_cbr1_bn
I0817 16:06:12.509146 17619 net.cpp:434] L3_b3_cbr1_bn <- L3_b3_cbr1_conv_top
I0817 16:06:12.509160 17619 net.cpp:408] L3_b3_cbr1_bn -> L3_b3_cbr1_bn_top
I0817 16:06:12.509420 17619 net.cpp:150] Setting up L3_b3_cbr1_bn
I0817 16:06:12.509433 17619 net.cpp:157] Top shape: 125 64 8 8 (512000)
I0817 16:06:12.509438 17619 net.cpp:165] Memory required for data: 1300993500
I0817 16:06:12.509449 17619 layer_factory.hpp:77] Creating layer L3_b3_cbr1_scale
I0817 16:06:12.509461 17619 net.cpp:100] Creating Layer L3_b3_cbr1_scale
I0817 16:06:12.509469 17619 net.cpp:434] L3_b3_cbr1_scale <- L3_b3_cbr1_bn_top
I0817 16:06:12.509475 17619 net.cpp:395] L3_b3_cbr1_scale -> L3_b3_cbr1_bn_top (in-place)
I0817 16:06:12.509532 17619 layer_factory.hpp:77] Creating layer L3_b3_cbr1_scale
I0817 16:06:12.509690 17619 net.cpp:150] Setting up L3_b3_cbr1_scale
I0817 16:06:12.509707 17619 net.cpp:157] Top shape: 125 64 8 8 (512000)
I0817 16:06:12.509713 17619 net.cpp:165] Memory required for data: 1303041500
I0817 16:06:12.509723 17619 layer_factory.hpp:77] Creating layer L3_b3_cbr1_relu
I0817 16:06:12.509732 17619 net.cpp:100] Creating Layer L3_b3_cbr1_relu
I0817 16:06:12.509737 17619 net.cpp:434] L3_b3_cbr1_relu <- L3_b3_cbr1_bn_top
I0817 16:06:12.509747 17619 net.cpp:395] L3_b3_cbr1_relu -> L3_b3_cbr1_bn_top (in-place)
I0817 16:06:12.509757 17619 net.cpp:150] Setting up L3_b3_cbr1_relu
I0817 16:06:12.509764 17619 net.cpp:157] Top shape: 125 64 8 8 (512000)
I0817 16:06:12.509776 17619 net.cpp:165] Memory required for data: 1305089500
I0817 16:06:12.509781 17619 layer_factory.hpp:77] Creating layer L3_b3_cbr2_conv
I0817 16:06:12.509795 17619 net.cpp:100] Creating Layer L3_b3_cbr2_conv
I0817 16:06:12.509801 17619 net.cpp:434] L3_b3_cbr2_conv <- L3_b3_cbr1_bn_top
I0817 16:06:12.509810 17619 net.cpp:408] L3_b3_cbr2_conv -> L3_b3_cbr2_conv_top
I0817 16:06:12.510831 17619 net.cpp:150] Setting up L3_b3_cbr2_conv
I0817 16:06:12.510846 17619 net.cpp:157] Top shape: 125 64 8 8 (512000)
I0817 16:06:12.510851 17619 net.cpp:165] Memory required for data: 1307137500
I0817 16:06:12.510860 17619 layer_factory.hpp:77] Creating layer L3_b3_cbr2_bn
I0817 16:06:12.510872 17619 net.cpp:100] Creating Layer L3_b3_cbr2_bn
I0817 16:06:12.510879 17619 net.cpp:434] L3_b3_cbr2_bn <- L3_b3_cbr2_conv_top
I0817 16:06:12.510887 17619 net.cpp:408] L3_b3_cbr2_bn -> L3_b3_cbr2_bn_top
I0817 16:06:12.511152 17619 net.cpp:150] Setting up L3_b3_cbr2_bn
I0817 16:06:12.511164 17619 net.cpp:157] Top shape: 125 64 8 8 (512000)
I0817 16:06:12.511169 17619 net.cpp:165] Memory required for data: 1309185500
I0817 16:06:12.511179 17619 layer_factory.hpp:77] Creating layer L3_b3_cbr2_scale
I0817 16:06:12.511188 17619 net.cpp:100] Creating Layer L3_b3_cbr2_scale
I0817 16:06:12.511195 17619 net.cpp:434] L3_b3_cbr2_scale <- L3_b3_cbr2_bn_top
I0817 16:06:12.511203 17619 net.cpp:395] L3_b3_cbr2_scale -> L3_b3_cbr2_bn_top (in-place)
I0817 16:06:12.511261 17619 layer_factory.hpp:77] Creating layer L3_b3_cbr2_scale
I0817 16:06:12.511416 17619 net.cpp:150] Setting up L3_b3_cbr2_scale
I0817 16:06:12.511430 17619 net.cpp:157] Top shape: 125 64 8 8 (512000)
I0817 16:06:12.511435 17619 net.cpp:165] Memory required for data: 1311233500
I0817 16:06:12.511443 17619 layer_factory.hpp:77] Creating layer L3_b3_sum_eltwise
I0817 16:06:12.511452 17619 net.cpp:100] Creating Layer L3_b3_sum_eltwise
I0817 16:06:12.511459 17619 net.cpp:434] L3_b3_sum_eltwise <- L3_b3_cbr2_bn_top
I0817 16:06:12.511466 17619 net.cpp:434] L3_b3_sum_eltwise <- L3_b2_sum_eltwise_top_L3_b2_relu_0_split_1
I0817 16:06:12.511478 17619 net.cpp:408] L3_b3_sum_eltwise -> L3_b3_sum_eltwise_top
I0817 16:06:12.511512 17619 net.cpp:150] Setting up L3_b3_sum_eltwise
I0817 16:06:12.511526 17619 net.cpp:157] Top shape: 125 64 8 8 (512000)
I0817 16:06:12.511531 17619 net.cpp:165] Memory required for data: 1313281500
I0817 16:06:12.511536 17619 layer_factory.hpp:77] Creating layer L3_b3_relu
I0817 16:06:12.511544 17619 net.cpp:100] Creating Layer L3_b3_relu
I0817 16:06:12.511550 17619 net.cpp:434] L3_b3_relu <- L3_b3_sum_eltwise_top
I0817 16:06:12.511557 17619 net.cpp:395] L3_b3_relu -> L3_b3_sum_eltwise_top (in-place)
I0817 16:06:12.511566 17619 net.cpp:150] Setting up L3_b3_relu
I0817 16:06:12.511574 17619 net.cpp:157] Top shape: 125 64 8 8 (512000)
I0817 16:06:12.511579 17619 net.cpp:165] Memory required for data: 1315329500
I0817 16:06:12.511584 17619 layer_factory.hpp:77] Creating layer L3_b3_sum_eltwise_top_L3_b3_relu_0_split
I0817 16:06:12.511593 17619 net.cpp:100] Creating Layer L3_b3_sum_eltwise_top_L3_b3_relu_0_split
I0817 16:06:12.511600 17619 net.cpp:434] L3_b3_sum_eltwise_top_L3_b3_relu_0_split <- L3_b3_sum_eltwise_top
I0817 16:06:12.511606 17619 net.cpp:408] L3_b3_sum_eltwise_top_L3_b3_relu_0_split -> L3_b3_sum_eltwise_top_L3_b3_relu_0_split_0
I0817 16:06:12.511616 17619 net.cpp:408] L3_b3_sum_eltwise_top_L3_b3_relu_0_split -> L3_b3_sum_eltwise_top_L3_b3_relu_0_split_1
I0817 16:06:12.511663 17619 net.cpp:150] Setting up L3_b3_sum_eltwise_top_L3_b3_relu_0_split
I0817 16:06:12.511674 17619 net.cpp:157] Top shape: 125 64 8 8 (512000)
I0817 16:06:12.511682 17619 net.cpp:157] Top shape: 125 64 8 8 (512000)
I0817 16:06:12.511685 17619 net.cpp:165] Memory required for data: 1319425500
I0817 16:06:12.511692 17619 layer_factory.hpp:77] Creating layer L3_b4_cbr1_conv
I0817 16:06:12.511708 17619 net.cpp:100] Creating Layer L3_b4_cbr1_conv
I0817 16:06:12.511715 17619 net.cpp:434] L3_b4_cbr1_conv <- L3_b3_sum_eltwise_top_L3_b3_relu_0_split_0
I0817 16:06:12.511728 17619 net.cpp:408] L3_b4_cbr1_conv -> L3_b4_cbr1_conv_top
I0817 16:06:12.512760 17619 net.cpp:150] Setting up L3_b4_cbr1_conv
I0817 16:06:12.512775 17619 net.cpp:157] Top shape: 125 64 8 8 (512000)
I0817 16:06:12.512780 17619 net.cpp:165] Memory required for data: 1321473500
I0817 16:06:12.512789 17619 layer_factory.hpp:77] Creating layer L3_b4_cbr1_bn
I0817 16:06:12.512799 17619 net.cpp:100] Creating Layer L3_b4_cbr1_bn
I0817 16:06:12.512805 17619 net.cpp:434] L3_b4_cbr1_bn <- L3_b4_cbr1_conv_top
I0817 16:06:12.512816 17619 net.cpp:408] L3_b4_cbr1_bn -> L3_b4_cbr1_bn_top
I0817 16:06:12.513083 17619 net.cpp:150] Setting up L3_b4_cbr1_bn
I0817 16:06:12.513098 17619 net.cpp:157] Top shape: 125 64 8 8 (512000)
I0817 16:06:12.513104 17619 net.cpp:165] Memory required for data: 1323521500
I0817 16:06:12.513114 17619 layer_factory.hpp:77] Creating layer L3_b4_cbr1_scale
I0817 16:06:12.513123 17619 net.cpp:100] Creating Layer L3_b4_cbr1_scale
I0817 16:06:12.513128 17619 net.cpp:434] L3_b4_cbr1_scale <- L3_b4_cbr1_bn_top
I0817 16:06:12.513136 17619 net.cpp:395] L3_b4_cbr1_scale -> L3_b4_cbr1_bn_top (in-place)
I0817 16:06:12.513195 17619 layer_factory.hpp:77] Creating layer L3_b4_cbr1_scale
I0817 16:06:12.513352 17619 net.cpp:150] Setting up L3_b4_cbr1_scale
I0817 16:06:12.513365 17619 net.cpp:157] Top shape: 125 64 8 8 (512000)
I0817 16:06:12.513370 17619 net.cpp:165] Memory required for data: 1325569500
I0817 16:06:12.513380 17619 layer_factory.hpp:77] Creating layer L3_b4_cbr1_relu
I0817 16:06:12.513387 17619 net.cpp:100] Creating Layer L3_b4_cbr1_relu
I0817 16:06:12.513394 17619 net.cpp:434] L3_b4_cbr1_relu <- L3_b4_cbr1_bn_top
I0817 16:06:12.513404 17619 net.cpp:395] L3_b4_cbr1_relu -> L3_b4_cbr1_bn_top (in-place)
I0817 16:06:12.513415 17619 net.cpp:150] Setting up L3_b4_cbr1_relu
I0817 16:06:12.513422 17619 net.cpp:157] Top shape: 125 64 8 8 (512000)
I0817 16:06:12.513427 17619 net.cpp:165] Memory required for data: 1327617500
I0817 16:06:12.513432 17619 layer_factory.hpp:77] Creating layer L3_b4_cbr2_conv
I0817 16:06:12.513445 17619 net.cpp:100] Creating Layer L3_b4_cbr2_conv
I0817 16:06:12.513451 17619 net.cpp:434] L3_b4_cbr2_conv <- L3_b4_cbr1_bn_top
I0817 16:06:12.513460 17619 net.cpp:408] L3_b4_cbr2_conv -> L3_b4_cbr2_conv_top
I0817 16:06:12.514483 17619 net.cpp:150] Setting up L3_b4_cbr2_conv
I0817 16:06:12.514498 17619 net.cpp:157] Top shape: 125 64 8 8 (512000)
I0817 16:06:12.514503 17619 net.cpp:165] Memory required for data: 1329665500
I0817 16:06:12.514513 17619 layer_factory.hpp:77] Creating layer L3_b4_cbr2_bn
I0817 16:06:12.514524 17619 net.cpp:100] Creating Layer L3_b4_cbr2_bn
I0817 16:06:12.514531 17619 net.cpp:434] L3_b4_cbr2_bn <- L3_b4_cbr2_conv_top
I0817 16:06:12.514541 17619 net.cpp:408] L3_b4_cbr2_bn -> L3_b4_cbr2_bn_top
I0817 16:06:12.514814 17619 net.cpp:150] Setting up L3_b4_cbr2_bn
I0817 16:06:12.514828 17619 net.cpp:157] Top shape: 125 64 8 8 (512000)
I0817 16:06:12.514833 17619 net.cpp:165] Memory required for data: 1331713500
I0817 16:06:12.514843 17619 layer_factory.hpp:77] Creating layer L3_b4_cbr2_scale
I0817 16:06:12.514853 17619 net.cpp:100] Creating Layer L3_b4_cbr2_scale
I0817 16:06:12.514858 17619 net.cpp:434] L3_b4_cbr2_scale <- L3_b4_cbr2_bn_top
I0817 16:06:12.514865 17619 net.cpp:395] L3_b4_cbr2_scale -> L3_b4_cbr2_bn_top (in-place)
I0817 16:06:12.514926 17619 layer_factory.hpp:77] Creating layer L3_b4_cbr2_scale
I0817 16:06:12.515087 17619 net.cpp:150] Setting up L3_b4_cbr2_scale
I0817 16:06:12.515101 17619 net.cpp:157] Top shape: 125 64 8 8 (512000)
I0817 16:06:12.515106 17619 net.cpp:165] Memory required for data: 1333761500
I0817 16:06:12.515115 17619 layer_factory.hpp:77] Creating layer L3_b4_sum_eltwise
I0817 16:06:12.515123 17619 net.cpp:100] Creating Layer L3_b4_sum_eltwise
I0817 16:06:12.515130 17619 net.cpp:434] L3_b4_sum_eltwise <- L3_b4_cbr2_bn_top
I0817 16:06:12.515136 17619 net.cpp:434] L3_b4_sum_eltwise <- L3_b3_sum_eltwise_top_L3_b3_relu_0_split_1
I0817 16:06:12.515147 17619 net.cpp:408] L3_b4_sum_eltwise -> L3_b4_sum_eltwise_top
I0817 16:06:12.515182 17619 net.cpp:150] Setting up L3_b4_sum_eltwise
I0817 16:06:12.515200 17619 net.cpp:157] Top shape: 125 64 8 8 (512000)
I0817 16:06:12.515206 17619 net.cpp:165] Memory required for data: 1335809500
I0817 16:06:12.515211 17619 layer_factory.hpp:77] Creating layer L3_b4_relu
I0817 16:06:12.515219 17619 net.cpp:100] Creating Layer L3_b4_relu
I0817 16:06:12.515225 17619 net.cpp:434] L3_b4_relu <- L3_b4_sum_eltwise_top
I0817 16:06:12.515233 17619 net.cpp:395] L3_b4_relu -> L3_b4_sum_eltwise_top (in-place)
I0817 16:06:12.515241 17619 net.cpp:150] Setting up L3_b4_relu
I0817 16:06:12.515249 17619 net.cpp:157] Top shape: 125 64 8 8 (512000)
I0817 16:06:12.515252 17619 net.cpp:165] Memory required for data: 1337857500
I0817 16:06:12.515257 17619 layer_factory.hpp:77] Creating layer L3_b4_sum_eltwise_top_L3_b4_relu_0_split
I0817 16:06:12.515267 17619 net.cpp:100] Creating Layer L3_b4_sum_eltwise_top_L3_b4_relu_0_split
I0817 16:06:12.515274 17619 net.cpp:434] L3_b4_sum_eltwise_top_L3_b4_relu_0_split <- L3_b4_sum_eltwise_top
I0817 16:06:12.515280 17619 net.cpp:408] L3_b4_sum_eltwise_top_L3_b4_relu_0_split -> L3_b4_sum_eltwise_top_L3_b4_relu_0_split_0
I0817 16:06:12.515290 17619 net.cpp:408] L3_b4_sum_eltwise_top_L3_b4_relu_0_split -> L3_b4_sum_eltwise_top_L3_b4_relu_0_split_1
I0817 16:06:12.515338 17619 net.cpp:150] Setting up L3_b4_sum_eltwise_top_L3_b4_relu_0_split
I0817 16:06:12.515350 17619 net.cpp:157] Top shape: 125 64 8 8 (512000)
I0817 16:06:12.515357 17619 net.cpp:157] Top shape: 125 64 8 8 (512000)
I0817 16:06:12.515362 17619 net.cpp:165] Memory required for data: 1341953500
I0817 16:06:12.515367 17619 layer_factory.hpp:77] Creating layer L3_b5_cbr1_conv
I0817 16:06:12.515377 17619 net.cpp:100] Creating Layer L3_b5_cbr1_conv
I0817 16:06:12.515383 17619 net.cpp:434] L3_b5_cbr1_conv <- L3_b4_sum_eltwise_top_L3_b4_relu_0_split_0
I0817 16:06:12.515395 17619 net.cpp:408] L3_b5_cbr1_conv -> L3_b5_cbr1_conv_top
I0817 16:06:12.516425 17619 net.cpp:150] Setting up L3_b5_cbr1_conv
I0817 16:06:12.516440 17619 net.cpp:157] Top shape: 125 64 8 8 (512000)
I0817 16:06:12.516445 17619 net.cpp:165] Memory required for data: 1344001500
I0817 16:06:12.516454 17619 layer_factory.hpp:77] Creating layer L3_b5_cbr1_bn
I0817 16:06:12.516464 17619 net.cpp:100] Creating Layer L3_b5_cbr1_bn
I0817 16:06:12.516470 17619 net.cpp:434] L3_b5_cbr1_bn <- L3_b5_cbr1_conv_top
I0817 16:06:12.516481 17619 net.cpp:408] L3_b5_cbr1_bn -> L3_b5_cbr1_bn_top
I0817 16:06:12.517736 17619 net.cpp:150] Setting up L3_b5_cbr1_bn
I0817 16:06:12.517753 17619 net.cpp:157] Top shape: 125 64 8 8 (512000)
I0817 16:06:12.517758 17619 net.cpp:165] Memory required for data: 1346049500
I0817 16:06:12.517769 17619 layer_factory.hpp:77] Creating layer L3_b5_cbr1_scale
I0817 16:06:12.517779 17619 net.cpp:100] Creating Layer L3_b5_cbr1_scale
I0817 16:06:12.517786 17619 net.cpp:434] L3_b5_cbr1_scale <- L3_b5_cbr1_bn_top
I0817 16:06:12.517797 17619 net.cpp:395] L3_b5_cbr1_scale -> L3_b5_cbr1_bn_top (in-place)
I0817 16:06:12.517858 17619 layer_factory.hpp:77] Creating layer L3_b5_cbr1_scale
I0817 16:06:12.518016 17619 net.cpp:150] Setting up L3_b5_cbr1_scale
I0817 16:06:12.518028 17619 net.cpp:157] Top shape: 125 64 8 8 (512000)
I0817 16:06:12.518033 17619 net.cpp:165] Memory required for data: 1348097500
I0817 16:06:12.518043 17619 layer_factory.hpp:77] Creating layer L3_b5_cbr1_relu
I0817 16:06:12.518051 17619 net.cpp:100] Creating Layer L3_b5_cbr1_relu
I0817 16:06:12.518057 17619 net.cpp:434] L3_b5_cbr1_relu <- L3_b5_cbr1_bn_top
I0817 16:06:12.518067 17619 net.cpp:395] L3_b5_cbr1_relu -> L3_b5_cbr1_bn_top (in-place)
I0817 16:06:12.518077 17619 net.cpp:150] Setting up L3_b5_cbr1_relu
I0817 16:06:12.518085 17619 net.cpp:157] Top shape: 125 64 8 8 (512000)
I0817 16:06:12.518090 17619 net.cpp:165] Memory required for data: 1350145500
I0817 16:06:12.518095 17619 layer_factory.hpp:77] Creating layer L3_b5_cbr2_conv
I0817 16:06:12.518108 17619 net.cpp:100] Creating Layer L3_b5_cbr2_conv
I0817 16:06:12.518115 17619 net.cpp:434] L3_b5_cbr2_conv <- L3_b5_cbr1_bn_top
I0817 16:06:12.518123 17619 net.cpp:408] L3_b5_cbr2_conv -> L3_b5_cbr2_conv_top
I0817 16:06:12.520153 17619 net.cpp:150] Setting up L3_b5_cbr2_conv
I0817 16:06:12.520171 17619 net.cpp:157] Top shape: 125 64 8 8 (512000)
I0817 16:06:12.520176 17619 net.cpp:165] Memory required for data: 1352193500
I0817 16:06:12.520186 17619 layer_factory.hpp:77] Creating layer L3_b5_cbr2_bn
I0817 16:06:12.520200 17619 net.cpp:100] Creating Layer L3_b5_cbr2_bn
I0817 16:06:12.520206 17619 net.cpp:434] L3_b5_cbr2_bn <- L3_b5_cbr2_conv_top
I0817 16:06:12.520217 17619 net.cpp:408] L3_b5_cbr2_bn -> L3_b5_cbr2_bn_top
I0817 16:06:12.520479 17619 net.cpp:150] Setting up L3_b5_cbr2_bn
I0817 16:06:12.520493 17619 net.cpp:157] Top shape: 125 64 8 8 (512000)
I0817 16:06:12.520498 17619 net.cpp:165] Memory required for data: 1354241500
I0817 16:06:12.520509 17619 layer_factory.hpp:77] Creating layer L3_b5_cbr2_scale
I0817 16:06:12.520517 17619 net.cpp:100] Creating Layer L3_b5_cbr2_scale
I0817 16:06:12.520524 17619 net.cpp:434] L3_b5_cbr2_scale <- L3_b5_cbr2_bn_top
I0817 16:06:12.520531 17619 net.cpp:395] L3_b5_cbr2_scale -> L3_b5_cbr2_bn_top (in-place)
I0817 16:06:12.520591 17619 layer_factory.hpp:77] Creating layer L3_b5_cbr2_scale
I0817 16:06:12.520751 17619 net.cpp:150] Setting up L3_b5_cbr2_scale
I0817 16:06:12.520766 17619 net.cpp:157] Top shape: 125 64 8 8 (512000)
I0817 16:06:12.520771 17619 net.cpp:165] Memory required for data: 1356289500
I0817 16:06:12.520779 17619 layer_factory.hpp:77] Creating layer L3_b5_sum_eltwise
I0817 16:06:12.520788 17619 net.cpp:100] Creating Layer L3_b5_sum_eltwise
I0817 16:06:12.520795 17619 net.cpp:434] L3_b5_sum_eltwise <- L3_b5_cbr2_bn_top
I0817 16:06:12.520802 17619 net.cpp:434] L3_b5_sum_eltwise <- L3_b4_sum_eltwise_top_L3_b4_relu_0_split_1
I0817 16:06:12.520813 17619 net.cpp:408] L3_b5_sum_eltwise -> L3_b5_sum_eltwise_top
I0817 16:06:12.520846 17619 net.cpp:150] Setting up L3_b5_sum_eltwise
I0817 16:06:12.520861 17619 net.cpp:157] Top shape: 125 64 8 8 (512000)
I0817 16:06:12.520866 17619 net.cpp:165] Memory required for data: 1358337500
I0817 16:06:12.520871 17619 layer_factory.hpp:77] Creating layer L3_b5_relu
I0817 16:06:12.520879 17619 net.cpp:100] Creating Layer L3_b5_relu
I0817 16:06:12.520885 17619 net.cpp:434] L3_b5_relu <- L3_b5_sum_eltwise_top
I0817 16:06:12.520892 17619 net.cpp:395] L3_b5_relu -> L3_b5_sum_eltwise_top (in-place)
I0817 16:06:12.520902 17619 net.cpp:150] Setting up L3_b5_relu
I0817 16:06:12.520910 17619 net.cpp:157] Top shape: 125 64 8 8 (512000)
I0817 16:06:12.520913 17619 net.cpp:165] Memory required for data: 1360385500
I0817 16:06:12.520918 17619 layer_factory.hpp:77] Creating layer L3_b5_sum_eltwise_top_L3_b5_relu_0_split
I0817 16:06:12.520929 17619 net.cpp:100] Creating Layer L3_b5_sum_eltwise_top_L3_b5_relu_0_split
I0817 16:06:12.520934 17619 net.cpp:434] L3_b5_sum_eltwise_top_L3_b5_relu_0_split <- L3_b5_sum_eltwise_top
I0817 16:06:12.520942 17619 net.cpp:408] L3_b5_sum_eltwise_top_L3_b5_relu_0_split -> L3_b5_sum_eltwise_top_L3_b5_relu_0_split_0
I0817 16:06:12.520951 17619 net.cpp:408] L3_b5_sum_eltwise_top_L3_b5_relu_0_split -> L3_b5_sum_eltwise_top_L3_b5_relu_0_split_1
I0817 16:06:12.521000 17619 net.cpp:150] Setting up L3_b5_sum_eltwise_top_L3_b5_relu_0_split
I0817 16:06:12.521011 17619 net.cpp:157] Top shape: 125 64 8 8 (512000)
I0817 16:06:12.521018 17619 net.cpp:157] Top shape: 125 64 8 8 (512000)
I0817 16:06:12.521023 17619 net.cpp:165] Memory required for data: 1364481500
I0817 16:06:12.521028 17619 layer_factory.hpp:77] Creating layer L3_b6_cbr1_conv
I0817 16:06:12.521039 17619 net.cpp:100] Creating Layer L3_b6_cbr1_conv
I0817 16:06:12.521045 17619 net.cpp:434] L3_b6_cbr1_conv <- L3_b5_sum_eltwise_top_L3_b5_relu_0_split_0
I0817 16:06:12.521057 17619 net.cpp:408] L3_b6_cbr1_conv -> L3_b6_cbr1_conv_top
I0817 16:06:12.522075 17619 net.cpp:150] Setting up L3_b6_cbr1_conv
I0817 16:06:12.522090 17619 net.cpp:157] Top shape: 125 64 8 8 (512000)
I0817 16:06:12.522095 17619 net.cpp:165] Memory required for data: 1366529500
I0817 16:06:12.522104 17619 layer_factory.hpp:77] Creating layer L3_b6_cbr1_bn
I0817 16:06:12.522114 17619 net.cpp:100] Creating Layer L3_b6_cbr1_bn
I0817 16:06:12.522128 17619 net.cpp:434] L3_b6_cbr1_bn <- L3_b6_cbr1_conv_top
I0817 16:06:12.522141 17619 net.cpp:408] L3_b6_cbr1_bn -> L3_b6_cbr1_bn_top
I0817 16:06:12.522399 17619 net.cpp:150] Setting up L3_b6_cbr1_bn
I0817 16:06:12.522414 17619 net.cpp:157] Top shape: 125 64 8 8 (512000)
I0817 16:06:12.522420 17619 net.cpp:165] Memory required for data: 1368577500
I0817 16:06:12.522430 17619 layer_factory.hpp:77] Creating layer L3_b6_cbr1_scale
I0817 16:06:12.522439 17619 net.cpp:100] Creating Layer L3_b6_cbr1_scale
I0817 16:06:12.522446 17619 net.cpp:434] L3_b6_cbr1_scale <- L3_b6_cbr1_bn_top
I0817 16:06:12.522454 17619 net.cpp:395] L3_b6_cbr1_scale -> L3_b6_cbr1_bn_top (in-place)
I0817 16:06:12.522514 17619 layer_factory.hpp:77] Creating layer L3_b6_cbr1_scale
I0817 16:06:12.522670 17619 net.cpp:150] Setting up L3_b6_cbr1_scale
I0817 16:06:12.522682 17619 net.cpp:157] Top shape: 125 64 8 8 (512000)
I0817 16:06:12.522687 17619 net.cpp:165] Memory required for data: 1370625500
I0817 16:06:12.522696 17619 layer_factory.hpp:77] Creating layer L3_b6_cbr1_relu
I0817 16:06:12.522711 17619 net.cpp:100] Creating Layer L3_b6_cbr1_relu
I0817 16:06:12.522720 17619 net.cpp:434] L3_b6_cbr1_relu <- L3_b6_cbr1_bn_top
I0817 16:06:12.522728 17619 net.cpp:395] L3_b6_cbr1_relu -> L3_b6_cbr1_bn_top (in-place)
I0817 16:06:12.522737 17619 net.cpp:150] Setting up L3_b6_cbr1_relu
I0817 16:06:12.522745 17619 net.cpp:157] Top shape: 125 64 8 8 (512000)
I0817 16:06:12.522749 17619 net.cpp:165] Memory required for data: 1372673500
I0817 16:06:12.522754 17619 layer_factory.hpp:77] Creating layer L3_b6_cbr2_conv
I0817 16:06:12.522768 17619 net.cpp:100] Creating Layer L3_b6_cbr2_conv
I0817 16:06:12.522774 17619 net.cpp:434] L3_b6_cbr2_conv <- L3_b6_cbr1_bn_top
I0817 16:06:12.522783 17619 net.cpp:408] L3_b6_cbr2_conv -> L3_b6_cbr2_conv_top
I0817 16:06:12.523797 17619 net.cpp:150] Setting up L3_b6_cbr2_conv
I0817 16:06:12.523811 17619 net.cpp:157] Top shape: 125 64 8 8 (512000)
I0817 16:06:12.523816 17619 net.cpp:165] Memory required for data: 1374721500
I0817 16:06:12.523825 17619 layer_factory.hpp:77] Creating layer L3_b6_cbr2_bn
I0817 16:06:12.523839 17619 net.cpp:100] Creating Layer L3_b6_cbr2_bn
I0817 16:06:12.523846 17619 net.cpp:434] L3_b6_cbr2_bn <- L3_b6_cbr2_conv_top
I0817 16:06:12.523857 17619 net.cpp:408] L3_b6_cbr2_bn -> L3_b6_cbr2_bn_top
I0817 16:06:12.524116 17619 net.cpp:150] Setting up L3_b6_cbr2_bn
I0817 16:06:12.524128 17619 net.cpp:157] Top shape: 125 64 8 8 (512000)
I0817 16:06:12.524133 17619 net.cpp:165] Memory required for data: 1376769500
I0817 16:06:12.524143 17619 layer_factory.hpp:77] Creating layer L3_b6_cbr2_scale
I0817 16:06:12.524152 17619 net.cpp:100] Creating Layer L3_b6_cbr2_scale
I0817 16:06:12.524158 17619 net.cpp:434] L3_b6_cbr2_scale <- L3_b6_cbr2_bn_top
I0817 16:06:12.524169 17619 net.cpp:395] L3_b6_cbr2_scale -> L3_b6_cbr2_bn_top (in-place)
I0817 16:06:12.524225 17619 layer_factory.hpp:77] Creating layer L3_b6_cbr2_scale
I0817 16:06:12.524379 17619 net.cpp:150] Setting up L3_b6_cbr2_scale
I0817 16:06:12.524392 17619 net.cpp:157] Top shape: 125 64 8 8 (512000)
I0817 16:06:12.524397 17619 net.cpp:165] Memory required for data: 1378817500
I0817 16:06:12.524406 17619 layer_factory.hpp:77] Creating layer L3_b6_sum_eltwise
I0817 16:06:12.524415 17619 net.cpp:100] Creating Layer L3_b6_sum_eltwise
I0817 16:06:12.524422 17619 net.cpp:434] L3_b6_sum_eltwise <- L3_b6_cbr2_bn_top
I0817 16:06:12.524428 17619 net.cpp:434] L3_b6_sum_eltwise <- L3_b5_sum_eltwise_top_L3_b5_relu_0_split_1
I0817 16:06:12.524440 17619 net.cpp:408] L3_b6_sum_eltwise -> L3_b6_sum_eltwise_top
I0817 16:06:12.524475 17619 net.cpp:150] Setting up L3_b6_sum_eltwise
I0817 16:06:12.524487 17619 net.cpp:157] Top shape: 125 64 8 8 (512000)
I0817 16:06:12.524492 17619 net.cpp:165] Memory required for data: 1380865500
I0817 16:06:12.524497 17619 layer_factory.hpp:77] Creating layer L3_b6_relu
I0817 16:06:12.524504 17619 net.cpp:100] Creating Layer L3_b6_relu
I0817 16:06:12.524510 17619 net.cpp:434] L3_b6_relu <- L3_b6_sum_eltwise_top
I0817 16:06:12.524524 17619 net.cpp:395] L3_b6_relu -> L3_b6_sum_eltwise_top (in-place)
I0817 16:06:12.524538 17619 net.cpp:150] Setting up L3_b6_relu
I0817 16:06:12.524544 17619 net.cpp:157] Top shape: 125 64 8 8 (512000)
I0817 16:06:12.524549 17619 net.cpp:165] Memory required for data: 1382913500
I0817 16:06:12.524554 17619 layer_factory.hpp:77] Creating layer L3_b6_sum_eltwise_top_L3_b6_relu_0_split
I0817 16:06:12.524561 17619 net.cpp:100] Creating Layer L3_b6_sum_eltwise_top_L3_b6_relu_0_split
I0817 16:06:12.524566 17619 net.cpp:434] L3_b6_sum_eltwise_top_L3_b6_relu_0_split <- L3_b6_sum_eltwise_top
I0817 16:06:12.524574 17619 net.cpp:408] L3_b6_sum_eltwise_top_L3_b6_relu_0_split -> L3_b6_sum_eltwise_top_L3_b6_relu_0_split_0
I0817 16:06:12.524583 17619 net.cpp:408] L3_b6_sum_eltwise_top_L3_b6_relu_0_split -> L3_b6_sum_eltwise_top_L3_b6_relu_0_split_1
I0817 16:06:12.524634 17619 net.cpp:150] Setting up L3_b6_sum_eltwise_top_L3_b6_relu_0_split
I0817 16:06:12.524646 17619 net.cpp:157] Top shape: 125 64 8 8 (512000)
I0817 16:06:12.524653 17619 net.cpp:157] Top shape: 125 64 8 8 (512000)
I0817 16:06:12.524658 17619 net.cpp:165] Memory required for data: 1387009500
I0817 16:06:12.524663 17619 layer_factory.hpp:77] Creating layer L3_b7_cbr1_conv
I0817 16:06:12.524674 17619 net.cpp:100] Creating Layer L3_b7_cbr1_conv
I0817 16:06:12.524680 17619 net.cpp:434] L3_b7_cbr1_conv <- L3_b6_sum_eltwise_top_L3_b6_relu_0_split_0
I0817 16:06:12.524693 17619 net.cpp:408] L3_b7_cbr1_conv -> L3_b7_cbr1_conv_top
I0817 16:06:12.525717 17619 net.cpp:150] Setting up L3_b7_cbr1_conv
I0817 16:06:12.525733 17619 net.cpp:157] Top shape: 125 64 8 8 (512000)
I0817 16:06:12.525738 17619 net.cpp:165] Memory required for data: 1389057500
I0817 16:06:12.525748 17619 layer_factory.hpp:77] Creating layer L3_b7_cbr1_bn
I0817 16:06:12.525756 17619 net.cpp:100] Creating Layer L3_b7_cbr1_bn
I0817 16:06:12.525763 17619 net.cpp:434] L3_b7_cbr1_bn <- L3_b7_cbr1_conv_top
I0817 16:06:12.525774 17619 net.cpp:408] L3_b7_cbr1_bn -> L3_b7_cbr1_bn_top
I0817 16:06:12.526036 17619 net.cpp:150] Setting up L3_b7_cbr1_bn
I0817 16:06:12.526051 17619 net.cpp:157] Top shape: 125 64 8 8 (512000)
I0817 16:06:12.526055 17619 net.cpp:165] Memory required for data: 1391105500
I0817 16:06:12.526065 17619 layer_factory.hpp:77] Creating layer L3_b7_cbr1_scale
I0817 16:06:12.526075 17619 net.cpp:100] Creating Layer L3_b7_cbr1_scale
I0817 16:06:12.526082 17619 net.cpp:434] L3_b7_cbr1_scale <- L3_b7_cbr1_bn_top
I0817 16:06:12.526088 17619 net.cpp:395] L3_b7_cbr1_scale -> L3_b7_cbr1_bn_top (in-place)
I0817 16:06:12.526144 17619 layer_factory.hpp:77] Creating layer L3_b7_cbr1_scale
I0817 16:06:12.526301 17619 net.cpp:150] Setting up L3_b7_cbr1_scale
I0817 16:06:12.526314 17619 net.cpp:157] Top shape: 125 64 8 8 (512000)
I0817 16:06:12.526319 17619 net.cpp:165] Memory required for data: 1393153500
I0817 16:06:12.526329 17619 layer_factory.hpp:77] Creating layer L3_b7_cbr1_relu
I0817 16:06:12.526362 17619 net.cpp:100] Creating Layer L3_b7_cbr1_relu
I0817 16:06:12.526371 17619 net.cpp:434] L3_b7_cbr1_relu <- L3_b7_cbr1_bn_top
I0817 16:06:12.526379 17619 net.cpp:395] L3_b7_cbr1_relu -> L3_b7_cbr1_bn_top (in-place)
I0817 16:06:12.526389 17619 net.cpp:150] Setting up L3_b7_cbr1_relu
I0817 16:06:12.526396 17619 net.cpp:157] Top shape: 125 64 8 8 (512000)
I0817 16:06:12.526401 17619 net.cpp:165] Memory required for data: 1395201500
I0817 16:06:12.526407 17619 layer_factory.hpp:77] Creating layer L3_b7_cbr2_conv
I0817 16:06:12.526418 17619 net.cpp:100] Creating Layer L3_b7_cbr2_conv
I0817 16:06:12.526423 17619 net.cpp:434] L3_b7_cbr2_conv <- L3_b7_cbr1_bn_top
I0817 16:06:12.526435 17619 net.cpp:408] L3_b7_cbr2_conv -> L3_b7_cbr2_conv_top
I0817 16:06:12.527457 17619 net.cpp:150] Setting up L3_b7_cbr2_conv
I0817 16:06:12.527473 17619 net.cpp:157] Top shape: 125 64 8 8 (512000)
I0817 16:06:12.527478 17619 net.cpp:165] Memory required for data: 1397249500
I0817 16:06:12.527487 17619 layer_factory.hpp:77] Creating layer L3_b7_cbr2_bn
I0817 16:06:12.527496 17619 net.cpp:100] Creating Layer L3_b7_cbr2_bn
I0817 16:06:12.527509 17619 net.cpp:434] L3_b7_cbr2_bn <- L3_b7_cbr2_conv_top
I0817 16:06:12.527521 17619 net.cpp:408] L3_b7_cbr2_bn -> L3_b7_cbr2_bn_top
I0817 16:06:12.527792 17619 net.cpp:150] Setting up L3_b7_cbr2_bn
I0817 16:06:12.527809 17619 net.cpp:157] Top shape: 125 64 8 8 (512000)
I0817 16:06:12.527814 17619 net.cpp:165] Memory required for data: 1399297500
I0817 16:06:12.527825 17619 layer_factory.hpp:77] Creating layer L3_b7_cbr2_scale
I0817 16:06:12.527834 17619 net.cpp:100] Creating Layer L3_b7_cbr2_scale
I0817 16:06:12.527840 17619 net.cpp:434] L3_b7_cbr2_scale <- L3_b7_cbr2_bn_top
I0817 16:06:12.527848 17619 net.cpp:395] L3_b7_cbr2_scale -> L3_b7_cbr2_bn_top (in-place)
I0817 16:06:12.527904 17619 layer_factory.hpp:77] Creating layer L3_b7_cbr2_scale
I0817 16:06:12.528059 17619 net.cpp:150] Setting up L3_b7_cbr2_scale
I0817 16:06:12.528071 17619 net.cpp:157] Top shape: 125 64 8 8 (512000)
I0817 16:06:12.528076 17619 net.cpp:165] Memory required for data: 1401345500
I0817 16:06:12.528084 17619 layer_factory.hpp:77] Creating layer L3_b7_sum_eltwise
I0817 16:06:12.528096 17619 net.cpp:100] Creating Layer L3_b7_sum_eltwise
I0817 16:06:12.528102 17619 net.cpp:434] L3_b7_sum_eltwise <- L3_b7_cbr2_bn_top
I0817 16:06:12.528110 17619 net.cpp:434] L3_b7_sum_eltwise <- L3_b6_sum_eltwise_top_L3_b6_relu_0_split_1
I0817 16:06:12.528117 17619 net.cpp:408] L3_b7_sum_eltwise -> L3_b7_sum_eltwise_top
I0817 16:06:12.528154 17619 net.cpp:150] Setting up L3_b7_sum_eltwise
I0817 16:06:12.528167 17619 net.cpp:157] Top shape: 125 64 8 8 (512000)
I0817 16:06:12.528172 17619 net.cpp:165] Memory required for data: 1403393500
I0817 16:06:12.528177 17619 layer_factory.hpp:77] Creating layer L3_b7_relu
I0817 16:06:12.528184 17619 net.cpp:100] Creating Layer L3_b7_relu
I0817 16:06:12.528189 17619 net.cpp:434] L3_b7_relu <- L3_b7_sum_eltwise_top
I0817 16:06:12.528197 17619 net.cpp:395] L3_b7_relu -> L3_b7_sum_eltwise_top (in-place)
I0817 16:06:12.528206 17619 net.cpp:150] Setting up L3_b7_relu
I0817 16:06:12.528213 17619 net.cpp:157] Top shape: 125 64 8 8 (512000)
I0817 16:06:12.528218 17619 net.cpp:165] Memory required for data: 1405441500
I0817 16:06:12.528223 17619 layer_factory.hpp:77] Creating layer L3_b7_sum_eltwise_top_L3_b7_relu_0_split
I0817 16:06:12.528228 17619 net.cpp:100] Creating Layer L3_b7_sum_eltwise_top_L3_b7_relu_0_split
I0817 16:06:12.528234 17619 net.cpp:434] L3_b7_sum_eltwise_top_L3_b7_relu_0_split <- L3_b7_sum_eltwise_top
I0817 16:06:12.528244 17619 net.cpp:408] L3_b7_sum_eltwise_top_L3_b7_relu_0_split -> L3_b7_sum_eltwise_top_L3_b7_relu_0_split_0
I0817 16:06:12.528254 17619 net.cpp:408] L3_b7_sum_eltwise_top_L3_b7_relu_0_split -> L3_b7_sum_eltwise_top_L3_b7_relu_0_split_1
I0817 16:06:12.528298 17619 net.cpp:150] Setting up L3_b7_sum_eltwise_top_L3_b7_relu_0_split
I0817 16:06:12.528311 17619 net.cpp:157] Top shape: 125 64 8 8 (512000)
I0817 16:06:12.528316 17619 net.cpp:157] Top shape: 125 64 8 8 (512000)
I0817 16:06:12.528321 17619 net.cpp:165] Memory required for data: 1409537500
I0817 16:06:12.528326 17619 layer_factory.hpp:77] Creating layer L3_b8_cbr1_conv
I0817 16:06:12.528342 17619 net.cpp:100] Creating Layer L3_b8_cbr1_conv
I0817 16:06:12.528348 17619 net.cpp:434] L3_b8_cbr1_conv <- L3_b7_sum_eltwise_top_L3_b7_relu_0_split_0
I0817 16:06:12.528357 17619 net.cpp:408] L3_b8_cbr1_conv -> L3_b8_cbr1_conv_top
I0817 16:06:12.529371 17619 net.cpp:150] Setting up L3_b8_cbr1_conv
I0817 16:06:12.529386 17619 net.cpp:157] Top shape: 125 64 8 8 (512000)
I0817 16:06:12.529392 17619 net.cpp:165] Memory required for data: 1411585500
I0817 16:06:12.529400 17619 layer_factory.hpp:77] Creating layer L3_b8_cbr1_bn
I0817 16:06:12.529412 17619 net.cpp:100] Creating Layer L3_b8_cbr1_bn
I0817 16:06:12.529418 17619 net.cpp:434] L3_b8_cbr1_bn <- L3_b8_cbr1_conv_top
I0817 16:06:12.529428 17619 net.cpp:408] L3_b8_cbr1_bn -> L3_b8_cbr1_bn_top
I0817 16:06:12.529685 17619 net.cpp:150] Setting up L3_b8_cbr1_bn
I0817 16:06:12.529703 17619 net.cpp:157] Top shape: 125 64 8 8 (512000)
I0817 16:06:12.529709 17619 net.cpp:165] Memory required for data: 1413633500
I0817 16:06:12.529727 17619 layer_factory.hpp:77] Creating layer L3_b8_cbr1_scale
I0817 16:06:12.529736 17619 net.cpp:100] Creating Layer L3_b8_cbr1_scale
I0817 16:06:12.529743 17619 net.cpp:434] L3_b8_cbr1_scale <- L3_b8_cbr1_bn_top
I0817 16:06:12.529757 17619 net.cpp:395] L3_b8_cbr1_scale -> L3_b8_cbr1_bn_top (in-place)
I0817 16:06:12.529815 17619 layer_factory.hpp:77] Creating layer L3_b8_cbr1_scale
I0817 16:06:12.529971 17619 net.cpp:150] Setting up L3_b8_cbr1_scale
I0817 16:06:12.529984 17619 net.cpp:157] Top shape: 125 64 8 8 (512000)
I0817 16:06:12.529989 17619 net.cpp:165] Memory required for data: 1415681500
I0817 16:06:12.529999 17619 layer_factory.hpp:77] Creating layer L3_b8_cbr1_relu
I0817 16:06:12.530009 17619 net.cpp:100] Creating Layer L3_b8_cbr1_relu
I0817 16:06:12.530016 17619 net.cpp:434] L3_b8_cbr1_relu <- L3_b8_cbr1_bn_top
I0817 16:06:12.530023 17619 net.cpp:395] L3_b8_cbr1_relu -> L3_b8_cbr1_bn_top (in-place)
I0817 16:06:12.530032 17619 net.cpp:150] Setting up L3_b8_cbr1_relu
I0817 16:06:12.530040 17619 net.cpp:157] Top shape: 125 64 8 8 (512000)
I0817 16:06:12.530045 17619 net.cpp:165] Memory required for data: 1417729500
I0817 16:06:12.530048 17619 layer_factory.hpp:77] Creating layer L3_b8_cbr2_conv
I0817 16:06:12.530062 17619 net.cpp:100] Creating Layer L3_b8_cbr2_conv
I0817 16:06:12.530068 17619 net.cpp:434] L3_b8_cbr2_conv <- L3_b8_cbr1_bn_top
I0817 16:06:12.530079 17619 net.cpp:408] L3_b8_cbr2_conv -> L3_b8_cbr2_conv_top
I0817 16:06:12.531097 17619 net.cpp:150] Setting up L3_b8_cbr2_conv
I0817 16:06:12.531112 17619 net.cpp:157] Top shape: 125 64 8 8 (512000)
I0817 16:06:12.531117 17619 net.cpp:165] Memory required for data: 1419777500
I0817 16:06:12.531126 17619 layer_factory.hpp:77] Creating layer L3_b8_cbr2_bn
I0817 16:06:12.531136 17619 net.cpp:100] Creating Layer L3_b8_cbr2_bn
I0817 16:06:12.531141 17619 net.cpp:434] L3_b8_cbr2_bn <- L3_b8_cbr2_conv_top
I0817 16:06:12.531152 17619 net.cpp:408] L3_b8_cbr2_bn -> L3_b8_cbr2_bn_top
I0817 16:06:12.531412 17619 net.cpp:150] Setting up L3_b8_cbr2_bn
I0817 16:06:12.531428 17619 net.cpp:157] Top shape: 125 64 8 8 (512000)
I0817 16:06:12.531433 17619 net.cpp:165] Memory required for data: 1421825500
I0817 16:06:12.531443 17619 layer_factory.hpp:77] Creating layer L3_b8_cbr2_scale
I0817 16:06:12.531452 17619 net.cpp:100] Creating Layer L3_b8_cbr2_scale
I0817 16:06:12.531458 17619 net.cpp:434] L3_b8_cbr2_scale <- L3_b8_cbr2_bn_top
I0817 16:06:12.531466 17619 net.cpp:395] L3_b8_cbr2_scale -> L3_b8_cbr2_bn_top (in-place)
I0817 16:06:12.531522 17619 layer_factory.hpp:77] Creating layer L3_b8_cbr2_scale
I0817 16:06:12.531677 17619 net.cpp:150] Setting up L3_b8_cbr2_scale
I0817 16:06:12.531692 17619 net.cpp:157] Top shape: 125 64 8 8 (512000)
I0817 16:06:12.531697 17619 net.cpp:165] Memory required for data: 1423873500
I0817 16:06:12.531710 17619 layer_factory.hpp:77] Creating layer L3_b8_sum_eltwise
I0817 16:06:12.531723 17619 net.cpp:100] Creating Layer L3_b8_sum_eltwise
I0817 16:06:12.531729 17619 net.cpp:434] L3_b8_sum_eltwise <- L3_b8_cbr2_bn_top
I0817 16:06:12.531736 17619 net.cpp:434] L3_b8_sum_eltwise <- L3_b7_sum_eltwise_top_L3_b7_relu_0_split_1
I0817 16:06:12.531744 17619 net.cpp:408] L3_b8_sum_eltwise -> L3_b8_sum_eltwise_top
I0817 16:06:12.531781 17619 net.cpp:150] Setting up L3_b8_sum_eltwise
I0817 16:06:12.531793 17619 net.cpp:157] Top shape: 125 64 8 8 (512000)
I0817 16:06:12.531798 17619 net.cpp:165] Memory required for data: 1425921500
I0817 16:06:12.531803 17619 layer_factory.hpp:77] Creating layer L3_b8_relu
I0817 16:06:12.531811 17619 net.cpp:100] Creating Layer L3_b8_relu
I0817 16:06:12.531816 17619 net.cpp:434] L3_b8_relu <- L3_b8_sum_eltwise_top
I0817 16:06:12.531824 17619 net.cpp:395] L3_b8_relu -> L3_b8_sum_eltwise_top (in-place)
I0817 16:06:12.531833 17619 net.cpp:150] Setting up L3_b8_relu
I0817 16:06:12.531841 17619 net.cpp:157] Top shape: 125 64 8 8 (512000)
I0817 16:06:12.531844 17619 net.cpp:165] Memory required for data: 1427969500
I0817 16:06:12.531849 17619 layer_factory.hpp:77] Creating layer L3_b8_sum_eltwise_top_L3_b8_relu_0_split
I0817 16:06:12.531865 17619 net.cpp:100] Creating Layer L3_b8_sum_eltwise_top_L3_b8_relu_0_split
I0817 16:06:12.531872 17619 net.cpp:434] L3_b8_sum_eltwise_top_L3_b8_relu_0_split <- L3_b8_sum_eltwise_top
I0817 16:06:12.531883 17619 net.cpp:408] L3_b8_sum_eltwise_top_L3_b8_relu_0_split -> L3_b8_sum_eltwise_top_L3_b8_relu_0_split_0
I0817 16:06:12.531893 17619 net.cpp:408] L3_b8_sum_eltwise_top_L3_b8_relu_0_split -> L3_b8_sum_eltwise_top_L3_b8_relu_0_split_1
I0817 16:06:12.531939 17619 net.cpp:150] Setting up L3_b8_sum_eltwise_top_L3_b8_relu_0_split
I0817 16:06:12.531950 17619 net.cpp:157] Top shape: 125 64 8 8 (512000)
I0817 16:06:12.531956 17619 net.cpp:157] Top shape: 125 64 8 8 (512000)
I0817 16:06:12.531961 17619 net.cpp:165] Memory required for data: 1432065500
I0817 16:06:12.531966 17619 layer_factory.hpp:77] Creating layer L3_b9_cbr1_conv
I0817 16:06:12.531981 17619 net.cpp:100] Creating Layer L3_b9_cbr1_conv
I0817 16:06:12.531988 17619 net.cpp:434] L3_b9_cbr1_conv <- L3_b8_sum_eltwise_top_L3_b8_relu_0_split_0
I0817 16:06:12.531997 17619 net.cpp:408] L3_b9_cbr1_conv -> L3_b9_cbr1_conv_top
I0817 16:06:12.533991 17619 net.cpp:150] Setting up L3_b9_cbr1_conv
I0817 16:06:12.534008 17619 net.cpp:157] Top shape: 125 64 8 8 (512000)
I0817 16:06:12.534014 17619 net.cpp:165] Memory required for data: 1434113500
I0817 16:06:12.534024 17619 layer_factory.hpp:77] Creating layer L3_b9_cbr1_bn
I0817 16:06:12.534036 17619 net.cpp:100] Creating Layer L3_b9_cbr1_bn
I0817 16:06:12.534044 17619 net.cpp:434] L3_b9_cbr1_bn <- L3_b9_cbr1_conv_top
I0817 16:06:12.534052 17619 net.cpp:408] L3_b9_cbr1_bn -> L3_b9_cbr1_bn_top
I0817 16:06:12.534318 17619 net.cpp:150] Setting up L3_b9_cbr1_bn
I0817 16:06:12.534332 17619 net.cpp:157] Top shape: 125 64 8 8 (512000)
I0817 16:06:12.534337 17619 net.cpp:165] Memory required for data: 1436161500
I0817 16:06:12.534346 17619 layer_factory.hpp:77] Creating layer L3_b9_cbr1_scale
I0817 16:06:12.534355 17619 net.cpp:100] Creating Layer L3_b9_cbr1_scale
I0817 16:06:12.534361 17619 net.cpp:434] L3_b9_cbr1_scale <- L3_b9_cbr1_bn_top
I0817 16:06:12.534369 17619 net.cpp:395] L3_b9_cbr1_scale -> L3_b9_cbr1_bn_top (in-place)
I0817 16:06:12.534430 17619 layer_factory.hpp:77] Creating layer L3_b9_cbr1_scale
I0817 16:06:12.534584 17619 net.cpp:150] Setting up L3_b9_cbr1_scale
I0817 16:06:12.534600 17619 net.cpp:157] Top shape: 125 64 8 8 (512000)
I0817 16:06:12.534605 17619 net.cpp:165] Memory required for data: 1438209500
I0817 16:06:12.534615 17619 layer_factory.hpp:77] Creating layer L3_b9_cbr1_relu
I0817 16:06:12.534622 17619 net.cpp:100] Creating Layer L3_b9_cbr1_relu
I0817 16:06:12.534628 17619 net.cpp:434] L3_b9_cbr1_relu <- L3_b9_cbr1_bn_top
I0817 16:06:12.534636 17619 net.cpp:395] L3_b9_cbr1_relu -> L3_b9_cbr1_bn_top (in-place)
I0817 16:06:12.534646 17619 net.cpp:150] Setting up L3_b9_cbr1_relu
I0817 16:06:12.534652 17619 net.cpp:157] Top shape: 125 64 8 8 (512000)
I0817 16:06:12.534657 17619 net.cpp:165] Memory required for data: 1440257500
I0817 16:06:12.534662 17619 layer_factory.hpp:77] Creating layer L3_b9_cbr2_conv
I0817 16:06:12.534679 17619 net.cpp:100] Creating Layer L3_b9_cbr2_conv
I0817 16:06:12.534685 17619 net.cpp:434] L3_b9_cbr2_conv <- L3_b9_cbr1_bn_top
I0817 16:06:12.534696 17619 net.cpp:408] L3_b9_cbr2_conv -> L3_b9_cbr2_conv_top
I0817 16:06:12.535907 17619 net.cpp:150] Setting up L3_b9_cbr2_conv
I0817 16:06:12.535923 17619 net.cpp:157] Top shape: 125 64 8 8 (512000)
I0817 16:06:12.535928 17619 net.cpp:165] Memory required for data: 1442305500
I0817 16:06:12.535938 17619 layer_factory.hpp:77] Creating layer L3_b9_cbr2_bn
I0817 16:06:12.535950 17619 net.cpp:100] Creating Layer L3_b9_cbr2_bn
I0817 16:06:12.535957 17619 net.cpp:434] L3_b9_cbr2_bn <- L3_b9_cbr2_conv_top
I0817 16:06:12.535966 17619 net.cpp:408] L3_b9_cbr2_bn -> L3_b9_cbr2_bn_top
I0817 16:06:12.536229 17619 net.cpp:150] Setting up L3_b9_cbr2_bn
I0817 16:06:12.536242 17619 net.cpp:157] Top shape: 125 64 8 8 (512000)
I0817 16:06:12.536247 17619 net.cpp:165] Memory required for data: 1444353500
I0817 16:06:12.536267 17619 layer_factory.hpp:77] Creating layer L3_b9_cbr2_scale
I0817 16:06:12.536278 17619 net.cpp:100] Creating Layer L3_b9_cbr2_scale
I0817 16:06:12.536285 17619 net.cpp:434] L3_b9_cbr2_scale <- L3_b9_cbr2_bn_top
I0817 16:06:12.536293 17619 net.cpp:395] L3_b9_cbr2_scale -> L3_b9_cbr2_bn_top (in-place)
I0817 16:06:12.536350 17619 layer_factory.hpp:77] Creating layer L3_b9_cbr2_scale
I0817 16:06:12.536502 17619 net.cpp:150] Setting up L3_b9_cbr2_scale
I0817 16:06:12.536515 17619 net.cpp:157] Top shape: 125 64 8 8 (512000)
I0817 16:06:12.536520 17619 net.cpp:165] Memory required for data: 1446401500
I0817 16:06:12.536530 17619 layer_factory.hpp:77] Creating layer L3_b9_sum_eltwise
I0817 16:06:12.536541 17619 net.cpp:100] Creating Layer L3_b9_sum_eltwise
I0817 16:06:12.536548 17619 net.cpp:434] L3_b9_sum_eltwise <- L3_b9_cbr2_bn_top
I0817 16:06:12.536556 17619 net.cpp:434] L3_b9_sum_eltwise <- L3_b8_sum_eltwise_top_L3_b8_relu_0_split_1
I0817 16:06:12.536563 17619 net.cpp:408] L3_b9_sum_eltwise -> L3_b9_sum_eltwise_top
I0817 16:06:12.536598 17619 net.cpp:150] Setting up L3_b9_sum_eltwise
I0817 16:06:12.536610 17619 net.cpp:157] Top shape: 125 64 8 8 (512000)
I0817 16:06:12.536615 17619 net.cpp:165] Memory required for data: 1448449500
I0817 16:06:12.536620 17619 layer_factory.hpp:77] Creating layer L3_b9_relu
I0817 16:06:12.536628 17619 net.cpp:100] Creating Layer L3_b9_relu
I0817 16:06:12.536633 17619 net.cpp:434] L3_b9_relu <- L3_b9_sum_eltwise_top
I0817 16:06:12.536643 17619 net.cpp:395] L3_b9_relu -> L3_b9_sum_eltwise_top (in-place)
I0817 16:06:12.536653 17619 net.cpp:150] Setting up L3_b9_relu
I0817 16:06:12.536660 17619 net.cpp:157] Top shape: 125 64 8 8 (512000)
I0817 16:06:12.536665 17619 net.cpp:165] Memory required for data: 1450497500
I0817 16:06:12.536670 17619 layer_factory.hpp:77] Creating layer post_pool
I0817 16:06:12.536679 17619 net.cpp:100] Creating Layer post_pool
I0817 16:06:12.536684 17619 net.cpp:434] post_pool <- L3_b9_sum_eltwise_top
I0817 16:06:12.536691 17619 net.cpp:408] post_pool -> post_pool
I0817 16:06:12.536731 17619 net.cpp:150] Setting up post_pool
I0817 16:06:12.536746 17619 net.cpp:157] Top shape: 125 64 1 1 (8000)
I0817 16:06:12.536752 17619 net.cpp:165] Memory required for data: 1450529500
I0817 16:06:12.536757 17619 layer_factory.hpp:77] Creating layer post_FC
I0817 16:06:12.536839 17619 net.cpp:100] Creating Layer post_FC
I0817 16:06:12.536851 17619 net.cpp:434] post_FC <- post_pool
I0817 16:06:12.536861 17619 net.cpp:408] post_FC -> post_FC_top
I0817 16:06:12.537099 17619 net.cpp:150] Setting up post_FC
I0817 16:06:12.537117 17619 net.cpp:157] Top shape: 125 10 (1250)
I0817 16:06:12.537123 17619 net.cpp:165] Memory required for data: 1450534500
I0817 16:06:12.537132 17619 layer_factory.hpp:77] Creating layer post_FC_top_post_FC_0_split
I0817 16:06:12.537142 17619 net.cpp:100] Creating Layer post_FC_top_post_FC_0_split
I0817 16:06:12.537147 17619 net.cpp:434] post_FC_top_post_FC_0_split <- post_FC_top
I0817 16:06:12.537155 17619 net.cpp:408] post_FC_top_post_FC_0_split -> post_FC_top_post_FC_0_split_0
I0817 16:06:12.537165 17619 net.cpp:408] post_FC_top_post_FC_0_split -> post_FC_top_post_FC_0_split_1
I0817 16:06:12.537214 17619 net.cpp:150] Setting up post_FC_top_post_FC_0_split
I0817 16:06:12.537226 17619 net.cpp:157] Top shape: 125 10 (1250)
I0817 16:06:12.537233 17619 net.cpp:157] Top shape: 125 10 (1250)
I0817 16:06:12.537237 17619 net.cpp:165] Memory required for data: 1450544500
I0817 16:06:12.537243 17619 layer_factory.hpp:77] Creating layer accuracy
I0817 16:06:12.537284 17619 net.cpp:100] Creating Layer accuracy
I0817 16:06:12.537295 17619 net.cpp:434] accuracy <- post_FC_top_post_FC_0_split_0
I0817 16:06:12.537309 17619 net.cpp:434] accuracy <- label_dataLayer_1_split_0
I0817 16:06:12.537317 17619 net.cpp:408] accuracy -> accuracy
…
