…
I0821 08:27:51.599759 32360 net.cpp:322] The NetState phase (0) differed from the phase (1) specified by a rule in layer L3_b9_cbr2_bn
I0821 08:27:51.601516 32360 net.cpp:58] Initializing net from parameters: 
name: "Cifar-Resnet"
state {
  phase: TRAIN
  level: 0
  stage: ""
}
layer {
  name: "dataLayer"
  type: "Data"
  top: "data_top"
  top: "label"
  include {
    phase: TRAIN
  }
  transform_param {
    mirror: true
    crop_size: 32
    mean_file: "examples/cifar10/mean.binaryproto"
  }
  data_param {
    source: "examples/cifar10/cifar10_train10k_lmdb"
    batch_size: 125
    backend: LMDB
  }
  image_data_param {
    shuffle: true
  }
}
layer {
  name: "pre_conv"
  type: "Convolution"
  bottom: "data_top"
  top: "pre_conv_top"
  param {
    lr_mult: 1
    decay_mult: 1
  }
  param {
    lr_mult: 2
    decay_mult: 0
  }
  convolution_param {
    num_output: 16
    pad: 1
    kernel_size: 3
    stride: 1
    weight_filler {
      type: "msra"
    }
    bias_filler {
      type: "constant"
    }
  }
}
layer {
  name: "pre_bn"
  type: "BatchNorm"
  bottom: "pre_conv_top"
  top: "pre_bn_top"
  include {
    phase: TRAIN
  }
  batch_norm_param {
    use_global_stats: false
    moving_average_fraction: 0.999
  }
}
layer {
  name: "pre_scale"
  type: "Scale"
  bottom: "pre_bn_top"
  top: "pre_bn_top"
  scale_param {
    bias_term: true
  }
}
layer {
  name: "pre_relu"
  type: "ReLU"
  bottom: "pre_bn_top"
  top: "pre_bn_top"
}
layer {
  name: "L1_b1_cbr1_conv"
  type: "Convolution"
  bottom: "pre_bn_top"
  top: "L1_b1_cbr1_conv_top"
  param {
    lr_mult: 1
    decay_mult: 1
  }
  param {
    lr_mult: 2
    decay_mult: 0
  }
  convolution_param {
    num_output: 16
    pad: 1
    kernel_size: 3
    stride: 1
    weight_filler {
      type: "msra"
    }
    bias_filler {
      type: "constant"
    }
  }
}
layer {
  name: "L1_b1_cbr1_bn"
  type: "BatchNorm"
  bottom: "L1_b1_cbr1_conv_top"
  top: "L1_b1_cbr1_bn_top"
  include {
    phase: TRAIN
  }
  batch_norm_param {
    use_global_stats: false
    moving_average_fraction: 0.999
  }
}
layer {
  name: "L1_b1_cbr1_scale"
  type: "Scale"
  bottom: "L1_b1_cbr1_bn_top"
  top: "L1_b1_cbr1_bn_top"
  scale_param {
    bias_term: true
  }
}
layer {
  name: "L1_b1_cbr1_relu"
  type: "ReLU"
  bottom: "L1_b1_cbr1_bn_top"
  top: "L1_b1_cbr1_bn_top"
}
layer {
  name: "L1_b1_cbr2_conv"
  type: "Convolution"
  bottom: "L1_b1_cbr1_bn_top"
  top: "L1_b1_cbr2_conv_top"
  param {
    lr_mult: 1
    decay_mult: 1
  }
  param {
    lr_mult: 2
    decay_mult: 0
  }
  convolution_param {
    num_output: 16
    pad: 1
    kernel_size: 3
    stride: 1
    weight_filler {
      type: "msra"
    }
    bias_filler {
      type: "constant"
    }
  }
}
layer {
  name: "L1_b1_cbr2_bn"
  type: "BatchNorm"
  bottom: "L1_b1_cbr2_conv_top"
  top: "L1_b1_cbr2_bn_top"
  include {
    phase: TRAIN
  }
  batch_norm_param {
    use_global_stats: false
    moving_average_fraction: 0.999
  }
}
layer {
  name: "L1_b1_cbr2_scale"
  type: "Scale"
  bottom: "L1_b1_cbr2_bn_top"
  top: "L1_b1_cbr2_bn_top"
  scale_param {
    bias_term: true
  }
}
layer {
  name: "L1_b1_sum_eltwise"
  type: "Eltwise"
  bottom: "L1_b1_cbr2_bn_top"
  bottom: "pre_bn_top"
  top: "L1_b1_sum_eltwise_top"
  eltwise_param {
    operation: SUM
  }
}
layer {
  name: "L1_b1_relu"
  type: "ReLU"
  bottom: "L1_b1_sum_eltwise_top"
  top: "L1_b1_sum_eltwise_top"
}
layer {
  name: "L1_b2_cbr1_conv"
  type: "Convolution"
  bottom: "L1_b1_sum_eltwise_top"
  top: "L1_b2_cbr1_conv_top"
  param {
    lr_mult: 1
    decay_mult: 1
  }
  param {
    lr_mult: 2
    decay_mult: 0
  }
  convolution_param {
    num_output: 16
    pad: 1
    kernel_size: 3
    stride: 1
    weight_filler {
      type: "msra"
    }
    bias_filler {
      type: "constant"
    }
  }
}
layer {
  name: "L1_b2_cbr1_bn"
  type: "BatchNorm"
  bottom: "L1_b2_cbr1_conv_top"
  top: "L1_b2_cbr1_bn_top"
  include {
    phase: TRAIN
  }
  batch_norm_param {
    use_global_stats: false
    moving_average_fraction: 0.999
  }
}
layer {
  name: "L1_b2_cbr1_scale"
  type: "Scale"
  bottom: "L1_b2_cbr1_bn_top"
  top: "L1_b2_cbr1_bn_top"
  scale_param {
    bias_term: true
  }
}
layer {
  name: "L1_b2_cbr1_relu"
  type: "ReLU"
  bottom: "L1_b2_cbr1_bn_top"
  top: "L1_b2_cbr1_bn_top"
}
layer {
  name: "L1_b2_cbr2_conv"
  type: "Convolution"
  bottom: "L1_b2_cbr1_bn_top"
  top: "L1_b2_cbr2_conv_top"
  param {
    lr_mult: 1
    decay_mult: 1
  }
  param {
    lr_mult: 2
    decay_mult: 0
  }
  convolution_param {
    num_output: 16
    pad: 1
    kernel_size: 3
    stride: 1
    weight_filler {
      type: "msra"
    }
    bias_filler {
      type: "constant"
    }
  }
}
layer {
  name: "L1_b2_cbr2_bn"
  type: "BatchNorm"
  bottom: "L1_b2_cbr2_conv_top"
  top: "L1_b2_cbr2_bn_top"
  include {
    phase: TRAIN
  }
  batch_norm_param {
    use_global_stats: false
    moving_average_fraction: 0.999
  }
}
layer {
  name: "L1_b2_cbr2_scale"
  type: "Scale"
  bottom: "L1_b2_cbr2_bn_top"
  top: "L1_b2_cbr2_bn_top"
  scale_param {
    bias_term: true
  }
}
layer {
  name: "L1_b2_sum_eltwise"
  type: "Eltwise"
  bottom: "L1_b2_cbr2_bn_top"
  bottom: "L1_b1_sum_eltwise_top"
  top: "L1_b2_sum_eltwise_top"
  eltwise_param {
    operation: SUM
  }
}
layer {
  name: "L1_b2_relu"
  type: "ReLU"
  bottom: "L1_b2_sum_eltwise_top"
  top: "L1_b2_sum_eltwise_top"
}
layer {
  name: "L1_b3_cbr1_conv"
  type: "Convolution"
  bottom: "L1_b2_sum_eltwise_top"
  top: "L1_b3_cbr1_conv_top"
  param {
    lr_mult: 1
    decay_mult: 1
  }
  param {
    lr_mult: 2
    decay_mult: 0
  }
  convolution_param {
    num_output: 16
    pad: 1
    kernel_size: 3
    stride: 1
    weight_filler {
      type: "msra"
    }
    bias_filler {
      type: "constant"
    }
  }
}
layer {
  name: "L1_b3_cbr1_bn"
  type: "BatchNorm"
  bottom: "L1_b3_cbr1_conv_top"
  top: "L1_b3_cbr1_bn_top"
  include {
    phase: TRAIN
  }
  batch_norm_param {
    use_global_stats: false
    moving_average_fraction: 0.999
  }
}
layer {
  name: "L1_b3_cbr1_scale"
  type: "Scale"
  bottom: "L1_b3_cbr1_bn_top"
  top: "L1_b3_cbr1_bn_top"
  scale_param {
    bias_term: true
  }
}
layer {
  name: "L1_b3_cbr1_relu"
  type: "ReLU"
  bottom: "L1_b3_cbr1_bn_top"
  top: "L1_b3_cbr1_bn_top"
}
layer {
  name: "L1_b3_cbr2_conv"
  type: "Convolution"
  bottom: "L1_b3_cbr1_bn_top"
  top: "L1_b3_cbr2_conv_top"
  param {
    lr_mult: 1
    decay_mult: 1
  }
  param {
    lr_mult: 2
    decay_mult: 0
  }
  convolution_param {
    num_output: 16
    pad: 1
    kernel_size: 3
    stride: 1
    weight_filler {
      type: "msra"
    }
    bias_filler {
      type: "constant"
    }
  }
}
layer {
  name: "L1_b3_cbr2_bn"
  type: "BatchNorm"
  bottom: "L1_b3_cbr2_conv_top"
  top: "L1_b3_cbr2_bn_top"
  include {
    phase: TRAIN
  }
  batch_norm_param {
    use_global_stats: false
    moving_average_fraction: 0.999
  }
}
layer {
  name: "L1_b3_cbr2_scale"
  type: "Scale"
  bottom: "L1_b3_cbr2_bn_top"
  top: "L1_b3_cbr2_bn_top"
  scale_param {
    bias_term: true
  }
}
layer {
  name: "L1_b3_sum_eltwise"
  type: "Eltwise"
  bottom: "L1_b3_cbr2_bn_top"
  bottom: "L1_b2_sum_eltwise_top"
  top: "L1_b3_sum_eltwise_top"
  eltwise_param {
    operation: SUM
  }
}
layer {
  name: "L1_b3_relu"
  type: "ReLU"
  bottom: "L1_b3_sum_eltwise_top"
  top: "L1_b3_sum_eltwise_top"
}
layer {
  name: "L1_b4_cbr1_conv"
  type: "Convolution"
  bottom: "L1_b3_sum_eltwise_top"
  top: "L1_b4_cbr1_conv_top"
  param {
    lr_mult: 1
    decay_mult: 1
  }
  param {
    lr_mult: 2
    decay_mult: 0
  }
  convolution_param {
    num_output: 16
    pad: 1
    kernel_size: 3
    stride: 1
    weight_filler {
      type: "msra"
    }
    bias_filler {
      type: "constant"
    }
  }
}
layer {
  name: "L1_b4_cbr1_bn"
  type: "BatchNorm"
  bottom: "L1_b4_cbr1_conv_top"
  top: "L1_b4_cbr1_bn_top"
  include {
    phase: TRAIN
  }
  batch_norm_param {
    use_global_stats: false
    moving_average_fraction: 0.999
  }
}
layer {
  name: "L1_b4_cbr1_scale"
  type: "Scale"
  bottom: "L1_b4_cbr1_bn_top"
  top: "L1_b4_cbr1_bn_top"
  scale_param {
    bias_term: true
  }
}
layer {
  name: "L1_b4_cbr1_relu"
  type: "ReLU"
  bottom: "L1_b4_cbr1_bn_top"
  top: "L1_b4_cbr1_bn_top"
}
layer {
  name: "L1_b4_cbr2_conv"
  type: "Convolution"
  bottom: "L1_b4_cbr1_bn_top"
  top: "L1_b4_cbr2_conv_top"
  param {
    lr_mult: 1
    decay_mult: 1
  }
  param {
    lr_mult: 2
    decay_mult: 0
  }
  convolution_param {
    num_output: 16
    pad: 1
    kernel_size: 3
    stride: 1
    weight_filler {
      type: "msra"
    }
    bias_filler {
      type: "constant"
    }
  }
}
layer {
  name: "L1_b4_cbr2_bn"
  type: "BatchNorm"
  bottom: "L1_b4_cbr2_conv_top"
  top: "L1_b4_cbr2_bn_top"
  include {
    phase: TRAIN
  }
  batch_norm_param {
    use_global_stats: false
    moving_average_fraction: 0.999
  }
}
layer {
  name: "L1_b4_cbr2_scale"
  type: "Scale"
  bottom: "L1_b4_cbr2_bn_top"
  top: "L1_b4_cbr2_bn_top"
  scale_param {
    bias_term: true
  }
}
layer {
  name: "L1_b4_sum_eltwise"
  type: "Eltwise"
  bottom: "L1_b4_cbr2_bn_top"
  bottom: "L1_b3_sum_eltwise_top"
  top: "L1_b4_sum_eltwise_top"
  eltwise_param {
    operation: SUM
  }
}
layer {
  name: "L1_b4_relu"
  type: "ReLU"
  bottom: "L1_b4_sum_eltwise_top"
  top: "L1_b4_sum_eltwise_top"
}
layer {
  name: "L1_b5_cbr1_conv"
  type: "Convolution"
  bottom: "L1_b4_sum_eltwise_top"
  top: "L1_b5_cbr1_conv_top"
  param {
    lr_mult: 1
    decay_mult: 1
  }
  param {
    lr_mult: 2
    decay_mult: 0
  }
  convolution_param {
    num_output: 16
    pad: 1
    kernel_size: 3
    stride: 1
    weight_filler {
      type: "msra"
    }
    bias_filler {
      type: "constant"
    }
  }
}
layer {
  name: "L1_b5_cbr1_bn"
  type: "BatchNorm"
  bottom: "L1_b5_cbr1_conv_top"
  top: "L1_b5_cbr1_bn_top"
  include {
    phase: TRAIN
  }
  batch_norm_param {
    use_global_stats: false
    moving_average_fraction: 0.999
  }
}
layer {
  name: "L1_b5_cbr1_scale"
  type: "Scale"
  bottom: "L1_b5_cbr1_bn_top"
  top: "L1_b5_cbr1_bn_top"
  scale_param {
    bias_term: true
  }
}
layer {
  name: "L1_b5_cbr1_relu"
  type: "ReLU"
  bottom: "L1_b5_cbr1_bn_top"
  top: "L1_b5_cbr1_bn_top"
}
layer {
  name: "L1_b5_cbr2_conv"
  type: "Convolution"
  bottom: "L1_b5_cbr1_bn_top"
  top: "L1_b5_cbr2_conv_top"
  param {
    lr_mult: 1
    decay_mult: 1
  }
  param {
    lr_mult: 2
    decay_mult: 0
  }
  convolution_param {
    num_output: 16
    pad: 1
    kernel_size: 3
    stride: 1
    weight_filler {
      type: "msra"
    }
    bias_filler {
      type: "constant"
    }
  }
}
layer {
  name: "L1_b5_cbr2_bn"
  type: "BatchNorm"
  bottom: "L1_b5_cbr2_conv_top"
  top: "L1_b5_cbr2_bn_top"
  include {
    phase: TRAIN
  }
  batch_norm_param {
    use_global_stats: false
    moving_average_fraction: 0.999
  }
}
layer {
  name: "L1_b5_cbr2_scale"
  type: "Scale"
  bottom: "L1_b5_cbr2_bn_top"
  top: "L1_b5_cbr2_bn_top"
  scale_param {
    bias_term: true
  }
}
layer {
  name: "L1_b5_sum_eltwise"
  type: "Eltwise"
  bottom: "L1_b5_cbr2_bn_top"
  bottom: "L1_b4_sum_eltwise_top"
  top: "L1_b5_sum_eltwise_top"
  eltwise_param {
    operation: SUM
  }
}
layer {
  name: "L1_b5_relu"
  type: "ReLU"
  bottom: "L1_b5_sum_eltwise_top"
  top: "L1_b5_sum_eltwise_top"
}
layer {
  name: "L1_b6_cbr1_conv"
  type: "Convolution"
  bottom: "L1_b5_sum_eltwise_top"
  top: "L1_b6_cbr1_conv_top"
  param {
    lr_mult: 1
    decay_mult: 1
  }
  param {
    lr_mult: 2
    decay_mult: 0
  }
  convolution_param {
    num_output: 16
    pad: 1
    kernel_size: 3
    stride: 1
    weight_filler {
      type: "msra"
    }
    bias_filler {
      type: "constant"
    }
  }
}
layer {
  name: "L1_b6_cbr1_bn"
  type: "BatchNorm"
  bottom: "L1_b6_cbr1_conv_top"
  top: "L1_b6_cbr1_bn_top"
  include {
    phase: TRAIN
  }
  batch_norm_param {
    use_global_stats: false
    moving_average_fraction: 0.999
  }
}
layer {
  name: "L1_b6_cbr1_scale"
  type: "Scale"
  bottom: "L1_b6_cbr1_bn_top"
  top: "L1_b6_cbr1_bn_top"
  scale_param {
    bias_term: true
  }
}
layer {
  name: "L1_b6_cbr1_relu"
  type: "ReLU"
  bottom: "L1_b6_cbr1_bn_top"
  top: "L1_b6_cbr1_bn_top"
}
layer {
  name: "L1_b6_cbr2_conv"
  type: "Convolution"
  bottom: "L1_b6_cbr1_bn_top"
  top: "L1_b6_cbr2_conv_top"
  param {
    lr_mult: 1
    decay_mult: 1
  }
  param {
    lr_mult: 2
    decay_mult: 0
  }
  convolution_param {
    num_output: 16
    pad: 1
    kernel_size: 3
    stride: 1
    weight_filler {
      type: "msra"
    }
    bias_filler {
      type: "constant"
    }
  }
}
layer {
  name: "L1_b6_cbr2_bn"
  type: "BatchNorm"
  bottom: "L1_b6_cbr2_conv_top"
  top: "L1_b6_cbr2_bn_top"
  include {
    phase: TRAIN
  }
  batch_norm_param {
    use_global_stats: false
    moving_average_fraction: 0.999
  }
}
layer {
  name: "L1_b6_cbr2_scale"
  type: "Scale"
  bottom: "L1_b6_cbr2_bn_top"
  top: "L1_b6_cbr2_bn_top"
  scale_param {
    bias_term: true
  }
}
layer {
  name: "L1_b6_sum_eltwise"
  type: "Eltwise"
  bottom: "L1_b6_cbr2_bn_top"
  bottom: "L1_b5_sum_eltwise_top"
  top: "L1_b6_sum_eltwise_top"
  eltwise_param {
    operation: SUM
  }
}
layer {
  name: "L1_b6_relu"
  type: "ReLU"
  bottom: "L1_b6_sum_eltwise_top"
  top: "L1_b6_sum_eltwise_top"
}
layer {
  name: "L1_b7_cbr1_conv"
  type: "Convolution"
  bottom: "L1_b6_sum_eltwise_top"
  top: "L1_b7_cbr1_conv_top"
  param {
    lr_mult: 1
    decay_mult: 1
  }
  param {
    lr_mult: 2
    decay_mult: 0
  }
  convolution_param {
    num_output: 16
    pad: 1
    kernel_size: 3
    stride: 1
    weight_filler {
      type: "msra"
    }
    bias_filler {
      type: "constant"
    }
  }
}
layer {
  name: "L1_b7_cbr1_bn"
  type: "BatchNorm"
  bottom: "L1_b7_cbr1_conv_top"
  top: "L1_b7_cbr1_bn_top"
  include {
    phase: TRAIN
  }
  batch_norm_param {
    use_global_stats: false
    moving_average_fraction: 0.999
  }
}
layer {
  name: "L1_b7_cbr1_scale"
  type: "Scale"
  bottom: "L1_b7_cbr1_bn_top"
  top: "L1_b7_cbr1_bn_top"
  scale_param {
    bias_term: true
  }
}
layer {
  name: "L1_b7_cbr1_relu"
  type: "ReLU"
  bottom: "L1_b7_cbr1_bn_top"
  top: "L1_b7_cbr1_bn_top"
}
layer {
  name: "L1_b7_cbr2_conv"
  type: "Convolution"
  bottom: "L1_b7_cbr1_bn_top"
  top: "L1_b7_cbr2_conv_top"
  param {
    lr_mult: 1
    decay_mult: 1
  }
  param {
    lr_mult: 2
    decay_mult: 0
  }
  convolution_param {
    num_output: 16
    pad: 1
    kernel_size: 3
    stride: 1
    weight_filler {
      type: "msra"
    }
    bias_filler {
      type: "constant"
    }
  }
}
layer {
  name: "L1_b7_cbr2_bn"
  type: "BatchNorm"
  bottom: "L1_b7_cbr2_conv_top"
  top: "L1_b7_cbr2_bn_top"
  include {
    phase: TRAIN
  }
  batch_norm_param {
    use_global_stats: false
    moving_average_fraction: 0.999
  }
}
layer {
  name: "L1_b7_cbr2_scale"
  type: "Scale"
  bottom: "L1_b7_cbr2_bn_top"
  top: "L1_b7_cbr2_bn_top"
  scale_param {
    bias_term: true
  }
}
layer {
  name: "L1_b7_sum_eltwise"
  type: "Eltwise"
  bottom: "L1_b7_cbr2_bn_top"
  bottom: "L1_b6_sum_eltwise_top"
  top: "L1_b7_sum_eltwise_top"
  eltwise_param {
    operation: SUM
  }
}
layer {
  name: "L1_b7_relu"
  type: "ReLU"
  bottom: "L1_b7_sum_eltwise_top"
  top: "L1_b7_sum_eltwise_top"
}
layer {
  name: "L1_b8_cbr1_conv"
  type: "Convolution"
  bottom: "L1_b7_sum_eltwise_top"
  top: "L1_b8_cbr1_conv_top"
  param {
    lr_mult: 1
    decay_mult: 1
  }
  param {
    lr_mult: 2
    decay_mult: 0
  }
  convolution_param {
    num_output: 16
    pad: 1
    kernel_size: 3
    stride: 1
    weight_filler {
      type: "msra"
    }
    bias_filler {
      type: "constant"
    }
  }
}
layer {
  name: "L1_b8_cbr1_bn"
  type: "BatchNorm"
  bottom: "L1_b8_cbr1_conv_top"
  top: "L1_b8_cbr1_bn_top"
  include {
    phase: TRAIN
  }
  batch_norm_param {
    use_global_stats: false
    moving_average_fraction: 0.999
  }
}
layer {
  name: "L1_b8_cbr1_scale"
  type: "Scale"
  bottom: "L1_b8_cbr1_bn_top"
  top: "L1_b8_cbr1_bn_top"
  scale_param {
    bias_term: true
  }
}
layer {
  name: "L1_b8_cbr1_relu"
  type: "ReLU"
  bottom: "L1_b8_cbr1_bn_top"
  top: "L1_b8_cbr1_bn_top"
}
layer {
  name: "L1_b8_cbr2_conv"
  type: "Convolution"
  bottom: "L1_b8_cbr1_bn_top"
  top: "L1_b8_cbr2_conv_top"
  param {
    lr_mult: 1
    decay_mult: 1
  }
  param {
    lr_mult: 2
    decay_mult: 0
  }
  convolution_param {
    num_output: 16
    pad: 1
    kernel_size: 3
    stride: 1
    weight_filler {
      type: "msra"
    }
    bias_filler {
      type: "constant"
    }
  }
}
layer {
  name: "L1_b8_cbr2_bn"
  type: "BatchNorm"
  bottom: "L1_b8_cbr2_conv_top"
  top: "L1_b8_cbr2_bn_top"
  include {
    phase: TRAIN
  }
  batch_norm_param {
    use_global_stats: false
    moving_average_fraction: 0.999
  }
}
layer {
  name: "L1_b8_cbr2_scale"
  type: "Scale"
  bottom: "L1_b8_cbr2_bn_top"
  top: "L1_b8_cbr2_bn_top"
  scale_param {
    bias_term: true
  }
}
layer {
  name: "L1_b8_sum_eltwise"
  type: "Eltwise"
  bottom: "L1_b8_cbr2_bn_top"
  bottom: "L1_b7_sum_eltwise_top"
  top: "L1_b8_sum_eltwise_top"
  eltwise_param {
    operation: SUM
  }
}
layer {
  name: "L1_b8_relu"
  type: "ReLU"
  bottom: "L1_b8_sum_eltwise_top"
  top: "L1_b8_sum_eltwise_top"
}
layer {
  name: "L1_b9_cbr1_conv"
  type: "Convolution"
  bottom: "L1_b8_sum_eltwise_top"
  top: "L1_b9_cbr1_conv_top"
  param {
    lr_mult: 1
    decay_mult: 1
  }
  param {
    lr_mult: 2
    decay_mult: 0
  }
  convolution_param {
    num_output: 16
    pad: 1
    kernel_size: 3
    stride: 1
    weight_filler {
      type: "msra"
    }
    bias_filler {
      type: "constant"
    }
  }
}
layer {
  name: "L1_b9_cbr1_bn"
  type: "BatchNorm"
  bottom: "L1_b9_cbr1_conv_top"
  top: "L1_b9_cbr1_bn_top"
  include {
    phase: TRAIN
  }
  batch_norm_param {
    use_global_stats: false
    moving_average_fraction: 0.999
  }
}
layer {
  name: "L1_b9_cbr1_scale"
  type: "Scale"
  bottom: "L1_b9_cbr1_bn_top"
  top: "L1_b9_cbr1_bn_top"
  scale_param {
    bias_term: true
  }
}
layer {
  name: "L1_b9_cbr1_relu"
  type: "ReLU"
  bottom: "L1_b9_cbr1_bn_top"
  top: "L1_b9_cbr1_bn_top"
}
layer {
  name: "L1_b9_cbr2_conv"
  type: "Convolution"
  bottom: "L1_b9_cbr1_bn_top"
  top: "L1_b9_cbr2_conv_top"
  param {
    lr_mult: 1
    decay_mult: 1
  }
  param {
    lr_mult: 2
    decay_mult: 0
  }
  convolution_param {
    num_output: 16
    pad: 1
    kernel_size: 3
    stride: 1
    weight_filler {
      type: "msra"
    }
    bias_filler {
      type: "constant"
    }
  }
}
layer {
  name: "L1_b9_cbr2_bn"
  type: "BatchNorm"
  bottom: "L1_b9_cbr2_conv_top"
  top: "L1_b9_cbr2_bn_top"
  include {
    phase: TRAIN
  }
  batch_norm_param {
    use_global_stats: false
    moving_average_fraction: 0.999
  }
}
layer {
  name: "L1_b9_cbr2_scale"
  type: "Scale"
  bottom: "L1_b9_cbr2_bn_top"
  top: "L1_b9_cbr2_bn_top"
  scale_param {
    bias_term: true
  }
}
layer {
  name: "L1_b9_sum_eltwise"
  type: "Eltwise"
  bottom: "L1_b9_cbr2_bn_top"
  bottom: "L1_b8_sum_eltwise_top"
  top: "L1_b9_sum_eltwise_top"
  eltwise_param {
    operation: SUM
  }
}
layer {
  name: "L1_b9_relu"
  type: "ReLU"
  bottom: "L1_b9_sum_eltwise_top"
  top: "L1_b9_sum_eltwise_top"
}
layer {
  name: "L2_b1_cbr1_conv"
  type: "Convolution"
  bottom: "L1_b9_sum_eltwise_top"
  top: "L2_b1_cbr1_conv_top"
  param {
    lr_mult: 1
    decay_mult: 1
  }
  param {
    lr_mult: 2
    decay_mult: 0
  }
  convolution_param {
    num_output: 16
    pad: 1
    kernel_size: 3
    stride: 2
    weight_filler {
      type: "msra"
    }
    bias_filler {
      type: "constant"
    }
  }
}
layer {
  name: "L2_b1_cbr1_bn"
  type: "BatchNorm"
  bottom: "L2_b1_cbr1_conv_top"
  top: "L2_b1_cbr1_bn_top"
  include {
    phase: TRAIN
  }
  batch_norm_param {
    use_global_stats: false
    moving_average_fraction: 0.999
  }
}
layer {
  name: "L2_b1_cbr1_scale"
  type: "Scale"
  bottom: "L2_b1_cbr1_bn_top"
  top: "L2_b1_cbr1_bn_top"
  scale_param {
    bias_term: true
  }
}
layer {
  name: "L2_b1_cbr1_relu"
  type: "ReLU"
  bottom: "L2_b1_cbr1_bn_top"
  top: "L2_b1_cbr1_bn_top"
}
layer {
  name: "L2_b1_cbr2_conv"
  type: "Convolution"
  bottom: "L2_b1_cbr1_bn_top"
  top: "L2_b1_cbr2_conv_top"
  param {
    lr_mult: 1
    decay_mult: 1
  }
  param {
    lr_mult: 2
    decay_mult: 0
  }
  convolution_param {
    num_output: 16
    pad: 1
    kernel_size: 3
    stride: 1
    weight_filler {
      type: "msra"
    }
    bias_filler {
      type: "constant"
    }
  }
}
layer {
  name: "L2_b1_cbr2_bn"
  type: "BatchNorm"
  bottom: "L2_b1_cbr2_conv_top"
  top: "L2_b1_cbr2_bn_top"
  include {
    phase: TRAIN
  }
  batch_norm_param {
    use_global_stats: false
    moving_average_fraction: 0.999
  }
}
layer {
  name: "L2_b1_cbr2_scale"
  type: "Scale"
  bottom: "L2_b1_cbr2_bn_top"
  top: "L2_b1_cbr2_bn_top"
  scale_param {
    bias_term: true
  }
}
layer {
  name: "L2_b1_pool"
  type: "Pooling"
  bottom: "L1_b9_sum_eltwise_top"
  top: "L2_b1_pool"
  pooling_param {
    pool: AVE
    kernel_size: 3
    stride: 2
  }
}
layer {
  name: "L2_b1_sum_eltwise"
  type: "Eltwise"
  bottom: "L2_b1_cbr2_bn_top"
  bottom: "L2_b1_pool"
  top: "L2_b1_sum_eltwise_top"
  eltwise_param {
    operation: SUM
  }
}
layer {
  name: "L2_b1_relu"
  type: "ReLU"
  bottom: "L2_b1_sum_eltwise_top"
  top: "L2_b1_sum_eltwise_top"
}
layer {
  name: "L2_b1_zeros"
  type: "DummyData"
  top: "L2_b1_zeros"
  dummy_data_param {
    data_filler {
      type: "constant"
      value: 0
    }
    shape {
      dim: 125
      dim: 16
      dim: 16
      dim: 16
    }
  }
}
layer {
  name: "L2_b1_concat0"
  type: "Concat"
  bottom: "L2_b1_sum_eltwise_top"
  bottom: "L2_b1_zeros"
  top: "L2_b1_concat0"
  concat_param {
    axis: 1
  }
}
layer {
  name: "L2_b2_cbr1_conv"
  type: "Convolution"
  bottom: "L2_b1_concat0"
  top: "L2_b2_cbr1_conv_top"
  param {
    lr_mult: 1
    decay_mult: 1
  }
  param {
    lr_mult: 2
    decay_mult: 0
  }
  convolution_param {
    num_output: 32
    pad: 1
    kernel_size: 3
    stride: 1
    weight_filler {
      type: "msra"
    }
    bias_filler {
      type: "constant"
    }
  }
}
layer {
  name: "L2_b2_cbr1_bn"
  type: "BatchNorm"
  bottom: "L2_b2_cbr1_conv_top"
  top: "L2_b2_cbr1_bn_top"
  include {
    phase: TRAIN
  }
  batch_norm_param {
    use_global_stats: false
    moving_average_fraction: 0.999
  }
}
layer {
  name: "L2_b2_cbr1_scale"
  type: "Scale"
  bottom: "L2_b2_cbr1_bn_top"
  top: "L2_b2_cbr1_bn_top"
  scale_param {
    bias_term: true
  }
}
layer {
  name: "L2_b2_cbr1_relu"
  type: "ReLU"
  bottom: "L2_b2_cbr1_bn_top"
  top: "L2_b2_cbr1_bn_top"
}
layer {
  name: "L2_b2_cbr2_conv"
  type: "Convolution"
  bottom: "L2_b2_cbr1_bn_top"
  top: "L2_b2_cbr2_conv_top"
  param {
    lr_mult: 1
    decay_mult: 1
  }
  param {
    lr_mult: 2
    decay_mult: 0
  }
  convolution_param {
    num_output: 32
    pad: 1
    kernel_size: 3
    stride: 1
    weight_filler {
      type: "msra"
    }
    bias_filler {
      type: "constant"
    }
  }
}
layer {
  name: "L2_b2_cbr2_bn"
  type: "BatchNorm"
  bottom: "L2_b2_cbr2_conv_top"
  top: "L2_b2_cbr2_bn_top"
  include {
    phase: TRAIN
  }
  batch_norm_param {
    use_global_stats: false
    moving_average_fraction: 0.999
  }
}
layer {
  name: "L2_b2_cbr2_scale"
  type: "Scale"
  bottom: "L2_b2_cbr2_bn_top"
  top: "L2_b2_cbr2_bn_top"
  scale_param {
    bias_term: true
  }
}
layer {
  name: "L2_b2_sum_eltwise"
  type: "Eltwise"
  bottom: "L2_b2_cbr2_bn_top"
  bottom: "L2_b1_concat0"
  top: "L2_b2_sum_eltwise_top"
  eltwise_param {
    operation: SUM
  }
}
layer {
  name: "L2_b2_relu"
  type: "ReLU"
  bottom: "L2_b2_sum_eltwise_top"
  top: "L2_b2_sum_eltwise_top"
}
layer {
  name: "L2_b3_cbr1_conv"
  type: "Convolution"
  bottom: "L2_b2_sum_eltwise_top"
  top: "L2_b3_cbr1_conv_top"
  param {
    lr_mult: 1
    decay_mult: 1
  }
  param {
    lr_mult: 2
    decay_mult: 0
  }
  convolution_param {
    num_output: 32
    pad: 1
    kernel_size: 3
    stride: 1
    weight_filler {
      type: "msra"
    }
    bias_filler {
      type: "constant"
    }
  }
}
layer {
  name: "L2_b3_cbr1_bn"
  type: "BatchNorm"
  bottom: "L2_b3_cbr1_conv_top"
  top: "L2_b3_cbr1_bn_top"
  include {
    phase: TRAIN
  }
  batch_norm_param {
    use_global_stats: false
    moving_average_fraction: 0.999
  }
}
layer {
  name: "L2_b3_cbr1_scale"
  type: "Scale"
  bottom: "L2_b3_cbr1_bn_top"
  top: "L2_b3_cbr1_bn_top"
  scale_param {
    bias_term: true
  }
}
layer {
  name: "L2_b3_cbr1_relu"
  type: "ReLU"
  bottom: "L2_b3_cbr1_bn_top"
  top: "L2_b3_cbr1_bn_top"
}
layer {
  name: "L2_b3_cbr2_conv"
  type: "Convolution"
  bottom: "L2_b3_cbr1_bn_top"
  top: "L2_b3_cbr2_conv_top"
  param {
    lr_mult: 1
    decay_mult: 1
  }
  param {
    lr_mult: 2
    decay_mult: 0
  }
  convolution_param {
    num_output: 32
    pad: 1
    kernel_size: 3
    stride: 1
    weight_filler {
      type: "msra"
    }
    bias_filler {
      type: "constant"
    }
  }
}
layer {
  name: "L2_b3_cbr2_bn"
  type: "BatchNorm"
  bottom: "L2_b3_cbr2_conv_top"
  top: "L2_b3_cbr2_bn_top"
  include {
    phase: TRAIN
  }
  batch_norm_param {
    use_global_stats: false
    moving_average_fraction: 0.999
  }
}
layer {
  name: "L2_b3_cbr2_scale"
  type: "Scale"
  bottom: "L2_b3_cbr2_bn_top"
  top: "L2_b3_cbr2_bn_top"
  scale_param {
    bias_term: true
  }
}
layer {
  name: "L2_b3_sum_eltwise"
  type: "Eltwise"
  bottom: "L2_b3_cbr2_bn_top"
  bottom: "L2_b2_sum_eltwise_top"
  top: "L2_b3_sum_eltwise_top"
  eltwise_param {
    operation: SUM
  }
}
layer {
  name: "L2_b3_relu"
  type: "ReLU"
  bottom: "L2_b3_sum_eltwise_top"
  top: "L2_b3_sum_eltwise_top"
}
layer {
  name: "L2_b4_cbr1_conv"
  type: "Convolution"
  bottom: "L2_b3_sum_eltwise_top"
  top: "L2_b4_cbr1_conv_top"
  param {
    lr_mult: 1
    decay_mult: 1
  }
  param {
    lr_mult: 2
    decay_mult: 0
  }
  convolution_param {
    num_output: 32
    pad: 1
    kernel_size: 3
    stride: 1
    weight_filler {
      type: "msra"
    }
    bias_filler {
      type: "constant"
    }
  }
}
layer {
  name: "L2_b4_cbr1_bn"
  type: "BatchNorm"
  bottom: "L2_b4_cbr1_conv_top"
  top: "L2_b4_cbr1_bn_top"
  include {
    phase: TRAIN
  }
  batch_norm_param {
    use_global_stats: false
    moving_average_fraction: 0.999
  }
}
layer {
  name: "L2_b4_cbr1_scale"
  type: "Scale"
  bottom: "L2_b4_cbr1_bn_top"
  top: "L2_b4_cbr1_bn_top"
  scale_param {
    bias_term: true
  }
}
layer {
  name: "L2_b4_cbr1_relu"
  type: "ReLU"
  bottom: "L2_b4_cbr1_bn_top"
  top: "L2_b4_cbr1_bn_top"
}
layer {
  name: "L2_b4_cbr2_conv"
  type: "Convolution"
  bottom: "L2_b4_cbr1_bn_top"
  top: "L2_b4_cbr2_conv_top"
  param {
    lr_mult: 1
    decay_mult: 1
  }
  param {
    lr_mult: 2
    decay_mult: 0
  }
  convolution_param {
    num_output: 32
    pad: 1
    kernel_size: 3
    stride: 1
    weight_filler {
      type: "msra"
    }
    bias_filler {
      type: "constant"
    }
  }
}
layer {
  name: "L2_b4_cbr2_bn"
  type: "BatchNorm"
  bottom: "L2_b4_cbr2_conv_top"
  top: "L2_b4_cbr2_bn_top"
  include {
    phase: TRAIN
  }
  batch_norm_param {
    use_global_stats: false
    moving_average_fraction: 0.999
  }
}
layer {
  name: "L2_b4_cbr2_scale"
  type: "Scale"
  bottom: "L2_b4_cbr2_bn_top"
  top: "L2_b4_cbr2_bn_top"
  scale_param {
    bias_term: true
  }
}
layer {
  name: "L2_b4_sum_eltwise"
  type: "Eltwise"
  bottom: "L2_b4_cbr2_bn_top"
  bottom: "L2_b3_sum_eltwise_top"
  top: "L2_b4_sum_eltwise_top"
  eltwise_param {
    operation: SUM
  }
}
layer {
  name: "L2_b4_relu"
  type: "ReLU"
  bottom: "L2_b4_sum_eltwise_top"
  top: "L2_b4_sum_eltwise_top"
}
layer {
  name: "L2_b5_cbr1_conv"
  type: "Convolution"
  bottom: "L2_b4_sum_eltwise_top"
  top: "L2_b5_cbr1_conv_top"
  param {
    lr_mult: 1
    decay_mult: 1
  }
  param {
    lr_mult: 2
    decay_mult: 0
  }
  convolution_param {
    num_output: 32
    pad: 1
    kernel_size: 3
    stride: 1
    weight_filler {
      type: "msra"
    }
    bias_filler {
      type: "constant"
    }
  }
}
layer {
  name: "L2_b5_cbr1_bn"
  type: "BatchNorm"
  bottom: "L2_b5_cbr1_conv_top"
  top: "L2_b5_cbr1_bn_top"
  include {
    phase: TRAIN
  }
  batch_norm_param {
    use_global_stats: false
    moving_average_fraction: 0.999
  }
}
layer {
  name: "L2_b5_cbr1_scale"
  type: "Scale"
  bottom: "L2_b5_cbr1_bn_top"
  top: "L2_b5_cbr1_bn_top"
  scale_param {
    bias_term: true
  }
}
layer {
  name: "L2_b5_cbr1_relu"
  type: "ReLU"
  bottom: "L2_b5_cbr1_bn_top"
  top: "L2_b5_cbr1_bn_top"
}
layer {
  name: "L2_b5_cbr2_conv"
  type: "Convolution"
  bottom: "L2_b5_cbr1_bn_top"
  top: "L2_b5_cbr2_conv_top"
  param {
    lr_mult: 1
    decay_mult: 1
  }
  param {
    lr_mult: 2
    decay_mult: 0
  }
  convolution_param {
    num_output: 32
    pad: 1
    kernel_size: 3
    stride: 1
    weight_filler {
      type: "msra"
    }
    bias_filler {
      type: "constant"
    }
  }
}
layer {
  name: "L2_b5_cbr2_bn"
  type: "BatchNorm"
  bottom: "L2_b5_cbr2_conv_top"
  top: "L2_b5_cbr2_bn_top"
  include {
    phase: TRAIN
  }
  batch_norm_param {
    use_global_stats: false
    moving_average_fraction: 0.999
  }
}
layer {
  name: "L2_b5_cbr2_scale"
  type: "Scale"
  bottom: "L2_b5_cbr2_bn_top"
  top: "L2_b5_cbr2_bn_top"
  scale_param {
    bias_term: true
  }
}
layer {
  name: "L2_b5_sum_eltwise"
  type: "Eltwise"
  bottom: "L2_b5_cbr2_bn_top"
  bottom: "L2_b4_sum_eltwise_top"
  top: "L2_b5_sum_eltwise_top"
  eltwise_param {
    operation: SUM
  }
}
layer {
  name: "L2_b5_relu"
  type: "ReLU"
  bottom: "L2_b5_sum_eltwise_top"
  top: "L2_b5_sum_eltwise_top"
}
layer {
  name: "L2_b6_cbr1_conv"
  type: "Convolution"
  bottom: "L2_b5_sum_eltwise_top"
  top: "L2_b6_cbr1_conv_top"
  param {
    lr_mult: 1
    decay_mult: 1
  }
  param {
    lr_mult: 2
    decay_mult: 0
  }
  convolution_param {
    num_output: 32
    pad: 1
    kernel_size: 3
    stride: 1
    weight_filler {
      type: "msra"
    }
    bias_filler {
      type: "constant"
    }
  }
}
layer {
  name: "L2_b6_cbr1_bn"
  type: "BatchNorm"
  bottom: "L2_b6_cbr1_conv_top"
  top: "L2_b6_cbr1_bn_top"
  include {
    phase: TRAIN
  }
  batch_norm_param {
    use_global_stats: false
    moving_average_fraction: 0.9
I0821 08:27:51.603627 32360 layer_factory.hpp:77] Creating layer dataLayer
I0821 08:27:51.606606 32360 net.cpp:100] Creating Layer dataLayer
I0821 08:27:51.606688 32360 net.cpp:408] dataLayer -> data_top
I0821 08:27:51.606900 32360 net.cpp:408] dataLayer -> label
I0821 08:27:51.607029 32360 data_transformer.cpp:25] Loading mean file from: examples/cifar10/mean.binaryproto
I0821 08:27:51.692651 32365 db_lmdb.cpp:35] Opened lmdb examples/cifar10/cifar10_train10k_lmdb
I0821 08:27:51.693138 32360 data_layer.cpp:41] output data size: 125,3,32,32
I0821 08:27:51.700240 32360 net.cpp:150] Setting up dataLayer
I0821 08:27:51.700317 32360 net.cpp:157] Top shape: 125 3 32 32 (384000)
I0821 08:27:51.700331 32360 net.cpp:157] Top shape: 125 (125)
I0821 08:27:51.700337 32360 net.cpp:165] Memory required for data: 1536500
I0821 08:27:51.700351 32360 layer_factory.hpp:77] Creating layer label_dataLayer_1_split
I0821 08:27:51.700366 32360 net.cpp:100] Creating Layer label_dataLayer_1_split
I0821 08:27:51.700374 32360 net.cpp:434] label_dataLayer_1_split <- label
I0821 08:27:51.700392 32360 net.cpp:408] label_dataLayer_1_split -> label_dataLayer_1_split_0
I0821 08:27:51.700407 32360 net.cpp:408] label_dataLayer_1_split -> label_dataLayer_1_split_1
I0821 08:27:51.700477 32360 net.cpp:150] Setting up label_dataLayer_1_split
I0821 08:27:51.700490 32360 net.cpp:157] Top shape: 125 (125)
I0821 08:27:51.700497 32360 net.cpp:157] Top shape: 125 (125)
I0821 08:27:51.700502 32360 net.cpp:165] Memory required for data: 1537500
I0821 08:27:51.700507 32360 layer_factory.hpp:77] Creating layer pre_conv
I0821 08:27:51.700575 32360 net.cpp:100] Creating Layer pre_conv
I0821 08:27:51.700587 32360 net.cpp:434] pre_conv <- data_top
I0821 08:27:51.700600 32360 net.cpp:408] pre_conv -> pre_conv_top
I0821 08:27:51.702466 32360 net.cpp:150] Setting up pre_conv
I0821 08:27:51.702486 32360 net.cpp:157] Top shape: 125 16 32 32 (2048000)
I0821 08:27:51.702500 32360 net.cpp:165] Memory required for data: 9729500
I0821 08:27:51.702572 32360 layer_factory.hpp:77] Creating layer pre_bn
I0821 08:27:51.702651 32360 net.cpp:100] Creating Layer pre_bn
I0821 08:27:51.702664 32360 net.cpp:434] pre_bn <- pre_conv_top
I0821 08:27:51.702677 32360 net.cpp:408] pre_bn -> pre_bn_top
I0821 08:27:51.702803 32366 blocking_queue.cpp:50] Waiting for data
I0821 08:27:51.703016 32360 net.cpp:150] Setting up pre_bn
I0821 08:27:51.703033 32360 net.cpp:157] Top shape: 125 16 32 32 (2048000)
I0821 08:27:51.703039 32360 net.cpp:165] Memory required for data: 17921500
I0821 08:27:51.703058 32360 layer_factory.hpp:77] Creating layer pre_scale
I0821 08:27:51.703109 32360 net.cpp:100] Creating Layer pre_scale
I0821 08:27:51.703119 32360 net.cpp:434] pre_scale <- pre_bn_top
I0821 08:27:51.703127 32360 net.cpp:395] pre_scale -> pre_bn_top (in-place)
I0821 08:27:51.703315 32360 layer_factory.hpp:77] Creating layer pre_scale
I0821 08:27:51.706779 32360 net.cpp:150] Setting up pre_scale
I0821 08:27:51.706796 32360 net.cpp:157] Top shape: 125 16 32 32 (2048000)
I0821 08:27:51.706802 32360 net.cpp:165] Memory required for data: 26113500
I0821 08:27:51.706814 32360 layer_factory.hpp:77] Creating layer pre_relu
I0821 08:27:51.706864 32360 net.cpp:100] Creating Layer pre_relu
I0821 08:27:51.706874 32360 net.cpp:434] pre_relu <- pre_bn_top
I0821 08:27:51.706883 32360 net.cpp:395] pre_relu -> pre_bn_top (in-place)
I0821 08:27:51.706902 32360 net.cpp:150] Setting up pre_relu
I0821 08:27:51.706910 32360 net.cpp:157] Top shape: 125 16 32 32 (2048000)
I0821 08:27:51.706915 32360 net.cpp:165] Memory required for data: 34305500
I0821 08:27:51.706920 32360 layer_factory.hpp:77] Creating layer pre_bn_top_pre_relu_0_split
I0821 08:27:51.706930 32360 net.cpp:100] Creating Layer pre_bn_top_pre_relu_0_split
I0821 08:27:51.706935 32360 net.cpp:434] pre_bn_top_pre_relu_0_split <- pre_bn_top
I0821 08:27:51.706943 32360 net.cpp:408] pre_bn_top_pre_relu_0_split -> pre_bn_top_pre_relu_0_split_0
I0821 08:27:51.706953 32360 net.cpp:408] pre_bn_top_pre_relu_0_split -> pre_bn_top_pre_relu_0_split_1
I0821 08:27:51.707005 32360 net.cpp:150] Setting up pre_bn_top_pre_relu_0_split
I0821 08:27:51.707020 32360 net.cpp:157] Top shape: 125 16 32 32 (2048000)
I0821 08:27:51.707027 32360 net.cpp:157] Top shape: 125 16 32 32 (2048000)
I0821 08:27:51.707031 32360 net.cpp:165] Memory required for data: 50689500
I0821 08:27:51.707037 32360 layer_factory.hpp:77] Creating layer L1_b1_cbr1_conv
I0821 08:27:51.707049 32360 net.cpp:100] Creating Layer L1_b1_cbr1_conv
I0821 08:27:51.707056 32360 net.cpp:434] L1_b1_cbr1_conv <- pre_bn_top_pre_relu_0_split_0
I0821 08:27:51.707064 32360 net.cpp:408] L1_b1_cbr1_conv -> L1_b1_cbr1_conv_top
I0821 08:27:51.707394 32360 net.cpp:150] Setting up L1_b1_cbr1_conv
I0821 08:27:51.707409 32360 net.cpp:157] Top shape: 125 16 32 32 (2048000)
I0821 08:27:51.707414 32360 net.cpp:165] Memory required for data: 58881500
I0821 08:27:51.707427 32360 layer_factory.hpp:77] Creating layer L1_b1_cbr1_bn
I0821 08:27:51.707442 32360 net.cpp:100] Creating Layer L1_b1_cbr1_bn
I0821 08:27:51.707449 32360 net.cpp:434] L1_b1_cbr1_bn <- L1_b1_cbr1_conv_top
I0821 08:27:51.707460 32360 net.cpp:408] L1_b1_cbr1_bn -> L1_b1_cbr1_bn_top
I0821 08:27:51.707695 32360 net.cpp:150] Setting up L1_b1_cbr1_bn
I0821 08:27:51.707710 32360 net.cpp:157] Top shape: 125 16 32 32 (2048000)
I0821 08:27:51.707715 32360 net.cpp:165] Memory required for data: 67073500
I0821 08:27:51.707726 32360 layer_factory.hpp:77] Creating layer L1_b1_cbr1_scale
I0821 08:27:51.707737 32360 net.cpp:100] Creating Layer L1_b1_cbr1_scale
I0821 08:27:51.707744 32360 net.cpp:434] L1_b1_cbr1_scale <- L1_b1_cbr1_bn_top
I0821 08:27:51.707752 32360 net.cpp:395] L1_b1_cbr1_scale -> L1_b1_cbr1_bn_top (in-place)
I0821 08:27:51.707801 32360 layer_factory.hpp:77] Creating layer L1_b1_cbr1_scale
I0821 08:27:51.707940 32360 net.cpp:150] Setting up L1_b1_cbr1_scale
I0821 08:27:51.707953 32360 net.cpp:157] Top shape: 125 16 32 32 (2048000)
I0821 08:27:51.707958 32360 net.cpp:165] Memory required for data: 75265500
I0821 08:27:51.707968 32360 layer_factory.hpp:77] Creating layer L1_b1_cbr1_relu
I0821 08:27:51.707984 32360 net.cpp:100] Creating Layer L1_b1_cbr1_relu
I0821 08:27:51.707990 32360 net.cpp:434] L1_b1_cbr1_relu <- L1_b1_cbr1_bn_top
I0821 08:27:51.708001 32360 net.cpp:395] L1_b1_cbr1_relu -> L1_b1_cbr1_bn_top (in-place)
I0821 08:27:51.708011 32360 net.cpp:150] Setting up L1_b1_cbr1_relu
I0821 08:27:51.708019 32360 net.cpp:157] Top shape: 125 16 32 32 (2048000)
I0821 08:27:51.708024 32360 net.cpp:165] Memory required for data: 83457500
I0821 08:27:51.708029 32360 layer_factory.hpp:77] Creating layer L1_b1_cbr2_conv
I0821 08:27:51.708043 32360 net.cpp:100] Creating Layer L1_b1_cbr2_conv
I0821 08:27:51.708050 32360 net.cpp:434] L1_b1_cbr2_conv <- L1_b1_cbr1_bn_top
I0821 08:27:51.708057 32360 net.cpp:408] L1_b1_cbr2_conv -> L1_b1_cbr2_conv_top
I0821 08:27:51.708365 32360 net.cpp:150] Setting up L1_b1_cbr2_conv
I0821 08:27:51.708379 32360 net.cpp:157] Top shape: 125 16 32 32 (2048000)
I0821 08:27:51.708385 32360 net.cpp:165] Memory required for data: 91649500
I0821 08:27:51.708395 32360 layer_factory.hpp:77] Creating layer L1_b1_cbr2_bn
I0821 08:27:51.708406 32360 net.cpp:100] Creating Layer L1_b1_cbr2_bn
I0821 08:27:51.708412 32360 net.cpp:434] L1_b1_cbr2_bn <- L1_b1_cbr2_conv_top
I0821 08:27:51.708421 32360 net.cpp:408] L1_b1_cbr2_bn -> L1_b1_cbr2_bn_top
I0821 08:27:51.708657 32360 net.cpp:150] Setting up L1_b1_cbr2_bn
I0821 08:27:51.708670 32360 net.cpp:157] Top shape: 125 16 32 32 (2048000)
I0821 08:27:51.708675 32360 net.cpp:165] Memory required for data: 99841500
I0821 08:27:51.708691 32360 layer_factory.hpp:77] Creating layer L1_b1_cbr2_scale
I0821 08:27:51.708703 32360 net.cpp:100] Creating Layer L1_b1_cbr2_scale
I0821 08:27:51.708710 32360 net.cpp:434] L1_b1_cbr2_scale <- L1_b1_cbr2_bn_top
I0821 08:27:51.708720 32360 net.cpp:395] L1_b1_cbr2_scale -> L1_b1_cbr2_bn_top (in-place)
I0821 08:27:51.708775 32360 layer_factory.hpp:77] Creating layer L1_b1_cbr2_scale
I0821 08:27:51.708909 32360 net.cpp:150] Setting up L1_b1_cbr2_scale
I0821 08:27:51.708921 32360 net.cpp:157] Top shape: 125 16 32 32 (2048000)
I0821 08:27:51.708926 32360 net.cpp:165] Memory required for data: 108033500
I0821 08:27:51.708935 32360 layer_factory.hpp:77] Creating layer L1_b1_sum_eltwise
I0821 08:27:51.708994 32360 net.cpp:100] Creating Layer L1_b1_sum_eltwise
I0821 08:27:51.709007 32360 net.cpp:434] L1_b1_sum_eltwise <- L1_b1_cbr2_bn_top
I0821 08:27:51.709014 32360 net.cpp:434] L1_b1_sum_eltwise <- pre_bn_top_pre_relu_0_split_1
I0821 08:27:51.709022 32360 net.cpp:408] L1_b1_sum_eltwise -> L1_b1_sum_eltwise_top
I0821 08:27:51.709100 32360 net.cpp:150] Setting up L1_b1_sum_eltwise
I0821 08:27:51.709115 32360 net.cpp:157] Top shape: 125 16 32 32 (2048000)
I0821 08:27:51.709120 32360 net.cpp:165] Memory required for data: 116225500
I0821 08:27:51.709125 32360 layer_factory.hpp:77] Creating layer L1_b1_relu
I0821 08:27:51.709134 32360 net.cpp:100] Creating Layer L1_b1_relu
I0821 08:27:51.709139 32360 net.cpp:434] L1_b1_relu <- L1_b1_sum_eltwise_top
I0821 08:27:51.709151 32360 net.cpp:395] L1_b1_relu -> L1_b1_sum_eltwise_top (in-place)
I0821 08:27:51.709161 32360 net.cpp:150] Setting up L1_b1_relu
I0821 08:27:51.709167 32360 net.cpp:157] Top shape: 125 16 32 32 (2048000)
I0821 08:27:51.709172 32360 net.cpp:165] Memory required for data: 124417500
I0821 08:27:51.709177 32360 layer_factory.hpp:77] Creating layer L1_b1_sum_eltwise_top_L1_b1_relu_0_split
I0821 08:27:51.709187 32360 net.cpp:100] Creating Layer L1_b1_sum_eltwise_top_L1_b1_relu_0_split
I0821 08:27:51.709192 32360 net.cpp:434] L1_b1_sum_eltwise_top_L1_b1_relu_0_split <- L1_b1_sum_eltwise_top
I0821 08:27:51.709199 32360 net.cpp:408] L1_b1_sum_eltwise_top_L1_b1_relu_0_split -> L1_b1_sum_eltwise_top_L1_b1_relu_0_split_0
I0821 08:27:51.709208 32360 net.cpp:408] L1_b1_sum_eltwise_top_L1_b1_relu_0_split -> L1_b1_sum_eltwise_top_L1_b1_relu_0_split_1
I0821 08:27:51.709254 32360 net.cpp:150] Setting up L1_b1_sum_eltwise_top_L1_b1_relu_0_split
I0821 08:27:51.709275 32360 net.cpp:157] Top shape: 125 16 32 32 (2048000)
I0821 08:27:51.709281 32360 net.cpp:157] Top shape: 125 16 32 32 (2048000)
I0821 08:27:51.709293 32360 net.cpp:165] Memory required for data: 140801500
I0821 08:27:51.709300 32360 layer_factory.hpp:77] Creating layer L1_b2_cbr1_conv
I0821 08:27:51.709313 32360 net.cpp:100] Creating Layer L1_b2_cbr1_conv
I0821 08:27:51.709321 32360 net.cpp:434] L1_b2_cbr1_conv <- L1_b1_sum_eltwise_top_L1_b1_relu_0_split_0
I0821 08:27:51.709329 32360 net.cpp:408] L1_b2_cbr1_conv -> L1_b2_cbr1_conv_top
I0821 08:27:51.709632 32360 net.cpp:150] Setting up L1_b2_cbr1_conv
I0821 08:27:51.709646 32360 net.cpp:157] Top shape: 125 16 32 32 (2048000)
I0821 08:27:51.709651 32360 net.cpp:165] Memory required for data: 148993500
I0821 08:27:51.709661 32360 layer_factory.hpp:77] Creating layer L1_b2_cbr1_bn
I0821 08:27:51.709669 32360 net.cpp:100] Creating Layer L1_b2_cbr1_bn
I0821 08:27:51.709676 32360 net.cpp:434] L1_b2_cbr1_bn <- L1_b2_cbr1_conv_top
I0821 08:27:51.709698 32360 net.cpp:408] L1_b2_cbr1_bn -> L1_b2_cbr1_bn_top
I0821 08:27:51.709939 32360 net.cpp:150] Setting up L1_b2_cbr1_bn
I0821 08:27:51.709952 32360 net.cpp:157] Top shape: 125 16 32 32 (2048000)
I0821 08:27:51.709957 32360 net.cpp:165] Memory required for data: 157185500
I0821 08:27:51.709967 32360 layer_factory.hpp:77] Creating layer L1_b2_cbr1_scale
I0821 08:27:51.709977 32360 net.cpp:100] Creating Layer L1_b2_cbr1_scale
I0821 08:27:51.709982 32360 net.cpp:434] L1_b2_cbr1_scale <- L1_b2_cbr1_bn_top
I0821 08:27:51.709990 32360 net.cpp:395] L1_b2_cbr1_scale -> L1_b2_cbr1_bn_top (in-place)
I0821 08:27:51.710045 32360 layer_factory.hpp:77] Creating layer L1_b2_cbr1_scale
I0821 08:27:51.710181 32360 net.cpp:150] Setting up L1_b2_cbr1_scale
I0821 08:27:51.710194 32360 net.cpp:157] Top shape: 125 16 32 32 (2048000)
I0821 08:27:51.710199 32360 net.cpp:165] Memory required for data: 165377500
I0821 08:27:51.710208 32360 layer_factory.hpp:77] Creating layer L1_b2_cbr1_relu
I0821 08:27:51.710217 32360 net.cpp:100] Creating Layer L1_b2_cbr1_relu
I0821 08:27:51.710222 32360 net.cpp:434] L1_b2_cbr1_relu <- L1_b2_cbr1_bn_top
I0821 08:27:51.710233 32360 net.cpp:395] L1_b2_cbr1_relu -> L1_b2_cbr1_bn_top (in-place)
I0821 08:27:51.710242 32360 net.cpp:150] Setting up L1_b2_cbr1_relu
I0821 08:27:51.710250 32360 net.cpp:157] Top shape: 125 16 32 32 (2048000)
I0821 08:27:51.710254 32360 net.cpp:165] Memory required for data: 173569500
I0821 08:27:51.710266 32360 layer_factory.hpp:77] Creating layer L1_b2_cbr2_conv
I0821 08:27:51.710279 32360 net.cpp:100] Creating Layer L1_b2_cbr2_conv
I0821 08:27:51.710284 32360 net.cpp:434] L1_b2_cbr2_conv <- L1_b2_cbr1_bn_top
I0821 08:27:51.710296 32360 net.cpp:408] L1_b2_cbr2_conv -> L1_b2_cbr2_conv_top
I0821 08:27:51.710597 32360 net.cpp:150] Setting up L1_b2_cbr2_conv
I0821 08:27:51.710611 32360 net.cpp:157] Top shape: 125 16 32 32 (2048000)
I0821 08:27:51.710616 32360 net.cpp:165] Memory required for data: 181761500
I0821 08:27:51.710625 32360 layer_factory.hpp:77] Creating layer L1_b2_cbr2_bn
I0821 08:27:51.710634 32360 net.cpp:100] Creating Layer L1_b2_cbr2_bn
I0821 08:27:51.710640 32360 net.cpp:434] L1_b2_cbr2_bn <- L1_b2_cbr2_conv_top
I0821 08:27:51.710651 32360 net.cpp:408] L1_b2_cbr2_bn -> L1_b2_cbr2_bn_top
I0821 08:27:51.710886 32360 net.cpp:150] Setting up L1_b2_cbr2_bn
I0821 08:27:51.710901 32360 net.cpp:157] Top shape: 125 16 32 32 (2048000)
I0821 08:27:51.710906 32360 net.cpp:165] Memory required for data: 189953500
I0821 08:27:51.710922 32360 layer_factory.hpp:77] Creating layer L1_b2_cbr2_scale
I0821 08:27:51.710930 32360 net.cpp:100] Creating Layer L1_b2_cbr2_scale
I0821 08:27:51.710937 32360 net.cpp:434] L1_b2_cbr2_scale <- L1_b2_cbr2_bn_top
I0821 08:27:51.710947 32360 net.cpp:395] L1_b2_cbr2_scale -> L1_b2_cbr2_bn_top (in-place)
I0821 08:27:51.710999 32360 layer_factory.hpp:77] Creating layer L1_b2_cbr2_scale
I0821 08:27:51.711135 32360 net.cpp:150] Setting up L1_b2_cbr2_scale
I0821 08:27:51.711150 32360 net.cpp:157] Top shape: 125 16 32 32 (2048000)
I0821 08:27:51.711155 32360 net.cpp:165] Memory required for data: 198145500
I0821 08:27:51.711164 32360 layer_factory.hpp:77] Creating layer L1_b2_sum_eltwise
I0821 08:27:51.711180 32360 net.cpp:100] Creating Layer L1_b2_sum_eltwise
I0821 08:27:51.711187 32360 net.cpp:434] L1_b2_sum_eltwise <- L1_b2_cbr2_bn_top
I0821 08:27:51.711194 32360 net.cpp:434] L1_b2_sum_eltwise <- L1_b1_sum_eltwise_top_L1_b1_relu_0_split_1
I0821 08:27:51.711201 32360 net.cpp:408] L1_b2_sum_eltwise -> L1_b2_sum_eltwise_top
I0821 08:27:51.711235 32360 net.cpp:150] Setting up L1_b2_sum_eltwise
I0821 08:27:51.711244 32360 net.cpp:157] Top shape: 125 16 32 32 (2048000)
I0821 08:27:51.711248 32360 net.cpp:165] Memory required for data: 206337500
I0821 08:27:51.711254 32360 layer_factory.hpp:77] Creating layer L1_b2_relu
I0821 08:27:51.711267 32360 net.cpp:100] Creating Layer L1_b2_relu
I0821 08:27:51.711274 32360 net.cpp:434] L1_b2_relu <- L1_b2_sum_eltwise_top
I0821 08:27:51.711282 32360 net.cpp:395] L1_b2_relu -> L1_b2_sum_eltwise_top (in-place)
I0821 08:27:51.711290 32360 net.cpp:150] Setting up L1_b2_relu
I0821 08:27:51.711297 32360 net.cpp:157] Top shape: 125 16 32 32 (2048000)
I0821 08:27:51.711302 32360 net.cpp:165] Memory required for data: 214529500
I0821 08:27:51.711308 32360 layer_factory.hpp:77] Creating layer L1_b2_sum_eltwise_top_L1_b2_relu_0_split
I0821 08:27:51.711314 32360 net.cpp:100] Creating Layer L1_b2_sum_eltwise_top_L1_b2_relu_0_split
I0821 08:27:51.711319 32360 net.cpp:434] L1_b2_sum_eltwise_top_L1_b2_relu_0_split <- L1_b2_sum_eltwise_top
I0821 08:27:51.711329 32360 net.cpp:408] L1_b2_sum_eltwise_top_L1_b2_relu_0_split -> L1_b2_sum_eltwise_top_L1_b2_relu_0_split_0
I0821 08:27:51.711344 32360 net.cpp:408] L1_b2_sum_eltwise_top_L1_b2_relu_0_split -> L1_b2_sum_eltwise_top_L1_b2_relu_0_split_1
I0821 08:27:51.711385 32360 net.cpp:150] Setting up L1_b2_sum_eltwise_top_L1_b2_relu_0_split
I0821 08:27:51.711396 32360 net.cpp:157] Top shape: 125 16 32 32 (2048000)
I0821 08:27:51.711403 32360 net.cpp:157] Top shape: 125 16 32 32 (2048000)
I0821 08:27:51.711407 32360 net.cpp:165] Memory required for data: 230913500
I0821 08:27:51.711412 32360 layer_factory.hpp:77] Creating layer L1_b3_cbr1_conv
I0821 08:27:51.711438 32360 net.cpp:100] Creating Layer L1_b3_cbr1_conv
I0821 08:27:51.711447 32360 net.cpp:434] L1_b3_cbr1_conv <- L1_b2_sum_eltwise_top_L1_b2_relu_0_split_0
I0821 08:27:51.711455 32360 net.cpp:408] L1_b3_cbr1_conv -> L1_b3_cbr1_conv_top
I0821 08:27:51.711761 32360 net.cpp:150] Setting up L1_b3_cbr1_conv
I0821 08:27:51.711774 32360 net.cpp:157] Top shape: 125 16 32 32 (2048000)
I0821 08:27:51.711779 32360 net.cpp:165] Memory required for data: 239105500
I0821 08:27:51.711788 32360 layer_factory.hpp:77] Creating layer L1_b3_cbr1_bn
I0821 08:27:51.711800 32360 net.cpp:100] Creating Layer L1_b3_cbr1_bn
I0821 08:27:51.711807 32360 net.cpp:434] L1_b3_cbr1_bn <- L1_b3_cbr1_conv_top
I0821 08:27:51.711814 32360 net.cpp:408] L1_b3_cbr1_bn -> L1_b3_cbr1_bn_top
I0821 08:27:51.712045 32360 net.cpp:150] Setting up L1_b3_cbr1_bn
I0821 08:27:51.712059 32360 net.cpp:157] Top shape: 125 16 32 32 (2048000)
I0821 08:27:51.712064 32360 net.cpp:165] Memory required for data: 247297500
I0821 08:27:51.712074 32360 layer_factory.hpp:77] Creating layer L1_b3_cbr1_scale
I0821 08:27:51.712082 32360 net.cpp:100] Creating Layer L1_b3_cbr1_scale
I0821 08:27:51.712088 32360 net.cpp:434] L1_b3_cbr1_scale <- L1_b3_cbr1_bn_top
I0821 08:27:51.712100 32360 net.cpp:395] L1_b3_cbr1_scale -> L1_b3_cbr1_bn_top (in-place)
I0821 08:27:51.712149 32360 layer_factory.hpp:77] Creating layer L1_b3_cbr1_scale
I0821 08:27:51.712291 32360 net.cpp:150] Setting up L1_b3_cbr1_scale
I0821 08:27:51.712307 32360 net.cpp:157] Top shape: 125 16 32 32 (2048000)
I0821 08:27:51.712312 32360 net.cpp:165] Memory required for data: 255489500
I0821 08:27:51.712322 32360 layer_factory.hpp:77] Creating layer L1_b3_cbr1_relu
I0821 08:27:51.712330 32360 net.cpp:100] Creating Layer L1_b3_cbr1_relu
I0821 08:27:51.712337 32360 net.cpp:434] L1_b3_cbr1_relu <- L1_b3_cbr1_bn_top
I0821 08:27:51.712343 32360 net.cpp:395] L1_b3_cbr1_relu -> L1_b3_cbr1_bn_top (in-place)
I0821 08:27:51.712352 32360 net.cpp:150] Setting up L1_b3_cbr1_relu
I0821 08:27:51.712366 32360 net.cpp:157] Top shape: 125 16 32 32 (2048000)
I0821 08:27:51.712371 32360 net.cpp:165] Memory required for data: 263681500
I0821 08:27:51.712376 32360 layer_factory.hpp:77] Creating layer L1_b3_cbr2_conv
I0821 08:27:51.712390 32360 net.cpp:100] Creating Layer L1_b3_cbr2_conv
I0821 08:27:51.712396 32360 net.cpp:434] L1_b3_cbr2_conv <- L1_b3_cbr1_bn_top
I0821 08:27:51.712407 32360 net.cpp:408] L1_b3_cbr2_conv -> L1_b3_cbr2_conv_top
I0821 08:27:51.712713 32360 net.cpp:150] Setting up L1_b3_cbr2_conv
I0821 08:27:51.712726 32360 net.cpp:157] Top shape: 125 16 32 32 (2048000)
I0821 08:27:51.712731 32360 net.cpp:165] Memory required for data: 271873500
I0821 08:27:51.712740 32360 layer_factory.hpp:77] Creating layer L1_b3_cbr2_bn
I0821 08:27:51.712757 32360 net.cpp:100] Creating Layer L1_b3_cbr2_bn
I0821 08:27:51.712764 32360 net.cpp:434] L1_b3_cbr2_bn <- L1_b3_cbr2_conv_top
I0821 08:27:51.712772 32360 net.cpp:408] L1_b3_cbr2_bn -> L1_b3_cbr2_bn_top
I0821 08:27:51.713009 32360 net.cpp:150] Setting up L1_b3_cbr2_bn
I0821 08:27:51.713022 32360 net.cpp:157] Top shape: 125 16 32 32 (2048000)
I0821 08:27:51.713027 32360 net.cpp:165] Memory required for data: 280065500
I0821 08:27:51.713038 32360 layer_factory.hpp:77] Creating layer L1_b3_cbr2_scale
I0821 08:27:51.713047 32360 net.cpp:100] Creating Layer L1_b3_cbr2_scale
I0821 08:27:51.713053 32360 net.cpp:434] L1_b3_cbr2_scale <- L1_b3_cbr2_bn_top
I0821 08:27:51.713064 32360 net.cpp:395] L1_b3_cbr2_scale -> L1_b3_cbr2_bn_top (in-place)
I0821 08:27:51.713115 32360 layer_factory.hpp:77] Creating layer L1_b3_cbr2_scale
I0821 08:27:51.713249 32360 net.cpp:150] Setting up L1_b3_cbr2_scale
I0821 08:27:51.713274 32360 net.cpp:157] Top shape: 125 16 32 32 (2048000)
I0821 08:27:51.713279 32360 net.cpp:165] Memory required for data: 288257500
I0821 08:27:51.713289 32360 layer_factory.hpp:77] Creating layer L1_b3_sum_eltwise
I0821 08:27:51.713299 32360 net.cpp:100] Creating Layer L1_b3_sum_eltwise
I0821 08:27:51.713304 32360 net.cpp:434] L1_b3_sum_eltwise <- L1_b3_cbr2_bn_top
I0821 08:27:51.713311 32360 net.cpp:434] L1_b3_sum_eltwise <- L1_b2_sum_eltwise_top_L1_b2_relu_0_split_1
I0821 08:27:51.713321 32360 net.cpp:408] L1_b3_sum_eltwise -> L1_b3_sum_eltwise_top
I0821 08:27:51.713353 32360 net.cpp:150] Setting up L1_b3_sum_eltwise
I0821 08:27:51.713362 32360 net.cpp:157] Top shape: 125 16 32 32 (2048000)
I0821 08:27:51.713367 32360 net.cpp:165] Memory required for data: 296449500
I0821 08:27:51.713372 32360 layer_factory.hpp:77] Creating layer L1_b3_relu
I0821 08:27:51.713383 32360 net.cpp:100] Creating Layer L1_b3_relu
I0821 08:27:51.713389 32360 net.cpp:434] L1_b3_relu <- L1_b3_sum_eltwise_top
I0821 08:27:51.713395 32360 net.cpp:395] L1_b3_relu -> L1_b3_sum_eltwise_top (in-place)
I0821 08:27:51.713405 32360 net.cpp:150] Setting up L1_b3_relu
I0821 08:27:51.713413 32360 net.cpp:157] Top shape: 125 16 32 32 (2048000)
I0821 08:27:51.713418 32360 net.cpp:165] Memory required for data: 304641500
I0821 08:27:51.713421 32360 layer_factory.hpp:77] Creating layer L1_b3_sum_eltwise_top_L1_b3_relu_0_split
I0821 08:27:51.713431 32360 net.cpp:100] Creating Layer L1_b3_sum_eltwise_top_L1_b3_relu_0_split
I0821 08:27:51.713436 32360 net.cpp:434] L1_b3_sum_eltwise_top_L1_b3_relu_0_split <- L1_b3_sum_eltwise_top
I0821 08:27:51.713444 32360 net.cpp:408] L1_b3_sum_eltwise_top_L1_b3_relu_0_split -> L1_b3_sum_eltwise_top_L1_b3_relu_0_split_0
I0821 08:27:51.713454 32360 net.cpp:408] L1_b3_sum_eltwise_top_L1_b3_relu_0_split -> L1_b3_sum_eltwise_top_L1_b3_relu_0_split_1
I0821 08:27:51.713495 32360 net.cpp:150] Setting up L1_b3_sum_eltwise_top_L1_b3_relu_0_split
I0821 08:27:51.713510 32360 net.cpp:157] Top shape: 125 16 32 32 (2048000)
I0821 08:27:51.713516 32360 net.cpp:157] Top shape: 125 16 32 32 (2048000)
I0821 08:27:51.713521 32360 net.cpp:165] Memory required for data: 321025500
I0821 08:27:51.713526 32360 layer_factory.hpp:77] Creating layer L1_b4_cbr1_conv
I0821 08:27:51.713537 32360 net.cpp:100] Creating Layer L1_b4_cbr1_conv
I0821 08:27:51.713543 32360 net.cpp:434] L1_b4_cbr1_conv <- L1_b3_sum_eltwise_top_L1_b3_relu_0_split_0
I0821 08:27:51.713558 32360 net.cpp:408] L1_b4_cbr1_conv -> L1_b4_cbr1_conv_top
I0821 08:27:51.713868 32360 net.cpp:150] Setting up L1_b4_cbr1_conv
I0821 08:27:51.713882 32360 net.cpp:157] Top shape: 125 16 32 32 (2048000)
I0821 08:27:51.713887 32360 net.cpp:165] Memory required for data: 329217500
I0821 08:27:51.713896 32360 layer_factory.hpp:77] Creating layer L1_b4_cbr1_bn
I0821 08:27:51.713907 32360 net.cpp:100] Creating Layer L1_b4_cbr1_bn
I0821 08:27:51.713913 32360 net.cpp:434] L1_b4_cbr1_bn <- L1_b4_cbr1_conv_top
I0821 08:27:51.713922 32360 net.cpp:408] L1_b4_cbr1_bn -> L1_b4_cbr1_bn_top
I0821 08:27:51.714157 32360 net.cpp:150] Setting up L1_b4_cbr1_bn
I0821 08:27:51.714169 32360 net.cpp:157] Top shape: 125 16 32 32 (2048000)
I0821 08:27:51.714174 32360 net.cpp:165] Memory required for data: 337409500
I0821 08:27:51.714184 32360 layer_factory.hpp:77] Creating layer L1_b4_cbr1_scale
I0821 08:27:51.714193 32360 net.cpp:100] Creating Layer L1_b4_cbr1_scale
I0821 08:27:51.714200 32360 net.cpp:434] L1_b4_cbr1_scale <- L1_b4_cbr1_bn_top
I0821 08:27:51.714210 32360 net.cpp:395] L1_b4_cbr1_scale -> L1_b4_cbr1_bn_top (in-place)
I0821 08:27:51.714267 32360 layer_factory.hpp:77] Creating layer L1_b4_cbr1_scale
I0821 08:27:51.714411 32360 net.cpp:150] Setting up L1_b4_cbr1_scale
I0821 08:27:51.714424 32360 net.cpp:157] Top shape: 125 16 32 32 (2048000)
I0821 08:27:51.714429 32360 net.cpp:165] Memory required for data: 345601500
I0821 08:27:51.714439 32360 layer_factory.hpp:77] Creating layer L1_b4_cbr1_relu
I0821 08:27:51.714447 32360 net.cpp:100] Creating Layer L1_b4_cbr1_relu
I0821 08:27:51.714452 32360 net.cpp:434] L1_b4_cbr1_relu <- L1_b4_cbr1_bn_top
I0821 08:27:51.714463 32360 net.cpp:395] L1_b4_cbr1_relu -> L1_b4_cbr1_bn_top (in-place)
I0821 08:27:51.714473 32360 net.cpp:150] Setting up L1_b4_cbr1_relu
I0821 08:27:51.714480 32360 net.cpp:157] Top shape: 125 16 32 32 (2048000)
I0821 08:27:51.714485 32360 net.cpp:165] Memory required for data: 353793500
I0821 08:27:51.714490 32360 layer_factory.hpp:77] Creating layer L1_b4_cbr2_conv
I0821 08:27:51.714504 32360 net.cpp:100] Creating Layer L1_b4_cbr2_conv
I0821 08:27:51.714509 32360 net.cpp:434] L1_b4_cbr2_conv <- L1_b4_cbr1_bn_top
I0821 08:27:51.714519 32360 net.cpp:408] L1_b4_cbr2_conv -> L1_b4_cbr2_conv_top
I0821 08:27:51.714828 32360 net.cpp:150] Setting up L1_b4_cbr2_conv
I0821 08:27:51.714843 32360 net.cpp:157] Top shape: 125 16 32 32 (2048000)
I0821 08:27:51.714848 32360 net.cpp:165] Memory required for data: 361985500
I0821 08:27:51.714856 32360 layer_factory.hpp:77] Creating layer L1_b4_cbr2_bn
I0821 08:27:51.714865 32360 net.cpp:100] Creating Layer L1_b4_cbr2_bn
I0821 08:27:51.714874 32360 net.cpp:434] L1_b4_cbr2_bn <- L1_b4_cbr2_conv_top
I0821 08:27:51.714882 32360 net.cpp:408] L1_b4_cbr2_bn -> L1_b4_cbr2_bn_top
I0821 08:27:51.715116 32360 net.cpp:150] Setting up L1_b4_cbr2_bn
I0821 08:27:51.715128 32360 net.cpp:157] Top shape: 125 16 32 32 (2048000)
I0821 08:27:51.715133 32360 net.cpp:165] Memory required for data: 370177500
I0821 08:27:51.715144 32360 layer_factory.hpp:77] Creating layer L1_b4_cbr2_scale
I0821 08:27:51.715155 32360 net.cpp:100] Creating Layer L1_b4_cbr2_scale
I0821 08:27:51.715162 32360 net.cpp:434] L1_b4_cbr2_scale <- L1_b4_cbr2_bn_top
I0821 08:27:51.715169 32360 net.cpp:395] L1_b4_cbr2_scale -> L1_b4_cbr2_bn_top (in-place)
I0821 08:27:51.715224 32360 layer_factory.hpp:77] Creating layer L1_b4_cbr2_scale
I0821 08:27:51.715368 32360 net.cpp:150] Setting up L1_b4_cbr2_scale
I0821 08:27:51.715381 32360 net.cpp:157] Top shape: 125 16 32 32 (2048000)
I0821 08:27:51.715386 32360 net.cpp:165] Memory required for data: 378369500
I0821 08:27:51.715395 32360 layer_factory.hpp:77] Creating layer L1_b4_sum_eltwise
I0821 08:27:51.715404 32360 net.cpp:100] Creating Layer L1_b4_sum_eltwise
I0821 08:27:51.715410 32360 net.cpp:434] L1_b4_sum_eltwise <- L1_b4_cbr2_bn_top
I0821 08:27:51.715417 32360 net.cpp:434] L1_b4_sum_eltwise <- L1_b3_sum_eltwise_top_L1_b3_relu_0_split_1
I0821 08:27:51.715427 32360 net.cpp:408] L1_b4_sum_eltwise -> L1_b4_sum_eltwise_top
I0821 08:27:51.715469 32360 net.cpp:150] Setting up L1_b4_sum_eltwise
I0821 08:27:51.715479 32360 net.cpp:157] Top shape: 125 16 32 32 (2048000)
I0821 08:27:51.715484 32360 net.cpp:165] Memory required for data: 386561500
I0821 08:27:51.715489 32360 layer_factory.hpp:77] Creating layer L1_b4_relu
I0821 08:27:51.715497 32360 net.cpp:100] Creating Layer L1_b4_relu
I0821 08:27:51.715502 32360 net.cpp:434] L1_b4_relu <- L1_b4_sum_eltwise_top
I0821 08:27:51.715509 32360 net.cpp:395] L1_b4_relu -> L1_b4_sum_eltwise_top (in-place)
I0821 08:27:51.715522 32360 net.cpp:150] Setting up L1_b4_relu
I0821 08:27:51.715529 32360 net.cpp:157] Top shape: 125 16 32 32 (2048000)
I0821 08:27:51.715533 32360 net.cpp:165] Memory required for data: 394753500
I0821 08:27:51.715538 32360 layer_factory.hpp:77] Creating layer L1_b4_sum_eltwise_top_L1_b4_relu_0_split
I0821 08:27:51.715545 32360 net.cpp:100] Creating Layer L1_b4_sum_eltwise_top_L1_b4_relu_0_split
I0821 08:27:51.715550 32360 net.cpp:434] L1_b4_sum_eltwise_top_L1_b4_relu_0_split <- L1_b4_sum_eltwise_top
I0821 08:27:51.715559 32360 net.cpp:408] L1_b4_sum_eltwise_top_L1_b4_relu_0_split -> L1_b4_sum_eltwise_top_L1_b4_relu_0_split_0
I0821 08:27:51.715567 32360 net.cpp:408] L1_b4_sum_eltwise_top_L1_b4_relu_0_split -> L1_b4_sum_eltwise_top_L1_b4_relu_0_split_1
I0821 08:27:51.715611 32360 net.cpp:150] Setting up L1_b4_sum_eltwise_top_L1_b4_relu_0_split
I0821 08:27:51.715623 32360 net.cpp:157] Top shape: 125 16 32 32 (2048000)
I0821 08:27:51.715629 32360 net.cpp:157] Top shape: 125 16 32 32 (2048000)
I0821 08:27:51.715634 32360 net.cpp:165] Memory required for data: 411137500
I0821 08:27:51.715639 32360 layer_factory.hpp:77] Creating layer L1_b5_cbr1_conv
I0821 08:27:51.715651 32360 net.cpp:100] Creating Layer L1_b5_cbr1_conv
I0821 08:27:51.715656 32360 net.cpp:434] L1_b5_cbr1_conv <- L1_b4_sum_eltwise_top_L1_b4_relu_0_split_0
I0821 08:27:51.715672 32360 net.cpp:408] L1_b5_cbr1_conv -> L1_b5_cbr1_conv_top
I0821 08:27:51.715976 32360 net.cpp:150] Setting up L1_b5_cbr1_conv
I0821 08:27:51.715991 32360 net.cpp:157] Top shape: 125 16 32 32 (2048000)
I0821 08:27:51.715996 32360 net.cpp:165] Memory required for data: 419329500
I0821 08:27:51.716017 32360 layer_factory.hpp:77] Creating layer L1_b5_cbr1_bn
I0821 08:27:51.716027 32360 net.cpp:100] Creating Layer L1_b5_cbr1_bn
I0821 08:27:51.716032 32360 net.cpp:434] L1_b5_cbr1_bn <- L1_b5_cbr1_conv_top
I0821 08:27:51.716043 32360 net.cpp:408] L1_b5_cbr1_bn -> L1_b5_cbr1_bn_top
I0821 08:27:51.716289 32360 net.cpp:150] Setting up L1_b5_cbr1_bn
I0821 08:27:51.716302 32360 net.cpp:157] Top shape: 125 16 32 32 (2048000)
I0821 08:27:51.716307 32360 net.cpp:165] Memory required for data: 427521500
I0821 08:27:51.716317 32360 layer_factory.hpp:77] Creating layer L1_b5_cbr1_scale
I0821 08:27:51.716329 32360 net.cpp:100] Creating Layer L1_b5_cbr1_scale
I0821 08:27:51.716336 32360 net.cpp:434] L1_b5_cbr1_scale <- L1_b5_cbr1_bn_top
I0821 08:27:51.716343 32360 net.cpp:395] L1_b5_cbr1_scale -> L1_b5_cbr1_bn_top (in-place)
I0821 08:27:51.716423 32360 layer_factory.hpp:77] Creating layer L1_b5_cbr1_scale
I0821 08:27:51.716627 32360 net.cpp:150] Setting up L1_b5_cbr1_scale
I0821 08:27:51.716644 32360 net.cpp:157] Top shape: 125 16 32 32 (2048000)
I0821 08:27:51.716648 32360 net.cpp:165] Memory required for data: 435713500
I0821 08:27:51.716658 32360 layer_factory.hpp:77] Creating layer L1_b5_cbr1_relu
I0821 08:27:51.716667 32360 net.cpp:100] Creating Layer L1_b5_cbr1_relu
I0821 08:27:51.716673 32360 net.cpp:434] L1_b5_cbr1_relu <- L1_b5_cbr1_bn_top
I0821 08:27:51.716684 32360 net.cpp:395] L1_b5_cbr1_relu -> L1_b5_cbr1_bn_top (in-place)
I0821 08:27:51.716696 32360 net.cpp:150] Setting up L1_b5_cbr1_relu
I0821 08:27:51.716702 32360 net.cpp:157] Top shape: 125 16 32 32 (2048000)
I0821 08:27:51.716706 32360 net.cpp:165] Memory required for data: 443905500
I0821 08:27:51.716711 32360 layer_factory.hpp:77] Creating layer L1_b5_cbr2_conv
I0821 08:27:51.716725 32360 net.cpp:100] Creating Layer L1_b5_cbr2_conv
I0821 08:27:51.716738 32360 net.cpp:434] L1_b5_cbr2_conv <- L1_b5_cbr1_bn_top
I0821 08:27:51.716747 32360 net.cpp:408] L1_b5_cbr2_conv -> L1_b5_cbr2_conv_top
I0821 08:27:51.717061 32360 net.cpp:150] Setting up L1_b5_cbr2_conv
I0821 08:27:51.717075 32360 net.cpp:157] Top shape: 125 16 32 32 (2048000)
I0821 08:27:51.717082 32360 net.cpp:165] Memory required for data: 452097500
I0821 08:27:51.717089 32360 layer_factory.hpp:77] Creating layer L1_b5_cbr2_bn
I0821 08:27:51.717102 32360 net.cpp:100] Creating Layer L1_b5_cbr2_bn
I0821 08:27:51.717108 32360 net.cpp:434] L1_b5_cbr2_bn <- L1_b5_cbr2_conv_top
I0821 08:27:51.717116 32360 net.cpp:408] L1_b5_cbr2_bn -> L1_b5_cbr2_bn_top
I0821 08:27:51.717360 32360 net.cpp:150] Setting up L1_b5_cbr2_bn
I0821 08:27:51.717375 32360 net.cpp:157] Top shape: 125 16 32 32 (2048000)
I0821 08:27:51.717380 32360 net.cpp:165] Memory required for data: 460289500
I0821 08:27:51.717391 32360 layer_factory.hpp:77] Creating layer L1_b5_cbr2_scale
I0821 08:27:51.717399 32360 net.cpp:100] Creating Layer L1_b5_cbr2_scale
I0821 08:27:51.717406 32360 net.cpp:434] L1_b5_cbr2_scale <- L1_b5_cbr2_bn_top
I0821 08:27:51.717416 32360 net.cpp:395] L1_b5_cbr2_scale -> L1_b5_cbr2_bn_top (in-place)
I0821 08:27:51.717468 32360 layer_factory.hpp:77] Creating layer L1_b5_cbr2_scale
I0821 08:27:51.717602 32360 net.cpp:150] Setting up L1_b5_cbr2_scale
I0821 08:27:51.717618 32360 net.cpp:157] Top shape: 125 16 32 32 (2048000)
I0821 08:27:51.717623 32360 net.cpp:165] Memory required for data: 468481500
I0821 08:27:51.717633 32360 layer_factory.hpp:77] Creating layer L1_b5_sum_eltwise
I0821 08:27:51.717641 32360 net.cpp:100] Creating Layer L1_b5_sum_eltwise
I0821 08:27:51.717648 32360 net.cpp:434] L1_b5_sum_eltwise <- L1_b5_cbr2_bn_top
I0821 08:27:51.717654 32360 net.cpp:434] L1_b5_sum_eltwise <- L1_b4_sum_eltwise_top_L1_b4_relu_0_split_1
I0821 08:27:51.717665 32360 net.cpp:408] L1_b5_sum_eltwise -> L1_b5_sum_eltwise_top
I0821 08:27:51.717695 32360 net.cpp:150] Setting up L1_b5_sum_eltwise
I0821 08:27:51.717705 32360 net.cpp:157] Top shape: 125 16 32 32 (2048000)
I0821 08:27:51.717710 32360 net.cpp:165] Memory required for data: 476673500
I0821 08:27:51.717715 32360 layer_factory.hpp:77] Creating layer L1_b5_relu
I0821 08:27:51.717725 32360 net.cpp:100] Creating Layer L1_b5_relu
I0821 08:27:51.717731 32360 net.cpp:434] L1_b5_relu <- L1_b5_sum_eltwise_top
I0821 08:27:51.717738 32360 net.cpp:395] L1_b5_relu -> L1_b5_sum_eltwise_top (in-place)
I0821 08:27:51.717747 32360 net.cpp:150] Setting up L1_b5_relu
I0821 08:27:51.717754 32360 net.cpp:157] Top shape: 125 16 32 32 (2048000)
I0821 08:27:51.717758 32360 net.cpp:165] Memory required for data: 484865500
I0821 08:27:51.717763 32360 layer_factory.hpp:77] Creating layer L1_b5_sum_eltwise_top_L1_b5_relu_0_split
I0821 08:27:51.717773 32360 net.cpp:100] Creating Layer L1_b5_sum_eltwise_top_L1_b5_relu_0_split
I0821 08:27:51.717778 32360 net.cpp:434] L1_b5_sum_eltwise_top_L1_b5_relu_0_split <- L1_b5_sum_eltwise_top
I0821 08:27:51.717787 32360 net.cpp:408] L1_b5_sum_eltwise_top_L1_b5_relu_0_split -> L1_b5_sum_eltwise_top_L1_b5_relu_0_split_0
I0821 08:27:51.717795 32360 net.cpp:408] L1_b5_sum_eltwise_top_L1_b5_relu_0_split -> L1_b5_sum_eltwise_top_L1_b5_relu_0_split_1
I0821 08:27:51.717838 32360 net.cpp:150] Setting up L1_b5_sum_eltwise_top_L1_b5_relu_0_split
I0821 08:27:51.717852 32360 net.cpp:157] Top shape: 125 16 32 32 (2048000)
I0821 08:27:51.717859 32360 net.cpp:157] Top shape: 125 16 32 32 (2048000)
I0821 08:27:51.717864 32360 net.cpp:165] Memory required for data: 501249500
I0821 08:27:51.717869 32360 layer_factory.hpp:77] Creating layer L1_b6_cbr1_conv
I0821 08:27:51.717880 32360 net.cpp:100] Creating Layer L1_b6_cbr1_conv
I0821 08:27:51.717886 32360 net.cpp:434] L1_b6_cbr1_conv <- L1_b5_sum_eltwise_top_L1_b5_relu_0_split_0
I0821 08:27:51.717895 32360 net.cpp:408] L1_b6_cbr1_conv -> L1_b6_cbr1_conv_top
I0821 08:27:51.718204 32360 net.cpp:150] Setting up L1_b6_cbr1_conv
I0821 08:27:51.718219 32360 net.cpp:157] Top shape: 125 16 32 32 (2048000)
I0821 08:27:51.718224 32360 net.cpp:165] Memory required for data: 509441500
I0821 08:27:51.718240 32360 layer_factory.hpp:77] Creating layer L1_b6_cbr1_bn
I0821 08:27:51.718252 32360 net.cpp:100] Creating Layer L1_b6_cbr1_bn
I0821 08:27:51.718263 32360 net.cpp:434] L1_b6_cbr1_bn <- L1_b6_cbr1_conv_top
I0821 08:27:51.718273 32360 net.cpp:408] L1_b6_cbr1_bn -> L1_b6_cbr1_bn_top
I0821 08:27:51.718513 32360 net.cpp:150] Setting up L1_b6_cbr1_bn
I0821 08:27:51.718526 32360 net.cpp:157] Top shape: 125 16 32 32 (2048000)
I0821 08:27:51.718531 32360 net.cpp:165] Memory required for data: 517633500
I0821 08:27:51.718541 32360 layer_factory.hpp:77] Creating layer L1_b6_cbr1_scale
I0821 08:27:51.718550 32360 net.cpp:100] Creating Layer L1_b6_cbr1_scale
I0821 08:27:51.718556 32360 net.cpp:434] L1_b6_cbr1_scale <- L1_b6_cbr1_bn_top
I0821 08:27:51.718567 32360 net.cpp:395] L1_b6_cbr1_scale -> L1_b6_cbr1_bn_top (in-place)
I0821 08:27:51.718618 32360 layer_factory.hpp:77] Creating layer L1_b6_cbr1_scale
I0821 08:27:51.718760 32360 net.cpp:150] Setting up L1_b6_cbr1_scale
I0821 08:27:51.718773 32360 net.cpp:157] Top shape: 125 16 32 32 (2048000)
I0821 08:27:51.718778 32360 net.cpp:165] Memory required for data: 525825500
I0821 08:27:51.718787 32360 layer_factory.hpp:77] Creating layer L1_b6_cbr1_relu
I0821 08:27:51.718796 32360 net.cpp:100] Creating Layer L1_b6_cbr1_relu
I0821 08:27:51.718802 32360 net.cpp:434] L1_b6_cbr1_relu <- L1_b6_cbr1_bn_top
I0821 08:27:51.718812 32360 net.cpp:395] L1_b6_cbr1_relu -> L1_b6_cbr1_bn_top (in-place)
I0821 08:27:51.718822 32360 net.cpp:150] Setting up L1_b6_cbr1_relu
I0821 08:27:51.718829 32360 net.cpp:157] Top shape: 125 16 32 32 (2048000)
I0821 08:27:51.718834 32360 net.cpp:165] Memory required for data: 534017500
I0821 08:27:51.718838 32360 layer_factory.hpp:77] Creating layer L1_b6_cbr2_conv
I0821 08:27:51.718852 32360 net.cpp:100] Creating Layer L1_b6_cbr2_conv
I0821 08:27:51.718858 32360 net.cpp:434] L1_b6_cbr2_conv <- L1_b6_cbr1_bn_top
I0821 08:27:51.718868 32360 net.cpp:408] L1_b6_cbr2_conv -> L1_b6_cbr2_conv_top
I0821 08:27:51.719178 32360 net.cpp:150] Setting up L1_b6_cbr2_conv
I0821 08:27:51.719192 32360 net.cpp:157] Top shape: 125 16 32 32 (2048000)
I0821 08:27:51.719197 32360 net.cpp:165] Memory required for data: 542209500
I0821 08:27:51.719207 32360 layer_factory.hpp:77] Creating layer L1_b6_cbr2_bn
I0821 08:27:51.719218 32360 net.cpp:100] Creating Layer L1_b6_cbr2_bn
I0821 08:27:51.719224 32360 net.cpp:434] L1_b6_cbr2_bn <- L1_b6_cbr2_conv_top
I0821 08:27:51.719235 32360 net.cpp:408] L1_b6_cbr2_bn -> L1_b6_cbr2_bn_top
I0821 08:27:51.719476 32360 net.cpp:150] Setting up L1_b6_cbr2_bn
I0821 08:27:51.719491 32360 net.cpp:157] Top shape: 125 16 32 32 (2048000)
I0821 08:27:51.719496 32360 net.cpp:165] Memory required for data: 550401500
I0821 08:27:51.719506 32360 layer_factory.hpp:77] Creating layer L1_b6_cbr2_scale
I0821 08:27:51.719516 32360 net.cpp:100] Creating Layer L1_b6_cbr2_scale
I0821 08:27:51.719521 32360 net.cpp:434] L1_b6_cbr2_scale <- L1_b6_cbr2_bn_top
I0821 08:27:51.719532 32360 net.cpp:395] L1_b6_cbr2_scale -> L1_b6_cbr2_bn_top (in-place)
I0821 08:27:51.719584 32360 layer_factory.hpp:77] Creating layer L1_b6_cbr2_scale
I0821 08:27:51.719727 32360 net.cpp:150] Setting up L1_b6_cbr2_scale
I0821 08:27:51.719743 32360 net.cpp:157] Top shape: 125 16 32 32 (2048000)
I0821 08:27:51.719748 32360 net.cpp:165] Memory required for data: 558593500
I0821 08:27:51.719756 32360 layer_factory.hpp:77] Creating layer L1_b6_sum_eltwise
I0821 08:27:51.719772 32360 net.cpp:100] Creating Layer L1_b6_sum_eltwise
I0821 08:27:51.719779 32360 net.cpp:434] L1_b6_sum_eltwise <- L1_b6_cbr2_bn_top
I0821 08:27:51.719786 32360 net.cpp:434] L1_b6_sum_eltwise <- L1_b5_sum_eltwise_top_L1_b5_relu_0_split_1
I0821 08:27:51.719794 32360 net.cpp:408] L1_b6_sum_eltwise -> L1_b6_sum_eltwise_top
I0821 08:27:51.719830 32360 net.cpp:150] Setting up L1_b6_sum_eltwise
I0821 08:27:51.719841 32360 net.cpp:157] Top shape: 125 16 32 32 (2048000)
I0821 08:27:51.719846 32360 net.cpp:165] Memory required for data: 566785500
I0821 08:27:51.719851 32360 layer_factory.hpp:77] Creating layer L1_b6_relu
I0821 08:27:51.719867 32360 net.cpp:100] Creating Layer L1_b6_relu
I0821 08:27:51.719873 32360 net.cpp:434] L1_b6_relu <- L1_b6_sum_eltwise_top
I0821 08:27:51.719883 32360 net.cpp:395] L1_b6_relu -> L1_b6_sum_eltwise_top (in-place)
I0821 08:27:51.719893 32360 net.cpp:150] Setting up L1_b6_relu
I0821 08:27:51.719900 32360 net.cpp:157] Top shape: 125 16 32 32 (2048000)
I0821 08:27:51.719905 32360 net.cpp:165] Memory required for data: 574977500
I0821 08:27:51.719909 32360 layer_factory.hpp:77] Creating layer L1_b6_sum_eltwise_top_L1_b6_relu_0_split
I0821 08:27:51.719918 32360 net.cpp:100] Creating Layer L1_b6_sum_eltwise_top_L1_b6_relu_0_split
I0821 08:27:51.719923 32360 net.cpp:434] L1_b6_sum_eltwise_top_L1_b6_relu_0_split <- L1_b6_sum_eltwise_top
I0821 08:27:51.719929 32360 net.cpp:408] L1_b6_sum_eltwise_top_L1_b6_relu_0_split -> L1_b6_sum_eltwise_top_L1_b6_relu_0_split_0
I0821 08:27:51.719938 32360 net.cpp:408] L1_b6_sum_eltwise_top_L1_b6_relu_0_split -> L1_b6_sum_eltwise_top_L1_b6_relu_0_split_1
I0821 08:27:51.719986 32360 net.cpp:150] Setting up L1_b6_sum_eltwise_top_L1_b6_relu_0_split
I0821 08:27:51.719998 32360 net.cpp:157] Top shape: 125 16 32 32 (2048000)
I0821 08:27:51.720005 32360 net.cpp:157] Top shape: 125 16 32 32 (2048000)
I0821 08:27:51.720010 32360 net.cpp:165] Memory required for data: 591361500
I0821 08:27:51.720015 32360 layer_factory.hpp:77] Creating layer L1_b7_cbr1_conv
I0821 08:27:51.720026 32360 net.cpp:100] Creating Layer L1_b7_cbr1_conv
I0821 08:27:51.720032 32360 net.cpp:434] L1_b7_cbr1_conv <- L1_b6_sum_eltwise_top_L1_b6_relu_0_split_0
I0821 08:27:51.720043 32360 net.cpp:408] L1_b7_cbr1_conv -> L1_b7_cbr1_conv_top
I0821 08:27:51.720372 32360 net.cpp:150] Setting up L1_b7_cbr1_conv
I0821 08:27:51.720386 32360 net.cpp:157] Top shape: 125 16 32 32 (2048000)
I0821 08:27:51.720391 32360 net.cpp:165] Memory required for data: 599553500
I0821 08:27:51.720401 32360 layer_factory.hpp:77] Creating layer L1_b7_cbr1_bn
I0821 08:27:51.720410 32360 net.cpp:100] Creating Layer L1_b7_cbr1_bn
I0821 08:27:51.720417 32360 net.cpp:434] L1_b7_cbr1_bn <- L1_b7_cbr1_conv_top
I0821 08:27:51.720427 32360 net.cpp:408] L1_b7_cbr1_bn -> L1_b7_cbr1_bn_top
I0821 08:27:51.720669 32360 net.cpp:150] Setting up L1_b7_cbr1_bn
I0821 08:27:51.720682 32360 net.cpp:157] Top shape: 125 16 32 32 (2048000)
I0821 08:27:51.720687 32360 net.cpp:165] Memory required for data: 607745500
I0821 08:27:51.720698 32360 layer_factory.hpp:77] Creating layer L1_b7_cbr1_scale
I0821 08:27:51.720710 32360 net.cpp:100] Creating Layer L1_b7_cbr1_scale
I0821 08:27:51.720716 32360 net.cpp:434] L1_b7_cbr1_scale <- L1_b7_cbr1_bn_top
I0821 08:27:51.720724 32360 net.cpp:395] L1_b7_cbr1_scale -> L1_b7_cbr1_bn_top (in-place)
I0821 08:27:51.720775 32360 layer_factory.hpp:77] Creating layer L1_b7_cbr1_scale
I0821 08:27:51.720916 32360 net.cpp:150] Setting up L1_b7_cbr1_scale
I0821 08:27:51.720929 32360 net.cpp:157] Top shape: 125 16 32 32 (2048000)
I0821 08:27:51.720934 32360 net.cpp:165] Memory required for data: 615937500
I0821 08:27:51.720943 32360 layer_factory.hpp:77] Creating layer L1_b7_cbr1_relu
I0821 08:27:51.720954 32360 net.cpp:100] Creating Layer L1_b7_cbr1_relu
I0821 08:27:51.720962 32360 net.cpp:434] L1_b7_cbr1_relu <- L1_b7_cbr1_bn_top
I0821 08:27:51.720968 32360 net.cpp:395] L1_b7_cbr1_relu -> L1_b7_cbr1_bn_top (in-place)
I0821 08:27:51.720978 32360 net.cpp:150] Setting up L1_b7_cbr1_relu
I0821 08:27:51.720984 32360 net.cpp:157] Top shape: 125 16 32 32 (2048000)
I0821 08:27:51.720989 32360 net.cpp:165] Memory required for data: 624129500
I0821 08:27:51.720994 32360 layer_factory.hpp:77] Creating layer L1_b7_cbr2_conv
I0821 08:27:51.721009 32360 net.cpp:100] Creating Layer L1_b7_cbr2_conv
I0821 08:27:51.721015 32360 net.cpp:434] L1_b7_cbr2_conv <- L1_b7_cbr1_bn_top
I0821 08:27:51.721026 32360 net.cpp:408] L1_b7_cbr2_conv -> L1_b7_cbr2_conv_top
I0821 08:27:51.721343 32360 net.cpp:150] Setting up L1_b7_cbr2_conv
I0821 08:27:51.721357 32360 net.cpp:157] Top shape: 125 16 32 32 (2048000)
I0821 08:27:51.721362 32360 net.cpp:165] Memory required for data: 632321500
I0821 08:27:51.721379 32360 layer_factory.hpp:77] Creating layer L1_b7_cbr2_bn
I0821 08:27:51.721388 32360 net.cpp:100] Creating Layer L1_b7_cbr2_bn
I0821 08:27:51.721395 32360 net.cpp:434] L1_b7_cbr2_bn <- L1_b7_cbr2_conv_top
I0821 08:27:51.721402 32360 net.cpp:408] L1_b7_cbr2_bn -> L1_b7_cbr2_bn_top
I0821 08:27:51.721648 32360 net.cpp:150] Setting up L1_b7_cbr2_bn
I0821 08:27:51.721662 32360 net.cpp:157] Top shape: 125 16 32 32 (2048000)
I0821 08:27:51.721666 32360 net.cpp:165] Memory required for data: 640513500
I0821 08:27:51.721678 32360 layer_factory.hpp:77] Creating layer L1_b7_cbr2_scale
I0821 08:27:51.721688 32360 net.cpp:100] Creating Layer L1_b7_cbr2_scale
I0821 08:27:51.721695 32360 net.cpp:434] L1_b7_cbr2_scale <- L1_b7_cbr2_bn_top
I0821 08:27:51.721702 32360 net.cpp:395] L1_b7_cbr2_scale -> L1_b7_cbr2_bn_top (in-place)
I0821 08:27:51.721758 32360 layer_factory.hpp:77] Creating layer L1_b7_cbr2_scale
I0821 08:27:51.721899 32360 net.cpp:150] Setting up L1_b7_cbr2_scale
I0821 08:27:51.721910 32360 net.cpp:157] Top shape: 125 16 32 32 (2048000)
I0821 08:27:51.721915 32360 net.cpp:165] Memory required for data: 648705500
I0821 08:27:51.721925 32360 layer_factory.hpp:77] Creating layer L1_b7_sum_eltwise
I0821 08:27:51.721935 32360 net.cpp:100] Creating Layer L1_b7_sum_eltwise
I0821 08:27:51.721940 32360 net.cpp:434] L1_b7_sum_eltwise <- L1_b7_cbr2_bn_top
I0821 08:27:51.721947 32360 net.cpp:434] L1_b7_sum_eltwise <- L1_b6_sum_eltwise_top_L1_b6_relu_0_split_1
I0821 08:27:51.721958 32360 net.cpp:408] L1_b7_sum_eltwise -> L1_b7_sum_eltwise_top
I0821 08:27:51.721992 32360 net.cpp:150] Setting up L1_b7_sum_eltwise
I0821 08:27:51.722002 32360 net.cpp:157] Top shape: 125 16 32 32 (2048000)
I0821 08:27:51.722007 32360 net.cpp:165] Memory required for data: 656897500
I0821 08:27:51.722012 32360 layer_factory.hpp:77] Creating layer L1_b7_relu
I0821 08:27:51.722020 32360 net.cpp:100] Creating Layer L1_b7_relu
I0821 08:27:51.722025 32360 net.cpp:434] L1_b7_relu <- L1_b7_sum_eltwise_top
I0821 08:27:51.722035 32360 net.cpp:395] L1_b7_relu -> L1_b7_sum_eltwise_top (in-place)
I0821 08:27:51.722045 32360 net.cpp:150] Setting up L1_b7_relu
I0821 08:27:51.722053 32360 net.cpp:157] Top shape: 125 16 32 32 (2048000)
I0821 08:27:51.722057 32360 net.cpp:165] Memory required for data: 665089500
I0821 08:27:51.722062 32360 layer_factory.hpp:77] Creating layer L1_b7_sum_eltwise_top_L1_b7_relu_0_split
I0821 08:27:51.722069 32360 net.cpp:100] Creating Layer L1_b7_sum_eltwise_top_L1_b7_relu_0_split
I0821 08:27:51.722074 32360 net.cpp:434] L1_b7_sum_eltwise_top_L1_b7_relu_0_split <- L1_b7_sum_eltwise_top
I0821 08:27:51.722081 32360 net.cpp:408] L1_b7_sum_eltwise_top_L1_b7_relu_0_split -> L1_b7_sum_eltwise_top_L1_b7_relu_0_split_0
I0821 08:27:51.722091 32360 net.cpp:408] L1_b7_sum_eltwise_top_L1_b7_relu_0_split -> L1_b7_sum_eltwise_top_L1_b7_relu_0_split_1
I0821 08:27:51.722136 32360 net.cpp:150] Setting up L1_b7_sum_eltwise_top_L1_b7_relu_0_split
I0821 08:27:51.722170 32360 net.cpp:157] Top shape: 125 16 32 32 (2048000)
I0821 08:27:51.722178 32360 net.cpp:157] Top shape: 125 16 32 32 (2048000)
I0821 08:27:51.722182 32360 net.cpp:165] Memory required for data: 681473500
I0821 08:27:51.722188 32360 layer_factory.hpp:77] Creating layer L1_b8_cbr1_conv
I0821 08:27:51.722199 32360 net.cpp:100] Creating Layer L1_b8_cbr1_conv
I0821 08:27:51.722206 32360 net.cpp:434] L1_b8_cbr1_conv <- L1_b7_sum_eltwise_top_L1_b7_relu_0_split_0
I0821 08:27:51.722218 32360 net.cpp:408] L1_b8_cbr1_conv -> L1_b8_cbr1_conv_top
I0821 08:27:51.722543 32360 net.cpp:150] Setting up L1_b8_cbr1_conv
I0821 08:27:51.722558 32360 net.cpp:157] Top shape: 125 16 32 32 (2048000)
I0821 08:27:51.722563 32360 net.cpp:165] Memory required for data: 689665500
I0821 08:27:51.722571 32360 layer_factory.hpp:77] Creating layer L1_b8_cbr1_bn
I0821 08:27:51.722580 32360 net.cpp:100] Creating Layer L1_b8_cbr1_bn
I0821 08:27:51.722586 32360 net.cpp:434] L1_b8_cbr1_bn <- L1_b8_cbr1_conv_top
I0821 08:27:51.722599 32360 net.cpp:408] L1_b8_cbr1_bn -> L1_b8_cbr1_bn_top
I0821 08:27:51.722851 32360 net.cpp:150] Setting up L1_b8_cbr1_bn
I0821 08:27:51.722864 32360 net.cpp:157] Top shape: 125 16 32 32 (2048000)
I0821 08:27:51.722869 32360 net.cpp:165] Memory required for data: 697857500
I0821 08:27:51.722880 32360 layer_factory.hpp:77] Creating layer L1_b8_cbr1_scale
I0821 08:27:51.722892 32360 net.cpp:100] Creating Layer L1_b8_cbr1_scale
I0821 08:27:51.722898 32360 net.cpp:434] L1_b8_cbr1_scale <- L1_b8_cbr1_bn_top
I0821 08:27:51.722906 32360 net.cpp:395] L1_b8_cbr1_scale -> L1_b8_cbr1_bn_top (in-place)
I0821 08:27:51.722959 32360 layer_factory.hpp:77] Creating layer L1_b8_cbr1_scale
I0821 08:27:51.723104 32360 net.cpp:150] Setting up L1_b8_cbr1_scale
I0821 08:27:51.723117 32360 net.cpp:157] Top shape: 125 16 32 32 (2048000)
I0821 08:27:51.723122 32360 net.cpp:165] Memory required for data: 706049500
I0821 08:27:51.723131 32360 layer_factory.hpp:77] Creating layer L1_b8_cbr1_relu
I0821 08:27:51.723140 32360 net.cpp:100] Creating Layer L1_b8_cbr1_relu
I0821 08:27:51.723146 32360 net.cpp:434] L1_b8_cbr1_relu <- L1_b8_cbr1_bn_top
I0821 08:27:51.723156 32360 net.cpp:395] L1_b8_cbr1_relu -> L1_b8_cbr1_bn_top (in-place)
I0821 08:27:51.723166 32360 net.cpp:150] Setting up L1_b8_cbr1_relu
I0821 08:27:51.723173 32360 net.cpp:157] Top shape: 125 16 32 32 (2048000)
I0821 08:27:51.723178 32360 net.cpp:165] Memory required for data: 714241500
I0821 08:27:51.723183 32360 layer_factory.hpp:77] Creating layer L1_b8_cbr2_conv
I0821 08:27:51.723197 32360 net.cpp:100] Creating Layer L1_b8_cbr2_conv
I0821 08:27:51.723203 32360 net.cpp:434] L1_b8_cbr2_conv <- L1_b8_cbr1_bn_top
I0821 08:27:51.723213 32360 net.cpp:408] L1_b8_cbr2_conv -> L1_b8_cbr2_conv_top
I0821 08:27:51.723539 32360 net.cpp:150] Setting up L1_b8_cbr2_conv
I0821 08:27:51.723554 32360 net.cpp:157] Top shape: 125 16 32 32 (2048000)
I0821 08:27:51.723559 32360 net.cpp:165] Memory required for data: 722433500
I0821 08:27:51.723568 32360 layer_factory.hpp:77] Creating layer L1_b8_cbr2_bn
I0821 08:27:51.723578 32360 net.cpp:100] Creating Layer L1_b8_cbr2_bn
I0821 08:27:51.723584 32360 net.cpp:434] L1_b8_cbr2_bn <- L1_b8_cbr2_conv_top
I0821 08:27:51.723592 32360 net.cpp:408] L1_b8_cbr2_bn -> L1_b8_cbr2_bn_top
I0821 08:27:51.723839 32360 net.cpp:150] Setting up L1_b8_cbr2_bn
I0821 08:27:51.723851 32360 net.cpp:157] Top shape: 125 16 32 32 (2048000)
I0821 08:27:51.723856 32360 net.cpp:165] Memory required for data: 730625500
I0821 08:27:51.723866 32360 layer_factory.hpp:77] Creating layer L1_b8_cbr2_scale
I0821 08:27:51.723879 32360 net.cpp:100] Creating Layer L1_b8_cbr2_scale
I0821 08:27:51.723886 32360 net.cpp:434] L1_b8_cbr2_scale <- L1_b8_cbr2_bn_top
I0821 08:27:51.723893 32360 net.cpp:395] L1_b8_cbr2_scale -> L1_b8_cbr2_bn_top (in-place)
I0821 08:27:51.723949 32360 layer_factory.hpp:77] Creating layer L1_b8_cbr2_scale
I0821 08:27:51.724087 32360 net.cpp:150] Setting up L1_b8_cbr2_scale
I0821 08:27:51.724100 32360 net.cpp:157] Top shape: 125 16 32 32 (2048000)
I0821 08:27:51.724105 32360 net.cpp:165] Memory required for data: 738817500
I0821 08:27:51.724114 32360 layer_factory.hpp:77] Creating layer L1_b8_sum_eltwise
I0821 08:27:51.724123 32360 net.cpp:100] Creating Layer L1_b8_sum_eltwise
I0821 08:27:51.724129 32360 net.cpp:434] L1_b8_sum_eltwise <- L1_b8_cbr2_bn_top
I0821 08:27:51.724136 32360 net.cpp:434] L1_b8_sum_eltwise <- L1_b7_sum_eltwise_top_L1_b7_relu_0_split_1
I0821 08:27:51.724146 32360 net.cpp:408] L1_b8_sum_eltwise -> L1_b8_sum_eltwise_top
I0821 08:27:51.724180 32360 net.cpp:150] Setting up L1_b8_sum_eltwise
I0821 08:27:51.724190 32360 net.cpp:157] Top shape: 125 16 32 32 (2048000)
I0821 08:27:51.724195 32360 net.cpp:165] Memory required for data: 747009500
I0821 08:27:51.724200 32360 layer_factory.hpp:77] Creating layer L1_b8_relu
I0821 08:27:51.724207 32360 net.cpp:100] Creating Layer L1_b8_relu
I0821 08:27:51.724213 32360 net.cpp:434] L1_b8_relu <- L1_b8_sum_eltwise_top
I0821 08:27:51.724220 32360 net.cpp:395] L1_b8_relu -> L1_b8_sum_eltwise_top (in-place)
I0821 08:27:51.724230 32360 net.cpp:150] Setting up L1_b8_relu
I0821 08:27:51.724243 32360 net.cpp:157] Top shape: 125 16 32 32 (2048000)
I0821 08:27:51.724248 32360 net.cpp:165] Memory required for data: 755201500
I0821 08:27:51.724253 32360 layer_factory.hpp:77] Creating layer L1_b8_sum_eltwise_top_L1_b8_relu_0_split
I0821 08:27:51.724268 32360 net.cpp:100] Creating Layer L1_b8_sum_eltwise_top_L1_b8_relu_0_split
I0821 08:27:51.724275 32360 net.cpp:434] L1_b8_sum_eltwise_top_L1_b8_relu_0_split <- L1_b8_sum_eltwise_top
I0821 08:27:51.724284 32360 net.cpp:408] L1_b8_sum_eltwise_top_L1_b8_relu_0_split -> L1_b8_sum_eltwise_top_L1_b8_relu_0_split_0
I0821 08:27:51.724294 32360 net.cpp:408] L1_b8_sum_eltwise_top_L1_b8_relu_0_split -> L1_b8_sum_eltwise_top_L1_b8_relu_0_split_1
I0821 08:27:51.724340 32360 net.cpp:150] Setting up L1_b8_sum_eltwise_top_L1_b8_relu_0_split
I0821 08:27:51.724352 32360 net.cpp:157] Top shape: 125 16 32 32 (2048000)
I0821 08:27:51.724359 32360 net.cpp:157] Top shape: 125 16 32 32 (2048000)
I0821 08:27:51.724364 32360 net.cpp:165] Memory required for data: 771585500
I0821 08:27:51.724369 32360 layer_factory.hpp:77] Creating layer L1_b9_cbr1_conv
I0821 08:27:51.724380 32360 net.cpp:100] Creating Layer L1_b9_cbr1_conv
I0821 08:27:51.724386 32360 net.cpp:434] L1_b9_cbr1_conv <- L1_b8_sum_eltwise_top_L1_b8_relu_0_split_0
I0821 08:27:51.724397 32360 net.cpp:408] L1_b9_cbr1_conv -> L1_b9_cbr1_conv_top
I0821 08:27:51.724723 32360 net.cpp:150] Setting up L1_b9_cbr1_conv
I0821 08:27:51.724738 32360 net.cpp:157] Top shape: 125 16 32 32 (2048000)
I0821 08:27:51.724742 32360 net.cpp:165] Memory required for data: 779777500
I0821 08:27:51.724751 32360 layer_factory.hpp:77] Creating layer L1_b9_cbr1_bn
I0821 08:27:51.724763 32360 net.cpp:100] Creating Layer L1_b9_cbr1_bn
I0821 08:27:51.724771 32360 net.cpp:434] L1_b9_cbr1_bn <- L1_b9_cbr1_conv_top
I0821 08:27:51.724779 32360 net.cpp:408] L1_b9_cbr1_bn -> L1_b9_cbr1_bn_top
I0821 08:27:51.725025 32360 net.cpp:150] Setting up L1_b9_cbr1_bn
I0821 08:27:51.725039 32360 net.cpp:157] Top shape: 125 16 32 32 (2048000)
I0821 08:27:51.725044 32360 net.cpp:165] Memory required for data: 787969500
I0821 08:27:51.725054 32360 layer_factory.hpp:77] Creating layer L1_b9_cbr1_scale
I0821 08:27:51.725064 32360 net.cpp:100] Creating Layer L1_b9_cbr1_scale
I0821 08:27:51.725069 32360 net.cpp:434] L1_b9_cbr1_scale <- L1_b9_cbr1_bn_top
I0821 08:27:51.725077 32360 net.cpp:395] L1_b9_cbr1_scale -> L1_b9_cbr1_bn_top (in-place)
I0821 08:27:51.725132 32360 layer_factory.hpp:77] Creating layer L1_b9_cbr1_scale
I0821 08:27:51.725283 32360 net.cpp:150] Setting up L1_b9_cbr1_scale
I0821 08:27:51.725297 32360 net.cpp:157] Top shape: 125 16 32 32 (2048000)
I0821 08:27:51.725302 32360 net.cpp:165] Memory required for data: 796161500
I0821 08:27:51.725311 32360 layer_factory.hpp:77] Creating layer L1_b9_cbr1_relu
I0821 08:27:51.725320 32360 net.cpp:100] Creating Layer L1_b9_cbr1_relu
I0821 08:27:51.725327 32360 net.cpp:434] L1_b9_cbr1_relu <- L1_b9_cbr1_bn_top
I0821 08:27:51.725337 32360 net.cpp:395] L1_b9_cbr1_relu -> L1_b9_cbr1_bn_top (in-place)
I0821 08:27:51.725347 32360 net.cpp:150] Setting up L1_b9_cbr1_relu
I0821 08:27:51.725353 32360 net.cpp:157] Top shape: 125 16 32 32 (2048000)
I0821 08:27:51.725358 32360 net.cpp:165] Memory required for data: 804353500
I0821 08:27:51.725363 32360 layer_factory.hpp:77] Creating layer L1_b9_cbr2_conv
I0821 08:27:51.725376 32360 net.cpp:100] Creating Layer L1_b9_cbr2_conv
I0821 08:27:51.725383 32360 net.cpp:434] L1_b9_cbr2_conv <- L1_b9_cbr1_bn_top
I0821 08:27:51.725390 32360 net.cpp:408] L1_b9_cbr2_conv -> L1_b9_cbr2_conv_top
I0821 08:27:51.725711 32360 net.cpp:150] Setting up L1_b9_cbr2_conv
I0821 08:27:51.725724 32360 net.cpp:157] Top shape: 125 16 32 32 (2048000)
I0821 08:27:51.725729 32360 net.cpp:165] Memory required for data: 812545500
I0821 08:27:51.725739 32360 layer_factory.hpp:77] Creating layer L1_b9_cbr2_bn
I0821 08:27:51.725751 32360 net.cpp:100] Creating Layer L1_b9_cbr2_bn
I0821 08:27:51.725757 32360 net.cpp:434] L1_b9_cbr2_bn <- L1_b9_cbr2_conv_top
I0821 08:27:51.725766 32360 net.cpp:408] L1_b9_cbr2_bn -> L1_b9_cbr2_bn_top
I0821 08:27:51.726037 32360 net.cpp:150] Setting up L1_b9_cbr2_bn
I0821 08:27:51.726058 32360 net.cpp:157] Top shape: 125 16 32 32 (2048000)
I0821 08:27:51.726063 32360 net.cpp:165] Memory required for data: 820737500
I0821 08:27:51.726094 32360 layer_factory.hpp:77] Creating layer L1_b9_cbr2_scale
I0821 08:27:51.726106 32360 net.cpp:100] Creating Layer L1_b9_cbr2_scale
I0821 08:27:51.726114 32360 net.cpp:434] L1_b9_cbr2_scale <- L1_b9_cbr2_bn_top
I0821 08:27:51.726120 32360 net.cpp:395] L1_b9_cbr2_scale -> L1_b9_cbr2_bn_top (in-place)
I0821 08:27:51.726176 32360 layer_factory.hpp:77] Creating layer L1_b9_cbr2_scale
I0821 08:27:51.726322 32360 net.cpp:150] Setting up L1_b9_cbr2_scale
I0821 08:27:51.726336 32360 net.cpp:157] Top shape: 125 16 32 32 (2048000)
I0821 08:27:51.726341 32360 net.cpp:165] Memory required for data: 828929500
I0821 08:27:51.726351 32360 layer_factory.hpp:77] Creating layer L1_b9_sum_eltwise
I0821 08:27:51.726362 32360 net.cpp:100] Creating Layer L1_b9_sum_eltwise
I0821 08:27:51.726369 32360 net.cpp:434] L1_b9_sum_eltwise <- L1_b9_cbr2_bn_top
I0821 08:27:51.726377 32360 net.cpp:434] L1_b9_sum_eltwise <- L1_b8_sum_eltwise_top_L1_b8_relu_0_split_1
I0821 08:27:51.726384 32360 net.cpp:408] L1_b9_sum_eltwise -> L1_b9_sum_eltwise_top
I0821 08:27:51.726415 32360 net.cpp:150] Setting up L1_b9_sum_eltwise
I0821 08:27:51.726424 32360 net.cpp:157] Top shape: 125 16 32 32 (2048000)
I0821 08:27:51.726429 32360 net.cpp:165] Memory required for data: 837121500
I0821 08:27:51.726434 32360 layer_factory.hpp:77] Creating layer L1_b9_relu
I0821 08:27:51.726442 32360 net.cpp:100] Creating Layer L1_b9_relu
I0821 08:27:51.726449 32360 net.cpp:434] L1_b9_relu <- L1_b9_sum_eltwise_top
I0821 08:27:51.726457 32360 net.cpp:395] L1_b9_relu -> L1_b9_sum_eltwise_top (in-place)
I0821 08:27:51.726467 32360 net.cpp:150] Setting up L1_b9_relu
I0821 08:27:51.726475 32360 net.cpp:157] Top shape: 125 16 32 32 (2048000)
I0821 08:27:51.726480 32360 net.cpp:165] Memory required for data: 845313500
I0821 08:27:51.726485 32360 layer_factory.hpp:77] Creating layer L1_b9_sum_eltwise_top_L1_b9_relu_0_split
I0821 08:27:51.726491 32360 net.cpp:100] Creating Layer L1_b9_sum_eltwise_top_L1_b9_relu_0_split
I0821 08:27:51.726496 32360 net.cpp:434] L1_b9_sum_eltwise_top_L1_b9_relu_0_split <- L1_b9_sum_eltwise_top
I0821 08:27:51.726507 32360 net.cpp:408] L1_b9_sum_eltwise_top_L1_b9_relu_0_split -> L1_b9_sum_eltwise_top_L1_b9_relu_0_split_0
I0821 08:27:51.726518 32360 net.cpp:408] L1_b9_sum_eltwise_top_L1_b9_relu_0_split -> L1_b9_sum_eltwise_top_L1_b9_relu_0_split_1
I0821 08:27:51.726563 32360 net.cpp:150] Setting up L1_b9_sum_eltwise_top_L1_b9_relu_0_split
I0821 08:27:51.726575 32360 net.cpp:157] Top shape: 125 16 32 32 (2048000)
I0821 08:27:51.726582 32360 net.cpp:157] Top shape: 125 16 32 32 (2048000)
I0821 08:27:51.726586 32360 net.cpp:165] Memory required for data: 861697500
I0821 08:27:51.726591 32360 layer_factory.hpp:77] Creating layer L2_b1_cbr1_conv
I0821 08:27:51.726603 32360 net.cpp:100] Creating Layer L2_b1_cbr1_conv
I0821 08:27:51.726609 32360 net.cpp:434] L2_b1_cbr1_conv <- L1_b9_sum_eltwise_top_L1_b9_relu_0_split_0
I0821 08:27:51.726620 32360 net.cpp:408] L2_b1_cbr1_conv -> L2_b1_cbr1_conv_top
I0821 08:27:51.726945 32360 net.cpp:150] Setting up L2_b1_cbr1_conv
I0821 08:27:51.726959 32360 net.cpp:157] Top shape: 125 16 16 16 (512000)
I0821 08:27:51.726964 32360 net.cpp:165] Memory required for data: 863745500
I0821 08:27:51.726974 32360 layer_factory.hpp:77] Creating layer L2_b1_cbr1_bn
I0821 08:27:51.726985 32360 net.cpp:100] Creating Layer L2_b1_cbr1_bn
I0821 08:27:51.726991 32360 net.cpp:434] L2_b1_cbr1_bn <- L2_b1_cbr1_conv_top
I0821 08:27:51.727000 32360 net.cpp:408] L2_b1_cbr1_bn -> L2_b1_cbr1_bn_top
I0821 08:27:51.727237 32360 net.cpp:150] Setting up L2_b1_cbr1_bn
I0821 08:27:51.727249 32360 net.cpp:157] Top shape: 125 16 16 16 (512000)
I0821 08:27:51.727254 32360 net.cpp:165] Memory required for data: 865793500
I0821 08:27:51.727272 32360 layer_factory.hpp:77] Creating layer L2_b1_cbr1_scale
I0821 08:27:51.727285 32360 net.cpp:100] Creating Layer L2_b1_cbr1_scale
I0821 08:27:51.727298 32360 net.cpp:434] L2_b1_cbr1_scale <- L2_b1_cbr1_bn_top
I0821 08:27:51.727308 32360 net.cpp:395] L2_b1_cbr1_scale -> L2_b1_cbr1_bn_top (in-place)
I0821 08:27:51.727361 32360 layer_factory.hpp:77] Creating layer L2_b1_cbr1_scale
I0821 08:27:51.727505 32360 net.cpp:150] Setting up L2_b1_cbr1_scale
I0821 08:27:51.727519 32360 net.cpp:157] Top shape: 125 16 16 16 (512000)
I0821 08:27:51.727524 32360 net.cpp:165] Memory required for data: 867841500
I0821 08:27:51.727532 32360 layer_factory.hpp:77] Creating layer L2_b1_cbr1_relu
I0821 08:27:51.727543 32360 net.cpp:100] Creating Layer L2_b1_cbr1_relu
I0821 08:27:51.727550 32360 net.cpp:434] L2_b1_cbr1_relu <- L2_b1_cbr1_bn_top
I0821 08:27:51.727560 32360 net.cpp:395] L2_b1_cbr1_relu -> L2_b1_cbr1_bn_top (in-place)
I0821 08:27:51.727569 32360 net.cpp:150] Setting up L2_b1_cbr1_relu
I0821 08:27:51.727576 32360 net.cpp:157] Top shape: 125 16 16 16 (512000)
I0821 08:27:51.727581 32360 net.cpp:165] Memory required for data: 869889500
I0821 08:27:51.727586 32360 layer_factory.hpp:77] Creating layer L2_b1_cbr2_conv
I0821 08:27:51.727597 32360 net.cpp:100] Creating Layer L2_b1_cbr2_conv
I0821 08:27:51.727602 32360 net.cpp:434] L2_b1_cbr2_conv <- L2_b1_cbr1_bn_top
I0821 08:27:51.727613 32360 net.cpp:408] L2_b1_cbr2_conv -> L2_b1_cbr2_conv_top
I0821 08:27:51.727931 32360 net.cpp:150] Setting up L2_b1_cbr2_conv
I0821 08:27:51.727944 32360 net.cpp:157] Top shape: 125 16 16 16 (512000)
I0821 08:27:51.727949 32360 net.cpp:165] Memory required for data: 871937500
I0821 08:27:51.727958 32360 layer_factory.hpp:77] Creating layer L2_b1_cbr2_bn
I0821 08:27:51.727967 32360 net.cpp:100] Creating Layer L2_b1_cbr2_bn
I0821 08:27:51.727973 32360 net.cpp:434] L2_b1_cbr2_bn <- L2_b1_cbr2_conv_top
I0821 08:27:51.727984 32360 net.cpp:408] L2_b1_cbr2_bn -> L2_b1_cbr2_bn_top
I0821 08:27:51.728231 32360 net.cpp:150] Setting up L2_b1_cbr2_bn
I0821 08:27:51.728243 32360 net.cpp:157] Top shape: 125 16 16 16 (512000)
I0821 08:27:51.728250 32360 net.cpp:165] Memory required for data: 873985500
I0821 08:27:51.728266 32360 layer_factory.hpp:77] Creating layer L2_b1_cbr2_scale
I0821 08:27:51.728278 32360 net.cpp:100] Creating Layer L2_b1_cbr2_scale
I0821 08:27:51.728284 32360 net.cpp:434] L2_b1_cbr2_scale <- L2_b1_cbr2_bn_top
I0821 08:27:51.728292 32360 net.cpp:395] L2_b1_cbr2_scale -> L2_b1_cbr2_bn_top (in-place)
I0821 08:27:51.728348 32360 layer_factory.hpp:77] Creating layer L2_b1_cbr2_scale
I0821 08:27:51.728493 32360 net.cpp:150] Setting up L2_b1_cbr2_scale
I0821 08:27:51.728507 32360 net.cpp:157] Top shape: 125 16 16 16 (512000)
I0821 08:27:51.728513 32360 net.cpp:165] Memory required for data: 876033500
I0821 08:27:51.728521 32360 layer_factory.hpp:77] Creating layer L2_b1_pool
I0821 08:27:51.728535 32360 net.cpp:100] Creating Layer L2_b1_pool
I0821 08:27:51.728543 32360 net.cpp:434] L2_b1_pool <- L1_b9_sum_eltwise_top_L1_b9_relu_0_split_1
I0821 08:27:51.728550 32360 net.cpp:408] L2_b1_pool -> L2_b1_pool
I0821 08:27:51.728643 32360 net.cpp:150] Setting up L2_b1_pool
I0821 08:27:51.728658 32360 net.cpp:157] Top shape: 125 16 16 16 (512000)
I0821 08:27:51.728663 32360 net.cpp:165] Memory required for data: 878081500
I0821 08:27:51.728669 32360 layer_factory.hpp:77] Creating layer L2_b1_sum_eltwise
I0821 08:27:51.728679 32360 net.cpp:100] Creating Layer L2_b1_sum_eltwise
I0821 08:27:51.728685 32360 net.cpp:434] L2_b1_sum_eltwise <- L2_b1_cbr2_bn_top
I0821 08:27:51.728693 32360 net.cpp:434] L2_b1_sum_eltwise <- L2_b1_pool
I0821 08:27:51.728703 32360 net.cpp:408] L2_b1_sum_eltwise -> L2_b1_sum_eltwise_top
I0821 08:27:51.728737 32360 net.cpp:150] Setting up L2_b1_sum_eltwise
I0821 08:27:51.728746 32360 net.cpp:157] Top shape: 125 16 16 16 (512000)
I0821 08:27:51.728751 32360 net.cpp:165] Memory required for data: 880129500
I0821 08:27:51.728756 32360 layer_factory.hpp:77] Creating layer L2_b1_relu
I0821 08:27:51.728765 32360 net.cpp:100] Creating Layer L2_b1_relu
I0821 08:27:51.728770 32360 net.cpp:434] L2_b1_relu <- L2_b1_sum_eltwise_top
I0821 08:27:51.728785 32360 net.cpp:395] L2_b1_relu -> L2_b1_sum_eltwise_top (in-place)
I0821 08:27:51.728794 32360 net.cpp:150] Setting up L2_b1_relu
I0821 08:27:51.728802 32360 net.cpp:157] Top shape: 125 16 16 16 (512000)
I0821 08:27:51.728806 32360 net.cpp:165] Memory required for data: 882177500
I0821 08:27:51.728812 32360 layer_factory.hpp:77] Creating layer L2_b1_zeros
I0821 08:27:51.728868 32360 net.cpp:100] Creating Layer L2_b1_zeros
I0821 08:27:51.728881 32360 net.cpp:408] L2_b1_zeros -> L2_b1_zeros
I0821 08:27:51.731179 32360 net.cpp:150] Setting up L2_b1_zeros
I0821 08:27:51.731197 32360 net.cpp:157] Top shape: 125 16 16 16 (512000)
I0821 08:27:51.731204 32360 net.cpp:165] Memory required for data: 884225500
I0821 08:27:51.731209 32360 layer_factory.hpp:77] Creating layer L2_b1_concat0
I0821 08:27:51.731220 32360 net.cpp:100] Creating Layer L2_b1_concat0
I0821 08:27:51.731225 32360 net.cpp:434] L2_b1_concat0 <- L2_b1_sum_eltwise_top
I0821 08:27:51.731233 32360 net.cpp:434] L2_b1_concat0 <- L2_b1_zeros
I0821 08:27:51.731243 32360 net.cpp:408] L2_b1_concat0 -> L2_b1_concat0
I0821 08:27:51.731333 32360 net.cpp:150] Setting up L2_b1_concat0
I0821 08:27:51.731353 32360 net.cpp:157] Top shape: 125 32 16 16 (1024000)
I0821 08:27:51.731359 32360 net.cpp:165] Memory required for data: 888321500
I0821 08:27:51.731364 32360 layer_factory.hpp:77] Creating layer L2_b1_concat0_L2_b1_concat0_0_split
I0821 08:27:51.731372 32360 net.cpp:100] Creating Layer L2_b1_concat0_L2_b1_concat0_0_split
I0821 08:27:51.731379 32360 net.cpp:434] L2_b1_concat0_L2_b1_concat0_0_split <- L2_b1_concat0
I0821 08:27:51.731386 32360 net.cpp:408] L2_b1_concat0_L2_b1_concat0_0_split -> L2_b1_concat0_L2_b1_concat0_0_split_0
I0821 08:27:51.731396 32360 net.cpp:408] L2_b1_concat0_L2_b1_concat0_0_split -> L2_b1_concat0_L2_b1_concat0_0_split_1
I0821 08:27:51.731448 32360 net.cpp:150] Setting up L2_b1_concat0_L2_b1_concat0_0_split
I0821 08:27:51.731461 32360 net.cpp:157] Top shape: 125 32 16 16 (1024000)
I0821 08:27:51.731467 32360 net.cpp:157] Top shape: 125 32 16 16 (1024000)
I0821 08:27:51.731472 32360 net.cpp:165] Memory required for data: 896513500
I0821 08:27:51.731477 32360 layer_factory.hpp:77] Creating layer L2_b2_cbr1_conv
I0821 08:27:51.731492 32360 net.cpp:100] Creating Layer L2_b2_cbr1_conv
I0821 08:27:51.731498 32360 net.cpp:434] L2_b2_cbr1_conv <- L2_b1_concat0_L2_b1_concat0_0_split_0
I0821 08:27:51.731508 32360 net.cpp:408] L2_b2_cbr1_conv -> L2_b2_cbr1_conv_top
I0821 08:27:51.732941 32360 net.cpp:150] Setting up L2_b2_cbr1_conv
I0821 08:27:51.732959 32360 net.cpp:157] Top shape: 125 32 16 16 (1024000)
I0821 08:27:51.732964 32360 net.cpp:165] Memory required for data: 900609500
I0821 08:27:51.732975 32360 layer_factory.hpp:77] Creating layer L2_b2_cbr1_bn
I0821 08:27:51.732987 32360 net.cpp:100] Creating Layer L2_b2_cbr1_bn
I0821 08:27:51.732995 32360 net.cpp:434] L2_b2_cbr1_bn <- L2_b2_cbr1_conv_top
I0821 08:27:51.733002 32360 net.cpp:408] L2_b2_cbr1_bn -> L2_b2_cbr1_bn_top
I0821 08:27:51.733252 32360 net.cpp:150] Setting up L2_b2_cbr1_bn
I0821 08:27:51.733273 32360 net.cpp:157] Top shape: 125 32 16 16 (1024000)
I0821 08:27:51.733279 32360 net.cpp:165] Memory required for data: 904705500
I0821 08:27:51.733290 32360 layer_factory.hpp:77] Creating layer L2_b2_cbr1_scale
I0821 08:27:51.733299 32360 net.cpp:100] Creating Layer L2_b2_cbr1_scale
I0821 08:27:51.733306 32360 net.cpp:434] L2_b2_cbr1_scale <- L2_b2_cbr1_bn_top
I0821 08:27:51.733314 32360 net.cpp:395] L2_b2_cbr1_scale -> L2_b2_cbr1_bn_top (in-place)
I0821 08:27:51.733371 32360 layer_factory.hpp:77] Creating layer L2_b2_cbr1_scale
I0821 08:27:51.733525 32360 net.cpp:150] Setting up L2_b2_cbr1_scale
I0821 08:27:51.733538 32360 net.cpp:157] Top shape: 125 32 16 16 (1024000)
I0821 08:27:51.733543 32360 net.cpp:165] Memory required for data: 908801500
I0821 08:27:51.733552 32360 layer_factory.hpp:77] Creating layer L2_b2_cbr1_relu
I0821 08:27:51.733561 32360 net.cpp:100] Creating Layer L2_b2_cbr1_relu
I0821 08:27:51.733567 32360 net.cpp:434] L2_b2_cbr1_relu <- L2_b2_cbr1_bn_top
I0821 08:27:51.733585 32360 net.cpp:395] L2_b2_cbr1_relu -> L2_b2_cbr1_bn_top (in-place)
I0821 08:27:51.733597 32360 net.cpp:150] Setting up L2_b2_cbr1_relu
I0821 08:27:51.733604 32360 net.cpp:157] Top shape: 125 32 16 16 (1024000)
I0821 08:27:51.733609 32360 net.cpp:165] Memory required for data: 912897500
I0821 08:27:51.733613 32360 layer_factory.hpp:77] Creating layer L2_b2_cbr2_conv
I0821 08:27:51.733625 32360 net.cpp:100] Creating Layer L2_b2_cbr2_conv
I0821 08:27:51.733631 32360 net.cpp:434] L2_b2_cbr2_conv <- L2_b2_cbr1_bn_top
I0821 08:27:51.733642 32360 net.cpp:408] L2_b2_cbr2_conv -> L2_b2_cbr2_conv_top
I0821 08:27:51.734104 32360 net.cpp:150] Setting up L2_b2_cbr2_conv
I0821 08:27:51.734118 32360 net.cpp:157] Top shape: 125 32 16 16 (1024000)
I0821 08:27:51.734123 32360 net.cpp:165] Memory required for data: 916993500
I0821 08:27:51.734133 32360 layer_factory.hpp:77] Creating layer L2_b2_cbr2_bn
I0821 08:27:51.734143 32360 net.cpp:100] Creating Layer L2_b2_cbr2_bn
I0821 08:27:51.734148 32360 net.cpp:434] L2_b2_cbr2_bn <- L2_b2_cbr2_conv_top
I0821 08:27:51.734159 32360 net.cpp:408] L2_b2_cbr2_bn -> L2_b2_cbr2_bn_top
I0821 08:27:51.734416 32360 net.cpp:150] Setting up L2_b2_cbr2_bn
I0821 08:27:51.734429 32360 net.cpp:157] Top shape: 125 32 16 16 (1024000)
I0821 08:27:51.734434 32360 net.cpp:165] Memory required for data: 921089500
I0821 08:27:51.734446 32360 layer_factory.hpp:77] Creating layer L2_b2_cbr2_scale
I0821 08:27:51.734457 32360 net.cpp:100] Creating Layer L2_b2_cbr2_scale
I0821 08:27:51.734463 32360 net.cpp:434] L2_b2_cbr2_scale <- L2_b2_cbr2_bn_top
I0821 08:27:51.734472 32360 net.cpp:395] L2_b2_cbr2_scale -> L2_b2_cbr2_bn_top (in-place)
I0821 08:27:51.734526 32360 layer_factory.hpp:77] Creating layer L2_b2_cbr2_scale
I0821 08:27:51.734671 32360 net.cpp:150] Setting up L2_b2_cbr2_scale
I0821 08:27:51.734683 32360 net.cpp:157] Top shape: 125 32 16 16 (1024000)
I0821 08:27:51.734688 32360 net.cpp:165] Memory required for data: 925185500
I0821 08:27:51.734699 32360 layer_factory.hpp:77] Creating layer L2_b2_sum_eltwise
I0821 08:27:51.734710 32360 net.cpp:100] Creating Layer L2_b2_sum_eltwise
I0821 08:27:51.734717 32360 net.cpp:434] L2_b2_sum_eltwise <- L2_b2_cbr2_bn_top
I0821 08:27:51.734724 32360 net.cpp:434] L2_b2_sum_eltwise <- L2_b1_concat0_L2_b1_concat0_0_split_1
I0821 08:27:51.734732 32360 net.cpp:408] L2_b2_sum_eltwise -> L2_b2_sum_eltwise_top
I0821 08:27:51.734761 32360 net.cpp:150] Setting up L2_b2_sum_eltwise
I0821 08:27:51.734771 32360 net.cpp:157] Top shape: 125 32 16 16 (1024000)
I0821 08:27:51.734776 32360 net.cpp:165] Memory required for data: 929281500
I0821 08:27:51.734781 32360 layer_factory.hpp:77] Creating layer L2_b2_relu
I0821 08:27:51.734788 32360 net.cpp:100] Creating Layer L2_b2_relu
I0821 08:27:51.734794 32360 net.cpp:434] L2_b2_relu <- L2_b2_sum_eltwise_top
I0821 08:27:51.734804 32360 net.cpp:395] L2_b2_relu -> L2_b2_sum_eltwise_top (in-place)
I0821 08:27:51.734814 32360 net.cpp:150] Setting up L2_b2_relu
I0821 08:27:51.734822 32360 net.cpp:157] Top shape: 125 32 16 16 (1024000)
I0821 08:27:51.734827 32360 net.cpp:165] Memory required for data: 933377500
I0821 08:27:51.734832 32360 layer_factory.hpp:77] Creating layer L2_b2_sum_eltwise_top_L2_b2_relu_0_split
I0821 08:27:51.734838 32360 net.cpp:100] Creating Layer L2_b2_sum_eltwise_top_L2_b2_relu_0_split
I0821 08:27:51.734843 32360 net.cpp:434] L2_b2_sum_eltwise_top_L2_b2_relu_0_split <- L2_b2_sum_eltwise_top
I0821 08:27:51.734851 32360 net.cpp:408] L2_b2_sum_eltwise_top_L2_b2_relu_0_split -> L2_b2_sum_eltwise_top_L2_b2_relu_0_split_0
I0821 08:27:51.734860 32360 net.cpp:408] L2_b2_sum_eltwise_top_L2_b2_relu_0_split -> L2_b2_sum_eltwise_top_L2_b2_relu_0_split_1
I0821 08:27:51.734908 32360 net.cpp:150] Setting up L2_b2_sum_eltwise_top_L2_b2_relu_0_split
I0821 08:27:51.734920 32360 net.cpp:157] Top shape: 125 32 16 16 (1024000)
I0821 08:27:51.734926 32360 net.cpp:157] Top shape: 125 32 16 16 (1024000)
I0821 08:27:51.734931 32360 net.cpp:165] Memory required for data: 941569500
I0821 08:27:51.734936 32360 layer_factory.hpp:77] Creating layer L2_b3_cbr1_conv
I0821 08:27:51.734954 32360 net.cpp:100] Creating Layer L2_b3_cbr1_conv
I0821 08:27:51.734961 32360 net.cpp:434] L2_b3_cbr1_conv <- L2_b2_sum_eltwise_top_L2_b2_relu_0_split_0
I0821 08:27:51.734973 32360 net.cpp:408] L2_b3_cbr1_conv -> L2_b3_cbr1_conv_top
I0821 08:27:51.735445 32360 net.cpp:150] Setting up L2_b3_cbr1_conv
I0821 08:27:51.735460 32360 net.cpp:157] Top shape: 125 32 16 16 (1024000)
I0821 08:27:51.735466 32360 net.cpp:165] Memory required for data: 945665500
I0821 08:27:51.735474 32360 layer_factory.hpp:77] Creating layer L2_b3_cbr1_bn
I0821 08:27:51.735484 32360 net.cpp:100] Creating Layer L2_b3_cbr1_bn
I0821 08:27:51.735491 32360 net.cpp:434] L2_b3_cbr1_bn <- L2_b3_cbr1_conv_top
I0821 08:27:51.735502 32360 net.cpp:408] L2_b3_cbr1_bn -> L2_b3_cbr1_bn_top
I0821 08:27:51.735745 32360 net.cpp:150] Setting up L2_b3_cbr1_bn
I0821 08:27:51.735759 32360 net.cpp:157] Top shape: 125 32 16 16 (1024000)
I0821 08:27:51.735764 32360 net.cpp:165] Memory required for data: 949761500
I0821 08:27:51.735774 32360 layer_factory.hpp:77] Creating layer L2_b3_cbr1_scale
I0821 08:27:51.735785 32360 net.cpp:100] Creating Layer L2_b3_cbr1_scale
I0821 08:27:51.735792 32360 net.cpp:434] L2_b3_cbr1_scale <- L2_b3_cbr1_bn_top
I0821 08:27:51.735800 32360 net.cpp:395] L2_b3_cbr1_scale -> L2_b3_cbr1_bn_top (in-place)
I0821 08:27:51.735855 32360 layer_factory.hpp:77] Creating layer L2_b3_cbr1_scale
I0821 08:27:51.736003 32360 net.cpp:150] Setting up L2_b3_cbr1_scale
I0821 08:27:51.736016 32360 net.cpp:157] Top shape: 125 32 16 16 (1024000)
I0821 08:27:51.736021 32360 net.cpp:165] Memory required for data: 953857500
I0821 08:27:51.736030 32360 layer_factory.hpp:77] Creating layer L2_b3_cbr1_relu
I0821 08:27:51.736042 32360 net.cpp:100] Creating Layer L2_b3_cbr1_relu
I0821 08:27:51.736048 32360 net.cpp:434] L2_b3_cbr1_relu <- L2_b3_cbr1_bn_top
I0821 08:27:51.736055 32360 net.cpp:395] L2_b3_cbr1_relu -> L2_b3_cbr1_bn_top (in-place)
I0821 08:27:51.736065 32360 net.cpp:150] Setting up L2_b3_cbr1_relu
I0821 08:27:51.736074 32360 net.cpp:157] Top shape: 125 32 16 16 (1024000)
I0821 08:27:51.736079 32360 net.cpp:165] Memory required for data: 957953500
I0821 08:27:51.736084 32360 layer_factory.hpp:77] Creating layer L2_b3_cbr2_conv
I0821 08:27:51.736095 32360 net.cpp:100] Creating Layer L2_b3_cbr2_conv
I0821 08:27:51.736101 32360 net.cpp:434] L2_b3_cbr2_conv <- L2_b3_cbr1_bn_top
I0821 08:27:51.736112 32360 net.cpp:408] L2_b3_cbr2_conv -> L2_b3_cbr2_conv_top
I0821 08:27:51.736578 32360 net.cpp:150] Setting up L2_b3_cbr2_conv
I0821 08:27:51.736593 32360 net.cpp:157] Top shape: 125 32 16 16 (1024000)
I0821 08:27:51.736598 32360 net.cpp:165] Memory required for data: 962049500
I0821 08:27:51.736608 32360 layer_factory.hpp:77] Creating layer L2_b3_cbr2_bn
I0821 08:27:51.736616 32360 net.cpp:100] Creating Layer L2_b3_cbr2_bn
I0821 08:27:51.736623 32360 net.cpp:434] L2_b3_cbr2_bn <- L2_b3_cbr2_conv_top
I0821 08:27:51.736634 32360 net.cpp:408] L2_b3_cbr2_bn -> L2_b3_cbr2_bn_top
I0821 08:27:51.736883 32360 net.cpp:150] Setting up L2_b3_cbr2_bn
I0821 08:27:51.736896 32360 net.cpp:157] Top shape: 125 32 16 16 (1024000)
I0821 08:27:51.736901 32360 net.cpp:165] Memory required for data: 966145500
I0821 08:27:51.736912 32360 layer_factory.hpp:77] Creating layer L2_b3_cbr2_scale
I0821 08:27:51.736923 32360 net.cpp:100] Creating Layer L2_b3_cbr2_scale
I0821 08:27:51.736930 32360 net.cpp:434] L2_b3_cbr2_scale <- L2_b3_cbr2_bn_top
I0821 08:27:51.736937 32360 net.cpp:395] L2_b3_cbr2_scale -> L2_b3_cbr2_bn_top (in-place)
I0821 08:27:51.736994 32360 layer_factory.hpp:77] Creating layer L2_b3_cbr2_scale
I0821 08:27:51.737140 32360 net.cpp:150] Setting up L2_b3_cbr2_scale
I0821 08:27:51.737152 32360 net.cpp:157] Top shape: 125 32 16 16 (1024000)
I0821 08:27:51.737157 32360 net.cpp:165] Memory required for data: 970241500
I0821 08:27:51.737167 32360 layer_factory.hpp:77] Creating layer L2_b3_sum_eltwise
I0821 08:27:51.737179 32360 net.cpp:100] Creating Layer L2_b3_sum_eltwise
I0821 08:27:51.737185 32360 net.cpp:434] L2_b3_sum_eltwise <- L2_b3_cbr2_bn_top
I0821 08:27:51.737200 32360 net.cpp:434] L2_b3_sum_eltwise <- L2_b2_sum_eltwise_top_L2_b2_relu_0_split_1
I0821 08:27:51.737207 32360 net.cpp:408] L2_b3_sum_eltwise -> L2_b3_sum_eltwise_top
I0821 08:27:51.737239 32360 net.cpp:150] Setting up L2_b3_sum_eltwise
I0821 08:27:51.737248 32360 net.cpp:157] Top shape: 125 32 16 16 (1024000)
I0821 08:27:51.737253 32360 net.cpp:165] Memory required for data: 974337500
I0821 08:27:51.737264 32360 layer_factory.hpp:77] Creating layer L2_b3_relu
I0821 08:27:51.737287 32360 net.cpp:100] Creating Layer L2_b3_relu
I0821 08:27:51.737293 32360 net.cpp:434] L2_b3_relu <- L2_b3_sum_eltwise_top
I0821 08:27:51.737301 32360 net.cpp:395] L2_b3_relu -> L2_b3_sum_eltwise_top (in-place)
I0821 08:27:51.737311 32360 net.cpp:150] Setting up L2_b3_relu
I0821 08:27:51.737318 32360 net.cpp:157] Top shape: 125 32 16 16 (1024000)
I0821 08:27:51.737323 32360 net.cpp:165] Memory required for data: 978433500
I0821 08:27:51.737329 32360 layer_factory.hpp:77] Creating layer L2_b3_sum_eltwise_top_L2_b3_relu_0_split
I0821 08:27:51.737339 32360 net.cpp:100] Creating Layer L2_b3_sum_eltwise_top_L2_b3_relu_0_split
I0821 08:27:51.737344 32360 net.cpp:434] L2_b3_sum_eltwise_top_L2_b3_relu_0_split <- L2_b3_sum_eltwise_top
I0821 08:27:51.737352 32360 net.cpp:408] L2_b3_sum_eltwise_top_L2_b3_relu_0_split -> L2_b3_sum_eltwise_top_L2_b3_relu_0_split_0
I0821 08:27:51.737361 32360 net.cpp:408] L2_b3_sum_eltwise_top_L2_b3_relu_0_split -> L2_b3_sum_eltwise_top_L2_b3_relu_0_split_1
I0821 08:27:51.737407 32360 net.cpp:150] Setting up L2_b3_sum_eltwise_top_L2_b3_relu_0_split
I0821 08:27:51.737422 32360 net.cpp:157] Top shape: 125 32 16 16 (1024000)
I0821 08:27:51.737429 32360 net.cpp:157] Top shape: 125 32 16 16 (1024000)
I0821 08:27:51.737434 32360 net.cpp:165] Memory required for data: 986625500
I0821 08:27:51.737439 32360 layer_factory.hpp:77] Creating layer L2_b4_cbr1_conv
I0821 08:27:51.737450 32360 net.cpp:100] Creating Layer L2_b4_cbr1_conv
I0821 08:27:51.737457 32360 net.cpp:434] L2_b4_cbr1_conv <- L2_b3_sum_eltwise_top_L2_b3_relu_0_split_0
I0821 08:27:51.737465 32360 net.cpp:408] L2_b4_cbr1_conv -> L2_b4_cbr1_conv_top
I0821 08:27:51.737926 32360 net.cpp:150] Setting up L2_b4_cbr1_conv
I0821 08:27:51.737939 32360 net.cpp:157] Top shape: 125 32 16 16 (1024000)
I0821 08:27:51.737944 32360 net.cpp:165] Memory required for data: 990721500
I0821 08:27:51.737953 32360 layer_factory.hpp:77] Creating layer L2_b4_cbr1_bn
I0821 08:27:51.737965 32360 net.cpp:100] Creating Layer L2_b4_cbr1_bn
I0821 08:27:51.737972 32360 net.cpp:434] L2_b4_cbr1_bn <- L2_b4_cbr1_conv_top
I0821 08:27:51.737979 32360 net.cpp:408] L2_b4_cbr1_bn -> L2_b4_cbr1_bn_top
I0821 08:27:51.738227 32360 net.cpp:150] Setting up L2_b4_cbr1_bn
I0821 08:27:51.738240 32360 net.cpp:157] Top shape: 125 32 16 16 (1024000)
I0821 08:27:51.738245 32360 net.cpp:165] Memory required for data: 994817500
I0821 08:27:51.738255 32360 layer_factory.hpp:77] Creating layer L2_b4_cbr1_scale
I0821 08:27:51.738271 32360 net.cpp:100] Creating Layer L2_b4_cbr1_scale
I0821 08:27:51.738277 32360 net.cpp:434] L2_b4_cbr1_scale <- L2_b4_cbr1_bn_top
I0821 08:27:51.738288 32360 net.cpp:395] L2_b4_cbr1_scale -> L2_b4_cbr1_bn_top (in-place)
I0821 08:27:51.738344 32360 layer_factory.hpp:77] Creating layer L2_b4_cbr1_scale
I0821 08:27:51.738488 32360 net.cpp:150] Setting up L2_b4_cbr1_scale
I0821 08:27:51.738502 32360 net.cpp:157] Top shape: 125 32 16 16 (1024000)
I0821 08:27:51.738507 32360 net.cpp:165] Memory required for data: 998913500
I0821 08:27:51.738515 32360 layer_factory.hpp:77] Creating layer L2_b4_cbr1_relu
I0821 08:27:51.738523 32360 net.cpp:100] Creating Layer L2_b4_cbr1_relu
I0821 08:27:51.738529 32360 net.cpp:434] L2_b4_cbr1_relu <- L2_b4_cbr1_bn_top
I0821 08:27:51.738539 32360 net.cpp:395] L2_b4_cbr1_relu -> L2_b4_cbr1_bn_top (in-place)
I0821 08:27:51.738549 32360 net.cpp:150] Setting up L2_b4_cbr1_relu
I0821 08:27:51.738556 32360 net.cpp:157] Top shape: 125 32 16 16 (1024000)
I0821 08:27:51.738561 32360 net.cpp:165] Memory required for data: 1003009500
I0821 08:27:51.738566 32360 layer_factory.hpp:77] Creating layer L2_b4_cbr2_conv
I0821 08:27:51.738590 32360 net.cpp:100] Creating Layer L2_b4_cbr2_conv
I0821 08:27:51.738595 32360 net.cpp:434] L2_b4_cbr2_conv <- L2_b4_cbr1_bn_top
I0821 08:27:51.738605 32360 net.cpp:408] L2_b4_cbr2_conv -> L2_b4_cbr2_conv_top
I0821 08:27:51.739064 32360 net.cpp:150] Setting up L2_b4_cbr2_conv
I0821 08:27:51.739078 32360 net.cpp:157] Top shape: 125 32 16 16 (1024000)
I0821 08:27:51.739084 32360 net.cpp:165] Memory required for data: 1007105500
I0821 08:27:51.739092 32360 layer_factory.hpp:77] Creating layer L2_b4_cbr2_bn
I0821 08:27:51.739104 32360 net.cpp:100] Creating Layer L2_b4_cbr2_bn
I0821 08:27:51.739110 32360 net.cpp:434] L2_b4_cbr2_bn <- L2_b4_cbr2_conv_top
I0821 08:27:51.739120 32360 net.cpp:408] L2_b4_cbr2_bn -> L2_b4_cbr2_bn_top
I0821 08:27:51.739369 32360 net.cpp:150] Setting up L2_b4_cbr2_bn
I0821 08:27:51.739382 32360 net.cpp:157] Top shape: 125 32 16 16 (1024000)
I0821 08:27:51.739387 32360 net.cpp:165] Memory required for data: 1011201500
I0821 08:27:51.739398 32360 layer_factory.hpp:77] Creating layer L2_b4_cbr2_scale
I0821 08:27:51.739408 32360 net.cpp:100] Creating Layer L2_b4_cbr2_scale
I0821 08:27:51.739413 32360 net.cpp:434] L2_b4_cbr2_scale <- L2_b4_cbr2_bn_top
I0821 08:27:51.739423 32360 net.cpp:395] L2_b4_cbr2_scale -> L2_b4_cbr2_bn_top (in-place)
I0821 08:27:51.739478 32360 layer_factory.hpp:77] Creating layer L2_b4_cbr2_scale
I0821 08:27:51.739627 32360 net.cpp:150] Setting up L2_b4_cbr2_scale
I0821 08:27:51.739640 32360 net.cpp:157] Top shape: 125 32 16 16 (1024000)
I0821 08:27:51.739645 32360 net.cpp:165] Memory required for data: 1015297500
I0821 08:27:51.739655 32360 layer_factory.hpp:77] Creating layer L2_b4_sum_eltwise
I0821 08:27:51.739663 32360 net.cpp:100] Creating Layer L2_b4_sum_eltwise
I0821 08:27:51.739670 32360 net.cpp:434] L2_b4_sum_eltwise <- L2_b4_cbr2_bn_top
I0821 08:27:51.739676 32360 net.cpp:434] L2_b4_sum_eltwise <- L2_b3_sum_eltwise_top_L2_b3_relu_0_split_1
I0821 08:27:51.739686 32360 net.cpp:408] L2_b4_sum_eltwise -> L2_b4_sum_eltwise_top
I0821 08:27:51.739713 32360 net.cpp:150] Setting up L2_b4_sum_eltwise
I0821 08:27:51.739723 32360 net.cpp:157] Top shape: 125 32 16 16 (1024000)
I0821 08:27:51.739727 32360 net.cpp:165] Memory required for data: 1019393500
I0821 08:27:51.739733 32360 layer_factory.hpp:77] Creating layer L2_b4_relu
I0821 08:27:51.739743 32360 net.cpp:100] Creating Layer L2_b4_relu
I0821 08:27:51.739750 32360 net.cpp:434] L2_b4_relu <- L2_b4_sum_eltwise_top
I0821 08:27:51.739758 32360 net.cpp:395] L2_b4_relu -> L2_b4_sum_eltwise_top (in-place)
I0821 08:27:51.739766 32360 net.cpp:150] Setting up L2_b4_relu
I0821 08:27:51.739773 32360 net.cpp:157] Top shape: 125 32 16 16 (1024000)
I0821 08:27:51.739778 32360 net.cpp:165] Memory required for data: 1023489500
I0821 08:27:51.739783 32360 layer_factory.hpp:77] Creating layer L2_b4_sum_eltwise_top_L2_b4_relu_0_split
I0821 08:27:51.739790 32360 net.cpp:100] Creating Layer L2_b4_sum_eltwise_top_L2_b4_relu_0_split
I0821 08:27:51.739795 32360 net.cpp:434] L2_b4_sum_eltwise_top_L2_b4_relu_0_split <- L2_b4_sum_eltwise_top
I0821 08:27:51.739805 32360 net.cpp:408] L2_b4_sum_eltwise_top_L2_b4_relu_0_split -> L2_b4_sum_eltwise_top_L2_b4_relu_0_split_0
I0821 08:27:51.739814 32360 net.cpp:408] L2_b4_sum_eltwise_top_L2_b4_relu_0_split -> L2_b4_sum_eltwise_top_L2_b4_relu_0_split_1
I0821 08:27:51.739859 32360 net.cpp:150] Setting up L2_b4_sum_eltwise_top_L2_b4_relu_0_split
I0821 08:27:51.739871 32360 net.cpp:157] Top shape: 125 32 16 16 (1024000)
I0821 08:27:51.739877 32360 net.cpp:157] Top shape: 125 32 16 16 (1024000)
I0821 08:27:51.739882 32360 net.cpp:165] Memory required for data: 1031681500
I0821 08:27:51.739887 32360 layer_factory.hpp:77] Creating layer L2_b5_cbr1_conv
I0821 08:27:51.739902 32360 net.cpp:100] Creating Layer L2_b5_cbr1_conv
I0821 08:27:51.739908 32360 net.cpp:434] L2_b5_cbr1_conv <- L2_b4_sum_eltwise_top_L2_b4_relu_0_split_0
I0821 08:27:51.739917 32360 net.cpp:408] L2_b5_cbr1_conv -> L2_b5_cbr1_conv_top
I0821 08:27:51.740402 32360 net.cpp:150] Setting up L2_b5_cbr1_conv
I0821 08:27:51.740424 32360 net.cpp:157] Top shape: 125 32 16 16 (1024000)
I0821 08:27:51.740429 32360 net.cpp:165] Memory required for data: 1035777500
I0821 08:27:51.740438 32360 layer_factory.hpp:77] Creating layer L2_b5_cbr1_bn
I0821 08:27:51.740452 32360 net.cpp:100] Creating Layer L2_b5_cbr1_bn
I0821 08:27:51.740458 32360 net.cpp:434] L2_b5_cbr1_bn <- L2_b5_cbr1_conv_top
I0821 08:27:51.740465 32360 net.cpp:408] L2_b5_cbr1_bn -> L2_b5_cbr1_bn_top
I0821 08:27:51.740720 32360 net.cpp:150] Setting up L2_b5_cbr1_bn
I0821 08:27:51.740732 32360 net.cpp:157] Top shape: 125 32 16 16 (1024000)
I0821 08:27:51.740737 32360 net.cpp:165] Memory required for data: 1039873500
I0821 08:27:51.740747 32360 layer_factory.hpp:77] Creating layer L2_b5_cbr1_scale
I0821 08:27:51.740757 32360 net.cpp:100] Creating Layer L2_b5_cbr1_scale
I0821 08:27:51.740763 32360 net.cpp:434] L2_b5_cbr1_scale <- L2_b5_cbr1_bn_top
I0821 08:27:51.740773 32360 net.cpp:395] L2_b5_cbr1_scale -> L2_b5_cbr1_bn_top (in-place)
I0821 08:27:51.740828 32360 layer_factory.hpp:77] Creating layer L2_b5_cbr1_scale
I0821 08:27:51.740977 32360 net.cpp:150] Setting up L2_b5_cbr1_scale
I0821 08:27:51.740988 32360 net.cpp:157] Top shape: 125 32 16 16 (1024000)
I0821 08:27:51.740993 32360 net.cpp:165] Memory required for data: 1043969500
I0821 08:27:51.741003 32360 layer_factory.hpp:77] Creating layer L2_b5_cbr1_relu
I0821 08:27:51.741011 32360 net.cpp:100] Creating Layer L2_b5_cbr1_relu
I0821 08:27:51.741017 32360 net.cpp:434] L2_b5_cbr1_relu <- L2_b5_cbr1_bn_top
I0821 08:27:51.741029 32360 net.cpp:395] L2_b5_cbr1_relu -> L2_b5_cbr1_bn_top (in-place)
I0821 08:27:51.741039 32360 net.cpp:150] Setting up L2_b5_cbr1_relu
I0821 08:27:51.741045 32360 net.cpp:157] Top shape: 125 32 16 16 (1024000)
I0821 08:27:51.741050 32360 net.cpp:165] Memory required for data: 1048065500
I0821 08:27:51.741055 32360 layer_factory.hpp:77] Creating layer L2_b5_cbr2_conv
I0821 08:27:51.741068 32360 net.cpp:100] Creating Layer L2_b5_cbr2_conv
I0821 08:27:51.741075 32360 net.cpp:434] L2_b5_cbr2_conv <- L2_b5_cbr1_bn_top
I0821 08:27:51.741083 32360 net.cpp:408] L2_b5_cbr2_conv -> L2_b5_cbr2_conv_top
I0821 08:27:51.741555 32360 net.cpp:150] Setting up L2_b5_cbr2_conv
I0821 08:27:51.741570 32360 net.cpp:157] Top shape: 125 32 16 16 (1024000)
I0821 08:27:51.741575 32360 net.cpp:165] Memory required for data: 1052161500
I0821 08:27:51.741585 32360 layer_factory.hpp:77] Creating layer L2_b5_cbr2_bn
I0821 08:27:51.741596 32360 net.cpp:100] Creating Layer L2_b5_cbr2_bn
I0821 08:27:51.741603 32360 net.cpp:434] L2_b5_cbr2_bn <- L2_b5_cbr2_conv_top
I0821 08:27:51.741611 32360 net.cpp:408] L2_b5_cbr2_bn -> L2_b5_cbr2_bn_top
I0821 08:27:51.741858 32360 net.cpp:150] Setting up L2_b5_cbr2_bn
I0821 08:27:51.741870 32360 net.cpp:157] Top shape: 125 32 16 16 (1024000)
I0821 08:27:51.741875 32360 net.cpp:165] Memory required for data: 1056257500
I0821 08:27:51.741886 32360 layer_factory.hpp:77] Creating layer L2_b5_cbr2_scale
I0821 08:27:51.741895 32360 net.cpp:100] Creating Layer L2_b5_cbr2_scale
I0821 08:27:51.741901 32360 net.cpp:434] L2_b5_cbr2_scale <- L2_b5_cbr2_bn_top
I0821 08:27:51.741909 32360 net.cpp:395] L2_b5_cbr2_scale -> L2_b5_cbr2_bn_top (in-place)
I0821 08:27:51.741966 32360 layer_factory.hpp:77] Creating layer L2_b5_cbr2_scale
I0821 08:27:51.742115 32360 net.cpp:150] Setting up L2_b5_cbr2_scale
I0821 08:27:51.742130 32360 net.cpp:157] Top shape: 125 32 16 16 (1024000)
I0821 08:27:51.742136 32360 net.cpp:165] Memory required for data: 1060353500
I0821 08:27:51.742144 32360 layer_factory.hpp:77] Creating layer L2_b5_sum_eltwise
I0821 08:27:51.742153 32360 net.cpp:100] Creating Layer L2_b5_sum_eltwise
I0821 08:27:51.742159 32360 net.cpp:434] L2_b5_sum_eltwise <- L2_b5_cbr2_bn_top
I0821 08:27:51.742166 32360 net.cpp:434] L2_b5_sum_eltwise <- L2_b4_sum_eltwise_top_L2_b4_relu_0_split_1
I0821 08:27:51.742174 32360 net.cpp:408] L2_b5_sum_eltwise -> L2_b5_sum_eltwise_top
I0821 08:27:51.742203 32360 net.cpp:150] Setting up L2_b5_sum_eltwise
I0821 08:27:51.742213 32360 net.cpp:157] Top shape: 125 32 16 16 (1024000)
I0821 08:27:51.742224 32360 net.cpp:165] Memory required for data: 1064449500
I0821 08:27:51.742230 32360 layer_factory.hpp:77] Creating layer L2_b5_relu
I0821 08:27:51.742238 32360 net.cpp:100] Creating Layer L2_b5_relu
I0821 08:27:51.742244 32360 net.cpp:434] L2_b5_relu <- L2_b5_sum_eltwise_top
I0821 08:27:51.742254 32360 net.cpp:395] L2_b5_relu -> L2_b5_sum_eltwise_top (in-place)
I0821 08:27:51.742269 32360 net.cpp:150] Setting up L2_b5_relu
I0821 08:27:51.742277 32360 net.cpp:157] Top shape: 125 32 16 16 (1024000)
I0821 08:27:51.742281 32360 net.cpp:165] Memory required for data: 1068545500
I0821 08:27:51.742286 32360 layer_factory.hpp:77] Creating layer L2_b5_sum_eltwise_top_L2_b5_relu_0_split
I0821 08:27:51.742295 32360 net.cpp:100] Creating Layer L2_b5_sum_eltwise_top_L2_b5_relu_0_split
I0821 08:27:51.742300 32360 net.cpp:434] L2_b5_sum_eltwise_top_L2_b5_relu_0_split <- L2_b5_sum_eltwise_top
I0821 08:27:51.742310 32360 net.cpp:408] L2_b5_sum_eltwise_top_L2_b5_relu_0_split -> L2_b5_sum_eltwise_top_L2_b5_relu_0_split_0
I0821 08:27:51.742319 32360 net.cpp:408] L2_b5_sum_eltwise_top_L2_b5_relu_0_split -> L2_b5_sum_eltwise_top_L2_b5_relu_0_split_1
I0821 08:27:51.742364 32360 net.cpp:150] Setting up L2_b5_sum_eltwise_top_L2_b5_relu_0_split
I0821 08:27:51.742375 32360 net.cpp:157] Top shape: 125 32 16 16 (1024000)
I0821 08:27:51.742383 32360 net.cpp:157] Top shape: 125 32 16 16 (1024000)
I0821 08:27:51.742388 32360 net.cpp:165] Memory required for data: 1076737500
I0821 08:27:51.742393 32360 layer_factory.hpp:77] Creating layer L2_b6_cbr1_conv
I0821 08:27:51.742406 32360 net.cpp:100] Creating Layer L2_b6_cbr1_conv
I0821 08:27:51.742413 32360 net.cpp:434] L2_b6_cbr1_conv <- L2_b5_sum_eltwise_top_L2_b5_relu_0_split_0
I0821 08:27:51.742422 32360 net.cpp:408] L2_b6_cbr1_conv -> L2_b6_cbr1_conv_top
I0821 08:27:51.742895 32360 net.cpp:150] Setting up L2_b6_cbr1_conv
I0821 08:27:51.742909 32360 net.cpp:157] Top shape: 125 32 16 16 (1024000)
I0821 08:27:51.742914 32360 net.cpp:165] Memory required for data: 1080833500
I0821 08:27:51.742923 32360 layer_factory.hpp:77] Creating layer L2_b6_cbr1_bn
I0821 08:27:51.742934 32360 net.cpp:100] Creating Layer L2_b6_cbr1_bn
I0821 08:27:51.742941 32360 net.cpp:434] L2_b6_cbr1_bn <- L2_b6_cbr1_conv_top
I0821 08:27:51.742949 32360 net.cpp:408] L2_b6_cbr1_bn -> L2_b6_cbr1_bn_top
I0821 08:27:51.743197 32360 net.cpp:150] Setting up L2_b6_cbr1_bn
I0821 08:27:51.743211 32360 net.cpp:157] Top shape: 125 32 16 16 (1024000)
I0821 08:27:51.743216 32360 net.cpp:165] Memory required for data: 1084929500
I0821 08:27:51.743225 32360 layer_factory.hpp:77] Creating layer L2_b6_cbr1_scale
I0821 08:27:51.743234 32360 net.cpp:100] Creating Layer L2_b6_cbr1_scale
I0821 08:27:51.743240 32360 net.cpp:434] L2_b6_cbr1_scale <- L2_b6_cbr1_bn_top
I0821 08:27:51.743252 32360 net.cpp:395] L2_b6_cbr1_scale -> L2_b6_cbr1_bn_top (in-place)
I0821 08:27:51.743314 32360 layer_factory.hpp:77] Creating layer L2_b6_cbr1_scale
I0821 08:27:51.743461 32360 net.cpp:150] Setting up L2_b6_cbr1_scale
I0821 08:27:51.743474 32360 net.cpp:157] Top shape: 125 32 16 16 (1024000)
I0821 08:27:51.743479 32360 net.cpp:165] Memory required for data: 1089025500
I0821 08:27:51.743489 32360 layer_factory.hpp:77] Creating layer L2_b6_cbr1_relu
I0821 08:27:51.743496 32360 net.cpp:100] Creating Layer L2_b6_cbr1_relu
I0821 08:27:51.743504 32360 net.cpp:434] L2_b6_cbr1_relu <- L2_b6_cbr1_bn_top
I0821 08:27:51.743510 32360 net.cpp:395] L2_b6_cbr1_relu -> L2_b6_cbr1_bn_top (in-place)
I0821 08:27:51.743520 32360 net.cpp:150] Setting up L2_b6_cbr1_relu
I0821 08:27:51.743526 32360 net.cpp:157] Top shape: 125 32 16 16 (1024000)
I0821 08:27:51.743531 32360 net.cpp:165] Memory required for data: 1093121500
I0821 08:27:51.743536 32360 layer_factory.hpp:77] Creating layer L2_b6_cbr2_conv
I0821 08:27:51.743551 32360 net.cpp:100] Creating Layer L2_b6_cbr2_conv
I0821 08:27:51.743556 32360 net.cpp:434] L2_b6_cbr2_conv <- L2_b6_cbr1_bn_top
I0821 08:27:51.743566 32360 net.cpp:408] L2_b6_cbr2_conv -> L2_b6_cbr2_conv_top
I0821 08:27:51.744033 32360 net.cpp:150] Setting up L2_b6_cbr2_conv
I0821 08:27:51.744053 32360 net.cpp:157] Top shape: 125 32 16 16 (1024000)
I0821 08:27:51.744060 32360 net.cpp:165] Memory required for data: 1097217500
I0821 08:27:51.744068 32360 layer_factory.hpp:77] Creating layer L2_b6_cbr2_bn
I0821 08:27:51.744081 32360 net.cpp:100] Creating Layer L2_b6_cbr2_bn
I0821 08:27:51.744087 32360 net.cpp:434] L2_b6_cbr2_bn <- L2_b6_cbr2_conv_top
I0821 08:27:51.744098 32360 net.cpp:408] L2_b6_cbr2_bn -> L2_b6_cbr2_bn_top
I0821 08:27:51.744350 32360 net.cpp:150] Setting up L2_b6_cbr2_bn
I0821 08:27:51.744364 32360 net.cpp:157] Top shape: 125 32 16 16 (1024000)
I0821 08:27:51.744369 32360 net.cpp:165] Memory required for data: 1101313500
I0821 08:27:51.744379 32360 layer_factory.hpp:77] Creating layer L2_b6_cbr2_scale
I0821 08:27:51.744387 32360 net.cpp:100] Creating Layer L2_b6_cbr2_scale
I0821 08:27:51.744393 32360 net.cpp:434] L2_b6_cbr2_scale <- L2_b6_cbr2_bn_top
I0821 08:27:51.744401 32360 net.cpp:395] L2_b6_cbr2_scale -> L2_b6_cbr2_bn_top (in-place)
I0821 08:27:51.744458 32360 layer_factory.hpp:77] Creating layer L2_b6_cbr2_scale
I0821 08:27:51.744604 32360 net.cpp:150] Setting up L2_b6_cbr2_scale
I0821 08:27:51.744621 32360 net.cpp:157] Top shape: 125 32 16 16 (1024000)
I0821 08:27:51.744626 32360 net.cpp:165] Memory required for data: 1105409500
I0821 08:27:51.744634 32360 layer_factory.hpp:77] Creating layer L2_b6_sum_eltwise
I0821 08:27:51.744643 32360 net.cpp:100] Creating Layer L2_b6_sum_eltwise
I0821 08:27:51.744650 32360 net.cpp:434] L2_b6_sum_eltwise <- L2_b6_cbr2_bn_top
I0821 08:27:51.744657 32360 net.cpp:434] L2_b6_sum_eltwise <- L2_b5_sum_eltwise_top_L2_b5_relu_0_split_1
I0821 08:27:51.744665 32360 net.cpp:408] L2_b6_sum_eltwise -> L2_b6_sum_eltwise_top
I0821 08:27:51.744694 32360 net.cpp:150] Setting up L2_b6_sum_eltwise
I0821 08:27:51.744704 32360 net.cpp:157] Top shape: 125 32 16 16 (1024000)
I0821 08:27:51.744709 32360 net.cpp:165] Memory required for data: 1109505500
I0821 08:27:51.744714 32360 layer_factory.hpp:77] Creating layer L2_b6_relu
I0821 08:27:51.744722 32360 net.cpp:100] Creating Layer L2_b6_relu
I0821 08:27:51.744729 32360 net.cpp:434] L2_b6_relu <- L2_b6_sum_eltwise_top
I0821 08:27:51.744738 32360 net.cpp:395] L2_b6_relu -> L2_b6_sum_eltwise_top (in-place)
I0821 08:27:51.744747 32360 net.cpp:150] Setting up L2_b6_relu
I0821 08:27:51.744755 32360 net.cpp:157] Top shape: 125 32 16 16 (1024000)
I0821 08:27:51.744760 32360 net.cpp:165] Memory required for data: 1113601500
I0821 08:27:51.744763 32360 layer_factory.hpp:77] Creating layer L2_b6_sum_eltwise_top_L2_b6_relu_0_split
I0821 08:27:51.744771 32360 net.cpp:100] Creating Layer L2_b6_sum_eltwise_top_L2_b6_relu_0_split
I0821 08:27:51.744776 32360 net.cpp:434] L2_b6_sum_eltwise_top_L2_b6_relu_0_split <- L2_b6_sum_eltwise_top
I0821 08:27:51.744786 32360 net.cpp:408] L2_b6_sum_eltwise_top_L2_b6_relu_0_split -> L2_b6_sum_eltwise_top_L2_b6_relu_0_split_0
I0821 08:27:51.744796 32360 net.cpp:408] L2_b6_sum_eltwise_top_L2_b6_relu_0_split -> L2_b6_sum_eltwise_top_L2_b6_relu_0_split_1
I0821 08:27:51.744840 32360 net.cpp:150] Setting up L2_b6_sum_eltwise_top_L2_b6_relu_0_split
I0821 08:27:51.744853 32360 net.cpp:157] Top shape: 125 32 16 16 (1024000)
I0821 08:27:51.744858 32360 net.cpp:157] Top shape: 125 32 16 16 (1024000)
I0821 08:27:51.744863 32360 net.cpp:165] Memory required for data: 1121793500
I0821 08:27:51.744868 32360 layer_factory.hpp:77] Creating layer L2_b7_cbr1_conv
I0821 08:27:51.744882 32360 net.cpp:100] Creating Layer L2_b7_cbr1_conv
I0821 08:27:51.744889 32360 net.cpp:434] L2_b7_cbr1_conv <- L2_b6_sum_eltwise_top_L2_b6_relu_0_split_0
I0821 08:27:51.744899 32360 net.cpp:408] L2_b7_cbr1_conv -> L2_b7_cbr1_conv_top
I0821 08:27:51.745373 32360 net.cpp:150] Setting up L2_b7_cbr1_conv
I0821 08:27:51.745388 32360 net.cpp:157] Top shape: 125 32 16 16 (1024000)
I0821 08:27:51.745393 32360 net.cpp:165] Memory required for data: 1125889500
I0821 08:27:51.745401 32360 layer_factory.hpp:77] Creating layer L2_b7_cbr1_bn
I0821 08:27:51.745414 32360 net.cpp:100] Creating Layer L2_b7_cbr1_bn
I0821 08:27:51.745427 32360 net.cpp:434] L2_b7_cbr1_bn <- L2_b7_cbr1_conv_top
I0821 08:27:51.745436 32360 net.cpp:408] L2_b7_cbr1_bn -> L2_b7_cbr1_bn_top
I0821 08:27:51.745688 32360 net.cpp:150] Setting up L2_b7_cbr1_bn
I0821 08:27:51.745702 32360 net.cpp:157] Top shape: 125 32 16 16 (1024000)
I0821 08:27:51.745707 32360 net.cpp:165] Memory required for data: 1129985500
I0821 08:27:51.745718 32360 layer_factory.hpp:77] Creating layer L2_b7_cbr1_scale
I0821 08:27:51.745726 32360 net.cpp:100] Creating Layer L2_b7_cbr1_scale
I0821 08:27:51.745733 32360 net.cpp:434] L2_b7_cbr1_scale <- L2_b7_cbr1_bn_top
I0821 08:27:51.745740 32360 net.cpp:395] L2_b7_cbr1_scale -> L2_b7_cbr1_bn_top (in-place)
I0821 08:27:51.745798 32360 layer_factory.hpp:77] Creating layer L2_b7_cbr1_scale
I0821 08:27:51.745945 32360 net.cpp:150] Setting up L2_b7_cbr1_scale
I0821 08:27:51.745960 32360 net.cpp:157] Top shape: 125 32 16 16 (1024000)
I0821 08:27:51.745966 32360 net.cpp:165] Memory required for data: 1134081500
I0821 08:27:51.745975 32360 layer_factory.hpp:77] Creating layer L2_b7_cbr1_relu
I0821 08:27:51.745985 32360 net.cpp:100] Creating Layer L2_b7_cbr1_relu
I0821 08:27:51.745990 32360 net.cpp:434] L2_b7_cbr1_relu <- L2_b7_cbr1_bn_top
I0821 08:27:51.745997 32360 net.cpp:395] L2_b7_cbr1_relu -> L2_b7_cbr1_bn_top (in-place)
I0821 08:27:51.746007 32360 net.cpp:150] Setting up L2_b7_cbr1_relu
I0821 08:27:51.746014 32360 net.cpp:157] Top shape: 125 32 16 16 (1024000)
I0821 08:27:51.746019 32360 net.cpp:165] Memory required for data: 1138177500
I0821 08:27:51.746024 32360 layer_factory.hpp:77] Creating layer L2_b7_cbr2_conv
I0821 08:27:51.746039 32360 net.cpp:100] Creating Layer L2_b7_cbr2_conv
I0821 08:27:51.746045 32360 net.cpp:434] L2_b7_cbr2_conv <- L2_b7_cbr1_bn_top
I0821 08:27:51.746057 32360 net.cpp:408] L2_b7_cbr2_conv -> L2_b7_cbr2_conv_top
I0821 08:27:51.746546 32360 net.cpp:150] Setting up L2_b7_cbr2_conv
I0821 08:27:51.746562 32360 net.cpp:157] Top shape: 125 32 16 16 (1024000)
I0821 08:27:51.746567 32360 net.cpp:165] Memory required for data: 1142273500
I0821 08:27:51.746575 32360 layer_factory.hpp:77] Creating layer L2_b7_cbr2_bn
I0821 08:27:51.746588 32360 net.cpp:100] Creating Layer L2_b7_cbr2_bn
I0821 08:27:51.746595 32360 net.cpp:434] L2_b7_cbr2_bn <- L2_b7_cbr2_conv_top
I0821 08:27:51.746605 32360 net.cpp:408] L2_b7_cbr2_bn -> L2_b7_cbr2_bn_top
I0821 08:27:51.746857 32360 net.cpp:150] Setting up L2_b7_cbr2_bn
I0821 08:27:51.746871 32360 net.cpp:157] Top shape: 125 32 16 16 (1024000)
I0821 08:27:51.746876 32360 net.cpp:165] Memory required for data: 1146369500
I0821 08:27:51.746886 32360 layer_factory.hpp:77] Creating layer L2_b7_cbr2_scale
I0821 08:27:51.746896 32360 net.cpp:100] Creating Layer L2_b7_cbr2_scale
I0821 08:27:51.746901 32360 net.cpp:434] L2_b7_cbr2_scale <- L2_b7_cbr2_bn_top
I0821 08:27:51.746909 32360 net.cpp:395] L2_b7_cbr2_scale -> L2_b7_cbr2_bn_top (in-place)
I0821 08:27:51.746968 32360 layer_factory.hpp:77] Creating layer L2_b7_cbr2_scale
I0821 08:27:51.747117 32360 net.cpp:150] Setting up L2_b7_cbr2_scale
I0821 08:27:51.747128 32360 net.cpp:157] Top shape: 125 32 16 16 (1024000)
I0821 08:27:51.747133 32360 net.cpp:165] Memory required for data: 1150465500
I0821 08:27:51.747143 32360 layer_factory.hpp:77] Creating layer L2_b7_sum_eltwise
I0821 08:27:51.747154 32360 net.cpp:100] Creating Layer L2_b7_sum_eltwise
I0821 08:27:51.747161 32360 net.cpp:434] L2_b7_sum_eltwise <- L2_b7_cbr2_bn_top
I0821 08:27:51.747169 32360 net.cpp:434] L2_b7_sum_eltwise <- L2_b6_sum_eltwise_top_L2_b6_relu_0_split_1
I0821 08:27:51.747176 32360 net.cpp:408] L2_b7_sum_eltwise -> L2_b7_sum_eltwise_top
I0821 08:27:51.747202 32360 net.cpp:150] Setting up L2_b7_sum_eltwise
I0821 08:27:51.747211 32360 net.cpp:157] Top shape: 125 32 16 16 (1024000)
I0821 08:27:51.747216 32360 net.cpp:165] Memory required for data: 1154561500
I0821 08:27:51.747222 32360 layer_factory.hpp:77] Creating layer L2_b7_relu
I0821 08:27:51.747232 32360 net.cpp:100] Creating Layer L2_b7_relu
I0821 08:27:51.747238 32360 net.cpp:434] L2_b7_relu <- L2_b7_sum_eltwise_top
I0821 08:27:51.747253 32360 net.cpp:395] L2_b7_relu -> L2_b7_sum_eltwise_top (in-place)
I0821 08:27:51.747269 32360 net.cpp:150] Setting up L2_b7_relu
I0821 08:27:51.747277 32360 net.cpp:157] Top shape: 125 32 16 16 (1024000)
I0821 08:27:51.747282 32360 net.cpp:165] Memory required for data: 1158657500
I0821 08:27:51.747288 32360 layer_factory.hpp:77] Creating layer L2_b7_sum_eltwise_top_L2_b7_relu_0_split
I0821 08:27:51.747295 32360 net.cpp:100] Creating Layer L2_b7_sum_eltwise_top_L2_b7_relu_0_split
I0821 08:27:51.747300 32360 net.cpp:434] L2_b7_sum_eltwise_top_L2_b7_relu_0_split <- L2_b7_sum_eltwise_top
I0821 08:27:51.747308 32360 net.cpp:408] L2_b7_sum_eltwise_top_L2_b7_relu_0_split -> L2_b7_sum_eltwise_top_L2_b7_relu_0_split_0
I0821 08:27:51.747318 32360 net.cpp:408] L2_b7_sum_eltwise_top_L2_b7_relu_0_split -> L2_b7_sum_eltwise_top_L2_b7_relu_0_split_1
I0821 08:27:51.747367 32360 net.cpp:150] Setting up L2_b7_sum_eltwise_top_L2_b7_relu_0_split
I0821 08:27:51.747380 32360 net.cpp:157] Top shape: 125 32 16 16 (1024000)
I0821 08:27:51.747386 32360 net.cpp:157] Top shape: 125 32 16 16 (1024000)
I0821 08:27:51.747390 32360 net.cpp:165] Memory required for data: 1166849500
I0821 08:27:51.747395 32360 layer_factory.hpp:77] Creating layer L2_b8_cbr1_conv
I0821 08:27:51.747409 32360 net.cpp:100] Creating Layer L2_b8_cbr1_conv
I0821 08:27:51.747416 32360 net.cpp:434] L2_b8_cbr1_conv <- L2_b7_sum_eltwise_top_L2_b7_relu_0_split_0
I0821 08:27:51.747426 32360 net.cpp:408] L2_b8_cbr1_conv -> L2_b8_cbr1_conv_top
I0821 08:27:51.747896 32360 net.cpp:150] Setting up L2_b8_cbr1_conv
I0821 08:27:51.747910 32360 net.cpp:157] Top shape: 125 32 16 16 (1024000)
I0821 08:27:51.747915 32360 net.cpp:165] Memory required for data: 1170945500
I0821 08:27:51.747925 32360 layer_factory.hpp:77] Creating layer L2_b8_cbr1_bn
I0821 08:27:51.747936 32360 net.cpp:100] Creating Layer L2_b8_cbr1_bn
I0821 08:27:51.747943 32360 net.cpp:434] L2_b8_cbr1_bn <- L2_b8_cbr1_conv_top
I0821 08:27:51.747953 32360 net.cpp:408] L2_b8_cbr1_bn -> L2_b8_cbr1_bn_top
I0821 08:27:51.748205 32360 net.cpp:150] Setting up L2_b8_cbr1_bn
I0821 08:27:51.748219 32360 net.cpp:157] Top shape: 125 32 16 16 (1024000)
I0821 08:27:51.748224 32360 net.cpp:165] Memory required for data: 1175041500
I0821 08:27:51.748234 32360 layer_factory.hpp:77] Creating layer L2_b8_cbr1_scale
I0821 08:27:51.748244 32360 net.cpp:100] Creating Layer L2_b8_cbr1_scale
I0821 08:27:51.748250 32360 net.cpp:434] L2_b8_cbr1_scale <- L2_b8_cbr1_bn_top
I0821 08:27:51.748257 32360 net.cpp:395] L2_b8_cbr1_scale -> L2_b8_cbr1_bn_top (in-place)
I0821 08:27:51.748323 32360 layer_factory.hpp:77] Creating layer L2_b8_cbr1_scale
I0821 08:27:51.748474 32360 net.cpp:150] Setting up L2_b8_cbr1_scale
I0821 08:27:51.748489 32360 net.cpp:157] Top shape: 125 32 16 16 (1024000)
I0821 08:27:51.748494 32360 net.cpp:165] Memory required for data: 1179137500
I0821 08:27:51.748503 32360 layer_factory.hpp:77] Creating layer L2_b8_cbr1_relu
I0821 08:27:51.748512 32360 net.cpp:100] Creating Layer L2_b8_cbr1_relu
I0821 08:27:51.748518 32360 net.cpp:434] L2_b8_cbr1_relu <- L2_b8_cbr1_bn_top
I0821 08:27:51.748525 32360 net.cpp:395] L2_b8_cbr1_relu -> L2_b8_cbr1_bn_top (in-place)
I0821 08:27:51.748534 32360 net.cpp:150] Setting up L2_b8_cbr1_relu
I0821 08:27:51.748541 32360 net.cpp:157] Top shape: 125 32 16 16 (1024000)
I0821 08:27:51.748546 32360 net.cpp:165] Memory required for data: 1183233500
I0821 08:27:51.748551 32360 layer_factory.hpp:77] Creating layer L2_b8_cbr2_conv
I0821 08:27:51.748564 32360 net.cpp:100] Creating Layer L2_b8_cbr2_conv
I0821 08:27:51.748571 32360 net.cpp:434] L2_b8_cbr2_conv <- L2_b8_cbr1_bn_top
I0821 08:27:51.748582 32360 net.cpp:408] L2_b8_cbr2_conv -> L2_b8_cbr2_conv_top
I0821 08:27:51.749052 32360 net.cpp:150] Setting up L2_b8_cbr2_conv
I0821 08:27:51.749065 32360 net.cpp:157] Top shape: 125 32 16 16 (1024000)
I0821 08:27:51.749070 32360 net.cpp:165] Memory required for data: 1187329500
I0821 08:27:51.749078 32360 layer_factory.hpp:77] Creating layer L2_b8_cbr2_bn
I0821 08:27:51.749090 32360 net.cpp:100] Creating Layer L2_b8_cbr2_bn
I0821 08:27:51.749105 32360 net.cpp:434] L2_b8_cbr2_bn <- L2_b8_cbr2_conv_top
I0821 08:27:51.749116 32360 net.cpp:408] L2_b8_cbr2_bn -> L2_b8_cbr2_bn_top
I0821 08:27:51.749377 32360 net.cpp:150] Setting up L2_b8_cbr2_bn
I0821 08:27:51.749392 32360 net.cpp:157] Top shape: 125 32 16 16 (1024000)
I0821 08:27:51.749397 32360 net.cpp:165] Memory required for data: 1191425500
I0821 08:27:51.749406 32360 layer_factory.hpp:77] Creating layer L2_b8_cbr2_scale
I0821 08:27:51.749415 32360 net.cpp:100] Creating Layer L2_b8_cbr2_scale
I0821 08:27:51.749423 32360 net.cpp:434] L2_b8_cbr2_scale <- L2_b8_cbr2_bn_top
I0821 08:27:51.749429 32360 net.cpp:395] L2_b8_cbr2_scale -> L2_b8_cbr2_bn_top (in-place)
I0821 08:27:51.749486 32360 layer_factory.hpp:77] Creating layer L2_b8_cbr2_scale
I0821 08:27:51.749632 32360 net.cpp:150] Setting up L2_b8_cbr2_scale
I0821 08:27:51.749644 32360 net.cpp:157] Top shape: 125 32 16 16 (1024000)
I0821 08:27:51.749650 32360 net.cpp:165] Memory required for data: 1195521500
I0821 08:27:51.749660 32360 layer_factory.hpp:77] Creating layer L2_b8_sum_eltwise
I0821 08:27:51.749671 32360 net.cpp:100] Creating Layer L2_b8_sum_eltwise
I0821 08:27:51.749677 32360 net.cpp:434] L2_b8_sum_eltwise <- L2_b8_cbr2_bn_top
I0821 08:27:51.749685 32360 net.cpp:434] L2_b8_sum_eltwise <- L2_b7_sum_eltwise_top_L2_b7_relu_0_split_1
I0821 08:27:51.749692 32360 net.cpp:408] L2_b8_sum_eltwise -> L2_b8_sum_eltwise_top
I0821 08:27:51.749719 32360 net.cpp:150] Setting up L2_b8_sum_eltwise
I0821 08:27:51.749728 32360 net.cpp:157] Top shape: 125 32 16 16 (1024000)
I0821 08:27:51.749733 32360 net.cpp:165] Memory required for data: 1199617500
I0821 08:27:51.749738 32360 layer_factory.hpp:77] Creating layer L2_b8_relu
I0821 08:27:51.749748 32360 net.cpp:100] Creating Layer L2_b8_relu
I0821 08:27:51.749755 32360 net.cpp:434] L2_b8_relu <- L2_b8_sum_eltwise_top
I0821 08:27:51.749763 32360 net.cpp:395] L2_b8_relu -> L2_b8_sum_eltwise_top (in-place)
I0821 08:27:51.749771 32360 net.cpp:150] Setting up L2_b8_relu
I0821 08:27:51.749778 32360 net.cpp:157] Top shape: 125 32 16 16 (1024000)
I0821 08:27:51.749783 32360 net.cpp:165] Memory required for data: 1203713500
I0821 08:27:51.749788 32360 layer_factory.hpp:77] Creating layer L2_b8_sum_eltwise_top_L2_b8_relu_0_split
I0821 08:27:51.749795 32360 net.cpp:100] Creating Layer L2_b8_sum_eltwise_top_L2_b8_relu_0_split
I0821 08:27:51.749800 32360 net.cpp:434] L2_b8_sum_eltwise_top_L2_b8_relu_0_split <- L2_b8_sum_eltwise_top
I0821 08:27:51.749809 32360 net.cpp:408] L2_b8_sum_eltwise_top_L2_b8_relu_0_split -> L2_b8_sum_eltwise_top_L2_b8_relu_0_split_0
I0821 08:27:51.749830 32360 net.cpp:408] L2_b8_sum_eltwise_top_L2_b8_relu_0_split -> L2_b8_sum_eltwise_top_L2_b8_relu_0_split_1
I0821 08:27:51.749881 32360 net.cpp:150] Setting up L2_b8_sum_eltwise_top_L2_b8_relu_0_split
I0821 08:27:51.749892 32360 net.cpp:157] Top shape: 125 32 16 16 (1024000)
I0821 08:27:51.749899 32360 net.cpp:157] Top shape: 125 32 16 16 (1024000)
I0821 08:27:51.749903 32360 net.cpp:165] Memory required for data: 1211905500
I0821 08:27:51.749909 32360 layer_factory.hpp:77] Creating layer L2_b9_cbr1_conv
I0821 08:27:51.749923 32360 net.cpp:100] Creating Layer L2_b9_cbr1_conv
I0821 08:27:51.749929 32360 net.cpp:434] L2_b9_cbr1_conv <- L2_b8_sum_eltwise_top_L2_b8_relu_0_split_0
I0821 08:27:51.749943 32360 net.cpp:408] L2_b9_cbr1_conv -> L2_b9_cbr1_conv_top
I0821 08:27:51.750417 32360 net.cpp:150] Setting up L2_b9_cbr1_conv
I0821 08:27:51.750432 32360 net.cpp:157] Top shape: 125 32 16 16 (1024000)
I0821 08:27:51.750437 32360 net.cpp:165] Memory required for data: 1216001500
I0821 08:27:51.750447 32360 layer_factory.hpp:77] Creating layer L2_b9_cbr1_bn
I0821 08:27:51.750458 32360 net.cpp:100] Creating Layer L2_b9_cbr1_bn
I0821 08:27:51.750465 32360 net.cpp:434] L2_b9_cbr1_bn <- L2_b9_cbr1_conv_top
I0821 08:27:51.750476 32360 net.cpp:408] L2_b9_cbr1_bn -> L2_b9_cbr1_bn_top
I0821 08:27:51.750727 32360 net.cpp:150] Setting up L2_b9_cbr1_bn
I0821 08:27:51.750739 32360 net.cpp:157] Top shape: 125 32 16 16 (1024000)
I0821 08:27:51.750751 32360 net.cpp:165] Memory required for data: 1220097500
I0821 08:27:51.750762 32360 layer_factory.hpp:77] Creating layer L2_b9_cbr1_scale
I0821 08:27:51.750772 32360 net.cpp:100] Creating Layer L2_b9_cbr1_scale
I0821 08:27:51.750778 32360 net.cpp:434] L2_b9_cbr1_scale <- L2_b9_cbr1_bn_top
I0821 08:27:51.750787 32360 net.cpp:395] L2_b9_cbr1_scale -> L2_b9_cbr1_bn_top (in-place)
I0821 08:27:51.750845 32360 layer_factory.hpp:77] Creating layer L2_b9_cbr1_scale
I0821 08:27:51.750993 32360 net.cpp:150] Setting up L2_b9_cbr1_scale
I0821 08:27:51.751006 32360 net.cpp:157] Top shape: 125 32 16 16 (1024000)
I0821 08:27:51.751011 32360 net.cpp:165] Memory required for data: 1224193500
I0821 08:27:51.751020 32360 layer_factory.hpp:77] Creating layer L2_b9_cbr1_relu
I0821 08:27:51.751029 32360 net.cpp:100] Creating Layer L2_b9_cbr1_relu
I0821 08:27:51.751034 32360 net.cpp:434] L2_b9_cbr1_relu <- L2_b9_cbr1_bn_top
I0821 08:27:51.751044 32360 net.cpp:395] L2_b9_cbr1_relu -> L2_b9_cbr1_bn_top (in-place)
I0821 08:27:51.751055 32360 net.cpp:150] Setting up L2_b9_cbr1_relu
I0821 08:27:51.751062 32360 net.cpp:157] Top shape: 125 32 16 16 (1024000)
I0821 08:27:51.751066 32360 net.cpp:165] Memory required for data: 1228289500
I0821 08:27:51.751071 32360 layer_factory.hpp:77] Creating layer L2_b9_cbr2_conv
I0821 08:27:51.751085 32360 net.cpp:100] Creating Layer L2_b9_cbr2_conv
I0821 08:27:51.751091 32360 net.cpp:434] L2_b9_cbr2_conv <- L2_b9_cbr1_bn_top
I0821 08:27:51.751099 32360 net.cpp:408] L2_b9_cbr2_conv -> L2_b9_cbr2_conv_top
I0821 08:27:51.751574 32360 net.cpp:150] Setting up L2_b9_cbr2_conv
I0821 08:27:51.751588 32360 net.cpp:157] Top shape: 125 32 16 16 (1024000)
I0821 08:27:51.751593 32360 net.cpp:165] Memory required for data: 1232385500
I0821 08:27:51.751602 32360 layer_factory.hpp:77] Creating layer L2_b9_cbr2_bn
I0821 08:27:51.751615 32360 net.cpp:100] Creating Layer L2_b9_cbr2_bn
I0821 08:27:51.751621 32360 net.cpp:434] L2_b9_cbr2_bn <- L2_b9_cbr2_conv_top
I0821 08:27:51.751629 32360 net.cpp:408] L2_b9_cbr2_bn -> L2_b9_cbr2_bn_top
I0821 08:27:51.751883 32360 net.cpp:150] Setting up L2_b9_cbr2_bn
I0821 08:27:51.751899 32360 net.cpp:157] Top shape: 125 32 16 16 (1024000)
I0821 08:27:51.751904 32360 net.cpp:165] Memory required for data: 1236481500
I0821 08:27:51.751947 32360 layer_factory.hpp:77] Creating layer L2_b9_cbr2_scale
I0821 08:27:51.751962 32360 net.cpp:100] Creating Layer L2_b9_cbr2_scale
I0821 08:27:51.751969 32360 net.cpp:434] L2_b9_cbr2_scale <- L2_b9_cbr2_bn_top
I0821 08:27:51.751977 32360 net.cpp:395] L2_b9_cbr2_scale -> L2_b9_cbr2_bn_top (in-place)
I0821 08:27:51.752033 32360 layer_factory.hpp:77] Creating layer L2_b9_cbr2_scale
I0821 08:27:51.752182 32360 net.cpp:150] Setting up L2_b9_cbr2_scale
I0821 08:27:51.752194 32360 net.cpp:157] Top shape: 125 32 16 16 (1024000)
I0821 08:27:51.752199 32360 net.cpp:165] Memory required for data: 1240577500
I0821 08:27:51.752208 32360 layer_factory.hpp:77] Creating layer L2_b9_sum_eltwise
I0821 08:27:51.752218 32360 net.cpp:100] Creating Layer L2_b9_sum_eltwise
I0821 08:27:51.752224 32360 net.cpp:434] L2_b9_sum_eltwise <- L2_b9_cbr2_bn_top
I0821 08:27:51.752233 32360 net.cpp:434] L2_b9_sum_eltwise <- L2_b8_sum_eltwise_top_L2_b8_relu_0_split_1
I0821 08:27:51.752243 32360 net.cpp:408] L2_b9_sum_eltwise -> L2_b9_sum_eltwise_top
I0821 08:27:51.752277 32360 net.cpp:150] Setting up L2_b9_sum_eltwise
I0821 08:27:51.752288 32360 net.cpp:157] Top shape: 125 32 16 16 (1024000)
I0821 08:27:51.752293 32360 net.cpp:165] Memory required for data: 1244673500
I0821 08:27:51.752300 32360 layer_factory.hpp:77] Creating layer L2_b9_relu
I0821 08:27:51.752310 32360 net.cpp:100] Creating Layer L2_b9_relu
I0821 08:27:51.752316 32360 net.cpp:434] L2_b9_relu <- L2_b9_sum_eltwise_top
I0821 08:27:51.752323 32360 net.cpp:395] L2_b9_relu -> L2_b9_sum_eltwise_top (in-place)
I0821 08:27:51.752332 32360 net.cpp:150] Setting up L2_b9_relu
I0821 08:27:51.752341 32360 net.cpp:157] Top shape: 125 32 16 16 (1024000)
I0821 08:27:51.752344 32360 net.cpp:165] Memory required for data: 1248769500
I0821 08:27:51.752355 32360 layer_factory.hpp:77] Creating layer L2_b9_sum_eltwise_top_L2_b9_relu_0_split
I0821 08:27:51.752367 32360 net.cpp:100] Creating Layer L2_b9_sum_eltwise_top_L2_b9_relu_0_split
I0821 08:27:51.752372 32360 net.cpp:434] L2_b9_sum_eltwise_top_L2_b9_relu_0_split <- L2_b9_sum_eltwise_top
I0821 08:27:51.752379 32360 net.cpp:408] L2_b9_sum_eltwise_top_L2_b9_relu_0_split -> L2_b9_sum_eltwise_top_L2_b9_relu_0_split_0
I0821 08:27:51.752389 32360 net.cpp:408] L2_b9_sum_eltwise_top_L2_b9_relu_0_split -> L2_b9_sum_eltwise_top_L2_b9_relu_0_split_1
I0821 08:27:51.752439 32360 net.cpp:150] Setting up L2_b9_sum_eltwise_top_L2_b9_relu_0_split
I0821 08:27:51.752454 32360 net.cpp:157] Top shape: 125 32 16 16 (1024000)
I0821 08:27:51.752460 32360 net.cpp:157] Top shape: 125 32 16 16 (1024000)
I0821 08:27:51.752465 32360 net.cpp:165] Memory required for data: 1256961500
I0821 08:27:51.752470 32360 layer_factory.hpp:77] Creating layer L3_b1_cbr1_conv
I0821 08:27:51.752481 32360 net.cpp:100] Creating Layer L3_b1_cbr1_conv
I0821 08:27:51.752488 32360 net.cpp:434] L3_b1_cbr1_conv <- L2_b9_sum_eltwise_top_L2_b9_relu_0_split_0
I0821 08:27:51.752496 32360 net.cpp:408] L3_b1_cbr1_conv -> L3_b1_cbr1_conv_top
I0821 08:27:51.752969 32360 net.cpp:150] Setting up L3_b1_cbr1_conv
I0821 08:27:51.752984 32360 net.cpp:157] Top shape: 125 32 8 8 (256000)
I0821 08:27:51.752988 32360 net.cpp:165] Memory required for data: 1257985500
I0821 08:27:51.752997 32360 layer_factory.hpp:77] Creating layer L3_b1_cbr1_bn
I0821 08:27:51.753010 32360 net.cpp:100] Creating Layer L3_b1_cbr1_bn
I0821 08:27:51.753015 32360 net.cpp:434] L3_b1_cbr1_bn <- L3_b1_cbr1_conv_top
I0821 08:27:51.753024 32360 net.cpp:408] L3_b1_cbr1_bn -> L3_b1_cbr1_bn_top
I0821 08:27:51.753291 32360 net.cpp:150] Setting up L3_b1_cbr1_bn
I0821 08:27:51.753304 32360 net.cpp:157] Top shape: 125 32 8 8 (256000)
I0821 08:27:51.753309 32360 net.cpp:165] Memory required for data: 1259009500
I0821 08:27:51.753320 32360 layer_factory.hpp:77] Creating layer L3_b1_cbr1_scale
I0821 08:27:51.753332 32360 net.cpp:100] Creating Layer L3_b1_cbr1_scale
I0821 08:27:51.753338 32360 net.cpp:434] L3_b1_cbr1_scale <- L3_b1_cbr1_bn_top
I0821 08:27:51.753348 32360 net.cpp:395] L3_b1_cbr1_scale -> L3_b1_cbr1_bn_top (in-place)
I0821 08:27:51.753404 32360 layer_factory.hpp:77] Creating layer L3_b1_cbr1_scale
I0821 08:27:51.753558 32360 net.cpp:150] Setting up L3_b1_cbr1_scale
I0821 08:27:51.753571 32360 net.cpp:157] Top shape: 125 32 8 8 (256000)
I0821 08:27:51.753576 32360 net.cpp:165] Memory required for data: 1260033500
I0821 08:27:51.753585 32360 layer_factory.hpp:77] Creating layer L3_b1_cbr1_relu
I0821 08:27:51.753594 32360 net.cpp:100] Creating Layer L3_b1_cbr1_relu
I0821 08:27:51.753600 32360 net.cpp:434] L3_b1_cbr1_relu <- L3_b1_cbr1_bn_top
I0821 08:27:51.753610 32360 net.cpp:395] L3_b1_cbr1_relu -> L3_b1_cbr1_bn_top (in-place)
I0821 08:27:51.753620 32360 net.cpp:150] Setting up L3_b1_cbr1_relu
I0821 08:27:51.753628 32360 net.cpp:157] Top shape: 125 32 8 8 (256000)
I0821 08:27:51.753633 32360 net.cpp:165] Memory required for data: 1261057500
I0821 08:27:51.753638 32360 layer_factory.hpp:77] Creating layer L3_b1_cbr2_conv
I0821 08:27:51.753648 32360 net.cpp:100] Creating Layer L3_b1_cbr2_conv
I0821 08:27:51.753654 32360 net.cpp:434] L3_b1_cbr2_conv <- L3_b1_cbr1_bn_top
I0821 08:27:51.753666 32360 net.cpp:408] L3_b1_cbr2_conv -> L3_b1_cbr2_conv_top
I0821 08:27:51.754135 32360 net.cpp:150] Setting up L3_b1_cbr2_conv
I0821 08:27:51.754149 32360 net.cpp:157] Top shape: 125 32 8 8 (256000)
I0821 08:27:51.754154 32360 net.cpp:165] Memory required for data: 1262081500
I0821 08:27:51.754163 32360 layer_factory.hpp:77] Creating layer L3_b1_cbr2_bn
I0821 08:27:51.754175 32360 net.cpp:100] Creating Layer L3_b1_cbr2_bn
I0821 08:27:51.754182 32360 net.cpp:434] L3_b1_cbr2_bn <- L3_b1_cbr2_conv_top
I0821 08:27:51.754190 32360 net.cpp:408] L3_b1_cbr2_bn -> L3_b1_cbr2_bn_top
I0821 08:27:51.754456 32360 net.cpp:150] Setting up L3_b1_cbr2_bn
I0821 08:27:51.754470 32360 net.cpp:157] Top shape: 125 32 8 8 (256000)
I0821 08:27:51.754482 32360 net.cpp:165] Memory required for data: 1263105500
I0821 08:27:51.754492 32360 layer_factory.hpp:77] Creating layer L3_b1_cbr2_scale
I0821 08:27:51.754501 32360 net.cpp:100] Creating Layer L3_b1_cbr2_scale
I0821 08:27:51.754508 32360 net.cpp:434] L3_b1_cbr2_scale <- L3_b1_cbr2_bn_top
I0821 08:27:51.754516 32360 net.cpp:395] L3_b1_cbr2_scale -> L3_b1_cbr2_bn_top (in-place)
I0821 08:27:51.754575 32360 layer_factory.hpp:77] Creating layer L3_b1_cbr2_scale
I0821 08:27:51.754729 32360 net.cpp:150] Setting up L3_b1_cbr2_scale
I0821 08:27:51.754741 32360 net.cpp:157] Top shape: 125 32 8 8 (256000)
I0821 08:27:51.754746 32360 net.cpp:165] Memory required for data: 1264129500
I0821 08:27:51.754755 32360 layer_factory.hpp:77] Creating layer L3_b1_pool
I0821 08:27:51.754765 32360 net.cpp:100] Creating Layer L3_b1_pool
I0821 08:27:51.754771 32360 net.cpp:434] L3_b1_pool <- L2_b9_sum_eltwise_top_L2_b9_relu_0_split_1
I0821 08:27:51.754782 32360 net.cpp:408] L3_b1_pool -> L3_b1_pool
I0821 08:27:51.754817 32360 net.cpp:150] Setting up L3_b1_pool
I0821 08:27:51.754830 32360 net.cpp:157] Top shape: 125 32 8 8 (256000)
I0821 08:27:51.754837 32360 net.cpp:165] Memory required for data: 1265153500
I0821 08:27:51.754842 32360 layer_factory.hpp:77] Creating layer L3_b1_sum_eltwise
I0821 08:27:51.754850 32360 net.cpp:100] Creating Layer L3_b1_sum_eltwise
I0821 08:27:51.754856 32360 net.cpp:434] L3_b1_sum_eltwise <- L3_b1_cbr2_bn_top
I0821 08:27:51.754863 32360 net.cpp:434] L3_b1_sum_eltwise <- L3_b1_pool
I0821 08:27:51.754870 32360 net.cpp:408] L3_b1_sum_eltwise -> L3_b1_sum_eltwise_top
I0821 08:27:51.754904 32360 net.cpp:150] Setting up L3_b1_sum_eltwise
I0821 08:27:51.754914 32360 net.cpp:157] Top shape: 125 32 8 8 (256000)
I0821 08:27:51.754918 32360 net.cpp:165] Memory required for data: 1266177500
I0821 08:27:51.754925 32360 layer_factory.hpp:77] Creating layer L3_b1_relu
I0821 08:27:51.754931 32360 net.cpp:100] Creating Layer L3_b1_relu
I0821 08:27:51.754937 32360 net.cpp:434] L3_b1_relu <- L3_b1_sum_eltwise_top
I0821 08:27:51.754945 32360 net.cpp:395] L3_b1_relu -> L3_b1_sum_eltwise_top (in-place)
I0821 08:27:51.754954 32360 net.cpp:150] Setting up L3_b1_relu
I0821 08:27:51.754961 32360 net.cpp:157] Top shape: 125 32 8 8 (256000)
I0821 08:27:51.754966 32360 net.cpp:165] Memory required for data: 1267201500
I0821 08:27:51.754971 32360 layer_factory.hpp:77] Creating layer L3_b1_zeros
I0821 08:27:51.754979 32360 net.cpp:100] Creating Layer L3_b1_zeros
I0821 08:27:51.754989 32360 net.cpp:408] L3_b1_zeros -> L3_b1_zeros
I0821 08:27:51.756204 32360 net.cpp:150] Setting up L3_b1_zeros
I0821 08:27:51.756225 32360 net.cpp:157] Top shape: 125 32 8 8 (256000)
I0821 08:27:51.756232 32360 net.cpp:165] Memory required for data: 1268225500
I0821 08:27:51.756237 32360 layer_factory.hpp:77] Creating layer L3_b1_concat0
I0821 08:27:51.756247 32360 net.cpp:100] Creating Layer L3_b1_concat0
I0821 08:27:51.756253 32360 net.cpp:434] L3_b1_concat0 <- L3_b1_sum_eltwise_top
I0821 08:27:51.756266 32360 net.cpp:434] L3_b1_concat0 <- L3_b1_zeros
I0821 08:27:51.756275 32360 net.cpp:408] L3_b1_concat0 -> L3_b1_concat0
I0821 08:27:51.756317 32360 net.cpp:150] Setting up L3_b1_concat0
I0821 08:27:51.756330 32360 net.cpp:157] Top shape: 125 64 8 8 (512000)
I0821 08:27:51.756335 32360 net.cpp:165] Memory required for data: 1270273500
I0821 08:27:51.756340 32360 layer_factory.hpp:77] Creating layer L3_b1_concat0_L3_b1_concat0_0_split
I0821 08:27:51.756347 32360 net.cpp:100] Creating Layer L3_b1_concat0_L3_b1_concat0_0_split
I0821 08:27:51.756356 32360 net.cpp:434] L3_b1_concat0_L3_b1_concat0_0_split <- L3_b1_concat0
I0821 08:27:51.756364 32360 net.cpp:408] L3_b1_concat0_L3_b1_concat0_0_split -> L3_b1_concat0_L3_b1_concat0_0_split_0
I0821 08:27:51.756374 32360 net.cpp:408] L3_b1_concat0_L3_b1_concat0_0_split -> L3_b1_concat0_L3_b1_concat0_0_split_1
I0821 08:27:51.756424 32360 net.cpp:150] Setting up L3_b1_concat0_L3_b1_concat0_0_split
I0821 08:27:51.756436 32360 net.cpp:157] Top shape: 125 64 8 8 (512000)
I0821 08:27:51.756443 32360 net.cpp:157] Top shape: 125 64 8 8 (512000)
I0821 08:27:51.756454 32360 net.cpp:165] Memory required for data: 1274369500
I0821 08:27:51.756460 32360 layer_factory.hpp:77] Creating layer L3_b2_cbr1_conv
I0821 08:27:51.756475 32360 net.cpp:100] Creating Layer L3_b2_cbr1_conv
I0821 08:27:51.756482 32360 net.cpp:434] L3_b2_cbr1_conv <- L3_b1_concat0_L3_b1_concat0_0_split_0
I0821 08:27:51.756491 32360 net.cpp:408] L3_b2_cbr1_conv -> L3_b2_cbr1_conv_top
I0821 08:27:51.758455 32360 net.cpp:150] Setting up L3_b2_cbr1_conv
I0821 08:27:51.758474 32360 net.cpp:157] Top shape: 125 64 8 8 (512000)
I0821 08:27:51.758479 32360 net.cpp:165] Memory required for data: 1276417500
I0821 08:27:51.758489 32360 layer_factory.hpp:77] Creating layer L3_b2_cbr1_bn
I0821 08:27:51.758499 32360 net.cpp:100] Creating Layer L3_b2_cbr1_bn
I0821 08:27:51.758507 32360 net.cpp:434] L3_b2_cbr1_bn <- L3_b2_cbr1_conv_top
I0821 08:27:51.758517 32360 net.cpp:408] L3_b2_cbr1_bn -> L3_b2_cbr1_bn_top
I0821 08:27:51.758781 32360 net.cpp:150] Setting up L3_b2_cbr1_bn
I0821 08:27:51.758797 32360 net.cpp:157] Top shape: 125 64 8 8 (512000)
I0821 08:27:51.758802 32360 net.cpp:165] Memory required for data: 1278465500
I0821 08:27:51.758813 32360 layer_factory.hpp:77] Creating layer L3_b2_cbr1_scale
I0821 08:27:51.758823 32360 net.cpp:100] Creating Layer L3_b2_cbr1_scale
I0821 08:27:51.758829 32360 net.cpp:434] L3_b2_cbr1_scale <- L3_b2_cbr1_bn_top
I0821 08:27:51.758837 32360 net.cpp:395] L3_b2_cbr1_scale -> L3_b2_cbr1_bn_top (in-place)
I0821 08:27:51.758895 32360 layer_factory.hpp:77] Creating layer L3_b2_cbr1_scale
I0821 08:27:51.759053 32360 net.cpp:150] Setting up L3_b2_cbr1_scale
I0821 08:27:51.759065 32360 net.cpp:157] Top shape: 125 64 8 8 (512000)
I0821 08:27:51.759071 32360 net.cpp:165] Memory required for data: 1280513500
I0821 08:27:51.759080 32360 layer_factory.hpp:77] Creating layer L3_b2_cbr1_relu
I0821 08:27:51.759088 32360 net.cpp:100] Creating Layer L3_b2_cbr1_relu
I0821 08:27:51.759095 32360 net.cpp:434] L3_b2_cbr1_relu <- L3_b2_cbr1_bn_top
I0821 08:27:51.759105 32360 net.cpp:395] L3_b2_cbr1_relu -> L3_b2_cbr1_bn_top (in-place)
I0821 08:27:51.759115 32360 net.cpp:150] Setting up L3_b2_cbr1_relu
I0821 08:27:51.759124 32360 net.cpp:157] Top shape: 125 64 8 8 (512000)
I0821 08:27:51.759129 32360 net.cpp:165] Memory required for data: 1282561500
I0821 08:27:51.759132 32360 layer_factory.hpp:77] Creating layer L3_b2_cbr2_conv
I0821 08:27:51.759146 32360 net.cpp:100] Creating Layer L3_b2_cbr2_conv
I0821 08:27:51.759153 32360 net.cpp:434] L3_b2_cbr2_conv <- L3_b2_cbr1_bn_top
I0821 08:27:51.759162 32360 net.cpp:408] L3_b2_cbr2_conv -> L3_b2_cbr2_conv_top
I0821 08:27:51.760184 32360 net.cpp:150] Setting up L3_b2_cbr2_conv
I0821 08:27:51.760198 32360 net.cpp:157] Top shape: 125 64 8 8 (512000)
I0821 08:27:51.760203 32360 net.cpp:165] Memory required for data: 1284609500
I0821 08:27:51.760212 32360 layer_factory.hpp:77] Creating layer L3_b2_cbr2_bn
I0821 08:27:51.760226 32360 net.cpp:100] Creating Layer L3_b2_cbr2_bn
I0821 08:27:51.760232 32360 net.cpp:434] L3_b2_cbr2_bn <- L3_b2_cbr2_conv_top
I0821 08:27:51.760243 32360 net.cpp:408] L3_b2_cbr2_bn -> L3_b2_cbr2_bn_top
I0821 08:27:51.760511 32360 net.cpp:150] Setting up L3_b2_cbr2_bn
I0821 08:27:51.760525 32360 net.cpp:157] Top shape: 125 64 8 8 (512000)
I0821 08:27:51.760530 32360 net.cpp:165] Memory required for data: 1286657500
I0821 08:27:51.760541 32360 layer_factory.hpp:77] Creating layer L3_b2_cbr2_scale
I0821 08:27:51.760550 32360 net.cpp:100] Creating Layer L3_b2_cbr2_scale
I0821 08:27:51.760556 32360 net.cpp:434] L3_b2_cbr2_scale <- L3_b2_cbr2_bn_top
I0821 08:27:51.760565 32360 net.cpp:395] L3_b2_cbr2_scale -> L3_b2_cbr2_bn_top (in-place)
I0821 08:27:51.760623 32360 layer_factory.hpp:77] Creating layer L3_b2_cbr2_scale
I0821 08:27:51.760778 32360 net.cpp:150] Setting up L3_b2_cbr2_scale
I0821 08:27:51.760792 32360 net.cpp:157] Top shape: 125 64 8 8 (512000)
I0821 08:27:51.760797 32360 net.cpp:165] Memory required for data: 1288705500
I0821 08:27:51.760805 32360 layer_factory.hpp:77] Creating layer L3_b2_sum_eltwise
I0821 08:27:51.760823 32360 net.cpp:100] Creating Layer L3_b2_sum_eltwise
I0821 08:27:51.760829 32360 net.cpp:434] L3_b2_sum_eltwise <- L3_b2_cbr2_bn_top
I0821 08:27:51.760836 32360 net.cpp:434] L3_b2_sum_eltwise <- L3_b1_concat0_L3_b1_concat0_0_split_1
I0821 08:27:51.760846 32360 net.cpp:408] L3_b2_sum_eltwise -> L3_b2_sum_eltwise_top
I0821 08:27:51.760881 32360 net.cpp:150] Setting up L3_b2_sum_eltwise
I0821 08:27:51.760896 32360 net.cpp:157] Top shape: 125 64 8 8 (512000)
I0821 08:27:51.760901 32360 net.cpp:165] Memory required for data: 1290753500
I0821 08:27:51.760906 32360 layer_factory.hpp:77] Creating layer L3_b2_relu
I0821 08:27:51.760915 32360 net.cpp:100] Creating Layer L3_b2_relu
I0821 08:27:51.760921 32360 net.cpp:434] L3_b2_relu <- L3_b2_sum_eltwise_top
I0821 08:27:51.760927 32360 net.cpp:395] L3_b2_relu -> L3_b2_sum_eltwise_top (in-place)
I0821 08:27:51.760936 32360 net.cpp:150] Setting up L3_b2_relu
I0821 08:27:51.760944 32360 net.cpp:157] Top shape: 125 64 8 8 (512000)
I0821 08:27:51.760948 32360 net.cpp:165] Memory required for data: 1292801500
I0821 08:27:51.760953 32360 layer_factory.hpp:77] Creating layer L3_b2_sum_eltwise_top_L3_b2_relu_0_split
I0821 08:27:51.760963 32360 net.cpp:100] Creating Layer L3_b2_sum_eltwise_top_L3_b2_relu_0_split
I0821 08:27:51.760969 32360 net.cpp:434] L3_b2_sum_eltwise_top_L3_b2_relu_0_split <- L3_b2_sum_eltwise_top
I0821 08:27:51.760977 32360 net.cpp:408] L3_b2_sum_eltwise_top_L3_b2_relu_0_split -> L3_b2_sum_eltwise_top_L3_b2_relu_0_split_0
I0821 08:27:51.760987 32360 net.cpp:408] L3_b2_sum_eltwise_top_L3_b2_relu_0_split -> L3_b2_sum_eltwise_top_L3_b2_relu_0_split_1
I0821 08:27:51.761037 32360 net.cpp:150] Setting up L3_b2_sum_eltwise_top_L3_b2_relu_0_split
I0821 08:27:51.761049 32360 net.cpp:157] Top shape: 125 64 8 8 (512000)
I0821 08:27:51.761055 32360 net.cpp:157] Top shape: 125 64 8 8 (512000)
I0821 08:27:51.761060 32360 net.cpp:165] Memory required for data: 1296897500
I0821 08:27:51.761065 32360 layer_factory.hpp:77] Creating layer L3_b3_cbr1_conv
I0821 08:27:51.761076 32360 net.cpp:100] Creating Layer L3_b3_cbr1_conv
I0821 08:27:51.761083 32360 net.cpp:434] L3_b3_cbr1_conv <- L3_b2_sum_eltwise_top_L3_b2_relu_0_split_0
I0821 08:27:51.761096 32360 net.cpp:408] L3_b3_cbr1_conv -> L3_b3_cbr1_conv_top
I0821 08:27:51.762120 32360 net.cpp:150] Setting up L3_b3_cbr1_conv
I0821 08:27:51.762135 32360 net.cpp:157] Top shape: 125 64 8 8 (512000)
I0821 08:27:51.762140 32360 net.cpp:165] Memory required for data: 1298945500
I0821 08:27:51.762150 32360 layer_factory.hpp:77] Creating layer L3_b3_cbr1_bn
I0821 08:27:51.762159 32360 net.cpp:100] Creating Layer L3_b3_cbr1_bn
I0821 08:27:51.762166 32360 net.cpp:434] L3_b3_cbr1_bn <- L3_b3_cbr1_conv_top
I0821 08:27:51.762176 32360 net.cpp:408] L3_b3_cbr1_bn -> L3_b3_cbr1_bn_top
I0821 08:27:51.762447 32360 net.cpp:150] Setting up L3_b3_cbr1_bn
I0821 08:27:51.762465 32360 net.cpp:157] Top shape: 125 64 8 8 (512000)
I0821 08:27:51.762470 32360 net.cpp:165] Memory required for data: 1300993500
I0821 08:27:51.762480 32360 layer_factory.hpp:77] Creating layer L3_b3_cbr1_scale
I0821 08:27:51.762490 32360 net.cpp:100] Creating Layer L3_b3_cbr1_scale
I0821 08:27:51.762496 32360 net.cpp:434] L3_b3_cbr1_scale <- L3_b3_cbr1_bn_top
I0821 08:27:51.762503 32360 net.cpp:395] L3_b3_cbr1_scale -> L3_b3_cbr1_bn_top (in-place)
I0821 08:27:51.762560 32360 layer_factory.hpp:77] Creating layer L3_b3_cbr1_scale
I0821 08:27:51.762715 32360 net.cpp:150] Setting up L3_b3_cbr1_scale
I0821 08:27:51.762727 32360 net.cpp:157] Top shape: 125 64 8 8 (512000)
I0821 08:27:51.762732 32360 net.cpp:165] Memory required for data: 1303041500
I0821 08:27:51.762742 32360 layer_factory.hpp:77] Creating layer L3_b3_cbr1_relu
I0821 08:27:51.762753 32360 net.cpp:100] Creating Layer L3_b3_cbr1_relu
I0821 08:27:51.762759 32360 net.cpp:434] L3_b3_cbr1_relu <- L3_b3_cbr1_bn_top
I0821 08:27:51.762766 32360 net.cpp:395] L3_b3_cbr1_relu -> L3_b3_cbr1_bn_top (in-place)
I0821 08:27:51.762776 32360 net.cpp:150] Setting up L3_b3_cbr1_relu
I0821 08:27:51.762784 32360 net.cpp:157] Top shape: 125 64 8 8 (512000)
I0821 08:27:51.762795 32360 net.cpp:165] Memory required for data: 1305089500
I0821 08:27:51.762800 32360 layer_factory.hpp:77] Creating layer L3_b3_cbr2_conv
I0821 08:27:51.762814 32360 net.cpp:100] Creating Layer L3_b3_cbr2_conv
I0821 08:27:51.762820 32360 net.cpp:434] L3_b3_cbr2_conv <- L3_b3_cbr1_bn_top
I0821 08:27:51.762830 32360 net.cpp:408] L3_b3_cbr2_conv -> L3_b3_cbr2_conv_top
I0821 08:27:51.763851 32360 net.cpp:150] Setting up L3_b3_cbr2_conv
I0821 08:27:51.763865 32360 net.cpp:157] Top shape: 125 64 8 8 (512000)
I0821 08:27:51.763871 32360 net.cpp:165] Memory required for data: 1307137500
I0821 08:27:51.763880 32360 layer_factory.hpp:77] Creating layer L3_b3_cbr2_bn
I0821 08:27:51.763892 32360 net.cpp:100] Creating Layer L3_b3_cbr2_bn
I0821 08:27:51.763900 32360 net.cpp:434] L3_b3_cbr2_bn <- L3_b3_cbr2_conv_top
I0821 08:27:51.763911 32360 net.cpp:408] L3_b3_cbr2_bn -> L3_b3_cbr2_bn_top
I0821 08:27:51.764176 32360 net.cpp:150] Setting up L3_b3_cbr2_bn
I0821 08:27:51.764189 32360 net.cpp:157] Top shape: 125 64 8 8 (512000)
I0821 08:27:51.764194 32360 net.cpp:165] Memory required for data: 1309185500
I0821 08:27:51.764204 32360 layer_factory.hpp:77] Creating layer L3_b3_cbr2_scale
I0821 08:27:51.764214 32360 net.cpp:100] Creating Layer L3_b3_cbr2_scale
I0821 08:27:51.764220 32360 net.cpp:434] L3_b3_cbr2_scale <- L3_b3_cbr2_bn_top
I0821 08:27:51.764230 32360 net.cpp:395] L3_b3_cbr2_scale -> L3_b3_cbr2_bn_top (in-place)
I0821 08:27:51.764295 32360 layer_factory.hpp:77] Creating layer L3_b3_cbr2_scale
I0821 08:27:51.764456 32360 net.cpp:150] Setting up L3_b3_cbr2_scale
I0821 08:27:51.764469 32360 net.cpp:157] Top shape: 125 64 8 8 (512000)
I0821 08:27:51.764474 32360 net.cpp:165] Memory required for data: 1311233500
I0821 08:27:51.764484 32360 layer_factory.hpp:77] Creating layer L3_b3_sum_eltwise
I0821 08:27:51.764493 32360 net.cpp:100] Creating Layer L3_b3_sum_eltwise
I0821 08:27:51.764500 32360 net.cpp:434] L3_b3_sum_eltwise <- L3_b3_cbr2_bn_top
I0821 08:27:51.764508 32360 net.cpp:434] L3_b3_sum_eltwise <- L3_b2_sum_eltwise_top_L3_b2_relu_0_split_1
I0821 08:27:51.764519 32360 net.cpp:408] L3_b3_sum_eltwise -> L3_b3_sum_eltwise_top
I0821 08:27:51.764555 32360 net.cpp:150] Setting up L3_b3_sum_eltwise
I0821 08:27:51.764567 32360 net.cpp:157] Top shape: 125 64 8 8 (512000)
I0821 08:27:51.764572 32360 net.cpp:165] Memory required for data: 1313281500
I0821 08:27:51.764577 32360 layer_factory.hpp:77] Creating layer L3_b3_relu
I0821 08:27:51.764586 32360 net.cpp:100] Creating Layer L3_b3_relu
I0821 08:27:51.764591 32360 net.cpp:434] L3_b3_relu <- L3_b3_sum_eltwise_top
I0821 08:27:51.764601 32360 net.cpp:395] L3_b3_relu -> L3_b3_sum_eltwise_top (in-place)
I0821 08:27:51.764611 32360 net.cpp:150] Setting up L3_b3_relu
I0821 08:27:51.764618 32360 net.cpp:157] Top shape: 125 64 8 8 (512000)
I0821 08:27:51.764623 32360 net.cpp:165] Memory required for data: 1315329500
I0821 08:27:51.764628 32360 layer_factory.hpp:77] Creating layer L3_b3_sum_eltwise_top_L3_b3_relu_0_split
I0821 08:27:51.764636 32360 net.cpp:100] Creating Layer L3_b3_sum_eltwise_top_L3_b3_relu_0_split
I0821 08:27:51.764641 32360 net.cpp:434] L3_b3_sum_eltwise_top_L3_b3_relu_0_split <- L3_b3_sum_eltwise_top
I0821 08:27:51.764648 32360 net.cpp:408] L3_b3_sum_eltwise_top_L3_b3_relu_0_split -> L3_b3_sum_eltwise_top_L3_b3_relu_0_split_0
I0821 08:27:51.764657 32360 net.cpp:408] L3_b3_sum_eltwise_top_L3_b3_relu_0_split -> L3_b3_sum_eltwise_top_L3_b3_relu_0_split_1
I0821 08:27:51.764706 32360 net.cpp:150] Setting up L3_b3_sum_eltwise_top_L3_b3_relu_0_split
I0821 08:27:51.764719 32360 net.cpp:157] Top shape: 125 64 8 8 (512000)
I0821 08:27:51.764724 32360 net.cpp:157] Top shape: 125 64 8 8 (512000)
I0821 08:27:51.764729 32360 net.cpp:165] Memory required for data: 1319425500
I0821 08:27:51.764734 32360 layer_factory.hpp:77] Creating layer L3_b4_cbr1_conv
I0821 08:27:51.764745 32360 net.cpp:100] Creating Layer L3_b4_cbr1_conv
I0821 08:27:51.764752 32360 net.cpp:434] L3_b4_cbr1_conv <- L3_b3_sum_eltwise_top_L3_b3_relu_0_split_0
I0821 08:27:51.764763 32360 net.cpp:408] L3_b4_cbr1_conv -> L3_b4_cbr1_conv_top
I0821 08:27:51.765810 32360 net.cpp:150] Setting up L3_b4_cbr1_conv
I0821 08:27:51.765826 32360 net.cpp:157] Top shape: 125 64 8 8 (512000)
I0821 08:27:51.765831 32360 net.cpp:165] Memory required for data: 1321473500
I0821 08:27:51.765841 32360 layer_factory.hpp:77] Creating layer L3_b4_cbr1_bn
I0821 08:27:51.765851 32360 net.cpp:100] Creating Layer L3_b4_cbr1_bn
I0821 08:27:51.765857 32360 net.cpp:434] L3_b4_cbr1_bn <- L3_b4_cbr1_conv_top
I0821 08:27:51.765868 32360 net.cpp:408] L3_b4_cbr1_bn -> L3_b4_cbr1_bn_top
I0821 08:27:51.766139 32360 net.cpp:150] Setting up L3_b4_cbr1_bn
I0821 08:27:51.766155 32360 net.cpp:157] Top shape: 125 64 8 8 (512000)
I0821 08:27:51.766160 32360 net.cpp:165] Memory required for data: 1323521500
I0821 08:27:51.766171 32360 layer_factory.hpp:77] Creating layer L3_b4_cbr1_scale
I0821 08:27:51.766180 32360 net.cpp:100] Creating Layer L3_b4_cbr1_scale
I0821 08:27:51.766186 32360 net.cpp:434] L3_b4_cbr1_scale <- L3_b4_cbr1_bn_top
I0821 08:27:51.766194 32360 net.cpp:395] L3_b4_cbr1_scale -> L3_b4_cbr1_bn_top (in-place)
I0821 08:27:51.766252 32360 layer_factory.hpp:77] Creating layer L3_b4_cbr1_scale
I0821 08:27:51.766418 32360 net.cpp:150] Setting up L3_b4_cbr1_scale
I0821 08:27:51.766433 32360 net.cpp:157] Top shape: 125 64 8 8 (512000)
I0821 08:27:51.766438 32360 net.cpp:165] Memory required for data: 1325569500
I0821 08:27:51.766446 32360 layer_factory.hpp:77] Creating layer L3_b4_cbr1_relu
I0821 08:27:51.766458 32360 net.cpp:100] Creating Layer L3_b4_cbr1_relu
I0821 08:27:51.766463 32360 net.cpp:434] L3_b4_cbr1_relu <- L3_b4_cbr1_bn_top
I0821 08:27:51.766471 32360 net.cpp:395] L3_b4_cbr1_relu -> L3_b4_cbr1_bn_top (in-place)
I0821 08:27:51.766481 32360 net.cpp:150] Setting up L3_b4_cbr1_relu
I0821 08:27:51.766489 32360 net.cpp:157] Top shape: 125 64 8 8 (512000)
I0821 08:27:51.766494 32360 net.cpp:165] Memory required for data: 1327617500
I0821 08:27:51.766499 32360 layer_factory.hpp:77] Creating layer L3_b4_cbr2_conv
I0821 08:27:51.766511 32360 net.cpp:100] Creating Layer L3_b4_cbr2_conv
I0821 08:27:51.766517 32360 net.cpp:434] L3_b4_cbr2_conv <- L3_b4_cbr1_bn_top
I0821 08:27:51.766526 32360 net.cpp:408] L3_b4_cbr2_conv -> L3_b4_cbr2_conv_top
I0821 08:27:51.767556 32360 net.cpp:150] Setting up L3_b4_cbr2_conv
I0821 08:27:51.767570 32360 net.cpp:157] Top shape: 125 64 8 8 (512000)
I0821 08:27:51.767575 32360 net.cpp:165] Memory required for data: 1329665500
I0821 08:27:51.767585 32360 layer_factory.hpp:77] Creating layer L3_b4_cbr2_bn
I0821 08:27:51.767599 32360 net.cpp:100] Creating Layer L3_b4_cbr2_bn
I0821 08:27:51.767606 32360 net.cpp:434] L3_b4_cbr2_bn <- L3_b4_cbr2_conv_top
I0821 08:27:51.767617 32360 net.cpp:408] L3_b4_cbr2_bn -> L3_b4_cbr2_bn_top
I0821 08:27:51.767886 32360 net.cpp:150] Setting up L3_b4_cbr2_bn
I0821 08:27:51.767899 32360 net.cpp:157] Top shape: 125 64 8 8 (512000)
I0821 08:27:51.767904 32360 net.cpp:165] Memory required for data: 1331713500
I0821 08:27:51.767915 32360 layer_factory.hpp:77] Creating layer L3_b4_cbr2_scale
I0821 08:27:51.767925 32360 net.cpp:100] Creating Layer L3_b4_cbr2_scale
I0821 08:27:51.767930 32360 net.cpp:434] L3_b4_cbr2_scale <- L3_b4_cbr2_bn_top
I0821 08:27:51.767941 32360 net.cpp:395] L3_b4_cbr2_scale -> L3_b4_cbr2_bn_top (in-place)
I0821 08:27:51.768000 32360 layer_factory.hpp:77] Creating layer L3_b4_cbr2_scale
I0821 08:27:51.768163 32360 net.cpp:150] Setting up L3_b4_cbr2_scale
I0821 08:27:51.768177 32360 net.cpp:157] Top shape: 125 64 8 8 (512000)
I0821 08:27:51.768180 32360 net.cpp:165] Memory required for data: 1333761500
I0821 08:27:51.768190 32360 layer_factory.hpp:77] Creating layer L3_b4_sum_eltwise
I0821 08:27:51.768199 32360 net.cpp:100] Creating Layer L3_b4_sum_eltwise
I0821 08:27:51.768205 32360 net.cpp:434] L3_b4_sum_eltwise <- L3_b4_cbr2_bn_top
I0821 08:27:51.768215 32360 net.cpp:434] L3_b4_sum_eltwise <- L3_b3_sum_eltwise_top_L3_b3_relu_0_split_1
I0821 08:27:51.768224 32360 net.cpp:408] L3_b4_sum_eltwise -> L3_b4_sum_eltwise_top
I0821 08:27:51.768267 32360 net.cpp:150] Setting up L3_b4_sum_eltwise
I0821 08:27:51.768285 32360 net.cpp:157] Top shape: 125 64 8 8 (512000)
I0821 08:27:51.768290 32360 net.cpp:165] Memory required for data: 1335809500
I0821 08:27:51.768296 32360 layer_factory.hpp:77] Creating layer L3_b4_relu
I0821 08:27:51.768304 32360 net.cpp:100] Creating Layer L3_b4_relu
I0821 08:27:51.768311 32360 net.cpp:434] L3_b4_relu <- L3_b4_sum_eltwise_top
I0821 08:27:51.768321 32360 net.cpp:395] L3_b4_relu -> L3_b4_sum_eltwise_top (in-place)
I0821 08:27:51.768331 32360 net.cpp:150] Setting up L3_b4_relu
I0821 08:27:51.768337 32360 net.cpp:157] Top shape: 125 64 8 8 (512000)
I0821 08:27:51.768342 32360 net.cpp:165] Memory required for data: 1337857500
I0821 08:27:51.768347 32360 layer_factory.hpp:77] Creating layer L3_b4_sum_eltwise_top_L3_b4_relu_0_split
I0821 08:27:51.768354 32360 net.cpp:100] Creating Layer L3_b4_sum_eltwise_top_L3_b4_relu_0_split
I0821 08:27:51.768359 32360 net.cpp:434] L3_b4_sum_eltwise_top_L3_b4_relu_0_split <- L3_b4_sum_eltwise_top
I0821 08:27:51.768366 32360 net.cpp:408] L3_b4_sum_eltwise_top_L3_b4_relu_0_split -> L3_b4_sum_eltwise_top_L3_b4_relu_0_split_0
I0821 08:27:51.768376 32360 net.cpp:408] L3_b4_sum_eltwise_top_L3_b4_relu_0_split -> L3_b4_sum_eltwise_top_L3_b4_relu_0_split_1
I0821 08:27:51.768429 32360 net.cpp:150] Setting up L3_b4_sum_eltwise_top_L3_b4_relu_0_split
I0821 08:27:51.768440 32360 net.cpp:157] Top shape: 125 64 8 8 (512000)
I0821 08:27:51.768447 32360 net.cpp:157] Top shape: 125 64 8 8 (512000)
I0821 08:27:51.768452 32360 net.cpp:165] Memory required for data: 1341953500
I0821 08:27:51.768457 32360 layer_factory.hpp:77] Creating layer L3_b5_cbr1_conv
I0821 08:27:51.768468 32360 net.cpp:100] Creating Layer L3_b5_cbr1_conv
I0821 08:27:51.768476 32360 net.cpp:434] L3_b5_cbr1_conv <- L3_b4_sum_eltwise_top_L3_b4_relu_0_split_0
I0821 08:27:51.768486 32360 net.cpp:408] L3_b5_cbr1_conv -> L3_b5_cbr1_conv_top
I0821 08:27:51.769521 32360 net.cpp:150] Setting up L3_b5_cbr1_conv
I0821 08:27:51.769536 32360 net.cpp:157] Top shape: 125 64 8 8 (512000)
I0821 08:27:51.769541 32360 net.cpp:165] Memory required for data: 1344001500
I0821 08:27:51.769551 32360 layer_factory.hpp:77] Creating layer L3_b5_cbr1_bn
I0821 08:27:51.769559 32360 net.cpp:100] Creating Layer L3_b5_cbr1_bn
I0821 08:27:51.769567 32360 net.cpp:434] L3_b5_cbr1_bn <- L3_b5_cbr1_conv_top
I0821 08:27:51.769577 32360 net.cpp:408] L3_b5_cbr1_bn -> L3_b5_cbr1_bn_top
I0821 08:27:51.770812 32360 net.cpp:150] Setting up L3_b5_cbr1_bn
I0821 08:27:51.770829 32360 net.cpp:157] Top shape: 125 64 8 8 (512000)
I0821 08:27:51.770835 32360 net.cpp:165] Memory required for data: 1346049500
I0821 08:27:51.770846 32360 layer_factory.hpp:77] Creating layer L3_b5_cbr1_scale
I0821 08:27:51.770856 32360 net.cpp:100] Creating Layer L3_b5_cbr1_scale
I0821 08:27:51.770862 32360 net.cpp:434] L3_b5_cbr1_scale <- L3_b5_cbr1_bn_top
I0821 08:27:51.770874 32360 net.cpp:395] L3_b5_cbr1_scale -> L3_b5_cbr1_bn_top (in-place)
I0821 08:27:51.770936 32360 layer_factory.hpp:77] Creating layer L3_b5_cbr1_scale
I0821 08:27:51.771097 32360 net.cpp:150] Setting up L3_b5_cbr1_scale
I0821 08:27:51.771111 32360 net.cpp:157] Top shape: 125 64 8 8 (512000)
I0821 08:27:51.771116 32360 net.cpp:165] Memory required for data: 1348097500
I0821 08:27:51.771126 32360 layer_factory.hpp:77] Creating layer L3_b5_cbr1_relu
I0821 08:27:51.771134 32360 net.cpp:100] Creating Layer L3_b5_cbr1_relu
I0821 08:27:51.771140 32360 net.cpp:434] L3_b5_cbr1_relu <- L3_b5_cbr1_bn_top
I0821 08:27:51.771152 32360 net.cpp:395] L3_b5_cbr1_relu -> L3_b5_cbr1_bn_top (in-place)
I0821 08:27:51.771162 32360 net.cpp:150] Setting up L3_b5_cbr1_relu
I0821 08:27:51.771169 32360 net.cpp:157] Top shape: 125 64 8 8 (512000)
I0821 08:27:51.771173 32360 net.cpp:165] Memory required for data: 1350145500
I0821 08:27:51.771178 32360 layer_factory.hpp:77] Creating layer L3_b5_cbr2_conv
I0821 08:27:51.771193 32360 net.cpp:100] Creating Layer L3_b5_cbr2_conv
I0821 08:27:51.771199 32360 net.cpp:434] L3_b5_cbr2_conv <- L3_b5_cbr1_bn_top
I0821 08:27:51.771208 32360 net.cpp:408] L3_b5_cbr2_conv -> L3_b5_cbr2_conv_top
I0821 08:27:51.773233 32360 net.cpp:150] Setting up L3_b5_cbr2_conv
I0821 08:27:51.773252 32360 net.cpp:157] Top shape: 125 64 8 8 (512000)
I0821 08:27:51.773257 32360 net.cpp:165] Memory required for data: 1352193500
I0821 08:27:51.773273 32360 layer_factory.hpp:77] Creating layer L3_b5_cbr2_bn
I0821 08:27:51.773288 32360 net.cpp:100] Creating Layer L3_b5_cbr2_bn
I0821 08:27:51.773294 32360 net.cpp:434] L3_b5_cbr2_bn <- L3_b5_cbr2_conv_top
I0821 08:27:51.773305 32360 net.cpp:408] L3_b5_cbr2_bn -> L3_b5_cbr2_bn_top
I0821 08:27:51.773566 32360 net.cpp:150] Setting up L3_b5_cbr2_bn
I0821 08:27:51.773578 32360 net.cpp:157] Top shape: 125 64 8 8 (512000)
I0821 08:27:51.773583 32360 net.cpp:165] Memory required for data: 1354241500
I0821 08:27:51.773594 32360 layer_factory.hpp:77] Creating layer L3_b5_cbr2_scale
I0821 08:27:51.773603 32360 net.cpp:100] Creating Layer L3_b5_cbr2_scale
I0821 08:27:51.773609 32360 net.cpp:434] L3_b5_cbr2_scale <- L3_b5_cbr2_bn_top
I0821 08:27:51.773620 32360 net.cpp:395] L3_b5_cbr2_scale -> L3_b5_cbr2_bn_top (in-place)
I0821 08:27:51.773677 32360 layer_factory.hpp:77] Creating layer L3_b5_cbr2_scale
I0821 08:27:51.773830 32360 net.cpp:150] Setting up L3_b5_cbr2_scale
I0821 08:27:51.773844 32360 net.cpp:157] Top shape: 125 64 8 8 (512000)
I0821 08:27:51.773849 32360 net.cpp:165] Memory required for data: 1356289500
I0821 08:27:51.773857 32360 layer_factory.hpp:77] Creating layer L3_b5_sum_eltwise
I0821 08:27:51.773867 32360 net.cpp:100] Creating Layer L3_b5_sum_eltwise
I0821 08:27:51.773874 32360 net.cpp:434] L3_b5_sum_eltwise <- L3_b5_cbr2_bn_top
I0821 08:27:51.773880 32360 net.cpp:434] L3_b5_sum_eltwise <- L3_b4_sum_eltwise_top_L3_b4_relu_0_split_1
I0821 08:27:51.773891 32360 net.cpp:408] L3_b5_sum_eltwise -> L3_b5_sum_eltwise_top
I0821 08:27:51.773927 32360 net.cpp:150] Setting up L3_b5_sum_eltwise
I0821 08:27:51.773936 32360 net.cpp:157] Top shape: 125 64 8 8 (512000)
I0821 08:27:51.773941 32360 net.cpp:165] Memory required for data: 1358337500
I0821 08:27:51.773947 32360 layer_factory.hpp:77] Creating layer L3_b5_relu
I0821 08:27:51.773954 32360 net.cpp:100] Creating Layer L3_b5_relu
I0821 08:27:51.773960 32360 net.cpp:434] L3_b5_relu <- L3_b5_sum_eltwise_top
I0821 08:27:51.773970 32360 net.cpp:395] L3_b5_relu -> L3_b5_sum_eltwise_top (in-place)
I0821 08:27:51.773980 32360 net.cpp:150] Setting up L3_b5_relu
I0821 08:27:51.773988 32360 net.cpp:157] Top shape: 125 64 8 8 (512000)
I0821 08:27:51.773993 32360 net.cpp:165] Memory required for data: 1360385500
I0821 08:27:51.773996 32360 layer_factory.hpp:77] Creating layer L3_b5_sum_eltwise_top_L3_b5_relu_0_split
I0821 08:27:51.774003 32360 net.cpp:100] Creating Layer L3_b5_sum_eltwise_top_L3_b5_relu_0_split
I0821 08:27:51.774009 32360 net.cpp:434] L3_b5_sum_eltwise_top_L3_b5_relu_0_split <- L3_b5_sum_eltwise_top
I0821 08:27:51.774016 32360 net.cpp:408] L3_b5_sum_eltwise_top_L3_b5_relu_0_split -> L3_b5_sum_eltwise_top_L3_b5_relu_0_split_0
I0821 08:27:51.774026 32360 net.cpp:408] L3_b5_sum_eltwise_top_L3_b5_relu_0_split -> L3_b5_sum_eltwise_top_L3_b5_relu_0_split_1
I0821 08:27:51.774073 32360 net.cpp:150] Setting up L3_b5_sum_eltwise_top_L3_b5_relu_0_split
I0821 08:27:51.774085 32360 net.cpp:157] Top shape: 125 64 8 8 (512000)
I0821 08:27:51.774092 32360 net.cpp:157] Top shape: 125 64 8 8 (512000)
I0821 08:27:51.774096 32360 net.cpp:165] Memory required for data: 1364481500
I0821 08:27:51.774101 32360 layer_factory.hpp:77] Creating layer L3_b6_cbr1_conv
I0821 08:27:51.774113 32360 net.cpp:100] Creating Layer L3_b6_cbr1_conv
I0821 08:27:51.774119 32360 net.cpp:434] L3_b6_cbr1_conv <- L3_b5_sum_eltwise_top_L3_b5_relu_0_split_0
I0821 08:27:51.774132 32360 net.cpp:408] L3_b6_cbr1_conv -> L3_b6_cbr1_conv_top
I0821 08:27:51.775152 32360 net.cpp:150] Setting up L3_b6_cbr1_conv
I0821 08:27:51.775167 32360 net.cpp:157] Top shape: 125 64 8 8 (512000)
I0821 08:27:51.775172 32360 net.cpp:165] Memory required for data: 1366529500
I0821 08:27:51.775182 32360 layer_factory.hpp:77] Creating layer L3_b6_cbr1_bn
I0821 08:27:51.775190 32360 net.cpp:100] Creating Layer L3_b6_cbr1_bn
I0821 08:27:51.775204 32360 net.cpp:434] L3_b6_cbr1_bn <- L3_b6_cbr1_conv_top
I0821 08:27:51.775218 32360 net.cpp:408] L3_b6_cbr1_bn -> L3_b6_cbr1_bn_top
I0821 08:27:51.775486 32360 net.cpp:150] Setting up L3_b6_cbr1_bn
I0821 08:27:51.775501 32360 net.cpp:157] Top shape: 125 64 8 8 (512000)
I0821 08:27:51.775506 32360 net.cpp:165] Memory required for data: 1368577500
I0821 08:27:51.775516 32360 layer_factory.hpp:77] Creating layer L3_b6_cbr1_scale
I0821 08:27:51.775524 32360 net.cpp:100] Creating Layer L3_b6_cbr1_scale
I0821 08:27:51.775532 32360 net.cpp:434] L3_b6_cbr1_scale <- L3_b6_cbr1_bn_top
I0821 08:27:51.775538 32360 net.cpp:395] L3_b6_cbr1_scale -> L3_b6_cbr1_bn_top (in-place)
I0821 08:27:51.775598 32360 layer_factory.hpp:77] Creating layer L3_b6_cbr1_scale
I0821 08:27:51.775749 32360 net.cpp:150] Setting up L3_b6_cbr1_scale
I0821 08:27:51.775763 32360 net.cpp:157] Top shape: 125 64 8 8 (512000)
I0821 08:27:51.775768 32360 net.cpp:165] Memory required for data: 1370625500
I0821 08:27:51.775776 32360 layer_factory.hpp:77] Creating layer L3_b6_cbr1_relu
I0821 08:27:51.775787 32360 net.cpp:100] Creating Layer L3_b6_cbr1_relu
I0821 08:27:51.775794 32360 net.cpp:434] L3_b6_cbr1_relu <- L3_b6_cbr1_bn_top
I0821 08:27:51.775801 32360 net.cpp:395] L3_b6_cbr1_relu -> L3_b6_cbr1_bn_top (in-place)
I0821 08:27:51.775811 32360 net.cpp:150] Setting up L3_b6_cbr1_relu
I0821 08:27:51.775820 32360 net.cpp:157] Top shape: 125 64 8 8 (512000)
I0821 08:27:51.775823 32360 net.cpp:165] Memory required for data: 1372673500
I0821 08:27:51.775828 32360 layer_factory.hpp:77] Creating layer L3_b6_cbr2_conv
I0821 08:27:51.775842 32360 net.cpp:100] Creating Layer L3_b6_cbr2_conv
I0821 08:27:51.775848 32360 net.cpp:434] L3_b6_cbr2_conv <- L3_b6_cbr1_bn_top
I0821 08:27:51.775857 32360 net.cpp:408] L3_b6_cbr2_conv -> L3_b6_cbr2_conv_top
I0821 08:27:51.776868 32360 net.cpp:150] Setting up L3_b6_cbr2_conv
I0821 08:27:51.776883 32360 net.cpp:157] Top shape: 125 64 8 8 (512000)
I0821 08:27:51.776888 32360 net.cpp:165] Memory required for data: 1374721500
I0821 08:27:51.776897 32360 layer_factory.hpp:77] Creating layer L3_b6_cbr2_bn
I0821 08:27:51.776909 32360 net.cpp:100] Creating Layer L3_b6_cbr2_bn
I0821 08:27:51.776916 32360 net.cpp:434] L3_b6_cbr2_bn <- L3_b6_cbr2_conv_top
I0821 08:27:51.776927 32360 net.cpp:408] L3_b6_cbr2_bn -> L3_b6_cbr2_bn_top
I0821 08:27:51.777186 32360 net.cpp:150] Setting up L3_b6_cbr2_bn
I0821 08:27:51.777200 32360 net.cpp:157] Top shape: 125 64 8 8 (512000)
I0821 08:27:51.777205 32360 net.cpp:165] Memory required for data: 1376769500
I0821 08:27:51.777215 32360 layer_factory.hpp:77] Creating layer L3_b6_cbr2_scale
I0821 08:27:51.777225 32360 net.cpp:100] Creating Layer L3_b6_cbr2_scale
I0821 08:27:51.777230 32360 net.cpp:434] L3_b6_cbr2_scale <- L3_b6_cbr2_bn_top
I0821 08:27:51.777241 32360 net.cpp:395] L3_b6_cbr2_scale -> L3_b6_cbr2_bn_top (in-place)
I0821 08:27:51.777304 32360 layer_factory.hpp:77] Creating layer L3_b6_cbr2_scale
I0821 08:27:51.777463 32360 net.cpp:150] Setting up L3_b6_cbr2_scale
I0821 08:27:51.777477 32360 net.cpp:157] Top shape: 125 64 8 8 (512000)
I0821 08:27:51.777482 32360 net.cpp:165] Memory required for data: 1378817500
I0821 08:27:51.777490 32360 layer_factory.hpp:77] Creating layer L3_b6_sum_eltwise
I0821 08:27:51.777503 32360 net.cpp:100] Creating Layer L3_b6_sum_eltwise
I0821 08:27:51.777509 32360 net.cpp:434] L3_b6_sum_eltwise <- L3_b6_cbr2_bn_top
I0821 08:27:51.777516 32360 net.cpp:434] L3_b6_sum_eltwise <- L3_b5_sum_eltwise_top_L3_b5_relu_0_split_1
I0821 08:27:51.777524 32360 net.cpp:408] L3_b6_sum_eltwise -> L3_b6_sum_eltwise_top
I0821 08:27:51.777559 32360 net.cpp:150] Setting up L3_b6_sum_eltwise
I0821 08:27:51.777570 32360 net.cpp:157] Top shape: 125 64 8 8 (512000)
I0821 08:27:51.777573 32360 net.cpp:165] Memory required for data: 1380865500
I0821 08:27:51.777580 32360 layer_factory.hpp:77] Creating layer L3_b6_relu
I0821 08:27:51.777587 32360 net.cpp:100] Creating Layer L3_b6_relu
I0821 08:27:51.777593 32360 net.cpp:434] L3_b6_relu <- L3_b6_sum_eltwise_top
I0821 08:27:51.777609 32360 net.cpp:395] L3_b6_relu -> L3_b6_sum_eltwise_top (in-place)
I0821 08:27:51.777621 32360 net.cpp:150] Setting up L3_b6_relu
I0821 08:27:51.777627 32360 net.cpp:157] Top shape: 125 64 8 8 (512000)
I0821 08:27:51.777632 32360 net.cpp:165] Memory required for data: 1382913500
I0821 08:27:51.777637 32360 layer_factory.hpp:77] Creating layer L3_b6_sum_eltwise_top_L3_b6_relu_0_split
I0821 08:27:51.777644 32360 net.cpp:100] Creating Layer L3_b6_sum_eltwise_top_L3_b6_relu_0_split
I0821 08:27:51.777649 32360 net.cpp:434] L3_b6_sum_eltwise_top_L3_b6_relu_0_split <- L3_b6_sum_eltwise_top
I0821 08:27:51.777657 32360 net.cpp:408] L3_b6_sum_eltwise_top_L3_b6_relu_0_split -> L3_b6_sum_eltwise_top_L3_b6_relu_0_split_0
I0821 08:27:51.777667 32360 net.cpp:408] L3_b6_sum_eltwise_top_L3_b6_relu_0_split -> L3_b6_sum_eltwise_top_L3_b6_relu_0_split_1
I0821 08:27:51.777715 32360 net.cpp:150] Setting up L3_b6_sum_eltwise_top_L3_b6_relu_0_split
I0821 08:27:51.777727 32360 net.cpp:157] Top shape: 125 64 8 8 (512000)
I0821 08:27:51.777734 32360 net.cpp:157] Top shape: 125 64 8 8 (512000)
I0821 08:27:51.777739 32360 net.cpp:165] Memory required for data: 1387009500
I0821 08:27:51.777743 32360 layer_factory.hpp:77] Creating layer L3_b7_cbr1_conv
I0821 08:27:51.777755 32360 net.cpp:100] Creating Layer L3_b7_cbr1_conv
I0821 08:27:51.777761 32360 net.cpp:434] L3_b7_cbr1_conv <- L3_b6_sum_eltwise_top_L3_b6_relu_0_split_0
I0821 08:27:51.777773 32360 net.cpp:408] L3_b7_cbr1_conv -> L3_b7_cbr1_conv_top
I0821 08:27:51.778823 32360 net.cpp:150] Setting up L3_b7_cbr1_conv
I0821 08:27:51.778839 32360 net.cpp:157] Top shape: 125 64 8 8 (512000)
I0821 08:27:51.778844 32360 net.cpp:165] Memory required for data: 1389057500
I0821 08:27:51.778853 32360 layer_factory.hpp:77] Creating layer L3_b7_cbr1_bn
I0821 08:27:51.778863 32360 net.cpp:100] Creating Layer L3_b7_cbr1_bn
I0821 08:27:51.778870 32360 net.cpp:434] L3_b7_cbr1_bn <- L3_b7_cbr1_conv_top
I0821 08:27:51.778882 32360 net.cpp:408] L3_b7_cbr1_bn -> L3_b7_cbr1_bn_top
I0821 08:27:51.779145 32360 net.cpp:150] Setting up L3_b7_cbr1_bn
I0821 08:27:51.779157 32360 net.cpp:157] Top shape: 125 64 8 8 (512000)
I0821 08:27:51.779162 32360 net.cpp:165] Memory required for data: 1391105500
I0821 08:27:51.779173 32360 layer_factory.hpp:77] Creating layer L3_b7_cbr1_scale
I0821 08:27:51.779183 32360 net.cpp:100] Creating Layer L3_b7_cbr1_scale
I0821 08:27:51.779189 32360 net.cpp:434] L3_b7_cbr1_scale <- L3_b7_cbr1_bn_top
I0821 08:27:51.779197 32360 net.cpp:395] L3_b7_cbr1_scale -> L3_b7_cbr1_bn_top (in-place)
I0821 08:27:51.779256 32360 layer_factory.hpp:77] Creating layer L3_b7_cbr1_scale
I0821 08:27:51.779422 32360 net.cpp:150] Setting up L3_b7_cbr1_scale
I0821 08:27:51.779438 32360 net.cpp:157] Top shape: 125 64 8 8 (512000)
I0821 08:27:51.779443 32360 net.cpp:165] Memory required for data: 1393153500
I0821 08:27:51.779453 32360 layer_factory.hpp:77] Creating layer L3_b7_cbr1_relu
I0821 08:27:51.779485 32360 net.cpp:100] Creating Layer L3_b7_cbr1_relu
I0821 08:27:51.779495 32360 net.cpp:434] L3_b7_cbr1_relu <- L3_b7_cbr1_bn_top
I0821 08:27:51.779502 32360 net.cpp:395] L3_b7_cbr1_relu -> L3_b7_cbr1_bn_top (in-place)
I0821 08:27:51.779513 32360 net.cpp:150] Setting up L3_b7_cbr1_relu
I0821 08:27:51.779521 32360 net.cpp:157] Top shape: 125 64 8 8 (512000)
I0821 08:27:51.779525 32360 net.cpp:165] Memory required for data: 1395201500
I0821 08:27:51.779531 32360 layer_factory.hpp:77] Creating layer L3_b7_cbr2_conv
I0821 08:27:51.779546 32360 net.cpp:100] Creating Layer L3_b7_cbr2_conv
I0821 08:27:51.779552 32360 net.cpp:434] L3_b7_cbr2_conv <- L3_b7_cbr1_bn_top
I0821 08:27:51.779561 32360 net.cpp:408] L3_b7_cbr2_conv -> L3_b7_cbr2_conv_top
I0821 08:27:51.780586 32360 net.cpp:150] Setting up L3_b7_cbr2_conv
I0821 08:27:51.780601 32360 net.cpp:157] Top shape: 125 64 8 8 (512000)
I0821 08:27:51.780606 32360 net.cpp:165] Memory required for data: 1397249500
I0821 08:27:51.780616 32360 layer_factory.hpp:77] Creating layer L3_b7_cbr2_bn
I0821 08:27:51.780627 32360 net.cpp:100] Creating Layer L3_b7_cbr2_bn
I0821 08:27:51.780639 32360 net.cpp:434] L3_b7_cbr2_bn <- L3_b7_cbr2_conv_top
I0821 08:27:51.780652 32360 net.cpp:408] L3_b7_cbr2_bn -> L3_b7_cbr2_bn_top
I0821 08:27:51.780917 32360 net.cpp:150] Setting up L3_b7_cbr2_bn
I0821 08:27:51.780933 32360 net.cpp:157] Top shape: 125 64 8 8 (512000)
I0821 08:27:51.780938 32360 net.cpp:165] Memory required for data: 1399297500
I0821 08:27:51.780949 32360 layer_factory.hpp:77] Creating layer L3_b7_cbr2_scale
I0821 08:27:51.780958 32360 net.cpp:100] Creating Layer L3_b7_cbr2_scale
I0821 08:27:51.780964 32360 net.cpp:434] L3_b7_cbr2_scale <- L3_b7_cbr2_bn_top
I0821 08:27:51.780972 32360 net.cpp:395] L3_b7_cbr2_scale -> L3_b7_cbr2_bn_top (in-place)
I0821 08:27:51.781029 32360 layer_factory.hpp:77] Creating layer L3_b7_cbr2_scale
I0821 08:27:51.781183 32360 net.cpp:150] Setting up L3_b7_cbr2_scale
I0821 08:27:51.781195 32360 net.cpp:157] Top shape: 125 64 8 8 (512000)
I0821 08:27:51.781200 32360 net.cpp:165] Memory required for data: 1401345500
I0821 08:27:51.781209 32360 layer_factory.hpp:77] Creating layer L3_b7_sum_eltwise
I0821 08:27:51.781221 32360 net.cpp:100] Creating Layer L3_b7_sum_eltwise
I0821 08:27:51.781227 32360 net.cpp:434] L3_b7_sum_eltwise <- L3_b7_cbr2_bn_top
I0821 08:27:51.781234 32360 net.cpp:434] L3_b7_sum_eltwise <- L3_b6_sum_eltwise_top_L3_b6_relu_0_split_1
I0821 08:27:51.781242 32360 net.cpp:408] L3_b7_sum_eltwise -> L3_b7_sum_eltwise_top
I0821 08:27:51.781286 32360 net.cpp:150] Setting up L3_b7_sum_eltwise
I0821 08:27:51.781297 32360 net.cpp:157] Top shape: 125 64 8 8 (512000)
I0821 08:27:51.781301 32360 net.cpp:165] Memory required for data: 1403393500
I0821 08:27:51.781307 32360 layer_factory.hpp:77] Creating layer L3_b7_relu
I0821 08:27:51.781316 32360 net.cpp:100] Creating Layer L3_b7_relu
I0821 08:27:51.781322 32360 net.cpp:434] L3_b7_relu <- L3_b7_sum_eltwise_top
I0821 08:27:51.781328 32360 net.cpp:395] L3_b7_relu -> L3_b7_sum_eltwise_top (in-place)
I0821 08:27:51.781338 32360 net.cpp:150] Setting up L3_b7_relu
I0821 08:27:51.781345 32360 net.cpp:157] Top shape: 125 64 8 8 (512000)
I0821 08:27:51.781349 32360 net.cpp:165] Memory required for data: 1405441500
I0821 08:27:51.781354 32360 layer_factory.hpp:77] Creating layer L3_b7_sum_eltwise_top_L3_b7_relu_0_split
I0821 08:27:51.781361 32360 net.cpp:100] Creating Layer L3_b7_sum_eltwise_top_L3_b7_relu_0_split
I0821 08:27:51.781366 32360 net.cpp:434] L3_b7_sum_eltwise_top_L3_b7_relu_0_split <- L3_b7_sum_eltwise_top
I0821 08:27:51.781376 32360 net.cpp:408] L3_b7_sum_eltwise_top_L3_b7_relu_0_split -> L3_b7_sum_eltwise_top_L3_b7_relu_0_split_0
I0821 08:27:51.781388 32360 net.cpp:408] L3_b7_sum_eltwise_top_L3_b7_relu_0_split -> L3_b7_sum_eltwise_top_L3_b7_relu_0_split_1
I0821 08:27:51.781433 32360 net.cpp:150] Setting up L3_b7_sum_eltwise_top_L3_b7_relu_0_split
I0821 08:27:51.781445 32360 net.cpp:157] Top shape: 125 64 8 8 (512000)
I0821 08:27:51.781450 32360 net.cpp:157] Top shape: 125 64 8 8 (512000)
I0821 08:27:51.781455 32360 net.cpp:165] Memory required for data: 1409537500
I0821 08:27:51.781461 32360 layer_factory.hpp:77] Creating layer L3_b8_cbr1_conv
I0821 08:27:51.781477 32360 net.cpp:100] Creating Layer L3_b8_cbr1_conv
I0821 08:27:51.781484 32360 net.cpp:434] L3_b8_cbr1_conv <- L3_b7_sum_eltwise_top_L3_b7_relu_0_split_0
I0821 08:27:51.781493 32360 net.cpp:408] L3_b8_cbr1_conv -> L3_b8_cbr1_conv_top
I0821 08:27:51.782506 32360 net.cpp:150] Setting up L3_b8_cbr1_conv
I0821 08:27:51.782521 32360 net.cpp:157] Top shape: 125 64 8 8 (512000)
I0821 08:27:51.782526 32360 net.cpp:165] Memory required for data: 1411585500
I0821 08:27:51.782536 32360 layer_factory.hpp:77] Creating layer L3_b8_cbr1_bn
I0821 08:27:51.782547 32360 net.cpp:100] Creating Layer L3_b8_cbr1_bn
I0821 08:27:51.782553 32360 net.cpp:434] L3_b8_cbr1_bn <- L3_b8_cbr1_conv_top
I0821 08:27:51.782562 32360 net.cpp:408] L3_b8_cbr1_bn -> L3_b8_cbr1_bn_top
I0821 08:27:51.782824 32360 net.cpp:150] Setting up L3_b8_cbr1_bn
I0821 08:27:51.782836 32360 net.cpp:157] Top shape: 125 64 8 8 (512000)
I0821 08:27:51.782841 32360 net.cpp:165] Memory required for data: 1413633500
I0821 08:27:51.782858 32360 layer_factory.hpp:77] Creating layer L3_b8_cbr1_scale
I0821 08:27:51.782871 32360 net.cpp:100] Creating Layer L3_b8_cbr1_scale
I0821 08:27:51.782877 32360 net.cpp:434] L3_b8_cbr1_scale <- L3_b8_cbr1_bn_top
I0821 08:27:51.782886 32360 net.cpp:395] L3_b8_cbr1_scale -> L3_b8_cbr1_bn_top (in-place)
I0821 08:27:51.782948 32360 layer_factory.hpp:77] Creating layer L3_b8_cbr1_scale
I0821 08:27:51.783104 32360 net.cpp:150] Setting up L3_b8_cbr1_scale
I0821 08:27:51.783118 32360 net.cpp:157] Top shape: 125 64 8 8 (512000)
I0821 08:27:51.783123 32360 net.cpp:165] Memory required for data: 1415681500
I0821 08:27:51.783131 32360 layer_factory.hpp:77] Creating layer L3_b8_cbr1_relu
I0821 08:27:51.783143 32360 net.cpp:100] Creating Layer L3_b8_cbr1_relu
I0821 08:27:51.783149 32360 net.cpp:434] L3_b8_cbr1_relu <- L3_b8_cbr1_bn_top
I0821 08:27:51.783156 32360 net.cpp:395] L3_b8_cbr1_relu -> L3_b8_cbr1_bn_top (in-place)
I0821 08:27:51.783166 32360 net.cpp:150] Setting up L3_b8_cbr1_relu
I0821 08:27:51.783176 32360 net.cpp:157] Top shape: 125 64 8 8 (512000)
I0821 08:27:51.783180 32360 net.cpp:165] Memory required for data: 1417729500
I0821 08:27:51.783185 32360 layer_factory.hpp:77] Creating layer L3_b8_cbr2_conv
I0821 08:27:51.783196 32360 net.cpp:100] Creating Layer L3_b8_cbr2_conv
I0821 08:27:51.783202 32360 net.cpp:434] L3_b8_cbr2_conv <- L3_b8_cbr1_bn_top
I0821 08:27:51.783213 32360 net.cpp:408] L3_b8_cbr2_conv -> L3_b8_cbr2_conv_top
I0821 08:27:51.784222 32360 net.cpp:150] Setting up L3_b8_cbr2_conv
I0821 08:27:51.784237 32360 net.cpp:157] Top shape: 125 64 8 8 (512000)
I0821 08:27:51.784242 32360 net.cpp:165] Memory required for data: 1419777500
I0821 08:27:51.784250 32360 layer_factory.hpp:77] Creating layer L3_b8_cbr2_bn
I0821 08:27:51.784265 32360 net.cpp:100] Creating Layer L3_b8_cbr2_bn
I0821 08:27:51.784273 32360 net.cpp:434] L3_b8_cbr2_bn <- L3_b8_cbr2_conv_top
I0821 08:27:51.784286 32360 net.cpp:408] L3_b8_cbr2_bn -> L3_b8_cbr2_bn_top
I0821 08:27:51.784554 32360 net.cpp:150] Setting up L3_b8_cbr2_bn
I0821 08:27:51.784569 32360 net.cpp:157] Top shape: 125 64 8 8 (512000)
I0821 08:27:51.784574 32360 net.cpp:165] Memory required for data: 1421825500
I0821 08:27:51.784584 32360 layer_factory.hpp:77] Creating layer L3_b8_cbr2_scale
I0821 08:27:51.784592 32360 net.cpp:100] Creating Layer L3_b8_cbr2_scale
I0821 08:27:51.784600 32360 net.cpp:434] L3_b8_cbr2_scale <- L3_b8_cbr2_bn_top
I0821 08:27:51.784606 32360 net.cpp:395] L3_b8_cbr2_scale -> L3_b8_cbr2_bn_top (in-place)
I0821 08:27:51.784665 32360 layer_factory.hpp:77] Creating layer L3_b8_cbr2_scale
I0821 08:27:51.784817 32360 net.cpp:150] Setting up L3_b8_cbr2_scale
I0821 08:27:51.784833 32360 net.cpp:157] Top shape: 125 64 8 8 (512000)
I0821 08:27:51.784838 32360 net.cpp:165] Memory required for data: 1423873500
I0821 08:27:51.784847 32360 layer_factory.hpp:77] Creating layer L3_b8_sum_eltwise
I0821 08:27:51.784857 32360 net.cpp:100] Creating Layer L3_b8_sum_eltwise
I0821 08:27:51.784863 32360 net.cpp:434] L3_b8_sum_eltwise <- L3_b8_cbr2_bn_top
I0821 08:27:51.784870 32360 net.cpp:434] L3_b8_sum_eltwise <- L3_b7_sum_eltwise_top_L3_b7_relu_0_split_1
I0821 08:27:51.784878 32360 net.cpp:408] L3_b8_sum_eltwise -> L3_b8_sum_eltwise_top
I0821 08:27:51.784914 32360 net.cpp:150] Setting up L3_b8_sum_eltwise
I0821 08:27:51.784924 32360 net.cpp:157] Top shape: 125 64 8 8 (512000)
I0821 08:27:51.784927 32360 net.cpp:165] Memory required for data: 1425921500
I0821 08:27:51.784934 32360 layer_factory.hpp:77] Creating layer L3_b8_relu
I0821 08:27:51.784940 32360 net.cpp:100] Creating Layer L3_b8_relu
I0821 08:27:51.784946 32360 net.cpp:434] L3_b8_relu <- L3_b8_sum_eltwise_top
I0821 08:27:51.784953 32360 net.cpp:395] L3_b8_relu -> L3_b8_sum_eltwise_top (in-place)
I0821 08:27:51.784963 32360 net.cpp:150] Setting up L3_b8_relu
I0821 08:27:51.784970 32360 net.cpp:157] Top shape: 125 64 8 8 (512000)
I0821 08:27:51.784976 32360 net.cpp:165] Memory required for data: 1427969500
I0821 08:27:51.784979 32360 layer_factory.hpp:77] Creating layer L3_b8_sum_eltwise_top_L3_b8_relu_0_split
I0821 08:27:51.784993 32360 net.cpp:100] Creating Layer L3_b8_sum_eltwise_top_L3_b8_relu_0_split
I0821 08:27:51.784999 32360 net.cpp:434] L3_b8_sum_eltwise_top_L3_b8_relu_0_split <- L3_b8_sum_eltwise_top
I0821 08:27:51.785009 32360 net.cpp:408] L3_b8_sum_eltwise_top_L3_b8_relu_0_split -> L3_b8_sum_eltwise_top_L3_b8_relu_0_split_0
I0821 08:27:51.785019 32360 net.cpp:408] L3_b8_sum_eltwise_top_L3_b8_relu_0_split -> L3_b8_sum_eltwise_top_L3_b8_relu_0_split_1
I0821 08:27:51.785065 32360 net.cpp:150] Setting up L3_b8_sum_eltwise_top_L3_b8_relu_0_split
I0821 08:27:51.785080 32360 net.cpp:157] Top shape: 125 64 8 8 (512000)
I0821 08:27:51.785087 32360 net.cpp:157] Top shape: 125 64 8 8 (512000)
I0821 08:27:51.785092 32360 net.cpp:165] Memory required for data: 1432065500
I0821 08:27:51.785097 32360 layer_factory.hpp:77] Creating layer L3_b9_cbr1_conv
I0821 08:27:51.785109 32360 net.cpp:100] Creating Layer L3_b9_cbr1_conv
I0821 08:27:51.785115 32360 net.cpp:434] L3_b9_cbr1_conv <- L3_b8_sum_eltwise_top_L3_b8_relu_0_split_0
I0821 08:27:51.785123 32360 net.cpp:408] L3_b9_cbr1_conv -> L3_b9_cbr1_conv_top
I0821 08:27:51.787135 32360 net.cpp:150] Setting up L3_b9_cbr1_conv
I0821 08:27:51.787153 32360 net.cpp:157] Top shape: 125 64 8 8 (512000)
I0821 08:27:51.787158 32360 net.cpp:165] Memory required for data: 1434113500
I0821 08:27:51.787168 32360 layer_factory.hpp:77] Creating layer L3_b9_cbr1_bn
I0821 08:27:51.787181 32360 net.cpp:100] Creating Layer L3_b9_cbr1_bn
I0821 08:27:51.787189 32360 net.cpp:434] L3_b9_cbr1_bn <- L3_b9_cbr1_conv_top
I0821 08:27:51.787197 32360 net.cpp:408] L3_b9_cbr1_bn -> L3_b9_cbr1_bn_top
I0821 08:27:51.787473 32360 net.cpp:150] Setting up L3_b9_cbr1_bn
I0821 08:27:51.787487 32360 net.cpp:157] Top shape: 125 64 8 8 (512000)
I0821 08:27:51.787492 32360 net.cpp:165] Memory required for data: 1436161500
I0821 08:27:51.787503 32360 layer_factory.hpp:77] Creating layer L3_b9_cbr1_scale
I0821 08:27:51.787513 32360 net.cpp:100] Creating Layer L3_b9_cbr1_scale
I0821 08:27:51.787519 32360 net.cpp:434] L3_b9_cbr1_scale <- L3_b9_cbr1_bn_top
I0821 08:27:51.787528 32360 net.cpp:395] L3_b9_cbr1_scale -> L3_b9_cbr1_bn_top (in-place)
I0821 08:27:51.787587 32360 layer_factory.hpp:77] Creating layer L3_b9_cbr1_scale
I0821 08:27:51.787745 32360 net.cpp:150] Setting up L3_b9_cbr1_scale
I0821 08:27:51.787758 32360 net.cpp:157] Top shape: 125 64 8 8 (512000)
I0821 08:27:51.787763 32360 net.cpp:165] Memory required for data: 1438209500
I0821 08:27:51.787773 32360 layer_factory.hpp:77] Creating layer L3_b9_cbr1_relu
I0821 08:27:51.787781 32360 net.cpp:100] Creating Layer L3_b9_cbr1_relu
I0821 08:27:51.787787 32360 net.cpp:434] L3_b9_cbr1_relu <- L3_b9_cbr1_bn_top
I0821 08:27:51.787798 32360 net.cpp:395] L3_b9_cbr1_relu -> L3_b9_cbr1_bn_top (in-place)
I0821 08:27:51.787808 32360 net.cpp:150] Setting up L3_b9_cbr1_relu
I0821 08:27:51.787817 32360 net.cpp:157] Top shape: 125 64 8 8 (512000)
I0821 08:27:51.787820 32360 net.cpp:165] Memory required for data: 1440257500
I0821 08:27:51.787825 32360 layer_factory.hpp:77] Creating layer L3_b9_cbr2_conv
I0821 08:27:51.787839 32360 net.cpp:100] Creating Layer L3_b9_cbr2_conv
I0821 08:27:51.787847 32360 net.cpp:434] L3_b9_cbr2_conv <- L3_b9_cbr1_bn_top
I0821 08:27:51.787855 32360 net.cpp:408] L3_b9_cbr2_conv -> L3_b9_cbr2_conv_top
I0821 08:27:51.788872 32360 net.cpp:150] Setting up L3_b9_cbr2_conv
I0821 08:27:51.788887 32360 net.cpp:157] Top shape: 125 64 8 8 (512000)
I0821 08:27:51.788892 32360 net.cpp:165] Memory required for data: 1442305500
I0821 08:27:51.788900 32360 layer_factory.hpp:77] Creating layer L3_b9_cbr2_bn
I0821 08:27:51.788913 32360 net.cpp:100] Creating Layer L3_b9_cbr2_bn
I0821 08:27:51.788920 32360 net.cpp:434] L3_b9_cbr2_bn <- L3_b9_cbr2_conv_top
I0821 08:27:51.788928 32360 net.cpp:408] L3_b9_cbr2_bn -> L3_b9_cbr2_bn_top
I0821 08:27:51.789193 32360 net.cpp:150] Setting up L3_b9_cbr2_bn
I0821 08:27:51.789206 32360 net.cpp:157] Top shape: 125 64 8 8 (512000)
I0821 08:27:51.789211 32360 net.cpp:165] Memory required for data: 1444353500
I0821 08:27:51.789229 32360 layer_factory.hpp:77] Creating layer L3_b9_cbr2_scale
I0821 08:27:51.789242 32360 net.cpp:100] Creating Layer L3_b9_cbr2_scale
I0821 08:27:51.789249 32360 net.cpp:434] L3_b9_cbr2_scale <- L3_b9_cbr2_bn_top
I0821 08:27:51.789257 32360 net.cpp:395] L3_b9_cbr2_scale -> L3_b9_cbr2_bn_top (in-place)
I0821 08:27:51.789327 32360 layer_factory.hpp:77] Creating layer L3_b9_cbr2_scale
I0821 08:27:51.789484 32360 net.cpp:150] Setting up L3_b9_cbr2_scale
I0821 08:27:51.789497 32360 net.cpp:157] Top shape: 125 64 8 8 (512000)
I0821 08:27:51.789502 32360 net.cpp:165] Memory required for data: 1446401500
I0821 08:27:51.789511 32360 layer_factory.hpp:77] Creating layer L3_b9_sum_eltwise
I0821 08:27:51.789525 32360 net.cpp:100] Creating Layer L3_b9_sum_eltwise
I0821 08:27:51.789530 32360 net.cpp:434] L3_b9_sum_eltwise <- L3_b9_cbr2_bn_top
I0821 08:27:51.789538 32360 net.cpp:434] L3_b9_sum_eltwise <- L3_b8_sum_eltwise_top_L3_b8_relu_0_split_1
I0821 08:27:51.789548 32360 net.cpp:408] L3_b9_sum_eltwise -> L3_b9_sum_eltwise_top
I0821 08:27:51.789582 32360 net.cpp:150] Setting up L3_b9_sum_eltwise
I0821 08:27:51.789590 32360 net.cpp:157] Top shape: 125 64 8 8 (512000)
I0821 08:27:51.789595 32360 net.cpp:165] Memory required for data: 1448449500
I0821 08:27:51.789600 32360 layer_factory.hpp:77] Creating layer L3_b9_relu
I0821 08:27:51.789613 32360 net.cpp:100] Creating Layer L3_b9_relu
I0821 08:27:51.789619 32360 net.cpp:434] L3_b9_relu <- L3_b9_sum_eltwise_top
I0821 08:27:51.789626 32360 net.cpp:395] L3_b9_relu -> L3_b9_sum_eltwise_top (in-place)
I0821 08:27:51.789635 32360 net.cpp:150] Setting up L3_b9_relu
I0821 08:27:51.789644 32360 net.cpp:157] Top shape: 125 64 8 8 (512000)
I0821 08:27:51.789647 32360 net.cpp:165] Memory required for data: 1450497500
I0821 08:27:51.789652 32360 layer_factory.hpp:77] Creating layer post_pool
I0821 08:27:51.789661 32360 net.cpp:100] Creating Layer post_pool
I0821 08:27:51.789666 32360 net.cpp:434] post_pool <- L3_b9_sum_eltwise_top
I0821 08:27:51.789674 32360 net.cpp:408] post_pool -> post_pool
I0821 08:27:51.789710 32360 net.cpp:150] Setting up post_pool
I0821 08:27:51.789721 32360 net.cpp:157] Top shape: 125 64 1 1 (8000)
I0821 08:27:51.789726 32360 net.cpp:165] Memory required for data: 1450529500
I0821 08:27:51.789731 32360 layer_factory.hpp:77] Creating layer post_FC
I0821 08:27:51.789822 32360 net.cpp:100] Creating Layer post_FC
I0821 08:27:51.789836 32360 net.cpp:434] post_FC <- post_pool
I0821 08:27:51.789845 32360 net.cpp:408] post_FC -> post_FC_top
I0821 08:27:51.790112 32360 net.cpp:150] Setting up post_FC
I0821 08:27:51.790127 32360 net.cpp:157] Top shape: 125 10 (1250)
I0821 08:27:51.790132 32360 net.cpp:165] Memory required for data: 1450534500
I0821 08:27:51.790143 32360 layer_factory.hpp:77] Creating layer post_FC_top_post_FC_0_split
I0821 08:27:51.790150 32360 net.cpp:100] Creating Layer post_FC_top_post_FC_0_split
I0821 08:27:51.790158 32360 net.cpp:434] post_FC_top_post_FC_0_split <- post_FC_top
I0821 08:27:51.790165 32360 net.cpp:408] post_FC_top_post_FC_0_split -> post_FC_top_post_FC_0_split_0
I0821 08:27:51.790179 32360 net.cpp:408] post_FC_top_post_FC_0_split -> post_FC_top_post_FC_0_split_1
I0821 08:27:51.790225 32360 net.cpp:150] Setting up post_FC_top_post_FC_0_split
I0821 08:27:51.790237 32360 net.cpp:157] Top shape: 125 10 (1250)
I0821 08:27:51.790243 32360 net.cpp:157] Top shape: 125 10 (1250)
I0821 08:27:51.790248 32360 net.cpp:165] Memory required for data: 1450544500
I0821 08:27:51.790253 32360 layer_factory.hpp:77] Creating layer accuracy
I0821 08:27:51.790311 32360 net.cpp:100] Creating Layer accuracy
I0821 08:27:51.790324 32360 net.cpp:434] accuracy <- post_FC_top_post_FC_0_split_0
I0821 08:27:51.790333 32360 net.cpp:434] accuracy <- label_dataLayer_1_split_0
I0821 08:27:51.790340 32360 net.cpp:408] accuracy -> accuracy
…
