…
I0821 08:26:21.274971 32262 net.cpp:322] The NetState phase (0) differed from the phase (1) specified by a rule in layer L3_b9_cbr2_bn
I0821 08:26:21.276737 32262 net.cpp:58] Initializing net from parameters: 
name: "Cifar-Resnet"
state {
  phase: TRAIN
  level: 0
  stage: ""
}
layer {
  name: "dataLayer"
  type: "Data"
  top: "data_top"
  top: "label"
  include {
    phase: TRAIN
  }
  transform_param {
    mirror: true
    crop_size: 32
    mean_file: "examples/cifar10/mean.binaryproto"
  }
  data_param {
    source: "examples/cifar10/cifar10_train40k_lmdb"
    batch_size: 125
    backend: LMDB
  }
  image_data_param {
    shuffle: true
  }
}
layer {
  name: "pre_conv"
  type: "Convolution"
  bottom: "data_top"
  top: "pre_conv_top"
  param {
    lr_mult: 1
    decay_mult: 1
  }
  param {
    lr_mult: 2
    decay_mult: 0
  }
  convolution_param {
    num_output: 16
    pad: 1
    kernel_size: 3
    stride: 1
    weight_filler {
      type: "msra"
    }
    bias_filler {
      type: "constant"
    }
  }
}
layer {
  name: "pre_bn"
  type: "BatchNorm"
  bottom: "pre_conv_top"
  top: "pre_bn_top"
  include {
    phase: TRAIN
  }
  batch_norm_param {
    use_global_stats: false
    moving_average_fraction: 0.999
  }
}
layer {
  name: "pre_scale"
  type: "Scale"
  bottom: "pre_bn_top"
  top: "pre_bn_top"
  scale_param {
    bias_term: true
  }
}
layer {
  name: "pre_relu"
  type: "ReLU"
  bottom: "pre_bn_top"
  top: "pre_bn_top"
}
layer {
  name: "L1_b1_cbr1_conv"
  type: "Convolution"
  bottom: "pre_bn_top"
  top: "L1_b1_cbr1_conv_top"
  param {
    lr_mult: 1
    decay_mult: 1
  }
  param {
    lr_mult: 2
    decay_mult: 0
  }
  convolution_param {
    num_output: 16
    pad: 1
    kernel_size: 3
    stride: 1
    weight_filler {
      type: "msra"
    }
    bias_filler {
      type: "constant"
    }
  }
}
layer {
  name: "L1_b1_cbr1_bn"
  type: "BatchNorm"
  bottom: "L1_b1_cbr1_conv_top"
  top: "L1_b1_cbr1_bn_top"
  include {
    phase: TRAIN
  }
  batch_norm_param {
    use_global_stats: false
    moving_average_fraction: 0.999
  }
}
layer {
  name: "L1_b1_cbr1_scale"
  type: "Scale"
  bottom: "L1_b1_cbr1_bn_top"
  top: "L1_b1_cbr1_bn_top"
  scale_param {
    bias_term: true
  }
}
layer {
  name: "L1_b1_cbr1_relu"
  type: "ReLU"
  bottom: "L1_b1_cbr1_bn_top"
  top: "L1_b1_cbr1_bn_top"
}
layer {
  name: "L1_b1_cbr2_conv"
  type: "Convolution"
  bottom: "L1_b1_cbr1_bn_top"
  top: "L1_b1_cbr2_conv_top"
  param {
    lr_mult: 1
    decay_mult: 1
  }
  param {
    lr_mult: 2
    decay_mult: 0
  }
  convolution_param {
    num_output: 16
    pad: 1
    kernel_size: 3
    stride: 1
    weight_filler {
      type: "msra"
    }
    bias_filler {
      type: "constant"
    }
  }
}
layer {
  name: "L1_b1_cbr2_bn"
  type: "BatchNorm"
  bottom: "L1_b1_cbr2_conv_top"
  top: "L1_b1_cbr2_bn_top"
  include {
    phase: TRAIN
  }
  batch_norm_param {
    use_global_stats: false
    moving_average_fraction: 0.999
  }
}
layer {
  name: "L1_b1_cbr2_scale"
  type: "Scale"
  bottom: "L1_b1_cbr2_bn_top"
  top: "L1_b1_cbr2_bn_top"
  scale_param {
    bias_term: true
  }
}
layer {
  name: "L1_b1_sum_eltwise"
  type: "Eltwise"
  bottom: "L1_b1_cbr2_bn_top"
  bottom: "pre_bn_top"
  top: "L1_b1_sum_eltwise_top"
  eltwise_param {
    operation: SUM
  }
}
layer {
  name: "L1_b1_relu"
  type: "ReLU"
  bottom: "L1_b1_sum_eltwise_top"
  top: "L1_b1_sum_eltwise_top"
}
layer {
  name: "L1_b2_cbr1_conv"
  type: "Convolution"
  bottom: "L1_b1_sum_eltwise_top"
  top: "L1_b2_cbr1_conv_top"
  param {
    lr_mult: 1
    decay_mult: 1
  }
  param {
    lr_mult: 2
    decay_mult: 0
  }
  convolution_param {
    num_output: 16
    pad: 1
    kernel_size: 3
    stride: 1
    weight_filler {
      type: "msra"
    }
    bias_filler {
      type: "constant"
    }
  }
}
layer {
  name: "L1_b2_cbr1_bn"
  type: "BatchNorm"
  bottom: "L1_b2_cbr1_conv_top"
  top: "L1_b2_cbr1_bn_top"
  include {
    phase: TRAIN
  }
  batch_norm_param {
    use_global_stats: false
    moving_average_fraction: 0.999
  }
}
layer {
  name: "L1_b2_cbr1_scale"
  type: "Scale"
  bottom: "L1_b2_cbr1_bn_top"
  top: "L1_b2_cbr1_bn_top"
  scale_param {
    bias_term: true
  }
}
layer {
  name: "L1_b2_cbr1_relu"
  type: "ReLU"
  bottom: "L1_b2_cbr1_bn_top"
  top: "L1_b2_cbr1_bn_top"
}
layer {
  name: "L1_b2_cbr2_conv"
  type: "Convolution"
  bottom: "L1_b2_cbr1_bn_top"
  top: "L1_b2_cbr2_conv_top"
  param {
    lr_mult: 1
    decay_mult: 1
  }
  param {
    lr_mult: 2
    decay_mult: 0
  }
  convolution_param {
    num_output: 16
    pad: 1
    kernel_size: 3
    stride: 1
    weight_filler {
      type: "msra"
    }
    bias_filler {
      type: "constant"
    }
  }
}
layer {
  name: "L1_b2_cbr2_bn"
  type: "BatchNorm"
  bottom: "L1_b2_cbr2_conv_top"
  top: "L1_b2_cbr2_bn_top"
  include {
    phase: TRAIN
  }
  batch_norm_param {
    use_global_stats: false
    moving_average_fraction: 0.999
  }
}
layer {
  name: "L1_b2_cbr2_scale"
  type: "Scale"
  bottom: "L1_b2_cbr2_bn_top"
  top: "L1_b2_cbr2_bn_top"
  scale_param {
    bias_term: true
  }
}
layer {
  name: "L1_b2_sum_eltwise"
  type: "Eltwise"
  bottom: "L1_b2_cbr2_bn_top"
  bottom: "L1_b1_sum_eltwise_top"
  top: "L1_b2_sum_eltwise_top"
  eltwise_param {
    operation: SUM
  }
}
layer {
  name: "L1_b2_relu"
  type: "ReLU"
  bottom: "L1_b2_sum_eltwise_top"
  top: "L1_b2_sum_eltwise_top"
}
layer {
  name: "L1_b3_cbr1_conv"
  type: "Convolution"
  bottom: "L1_b2_sum_eltwise_top"
  top: "L1_b3_cbr1_conv_top"
  param {
    lr_mult: 1
    decay_mult: 1
  }
  param {
    lr_mult: 2
    decay_mult: 0
  }
  convolution_param {
    num_output: 16
    pad: 1
    kernel_size: 3
    stride: 1
    weight_filler {
      type: "msra"
    }
    bias_filler {
      type: "constant"
    }
  }
}
layer {
  name: "L1_b3_cbr1_bn"
  type: "BatchNorm"
  bottom: "L1_b3_cbr1_conv_top"
  top: "L1_b3_cbr1_bn_top"
  include {
    phase: TRAIN
  }
  batch_norm_param {
    use_global_stats: false
    moving_average_fraction: 0.999
  }
}
layer {
  name: "L1_b3_cbr1_scale"
  type: "Scale"
  bottom: "L1_b3_cbr1_bn_top"
  top: "L1_b3_cbr1_bn_top"
  scale_param {
    bias_term: true
  }
}
layer {
  name: "L1_b3_cbr1_relu"
  type: "ReLU"
  bottom: "L1_b3_cbr1_bn_top"
  top: "L1_b3_cbr1_bn_top"
}
layer {
  name: "L1_b3_cbr2_conv"
  type: "Convolution"
  bottom: "L1_b3_cbr1_bn_top"
  top: "L1_b3_cbr2_conv_top"
  param {
    lr_mult: 1
    decay_mult: 1
  }
  param {
    lr_mult: 2
    decay_mult: 0
  }
  convolution_param {
    num_output: 16
    pad: 1
    kernel_size: 3
    stride: 1
    weight_filler {
      type: "msra"
    }
    bias_filler {
      type: "constant"
    }
  }
}
layer {
  name: "L1_b3_cbr2_bn"
  type: "BatchNorm"
  bottom: "L1_b3_cbr2_conv_top"
  top: "L1_b3_cbr2_bn_top"
  include {
    phase: TRAIN
  }
  batch_norm_param {
    use_global_stats: false
    moving_average_fraction: 0.999
  }
}
layer {
  name: "L1_b3_cbr2_scale"
  type: "Scale"
  bottom: "L1_b3_cbr2_bn_top"
  top: "L1_b3_cbr2_bn_top"
  scale_param {
    bias_term: true
  }
}
layer {
  name: "L1_b3_sum_eltwise"
  type: "Eltwise"
  bottom: "L1_b3_cbr2_bn_top"
  bottom: "L1_b2_sum_eltwise_top"
  top: "L1_b3_sum_eltwise_top"
  eltwise_param {
    operation: SUM
  }
}
layer {
  name: "L1_b3_relu"
  type: "ReLU"
  bottom: "L1_b3_sum_eltwise_top"
  top: "L1_b3_sum_eltwise_top"
}
layer {
  name: "L1_b4_cbr1_conv"
  type: "Convolution"
  bottom: "L1_b3_sum_eltwise_top"
  top: "L1_b4_cbr1_conv_top"
  param {
    lr_mult: 1
    decay_mult: 1
  }
  param {
    lr_mult: 2
    decay_mult: 0
  }
  convolution_param {
    num_output: 16
    pad: 1
    kernel_size: 3
    stride: 1
    weight_filler {
      type: "msra"
    }
    bias_filler {
      type: "constant"
    }
  }
}
layer {
  name: "L1_b4_cbr1_bn"
  type: "BatchNorm"
  bottom: "L1_b4_cbr1_conv_top"
  top: "L1_b4_cbr1_bn_top"
  include {
    phase: TRAIN
  }
  batch_norm_param {
    use_global_stats: false
    moving_average_fraction: 0.999
  }
}
layer {
  name: "L1_b4_cbr1_scale"
  type: "Scale"
  bottom: "L1_b4_cbr1_bn_top"
  top: "L1_b4_cbr1_bn_top"
  scale_param {
    bias_term: true
  }
}
layer {
  name: "L1_b4_cbr1_relu"
  type: "ReLU"
  bottom: "L1_b4_cbr1_bn_top"
  top: "L1_b4_cbr1_bn_top"
}
layer {
  name: "L1_b4_cbr2_conv"
  type: "Convolution"
  bottom: "L1_b4_cbr1_bn_top"
  top: "L1_b4_cbr2_conv_top"
  param {
    lr_mult: 1
    decay_mult: 1
  }
  param {
    lr_mult: 2
    decay_mult: 0
  }
  convolution_param {
    num_output: 16
    pad: 1
    kernel_size: 3
    stride: 1
    weight_filler {
      type: "msra"
    }
    bias_filler {
      type: "constant"
    }
  }
}
layer {
  name: "L1_b4_cbr2_bn"
  type: "BatchNorm"
  bottom: "L1_b4_cbr2_conv_top"
  top: "L1_b4_cbr2_bn_top"
  include {
    phase: TRAIN
  }
  batch_norm_param {
    use_global_stats: false
    moving_average_fraction: 0.999
  }
}
layer {
  name: "L1_b4_cbr2_scale"
  type: "Scale"
  bottom: "L1_b4_cbr2_bn_top"
  top: "L1_b4_cbr2_bn_top"
  scale_param {
    bias_term: true
  }
}
layer {
  name: "L1_b4_sum_eltwise"
  type: "Eltwise"
  bottom: "L1_b4_cbr2_bn_top"
  bottom: "L1_b3_sum_eltwise_top"
  top: "L1_b4_sum_eltwise_top"
  eltwise_param {
    operation: SUM
  }
}
layer {
  name: "L1_b4_relu"
  type: "ReLU"
  bottom: "L1_b4_sum_eltwise_top"
  top: "L1_b4_sum_eltwise_top"
}
layer {
  name: "L1_b5_cbr1_conv"
  type: "Convolution"
  bottom: "L1_b4_sum_eltwise_top"
  top: "L1_b5_cbr1_conv_top"
  param {
    lr_mult: 1
    decay_mult: 1
  }
  param {
    lr_mult: 2
    decay_mult: 0
  }
  convolution_param {
    num_output: 16
    pad: 1
    kernel_size: 3
    stride: 1
    weight_filler {
      type: "msra"
    }
    bias_filler {
      type: "constant"
    }
  }
}
layer {
  name: "L1_b5_cbr1_bn"
  type: "BatchNorm"
  bottom: "L1_b5_cbr1_conv_top"
  top: "L1_b5_cbr1_bn_top"
  include {
    phase: TRAIN
  }
  batch_norm_param {
    use_global_stats: false
    moving_average_fraction: 0.999
  }
}
layer {
  name: "L1_b5_cbr1_scale"
  type: "Scale"
  bottom: "L1_b5_cbr1_bn_top"
  top: "L1_b5_cbr1_bn_top"
  scale_param {
    bias_term: true
  }
}
layer {
  name: "L1_b5_cbr1_relu"
  type: "ReLU"
  bottom: "L1_b5_cbr1_bn_top"
  top: "L1_b5_cbr1_bn_top"
}
layer {
  name: "L1_b5_cbr2_conv"
  type: "Convolution"
  bottom: "L1_b5_cbr1_bn_top"
  top: "L1_b5_cbr2_conv_top"
  param {
    lr_mult: 1
    decay_mult: 1
  }
  param {
    lr_mult: 2
    decay_mult: 0
  }
  convolution_param {
    num_output: 16
    pad: 1
    kernel_size: 3
    stride: 1
    weight_filler {
      type: "msra"
    }
    bias_filler {
      type: "constant"
    }
  }
}
layer {
  name: "L1_b5_cbr2_bn"
  type: "BatchNorm"
  bottom: "L1_b5_cbr2_conv_top"
  top: "L1_b5_cbr2_bn_top"
  include {
    phase: TRAIN
  }
  batch_norm_param {
    use_global_stats: false
    moving_average_fraction: 0.999
  }
}
layer {
  name: "L1_b5_cbr2_scale"
  type: "Scale"
  bottom: "L1_b5_cbr2_bn_top"
  top: "L1_b5_cbr2_bn_top"
  scale_param {
    bias_term: true
  }
}
layer {
  name: "L1_b5_sum_eltwise"
  type: "Eltwise"
  bottom: "L1_b5_cbr2_bn_top"
  bottom: "L1_b4_sum_eltwise_top"
  top: "L1_b5_sum_eltwise_top"
  eltwise_param {
    operation: SUM
  }
}
layer {
  name: "L1_b5_relu"
  type: "ReLU"
  bottom: "L1_b5_sum_eltwise_top"
  top: "L1_b5_sum_eltwise_top"
}
layer {
  name: "L1_b6_cbr1_conv"
  type: "Convolution"
  bottom: "L1_b5_sum_eltwise_top"
  top: "L1_b6_cbr1_conv_top"
  param {
    lr_mult: 1
    decay_mult: 1
  }
  param {
    lr_mult: 2
    decay_mult: 0
  }
  convolution_param {
    num_output: 16
    pad: 1
    kernel_size: 3
    stride: 1
    weight_filler {
      type: "msra"
    }
    bias_filler {
      type: "constant"
    }
  }
}
layer {
  name: "L1_b6_cbr1_bn"
  type: "BatchNorm"
  bottom: "L1_b6_cbr1_conv_top"
  top: "L1_b6_cbr1_bn_top"
  include {
    phase: TRAIN
  }
  batch_norm_param {
    use_global_stats: false
    moving_average_fraction: 0.999
  }
}
layer {
  name: "L1_b6_cbr1_scale"
  type: "Scale"
  bottom: "L1_b6_cbr1_bn_top"
  top: "L1_b6_cbr1_bn_top"
  scale_param {
    bias_term: true
  }
}
layer {
  name: "L1_b6_cbr1_relu"
  type: "ReLU"
  bottom: "L1_b6_cbr1_bn_top"
  top: "L1_b6_cbr1_bn_top"
}
layer {
  name: "L1_b6_cbr2_conv"
  type: "Convolution"
  bottom: "L1_b6_cbr1_bn_top"
  top: "L1_b6_cbr2_conv_top"
  param {
    lr_mult: 1
    decay_mult: 1
  }
  param {
    lr_mult: 2
    decay_mult: 0
  }
  convolution_param {
    num_output: 16
    pad: 1
    kernel_size: 3
    stride: 1
    weight_filler {
      type: "msra"
    }
    bias_filler {
      type: "constant"
    }
  }
}
layer {
  name: "L1_b6_cbr2_bn"
  type: "BatchNorm"
  bottom: "L1_b6_cbr2_conv_top"
  top: "L1_b6_cbr2_bn_top"
  include {
    phase: TRAIN
  }
  batch_norm_param {
    use_global_stats: false
    moving_average_fraction: 0.999
  }
}
layer {
  name: "L1_b6_cbr2_scale"
  type: "Scale"
  bottom: "L1_b6_cbr2_bn_top"
  top: "L1_b6_cbr2_bn_top"
  scale_param {
    bias_term: true
  }
}
layer {
  name: "L1_b6_sum_eltwise"
  type: "Eltwise"
  bottom: "L1_b6_cbr2_bn_top"
  bottom: "L1_b5_sum_eltwise_top"
  top: "L1_b6_sum_eltwise_top"
  eltwise_param {
    operation: SUM
  }
}
layer {
  name: "L1_b6_relu"
  type: "ReLU"
  bottom: "L1_b6_sum_eltwise_top"
  top: "L1_b6_sum_eltwise_top"
}
layer {
  name: "L1_b7_cbr1_conv"
  type: "Convolution"
  bottom: "L1_b6_sum_eltwise_top"
  top: "L1_b7_cbr1_conv_top"
  param {
    lr_mult: 1
    decay_mult: 1
  }
  param {
    lr_mult: 2
    decay_mult: 0
  }
  convolution_param {
    num_output: 16
    pad: 1
    kernel_size: 3
    stride: 1
    weight_filler {
      type: "msra"
    }
    bias_filler {
      type: "constant"
    }
  }
}
layer {
  name: "L1_b7_cbr1_bn"
  type: "BatchNorm"
  bottom: "L1_b7_cbr1_conv_top"
  top: "L1_b7_cbr1_bn_top"
  include {
    phase: TRAIN
  }
  batch_norm_param {
    use_global_stats: false
    moving_average_fraction: 0.999
  }
}
layer {
  name: "L1_b7_cbr1_scale"
  type: "Scale"
  bottom: "L1_b7_cbr1_bn_top"
  top: "L1_b7_cbr1_bn_top"
  scale_param {
    bias_term: true
  }
}
layer {
  name: "L1_b7_cbr1_relu"
  type: "ReLU"
  bottom: "L1_b7_cbr1_bn_top"
  top: "L1_b7_cbr1_bn_top"
}
layer {
  name: "L1_b7_cbr2_conv"
  type: "Convolution"
  bottom: "L1_b7_cbr1_bn_top"
  top: "L1_b7_cbr2_conv_top"
  param {
    lr_mult: 1
    decay_mult: 1
  }
  param {
    lr_mult: 2
    decay_mult: 0
  }
  convolution_param {
    num_output: 16
    pad: 1
    kernel_size: 3
    stride: 1
    weight_filler {
      type: "msra"
    }
    bias_filler {
      type: "constant"
    }
  }
}
layer {
  name: "L1_b7_cbr2_bn"
  type: "BatchNorm"
  bottom: "L1_b7_cbr2_conv_top"
  top: "L1_b7_cbr2_bn_top"
  include {
    phase: TRAIN
  }
  batch_norm_param {
    use_global_stats: false
    moving_average_fraction: 0.999
  }
}
layer {
  name: "L1_b7_cbr2_scale"
  type: "Scale"
  bottom: "L1_b7_cbr2_bn_top"
  top: "L1_b7_cbr2_bn_top"
  scale_param {
    bias_term: true
  }
}
layer {
  name: "L1_b7_sum_eltwise"
  type: "Eltwise"
  bottom: "L1_b7_cbr2_bn_top"
  bottom: "L1_b6_sum_eltwise_top"
  top: "L1_b7_sum_eltwise_top"
  eltwise_param {
    operation: SUM
  }
}
layer {
  name: "L1_b7_relu"
  type: "ReLU"
  bottom: "L1_b7_sum_eltwise_top"
  top: "L1_b7_sum_eltwise_top"
}
layer {
  name: "L1_b8_cbr1_conv"
  type: "Convolution"
  bottom: "L1_b7_sum_eltwise_top"
  top: "L1_b8_cbr1_conv_top"
  param {
    lr_mult: 1
    decay_mult: 1
  }
  param {
    lr_mult: 2
    decay_mult: 0
  }
  convolution_param {
    num_output: 16
    pad: 1
    kernel_size: 3
    stride: 1
    weight_filler {
      type: "msra"
    }
    bias_filler {
      type: "constant"
    }
  }
}
layer {
  name: "L1_b8_cbr1_bn"
  type: "BatchNorm"
  bottom: "L1_b8_cbr1_conv_top"
  top: "L1_b8_cbr1_bn_top"
  include {
    phase: TRAIN
  }
  batch_norm_param {
    use_global_stats: false
    moving_average_fraction: 0.999
  }
}
layer {
  name: "L1_b8_cbr1_scale"
  type: "Scale"
  bottom: "L1_b8_cbr1_bn_top"
  top: "L1_b8_cbr1_bn_top"
  scale_param {
    bias_term: true
  }
}
layer {
  name: "L1_b8_cbr1_relu"
  type: "ReLU"
  bottom: "L1_b8_cbr1_bn_top"
  top: "L1_b8_cbr1_bn_top"
}
layer {
  name: "L1_b8_cbr2_conv"
  type: "Convolution"
  bottom: "L1_b8_cbr1_bn_top"
  top: "L1_b8_cbr2_conv_top"
  param {
    lr_mult: 1
    decay_mult: 1
  }
  param {
    lr_mult: 2
    decay_mult: 0
  }
  convolution_param {
    num_output: 16
    pad: 1
    kernel_size: 3
    stride: 1
    weight_filler {
      type: "msra"
    }
    bias_filler {
      type: "constant"
    }
  }
}
layer {
  name: "L1_b8_cbr2_bn"
  type: "BatchNorm"
  bottom: "L1_b8_cbr2_conv_top"
  top: "L1_b8_cbr2_bn_top"
  include {
    phase: TRAIN
  }
  batch_norm_param {
    use_global_stats: false
    moving_average_fraction: 0.999
  }
}
layer {
  name: "L1_b8_cbr2_scale"
  type: "Scale"
  bottom: "L1_b8_cbr2_bn_top"
  top: "L1_b8_cbr2_bn_top"
  scale_param {
    bias_term: true
  }
}
layer {
  name: "L1_b8_sum_eltwise"
  type: "Eltwise"
  bottom: "L1_b8_cbr2_bn_top"
  bottom: "L1_b7_sum_eltwise_top"
  top: "L1_b8_sum_eltwise_top"
  eltwise_param {
    operation: SUM
  }
}
layer {
  name: "L1_b8_relu"
  type: "ReLU"
  bottom: "L1_b8_sum_eltwise_top"
  top: "L1_b8_sum_eltwise_top"
}
layer {
  name: "L1_b9_cbr1_conv"
  type: "Convolution"
  bottom: "L1_b8_sum_eltwise_top"
  top: "L1_b9_cbr1_conv_top"
  param {
    lr_mult: 1
    decay_mult: 1
  }
  param {
    lr_mult: 2
    decay_mult: 0
  }
  convolution_param {
    num_output: 16
    pad: 1
    kernel_size: 3
    stride: 1
    weight_filler {
      type: "msra"
    }
    bias_filler {
      type: "constant"
    }
  }
}
layer {
  name: "L1_b9_cbr1_bn"
  type: "BatchNorm"
  bottom: "L1_b9_cbr1_conv_top"
  top: "L1_b9_cbr1_bn_top"
  include {
    phase: TRAIN
  }
  batch_norm_param {
    use_global_stats: false
    moving_average_fraction: 0.999
  }
}
layer {
  name: "L1_b9_cbr1_scale"
  type: "Scale"
  bottom: "L1_b9_cbr1_bn_top"
  top: "L1_b9_cbr1_bn_top"
  scale_param {
    bias_term: true
  }
}
layer {
  name: "L1_b9_cbr1_relu"
  type: "ReLU"
  bottom: "L1_b9_cbr1_bn_top"
  top: "L1_b9_cbr1_bn_top"
}
layer {
  name: "L1_b9_cbr2_conv"
  type: "Convolution"
  bottom: "L1_b9_cbr1_bn_top"
  top: "L1_b9_cbr2_conv_top"
  param {
    lr_mult: 1
    decay_mult: 1
  }
  param {
    lr_mult: 2
    decay_mult: 0
  }
  convolution_param {
    num_output: 16
    pad: 1
    kernel_size: 3
    stride: 1
    weight_filler {
      type: "msra"
    }
    bias_filler {
      type: "constant"
    }
  }
}
layer {
  name: "L1_b9_cbr2_bn"
  type: "BatchNorm"
  bottom: "L1_b9_cbr2_conv_top"
  top: "L1_b9_cbr2_bn_top"
  include {
    phase: TRAIN
  }
  batch_norm_param {
    use_global_stats: false
    moving_average_fraction: 0.999
  }
}
layer {
  name: "L1_b9_cbr2_scale"
  type: "Scale"
  bottom: "L1_b9_cbr2_bn_top"
  top: "L1_b9_cbr2_bn_top"
  scale_param {
    bias_term: true
  }
}
layer {
  name: "L1_b9_sum_eltwise"
  type: "Eltwise"
  bottom: "L1_b9_cbr2_bn_top"
  bottom: "L1_b8_sum_eltwise_top"
  top: "L1_b9_sum_eltwise_top"
  eltwise_param {
    operation: SUM
  }
}
layer {
  name: "L1_b9_relu"
  type: "ReLU"
  bottom: "L1_b9_sum_eltwise_top"
  top: "L1_b9_sum_eltwise_top"
}
layer {
  name: "L2_b1_cbr1_conv"
  type: "Convolution"
  bottom: "L1_b9_sum_eltwise_top"
  top: "L2_b1_cbr1_conv_top"
  param {
    lr_mult: 1
    decay_mult: 1
  }
  param {
    lr_mult: 2
    decay_mult: 0
  }
  convolution_param {
    num_output: 16
    pad: 1
    kernel_size: 3
    stride: 2
    weight_filler {
      type: "msra"
    }
    bias_filler {
      type: "constant"
    }
  }
}
layer {
  name: "L2_b1_cbr1_bn"
  type: "BatchNorm"
  bottom: "L2_b1_cbr1_conv_top"
  top: "L2_b1_cbr1_bn_top"
  include {
    phase: TRAIN
  }
  batch_norm_param {
    use_global_stats: false
    moving_average_fraction: 0.999
  }
}
layer {
  name: "L2_b1_cbr1_scale"
  type: "Scale"
  bottom: "L2_b1_cbr1_bn_top"
  top: "L2_b1_cbr1_bn_top"
  scale_param {
    bias_term: true
  }
}
layer {
  name: "L2_b1_cbr1_relu"
  type: "ReLU"
  bottom: "L2_b1_cbr1_bn_top"
  top: "L2_b1_cbr1_bn_top"
}
layer {
  name: "L2_b1_cbr2_conv"
  type: "Convolution"
  bottom: "L2_b1_cbr1_bn_top"
  top: "L2_b1_cbr2_conv_top"
  param {
    lr_mult: 1
    decay_mult: 1
  }
  param {
    lr_mult: 2
    decay_mult: 0
  }
  convolution_param {
    num_output: 16
    pad: 1
    kernel_size: 3
    stride: 1
    weight_filler {
      type: "msra"
    }
    bias_filler {
      type: "constant"
    }
  }
}
layer {
  name: "L2_b1_cbr2_bn"
  type: "BatchNorm"
  bottom: "L2_b1_cbr2_conv_top"
  top: "L2_b1_cbr2_bn_top"
  include {
    phase: TRAIN
  }
  batch_norm_param {
    use_global_stats: false
    moving_average_fraction: 0.999
  }
}
layer {
  name: "L2_b1_cbr2_scale"
  type: "Scale"
  bottom: "L2_b1_cbr2_bn_top"
  top: "L2_b1_cbr2_bn_top"
  scale_param {
    bias_term: true
  }
}
layer {
  name: "L2_b1_pool"
  type: "Pooling"
  bottom: "L1_b9_sum_eltwise_top"
  top: "L2_b1_pool"
  pooling_param {
    pool: AVE
    kernel_size: 3
    stride: 2
  }
}
layer {
  name: "L2_b1_sum_eltwise"
  type: "Eltwise"
  bottom: "L2_b1_cbr2_bn_top"
  bottom: "L2_b1_pool"
  top: "L2_b1_sum_eltwise_top"
  eltwise_param {
    operation: SUM
  }
}
layer {
  name: "L2_b1_relu"
  type: "ReLU"
  bottom: "L2_b1_sum_eltwise_top"
  top: "L2_b1_sum_eltwise_top"
}
layer {
  name: "L2_b1_zeros"
  type: "DummyData"
  top: "L2_b1_zeros"
  dummy_data_param {
    data_filler {
      type: "constant"
      value: 0
    }
    shape {
      dim: 125
      dim: 16
      dim: 16
      dim: 16
    }
  }
}
layer {
  name: "L2_b1_concat0"
  type: "Concat"
  bottom: "L2_b1_sum_eltwise_top"
  bottom: "L2_b1_zeros"
  top: "L2_b1_concat0"
  concat_param {
    axis: 1
  }
}
layer {
  name: "L2_b2_cbr1_conv"
  type: "Convolution"
  bottom: "L2_b1_concat0"
  top: "L2_b2_cbr1_conv_top"
  param {
    lr_mult: 1
    decay_mult: 1
  }
  param {
    lr_mult: 2
    decay_mult: 0
  }
  convolution_param {
    num_output: 32
    pad: 1
    kernel_size: 3
    stride: 1
    weight_filler {
      type: "msra"
    }
    bias_filler {
      type: "constant"
    }
  }
}
layer {
  name: "L2_b2_cbr1_bn"
  type: "BatchNorm"
  bottom: "L2_b2_cbr1_conv_top"
  top: "L2_b2_cbr1_bn_top"
  include {
    phase: TRAIN
  }
  batch_norm_param {
    use_global_stats: false
    moving_average_fraction: 0.999
  }
}
layer {
  name: "L2_b2_cbr1_scale"
  type: "Scale"
  bottom: "L2_b2_cbr1_bn_top"
  top: "L2_b2_cbr1_bn_top"
  scale_param {
    bias_term: true
  }
}
layer {
  name: "L2_b2_cbr1_relu"
  type: "ReLU"
  bottom: "L2_b2_cbr1_bn_top"
  top: "L2_b2_cbr1_bn_top"
}
layer {
  name: "L2_b2_cbr2_conv"
  type: "Convolution"
  bottom: "L2_b2_cbr1_bn_top"
  top: "L2_b2_cbr2_conv_top"
  param {
    lr_mult: 1
    decay_mult: 1
  }
  param {
    lr_mult: 2
    decay_mult: 0
  }
  convolution_param {
    num_output: 32
    pad: 1
    kernel_size: 3
    stride: 1
    weight_filler {
      type: "msra"
    }
    bias_filler {
      type: "constant"
    }
  }
}
layer {
  name: "L2_b2_cbr2_bn"
  type: "BatchNorm"
  bottom: "L2_b2_cbr2_conv_top"
  top: "L2_b2_cbr2_bn_top"
  include {
    phase: TRAIN
  }
  batch_norm_param {
    use_global_stats: false
    moving_average_fraction: 0.999
  }
}
layer {
  name: "L2_b2_cbr2_scale"
  type: "Scale"
  bottom: "L2_b2_cbr2_bn_top"
  top: "L2_b2_cbr2_bn_top"
  scale_param {
    bias_term: true
  }
}
layer {
  name: "L2_b2_sum_eltwise"
  type: "Eltwise"
  bottom: "L2_b2_cbr2_bn_top"
  bottom: "L2_b1_concat0"
  top: "L2_b2_sum_eltwise_top"
  eltwise_param {
    operation: SUM
  }
}
layer {
  name: "L2_b2_relu"
  type: "ReLU"
  bottom: "L2_b2_sum_eltwise_top"
  top: "L2_b2_sum_eltwise_top"
}
layer {
  name: "L2_b3_cbr1_conv"
  type: "Convolution"
  bottom: "L2_b2_sum_eltwise_top"
  top: "L2_b3_cbr1_conv_top"
  param {
    lr_mult: 1
    decay_mult: 1
  }
  param {
    lr_mult: 2
    decay_mult: 0
  }
  convolution_param {
    num_output: 32
    pad: 1
    kernel_size: 3
    stride: 1
    weight_filler {
      type: "msra"
    }
    bias_filler {
      type: "constant"
    }
  }
}
layer {
  name: "L2_b3_cbr1_bn"
  type: "BatchNorm"
  bottom: "L2_b3_cbr1_conv_top"
  top: "L2_b3_cbr1_bn_top"
  include {
    phase: TRAIN
  }
  batch_norm_param {
    use_global_stats: false
    moving_average_fraction: 0.999
  }
}
layer {
  name: "L2_b3_cbr1_scale"
  type: "Scale"
  bottom: "L2_b3_cbr1_bn_top"
  top: "L2_b3_cbr1_bn_top"
  scale_param {
    bias_term: true
  }
}
layer {
  name: "L2_b3_cbr1_relu"
  type: "ReLU"
  bottom: "L2_b3_cbr1_bn_top"
  top: "L2_b3_cbr1_bn_top"
}
layer {
  name: "L2_b3_cbr2_conv"
  type: "Convolution"
  bottom: "L2_b3_cbr1_bn_top"
  top: "L2_b3_cbr2_conv_top"
  param {
    lr_mult: 1
    decay_mult: 1
  }
  param {
    lr_mult: 2
    decay_mult: 0
  }
  convolution_param {
    num_output: 32
    pad: 1
    kernel_size: 3
    stride: 1
    weight_filler {
      type: "msra"
    }
    bias_filler {
      type: "constant"
    }
  }
}
layer {
  name: "L2_b3_cbr2_bn"
  type: "BatchNorm"
  bottom: "L2_b3_cbr2_conv_top"
  top: "L2_b3_cbr2_bn_top"
  include {
    phase: TRAIN
  }
  batch_norm_param {
    use_global_stats: false
    moving_average_fraction: 0.999
  }
}
layer {
  name: "L2_b3_cbr2_scale"
  type: "Scale"
  bottom: "L2_b3_cbr2_bn_top"
  top: "L2_b3_cbr2_bn_top"
  scale_param {
    bias_term: true
  }
}
layer {
  name: "L2_b3_sum_eltwise"
  type: "Eltwise"
  bottom: "L2_b3_cbr2_bn_top"
  bottom: "L2_b2_sum_eltwise_top"
  top: "L2_b3_sum_eltwise_top"
  eltwise_param {
    operation: SUM
  }
}
layer {
  name: "L2_b3_relu"
  type: "ReLU"
  bottom: "L2_b3_sum_eltwise_top"
  top: "L2_b3_sum_eltwise_top"
}
layer {
  name: "L2_b4_cbr1_conv"
  type: "Convolution"
  bottom: "L2_b3_sum_eltwise_top"
  top: "L2_b4_cbr1_conv_top"
  param {
    lr_mult: 1
    decay_mult: 1
  }
  param {
    lr_mult: 2
    decay_mult: 0
  }
  convolution_param {
    num_output: 32
    pad: 1
    kernel_size: 3
    stride: 1
    weight_filler {
      type: "msra"
    }
    bias_filler {
      type: "constant"
    }
  }
}
layer {
  name: "L2_b4_cbr1_bn"
  type: "BatchNorm"
  bottom: "L2_b4_cbr1_conv_top"
  top: "L2_b4_cbr1_bn_top"
  include {
    phase: TRAIN
  }
  batch_norm_param {
    use_global_stats: false
    moving_average_fraction: 0.999
  }
}
layer {
  name: "L2_b4_cbr1_scale"
  type: "Scale"
  bottom: "L2_b4_cbr1_bn_top"
  top: "L2_b4_cbr1_bn_top"
  scale_param {
    bias_term: true
  }
}
layer {
  name: "L2_b4_cbr1_relu"
  type: "ReLU"
  bottom: "L2_b4_cbr1_bn_top"
  top: "L2_b4_cbr1_bn_top"
}
layer {
  name: "L2_b4_cbr2_conv"
  type: "Convolution"
  bottom: "L2_b4_cbr1_bn_top"
  top: "L2_b4_cbr2_conv_top"
  param {
    lr_mult: 1
    decay_mult: 1
  }
  param {
    lr_mult: 2
    decay_mult: 0
  }
  convolution_param {
    num_output: 32
    pad: 1
    kernel_size: 3
    stride: 1
    weight_filler {
      type: "msra"
    }
    bias_filler {
      type: "constant"
    }
  }
}
layer {
  name: "L2_b4_cbr2_bn"
  type: "BatchNorm"
  bottom: "L2_b4_cbr2_conv_top"
  top: "L2_b4_cbr2_bn_top"
  include {
    phase: TRAIN
  }
  batch_norm_param {
    use_global_stats: false
    moving_average_fraction: 0.999
  }
}
layer {
  name: "L2_b4_cbr2_scale"
  type: "Scale"
  bottom: "L2_b4_cbr2_bn_top"
  top: "L2_b4_cbr2_bn_top"
  scale_param {
    bias_term: true
  }
}
layer {
  name: "L2_b4_sum_eltwise"
  type: "Eltwise"
  bottom: "L2_b4_cbr2_bn_top"
  bottom: "L2_b3_sum_eltwise_top"
  top: "L2_b4_sum_eltwise_top"
  eltwise_param {
    operation: SUM
  }
}
layer {
  name: "L2_b4_relu"
  type: "ReLU"
  bottom: "L2_b4_sum_eltwise_top"
  top: "L2_b4_sum_eltwise_top"
}
layer {
  name: "L2_b5_cbr1_conv"
  type: "Convolution"
  bottom: "L2_b4_sum_eltwise_top"
  top: "L2_b5_cbr1_conv_top"
  param {
    lr_mult: 1
    decay_mult: 1
  }
  param {
    lr_mult: 2
    decay_mult: 0
  }
  convolution_param {
    num_output: 32
    pad: 1
    kernel_size: 3
    stride: 1
    weight_filler {
      type: "msra"
    }
    bias_filler {
      type: "constant"
    }
  }
}
layer {
  name: "L2_b5_cbr1_bn"
  type: "BatchNorm"
  bottom: "L2_b5_cbr1_conv_top"
  top: "L2_b5_cbr1_bn_top"
  include {
    phase: TRAIN
  }
  batch_norm_param {
    use_global_stats: false
    moving_average_fraction: 0.999
  }
}
layer {
  name: "L2_b5_cbr1_scale"
  type: "Scale"
  bottom: "L2_b5_cbr1_bn_top"
  top: "L2_b5_cbr1_bn_top"
  scale_param {
    bias_term: true
  }
}
layer {
  name: "L2_b5_cbr1_relu"
  type: "ReLU"
  bottom: "L2_b5_cbr1_bn_top"
  top: "L2_b5_cbr1_bn_top"
}
layer {
  name: "L2_b5_cbr2_conv"
  type: "Convolution"
  bottom: "L2_b5_cbr1_bn_top"
  top: "L2_b5_cbr2_conv_top"
  param {
    lr_mult: 1
    decay_mult: 1
  }
  param {
    lr_mult: 2
    decay_mult: 0
  }
  convolution_param {
    num_output: 32
    pad: 1
    kernel_size: 3
    stride: 1
    weight_filler {
      type: "msra"
    }
    bias_filler {
      type: "constant"
    }
  }
}
layer {
  name: "L2_b5_cbr2_bn"
  type: "BatchNorm"
  bottom: "L2_b5_cbr2_conv_top"
  top: "L2_b5_cbr2_bn_top"
  include {
    phase: TRAIN
  }
  batch_norm_param {
    use_global_stats: false
    moving_average_fraction: 0.999
  }
}
layer {
  name: "L2_b5_cbr2_scale"
  type: "Scale"
  bottom: "L2_b5_cbr2_bn_top"
  top: "L2_b5_cbr2_bn_top"
  scale_param {
    bias_term: true
  }
}
layer {
  name: "L2_b5_sum_eltwise"
  type: "Eltwise"
  bottom: "L2_b5_cbr2_bn_top"
  bottom: "L2_b4_sum_eltwise_top"
  top: "L2_b5_sum_eltwise_top"
  eltwise_param {
    operation: SUM
  }
}
layer {
  name: "L2_b5_relu"
  type: "ReLU"
  bottom: "L2_b5_sum_eltwise_top"
  top: "L2_b5_sum_eltwise_top"
}
layer {
  name: "L2_b6_cbr1_conv"
  type: "Convolution"
  bottom: "L2_b5_sum_eltwise_top"
  top: "L2_b6_cbr1_conv_top"
  param {
    lr_mult: 1
    decay_mult: 1
  }
  param {
    lr_mult: 2
    decay_mult: 0
  }
  convolution_param {
    num_output: 32
    pad: 1
    kernel_size: 3
    stride: 1
    weight_filler {
      type: "msra"
    }
    bias_filler {
      type: "constant"
    }
  }
}
layer {
  name: "L2_b6_cbr1_bn"
  type: "BatchNorm"
  bottom: "L2_b6_cbr1_conv_top"
  top: "L2_b6_cbr1_bn_top"
  include {
    phase: TRAIN
  }
  batch_norm_param {
    use_global_stats: false
    moving_average_fraction: 0.9
I0821 08:26:21.278980 32262 layer_factory.hpp:77] Creating layer dataLayer
I0821 08:26:21.281666 32262 net.cpp:100] Creating Layer dataLayer
I0821 08:26:21.281746 32262 net.cpp:408] dataLayer -> data_top
I0821 08:26:21.281961 32262 net.cpp:408] dataLayer -> label
I0821 08:26:21.282090 32262 data_transformer.cpp:25] Loading mean file from: examples/cifar10/mean.binaryproto
I0821 08:26:21.360497 32267 db_lmdb.cpp:35] Opened lmdb examples/cifar10/cifar10_train40k_lmdb
I0821 08:26:21.360913 32262 data_layer.cpp:41] output data size: 125,3,32,32
I0821 08:26:21.368046 32262 net.cpp:150] Setting up dataLayer
I0821 08:26:21.368135 32262 net.cpp:157] Top shape: 125 3 32 32 (384000)
I0821 08:26:21.368157 32262 net.cpp:157] Top shape: 125 (125)
I0821 08:26:21.368168 32262 net.cpp:165] Memory required for data: 1536500
I0821 08:26:21.368191 32262 layer_factory.hpp:77] Creating layer label_dataLayer_1_split
I0821 08:26:21.368214 32262 net.cpp:100] Creating Layer label_dataLayer_1_split
I0821 08:26:21.368229 32262 net.cpp:434] label_dataLayer_1_split <- label
I0821 08:26:21.368263 32262 net.cpp:408] label_dataLayer_1_split -> label_dataLayer_1_split_0
I0821 08:26:21.368291 32262 net.cpp:408] label_dataLayer_1_split -> label_dataLayer_1_split_1
I0821 08:26:21.368394 32262 net.cpp:150] Setting up label_dataLayer_1_split
I0821 08:26:21.368418 32262 net.cpp:157] Top shape: 125 (125)
I0821 08:26:21.368433 32262 net.cpp:157] Top shape: 125 (125)
I0821 08:26:21.368443 32262 net.cpp:165] Memory required for data: 1537500
I0821 08:26:21.368453 32262 layer_factory.hpp:77] Creating layer pre_conv
I0821 08:26:21.368537 32262 net.cpp:100] Creating Layer pre_conv
I0821 08:26:21.368552 32262 net.cpp:434] pre_conv <- data_top
I0821 08:26:21.368569 32262 net.cpp:408] pre_conv -> pre_conv_top
I0821 08:26:21.370388 32262 net.cpp:150] Setting up pre_conv
I0821 08:26:21.370411 32262 net.cpp:157] Top shape: 125 16 32 32 (2048000)
I0821 08:26:21.370422 32262 net.cpp:165] Memory required for data: 9729500
I0821 08:26:21.370524 32262 layer_factory.hpp:77] Creating layer pre_bn
I0821 08:26:21.370640 32262 net.cpp:100] Creating Layer pre_bn
I0821 08:26:21.370656 32262 net.cpp:434] pre_bn <- pre_conv_top
I0821 08:26:21.370673 32262 net.cpp:408] pre_bn -> pre_bn_top
I0821 08:26:21.370695 32268 blocking_queue.cpp:50] Waiting for data
I0821 08:26:21.371034 32262 net.cpp:150] Setting up pre_bn
I0821 08:26:21.371057 32262 net.cpp:157] Top shape: 125 16 32 32 (2048000)
I0821 08:26:21.371068 32262 net.cpp:165] Memory required for data: 17921500
I0821 08:26:21.371098 32262 layer_factory.hpp:77] Creating layer pre_scale
I0821 08:26:21.371176 32262 net.cpp:100] Creating Layer pre_scale
I0821 08:26:21.371192 32262 net.cpp:434] pre_scale <- pre_bn_top
I0821 08:26:21.371213 32262 net.cpp:395] pre_scale -> pre_bn_top (in-place)
I0821 08:26:21.371436 32262 layer_factory.hpp:77] Creating layer pre_scale
I0821 08:26:21.373611 32262 net.cpp:150] Setting up pre_scale
I0821 08:26:21.373633 32262 net.cpp:157] Top shape: 125 16 32 32 (2048000)
I0821 08:26:21.373644 32262 net.cpp:165] Memory required for data: 26113500
I0821 08:26:21.373663 32262 layer_factory.hpp:77] Creating layer pre_relu
I0821 08:26:21.373733 32262 net.cpp:100] Creating Layer pre_relu
I0821 08:26:21.373750 32262 net.cpp:434] pre_relu <- pre_bn_top
I0821 08:26:21.373765 32262 net.cpp:395] pre_relu -> pre_bn_top (in-place)
I0821 08:26:21.373785 32262 net.cpp:150] Setting up pre_relu
I0821 08:26:21.373800 32262 net.cpp:157] Top shape: 125 16 32 32 (2048000)
I0821 08:26:21.373809 32262 net.cpp:165] Memory required for data: 34305500
I0821 08:26:21.373821 32262 layer_factory.hpp:77] Creating layer pre_bn_top_pre_relu_0_split
I0821 08:26:21.373839 32262 net.cpp:100] Creating Layer pre_bn_top_pre_relu_0_split
I0821 08:26:21.373852 32262 net.cpp:434] pre_bn_top_pre_relu_0_split <- pre_bn_top
I0821 08:26:21.373865 32262 net.cpp:408] pre_bn_top_pre_relu_0_split -> pre_bn_top_pre_relu_0_split_0
I0821 08:26:21.373889 32262 net.cpp:408] pre_bn_top_pre_relu_0_split -> pre_bn_top_pre_relu_0_split_1
I0821 08:26:21.373970 32262 net.cpp:150] Setting up pre_bn_top_pre_relu_0_split
I0821 08:26:21.373988 32262 net.cpp:157] Top shape: 125 16 32 32 (2048000)
I0821 08:26:21.374001 32262 net.cpp:157] Top shape: 125 16 32 32 (2048000)
I0821 08:26:21.374011 32262 net.cpp:165] Memory required for data: 50689500
I0821 08:26:21.374022 32262 layer_factory.hpp:77] Creating layer L1_b1_cbr1_conv
I0821 08:26:21.374042 32262 net.cpp:100] Creating Layer L1_b1_cbr1_conv
I0821 08:26:21.374053 32262 net.cpp:434] L1_b1_cbr1_conv <- pre_bn_top_pre_relu_0_split_0
I0821 08:26:21.374078 32262 net.cpp:408] L1_b1_cbr1_conv -> L1_b1_cbr1_conv_top
I0821 08:26:21.374431 32262 net.cpp:150] Setting up L1_b1_cbr1_conv
I0821 08:26:21.374454 32262 net.cpp:157] Top shape: 125 16 32 32 (2048000)
I0821 08:26:21.374464 32262 net.cpp:165] Memory required for data: 58881500
I0821 08:26:21.374486 32262 layer_factory.hpp:77] Creating layer L1_b1_cbr1_bn
I0821 08:26:21.374511 32262 net.cpp:100] Creating Layer L1_b1_cbr1_bn
I0821 08:26:21.374524 32262 net.cpp:434] L1_b1_cbr1_bn <- L1_b1_cbr1_conv_top
I0821 08:26:21.374541 32262 net.cpp:408] L1_b1_cbr1_bn -> L1_b1_cbr1_bn_top
I0821 08:26:21.374819 32262 net.cpp:150] Setting up L1_b1_cbr1_bn
I0821 08:26:21.374840 32262 net.cpp:157] Top shape: 125 16 32 32 (2048000)
I0821 08:26:21.374851 32262 net.cpp:165] Memory required for data: 67073500
I0821 08:26:21.374874 32262 layer_factory.hpp:77] Creating layer L1_b1_cbr1_scale
I0821 08:26:21.374891 32262 net.cpp:100] Creating Layer L1_b1_cbr1_scale
I0821 08:26:21.374902 32262 net.cpp:434] L1_b1_cbr1_scale <- L1_b1_cbr1_bn_top
I0821 08:26:21.374917 32262 net.cpp:395] L1_b1_cbr1_scale -> L1_b1_cbr1_bn_top (in-place)
I0821 08:26:21.375002 32262 layer_factory.hpp:77] Creating layer L1_b1_cbr1_scale
I0821 08:26:21.375181 32262 net.cpp:150] Setting up L1_b1_cbr1_scale
I0821 08:26:21.375201 32262 net.cpp:157] Top shape: 125 16 32 32 (2048000)
I0821 08:26:21.375211 32262 net.cpp:165] Memory required for data: 75265500
I0821 08:26:21.375228 32262 layer_factory.hpp:77] Creating layer L1_b1_cbr1_relu
I0821 08:26:21.375257 32262 net.cpp:100] Creating Layer L1_b1_cbr1_relu
I0821 08:26:21.375269 32262 net.cpp:434] L1_b1_cbr1_relu <- L1_b1_cbr1_bn_top
I0821 08:26:21.375283 32262 net.cpp:395] L1_b1_cbr1_relu -> L1_b1_cbr1_bn_top (in-place)
I0821 08:26:21.375303 32262 net.cpp:150] Setting up L1_b1_cbr1_relu
I0821 08:26:21.375318 32262 net.cpp:157] Top shape: 125 16 32 32 (2048000)
I0821 08:26:21.375327 32262 net.cpp:165] Memory required for data: 83457500
I0821 08:26:21.375336 32262 layer_factory.hpp:77] Creating layer L1_b1_cbr2_conv
I0821 08:26:21.375365 32262 net.cpp:100] Creating Layer L1_b1_cbr2_conv
I0821 08:26:21.375376 32262 net.cpp:434] L1_b1_cbr2_conv <- L1_b1_cbr1_bn_top
I0821 08:26:21.375397 32262 net.cpp:408] L1_b1_cbr2_conv -> L1_b1_cbr2_conv_top
I0821 08:26:21.375733 32262 net.cpp:150] Setting up L1_b1_cbr2_conv
I0821 08:26:21.375752 32262 net.cpp:157] Top shape: 125 16 32 32 (2048000)
I0821 08:26:21.375762 32262 net.cpp:165] Memory required for data: 91649500
I0821 08:26:21.375780 32262 layer_factory.hpp:77] Creating layer L1_b1_cbr2_bn
I0821 08:26:21.375797 32262 net.cpp:100] Creating Layer L1_b1_cbr2_bn
I0821 08:26:21.375808 32262 net.cpp:434] L1_b1_cbr2_bn <- L1_b1_cbr2_conv_top
I0821 08:26:21.375829 32262 net.cpp:408] L1_b1_cbr2_bn -> L1_b1_cbr2_bn_top
I0821 08:26:21.376107 32262 net.cpp:150] Setting up L1_b1_cbr2_bn
I0821 08:26:21.376127 32262 net.cpp:157] Top shape: 125 16 32 32 (2048000)
I0821 08:26:21.376137 32262 net.cpp:165] Memory required for data: 99841500
I0821 08:26:21.376169 32262 layer_factory.hpp:77] Creating layer L1_b1_cbr2_scale
I0821 08:26:21.376186 32262 net.cpp:100] Creating Layer L1_b1_cbr2_scale
I0821 08:26:21.376199 32262 net.cpp:434] L1_b1_cbr2_scale <- L1_b1_cbr2_bn_top
I0821 08:26:21.376214 32262 net.cpp:395] L1_b1_cbr2_scale -> L1_b1_cbr2_bn_top (in-place)
I0821 08:26:21.376297 32262 layer_factory.hpp:77] Creating layer L1_b1_cbr2_scale
I0821 08:26:21.376468 32262 net.cpp:150] Setting up L1_b1_cbr2_scale
I0821 08:26:21.376487 32262 net.cpp:157] Top shape: 125 16 32 32 (2048000)
I0821 08:26:21.376497 32262 net.cpp:165] Memory required for data: 108033500
I0821 08:26:21.376516 32262 layer_factory.hpp:77] Creating layer L1_b1_sum_eltwise
I0821 08:26:21.376591 32262 net.cpp:100] Creating Layer L1_b1_sum_eltwise
I0821 08:26:21.376607 32262 net.cpp:434] L1_b1_sum_eltwise <- L1_b1_cbr2_bn_top
I0821 08:26:21.376619 32262 net.cpp:434] L1_b1_sum_eltwise <- pre_bn_top_pre_relu_0_split_1
I0821 08:26:21.376639 32262 net.cpp:408] L1_b1_sum_eltwise -> L1_b1_sum_eltwise_top
I0821 08:26:21.376736 32262 net.cpp:150] Setting up L1_b1_sum_eltwise
I0821 08:26:21.376756 32262 net.cpp:157] Top shape: 125 16 32 32 (2048000)
I0821 08:26:21.376766 32262 net.cpp:165] Memory required for data: 116225500
I0821 08:26:21.376777 32262 layer_factory.hpp:77] Creating layer L1_b1_relu
I0821 08:26:21.376796 32262 net.cpp:100] Creating Layer L1_b1_relu
I0821 08:26:21.376808 32262 net.cpp:434] L1_b1_relu <- L1_b1_sum_eltwise_top
I0821 08:26:21.376823 32262 net.cpp:395] L1_b1_relu -> L1_b1_sum_eltwise_top (in-place)
I0821 08:26:21.376842 32262 net.cpp:150] Setting up L1_b1_relu
I0821 08:26:21.376857 32262 net.cpp:157] Top shape: 125 16 32 32 (2048000)
I0821 08:26:21.376866 32262 net.cpp:165] Memory required for data: 124417500
I0821 08:26:21.376876 32262 layer_factory.hpp:77] Creating layer L1_b1_sum_eltwise_top_L1_b1_relu_0_split
I0821 08:26:21.376893 32262 net.cpp:100] Creating Layer L1_b1_sum_eltwise_top_L1_b1_relu_0_split
I0821 08:26:21.376904 32262 net.cpp:434] L1_b1_sum_eltwise_top_L1_b1_relu_0_split <- L1_b1_sum_eltwise_top
I0821 08:26:21.376919 32262 net.cpp:408] L1_b1_sum_eltwise_top_L1_b1_relu_0_split -> L1_b1_sum_eltwise_top_L1_b1_relu_0_split_0
I0821 08:26:21.376938 32262 net.cpp:408] L1_b1_sum_eltwise_top_L1_b1_relu_0_split -> L1_b1_sum_eltwise_top_L1_b1_relu_0_split_1
I0821 08:26:21.377014 32262 net.cpp:150] Setting up L1_b1_sum_eltwise_top_L1_b1_relu_0_split
I0821 08:26:21.377032 32262 net.cpp:157] Top shape: 125 16 32 32 (2048000)
I0821 08:26:21.377045 32262 net.cpp:157] Top shape: 125 16 32 32 (2048000)
I0821 08:26:21.377064 32262 net.cpp:165] Memory required for data: 140801500
I0821 08:26:21.377075 32262 layer_factory.hpp:77] Creating layer L1_b2_cbr1_conv
I0821 08:26:21.377099 32262 net.cpp:100] Creating Layer L1_b2_cbr1_conv
I0821 08:26:21.377121 32262 net.cpp:434] L1_b2_cbr1_conv <- L1_b1_sum_eltwise_top_L1_b1_relu_0_split_0
I0821 08:26:21.377140 32262 net.cpp:408] L1_b2_cbr1_conv -> L1_b2_cbr1_conv_top
I0821 08:26:21.377483 32262 net.cpp:150] Setting up L1_b2_cbr1_conv
I0821 08:26:21.377503 32262 net.cpp:157] Top shape: 125 16 32 32 (2048000)
I0821 08:26:21.377513 32262 net.cpp:165] Memory required for data: 148993500
I0821 08:26:21.377530 32262 layer_factory.hpp:77] Creating layer L1_b2_cbr1_bn
I0821 08:26:21.377554 32262 net.cpp:100] Creating Layer L1_b2_cbr1_bn
I0821 08:26:21.377566 32262 net.cpp:434] L1_b2_cbr1_bn <- L1_b2_cbr1_conv_top
I0821 08:26:21.377586 32262 net.cpp:408] L1_b2_cbr1_bn -> L1_b2_cbr1_bn_top
I0821 08:26:21.377856 32262 net.cpp:150] Setting up L1_b2_cbr1_bn
I0821 08:26:21.377876 32262 net.cpp:157] Top shape: 125 16 32 32 (2048000)
I0821 08:26:21.377887 32262 net.cpp:165] Memory required for data: 157185500
I0821 08:26:21.377909 32262 layer_factory.hpp:77] Creating layer L1_b2_cbr1_scale
I0821 08:26:21.377926 32262 net.cpp:100] Creating Layer L1_b2_cbr1_scale
I0821 08:26:21.377938 32262 net.cpp:434] L1_b2_cbr1_scale <- L1_b2_cbr1_bn_top
I0821 08:26:21.377954 32262 net.cpp:395] L1_b2_cbr1_scale -> L1_b2_cbr1_bn_top (in-place)
I0821 08:26:21.378041 32262 layer_factory.hpp:77] Creating layer L1_b2_cbr1_scale
I0821 08:26:21.378221 32262 net.cpp:150] Setting up L1_b2_cbr1_scale
I0821 08:26:21.378240 32262 net.cpp:157] Top shape: 125 16 32 32 (2048000)
I0821 08:26:21.378249 32262 net.cpp:165] Memory required for data: 165377500
I0821 08:26:21.378268 32262 layer_factory.hpp:77] Creating layer L1_b2_cbr1_relu
I0821 08:26:21.378289 32262 net.cpp:100] Creating Layer L1_b2_cbr1_relu
I0821 08:26:21.378300 32262 net.cpp:434] L1_b2_cbr1_relu <- L1_b2_cbr1_bn_top
I0821 08:26:21.378315 32262 net.cpp:395] L1_b2_cbr1_relu -> L1_b2_cbr1_bn_top (in-place)
I0821 08:26:21.378334 32262 net.cpp:150] Setting up L1_b2_cbr1_relu
I0821 08:26:21.378348 32262 net.cpp:157] Top shape: 125 16 32 32 (2048000)
I0821 08:26:21.378358 32262 net.cpp:165] Memory required for data: 173569500
I0821 08:26:21.378368 32262 layer_factory.hpp:77] Creating layer L1_b2_cbr2_conv
I0821 08:26:21.378392 32262 net.cpp:100] Creating Layer L1_b2_cbr2_conv
I0821 08:26:21.378406 32262 net.cpp:434] L1_b2_cbr2_conv <- L1_b2_cbr1_bn_top
I0821 08:26:21.378427 32262 net.cpp:408] L1_b2_cbr2_conv -> L1_b2_cbr2_conv_top
I0821 08:26:21.378778 32262 net.cpp:150] Setting up L1_b2_cbr2_conv
I0821 08:26:21.378798 32262 net.cpp:157] Top shape: 125 16 32 32 (2048000)
I0821 08:26:21.378806 32262 net.cpp:165] Memory required for data: 181761500
I0821 08:26:21.378824 32262 layer_factory.hpp:77] Creating layer L1_b2_cbr2_bn
I0821 08:26:21.378845 32262 net.cpp:100] Creating Layer L1_b2_cbr2_bn
I0821 08:26:21.378857 32262 net.cpp:434] L1_b2_cbr2_bn <- L1_b2_cbr2_conv_top
I0821 08:26:21.378873 32262 net.cpp:408] L1_b2_cbr2_bn -> L1_b2_cbr2_bn_top
I0821 08:26:21.379158 32262 net.cpp:150] Setting up L1_b2_cbr2_bn
I0821 08:26:21.379178 32262 net.cpp:157] Top shape: 125 16 32 32 (2048000)
I0821 08:26:21.379186 32262 net.cpp:165] Memory required for data: 189953500
I0821 08:26:21.379215 32262 layer_factory.hpp:77] Creating layer L1_b2_cbr2_scale
I0821 08:26:21.379242 32262 net.cpp:100] Creating Layer L1_b2_cbr2_scale
I0821 08:26:21.379256 32262 net.cpp:434] L1_b2_cbr2_scale <- L1_b2_cbr2_bn_top
I0821 08:26:21.379271 32262 net.cpp:395] L1_b2_cbr2_scale -> L1_b2_cbr2_bn_top (in-place)
I0821 08:26:21.379366 32262 layer_factory.hpp:77] Creating layer L1_b2_cbr2_scale
I0821 08:26:21.379537 32262 net.cpp:150] Setting up L1_b2_cbr2_scale
I0821 08:26:21.379556 32262 net.cpp:157] Top shape: 125 16 32 32 (2048000)
I0821 08:26:21.379565 32262 net.cpp:165] Memory required for data: 198145500
I0821 08:26:21.379583 32262 layer_factory.hpp:77] Creating layer L1_b2_sum_eltwise
I0821 08:26:21.379609 32262 net.cpp:100] Creating Layer L1_b2_sum_eltwise
I0821 08:26:21.379621 32262 net.cpp:434] L1_b2_sum_eltwise <- L1_b2_cbr2_bn_top
I0821 08:26:21.379634 32262 net.cpp:434] L1_b2_sum_eltwise <- L1_b1_sum_eltwise_top_L1_b1_relu_0_split_1
I0821 08:26:21.379654 32262 net.cpp:408] L1_b2_sum_eltwise -> L1_b2_sum_eltwise_top
I0821 08:26:21.379709 32262 net.cpp:150] Setting up L1_b2_sum_eltwise
I0821 08:26:21.379726 32262 net.cpp:157] Top shape: 125 16 32 32 (2048000)
I0821 08:26:21.379736 32262 net.cpp:165] Memory required for data: 206337500
I0821 08:26:21.379747 32262 layer_factory.hpp:77] Creating layer L1_b2_relu
I0821 08:26:21.379762 32262 net.cpp:100] Creating Layer L1_b2_relu
I0821 08:26:21.379772 32262 net.cpp:434] L1_b2_relu <- L1_b2_sum_eltwise_top
I0821 08:26:21.379786 32262 net.cpp:395] L1_b2_relu -> L1_b2_sum_eltwise_top (in-place)
I0821 08:26:21.379806 32262 net.cpp:150] Setting up L1_b2_relu
I0821 08:26:21.379818 32262 net.cpp:157] Top shape: 125 16 32 32 (2048000)
I0821 08:26:21.379828 32262 net.cpp:165] Memory required for data: 214529500
I0821 08:26:21.379838 32262 layer_factory.hpp:77] Creating layer L1_b2_sum_eltwise_top_L1_b2_relu_0_split
I0821 08:26:21.379856 32262 net.cpp:100] Creating Layer L1_b2_sum_eltwise_top_L1_b2_relu_0_split
I0821 08:26:21.379868 32262 net.cpp:434] L1_b2_sum_eltwise_top_L1_b2_relu_0_split <- L1_b2_sum_eltwise_top
I0821 08:26:21.379883 32262 net.cpp:408] L1_b2_sum_eltwise_top_L1_b2_relu_0_split -> L1_b2_sum_eltwise_top_L1_b2_relu_0_split_0
I0821 08:26:21.379901 32262 net.cpp:408] L1_b2_sum_eltwise_top_L1_b2_relu_0_split -> L1_b2_sum_eltwise_top_L1_b2_relu_0_split_1
I0821 08:26:21.379979 32262 net.cpp:150] Setting up L1_b2_sum_eltwise_top_L1_b2_relu_0_split
I0821 08:26:21.379997 32262 net.cpp:157] Top shape: 125 16 32 32 (2048000)
I0821 08:26:21.380012 32262 net.cpp:157] Top shape: 125 16 32 32 (2048000)
I0821 08:26:21.380022 32262 net.cpp:165] Memory required for data: 230913500
I0821 08:26:21.380033 32262 layer_factory.hpp:77] Creating layer L1_b3_cbr1_conv
I0821 08:26:21.380051 32262 net.cpp:100] Creating Layer L1_b3_cbr1_conv
I0821 08:26:21.380064 32262 net.cpp:434] L1_b3_cbr1_conv <- L1_b2_sum_eltwise_top_L1_b2_relu_0_split_0
I0821 08:26:21.380085 32262 net.cpp:408] L1_b3_cbr1_conv -> L1_b3_cbr1_conv_top
I0821 08:26:21.380440 32262 net.cpp:150] Setting up L1_b3_cbr1_conv
I0821 08:26:21.380460 32262 net.cpp:157] Top shape: 125 16 32 32 (2048000)
I0821 08:26:21.380470 32262 net.cpp:165] Memory required for data: 239105500
I0821 08:26:21.380487 32262 layer_factory.hpp:77] Creating layer L1_b3_cbr1_bn
I0821 08:26:21.380504 32262 net.cpp:100] Creating Layer L1_b3_cbr1_bn
I0821 08:26:21.380515 32262 net.cpp:434] L1_b3_cbr1_bn <- L1_b3_cbr1_conv_top
I0821 08:26:21.380530 32262 net.cpp:408] L1_b3_cbr1_bn -> L1_b3_cbr1_bn_top
I0821 08:26:21.380803 32262 net.cpp:150] Setting up L1_b3_cbr1_bn
I0821 08:26:21.380822 32262 net.cpp:157] Top shape: 125 16 32 32 (2048000)
I0821 08:26:21.380832 32262 net.cpp:165] Memory required for data: 247297500
I0821 08:26:21.380852 32262 layer_factory.hpp:77] Creating layer L1_b3_cbr1_scale
I0821 08:26:21.380874 32262 net.cpp:100] Creating Layer L1_b3_cbr1_scale
I0821 08:26:21.380887 32262 net.cpp:434] L1_b3_cbr1_scale <- L1_b3_cbr1_bn_top
I0821 08:26:21.380903 32262 net.cpp:395] L1_b3_cbr1_scale -> L1_b3_cbr1_bn_top (in-place)
I0821 08:26:21.380995 32262 layer_factory.hpp:77] Creating layer L1_b3_cbr1_scale
I0821 08:26:21.381175 32262 net.cpp:150] Setting up L1_b3_cbr1_scale
I0821 08:26:21.381194 32262 net.cpp:157] Top shape: 125 16 32 32 (2048000)
I0821 08:26:21.381203 32262 net.cpp:165] Memory required for data: 255489500
I0821 08:26:21.381222 32262 layer_factory.hpp:77] Creating layer L1_b3_cbr1_relu
I0821 08:26:21.381237 32262 net.cpp:100] Creating Layer L1_b3_cbr1_relu
I0821 08:26:21.381248 32262 net.cpp:434] L1_b3_cbr1_relu <- L1_b3_cbr1_bn_top
I0821 08:26:21.381271 32262 net.cpp:395] L1_b3_cbr1_relu -> L1_b3_cbr1_bn_top (in-place)
I0821 08:26:21.381291 32262 net.cpp:150] Setting up L1_b3_cbr1_relu
I0821 08:26:21.381314 32262 net.cpp:157] Top shape: 125 16 32 32 (2048000)
I0821 08:26:21.381325 32262 net.cpp:165] Memory required for data: 263681500
I0821 08:26:21.381335 32262 layer_factory.hpp:77] Creating layer L1_b3_cbr2_conv
I0821 08:26:21.381359 32262 net.cpp:100] Creating Layer L1_b3_cbr2_conv
I0821 08:26:21.381372 32262 net.cpp:434] L1_b3_cbr2_conv <- L1_b3_cbr1_bn_top
I0821 08:26:21.381388 32262 net.cpp:408] L1_b3_cbr2_conv -> L1_b3_cbr2_conv_top
I0821 08:26:21.381736 32262 net.cpp:150] Setting up L1_b3_cbr2_conv
I0821 08:26:21.381754 32262 net.cpp:157] Top shape: 125 16 32 32 (2048000)
I0821 08:26:21.381763 32262 net.cpp:165] Memory required for data: 271873500
I0821 08:26:21.381781 32262 layer_factory.hpp:77] Creating layer L1_b3_cbr2_bn
I0821 08:26:21.381808 32262 net.cpp:100] Creating Layer L1_b3_cbr2_bn
I0821 08:26:21.381819 32262 net.cpp:434] L1_b3_cbr2_bn <- L1_b3_cbr2_conv_top
I0821 08:26:21.381840 32262 net.cpp:408] L1_b3_cbr2_bn -> L1_b3_cbr2_bn_top
I0821 08:26:21.382122 32262 net.cpp:150] Setting up L1_b3_cbr2_bn
I0821 08:26:21.382141 32262 net.cpp:157] Top shape: 125 16 32 32 (2048000)
I0821 08:26:21.382150 32262 net.cpp:165] Memory required for data: 280065500
I0821 08:26:21.382172 32262 layer_factory.hpp:77] Creating layer L1_b3_cbr2_scale
I0821 08:26:21.382194 32262 net.cpp:100] Creating Layer L1_b3_cbr2_scale
I0821 08:26:21.382205 32262 net.cpp:434] L1_b3_cbr2_scale <- L1_b3_cbr2_bn_top
I0821 08:26:21.382221 32262 net.cpp:395] L1_b3_cbr2_scale -> L1_b3_cbr2_bn_top (in-place)
I0821 08:26:21.382305 32262 layer_factory.hpp:77] Creating layer L1_b3_cbr2_scale
I0821 08:26:21.382477 32262 net.cpp:150] Setting up L1_b3_cbr2_scale
I0821 08:26:21.382496 32262 net.cpp:157] Top shape: 125 16 32 32 (2048000)
I0821 08:26:21.382505 32262 net.cpp:165] Memory required for data: 288257500
I0821 08:26:21.382524 32262 layer_factory.hpp:77] Creating layer L1_b3_sum_eltwise
I0821 08:26:21.382540 32262 net.cpp:100] Creating Layer L1_b3_sum_eltwise
I0821 08:26:21.382551 32262 net.cpp:434] L1_b3_sum_eltwise <- L1_b3_cbr2_bn_top
I0821 08:26:21.382570 32262 net.cpp:434] L1_b3_sum_eltwise <- L1_b2_sum_eltwise_top_L1_b2_relu_0_split_1
I0821 08:26:21.382587 32262 net.cpp:408] L1_b3_sum_eltwise -> L1_b3_sum_eltwise_top
I0821 08:26:21.382644 32262 net.cpp:150] Setting up L1_b3_sum_eltwise
I0821 08:26:21.382663 32262 net.cpp:157] Top shape: 125 16 32 32 (2048000)
I0821 08:26:21.382673 32262 net.cpp:165] Memory required for data: 296449500
I0821 08:26:21.382683 32262 layer_factory.hpp:77] Creating layer L1_b3_relu
I0821 08:26:21.382696 32262 net.cpp:100] Creating Layer L1_b3_relu
I0821 08:26:21.382709 32262 net.cpp:434] L1_b3_relu <- L1_b3_sum_eltwise_top
I0821 08:26:21.382727 32262 net.cpp:395] L1_b3_relu -> L1_b3_sum_eltwise_top (in-place)
I0821 08:26:21.382746 32262 net.cpp:150] Setting up L1_b3_relu
I0821 08:26:21.382761 32262 net.cpp:157] Top shape: 125 16 32 32 (2048000)
I0821 08:26:21.382771 32262 net.cpp:165] Memory required for data: 304641500
I0821 08:26:21.382779 32262 layer_factory.hpp:77] Creating layer L1_b3_sum_eltwise_top_L1_b3_relu_0_split
I0821 08:26:21.382794 32262 net.cpp:100] Creating Layer L1_b3_sum_eltwise_top_L1_b3_relu_0_split
I0821 08:26:21.382805 32262 net.cpp:434] L1_b3_sum_eltwise_top_L1_b3_relu_0_split <- L1_b3_sum_eltwise_top
I0821 08:26:21.382819 32262 net.cpp:408] L1_b3_sum_eltwise_top_L1_b3_relu_0_split -> L1_b3_sum_eltwise_top_L1_b3_relu_0_split_0
I0821 08:26:21.382838 32262 net.cpp:408] L1_b3_sum_eltwise_top_L1_b3_relu_0_split -> L1_b3_sum_eltwise_top_L1_b3_relu_0_split_1
I0821 08:26:21.382915 32262 net.cpp:150] Setting up L1_b3_sum_eltwise_top_L1_b3_relu_0_split
I0821 08:26:21.382928 32262 net.cpp:157] Top shape: 125 16 32 32 (2048000)
I0821 08:26:21.382935 32262 net.cpp:157] Top shape: 125 16 32 32 (2048000)
I0821 08:26:21.382939 32262 net.cpp:165] Memory required for data: 321025500
I0821 08:26:21.382946 32262 layer_factory.hpp:77] Creating layer L1_b4_cbr1_conv
I0821 08:26:21.382956 32262 net.cpp:100] Creating Layer L1_b4_cbr1_conv
I0821 08:26:21.382962 32262 net.cpp:434] L1_b4_cbr1_conv <- L1_b3_sum_eltwise_top_L1_b3_relu_0_split_0
I0821 08:26:21.382982 32262 net.cpp:408] L1_b4_cbr1_conv -> L1_b4_cbr1_conv_top
I0821 08:26:21.383299 32262 net.cpp:150] Setting up L1_b4_cbr1_conv
I0821 08:26:21.383317 32262 net.cpp:157] Top shape: 125 16 32 32 (2048000)
I0821 08:26:21.383327 32262 net.cpp:165] Memory required for data: 329217500
I0821 08:26:21.383343 32262 layer_factory.hpp:77] Creating layer L1_b4_cbr1_bn
I0821 08:26:21.383360 32262 net.cpp:100] Creating Layer L1_b4_cbr1_bn
I0821 08:26:21.383371 32262 net.cpp:434] L1_b4_cbr1_bn <- L1_b4_cbr1_conv_top
I0821 08:26:21.383396 32262 net.cpp:408] L1_b4_cbr1_bn -> L1_b4_cbr1_bn_top
I0821 08:26:21.383672 32262 net.cpp:150] Setting up L1_b4_cbr1_bn
I0821 08:26:21.383690 32262 net.cpp:157] Top shape: 125 16 32 32 (2048000)
I0821 08:26:21.383700 32262 net.cpp:165] Memory required for data: 337409500
I0821 08:26:21.383721 32262 layer_factory.hpp:77] Creating layer L1_b4_cbr1_scale
I0821 08:26:21.383741 32262 net.cpp:100] Creating Layer L1_b4_cbr1_scale
I0821 08:26:21.383754 32262 net.cpp:434] L1_b4_cbr1_scale <- L1_b4_cbr1_bn_top
I0821 08:26:21.383769 32262 net.cpp:395] L1_b4_cbr1_scale -> L1_b4_cbr1_bn_top (in-place)
I0821 08:26:21.383854 32262 layer_factory.hpp:77] Creating layer L1_b4_cbr1_scale
I0821 08:26:21.384029 32262 net.cpp:150] Setting up L1_b4_cbr1_scale
I0821 08:26:21.384048 32262 net.cpp:157] Top shape: 125 16 32 32 (2048000)
I0821 08:26:21.384058 32262 net.cpp:165] Memory required for data: 345601500
I0821 08:26:21.384076 32262 layer_factory.hpp:77] Creating layer L1_b4_cbr1_relu
I0821 08:26:21.384095 32262 net.cpp:100] Creating Layer L1_b4_cbr1_relu
I0821 08:26:21.384114 32262 net.cpp:434] L1_b4_cbr1_relu <- L1_b4_cbr1_bn_top
I0821 08:26:21.384131 32262 net.cpp:395] L1_b4_cbr1_relu -> L1_b4_cbr1_bn_top (in-place)
I0821 08:26:21.384150 32262 net.cpp:150] Setting up L1_b4_cbr1_relu
I0821 08:26:21.384165 32262 net.cpp:157] Top shape: 125 16 32 32 (2048000)
I0821 08:26:21.384174 32262 net.cpp:165] Memory required for data: 353793500
I0821 08:26:21.384184 32262 layer_factory.hpp:77] Creating layer L1_b4_cbr2_conv
I0821 08:26:21.384209 32262 net.cpp:100] Creating Layer L1_b4_cbr2_conv
I0821 08:26:21.384222 32262 net.cpp:434] L1_b4_cbr2_conv <- L1_b4_cbr1_bn_top
I0821 08:26:21.384243 32262 net.cpp:408] L1_b4_cbr2_conv -> L1_b4_cbr2_conv_top
I0821 08:26:21.384593 32262 net.cpp:150] Setting up L1_b4_cbr2_conv
I0821 08:26:21.384613 32262 net.cpp:157] Top shape: 125 16 32 32 (2048000)
I0821 08:26:21.384623 32262 net.cpp:165] Memory required for data: 361985500
I0821 08:26:21.384640 32262 layer_factory.hpp:77] Creating layer L1_b4_cbr2_bn
I0821 08:26:21.384656 32262 net.cpp:100] Creating Layer L1_b4_cbr2_bn
I0821 08:26:21.384667 32262 net.cpp:434] L1_b4_cbr2_bn <- L1_b4_cbr2_conv_top
I0821 08:26:21.384683 32262 net.cpp:408] L1_b4_cbr2_bn -> L1_b4_cbr2_bn_top
I0821 08:26:21.384961 32262 net.cpp:150] Setting up L1_b4_cbr2_bn
I0821 08:26:21.384981 32262 net.cpp:157] Top shape: 125 16 32 32 (2048000)
I0821 08:26:21.384990 32262 net.cpp:165] Memory required for data: 370177500
I0821 08:26:21.385016 32262 layer_factory.hpp:77] Creating layer L1_b4_cbr2_scale
I0821 08:26:21.385035 32262 net.cpp:100] Creating Layer L1_b4_cbr2_scale
I0821 08:26:21.385046 32262 net.cpp:434] L1_b4_cbr2_scale <- L1_b4_cbr2_bn_top
I0821 08:26:21.385066 32262 net.cpp:395] L1_b4_cbr2_scale -> L1_b4_cbr2_bn_top (in-place)
I0821 08:26:21.385154 32262 layer_factory.hpp:77] Creating layer L1_b4_cbr2_scale
I0821 08:26:21.385334 32262 net.cpp:150] Setting up L1_b4_cbr2_scale
I0821 08:26:21.385352 32262 net.cpp:157] Top shape: 125 16 32 32 (2048000)
I0821 08:26:21.385361 32262 net.cpp:165] Memory required for data: 378369500
I0821 08:26:21.385380 32262 layer_factory.hpp:77] Creating layer L1_b4_sum_eltwise
I0821 08:26:21.385401 32262 net.cpp:100] Creating Layer L1_b4_sum_eltwise
I0821 08:26:21.385412 32262 net.cpp:434] L1_b4_sum_eltwise <- L1_b4_cbr2_bn_top
I0821 08:26:21.385426 32262 net.cpp:434] L1_b4_sum_eltwise <- L1_b3_sum_eltwise_top_L1_b3_relu_0_split_1
I0821 08:26:21.385442 32262 net.cpp:408] L1_b4_sum_eltwise -> L1_b4_sum_eltwise_top
I0821 08:26:21.385509 32262 net.cpp:150] Setting up L1_b4_sum_eltwise
I0821 08:26:21.385526 32262 net.cpp:157] Top shape: 125 16 32 32 (2048000)
I0821 08:26:21.385537 32262 net.cpp:165] Memory required for data: 386561500
I0821 08:26:21.385547 32262 layer_factory.hpp:77] Creating layer L1_b4_relu
I0821 08:26:21.385562 32262 net.cpp:100] Creating Layer L1_b4_relu
I0821 08:26:21.385573 32262 net.cpp:434] L1_b4_relu <- L1_b4_sum_eltwise_top
I0821 08:26:21.385592 32262 net.cpp:395] L1_b4_relu -> L1_b4_sum_eltwise_top (in-place)
I0821 08:26:21.385612 32262 net.cpp:150] Setting up L1_b4_relu
I0821 08:26:21.385627 32262 net.cpp:157] Top shape: 125 16 32 32 (2048000)
I0821 08:26:21.385637 32262 net.cpp:165] Memory required for data: 394753500
I0821 08:26:21.385646 32262 layer_factory.hpp:77] Creating layer L1_b4_sum_eltwise_top_L1_b4_relu_0_split
I0821 08:26:21.385659 32262 net.cpp:100] Creating Layer L1_b4_sum_eltwise_top_L1_b4_relu_0_split
I0821 08:26:21.385670 32262 net.cpp:434] L1_b4_sum_eltwise_top_L1_b4_relu_0_split <- L1_b4_sum_eltwise_top
I0821 08:26:21.385685 32262 net.cpp:408] L1_b4_sum_eltwise_top_L1_b4_relu_0_split -> L1_b4_sum_eltwise_top_L1_b4_relu_0_split_0
I0821 08:26:21.385704 32262 net.cpp:408] L1_b4_sum_eltwise_top_L1_b4_relu_0_split -> L1_b4_sum_eltwise_top_L1_b4_relu_0_split_1
I0821 08:26:21.385784 32262 net.cpp:150] Setting up L1_b4_sum_eltwise_top_L1_b4_relu_0_split
I0821 08:26:21.385803 32262 net.cpp:157] Top shape: 125 16 32 32 (2048000)
I0821 08:26:21.385817 32262 net.cpp:157] Top shape: 125 16 32 32 (2048000)
I0821 08:26:21.385825 32262 net.cpp:165] Memory required for data: 411137500
I0821 08:26:21.385836 32262 layer_factory.hpp:77] Creating layer L1_b5_cbr1_conv
I0821 08:26:21.385860 32262 net.cpp:100] Creating Layer L1_b5_cbr1_conv
I0821 08:26:21.385874 32262 net.cpp:434] L1_b5_cbr1_conv <- L1_b4_sum_eltwise_top_L1_b4_relu_0_split_0
I0821 08:26:21.385892 32262 net.cpp:408] L1_b5_cbr1_conv -> L1_b5_cbr1_conv_top
I0821 08:26:21.386219 32262 net.cpp:150] Setting up L1_b5_cbr1_conv
I0821 08:26:21.386237 32262 net.cpp:157] Top shape: 125 16 32 32 (2048000)
I0821 08:26:21.386246 32262 net.cpp:165] Memory required for data: 419329500
I0821 08:26:21.386282 32262 layer_factory.hpp:77] Creating layer L1_b5_cbr1_bn
I0821 08:26:21.386304 32262 net.cpp:100] Creating Layer L1_b5_cbr1_bn
I0821 08:26:21.386317 32262 net.cpp:434] L1_b5_cbr1_bn <- L1_b5_cbr1_conv_top
I0821 08:26:21.386334 32262 net.cpp:408] L1_b5_cbr1_bn -> L1_b5_cbr1_bn_top
I0821 08:26:21.386603 32262 net.cpp:150] Setting up L1_b5_cbr1_bn
I0821 08:26:21.386623 32262 net.cpp:157] Top shape: 125 16 32 32 (2048000)
I0821 08:26:21.386632 32262 net.cpp:165] Memory required for data: 427521500
I0821 08:26:21.386653 32262 layer_factory.hpp:77] Creating layer L1_b5_cbr1_scale
I0821 08:26:21.386674 32262 net.cpp:100] Creating Layer L1_b5_cbr1_scale
I0821 08:26:21.386687 32262 net.cpp:434] L1_b5_cbr1_scale <- L1_b5_cbr1_bn_top
I0821 08:26:21.386703 32262 net.cpp:395] L1_b5_cbr1_scale -> L1_b5_cbr1_bn_top (in-place)
I0821 08:26:21.386787 32262 layer_factory.hpp:77] Creating layer L1_b5_cbr1_scale
I0821 08:26:21.386965 32262 net.cpp:150] Setting up L1_b5_cbr1_scale
I0821 08:26:21.386983 32262 net.cpp:157] Top shape: 125 16 32 32 (2048000)
I0821 08:26:21.386993 32262 net.cpp:165] Memory required for data: 435713500
I0821 08:26:21.387012 32262 layer_factory.hpp:77] Creating layer L1_b5_cbr1_relu
I0821 08:26:21.387032 32262 net.cpp:100] Creating Layer L1_b5_cbr1_relu
I0821 08:26:21.387043 32262 net.cpp:434] L1_b5_cbr1_relu <- L1_b5_cbr1_bn_top
I0821 08:26:21.387058 32262 net.cpp:395] L1_b5_cbr1_relu -> L1_b5_cbr1_bn_top (in-place)
I0821 08:26:21.387076 32262 net.cpp:150] Setting up L1_b5_cbr1_relu
I0821 08:26:21.387089 32262 net.cpp:157] Top shape: 125 16 32 32 (2048000)
I0821 08:26:21.387099 32262 net.cpp:165] Memory required for data: 443905500
I0821 08:26:21.387118 32262 layer_factory.hpp:77] Creating layer L1_b5_cbr2_conv
I0821 08:26:21.387146 32262 net.cpp:100] Creating Layer L1_b5_cbr2_conv
I0821 08:26:21.387167 32262 net.cpp:434] L1_b5_cbr2_conv <- L1_b5_cbr1_bn_top
I0821 08:26:21.387189 32262 net.cpp:408] L1_b5_cbr2_conv -> L1_b5_cbr2_conv_top
I0821 08:26:21.387554 32262 net.cpp:150] Setting up L1_b5_cbr2_conv
I0821 08:26:21.387574 32262 net.cpp:157] Top shape: 125 16 32 32 (2048000)
I0821 08:26:21.387583 32262 net.cpp:165] Memory required for data: 452097500
I0821 08:26:21.387601 32262 layer_factory.hpp:77] Creating layer L1_b5_cbr2_bn
I0821 08:26:21.387619 32262 net.cpp:100] Creating Layer L1_b5_cbr2_bn
I0821 08:26:21.387630 32262 net.cpp:434] L1_b5_cbr2_bn <- L1_b5_cbr2_conv_top
I0821 08:26:21.387646 32262 net.cpp:408] L1_b5_cbr2_bn -> L1_b5_cbr2_bn_top
I0821 08:26:21.387922 32262 net.cpp:150] Setting up L1_b5_cbr2_bn
I0821 08:26:21.387941 32262 net.cpp:157] Top shape: 125 16 32 32 (2048000)
I0821 08:26:21.387950 32262 net.cpp:165] Memory required for data: 460289500
I0821 08:26:21.387971 32262 layer_factory.hpp:77] Creating layer L1_b5_cbr2_scale
I0821 08:26:21.387991 32262 net.cpp:100] Creating Layer L1_b5_cbr2_scale
I0821 08:26:21.388003 32262 net.cpp:434] L1_b5_cbr2_scale <- L1_b5_cbr2_bn_top
I0821 08:26:21.388018 32262 net.cpp:395] L1_b5_cbr2_scale -> L1_b5_cbr2_bn_top (in-place)
I0821 08:26:21.388113 32262 layer_factory.hpp:77] Creating layer L1_b5_cbr2_scale
I0821 08:26:21.388288 32262 net.cpp:150] Setting up L1_b5_cbr2_scale
I0821 08:26:21.388306 32262 net.cpp:157] Top shape: 125 16 32 32 (2048000)
I0821 08:26:21.388316 32262 net.cpp:165] Memory required for data: 468481500
I0821 08:26:21.388334 32262 layer_factory.hpp:77] Creating layer L1_b5_sum_eltwise
I0821 08:26:21.388352 32262 net.cpp:100] Creating Layer L1_b5_sum_eltwise
I0821 08:26:21.388363 32262 net.cpp:434] L1_b5_sum_eltwise <- L1_b5_cbr2_bn_top
I0821 08:26:21.388376 32262 net.cpp:434] L1_b5_sum_eltwise <- L1_b4_sum_eltwise_top_L1_b4_relu_0_split_1
I0821 08:26:21.388397 32262 net.cpp:408] L1_b5_sum_eltwise -> L1_b5_sum_eltwise_top
I0821 08:26:21.388455 32262 net.cpp:150] Setting up L1_b5_sum_eltwise
I0821 08:26:21.388473 32262 net.cpp:157] Top shape: 125 16 32 32 (2048000)
I0821 08:26:21.388484 32262 net.cpp:165] Memory required for data: 476673500
I0821 08:26:21.388494 32262 layer_factory.hpp:77] Creating layer L1_b5_relu
I0821 08:26:21.388509 32262 net.cpp:100] Creating Layer L1_b5_relu
I0821 08:26:21.388520 32262 net.cpp:434] L1_b5_relu <- L1_b5_sum_eltwise_top
I0821 08:26:21.388538 32262 net.cpp:395] L1_b5_relu -> L1_b5_sum_eltwise_top (in-place)
I0821 08:26:21.388557 32262 net.cpp:150] Setting up L1_b5_relu
I0821 08:26:21.388572 32262 net.cpp:157] Top shape: 125 16 32 32 (2048000)
I0821 08:26:21.388581 32262 net.cpp:165] Memory required for data: 484865500
I0821 08:26:21.388592 32262 layer_factory.hpp:77] Creating layer L1_b5_sum_eltwise_top_L1_b5_relu_0_split
I0821 08:26:21.388605 32262 net.cpp:100] Creating Layer L1_b5_sum_eltwise_top_L1_b5_relu_0_split
I0821 08:26:21.388615 32262 net.cpp:434] L1_b5_sum_eltwise_top_L1_b5_relu_0_split <- L1_b5_sum_eltwise_top
I0821 08:26:21.388629 32262 net.cpp:408] L1_b5_sum_eltwise_top_L1_b5_relu_0_split -> L1_b5_sum_eltwise_top_L1_b5_relu_0_split_0
I0821 08:26:21.388649 32262 net.cpp:408] L1_b5_sum_eltwise_top_L1_b5_relu_0_split -> L1_b5_sum_eltwise_top_L1_b5_relu_0_split_1
I0821 08:26:21.388730 32262 net.cpp:150] Setting up L1_b5_sum_eltwise_top_L1_b5_relu_0_split
I0821 08:26:21.388746 32262 net.cpp:157] Top shape: 125 16 32 32 (2048000)
I0821 08:26:21.388761 32262 net.cpp:157] Top shape: 125 16 32 32 (2048000)
I0821 08:26:21.388770 32262 net.cpp:165] Memory required for data: 501249500
I0821 08:26:21.388780 32262 layer_factory.hpp:77] Creating layer L1_b6_cbr1_conv
I0821 08:26:21.388800 32262 net.cpp:100] Creating Layer L1_b6_cbr1_conv
I0821 08:26:21.388813 32262 net.cpp:434] L1_b6_cbr1_conv <- L1_b5_sum_eltwise_top_L1_b5_relu_0_split_0
I0821 08:26:21.388834 32262 net.cpp:408] L1_b6_cbr1_conv -> L1_b6_cbr1_conv_top
I0821 08:26:21.389200 32262 net.cpp:150] Setting up L1_b6_cbr1_conv
I0821 08:26:21.389220 32262 net.cpp:157] Top shape: 125 16 32 32 (2048000)
I0821 08:26:21.389230 32262 net.cpp:165] Memory required for data: 509441500
I0821 08:26:21.389256 32262 layer_factory.hpp:77] Creating layer L1_b6_cbr1_bn
I0821 08:26:21.389273 32262 net.cpp:100] Creating Layer L1_b6_cbr1_bn
I0821 08:26:21.389286 32262 net.cpp:434] L1_b6_cbr1_bn <- L1_b6_cbr1_conv_top
I0821 08:26:21.389305 32262 net.cpp:408] L1_b6_cbr1_bn -> L1_b6_cbr1_bn_top
I0821 08:26:21.389606 32262 net.cpp:150] Setting up L1_b6_cbr1_bn
I0821 08:26:21.389627 32262 net.cpp:157] Top shape: 125 16 32 32 (2048000)
I0821 08:26:21.389636 32262 net.cpp:165] Memory required for data: 517633500
I0821 08:26:21.389657 32262 layer_factory.hpp:77] Creating layer L1_b6_cbr1_scale
I0821 08:26:21.389678 32262 net.cpp:100] Creating Layer L1_b6_cbr1_scale
I0821 08:26:21.389690 32262 net.cpp:434] L1_b6_cbr1_scale <- L1_b6_cbr1_bn_top
I0821 08:26:21.389706 32262 net.cpp:395] L1_b6_cbr1_scale -> L1_b6_cbr1_bn_top (in-place)
I0821 08:26:21.389791 32262 layer_factory.hpp:77] Creating layer L1_b6_cbr1_scale
I0821 08:26:21.389972 32262 net.cpp:150] Setting up L1_b6_cbr1_scale
I0821 08:26:21.389991 32262 net.cpp:157] Top shape: 125 16 32 32 (2048000)
I0821 08:26:21.390002 32262 net.cpp:165] Memory required for data: 525825500
I0821 08:26:21.390019 32262 layer_factory.hpp:77] Creating layer L1_b6_cbr1_relu
I0821 08:26:21.390035 32262 net.cpp:100] Creating Layer L1_b6_cbr1_relu
I0821 08:26:21.390046 32262 net.cpp:434] L1_b6_cbr1_relu <- L1_b6_cbr1_bn_top
I0821 08:26:21.390064 32262 net.cpp:395] L1_b6_cbr1_relu -> L1_b6_cbr1_bn_top (in-place)
I0821 08:26:21.390085 32262 net.cpp:150] Setting up L1_b6_cbr1_relu
I0821 08:26:21.390100 32262 net.cpp:157] Top shape: 125 16 32 32 (2048000)
I0821 08:26:21.390117 32262 net.cpp:165] Memory required for data: 534017500
I0821 08:26:21.390127 32262 layer_factory.hpp:77] Creating layer L1_b6_cbr2_conv
I0821 08:26:21.390152 32262 net.cpp:100] Creating Layer L1_b6_cbr2_conv
I0821 08:26:21.390164 32262 net.cpp:434] L1_b6_cbr2_conv <- L1_b6_cbr1_bn_top
I0821 08:26:21.390185 32262 net.cpp:408] L1_b6_cbr2_conv -> L1_b6_cbr2_conv_top
I0821 08:26:21.390539 32262 net.cpp:150] Setting up L1_b6_cbr2_conv
I0821 08:26:21.390559 32262 net.cpp:157] Top shape: 125 16 32 32 (2048000)
I0821 08:26:21.390568 32262 net.cpp:165] Memory required for data: 542209500
I0821 08:26:21.390586 32262 layer_factory.hpp:77] Creating layer L1_b6_cbr2_bn
I0821 08:26:21.390604 32262 net.cpp:100] Creating Layer L1_b6_cbr2_bn
I0821 08:26:21.390614 32262 net.cpp:434] L1_b6_cbr2_bn <- L1_b6_cbr2_conv_top
I0821 08:26:21.390630 32262 net.cpp:408] L1_b6_cbr2_bn -> L1_b6_cbr2_bn_top
I0821 08:26:21.390907 32262 net.cpp:150] Setting up L1_b6_cbr2_bn
I0821 08:26:21.390926 32262 net.cpp:157] Top shape: 125 16 32 32 (2048000)
I0821 08:26:21.390935 32262 net.cpp:165] Memory required for data: 550401500
I0821 08:26:21.390957 32262 layer_factory.hpp:77] Creating layer L1_b6_cbr2_scale
I0821 08:26:21.390977 32262 net.cpp:100] Creating Layer L1_b6_cbr2_scale
I0821 08:26:21.390990 32262 net.cpp:434] L1_b6_cbr2_scale <- L1_b6_cbr2_bn_top
I0821 08:26:21.391005 32262 net.cpp:395] L1_b6_cbr2_scale -> L1_b6_cbr2_bn_top (in-place)
I0821 08:26:21.391093 32262 layer_factory.hpp:77] Creating layer L1_b6_cbr2_scale
I0821 08:26:21.391278 32262 net.cpp:150] Setting up L1_b6_cbr2_scale
I0821 08:26:21.391296 32262 net.cpp:157] Top shape: 125 16 32 32 (2048000)
I0821 08:26:21.391305 32262 net.cpp:165] Memory required for data: 558593500
I0821 08:26:21.391324 32262 layer_factory.hpp:77] Creating layer L1_b6_sum_eltwise
I0821 08:26:21.391352 32262 net.cpp:100] Creating Layer L1_b6_sum_eltwise
I0821 08:26:21.391364 32262 net.cpp:434] L1_b6_sum_eltwise <- L1_b6_cbr2_bn_top
I0821 08:26:21.391378 32262 net.cpp:434] L1_b6_sum_eltwise <- L1_b5_sum_eltwise_top_L1_b5_relu_0_split_1
I0821 08:26:21.391399 32262 net.cpp:408] L1_b6_sum_eltwise -> L1_b6_sum_eltwise_top
I0821 08:26:21.391453 32262 net.cpp:150] Setting up L1_b6_sum_eltwise
I0821 08:26:21.391471 32262 net.cpp:157] Top shape: 125 16 32 32 (2048000)
I0821 08:26:21.391481 32262 net.cpp:165] Memory required for data: 566785500
I0821 08:26:21.391492 32262 layer_factory.hpp:77] Creating layer L1_b6_relu
I0821 08:26:21.391521 32262 net.cpp:100] Creating Layer L1_b6_relu
I0821 08:26:21.391533 32262 net.cpp:434] L1_b6_relu <- L1_b6_sum_eltwise_top
I0821 08:26:21.391547 32262 net.cpp:395] L1_b6_relu -> L1_b6_sum_eltwise_top (in-place)
I0821 08:26:21.391566 32262 net.cpp:150] Setting up L1_b6_relu
I0821 08:26:21.391582 32262 net.cpp:157] Top shape: 125 16 32 32 (2048000)
I0821 08:26:21.391592 32262 net.cpp:165] Memory required for data: 574977500
I0821 08:26:21.391600 32262 layer_factory.hpp:77] Creating layer L1_b6_sum_eltwise_top_L1_b6_relu_0_split
I0821 08:26:21.391613 32262 net.cpp:100] Creating Layer L1_b6_sum_eltwise_top_L1_b6_relu_0_split
I0821 08:26:21.391625 32262 net.cpp:434] L1_b6_sum_eltwise_top_L1_b6_relu_0_split <- L1_b6_sum_eltwise_top
I0821 08:26:21.391640 32262 net.cpp:408] L1_b6_sum_eltwise_top_L1_b6_relu_0_split -> L1_b6_sum_eltwise_top_L1_b6_relu_0_split_0
I0821 08:26:21.391659 32262 net.cpp:408] L1_b6_sum_eltwise_top_L1_b6_relu_0_split -> L1_b6_sum_eltwise_top_L1_b6_relu_0_split_1
I0821 08:26:21.391738 32262 net.cpp:150] Setting up L1_b6_sum_eltwise_top_L1_b6_relu_0_split
I0821 08:26:21.391757 32262 net.cpp:157] Top shape: 125 16 32 32 (2048000)
I0821 08:26:21.391769 32262 net.cpp:157] Top shape: 125 16 32 32 (2048000)
I0821 08:26:21.391779 32262 net.cpp:165] Memory required for data: 591361500
I0821 08:26:21.391789 32262 layer_factory.hpp:77] Creating layer L1_b7_cbr1_conv
I0821 08:26:21.391813 32262 net.cpp:100] Creating Layer L1_b7_cbr1_conv
I0821 08:26:21.391826 32262 net.cpp:434] L1_b7_cbr1_conv <- L1_b6_sum_eltwise_top_L1_b6_relu_0_split_0
I0821 08:26:21.391845 32262 net.cpp:408] L1_b7_cbr1_conv -> L1_b7_cbr1_conv_top
I0821 08:26:21.392220 32262 net.cpp:150] Setting up L1_b7_cbr1_conv
I0821 08:26:21.392240 32262 net.cpp:157] Top shape: 125 16 32 32 (2048000)
I0821 08:26:21.392248 32262 net.cpp:165] Memory required for data: 599553500
I0821 08:26:21.392266 32262 layer_factory.hpp:77] Creating layer L1_b7_cbr1_bn
I0821 08:26:21.392289 32262 net.cpp:100] Creating Layer L1_b7_cbr1_bn
I0821 08:26:21.392302 32262 net.cpp:434] L1_b7_cbr1_bn <- L1_b7_cbr1_conv_top
I0821 08:26:21.392319 32262 net.cpp:408] L1_b7_cbr1_bn -> L1_b7_cbr1_bn_top
I0821 08:26:21.392593 32262 net.cpp:150] Setting up L1_b7_cbr1_bn
I0821 08:26:21.392612 32262 net.cpp:157] Top shape: 125 16 32 32 (2048000)
I0821 08:26:21.392622 32262 net.cpp:165] Memory required for data: 607745500
I0821 08:26:21.392643 32262 layer_factory.hpp:77] Creating layer L1_b7_cbr1_scale
I0821 08:26:21.392660 32262 net.cpp:100] Creating Layer L1_b7_cbr1_scale
I0821 08:26:21.392671 32262 net.cpp:434] L1_b7_cbr1_scale <- L1_b7_cbr1_bn_top
I0821 08:26:21.392686 32262 net.cpp:395] L1_b7_cbr1_scale -> L1_b7_cbr1_bn_top (in-place)
I0821 08:26:21.392776 32262 layer_factory.hpp:77] Creating layer L1_b7_cbr1_scale
I0821 08:26:21.392951 32262 net.cpp:150] Setting up L1_b7_cbr1_scale
I0821 08:26:21.392969 32262 net.cpp:157] Top shape: 125 16 32 32 (2048000)
I0821 08:26:21.392978 32262 net.cpp:165] Memory required for data: 615937500
I0821 08:26:21.392997 32262 layer_factory.hpp:77] Creating layer L1_b7_cbr1_relu
I0821 08:26:21.393012 32262 net.cpp:100] Creating Layer L1_b7_cbr1_relu
I0821 08:26:21.393023 32262 net.cpp:434] L1_b7_cbr1_relu <- L1_b7_cbr1_bn_top
I0821 08:26:21.393043 32262 net.cpp:395] L1_b7_cbr1_relu -> L1_b7_cbr1_bn_top (in-place)
I0821 08:26:21.393064 32262 net.cpp:150] Setting up L1_b7_cbr1_relu
I0821 08:26:21.393077 32262 net.cpp:157] Top shape: 125 16 32 32 (2048000)
I0821 08:26:21.393087 32262 net.cpp:165] Memory required for data: 624129500
I0821 08:26:21.393096 32262 layer_factory.hpp:77] Creating layer L1_b7_cbr2_conv
I0821 08:26:21.393124 32262 net.cpp:100] Creating Layer L1_b7_cbr2_conv
I0821 08:26:21.393138 32262 net.cpp:434] L1_b7_cbr2_conv <- L1_b7_cbr1_bn_top
I0821 08:26:21.393159 32262 net.cpp:408] L1_b7_cbr2_conv -> L1_b7_cbr2_conv_top
I0821 08:26:21.393520 32262 net.cpp:150] Setting up L1_b7_cbr2_conv
I0821 08:26:21.393540 32262 net.cpp:157] Top shape: 125 16 32 32 (2048000)
I0821 08:26:21.393549 32262 net.cpp:165] Memory required for data: 632321500
I0821 08:26:21.393577 32262 layer_factory.hpp:77] Creating layer L1_b7_cbr2_bn
I0821 08:26:21.393595 32262 net.cpp:100] Creating Layer L1_b7_cbr2_bn
I0821 08:26:21.393607 32262 net.cpp:434] L1_b7_cbr2_bn <- L1_b7_cbr2_conv_top
I0821 08:26:21.393627 32262 net.cpp:408] L1_b7_cbr2_bn -> L1_b7_cbr2_bn_top
I0821 08:26:21.393916 32262 net.cpp:150] Setting up L1_b7_cbr2_bn
I0821 08:26:21.393939 32262 net.cpp:157] Top shape: 125 16 32 32 (2048000)
I0821 08:26:21.393949 32262 net.cpp:165] Memory required for data: 640513500
I0821 08:26:21.393970 32262 layer_factory.hpp:77] Creating layer L1_b7_cbr2_scale
I0821 08:26:21.393986 32262 net.cpp:100] Creating Layer L1_b7_cbr2_scale
I0821 08:26:21.393997 32262 net.cpp:434] L1_b7_cbr2_scale <- L1_b7_cbr2_bn_top
I0821 08:26:21.394012 32262 net.cpp:395] L1_b7_cbr2_scale -> L1_b7_cbr2_bn_top (in-place)
I0821 08:26:21.394098 32262 layer_factory.hpp:77] Creating layer L1_b7_cbr2_scale
I0821 08:26:21.394280 32262 net.cpp:150] Setting up L1_b7_cbr2_scale
I0821 08:26:21.394302 32262 net.cpp:157] Top shape: 125 16 32 32 (2048000)
I0821 08:26:21.394312 32262 net.cpp:165] Memory required for data: 648705500
I0821 08:26:21.394330 32262 layer_factory.hpp:77] Creating layer L1_b7_sum_eltwise
I0821 08:26:21.394353 32262 net.cpp:100] Creating Layer L1_b7_sum_eltwise
I0821 08:26:21.394367 32262 net.cpp:434] L1_b7_sum_eltwise <- L1_b7_cbr2_bn_top
I0821 08:26:21.394381 32262 net.cpp:434] L1_b7_sum_eltwise <- L1_b6_sum_eltwise_top_L1_b6_relu_0_split_1
I0821 08:26:21.394402 32262 net.cpp:408] L1_b7_sum_eltwise -> L1_b7_sum_eltwise_top
I0821 08:26:21.394455 32262 net.cpp:150] Setting up L1_b7_sum_eltwise
I0821 08:26:21.394475 32262 net.cpp:157] Top shape: 125 16 32 32 (2048000)
I0821 08:26:21.394485 32262 net.cpp:165] Memory required for data: 656897500
I0821 08:26:21.394495 32262 layer_factory.hpp:77] Creating layer L1_b7_relu
I0821 08:26:21.394515 32262 net.cpp:100] Creating Layer L1_b7_relu
I0821 08:26:21.394526 32262 net.cpp:434] L1_b7_relu <- L1_b7_sum_eltwise_top
I0821 08:26:21.394541 32262 net.cpp:395] L1_b7_relu -> L1_b7_sum_eltwise_top (in-place)
I0821 08:26:21.394559 32262 net.cpp:150] Setting up L1_b7_relu
I0821 08:26:21.394572 32262 net.cpp:157] Top shape: 125 16 32 32 (2048000)
I0821 08:26:21.394582 32262 net.cpp:165] Memory required for data: 665089500
I0821 08:26:21.394593 32262 layer_factory.hpp:77] Creating layer L1_b7_sum_eltwise_top_L1_b7_relu_0_split
I0821 08:26:21.394606 32262 net.cpp:100] Creating Layer L1_b7_sum_eltwise_top_L1_b7_relu_0_split
I0821 08:26:21.394616 32262 net.cpp:434] L1_b7_sum_eltwise_top_L1_b7_relu_0_split <- L1_b7_sum_eltwise_top
I0821 08:26:21.394631 32262 net.cpp:408] L1_b7_sum_eltwise_top_L1_b7_relu_0_split -> L1_b7_sum_eltwise_top_L1_b7_relu_0_split_0
I0821 08:26:21.394651 32262 net.cpp:408] L1_b7_sum_eltwise_top_L1_b7_relu_0_split -> L1_b7_sum_eltwise_top_L1_b7_relu_0_split_1
I0821 08:26:21.394731 32262 net.cpp:150] Setting up L1_b7_sum_eltwise_top_L1_b7_relu_0_split
I0821 08:26:21.394752 32262 net.cpp:157] Top shape: 125 16 32 32 (2048000)
I0821 08:26:21.394767 32262 net.cpp:157] Top shape: 125 16 32 32 (2048000)
I0821 08:26:21.394775 32262 net.cpp:165] Memory required for data: 681473500
I0821 08:26:21.394785 32262 layer_factory.hpp:77] Creating layer L1_b8_cbr1_conv
I0821 08:26:21.394809 32262 net.cpp:100] Creating Layer L1_b8_cbr1_conv
I0821 08:26:21.394824 32262 net.cpp:434] L1_b8_cbr1_conv <- L1_b7_sum_eltwise_top_L1_b7_relu_0_split_0
I0821 08:26:21.394840 32262 net.cpp:408] L1_b8_cbr1_conv -> L1_b8_cbr1_conv_top
I0821 08:26:21.395191 32262 net.cpp:150] Setting up L1_b8_cbr1_conv
I0821 08:26:21.395212 32262 net.cpp:157] Top shape: 125 16 32 32 (2048000)
I0821 08:26:21.395220 32262 net.cpp:165] Memory required for data: 689665500
I0821 08:26:21.395237 32262 layer_factory.hpp:77] Creating layer L1_b8_cbr1_bn
I0821 08:26:21.395261 32262 net.cpp:100] Creating Layer L1_b8_cbr1_bn
I0821 08:26:21.395273 32262 net.cpp:434] L1_b8_cbr1_bn <- L1_b8_cbr1_conv_top
I0821 08:26:21.395289 32262 net.cpp:408] L1_b8_cbr1_bn -> L1_b8_cbr1_bn_top
I0821 08:26:21.395596 32262 net.cpp:150] Setting up L1_b8_cbr1_bn
I0821 08:26:21.395619 32262 net.cpp:157] Top shape: 125 16 32 32 (2048000)
I0821 08:26:21.395630 32262 net.cpp:165] Memory required for data: 697857500
I0821 08:26:21.395651 32262 layer_factory.hpp:77] Creating layer L1_b8_cbr1_scale
I0821 08:26:21.395668 32262 net.cpp:100] Creating Layer L1_b8_cbr1_scale
I0821 08:26:21.395679 32262 net.cpp:434] L1_b8_cbr1_scale <- L1_b8_cbr1_bn_top
I0821 08:26:21.395694 32262 net.cpp:395] L1_b8_cbr1_scale -> L1_b8_cbr1_bn_top (in-place)
I0821 08:26:21.395781 32262 layer_factory.hpp:77] Creating layer L1_b8_cbr1_scale
I0821 08:26:21.395959 32262 net.cpp:150] Setting up L1_b8_cbr1_scale
I0821 08:26:21.395979 32262 net.cpp:157] Top shape: 125 16 32 32 (2048000)
I0821 08:26:21.395988 32262 net.cpp:165] Memory required for data: 706049500
I0821 08:26:21.396006 32262 layer_factory.hpp:77] Creating layer L1_b8_cbr1_relu
I0821 08:26:21.396026 32262 net.cpp:100] Creating Layer L1_b8_cbr1_relu
I0821 08:26:21.396039 32262 net.cpp:434] L1_b8_cbr1_relu <- L1_b8_cbr1_bn_top
I0821 08:26:21.396055 32262 net.cpp:395] L1_b8_cbr1_relu -> L1_b8_cbr1_bn_top (in-place)
I0821 08:26:21.396075 32262 net.cpp:150] Setting up L1_b8_cbr1_relu
I0821 08:26:21.396090 32262 net.cpp:157] Top shape: 125 16 32 32 (2048000)
I0821 08:26:21.396098 32262 net.cpp:165] Memory required for data: 714241500
I0821 08:26:21.396116 32262 layer_factory.hpp:77] Creating layer L1_b8_cbr2_conv
I0821 08:26:21.396137 32262 net.cpp:100] Creating Layer L1_b8_cbr2_conv
I0821 08:26:21.396150 32262 net.cpp:434] L1_b8_cbr2_conv <- L1_b8_cbr1_bn_top
I0821 08:26:21.396172 32262 net.cpp:408] L1_b8_cbr2_conv -> L1_b8_cbr2_conv_top
I0821 08:26:21.396530 32262 net.cpp:150] Setting up L1_b8_cbr2_conv
I0821 08:26:21.396550 32262 net.cpp:157] Top shape: 125 16 32 32 (2048000)
I0821 08:26:21.396559 32262 net.cpp:165] Memory required for data: 722433500
I0821 08:26:21.396577 32262 layer_factory.hpp:77] Creating layer L1_b8_cbr2_bn
I0821 08:26:21.396595 32262 net.cpp:100] Creating Layer L1_b8_cbr2_bn
I0821 08:26:21.396606 32262 net.cpp:434] L1_b8_cbr2_bn <- L1_b8_cbr2_conv_top
I0821 08:26:21.396627 32262 net.cpp:408] L1_b8_cbr2_bn -> L1_b8_cbr2_bn_top
I0821 08:26:21.396914 32262 net.cpp:150] Setting up L1_b8_cbr2_bn
I0821 08:26:21.396934 32262 net.cpp:157] Top shape: 125 16 32 32 (2048000)
I0821 08:26:21.396944 32262 net.cpp:165] Memory required for data: 730625500
I0821 08:26:21.396965 32262 layer_factory.hpp:77] Creating layer L1_b8_cbr2_scale
I0821 08:26:21.396986 32262 net.cpp:100] Creating Layer L1_b8_cbr2_scale
I0821 08:26:21.396997 32262 net.cpp:434] L1_b8_cbr2_scale <- L1_b8_cbr2_bn_top
I0821 08:26:21.397013 32262 net.cpp:395] L1_b8_cbr2_scale -> L1_b8_cbr2_bn_top (in-place)
I0821 08:26:21.397099 32262 layer_factory.hpp:77] Creating layer L1_b8_cbr2_scale
I0821 08:26:21.397285 32262 net.cpp:150] Setting up L1_b8_cbr2_scale
I0821 08:26:21.397303 32262 net.cpp:157] Top shape: 125 16 32 32 (2048000)
I0821 08:26:21.397313 32262 net.cpp:165] Memory required for data: 738817500
I0821 08:26:21.397330 32262 layer_factory.hpp:77] Creating layer L1_b8_sum_eltwise
I0821 08:26:21.397351 32262 net.cpp:100] Creating Layer L1_b8_sum_eltwise
I0821 08:26:21.397363 32262 net.cpp:434] L1_b8_sum_eltwise <- L1_b8_cbr2_bn_top
I0821 08:26:21.397377 32262 net.cpp:434] L1_b8_sum_eltwise <- L1_b7_sum_eltwise_top_L1_b7_relu_0_split_1
I0821 08:26:21.397392 32262 net.cpp:408] L1_b8_sum_eltwise -> L1_b8_sum_eltwise_top
I0821 08:26:21.397449 32262 net.cpp:150] Setting up L1_b8_sum_eltwise
I0821 08:26:21.397467 32262 net.cpp:157] Top shape: 125 16 32 32 (2048000)
I0821 08:26:21.397477 32262 net.cpp:165] Memory required for data: 747009500
I0821 08:26:21.397487 32262 layer_factory.hpp:77] Creating layer L1_b8_relu
I0821 08:26:21.397502 32262 net.cpp:100] Creating Layer L1_b8_relu
I0821 08:26:21.397514 32262 net.cpp:434] L1_b8_relu <- L1_b8_sum_eltwise_top
I0821 08:26:21.397533 32262 net.cpp:395] L1_b8_relu -> L1_b8_sum_eltwise_top (in-place)
I0821 08:26:21.397553 32262 net.cpp:150] Setting up L1_b8_relu
I0821 08:26:21.397578 32262 net.cpp:157] Top shape: 125 16 32 32 (2048000)
I0821 08:26:21.397588 32262 net.cpp:165] Memory required for data: 755201500
I0821 08:26:21.397598 32262 layer_factory.hpp:77] Creating layer L1_b8_sum_eltwise_top_L1_b8_relu_0_split
I0821 08:26:21.397611 32262 net.cpp:100] Creating Layer L1_b8_sum_eltwise_top_L1_b8_relu_0_split
I0821 08:26:21.397622 32262 net.cpp:434] L1_b8_sum_eltwise_top_L1_b8_relu_0_split <- L1_b8_sum_eltwise_top
I0821 08:26:21.397637 32262 net.cpp:408] L1_b8_sum_eltwise_top_L1_b8_relu_0_split -> L1_b8_sum_eltwise_top_L1_b8_relu_0_split_0
I0821 08:26:21.397656 32262 net.cpp:408] L1_b8_sum_eltwise_top_L1_b8_relu_0_split -> L1_b8_sum_eltwise_top_L1_b8_relu_0_split_1
I0821 08:26:21.397739 32262 net.cpp:150] Setting up L1_b8_sum_eltwise_top_L1_b8_relu_0_split
I0821 08:26:21.397758 32262 net.cpp:157] Top shape: 125 16 32 32 (2048000)
I0821 08:26:21.397771 32262 net.cpp:157] Top shape: 125 16 32 32 (2048000)
I0821 08:26:21.397781 32262 net.cpp:165] Memory required for data: 771585500
I0821 08:26:21.397791 32262 layer_factory.hpp:77] Creating layer L1_b9_cbr1_conv
I0821 08:26:21.397815 32262 net.cpp:100] Creating Layer L1_b9_cbr1_conv
I0821 08:26:21.397828 32262 net.cpp:434] L1_b9_cbr1_conv <- L1_b8_sum_eltwise_top_L1_b8_relu_0_split_0
I0821 08:26:21.397847 32262 net.cpp:408] L1_b9_cbr1_conv -> L1_b9_cbr1_conv_top
I0821 08:26:21.398234 32262 net.cpp:150] Setting up L1_b9_cbr1_conv
I0821 08:26:21.398258 32262 net.cpp:157] Top shape: 125 16 32 32 (2048000)
I0821 08:26:21.398269 32262 net.cpp:165] Memory required for data: 779777500
I0821 08:26:21.398288 32262 layer_factory.hpp:77] Creating layer L1_b9_cbr1_bn
I0821 08:26:21.398305 32262 net.cpp:100] Creating Layer L1_b9_cbr1_bn
I0821 08:26:21.398321 32262 net.cpp:434] L1_b9_cbr1_bn <- L1_b9_cbr1_conv_top
I0821 08:26:21.398339 32262 net.cpp:408] L1_b9_cbr1_bn -> L1_b9_cbr1_bn_top
I0821 08:26:21.398615 32262 net.cpp:150] Setting up L1_b9_cbr1_bn
I0821 08:26:21.398634 32262 net.cpp:157] Top shape: 125 16 32 32 (2048000)
I0821 08:26:21.398644 32262 net.cpp:165] Memory required for data: 787969500
I0821 08:26:21.398665 32262 layer_factory.hpp:77] Creating layer L1_b9_cbr1_scale
I0821 08:26:21.398681 32262 net.cpp:100] Creating Layer L1_b9_cbr1_scale
I0821 08:26:21.398692 32262 net.cpp:434] L1_b9_cbr1_scale <- L1_b9_cbr1_bn_top
I0821 08:26:21.398712 32262 net.cpp:395] L1_b9_cbr1_scale -> L1_b9_cbr1_bn_top (in-place)
I0821 08:26:21.398799 32262 layer_factory.hpp:77] Creating layer L1_b9_cbr1_scale
I0821 08:26:21.398980 32262 net.cpp:150] Setting up L1_b9_cbr1_scale
I0821 08:26:21.399003 32262 net.cpp:157] Top shape: 125 16 32 32 (2048000)
I0821 08:26:21.399013 32262 net.cpp:165] Memory required for data: 796161500
I0821 08:26:21.399031 32262 layer_factory.hpp:77] Creating layer L1_b9_cbr1_relu
I0821 08:26:21.399046 32262 net.cpp:100] Creating Layer L1_b9_cbr1_relu
I0821 08:26:21.399057 32262 net.cpp:434] L1_b9_cbr1_relu <- L1_b9_cbr1_bn_top
I0821 08:26:21.399072 32262 net.cpp:395] L1_b9_cbr1_relu -> L1_b9_cbr1_bn_top (in-place)
I0821 08:26:21.399091 32262 net.cpp:150] Setting up L1_b9_cbr1_relu
I0821 08:26:21.399111 32262 net.cpp:157] Top shape: 125 16 32 32 (2048000)
I0821 08:26:21.399122 32262 net.cpp:165] Memory required for data: 804353500
I0821 08:26:21.399132 32262 layer_factory.hpp:77] Creating layer L1_b9_cbr2_conv
I0821 08:26:21.399157 32262 net.cpp:100] Creating Layer L1_b9_cbr2_conv
I0821 08:26:21.399169 32262 net.cpp:434] L1_b9_cbr2_conv <- L1_b9_cbr1_bn_top
I0821 08:26:21.399191 32262 net.cpp:408] L1_b9_cbr2_conv -> L1_b9_cbr2_conv_top
I0821 08:26:21.399561 32262 net.cpp:150] Setting up L1_b9_cbr2_conv
I0821 08:26:21.399581 32262 net.cpp:157] Top shape: 125 16 32 32 (2048000)
I0821 08:26:21.399590 32262 net.cpp:165] Memory required for data: 812545500
I0821 08:26:21.399608 32262 layer_factory.hpp:77] Creating layer L1_b9_cbr2_bn
I0821 08:26:21.399631 32262 net.cpp:100] Creating Layer L1_b9_cbr2_bn
I0821 08:26:21.399642 32262 net.cpp:434] L1_b9_cbr2_bn <- L1_b9_cbr2_conv_top
I0821 08:26:21.399662 32262 net.cpp:408] L1_b9_cbr2_bn -> L1_b9_cbr2_bn_top
I0821 08:26:21.399976 32262 net.cpp:150] Setting up L1_b9_cbr2_bn
I0821 08:26:21.399996 32262 net.cpp:157] Top shape: 125 16 32 32 (2048000)
I0821 08:26:21.400007 32262 net.cpp:165] Memory required for data: 820737500
I0821 08:26:21.400058 32262 layer_factory.hpp:77] Creating layer L1_b9_cbr2_scale
I0821 08:26:21.400075 32262 net.cpp:100] Creating Layer L1_b9_cbr2_scale
I0821 08:26:21.400089 32262 net.cpp:434] L1_b9_cbr2_scale <- L1_b9_cbr2_bn_top
I0821 08:26:21.400115 32262 net.cpp:395] L1_b9_cbr2_scale -> L1_b9_cbr2_bn_top (in-place)
I0821 08:26:21.400202 32262 layer_factory.hpp:77] Creating layer L1_b9_cbr2_scale
I0821 08:26:21.400379 32262 net.cpp:150] Setting up L1_b9_cbr2_scale
I0821 08:26:21.400398 32262 net.cpp:157] Top shape: 125 16 32 32 (2048000)
I0821 08:26:21.400408 32262 net.cpp:165] Memory required for data: 828929500
I0821 08:26:21.400426 32262 layer_factory.hpp:77] Creating layer L1_b9_sum_eltwise
I0821 08:26:21.400446 32262 net.cpp:100] Creating Layer L1_b9_sum_eltwise
I0821 08:26:21.400459 32262 net.cpp:434] L1_b9_sum_eltwise <- L1_b9_cbr2_bn_top
I0821 08:26:21.400472 32262 net.cpp:434] L1_b9_sum_eltwise <- L1_b8_sum_eltwise_top_L1_b8_relu_0_split_1
I0821 08:26:21.400488 32262 net.cpp:408] L1_b9_sum_eltwise -> L1_b9_sum_eltwise_top
I0821 08:26:21.400542 32262 net.cpp:150] Setting up L1_b9_sum_eltwise
I0821 08:26:21.400559 32262 net.cpp:157] Top shape: 125 16 32 32 (2048000)
I0821 08:26:21.400569 32262 net.cpp:165] Memory required for data: 837121500
I0821 08:26:21.400579 32262 layer_factory.hpp:77] Creating layer L1_b9_relu
I0821 08:26:21.400598 32262 net.cpp:100] Creating Layer L1_b9_relu
I0821 08:26:21.400610 32262 net.cpp:434] L1_b9_relu <- L1_b9_sum_eltwise_top
I0821 08:26:21.400624 32262 net.cpp:395] L1_b9_relu -> L1_b9_sum_eltwise_top (in-place)
I0821 08:26:21.400642 32262 net.cpp:150] Setting up L1_b9_relu
I0821 08:26:21.400658 32262 net.cpp:157] Top shape: 125 16 32 32 (2048000)
I0821 08:26:21.400667 32262 net.cpp:165] Memory required for data: 845313500
I0821 08:26:21.400677 32262 layer_factory.hpp:77] Creating layer L1_b9_sum_eltwise_top_L1_b9_relu_0_split
I0821 08:26:21.400698 32262 net.cpp:100] Creating Layer L1_b9_sum_eltwise_top_L1_b9_relu_0_split
I0821 08:26:21.400710 32262 net.cpp:434] L1_b9_sum_eltwise_top_L1_b9_relu_0_split <- L1_b9_sum_eltwise_top
I0821 08:26:21.400725 32262 net.cpp:408] L1_b9_sum_eltwise_top_L1_b9_relu_0_split -> L1_b9_sum_eltwise_top_L1_b9_relu_0_split_0
I0821 08:26:21.400745 32262 net.cpp:408] L1_b9_sum_eltwise_top_L1_b9_relu_0_split -> L1_b9_sum_eltwise_top_L1_b9_relu_0_split_1
I0821 08:26:21.400827 32262 net.cpp:150] Setting up L1_b9_sum_eltwise_top_L1_b9_relu_0_split
I0821 08:26:21.400848 32262 net.cpp:157] Top shape: 125 16 32 32 (2048000)
I0821 08:26:21.400862 32262 net.cpp:157] Top shape: 125 16 32 32 (2048000)
I0821 08:26:21.400871 32262 net.cpp:165] Memory required for data: 861697500
I0821 08:26:21.400882 32262 layer_factory.hpp:77] Creating layer L2_b1_cbr1_conv
I0821 08:26:21.400897 32262 net.cpp:100] Creating Layer L2_b1_cbr1_conv
I0821 08:26:21.400904 32262 net.cpp:434] L2_b1_cbr1_conv <- L1_b9_sum_eltwise_top_L1_b9_relu_0_split_0
I0821 08:26:21.400913 32262 net.cpp:408] L2_b1_cbr1_conv -> L2_b1_cbr1_conv_top
I0821 08:26:21.401243 32262 net.cpp:150] Setting up L2_b1_cbr1_conv
I0821 08:26:21.401262 32262 net.cpp:157] Top shape: 125 16 16 16 (512000)
I0821 08:26:21.401270 32262 net.cpp:165] Memory required for data: 863745500
I0821 08:26:21.401286 32262 layer_factory.hpp:77] Creating layer L2_b1_cbr1_bn
I0821 08:26:21.401309 32262 net.cpp:100] Creating Layer L2_b1_cbr1_bn
I0821 08:26:21.401321 32262 net.cpp:434] L2_b1_cbr1_bn <- L2_b1_cbr1_conv_top
I0821 08:26:21.401341 32262 net.cpp:408] L2_b1_cbr1_bn -> L2_b1_cbr1_bn_top
I0821 08:26:21.401626 32262 net.cpp:150] Setting up L2_b1_cbr1_bn
I0821 08:26:21.401645 32262 net.cpp:157] Top shape: 125 16 16 16 (512000)
I0821 08:26:21.401655 32262 net.cpp:165] Memory required for data: 865793500
I0821 08:26:21.401677 32262 layer_factory.hpp:77] Creating layer L2_b1_cbr1_scale
I0821 08:26:21.401693 32262 net.cpp:100] Creating Layer L2_b1_cbr1_scale
I0821 08:26:21.401712 32262 net.cpp:434] L2_b1_cbr1_scale <- L2_b1_cbr1_bn_top
I0821 08:26:21.401728 32262 net.cpp:395] L2_b1_cbr1_scale -> L2_b1_cbr1_bn_top (in-place)
I0821 08:26:21.401824 32262 layer_factory.hpp:77] Creating layer L2_b1_cbr1_scale
I0821 08:26:21.402003 32262 net.cpp:150] Setting up L2_b1_cbr1_scale
I0821 08:26:21.402021 32262 net.cpp:157] Top shape: 125 16 16 16 (512000)
I0821 08:26:21.402031 32262 net.cpp:165] Memory required for data: 867841500
I0821 08:26:21.402050 32262 layer_factory.hpp:77] Creating layer L2_b1_cbr1_relu
I0821 08:26:21.402065 32262 net.cpp:100] Creating Layer L2_b1_cbr1_relu
I0821 08:26:21.402081 32262 net.cpp:434] L2_b1_cbr1_relu <- L2_b1_cbr1_bn_top
I0821 08:26:21.402097 32262 net.cpp:395] L2_b1_cbr1_relu -> L2_b1_cbr1_bn_top (in-place)
I0821 08:26:21.402125 32262 net.cpp:150] Setting up L2_b1_cbr1_relu
I0821 08:26:21.402140 32262 net.cpp:157] Top shape: 125 16 16 16 (512000)
I0821 08:26:21.402149 32262 net.cpp:165] Memory required for data: 869889500
I0821 08:26:21.402159 32262 layer_factory.hpp:77] Creating layer L2_b1_cbr2_conv
I0821 08:26:21.402184 32262 net.cpp:100] Creating Layer L2_b1_cbr2_conv
I0821 08:26:21.402196 32262 net.cpp:434] L2_b1_cbr2_conv <- L2_b1_cbr1_bn_top
I0821 08:26:21.402212 32262 net.cpp:408] L2_b1_cbr2_conv -> L2_b1_cbr2_conv_top
I0821 08:26:21.402577 32262 net.cpp:150] Setting up L2_b1_cbr2_conv
I0821 08:26:21.402596 32262 net.cpp:157] Top shape: 125 16 16 16 (512000)
I0821 08:26:21.402606 32262 net.cpp:165] Memory required for data: 871937500
I0821 08:26:21.402623 32262 layer_factory.hpp:77] Creating layer L2_b1_cbr2_bn
I0821 08:26:21.402644 32262 net.cpp:100] Creating Layer L2_b1_cbr2_bn
I0821 08:26:21.402657 32262 net.cpp:434] L2_b1_cbr2_bn <- L2_b1_cbr2_conv_top
I0821 08:26:21.402673 32262 net.cpp:408] L2_b1_cbr2_bn -> L2_b1_cbr2_bn_top
I0821 08:26:21.402952 32262 net.cpp:150] Setting up L2_b1_cbr2_bn
I0821 08:26:21.402976 32262 net.cpp:157] Top shape: 125 16 16 16 (512000)
I0821 08:26:21.402986 32262 net.cpp:165] Memory required for data: 873985500
I0821 08:26:21.403007 32262 layer_factory.hpp:77] Creating layer L2_b1_cbr2_scale
I0821 08:26:21.403023 32262 net.cpp:100] Creating Layer L2_b1_cbr2_scale
I0821 08:26:21.403034 32262 net.cpp:434] L2_b1_cbr2_scale <- L2_b1_cbr2_bn_top
I0821 08:26:21.403050 32262 net.cpp:395] L2_b1_cbr2_scale -> L2_b1_cbr2_bn_top (in-place)
I0821 08:26:21.403142 32262 layer_factory.hpp:77] Creating layer L2_b1_cbr2_scale
I0821 08:26:21.403331 32262 net.cpp:150] Setting up L2_b1_cbr2_scale
I0821 08:26:21.403348 32262 net.cpp:157] Top shape: 125 16 16 16 (512000)
I0821 08:26:21.403358 32262 net.cpp:165] Memory required for data: 876033500
I0821 08:26:21.403378 32262 layer_factory.hpp:77] Creating layer L2_b1_pool
I0821 08:26:21.403394 32262 net.cpp:100] Creating Layer L2_b1_pool
I0821 08:26:21.403406 32262 net.cpp:434] L2_b1_pool <- L1_b9_sum_eltwise_top_L1_b9_relu_0_split_1
I0821 08:26:21.403427 32262 net.cpp:408] L2_b1_pool -> L2_b1_pool
I0821 08:26:21.403532 32262 net.cpp:150] Setting up L2_b1_pool
I0821 08:26:21.403553 32262 net.cpp:157] Top shape: 125 16 16 16 (512000)
I0821 08:26:21.403561 32262 net.cpp:165] Memory required for data: 878081500
I0821 08:26:21.403573 32262 layer_factory.hpp:77] Creating layer L2_b1_sum_eltwise
I0821 08:26:21.403592 32262 net.cpp:100] Creating Layer L2_b1_sum_eltwise
I0821 08:26:21.403605 32262 net.cpp:434] L2_b1_sum_eltwise <- L2_b1_cbr2_bn_top
I0821 08:26:21.403620 32262 net.cpp:434] L2_b1_sum_eltwise <- L2_b1_pool
I0821 08:26:21.403635 32262 net.cpp:408] L2_b1_sum_eltwise -> L2_b1_sum_eltwise_top
I0821 08:26:21.403692 32262 net.cpp:150] Setting up L2_b1_sum_eltwise
I0821 08:26:21.403712 32262 net.cpp:157] Top shape: 125 16 16 16 (512000)
I0821 08:26:21.403722 32262 net.cpp:165] Memory required for data: 880129500
I0821 08:26:21.403733 32262 layer_factory.hpp:77] Creating layer L2_b1_relu
I0821 08:26:21.403748 32262 net.cpp:100] Creating Layer L2_b1_relu
I0821 08:26:21.403759 32262 net.cpp:434] L2_b1_relu <- L2_b1_sum_eltwise_top
I0821 08:26:21.403786 32262 net.cpp:395] L2_b1_relu -> L2_b1_sum_eltwise_top (in-place)
I0821 08:26:21.403810 32262 net.cpp:150] Setting up L2_b1_relu
I0821 08:26:21.403823 32262 net.cpp:157] Top shape: 125 16 16 16 (512000)
I0821 08:26:21.403832 32262 net.cpp:165] Memory required for data: 882177500
I0821 08:26:21.403842 32262 layer_factory.hpp:77] Creating layer L2_b1_zeros
I0821 08:26:21.403913 32262 net.cpp:100] Creating Layer L2_b1_zeros
I0821 08:26:21.403933 32262 net.cpp:408] L2_b1_zeros -> L2_b1_zeros
I0821 08:26:21.406280 32262 net.cpp:150] Setting up L2_b1_zeros
I0821 08:26:21.406302 32262 net.cpp:157] Top shape: 125 16 16 16 (512000)
I0821 08:26:21.406312 32262 net.cpp:165] Memory required for data: 884225500
I0821 08:26:21.406324 32262 layer_factory.hpp:77] Creating layer L2_b1_concat0
I0821 08:26:21.406345 32262 net.cpp:100] Creating Layer L2_b1_concat0
I0821 08:26:21.406358 32262 net.cpp:434] L2_b1_concat0 <- L2_b1_sum_eltwise_top
I0821 08:26:21.406373 32262 net.cpp:434] L2_b1_concat0 <- L2_b1_zeros
I0821 08:26:21.406388 32262 net.cpp:408] L2_b1_concat0 -> L2_b1_concat0
I0821 08:26:21.406494 32262 net.cpp:150] Setting up L2_b1_concat0
I0821 08:26:21.406514 32262 net.cpp:157] Top shape: 125 32 16 16 (1024000)
I0821 08:26:21.406523 32262 net.cpp:165] Memory required for data: 888321500
I0821 08:26:21.406534 32262 layer_factory.hpp:77] Creating layer L2_b1_concat0_L2_b1_concat0_0_split
I0821 08:26:21.406549 32262 net.cpp:100] Creating Layer L2_b1_concat0_L2_b1_concat0_0_split
I0821 08:26:21.406560 32262 net.cpp:434] L2_b1_concat0_L2_b1_concat0_0_split <- L2_b1_concat0
I0821 08:26:21.406579 32262 net.cpp:408] L2_b1_concat0_L2_b1_concat0_0_split -> L2_b1_concat0_L2_b1_concat0_0_split_0
I0821 08:26:21.406601 32262 net.cpp:408] L2_b1_concat0_L2_b1_concat0_0_split -> L2_b1_concat0_L2_b1_concat0_0_split_1
I0821 08:26:21.406680 32262 net.cpp:150] Setting up L2_b1_concat0_L2_b1_concat0_0_split
I0821 08:26:21.406703 32262 net.cpp:157] Top shape: 125 32 16 16 (1024000)
I0821 08:26:21.406716 32262 net.cpp:157] Top shape: 125 32 16 16 (1024000)
I0821 08:26:21.406726 32262 net.cpp:165] Memory required for data: 896513500
I0821 08:26:21.406738 32262 layer_factory.hpp:77] Creating layer L2_b2_cbr1_conv
I0821 08:26:21.406757 32262 net.cpp:100] Creating Layer L2_b2_cbr1_conv
I0821 08:26:21.406769 32262 net.cpp:434] L2_b2_cbr1_conv <- L2_b1_concat0_L2_b1_concat0_0_split_0
I0821 08:26:21.406788 32262 net.cpp:408] L2_b2_cbr1_conv -> L2_b2_cbr1_conv_top
I0821 08:26:21.408287 32262 net.cpp:150] Setting up L2_b2_cbr1_conv
I0821 08:26:21.408308 32262 net.cpp:157] Top shape: 125 32 16 16 (1024000)
I0821 08:26:21.408318 32262 net.cpp:165] Memory required for data: 900609500
I0821 08:26:21.408335 32262 layer_factory.hpp:77] Creating layer L2_b2_cbr1_bn
I0821 08:26:21.408356 32262 net.cpp:100] Creating Layer L2_b2_cbr1_bn
I0821 08:26:21.408370 32262 net.cpp:434] L2_b2_cbr1_bn <- L2_b2_cbr1_conv_top
I0821 08:26:21.408390 32262 net.cpp:408] L2_b2_cbr1_bn -> L2_b2_cbr1_bn_top
I0821 08:26:21.408681 32262 net.cpp:150] Setting up L2_b2_cbr1_bn
I0821 08:26:21.408700 32262 net.cpp:157] Top shape: 125 32 16 16 (1024000)
I0821 08:26:21.408710 32262 net.cpp:165] Memory required for data: 904705500
I0821 08:26:21.408732 32262 layer_factory.hpp:77] Creating layer L2_b2_cbr1_scale
I0821 08:26:21.408749 32262 net.cpp:100] Creating Layer L2_b2_cbr1_scale
I0821 08:26:21.408761 32262 net.cpp:434] L2_b2_cbr1_scale <- L2_b2_cbr1_bn_top
I0821 08:26:21.408777 32262 net.cpp:395] L2_b2_cbr1_scale -> L2_b2_cbr1_bn_top (in-place)
I0821 08:26:21.408869 32262 layer_factory.hpp:77] Creating layer L2_b2_cbr1_scale
I0821 08:26:21.409051 32262 net.cpp:150] Setting up L2_b2_cbr1_scale
I0821 08:26:21.409071 32262 net.cpp:157] Top shape: 125 32 16 16 (1024000)
I0821 08:26:21.409080 32262 net.cpp:165] Memory required for data: 908801500
I0821 08:26:21.409106 32262 layer_factory.hpp:77] Creating layer L2_b2_cbr1_relu
I0821 08:26:21.409128 32262 net.cpp:100] Creating Layer L2_b2_cbr1_relu
I0821 08:26:21.409140 32262 net.cpp:434] L2_b2_cbr1_relu <- L2_b2_cbr1_bn_top
I0821 08:26:21.409165 32262 net.cpp:395] L2_b2_cbr1_relu -> L2_b2_cbr1_bn_top (in-place)
I0821 08:26:21.409184 32262 net.cpp:150] Setting up L2_b2_cbr1_relu
I0821 08:26:21.409199 32262 net.cpp:157] Top shape: 125 32 16 16 (1024000)
I0821 08:26:21.409209 32262 net.cpp:165] Memory required for data: 912897500
I0821 08:26:21.409219 32262 layer_factory.hpp:77] Creating layer L2_b2_cbr2_conv
I0821 08:26:21.409245 32262 net.cpp:100] Creating Layer L2_b2_cbr2_conv
I0821 08:26:21.409258 32262 net.cpp:434] L2_b2_cbr2_conv <- L2_b2_cbr1_bn_top
I0821 08:26:21.409276 32262 net.cpp:408] L2_b2_cbr2_conv -> L2_b2_cbr2_conv_top
I0821 08:26:21.409788 32262 net.cpp:150] Setting up L2_b2_cbr2_conv
I0821 08:26:21.409808 32262 net.cpp:157] Top shape: 125 32 16 16 (1024000)
I0821 08:26:21.409818 32262 net.cpp:165] Memory required for data: 916993500
I0821 08:26:21.409837 32262 layer_factory.hpp:77] Creating layer L2_b2_cbr2_bn
I0821 08:26:21.409858 32262 net.cpp:100] Creating Layer L2_b2_cbr2_bn
I0821 08:26:21.409873 32262 net.cpp:434] L2_b2_cbr2_bn <- L2_b2_cbr2_conv_top
I0821 08:26:21.409890 32262 net.cpp:408] L2_b2_cbr2_bn -> L2_b2_cbr2_bn_top
I0821 08:26:21.410183 32262 net.cpp:150] Setting up L2_b2_cbr2_bn
I0821 08:26:21.410207 32262 net.cpp:157] Top shape: 125 32 16 16 (1024000)
I0821 08:26:21.410217 32262 net.cpp:165] Memory required for data: 921089500
I0821 08:26:21.410238 32262 layer_factory.hpp:77] Creating layer L2_b2_cbr2_scale
I0821 08:26:21.410254 32262 net.cpp:100] Creating Layer L2_b2_cbr2_scale
I0821 08:26:21.410266 32262 net.cpp:434] L2_b2_cbr2_scale <- L2_b2_cbr2_bn_top
I0821 08:26:21.410282 32262 net.cpp:395] L2_b2_cbr2_scale -> L2_b2_cbr2_bn_top (in-place)
I0821 08:26:21.410370 32262 layer_factory.hpp:77] Creating layer L2_b2_cbr2_scale
I0821 08:26:21.410554 32262 net.cpp:150] Setting up L2_b2_cbr2_scale
I0821 08:26:21.410573 32262 net.cpp:157] Top shape: 125 32 16 16 (1024000)
I0821 08:26:21.410583 32262 net.cpp:165] Memory required for data: 925185500
I0821 08:26:21.410600 32262 layer_factory.hpp:77] Creating layer L2_b2_sum_eltwise
I0821 08:26:21.410617 32262 net.cpp:100] Creating Layer L2_b2_sum_eltwise
I0821 08:26:21.410629 32262 net.cpp:434] L2_b2_sum_eltwise <- L2_b2_cbr2_bn_top
I0821 08:26:21.410642 32262 net.cpp:434] L2_b2_sum_eltwise <- L2_b1_concat0_L2_b1_concat0_0_split_1
I0821 08:26:21.410663 32262 net.cpp:408] L2_b2_sum_eltwise -> L2_b2_sum_eltwise_top
I0821 08:26:21.410712 32262 net.cpp:150] Setting up L2_b2_sum_eltwise
I0821 08:26:21.410728 32262 net.cpp:157] Top shape: 125 32 16 16 (1024000)
I0821 08:26:21.410738 32262 net.cpp:165] Memory required for data: 929281500
I0821 08:26:21.410749 32262 layer_factory.hpp:77] Creating layer L2_b2_relu
I0821 08:26:21.410768 32262 net.cpp:100] Creating Layer L2_b2_relu
I0821 08:26:21.410779 32262 net.cpp:434] L2_b2_relu <- L2_b2_sum_eltwise_top
I0821 08:26:21.410794 32262 net.cpp:395] L2_b2_relu -> L2_b2_sum_eltwise_top (in-place)
I0821 08:26:21.410812 32262 net.cpp:150] Setting up L2_b2_relu
I0821 08:26:21.410827 32262 net.cpp:157] Top shape: 125 32 16 16 (1024000)
I0821 08:26:21.410836 32262 net.cpp:165] Memory required for data: 933377500
I0821 08:26:21.410845 32262 layer_factory.hpp:77] Creating layer L2_b2_sum_eltwise_top_L2_b2_relu_0_split
I0821 08:26:21.410861 32262 net.cpp:100] Creating Layer L2_b2_sum_eltwise_top_L2_b2_relu_0_split
I0821 08:26:21.410871 32262 net.cpp:434] L2_b2_sum_eltwise_top_L2_b2_relu_0_split <- L2_b2_sum_eltwise_top
I0821 08:26:21.410887 32262 net.cpp:408] L2_b2_sum_eltwise_top_L2_b2_relu_0_split -> L2_b2_sum_eltwise_top_L2_b2_relu_0_split_0
I0821 08:26:21.410905 32262 net.cpp:408] L2_b2_sum_eltwise_top_L2_b2_relu_0_split -> L2_b2_sum_eltwise_top_L2_b2_relu_0_split_1
I0821 08:26:21.410990 32262 net.cpp:150] Setting up L2_b2_sum_eltwise_top_L2_b2_relu_0_split
I0821 08:26:21.411010 32262 net.cpp:157] Top shape: 125 32 16 16 (1024000)
I0821 08:26:21.411022 32262 net.cpp:157] Top shape: 125 32 16 16 (1024000)
I0821 08:26:21.411031 32262 net.cpp:165] Memory required for data: 941569500
I0821 08:26:21.411042 32262 layer_factory.hpp:77] Creating layer L2_b3_cbr1_conv
I0821 08:26:21.411075 32262 net.cpp:100] Creating Layer L2_b3_cbr1_conv
I0821 08:26:21.411089 32262 net.cpp:434] L2_b3_cbr1_conv <- L2_b2_sum_eltwise_top_L2_b2_relu_0_split_0
I0821 08:26:21.411116 32262 net.cpp:408] L2_b3_cbr1_conv -> L2_b3_cbr1_conv_top
I0821 08:26:21.411617 32262 net.cpp:150] Setting up L2_b3_cbr1_conv
I0821 08:26:21.411638 32262 net.cpp:157] Top shape: 125 32 16 16 (1024000)
I0821 08:26:21.411648 32262 net.cpp:165] Memory required for data: 945665500
I0821 08:26:21.411665 32262 layer_factory.hpp:77] Creating layer L2_b3_cbr1_bn
I0821 08:26:21.411686 32262 net.cpp:100] Creating Layer L2_b3_cbr1_bn
I0821 08:26:21.411698 32262 net.cpp:434] L2_b3_cbr1_bn <- L2_b3_cbr1_conv_top
I0821 08:26:21.411720 32262 net.cpp:408] L2_b3_cbr1_bn -> L2_b3_cbr1_bn_top
I0821 08:26:21.412000 32262 net.cpp:150] Setting up L2_b3_cbr1_bn
I0821 08:26:21.412019 32262 net.cpp:157] Top shape: 125 32 16 16 (1024000)
I0821 08:26:21.412029 32262 net.cpp:165] Memory required for data: 949761500
I0821 08:26:21.412050 32262 layer_factory.hpp:77] Creating layer L2_b3_cbr1_scale
I0821 08:26:21.412065 32262 net.cpp:100] Creating Layer L2_b3_cbr1_scale
I0821 08:26:21.412077 32262 net.cpp:434] L2_b3_cbr1_scale <- L2_b3_cbr1_bn_top
I0821 08:26:21.412092 32262 net.cpp:395] L2_b3_cbr1_scale -> L2_b3_cbr1_bn_top (in-place)
I0821 08:26:21.412214 32262 layer_factory.hpp:77] Creating layer L2_b3_cbr1_scale
I0821 08:26:21.412395 32262 net.cpp:150] Setting up L2_b3_cbr1_scale
I0821 08:26:21.412415 32262 net.cpp:157] Top shape: 125 32 16 16 (1024000)
I0821 08:26:21.412423 32262 net.cpp:165] Memory required for data: 953857500
I0821 08:26:21.412442 32262 layer_factory.hpp:77] Creating layer L2_b3_cbr1_relu
I0821 08:26:21.412457 32262 net.cpp:100] Creating Layer L2_b3_cbr1_relu
I0821 08:26:21.412468 32262 net.cpp:434] L2_b3_cbr1_relu <- L2_b3_cbr1_bn_top
I0821 08:26:21.412487 32262 net.cpp:395] L2_b3_cbr1_relu -> L2_b3_cbr1_bn_top (in-place)
I0821 08:26:21.412508 32262 net.cpp:150] Setting up L2_b3_cbr1_relu
I0821 08:26:21.412521 32262 net.cpp:157] Top shape: 125 32 16 16 (1024000)
I0821 08:26:21.412531 32262 net.cpp:165] Memory required for data: 957953500
I0821 08:26:21.412541 32262 layer_factory.hpp:77] Creating layer L2_b3_cbr2_conv
I0821 08:26:21.412565 32262 net.cpp:100] Creating Layer L2_b3_cbr2_conv
I0821 08:26:21.412580 32262 net.cpp:434] L2_b3_cbr2_conv <- L2_b3_cbr1_bn_top
I0821 08:26:21.412597 32262 net.cpp:408] L2_b3_cbr2_conv -> L2_b3_cbr2_conv_top
I0821 08:26:21.413122 32262 net.cpp:150] Setting up L2_b3_cbr2_conv
I0821 08:26:21.413142 32262 net.cpp:157] Top shape: 125 32 16 16 (1024000)
I0821 08:26:21.413152 32262 net.cpp:165] Memory required for data: 962049500
I0821 08:26:21.413169 32262 layer_factory.hpp:77] Creating layer L2_b3_cbr2_bn
I0821 08:26:21.413192 32262 net.cpp:100] Creating Layer L2_b3_cbr2_bn
I0821 08:26:21.413203 32262 net.cpp:434] L2_b3_cbr2_bn <- L2_b3_cbr2_conv_top
I0821 08:26:21.413220 32262 net.cpp:408] L2_b3_cbr2_bn -> L2_b3_cbr2_bn_top
I0821 08:26:21.413508 32262 net.cpp:150] Setting up L2_b3_cbr2_bn
I0821 08:26:21.413530 32262 net.cpp:157] Top shape: 125 32 16 16 (1024000)
I0821 08:26:21.413542 32262 net.cpp:165] Memory required for data: 966145500
I0821 08:26:21.413563 32262 layer_factory.hpp:77] Creating layer L2_b3_cbr2_scale
I0821 08:26:21.413579 32262 net.cpp:100] Creating Layer L2_b3_cbr2_scale
I0821 08:26:21.413590 32262 net.cpp:434] L2_b3_cbr2_scale <- L2_b3_cbr2_bn_top
I0821 08:26:21.413606 32262 net.cpp:395] L2_b3_cbr2_scale -> L2_b3_cbr2_bn_top (in-place)
I0821 08:26:21.413693 32262 layer_factory.hpp:77] Creating layer L2_b3_cbr2_scale
I0821 08:26:21.413880 32262 net.cpp:150] Setting up L2_b3_cbr2_scale
I0821 08:26:21.413899 32262 net.cpp:157] Top shape: 125 32 16 16 (1024000)
I0821 08:26:21.413908 32262 net.cpp:165] Memory required for data: 970241500
I0821 08:26:21.413926 32262 layer_factory.hpp:77] Creating layer L2_b3_sum_eltwise
I0821 08:26:21.413944 32262 net.cpp:100] Creating Layer L2_b3_sum_eltwise
I0821 08:26:21.413954 32262 net.cpp:434] L2_b3_sum_eltwise <- L2_b3_cbr2_bn_top
I0821 08:26:21.413976 32262 net.cpp:434] L2_b3_sum_eltwise <- L2_b2_sum_eltwise_top_L2_b2_relu_0_split_1
I0821 08:26:21.414000 32262 net.cpp:408] L2_b3_sum_eltwise -> L2_b3_sum_eltwise_top
I0821 08:26:21.414049 32262 net.cpp:150] Setting up L2_b3_sum_eltwise
I0821 08:26:21.414068 32262 net.cpp:157] Top shape: 125 32 16 16 (1024000)
I0821 08:26:21.414077 32262 net.cpp:165] Memory required for data: 974337500
I0821 08:26:21.414088 32262 layer_factory.hpp:77] Creating layer L2_b3_relu
I0821 08:26:21.414129 32262 net.cpp:100] Creating Layer L2_b3_relu
I0821 08:26:21.414144 32262 net.cpp:434] L2_b3_relu <- L2_b3_sum_eltwise_top
I0821 08:26:21.414160 32262 net.cpp:395] L2_b3_relu -> L2_b3_sum_eltwise_top (in-place)
I0821 08:26:21.414180 32262 net.cpp:150] Setting up L2_b3_relu
I0821 08:26:21.414194 32262 net.cpp:157] Top shape: 125 32 16 16 (1024000)
I0821 08:26:21.414203 32262 net.cpp:165] Memory required for data: 978433500
I0821 08:26:21.414214 32262 layer_factory.hpp:77] Creating layer L2_b3_sum_eltwise_top_L2_b3_relu_0_split
I0821 08:26:21.414229 32262 net.cpp:100] Creating Layer L2_b3_sum_eltwise_top_L2_b3_relu_0_split
I0821 08:26:21.414242 32262 net.cpp:434] L2_b3_sum_eltwise_top_L2_b3_relu_0_split <- L2_b3_sum_eltwise_top
I0821 08:26:21.414255 32262 net.cpp:408] L2_b3_sum_eltwise_top_L2_b3_relu_0_split -> L2_b3_sum_eltwise_top_L2_b3_relu_0_split_0
I0821 08:26:21.414273 32262 net.cpp:408] L2_b3_sum_eltwise_top_L2_b3_relu_0_split -> L2_b3_sum_eltwise_top_L2_b3_relu_0_split_1
I0821 08:26:21.414361 32262 net.cpp:150] Setting up L2_b3_sum_eltwise_top_L2_b3_relu_0_split
I0821 08:26:21.414381 32262 net.cpp:157] Top shape: 125 32 16 16 (1024000)
I0821 08:26:21.414396 32262 net.cpp:157] Top shape: 125 32 16 16 (1024000)
I0821 08:26:21.414404 32262 net.cpp:165] Memory required for data: 986625500
I0821 08:26:21.414415 32262 layer_factory.hpp:77] Creating layer L2_b4_cbr1_conv
I0821 08:26:21.414435 32262 net.cpp:100] Creating Layer L2_b4_cbr1_conv
I0821 08:26:21.414448 32262 net.cpp:434] L2_b4_cbr1_conv <- L2_b3_sum_eltwise_top_L2_b3_relu_0_split_0
I0821 08:26:21.414470 32262 net.cpp:408] L2_b4_cbr1_conv -> L2_b4_cbr1_conv_top
I0821 08:26:21.414994 32262 net.cpp:150] Setting up L2_b4_cbr1_conv
I0821 08:26:21.415014 32262 net.cpp:157] Top shape: 125 32 16 16 (1024000)
I0821 08:26:21.415024 32262 net.cpp:165] Memory required for data: 990721500
I0821 08:26:21.415042 32262 layer_factory.hpp:77] Creating layer L2_b4_cbr1_bn
I0821 08:26:21.415060 32262 net.cpp:100] Creating Layer L2_b4_cbr1_bn
I0821 08:26:21.415071 32262 net.cpp:434] L2_b4_cbr1_bn <- L2_b4_cbr1_conv_top
I0821 08:26:21.415092 32262 net.cpp:408] L2_b4_cbr1_bn -> L2_b4_cbr1_bn_top
I0821 08:26:21.415383 32262 net.cpp:150] Setting up L2_b4_cbr1_bn
I0821 08:26:21.415402 32262 net.cpp:157] Top shape: 125 32 16 16 (1024000)
I0821 08:26:21.415412 32262 net.cpp:165] Memory required for data: 994817500
I0821 08:26:21.415432 32262 layer_factory.hpp:77] Creating layer L2_b4_cbr1_scale
I0821 08:26:21.415454 32262 net.cpp:100] Creating Layer L2_b4_cbr1_scale
I0821 08:26:21.415467 32262 net.cpp:434] L2_b4_cbr1_scale <- L2_b4_cbr1_bn_top
I0821 08:26:21.415482 32262 net.cpp:395] L2_b4_cbr1_scale -> L2_b4_cbr1_bn_top (in-place)
I0821 08:26:21.415573 32262 layer_factory.hpp:77] Creating layer L2_b4_cbr1_scale
I0821 08:26:21.415756 32262 net.cpp:150] Setting up L2_b4_cbr1_scale
I0821 08:26:21.415776 32262 net.cpp:157] Top shape: 125 32 16 16 (1024000)
I0821 08:26:21.415784 32262 net.cpp:165] Memory required for data: 998913500
I0821 08:26:21.415802 32262 layer_factory.hpp:77] Creating layer L2_b4_cbr1_relu
I0821 08:26:21.415822 32262 net.cpp:100] Creating Layer L2_b4_cbr1_relu
I0821 08:26:21.415834 32262 net.cpp:434] L2_b4_cbr1_relu <- L2_b4_cbr1_bn_top
I0821 08:26:21.415849 32262 net.cpp:395] L2_b4_cbr1_relu -> L2_b4_cbr1_bn_top (in-place)
I0821 08:26:21.415868 32262 net.cpp:150] Setting up L2_b4_cbr1_relu
I0821 08:26:21.415884 32262 net.cpp:157] Top shape: 125 32 16 16 (1024000)
I0821 08:26:21.415892 32262 net.cpp:165] Memory required for data: 1003009500
I0821 08:26:21.415904 32262 layer_factory.hpp:77] Creating layer L2_b4_cbr2_conv
I0821 08:26:21.415943 32262 net.cpp:100] Creating Layer L2_b4_cbr2_conv
I0821 08:26:21.415952 32262 net.cpp:434] L2_b4_cbr2_conv <- L2_b4_cbr1_bn_top
I0821 08:26:21.415964 32262 net.cpp:408] L2_b4_cbr2_conv -> L2_b4_cbr2_conv_top
I0821 08:26:21.416503 32262 net.cpp:150] Setting up L2_b4_cbr2_conv
I0821 08:26:21.416522 32262 net.cpp:157] Top shape: 125 32 16 16 (1024000)
I0821 08:26:21.416532 32262 net.cpp:165] Memory required for data: 1007105500
I0821 08:26:21.416549 32262 layer_factory.hpp:77] Creating layer L2_b4_cbr2_bn
I0821 08:26:21.416566 32262 net.cpp:100] Creating Layer L2_b4_cbr2_bn
I0821 08:26:21.416579 32262 net.cpp:434] L2_b4_cbr2_bn <- L2_b4_cbr2_conv_top
I0821 08:26:21.416599 32262 net.cpp:408] L2_b4_cbr2_bn -> L2_b4_cbr2_bn_top
I0821 08:26:21.416890 32262 net.cpp:150] Setting up L2_b4_cbr2_bn
I0821 08:26:21.416909 32262 net.cpp:157] Top shape: 125 32 16 16 (1024000)
I0821 08:26:21.416918 32262 net.cpp:165] Memory required for data: 1011201500
I0821 08:26:21.416939 32262 layer_factory.hpp:77] Creating layer L2_b4_cbr2_scale
I0821 08:26:21.416960 32262 net.cpp:100] Creating Layer L2_b4_cbr2_scale
I0821 08:26:21.416972 32262 net.cpp:434] L2_b4_cbr2_scale <- L2_b4_cbr2_bn_top
I0821 08:26:21.416987 32262 net.cpp:395] L2_b4_cbr2_scale -> L2_b4_cbr2_bn_top (in-place)
I0821 08:26:21.417076 32262 layer_factory.hpp:77] Creating layer L2_b4_cbr2_scale
I0821 08:26:21.417268 32262 net.cpp:150] Setting up L2_b4_cbr2_scale
I0821 08:26:21.417289 32262 net.cpp:157] Top shape: 125 32 16 16 (1024000)
I0821 08:26:21.417299 32262 net.cpp:165] Memory required for data: 1015297500
I0821 08:26:21.417315 32262 layer_factory.hpp:77] Creating layer L2_b4_sum_eltwise
I0821 08:26:21.417333 32262 net.cpp:100] Creating Layer L2_b4_sum_eltwise
I0821 08:26:21.417345 32262 net.cpp:434] L2_b4_sum_eltwise <- L2_b4_cbr2_bn_top
I0821 08:26:21.417363 32262 net.cpp:434] L2_b4_sum_eltwise <- L2_b3_sum_eltwise_top_L2_b3_relu_0_split_1
I0821 08:26:21.417382 32262 net.cpp:408] L2_b4_sum_eltwise -> L2_b4_sum_eltwise_top
I0821 08:26:21.417428 32262 net.cpp:150] Setting up L2_b4_sum_eltwise
I0821 08:26:21.417449 32262 net.cpp:157] Top shape: 125 32 16 16 (1024000)
I0821 08:26:21.417460 32262 net.cpp:165] Memory required for data: 1019393500
I0821 08:26:21.417470 32262 layer_factory.hpp:77] Creating layer L2_b4_relu
I0821 08:26:21.417484 32262 net.cpp:100] Creating Layer L2_b4_relu
I0821 08:26:21.417496 32262 net.cpp:434] L2_b4_relu <- L2_b4_sum_eltwise_top
I0821 08:26:21.417510 32262 net.cpp:395] L2_b4_relu -> L2_b4_sum_eltwise_top (in-place)
I0821 08:26:21.417528 32262 net.cpp:150] Setting up L2_b4_relu
I0821 08:26:21.417543 32262 net.cpp:157] Top shape: 125 32 16 16 (1024000)
I0821 08:26:21.417552 32262 net.cpp:165] Memory required for data: 1023489500
I0821 08:26:21.417562 32262 layer_factory.hpp:77] Creating layer L2_b4_sum_eltwise_top_L2_b4_relu_0_split
I0821 08:26:21.417580 32262 net.cpp:100] Creating Layer L2_b4_sum_eltwise_top_L2_b4_relu_0_split
I0821 08:26:21.417593 32262 net.cpp:434] L2_b4_sum_eltwise_top_L2_b4_relu_0_split <- L2_b4_sum_eltwise_top
I0821 08:26:21.417606 32262 net.cpp:408] L2_b4_sum_eltwise_top_L2_b4_relu_0_split -> L2_b4_sum_eltwise_top_L2_b4_relu_0_split_0
I0821 08:26:21.417626 32262 net.cpp:408] L2_b4_sum_eltwise_top_L2_b4_relu_0_split -> L2_b4_sum_eltwise_top_L2_b4_relu_0_split_1
I0821 08:26:21.417706 32262 net.cpp:150] Setting up L2_b4_sum_eltwise_top_L2_b4_relu_0_split
I0821 08:26:21.417723 32262 net.cpp:157] Top shape: 125 32 16 16 (1024000)
I0821 08:26:21.417737 32262 net.cpp:157] Top shape: 125 32 16 16 (1024000)
I0821 08:26:21.417745 32262 net.cpp:165] Memory required for data: 1031681500
I0821 08:26:21.417755 32262 layer_factory.hpp:77] Creating layer L2_b5_cbr1_conv
I0821 08:26:21.417775 32262 net.cpp:100] Creating Layer L2_b5_cbr1_conv
I0821 08:26:21.417788 32262 net.cpp:434] L2_b5_cbr1_conv <- L2_b4_sum_eltwise_top_L2_b4_relu_0_split_0
I0821 08:26:21.417809 32262 net.cpp:408] L2_b5_cbr1_conv -> L2_b5_cbr1_conv_top
I0821 08:26:21.418354 32262 net.cpp:150] Setting up L2_b5_cbr1_conv
I0821 08:26:21.418380 32262 net.cpp:157] Top shape: 125 32 16 16 (1024000)
I0821 08:26:21.418390 32262 net.cpp:165] Memory required for data: 1035777500
I0821 08:26:21.418409 32262 layer_factory.hpp:77] Creating layer L2_b5_cbr1_bn
I0821 08:26:21.418427 32262 net.cpp:100] Creating Layer L2_b5_cbr1_bn
I0821 08:26:21.418438 32262 net.cpp:434] L2_b5_cbr1_bn <- L2_b5_cbr1_conv_top
I0821 08:26:21.418459 32262 net.cpp:408] L2_b5_cbr1_bn -> L2_b5_cbr1_bn_top
I0821 08:26:21.418746 32262 net.cpp:150] Setting up L2_b5_cbr1_bn
I0821 08:26:21.418766 32262 net.cpp:157] Top shape: 125 32 16 16 (1024000)
I0821 08:26:21.418774 32262 net.cpp:165] Memory required for data: 1039873500
I0821 08:26:21.418797 32262 layer_factory.hpp:77] Creating layer L2_b5_cbr1_scale
I0821 08:26:21.418817 32262 net.cpp:100] Creating Layer L2_b5_cbr1_scale
I0821 08:26:21.418828 32262 net.cpp:434] L2_b5_cbr1_scale <- L2_b5_cbr1_bn_top
I0821 08:26:21.418844 32262 net.cpp:395] L2_b5_cbr1_scale -> L2_b5_cbr1_bn_top (in-place)
I0821 08:26:21.418934 32262 layer_factory.hpp:77] Creating layer L2_b5_cbr1_scale
I0821 08:26:21.419127 32262 net.cpp:150] Setting up L2_b5_cbr1_scale
I0821 08:26:21.419147 32262 net.cpp:157] Top shape: 125 32 16 16 (1024000)
I0821 08:26:21.419157 32262 net.cpp:165] Memory required for data: 1043969500
I0821 08:26:21.419174 32262 layer_factory.hpp:77] Creating layer L2_b5_cbr1_relu
I0821 08:26:21.419194 32262 net.cpp:100] Creating Layer L2_b5_cbr1_relu
I0821 08:26:21.419206 32262 net.cpp:434] L2_b5_cbr1_relu <- L2_b5_cbr1_bn_top
I0821 08:26:21.419221 32262 net.cpp:395] L2_b5_cbr1_relu -> L2_b5_cbr1_bn_top (in-place)
I0821 08:26:21.419241 32262 net.cpp:150] Setting up L2_b5_cbr1_relu
I0821 08:26:21.419255 32262 net.cpp:157] Top shape: 125 32 16 16 (1024000)
I0821 08:26:21.419265 32262 net.cpp:165] Memory required for data: 1048065500
I0821 08:26:21.419275 32262 layer_factory.hpp:77] Creating layer L2_b5_cbr2_conv
I0821 08:26:21.419301 32262 net.cpp:100] Creating Layer L2_b5_cbr2_conv
I0821 08:26:21.419312 32262 net.cpp:434] L2_b5_cbr2_conv <- L2_b5_cbr1_bn_top
I0821 08:26:21.419335 32262 net.cpp:408] L2_b5_cbr2_conv -> L2_b5_cbr2_conv_top
I0821 08:26:21.419842 32262 net.cpp:150] Setting up L2_b5_cbr2_conv
I0821 08:26:21.419862 32262 net.cpp:157] Top shape: 125 32 16 16 (1024000)
I0821 08:26:21.419870 32262 net.cpp:165] Memory required for data: 1052161500
I0821 08:26:21.419888 32262 layer_factory.hpp:77] Creating layer L2_b5_cbr2_bn
I0821 08:26:21.419905 32262 net.cpp:100] Creating Layer L2_b5_cbr2_bn
I0821 08:26:21.419916 32262 net.cpp:434] L2_b5_cbr2_bn <- L2_b5_cbr2_conv_top
I0821 08:26:21.419932 32262 net.cpp:408] L2_b5_cbr2_bn -> L2_b5_cbr2_bn_top
I0821 08:26:21.420228 32262 net.cpp:150] Setting up L2_b5_cbr2_bn
I0821 08:26:21.420248 32262 net.cpp:157] Top shape: 125 32 16 16 (1024000)
I0821 08:26:21.420258 32262 net.cpp:165] Memory required for data: 1056257500
I0821 08:26:21.420279 32262 layer_factory.hpp:77] Creating layer L2_b5_cbr2_scale
I0821 08:26:21.420295 32262 net.cpp:100] Creating Layer L2_b5_cbr2_scale
I0821 08:26:21.420306 32262 net.cpp:434] L2_b5_cbr2_scale <- L2_b5_cbr2_bn_top
I0821 08:26:21.420326 32262 net.cpp:395] L2_b5_cbr2_scale -> L2_b5_cbr2_bn_top (in-place)
I0821 08:26:21.420414 32262 layer_factory.hpp:77] Creating layer L2_b5_cbr2_scale
I0821 08:26:21.420603 32262 net.cpp:150] Setting up L2_b5_cbr2_scale
I0821 08:26:21.420621 32262 net.cpp:157] Top shape: 125 32 16 16 (1024000)
I0821 08:26:21.420630 32262 net.cpp:165] Memory required for data: 1060353500
I0821 08:26:21.420650 32262 layer_factory.hpp:77] Creating layer L2_b5_sum_eltwise
I0821 08:26:21.420666 32262 net.cpp:100] Creating Layer L2_b5_sum_eltwise
I0821 08:26:21.420677 32262 net.cpp:434] L2_b5_sum_eltwise <- L2_b5_cbr2_bn_top
I0821 08:26:21.420691 32262 net.cpp:434] L2_b5_sum_eltwise <- L2_b4_sum_eltwise_top_L2_b4_relu_0_split_1
I0821 08:26:21.420711 32262 net.cpp:408] L2_b5_sum_eltwise -> L2_b5_sum_eltwise_top
I0821 08:26:21.420759 32262 net.cpp:150] Setting up L2_b5_sum_eltwise
I0821 08:26:21.420783 32262 net.cpp:157] Top shape: 125 32 16 16 (1024000)
I0821 08:26:21.420800 32262 net.cpp:165] Memory required for data: 1064449500
I0821 08:26:21.420811 32262 layer_factory.hpp:77] Creating layer L2_b5_relu
I0821 08:26:21.420831 32262 net.cpp:100] Creating Layer L2_b5_relu
I0821 08:26:21.420842 32262 net.cpp:434] L2_b5_relu <- L2_b5_sum_eltwise_top
I0821 08:26:21.420857 32262 net.cpp:395] L2_b5_relu -> L2_b5_sum_eltwise_top (in-place)
I0821 08:26:21.420876 32262 net.cpp:150] Setting up L2_b5_relu
I0821 08:26:21.420892 32262 net.cpp:157] Top shape: 125 32 16 16 (1024000)
I0821 08:26:21.420902 32262 net.cpp:165] Memory required for data: 1068545500
I0821 08:26:21.420908 32262 layer_factory.hpp:77] Creating layer L2_b5_sum_eltwise_top_L2_b5_relu_0_split
I0821 08:26:21.420920 32262 net.cpp:100] Creating Layer L2_b5_sum_eltwise_top_L2_b5_relu_0_split
I0821 08:26:21.420927 32262 net.cpp:434] L2_b5_sum_eltwise_top_L2_b5_relu_0_split <- L2_b5_sum_eltwise_top
I0821 08:26:21.420934 32262 net.cpp:408] L2_b5_sum_eltwise_top_L2_b5_relu_0_split -> L2_b5_sum_eltwise_top_L2_b5_relu_0_split_0
I0821 08:26:21.420945 32262 net.cpp:408] L2_b5_sum_eltwise_top_L2_b5_relu_0_split -> L2_b5_sum_eltwise_top_L2_b5_relu_0_split_1
I0821 08:26:21.420999 32262 net.cpp:150] Setting up L2_b5_sum_eltwise_top_L2_b5_relu_0_split
I0821 08:26:21.421015 32262 net.cpp:157] Top shape: 125 32 16 16 (1024000)
I0821 08:26:21.421027 32262 net.cpp:157] Top shape: 125 32 16 16 (1024000)
I0821 08:26:21.421036 32262 net.cpp:165] Memory required for data: 1076737500
I0821 08:26:21.421046 32262 layer_factory.hpp:77] Creating layer L2_b6_cbr1_conv
I0821 08:26:21.421068 32262 net.cpp:100] Creating Layer L2_b6_cbr1_conv
I0821 08:26:21.421080 32262 net.cpp:434] L2_b6_cbr1_conv <- L2_b5_sum_eltwise_top_L2_b5_relu_0_split_0
I0821 08:26:21.421109 32262 net.cpp:408] L2_b6_cbr1_conv -> L2_b6_cbr1_conv_top
I0821 08:26:21.421620 32262 net.cpp:150] Setting up L2_b6_cbr1_conv
I0821 08:26:21.421639 32262 net.cpp:157] Top shape: 125 32 16 16 (1024000)
I0821 08:26:21.421649 32262 net.cpp:165] Memory required for data: 1080833500
I0821 08:26:21.421666 32262 layer_factory.hpp:77] Creating layer L2_b6_cbr1_bn
I0821 08:26:21.421684 32262 net.cpp:100] Creating Layer L2_b6_cbr1_bn
I0821 08:26:21.421695 32262 net.cpp:434] L2_b6_cbr1_bn <- L2_b6_cbr1_conv_top
I0821 08:26:21.421715 32262 net.cpp:408] L2_b6_cbr1_bn -> L2_b6_cbr1_bn_top
I0821 08:26:21.422010 32262 net.cpp:150] Setting up L2_b6_cbr1_bn
I0821 08:26:21.422029 32262 net.cpp:157] Top shape: 125 32 16 16 (1024000)
I0821 08:26:21.422039 32262 net.cpp:165] Memory required for data: 1084929500
I0821 08:26:21.422060 32262 layer_factory.hpp:77] Creating layer L2_b6_cbr1_scale
I0821 08:26:21.422081 32262 net.cpp:100] Creating Layer L2_b6_cbr1_scale
I0821 08:26:21.422093 32262 net.cpp:434] L2_b6_cbr1_scale <- L2_b6_cbr1_bn_top
I0821 08:26:21.422116 32262 net.cpp:395] L2_b6_cbr1_scale -> L2_b6_cbr1_bn_top (in-place)
I0821 08:26:21.422204 32262 layer_factory.hpp:77] Creating layer L2_b6_cbr1_scale
I0821 08:26:21.422389 32262 net.cpp:150] Setting up L2_b6_cbr1_scale
I0821 08:26:21.422407 32262 net.cpp:157] Top shape: 125 32 16 16 (1024000)
I0821 08:26:21.422417 32262 net.cpp:165] Memory required for data: 1089025500
I0821 08:26:21.422435 32262 layer_factory.hpp:77] Creating layer L2_b6_cbr1_relu
I0821 08:26:21.422451 32262 net.cpp:100] Creating Layer L2_b6_cbr1_relu
I0821 08:26:21.422462 32262 net.cpp:434] L2_b6_cbr1_relu <- L2_b6_cbr1_bn_top
I0821 08:26:21.422482 32262 net.cpp:395] L2_b6_cbr1_relu -> L2_b6_cbr1_bn_top (in-place)
I0821 08:26:21.422502 32262 net.cpp:150] Setting up L2_b6_cbr1_relu
I0821 08:26:21.422516 32262 net.cpp:157] Top shape: 125 32 16 16 (1024000)
I0821 08:26:21.422526 32262 net.cpp:165] Memory required for data: 1093121500
I0821 08:26:21.422538 32262 layer_factory.hpp:77] Creating layer L2_b6_cbr2_conv
I0821 08:26:21.422564 32262 net.cpp:100] Creating Layer L2_b6_cbr2_conv
I0821 08:26:21.422577 32262 net.cpp:434] L2_b6_cbr2_conv <- L2_b6_cbr1_bn_top
I0821 08:26:21.422600 32262 net.cpp:408] L2_b6_cbr2_conv -> L2_b6_cbr2_conv_top
I0821 08:26:21.423122 32262 net.cpp:150] Setting up L2_b6_cbr2_conv
I0821 08:26:21.423149 32262 net.cpp:157] Top shape: 125 32 16 16 (1024000)
I0821 08:26:21.423158 32262 net.cpp:165] Memory required for data: 1097217500
I0821 08:26:21.423177 32262 layer_factory.hpp:77] Creating layer L2_b6_cbr2_bn
I0821 08:26:21.423193 32262 net.cpp:100] Creating Layer L2_b6_cbr2_bn
I0821 08:26:21.423205 32262 net.cpp:434] L2_b6_cbr2_bn <- L2_b6_cbr2_conv_top
I0821 08:26:21.423223 32262 net.cpp:408] L2_b6_cbr2_bn -> L2_b6_cbr2_bn_top
I0821 08:26:21.423511 32262 net.cpp:150] Setting up L2_b6_cbr2_bn
I0821 08:26:21.423529 32262 net.cpp:157] Top shape: 125 32 16 16 (1024000)
I0821 08:26:21.423538 32262 net.cpp:165] Memory required for data: 1101313500
I0821 08:26:21.423560 32262 layer_factory.hpp:77] Creating layer L2_b6_cbr2_scale
I0821 08:26:21.423576 32262 net.cpp:100] Creating Layer L2_b6_cbr2_scale
I0821 08:26:21.423588 32262 net.cpp:434] L2_b6_cbr2_scale <- L2_b6_cbr2_bn_top
I0821 08:26:21.423609 32262 net.cpp:395] L2_b6_cbr2_scale -> L2_b6_cbr2_bn_top (in-place)
I0821 08:26:21.423696 32262 layer_factory.hpp:77] Creating layer L2_b6_cbr2_scale
I0821 08:26:21.423879 32262 net.cpp:150] Setting up L2_b6_cbr2_scale
I0821 08:26:21.423904 32262 net.cpp:157] Top shape: 125 32 16 16 (1024000)
I0821 08:26:21.423913 32262 net.cpp:165] Memory required for data: 1105409500
I0821 08:26:21.423931 32262 layer_factory.hpp:77] Creating layer L2_b6_sum_eltwise
I0821 08:26:21.423949 32262 net.cpp:100] Creating Layer L2_b6_sum_eltwise
I0821 08:26:21.423959 32262 net.cpp:434] L2_b6_sum_eltwise <- L2_b6_cbr2_bn_top
I0821 08:26:21.423972 32262 net.cpp:434] L2_b6_sum_eltwise <- L2_b5_sum_eltwise_top_L2_b5_relu_0_split_1
I0821 08:26:21.423992 32262 net.cpp:408] L2_b6_sum_eltwise -> L2_b6_sum_eltwise_top
I0821 08:26:21.424039 32262 net.cpp:150] Setting up L2_b6_sum_eltwise
I0821 08:26:21.424057 32262 net.cpp:157] Top shape: 125 32 16 16 (1024000)
I0821 08:26:21.424067 32262 net.cpp:165] Memory required for data: 1109505500
I0821 08:26:21.424077 32262 layer_factory.hpp:77] Creating layer L2_b6_relu
I0821 08:26:21.424095 32262 net.cpp:100] Creating Layer L2_b6_relu
I0821 08:26:21.424115 32262 net.cpp:434] L2_b6_relu <- L2_b6_sum_eltwise_top
I0821 08:26:21.424132 32262 net.cpp:395] L2_b6_relu -> L2_b6_sum_eltwise_top (in-place)
I0821 08:26:21.424150 32262 net.cpp:150] Setting up L2_b6_relu
I0821 08:26:21.424166 32262 net.cpp:157] Top shape: 125 32 16 16 (1024000)
I0821 08:26:21.424175 32262 net.cpp:165] Memory required for data: 1113601500
I0821 08:26:21.424185 32262 layer_factory.hpp:77] Creating layer L2_b6_sum_eltwise_top_L2_b6_relu_0_split
I0821 08:26:21.424207 32262 net.cpp:100] Creating Layer L2_b6_sum_eltwise_top_L2_b6_relu_0_split
I0821 08:26:21.424219 32262 net.cpp:434] L2_b6_sum_eltwise_top_L2_b6_relu_0_split <- L2_b6_sum_eltwise_top
I0821 08:26:21.424235 32262 net.cpp:408] L2_b6_sum_eltwise_top_L2_b6_relu_0_split -> L2_b6_sum_eltwise_top_L2_b6_relu_0_split_0
I0821 08:26:21.424255 32262 net.cpp:408] L2_b6_sum_eltwise_top_L2_b6_relu_0_split -> L2_b6_sum_eltwise_top_L2_b6_relu_0_split_1
I0821 08:26:21.424336 32262 net.cpp:150] Setting up L2_b6_sum_eltwise_top_L2_b6_relu_0_split
I0821 08:26:21.424362 32262 net.cpp:157] Top shape: 125 32 16 16 (1024000)
I0821 08:26:21.424377 32262 net.cpp:157] Top shape: 125 32 16 16 (1024000)
I0821 08:26:21.424387 32262 net.cpp:165] Memory required for data: 1121793500
I0821 08:26:21.424397 32262 layer_factory.hpp:77] Creating layer L2_b7_cbr1_conv
I0821 08:26:21.424417 32262 net.cpp:100] Creating Layer L2_b7_cbr1_conv
I0821 08:26:21.424430 32262 net.cpp:434] L2_b7_cbr1_conv <- L2_b6_sum_eltwise_top_L2_b6_relu_0_split_0
I0821 08:26:21.424448 32262 net.cpp:408] L2_b7_cbr1_conv -> L2_b7_cbr1_conv_top
I0821 08:26:21.424962 32262 net.cpp:150] Setting up L2_b7_cbr1_conv
I0821 08:26:21.424983 32262 net.cpp:157] Top shape: 125 32 16 16 (1024000)
I0821 08:26:21.424993 32262 net.cpp:165] Memory required for data: 1125889500
I0821 08:26:21.425009 32262 layer_factory.hpp:77] Creating layer L2_b7_cbr1_bn
I0821 08:26:21.425030 32262 net.cpp:100] Creating Layer L2_b7_cbr1_bn
I0821 08:26:21.425050 32262 net.cpp:434] L2_b7_cbr1_bn <- L2_b7_cbr1_conv_top
I0821 08:26:21.425068 32262 net.cpp:408] L2_b7_cbr1_bn -> L2_b7_cbr1_bn_top
I0821 08:26:21.425375 32262 net.cpp:150] Setting up L2_b7_cbr1_bn
I0821 08:26:21.425395 32262 net.cpp:157] Top shape: 125 32 16 16 (1024000)
I0821 08:26:21.425405 32262 net.cpp:165] Memory required for data: 1129985500
I0821 08:26:21.425426 32262 layer_factory.hpp:77] Creating layer L2_b7_cbr1_scale
I0821 08:26:21.425443 32262 net.cpp:100] Creating Layer L2_b7_cbr1_scale
I0821 08:26:21.425454 32262 net.cpp:434] L2_b7_cbr1_scale <- L2_b7_cbr1_bn_top
I0821 08:26:21.425474 32262 net.cpp:395] L2_b7_cbr1_scale -> L2_b7_cbr1_bn_top (in-place)
I0821 08:26:21.425565 32262 layer_factory.hpp:77] Creating layer L2_b7_cbr1_scale
I0821 08:26:21.425752 32262 net.cpp:150] Setting up L2_b7_cbr1_scale
I0821 08:26:21.425771 32262 net.cpp:157] Top shape: 125 32 16 16 (1024000)
I0821 08:26:21.425781 32262 net.cpp:165] Memory required for data: 1134081500
I0821 08:26:21.425799 32262 layer_factory.hpp:77] Creating layer L2_b7_cbr1_relu
I0821 08:26:21.425814 32262 net.cpp:100] Creating Layer L2_b7_cbr1_relu
I0821 08:26:21.425825 32262 net.cpp:434] L2_b7_cbr1_relu <- L2_b7_cbr1_bn_top
I0821 08:26:21.425848 32262 net.cpp:395] L2_b7_cbr1_relu -> L2_b7_cbr1_bn_top (in-place)
I0821 08:26:21.425868 32262 net.cpp:150] Setting up L2_b7_cbr1_relu
I0821 08:26:21.425881 32262 net.cpp:157] Top shape: 125 32 16 16 (1024000)
I0821 08:26:21.425891 32262 net.cpp:165] Memory required for data: 1138177500
I0821 08:26:21.425901 32262 layer_factory.hpp:77] Creating layer L2_b7_cbr2_conv
I0821 08:26:21.425926 32262 net.cpp:100] Creating Layer L2_b7_cbr2_conv
I0821 08:26:21.425940 32262 net.cpp:434] L2_b7_cbr2_conv <- L2_b7_cbr1_bn_top
I0821 08:26:21.425957 32262 net.cpp:408] L2_b7_cbr2_conv -> L2_b7_cbr2_conv_top
I0821 08:26:21.426486 32262 net.cpp:150] Setting up L2_b7_cbr2_conv
I0821 08:26:21.426506 32262 net.cpp:157] Top shape: 125 32 16 16 (1024000)
I0821 08:26:21.426514 32262 net.cpp:165] Memory required for data: 1142273500
I0821 08:26:21.426532 32262 layer_factory.hpp:77] Creating layer L2_b7_cbr2_bn
I0821 08:26:21.426554 32262 net.cpp:100] Creating Layer L2_b7_cbr2_bn
I0821 08:26:21.426566 32262 net.cpp:434] L2_b7_cbr2_bn <- L2_b7_cbr2_conv_top
I0821 08:26:21.426584 32262 net.cpp:408] L2_b7_cbr2_bn -> L2_b7_cbr2_bn_top
I0821 08:26:21.426875 32262 net.cpp:150] Setting up L2_b7_cbr2_bn
I0821 08:26:21.426894 32262 net.cpp:157] Top shape: 125 32 16 16 (1024000)
I0821 08:26:21.426904 32262 net.cpp:165] Memory required for data: 1146369500
I0821 08:26:21.426925 32262 layer_factory.hpp:77] Creating layer L2_b7_cbr2_scale
I0821 08:26:21.426941 32262 net.cpp:100] Creating Layer L2_b7_cbr2_scale
I0821 08:26:21.426954 32262 net.cpp:434] L2_b7_cbr2_scale <- L2_b7_cbr2_bn_top
I0821 08:26:21.426975 32262 net.cpp:395] L2_b7_cbr2_scale -> L2_b7_cbr2_bn_top (in-place)
I0821 08:26:21.427064 32262 layer_factory.hpp:77] Creating layer L2_b7_cbr2_scale
I0821 08:26:21.427256 32262 net.cpp:150] Setting up L2_b7_cbr2_scale
I0821 08:26:21.427275 32262 net.cpp:157] Top shape: 125 32 16 16 (1024000)
I0821 08:26:21.427284 32262 net.cpp:165] Memory required for data: 1150465500
I0821 08:26:21.427302 32262 layer_factory.hpp:77] Creating layer L2_b7_sum_eltwise
I0821 08:26:21.427320 32262 net.cpp:100] Creating Layer L2_b7_sum_eltwise
I0821 08:26:21.427330 32262 net.cpp:434] L2_b7_sum_eltwise <- L2_b7_cbr2_bn_top
I0821 08:26:21.427345 32262 net.cpp:434] L2_b7_sum_eltwise <- L2_b6_sum_eltwise_top_L2_b6_relu_0_split_1
I0821 08:26:21.427364 32262 net.cpp:408] L2_b7_sum_eltwise -> L2_b7_sum_eltwise_top
I0821 08:26:21.427412 32262 net.cpp:150] Setting up L2_b7_sum_eltwise
I0821 08:26:21.427430 32262 net.cpp:157] Top shape: 125 32 16 16 (1024000)
I0821 08:26:21.427440 32262 net.cpp:165] Memory required for data: 1154561500
I0821 08:26:21.427451 32262 layer_factory.hpp:77] Creating layer L2_b7_relu
I0821 08:26:21.427469 32262 net.cpp:100] Creating Layer L2_b7_relu
I0821 08:26:21.427482 32262 net.cpp:434] L2_b7_relu <- L2_b7_sum_eltwise_top
I0821 08:26:21.427506 32262 net.cpp:395] L2_b7_relu -> L2_b7_sum_eltwise_top (in-place)
I0821 08:26:21.427525 32262 net.cpp:150] Setting up L2_b7_relu
I0821 08:26:21.427541 32262 net.cpp:157] Top shape: 125 32 16 16 (1024000)
I0821 08:26:21.427551 32262 net.cpp:165] Memory required for data: 1158657500
I0821 08:26:21.427559 32262 layer_factory.hpp:77] Creating layer L2_b7_sum_eltwise_top_L2_b7_relu_0_split
I0821 08:26:21.427572 32262 net.cpp:100] Creating Layer L2_b7_sum_eltwise_top_L2_b7_relu_0_split
I0821 08:26:21.427583 32262 net.cpp:434] L2_b7_sum_eltwise_top_L2_b7_relu_0_split <- L2_b7_sum_eltwise_top
I0821 08:26:21.427603 32262 net.cpp:408] L2_b7_sum_eltwise_top_L2_b7_relu_0_split -> L2_b7_sum_eltwise_top_L2_b7_relu_0_split_0
I0821 08:26:21.427625 32262 net.cpp:408] L2_b7_sum_eltwise_top_L2_b7_relu_0_split -> L2_b7_sum_eltwise_top_L2_b7_relu_0_split_1
I0821 08:26:21.427706 32262 net.cpp:150] Setting up L2_b7_sum_eltwise_top_L2_b7_relu_0_split
I0821 08:26:21.427731 32262 net.cpp:157] Top shape: 125 32 16 16 (1024000)
I0821 08:26:21.427744 32262 net.cpp:157] Top shape: 125 32 16 16 (1024000)
I0821 08:26:21.427753 32262 net.cpp:165] Memory required for data: 1166849500
I0821 08:26:21.427764 32262 layer_factory.hpp:77] Creating layer L2_b8_cbr1_conv
I0821 08:26:21.427784 32262 net.cpp:100] Creating Layer L2_b8_cbr1_conv
I0821 08:26:21.427798 32262 net.cpp:434] L2_b8_cbr1_conv <- L2_b7_sum_eltwise_top_L2_b7_relu_0_split_0
I0821 08:26:21.427815 32262 net.cpp:408] L2_b8_cbr1_conv -> L2_b8_cbr1_conv_top
I0821 08:26:21.428349 32262 net.cpp:150] Setting up L2_b8_cbr1_conv
I0821 08:26:21.428369 32262 net.cpp:157] Top shape: 125 32 16 16 (1024000)
I0821 08:26:21.428378 32262 net.cpp:165] Memory required for data: 1170945500
I0821 08:26:21.428395 32262 layer_factory.hpp:77] Creating layer L2_b8_cbr1_bn
I0821 08:26:21.428416 32262 net.cpp:100] Creating Layer L2_b8_cbr1_bn
I0821 08:26:21.428429 32262 net.cpp:434] L2_b8_cbr1_bn <- L2_b8_cbr1_conv_top
I0821 08:26:21.428445 32262 net.cpp:408] L2_b8_cbr1_bn -> L2_b8_cbr1_bn_top
I0821 08:26:21.428737 32262 net.cpp:150] Setting up L2_b8_cbr1_bn
I0821 08:26:21.428755 32262 net.cpp:157] Top shape: 125 32 16 16 (1024000)
I0821 08:26:21.428766 32262 net.cpp:165] Memory required for data: 1175041500
I0821 08:26:21.428786 32262 layer_factory.hpp:77] Creating layer L2_b8_cbr1_scale
I0821 08:26:21.428802 32262 net.cpp:100] Creating Layer L2_b8_cbr1_scale
I0821 08:26:21.428813 32262 net.cpp:434] L2_b8_cbr1_scale <- L2_b8_cbr1_bn_top
I0821 08:26:21.428833 32262 net.cpp:395] L2_b8_cbr1_scale -> L2_b8_cbr1_bn_top (in-place)
I0821 08:26:21.428925 32262 layer_factory.hpp:77] Creating layer L2_b8_cbr1_scale
I0821 08:26:21.429131 32262 net.cpp:150] Setting up L2_b8_cbr1_scale
I0821 08:26:21.429149 32262 net.cpp:157] Top shape: 125 32 16 16 (1024000)
I0821 08:26:21.429158 32262 net.cpp:165] Memory required for data: 1179137500
I0821 08:26:21.429177 32262 layer_factory.hpp:77] Creating layer L2_b8_cbr1_relu
I0821 08:26:21.429193 32262 net.cpp:100] Creating Layer L2_b8_cbr1_relu
I0821 08:26:21.429203 32262 net.cpp:434] L2_b8_cbr1_relu <- L2_b8_cbr1_bn_top
I0821 08:26:21.429224 32262 net.cpp:395] L2_b8_cbr1_relu -> L2_b8_cbr1_bn_top (in-place)
I0821 08:26:21.429244 32262 net.cpp:150] Setting up L2_b8_cbr1_relu
I0821 08:26:21.429257 32262 net.cpp:157] Top shape: 125 32 16 16 (1024000)
I0821 08:26:21.429267 32262 net.cpp:165] Memory required for data: 1183233500
I0821 08:26:21.429277 32262 layer_factory.hpp:77] Creating layer L2_b8_cbr2_conv
I0821 08:26:21.429302 32262 net.cpp:100] Creating Layer L2_b8_cbr2_conv
I0821 08:26:21.429316 32262 net.cpp:434] L2_b8_cbr2_conv <- L2_b8_cbr1_bn_top
I0821 08:26:21.429333 32262 net.cpp:408] L2_b8_cbr2_conv -> L2_b8_cbr2_conv_top
I0821 08:26:21.429852 32262 net.cpp:150] Setting up L2_b8_cbr2_conv
I0821 08:26:21.429872 32262 net.cpp:157] Top shape: 125 32 16 16 (1024000)
I0821 08:26:21.429883 32262 net.cpp:165] Memory required for data: 1187329500
I0821 08:26:21.429900 32262 layer_factory.hpp:77] Creating layer L2_b8_cbr2_bn
I0821 08:26:21.429921 32262 net.cpp:100] Creating Layer L2_b8_cbr2_bn
I0821 08:26:21.429944 32262 net.cpp:434] L2_b8_cbr2_bn <- L2_b8_cbr2_conv_top
I0821 08:26:21.429963 32262 net.cpp:408] L2_b8_cbr2_bn -> L2_b8_cbr2_bn_top
I0821 08:26:21.430269 32262 net.cpp:150] Setting up L2_b8_cbr2_bn
I0821 08:26:21.430287 32262 net.cpp:157] Top shape: 125 32 16 16 (1024000)
I0821 08:26:21.430297 32262 net.cpp:165] Memory required for data: 1191425500
I0821 08:26:21.430320 32262 layer_factory.hpp:77] Creating layer L2_b8_cbr2_scale
I0821 08:26:21.430335 32262 net.cpp:100] Creating Layer L2_b8_cbr2_scale
I0821 08:26:21.430346 32262 net.cpp:434] L2_b8_cbr2_scale <- L2_b8_cbr2_bn_top
I0821 08:26:21.430362 32262 net.cpp:395] L2_b8_cbr2_scale -> L2_b8_cbr2_bn_top (in-place)
I0821 08:26:21.430455 32262 layer_factory.hpp:77] Creating layer L2_b8_cbr2_scale
I0821 08:26:21.430640 32262 net.cpp:150] Setting up L2_b8_cbr2_scale
I0821 08:26:21.430662 32262 net.cpp:157] Top shape: 125 32 16 16 (1024000)
I0821 08:26:21.430673 32262 net.cpp:165] Memory required for data: 1195521500
I0821 08:26:21.430691 32262 layer_factory.hpp:77] Creating layer L2_b8_sum_eltwise
I0821 08:26:21.430707 32262 net.cpp:100] Creating Layer L2_b8_sum_eltwise
I0821 08:26:21.430719 32262 net.cpp:434] L2_b8_sum_eltwise <- L2_b8_cbr2_bn_top
I0821 08:26:21.430732 32262 net.cpp:434] L2_b8_sum_eltwise <- L2_b7_sum_eltwise_top_L2_b7_relu_0_split_1
I0821 08:26:21.430748 32262 net.cpp:408] L2_b8_sum_eltwise -> L2_b8_sum_eltwise_top
I0821 08:26:21.430800 32262 net.cpp:150] Setting up L2_b8_sum_eltwise
I0821 08:26:21.430819 32262 net.cpp:157] Top shape: 125 32 16 16 (1024000)
I0821 08:26:21.430829 32262 net.cpp:165] Memory required for data: 1199617500
I0821 08:26:21.430838 32262 layer_factory.hpp:77] Creating layer L2_b8_relu
I0821 08:26:21.430852 32262 net.cpp:100] Creating Layer L2_b8_relu
I0821 08:26:21.430865 32262 net.cpp:434] L2_b8_relu <- L2_b8_sum_eltwise_top
I0821 08:26:21.430884 32262 net.cpp:395] L2_b8_relu -> L2_b8_sum_eltwise_top (in-place)
I0821 08:26:21.430903 32262 net.cpp:150] Setting up L2_b8_relu
I0821 08:26:21.430917 32262 net.cpp:157] Top shape: 125 32 16 16 (1024000)
I0821 08:26:21.430927 32262 net.cpp:165] Memory required for data: 1203713500
I0821 08:26:21.430936 32262 layer_factory.hpp:77] Creating layer L2_b8_sum_eltwise_top_L2_b8_relu_0_split
I0821 08:26:21.430951 32262 net.cpp:100] Creating Layer L2_b8_sum_eltwise_top_L2_b8_relu_0_split
I0821 08:26:21.430963 32262 net.cpp:434] L2_b8_sum_eltwise_top_L2_b8_relu_0_split <- L2_b8_sum_eltwise_top
I0821 08:26:21.430982 32262 net.cpp:408] L2_b8_sum_eltwise_top_L2_b8_relu_0_split -> L2_b8_sum_eltwise_top_L2_b8_relu_0_split_0
I0821 08:26:21.431022 32262 net.cpp:408] L2_b8_sum_eltwise_top_L2_b8_relu_0_split -> L2_b8_sum_eltwise_top_L2_b8_relu_0_split_1
I0821 08:26:21.431115 32262 net.cpp:150] Setting up L2_b8_sum_eltwise_top_L2_b8_relu_0_split
I0821 08:26:21.431135 32262 net.cpp:157] Top shape: 125 32 16 16 (1024000)
I0821 08:26:21.431149 32262 net.cpp:157] Top shape: 125 32 16 16 (1024000)
I0821 08:26:21.431159 32262 net.cpp:165] Memory required for data: 1211905500
I0821 08:26:21.431169 32262 layer_factory.hpp:77] Creating layer L2_b9_cbr1_conv
I0821 08:26:21.431198 32262 net.cpp:100] Creating Layer L2_b9_cbr1_conv
I0821 08:26:21.431212 32262 net.cpp:434] L2_b9_cbr1_conv <- L2_b8_sum_eltwise_top_L2_b8_relu_0_split_0
I0821 08:26:21.431238 32262 net.cpp:408] L2_b9_cbr1_conv -> L2_b9_cbr1_conv_top
I0821 08:26:21.431757 32262 net.cpp:150] Setting up L2_b9_cbr1_conv
I0821 08:26:21.431777 32262 net.cpp:157] Top shape: 125 32 16 16 (1024000)
I0821 08:26:21.431787 32262 net.cpp:165] Memory required for data: 1216001500
I0821 08:26:21.431804 32262 layer_factory.hpp:77] Creating layer L2_b9_cbr1_bn
I0821 08:26:21.431821 32262 net.cpp:100] Creating Layer L2_b9_cbr1_bn
I0821 08:26:21.431838 32262 net.cpp:434] L2_b9_cbr1_bn <- L2_b9_cbr1_conv_top
I0821 08:26:21.431855 32262 net.cpp:408] L2_b9_cbr1_bn -> L2_b9_cbr1_bn_top
I0821 08:26:21.432155 32262 net.cpp:150] Setting up L2_b9_cbr1_bn
I0821 08:26:21.432174 32262 net.cpp:157] Top shape: 125 32 16 16 (1024000)
I0821 08:26:21.432194 32262 net.cpp:165] Memory required for data: 1220097500
I0821 08:26:21.432217 32262 layer_factory.hpp:77] Creating layer L2_b9_cbr1_scale
I0821 08:26:21.432234 32262 net.cpp:100] Creating Layer L2_b9_cbr1_scale
I0821 08:26:21.432245 32262 net.cpp:434] L2_b9_cbr1_scale <- L2_b9_cbr1_bn_top
I0821 08:26:21.432260 32262 net.cpp:395] L2_b9_cbr1_scale -> L2_b9_cbr1_bn_top (in-place)
I0821 08:26:21.432358 32262 layer_factory.hpp:77] Creating layer L2_b9_cbr1_scale
I0821 08:26:21.432543 32262 net.cpp:150] Setting up L2_b9_cbr1_scale
I0821 08:26:21.432565 32262 net.cpp:157] Top shape: 125 32 16 16 (1024000)
I0821 08:26:21.432575 32262 net.cpp:165] Memory required for data: 1224193500
I0821 08:26:21.432593 32262 layer_factory.hpp:77] Creating layer L2_b9_cbr1_relu
I0821 08:26:21.432608 32262 net.cpp:100] Creating Layer L2_b9_cbr1_relu
I0821 08:26:21.432621 32262 net.cpp:434] L2_b9_cbr1_relu <- L2_b9_cbr1_bn_top
I0821 08:26:21.432633 32262 net.cpp:395] L2_b9_cbr1_relu -> L2_b9_cbr1_bn_top (in-place)
I0821 08:26:21.432652 32262 net.cpp:150] Setting up L2_b9_cbr1_relu
I0821 08:26:21.432667 32262 net.cpp:157] Top shape: 125 32 16 16 (1024000)
I0821 08:26:21.432677 32262 net.cpp:165] Memory required for data: 1228289500
I0821 08:26:21.432687 32262 layer_factory.hpp:77] Creating layer L2_b9_cbr2_conv
I0821 08:26:21.432713 32262 net.cpp:100] Creating Layer L2_b9_cbr2_conv
I0821 08:26:21.432726 32262 net.cpp:434] L2_b9_cbr2_conv <- L2_b9_cbr1_bn_top
I0821 08:26:21.432749 32262 net.cpp:408] L2_b9_cbr2_conv -> L2_b9_cbr2_conv_top
I0821 08:26:21.433271 32262 net.cpp:150] Setting up L2_b9_cbr2_conv
I0821 08:26:21.433291 32262 net.cpp:157] Top shape: 125 32 16 16 (1024000)
I0821 08:26:21.433300 32262 net.cpp:165] Memory required for data: 1232385500
I0821 08:26:21.433318 32262 layer_factory.hpp:77] Creating layer L2_b9_cbr2_bn
I0821 08:26:21.433339 32262 net.cpp:100] Creating Layer L2_b9_cbr2_bn
I0821 08:26:21.433352 32262 net.cpp:434] L2_b9_cbr2_bn <- L2_b9_cbr2_conv_top
I0821 08:26:21.433373 32262 net.cpp:408] L2_b9_cbr2_bn -> L2_b9_cbr2_bn_top
I0821 08:26:21.433667 32262 net.cpp:150] Setting up L2_b9_cbr2_bn
I0821 08:26:21.433686 32262 net.cpp:157] Top shape: 125 32 16 16 (1024000)
I0821 08:26:21.433696 32262 net.cpp:165] Memory required for data: 1236481500
I0821 08:26:21.433764 32262 layer_factory.hpp:77] Creating layer L2_b9_cbr2_scale
I0821 08:26:21.433787 32262 net.cpp:100] Creating Layer L2_b9_cbr2_scale
I0821 08:26:21.433800 32262 net.cpp:434] L2_b9_cbr2_scale <- L2_b9_cbr2_bn_top
I0821 08:26:21.433816 32262 net.cpp:395] L2_b9_cbr2_scale -> L2_b9_cbr2_bn_top (in-place)
I0821 08:26:21.433918 32262 layer_factory.hpp:77] Creating layer L2_b9_cbr2_scale
I0821 08:26:21.434110 32262 net.cpp:150] Setting up L2_b9_cbr2_scale
I0821 08:26:21.434130 32262 net.cpp:157] Top shape: 125 32 16 16 (1024000)
I0821 08:26:21.434139 32262 net.cpp:165] Memory required for data: 1240577500
I0821 08:26:21.434159 32262 layer_factory.hpp:77] Creating layer L2_b9_sum_eltwise
I0821 08:26:21.434180 32262 net.cpp:100] Creating Layer L2_b9_sum_eltwise
I0821 08:26:21.434192 32262 net.cpp:434] L2_b9_sum_eltwise <- L2_b9_cbr2_bn_top
I0821 08:26:21.434206 32262 net.cpp:434] L2_b9_sum_eltwise <- L2_b8_sum_eltwise_top_L2_b8_relu_0_split_1
I0821 08:26:21.434222 32262 net.cpp:408] L2_b9_sum_eltwise -> L2_b9_sum_eltwise_top
I0821 08:26:21.434274 32262 net.cpp:150] Setting up L2_b9_sum_eltwise
I0821 08:26:21.434293 32262 net.cpp:157] Top shape: 125 32 16 16 (1024000)
I0821 08:26:21.434303 32262 net.cpp:165] Memory required for data: 1244673500
I0821 08:26:21.434314 32262 layer_factory.hpp:77] Creating layer L2_b9_relu
I0821 08:26:21.434327 32262 net.cpp:100] Creating Layer L2_b9_relu
I0821 08:26:21.434340 32262 net.cpp:434] L2_b9_relu <- L2_b9_sum_eltwise_top
I0821 08:26:21.434357 32262 net.cpp:395] L2_b9_relu -> L2_b9_sum_eltwise_top (in-place)
I0821 08:26:21.434377 32262 net.cpp:150] Setting up L2_b9_relu
I0821 08:26:21.434392 32262 net.cpp:157] Top shape: 125 32 16 16 (1024000)
I0821 08:26:21.434401 32262 net.cpp:165] Memory required for data: 1248769500
I0821 08:26:21.434420 32262 layer_factory.hpp:77] Creating layer L2_b9_sum_eltwise_top_L2_b9_relu_0_split
I0821 08:26:21.434435 32262 net.cpp:100] Creating Layer L2_b9_sum_eltwise_top_L2_b9_relu_0_split
I0821 08:26:21.434447 32262 net.cpp:434] L2_b9_sum_eltwise_top_L2_b9_relu_0_split <- L2_b9_sum_eltwise_top
I0821 08:26:21.434466 32262 net.cpp:408] L2_b9_sum_eltwise_top_L2_b9_relu_0_split -> L2_b9_sum_eltwise_top_L2_b9_relu_0_split_0
I0821 08:26:21.434487 32262 net.cpp:408] L2_b9_sum_eltwise_top_L2_b9_relu_0_split -> L2_b9_sum_eltwise_top_L2_b9_relu_0_split_1
I0821 08:26:21.434573 32262 net.cpp:150] Setting up L2_b9_sum_eltwise_top_L2_b9_relu_0_split
I0821 08:26:21.434592 32262 net.cpp:157] Top shape: 125 32 16 16 (1024000)
I0821 08:26:21.434605 32262 net.cpp:157] Top shape: 125 32 16 16 (1024000)
I0821 08:26:21.434614 32262 net.cpp:165] Memory required for data: 1256961500
I0821 08:26:21.434625 32262 layer_factory.hpp:77] Creating layer L3_b1_cbr1_conv
I0821 08:26:21.434645 32262 net.cpp:100] Creating Layer L3_b1_cbr1_conv
I0821 08:26:21.434659 32262 net.cpp:434] L3_b1_cbr1_conv <- L2_b9_sum_eltwise_top_L2_b9_relu_0_split_0
I0821 08:26:21.434681 32262 net.cpp:408] L3_b1_cbr1_conv -> L3_b1_cbr1_conv_top
I0821 08:26:21.435217 32262 net.cpp:150] Setting up L3_b1_cbr1_conv
I0821 08:26:21.435237 32262 net.cpp:157] Top shape: 125 32 8 8 (256000)
I0821 08:26:21.435247 32262 net.cpp:165] Memory required for data: 1257985500
I0821 08:26:21.435266 32262 layer_factory.hpp:77] Creating layer L3_b1_cbr1_bn
I0821 08:26:21.435282 32262 net.cpp:100] Creating Layer L3_b1_cbr1_bn
I0821 08:26:21.435294 32262 net.cpp:434] L3_b1_cbr1_bn <- L3_b1_cbr1_conv_top
I0821 08:26:21.435315 32262 net.cpp:408] L3_b1_cbr1_bn -> L3_b1_cbr1_bn_top
I0821 08:26:21.435619 32262 net.cpp:150] Setting up L3_b1_cbr1_bn
I0821 08:26:21.435642 32262 net.cpp:157] Top shape: 125 32 8 8 (256000)
I0821 08:26:21.435652 32262 net.cpp:165] Memory required for data: 1259009500
I0821 08:26:21.435673 32262 layer_factory.hpp:77] Creating layer L3_b1_cbr1_scale
I0821 08:26:21.435690 32262 net.cpp:100] Creating Layer L3_b1_cbr1_scale
I0821 08:26:21.435703 32262 net.cpp:434] L3_b1_cbr1_scale <- L3_b1_cbr1_bn_top
I0821 08:26:21.435719 32262 net.cpp:395] L3_b1_cbr1_scale -> L3_b1_cbr1_bn_top (in-place)
I0821 08:26:21.435806 32262 layer_factory.hpp:77] Creating layer L3_b1_cbr1_scale
I0821 08:26:21.436002 32262 net.cpp:150] Setting up L3_b1_cbr1_scale
I0821 08:26:21.436022 32262 net.cpp:157] Top shape: 125 32 8 8 (256000)
I0821 08:26:21.436031 32262 net.cpp:165] Memory required for data: 1260033500
I0821 08:26:21.436049 32262 layer_factory.hpp:77] Creating layer L3_b1_cbr1_relu
I0821 08:26:21.436069 32262 net.cpp:100] Creating Layer L3_b1_cbr1_relu
I0821 08:26:21.436081 32262 net.cpp:434] L3_b1_cbr1_relu <- L3_b1_cbr1_bn_top
I0821 08:26:21.436095 32262 net.cpp:395] L3_b1_cbr1_relu -> L3_b1_cbr1_bn_top (in-place)
I0821 08:26:21.436121 32262 net.cpp:150] Setting up L3_b1_cbr1_relu
I0821 08:26:21.436137 32262 net.cpp:157] Top shape: 125 32 8 8 (256000)
I0821 08:26:21.436147 32262 net.cpp:165] Memory required for data: 1261057500
I0821 08:26:21.436157 32262 layer_factory.hpp:77] Creating layer L3_b1_cbr2_conv
I0821 08:26:21.436182 32262 net.cpp:100] Creating Layer L3_b1_cbr2_conv
I0821 08:26:21.436195 32262 net.cpp:434] L3_b1_cbr2_conv <- L3_b1_cbr1_bn_top
I0821 08:26:21.436213 32262 net.cpp:408] L3_b1_cbr2_conv -> L3_b1_cbr2_conv_top
I0821 08:26:21.436738 32262 net.cpp:150] Setting up L3_b1_cbr2_conv
I0821 08:26:21.436758 32262 net.cpp:157] Top shape: 125 32 8 8 (256000)
I0821 08:26:21.436767 32262 net.cpp:165] Memory required for data: 1262081500
I0821 08:26:21.436785 32262 layer_factory.hpp:77] Creating layer L3_b1_cbr2_bn
I0821 08:26:21.436806 32262 net.cpp:100] Creating Layer L3_b1_cbr2_bn
I0821 08:26:21.436820 32262 net.cpp:434] L3_b1_cbr2_bn <- L3_b1_cbr2_conv_top
I0821 08:26:21.436841 32262 net.cpp:408] L3_b1_cbr2_bn -> L3_b1_cbr2_bn_top
I0821 08:26:21.437146 32262 net.cpp:150] Setting up L3_b1_cbr2_bn
I0821 08:26:21.437166 32262 net.cpp:157] Top shape: 125 32 8 8 (256000)
I0821 08:26:21.437183 32262 net.cpp:165] Memory required for data: 1263105500
I0821 08:26:21.437206 32262 layer_factory.hpp:77] Creating layer L3_b1_cbr2_scale
I0821 08:26:21.437222 32262 net.cpp:100] Creating Layer L3_b1_cbr2_scale
I0821 08:26:21.437234 32262 net.cpp:434] L3_b1_cbr2_scale <- L3_b1_cbr2_bn_top
I0821 08:26:21.437254 32262 net.cpp:395] L3_b1_cbr2_scale -> L3_b1_cbr2_bn_top (in-place)
I0821 08:26:21.437350 32262 layer_factory.hpp:77] Creating layer L3_b1_cbr2_scale
I0821 08:26:21.437543 32262 net.cpp:150] Setting up L3_b1_cbr2_scale
I0821 08:26:21.437563 32262 net.cpp:157] Top shape: 125 32 8 8 (256000)
I0821 08:26:21.437572 32262 net.cpp:165] Memory required for data: 1264129500
I0821 08:26:21.437592 32262 layer_factory.hpp:77] Creating layer L3_b1_pool
I0821 08:26:21.437608 32262 net.cpp:100] Creating Layer L3_b1_pool
I0821 08:26:21.437619 32262 net.cpp:434] L3_b1_pool <- L2_b9_sum_eltwise_top_L2_b9_relu_0_split_1
I0821 08:26:21.437639 32262 net.cpp:408] L3_b1_pool -> L3_b1_pool
I0821 08:26:21.437710 32262 net.cpp:150] Setting up L3_b1_pool
I0821 08:26:21.437727 32262 net.cpp:157] Top shape: 125 32 8 8 (256000)
I0821 08:26:21.437736 32262 net.cpp:165] Memory required for data: 1265153500
I0821 08:26:21.437747 32262 layer_factory.hpp:77] Creating layer L3_b1_sum_eltwise
I0821 08:26:21.437764 32262 net.cpp:100] Creating Layer L3_b1_sum_eltwise
I0821 08:26:21.437775 32262 net.cpp:434] L3_b1_sum_eltwise <- L3_b1_cbr2_bn_top
I0821 08:26:21.437788 32262 net.cpp:434] L3_b1_sum_eltwise <- L3_b1_pool
I0821 08:26:21.437808 32262 net.cpp:408] L3_b1_sum_eltwise -> L3_b1_sum_eltwise_top
I0821 08:26:21.437865 32262 net.cpp:150] Setting up L3_b1_sum_eltwise
I0821 08:26:21.437883 32262 net.cpp:157] Top shape: 125 32 8 8 (256000)
I0821 08:26:21.437894 32262 net.cpp:165] Memory required for data: 1266177500
I0821 08:26:21.437904 32262 layer_factory.hpp:77] Creating layer L3_b1_relu
I0821 08:26:21.437918 32262 net.cpp:100] Creating Layer L3_b1_relu
I0821 08:26:21.437930 32262 net.cpp:434] L3_b1_relu <- L3_b1_sum_eltwise_top
I0821 08:26:21.437945 32262 net.cpp:395] L3_b1_relu -> L3_b1_sum_eltwise_top (in-place)
I0821 08:26:21.437963 32262 net.cpp:150] Setting up L3_b1_relu
I0821 08:26:21.437978 32262 net.cpp:157] Top shape: 125 32 8 8 (256000)
I0821 08:26:21.437988 32262 net.cpp:165] Memory required for data: 1267201500
I0821 08:26:21.437997 32262 layer_factory.hpp:77] Creating layer L3_b1_zeros
I0821 08:26:21.438019 32262 net.cpp:100] Creating Layer L3_b1_zeros
I0821 08:26:21.438035 32262 net.cpp:408] L3_b1_zeros -> L3_b1_zeros
I0821 08:26:21.439308 32262 net.cpp:150] Setting up L3_b1_zeros
I0821 08:26:21.439330 32262 net.cpp:157] Top shape: 125 32 8 8 (256000)
I0821 08:26:21.439340 32262 net.cpp:165] Memory required for data: 1268225500
I0821 08:26:21.439352 32262 layer_factory.hpp:77] Creating layer L3_b1_concat0
I0821 08:26:21.439369 32262 net.cpp:100] Creating Layer L3_b1_concat0
I0821 08:26:21.439381 32262 net.cpp:434] L3_b1_concat0 <- L3_b1_sum_eltwise_top
I0821 08:26:21.439394 32262 net.cpp:434] L3_b1_concat0 <- L3_b1_zeros
I0821 08:26:21.439414 32262 net.cpp:408] L3_b1_concat0 -> L3_b1_concat0
I0821 08:26:21.439476 32262 net.cpp:150] Setting up L3_b1_concat0
I0821 08:26:21.439502 32262 net.cpp:157] Top shape: 125 64 8 8 (512000)
I0821 08:26:21.439512 32262 net.cpp:165] Memory required for data: 1270273500
I0821 08:26:21.439522 32262 layer_factory.hpp:77] Creating layer L3_b1_concat0_L3_b1_concat0_0_split
I0821 08:26:21.439535 32262 net.cpp:100] Creating Layer L3_b1_concat0_L3_b1_concat0_0_split
I0821 08:26:21.439548 32262 net.cpp:434] L3_b1_concat0_L3_b1_concat0_0_split <- L3_b1_concat0
I0821 08:26:21.439563 32262 net.cpp:408] L3_b1_concat0_L3_b1_concat0_0_split -> L3_b1_concat0_L3_b1_concat0_0_split_0
I0821 08:26:21.439587 32262 net.cpp:408] L3_b1_concat0_L3_b1_concat0_0_split -> L3_b1_concat0_L3_b1_concat0_0_split_1
I0821 08:26:21.439676 32262 net.cpp:150] Setting up L3_b1_concat0_L3_b1_concat0_0_split
I0821 08:26:21.439694 32262 net.cpp:157] Top shape: 125 64 8 8 (512000)
I0821 08:26:21.439707 32262 net.cpp:157] Top shape: 125 64 8 8 (512000)
I0821 08:26:21.439726 32262 net.cpp:165] Memory required for data: 1274369500
I0821 08:26:21.439738 32262 layer_factory.hpp:77] Creating layer L3_b2_cbr1_conv
I0821 08:26:21.439762 32262 net.cpp:100] Creating Layer L3_b2_cbr1_conv
I0821 08:26:21.439776 32262 net.cpp:434] L3_b2_cbr1_conv <- L3_b1_concat0_L3_b1_concat0_0_split_0
I0821 08:26:21.439795 32262 net.cpp:408] L3_b2_cbr1_conv -> L3_b2_cbr1_conv_top
I0821 08:26:21.441829 32262 net.cpp:150] Setting up L3_b2_cbr1_conv
I0821 08:26:21.441851 32262 net.cpp:157] Top shape: 125 64 8 8 (512000)
I0821 08:26:21.441861 32262 net.cpp:165] Memory required for data: 1276417500
I0821 08:26:21.441879 32262 layer_factory.hpp:77] Creating layer L3_b2_cbr1_bn
I0821 08:26:21.441901 32262 net.cpp:100] Creating Layer L3_b2_cbr1_bn
I0821 08:26:21.441915 32262 net.cpp:434] L3_b2_cbr1_bn <- L3_b2_cbr1_conv_top
I0821 08:26:21.441931 32262 net.cpp:408] L3_b2_cbr1_bn -> L3_b2_cbr1_bn_top
I0821 08:26:21.442250 32262 net.cpp:150] Setting up L3_b2_cbr1_bn
I0821 08:26:21.442270 32262 net.cpp:157] Top shape: 125 64 8 8 (512000)
I0821 08:26:21.442279 32262 net.cpp:165] Memory required for data: 1278465500
I0821 08:26:21.442301 32262 layer_factory.hpp:77] Creating layer L3_b2_cbr1_scale
I0821 08:26:21.442318 32262 net.cpp:100] Creating Layer L3_b2_cbr1_scale
I0821 08:26:21.442329 32262 net.cpp:434] L3_b2_cbr1_scale <- L3_b2_cbr1_bn_top
I0821 08:26:21.442345 32262 net.cpp:395] L3_b2_cbr1_scale -> L3_b2_cbr1_bn_top (in-place)
I0821 08:26:21.442440 32262 layer_factory.hpp:77] Creating layer L3_b2_cbr1_scale
I0821 08:26:21.442629 32262 net.cpp:150] Setting up L3_b2_cbr1_scale
I0821 08:26:21.442652 32262 net.cpp:157] Top shape: 125 64 8 8 (512000)
I0821 08:26:21.442662 32262 net.cpp:165] Memory required for data: 1280513500
I0821 08:26:21.442682 32262 layer_factory.hpp:77] Creating layer L3_b2_cbr1_relu
I0821 08:26:21.442698 32262 net.cpp:100] Creating Layer L3_b2_cbr1_relu
I0821 08:26:21.442708 32262 net.cpp:434] L3_b2_cbr1_relu <- L3_b2_cbr1_bn_top
I0821 08:26:21.442723 32262 net.cpp:395] L3_b2_cbr1_relu -> L3_b2_cbr1_bn_top (in-place)
I0821 08:26:21.442744 32262 net.cpp:150] Setting up L3_b2_cbr1_relu
I0821 08:26:21.442757 32262 net.cpp:157] Top shape: 125 64 8 8 (512000)
I0821 08:26:21.442767 32262 net.cpp:165] Memory required for data: 1282561500
I0821 08:26:21.442777 32262 layer_factory.hpp:77] Creating layer L3_b2_cbr2_conv
I0821 08:26:21.442801 32262 net.cpp:100] Creating Layer L3_b2_cbr2_conv
I0821 08:26:21.442816 32262 net.cpp:434] L3_b2_cbr2_conv <- L3_b2_cbr1_bn_top
I0821 08:26:21.442833 32262 net.cpp:408] L3_b2_cbr2_conv -> L3_b2_cbr2_conv_top
I0821 08:26:21.443907 32262 net.cpp:150] Setting up L3_b2_cbr2_conv
I0821 08:26:21.443927 32262 net.cpp:157] Top shape: 125 64 8 8 (512000)
I0821 08:26:21.443936 32262 net.cpp:165] Memory required for data: 1284609500
I0821 08:26:21.443953 32262 layer_factory.hpp:77] Creating layer L3_b2_cbr2_bn
I0821 08:26:21.443975 32262 net.cpp:100] Creating Layer L3_b2_cbr2_bn
I0821 08:26:21.443989 32262 net.cpp:434] L3_b2_cbr2_bn <- L3_b2_cbr2_conv_top
I0821 08:26:21.444006 32262 net.cpp:408] L3_b2_cbr2_bn -> L3_b2_cbr2_bn_top
I0821 08:26:21.444308 32262 net.cpp:150] Setting up L3_b2_cbr2_bn
I0821 08:26:21.444329 32262 net.cpp:157] Top shape: 125 64 8 8 (512000)
I0821 08:26:21.444337 32262 net.cpp:165] Memory required for data: 1286657500
I0821 08:26:21.444358 32262 layer_factory.hpp:77] Creating layer L3_b2_cbr2_scale
I0821 08:26:21.444375 32262 net.cpp:100] Creating Layer L3_b2_cbr2_scale
I0821 08:26:21.444386 32262 net.cpp:434] L3_b2_cbr2_scale <- L3_b2_cbr2_bn_top
I0821 08:26:21.444407 32262 net.cpp:395] L3_b2_cbr2_scale -> L3_b2_cbr2_bn_top (in-place)
I0821 08:26:21.444496 32262 layer_factory.hpp:77] Creating layer L3_b2_cbr2_scale
I0821 08:26:21.444691 32262 net.cpp:150] Setting up L3_b2_cbr2_scale
I0821 08:26:21.444710 32262 net.cpp:157] Top shape: 125 64 8 8 (512000)
I0821 08:26:21.444720 32262 net.cpp:165] Memory required for data: 1288705500
I0821 08:26:21.444738 32262 layer_factory.hpp:77] Creating layer L3_b2_sum_eltwise
I0821 08:26:21.444768 32262 net.cpp:100] Creating Layer L3_b2_sum_eltwise
I0821 08:26:21.444782 32262 net.cpp:434] L3_b2_sum_eltwise <- L3_b2_cbr2_bn_top
I0821 08:26:21.444797 32262 net.cpp:434] L3_b2_sum_eltwise <- L3_b1_concat0_L3_b1_concat0_0_split_1
I0821 08:26:21.444813 32262 net.cpp:408] L3_b2_sum_eltwise -> L3_b2_sum_eltwise_top
I0821 08:26:21.444875 32262 net.cpp:150] Setting up L3_b2_sum_eltwise
I0821 08:26:21.444897 32262 net.cpp:157] Top shape: 125 64 8 8 (512000)
I0821 08:26:21.444907 32262 net.cpp:165] Memory required for data: 1290753500
I0821 08:26:21.444918 32262 layer_factory.hpp:77] Creating layer L3_b2_relu
I0821 08:26:21.444933 32262 net.cpp:100] Creating Layer L3_b2_relu
I0821 08:26:21.444944 32262 net.cpp:434] L3_b2_relu <- L3_b2_sum_eltwise_top
I0821 08:26:21.444964 32262 net.cpp:395] L3_b2_relu -> L3_b2_sum_eltwise_top (in-place)
I0821 08:26:21.444985 32262 net.cpp:150] Setting up L3_b2_relu
I0821 08:26:21.444999 32262 net.cpp:157] Top shape: 125 64 8 8 (512000)
I0821 08:26:21.445009 32262 net.cpp:165] Memory required for data: 1292801500
I0821 08:26:21.445020 32262 layer_factory.hpp:77] Creating layer L3_b2_sum_eltwise_top_L3_b2_relu_0_split
I0821 08:26:21.445034 32262 net.cpp:100] Creating Layer L3_b2_sum_eltwise_top_L3_b2_relu_0_split
I0821 08:26:21.445044 32262 net.cpp:434] L3_b2_sum_eltwise_top_L3_b2_relu_0_split <- L3_b2_sum_eltwise_top
I0821 08:26:21.445060 32262 net.cpp:408] L3_b2_sum_eltwise_top_L3_b2_relu_0_split -> L3_b2_sum_eltwise_top_L3_b2_relu_0_split_0
I0821 08:26:21.445078 32262 net.cpp:408] L3_b2_sum_eltwise_top_L3_b2_relu_0_split -> L3_b2_sum_eltwise_top_L3_b2_relu_0_split_1
I0821 08:26:21.445173 32262 net.cpp:150] Setting up L3_b2_sum_eltwise_top_L3_b2_relu_0_split
I0821 08:26:21.445190 32262 net.cpp:157] Top shape: 125 64 8 8 (512000)
I0821 08:26:21.445204 32262 net.cpp:157] Top shape: 125 64 8 8 (512000)
I0821 08:26:21.445212 32262 net.cpp:165] Memory required for data: 1296897500
I0821 08:26:21.445224 32262 layer_factory.hpp:77] Creating layer L3_b3_cbr1_conv
I0821 08:26:21.445243 32262 net.cpp:100] Creating Layer L3_b3_cbr1_conv
I0821 08:26:21.445256 32262 net.cpp:434] L3_b3_cbr1_conv <- L3_b2_sum_eltwise_top_L3_b2_relu_0_split_0
I0821 08:26:21.445279 32262 net.cpp:408] L3_b3_cbr1_conv -> L3_b3_cbr1_conv_top
I0821 08:26:21.446352 32262 net.cpp:150] Setting up L3_b3_cbr1_conv
I0821 08:26:21.446372 32262 net.cpp:157] Top shape: 125 64 8 8 (512000)
I0821 08:26:21.446382 32262 net.cpp:165] Memory required for data: 1298945500
I0821 08:26:21.446399 32262 layer_factory.hpp:77] Creating layer L3_b3_cbr1_bn
I0821 08:26:21.446421 32262 net.cpp:100] Creating Layer L3_b3_cbr1_bn
I0821 08:26:21.446434 32262 net.cpp:434] L3_b3_cbr1_bn <- L3_b3_cbr1_conv_top
I0821 08:26:21.446451 32262 net.cpp:408] L3_b3_cbr1_bn -> L3_b3_cbr1_bn_top
I0821 08:26:21.446746 32262 net.cpp:150] Setting up L3_b3_cbr1_bn
I0821 08:26:21.446765 32262 net.cpp:157] Top shape: 125 64 8 8 (512000)
I0821 08:26:21.446775 32262 net.cpp:165] Memory required for data: 1300993500
I0821 08:26:21.446796 32262 layer_factory.hpp:77] Creating layer L3_b3_cbr1_scale
I0821 08:26:21.446812 32262 net.cpp:100] Creating Layer L3_b3_cbr1_scale
I0821 08:26:21.446825 32262 net.cpp:434] L3_b3_cbr1_scale <- L3_b3_cbr1_bn_top
I0821 08:26:21.446840 32262 net.cpp:395] L3_b3_cbr1_scale -> L3_b3_cbr1_bn_top (in-place)
I0821 08:26:21.446938 32262 layer_factory.hpp:77] Creating layer L3_b3_cbr1_scale
I0821 08:26:21.447134 32262 net.cpp:150] Setting up L3_b3_cbr1_scale
I0821 08:26:21.447154 32262 net.cpp:157] Top shape: 125 64 8 8 (512000)
I0821 08:26:21.447165 32262 net.cpp:165] Memory required for data: 1303041500
I0821 08:26:21.447182 32262 layer_factory.hpp:77] Creating layer L3_b3_cbr1_relu
I0821 08:26:21.447197 32262 net.cpp:100] Creating Layer L3_b3_cbr1_relu
I0821 08:26:21.447209 32262 net.cpp:434] L3_b3_cbr1_relu <- L3_b3_cbr1_bn_top
I0821 08:26:21.447223 32262 net.cpp:395] L3_b3_cbr1_relu -> L3_b3_cbr1_bn_top (in-place)
I0821 08:26:21.447242 32262 net.cpp:150] Setting up L3_b3_cbr1_relu
I0821 08:26:21.447257 32262 net.cpp:157] Top shape: 125 64 8 8 (512000)
I0821 08:26:21.447274 32262 net.cpp:165] Memory required for data: 1305089500
I0821 08:26:21.447285 32262 layer_factory.hpp:77] Creating layer L3_b3_cbr2_conv
I0821 08:26:21.447309 32262 net.cpp:100] Creating Layer L3_b3_cbr2_conv
I0821 08:26:21.447324 32262 net.cpp:434] L3_b3_cbr2_conv <- L3_b3_cbr1_bn_top
I0821 08:26:21.447346 32262 net.cpp:408] L3_b3_cbr2_conv -> L3_b3_cbr2_conv_top
I0821 08:26:21.448417 32262 net.cpp:150] Setting up L3_b3_cbr2_conv
I0821 08:26:21.448437 32262 net.cpp:157] Top shape: 125 64 8 8 (512000)
I0821 08:26:21.448447 32262 net.cpp:165] Memory required for data: 1307137500
I0821 08:26:21.448465 32262 layer_factory.hpp:77] Creating layer L3_b3_cbr2_bn
I0821 08:26:21.448489 32262 net.cpp:100] Creating Layer L3_b3_cbr2_bn
I0821 08:26:21.448503 32262 net.cpp:434] L3_b3_cbr2_bn <- L3_b3_cbr2_conv_top
I0821 08:26:21.448519 32262 net.cpp:408] L3_b3_cbr2_bn -> L3_b3_cbr2_bn_top
I0821 08:26:21.448887 32262 net.cpp:150] Setting up L3_b3_cbr2_bn
I0821 08:26:21.448907 32262 net.cpp:157] Top shape: 125 64 8 8 (512000)
I0821 08:26:21.448917 32262 net.cpp:165] Memory required for data: 1309185500
I0821 08:26:21.448937 32262 layer_factory.hpp:77] Creating layer L3_b3_cbr2_scale
I0821 08:26:21.448958 32262 net.cpp:100] Creating Layer L3_b3_cbr2_scale
I0821 08:26:21.448971 32262 net.cpp:434] L3_b3_cbr2_scale <- L3_b3_cbr2_bn_top
I0821 08:26:21.448987 32262 net.cpp:395] L3_b3_cbr2_scale -> L3_b3_cbr2_bn_top (in-place)
I0821 08:26:21.449084 32262 layer_factory.hpp:77] Creating layer L3_b3_cbr2_scale
I0821 08:26:21.449285 32262 net.cpp:150] Setting up L3_b3_cbr2_scale
I0821 08:26:21.449303 32262 net.cpp:157] Top shape: 125 64 8 8 (512000)
I0821 08:26:21.449313 32262 net.cpp:165] Memory required for data: 1311233500
I0821 08:26:21.449331 32262 layer_factory.hpp:77] Creating layer L3_b3_sum_eltwise
I0821 08:26:21.449353 32262 net.cpp:100] Creating Layer L3_b3_sum_eltwise
I0821 08:26:21.449367 32262 net.cpp:434] L3_b3_sum_eltwise <- L3_b3_cbr2_bn_top
I0821 08:26:21.449379 32262 net.cpp:434] L3_b3_sum_eltwise <- L3_b2_sum_eltwise_top_L3_b2_relu_0_split_1
I0821 08:26:21.449396 32262 net.cpp:408] L3_b3_sum_eltwise -> L3_b3_sum_eltwise_top
I0821 08:26:21.449457 32262 net.cpp:150] Setting up L3_b3_sum_eltwise
I0821 08:26:21.449476 32262 net.cpp:157] Top shape: 125 64 8 8 (512000)
I0821 08:26:21.449486 32262 net.cpp:165] Memory required for data: 1313281500
I0821 08:26:21.449496 32262 layer_factory.hpp:77] Creating layer L3_b3_relu
I0821 08:26:21.449511 32262 net.cpp:100] Creating Layer L3_b3_relu
I0821 08:26:21.449522 32262 net.cpp:434] L3_b3_relu <- L3_b3_sum_eltwise_top
I0821 08:26:21.449542 32262 net.cpp:395] L3_b3_relu -> L3_b3_sum_eltwise_top (in-place)
I0821 08:26:21.449563 32262 net.cpp:150] Setting up L3_b3_relu
I0821 08:26:21.449578 32262 net.cpp:157] Top shape: 125 64 8 8 (512000)
I0821 08:26:21.449586 32262 net.cpp:165] Memory required for data: 1315329500
I0821 08:26:21.449596 32262 layer_factory.hpp:77] Creating layer L3_b3_sum_eltwise_top_L3_b3_relu_0_split
I0821 08:26:21.449611 32262 net.cpp:100] Creating Layer L3_b3_sum_eltwise_top_L3_b3_relu_0_split
I0821 08:26:21.449621 32262 net.cpp:434] L3_b3_sum_eltwise_top_L3_b3_relu_0_split <- L3_b3_sum_eltwise_top
I0821 08:26:21.449637 32262 net.cpp:408] L3_b3_sum_eltwise_top_L3_b3_relu_0_split -> L3_b3_sum_eltwise_top_L3_b3_relu_0_split_0
I0821 08:26:21.449658 32262 net.cpp:408] L3_b3_sum_eltwise_top_L3_b3_relu_0_split -> L3_b3_sum_eltwise_top_L3_b3_relu_0_split_1
I0821 08:26:21.449744 32262 net.cpp:150] Setting up L3_b3_sum_eltwise_top_L3_b3_relu_0_split
I0821 08:26:21.449764 32262 net.cpp:157] Top shape: 125 64 8 8 (512000)
I0821 08:26:21.449777 32262 net.cpp:157] Top shape: 125 64 8 8 (512000)
I0821 08:26:21.449786 32262 net.cpp:165] Memory required for data: 1319425500
I0821 08:26:21.449797 32262 layer_factory.hpp:77] Creating layer L3_b4_cbr1_conv
I0821 08:26:21.449821 32262 net.cpp:100] Creating Layer L3_b4_cbr1_conv
I0821 08:26:21.449836 32262 net.cpp:434] L3_b4_cbr1_conv <- L3_b3_sum_eltwise_top_L3_b3_relu_0_split_0
I0821 08:26:21.449854 32262 net.cpp:408] L3_b4_cbr1_conv -> L3_b4_cbr1_conv_top
I0821 08:26:21.450947 32262 net.cpp:150] Setting up L3_b4_cbr1_conv
I0821 08:26:21.450968 32262 net.cpp:157] Top shape: 125 64 8 8 (512000)
I0821 08:26:21.450976 32262 net.cpp:165] Memory required for data: 1321473500
I0821 08:26:21.450995 32262 layer_factory.hpp:77] Creating layer L3_b4_cbr1_bn
I0821 08:26:21.451017 32262 net.cpp:100] Creating Layer L3_b4_cbr1_bn
I0821 08:26:21.451030 32262 net.cpp:434] L3_b4_cbr1_bn <- L3_b4_cbr1_conv_top
I0821 08:26:21.451048 32262 net.cpp:408] L3_b4_cbr1_bn -> L3_b4_cbr1_bn_top
I0821 08:26:21.451362 32262 net.cpp:150] Setting up L3_b4_cbr1_bn
I0821 08:26:21.451381 32262 net.cpp:157] Top shape: 125 64 8 8 (512000)
I0821 08:26:21.451390 32262 net.cpp:165] Memory required for data: 1323521500
I0821 08:26:21.451411 32262 layer_factory.hpp:77] Creating layer L3_b4_cbr1_scale
I0821 08:26:21.451428 32262 net.cpp:100] Creating Layer L3_b4_cbr1_scale
I0821 08:26:21.451441 32262 net.cpp:434] L3_b4_cbr1_scale <- L3_b4_cbr1_bn_top
I0821 08:26:21.451457 32262 net.cpp:395] L3_b4_cbr1_scale -> L3_b4_cbr1_bn_top (in-place)
I0821 08:26:21.451551 32262 layer_factory.hpp:77] Creating layer L3_b4_cbr1_scale
I0821 08:26:21.451745 32262 net.cpp:150] Setting up L3_b4_cbr1_scale
I0821 08:26:21.451764 32262 net.cpp:157] Top shape: 125 64 8 8 (512000)
I0821 08:26:21.451773 32262 net.cpp:165] Memory required for data: 1325569500
I0821 08:26:21.451792 32262 layer_factory.hpp:77] Creating layer L3_b4_cbr1_relu
I0821 08:26:21.451808 32262 net.cpp:100] Creating Layer L3_b4_cbr1_relu
I0821 08:26:21.451819 32262 net.cpp:434] L3_b4_cbr1_relu <- L3_b4_cbr1_bn_top
I0821 08:26:21.451839 32262 net.cpp:395] L3_b4_cbr1_relu -> L3_b4_cbr1_bn_top (in-place)
I0821 08:26:21.451860 32262 net.cpp:150] Setting up L3_b4_cbr1_relu
I0821 08:26:21.451874 32262 net.cpp:157] Top shape: 125 64 8 8 (512000)
I0821 08:26:21.451884 32262 net.cpp:165] Memory required for data: 1327617500
I0821 08:26:21.451894 32262 layer_factory.hpp:77] Creating layer L3_b4_cbr2_conv
I0821 08:26:21.451918 32262 net.cpp:100] Creating Layer L3_b4_cbr2_conv
I0821 08:26:21.451932 32262 net.cpp:434] L3_b4_cbr2_conv <- L3_b4_cbr1_bn_top
I0821 08:26:21.451951 32262 net.cpp:408] L3_b4_cbr2_conv -> L3_b4_cbr2_conv_top
I0821 08:26:21.453030 32262 net.cpp:150] Setting up L3_b4_cbr2_conv
I0821 08:26:21.453050 32262 net.cpp:157] Top shape: 125 64 8 8 (512000)
I0821 08:26:21.453060 32262 net.cpp:165] Memory required for data: 1329665500
I0821 08:26:21.453078 32262 layer_factory.hpp:77] Creating layer L3_b4_cbr2_bn
I0821 08:26:21.453099 32262 net.cpp:100] Creating Layer L3_b4_cbr2_bn
I0821 08:26:21.453119 32262 net.cpp:434] L3_b4_cbr2_bn <- L3_b4_cbr2_conv_top
I0821 08:26:21.453136 32262 net.cpp:408] L3_b4_cbr2_bn -> L3_b4_cbr2_bn_top
I0821 08:26:21.453444 32262 net.cpp:150] Setting up L3_b4_cbr2_bn
I0821 08:26:21.453462 32262 net.cpp:157] Top shape: 125 64 8 8 (512000)
I0821 08:26:21.453471 32262 net.cpp:165] Memory required for data: 1331713500
I0821 08:26:21.453493 32262 layer_factory.hpp:77] Creating layer L3_b4_cbr2_scale
I0821 08:26:21.453514 32262 net.cpp:100] Creating Layer L3_b4_cbr2_scale
I0821 08:26:21.453526 32262 net.cpp:434] L3_b4_cbr2_scale <- L3_b4_cbr2_bn_top
I0821 08:26:21.453542 32262 net.cpp:395] L3_b4_cbr2_scale -> L3_b4_cbr2_bn_top (in-place)
I0821 08:26:21.453636 32262 layer_factory.hpp:77] Creating layer L3_b4_cbr2_scale
I0821 08:26:21.453842 32262 net.cpp:150] Setting up L3_b4_cbr2_scale
I0821 08:26:21.453861 32262 net.cpp:157] Top shape: 125 64 8 8 (512000)
I0821 08:26:21.453871 32262 net.cpp:165] Memory required for data: 1333761500
I0821 08:26:21.453888 32262 layer_factory.hpp:77] Creating layer L3_b4_sum_eltwise
I0821 08:26:21.453909 32262 net.cpp:100] Creating Layer L3_b4_sum_eltwise
I0821 08:26:21.453922 32262 net.cpp:434] L3_b4_sum_eltwise <- L3_b4_cbr2_bn_top
I0821 08:26:21.453935 32262 net.cpp:434] L3_b4_sum_eltwise <- L3_b3_sum_eltwise_top_L3_b3_relu_0_split_1
I0821 08:26:21.453956 32262 net.cpp:408] L3_b4_sum_eltwise -> L3_b4_sum_eltwise_top
I0821 08:26:21.454015 32262 net.cpp:150] Setting up L3_b4_sum_eltwise
I0821 08:26:21.454041 32262 net.cpp:157] Top shape: 125 64 8 8 (512000)
I0821 08:26:21.454052 32262 net.cpp:165] Memory required for data: 1335809500
I0821 08:26:21.454063 32262 layer_factory.hpp:77] Creating layer L3_b4_relu
I0821 08:26:21.454082 32262 net.cpp:100] Creating Layer L3_b4_relu
I0821 08:26:21.454094 32262 net.cpp:434] L3_b4_relu <- L3_b4_sum_eltwise_top
I0821 08:26:21.454118 32262 net.cpp:395] L3_b4_relu -> L3_b4_sum_eltwise_top (in-place)
I0821 08:26:21.454138 32262 net.cpp:150] Setting up L3_b4_relu
I0821 08:26:21.454154 32262 net.cpp:157] Top shape: 125 64 8 8 (512000)
I0821 08:26:21.454162 32262 net.cpp:165] Memory required for data: 1337857500
I0821 08:26:21.454172 32262 layer_factory.hpp:77] Creating layer L3_b4_sum_eltwise_top_L3_b4_relu_0_split
I0821 08:26:21.454186 32262 net.cpp:100] Creating Layer L3_b4_sum_eltwise_top_L3_b4_relu_0_split
I0821 08:26:21.454197 32262 net.cpp:434] L3_b4_sum_eltwise_top_L3_b4_relu_0_split <- L3_b4_sum_eltwise_top
I0821 08:26:21.454212 32262 net.cpp:408] L3_b4_sum_eltwise_top_L3_b4_relu_0_split -> L3_b4_sum_eltwise_top_L3_b4_relu_0_split_0
I0821 08:26:21.454232 32262 net.cpp:408] L3_b4_sum_eltwise_top_L3_b4_relu_0_split -> L3_b4_sum_eltwise_top_L3_b4_relu_0_split_1
I0821 08:26:21.454315 32262 net.cpp:150] Setting up L3_b4_sum_eltwise_top_L3_b4_relu_0_split
I0821 08:26:21.454334 32262 net.cpp:157] Top shape: 125 64 8 8 (512000)
I0821 08:26:21.454346 32262 net.cpp:157] Top shape: 125 64 8 8 (512000)
I0821 08:26:21.454356 32262 net.cpp:165] Memory required for data: 1341953500
I0821 08:26:21.454366 32262 layer_factory.hpp:77] Creating layer L3_b5_cbr1_conv
I0821 08:26:21.454391 32262 net.cpp:100] Creating Layer L3_b5_cbr1_conv
I0821 08:26:21.454404 32262 net.cpp:434] L3_b5_cbr1_conv <- L3_b4_sum_eltwise_top_L3_b4_relu_0_split_0
I0821 08:26:21.454424 32262 net.cpp:408] L3_b5_cbr1_conv -> L3_b5_cbr1_conv_top
I0821 08:26:21.455497 32262 net.cpp:150] Setting up L3_b5_cbr1_conv
I0821 08:26:21.455516 32262 net.cpp:157] Top shape: 125 64 8 8 (512000)
I0821 08:26:21.455526 32262 net.cpp:165] Memory required for data: 1344001500
I0821 08:26:21.455543 32262 layer_factory.hpp:77] Creating layer L3_b5_cbr1_bn
I0821 08:26:21.455564 32262 net.cpp:100] Creating Layer L3_b5_cbr1_bn
I0821 08:26:21.455576 32262 net.cpp:434] L3_b5_cbr1_bn <- L3_b5_cbr1_conv_top
I0821 08:26:21.455598 32262 net.cpp:408] L3_b5_cbr1_bn -> L3_b5_cbr1_bn_top
I0821 08:26:21.456904 32262 net.cpp:150] Setting up L3_b5_cbr1_bn
I0821 08:26:21.456925 32262 net.cpp:157] Top shape: 125 64 8 8 (512000)
I0821 08:26:21.456936 32262 net.cpp:165] Memory required for data: 1346049500
I0821 08:26:21.456959 32262 layer_factory.hpp:77] Creating layer L3_b5_cbr1_scale
I0821 08:26:21.456979 32262 net.cpp:100] Creating Layer L3_b5_cbr1_scale
I0821 08:26:21.456991 32262 net.cpp:434] L3_b5_cbr1_scale <- L3_b5_cbr1_bn_top
I0821 08:26:21.457007 32262 net.cpp:395] L3_b5_cbr1_scale -> L3_b5_cbr1_bn_top (in-place)
I0821 08:26:21.457114 32262 layer_factory.hpp:77] Creating layer L3_b5_cbr1_scale
I0821 08:26:21.457310 32262 net.cpp:150] Setting up L3_b5_cbr1_scale
I0821 08:26:21.457330 32262 net.cpp:157] Top shape: 125 64 8 8 (512000)
I0821 08:26:21.457340 32262 net.cpp:165] Memory required for data: 1348097500
I0821 08:26:21.457358 32262 layer_factory.hpp:77] Creating layer L3_b5_cbr1_relu
I0821 08:26:21.457378 32262 net.cpp:100] Creating Layer L3_b5_cbr1_relu
I0821 08:26:21.457391 32262 net.cpp:434] L3_b5_cbr1_relu <- L3_b5_cbr1_bn_top
I0821 08:26:21.457406 32262 net.cpp:395] L3_b5_cbr1_relu -> L3_b5_cbr1_bn_top (in-place)
I0821 08:26:21.457430 32262 net.cpp:150] Setting up L3_b5_cbr1_relu
I0821 08:26:21.457445 32262 net.cpp:157] Top shape: 125 64 8 8 (512000)
I0821 08:26:21.457456 32262 net.cpp:165] Memory required for data: 1350145500
I0821 08:26:21.457466 32262 layer_factory.hpp:77] Creating layer L3_b5_cbr2_conv
I0821 08:26:21.457486 32262 net.cpp:100] Creating Layer L3_b5_cbr2_conv
I0821 08:26:21.457499 32262 net.cpp:434] L3_b5_cbr2_conv <- L3_b5_cbr1_bn_top
I0821 08:26:21.457521 32262 net.cpp:408] L3_b5_cbr2_conv -> L3_b5_cbr2_conv_top
I0821 08:26:21.459590 32262 net.cpp:150] Setting up L3_b5_cbr2_conv
I0821 08:26:21.459614 32262 net.cpp:157] Top shape: 125 64 8 8 (512000)
I0821 08:26:21.459623 32262 net.cpp:165] Memory required for data: 1352193500
I0821 08:26:21.459641 32262 layer_factory.hpp:77] Creating layer L3_b5_cbr2_bn
I0821 08:26:21.459663 32262 net.cpp:100] Creating Layer L3_b5_cbr2_bn
I0821 08:26:21.459676 32262 net.cpp:434] L3_b5_cbr2_bn <- L3_b5_cbr2_conv_top
I0821 08:26:21.459693 32262 net.cpp:408] L3_b5_cbr2_bn -> L3_b5_cbr2_bn_top
I0821 08:26:21.459987 32262 net.cpp:150] Setting up L3_b5_cbr2_bn
I0821 08:26:21.460007 32262 net.cpp:157] Top shape: 125 64 8 8 (512000)
I0821 08:26:21.460017 32262 net.cpp:165] Memory required for data: 1354241500
I0821 08:26:21.460038 32262 layer_factory.hpp:77] Creating layer L3_b5_cbr2_scale
I0821 08:26:21.460059 32262 net.cpp:100] Creating Layer L3_b5_cbr2_scale
I0821 08:26:21.460073 32262 net.cpp:434] L3_b5_cbr2_scale <- L3_b5_cbr2_bn_top
I0821 08:26:21.460089 32262 net.cpp:395] L3_b5_cbr2_scale -> L3_b5_cbr2_bn_top (in-place)
I0821 08:26:21.460189 32262 layer_factory.hpp:77] Creating layer L3_b5_cbr2_scale
I0821 08:26:21.460379 32262 net.cpp:150] Setting up L3_b5_cbr2_scale
I0821 08:26:21.460398 32262 net.cpp:157] Top shape: 125 64 8 8 (512000)
I0821 08:26:21.460408 32262 net.cpp:165] Memory required for data: 1356289500
I0821 08:26:21.460427 32262 layer_factory.hpp:77] Creating layer L3_b5_sum_eltwise
I0821 08:26:21.460448 32262 net.cpp:100] Creating Layer L3_b5_sum_eltwise
I0821 08:26:21.460461 32262 net.cpp:434] L3_b5_sum_eltwise <- L3_b5_cbr2_bn_top
I0821 08:26:21.460475 32262 net.cpp:434] L3_b5_sum_eltwise <- L3_b4_sum_eltwise_top_L3_b4_relu_0_split_1
I0821 08:26:21.460496 32262 net.cpp:408] L3_b5_sum_eltwise -> L3_b5_sum_eltwise_top
I0821 08:26:21.460551 32262 net.cpp:150] Setting up L3_b5_sum_eltwise
I0821 08:26:21.460569 32262 net.cpp:157] Top shape: 125 64 8 8 (512000)
I0821 08:26:21.460579 32262 net.cpp:165] Memory required for data: 1358337500
I0821 08:26:21.460589 32262 layer_factory.hpp:77] Creating layer L3_b5_relu
I0821 08:26:21.460609 32262 net.cpp:100] Creating Layer L3_b5_relu
I0821 08:26:21.460623 32262 net.cpp:434] L3_b5_relu <- L3_b5_sum_eltwise_top
I0821 08:26:21.460636 32262 net.cpp:395] L3_b5_relu -> L3_b5_sum_eltwise_top (in-place)
I0821 08:26:21.460655 32262 net.cpp:150] Setting up L3_b5_relu
I0821 08:26:21.460670 32262 net.cpp:157] Top shape: 125 64 8 8 (512000)
I0821 08:26:21.460680 32262 net.cpp:165] Memory required for data: 1360385500
I0821 08:26:21.460690 32262 layer_factory.hpp:77] Creating layer L3_b5_sum_eltwise_top_L3_b5_relu_0_split
I0821 08:26:21.460703 32262 net.cpp:100] Creating Layer L3_b5_sum_eltwise_top_L3_b5_relu_0_split
I0821 08:26:21.460714 32262 net.cpp:434] L3_b5_sum_eltwise_top_L3_b5_relu_0_split <- L3_b5_sum_eltwise_top
I0821 08:26:21.460729 32262 net.cpp:408] L3_b5_sum_eltwise_top_L3_b5_relu_0_split -> L3_b5_sum_eltwise_top_L3_b5_relu_0_split_0
I0821 08:26:21.460749 32262 net.cpp:408] L3_b5_sum_eltwise_top_L3_b5_relu_0_split -> L3_b5_sum_eltwise_top_L3_b5_relu_0_split_1
I0821 08:26:21.460834 32262 net.cpp:150] Setting up L3_b5_sum_eltwise_top_L3_b5_relu_0_split
I0821 08:26:21.460855 32262 net.cpp:157] Top shape: 125 64 8 8 (512000)
I0821 08:26:21.460867 32262 net.cpp:157] Top shape: 125 64 8 8 (512000)
I0821 08:26:21.460876 32262 net.cpp:165] Memory required for data: 1364481500
I0821 08:26:21.460887 32262 layer_factory.hpp:77] Creating layer L3_b6_cbr1_conv
I0821 08:26:21.460911 32262 net.cpp:100] Creating Layer L3_b6_cbr1_conv
I0821 08:26:21.460925 32262 net.cpp:434] L3_b6_cbr1_conv <- L3_b5_sum_eltwise_top_L3_b5_relu_0_split_0
I0821 08:26:21.460943 32262 net.cpp:408] L3_b6_cbr1_conv -> L3_b6_cbr1_conv_top
I0821 08:26:21.462007 32262 net.cpp:150] Setting up L3_b6_cbr1_conv
I0821 08:26:21.462028 32262 net.cpp:157] Top shape: 125 64 8 8 (512000)
I0821 08:26:21.462038 32262 net.cpp:165] Memory required for data: 1366529500
I0821 08:26:21.462056 32262 layer_factory.hpp:77] Creating layer L3_b6_cbr1_bn
I0821 08:26:21.462076 32262 net.cpp:100] Creating Layer L3_b6_cbr1_bn
I0821 08:26:21.462097 32262 net.cpp:434] L3_b6_cbr1_bn <- L3_b6_cbr1_conv_top
I0821 08:26:21.462123 32262 net.cpp:408] L3_b6_cbr1_bn -> L3_b6_cbr1_bn_top
I0821 08:26:21.462425 32262 net.cpp:150] Setting up L3_b6_cbr1_bn
I0821 08:26:21.462445 32262 net.cpp:157] Top shape: 125 64 8 8 (512000)
I0821 08:26:21.462455 32262 net.cpp:165] Memory required for data: 1368577500
I0821 08:26:21.462476 32262 layer_factory.hpp:77] Creating layer L3_b6_cbr1_scale
I0821 08:26:21.462491 32262 net.cpp:100] Creating Layer L3_b6_cbr1_scale
I0821 08:26:21.462503 32262 net.cpp:434] L3_b6_cbr1_scale <- L3_b6_cbr1_bn_top
I0821 08:26:21.462518 32262 net.cpp:395] L3_b6_cbr1_scale -> L3_b6_cbr1_bn_top (in-place)
I0821 08:26:21.462613 32262 layer_factory.hpp:77] Creating layer L3_b6_cbr1_scale
I0821 08:26:21.462801 32262 net.cpp:150] Setting up L3_b6_cbr1_scale
I0821 08:26:21.462821 32262 net.cpp:157] Top shape: 125 64 8 8 (512000)
I0821 08:26:21.462831 32262 net.cpp:165] Memory required for data: 1370625500
I0821 08:26:21.462848 32262 layer_factory.hpp:77] Creating layer L3_b6_cbr1_relu
I0821 08:26:21.462864 32262 net.cpp:100] Creating Layer L3_b6_cbr1_relu
I0821 08:26:21.462877 32262 net.cpp:434] L3_b6_cbr1_relu <- L3_b6_cbr1_bn_top
I0821 08:26:21.462898 32262 net.cpp:395] L3_b6_cbr1_relu -> L3_b6_cbr1_bn_top (in-place)
I0821 08:26:21.462918 32262 net.cpp:150] Setting up L3_b6_cbr1_relu
I0821 08:26:21.462932 32262 net.cpp:157] Top shape: 125 64 8 8 (512000)
I0821 08:26:21.462941 32262 net.cpp:165] Memory required for data: 1372673500
I0821 08:26:21.462951 32262 layer_factory.hpp:77] Creating layer L3_b6_cbr2_conv
I0821 08:26:21.462981 32262 net.cpp:100] Creating Layer L3_b6_cbr2_conv
I0821 08:26:21.462996 32262 net.cpp:434] L3_b6_cbr2_conv <- L3_b6_cbr1_bn_top
I0821 08:26:21.463014 32262 net.cpp:408] L3_b6_cbr2_conv -> L3_b6_cbr2_conv_top
I0821 08:26:21.464073 32262 net.cpp:150] Setting up L3_b6_cbr2_conv
I0821 08:26:21.464093 32262 net.cpp:157] Top shape: 125 64 8 8 (512000)
I0821 08:26:21.464108 32262 net.cpp:165] Memory required for data: 1374721500
I0821 08:26:21.464128 32262 layer_factory.hpp:77] Creating layer L3_b6_cbr2_bn
I0821 08:26:21.464149 32262 net.cpp:100] Creating Layer L3_b6_cbr2_bn
I0821 08:26:21.464162 32262 net.cpp:434] L3_b6_cbr2_bn <- L3_b6_cbr2_conv_top
I0821 08:26:21.464179 32262 net.cpp:408] L3_b6_cbr2_bn -> L3_b6_cbr2_bn_top
I0821 08:26:21.464470 32262 net.cpp:150] Setting up L3_b6_cbr2_bn
I0821 08:26:21.464489 32262 net.cpp:157] Top shape: 125 64 8 8 (512000)
I0821 08:26:21.464498 32262 net.cpp:165] Memory required for data: 1376769500
I0821 08:26:21.464519 32262 layer_factory.hpp:77] Creating layer L3_b6_cbr2_scale
I0821 08:26:21.464543 32262 net.cpp:100] Creating Layer L3_b6_cbr2_scale
I0821 08:26:21.464555 32262 net.cpp:434] L3_b6_cbr2_scale <- L3_b6_cbr2_bn_top
I0821 08:26:21.464571 32262 net.cpp:395] L3_b6_cbr2_scale -> L3_b6_cbr2_bn_top (in-place)
I0821 08:26:21.464663 32262 layer_factory.hpp:77] Creating layer L3_b6_cbr2_scale
I0821 08:26:21.464854 32262 net.cpp:150] Setting up L3_b6_cbr2_scale
I0821 08:26:21.464872 32262 net.cpp:157] Top shape: 125 64 8 8 (512000)
I0821 08:26:21.464882 32262 net.cpp:165] Memory required for data: 1378817500
I0821 08:26:21.464900 32262 layer_factory.hpp:77] Creating layer L3_b6_sum_eltwise
I0821 08:26:21.464921 32262 net.cpp:100] Creating Layer L3_b6_sum_eltwise
I0821 08:26:21.464933 32262 net.cpp:434] L3_b6_sum_eltwise <- L3_b6_cbr2_bn_top
I0821 08:26:21.464947 32262 net.cpp:434] L3_b6_sum_eltwise <- L3_b5_sum_eltwise_top_L3_b5_relu_0_split_1
I0821 08:26:21.464967 32262 net.cpp:408] L3_b6_sum_eltwise -> L3_b6_sum_eltwise_top
I0821 08:26:21.465023 32262 net.cpp:150] Setting up L3_b6_sum_eltwise
I0821 08:26:21.465041 32262 net.cpp:157] Top shape: 125 64 8 8 (512000)
I0821 08:26:21.465051 32262 net.cpp:165] Memory required for data: 1380865500
I0821 08:26:21.465061 32262 layer_factory.hpp:77] Creating layer L3_b6_relu
I0821 08:26:21.465080 32262 net.cpp:100] Creating Layer L3_b6_relu
I0821 08:26:21.465093 32262 net.cpp:434] L3_b6_relu <- L3_b6_sum_eltwise_top
I0821 08:26:21.465122 32262 net.cpp:395] L3_b6_relu -> L3_b6_sum_eltwise_top (in-place)
I0821 08:26:21.465144 32262 net.cpp:150] Setting up L3_b6_relu
I0821 08:26:21.465159 32262 net.cpp:157] Top shape: 125 64 8 8 (512000)
I0821 08:26:21.465168 32262 net.cpp:165] Memory required for data: 1382913500
I0821 08:26:21.465178 32262 layer_factory.hpp:77] Creating layer L3_b6_sum_eltwise_top_L3_b6_relu_0_split
I0821 08:26:21.465193 32262 net.cpp:100] Creating Layer L3_b6_sum_eltwise_top_L3_b6_relu_0_split
I0821 08:26:21.465204 32262 net.cpp:434] L3_b6_sum_eltwise_top_L3_b6_relu_0_split <- L3_b6_sum_eltwise_top
I0821 08:26:21.465219 32262 net.cpp:408] L3_b6_sum_eltwise_top_L3_b6_relu_0_split -> L3_b6_sum_eltwise_top_L3_b6_relu_0_split_0
I0821 08:26:21.465240 32262 net.cpp:408] L3_b6_sum_eltwise_top_L3_b6_relu_0_split -> L3_b6_sum_eltwise_top_L3_b6_relu_0_split_1
I0821 08:26:21.465322 32262 net.cpp:150] Setting up L3_b6_sum_eltwise_top_L3_b6_relu_0_split
I0821 08:26:21.465340 32262 net.cpp:157] Top shape: 125 64 8 8 (512000)
I0821 08:26:21.465354 32262 net.cpp:157] Top shape: 125 64 8 8 (512000)
I0821 08:26:21.465363 32262 net.cpp:165] Memory required for data: 1387009500
I0821 08:26:21.465374 32262 layer_factory.hpp:77] Creating layer L3_b7_cbr1_conv
I0821 08:26:21.465399 32262 net.cpp:100] Creating Layer L3_b7_cbr1_conv
I0821 08:26:21.465412 32262 net.cpp:434] L3_b7_cbr1_conv <- L3_b6_sum_eltwise_top_L3_b6_relu_0_split_0
I0821 08:26:21.465430 32262 net.cpp:408] L3_b7_cbr1_conv -> L3_b7_cbr1_conv_top
I0821 08:26:21.466500 32262 net.cpp:150] Setting up L3_b7_cbr1_conv
I0821 08:26:21.466521 32262 net.cpp:157] Top shape: 125 64 8 8 (512000)
I0821 08:26:21.466531 32262 net.cpp:165] Memory required for data: 1389057500
I0821 08:26:21.466548 32262 layer_factory.hpp:77] Creating layer L3_b7_cbr1_bn
I0821 08:26:21.466570 32262 net.cpp:100] Creating Layer L3_b7_cbr1_bn
I0821 08:26:21.466583 32262 net.cpp:434] L3_b7_cbr1_bn <- L3_b7_cbr1_conv_top
I0821 08:26:21.466610 32262 net.cpp:408] L3_b7_cbr1_bn -> L3_b7_cbr1_bn_top
I0821 08:26:21.466918 32262 net.cpp:150] Setting up L3_b7_cbr1_bn
I0821 08:26:21.466938 32262 net.cpp:157] Top shape: 125 64 8 8 (512000)
I0821 08:26:21.466948 32262 net.cpp:165] Memory required for data: 1391105500
I0821 08:26:21.466969 32262 layer_factory.hpp:77] Creating layer L3_b7_cbr1_scale
I0821 08:26:21.466985 32262 net.cpp:100] Creating Layer L3_b7_cbr1_scale
I0821 08:26:21.466997 32262 net.cpp:434] L3_b7_cbr1_scale <- L3_b7_cbr1_bn_top
I0821 08:26:21.467018 32262 net.cpp:395] L3_b7_cbr1_scale -> L3_b7_cbr1_bn_top (in-place)
I0821 08:26:21.467113 32262 layer_factory.hpp:77] Creating layer L3_b7_cbr1_scale
I0821 08:26:21.467305 32262 net.cpp:150] Setting up L3_b7_cbr1_scale
I0821 08:26:21.467325 32262 net.cpp:157] Top shape: 125 64 8 8 (512000)
I0821 08:26:21.467334 32262 net.cpp:165] Memory required for data: 1393153500
I0821 08:26:21.467353 32262 layer_factory.hpp:77] Creating layer L3_b7_cbr1_relu
I0821 08:26:21.467406 32262 net.cpp:100] Creating Layer L3_b7_cbr1_relu
I0821 08:26:21.467422 32262 net.cpp:434] L3_b7_cbr1_relu <- L3_b7_cbr1_bn_top
I0821 08:26:21.467435 32262 net.cpp:395] L3_b7_cbr1_relu -> L3_b7_cbr1_bn_top (in-place)
I0821 08:26:21.467455 32262 net.cpp:150] Setting up L3_b7_cbr1_relu
I0821 08:26:21.467470 32262 net.cpp:157] Top shape: 125 64 8 8 (512000)
I0821 08:26:21.467479 32262 net.cpp:165] Memory required for data: 1395201500
I0821 08:26:21.467491 32262 layer_factory.hpp:77] Creating layer L3_b7_cbr2_conv
I0821 08:26:21.467515 32262 net.cpp:100] Creating Layer L3_b7_cbr2_conv
I0821 08:26:21.467530 32262 net.cpp:434] L3_b7_cbr2_conv <- L3_b7_cbr1_bn_top
I0821 08:26:21.467546 32262 net.cpp:408] L3_b7_cbr2_conv -> L3_b7_cbr2_conv_top
I0821 08:26:21.468614 32262 net.cpp:150] Setting up L3_b7_cbr2_conv
I0821 08:26:21.468634 32262 net.cpp:157] Top shape: 125 64 8 8 (512000)
I0821 08:26:21.468644 32262 net.cpp:165] Memory required for data: 1397249500
I0821 08:26:21.468662 32262 layer_factory.hpp:77] Creating layer L3_b7_cbr2_bn
I0821 08:26:21.468683 32262 net.cpp:100] Creating Layer L3_b7_cbr2_bn
I0821 08:26:21.468704 32262 net.cpp:434] L3_b7_cbr2_bn <- L3_b7_cbr2_conv_top
I0821 08:26:21.468722 32262 net.cpp:408] L3_b7_cbr2_bn -> L3_b7_cbr2_bn_top
I0821 08:26:21.469038 32262 net.cpp:150] Setting up L3_b7_cbr2_bn
I0821 08:26:21.469058 32262 net.cpp:157] Top shape: 125 64 8 8 (512000)
I0821 08:26:21.469068 32262 net.cpp:165] Memory required for data: 1399297500
I0821 08:26:21.469089 32262 layer_factory.hpp:77] Creating layer L3_b7_cbr2_scale
I0821 08:26:21.469111 32262 net.cpp:100] Creating Layer L3_b7_cbr2_scale
I0821 08:26:21.469125 32262 net.cpp:434] L3_b7_cbr2_scale <- L3_b7_cbr2_bn_top
I0821 08:26:21.469141 32262 net.cpp:395] L3_b7_cbr2_scale -> L3_b7_cbr2_bn_top (in-place)
I0821 08:26:21.469238 32262 layer_factory.hpp:77] Creating layer L3_b7_cbr2_scale
I0821 08:26:21.469429 32262 net.cpp:150] Setting up L3_b7_cbr2_scale
I0821 08:26:21.469449 32262 net.cpp:157] Top shape: 125 64 8 8 (512000)
I0821 08:26:21.469458 32262 net.cpp:165] Memory required for data: 1401345500
I0821 08:26:21.469476 32262 layer_factory.hpp:77] Creating layer L3_b7_sum_eltwise
I0821 08:26:21.469494 32262 net.cpp:100] Creating Layer L3_b7_sum_eltwise
I0821 08:26:21.469506 32262 net.cpp:434] L3_b7_sum_eltwise <- L3_b7_cbr2_bn_top
I0821 08:26:21.469519 32262 net.cpp:434] L3_b7_sum_eltwise <- L3_b6_sum_eltwise_top_L3_b6_relu_0_split_1
I0821 08:26:21.469539 32262 net.cpp:408] L3_b7_sum_eltwise -> L3_b7_sum_eltwise_top
I0821 08:26:21.469595 32262 net.cpp:150] Setting up L3_b7_sum_eltwise
I0821 08:26:21.469619 32262 net.cpp:157] Top shape: 125 64 8 8 (512000)
I0821 08:26:21.469630 32262 net.cpp:165] Memory required for data: 1403393500
I0821 08:26:21.469640 32262 layer_factory.hpp:77] Creating layer L3_b7_relu
I0821 08:26:21.469655 32262 net.cpp:100] Creating Layer L3_b7_relu
I0821 08:26:21.469667 32262 net.cpp:434] L3_b7_relu <- L3_b7_sum_eltwise_top
I0821 08:26:21.469681 32262 net.cpp:395] L3_b7_relu -> L3_b7_sum_eltwise_top (in-place)
I0821 08:26:21.469700 32262 net.cpp:150] Setting up L3_b7_relu
I0821 08:26:21.469715 32262 net.cpp:157] Top shape: 125 64 8 8 (512000)
I0821 08:26:21.469724 32262 net.cpp:165] Memory required for data: 1405441500
I0821 08:26:21.469734 32262 layer_factory.hpp:77] Creating layer L3_b7_sum_eltwise_top_L3_b7_relu_0_split
I0821 08:26:21.469756 32262 net.cpp:100] Creating Layer L3_b7_sum_eltwise_top_L3_b7_relu_0_split
I0821 08:26:21.469768 32262 net.cpp:434] L3_b7_sum_eltwise_top_L3_b7_relu_0_split <- L3_b7_sum_eltwise_top
I0821 08:26:21.469784 32262 net.cpp:408] L3_b7_sum_eltwise_top_L3_b7_relu_0_split -> L3_b7_sum_eltwise_top_L3_b7_relu_0_split_0
I0821 08:26:21.469804 32262 net.cpp:408] L3_b7_sum_eltwise_top_L3_b7_relu_0_split -> L3_b7_sum_eltwise_top_L3_b7_relu_0_split_1
I0821 08:26:21.469890 32262 net.cpp:150] Setting up L3_b7_sum_eltwise_top_L3_b7_relu_0_split
I0821 08:26:21.469911 32262 net.cpp:157] Top shape: 125 64 8 8 (512000)
I0821 08:26:21.469925 32262 net.cpp:157] Top shape: 125 64 8 8 (512000)
I0821 08:26:21.469935 32262 net.cpp:165] Memory required for data: 1409537500
I0821 08:26:21.469945 32262 layer_factory.hpp:77] Creating layer L3_b8_cbr1_conv
I0821 08:26:21.469965 32262 net.cpp:100] Creating Layer L3_b8_cbr1_conv
I0821 08:26:21.469979 32262 net.cpp:434] L3_b8_cbr1_conv <- L3_b7_sum_eltwise_top_L3_b7_relu_0_split_0
I0821 08:26:21.470001 32262 net.cpp:408] L3_b8_cbr1_conv -> L3_b8_cbr1_conv_top
I0821 08:26:21.471062 32262 net.cpp:150] Setting up L3_b8_cbr1_conv
I0821 08:26:21.471082 32262 net.cpp:157] Top shape: 125 64 8 8 (512000)
I0821 08:26:21.471091 32262 net.cpp:165] Memory required for data: 1411585500
I0821 08:26:21.471117 32262 layer_factory.hpp:77] Creating layer L3_b8_cbr1_bn
I0821 08:26:21.471135 32262 net.cpp:100] Creating Layer L3_b8_cbr1_bn
I0821 08:26:21.471148 32262 net.cpp:434] L3_b8_cbr1_bn <- L3_b8_cbr1_conv_top
I0821 08:26:21.471169 32262 net.cpp:408] L3_b8_cbr1_bn -> L3_b8_cbr1_bn_top
I0821 08:26:21.471490 32262 net.cpp:150] Setting up L3_b8_cbr1_bn
I0821 08:26:21.471513 32262 net.cpp:157] Top shape: 125 64 8 8 (512000)
I0821 08:26:21.471524 32262 net.cpp:165] Memory required for data: 1413633500
I0821 08:26:21.471554 32262 layer_factory.hpp:77] Creating layer L3_b8_cbr1_scale
I0821 08:26:21.471570 32262 net.cpp:100] Creating Layer L3_b8_cbr1_scale
I0821 08:26:21.471582 32262 net.cpp:434] L3_b8_cbr1_scale <- L3_b8_cbr1_bn_top
I0821 08:26:21.471598 32262 net.cpp:395] L3_b8_cbr1_scale -> L3_b8_cbr1_bn_top (in-place)
I0821 08:26:21.471695 32262 layer_factory.hpp:77] Creating layer L3_b8_cbr1_scale
I0821 08:26:21.471894 32262 net.cpp:150] Setting up L3_b8_cbr1_scale
I0821 08:26:21.471913 32262 net.cpp:157] Top shape: 125 64 8 8 (512000)
I0821 08:26:21.471922 32262 net.cpp:165] Memory required for data: 1415681500
I0821 08:26:21.471941 32262 layer_factory.hpp:77] Creating layer L3_b8_cbr1_relu
I0821 08:26:21.471957 32262 net.cpp:100] Creating Layer L3_b8_cbr1_relu
I0821 08:26:21.471969 32262 net.cpp:434] L3_b8_cbr1_relu <- L3_b8_cbr1_bn_top
I0821 08:26:21.471988 32262 net.cpp:395] L3_b8_cbr1_relu -> L3_b8_cbr1_bn_top (in-place)
I0821 08:26:21.472009 32262 net.cpp:150] Setting up L3_b8_cbr1_relu
I0821 08:26:21.472023 32262 net.cpp:157] Top shape: 125 64 8 8 (512000)
I0821 08:26:21.472033 32262 net.cpp:165] Memory required for data: 1417729500
I0821 08:26:21.472043 32262 layer_factory.hpp:77] Creating layer L3_b8_cbr2_conv
I0821 08:26:21.472069 32262 net.cpp:100] Creating Layer L3_b8_cbr2_conv
I0821 08:26:21.472081 32262 net.cpp:434] L3_b8_cbr2_conv <- L3_b8_cbr1_bn_top
I0821 08:26:21.472100 32262 net.cpp:408] L3_b8_cbr2_conv -> L3_b8_cbr2_conv_top
I0821 08:26:21.473167 32262 net.cpp:150] Setting up L3_b8_cbr2_conv
I0821 08:26:21.473187 32262 net.cpp:157] Top shape: 125 64 8 8 (512000)
I0821 08:26:21.473196 32262 net.cpp:165] Memory required for data: 1419777500
I0821 08:26:21.473214 32262 layer_factory.hpp:77] Creating layer L3_b8_cbr2_bn
I0821 08:26:21.473237 32262 net.cpp:100] Creating Layer L3_b8_cbr2_bn
I0821 08:26:21.473249 32262 net.cpp:434] L3_b8_cbr2_bn <- L3_b8_cbr2_conv_top
I0821 08:26:21.473271 32262 net.cpp:408] L3_b8_cbr2_bn -> L3_b8_cbr2_bn_top
I0821 08:26:21.473564 32262 net.cpp:150] Setting up L3_b8_cbr2_bn
I0821 08:26:21.473584 32262 net.cpp:157] Top shape: 125 64 8 8 (512000)
I0821 08:26:21.473593 32262 net.cpp:165] Memory required for data: 1421825500
I0821 08:26:21.473615 32262 layer_factory.hpp:77] Creating layer L3_b8_cbr2_scale
I0821 08:26:21.473631 32262 net.cpp:100] Creating Layer L3_b8_cbr2_scale
I0821 08:26:21.473642 32262 net.cpp:434] L3_b8_cbr2_scale <- L3_b8_cbr2_bn_top
I0821 08:26:21.473657 32262 net.cpp:395] L3_b8_cbr2_scale -> L3_b8_cbr2_bn_top (in-place)
I0821 08:26:21.473752 32262 layer_factory.hpp:77] Creating layer L3_b8_cbr2_scale
I0821 08:26:21.473945 32262 net.cpp:150] Setting up L3_b8_cbr2_scale
I0821 08:26:21.473964 32262 net.cpp:157] Top shape: 125 64 8 8 (512000)
I0821 08:26:21.473974 32262 net.cpp:165] Memory required for data: 1423873500
I0821 08:26:21.473992 32262 layer_factory.hpp:77] Creating layer L3_b8_sum_eltwise
I0821 08:26:21.474010 32262 net.cpp:100] Creating Layer L3_b8_sum_eltwise
I0821 08:26:21.474021 32262 net.cpp:434] L3_b8_sum_eltwise <- L3_b8_cbr2_bn_top
I0821 08:26:21.474035 32262 net.cpp:434] L3_b8_sum_eltwise <- L3_b7_sum_eltwise_top_L3_b7_relu_0_split_1
I0821 08:26:21.474057 32262 net.cpp:408] L3_b8_sum_eltwise -> L3_b8_sum_eltwise_top
I0821 08:26:21.474119 32262 net.cpp:150] Setting up L3_b8_sum_eltwise
I0821 08:26:21.474143 32262 net.cpp:157] Top shape: 125 64 8 8 (512000)
I0821 08:26:21.474153 32262 net.cpp:165] Memory required for data: 1425921500
I0821 08:26:21.474164 32262 layer_factory.hpp:77] Creating layer L3_b8_relu
I0821 08:26:21.474179 32262 net.cpp:100] Creating Layer L3_b8_relu
I0821 08:26:21.474190 32262 net.cpp:434] L3_b8_relu <- L3_b8_sum_eltwise_top
I0821 08:26:21.474205 32262 net.cpp:395] L3_b8_relu -> L3_b8_sum_eltwise_top (in-place)
I0821 08:26:21.474223 32262 net.cpp:150] Setting up L3_b8_relu
I0821 08:26:21.474237 32262 net.cpp:157] Top shape: 125 64 8 8 (512000)
I0821 08:26:21.474247 32262 net.cpp:165] Memory required for data: 1427969500
I0821 08:26:21.474256 32262 layer_factory.hpp:77] Creating layer L3_b8_sum_eltwise_top_L3_b8_relu_0_split
I0821 08:26:21.474283 32262 net.cpp:100] Creating Layer L3_b8_sum_eltwise_top_L3_b8_relu_0_split
I0821 08:26:21.474297 32262 net.cpp:434] L3_b8_sum_eltwise_top_L3_b8_relu_0_split <- L3_b8_sum_eltwise_top
I0821 08:26:21.474313 32262 net.cpp:408] L3_b8_sum_eltwise_top_L3_b8_relu_0_split -> L3_b8_sum_eltwise_top_L3_b8_relu_0_split_0
I0821 08:26:21.474334 32262 net.cpp:408] L3_b8_sum_eltwise_top_L3_b8_relu_0_split -> L3_b8_sum_eltwise_top_L3_b8_relu_0_split_1
I0821 08:26:21.474416 32262 net.cpp:150] Setting up L3_b8_sum_eltwise_top_L3_b8_relu_0_split
I0821 08:26:21.474433 32262 net.cpp:157] Top shape: 125 64 8 8 (512000)
I0821 08:26:21.474447 32262 net.cpp:157] Top shape: 125 64 8 8 (512000)
I0821 08:26:21.474455 32262 net.cpp:165] Memory required for data: 1432065500
I0821 08:26:21.474467 32262 layer_factory.hpp:77] Creating layer L3_b9_cbr1_conv
I0821 08:26:21.474486 32262 net.cpp:100] Creating Layer L3_b9_cbr1_conv
I0821 08:26:21.474499 32262 net.cpp:434] L3_b9_cbr1_conv <- L3_b8_sum_eltwise_top_L3_b8_relu_0_split_0
I0821 08:26:21.474522 32262 net.cpp:408] L3_b9_cbr1_conv -> L3_b9_cbr1_conv_top
I0821 08:26:21.476583 32262 net.cpp:150] Setting up L3_b9_cbr1_conv
I0821 08:26:21.476603 32262 net.cpp:157] Top shape: 125 64 8 8 (512000)
I0821 08:26:21.476613 32262 net.cpp:165] Memory required for data: 1434113500
I0821 08:26:21.476631 32262 layer_factory.hpp:77] Creating layer L3_b9_cbr1_bn
I0821 08:26:21.476653 32262 net.cpp:100] Creating Layer L3_b9_cbr1_bn
I0821 08:26:21.476666 32262 net.cpp:434] L3_b9_cbr1_bn <- L3_b9_cbr1_conv_top
I0821 08:26:21.476687 32262 net.cpp:408] L3_b9_cbr1_bn -> L3_b9_cbr1_bn_top
I0821 08:26:21.477010 32262 net.cpp:150] Setting up L3_b9_cbr1_bn
I0821 08:26:21.477030 32262 net.cpp:157] Top shape: 125 64 8 8 (512000)
I0821 08:26:21.477038 32262 net.cpp:165] Memory required for data: 1436161500
I0821 08:26:21.477061 32262 layer_factory.hpp:77] Creating layer L3_b9_cbr1_scale
I0821 08:26:21.477077 32262 net.cpp:100] Creating Layer L3_b9_cbr1_scale
I0821 08:26:21.477087 32262 net.cpp:434] L3_b9_cbr1_scale <- L3_b9_cbr1_bn_top
I0821 08:26:21.477116 32262 net.cpp:395] L3_b9_cbr1_scale -> L3_b9_cbr1_bn_top (in-place)
I0821 08:26:21.477212 32262 layer_factory.hpp:77] Creating layer L3_b9_cbr1_scale
I0821 08:26:21.477427 32262 net.cpp:150] Setting up L3_b9_cbr1_scale
I0821 08:26:21.477447 32262 net.cpp:157] Top shape: 125 64 8 8 (512000)
I0821 08:26:21.477457 32262 net.cpp:165] Memory required for data: 1438209500
I0821 08:26:21.477475 32262 layer_factory.hpp:77] Creating layer L3_b9_cbr1_relu
I0821 08:26:21.477490 32262 net.cpp:100] Creating Layer L3_b9_cbr1_relu
I0821 08:26:21.477502 32262 net.cpp:434] L3_b9_cbr1_relu <- L3_b9_cbr1_bn_top
I0821 08:26:21.477529 32262 net.cpp:395] L3_b9_cbr1_relu -> L3_b9_cbr1_bn_top (in-place)
I0821 08:26:21.477548 32262 net.cpp:150] Setting up L3_b9_cbr1_relu
I0821 08:26:21.477563 32262 net.cpp:157] Top shape: 125 64 8 8 (512000)
I0821 08:26:21.477573 32262 net.cpp:165] Memory required for data: 1440257500
I0821 08:26:21.477584 32262 layer_factory.hpp:77] Creating layer L3_b9_cbr2_conv
I0821 08:26:21.477609 32262 net.cpp:100] Creating Layer L3_b9_cbr2_conv
I0821 08:26:21.477622 32262 net.cpp:434] L3_b9_cbr2_conv <- L3_b9_cbr1_bn_top
I0821 08:26:21.477643 32262 net.cpp:408] L3_b9_cbr2_conv -> L3_b9_cbr2_conv_top
I0821 08:26:21.478763 32262 net.cpp:150] Setting up L3_b9_cbr2_conv
I0821 08:26:21.478785 32262 net.cpp:157] Top shape: 125 64 8 8 (512000)
I0821 08:26:21.478794 32262 net.cpp:165] Memory required for data: 1442305500
I0821 08:26:21.478812 32262 layer_factory.hpp:77] Creating layer L3_b9_cbr2_bn
I0821 08:26:21.478830 32262 net.cpp:100] Creating Layer L3_b9_cbr2_bn
I0821 08:26:21.478842 32262 net.cpp:434] L3_b9_cbr2_bn <- L3_b9_cbr2_conv_top
I0821 08:26:21.478868 32262 net.cpp:408] L3_b9_cbr2_bn -> L3_b9_cbr2_bn_top
I0821 08:26:21.479187 32262 net.cpp:150] Setting up L3_b9_cbr2_bn
I0821 08:26:21.479210 32262 net.cpp:157] Top shape: 125 64 8 8 (512000)
I0821 08:26:21.479221 32262 net.cpp:165] Memory required for data: 1444353500
I0821 08:26:21.479252 32262 layer_factory.hpp:77] Creating layer L3_b9_cbr2_scale
I0821 08:26:21.479269 32262 net.cpp:100] Creating Layer L3_b9_cbr2_scale
I0821 08:26:21.479280 32262 net.cpp:434] L3_b9_cbr2_scale <- L3_b9_cbr2_bn_top
I0821 08:26:21.479296 32262 net.cpp:395] L3_b9_cbr2_scale -> L3_b9_cbr2_bn_top (in-place)
I0821 08:26:21.479391 32262 layer_factory.hpp:77] Creating layer L3_b9_cbr2_scale
I0821 08:26:21.479588 32262 net.cpp:150] Setting up L3_b9_cbr2_scale
I0821 08:26:21.479606 32262 net.cpp:157] Top shape: 125 64 8 8 (512000)
I0821 08:26:21.479615 32262 net.cpp:165] Memory required for data: 1446401500
I0821 08:26:21.479634 32262 layer_factory.hpp:77] Creating layer L3_b9_sum_eltwise
I0821 08:26:21.479655 32262 net.cpp:100] Creating Layer L3_b9_sum_eltwise
I0821 08:26:21.479666 32262 net.cpp:434] L3_b9_sum_eltwise <- L3_b9_cbr2_bn_top
I0821 08:26:21.479681 32262 net.cpp:434] L3_b9_sum_eltwise <- L3_b8_sum_eltwise_top_L3_b8_relu_0_split_1
I0821 08:26:21.479696 32262 net.cpp:408] L3_b9_sum_eltwise -> L3_b9_sum_eltwise_top
I0821 08:26:21.479756 32262 net.cpp:150] Setting up L3_b9_sum_eltwise
I0821 08:26:21.479775 32262 net.cpp:157] Top shape: 125 64 8 8 (512000)
I0821 08:26:21.479785 32262 net.cpp:165] Memory required for data: 1448449500
I0821 08:26:21.479795 32262 layer_factory.hpp:77] Creating layer L3_b9_relu
I0821 08:26:21.479809 32262 net.cpp:100] Creating Layer L3_b9_relu
I0821 08:26:21.479821 32262 net.cpp:434] L3_b9_relu <- L3_b9_sum_eltwise_top
I0821 08:26:21.479835 32262 net.cpp:395] L3_b9_relu -> L3_b9_sum_eltwise_top (in-place)
I0821 08:26:21.479854 32262 net.cpp:150] Setting up L3_b9_relu
I0821 08:26:21.479871 32262 net.cpp:157] Top shape: 125 64 8 8 (512000)
I0821 08:26:21.479879 32262 net.cpp:165] Memory required for data: 1450497500
I0821 08:26:21.479889 32262 layer_factory.hpp:77] Creating layer post_pool
I0821 08:26:21.479905 32262 net.cpp:100] Creating Layer post_pool
I0821 08:26:21.479918 32262 net.cpp:434] post_pool <- L3_b9_sum_eltwise_top
I0821 08:26:21.479938 32262 net.cpp:408] post_pool -> post_pool
I0821 08:26:21.479998 32262 net.cpp:150] Setting up post_pool
I0821 08:26:21.480018 32262 net.cpp:157] Top shape: 125 64 1 1 (8000)
I0821 08:26:21.480028 32262 net.cpp:165] Memory required for data: 1450529500
I0821 08:26:21.480039 32262 layer_factory.hpp:77] Creating layer post_FC
I0821 08:26:21.480157 32262 net.cpp:100] Creating Layer post_FC
I0821 08:26:21.480175 32262 net.cpp:434] post_FC <- post_pool
I0821 08:26:21.480199 32262 net.cpp:408] post_FC -> post_FC_top
I0821 08:26:21.480499 32262 net.cpp:150] Setting up post_FC
I0821 08:26:21.480520 32262 net.cpp:157] Top shape: 125 10 (1250)
I0821 08:26:21.480530 32262 net.cpp:165] Memory required for data: 1450534500
I0821 08:26:21.480548 32262 layer_factory.hpp:77] Creating layer post_FC_top_post_FC_0_split
I0821 08:26:21.480564 32262 net.cpp:100] Creating Layer post_FC_top_post_FC_0_split
I0821 08:26:21.480576 32262 net.cpp:434] post_FC_top_post_FC_0_split <- post_FC_top
I0821 08:26:21.480597 32262 net.cpp:408] post_FC_top_post_FC_0_split -> post_FC_top_post_FC_0_split_0
I0821 08:26:21.480618 32262 net.cpp:408] post_FC_top_post_FC_0_split -> post_FC_top_post_FC_0_split_1
I0821 08:26:21.480708 32262 net.cpp:150] Setting up post_FC_top_post_FC_0_split
I0821 08:26:21.480728 32262 net.cpp:157] Top shape: 125 10 (1250)
I0821 08:26:21.480741 32262 net.cpp:157] Top shape: 125 10 (1250)
I0821 08:26:21.480751 32262 net.cpp:165] Memory required for data: 1450544500
I0821 08:26:21.480762 32262 layer_factory.hpp:77] Creating layer accuracy
I0821 08:26:21.480823 32262 net.cpp:100] Creating Layer accuracy
I0821 08:26:21.480839 32262 net.cpp:434] accuracy <- post_FC_top_post_FC_0_split_0
I0821 08:26:21.480852 32262 net.cpp:434] accuracy <- label_dataLayer_1_split_0
I0821 08:26:21.480868 32262 net.cpp:408] accuracy -> accuracy
…
