…
I0821 08:26:51.344923 32487 net.cpp:322] The NetState phase (0) differed from the phase (1) specified by a rule in layer L3_b9_cbr2_bn
I0821 08:26:51.346650 32487 net.cpp:58] Initializing net from parameters: 
name: "Cifar-Resnet"
state {
  phase: TRAIN
  level: 0
  stage: ""
}
layer {
  name: "dataLayer"
  type: "Data"
  top: "data_top"
  top: "label"
  include {
    phase: TRAIN
  }
  transform_param {
    mirror: true
    crop_size: 32
    mean_file: "examples/cifar10/mean.binaryproto"
  }
  data_param {
    source: "examples/cifar10/cifar10_train30k_lmdb"
    batch_size: 125
    backend: LMDB
  }
  image_data_param {
    shuffle: true
  }
}
layer {
  name: "pre_conv"
  type: "Convolution"
  bottom: "data_top"
  top: "pre_conv_top"
  param {
    lr_mult: 1
    decay_mult: 1
  }
  param {
    lr_mult: 2
    decay_mult: 0
  }
  convolution_param {
    num_output: 16
    pad: 1
    kernel_size: 3
    stride: 1
    weight_filler {
      type: "msra"
    }
    bias_filler {
      type: "constant"
    }
  }
}
layer {
  name: "pre_bn"
  type: "BatchNorm"
  bottom: "pre_conv_top"
  top: "pre_bn_top"
  include {
    phase: TRAIN
  }
  batch_norm_param {
    use_global_stats: false
    moving_average_fraction: 0.999
  }
}
layer {
  name: "pre_scale"
  type: "Scale"
  bottom: "pre_bn_top"
  top: "pre_bn_top"
  scale_param {
    bias_term: true
  }
}
layer {
  name: "pre_relu"
  type: "ReLU"
  bottom: "pre_bn_top"
  top: "pre_bn_top"
}
layer {
  name: "L1_b1_cbr1_conv"
  type: "Convolution"
  bottom: "pre_bn_top"
  top: "L1_b1_cbr1_conv_top"
  param {
    lr_mult: 1
    decay_mult: 1
  }
  param {
    lr_mult: 2
    decay_mult: 0
  }
  convolution_param {
    num_output: 16
    pad: 1
    kernel_size: 3
    stride: 1
    weight_filler {
      type: "msra"
    }
    bias_filler {
      type: "constant"
    }
  }
}
layer {
  name: "L1_b1_cbr1_bn"
  type: "BatchNorm"
  bottom: "L1_b1_cbr1_conv_top"
  top: "L1_b1_cbr1_bn_top"
  include {
    phase: TRAIN
  }
  batch_norm_param {
    use_global_stats: false
    moving_average_fraction: 0.999
  }
}
layer {
  name: "L1_b1_cbr1_scale"
  type: "Scale"
  bottom: "L1_b1_cbr1_bn_top"
  top: "L1_b1_cbr1_bn_top"
  scale_param {
    bias_term: true
  }
}
layer {
  name: "L1_b1_cbr1_relu"
  type: "ReLU"
  bottom: "L1_b1_cbr1_bn_top"
  top: "L1_b1_cbr1_bn_top"
}
layer {
  name: "L1_b1_cbr2_conv"
  type: "Convolution"
  bottom: "L1_b1_cbr1_bn_top"
  top: "L1_b1_cbr2_conv_top"
  param {
    lr_mult: 1
    decay_mult: 1
  }
  param {
    lr_mult: 2
    decay_mult: 0
  }
  convolution_param {
    num_output: 16
    pad: 1
    kernel_size: 3
    stride: 1
    weight_filler {
      type: "msra"
    }
    bias_filler {
      type: "constant"
    }
  }
}
layer {
  name: "L1_b1_cbr2_bn"
  type: "BatchNorm"
  bottom: "L1_b1_cbr2_conv_top"
  top: "L1_b1_cbr2_bn_top"
  include {
    phase: TRAIN
  }
  batch_norm_param {
    use_global_stats: false
    moving_average_fraction: 0.999
  }
}
layer {
  name: "L1_b1_cbr2_scale"
  type: "Scale"
  bottom: "L1_b1_cbr2_bn_top"
  top: "L1_b1_cbr2_bn_top"
  scale_param {
    bias_term: true
  }
}
layer {
  name: "L1_b1_sum_eltwise"
  type: "Eltwise"
  bottom: "L1_b1_cbr2_bn_top"
  bottom: "pre_bn_top"
  top: "L1_b1_sum_eltwise_top"
  eltwise_param {
    operation: SUM
  }
}
layer {
  name: "L1_b1_relu"
  type: "ReLU"
  bottom: "L1_b1_sum_eltwise_top"
  top: "L1_b1_sum_eltwise_top"
}
layer {
  name: "L1_b2_cbr1_conv"
  type: "Convolution"
  bottom: "L1_b1_sum_eltwise_top"
  top: "L1_b2_cbr1_conv_top"
  param {
    lr_mult: 1
    decay_mult: 1
  }
  param {
    lr_mult: 2
    decay_mult: 0
  }
  convolution_param {
    num_output: 16
    pad: 1
    kernel_size: 3
    stride: 1
    weight_filler {
      type: "msra"
    }
    bias_filler {
      type: "constant"
    }
  }
}
layer {
  name: "L1_b2_cbr1_bn"
  type: "BatchNorm"
  bottom: "L1_b2_cbr1_conv_top"
  top: "L1_b2_cbr1_bn_top"
  include {
    phase: TRAIN
  }
  batch_norm_param {
    use_global_stats: false
    moving_average_fraction: 0.999
  }
}
layer {
  name: "L1_b2_cbr1_scale"
  type: "Scale"
  bottom: "L1_b2_cbr1_bn_top"
  top: "L1_b2_cbr1_bn_top"
  scale_param {
    bias_term: true
  }
}
layer {
  name: "L1_b2_cbr1_relu"
  type: "ReLU"
  bottom: "L1_b2_cbr1_bn_top"
  top: "L1_b2_cbr1_bn_top"
}
layer {
  name: "L1_b2_cbr2_conv"
  type: "Convolution"
  bottom: "L1_b2_cbr1_bn_top"
  top: "L1_b2_cbr2_conv_top"
  param {
    lr_mult: 1
    decay_mult: 1
  }
  param {
    lr_mult: 2
    decay_mult: 0
  }
  convolution_param {
    num_output: 16
    pad: 1
    kernel_size: 3
    stride: 1
    weight_filler {
      type: "msra"
    }
    bias_filler {
      type: "constant"
    }
  }
}
layer {
  name: "L1_b2_cbr2_bn"
  type: "BatchNorm"
  bottom: "L1_b2_cbr2_conv_top"
  top: "L1_b2_cbr2_bn_top"
  include {
    phase: TRAIN
  }
  batch_norm_param {
    use_global_stats: false
    moving_average_fraction: 0.999
  }
}
layer {
  name: "L1_b2_cbr2_scale"
  type: "Scale"
  bottom: "L1_b2_cbr2_bn_top"
  top: "L1_b2_cbr2_bn_top"
  scale_param {
    bias_term: true
  }
}
layer {
  name: "L1_b2_sum_eltwise"
  type: "Eltwise"
  bottom: "L1_b2_cbr2_bn_top"
  bottom: "L1_b1_sum_eltwise_top"
  top: "L1_b2_sum_eltwise_top"
  eltwise_param {
    operation: SUM
  }
}
layer {
  name: "L1_b2_relu"
  type: "ReLU"
  bottom: "L1_b2_sum_eltwise_top"
  top: "L1_b2_sum_eltwise_top"
}
layer {
  name: "L1_b3_cbr1_conv"
  type: "Convolution"
  bottom: "L1_b2_sum_eltwise_top"
  top: "L1_b3_cbr1_conv_top"
  param {
    lr_mult: 1
    decay_mult: 1
  }
  param {
    lr_mult: 2
    decay_mult: 0
  }
  convolution_param {
    num_output: 16
    pad: 1
    kernel_size: 3
    stride: 1
    weight_filler {
      type: "msra"
    }
    bias_filler {
      type: "constant"
    }
  }
}
layer {
  name: "L1_b3_cbr1_bn"
  type: "BatchNorm"
  bottom: "L1_b3_cbr1_conv_top"
  top: "L1_b3_cbr1_bn_top"
  include {
    phase: TRAIN
  }
  batch_norm_param {
    use_global_stats: false
    moving_average_fraction: 0.999
  }
}
layer {
  name: "L1_b3_cbr1_scale"
  type: "Scale"
  bottom: "L1_b3_cbr1_bn_top"
  top: "L1_b3_cbr1_bn_top"
  scale_param {
    bias_term: true
  }
}
layer {
  name: "L1_b3_cbr1_relu"
  type: "ReLU"
  bottom: "L1_b3_cbr1_bn_top"
  top: "L1_b3_cbr1_bn_top"
}
layer {
  name: "L1_b3_cbr2_conv"
  type: "Convolution"
  bottom: "L1_b3_cbr1_bn_top"
  top: "L1_b3_cbr2_conv_top"
  param {
    lr_mult: 1
    decay_mult: 1
  }
  param {
    lr_mult: 2
    decay_mult: 0
  }
  convolution_param {
    num_output: 16
    pad: 1
    kernel_size: 3
    stride: 1
    weight_filler {
      type: "msra"
    }
    bias_filler {
      type: "constant"
    }
  }
}
layer {
  name: "L1_b3_cbr2_bn"
  type: "BatchNorm"
  bottom: "L1_b3_cbr2_conv_top"
  top: "L1_b3_cbr2_bn_top"
  include {
    phase: TRAIN
  }
  batch_norm_param {
    use_global_stats: false
    moving_average_fraction: 0.999
  }
}
layer {
  name: "L1_b3_cbr2_scale"
  type: "Scale"
  bottom: "L1_b3_cbr2_bn_top"
  top: "L1_b3_cbr2_bn_top"
  scale_param {
    bias_term: true
  }
}
layer {
  name: "L1_b3_sum_eltwise"
  type: "Eltwise"
  bottom: "L1_b3_cbr2_bn_top"
  bottom: "L1_b2_sum_eltwise_top"
  top: "L1_b3_sum_eltwise_top"
  eltwise_param {
    operation: SUM
  }
}
layer {
  name: "L1_b3_relu"
  type: "ReLU"
  bottom: "L1_b3_sum_eltwise_top"
  top: "L1_b3_sum_eltwise_top"
}
layer {
  name: "L1_b4_cbr1_conv"
  type: "Convolution"
  bottom: "L1_b3_sum_eltwise_top"
  top: "L1_b4_cbr1_conv_top"
  param {
    lr_mult: 1
    decay_mult: 1
  }
  param {
    lr_mult: 2
    decay_mult: 0
  }
  convolution_param {
    num_output: 16
    pad: 1
    kernel_size: 3
    stride: 1
    weight_filler {
      type: "msra"
    }
    bias_filler {
      type: "constant"
    }
  }
}
layer {
  name: "L1_b4_cbr1_bn"
  type: "BatchNorm"
  bottom: "L1_b4_cbr1_conv_top"
  top: "L1_b4_cbr1_bn_top"
  include {
    phase: TRAIN
  }
  batch_norm_param {
    use_global_stats: false
    moving_average_fraction: 0.999
  }
}
layer {
  name: "L1_b4_cbr1_scale"
  type: "Scale"
  bottom: "L1_b4_cbr1_bn_top"
  top: "L1_b4_cbr1_bn_top"
  scale_param {
    bias_term: true
  }
}
layer {
  name: "L1_b4_cbr1_relu"
  type: "ReLU"
  bottom: "L1_b4_cbr1_bn_top"
  top: "L1_b4_cbr1_bn_top"
}
layer {
  name: "L1_b4_cbr2_conv"
  type: "Convolution"
  bottom: "L1_b4_cbr1_bn_top"
  top: "L1_b4_cbr2_conv_top"
  param {
    lr_mult: 1
    decay_mult: 1
  }
  param {
    lr_mult: 2
    decay_mult: 0
  }
  convolution_param {
    num_output: 16
    pad: 1
    kernel_size: 3
    stride: 1
    weight_filler {
      type: "msra"
    }
    bias_filler {
      type: "constant"
    }
  }
}
layer {
  name: "L1_b4_cbr2_bn"
  type: "BatchNorm"
  bottom: "L1_b4_cbr2_conv_top"
  top: "L1_b4_cbr2_bn_top"
  include {
    phase: TRAIN
  }
  batch_norm_param {
    use_global_stats: false
    moving_average_fraction: 0.999
  }
}
layer {
  name: "L1_b4_cbr2_scale"
  type: "Scale"
  bottom: "L1_b4_cbr2_bn_top"
  top: "L1_b4_cbr2_bn_top"
  scale_param {
    bias_term: true
  }
}
layer {
  name: "L1_b4_sum_eltwise"
  type: "Eltwise"
  bottom: "L1_b4_cbr2_bn_top"
  bottom: "L1_b3_sum_eltwise_top"
  top: "L1_b4_sum_eltwise_top"
  eltwise_param {
    operation: SUM
  }
}
layer {
  name: "L1_b4_relu"
  type: "ReLU"
  bottom: "L1_b4_sum_eltwise_top"
  top: "L1_b4_sum_eltwise_top"
}
layer {
  name: "L1_b5_cbr1_conv"
  type: "Convolution"
  bottom: "L1_b4_sum_eltwise_top"
  top: "L1_b5_cbr1_conv_top"
  param {
    lr_mult: 1
    decay_mult: 1
  }
  param {
    lr_mult: 2
    decay_mult: 0
  }
  convolution_param {
    num_output: 16
    pad: 1
    kernel_size: 3
    stride: 1
    weight_filler {
      type: "msra"
    }
    bias_filler {
      type: "constant"
    }
  }
}
layer {
  name: "L1_b5_cbr1_bn"
  type: "BatchNorm"
  bottom: "L1_b5_cbr1_conv_top"
  top: "L1_b5_cbr1_bn_top"
  include {
    phase: TRAIN
  }
  batch_norm_param {
    use_global_stats: false
    moving_average_fraction: 0.999
  }
}
layer {
  name: "L1_b5_cbr1_scale"
  type: "Scale"
  bottom: "L1_b5_cbr1_bn_top"
  top: "L1_b5_cbr1_bn_top"
  scale_param {
    bias_term: true
  }
}
layer {
  name: "L1_b5_cbr1_relu"
  type: "ReLU"
  bottom: "L1_b5_cbr1_bn_top"
  top: "L1_b5_cbr1_bn_top"
}
layer {
  name: "L1_b5_cbr2_conv"
  type: "Convolution"
  bottom: "L1_b5_cbr1_bn_top"
  top: "L1_b5_cbr2_conv_top"
  param {
    lr_mult: 1
    decay_mult: 1
  }
  param {
    lr_mult: 2
    decay_mult: 0
  }
  convolution_param {
    num_output: 16
    pad: 1
    kernel_size: 3
    stride: 1
    weight_filler {
      type: "msra"
    }
    bias_filler {
      type: "constant"
    }
  }
}
layer {
  name: "L1_b5_cbr2_bn"
  type: "BatchNorm"
  bottom: "L1_b5_cbr2_conv_top"
  top: "L1_b5_cbr2_bn_top"
  include {
    phase: TRAIN
  }
  batch_norm_param {
    use_global_stats: false
    moving_average_fraction: 0.999
  }
}
layer {
  name: "L1_b5_cbr2_scale"
  type: "Scale"
  bottom: "L1_b5_cbr2_bn_top"
  top: "L1_b5_cbr2_bn_top"
  scale_param {
    bias_term: true
  }
}
layer {
  name: "L1_b5_sum_eltwise"
  type: "Eltwise"
  bottom: "L1_b5_cbr2_bn_top"
  bottom: "L1_b4_sum_eltwise_top"
  top: "L1_b5_sum_eltwise_top"
  eltwise_param {
    operation: SUM
  }
}
layer {
  name: "L1_b5_relu"
  type: "ReLU"
  bottom: "L1_b5_sum_eltwise_top"
  top: "L1_b5_sum_eltwise_top"
}
layer {
  name: "L1_b6_cbr1_conv"
  type: "Convolution"
  bottom: "L1_b5_sum_eltwise_top"
  top: "L1_b6_cbr1_conv_top"
  param {
    lr_mult: 1
    decay_mult: 1
  }
  param {
    lr_mult: 2
    decay_mult: 0
  }
  convolution_param {
    num_output: 16
    pad: 1
    kernel_size: 3
    stride: 1
    weight_filler {
      type: "msra"
    }
    bias_filler {
      type: "constant"
    }
  }
}
layer {
  name: "L1_b6_cbr1_bn"
  type: "BatchNorm"
  bottom: "L1_b6_cbr1_conv_top"
  top: "L1_b6_cbr1_bn_top"
  include {
    phase: TRAIN
  }
  batch_norm_param {
    use_global_stats: false
    moving_average_fraction: 0.999
  }
}
layer {
  name: "L1_b6_cbr1_scale"
  type: "Scale"
  bottom: "L1_b6_cbr1_bn_top"
  top: "L1_b6_cbr1_bn_top"
  scale_param {
    bias_term: true
  }
}
layer {
  name: "L1_b6_cbr1_relu"
  type: "ReLU"
  bottom: "L1_b6_cbr1_bn_top"
  top: "L1_b6_cbr1_bn_top"
}
layer {
  name: "L1_b6_cbr2_conv"
  type: "Convolution"
  bottom: "L1_b6_cbr1_bn_top"
  top: "L1_b6_cbr2_conv_top"
  param {
    lr_mult: 1
    decay_mult: 1
  }
  param {
    lr_mult: 2
    decay_mult: 0
  }
  convolution_param {
    num_output: 16
    pad: 1
    kernel_size: 3
    stride: 1
    weight_filler {
      type: "msra"
    }
    bias_filler {
      type: "constant"
    }
  }
}
layer {
  name: "L1_b6_cbr2_bn"
  type: "BatchNorm"
  bottom: "L1_b6_cbr2_conv_top"
  top: "L1_b6_cbr2_bn_top"
  include {
    phase: TRAIN
  }
  batch_norm_param {
    use_global_stats: false
    moving_average_fraction: 0.999
  }
}
layer {
  name: "L1_b6_cbr2_scale"
  type: "Scale"
  bottom: "L1_b6_cbr2_bn_top"
  top: "L1_b6_cbr2_bn_top"
  scale_param {
    bias_term: true
  }
}
layer {
  name: "L1_b6_sum_eltwise"
  type: "Eltwise"
  bottom: "L1_b6_cbr2_bn_top"
  bottom: "L1_b5_sum_eltwise_top"
  top: "L1_b6_sum_eltwise_top"
  eltwise_param {
    operation: SUM
  }
}
layer {
  name: "L1_b6_relu"
  type: "ReLU"
  bottom: "L1_b6_sum_eltwise_top"
  top: "L1_b6_sum_eltwise_top"
}
layer {
  name: "L1_b7_cbr1_conv"
  type: "Convolution"
  bottom: "L1_b6_sum_eltwise_top"
  top: "L1_b7_cbr1_conv_top"
  param {
    lr_mult: 1
    decay_mult: 1
  }
  param {
    lr_mult: 2
    decay_mult: 0
  }
  convolution_param {
    num_output: 16
    pad: 1
    kernel_size: 3
    stride: 1
    weight_filler {
      type: "msra"
    }
    bias_filler {
      type: "constant"
    }
  }
}
layer {
  name: "L1_b7_cbr1_bn"
  type: "BatchNorm"
  bottom: "L1_b7_cbr1_conv_top"
  top: "L1_b7_cbr1_bn_top"
  include {
    phase: TRAIN
  }
  batch_norm_param {
    use_global_stats: false
    moving_average_fraction: 0.999
  }
}
layer {
  name: "L1_b7_cbr1_scale"
  type: "Scale"
  bottom: "L1_b7_cbr1_bn_top"
  top: "L1_b7_cbr1_bn_top"
  scale_param {
    bias_term: true
  }
}
layer {
  name: "L1_b7_cbr1_relu"
  type: "ReLU"
  bottom: "L1_b7_cbr1_bn_top"
  top: "L1_b7_cbr1_bn_top"
}
layer {
  name: "L1_b7_cbr2_conv"
  type: "Convolution"
  bottom: "L1_b7_cbr1_bn_top"
  top: "L1_b7_cbr2_conv_top"
  param {
    lr_mult: 1
    decay_mult: 1
  }
  param {
    lr_mult: 2
    decay_mult: 0
  }
  convolution_param {
    num_output: 16
    pad: 1
    kernel_size: 3
    stride: 1
    weight_filler {
      type: "msra"
    }
    bias_filler {
      type: "constant"
    }
  }
}
layer {
  name: "L1_b7_cbr2_bn"
  type: "BatchNorm"
  bottom: "L1_b7_cbr2_conv_top"
  top: "L1_b7_cbr2_bn_top"
  include {
    phase: TRAIN
  }
  batch_norm_param {
    use_global_stats: false
    moving_average_fraction: 0.999
  }
}
layer {
  name: "L1_b7_cbr2_scale"
  type: "Scale"
  bottom: "L1_b7_cbr2_bn_top"
  top: "L1_b7_cbr2_bn_top"
  scale_param {
    bias_term: true
  }
}
layer {
  name: "L1_b7_sum_eltwise"
  type: "Eltwise"
  bottom: "L1_b7_cbr2_bn_top"
  bottom: "L1_b6_sum_eltwise_top"
  top: "L1_b7_sum_eltwise_top"
  eltwise_param {
    operation: SUM
  }
}
layer {
  name: "L1_b7_relu"
  type: "ReLU"
  bottom: "L1_b7_sum_eltwise_top"
  top: "L1_b7_sum_eltwise_top"
}
layer {
  name: "L1_b8_cbr1_conv"
  type: "Convolution"
  bottom: "L1_b7_sum_eltwise_top"
  top: "L1_b8_cbr1_conv_top"
  param {
    lr_mult: 1
    decay_mult: 1
  }
  param {
    lr_mult: 2
    decay_mult: 0
  }
  convolution_param {
    num_output: 16
    pad: 1
    kernel_size: 3
    stride: 1
    weight_filler {
      type: "msra"
    }
    bias_filler {
      type: "constant"
    }
  }
}
layer {
  name: "L1_b8_cbr1_bn"
  type: "BatchNorm"
  bottom: "L1_b8_cbr1_conv_top"
  top: "L1_b8_cbr1_bn_top"
  include {
    phase: TRAIN
  }
  batch_norm_param {
    use_global_stats: false
    moving_average_fraction: 0.999
  }
}
layer {
  name: "L1_b8_cbr1_scale"
  type: "Scale"
  bottom: "L1_b8_cbr1_bn_top"
  top: "L1_b8_cbr1_bn_top"
  scale_param {
    bias_term: true
  }
}
layer {
  name: "L1_b8_cbr1_relu"
  type: "ReLU"
  bottom: "L1_b8_cbr1_bn_top"
  top: "L1_b8_cbr1_bn_top"
}
layer {
  name: "L1_b8_cbr2_conv"
  type: "Convolution"
  bottom: "L1_b8_cbr1_bn_top"
  top: "L1_b8_cbr2_conv_top"
  param {
    lr_mult: 1
    decay_mult: 1
  }
  param {
    lr_mult: 2
    decay_mult: 0
  }
  convolution_param {
    num_output: 16
    pad: 1
    kernel_size: 3
    stride: 1
    weight_filler {
      type: "msra"
    }
    bias_filler {
      type: "constant"
    }
  }
}
layer {
  name: "L1_b8_cbr2_bn"
  type: "BatchNorm"
  bottom: "L1_b8_cbr2_conv_top"
  top: "L1_b8_cbr2_bn_top"
  include {
    phase: TRAIN
  }
  batch_norm_param {
    use_global_stats: false
    moving_average_fraction: 0.999
  }
}
layer {
  name: "L1_b8_cbr2_scale"
  type: "Scale"
  bottom: "L1_b8_cbr2_bn_top"
  top: "L1_b8_cbr2_bn_top"
  scale_param {
    bias_term: true
  }
}
layer {
  name: "L1_b8_sum_eltwise"
  type: "Eltwise"
  bottom: "L1_b8_cbr2_bn_top"
  bottom: "L1_b7_sum_eltwise_top"
  top: "L1_b8_sum_eltwise_top"
  eltwise_param {
    operation: SUM
  }
}
layer {
  name: "L1_b8_relu"
  type: "ReLU"
  bottom: "L1_b8_sum_eltwise_top"
  top: "L1_b8_sum_eltwise_top"
}
layer {
  name: "L1_b9_cbr1_conv"
  type: "Convolution"
  bottom: "L1_b8_sum_eltwise_top"
  top: "L1_b9_cbr1_conv_top"
  param {
    lr_mult: 1
    decay_mult: 1
  }
  param {
    lr_mult: 2
    decay_mult: 0
  }
  convolution_param {
    num_output: 16
    pad: 1
    kernel_size: 3
    stride: 1
    weight_filler {
      type: "msra"
    }
    bias_filler {
      type: "constant"
    }
  }
}
layer {
  name: "L1_b9_cbr1_bn"
  type: "BatchNorm"
  bottom: "L1_b9_cbr1_conv_top"
  top: "L1_b9_cbr1_bn_top"
  include {
    phase: TRAIN
  }
  batch_norm_param {
    use_global_stats: false
    moving_average_fraction: 0.999
  }
}
layer {
  name: "L1_b9_cbr1_scale"
  type: "Scale"
  bottom: "L1_b9_cbr1_bn_top"
  top: "L1_b9_cbr1_bn_top"
  scale_param {
    bias_term: true
  }
}
layer {
  name: "L1_b9_cbr1_relu"
  type: "ReLU"
  bottom: "L1_b9_cbr1_bn_top"
  top: "L1_b9_cbr1_bn_top"
}
layer {
  name: "L1_b9_cbr2_conv"
  type: "Convolution"
  bottom: "L1_b9_cbr1_bn_top"
  top: "L1_b9_cbr2_conv_top"
  param {
    lr_mult: 1
    decay_mult: 1
  }
  param {
    lr_mult: 2
    decay_mult: 0
  }
  convolution_param {
    num_output: 16
    pad: 1
    kernel_size: 3
    stride: 1
    weight_filler {
      type: "msra"
    }
    bias_filler {
      type: "constant"
    }
  }
}
layer {
  name: "L1_b9_cbr2_bn"
  type: "BatchNorm"
  bottom: "L1_b9_cbr2_conv_top"
  top: "L1_b9_cbr2_bn_top"
  include {
    phase: TRAIN
  }
  batch_norm_param {
    use_global_stats: false
    moving_average_fraction: 0.999
  }
}
layer {
  name: "L1_b9_cbr2_scale"
  type: "Scale"
  bottom: "L1_b9_cbr2_bn_top"
  top: "L1_b9_cbr2_bn_top"
  scale_param {
    bias_term: true
  }
}
layer {
  name: "L1_b9_sum_eltwise"
  type: "Eltwise"
  bottom: "L1_b9_cbr2_bn_top"
  bottom: "L1_b8_sum_eltwise_top"
  top: "L1_b9_sum_eltwise_top"
  eltwise_param {
    operation: SUM
  }
}
layer {
  name: "L1_b9_relu"
  type: "ReLU"
  bottom: "L1_b9_sum_eltwise_top"
  top: "L1_b9_sum_eltwise_top"
}
layer {
  name: "L2_b1_cbr1_conv"
  type: "Convolution"
  bottom: "L1_b9_sum_eltwise_top"
  top: "L2_b1_cbr1_conv_top"
  param {
    lr_mult: 1
    decay_mult: 1
  }
  param {
    lr_mult: 2
    decay_mult: 0
  }
  convolution_param {
    num_output: 16
    pad: 1
    kernel_size: 3
    stride: 2
    weight_filler {
      type: "msra"
    }
    bias_filler {
      type: "constant"
    }
  }
}
layer {
  name: "L2_b1_cbr1_bn"
  type: "BatchNorm"
  bottom: "L2_b1_cbr1_conv_top"
  top: "L2_b1_cbr1_bn_top"
  include {
    phase: TRAIN
  }
  batch_norm_param {
    use_global_stats: false
    moving_average_fraction: 0.999
  }
}
layer {
  name: "L2_b1_cbr1_scale"
  type: "Scale"
  bottom: "L2_b1_cbr1_bn_top"
  top: "L2_b1_cbr1_bn_top"
  scale_param {
    bias_term: true
  }
}
layer {
  name: "L2_b1_cbr1_relu"
  type: "ReLU"
  bottom: "L2_b1_cbr1_bn_top"
  top: "L2_b1_cbr1_bn_top"
}
layer {
  name: "L2_b1_cbr2_conv"
  type: "Convolution"
  bottom: "L2_b1_cbr1_bn_top"
  top: "L2_b1_cbr2_conv_top"
  param {
    lr_mult: 1
    decay_mult: 1
  }
  param {
    lr_mult: 2
    decay_mult: 0
  }
  convolution_param {
    num_output: 16
    pad: 1
    kernel_size: 3
    stride: 1
    weight_filler {
      type: "msra"
    }
    bias_filler {
      type: "constant"
    }
  }
}
layer {
  name: "L2_b1_cbr2_bn"
  type: "BatchNorm"
  bottom: "L2_b1_cbr2_conv_top"
  top: "L2_b1_cbr2_bn_top"
  include {
    phase: TRAIN
  }
  batch_norm_param {
    use_global_stats: false
    moving_average_fraction: 0.999
  }
}
layer {
  name: "L2_b1_cbr2_scale"
  type: "Scale"
  bottom: "L2_b1_cbr2_bn_top"
  top: "L2_b1_cbr2_bn_top"
  scale_param {
    bias_term: true
  }
}
layer {
  name: "L2_b1_pool"
  type: "Pooling"
  bottom: "L1_b9_sum_eltwise_top"
  top: "L2_b1_pool"
  pooling_param {
    pool: AVE
    kernel_size: 3
    stride: 2
  }
}
layer {
  name: "L2_b1_sum_eltwise"
  type: "Eltwise"
  bottom: "L2_b1_cbr2_bn_top"
  bottom: "L2_b1_pool"
  top: "L2_b1_sum_eltwise_top"
  eltwise_param {
    operation: SUM
  }
}
layer {
  name: "L2_b1_relu"
  type: "ReLU"
  bottom: "L2_b1_sum_eltwise_top"
  top: "L2_b1_sum_eltwise_top"
}
layer {
  name: "L2_b1_zeros"
  type: "DummyData"
  top: "L2_b1_zeros"
  dummy_data_param {
    data_filler {
      type: "constant"
      value: 0
    }
    shape {
      dim: 125
      dim: 16
      dim: 16
      dim: 16
    }
  }
}
layer {
  name: "L2_b1_concat0"
  type: "Concat"
  bottom: "L2_b1_sum_eltwise_top"
  bottom: "L2_b1_zeros"
  top: "L2_b1_concat0"
  concat_param {
    axis: 1
  }
}
layer {
  name: "L2_b2_cbr1_conv"
  type: "Convolution"
  bottom: "L2_b1_concat0"
  top: "L2_b2_cbr1_conv_top"
  param {
    lr_mult: 1
    decay_mult: 1
  }
  param {
    lr_mult: 2
    decay_mult: 0
  }
  convolution_param {
    num_output: 32
    pad: 1
    kernel_size: 3
    stride: 1
    weight_filler {
      type: "msra"
    }
    bias_filler {
      type: "constant"
    }
  }
}
layer {
  name: "L2_b2_cbr1_bn"
  type: "BatchNorm"
  bottom: "L2_b2_cbr1_conv_top"
  top: "L2_b2_cbr1_bn_top"
  include {
    phase: TRAIN
  }
  batch_norm_param {
    use_global_stats: false
    moving_average_fraction: 0.999
  }
}
layer {
  name: "L2_b2_cbr1_scale"
  type: "Scale"
  bottom: "L2_b2_cbr1_bn_top"
  top: "L2_b2_cbr1_bn_top"
  scale_param {
    bias_term: true
  }
}
layer {
  name: "L2_b2_cbr1_relu"
  type: "ReLU"
  bottom: "L2_b2_cbr1_bn_top"
  top: "L2_b2_cbr1_bn_top"
}
layer {
  name: "L2_b2_cbr2_conv"
  type: "Convolution"
  bottom: "L2_b2_cbr1_bn_top"
  top: "L2_b2_cbr2_conv_top"
  param {
    lr_mult: 1
    decay_mult: 1
  }
  param {
    lr_mult: 2
    decay_mult: 0
  }
  convolution_param {
    num_output: 32
    pad: 1
    kernel_size: 3
    stride: 1
    weight_filler {
      type: "msra"
    }
    bias_filler {
      type: "constant"
    }
  }
}
layer {
  name: "L2_b2_cbr2_bn"
  type: "BatchNorm"
  bottom: "L2_b2_cbr2_conv_top"
  top: "L2_b2_cbr2_bn_top"
  include {
    phase: TRAIN
  }
  batch_norm_param {
    use_global_stats: false
    moving_average_fraction: 0.999
  }
}
layer {
  name: "L2_b2_cbr2_scale"
  type: "Scale"
  bottom: "L2_b2_cbr2_bn_top"
  top: "L2_b2_cbr2_bn_top"
  scale_param {
    bias_term: true
  }
}
layer {
  name: "L2_b2_sum_eltwise"
  type: "Eltwise"
  bottom: "L2_b2_cbr2_bn_top"
  bottom: "L2_b1_concat0"
  top: "L2_b2_sum_eltwise_top"
  eltwise_param {
    operation: SUM
  }
}
layer {
  name: "L2_b2_relu"
  type: "ReLU"
  bottom: "L2_b2_sum_eltwise_top"
  top: "L2_b2_sum_eltwise_top"
}
layer {
  name: "L2_b3_cbr1_conv"
  type: "Convolution"
  bottom: "L2_b2_sum_eltwise_top"
  top: "L2_b3_cbr1_conv_top"
  param {
    lr_mult: 1
    decay_mult: 1
  }
  param {
    lr_mult: 2
    decay_mult: 0
  }
  convolution_param {
    num_output: 32
    pad: 1
    kernel_size: 3
    stride: 1
    weight_filler {
      type: "msra"
    }
    bias_filler {
      type: "constant"
    }
  }
}
layer {
  name: "L2_b3_cbr1_bn"
  type: "BatchNorm"
  bottom: "L2_b3_cbr1_conv_top"
  top: "L2_b3_cbr1_bn_top"
  include {
    phase: TRAIN
  }
  batch_norm_param {
    use_global_stats: false
    moving_average_fraction: 0.999
  }
}
layer {
  name: "L2_b3_cbr1_scale"
  type: "Scale"
  bottom: "L2_b3_cbr1_bn_top"
  top: "L2_b3_cbr1_bn_top"
  scale_param {
    bias_term: true
  }
}
layer {
  name: "L2_b3_cbr1_relu"
  type: "ReLU"
  bottom: "L2_b3_cbr1_bn_top"
  top: "L2_b3_cbr1_bn_top"
}
layer {
  name: "L2_b3_cbr2_conv"
  type: "Convolution"
  bottom: "L2_b3_cbr1_bn_top"
  top: "L2_b3_cbr2_conv_top"
  param {
    lr_mult: 1
    decay_mult: 1
  }
  param {
    lr_mult: 2
    decay_mult: 0
  }
  convolution_param {
    num_output: 32
    pad: 1
    kernel_size: 3
    stride: 1
    weight_filler {
      type: "msra"
    }
    bias_filler {
      type: "constant"
    }
  }
}
layer {
  name: "L2_b3_cbr2_bn"
  type: "BatchNorm"
  bottom: "L2_b3_cbr2_conv_top"
  top: "L2_b3_cbr2_bn_top"
  include {
    phase: TRAIN
  }
  batch_norm_param {
    use_global_stats: false
    moving_average_fraction: 0.999
  }
}
layer {
  name: "L2_b3_cbr2_scale"
  type: "Scale"
  bottom: "L2_b3_cbr2_bn_top"
  top: "L2_b3_cbr2_bn_top"
  scale_param {
    bias_term: true
  }
}
layer {
  name: "L2_b3_sum_eltwise"
  type: "Eltwise"
  bottom: "L2_b3_cbr2_bn_top"
  bottom: "L2_b2_sum_eltwise_top"
  top: "L2_b3_sum_eltwise_top"
  eltwise_param {
    operation: SUM
  }
}
layer {
  name: "L2_b3_relu"
  type: "ReLU"
  bottom: "L2_b3_sum_eltwise_top"
  top: "L2_b3_sum_eltwise_top"
}
layer {
  name: "L2_b4_cbr1_conv"
  type: "Convolution"
  bottom: "L2_b3_sum_eltwise_top"
  top: "L2_b4_cbr1_conv_top"
  param {
    lr_mult: 1
    decay_mult: 1
  }
  param {
    lr_mult: 2
    decay_mult: 0
  }
  convolution_param {
    num_output: 32
    pad: 1
    kernel_size: 3
    stride: 1
    weight_filler {
      type: "msra"
    }
    bias_filler {
      type: "constant"
    }
  }
}
layer {
  name: "L2_b4_cbr1_bn"
  type: "BatchNorm"
  bottom: "L2_b4_cbr1_conv_top"
  top: "L2_b4_cbr1_bn_top"
  include {
    phase: TRAIN
  }
  batch_norm_param {
    use_global_stats: false
    moving_average_fraction: 0.999
  }
}
layer {
  name: "L2_b4_cbr1_scale"
  type: "Scale"
  bottom: "L2_b4_cbr1_bn_top"
  top: "L2_b4_cbr1_bn_top"
  scale_param {
    bias_term: true
  }
}
layer {
  name: "L2_b4_cbr1_relu"
  type: "ReLU"
  bottom: "L2_b4_cbr1_bn_top"
  top: "L2_b4_cbr1_bn_top"
}
layer {
  name: "L2_b4_cbr2_conv"
  type: "Convolution"
  bottom: "L2_b4_cbr1_bn_top"
  top: "L2_b4_cbr2_conv_top"
  param {
    lr_mult: 1
    decay_mult: 1
  }
  param {
    lr_mult: 2
    decay_mult: 0
  }
  convolution_param {
    num_output: 32
    pad: 1
    kernel_size: 3
    stride: 1
    weight_filler {
      type: "msra"
    }
    bias_filler {
      type: "constant"
    }
  }
}
layer {
  name: "L2_b4_cbr2_bn"
  type: "BatchNorm"
  bottom: "L2_b4_cbr2_conv_top"
  top: "L2_b4_cbr2_bn_top"
  include {
    phase: TRAIN
  }
  batch_norm_param {
    use_global_stats: false
    moving_average_fraction: 0.999
  }
}
layer {
  name: "L2_b4_cbr2_scale"
  type: "Scale"
  bottom: "L2_b4_cbr2_bn_top"
  top: "L2_b4_cbr2_bn_top"
  scale_param {
    bias_term: true
  }
}
layer {
  name: "L2_b4_sum_eltwise"
  type: "Eltwise"
  bottom: "L2_b4_cbr2_bn_top"
  bottom: "L2_b3_sum_eltwise_top"
  top: "L2_b4_sum_eltwise_top"
  eltwise_param {
    operation: SUM
  }
}
layer {
  name: "L2_b4_relu"
  type: "ReLU"
  bottom: "L2_b4_sum_eltwise_top"
  top: "L2_b4_sum_eltwise_top"
}
layer {
  name: "L2_b5_cbr1_conv"
  type: "Convolution"
  bottom: "L2_b4_sum_eltwise_top"
  top: "L2_b5_cbr1_conv_top"
  param {
    lr_mult: 1
    decay_mult: 1
  }
  param {
    lr_mult: 2
    decay_mult: 0
  }
  convolution_param {
    num_output: 32
    pad: 1
    kernel_size: 3
    stride: 1
    weight_filler {
      type: "msra"
    }
    bias_filler {
      type: "constant"
    }
  }
}
layer {
  name: "L2_b5_cbr1_bn"
  type: "BatchNorm"
  bottom: "L2_b5_cbr1_conv_top"
  top: "L2_b5_cbr1_bn_top"
  include {
    phase: TRAIN
  }
  batch_norm_param {
    use_global_stats: false
    moving_average_fraction: 0.999
  }
}
layer {
  name: "L2_b5_cbr1_scale"
  type: "Scale"
  bottom: "L2_b5_cbr1_bn_top"
  top: "L2_b5_cbr1_bn_top"
  scale_param {
    bias_term: true
  }
}
layer {
  name: "L2_b5_cbr1_relu"
  type: "ReLU"
  bottom: "L2_b5_cbr1_bn_top"
  top: "L2_b5_cbr1_bn_top"
}
layer {
  name: "L2_b5_cbr2_conv"
  type: "Convolution"
  bottom: "L2_b5_cbr1_bn_top"
  top: "L2_b5_cbr2_conv_top"
  param {
    lr_mult: 1
    decay_mult: 1
  }
  param {
    lr_mult: 2
    decay_mult: 0
  }
  convolution_param {
    num_output: 32
    pad: 1
    kernel_size: 3
    stride: 1
    weight_filler {
      type: "msra"
    }
    bias_filler {
      type: "constant"
    }
  }
}
layer {
  name: "L2_b5_cbr2_bn"
  type: "BatchNorm"
  bottom: "L2_b5_cbr2_conv_top"
  top: "L2_b5_cbr2_bn_top"
  include {
    phase: TRAIN
  }
  batch_norm_param {
    use_global_stats: false
    moving_average_fraction: 0.999
  }
}
layer {
  name: "L2_b5_cbr2_scale"
  type: "Scale"
  bottom: "L2_b5_cbr2_bn_top"
  top: "L2_b5_cbr2_bn_top"
  scale_param {
    bias_term: true
  }
}
layer {
  name: "L2_b5_sum_eltwise"
  type: "Eltwise"
  bottom: "L2_b5_cbr2_bn_top"
  bottom: "L2_b4_sum_eltwise_top"
  top: "L2_b5_sum_eltwise_top"
  eltwise_param {
    operation: SUM
  }
}
layer {
  name: "L2_b5_relu"
  type: "ReLU"
  bottom: "L2_b5_sum_eltwise_top"
  top: "L2_b5_sum_eltwise_top"
}
layer {
  name: "L2_b6_cbr1_conv"
  type: "Convolution"
  bottom: "L2_b5_sum_eltwise_top"
  top: "L2_b6_cbr1_conv_top"
  param {
    lr_mult: 1
    decay_mult: 1
  }
  param {
    lr_mult: 2
    decay_mult: 0
  }
  convolution_param {
    num_output: 32
    pad: 1
    kernel_size: 3
    stride: 1
    weight_filler {
      type: "msra"
    }
    bias_filler {
      type: "constant"
    }
  }
}
layer {
  name: "L2_b6_cbr1_bn"
  type: "BatchNorm"
  bottom: "L2_b6_cbr1_conv_top"
  top: "L2_b6_cbr1_bn_top"
  include {
    phase: TRAIN
  }
  batch_norm_param {
    use_global_stats: false
    moving_average_fraction: 0.9
I0821 08:26:51.348577 32487 layer_factory.hpp:77] Creating layer dataLayer
I0821 08:26:51.350949 32487 net.cpp:100] Creating Layer dataLayer
I0821 08:26:51.351004 32487 net.cpp:408] dataLayer -> data_top
I0821 08:26:51.351199 32487 net.cpp:408] dataLayer -> label
I0821 08:26:51.351312 32487 data_transformer.cpp:25] Loading mean file from: examples/cifar10/mean.binaryproto
I0821 08:26:51.430696 32492 db_lmdb.cpp:35] Opened lmdb examples/cifar10/cifar10_train30k_lmdb
I0821 08:26:51.431208 32487 data_layer.cpp:41] output data size: 125,3,32,32
I0821 08:26:51.438661 32487 net.cpp:150] Setting up dataLayer
I0821 08:26:51.438730 32487 net.cpp:157] Top shape: 125 3 32 32 (384000)
I0821 08:26:51.438743 32487 net.cpp:157] Top shape: 125 (125)
I0821 08:26:51.438750 32487 net.cpp:165] Memory required for data: 1536500
I0821 08:26:51.438765 32487 layer_factory.hpp:77] Creating layer label_dataLayer_1_split
I0821 08:26:51.438781 32487 net.cpp:100] Creating Layer label_dataLayer_1_split
I0821 08:26:51.438788 32487 net.cpp:434] label_dataLayer_1_split <- label
I0821 08:26:51.438805 32487 net.cpp:408] label_dataLayer_1_split -> label_dataLayer_1_split_0
I0821 08:26:51.438820 32487 net.cpp:408] label_dataLayer_1_split -> label_dataLayer_1_split_1
I0821 08:26:51.438891 32487 net.cpp:150] Setting up label_dataLayer_1_split
I0821 08:26:51.438908 32487 net.cpp:157] Top shape: 125 (125)
I0821 08:26:51.438915 32487 net.cpp:157] Top shape: 125 (125)
I0821 08:26:51.438920 32487 net.cpp:165] Memory required for data: 1537500
I0821 08:26:51.438926 32487 layer_factory.hpp:77] Creating layer pre_conv
I0821 08:26:51.438992 32487 net.cpp:100] Creating Layer pre_conv
I0821 08:26:51.439005 32487 net.cpp:434] pre_conv <- data_top
I0821 08:26:51.439015 32487 net.cpp:408] pre_conv -> pre_conv_top
I0821 08:26:51.440860 32487 net.cpp:150] Setting up pre_conv
I0821 08:26:51.440879 32487 net.cpp:157] Top shape: 125 16 32 32 (2048000)
I0821 08:26:51.440886 32487 net.cpp:165] Memory required for data: 9729500
I0821 08:26:51.440963 32487 layer_factory.hpp:77] Creating layer pre_bn
I0821 08:26:51.441041 32487 net.cpp:100] Creating Layer pre_bn
I0821 08:26:51.441054 32487 net.cpp:434] pre_bn <- pre_conv_top
I0821 08:26:51.441064 32487 net.cpp:408] pre_bn -> pre_bn_top
I0821 08:26:51.441159 32493 blocking_queue.cpp:50] Waiting for data
I0821 08:26:51.441413 32487 net.cpp:150] Setting up pre_bn
I0821 08:26:51.441431 32487 net.cpp:157] Top shape: 125 16 32 32 (2048000)
I0821 08:26:51.441437 32487 net.cpp:165] Memory required for data: 17921500
I0821 08:26:51.441455 32487 layer_factory.hpp:77] Creating layer pre_scale
I0821 08:26:51.441509 32487 net.cpp:100] Creating Layer pre_scale
I0821 08:26:51.441519 32487 net.cpp:434] pre_scale <- pre_bn_top
I0821 08:26:51.441530 32487 net.cpp:395] pre_scale -> pre_bn_top (in-place)
I0821 08:26:51.441707 32487 layer_factory.hpp:77] Creating layer pre_scale
I0821 08:26:51.444936 32487 net.cpp:150] Setting up pre_scale
I0821 08:26:51.444953 32487 net.cpp:157] Top shape: 125 16 32 32 (2048000)
I0821 08:26:51.444959 32487 net.cpp:165] Memory required for data: 26113500
I0821 08:26:51.444970 32487 layer_factory.hpp:77] Creating layer pre_relu
I0821 08:26:51.445019 32487 net.cpp:100] Creating Layer pre_relu
I0821 08:26:51.445029 32487 net.cpp:434] pre_relu <- pre_bn_top
I0821 08:26:51.445040 32487 net.cpp:395] pre_relu -> pre_bn_top (in-place)
I0821 08:26:51.445052 32487 net.cpp:150] Setting up pre_relu
I0821 08:26:51.445060 32487 net.cpp:157] Top shape: 125 16 32 32 (2048000)
I0821 08:26:51.445065 32487 net.cpp:165] Memory required for data: 34305500
I0821 08:26:51.445070 32487 layer_factory.hpp:77] Creating layer pre_bn_top_pre_relu_0_split
I0821 08:26:51.445078 32487 net.cpp:100] Creating Layer pre_bn_top_pre_relu_0_split
I0821 08:26:51.445083 32487 net.cpp:434] pre_bn_top_pre_relu_0_split <- pre_bn_top
I0821 08:26:51.445094 32487 net.cpp:408] pre_bn_top_pre_relu_0_split -> pre_bn_top_pre_relu_0_split_0
I0821 08:26:51.445106 32487 net.cpp:408] pre_bn_top_pre_relu_0_split -> pre_bn_top_pre_relu_0_split_1
I0821 08:26:51.445153 32487 net.cpp:150] Setting up pre_bn_top_pre_relu_0_split
I0821 08:26:51.445166 32487 net.cpp:157] Top shape: 125 16 32 32 (2048000)
I0821 08:26:51.445173 32487 net.cpp:157] Top shape: 125 16 32 32 (2048000)
I0821 08:26:51.445178 32487 net.cpp:165] Memory required for data: 50689500
I0821 08:26:51.445184 32487 layer_factory.hpp:77] Creating layer L1_b1_cbr1_conv
I0821 08:26:51.445196 32487 net.cpp:100] Creating Layer L1_b1_cbr1_conv
I0821 08:26:51.445202 32487 net.cpp:434] L1_b1_cbr1_conv <- pre_bn_top_pre_relu_0_split_0
I0821 08:26:51.445214 32487 net.cpp:408] L1_b1_cbr1_conv -> L1_b1_cbr1_conv_top
I0821 08:26:51.445533 32487 net.cpp:150] Setting up L1_b1_cbr1_conv
I0821 08:26:51.445549 32487 net.cpp:157] Top shape: 125 16 32 32 (2048000)
I0821 08:26:51.445555 32487 net.cpp:165] Memory required for data: 58881500
I0821 08:26:51.445567 32487 layer_factory.hpp:77] Creating layer L1_b1_cbr1_bn
I0821 08:26:51.445582 32487 net.cpp:100] Creating Layer L1_b1_cbr1_bn
I0821 08:26:51.445588 32487 net.cpp:434] L1_b1_cbr1_bn <- L1_b1_cbr1_conv_top
I0821 08:26:51.445597 32487 net.cpp:408] L1_b1_cbr1_bn -> L1_b1_cbr1_bn_top
I0821 08:26:51.445827 32487 net.cpp:150] Setting up L1_b1_cbr1_bn
I0821 08:26:51.445842 32487 net.cpp:157] Top shape: 125 16 32 32 (2048000)
I0821 08:26:51.445848 32487 net.cpp:165] Memory required for data: 67073500
I0821 08:26:51.445859 32487 layer_factory.hpp:77] Creating layer L1_b1_cbr1_scale
I0821 08:26:51.445868 32487 net.cpp:100] Creating Layer L1_b1_cbr1_scale
I0821 08:26:51.445874 32487 net.cpp:434] L1_b1_cbr1_scale <- L1_b1_cbr1_bn_top
I0821 08:26:51.445883 32487 net.cpp:395] L1_b1_cbr1_scale -> L1_b1_cbr1_bn_top (in-place)
I0821 08:26:51.445937 32487 layer_factory.hpp:77] Creating layer L1_b1_cbr1_scale
I0821 08:26:51.446080 32487 net.cpp:150] Setting up L1_b1_cbr1_scale
I0821 08:26:51.446094 32487 net.cpp:157] Top shape: 125 16 32 32 (2048000)
I0821 08:26:51.446099 32487 net.cpp:165] Memory required for data: 75265500
I0821 08:26:51.446108 32487 layer_factory.hpp:77] Creating layer L1_b1_cbr1_relu
I0821 08:26:51.446127 32487 net.cpp:100] Creating Layer L1_b1_cbr1_relu
I0821 08:26:51.446135 32487 net.cpp:434] L1_b1_cbr1_relu <- L1_b1_cbr1_bn_top
I0821 08:26:51.446142 32487 net.cpp:395] L1_b1_cbr1_relu -> L1_b1_cbr1_bn_top (in-place)
I0821 08:26:51.446157 32487 net.cpp:150] Setting up L1_b1_cbr1_relu
I0821 08:26:51.446164 32487 net.cpp:157] Top shape: 125 16 32 32 (2048000)
I0821 08:26:51.446169 32487 net.cpp:165] Memory required for data: 83457500
I0821 08:26:51.446174 32487 layer_factory.hpp:77] Creating layer L1_b1_cbr2_conv
I0821 08:26:51.446187 32487 net.cpp:100] Creating Layer L1_b1_cbr2_conv
I0821 08:26:51.446192 32487 net.cpp:434] L1_b1_cbr2_conv <- L1_b1_cbr1_bn_top
I0821 08:26:51.446203 32487 net.cpp:408] L1_b1_cbr2_conv -> L1_b1_cbr2_conv_top
I0821 08:26:51.446511 32487 net.cpp:150] Setting up L1_b1_cbr2_conv
I0821 08:26:51.446526 32487 net.cpp:157] Top shape: 125 16 32 32 (2048000)
I0821 08:26:51.446532 32487 net.cpp:165] Memory required for data: 91649500
I0821 08:26:51.446540 32487 layer_factory.hpp:77] Creating layer L1_b1_cbr2_bn
I0821 08:26:51.446550 32487 net.cpp:100] Creating Layer L1_b1_cbr2_bn
I0821 08:26:51.446557 32487 net.cpp:434] L1_b1_cbr2_bn <- L1_b1_cbr2_conv_top
I0821 08:26:51.446568 32487 net.cpp:408] L1_b1_cbr2_bn -> L1_b1_cbr2_bn_top
I0821 08:26:51.446799 32487 net.cpp:150] Setting up L1_b1_cbr2_bn
I0821 08:26:51.446813 32487 net.cpp:157] Top shape: 125 16 32 32 (2048000)
I0821 08:26:51.446818 32487 net.cpp:165] Memory required for data: 99841500
I0821 08:26:51.446835 32487 layer_factory.hpp:77] Creating layer L1_b1_cbr2_scale
I0821 08:26:51.446846 32487 net.cpp:100] Creating Layer L1_b1_cbr2_scale
I0821 08:26:51.446851 32487 net.cpp:434] L1_b1_cbr2_scale <- L1_b1_cbr2_bn_top
I0821 08:26:51.446859 32487 net.cpp:395] L1_b1_cbr2_scale -> L1_b1_cbr2_bn_top (in-place)
I0821 08:26:51.446915 32487 layer_factory.hpp:77] Creating layer L1_b1_cbr2_scale
I0821 08:26:51.447054 32487 net.cpp:150] Setting up L1_b1_cbr2_scale
I0821 08:26:51.447067 32487 net.cpp:157] Top shape: 125 16 32 32 (2048000)
I0821 08:26:51.447073 32487 net.cpp:165] Memory required for data: 108033500
I0821 08:26:51.447082 32487 layer_factory.hpp:77] Creating layer L1_b1_sum_eltwise
I0821 08:26:51.447139 32487 net.cpp:100] Creating Layer L1_b1_sum_eltwise
I0821 08:26:51.447150 32487 net.cpp:434] L1_b1_sum_eltwise <- L1_b1_cbr2_bn_top
I0821 08:26:51.447158 32487 net.cpp:434] L1_b1_sum_eltwise <- pre_bn_top_pre_relu_0_split_1
I0821 08:26:51.447170 32487 net.cpp:408] L1_b1_sum_eltwise -> L1_b1_sum_eltwise_top
I0821 08:26:51.447248 32487 net.cpp:150] Setting up L1_b1_sum_eltwise
I0821 08:26:51.447269 32487 net.cpp:157] Top shape: 125 16 32 32 (2048000)
I0821 08:26:51.447275 32487 net.cpp:165] Memory required for data: 116225500
I0821 08:26:51.447281 32487 layer_factory.hpp:77] Creating layer L1_b1_relu
I0821 08:26:51.447294 32487 net.cpp:100] Creating Layer L1_b1_relu
I0821 08:26:51.447300 32487 net.cpp:434] L1_b1_relu <- L1_b1_sum_eltwise_top
I0821 08:26:51.447309 32487 net.cpp:395] L1_b1_relu -> L1_b1_sum_eltwise_top (in-place)
I0821 08:26:51.447319 32487 net.cpp:150] Setting up L1_b1_relu
I0821 08:26:51.447326 32487 net.cpp:157] Top shape: 125 16 32 32 (2048000)
I0821 08:26:51.447330 32487 net.cpp:165] Memory required for data: 124417500
I0821 08:26:51.447335 32487 layer_factory.hpp:77] Creating layer L1_b1_sum_eltwise_top_L1_b1_relu_0_split
I0821 08:26:51.447345 32487 net.cpp:100] Creating Layer L1_b1_sum_eltwise_top_L1_b1_relu_0_split
I0821 08:26:51.447350 32487 net.cpp:434] L1_b1_sum_eltwise_top_L1_b1_relu_0_split <- L1_b1_sum_eltwise_top
I0821 08:26:51.447357 32487 net.cpp:408] L1_b1_sum_eltwise_top_L1_b1_relu_0_split -> L1_b1_sum_eltwise_top_L1_b1_relu_0_split_0
I0821 08:26:51.447366 32487 net.cpp:408] L1_b1_sum_eltwise_top_L1_b1_relu_0_split -> L1_b1_sum_eltwise_top_L1_b1_relu_0_split_1
I0821 08:26:51.447418 32487 net.cpp:150] Setting up L1_b1_sum_eltwise_top_L1_b1_relu_0_split
I0821 08:26:51.447432 32487 net.cpp:157] Top shape: 125 16 32 32 (2048000)
I0821 08:26:51.447438 32487 net.cpp:157] Top shape: 125 16 32 32 (2048000)
I0821 08:26:51.447450 32487 net.cpp:165] Memory required for data: 140801500
I0821 08:26:51.447456 32487 layer_factory.hpp:77] Creating layer L1_b2_cbr1_conv
I0821 08:26:51.447470 32487 net.cpp:100] Creating Layer L1_b2_cbr1_conv
I0821 08:26:51.447477 32487 net.cpp:434] L1_b2_cbr1_conv <- L1_b1_sum_eltwise_top_L1_b1_relu_0_split_0
I0821 08:26:51.447487 32487 net.cpp:408] L1_b2_cbr1_conv -> L1_b2_cbr1_conv_top
I0821 08:26:51.447794 32487 net.cpp:150] Setting up L1_b2_cbr1_conv
I0821 08:26:51.447808 32487 net.cpp:157] Top shape: 125 16 32 32 (2048000)
I0821 08:26:51.447813 32487 net.cpp:165] Memory required for data: 148993500
I0821 08:26:51.447824 32487 layer_factory.hpp:77] Creating layer L1_b2_cbr1_bn
I0821 08:26:51.447839 32487 net.cpp:100] Creating Layer L1_b2_cbr1_bn
I0821 08:26:51.447846 32487 net.cpp:434] L1_b2_cbr1_bn <- L1_b2_cbr1_conv_top
I0821 08:26:51.447857 32487 net.cpp:408] L1_b2_cbr1_bn -> L1_b2_cbr1_bn_top
I0821 08:26:51.448097 32487 net.cpp:150] Setting up L1_b2_cbr1_bn
I0821 08:26:51.448112 32487 net.cpp:157] Top shape: 125 16 32 32 (2048000)
I0821 08:26:51.448117 32487 net.cpp:165] Memory required for data: 157185500
I0821 08:26:51.448127 32487 layer_factory.hpp:77] Creating layer L1_b2_cbr1_scale
I0821 08:26:51.448137 32487 net.cpp:100] Creating Layer L1_b2_cbr1_scale
I0821 08:26:51.448143 32487 net.cpp:434] L1_b2_cbr1_scale <- L1_b2_cbr1_bn_top
I0821 08:26:51.448153 32487 net.cpp:395] L1_b2_cbr1_scale -> L1_b2_cbr1_bn_top (in-place)
I0821 08:26:51.448207 32487 layer_factory.hpp:77] Creating layer L1_b2_cbr1_scale
I0821 08:26:51.448359 32487 net.cpp:150] Setting up L1_b2_cbr1_scale
I0821 08:26:51.448376 32487 net.cpp:157] Top shape: 125 16 32 32 (2048000)
I0821 08:26:51.448382 32487 net.cpp:165] Memory required for data: 165377500
I0821 08:26:51.448392 32487 layer_factory.hpp:77] Creating layer L1_b2_cbr1_relu
I0821 08:26:51.448400 32487 net.cpp:100] Creating Layer L1_b2_cbr1_relu
I0821 08:26:51.448406 32487 net.cpp:434] L1_b2_cbr1_relu <- L1_b2_cbr1_bn_top
I0821 08:26:51.448415 32487 net.cpp:395] L1_b2_cbr1_relu -> L1_b2_cbr1_bn_top (in-place)
I0821 08:26:51.448423 32487 net.cpp:150] Setting up L1_b2_cbr1_relu
I0821 08:26:51.448431 32487 net.cpp:157] Top shape: 125 16 32 32 (2048000)
I0821 08:26:51.448436 32487 net.cpp:165] Memory required for data: 173569500
I0821 08:26:51.448441 32487 layer_factory.hpp:77] Creating layer L1_b2_cbr2_conv
I0821 08:26:51.448454 32487 net.cpp:100] Creating Layer L1_b2_cbr2_conv
I0821 08:26:51.448462 32487 net.cpp:434] L1_b2_cbr2_conv <- L1_b2_cbr1_bn_top
I0821 08:26:51.448472 32487 net.cpp:408] L1_b2_cbr2_conv -> L1_b2_cbr2_conv_top
I0821 08:26:51.448777 32487 net.cpp:150] Setting up L1_b2_cbr2_conv
I0821 08:26:51.448791 32487 net.cpp:157] Top shape: 125 16 32 32 (2048000)
I0821 08:26:51.448796 32487 net.cpp:165] Memory required for data: 181761500
I0821 08:26:51.448806 32487 layer_factory.hpp:77] Creating layer L1_b2_cbr2_bn
I0821 08:26:51.448817 32487 net.cpp:100] Creating Layer L1_b2_cbr2_bn
I0821 08:26:51.448824 32487 net.cpp:434] L1_b2_cbr2_bn <- L1_b2_cbr2_conv_top
I0821 08:26:51.448835 32487 net.cpp:408] L1_b2_cbr2_bn -> L1_b2_cbr2_bn_top
I0821 08:26:51.449076 32487 net.cpp:150] Setting up L1_b2_cbr2_bn
I0821 08:26:51.449090 32487 net.cpp:157] Top shape: 125 16 32 32 (2048000)
I0821 08:26:51.449095 32487 net.cpp:165] Memory required for data: 189953500
I0821 08:26:51.449110 32487 layer_factory.hpp:77] Creating layer L1_b2_cbr2_scale
I0821 08:26:51.449122 32487 net.cpp:100] Creating Layer L1_b2_cbr2_scale
I0821 08:26:51.449129 32487 net.cpp:434] L1_b2_cbr2_scale <- L1_b2_cbr2_bn_top
I0821 08:26:51.449137 32487 net.cpp:395] L1_b2_cbr2_scale -> L1_b2_cbr2_bn_top (in-place)
I0821 08:26:51.449193 32487 layer_factory.hpp:77] Creating layer L1_b2_cbr2_scale
I0821 08:26:51.449340 32487 net.cpp:150] Setting up L1_b2_cbr2_scale
I0821 08:26:51.449354 32487 net.cpp:157] Top shape: 125 16 32 32 (2048000)
I0821 08:26:51.449360 32487 net.cpp:165] Memory required for data: 198145500
I0821 08:26:51.449369 32487 layer_factory.hpp:77] Creating layer L1_b2_sum_eltwise
I0821 08:26:51.449386 32487 net.cpp:100] Creating Layer L1_b2_sum_eltwise
I0821 08:26:51.449393 32487 net.cpp:434] L1_b2_sum_eltwise <- L1_b2_cbr2_bn_top
I0821 08:26:51.449400 32487 net.cpp:434] L1_b2_sum_eltwise <- L1_b1_sum_eltwise_top_L1_b1_relu_0_split_1
I0821 08:26:51.449410 32487 net.cpp:408] L1_b2_sum_eltwise -> L1_b2_sum_eltwise_top
I0821 08:26:51.449445 32487 net.cpp:150] Setting up L1_b2_sum_eltwise
I0821 08:26:51.449458 32487 net.cpp:157] Top shape: 125 16 32 32 (2048000)
I0821 08:26:51.449463 32487 net.cpp:165] Memory required for data: 206337500
I0821 08:26:51.449468 32487 layer_factory.hpp:77] Creating layer L1_b2_relu
I0821 08:26:51.449476 32487 net.cpp:100] Creating Layer L1_b2_relu
I0821 08:26:51.449481 32487 net.cpp:434] L1_b2_relu <- L1_b2_sum_eltwise_top
I0821 08:26:51.449488 32487 net.cpp:395] L1_b2_relu -> L1_b2_sum_eltwise_top (in-place)
I0821 08:26:51.449501 32487 net.cpp:150] Setting up L1_b2_relu
I0821 08:26:51.449508 32487 net.cpp:157] Top shape: 125 16 32 32 (2048000)
I0821 08:26:51.449513 32487 net.cpp:165] Memory required for data: 214529500
I0821 08:26:51.449518 32487 layer_factory.hpp:77] Creating layer L1_b2_sum_eltwise_top_L1_b2_relu_0_split
I0821 08:26:51.449525 32487 net.cpp:100] Creating Layer L1_b2_sum_eltwise_top_L1_b2_relu_0_split
I0821 08:26:51.449532 32487 net.cpp:434] L1_b2_sum_eltwise_top_L1_b2_relu_0_split <- L1_b2_sum_eltwise_top
I0821 08:26:51.449538 32487 net.cpp:408] L1_b2_sum_eltwise_top_L1_b2_relu_0_split -> L1_b2_sum_eltwise_top_L1_b2_relu_0_split_0
I0821 08:26:51.449548 32487 net.cpp:408] L1_b2_sum_eltwise_top_L1_b2_relu_0_split -> L1_b2_sum_eltwise_top_L1_b2_relu_0_split_1
I0821 08:26:51.449591 32487 net.cpp:150] Setting up L1_b2_sum_eltwise_top_L1_b2_relu_0_split
I0821 08:26:51.449604 32487 net.cpp:157] Top shape: 125 16 32 32 (2048000)
I0821 08:26:51.449610 32487 net.cpp:157] Top shape: 125 16 32 32 (2048000)
I0821 08:26:51.449615 32487 net.cpp:165] Memory required for data: 230913500
I0821 08:26:51.449620 32487 layer_factory.hpp:77] Creating layer L1_b3_cbr1_conv
I0821 08:26:51.449631 32487 net.cpp:100] Creating Layer L1_b3_cbr1_conv
I0821 08:26:51.449638 32487 net.cpp:434] L1_b3_cbr1_conv <- L1_b2_sum_eltwise_top_L1_b2_relu_0_split_0
I0821 08:26:51.449651 32487 net.cpp:408] L1_b3_cbr1_conv -> L1_b3_cbr1_conv_top
I0821 08:26:51.449951 32487 net.cpp:150] Setting up L1_b3_cbr1_conv
I0821 08:26:51.449965 32487 net.cpp:157] Top shape: 125 16 32 32 (2048000)
I0821 08:26:51.449970 32487 net.cpp:165] Memory required for data: 239105500
I0821 08:26:51.449980 32487 layer_factory.hpp:77] Creating layer L1_b3_cbr1_bn
I0821 08:26:51.449990 32487 net.cpp:100] Creating Layer L1_b3_cbr1_bn
I0821 08:26:51.449995 32487 net.cpp:434] L1_b3_cbr1_bn <- L1_b3_cbr1_conv_top
I0821 08:26:51.450006 32487 net.cpp:408] L1_b3_cbr1_bn -> L1_b3_cbr1_bn_top
I0821 08:26:51.450244 32487 net.cpp:150] Setting up L1_b3_cbr1_bn
I0821 08:26:51.450263 32487 net.cpp:157] Top shape: 125 16 32 32 (2048000)
I0821 08:26:51.450268 32487 net.cpp:165] Memory required for data: 247297500
I0821 08:26:51.450279 32487 layer_factory.hpp:77] Creating layer L1_b3_cbr1_scale
I0821 08:26:51.450292 32487 net.cpp:100] Creating Layer L1_b3_cbr1_scale
I0821 08:26:51.450299 32487 net.cpp:434] L1_b3_cbr1_scale <- L1_b3_cbr1_bn_top
I0821 08:26:51.450306 32487 net.cpp:395] L1_b3_cbr1_scale -> L1_b3_cbr1_bn_top (in-place)
I0821 08:26:51.450358 32487 layer_factory.hpp:77] Creating layer L1_b3_cbr1_scale
I0821 08:26:51.450502 32487 net.cpp:150] Setting up L1_b3_cbr1_scale
I0821 08:26:51.450515 32487 net.cpp:157] Top shape: 125 16 32 32 (2048000)
I0821 08:26:51.450521 32487 net.cpp:165] Memory required for data: 255489500
I0821 08:26:51.450531 32487 layer_factory.hpp:77] Creating layer L1_b3_cbr1_relu
I0821 08:26:51.450538 32487 net.cpp:100] Creating Layer L1_b3_cbr1_relu
I0821 08:26:51.450544 32487 net.cpp:434] L1_b3_cbr1_relu <- L1_b3_cbr1_bn_top
I0821 08:26:51.450554 32487 net.cpp:395] L1_b3_cbr1_relu -> L1_b3_cbr1_bn_top (in-place)
I0821 08:26:51.450565 32487 net.cpp:150] Setting up L1_b3_cbr1_relu
I0821 08:26:51.450579 32487 net.cpp:157] Top shape: 125 16 32 32 (2048000)
I0821 08:26:51.450584 32487 net.cpp:165] Memory required for data: 263681500
I0821 08:26:51.450589 32487 layer_factory.hpp:77] Creating layer L1_b3_cbr2_conv
I0821 08:26:51.450604 32487 net.cpp:100] Creating Layer L1_b3_cbr2_conv
I0821 08:26:51.450610 32487 net.cpp:434] L1_b3_cbr2_conv <- L1_b3_cbr1_bn_top
I0821 08:26:51.450619 32487 net.cpp:408] L1_b3_cbr2_conv -> L1_b3_cbr2_conv_top
I0821 08:26:51.450925 32487 net.cpp:150] Setting up L1_b3_cbr2_conv
I0821 08:26:51.450939 32487 net.cpp:157] Top shape: 125 16 32 32 (2048000)
I0821 08:26:51.450944 32487 net.cpp:165] Memory required for data: 271873500
I0821 08:26:51.450953 32487 layer_factory.hpp:77] Creating layer L1_b3_cbr2_bn
I0821 08:26:51.450968 32487 net.cpp:100] Creating Layer L1_b3_cbr2_bn
I0821 08:26:51.450975 32487 net.cpp:434] L1_b3_cbr2_bn <- L1_b3_cbr2_conv_top
I0821 08:26:51.450989 32487 net.cpp:408] L1_b3_cbr2_bn -> L1_b3_cbr2_bn_top
I0821 08:26:51.451227 32487 net.cpp:150] Setting up L1_b3_cbr2_bn
I0821 08:26:51.451241 32487 net.cpp:157] Top shape: 125 16 32 32 (2048000)
I0821 08:26:51.451246 32487 net.cpp:165] Memory required for data: 280065500
I0821 08:26:51.451263 32487 layer_factory.hpp:77] Creating layer L1_b3_cbr2_scale
I0821 08:26:51.451275 32487 net.cpp:100] Creating Layer L1_b3_cbr2_scale
I0821 08:26:51.451282 32487 net.cpp:434] L1_b3_cbr2_scale <- L1_b3_cbr2_bn_top
I0821 08:26:51.451290 32487 net.cpp:395] L1_b3_cbr2_scale -> L1_b3_cbr2_bn_top (in-place)
I0821 08:26:51.451344 32487 layer_factory.hpp:77] Creating layer L1_b3_cbr2_scale
I0821 08:26:51.451483 32487 net.cpp:150] Setting up L1_b3_cbr2_scale
I0821 08:26:51.451496 32487 net.cpp:157] Top shape: 125 16 32 32 (2048000)
I0821 08:26:51.451501 32487 net.cpp:165] Memory required for data: 288257500
I0821 08:26:51.451510 32487 layer_factory.hpp:77] Creating layer L1_b3_sum_eltwise
I0821 08:26:51.451522 32487 net.cpp:100] Creating Layer L1_b3_sum_eltwise
I0821 08:26:51.451529 32487 net.cpp:434] L1_b3_sum_eltwise <- L1_b3_cbr2_bn_top
I0821 08:26:51.451536 32487 net.cpp:434] L1_b3_sum_eltwise <- L1_b2_sum_eltwise_top_L1_b2_relu_0_split_1
I0821 08:26:51.451545 32487 net.cpp:408] L1_b3_sum_eltwise -> L1_b3_sum_eltwise_top
I0821 08:26:51.451578 32487 net.cpp:150] Setting up L1_b3_sum_eltwise
I0821 08:26:51.451591 32487 net.cpp:157] Top shape: 125 16 32 32 (2048000)
I0821 08:26:51.451596 32487 net.cpp:165] Memory required for data: 296449500
I0821 08:26:51.451601 32487 layer_factory.hpp:77] Creating layer L1_b3_relu
I0821 08:26:51.451608 32487 net.cpp:100] Creating Layer L1_b3_relu
I0821 08:26:51.451614 32487 net.cpp:434] L1_b3_relu <- L1_b3_sum_eltwise_top
I0821 08:26:51.451624 32487 net.cpp:395] L1_b3_relu -> L1_b3_sum_eltwise_top (in-place)
I0821 08:26:51.451634 32487 net.cpp:150] Setting up L1_b3_relu
I0821 08:26:51.451642 32487 net.cpp:157] Top shape: 125 16 32 32 (2048000)
I0821 08:26:51.451647 32487 net.cpp:165] Memory required for data: 304641500
I0821 08:26:51.451652 32487 layer_factory.hpp:77] Creating layer L1_b3_sum_eltwise_top_L1_b3_relu_0_split
I0821 08:26:51.451658 32487 net.cpp:100] Creating Layer L1_b3_sum_eltwise_top_L1_b3_relu_0_split
I0821 08:26:51.451664 32487 net.cpp:434] L1_b3_sum_eltwise_top_L1_b3_relu_0_split <- L1_b3_sum_eltwise_top
I0821 08:26:51.451671 32487 net.cpp:408] L1_b3_sum_eltwise_top_L1_b3_relu_0_split -> L1_b3_sum_eltwise_top_L1_b3_relu_0_split_0
I0821 08:26:51.451681 32487 net.cpp:408] L1_b3_sum_eltwise_top_L1_b3_relu_0_split -> L1_b3_sum_eltwise_top_L1_b3_relu_0_split_1
I0821 08:26:51.451727 32487 net.cpp:150] Setting up L1_b3_sum_eltwise_top_L1_b3_relu_0_split
I0821 08:26:51.451740 32487 net.cpp:157] Top shape: 125 16 32 32 (2048000)
I0821 08:26:51.451746 32487 net.cpp:157] Top shape: 125 16 32 32 (2048000)
I0821 08:26:51.451751 32487 net.cpp:165] Memory required for data: 321025500
I0821 08:26:51.451757 32487 layer_factory.hpp:77] Creating layer L1_b4_cbr1_conv
I0821 08:26:51.451768 32487 net.cpp:100] Creating Layer L1_b4_cbr1_conv
I0821 08:26:51.451774 32487 net.cpp:434] L1_b4_cbr1_conv <- L1_b3_sum_eltwise_top_L1_b3_relu_0_split_0
I0821 08:26:51.451797 32487 net.cpp:408] L1_b4_cbr1_conv -> L1_b4_cbr1_conv_top
I0821 08:26:51.452107 32487 net.cpp:150] Setting up L1_b4_cbr1_conv
I0821 08:26:51.452121 32487 net.cpp:157] Top shape: 125 16 32 32 (2048000)
I0821 08:26:51.452126 32487 net.cpp:165] Memory required for data: 329217500
I0821 08:26:51.452136 32487 layer_factory.hpp:77] Creating layer L1_b4_cbr1_bn
I0821 08:26:51.452144 32487 net.cpp:100] Creating Layer L1_b4_cbr1_bn
I0821 08:26:51.452150 32487 net.cpp:434] L1_b4_cbr1_bn <- L1_b4_cbr1_conv_top
I0821 08:26:51.452162 32487 net.cpp:408] L1_b4_cbr1_bn -> L1_b4_cbr1_bn_top
I0821 08:26:51.452411 32487 net.cpp:150] Setting up L1_b4_cbr1_bn
I0821 08:26:51.452425 32487 net.cpp:157] Top shape: 125 16 32 32 (2048000)
I0821 08:26:51.452430 32487 net.cpp:165] Memory required for data: 337409500
I0821 08:26:51.452440 32487 layer_factory.hpp:77] Creating layer L1_b4_cbr1_scale
I0821 08:26:51.452452 32487 net.cpp:100] Creating Layer L1_b4_cbr1_scale
I0821 08:26:51.452460 32487 net.cpp:434] L1_b4_cbr1_scale <- L1_b4_cbr1_bn_top
I0821 08:26:51.452467 32487 net.cpp:395] L1_b4_cbr1_scale -> L1_b4_cbr1_bn_top (in-place)
I0821 08:26:51.452522 32487 layer_factory.hpp:77] Creating layer L1_b4_cbr1_scale
I0821 08:26:51.452667 32487 net.cpp:150] Setting up L1_b4_cbr1_scale
I0821 08:26:51.452680 32487 net.cpp:157] Top shape: 125 16 32 32 (2048000)
I0821 08:26:51.452685 32487 net.cpp:165] Memory required for data: 345601500
I0821 08:26:51.452695 32487 layer_factory.hpp:77] Creating layer L1_b4_cbr1_relu
I0821 08:26:51.452706 32487 net.cpp:100] Creating Layer L1_b4_cbr1_relu
I0821 08:26:51.452713 32487 net.cpp:434] L1_b4_cbr1_relu <- L1_b4_cbr1_bn_top
I0821 08:26:51.452720 32487 net.cpp:395] L1_b4_cbr1_relu -> L1_b4_cbr1_bn_top (in-place)
I0821 08:26:51.452731 32487 net.cpp:150] Setting up L1_b4_cbr1_relu
I0821 08:26:51.452739 32487 net.cpp:157] Top shape: 125 16 32 32 (2048000)
I0821 08:26:51.452744 32487 net.cpp:165] Memory required for data: 353793500
I0821 08:26:51.452749 32487 layer_factory.hpp:77] Creating layer L1_b4_cbr2_conv
I0821 08:26:51.452762 32487 net.cpp:100] Creating Layer L1_b4_cbr2_conv
I0821 08:26:51.452769 32487 net.cpp:434] L1_b4_cbr2_conv <- L1_b4_cbr1_bn_top
I0821 08:26:51.452780 32487 net.cpp:408] L1_b4_cbr2_conv -> L1_b4_cbr2_conv_top
I0821 08:26:51.453090 32487 net.cpp:150] Setting up L1_b4_cbr2_conv
I0821 08:26:51.453104 32487 net.cpp:157] Top shape: 125 16 32 32 (2048000)
I0821 08:26:51.453109 32487 net.cpp:165] Memory required for data: 361985500
I0821 08:26:51.453119 32487 layer_factory.hpp:77] Creating layer L1_b4_cbr2_bn
I0821 08:26:51.453127 32487 net.cpp:100] Creating Layer L1_b4_cbr2_bn
I0821 08:26:51.453133 32487 net.cpp:434] L1_b4_cbr2_bn <- L1_b4_cbr2_conv_top
I0821 08:26:51.453141 32487 net.cpp:408] L1_b4_cbr2_bn -> L1_b4_cbr2_bn_top
I0821 08:26:51.453393 32487 net.cpp:150] Setting up L1_b4_cbr2_bn
I0821 08:26:51.453408 32487 net.cpp:157] Top shape: 125 16 32 32 (2048000)
I0821 08:26:51.453413 32487 net.cpp:165] Memory required for data: 370177500
I0821 08:26:51.453428 32487 layer_factory.hpp:77] Creating layer L1_b4_cbr2_scale
I0821 08:26:51.453436 32487 net.cpp:100] Creating Layer L1_b4_cbr2_scale
I0821 08:26:51.453444 32487 net.cpp:434] L1_b4_cbr2_scale <- L1_b4_cbr2_bn_top
I0821 08:26:51.453454 32487 net.cpp:395] L1_b4_cbr2_scale -> L1_b4_cbr2_bn_top (in-place)
I0821 08:26:51.453505 32487 layer_factory.hpp:77] Creating layer L1_b4_cbr2_scale
I0821 08:26:51.453644 32487 net.cpp:150] Setting up L1_b4_cbr2_scale
I0821 08:26:51.453657 32487 net.cpp:157] Top shape: 125 16 32 32 (2048000)
I0821 08:26:51.453662 32487 net.cpp:165] Memory required for data: 378369500
I0821 08:26:51.453671 32487 layer_factory.hpp:77] Creating layer L1_b4_sum_eltwise
I0821 08:26:51.453685 32487 net.cpp:100] Creating Layer L1_b4_sum_eltwise
I0821 08:26:51.453691 32487 net.cpp:434] L1_b4_sum_eltwise <- L1_b4_cbr2_bn_top
I0821 08:26:51.453697 32487 net.cpp:434] L1_b4_sum_eltwise <- L1_b3_sum_eltwise_top_L1_b3_relu_0_split_1
I0821 08:26:51.453709 32487 net.cpp:408] L1_b4_sum_eltwise -> L1_b4_sum_eltwise_top
I0821 08:26:51.453749 32487 net.cpp:150] Setting up L1_b4_sum_eltwise
I0821 08:26:51.453759 32487 net.cpp:157] Top shape: 125 16 32 32 (2048000)
I0821 08:26:51.453764 32487 net.cpp:165] Memory required for data: 386561500
I0821 08:26:51.453770 32487 layer_factory.hpp:77] Creating layer L1_b4_relu
I0821 08:26:51.453781 32487 net.cpp:100] Creating Layer L1_b4_relu
I0821 08:26:51.453788 32487 net.cpp:434] L1_b4_relu <- L1_b4_sum_eltwise_top
I0821 08:26:51.453795 32487 net.cpp:395] L1_b4_relu -> L1_b4_sum_eltwise_top (in-place)
I0821 08:26:51.453804 32487 net.cpp:150] Setting up L1_b4_relu
I0821 08:26:51.453811 32487 net.cpp:157] Top shape: 125 16 32 32 (2048000)
I0821 08:26:51.453816 32487 net.cpp:165] Memory required for data: 394753500
I0821 08:26:51.453821 32487 layer_factory.hpp:77] Creating layer L1_b4_sum_eltwise_top_L1_b4_relu_0_split
I0821 08:26:51.453829 32487 net.cpp:100] Creating Layer L1_b4_sum_eltwise_top_L1_b4_relu_0_split
I0821 08:26:51.453833 32487 net.cpp:434] L1_b4_sum_eltwise_top_L1_b4_relu_0_split <- L1_b4_sum_eltwise_top
I0821 08:26:51.453841 32487 net.cpp:408] L1_b4_sum_eltwise_top_L1_b4_relu_0_split -> L1_b4_sum_eltwise_top_L1_b4_relu_0_split_0
I0821 08:26:51.453850 32487 net.cpp:408] L1_b4_sum_eltwise_top_L1_b4_relu_0_split -> L1_b4_sum_eltwise_top_L1_b4_relu_0_split_1
I0821 08:26:51.453896 32487 net.cpp:150] Setting up L1_b4_sum_eltwise_top_L1_b4_relu_0_split
I0821 08:26:51.453908 32487 net.cpp:157] Top shape: 125 16 32 32 (2048000)
I0821 08:26:51.453914 32487 net.cpp:157] Top shape: 125 16 32 32 (2048000)
I0821 08:26:51.453919 32487 net.cpp:165] Memory required for data: 411137500
I0821 08:26:51.453924 32487 layer_factory.hpp:77] Creating layer L1_b5_cbr1_conv
I0821 08:26:51.453938 32487 net.cpp:100] Creating Layer L1_b5_cbr1_conv
I0821 08:26:51.453945 32487 net.cpp:434] L1_b5_cbr1_conv <- L1_b4_sum_eltwise_top_L1_b4_relu_0_split_0
I0821 08:26:51.453954 32487 net.cpp:408] L1_b5_cbr1_conv -> L1_b5_cbr1_conv_top
I0821 08:26:51.454269 32487 net.cpp:150] Setting up L1_b5_cbr1_conv
I0821 08:26:51.454283 32487 net.cpp:157] Top shape: 125 16 32 32 (2048000)
I0821 08:26:51.454289 32487 net.cpp:165] Memory required for data: 419329500
I0821 08:26:51.454313 32487 layer_factory.hpp:77] Creating layer L1_b5_cbr1_bn
I0821 08:26:51.454326 32487 net.cpp:100] Creating Layer L1_b5_cbr1_bn
I0821 08:26:51.454334 32487 net.cpp:434] L1_b5_cbr1_bn <- L1_b5_cbr1_conv_top
I0821 08:26:51.454342 32487 net.cpp:408] L1_b5_cbr1_bn -> L1_b5_cbr1_bn_top
I0821 08:26:51.454581 32487 net.cpp:150] Setting up L1_b5_cbr1_bn
I0821 08:26:51.454597 32487 net.cpp:157] Top shape: 125 16 32 32 (2048000)
I0821 08:26:51.454603 32487 net.cpp:165] Memory required for data: 427521500
I0821 08:26:51.454614 32487 layer_factory.hpp:77] Creating layer L1_b5_cbr1_scale
I0821 08:26:51.454623 32487 net.cpp:100] Creating Layer L1_b5_cbr1_scale
I0821 08:26:51.454629 32487 net.cpp:434] L1_b5_cbr1_scale <- L1_b5_cbr1_bn_top
I0821 08:26:51.454638 32487 net.cpp:395] L1_b5_cbr1_scale -> L1_b5_cbr1_bn_top (in-place)
I0821 08:26:51.454689 32487 layer_factory.hpp:77] Creating layer L1_b5_cbr1_scale
I0821 08:26:51.454835 32487 net.cpp:150] Setting up L1_b5_cbr1_scale
I0821 08:26:51.454849 32487 net.cpp:157] Top shape: 125 16 32 32 (2048000)
I0821 08:26:51.454854 32487 net.cpp:165] Memory required for data: 435713500
I0821 08:26:51.454864 32487 layer_factory.hpp:77] Creating layer L1_b5_cbr1_relu
I0821 08:26:51.454875 32487 net.cpp:100] Creating Layer L1_b5_cbr1_relu
I0821 08:26:51.454881 32487 net.cpp:434] L1_b5_cbr1_relu <- L1_b5_cbr1_bn_top
I0821 08:26:51.454890 32487 net.cpp:395] L1_b5_cbr1_relu -> L1_b5_cbr1_bn_top (in-place)
I0821 08:26:51.454900 32487 net.cpp:150] Setting up L1_b5_cbr1_relu
I0821 08:26:51.454906 32487 net.cpp:157] Top shape: 125 16 32 32 (2048000)
I0821 08:26:51.454911 32487 net.cpp:165] Memory required for data: 443905500
I0821 08:26:51.454916 32487 layer_factory.hpp:77] Creating layer L1_b5_cbr2_conv
I0821 08:26:51.454931 32487 net.cpp:100] Creating Layer L1_b5_cbr2_conv
I0821 08:26:51.454943 32487 net.cpp:434] L1_b5_cbr2_conv <- L1_b5_cbr1_bn_top
I0821 08:26:51.454955 32487 net.cpp:408] L1_b5_cbr2_conv -> L1_b5_cbr2_conv_top
I0821 08:26:51.455276 32487 net.cpp:150] Setting up L1_b5_cbr2_conv
I0821 08:26:51.455291 32487 net.cpp:157] Top shape: 125 16 32 32 (2048000)
I0821 08:26:51.455296 32487 net.cpp:165] Memory required for data: 452097500
I0821 08:26:51.455305 32487 layer_factory.hpp:77] Creating layer L1_b5_cbr2_bn
I0821 08:26:51.455315 32487 net.cpp:100] Creating Layer L1_b5_cbr2_bn
I0821 08:26:51.455322 32487 net.cpp:434] L1_b5_cbr2_bn <- L1_b5_cbr2_conv_top
I0821 08:26:51.455332 32487 net.cpp:408] L1_b5_cbr2_bn -> L1_b5_cbr2_bn_top
I0821 08:26:51.455569 32487 net.cpp:150] Setting up L1_b5_cbr2_bn
I0821 08:26:51.455582 32487 net.cpp:157] Top shape: 125 16 32 32 (2048000)
I0821 08:26:51.455587 32487 net.cpp:165] Memory required for data: 460289500
I0821 08:26:51.455598 32487 layer_factory.hpp:77] Creating layer L1_b5_cbr2_scale
I0821 08:26:51.455610 32487 net.cpp:100] Creating Layer L1_b5_cbr2_scale
I0821 08:26:51.455616 32487 net.cpp:434] L1_b5_cbr2_scale <- L1_b5_cbr2_bn_top
I0821 08:26:51.455624 32487 net.cpp:395] L1_b5_cbr2_scale -> L1_b5_cbr2_bn_top (in-place)
I0821 08:26:51.455677 32487 layer_factory.hpp:77] Creating layer L1_b5_cbr2_scale
I0821 08:26:51.455821 32487 net.cpp:150] Setting up L1_b5_cbr2_scale
I0821 08:26:51.455833 32487 net.cpp:157] Top shape: 125 16 32 32 (2048000)
I0821 08:26:51.455839 32487 net.cpp:165] Memory required for data: 468481500
I0821 08:26:51.455848 32487 layer_factory.hpp:77] Creating layer L1_b5_sum_eltwise
I0821 08:26:51.455860 32487 net.cpp:100] Creating Layer L1_b5_sum_eltwise
I0821 08:26:51.455868 32487 net.cpp:434] L1_b5_sum_eltwise <- L1_b5_cbr2_bn_top
I0821 08:26:51.455874 32487 net.cpp:434] L1_b5_sum_eltwise <- L1_b4_sum_eltwise_top_L1_b4_relu_0_split_1
I0821 08:26:51.455883 32487 net.cpp:408] L1_b5_sum_eltwise -> L1_b5_sum_eltwise_top
I0821 08:26:51.455916 32487 net.cpp:150] Setting up L1_b5_sum_eltwise
I0821 08:26:51.455929 32487 net.cpp:157] Top shape: 125 16 32 32 (2048000)
I0821 08:26:51.455934 32487 net.cpp:165] Memory required for data: 476673500
I0821 08:26:51.455940 32487 layer_factory.hpp:77] Creating layer L1_b5_relu
I0821 08:26:51.455947 32487 net.cpp:100] Creating Layer L1_b5_relu
I0821 08:26:51.455953 32487 net.cpp:434] L1_b5_relu <- L1_b5_sum_eltwise_top
I0821 08:26:51.455962 32487 net.cpp:395] L1_b5_relu -> L1_b5_sum_eltwise_top (in-place)
I0821 08:26:51.455973 32487 net.cpp:150] Setting up L1_b5_relu
I0821 08:26:51.455981 32487 net.cpp:157] Top shape: 125 16 32 32 (2048000)
I0821 08:26:51.455986 32487 net.cpp:165] Memory required for data: 484865500
I0821 08:26:51.455991 32487 layer_factory.hpp:77] Creating layer L1_b5_sum_eltwise_top_L1_b5_relu_0_split
I0821 08:26:51.455997 32487 net.cpp:100] Creating Layer L1_b5_sum_eltwise_top_L1_b5_relu_0_split
I0821 08:26:51.456003 32487 net.cpp:434] L1_b5_sum_eltwise_top_L1_b5_relu_0_split <- L1_b5_sum_eltwise_top
I0821 08:26:51.456010 32487 net.cpp:408] L1_b5_sum_eltwise_top_L1_b5_relu_0_split -> L1_b5_sum_eltwise_top_L1_b5_relu_0_split_0
I0821 08:26:51.456020 32487 net.cpp:408] L1_b5_sum_eltwise_top_L1_b5_relu_0_split -> L1_b5_sum_eltwise_top_L1_b5_relu_0_split_1
I0821 08:26:51.456065 32487 net.cpp:150] Setting up L1_b5_sum_eltwise_top_L1_b5_relu_0_split
I0821 08:26:51.456077 32487 net.cpp:157] Top shape: 125 16 32 32 (2048000)
I0821 08:26:51.456084 32487 net.cpp:157] Top shape: 125 16 32 32 (2048000)
I0821 08:26:51.456089 32487 net.cpp:165] Memory required for data: 501249500
I0821 08:26:51.456094 32487 layer_factory.hpp:77] Creating layer L1_b6_cbr1_conv
I0821 08:26:51.456106 32487 net.cpp:100] Creating Layer L1_b6_cbr1_conv
I0821 08:26:51.456112 32487 net.cpp:434] L1_b6_cbr1_conv <- L1_b5_sum_eltwise_top_L1_b5_relu_0_split_0
I0821 08:26:51.456125 32487 net.cpp:408] L1_b6_cbr1_conv -> L1_b6_cbr1_conv_top
I0821 08:26:51.456442 32487 net.cpp:150] Setting up L1_b6_cbr1_conv
I0821 08:26:51.456457 32487 net.cpp:157] Top shape: 125 16 32 32 (2048000)
I0821 08:26:51.456462 32487 net.cpp:165] Memory required for data: 509441500
I0821 08:26:51.456478 32487 layer_factory.hpp:77] Creating layer L1_b6_cbr1_bn
I0821 08:26:51.456490 32487 net.cpp:100] Creating Layer L1_b6_cbr1_bn
I0821 08:26:51.456496 32487 net.cpp:434] L1_b6_cbr1_bn <- L1_b6_cbr1_conv_top
I0821 08:26:51.456506 32487 net.cpp:408] L1_b6_cbr1_bn -> L1_b6_cbr1_bn_top
I0821 08:26:51.456748 32487 net.cpp:150] Setting up L1_b6_cbr1_bn
I0821 08:26:51.456761 32487 net.cpp:157] Top shape: 125 16 32 32 (2048000)
I0821 08:26:51.456766 32487 net.cpp:165] Memory required for data: 517633500
I0821 08:26:51.456776 32487 layer_factory.hpp:77] Creating layer L1_b6_cbr1_scale
I0821 08:26:51.456789 32487 net.cpp:100] Creating Layer L1_b6_cbr1_scale
I0821 08:26:51.456795 32487 net.cpp:434] L1_b6_cbr1_scale <- L1_b6_cbr1_bn_top
I0821 08:26:51.456802 32487 net.cpp:395] L1_b6_cbr1_scale -> L1_b6_cbr1_bn_top (in-place)
I0821 08:26:51.456856 32487 layer_factory.hpp:77] Creating layer L1_b6_cbr1_scale
I0821 08:26:51.456996 32487 net.cpp:150] Setting up L1_b6_cbr1_scale
I0821 08:26:51.457010 32487 net.cpp:157] Top shape: 125 16 32 32 (2048000)
I0821 08:26:51.457015 32487 net.cpp:165] Memory required for data: 525825500
I0821 08:26:51.457023 32487 layer_factory.hpp:77] Creating layer L1_b6_cbr1_relu
I0821 08:26:51.457036 32487 net.cpp:100] Creating Layer L1_b6_cbr1_relu
I0821 08:26:51.457041 32487 net.cpp:434] L1_b6_cbr1_relu <- L1_b6_cbr1_bn_top
I0821 08:26:51.457049 32487 net.cpp:395] L1_b6_cbr1_relu -> L1_b6_cbr1_bn_top (in-place)
I0821 08:26:51.457059 32487 net.cpp:150] Setting up L1_b6_cbr1_relu
I0821 08:26:51.457067 32487 net.cpp:157] Top shape: 125 16 32 32 (2048000)
I0821 08:26:51.457072 32487 net.cpp:165] Memory required for data: 534017500
I0821 08:26:51.457075 32487 layer_factory.hpp:77] Creating layer L1_b6_cbr2_conv
I0821 08:26:51.457090 32487 net.cpp:100] Creating Layer L1_b6_cbr2_conv
I0821 08:26:51.457096 32487 net.cpp:434] L1_b6_cbr2_conv <- L1_b6_cbr1_bn_top
I0821 08:26:51.457108 32487 net.cpp:408] L1_b6_cbr2_conv -> L1_b6_cbr2_conv_top
I0821 08:26:51.457430 32487 net.cpp:150] Setting up L1_b6_cbr2_conv
I0821 08:26:51.457444 32487 net.cpp:157] Top shape: 125 16 32 32 (2048000)
I0821 08:26:51.457450 32487 net.cpp:165] Memory required for data: 542209500
I0821 08:26:51.457459 32487 layer_factory.hpp:77] Creating layer L1_b6_cbr2_bn
I0821 08:26:51.457468 32487 net.cpp:100] Creating Layer L1_b6_cbr2_bn
I0821 08:26:51.457474 32487 net.cpp:434] L1_b6_cbr2_bn <- L1_b6_cbr2_conv_top
I0821 08:26:51.457482 32487 net.cpp:408] L1_b6_cbr2_bn -> L1_b6_cbr2_bn_top
I0821 08:26:51.457726 32487 net.cpp:150] Setting up L1_b6_cbr2_bn
I0821 08:26:51.457739 32487 net.cpp:157] Top shape: 125 16 32 32 (2048000)
I0821 08:26:51.457744 32487 net.cpp:165] Memory required for data: 550401500
I0821 08:26:51.457756 32487 layer_factory.hpp:77] Creating layer L1_b6_cbr2_scale
I0821 08:26:51.457767 32487 net.cpp:100] Creating Layer L1_b6_cbr2_scale
I0821 08:26:51.457774 32487 net.cpp:434] L1_b6_cbr2_scale <- L1_b6_cbr2_bn_top
I0821 08:26:51.457782 32487 net.cpp:395] L1_b6_cbr2_scale -> L1_b6_cbr2_bn_top (in-place)
I0821 08:26:51.457837 32487 layer_factory.hpp:77] Creating layer L1_b6_cbr2_scale
I0821 08:26:51.457978 32487 net.cpp:150] Setting up L1_b6_cbr2_scale
I0821 08:26:51.457991 32487 net.cpp:157] Top shape: 125 16 32 32 (2048000)
I0821 08:26:51.457998 32487 net.cpp:165] Memory required for data: 558593500
I0821 08:26:51.458006 32487 layer_factory.hpp:77] Creating layer L1_b6_sum_eltwise
I0821 08:26:51.458024 32487 net.cpp:100] Creating Layer L1_b6_sum_eltwise
I0821 08:26:51.458032 32487 net.cpp:434] L1_b6_sum_eltwise <- L1_b6_cbr2_bn_top
I0821 08:26:51.458039 32487 net.cpp:434] L1_b6_sum_eltwise <- L1_b5_sum_eltwise_top_L1_b5_relu_0_split_1
I0821 08:26:51.458047 32487 net.cpp:408] L1_b6_sum_eltwise -> L1_b6_sum_eltwise_top
I0821 08:26:51.458081 32487 net.cpp:150] Setting up L1_b6_sum_eltwise
I0821 08:26:51.458091 32487 net.cpp:157] Top shape: 125 16 32 32 (2048000)
I0821 08:26:51.458096 32487 net.cpp:165] Memory required for data: 566785500
I0821 08:26:51.458102 32487 layer_factory.hpp:77] Creating layer L1_b6_relu
I0821 08:26:51.458122 32487 net.cpp:100] Creating Layer L1_b6_relu
I0821 08:26:51.458128 32487 net.cpp:434] L1_b6_relu <- L1_b6_sum_eltwise_top
I0821 08:26:51.458137 32487 net.cpp:395] L1_b6_relu -> L1_b6_sum_eltwise_top (in-place)
I0821 08:26:51.458145 32487 net.cpp:150] Setting up L1_b6_relu
I0821 08:26:51.458153 32487 net.cpp:157] Top shape: 125 16 32 32 (2048000)
I0821 08:26:51.458158 32487 net.cpp:165] Memory required for data: 574977500
I0821 08:26:51.458163 32487 layer_factory.hpp:77] Creating layer L1_b6_sum_eltwise_top_L1_b6_relu_0_split
I0821 08:26:51.458170 32487 net.cpp:100] Creating Layer L1_b6_sum_eltwise_top_L1_b6_relu_0_split
I0821 08:26:51.458176 32487 net.cpp:434] L1_b6_sum_eltwise_top_L1_b6_relu_0_split <- L1_b6_sum_eltwise_top
I0821 08:26:51.458184 32487 net.cpp:408] L1_b6_sum_eltwise_top_L1_b6_relu_0_split -> L1_b6_sum_eltwise_top_L1_b6_relu_0_split_0
I0821 08:26:51.458192 32487 net.cpp:408] L1_b6_sum_eltwise_top_L1_b6_relu_0_split -> L1_b6_sum_eltwise_top_L1_b6_relu_0_split_1
I0821 08:26:51.458240 32487 net.cpp:150] Setting up L1_b6_sum_eltwise_top_L1_b6_relu_0_split
I0821 08:26:51.458253 32487 net.cpp:157] Top shape: 125 16 32 32 (2048000)
I0821 08:26:51.458266 32487 net.cpp:157] Top shape: 125 16 32 32 (2048000)
I0821 08:26:51.458271 32487 net.cpp:165] Memory required for data: 591361500
I0821 08:26:51.458276 32487 layer_factory.hpp:77] Creating layer L1_b7_cbr1_conv
I0821 08:26:51.458290 32487 net.cpp:100] Creating Layer L1_b7_cbr1_conv
I0821 08:26:51.458297 32487 net.cpp:434] L1_b7_cbr1_conv <- L1_b6_sum_eltwise_top_L1_b6_relu_0_split_0
I0821 08:26:51.458307 32487 net.cpp:408] L1_b7_cbr1_conv -> L1_b7_cbr1_conv_top
I0821 08:26:51.458619 32487 net.cpp:150] Setting up L1_b7_cbr1_conv
I0821 08:26:51.458633 32487 net.cpp:157] Top shape: 125 16 32 32 (2048000)
I0821 08:26:51.458638 32487 net.cpp:165] Memory required for data: 599553500
I0821 08:26:51.458648 32487 layer_factory.hpp:77] Creating layer L1_b7_cbr1_bn
I0821 08:26:51.458660 32487 net.cpp:100] Creating Layer L1_b7_cbr1_bn
I0821 08:26:51.458667 32487 net.cpp:434] L1_b7_cbr1_bn <- L1_b7_cbr1_conv_top
I0821 08:26:51.458675 32487 net.cpp:408] L1_b7_cbr1_bn -> L1_b7_cbr1_bn_top
I0821 08:26:51.458920 32487 net.cpp:150] Setting up L1_b7_cbr1_bn
I0821 08:26:51.458935 32487 net.cpp:157] Top shape: 125 16 32 32 (2048000)
I0821 08:26:51.458940 32487 net.cpp:165] Memory required for data: 607745500
I0821 08:26:51.458950 32487 layer_factory.hpp:77] Creating layer L1_b7_cbr1_scale
I0821 08:26:51.458959 32487 net.cpp:100] Creating Layer L1_b7_cbr1_scale
I0821 08:26:51.458966 32487 net.cpp:434] L1_b7_cbr1_scale <- L1_b7_cbr1_bn_top
I0821 08:26:51.458973 32487 net.cpp:395] L1_b7_cbr1_scale -> L1_b7_cbr1_bn_top (in-place)
I0821 08:26:51.459028 32487 layer_factory.hpp:77] Creating layer L1_b7_cbr1_scale
I0821 08:26:51.459172 32487 net.cpp:150] Setting up L1_b7_cbr1_scale
I0821 08:26:51.459187 32487 net.cpp:157] Top shape: 125 16 32 32 (2048000)
I0821 08:26:51.459192 32487 net.cpp:165] Memory required for data: 615937500
I0821 08:26:51.459200 32487 layer_factory.hpp:77] Creating layer L1_b7_cbr1_relu
I0821 08:26:51.459209 32487 net.cpp:100] Creating Layer L1_b7_cbr1_relu
I0821 08:26:51.459215 32487 net.cpp:434] L1_b7_cbr1_relu <- L1_b7_cbr1_bn_top
I0821 08:26:51.459228 32487 net.cpp:395] L1_b7_cbr1_relu -> L1_b7_cbr1_bn_top (in-place)
I0821 08:26:51.459237 32487 net.cpp:150] Setting up L1_b7_cbr1_relu
I0821 08:26:51.459245 32487 net.cpp:157] Top shape: 125 16 32 32 (2048000)
I0821 08:26:51.459250 32487 net.cpp:165] Memory required for data: 624129500
I0821 08:26:51.459261 32487 layer_factory.hpp:77] Creating layer L1_b7_cbr2_conv
I0821 08:26:51.459276 32487 net.cpp:100] Creating Layer L1_b7_cbr2_conv
I0821 08:26:51.459283 32487 net.cpp:434] L1_b7_cbr2_conv <- L1_b7_cbr1_bn_top
I0821 08:26:51.459292 32487 net.cpp:408] L1_b7_cbr2_conv -> L1_b7_cbr2_conv_top
I0821 08:26:51.459606 32487 net.cpp:150] Setting up L1_b7_cbr2_conv
I0821 08:26:51.459620 32487 net.cpp:157] Top shape: 125 16 32 32 (2048000)
I0821 08:26:51.459626 32487 net.cpp:165] Memory required for data: 632321500
I0821 08:26:51.459642 32487 layer_factory.hpp:77] Creating layer L1_b7_cbr2_bn
I0821 08:26:51.459656 32487 net.cpp:100] Creating Layer L1_b7_cbr2_bn
I0821 08:26:51.459662 32487 net.cpp:434] L1_b7_cbr2_bn <- L1_b7_cbr2_conv_top
I0821 08:26:51.459671 32487 net.cpp:408] L1_b7_cbr2_bn -> L1_b7_cbr2_bn_top
I0821 08:26:51.459913 32487 net.cpp:150] Setting up L1_b7_cbr2_bn
I0821 08:26:51.459929 32487 net.cpp:157] Top shape: 125 16 32 32 (2048000)
I0821 08:26:51.459934 32487 net.cpp:165] Memory required for data: 640513500
I0821 08:26:51.459945 32487 layer_factory.hpp:77] Creating layer L1_b7_cbr2_scale
I0821 08:26:51.459955 32487 net.cpp:100] Creating Layer L1_b7_cbr2_scale
I0821 08:26:51.459961 32487 net.cpp:434] L1_b7_cbr2_scale <- L1_b7_cbr2_bn_top
I0821 08:26:51.459969 32487 net.cpp:395] L1_b7_cbr2_scale -> L1_b7_cbr2_bn_top (in-place)
I0821 08:26:51.460023 32487 layer_factory.hpp:77] Creating layer L1_b7_cbr2_scale
I0821 08:26:51.460165 32487 net.cpp:150] Setting up L1_b7_cbr2_scale
I0821 08:26:51.460178 32487 net.cpp:157] Top shape: 125 16 32 32 (2048000)
I0821 08:26:51.460185 32487 net.cpp:165] Memory required for data: 648705500
I0821 08:26:51.460193 32487 layer_factory.hpp:77] Creating layer L1_b7_sum_eltwise
I0821 08:26:51.460206 32487 net.cpp:100] Creating Layer L1_b7_sum_eltwise
I0821 08:26:51.460212 32487 net.cpp:434] L1_b7_sum_eltwise <- L1_b7_cbr2_bn_top
I0821 08:26:51.460219 32487 net.cpp:434] L1_b7_sum_eltwise <- L1_b6_sum_eltwise_top_L1_b6_relu_0_split_1
I0821 08:26:51.460230 32487 net.cpp:408] L1_b7_sum_eltwise -> L1_b7_sum_eltwise_top
I0821 08:26:51.460268 32487 net.cpp:150] Setting up L1_b7_sum_eltwise
I0821 08:26:51.460281 32487 net.cpp:157] Top shape: 125 16 32 32 (2048000)
I0821 08:26:51.460286 32487 net.cpp:165] Memory required for data: 656897500
I0821 08:26:51.460292 32487 layer_factory.hpp:77] Creating layer L1_b7_relu
I0821 08:26:51.460304 32487 net.cpp:100] Creating Layer L1_b7_relu
I0821 08:26:51.460310 32487 net.cpp:434] L1_b7_relu <- L1_b7_sum_eltwise_top
I0821 08:26:51.460317 32487 net.cpp:395] L1_b7_relu -> L1_b7_sum_eltwise_top (in-place)
I0821 08:26:51.460327 32487 net.cpp:150] Setting up L1_b7_relu
I0821 08:26:51.460335 32487 net.cpp:157] Top shape: 125 16 32 32 (2048000)
I0821 08:26:51.460340 32487 net.cpp:165] Memory required for data: 665089500
I0821 08:26:51.460345 32487 layer_factory.hpp:77] Creating layer L1_b7_sum_eltwise_top_L1_b7_relu_0_split
I0821 08:26:51.460351 32487 net.cpp:100] Creating Layer L1_b7_sum_eltwise_top_L1_b7_relu_0_split
I0821 08:26:51.460357 32487 net.cpp:434] L1_b7_sum_eltwise_top_L1_b7_relu_0_split <- L1_b7_sum_eltwise_top
I0821 08:26:51.460364 32487 net.cpp:408] L1_b7_sum_eltwise_top_L1_b7_relu_0_split -> L1_b7_sum_eltwise_top_L1_b7_relu_0_split_0
I0821 08:26:51.460374 32487 net.cpp:408] L1_b7_sum_eltwise_top_L1_b7_relu_0_split -> L1_b7_sum_eltwise_top_L1_b7_relu_0_split_1
I0821 08:26:51.460422 32487 net.cpp:150] Setting up L1_b7_sum_eltwise_top_L1_b7_relu_0_split
I0821 08:26:51.460433 32487 net.cpp:157] Top shape: 125 16 32 32 (2048000)
I0821 08:26:51.460440 32487 net.cpp:157] Top shape: 125 16 32 32 (2048000)
I0821 08:26:51.460445 32487 net.cpp:165] Memory required for data: 681473500
I0821 08:26:51.460450 32487 layer_factory.hpp:77] Creating layer L1_b8_cbr1_conv
I0821 08:26:51.460464 32487 net.cpp:100] Creating Layer L1_b8_cbr1_conv
I0821 08:26:51.460471 32487 net.cpp:434] L1_b8_cbr1_conv <- L1_b7_sum_eltwise_top_L1_b7_relu_0_split_0
I0821 08:26:51.460480 32487 net.cpp:408] L1_b8_cbr1_conv -> L1_b8_cbr1_conv_top
I0821 08:26:51.460799 32487 net.cpp:150] Setting up L1_b8_cbr1_conv
I0821 08:26:51.460813 32487 net.cpp:157] Top shape: 125 16 32 32 (2048000)
I0821 08:26:51.460819 32487 net.cpp:165] Memory required for data: 689665500
I0821 08:26:51.460827 32487 layer_factory.hpp:77] Creating layer L1_b8_cbr1_bn
I0821 08:26:51.460841 32487 net.cpp:100] Creating Layer L1_b8_cbr1_bn
I0821 08:26:51.460849 32487 net.cpp:434] L1_b8_cbr1_bn <- L1_b8_cbr1_conv_top
I0821 08:26:51.460856 32487 net.cpp:408] L1_b8_cbr1_bn -> L1_b8_cbr1_bn_top
I0821 08:26:51.461112 32487 net.cpp:150] Setting up L1_b8_cbr1_bn
I0821 08:26:51.461127 32487 net.cpp:157] Top shape: 125 16 32 32 (2048000)
I0821 08:26:51.461132 32487 net.cpp:165] Memory required for data: 697857500
I0821 08:26:51.461141 32487 layer_factory.hpp:77] Creating layer L1_b8_cbr1_scale
I0821 08:26:51.461151 32487 net.cpp:100] Creating Layer L1_b8_cbr1_scale
I0821 08:26:51.461158 32487 net.cpp:434] L1_b8_cbr1_scale <- L1_b8_cbr1_bn_top
I0821 08:26:51.461164 32487 net.cpp:395] L1_b8_cbr1_scale -> L1_b8_cbr1_bn_top (in-place)
I0821 08:26:51.461220 32487 layer_factory.hpp:77] Creating layer L1_b8_cbr1_scale
I0821 08:26:51.461376 32487 net.cpp:150] Setting up L1_b8_cbr1_scale
I0821 08:26:51.461390 32487 net.cpp:157] Top shape: 125 16 32 32 (2048000)
I0821 08:26:51.461395 32487 net.cpp:165] Memory required for data: 706049500
I0821 08:26:51.461405 32487 layer_factory.hpp:77] Creating layer L1_b8_cbr1_relu
I0821 08:26:51.461413 32487 net.cpp:100] Creating Layer L1_b8_cbr1_relu
I0821 08:26:51.461419 32487 net.cpp:434] L1_b8_cbr1_relu <- L1_b8_cbr1_bn_top
I0821 08:26:51.461429 32487 net.cpp:395] L1_b8_cbr1_relu -> L1_b8_cbr1_bn_top (in-place)
I0821 08:26:51.461441 32487 net.cpp:150] Setting up L1_b8_cbr1_relu
I0821 08:26:51.461447 32487 net.cpp:157] Top shape: 125 16 32 32 (2048000)
I0821 08:26:51.461452 32487 net.cpp:165] Memory required for data: 714241500
I0821 08:26:51.461457 32487 layer_factory.hpp:77] Creating layer L1_b8_cbr2_conv
I0821 08:26:51.461468 32487 net.cpp:100] Creating Layer L1_b8_cbr2_conv
I0821 08:26:51.461474 32487 net.cpp:434] L1_b8_cbr2_conv <- L1_b8_cbr1_bn_top
I0821 08:26:51.461485 32487 net.cpp:408] L1_b8_cbr2_conv -> L1_b8_cbr2_conv_top
I0821 08:26:51.461802 32487 net.cpp:150] Setting up L1_b8_cbr2_conv
I0821 08:26:51.461815 32487 net.cpp:157] Top shape: 125 16 32 32 (2048000)
I0821 08:26:51.461822 32487 net.cpp:165] Memory required for data: 722433500
I0821 08:26:51.461829 32487 layer_factory.hpp:77] Creating layer L1_b8_cbr2_bn
I0821 08:26:51.461839 32487 net.cpp:100] Creating Layer L1_b8_cbr2_bn
I0821 08:26:51.461845 32487 net.cpp:434] L1_b8_cbr2_bn <- L1_b8_cbr2_conv_top
I0821 08:26:51.461856 32487 net.cpp:408] L1_b8_cbr2_bn -> L1_b8_cbr2_bn_top
I0821 08:26:51.462106 32487 net.cpp:150] Setting up L1_b8_cbr2_bn
I0821 08:26:51.462124 32487 net.cpp:157] Top shape: 125 16 32 32 (2048000)
I0821 08:26:51.462131 32487 net.cpp:165] Memory required for data: 730625500
I0821 08:26:51.462141 32487 layer_factory.hpp:77] Creating layer L1_b8_cbr2_scale
I0821 08:26:51.462151 32487 net.cpp:100] Creating Layer L1_b8_cbr2_scale
I0821 08:26:51.462157 32487 net.cpp:434] L1_b8_cbr2_scale <- L1_b8_cbr2_bn_top
I0821 08:26:51.462164 32487 net.cpp:395] L1_b8_cbr2_scale -> L1_b8_cbr2_bn_top (in-place)
I0821 08:26:51.462218 32487 layer_factory.hpp:77] Creating layer L1_b8_cbr2_scale
I0821 08:26:51.462369 32487 net.cpp:150] Setting up L1_b8_cbr2_scale
I0821 08:26:51.462383 32487 net.cpp:157] Top shape: 125 16 32 32 (2048000)
I0821 08:26:51.462389 32487 net.cpp:165] Memory required for data: 738817500
I0821 08:26:51.462399 32487 layer_factory.hpp:77] Creating layer L1_b8_sum_eltwise
I0821 08:26:51.462410 32487 net.cpp:100] Creating Layer L1_b8_sum_eltwise
I0821 08:26:51.462417 32487 net.cpp:434] L1_b8_sum_eltwise <- L1_b8_cbr2_bn_top
I0821 08:26:51.462424 32487 net.cpp:434] L1_b8_sum_eltwise <- L1_b7_sum_eltwise_top_L1_b7_relu_0_split_1
I0821 08:26:51.462435 32487 net.cpp:408] L1_b8_sum_eltwise -> L1_b8_sum_eltwise_top
I0821 08:26:51.462466 32487 net.cpp:150] Setting up L1_b8_sum_eltwise
I0821 08:26:51.462478 32487 net.cpp:157] Top shape: 125 16 32 32 (2048000)
I0821 08:26:51.462483 32487 net.cpp:165] Memory required for data: 747009500
I0821 08:26:51.462489 32487 layer_factory.hpp:77] Creating layer L1_b8_relu
I0821 08:26:51.462496 32487 net.cpp:100] Creating Layer L1_b8_relu
I0821 08:26:51.462502 32487 net.cpp:434] L1_b8_relu <- L1_b8_sum_eltwise_top
I0821 08:26:51.462512 32487 net.cpp:395] L1_b8_relu -> L1_b8_sum_eltwise_top (in-place)
I0821 08:26:51.462523 32487 net.cpp:150] Setting up L1_b8_relu
I0821 08:26:51.462538 32487 net.cpp:157] Top shape: 125 16 32 32 (2048000)
I0821 08:26:51.462543 32487 net.cpp:165] Memory required for data: 755201500
I0821 08:26:51.462548 32487 layer_factory.hpp:77] Creating layer L1_b8_sum_eltwise_top_L1_b8_relu_0_split
I0821 08:26:51.462555 32487 net.cpp:100] Creating Layer L1_b8_sum_eltwise_top_L1_b8_relu_0_split
I0821 08:26:51.462560 32487 net.cpp:434] L1_b8_sum_eltwise_top_L1_b8_relu_0_split <- L1_b8_sum_eltwise_top
I0821 08:26:51.462568 32487 net.cpp:408] L1_b8_sum_eltwise_top_L1_b8_relu_0_split -> L1_b8_sum_eltwise_top_L1_b8_relu_0_split_0
I0821 08:26:51.462577 32487 net.cpp:408] L1_b8_sum_eltwise_top_L1_b8_relu_0_split -> L1_b8_sum_eltwise_top_L1_b8_relu_0_split_1
I0821 08:26:51.462625 32487 net.cpp:150] Setting up L1_b8_sum_eltwise_top_L1_b8_relu_0_split
I0821 08:26:51.462637 32487 net.cpp:157] Top shape: 125 16 32 32 (2048000)
I0821 08:26:51.462644 32487 net.cpp:157] Top shape: 125 16 32 32 (2048000)
I0821 08:26:51.462648 32487 net.cpp:165] Memory required for data: 771585500
I0821 08:26:51.462654 32487 layer_factory.hpp:77] Creating layer L1_b9_cbr1_conv
I0821 08:26:51.462668 32487 net.cpp:100] Creating Layer L1_b9_cbr1_conv
I0821 08:26:51.462674 32487 net.cpp:434] L1_b9_cbr1_conv <- L1_b8_sum_eltwise_top_L1_b8_relu_0_split_0
I0821 08:26:51.462684 32487 net.cpp:408] L1_b9_cbr1_conv -> L1_b9_cbr1_conv_top
I0821 08:26:51.463004 32487 net.cpp:150] Setting up L1_b9_cbr1_conv
I0821 08:26:51.463021 32487 net.cpp:157] Top shape: 125 16 32 32 (2048000)
I0821 08:26:51.463027 32487 net.cpp:165] Memory required for data: 779777500
I0821 08:26:51.463037 32487 layer_factory.hpp:77] Creating layer L1_b9_cbr1_bn
I0821 08:26:51.463048 32487 net.cpp:100] Creating Layer L1_b9_cbr1_bn
I0821 08:26:51.463055 32487 net.cpp:434] L1_b9_cbr1_bn <- L1_b9_cbr1_conv_top
I0821 08:26:51.463063 32487 net.cpp:408] L1_b9_cbr1_bn -> L1_b9_cbr1_bn_top
I0821 08:26:51.463316 32487 net.cpp:150] Setting up L1_b9_cbr1_bn
I0821 08:26:51.463330 32487 net.cpp:157] Top shape: 125 16 32 32 (2048000)
I0821 08:26:51.463335 32487 net.cpp:165] Memory required for data: 787969500
I0821 08:26:51.463346 32487 layer_factory.hpp:77] Creating layer L1_b9_cbr1_scale
I0821 08:26:51.463354 32487 net.cpp:100] Creating Layer L1_b9_cbr1_scale
I0821 08:26:51.463361 32487 net.cpp:434] L1_b9_cbr1_scale <- L1_b9_cbr1_bn_top
I0821 08:26:51.463371 32487 net.cpp:395] L1_b9_cbr1_scale -> L1_b9_cbr1_bn_top (in-place)
I0821 08:26:51.463428 32487 layer_factory.hpp:77] Creating layer L1_b9_cbr1_scale
I0821 08:26:51.463572 32487 net.cpp:150] Setting up L1_b9_cbr1_scale
I0821 08:26:51.463587 32487 net.cpp:157] Top shape: 125 16 32 32 (2048000)
I0821 08:26:51.463593 32487 net.cpp:165] Memory required for data: 796161500
I0821 08:26:51.463603 32487 layer_factory.hpp:77] Creating layer L1_b9_cbr1_relu
I0821 08:26:51.463610 32487 net.cpp:100] Creating Layer L1_b9_cbr1_relu
I0821 08:26:51.463618 32487 net.cpp:434] L1_b9_cbr1_relu <- L1_b9_cbr1_bn_top
I0821 08:26:51.463624 32487 net.cpp:395] L1_b9_cbr1_relu -> L1_b9_cbr1_bn_top (in-place)
I0821 08:26:51.463634 32487 net.cpp:150] Setting up L1_b9_cbr1_relu
I0821 08:26:51.463641 32487 net.cpp:157] Top shape: 125 16 32 32 (2048000)
I0821 08:26:51.463646 32487 net.cpp:165] Memory required for data: 804353500
I0821 08:26:51.463651 32487 layer_factory.hpp:77] Creating layer L1_b9_cbr2_conv
I0821 08:26:51.463667 32487 net.cpp:100] Creating Layer L1_b9_cbr2_conv
I0821 08:26:51.463675 32487 net.cpp:434] L1_b9_cbr2_conv <- L1_b9_cbr1_bn_top
I0821 08:26:51.463685 32487 net.cpp:408] L1_b9_cbr2_conv -> L1_b9_cbr2_conv_top
I0821 08:26:51.464005 32487 net.cpp:150] Setting up L1_b9_cbr2_conv
I0821 08:26:51.464020 32487 net.cpp:157] Top shape: 125 16 32 32 (2048000)
I0821 08:26:51.464025 32487 net.cpp:165] Memory required for data: 812545500
I0821 08:26:51.464035 32487 layer_factory.hpp:77] Creating layer L1_b9_cbr2_bn
I0821 08:26:51.464046 32487 net.cpp:100] Creating Layer L1_b9_cbr2_bn
I0821 08:26:51.464053 32487 net.cpp:434] L1_b9_cbr2_bn <- L1_b9_cbr2_conv_top
I0821 08:26:51.464064 32487 net.cpp:408] L1_b9_cbr2_bn -> L1_b9_cbr2_bn_top
I0821 08:26:51.464320 32487 net.cpp:150] Setting up L1_b9_cbr2_bn
I0821 08:26:51.464334 32487 net.cpp:157] Top shape: 125 16 32 32 (2048000)
I0821 08:26:51.464339 32487 net.cpp:165] Memory required for data: 820737500
I0821 08:26:51.464371 32487 layer_factory.hpp:77] Creating layer L1_b9_cbr2_scale
I0821 08:26:51.464381 32487 net.cpp:100] Creating Layer L1_b9_cbr2_scale
I0821 08:26:51.464388 32487 net.cpp:434] L1_b9_cbr2_scale <- L1_b9_cbr2_bn_top
I0821 08:26:51.464398 32487 net.cpp:395] L1_b9_cbr2_scale -> L1_b9_cbr2_bn_top (in-place)
I0821 08:26:51.464455 32487 layer_factory.hpp:77] Creating layer L1_b9_cbr2_scale
I0821 08:26:51.464597 32487 net.cpp:150] Setting up L1_b9_cbr2_scale
I0821 08:26:51.464610 32487 net.cpp:157] Top shape: 125 16 32 32 (2048000)
I0821 08:26:51.464617 32487 net.cpp:165] Memory required for data: 828929500
I0821 08:26:51.464625 32487 layer_factory.hpp:77] Creating layer L1_b9_sum_eltwise
I0821 08:26:51.464634 32487 net.cpp:100] Creating Layer L1_b9_sum_eltwise
I0821 08:26:51.464642 32487 net.cpp:434] L1_b9_sum_eltwise <- L1_b9_cbr2_bn_top
I0821 08:26:51.464648 32487 net.cpp:434] L1_b9_sum_eltwise <- L1_b8_sum_eltwise_top_L1_b8_relu_0_split_1
I0821 08:26:51.464655 32487 net.cpp:408] L1_b9_sum_eltwise -> L1_b9_sum_eltwise_top
I0821 08:26:51.464687 32487 net.cpp:150] Setting up L1_b9_sum_eltwise
I0821 08:26:51.464696 32487 net.cpp:157] Top shape: 125 16 32 32 (2048000)
I0821 08:26:51.464701 32487 net.cpp:165] Memory required for data: 837121500
I0821 08:26:51.464706 32487 layer_factory.hpp:77] Creating layer L1_b9_relu
I0821 08:26:51.464717 32487 net.cpp:100] Creating Layer L1_b9_relu
I0821 08:26:51.464723 32487 net.cpp:434] L1_b9_relu <- L1_b9_sum_eltwise_top
I0821 08:26:51.464731 32487 net.cpp:395] L1_b9_relu -> L1_b9_sum_eltwise_top (in-place)
I0821 08:26:51.464740 32487 net.cpp:150] Setting up L1_b9_relu
I0821 08:26:51.464748 32487 net.cpp:157] Top shape: 125 16 32 32 (2048000)
I0821 08:26:51.464753 32487 net.cpp:165] Memory required for data: 845313500
I0821 08:26:51.464757 32487 layer_factory.hpp:77] Creating layer L1_b9_sum_eltwise_top_L1_b9_relu_0_split
I0821 08:26:51.464769 32487 net.cpp:100] Creating Layer L1_b9_sum_eltwise_top_L1_b9_relu_0_split
I0821 08:26:51.464776 32487 net.cpp:434] L1_b9_sum_eltwise_top_L1_b9_relu_0_split <- L1_b9_sum_eltwise_top
I0821 08:26:51.464783 32487 net.cpp:408] L1_b9_sum_eltwise_top_L1_b9_relu_0_split -> L1_b9_sum_eltwise_top_L1_b9_relu_0_split_0
I0821 08:26:51.464792 32487 net.cpp:408] L1_b9_sum_eltwise_top_L1_b9_relu_0_split -> L1_b9_sum_eltwise_top_L1_b9_relu_0_split_1
I0821 08:26:51.464838 32487 net.cpp:150] Setting up L1_b9_sum_eltwise_top_L1_b9_relu_0_split
I0821 08:26:51.464850 32487 net.cpp:157] Top shape: 125 16 32 32 (2048000)
I0821 08:26:51.464857 32487 net.cpp:157] Top shape: 125 16 32 32 (2048000)
I0821 08:26:51.464862 32487 net.cpp:165] Memory required for data: 861697500
I0821 08:26:51.464867 32487 layer_factory.hpp:77] Creating layer L2_b1_cbr1_conv
I0821 08:26:51.464881 32487 net.cpp:100] Creating Layer L2_b1_cbr1_conv
I0821 08:26:51.464889 32487 net.cpp:434] L2_b1_cbr1_conv <- L1_b9_sum_eltwise_top_L1_b9_relu_0_split_0
I0821 08:26:51.464897 32487 net.cpp:408] L2_b1_cbr1_conv -> L2_b1_cbr1_conv_top
I0821 08:26:51.465220 32487 net.cpp:150] Setting up L2_b1_cbr1_conv
I0821 08:26:51.465235 32487 net.cpp:157] Top shape: 125 16 16 16 (512000)
I0821 08:26:51.465240 32487 net.cpp:165] Memory required for data: 863745500
I0821 08:26:51.465250 32487 layer_factory.hpp:77] Creating layer L2_b1_cbr1_bn
I0821 08:26:51.465267 32487 net.cpp:100] Creating Layer L2_b1_cbr1_bn
I0821 08:26:51.465276 32487 net.cpp:434] L2_b1_cbr1_bn <- L2_b1_cbr1_conv_top
I0821 08:26:51.465286 32487 net.cpp:408] L2_b1_cbr1_bn -> L2_b1_cbr1_bn_top
I0821 08:26:51.465526 32487 net.cpp:150] Setting up L2_b1_cbr1_bn
I0821 08:26:51.465540 32487 net.cpp:157] Top shape: 125 16 16 16 (512000)
I0821 08:26:51.465545 32487 net.cpp:165] Memory required for data: 865793500
I0821 08:26:51.465556 32487 layer_factory.hpp:77] Creating layer L2_b1_cbr1_scale
I0821 08:26:51.465565 32487 net.cpp:100] Creating Layer L2_b1_cbr1_scale
I0821 08:26:51.465577 32487 net.cpp:434] L2_b1_cbr1_scale <- L2_b1_cbr1_bn_top
I0821 08:26:51.465586 32487 net.cpp:395] L2_b1_cbr1_scale -> L2_b1_cbr1_bn_top (in-place)
I0821 08:26:51.465643 32487 layer_factory.hpp:77] Creating layer L2_b1_cbr1_scale
I0821 08:26:51.465783 32487 net.cpp:150] Setting up L2_b1_cbr1_scale
I0821 08:26:51.465796 32487 net.cpp:157] Top shape: 125 16 16 16 (512000)
I0821 08:26:51.465801 32487 net.cpp:165] Memory required for data: 867841500
I0821 08:26:51.465811 32487 layer_factory.hpp:77] Creating layer L2_b1_cbr1_relu
I0821 08:26:51.465822 32487 net.cpp:100] Creating Layer L2_b1_cbr1_relu
I0821 08:26:51.465828 32487 net.cpp:434] L2_b1_cbr1_relu <- L2_b1_cbr1_bn_top
I0821 08:26:51.465837 32487 net.cpp:395] L2_b1_cbr1_relu -> L2_b1_cbr1_bn_top (in-place)
I0821 08:26:51.465847 32487 net.cpp:150] Setting up L2_b1_cbr1_relu
I0821 08:26:51.465854 32487 net.cpp:157] Top shape: 125 16 16 16 (512000)
I0821 08:26:51.465858 32487 net.cpp:165] Memory required for data: 869889500
I0821 08:26:51.465864 32487 layer_factory.hpp:77] Creating layer L2_b1_cbr2_conv
I0821 08:26:51.465878 32487 net.cpp:100] Creating Layer L2_b1_cbr2_conv
I0821 08:26:51.465884 32487 net.cpp:434] L2_b1_cbr2_conv <- L2_b1_cbr1_bn_top
I0821 08:26:51.465893 32487 net.cpp:408] L2_b1_cbr2_conv -> L2_b1_cbr2_conv_top
I0821 08:26:51.466210 32487 net.cpp:150] Setting up L2_b1_cbr2_conv
I0821 08:26:51.466224 32487 net.cpp:157] Top shape: 125 16 16 16 (512000)
I0821 08:26:51.466229 32487 net.cpp:165] Memory required for data: 871937500
I0821 08:26:51.466238 32487 layer_factory.hpp:77] Creating layer L2_b1_cbr2_bn
I0821 08:26:51.466250 32487 net.cpp:100] Creating Layer L2_b1_cbr2_bn
I0821 08:26:51.466264 32487 net.cpp:434] L2_b1_cbr2_bn <- L2_b1_cbr2_conv_top
I0821 08:26:51.466274 32487 net.cpp:408] L2_b1_cbr2_bn -> L2_b1_cbr2_bn_top
I0821 08:26:51.466517 32487 net.cpp:150] Setting up L2_b1_cbr2_bn
I0821 08:26:51.466536 32487 net.cpp:157] Top shape: 125 16 16 16 (512000)
I0821 08:26:51.466542 32487 net.cpp:165] Memory required for data: 873985500
I0821 08:26:51.466552 32487 layer_factory.hpp:77] Creating layer L2_b1_cbr2_scale
I0821 08:26:51.466562 32487 net.cpp:100] Creating Layer L2_b1_cbr2_scale
I0821 08:26:51.466567 32487 net.cpp:434] L2_b1_cbr2_scale <- L2_b1_cbr2_bn_top
I0821 08:26:51.466575 32487 net.cpp:395] L2_b1_cbr2_scale -> L2_b1_cbr2_bn_top (in-place)
I0821 08:26:51.466629 32487 layer_factory.hpp:77] Creating layer L2_b1_cbr2_scale
I0821 08:26:51.466779 32487 net.cpp:150] Setting up L2_b1_cbr2_scale
I0821 08:26:51.466792 32487 net.cpp:157] Top shape: 125 16 16 16 (512000)
I0821 08:26:51.466799 32487 net.cpp:165] Memory required for data: 876033500
I0821 08:26:51.466807 32487 layer_factory.hpp:77] Creating layer L2_b1_pool
I0821 08:26:51.466817 32487 net.cpp:100] Creating Layer L2_b1_pool
I0821 08:26:51.466825 32487 net.cpp:434] L2_b1_pool <- L1_b9_sum_eltwise_top_L1_b9_relu_0_split_1
I0821 08:26:51.466835 32487 net.cpp:408] L2_b1_pool -> L2_b1_pool
I0821 08:26:51.466926 32487 net.cpp:150] Setting up L2_b1_pool
I0821 08:26:51.466941 32487 net.cpp:157] Top shape: 125 16 16 16 (512000)
I0821 08:26:51.466946 32487 net.cpp:165] Memory required for data: 878081500
I0821 08:26:51.466953 32487 layer_factory.hpp:77] Creating layer L2_b1_sum_eltwise
I0821 08:26:51.466965 32487 net.cpp:100] Creating Layer L2_b1_sum_eltwise
I0821 08:26:51.466972 32487 net.cpp:434] L2_b1_sum_eltwise <- L2_b1_cbr2_bn_top
I0821 08:26:51.466979 32487 net.cpp:434] L2_b1_sum_eltwise <- L2_b1_pool
I0821 08:26:51.466987 32487 net.cpp:408] L2_b1_sum_eltwise -> L2_b1_sum_eltwise_top
I0821 08:26:51.467020 32487 net.cpp:150] Setting up L2_b1_sum_eltwise
I0821 08:26:51.467031 32487 net.cpp:157] Top shape: 125 16 16 16 (512000)
I0821 08:26:51.467034 32487 net.cpp:165] Memory required for data: 880129500
I0821 08:26:51.467041 32487 layer_factory.hpp:77] Creating layer L2_b1_relu
I0821 08:26:51.467048 32487 net.cpp:100] Creating Layer L2_b1_relu
I0821 08:26:51.467053 32487 net.cpp:434] L2_b1_relu <- L2_b1_sum_eltwise_top
I0821 08:26:51.467072 32487 net.cpp:395] L2_b1_relu -> L2_b1_sum_eltwise_top (in-place)
I0821 08:26:51.467082 32487 net.cpp:150] Setting up L2_b1_relu
I0821 08:26:51.467090 32487 net.cpp:157] Top shape: 125 16 16 16 (512000)
I0821 08:26:51.467095 32487 net.cpp:165] Memory required for data: 882177500
I0821 08:26:51.467100 32487 layer_factory.hpp:77] Creating layer L2_b1_zeros
I0821 08:26:51.467151 32487 net.cpp:100] Creating Layer L2_b1_zeros
I0821 08:26:51.467165 32487 net.cpp:408] L2_b1_zeros -> L2_b1_zeros
I0821 08:26:51.469475 32487 net.cpp:150] Setting up L2_b1_zeros
I0821 08:26:51.469494 32487 net.cpp:157] Top shape: 125 16 16 16 (512000)
I0821 08:26:51.469499 32487 net.cpp:165] Memory required for data: 884225500
I0821 08:26:51.469506 32487 layer_factory.hpp:77] Creating layer L2_b1_concat0
I0821 08:26:51.469519 32487 net.cpp:100] Creating Layer L2_b1_concat0
I0821 08:26:51.469527 32487 net.cpp:434] L2_b1_concat0 <- L2_b1_sum_eltwise_top
I0821 08:26:51.469534 32487 net.cpp:434] L2_b1_concat0 <- L2_b1_zeros
I0821 08:26:51.469542 32487 net.cpp:408] L2_b1_concat0 -> L2_b1_concat0
I0821 08:26:51.469627 32487 net.cpp:150] Setting up L2_b1_concat0
I0821 08:26:51.469643 32487 net.cpp:157] Top shape: 125 32 16 16 (1024000)
I0821 08:26:51.469648 32487 net.cpp:165] Memory required for data: 888321500
I0821 08:26:51.469655 32487 layer_factory.hpp:77] Creating layer L2_b1_concat0_L2_b1_concat0_0_split
I0821 08:26:51.469662 32487 net.cpp:100] Creating Layer L2_b1_concat0_L2_b1_concat0_0_split
I0821 08:26:51.469668 32487 net.cpp:434] L2_b1_concat0_L2_b1_concat0_0_split <- L2_b1_concat0
I0821 08:26:51.469681 32487 net.cpp:408] L2_b1_concat0_L2_b1_concat0_0_split -> L2_b1_concat0_L2_b1_concat0_0_split_0
I0821 08:26:51.469691 32487 net.cpp:408] L2_b1_concat0_L2_b1_concat0_0_split -> L2_b1_concat0_L2_b1_concat0_0_split_1
I0821 08:26:51.469741 32487 net.cpp:150] Setting up L2_b1_concat0_L2_b1_concat0_0_split
I0821 08:26:51.469756 32487 net.cpp:157] Top shape: 125 32 16 16 (1024000)
I0821 08:26:51.469763 32487 net.cpp:157] Top shape: 125 32 16 16 (1024000)
I0821 08:26:51.469769 32487 net.cpp:165] Memory required for data: 896513500
I0821 08:26:51.469774 32487 layer_factory.hpp:77] Creating layer L2_b2_cbr1_conv
I0821 08:26:51.469785 32487 net.cpp:100] Creating Layer L2_b2_cbr1_conv
I0821 08:26:51.469792 32487 net.cpp:434] L2_b2_cbr1_conv <- L2_b1_concat0_L2_b1_concat0_0_split_0
I0821 08:26:51.469801 32487 net.cpp:408] L2_b2_cbr1_conv -> L2_b2_cbr1_conv_top
I0821 08:26:51.471242 32487 net.cpp:150] Setting up L2_b2_cbr1_conv
I0821 08:26:51.471266 32487 net.cpp:157] Top shape: 125 32 16 16 (1024000)
I0821 08:26:51.471271 32487 net.cpp:165] Memory required for data: 900609500
I0821 08:26:51.471282 32487 layer_factory.hpp:77] Creating layer L2_b2_cbr1_bn
I0821 08:26:51.471295 32487 net.cpp:100] Creating Layer L2_b2_cbr1_bn
I0821 08:26:51.471302 32487 net.cpp:434] L2_b2_cbr1_bn <- L2_b2_cbr1_conv_top
I0821 08:26:51.471314 32487 net.cpp:408] L2_b2_cbr1_bn -> L2_b2_cbr1_bn_top
I0821 08:26:51.471560 32487 net.cpp:150] Setting up L2_b2_cbr1_bn
I0821 08:26:51.471573 32487 net.cpp:157] Top shape: 125 32 16 16 (1024000)
I0821 08:26:51.471578 32487 net.cpp:165] Memory required for data: 904705500
I0821 08:26:51.471590 32487 layer_factory.hpp:77] Creating layer L2_b2_cbr1_scale
I0821 08:26:51.471598 32487 net.cpp:100] Creating Layer L2_b2_cbr1_scale
I0821 08:26:51.471606 32487 net.cpp:434] L2_b2_cbr1_scale <- L2_b2_cbr1_bn_top
I0821 08:26:51.471612 32487 net.cpp:395] L2_b2_cbr1_scale -> L2_b2_cbr1_bn_top (in-place)
I0821 08:26:51.471673 32487 layer_factory.hpp:77] Creating layer L2_b2_cbr1_scale
I0821 08:26:51.471822 32487 net.cpp:150] Setting up L2_b2_cbr1_scale
I0821 08:26:51.471835 32487 net.cpp:157] Top shape: 125 32 16 16 (1024000)
I0821 08:26:51.471840 32487 net.cpp:165] Memory required for data: 908801500
I0821 08:26:51.471849 32487 layer_factory.hpp:77] Creating layer L2_b2_cbr1_relu
I0821 08:26:51.471861 32487 net.cpp:100] Creating Layer L2_b2_cbr1_relu
I0821 08:26:51.471868 32487 net.cpp:434] L2_b2_cbr1_relu <- L2_b2_cbr1_bn_top
I0821 08:26:51.471884 32487 net.cpp:395] L2_b2_cbr1_relu -> L2_b2_cbr1_bn_top (in-place)
I0821 08:26:51.471895 32487 net.cpp:150] Setting up L2_b2_cbr1_relu
I0821 08:26:51.471904 32487 net.cpp:157] Top shape: 125 32 16 16 (1024000)
I0821 08:26:51.471909 32487 net.cpp:165] Memory required for data: 912897500
I0821 08:26:51.471913 32487 layer_factory.hpp:77] Creating layer L2_b2_cbr2_conv
I0821 08:26:51.471928 32487 net.cpp:100] Creating Layer L2_b2_cbr2_conv
I0821 08:26:51.471935 32487 net.cpp:434] L2_b2_cbr2_conv <- L2_b2_cbr1_bn_top
I0821 08:26:51.471946 32487 net.cpp:408] L2_b2_cbr2_conv -> L2_b2_cbr2_conv_top
I0821 08:26:51.472419 32487 net.cpp:150] Setting up L2_b2_cbr2_conv
I0821 08:26:51.472434 32487 net.cpp:157] Top shape: 125 32 16 16 (1024000)
I0821 08:26:51.472440 32487 net.cpp:165] Memory required for data: 916993500
I0821 08:26:51.472448 32487 layer_factory.hpp:77] Creating layer L2_b2_cbr2_bn
I0821 08:26:51.472461 32487 net.cpp:100] Creating Layer L2_b2_cbr2_bn
I0821 08:26:51.472468 32487 net.cpp:434] L2_b2_cbr2_bn <- L2_b2_cbr2_conv_top
I0821 08:26:51.472479 32487 net.cpp:408] L2_b2_cbr2_bn -> L2_b2_cbr2_bn_top
I0821 08:26:51.472724 32487 net.cpp:150] Setting up L2_b2_cbr2_bn
I0821 08:26:51.472743 32487 net.cpp:157] Top shape: 125 32 16 16 (1024000)
I0821 08:26:51.472749 32487 net.cpp:165] Memory required for data: 921089500
I0821 08:26:51.472760 32487 layer_factory.hpp:77] Creating layer L2_b2_cbr2_scale
I0821 08:26:51.472769 32487 net.cpp:100] Creating Layer L2_b2_cbr2_scale
I0821 08:26:51.472776 32487 net.cpp:434] L2_b2_cbr2_scale <- L2_b2_cbr2_bn_top
I0821 08:26:51.472784 32487 net.cpp:395] L2_b2_cbr2_scale -> L2_b2_cbr2_bn_top (in-place)
I0821 08:26:51.472839 32487 layer_factory.hpp:77] Creating layer L2_b2_cbr2_scale
I0821 08:26:51.472986 32487 net.cpp:150] Setting up L2_b2_cbr2_scale
I0821 08:26:51.473000 32487 net.cpp:157] Top shape: 125 32 16 16 (1024000)
I0821 08:26:51.473004 32487 net.cpp:165] Memory required for data: 925185500
I0821 08:26:51.473013 32487 layer_factory.hpp:77] Creating layer L2_b2_sum_eltwise
I0821 08:26:51.473022 32487 net.cpp:100] Creating Layer L2_b2_sum_eltwise
I0821 08:26:51.473029 32487 net.cpp:434] L2_b2_sum_eltwise <- L2_b2_cbr2_bn_top
I0821 08:26:51.473039 32487 net.cpp:434] L2_b2_sum_eltwise <- L2_b1_concat0_L2_b1_concat0_0_split_1
I0821 08:26:51.473048 32487 net.cpp:408] L2_b2_sum_eltwise -> L2_b2_sum_eltwise_top
I0821 08:26:51.473075 32487 net.cpp:150] Setting up L2_b2_sum_eltwise
I0821 08:26:51.473085 32487 net.cpp:157] Top shape: 125 32 16 16 (1024000)
I0821 08:26:51.473090 32487 net.cpp:165] Memory required for data: 929281500
I0821 08:26:51.473095 32487 layer_factory.hpp:77] Creating layer L2_b2_relu
I0821 08:26:51.473106 32487 net.cpp:100] Creating Layer L2_b2_relu
I0821 08:26:51.473112 32487 net.cpp:434] L2_b2_relu <- L2_b2_sum_eltwise_top
I0821 08:26:51.473120 32487 net.cpp:395] L2_b2_relu -> L2_b2_sum_eltwise_top (in-place)
I0821 08:26:51.473129 32487 net.cpp:150] Setting up L2_b2_relu
I0821 08:26:51.473137 32487 net.cpp:157] Top shape: 125 32 16 16 (1024000)
I0821 08:26:51.473141 32487 net.cpp:165] Memory required for data: 933377500
I0821 08:26:51.473146 32487 layer_factory.hpp:77] Creating layer L2_b2_sum_eltwise_top_L2_b2_relu_0_split
I0821 08:26:51.473153 32487 net.cpp:100] Creating Layer L2_b2_sum_eltwise_top_L2_b2_relu_0_split
I0821 08:26:51.473160 32487 net.cpp:434] L2_b2_sum_eltwise_top_L2_b2_relu_0_split <- L2_b2_sum_eltwise_top
I0821 08:26:51.473166 32487 net.cpp:408] L2_b2_sum_eltwise_top_L2_b2_relu_0_split -> L2_b2_sum_eltwise_top_L2_b2_relu_0_split_0
I0821 08:26:51.473176 32487 net.cpp:408] L2_b2_sum_eltwise_top_L2_b2_relu_0_split -> L2_b2_sum_eltwise_top_L2_b2_relu_0_split_1
I0821 08:26:51.473223 32487 net.cpp:150] Setting up L2_b2_sum_eltwise_top_L2_b2_relu_0_split
I0821 08:26:51.473235 32487 net.cpp:157] Top shape: 125 32 16 16 (1024000)
I0821 08:26:51.473242 32487 net.cpp:157] Top shape: 125 32 16 16 (1024000)
I0821 08:26:51.473248 32487 net.cpp:165] Memory required for data: 941569500
I0821 08:26:51.473253 32487 layer_factory.hpp:77] Creating layer L2_b3_cbr1_conv
I0821 08:26:51.473282 32487 net.cpp:100] Creating Layer L2_b3_cbr1_conv
I0821 08:26:51.473290 32487 net.cpp:434] L2_b3_cbr1_conv <- L2_b2_sum_eltwise_top_L2_b2_relu_0_split_0
I0821 08:26:51.473300 32487 net.cpp:408] L2_b3_cbr1_conv -> L2_b3_cbr1_conv_top
I0821 08:26:51.473764 32487 net.cpp:150] Setting up L2_b3_cbr1_conv
I0821 08:26:51.473779 32487 net.cpp:157] Top shape: 125 32 16 16 (1024000)
I0821 08:26:51.473784 32487 net.cpp:165] Memory required for data: 945665500
I0821 08:26:51.473793 32487 layer_factory.hpp:77] Creating layer L2_b3_cbr1_bn
I0821 08:26:51.473805 32487 net.cpp:100] Creating Layer L2_b3_cbr1_bn
I0821 08:26:51.473812 32487 net.cpp:434] L2_b3_cbr1_bn <- L2_b3_cbr1_conv_top
I0821 08:26:51.473824 32487 net.cpp:408] L2_b3_cbr1_bn -> L2_b3_cbr1_bn_top
I0821 08:26:51.474071 32487 net.cpp:150] Setting up L2_b3_cbr1_bn
I0821 08:26:51.474083 32487 net.cpp:157] Top shape: 125 32 16 16 (1024000)
I0821 08:26:51.474088 32487 net.cpp:165] Memory required for data: 949761500
I0821 08:26:51.474099 32487 layer_factory.hpp:77] Creating layer L2_b3_cbr1_scale
I0821 08:26:51.474107 32487 net.cpp:100] Creating Layer L2_b3_cbr1_scale
I0821 08:26:51.474114 32487 net.cpp:434] L2_b3_cbr1_scale <- L2_b3_cbr1_bn_top
I0821 08:26:51.474122 32487 net.cpp:395] L2_b3_cbr1_scale -> L2_b3_cbr1_bn_top (in-place)
I0821 08:26:51.474180 32487 layer_factory.hpp:77] Creating layer L2_b3_cbr1_scale
I0821 08:26:51.474336 32487 net.cpp:150] Setting up L2_b3_cbr1_scale
I0821 08:26:51.474350 32487 net.cpp:157] Top shape: 125 32 16 16 (1024000)
I0821 08:26:51.474356 32487 net.cpp:165] Memory required for data: 953857500
I0821 08:26:51.474365 32487 layer_factory.hpp:77] Creating layer L2_b3_cbr1_relu
I0821 08:26:51.474380 32487 net.cpp:100] Creating Layer L2_b3_cbr1_relu
I0821 08:26:51.474385 32487 net.cpp:434] L2_b3_cbr1_relu <- L2_b3_cbr1_bn_top
I0821 08:26:51.474393 32487 net.cpp:395] L2_b3_cbr1_relu -> L2_b3_cbr1_bn_top (in-place)
I0821 08:26:51.474403 32487 net.cpp:150] Setting up L2_b3_cbr1_relu
I0821 08:26:51.474411 32487 net.cpp:157] Top shape: 125 32 16 16 (1024000)
I0821 08:26:51.474416 32487 net.cpp:165] Memory required for data: 957953500
I0821 08:26:51.474421 32487 layer_factory.hpp:77] Creating layer L2_b3_cbr2_conv
I0821 08:26:51.474434 32487 net.cpp:100] Creating Layer L2_b3_cbr2_conv
I0821 08:26:51.474442 32487 net.cpp:434] L2_b3_cbr2_conv <- L2_b3_cbr1_bn_top
I0821 08:26:51.474449 32487 net.cpp:408] L2_b3_cbr2_conv -> L2_b3_cbr2_conv_top
I0821 08:26:51.474911 32487 net.cpp:150] Setting up L2_b3_cbr2_conv
I0821 08:26:51.474925 32487 net.cpp:157] Top shape: 125 32 16 16 (1024000)
I0821 08:26:51.474931 32487 net.cpp:165] Memory required for data: 962049500
I0821 08:26:51.474939 32487 layer_factory.hpp:77] Creating layer L2_b3_cbr2_bn
I0821 08:26:51.474951 32487 net.cpp:100] Creating Layer L2_b3_cbr2_bn
I0821 08:26:51.474958 32487 net.cpp:434] L2_b3_cbr2_bn <- L2_b3_cbr2_conv_top
I0821 08:26:51.474967 32487 net.cpp:408] L2_b3_cbr2_bn -> L2_b3_cbr2_bn_top
I0821 08:26:51.475214 32487 net.cpp:150] Setting up L2_b3_cbr2_bn
I0821 08:26:51.475231 32487 net.cpp:157] Top shape: 125 32 16 16 (1024000)
I0821 08:26:51.475237 32487 net.cpp:165] Memory required for data: 966145500
I0821 08:26:51.475247 32487 layer_factory.hpp:77] Creating layer L2_b3_cbr2_scale
I0821 08:26:51.475261 32487 net.cpp:100] Creating Layer L2_b3_cbr2_scale
I0821 08:26:51.475268 32487 net.cpp:434] L2_b3_cbr2_scale <- L2_b3_cbr2_bn_top
I0821 08:26:51.475277 32487 net.cpp:395] L2_b3_cbr2_scale -> L2_b3_cbr2_bn_top (in-place)
I0821 08:26:51.475333 32487 layer_factory.hpp:77] Creating layer L2_b3_cbr2_scale
I0821 08:26:51.475482 32487 net.cpp:150] Setting up L2_b3_cbr2_scale
I0821 08:26:51.475497 32487 net.cpp:157] Top shape: 125 32 16 16 (1024000)
I0821 08:26:51.475502 32487 net.cpp:165] Memory required for data: 970241500
I0821 08:26:51.475510 32487 layer_factory.hpp:77] Creating layer L2_b3_sum_eltwise
I0821 08:26:51.475519 32487 net.cpp:100] Creating Layer L2_b3_sum_eltwise
I0821 08:26:51.475527 32487 net.cpp:434] L2_b3_sum_eltwise <- L2_b3_cbr2_bn_top
I0821 08:26:51.475540 32487 net.cpp:434] L2_b3_sum_eltwise <- L2_b2_sum_eltwise_top_L2_b2_relu_0_split_1
I0821 08:26:51.475553 32487 net.cpp:408] L2_b3_sum_eltwise -> L2_b3_sum_eltwise_top
I0821 08:26:51.475582 32487 net.cpp:150] Setting up L2_b3_sum_eltwise
I0821 08:26:51.475592 32487 net.cpp:157] Top shape: 125 32 16 16 (1024000)
I0821 08:26:51.475597 32487 net.cpp:165] Memory required for data: 974337500
I0821 08:26:51.475602 32487 layer_factory.hpp:77] Creating layer L2_b3_relu
I0821 08:26:51.475625 32487 net.cpp:100] Creating Layer L2_b3_relu
I0821 08:26:51.475634 32487 net.cpp:434] L2_b3_relu <- L2_b3_sum_eltwise_top
I0821 08:26:51.475642 32487 net.cpp:395] L2_b3_relu -> L2_b3_sum_eltwise_top (in-place)
I0821 08:26:51.475653 32487 net.cpp:150] Setting up L2_b3_relu
I0821 08:26:51.475661 32487 net.cpp:157] Top shape: 125 32 16 16 (1024000)
I0821 08:26:51.475666 32487 net.cpp:165] Memory required for data: 978433500
I0821 08:26:51.475670 32487 layer_factory.hpp:77] Creating layer L2_b3_sum_eltwise_top_L2_b3_relu_0_split
I0821 08:26:51.475678 32487 net.cpp:100] Creating Layer L2_b3_sum_eltwise_top_L2_b3_relu_0_split
I0821 08:26:51.475683 32487 net.cpp:434] L2_b3_sum_eltwise_top_L2_b3_relu_0_split <- L2_b3_sum_eltwise_top
I0821 08:26:51.475692 32487 net.cpp:408] L2_b3_sum_eltwise_top_L2_b3_relu_0_split -> L2_b3_sum_eltwise_top_L2_b3_relu_0_split_0
I0821 08:26:51.475700 32487 net.cpp:408] L2_b3_sum_eltwise_top_L2_b3_relu_0_split -> L2_b3_sum_eltwise_top_L2_b3_relu_0_split_1
I0821 08:26:51.475749 32487 net.cpp:150] Setting up L2_b3_sum_eltwise_top_L2_b3_relu_0_split
I0821 08:26:51.475761 32487 net.cpp:157] Top shape: 125 32 16 16 (1024000)
I0821 08:26:51.475769 32487 net.cpp:157] Top shape: 125 32 16 16 (1024000)
I0821 08:26:51.475772 32487 net.cpp:165] Memory required for data: 986625500
I0821 08:26:51.475778 32487 layer_factory.hpp:77] Creating layer L2_b4_cbr1_conv
I0821 08:26:51.475790 32487 net.cpp:100] Creating Layer L2_b4_cbr1_conv
I0821 08:26:51.475795 32487 net.cpp:434] L2_b4_cbr1_conv <- L2_b3_sum_eltwise_top_L2_b3_relu_0_split_0
I0821 08:26:51.475807 32487 net.cpp:408] L2_b4_cbr1_conv -> L2_b4_cbr1_conv_top
I0821 08:26:51.476272 32487 net.cpp:150] Setting up L2_b4_cbr1_conv
I0821 08:26:51.476287 32487 net.cpp:157] Top shape: 125 32 16 16 (1024000)
I0821 08:26:51.476294 32487 net.cpp:165] Memory required for data: 990721500
I0821 08:26:51.476302 32487 layer_factory.hpp:77] Creating layer L2_b4_cbr1_bn
I0821 08:26:51.476311 32487 net.cpp:100] Creating Layer L2_b4_cbr1_bn
I0821 08:26:51.476317 32487 net.cpp:434] L2_b4_cbr1_bn <- L2_b4_cbr1_conv_top
I0821 08:26:51.476335 32487 net.cpp:408] L2_b4_cbr1_bn -> L2_b4_cbr1_bn_top
I0821 08:26:51.476583 32487 net.cpp:150] Setting up L2_b4_cbr1_bn
I0821 08:26:51.476595 32487 net.cpp:157] Top shape: 125 32 16 16 (1024000)
I0821 08:26:51.476600 32487 net.cpp:165] Memory required for data: 994817500
I0821 08:26:51.476611 32487 layer_factory.hpp:77] Creating layer L2_b4_cbr1_scale
I0821 08:26:51.476624 32487 net.cpp:100] Creating Layer L2_b4_cbr1_scale
I0821 08:26:51.476629 32487 net.cpp:434] L2_b4_cbr1_scale <- L2_b4_cbr1_bn_top
I0821 08:26:51.476639 32487 net.cpp:395] L2_b4_cbr1_scale -> L2_b4_cbr1_bn_top (in-place)
I0821 08:26:51.476693 32487 layer_factory.hpp:77] Creating layer L2_b4_cbr1_scale
I0821 08:26:51.476842 32487 net.cpp:150] Setting up L2_b4_cbr1_scale
I0821 08:26:51.476856 32487 net.cpp:157] Top shape: 125 32 16 16 (1024000)
I0821 08:26:51.476861 32487 net.cpp:165] Memory required for data: 998913500
I0821 08:26:51.476871 32487 layer_factory.hpp:77] Creating layer L2_b4_cbr1_relu
I0821 08:26:51.476881 32487 net.cpp:100] Creating Layer L2_b4_cbr1_relu
I0821 08:26:51.476888 32487 net.cpp:434] L2_b4_cbr1_relu <- L2_b4_cbr1_bn_top
I0821 08:26:51.476896 32487 net.cpp:395] L2_b4_cbr1_relu -> L2_b4_cbr1_bn_top (in-place)
I0821 08:26:51.476905 32487 net.cpp:150] Setting up L2_b4_cbr1_relu
I0821 08:26:51.476912 32487 net.cpp:157] Top shape: 125 32 16 16 (1024000)
I0821 08:26:51.476917 32487 net.cpp:165] Memory required for data: 1003009500
I0821 08:26:51.476922 32487 layer_factory.hpp:77] Creating layer L2_b4_cbr2_conv
I0821 08:26:51.476943 32487 net.cpp:100] Creating Layer L2_b4_cbr2_conv
I0821 08:26:51.476950 32487 net.cpp:434] L2_b4_cbr2_conv <- L2_b4_cbr1_bn_top
I0821 08:26:51.476961 32487 net.cpp:408] L2_b4_cbr2_conv -> L2_b4_cbr2_conv_top
I0821 08:26:51.477428 32487 net.cpp:150] Setting up L2_b4_cbr2_conv
I0821 08:26:51.477444 32487 net.cpp:157] Top shape: 125 32 16 16 (1024000)
I0821 08:26:51.477449 32487 net.cpp:165] Memory required for data: 1007105500
I0821 08:26:51.477458 32487 layer_factory.hpp:77] Creating layer L2_b4_cbr2_bn
I0821 08:26:51.477468 32487 net.cpp:100] Creating Layer L2_b4_cbr2_bn
I0821 08:26:51.477474 32487 net.cpp:434] L2_b4_cbr2_bn <- L2_b4_cbr2_conv_top
I0821 08:26:51.477486 32487 net.cpp:408] L2_b4_cbr2_bn -> L2_b4_cbr2_bn_top
I0821 08:26:51.477733 32487 net.cpp:150] Setting up L2_b4_cbr2_bn
I0821 08:26:51.477746 32487 net.cpp:157] Top shape: 125 32 16 16 (1024000)
I0821 08:26:51.477751 32487 net.cpp:165] Memory required for data: 1011201500
I0821 08:26:51.477762 32487 layer_factory.hpp:77] Creating layer L2_b4_cbr2_scale
I0821 08:26:51.477774 32487 net.cpp:100] Creating Layer L2_b4_cbr2_scale
I0821 08:26:51.477780 32487 net.cpp:434] L2_b4_cbr2_scale <- L2_b4_cbr2_bn_top
I0821 08:26:51.477788 32487 net.cpp:395] L2_b4_cbr2_scale -> L2_b4_cbr2_bn_top (in-place)
I0821 08:26:51.477846 32487 layer_factory.hpp:77] Creating layer L2_b4_cbr2_scale
I0821 08:26:51.477994 32487 net.cpp:150] Setting up L2_b4_cbr2_scale
I0821 08:26:51.478008 32487 net.cpp:157] Top shape: 125 32 16 16 (1024000)
I0821 08:26:51.478013 32487 net.cpp:165] Memory required for data: 1015297500
I0821 08:26:51.478021 32487 layer_factory.hpp:77] Creating layer L2_b4_sum_eltwise
I0821 08:26:51.478036 32487 net.cpp:100] Creating Layer L2_b4_sum_eltwise
I0821 08:26:51.478044 32487 net.cpp:434] L2_b4_sum_eltwise <- L2_b4_cbr2_bn_top
I0821 08:26:51.478050 32487 net.cpp:434] L2_b4_sum_eltwise <- L2_b3_sum_eltwise_top_L2_b3_relu_0_split_1
I0821 08:26:51.478058 32487 net.cpp:408] L2_b4_sum_eltwise -> L2_b4_sum_eltwise_top
I0821 08:26:51.478090 32487 net.cpp:150] Setting up L2_b4_sum_eltwise
I0821 08:26:51.478099 32487 net.cpp:157] Top shape: 125 32 16 16 (1024000)
I0821 08:26:51.478104 32487 net.cpp:165] Memory required for data: 1019393500
I0821 08:26:51.478109 32487 layer_factory.hpp:77] Creating layer L2_b4_relu
I0821 08:26:51.478117 32487 net.cpp:100] Creating Layer L2_b4_relu
I0821 08:26:51.478123 32487 net.cpp:434] L2_b4_relu <- L2_b4_sum_eltwise_top
I0821 08:26:51.478130 32487 net.cpp:395] L2_b4_relu -> L2_b4_sum_eltwise_top (in-place)
I0821 08:26:51.478142 32487 net.cpp:150] Setting up L2_b4_relu
I0821 08:26:51.478150 32487 net.cpp:157] Top shape: 125 32 16 16 (1024000)
I0821 08:26:51.478155 32487 net.cpp:165] Memory required for data: 1023489500
I0821 08:26:51.478160 32487 layer_factory.hpp:77] Creating layer L2_b4_sum_eltwise_top_L2_b4_relu_0_split
I0821 08:26:51.478168 32487 net.cpp:100] Creating Layer L2_b4_sum_eltwise_top_L2_b4_relu_0_split
I0821 08:26:51.478173 32487 net.cpp:434] L2_b4_sum_eltwise_top_L2_b4_relu_0_split <- L2_b4_sum_eltwise_top
I0821 08:26:51.478180 32487 net.cpp:408] L2_b4_sum_eltwise_top_L2_b4_relu_0_split -> L2_b4_sum_eltwise_top_L2_b4_relu_0_split_0
I0821 08:26:51.478190 32487 net.cpp:408] L2_b4_sum_eltwise_top_L2_b4_relu_0_split -> L2_b4_sum_eltwise_top_L2_b4_relu_0_split_1
I0821 08:26:51.478238 32487 net.cpp:150] Setting up L2_b4_sum_eltwise_top_L2_b4_relu_0_split
I0821 08:26:51.478250 32487 net.cpp:157] Top shape: 125 32 16 16 (1024000)
I0821 08:26:51.478262 32487 net.cpp:157] Top shape: 125 32 16 16 (1024000)
I0821 08:26:51.478267 32487 net.cpp:165] Memory required for data: 1031681500
I0821 08:26:51.478273 32487 layer_factory.hpp:77] Creating layer L2_b5_cbr1_conv
I0821 08:26:51.478284 32487 net.cpp:100] Creating Layer L2_b5_cbr1_conv
I0821 08:26:51.478291 32487 net.cpp:434] L2_b5_cbr1_conv <- L2_b4_sum_eltwise_top_L2_b4_relu_0_split_0
I0821 08:26:51.478302 32487 net.cpp:408] L2_b5_cbr1_conv -> L2_b5_cbr1_conv_top
I0821 08:26:51.478767 32487 net.cpp:150] Setting up L2_b5_cbr1_conv
I0821 08:26:51.478788 32487 net.cpp:157] Top shape: 125 32 16 16 (1024000)
I0821 08:26:51.478793 32487 net.cpp:165] Memory required for data: 1035777500
I0821 08:26:51.478802 32487 layer_factory.hpp:77] Creating layer L2_b5_cbr1_bn
I0821 08:26:51.478812 32487 net.cpp:100] Creating Layer L2_b5_cbr1_bn
I0821 08:26:51.478818 32487 net.cpp:434] L2_b5_cbr1_bn <- L2_b5_cbr1_conv_top
I0821 08:26:51.478829 32487 net.cpp:408] L2_b5_cbr1_bn -> L2_b5_cbr1_bn_top
I0821 08:26:51.479081 32487 net.cpp:150] Setting up L2_b5_cbr1_bn
I0821 08:26:51.479095 32487 net.cpp:157] Top shape: 125 32 16 16 (1024000)
I0821 08:26:51.479100 32487 net.cpp:165] Memory required for data: 1039873500
I0821 08:26:51.479111 32487 layer_factory.hpp:77] Creating layer L2_b5_cbr1_scale
I0821 08:26:51.479123 32487 net.cpp:100] Creating Layer L2_b5_cbr1_scale
I0821 08:26:51.479130 32487 net.cpp:434] L2_b5_cbr1_scale <- L2_b5_cbr1_bn_top
I0821 08:26:51.479137 32487 net.cpp:395] L2_b5_cbr1_scale -> L2_b5_cbr1_bn_top (in-place)
I0821 08:26:51.479193 32487 layer_factory.hpp:77] Creating layer L2_b5_cbr1_scale
I0821 08:26:51.479353 32487 net.cpp:150] Setting up L2_b5_cbr1_scale
I0821 08:26:51.479367 32487 net.cpp:157] Top shape: 125 32 16 16 (1024000)
I0821 08:26:51.479372 32487 net.cpp:165] Memory required for data: 1043969500
I0821 08:26:51.479382 32487 layer_factory.hpp:77] Creating layer L2_b5_cbr1_relu
I0821 08:26:51.479393 32487 net.cpp:100] Creating Layer L2_b5_cbr1_relu
I0821 08:26:51.479399 32487 net.cpp:434] L2_b5_cbr1_relu <- L2_b5_cbr1_bn_top
I0821 08:26:51.479408 32487 net.cpp:395] L2_b5_cbr1_relu -> L2_b5_cbr1_bn_top (in-place)
I0821 08:26:51.479418 32487 net.cpp:150] Setting up L2_b5_cbr1_relu
I0821 08:26:51.479424 32487 net.cpp:157] Top shape: 125 32 16 16 (1024000)
I0821 08:26:51.479429 32487 net.cpp:165] Memory required for data: 1048065500
I0821 08:26:51.479434 32487 layer_factory.hpp:77] Creating layer L2_b5_cbr2_conv
I0821 08:26:51.479450 32487 net.cpp:100] Creating Layer L2_b5_cbr2_conv
I0821 08:26:51.479457 32487 net.cpp:434] L2_b5_cbr2_conv <- L2_b5_cbr1_bn_top
I0821 08:26:51.479468 32487 net.cpp:408] L2_b5_cbr2_conv -> L2_b5_cbr2_conv_top
I0821 08:26:51.479928 32487 net.cpp:150] Setting up L2_b5_cbr2_conv
I0821 08:26:51.479943 32487 net.cpp:157] Top shape: 125 32 16 16 (1024000)
I0821 08:26:51.479948 32487 net.cpp:165] Memory required for data: 1052161500
I0821 08:26:51.479957 32487 layer_factory.hpp:77] Creating layer L2_b5_cbr2_bn
I0821 08:26:51.479966 32487 net.cpp:100] Creating Layer L2_b5_cbr2_bn
I0821 08:26:51.479972 32487 net.cpp:434] L2_b5_cbr2_bn <- L2_b5_cbr2_conv_top
I0821 08:26:51.479984 32487 net.cpp:408] L2_b5_cbr2_bn -> L2_b5_cbr2_bn_top
I0821 08:26:51.480232 32487 net.cpp:150] Setting up L2_b5_cbr2_bn
I0821 08:26:51.480244 32487 net.cpp:157] Top shape: 125 32 16 16 (1024000)
I0821 08:26:51.480250 32487 net.cpp:165] Memory required for data: 1056257500
I0821 08:26:51.480265 32487 layer_factory.hpp:77] Creating layer L2_b5_cbr2_scale
I0821 08:26:51.480278 32487 net.cpp:100] Creating Layer L2_b5_cbr2_scale
I0821 08:26:51.480285 32487 net.cpp:434] L2_b5_cbr2_scale <- L2_b5_cbr2_bn_top
I0821 08:26:51.480293 32487 net.cpp:395] L2_b5_cbr2_scale -> L2_b5_cbr2_bn_top (in-place)
I0821 08:26:51.480346 32487 layer_factory.hpp:77] Creating layer L2_b5_cbr2_scale
I0821 08:26:51.480494 32487 net.cpp:150] Setting up L2_b5_cbr2_scale
I0821 08:26:51.480509 32487 net.cpp:157] Top shape: 125 32 16 16 (1024000)
I0821 08:26:51.480514 32487 net.cpp:165] Memory required for data: 1060353500
I0821 08:26:51.480522 32487 layer_factory.hpp:77] Creating layer L2_b5_sum_eltwise
I0821 08:26:51.480531 32487 net.cpp:100] Creating Layer L2_b5_sum_eltwise
I0821 08:26:51.480538 32487 net.cpp:434] L2_b5_sum_eltwise <- L2_b5_cbr2_bn_top
I0821 08:26:51.480545 32487 net.cpp:434] L2_b5_sum_eltwise <- L2_b4_sum_eltwise_top_L2_b4_relu_0_split_1
I0821 08:26:51.480556 32487 net.cpp:408] L2_b5_sum_eltwise -> L2_b5_sum_eltwise_top
I0821 08:26:51.480582 32487 net.cpp:150] Setting up L2_b5_sum_eltwise
I0821 08:26:51.480595 32487 net.cpp:157] Top shape: 125 32 16 16 (1024000)
I0821 08:26:51.480607 32487 net.cpp:165] Memory required for data: 1064449500
I0821 08:26:51.480613 32487 layer_factory.hpp:77] Creating layer L2_b5_relu
I0821 08:26:51.480621 32487 net.cpp:100] Creating Layer L2_b5_relu
I0821 08:26:51.480628 32487 net.cpp:434] L2_b5_relu <- L2_b5_sum_eltwise_top
I0821 08:26:51.480634 32487 net.cpp:395] L2_b5_relu -> L2_b5_sum_eltwise_top (in-place)
I0821 08:26:51.480644 32487 net.cpp:150] Setting up L2_b5_relu
I0821 08:26:51.480651 32487 net.cpp:157] Top shape: 125 32 16 16 (1024000)
I0821 08:26:51.480656 32487 net.cpp:165] Memory required for data: 1068545500
I0821 08:26:51.480661 32487 layer_factory.hpp:77] Creating layer L2_b5_sum_eltwise_top_L2_b5_relu_0_split
I0821 08:26:51.480671 32487 net.cpp:100] Creating Layer L2_b5_sum_eltwise_top_L2_b5_relu_0_split
I0821 08:26:51.480677 32487 net.cpp:434] L2_b5_sum_eltwise_top_L2_b5_relu_0_split <- L2_b5_sum_eltwise_top
I0821 08:26:51.480684 32487 net.cpp:408] L2_b5_sum_eltwise_top_L2_b5_relu_0_split -> L2_b5_sum_eltwise_top_L2_b5_relu_0_split_0
I0821 08:26:51.480695 32487 net.cpp:408] L2_b5_sum_eltwise_top_L2_b5_relu_0_split -> L2_b5_sum_eltwise_top_L2_b5_relu_0_split_1
I0821 08:26:51.480742 32487 net.cpp:150] Setting up L2_b5_sum_eltwise_top_L2_b5_relu_0_split
I0821 08:26:51.480756 32487 net.cpp:157] Top shape: 125 32 16 16 (1024000)
I0821 08:26:51.480762 32487 net.cpp:157] Top shape: 125 32 16 16 (1024000)
I0821 08:26:51.480767 32487 net.cpp:165] Memory required for data: 1076737500
I0821 08:26:51.480772 32487 layer_factory.hpp:77] Creating layer L2_b6_cbr1_conv
I0821 08:26:51.480783 32487 net.cpp:100] Creating Layer L2_b6_cbr1_conv
I0821 08:26:51.480790 32487 net.cpp:434] L2_b6_cbr1_conv <- L2_b5_sum_eltwise_top_L2_b5_relu_0_split_0
I0821 08:26:51.480801 32487 net.cpp:408] L2_b6_cbr1_conv -> L2_b6_cbr1_conv_top
I0821 08:26:51.481276 32487 net.cpp:150] Setting up L2_b6_cbr1_conv
I0821 08:26:51.481292 32487 net.cpp:157] Top shape: 125 32 16 16 (1024000)
I0821 08:26:51.481297 32487 net.cpp:165] Memory required for data: 1080833500
I0821 08:26:51.481305 32487 layer_factory.hpp:77] Creating layer L2_b6_cbr1_bn
I0821 08:26:51.481315 32487 net.cpp:100] Creating Layer L2_b6_cbr1_bn
I0821 08:26:51.481322 32487 net.cpp:434] L2_b6_cbr1_bn <- L2_b6_cbr1_conv_top
I0821 08:26:51.481333 32487 net.cpp:408] L2_b6_cbr1_bn -> L2_b6_cbr1_bn_top
I0821 08:26:51.481586 32487 net.cpp:150] Setting up L2_b6_cbr1_bn
I0821 08:26:51.481600 32487 net.cpp:157] Top shape: 125 32 16 16 (1024000)
I0821 08:26:51.481606 32487 net.cpp:165] Memory required for data: 1084929500
I0821 08:26:51.481616 32487 layer_factory.hpp:77] Creating layer L2_b6_cbr1_scale
I0821 08:26:51.481628 32487 net.cpp:100] Creating Layer L2_b6_cbr1_scale
I0821 08:26:51.481634 32487 net.cpp:434] L2_b6_cbr1_scale <- L2_b6_cbr1_bn_top
I0821 08:26:51.481642 32487 net.cpp:395] L2_b6_cbr1_scale -> L2_b6_cbr1_bn_top (in-place)
I0821 08:26:51.481698 32487 layer_factory.hpp:77] Creating layer L2_b6_cbr1_scale
I0821 08:26:51.481843 32487 net.cpp:150] Setting up L2_b6_cbr1_scale
I0821 08:26:51.481856 32487 net.cpp:157] Top shape: 125 32 16 16 (1024000)
I0821 08:26:51.481863 32487 net.cpp:165] Memory required for data: 1089025500
I0821 08:26:51.481871 32487 layer_factory.hpp:77] Creating layer L2_b6_cbr1_relu
I0821 08:26:51.481879 32487 net.cpp:100] Creating Layer L2_b6_cbr1_relu
I0821 08:26:51.481886 32487 net.cpp:434] L2_b6_cbr1_relu <- L2_b6_cbr1_bn_top
I0821 08:26:51.481896 32487 net.cpp:395] L2_b6_cbr1_relu -> L2_b6_cbr1_bn_top (in-place)
I0821 08:26:51.481907 32487 net.cpp:150] Setting up L2_b6_cbr1_relu
I0821 08:26:51.481914 32487 net.cpp:157] Top shape: 125 32 16 16 (1024000)
I0821 08:26:51.481920 32487 net.cpp:165] Memory required for data: 1093121500
I0821 08:26:51.481925 32487 layer_factory.hpp:77] Creating layer L2_b6_cbr2_conv
I0821 08:26:51.481940 32487 net.cpp:100] Creating Layer L2_b6_cbr2_conv
I0821 08:26:51.481947 32487 net.cpp:434] L2_b6_cbr2_conv <- L2_b6_cbr1_bn_top
I0821 08:26:51.481958 32487 net.cpp:408] L2_b6_cbr2_conv -> L2_b6_cbr2_conv_top
I0821 08:26:51.482424 32487 net.cpp:150] Setting up L2_b6_cbr2_conv
I0821 08:26:51.482445 32487 net.cpp:157] Top shape: 125 32 16 16 (1024000)
I0821 08:26:51.482450 32487 net.cpp:165] Memory required for data: 1097217500
I0821 08:26:51.482460 32487 layer_factory.hpp:77] Creating layer L2_b6_cbr2_bn
I0821 08:26:51.482470 32487 net.cpp:100] Creating Layer L2_b6_cbr2_bn
I0821 08:26:51.482475 32487 net.cpp:434] L2_b6_cbr2_bn <- L2_b6_cbr2_conv_top
I0821 08:26:51.482484 32487 net.cpp:408] L2_b6_cbr2_bn -> L2_b6_cbr2_bn_top
I0821 08:26:51.482729 32487 net.cpp:150] Setting up L2_b6_cbr2_bn
I0821 08:26:51.482743 32487 net.cpp:157] Top shape: 125 32 16 16 (1024000)
I0821 08:26:51.482748 32487 net.cpp:165] Memory required for data: 1101313500
I0821 08:26:51.482759 32487 layer_factory.hpp:77] Creating layer L2_b6_cbr2_scale
I0821 08:26:51.482769 32487 net.cpp:100] Creating Layer L2_b6_cbr2_scale
I0821 08:26:51.482774 32487 net.cpp:434] L2_b6_cbr2_scale <- L2_b6_cbr2_bn_top
I0821 08:26:51.482785 32487 net.cpp:395] L2_b6_cbr2_scale -> L2_b6_cbr2_bn_top (in-place)
I0821 08:26:51.482841 32487 layer_factory.hpp:77] Creating layer L2_b6_cbr2_scale
I0821 08:26:51.482992 32487 net.cpp:150] Setting up L2_b6_cbr2_scale
I0821 08:26:51.483006 32487 net.cpp:157] Top shape: 125 32 16 16 (1024000)
I0821 08:26:51.483011 32487 net.cpp:165] Memory required for data: 1105409500
I0821 08:26:51.483021 32487 layer_factory.hpp:77] Creating layer L2_b6_sum_eltwise
I0821 08:26:51.483029 32487 net.cpp:100] Creating Layer L2_b6_sum_eltwise
I0821 08:26:51.483036 32487 net.cpp:434] L2_b6_sum_eltwise <- L2_b6_cbr2_bn_top
I0821 08:26:51.483043 32487 net.cpp:434] L2_b6_sum_eltwise <- L2_b5_sum_eltwise_top_L2_b5_relu_0_split_1
I0821 08:26:51.483053 32487 net.cpp:408] L2_b6_sum_eltwise -> L2_b6_sum_eltwise_top
I0821 08:26:51.483081 32487 net.cpp:150] Setting up L2_b6_sum_eltwise
I0821 08:26:51.483094 32487 net.cpp:157] Top shape: 125 32 16 16 (1024000)
I0821 08:26:51.483099 32487 net.cpp:165] Memory required for data: 1109505500
I0821 08:26:51.483105 32487 layer_factory.hpp:77] Creating layer L2_b6_relu
I0821 08:26:51.483113 32487 net.cpp:100] Creating Layer L2_b6_relu
I0821 08:26:51.483119 32487 net.cpp:434] L2_b6_relu <- L2_b6_sum_eltwise_top
I0821 08:26:51.483126 32487 net.cpp:395] L2_b6_relu -> L2_b6_sum_eltwise_top (in-place)
I0821 08:26:51.483135 32487 net.cpp:150] Setting up L2_b6_relu
I0821 08:26:51.483142 32487 net.cpp:157] Top shape: 125 32 16 16 (1024000)
I0821 08:26:51.483147 32487 net.cpp:165] Memory required for data: 1113601500
I0821 08:26:51.483152 32487 layer_factory.hpp:77] Creating layer L2_b6_sum_eltwise_top_L2_b6_relu_0_split
I0821 08:26:51.483162 32487 net.cpp:100] Creating Layer L2_b6_sum_eltwise_top_L2_b6_relu_0_split
I0821 08:26:51.483168 32487 net.cpp:434] L2_b6_sum_eltwise_top_L2_b6_relu_0_split <- L2_b6_sum_eltwise_top
I0821 08:26:51.483176 32487 net.cpp:408] L2_b6_sum_eltwise_top_L2_b6_relu_0_split -> L2_b6_sum_eltwise_top_L2_b6_relu_0_split_0
I0821 08:26:51.483186 32487 net.cpp:408] L2_b6_sum_eltwise_top_L2_b6_relu_0_split -> L2_b6_sum_eltwise_top_L2_b6_relu_0_split_1
I0821 08:26:51.483230 32487 net.cpp:150] Setting up L2_b6_sum_eltwise_top_L2_b6_relu_0_split
I0821 08:26:51.483245 32487 net.cpp:157] Top shape: 125 32 16 16 (1024000)
I0821 08:26:51.483253 32487 net.cpp:157] Top shape: 125 32 16 16 (1024000)
I0821 08:26:51.483263 32487 net.cpp:165] Memory required for data: 1121793500
I0821 08:26:51.483268 32487 layer_factory.hpp:77] Creating layer L2_b7_cbr1_conv
I0821 08:26:51.483280 32487 net.cpp:100] Creating Layer L2_b7_cbr1_conv
I0821 08:26:51.483288 32487 net.cpp:434] L2_b7_cbr1_conv <- L2_b6_sum_eltwise_top_L2_b6_relu_0_split_0
I0821 08:26:51.483296 32487 net.cpp:408] L2_b7_cbr1_conv -> L2_b7_cbr1_conv_top
I0821 08:26:51.483763 32487 net.cpp:150] Setting up L2_b7_cbr1_conv
I0821 08:26:51.483781 32487 net.cpp:157] Top shape: 125 32 16 16 (1024000)
I0821 08:26:51.483786 32487 net.cpp:165] Memory required for data: 1125889500
I0821 08:26:51.483795 32487 layer_factory.hpp:77] Creating layer L2_b7_cbr1_bn
I0821 08:26:51.483805 32487 net.cpp:100] Creating Layer L2_b7_cbr1_bn
I0821 08:26:51.483819 32487 net.cpp:434] L2_b7_cbr1_bn <- L2_b7_cbr1_conv_top
I0821 08:26:51.483832 32487 net.cpp:408] L2_b7_cbr1_bn -> L2_b7_cbr1_bn_top
I0821 08:26:51.484084 32487 net.cpp:150] Setting up L2_b7_cbr1_bn
I0821 08:26:51.484097 32487 net.cpp:157] Top shape: 125 32 16 16 (1024000)
I0821 08:26:51.484102 32487 net.cpp:165] Memory required for data: 1129985500
I0821 08:26:51.484113 32487 layer_factory.hpp:77] Creating layer L2_b7_cbr1_scale
I0821 08:26:51.484125 32487 net.cpp:100] Creating Layer L2_b7_cbr1_scale
I0821 08:26:51.484133 32487 net.cpp:434] L2_b7_cbr1_scale <- L2_b7_cbr1_bn_top
I0821 08:26:51.484139 32487 net.cpp:395] L2_b7_cbr1_scale -> L2_b7_cbr1_bn_top (in-place)
I0821 08:26:51.484192 32487 layer_factory.hpp:77] Creating layer L2_b7_cbr1_scale
I0821 08:26:51.484350 32487 net.cpp:150] Setting up L2_b7_cbr1_scale
I0821 08:26:51.484365 32487 net.cpp:157] Top shape: 125 32 16 16 (1024000)
I0821 08:26:51.484370 32487 net.cpp:165] Memory required for data: 1134081500
I0821 08:26:51.484380 32487 layer_factory.hpp:77] Creating layer L2_b7_cbr1_relu
I0821 08:26:51.484387 32487 net.cpp:100] Creating Layer L2_b7_cbr1_relu
I0821 08:26:51.484395 32487 net.cpp:434] L2_b7_cbr1_relu <- L2_b7_cbr1_bn_top
I0821 08:26:51.484406 32487 net.cpp:395] L2_b7_cbr1_relu -> L2_b7_cbr1_bn_top (in-place)
I0821 08:26:51.484417 32487 net.cpp:150] Setting up L2_b7_cbr1_relu
I0821 08:26:51.484426 32487 net.cpp:157] Top shape: 125 32 16 16 (1024000)
I0821 08:26:51.484429 32487 net.cpp:165] Memory required for data: 1138177500
I0821 08:26:51.484434 32487 layer_factory.hpp:77] Creating layer L2_b7_cbr2_conv
I0821 08:26:51.484448 32487 net.cpp:100] Creating Layer L2_b7_cbr2_conv
I0821 08:26:51.484455 32487 net.cpp:434] L2_b7_cbr2_conv <- L2_b7_cbr1_bn_top
I0821 08:26:51.484464 32487 net.cpp:408] L2_b7_cbr2_conv -> L2_b7_cbr2_conv_top
I0821 08:26:51.484935 32487 net.cpp:150] Setting up L2_b7_cbr2_conv
I0821 08:26:51.484949 32487 net.cpp:157] Top shape: 125 32 16 16 (1024000)
I0821 08:26:51.484954 32487 net.cpp:165] Memory required for data: 1142273500
I0821 08:26:51.484963 32487 layer_factory.hpp:77] Creating layer L2_b7_cbr2_bn
I0821 08:26:51.484975 32487 net.cpp:100] Creating Layer L2_b7_cbr2_bn
I0821 08:26:51.484982 32487 net.cpp:434] L2_b7_cbr2_bn <- L2_b7_cbr2_conv_top
I0821 08:26:51.484990 32487 net.cpp:408] L2_b7_cbr2_bn -> L2_b7_cbr2_bn_top
I0821 08:26:51.485244 32487 net.cpp:150] Setting up L2_b7_cbr2_bn
I0821 08:26:51.485261 32487 net.cpp:157] Top shape: 125 32 16 16 (1024000)
I0821 08:26:51.485267 32487 net.cpp:165] Memory required for data: 1146369500
I0821 08:26:51.485277 32487 layer_factory.hpp:77] Creating layer L2_b7_cbr2_scale
I0821 08:26:51.485287 32487 net.cpp:100] Creating Layer L2_b7_cbr2_scale
I0821 08:26:51.485293 32487 net.cpp:434] L2_b7_cbr2_scale <- L2_b7_cbr2_bn_top
I0821 08:26:51.485306 32487 net.cpp:395] L2_b7_cbr2_scale -> L2_b7_cbr2_bn_top (in-place)
I0821 08:26:51.485363 32487 layer_factory.hpp:77] Creating layer L2_b7_cbr2_scale
I0821 08:26:51.485513 32487 net.cpp:150] Setting up L2_b7_cbr2_scale
I0821 08:26:51.485527 32487 net.cpp:157] Top shape: 125 32 16 16 (1024000)
I0821 08:26:51.485532 32487 net.cpp:165] Memory required for data: 1150465500
I0821 08:26:51.485540 32487 layer_factory.hpp:77] Creating layer L2_b7_sum_eltwise
I0821 08:26:51.485549 32487 net.cpp:100] Creating Layer L2_b7_sum_eltwise
I0821 08:26:51.485556 32487 net.cpp:434] L2_b7_sum_eltwise <- L2_b7_cbr2_bn_top
I0821 08:26:51.485563 32487 net.cpp:434] L2_b7_sum_eltwise <- L2_b6_sum_eltwise_top_L2_b6_relu_0_split_1
I0821 08:26:51.485574 32487 net.cpp:408] L2_b7_sum_eltwise -> L2_b7_sum_eltwise_top
I0821 08:26:51.485601 32487 net.cpp:150] Setting up L2_b7_sum_eltwise
I0821 08:26:51.485611 32487 net.cpp:157] Top shape: 125 32 16 16 (1024000)
I0821 08:26:51.485616 32487 net.cpp:165] Memory required for data: 1154561500
I0821 08:26:51.485621 32487 layer_factory.hpp:77] Creating layer L2_b7_relu
I0821 08:26:51.485632 32487 net.cpp:100] Creating Layer L2_b7_relu
I0821 08:26:51.485638 32487 net.cpp:434] L2_b7_relu <- L2_b7_sum_eltwise_top
I0821 08:26:51.485652 32487 net.cpp:395] L2_b7_relu -> L2_b7_sum_eltwise_top (in-place)
I0821 08:26:51.485663 32487 net.cpp:150] Setting up L2_b7_relu
I0821 08:26:51.485671 32487 net.cpp:157] Top shape: 125 32 16 16 (1024000)
I0821 08:26:51.485677 32487 net.cpp:165] Memory required for data: 1158657500
I0821 08:26:51.485680 32487 layer_factory.hpp:77] Creating layer L2_b7_sum_eltwise_top_L2_b7_relu_0_split
I0821 08:26:51.485690 32487 net.cpp:100] Creating Layer L2_b7_sum_eltwise_top_L2_b7_relu_0_split
I0821 08:26:51.485697 32487 net.cpp:434] L2_b7_sum_eltwise_top_L2_b7_relu_0_split <- L2_b7_sum_eltwise_top
I0821 08:26:51.485704 32487 net.cpp:408] L2_b7_sum_eltwise_top_L2_b7_relu_0_split -> L2_b7_sum_eltwise_top_L2_b7_relu_0_split_0
I0821 08:26:51.485714 32487 net.cpp:408] L2_b7_sum_eltwise_top_L2_b7_relu_0_split -> L2_b7_sum_eltwise_top_L2_b7_relu_0_split_1
I0821 08:26:51.485759 32487 net.cpp:150] Setting up L2_b7_sum_eltwise_top_L2_b7_relu_0_split
I0821 08:26:51.485774 32487 net.cpp:157] Top shape: 125 32 16 16 (1024000)
I0821 08:26:51.485782 32487 net.cpp:157] Top shape: 125 32 16 16 (1024000)
I0821 08:26:51.485787 32487 net.cpp:165] Memory required for data: 1166849500
I0821 08:26:51.485792 32487 layer_factory.hpp:77] Creating layer L2_b8_cbr1_conv
I0821 08:26:51.485803 32487 net.cpp:100] Creating Layer L2_b8_cbr1_conv
I0821 08:26:51.485810 32487 net.cpp:434] L2_b8_cbr1_conv <- L2_b7_sum_eltwise_top_L2_b7_relu_0_split_0
I0821 08:26:51.485819 32487 net.cpp:408] L2_b8_cbr1_conv -> L2_b8_cbr1_conv_top
I0821 08:26:51.486300 32487 net.cpp:150] Setting up L2_b8_cbr1_conv
I0821 08:26:51.486315 32487 net.cpp:157] Top shape: 125 32 16 16 (1024000)
I0821 08:26:51.486320 32487 net.cpp:165] Memory required for data: 1170945500
I0821 08:26:51.486330 32487 layer_factory.hpp:77] Creating layer L2_b8_cbr1_bn
I0821 08:26:51.486341 32487 net.cpp:100] Creating Layer L2_b8_cbr1_bn
I0821 08:26:51.486348 32487 net.cpp:434] L2_b8_cbr1_bn <- L2_b8_cbr1_conv_top
I0821 08:26:51.486357 32487 net.cpp:408] L2_b8_cbr1_bn -> L2_b8_cbr1_bn_top
I0821 08:26:51.486616 32487 net.cpp:150] Setting up L2_b8_cbr1_bn
I0821 08:26:51.486629 32487 net.cpp:157] Top shape: 125 32 16 16 (1024000)
I0821 08:26:51.486634 32487 net.cpp:165] Memory required for data: 1175041500
I0821 08:26:51.486645 32487 layer_factory.hpp:77] Creating layer L2_b8_cbr1_scale
I0821 08:26:51.486654 32487 net.cpp:100] Creating Layer L2_b8_cbr1_scale
I0821 08:26:51.486661 32487 net.cpp:434] L2_b8_cbr1_scale <- L2_b8_cbr1_bn_top
I0821 08:26:51.486671 32487 net.cpp:395] L2_b8_cbr1_scale -> L2_b8_cbr1_bn_top (in-place)
I0821 08:26:51.486728 32487 layer_factory.hpp:77] Creating layer L2_b8_cbr1_scale
I0821 08:26:51.486883 32487 net.cpp:150] Setting up L2_b8_cbr1_scale
I0821 08:26:51.486896 32487 net.cpp:157] Top shape: 125 32 16 16 (1024000)
I0821 08:26:51.486901 32487 net.cpp:165] Memory required for data: 1179137500
I0821 08:26:51.486912 32487 layer_factory.hpp:77] Creating layer L2_b8_cbr1_relu
I0821 08:26:51.486919 32487 net.cpp:100] Creating Layer L2_b8_cbr1_relu
I0821 08:26:51.486925 32487 net.cpp:434] L2_b8_cbr1_relu <- L2_b8_cbr1_bn_top
I0821 08:26:51.486937 32487 net.cpp:395] L2_b8_cbr1_relu -> L2_b8_cbr1_bn_top (in-place)
I0821 08:26:51.486948 32487 net.cpp:150] Setting up L2_b8_cbr1_relu
I0821 08:26:51.486954 32487 net.cpp:157] Top shape: 125 32 16 16 (1024000)
I0821 08:26:51.486959 32487 net.cpp:165] Memory required for data: 1183233500
I0821 08:26:51.486963 32487 layer_factory.hpp:77] Creating layer L2_b8_cbr2_conv
I0821 08:26:51.486979 32487 net.cpp:100] Creating Layer L2_b8_cbr2_conv
I0821 08:26:51.486985 32487 net.cpp:434] L2_b8_cbr2_conv <- L2_b8_cbr1_bn_top
I0821 08:26:51.486994 32487 net.cpp:408] L2_b8_cbr2_conv -> L2_b8_cbr2_conv_top
I0821 08:26:51.487637 32487 net.cpp:150] Setting up L2_b8_cbr2_conv
I0821 08:26:51.487653 32487 net.cpp:157] Top shape: 125 32 16 16 (1024000)
I0821 08:26:51.487659 32487 net.cpp:165] Memory required for data: 1187329500
I0821 08:26:51.487668 32487 layer_factory.hpp:77] Creating layer L2_b8_cbr2_bn
I0821 08:26:51.487681 32487 net.cpp:100] Creating Layer L2_b8_cbr2_bn
I0821 08:26:51.487696 32487 net.cpp:434] L2_b8_cbr2_bn <- L2_b8_cbr2_conv_top
I0821 08:26:51.487706 32487 net.cpp:408] L2_b8_cbr2_bn -> L2_b8_cbr2_bn_top
I0821 08:26:51.487962 32487 net.cpp:150] Setting up L2_b8_cbr2_bn
I0821 08:26:51.487975 32487 net.cpp:157] Top shape: 125 32 16 16 (1024000)
I0821 08:26:51.487980 32487 net.cpp:165] Memory required for data: 1191425500
I0821 08:26:51.487990 32487 layer_factory.hpp:77] Creating layer L2_b8_cbr2_scale
I0821 08:26:51.488000 32487 net.cpp:100] Creating Layer L2_b8_cbr2_scale
I0821 08:26:51.488006 32487 net.cpp:434] L2_b8_cbr2_scale <- L2_b8_cbr2_bn_top
I0821 08:26:51.488018 32487 net.cpp:395] L2_b8_cbr2_scale -> L2_b8_cbr2_bn_top (in-place)
I0821 08:26:51.488075 32487 layer_factory.hpp:77] Creating layer L2_b8_cbr2_scale
I0821 08:26:51.488229 32487 net.cpp:150] Setting up L2_b8_cbr2_scale
I0821 08:26:51.488242 32487 net.cpp:157] Top shape: 125 32 16 16 (1024000)
I0821 08:26:51.488247 32487 net.cpp:165] Memory required for data: 1195521500
I0821 08:26:51.488262 32487 layer_factory.hpp:77] Creating layer L2_b8_sum_eltwise
I0821 08:26:51.488272 32487 net.cpp:100] Creating Layer L2_b8_sum_eltwise
I0821 08:26:51.488279 32487 net.cpp:434] L2_b8_sum_eltwise <- L2_b8_cbr2_bn_top
I0821 08:26:51.488286 32487 net.cpp:434] L2_b8_sum_eltwise <- L2_b7_sum_eltwise_top_L2_b7_relu_0_split_1
I0821 08:26:51.488297 32487 net.cpp:408] L2_b8_sum_eltwise -> L2_b8_sum_eltwise_top
I0821 08:26:51.488327 32487 net.cpp:150] Setting up L2_b8_sum_eltwise
I0821 08:26:51.488335 32487 net.cpp:157] Top shape: 125 32 16 16 (1024000)
I0821 08:26:51.488340 32487 net.cpp:165] Memory required for data: 1199617500
I0821 08:26:51.488346 32487 layer_factory.hpp:77] Creating layer L2_b8_relu
I0821 08:26:51.488356 32487 net.cpp:100] Creating Layer L2_b8_relu
I0821 08:26:51.488363 32487 net.cpp:434] L2_b8_relu <- L2_b8_sum_eltwise_top
I0821 08:26:51.488370 32487 net.cpp:395] L2_b8_relu -> L2_b8_sum_eltwise_top (in-place)
I0821 08:26:51.488380 32487 net.cpp:150] Setting up L2_b8_relu
I0821 08:26:51.488387 32487 net.cpp:157] Top shape: 125 32 16 16 (1024000)
I0821 08:26:51.488392 32487 net.cpp:165] Memory required for data: 1203713500
I0821 08:26:51.488397 32487 layer_factory.hpp:77] Creating layer L2_b8_sum_eltwise_top_L2_b8_relu_0_split
I0821 08:26:51.488404 32487 net.cpp:100] Creating Layer L2_b8_sum_eltwise_top_L2_b8_relu_0_split
I0821 08:26:51.488409 32487 net.cpp:434] L2_b8_sum_eltwise_top_L2_b8_relu_0_split <- L2_b8_sum_eltwise_top
I0821 08:26:51.488420 32487 net.cpp:408] L2_b8_sum_eltwise_top_L2_b8_relu_0_split -> L2_b8_sum_eltwise_top_L2_b8_relu_0_split_0
I0821 08:26:51.488443 32487 net.cpp:408] L2_b8_sum_eltwise_top_L2_b8_relu_0_split -> L2_b8_sum_eltwise_top_L2_b8_relu_0_split_1
I0821 08:26:51.488492 32487 net.cpp:150] Setting up L2_b8_sum_eltwise_top_L2_b8_relu_0_split
I0821 08:26:51.488504 32487 net.cpp:157] Top shape: 125 32 16 16 (1024000)
I0821 08:26:51.488512 32487 net.cpp:157] Top shape: 125 32 16 16 (1024000)
I0821 08:26:51.488517 32487 net.cpp:165] Memory required for data: 1211905500
I0821 08:26:51.488521 32487 layer_factory.hpp:77] Creating layer L2_b9_cbr1_conv
I0821 08:26:51.488536 32487 net.cpp:100] Creating Layer L2_b9_cbr1_conv
I0821 08:26:51.488543 32487 net.cpp:434] L2_b9_cbr1_conv <- L2_b8_sum_eltwise_top_L2_b8_relu_0_split_0
I0821 08:26:51.488557 32487 net.cpp:408] L2_b9_cbr1_conv -> L2_b9_cbr1_conv_top
I0821 08:26:51.489029 32487 net.cpp:150] Setting up L2_b9_cbr1_conv
I0821 08:26:51.489043 32487 net.cpp:157] Top shape: 125 32 16 16 (1024000)
I0821 08:26:51.489048 32487 net.cpp:165] Memory required for data: 1216001500
I0821 08:26:51.489058 32487 layer_factory.hpp:77] Creating layer L2_b9_cbr1_bn
I0821 08:26:51.489070 32487 net.cpp:100] Creating Layer L2_b9_cbr1_bn
I0821 08:26:51.489078 32487 net.cpp:434] L2_b9_cbr1_bn <- L2_b9_cbr1_conv_top
I0821 08:26:51.489085 32487 net.cpp:408] L2_b9_cbr1_bn -> L2_b9_cbr1_bn_top
I0821 08:26:51.489341 32487 net.cpp:150] Setting up L2_b9_cbr1_bn
I0821 08:26:51.489356 32487 net.cpp:157] Top shape: 125 32 16 16 (1024000)
I0821 08:26:51.489367 32487 net.cpp:165] Memory required for data: 1220097500
I0821 08:26:51.489379 32487 layer_factory.hpp:77] Creating layer L2_b9_cbr1_scale
I0821 08:26:51.489389 32487 net.cpp:100] Creating Layer L2_b9_cbr1_scale
I0821 08:26:51.489395 32487 net.cpp:434] L2_b9_cbr1_scale <- L2_b9_cbr1_bn_top
I0821 08:26:51.489403 32487 net.cpp:395] L2_b9_cbr1_scale -> L2_b9_cbr1_bn_top (in-place)
I0821 08:26:51.489464 32487 layer_factory.hpp:77] Creating layer L2_b9_cbr1_scale
I0821 08:26:51.489615 32487 net.cpp:150] Setting up L2_b9_cbr1_scale
I0821 08:26:51.489630 32487 net.cpp:157] Top shape: 125 32 16 16 (1024000)
I0821 08:26:51.489636 32487 net.cpp:165] Memory required for data: 1224193500
I0821 08:26:51.489645 32487 layer_factory.hpp:77] Creating layer L2_b9_cbr1_relu
I0821 08:26:51.489653 32487 net.cpp:100] Creating Layer L2_b9_cbr1_relu
I0821 08:26:51.489660 32487 net.cpp:434] L2_b9_cbr1_relu <- L2_b9_cbr1_bn_top
I0821 08:26:51.489667 32487 net.cpp:395] L2_b9_cbr1_relu -> L2_b9_cbr1_bn_top (in-place)
I0821 08:26:51.489677 32487 net.cpp:150] Setting up L2_b9_cbr1_relu
I0821 08:26:51.489684 32487 net.cpp:157] Top shape: 125 32 16 16 (1024000)
I0821 08:26:51.489689 32487 net.cpp:165] Memory required for data: 1228289500
I0821 08:26:51.489694 32487 layer_factory.hpp:77] Creating layer L2_b9_cbr2_conv
I0821 08:26:51.489708 32487 net.cpp:100] Creating Layer L2_b9_cbr2_conv
I0821 08:26:51.489715 32487 net.cpp:434] L2_b9_cbr2_conv <- L2_b9_cbr1_bn_top
I0821 08:26:51.489727 32487 net.cpp:408] L2_b9_cbr2_conv -> L2_b9_cbr2_conv_top
I0821 08:26:51.490195 32487 net.cpp:150] Setting up L2_b9_cbr2_conv
I0821 08:26:51.490211 32487 net.cpp:157] Top shape: 125 32 16 16 (1024000)
I0821 08:26:51.490216 32487 net.cpp:165] Memory required for data: 1232385500
I0821 08:26:51.490224 32487 layer_factory.hpp:77] Creating layer L2_b9_cbr2_bn
I0821 08:26:51.490237 32487 net.cpp:100] Creating Layer L2_b9_cbr2_bn
I0821 08:26:51.490244 32487 net.cpp:434] L2_b9_cbr2_bn <- L2_b9_cbr2_conv_top
I0821 08:26:51.490260 32487 net.cpp:408] L2_b9_cbr2_bn -> L2_b9_cbr2_bn_top
I0821 08:26:51.490517 32487 net.cpp:150] Setting up L2_b9_cbr2_bn
I0821 08:26:51.490531 32487 net.cpp:157] Top shape: 125 32 16 16 (1024000)
I0821 08:26:51.490536 32487 net.cpp:165] Memory required for data: 1236481500
I0821 08:26:51.490579 32487 layer_factory.hpp:77] Creating layer L2_b9_cbr2_scale
I0821 08:26:51.490592 32487 net.cpp:100] Creating Layer L2_b9_cbr2_scale
I0821 08:26:51.490598 32487 net.cpp:434] L2_b9_cbr2_scale <- L2_b9_cbr2_bn_top
I0821 08:26:51.490607 32487 net.cpp:395] L2_b9_cbr2_scale -> L2_b9_cbr2_bn_top (in-place)
I0821 08:26:51.490669 32487 layer_factory.hpp:77] Creating layer L2_b9_cbr2_scale
I0821 08:26:51.490825 32487 net.cpp:150] Setting up L2_b9_cbr2_scale
I0821 08:26:51.490839 32487 net.cpp:157] Top shape: 125 32 16 16 (1024000)
I0821 08:26:51.490844 32487 net.cpp:165] Memory required for data: 1240577500
I0821 08:26:51.490854 32487 layer_factory.hpp:77] Creating layer L2_b9_sum_eltwise
I0821 08:26:51.490866 32487 net.cpp:100] Creating Layer L2_b9_sum_eltwise
I0821 08:26:51.490873 32487 net.cpp:434] L2_b9_sum_eltwise <- L2_b9_cbr2_bn_top
I0821 08:26:51.490880 32487 net.cpp:434] L2_b9_sum_eltwise <- L2_b8_sum_eltwise_top_L2_b8_relu_0_split_1
I0821 08:26:51.490888 32487 net.cpp:408] L2_b9_sum_eltwise -> L2_b9_sum_eltwise_top
I0821 08:26:51.490919 32487 net.cpp:150] Setting up L2_b9_sum_eltwise
I0821 08:26:51.490929 32487 net.cpp:157] Top shape: 125 32 16 16 (1024000)
I0821 08:26:51.490934 32487 net.cpp:165] Memory required for data: 1244673500
I0821 08:26:51.490939 32487 layer_factory.hpp:77] Creating layer L2_b9_relu
I0821 08:26:51.490947 32487 net.cpp:100] Creating Layer L2_b9_relu
I0821 08:26:51.490953 32487 net.cpp:434] L2_b9_relu <- L2_b9_sum_eltwise_top
I0821 08:26:51.490963 32487 net.cpp:395] L2_b9_relu -> L2_b9_sum_eltwise_top (in-place)
I0821 08:26:51.490974 32487 net.cpp:150] Setting up L2_b9_relu
I0821 08:26:51.490981 32487 net.cpp:157] Top shape: 125 32 16 16 (1024000)
I0821 08:26:51.490986 32487 net.cpp:165] Memory required for data: 1248769500
I0821 08:26:51.490998 32487 layer_factory.hpp:77] Creating layer L2_b9_sum_eltwise_top_L2_b9_relu_0_split
I0821 08:26:51.491006 32487 net.cpp:100] Creating Layer L2_b9_sum_eltwise_top_L2_b9_relu_0_split
I0821 08:26:51.491011 32487 net.cpp:434] L2_b9_sum_eltwise_top_L2_b9_relu_0_split <- L2_b9_sum_eltwise_top
I0821 08:26:51.491022 32487 net.cpp:408] L2_b9_sum_eltwise_top_L2_b9_relu_0_split -> L2_b9_sum_eltwise_top_L2_b9_relu_0_split_0
I0821 08:26:51.491034 32487 net.cpp:408] L2_b9_sum_eltwise_top_L2_b9_relu_0_split -> L2_b9_sum_eltwise_top_L2_b9_relu_0_split_1
I0821 08:26:51.491084 32487 net.cpp:150] Setting up L2_b9_sum_eltwise_top_L2_b9_relu_0_split
I0821 08:26:51.491096 32487 net.cpp:157] Top shape: 125 32 16 16 (1024000)
I0821 08:26:51.491103 32487 net.cpp:157] Top shape: 125 32 16 16 (1024000)
I0821 08:26:51.491108 32487 net.cpp:165] Memory required for data: 1256961500
I0821 08:26:51.491113 32487 layer_factory.hpp:77] Creating layer L3_b1_cbr1_conv
I0821 08:26:51.491124 32487 net.cpp:100] Creating Layer L3_b1_cbr1_conv
I0821 08:26:51.491132 32487 net.cpp:434] L3_b1_cbr1_conv <- L2_b9_sum_eltwise_top_L2_b9_relu_0_split_0
I0821 08:26:51.491143 32487 net.cpp:408] L3_b1_cbr1_conv -> L3_b1_cbr1_conv_top
I0821 08:26:51.491624 32487 net.cpp:150] Setting up L3_b1_cbr1_conv
I0821 08:26:51.491638 32487 net.cpp:157] Top shape: 125 32 8 8 (256000)
I0821 08:26:51.491644 32487 net.cpp:165] Memory required for data: 1257985500
I0821 08:26:51.491653 32487 layer_factory.hpp:77] Creating layer L3_b1_cbr1_bn
I0821 08:26:51.491662 32487 net.cpp:100] Creating Layer L3_b1_cbr1_bn
I0821 08:26:51.491669 32487 net.cpp:434] L3_b1_cbr1_bn <- L3_b1_cbr1_conv_top
I0821 08:26:51.491680 32487 net.cpp:408] L3_b1_cbr1_bn -> L3_b1_cbr1_bn_top
I0821 08:26:51.491952 32487 net.cpp:150] Setting up L3_b1_cbr1_bn
I0821 08:26:51.491966 32487 net.cpp:157] Top shape: 125 32 8 8 (256000)
I0821 08:26:51.491971 32487 net.cpp:165] Memory required for data: 1259009500
I0821 08:26:51.491981 32487 layer_factory.hpp:77] Creating layer L3_b1_cbr1_scale
I0821 08:26:51.491991 32487 net.cpp:100] Creating Layer L3_b1_cbr1_scale
I0821 08:26:51.491997 32487 net.cpp:434] L3_b1_cbr1_scale <- L3_b1_cbr1_bn_top
I0821 08:26:51.492004 32487 net.cpp:395] L3_b1_cbr1_scale -> L3_b1_cbr1_bn_top (in-place)
I0821 08:26:51.492063 32487 layer_factory.hpp:77] Creating layer L3_b1_cbr1_scale
I0821 08:26:51.492218 32487 net.cpp:150] Setting up L3_b1_cbr1_scale
I0821 08:26:51.492231 32487 net.cpp:157] Top shape: 125 32 8 8 (256000)
I0821 08:26:51.492236 32487 net.cpp:165] Memory required for data: 1260033500
I0821 08:26:51.492245 32487 layer_factory.hpp:77] Creating layer L3_b1_cbr1_relu
I0821 08:26:51.492262 32487 net.cpp:100] Creating Layer L3_b1_cbr1_relu
I0821 08:26:51.492270 32487 net.cpp:434] L3_b1_cbr1_relu <- L3_b1_cbr1_bn_top
I0821 08:26:51.492277 32487 net.cpp:395] L3_b1_cbr1_relu -> L3_b1_cbr1_bn_top (in-place)
I0821 08:26:51.492287 32487 net.cpp:150] Setting up L3_b1_cbr1_relu
I0821 08:26:51.492295 32487 net.cpp:157] Top shape: 125 32 8 8 (256000)
I0821 08:26:51.492300 32487 net.cpp:165] Memory required for data: 1261057500
I0821 08:26:51.492305 32487 layer_factory.hpp:77] Creating layer L3_b1_cbr2_conv
I0821 08:26:51.492318 32487 net.cpp:100] Creating Layer L3_b1_cbr2_conv
I0821 08:26:51.492326 32487 net.cpp:434] L3_b1_cbr2_conv <- L3_b1_cbr1_bn_top
I0821 08:26:51.492333 32487 net.cpp:408] L3_b1_cbr2_conv -> L3_b1_cbr2_conv_top
I0821 08:26:51.492815 32487 net.cpp:150] Setting up L3_b1_cbr2_conv
I0821 08:26:51.492830 32487 net.cpp:157] Top shape: 125 32 8 8 (256000)
I0821 08:26:51.492835 32487 net.cpp:165] Memory required for data: 1262081500
I0821 08:26:51.492844 32487 layer_factory.hpp:77] Creating layer L3_b1_cbr2_bn
I0821 08:26:51.492856 32487 net.cpp:100] Creating Layer L3_b1_cbr2_bn
I0821 08:26:51.492863 32487 net.cpp:434] L3_b1_cbr2_bn <- L3_b1_cbr2_conv_top
I0821 08:26:51.492875 32487 net.cpp:408] L3_b1_cbr2_bn -> L3_b1_cbr2_bn_top
I0821 08:26:51.493134 32487 net.cpp:150] Setting up L3_b1_cbr2_bn
I0821 08:26:51.493147 32487 net.cpp:157] Top shape: 125 32 8 8 (256000)
I0821 08:26:51.493160 32487 net.cpp:165] Memory required for data: 1263105500
I0821 08:26:51.493170 32487 layer_factory.hpp:77] Creating layer L3_b1_cbr2_scale
I0821 08:26:51.493180 32487 net.cpp:100] Creating Layer L3_b1_cbr2_scale
I0821 08:26:51.493185 32487 net.cpp:434] L3_b1_cbr2_scale <- L3_b1_cbr2_bn_top
I0821 08:26:51.493197 32487 net.cpp:395] L3_b1_cbr2_scale -> L3_b1_cbr2_bn_top (in-place)
I0821 08:26:51.493261 32487 layer_factory.hpp:77] Creating layer L3_b1_cbr2_scale
I0821 08:26:51.493428 32487 net.cpp:150] Setting up L3_b1_cbr2_scale
I0821 08:26:51.493441 32487 net.cpp:157] Top shape: 125 32 8 8 (256000)
I0821 08:26:51.493448 32487 net.cpp:165] Memory required for data: 1264129500
I0821 08:26:51.493456 32487 layer_factory.hpp:77] Creating layer L3_b1_pool
I0821 08:26:51.493468 32487 net.cpp:100] Creating Layer L3_b1_pool
I0821 08:26:51.493475 32487 net.cpp:434] L3_b1_pool <- L2_b9_sum_eltwise_top_L2_b9_relu_0_split_1
I0821 08:26:51.493484 32487 net.cpp:408] L3_b1_pool -> L3_b1_pool
I0821 08:26:51.493522 32487 net.cpp:150] Setting up L3_b1_pool
I0821 08:26:51.493532 32487 net.cpp:157] Top shape: 125 32 8 8 (256000)
I0821 08:26:51.493537 32487 net.cpp:165] Memory required for data: 1265153500
I0821 08:26:51.493542 32487 layer_factory.hpp:77] Creating layer L3_b1_sum_eltwise
I0821 08:26:51.493551 32487 net.cpp:100] Creating Layer L3_b1_sum_eltwise
I0821 08:26:51.493557 32487 net.cpp:434] L3_b1_sum_eltwise <- L3_b1_cbr2_bn_top
I0821 08:26:51.493564 32487 net.cpp:434] L3_b1_sum_eltwise <- L3_b1_pool
I0821 08:26:51.493574 32487 net.cpp:408] L3_b1_sum_eltwise -> L3_b1_sum_eltwise_top
I0821 08:26:51.493607 32487 net.cpp:150] Setting up L3_b1_sum_eltwise
I0821 08:26:51.493616 32487 net.cpp:157] Top shape: 125 32 8 8 (256000)
I0821 08:26:51.493621 32487 net.cpp:165] Memory required for data: 1266177500
I0821 08:26:51.493628 32487 layer_factory.hpp:77] Creating layer L3_b1_relu
I0821 08:26:51.493635 32487 net.cpp:100] Creating Layer L3_b1_relu
I0821 08:26:51.493641 32487 net.cpp:434] L3_b1_relu <- L3_b1_sum_eltwise_top
I0821 08:26:51.493651 32487 net.cpp:395] L3_b1_relu -> L3_b1_sum_eltwise_top (in-place)
I0821 08:26:51.493662 32487 net.cpp:150] Setting up L3_b1_relu
I0821 08:26:51.493669 32487 net.cpp:157] Top shape: 125 32 8 8 (256000)
I0821 08:26:51.493674 32487 net.cpp:165] Memory required for data: 1267201500
I0821 08:26:51.493680 32487 layer_factory.hpp:77] Creating layer L3_b1_zeros
I0821 08:26:51.493688 32487 net.cpp:100] Creating Layer L3_b1_zeros
I0821 08:26:51.493696 32487 net.cpp:408] L3_b1_zeros -> L3_b1_zeros
I0821 08:26:51.494910 32487 net.cpp:150] Setting up L3_b1_zeros
I0821 08:26:51.494928 32487 net.cpp:157] Top shape: 125 32 8 8 (256000)
I0821 08:26:51.494935 32487 net.cpp:165] Memory required for data: 1268225500
I0821 08:26:51.494940 32487 layer_factory.hpp:77] Creating layer L3_b1_concat0
I0821 08:26:51.494949 32487 net.cpp:100] Creating Layer L3_b1_concat0
I0821 08:26:51.494956 32487 net.cpp:434] L3_b1_concat0 <- L3_b1_sum_eltwise_top
I0821 08:26:51.494963 32487 net.cpp:434] L3_b1_concat0 <- L3_b1_zeros
I0821 08:26:51.494974 32487 net.cpp:408] L3_b1_concat0 -> L3_b1_concat0
I0821 08:26:51.495015 32487 net.cpp:150] Setting up L3_b1_concat0
I0821 08:26:51.495029 32487 net.cpp:157] Top shape: 125 64 8 8 (512000)
I0821 08:26:51.495034 32487 net.cpp:165] Memory required for data: 1270273500
I0821 08:26:51.495039 32487 layer_factory.hpp:77] Creating layer L3_b1_concat0_L3_b1_concat0_0_split
I0821 08:26:51.495046 32487 net.cpp:100] Creating Layer L3_b1_concat0_L3_b1_concat0_0_split
I0821 08:26:51.495052 32487 net.cpp:434] L3_b1_concat0_L3_b1_concat0_0_split <- L3_b1_concat0
I0821 08:26:51.495060 32487 net.cpp:408] L3_b1_concat0_L3_b1_concat0_0_split -> L3_b1_concat0_L3_b1_concat0_0_split_0
I0821 08:26:51.495074 32487 net.cpp:408] L3_b1_concat0_L3_b1_concat0_0_split -> L3_b1_concat0_L3_b1_concat0_0_split_1
I0821 08:26:51.495122 32487 net.cpp:150] Setting up L3_b1_concat0_L3_b1_concat0_0_split
I0821 08:26:51.495134 32487 net.cpp:157] Top shape: 125 64 8 8 (512000)
I0821 08:26:51.495141 32487 net.cpp:157] Top shape: 125 64 8 8 (512000)
I0821 08:26:51.495154 32487 net.cpp:165] Memory required for data: 1274369500
I0821 08:26:51.495160 32487 layer_factory.hpp:77] Creating layer L3_b2_cbr1_conv
I0821 08:26:51.495175 32487 net.cpp:100] Creating Layer L3_b2_cbr1_conv
I0821 08:26:51.495182 32487 net.cpp:434] L3_b2_cbr1_conv <- L3_b1_concat0_L3_b1_concat0_0_split_0
I0821 08:26:51.495193 32487 net.cpp:408] L3_b2_cbr1_conv -> L3_b2_cbr1_conv_top
I0821 08:26:51.497156 32487 net.cpp:150] Setting up L3_b2_cbr1_conv
I0821 08:26:51.497174 32487 net.cpp:157] Top shape: 125 64 8 8 (512000)
I0821 08:26:51.497179 32487 net.cpp:165] Memory required for data: 1276417500
I0821 08:26:51.497189 32487 layer_factory.hpp:77] Creating layer L3_b2_cbr1_bn
I0821 08:26:51.497202 32487 net.cpp:100] Creating Layer L3_b2_cbr1_bn
I0821 08:26:51.497210 32487 net.cpp:434] L3_b2_cbr1_bn <- L3_b2_cbr1_conv_top
I0821 08:26:51.497220 32487 net.cpp:408] L3_b2_cbr1_bn -> L3_b2_cbr1_bn_top
I0821 08:26:51.497493 32487 net.cpp:150] Setting up L3_b2_cbr1_bn
I0821 08:26:51.497509 32487 net.cpp:157] Top shape: 125 64 8 8 (512000)
I0821 08:26:51.497514 32487 net.cpp:165] Memory required for data: 1278465500
I0821 08:26:51.497524 32487 layer_factory.hpp:77] Creating layer L3_b2_cbr1_scale
I0821 08:26:51.497534 32487 net.cpp:100] Creating Layer L3_b2_cbr1_scale
I0821 08:26:51.497540 32487 net.cpp:434] L3_b2_cbr1_scale <- L3_b2_cbr1_bn_top
I0821 08:26:51.497548 32487 net.cpp:395] L3_b2_cbr1_scale -> L3_b2_cbr1_bn_top (in-place)
I0821 08:26:51.497609 32487 layer_factory.hpp:77] Creating layer L3_b2_cbr1_scale
I0821 08:26:51.497766 32487 net.cpp:150] Setting up L3_b2_cbr1_scale
I0821 08:26:51.497781 32487 net.cpp:157] Top shape: 125 64 8 8 (512000)
I0821 08:26:51.497786 32487 net.cpp:165] Memory required for data: 1280513500
I0821 08:26:51.497797 32487 layer_factory.hpp:77] Creating layer L3_b2_cbr1_relu
I0821 08:26:51.497804 32487 net.cpp:100] Creating Layer L3_b2_cbr1_relu
I0821 08:26:51.497812 32487 net.cpp:434] L3_b2_cbr1_relu <- L3_b2_cbr1_bn_top
I0821 08:26:51.497818 32487 net.cpp:395] L3_b2_cbr1_relu -> L3_b2_cbr1_bn_top (in-place)
I0821 08:26:51.497828 32487 net.cpp:150] Setting up L3_b2_cbr1_relu
I0821 08:26:51.497835 32487 net.cpp:157] Top shape: 125 64 8 8 (512000)
I0821 08:26:51.497840 32487 net.cpp:165] Memory required for data: 1282561500
I0821 08:26:51.497845 32487 layer_factory.hpp:77] Creating layer L3_b2_cbr2_conv
I0821 08:26:51.497860 32487 net.cpp:100] Creating Layer L3_b2_cbr2_conv
I0821 08:26:51.497866 32487 net.cpp:434] L3_b2_cbr2_conv <- L3_b2_cbr1_bn_top
I0821 08:26:51.497879 32487 net.cpp:408] L3_b2_cbr2_conv -> L3_b2_cbr2_conv_top
I0821 08:26:51.498908 32487 net.cpp:150] Setting up L3_b2_cbr2_conv
I0821 08:26:51.498924 32487 net.cpp:157] Top shape: 125 64 8 8 (512000)
I0821 08:26:51.498929 32487 net.cpp:165] Memory required for data: 1284609500
I0821 08:26:51.498939 32487 layer_factory.hpp:77] Creating layer L3_b2_cbr2_bn
I0821 08:26:51.498950 32487 net.cpp:100] Creating Layer L3_b2_cbr2_bn
I0821 08:26:51.498957 32487 net.cpp:434] L3_b2_cbr2_bn <- L3_b2_cbr2_conv_top
I0821 08:26:51.498965 32487 net.cpp:408] L3_b2_cbr2_bn -> L3_b2_cbr2_bn_top
I0821 08:26:51.499231 32487 net.cpp:150] Setting up L3_b2_cbr2_bn
I0821 08:26:51.499245 32487 net.cpp:157] Top shape: 125 64 8 8 (512000)
I0821 08:26:51.499250 32487 net.cpp:165] Memory required for data: 1286657500
I0821 08:26:51.499266 32487 layer_factory.hpp:77] Creating layer L3_b2_cbr2_scale
I0821 08:26:51.499279 32487 net.cpp:100] Creating Layer L3_b2_cbr2_scale
I0821 08:26:51.499285 32487 net.cpp:434] L3_b2_cbr2_scale <- L3_b2_cbr2_bn_top
I0821 08:26:51.499294 32487 net.cpp:395] L3_b2_cbr2_scale -> L3_b2_cbr2_bn_top (in-place)
I0821 08:26:51.499356 32487 layer_factory.hpp:77] Creating layer L3_b2_cbr2_scale
I0821 08:26:51.499514 32487 net.cpp:150] Setting up L3_b2_cbr2_scale
I0821 08:26:51.499527 32487 net.cpp:157] Top shape: 125 64 8 8 (512000)
I0821 08:26:51.499532 32487 net.cpp:165] Memory required for data: 1288705500
I0821 08:26:51.499542 32487 layer_factory.hpp:77] Creating layer L3_b2_sum_eltwise
I0821 08:26:51.499562 32487 net.cpp:100] Creating Layer L3_b2_sum_eltwise
I0821 08:26:51.499569 32487 net.cpp:434] L3_b2_sum_eltwise <- L3_b2_cbr2_bn_top
I0821 08:26:51.499577 32487 net.cpp:434] L3_b2_sum_eltwise <- L3_b1_concat0_L3_b1_concat0_0_split_1
I0821 08:26:51.499585 32487 net.cpp:408] L3_b2_sum_eltwise -> L3_b2_sum_eltwise_top
I0821 08:26:51.499624 32487 net.cpp:150] Setting up L3_b2_sum_eltwise
I0821 08:26:51.499635 32487 net.cpp:157] Top shape: 125 64 8 8 (512000)
I0821 08:26:51.499640 32487 net.cpp:165] Memory required for data: 1290753500
I0821 08:26:51.499646 32487 layer_factory.hpp:77] Creating layer L3_b2_relu
I0821 08:26:51.499655 32487 net.cpp:100] Creating Layer L3_b2_relu
I0821 08:26:51.499660 32487 net.cpp:434] L3_b2_relu <- L3_b2_sum_eltwise_top
I0821 08:26:51.499672 32487 net.cpp:395] L3_b2_relu -> L3_b2_sum_eltwise_top (in-place)
I0821 08:26:51.499683 32487 net.cpp:150] Setting up L3_b2_relu
I0821 08:26:51.499691 32487 net.cpp:157] Top shape: 125 64 8 8 (512000)
I0821 08:26:51.499696 32487 net.cpp:165] Memory required for data: 1292801500
I0821 08:26:51.499701 32487 layer_factory.hpp:77] Creating layer L3_b2_sum_eltwise_top_L3_b2_relu_0_split
I0821 08:26:51.499708 32487 net.cpp:100] Creating Layer L3_b2_sum_eltwise_top_L3_b2_relu_0_split
I0821 08:26:51.499714 32487 net.cpp:434] L3_b2_sum_eltwise_top_L3_b2_relu_0_split <- L3_b2_sum_eltwise_top
I0821 08:26:51.499722 32487 net.cpp:408] L3_b2_sum_eltwise_top_L3_b2_relu_0_split -> L3_b2_sum_eltwise_top_L3_b2_relu_0_split_0
I0821 08:26:51.499732 32487 net.cpp:408] L3_b2_sum_eltwise_top_L3_b2_relu_0_split -> L3_b2_sum_eltwise_top_L3_b2_relu_0_split_1
I0821 08:26:51.499781 32487 net.cpp:150] Setting up L3_b2_sum_eltwise_top_L3_b2_relu_0_split
I0821 08:26:51.499794 32487 net.cpp:157] Top shape: 125 64 8 8 (512000)
I0821 08:26:51.499800 32487 net.cpp:157] Top shape: 125 64 8 8 (512000)
I0821 08:26:51.499805 32487 net.cpp:165] Memory required for data: 1296897500
I0821 08:26:51.499810 32487 layer_factory.hpp:77] Creating layer L3_b3_cbr1_conv
I0821 08:26:51.499825 32487 net.cpp:100] Creating Layer L3_b3_cbr1_conv
I0821 08:26:51.499831 32487 net.cpp:434] L3_b3_cbr1_conv <- L3_b2_sum_eltwise_top_L3_b2_relu_0_split_0
I0821 08:26:51.499841 32487 net.cpp:408] L3_b3_cbr1_conv -> L3_b3_cbr1_conv_top
I0821 08:26:51.500860 32487 net.cpp:150] Setting up L3_b3_cbr1_conv
I0821 08:26:51.500875 32487 net.cpp:157] Top shape: 125 64 8 8 (512000)
I0821 08:26:51.500881 32487 net.cpp:165] Memory required for data: 1298945500
I0821 08:26:51.500890 32487 layer_factory.hpp:77] Creating layer L3_b3_cbr1_bn
I0821 08:26:51.500902 32487 net.cpp:100] Creating Layer L3_b3_cbr1_bn
I0821 08:26:51.500910 32487 net.cpp:434] L3_b3_cbr1_bn <- L3_b3_cbr1_conv_top
I0821 08:26:51.500918 32487 net.cpp:408] L3_b3_cbr1_bn -> L3_b3_cbr1_bn_top
I0821 08:26:51.501180 32487 net.cpp:150] Setting up L3_b3_cbr1_bn
I0821 08:26:51.501194 32487 net.cpp:157] Top shape: 125 64 8 8 (512000)
I0821 08:26:51.501199 32487 net.cpp:165] Memory required for data: 1300993500
I0821 08:26:51.501209 32487 layer_factory.hpp:77] Creating layer L3_b3_cbr1_scale
I0821 08:26:51.501219 32487 net.cpp:100] Creating Layer L3_b3_cbr1_scale
I0821 08:26:51.501224 32487 net.cpp:434] L3_b3_cbr1_scale <- L3_b3_cbr1_bn_top
I0821 08:26:51.501232 32487 net.cpp:395] L3_b3_cbr1_scale -> L3_b3_cbr1_bn_top (in-place)
I0821 08:26:51.501301 32487 layer_factory.hpp:77] Creating layer L3_b3_cbr1_scale
I0821 08:26:51.501461 32487 net.cpp:150] Setting up L3_b3_cbr1_scale
I0821 08:26:51.501473 32487 net.cpp:157] Top shape: 125 64 8 8 (512000)
I0821 08:26:51.501479 32487 net.cpp:165] Memory required for data: 1303041500
I0821 08:26:51.501488 32487 layer_factory.hpp:77] Creating layer L3_b3_cbr1_relu
I0821 08:26:51.501497 32487 net.cpp:100] Creating Layer L3_b3_cbr1_relu
I0821 08:26:51.501503 32487 net.cpp:434] L3_b3_cbr1_relu <- L3_b3_cbr1_bn_top
I0821 08:26:51.501510 32487 net.cpp:395] L3_b3_cbr1_relu -> L3_b3_cbr1_bn_top (in-place)
I0821 08:26:51.501524 32487 net.cpp:150] Setting up L3_b3_cbr1_relu
I0821 08:26:51.501531 32487 net.cpp:157] Top shape: 125 64 8 8 (512000)
I0821 08:26:51.501543 32487 net.cpp:165] Memory required for data: 1305089500
I0821 08:26:51.501549 32487 layer_factory.hpp:77] Creating layer L3_b3_cbr2_conv
I0821 08:26:51.501560 32487 net.cpp:100] Creating Layer L3_b3_cbr2_conv
I0821 08:26:51.501569 32487 net.cpp:434] L3_b3_cbr2_conv <- L3_b3_cbr1_bn_top
I0821 08:26:51.501579 32487 net.cpp:408] L3_b3_cbr2_conv -> L3_b3_cbr2_conv_top
I0821 08:26:51.502599 32487 net.cpp:150] Setting up L3_b3_cbr2_conv
I0821 08:26:51.502614 32487 net.cpp:157] Top shape: 125 64 8 8 (512000)
I0821 08:26:51.502619 32487 net.cpp:165] Memory required for data: 1307137500
I0821 08:26:51.502627 32487 layer_factory.hpp:77] Creating layer L3_b3_cbr2_bn
I0821 08:26:51.502640 32487 net.cpp:100] Creating Layer L3_b3_cbr2_bn
I0821 08:26:51.502647 32487 net.cpp:434] L3_b3_cbr2_bn <- L3_b3_cbr2_conv_top
I0821 08:26:51.502655 32487 net.cpp:408] L3_b3_cbr2_bn -> L3_b3_cbr2_bn_top
I0821 08:26:51.502923 32487 net.cpp:150] Setting up L3_b3_cbr2_bn
I0821 08:26:51.502938 32487 net.cpp:157] Top shape: 125 64 8 8 (512000)
I0821 08:26:51.502943 32487 net.cpp:165] Memory required for data: 1309185500
I0821 08:26:51.502952 32487 layer_factory.hpp:77] Creating layer L3_b3_cbr2_scale
I0821 08:26:51.502964 32487 net.cpp:100] Creating Layer L3_b3_cbr2_scale
I0821 08:26:51.502971 32487 net.cpp:434] L3_b3_cbr2_scale <- L3_b3_cbr2_bn_top
I0821 08:26:51.502979 32487 net.cpp:395] L3_b3_cbr2_scale -> L3_b3_cbr2_bn_top (in-place)
I0821 08:26:51.503041 32487 layer_factory.hpp:77] Creating layer L3_b3_cbr2_scale
I0821 08:26:51.503201 32487 net.cpp:150] Setting up L3_b3_cbr2_scale
I0821 08:26:51.503214 32487 net.cpp:157] Top shape: 125 64 8 8 (512000)
I0821 08:26:51.503219 32487 net.cpp:165] Memory required for data: 1311233500
I0821 08:26:51.503229 32487 layer_factory.hpp:77] Creating layer L3_b3_sum_eltwise
I0821 08:26:51.503242 32487 net.cpp:100] Creating Layer L3_b3_sum_eltwise
I0821 08:26:51.503248 32487 net.cpp:434] L3_b3_sum_eltwise <- L3_b3_cbr2_bn_top
I0821 08:26:51.503260 32487 net.cpp:434] L3_b3_sum_eltwise <- L3_b2_sum_eltwise_top_L3_b2_relu_0_split_1
I0821 08:26:51.503273 32487 net.cpp:408] L3_b3_sum_eltwise -> L3_b3_sum_eltwise_top
I0821 08:26:51.503309 32487 net.cpp:150] Setting up L3_b3_sum_eltwise
I0821 08:26:51.503320 32487 net.cpp:157] Top shape: 125 64 8 8 (512000)
I0821 08:26:51.503325 32487 net.cpp:165] Memory required for data: 1313281500
I0821 08:26:51.503330 32487 layer_factory.hpp:77] Creating layer L3_b3_relu
I0821 08:26:51.503342 32487 net.cpp:100] Creating Layer L3_b3_relu
I0821 08:26:51.503348 32487 net.cpp:434] L3_b3_relu <- L3_b3_sum_eltwise_top
I0821 08:26:51.503356 32487 net.cpp:395] L3_b3_relu -> L3_b3_sum_eltwise_top (in-place)
I0821 08:26:51.503365 32487 net.cpp:150] Setting up L3_b3_relu
I0821 08:26:51.503373 32487 net.cpp:157] Top shape: 125 64 8 8 (512000)
I0821 08:26:51.503377 32487 net.cpp:165] Memory required for data: 1315329500
I0821 08:26:51.503382 32487 layer_factory.hpp:77] Creating layer L3_b3_sum_eltwise_top_L3_b3_relu_0_split
I0821 08:26:51.503391 32487 net.cpp:100] Creating Layer L3_b3_sum_eltwise_top_L3_b3_relu_0_split
I0821 08:26:51.503396 32487 net.cpp:434] L3_b3_sum_eltwise_top_L3_b3_relu_0_split <- L3_b3_sum_eltwise_top
I0821 08:26:51.503403 32487 net.cpp:408] L3_b3_sum_eltwise_top_L3_b3_relu_0_split -> L3_b3_sum_eltwise_top_L3_b3_relu_0_split_0
I0821 08:26:51.503413 32487 net.cpp:408] L3_b3_sum_eltwise_top_L3_b3_relu_0_split -> L3_b3_sum_eltwise_top_L3_b3_relu_0_split_1
I0821 08:26:51.503463 32487 net.cpp:150] Setting up L3_b3_sum_eltwise_top_L3_b3_relu_0_split
I0821 08:26:51.503474 32487 net.cpp:157] Top shape: 125 64 8 8 (512000)
I0821 08:26:51.503481 32487 net.cpp:157] Top shape: 125 64 8 8 (512000)
I0821 08:26:51.503486 32487 net.cpp:165] Memory required for data: 1319425500
I0821 08:26:51.503491 32487 layer_factory.hpp:77] Creating layer L3_b4_cbr1_conv
I0821 08:26:51.503506 32487 net.cpp:100] Creating Layer L3_b4_cbr1_conv
I0821 08:26:51.503513 32487 net.cpp:434] L3_b4_cbr1_conv <- L3_b3_sum_eltwise_top_L3_b3_relu_0_split_0
I0821 08:26:51.503522 32487 net.cpp:408] L3_b4_cbr1_conv -> L3_b4_cbr1_conv_top
I0821 08:26:51.504554 32487 net.cpp:150] Setting up L3_b4_cbr1_conv
I0821 08:26:51.504570 32487 net.cpp:157] Top shape: 125 64 8 8 (512000)
I0821 08:26:51.504575 32487 net.cpp:165] Memory required for data: 1321473500
I0821 08:26:51.504583 32487 layer_factory.hpp:77] Creating layer L3_b4_cbr1_bn
I0821 08:26:51.504596 32487 net.cpp:100] Creating Layer L3_b4_cbr1_bn
I0821 08:26:51.504603 32487 net.cpp:434] L3_b4_cbr1_bn <- L3_b4_cbr1_conv_top
I0821 08:26:51.504614 32487 net.cpp:408] L3_b4_cbr1_bn -> L3_b4_cbr1_bn_top
I0821 08:26:51.504884 32487 net.cpp:150] Setting up L3_b4_cbr1_bn
I0821 08:26:51.504896 32487 net.cpp:157] Top shape: 125 64 8 8 (512000)
I0821 08:26:51.504901 32487 net.cpp:165] Memory required for data: 1323521500
I0821 08:26:51.504912 32487 layer_factory.hpp:77] Creating layer L3_b4_cbr1_scale
I0821 08:26:51.504921 32487 net.cpp:100] Creating Layer L3_b4_cbr1_scale
I0821 08:26:51.504927 32487 net.cpp:434] L3_b4_cbr1_scale <- L3_b4_cbr1_bn_top
I0821 08:26:51.504935 32487 net.cpp:395] L3_b4_cbr1_scale -> L3_b4_cbr1_bn_top (in-place)
I0821 08:26:51.504997 32487 layer_factory.hpp:77] Creating layer L3_b4_cbr1_scale
I0821 08:26:51.505154 32487 net.cpp:150] Setting up L3_b4_cbr1_scale
I0821 08:26:51.505168 32487 net.cpp:157] Top shape: 125 64 8 8 (512000)
I0821 08:26:51.505173 32487 net.cpp:165] Memory required for data: 1325569500
I0821 08:26:51.505182 32487 layer_factory.hpp:77] Creating layer L3_b4_cbr1_relu
I0821 08:26:51.505190 32487 net.cpp:100] Creating Layer L3_b4_cbr1_relu
I0821 08:26:51.505198 32487 net.cpp:434] L3_b4_cbr1_relu <- L3_b4_cbr1_bn_top
I0821 08:26:51.505208 32487 net.cpp:395] L3_b4_cbr1_relu -> L3_b4_cbr1_bn_top (in-place)
I0821 08:26:51.505218 32487 net.cpp:150] Setting up L3_b4_cbr1_relu
I0821 08:26:51.505225 32487 net.cpp:157] Top shape: 125 64 8 8 (512000)
I0821 08:26:51.505230 32487 net.cpp:165] Memory required for data: 1327617500
I0821 08:26:51.505235 32487 layer_factory.hpp:77] Creating layer L3_b4_cbr2_conv
I0821 08:26:51.505249 32487 net.cpp:100] Creating Layer L3_b4_cbr2_conv
I0821 08:26:51.505262 32487 net.cpp:434] L3_b4_cbr2_conv <- L3_b4_cbr1_bn_top
I0821 08:26:51.505272 32487 net.cpp:408] L3_b4_cbr2_conv -> L3_b4_cbr2_conv_top
I0821 08:26:51.506309 32487 net.cpp:150] Setting up L3_b4_cbr2_conv
I0821 08:26:51.506323 32487 net.cpp:157] Top shape: 125 64 8 8 (512000)
I0821 08:26:51.506328 32487 net.cpp:165] Memory required for data: 1329665500
I0821 08:26:51.506338 32487 layer_factory.hpp:77] Creating layer L3_b4_cbr2_bn
I0821 08:26:51.506350 32487 net.cpp:100] Creating Layer L3_b4_cbr2_bn
I0821 08:26:51.506357 32487 net.cpp:434] L3_b4_cbr2_bn <- L3_b4_cbr2_conv_top
I0821 08:26:51.506366 32487 net.cpp:408] L3_b4_cbr2_bn -> L3_b4_cbr2_bn_top
I0821 08:26:51.506639 32487 net.cpp:150] Setting up L3_b4_cbr2_bn
I0821 08:26:51.506652 32487 net.cpp:157] Top shape: 125 64 8 8 (512000)
I0821 08:26:51.506657 32487 net.cpp:165] Memory required for data: 1331713500
I0821 08:26:51.506669 32487 layer_factory.hpp:77] Creating layer L3_b4_cbr2_scale
I0821 08:26:51.506680 32487 net.cpp:100] Creating Layer L3_b4_cbr2_scale
I0821 08:26:51.506687 32487 net.cpp:434] L3_b4_cbr2_scale <- L3_b4_cbr2_bn_top
I0821 08:26:51.506695 32487 net.cpp:395] L3_b4_cbr2_scale -> L3_b4_cbr2_bn_top (in-place)
I0821 08:26:51.506757 32487 layer_factory.hpp:77] Creating layer L3_b4_cbr2_scale
I0821 08:26:51.506920 32487 net.cpp:150] Setting up L3_b4_cbr2_scale
I0821 08:26:51.506934 32487 net.cpp:157] Top shape: 125 64 8 8 (512000)
I0821 08:26:51.506939 32487 net.cpp:165] Memory required for data: 1333761500
I0821 08:26:51.506948 32487 layer_factory.hpp:77] Creating layer L3_b4_sum_eltwise
I0821 08:26:51.506960 32487 net.cpp:100] Creating Layer L3_b4_sum_eltwise
I0821 08:26:51.506968 32487 net.cpp:434] L3_b4_sum_eltwise <- L3_b4_cbr2_bn_top
I0821 08:26:51.506975 32487 net.cpp:434] L3_b4_sum_eltwise <- L3_b3_sum_eltwise_top_L3_b3_relu_0_split_1
I0821 08:26:51.506985 32487 net.cpp:408] L3_b4_sum_eltwise -> L3_b4_sum_eltwise_top
I0821 08:26:51.507019 32487 net.cpp:150] Setting up L3_b4_sum_eltwise
I0821 08:26:51.507036 32487 net.cpp:157] Top shape: 125 64 8 8 (512000)
I0821 08:26:51.507041 32487 net.cpp:165] Memory required for data: 1335809500
I0821 08:26:51.507046 32487 layer_factory.hpp:77] Creating layer L3_b4_relu
I0821 08:26:51.507058 32487 net.cpp:100] Creating Layer L3_b4_relu
I0821 08:26:51.507064 32487 net.cpp:434] L3_b4_relu <- L3_b4_sum_eltwise_top
I0821 08:26:51.507072 32487 net.cpp:395] L3_b4_relu -> L3_b4_sum_eltwise_top (in-place)
I0821 08:26:51.507082 32487 net.cpp:150] Setting up L3_b4_relu
I0821 08:26:51.507089 32487 net.cpp:157] Top shape: 125 64 8 8 (512000)
I0821 08:26:51.507094 32487 net.cpp:165] Memory required for data: 1337857500
I0821 08:26:51.507099 32487 layer_factory.hpp:77] Creating layer L3_b4_sum_eltwise_top_L3_b4_relu_0_split
I0821 08:26:51.507107 32487 net.cpp:100] Creating Layer L3_b4_sum_eltwise_top_L3_b4_relu_0_split
I0821 08:26:51.507112 32487 net.cpp:434] L3_b4_sum_eltwise_top_L3_b4_relu_0_split <- L3_b4_sum_eltwise_top
I0821 08:26:51.507119 32487 net.cpp:408] L3_b4_sum_eltwise_top_L3_b4_relu_0_split -> L3_b4_sum_eltwise_top_L3_b4_relu_0_split_0
I0821 08:26:51.507129 32487 net.cpp:408] L3_b4_sum_eltwise_top_L3_b4_relu_0_split -> L3_b4_sum_eltwise_top_L3_b4_relu_0_split_1
I0821 08:26:51.507179 32487 net.cpp:150] Setting up L3_b4_sum_eltwise_top_L3_b4_relu_0_split
I0821 08:26:51.507191 32487 net.cpp:157] Top shape: 125 64 8 8 (512000)
I0821 08:26:51.507199 32487 net.cpp:157] Top shape: 125 64 8 8 (512000)
I0821 08:26:51.507203 32487 net.cpp:165] Memory required for data: 1341953500
I0821 08:26:51.507208 32487 layer_factory.hpp:77] Creating layer L3_b5_cbr1_conv
I0821 08:26:51.507222 32487 net.cpp:100] Creating Layer L3_b5_cbr1_conv
I0821 08:26:51.507230 32487 net.cpp:434] L3_b5_cbr1_conv <- L3_b4_sum_eltwise_top_L3_b4_relu_0_split_0
I0821 08:26:51.507239 32487 net.cpp:408] L3_b5_cbr1_conv -> L3_b5_cbr1_conv_top
I0821 08:26:51.508266 32487 net.cpp:150] Setting up L3_b5_cbr1_conv
I0821 08:26:51.508281 32487 net.cpp:157] Top shape: 125 64 8 8 (512000)
I0821 08:26:51.508287 32487 net.cpp:165] Memory required for data: 1344001500
I0821 08:26:51.508296 32487 layer_factory.hpp:77] Creating layer L3_b5_cbr1_bn
I0821 08:26:51.508308 32487 net.cpp:100] Creating Layer L3_b5_cbr1_bn
I0821 08:26:51.508316 32487 net.cpp:434] L3_b5_cbr1_bn <- L3_b5_cbr1_conv_top
I0821 08:26:51.508327 32487 net.cpp:408] L3_b5_cbr1_bn -> L3_b5_cbr1_bn_top
I0821 08:26:51.509558 32487 net.cpp:150] Setting up L3_b5_cbr1_bn
I0821 08:26:51.509575 32487 net.cpp:157] Top shape: 125 64 8 8 (512000)
I0821 08:26:51.509580 32487 net.cpp:165] Memory required for data: 1346049500
I0821 08:26:51.509593 32487 layer_factory.hpp:77] Creating layer L3_b5_cbr1_scale
I0821 08:26:51.509605 32487 net.cpp:100] Creating Layer L3_b5_cbr1_scale
I0821 08:26:51.509613 32487 net.cpp:434] L3_b5_cbr1_scale <- L3_b5_cbr1_bn_top
I0821 08:26:51.509620 32487 net.cpp:395] L3_b5_cbr1_scale -> L3_b5_cbr1_bn_top (in-place)
I0821 08:26:51.509687 32487 layer_factory.hpp:77] Creating layer L3_b5_cbr1_scale
I0821 08:26:51.509847 32487 net.cpp:150] Setting up L3_b5_cbr1_scale
I0821 08:26:51.509860 32487 net.cpp:157] Top shape: 125 64 8 8 (512000)
I0821 08:26:51.509865 32487 net.cpp:165] Memory required for data: 1348097500
I0821 08:26:51.509876 32487 layer_factory.hpp:77] Creating layer L3_b5_cbr1_relu
I0821 08:26:51.509886 32487 net.cpp:100] Creating Layer L3_b5_cbr1_relu
I0821 08:26:51.509893 32487 net.cpp:434] L3_b5_cbr1_relu <- L3_b5_cbr1_bn_top
I0821 08:26:51.509903 32487 net.cpp:395] L3_b5_cbr1_relu -> L3_b5_cbr1_bn_top (in-place)
I0821 08:26:51.509914 32487 net.cpp:150] Setting up L3_b5_cbr1_relu
I0821 08:26:51.509922 32487 net.cpp:157] Top shape: 125 64 8 8 (512000)
I0821 08:26:51.509927 32487 net.cpp:165] Memory required for data: 1350145500
I0821 08:26:51.509932 32487 layer_factory.hpp:77] Creating layer L3_b5_cbr2_conv
I0821 08:26:51.509943 32487 net.cpp:100] Creating Layer L3_b5_cbr2_conv
I0821 08:26:51.509949 32487 net.cpp:434] L3_b5_cbr2_conv <- L3_b5_cbr1_bn_top
I0821 08:26:51.509960 32487 net.cpp:408] L3_b5_cbr2_conv -> L3_b5_cbr2_conv_top
I0821 08:26:51.511950 32487 net.cpp:150] Setting up L3_b5_cbr2_conv
I0821 08:26:51.511968 32487 net.cpp:157] Top shape: 125 64 8 8 (512000)
I0821 08:26:51.511975 32487 net.cpp:165] Memory required for data: 1352193500
I0821 08:26:51.511983 32487 layer_factory.hpp:77] Creating layer L3_b5_cbr2_bn
I0821 08:26:51.511996 32487 net.cpp:100] Creating Layer L3_b5_cbr2_bn
I0821 08:26:51.512004 32487 net.cpp:434] L3_b5_cbr2_bn <- L3_b5_cbr2_conv_top
I0821 08:26:51.512013 32487 net.cpp:408] L3_b5_cbr2_bn -> L3_b5_cbr2_bn_top
I0821 08:26:51.512286 32487 net.cpp:150] Setting up L3_b5_cbr2_bn
I0821 08:26:51.512301 32487 net.cpp:157] Top shape: 125 64 8 8 (512000)
I0821 08:26:51.512306 32487 net.cpp:165] Memory required for data: 1354241500
I0821 08:26:51.512317 32487 layer_factory.hpp:77] Creating layer L3_b5_cbr2_scale
I0821 08:26:51.512329 32487 net.cpp:100] Creating Layer L3_b5_cbr2_scale
I0821 08:26:51.512336 32487 net.cpp:434] L3_b5_cbr2_scale <- L3_b5_cbr2_bn_top
I0821 08:26:51.512344 32487 net.cpp:395] L3_b5_cbr2_scale -> L3_b5_cbr2_bn_top (in-place)
I0821 08:26:51.512405 32487 layer_factory.hpp:77] Creating layer L3_b5_cbr2_scale
I0821 08:26:51.512560 32487 net.cpp:150] Setting up L3_b5_cbr2_scale
I0821 08:26:51.512573 32487 net.cpp:157] Top shape: 125 64 8 8 (512000)
I0821 08:26:51.512579 32487 net.cpp:165] Memory required for data: 1356289500
I0821 08:26:51.512588 32487 layer_factory.hpp:77] Creating layer L3_b5_sum_eltwise
I0821 08:26:51.512600 32487 net.cpp:100] Creating Layer L3_b5_sum_eltwise
I0821 08:26:51.512609 32487 net.cpp:434] L3_b5_sum_eltwise <- L3_b5_cbr2_bn_top
I0821 08:26:51.512615 32487 net.cpp:434] L3_b5_sum_eltwise <- L3_b4_sum_eltwise_top_L3_b4_relu_0_split_1
I0821 08:26:51.512626 32487 net.cpp:408] L3_b5_sum_eltwise -> L3_b5_sum_eltwise_top
I0821 08:26:51.512660 32487 net.cpp:150] Setting up L3_b5_sum_eltwise
I0821 08:26:51.512671 32487 net.cpp:157] Top shape: 125 64 8 8 (512000)
I0821 08:26:51.512676 32487 net.cpp:165] Memory required for data: 1358337500
I0821 08:26:51.512681 32487 layer_factory.hpp:77] Creating layer L3_b5_relu
I0821 08:26:51.512693 32487 net.cpp:100] Creating Layer L3_b5_relu
I0821 08:26:51.512699 32487 net.cpp:434] L3_b5_relu <- L3_b5_sum_eltwise_top
I0821 08:26:51.512707 32487 net.cpp:395] L3_b5_relu -> L3_b5_sum_eltwise_top (in-place)
I0821 08:26:51.512717 32487 net.cpp:150] Setting up L3_b5_relu
I0821 08:26:51.512724 32487 net.cpp:157] Top shape: 125 64 8 8 (512000)
I0821 08:26:51.512728 32487 net.cpp:165] Memory required for data: 1360385500
I0821 08:26:51.512733 32487 layer_factory.hpp:77] Creating layer L3_b5_sum_eltwise_top_L3_b5_relu_0_split
I0821 08:26:51.512742 32487 net.cpp:100] Creating Layer L3_b5_sum_eltwise_top_L3_b5_relu_0_split
I0821 08:26:51.512747 32487 net.cpp:434] L3_b5_sum_eltwise_top_L3_b5_relu_0_split <- L3_b5_sum_eltwise_top
I0821 08:26:51.512754 32487 net.cpp:408] L3_b5_sum_eltwise_top_L3_b5_relu_0_split -> L3_b5_sum_eltwise_top_L3_b5_relu_0_split_0
I0821 08:26:51.512763 32487 net.cpp:408] L3_b5_sum_eltwise_top_L3_b5_relu_0_split -> L3_b5_sum_eltwise_top_L3_b5_relu_0_split_1
I0821 08:26:51.512811 32487 net.cpp:150] Setting up L3_b5_sum_eltwise_top_L3_b5_relu_0_split
I0821 08:26:51.512823 32487 net.cpp:157] Top shape: 125 64 8 8 (512000)
I0821 08:26:51.512830 32487 net.cpp:157] Top shape: 125 64 8 8 (512000)
I0821 08:26:51.512835 32487 net.cpp:165] Memory required for data: 1364481500
I0821 08:26:51.512840 32487 layer_factory.hpp:77] Creating layer L3_b6_cbr1_conv
I0821 08:26:51.512853 32487 net.cpp:100] Creating Layer L3_b6_cbr1_conv
I0821 08:26:51.512861 32487 net.cpp:434] L3_b6_cbr1_conv <- L3_b5_sum_eltwise_top_L3_b5_relu_0_split_0
I0821 08:26:51.512871 32487 net.cpp:408] L3_b6_cbr1_conv -> L3_b6_cbr1_conv_top
I0821 08:26:51.513882 32487 net.cpp:150] Setting up L3_b6_cbr1_conv
I0821 08:26:51.513897 32487 net.cpp:157] Top shape: 125 64 8 8 (512000)
I0821 08:26:51.513902 32487 net.cpp:165] Memory required for data: 1366529500
I0821 08:26:51.513912 32487 layer_factory.hpp:77] Creating layer L3_b6_cbr1_bn
I0821 08:26:51.513924 32487 net.cpp:100] Creating Layer L3_b6_cbr1_bn
I0821 08:26:51.513939 32487 net.cpp:434] L3_b6_cbr1_bn <- L3_b6_cbr1_conv_top
I0821 08:26:51.513953 32487 net.cpp:408] L3_b6_cbr1_bn -> L3_b6_cbr1_bn_top
I0821 08:26:51.514210 32487 net.cpp:150] Setting up L3_b6_cbr1_bn
I0821 08:26:51.514225 32487 net.cpp:157] Top shape: 125 64 8 8 (512000)
I0821 08:26:51.514230 32487 net.cpp:165] Memory required for data: 1368577500
I0821 08:26:51.514240 32487 layer_factory.hpp:77] Creating layer L3_b6_cbr1_scale
I0821 08:26:51.514250 32487 net.cpp:100] Creating Layer L3_b6_cbr1_scale
I0821 08:26:51.514261 32487 net.cpp:434] L3_b6_cbr1_scale <- L3_b6_cbr1_bn_top
I0821 08:26:51.514269 32487 net.cpp:395] L3_b6_cbr1_scale -> L3_b6_cbr1_bn_top (in-place)
I0821 08:26:51.514331 32487 layer_factory.hpp:77] Creating layer L3_b6_cbr1_scale
I0821 08:26:51.514489 32487 net.cpp:150] Setting up L3_b6_cbr1_scale
I0821 08:26:51.514503 32487 net.cpp:157] Top shape: 125 64 8 8 (512000)
I0821 08:26:51.514508 32487 net.cpp:165] Memory required for data: 1370625500
I0821 08:26:51.514518 32487 layer_factory.hpp:77] Creating layer L3_b6_cbr1_relu
I0821 08:26:51.514525 32487 net.cpp:100] Creating Layer L3_b6_cbr1_relu
I0821 08:26:51.514533 32487 net.cpp:434] L3_b6_cbr1_relu <- L3_b6_cbr1_bn_top
I0821 08:26:51.514544 32487 net.cpp:395] L3_b6_cbr1_relu -> L3_b6_cbr1_bn_top (in-place)
I0821 08:26:51.514555 32487 net.cpp:150] Setting up L3_b6_cbr1_relu
I0821 08:26:51.514562 32487 net.cpp:157] Top shape: 125 64 8 8 (512000)
I0821 08:26:51.514567 32487 net.cpp:165] Memory required for data: 1372673500
I0821 08:26:51.514572 32487 layer_factory.hpp:77] Creating layer L3_b6_cbr2_conv
I0821 08:26:51.514586 32487 net.cpp:100] Creating Layer L3_b6_cbr2_conv
I0821 08:26:51.514593 32487 net.cpp:434] L3_b6_cbr2_conv <- L3_b6_cbr1_bn_top
I0821 08:26:51.514602 32487 net.cpp:408] L3_b6_cbr2_conv -> L3_b6_cbr2_conv_top
I0821 08:26:51.515616 32487 net.cpp:150] Setting up L3_b6_cbr2_conv
I0821 08:26:51.515632 32487 net.cpp:157] Top shape: 125 64 8 8 (512000)
I0821 08:26:51.515637 32487 net.cpp:165] Memory required for data: 1374721500
I0821 08:26:51.515646 32487 layer_factory.hpp:77] Creating layer L3_b6_cbr2_bn
I0821 08:26:51.515658 32487 net.cpp:100] Creating Layer L3_b6_cbr2_bn
I0821 08:26:51.515666 32487 net.cpp:434] L3_b6_cbr2_bn <- L3_b6_cbr2_conv_top
I0821 08:26:51.515674 32487 net.cpp:408] L3_b6_cbr2_bn -> L3_b6_cbr2_bn_top
I0821 08:26:51.515936 32487 net.cpp:150] Setting up L3_b6_cbr2_bn
I0821 08:26:51.515950 32487 net.cpp:157] Top shape: 125 64 8 8 (512000)
I0821 08:26:51.515955 32487 net.cpp:165] Memory required for data: 1376769500
I0821 08:26:51.515965 32487 layer_factory.hpp:77] Creating layer L3_b6_cbr2_scale
I0821 08:26:51.515978 32487 net.cpp:100] Creating Layer L3_b6_cbr2_scale
I0821 08:26:51.515985 32487 net.cpp:434] L3_b6_cbr2_scale <- L3_b6_cbr2_bn_top
I0821 08:26:51.515993 32487 net.cpp:395] L3_b6_cbr2_scale -> L3_b6_cbr2_bn_top (in-place)
I0821 08:26:51.516054 32487 layer_factory.hpp:77] Creating layer L3_b6_cbr2_scale
I0821 08:26:51.516211 32487 net.cpp:150] Setting up L3_b6_cbr2_scale
I0821 08:26:51.516224 32487 net.cpp:157] Top shape: 125 64 8 8 (512000)
I0821 08:26:51.516229 32487 net.cpp:165] Memory required for data: 1378817500
I0821 08:26:51.516238 32487 layer_factory.hpp:77] Creating layer L3_b6_sum_eltwise
I0821 08:26:51.516252 32487 net.cpp:100] Creating Layer L3_b6_sum_eltwise
I0821 08:26:51.516264 32487 net.cpp:434] L3_b6_sum_eltwise <- L3_b6_cbr2_bn_top
I0821 08:26:51.516273 32487 net.cpp:434] L3_b6_sum_eltwise <- L3_b5_sum_eltwise_top_L3_b5_relu_0_split_1
I0821 08:26:51.516283 32487 net.cpp:408] L3_b6_sum_eltwise -> L3_b6_sum_eltwise_top
I0821 08:26:51.516319 32487 net.cpp:150] Setting up L3_b6_sum_eltwise
I0821 08:26:51.516330 32487 net.cpp:157] Top shape: 125 64 8 8 (512000)
I0821 08:26:51.516335 32487 net.cpp:165] Memory required for data: 1380865500
I0821 08:26:51.516340 32487 layer_factory.hpp:77] Creating layer L3_b6_relu
I0821 08:26:51.516352 32487 net.cpp:100] Creating Layer L3_b6_relu
I0821 08:26:51.516360 32487 net.cpp:434] L3_b6_relu <- L3_b6_sum_eltwise_top
I0821 08:26:51.516373 32487 net.cpp:395] L3_b6_relu -> L3_b6_sum_eltwise_top (in-place)
I0821 08:26:51.516384 32487 net.cpp:150] Setting up L3_b6_relu
I0821 08:26:51.516392 32487 net.cpp:157] Top shape: 125 64 8 8 (512000)
I0821 08:26:51.516396 32487 net.cpp:165] Memory required for data: 1382913500
I0821 08:26:51.516402 32487 layer_factory.hpp:77] Creating layer L3_b6_sum_eltwise_top_L3_b6_relu_0_split
I0821 08:26:51.516409 32487 net.cpp:100] Creating Layer L3_b6_sum_eltwise_top_L3_b6_relu_0_split
I0821 08:26:51.516414 32487 net.cpp:434] L3_b6_sum_eltwise_top_L3_b6_relu_0_split <- L3_b6_sum_eltwise_top
I0821 08:26:51.516422 32487 net.cpp:408] L3_b6_sum_eltwise_top_L3_b6_relu_0_split -> L3_b6_sum_eltwise_top_L3_b6_relu_0_split_0
I0821 08:26:51.516433 32487 net.cpp:408] L3_b6_sum_eltwise_top_L3_b6_relu_0_split -> L3_b6_sum_eltwise_top_L3_b6_relu_0_split_1
I0821 08:26:51.516481 32487 net.cpp:150] Setting up L3_b6_sum_eltwise_top_L3_b6_relu_0_split
I0821 08:26:51.516494 32487 net.cpp:157] Top shape: 125 64 8 8 (512000)
I0821 08:26:51.516501 32487 net.cpp:157] Top shape: 125 64 8 8 (512000)
I0821 08:26:51.516505 32487 net.cpp:165] Memory required for data: 1387009500
I0821 08:26:51.516510 32487 layer_factory.hpp:77] Creating layer L3_b7_cbr1_conv
I0821 08:26:51.516528 32487 net.cpp:100] Creating Layer L3_b7_cbr1_conv
I0821 08:26:51.516535 32487 net.cpp:434] L3_b7_cbr1_conv <- L3_b6_sum_eltwise_top_L3_b6_relu_0_split_0
I0821 08:26:51.516544 32487 net.cpp:408] L3_b7_cbr1_conv -> L3_b7_cbr1_conv_top
I0821 08:26:51.517557 32487 net.cpp:150] Setting up L3_b7_cbr1_conv
I0821 08:26:51.517573 32487 net.cpp:157] Top shape: 125 64 8 8 (512000)
I0821 08:26:51.517578 32487 net.cpp:165] Memory required for data: 1389057500
I0821 08:26:51.517587 32487 layer_factory.hpp:77] Creating layer L3_b7_cbr1_bn
I0821 08:26:51.517601 32487 net.cpp:100] Creating Layer L3_b7_cbr1_bn
I0821 08:26:51.517607 32487 net.cpp:434] L3_b7_cbr1_bn <- L3_b7_cbr1_conv_top
I0821 08:26:51.517618 32487 net.cpp:408] L3_b7_cbr1_bn -> L3_b7_cbr1_bn_top
I0821 08:26:51.517877 32487 net.cpp:150] Setting up L3_b7_cbr1_bn
I0821 08:26:51.517891 32487 net.cpp:157] Top shape: 125 64 8 8 (512000)
I0821 08:26:51.517896 32487 net.cpp:165] Memory required for data: 1391105500
I0821 08:26:51.517907 32487 layer_factory.hpp:77] Creating layer L3_b7_cbr1_scale
I0821 08:26:51.517915 32487 net.cpp:100] Creating Layer L3_b7_cbr1_scale
I0821 08:26:51.517922 32487 net.cpp:434] L3_b7_cbr1_scale <- L3_b7_cbr1_bn_top
I0821 08:26:51.517933 32487 net.cpp:395] L3_b7_cbr1_scale -> L3_b7_cbr1_bn_top (in-place)
I0821 08:26:51.517992 32487 layer_factory.hpp:77] Creating layer L3_b7_cbr1_scale
I0821 08:26:51.518149 32487 net.cpp:150] Setting up L3_b7_cbr1_scale
I0821 08:26:51.518162 32487 net.cpp:157] Top shape: 125 64 8 8 (512000)
I0821 08:26:51.518168 32487 net.cpp:165] Memory required for data: 1393153500
I0821 08:26:51.518177 32487 layer_factory.hpp:77] Creating layer L3_b7_cbr1_relu
I0821 08:26:51.518211 32487 net.cpp:100] Creating Layer L3_b7_cbr1_relu
I0821 08:26:51.518220 32487 net.cpp:434] L3_b7_cbr1_relu <- L3_b7_cbr1_bn_top
I0821 08:26:51.518229 32487 net.cpp:395] L3_b7_cbr1_relu -> L3_b7_cbr1_bn_top (in-place)
I0821 08:26:51.518239 32487 net.cpp:150] Setting up L3_b7_cbr1_relu
I0821 08:26:51.518246 32487 net.cpp:157] Top shape: 125 64 8 8 (512000)
I0821 08:26:51.518251 32487 net.cpp:165] Memory required for data: 1395201500
I0821 08:26:51.518263 32487 layer_factory.hpp:77] Creating layer L3_b7_cbr2_conv
I0821 08:26:51.518278 32487 net.cpp:100] Creating Layer L3_b7_cbr2_conv
I0821 08:26:51.518285 32487 net.cpp:434] L3_b7_cbr2_conv <- L3_b7_cbr1_bn_top
I0821 08:26:51.518295 32487 net.cpp:408] L3_b7_cbr2_conv -> L3_b7_cbr2_conv_top
I0821 08:26:51.519321 32487 net.cpp:150] Setting up L3_b7_cbr2_conv
I0821 08:26:51.519336 32487 net.cpp:157] Top shape: 125 64 8 8 (512000)
I0821 08:26:51.519342 32487 net.cpp:165] Memory required for data: 1397249500
I0821 08:26:51.519351 32487 layer_factory.hpp:77] Creating layer L3_b7_cbr2_bn
I0821 08:26:51.519363 32487 net.cpp:100] Creating Layer L3_b7_cbr2_bn
I0821 08:26:51.519377 32487 net.cpp:434] L3_b7_cbr2_bn <- L3_b7_cbr2_conv_top
I0821 08:26:51.519389 32487 net.cpp:408] L3_b7_cbr2_bn -> L3_b7_cbr2_bn_top
I0821 08:26:51.519657 32487 net.cpp:150] Setting up L3_b7_cbr2_bn
I0821 08:26:51.519671 32487 net.cpp:157] Top shape: 125 64 8 8 (512000)
I0821 08:26:51.519676 32487 net.cpp:165] Memory required for data: 1399297500
I0821 08:26:51.519686 32487 layer_factory.hpp:77] Creating layer L3_b7_cbr2_scale
I0821 08:26:51.519695 32487 net.cpp:100] Creating Layer L3_b7_cbr2_scale
I0821 08:26:51.519701 32487 net.cpp:434] L3_b7_cbr2_scale <- L3_b7_cbr2_bn_top
I0821 08:26:51.519709 32487 net.cpp:395] L3_b7_cbr2_scale -> L3_b7_cbr2_bn_top (in-place)
I0821 08:26:51.519770 32487 layer_factory.hpp:77] Creating layer L3_b7_cbr2_scale
I0821 08:26:51.519929 32487 net.cpp:150] Setting up L3_b7_cbr2_scale
I0821 08:26:51.519942 32487 net.cpp:157] Top shape: 125 64 8 8 (512000)
I0821 08:26:51.519948 32487 net.cpp:165] Memory required for data: 1401345500
I0821 08:26:51.519958 32487 layer_factory.hpp:77] Creating layer L3_b7_sum_eltwise
I0821 08:26:51.519966 32487 net.cpp:100] Creating Layer L3_b7_sum_eltwise
I0821 08:26:51.519973 32487 net.cpp:434] L3_b7_sum_eltwise <- L3_b7_cbr2_bn_top
I0821 08:26:51.519980 32487 net.cpp:434] L3_b7_sum_eltwise <- L3_b6_sum_eltwise_top_L3_b6_relu_0_split_1
I0821 08:26:51.519991 32487 net.cpp:408] L3_b7_sum_eltwise -> L3_b7_sum_eltwise_top
I0821 08:26:51.520025 32487 net.cpp:150] Setting up L3_b7_sum_eltwise
I0821 08:26:51.520040 32487 net.cpp:157] Top shape: 125 64 8 8 (512000)
I0821 08:26:51.520045 32487 net.cpp:165] Memory required for data: 1403393500
I0821 08:26:51.520051 32487 layer_factory.hpp:77] Creating layer L3_b7_relu
I0821 08:26:51.520058 32487 net.cpp:100] Creating Layer L3_b7_relu
I0821 08:26:51.520064 32487 net.cpp:434] L3_b7_relu <- L3_b7_sum_eltwise_top
I0821 08:26:51.520072 32487 net.cpp:395] L3_b7_relu -> L3_b7_sum_eltwise_top (in-place)
I0821 08:26:51.520081 32487 net.cpp:150] Setting up L3_b7_relu
I0821 08:26:51.520088 32487 net.cpp:157] Top shape: 125 64 8 8 (512000)
I0821 08:26:51.520093 32487 net.cpp:165] Memory required for data: 1405441500
I0821 08:26:51.520098 32487 layer_factory.hpp:77] Creating layer L3_b7_sum_eltwise_top_L3_b7_relu_0_split
I0821 08:26:51.520109 32487 net.cpp:100] Creating Layer L3_b7_sum_eltwise_top_L3_b7_relu_0_split
I0821 08:26:51.520117 32487 net.cpp:434] L3_b7_sum_eltwise_top_L3_b7_relu_0_split <- L3_b7_sum_eltwise_top
I0821 08:26:51.520123 32487 net.cpp:408] L3_b7_sum_eltwise_top_L3_b7_relu_0_split -> L3_b7_sum_eltwise_top_L3_b7_relu_0_split_0
I0821 08:26:51.520134 32487 net.cpp:408] L3_b7_sum_eltwise_top_L3_b7_relu_0_split -> L3_b7_sum_eltwise_top_L3_b7_relu_0_split_1
I0821 08:26:51.520184 32487 net.cpp:150] Setting up L3_b7_sum_eltwise_top_L3_b7_relu_0_split
I0821 08:26:51.520195 32487 net.cpp:157] Top shape: 125 64 8 8 (512000)
I0821 08:26:51.520201 32487 net.cpp:157] Top shape: 125 64 8 8 (512000)
I0821 08:26:51.520206 32487 net.cpp:165] Memory required for data: 1409537500
I0821 08:26:51.520211 32487 layer_factory.hpp:77] Creating layer L3_b8_cbr1_conv
I0821 08:26:51.520222 32487 net.cpp:100] Creating Layer L3_b8_cbr1_conv
I0821 08:26:51.520229 32487 net.cpp:434] L3_b8_cbr1_conv <- L3_b7_sum_eltwise_top_L3_b7_relu_0_split_0
I0821 08:26:51.520241 32487 net.cpp:408] L3_b8_cbr1_conv -> L3_b8_cbr1_conv_top
I0821 08:26:51.521270 32487 net.cpp:150] Setting up L3_b8_cbr1_conv
I0821 08:26:51.521284 32487 net.cpp:157] Top shape: 125 64 8 8 (512000)
I0821 08:26:51.521289 32487 net.cpp:165] Memory required for data: 1411585500
I0821 08:26:51.521298 32487 layer_factory.hpp:77] Creating layer L3_b8_cbr1_bn
I0821 08:26:51.521308 32487 net.cpp:100] Creating Layer L3_b8_cbr1_bn
I0821 08:26:51.521315 32487 net.cpp:434] L3_b8_cbr1_bn <- L3_b8_cbr1_conv_top
I0821 08:26:51.521327 32487 net.cpp:408] L3_b8_cbr1_bn -> L3_b8_cbr1_bn_top
I0821 08:26:51.521594 32487 net.cpp:150] Setting up L3_b8_cbr1_bn
I0821 08:26:51.521610 32487 net.cpp:157] Top shape: 125 64 8 8 (512000)
I0821 08:26:51.521615 32487 net.cpp:165] Memory required for data: 1413633500
I0821 08:26:51.521633 32487 layer_factory.hpp:77] Creating layer L3_b8_cbr1_scale
I0821 08:26:51.521642 32487 net.cpp:100] Creating Layer L3_b8_cbr1_scale
I0821 08:26:51.521649 32487 net.cpp:434] L3_b8_cbr1_scale <- L3_b8_cbr1_bn_top
I0821 08:26:51.521656 32487 net.cpp:395] L3_b8_cbr1_scale -> L3_b8_cbr1_bn_top (in-place)
I0821 08:26:51.521723 32487 layer_factory.hpp:77] Creating layer L3_b8_cbr1_scale
I0821 08:26:51.521883 32487 net.cpp:150] Setting up L3_b8_cbr1_scale
I0821 08:26:51.521896 32487 net.cpp:157] Top shape: 125 64 8 8 (512000)
I0821 08:26:51.521901 32487 net.cpp:165] Memory required for data: 1415681500
I0821 08:26:51.521911 32487 layer_factory.hpp:77] Creating layer L3_b8_cbr1_relu
I0821 08:26:51.521919 32487 net.cpp:100] Creating Layer L3_b8_cbr1_relu
I0821 08:26:51.521929 32487 net.cpp:434] L3_b8_cbr1_relu <- L3_b8_cbr1_bn_top
I0821 08:26:51.521936 32487 net.cpp:395] L3_b8_cbr1_relu -> L3_b8_cbr1_bn_top (in-place)
I0821 08:26:51.521947 32487 net.cpp:150] Setting up L3_b8_cbr1_relu
I0821 08:26:51.521955 32487 net.cpp:157] Top shape: 125 64 8 8 (512000)
I0821 08:26:51.521960 32487 net.cpp:165] Memory required for data: 1417729500
I0821 08:26:51.521965 32487 layer_factory.hpp:77] Creating layer L3_b8_cbr2_conv
I0821 08:26:51.521978 32487 net.cpp:100] Creating Layer L3_b8_cbr2_conv
I0821 08:26:51.521984 32487 net.cpp:434] L3_b8_cbr2_conv <- L3_b8_cbr1_bn_top
I0821 08:26:51.521993 32487 net.cpp:408] L3_b8_cbr2_conv -> L3_b8_cbr2_conv_top
I0821 08:26:51.523006 32487 net.cpp:150] Setting up L3_b8_cbr2_conv
I0821 08:26:51.523021 32487 net.cpp:157] Top shape: 125 64 8 8 (512000)
I0821 08:26:51.523027 32487 net.cpp:165] Memory required for data: 1419777500
I0821 08:26:51.523036 32487 layer_factory.hpp:77] Creating layer L3_b8_cbr2_bn
I0821 08:26:51.523049 32487 net.cpp:100] Creating Layer L3_b8_cbr2_bn
I0821 08:26:51.523057 32487 net.cpp:434] L3_b8_cbr2_bn <- L3_b8_cbr2_conv_top
I0821 08:26:51.523068 32487 net.cpp:408] L3_b8_cbr2_bn -> L3_b8_cbr2_bn_top
I0821 08:26:51.523339 32487 net.cpp:150] Setting up L3_b8_cbr2_bn
I0821 08:26:51.523353 32487 net.cpp:157] Top shape: 125 64 8 8 (512000)
I0821 08:26:51.523358 32487 net.cpp:165] Memory required for data: 1421825500
I0821 08:26:51.523370 32487 layer_factory.hpp:77] Creating layer L3_b8_cbr2_scale
I0821 08:26:51.523378 32487 net.cpp:100] Creating Layer L3_b8_cbr2_scale
I0821 08:26:51.523385 32487 net.cpp:434] L3_b8_cbr2_scale <- L3_b8_cbr2_bn_top
I0821 08:26:51.523396 32487 net.cpp:395] L3_b8_cbr2_scale -> L3_b8_cbr2_bn_top (in-place)
I0821 08:26:51.523454 32487 layer_factory.hpp:77] Creating layer L3_b8_cbr2_scale
I0821 08:26:51.523612 32487 net.cpp:150] Setting up L3_b8_cbr2_scale
I0821 08:26:51.523624 32487 net.cpp:157] Top shape: 125 64 8 8 (512000)
I0821 08:26:51.523629 32487 net.cpp:165] Memory required for data: 1423873500
I0821 08:26:51.523638 32487 layer_factory.hpp:77] Creating layer L3_b8_sum_eltwise
I0821 08:26:51.523648 32487 net.cpp:100] Creating Layer L3_b8_sum_eltwise
I0821 08:26:51.523654 32487 net.cpp:434] L3_b8_sum_eltwise <- L3_b8_cbr2_bn_top
I0821 08:26:51.523663 32487 net.cpp:434] L3_b8_sum_eltwise <- L3_b7_sum_eltwise_top_L3_b7_relu_0_split_1
I0821 08:26:51.523672 32487 net.cpp:408] L3_b8_sum_eltwise -> L3_b8_sum_eltwise_top
I0821 08:26:51.523710 32487 net.cpp:150] Setting up L3_b8_sum_eltwise
I0821 08:26:51.523721 32487 net.cpp:157] Top shape: 125 64 8 8 (512000)
I0821 08:26:51.523726 32487 net.cpp:165] Memory required for data: 1425921500
I0821 08:26:51.523731 32487 layer_factory.hpp:77] Creating layer L3_b8_relu
I0821 08:26:51.523739 32487 net.cpp:100] Creating Layer L3_b8_relu
I0821 08:26:51.523746 32487 net.cpp:434] L3_b8_relu <- L3_b8_sum_eltwise_top
I0821 08:26:51.523753 32487 net.cpp:395] L3_b8_relu -> L3_b8_sum_eltwise_top (in-place)
I0821 08:26:51.523766 32487 net.cpp:150] Setting up L3_b8_relu
I0821 08:26:51.523774 32487 net.cpp:157] Top shape: 125 64 8 8 (512000)
I0821 08:26:51.523778 32487 net.cpp:165] Memory required for data: 1427969500
I0821 08:26:51.523783 32487 layer_factory.hpp:77] Creating layer L3_b8_sum_eltwise_top_L3_b8_relu_0_split
I0821 08:26:51.523797 32487 net.cpp:100] Creating Layer L3_b8_sum_eltwise_top_L3_b8_relu_0_split
I0821 08:26:51.523803 32487 net.cpp:434] L3_b8_sum_eltwise_top_L3_b8_relu_0_split <- L3_b8_sum_eltwise_top
I0821 08:26:51.523811 32487 net.cpp:408] L3_b8_sum_eltwise_top_L3_b8_relu_0_split -> L3_b8_sum_eltwise_top_L3_b8_relu_0_split_0
I0821 08:26:51.523821 32487 net.cpp:408] L3_b8_sum_eltwise_top_L3_b8_relu_0_split -> L3_b8_sum_eltwise_top_L3_b8_relu_0_split_1
I0821 08:26:51.523874 32487 net.cpp:150] Setting up L3_b8_sum_eltwise_top_L3_b8_relu_0_split
I0821 08:26:51.523885 32487 net.cpp:157] Top shape: 125 64 8 8 (512000)
I0821 08:26:51.523892 32487 net.cpp:157] Top shape: 125 64 8 8 (512000)
I0821 08:26:51.523897 32487 net.cpp:165] Memory required for data: 1432065500
I0821 08:26:51.523902 32487 layer_factory.hpp:77] Creating layer L3_b9_cbr1_conv
I0821 08:26:51.523913 32487 net.cpp:100] Creating Layer L3_b9_cbr1_conv
I0821 08:26:51.523921 32487 net.cpp:434] L3_b9_cbr1_conv <- L3_b8_sum_eltwise_top_L3_b8_relu_0_split_0
I0821 08:26:51.523932 32487 net.cpp:408] L3_b9_cbr1_conv -> L3_b9_cbr1_conv_top
I0821 08:26:51.525919 32487 net.cpp:150] Setting up L3_b9_cbr1_conv
I0821 08:26:51.525938 32487 net.cpp:157] Top shape: 125 64 8 8 (512000)
I0821 08:26:51.525943 32487 net.cpp:165] Memory required for data: 1434113500
I0821 08:26:51.525952 32487 layer_factory.hpp:77] Creating layer L3_b9_cbr1_bn
I0821 08:26:51.525964 32487 net.cpp:100] Creating Layer L3_b9_cbr1_bn
I0821 08:26:51.525974 32487 net.cpp:434] L3_b9_cbr1_bn <- L3_b9_cbr1_conv_top
I0821 08:26:51.525982 32487 net.cpp:408] L3_b9_cbr1_bn -> L3_b9_cbr1_bn_top
I0821 08:26:51.526247 32487 net.cpp:150] Setting up L3_b9_cbr1_bn
I0821 08:26:51.526266 32487 net.cpp:157] Top shape: 125 64 8 8 (512000)
I0821 08:26:51.526271 32487 net.cpp:165] Memory required for data: 1436161500
I0821 08:26:51.526283 32487 layer_factory.hpp:77] Creating layer L3_b9_cbr1_scale
I0821 08:26:51.526293 32487 net.cpp:100] Creating Layer L3_b9_cbr1_scale
I0821 08:26:51.526299 32487 net.cpp:434] L3_b9_cbr1_scale <- L3_b9_cbr1_bn_top
I0821 08:26:51.526310 32487 net.cpp:395] L3_b9_cbr1_scale -> L3_b9_cbr1_bn_top (in-place)
I0821 08:26:51.526371 32487 layer_factory.hpp:77] Creating layer L3_b9_cbr1_scale
I0821 08:26:51.526532 32487 net.cpp:150] Setting up L3_b9_cbr1_scale
I0821 08:26:51.526546 32487 net.cpp:157] Top shape: 125 64 8 8 (512000)
I0821 08:26:51.526551 32487 net.cpp:165] Memory required for data: 1438209500
I0821 08:26:51.526561 32487 layer_factory.hpp:77] Creating layer L3_b9_cbr1_relu
I0821 08:26:51.526571 32487 net.cpp:100] Creating Layer L3_b9_cbr1_relu
I0821 08:26:51.526578 32487 net.cpp:434] L3_b9_cbr1_relu <- L3_b9_cbr1_bn_top
I0821 08:26:51.526587 32487 net.cpp:395] L3_b9_cbr1_relu -> L3_b9_cbr1_bn_top (in-place)
I0821 08:26:51.526597 32487 net.cpp:150] Setting up L3_b9_cbr1_relu
I0821 08:26:51.526603 32487 net.cpp:157] Top shape: 125 64 8 8 (512000)
I0821 08:26:51.526608 32487 net.cpp:165] Memory required for data: 1440257500
I0821 08:26:51.526613 32487 layer_factory.hpp:77] Creating layer L3_b9_cbr2_conv
I0821 08:26:51.526628 32487 net.cpp:100] Creating Layer L3_b9_cbr2_conv
I0821 08:26:51.526634 32487 net.cpp:434] L3_b9_cbr2_conv <- L3_b9_cbr1_bn_top
I0821 08:26:51.526648 32487 net.cpp:408] L3_b9_cbr2_conv -> L3_b9_cbr2_conv_top
I0821 08:26:51.527674 32487 net.cpp:150] Setting up L3_b9_cbr2_conv
I0821 08:26:51.527689 32487 net.cpp:157] Top shape: 125 64 8 8 (512000)
I0821 08:26:51.527694 32487 net.cpp:165] Memory required for data: 1442305500
I0821 08:26:51.527704 32487 layer_factory.hpp:77] Creating layer L3_b9_cbr2_bn
I0821 08:26:51.527714 32487 net.cpp:100] Creating Layer L3_b9_cbr2_bn
I0821 08:26:51.527719 32487 net.cpp:434] L3_b9_cbr2_bn <- L3_b9_cbr2_conv_top
I0821 08:26:51.527731 32487 net.cpp:408] L3_b9_cbr2_bn -> L3_b9_cbr2_bn_top
I0821 08:26:51.528000 32487 net.cpp:150] Setting up L3_b9_cbr2_bn
I0821 08:26:51.528017 32487 net.cpp:157] Top shape: 125 64 8 8 (512000)
I0821 08:26:51.528023 32487 net.cpp:165] Memory required for data: 1444353500
I0821 08:26:51.528040 32487 layer_factory.hpp:77] Creating layer L3_b9_cbr2_scale
I0821 08:26:51.528050 32487 net.cpp:100] Creating Layer L3_b9_cbr2_scale
I0821 08:26:51.528057 32487 net.cpp:434] L3_b9_cbr2_scale <- L3_b9_cbr2_bn_top
I0821 08:26:51.528065 32487 net.cpp:395] L3_b9_cbr2_scale -> L3_b9_cbr2_bn_top (in-place)
I0821 08:26:51.528125 32487 layer_factory.hpp:77] Creating layer L3_b9_cbr2_scale
I0821 08:26:51.528291 32487 net.cpp:150] Setting up L3_b9_cbr2_scale
I0821 08:26:51.528306 32487 net.cpp:157] Top shape: 125 64 8 8 (512000)
I0821 08:26:51.528311 32487 net.cpp:165] Memory required for data: 1446401500
I0821 08:26:51.528321 32487 layer_factory.hpp:77] Creating layer L3_b9_sum_eltwise
I0821 08:26:51.528332 32487 net.cpp:100] Creating Layer L3_b9_sum_eltwise
I0821 08:26:51.528339 32487 net.cpp:434] L3_b9_sum_eltwise <- L3_b9_cbr2_bn_top
I0821 08:26:51.528347 32487 net.cpp:434] L3_b9_sum_eltwise <- L3_b8_sum_eltwise_top_L3_b8_relu_0_split_1
I0821 08:26:51.528355 32487 net.cpp:408] L3_b9_sum_eltwise -> L3_b9_sum_eltwise_top
I0821 08:26:51.528391 32487 net.cpp:150] Setting up L3_b9_sum_eltwise
I0821 08:26:51.528404 32487 net.cpp:157] Top shape: 125 64 8 8 (512000)
I0821 08:26:51.528409 32487 net.cpp:165] Memory required for data: 1448449500
I0821 08:26:51.528414 32487 layer_factory.hpp:77] Creating layer L3_b9_relu
I0821 08:26:51.528422 32487 net.cpp:100] Creating Layer L3_b9_relu
I0821 08:26:51.528429 32487 net.cpp:434] L3_b9_relu <- L3_b9_sum_eltwise_top
I0821 08:26:51.528436 32487 net.cpp:395] L3_b9_relu -> L3_b9_sum_eltwise_top (in-place)
I0821 08:26:51.528445 32487 net.cpp:150] Setting up L3_b9_relu
I0821 08:26:51.528453 32487 net.cpp:157] Top shape: 125 64 8 8 (512000)
I0821 08:26:51.528457 32487 net.cpp:165] Memory required for data: 1450497500
I0821 08:26:51.528462 32487 layer_factory.hpp:77] Creating layer post_pool
I0821 08:26:51.528470 32487 net.cpp:100] Creating Layer post_pool
I0821 08:26:51.528476 32487 net.cpp:434] post_pool <- L3_b9_sum_eltwise_top
I0821 08:26:51.528487 32487 net.cpp:408] post_pool -> post_pool
I0821 08:26:51.528523 32487 net.cpp:150] Setting up post_pool
I0821 08:26:51.528535 32487 net.cpp:157] Top shape: 125 64 1 1 (8000)
I0821 08:26:51.528540 32487 net.cpp:165] Memory required for data: 1450529500
I0821 08:26:51.528545 32487 layer_factory.hpp:77] Creating layer post_FC
I0821 08:26:51.528640 32487 net.cpp:100] Creating Layer post_FC
I0821 08:26:51.528653 32487 net.cpp:434] post_FC <- post_pool
I0821 08:26:51.528669 32487 net.cpp:408] post_FC -> post_FC_top
I0821 08:26:51.528936 32487 net.cpp:150] Setting up post_FC
I0821 08:26:51.528954 32487 net.cpp:157] Top shape: 125 10 (1250)
I0821 08:26:51.528959 32487 net.cpp:165] Memory required for data: 1450534500
I0821 08:26:51.528969 32487 layer_factory.hpp:77] Creating layer post_FC_top_post_FC_0_split
I0821 08:26:51.528980 32487 net.cpp:100] Creating Layer post_FC_top_post_FC_0_split
I0821 08:26:51.528986 32487 net.cpp:434] post_FC_top_post_FC_0_split <- post_FC_top
I0821 08:26:51.528995 32487 net.cpp:408] post_FC_top_post_FC_0_split -> post_FC_top_post_FC_0_split_0
I0821 08:26:51.529006 32487 net.cpp:408] post_FC_top_post_FC_0_split -> post_FC_top_post_FC_0_split_1
I0821 08:26:51.529058 32487 net.cpp:150] Setting up post_FC_top_post_FC_0_split
I0821 08:26:51.529072 32487 net.cpp:157] Top shape: 125 10 (1250)
I0821 08:26:51.529078 32487 net.cpp:157] Top shape: 125 10 (1250)
I0821 08:26:51.529083 32487 net.cpp:165] Memory required for data: 1450544500
I0821 08:26:51.529088 32487 layer_factory.hpp:77] Creating layer accuracy
I0821 08:26:51.529135 32487 net.cpp:100] Creating Layer accuracy
I0821 08:26:51.529148 32487 net.cpp:434] accuracy <- post_FC_top_post_FC_0_split_0
I0821 08:26:51.529156 32487 net.cpp:434] accuracy <- label_dataLayer_1_split_0
I0821 08:26:51.529165 32487 net.cpp:408] accuracy -> accuracy
…
