…
I0817 16:29:01.688292 17472 net.cpp:322] The NetState phase (0) differed from the phase (1) specified by a rule in layer L3_b9_cbr2_bn
I0817 16:29:01.690037 17472 net.cpp:58] Initializing net from parameters: 
name: "Cifar-Resnet"
state {
  phase: TRAIN
  level: 0
  stage: ""
}
layer {
  name: "dataLayer"
  type: "Data"
  top: "data_top"
  top: "label"
  include {
    phase: TRAIN
  }
  transform_param {
    mirror: true
    crop_size: 32
    mean_file: "examples/cifar10/mean.binaryproto"
  }
  data_param {
    source: "examples/cifar10/cifar10_train_lmdb"
    batch_size: 125
    backend: LMDB
  }
  image_data_param {
    shuffle: true
  }
}
layer {
  name: "pre_conv"
  type: "Convolution"
  bottom: "data_top"
  top: "pre_conv_top"
  param {
    lr_mult: 1
    decay_mult: 1
  }
  param {
    lr_mult: 2
    decay_mult: 0
  }
  convolution_param {
    num_output: 16
    pad: 1
    kernel_size: 3
    stride: 1
    weight_filler {
      type: "msra"
    }
    bias_filler {
      type: "constant"
    }
  }
}
layer {
  name: "pre_bn"
  type: "BatchNorm"
  bottom: "pre_conv_top"
  top: "pre_bn_top"
  include {
    phase: TRAIN
  }
  batch_norm_param {
    use_global_stats: false
    moving_average_fraction: 0.999
  }
}
layer {
  name: "pre_scale"
  type: "Scale"
  bottom: "pre_bn_top"
  top: "pre_bn_top"
  scale_param {
    bias_term: true
  }
}
layer {
  name: "pre_relu"
  type: "ReLU"
  bottom: "pre_bn_top"
  top: "pre_bn_top"
}
layer {
  name: "L1_b1_cbr1_conv"
  type: "Convolution"
  bottom: "pre_bn_top"
  top: "L1_b1_cbr1_conv_top"
  param {
    lr_mult: 1
    decay_mult: 1
  }
  param {
    lr_mult: 2
    decay_mult: 0
  }
  convolution_param {
    num_output: 16
    pad: 1
    kernel_size: 3
    stride: 1
    weight_filler {
      type: "msra"
    }
    bias_filler {
      type: "constant"
    }
  }
}
layer {
  name: "L1_b1_cbr1_bn"
  type: "BatchNorm"
  bottom: "L1_b1_cbr1_conv_top"
  top: "L1_b1_cbr1_bn_top"
  include {
    phase: TRAIN
  }
  batch_norm_param {
    use_global_stats: false
    moving_average_fraction: 0.999
  }
}
layer {
  name: "L1_b1_cbr1_scale"
  type: "Scale"
  bottom: "L1_b1_cbr1_bn_top"
  top: "L1_b1_cbr1_bn_top"
  scale_param {
    bias_term: true
  }
}
layer {
  name: "L1_b1_cbr1_relu"
  type: "ReLU"
  bottom: "L1_b1_cbr1_bn_top"
  top: "L1_b1_cbr1_bn_top"
}
layer {
  name: "L1_b1_cbr2_conv"
  type: "Convolution"
  bottom: "L1_b1_cbr1_bn_top"
  top: "L1_b1_cbr2_conv_top"
  param {
    lr_mult: 1
    decay_mult: 1
  }
  param {
    lr_mult: 2
    decay_mult: 0
  }
  convolution_param {
    num_output: 16
    pad: 1
    kernel_size: 3
    stride: 1
    weight_filler {
      type: "msra"
    }
    bias_filler {
      type: "constant"
    }
  }
}
layer {
  name: "L1_b1_cbr2_bn"
  type: "BatchNorm"
  bottom: "L1_b1_cbr2_conv_top"
  top: "L1_b1_cbr2_bn_top"
  include {
    phase: TRAIN
  }
  batch_norm_param {
    use_global_stats: false
    moving_average_fraction: 0.999
  }
}
layer {
  name: "L1_b1_cbr2_scale"
  type: "Scale"
  bottom: "L1_b1_cbr2_bn_top"
  top: "L1_b1_cbr2_bn_top"
  scale_param {
    bias_term: true
  }
}
layer {
  name: "L1_b1_sum_eltwise"
  type: "Eltwise"
  bottom: "L1_b1_cbr2_bn_top"
  bottom: "pre_bn_top"
  top: "L1_b1_sum_eltwise_top"
  eltwise_param {
    operation: SUM
  }
}
layer {
  name: "L1_b1_relu"
  type: "ReLU"
  bottom: "L1_b1_sum_eltwise_top"
  top: "L1_b1_sum_eltwise_top"
}
layer {
  name: "L1_b2_cbr1_conv"
  type: "Convolution"
  bottom: "L1_b1_sum_eltwise_top"
  top: "L1_b2_cbr1_conv_top"
  param {
    lr_mult: 1
    decay_mult: 1
  }
  param {
    lr_mult: 2
    decay_mult: 0
  }
  convolution_param {
    num_output: 16
    pad: 1
    kernel_size: 3
    stride: 1
    weight_filler {
      type: "msra"
    }
    bias_filler {
      type: "constant"
    }
  }
}
layer {
  name: "L1_b2_cbr1_bn"
  type: "BatchNorm"
  bottom: "L1_b2_cbr1_conv_top"
  top: "L1_b2_cbr1_bn_top"
  include {
    phase: TRAIN
  }
  batch_norm_param {
    use_global_stats: false
    moving_average_fraction: 0.999
  }
}
layer {
  name: "L1_b2_cbr1_scale"
  type: "Scale"
  bottom: "L1_b2_cbr1_bn_top"
  top: "L1_b2_cbr1_bn_top"
  scale_param {
    bias_term: true
  }
}
layer {
  name: "L1_b2_cbr1_relu"
  type: "ReLU"
  bottom: "L1_b2_cbr1_bn_top"
  top: "L1_b2_cbr1_bn_top"
}
layer {
  name: "L1_b2_cbr2_conv"
  type: "Convolution"
  bottom: "L1_b2_cbr1_bn_top"
  top: "L1_b2_cbr2_conv_top"
  param {
    lr_mult: 1
    decay_mult: 1
  }
  param {
    lr_mult: 2
    decay_mult: 0
  }
  convolution_param {
    num_output: 16
    pad: 1
    kernel_size: 3
    stride: 1
    weight_filler {
      type: "msra"
    }
    bias_filler {
      type: "constant"
    }
  }
}
layer {
  name: "L1_b2_cbr2_bn"
  type: "BatchNorm"
  bottom: "L1_b2_cbr2_conv_top"
  top: "L1_b2_cbr2_bn_top"
  include {
    phase: TRAIN
  }
  batch_norm_param {
    use_global_stats: false
    moving_average_fraction: 0.999
  }
}
layer {
  name: "L1_b2_cbr2_scale"
  type: "Scale"
  bottom: "L1_b2_cbr2_bn_top"
  top: "L1_b2_cbr2_bn_top"
  scale_param {
    bias_term: true
  }
}
layer {
  name: "L1_b2_sum_eltwise"
  type: "Eltwise"
  bottom: "L1_b2_cbr2_bn_top"
  bottom: "L1_b1_sum_eltwise_top"
  top: "L1_b2_sum_eltwise_top"
  eltwise_param {
    operation: SUM
  }
}
layer {
  name: "L1_b2_relu"
  type: "ReLU"
  bottom: "L1_b2_sum_eltwise_top"
  top: "L1_b2_sum_eltwise_top"
}
layer {
  name: "L1_b3_cbr1_conv"
  type: "Convolution"
  bottom: "L1_b2_sum_eltwise_top"
  top: "L1_b3_cbr1_conv_top"
  param {
    lr_mult: 1
    decay_mult: 1
  }
  param {
    lr_mult: 2
    decay_mult: 0
  }
  convolution_param {
    num_output: 16
    pad: 1
    kernel_size: 3
    stride: 1
    weight_filler {
      type: "msra"
    }
    bias_filler {
      type: "constant"
    }
  }
}
layer {
  name: "L1_b3_cbr1_bn"
  type: "BatchNorm"
  bottom: "L1_b3_cbr1_conv_top"
  top: "L1_b3_cbr1_bn_top"
  include {
    phase: TRAIN
  }
  batch_norm_param {
    use_global_stats: false
    moving_average_fraction: 0.999
  }
}
layer {
  name: "L1_b3_cbr1_scale"
  type: "Scale"
  bottom: "L1_b3_cbr1_bn_top"
  top: "L1_b3_cbr1_bn_top"
  scale_param {
    bias_term: true
  }
}
layer {
  name: "L1_b3_cbr1_relu"
  type: "ReLU"
  bottom: "L1_b3_cbr1_bn_top"
  top: "L1_b3_cbr1_bn_top"
}
layer {
  name: "L1_b3_cbr2_conv"
  type: "Convolution"
  bottom: "L1_b3_cbr1_bn_top"
  top: "L1_b3_cbr2_conv_top"
  param {
    lr_mult: 1
    decay_mult: 1
  }
  param {
    lr_mult: 2
    decay_mult: 0
  }
  convolution_param {
    num_output: 16
    pad: 1
    kernel_size: 3
    stride: 1
    weight_filler {
      type: "msra"
    }
    bias_filler {
      type: "constant"
    }
  }
}
layer {
  name: "L1_b3_cbr2_bn"
  type: "BatchNorm"
  bottom: "L1_b3_cbr2_conv_top"
  top: "L1_b3_cbr2_bn_top"
  include {
    phase: TRAIN
  }
  batch_norm_param {
    use_global_stats: false
    moving_average_fraction: 0.999
  }
}
layer {
  name: "L1_b3_cbr2_scale"
  type: "Scale"
  bottom: "L1_b3_cbr2_bn_top"
  top: "L1_b3_cbr2_bn_top"
  scale_param {
    bias_term: true
  }
}
layer {
  name: "L1_b3_sum_eltwise"
  type: "Eltwise"
  bottom: "L1_b3_cbr2_bn_top"
  bottom: "L1_b2_sum_eltwise_top"
  top: "L1_b3_sum_eltwise_top"
  eltwise_param {
    operation: SUM
  }
}
layer {
  name: "L1_b3_relu"
  type: "ReLU"
  bottom: "L1_b3_sum_eltwise_top"
  top: "L1_b3_sum_eltwise_top"
}
layer {
  name: "L1_b4_cbr1_conv"
  type: "Convolution"
  bottom: "L1_b3_sum_eltwise_top"
  top: "L1_b4_cbr1_conv_top"
  param {
    lr_mult: 1
    decay_mult: 1
  }
  param {
    lr_mult: 2
    decay_mult: 0
  }
  convolution_param {
    num_output: 16
    pad: 1
    kernel_size: 3
    stride: 1
    weight_filler {
      type: "msra"
    }
    bias_filler {
      type: "constant"
    }
  }
}
layer {
  name: "L1_b4_cbr1_bn"
  type: "BatchNorm"
  bottom: "L1_b4_cbr1_conv_top"
  top: "L1_b4_cbr1_bn_top"
  include {
    phase: TRAIN
  }
  batch_norm_param {
    use_global_stats: false
    moving_average_fraction: 0.999
  }
}
layer {
  name: "L1_b4_cbr1_scale"
  type: "Scale"
  bottom: "L1_b4_cbr1_bn_top"
  top: "L1_b4_cbr1_bn_top"
  scale_param {
    bias_term: true
  }
}
layer {
  name: "L1_b4_cbr1_relu"
  type: "ReLU"
  bottom: "L1_b4_cbr1_bn_top"
  top: "L1_b4_cbr1_bn_top"
}
layer {
  name: "L1_b4_cbr2_conv"
  type: "Convolution"
  bottom: "L1_b4_cbr1_bn_top"
  top: "L1_b4_cbr2_conv_top"
  param {
    lr_mult: 1
    decay_mult: 1
  }
  param {
    lr_mult: 2
    decay_mult: 0
  }
  convolution_param {
    num_output: 16
    pad: 1
    kernel_size: 3
    stride: 1
    weight_filler {
      type: "msra"
    }
    bias_filler {
      type: "constant"
    }
  }
}
layer {
  name: "L1_b4_cbr2_bn"
  type: "BatchNorm"
  bottom: "L1_b4_cbr2_conv_top"
  top: "L1_b4_cbr2_bn_top"
  include {
    phase: TRAIN
  }
  batch_norm_param {
    use_global_stats: false
    moving_average_fraction: 0.999
  }
}
layer {
  name: "L1_b4_cbr2_scale"
  type: "Scale"
  bottom: "L1_b4_cbr2_bn_top"
  top: "L1_b4_cbr2_bn_top"
  scale_param {
    bias_term: true
  }
}
layer {
  name: "L1_b4_sum_eltwise"
  type: "Eltwise"
  bottom: "L1_b4_cbr2_bn_top"
  bottom: "L1_b3_sum_eltwise_top"
  top: "L1_b4_sum_eltwise_top"
  eltwise_param {
    operation: SUM
  }
}
layer {
  name: "L1_b4_relu"
  type: "ReLU"
  bottom: "L1_b4_sum_eltwise_top"
  top: "L1_b4_sum_eltwise_top"
}
layer {
  name: "L1_b5_cbr1_conv"
  type: "Convolution"
  bottom: "L1_b4_sum_eltwise_top"
  top: "L1_b5_cbr1_conv_top"
  param {
    lr_mult: 1
    decay_mult: 1
  }
  param {
    lr_mult: 2
    decay_mult: 0
  }
  convolution_param {
    num_output: 16
    pad: 1
    kernel_size: 3
    stride: 1
    weight_filler {
      type: "msra"
    }
    bias_filler {
      type: "constant"
    }
  }
}
layer {
  name: "L1_b5_cbr1_bn"
  type: "BatchNorm"
  bottom: "L1_b5_cbr1_conv_top"
  top: "L1_b5_cbr1_bn_top"
  include {
    phase: TRAIN
  }
  batch_norm_param {
    use_global_stats: false
    moving_average_fraction: 0.999
  }
}
layer {
  name: "L1_b5_cbr1_scale"
  type: "Scale"
  bottom: "L1_b5_cbr1_bn_top"
  top: "L1_b5_cbr1_bn_top"
  scale_param {
    bias_term: true
  }
}
layer {
  name: "L1_b5_cbr1_relu"
  type: "ReLU"
  bottom: "L1_b5_cbr1_bn_top"
  top: "L1_b5_cbr1_bn_top"
}
layer {
  name: "L1_b5_cbr2_conv"
  type: "Convolution"
  bottom: "L1_b5_cbr1_bn_top"
  top: "L1_b5_cbr2_conv_top"
  param {
    lr_mult: 1
    decay_mult: 1
  }
  param {
    lr_mult: 2
    decay_mult: 0
  }
  convolution_param {
    num_output: 16
    pad: 1
    kernel_size: 3
    stride: 1
    weight_filler {
      type: "msra"
    }
    bias_filler {
      type: "constant"
    }
  }
}
layer {
  name: "L1_b5_cbr2_bn"
  type: "BatchNorm"
  bottom: "L1_b5_cbr2_conv_top"
  top: "L1_b5_cbr2_bn_top"
  include {
    phase: TRAIN
  }
  batch_norm_param {
    use_global_stats: false
    moving_average_fraction: 0.999
  }
}
layer {
  name: "L1_b5_cbr2_scale"
  type: "Scale"
  bottom: "L1_b5_cbr2_bn_top"
  top: "L1_b5_cbr2_bn_top"
  scale_param {
    bias_term: true
  }
}
layer {
  name: "L1_b5_sum_eltwise"
  type: "Eltwise"
  bottom: "L1_b5_cbr2_bn_top"
  bottom: "L1_b4_sum_eltwise_top"
  top: "L1_b5_sum_eltwise_top"
  eltwise_param {
    operation: SUM
  }
}
layer {
  name: "L1_b5_relu"
  type: "ReLU"
  bottom: "L1_b5_sum_eltwise_top"
  top: "L1_b5_sum_eltwise_top"
}
layer {
  name: "L1_b6_cbr1_conv"
  type: "Convolution"
  bottom: "L1_b5_sum_eltwise_top"
  top: "L1_b6_cbr1_conv_top"
  param {
    lr_mult: 1
    decay_mult: 1
  }
  param {
    lr_mult: 2
    decay_mult: 0
  }
  convolution_param {
    num_output: 16
    pad: 1
    kernel_size: 3
    stride: 1
    weight_filler {
      type: "msra"
    }
    bias_filler {
      type: "constant"
    }
  }
}
layer {
  name: "L1_b6_cbr1_bn"
  type: "BatchNorm"
  bottom: "L1_b6_cbr1_conv_top"
  top: "L1_b6_cbr1_bn_top"
  include {
    phase: TRAIN
  }
  batch_norm_param {
    use_global_stats: false
    moving_average_fraction: 0.999
  }
}
layer {
  name: "L1_b6_cbr1_scale"
  type: "Scale"
  bottom: "L1_b6_cbr1_bn_top"
  top: "L1_b6_cbr1_bn_top"
  scale_param {
    bias_term: true
  }
}
layer {
  name: "L1_b6_cbr1_relu"
  type: "ReLU"
  bottom: "L1_b6_cbr1_bn_top"
  top: "L1_b6_cbr1_bn_top"
}
layer {
  name: "L1_b6_cbr2_conv"
  type: "Convolution"
  bottom: "L1_b6_cbr1_bn_top"
  top: "L1_b6_cbr2_conv_top"
  param {
    lr_mult: 1
    decay_mult: 1
  }
  param {
    lr_mult: 2
    decay_mult: 0
  }
  convolution_param {
    num_output: 16
    pad: 1
    kernel_size: 3
    stride: 1
    weight_filler {
      type: "msra"
    }
    bias_filler {
      type: "constant"
    }
  }
}
layer {
  name: "L1_b6_cbr2_bn"
  type: "BatchNorm"
  bottom: "L1_b6_cbr2_conv_top"
  top: "L1_b6_cbr2_bn_top"
  include {
    phase: TRAIN
  }
  batch_norm_param {
    use_global_stats: false
    moving_average_fraction: 0.999
  }
}
layer {
  name: "L1_b6_cbr2_scale"
  type: "Scale"
  bottom: "L1_b6_cbr2_bn_top"
  top: "L1_b6_cbr2_bn_top"
  scale_param {
    bias_term: true
  }
}
layer {
  name: "L1_b6_sum_eltwise"
  type: "Eltwise"
  bottom: "L1_b6_cbr2_bn_top"
  bottom: "L1_b5_sum_eltwise_top"
  top: "L1_b6_sum_eltwise_top"
  eltwise_param {
    operation: SUM
  }
}
layer {
  name: "L1_b6_relu"
  type: "ReLU"
  bottom: "L1_b6_sum_eltwise_top"
  top: "L1_b6_sum_eltwise_top"
}
layer {
  name: "L1_b7_cbr1_conv"
  type: "Convolution"
  bottom: "L1_b6_sum_eltwise_top"
  top: "L1_b7_cbr1_conv_top"
  param {
    lr_mult: 1
    decay_mult: 1
  }
  param {
    lr_mult: 2
    decay_mult: 0
  }
  convolution_param {
    num_output: 16
    pad: 1
    kernel_size: 3
    stride: 1
    weight_filler {
      type: "msra"
    }
    bias_filler {
      type: "constant"
    }
  }
}
layer {
  name: "L1_b7_cbr1_bn"
  type: "BatchNorm"
  bottom: "L1_b7_cbr1_conv_top"
  top: "L1_b7_cbr1_bn_top"
  include {
    phase: TRAIN
  }
  batch_norm_param {
    use_global_stats: false
    moving_average_fraction: 0.999
  }
}
layer {
  name: "L1_b7_cbr1_scale"
  type: "Scale"
  bottom: "L1_b7_cbr1_bn_top"
  top: "L1_b7_cbr1_bn_top"
  scale_param {
    bias_term: true
  }
}
layer {
  name: "L1_b7_cbr1_relu"
  type: "ReLU"
  bottom: "L1_b7_cbr1_bn_top"
  top: "L1_b7_cbr1_bn_top"
}
layer {
  name: "L1_b7_cbr2_conv"
  type: "Convolution"
  bottom: "L1_b7_cbr1_bn_top"
  top: "L1_b7_cbr2_conv_top"
  param {
    lr_mult: 1
    decay_mult: 1
  }
  param {
    lr_mult: 2
    decay_mult: 0
  }
  convolution_param {
    num_output: 16
    pad: 1
    kernel_size: 3
    stride: 1
    weight_filler {
      type: "msra"
    }
    bias_filler {
      type: "constant"
    }
  }
}
layer {
  name: "L1_b7_cbr2_bn"
  type: "BatchNorm"
  bottom: "L1_b7_cbr2_conv_top"
  top: "L1_b7_cbr2_bn_top"
  include {
    phase: TRAIN
  }
  batch_norm_param {
    use_global_stats: false
    moving_average_fraction: 0.999
  }
}
layer {
  name: "L1_b7_cbr2_scale"
  type: "Scale"
  bottom: "L1_b7_cbr2_bn_top"
  top: "L1_b7_cbr2_bn_top"
  scale_param {
    bias_term: true
  }
}
layer {
  name: "L1_b7_sum_eltwise"
  type: "Eltwise"
  bottom: "L1_b7_cbr2_bn_top"
  bottom: "L1_b6_sum_eltwise_top"
  top: "L1_b7_sum_eltwise_top"
  eltwise_param {
    operation: SUM
  }
}
layer {
  name: "L1_b7_relu"
  type: "ReLU"
  bottom: "L1_b7_sum_eltwise_top"
  top: "L1_b7_sum_eltwise_top"
}
layer {
  name: "L1_b8_cbr1_conv"
  type: "Convolution"
  bottom: "L1_b7_sum_eltwise_top"
  top: "L1_b8_cbr1_conv_top"
  param {
    lr_mult: 1
    decay_mult: 1
  }
  param {
    lr_mult: 2
    decay_mult: 0
  }
  convolution_param {
    num_output: 16
    pad: 1
    kernel_size: 3
    stride: 1
    weight_filler {
      type: "msra"
    }
    bias_filler {
      type: "constant"
    }
  }
}
layer {
  name: "L1_b8_cbr1_bn"
  type: "BatchNorm"
  bottom: "L1_b8_cbr1_conv_top"
  top: "L1_b8_cbr1_bn_top"
  include {
    phase: TRAIN
  }
  batch_norm_param {
    use_global_stats: false
    moving_average_fraction: 0.999
  }
}
layer {
  name: "L1_b8_cbr1_scale"
  type: "Scale"
  bottom: "L1_b8_cbr1_bn_top"
  top: "L1_b8_cbr1_bn_top"
  scale_param {
    bias_term: true
  }
}
layer {
  name: "L1_b8_cbr1_relu"
  type: "ReLU"
  bottom: "L1_b8_cbr1_bn_top"
  top: "L1_b8_cbr1_bn_top"
}
layer {
  name: "L1_b8_cbr2_conv"
  type: "Convolution"
  bottom: "L1_b8_cbr1_bn_top"
  top: "L1_b8_cbr2_conv_top"
  param {
    lr_mult: 1
    decay_mult: 1
  }
  param {
    lr_mult: 2
    decay_mult: 0
  }
  convolution_param {
    num_output: 16
    pad: 1
    kernel_size: 3
    stride: 1
    weight_filler {
      type: "msra"
    }
    bias_filler {
      type: "constant"
    }
  }
}
layer {
  name: "L1_b8_cbr2_bn"
  type: "BatchNorm"
  bottom: "L1_b8_cbr2_conv_top"
  top: "L1_b8_cbr2_bn_top"
  include {
    phase: TRAIN
  }
  batch_norm_param {
    use_global_stats: false
    moving_average_fraction: 0.999
  }
}
layer {
  name: "L1_b8_cbr2_scale"
  type: "Scale"
  bottom: "L1_b8_cbr2_bn_top"
  top: "L1_b8_cbr2_bn_top"
  scale_param {
    bias_term: true
  }
}
layer {
  name: "L1_b8_sum_eltwise"
  type: "Eltwise"
  bottom: "L1_b8_cbr2_bn_top"
  bottom: "L1_b7_sum_eltwise_top"
  top: "L1_b8_sum_eltwise_top"
  eltwise_param {
    operation: SUM
  }
}
layer {
  name: "L1_b8_relu"
  type: "ReLU"
  bottom: "L1_b8_sum_eltwise_top"
  top: "L1_b8_sum_eltwise_top"
}
layer {
  name: "L1_b9_cbr1_conv"
  type: "Convolution"
  bottom: "L1_b8_sum_eltwise_top"
  top: "L1_b9_cbr1_conv_top"
  param {
    lr_mult: 1
    decay_mult: 1
  }
  param {
    lr_mult: 2
    decay_mult: 0
  }
  convolution_param {
    num_output: 16
    pad: 1
    kernel_size: 3
    stride: 1
    weight_filler {
      type: "msra"
    }
    bias_filler {
      type: "constant"
    }
  }
}
layer {
  name: "L1_b9_cbr1_bn"
  type: "BatchNorm"
  bottom: "L1_b9_cbr1_conv_top"
  top: "L1_b9_cbr1_bn_top"
  include {
    phase: TRAIN
  }
  batch_norm_param {
    use_global_stats: false
    moving_average_fraction: 0.999
  }
}
layer {
  name: "L1_b9_cbr1_scale"
  type: "Scale"
  bottom: "L1_b9_cbr1_bn_top"
  top: "L1_b9_cbr1_bn_top"
  scale_param {
    bias_term: true
  }
}
layer {
  name: "L1_b9_cbr1_relu"
  type: "ReLU"
  bottom: "L1_b9_cbr1_bn_top"
  top: "L1_b9_cbr1_bn_top"
}
layer {
  name: "L1_b9_cbr2_conv"
  type: "Convolution"
  bottom: "L1_b9_cbr1_bn_top"
  top: "L1_b9_cbr2_conv_top"
  param {
    lr_mult: 1
    decay_mult: 1
  }
  param {
    lr_mult: 2
    decay_mult: 0
  }
  convolution_param {
    num_output: 16
    pad: 1
    kernel_size: 3
    stride: 1
    weight_filler {
      type: "msra"
    }
    bias_filler {
      type: "constant"
    }
  }
}
layer {
  name: "L1_b9_cbr2_bn"
  type: "BatchNorm"
  bottom: "L1_b9_cbr2_conv_top"
  top: "L1_b9_cbr2_bn_top"
  include {
    phase: TRAIN
  }
  batch_norm_param {
    use_global_stats: false
    moving_average_fraction: 0.999
  }
}
layer {
  name: "L1_b9_cbr2_scale"
  type: "Scale"
  bottom: "L1_b9_cbr2_bn_top"
  top: "L1_b9_cbr2_bn_top"
  scale_param {
    bias_term: true
  }
}
layer {
  name: "L1_b9_sum_eltwise"
  type: "Eltwise"
  bottom: "L1_b9_cbr2_bn_top"
  bottom: "L1_b8_sum_eltwise_top"
  top: "L1_b9_sum_eltwise_top"
  eltwise_param {
    operation: SUM
  }
}
layer {
  name: "L1_b9_relu"
  type: "ReLU"
  bottom: "L1_b9_sum_eltwise_top"
  top: "L1_b9_sum_eltwise_top"
}
layer {
  name: "L2_b1_cbr1_conv"
  type: "Convolution"
  bottom: "L1_b9_sum_eltwise_top"
  top: "L2_b1_cbr1_conv_top"
  param {
    lr_mult: 1
    decay_mult: 1
  }
  param {
    lr_mult: 2
    decay_mult: 0
  }
  convolution_param {
    num_output: 16
    pad: 1
    kernel_size: 3
    stride: 2
    weight_filler {
      type: "msra"
    }
    bias_filler {
      type: "constant"
    }
  }
}
layer {
  name: "L2_b1_cbr1_bn"
  type: "BatchNorm"
  bottom: "L2_b1_cbr1_conv_top"
  top: "L2_b1_cbr1_bn_top"
  include {
    phase: TRAIN
  }
  batch_norm_param {
    use_global_stats: false
    moving_average_fraction: 0.999
  }
}
layer {
  name: "L2_b1_cbr1_scale"
  type: "Scale"
  bottom: "L2_b1_cbr1_bn_top"
  top: "L2_b1_cbr1_bn_top"
  scale_param {
    bias_term: true
  }
}
layer {
  name: "L2_b1_cbr1_relu"
  type: "ReLU"
  bottom: "L2_b1_cbr1_bn_top"
  top: "L2_b1_cbr1_bn_top"
}
layer {
  name: "L2_b1_cbr2_conv"
  type: "Convolution"
  bottom: "L2_b1_cbr1_bn_top"
  top: "L2_b1_cbr2_conv_top"
  param {
    lr_mult: 1
    decay_mult: 1
  }
  param {
    lr_mult: 2
    decay_mult: 0
  }
  convolution_param {
    num_output: 16
    pad: 1
    kernel_size: 3
    stride: 1
    weight_filler {
      type: "msra"
    }
    bias_filler {
      type: "constant"
    }
  }
}
layer {
  name: "L2_b1_cbr2_bn"
  type: "BatchNorm"
  bottom: "L2_b1_cbr2_conv_top"
  top: "L2_b1_cbr2_bn_top"
  include {
    phase: TRAIN
  }
  batch_norm_param {
    use_global_stats: false
    moving_average_fraction: 0.999
  }
}
layer {
  name: "L2_b1_cbr2_scale"
  type: "Scale"
  bottom: "L2_b1_cbr2_bn_top"
  top: "L2_b1_cbr2_bn_top"
  scale_param {
    bias_term: true
  }
}
layer {
  name: "L2_b1_pool"
  type: "Pooling"
  bottom: "L1_b9_sum_eltwise_top"
  top: "L2_b1_pool"
  pooling_param {
    pool: AVE
    kernel_size: 3
    stride: 2
  }
}
layer {
  name: "L2_b1_sum_eltwise"
  type: "Eltwise"
  bottom: "L2_b1_cbr2_bn_top"
  bottom: "L2_b1_pool"
  top: "L2_b1_sum_eltwise_top"
  eltwise_param {
    operation: SUM
  }
}
layer {
  name: "L2_b1_relu"
  type: "ReLU"
  bottom: "L2_b1_sum_eltwise_top"
  top: "L2_b1_sum_eltwise_top"
}
layer {
  name: "L2_b1_zeros"
  type: "DummyData"
  top: "L2_b1_zeros"
  dummy_data_param {
    data_filler {
      type: "constant"
      value: 0
    }
    shape {
      dim: 125
      dim: 16
      dim: 16
      dim: 16
    }
  }
}
layer {
  name: "L2_b1_concat0"
  type: "Concat"
  bottom: "L2_b1_sum_eltwise_top"
  bottom: "L2_b1_zeros"
  top: "L2_b1_concat0"
  concat_param {
    axis: 1
  }
}
layer {
  name: "L2_b2_cbr1_conv"
  type: "Convolution"
  bottom: "L2_b1_concat0"
  top: "L2_b2_cbr1_conv_top"
  param {
    lr_mult: 1
    decay_mult: 1
  }
  param {
    lr_mult: 2
    decay_mult: 0
  }
  convolution_param {
    num_output: 32
    pad: 1
    kernel_size: 3
    stride: 1
    weight_filler {
      type: "msra"
    }
    bias_filler {
      type: "constant"
    }
  }
}
layer {
  name: "L2_b2_cbr1_bn"
  type: "BatchNorm"
  bottom: "L2_b2_cbr1_conv_top"
  top: "L2_b2_cbr1_bn_top"
  include {
    phase: TRAIN
  }
  batch_norm_param {
    use_global_stats: false
    moving_average_fraction: 0.999
  }
}
layer {
  name: "L2_b2_cbr1_scale"
  type: "Scale"
  bottom: "L2_b2_cbr1_bn_top"
  top: "L2_b2_cbr1_bn_top"
  scale_param {
    bias_term: true
  }
}
layer {
  name: "L2_b2_cbr1_relu"
  type: "ReLU"
  bottom: "L2_b2_cbr1_bn_top"
  top: "L2_b2_cbr1_bn_top"
}
layer {
  name: "L2_b2_cbr2_conv"
  type: "Convolution"
  bottom: "L2_b2_cbr1_bn_top"
  top: "L2_b2_cbr2_conv_top"
  param {
    lr_mult: 1
    decay_mult: 1
  }
  param {
    lr_mult: 2
    decay_mult: 0
  }
  convolution_param {
    num_output: 32
    pad: 1
    kernel_size: 3
    stride: 1
    weight_filler {
      type: "msra"
    }
    bias_filler {
      type: "constant"
    }
  }
}
layer {
  name: "L2_b2_cbr2_bn"
  type: "BatchNorm"
  bottom: "L2_b2_cbr2_conv_top"
  top: "L2_b2_cbr2_bn_top"
  include {
    phase: TRAIN
  }
  batch_norm_param {
    use_global_stats: false
    moving_average_fraction: 0.999
  }
}
layer {
  name: "L2_b2_cbr2_scale"
  type: "Scale"
  bottom: "L2_b2_cbr2_bn_top"
  top: "L2_b2_cbr2_bn_top"
  scale_param {
    bias_term: true
  }
}
layer {
  name: "L2_b2_sum_eltwise"
  type: "Eltwise"
  bottom: "L2_b2_cbr2_bn_top"
  bottom: "L2_b1_concat0"
  top: "L2_b2_sum_eltwise_top"
  eltwise_param {
    operation: SUM
  }
}
layer {
  name: "L2_b2_relu"
  type: "ReLU"
  bottom: "L2_b2_sum_eltwise_top"
  top: "L2_b2_sum_eltwise_top"
}
layer {
  name: "L2_b3_cbr1_conv"
  type: "Convolution"
  bottom: "L2_b2_sum_eltwise_top"
  top: "L2_b3_cbr1_conv_top"
  param {
    lr_mult: 1
    decay_mult: 1
  }
  param {
    lr_mult: 2
    decay_mult: 0
  }
  convolution_param {
    num_output: 32
    pad: 1
    kernel_size: 3
    stride: 1
    weight_filler {
      type: "msra"
    }
    bias_filler {
      type: "constant"
    }
  }
}
layer {
  name: "L2_b3_cbr1_bn"
  type: "BatchNorm"
  bottom: "L2_b3_cbr1_conv_top"
  top: "L2_b3_cbr1_bn_top"
  include {
    phase: TRAIN
  }
  batch_norm_param {
    use_global_stats: false
    moving_average_fraction: 0.999
  }
}
layer {
  name: "L2_b3_cbr1_scale"
  type: "Scale"
  bottom: "L2_b3_cbr1_bn_top"
  top: "L2_b3_cbr1_bn_top"
  scale_param {
    bias_term: true
  }
}
layer {
  name: "L2_b3_cbr1_relu"
  type: "ReLU"
  bottom: "L2_b3_cbr1_bn_top"
  top: "L2_b3_cbr1_bn_top"
}
layer {
  name: "L2_b3_cbr2_conv"
  type: "Convolution"
  bottom: "L2_b3_cbr1_bn_top"
  top: "L2_b3_cbr2_conv_top"
  param {
    lr_mult: 1
    decay_mult: 1
  }
  param {
    lr_mult: 2
    decay_mult: 0
  }
  convolution_param {
    num_output: 32
    pad: 1
    kernel_size: 3
    stride: 1
    weight_filler {
      type: "msra"
    }
    bias_filler {
      type: "constant"
    }
  }
}
layer {
  name: "L2_b3_cbr2_bn"
  type: "BatchNorm"
  bottom: "L2_b3_cbr2_conv_top"
  top: "L2_b3_cbr2_bn_top"
  include {
    phase: TRAIN
  }
  batch_norm_param {
    use_global_stats: false
    moving_average_fraction: 0.999
  }
}
layer {
  name: "L2_b3_cbr2_scale"
  type: "Scale"
  bottom: "L2_b3_cbr2_bn_top"
  top: "L2_b3_cbr2_bn_top"
  scale_param {
    bias_term: true
  }
}
layer {
  name: "L2_b3_sum_eltwise"
  type: "Eltwise"
  bottom: "L2_b3_cbr2_bn_top"
  bottom: "L2_b2_sum_eltwise_top"
  top: "L2_b3_sum_eltwise_top"
  eltwise_param {
    operation: SUM
  }
}
layer {
  name: "L2_b3_relu"
  type: "ReLU"
  bottom: "L2_b3_sum_eltwise_top"
  top: "L2_b3_sum_eltwise_top"
}
layer {
  name: "L2_b4_cbr1_conv"
  type: "Convolution"
  bottom: "L2_b3_sum_eltwise_top"
  top: "L2_b4_cbr1_conv_top"
  param {
    lr_mult: 1
    decay_mult: 1
  }
  param {
    lr_mult: 2
    decay_mult: 0
  }
  convolution_param {
    num_output: 32
    pad: 1
    kernel_size: 3
    stride: 1
    weight_filler {
      type: "msra"
    }
    bias_filler {
      type: "constant"
    }
  }
}
layer {
  name: "L2_b4_cbr1_bn"
  type: "BatchNorm"
  bottom: "L2_b4_cbr1_conv_top"
  top: "L2_b4_cbr1_bn_top"
  include {
    phase: TRAIN
  }
  batch_norm_param {
    use_global_stats: false
    moving_average_fraction: 0.999
  }
}
layer {
  name: "L2_b4_cbr1_scale"
  type: "Scale"
  bottom: "L2_b4_cbr1_bn_top"
  top: "L2_b4_cbr1_bn_top"
  scale_param {
    bias_term: true
  }
}
layer {
  name: "L2_b4_cbr1_relu"
  type: "ReLU"
  bottom: "L2_b4_cbr1_bn_top"
  top: "L2_b4_cbr1_bn_top"
}
layer {
  name: "L2_b4_cbr2_conv"
  type: "Convolution"
  bottom: "L2_b4_cbr1_bn_top"
  top: "L2_b4_cbr2_conv_top"
  param {
    lr_mult: 1
    decay_mult: 1
  }
  param {
    lr_mult: 2
    decay_mult: 0
  }
  convolution_param {
    num_output: 32
    pad: 1
    kernel_size: 3
    stride: 1
    weight_filler {
      type: "msra"
    }
    bias_filler {
      type: "constant"
    }
  }
}
layer {
  name: "L2_b4_cbr2_bn"
  type: "BatchNorm"
  bottom: "L2_b4_cbr2_conv_top"
  top: "L2_b4_cbr2_bn_top"
  include {
    phase: TRAIN
  }
  batch_norm_param {
    use_global_stats: false
    moving_average_fraction: 0.999
  }
}
layer {
  name: "L2_b4_cbr2_scale"
  type: "Scale"
  bottom: "L2_b4_cbr2_bn_top"
  top: "L2_b4_cbr2_bn_top"
  scale_param {
    bias_term: true
  }
}
layer {
  name: "L2_b4_sum_eltwise"
  type: "Eltwise"
  bottom: "L2_b4_cbr2_bn_top"
  bottom: "L2_b3_sum_eltwise_top"
  top: "L2_b4_sum_eltwise_top"
  eltwise_param {
    operation: SUM
  }
}
layer {
  name: "L2_b4_relu"
  type: "ReLU"
  bottom: "L2_b4_sum_eltwise_top"
  top: "L2_b4_sum_eltwise_top"
}
layer {
  name: "L2_b5_cbr1_conv"
  type: "Convolution"
  bottom: "L2_b4_sum_eltwise_top"
  top: "L2_b5_cbr1_conv_top"
  param {
    lr_mult: 1
    decay_mult: 1
  }
  param {
    lr_mult: 2
    decay_mult: 0
  }
  convolution_param {
    num_output: 32
    pad: 1
    kernel_size: 3
    stride: 1
    weight_filler {
      type: "msra"
    }
    bias_filler {
      type: "constant"
    }
  }
}
layer {
  name: "L2_b5_cbr1_bn"
  type: "BatchNorm"
  bottom: "L2_b5_cbr1_conv_top"
  top: "L2_b5_cbr1_bn_top"
  include {
    phase: TRAIN
  }
  batch_norm_param {
    use_global_stats: false
    moving_average_fraction: 0.999
  }
}
layer {
  name: "L2_b5_cbr1_scale"
  type: "Scale"
  bottom: "L2_b5_cbr1_bn_top"
  top: "L2_b5_cbr1_bn_top"
  scale_param {
    bias_term: true
  }
}
layer {
  name: "L2_b5_cbr1_relu"
  type: "ReLU"
  bottom: "L2_b5_cbr1_bn_top"
  top: "L2_b5_cbr1_bn_top"
}
layer {
  name: "L2_b5_cbr2_conv"
  type: "Convolution"
  bottom: "L2_b5_cbr1_bn_top"
  top: "L2_b5_cbr2_conv_top"
  param {
    lr_mult: 1
    decay_mult: 1
  }
  param {
    lr_mult: 2
    decay_mult: 0
  }
  convolution_param {
    num_output: 32
    pad: 1
    kernel_size: 3
    stride: 1
    weight_filler {
      type: "msra"
    }
    bias_filler {
      type: "constant"
    }
  }
}
layer {
  name: "L2_b5_cbr2_bn"
  type: "BatchNorm"
  bottom: "L2_b5_cbr2_conv_top"
  top: "L2_b5_cbr2_bn_top"
  include {
    phase: TRAIN
  }
  batch_norm_param {
    use_global_stats: false
    moving_average_fraction: 0.999
  }
}
layer {
  name: "L2_b5_cbr2_scale"
  type: "Scale"
  bottom: "L2_b5_cbr2_bn_top"
  top: "L2_b5_cbr2_bn_top"
  scale_param {
    bias_term: true
  }
}
layer {
  name: "L2_b5_sum_eltwise"
  type: "Eltwise"
  bottom: "L2_b5_cbr2_bn_top"
  bottom: "L2_b4_sum_eltwise_top"
  top: "L2_b5_sum_eltwise_top"
  eltwise_param {
    operation: SUM
  }
}
layer {
  name: "L2_b5_relu"
  type: "ReLU"
  bottom: "L2_b5_sum_eltwise_top"
  top: "L2_b5_sum_eltwise_top"
}
layer {
  name: "L2_b6_cbr1_conv"
  type: "Convolution"
  bottom: "L2_b5_sum_eltwise_top"
  top: "L2_b6_cbr1_conv_top"
  param {
    lr_mult: 1
    decay_mult: 1
  }
  param {
    lr_mult: 2
    decay_mult: 0
  }
  convolution_param {
    num_output: 32
    pad: 1
    kernel_size: 3
    stride: 1
    weight_filler {
      type: "msra"
    }
    bias_filler {
      type: "constant"
    }
  }
}
layer {
  name: "L2_b6_cbr1_bn"
  type: "BatchNorm"
  bottom: "L2_b6_cbr1_conv_top"
  top: "L2_b6_cbr1_bn_top"
  include {
    phase: TRAIN
  }
  batch_norm_param {
    use_global_stats: false
    moving_average_fraction: 0.999
I0817 16:29:01.692093 17472 layer_factory.hpp:77] Creating layer dataLayer
I0817 16:29:01.693295 17472 net.cpp:100] Creating Layer dataLayer
I0817 16:29:01.693369 17472 net.cpp:408] dataLayer -> data_top
I0817 16:29:01.693550 17472 net.cpp:408] dataLayer -> label
I0817 16:29:01.693665 17472 data_transformer.cpp:25] Loading mean file from: examples/cifar10/mean.binaryproto
I0817 16:29:01.703145 17477 db_lmdb.cpp:35] Opened lmdb examples/cifar10/cifar10_train_lmdb
I0817 16:29:01.726948 17472 data_layer.cpp:41] output data size: 125,3,32,32
I0817 16:29:01.734000 17472 net.cpp:150] Setting up dataLayer
I0817 16:29:01.734067 17472 net.cpp:157] Top shape: 125 3 32 32 (384000)
I0817 16:29:01.734081 17472 net.cpp:157] Top shape: 125 (125)
I0817 16:29:01.734086 17472 net.cpp:165] Memory required for data: 1536500
I0817 16:29:01.734103 17472 layer_factory.hpp:77] Creating layer label_dataLayer_1_split
I0817 16:29:01.734117 17472 net.cpp:100] Creating Layer label_dataLayer_1_split
I0817 16:29:01.734125 17472 net.cpp:434] label_dataLayer_1_split <- label
I0817 16:29:01.734146 17472 net.cpp:408] label_dataLayer_1_split -> label_dataLayer_1_split_0
I0817 16:29:01.734161 17472 net.cpp:408] label_dataLayer_1_split -> label_dataLayer_1_split_1
I0817 16:29:01.734285 17472 net.cpp:150] Setting up label_dataLayer_1_split
I0817 16:29:01.734302 17472 net.cpp:157] Top shape: 125 (125)
I0817 16:29:01.734308 17472 net.cpp:157] Top shape: 125 (125)
I0817 16:29:01.734313 17472 net.cpp:165] Memory required for data: 1537500
I0817 16:29:01.734319 17472 layer_factory.hpp:77] Creating layer pre_conv
I0817 16:29:01.734377 17472 net.cpp:100] Creating Layer pre_conv
I0817 16:29:01.734390 17472 net.cpp:434] pre_conv <- data_top
I0817 16:29:01.734402 17472 net.cpp:408] pre_conv -> pre_conv_top
I0817 16:29:01.736255 17472 net.cpp:150] Setting up pre_conv
I0817 16:29:01.736277 17472 net.cpp:157] Top shape: 125 16 32 32 (2048000)
I0817 16:29:01.736284 17472 net.cpp:165] Memory required for data: 9729500
I0817 16:29:01.736343 17472 layer_factory.hpp:77] Creating layer pre_bn
I0817 16:29:01.736407 17472 net.cpp:100] Creating Layer pre_bn
I0817 16:29:01.736418 17472 net.cpp:434] pre_bn <- pre_conv_top
I0817 16:29:01.736430 17472 net.cpp:408] pre_bn -> pre_bn_top
I0817 16:29:01.736953 17472 net.cpp:150] Setting up pre_bn
I0817 16:29:01.736970 17472 net.cpp:157] Top shape: 125 16 32 32 (2048000)
I0817 16:29:01.736986 17472 net.cpp:165] Memory required for data: 17921500
I0817 16:29:01.737005 17472 layer_factory.hpp:77] Creating layer pre_scale
I0817 16:29:01.737058 17472 net.cpp:100] Creating Layer pre_scale
I0817 16:29:01.737069 17472 net.cpp:434] pre_scale <- pre_bn_top
I0817 16:29:01.737079 17472 net.cpp:395] pre_scale -> pre_bn_top (in-place)
I0817 16:29:01.737267 17472 layer_factory.hpp:77] Creating layer pre_scale
I0817 16:29:01.737365 17478 blocking_queue.cpp:50] Waiting for data
I0817 16:29:01.737529 17472 net.cpp:150] Setting up pre_scale
I0817 16:29:01.737546 17472 net.cpp:157] Top shape: 125 16 32 32 (2048000)
I0817 16:29:01.737552 17472 net.cpp:165] Memory required for data: 26113500
I0817 16:29:01.737563 17472 layer_factory.hpp:77] Creating layer pre_relu
I0817 16:29:01.737608 17472 net.cpp:100] Creating Layer pre_relu
I0817 16:29:01.737617 17472 net.cpp:434] pre_relu <- pre_bn_top
I0817 16:29:01.737627 17472 net.cpp:395] pre_relu -> pre_bn_top (in-place)
I0817 16:29:01.737637 17472 net.cpp:150] Setting up pre_relu
I0817 16:29:01.737644 17472 net.cpp:157] Top shape: 125 16 32 32 (2048000)
I0817 16:29:01.737649 17472 net.cpp:165] Memory required for data: 34305500
I0817 16:29:01.737654 17472 layer_factory.hpp:77] Creating layer pre_bn_top_pre_relu_0_split
I0817 16:29:01.737664 17472 net.cpp:100] Creating Layer pre_bn_top_pre_relu_0_split
I0817 16:29:01.737669 17472 net.cpp:434] pre_bn_top_pre_relu_0_split <- pre_bn_top
I0817 16:29:01.737678 17472 net.cpp:408] pre_bn_top_pre_relu_0_split -> pre_bn_top_pre_relu_0_split_0
I0817 16:29:01.737687 17472 net.cpp:408] pre_bn_top_pre_relu_0_split -> pre_bn_top_pre_relu_0_split_1
I0817 16:29:01.737735 17472 net.cpp:150] Setting up pre_bn_top_pre_relu_0_split
I0817 16:29:01.737746 17472 net.cpp:157] Top shape: 125 16 32 32 (2048000)
I0817 16:29:01.737752 17472 net.cpp:157] Top shape: 125 16 32 32 (2048000)
I0817 16:29:01.737757 17472 net.cpp:165] Memory required for data: 50689500
I0817 16:29:01.737762 17472 layer_factory.hpp:77] Creating layer L1_b1_cbr1_conv
I0817 16:29:01.737777 17472 net.cpp:100] Creating Layer L1_b1_cbr1_conv
I0817 16:29:01.737783 17472 net.cpp:434] L1_b1_cbr1_conv <- pre_bn_top_pre_relu_0_split_0
I0817 16:29:01.737792 17472 net.cpp:408] L1_b1_cbr1_conv -> L1_b1_cbr1_conv_top
I0817 16:29:01.738099 17472 net.cpp:150] Setting up L1_b1_cbr1_conv
I0817 16:29:01.738113 17472 net.cpp:157] Top shape: 125 16 32 32 (2048000)
I0817 16:29:01.738118 17472 net.cpp:165] Memory required for data: 58881500
I0817 16:29:01.738131 17472 layer_factory.hpp:77] Creating layer L1_b1_cbr1_bn
I0817 16:29:01.738147 17472 net.cpp:100] Creating Layer L1_b1_cbr1_bn
I0817 16:29:01.738154 17472 net.cpp:434] L1_b1_cbr1_bn <- L1_b1_cbr1_conv_top
I0817 16:29:01.738163 17472 net.cpp:408] L1_b1_cbr1_bn -> L1_b1_cbr1_bn_top
I0817 16:29:01.738384 17472 net.cpp:150] Setting up L1_b1_cbr1_bn
I0817 16:29:01.738397 17472 net.cpp:157] Top shape: 125 16 32 32 (2048000)
I0817 16:29:01.738402 17472 net.cpp:165] Memory required for data: 67073500
I0817 16:29:01.738414 17472 layer_factory.hpp:77] Creating layer L1_b1_cbr1_scale
I0817 16:29:01.738422 17472 net.cpp:100] Creating Layer L1_b1_cbr1_scale
I0817 16:29:01.738428 17472 net.cpp:434] L1_b1_cbr1_scale <- L1_b1_cbr1_bn_top
I0817 16:29:01.738441 17472 net.cpp:395] L1_b1_cbr1_scale -> L1_b1_cbr1_bn_top (in-place)
I0817 16:29:01.738490 17472 layer_factory.hpp:77] Creating layer L1_b1_cbr1_scale
I0817 16:29:01.738622 17472 net.cpp:150] Setting up L1_b1_cbr1_scale
I0817 16:29:01.738638 17472 net.cpp:157] Top shape: 125 16 32 32 (2048000)
I0817 16:29:01.738643 17472 net.cpp:165] Memory required for data: 75265500
I0817 16:29:01.738653 17472 layer_factory.hpp:77] Creating layer L1_b1_cbr1_relu
I0817 16:29:01.738669 17472 net.cpp:100] Creating Layer L1_b1_cbr1_relu
I0817 16:29:01.738677 17472 net.cpp:434] L1_b1_cbr1_relu <- L1_b1_cbr1_bn_top
I0817 16:29:01.738683 17472 net.cpp:395] L1_b1_cbr1_relu -> L1_b1_cbr1_bn_top (in-place)
I0817 16:29:01.738693 17472 net.cpp:150] Setting up L1_b1_cbr1_relu
I0817 16:29:01.738700 17472 net.cpp:157] Top shape: 125 16 32 32 (2048000)
I0817 16:29:01.738704 17472 net.cpp:165] Memory required for data: 83457500
I0817 16:29:01.738709 17472 layer_factory.hpp:77] Creating layer L1_b1_cbr2_conv
I0817 16:29:01.738725 17472 net.cpp:100] Creating Layer L1_b1_cbr2_conv
I0817 16:29:01.738731 17472 net.cpp:434] L1_b1_cbr2_conv <- L1_b1_cbr1_bn_top
I0817 16:29:01.738744 17472 net.cpp:408] L1_b1_cbr2_conv -> L1_b1_cbr2_conv_top
I0817 16:29:01.739071 17472 net.cpp:150] Setting up L1_b1_cbr2_conv
I0817 16:29:01.739085 17472 net.cpp:157] Top shape: 125 16 32 32 (2048000)
I0817 16:29:01.739090 17472 net.cpp:165] Memory required for data: 91649500
I0817 16:29:01.739099 17472 layer_factory.hpp:77] Creating layer L1_b1_cbr2_bn
I0817 16:29:01.739112 17472 net.cpp:100] Creating Layer L1_b1_cbr2_bn
I0817 16:29:01.739118 17472 net.cpp:434] L1_b1_cbr2_bn <- L1_b1_cbr2_conv_top
I0817 16:29:01.739130 17472 net.cpp:408] L1_b1_cbr2_bn -> L1_b1_cbr2_bn_top
I0817 16:29:01.739356 17472 net.cpp:150] Setting up L1_b1_cbr2_bn
I0817 16:29:01.739368 17472 net.cpp:157] Top shape: 125 16 32 32 (2048000)
I0817 16:29:01.739373 17472 net.cpp:165] Memory required for data: 99841500
I0817 16:29:01.739388 17472 layer_factory.hpp:77] Creating layer L1_b1_cbr2_scale
I0817 16:29:01.739398 17472 net.cpp:100] Creating Layer L1_b1_cbr2_scale
I0817 16:29:01.739403 17472 net.cpp:434] L1_b1_cbr2_scale <- L1_b1_cbr2_bn_top
I0817 16:29:01.739413 17472 net.cpp:395] L1_b1_cbr2_scale -> L1_b1_cbr2_bn_top (in-place)
I0817 16:29:01.739470 17472 layer_factory.hpp:77] Creating layer L1_b1_cbr2_scale
I0817 16:29:01.739603 17472 net.cpp:150] Setting up L1_b1_cbr2_scale
I0817 16:29:01.739619 17472 net.cpp:157] Top shape: 125 16 32 32 (2048000)
I0817 16:29:01.739624 17472 net.cpp:165] Memory required for data: 108033500
I0817 16:29:01.739632 17472 layer_factory.hpp:77] Creating layer L1_b1_sum_eltwise
I0817 16:29:01.739681 17472 net.cpp:100] Creating Layer L1_b1_sum_eltwise
I0817 16:29:01.739692 17472 net.cpp:434] L1_b1_sum_eltwise <- L1_b1_cbr2_bn_top
I0817 16:29:01.739701 17472 net.cpp:434] L1_b1_sum_eltwise <- pre_bn_top_pre_relu_0_split_1
I0817 16:29:01.739708 17472 net.cpp:408] L1_b1_sum_eltwise -> L1_b1_sum_eltwise_top
I0817 16:29:01.739779 17472 net.cpp:150] Setting up L1_b1_sum_eltwise
I0817 16:29:01.739794 17472 net.cpp:157] Top shape: 125 16 32 32 (2048000)
I0817 16:29:01.739805 17472 net.cpp:165] Memory required for data: 116225500
I0817 16:29:01.739811 17472 layer_factory.hpp:77] Creating layer L1_b1_relu
I0817 16:29:01.739822 17472 net.cpp:100] Creating Layer L1_b1_relu
I0817 16:29:01.739828 17472 net.cpp:434] L1_b1_relu <- L1_b1_sum_eltwise_top
I0817 16:29:01.739835 17472 net.cpp:395] L1_b1_relu -> L1_b1_sum_eltwise_top (in-place)
I0817 16:29:01.739845 17472 net.cpp:150] Setting up L1_b1_relu
I0817 16:29:01.739852 17472 net.cpp:157] Top shape: 125 16 32 32 (2048000)
I0817 16:29:01.739857 17472 net.cpp:165] Memory required for data: 124417500
I0817 16:29:01.739862 17472 layer_factory.hpp:77] Creating layer L1_b1_sum_eltwise_top_L1_b1_relu_0_split
I0817 16:29:01.739873 17472 net.cpp:100] Creating Layer L1_b1_sum_eltwise_top_L1_b1_relu_0_split
I0817 16:29:01.739879 17472 net.cpp:434] L1_b1_sum_eltwise_top_L1_b1_relu_0_split <- L1_b1_sum_eltwise_top
I0817 16:29:01.739886 17472 net.cpp:408] L1_b1_sum_eltwise_top_L1_b1_relu_0_split -> L1_b1_sum_eltwise_top_L1_b1_relu_0_split_0
I0817 16:29:01.739895 17472 net.cpp:408] L1_b1_sum_eltwise_top_L1_b1_relu_0_split -> L1_b1_sum_eltwise_top_L1_b1_relu_0_split_1
I0817 16:29:01.739939 17472 net.cpp:150] Setting up L1_b1_sum_eltwise_top_L1_b1_relu_0_split
I0817 16:29:01.739950 17472 net.cpp:157] Top shape: 125 16 32 32 (2048000)
I0817 16:29:01.739958 17472 net.cpp:157] Top shape: 125 16 32 32 (2048000)
I0817 16:29:01.739969 17472 net.cpp:165] Memory required for data: 140801500
I0817 16:29:01.739975 17472 layer_factory.hpp:77] Creating layer L1_b2_cbr1_conv
I0817 16:29:01.739987 17472 net.cpp:100] Creating Layer L1_b2_cbr1_conv
I0817 16:29:01.739994 17472 net.cpp:434] L1_b2_cbr1_conv <- L1_b1_sum_eltwise_top_L1_b1_relu_0_split_0
I0817 16:29:01.740005 17472 net.cpp:408] L1_b2_cbr1_conv -> L1_b2_cbr1_conv_top
I0817 16:29:01.740310 17472 net.cpp:150] Setting up L1_b2_cbr1_conv
I0817 16:29:01.740326 17472 net.cpp:157] Top shape: 125 16 32 32 (2048000)
I0817 16:29:01.740331 17472 net.cpp:165] Memory required for data: 148993500
I0817 16:29:01.740340 17472 layer_factory.hpp:77] Creating layer L1_b2_cbr1_bn
I0817 16:29:01.740350 17472 net.cpp:100] Creating Layer L1_b2_cbr1_bn
I0817 16:29:01.740355 17472 net.cpp:434] L1_b2_cbr1_bn <- L1_b2_cbr1_conv_top
I0817 16:29:01.740362 17472 net.cpp:408] L1_b2_cbr1_bn -> L1_b2_cbr1_bn_top
I0817 16:29:01.740602 17472 net.cpp:150] Setting up L1_b2_cbr1_bn
I0817 16:29:01.740614 17472 net.cpp:157] Top shape: 125 16 32 32 (2048000)
I0817 16:29:01.740619 17472 net.cpp:165] Memory required for data: 157185500
I0817 16:29:01.740630 17472 layer_factory.hpp:77] Creating layer L1_b2_cbr1_scale
I0817 16:29:01.740643 17472 net.cpp:100] Creating Layer L1_b2_cbr1_scale
I0817 16:29:01.740648 17472 net.cpp:434] L1_b2_cbr1_scale <- L1_b2_cbr1_bn_top
I0817 16:29:01.740655 17472 net.cpp:395] L1_b2_cbr1_scale -> L1_b2_cbr1_bn_top (in-place)
I0817 16:29:01.740711 17472 layer_factory.hpp:77] Creating layer L1_b2_cbr1_scale
I0817 16:29:01.740855 17472 net.cpp:150] Setting up L1_b2_cbr1_scale
I0817 16:29:01.740869 17472 net.cpp:157] Top shape: 125 16 32 32 (2048000)
I0817 16:29:01.740875 17472 net.cpp:165] Memory required for data: 165377500
I0817 16:29:01.740883 17472 layer_factory.hpp:77] Creating layer L1_b2_cbr1_relu
I0817 16:29:01.740892 17472 net.cpp:100] Creating Layer L1_b2_cbr1_relu
I0817 16:29:01.740897 17472 net.cpp:434] L1_b2_cbr1_relu <- L1_b2_cbr1_bn_top
I0817 16:29:01.740907 17472 net.cpp:395] L1_b2_cbr1_relu -> L1_b2_cbr1_bn_top (in-place)
I0817 16:29:01.740917 17472 net.cpp:150] Setting up L1_b2_cbr1_relu
I0817 16:29:01.740924 17472 net.cpp:157] Top shape: 125 16 32 32 (2048000)
I0817 16:29:01.740929 17472 net.cpp:165] Memory required for data: 173569500
I0817 16:29:01.740934 17472 layer_factory.hpp:77] Creating layer L1_b2_cbr2_conv
I0817 16:29:01.740947 17472 net.cpp:100] Creating Layer L1_b2_cbr2_conv
I0817 16:29:01.740953 17472 net.cpp:434] L1_b2_cbr2_conv <- L1_b2_cbr1_bn_top
I0817 16:29:01.740962 17472 net.cpp:408] L1_b2_cbr2_conv -> L1_b2_cbr2_conv_top
I0817 16:29:01.741256 17472 net.cpp:150] Setting up L1_b2_cbr2_conv
I0817 16:29:01.741271 17472 net.cpp:157] Top shape: 125 16 32 32 (2048000)
I0817 16:29:01.741276 17472 net.cpp:165] Memory required for data: 181761500
I0817 16:29:01.741284 17472 layer_factory.hpp:77] Creating layer L1_b2_cbr2_bn
I0817 16:29:01.741295 17472 net.cpp:100] Creating Layer L1_b2_cbr2_bn
I0817 16:29:01.741302 17472 net.cpp:434] L1_b2_cbr2_bn <- L1_b2_cbr2_conv_top
I0817 16:29:01.741309 17472 net.cpp:408] L1_b2_cbr2_bn -> L1_b2_cbr2_bn_top
I0817 16:29:01.741539 17472 net.cpp:150] Setting up L1_b2_cbr2_bn
I0817 16:29:01.741552 17472 net.cpp:157] Top shape: 125 16 32 32 (2048000)
I0817 16:29:01.741557 17472 net.cpp:165] Memory required for data: 189953500
I0817 16:29:01.741575 17472 layer_factory.hpp:77] Creating layer L1_b2_cbr2_scale
I0817 16:29:01.741587 17472 net.cpp:100] Creating Layer L1_b2_cbr2_scale
I0817 16:29:01.741593 17472 net.cpp:434] L1_b2_cbr2_scale <- L1_b2_cbr2_bn_top
I0817 16:29:01.741600 17472 net.cpp:395] L1_b2_cbr2_scale -> L1_b2_cbr2_bn_top (in-place)
I0817 16:29:01.741652 17472 layer_factory.hpp:77] Creating layer L1_b2_cbr2_scale
I0817 16:29:01.741794 17472 net.cpp:150] Setting up L1_b2_cbr2_scale
I0817 16:29:01.741813 17472 net.cpp:157] Top shape: 125 16 32 32 (2048000)
I0817 16:29:01.741819 17472 net.cpp:165] Memory required for data: 198145500
I0817 16:29:01.741828 17472 layer_factory.hpp:77] Creating layer L1_b2_sum_eltwise
I0817 16:29:01.741848 17472 net.cpp:100] Creating Layer L1_b2_sum_eltwise
I0817 16:29:01.741854 17472 net.cpp:434] L1_b2_sum_eltwise <- L1_b2_cbr2_bn_top
I0817 16:29:01.741861 17472 net.cpp:434] L1_b2_sum_eltwise <- L1_b1_sum_eltwise_top_L1_b1_relu_0_split_1
I0817 16:29:01.741873 17472 net.cpp:408] L1_b2_sum_eltwise -> L1_b2_sum_eltwise_top
I0817 16:29:01.741904 17472 net.cpp:150] Setting up L1_b2_sum_eltwise
I0817 16:29:01.741915 17472 net.cpp:157] Top shape: 125 16 32 32 (2048000)
I0817 16:29:01.741920 17472 net.cpp:165] Memory required for data: 206337500
I0817 16:29:01.741925 17472 layer_factory.hpp:77] Creating layer L1_b2_relu
I0817 16:29:01.741935 17472 net.cpp:100] Creating Layer L1_b2_relu
I0817 16:29:01.741941 17472 net.cpp:434] L1_b2_relu <- L1_b2_sum_eltwise_top
I0817 16:29:01.741948 17472 net.cpp:395] L1_b2_relu -> L1_b2_sum_eltwise_top (in-place)
I0817 16:29:01.741957 17472 net.cpp:150] Setting up L1_b2_relu
I0817 16:29:01.741964 17472 net.cpp:157] Top shape: 125 16 32 32 (2048000)
I0817 16:29:01.741968 17472 net.cpp:165] Memory required for data: 214529500
I0817 16:29:01.741973 17472 layer_factory.hpp:77] Creating layer L1_b2_sum_eltwise_top_L1_b2_relu_0_split
I0817 16:29:01.741981 17472 net.cpp:100] Creating Layer L1_b2_sum_eltwise_top_L1_b2_relu_0_split
I0817 16:29:01.741986 17472 net.cpp:434] L1_b2_sum_eltwise_top_L1_b2_relu_0_split <- L1_b2_sum_eltwise_top
I0817 16:29:01.741992 17472 net.cpp:408] L1_b2_sum_eltwise_top_L1_b2_relu_0_split -> L1_b2_sum_eltwise_top_L1_b2_relu_0_split_0
I0817 16:29:01.742002 17472 net.cpp:408] L1_b2_sum_eltwise_top_L1_b2_relu_0_split -> L1_b2_sum_eltwise_top_L1_b2_relu_0_split_1
I0817 16:29:01.742044 17472 net.cpp:150] Setting up L1_b2_sum_eltwise_top_L1_b2_relu_0_split
I0817 16:29:01.742056 17472 net.cpp:157] Top shape: 125 16 32 32 (2048000)
I0817 16:29:01.742063 17472 net.cpp:157] Top shape: 125 16 32 32 (2048000)
I0817 16:29:01.742067 17472 net.cpp:165] Memory required for data: 230913500
I0817 16:29:01.742072 17472 layer_factory.hpp:77] Creating layer L1_b3_cbr1_conv
I0817 16:29:01.742085 17472 net.cpp:100] Creating Layer L1_b3_cbr1_conv
I0817 16:29:01.742092 17472 net.cpp:434] L1_b3_cbr1_conv <- L1_b2_sum_eltwise_top_L1_b2_relu_0_split_0
I0817 16:29:01.742100 17472 net.cpp:408] L1_b3_cbr1_conv -> L1_b3_cbr1_conv_top
I0817 16:29:01.742403 17472 net.cpp:150] Setting up L1_b3_cbr1_conv
I0817 16:29:01.742416 17472 net.cpp:157] Top shape: 125 16 32 32 (2048000)
I0817 16:29:01.742421 17472 net.cpp:165] Memory required for data: 239105500
I0817 16:29:01.742429 17472 layer_factory.hpp:77] Creating layer L1_b3_cbr1_bn
I0817 16:29:01.742441 17472 net.cpp:100] Creating Layer L1_b3_cbr1_bn
I0817 16:29:01.742447 17472 net.cpp:434] L1_b3_cbr1_bn <- L1_b3_cbr1_conv_top
I0817 16:29:01.742455 17472 net.cpp:408] L1_b3_cbr1_bn -> L1_b3_cbr1_bn_top
I0817 16:29:01.742688 17472 net.cpp:150] Setting up L1_b3_cbr1_bn
I0817 16:29:01.742702 17472 net.cpp:157] Top shape: 125 16 32 32 (2048000)
I0817 16:29:01.742707 17472 net.cpp:165] Memory required for data: 247297500
I0817 16:29:01.742717 17472 layer_factory.hpp:77] Creating layer L1_b3_cbr1_scale
I0817 16:29:01.742724 17472 net.cpp:100] Creating Layer L1_b3_cbr1_scale
I0817 16:29:01.742730 17472 net.cpp:434] L1_b3_cbr1_scale <- L1_b3_cbr1_bn_top
I0817 16:29:01.742738 17472 net.cpp:395] L1_b3_cbr1_scale -> L1_b3_cbr1_bn_top (in-place)
I0817 16:29:01.742791 17472 layer_factory.hpp:77] Creating layer L1_b3_cbr1_scale
I0817 16:29:01.742938 17472 net.cpp:150] Setting up L1_b3_cbr1_scale
I0817 16:29:01.742950 17472 net.cpp:157] Top shape: 125 16 32 32 (2048000)
I0817 16:29:01.742956 17472 net.cpp:165] Memory required for data: 255489500
I0817 16:29:01.742964 17472 layer_factory.hpp:77] Creating layer L1_b3_cbr1_relu
I0817 16:29:01.742972 17472 net.cpp:100] Creating Layer L1_b3_cbr1_relu
I0817 16:29:01.742979 17472 net.cpp:434] L1_b3_cbr1_relu <- L1_b3_cbr1_bn_top
I0817 16:29:01.742990 17472 net.cpp:395] L1_b3_cbr1_relu -> L1_b3_cbr1_bn_top (in-place)
I0817 16:29:01.742998 17472 net.cpp:150] Setting up L1_b3_cbr1_relu
I0817 16:29:01.743015 17472 net.cpp:157] Top shape: 125 16 32 32 (2048000)
I0817 16:29:01.743019 17472 net.cpp:165] Memory required for data: 263681500
I0817 16:29:01.743024 17472 layer_factory.hpp:77] Creating layer L1_b3_cbr2_conv
I0817 16:29:01.743037 17472 net.cpp:100] Creating Layer L1_b3_cbr2_conv
I0817 16:29:01.743043 17472 net.cpp:434] L1_b3_cbr2_conv <- L1_b3_cbr1_bn_top
I0817 16:29:01.743052 17472 net.cpp:408] L1_b3_cbr2_conv -> L1_b3_cbr2_conv_top
I0817 16:29:01.743352 17472 net.cpp:150] Setting up L1_b3_cbr2_conv
I0817 16:29:01.743366 17472 net.cpp:157] Top shape: 125 16 32 32 (2048000)
I0817 16:29:01.743371 17472 net.cpp:165] Memory required for data: 271873500
I0817 16:29:01.743379 17472 layer_factory.hpp:77] Creating layer L1_b3_cbr2_bn
I0817 16:29:01.743394 17472 net.cpp:100] Creating Layer L1_b3_cbr2_bn
I0817 16:29:01.743401 17472 net.cpp:434] L1_b3_cbr2_bn <- L1_b3_cbr2_conv_top
I0817 16:29:01.743408 17472 net.cpp:408] L1_b3_cbr2_bn -> L1_b3_cbr2_bn_top
I0817 16:29:01.743643 17472 net.cpp:150] Setting up L1_b3_cbr2_bn
I0817 16:29:01.743656 17472 net.cpp:157] Top shape: 125 16 32 32 (2048000)
I0817 16:29:01.743661 17472 net.cpp:165] Memory required for data: 280065500
I0817 16:29:01.743671 17472 layer_factory.hpp:77] Creating layer L1_b3_cbr2_scale
I0817 16:29:01.743680 17472 net.cpp:100] Creating Layer L1_b3_cbr2_scale
I0817 16:29:01.743685 17472 net.cpp:434] L1_b3_cbr2_scale <- L1_b3_cbr2_bn_top
I0817 16:29:01.743692 17472 net.cpp:395] L1_b3_cbr2_scale -> L1_b3_cbr2_bn_top (in-place)
I0817 16:29:01.743746 17472 layer_factory.hpp:77] Creating layer L1_b3_cbr2_scale
I0817 16:29:01.743896 17472 net.cpp:150] Setting up L1_b3_cbr2_scale
I0817 16:29:01.743911 17472 net.cpp:157] Top shape: 125 16 32 32 (2048000)
I0817 16:29:01.743916 17472 net.cpp:165] Memory required for data: 288257500
I0817 16:29:01.743924 17472 layer_factory.hpp:77] Creating layer L1_b3_sum_eltwise
I0817 16:29:01.743933 17472 net.cpp:100] Creating Layer L1_b3_sum_eltwise
I0817 16:29:01.743939 17472 net.cpp:434] L1_b3_sum_eltwise <- L1_b3_cbr2_bn_top
I0817 16:29:01.743947 17472 net.cpp:434] L1_b3_sum_eltwise <- L1_b2_sum_eltwise_top_L1_b2_relu_0_split_1
I0817 16:29:01.743957 17472 net.cpp:408] L1_b3_sum_eltwise -> L1_b3_sum_eltwise_top
I0817 16:29:01.743988 17472 net.cpp:150] Setting up L1_b3_sum_eltwise
I0817 16:29:01.743996 17472 net.cpp:157] Top shape: 125 16 32 32 (2048000)
I0817 16:29:01.744000 17472 net.cpp:165] Memory required for data: 296449500
I0817 16:29:01.744006 17472 layer_factory.hpp:77] Creating layer L1_b3_relu
I0817 16:29:01.744016 17472 net.cpp:100] Creating Layer L1_b3_relu
I0817 16:29:01.744022 17472 net.cpp:434] L1_b3_relu <- L1_b3_sum_eltwise_top
I0817 16:29:01.744029 17472 net.cpp:395] L1_b3_relu -> L1_b3_sum_eltwise_top (in-place)
I0817 16:29:01.744038 17472 net.cpp:150] Setting up L1_b3_relu
I0817 16:29:01.744045 17472 net.cpp:157] Top shape: 125 16 32 32 (2048000)
I0817 16:29:01.744050 17472 net.cpp:165] Memory required for data: 304641500
I0817 16:29:01.744055 17472 layer_factory.hpp:77] Creating layer L1_b3_sum_eltwise_top_L1_b3_relu_0_split
I0817 16:29:01.744061 17472 net.cpp:100] Creating Layer L1_b3_sum_eltwise_top_L1_b3_relu_0_split
I0817 16:29:01.744066 17472 net.cpp:434] L1_b3_sum_eltwise_top_L1_b3_relu_0_split <- L1_b3_sum_eltwise_top
I0817 16:29:01.744073 17472 net.cpp:408] L1_b3_sum_eltwise_top_L1_b3_relu_0_split -> L1_b3_sum_eltwise_top_L1_b3_relu_0_split_0
I0817 16:29:01.744083 17472 net.cpp:408] L1_b3_sum_eltwise_top_L1_b3_relu_0_split -> L1_b3_sum_eltwise_top_L1_b3_relu_0_split_1
I0817 16:29:01.744128 17472 net.cpp:150] Setting up L1_b3_sum_eltwise_top_L1_b3_relu_0_split
I0817 16:29:01.744140 17472 net.cpp:157] Top shape: 125 16 32 32 (2048000)
I0817 16:29:01.744146 17472 net.cpp:157] Top shape: 125 16 32 32 (2048000)
I0817 16:29:01.744150 17472 net.cpp:165] Memory required for data: 321025500
I0817 16:29:01.744155 17472 layer_factory.hpp:77] Creating layer L1_b4_cbr1_conv
I0817 16:29:01.744169 17472 net.cpp:100] Creating Layer L1_b4_cbr1_conv
I0817 16:29:01.744175 17472 net.cpp:434] L1_b4_cbr1_conv <- L1_b3_sum_eltwise_top_L1_b3_relu_0_split_0
I0817 16:29:01.744190 17472 net.cpp:408] L1_b4_cbr1_conv -> L1_b4_cbr1_conv_top
I0817 16:29:01.744493 17472 net.cpp:150] Setting up L1_b4_cbr1_conv
I0817 16:29:01.744508 17472 net.cpp:157] Top shape: 125 16 32 32 (2048000)
I0817 16:29:01.744513 17472 net.cpp:165] Memory required for data: 329217500
I0817 16:29:01.744521 17472 layer_factory.hpp:77] Creating layer L1_b4_cbr1_bn
I0817 16:29:01.744534 17472 net.cpp:100] Creating Layer L1_b4_cbr1_bn
I0817 16:29:01.744539 17472 net.cpp:434] L1_b4_cbr1_bn <- L1_b4_cbr1_conv_top
I0817 16:29:01.744550 17472 net.cpp:408] L1_b4_cbr1_bn -> L1_b4_cbr1_bn_top
I0817 16:29:01.744786 17472 net.cpp:150] Setting up L1_b4_cbr1_bn
I0817 16:29:01.744804 17472 net.cpp:157] Top shape: 125 16 32 32 (2048000)
I0817 16:29:01.744810 17472 net.cpp:165] Memory required for data: 337409500
I0817 16:29:01.744822 17472 layer_factory.hpp:77] Creating layer L1_b4_cbr1_scale
I0817 16:29:01.744829 17472 net.cpp:100] Creating Layer L1_b4_cbr1_scale
I0817 16:29:01.744835 17472 net.cpp:434] L1_b4_cbr1_scale <- L1_b4_cbr1_bn_top
I0817 16:29:01.744843 17472 net.cpp:395] L1_b4_cbr1_scale -> L1_b4_cbr1_bn_top (in-place)
I0817 16:29:01.744899 17472 layer_factory.hpp:77] Creating layer L1_b4_cbr1_scale
I0817 16:29:01.745038 17472 net.cpp:150] Setting up L1_b4_cbr1_scale
I0817 16:29:01.745050 17472 net.cpp:157] Top shape: 125 16 32 32 (2048000)
I0817 16:29:01.745055 17472 net.cpp:165] Memory required for data: 345601500
I0817 16:29:01.745065 17472 layer_factory.hpp:77] Creating layer L1_b4_cbr1_relu
I0817 16:29:01.745074 17472 net.cpp:100] Creating Layer L1_b4_cbr1_relu
I0817 16:29:01.745079 17472 net.cpp:434] L1_b4_cbr1_relu <- L1_b4_cbr1_bn_top
I0817 16:29:01.745090 17472 net.cpp:395] L1_b4_cbr1_relu -> L1_b4_cbr1_bn_top (in-place)
I0817 16:29:01.745098 17472 net.cpp:150] Setting up L1_b4_cbr1_relu
I0817 16:29:01.745105 17472 net.cpp:157] Top shape: 125 16 32 32 (2048000)
I0817 16:29:01.745110 17472 net.cpp:165] Memory required for data: 353793500
I0817 16:29:01.745115 17472 layer_factory.hpp:77] Creating layer L1_b4_cbr2_conv
I0817 16:29:01.745128 17472 net.cpp:100] Creating Layer L1_b4_cbr2_conv
I0817 16:29:01.745134 17472 net.cpp:434] L1_b4_cbr2_conv <- L1_b4_cbr1_bn_top
I0817 16:29:01.745146 17472 net.cpp:408] L1_b4_cbr2_conv -> L1_b4_cbr2_conv_top
I0817 16:29:01.745455 17472 net.cpp:150] Setting up L1_b4_cbr2_conv
I0817 16:29:01.745468 17472 net.cpp:157] Top shape: 125 16 32 32 (2048000)
I0817 16:29:01.745473 17472 net.cpp:165] Memory required for data: 361985500
I0817 16:29:01.745481 17472 layer_factory.hpp:77] Creating layer L1_b4_cbr2_bn
I0817 16:29:01.745493 17472 net.cpp:100] Creating Layer L1_b4_cbr2_bn
I0817 16:29:01.745499 17472 net.cpp:434] L1_b4_cbr2_bn <- L1_b4_cbr2_conv_top
I0817 16:29:01.745507 17472 net.cpp:408] L1_b4_cbr2_bn -> L1_b4_cbr2_bn_top
I0817 16:29:01.745748 17472 net.cpp:150] Setting up L1_b4_cbr2_bn
I0817 16:29:01.745760 17472 net.cpp:157] Top shape: 125 16 32 32 (2048000)
I0817 16:29:01.745765 17472 net.cpp:165] Memory required for data: 370177500
I0817 16:29:01.745776 17472 layer_factory.hpp:77] Creating layer L1_b4_cbr2_scale
I0817 16:29:01.745784 17472 net.cpp:100] Creating Layer L1_b4_cbr2_scale
I0817 16:29:01.745790 17472 net.cpp:434] L1_b4_cbr2_scale <- L1_b4_cbr2_bn_top
I0817 16:29:01.745797 17472 net.cpp:395] L1_b4_cbr2_scale -> L1_b4_cbr2_bn_top (in-place)
I0817 16:29:01.745859 17472 layer_factory.hpp:77] Creating layer L1_b4_cbr2_scale
I0817 16:29:01.745996 17472 net.cpp:150] Setting up L1_b4_cbr2_scale
I0817 16:29:01.746009 17472 net.cpp:157] Top shape: 125 16 32 32 (2048000)
I0817 16:29:01.746014 17472 net.cpp:165] Memory required for data: 378369500
I0817 16:29:01.746023 17472 layer_factory.hpp:77] Creating layer L1_b4_sum_eltwise
I0817 16:29:01.746035 17472 net.cpp:100] Creating Layer L1_b4_sum_eltwise
I0817 16:29:01.746042 17472 net.cpp:434] L1_b4_sum_eltwise <- L1_b4_cbr2_bn_top
I0817 16:29:01.746048 17472 net.cpp:434] L1_b4_sum_eltwise <- L1_b3_sum_eltwise_top_L1_b3_relu_0_split_1
I0817 16:29:01.746055 17472 net.cpp:408] L1_b4_sum_eltwise -> L1_b4_sum_eltwise_top
I0817 16:29:01.746098 17472 net.cpp:150] Setting up L1_b4_sum_eltwise
I0817 16:29:01.746107 17472 net.cpp:157] Top shape: 125 16 32 32 (2048000)
I0817 16:29:01.746112 17472 net.cpp:165] Memory required for data: 386561500
I0817 16:29:01.746117 17472 layer_factory.hpp:77] Creating layer L1_b4_relu
I0817 16:29:01.746125 17472 net.cpp:100] Creating Layer L1_b4_relu
I0817 16:29:01.746130 17472 net.cpp:434] L1_b4_relu <- L1_b4_sum_eltwise_top
I0817 16:29:01.746142 17472 net.cpp:395] L1_b4_relu -> L1_b4_sum_eltwise_top (in-place)
I0817 16:29:01.746151 17472 net.cpp:150] Setting up L1_b4_relu
I0817 16:29:01.746158 17472 net.cpp:157] Top shape: 125 16 32 32 (2048000)
I0817 16:29:01.746163 17472 net.cpp:165] Memory required for data: 394753500
I0817 16:29:01.746167 17472 layer_factory.hpp:77] Creating layer L1_b4_sum_eltwise_top_L1_b4_relu_0_split
I0817 16:29:01.746176 17472 net.cpp:100] Creating Layer L1_b4_sum_eltwise_top_L1_b4_relu_0_split
I0817 16:29:01.746181 17472 net.cpp:434] L1_b4_sum_eltwise_top_L1_b4_relu_0_split <- L1_b4_sum_eltwise_top
I0817 16:29:01.746191 17472 net.cpp:408] L1_b4_sum_eltwise_top_L1_b4_relu_0_split -> L1_b4_sum_eltwise_top_L1_b4_relu_0_split_0
I0817 16:29:01.746201 17472 net.cpp:408] L1_b4_sum_eltwise_top_L1_b4_relu_0_split -> L1_b4_sum_eltwise_top_L1_b4_relu_0_split_1
I0817 16:29:01.746240 17472 net.cpp:150] Setting up L1_b4_sum_eltwise_top_L1_b4_relu_0_split
I0817 16:29:01.746253 17472 net.cpp:157] Top shape: 125 16 32 32 (2048000)
I0817 16:29:01.746259 17472 net.cpp:157] Top shape: 125 16 32 32 (2048000)
I0817 16:29:01.746263 17472 net.cpp:165] Memory required for data: 411137500
I0817 16:29:01.746268 17472 layer_factory.hpp:77] Creating layer L1_b5_cbr1_conv
I0817 16:29:01.746282 17472 net.cpp:100] Creating Layer L1_b5_cbr1_conv
I0817 16:29:01.746289 17472 net.cpp:434] L1_b5_cbr1_conv <- L1_b4_sum_eltwise_top_L1_b4_relu_0_split_0
I0817 16:29:01.746297 17472 net.cpp:408] L1_b5_cbr1_conv -> L1_b5_cbr1_conv_top
I0817 16:29:01.746604 17472 net.cpp:150] Setting up L1_b5_cbr1_conv
I0817 16:29:01.746618 17472 net.cpp:157] Top shape: 125 16 32 32 (2048000)
I0817 16:29:01.746623 17472 net.cpp:165] Memory required for data: 419329500
I0817 16:29:01.746645 17472 layer_factory.hpp:77] Creating layer L1_b5_cbr1_bn
I0817 16:29:01.746657 17472 net.cpp:100] Creating Layer L1_b5_cbr1_bn
I0817 16:29:01.746664 17472 net.cpp:434] L1_b5_cbr1_bn <- L1_b5_cbr1_conv_top
I0817 16:29:01.746671 17472 net.cpp:408] L1_b5_cbr1_bn -> L1_b5_cbr1_bn_top
I0817 16:29:01.746914 17472 net.cpp:150] Setting up L1_b5_cbr1_bn
I0817 16:29:01.746928 17472 net.cpp:157] Top shape: 125 16 32 32 (2048000)
I0817 16:29:01.746933 17472 net.cpp:165] Memory required for data: 427521500
I0817 16:29:01.746944 17472 layer_factory.hpp:77] Creating layer L1_b5_cbr1_scale
I0817 16:29:01.746953 17472 net.cpp:100] Creating Layer L1_b5_cbr1_scale
I0817 16:29:01.746958 17472 net.cpp:434] L1_b5_cbr1_scale <- L1_b5_cbr1_bn_top
I0817 16:29:01.746966 17472 net.cpp:395] L1_b5_cbr1_scale -> L1_b5_cbr1_bn_top (in-place)
I0817 16:29:01.747020 17472 layer_factory.hpp:77] Creating layer L1_b5_cbr1_scale
I0817 16:29:01.747158 17472 net.cpp:150] Setting up L1_b5_cbr1_scale
I0817 16:29:01.747169 17472 net.cpp:157] Top shape: 125 16 32 32 (2048000)
I0817 16:29:01.747174 17472 net.cpp:165] Memory required for data: 435713500
I0817 16:29:01.747184 17472 layer_factory.hpp:77] Creating layer L1_b5_cbr1_relu
I0817 16:29:01.747195 17472 net.cpp:100] Creating Layer L1_b5_cbr1_relu
I0817 16:29:01.747200 17472 net.cpp:434] L1_b5_cbr1_relu <- L1_b5_cbr1_bn_top
I0817 16:29:01.747207 17472 net.cpp:395] L1_b5_cbr1_relu -> L1_b5_cbr1_bn_top (in-place)
I0817 16:29:01.747217 17472 net.cpp:150] Setting up L1_b5_cbr1_relu
I0817 16:29:01.747225 17472 net.cpp:157] Top shape: 125 16 32 32 (2048000)
I0817 16:29:01.747228 17472 net.cpp:165] Memory required for data: 443905500
I0817 16:29:01.747233 17472 layer_factory.hpp:77] Creating layer L1_b5_cbr2_conv
I0817 16:29:01.747246 17472 net.cpp:100] Creating Layer L1_b5_cbr2_conv
I0817 16:29:01.747259 17472 net.cpp:434] L1_b5_cbr2_conv <- L1_b5_cbr1_bn_top
I0817 16:29:01.747272 17472 net.cpp:408] L1_b5_cbr2_conv -> L1_b5_cbr2_conv_top
I0817 16:29:01.747591 17472 net.cpp:150] Setting up L1_b5_cbr2_conv
I0817 16:29:01.747604 17472 net.cpp:157] Top shape: 125 16 32 32 (2048000)
I0817 16:29:01.747609 17472 net.cpp:165] Memory required for data: 452097500
I0817 16:29:01.747618 17472 layer_factory.hpp:77] Creating layer L1_b5_cbr2_bn
I0817 16:29:01.747630 17472 net.cpp:100] Creating Layer L1_b5_cbr2_bn
I0817 16:29:01.747637 17472 net.cpp:434] L1_b5_cbr2_bn <- L1_b5_cbr2_conv_top
I0817 16:29:01.747644 17472 net.cpp:408] L1_b5_cbr2_bn -> L1_b5_cbr2_bn_top
I0817 16:29:01.747889 17472 net.cpp:150] Setting up L1_b5_cbr2_bn
I0817 16:29:01.747902 17472 net.cpp:157] Top shape: 125 16 32 32 (2048000)
I0817 16:29:01.747907 17472 net.cpp:165] Memory required for data: 460289500
I0817 16:29:01.747917 17472 layer_factory.hpp:77] Creating layer L1_b5_cbr2_scale
I0817 16:29:01.747926 17472 net.cpp:100] Creating Layer L1_b5_cbr2_scale
I0817 16:29:01.747932 17472 net.cpp:434] L1_b5_cbr2_scale <- L1_b5_cbr2_bn_top
I0817 16:29:01.747939 17472 net.cpp:395] L1_b5_cbr2_scale -> L1_b5_cbr2_bn_top (in-place)
I0817 16:29:01.747993 17472 layer_factory.hpp:77] Creating layer L1_b5_cbr2_scale
I0817 16:29:01.748129 17472 net.cpp:150] Setting up L1_b5_cbr2_scale
I0817 16:29:01.748142 17472 net.cpp:157] Top shape: 125 16 32 32 (2048000)
I0817 16:29:01.748147 17472 net.cpp:165] Memory required for data: 468481500
I0817 16:29:01.748157 17472 layer_factory.hpp:77] Creating layer L1_b5_sum_eltwise
I0817 16:29:01.748165 17472 net.cpp:100] Creating Layer L1_b5_sum_eltwise
I0817 16:29:01.748172 17472 net.cpp:434] L1_b5_sum_eltwise <- L1_b5_cbr2_bn_top
I0817 16:29:01.748178 17472 net.cpp:434] L1_b5_sum_eltwise <- L1_b4_sum_eltwise_top_L1_b4_relu_0_split_1
I0817 16:29:01.748188 17472 net.cpp:408] L1_b5_sum_eltwise -> L1_b5_sum_eltwise_top
I0817 16:29:01.748219 17472 net.cpp:150] Setting up L1_b5_sum_eltwise
I0817 16:29:01.748227 17472 net.cpp:157] Top shape: 125 16 32 32 (2048000)
I0817 16:29:01.748232 17472 net.cpp:165] Memory required for data: 476673500
I0817 16:29:01.748237 17472 layer_factory.hpp:77] Creating layer L1_b5_relu
I0817 16:29:01.748248 17472 net.cpp:100] Creating Layer L1_b5_relu
I0817 16:29:01.748253 17472 net.cpp:434] L1_b5_relu <- L1_b5_sum_eltwise_top
I0817 16:29:01.748261 17472 net.cpp:395] L1_b5_relu -> L1_b5_sum_eltwise_top (in-place)
I0817 16:29:01.748270 17472 net.cpp:150] Setting up L1_b5_relu
I0817 16:29:01.748277 17472 net.cpp:157] Top shape: 125 16 32 32 (2048000)
I0817 16:29:01.748281 17472 net.cpp:165] Memory required for data: 484865500
I0817 16:29:01.748286 17472 layer_factory.hpp:77] Creating layer L1_b5_sum_eltwise_top_L1_b5_relu_0_split
I0817 16:29:01.748293 17472 net.cpp:100] Creating Layer L1_b5_sum_eltwise_top_L1_b5_relu_0_split
I0817 16:29:01.748298 17472 net.cpp:434] L1_b5_sum_eltwise_top_L1_b5_relu_0_split <- L1_b5_sum_eltwise_top
I0817 16:29:01.748306 17472 net.cpp:408] L1_b5_sum_eltwise_top_L1_b5_relu_0_split -> L1_b5_sum_eltwise_top_L1_b5_relu_0_split_0
I0817 16:29:01.748314 17472 net.cpp:408] L1_b5_sum_eltwise_top_L1_b5_relu_0_split -> L1_b5_sum_eltwise_top_L1_b5_relu_0_split_1
I0817 16:29:01.748358 17472 net.cpp:150] Setting up L1_b5_sum_eltwise_top_L1_b5_relu_0_split
I0817 16:29:01.748370 17472 net.cpp:157] Top shape: 125 16 32 32 (2048000)
I0817 16:29:01.748378 17472 net.cpp:157] Top shape: 125 16 32 32 (2048000)
I0817 16:29:01.748381 17472 net.cpp:165] Memory required for data: 501249500
I0817 16:29:01.748386 17472 layer_factory.hpp:77] Creating layer L1_b6_cbr1_conv
I0817 16:29:01.748400 17472 net.cpp:100] Creating Layer L1_b6_cbr1_conv
I0817 16:29:01.748406 17472 net.cpp:434] L1_b6_cbr1_conv <- L1_b5_sum_eltwise_top_L1_b5_relu_0_split_0
I0817 16:29:01.748415 17472 net.cpp:408] L1_b6_cbr1_conv -> L1_b6_cbr1_conv_top
I0817 16:29:01.748718 17472 net.cpp:150] Setting up L1_b6_cbr1_conv
I0817 16:29:01.748733 17472 net.cpp:157] Top shape: 125 16 32 32 (2048000)
I0817 16:29:01.748738 17472 net.cpp:165] Memory required for data: 509441500
I0817 16:29:01.748754 17472 layer_factory.hpp:77] Creating layer L1_b6_cbr1_bn
I0817 16:29:01.748765 17472 net.cpp:100] Creating Layer L1_b6_cbr1_bn
I0817 16:29:01.748771 17472 net.cpp:434] L1_b6_cbr1_bn <- L1_b6_cbr1_conv_top
I0817 16:29:01.748781 17472 net.cpp:408] L1_b6_cbr1_bn -> L1_b6_cbr1_bn_top
I0817 16:29:01.749025 17472 net.cpp:150] Setting up L1_b6_cbr1_bn
I0817 16:29:01.749039 17472 net.cpp:157] Top shape: 125 16 32 32 (2048000)
I0817 16:29:01.749044 17472 net.cpp:165] Memory required for data: 517633500
I0817 16:29:01.749054 17472 layer_factory.hpp:77] Creating layer L1_b6_cbr1_scale
I0817 16:29:01.749063 17472 net.cpp:100] Creating Layer L1_b6_cbr1_scale
I0817 16:29:01.749068 17472 net.cpp:434] L1_b6_cbr1_scale <- L1_b6_cbr1_bn_top
I0817 16:29:01.749076 17472 net.cpp:395] L1_b6_cbr1_scale -> L1_b6_cbr1_bn_top (in-place)
I0817 16:29:01.749130 17472 layer_factory.hpp:77] Creating layer L1_b6_cbr1_scale
I0817 16:29:01.749269 17472 net.cpp:150] Setting up L1_b6_cbr1_scale
I0817 16:29:01.749282 17472 net.cpp:157] Top shape: 125 16 32 32 (2048000)
I0817 16:29:01.749287 17472 net.cpp:165] Memory required for data: 525825500
I0817 16:29:01.749296 17472 layer_factory.hpp:77] Creating layer L1_b6_cbr1_relu
I0817 16:29:01.749305 17472 net.cpp:100] Creating Layer L1_b6_cbr1_relu
I0817 16:29:01.749310 17472 net.cpp:434] L1_b6_cbr1_relu <- L1_b6_cbr1_bn_top
I0817 16:29:01.749320 17472 net.cpp:395] L1_b6_cbr1_relu -> L1_b6_cbr1_bn_top (in-place)
I0817 16:29:01.749330 17472 net.cpp:150] Setting up L1_b6_cbr1_relu
I0817 16:29:01.749337 17472 net.cpp:157] Top shape: 125 16 32 32 (2048000)
I0817 16:29:01.749342 17472 net.cpp:165] Memory required for data: 534017500
I0817 16:29:01.749346 17472 layer_factory.hpp:77] Creating layer L1_b6_cbr2_conv
I0817 16:29:01.749361 17472 net.cpp:100] Creating Layer L1_b6_cbr2_conv
I0817 16:29:01.749366 17472 net.cpp:434] L1_b6_cbr2_conv <- L1_b6_cbr1_bn_top
I0817 16:29:01.749377 17472 net.cpp:408] L1_b6_cbr2_conv -> L1_b6_cbr2_conv_top
I0817 16:29:01.749686 17472 net.cpp:150] Setting up L1_b6_cbr2_conv
I0817 16:29:01.749701 17472 net.cpp:157] Top shape: 125 16 32 32 (2048000)
I0817 16:29:01.749706 17472 net.cpp:165] Memory required for data: 542209500
I0817 16:29:01.749714 17472 layer_factory.hpp:77] Creating layer L1_b6_cbr2_bn
I0817 16:29:01.749725 17472 net.cpp:100] Creating Layer L1_b6_cbr2_bn
I0817 16:29:01.749732 17472 net.cpp:434] L1_b6_cbr2_bn <- L1_b6_cbr2_conv_top
I0817 16:29:01.749740 17472 net.cpp:408] L1_b6_cbr2_bn -> L1_b6_cbr2_bn_top
I0817 16:29:01.749985 17472 net.cpp:150] Setting up L1_b6_cbr2_bn
I0817 16:29:01.750000 17472 net.cpp:157] Top shape: 125 16 32 32 (2048000)
I0817 16:29:01.750005 17472 net.cpp:165] Memory required for data: 550401500
I0817 16:29:01.750015 17472 layer_factory.hpp:77] Creating layer L1_b6_cbr2_scale
I0817 16:29:01.750022 17472 net.cpp:100] Creating Layer L1_b6_cbr2_scale
I0817 16:29:01.750028 17472 net.cpp:434] L1_b6_cbr2_scale <- L1_b6_cbr2_bn_top
I0817 16:29:01.750036 17472 net.cpp:395] L1_b6_cbr2_scale -> L1_b6_cbr2_bn_top (in-place)
I0817 16:29:01.750089 17472 layer_factory.hpp:77] Creating layer L1_b6_cbr2_scale
I0817 16:29:01.750231 17472 net.cpp:150] Setting up L1_b6_cbr2_scale
I0817 16:29:01.750243 17472 net.cpp:157] Top shape: 125 16 32 32 (2048000)
I0817 16:29:01.750248 17472 net.cpp:165] Memory required for data: 558593500
I0817 16:29:01.750257 17472 layer_factory.hpp:77] Creating layer L1_b6_sum_eltwise
I0817 16:29:01.750274 17472 net.cpp:100] Creating Layer L1_b6_sum_eltwise
I0817 16:29:01.750280 17472 net.cpp:434] L1_b6_sum_eltwise <- L1_b6_cbr2_bn_top
I0817 16:29:01.750288 17472 net.cpp:434] L1_b6_sum_eltwise <- L1_b5_sum_eltwise_top_L1_b5_relu_0_split_1
I0817 16:29:01.750298 17472 net.cpp:408] L1_b6_sum_eltwise -> L1_b6_sum_eltwise_top
I0817 16:29:01.750329 17472 net.cpp:150] Setting up L1_b6_sum_eltwise
I0817 16:29:01.750340 17472 net.cpp:157] Top shape: 125 16 32 32 (2048000)
I0817 16:29:01.750345 17472 net.cpp:165] Memory required for data: 566785500
I0817 16:29:01.750350 17472 layer_factory.hpp:77] Creating layer L1_b6_relu
I0817 16:29:01.750366 17472 net.cpp:100] Creating Layer L1_b6_relu
I0817 16:29:01.750373 17472 net.cpp:434] L1_b6_relu <- L1_b6_sum_eltwise_top
I0817 16:29:01.750380 17472 net.cpp:395] L1_b6_relu -> L1_b6_sum_eltwise_top (in-place)
I0817 16:29:01.750389 17472 net.cpp:150] Setting up L1_b6_relu
I0817 16:29:01.750396 17472 net.cpp:157] Top shape: 125 16 32 32 (2048000)
I0817 16:29:01.750401 17472 net.cpp:165] Memory required for data: 574977500
I0817 16:29:01.750406 17472 layer_factory.hpp:77] Creating layer L1_b6_sum_eltwise_top_L1_b6_relu_0_split
I0817 16:29:01.750416 17472 net.cpp:100] Creating Layer L1_b6_sum_eltwise_top_L1_b6_relu_0_split
I0817 16:29:01.750422 17472 net.cpp:434] L1_b6_sum_eltwise_top_L1_b6_relu_0_split <- L1_b6_sum_eltwise_top
I0817 16:29:01.750428 17472 net.cpp:408] L1_b6_sum_eltwise_top_L1_b6_relu_0_split -> L1_b6_sum_eltwise_top_L1_b6_relu_0_split_0
I0817 16:29:01.750438 17472 net.cpp:408] L1_b6_sum_eltwise_top_L1_b6_relu_0_split -> L1_b6_sum_eltwise_top_L1_b6_relu_0_split_1
I0817 16:29:01.750480 17472 net.cpp:150] Setting up L1_b6_sum_eltwise_top_L1_b6_relu_0_split
I0817 16:29:01.750494 17472 net.cpp:157] Top shape: 125 16 32 32 (2048000)
I0817 16:29:01.750501 17472 net.cpp:157] Top shape: 125 16 32 32 (2048000)
I0817 16:29:01.750506 17472 net.cpp:165] Memory required for data: 591361500
I0817 16:29:01.750510 17472 layer_factory.hpp:77] Creating layer L1_b7_cbr1_conv
I0817 16:29:01.750521 17472 net.cpp:100] Creating Layer L1_b7_cbr1_conv
I0817 16:29:01.750527 17472 net.cpp:434] L1_b7_cbr1_conv <- L1_b6_sum_eltwise_top_L1_b6_relu_0_split_0
I0817 16:29:01.750536 17472 net.cpp:408] L1_b7_cbr1_conv -> L1_b7_cbr1_conv_top
I0817 16:29:01.750851 17472 net.cpp:150] Setting up L1_b7_cbr1_conv
I0817 16:29:01.750865 17472 net.cpp:157] Top shape: 125 16 32 32 (2048000)
I0817 16:29:01.750870 17472 net.cpp:165] Memory required for data: 599553500
I0817 16:29:01.750880 17472 layer_factory.hpp:77] Creating layer L1_b7_cbr1_bn
I0817 16:29:01.750891 17472 net.cpp:100] Creating Layer L1_b7_cbr1_bn
I0817 16:29:01.750897 17472 net.cpp:434] L1_b7_cbr1_bn <- L1_b7_cbr1_conv_top
I0817 16:29:01.750905 17472 net.cpp:408] L1_b7_cbr1_bn -> L1_b7_cbr1_bn_top
I0817 16:29:01.751142 17472 net.cpp:150] Setting up L1_b7_cbr1_bn
I0817 16:29:01.751155 17472 net.cpp:157] Top shape: 125 16 32 32 (2048000)
I0817 16:29:01.751160 17472 net.cpp:165] Memory required for data: 607745500
I0817 16:29:01.751171 17472 layer_factory.hpp:77] Creating layer L1_b7_cbr1_scale
I0817 16:29:01.751179 17472 net.cpp:100] Creating Layer L1_b7_cbr1_scale
I0817 16:29:01.751185 17472 net.cpp:434] L1_b7_cbr1_scale <- L1_b7_cbr1_bn_top
I0817 16:29:01.751196 17472 net.cpp:395] L1_b7_cbr1_scale -> L1_b7_cbr1_bn_top (in-place)
I0817 16:29:01.751248 17472 layer_factory.hpp:77] Creating layer L1_b7_cbr1_scale
I0817 16:29:01.751386 17472 net.cpp:150] Setting up L1_b7_cbr1_scale
I0817 16:29:01.751399 17472 net.cpp:157] Top shape: 125 16 32 32 (2048000)
I0817 16:29:01.751405 17472 net.cpp:165] Memory required for data: 615937500
I0817 16:29:01.751413 17472 layer_factory.hpp:77] Creating layer L1_b7_cbr1_relu
I0817 16:29:01.751421 17472 net.cpp:100] Creating Layer L1_b7_cbr1_relu
I0817 16:29:01.751427 17472 net.cpp:434] L1_b7_cbr1_relu <- L1_b7_cbr1_bn_top
I0817 16:29:01.751435 17472 net.cpp:395] L1_b7_cbr1_relu -> L1_b7_cbr1_bn_top (in-place)
I0817 16:29:01.751444 17472 net.cpp:150] Setting up L1_b7_cbr1_relu
I0817 16:29:01.751451 17472 net.cpp:157] Top shape: 125 16 32 32 (2048000)
I0817 16:29:01.751456 17472 net.cpp:165] Memory required for data: 624129500
I0817 16:29:01.751461 17472 layer_factory.hpp:77] Creating layer L1_b7_cbr2_conv
I0817 16:29:01.751474 17472 net.cpp:100] Creating Layer L1_b7_cbr2_conv
I0817 16:29:01.751480 17472 net.cpp:434] L1_b7_cbr2_conv <- L1_b7_cbr1_bn_top
I0817 16:29:01.751493 17472 net.cpp:408] L1_b7_cbr2_conv -> L1_b7_cbr2_conv_top
I0817 16:29:01.751808 17472 net.cpp:150] Setting up L1_b7_cbr2_conv
I0817 16:29:01.751822 17472 net.cpp:157] Top shape: 125 16 32 32 (2048000)
I0817 16:29:01.751828 17472 net.cpp:165] Memory required for data: 632321500
I0817 16:29:01.751844 17472 layer_factory.hpp:77] Creating layer L1_b7_cbr2_bn
I0817 16:29:01.751857 17472 net.cpp:100] Creating Layer L1_b7_cbr2_bn
I0817 16:29:01.751863 17472 net.cpp:434] L1_b7_cbr2_bn <- L1_b7_cbr2_conv_top
I0817 16:29:01.751873 17472 net.cpp:408] L1_b7_cbr2_bn -> L1_b7_cbr2_bn_top
I0817 16:29:01.752106 17472 net.cpp:150] Setting up L1_b7_cbr2_bn
I0817 16:29:01.752120 17472 net.cpp:157] Top shape: 125 16 32 32 (2048000)
I0817 16:29:01.752125 17472 net.cpp:165] Memory required for data: 640513500
I0817 16:29:01.752135 17472 layer_factory.hpp:77] Creating layer L1_b7_cbr2_scale
I0817 16:29:01.752143 17472 net.cpp:100] Creating Layer L1_b7_cbr2_scale
I0817 16:29:01.752149 17472 net.cpp:434] L1_b7_cbr2_scale <- L1_b7_cbr2_bn_top
I0817 16:29:01.752159 17472 net.cpp:395] L1_b7_cbr2_scale -> L1_b7_cbr2_bn_top (in-place)
I0817 16:29:01.752213 17472 layer_factory.hpp:77] Creating layer L1_b7_cbr2_scale
I0817 16:29:01.752347 17472 net.cpp:150] Setting up L1_b7_cbr2_scale
I0817 16:29:01.752363 17472 net.cpp:157] Top shape: 125 16 32 32 (2048000)
I0817 16:29:01.752368 17472 net.cpp:165] Memory required for data: 648705500
I0817 16:29:01.752377 17472 layer_factory.hpp:77] Creating layer L1_b7_sum_eltwise
I0817 16:29:01.752388 17472 net.cpp:100] Creating Layer L1_b7_sum_eltwise
I0817 16:29:01.752393 17472 net.cpp:434] L1_b7_sum_eltwise <- L1_b7_cbr2_bn_top
I0817 16:29:01.752399 17472 net.cpp:434] L1_b7_sum_eltwise <- L1_b6_sum_eltwise_top_L1_b6_relu_0_split_1
I0817 16:29:01.752408 17472 net.cpp:408] L1_b7_sum_eltwise -> L1_b7_sum_eltwise_top
I0817 16:29:01.752440 17472 net.cpp:150] Setting up L1_b7_sum_eltwise
I0817 16:29:01.752450 17472 net.cpp:157] Top shape: 125 16 32 32 (2048000)
I0817 16:29:01.752455 17472 net.cpp:165] Memory required for data: 656897500
I0817 16:29:01.752460 17472 layer_factory.hpp:77] Creating layer L1_b7_relu
I0817 16:29:01.752467 17472 net.cpp:100] Creating Layer L1_b7_relu
I0817 16:29:01.752476 17472 net.cpp:434] L1_b7_relu <- L1_b7_sum_eltwise_top
I0817 16:29:01.752483 17472 net.cpp:395] L1_b7_relu -> L1_b7_sum_eltwise_top (in-place)
I0817 16:29:01.752492 17472 net.cpp:150] Setting up L1_b7_relu
I0817 16:29:01.752499 17472 net.cpp:157] Top shape: 125 16 32 32 (2048000)
I0817 16:29:01.752504 17472 net.cpp:165] Memory required for data: 665089500
I0817 16:29:01.752508 17472 layer_factory.hpp:77] Creating layer L1_b7_sum_eltwise_top_L1_b7_relu_0_split
I0817 16:29:01.752516 17472 net.cpp:100] Creating Layer L1_b7_sum_eltwise_top_L1_b7_relu_0_split
I0817 16:29:01.752521 17472 net.cpp:434] L1_b7_sum_eltwise_top_L1_b7_relu_0_split <- L1_b7_sum_eltwise_top
I0817 16:29:01.752530 17472 net.cpp:408] L1_b7_sum_eltwise_top_L1_b7_relu_0_split -> L1_b7_sum_eltwise_top_L1_b7_relu_0_split_0
I0817 16:29:01.752540 17472 net.cpp:408] L1_b7_sum_eltwise_top_L1_b7_relu_0_split -> L1_b7_sum_eltwise_top_L1_b7_relu_0_split_1
I0817 16:29:01.752580 17472 net.cpp:150] Setting up L1_b7_sum_eltwise_top_L1_b7_relu_0_split
I0817 16:29:01.752593 17472 net.cpp:157] Top shape: 125 16 32 32 (2048000)
I0817 16:29:01.752599 17472 net.cpp:157] Top shape: 125 16 32 32 (2048000)
I0817 16:29:01.752604 17472 net.cpp:165] Memory required for data: 681473500
I0817 16:29:01.752609 17472 layer_factory.hpp:77] Creating layer L1_b8_cbr1_conv
I0817 16:29:01.752621 17472 net.cpp:100] Creating Layer L1_b8_cbr1_conv
I0817 16:29:01.752629 17472 net.cpp:434] L1_b8_cbr1_conv <- L1_b7_sum_eltwise_top_L1_b7_relu_0_split_0
I0817 16:29:01.752637 17472 net.cpp:408] L1_b8_cbr1_conv -> L1_b8_cbr1_conv_top
I0817 16:29:01.752961 17472 net.cpp:150] Setting up L1_b8_cbr1_conv
I0817 16:29:01.752975 17472 net.cpp:157] Top shape: 125 16 32 32 (2048000)
I0817 16:29:01.752980 17472 net.cpp:165] Memory required for data: 689665500
I0817 16:29:01.752990 17472 layer_factory.hpp:77] Creating layer L1_b8_cbr1_bn
I0817 16:29:01.753000 17472 net.cpp:100] Creating Layer L1_b8_cbr1_bn
I0817 16:29:01.753007 17472 net.cpp:434] L1_b8_cbr1_bn <- L1_b8_cbr1_conv_top
I0817 16:29:01.753015 17472 net.cpp:408] L1_b8_cbr1_bn -> L1_b8_cbr1_bn_top
I0817 16:29:01.753262 17472 net.cpp:150] Setting up L1_b8_cbr1_bn
I0817 16:29:01.753276 17472 net.cpp:157] Top shape: 125 16 32 32 (2048000)
I0817 16:29:01.753281 17472 net.cpp:165] Memory required for data: 697857500
I0817 16:29:01.753291 17472 layer_factory.hpp:77] Creating layer L1_b8_cbr1_scale
I0817 16:29:01.753300 17472 net.cpp:100] Creating Layer L1_b8_cbr1_scale
I0817 16:29:01.753306 17472 net.cpp:434] L1_b8_cbr1_scale <- L1_b8_cbr1_bn_top
I0817 16:29:01.753316 17472 net.cpp:395] L1_b8_cbr1_scale -> L1_b8_cbr1_bn_top (in-place)
I0817 16:29:01.753370 17472 layer_factory.hpp:77] Creating layer L1_b8_cbr1_scale
I0817 16:29:01.753506 17472 net.cpp:150] Setting up L1_b8_cbr1_scale
I0817 16:29:01.753523 17472 net.cpp:157] Top shape: 125 16 32 32 (2048000)
I0817 16:29:01.753530 17472 net.cpp:165] Memory required for data: 706049500
I0817 16:29:01.753538 17472 layer_factory.hpp:77] Creating layer L1_b8_cbr1_relu
I0817 16:29:01.753546 17472 net.cpp:100] Creating Layer L1_b8_cbr1_relu
I0817 16:29:01.753552 17472 net.cpp:434] L1_b8_cbr1_relu <- L1_b8_cbr1_bn_top
I0817 16:29:01.753559 17472 net.cpp:395] L1_b8_cbr1_relu -> L1_b8_cbr1_bn_top (in-place)
I0817 16:29:01.753569 17472 net.cpp:150] Setting up L1_b8_cbr1_relu
I0817 16:29:01.753576 17472 net.cpp:157] Top shape: 125 16 32 32 (2048000)
I0817 16:29:01.753581 17472 net.cpp:165] Memory required for data: 714241500
I0817 16:29:01.753585 17472 layer_factory.hpp:77] Creating layer L1_b8_cbr2_conv
I0817 16:29:01.753599 17472 net.cpp:100] Creating Layer L1_b8_cbr2_conv
I0817 16:29:01.753605 17472 net.cpp:434] L1_b8_cbr2_conv <- L1_b8_cbr1_bn_top
I0817 16:29:01.753617 17472 net.cpp:408] L1_b8_cbr2_conv -> L1_b8_cbr2_conv_top
I0817 16:29:01.753938 17472 net.cpp:150] Setting up L1_b8_cbr2_conv
I0817 16:29:01.753953 17472 net.cpp:157] Top shape: 125 16 32 32 (2048000)
I0817 16:29:01.753958 17472 net.cpp:165] Memory required for data: 722433500
I0817 16:29:01.753967 17472 layer_factory.hpp:77] Creating layer L1_b8_cbr2_bn
I0817 16:29:01.753978 17472 net.cpp:100] Creating Layer L1_b8_cbr2_bn
I0817 16:29:01.753984 17472 net.cpp:434] L1_b8_cbr2_bn <- L1_b8_cbr2_conv_top
I0817 16:29:01.753995 17472 net.cpp:408] L1_b8_cbr2_bn -> L1_b8_cbr2_bn_top
I0817 16:29:01.754238 17472 net.cpp:150] Setting up L1_b8_cbr2_bn
I0817 16:29:01.754251 17472 net.cpp:157] Top shape: 125 16 32 32 (2048000)
I0817 16:29:01.754256 17472 net.cpp:165] Memory required for data: 730625500
I0817 16:29:01.754266 17472 layer_factory.hpp:77] Creating layer L1_b8_cbr2_scale
I0817 16:29:01.754276 17472 net.cpp:100] Creating Layer L1_b8_cbr2_scale
I0817 16:29:01.754281 17472 net.cpp:434] L1_b8_cbr2_scale <- L1_b8_cbr2_bn_top
I0817 16:29:01.754288 17472 net.cpp:395] L1_b8_cbr2_scale -> L1_b8_cbr2_bn_top (in-place)
I0817 16:29:01.754343 17472 layer_factory.hpp:77] Creating layer L1_b8_cbr2_scale
I0817 16:29:01.754484 17472 net.cpp:150] Setting up L1_b8_cbr2_scale
I0817 16:29:01.754498 17472 net.cpp:157] Top shape: 125 16 32 32 (2048000)
I0817 16:29:01.754503 17472 net.cpp:165] Memory required for data: 738817500
I0817 16:29:01.754511 17472 layer_factory.hpp:77] Creating layer L1_b8_sum_eltwise
I0817 16:29:01.754523 17472 net.cpp:100] Creating Layer L1_b8_sum_eltwise
I0817 16:29:01.754529 17472 net.cpp:434] L1_b8_sum_eltwise <- L1_b8_cbr2_bn_top
I0817 16:29:01.754536 17472 net.cpp:434] L1_b8_sum_eltwise <- L1_b7_sum_eltwise_top_L1_b7_relu_0_split_1
I0817 16:29:01.754544 17472 net.cpp:408] L1_b8_sum_eltwise -> L1_b8_sum_eltwise_top
I0817 16:29:01.754580 17472 net.cpp:150] Setting up L1_b8_sum_eltwise
I0817 16:29:01.754591 17472 net.cpp:157] Top shape: 125 16 32 32 (2048000)
I0817 16:29:01.754596 17472 net.cpp:165] Memory required for data: 747009500
I0817 16:29:01.754601 17472 layer_factory.hpp:77] Creating layer L1_b8_relu
I0817 16:29:01.754609 17472 net.cpp:100] Creating Layer L1_b8_relu
I0817 16:29:01.754614 17472 net.cpp:434] L1_b8_relu <- L1_b8_sum_eltwise_top
I0817 16:29:01.754624 17472 net.cpp:395] L1_b8_relu -> L1_b8_sum_eltwise_top (in-place)
I0817 16:29:01.754634 17472 net.cpp:150] Setting up L1_b8_relu
I0817 16:29:01.754647 17472 net.cpp:157] Top shape: 125 16 32 32 (2048000)
I0817 16:29:01.754653 17472 net.cpp:165] Memory required for data: 755201500
I0817 16:29:01.754657 17472 layer_factory.hpp:77] Creating layer L1_b8_sum_eltwise_top_L1_b8_relu_0_split
I0817 16:29:01.754665 17472 net.cpp:100] Creating Layer L1_b8_sum_eltwise_top_L1_b8_relu_0_split
I0817 16:29:01.754670 17472 net.cpp:434] L1_b8_sum_eltwise_top_L1_b8_relu_0_split <- L1_b8_sum_eltwise_top
I0817 16:29:01.754680 17472 net.cpp:408] L1_b8_sum_eltwise_top_L1_b8_relu_0_split -> L1_b8_sum_eltwise_top_L1_b8_relu_0_split_0
I0817 16:29:01.754691 17472 net.cpp:408] L1_b8_sum_eltwise_top_L1_b8_relu_0_split -> L1_b8_sum_eltwise_top_L1_b8_relu_0_split_1
I0817 16:29:01.754734 17472 net.cpp:150] Setting up L1_b8_sum_eltwise_top_L1_b8_relu_0_split
I0817 16:29:01.754746 17472 net.cpp:157] Top shape: 125 16 32 32 (2048000)
I0817 16:29:01.754753 17472 net.cpp:157] Top shape: 125 16 32 32 (2048000)
I0817 16:29:01.754757 17472 net.cpp:165] Memory required for data: 771585500
I0817 16:29:01.754762 17472 layer_factory.hpp:77] Creating layer L1_b9_cbr1_conv
I0817 16:29:01.754777 17472 net.cpp:100] Creating Layer L1_b9_cbr1_conv
I0817 16:29:01.754783 17472 net.cpp:434] L1_b9_cbr1_conv <- L1_b8_sum_eltwise_top_L1_b8_relu_0_split_0
I0817 16:29:01.754792 17472 net.cpp:408] L1_b9_cbr1_conv -> L1_b9_cbr1_conv_top
I0817 16:29:01.755125 17472 net.cpp:150] Setting up L1_b9_cbr1_conv
I0817 16:29:01.755142 17472 net.cpp:157] Top shape: 125 16 32 32 (2048000)
I0817 16:29:01.755147 17472 net.cpp:165] Memory required for data: 779777500
I0817 16:29:01.755156 17472 layer_factory.hpp:77] Creating layer L1_b9_cbr1_bn
I0817 16:29:01.755165 17472 net.cpp:100] Creating Layer L1_b9_cbr1_bn
I0817 16:29:01.755172 17472 net.cpp:434] L1_b9_cbr1_bn <- L1_b9_cbr1_conv_top
I0817 16:29:01.755182 17472 net.cpp:408] L1_b9_cbr1_bn -> L1_b9_cbr1_bn_top
I0817 16:29:01.755424 17472 net.cpp:150] Setting up L1_b9_cbr1_bn
I0817 16:29:01.755437 17472 net.cpp:157] Top shape: 125 16 32 32 (2048000)
I0817 16:29:01.755442 17472 net.cpp:165] Memory required for data: 787969500
I0817 16:29:01.755453 17472 layer_factory.hpp:77] Creating layer L1_b9_cbr1_scale
I0817 16:29:01.755465 17472 net.cpp:100] Creating Layer L1_b9_cbr1_scale
I0817 16:29:01.755470 17472 net.cpp:434] L1_b9_cbr1_scale <- L1_b9_cbr1_bn_top
I0817 16:29:01.755478 17472 net.cpp:395] L1_b9_cbr1_scale -> L1_b9_cbr1_bn_top (in-place)
I0817 16:29:01.755532 17472 layer_factory.hpp:77] Creating layer L1_b9_cbr1_scale
I0817 16:29:01.755674 17472 net.cpp:150] Setting up L1_b9_cbr1_scale
I0817 16:29:01.755687 17472 net.cpp:157] Top shape: 125 16 32 32 (2048000)
I0817 16:29:01.755692 17472 net.cpp:165] Memory required for data: 796161500
I0817 16:29:01.755702 17472 layer_factory.hpp:77] Creating layer L1_b9_cbr1_relu
I0817 16:29:01.755712 17472 net.cpp:100] Creating Layer L1_b9_cbr1_relu
I0817 16:29:01.755719 17472 net.cpp:434] L1_b9_cbr1_relu <- L1_b9_cbr1_bn_top
I0817 16:29:01.755726 17472 net.cpp:395] L1_b9_cbr1_relu -> L1_b9_cbr1_bn_top (in-place)
I0817 16:29:01.755736 17472 net.cpp:150] Setting up L1_b9_cbr1_relu
I0817 16:29:01.755743 17472 net.cpp:157] Top shape: 125 16 32 32 (2048000)
I0817 16:29:01.755748 17472 net.cpp:165] Memory required for data: 804353500
I0817 16:29:01.755753 17472 layer_factory.hpp:77] Creating layer L1_b9_cbr2_conv
I0817 16:29:01.755766 17472 net.cpp:100] Creating Layer L1_b9_cbr2_conv
I0817 16:29:01.755772 17472 net.cpp:434] L1_b9_cbr2_conv <- L1_b9_cbr1_bn_top
I0817 16:29:01.755784 17472 net.cpp:408] L1_b9_cbr2_conv -> L1_b9_cbr2_conv_top
I0817 16:29:01.756109 17472 net.cpp:150] Setting up L1_b9_cbr2_conv
I0817 16:29:01.756124 17472 net.cpp:157] Top shape: 125 16 32 32 (2048000)
I0817 16:29:01.756129 17472 net.cpp:165] Memory required for data: 812545500
I0817 16:29:01.756137 17472 layer_factory.hpp:77] Creating layer L1_b9_cbr2_bn
I0817 16:29:01.756147 17472 net.cpp:100] Creating Layer L1_b9_cbr2_bn
I0817 16:29:01.756153 17472 net.cpp:434] L1_b9_cbr2_bn <- L1_b9_cbr2_conv_top
I0817 16:29:01.756161 17472 net.cpp:408] L1_b9_cbr2_bn -> L1_b9_cbr2_bn_top
I0817 16:29:01.756414 17472 net.cpp:150] Setting up L1_b9_cbr2_bn
I0817 16:29:01.756428 17472 net.cpp:157] Top shape: 125 16 32 32 (2048000)
I0817 16:29:01.756433 17472 net.cpp:165] Memory required for data: 820737500
I0817 16:29:01.756465 17472 layer_factory.hpp:77] Creating layer L1_b9_cbr2_scale
I0817 16:29:01.756476 17472 net.cpp:100] Creating Layer L1_b9_cbr2_scale
I0817 16:29:01.756482 17472 net.cpp:434] L1_b9_cbr2_scale <- L1_b9_cbr2_bn_top
I0817 16:29:01.756492 17472 net.cpp:395] L1_b9_cbr2_scale -> L1_b9_cbr2_bn_top (in-place)
I0817 16:29:01.756544 17472 layer_factory.hpp:77] Creating layer L1_b9_cbr2_scale
I0817 16:29:01.756685 17472 net.cpp:150] Setting up L1_b9_cbr2_scale
I0817 16:29:01.756698 17472 net.cpp:157] Top shape: 125 16 32 32 (2048000)
I0817 16:29:01.756703 17472 net.cpp:165] Memory required for data: 828929500
I0817 16:29:01.756713 17472 layer_factory.hpp:77] Creating layer L1_b9_sum_eltwise
I0817 16:29:01.756722 17472 net.cpp:100] Creating Layer L1_b9_sum_eltwise
I0817 16:29:01.756728 17472 net.cpp:434] L1_b9_sum_eltwise <- L1_b9_cbr2_bn_top
I0817 16:29:01.756736 17472 net.cpp:434] L1_b9_sum_eltwise <- L1_b8_sum_eltwise_top_L1_b8_relu_0_split_1
I0817 16:29:01.756742 17472 net.cpp:408] L1_b9_sum_eltwise -> L1_b9_sum_eltwise_top
I0817 16:29:01.756777 17472 net.cpp:150] Setting up L1_b9_sum_eltwise
I0817 16:29:01.756786 17472 net.cpp:157] Top shape: 125 16 32 32 (2048000)
I0817 16:29:01.756790 17472 net.cpp:165] Memory required for data: 837121500
I0817 16:29:01.756795 17472 layer_factory.hpp:77] Creating layer L1_b9_relu
I0817 16:29:01.756811 17472 net.cpp:100] Creating Layer L1_b9_relu
I0817 16:29:01.756819 17472 net.cpp:434] L1_b9_relu <- L1_b9_sum_eltwise_top
I0817 16:29:01.756825 17472 net.cpp:395] L1_b9_relu -> L1_b9_sum_eltwise_top (in-place)
I0817 16:29:01.756835 17472 net.cpp:150] Setting up L1_b9_relu
I0817 16:29:01.756844 17472 net.cpp:157] Top shape: 125 16 32 32 (2048000)
I0817 16:29:01.756847 17472 net.cpp:165] Memory required for data: 845313500
I0817 16:29:01.756852 17472 layer_factory.hpp:77] Creating layer L1_b9_sum_eltwise_top_L1_b9_relu_0_split
I0817 16:29:01.756862 17472 net.cpp:100] Creating Layer L1_b9_sum_eltwise_top_L1_b9_relu_0_split
I0817 16:29:01.756868 17472 net.cpp:434] L1_b9_sum_eltwise_top_L1_b9_relu_0_split <- L1_b9_sum_eltwise_top
I0817 16:29:01.756876 17472 net.cpp:408] L1_b9_sum_eltwise_top_L1_b9_relu_0_split -> L1_b9_sum_eltwise_top_L1_b9_relu_0_split_0
I0817 16:29:01.756886 17472 net.cpp:408] L1_b9_sum_eltwise_top_L1_b9_relu_0_split -> L1_b9_sum_eltwise_top_L1_b9_relu_0_split_1
I0817 16:29:01.756929 17472 net.cpp:150] Setting up L1_b9_sum_eltwise_top_L1_b9_relu_0_split
I0817 16:29:01.756943 17472 net.cpp:157] Top shape: 125 16 32 32 (2048000)
I0817 16:29:01.756950 17472 net.cpp:157] Top shape: 125 16 32 32 (2048000)
I0817 16:29:01.756955 17472 net.cpp:165] Memory required for data: 861697500
I0817 16:29:01.756960 17472 layer_factory.hpp:77] Creating layer L2_b1_cbr1_conv
I0817 16:29:01.756971 17472 net.cpp:100] Creating Layer L2_b1_cbr1_conv
I0817 16:29:01.756978 17472 net.cpp:434] L2_b1_cbr1_conv <- L1_b9_sum_eltwise_top_L1_b9_relu_0_split_0
I0817 16:29:01.756986 17472 net.cpp:408] L2_b1_cbr1_conv -> L2_b1_cbr1_conv_top
I0817 16:29:01.757303 17472 net.cpp:150] Setting up L2_b1_cbr1_conv
I0817 16:29:01.757318 17472 net.cpp:157] Top shape: 125 16 16 16 (512000)
I0817 16:29:01.757321 17472 net.cpp:165] Memory required for data: 863745500
I0817 16:29:01.757330 17472 layer_factory.hpp:77] Creating layer L2_b1_cbr1_bn
I0817 16:29:01.757342 17472 net.cpp:100] Creating Layer L2_b1_cbr1_bn
I0817 16:29:01.757349 17472 net.cpp:434] L2_b1_cbr1_bn <- L2_b1_cbr1_conv_top
I0817 16:29:01.757356 17472 net.cpp:408] L2_b1_cbr1_bn -> L2_b1_cbr1_bn_top
I0817 16:29:01.757593 17472 net.cpp:150] Setting up L2_b1_cbr1_bn
I0817 16:29:01.757606 17472 net.cpp:157] Top shape: 125 16 16 16 (512000)
I0817 16:29:01.757611 17472 net.cpp:165] Memory required for data: 865793500
I0817 16:29:01.757622 17472 layer_factory.hpp:77] Creating layer L2_b1_cbr1_scale
I0817 16:29:01.757630 17472 net.cpp:100] Creating Layer L2_b1_cbr1_scale
I0817 16:29:01.757643 17472 net.cpp:434] L2_b1_cbr1_scale <- L2_b1_cbr1_bn_top
I0817 16:29:01.757657 17472 net.cpp:395] L2_b1_cbr1_scale -> L2_b1_cbr1_bn_top (in-place)
I0817 16:29:01.757710 17472 layer_factory.hpp:77] Creating layer L2_b1_cbr1_scale
I0817 16:29:01.757858 17472 net.cpp:150] Setting up L2_b1_cbr1_scale
I0817 16:29:01.757871 17472 net.cpp:157] Top shape: 125 16 16 16 (512000)
I0817 16:29:01.757876 17472 net.cpp:165] Memory required for data: 867841500
I0817 16:29:01.757885 17472 layer_factory.hpp:77] Creating layer L2_b1_cbr1_relu
I0817 16:29:01.757894 17472 net.cpp:100] Creating Layer L2_b1_cbr1_relu
I0817 16:29:01.757900 17472 net.cpp:434] L2_b1_cbr1_relu <- L2_b1_cbr1_bn_top
I0817 16:29:01.757910 17472 net.cpp:395] L2_b1_cbr1_relu -> L2_b1_cbr1_bn_top (in-place)
I0817 16:29:01.757920 17472 net.cpp:150] Setting up L2_b1_cbr1_relu
I0817 16:29:01.757927 17472 net.cpp:157] Top shape: 125 16 16 16 (512000)
I0817 16:29:01.757932 17472 net.cpp:165] Memory required for data: 869889500
I0817 16:29:01.757937 17472 layer_factory.hpp:77] Creating layer L2_b1_cbr2_conv
I0817 16:29:01.757951 17472 net.cpp:100] Creating Layer L2_b1_cbr2_conv
I0817 16:29:01.757956 17472 net.cpp:434] L2_b1_cbr2_conv <- L2_b1_cbr1_bn_top
I0817 16:29:01.757966 17472 net.cpp:408] L2_b1_cbr2_conv -> L2_b1_cbr2_conv_top
I0817 16:29:01.758283 17472 net.cpp:150] Setting up L2_b1_cbr2_conv
I0817 16:29:01.758296 17472 net.cpp:157] Top shape: 125 16 16 16 (512000)
I0817 16:29:01.758301 17472 net.cpp:165] Memory required for data: 871937500
I0817 16:29:01.758311 17472 layer_factory.hpp:77] Creating layer L2_b1_cbr2_bn
I0817 16:29:01.758323 17472 net.cpp:100] Creating Layer L2_b1_cbr2_bn
I0817 16:29:01.758330 17472 net.cpp:434] L2_b1_cbr2_bn <- L2_b1_cbr2_conv_top
I0817 16:29:01.758338 17472 net.cpp:408] L2_b1_cbr2_bn -> L2_b1_cbr2_bn_top
I0817 16:29:01.758575 17472 net.cpp:150] Setting up L2_b1_cbr2_bn
I0817 16:29:01.758589 17472 net.cpp:157] Top shape: 125 16 16 16 (512000)
I0817 16:29:01.758592 17472 net.cpp:165] Memory required for data: 873985500
I0817 16:29:01.758604 17472 layer_factory.hpp:77] Creating layer L2_b1_cbr2_scale
I0817 16:29:01.758612 17472 net.cpp:100] Creating Layer L2_b1_cbr2_scale
I0817 16:29:01.758618 17472 net.cpp:434] L2_b1_cbr2_scale <- L2_b1_cbr2_bn_top
I0817 16:29:01.758628 17472 net.cpp:395] L2_b1_cbr2_scale -> L2_b1_cbr2_bn_top (in-place)
I0817 16:29:01.758682 17472 layer_factory.hpp:77] Creating layer L2_b1_cbr2_scale
I0817 16:29:01.758828 17472 net.cpp:150] Setting up L2_b1_cbr2_scale
I0817 16:29:01.758842 17472 net.cpp:157] Top shape: 125 16 16 16 (512000)
I0817 16:29:01.758847 17472 net.cpp:165] Memory required for data: 876033500
I0817 16:29:01.758857 17472 layer_factory.hpp:77] Creating layer L2_b1_pool
I0817 16:29:01.758867 17472 net.cpp:100] Creating Layer L2_b1_pool
I0817 16:29:01.758872 17472 net.cpp:434] L2_b1_pool <- L1_b9_sum_eltwise_top_L1_b9_relu_0_split_1
I0817 16:29:01.758888 17472 net.cpp:408] L2_b1_pool -> L2_b1_pool
I0817 16:29:01.758970 17472 net.cpp:150] Setting up L2_b1_pool
I0817 16:29:01.758985 17472 net.cpp:157] Top shape: 125 16 16 16 (512000)
I0817 16:29:01.758990 17472 net.cpp:165] Memory required for data: 878081500
I0817 16:29:01.758996 17472 layer_factory.hpp:77] Creating layer L2_b1_sum_eltwise
I0817 16:29:01.759008 17472 net.cpp:100] Creating Layer L2_b1_sum_eltwise
I0817 16:29:01.759014 17472 net.cpp:434] L2_b1_sum_eltwise <- L2_b1_cbr2_bn_top
I0817 16:29:01.759021 17472 net.cpp:434] L2_b1_sum_eltwise <- L2_b1_pool
I0817 16:29:01.759029 17472 net.cpp:408] L2_b1_sum_eltwise -> L2_b1_sum_eltwise_top
I0817 16:29:01.759063 17472 net.cpp:150] Setting up L2_b1_sum_eltwise
I0817 16:29:01.759076 17472 net.cpp:157] Top shape: 125 16 16 16 (512000)
I0817 16:29:01.759081 17472 net.cpp:165] Memory required for data: 880129500
I0817 16:29:01.759086 17472 layer_factory.hpp:77] Creating layer L2_b1_relu
I0817 16:29:01.759093 17472 net.cpp:100] Creating Layer L2_b1_relu
I0817 16:29:01.759099 17472 net.cpp:434] L2_b1_relu <- L2_b1_sum_eltwise_top
I0817 16:29:01.759114 17472 net.cpp:395] L2_b1_relu -> L2_b1_sum_eltwise_top (in-place)
I0817 16:29:01.759124 17472 net.cpp:150] Setting up L2_b1_relu
I0817 16:29:01.759131 17472 net.cpp:157] Top shape: 125 16 16 16 (512000)
I0817 16:29:01.759136 17472 net.cpp:165] Memory required for data: 882177500
I0817 16:29:01.759140 17472 layer_factory.hpp:77] Creating layer L2_b1_zeros
I0817 16:29:01.759186 17472 net.cpp:100] Creating Layer L2_b1_zeros
I0817 16:29:01.759203 17472 net.cpp:408] L2_b1_zeros -> L2_b1_zeros
I0817 16:29:01.761540 17472 net.cpp:150] Setting up L2_b1_zeros
I0817 16:29:01.761559 17472 net.cpp:157] Top shape: 125 16 16 16 (512000)
I0817 16:29:01.761564 17472 net.cpp:165] Memory required for data: 884225500
I0817 16:29:01.761570 17472 layer_factory.hpp:77] Creating layer L2_b1_concat0
I0817 16:29:01.761584 17472 net.cpp:100] Creating Layer L2_b1_concat0
I0817 16:29:01.761590 17472 net.cpp:434] L2_b1_concat0 <- L2_b1_sum_eltwise_top
I0817 16:29:01.761597 17472 net.cpp:434] L2_b1_concat0 <- L2_b1_zeros
I0817 16:29:01.761605 17472 net.cpp:408] L2_b1_concat0 -> L2_b1_concat0
I0817 16:29:01.761683 17472 net.cpp:150] Setting up L2_b1_concat0
I0817 16:29:01.761698 17472 net.cpp:157] Top shape: 125 32 16 16 (1024000)
I0817 16:29:01.761703 17472 net.cpp:165] Memory required for data: 888321500
I0817 16:29:01.761709 17472 layer_factory.hpp:77] Creating layer L2_b1_concat0_L2_b1_concat0_0_split
I0817 16:29:01.761718 17472 net.cpp:100] Creating Layer L2_b1_concat0_L2_b1_concat0_0_split
I0817 16:29:01.761723 17472 net.cpp:434] L2_b1_concat0_L2_b1_concat0_0_split <- L2_b1_concat0
I0817 16:29:01.761734 17472 net.cpp:408] L2_b1_concat0_L2_b1_concat0_0_split -> L2_b1_concat0_L2_b1_concat0_0_split_0
I0817 16:29:01.761745 17472 net.cpp:408] L2_b1_concat0_L2_b1_concat0_0_split -> L2_b1_concat0_L2_b1_concat0_0_split_1
I0817 16:29:01.761793 17472 net.cpp:150] Setting up L2_b1_concat0_L2_b1_concat0_0_split
I0817 16:29:01.761813 17472 net.cpp:157] Top shape: 125 32 16 16 (1024000)
I0817 16:29:01.761821 17472 net.cpp:157] Top shape: 125 32 16 16 (1024000)
I0817 16:29:01.761826 17472 net.cpp:165] Memory required for data: 896513500
I0817 16:29:01.761831 17472 layer_factory.hpp:77] Creating layer L2_b2_cbr1_conv
I0817 16:29:01.761843 17472 net.cpp:100] Creating Layer L2_b2_cbr1_conv
I0817 16:29:01.761849 17472 net.cpp:434] L2_b2_cbr1_conv <- L2_b1_concat0_L2_b1_concat0_0_split_0
I0817 16:29:01.761862 17472 net.cpp:408] L2_b2_cbr1_conv -> L2_b2_cbr1_conv_top
I0817 16:29:01.763301 17472 net.cpp:150] Setting up L2_b2_cbr1_conv
I0817 16:29:01.763319 17472 net.cpp:157] Top shape: 125 32 16 16 (1024000)
I0817 16:29:01.763324 17472 net.cpp:165] Memory required for data: 900609500
I0817 16:29:01.763334 17472 layer_factory.hpp:77] Creating layer L2_b2_cbr1_bn
I0817 16:29:01.763346 17472 net.cpp:100] Creating Layer L2_b2_cbr1_bn
I0817 16:29:01.763352 17472 net.cpp:434] L2_b2_cbr1_bn <- L2_b2_cbr1_conv_top
I0817 16:29:01.763361 17472 net.cpp:408] L2_b2_cbr1_bn -> L2_b2_cbr1_bn_top
I0817 16:29:01.763609 17472 net.cpp:150] Setting up L2_b2_cbr1_bn
I0817 16:29:01.763623 17472 net.cpp:157] Top shape: 125 32 16 16 (1024000)
I0817 16:29:01.763628 17472 net.cpp:165] Memory required for data: 904705500
I0817 16:29:01.763639 17472 layer_factory.hpp:77] Creating layer L2_b2_cbr1_scale
I0817 16:29:01.763648 17472 net.cpp:100] Creating Layer L2_b2_cbr1_scale
I0817 16:29:01.763654 17472 net.cpp:434] L2_b2_cbr1_scale <- L2_b2_cbr1_bn_top
I0817 16:29:01.763665 17472 net.cpp:395] L2_b2_cbr1_scale -> L2_b2_cbr1_bn_top (in-place)
I0817 16:29:01.763720 17472 layer_factory.hpp:77] Creating layer L2_b2_cbr1_scale
I0817 16:29:01.763875 17472 net.cpp:150] Setting up L2_b2_cbr1_scale
I0817 16:29:01.763888 17472 net.cpp:157] Top shape: 125 32 16 16 (1024000)
I0817 16:29:01.763893 17472 net.cpp:165] Memory required for data: 908801500
I0817 16:29:01.763903 17472 layer_factory.hpp:77] Creating layer L2_b2_cbr1_relu
I0817 16:29:01.763911 17472 net.cpp:100] Creating Layer L2_b2_cbr1_relu
I0817 16:29:01.763917 17472 net.cpp:434] L2_b2_cbr1_relu <- L2_b2_cbr1_bn_top
I0817 16:29:01.763936 17472 net.cpp:395] L2_b2_cbr1_relu -> L2_b2_cbr1_bn_top (in-place)
I0817 16:29:01.763947 17472 net.cpp:150] Setting up L2_b2_cbr1_relu
I0817 16:29:01.763953 17472 net.cpp:157] Top shape: 125 32 16 16 (1024000)
I0817 16:29:01.763958 17472 net.cpp:165] Memory required for data: 912897500
I0817 16:29:01.763963 17472 layer_factory.hpp:77] Creating layer L2_b2_cbr2_conv
I0817 16:29:01.763978 17472 net.cpp:100] Creating Layer L2_b2_cbr2_conv
I0817 16:29:01.763983 17472 net.cpp:434] L2_b2_cbr2_conv <- L2_b2_cbr1_bn_top
I0817 16:29:01.763991 17472 net.cpp:408] L2_b2_cbr2_conv -> L2_b2_cbr2_conv_top
I0817 16:29:01.764442 17472 net.cpp:150] Setting up L2_b2_cbr2_conv
I0817 16:29:01.764456 17472 net.cpp:157] Top shape: 125 32 16 16 (1024000)
I0817 16:29:01.764461 17472 net.cpp:165] Memory required for data: 916993500
I0817 16:29:01.764470 17472 layer_factory.hpp:77] Creating layer L2_b2_cbr2_bn
I0817 16:29:01.764482 17472 net.cpp:100] Creating Layer L2_b2_cbr2_bn
I0817 16:29:01.764489 17472 net.cpp:434] L2_b2_cbr2_bn <- L2_b2_cbr2_conv_top
I0817 16:29:01.764497 17472 net.cpp:408] L2_b2_cbr2_bn -> L2_b2_cbr2_bn_top
I0817 16:29:01.764735 17472 net.cpp:150] Setting up L2_b2_cbr2_bn
I0817 16:29:01.764749 17472 net.cpp:157] Top shape: 125 32 16 16 (1024000)
I0817 16:29:01.764753 17472 net.cpp:165] Memory required for data: 921089500
I0817 16:29:01.764763 17472 layer_factory.hpp:77] Creating layer L2_b2_cbr2_scale
I0817 16:29:01.764772 17472 net.cpp:100] Creating Layer L2_b2_cbr2_scale
I0817 16:29:01.764778 17472 net.cpp:434] L2_b2_cbr2_scale <- L2_b2_cbr2_bn_top
I0817 16:29:01.764789 17472 net.cpp:395] L2_b2_cbr2_scale -> L2_b2_cbr2_bn_top (in-place)
I0817 16:29:01.764849 17472 layer_factory.hpp:77] Creating layer L2_b2_cbr2_scale
I0817 16:29:01.764992 17472 net.cpp:150] Setting up L2_b2_cbr2_scale
I0817 16:29:01.765005 17472 net.cpp:157] Top shape: 125 32 16 16 (1024000)
I0817 16:29:01.765010 17472 net.cpp:165] Memory required for data: 925185500
I0817 16:29:01.765019 17472 layer_factory.hpp:77] Creating layer L2_b2_sum_eltwise
I0817 16:29:01.765029 17472 net.cpp:100] Creating Layer L2_b2_sum_eltwise
I0817 16:29:01.765035 17472 net.cpp:434] L2_b2_sum_eltwise <- L2_b2_cbr2_bn_top
I0817 16:29:01.765043 17472 net.cpp:434] L2_b2_sum_eltwise <- L2_b1_concat0_L2_b1_concat0_0_split_1
I0817 16:29:01.765055 17472 net.cpp:408] L2_b2_sum_eltwise -> L2_b2_sum_eltwise_top
I0817 16:29:01.765082 17472 net.cpp:150] Setting up L2_b2_sum_eltwise
I0817 16:29:01.765091 17472 net.cpp:157] Top shape: 125 32 16 16 (1024000)
I0817 16:29:01.765095 17472 net.cpp:165] Memory required for data: 929281500
I0817 16:29:01.765101 17472 layer_factory.hpp:77] Creating layer L2_b2_relu
I0817 16:29:01.765111 17472 net.cpp:100] Creating Layer L2_b2_relu
I0817 16:29:01.765118 17472 net.cpp:434] L2_b2_relu <- L2_b2_sum_eltwise_top
I0817 16:29:01.765125 17472 net.cpp:395] L2_b2_relu -> L2_b2_sum_eltwise_top (in-place)
I0817 16:29:01.765135 17472 net.cpp:150] Setting up L2_b2_relu
I0817 16:29:01.765141 17472 net.cpp:157] Top shape: 125 32 16 16 (1024000)
I0817 16:29:01.765146 17472 net.cpp:165] Memory required for data: 933377500
I0817 16:29:01.765151 17472 layer_factory.hpp:77] Creating layer L2_b2_sum_eltwise_top_L2_b2_relu_0_split
I0817 16:29:01.765161 17472 net.cpp:100] Creating Layer L2_b2_sum_eltwise_top_L2_b2_relu_0_split
I0817 16:29:01.765166 17472 net.cpp:434] L2_b2_sum_eltwise_top_L2_b2_relu_0_split <- L2_b2_sum_eltwise_top
I0817 16:29:01.765173 17472 net.cpp:408] L2_b2_sum_eltwise_top_L2_b2_relu_0_split -> L2_b2_sum_eltwise_top_L2_b2_relu_0_split_0
I0817 16:29:01.765182 17472 net.cpp:408] L2_b2_sum_eltwise_top_L2_b2_relu_0_split -> L2_b2_sum_eltwise_top_L2_b2_relu_0_split_1
I0817 16:29:01.765224 17472 net.cpp:150] Setting up L2_b2_sum_eltwise_top_L2_b2_relu_0_split
I0817 16:29:01.765239 17472 net.cpp:157] Top shape: 125 32 16 16 (1024000)
I0817 16:29:01.765245 17472 net.cpp:157] Top shape: 125 32 16 16 (1024000)
I0817 16:29:01.765250 17472 net.cpp:165] Memory required for data: 941569500
I0817 16:29:01.765255 17472 layer_factory.hpp:77] Creating layer L2_b3_cbr1_conv
I0817 16:29:01.765274 17472 net.cpp:100] Creating Layer L2_b3_cbr1_conv
I0817 16:29:01.765280 17472 net.cpp:434] L2_b3_cbr1_conv <- L2_b2_sum_eltwise_top_L2_b2_relu_0_split_0
I0817 16:29:01.765290 17472 net.cpp:408] L2_b3_cbr1_conv -> L2_b3_cbr1_conv_top
I0817 16:29:01.765753 17472 net.cpp:150] Setting up L2_b3_cbr1_conv
I0817 16:29:01.765766 17472 net.cpp:157] Top shape: 125 32 16 16 (1024000)
I0817 16:29:01.765771 17472 net.cpp:165] Memory required for data: 945665500
I0817 16:29:01.765780 17472 layer_factory.hpp:77] Creating layer L2_b3_cbr1_bn
I0817 16:29:01.765792 17472 net.cpp:100] Creating Layer L2_b3_cbr1_bn
I0817 16:29:01.765805 17472 net.cpp:434] L2_b3_cbr1_bn <- L2_b3_cbr1_conv_top
I0817 16:29:01.765813 17472 net.cpp:408] L2_b3_cbr1_bn -> L2_b3_cbr1_bn_top
I0817 16:29:01.766054 17472 net.cpp:150] Setting up L2_b3_cbr1_bn
I0817 16:29:01.766067 17472 net.cpp:157] Top shape: 125 32 16 16 (1024000)
I0817 16:29:01.766072 17472 net.cpp:165] Memory required for data: 949761500
I0817 16:29:01.766083 17472 layer_factory.hpp:77] Creating layer L2_b3_cbr1_scale
I0817 16:29:01.766091 17472 net.cpp:100] Creating Layer L2_b3_cbr1_scale
I0817 16:29:01.766098 17472 net.cpp:434] L2_b3_cbr1_scale <- L2_b3_cbr1_bn_top
I0817 16:29:01.766108 17472 net.cpp:395] L2_b3_cbr1_scale -> L2_b3_cbr1_bn_top (in-place)
I0817 16:29:01.766161 17472 layer_factory.hpp:77] Creating layer L2_b3_cbr1_scale
I0817 16:29:01.766305 17472 net.cpp:150] Setting up L2_b3_cbr1_scale
I0817 16:29:01.766319 17472 net.cpp:157] Top shape: 125 32 16 16 (1024000)
I0817 16:29:01.766324 17472 net.cpp:165] Memory required for data: 953857500
I0817 16:29:01.766332 17472 layer_factory.hpp:77] Creating layer L2_b3_cbr1_relu
I0817 16:29:01.766340 17472 net.cpp:100] Creating Layer L2_b3_cbr1_relu
I0817 16:29:01.766346 17472 net.cpp:434] L2_b3_cbr1_relu <- L2_b3_cbr1_bn_top
I0817 16:29:01.766357 17472 net.cpp:395] L2_b3_cbr1_relu -> L2_b3_cbr1_bn_top (in-place)
I0817 16:29:01.766367 17472 net.cpp:150] Setting up L2_b3_cbr1_relu
I0817 16:29:01.766374 17472 net.cpp:157] Top shape: 125 32 16 16 (1024000)
I0817 16:29:01.766378 17472 net.cpp:165] Memory required for data: 957953500
I0817 16:29:01.766383 17472 layer_factory.hpp:77] Creating layer L2_b3_cbr2_conv
I0817 16:29:01.766396 17472 net.cpp:100] Creating Layer L2_b3_cbr2_conv
I0817 16:29:01.766402 17472 net.cpp:434] L2_b3_cbr2_conv <- L2_b3_cbr1_bn_top
I0817 16:29:01.766412 17472 net.cpp:408] L2_b3_cbr2_conv -> L2_b3_cbr2_conv_top
I0817 16:29:01.766875 17472 net.cpp:150] Setting up L2_b3_cbr2_conv
I0817 16:29:01.766890 17472 net.cpp:157] Top shape: 125 32 16 16 (1024000)
I0817 16:29:01.766894 17472 net.cpp:165] Memory required for data: 962049500
I0817 16:29:01.766903 17472 layer_factory.hpp:77] Creating layer L2_b3_cbr2_bn
I0817 16:29:01.766917 17472 net.cpp:100] Creating Layer L2_b3_cbr2_bn
I0817 16:29:01.766924 17472 net.cpp:434] L2_b3_cbr2_bn <- L2_b3_cbr2_conv_top
I0817 16:29:01.766932 17472 net.cpp:408] L2_b3_cbr2_bn -> L2_b3_cbr2_bn_top
I0817 16:29:01.767174 17472 net.cpp:150] Setting up L2_b3_cbr2_bn
I0817 16:29:01.767186 17472 net.cpp:157] Top shape: 125 32 16 16 (1024000)
I0817 16:29:01.767191 17472 net.cpp:165] Memory required for data: 966145500
I0817 16:29:01.767202 17472 layer_factory.hpp:77] Creating layer L2_b3_cbr2_scale
I0817 16:29:01.767210 17472 net.cpp:100] Creating Layer L2_b3_cbr2_scale
I0817 16:29:01.767216 17472 net.cpp:434] L2_b3_cbr2_scale <- L2_b3_cbr2_bn_top
I0817 16:29:01.767225 17472 net.cpp:395] L2_b3_cbr2_scale -> L2_b3_cbr2_bn_top (in-place)
I0817 16:29:01.767280 17472 layer_factory.hpp:77] Creating layer L2_b3_cbr2_scale
I0817 16:29:01.767427 17472 net.cpp:150] Setting up L2_b3_cbr2_scale
I0817 16:29:01.767442 17472 net.cpp:157] Top shape: 125 32 16 16 (1024000)
I0817 16:29:01.767447 17472 net.cpp:165] Memory required for data: 970241500
I0817 16:29:01.767457 17472 layer_factory.hpp:77] Creating layer L2_b3_sum_eltwise
I0817 16:29:01.767465 17472 net.cpp:100] Creating Layer L2_b3_sum_eltwise
I0817 16:29:01.767472 17472 net.cpp:434] L2_b3_sum_eltwise <- L2_b3_cbr2_bn_top
I0817 16:29:01.767485 17472 net.cpp:434] L2_b3_sum_eltwise <- L2_b2_sum_eltwise_top_L2_b2_relu_0_split_1
I0817 16:29:01.767496 17472 net.cpp:408] L2_b3_sum_eltwise -> L2_b3_sum_eltwise_top
I0817 16:29:01.767525 17472 net.cpp:150] Setting up L2_b3_sum_eltwise
I0817 16:29:01.767534 17472 net.cpp:157] Top shape: 125 32 16 16 (1024000)
I0817 16:29:01.767539 17472 net.cpp:165] Memory required for data: 974337500
I0817 16:29:01.767544 17472 layer_factory.hpp:77] Creating layer L2_b3_relu
I0817 16:29:01.767568 17472 net.cpp:100] Creating Layer L2_b3_relu
I0817 16:29:01.767575 17472 net.cpp:434] L2_b3_relu <- L2_b3_sum_eltwise_top
I0817 16:29:01.767582 17472 net.cpp:395] L2_b3_relu -> L2_b3_sum_eltwise_top (in-place)
I0817 16:29:01.767591 17472 net.cpp:150] Setting up L2_b3_relu
I0817 16:29:01.767598 17472 net.cpp:157] Top shape: 125 32 16 16 (1024000)
I0817 16:29:01.767603 17472 net.cpp:165] Memory required for data: 978433500
I0817 16:29:01.767608 17472 layer_factory.hpp:77] Creating layer L2_b3_sum_eltwise_top_L2_b3_relu_0_split
I0817 16:29:01.767616 17472 net.cpp:100] Creating Layer L2_b3_sum_eltwise_top_L2_b3_relu_0_split
I0817 16:29:01.767621 17472 net.cpp:434] L2_b3_sum_eltwise_top_L2_b3_relu_0_split <- L2_b3_sum_eltwise_top
I0817 16:29:01.767627 17472 net.cpp:408] L2_b3_sum_eltwise_top_L2_b3_relu_0_split -> L2_b3_sum_eltwise_top_L2_b3_relu_0_split_0
I0817 16:29:01.767637 17472 net.cpp:408] L2_b3_sum_eltwise_top_L2_b3_relu_0_split -> L2_b3_sum_eltwise_top_L2_b3_relu_0_split_1
I0817 16:29:01.767685 17472 net.cpp:150] Setting up L2_b3_sum_eltwise_top_L2_b3_relu_0_split
I0817 16:29:01.767696 17472 net.cpp:157] Top shape: 125 32 16 16 (1024000)
I0817 16:29:01.767704 17472 net.cpp:157] Top shape: 125 32 16 16 (1024000)
I0817 16:29:01.767707 17472 net.cpp:165] Memory required for data: 986625500
I0817 16:29:01.767714 17472 layer_factory.hpp:77] Creating layer L2_b4_cbr1_conv
I0817 16:29:01.767726 17472 net.cpp:100] Creating Layer L2_b4_cbr1_conv
I0817 16:29:01.767734 17472 net.cpp:434] L2_b4_cbr1_conv <- L2_b3_sum_eltwise_top_L2_b3_relu_0_split_0
I0817 16:29:01.767745 17472 net.cpp:408] L2_b4_cbr1_conv -> L2_b4_cbr1_conv_top
I0817 16:29:01.768208 17472 net.cpp:150] Setting up L2_b4_cbr1_conv
I0817 16:29:01.768223 17472 net.cpp:157] Top shape: 125 32 16 16 (1024000)
I0817 16:29:01.768227 17472 net.cpp:165] Memory required for data: 990721500
I0817 16:29:01.768235 17472 layer_factory.hpp:77] Creating layer L2_b4_cbr1_bn
I0817 16:29:01.768249 17472 net.cpp:100] Creating Layer L2_b4_cbr1_bn
I0817 16:29:01.768254 17472 net.cpp:434] L2_b4_cbr1_bn <- L2_b4_cbr1_conv_top
I0817 16:29:01.768265 17472 net.cpp:408] L2_b4_cbr1_bn -> L2_b4_cbr1_bn_top
I0817 16:29:01.768507 17472 net.cpp:150] Setting up L2_b4_cbr1_bn
I0817 16:29:01.768520 17472 net.cpp:157] Top shape: 125 32 16 16 (1024000)
I0817 16:29:01.768525 17472 net.cpp:165] Memory required for data: 994817500
I0817 16:29:01.768535 17472 layer_factory.hpp:77] Creating layer L2_b4_cbr1_scale
I0817 16:29:01.768544 17472 net.cpp:100] Creating Layer L2_b4_cbr1_scale
I0817 16:29:01.768550 17472 net.cpp:434] L2_b4_cbr1_scale <- L2_b4_cbr1_bn_top
I0817 16:29:01.768558 17472 net.cpp:395] L2_b4_cbr1_scale -> L2_b4_cbr1_bn_top (in-place)
I0817 16:29:01.768613 17472 layer_factory.hpp:77] Creating layer L2_b4_cbr1_scale
I0817 16:29:01.768754 17472 net.cpp:150] Setting up L2_b4_cbr1_scale
I0817 16:29:01.768765 17472 net.cpp:157] Top shape: 125 32 16 16 (1024000)
I0817 16:29:01.768770 17472 net.cpp:165] Memory required for data: 998913500
I0817 16:29:01.768779 17472 layer_factory.hpp:77] Creating layer L2_b4_cbr1_relu
I0817 16:29:01.768790 17472 net.cpp:100] Creating Layer L2_b4_cbr1_relu
I0817 16:29:01.768796 17472 net.cpp:434] L2_b4_cbr1_relu <- L2_b4_cbr1_bn_top
I0817 16:29:01.768810 17472 net.cpp:395] L2_b4_cbr1_relu -> L2_b4_cbr1_bn_top (in-place)
I0817 16:29:01.768821 17472 net.cpp:150] Setting up L2_b4_cbr1_relu
I0817 16:29:01.768827 17472 net.cpp:157] Top shape: 125 32 16 16 (1024000)
I0817 16:29:01.768832 17472 net.cpp:165] Memory required for data: 1003009500
I0817 16:29:01.768837 17472 layer_factory.hpp:77] Creating layer L2_b4_cbr2_conv
I0817 16:29:01.768858 17472 net.cpp:100] Creating Layer L2_b4_cbr2_conv
I0817 16:29:01.768864 17472 net.cpp:434] L2_b4_cbr2_conv <- L2_b4_cbr1_bn_top
I0817 16:29:01.768875 17472 net.cpp:408] L2_b4_cbr2_conv -> L2_b4_cbr2_conv_top
I0817 16:29:01.769331 17472 net.cpp:150] Setting up L2_b4_cbr2_conv
I0817 16:29:01.769345 17472 net.cpp:157] Top shape: 125 32 16 16 (1024000)
I0817 16:29:01.769351 17472 net.cpp:165] Memory required for data: 1007105500
I0817 16:29:01.769358 17472 layer_factory.hpp:77] Creating layer L2_b4_cbr2_bn
I0817 16:29:01.769374 17472 net.cpp:100] Creating Layer L2_b4_cbr2_bn
I0817 16:29:01.769381 17472 net.cpp:434] L2_b4_cbr2_bn <- L2_b4_cbr2_conv_top
I0817 16:29:01.769392 17472 net.cpp:408] L2_b4_cbr2_bn -> L2_b4_cbr2_bn_top
I0817 16:29:01.769629 17472 net.cpp:150] Setting up L2_b4_cbr2_bn
I0817 16:29:01.769644 17472 net.cpp:157] Top shape: 125 32 16 16 (1024000)
I0817 16:29:01.769650 17472 net.cpp:165] Memory required for data: 1011201500
I0817 16:29:01.769660 17472 layer_factory.hpp:77] Creating layer L2_b4_cbr2_scale
I0817 16:29:01.769670 17472 net.cpp:100] Creating Layer L2_b4_cbr2_scale
I0817 16:29:01.769675 17472 net.cpp:434] L2_b4_cbr2_scale <- L2_b4_cbr2_bn_top
I0817 16:29:01.769683 17472 net.cpp:395] L2_b4_cbr2_scale -> L2_b4_cbr2_bn_top (in-place)
I0817 16:29:01.769737 17472 layer_factory.hpp:77] Creating layer L2_b4_cbr2_scale
I0817 16:29:01.769887 17472 net.cpp:150] Setting up L2_b4_cbr2_scale
I0817 16:29:01.769901 17472 net.cpp:157] Top shape: 125 32 16 16 (1024000)
I0817 16:29:01.769906 17472 net.cpp:165] Memory required for data: 1015297500
I0817 16:29:01.769914 17472 layer_factory.hpp:77] Creating layer L2_b4_sum_eltwise
I0817 16:29:01.769923 17472 net.cpp:100] Creating Layer L2_b4_sum_eltwise
I0817 16:29:01.769929 17472 net.cpp:434] L2_b4_sum_eltwise <- L2_b4_cbr2_bn_top
I0817 16:29:01.769937 17472 net.cpp:434] L2_b4_sum_eltwise <- L2_b3_sum_eltwise_top_L2_b3_relu_0_split_1
I0817 16:29:01.769948 17472 net.cpp:408] L2_b4_sum_eltwise -> L2_b4_sum_eltwise_top
I0817 16:29:01.769974 17472 net.cpp:150] Setting up L2_b4_sum_eltwise
I0817 16:29:01.769984 17472 net.cpp:157] Top shape: 125 32 16 16 (1024000)
I0817 16:29:01.769987 17472 net.cpp:165] Memory required for data: 1019393500
I0817 16:29:01.769994 17472 layer_factory.hpp:77] Creating layer L2_b4_relu
I0817 16:29:01.770005 17472 net.cpp:100] Creating Layer L2_b4_relu
I0817 16:29:01.770011 17472 net.cpp:434] L2_b4_relu <- L2_b4_sum_eltwise_top
I0817 16:29:01.770020 17472 net.cpp:395] L2_b4_relu -> L2_b4_sum_eltwise_top (in-place)
I0817 16:29:01.770028 17472 net.cpp:150] Setting up L2_b4_relu
I0817 16:29:01.770035 17472 net.cpp:157] Top shape: 125 32 16 16 (1024000)
I0817 16:29:01.770040 17472 net.cpp:165] Memory required for data: 1023489500
I0817 16:29:01.770045 17472 layer_factory.hpp:77] Creating layer L2_b4_sum_eltwise_top_L2_b4_relu_0_split
I0817 16:29:01.770051 17472 net.cpp:100] Creating Layer L2_b4_sum_eltwise_top_L2_b4_relu_0_split
I0817 16:29:01.770056 17472 net.cpp:434] L2_b4_sum_eltwise_top_L2_b4_relu_0_split <- L2_b4_sum_eltwise_top
I0817 16:29:01.770063 17472 net.cpp:408] L2_b4_sum_eltwise_top_L2_b4_relu_0_split -> L2_b4_sum_eltwise_top_L2_b4_relu_0_split_0
I0817 16:29:01.770072 17472 net.cpp:408] L2_b4_sum_eltwise_top_L2_b4_relu_0_split -> L2_b4_sum_eltwise_top_L2_b4_relu_0_split_1
I0817 16:29:01.770117 17472 net.cpp:150] Setting up L2_b4_sum_eltwise_top_L2_b4_relu_0_split
I0817 16:29:01.770129 17472 net.cpp:157] Top shape: 125 32 16 16 (1024000)
I0817 16:29:01.770135 17472 net.cpp:157] Top shape: 125 32 16 16 (1024000)
I0817 16:29:01.770140 17472 net.cpp:165] Memory required for data: 1031681500
I0817 16:29:01.770145 17472 layer_factory.hpp:77] Creating layer L2_b5_cbr1_conv
I0817 16:29:01.770159 17472 net.cpp:100] Creating Layer L2_b5_cbr1_conv
I0817 16:29:01.770164 17472 net.cpp:434] L2_b5_cbr1_conv <- L2_b4_sum_eltwise_top_L2_b4_relu_0_split_0
I0817 16:29:01.770174 17472 net.cpp:408] L2_b5_cbr1_conv -> L2_b5_cbr1_conv_top
I0817 16:29:01.770628 17472 net.cpp:150] Setting up L2_b5_cbr1_conv
I0817 16:29:01.770649 17472 net.cpp:157] Top shape: 125 32 16 16 (1024000)
I0817 16:29:01.770654 17472 net.cpp:165] Memory required for data: 1035777500
I0817 16:29:01.770663 17472 layer_factory.hpp:77] Creating layer L2_b5_cbr1_bn
I0817 16:29:01.770674 17472 net.cpp:100] Creating Layer L2_b5_cbr1_bn
I0817 16:29:01.770681 17472 net.cpp:434] L2_b5_cbr1_bn <- L2_b5_cbr1_conv_top
I0817 16:29:01.770692 17472 net.cpp:408] L2_b5_cbr1_bn -> L2_b5_cbr1_bn_top
I0817 16:29:01.770942 17472 net.cpp:150] Setting up L2_b5_cbr1_bn
I0817 16:29:01.770956 17472 net.cpp:157] Top shape: 125 32 16 16 (1024000)
I0817 16:29:01.770961 17472 net.cpp:165] Memory required for data: 1039873500
I0817 16:29:01.770970 17472 layer_factory.hpp:77] Creating layer L2_b5_cbr1_scale
I0817 16:29:01.770979 17472 net.cpp:100] Creating Layer L2_b5_cbr1_scale
I0817 16:29:01.770985 17472 net.cpp:434] L2_b5_cbr1_scale <- L2_b5_cbr1_bn_top
I0817 16:29:01.770992 17472 net.cpp:395] L2_b5_cbr1_scale -> L2_b5_cbr1_bn_top (in-place)
I0817 16:29:01.771049 17472 layer_factory.hpp:77] Creating layer L2_b5_cbr1_scale
I0817 16:29:01.771195 17472 net.cpp:150] Setting up L2_b5_cbr1_scale
I0817 16:29:01.771209 17472 net.cpp:157] Top shape: 125 32 16 16 (1024000)
I0817 16:29:01.771212 17472 net.cpp:165] Memory required for data: 1043969500
I0817 16:29:01.771222 17472 layer_factory.hpp:77] Creating layer L2_b5_cbr1_relu
I0817 16:29:01.771234 17472 net.cpp:100] Creating Layer L2_b5_cbr1_relu
I0817 16:29:01.771239 17472 net.cpp:434] L2_b5_cbr1_relu <- L2_b5_cbr1_bn_top
I0817 16:29:01.771246 17472 net.cpp:395] L2_b5_cbr1_relu -> L2_b5_cbr1_bn_top (in-place)
I0817 16:29:01.771256 17472 net.cpp:150] Setting up L2_b5_cbr1_relu
I0817 16:29:01.771263 17472 net.cpp:157] Top shape: 125 32 16 16 (1024000)
I0817 16:29:01.771267 17472 net.cpp:165] Memory required for data: 1048065500
I0817 16:29:01.771272 17472 layer_factory.hpp:77] Creating layer L2_b5_cbr2_conv
I0817 16:29:01.771286 17472 net.cpp:100] Creating Layer L2_b5_cbr2_conv
I0817 16:29:01.771291 17472 net.cpp:434] L2_b5_cbr2_conv <- L2_b5_cbr1_bn_top
I0817 16:29:01.771301 17472 net.cpp:408] L2_b5_cbr2_conv -> L2_b5_cbr2_conv_top
I0817 16:29:01.771754 17472 net.cpp:150] Setting up L2_b5_cbr2_conv
I0817 16:29:01.771769 17472 net.cpp:157] Top shape: 125 32 16 16 (1024000)
I0817 16:29:01.771773 17472 net.cpp:165] Memory required for data: 1052161500
I0817 16:29:01.771782 17472 layer_factory.hpp:77] Creating layer L2_b5_cbr2_bn
I0817 16:29:01.771795 17472 net.cpp:100] Creating Layer L2_b5_cbr2_bn
I0817 16:29:01.771806 17472 net.cpp:434] L2_b5_cbr2_bn <- L2_b5_cbr2_conv_top
I0817 16:29:01.771814 17472 net.cpp:408] L2_b5_cbr2_bn -> L2_b5_cbr2_bn_top
I0817 16:29:01.772058 17472 net.cpp:150] Setting up L2_b5_cbr2_bn
I0817 16:29:01.772073 17472 net.cpp:157] Top shape: 125 32 16 16 (1024000)
I0817 16:29:01.772078 17472 net.cpp:165] Memory required for data: 1056257500
I0817 16:29:01.772089 17472 layer_factory.hpp:77] Creating layer L2_b5_cbr2_scale
I0817 16:29:01.772097 17472 net.cpp:100] Creating Layer L2_b5_cbr2_scale
I0817 16:29:01.772104 17472 net.cpp:434] L2_b5_cbr2_scale <- L2_b5_cbr2_bn_top
I0817 16:29:01.772110 17472 net.cpp:395] L2_b5_cbr2_scale -> L2_b5_cbr2_bn_top (in-place)
I0817 16:29:01.772163 17472 layer_factory.hpp:77] Creating layer L2_b5_cbr2_scale
I0817 16:29:01.772310 17472 net.cpp:150] Setting up L2_b5_cbr2_scale
I0817 16:29:01.772323 17472 net.cpp:157] Top shape: 125 32 16 16 (1024000)
I0817 16:29:01.772328 17472 net.cpp:165] Memory required for data: 1060353500
I0817 16:29:01.772337 17472 layer_factory.hpp:77] Creating layer L2_b5_sum_eltwise
I0817 16:29:01.772346 17472 net.cpp:100] Creating Layer L2_b5_sum_eltwise
I0817 16:29:01.772352 17472 net.cpp:434] L2_b5_sum_eltwise <- L2_b5_cbr2_bn_top
I0817 16:29:01.772359 17472 net.cpp:434] L2_b5_sum_eltwise <- L2_b4_sum_eltwise_top_L2_b4_relu_0_split_1
I0817 16:29:01.772369 17472 net.cpp:408] L2_b5_sum_eltwise -> L2_b5_sum_eltwise_top
I0817 16:29:01.772397 17472 net.cpp:150] Setting up L2_b5_sum_eltwise
I0817 16:29:01.772405 17472 net.cpp:157] Top shape: 125 32 16 16 (1024000)
I0817 16:29:01.772416 17472 net.cpp:165] Memory required for data: 1064449500
I0817 16:29:01.772423 17472 layer_factory.hpp:77] Creating layer L2_b5_relu
I0817 16:29:01.772433 17472 net.cpp:100] Creating Layer L2_b5_relu
I0817 16:29:01.772439 17472 net.cpp:434] L2_b5_relu <- L2_b5_sum_eltwise_top
I0817 16:29:01.772446 17472 net.cpp:395] L2_b5_relu -> L2_b5_sum_eltwise_top (in-place)
I0817 16:29:01.772455 17472 net.cpp:150] Setting up L2_b5_relu
I0817 16:29:01.772462 17472 net.cpp:157] Top shape: 125 32 16 16 (1024000)
I0817 16:29:01.772467 17472 net.cpp:165] Memory required for data: 1068545500
I0817 16:29:01.772471 17472 layer_factory.hpp:77] Creating layer L2_b5_sum_eltwise_top_L2_b5_relu_0_split
I0817 16:29:01.772478 17472 net.cpp:100] Creating Layer L2_b5_sum_eltwise_top_L2_b5_relu_0_split
I0817 16:29:01.772485 17472 net.cpp:434] L2_b5_sum_eltwise_top_L2_b5_relu_0_split <- L2_b5_sum_eltwise_top
I0817 16:29:01.772491 17472 net.cpp:408] L2_b5_sum_eltwise_top_L2_b5_relu_0_split -> L2_b5_sum_eltwise_top_L2_b5_relu_0_split_0
I0817 16:29:01.772500 17472 net.cpp:408] L2_b5_sum_eltwise_top_L2_b5_relu_0_split -> L2_b5_sum_eltwise_top_L2_b5_relu_0_split_1
I0817 16:29:01.772547 17472 net.cpp:150] Setting up L2_b5_sum_eltwise_top_L2_b5_relu_0_split
I0817 16:29:01.772558 17472 net.cpp:157] Top shape: 125 32 16 16 (1024000)
I0817 16:29:01.772565 17472 net.cpp:157] Top shape: 125 32 16 16 (1024000)
I0817 16:29:01.772569 17472 net.cpp:165] Memory required for data: 1076737500
I0817 16:29:01.772574 17472 layer_factory.hpp:77] Creating layer L2_b6_cbr1_conv
I0817 16:29:01.772588 17472 net.cpp:100] Creating Layer L2_b6_cbr1_conv
I0817 16:29:01.772594 17472 net.cpp:434] L2_b6_cbr1_conv <- L2_b5_sum_eltwise_top_L2_b5_relu_0_split_0
I0817 16:29:01.772603 17472 net.cpp:408] L2_b6_cbr1_conv -> L2_b6_cbr1_conv_top
I0817 16:29:01.773071 17472 net.cpp:150] Setting up L2_b6_cbr1_conv
I0817 16:29:01.773084 17472 net.cpp:157] Top shape: 125 32 16 16 (1024000)
I0817 16:29:01.773089 17472 net.cpp:165] Memory required for data: 1080833500
I0817 16:29:01.773098 17472 layer_factory.hpp:77] Creating layer L2_b6_cbr1_bn
I0817 16:29:01.773110 17472 net.cpp:100] Creating Layer L2_b6_cbr1_bn
I0817 16:29:01.773118 17472 net.cpp:434] L2_b6_cbr1_bn <- L2_b6_cbr1_conv_top
I0817 16:29:01.773128 17472 net.cpp:408] L2_b6_cbr1_bn -> L2_b6_cbr1_bn_top
I0817 16:29:01.773370 17472 net.cpp:150] Setting up L2_b6_cbr1_bn
I0817 16:29:01.773385 17472 net.cpp:157] Top shape: 125 32 16 16 (1024000)
I0817 16:29:01.773389 17472 net.cpp:165] Memory required for data: 1084929500
I0817 16:29:01.773401 17472 layer_factory.hpp:77] Creating layer L2_b6_cbr1_scale
I0817 16:29:01.773409 17472 net.cpp:100] Creating Layer L2_b6_cbr1_scale
I0817 16:29:01.773416 17472 net.cpp:434] L2_b6_cbr1_scale <- L2_b6_cbr1_bn_top
I0817 16:29:01.773423 17472 net.cpp:395] L2_b6_cbr1_scale -> L2_b6_cbr1_bn_top (in-place)
I0817 16:29:01.773478 17472 layer_factory.hpp:77] Creating layer L2_b6_cbr1_scale
I0817 16:29:01.773622 17472 net.cpp:150] Setting up L2_b6_cbr1_scale
I0817 16:29:01.773634 17472 net.cpp:157] Top shape: 125 32 16 16 (1024000)
I0817 16:29:01.773639 17472 net.cpp:165] Memory required for data: 1089025500
I0817 16:29:01.773648 17472 layer_factory.hpp:77] Creating layer L2_b6_cbr1_relu
I0817 16:29:01.773656 17472 net.cpp:100] Creating Layer L2_b6_cbr1_relu
I0817 16:29:01.773663 17472 net.cpp:434] L2_b6_cbr1_relu <- L2_b6_cbr1_bn_top
I0817 16:29:01.773672 17472 net.cpp:395] L2_b6_cbr1_relu -> L2_b6_cbr1_bn_top (in-place)
I0817 16:29:01.773682 17472 net.cpp:150] Setting up L2_b6_cbr1_relu
I0817 16:29:01.773689 17472 net.cpp:157] Top shape: 125 32 16 16 (1024000)
I0817 16:29:01.773694 17472 net.cpp:165] Memory required for data: 1093121500
I0817 16:29:01.773699 17472 layer_factory.hpp:77] Creating layer L2_b6_cbr2_conv
I0817 16:29:01.773712 17472 net.cpp:100] Creating Layer L2_b6_cbr2_conv
I0817 16:29:01.773720 17472 net.cpp:434] L2_b6_cbr2_conv <- L2_b6_cbr1_bn_top
I0817 16:29:01.773727 17472 net.cpp:408] L2_b6_cbr2_conv -> L2_b6_cbr2_conv_top
I0817 16:29:01.774191 17472 net.cpp:150] Setting up L2_b6_cbr2_conv
I0817 16:29:01.774212 17472 net.cpp:157] Top shape: 125 32 16 16 (1024000)
I0817 16:29:01.774217 17472 net.cpp:165] Memory required for data: 1097217500
I0817 16:29:01.774226 17472 layer_factory.hpp:77] Creating layer L2_b6_cbr2_bn
I0817 16:29:01.774238 17472 net.cpp:100] Creating Layer L2_b6_cbr2_bn
I0817 16:29:01.774245 17472 net.cpp:434] L2_b6_cbr2_bn <- L2_b6_cbr2_conv_top
I0817 16:29:01.774252 17472 net.cpp:408] L2_b6_cbr2_bn -> L2_b6_cbr2_bn_top
I0817 16:29:01.774492 17472 net.cpp:150] Setting up L2_b6_cbr2_bn
I0817 16:29:01.774505 17472 net.cpp:157] Top shape: 125 32 16 16 (1024000)
I0817 16:29:01.774510 17472 net.cpp:165] Memory required for data: 1101313500
I0817 16:29:01.774520 17472 layer_factory.hpp:77] Creating layer L2_b6_cbr2_scale
I0817 16:29:01.774533 17472 net.cpp:100] Creating Layer L2_b6_cbr2_scale
I0817 16:29:01.774538 17472 net.cpp:434] L2_b6_cbr2_scale <- L2_b6_cbr2_bn_top
I0817 16:29:01.774546 17472 net.cpp:395] L2_b6_cbr2_scale -> L2_b6_cbr2_bn_top (in-place)
I0817 16:29:01.774600 17472 layer_factory.hpp:77] Creating layer L2_b6_cbr2_scale
I0817 16:29:01.774744 17472 net.cpp:150] Setting up L2_b6_cbr2_scale
I0817 16:29:01.774757 17472 net.cpp:157] Top shape: 125 32 16 16 (1024000)
I0817 16:29:01.774762 17472 net.cpp:165] Memory required for data: 1105409500
I0817 16:29:01.774771 17472 layer_factory.hpp:77] Creating layer L2_b6_sum_eltwise
I0817 16:29:01.774782 17472 net.cpp:100] Creating Layer L2_b6_sum_eltwise
I0817 16:29:01.774790 17472 net.cpp:434] L2_b6_sum_eltwise <- L2_b6_cbr2_bn_top
I0817 16:29:01.774796 17472 net.cpp:434] L2_b6_sum_eltwise <- L2_b5_sum_eltwise_top_L2_b5_relu_0_split_1
I0817 16:29:01.774812 17472 net.cpp:408] L2_b6_sum_eltwise -> L2_b6_sum_eltwise_top
I0817 16:29:01.774840 17472 net.cpp:150] Setting up L2_b6_sum_eltwise
I0817 16:29:01.774849 17472 net.cpp:157] Top shape: 125 32 16 16 (1024000)
I0817 16:29:01.774854 17472 net.cpp:165] Memory required for data: 1109505500
I0817 16:29:01.774859 17472 layer_factory.hpp:77] Creating layer L2_b6_relu
I0817 16:29:01.774866 17472 net.cpp:100] Creating Layer L2_b6_relu
I0817 16:29:01.774873 17472 net.cpp:434] L2_b6_relu <- L2_b6_sum_eltwise_top
I0817 16:29:01.774883 17472 net.cpp:395] L2_b6_relu -> L2_b6_sum_eltwise_top (in-place)
I0817 16:29:01.774893 17472 net.cpp:150] Setting up L2_b6_relu
I0817 16:29:01.774899 17472 net.cpp:157] Top shape: 125 32 16 16 (1024000)
I0817 16:29:01.774904 17472 net.cpp:165] Memory required for data: 1113601500
I0817 16:29:01.774909 17472 layer_factory.hpp:77] Creating layer L2_b6_sum_eltwise_top_L2_b6_relu_0_split
I0817 16:29:01.774915 17472 net.cpp:100] Creating Layer L2_b6_sum_eltwise_top_L2_b6_relu_0_split
I0817 16:29:01.774920 17472 net.cpp:434] L2_b6_sum_eltwise_top_L2_b6_relu_0_split <- L2_b6_sum_eltwise_top
I0817 16:29:01.774927 17472 net.cpp:408] L2_b6_sum_eltwise_top_L2_b6_relu_0_split -> L2_b6_sum_eltwise_top_L2_b6_relu_0_split_0
I0817 16:29:01.774937 17472 net.cpp:408] L2_b6_sum_eltwise_top_L2_b6_relu_0_split -> L2_b6_sum_eltwise_top_L2_b6_relu_0_split_1
I0817 16:29:01.774986 17472 net.cpp:150] Setting up L2_b6_sum_eltwise_top_L2_b6_relu_0_split
I0817 16:29:01.774997 17472 net.cpp:157] Top shape: 125 32 16 16 (1024000)
I0817 16:29:01.775004 17472 net.cpp:157] Top shape: 125 32 16 16 (1024000)
I0817 16:29:01.775009 17472 net.cpp:165] Memory required for data: 1121793500
I0817 16:29:01.775014 17472 layer_factory.hpp:77] Creating layer L2_b7_cbr1_conv
I0817 16:29:01.775027 17472 net.cpp:100] Creating Layer L2_b7_cbr1_conv
I0817 16:29:01.775034 17472 net.cpp:434] L2_b7_cbr1_conv <- L2_b6_sum_eltwise_top_L2_b6_relu_0_split_0
I0817 16:29:01.775043 17472 net.cpp:408] L2_b7_cbr1_conv -> L2_b7_cbr1_conv_top
I0817 16:29:01.775501 17472 net.cpp:150] Setting up L2_b7_cbr1_conv
I0817 16:29:01.775514 17472 net.cpp:157] Top shape: 125 32 16 16 (1024000)
I0817 16:29:01.775519 17472 net.cpp:165] Memory required for data: 1125889500
I0817 16:29:01.775528 17472 layer_factory.hpp:77] Creating layer L2_b7_cbr1_bn
I0817 16:29:01.775540 17472 net.cpp:100] Creating Layer L2_b7_cbr1_bn
I0817 16:29:01.775553 17472 net.cpp:434] L2_b7_cbr1_bn <- L2_b7_cbr1_conv_top
I0817 16:29:01.775562 17472 net.cpp:408] L2_b7_cbr1_bn -> L2_b7_cbr1_bn_top
I0817 16:29:01.775813 17472 net.cpp:150] Setting up L2_b7_cbr1_bn
I0817 16:29:01.775830 17472 net.cpp:157] Top shape: 125 32 16 16 (1024000)
I0817 16:29:01.775835 17472 net.cpp:165] Memory required for data: 1129985500
I0817 16:29:01.775846 17472 layer_factory.hpp:77] Creating layer L2_b7_cbr1_scale
I0817 16:29:01.775854 17472 net.cpp:100] Creating Layer L2_b7_cbr1_scale
I0817 16:29:01.775861 17472 net.cpp:434] L2_b7_cbr1_scale <- L2_b7_cbr1_bn_top
I0817 16:29:01.775868 17472 net.cpp:395] L2_b7_cbr1_scale -> L2_b7_cbr1_bn_top (in-place)
I0817 16:29:01.775923 17472 layer_factory.hpp:77] Creating layer L2_b7_cbr1_scale
I0817 16:29:01.776072 17472 net.cpp:150] Setting up L2_b7_cbr1_scale
I0817 16:29:01.776085 17472 net.cpp:157] Top shape: 125 32 16 16 (1024000)
I0817 16:29:01.776089 17472 net.cpp:165] Memory required for data: 1134081500
I0817 16:29:01.776099 17472 layer_factory.hpp:77] Creating layer L2_b7_cbr1_relu
I0817 16:29:01.776108 17472 net.cpp:100] Creating Layer L2_b7_cbr1_relu
I0817 16:29:01.776113 17472 net.cpp:434] L2_b7_cbr1_relu <- L2_b7_cbr1_bn_top
I0817 16:29:01.776124 17472 net.cpp:395] L2_b7_cbr1_relu -> L2_b7_cbr1_bn_top (in-place)
I0817 16:29:01.776134 17472 net.cpp:150] Setting up L2_b7_cbr1_relu
I0817 16:29:01.776140 17472 net.cpp:157] Top shape: 125 32 16 16 (1024000)
I0817 16:29:01.776144 17472 net.cpp:165] Memory required for data: 1138177500
I0817 16:29:01.776149 17472 layer_factory.hpp:77] Creating layer L2_b7_cbr2_conv
I0817 16:29:01.776162 17472 net.cpp:100] Creating Layer L2_b7_cbr2_conv
I0817 16:29:01.776168 17472 net.cpp:434] L2_b7_cbr2_conv <- L2_b7_cbr1_bn_top
I0817 16:29:01.776177 17472 net.cpp:408] L2_b7_cbr2_conv -> L2_b7_cbr2_conv_top
I0817 16:29:01.776634 17472 net.cpp:150] Setting up L2_b7_cbr2_conv
I0817 16:29:01.776648 17472 net.cpp:157] Top shape: 125 32 16 16 (1024000)
I0817 16:29:01.776654 17472 net.cpp:165] Memory required for data: 1142273500
I0817 16:29:01.776661 17472 layer_factory.hpp:77] Creating layer L2_b7_cbr2_bn
I0817 16:29:01.776670 17472 net.cpp:100] Creating Layer L2_b7_cbr2_bn
I0817 16:29:01.776676 17472 net.cpp:434] L2_b7_cbr2_bn <- L2_b7_cbr2_conv_top
I0817 16:29:01.776687 17472 net.cpp:408] L2_b7_cbr2_bn -> L2_b7_cbr2_bn_top
I0817 16:29:01.776945 17472 net.cpp:150] Setting up L2_b7_cbr2_bn
I0817 16:29:01.776959 17472 net.cpp:157] Top shape: 125 32 16 16 (1024000)
I0817 16:29:01.776964 17472 net.cpp:165] Memory required for data: 1146369500
I0817 16:29:01.776974 17472 layer_factory.hpp:77] Creating layer L2_b7_cbr2_scale
I0817 16:29:01.776986 17472 net.cpp:100] Creating Layer L2_b7_cbr2_scale
I0817 16:29:01.776993 17472 net.cpp:434] L2_b7_cbr2_scale <- L2_b7_cbr2_bn_top
I0817 16:29:01.777001 17472 net.cpp:395] L2_b7_cbr2_scale -> L2_b7_cbr2_bn_top (in-place)
I0817 16:29:01.777056 17472 layer_factory.hpp:77] Creating layer L2_b7_cbr2_scale
I0817 16:29:01.777202 17472 net.cpp:150] Setting up L2_b7_cbr2_scale
I0817 16:29:01.777215 17472 net.cpp:157] Top shape: 125 32 16 16 (1024000)
I0817 16:29:01.777220 17472 net.cpp:165] Memory required for data: 1150465500
I0817 16:29:01.777230 17472 layer_factory.hpp:77] Creating layer L2_b7_sum_eltwise
I0817 16:29:01.777241 17472 net.cpp:100] Creating Layer L2_b7_sum_eltwise
I0817 16:29:01.777248 17472 net.cpp:434] L2_b7_sum_eltwise <- L2_b7_cbr2_bn_top
I0817 16:29:01.777256 17472 net.cpp:434] L2_b7_sum_eltwise <- L2_b6_sum_eltwise_top_L2_b6_relu_0_split_1
I0817 16:29:01.777266 17472 net.cpp:408] L2_b7_sum_eltwise -> L2_b7_sum_eltwise_top
I0817 16:29:01.777292 17472 net.cpp:150] Setting up L2_b7_sum_eltwise
I0817 16:29:01.777302 17472 net.cpp:157] Top shape: 125 32 16 16 (1024000)
I0817 16:29:01.777307 17472 net.cpp:165] Memory required for data: 1154561500
I0817 16:29:01.777312 17472 layer_factory.hpp:77] Creating layer L2_b7_relu
I0817 16:29:01.777319 17472 net.cpp:100] Creating Layer L2_b7_relu
I0817 16:29:01.777324 17472 net.cpp:434] L2_b7_relu <- L2_b7_sum_eltwise_top
I0817 16:29:01.777341 17472 net.cpp:395] L2_b7_relu -> L2_b7_sum_eltwise_top (in-place)
I0817 16:29:01.777351 17472 net.cpp:150] Setting up L2_b7_relu
I0817 16:29:01.777359 17472 net.cpp:157] Top shape: 125 32 16 16 (1024000)
I0817 16:29:01.777364 17472 net.cpp:165] Memory required for data: 1158657500
I0817 16:29:01.777367 17472 layer_factory.hpp:77] Creating layer L2_b7_sum_eltwise_top_L2_b7_relu_0_split
I0817 16:29:01.777374 17472 net.cpp:100] Creating Layer L2_b7_sum_eltwise_top_L2_b7_relu_0_split
I0817 16:29:01.777379 17472 net.cpp:434] L2_b7_sum_eltwise_top_L2_b7_relu_0_split <- L2_b7_sum_eltwise_top
I0817 16:29:01.777386 17472 net.cpp:408] L2_b7_sum_eltwise_top_L2_b7_relu_0_split -> L2_b7_sum_eltwise_top_L2_b7_relu_0_split_0
I0817 16:29:01.777396 17472 net.cpp:408] L2_b7_sum_eltwise_top_L2_b7_relu_0_split -> L2_b7_sum_eltwise_top_L2_b7_relu_0_split_1
I0817 16:29:01.777443 17472 net.cpp:150] Setting up L2_b7_sum_eltwise_top_L2_b7_relu_0_split
I0817 16:29:01.777454 17472 net.cpp:157] Top shape: 125 32 16 16 (1024000)
I0817 16:29:01.777462 17472 net.cpp:157] Top shape: 125 32 16 16 (1024000)
I0817 16:29:01.777467 17472 net.cpp:165] Memory required for data: 1166849500
I0817 16:29:01.777472 17472 layer_factory.hpp:77] Creating layer L2_b8_cbr1_conv
I0817 16:29:01.777482 17472 net.cpp:100] Creating Layer L2_b8_cbr1_conv
I0817 16:29:01.777488 17472 net.cpp:434] L2_b8_cbr1_conv <- L2_b7_sum_eltwise_top_L2_b7_relu_0_split_0
I0817 16:29:01.777500 17472 net.cpp:408] L2_b8_cbr1_conv -> L2_b8_cbr1_conv_top
I0817 16:29:01.777971 17472 net.cpp:150] Setting up L2_b8_cbr1_conv
I0817 16:29:01.777984 17472 net.cpp:157] Top shape: 125 32 16 16 (1024000)
I0817 16:29:01.777989 17472 net.cpp:165] Memory required for data: 1170945500
I0817 16:29:01.777998 17472 layer_factory.hpp:77] Creating layer L2_b8_cbr1_bn
I0817 16:29:01.778010 17472 net.cpp:100] Creating Layer L2_b8_cbr1_bn
I0817 16:29:01.778017 17472 net.cpp:434] L2_b8_cbr1_bn <- L2_b8_cbr1_conv_top
I0817 16:29:01.778025 17472 net.cpp:408] L2_b8_cbr1_bn -> L2_b8_cbr1_bn_top
I0817 16:29:01.778272 17472 net.cpp:150] Setting up L2_b8_cbr1_bn
I0817 16:29:01.778285 17472 net.cpp:157] Top shape: 125 32 16 16 (1024000)
I0817 16:29:01.778290 17472 net.cpp:165] Memory required for data: 1175041500
I0817 16:29:01.778301 17472 layer_factory.hpp:77] Creating layer L2_b8_cbr1_scale
I0817 16:29:01.778312 17472 net.cpp:100] Creating Layer L2_b8_cbr1_scale
I0817 16:29:01.778318 17472 net.cpp:434] L2_b8_cbr1_scale <- L2_b8_cbr1_bn_top
I0817 16:29:01.778326 17472 net.cpp:395] L2_b8_cbr1_scale -> L2_b8_cbr1_bn_top (in-place)
I0817 16:29:01.778380 17472 layer_factory.hpp:77] Creating layer L2_b8_cbr1_scale
I0817 16:29:01.778533 17472 net.cpp:150] Setting up L2_b8_cbr1_scale
I0817 16:29:01.778545 17472 net.cpp:157] Top shape: 125 32 16 16 (1024000)
I0817 16:29:01.778550 17472 net.cpp:165] Memory required for data: 1179137500
I0817 16:29:01.778560 17472 layer_factory.hpp:77] Creating layer L2_b8_cbr1_relu
I0817 16:29:01.778571 17472 net.cpp:100] Creating Layer L2_b8_cbr1_relu
I0817 16:29:01.778578 17472 net.cpp:434] L2_b8_cbr1_relu <- L2_b8_cbr1_bn_top
I0817 16:29:01.778587 17472 net.cpp:395] L2_b8_cbr1_relu -> L2_b8_cbr1_bn_top (in-place)
I0817 16:29:01.778597 17472 net.cpp:150] Setting up L2_b8_cbr1_relu
I0817 16:29:01.778604 17472 net.cpp:157] Top shape: 125 32 16 16 (1024000)
I0817 16:29:01.778609 17472 net.cpp:165] Memory required for data: 1183233500
I0817 16:29:01.778614 17472 layer_factory.hpp:77] Creating layer L2_b8_cbr2_conv
I0817 16:29:01.778625 17472 net.cpp:100] Creating Layer L2_b8_cbr2_conv
I0817 16:29:01.778630 17472 net.cpp:434] L2_b8_cbr2_conv <- L2_b8_cbr1_bn_top
I0817 16:29:01.778640 17472 net.cpp:408] L2_b8_cbr2_conv -> L2_b8_cbr2_conv_top
I0817 16:29:01.779105 17472 net.cpp:150] Setting up L2_b8_cbr2_conv
I0817 16:29:01.779119 17472 net.cpp:157] Top shape: 125 32 16 16 (1024000)
I0817 16:29:01.779124 17472 net.cpp:165] Memory required for data: 1187329500
I0817 16:29:01.779134 17472 layer_factory.hpp:77] Creating layer L2_b8_cbr2_bn
I0817 16:29:01.779142 17472 net.cpp:100] Creating Layer L2_b8_cbr2_bn
I0817 16:29:01.779157 17472 net.cpp:434] L2_b8_cbr2_bn <- L2_b8_cbr2_conv_top
I0817 16:29:01.779170 17472 net.cpp:408] L2_b8_cbr2_bn -> L2_b8_cbr2_bn_top
I0817 16:29:01.779419 17472 net.cpp:150] Setting up L2_b8_cbr2_bn
I0817 16:29:01.779433 17472 net.cpp:157] Top shape: 125 32 16 16 (1024000)
I0817 16:29:01.779438 17472 net.cpp:165] Memory required for data: 1191425500
I0817 16:29:01.779448 17472 layer_factory.hpp:77] Creating layer L2_b8_cbr2_scale
I0817 16:29:01.779459 17472 net.cpp:100] Creating Layer L2_b8_cbr2_scale
I0817 16:29:01.779466 17472 net.cpp:434] L2_b8_cbr2_scale <- L2_b8_cbr2_bn_top
I0817 16:29:01.779474 17472 net.cpp:395] L2_b8_cbr2_scale -> L2_b8_cbr2_bn_top (in-place)
I0817 16:29:01.779528 17472 layer_factory.hpp:77] Creating layer L2_b8_cbr2_scale
I0817 16:29:01.779675 17472 net.cpp:150] Setting up L2_b8_cbr2_scale
I0817 16:29:01.779688 17472 net.cpp:157] Top shape: 125 32 16 16 (1024000)
I0817 16:29:01.779693 17472 net.cpp:165] Memory required for data: 1195521500
I0817 16:29:01.779702 17472 layer_factory.hpp:77] Creating layer L2_b8_sum_eltwise
I0817 16:29:01.779714 17472 net.cpp:100] Creating Layer L2_b8_sum_eltwise
I0817 16:29:01.779721 17472 net.cpp:434] L2_b8_sum_eltwise <- L2_b8_cbr2_bn_top
I0817 16:29:01.779727 17472 net.cpp:434] L2_b8_sum_eltwise <- L2_b7_sum_eltwise_top_L2_b7_relu_0_split_1
I0817 16:29:01.779736 17472 net.cpp:408] L2_b8_sum_eltwise -> L2_b8_sum_eltwise_top
I0817 16:29:01.779765 17472 net.cpp:150] Setting up L2_b8_sum_eltwise
I0817 16:29:01.779774 17472 net.cpp:157] Top shape: 125 32 16 16 (1024000)
I0817 16:29:01.779779 17472 net.cpp:165] Memory required for data: 1199617500
I0817 16:29:01.779784 17472 layer_factory.hpp:77] Creating layer L2_b8_relu
I0817 16:29:01.779791 17472 net.cpp:100] Creating Layer L2_b8_relu
I0817 16:29:01.779798 17472 net.cpp:434] L2_b8_relu <- L2_b8_sum_eltwise_top
I0817 16:29:01.779814 17472 net.cpp:395] L2_b8_relu -> L2_b8_sum_eltwise_top (in-place)
I0817 16:29:01.779825 17472 net.cpp:150] Setting up L2_b8_relu
I0817 16:29:01.779832 17472 net.cpp:157] Top shape: 125 32 16 16 (1024000)
I0817 16:29:01.779836 17472 net.cpp:165] Memory required for data: 1203713500
I0817 16:29:01.779841 17472 layer_factory.hpp:77] Creating layer L2_b8_sum_eltwise_top_L2_b8_relu_0_split
I0817 16:29:01.779848 17472 net.cpp:100] Creating Layer L2_b8_sum_eltwise_top_L2_b8_relu_0_split
I0817 16:29:01.779853 17472 net.cpp:434] L2_b8_sum_eltwise_top_L2_b8_relu_0_split <- L2_b8_sum_eltwise_top
I0817 16:29:01.779860 17472 net.cpp:408] L2_b8_sum_eltwise_top_L2_b8_relu_0_split -> L2_b8_sum_eltwise_top_L2_b8_relu_0_split_0
I0817 16:29:01.779883 17472 net.cpp:408] L2_b8_sum_eltwise_top_L2_b8_relu_0_split -> L2_b8_sum_eltwise_top_L2_b8_relu_0_split_1
I0817 16:29:01.779930 17472 net.cpp:150] Setting up L2_b8_sum_eltwise_top_L2_b8_relu_0_split
I0817 16:29:01.779945 17472 net.cpp:157] Top shape: 125 32 16 16 (1024000)
I0817 16:29:01.779953 17472 net.cpp:157] Top shape: 125 32 16 16 (1024000)
I0817 16:29:01.779958 17472 net.cpp:165] Memory required for data: 1211905500
I0817 16:29:01.779963 17472 layer_factory.hpp:77] Creating layer L2_b9_cbr1_conv
I0817 16:29:01.779974 17472 net.cpp:100] Creating Layer L2_b9_cbr1_conv
I0817 16:29:01.779980 17472 net.cpp:434] L2_b9_cbr1_conv <- L2_b8_sum_eltwise_top_L2_b8_relu_0_split_0
I0817 16:29:01.779995 17472 net.cpp:408] L2_b9_cbr1_conv -> L2_b9_cbr1_conv_top
I0817 16:29:01.780455 17472 net.cpp:150] Setting up L2_b9_cbr1_conv
I0817 16:29:01.780469 17472 net.cpp:157] Top shape: 125 32 16 16 (1024000)
I0817 16:29:01.780473 17472 net.cpp:165] Memory required for data: 1216001500
I0817 16:29:01.780483 17472 layer_factory.hpp:77] Creating layer L2_b9_cbr1_bn
I0817 16:29:01.780493 17472 net.cpp:100] Creating Layer L2_b9_cbr1_bn
I0817 16:29:01.780498 17472 net.cpp:434] L2_b9_cbr1_bn <- L2_b9_cbr1_conv_top
I0817 16:29:01.780509 17472 net.cpp:408] L2_b9_cbr1_bn -> L2_b9_cbr1_bn_top
I0817 16:29:01.780756 17472 net.cpp:150] Setting up L2_b9_cbr1_bn
I0817 16:29:01.780768 17472 net.cpp:157] Top shape: 125 32 16 16 (1024000)
I0817 16:29:01.780781 17472 net.cpp:165] Memory required for data: 1220097500
I0817 16:29:01.780792 17472 layer_factory.hpp:77] Creating layer L2_b9_cbr1_scale
I0817 16:29:01.780809 17472 net.cpp:100] Creating Layer L2_b9_cbr1_scale
I0817 16:29:01.780817 17472 net.cpp:434] L2_b9_cbr1_scale <- L2_b9_cbr1_bn_top
I0817 16:29:01.780825 17472 net.cpp:395] L2_b9_cbr1_scale -> L2_b9_cbr1_bn_top (in-place)
I0817 16:29:01.780881 17472 layer_factory.hpp:77] Creating layer L2_b9_cbr1_scale
I0817 16:29:01.781033 17472 net.cpp:150] Setting up L2_b9_cbr1_scale
I0817 16:29:01.781045 17472 net.cpp:157] Top shape: 125 32 16 16 (1024000)
I0817 16:29:01.781050 17472 net.cpp:165] Memory required for data: 1224193500
I0817 16:29:01.781060 17472 layer_factory.hpp:77] Creating layer L2_b9_cbr1_relu
I0817 16:29:01.781070 17472 net.cpp:100] Creating Layer L2_b9_cbr1_relu
I0817 16:29:01.781077 17472 net.cpp:434] L2_b9_cbr1_relu <- L2_b9_cbr1_bn_top
I0817 16:29:01.781085 17472 net.cpp:395] L2_b9_cbr1_relu -> L2_b9_cbr1_bn_top (in-place)
I0817 16:29:01.781095 17472 net.cpp:150] Setting up L2_b9_cbr1_relu
I0817 16:29:01.781101 17472 net.cpp:157] Top shape: 125 32 16 16 (1024000)
I0817 16:29:01.781106 17472 net.cpp:165] Memory required for data: 1228289500
I0817 16:29:01.781111 17472 layer_factory.hpp:77] Creating layer L2_b9_cbr2_conv
I0817 16:29:01.781124 17472 net.cpp:100] Creating Layer L2_b9_cbr2_conv
I0817 16:29:01.781131 17472 net.cpp:434] L2_b9_cbr2_conv <- L2_b9_cbr1_bn_top
I0817 16:29:01.781141 17472 net.cpp:408] L2_b9_cbr2_conv -> L2_b9_cbr2_conv_top
I0817 16:29:01.781595 17472 net.cpp:150] Setting up L2_b9_cbr2_conv
I0817 16:29:01.781608 17472 net.cpp:157] Top shape: 125 32 16 16 (1024000)
I0817 16:29:01.781613 17472 net.cpp:165] Memory required for data: 1232385500
I0817 16:29:01.781622 17472 layer_factory.hpp:77] Creating layer L2_b9_cbr2_bn
I0817 16:29:01.781631 17472 net.cpp:100] Creating Layer L2_b9_cbr2_bn
I0817 16:29:01.781637 17472 net.cpp:434] L2_b9_cbr2_bn <- L2_b9_cbr2_conv_top
I0817 16:29:01.781646 17472 net.cpp:408] L2_b9_cbr2_bn -> L2_b9_cbr2_bn_top
I0817 16:29:01.781903 17472 net.cpp:150] Setting up L2_b9_cbr2_bn
I0817 16:29:01.781915 17472 net.cpp:157] Top shape: 125 32 16 16 (1024000)
I0817 16:29:01.781920 17472 net.cpp:165] Memory required for data: 1236481500
I0817 16:29:01.781965 17472 layer_factory.hpp:77] Creating layer L2_b9_cbr2_scale
I0817 16:29:01.781980 17472 net.cpp:100] Creating Layer L2_b9_cbr2_scale
I0817 16:29:01.781987 17472 net.cpp:434] L2_b9_cbr2_scale <- L2_b9_cbr2_bn_top
I0817 16:29:01.781996 17472 net.cpp:395] L2_b9_cbr2_scale -> L2_b9_cbr2_bn_top (in-place)
I0817 16:29:01.782055 17472 layer_factory.hpp:77] Creating layer L2_b9_cbr2_scale
I0817 16:29:01.782200 17472 net.cpp:150] Setting up L2_b9_cbr2_scale
I0817 16:29:01.782213 17472 net.cpp:157] Top shape: 125 32 16 16 (1024000)
I0817 16:29:01.782218 17472 net.cpp:165] Memory required for data: 1240577500
I0817 16:29:01.782227 17472 layer_factory.hpp:77] Creating layer L2_b9_sum_eltwise
I0817 16:29:01.782241 17472 net.cpp:100] Creating Layer L2_b9_sum_eltwise
I0817 16:29:01.782248 17472 net.cpp:434] L2_b9_sum_eltwise <- L2_b9_cbr2_bn_top
I0817 16:29:01.782255 17472 net.cpp:434] L2_b9_sum_eltwise <- L2_b8_sum_eltwise_top_L2_b8_relu_0_split_1
I0817 16:29:01.782263 17472 net.cpp:408] L2_b9_sum_eltwise -> L2_b9_sum_eltwise_top
I0817 16:29:01.782290 17472 net.cpp:150] Setting up L2_b9_sum_eltwise
I0817 16:29:01.782299 17472 net.cpp:157] Top shape: 125 32 16 16 (1024000)
I0817 16:29:01.782305 17472 net.cpp:165] Memory required for data: 1244673500
I0817 16:29:01.782310 17472 layer_factory.hpp:77] Creating layer L2_b9_relu
I0817 16:29:01.782320 17472 net.cpp:100] Creating Layer L2_b9_relu
I0817 16:29:01.782326 17472 net.cpp:434] L2_b9_relu <- L2_b9_sum_eltwise_top
I0817 16:29:01.782333 17472 net.cpp:395] L2_b9_relu -> L2_b9_sum_eltwise_top (in-place)
I0817 16:29:01.782346 17472 net.cpp:150] Setting up L2_b9_relu
I0817 16:29:01.782352 17472 net.cpp:157] Top shape: 125 32 16 16 (1024000)
I0817 16:29:01.782357 17472 net.cpp:165] Memory required for data: 1248769500
I0817 16:29:01.782368 17472 layer_factory.hpp:77] Creating layer L2_b9_sum_eltwise_top_L2_b9_relu_0_split
I0817 16:29:01.782377 17472 net.cpp:100] Creating Layer L2_b9_sum_eltwise_top_L2_b9_relu_0_split
I0817 16:29:01.782382 17472 net.cpp:434] L2_b9_sum_eltwise_top_L2_b9_relu_0_split <- L2_b9_sum_eltwise_top
I0817 16:29:01.782389 17472 net.cpp:408] L2_b9_sum_eltwise_top_L2_b9_relu_0_split -> L2_b9_sum_eltwise_top_L2_b9_relu_0_split_0
I0817 16:29:01.782399 17472 net.cpp:408] L2_b9_sum_eltwise_top_L2_b9_relu_0_split -> L2_b9_sum_eltwise_top_L2_b9_relu_0_split_1
I0817 16:29:01.782447 17472 net.cpp:150] Setting up L2_b9_sum_eltwise_top_L2_b9_relu_0_split
I0817 16:29:01.782459 17472 net.cpp:157] Top shape: 125 32 16 16 (1024000)
I0817 16:29:01.782466 17472 net.cpp:157] Top shape: 125 32 16 16 (1024000)
I0817 16:29:01.782470 17472 net.cpp:165] Memory required for data: 1256961500
I0817 16:29:01.782475 17472 layer_factory.hpp:77] Creating layer L3_b1_cbr1_conv
I0817 16:29:01.782490 17472 net.cpp:100] Creating Layer L3_b1_cbr1_conv
I0817 16:29:01.782495 17472 net.cpp:434] L3_b1_cbr1_conv <- L2_b9_sum_eltwise_top_L2_b9_relu_0_split_0
I0817 16:29:01.782505 17472 net.cpp:408] L3_b1_cbr1_conv -> L3_b1_cbr1_conv_top
I0817 16:29:01.782984 17472 net.cpp:150] Setting up L3_b1_cbr1_conv
I0817 16:29:01.782999 17472 net.cpp:157] Top shape: 125 32 8 8 (256000)
I0817 16:29:01.783004 17472 net.cpp:165] Memory required for data: 1257985500
I0817 16:29:01.783013 17472 layer_factory.hpp:77] Creating layer L3_b1_cbr1_bn
I0817 16:29:01.783025 17472 net.cpp:100] Creating Layer L3_b1_cbr1_bn
I0817 16:29:01.783031 17472 net.cpp:434] L3_b1_cbr1_bn <- L3_b1_cbr1_conv_top
I0817 16:29:01.783042 17472 net.cpp:408] L3_b1_cbr1_bn -> L3_b1_cbr1_bn_top
I0817 16:29:01.783301 17472 net.cpp:150] Setting up L3_b1_cbr1_bn
I0817 16:29:01.783313 17472 net.cpp:157] Top shape: 125 32 8 8 (256000)
I0817 16:29:01.783318 17472 net.cpp:165] Memory required for data: 1259009500
I0817 16:29:01.783329 17472 layer_factory.hpp:77] Creating layer L3_b1_cbr1_scale
I0817 16:29:01.783339 17472 net.cpp:100] Creating Layer L3_b1_cbr1_scale
I0817 16:29:01.783344 17472 net.cpp:434] L3_b1_cbr1_scale <- L3_b1_cbr1_bn_top
I0817 16:29:01.783355 17472 net.cpp:395] L3_b1_cbr1_scale -> L3_b1_cbr1_bn_top (in-place)
I0817 16:29:01.783413 17472 layer_factory.hpp:77] Creating layer L3_b1_cbr1_scale
I0817 16:29:01.783563 17472 net.cpp:150] Setting up L3_b1_cbr1_scale
I0817 16:29:01.783576 17472 net.cpp:157] Top shape: 125 32 8 8 (256000)
I0817 16:29:01.783581 17472 net.cpp:165] Memory required for data: 1260033500
I0817 16:29:01.783591 17472 layer_factory.hpp:77] Creating layer L3_b1_cbr1_relu
I0817 16:29:01.783598 17472 net.cpp:100] Creating Layer L3_b1_cbr1_relu
I0817 16:29:01.783604 17472 net.cpp:434] L3_b1_cbr1_relu <- L3_b1_cbr1_bn_top
I0817 16:29:01.783615 17472 net.cpp:395] L3_b1_cbr1_relu -> L3_b1_cbr1_bn_top (in-place)
I0817 16:29:01.783625 17472 net.cpp:150] Setting up L3_b1_cbr1_relu
I0817 16:29:01.783632 17472 net.cpp:157] Top shape: 125 32 8 8 (256000)
I0817 16:29:01.783637 17472 net.cpp:165] Memory required for data: 1261057500
I0817 16:29:01.783641 17472 layer_factory.hpp:77] Creating layer L3_b1_cbr2_conv
I0817 16:29:01.783655 17472 net.cpp:100] Creating Layer L3_b1_cbr2_conv
I0817 16:29:01.783661 17472 net.cpp:434] L3_b1_cbr2_conv <- L3_b1_cbr1_bn_top
I0817 16:29:01.783669 17472 net.cpp:408] L3_b1_cbr2_conv -> L3_b1_cbr2_conv_top
I0817 16:29:01.784145 17472 net.cpp:150] Setting up L3_b1_cbr2_conv
I0817 16:29:01.784162 17472 net.cpp:157] Top shape: 125 32 8 8 (256000)
I0817 16:29:01.784168 17472 net.cpp:165] Memory required for data: 1262081500
I0817 16:29:01.784176 17472 layer_factory.hpp:77] Creating layer L3_b1_cbr2_bn
I0817 16:29:01.784186 17472 net.cpp:100] Creating Layer L3_b1_cbr2_bn
I0817 16:29:01.784193 17472 net.cpp:434] L3_b1_cbr2_bn <- L3_b1_cbr2_conv_top
I0817 16:29:01.784204 17472 net.cpp:408] L3_b1_cbr2_bn -> L3_b1_cbr2_bn_top
I0817 16:29:01.784459 17472 net.cpp:150] Setting up L3_b1_cbr2_bn
I0817 16:29:01.784472 17472 net.cpp:157] Top shape: 125 32 8 8 (256000)
I0817 16:29:01.784483 17472 net.cpp:165] Memory required for data: 1263105500
I0817 16:29:01.784495 17472 layer_factory.hpp:77] Creating layer L3_b1_cbr2_scale
I0817 16:29:01.784507 17472 net.cpp:100] Creating Layer L3_b1_cbr2_scale
I0817 16:29:01.784513 17472 net.cpp:434] L3_b1_cbr2_scale <- L3_b1_cbr2_bn_top
I0817 16:29:01.784521 17472 net.cpp:395] L3_b1_cbr2_scale -> L3_b1_cbr2_bn_top (in-place)
I0817 16:29:01.784576 17472 layer_factory.hpp:77] Creating layer L3_b1_cbr2_scale
I0817 16:29:01.784734 17472 net.cpp:150] Setting up L3_b1_cbr2_scale
I0817 16:29:01.784746 17472 net.cpp:157] Top shape: 125 32 8 8 (256000)
I0817 16:29:01.784751 17472 net.cpp:165] Memory required for data: 1264129500
I0817 16:29:01.784760 17472 layer_factory.hpp:77] Creating layer L3_b1_pool
I0817 16:29:01.784770 17472 net.cpp:100] Creating Layer L3_b1_pool
I0817 16:29:01.784776 17472 net.cpp:434] L3_b1_pool <- L2_b9_sum_eltwise_top_L2_b9_relu_0_split_1
I0817 16:29:01.784787 17472 net.cpp:408] L3_b1_pool -> L3_b1_pool
I0817 16:29:01.784827 17472 net.cpp:150] Setting up L3_b1_pool
I0817 16:29:01.784838 17472 net.cpp:157] Top shape: 125 32 8 8 (256000)
I0817 16:29:01.784842 17472 net.cpp:165] Memory required for data: 1265153500
I0817 16:29:01.784848 17472 layer_factory.hpp:77] Creating layer L3_b1_sum_eltwise
I0817 16:29:01.784862 17472 net.cpp:100] Creating Layer L3_b1_sum_eltwise
I0817 16:29:01.784868 17472 net.cpp:434] L3_b1_sum_eltwise <- L3_b1_cbr2_bn_top
I0817 16:29:01.784875 17472 net.cpp:434] L3_b1_sum_eltwise <- L3_b1_pool
I0817 16:29:01.784883 17472 net.cpp:408] L3_b1_sum_eltwise -> L3_b1_sum_eltwise_top
I0817 16:29:01.784914 17472 net.cpp:150] Setting up L3_b1_sum_eltwise
I0817 16:29:01.784924 17472 net.cpp:157] Top shape: 125 32 8 8 (256000)
I0817 16:29:01.784929 17472 net.cpp:165] Memory required for data: 1266177500
I0817 16:29:01.784934 17472 layer_factory.hpp:77] Creating layer L3_b1_relu
I0817 16:29:01.784945 17472 net.cpp:100] Creating Layer L3_b1_relu
I0817 16:29:01.784950 17472 net.cpp:434] L3_b1_relu <- L3_b1_sum_eltwise_top
I0817 16:29:01.784957 17472 net.cpp:395] L3_b1_relu -> L3_b1_sum_eltwise_top (in-place)
I0817 16:29:01.784966 17472 net.cpp:150] Setting up L3_b1_relu
I0817 16:29:01.784973 17472 net.cpp:157] Top shape: 125 32 8 8 (256000)
I0817 16:29:01.784978 17472 net.cpp:165] Memory required for data: 1267201500
I0817 16:29:01.784982 17472 layer_factory.hpp:77] Creating layer L3_b1_zeros
I0817 16:29:01.784991 17472 net.cpp:100] Creating Layer L3_b1_zeros
I0817 16:29:01.784998 17472 net.cpp:408] L3_b1_zeros -> L3_b1_zeros
I0817 16:29:01.786223 17472 net.cpp:150] Setting up L3_b1_zeros
I0817 16:29:01.786243 17472 net.cpp:157] Top shape: 125 32 8 8 (256000)
I0817 16:29:01.786249 17472 net.cpp:165] Memory required for data: 1268225500
I0817 16:29:01.786255 17472 layer_factory.hpp:77] Creating layer L3_b1_concat0
I0817 16:29:01.786264 17472 net.cpp:100] Creating Layer L3_b1_concat0
I0817 16:29:01.786270 17472 net.cpp:434] L3_b1_concat0 <- L3_b1_sum_eltwise_top
I0817 16:29:01.786278 17472 net.cpp:434] L3_b1_concat0 <- L3_b1_zeros
I0817 16:29:01.786288 17472 net.cpp:408] L3_b1_concat0 -> L3_b1_concat0
I0817 16:29:01.786329 17472 net.cpp:150] Setting up L3_b1_concat0
I0817 16:29:01.786339 17472 net.cpp:157] Top shape: 125 64 8 8 (512000)
I0817 16:29:01.786345 17472 net.cpp:165] Memory required for data: 1270273500
I0817 16:29:01.786351 17472 layer_factory.hpp:77] Creating layer L3_b1_concat0_L3_b1_concat0_0_split
I0817 16:29:01.786361 17472 net.cpp:100] Creating Layer L3_b1_concat0_L3_b1_concat0_0_split
I0817 16:29:01.786368 17472 net.cpp:434] L3_b1_concat0_L3_b1_concat0_0_split <- L3_b1_concat0
I0817 16:29:01.786375 17472 net.cpp:408] L3_b1_concat0_L3_b1_concat0_0_split -> L3_b1_concat0_L3_b1_concat0_0_split_0
I0817 16:29:01.786386 17472 net.cpp:408] L3_b1_concat0_L3_b1_concat0_0_split -> L3_b1_concat0_L3_b1_concat0_0_split_1
I0817 16:29:01.786437 17472 net.cpp:150] Setting up L3_b1_concat0_L3_b1_concat0_0_split
I0817 16:29:01.786448 17472 net.cpp:157] Top shape: 125 64 8 8 (512000)
I0817 16:29:01.786454 17472 net.cpp:157] Top shape: 125 64 8 8 (512000)
I0817 16:29:01.786466 17472 net.cpp:165] Memory required for data: 1274369500
I0817 16:29:01.786473 17472 layer_factory.hpp:77] Creating layer L3_b2_cbr1_conv
I0817 16:29:01.786484 17472 net.cpp:100] Creating Layer L3_b2_cbr1_conv
I0817 16:29:01.786490 17472 net.cpp:434] L3_b2_cbr1_conv <- L3_b1_concat0_L3_b1_concat0_0_split_0
I0817 16:29:01.786502 17472 net.cpp:408] L3_b2_cbr1_conv -> L3_b2_cbr1_conv_top
I0817 16:29:01.788489 17472 net.cpp:150] Setting up L3_b2_cbr1_conv
I0817 16:29:01.788507 17472 net.cpp:157] Top shape: 125 64 8 8 (512000)
I0817 16:29:01.788512 17472 net.cpp:165] Memory required for data: 1276417500
I0817 16:29:01.788522 17472 layer_factory.hpp:77] Creating layer L3_b2_cbr1_bn
I0817 16:29:01.788535 17472 net.cpp:100] Creating Layer L3_b2_cbr1_bn
I0817 16:29:01.788542 17472 net.cpp:434] L3_b2_cbr1_bn <- L3_b2_cbr1_conv_top
I0817 16:29:01.788552 17472 net.cpp:408] L3_b2_cbr1_bn -> L3_b2_cbr1_bn_top
I0817 16:29:01.788816 17472 net.cpp:150] Setting up L3_b2_cbr1_bn
I0817 16:29:01.788830 17472 net.cpp:157] Top shape: 125 64 8 8 (512000)
I0817 16:29:01.788836 17472 net.cpp:165] Memory required for data: 1278465500
I0817 16:29:01.788846 17472 layer_factory.hpp:77] Creating layer L3_b2_cbr1_scale
I0817 16:29:01.788858 17472 net.cpp:100] Creating Layer L3_b2_cbr1_scale
I0817 16:29:01.788866 17472 net.cpp:434] L3_b2_cbr1_scale <- L3_b2_cbr1_bn_top
I0817 16:29:01.788873 17472 net.cpp:395] L3_b2_cbr1_scale -> L3_b2_cbr1_bn_top (in-place)
I0817 16:29:01.788930 17472 layer_factory.hpp:77] Creating layer L3_b2_cbr1_scale
I0817 16:29:01.789085 17472 net.cpp:150] Setting up L3_b2_cbr1_scale
I0817 16:29:01.789098 17472 net.cpp:157] Top shape: 125 64 8 8 (512000)
I0817 16:29:01.789104 17472 net.cpp:165] Memory required for data: 1280513500
I0817 16:29:01.789113 17472 layer_factory.hpp:77] Creating layer L3_b2_cbr1_relu
I0817 16:29:01.789124 17472 net.cpp:100] Creating Layer L3_b2_cbr1_relu
I0817 16:29:01.789130 17472 net.cpp:434] L3_b2_cbr1_relu <- L3_b2_cbr1_bn_top
I0817 16:29:01.789139 17472 net.cpp:395] L3_b2_cbr1_relu -> L3_b2_cbr1_bn_top (in-place)
I0817 16:29:01.789149 17472 net.cpp:150] Setting up L3_b2_cbr1_relu
I0817 16:29:01.789155 17472 net.cpp:157] Top shape: 125 64 8 8 (512000)
I0817 16:29:01.789160 17472 net.cpp:165] Memory required for data: 1282561500
I0817 16:29:01.789165 17472 layer_factory.hpp:77] Creating layer L3_b2_cbr2_conv
I0817 16:29:01.789178 17472 net.cpp:100] Creating Layer L3_b2_cbr2_conv
I0817 16:29:01.789185 17472 net.cpp:434] L3_b2_cbr2_conv <- L3_b2_cbr1_bn_top
I0817 16:29:01.789196 17472 net.cpp:408] L3_b2_cbr2_conv -> L3_b2_cbr2_conv_top
I0817 16:29:01.790223 17472 net.cpp:150] Setting up L3_b2_cbr2_conv
I0817 16:29:01.790238 17472 net.cpp:157] Top shape: 125 64 8 8 (512000)
I0817 16:29:01.790243 17472 net.cpp:165] Memory required for data: 1284609500
I0817 16:29:01.790252 17472 layer_factory.hpp:77] Creating layer L3_b2_cbr2_bn
I0817 16:29:01.790261 17472 net.cpp:100] Creating Layer L3_b2_cbr2_bn
I0817 16:29:01.790267 17472 net.cpp:434] L3_b2_cbr2_bn <- L3_b2_cbr2_conv_top
I0817 16:29:01.790278 17472 net.cpp:408] L3_b2_cbr2_bn -> L3_b2_cbr2_bn_top
I0817 16:29:01.790539 17472 net.cpp:150] Setting up L3_b2_cbr2_bn
I0817 16:29:01.790554 17472 net.cpp:157] Top shape: 125 64 8 8 (512000)
I0817 16:29:01.790560 17472 net.cpp:165] Memory required for data: 1286657500
I0817 16:29:01.790570 17472 layer_factory.hpp:77] Creating layer L3_b2_cbr2_scale
I0817 16:29:01.790578 17472 net.cpp:100] Creating Layer L3_b2_cbr2_scale
I0817 16:29:01.790585 17472 net.cpp:434] L3_b2_cbr2_scale <- L3_b2_cbr2_bn_top
I0817 16:29:01.790592 17472 net.cpp:395] L3_b2_cbr2_scale -> L3_b2_cbr2_bn_top (in-place)
I0817 16:29:01.790649 17472 layer_factory.hpp:77] Creating layer L3_b2_cbr2_scale
I0817 16:29:01.790817 17472 net.cpp:150] Setting up L3_b2_cbr2_scale
I0817 16:29:01.790832 17472 net.cpp:157] Top shape: 125 64 8 8 (512000)
I0817 16:29:01.790837 17472 net.cpp:165] Memory required for data: 1288705500
I0817 16:29:01.790845 17472 layer_factory.hpp:77] Creating layer L3_b2_sum_eltwise
I0817 16:29:01.790865 17472 net.cpp:100] Creating Layer L3_b2_sum_eltwise
I0817 16:29:01.790874 17472 net.cpp:434] L3_b2_sum_eltwise <- L3_b2_cbr2_bn_top
I0817 16:29:01.790880 17472 net.cpp:434] L3_b2_sum_eltwise <- L3_b1_concat0_L3_b1_concat0_0_split_1
I0817 16:29:01.790889 17472 net.cpp:408] L3_b2_sum_eltwise -> L3_b2_sum_eltwise_top
I0817 16:29:01.790925 17472 net.cpp:150] Setting up L3_b2_sum_eltwise
I0817 16:29:01.790935 17472 net.cpp:157] Top shape: 125 64 8 8 (512000)
I0817 16:29:01.790940 17472 net.cpp:165] Memory required for data: 1290753500
I0817 16:29:01.790946 17472 layer_factory.hpp:77] Creating layer L3_b2_relu
I0817 16:29:01.790952 17472 net.cpp:100] Creating Layer L3_b2_relu
I0817 16:29:01.790958 17472 net.cpp:434] L3_b2_relu <- L3_b2_sum_eltwise_top
I0817 16:29:01.790966 17472 net.cpp:395] L3_b2_relu -> L3_b2_sum_eltwise_top (in-place)
I0817 16:29:01.790976 17472 net.cpp:150] Setting up L3_b2_relu
I0817 16:29:01.790982 17472 net.cpp:157] Top shape: 125 64 8 8 (512000)
I0817 16:29:01.790987 17472 net.cpp:165] Memory required for data: 1292801500
I0817 16:29:01.790992 17472 layer_factory.hpp:77] Creating layer L3_b2_sum_eltwise_top_L3_b2_relu_0_split
I0817 16:29:01.790998 17472 net.cpp:100] Creating Layer L3_b2_sum_eltwise_top_L3_b2_relu_0_split
I0817 16:29:01.791003 17472 net.cpp:434] L3_b2_sum_eltwise_top_L3_b2_relu_0_split <- L3_b2_sum_eltwise_top
I0817 16:29:01.791013 17472 net.cpp:408] L3_b2_sum_eltwise_top_L3_b2_relu_0_split -> L3_b2_sum_eltwise_top_L3_b2_relu_0_split_0
I0817 16:29:01.791024 17472 net.cpp:408] L3_b2_sum_eltwise_top_L3_b2_relu_0_split -> L3_b2_sum_eltwise_top_L3_b2_relu_0_split_1
I0817 16:29:01.791069 17472 net.cpp:150] Setting up L3_b2_sum_eltwise_top_L3_b2_relu_0_split
I0817 16:29:01.791080 17472 net.cpp:157] Top shape: 125 64 8 8 (512000)
I0817 16:29:01.791087 17472 net.cpp:157] Top shape: 125 64 8 8 (512000)
I0817 16:29:01.791091 17472 net.cpp:165] Memory required for data: 1296897500
I0817 16:29:01.791096 17472 layer_factory.hpp:77] Creating layer L3_b3_cbr1_conv
I0817 16:29:01.791112 17472 net.cpp:100] Creating Layer L3_b3_cbr1_conv
I0817 16:29:01.791119 17472 net.cpp:434] L3_b3_cbr1_conv <- L3_b2_sum_eltwise_top_L3_b2_relu_0_split_0
I0817 16:29:01.791128 17472 net.cpp:408] L3_b3_cbr1_conv -> L3_b3_cbr1_conv_top
I0817 16:29:01.792150 17472 net.cpp:150] Setting up L3_b3_cbr1_conv
I0817 16:29:01.792165 17472 net.cpp:157] Top shape: 125 64 8 8 (512000)
I0817 16:29:01.792171 17472 net.cpp:165] Memory required for data: 1298945500
I0817 16:29:01.792178 17472 layer_factory.hpp:77] Creating layer L3_b3_cbr1_bn
I0817 16:29:01.792191 17472 net.cpp:100] Creating Layer L3_b3_cbr1_bn
I0817 16:29:01.792197 17472 net.cpp:434] L3_b3_cbr1_bn <- L3_b3_cbr1_conv_top
I0817 16:29:01.792206 17472 net.cpp:408] L3_b3_cbr1_bn -> L3_b3_cbr1_bn_top
I0817 16:29:01.792461 17472 net.cpp:150] Setting up L3_b3_cbr1_bn
I0817 16:29:01.792474 17472 net.cpp:157] Top shape: 125 64 8 8 (512000)
I0817 16:29:01.792479 17472 net.cpp:165] Memory required for data: 1300993500
I0817 16:29:01.792490 17472 layer_factory.hpp:77] Creating layer L3_b3_cbr1_scale
I0817 16:29:01.792501 17472 net.cpp:100] Creating Layer L3_b3_cbr1_scale
I0817 16:29:01.792507 17472 net.cpp:434] L3_b3_cbr1_scale <- L3_b3_cbr1_bn_top
I0817 16:29:01.792515 17472 net.cpp:395] L3_b3_cbr1_scale -> L3_b3_cbr1_bn_top (in-place)
I0817 16:29:01.792578 17472 layer_factory.hpp:77] Creating layer L3_b3_cbr1_scale
I0817 16:29:01.792732 17472 net.cpp:150] Setting up L3_b3_cbr1_scale
I0817 16:29:01.792744 17472 net.cpp:157] Top shape: 125 64 8 8 (512000)
I0817 16:29:01.792749 17472 net.cpp:165] Memory required for data: 1303041500
I0817 16:29:01.792758 17472 layer_factory.hpp:77] Creating layer L3_b3_cbr1_relu
I0817 16:29:01.792769 17472 net.cpp:100] Creating Layer L3_b3_cbr1_relu
I0817 16:29:01.792776 17472 net.cpp:434] L3_b3_cbr1_relu <- L3_b3_cbr1_bn_top
I0817 16:29:01.792784 17472 net.cpp:395] L3_b3_cbr1_relu -> L3_b3_cbr1_bn_top (in-place)
I0817 16:29:01.792794 17472 net.cpp:150] Setting up L3_b3_cbr1_relu
I0817 16:29:01.792806 17472 net.cpp:157] Top shape: 125 64 8 8 (512000)
I0817 16:29:01.792819 17472 net.cpp:165] Memory required for data: 1305089500
I0817 16:29:01.792824 17472 layer_factory.hpp:77] Creating layer L3_b3_cbr2_conv
I0817 16:29:01.792839 17472 net.cpp:100] Creating Layer L3_b3_cbr2_conv
I0817 16:29:01.792845 17472 net.cpp:434] L3_b3_cbr2_conv <- L3_b3_cbr1_bn_top
I0817 16:29:01.792856 17472 net.cpp:408] L3_b3_cbr2_conv -> L3_b3_cbr2_conv_top
I0817 16:29:01.793910 17472 net.cpp:150] Setting up L3_b3_cbr2_conv
I0817 16:29:01.793926 17472 net.cpp:157] Top shape: 125 64 8 8 (512000)
I0817 16:29:01.793931 17472 net.cpp:165] Memory required for data: 1307137500
I0817 16:29:01.793941 17472 layer_factory.hpp:77] Creating layer L3_b3_cbr2_bn
I0817 16:29:01.793951 17472 net.cpp:100] Creating Layer L3_b3_cbr2_bn
I0817 16:29:01.793956 17472 net.cpp:434] L3_b3_cbr2_bn <- L3_b3_cbr2_conv_top
I0817 16:29:01.793967 17472 net.cpp:408] L3_b3_cbr2_bn -> L3_b3_cbr2_bn_top
I0817 16:29:01.794234 17472 net.cpp:150] Setting up L3_b3_cbr2_bn
I0817 16:29:01.794246 17472 net.cpp:157] Top shape: 125 64 8 8 (512000)
I0817 16:29:01.794251 17472 net.cpp:165] Memory required for data: 1309185500
I0817 16:29:01.794262 17472 layer_factory.hpp:77] Creating layer L3_b3_cbr2_scale
I0817 16:29:01.794271 17472 net.cpp:100] Creating Layer L3_b3_cbr2_scale
I0817 16:29:01.794277 17472 net.cpp:434] L3_b3_cbr2_scale <- L3_b3_cbr2_bn_top
I0817 16:29:01.794286 17472 net.cpp:395] L3_b3_cbr2_scale -> L3_b3_cbr2_bn_top (in-place)
I0817 16:29:01.794344 17472 layer_factory.hpp:77] Creating layer L3_b3_cbr2_scale
I0817 16:29:01.794497 17472 net.cpp:150] Setting up L3_b3_cbr2_scale
I0817 16:29:01.794509 17472 net.cpp:157] Top shape: 125 64 8 8 (512000)
I0817 16:29:01.794514 17472 net.cpp:165] Memory required for data: 1311233500
I0817 16:29:01.794523 17472 layer_factory.hpp:77] Creating layer L3_b3_sum_eltwise
I0817 16:29:01.794536 17472 net.cpp:100] Creating Layer L3_b3_sum_eltwise
I0817 16:29:01.794543 17472 net.cpp:434] L3_b3_sum_eltwise <- L3_b3_cbr2_bn_top
I0817 16:29:01.794550 17472 net.cpp:434] L3_b3_sum_eltwise <- L3_b2_sum_eltwise_top_L3_b2_relu_0_split_1
I0817 16:29:01.794559 17472 net.cpp:408] L3_b3_sum_eltwise -> L3_b3_sum_eltwise_top
I0817 16:29:01.794595 17472 net.cpp:150] Setting up L3_b3_sum_eltwise
I0817 16:29:01.794606 17472 net.cpp:157] Top shape: 125 64 8 8 (512000)
I0817 16:29:01.794611 17472 net.cpp:165] Memory required for data: 1313281500
I0817 16:29:01.794616 17472 layer_factory.hpp:77] Creating layer L3_b3_relu
I0817 16:29:01.794625 17472 net.cpp:100] Creating Layer L3_b3_relu
I0817 16:29:01.794631 17472 net.cpp:434] L3_b3_relu <- L3_b3_sum_eltwise_top
I0817 16:29:01.794637 17472 net.cpp:395] L3_b3_relu -> L3_b3_sum_eltwise_top (in-place)
I0817 16:29:01.794646 17472 net.cpp:150] Setting up L3_b3_relu
I0817 16:29:01.794653 17472 net.cpp:157] Top shape: 125 64 8 8 (512000)
I0817 16:29:01.794657 17472 net.cpp:165] Memory required for data: 1315329500
I0817 16:29:01.794662 17472 layer_factory.hpp:77] Creating layer L3_b3_sum_eltwise_top_L3_b3_relu_0_split
I0817 16:29:01.794669 17472 net.cpp:100] Creating Layer L3_b3_sum_eltwise_top_L3_b3_relu_0_split
I0817 16:29:01.794674 17472 net.cpp:434] L3_b3_sum_eltwise_top_L3_b3_relu_0_split <- L3_b3_sum_eltwise_top
I0817 16:29:01.794685 17472 net.cpp:408] L3_b3_sum_eltwise_top_L3_b3_relu_0_split -> L3_b3_sum_eltwise_top_L3_b3_relu_0_split_0
I0817 16:29:01.794694 17472 net.cpp:408] L3_b3_sum_eltwise_top_L3_b3_relu_0_split -> L3_b3_sum_eltwise_top_L3_b3_relu_0_split_1
I0817 16:29:01.794739 17472 net.cpp:150] Setting up L3_b3_sum_eltwise_top_L3_b3_relu_0_split
I0817 16:29:01.794750 17472 net.cpp:157] Top shape: 125 64 8 8 (512000)
I0817 16:29:01.794757 17472 net.cpp:157] Top shape: 125 64 8 8 (512000)
I0817 16:29:01.794762 17472 net.cpp:165] Memory required for data: 1319425500
I0817 16:29:01.794766 17472 layer_factory.hpp:77] Creating layer L3_b4_cbr1_conv
I0817 16:29:01.794781 17472 net.cpp:100] Creating Layer L3_b4_cbr1_conv
I0817 16:29:01.794787 17472 net.cpp:434] L3_b4_cbr1_conv <- L3_b3_sum_eltwise_top_L3_b3_relu_0_split_0
I0817 16:29:01.794796 17472 net.cpp:408] L3_b4_cbr1_conv -> L3_b4_cbr1_conv_top
I0817 16:29:01.795827 17472 net.cpp:150] Setting up L3_b4_cbr1_conv
I0817 16:29:01.795842 17472 net.cpp:157] Top shape: 125 64 8 8 (512000)
I0817 16:29:01.795847 17472 net.cpp:165] Memory required for data: 1321473500
I0817 16:29:01.795856 17472 layer_factory.hpp:77] Creating layer L3_b4_cbr1_bn
I0817 16:29:01.795868 17472 net.cpp:100] Creating Layer L3_b4_cbr1_bn
I0817 16:29:01.795876 17472 net.cpp:434] L3_b4_cbr1_bn <- L3_b4_cbr1_conv_top
I0817 16:29:01.795883 17472 net.cpp:408] L3_b4_cbr1_bn -> L3_b4_cbr1_bn_top
I0817 16:29:01.796154 17472 net.cpp:150] Setting up L3_b4_cbr1_bn
I0817 16:29:01.796167 17472 net.cpp:157] Top shape: 125 64 8 8 (512000)
I0817 16:29:01.796172 17472 net.cpp:165] Memory required for data: 1323521500
I0817 16:29:01.796182 17472 layer_factory.hpp:77] Creating layer L3_b4_cbr1_scale
I0817 16:29:01.796193 17472 net.cpp:100] Creating Layer L3_b4_cbr1_scale
I0817 16:29:01.796200 17472 net.cpp:434] L3_b4_cbr1_scale <- L3_b4_cbr1_bn_top
I0817 16:29:01.796208 17472 net.cpp:395] L3_b4_cbr1_scale -> L3_b4_cbr1_bn_top (in-place)
I0817 16:29:01.796267 17472 layer_factory.hpp:77] Creating layer L3_b4_cbr1_scale
I0817 16:29:01.796422 17472 net.cpp:150] Setting up L3_b4_cbr1_scale
I0817 16:29:01.796435 17472 net.cpp:157] Top shape: 125 64 8 8 (512000)
I0817 16:29:01.796440 17472 net.cpp:165] Memory required for data: 1325569500
I0817 16:29:01.796450 17472 layer_factory.hpp:77] Creating layer L3_b4_cbr1_relu
I0817 16:29:01.796461 17472 net.cpp:100] Creating Layer L3_b4_cbr1_relu
I0817 16:29:01.796468 17472 net.cpp:434] L3_b4_cbr1_relu <- L3_b4_cbr1_bn_top
I0817 16:29:01.796474 17472 net.cpp:395] L3_b4_cbr1_relu -> L3_b4_cbr1_bn_top (in-place)
I0817 16:29:01.796488 17472 net.cpp:150] Setting up L3_b4_cbr1_relu
I0817 16:29:01.796494 17472 net.cpp:157] Top shape: 125 64 8 8 (512000)
I0817 16:29:01.796499 17472 net.cpp:165] Memory required for data: 1327617500
I0817 16:29:01.796504 17472 layer_factory.hpp:77] Creating layer L3_b4_cbr2_conv
I0817 16:29:01.796514 17472 net.cpp:100] Creating Layer L3_b4_cbr2_conv
I0817 16:29:01.796520 17472 net.cpp:434] L3_b4_cbr2_conv <- L3_b4_cbr1_bn_top
I0817 16:29:01.796531 17472 net.cpp:408] L3_b4_cbr2_conv -> L3_b4_cbr2_conv_top
I0817 16:29:01.797557 17472 net.cpp:150] Setting up L3_b4_cbr2_conv
I0817 16:29:01.797572 17472 net.cpp:157] Top shape: 125 64 8 8 (512000)
I0817 16:29:01.797576 17472 net.cpp:165] Memory required for data: 1329665500
I0817 16:29:01.797585 17472 layer_factory.hpp:77] Creating layer L3_b4_cbr2_bn
I0817 16:29:01.797595 17472 net.cpp:100] Creating Layer L3_b4_cbr2_bn
I0817 16:29:01.797601 17472 net.cpp:434] L3_b4_cbr2_bn <- L3_b4_cbr2_conv_top
I0817 16:29:01.797612 17472 net.cpp:408] L3_b4_cbr2_bn -> L3_b4_cbr2_bn_top
I0817 16:29:01.797886 17472 net.cpp:150] Setting up L3_b4_cbr2_bn
I0817 16:29:01.797900 17472 net.cpp:157] Top shape: 125 64 8 8 (512000)
I0817 16:29:01.797905 17472 net.cpp:165] Memory required for data: 1331713500
I0817 16:29:01.797915 17472 layer_factory.hpp:77] Creating layer L3_b4_cbr2_scale
I0817 16:29:01.797924 17472 net.cpp:100] Creating Layer L3_b4_cbr2_scale
I0817 16:29:01.797930 17472 net.cpp:434] L3_b4_cbr2_scale <- L3_b4_cbr2_bn_top
I0817 16:29:01.797938 17472 net.cpp:395] L3_b4_cbr2_scale -> L3_b4_cbr2_bn_top (in-place)
I0817 16:29:01.797999 17472 layer_factory.hpp:77] Creating layer L3_b4_cbr2_scale
I0817 16:29:01.798164 17472 net.cpp:150] Setting up L3_b4_cbr2_scale
I0817 16:29:01.798180 17472 net.cpp:157] Top shape: 125 64 8 8 (512000)
I0817 16:29:01.798185 17472 net.cpp:165] Memory required for data: 1333761500
I0817 16:29:01.798194 17472 layer_factory.hpp:77] Creating layer L3_b4_sum_eltwise
I0817 16:29:01.798203 17472 net.cpp:100] Creating Layer L3_b4_sum_eltwise
I0817 16:29:01.798209 17472 net.cpp:434] L3_b4_sum_eltwise <- L3_b4_cbr2_bn_top
I0817 16:29:01.798216 17472 net.cpp:434] L3_b4_sum_eltwise <- L3_b3_sum_eltwise_top_L3_b3_relu_0_split_1
I0817 16:29:01.798224 17472 net.cpp:408] L3_b4_sum_eltwise -> L3_b4_sum_eltwise_top
I0817 16:29:01.798261 17472 net.cpp:150] Setting up L3_b4_sum_eltwise
I0817 16:29:01.798277 17472 net.cpp:157] Top shape: 125 64 8 8 (512000)
I0817 16:29:01.798282 17472 net.cpp:165] Memory required for data: 1335809500
I0817 16:29:01.798287 17472 layer_factory.hpp:77] Creating layer L3_b4_relu
I0817 16:29:01.798295 17472 net.cpp:100] Creating Layer L3_b4_relu
I0817 16:29:01.798301 17472 net.cpp:434] L3_b4_relu <- L3_b4_sum_eltwise_top
I0817 16:29:01.798308 17472 net.cpp:395] L3_b4_relu -> L3_b4_sum_eltwise_top (in-place)
I0817 16:29:01.798318 17472 net.cpp:150] Setting up L3_b4_relu
I0817 16:29:01.798326 17472 net.cpp:157] Top shape: 125 64 8 8 (512000)
I0817 16:29:01.798329 17472 net.cpp:165] Memory required for data: 1337857500
I0817 16:29:01.798333 17472 layer_factory.hpp:77] Creating layer L3_b4_sum_eltwise_top_L3_b4_relu_0_split
I0817 16:29:01.798341 17472 net.cpp:100] Creating Layer L3_b4_sum_eltwise_top_L3_b4_relu_0_split
I0817 16:29:01.798346 17472 net.cpp:434] L3_b4_sum_eltwise_top_L3_b4_relu_0_split <- L3_b4_sum_eltwise_top
I0817 16:29:01.798357 17472 net.cpp:408] L3_b4_sum_eltwise_top_L3_b4_relu_0_split -> L3_b4_sum_eltwise_top_L3_b4_relu_0_split_0
I0817 16:29:01.798367 17472 net.cpp:408] L3_b4_sum_eltwise_top_L3_b4_relu_0_split -> L3_b4_sum_eltwise_top_L3_b4_relu_0_split_1
I0817 16:29:01.798413 17472 net.cpp:150] Setting up L3_b4_sum_eltwise_top_L3_b4_relu_0_split
I0817 16:29:01.798427 17472 net.cpp:157] Top shape: 125 64 8 8 (512000)
I0817 16:29:01.798434 17472 net.cpp:157] Top shape: 125 64 8 8 (512000)
I0817 16:29:01.798439 17472 net.cpp:165] Memory required for data: 1341953500
I0817 16:29:01.798444 17472 layer_factory.hpp:77] Creating layer L3_b5_cbr1_conv
I0817 16:29:01.798454 17472 net.cpp:100] Creating Layer L3_b5_cbr1_conv
I0817 16:29:01.798461 17472 net.cpp:434] L3_b5_cbr1_conv <- L3_b4_sum_eltwise_top_L3_b4_relu_0_split_0
I0817 16:29:01.798470 17472 net.cpp:408] L3_b5_cbr1_conv -> L3_b5_cbr1_conv_top
I0817 16:29:01.799489 17472 net.cpp:150] Setting up L3_b5_cbr1_conv
I0817 16:29:01.799504 17472 net.cpp:157] Top shape: 125 64 8 8 (512000)
I0817 16:29:01.799510 17472 net.cpp:165] Memory required for data: 1344001500
I0817 16:29:01.799518 17472 layer_factory.hpp:77] Creating layer L3_b5_cbr1_bn
I0817 16:29:01.799530 17472 net.cpp:100] Creating Layer L3_b5_cbr1_bn
I0817 16:29:01.799536 17472 net.cpp:434] L3_b5_cbr1_bn <- L3_b5_cbr1_conv_top
I0817 16:29:01.799545 17472 net.cpp:408] L3_b5_cbr1_bn -> L3_b5_cbr1_bn_top
I0817 16:29:01.800796 17472 net.cpp:150] Setting up L3_b5_cbr1_bn
I0817 16:29:01.800817 17472 net.cpp:157] Top shape: 125 64 8 8 (512000)
I0817 16:29:01.800822 17472 net.cpp:165] Memory required for data: 1346049500
I0817 16:29:01.800834 17472 layer_factory.hpp:77] Creating layer L3_b5_cbr1_scale
I0817 16:29:01.800848 17472 net.cpp:100] Creating Layer L3_b5_cbr1_scale
I0817 16:29:01.800854 17472 net.cpp:434] L3_b5_cbr1_scale <- L3_b5_cbr1_bn_top
I0817 16:29:01.800863 17472 net.cpp:395] L3_b5_cbr1_scale -> L3_b5_cbr1_bn_top (in-place)
I0817 16:29:01.800925 17472 layer_factory.hpp:77] Creating layer L3_b5_cbr1_scale
I0817 16:29:01.801084 17472 net.cpp:150] Setting up L3_b5_cbr1_scale
I0817 16:29:01.801100 17472 net.cpp:157] Top shape: 125 64 8 8 (512000)
I0817 16:29:01.801105 17472 net.cpp:165] Memory required for data: 1348097500
I0817 16:29:01.801115 17472 layer_factory.hpp:77] Creating layer L3_b5_cbr1_relu
I0817 16:29:01.801123 17472 net.cpp:100] Creating Layer L3_b5_cbr1_relu
I0817 16:29:01.801129 17472 net.cpp:434] L3_b5_cbr1_relu <- L3_b5_cbr1_bn_top
I0817 16:29:01.801137 17472 net.cpp:395] L3_b5_cbr1_relu -> L3_b5_cbr1_bn_top (in-place)
I0817 16:29:01.801147 17472 net.cpp:150] Setting up L3_b5_cbr1_relu
I0817 16:29:01.801154 17472 net.cpp:157] Top shape: 125 64 8 8 (512000)
I0817 16:29:01.801158 17472 net.cpp:165] Memory required for data: 1350145500
I0817 16:29:01.801163 17472 layer_factory.hpp:77] Creating layer L3_b5_cbr2_conv
I0817 16:29:01.801178 17472 net.cpp:100] Creating Layer L3_b5_cbr2_conv
I0817 16:29:01.801184 17472 net.cpp:434] L3_b5_cbr2_conv <- L3_b5_cbr1_bn_top
I0817 16:29:01.801193 17472 net.cpp:408] L3_b5_cbr2_conv -> L3_b5_cbr2_conv_top
I0817 16:29:01.803369 17472 net.cpp:150] Setting up L3_b5_cbr2_conv
I0817 16:29:01.803386 17472 net.cpp:157] Top shape: 125 64 8 8 (512000)
I0817 16:29:01.803392 17472 net.cpp:165] Memory required for data: 1352193500
I0817 16:29:01.803402 17472 layer_factory.hpp:77] Creating layer L3_b5_cbr2_bn
I0817 16:29:01.803411 17472 net.cpp:100] Creating Layer L3_b5_cbr2_bn
I0817 16:29:01.803418 17472 net.cpp:434] L3_b5_cbr2_bn <- L3_b5_cbr2_conv_top
I0817 16:29:01.803431 17472 net.cpp:408] L3_b5_cbr2_bn -> L3_b5_cbr2_bn_top
I0817 16:29:01.803694 17472 net.cpp:150] Setting up L3_b5_cbr2_bn
I0817 16:29:01.803706 17472 net.cpp:157] Top shape: 125 64 8 8 (512000)
I0817 16:29:01.803711 17472 net.cpp:165] Memory required for data: 1354241500
I0817 16:29:01.803722 17472 layer_factory.hpp:77] Creating layer L3_b5_cbr2_scale
I0817 16:29:01.803731 17472 net.cpp:100] Creating Layer L3_b5_cbr2_scale
I0817 16:29:01.803737 17472 net.cpp:434] L3_b5_cbr2_scale <- L3_b5_cbr2_bn_top
I0817 16:29:01.803745 17472 net.cpp:395] L3_b5_cbr2_scale -> L3_b5_cbr2_bn_top (in-place)
I0817 16:29:01.803812 17472 layer_factory.hpp:77] Creating layer L3_b5_cbr2_scale
I0817 16:29:01.803967 17472 net.cpp:150] Setting up L3_b5_cbr2_scale
I0817 16:29:01.803983 17472 net.cpp:157] Top shape: 125 64 8 8 (512000)
I0817 16:29:01.803988 17472 net.cpp:165] Memory required for data: 1356289500
I0817 16:29:01.803998 17472 layer_factory.hpp:77] Creating layer L3_b5_sum_eltwise
I0817 16:29:01.804008 17472 net.cpp:100] Creating Layer L3_b5_sum_eltwise
I0817 16:29:01.804015 17472 net.cpp:434] L3_b5_sum_eltwise <- L3_b5_cbr2_bn_top
I0817 16:29:01.804023 17472 net.cpp:434] L3_b5_sum_eltwise <- L3_b4_sum_eltwise_top_L3_b4_relu_0_split_1
I0817 16:29:01.804030 17472 net.cpp:408] L3_b5_sum_eltwise -> L3_b5_sum_eltwise_top
I0817 16:29:01.804066 17472 net.cpp:150] Setting up L3_b5_sum_eltwise
I0817 16:29:01.804078 17472 net.cpp:157] Top shape: 125 64 8 8 (512000)
I0817 16:29:01.804082 17472 net.cpp:165] Memory required for data: 1358337500
I0817 16:29:01.804088 17472 layer_factory.hpp:77] Creating layer L3_b5_relu
I0817 16:29:01.804095 17472 net.cpp:100] Creating Layer L3_b5_relu
I0817 16:29:01.804101 17472 net.cpp:434] L3_b5_relu <- L3_b5_sum_eltwise_top
I0817 16:29:01.804110 17472 net.cpp:395] L3_b5_relu -> L3_b5_sum_eltwise_top (in-place)
I0817 16:29:01.804118 17472 net.cpp:150] Setting up L3_b5_relu
I0817 16:29:01.804126 17472 net.cpp:157] Top shape: 125 64 8 8 (512000)
I0817 16:29:01.804131 17472 net.cpp:165] Memory required for data: 1360385500
I0817 16:29:01.804134 17472 layer_factory.hpp:77] Creating layer L3_b5_sum_eltwise_top_L3_b5_relu_0_split
I0817 16:29:01.804141 17472 net.cpp:100] Creating Layer L3_b5_sum_eltwise_top_L3_b5_relu_0_split
I0817 16:29:01.804147 17472 net.cpp:434] L3_b5_sum_eltwise_top_L3_b5_relu_0_split <- L3_b5_sum_eltwise_top
I0817 16:29:01.804157 17472 net.cpp:408] L3_b5_sum_eltwise_top_L3_b5_relu_0_split -> L3_b5_sum_eltwise_top_L3_b5_relu_0_split_0
I0817 16:29:01.804167 17472 net.cpp:408] L3_b5_sum_eltwise_top_L3_b5_relu_0_split -> L3_b5_sum_eltwise_top_L3_b5_relu_0_split_1
I0817 16:29:01.804213 17472 net.cpp:150] Setting up L3_b5_sum_eltwise_top_L3_b5_relu_0_split
I0817 16:29:01.804224 17472 net.cpp:157] Top shape: 125 64 8 8 (512000)
I0817 16:29:01.804230 17472 net.cpp:157] Top shape: 125 64 8 8 (512000)
I0817 16:29:01.804234 17472 net.cpp:165] Memory required for data: 1364481500
I0817 16:29:01.804239 17472 layer_factory.hpp:77] Creating layer L3_b6_cbr1_conv
I0817 16:29:01.804255 17472 net.cpp:100] Creating Layer L3_b6_cbr1_conv
I0817 16:29:01.804260 17472 net.cpp:434] L3_b6_cbr1_conv <- L3_b5_sum_eltwise_top_L3_b5_relu_0_split_0
I0817 16:29:01.804270 17472 net.cpp:408] L3_b6_cbr1_conv -> L3_b6_cbr1_conv_top
I0817 16:29:01.805317 17472 net.cpp:150] Setting up L3_b6_cbr1_conv
I0817 16:29:01.805332 17472 net.cpp:157] Top shape: 125 64 8 8 (512000)
I0817 16:29:01.805337 17472 net.cpp:165] Memory required for data: 1366529500
I0817 16:29:01.805347 17472 layer_factory.hpp:77] Creating layer L3_b6_cbr1_bn
I0817 16:29:01.805359 17472 net.cpp:100] Creating Layer L3_b6_cbr1_bn
I0817 16:29:01.805373 17472 net.cpp:434] L3_b6_cbr1_bn <- L3_b6_cbr1_conv_top
I0817 16:29:01.805382 17472 net.cpp:408] L3_b6_cbr1_bn -> L3_b6_cbr1_bn_top
I0817 16:29:01.805645 17472 net.cpp:150] Setting up L3_b6_cbr1_bn
I0817 16:29:01.805658 17472 net.cpp:157] Top shape: 125 64 8 8 (512000)
I0817 16:29:01.805663 17472 net.cpp:165] Memory required for data: 1368577500
I0817 16:29:01.805675 17472 layer_factory.hpp:77] Creating layer L3_b6_cbr1_scale
I0817 16:29:01.805685 17472 net.cpp:100] Creating Layer L3_b6_cbr1_scale
I0817 16:29:01.805692 17472 net.cpp:434] L3_b6_cbr1_scale <- L3_b6_cbr1_bn_top
I0817 16:29:01.805701 17472 net.cpp:395] L3_b6_cbr1_scale -> L3_b6_cbr1_bn_top (in-place)
I0817 16:29:01.805763 17472 layer_factory.hpp:77] Creating layer L3_b6_cbr1_scale
I0817 16:29:01.805927 17472 net.cpp:150] Setting up L3_b6_cbr1_scale
I0817 16:29:01.805939 17472 net.cpp:157] Top shape: 125 64 8 8 (512000)
I0817 16:29:01.805945 17472 net.cpp:165] Memory required for data: 1370625500
I0817 16:29:01.805954 17472 layer_factory.hpp:77] Creating layer L3_b6_cbr1_relu
I0817 16:29:01.805965 17472 net.cpp:100] Creating Layer L3_b6_cbr1_relu
I0817 16:29:01.805972 17472 net.cpp:434] L3_b6_cbr1_relu <- L3_b6_cbr1_bn_top
I0817 16:29:01.805981 17472 net.cpp:395] L3_b6_cbr1_relu -> L3_b6_cbr1_bn_top (in-place)
I0817 16:29:01.805992 17472 net.cpp:150] Setting up L3_b6_cbr1_relu
I0817 16:29:01.805999 17472 net.cpp:157] Top shape: 125 64 8 8 (512000)
I0817 16:29:01.806004 17472 net.cpp:165] Memory required for data: 1372673500
I0817 16:29:01.806008 17472 layer_factory.hpp:77] Creating layer L3_b6_cbr2_conv
I0817 16:29:01.806020 17472 net.cpp:100] Creating Layer L3_b6_cbr2_conv
I0817 16:29:01.806025 17472 net.cpp:434] L3_b6_cbr2_conv <- L3_b6_cbr1_bn_top
I0817 16:29:01.806040 17472 net.cpp:408] L3_b6_cbr2_conv -> L3_b6_cbr2_conv_top
I0817 16:29:01.807054 17472 net.cpp:150] Setting up L3_b6_cbr2_conv
I0817 16:29:01.807067 17472 net.cpp:157] Top shape: 125 64 8 8 (512000)
I0817 16:29:01.807072 17472 net.cpp:165] Memory required for data: 1374721500
I0817 16:29:01.807081 17472 layer_factory.hpp:77] Creating layer L3_b6_cbr2_bn
I0817 16:29:01.807093 17472 net.cpp:100] Creating Layer L3_b6_cbr2_bn
I0817 16:29:01.807101 17472 net.cpp:434] L3_b6_cbr2_bn <- L3_b6_cbr2_conv_top
I0817 16:29:01.807109 17472 net.cpp:408] L3_b6_cbr2_bn -> L3_b6_cbr2_bn_top
I0817 16:29:01.807369 17472 net.cpp:150] Setting up L3_b6_cbr2_bn
I0817 16:29:01.807384 17472 net.cpp:157] Top shape: 125 64 8 8 (512000)
I0817 16:29:01.807389 17472 net.cpp:165] Memory required for data: 1376769500
I0817 16:29:01.807399 17472 layer_factory.hpp:77] Creating layer L3_b6_cbr2_scale
I0817 16:29:01.807407 17472 net.cpp:100] Creating Layer L3_b6_cbr2_scale
I0817 16:29:01.807413 17472 net.cpp:434] L3_b6_cbr2_scale <- L3_b6_cbr2_bn_top
I0817 16:29:01.807421 17472 net.cpp:395] L3_b6_cbr2_scale -> L3_b6_cbr2_bn_top (in-place)
I0817 16:29:01.807481 17472 layer_factory.hpp:77] Creating layer L3_b6_cbr2_scale
I0817 16:29:01.807629 17472 net.cpp:150] Setting up L3_b6_cbr2_scale
I0817 16:29:01.807646 17472 net.cpp:157] Top shape: 125 64 8 8 (512000)
I0817 16:29:01.807651 17472 net.cpp:165] Memory required for data: 1378817500
I0817 16:29:01.807660 17472 layer_factory.hpp:77] Creating layer L3_b6_sum_eltwise
I0817 16:29:01.807669 17472 net.cpp:100] Creating Layer L3_b6_sum_eltwise
I0817 16:29:01.807675 17472 net.cpp:434] L3_b6_sum_eltwise <- L3_b6_cbr2_bn_top
I0817 16:29:01.807682 17472 net.cpp:434] L3_b6_sum_eltwise <- L3_b5_sum_eltwise_top_L3_b5_relu_0_split_1
I0817 16:29:01.807690 17472 net.cpp:408] L3_b6_sum_eltwise -> L3_b6_sum_eltwise_top
I0817 16:29:01.807725 17472 net.cpp:150] Setting up L3_b6_sum_eltwise
I0817 16:29:01.807737 17472 net.cpp:157] Top shape: 125 64 8 8 (512000)
I0817 16:29:01.807742 17472 net.cpp:165] Memory required for data: 1380865500
I0817 16:29:01.807747 17472 layer_factory.hpp:77] Creating layer L3_b6_relu
I0817 16:29:01.807754 17472 net.cpp:100] Creating Layer L3_b6_relu
I0817 16:29:01.807760 17472 net.cpp:434] L3_b6_relu <- L3_b6_sum_eltwise_top
I0817 16:29:01.807775 17472 net.cpp:395] L3_b6_relu -> L3_b6_sum_eltwise_top (in-place)
I0817 16:29:01.807785 17472 net.cpp:150] Setting up L3_b6_relu
I0817 16:29:01.807792 17472 net.cpp:157] Top shape: 125 64 8 8 (512000)
I0817 16:29:01.807797 17472 net.cpp:165] Memory required for data: 1382913500
I0817 16:29:01.807807 17472 layer_factory.hpp:77] Creating layer L3_b6_sum_eltwise_top_L3_b6_relu_0_split
I0817 16:29:01.807818 17472 net.cpp:100] Creating Layer L3_b6_sum_eltwise_top_L3_b6_relu_0_split
I0817 16:29:01.807824 17472 net.cpp:434] L3_b6_sum_eltwise_top_L3_b6_relu_0_split <- L3_b6_sum_eltwise_top
I0817 16:29:01.807832 17472 net.cpp:408] L3_b6_sum_eltwise_top_L3_b6_relu_0_split -> L3_b6_sum_eltwise_top_L3_b6_relu_0_split_0
I0817 16:29:01.807842 17472 net.cpp:408] L3_b6_sum_eltwise_top_L3_b6_relu_0_split -> L3_b6_sum_eltwise_top_L3_b6_relu_0_split_1
I0817 16:29:01.807886 17472 net.cpp:150] Setting up L3_b6_sum_eltwise_top_L3_b6_relu_0_split
I0817 16:29:01.807901 17472 net.cpp:157] Top shape: 125 64 8 8 (512000)
I0817 16:29:01.807909 17472 net.cpp:157] Top shape: 125 64 8 8 (512000)
I0817 16:29:01.807912 17472 net.cpp:165] Memory required for data: 1387009500
I0817 16:29:01.807917 17472 layer_factory.hpp:77] Creating layer L3_b7_cbr1_conv
I0817 16:29:01.807929 17472 net.cpp:100] Creating Layer L3_b7_cbr1_conv
I0817 16:29:01.807935 17472 net.cpp:434] L3_b7_cbr1_conv <- L3_b6_sum_eltwise_top_L3_b6_relu_0_split_0
I0817 16:29:01.807945 17472 net.cpp:408] L3_b7_cbr1_conv -> L3_b7_cbr1_conv_top
I0817 16:29:01.808960 17472 net.cpp:150] Setting up L3_b7_cbr1_conv
I0817 16:29:01.808975 17472 net.cpp:157] Top shape: 125 64 8 8 (512000)
I0817 16:29:01.808980 17472 net.cpp:165] Memory required for data: 1389057500
I0817 16:29:01.808990 17472 layer_factory.hpp:77] Creating layer L3_b7_cbr1_bn
I0817 16:29:01.809001 17472 net.cpp:100] Creating Layer L3_b7_cbr1_bn
I0817 16:29:01.809007 17472 net.cpp:434] L3_b7_cbr1_bn <- L3_b7_cbr1_conv_top
I0817 16:29:01.809015 17472 net.cpp:408] L3_b7_cbr1_bn -> L3_b7_cbr1_bn_top
I0817 16:29:01.809280 17472 net.cpp:150] Setting up L3_b7_cbr1_bn
I0817 16:29:01.809293 17472 net.cpp:157] Top shape: 125 64 8 8 (512000)
I0817 16:29:01.809298 17472 net.cpp:165] Memory required for data: 1391105500
I0817 16:29:01.809309 17472 layer_factory.hpp:77] Creating layer L3_b7_cbr1_scale
I0817 16:29:01.809319 17472 net.cpp:100] Creating Layer L3_b7_cbr1_scale
I0817 16:29:01.809326 17472 net.cpp:434] L3_b7_cbr1_scale <- L3_b7_cbr1_bn_top
I0817 16:29:01.809334 17472 net.cpp:395] L3_b7_cbr1_scale -> L3_b7_cbr1_bn_top (in-place)
I0817 16:29:01.809393 17472 layer_factory.hpp:77] Creating layer L3_b7_cbr1_scale
I0817 16:29:01.809551 17472 net.cpp:150] Setting up L3_b7_cbr1_scale
I0817 16:29:01.809563 17472 net.cpp:157] Top shape: 125 64 8 8 (512000)
I0817 16:29:01.809568 17472 net.cpp:165] Memory required for data: 1393153500
I0817 16:29:01.809577 17472 layer_factory.hpp:77] Creating layer L3_b7_cbr1_relu
I0817 16:29:01.809612 17472 net.cpp:100] Creating Layer L3_b7_cbr1_relu
I0817 16:29:01.809619 17472 net.cpp:434] L3_b7_cbr1_relu <- L3_b7_cbr1_bn_top
I0817 16:29:01.809628 17472 net.cpp:395] L3_b7_cbr1_relu -> L3_b7_cbr1_bn_top (in-place)
I0817 16:29:01.809638 17472 net.cpp:150] Setting up L3_b7_cbr1_relu
I0817 16:29:01.809644 17472 net.cpp:157] Top shape: 125 64 8 8 (512000)
I0817 16:29:01.809649 17472 net.cpp:165] Memory required for data: 1395201500
I0817 16:29:01.809654 17472 layer_factory.hpp:77] Creating layer L3_b7_cbr2_conv
I0817 16:29:01.809666 17472 net.cpp:100] Creating Layer L3_b7_cbr2_conv
I0817 16:29:01.809672 17472 net.cpp:434] L3_b7_cbr2_conv <- L3_b7_cbr1_bn_top
I0817 16:29:01.809680 17472 net.cpp:408] L3_b7_cbr2_conv -> L3_b7_cbr2_conv_top
I0817 16:29:01.810696 17472 net.cpp:150] Setting up L3_b7_cbr2_conv
I0817 16:29:01.810711 17472 net.cpp:157] Top shape: 125 64 8 8 (512000)
I0817 16:29:01.810716 17472 net.cpp:165] Memory required for data: 1397249500
I0817 16:29:01.810725 17472 layer_factory.hpp:77] Creating layer L3_b7_cbr2_bn
I0817 16:29:01.810737 17472 net.cpp:100] Creating Layer L3_b7_cbr2_bn
I0817 16:29:01.810750 17472 net.cpp:434] L3_b7_cbr2_bn <- L3_b7_cbr2_conv_top
I0817 16:29:01.810760 17472 net.cpp:408] L3_b7_cbr2_bn -> L3_b7_cbr2_bn_top
I0817 16:29:01.811028 17472 net.cpp:150] Setting up L3_b7_cbr2_bn
I0817 16:29:01.811040 17472 net.cpp:157] Top shape: 125 64 8 8 (512000)
I0817 16:29:01.811045 17472 net.cpp:165] Memory required for data: 1399297500
I0817 16:29:01.811056 17472 layer_factory.hpp:77] Creating layer L3_b7_cbr2_scale
I0817 16:29:01.811067 17472 net.cpp:100] Creating Layer L3_b7_cbr2_scale
I0817 16:29:01.811074 17472 net.cpp:434] L3_b7_cbr2_scale <- L3_b7_cbr2_bn_top
I0817 16:29:01.811081 17472 net.cpp:395] L3_b7_cbr2_scale -> L3_b7_cbr2_bn_top (in-place)
I0817 16:29:01.811144 17472 layer_factory.hpp:77] Creating layer L3_b7_cbr2_scale
I0817 16:29:01.811298 17472 net.cpp:150] Setting up L3_b7_cbr2_scale
I0817 16:29:01.811312 17472 net.cpp:157] Top shape: 125 64 8 8 (512000)
I0817 16:29:01.811317 17472 net.cpp:165] Memory required for data: 1401345500
I0817 16:29:01.811326 17472 layer_factory.hpp:77] Creating layer L3_b7_sum_eltwise
I0817 16:29:01.811338 17472 net.cpp:100] Creating Layer L3_b7_sum_eltwise
I0817 16:29:01.811344 17472 net.cpp:434] L3_b7_sum_eltwise <- L3_b7_cbr2_bn_top
I0817 16:29:01.811352 17472 net.cpp:434] L3_b7_sum_eltwise <- L3_b6_sum_eltwise_top_L3_b6_relu_0_split_1
I0817 16:29:01.811363 17472 net.cpp:408] L3_b7_sum_eltwise -> L3_b7_sum_eltwise_top
I0817 16:29:01.811398 17472 net.cpp:150] Setting up L3_b7_sum_eltwise
I0817 16:29:01.811408 17472 net.cpp:157] Top shape: 125 64 8 8 (512000)
I0817 16:29:01.811414 17472 net.cpp:165] Memory required for data: 1403393500
I0817 16:29:01.811419 17472 layer_factory.hpp:77] Creating layer L3_b7_relu
I0817 16:29:01.811429 17472 net.cpp:100] Creating Layer L3_b7_relu
I0817 16:29:01.811435 17472 net.cpp:434] L3_b7_relu <- L3_b7_sum_eltwise_top
I0817 16:29:01.811442 17472 net.cpp:395] L3_b7_relu -> L3_b7_sum_eltwise_top (in-place)
I0817 16:29:01.811452 17472 net.cpp:150] Setting up L3_b7_relu
I0817 16:29:01.811460 17472 net.cpp:157] Top shape: 125 64 8 8 (512000)
I0817 16:29:01.811463 17472 net.cpp:165] Memory required for data: 1405441500
I0817 16:29:01.811468 17472 layer_factory.hpp:77] Creating layer L3_b7_sum_eltwise_top_L3_b7_relu_0_split
I0817 16:29:01.811475 17472 net.cpp:100] Creating Layer L3_b7_sum_eltwise_top_L3_b7_relu_0_split
I0817 16:29:01.811480 17472 net.cpp:434] L3_b7_sum_eltwise_top_L3_b7_relu_0_split <- L3_b7_sum_eltwise_top
I0817 16:29:01.811487 17472 net.cpp:408] L3_b7_sum_eltwise_top_L3_b7_relu_0_split -> L3_b7_sum_eltwise_top_L3_b7_relu_0_split_0
I0817 16:29:01.811497 17472 net.cpp:408] L3_b7_sum_eltwise_top_L3_b7_relu_0_split -> L3_b7_sum_eltwise_top_L3_b7_relu_0_split_1
I0817 16:29:01.811544 17472 net.cpp:150] Setting up L3_b7_sum_eltwise_top_L3_b7_relu_0_split
I0817 16:29:01.811556 17472 net.cpp:157] Top shape: 125 64 8 8 (512000)
I0817 16:29:01.811563 17472 net.cpp:157] Top shape: 125 64 8 8 (512000)
I0817 16:29:01.811568 17472 net.cpp:165] Memory required for data: 1409537500
I0817 16:29:01.811573 17472 layer_factory.hpp:77] Creating layer L3_b8_cbr1_conv
I0817 16:29:01.811585 17472 net.cpp:100] Creating Layer L3_b8_cbr1_conv
I0817 16:29:01.811592 17472 net.cpp:434] L3_b8_cbr1_conv <- L3_b7_sum_eltwise_top_L3_b7_relu_0_split_0
I0817 16:29:01.811601 17472 net.cpp:408] L3_b8_cbr1_conv -> L3_b8_cbr1_conv_top
I0817 16:29:01.812611 17472 net.cpp:150] Setting up L3_b8_cbr1_conv
I0817 16:29:01.812626 17472 net.cpp:157] Top shape: 125 64 8 8 (512000)
I0817 16:29:01.812631 17472 net.cpp:165] Memory required for data: 1411585500
I0817 16:29:01.812640 17472 layer_factory.hpp:77] Creating layer L3_b8_cbr1_bn
I0817 16:29:01.812652 17472 net.cpp:100] Creating Layer L3_b8_cbr1_bn
I0817 16:29:01.812659 17472 net.cpp:434] L3_b8_cbr1_bn <- L3_b8_cbr1_conv_top
I0817 16:29:01.812669 17472 net.cpp:408] L3_b8_cbr1_bn -> L3_b8_cbr1_bn_top
I0817 16:29:01.812934 17472 net.cpp:150] Setting up L3_b8_cbr1_bn
I0817 16:29:01.812947 17472 net.cpp:157] Top shape: 125 64 8 8 (512000)
I0817 16:29:01.812952 17472 net.cpp:165] Memory required for data: 1413633500
I0817 16:29:01.812970 17472 layer_factory.hpp:77] Creating layer L3_b8_cbr1_scale
I0817 16:29:01.812979 17472 net.cpp:100] Creating Layer L3_b8_cbr1_scale
I0817 16:29:01.812986 17472 net.cpp:434] L3_b8_cbr1_scale <- L3_b8_cbr1_bn_top
I0817 16:29:01.812994 17472 net.cpp:395] L3_b8_cbr1_scale -> L3_b8_cbr1_bn_top (in-place)
I0817 16:29:01.813055 17472 layer_factory.hpp:77] Creating layer L3_b8_cbr1_scale
I0817 16:29:01.813208 17472 net.cpp:150] Setting up L3_b8_cbr1_scale
I0817 16:29:01.813221 17472 net.cpp:157] Top shape: 125 64 8 8 (512000)
I0817 16:29:01.813226 17472 net.cpp:165] Memory required for data: 1415681500
I0817 16:29:01.813235 17472 layer_factory.hpp:77] Creating layer L3_b8_cbr1_relu
I0817 16:29:01.813243 17472 net.cpp:100] Creating Layer L3_b8_cbr1_relu
I0817 16:29:01.813249 17472 net.cpp:434] L3_b8_cbr1_relu <- L3_b8_cbr1_bn_top
I0817 16:29:01.813261 17472 net.cpp:395] L3_b8_cbr1_relu -> L3_b8_cbr1_bn_top (in-place)
I0817 16:29:01.813271 17472 net.cpp:150] Setting up L3_b8_cbr1_relu
I0817 16:29:01.813277 17472 net.cpp:157] Top shape: 125 64 8 8 (512000)
I0817 16:29:01.813282 17472 net.cpp:165] Memory required for data: 1417729500
I0817 16:29:01.813287 17472 layer_factory.hpp:77] Creating layer L3_b8_cbr2_conv
I0817 16:29:01.813303 17472 net.cpp:100] Creating Layer L3_b8_cbr2_conv
I0817 16:29:01.813309 17472 net.cpp:434] L3_b8_cbr2_conv <- L3_b8_cbr1_bn_top
I0817 16:29:01.813318 17472 net.cpp:408] L3_b8_cbr2_conv -> L3_b8_cbr2_conv_top
I0817 16:29:01.814329 17472 net.cpp:150] Setting up L3_b8_cbr2_conv
I0817 16:29:01.814344 17472 net.cpp:157] Top shape: 125 64 8 8 (512000)
I0817 16:29:01.814349 17472 net.cpp:165] Memory required for data: 1419777500
I0817 16:29:01.814358 17472 layer_factory.hpp:77] Creating layer L3_b8_cbr2_bn
I0817 16:29:01.814371 17472 net.cpp:100] Creating Layer L3_b8_cbr2_bn
I0817 16:29:01.814378 17472 net.cpp:434] L3_b8_cbr2_bn <- L3_b8_cbr2_conv_top
I0817 16:29:01.814386 17472 net.cpp:408] L3_b8_cbr2_bn -> L3_b8_cbr2_bn_top
I0817 16:29:01.814646 17472 net.cpp:150] Setting up L3_b8_cbr2_bn
I0817 16:29:01.814659 17472 net.cpp:157] Top shape: 125 64 8 8 (512000)
I0817 16:29:01.814664 17472 net.cpp:165] Memory required for data: 1421825500
I0817 16:29:01.814676 17472 layer_factory.hpp:77] Creating layer L3_b8_cbr2_scale
I0817 16:29:01.814687 17472 net.cpp:100] Creating Layer L3_b8_cbr2_scale
I0817 16:29:01.814692 17472 net.cpp:434] L3_b8_cbr2_scale <- L3_b8_cbr2_bn_top
I0817 16:29:01.814700 17472 net.cpp:395] L3_b8_cbr2_scale -> L3_b8_cbr2_bn_top (in-place)
I0817 16:29:01.814759 17472 layer_factory.hpp:77] Creating layer L3_b8_cbr2_scale
I0817 16:29:01.815096 17472 net.cpp:150] Setting up L3_b8_cbr2_scale
I0817 16:29:01.815112 17472 net.cpp:157] Top shape: 125 64 8 8 (512000)
I0817 16:29:01.815117 17472 net.cpp:165] Memory required for data: 1423873500
I0817 16:29:01.815127 17472 layer_factory.hpp:77] Creating layer L3_b8_sum_eltwise
I0817 16:29:01.815140 17472 net.cpp:100] Creating Layer L3_b8_sum_eltwise
I0817 16:29:01.815146 17472 net.cpp:434] L3_b8_sum_eltwise <- L3_b8_cbr2_bn_top
I0817 16:29:01.815153 17472 net.cpp:434] L3_b8_sum_eltwise <- L3_b7_sum_eltwise_top_L3_b7_relu_0_split_1
I0817 16:29:01.815165 17472 net.cpp:408] L3_b8_sum_eltwise -> L3_b8_sum_eltwise_top
I0817 16:29:01.815197 17472 net.cpp:150] Setting up L3_b8_sum_eltwise
I0817 16:29:01.815209 17472 net.cpp:157] Top shape: 125 64 8 8 (512000)
I0817 16:29:01.815214 17472 net.cpp:165] Memory required for data: 1425921500
I0817 16:29:01.815219 17472 layer_factory.hpp:77] Creating layer L3_b8_relu
I0817 16:29:01.815229 17472 net.cpp:100] Creating Layer L3_b8_relu
I0817 16:29:01.815237 17472 net.cpp:434] L3_b8_relu <- L3_b8_sum_eltwise_top
I0817 16:29:01.815243 17472 net.cpp:395] L3_b8_relu -> L3_b8_sum_eltwise_top (in-place)
I0817 16:29:01.815253 17472 net.cpp:150] Setting up L3_b8_relu
I0817 16:29:01.815259 17472 net.cpp:157] Top shape: 125 64 8 8 (512000)
I0817 16:29:01.815264 17472 net.cpp:165] Memory required for data: 1427969500
I0817 16:29:01.815268 17472 layer_factory.hpp:77] Creating layer L3_b8_sum_eltwise_top_L3_b8_relu_0_split
I0817 16:29:01.815282 17472 net.cpp:100] Creating Layer L3_b8_sum_eltwise_top_L3_b8_relu_0_split
I0817 16:29:01.815289 17472 net.cpp:434] L3_b8_sum_eltwise_top_L3_b8_relu_0_split <- L3_b8_sum_eltwise_top
I0817 16:29:01.815296 17472 net.cpp:408] L3_b8_sum_eltwise_top_L3_b8_relu_0_split -> L3_b8_sum_eltwise_top_L3_b8_relu_0_split_0
I0817 16:29:01.815306 17472 net.cpp:408] L3_b8_sum_eltwise_top_L3_b8_relu_0_split -> L3_b8_sum_eltwise_top_L3_b8_relu_0_split_1
I0817 16:29:01.815356 17472 net.cpp:150] Setting up L3_b8_sum_eltwise_top_L3_b8_relu_0_split
I0817 16:29:01.815367 17472 net.cpp:157] Top shape: 125 64 8 8 (512000)
I0817 16:29:01.815374 17472 net.cpp:157] Top shape: 125 64 8 8 (512000)
I0817 16:29:01.815378 17472 net.cpp:165] Memory required for data: 1432065500
I0817 16:29:01.815383 17472 layer_factory.hpp:77] Creating layer L3_b9_cbr1_conv
I0817 16:29:01.815398 17472 net.cpp:100] Creating Layer L3_b9_cbr1_conv
I0817 16:29:01.815404 17472 net.cpp:434] L3_b9_cbr1_conv <- L3_b8_sum_eltwise_top_L3_b8_relu_0_split_0
I0817 16:29:01.815413 17472 net.cpp:408] L3_b9_cbr1_conv -> L3_b9_cbr1_conv_top
I0817 16:29:01.817406 17472 net.cpp:150] Setting up L3_b9_cbr1_conv
I0817 16:29:01.817426 17472 net.cpp:157] Top shape: 125 64 8 8 (512000)
I0817 16:29:01.817431 17472 net.cpp:165] Memory required for data: 1434113500
I0817 16:29:01.817441 17472 layer_factory.hpp:77] Creating layer L3_b9_cbr1_bn
I0817 16:29:01.817451 17472 net.cpp:100] Creating Layer L3_b9_cbr1_bn
I0817 16:29:01.817457 17472 net.cpp:434] L3_b9_cbr1_bn <- L3_b9_cbr1_conv_top
I0817 16:29:01.817468 17472 net.cpp:408] L3_b9_cbr1_bn -> L3_b9_cbr1_bn_top
I0817 16:29:01.817734 17472 net.cpp:150] Setting up L3_b9_cbr1_bn
I0817 16:29:01.817749 17472 net.cpp:157] Top shape: 125 64 8 8 (512000)
I0817 16:29:01.817754 17472 net.cpp:165] Memory required for data: 1436161500
I0817 16:29:01.817765 17472 layer_factory.hpp:77] Creating layer L3_b9_cbr1_scale
I0817 16:29:01.817775 17472 net.cpp:100] Creating Layer L3_b9_cbr1_scale
I0817 16:29:01.817780 17472 net.cpp:434] L3_b9_cbr1_scale <- L3_b9_cbr1_bn_top
I0817 16:29:01.817788 17472 net.cpp:395] L3_b9_cbr1_scale -> L3_b9_cbr1_bn_top (in-place)
I0817 16:29:01.817854 17472 layer_factory.hpp:77] Creating layer L3_b9_cbr1_scale
I0817 16:29:01.818012 17472 net.cpp:150] Setting up L3_b9_cbr1_scale
I0817 16:29:01.818027 17472 net.cpp:157] Top shape: 125 64 8 8 (512000)
I0817 16:29:01.818032 17472 net.cpp:165] Memory required for data: 1438209500
I0817 16:29:01.818040 17472 layer_factory.hpp:77] Creating layer L3_b9_cbr1_relu
I0817 16:29:01.818049 17472 net.cpp:100] Creating Layer L3_b9_cbr1_relu
I0817 16:29:01.818055 17472 net.cpp:434] L3_b9_cbr1_relu <- L3_b9_cbr1_bn_top
I0817 16:29:01.818065 17472 net.cpp:395] L3_b9_cbr1_relu -> L3_b9_cbr1_bn_top (in-place)
I0817 16:29:01.818076 17472 net.cpp:150] Setting up L3_b9_cbr1_relu
I0817 16:29:01.818084 17472 net.cpp:157] Top shape: 125 64 8 8 (512000)
I0817 16:29:01.818089 17472 net.cpp:165] Memory required for data: 1440257500
I0817 16:29:01.818094 17472 layer_factory.hpp:77] Creating layer L3_b9_cbr2_conv
I0817 16:29:01.818107 17472 net.cpp:100] Creating Layer L3_b9_cbr2_conv
I0817 16:29:01.818114 17472 net.cpp:434] L3_b9_cbr2_conv <- L3_b9_cbr1_bn_top
I0817 16:29:01.818122 17472 net.cpp:408] L3_b9_cbr2_conv -> L3_b9_cbr2_conv_top
I0817 16:29:01.819142 17472 net.cpp:150] Setting up L3_b9_cbr2_conv
I0817 16:29:01.819156 17472 net.cpp:157] Top shape: 125 64 8 8 (512000)
I0817 16:29:01.819161 17472 net.cpp:165] Memory required for data: 1442305500
I0817 16:29:01.819170 17472 layer_factory.hpp:77] Creating layer L3_b9_cbr2_bn
I0817 16:29:01.819182 17472 net.cpp:100] Creating Layer L3_b9_cbr2_bn
I0817 16:29:01.819190 17472 net.cpp:434] L3_b9_cbr2_bn <- L3_b9_cbr2_conv_top
I0817 16:29:01.819200 17472 net.cpp:408] L3_b9_cbr2_bn -> L3_b9_cbr2_bn_top
I0817 16:29:01.819464 17472 net.cpp:150] Setting up L3_b9_cbr2_bn
I0817 16:29:01.819478 17472 net.cpp:157] Top shape: 125 64 8 8 (512000)
I0817 16:29:01.819483 17472 net.cpp:165] Memory required for data: 1444353500
I0817 16:29:01.819501 17472 layer_factory.hpp:77] Creating layer L3_b9_cbr2_scale
I0817 16:29:01.819510 17472 net.cpp:100] Creating Layer L3_b9_cbr2_scale
I0817 16:29:01.819517 17472 net.cpp:434] L3_b9_cbr2_scale <- L3_b9_cbr2_bn_top
I0817 16:29:01.819527 17472 net.cpp:395] L3_b9_cbr2_scale -> L3_b9_cbr2_bn_top (in-place)
I0817 16:29:01.819586 17472 layer_factory.hpp:77] Creating layer L3_b9_cbr2_scale
I0817 16:29:01.819739 17472 net.cpp:150] Setting up L3_b9_cbr2_scale
I0817 16:29:01.819752 17472 net.cpp:157] Top shape: 125 64 8 8 (512000)
I0817 16:29:01.819757 17472 net.cpp:165] Memory required for data: 1446401500
I0817 16:29:01.819767 17472 layer_factory.hpp:77] Creating layer L3_b9_sum_eltwise
I0817 16:29:01.819777 17472 net.cpp:100] Creating Layer L3_b9_sum_eltwise
I0817 16:29:01.819782 17472 net.cpp:434] L3_b9_sum_eltwise <- L3_b9_cbr2_bn_top
I0817 16:29:01.819789 17472 net.cpp:434] L3_b9_sum_eltwise <- L3_b8_sum_eltwise_top_L3_b8_relu_0_split_1
I0817 16:29:01.819805 17472 net.cpp:408] L3_b9_sum_eltwise -> L3_b9_sum_eltwise_top
I0817 16:29:01.819844 17472 net.cpp:150] Setting up L3_b9_sum_eltwise
I0817 16:29:01.819856 17472 net.cpp:157] Top shape: 125 64 8 8 (512000)
I0817 16:29:01.819861 17472 net.cpp:165] Memory required for data: 1448449500
I0817 16:29:01.819866 17472 layer_factory.hpp:77] Creating layer L3_b9_relu
I0817 16:29:01.819875 17472 net.cpp:100] Creating Layer L3_b9_relu
I0817 16:29:01.819880 17472 net.cpp:434] L3_b9_relu <- L3_b9_sum_eltwise_top
I0817 16:29:01.819887 17472 net.cpp:395] L3_b9_relu -> L3_b9_sum_eltwise_top (in-place)
I0817 16:29:01.819897 17472 net.cpp:150] Setting up L3_b9_relu
I0817 16:29:01.819905 17472 net.cpp:157] Top shape: 125 64 8 8 (512000)
I0817 16:29:01.819908 17472 net.cpp:165] Memory required for data: 1450497500
I0817 16:29:01.819913 17472 layer_factory.hpp:77] Creating layer post_pool
I0817 16:29:01.819924 17472 net.cpp:100] Creating Layer post_pool
I0817 16:29:01.819931 17472 net.cpp:434] post_pool <- L3_b9_sum_eltwise_top
I0817 16:29:01.819938 17472 net.cpp:408] post_pool -> post_pool
I0817 16:29:01.819972 17472 net.cpp:150] Setting up post_pool
I0817 16:29:01.819980 17472 net.cpp:157] Top shape: 125 64 1 1 (8000)
I0817 16:29:01.819985 17472 net.cpp:165] Memory required for data: 1450529500
I0817 16:29:01.819990 17472 layer_factory.hpp:77] Creating layer post_FC
I0817 16:29:01.820081 17472 net.cpp:100] Creating Layer post_FC
I0817 16:29:01.820094 17472 net.cpp:434] post_FC <- post_pool
I0817 16:29:01.820104 17472 net.cpp:408] post_FC -> post_FC_top
I0817 16:29:01.820344 17472 net.cpp:150] Setting up post_FC
I0817 16:29:01.820359 17472 net.cpp:157] Top shape: 125 10 (1250)
I0817 16:29:01.820364 17472 net.cpp:165] Memory required for data: 1450534500
I0817 16:29:01.820374 17472 layer_factory.hpp:77] Creating layer post_FC_top_post_FC_0_split
I0817 16:29:01.820382 17472 net.cpp:100] Creating Layer post_FC_top_post_FC_0_split
I0817 16:29:01.820389 17472 net.cpp:434] post_FC_top_post_FC_0_split <- post_FC_top
I0817 16:29:01.820399 17472 net.cpp:408] post_FC_top_post_FC_0_split -> post_FC_top_post_FC_0_split_0
I0817 16:29:01.820410 17472 net.cpp:408] post_FC_top_post_FC_0_split -> post_FC_top_post_FC_0_split_1
I0817 16:29:01.820461 17472 net.cpp:150] Setting up post_FC_top_post_FC_0_split
I0817 16:29:01.820472 17472 net.cpp:157] Top shape: 125 10 (1250)
I0817 16:29:01.820478 17472 net.cpp:157] Top shape: 125 10 (1250)
I0817 16:29:01.820483 17472 net.cpp:165] Memory required for data: 1450544500
I0817 16:29:01.820488 17472 layer_factory.hpp:77] Creating layer accuracy
I0817 16:29:01.820531 17472 net.cpp:100] Creating Layer accuracy
I0817 16:29:01.820543 17472 net.cpp:434] accuracy <- post_FC_top_post_FC_0_split_0
I0817 16:29:01.820550 17472 net.cpp:434] accuracy <- label_dataLayer_1_split_0
I0817 16:29:01.820564 17472 net.cpp:408] accuracy -> accuracy
…
