…
I0817 16:28:01.513502 17538 net.cpp:322] The NetState phase (0) differed from the phase (1) specified by a rule in layer L3_b9_cbr2_bn
I0817 16:28:01.515251 17538 net.cpp:58] Initializing net from parameters: 
name: "Cifar-Resnet"
state {
  phase: TRAIN
  level: 0
  stage: ""
}
layer {
  name: "dataLayer"
  type: "Data"
  top: "data_top"
  top: "label"
  include {
    phase: TRAIN
  }
  transform_param {
    mirror: true
    crop_size: 32
    mean_file: "examples/cifar10/mean.binaryproto"
  }
  data_param {
    source: "examples/cifar10/cifar10_train_lmdb"
    batch_size: 125
    backend: LMDB
  }
  image_data_param {
    shuffle: true
  }
}
layer {
  name: "pre_conv"
  type: "Convolution"
  bottom: "data_top"
  top: "pre_conv_top"
  param {
    lr_mult: 1
    decay_mult: 1
  }
  param {
    lr_mult: 2
    decay_mult: 0
  }
  convolution_param {
    num_output: 16
    pad: 1
    kernel_size: 3
    stride: 1
    weight_filler {
      type: "msra"
    }
    bias_filler {
      type: "constant"
    }
  }
}
layer {
  name: "pre_bn"
  type: "BatchNorm"
  bottom: "pre_conv_top"
  top: "pre_bn_top"
  include {
    phase: TRAIN
  }
  batch_norm_param {
    use_global_stats: false
    moving_average_fraction: 0.999
  }
}
layer {
  name: "pre_scale"
  type: "Scale"
  bottom: "pre_bn_top"
  top: "pre_bn_top"
  scale_param {
    bias_term: true
  }
}
layer {
  name: "pre_relu"
  type: "ReLU"
  bottom: "pre_bn_top"
  top: "pre_bn_top"
}
layer {
  name: "L1_b1_cbr1_conv"
  type: "Convolution"
  bottom: "pre_bn_top"
  top: "L1_b1_cbr1_conv_top"
  param {
    lr_mult: 1
    decay_mult: 1
  }
  param {
    lr_mult: 2
    decay_mult: 0
  }
  convolution_param {
    num_output: 16
    pad: 1
    kernel_size: 3
    stride: 1
    weight_filler {
      type: "msra"
    }
    bias_filler {
      type: "constant"
    }
  }
}
layer {
  name: "L1_b1_cbr1_bn"
  type: "BatchNorm"
  bottom: "L1_b1_cbr1_conv_top"
  top: "L1_b1_cbr1_bn_top"
  include {
    phase: TRAIN
  }
  batch_norm_param {
    use_global_stats: false
    moving_average_fraction: 0.999
  }
}
layer {
  name: "L1_b1_cbr1_scale"
  type: "Scale"
  bottom: "L1_b1_cbr1_bn_top"
  top: "L1_b1_cbr1_bn_top"
  scale_param {
    bias_term: true
  }
}
layer {
  name: "L1_b1_cbr1_relu"
  type: "ReLU"
  bottom: "L1_b1_cbr1_bn_top"
  top: "L1_b1_cbr1_bn_top"
}
layer {
  name: "L1_b1_cbr2_conv"
  type: "Convolution"
  bottom: "L1_b1_cbr1_bn_top"
  top: "L1_b1_cbr2_conv_top"
  param {
    lr_mult: 1
    decay_mult: 1
  }
  param {
    lr_mult: 2
    decay_mult: 0
  }
  convolution_param {
    num_output: 16
    pad: 1
    kernel_size: 3
    stride: 1
    weight_filler {
      type: "msra"
    }
    bias_filler {
      type: "constant"
    }
  }
}
layer {
  name: "L1_b1_cbr2_bn"
  type: "BatchNorm"
  bottom: "L1_b1_cbr2_conv_top"
  top: "L1_b1_cbr2_bn_top"
  include {
    phase: TRAIN
  }
  batch_norm_param {
    use_global_stats: false
    moving_average_fraction: 0.999
  }
}
layer {
  name: "L1_b1_cbr2_scale"
  type: "Scale"
  bottom: "L1_b1_cbr2_bn_top"
  top: "L1_b1_cbr2_bn_top"
  scale_param {
    bias_term: true
  }
}
layer {
  name: "L1_b1_sum_eltwise"
  type: "Eltwise"
  bottom: "L1_b1_cbr2_bn_top"
  bottom: "pre_bn_top"
  top: "L1_b1_sum_eltwise_top"
  eltwise_param {
    operation: SUM
  }
}
layer {
  name: "L1_b1_relu"
  type: "ReLU"
  bottom: "L1_b1_sum_eltwise_top"
  top: "L1_b1_sum_eltwise_top"
}
layer {
  name: "L1_b2_cbr1_conv"
  type: "Convolution"
  bottom: "L1_b1_sum_eltwise_top"
  top: "L1_b2_cbr1_conv_top"
  param {
    lr_mult: 1
    decay_mult: 1
  }
  param {
    lr_mult: 2
    decay_mult: 0
  }
  convolution_param {
    num_output: 16
    pad: 1
    kernel_size: 3
    stride: 1
    weight_filler {
      type: "msra"
    }
    bias_filler {
      type: "constant"
    }
  }
}
layer {
  name: "L1_b2_cbr1_bn"
  type: "BatchNorm"
  bottom: "L1_b2_cbr1_conv_top"
  top: "L1_b2_cbr1_bn_top"
  include {
    phase: TRAIN
  }
  batch_norm_param {
    use_global_stats: false
    moving_average_fraction: 0.999
  }
}
layer {
  name: "L1_b2_cbr1_scale"
  type: "Scale"
  bottom: "L1_b2_cbr1_bn_top"
  top: "L1_b2_cbr1_bn_top"
  scale_param {
    bias_term: true
  }
}
layer {
  name: "L1_b2_cbr1_relu"
  type: "ReLU"
  bottom: "L1_b2_cbr1_bn_top"
  top: "L1_b2_cbr1_bn_top"
}
layer {
  name: "L1_b2_cbr2_conv"
  type: "Convolution"
  bottom: "L1_b2_cbr1_bn_top"
  top: "L1_b2_cbr2_conv_top"
  param {
    lr_mult: 1
    decay_mult: 1
  }
  param {
    lr_mult: 2
    decay_mult: 0
  }
  convolution_param {
    num_output: 16
    pad: 1
    kernel_size: 3
    stride: 1
    weight_filler {
      type: "msra"
    }
    bias_filler {
      type: "constant"
    }
  }
}
layer {
  name: "L1_b2_cbr2_bn"
  type: "BatchNorm"
  bottom: "L1_b2_cbr2_conv_top"
  top: "L1_b2_cbr2_bn_top"
  include {
    phase: TRAIN
  }
  batch_norm_param {
    use_global_stats: false
    moving_average_fraction: 0.999
  }
}
layer {
  name: "L1_b2_cbr2_scale"
  type: "Scale"
  bottom: "L1_b2_cbr2_bn_top"
  top: "L1_b2_cbr2_bn_top"
  scale_param {
    bias_term: true
  }
}
layer {
  name: "L1_b2_sum_eltwise"
  type: "Eltwise"
  bottom: "L1_b2_cbr2_bn_top"
  bottom: "L1_b1_sum_eltwise_top"
  top: "L1_b2_sum_eltwise_top"
  eltwise_param {
    operation: SUM
  }
}
layer {
  name: "L1_b2_relu"
  type: "ReLU"
  bottom: "L1_b2_sum_eltwise_top"
  top: "L1_b2_sum_eltwise_top"
}
layer {
  name: "L1_b3_cbr1_conv"
  type: "Convolution"
  bottom: "L1_b2_sum_eltwise_top"
  top: "L1_b3_cbr1_conv_top"
  param {
    lr_mult: 1
    decay_mult: 1
  }
  param {
    lr_mult: 2
    decay_mult: 0
  }
  convolution_param {
    num_output: 16
    pad: 1
    kernel_size: 3
    stride: 1
    weight_filler {
      type: "msra"
    }
    bias_filler {
      type: "constant"
    }
  }
}
layer {
  name: "L1_b3_cbr1_bn"
  type: "BatchNorm"
  bottom: "L1_b3_cbr1_conv_top"
  top: "L1_b3_cbr1_bn_top"
  include {
    phase: TRAIN
  }
  batch_norm_param {
    use_global_stats: false
    moving_average_fraction: 0.999
  }
}
layer {
  name: "L1_b3_cbr1_scale"
  type: "Scale"
  bottom: "L1_b3_cbr1_bn_top"
  top: "L1_b3_cbr1_bn_top"
  scale_param {
    bias_term: true
  }
}
layer {
  name: "L1_b3_cbr1_relu"
  type: "ReLU"
  bottom: "L1_b3_cbr1_bn_top"
  top: "L1_b3_cbr1_bn_top"
}
layer {
  name: "L1_b3_cbr2_conv"
  type: "Convolution"
  bottom: "L1_b3_cbr1_bn_top"
  top: "L1_b3_cbr2_conv_top"
  param {
    lr_mult: 1
    decay_mult: 1
  }
  param {
    lr_mult: 2
    decay_mult: 0
  }
  convolution_param {
    num_output: 16
    pad: 1
    kernel_size: 3
    stride: 1
    weight_filler {
      type: "msra"
    }
    bias_filler {
      type: "constant"
    }
  }
}
layer {
  name: "L1_b3_cbr2_bn"
  type: "BatchNorm"
  bottom: "L1_b3_cbr2_conv_top"
  top: "L1_b3_cbr2_bn_top"
  include {
    phase: TRAIN
  }
  batch_norm_param {
    use_global_stats: false
    moving_average_fraction: 0.999
  }
}
layer {
  name: "L1_b3_cbr2_scale"
  type: "Scale"
  bottom: "L1_b3_cbr2_bn_top"
  top: "L1_b3_cbr2_bn_top"
  scale_param {
    bias_term: true
  }
}
layer {
  name: "L1_b3_sum_eltwise"
  type: "Eltwise"
  bottom: "L1_b3_cbr2_bn_top"
  bottom: "L1_b2_sum_eltwise_top"
  top: "L1_b3_sum_eltwise_top"
  eltwise_param {
    operation: SUM
  }
}
layer {
  name: "L1_b3_relu"
  type: "ReLU"
  bottom: "L1_b3_sum_eltwise_top"
  top: "L1_b3_sum_eltwise_top"
}
layer {
  name: "L1_b4_cbr1_conv"
  type: "Convolution"
  bottom: "L1_b3_sum_eltwise_top"
  top: "L1_b4_cbr1_conv_top"
  param {
    lr_mult: 1
    decay_mult: 1
  }
  param {
    lr_mult: 2
    decay_mult: 0
  }
  convolution_param {
    num_output: 16
    pad: 1
    kernel_size: 3
    stride: 1
    weight_filler {
      type: "msra"
    }
    bias_filler {
      type: "constant"
    }
  }
}
layer {
  name: "L1_b4_cbr1_bn"
  type: "BatchNorm"
  bottom: "L1_b4_cbr1_conv_top"
  top: "L1_b4_cbr1_bn_top"
  include {
    phase: TRAIN
  }
  batch_norm_param {
    use_global_stats: false
    moving_average_fraction: 0.999
  }
}
layer {
  name: "L1_b4_cbr1_scale"
  type: "Scale"
  bottom: "L1_b4_cbr1_bn_top"
  top: "L1_b4_cbr1_bn_top"
  scale_param {
    bias_term: true
  }
}
layer {
  name: "L1_b4_cbr1_relu"
  type: "ReLU"
  bottom: "L1_b4_cbr1_bn_top"
  top: "L1_b4_cbr1_bn_top"
}
layer {
  name: "L1_b4_cbr2_conv"
  type: "Convolution"
  bottom: "L1_b4_cbr1_bn_top"
  top: "L1_b4_cbr2_conv_top"
  param {
    lr_mult: 1
    decay_mult: 1
  }
  param {
    lr_mult: 2
    decay_mult: 0
  }
  convolution_param {
    num_output: 16
    pad: 1
    kernel_size: 3
    stride: 1
    weight_filler {
      type: "msra"
    }
    bias_filler {
      type: "constant"
    }
  }
}
layer {
  name: "L1_b4_cbr2_bn"
  type: "BatchNorm"
  bottom: "L1_b4_cbr2_conv_top"
  top: "L1_b4_cbr2_bn_top"
  include {
    phase: TRAIN
  }
  batch_norm_param {
    use_global_stats: false
    moving_average_fraction: 0.999
  }
}
layer {
  name: "L1_b4_cbr2_scale"
  type: "Scale"
  bottom: "L1_b4_cbr2_bn_top"
  top: "L1_b4_cbr2_bn_top"
  scale_param {
    bias_term: true
  }
}
layer {
  name: "L1_b4_sum_eltwise"
  type: "Eltwise"
  bottom: "L1_b4_cbr2_bn_top"
  bottom: "L1_b3_sum_eltwise_top"
  top: "L1_b4_sum_eltwise_top"
  eltwise_param {
    operation: SUM
  }
}
layer {
  name: "L1_b4_relu"
  type: "ReLU"
  bottom: "L1_b4_sum_eltwise_top"
  top: "L1_b4_sum_eltwise_top"
}
layer {
  name: "L1_b5_cbr1_conv"
  type: "Convolution"
  bottom: "L1_b4_sum_eltwise_top"
  top: "L1_b5_cbr1_conv_top"
  param {
    lr_mult: 1
    decay_mult: 1
  }
  param {
    lr_mult: 2
    decay_mult: 0
  }
  convolution_param {
    num_output: 16
    pad: 1
    kernel_size: 3
    stride: 1
    weight_filler {
      type: "msra"
    }
    bias_filler {
      type: "constant"
    }
  }
}
layer {
  name: "L1_b5_cbr1_bn"
  type: "BatchNorm"
  bottom: "L1_b5_cbr1_conv_top"
  top: "L1_b5_cbr1_bn_top"
  include {
    phase: TRAIN
  }
  batch_norm_param {
    use_global_stats: false
    moving_average_fraction: 0.999
  }
}
layer {
  name: "L1_b5_cbr1_scale"
  type: "Scale"
  bottom: "L1_b5_cbr1_bn_top"
  top: "L1_b5_cbr1_bn_top"
  scale_param {
    bias_term: true
  }
}
layer {
  name: "L1_b5_cbr1_relu"
  type: "ReLU"
  bottom: "L1_b5_cbr1_bn_top"
  top: "L1_b5_cbr1_bn_top"
}
layer {
  name: "L1_b5_cbr2_conv"
  type: "Convolution"
  bottom: "L1_b5_cbr1_bn_top"
  top: "L1_b5_cbr2_conv_top"
  param {
    lr_mult: 1
    decay_mult: 1
  }
  param {
    lr_mult: 2
    decay_mult: 0
  }
  convolution_param {
    num_output: 16
    pad: 1
    kernel_size: 3
    stride: 1
    weight_filler {
      type: "msra"
    }
    bias_filler {
      type: "constant"
    }
  }
}
layer {
  name: "L1_b5_cbr2_bn"
  type: "BatchNorm"
  bottom: "L1_b5_cbr2_conv_top"
  top: "L1_b5_cbr2_bn_top"
  include {
    phase: TRAIN
  }
  batch_norm_param {
    use_global_stats: false
    moving_average_fraction: 0.999
  }
}
layer {
  name: "L1_b5_cbr2_scale"
  type: "Scale"
  bottom: "L1_b5_cbr2_bn_top"
  top: "L1_b5_cbr2_bn_top"
  scale_param {
    bias_term: true
  }
}
layer {
  name: "L1_b5_sum_eltwise"
  type: "Eltwise"
  bottom: "L1_b5_cbr2_bn_top"
  bottom: "L1_b4_sum_eltwise_top"
  top: "L1_b5_sum_eltwise_top"
  eltwise_param {
    operation: SUM
  }
}
layer {
  name: "L1_b5_relu"
  type: "ReLU"
  bottom: "L1_b5_sum_eltwise_top"
  top: "L1_b5_sum_eltwise_top"
}
layer {
  name: "L1_b6_cbr1_conv"
  type: "Convolution"
  bottom: "L1_b5_sum_eltwise_top"
  top: "L1_b6_cbr1_conv_top"
  param {
    lr_mult: 1
    decay_mult: 1
  }
  param {
    lr_mult: 2
    decay_mult: 0
  }
  convolution_param {
    num_output: 16
    pad: 1
    kernel_size: 3
    stride: 1
    weight_filler {
      type: "msra"
    }
    bias_filler {
      type: "constant"
    }
  }
}
layer {
  name: "L1_b6_cbr1_bn"
  type: "BatchNorm"
  bottom: "L1_b6_cbr1_conv_top"
  top: "L1_b6_cbr1_bn_top"
  include {
    phase: TRAIN
  }
  batch_norm_param {
    use_global_stats: false
    moving_average_fraction: 0.999
  }
}
layer {
  name: "L1_b6_cbr1_scale"
  type: "Scale"
  bottom: "L1_b6_cbr1_bn_top"
  top: "L1_b6_cbr1_bn_top"
  scale_param {
    bias_term: true
  }
}
layer {
  name: "L1_b6_cbr1_relu"
  type: "ReLU"
  bottom: "L1_b6_cbr1_bn_top"
  top: "L1_b6_cbr1_bn_top"
}
layer {
  name: "L1_b6_cbr2_conv"
  type: "Convolution"
  bottom: "L1_b6_cbr1_bn_top"
  top: "L1_b6_cbr2_conv_top"
  param {
    lr_mult: 1
    decay_mult: 1
  }
  param {
    lr_mult: 2
    decay_mult: 0
  }
  convolution_param {
    num_output: 16
    pad: 1
    kernel_size: 3
    stride: 1
    weight_filler {
      type: "msra"
    }
    bias_filler {
      type: "constant"
    }
  }
}
layer {
  name: "L1_b6_cbr2_bn"
  type: "BatchNorm"
  bottom: "L1_b6_cbr2_conv_top"
  top: "L1_b6_cbr2_bn_top"
  include {
    phase: TRAIN
  }
  batch_norm_param {
    use_global_stats: false
    moving_average_fraction: 0.999
  }
}
layer {
  name: "L1_b6_cbr2_scale"
  type: "Scale"
  bottom: "L1_b6_cbr2_bn_top"
  top: "L1_b6_cbr2_bn_top"
  scale_param {
    bias_term: true
  }
}
layer {
  name: "L1_b6_sum_eltwise"
  type: "Eltwise"
  bottom: "L1_b6_cbr2_bn_top"
  bottom: "L1_b5_sum_eltwise_top"
  top: "L1_b6_sum_eltwise_top"
  eltwise_param {
    operation: SUM
  }
}
layer {
  name: "L1_b6_relu"
  type: "ReLU"
  bottom: "L1_b6_sum_eltwise_top"
  top: "L1_b6_sum_eltwise_top"
}
layer {
  name: "L1_b7_cbr1_conv"
  type: "Convolution"
  bottom: "L1_b6_sum_eltwise_top"
  top: "L1_b7_cbr1_conv_top"
  param {
    lr_mult: 1
    decay_mult: 1
  }
  param {
    lr_mult: 2
    decay_mult: 0
  }
  convolution_param {
    num_output: 16
    pad: 1
    kernel_size: 3
    stride: 1
    weight_filler {
      type: "msra"
    }
    bias_filler {
      type: "constant"
    }
  }
}
layer {
  name: "L1_b7_cbr1_bn"
  type: "BatchNorm"
  bottom: "L1_b7_cbr1_conv_top"
  top: "L1_b7_cbr1_bn_top"
  include {
    phase: TRAIN
  }
  batch_norm_param {
    use_global_stats: false
    moving_average_fraction: 0.999
  }
}
layer {
  name: "L1_b7_cbr1_scale"
  type: "Scale"
  bottom: "L1_b7_cbr1_bn_top"
  top: "L1_b7_cbr1_bn_top"
  scale_param {
    bias_term: true
  }
}
layer {
  name: "L1_b7_cbr1_relu"
  type: "ReLU"
  bottom: "L1_b7_cbr1_bn_top"
  top: "L1_b7_cbr1_bn_top"
}
layer {
  name: "L1_b7_cbr2_conv"
  type: "Convolution"
  bottom: "L1_b7_cbr1_bn_top"
  top: "L1_b7_cbr2_conv_top"
  param {
    lr_mult: 1
    decay_mult: 1
  }
  param {
    lr_mult: 2
    decay_mult: 0
  }
  convolution_param {
    num_output: 16
    pad: 1
    kernel_size: 3
    stride: 1
    weight_filler {
      type: "msra"
    }
    bias_filler {
      type: "constant"
    }
  }
}
layer {
  name: "L1_b7_cbr2_bn"
  type: "BatchNorm"
  bottom: "L1_b7_cbr2_conv_top"
  top: "L1_b7_cbr2_bn_top"
  include {
    phase: TRAIN
  }
  batch_norm_param {
    use_global_stats: false
    moving_average_fraction: 0.999
  }
}
layer {
  name: "L1_b7_cbr2_scale"
  type: "Scale"
  bottom: "L1_b7_cbr2_bn_top"
  top: "L1_b7_cbr2_bn_top"
  scale_param {
    bias_term: true
  }
}
layer {
  name: "L1_b7_sum_eltwise"
  type: "Eltwise"
  bottom: "L1_b7_cbr2_bn_top"
  bottom: "L1_b6_sum_eltwise_top"
  top: "L1_b7_sum_eltwise_top"
  eltwise_param {
    operation: SUM
  }
}
layer {
  name: "L1_b7_relu"
  type: "ReLU"
  bottom: "L1_b7_sum_eltwise_top"
  top: "L1_b7_sum_eltwise_top"
}
layer {
  name: "L1_b8_cbr1_conv"
  type: "Convolution"
  bottom: "L1_b7_sum_eltwise_top"
  top: "L1_b8_cbr1_conv_top"
  param {
    lr_mult: 1
    decay_mult: 1
  }
  param {
    lr_mult: 2
    decay_mult: 0
  }
  convolution_param {
    num_output: 16
    pad: 1
    kernel_size: 3
    stride: 1
    weight_filler {
      type: "msra"
    }
    bias_filler {
      type: "constant"
    }
  }
}
layer {
  name: "L1_b8_cbr1_bn"
  type: "BatchNorm"
  bottom: "L1_b8_cbr1_conv_top"
  top: "L1_b8_cbr1_bn_top"
  include {
    phase: TRAIN
  }
  batch_norm_param {
    use_global_stats: false
    moving_average_fraction: 0.999
  }
}
layer {
  name: "L1_b8_cbr1_scale"
  type: "Scale"
  bottom: "L1_b8_cbr1_bn_top"
  top: "L1_b8_cbr1_bn_top"
  scale_param {
    bias_term: true
  }
}
layer {
  name: "L1_b8_cbr1_relu"
  type: "ReLU"
  bottom: "L1_b8_cbr1_bn_top"
  top: "L1_b8_cbr1_bn_top"
}
layer {
  name: "L1_b8_cbr2_conv"
  type: "Convolution"
  bottom: "L1_b8_cbr1_bn_top"
  top: "L1_b8_cbr2_conv_top"
  param {
    lr_mult: 1
    decay_mult: 1
  }
  param {
    lr_mult: 2
    decay_mult: 0
  }
  convolution_param {
    num_output: 16
    pad: 1
    kernel_size: 3
    stride: 1
    weight_filler {
      type: "msra"
    }
    bias_filler {
      type: "constant"
    }
  }
}
layer {
  name: "L1_b8_cbr2_bn"
  type: "BatchNorm"
  bottom: "L1_b8_cbr2_conv_top"
  top: "L1_b8_cbr2_bn_top"
  include {
    phase: TRAIN
  }
  batch_norm_param {
    use_global_stats: false
    moving_average_fraction: 0.999
  }
}
layer {
  name: "L1_b8_cbr2_scale"
  type: "Scale"
  bottom: "L1_b8_cbr2_bn_top"
  top: "L1_b8_cbr2_bn_top"
  scale_param {
    bias_term: true
  }
}
layer {
  name: "L1_b8_sum_eltwise"
  type: "Eltwise"
  bottom: "L1_b8_cbr2_bn_top"
  bottom: "L1_b7_sum_eltwise_top"
  top: "L1_b8_sum_eltwise_top"
  eltwise_param {
    operation: SUM
  }
}
layer {
  name: "L1_b8_relu"
  type: "ReLU"
  bottom: "L1_b8_sum_eltwise_top"
  top: "L1_b8_sum_eltwise_top"
}
layer {
  name: "L1_b9_cbr1_conv"
  type: "Convolution"
  bottom: "L1_b8_sum_eltwise_top"
  top: "L1_b9_cbr1_conv_top"
  param {
    lr_mult: 1
    decay_mult: 1
  }
  param {
    lr_mult: 2
    decay_mult: 0
  }
  convolution_param {
    num_output: 16
    pad: 1
    kernel_size: 3
    stride: 1
    weight_filler {
      type: "msra"
    }
    bias_filler {
      type: "constant"
    }
  }
}
layer {
  name: "L1_b9_cbr1_bn"
  type: "BatchNorm"
  bottom: "L1_b9_cbr1_conv_top"
  top: "L1_b9_cbr1_bn_top"
  include {
    phase: TRAIN
  }
  batch_norm_param {
    use_global_stats: false
    moving_average_fraction: 0.999
  }
}
layer {
  name: "L1_b9_cbr1_scale"
  type: "Scale"
  bottom: "L1_b9_cbr1_bn_top"
  top: "L1_b9_cbr1_bn_top"
  scale_param {
    bias_term: true
  }
}
layer {
  name: "L1_b9_cbr1_relu"
  type: "ReLU"
  bottom: "L1_b9_cbr1_bn_top"
  top: "L1_b9_cbr1_bn_top"
}
layer {
  name: "L1_b9_cbr2_conv"
  type: "Convolution"
  bottom: "L1_b9_cbr1_bn_top"
  top: "L1_b9_cbr2_conv_top"
  param {
    lr_mult: 1
    decay_mult: 1
  }
  param {
    lr_mult: 2
    decay_mult: 0
  }
  convolution_param {
    num_output: 16
    pad: 1
    kernel_size: 3
    stride: 1
    weight_filler {
      type: "msra"
    }
    bias_filler {
      type: "constant"
    }
  }
}
layer {
  name: "L1_b9_cbr2_bn"
  type: "BatchNorm"
  bottom: "L1_b9_cbr2_conv_top"
  top: "L1_b9_cbr2_bn_top"
  include {
    phase: TRAIN
  }
  batch_norm_param {
    use_global_stats: false
    moving_average_fraction: 0.999
  }
}
layer {
  name: "L1_b9_cbr2_scale"
  type: "Scale"
  bottom: "L1_b9_cbr2_bn_top"
  top: "L1_b9_cbr2_bn_top"
  scale_param {
    bias_term: true
  }
}
layer {
  name: "L1_b9_sum_eltwise"
  type: "Eltwise"
  bottom: "L1_b9_cbr2_bn_top"
  bottom: "L1_b8_sum_eltwise_top"
  top: "L1_b9_sum_eltwise_top"
  eltwise_param {
    operation: SUM
  }
}
layer {
  name: "L1_b9_relu"
  type: "ReLU"
  bottom: "L1_b9_sum_eltwise_top"
  top: "L1_b9_sum_eltwise_top"
}
layer {
  name: "L2_b1_cbr1_conv"
  type: "Convolution"
  bottom: "L1_b9_sum_eltwise_top"
  top: "L2_b1_cbr1_conv_top"
  param {
    lr_mult: 1
    decay_mult: 1
  }
  param {
    lr_mult: 2
    decay_mult: 0
  }
  convolution_param {
    num_output: 16
    pad: 1
    kernel_size: 3
    stride: 2
    weight_filler {
      type: "msra"
    }
    bias_filler {
      type: "constant"
    }
  }
}
layer {
  name: "L2_b1_cbr1_bn"
  type: "BatchNorm"
  bottom: "L2_b1_cbr1_conv_top"
  top: "L2_b1_cbr1_bn_top"
  include {
    phase: TRAIN
  }
  batch_norm_param {
    use_global_stats: false
    moving_average_fraction: 0.999
  }
}
layer {
  name: "L2_b1_cbr1_scale"
  type: "Scale"
  bottom: "L2_b1_cbr1_bn_top"
  top: "L2_b1_cbr1_bn_top"
  scale_param {
    bias_term: true
  }
}
layer {
  name: "L2_b1_cbr1_relu"
  type: "ReLU"
  bottom: "L2_b1_cbr1_bn_top"
  top: "L2_b1_cbr1_bn_top"
}
layer {
  name: "L2_b1_cbr2_conv"
  type: "Convolution"
  bottom: "L2_b1_cbr1_bn_top"
  top: "L2_b1_cbr2_conv_top"
  param {
    lr_mult: 1
    decay_mult: 1
  }
  param {
    lr_mult: 2
    decay_mult: 0
  }
  convolution_param {
    num_output: 16
    pad: 1
    kernel_size: 3
    stride: 1
    weight_filler {
      type: "msra"
    }
    bias_filler {
      type: "constant"
    }
  }
}
layer {
  name: "L2_b1_cbr2_bn"
  type: "BatchNorm"
  bottom: "L2_b1_cbr2_conv_top"
  top: "L2_b1_cbr2_bn_top"
  include {
    phase: TRAIN
  }
  batch_norm_param {
    use_global_stats: false
    moving_average_fraction: 0.999
  }
}
layer {
  name: "L2_b1_cbr2_scale"
  type: "Scale"
  bottom: "L2_b1_cbr2_bn_top"
  top: "L2_b1_cbr2_bn_top"
  scale_param {
    bias_term: true
  }
}
layer {
  name: "L2_b1_pool"
  type: "Pooling"
  bottom: "L1_b9_sum_eltwise_top"
  top: "L2_b1_pool"
  pooling_param {
    pool: AVE
    kernel_size: 3
    stride: 2
  }
}
layer {
  name: "L2_b1_sum_eltwise"
  type: "Eltwise"
  bottom: "L2_b1_cbr2_bn_top"
  bottom: "L2_b1_pool"
  top: "L2_b1_sum_eltwise_top"
  eltwise_param {
    operation: SUM
  }
}
layer {
  name: "L2_b1_relu"
  type: "ReLU"
  bottom: "L2_b1_sum_eltwise_top"
  top: "L2_b1_sum_eltwise_top"
}
layer {
  name: "L2_b1_zeros"
  type: "DummyData"
  top: "L2_b1_zeros"
  dummy_data_param {
    data_filler {
      type: "constant"
      value: 0
    }
    shape {
      dim: 125
      dim: 16
      dim: 16
      dim: 16
    }
  }
}
layer {
  name: "L2_b1_concat0"
  type: "Concat"
  bottom: "L2_b1_sum_eltwise_top"
  bottom: "L2_b1_zeros"
  top: "L2_b1_concat0"
  concat_param {
    axis: 1
  }
}
layer {
  name: "L2_b2_cbr1_conv"
  type: "Convolution"
  bottom: "L2_b1_concat0"
  top: "L2_b2_cbr1_conv_top"
  param {
    lr_mult: 1
    decay_mult: 1
  }
  param {
    lr_mult: 2
    decay_mult: 0
  }
  convolution_param {
    num_output: 32
    pad: 1
    kernel_size: 3
    stride: 1
    weight_filler {
      type: "msra"
    }
    bias_filler {
      type: "constant"
    }
  }
}
layer {
  name: "L2_b2_cbr1_bn"
  type: "BatchNorm"
  bottom: "L2_b2_cbr1_conv_top"
  top: "L2_b2_cbr1_bn_top"
  include {
    phase: TRAIN
  }
  batch_norm_param {
    use_global_stats: false
    moving_average_fraction: 0.999
  }
}
layer {
  name: "L2_b2_cbr1_scale"
  type: "Scale"
  bottom: "L2_b2_cbr1_bn_top"
  top: "L2_b2_cbr1_bn_top"
  scale_param {
    bias_term: true
  }
}
layer {
  name: "L2_b2_cbr1_relu"
  type: "ReLU"
  bottom: "L2_b2_cbr1_bn_top"
  top: "L2_b2_cbr1_bn_top"
}
layer {
  name: "L2_b2_cbr2_conv"
  type: "Convolution"
  bottom: "L2_b2_cbr1_bn_top"
  top: "L2_b2_cbr2_conv_top"
  param {
    lr_mult: 1
    decay_mult: 1
  }
  param {
    lr_mult: 2
    decay_mult: 0
  }
  convolution_param {
    num_output: 32
    pad: 1
    kernel_size: 3
    stride: 1
    weight_filler {
      type: "msra"
    }
    bias_filler {
      type: "constant"
    }
  }
}
layer {
  name: "L2_b2_cbr2_bn"
  type: "BatchNorm"
  bottom: "L2_b2_cbr2_conv_top"
  top: "L2_b2_cbr2_bn_top"
  include {
    phase: TRAIN
  }
  batch_norm_param {
    use_global_stats: false
    moving_average_fraction: 0.999
  }
}
layer {
  name: "L2_b2_cbr2_scale"
  type: "Scale"
  bottom: "L2_b2_cbr2_bn_top"
  top: "L2_b2_cbr2_bn_top"
  scale_param {
    bias_term: true
  }
}
layer {
  name: "L2_b2_sum_eltwise"
  type: "Eltwise"
  bottom: "L2_b2_cbr2_bn_top"
  bottom: "L2_b1_concat0"
  top: "L2_b2_sum_eltwise_top"
  eltwise_param {
    operation: SUM
  }
}
layer {
  name: "L2_b2_relu"
  type: "ReLU"
  bottom: "L2_b2_sum_eltwise_top"
  top: "L2_b2_sum_eltwise_top"
}
layer {
  name: "L2_b3_cbr1_conv"
  type: "Convolution"
  bottom: "L2_b2_sum_eltwise_top"
  top: "L2_b3_cbr1_conv_top"
  param {
    lr_mult: 1
    decay_mult: 1
  }
  param {
    lr_mult: 2
    decay_mult: 0
  }
  convolution_param {
    num_output: 32
    pad: 1
    kernel_size: 3
    stride: 1
    weight_filler {
      type: "msra"
    }
    bias_filler {
      type: "constant"
    }
  }
}
layer {
  name: "L2_b3_cbr1_bn"
  type: "BatchNorm"
  bottom: "L2_b3_cbr1_conv_top"
  top: "L2_b3_cbr1_bn_top"
  include {
    phase: TRAIN
  }
  batch_norm_param {
    use_global_stats: false
    moving_average_fraction: 0.999
  }
}
layer {
  name: "L2_b3_cbr1_scale"
  type: "Scale"
  bottom: "L2_b3_cbr1_bn_top"
  top: "L2_b3_cbr1_bn_top"
  scale_param {
    bias_term: true
  }
}
layer {
  name: "L2_b3_cbr1_relu"
  type: "ReLU"
  bottom: "L2_b3_cbr1_bn_top"
  top: "L2_b3_cbr1_bn_top"
}
layer {
  name: "L2_b3_cbr2_conv"
  type: "Convolution"
  bottom: "L2_b3_cbr1_bn_top"
  top: "L2_b3_cbr2_conv_top"
  param {
    lr_mult: 1
    decay_mult: 1
  }
  param {
    lr_mult: 2
    decay_mult: 0
  }
  convolution_param {
    num_output: 32
    pad: 1
    kernel_size: 3
    stride: 1
    weight_filler {
      type: "msra"
    }
    bias_filler {
      type: "constant"
    }
  }
}
layer {
  name: "L2_b3_cbr2_bn"
  type: "BatchNorm"
  bottom: "L2_b3_cbr2_conv_top"
  top: "L2_b3_cbr2_bn_top"
  include {
    phase: TRAIN
  }
  batch_norm_param {
    use_global_stats: false
    moving_average_fraction: 0.999
  }
}
layer {
  name: "L2_b3_cbr2_scale"
  type: "Scale"
  bottom: "L2_b3_cbr2_bn_top"
  top: "L2_b3_cbr2_bn_top"
  scale_param {
    bias_term: true
  }
}
layer {
  name: "L2_b3_sum_eltwise"
  type: "Eltwise"
  bottom: "L2_b3_cbr2_bn_top"
  bottom: "L2_b2_sum_eltwise_top"
  top: "L2_b3_sum_eltwise_top"
  eltwise_param {
    operation: SUM
  }
}
layer {
  name: "L2_b3_relu"
  type: "ReLU"
  bottom: "L2_b3_sum_eltwise_top"
  top: "L2_b3_sum_eltwise_top"
}
layer {
  name: "L2_b4_cbr1_conv"
  type: "Convolution"
  bottom: "L2_b3_sum_eltwise_top"
  top: "L2_b4_cbr1_conv_top"
  param {
    lr_mult: 1
    decay_mult: 1
  }
  param {
    lr_mult: 2
    decay_mult: 0
  }
  convolution_param {
    num_output: 32
    pad: 1
    kernel_size: 3
    stride: 1
    weight_filler {
      type: "msra"
    }
    bias_filler {
      type: "constant"
    }
  }
}
layer {
  name: "L2_b4_cbr1_bn"
  type: "BatchNorm"
  bottom: "L2_b4_cbr1_conv_top"
  top: "L2_b4_cbr1_bn_top"
  include {
    phase: TRAIN
  }
  batch_norm_param {
    use_global_stats: false
    moving_average_fraction: 0.999
  }
}
layer {
  name: "L2_b4_cbr1_scale"
  type: "Scale"
  bottom: "L2_b4_cbr1_bn_top"
  top: "L2_b4_cbr1_bn_top"
  scale_param {
    bias_term: true
  }
}
layer {
  name: "L2_b4_cbr1_relu"
  type: "ReLU"
  bottom: "L2_b4_cbr1_bn_top"
  top: "L2_b4_cbr1_bn_top"
}
layer {
  name: "L2_b4_cbr2_conv"
  type: "Convolution"
  bottom: "L2_b4_cbr1_bn_top"
  top: "L2_b4_cbr2_conv_top"
  param {
    lr_mult: 1
    decay_mult: 1
  }
  param {
    lr_mult: 2
    decay_mult: 0
  }
  convolution_param {
    num_output: 32
    pad: 1
    kernel_size: 3
    stride: 1
    weight_filler {
      type: "msra"
    }
    bias_filler {
      type: "constant"
    }
  }
}
layer {
  name: "L2_b4_cbr2_bn"
  type: "BatchNorm"
  bottom: "L2_b4_cbr2_conv_top"
  top: "L2_b4_cbr2_bn_top"
  include {
    phase: TRAIN
  }
  batch_norm_param {
    use_global_stats: false
    moving_average_fraction: 0.999
  }
}
layer {
  name: "L2_b4_cbr2_scale"
  type: "Scale"
  bottom: "L2_b4_cbr2_bn_top"
  top: "L2_b4_cbr2_bn_top"
  scale_param {
    bias_term: true
  }
}
layer {
  name: "L2_b4_sum_eltwise"
  type: "Eltwise"
  bottom: "L2_b4_cbr2_bn_top"
  bottom: "L2_b3_sum_eltwise_top"
  top: "L2_b4_sum_eltwise_top"
  eltwise_param {
    operation: SUM
  }
}
layer {
  name: "L2_b4_relu"
  type: "ReLU"
  bottom: "L2_b4_sum_eltwise_top"
  top: "L2_b4_sum_eltwise_top"
}
layer {
  name: "L2_b5_cbr1_conv"
  type: "Convolution"
  bottom: "L2_b4_sum_eltwise_top"
  top: "L2_b5_cbr1_conv_top"
  param {
    lr_mult: 1
    decay_mult: 1
  }
  param {
    lr_mult: 2
    decay_mult: 0
  }
  convolution_param {
    num_output: 32
    pad: 1
    kernel_size: 3
    stride: 1
    weight_filler {
      type: "msra"
    }
    bias_filler {
      type: "constant"
    }
  }
}
layer {
  name: "L2_b5_cbr1_bn"
  type: "BatchNorm"
  bottom: "L2_b5_cbr1_conv_top"
  top: "L2_b5_cbr1_bn_top"
  include {
    phase: TRAIN
  }
  batch_norm_param {
    use_global_stats: false
    moving_average_fraction: 0.999
  }
}
layer {
  name: "L2_b5_cbr1_scale"
  type: "Scale"
  bottom: "L2_b5_cbr1_bn_top"
  top: "L2_b5_cbr1_bn_top"
  scale_param {
    bias_term: true
  }
}
layer {
  name: "L2_b5_cbr1_relu"
  type: "ReLU"
  bottom: "L2_b5_cbr1_bn_top"
  top: "L2_b5_cbr1_bn_top"
}
layer {
  name: "L2_b5_cbr2_conv"
  type: "Convolution"
  bottom: "L2_b5_cbr1_bn_top"
  top: "L2_b5_cbr2_conv_top"
  param {
    lr_mult: 1
    decay_mult: 1
  }
  param {
    lr_mult: 2
    decay_mult: 0
  }
  convolution_param {
    num_output: 32
    pad: 1
    kernel_size: 3
    stride: 1
    weight_filler {
      type: "msra"
    }
    bias_filler {
      type: "constant"
    }
  }
}
layer {
  name: "L2_b5_cbr2_bn"
  type: "BatchNorm"
  bottom: "L2_b5_cbr2_conv_top"
  top: "L2_b5_cbr2_bn_top"
  include {
    phase: TRAIN
  }
  batch_norm_param {
    use_global_stats: false
    moving_average_fraction: 0.999
  }
}
layer {
  name: "L2_b5_cbr2_scale"
  type: "Scale"
  bottom: "L2_b5_cbr2_bn_top"
  top: "L2_b5_cbr2_bn_top"
  scale_param {
    bias_term: true
  }
}
layer {
  name: "L2_b5_sum_eltwise"
  type: "Eltwise"
  bottom: "L2_b5_cbr2_bn_top"
  bottom: "L2_b4_sum_eltwise_top"
  top: "L2_b5_sum_eltwise_top"
  eltwise_param {
    operation: SUM
  }
}
layer {
  name: "L2_b5_relu"
  type: "ReLU"
  bottom: "L2_b5_sum_eltwise_top"
  top: "L2_b5_sum_eltwise_top"
}
layer {
  name: "L2_b6_cbr1_conv"
  type: "Convolution"
  bottom: "L2_b5_sum_eltwise_top"
  top: "L2_b6_cbr1_conv_top"
  param {
    lr_mult: 1
    decay_mult: 1
  }
  param {
    lr_mult: 2
    decay_mult: 0
  }
  convolution_param {
    num_output: 32
    pad: 1
    kernel_size: 3
    stride: 1
    weight_filler {
      type: "msra"
    }
    bias_filler {
      type: "constant"
    }
  }
}
layer {
  name: "L2_b6_cbr1_bn"
  type: "BatchNorm"
  bottom: "L2_b6_cbr1_conv_top"
  top: "L2_b6_cbr1_bn_top"
  include {
    phase: TRAIN
  }
  batch_norm_param {
    use_global_stats: false
    moving_average_fraction: 0.999
I0817 16:28:01.517328 17538 layer_factory.hpp:77] Creating layer dataLayer
I0817 16:28:01.518541 17538 net.cpp:100] Creating Layer dataLayer
I0817 16:28:01.518615 17538 net.cpp:408] dataLayer -> data_top
I0817 16:28:01.518800 17538 net.cpp:408] dataLayer -> label
I0817 16:28:01.518916 17538 data_transformer.cpp:25] Loading mean file from: examples/cifar10/mean.binaryproto
I0817 16:28:01.528430 17543 db_lmdb.cpp:35] Opened lmdb examples/cifar10/cifar10_train_lmdb
I0817 16:28:01.550786 17538 data_layer.cpp:41] output data size: 125,3,32,32
I0817 16:28:01.557972 17538 net.cpp:150] Setting up dataLayer
I0817 16:28:01.558033 17538 net.cpp:157] Top shape: 125 3 32 32 (384000)
I0817 16:28:01.558045 17538 net.cpp:157] Top shape: 125 (125)
I0817 16:28:01.558051 17538 net.cpp:165] Memory required for data: 1536500
I0817 16:28:01.558068 17538 layer_factory.hpp:77] Creating layer label_dataLayer_1_split
I0817 16:28:01.558082 17538 net.cpp:100] Creating Layer label_dataLayer_1_split
I0817 16:28:01.558090 17538 net.cpp:434] label_dataLayer_1_split <- label
I0817 16:28:01.558122 17538 net.cpp:408] label_dataLayer_1_split -> label_dataLayer_1_split_0
I0817 16:28:01.558141 17538 net.cpp:408] label_dataLayer_1_split -> label_dataLayer_1_split_1
I0817 16:28:01.558220 17538 net.cpp:150] Setting up label_dataLayer_1_split
I0817 16:28:01.558233 17538 net.cpp:157] Top shape: 125 (125)
I0817 16:28:01.558239 17538 net.cpp:157] Top shape: 125 (125)
I0817 16:28:01.558244 17538 net.cpp:165] Memory required for data: 1537500
I0817 16:28:01.558250 17538 layer_factory.hpp:77] Creating layer pre_conv
I0817 16:28:01.558312 17538 net.cpp:100] Creating Layer pre_conv
I0817 16:28:01.558324 17538 net.cpp:434] pre_conv <- data_top
I0817 16:28:01.558337 17538 net.cpp:408] pre_conv -> pre_conv_top
I0817 16:28:01.560050 17538 net.cpp:150] Setting up pre_conv
I0817 16:28:01.560079 17538 net.cpp:157] Top shape: 125 16 32 32 (2048000)
I0817 16:28:01.560086 17538 net.cpp:165] Memory required for data: 9729500
I0817 16:28:01.560153 17538 layer_factory.hpp:77] Creating layer pre_bn
I0817 16:28:01.560232 17538 net.cpp:100] Creating Layer pre_bn
I0817 16:28:01.560245 17538 net.cpp:434] pre_bn <- pre_conv_top
I0817 16:28:01.560257 17538 net.cpp:408] pre_bn -> pre_bn_top
I0817 16:28:01.560586 17544 blocking_queue.cpp:50] Waiting for data
I0817 16:28:01.560712 17538 net.cpp:150] Setting up pre_bn
I0817 16:28:01.560731 17538 net.cpp:157] Top shape: 125 16 32 32 (2048000)
I0817 16:28:01.560737 17538 net.cpp:165] Memory required for data: 17921500
I0817 16:28:01.560755 17538 layer_factory.hpp:77] Creating layer pre_scale
I0817 16:28:01.560803 17538 net.cpp:100] Creating Layer pre_scale
I0817 16:28:01.560813 17538 net.cpp:434] pre_scale <- pre_bn_top
I0817 16:28:01.560822 17538 net.cpp:395] pre_scale -> pre_bn_top (in-place)
I0817 16:28:01.560988 17538 layer_factory.hpp:77] Creating layer pre_scale
I0817 16:28:01.561246 17538 net.cpp:150] Setting up pre_scale
I0817 16:28:01.561262 17538 net.cpp:157] Top shape: 125 16 32 32 (2048000)
I0817 16:28:01.561269 17538 net.cpp:165] Memory required for data: 26113500
I0817 16:28:01.561280 17538 layer_factory.hpp:77] Creating layer pre_relu
I0817 16:28:01.561326 17538 net.cpp:100] Creating Layer pre_relu
I0817 16:28:01.561334 17538 net.cpp:434] pre_relu <- pre_bn_top
I0817 16:28:01.561343 17538 net.cpp:395] pre_relu -> pre_bn_top (in-place)
I0817 16:28:01.561353 17538 net.cpp:150] Setting up pre_relu
I0817 16:28:01.561362 17538 net.cpp:157] Top shape: 125 16 32 32 (2048000)
I0817 16:28:01.561367 17538 net.cpp:165] Memory required for data: 34305500
I0817 16:28:01.561372 17538 layer_factory.hpp:77] Creating layer pre_bn_top_pre_relu_0_split
I0817 16:28:01.561383 17538 net.cpp:100] Creating Layer pre_bn_top_pre_relu_0_split
I0817 16:28:01.561388 17538 net.cpp:434] pre_bn_top_pre_relu_0_split <- pre_bn_top
I0817 16:28:01.561395 17538 net.cpp:408] pre_bn_top_pre_relu_0_split -> pre_bn_top_pre_relu_0_split_0
I0817 16:28:01.561405 17538 net.cpp:408] pre_bn_top_pre_relu_0_split -> pre_bn_top_pre_relu_0_split_1
I0817 16:28:01.561453 17538 net.cpp:150] Setting up pre_bn_top_pre_relu_0_split
I0817 16:28:01.561465 17538 net.cpp:157] Top shape: 125 16 32 32 (2048000)
I0817 16:28:01.561472 17538 net.cpp:157] Top shape: 125 16 32 32 (2048000)
I0817 16:28:01.561477 17538 net.cpp:165] Memory required for data: 50689500
I0817 16:28:01.561483 17538 layer_factory.hpp:77] Creating layer L1_b1_cbr1_conv
I0817 16:28:01.561497 17538 net.cpp:100] Creating Layer L1_b1_cbr1_conv
I0817 16:28:01.561504 17538 net.cpp:434] L1_b1_cbr1_conv <- pre_bn_top_pre_relu_0_split_0
I0817 16:28:01.561513 17538 net.cpp:408] L1_b1_cbr1_conv -> L1_b1_cbr1_conv_top
I0817 16:28:01.561815 17538 net.cpp:150] Setting up L1_b1_cbr1_conv
I0817 16:28:01.561830 17538 net.cpp:157] Top shape: 125 16 32 32 (2048000)
I0817 16:28:01.561836 17538 net.cpp:165] Memory required for data: 58881500
I0817 16:28:01.561856 17538 layer_factory.hpp:77] Creating layer L1_b1_cbr1_bn
I0817 16:28:01.561870 17538 net.cpp:100] Creating Layer L1_b1_cbr1_bn
I0817 16:28:01.561877 17538 net.cpp:434] L1_b1_cbr1_bn <- L1_b1_cbr1_conv_top
I0817 16:28:01.561888 17538 net.cpp:408] L1_b1_cbr1_bn -> L1_b1_cbr1_bn_top
I0817 16:28:01.562125 17538 net.cpp:150] Setting up L1_b1_cbr1_bn
I0817 16:28:01.562139 17538 net.cpp:157] Top shape: 125 16 32 32 (2048000)
I0817 16:28:01.562144 17538 net.cpp:165] Memory required for data: 67073500
I0817 16:28:01.562155 17538 layer_factory.hpp:77] Creating layer L1_b1_cbr1_scale
I0817 16:28:01.562165 17538 net.cpp:100] Creating Layer L1_b1_cbr1_scale
I0817 16:28:01.562170 17538 net.cpp:434] L1_b1_cbr1_scale <- L1_b1_cbr1_bn_top
I0817 16:28:01.562177 17538 net.cpp:395] L1_b1_cbr1_scale -> L1_b1_cbr1_bn_top (in-place)
I0817 16:28:01.562230 17538 layer_factory.hpp:77] Creating layer L1_b1_cbr1_scale
I0817 16:28:01.562368 17538 net.cpp:150] Setting up L1_b1_cbr1_scale
I0817 16:28:01.562381 17538 net.cpp:157] Top shape: 125 16 32 32 (2048000)
I0817 16:28:01.562386 17538 net.cpp:165] Memory required for data: 75265500
I0817 16:28:01.562397 17538 layer_factory.hpp:77] Creating layer L1_b1_cbr1_relu
I0817 16:28:01.562415 17538 net.cpp:100] Creating Layer L1_b1_cbr1_relu
I0817 16:28:01.562422 17538 net.cpp:434] L1_b1_cbr1_relu <- L1_b1_cbr1_bn_top
I0817 16:28:01.562428 17538 net.cpp:395] L1_b1_cbr1_relu -> L1_b1_cbr1_bn_top (in-place)
I0817 16:28:01.562438 17538 net.cpp:150] Setting up L1_b1_cbr1_relu
I0817 16:28:01.562445 17538 net.cpp:157] Top shape: 125 16 32 32 (2048000)
I0817 16:28:01.562450 17538 net.cpp:165] Memory required for data: 83457500
I0817 16:28:01.562455 17538 layer_factory.hpp:77] Creating layer L1_b1_cbr2_conv
I0817 16:28:01.562469 17538 net.cpp:100] Creating Layer L1_b1_cbr2_conv
I0817 16:28:01.562475 17538 net.cpp:434] L1_b1_cbr2_conv <- L1_b1_cbr1_bn_top
I0817 16:28:01.562489 17538 net.cpp:408] L1_b1_cbr2_conv -> L1_b1_cbr2_conv_top
I0817 16:28:01.562790 17538 net.cpp:150] Setting up L1_b1_cbr2_conv
I0817 16:28:01.562804 17538 net.cpp:157] Top shape: 125 16 32 32 (2048000)
I0817 16:28:01.562810 17538 net.cpp:165] Memory required for data: 91649500
I0817 16:28:01.562819 17538 layer_factory.hpp:77] Creating layer L1_b1_cbr2_bn
I0817 16:28:01.562831 17538 net.cpp:100] Creating Layer L1_b1_cbr2_bn
I0817 16:28:01.562837 17538 net.cpp:434] L1_b1_cbr2_bn <- L1_b1_cbr2_conv_top
I0817 16:28:01.562846 17538 net.cpp:408] L1_b1_cbr2_bn -> L1_b1_cbr2_bn_top
I0817 16:28:01.563076 17538 net.cpp:150] Setting up L1_b1_cbr2_bn
I0817 16:28:01.563089 17538 net.cpp:157] Top shape: 125 16 32 32 (2048000)
I0817 16:28:01.563094 17538 net.cpp:165] Memory required for data: 99841500
I0817 16:28:01.563114 17538 layer_factory.hpp:77] Creating layer L1_b1_cbr2_scale
I0817 16:28:01.563124 17538 net.cpp:100] Creating Layer L1_b1_cbr2_scale
I0817 16:28:01.563129 17538 net.cpp:434] L1_b1_cbr2_scale <- L1_b1_cbr2_bn_top
I0817 16:28:01.563141 17538 net.cpp:395] L1_b1_cbr2_scale -> L1_b1_cbr2_bn_top (in-place)
I0817 16:28:01.563196 17538 layer_factory.hpp:77] Creating layer L1_b1_cbr2_scale
I0817 16:28:01.563334 17538 net.cpp:150] Setting up L1_b1_cbr2_scale
I0817 16:28:01.563349 17538 net.cpp:157] Top shape: 125 16 32 32 (2048000)
I0817 16:28:01.563354 17538 net.cpp:165] Memory required for data: 108033500
I0817 16:28:01.563362 17538 layer_factory.hpp:77] Creating layer L1_b1_sum_eltwise
I0817 16:28:01.563415 17538 net.cpp:100] Creating Layer L1_b1_sum_eltwise
I0817 16:28:01.563426 17538 net.cpp:434] L1_b1_sum_eltwise <- L1_b1_cbr2_bn_top
I0817 16:28:01.563433 17538 net.cpp:434] L1_b1_sum_eltwise <- pre_bn_top_pre_relu_0_split_1
I0817 16:28:01.563441 17538 net.cpp:408] L1_b1_sum_eltwise -> L1_b1_sum_eltwise_top
I0817 16:28:01.563514 17538 net.cpp:150] Setting up L1_b1_sum_eltwise
I0817 16:28:01.563529 17538 net.cpp:157] Top shape: 125 16 32 32 (2048000)
I0817 16:28:01.563534 17538 net.cpp:165] Memory required for data: 116225500
I0817 16:28:01.563545 17538 layer_factory.hpp:77] Creating layer L1_b1_relu
I0817 16:28:01.563555 17538 net.cpp:100] Creating Layer L1_b1_relu
I0817 16:28:01.563560 17538 net.cpp:434] L1_b1_relu <- L1_b1_sum_eltwise_top
I0817 16:28:01.563566 17538 net.cpp:395] L1_b1_relu -> L1_b1_sum_eltwise_top (in-place)
I0817 16:28:01.563576 17538 net.cpp:150] Setting up L1_b1_relu
I0817 16:28:01.563583 17538 net.cpp:157] Top shape: 125 16 32 32 (2048000)
I0817 16:28:01.563588 17538 net.cpp:165] Memory required for data: 124417500
I0817 16:28:01.563593 17538 layer_factory.hpp:77] Creating layer L1_b1_sum_eltwise_top_L1_b1_relu_0_split
I0817 16:28:01.563602 17538 net.cpp:100] Creating Layer L1_b1_sum_eltwise_top_L1_b1_relu_0_split
I0817 16:28:01.563607 17538 net.cpp:434] L1_b1_sum_eltwise_top_L1_b1_relu_0_split <- L1_b1_sum_eltwise_top
I0817 16:28:01.563617 17538 net.cpp:408] L1_b1_sum_eltwise_top_L1_b1_relu_0_split -> L1_b1_sum_eltwise_top_L1_b1_relu_0_split_0
I0817 16:28:01.563627 17538 net.cpp:408] L1_b1_sum_eltwise_top_L1_b1_relu_0_split -> L1_b1_sum_eltwise_top_L1_b1_relu_0_split_1
I0817 16:28:01.563668 17538 net.cpp:150] Setting up L1_b1_sum_eltwise_top_L1_b1_relu_0_split
I0817 16:28:01.563683 17538 net.cpp:157] Top shape: 125 16 32 32 (2048000)
I0817 16:28:01.563697 17538 net.cpp:157] Top shape: 125 16 32 32 (2048000)
I0817 16:28:01.563704 17538 net.cpp:165] Memory required for data: 140801500
I0817 16:28:01.563709 17538 layer_factory.hpp:77] Creating layer L1_b2_cbr1_conv
I0817 16:28:01.563720 17538 net.cpp:100] Creating Layer L1_b2_cbr1_conv
I0817 16:28:01.563726 17538 net.cpp:434] L1_b2_cbr1_conv <- L1_b1_sum_eltwise_top_L1_b1_relu_0_split_0
I0817 16:28:01.563735 17538 net.cpp:408] L1_b2_cbr1_conv -> L1_b2_cbr1_conv_top
I0817 16:28:01.564043 17538 net.cpp:150] Setting up L1_b2_cbr1_conv
I0817 16:28:01.564059 17538 net.cpp:157] Top shape: 125 16 32 32 (2048000)
I0817 16:28:01.564064 17538 net.cpp:165] Memory required for data: 148993500
I0817 16:28:01.564072 17538 layer_factory.hpp:77] Creating layer L1_b2_cbr1_bn
I0817 16:28:01.564085 17538 net.cpp:100] Creating Layer L1_b2_cbr1_bn
I0817 16:28:01.564092 17538 net.cpp:434] L1_b2_cbr1_bn <- L1_b2_cbr1_conv_top
I0817 16:28:01.564100 17538 net.cpp:408] L1_b2_cbr1_bn -> L1_b2_cbr1_bn_top
I0817 16:28:01.564350 17538 net.cpp:150] Setting up L1_b2_cbr1_bn
I0817 16:28:01.564365 17538 net.cpp:157] Top shape: 125 16 32 32 (2048000)
I0817 16:28:01.564370 17538 net.cpp:165] Memory required for data: 157185500
I0817 16:28:01.564381 17538 layer_factory.hpp:77] Creating layer L1_b2_cbr1_scale
I0817 16:28:01.564393 17538 net.cpp:100] Creating Layer L1_b2_cbr1_scale
I0817 16:28:01.564399 17538 net.cpp:434] L1_b2_cbr1_scale <- L1_b2_cbr1_bn_top
I0817 16:28:01.564407 17538 net.cpp:395] L1_b2_cbr1_scale -> L1_b2_cbr1_bn_top (in-place)
I0817 16:28:01.564461 17538 layer_factory.hpp:77] Creating layer L1_b2_cbr1_scale
I0817 16:28:01.564599 17538 net.cpp:150] Setting up L1_b2_cbr1_scale
I0817 16:28:01.564612 17538 net.cpp:157] Top shape: 125 16 32 32 (2048000)
I0817 16:28:01.564617 17538 net.cpp:165] Memory required for data: 165377500
I0817 16:28:01.564626 17538 layer_factory.hpp:77] Creating layer L1_b2_cbr1_relu
I0817 16:28:01.564635 17538 net.cpp:100] Creating Layer L1_b2_cbr1_relu
I0817 16:28:01.564640 17538 net.cpp:434] L1_b2_cbr1_relu <- L1_b2_cbr1_bn_top
I0817 16:28:01.564651 17538 net.cpp:395] L1_b2_cbr1_relu -> L1_b2_cbr1_bn_top (in-place)
I0817 16:28:01.564661 17538 net.cpp:150] Setting up L1_b2_cbr1_relu
I0817 16:28:01.564668 17538 net.cpp:157] Top shape: 125 16 32 32 (2048000)
I0817 16:28:01.564673 17538 net.cpp:165] Memory required for data: 173569500
I0817 16:28:01.564677 17538 layer_factory.hpp:77] Creating layer L1_b2_cbr2_conv
I0817 16:28:01.564692 17538 net.cpp:100] Creating Layer L1_b2_cbr2_conv
I0817 16:28:01.564697 17538 net.cpp:434] L1_b2_cbr2_conv <- L1_b2_cbr1_bn_top
I0817 16:28:01.564705 17538 net.cpp:408] L1_b2_cbr2_conv -> L1_b2_cbr2_conv_top
I0817 16:28:01.565009 17538 net.cpp:150] Setting up L1_b2_cbr2_conv
I0817 16:28:01.565023 17538 net.cpp:157] Top shape: 125 16 32 32 (2048000)
I0817 16:28:01.565028 17538 net.cpp:165] Memory required for data: 181761500
I0817 16:28:01.565037 17538 layer_factory.hpp:77] Creating layer L1_b2_cbr2_bn
I0817 16:28:01.565049 17538 net.cpp:100] Creating Layer L1_b2_cbr2_bn
I0817 16:28:01.565057 17538 net.cpp:434] L1_b2_cbr2_bn <- L1_b2_cbr2_conv_top
I0817 16:28:01.565063 17538 net.cpp:408] L1_b2_cbr2_bn -> L1_b2_cbr2_bn_top
I0817 16:28:01.565304 17538 net.cpp:150] Setting up L1_b2_cbr2_bn
I0817 16:28:01.565318 17538 net.cpp:157] Top shape: 125 16 32 32 (2048000)
I0817 16:28:01.565323 17538 net.cpp:165] Memory required for data: 189953500
I0817 16:28:01.565342 17538 layer_factory.hpp:77] Creating layer L1_b2_cbr2_scale
I0817 16:28:01.565351 17538 net.cpp:100] Creating Layer L1_b2_cbr2_scale
I0817 16:28:01.565361 17538 net.cpp:434] L1_b2_cbr2_scale <- L1_b2_cbr2_bn_top
I0817 16:28:01.565368 17538 net.cpp:395] L1_b2_cbr2_scale -> L1_b2_cbr2_bn_top (in-place)
I0817 16:28:01.565420 17538 layer_factory.hpp:77] Creating layer L1_b2_cbr2_scale
I0817 16:28:01.565558 17538 net.cpp:150] Setting up L1_b2_cbr2_scale
I0817 16:28:01.565572 17538 net.cpp:157] Top shape: 125 16 32 32 (2048000)
I0817 16:28:01.565577 17538 net.cpp:165] Memory required for data: 198145500
I0817 16:28:01.565585 17538 layer_factory.hpp:77] Creating layer L1_b2_sum_eltwise
I0817 16:28:01.565604 17538 net.cpp:100] Creating Layer L1_b2_sum_eltwise
I0817 16:28:01.565611 17538 net.cpp:434] L1_b2_sum_eltwise <- L1_b2_cbr2_bn_top
I0817 16:28:01.565618 17538 net.cpp:434] L1_b2_sum_eltwise <- L1_b1_sum_eltwise_top_L1_b1_relu_0_split_1
I0817 16:28:01.565629 17538 net.cpp:408] L1_b2_sum_eltwise -> L1_b2_sum_eltwise_top
I0817 16:28:01.565660 17538 net.cpp:150] Setting up L1_b2_sum_eltwise
I0817 16:28:01.565671 17538 net.cpp:157] Top shape: 125 16 32 32 (2048000)
I0817 16:28:01.565676 17538 net.cpp:165] Memory required for data: 206337500
I0817 16:28:01.565682 17538 layer_factory.hpp:77] Creating layer L1_b2_relu
I0817 16:28:01.565693 17538 net.cpp:100] Creating Layer L1_b2_relu
I0817 16:28:01.565699 17538 net.cpp:434] L1_b2_relu <- L1_b2_sum_eltwise_top
I0817 16:28:01.565706 17538 net.cpp:395] L1_b2_relu -> L1_b2_sum_eltwise_top (in-place)
I0817 16:28:01.565716 17538 net.cpp:150] Setting up L1_b2_relu
I0817 16:28:01.565722 17538 net.cpp:157] Top shape: 125 16 32 32 (2048000)
I0817 16:28:01.565727 17538 net.cpp:165] Memory required for data: 214529500
I0817 16:28:01.565732 17538 layer_factory.hpp:77] Creating layer L1_b2_sum_eltwise_top_L1_b2_relu_0_split
I0817 16:28:01.565738 17538 net.cpp:100] Creating Layer L1_b2_sum_eltwise_top_L1_b2_relu_0_split
I0817 16:28:01.565743 17538 net.cpp:434] L1_b2_sum_eltwise_top_L1_b2_relu_0_split <- L1_b2_sum_eltwise_top
I0817 16:28:01.565752 17538 net.cpp:408] L1_b2_sum_eltwise_top_L1_b2_relu_0_split -> L1_b2_sum_eltwise_top_L1_b2_relu_0_split_0
I0817 16:28:01.565759 17538 net.cpp:408] L1_b2_sum_eltwise_top_L1_b2_relu_0_split -> L1_b2_sum_eltwise_top_L1_b2_relu_0_split_1
I0817 16:28:01.565804 17538 net.cpp:150] Setting up L1_b2_sum_eltwise_top_L1_b2_relu_0_split
I0817 16:28:01.565815 17538 net.cpp:157] Top shape: 125 16 32 32 (2048000)
I0817 16:28:01.565822 17538 net.cpp:157] Top shape: 125 16 32 32 (2048000)
I0817 16:28:01.565826 17538 net.cpp:165] Memory required for data: 230913500
I0817 16:28:01.565832 17538 layer_factory.hpp:77] Creating layer L1_b3_cbr1_conv
I0817 16:28:01.565846 17538 net.cpp:100] Creating Layer L1_b3_cbr1_conv
I0817 16:28:01.565852 17538 net.cpp:434] L1_b3_cbr1_conv <- L1_b2_sum_eltwise_top_L1_b2_relu_0_split_0
I0817 16:28:01.565861 17538 net.cpp:408] L1_b3_cbr1_conv -> L1_b3_cbr1_conv_top
I0817 16:28:01.566201 17538 net.cpp:150] Setting up L1_b3_cbr1_conv
I0817 16:28:01.566216 17538 net.cpp:157] Top shape: 125 16 32 32 (2048000)
I0817 16:28:01.566222 17538 net.cpp:165] Memory required for data: 239105500
I0817 16:28:01.566231 17538 layer_factory.hpp:77] Creating layer L1_b3_cbr1_bn
I0817 16:28:01.566244 17538 net.cpp:100] Creating Layer L1_b3_cbr1_bn
I0817 16:28:01.566251 17538 net.cpp:434] L1_b3_cbr1_bn <- L1_b3_cbr1_conv_top
I0817 16:28:01.566258 17538 net.cpp:408] L1_b3_cbr1_bn -> L1_b3_cbr1_bn_top
I0817 16:28:01.566498 17538 net.cpp:150] Setting up L1_b3_cbr1_bn
I0817 16:28:01.566514 17538 net.cpp:157] Top shape: 125 16 32 32 (2048000)
I0817 16:28:01.566519 17538 net.cpp:165] Memory required for data: 247297500
I0817 16:28:01.566529 17538 layer_factory.hpp:77] Creating layer L1_b3_cbr1_scale
I0817 16:28:01.566539 17538 net.cpp:100] Creating Layer L1_b3_cbr1_scale
I0817 16:28:01.566545 17538 net.cpp:434] L1_b3_cbr1_scale <- L1_b3_cbr1_bn_top
I0817 16:28:01.566551 17538 net.cpp:395] L1_b3_cbr1_scale -> L1_b3_cbr1_bn_top (in-place)
I0817 16:28:01.566603 17538 layer_factory.hpp:77] Creating layer L1_b3_cbr1_scale
I0817 16:28:01.566741 17538 net.cpp:150] Setting up L1_b3_cbr1_scale
I0817 16:28:01.566754 17538 net.cpp:157] Top shape: 125 16 32 32 (2048000)
I0817 16:28:01.566759 17538 net.cpp:165] Memory required for data: 255489500
I0817 16:28:01.566768 17538 layer_factory.hpp:77] Creating layer L1_b3_cbr1_relu
I0817 16:28:01.566779 17538 net.cpp:100] Creating Layer L1_b3_cbr1_relu
I0817 16:28:01.566786 17538 net.cpp:434] L1_b3_cbr1_relu <- L1_b3_cbr1_bn_top
I0817 16:28:01.566795 17538 net.cpp:395] L1_b3_cbr1_relu -> L1_b3_cbr1_bn_top (in-place)
I0817 16:28:01.566805 17538 net.cpp:150] Setting up L1_b3_cbr1_relu
I0817 16:28:01.566819 17538 net.cpp:157] Top shape: 125 16 32 32 (2048000)
I0817 16:28:01.566824 17538 net.cpp:165] Memory required for data: 263681500
I0817 16:28:01.566829 17538 layer_factory.hpp:77] Creating layer L1_b3_cbr2_conv
I0817 16:28:01.566840 17538 net.cpp:100] Creating Layer L1_b3_cbr2_conv
I0817 16:28:01.566846 17538 net.cpp:434] L1_b3_cbr2_conv <- L1_b3_cbr1_bn_top
I0817 16:28:01.566857 17538 net.cpp:408] L1_b3_cbr2_conv -> L1_b3_cbr2_conv_top
I0817 16:28:01.567178 17538 net.cpp:150] Setting up L1_b3_cbr2_conv
I0817 16:28:01.567193 17538 net.cpp:157] Top shape: 125 16 32 32 (2048000)
I0817 16:28:01.567198 17538 net.cpp:165] Memory required for data: 271873500
I0817 16:28:01.567206 17538 layer_factory.hpp:77] Creating layer L1_b3_cbr2_bn
I0817 16:28:01.567221 17538 net.cpp:100] Creating Layer L1_b3_cbr2_bn
I0817 16:28:01.567229 17538 net.cpp:434] L1_b3_cbr2_bn <- L1_b3_cbr2_conv_top
I0817 16:28:01.567236 17538 net.cpp:408] L1_b3_cbr2_bn -> L1_b3_cbr2_bn_top
I0817 16:28:01.567471 17538 net.cpp:150] Setting up L1_b3_cbr2_bn
I0817 16:28:01.567486 17538 net.cpp:157] Top shape: 125 16 32 32 (2048000)
I0817 16:28:01.567490 17538 net.cpp:165] Memory required for data: 280065500
I0817 16:28:01.567502 17538 layer_factory.hpp:77] Creating layer L1_b3_cbr2_scale
I0817 16:28:01.567509 17538 net.cpp:100] Creating Layer L1_b3_cbr2_scale
I0817 16:28:01.567515 17538 net.cpp:434] L1_b3_cbr2_scale <- L1_b3_cbr2_bn_top
I0817 16:28:01.567523 17538 net.cpp:395] L1_b3_cbr2_scale -> L1_b3_cbr2_bn_top (in-place)
I0817 16:28:01.567577 17538 layer_factory.hpp:77] Creating layer L1_b3_cbr2_scale
I0817 16:28:01.567718 17538 net.cpp:150] Setting up L1_b3_cbr2_scale
I0817 16:28:01.567731 17538 net.cpp:157] Top shape: 125 16 32 32 (2048000)
I0817 16:28:01.567736 17538 net.cpp:165] Memory required for data: 288257500
I0817 16:28:01.567745 17538 layer_factory.hpp:77] Creating layer L1_b3_sum_eltwise
I0817 16:28:01.567754 17538 net.cpp:100] Creating Layer L1_b3_sum_eltwise
I0817 16:28:01.567760 17538 net.cpp:434] L1_b3_sum_eltwise <- L1_b3_cbr2_bn_top
I0817 16:28:01.567767 17538 net.cpp:434] L1_b3_sum_eltwise <- L1_b2_sum_eltwise_top_L1_b2_relu_0_split_1
I0817 16:28:01.567777 17538 net.cpp:408] L1_b3_sum_eltwise -> L1_b3_sum_eltwise_top
I0817 16:28:01.567808 17538 net.cpp:150] Setting up L1_b3_sum_eltwise
I0817 16:28:01.567817 17538 net.cpp:157] Top shape: 125 16 32 32 (2048000)
I0817 16:28:01.567822 17538 net.cpp:165] Memory required for data: 296449500
I0817 16:28:01.567827 17538 layer_factory.hpp:77] Creating layer L1_b3_relu
I0817 16:28:01.567838 17538 net.cpp:100] Creating Layer L1_b3_relu
I0817 16:28:01.567844 17538 net.cpp:434] L1_b3_relu <- L1_b3_sum_eltwise_top
I0817 16:28:01.567852 17538 net.cpp:395] L1_b3_relu -> L1_b3_sum_eltwise_top (in-place)
I0817 16:28:01.567859 17538 net.cpp:150] Setting up L1_b3_relu
I0817 16:28:01.567867 17538 net.cpp:157] Top shape: 125 16 32 32 (2048000)
I0817 16:28:01.567872 17538 net.cpp:165] Memory required for data: 304641500
I0817 16:28:01.567876 17538 layer_factory.hpp:77] Creating layer L1_b3_sum_eltwise_top_L1_b3_relu_0_split
I0817 16:28:01.567883 17538 net.cpp:100] Creating Layer L1_b3_sum_eltwise_top_L1_b3_relu_0_split
I0817 16:28:01.567888 17538 net.cpp:434] L1_b3_sum_eltwise_top_L1_b3_relu_0_split <- L1_b3_sum_eltwise_top
I0817 16:28:01.567895 17538 net.cpp:408] L1_b3_sum_eltwise_top_L1_b3_relu_0_split -> L1_b3_sum_eltwise_top_L1_b3_relu_0_split_0
I0817 16:28:01.567905 17538 net.cpp:408] L1_b3_sum_eltwise_top_L1_b3_relu_0_split -> L1_b3_sum_eltwise_top_L1_b3_relu_0_split_1
I0817 16:28:01.567950 17538 net.cpp:150] Setting up L1_b3_sum_eltwise_top_L1_b3_relu_0_split
I0817 16:28:01.567962 17538 net.cpp:157] Top shape: 125 16 32 32 (2048000)
I0817 16:28:01.567968 17538 net.cpp:157] Top shape: 125 16 32 32 (2048000)
I0817 16:28:01.567973 17538 net.cpp:165] Memory required for data: 321025500
I0817 16:28:01.567978 17538 layer_factory.hpp:77] Creating layer L1_b4_cbr1_conv
I0817 16:28:01.567992 17538 net.cpp:100] Creating Layer L1_b4_cbr1_conv
I0817 16:28:01.567998 17538 net.cpp:434] L1_b4_cbr1_conv <- L1_b3_sum_eltwise_top_L1_b3_relu_0_split_0
I0817 16:28:01.568014 17538 net.cpp:408] L1_b4_cbr1_conv -> L1_b4_cbr1_conv_top
I0817 16:28:01.568327 17538 net.cpp:150] Setting up L1_b4_cbr1_conv
I0817 16:28:01.568342 17538 net.cpp:157] Top shape: 125 16 32 32 (2048000)
I0817 16:28:01.568347 17538 net.cpp:165] Memory required for data: 329217500
I0817 16:28:01.568356 17538 layer_factory.hpp:77] Creating layer L1_b4_cbr1_bn
I0817 16:28:01.568368 17538 net.cpp:100] Creating Layer L1_b4_cbr1_bn
I0817 16:28:01.568374 17538 net.cpp:434] L1_b4_cbr1_bn <- L1_b4_cbr1_conv_top
I0817 16:28:01.568383 17538 net.cpp:408] L1_b4_cbr1_bn -> L1_b4_cbr1_bn_top
I0817 16:28:01.568622 17538 net.cpp:150] Setting up L1_b4_cbr1_bn
I0817 16:28:01.568636 17538 net.cpp:157] Top shape: 125 16 32 32 (2048000)
I0817 16:28:01.568641 17538 net.cpp:165] Memory required for data: 337409500
I0817 16:28:01.568651 17538 layer_factory.hpp:77] Creating layer L1_b4_cbr1_scale
I0817 16:28:01.568660 17538 net.cpp:100] Creating Layer L1_b4_cbr1_scale
I0817 16:28:01.568666 17538 net.cpp:434] L1_b4_cbr1_scale <- L1_b4_cbr1_bn_top
I0817 16:28:01.568673 17538 net.cpp:395] L1_b4_cbr1_scale -> L1_b4_cbr1_bn_top (in-place)
I0817 16:28:01.568729 17538 layer_factory.hpp:77] Creating layer L1_b4_cbr1_scale
I0817 16:28:01.568869 17538 net.cpp:150] Setting up L1_b4_cbr1_scale
I0817 16:28:01.568883 17538 net.cpp:157] Top shape: 125 16 32 32 (2048000)
I0817 16:28:01.568888 17538 net.cpp:165] Memory required for data: 345601500
I0817 16:28:01.568897 17538 layer_factory.hpp:77] Creating layer L1_b4_cbr1_relu
I0817 16:28:01.568905 17538 net.cpp:100] Creating Layer L1_b4_cbr1_relu
I0817 16:28:01.568912 17538 net.cpp:434] L1_b4_cbr1_relu <- L1_b4_cbr1_bn_top
I0817 16:28:01.568922 17538 net.cpp:395] L1_b4_cbr1_relu -> L1_b4_cbr1_bn_top (in-place)
I0817 16:28:01.568931 17538 net.cpp:150] Setting up L1_b4_cbr1_relu
I0817 16:28:01.568938 17538 net.cpp:157] Top shape: 125 16 32 32 (2048000)
I0817 16:28:01.568943 17538 net.cpp:165] Memory required for data: 353793500
I0817 16:28:01.568948 17538 layer_factory.hpp:77] Creating layer L1_b4_cbr2_conv
I0817 16:28:01.568961 17538 net.cpp:100] Creating Layer L1_b4_cbr2_conv
I0817 16:28:01.568969 17538 net.cpp:434] L1_b4_cbr2_conv <- L1_b4_cbr1_bn_top
I0817 16:28:01.568976 17538 net.cpp:408] L1_b4_cbr2_conv -> L1_b4_cbr2_conv_top
I0817 16:28:01.569290 17538 net.cpp:150] Setting up L1_b4_cbr2_conv
I0817 16:28:01.569305 17538 net.cpp:157] Top shape: 125 16 32 32 (2048000)
I0817 16:28:01.569310 17538 net.cpp:165] Memory required for data: 361985500
I0817 16:28:01.569319 17538 layer_factory.hpp:77] Creating layer L1_b4_cbr2_bn
I0817 16:28:01.569329 17538 net.cpp:100] Creating Layer L1_b4_cbr2_bn
I0817 16:28:01.569334 17538 net.cpp:434] L1_b4_cbr2_bn <- L1_b4_cbr2_conv_top
I0817 16:28:01.569345 17538 net.cpp:408] L1_b4_cbr2_bn -> L1_b4_cbr2_bn_top
I0817 16:28:01.569592 17538 net.cpp:150] Setting up L1_b4_cbr2_bn
I0817 16:28:01.569607 17538 net.cpp:157] Top shape: 125 16 32 32 (2048000)
I0817 16:28:01.569612 17538 net.cpp:165] Memory required for data: 370177500
I0817 16:28:01.569622 17538 layer_factory.hpp:77] Creating layer L1_b4_cbr2_scale
I0817 16:28:01.569631 17538 net.cpp:100] Creating Layer L1_b4_cbr2_scale
I0817 16:28:01.569638 17538 net.cpp:434] L1_b4_cbr2_scale <- L1_b4_cbr2_bn_top
I0817 16:28:01.569644 17538 net.cpp:395] L1_b4_cbr2_scale -> L1_b4_cbr2_bn_top (in-place)
I0817 16:28:01.569700 17538 layer_factory.hpp:77] Creating layer L1_b4_cbr2_scale
I0817 16:28:01.569834 17538 net.cpp:150] Setting up L1_b4_cbr2_scale
I0817 16:28:01.569847 17538 net.cpp:157] Top shape: 125 16 32 32 (2048000)
I0817 16:28:01.569852 17538 net.cpp:165] Memory required for data: 378369500
I0817 16:28:01.569861 17538 layer_factory.hpp:77] Creating layer L1_b4_sum_eltwise
I0817 16:28:01.569874 17538 net.cpp:100] Creating Layer L1_b4_sum_eltwise
I0817 16:28:01.569880 17538 net.cpp:434] L1_b4_sum_eltwise <- L1_b4_cbr2_bn_top
I0817 16:28:01.569887 17538 net.cpp:434] L1_b4_sum_eltwise <- L1_b3_sum_eltwise_top_L1_b3_relu_0_split_1
I0817 16:28:01.569895 17538 net.cpp:408] L1_b4_sum_eltwise -> L1_b4_sum_eltwise_top
I0817 16:28:01.569936 17538 net.cpp:150] Setting up L1_b4_sum_eltwise
I0817 16:28:01.569947 17538 net.cpp:157] Top shape: 125 16 32 32 (2048000)
I0817 16:28:01.569952 17538 net.cpp:165] Memory required for data: 386561500
I0817 16:28:01.569957 17538 layer_factory.hpp:77] Creating layer L1_b4_relu
I0817 16:28:01.569965 17538 net.cpp:100] Creating Layer L1_b4_relu
I0817 16:28:01.569972 17538 net.cpp:434] L1_b4_relu <- L1_b4_sum_eltwise_top
I0817 16:28:01.569981 17538 net.cpp:395] L1_b4_relu -> L1_b4_sum_eltwise_top (in-place)
I0817 16:28:01.569991 17538 net.cpp:150] Setting up L1_b4_relu
I0817 16:28:01.569999 17538 net.cpp:157] Top shape: 125 16 32 32 (2048000)
I0817 16:28:01.570003 17538 net.cpp:165] Memory required for data: 394753500
I0817 16:28:01.570009 17538 layer_factory.hpp:77] Creating layer L1_b4_sum_eltwise_top_L1_b4_relu_0_split
I0817 16:28:01.570016 17538 net.cpp:100] Creating Layer L1_b4_sum_eltwise_top_L1_b4_relu_0_split
I0817 16:28:01.570021 17538 net.cpp:434] L1_b4_sum_eltwise_top_L1_b4_relu_0_split <- L1_b4_sum_eltwise_top
I0817 16:28:01.570031 17538 net.cpp:408] L1_b4_sum_eltwise_top_L1_b4_relu_0_split -> L1_b4_sum_eltwise_top_L1_b4_relu_0_split_0
I0817 16:28:01.570041 17538 net.cpp:408] L1_b4_sum_eltwise_top_L1_b4_relu_0_split -> L1_b4_sum_eltwise_top_L1_b4_relu_0_split_1
I0817 16:28:01.570083 17538 net.cpp:150] Setting up L1_b4_sum_eltwise_top_L1_b4_relu_0_split
I0817 16:28:01.570094 17538 net.cpp:157] Top shape: 125 16 32 32 (2048000)
I0817 16:28:01.570107 17538 net.cpp:157] Top shape: 125 16 32 32 (2048000)
I0817 16:28:01.570113 17538 net.cpp:165] Memory required for data: 411137500
I0817 16:28:01.570118 17538 layer_factory.hpp:77] Creating layer L1_b5_cbr1_conv
I0817 16:28:01.570133 17538 net.cpp:100] Creating Layer L1_b5_cbr1_conv
I0817 16:28:01.570139 17538 net.cpp:434] L1_b5_cbr1_conv <- L1_b4_sum_eltwise_top_L1_b4_relu_0_split_0
I0817 16:28:01.570148 17538 net.cpp:408] L1_b5_cbr1_conv -> L1_b5_cbr1_conv_top
I0817 16:28:01.570461 17538 net.cpp:150] Setting up L1_b5_cbr1_conv
I0817 16:28:01.570475 17538 net.cpp:157] Top shape: 125 16 32 32 (2048000)
I0817 16:28:01.570480 17538 net.cpp:165] Memory required for data: 419329500
I0817 16:28:01.570504 17538 layer_factory.hpp:77] Creating layer L1_b5_cbr1_bn
I0817 16:28:01.570514 17538 net.cpp:100] Creating Layer L1_b5_cbr1_bn
I0817 16:28:01.570520 17538 net.cpp:434] L1_b5_cbr1_bn <- L1_b5_cbr1_conv_top
I0817 16:28:01.570531 17538 net.cpp:408] L1_b5_cbr1_bn -> L1_b5_cbr1_bn_top
I0817 16:28:01.570772 17538 net.cpp:150] Setting up L1_b5_cbr1_bn
I0817 16:28:01.570785 17538 net.cpp:157] Top shape: 125 16 32 32 (2048000)
I0817 16:28:01.570791 17538 net.cpp:165] Memory required for data: 427521500
I0817 16:28:01.570801 17538 layer_factory.hpp:77] Creating layer L1_b5_cbr1_scale
I0817 16:28:01.570811 17538 net.cpp:100] Creating Layer L1_b5_cbr1_scale
I0817 16:28:01.570816 17538 net.cpp:434] L1_b5_cbr1_scale <- L1_b5_cbr1_bn_top
I0817 16:28:01.570823 17538 net.cpp:395] L1_b5_cbr1_scale -> L1_b5_cbr1_bn_top (in-place)
I0817 16:28:01.570878 17538 layer_factory.hpp:77] Creating layer L1_b5_cbr1_scale
I0817 16:28:01.571017 17538 net.cpp:150] Setting up L1_b5_cbr1_scale
I0817 16:28:01.571030 17538 net.cpp:157] Top shape: 125 16 32 32 (2048000)
I0817 16:28:01.571035 17538 net.cpp:165] Memory required for data: 435713500
I0817 16:28:01.571044 17538 layer_factory.hpp:77] Creating layer L1_b5_cbr1_relu
I0817 16:28:01.571053 17538 net.cpp:100] Creating Layer L1_b5_cbr1_relu
I0817 16:28:01.571058 17538 net.cpp:434] L1_b5_cbr1_relu <- L1_b5_cbr1_bn_top
I0817 16:28:01.571069 17538 net.cpp:395] L1_b5_cbr1_relu -> L1_b5_cbr1_bn_top (in-place)
I0817 16:28:01.571079 17538 net.cpp:150] Setting up L1_b5_cbr1_relu
I0817 16:28:01.571085 17538 net.cpp:157] Top shape: 125 16 32 32 (2048000)
I0817 16:28:01.571090 17538 net.cpp:165] Memory required for data: 443905500
I0817 16:28:01.571095 17538 layer_factory.hpp:77] Creating layer L1_b5_cbr2_conv
I0817 16:28:01.571115 17538 net.cpp:100] Creating Layer L1_b5_cbr2_conv
I0817 16:28:01.571130 17538 net.cpp:434] L1_b5_cbr2_conv <- L1_b5_cbr1_bn_top
I0817 16:28:01.571138 17538 net.cpp:408] L1_b5_cbr2_conv -> L1_b5_cbr2_conv_top
I0817 16:28:01.571457 17538 net.cpp:150] Setting up L1_b5_cbr2_conv
I0817 16:28:01.571471 17538 net.cpp:157] Top shape: 125 16 32 32 (2048000)
I0817 16:28:01.571476 17538 net.cpp:165] Memory required for data: 452097500
I0817 16:28:01.571485 17538 layer_factory.hpp:77] Creating layer L1_b5_cbr2_bn
I0817 16:28:01.571498 17538 net.cpp:100] Creating Layer L1_b5_cbr2_bn
I0817 16:28:01.571504 17538 net.cpp:434] L1_b5_cbr2_bn <- L1_b5_cbr2_conv_top
I0817 16:28:01.571513 17538 net.cpp:408] L1_b5_cbr2_bn -> L1_b5_cbr2_bn_top
I0817 16:28:01.571749 17538 net.cpp:150] Setting up L1_b5_cbr2_bn
I0817 16:28:01.571765 17538 net.cpp:157] Top shape: 125 16 32 32 (2048000)
I0817 16:28:01.571770 17538 net.cpp:165] Memory required for data: 460289500
I0817 16:28:01.571780 17538 layer_factory.hpp:77] Creating layer L1_b5_cbr2_scale
I0817 16:28:01.571790 17538 net.cpp:100] Creating Layer L1_b5_cbr2_scale
I0817 16:28:01.571796 17538 net.cpp:434] L1_b5_cbr2_scale <- L1_b5_cbr2_bn_top
I0817 16:28:01.571804 17538 net.cpp:395] L1_b5_cbr2_scale -> L1_b5_cbr2_bn_top (in-place)
I0817 16:28:01.571854 17538 layer_factory.hpp:77] Creating layer L1_b5_cbr2_scale
I0817 16:28:01.571993 17538 net.cpp:150] Setting up L1_b5_cbr2_scale
I0817 16:28:01.572006 17538 net.cpp:157] Top shape: 125 16 32 32 (2048000)
I0817 16:28:01.572012 17538 net.cpp:165] Memory required for data: 468481500
I0817 16:28:01.572021 17538 layer_factory.hpp:77] Creating layer L1_b5_sum_eltwise
I0817 16:28:01.572033 17538 net.cpp:100] Creating Layer L1_b5_sum_eltwise
I0817 16:28:01.572039 17538 net.cpp:434] L1_b5_sum_eltwise <- L1_b5_cbr2_bn_top
I0817 16:28:01.572046 17538 net.cpp:434] L1_b5_sum_eltwise <- L1_b4_sum_eltwise_top_L1_b4_relu_0_split_1
I0817 16:28:01.572059 17538 net.cpp:408] L1_b5_sum_eltwise -> L1_b5_sum_eltwise_top
I0817 16:28:01.572089 17538 net.cpp:150] Setting up L1_b5_sum_eltwise
I0817 16:28:01.572106 17538 net.cpp:157] Top shape: 125 16 32 32 (2048000)
I0817 16:28:01.572113 17538 net.cpp:165] Memory required for data: 476673500
I0817 16:28:01.572118 17538 layer_factory.hpp:77] Creating layer L1_b5_relu
I0817 16:28:01.572129 17538 net.cpp:100] Creating Layer L1_b5_relu
I0817 16:28:01.572135 17538 net.cpp:434] L1_b5_relu <- L1_b5_sum_eltwise_top
I0817 16:28:01.572142 17538 net.cpp:395] L1_b5_relu -> L1_b5_sum_eltwise_top (in-place)
I0817 16:28:01.572151 17538 net.cpp:150] Setting up L1_b5_relu
I0817 16:28:01.572160 17538 net.cpp:157] Top shape: 125 16 32 32 (2048000)
I0817 16:28:01.572163 17538 net.cpp:165] Memory required for data: 484865500
I0817 16:28:01.572170 17538 layer_factory.hpp:77] Creating layer L1_b5_sum_eltwise_top_L1_b5_relu_0_split
I0817 16:28:01.572176 17538 net.cpp:100] Creating Layer L1_b5_sum_eltwise_top_L1_b5_relu_0_split
I0817 16:28:01.572181 17538 net.cpp:434] L1_b5_sum_eltwise_top_L1_b5_relu_0_split <- L1_b5_sum_eltwise_top
I0817 16:28:01.572190 17538 net.cpp:408] L1_b5_sum_eltwise_top_L1_b5_relu_0_split -> L1_b5_sum_eltwise_top_L1_b5_relu_0_split_0
I0817 16:28:01.572198 17538 net.cpp:408] L1_b5_sum_eltwise_top_L1_b5_relu_0_split -> L1_b5_sum_eltwise_top_L1_b5_relu_0_split_1
I0817 16:28:01.572244 17538 net.cpp:150] Setting up L1_b5_sum_eltwise_top_L1_b5_relu_0_split
I0817 16:28:01.572257 17538 net.cpp:157] Top shape: 125 16 32 32 (2048000)
I0817 16:28:01.572263 17538 net.cpp:157] Top shape: 125 16 32 32 (2048000)
I0817 16:28:01.572268 17538 net.cpp:165] Memory required for data: 501249500
I0817 16:28:01.572273 17538 layer_factory.hpp:77] Creating layer L1_b6_cbr1_conv
I0817 16:28:01.572288 17538 net.cpp:100] Creating Layer L1_b6_cbr1_conv
I0817 16:28:01.572293 17538 net.cpp:434] L1_b6_cbr1_conv <- L1_b5_sum_eltwise_top_L1_b5_relu_0_split_0
I0817 16:28:01.572302 17538 net.cpp:408] L1_b6_cbr1_conv -> L1_b6_cbr1_conv_top
I0817 16:28:01.572605 17538 net.cpp:150] Setting up L1_b6_cbr1_conv
I0817 16:28:01.572620 17538 net.cpp:157] Top shape: 125 16 32 32 (2048000)
I0817 16:28:01.572625 17538 net.cpp:165] Memory required for data: 509441500
I0817 16:28:01.572641 17538 layer_factory.hpp:77] Creating layer L1_b6_cbr1_bn
I0817 16:28:01.572654 17538 net.cpp:100] Creating Layer L1_b6_cbr1_bn
I0817 16:28:01.572660 17538 net.cpp:434] L1_b6_cbr1_bn <- L1_b6_cbr1_conv_top
I0817 16:28:01.572669 17538 net.cpp:408] L1_b6_cbr1_bn -> L1_b6_cbr1_bn_top
I0817 16:28:01.572909 17538 net.cpp:150] Setting up L1_b6_cbr1_bn
I0817 16:28:01.572923 17538 net.cpp:157] Top shape: 125 16 32 32 (2048000)
I0817 16:28:01.572928 17538 net.cpp:165] Memory required for data: 517633500
I0817 16:28:01.572938 17538 layer_factory.hpp:77] Creating layer L1_b6_cbr1_scale
I0817 16:28:01.572947 17538 net.cpp:100] Creating Layer L1_b6_cbr1_scale
I0817 16:28:01.572953 17538 net.cpp:434] L1_b6_cbr1_scale <- L1_b6_cbr1_bn_top
I0817 16:28:01.572960 17538 net.cpp:395] L1_b6_cbr1_scale -> L1_b6_cbr1_bn_top (in-place)
I0817 16:28:01.573015 17538 layer_factory.hpp:77] Creating layer L1_b6_cbr1_scale
I0817 16:28:01.573165 17538 net.cpp:150] Setting up L1_b6_cbr1_scale
I0817 16:28:01.573179 17538 net.cpp:157] Top shape: 125 16 32 32 (2048000)
I0817 16:28:01.573185 17538 net.cpp:165] Memory required for data: 525825500
I0817 16:28:01.573194 17538 layer_factory.hpp:77] Creating layer L1_b6_cbr1_relu
I0817 16:28:01.573202 17538 net.cpp:100] Creating Layer L1_b6_cbr1_relu
I0817 16:28:01.573209 17538 net.cpp:434] L1_b6_cbr1_relu <- L1_b6_cbr1_bn_top
I0817 16:28:01.573218 17538 net.cpp:395] L1_b6_cbr1_relu -> L1_b6_cbr1_bn_top (in-place)
I0817 16:28:01.573230 17538 net.cpp:150] Setting up L1_b6_cbr1_relu
I0817 16:28:01.573237 17538 net.cpp:157] Top shape: 125 16 32 32 (2048000)
I0817 16:28:01.573241 17538 net.cpp:165] Memory required for data: 534017500
I0817 16:28:01.573246 17538 layer_factory.hpp:77] Creating layer L1_b6_cbr2_conv
I0817 16:28:01.573261 17538 net.cpp:100] Creating Layer L1_b6_cbr2_conv
I0817 16:28:01.573266 17538 net.cpp:434] L1_b6_cbr2_conv <- L1_b6_cbr1_bn_top
I0817 16:28:01.573276 17538 net.cpp:408] L1_b6_cbr2_conv -> L1_b6_cbr2_conv_top
I0817 16:28:01.573588 17538 net.cpp:150] Setting up L1_b6_cbr2_conv
I0817 16:28:01.573602 17538 net.cpp:157] Top shape: 125 16 32 32 (2048000)
I0817 16:28:01.573607 17538 net.cpp:165] Memory required for data: 542209500
I0817 16:28:01.573616 17538 layer_factory.hpp:77] Creating layer L1_b6_cbr2_bn
I0817 16:28:01.573626 17538 net.cpp:100] Creating Layer L1_b6_cbr2_bn
I0817 16:28:01.573632 17538 net.cpp:434] L1_b6_cbr2_bn <- L1_b6_cbr2_conv_top
I0817 16:28:01.573643 17538 net.cpp:408] L1_b6_cbr2_bn -> L1_b6_cbr2_bn_top
I0817 16:28:01.573884 17538 net.cpp:150] Setting up L1_b6_cbr2_bn
I0817 16:28:01.573899 17538 net.cpp:157] Top shape: 125 16 32 32 (2048000)
I0817 16:28:01.573905 17538 net.cpp:165] Memory required for data: 550401500
I0817 16:28:01.573915 17538 layer_factory.hpp:77] Creating layer L1_b6_cbr2_scale
I0817 16:28:01.573925 17538 net.cpp:100] Creating Layer L1_b6_cbr2_scale
I0817 16:28:01.573930 17538 net.cpp:434] L1_b6_cbr2_scale <- L1_b6_cbr2_bn_top
I0817 16:28:01.573937 17538 net.cpp:395] L1_b6_cbr2_scale -> L1_b6_cbr2_bn_top (in-place)
I0817 16:28:01.573989 17538 layer_factory.hpp:77] Creating layer L1_b6_cbr2_scale
I0817 16:28:01.574136 17538 net.cpp:150] Setting up L1_b6_cbr2_scale
I0817 16:28:01.574148 17538 net.cpp:157] Top shape: 125 16 32 32 (2048000)
I0817 16:28:01.574154 17538 net.cpp:165] Memory required for data: 558593500
I0817 16:28:01.574163 17538 layer_factory.hpp:77] Creating layer L1_b6_sum_eltwise
I0817 16:28:01.574182 17538 net.cpp:100] Creating Layer L1_b6_sum_eltwise
I0817 16:28:01.574188 17538 net.cpp:434] L1_b6_sum_eltwise <- L1_b6_cbr2_bn_top
I0817 16:28:01.574196 17538 net.cpp:434] L1_b6_sum_eltwise <- L1_b5_sum_eltwise_top_L1_b5_relu_0_split_1
I0817 16:28:01.574204 17538 net.cpp:408] L1_b6_sum_eltwise -> L1_b6_sum_eltwise_top
I0817 16:28:01.574239 17538 net.cpp:150] Setting up L1_b6_sum_eltwise
I0817 16:28:01.574251 17538 net.cpp:157] Top shape: 125 16 32 32 (2048000)
I0817 16:28:01.574255 17538 net.cpp:165] Memory required for data: 566785500
I0817 16:28:01.574261 17538 layer_factory.hpp:77] Creating layer L1_b6_relu
I0817 16:28:01.574278 17538 net.cpp:100] Creating Layer L1_b6_relu
I0817 16:28:01.574285 17538 net.cpp:434] L1_b6_relu <- L1_b6_sum_eltwise_top
I0817 16:28:01.574291 17538 net.cpp:395] L1_b6_relu -> L1_b6_sum_eltwise_top (in-place)
I0817 16:28:01.574301 17538 net.cpp:150] Setting up L1_b6_relu
I0817 16:28:01.574308 17538 net.cpp:157] Top shape: 125 16 32 32 (2048000)
I0817 16:28:01.574313 17538 net.cpp:165] Memory required for data: 574977500
I0817 16:28:01.574318 17538 layer_factory.hpp:77] Creating layer L1_b6_sum_eltwise_top_L1_b6_relu_0_split
I0817 16:28:01.574326 17538 net.cpp:100] Creating Layer L1_b6_sum_eltwise_top_L1_b6_relu_0_split
I0817 16:28:01.574331 17538 net.cpp:434] L1_b6_sum_eltwise_top_L1_b6_relu_0_split <- L1_b6_sum_eltwise_top
I0817 16:28:01.574340 17538 net.cpp:408] L1_b6_sum_eltwise_top_L1_b6_relu_0_split -> L1_b6_sum_eltwise_top_L1_b6_relu_0_split_0
I0817 16:28:01.574350 17538 net.cpp:408] L1_b6_sum_eltwise_top_L1_b6_relu_0_split -> L1_b6_sum_eltwise_top_L1_b6_relu_0_split_1
I0817 16:28:01.574393 17538 net.cpp:150] Setting up L1_b6_sum_eltwise_top_L1_b6_relu_0_split
I0817 16:28:01.574404 17538 net.cpp:157] Top shape: 125 16 32 32 (2048000)
I0817 16:28:01.574410 17538 net.cpp:157] Top shape: 125 16 32 32 (2048000)
I0817 16:28:01.574415 17538 net.cpp:165] Memory required for data: 591361500
I0817 16:28:01.574420 17538 layer_factory.hpp:77] Creating layer L1_b7_cbr1_conv
I0817 16:28:01.574435 17538 net.cpp:100] Creating Layer L1_b7_cbr1_conv
I0817 16:28:01.574442 17538 net.cpp:434] L1_b7_cbr1_conv <- L1_b6_sum_eltwise_top_L1_b6_relu_0_split_0
I0817 16:28:01.574451 17538 net.cpp:408] L1_b7_cbr1_conv -> L1_b7_cbr1_conv_top
I0817 16:28:01.574762 17538 net.cpp:150] Setting up L1_b7_cbr1_conv
I0817 16:28:01.574777 17538 net.cpp:157] Top shape: 125 16 32 32 (2048000)
I0817 16:28:01.574782 17538 net.cpp:165] Memory required for data: 599553500
I0817 16:28:01.574791 17538 layer_factory.hpp:77] Creating layer L1_b7_cbr1_bn
I0817 16:28:01.574800 17538 net.cpp:100] Creating Layer L1_b7_cbr1_bn
I0817 16:28:01.574810 17538 net.cpp:434] L1_b7_cbr1_bn <- L1_b7_cbr1_conv_top
I0817 16:28:01.574817 17538 net.cpp:408] L1_b7_cbr1_bn -> L1_b7_cbr1_bn_top
I0817 16:28:01.575057 17538 net.cpp:150] Setting up L1_b7_cbr1_bn
I0817 16:28:01.575069 17538 net.cpp:157] Top shape: 125 16 32 32 (2048000)
I0817 16:28:01.575075 17538 net.cpp:165] Memory required for data: 607745500
I0817 16:28:01.575085 17538 layer_factory.hpp:77] Creating layer L1_b7_cbr1_scale
I0817 16:28:01.575094 17538 net.cpp:100] Creating Layer L1_b7_cbr1_scale
I0817 16:28:01.575100 17538 net.cpp:434] L1_b7_cbr1_scale <- L1_b7_cbr1_bn_top
I0817 16:28:01.575119 17538 net.cpp:395] L1_b7_cbr1_scale -> L1_b7_cbr1_bn_top (in-place)
I0817 16:28:01.575175 17538 layer_factory.hpp:77] Creating layer L1_b7_cbr1_scale
I0817 16:28:01.575312 17538 net.cpp:150] Setting up L1_b7_cbr1_scale
I0817 16:28:01.575328 17538 net.cpp:157] Top shape: 125 16 32 32 (2048000)
I0817 16:28:01.575333 17538 net.cpp:165] Memory required for data: 615937500
I0817 16:28:01.575343 17538 layer_factory.hpp:77] Creating layer L1_b7_cbr1_relu
I0817 16:28:01.575351 17538 net.cpp:100] Creating Layer L1_b7_cbr1_relu
I0817 16:28:01.575357 17538 net.cpp:434] L1_b7_cbr1_relu <- L1_b7_cbr1_bn_top
I0817 16:28:01.575364 17538 net.cpp:395] L1_b7_cbr1_relu -> L1_b7_cbr1_bn_top (in-place)
I0817 16:28:01.575373 17538 net.cpp:150] Setting up L1_b7_cbr1_relu
I0817 16:28:01.575381 17538 net.cpp:157] Top shape: 125 16 32 32 (2048000)
I0817 16:28:01.575386 17538 net.cpp:165] Memory required for data: 624129500
I0817 16:28:01.575390 17538 layer_factory.hpp:77] Creating layer L1_b7_cbr2_conv
I0817 16:28:01.575404 17538 net.cpp:100] Creating Layer L1_b7_cbr2_conv
I0817 16:28:01.575412 17538 net.cpp:434] L1_b7_cbr2_conv <- L1_b7_cbr1_bn_top
I0817 16:28:01.575423 17538 net.cpp:408] L1_b7_cbr2_conv -> L1_b7_cbr2_conv_top
I0817 16:28:01.575732 17538 net.cpp:150] Setting up L1_b7_cbr2_conv
I0817 16:28:01.575747 17538 net.cpp:157] Top shape: 125 16 32 32 (2048000)
I0817 16:28:01.575752 17538 net.cpp:165] Memory required for data: 632321500
I0817 16:28:01.575768 17538 layer_factory.hpp:77] Creating layer L1_b7_cbr2_bn
I0817 16:28:01.575780 17538 net.cpp:100] Creating Layer L1_b7_cbr2_bn
I0817 16:28:01.575788 17538 net.cpp:434] L1_b7_cbr2_bn <- L1_b7_cbr2_conv_top
I0817 16:28:01.575798 17538 net.cpp:408] L1_b7_cbr2_bn -> L1_b7_cbr2_bn_top
I0817 16:28:01.576033 17538 net.cpp:150] Setting up L1_b7_cbr2_bn
I0817 16:28:01.576046 17538 net.cpp:157] Top shape: 125 16 32 32 (2048000)
I0817 16:28:01.576051 17538 net.cpp:165] Memory required for data: 640513500
I0817 16:28:01.576061 17538 layer_factory.hpp:77] Creating layer L1_b7_cbr2_scale
I0817 16:28:01.576071 17538 net.cpp:100] Creating Layer L1_b7_cbr2_scale
I0817 16:28:01.576076 17538 net.cpp:434] L1_b7_cbr2_scale <- L1_b7_cbr2_bn_top
I0817 16:28:01.576083 17538 net.cpp:395] L1_b7_cbr2_scale -> L1_b7_cbr2_bn_top (in-place)
I0817 16:28:01.576146 17538 layer_factory.hpp:77] Creating layer L1_b7_cbr2_scale
I0817 16:28:01.576287 17538 net.cpp:150] Setting up L1_b7_cbr2_scale
I0817 16:28:01.576299 17538 net.cpp:157] Top shape: 125 16 32 32 (2048000)
I0817 16:28:01.576304 17538 net.cpp:165] Memory required for data: 648705500
I0817 16:28:01.576313 17538 layer_factory.hpp:77] Creating layer L1_b7_sum_eltwise
I0817 16:28:01.576325 17538 net.cpp:100] Creating Layer L1_b7_sum_eltwise
I0817 16:28:01.576333 17538 net.cpp:434] L1_b7_sum_eltwise <- L1_b7_cbr2_bn_top
I0817 16:28:01.576339 17538 net.cpp:434] L1_b7_sum_eltwise <- L1_b6_sum_eltwise_top_L1_b6_relu_0_split_1
I0817 16:28:01.576347 17538 net.cpp:408] L1_b7_sum_eltwise -> L1_b7_sum_eltwise_top
I0817 16:28:01.576380 17538 net.cpp:150] Setting up L1_b7_sum_eltwise
I0817 16:28:01.576392 17538 net.cpp:157] Top shape: 125 16 32 32 (2048000)
I0817 16:28:01.576397 17538 net.cpp:165] Memory required for data: 656897500
I0817 16:28:01.576402 17538 layer_factory.hpp:77] Creating layer L1_b7_relu
I0817 16:28:01.576411 17538 net.cpp:100] Creating Layer L1_b7_relu
I0817 16:28:01.576416 17538 net.cpp:434] L1_b7_relu <- L1_b7_sum_eltwise_top
I0817 16:28:01.576426 17538 net.cpp:395] L1_b7_relu -> L1_b7_sum_eltwise_top (in-place)
I0817 16:28:01.576436 17538 net.cpp:150] Setting up L1_b7_relu
I0817 16:28:01.576443 17538 net.cpp:157] Top shape: 125 16 32 32 (2048000)
I0817 16:28:01.576447 17538 net.cpp:165] Memory required for data: 665089500
I0817 16:28:01.576452 17538 layer_factory.hpp:77] Creating layer L1_b7_sum_eltwise_top_L1_b7_relu_0_split
I0817 16:28:01.576459 17538 net.cpp:100] Creating Layer L1_b7_sum_eltwise_top_L1_b7_relu_0_split
I0817 16:28:01.576465 17538 net.cpp:434] L1_b7_sum_eltwise_top_L1_b7_relu_0_split <- L1_b7_sum_eltwise_top
I0817 16:28:01.576474 17538 net.cpp:408] L1_b7_sum_eltwise_top_L1_b7_relu_0_split -> L1_b7_sum_eltwise_top_L1_b7_relu_0_split_0
I0817 16:28:01.576484 17538 net.cpp:408] L1_b7_sum_eltwise_top_L1_b7_relu_0_split -> L1_b7_sum_eltwise_top_L1_b7_relu_0_split_1
I0817 16:28:01.576525 17538 net.cpp:150] Setting up L1_b7_sum_eltwise_top_L1_b7_relu_0_split
I0817 16:28:01.576536 17538 net.cpp:157] Top shape: 125 16 32 32 (2048000)
I0817 16:28:01.576544 17538 net.cpp:157] Top shape: 125 16 32 32 (2048000)
I0817 16:28:01.576548 17538 net.cpp:165] Memory required for data: 681473500
I0817 16:28:01.576555 17538 layer_factory.hpp:77] Creating layer L1_b8_cbr1_conv
I0817 16:28:01.576571 17538 net.cpp:100] Creating Layer L1_b8_cbr1_conv
I0817 16:28:01.576578 17538 net.cpp:434] L1_b8_cbr1_conv <- L1_b7_sum_eltwise_top_L1_b7_relu_0_split_0
I0817 16:28:01.576587 17538 net.cpp:408] L1_b8_cbr1_conv -> L1_b8_cbr1_conv_top
I0817 16:28:01.576902 17538 net.cpp:150] Setting up L1_b8_cbr1_conv
I0817 16:28:01.576917 17538 net.cpp:157] Top shape: 125 16 32 32 (2048000)
I0817 16:28:01.576922 17538 net.cpp:165] Memory required for data: 689665500
I0817 16:28:01.576931 17538 layer_factory.hpp:77] Creating layer L1_b8_cbr1_bn
I0817 16:28:01.576946 17538 net.cpp:100] Creating Layer L1_b8_cbr1_bn
I0817 16:28:01.576951 17538 net.cpp:434] L1_b8_cbr1_bn <- L1_b8_cbr1_conv_top
I0817 16:28:01.576962 17538 net.cpp:408] L1_b8_cbr1_bn -> L1_b8_cbr1_bn_top
I0817 16:28:01.577219 17538 net.cpp:150] Setting up L1_b8_cbr1_bn
I0817 16:28:01.577256 17538 net.cpp:157] Top shape: 125 16 32 32 (2048000)
I0817 16:28:01.577261 17538 net.cpp:165] Memory required for data: 697857500
I0817 16:28:01.577272 17538 layer_factory.hpp:77] Creating layer L1_b8_cbr1_scale
I0817 16:28:01.577281 17538 net.cpp:100] Creating Layer L1_b8_cbr1_scale
I0817 16:28:01.577287 17538 net.cpp:434] L1_b8_cbr1_scale <- L1_b8_cbr1_bn_top
I0817 16:28:01.577298 17538 net.cpp:395] L1_b8_cbr1_scale -> L1_b8_cbr1_bn_top (in-place)
I0817 16:28:01.577353 17538 layer_factory.hpp:77] Creating layer L1_b8_cbr1_scale
I0817 16:28:01.577493 17538 net.cpp:150] Setting up L1_b8_cbr1_scale
I0817 16:28:01.577507 17538 net.cpp:157] Top shape: 125 16 32 32 (2048000)
I0817 16:28:01.577512 17538 net.cpp:165] Memory required for data: 706049500
I0817 16:28:01.577520 17538 layer_factory.hpp:77] Creating layer L1_b8_cbr1_relu
I0817 16:28:01.577533 17538 net.cpp:100] Creating Layer L1_b8_cbr1_relu
I0817 16:28:01.577539 17538 net.cpp:434] L1_b8_cbr1_relu <- L1_b8_cbr1_bn_top
I0817 16:28:01.577548 17538 net.cpp:395] L1_b8_cbr1_relu -> L1_b8_cbr1_bn_top (in-place)
I0817 16:28:01.577556 17538 net.cpp:150] Setting up L1_b8_cbr1_relu
I0817 16:28:01.577564 17538 net.cpp:157] Top shape: 125 16 32 32 (2048000)
I0817 16:28:01.577569 17538 net.cpp:165] Memory required for data: 714241500
I0817 16:28:01.577574 17538 layer_factory.hpp:77] Creating layer L1_b8_cbr2_conv
I0817 16:28:01.577587 17538 net.cpp:100] Creating Layer L1_b8_cbr2_conv
I0817 16:28:01.577594 17538 net.cpp:434] L1_b8_cbr2_conv <- L1_b8_cbr1_bn_top
I0817 16:28:01.577605 17538 net.cpp:408] L1_b8_cbr2_conv -> L1_b8_cbr2_conv_top
I0817 16:28:01.577919 17538 net.cpp:150] Setting up L1_b8_cbr2_conv
I0817 16:28:01.577932 17538 net.cpp:157] Top shape: 125 16 32 32 (2048000)
I0817 16:28:01.577937 17538 net.cpp:165] Memory required for data: 722433500
I0817 16:28:01.577946 17538 layer_factory.hpp:77] Creating layer L1_b8_cbr2_bn
I0817 16:28:01.577958 17538 net.cpp:100] Creating Layer L1_b8_cbr2_bn
I0817 16:28:01.577965 17538 net.cpp:434] L1_b8_cbr2_bn <- L1_b8_cbr2_conv_top
I0817 16:28:01.577975 17538 net.cpp:408] L1_b8_cbr2_bn -> L1_b8_cbr2_bn_top
I0817 16:28:01.578230 17538 net.cpp:150] Setting up L1_b8_cbr2_bn
I0817 16:28:01.578245 17538 net.cpp:157] Top shape: 125 16 32 32 (2048000)
I0817 16:28:01.578250 17538 net.cpp:165] Memory required for data: 730625500
I0817 16:28:01.578260 17538 layer_factory.hpp:77] Creating layer L1_b8_cbr2_scale
I0817 16:28:01.578269 17538 net.cpp:100] Creating Layer L1_b8_cbr2_scale
I0817 16:28:01.578275 17538 net.cpp:434] L1_b8_cbr2_scale <- L1_b8_cbr2_bn_top
I0817 16:28:01.578284 17538 net.cpp:395] L1_b8_cbr2_scale -> L1_b8_cbr2_bn_top (in-place)
I0817 16:28:01.578339 17538 layer_factory.hpp:77] Creating layer L1_b8_cbr2_scale
I0817 16:28:01.578481 17538 net.cpp:150] Setting up L1_b8_cbr2_scale
I0817 16:28:01.578495 17538 net.cpp:157] Top shape: 125 16 32 32 (2048000)
I0817 16:28:01.578500 17538 net.cpp:165] Memory required for data: 738817500
I0817 16:28:01.578510 17538 layer_factory.hpp:77] Creating layer L1_b8_sum_eltwise
I0817 16:28:01.578521 17538 net.cpp:100] Creating Layer L1_b8_sum_eltwise
I0817 16:28:01.578527 17538 net.cpp:434] L1_b8_sum_eltwise <- L1_b8_cbr2_bn_top
I0817 16:28:01.578534 17538 net.cpp:434] L1_b8_sum_eltwise <- L1_b7_sum_eltwise_top_L1_b7_relu_0_split_1
I0817 16:28:01.578542 17538 net.cpp:408] L1_b8_sum_eltwise -> L1_b8_sum_eltwise_top
I0817 16:28:01.578577 17538 net.cpp:150] Setting up L1_b8_sum_eltwise
I0817 16:28:01.578588 17538 net.cpp:157] Top shape: 125 16 32 32 (2048000)
I0817 16:28:01.578593 17538 net.cpp:165] Memory required for data: 747009500
I0817 16:28:01.578598 17538 layer_factory.hpp:77] Creating layer L1_b8_relu
I0817 16:28:01.578606 17538 net.cpp:100] Creating Layer L1_b8_relu
I0817 16:28:01.578611 17538 net.cpp:434] L1_b8_relu <- L1_b8_sum_eltwise_top
I0817 16:28:01.578621 17538 net.cpp:395] L1_b8_relu -> L1_b8_sum_eltwise_top (in-place)
I0817 16:28:01.578631 17538 net.cpp:150] Setting up L1_b8_relu
I0817 16:28:01.578645 17538 net.cpp:157] Top shape: 125 16 32 32 (2048000)
I0817 16:28:01.578650 17538 net.cpp:165] Memory required for data: 755201500
I0817 16:28:01.578655 17538 layer_factory.hpp:77] Creating layer L1_b8_sum_eltwise_top_L1_b8_relu_0_split
I0817 16:28:01.578663 17538 net.cpp:100] Creating Layer L1_b8_sum_eltwise_top_L1_b8_relu_0_split
I0817 16:28:01.578668 17538 net.cpp:434] L1_b8_sum_eltwise_top_L1_b8_relu_0_split <- L1_b8_sum_eltwise_top
I0817 16:28:01.578678 17538 net.cpp:408] L1_b8_sum_eltwise_top_L1_b8_relu_0_split -> L1_b8_sum_eltwise_top_L1_b8_relu_0_split_0
I0817 16:28:01.578689 17538 net.cpp:408] L1_b8_sum_eltwise_top_L1_b8_relu_0_split -> L1_b8_sum_eltwise_top_L1_b8_relu_0_split_1
I0817 16:28:01.578732 17538 net.cpp:150] Setting up L1_b8_sum_eltwise_top_L1_b8_relu_0_split
I0817 16:28:01.578744 17538 net.cpp:157] Top shape: 125 16 32 32 (2048000)
I0817 16:28:01.578752 17538 net.cpp:157] Top shape: 125 16 32 32 (2048000)
I0817 16:28:01.578755 17538 net.cpp:165] Memory required for data: 771585500
I0817 16:28:01.578761 17538 layer_factory.hpp:77] Creating layer L1_b9_cbr1_conv
I0817 16:28:01.578775 17538 net.cpp:100] Creating Layer L1_b9_cbr1_conv
I0817 16:28:01.578781 17538 net.cpp:434] L1_b9_cbr1_conv <- L1_b8_sum_eltwise_top_L1_b8_relu_0_split_0
I0817 16:28:01.578790 17538 net.cpp:408] L1_b9_cbr1_conv -> L1_b9_cbr1_conv_top
I0817 16:28:01.579121 17538 net.cpp:150] Setting up L1_b9_cbr1_conv
I0817 16:28:01.579139 17538 net.cpp:157] Top shape: 125 16 32 32 (2048000)
I0817 16:28:01.579144 17538 net.cpp:165] Memory required for data: 779777500
I0817 16:28:01.579154 17538 layer_factory.hpp:77] Creating layer L1_b9_cbr1_bn
I0817 16:28:01.579162 17538 net.cpp:100] Creating Layer L1_b9_cbr1_bn
I0817 16:28:01.579169 17538 net.cpp:434] L1_b9_cbr1_bn <- L1_b9_cbr1_conv_top
I0817 16:28:01.579180 17538 net.cpp:408] L1_b9_cbr1_bn -> L1_b9_cbr1_bn_top
I0817 16:28:01.579422 17538 net.cpp:150] Setting up L1_b9_cbr1_bn
I0817 16:28:01.579435 17538 net.cpp:157] Top shape: 125 16 32 32 (2048000)
I0817 16:28:01.579440 17538 net.cpp:165] Memory required for data: 787969500
I0817 16:28:01.579452 17538 layer_factory.hpp:77] Creating layer L1_b9_cbr1_scale
I0817 16:28:01.579463 17538 net.cpp:100] Creating Layer L1_b9_cbr1_scale
I0817 16:28:01.579469 17538 net.cpp:434] L1_b9_cbr1_scale <- L1_b9_cbr1_bn_top
I0817 16:28:01.579478 17538 net.cpp:395] L1_b9_cbr1_scale -> L1_b9_cbr1_bn_top (in-place)
I0817 16:28:01.579530 17538 layer_factory.hpp:77] Creating layer L1_b9_cbr1_scale
I0817 16:28:01.579679 17538 net.cpp:150] Setting up L1_b9_cbr1_scale
I0817 16:28:01.579692 17538 net.cpp:157] Top shape: 125 16 32 32 (2048000)
I0817 16:28:01.579697 17538 net.cpp:165] Memory required for data: 796161500
I0817 16:28:01.579706 17538 layer_factory.hpp:77] Creating layer L1_b9_cbr1_relu
I0817 16:28:01.579715 17538 net.cpp:100] Creating Layer L1_b9_cbr1_relu
I0817 16:28:01.579720 17538 net.cpp:434] L1_b9_cbr1_relu <- L1_b9_cbr1_bn_top
I0817 16:28:01.579730 17538 net.cpp:395] L1_b9_cbr1_relu -> L1_b9_cbr1_bn_top (in-place)
I0817 16:28:01.579741 17538 net.cpp:150] Setting up L1_b9_cbr1_relu
I0817 16:28:01.579748 17538 net.cpp:157] Top shape: 125 16 32 32 (2048000)
I0817 16:28:01.579753 17538 net.cpp:165] Memory required for data: 804353500
I0817 16:28:01.579758 17538 layer_factory.hpp:77] Creating layer L1_b9_cbr2_conv
I0817 16:28:01.579772 17538 net.cpp:100] Creating Layer L1_b9_cbr2_conv
I0817 16:28:01.579778 17538 net.cpp:434] L1_b9_cbr2_conv <- L1_b9_cbr1_bn_top
I0817 16:28:01.579787 17538 net.cpp:408] L1_b9_cbr2_conv -> L1_b9_cbr2_conv_top
I0817 16:28:01.580111 17538 net.cpp:150] Setting up L1_b9_cbr2_conv
I0817 16:28:01.580126 17538 net.cpp:157] Top shape: 125 16 32 32 (2048000)
I0817 16:28:01.580130 17538 net.cpp:165] Memory required for data: 812545500
I0817 16:28:01.580139 17538 layer_factory.hpp:77] Creating layer L1_b9_cbr2_bn
I0817 16:28:01.580152 17538 net.cpp:100] Creating Layer L1_b9_cbr2_bn
I0817 16:28:01.580158 17538 net.cpp:434] L1_b9_cbr2_bn <- L1_b9_cbr2_conv_top
I0817 16:28:01.580166 17538 net.cpp:408] L1_b9_cbr2_bn -> L1_b9_cbr2_bn_top
I0817 16:28:01.580418 17538 net.cpp:150] Setting up L1_b9_cbr2_bn
I0817 16:28:01.580432 17538 net.cpp:157] Top shape: 125 16 32 32 (2048000)
I0817 16:28:01.580438 17538 net.cpp:165] Memory required for data: 820737500
I0817 16:28:01.580469 17538 layer_factory.hpp:77] Creating layer L1_b9_cbr2_scale
I0817 16:28:01.580482 17538 net.cpp:100] Creating Layer L1_b9_cbr2_scale
I0817 16:28:01.580488 17538 net.cpp:434] L1_b9_cbr2_scale <- L1_b9_cbr2_bn_top
I0817 16:28:01.580498 17538 net.cpp:395] L1_b9_cbr2_scale -> L1_b9_cbr2_bn_top (in-place)
I0817 16:28:01.580550 17538 layer_factory.hpp:77] Creating layer L1_b9_cbr2_scale
I0817 16:28:01.580688 17538 net.cpp:150] Setting up L1_b9_cbr2_scale
I0817 16:28:01.580701 17538 net.cpp:157] Top shape: 125 16 32 32 (2048000)
I0817 16:28:01.580706 17538 net.cpp:165] Memory required for data: 828929500
I0817 16:28:01.580716 17538 layer_factory.hpp:77] Creating layer L1_b9_sum_eltwise
I0817 16:28:01.580725 17538 net.cpp:100] Creating Layer L1_b9_sum_eltwise
I0817 16:28:01.580731 17538 net.cpp:434] L1_b9_sum_eltwise <- L1_b9_cbr2_bn_top
I0817 16:28:01.580739 17538 net.cpp:434] L1_b9_sum_eltwise <- L1_b8_sum_eltwise_top_L1_b8_relu_0_split_1
I0817 16:28:01.580746 17538 net.cpp:408] L1_b9_sum_eltwise -> L1_b9_sum_eltwise_top
I0817 16:28:01.580780 17538 net.cpp:150] Setting up L1_b9_sum_eltwise
I0817 16:28:01.580790 17538 net.cpp:157] Top shape: 125 16 32 32 (2048000)
I0817 16:28:01.580796 17538 net.cpp:165] Memory required for data: 837121500
I0817 16:28:01.580801 17538 layer_factory.hpp:77] Creating layer L1_b9_relu
I0817 16:28:01.580808 17538 net.cpp:100] Creating Layer L1_b9_relu
I0817 16:28:01.580813 17538 net.cpp:434] L1_b9_relu <- L1_b9_sum_eltwise_top
I0817 16:28:01.580823 17538 net.cpp:395] L1_b9_relu -> L1_b9_sum_eltwise_top (in-place)
I0817 16:28:01.580832 17538 net.cpp:150] Setting up L1_b9_relu
I0817 16:28:01.580840 17538 net.cpp:157] Top shape: 125 16 32 32 (2048000)
I0817 16:28:01.580844 17538 net.cpp:165] Memory required for data: 845313500
I0817 16:28:01.580849 17538 layer_factory.hpp:77] Creating layer L1_b9_sum_eltwise_top_L1_b9_relu_0_split
I0817 16:28:01.580857 17538 net.cpp:100] Creating Layer L1_b9_sum_eltwise_top_L1_b9_relu_0_split
I0817 16:28:01.580862 17538 net.cpp:434] L1_b9_sum_eltwise_top_L1_b9_relu_0_split <- L1_b9_sum_eltwise_top
I0817 16:28:01.580873 17538 net.cpp:408] L1_b9_sum_eltwise_top_L1_b9_relu_0_split -> L1_b9_sum_eltwise_top_L1_b9_relu_0_split_0
I0817 16:28:01.580883 17538 net.cpp:408] L1_b9_sum_eltwise_top_L1_b9_relu_0_split -> L1_b9_sum_eltwise_top_L1_b9_relu_0_split_1
I0817 16:28:01.580925 17538 net.cpp:150] Setting up L1_b9_sum_eltwise_top_L1_b9_relu_0_split
I0817 16:28:01.580937 17538 net.cpp:157] Top shape: 125 16 32 32 (2048000)
I0817 16:28:01.580945 17538 net.cpp:157] Top shape: 125 16 32 32 (2048000)
I0817 16:28:01.580950 17538 net.cpp:165] Memory required for data: 861697500
I0817 16:28:01.580955 17538 layer_factory.hpp:77] Creating layer L2_b1_cbr1_conv
I0817 16:28:01.580971 17538 net.cpp:100] Creating Layer L2_b1_cbr1_conv
I0817 16:28:01.580978 17538 net.cpp:434] L2_b1_cbr1_conv <- L1_b9_sum_eltwise_top_L1_b9_relu_0_split_0
I0817 16:28:01.580988 17538 net.cpp:408] L2_b1_cbr1_conv -> L2_b1_cbr1_conv_top
I0817 16:28:01.581313 17538 net.cpp:150] Setting up L2_b1_cbr1_conv
I0817 16:28:01.581328 17538 net.cpp:157] Top shape: 125 16 16 16 (512000)
I0817 16:28:01.581333 17538 net.cpp:165] Memory required for data: 863745500
I0817 16:28:01.581342 17538 layer_factory.hpp:77] Creating layer L2_b1_cbr1_bn
I0817 16:28:01.581354 17538 net.cpp:100] Creating Layer L2_b1_cbr1_bn
I0817 16:28:01.581362 17538 net.cpp:434] L2_b1_cbr1_bn <- L2_b1_cbr1_conv_top
I0817 16:28:01.581369 17538 net.cpp:408] L2_b1_cbr1_bn -> L2_b1_cbr1_bn_top
I0817 16:28:01.581606 17538 net.cpp:150] Setting up L2_b1_cbr1_bn
I0817 16:28:01.581619 17538 net.cpp:157] Top shape: 125 16 16 16 (512000)
I0817 16:28:01.581624 17538 net.cpp:165] Memory required for data: 865793500
I0817 16:28:01.581635 17538 layer_factory.hpp:77] Creating layer L2_b1_cbr1_scale
I0817 16:28:01.581650 17538 net.cpp:100] Creating Layer L2_b1_cbr1_scale
I0817 16:28:01.581657 17538 net.cpp:434] L2_b1_cbr1_scale <- L2_b1_cbr1_bn_top
I0817 16:28:01.581670 17538 net.cpp:395] L2_b1_cbr1_scale -> L2_b1_cbr1_bn_top (in-place)
I0817 16:28:01.581723 17538 layer_factory.hpp:77] Creating layer L2_b1_cbr1_scale
I0817 16:28:01.581864 17538 net.cpp:150] Setting up L2_b1_cbr1_scale
I0817 16:28:01.581877 17538 net.cpp:157] Top shape: 125 16 16 16 (512000)
I0817 16:28:01.581882 17538 net.cpp:165] Memory required for data: 867841500
I0817 16:28:01.581892 17538 layer_factory.hpp:77] Creating layer L2_b1_cbr1_relu
I0817 16:28:01.581900 17538 net.cpp:100] Creating Layer L2_b1_cbr1_relu
I0817 16:28:01.581907 17538 net.cpp:434] L2_b1_cbr1_relu <- L2_b1_cbr1_bn_top
I0817 16:28:01.581917 17538 net.cpp:395] L2_b1_cbr1_relu -> L2_b1_cbr1_bn_top (in-place)
I0817 16:28:01.581926 17538 net.cpp:150] Setting up L2_b1_cbr1_relu
I0817 16:28:01.581933 17538 net.cpp:157] Top shape: 125 16 16 16 (512000)
I0817 16:28:01.581938 17538 net.cpp:165] Memory required for data: 869889500
I0817 16:28:01.581943 17538 layer_factory.hpp:77] Creating layer L2_b1_cbr2_conv
I0817 16:28:01.581957 17538 net.cpp:100] Creating Layer L2_b1_cbr2_conv
I0817 16:28:01.581964 17538 net.cpp:434] L2_b1_cbr2_conv <- L2_b1_cbr1_bn_top
I0817 16:28:01.581972 17538 net.cpp:408] L2_b1_cbr2_conv -> L2_b1_cbr2_conv_top
I0817 16:28:01.582300 17538 net.cpp:150] Setting up L2_b1_cbr2_conv
I0817 16:28:01.582314 17538 net.cpp:157] Top shape: 125 16 16 16 (512000)
I0817 16:28:01.582320 17538 net.cpp:165] Memory required for data: 871937500
I0817 16:28:01.582329 17538 layer_factory.hpp:77] Creating layer L2_b1_cbr2_bn
I0817 16:28:01.582339 17538 net.cpp:100] Creating Layer L2_b1_cbr2_bn
I0817 16:28:01.582350 17538 net.cpp:434] L2_b1_cbr2_bn <- L2_b1_cbr2_conv_top
I0817 16:28:01.582357 17538 net.cpp:408] L2_b1_cbr2_bn -> L2_b1_cbr2_bn_top
I0817 16:28:01.582600 17538 net.cpp:150] Setting up L2_b1_cbr2_bn
I0817 16:28:01.582613 17538 net.cpp:157] Top shape: 125 16 16 16 (512000)
I0817 16:28:01.582618 17538 net.cpp:165] Memory required for data: 873985500
I0817 16:28:01.582629 17538 layer_factory.hpp:77] Creating layer L2_b1_cbr2_scale
I0817 16:28:01.582638 17538 net.cpp:100] Creating Layer L2_b1_cbr2_scale
I0817 16:28:01.582644 17538 net.cpp:434] L2_b1_cbr2_scale <- L2_b1_cbr2_bn_top
I0817 16:28:01.582651 17538 net.cpp:395] L2_b1_cbr2_scale -> L2_b1_cbr2_bn_top (in-place)
I0817 16:28:01.582707 17538 layer_factory.hpp:77] Creating layer L2_b1_cbr2_scale
I0817 16:28:01.582849 17538 net.cpp:150] Setting up L2_b1_cbr2_scale
I0817 16:28:01.582864 17538 net.cpp:157] Top shape: 125 16 16 16 (512000)
I0817 16:28:01.582870 17538 net.cpp:165] Memory required for data: 876033500
I0817 16:28:01.582878 17538 layer_factory.hpp:77] Creating layer L2_b1_pool
I0817 16:28:01.582888 17538 net.cpp:100] Creating Layer L2_b1_pool
I0817 16:28:01.582895 17538 net.cpp:434] L2_b1_pool <- L1_b9_sum_eltwise_top_L1_b9_relu_0_split_1
I0817 16:28:01.582902 17538 net.cpp:408] L2_b1_pool -> L2_b1_pool
I0817 16:28:01.582991 17538 net.cpp:150] Setting up L2_b1_pool
I0817 16:28:01.583008 17538 net.cpp:157] Top shape: 125 16 16 16 (512000)
I0817 16:28:01.583012 17538 net.cpp:165] Memory required for data: 878081500
I0817 16:28:01.583019 17538 layer_factory.hpp:77] Creating layer L2_b1_sum_eltwise
I0817 16:28:01.583027 17538 net.cpp:100] Creating Layer L2_b1_sum_eltwise
I0817 16:28:01.583034 17538 net.cpp:434] L2_b1_sum_eltwise <- L2_b1_cbr2_bn_top
I0817 16:28:01.583043 17538 net.cpp:434] L2_b1_sum_eltwise <- L2_b1_pool
I0817 16:28:01.583052 17538 net.cpp:408] L2_b1_sum_eltwise -> L2_b1_sum_eltwise_top
I0817 16:28:01.583084 17538 net.cpp:150] Setting up L2_b1_sum_eltwise
I0817 16:28:01.583093 17538 net.cpp:157] Top shape: 125 16 16 16 (512000)
I0817 16:28:01.583098 17538 net.cpp:165] Memory required for data: 880129500
I0817 16:28:01.583111 17538 layer_factory.hpp:77] Creating layer L2_b1_relu
I0817 16:28:01.583122 17538 net.cpp:100] Creating Layer L2_b1_relu
I0817 16:28:01.583128 17538 net.cpp:434] L2_b1_relu <- L2_b1_sum_eltwise_top
I0817 16:28:01.583143 17538 net.cpp:395] L2_b1_relu -> L2_b1_sum_eltwise_top (in-place)
I0817 16:28:01.583153 17538 net.cpp:150] Setting up L2_b1_relu
I0817 16:28:01.583160 17538 net.cpp:157] Top shape: 125 16 16 16 (512000)
I0817 16:28:01.583165 17538 net.cpp:165] Memory required for data: 882177500
I0817 16:28:01.583170 17538 layer_factory.hpp:77] Creating layer L2_b1_zeros
I0817 16:28:01.583218 17538 net.cpp:100] Creating Layer L2_b1_zeros
I0817 16:28:01.583235 17538 net.cpp:408] L2_b1_zeros -> L2_b1_zeros
I0817 16:28:01.585566 17538 net.cpp:150] Setting up L2_b1_zeros
I0817 16:28:01.585585 17538 net.cpp:157] Top shape: 125 16 16 16 (512000)
I0817 16:28:01.585590 17538 net.cpp:165] Memory required for data: 884225500
I0817 16:28:01.585597 17538 layer_factory.hpp:77] Creating layer L2_b1_concat0
I0817 16:28:01.585608 17538 net.cpp:100] Creating Layer L2_b1_concat0
I0817 16:28:01.585614 17538 net.cpp:434] L2_b1_concat0 <- L2_b1_sum_eltwise_top
I0817 16:28:01.585621 17538 net.cpp:434] L2_b1_concat0 <- L2_b1_zeros
I0817 16:28:01.585633 17538 net.cpp:408] L2_b1_concat0 -> L2_b1_concat0
I0817 16:28:01.585711 17538 net.cpp:150] Setting up L2_b1_concat0
I0817 16:28:01.585729 17538 net.cpp:157] Top shape: 125 32 16 16 (1024000)
I0817 16:28:01.585736 17538 net.cpp:165] Memory required for data: 888321500
I0817 16:28:01.585741 17538 layer_factory.hpp:77] Creating layer L2_b1_concat0_L2_b1_concat0_0_split
I0817 16:28:01.585749 17538 net.cpp:100] Creating Layer L2_b1_concat0_L2_b1_concat0_0_split
I0817 16:28:01.585755 17538 net.cpp:434] L2_b1_concat0_L2_b1_concat0_0_split <- L2_b1_concat0
I0817 16:28:01.585767 17538 net.cpp:408] L2_b1_concat0_L2_b1_concat0_0_split -> L2_b1_concat0_L2_b1_concat0_0_split_0
I0817 16:28:01.585777 17538 net.cpp:408] L2_b1_concat0_L2_b1_concat0_0_split -> L2_b1_concat0_L2_b1_concat0_0_split_1
I0817 16:28:01.585825 17538 net.cpp:150] Setting up L2_b1_concat0_L2_b1_concat0_0_split
I0817 16:28:01.585836 17538 net.cpp:157] Top shape: 125 32 16 16 (1024000)
I0817 16:28:01.585844 17538 net.cpp:157] Top shape: 125 32 16 16 (1024000)
I0817 16:28:01.585849 17538 net.cpp:165] Memory required for data: 896513500
I0817 16:28:01.585853 17538 layer_factory.hpp:77] Creating layer L2_b2_cbr1_conv
I0817 16:28:01.585868 17538 net.cpp:100] Creating Layer L2_b2_cbr1_conv
I0817 16:28:01.585875 17538 net.cpp:434] L2_b2_cbr1_conv <- L2_b1_concat0_L2_b1_concat0_0_split_0
I0817 16:28:01.585887 17538 net.cpp:408] L2_b2_cbr1_conv -> L2_b2_cbr1_conv_top
I0817 16:28:01.587337 17538 net.cpp:150] Setting up L2_b2_cbr1_conv
I0817 16:28:01.587354 17538 net.cpp:157] Top shape: 125 32 16 16 (1024000)
I0817 16:28:01.587360 17538 net.cpp:165] Memory required for data: 900609500
I0817 16:28:01.587369 17538 layer_factory.hpp:77] Creating layer L2_b2_cbr1_bn
I0817 16:28:01.587383 17538 net.cpp:100] Creating Layer L2_b2_cbr1_bn
I0817 16:28:01.587390 17538 net.cpp:434] L2_b2_cbr1_bn <- L2_b2_cbr1_conv_top
I0817 16:28:01.587399 17538 net.cpp:408] L2_b2_cbr1_bn -> L2_b2_cbr1_bn_top
I0817 16:28:01.587648 17538 net.cpp:150] Setting up L2_b2_cbr1_bn
I0817 16:28:01.587662 17538 net.cpp:157] Top shape: 125 32 16 16 (1024000)
I0817 16:28:01.587667 17538 net.cpp:165] Memory required for data: 904705500
I0817 16:28:01.587678 17538 layer_factory.hpp:77] Creating layer L2_b2_cbr1_scale
I0817 16:28:01.587687 17538 net.cpp:100] Creating Layer L2_b2_cbr1_scale
I0817 16:28:01.587693 17538 net.cpp:434] L2_b2_cbr1_scale <- L2_b2_cbr1_bn_top
I0817 16:28:01.587704 17538 net.cpp:395] L2_b2_cbr1_scale -> L2_b2_cbr1_bn_top (in-place)
I0817 16:28:01.587760 17538 layer_factory.hpp:77] Creating layer L2_b2_cbr1_scale
I0817 16:28:01.587909 17538 net.cpp:150] Setting up L2_b2_cbr1_scale
I0817 16:28:01.587923 17538 net.cpp:157] Top shape: 125 32 16 16 (1024000)
I0817 16:28:01.587927 17538 net.cpp:165] Memory required for data: 908801500
I0817 16:28:01.587936 17538 layer_factory.hpp:77] Creating layer L2_b2_cbr1_relu
I0817 16:28:01.587945 17538 net.cpp:100] Creating Layer L2_b2_cbr1_relu
I0817 16:28:01.587951 17538 net.cpp:434] L2_b2_cbr1_relu <- L2_b2_cbr1_bn_top
I0817 16:28:01.587970 17538 net.cpp:395] L2_b2_cbr1_relu -> L2_b2_cbr1_bn_top (in-place)
I0817 16:28:01.587980 17538 net.cpp:150] Setting up L2_b2_cbr1_relu
I0817 16:28:01.587987 17538 net.cpp:157] Top shape: 125 32 16 16 (1024000)
I0817 16:28:01.587992 17538 net.cpp:165] Memory required for data: 912897500
I0817 16:28:01.587997 17538 layer_factory.hpp:77] Creating layer L2_b2_cbr2_conv
I0817 16:28:01.588012 17538 net.cpp:100] Creating Layer L2_b2_cbr2_conv
I0817 16:28:01.588018 17538 net.cpp:434] L2_b2_cbr2_conv <- L2_b2_cbr1_bn_top
I0817 16:28:01.588027 17538 net.cpp:408] L2_b2_cbr2_conv -> L2_b2_cbr2_conv_top
I0817 16:28:01.588495 17538 net.cpp:150] Setting up L2_b2_cbr2_conv
I0817 16:28:01.588510 17538 net.cpp:157] Top shape: 125 32 16 16 (1024000)
I0817 16:28:01.588516 17538 net.cpp:165] Memory required for data: 916993500
I0817 16:28:01.588526 17538 layer_factory.hpp:77] Creating layer L2_b2_cbr2_bn
I0817 16:28:01.588538 17538 net.cpp:100] Creating Layer L2_b2_cbr2_bn
I0817 16:28:01.588546 17538 net.cpp:434] L2_b2_cbr2_bn <- L2_b2_cbr2_conv_top
I0817 16:28:01.588553 17538 net.cpp:408] L2_b2_cbr2_bn -> L2_b2_cbr2_bn_top
I0817 16:28:01.588801 17538 net.cpp:150] Setting up L2_b2_cbr2_bn
I0817 16:28:01.588814 17538 net.cpp:157] Top shape: 125 32 16 16 (1024000)
I0817 16:28:01.588819 17538 net.cpp:165] Memory required for data: 921089500
I0817 16:28:01.588830 17538 layer_factory.hpp:77] Creating layer L2_b2_cbr2_scale
I0817 16:28:01.588840 17538 net.cpp:100] Creating Layer L2_b2_cbr2_scale
I0817 16:28:01.588845 17538 net.cpp:434] L2_b2_cbr2_scale <- L2_b2_cbr2_bn_top
I0817 16:28:01.588853 17538 net.cpp:395] L2_b2_cbr2_scale -> L2_b2_cbr2_bn_top (in-place)
I0817 16:28:01.588909 17538 layer_factory.hpp:77] Creating layer L2_b2_cbr2_scale
I0817 16:28:01.589053 17538 net.cpp:150] Setting up L2_b2_cbr2_scale
I0817 16:28:01.589069 17538 net.cpp:157] Top shape: 125 32 16 16 (1024000)
I0817 16:28:01.589074 17538 net.cpp:165] Memory required for data: 925185500
I0817 16:28:01.589084 17538 layer_factory.hpp:77] Creating layer L2_b2_sum_eltwise
I0817 16:28:01.589093 17538 net.cpp:100] Creating Layer L2_b2_sum_eltwise
I0817 16:28:01.589099 17538 net.cpp:434] L2_b2_sum_eltwise <- L2_b2_cbr2_bn_top
I0817 16:28:01.589113 17538 net.cpp:434] L2_b2_sum_eltwise <- L2_b1_concat0_L2_b1_concat0_0_split_1
I0817 16:28:01.589121 17538 net.cpp:408] L2_b2_sum_eltwise -> L2_b2_sum_eltwise_top
I0817 16:28:01.589152 17538 net.cpp:150] Setting up L2_b2_sum_eltwise
I0817 16:28:01.589162 17538 net.cpp:157] Top shape: 125 32 16 16 (1024000)
I0817 16:28:01.589167 17538 net.cpp:165] Memory required for data: 929281500
I0817 16:28:01.589172 17538 layer_factory.hpp:77] Creating layer L2_b2_relu
I0817 16:28:01.589180 17538 net.cpp:100] Creating Layer L2_b2_relu
I0817 16:28:01.589186 17538 net.cpp:434] L2_b2_relu <- L2_b2_sum_eltwise_top
I0817 16:28:01.589196 17538 net.cpp:395] L2_b2_relu -> L2_b2_sum_eltwise_top (in-place)
I0817 16:28:01.589206 17538 net.cpp:150] Setting up L2_b2_relu
I0817 16:28:01.589213 17538 net.cpp:157] Top shape: 125 32 16 16 (1024000)
I0817 16:28:01.589218 17538 net.cpp:165] Memory required for data: 933377500
I0817 16:28:01.589223 17538 layer_factory.hpp:77] Creating layer L2_b2_sum_eltwise_top_L2_b2_relu_0_split
I0817 16:28:01.589231 17538 net.cpp:100] Creating Layer L2_b2_sum_eltwise_top_L2_b2_relu_0_split
I0817 16:28:01.589236 17538 net.cpp:434] L2_b2_sum_eltwise_top_L2_b2_relu_0_split <- L2_b2_sum_eltwise_top
I0817 16:28:01.589246 17538 net.cpp:408] L2_b2_sum_eltwise_top_L2_b2_relu_0_split -> L2_b2_sum_eltwise_top_L2_b2_relu_0_split_0
I0817 16:28:01.589256 17538 net.cpp:408] L2_b2_sum_eltwise_top_L2_b2_relu_0_split -> L2_b2_sum_eltwise_top_L2_b2_relu_0_split_1
I0817 16:28:01.589298 17538 net.cpp:150] Setting up L2_b2_sum_eltwise_top_L2_b2_relu_0_split
I0817 16:28:01.589310 17538 net.cpp:157] Top shape: 125 32 16 16 (1024000)
I0817 16:28:01.589316 17538 net.cpp:157] Top shape: 125 32 16 16 (1024000)
I0817 16:28:01.589321 17538 net.cpp:165] Memory required for data: 941569500
I0817 16:28:01.589326 17538 layer_factory.hpp:77] Creating layer L2_b3_cbr1_conv
I0817 16:28:01.589349 17538 net.cpp:100] Creating Layer L2_b3_cbr1_conv
I0817 16:28:01.589356 17538 net.cpp:434] L2_b3_cbr1_conv <- L2_b2_sum_eltwise_top_L2_b2_relu_0_split_0
I0817 16:28:01.589365 17538 net.cpp:408] L2_b3_cbr1_conv -> L2_b3_cbr1_conv_top
I0817 16:28:01.589833 17538 net.cpp:150] Setting up L2_b3_cbr1_conv
I0817 16:28:01.589848 17538 net.cpp:157] Top shape: 125 32 16 16 (1024000)
I0817 16:28:01.589854 17538 net.cpp:165] Memory required for data: 945665500
I0817 16:28:01.589862 17538 layer_factory.hpp:77] Creating layer L2_b3_cbr1_bn
I0817 16:28:01.589875 17538 net.cpp:100] Creating Layer L2_b3_cbr1_bn
I0817 16:28:01.589881 17538 net.cpp:434] L2_b3_cbr1_bn <- L2_b3_cbr1_conv_top
I0817 16:28:01.589890 17538 net.cpp:408] L2_b3_cbr1_bn -> L2_b3_cbr1_bn_top
I0817 16:28:01.590140 17538 net.cpp:150] Setting up L2_b3_cbr1_bn
I0817 16:28:01.590154 17538 net.cpp:157] Top shape: 125 32 16 16 (1024000)
I0817 16:28:01.590159 17538 net.cpp:165] Memory required for data: 949761500
I0817 16:28:01.590170 17538 layer_factory.hpp:77] Creating layer L2_b3_cbr1_scale
I0817 16:28:01.590178 17538 net.cpp:100] Creating Layer L2_b3_cbr1_scale
I0817 16:28:01.590184 17538 net.cpp:434] L2_b3_cbr1_scale <- L2_b3_cbr1_bn_top
I0817 16:28:01.590195 17538 net.cpp:395] L2_b3_cbr1_scale -> L2_b3_cbr1_bn_top (in-place)
I0817 16:28:01.590250 17538 layer_factory.hpp:77] Creating layer L2_b3_cbr1_scale
I0817 16:28:01.590401 17538 net.cpp:150] Setting up L2_b3_cbr1_scale
I0817 16:28:01.590415 17538 net.cpp:157] Top shape: 125 32 16 16 (1024000)
I0817 16:28:01.590420 17538 net.cpp:165] Memory required for data: 953857500
I0817 16:28:01.590430 17538 layer_factory.hpp:77] Creating layer L2_b3_cbr1_relu
I0817 16:28:01.590437 17538 net.cpp:100] Creating Layer L2_b3_cbr1_relu
I0817 16:28:01.590445 17538 net.cpp:434] L2_b3_cbr1_relu <- L2_b3_cbr1_bn_top
I0817 16:28:01.590451 17538 net.cpp:395] L2_b3_cbr1_relu -> L2_b3_cbr1_bn_top (in-place)
I0817 16:28:01.590463 17538 net.cpp:150] Setting up L2_b3_cbr1_relu
I0817 16:28:01.590471 17538 net.cpp:157] Top shape: 125 32 16 16 (1024000)
I0817 16:28:01.590476 17538 net.cpp:165] Memory required for data: 957953500
I0817 16:28:01.590481 17538 layer_factory.hpp:77] Creating layer L2_b3_cbr2_conv
I0817 16:28:01.590492 17538 net.cpp:100] Creating Layer L2_b3_cbr2_conv
I0817 16:28:01.590502 17538 net.cpp:434] L2_b3_cbr2_conv <- L2_b3_cbr1_bn_top
I0817 16:28:01.590510 17538 net.cpp:408] L2_b3_cbr2_conv -> L2_b3_cbr2_conv_top
I0817 16:28:01.590993 17538 net.cpp:150] Setting up L2_b3_cbr2_conv
I0817 16:28:01.591008 17538 net.cpp:157] Top shape: 125 32 16 16 (1024000)
I0817 16:28:01.591014 17538 net.cpp:165] Memory required for data: 962049500
I0817 16:28:01.591023 17538 layer_factory.hpp:77] Creating layer L2_b3_cbr2_bn
I0817 16:28:01.591035 17538 net.cpp:100] Creating Layer L2_b3_cbr2_bn
I0817 16:28:01.591042 17538 net.cpp:434] L2_b3_cbr2_bn <- L2_b3_cbr2_conv_top
I0817 16:28:01.591053 17538 net.cpp:408] L2_b3_cbr2_bn -> L2_b3_cbr2_bn_top
I0817 16:28:01.591305 17538 net.cpp:150] Setting up L2_b3_cbr2_bn
I0817 16:28:01.591320 17538 net.cpp:157] Top shape: 125 32 16 16 (1024000)
I0817 16:28:01.591325 17538 net.cpp:165] Memory required for data: 966145500
I0817 16:28:01.591336 17538 layer_factory.hpp:77] Creating layer L2_b3_cbr2_scale
I0817 16:28:01.591344 17538 net.cpp:100] Creating Layer L2_b3_cbr2_scale
I0817 16:28:01.591351 17538 net.cpp:434] L2_b3_cbr2_scale <- L2_b3_cbr2_bn_top
I0817 16:28:01.591357 17538 net.cpp:395] L2_b3_cbr2_scale -> L2_b3_cbr2_bn_top (in-place)
I0817 16:28:01.591415 17538 layer_factory.hpp:77] Creating layer L2_b3_cbr2_scale
I0817 16:28:01.591562 17538 net.cpp:150] Setting up L2_b3_cbr2_scale
I0817 16:28:01.591578 17538 net.cpp:157] Top shape: 125 32 16 16 (1024000)
I0817 16:28:01.591583 17538 net.cpp:165] Memory required for data: 970241500
I0817 16:28:01.591593 17538 layer_factory.hpp:77] Creating layer L2_b3_sum_eltwise
I0817 16:28:01.591603 17538 net.cpp:100] Creating Layer L2_b3_sum_eltwise
I0817 16:28:01.591609 17538 net.cpp:434] L2_b3_sum_eltwise <- L2_b3_cbr2_bn_top
I0817 16:28:01.591622 17538 net.cpp:434] L2_b3_sum_eltwise <- L2_b2_sum_eltwise_top_L2_b2_relu_0_split_1
I0817 16:28:01.591630 17538 net.cpp:408] L2_b3_sum_eltwise -> L2_b3_sum_eltwise_top
I0817 16:28:01.591661 17538 net.cpp:150] Setting up L2_b3_sum_eltwise
I0817 16:28:01.591672 17538 net.cpp:157] Top shape: 125 32 16 16 (1024000)
I0817 16:28:01.591677 17538 net.cpp:165] Memory required for data: 974337500
I0817 16:28:01.591682 17538 layer_factory.hpp:77] Creating layer L2_b3_relu
I0817 16:28:01.591706 17538 net.cpp:100] Creating Layer L2_b3_relu
I0817 16:28:01.591712 17538 net.cpp:434] L2_b3_relu <- L2_b3_sum_eltwise_top
I0817 16:28:01.591719 17538 net.cpp:395] L2_b3_relu -> L2_b3_sum_eltwise_top (in-place)
I0817 16:28:01.591729 17538 net.cpp:150] Setting up L2_b3_relu
I0817 16:28:01.591737 17538 net.cpp:157] Top shape: 125 32 16 16 (1024000)
I0817 16:28:01.591742 17538 net.cpp:165] Memory required for data: 978433500
I0817 16:28:01.591747 17538 layer_factory.hpp:77] Creating layer L2_b3_sum_eltwise_top_L2_b3_relu_0_split
I0817 16:28:01.591754 17538 net.cpp:100] Creating Layer L2_b3_sum_eltwise_top_L2_b3_relu_0_split
I0817 16:28:01.591759 17538 net.cpp:434] L2_b3_sum_eltwise_top_L2_b3_relu_0_split <- L2_b3_sum_eltwise_top
I0817 16:28:01.591768 17538 net.cpp:408] L2_b3_sum_eltwise_top_L2_b3_relu_0_split -> L2_b3_sum_eltwise_top_L2_b3_relu_0_split_0
I0817 16:28:01.591776 17538 net.cpp:408] L2_b3_sum_eltwise_top_L2_b3_relu_0_split -> L2_b3_sum_eltwise_top_L2_b3_relu_0_split_1
I0817 16:28:01.591825 17538 net.cpp:150] Setting up L2_b3_sum_eltwise_top_L2_b3_relu_0_split
I0817 16:28:01.591836 17538 net.cpp:157] Top shape: 125 32 16 16 (1024000)
I0817 16:28:01.591842 17538 net.cpp:157] Top shape: 125 32 16 16 (1024000)
I0817 16:28:01.591847 17538 net.cpp:165] Memory required for data: 986625500
I0817 16:28:01.591853 17538 layer_factory.hpp:77] Creating layer L2_b4_cbr1_conv
I0817 16:28:01.591867 17538 net.cpp:100] Creating Layer L2_b4_cbr1_conv
I0817 16:28:01.591874 17538 net.cpp:434] L2_b4_cbr1_conv <- L2_b3_sum_eltwise_top_L2_b3_relu_0_split_0
I0817 16:28:01.591888 17538 net.cpp:408] L2_b4_cbr1_conv -> L2_b4_cbr1_conv_top
I0817 16:28:01.592353 17538 net.cpp:150] Setting up L2_b4_cbr1_conv
I0817 16:28:01.592368 17538 net.cpp:157] Top shape: 125 32 16 16 (1024000)
I0817 16:28:01.592373 17538 net.cpp:165] Memory required for data: 990721500
I0817 16:28:01.592382 17538 layer_factory.hpp:77] Creating layer L2_b4_cbr1_bn
I0817 16:28:01.592396 17538 net.cpp:100] Creating Layer L2_b4_cbr1_bn
I0817 16:28:01.592402 17538 net.cpp:434] L2_b4_cbr1_bn <- L2_b4_cbr1_conv_top
I0817 16:28:01.592412 17538 net.cpp:408] L2_b4_cbr1_bn -> L2_b4_cbr1_bn_top
I0817 16:28:01.592658 17538 net.cpp:150] Setting up L2_b4_cbr1_bn
I0817 16:28:01.592671 17538 net.cpp:157] Top shape: 125 32 16 16 (1024000)
I0817 16:28:01.592676 17538 net.cpp:165] Memory required for data: 994817500
I0817 16:28:01.592687 17538 layer_factory.hpp:77] Creating layer L2_b4_cbr1_scale
I0817 16:28:01.592695 17538 net.cpp:100] Creating Layer L2_b4_cbr1_scale
I0817 16:28:01.592702 17538 net.cpp:434] L2_b4_cbr1_scale <- L2_b4_cbr1_bn_top
I0817 16:28:01.592710 17538 net.cpp:395] L2_b4_cbr1_scale -> L2_b4_cbr1_bn_top (in-place)
I0817 16:28:01.592766 17538 layer_factory.hpp:77] Creating layer L2_b4_cbr1_scale
I0817 16:28:01.592909 17538 net.cpp:150] Setting up L2_b4_cbr1_scale
I0817 16:28:01.592922 17538 net.cpp:157] Top shape: 125 32 16 16 (1024000)
I0817 16:28:01.592928 17538 net.cpp:165] Memory required for data: 998913500
I0817 16:28:01.592937 17538 layer_factory.hpp:77] Creating layer L2_b4_cbr1_relu
I0817 16:28:01.592945 17538 net.cpp:100] Creating Layer L2_b4_cbr1_relu
I0817 16:28:01.592952 17538 net.cpp:434] L2_b4_cbr1_relu <- L2_b4_cbr1_bn_top
I0817 16:28:01.592962 17538 net.cpp:395] L2_b4_cbr1_relu -> L2_b4_cbr1_bn_top (in-place)
I0817 16:28:01.592972 17538 net.cpp:150] Setting up L2_b4_cbr1_relu
I0817 16:28:01.592978 17538 net.cpp:157] Top shape: 125 32 16 16 (1024000)
I0817 16:28:01.592983 17538 net.cpp:165] Memory required for data: 1003009500
I0817 16:28:01.592988 17538 layer_factory.hpp:77] Creating layer L2_b4_cbr2_conv
I0817 16:28:01.593009 17538 net.cpp:100] Creating Layer L2_b4_cbr2_conv
I0817 16:28:01.593016 17538 net.cpp:434] L2_b4_cbr2_conv <- L2_b4_cbr1_bn_top
I0817 16:28:01.593025 17538 net.cpp:408] L2_b4_cbr2_conv -> L2_b4_cbr2_conv_top
I0817 16:28:01.593492 17538 net.cpp:150] Setting up L2_b4_cbr2_conv
I0817 16:28:01.593508 17538 net.cpp:157] Top shape: 125 32 16 16 (1024000)
I0817 16:28:01.593513 17538 net.cpp:165] Memory required for data: 1007105500
I0817 16:28:01.593521 17538 layer_factory.hpp:77] Creating layer L2_b4_cbr2_bn
I0817 16:28:01.593536 17538 net.cpp:100] Creating Layer L2_b4_cbr2_bn
I0817 16:28:01.593544 17538 net.cpp:434] L2_b4_cbr2_bn <- L2_b4_cbr2_conv_top
I0817 16:28:01.593552 17538 net.cpp:408] L2_b4_cbr2_bn -> L2_b4_cbr2_bn_top
I0817 16:28:01.593798 17538 net.cpp:150] Setting up L2_b4_cbr2_bn
I0817 16:28:01.593814 17538 net.cpp:157] Top shape: 125 32 16 16 (1024000)
I0817 16:28:01.593819 17538 net.cpp:165] Memory required for data: 1011201500
I0817 16:28:01.593830 17538 layer_factory.hpp:77] Creating layer L2_b4_cbr2_scale
I0817 16:28:01.593839 17538 net.cpp:100] Creating Layer L2_b4_cbr2_scale
I0817 16:28:01.593845 17538 net.cpp:434] L2_b4_cbr2_scale <- L2_b4_cbr2_bn_top
I0817 16:28:01.593852 17538 net.cpp:395] L2_b4_cbr2_scale -> L2_b4_cbr2_bn_top (in-place)
I0817 16:28:01.593907 17538 layer_factory.hpp:77] Creating layer L2_b4_cbr2_scale
I0817 16:28:01.594055 17538 net.cpp:150] Setting up L2_b4_cbr2_scale
I0817 16:28:01.594069 17538 net.cpp:157] Top shape: 125 32 16 16 (1024000)
I0817 16:28:01.594074 17538 net.cpp:165] Memory required for data: 1015297500
I0817 16:28:01.594084 17538 layer_factory.hpp:77] Creating layer L2_b4_sum_eltwise
I0817 16:28:01.594092 17538 net.cpp:100] Creating Layer L2_b4_sum_eltwise
I0817 16:28:01.594099 17538 net.cpp:434] L2_b4_sum_eltwise <- L2_b4_cbr2_bn_top
I0817 16:28:01.594111 17538 net.cpp:434] L2_b4_sum_eltwise <- L2_b3_sum_eltwise_top_L2_b3_relu_0_split_1
I0817 16:28:01.594123 17538 net.cpp:408] L2_b4_sum_eltwise -> L2_b4_sum_eltwise_top
I0817 16:28:01.594151 17538 net.cpp:150] Setting up L2_b4_sum_eltwise
I0817 16:28:01.594161 17538 net.cpp:157] Top shape: 125 32 16 16 (1024000)
I0817 16:28:01.594166 17538 net.cpp:165] Memory required for data: 1019393500
I0817 16:28:01.594171 17538 layer_factory.hpp:77] Creating layer L2_b4_relu
I0817 16:28:01.594182 17538 net.cpp:100] Creating Layer L2_b4_relu
I0817 16:28:01.594187 17538 net.cpp:434] L2_b4_relu <- L2_b4_sum_eltwise_top
I0817 16:28:01.594194 17538 net.cpp:395] L2_b4_relu -> L2_b4_sum_eltwise_top (in-place)
I0817 16:28:01.594203 17538 net.cpp:150] Setting up L2_b4_relu
I0817 16:28:01.594211 17538 net.cpp:157] Top shape: 125 32 16 16 (1024000)
I0817 16:28:01.594215 17538 net.cpp:165] Memory required for data: 1023489500
I0817 16:28:01.594221 17538 layer_factory.hpp:77] Creating layer L2_b4_sum_eltwise_top_L2_b4_relu_0_split
I0817 16:28:01.594228 17538 net.cpp:100] Creating Layer L2_b4_sum_eltwise_top_L2_b4_relu_0_split
I0817 16:28:01.594233 17538 net.cpp:434] L2_b4_sum_eltwise_top_L2_b4_relu_0_split <- L2_b4_sum_eltwise_top
I0817 16:28:01.594240 17538 net.cpp:408] L2_b4_sum_eltwise_top_L2_b4_relu_0_split -> L2_b4_sum_eltwise_top_L2_b4_relu_0_split_0
I0817 16:28:01.594250 17538 net.cpp:408] L2_b4_sum_eltwise_top_L2_b4_relu_0_split -> L2_b4_sum_eltwise_top_L2_b4_relu_0_split_1
I0817 16:28:01.594296 17538 net.cpp:150] Setting up L2_b4_sum_eltwise_top_L2_b4_relu_0_split
I0817 16:28:01.594308 17538 net.cpp:157] Top shape: 125 32 16 16 (1024000)
I0817 16:28:01.594314 17538 net.cpp:157] Top shape: 125 32 16 16 (1024000)
I0817 16:28:01.594319 17538 net.cpp:165] Memory required for data: 1031681500
I0817 16:28:01.594324 17538 layer_factory.hpp:77] Creating layer L2_b5_cbr1_conv
I0817 16:28:01.594338 17538 net.cpp:100] Creating Layer L2_b5_cbr1_conv
I0817 16:28:01.594346 17538 net.cpp:434] L2_b5_cbr1_conv <- L2_b4_sum_eltwise_top_L2_b4_relu_0_split_0
I0817 16:28:01.594354 17538 net.cpp:408] L2_b5_cbr1_conv -> L2_b5_cbr1_conv_top
I0817 16:28:01.594810 17538 net.cpp:150] Setting up L2_b5_cbr1_conv
I0817 16:28:01.594830 17538 net.cpp:157] Top shape: 125 32 16 16 (1024000)
I0817 16:28:01.594836 17538 net.cpp:165] Memory required for data: 1035777500
I0817 16:28:01.594846 17538 layer_factory.hpp:77] Creating layer L2_b5_cbr1_bn
I0817 16:28:01.594857 17538 net.cpp:100] Creating Layer L2_b5_cbr1_bn
I0817 16:28:01.594863 17538 net.cpp:434] L2_b5_cbr1_bn <- L2_b5_cbr1_conv_top
I0817 16:28:01.594872 17538 net.cpp:408] L2_b5_cbr1_bn -> L2_b5_cbr1_bn_top
I0817 16:28:01.595127 17538 net.cpp:150] Setting up L2_b5_cbr1_bn
I0817 16:28:01.595144 17538 net.cpp:157] Top shape: 125 32 16 16 (1024000)
I0817 16:28:01.595149 17538 net.cpp:165] Memory required for data: 1039873500
I0817 16:28:01.595160 17538 layer_factory.hpp:77] Creating layer L2_b5_cbr1_scale
I0817 16:28:01.595168 17538 net.cpp:100] Creating Layer L2_b5_cbr1_scale
I0817 16:28:01.595175 17538 net.cpp:434] L2_b5_cbr1_scale <- L2_b5_cbr1_bn_top
I0817 16:28:01.595182 17538 net.cpp:395] L2_b5_cbr1_scale -> L2_b5_cbr1_bn_top (in-place)
I0817 16:28:01.595237 17538 layer_factory.hpp:77] Creating layer L2_b5_cbr1_scale
I0817 16:28:01.595391 17538 net.cpp:150] Setting up L2_b5_cbr1_scale
I0817 16:28:01.595404 17538 net.cpp:157] Top shape: 125 32 16 16 (1024000)
I0817 16:28:01.595409 17538 net.cpp:165] Memory required for data: 1043969500
I0817 16:28:01.595419 17538 layer_factory.hpp:77] Creating layer L2_b5_cbr1_relu
I0817 16:28:01.595427 17538 net.cpp:100] Creating Layer L2_b5_cbr1_relu
I0817 16:28:01.595433 17538 net.cpp:434] L2_b5_cbr1_relu <- L2_b5_cbr1_bn_top
I0817 16:28:01.595443 17538 net.cpp:395] L2_b5_cbr1_relu -> L2_b5_cbr1_bn_top (in-place)
I0817 16:28:01.595453 17538 net.cpp:150] Setting up L2_b5_cbr1_relu
I0817 16:28:01.595460 17538 net.cpp:157] Top shape: 125 32 16 16 (1024000)
I0817 16:28:01.595465 17538 net.cpp:165] Memory required for data: 1048065500
I0817 16:28:01.595470 17538 layer_factory.hpp:77] Creating layer L2_b5_cbr2_conv
I0817 16:28:01.595484 17538 net.cpp:100] Creating Layer L2_b5_cbr2_conv
I0817 16:28:01.595489 17538 net.cpp:434] L2_b5_cbr2_conv <- L2_b5_cbr1_bn_top
I0817 16:28:01.595499 17538 net.cpp:408] L2_b5_cbr2_conv -> L2_b5_cbr2_conv_top
I0817 16:28:01.595955 17538 net.cpp:150] Setting up L2_b5_cbr2_conv
I0817 16:28:01.595969 17538 net.cpp:157] Top shape: 125 32 16 16 (1024000)
I0817 16:28:01.595974 17538 net.cpp:165] Memory required for data: 1052161500
I0817 16:28:01.595983 17538 layer_factory.hpp:77] Creating layer L2_b5_cbr2_bn
I0817 16:28:01.595995 17538 net.cpp:100] Creating Layer L2_b5_cbr2_bn
I0817 16:28:01.596002 17538 net.cpp:434] L2_b5_cbr2_bn <- L2_b5_cbr2_conv_top
I0817 16:28:01.596010 17538 net.cpp:408] L2_b5_cbr2_bn -> L2_b5_cbr2_bn_top
I0817 16:28:01.596261 17538 net.cpp:150] Setting up L2_b5_cbr2_bn
I0817 16:28:01.596276 17538 net.cpp:157] Top shape: 125 32 16 16 (1024000)
I0817 16:28:01.596280 17538 net.cpp:165] Memory required for data: 1056257500
I0817 16:28:01.596290 17538 layer_factory.hpp:77] Creating layer L2_b5_cbr2_scale
I0817 16:28:01.596302 17538 net.cpp:100] Creating Layer L2_b5_cbr2_scale
I0817 16:28:01.596308 17538 net.cpp:434] L2_b5_cbr2_scale <- L2_b5_cbr2_bn_top
I0817 16:28:01.596316 17538 net.cpp:395] L2_b5_cbr2_scale -> L2_b5_cbr2_bn_top (in-place)
I0817 16:28:01.596370 17538 layer_factory.hpp:77] Creating layer L2_b5_cbr2_scale
I0817 16:28:01.596516 17538 net.cpp:150] Setting up L2_b5_cbr2_scale
I0817 16:28:01.596529 17538 net.cpp:157] Top shape: 125 32 16 16 (1024000)
I0817 16:28:01.596535 17538 net.cpp:165] Memory required for data: 1060353500
I0817 16:28:01.596544 17538 layer_factory.hpp:77] Creating layer L2_b5_sum_eltwise
I0817 16:28:01.596556 17538 net.cpp:100] Creating Layer L2_b5_sum_eltwise
I0817 16:28:01.596563 17538 net.cpp:434] L2_b5_sum_eltwise <- L2_b5_cbr2_bn_top
I0817 16:28:01.596570 17538 net.cpp:434] L2_b5_sum_eltwise <- L2_b4_sum_eltwise_top_L2_b4_relu_0_split_1
I0817 16:28:01.596580 17538 net.cpp:408] L2_b5_sum_eltwise -> L2_b5_sum_eltwise_top
I0817 16:28:01.596606 17538 net.cpp:150] Setting up L2_b5_sum_eltwise
I0817 16:28:01.596616 17538 net.cpp:157] Top shape: 125 32 16 16 (1024000)
I0817 16:28:01.596627 17538 net.cpp:165] Memory required for data: 1064449500
I0817 16:28:01.596633 17538 layer_factory.hpp:77] Creating layer L2_b5_relu
I0817 16:28:01.596640 17538 net.cpp:100] Creating Layer L2_b5_relu
I0817 16:28:01.596647 17538 net.cpp:434] L2_b5_relu <- L2_b5_sum_eltwise_top
I0817 16:28:01.596657 17538 net.cpp:395] L2_b5_relu -> L2_b5_sum_eltwise_top (in-place)
I0817 16:28:01.596666 17538 net.cpp:150] Setting up L2_b5_relu
I0817 16:28:01.596673 17538 net.cpp:157] Top shape: 125 32 16 16 (1024000)
I0817 16:28:01.596678 17538 net.cpp:165] Memory required for data: 1068545500
I0817 16:28:01.596683 17538 layer_factory.hpp:77] Creating layer L2_b5_sum_eltwise_top_L2_b5_relu_0_split
I0817 16:28:01.596690 17538 net.cpp:100] Creating Layer L2_b5_sum_eltwise_top_L2_b5_relu_0_split
I0817 16:28:01.596695 17538 net.cpp:434] L2_b5_sum_eltwise_top_L2_b5_relu_0_split <- L2_b5_sum_eltwise_top
I0817 16:28:01.596702 17538 net.cpp:408] L2_b5_sum_eltwise_top_L2_b5_relu_0_split -> L2_b5_sum_eltwise_top_L2_b5_relu_0_split_0
I0817 16:28:01.596712 17538 net.cpp:408] L2_b5_sum_eltwise_top_L2_b5_relu_0_split -> L2_b5_sum_eltwise_top_L2_b5_relu_0_split_1
I0817 16:28:01.596760 17538 net.cpp:150] Setting up L2_b5_sum_eltwise_top_L2_b5_relu_0_split
I0817 16:28:01.596771 17538 net.cpp:157] Top shape: 125 32 16 16 (1024000)
I0817 16:28:01.596778 17538 net.cpp:157] Top shape: 125 32 16 16 (1024000)
I0817 16:28:01.596783 17538 net.cpp:165] Memory required for data: 1076737500
I0817 16:28:01.596788 17538 layer_factory.hpp:77] Creating layer L2_b6_cbr1_conv
I0817 16:28:01.596799 17538 net.cpp:100] Creating Layer L2_b6_cbr1_conv
I0817 16:28:01.596806 17538 net.cpp:434] L2_b6_cbr1_conv <- L2_b5_sum_eltwise_top_L2_b5_relu_0_split_0
I0817 16:28:01.596817 17538 net.cpp:408] L2_b6_cbr1_conv -> L2_b6_cbr1_conv_top
I0817 16:28:01.597295 17538 net.cpp:150] Setting up L2_b6_cbr1_conv
I0817 16:28:01.597309 17538 net.cpp:157] Top shape: 125 32 16 16 (1024000)
I0817 16:28:01.597316 17538 net.cpp:165] Memory required for data: 1080833500
I0817 16:28:01.597324 17538 layer_factory.hpp:77] Creating layer L2_b6_cbr1_bn
I0817 16:28:01.597337 17538 net.cpp:100] Creating Layer L2_b6_cbr1_bn
I0817 16:28:01.597343 17538 net.cpp:434] L2_b6_cbr1_bn <- L2_b6_cbr1_conv_top
I0817 16:28:01.597352 17538 net.cpp:408] L2_b6_cbr1_bn -> L2_b6_cbr1_bn_top
I0817 16:28:01.597604 17538 net.cpp:150] Setting up L2_b6_cbr1_bn
I0817 16:28:01.597620 17538 net.cpp:157] Top shape: 125 32 16 16 (1024000)
I0817 16:28:01.597625 17538 net.cpp:165] Memory required for data: 1084929500
I0817 16:28:01.597636 17538 layer_factory.hpp:77] Creating layer L2_b6_cbr1_scale
I0817 16:28:01.597645 17538 net.cpp:100] Creating Layer L2_b6_cbr1_scale
I0817 16:28:01.597651 17538 net.cpp:434] L2_b6_cbr1_scale <- L2_b6_cbr1_bn_top
I0817 16:28:01.597659 17538 net.cpp:395] L2_b6_cbr1_scale -> L2_b6_cbr1_bn_top (in-place)
I0817 16:28:01.597713 17538 layer_factory.hpp:77] Creating layer L2_b6_cbr1_scale
I0817 16:28:01.597862 17538 net.cpp:150] Setting up L2_b6_cbr1_scale
I0817 16:28:01.597875 17538 net.cpp:157] Top shape: 125 32 16 16 (1024000)
I0817 16:28:01.597880 17538 net.cpp:165] Memory required for data: 1089025500
I0817 16:28:01.597889 17538 layer_factory.hpp:77] Creating layer L2_b6_cbr1_relu
I0817 16:28:01.597898 17538 net.cpp:100] Creating Layer L2_b6_cbr1_relu
I0817 16:28:01.597903 17538 net.cpp:434] L2_b6_cbr1_relu <- L2_b6_cbr1_bn_top
I0817 16:28:01.597913 17538 net.cpp:395] L2_b6_cbr1_relu -> L2_b6_cbr1_bn_top (in-place)
I0817 16:28:01.597923 17538 net.cpp:150] Setting up L2_b6_cbr1_relu
I0817 16:28:01.597930 17538 net.cpp:157] Top shape: 125 32 16 16 (1024000)
I0817 16:28:01.597935 17538 net.cpp:165] Memory required for data: 1093121500
I0817 16:28:01.597940 17538 layer_factory.hpp:77] Creating layer L2_b6_cbr2_conv
I0817 16:28:01.597951 17538 net.cpp:100] Creating Layer L2_b6_cbr2_conv
I0817 16:28:01.597957 17538 net.cpp:434] L2_b6_cbr2_conv <- L2_b6_cbr1_bn_top
I0817 16:28:01.597970 17538 net.cpp:408] L2_b6_cbr2_conv -> L2_b6_cbr2_conv_top
I0817 16:28:01.598431 17538 net.cpp:150] Setting up L2_b6_cbr2_conv
I0817 16:28:01.598453 17538 net.cpp:157] Top shape: 125 32 16 16 (1024000)
I0817 16:28:01.598457 17538 net.cpp:165] Memory required for data: 1097217500
I0817 16:28:01.598466 17538 layer_factory.hpp:77] Creating layer L2_b6_cbr2_bn
I0817 16:28:01.598476 17538 net.cpp:100] Creating Layer L2_b6_cbr2_bn
I0817 16:28:01.598484 17538 net.cpp:434] L2_b6_cbr2_bn <- L2_b6_cbr2_conv_top
I0817 16:28:01.598495 17538 net.cpp:408] L2_b6_cbr2_bn -> L2_b6_cbr2_bn_top
I0817 16:28:01.598742 17538 net.cpp:150] Setting up L2_b6_cbr2_bn
I0817 16:28:01.598755 17538 net.cpp:157] Top shape: 125 32 16 16 (1024000)
I0817 16:28:01.598760 17538 net.cpp:165] Memory required for data: 1101313500
I0817 16:28:01.598772 17538 layer_factory.hpp:77] Creating layer L2_b6_cbr2_scale
I0817 16:28:01.598783 17538 net.cpp:100] Creating Layer L2_b6_cbr2_scale
I0817 16:28:01.598789 17538 net.cpp:434] L2_b6_cbr2_scale <- L2_b6_cbr2_bn_top
I0817 16:28:01.598796 17538 net.cpp:395] L2_b6_cbr2_scale -> L2_b6_cbr2_bn_top (in-place)
I0817 16:28:01.598851 17538 layer_factory.hpp:77] Creating layer L2_b6_cbr2_scale
I0817 16:28:01.599023 17538 net.cpp:150] Setting up L2_b6_cbr2_scale
I0817 16:28:01.599037 17538 net.cpp:157] Top shape: 125 32 16 16 (1024000)
I0817 16:28:01.599042 17538 net.cpp:165] Memory required for data: 1105409500
I0817 16:28:01.599051 17538 layer_factory.hpp:77] Creating layer L2_b6_sum_eltwise
I0817 16:28:01.599063 17538 net.cpp:100] Creating Layer L2_b6_sum_eltwise
I0817 16:28:01.599071 17538 net.cpp:434] L2_b6_sum_eltwise <- L2_b6_cbr2_bn_top
I0817 16:28:01.599077 17538 net.cpp:434] L2_b6_sum_eltwise <- L2_b5_sum_eltwise_top_L2_b5_relu_0_split_1
I0817 16:28:01.599088 17538 net.cpp:408] L2_b6_sum_eltwise -> L2_b6_sum_eltwise_top
I0817 16:28:01.599123 17538 net.cpp:150] Setting up L2_b6_sum_eltwise
I0817 16:28:01.599133 17538 net.cpp:157] Top shape: 125 32 16 16 (1024000)
I0817 16:28:01.599138 17538 net.cpp:165] Memory required for data: 1109505500
I0817 16:28:01.599143 17538 layer_factory.hpp:77] Creating layer L2_b6_relu
I0817 16:28:01.599151 17538 net.cpp:100] Creating Layer L2_b6_relu
I0817 16:28:01.599158 17538 net.cpp:434] L2_b6_relu <- L2_b6_sum_eltwise_top
I0817 16:28:01.599175 17538 net.cpp:395] L2_b6_relu -> L2_b6_sum_eltwise_top (in-place)
I0817 16:28:01.599185 17538 net.cpp:150] Setting up L2_b6_relu
I0817 16:28:01.599192 17538 net.cpp:157] Top shape: 125 32 16 16 (1024000)
I0817 16:28:01.599197 17538 net.cpp:165] Memory required for data: 1113601500
I0817 16:28:01.599202 17538 layer_factory.hpp:77] Creating layer L2_b6_sum_eltwise_top_L2_b6_relu_0_split
I0817 16:28:01.599210 17538 net.cpp:100] Creating Layer L2_b6_sum_eltwise_top_L2_b6_relu_0_split
I0817 16:28:01.599215 17538 net.cpp:434] L2_b6_sum_eltwise_top_L2_b6_relu_0_split <- L2_b6_sum_eltwise_top
I0817 16:28:01.599221 17538 net.cpp:408] L2_b6_sum_eltwise_top_L2_b6_relu_0_split -> L2_b6_sum_eltwise_top_L2_b6_relu_0_split_0
I0817 16:28:01.599231 17538 net.cpp:408] L2_b6_sum_eltwise_top_L2_b6_relu_0_split -> L2_b6_sum_eltwise_top_L2_b6_relu_0_split_1
I0817 16:28:01.599277 17538 net.cpp:150] Setting up L2_b6_sum_eltwise_top_L2_b6_relu_0_split
I0817 16:28:01.599289 17538 net.cpp:157] Top shape: 125 32 16 16 (1024000)
I0817 16:28:01.599297 17538 net.cpp:157] Top shape: 125 32 16 16 (1024000)
I0817 16:28:01.599301 17538 net.cpp:165] Memory required for data: 1121793500
I0817 16:28:01.599306 17538 layer_factory.hpp:77] Creating layer L2_b7_cbr1_conv
I0817 16:28:01.599318 17538 net.cpp:100] Creating Layer L2_b7_cbr1_conv
I0817 16:28:01.599324 17538 net.cpp:434] L2_b7_cbr1_conv <- L2_b6_sum_eltwise_top_L2_b6_relu_0_split_0
I0817 16:28:01.599336 17538 net.cpp:408] L2_b7_cbr1_conv -> L2_b7_cbr1_conv_top
I0817 16:28:01.599800 17538 net.cpp:150] Setting up L2_b7_cbr1_conv
I0817 16:28:01.599815 17538 net.cpp:157] Top shape: 125 32 16 16 (1024000)
I0817 16:28:01.599820 17538 net.cpp:165] Memory required for data: 1125889500
I0817 16:28:01.599829 17538 layer_factory.hpp:77] Creating layer L2_b7_cbr1_bn
I0817 16:28:01.599841 17538 net.cpp:100] Creating Layer L2_b7_cbr1_bn
I0817 16:28:01.599855 17538 net.cpp:434] L2_b7_cbr1_bn <- L2_b7_cbr1_conv_top
I0817 16:28:01.599864 17538 net.cpp:408] L2_b7_cbr1_bn -> L2_b7_cbr1_bn_top
I0817 16:28:01.600124 17538 net.cpp:150] Setting up L2_b7_cbr1_bn
I0817 16:28:01.600138 17538 net.cpp:157] Top shape: 125 32 16 16 (1024000)
I0817 16:28:01.600143 17538 net.cpp:165] Memory required for data: 1129985500
I0817 16:28:01.600153 17538 layer_factory.hpp:77] Creating layer L2_b7_cbr1_scale
I0817 16:28:01.600165 17538 net.cpp:100] Creating Layer L2_b7_cbr1_scale
I0817 16:28:01.600172 17538 net.cpp:434] L2_b7_cbr1_scale <- L2_b7_cbr1_bn_top
I0817 16:28:01.600179 17538 net.cpp:395] L2_b7_cbr1_scale -> L2_b7_cbr1_bn_top (in-place)
I0817 16:28:01.600234 17538 layer_factory.hpp:77] Creating layer L2_b7_cbr1_scale
I0817 16:28:01.600386 17538 net.cpp:150] Setting up L2_b7_cbr1_scale
I0817 16:28:01.600399 17538 net.cpp:157] Top shape: 125 32 16 16 (1024000)
I0817 16:28:01.600404 17538 net.cpp:165] Memory required for data: 1134081500
I0817 16:28:01.600414 17538 layer_factory.hpp:77] Creating layer L2_b7_cbr1_relu
I0817 16:28:01.600426 17538 net.cpp:100] Creating Layer L2_b7_cbr1_relu
I0817 16:28:01.600432 17538 net.cpp:434] L2_b7_cbr1_relu <- L2_b7_cbr1_bn_top
I0817 16:28:01.600442 17538 net.cpp:395] L2_b7_cbr1_relu -> L2_b7_cbr1_bn_top (in-place)
I0817 16:28:01.600452 17538 net.cpp:150] Setting up L2_b7_cbr1_relu
I0817 16:28:01.600459 17538 net.cpp:157] Top shape: 125 32 16 16 (1024000)
I0817 16:28:01.600464 17538 net.cpp:165] Memory required for data: 1138177500
I0817 16:28:01.600469 17538 layer_factory.hpp:77] Creating layer L2_b7_cbr2_conv
I0817 16:28:01.600481 17538 net.cpp:100] Creating Layer L2_b7_cbr2_conv
I0817 16:28:01.600486 17538 net.cpp:434] L2_b7_cbr2_conv <- L2_b7_cbr1_bn_top
I0817 16:28:01.600497 17538 net.cpp:408] L2_b7_cbr2_conv -> L2_b7_cbr2_conv_top
I0817 16:28:01.600960 17538 net.cpp:150] Setting up L2_b7_cbr2_conv
I0817 16:28:01.600975 17538 net.cpp:157] Top shape: 125 32 16 16 (1024000)
I0817 16:28:01.600980 17538 net.cpp:165] Memory required for data: 1142273500
I0817 16:28:01.600988 17538 layer_factory.hpp:77] Creating layer L2_b7_cbr2_bn
I0817 16:28:01.600997 17538 net.cpp:100] Creating Layer L2_b7_cbr2_bn
I0817 16:28:01.601003 17538 net.cpp:434] L2_b7_cbr2_bn <- L2_b7_cbr2_conv_top
I0817 16:28:01.601014 17538 net.cpp:408] L2_b7_cbr2_bn -> L2_b7_cbr2_bn_top
I0817 16:28:01.601270 17538 net.cpp:150] Setting up L2_b7_cbr2_bn
I0817 16:28:01.601284 17538 net.cpp:157] Top shape: 125 32 16 16 (1024000)
I0817 16:28:01.601290 17538 net.cpp:165] Memory required for data: 1146369500
I0817 16:28:01.601300 17538 layer_factory.hpp:77] Creating layer L2_b7_cbr2_scale
I0817 16:28:01.601313 17538 net.cpp:100] Creating Layer L2_b7_cbr2_scale
I0817 16:28:01.601320 17538 net.cpp:434] L2_b7_cbr2_scale <- L2_b7_cbr2_bn_top
I0817 16:28:01.601327 17538 net.cpp:395] L2_b7_cbr2_scale -> L2_b7_cbr2_bn_top (in-place)
I0817 16:28:01.601382 17538 layer_factory.hpp:77] Creating layer L2_b7_cbr2_scale
I0817 16:28:01.601532 17538 net.cpp:150] Setting up L2_b7_cbr2_scale
I0817 16:28:01.601546 17538 net.cpp:157] Top shape: 125 32 16 16 (1024000)
I0817 16:28:01.601552 17538 net.cpp:165] Memory required for data: 1150465500
I0817 16:28:01.601560 17538 layer_factory.hpp:77] Creating layer L2_b7_sum_eltwise
I0817 16:28:01.601572 17538 net.cpp:100] Creating Layer L2_b7_sum_eltwise
I0817 16:28:01.601578 17538 net.cpp:434] L2_b7_sum_eltwise <- L2_b7_cbr2_bn_top
I0817 16:28:01.601585 17538 net.cpp:434] L2_b7_sum_eltwise <- L2_b6_sum_eltwise_top_L2_b6_relu_0_split_1
I0817 16:28:01.601593 17538 net.cpp:408] L2_b7_sum_eltwise -> L2_b7_sum_eltwise_top
I0817 16:28:01.601622 17538 net.cpp:150] Setting up L2_b7_sum_eltwise
I0817 16:28:01.601632 17538 net.cpp:157] Top shape: 125 32 16 16 (1024000)
I0817 16:28:01.601637 17538 net.cpp:165] Memory required for data: 1154561500
I0817 16:28:01.601642 17538 layer_factory.hpp:77] Creating layer L2_b7_relu
I0817 16:28:01.601650 17538 net.cpp:100] Creating Layer L2_b7_relu
I0817 16:28:01.601656 17538 net.cpp:434] L2_b7_relu <- L2_b7_sum_eltwise_top
I0817 16:28:01.601673 17538 net.cpp:395] L2_b7_relu -> L2_b7_sum_eltwise_top (in-place)
I0817 16:28:01.601683 17538 net.cpp:150] Setting up L2_b7_relu
I0817 16:28:01.601691 17538 net.cpp:157] Top shape: 125 32 16 16 (1024000)
I0817 16:28:01.601696 17538 net.cpp:165] Memory required for data: 1158657500
I0817 16:28:01.601701 17538 layer_factory.hpp:77] Creating layer L2_b7_sum_eltwise_top_L2_b7_relu_0_split
I0817 16:28:01.601708 17538 net.cpp:100] Creating Layer L2_b7_sum_eltwise_top_L2_b7_relu_0_split
I0817 16:28:01.601713 17538 net.cpp:434] L2_b7_sum_eltwise_top_L2_b7_relu_0_split <- L2_b7_sum_eltwise_top
I0817 16:28:01.601721 17538 net.cpp:408] L2_b7_sum_eltwise_top_L2_b7_relu_0_split -> L2_b7_sum_eltwise_top_L2_b7_relu_0_split_0
I0817 16:28:01.601729 17538 net.cpp:408] L2_b7_sum_eltwise_top_L2_b7_relu_0_split -> L2_b7_sum_eltwise_top_L2_b7_relu_0_split_1
I0817 16:28:01.601778 17538 net.cpp:150] Setting up L2_b7_sum_eltwise_top_L2_b7_relu_0_split
I0817 16:28:01.601789 17538 net.cpp:157] Top shape: 125 32 16 16 (1024000)
I0817 16:28:01.601796 17538 net.cpp:157] Top shape: 125 32 16 16 (1024000)
I0817 16:28:01.601801 17538 net.cpp:165] Memory required for data: 1166849500
I0817 16:28:01.601806 17538 layer_factory.hpp:77] Creating layer L2_b8_cbr1_conv
I0817 16:28:01.601817 17538 net.cpp:100] Creating Layer L2_b8_cbr1_conv
I0817 16:28:01.601824 17538 net.cpp:434] L2_b8_cbr1_conv <- L2_b7_sum_eltwise_top_L2_b7_relu_0_split_0
I0817 16:28:01.601836 17538 net.cpp:408] L2_b8_cbr1_conv -> L2_b8_cbr1_conv_top
I0817 16:28:01.602309 17538 net.cpp:150] Setting up L2_b8_cbr1_conv
I0817 16:28:01.602324 17538 net.cpp:157] Top shape: 125 32 16 16 (1024000)
I0817 16:28:01.602329 17538 net.cpp:165] Memory required for data: 1170945500
I0817 16:28:01.602339 17538 layer_factory.hpp:77] Creating layer L2_b8_cbr1_bn
I0817 16:28:01.602349 17538 net.cpp:100] Creating Layer L2_b8_cbr1_bn
I0817 16:28:01.602355 17538 net.cpp:434] L2_b8_cbr1_bn <- L2_b8_cbr1_conv_top
I0817 16:28:01.602368 17538 net.cpp:408] L2_b8_cbr1_bn -> L2_b8_cbr1_bn_top
I0817 16:28:01.602620 17538 net.cpp:150] Setting up L2_b8_cbr1_bn
I0817 16:28:01.602634 17538 net.cpp:157] Top shape: 125 32 16 16 (1024000)
I0817 16:28:01.602639 17538 net.cpp:165] Memory required for data: 1175041500
I0817 16:28:01.602650 17538 layer_factory.hpp:77] Creating layer L2_b8_cbr1_scale
I0817 16:28:01.602661 17538 net.cpp:100] Creating Layer L2_b8_cbr1_scale
I0817 16:28:01.602669 17538 net.cpp:434] L2_b8_cbr1_scale <- L2_b8_cbr1_bn_top
I0817 16:28:01.602675 17538 net.cpp:395] L2_b8_cbr1_scale -> L2_b8_cbr1_bn_top (in-place)
I0817 16:28:01.602730 17538 layer_factory.hpp:77] Creating layer L2_b8_cbr1_scale
I0817 16:28:01.602882 17538 net.cpp:150] Setting up L2_b8_cbr1_scale
I0817 16:28:01.602895 17538 net.cpp:157] Top shape: 125 32 16 16 (1024000)
I0817 16:28:01.602900 17538 net.cpp:165] Memory required for data: 1179137500
I0817 16:28:01.602910 17538 layer_factory.hpp:77] Creating layer L2_b8_cbr1_relu
I0817 16:28:01.602921 17538 net.cpp:100] Creating Layer L2_b8_cbr1_relu
I0817 16:28:01.602927 17538 net.cpp:434] L2_b8_cbr1_relu <- L2_b8_cbr1_bn_top
I0817 16:28:01.602934 17538 net.cpp:395] L2_b8_cbr1_relu -> L2_b8_cbr1_bn_top (in-place)
I0817 16:28:01.602944 17538 net.cpp:150] Setting up L2_b8_cbr1_relu
I0817 16:28:01.602952 17538 net.cpp:157] Top shape: 125 32 16 16 (1024000)
I0817 16:28:01.602957 17538 net.cpp:165] Memory required for data: 1183233500
I0817 16:28:01.602960 17538 layer_factory.hpp:77] Creating layer L2_b8_cbr2_conv
I0817 16:28:01.602974 17538 net.cpp:100] Creating Layer L2_b8_cbr2_conv
I0817 16:28:01.602980 17538 net.cpp:434] L2_b8_cbr2_conv <- L2_b8_cbr1_bn_top
I0817 16:28:01.602991 17538 net.cpp:408] L2_b8_cbr2_conv -> L2_b8_cbr2_conv_top
I0817 16:28:01.603461 17538 net.cpp:150] Setting up L2_b8_cbr2_conv
I0817 16:28:01.603476 17538 net.cpp:157] Top shape: 125 32 16 16 (1024000)
I0817 16:28:01.603480 17538 net.cpp:165] Memory required for data: 1187329500
I0817 16:28:01.603489 17538 layer_factory.hpp:77] Creating layer L2_b8_cbr2_bn
I0817 16:28:01.603498 17538 net.cpp:100] Creating Layer L2_b8_cbr2_bn
I0817 16:28:01.603513 17538 net.cpp:434] L2_b8_cbr2_bn <- L2_b8_cbr2_conv_top
I0817 16:28:01.603528 17538 net.cpp:408] L2_b8_cbr2_bn -> L2_b8_cbr2_bn_top
I0817 16:28:01.603782 17538 net.cpp:150] Setting up L2_b8_cbr2_bn
I0817 16:28:01.603796 17538 net.cpp:157] Top shape: 125 32 16 16 (1024000)
I0817 16:28:01.603801 17538 net.cpp:165] Memory required for data: 1191425500
I0817 16:28:01.603812 17538 layer_factory.hpp:77] Creating layer L2_b8_cbr2_scale
I0817 16:28:01.603823 17538 net.cpp:100] Creating Layer L2_b8_cbr2_scale
I0817 16:28:01.603830 17538 net.cpp:434] L2_b8_cbr2_scale <- L2_b8_cbr2_bn_top
I0817 16:28:01.603837 17538 net.cpp:395] L2_b8_cbr2_scale -> L2_b8_cbr2_bn_top (in-place)
I0817 16:28:01.603895 17538 layer_factory.hpp:77] Creating layer L2_b8_cbr2_scale
I0817 16:28:01.604046 17538 net.cpp:150] Setting up L2_b8_cbr2_scale
I0817 16:28:01.604059 17538 net.cpp:157] Top shape: 125 32 16 16 (1024000)
I0817 16:28:01.604064 17538 net.cpp:165] Memory required for data: 1195521500
I0817 16:28:01.604074 17538 layer_factory.hpp:77] Creating layer L2_b8_sum_eltwise
I0817 16:28:01.604085 17538 net.cpp:100] Creating Layer L2_b8_sum_eltwise
I0817 16:28:01.604092 17538 net.cpp:434] L2_b8_sum_eltwise <- L2_b8_cbr2_bn_top
I0817 16:28:01.604099 17538 net.cpp:434] L2_b8_sum_eltwise <- L2_b7_sum_eltwise_top_L2_b7_relu_0_split_1
I0817 16:28:01.604115 17538 net.cpp:408] L2_b8_sum_eltwise -> L2_b8_sum_eltwise_top
I0817 16:28:01.604146 17538 net.cpp:150] Setting up L2_b8_sum_eltwise
I0817 16:28:01.604156 17538 net.cpp:157] Top shape: 125 32 16 16 (1024000)
I0817 16:28:01.604161 17538 net.cpp:165] Memory required for data: 1199617500
I0817 16:28:01.604166 17538 layer_factory.hpp:77] Creating layer L2_b8_relu
I0817 16:28:01.604173 17538 net.cpp:100] Creating Layer L2_b8_relu
I0817 16:28:01.604179 17538 net.cpp:434] L2_b8_relu <- L2_b8_sum_eltwise_top
I0817 16:28:01.604187 17538 net.cpp:395] L2_b8_relu -> L2_b8_sum_eltwise_top (in-place)
I0817 16:28:01.604198 17538 net.cpp:150] Setting up L2_b8_relu
I0817 16:28:01.604205 17538 net.cpp:157] Top shape: 125 32 16 16 (1024000)
I0817 16:28:01.604210 17538 net.cpp:165] Memory required for data: 1203713500
I0817 16:28:01.604215 17538 layer_factory.hpp:77] Creating layer L2_b8_sum_eltwise_top_L2_b8_relu_0_split
I0817 16:28:01.604223 17538 net.cpp:100] Creating Layer L2_b8_sum_eltwise_top_L2_b8_relu_0_split
I0817 16:28:01.604228 17538 net.cpp:434] L2_b8_sum_eltwise_top_L2_b8_relu_0_split <- L2_b8_sum_eltwise_top
I0817 16:28:01.604235 17538 net.cpp:408] L2_b8_sum_eltwise_top_L2_b8_relu_0_split -> L2_b8_sum_eltwise_top_L2_b8_relu_0_split_0
I0817 16:28:01.604257 17538 net.cpp:408] L2_b8_sum_eltwise_top_L2_b8_relu_0_split -> L2_b8_sum_eltwise_top_L2_b8_relu_0_split_1
I0817 16:28:01.604308 17538 net.cpp:150] Setting up L2_b8_sum_eltwise_top_L2_b8_relu_0_split
I0817 16:28:01.604323 17538 net.cpp:157] Top shape: 125 32 16 16 (1024000)
I0817 16:28:01.604331 17538 net.cpp:157] Top shape: 125 32 16 16 (1024000)
I0817 16:28:01.604336 17538 net.cpp:165] Memory required for data: 1211905500
I0817 16:28:01.604341 17538 layer_factory.hpp:77] Creating layer L2_b9_cbr1_conv
I0817 16:28:01.604353 17538 net.cpp:100] Creating Layer L2_b9_cbr1_conv
I0817 16:28:01.604359 17538 net.cpp:434] L2_b9_cbr1_conv <- L2_b8_sum_eltwise_top_L2_b8_relu_0_split_0
I0817 16:28:01.604372 17538 net.cpp:408] L2_b9_cbr1_conv -> L2_b9_cbr1_conv_top
I0817 16:28:01.604838 17538 net.cpp:150] Setting up L2_b9_cbr1_conv
I0817 16:28:01.604852 17538 net.cpp:157] Top shape: 125 32 16 16 (1024000)
I0817 16:28:01.604857 17538 net.cpp:165] Memory required for data: 1216001500
I0817 16:28:01.604867 17538 layer_factory.hpp:77] Creating layer L2_b9_cbr1_bn
I0817 16:28:01.604876 17538 net.cpp:100] Creating Layer L2_b9_cbr1_bn
I0817 16:28:01.604882 17538 net.cpp:434] L2_b9_cbr1_bn <- L2_b9_cbr1_conv_top
I0817 16:28:01.604893 17538 net.cpp:408] L2_b9_cbr1_bn -> L2_b9_cbr1_bn_top
I0817 16:28:01.605151 17538 net.cpp:150] Setting up L2_b9_cbr1_bn
I0817 16:28:01.605165 17538 net.cpp:157] Top shape: 125 32 16 16 (1024000)
I0817 16:28:01.605177 17538 net.cpp:165] Memory required for data: 1220097500
I0817 16:28:01.605188 17538 layer_factory.hpp:77] Creating layer L2_b9_cbr1_scale
I0817 16:28:01.605201 17538 net.cpp:100] Creating Layer L2_b9_cbr1_scale
I0817 16:28:01.605207 17538 net.cpp:434] L2_b9_cbr1_scale <- L2_b9_cbr1_bn_top
I0817 16:28:01.605214 17538 net.cpp:395] L2_b9_cbr1_scale -> L2_b9_cbr1_bn_top (in-place)
I0817 16:28:01.605270 17538 layer_factory.hpp:77] Creating layer L2_b9_cbr1_scale
I0817 16:28:01.605422 17538 net.cpp:150] Setting up L2_b9_cbr1_scale
I0817 16:28:01.605435 17538 net.cpp:157] Top shape: 125 32 16 16 (1024000)
I0817 16:28:01.605442 17538 net.cpp:165] Memory required for data: 1224193500
I0817 16:28:01.605450 17538 layer_factory.hpp:77] Creating layer L2_b9_cbr1_relu
I0817 16:28:01.605458 17538 net.cpp:100] Creating Layer L2_b9_cbr1_relu
I0817 16:28:01.605465 17538 net.cpp:434] L2_b9_cbr1_relu <- L2_b9_cbr1_bn_top
I0817 16:28:01.605476 17538 net.cpp:395] L2_b9_cbr1_relu -> L2_b9_cbr1_bn_top (in-place)
I0817 16:28:01.605487 17538 net.cpp:150] Setting up L2_b9_cbr1_relu
I0817 16:28:01.605494 17538 net.cpp:157] Top shape: 125 32 16 16 (1024000)
I0817 16:28:01.605499 17538 net.cpp:165] Memory required for data: 1228289500
I0817 16:28:01.605504 17538 layer_factory.hpp:77] Creating layer L2_b9_cbr2_conv
I0817 16:28:01.605518 17538 net.cpp:100] Creating Layer L2_b9_cbr2_conv
I0817 16:28:01.605525 17538 net.cpp:434] L2_b9_cbr2_conv <- L2_b9_cbr1_bn_top
I0817 16:28:01.605535 17538 net.cpp:408] L2_b9_cbr2_conv -> L2_b9_cbr2_conv_top
I0817 16:28:01.605998 17538 net.cpp:150] Setting up L2_b9_cbr2_conv
I0817 16:28:01.606011 17538 net.cpp:157] Top shape: 125 32 16 16 (1024000)
I0817 16:28:01.606016 17538 net.cpp:165] Memory required for data: 1232385500
I0817 16:28:01.606025 17538 layer_factory.hpp:77] Creating layer L2_b9_cbr2_bn
I0817 16:28:01.606034 17538 net.cpp:100] Creating Layer L2_b9_cbr2_bn
I0817 16:28:01.606040 17538 net.cpp:434] L2_b9_cbr2_bn <- L2_b9_cbr2_conv_top
I0817 16:28:01.606048 17538 net.cpp:408] L2_b9_cbr2_bn -> L2_b9_cbr2_bn_top
I0817 16:28:01.606313 17538 net.cpp:150] Setting up L2_b9_cbr2_bn
I0817 16:28:01.606328 17538 net.cpp:157] Top shape: 125 32 16 16 (1024000)
I0817 16:28:01.606333 17538 net.cpp:165] Memory required for data: 1236481500
I0817 16:28:01.606377 17538 layer_factory.hpp:77] Creating layer L2_b9_cbr2_scale
I0817 16:28:01.606392 17538 net.cpp:100] Creating Layer L2_b9_cbr2_scale
I0817 16:28:01.606400 17538 net.cpp:434] L2_b9_cbr2_scale <- L2_b9_cbr2_bn_top
I0817 16:28:01.606407 17538 net.cpp:395] L2_b9_cbr2_scale -> L2_b9_cbr2_bn_top (in-place)
I0817 16:28:01.606462 17538 layer_factory.hpp:77] Creating layer L2_b9_cbr2_scale
I0817 16:28:01.606616 17538 net.cpp:150] Setting up L2_b9_cbr2_scale
I0817 16:28:01.606629 17538 net.cpp:157] Top shape: 125 32 16 16 (1024000)
I0817 16:28:01.606634 17538 net.cpp:165] Memory required for data: 1240577500
I0817 16:28:01.606644 17538 layer_factory.hpp:77] Creating layer L2_b9_sum_eltwise
I0817 16:28:01.606653 17538 net.cpp:100] Creating Layer L2_b9_sum_eltwise
I0817 16:28:01.606659 17538 net.cpp:434] L2_b9_sum_eltwise <- L2_b9_cbr2_bn_top
I0817 16:28:01.606667 17538 net.cpp:434] L2_b9_sum_eltwise <- L2_b8_sum_eltwise_top_L2_b8_relu_0_split_1
I0817 16:28:01.606678 17538 net.cpp:408] L2_b9_sum_eltwise -> L2_b9_sum_eltwise_top
I0817 16:28:01.606705 17538 net.cpp:150] Setting up L2_b9_sum_eltwise
I0817 16:28:01.606714 17538 net.cpp:157] Top shape: 125 32 16 16 (1024000)
I0817 16:28:01.606719 17538 net.cpp:165] Memory required for data: 1244673500
I0817 16:28:01.606725 17538 layer_factory.hpp:77] Creating layer L2_b9_relu
I0817 16:28:01.606735 17538 net.cpp:100] Creating Layer L2_b9_relu
I0817 16:28:01.606742 17538 net.cpp:434] L2_b9_relu <- L2_b9_sum_eltwise_top
I0817 16:28:01.606750 17538 net.cpp:395] L2_b9_relu -> L2_b9_sum_eltwise_top (in-place)
I0817 16:28:01.606758 17538 net.cpp:150] Setting up L2_b9_relu
I0817 16:28:01.606765 17538 net.cpp:157] Top shape: 125 32 16 16 (1024000)
I0817 16:28:01.606770 17538 net.cpp:165] Memory required for data: 1248769500
I0817 16:28:01.606782 17538 layer_factory.hpp:77] Creating layer L2_b9_sum_eltwise_top_L2_b9_relu_0_split
I0817 16:28:01.606793 17538 net.cpp:100] Creating Layer L2_b9_sum_eltwise_top_L2_b9_relu_0_split
I0817 16:28:01.606799 17538 net.cpp:434] L2_b9_sum_eltwise_top_L2_b9_relu_0_split <- L2_b9_sum_eltwise_top
I0817 16:28:01.606806 17538 net.cpp:408] L2_b9_sum_eltwise_top_L2_b9_relu_0_split -> L2_b9_sum_eltwise_top_L2_b9_relu_0_split_0
I0817 16:28:01.606817 17538 net.cpp:408] L2_b9_sum_eltwise_top_L2_b9_relu_0_split -> L2_b9_sum_eltwise_top_L2_b9_relu_0_split_1
I0817 16:28:01.606865 17538 net.cpp:150] Setting up L2_b9_sum_eltwise_top_L2_b9_relu_0_split
I0817 16:28:01.606878 17538 net.cpp:157] Top shape: 125 32 16 16 (1024000)
I0817 16:28:01.606884 17538 net.cpp:157] Top shape: 125 32 16 16 (1024000)
I0817 16:28:01.606889 17538 net.cpp:165] Memory required for data: 1256961500
I0817 16:28:01.606894 17538 layer_factory.hpp:77] Creating layer L3_b1_cbr1_conv
I0817 16:28:01.606909 17538 net.cpp:100] Creating Layer L3_b1_cbr1_conv
I0817 16:28:01.606915 17538 net.cpp:434] L3_b1_cbr1_conv <- L2_b9_sum_eltwise_top_L2_b9_relu_0_split_0
I0817 16:28:01.606925 17538 net.cpp:408] L3_b1_cbr1_conv -> L3_b1_cbr1_conv_top
I0817 16:28:01.607411 17538 net.cpp:150] Setting up L3_b1_cbr1_conv
I0817 16:28:01.607426 17538 net.cpp:157] Top shape: 125 32 8 8 (256000)
I0817 16:28:01.607432 17538 net.cpp:165] Memory required for data: 1257985500
I0817 16:28:01.607441 17538 layer_factory.hpp:77] Creating layer L3_b1_cbr1_bn
I0817 16:28:01.607453 17538 net.cpp:100] Creating Layer L3_b1_cbr1_bn
I0817 16:28:01.607460 17538 net.cpp:434] L3_b1_cbr1_bn <- L3_b1_cbr1_conv_top
I0817 16:28:01.607470 17538 net.cpp:408] L3_b1_cbr1_bn -> L3_b1_cbr1_bn_top
I0817 16:28:01.607733 17538 net.cpp:150] Setting up L3_b1_cbr1_bn
I0817 16:28:01.607745 17538 net.cpp:157] Top shape: 125 32 8 8 (256000)
I0817 16:28:01.607751 17538 net.cpp:165] Memory required for data: 1259009500
I0817 16:28:01.607761 17538 layer_factory.hpp:77] Creating layer L3_b1_cbr1_scale
I0817 16:28:01.607770 17538 net.cpp:100] Creating Layer L3_b1_cbr1_scale
I0817 16:28:01.607776 17538 net.cpp:434] L3_b1_cbr1_scale <- L3_b1_cbr1_bn_top
I0817 16:28:01.607787 17538 net.cpp:395] L3_b1_cbr1_scale -> L3_b1_cbr1_bn_top (in-place)
I0817 16:28:01.607843 17538 layer_factory.hpp:77] Creating layer L3_b1_cbr1_scale
I0817 16:28:01.607997 17538 net.cpp:150] Setting up L3_b1_cbr1_scale
I0817 16:28:01.608011 17538 net.cpp:157] Top shape: 125 32 8 8 (256000)
I0817 16:28:01.608016 17538 net.cpp:165] Memory required for data: 1260033500
I0817 16:28:01.608024 17538 layer_factory.hpp:77] Creating layer L3_b1_cbr1_relu
I0817 16:28:01.608033 17538 net.cpp:100] Creating Layer L3_b1_cbr1_relu
I0817 16:28:01.608039 17538 net.cpp:434] L3_b1_cbr1_relu <- L3_b1_cbr1_bn_top
I0817 16:28:01.608049 17538 net.cpp:395] L3_b1_cbr1_relu -> L3_b1_cbr1_bn_top (in-place)
I0817 16:28:01.608059 17538 net.cpp:150] Setting up L3_b1_cbr1_relu
I0817 16:28:01.608067 17538 net.cpp:157] Top shape: 125 32 8 8 (256000)
I0817 16:28:01.608072 17538 net.cpp:165] Memory required for data: 1261057500
I0817 16:28:01.608078 17538 layer_factory.hpp:77] Creating layer L3_b1_cbr2_conv
I0817 16:28:01.608091 17538 net.cpp:100] Creating Layer L3_b1_cbr2_conv
I0817 16:28:01.608098 17538 net.cpp:434] L3_b1_cbr2_conv <- L3_b1_cbr1_bn_top
I0817 16:28:01.608114 17538 net.cpp:408] L3_b1_cbr2_conv -> L3_b1_cbr2_conv_top
I0817 16:28:01.608613 17538 net.cpp:150] Setting up L3_b1_cbr2_conv
I0817 16:28:01.608628 17538 net.cpp:157] Top shape: 125 32 8 8 (256000)
I0817 16:28:01.608633 17538 net.cpp:165] Memory required for data: 1262081500
I0817 16:28:01.608642 17538 layer_factory.hpp:77] Creating layer L3_b1_cbr2_bn
I0817 16:28:01.608654 17538 net.cpp:100] Creating Layer L3_b1_cbr2_bn
I0817 16:28:01.608661 17538 net.cpp:434] L3_b1_cbr2_bn <- L3_b1_cbr2_conv_top
I0817 16:28:01.608669 17538 net.cpp:408] L3_b1_cbr2_bn -> L3_b1_cbr2_bn_top
I0817 16:28:01.608932 17538 net.cpp:150] Setting up L3_b1_cbr2_bn
I0817 16:28:01.608945 17538 net.cpp:157] Top shape: 125 32 8 8 (256000)
I0817 16:28:01.608960 17538 net.cpp:165] Memory required for data: 1263105500
I0817 16:28:01.608971 17538 layer_factory.hpp:77] Creating layer L3_b1_cbr2_scale
I0817 16:28:01.608983 17538 net.cpp:100] Creating Layer L3_b1_cbr2_scale
I0817 16:28:01.608989 17538 net.cpp:434] L3_b1_cbr2_scale <- L3_b1_cbr2_bn_top
I0817 16:28:01.608997 17538 net.cpp:395] L3_b1_cbr2_scale -> L3_b1_cbr2_bn_top (in-place)
I0817 16:28:01.609056 17538 layer_factory.hpp:77] Creating layer L3_b1_cbr2_scale
I0817 16:28:01.609226 17538 net.cpp:150] Setting up L3_b1_cbr2_scale
I0817 16:28:01.609241 17538 net.cpp:157] Top shape: 125 32 8 8 (256000)
I0817 16:28:01.609246 17538 net.cpp:165] Memory required for data: 1264129500
I0817 16:28:01.609254 17538 layer_factory.hpp:77] Creating layer L3_b1_pool
I0817 16:28:01.609263 17538 net.cpp:100] Creating Layer L3_b1_pool
I0817 16:28:01.609271 17538 net.cpp:434] L3_b1_pool <- L2_b9_sum_eltwise_top_L2_b9_relu_0_split_1
I0817 16:28:01.609282 17538 net.cpp:408] L3_b1_pool -> L3_b1_pool
I0817 16:28:01.609316 17538 net.cpp:150] Setting up L3_b1_pool
I0817 16:28:01.609326 17538 net.cpp:157] Top shape: 125 32 8 8 (256000)
I0817 16:28:01.609331 17538 net.cpp:165] Memory required for data: 1265153500
I0817 16:28:01.609336 17538 layer_factory.hpp:77] Creating layer L3_b1_sum_eltwise
I0817 16:28:01.609349 17538 net.cpp:100] Creating Layer L3_b1_sum_eltwise
I0817 16:28:01.609354 17538 net.cpp:434] L3_b1_sum_eltwise <- L3_b1_cbr2_bn_top
I0817 16:28:01.609361 17538 net.cpp:434] L3_b1_sum_eltwise <- L3_b1_pool
I0817 16:28:01.609369 17538 net.cpp:408] L3_b1_sum_eltwise -> L3_b1_sum_eltwise_top
I0817 16:28:01.609400 17538 net.cpp:150] Setting up L3_b1_sum_eltwise
I0817 16:28:01.609411 17538 net.cpp:157] Top shape: 125 32 8 8 (256000)
I0817 16:28:01.609416 17538 net.cpp:165] Memory required for data: 1266177500
I0817 16:28:01.609421 17538 layer_factory.hpp:77] Creating layer L3_b1_relu
I0817 16:28:01.609431 17538 net.cpp:100] Creating Layer L3_b1_relu
I0817 16:28:01.609436 17538 net.cpp:434] L3_b1_relu <- L3_b1_sum_eltwise_top
I0817 16:28:01.609443 17538 net.cpp:395] L3_b1_relu -> L3_b1_sum_eltwise_top (in-place)
I0817 16:28:01.609453 17538 net.cpp:150] Setting up L3_b1_relu
I0817 16:28:01.609460 17538 net.cpp:157] Top shape: 125 32 8 8 (256000)
I0817 16:28:01.609465 17538 net.cpp:165] Memory required for data: 1267201500
I0817 16:28:01.609470 17538 layer_factory.hpp:77] Creating layer L3_b1_zeros
I0817 16:28:01.609479 17538 net.cpp:100] Creating Layer L3_b1_zeros
I0817 16:28:01.609486 17538 net.cpp:408] L3_b1_zeros -> L3_b1_zeros
I0817 16:28:01.610811 17538 net.cpp:150] Setting up L3_b1_zeros
I0817 16:28:01.610832 17538 net.cpp:157] Top shape: 125 32 8 8 (256000)
I0817 16:28:01.610838 17538 net.cpp:165] Memory required for data: 1268225500
I0817 16:28:01.610844 17538 layer_factory.hpp:77] Creating layer L3_b1_concat0
I0817 16:28:01.610854 17538 net.cpp:100] Creating Layer L3_b1_concat0
I0817 16:28:01.610860 17538 net.cpp:434] L3_b1_concat0 <- L3_b1_sum_eltwise_top
I0817 16:28:01.610868 17538 net.cpp:434] L3_b1_concat0 <- L3_b1_zeros
I0817 16:28:01.610877 17538 net.cpp:408] L3_b1_concat0 -> L3_b1_concat0
I0817 16:28:01.610920 17538 net.cpp:150] Setting up L3_b1_concat0
I0817 16:28:01.610932 17538 net.cpp:157] Top shape: 125 64 8 8 (512000)
I0817 16:28:01.610937 17538 net.cpp:165] Memory required for data: 1270273500
I0817 16:28:01.610944 17538 layer_factory.hpp:77] Creating layer L3_b1_concat0_L3_b1_concat0_0_split
I0817 16:28:01.610954 17538 net.cpp:100] Creating Layer L3_b1_concat0_L3_b1_concat0_0_split
I0817 16:28:01.610960 17538 net.cpp:434] L3_b1_concat0_L3_b1_concat0_0_split <- L3_b1_concat0
I0817 16:28:01.610968 17538 net.cpp:408] L3_b1_concat0_L3_b1_concat0_0_split -> L3_b1_concat0_L3_b1_concat0_0_split_0
I0817 16:28:01.610978 17538 net.cpp:408] L3_b1_concat0_L3_b1_concat0_0_split -> L3_b1_concat0_L3_b1_concat0_0_split_1
I0817 16:28:01.611029 17538 net.cpp:150] Setting up L3_b1_concat0_L3_b1_concat0_0_split
I0817 16:28:01.611042 17538 net.cpp:157] Top shape: 125 64 8 8 (512000)
I0817 16:28:01.611048 17538 net.cpp:157] Top shape: 125 64 8 8 (512000)
I0817 16:28:01.611060 17538 net.cpp:165] Memory required for data: 1274369500
I0817 16:28:01.611066 17538 layer_factory.hpp:77] Creating layer L3_b2_cbr1_conv
I0817 16:28:01.611078 17538 net.cpp:100] Creating Layer L3_b2_cbr1_conv
I0817 16:28:01.611085 17538 net.cpp:434] L3_b2_cbr1_conv <- L3_b1_concat0_L3_b1_concat0_0_split_0
I0817 16:28:01.611098 17538 net.cpp:408] L3_b2_cbr1_conv -> L3_b2_cbr1_conv_top
I0817 16:28:01.613098 17538 net.cpp:150] Setting up L3_b2_cbr1_conv
I0817 16:28:01.613121 17538 net.cpp:157] Top shape: 125 64 8 8 (512000)
I0817 16:28:01.613126 17538 net.cpp:165] Memory required for data: 1276417500
I0817 16:28:01.613137 17538 layer_factory.hpp:77] Creating layer L3_b2_cbr1_bn
I0817 16:28:01.613150 17538 net.cpp:100] Creating Layer L3_b2_cbr1_bn
I0817 16:28:01.613157 17538 net.cpp:434] L3_b2_cbr1_bn <- L3_b2_cbr1_conv_top
I0817 16:28:01.613168 17538 net.cpp:408] L3_b2_cbr1_bn -> L3_b2_cbr1_bn_top
I0817 16:28:01.613433 17538 net.cpp:150] Setting up L3_b2_cbr1_bn
I0817 16:28:01.613447 17538 net.cpp:157] Top shape: 125 64 8 8 (512000)
I0817 16:28:01.613453 17538 net.cpp:165] Memory required for data: 1278465500
I0817 16:28:01.613463 17538 layer_factory.hpp:77] Creating layer L3_b2_cbr1_scale
I0817 16:28:01.613472 17538 net.cpp:100] Creating Layer L3_b2_cbr1_scale
I0817 16:28:01.613479 17538 net.cpp:434] L3_b2_cbr1_scale <- L3_b2_cbr1_bn_top
I0817 16:28:01.613490 17538 net.cpp:395] L3_b2_cbr1_scale -> L3_b2_cbr1_bn_top (in-place)
I0817 16:28:01.613548 17538 layer_factory.hpp:77] Creating layer L3_b2_cbr1_scale
I0817 16:28:01.613704 17538 net.cpp:150] Setting up L3_b2_cbr1_scale
I0817 16:28:01.613718 17538 net.cpp:157] Top shape: 125 64 8 8 (512000)
I0817 16:28:01.613723 17538 net.cpp:165] Memory required for data: 1280513500
I0817 16:28:01.613732 17538 layer_factory.hpp:77] Creating layer L3_b2_cbr1_relu
I0817 16:28:01.613740 17538 net.cpp:100] Creating Layer L3_b2_cbr1_relu
I0817 16:28:01.613747 17538 net.cpp:434] L3_b2_cbr1_relu <- L3_b2_cbr1_bn_top
I0817 16:28:01.613757 17538 net.cpp:395] L3_b2_cbr1_relu -> L3_b2_cbr1_bn_top (in-place)
I0817 16:28:01.613767 17538 net.cpp:150] Setting up L3_b2_cbr1_relu
I0817 16:28:01.613775 17538 net.cpp:157] Top shape: 125 64 8 8 (512000)
I0817 16:28:01.613780 17538 net.cpp:165] Memory required for data: 1282561500
I0817 16:28:01.613785 17538 layer_factory.hpp:77] Creating layer L3_b2_cbr2_conv
I0817 16:28:01.613800 17538 net.cpp:100] Creating Layer L3_b2_cbr2_conv
I0817 16:28:01.613806 17538 net.cpp:434] L3_b2_cbr2_conv <- L3_b2_cbr1_bn_top
I0817 16:28:01.613816 17538 net.cpp:408] L3_b2_cbr2_conv -> L3_b2_cbr2_conv_top
I0817 16:28:01.614847 17538 net.cpp:150] Setting up L3_b2_cbr2_conv
I0817 16:28:01.614862 17538 net.cpp:157] Top shape: 125 64 8 8 (512000)
I0817 16:28:01.614867 17538 net.cpp:165] Memory required for data: 1284609500
I0817 16:28:01.614877 17538 layer_factory.hpp:77] Creating layer L3_b2_cbr2_bn
I0817 16:28:01.614887 17538 net.cpp:100] Creating Layer L3_b2_cbr2_bn
I0817 16:28:01.614893 17538 net.cpp:434] L3_b2_cbr2_bn <- L3_b2_cbr2_conv_top
I0817 16:28:01.614905 17538 net.cpp:408] L3_b2_cbr2_bn -> L3_b2_cbr2_bn_top
I0817 16:28:01.615182 17538 net.cpp:150] Setting up L3_b2_cbr2_bn
I0817 16:28:01.615198 17538 net.cpp:157] Top shape: 125 64 8 8 (512000)
I0817 16:28:01.615205 17538 net.cpp:165] Memory required for data: 1286657500
I0817 16:28:01.615216 17538 layer_factory.hpp:77] Creating layer L3_b2_cbr2_scale
I0817 16:28:01.615224 17538 net.cpp:100] Creating Layer L3_b2_cbr2_scale
I0817 16:28:01.615231 17538 net.cpp:434] L3_b2_cbr2_scale <- L3_b2_cbr2_bn_top
I0817 16:28:01.615238 17538 net.cpp:395] L3_b2_cbr2_scale -> L3_b2_cbr2_bn_top (in-place)
I0817 16:28:01.615295 17538 layer_factory.hpp:77] Creating layer L3_b2_cbr2_scale
I0817 16:28:01.615450 17538 net.cpp:150] Setting up L3_b2_cbr2_scale
I0817 16:28:01.615463 17538 net.cpp:157] Top shape: 125 64 8 8 (512000)
I0817 16:28:01.615468 17538 net.cpp:165] Memory required for data: 1288705500
I0817 16:28:01.615478 17538 layer_factory.hpp:77] Creating layer L3_b2_sum_eltwise
I0817 16:28:01.615495 17538 net.cpp:100] Creating Layer L3_b2_sum_eltwise
I0817 16:28:01.615505 17538 net.cpp:434] L3_b2_sum_eltwise <- L3_b2_cbr2_bn_top
I0817 16:28:01.615512 17538 net.cpp:434] L3_b2_sum_eltwise <- L3_b1_concat0_L3_b1_concat0_0_split_1
I0817 16:28:01.615520 17538 net.cpp:408] L3_b2_sum_eltwise -> L3_b2_sum_eltwise_top
I0817 16:28:01.615557 17538 net.cpp:150] Setting up L3_b2_sum_eltwise
I0817 16:28:01.615567 17538 net.cpp:157] Top shape: 125 64 8 8 (512000)
I0817 16:28:01.615572 17538 net.cpp:165] Memory required for data: 1290753500
I0817 16:28:01.615577 17538 layer_factory.hpp:77] Creating layer L3_b2_relu
I0817 16:28:01.615586 17538 net.cpp:100] Creating Layer L3_b2_relu
I0817 16:28:01.615592 17538 net.cpp:434] L3_b2_relu <- L3_b2_sum_eltwise_top
I0817 16:28:01.615598 17538 net.cpp:395] L3_b2_relu -> L3_b2_sum_eltwise_top (in-place)
I0817 16:28:01.615607 17538 net.cpp:150] Setting up L3_b2_relu
I0817 16:28:01.615614 17538 net.cpp:157] Top shape: 125 64 8 8 (512000)
I0817 16:28:01.615619 17538 net.cpp:165] Memory required for data: 1292801500
I0817 16:28:01.615624 17538 layer_factory.hpp:77] Creating layer L3_b2_sum_eltwise_top_L3_b2_relu_0_split
I0817 16:28:01.615631 17538 net.cpp:100] Creating Layer L3_b2_sum_eltwise_top_L3_b2_relu_0_split
I0817 16:28:01.615638 17538 net.cpp:434] L3_b2_sum_eltwise_top_L3_b2_relu_0_split <- L3_b2_sum_eltwise_top
I0817 16:28:01.615644 17538 net.cpp:408] L3_b2_sum_eltwise_top_L3_b2_relu_0_split -> L3_b2_sum_eltwise_top_L3_b2_relu_0_split_0
I0817 16:28:01.615654 17538 net.cpp:408] L3_b2_sum_eltwise_top_L3_b2_relu_0_split -> L3_b2_sum_eltwise_top_L3_b2_relu_0_split_1
I0817 16:28:01.615702 17538 net.cpp:150] Setting up L3_b2_sum_eltwise_top_L3_b2_relu_0_split
I0817 16:28:01.615715 17538 net.cpp:157] Top shape: 125 64 8 8 (512000)
I0817 16:28:01.615721 17538 net.cpp:157] Top shape: 125 64 8 8 (512000)
I0817 16:28:01.615725 17538 net.cpp:165] Memory required for data: 1296897500
I0817 16:28:01.615731 17538 layer_factory.hpp:77] Creating layer L3_b3_cbr1_conv
I0817 16:28:01.615747 17538 net.cpp:100] Creating Layer L3_b3_cbr1_conv
I0817 16:28:01.615754 17538 net.cpp:434] L3_b3_cbr1_conv <- L3_b2_sum_eltwise_top_L3_b2_relu_0_split_0
I0817 16:28:01.615763 17538 net.cpp:408] L3_b3_cbr1_conv -> L3_b3_cbr1_conv_top
I0817 16:28:01.616786 17538 net.cpp:150] Setting up L3_b3_cbr1_conv
I0817 16:28:01.616802 17538 net.cpp:157] Top shape: 125 64 8 8 (512000)
I0817 16:28:01.616807 17538 net.cpp:165] Memory required for data: 1298945500
I0817 16:28:01.616816 17538 layer_factory.hpp:77] Creating layer L3_b3_cbr1_bn
I0817 16:28:01.616825 17538 net.cpp:100] Creating Layer L3_b3_cbr1_bn
I0817 16:28:01.616832 17538 net.cpp:434] L3_b3_cbr1_bn <- L3_b3_cbr1_conv_top
I0817 16:28:01.616843 17538 net.cpp:408] L3_b3_cbr1_bn -> L3_b3_cbr1_bn_top
I0817 16:28:01.617106 17538 net.cpp:150] Setting up L3_b3_cbr1_bn
I0817 16:28:01.617120 17538 net.cpp:157] Top shape: 125 64 8 8 (512000)
I0817 16:28:01.617125 17538 net.cpp:165] Memory required for data: 1300993500
I0817 16:28:01.617136 17538 layer_factory.hpp:77] Creating layer L3_b3_cbr1_scale
I0817 16:28:01.617144 17538 net.cpp:100] Creating Layer L3_b3_cbr1_scale
I0817 16:28:01.617151 17538 net.cpp:434] L3_b3_cbr1_scale <- L3_b3_cbr1_bn_top
I0817 16:28:01.617161 17538 net.cpp:395] L3_b3_cbr1_scale -> L3_b3_cbr1_bn_top (in-place)
I0817 16:28:01.617223 17538 layer_factory.hpp:77] Creating layer L3_b3_cbr1_scale
I0817 16:28:01.617379 17538 net.cpp:150] Setting up L3_b3_cbr1_scale
I0817 16:28:01.617393 17538 net.cpp:157] Top shape: 125 64 8 8 (512000)
I0817 16:28:01.617398 17538 net.cpp:165] Memory required for data: 1303041500
I0817 16:28:01.617406 17538 layer_factory.hpp:77] Creating layer L3_b3_cbr1_relu
I0817 16:28:01.617419 17538 net.cpp:100] Creating Layer L3_b3_cbr1_relu
I0817 16:28:01.617425 17538 net.cpp:434] L3_b3_cbr1_relu <- L3_b3_cbr1_bn_top
I0817 16:28:01.617432 17538 net.cpp:395] L3_b3_cbr1_relu -> L3_b3_cbr1_bn_top (in-place)
I0817 16:28:01.617442 17538 net.cpp:150] Setting up L3_b3_cbr1_relu
I0817 16:28:01.617449 17538 net.cpp:157] Top shape: 125 64 8 8 (512000)
I0817 16:28:01.617460 17538 net.cpp:165] Memory required for data: 1305089500
I0817 16:28:01.617466 17538 layer_factory.hpp:77] Creating layer L3_b3_cbr2_conv
I0817 16:28:01.617480 17538 net.cpp:100] Creating Layer L3_b3_cbr2_conv
I0817 16:28:01.617486 17538 net.cpp:434] L3_b3_cbr2_conv <- L3_b3_cbr1_bn_top
I0817 16:28:01.617497 17538 net.cpp:408] L3_b3_cbr2_conv -> L3_b3_cbr2_conv_top
I0817 16:28:01.618533 17538 net.cpp:150] Setting up L3_b3_cbr2_conv
I0817 16:28:01.618551 17538 net.cpp:157] Top shape: 125 64 8 8 (512000)
I0817 16:28:01.618556 17538 net.cpp:165] Memory required for data: 1307137500
I0817 16:28:01.618564 17538 layer_factory.hpp:77] Creating layer L3_b3_cbr2_bn
I0817 16:28:01.618573 17538 net.cpp:100] Creating Layer L3_b3_cbr2_bn
I0817 16:28:01.618580 17538 net.cpp:434] L3_b3_cbr2_bn <- L3_b3_cbr2_conv_top
I0817 16:28:01.618592 17538 net.cpp:408] L3_b3_cbr2_bn -> L3_b3_cbr2_bn_top
I0817 16:28:01.618860 17538 net.cpp:150] Setting up L3_b3_cbr2_bn
I0817 16:28:01.618875 17538 net.cpp:157] Top shape: 125 64 8 8 (512000)
I0817 16:28:01.618880 17538 net.cpp:165] Memory required for data: 1309185500
I0817 16:28:01.618891 17538 layer_factory.hpp:77] Creating layer L3_b3_cbr2_scale
I0817 16:28:01.618901 17538 net.cpp:100] Creating Layer L3_b3_cbr2_scale
I0817 16:28:01.618907 17538 net.cpp:434] L3_b3_cbr2_scale <- L3_b3_cbr2_bn_top
I0817 16:28:01.618914 17538 net.cpp:395] L3_b3_cbr2_scale -> L3_b3_cbr2_bn_top (in-place)
I0817 16:28:01.618970 17538 layer_factory.hpp:77] Creating layer L3_b3_cbr2_scale
I0817 16:28:01.619133 17538 net.cpp:150] Setting up L3_b3_cbr2_scale
I0817 16:28:01.619148 17538 net.cpp:157] Top shape: 125 64 8 8 (512000)
I0817 16:28:01.619153 17538 net.cpp:165] Memory required for data: 1311233500
I0817 16:28:01.619163 17538 layer_factory.hpp:77] Creating layer L3_b3_sum_eltwise
I0817 16:28:01.619175 17538 net.cpp:100] Creating Layer L3_b3_sum_eltwise
I0817 16:28:01.619182 17538 net.cpp:434] L3_b3_sum_eltwise <- L3_b3_cbr2_bn_top
I0817 16:28:01.619189 17538 net.cpp:434] L3_b3_sum_eltwise <- L3_b2_sum_eltwise_top_L3_b2_relu_0_split_1
I0817 16:28:01.619197 17538 net.cpp:408] L3_b3_sum_eltwise -> L3_b3_sum_eltwise_top
I0817 16:28:01.619233 17538 net.cpp:150] Setting up L3_b3_sum_eltwise
I0817 16:28:01.619246 17538 net.cpp:157] Top shape: 125 64 8 8 (512000)
I0817 16:28:01.619251 17538 net.cpp:165] Memory required for data: 1313281500
I0817 16:28:01.619256 17538 layer_factory.hpp:77] Creating layer L3_b3_relu
I0817 16:28:01.619263 17538 net.cpp:100] Creating Layer L3_b3_relu
I0817 16:28:01.619269 17538 net.cpp:434] L3_b3_relu <- L3_b3_sum_eltwise_top
I0817 16:28:01.619277 17538 net.cpp:395] L3_b3_relu -> L3_b3_sum_eltwise_top (in-place)
I0817 16:28:01.619287 17538 net.cpp:150] Setting up L3_b3_relu
I0817 16:28:01.619293 17538 net.cpp:157] Top shape: 125 64 8 8 (512000)
I0817 16:28:01.619298 17538 net.cpp:165] Memory required for data: 1315329500
I0817 16:28:01.619302 17538 layer_factory.hpp:77] Creating layer L3_b3_sum_eltwise_top_L3_b3_relu_0_split
I0817 16:28:01.619310 17538 net.cpp:100] Creating Layer L3_b3_sum_eltwise_top_L3_b3_relu_0_split
I0817 16:28:01.619315 17538 net.cpp:434] L3_b3_sum_eltwise_top_L3_b3_relu_0_split <- L3_b3_sum_eltwise_top
I0817 16:28:01.619328 17538 net.cpp:408] L3_b3_sum_eltwise_top_L3_b3_relu_0_split -> L3_b3_sum_eltwise_top_L3_b3_relu_0_split_0
I0817 16:28:01.619338 17538 net.cpp:408] L3_b3_sum_eltwise_top_L3_b3_relu_0_split -> L3_b3_sum_eltwise_top_L3_b3_relu_0_split_1
I0817 16:28:01.619385 17538 net.cpp:150] Setting up L3_b3_sum_eltwise_top_L3_b3_relu_0_split
I0817 16:28:01.619396 17538 net.cpp:157] Top shape: 125 64 8 8 (512000)
I0817 16:28:01.619403 17538 net.cpp:157] Top shape: 125 64 8 8 (512000)
I0817 16:28:01.619408 17538 net.cpp:165] Memory required for data: 1319425500
I0817 16:28:01.619413 17538 layer_factory.hpp:77] Creating layer L3_b4_cbr1_conv
I0817 16:28:01.619427 17538 net.cpp:100] Creating Layer L3_b4_cbr1_conv
I0817 16:28:01.619434 17538 net.cpp:434] L3_b4_cbr1_conv <- L3_b3_sum_eltwise_top_L3_b3_relu_0_split_0
I0817 16:28:01.619451 17538 net.cpp:408] L3_b4_cbr1_conv -> L3_b4_cbr1_conv_top
I0817 16:28:01.620472 17538 net.cpp:150] Setting up L3_b4_cbr1_conv
I0817 16:28:01.620488 17538 net.cpp:157] Top shape: 125 64 8 8 (512000)
I0817 16:28:01.620493 17538 net.cpp:165] Memory required for data: 1321473500
I0817 16:28:01.620502 17538 layer_factory.hpp:77] Creating layer L3_b4_cbr1_bn
I0817 16:28:01.620515 17538 net.cpp:100] Creating Layer L3_b4_cbr1_bn
I0817 16:28:01.620522 17538 net.cpp:434] L3_b4_cbr1_bn <- L3_b4_cbr1_conv_top
I0817 16:28:01.620530 17538 net.cpp:408] L3_b4_cbr1_bn -> L3_b4_cbr1_bn_top
I0817 16:28:01.620797 17538 net.cpp:150] Setting up L3_b4_cbr1_bn
I0817 16:28:01.620811 17538 net.cpp:157] Top shape: 125 64 8 8 (512000)
I0817 16:28:01.620816 17538 net.cpp:165] Memory required for data: 1323521500
I0817 16:28:01.620826 17538 layer_factory.hpp:77] Creating layer L3_b4_cbr1_scale
I0817 16:28:01.620838 17538 net.cpp:100] Creating Layer L3_b4_cbr1_scale
I0817 16:28:01.620846 17538 net.cpp:434] L3_b4_cbr1_scale <- L3_b4_cbr1_bn_top
I0817 16:28:01.620853 17538 net.cpp:395] L3_b4_cbr1_scale -> L3_b4_cbr1_bn_top (in-place)
I0817 16:28:01.620913 17538 layer_factory.hpp:77] Creating layer L3_b4_cbr1_scale
I0817 16:28:01.621068 17538 net.cpp:150] Setting up L3_b4_cbr1_scale
I0817 16:28:01.621081 17538 net.cpp:157] Top shape: 125 64 8 8 (512000)
I0817 16:28:01.621086 17538 net.cpp:165] Memory required for data: 1325569500
I0817 16:28:01.621096 17538 layer_factory.hpp:77] Creating layer L3_b4_cbr1_relu
I0817 16:28:01.621112 17538 net.cpp:100] Creating Layer L3_b4_cbr1_relu
I0817 16:28:01.621120 17538 net.cpp:434] L3_b4_cbr1_relu <- L3_b4_cbr1_bn_top
I0817 16:28:01.621127 17538 net.cpp:395] L3_b4_cbr1_relu -> L3_b4_cbr1_bn_top (in-place)
I0817 16:28:01.621137 17538 net.cpp:150] Setting up L3_b4_cbr1_relu
I0817 16:28:01.621145 17538 net.cpp:157] Top shape: 125 64 8 8 (512000)
I0817 16:28:01.621150 17538 net.cpp:165] Memory required for data: 1327617500
I0817 16:28:01.621155 17538 layer_factory.hpp:77] Creating layer L3_b4_cbr2_conv
I0817 16:28:01.621170 17538 net.cpp:100] Creating Layer L3_b4_cbr2_conv
I0817 16:28:01.621176 17538 net.cpp:434] L3_b4_cbr2_conv <- L3_b4_cbr1_bn_top
I0817 16:28:01.621187 17538 net.cpp:408] L3_b4_cbr2_conv -> L3_b4_cbr2_conv_top
I0817 16:28:01.622236 17538 net.cpp:150] Setting up L3_b4_cbr2_conv
I0817 16:28:01.622251 17538 net.cpp:157] Top shape: 125 64 8 8 (512000)
I0817 16:28:01.622256 17538 net.cpp:165] Memory required for data: 1329665500
I0817 16:28:01.622265 17538 layer_factory.hpp:77] Creating layer L3_b4_cbr2_bn
I0817 16:28:01.622275 17538 net.cpp:100] Creating Layer L3_b4_cbr2_bn
I0817 16:28:01.622282 17538 net.cpp:434] L3_b4_cbr2_bn <- L3_b4_cbr2_conv_top
I0817 16:28:01.622292 17538 net.cpp:408] L3_b4_cbr2_bn -> L3_b4_cbr2_bn_top
I0817 16:28:01.622565 17538 net.cpp:150] Setting up L3_b4_cbr2_bn
I0817 16:28:01.622582 17538 net.cpp:157] Top shape: 125 64 8 8 (512000)
I0817 16:28:01.622587 17538 net.cpp:165] Memory required for data: 1331713500
I0817 16:28:01.622598 17538 layer_factory.hpp:77] Creating layer L3_b4_cbr2_scale
I0817 16:28:01.622607 17538 net.cpp:100] Creating Layer L3_b4_cbr2_scale
I0817 16:28:01.622613 17538 net.cpp:434] L3_b4_cbr2_scale <- L3_b4_cbr2_bn_top
I0817 16:28:01.622622 17538 net.cpp:395] L3_b4_cbr2_scale -> L3_b4_cbr2_bn_top (in-place)
I0817 16:28:01.622678 17538 layer_factory.hpp:77] Creating layer L3_b4_cbr2_scale
I0817 16:28:01.622841 17538 net.cpp:150] Setting up L3_b4_cbr2_scale
I0817 16:28:01.622854 17538 net.cpp:157] Top shape: 125 64 8 8 (512000)
I0817 16:28:01.622859 17538 net.cpp:165] Memory required for data: 1333761500
I0817 16:28:01.622869 17538 layer_factory.hpp:77] Creating layer L3_b4_sum_eltwise
I0817 16:28:01.622880 17538 net.cpp:100] Creating Layer L3_b4_sum_eltwise
I0817 16:28:01.622887 17538 net.cpp:434] L3_b4_sum_eltwise <- L3_b4_cbr2_bn_top
I0817 16:28:01.622895 17538 net.cpp:434] L3_b4_sum_eltwise <- L3_b3_sum_eltwise_top_L3_b3_relu_0_split_1
I0817 16:28:01.622902 17538 net.cpp:408] L3_b4_sum_eltwise -> L3_b4_sum_eltwise_top
I0817 16:28:01.622939 17538 net.cpp:150] Setting up L3_b4_sum_eltwise
I0817 16:28:01.622956 17538 net.cpp:157] Top shape: 125 64 8 8 (512000)
I0817 16:28:01.622961 17538 net.cpp:165] Memory required for data: 1335809500
I0817 16:28:01.622967 17538 layer_factory.hpp:77] Creating layer L3_b4_relu
I0817 16:28:01.622974 17538 net.cpp:100] Creating Layer L3_b4_relu
I0817 16:28:01.622980 17538 net.cpp:434] L3_b4_relu <- L3_b4_sum_eltwise_top
I0817 16:28:01.622987 17538 net.cpp:395] L3_b4_relu -> L3_b4_sum_eltwise_top (in-place)
I0817 16:28:01.622997 17538 net.cpp:150] Setting up L3_b4_relu
I0817 16:28:01.623004 17538 net.cpp:157] Top shape: 125 64 8 8 (512000)
I0817 16:28:01.623008 17538 net.cpp:165] Memory required for data: 1337857500
I0817 16:28:01.623013 17538 layer_factory.hpp:77] Creating layer L3_b4_sum_eltwise_top_L3_b4_relu_0_split
I0817 16:28:01.623020 17538 net.cpp:100] Creating Layer L3_b4_sum_eltwise_top_L3_b4_relu_0_split
I0817 16:28:01.623026 17538 net.cpp:434] L3_b4_sum_eltwise_top_L3_b4_relu_0_split <- L3_b4_sum_eltwise_top
I0817 16:28:01.623036 17538 net.cpp:408] L3_b4_sum_eltwise_top_L3_b4_relu_0_split -> L3_b4_sum_eltwise_top_L3_b4_relu_0_split_0
I0817 16:28:01.623046 17538 net.cpp:408] L3_b4_sum_eltwise_top_L3_b4_relu_0_split -> L3_b4_sum_eltwise_top_L3_b4_relu_0_split_1
I0817 16:28:01.623092 17538 net.cpp:150] Setting up L3_b4_sum_eltwise_top_L3_b4_relu_0_split
I0817 16:28:01.623111 17538 net.cpp:157] Top shape: 125 64 8 8 (512000)
I0817 16:28:01.623117 17538 net.cpp:157] Top shape: 125 64 8 8 (512000)
I0817 16:28:01.623122 17538 net.cpp:165] Memory required for data: 1341953500
I0817 16:28:01.623128 17538 layer_factory.hpp:77] Creating layer L3_b5_cbr1_conv
I0817 16:28:01.623150 17538 net.cpp:100] Creating Layer L3_b5_cbr1_conv
I0817 16:28:01.623157 17538 net.cpp:434] L3_b5_cbr1_conv <- L3_b4_sum_eltwise_top_L3_b4_relu_0_split_0
I0817 16:28:01.623167 17538 net.cpp:408] L3_b5_cbr1_conv -> L3_b5_cbr1_conv_top
I0817 16:28:01.624197 17538 net.cpp:150] Setting up L3_b5_cbr1_conv
I0817 16:28:01.624212 17538 net.cpp:157] Top shape: 125 64 8 8 (512000)
I0817 16:28:01.624217 17538 net.cpp:165] Memory required for data: 1344001500
I0817 16:28:01.624227 17538 layer_factory.hpp:77] Creating layer L3_b5_cbr1_bn
I0817 16:28:01.624238 17538 net.cpp:100] Creating Layer L3_b5_cbr1_bn
I0817 16:28:01.624245 17538 net.cpp:434] L3_b5_cbr1_bn <- L3_b5_cbr1_conv_top
I0817 16:28:01.624253 17538 net.cpp:408] L3_b5_cbr1_bn -> L3_b5_cbr1_bn_top
I0817 16:28:01.625502 17538 net.cpp:150] Setting up L3_b5_cbr1_bn
I0817 16:28:01.625522 17538 net.cpp:157] Top shape: 125 64 8 8 (512000)
I0817 16:28:01.625529 17538 net.cpp:165] Memory required for data: 1346049500
I0817 16:28:01.625541 17538 layer_factory.hpp:77] Creating layer L3_b5_cbr1_scale
I0817 16:28:01.625553 17538 net.cpp:100] Creating Layer L3_b5_cbr1_scale
I0817 16:28:01.625561 17538 net.cpp:434] L3_b5_cbr1_scale <- L3_b5_cbr1_bn_top
I0817 16:28:01.625569 17538 net.cpp:395] L3_b5_cbr1_scale -> L3_b5_cbr1_bn_top (in-place)
I0817 16:28:01.625629 17538 layer_factory.hpp:77] Creating layer L3_b5_cbr1_scale
I0817 16:28:01.625787 17538 net.cpp:150] Setting up L3_b5_cbr1_scale
I0817 16:28:01.625800 17538 net.cpp:157] Top shape: 125 64 8 8 (512000)
I0817 16:28:01.625805 17538 net.cpp:165] Memory required for data: 1348097500
I0817 16:28:01.625815 17538 layer_factory.hpp:77] Creating layer L3_b5_cbr1_relu
I0817 16:28:01.625826 17538 net.cpp:100] Creating Layer L3_b5_cbr1_relu
I0817 16:28:01.625833 17538 net.cpp:434] L3_b5_cbr1_relu <- L3_b5_cbr1_bn_top
I0817 16:28:01.625839 17538 net.cpp:395] L3_b5_cbr1_relu -> L3_b5_cbr1_bn_top (in-place)
I0817 16:28:01.625849 17538 net.cpp:150] Setting up L3_b5_cbr1_relu
I0817 16:28:01.625856 17538 net.cpp:157] Top shape: 125 64 8 8 (512000)
I0817 16:28:01.625861 17538 net.cpp:165] Memory required for data: 1350145500
I0817 16:28:01.625866 17538 layer_factory.hpp:77] Creating layer L3_b5_cbr2_conv
I0817 16:28:01.625880 17538 net.cpp:100] Creating Layer L3_b5_cbr2_conv
I0817 16:28:01.625887 17538 net.cpp:434] L3_b5_cbr2_conv <- L3_b5_cbr1_bn_top
I0817 16:28:01.625896 17538 net.cpp:408] L3_b5_cbr2_conv -> L3_b5_cbr2_conv_top
I0817 16:28:01.627905 17538 net.cpp:150] Setting up L3_b5_cbr2_conv
I0817 16:28:01.627925 17538 net.cpp:157] Top shape: 125 64 8 8 (512000)
I0817 16:28:01.627931 17538 net.cpp:165] Memory required for data: 1352193500
I0817 16:28:01.627940 17538 layer_factory.hpp:77] Creating layer L3_b5_cbr2_bn
I0817 16:28:01.627950 17538 net.cpp:100] Creating Layer L3_b5_cbr2_bn
I0817 16:28:01.627957 17538 net.cpp:434] L3_b5_cbr2_bn <- L3_b5_cbr2_conv_top
I0817 16:28:01.627972 17538 net.cpp:408] L3_b5_cbr2_bn -> L3_b5_cbr2_bn_top
I0817 16:28:01.628239 17538 net.cpp:150] Setting up L3_b5_cbr2_bn
I0817 16:28:01.628257 17538 net.cpp:157] Top shape: 125 64 8 8 (512000)
I0817 16:28:01.628262 17538 net.cpp:165] Memory required for data: 1354241500
I0817 16:28:01.628273 17538 layer_factory.hpp:77] Creating layer L3_b5_cbr2_scale
I0817 16:28:01.628283 17538 net.cpp:100] Creating Layer L3_b5_cbr2_scale
I0817 16:28:01.628289 17538 net.cpp:434] L3_b5_cbr2_scale <- L3_b5_cbr2_bn_top
I0817 16:28:01.628298 17538 net.cpp:395] L3_b5_cbr2_scale -> L3_b5_cbr2_bn_top (in-place)
I0817 16:28:01.628355 17538 layer_factory.hpp:77] Creating layer L3_b5_cbr2_scale
I0817 16:28:01.628504 17538 net.cpp:150] Setting up L3_b5_cbr2_scale
I0817 16:28:01.628517 17538 net.cpp:157] Top shape: 125 64 8 8 (512000)
I0817 16:28:01.628523 17538 net.cpp:165] Memory required for data: 1356289500
I0817 16:28:01.628532 17538 layer_factory.hpp:77] Creating layer L3_b5_sum_eltwise
I0817 16:28:01.628545 17538 net.cpp:100] Creating Layer L3_b5_sum_eltwise
I0817 16:28:01.628551 17538 net.cpp:434] L3_b5_sum_eltwise <- L3_b5_cbr2_bn_top
I0817 16:28:01.628558 17538 net.cpp:434] L3_b5_sum_eltwise <- L3_b4_sum_eltwise_top_L3_b4_relu_0_split_1
I0817 16:28:01.628566 17538 net.cpp:408] L3_b5_sum_eltwise -> L3_b5_sum_eltwise_top
I0817 16:28:01.628602 17538 net.cpp:150] Setting up L3_b5_sum_eltwise
I0817 16:28:01.628613 17538 net.cpp:157] Top shape: 125 64 8 8 (512000)
I0817 16:28:01.628618 17538 net.cpp:165] Memory required for data: 1358337500
I0817 16:28:01.628623 17538 layer_factory.hpp:77] Creating layer L3_b5_relu
I0817 16:28:01.628631 17538 net.cpp:100] Creating Layer L3_b5_relu
I0817 16:28:01.628636 17538 net.cpp:434] L3_b5_relu <- L3_b5_sum_eltwise_top
I0817 16:28:01.628644 17538 net.cpp:395] L3_b5_relu -> L3_b5_sum_eltwise_top (in-place)
I0817 16:28:01.628654 17538 net.cpp:150] Setting up L3_b5_relu
I0817 16:28:01.628660 17538 net.cpp:157] Top shape: 125 64 8 8 (512000)
I0817 16:28:01.628665 17538 net.cpp:165] Memory required for data: 1360385500
I0817 16:28:01.628670 17538 layer_factory.hpp:77] Creating layer L3_b5_sum_eltwise_top_L3_b5_relu_0_split
I0817 16:28:01.628677 17538 net.cpp:100] Creating Layer L3_b5_sum_eltwise_top_L3_b5_relu_0_split
I0817 16:28:01.628682 17538 net.cpp:434] L3_b5_sum_eltwise_top_L3_b5_relu_0_split <- L3_b5_sum_eltwise_top
I0817 16:28:01.628693 17538 net.cpp:408] L3_b5_sum_eltwise_top_L3_b5_relu_0_split -> L3_b5_sum_eltwise_top_L3_b5_relu_0_split_0
I0817 16:28:01.628703 17538 net.cpp:408] L3_b5_sum_eltwise_top_L3_b5_relu_0_split -> L3_b5_sum_eltwise_top_L3_b5_relu_0_split_1
I0817 16:28:01.628748 17538 net.cpp:150] Setting up L3_b5_sum_eltwise_top_L3_b5_relu_0_split
I0817 16:28:01.628759 17538 net.cpp:157] Top shape: 125 64 8 8 (512000)
I0817 16:28:01.628767 17538 net.cpp:157] Top shape: 125 64 8 8 (512000)
I0817 16:28:01.628772 17538 net.cpp:165] Memory required for data: 1364481500
I0817 16:28:01.628777 17538 layer_factory.hpp:77] Creating layer L3_b6_cbr1_conv
I0817 16:28:01.628792 17538 net.cpp:100] Creating Layer L3_b6_cbr1_conv
I0817 16:28:01.628798 17538 net.cpp:434] L3_b6_cbr1_conv <- L3_b5_sum_eltwise_top_L3_b5_relu_0_split_0
I0817 16:28:01.628808 17538 net.cpp:408] L3_b6_cbr1_conv -> L3_b6_cbr1_conv_top
I0817 16:28:01.629825 17538 net.cpp:150] Setting up L3_b6_cbr1_conv
I0817 16:28:01.629842 17538 net.cpp:157] Top shape: 125 64 8 8 (512000)
I0817 16:28:01.629847 17538 net.cpp:165] Memory required for data: 1366529500
I0817 16:28:01.629856 17538 layer_factory.hpp:77] Creating layer L3_b6_cbr1_bn
I0817 16:28:01.629876 17538 net.cpp:100] Creating Layer L3_b6_cbr1_bn
I0817 16:28:01.629884 17538 net.cpp:434] L3_b6_cbr1_bn <- L3_b6_cbr1_conv_top
I0817 16:28:01.629892 17538 net.cpp:408] L3_b6_cbr1_bn -> L3_b6_cbr1_bn_top
I0817 16:28:01.630156 17538 net.cpp:150] Setting up L3_b6_cbr1_bn
I0817 16:28:01.630170 17538 net.cpp:157] Top shape: 125 64 8 8 (512000)
I0817 16:28:01.630175 17538 net.cpp:165] Memory required for data: 1368577500
I0817 16:28:01.630187 17538 layer_factory.hpp:77] Creating layer L3_b6_cbr1_scale
I0817 16:28:01.630198 17538 net.cpp:100] Creating Layer L3_b6_cbr1_scale
I0817 16:28:01.630204 17538 net.cpp:434] L3_b6_cbr1_scale <- L3_b6_cbr1_bn_top
I0817 16:28:01.630213 17538 net.cpp:395] L3_b6_cbr1_scale -> L3_b6_cbr1_bn_top (in-place)
I0817 16:28:01.630273 17538 layer_factory.hpp:77] Creating layer L3_b6_cbr1_scale
I0817 16:28:01.630429 17538 net.cpp:150] Setting up L3_b6_cbr1_scale
I0817 16:28:01.630442 17538 net.cpp:157] Top shape: 125 64 8 8 (512000)
I0817 16:28:01.630448 17538 net.cpp:165] Memory required for data: 1370625500
I0817 16:28:01.630457 17538 layer_factory.hpp:77] Creating layer L3_b6_cbr1_relu
I0817 16:28:01.630468 17538 net.cpp:100] Creating Layer L3_b6_cbr1_relu
I0817 16:28:01.630475 17538 net.cpp:434] L3_b6_cbr1_relu <- L3_b6_cbr1_bn_top
I0817 16:28:01.630482 17538 net.cpp:395] L3_b6_cbr1_relu -> L3_b6_cbr1_bn_top (in-place)
I0817 16:28:01.630493 17538 net.cpp:150] Setting up L3_b6_cbr1_relu
I0817 16:28:01.630501 17538 net.cpp:157] Top shape: 125 64 8 8 (512000)
I0817 16:28:01.630506 17538 net.cpp:165] Memory required for data: 1372673500
I0817 16:28:01.630511 17538 layer_factory.hpp:77] Creating layer L3_b6_cbr2_conv
I0817 16:28:01.630524 17538 net.cpp:100] Creating Layer L3_b6_cbr2_conv
I0817 16:28:01.630532 17538 net.cpp:434] L3_b6_cbr2_conv <- L3_b6_cbr1_bn_top
I0817 16:28:01.630542 17538 net.cpp:408] L3_b6_cbr2_conv -> L3_b6_cbr2_conv_top
I0817 16:28:01.631549 17538 net.cpp:150] Setting up L3_b6_cbr2_conv
I0817 16:28:01.631564 17538 net.cpp:157] Top shape: 125 64 8 8 (512000)
I0817 16:28:01.631569 17538 net.cpp:165] Memory required for data: 1374721500
I0817 16:28:01.631578 17538 layer_factory.hpp:77] Creating layer L3_b6_cbr2_bn
I0817 16:28:01.631588 17538 net.cpp:100] Creating Layer L3_b6_cbr2_bn
I0817 16:28:01.631594 17538 net.cpp:434] L3_b6_cbr2_bn <- L3_b6_cbr2_conv_top
I0817 16:28:01.631605 17538 net.cpp:408] L3_b6_cbr2_bn -> L3_b6_cbr2_bn_top
I0817 16:28:01.631866 17538 net.cpp:150] Setting up L3_b6_cbr2_bn
I0817 16:28:01.631882 17538 net.cpp:157] Top shape: 125 64 8 8 (512000)
I0817 16:28:01.631887 17538 net.cpp:165] Memory required for data: 1376769500
I0817 16:28:01.631898 17538 layer_factory.hpp:77] Creating layer L3_b6_cbr2_scale
I0817 16:28:01.631907 17538 net.cpp:100] Creating Layer L3_b6_cbr2_scale
I0817 16:28:01.631913 17538 net.cpp:434] L3_b6_cbr2_scale <- L3_b6_cbr2_bn_top
I0817 16:28:01.631922 17538 net.cpp:395] L3_b6_cbr2_scale -> L3_b6_cbr2_bn_top (in-place)
I0817 16:28:01.631978 17538 layer_factory.hpp:77] Creating layer L3_b6_cbr2_scale
I0817 16:28:01.632138 17538 net.cpp:150] Setting up L3_b6_cbr2_scale
I0817 16:28:01.632153 17538 net.cpp:157] Top shape: 125 64 8 8 (512000)
I0817 16:28:01.632158 17538 net.cpp:165] Memory required for data: 1378817500
I0817 16:28:01.632166 17538 layer_factory.hpp:77] Creating layer L3_b6_sum_eltwise
I0817 16:28:01.632179 17538 net.cpp:100] Creating Layer L3_b6_sum_eltwise
I0817 16:28:01.632185 17538 net.cpp:434] L3_b6_sum_eltwise <- L3_b6_cbr2_bn_top
I0817 16:28:01.632192 17538 net.cpp:434] L3_b6_sum_eltwise <- L3_b5_sum_eltwise_top_L3_b5_relu_0_split_1
I0817 16:28:01.632200 17538 net.cpp:408] L3_b6_sum_eltwise -> L3_b6_sum_eltwise_top
I0817 16:28:01.632239 17538 net.cpp:150] Setting up L3_b6_sum_eltwise
I0817 16:28:01.632252 17538 net.cpp:157] Top shape: 125 64 8 8 (512000)
I0817 16:28:01.632256 17538 net.cpp:165] Memory required for data: 1380865500
I0817 16:28:01.632262 17538 layer_factory.hpp:77] Creating layer L3_b6_relu
I0817 16:28:01.632269 17538 net.cpp:100] Creating Layer L3_b6_relu
I0817 16:28:01.632275 17538 net.cpp:434] L3_b6_relu <- L3_b6_sum_eltwise_top
I0817 16:28:01.632289 17538 net.cpp:395] L3_b6_relu -> L3_b6_sum_eltwise_top (in-place)
I0817 16:28:01.632300 17538 net.cpp:150] Setting up L3_b6_relu
I0817 16:28:01.632308 17538 net.cpp:157] Top shape: 125 64 8 8 (512000)
I0817 16:28:01.632313 17538 net.cpp:165] Memory required for data: 1382913500
I0817 16:28:01.632318 17538 layer_factory.hpp:77] Creating layer L3_b6_sum_eltwise_top_L3_b6_relu_0_split
I0817 16:28:01.632324 17538 net.cpp:100] Creating Layer L3_b6_sum_eltwise_top_L3_b6_relu_0_split
I0817 16:28:01.632330 17538 net.cpp:434] L3_b6_sum_eltwise_top_L3_b6_relu_0_split <- L3_b6_sum_eltwise_top
I0817 16:28:01.632340 17538 net.cpp:408] L3_b6_sum_eltwise_top_L3_b6_relu_0_split -> L3_b6_sum_eltwise_top_L3_b6_relu_0_split_0
I0817 16:28:01.632350 17538 net.cpp:408] L3_b6_sum_eltwise_top_L3_b6_relu_0_split -> L3_b6_sum_eltwise_top_L3_b6_relu_0_split_1
I0817 16:28:01.632396 17538 net.cpp:150] Setting up L3_b6_sum_eltwise_top_L3_b6_relu_0_split
I0817 16:28:01.632407 17538 net.cpp:157] Top shape: 125 64 8 8 (512000)
I0817 16:28:01.632414 17538 net.cpp:157] Top shape: 125 64 8 8 (512000)
I0817 16:28:01.632419 17538 net.cpp:165] Memory required for data: 1387009500
I0817 16:28:01.632424 17538 layer_factory.hpp:77] Creating layer L3_b7_cbr1_conv
I0817 16:28:01.632439 17538 net.cpp:100] Creating Layer L3_b7_cbr1_conv
I0817 16:28:01.632447 17538 net.cpp:434] L3_b7_cbr1_conv <- L3_b6_sum_eltwise_top_L3_b6_relu_0_split_0
I0817 16:28:01.632455 17538 net.cpp:408] L3_b7_cbr1_conv -> L3_b7_cbr1_conv_top
I0817 16:28:01.633476 17538 net.cpp:150] Setting up L3_b7_cbr1_conv
I0817 16:28:01.633491 17538 net.cpp:157] Top shape: 125 64 8 8 (512000)
I0817 16:28:01.633496 17538 net.cpp:165] Memory required for data: 1389057500
I0817 16:28:01.633505 17538 layer_factory.hpp:77] Creating layer L3_b7_cbr1_bn
I0817 16:28:01.633517 17538 net.cpp:100] Creating Layer L3_b7_cbr1_bn
I0817 16:28:01.633524 17538 net.cpp:434] L3_b7_cbr1_bn <- L3_b7_cbr1_conv_top
I0817 16:28:01.633533 17538 net.cpp:408] L3_b7_cbr1_bn -> L3_b7_cbr1_bn_top
I0817 16:28:01.633792 17538 net.cpp:150] Setting up L3_b7_cbr1_bn
I0817 16:28:01.633806 17538 net.cpp:157] Top shape: 125 64 8 8 (512000)
I0817 16:28:01.633811 17538 net.cpp:165] Memory required for data: 1391105500
I0817 16:28:01.633821 17538 layer_factory.hpp:77] Creating layer L3_b7_cbr1_scale
I0817 16:28:01.633833 17538 net.cpp:100] Creating Layer L3_b7_cbr1_scale
I0817 16:28:01.633841 17538 net.cpp:434] L3_b7_cbr1_scale <- L3_b7_cbr1_bn_top
I0817 16:28:01.633847 17538 net.cpp:395] L3_b7_cbr1_scale -> L3_b7_cbr1_bn_top (in-place)
I0817 16:28:01.633906 17538 layer_factory.hpp:77] Creating layer L3_b7_cbr1_scale
I0817 16:28:01.634060 17538 net.cpp:150] Setting up L3_b7_cbr1_scale
I0817 16:28:01.634073 17538 net.cpp:157] Top shape: 125 64 8 8 (512000)
I0817 16:28:01.634078 17538 net.cpp:165] Memory required for data: 1393153500
I0817 16:28:01.634088 17538 layer_factory.hpp:77] Creating layer L3_b7_cbr1_relu
I0817 16:28:01.634126 17538 net.cpp:100] Creating Layer L3_b7_cbr1_relu
I0817 16:28:01.634137 17538 net.cpp:434] L3_b7_cbr1_relu <- L3_b7_cbr1_bn_top
I0817 16:28:01.634145 17538 net.cpp:395] L3_b7_cbr1_relu -> L3_b7_cbr1_bn_top (in-place)
I0817 16:28:01.634155 17538 net.cpp:150] Setting up L3_b7_cbr1_relu
I0817 16:28:01.634163 17538 net.cpp:157] Top shape: 125 64 8 8 (512000)
I0817 16:28:01.634168 17538 net.cpp:165] Memory required for data: 1395201500
I0817 16:28:01.634174 17538 layer_factory.hpp:77] Creating layer L3_b7_cbr2_conv
I0817 16:28:01.634186 17538 net.cpp:100] Creating Layer L3_b7_cbr2_conv
I0817 16:28:01.634191 17538 net.cpp:434] L3_b7_cbr2_conv <- L3_b7_cbr1_bn_top
I0817 16:28:01.634201 17538 net.cpp:408] L3_b7_cbr2_conv -> L3_b7_cbr2_conv_top
I0817 16:28:01.635227 17538 net.cpp:150] Setting up L3_b7_cbr2_conv
I0817 16:28:01.635242 17538 net.cpp:157] Top shape: 125 64 8 8 (512000)
I0817 16:28:01.635248 17538 net.cpp:165] Memory required for data: 1397249500
I0817 16:28:01.635257 17538 layer_factory.hpp:77] Creating layer L3_b7_cbr2_bn
I0817 16:28:01.635269 17538 net.cpp:100] Creating Layer L3_b7_cbr2_bn
I0817 16:28:01.635283 17538 net.cpp:434] L3_b7_cbr2_bn <- L3_b7_cbr2_conv_top
I0817 16:28:01.635293 17538 net.cpp:408] L3_b7_cbr2_bn -> L3_b7_cbr2_bn_top
I0817 16:28:01.635553 17538 net.cpp:150] Setting up L3_b7_cbr2_bn
I0817 16:28:01.635566 17538 net.cpp:157] Top shape: 125 64 8 8 (512000)
I0817 16:28:01.635571 17538 net.cpp:165] Memory required for data: 1399297500
I0817 16:28:01.635582 17538 layer_factory.hpp:77] Creating layer L3_b7_cbr2_scale
I0817 16:28:01.635594 17538 net.cpp:100] Creating Layer L3_b7_cbr2_scale
I0817 16:28:01.635601 17538 net.cpp:434] L3_b7_cbr2_scale <- L3_b7_cbr2_bn_top
I0817 16:28:01.635608 17538 net.cpp:395] L3_b7_cbr2_scale -> L3_b7_cbr2_bn_top (in-place)
I0817 16:28:01.635668 17538 layer_factory.hpp:77] Creating layer L3_b7_cbr2_scale
I0817 16:28:01.635823 17538 net.cpp:150] Setting up L3_b7_cbr2_scale
I0817 16:28:01.635836 17538 net.cpp:157] Top shape: 125 64 8 8 (512000)
I0817 16:28:01.635841 17538 net.cpp:165] Memory required for data: 1401345500
I0817 16:28:01.635851 17538 layer_factory.hpp:77] Creating layer L3_b7_sum_eltwise
I0817 16:28:01.635864 17538 net.cpp:100] Creating Layer L3_b7_sum_eltwise
I0817 16:28:01.635871 17538 net.cpp:434] L3_b7_sum_eltwise <- L3_b7_cbr2_bn_top
I0817 16:28:01.635879 17538 net.cpp:434] L3_b7_sum_eltwise <- L3_b6_sum_eltwise_top_L3_b6_relu_0_split_1
I0817 16:28:01.635886 17538 net.cpp:408] L3_b7_sum_eltwise -> L3_b7_sum_eltwise_top
I0817 16:28:01.635922 17538 net.cpp:150] Setting up L3_b7_sum_eltwise
I0817 16:28:01.635934 17538 net.cpp:157] Top shape: 125 64 8 8 (512000)
I0817 16:28:01.635939 17538 net.cpp:165] Memory required for data: 1403393500
I0817 16:28:01.635944 17538 layer_factory.hpp:77] Creating layer L3_b7_relu
I0817 16:28:01.635952 17538 net.cpp:100] Creating Layer L3_b7_relu
I0817 16:28:01.635958 17538 net.cpp:434] L3_b7_relu <- L3_b7_sum_eltwise_top
I0817 16:28:01.635968 17538 net.cpp:395] L3_b7_relu -> L3_b7_sum_eltwise_top (in-place)
I0817 16:28:01.635978 17538 net.cpp:150] Setting up L3_b7_relu
I0817 16:28:01.635985 17538 net.cpp:157] Top shape: 125 64 8 8 (512000)
I0817 16:28:01.635990 17538 net.cpp:165] Memory required for data: 1405441500
I0817 16:28:01.635995 17538 layer_factory.hpp:77] Creating layer L3_b7_sum_eltwise_top_L3_b7_relu_0_split
I0817 16:28:01.636003 17538 net.cpp:100] Creating Layer L3_b7_sum_eltwise_top_L3_b7_relu_0_split
I0817 16:28:01.636008 17538 net.cpp:434] L3_b7_sum_eltwise_top_L3_b7_relu_0_split <- L3_b7_sum_eltwise_top
I0817 16:28:01.636015 17538 net.cpp:408] L3_b7_sum_eltwise_top_L3_b7_relu_0_split -> L3_b7_sum_eltwise_top_L3_b7_relu_0_split_0
I0817 16:28:01.636024 17538 net.cpp:408] L3_b7_sum_eltwise_top_L3_b7_relu_0_split -> L3_b7_sum_eltwise_top_L3_b7_relu_0_split_1
I0817 16:28:01.636073 17538 net.cpp:150] Setting up L3_b7_sum_eltwise_top_L3_b7_relu_0_split
I0817 16:28:01.636085 17538 net.cpp:157] Top shape: 125 64 8 8 (512000)
I0817 16:28:01.636092 17538 net.cpp:157] Top shape: 125 64 8 8 (512000)
I0817 16:28:01.636097 17538 net.cpp:165] Memory required for data: 1409537500
I0817 16:28:01.636107 17538 layer_factory.hpp:77] Creating layer L3_b8_cbr1_conv
I0817 16:28:01.636123 17538 net.cpp:100] Creating Layer L3_b8_cbr1_conv
I0817 16:28:01.636131 17538 net.cpp:434] L3_b8_cbr1_conv <- L3_b7_sum_eltwise_top_L3_b7_relu_0_split_0
I0817 16:28:01.636139 17538 net.cpp:408] L3_b8_cbr1_conv -> L3_b8_cbr1_conv_top
I0817 16:28:01.637152 17538 net.cpp:150] Setting up L3_b8_cbr1_conv
I0817 16:28:01.637167 17538 net.cpp:157] Top shape: 125 64 8 8 (512000)
I0817 16:28:01.637172 17538 net.cpp:165] Memory required for data: 1411585500
I0817 16:28:01.637181 17538 layer_factory.hpp:77] Creating layer L3_b8_cbr1_bn
I0817 16:28:01.637193 17538 net.cpp:100] Creating Layer L3_b8_cbr1_bn
I0817 16:28:01.637200 17538 net.cpp:434] L3_b8_cbr1_bn <- L3_b8_cbr1_conv_top
I0817 16:28:01.637208 17538 net.cpp:408] L3_b8_cbr1_bn -> L3_b8_cbr1_bn_top
I0817 16:28:01.637477 17538 net.cpp:150] Setting up L3_b8_cbr1_bn
I0817 16:28:01.637490 17538 net.cpp:157] Top shape: 125 64 8 8 (512000)
I0817 16:28:01.637496 17538 net.cpp:165] Memory required for data: 1413633500
I0817 16:28:01.637513 17538 layer_factory.hpp:77] Creating layer L3_b8_cbr1_scale
I0817 16:28:01.637523 17538 net.cpp:100] Creating Layer L3_b8_cbr1_scale
I0817 16:28:01.637529 17538 net.cpp:434] L3_b8_cbr1_scale <- L3_b8_cbr1_bn_top
I0817 16:28:01.637537 17538 net.cpp:395] L3_b8_cbr1_scale -> L3_b8_cbr1_bn_top (in-place)
I0817 16:28:01.637598 17538 layer_factory.hpp:77] Creating layer L3_b8_cbr1_scale
I0817 16:28:01.637753 17538 net.cpp:150] Setting up L3_b8_cbr1_scale
I0817 16:28:01.637766 17538 net.cpp:157] Top shape: 125 64 8 8 (512000)
I0817 16:28:01.637771 17538 net.cpp:165] Memory required for data: 1415681500
I0817 16:28:01.637781 17538 layer_factory.hpp:77] Creating layer L3_b8_cbr1_relu
I0817 16:28:01.637789 17538 net.cpp:100] Creating Layer L3_b8_cbr1_relu
I0817 16:28:01.637795 17538 net.cpp:434] L3_b8_cbr1_relu <- L3_b8_cbr1_bn_top
I0817 16:28:01.637802 17538 net.cpp:395] L3_b8_cbr1_relu -> L3_b8_cbr1_bn_top (in-place)
I0817 16:28:01.637815 17538 net.cpp:150] Setting up L3_b8_cbr1_relu
I0817 16:28:01.637823 17538 net.cpp:157] Top shape: 125 64 8 8 (512000)
I0817 16:28:01.637827 17538 net.cpp:165] Memory required for data: 1417729500
I0817 16:28:01.637832 17538 layer_factory.hpp:77] Creating layer L3_b8_cbr2_conv
I0817 16:28:01.637845 17538 net.cpp:100] Creating Layer L3_b8_cbr2_conv
I0817 16:28:01.637850 17538 net.cpp:434] L3_b8_cbr2_conv <- L3_b8_cbr1_bn_top
I0817 16:28:01.637861 17538 net.cpp:408] L3_b8_cbr2_conv -> L3_b8_cbr2_conv_top
I0817 16:28:01.638880 17538 net.cpp:150] Setting up L3_b8_cbr2_conv
I0817 16:28:01.638895 17538 net.cpp:157] Top shape: 125 64 8 8 (512000)
I0817 16:28:01.638900 17538 net.cpp:165] Memory required for data: 1419777500
I0817 16:28:01.638909 17538 layer_factory.hpp:77] Creating layer L3_b8_cbr2_bn
I0817 16:28:01.638921 17538 net.cpp:100] Creating Layer L3_b8_cbr2_bn
I0817 16:28:01.638928 17538 net.cpp:434] L3_b8_cbr2_bn <- L3_b8_cbr2_conv_top
I0817 16:28:01.638937 17538 net.cpp:408] L3_b8_cbr2_bn -> L3_b8_cbr2_bn_top
I0817 16:28:01.639204 17538 net.cpp:150] Setting up L3_b8_cbr2_bn
I0817 16:28:01.639219 17538 net.cpp:157] Top shape: 125 64 8 8 (512000)
I0817 16:28:01.639223 17538 net.cpp:165] Memory required for data: 1421825500
I0817 16:28:01.639235 17538 layer_factory.hpp:77] Creating layer L3_b8_cbr2_scale
I0817 16:28:01.639246 17538 net.cpp:100] Creating Layer L3_b8_cbr2_scale
I0817 16:28:01.639252 17538 net.cpp:434] L3_b8_cbr2_scale <- L3_b8_cbr2_bn_top
I0817 16:28:01.639261 17538 net.cpp:395] L3_b8_cbr2_scale -> L3_b8_cbr2_bn_top (in-place)
I0817 16:28:01.639319 17538 layer_factory.hpp:77] Creating layer L3_b8_cbr2_scale
I0817 16:28:01.639477 17538 net.cpp:150] Setting up L3_b8_cbr2_scale
I0817 16:28:01.639492 17538 net.cpp:157] Top shape: 125 64 8 8 (512000)
I0817 16:28:01.639497 17538 net.cpp:165] Memory required for data: 1423873500
I0817 16:28:01.639505 17538 layer_factory.hpp:77] Creating layer L3_b8_sum_eltwise
I0817 16:28:01.639518 17538 net.cpp:100] Creating Layer L3_b8_sum_eltwise
I0817 16:28:01.639524 17538 net.cpp:434] L3_b8_sum_eltwise <- L3_b8_cbr2_bn_top
I0817 16:28:01.639531 17538 net.cpp:434] L3_b8_sum_eltwise <- L3_b7_sum_eltwise_top_L3_b7_relu_0_split_1
I0817 16:28:01.639541 17538 net.cpp:408] L3_b8_sum_eltwise -> L3_b8_sum_eltwise_top
I0817 16:28:01.639575 17538 net.cpp:150] Setting up L3_b8_sum_eltwise
I0817 16:28:01.639586 17538 net.cpp:157] Top shape: 125 64 8 8 (512000)
I0817 16:28:01.639591 17538 net.cpp:165] Memory required for data: 1425921500
I0817 16:28:01.639596 17538 layer_factory.hpp:77] Creating layer L3_b8_relu
I0817 16:28:01.639607 17538 net.cpp:100] Creating Layer L3_b8_relu
I0817 16:28:01.639613 17538 net.cpp:434] L3_b8_relu <- L3_b8_sum_eltwise_top
I0817 16:28:01.639621 17538 net.cpp:395] L3_b8_relu -> L3_b8_sum_eltwise_top (in-place)
I0817 16:28:01.639631 17538 net.cpp:150] Setting up L3_b8_relu
I0817 16:28:01.639637 17538 net.cpp:157] Top shape: 125 64 8 8 (512000)
I0817 16:28:01.639642 17538 net.cpp:165] Memory required for data: 1427969500
I0817 16:28:01.639647 17538 layer_factory.hpp:77] Creating layer L3_b8_sum_eltwise_top_L3_b8_relu_0_split
I0817 16:28:01.639662 17538 net.cpp:100] Creating Layer L3_b8_sum_eltwise_top_L3_b8_relu_0_split
I0817 16:28:01.639667 17538 net.cpp:434] L3_b8_sum_eltwise_top_L3_b8_relu_0_split <- L3_b8_sum_eltwise_top
I0817 16:28:01.639675 17538 net.cpp:408] L3_b8_sum_eltwise_top_L3_b8_relu_0_split -> L3_b8_sum_eltwise_top_L3_b8_relu_0_split_0
I0817 16:28:01.639685 17538 net.cpp:408] L3_b8_sum_eltwise_top_L3_b8_relu_0_split -> L3_b8_sum_eltwise_top_L3_b8_relu_0_split_1
I0817 16:28:01.639734 17538 net.cpp:150] Setting up L3_b8_sum_eltwise_top_L3_b8_relu_0_split
I0817 16:28:01.639746 17538 net.cpp:157] Top shape: 125 64 8 8 (512000)
I0817 16:28:01.639753 17538 net.cpp:157] Top shape: 125 64 8 8 (512000)
I0817 16:28:01.639758 17538 net.cpp:165] Memory required for data: 1432065500
I0817 16:28:01.639763 17538 layer_factory.hpp:77] Creating layer L3_b9_cbr1_conv
I0817 16:28:01.639778 17538 net.cpp:100] Creating Layer L3_b9_cbr1_conv
I0817 16:28:01.639786 17538 net.cpp:434] L3_b9_cbr1_conv <- L3_b8_sum_eltwise_top_L3_b8_relu_0_split_0
I0817 16:28:01.639794 17538 net.cpp:408] L3_b9_cbr1_conv -> L3_b9_cbr1_conv_top
I0817 16:28:01.641892 17538 net.cpp:150] Setting up L3_b9_cbr1_conv
I0817 16:28:01.641911 17538 net.cpp:157] Top shape: 125 64 8 8 (512000)
I0817 16:28:01.641918 17538 net.cpp:165] Memory required for data: 1434113500
I0817 16:28:01.641928 17538 layer_factory.hpp:77] Creating layer L3_b9_cbr1_bn
I0817 16:28:01.641942 17538 net.cpp:100] Creating Layer L3_b9_cbr1_bn
I0817 16:28:01.641949 17538 net.cpp:434] L3_b9_cbr1_bn <- L3_b9_cbr1_conv_top
I0817 16:28:01.641958 17538 net.cpp:408] L3_b9_cbr1_bn -> L3_b9_cbr1_bn_top
I0817 16:28:01.642254 17538 net.cpp:150] Setting up L3_b9_cbr1_bn
I0817 16:28:01.642271 17538 net.cpp:157] Top shape: 125 64 8 8 (512000)
I0817 16:28:01.642276 17538 net.cpp:165] Memory required for data: 1436161500
I0817 16:28:01.642287 17538 layer_factory.hpp:77] Creating layer L3_b9_cbr1_scale
I0817 16:28:01.642298 17538 net.cpp:100] Creating Layer L3_b9_cbr1_scale
I0817 16:28:01.642305 17538 net.cpp:434] L3_b9_cbr1_scale <- L3_b9_cbr1_bn_top
I0817 16:28:01.642316 17538 net.cpp:395] L3_b9_cbr1_scale -> L3_b9_cbr1_bn_top (in-place)
I0817 16:28:01.642383 17538 layer_factory.hpp:77] Creating layer L3_b9_cbr1_scale
I0817 16:28:01.642575 17538 net.cpp:150] Setting up L3_b9_cbr1_scale
I0817 16:28:01.642590 17538 net.cpp:157] Top shape: 125 64 8 8 (512000)
I0817 16:28:01.642596 17538 net.cpp:165] Memory required for data: 1438209500
I0817 16:28:01.642606 17538 layer_factory.hpp:77] Creating layer L3_b9_cbr1_relu
I0817 16:28:01.642628 17538 net.cpp:100] Creating Layer L3_b9_cbr1_relu
I0817 16:28:01.642638 17538 net.cpp:434] L3_b9_cbr1_relu <- L3_b9_cbr1_bn_top
I0817 16:28:01.642650 17538 net.cpp:395] L3_b9_cbr1_relu -> L3_b9_cbr1_bn_top (in-place)
I0817 16:28:01.642662 17538 net.cpp:150] Setting up L3_b9_cbr1_relu
I0817 16:28:01.642669 17538 net.cpp:157] Top shape: 125 64 8 8 (512000)
I0817 16:28:01.642674 17538 net.cpp:165] Memory required for data: 1440257500
I0817 16:28:01.642679 17538 layer_factory.hpp:77] Creating layer L3_b9_cbr2_conv
I0817 16:28:01.642693 17538 net.cpp:100] Creating Layer L3_b9_cbr2_conv
I0817 16:28:01.642704 17538 net.cpp:434] L3_b9_cbr2_conv <- L3_b9_cbr1_bn_top
I0817 16:28:01.642712 17538 net.cpp:408] L3_b9_cbr2_conv -> L3_b9_cbr2_conv_top
I0817 16:28:01.643841 17538 net.cpp:150] Setting up L3_b9_cbr2_conv
I0817 16:28:01.643857 17538 net.cpp:157] Top shape: 125 64 8 8 (512000)
I0817 16:28:01.643877 17538 net.cpp:165] Memory required for data: 1442305500
I0817 16:28:01.643888 17538 layer_factory.hpp:77] Creating layer L3_b9_cbr2_bn
I0817 16:28:01.643901 17538 net.cpp:100] Creating Layer L3_b9_cbr2_bn
I0817 16:28:01.643909 17538 net.cpp:434] L3_b9_cbr2_bn <- L3_b9_cbr2_conv_top
I0817 16:28:01.643918 17538 net.cpp:408] L3_b9_cbr2_bn -> L3_b9_cbr2_bn_top
I0817 16:28:01.644245 17538 net.cpp:150] Setting up L3_b9_cbr2_bn
I0817 16:28:01.644260 17538 net.cpp:157] Top shape: 125 64 8 8 (512000)
I0817 16:28:01.644265 17538 net.cpp:165] Memory required for data: 1444353500
I0817 16:28:01.644292 17538 layer_factory.hpp:77] Creating layer L3_b9_cbr2_scale
I0817 16:28:01.644304 17538 net.cpp:100] Creating Layer L3_b9_cbr2_scale
I0817 16:28:01.644309 17538 net.cpp:434] L3_b9_cbr2_scale <- L3_b9_cbr2_bn_top
I0817 16:28:01.644317 17538 net.cpp:395] L3_b9_cbr2_scale -> L3_b9_cbr2_bn_top (in-place)
I0817 16:28:01.644379 17538 layer_factory.hpp:77] Creating layer L3_b9_cbr2_scale
I0817 16:28:01.644533 17538 net.cpp:150] Setting up L3_b9_cbr2_scale
I0817 16:28:01.644547 17538 net.cpp:157] Top shape: 125 64 8 8 (512000)
I0817 16:28:01.644552 17538 net.cpp:165] Memory required for data: 1446401500
I0817 16:28:01.644562 17538 layer_factory.hpp:77] Creating layer L3_b9_sum_eltwise
I0817 16:28:01.644572 17538 net.cpp:100] Creating Layer L3_b9_sum_eltwise
I0817 16:28:01.644577 17538 net.cpp:434] L3_b9_sum_eltwise <- L3_b9_cbr2_bn_top
I0817 16:28:01.644584 17538 net.cpp:434] L3_b9_sum_eltwise <- L3_b8_sum_eltwise_top_L3_b8_relu_0_split_1
I0817 16:28:01.644595 17538 net.cpp:408] L3_b9_sum_eltwise -> L3_b9_sum_eltwise_top
I0817 16:28:01.644629 17538 net.cpp:150] Setting up L3_b9_sum_eltwise
I0817 16:28:01.644644 17538 net.cpp:157] Top shape: 125 64 8 8 (512000)
I0817 16:28:01.644649 17538 net.cpp:165] Memory required for data: 1448449500
I0817 16:28:01.644654 17538 layer_factory.hpp:77] Creating layer L3_b9_relu
I0817 16:28:01.644664 17538 net.cpp:100] Creating Layer L3_b9_relu
I0817 16:28:01.644668 17538 net.cpp:434] L3_b9_relu <- L3_b9_sum_eltwise_top
I0817 16:28:01.644676 17538 net.cpp:395] L3_b9_relu -> L3_b9_sum_eltwise_top (in-place)
I0817 16:28:01.644685 17538 net.cpp:150] Setting up L3_b9_relu
I0817 16:28:01.644692 17538 net.cpp:157] Top shape: 125 64 8 8 (512000)
I0817 16:28:01.644697 17538 net.cpp:165] Memory required for data: 1450497500
I0817 16:28:01.644702 17538 layer_factory.hpp:77] Creating layer post_pool
I0817 16:28:01.644713 17538 net.cpp:100] Creating Layer post_pool
I0817 16:28:01.644719 17538 net.cpp:434] post_pool <- L3_b9_sum_eltwise_top
I0817 16:28:01.644727 17538 net.cpp:408] post_pool -> post_pool
I0817 16:28:01.644762 17538 net.cpp:150] Setting up post_pool
I0817 16:28:01.644770 17538 net.cpp:157] Top shape: 125 64 1 1 (8000)
I0817 16:28:01.644775 17538 net.cpp:165] Memory required for data: 1450529500
I0817 16:28:01.644780 17538 layer_factory.hpp:77] Creating layer post_FC
I0817 16:28:01.644865 17538 net.cpp:100] Creating Layer post_FC
I0817 16:28:01.644879 17538 net.cpp:434] post_FC <- post_pool
I0817 16:28:01.644894 17538 net.cpp:408] post_FC -> post_FC_top
I0817 16:28:01.645148 17538 net.cpp:150] Setting up post_FC
I0817 16:28:01.645164 17538 net.cpp:157] Top shape: 125 10 (1250)
I0817 16:28:01.645170 17538 net.cpp:165] Memory required for data: 1450534500
I0817 16:28:01.645179 17538 layer_factory.hpp:77] Creating layer post_FC_top_post_FC_0_split
I0817 16:28:01.645189 17538 net.cpp:100] Creating Layer post_FC_top_post_FC_0_split
I0817 16:28:01.645195 17538 net.cpp:434] post_FC_top_post_FC_0_split <- post_FC_top
I0817 16:28:01.645205 17538 net.cpp:408] post_FC_top_post_FC_0_split -> post_FC_top_post_FC_0_split_0
I0817 16:28:01.645216 17538 net.cpp:408] post_FC_top_post_FC_0_split -> post_FC_top_post_FC_0_split_1
I0817 16:28:01.645267 17538 net.cpp:150] Setting up post_FC_top_post_FC_0_split
I0817 16:28:01.645278 17538 net.cpp:157] Top shape: 125 10 (1250)
I0817 16:28:01.645285 17538 net.cpp:157] Top shape: 125 10 (1250)
I0817 16:28:01.645290 17538 net.cpp:165] Memory required for data: 1450544500
I0817 16:28:01.645295 17538 layer_factory.hpp:77] Creating layer accuracy
I0817 16:28:01.645339 17538 net.cpp:100] Creating Layer accuracy
I0817 16:28:01.645349 17538 net.cpp:434] accuracy <- post_FC_top_post_FC_0_split_0
I0817 16:28:01.645357 17538 net.cpp:434] accuracy <- label_dataLayer_1_split_0
I0817 16:28:01.645365 17538 net.cpp:408] accuracy -> accuracy
…
