…
I0817 16:27:31.403009 17344 net.cpp:322] The NetState phase (0) differed from the phase (1) specified by a rule in layer L3_b9_cbr2_bn
I0817 16:27:31.404763 17344 net.cpp:58] Initializing net from parameters: 
name: "Cifar-Resnet"
state {
  phase: TRAIN
  level: 0
  stage: ""
}
layer {
  name: "dataLayer"
  type: "Data"
  top: "data_top"
  top: "label"
  include {
    phase: TRAIN
  }
  transform_param {
    mirror: true
    crop_size: 32
    mean_file: "examples/cifar10/mean.binaryproto"
  }
  data_param {
    source: "examples/cifar10/cifar10_train_lmdb"
    batch_size: 125
    backend: LMDB
  }
  image_data_param {
    shuffle: true
  }
}
layer {
  name: "pre_conv"
  type: "Convolution"
  bottom: "data_top"
  top: "pre_conv_top"
  param {
    lr_mult: 1
    decay_mult: 1
  }
  param {
    lr_mult: 2
    decay_mult: 0
  }
  convolution_param {
    num_output: 16
    pad: 1
    kernel_size: 3
    stride: 1
    weight_filler {
      type: "msra"
    }
    bias_filler {
      type: "constant"
    }
  }
}
layer {
  name: "pre_bn"
  type: "BatchNorm"
  bottom: "pre_conv_top"
  top: "pre_bn_top"
  include {
    phase: TRAIN
  }
  batch_norm_param {
    use_global_stats: false
    moving_average_fraction: 0.999
  }
}
layer {
  name: "pre_scale"
  type: "Scale"
  bottom: "pre_bn_top"
  top: "pre_bn_top"
  scale_param {
    bias_term: true
  }
}
layer {
  name: "pre_relu"
  type: "ReLU"
  bottom: "pre_bn_top"
  top: "pre_bn_top"
}
layer {
  name: "L1_b1_cbr1_conv"
  type: "Convolution"
  bottom: "pre_bn_top"
  top: "L1_b1_cbr1_conv_top"
  param {
    lr_mult: 1
    decay_mult: 1
  }
  param {
    lr_mult: 2
    decay_mult: 0
  }
  convolution_param {
    num_output: 16
    pad: 1
    kernel_size: 3
    stride: 1
    weight_filler {
      type: "msra"
    }
    bias_filler {
      type: "constant"
    }
  }
}
layer {
  name: "L1_b1_cbr1_bn"
  type: "BatchNorm"
  bottom: "L1_b1_cbr1_conv_top"
  top: "L1_b1_cbr1_bn_top"
  include {
    phase: TRAIN
  }
  batch_norm_param {
    use_global_stats: false
    moving_average_fraction: 0.999
  }
}
layer {
  name: "L1_b1_cbr1_scale"
  type: "Scale"
  bottom: "L1_b1_cbr1_bn_top"
  top: "L1_b1_cbr1_bn_top"
  scale_param {
    bias_term: true
  }
}
layer {
  name: "L1_b1_cbr1_relu"
  type: "ReLU"
  bottom: "L1_b1_cbr1_bn_top"
  top: "L1_b1_cbr1_bn_top"
}
layer {
  name: "L1_b1_cbr2_conv"
  type: "Convolution"
  bottom: "L1_b1_cbr1_bn_top"
  top: "L1_b1_cbr2_conv_top"
  param {
    lr_mult: 1
    decay_mult: 1
  }
  param {
    lr_mult: 2
    decay_mult: 0
  }
  convolution_param {
    num_output: 16
    pad: 1
    kernel_size: 3
    stride: 1
    weight_filler {
      type: "msra"
    }
    bias_filler {
      type: "constant"
    }
  }
}
layer {
  name: "L1_b1_cbr2_bn"
  type: "BatchNorm"
  bottom: "L1_b1_cbr2_conv_top"
  top: "L1_b1_cbr2_bn_top"
  include {
    phase: TRAIN
  }
  batch_norm_param {
    use_global_stats: false
    moving_average_fraction: 0.999
  }
}
layer {
  name: "L1_b1_cbr2_scale"
  type: "Scale"
  bottom: "L1_b1_cbr2_bn_top"
  top: "L1_b1_cbr2_bn_top"
  scale_param {
    bias_term: true
  }
}
layer {
  name: "L1_b1_sum_eltwise"
  type: "Eltwise"
  bottom: "L1_b1_cbr2_bn_top"
  bottom: "pre_bn_top"
  top: "L1_b1_sum_eltwise_top"
  eltwise_param {
    operation: SUM
  }
}
layer {
  name: "L1_b1_relu"
  type: "ReLU"
  bottom: "L1_b1_sum_eltwise_top"
  top: "L1_b1_sum_eltwise_top"
}
layer {
  name: "L1_b2_cbr1_conv"
  type: "Convolution"
  bottom: "L1_b1_sum_eltwise_top"
  top: "L1_b2_cbr1_conv_top"
  param {
    lr_mult: 1
    decay_mult: 1
  }
  param {
    lr_mult: 2
    decay_mult: 0
  }
  convolution_param {
    num_output: 16
    pad: 1
    kernel_size: 3
    stride: 1
    weight_filler {
      type: "msra"
    }
    bias_filler {
      type: "constant"
    }
  }
}
layer {
  name: "L1_b2_cbr1_bn"
  type: "BatchNorm"
  bottom: "L1_b2_cbr1_conv_top"
  top: "L1_b2_cbr1_bn_top"
  include {
    phase: TRAIN
  }
  batch_norm_param {
    use_global_stats: false
    moving_average_fraction: 0.999
  }
}
layer {
  name: "L1_b2_cbr1_scale"
  type: "Scale"
  bottom: "L1_b2_cbr1_bn_top"
  top: "L1_b2_cbr1_bn_top"
  scale_param {
    bias_term: true
  }
}
layer {
  name: "L1_b2_cbr1_relu"
  type: "ReLU"
  bottom: "L1_b2_cbr1_bn_top"
  top: "L1_b2_cbr1_bn_top"
}
layer {
  name: "L1_b2_cbr2_conv"
  type: "Convolution"
  bottom: "L1_b2_cbr1_bn_top"
  top: "L1_b2_cbr2_conv_top"
  param {
    lr_mult: 1
    decay_mult: 1
  }
  param {
    lr_mult: 2
    decay_mult: 0
  }
  convolution_param {
    num_output: 16
    pad: 1
    kernel_size: 3
    stride: 1
    weight_filler {
      type: "msra"
    }
    bias_filler {
      type: "constant"
    }
  }
}
layer {
  name: "L1_b2_cbr2_bn"
  type: "BatchNorm"
  bottom: "L1_b2_cbr2_conv_top"
  top: "L1_b2_cbr2_bn_top"
  include {
    phase: TRAIN
  }
  batch_norm_param {
    use_global_stats: false
    moving_average_fraction: 0.999
  }
}
layer {
  name: "L1_b2_cbr2_scale"
  type: "Scale"
  bottom: "L1_b2_cbr2_bn_top"
  top: "L1_b2_cbr2_bn_top"
  scale_param {
    bias_term: true
  }
}
layer {
  name: "L1_b2_sum_eltwise"
  type: "Eltwise"
  bottom: "L1_b2_cbr2_bn_top"
  bottom: "L1_b1_sum_eltwise_top"
  top: "L1_b2_sum_eltwise_top"
  eltwise_param {
    operation: SUM
  }
}
layer {
  name: "L1_b2_relu"
  type: "ReLU"
  bottom: "L1_b2_sum_eltwise_top"
  top: "L1_b2_sum_eltwise_top"
}
layer {
  name: "L1_b3_cbr1_conv"
  type: "Convolution"
  bottom: "L1_b2_sum_eltwise_top"
  top: "L1_b3_cbr1_conv_top"
  param {
    lr_mult: 1
    decay_mult: 1
  }
  param {
    lr_mult: 2
    decay_mult: 0
  }
  convolution_param {
    num_output: 16
    pad: 1
    kernel_size: 3
    stride: 1
    weight_filler {
      type: "msra"
    }
    bias_filler {
      type: "constant"
    }
  }
}
layer {
  name: "L1_b3_cbr1_bn"
  type: "BatchNorm"
  bottom: "L1_b3_cbr1_conv_top"
  top: "L1_b3_cbr1_bn_top"
  include {
    phase: TRAIN
  }
  batch_norm_param {
    use_global_stats: false
    moving_average_fraction: 0.999
  }
}
layer {
  name: "L1_b3_cbr1_scale"
  type: "Scale"
  bottom: "L1_b3_cbr1_bn_top"
  top: "L1_b3_cbr1_bn_top"
  scale_param {
    bias_term: true
  }
}
layer {
  name: "L1_b3_cbr1_relu"
  type: "ReLU"
  bottom: "L1_b3_cbr1_bn_top"
  top: "L1_b3_cbr1_bn_top"
}
layer {
  name: "L1_b3_cbr2_conv"
  type: "Convolution"
  bottom: "L1_b3_cbr1_bn_top"
  top: "L1_b3_cbr2_conv_top"
  param {
    lr_mult: 1
    decay_mult: 1
  }
  param {
    lr_mult: 2
    decay_mult: 0
  }
  convolution_param {
    num_output: 16
    pad: 1
    kernel_size: 3
    stride: 1
    weight_filler {
      type: "msra"
    }
    bias_filler {
      type: "constant"
    }
  }
}
layer {
  name: "L1_b3_cbr2_bn"
  type: "BatchNorm"
  bottom: "L1_b3_cbr2_conv_top"
  top: "L1_b3_cbr2_bn_top"
  include {
    phase: TRAIN
  }
  batch_norm_param {
    use_global_stats: false
    moving_average_fraction: 0.999
  }
}
layer {
  name: "L1_b3_cbr2_scale"
  type: "Scale"
  bottom: "L1_b3_cbr2_bn_top"
  top: "L1_b3_cbr2_bn_top"
  scale_param {
    bias_term: true
  }
}
layer {
  name: "L1_b3_sum_eltwise"
  type: "Eltwise"
  bottom: "L1_b3_cbr2_bn_top"
  bottom: "L1_b2_sum_eltwise_top"
  top: "L1_b3_sum_eltwise_top"
  eltwise_param {
    operation: SUM
  }
}
layer {
  name: "L1_b3_relu"
  type: "ReLU"
  bottom: "L1_b3_sum_eltwise_top"
  top: "L1_b3_sum_eltwise_top"
}
layer {
  name: "L1_b4_cbr1_conv"
  type: "Convolution"
  bottom: "L1_b3_sum_eltwise_top"
  top: "L1_b4_cbr1_conv_top"
  param {
    lr_mult: 1
    decay_mult: 1
  }
  param {
    lr_mult: 2
    decay_mult: 0
  }
  convolution_param {
    num_output: 16
    pad: 1
    kernel_size: 3
    stride: 1
    weight_filler {
      type: "msra"
    }
    bias_filler {
      type: "constant"
    }
  }
}
layer {
  name: "L1_b4_cbr1_bn"
  type: "BatchNorm"
  bottom: "L1_b4_cbr1_conv_top"
  top: "L1_b4_cbr1_bn_top"
  include {
    phase: TRAIN
  }
  batch_norm_param {
    use_global_stats: false
    moving_average_fraction: 0.999
  }
}
layer {
  name: "L1_b4_cbr1_scale"
  type: "Scale"
  bottom: "L1_b4_cbr1_bn_top"
  top: "L1_b4_cbr1_bn_top"
  scale_param {
    bias_term: true
  }
}
layer {
  name: "L1_b4_cbr1_relu"
  type: "ReLU"
  bottom: "L1_b4_cbr1_bn_top"
  top: "L1_b4_cbr1_bn_top"
}
layer {
  name: "L1_b4_cbr2_conv"
  type: "Convolution"
  bottom: "L1_b4_cbr1_bn_top"
  top: "L1_b4_cbr2_conv_top"
  param {
    lr_mult: 1
    decay_mult: 1
  }
  param {
    lr_mult: 2
    decay_mult: 0
  }
  convolution_param {
    num_output: 16
    pad: 1
    kernel_size: 3
    stride: 1
    weight_filler {
      type: "msra"
    }
    bias_filler {
      type: "constant"
    }
  }
}
layer {
  name: "L1_b4_cbr2_bn"
  type: "BatchNorm"
  bottom: "L1_b4_cbr2_conv_top"
  top: "L1_b4_cbr2_bn_top"
  include {
    phase: TRAIN
  }
  batch_norm_param {
    use_global_stats: false
    moving_average_fraction: 0.999
  }
}
layer {
  name: "L1_b4_cbr2_scale"
  type: "Scale"
  bottom: "L1_b4_cbr2_bn_top"
  top: "L1_b4_cbr2_bn_top"
  scale_param {
    bias_term: true
  }
}
layer {
  name: "L1_b4_sum_eltwise"
  type: "Eltwise"
  bottom: "L1_b4_cbr2_bn_top"
  bottom: "L1_b3_sum_eltwise_top"
  top: "L1_b4_sum_eltwise_top"
  eltwise_param {
    operation: SUM
  }
}
layer {
  name: "L1_b4_relu"
  type: "ReLU"
  bottom: "L1_b4_sum_eltwise_top"
  top: "L1_b4_sum_eltwise_top"
}
layer {
  name: "L1_b5_cbr1_conv"
  type: "Convolution"
  bottom: "L1_b4_sum_eltwise_top"
  top: "L1_b5_cbr1_conv_top"
  param {
    lr_mult: 1
    decay_mult: 1
  }
  param {
    lr_mult: 2
    decay_mult: 0
  }
  convolution_param {
    num_output: 16
    pad: 1
    kernel_size: 3
    stride: 1
    weight_filler {
      type: "msra"
    }
    bias_filler {
      type: "constant"
    }
  }
}
layer {
  name: "L1_b5_cbr1_bn"
  type: "BatchNorm"
  bottom: "L1_b5_cbr1_conv_top"
  top: "L1_b5_cbr1_bn_top"
  include {
    phase: TRAIN
  }
  batch_norm_param {
    use_global_stats: false
    moving_average_fraction: 0.999
  }
}
layer {
  name: "L1_b5_cbr1_scale"
  type: "Scale"
  bottom: "L1_b5_cbr1_bn_top"
  top: "L1_b5_cbr1_bn_top"
  scale_param {
    bias_term: true
  }
}
layer {
  name: "L1_b5_cbr1_relu"
  type: "ReLU"
  bottom: "L1_b5_cbr1_bn_top"
  top: "L1_b5_cbr1_bn_top"
}
layer {
  name: "L1_b5_cbr2_conv"
  type: "Convolution"
  bottom: "L1_b5_cbr1_bn_top"
  top: "L1_b5_cbr2_conv_top"
  param {
    lr_mult: 1
    decay_mult: 1
  }
  param {
    lr_mult: 2
    decay_mult: 0
  }
  convolution_param {
    num_output: 16
    pad: 1
    kernel_size: 3
    stride: 1
    weight_filler {
      type: "msra"
    }
    bias_filler {
      type: "constant"
    }
  }
}
layer {
  name: "L1_b5_cbr2_bn"
  type: "BatchNorm"
  bottom: "L1_b5_cbr2_conv_top"
  top: "L1_b5_cbr2_bn_top"
  include {
    phase: TRAIN
  }
  batch_norm_param {
    use_global_stats: false
    moving_average_fraction: 0.999
  }
}
layer {
  name: "L1_b5_cbr2_scale"
  type: "Scale"
  bottom: "L1_b5_cbr2_bn_top"
  top: "L1_b5_cbr2_bn_top"
  scale_param {
    bias_term: true
  }
}
layer {
  name: "L1_b5_sum_eltwise"
  type: "Eltwise"
  bottom: "L1_b5_cbr2_bn_top"
  bottom: "L1_b4_sum_eltwise_top"
  top: "L1_b5_sum_eltwise_top"
  eltwise_param {
    operation: SUM
  }
}
layer {
  name: "L1_b5_relu"
  type: "ReLU"
  bottom: "L1_b5_sum_eltwise_top"
  top: "L1_b5_sum_eltwise_top"
}
layer {
  name: "L1_b6_cbr1_conv"
  type: "Convolution"
  bottom: "L1_b5_sum_eltwise_top"
  top: "L1_b6_cbr1_conv_top"
  param {
    lr_mult: 1
    decay_mult: 1
  }
  param {
    lr_mult: 2
    decay_mult: 0
  }
  convolution_param {
    num_output: 16
    pad: 1
    kernel_size: 3
    stride: 1
    weight_filler {
      type: "msra"
    }
    bias_filler {
      type: "constant"
    }
  }
}
layer {
  name: "L1_b6_cbr1_bn"
  type: "BatchNorm"
  bottom: "L1_b6_cbr1_conv_top"
  top: "L1_b6_cbr1_bn_top"
  include {
    phase: TRAIN
  }
  batch_norm_param {
    use_global_stats: false
    moving_average_fraction: 0.999
  }
}
layer {
  name: "L1_b6_cbr1_scale"
  type: "Scale"
  bottom: "L1_b6_cbr1_bn_top"
  top: "L1_b6_cbr1_bn_top"
  scale_param {
    bias_term: true
  }
}
layer {
  name: "L1_b6_cbr1_relu"
  type: "ReLU"
  bottom: "L1_b6_cbr1_bn_top"
  top: "L1_b6_cbr1_bn_top"
}
layer {
  name: "L1_b6_cbr2_conv"
  type: "Convolution"
  bottom: "L1_b6_cbr1_bn_top"
  top: "L1_b6_cbr2_conv_top"
  param {
    lr_mult: 1
    decay_mult: 1
  }
  param {
    lr_mult: 2
    decay_mult: 0
  }
  convolution_param {
    num_output: 16
    pad: 1
    kernel_size: 3
    stride: 1
    weight_filler {
      type: "msra"
    }
    bias_filler {
      type: "constant"
    }
  }
}
layer {
  name: "L1_b6_cbr2_bn"
  type: "BatchNorm"
  bottom: "L1_b6_cbr2_conv_top"
  top: "L1_b6_cbr2_bn_top"
  include {
    phase: TRAIN
  }
  batch_norm_param {
    use_global_stats: false
    moving_average_fraction: 0.999
  }
}
layer {
  name: "L1_b6_cbr2_scale"
  type: "Scale"
  bottom: "L1_b6_cbr2_bn_top"
  top: "L1_b6_cbr2_bn_top"
  scale_param {
    bias_term: true
  }
}
layer {
  name: "L1_b6_sum_eltwise"
  type: "Eltwise"
  bottom: "L1_b6_cbr2_bn_top"
  bottom: "L1_b5_sum_eltwise_top"
  top: "L1_b6_sum_eltwise_top"
  eltwise_param {
    operation: SUM
  }
}
layer {
  name: "L1_b6_relu"
  type: "ReLU"
  bottom: "L1_b6_sum_eltwise_top"
  top: "L1_b6_sum_eltwise_top"
}
layer {
  name: "L1_b7_cbr1_conv"
  type: "Convolution"
  bottom: "L1_b6_sum_eltwise_top"
  top: "L1_b7_cbr1_conv_top"
  param {
    lr_mult: 1
    decay_mult: 1
  }
  param {
    lr_mult: 2
    decay_mult: 0
  }
  convolution_param {
    num_output: 16
    pad: 1
    kernel_size: 3
    stride: 1
    weight_filler {
      type: "msra"
    }
    bias_filler {
      type: "constant"
    }
  }
}
layer {
  name: "L1_b7_cbr1_bn"
  type: "BatchNorm"
  bottom: "L1_b7_cbr1_conv_top"
  top: "L1_b7_cbr1_bn_top"
  include {
    phase: TRAIN
  }
  batch_norm_param {
    use_global_stats: false
    moving_average_fraction: 0.999
  }
}
layer {
  name: "L1_b7_cbr1_scale"
  type: "Scale"
  bottom: "L1_b7_cbr1_bn_top"
  top: "L1_b7_cbr1_bn_top"
  scale_param {
    bias_term: true
  }
}
layer {
  name: "L1_b7_cbr1_relu"
  type: "ReLU"
  bottom: "L1_b7_cbr1_bn_top"
  top: "L1_b7_cbr1_bn_top"
}
layer {
  name: "L1_b7_cbr2_conv"
  type: "Convolution"
  bottom: "L1_b7_cbr1_bn_top"
  top: "L1_b7_cbr2_conv_top"
  param {
    lr_mult: 1
    decay_mult: 1
  }
  param {
    lr_mult: 2
    decay_mult: 0
  }
  convolution_param {
    num_output: 16
    pad: 1
    kernel_size: 3
    stride: 1
    weight_filler {
      type: "msra"
    }
    bias_filler {
      type: "constant"
    }
  }
}
layer {
  name: "L1_b7_cbr2_bn"
  type: "BatchNorm"
  bottom: "L1_b7_cbr2_conv_top"
  top: "L1_b7_cbr2_bn_top"
  include {
    phase: TRAIN
  }
  batch_norm_param {
    use_global_stats: false
    moving_average_fraction: 0.999
  }
}
layer {
  name: "L1_b7_cbr2_scale"
  type: "Scale"
  bottom: "L1_b7_cbr2_bn_top"
  top: "L1_b7_cbr2_bn_top"
  scale_param {
    bias_term: true
  }
}
layer {
  name: "L1_b7_sum_eltwise"
  type: "Eltwise"
  bottom: "L1_b7_cbr2_bn_top"
  bottom: "L1_b6_sum_eltwise_top"
  top: "L1_b7_sum_eltwise_top"
  eltwise_param {
    operation: SUM
  }
}
layer {
  name: "L1_b7_relu"
  type: "ReLU"
  bottom: "L1_b7_sum_eltwise_top"
  top: "L1_b7_sum_eltwise_top"
}
layer {
  name: "L1_b8_cbr1_conv"
  type: "Convolution"
  bottom: "L1_b7_sum_eltwise_top"
  top: "L1_b8_cbr1_conv_top"
  param {
    lr_mult: 1
    decay_mult: 1
  }
  param {
    lr_mult: 2
    decay_mult: 0
  }
  convolution_param {
    num_output: 16
    pad: 1
    kernel_size: 3
    stride: 1
    weight_filler {
      type: "msra"
    }
    bias_filler {
      type: "constant"
    }
  }
}
layer {
  name: "L1_b8_cbr1_bn"
  type: "BatchNorm"
  bottom: "L1_b8_cbr1_conv_top"
  top: "L1_b8_cbr1_bn_top"
  include {
    phase: TRAIN
  }
  batch_norm_param {
    use_global_stats: false
    moving_average_fraction: 0.999
  }
}
layer {
  name: "L1_b8_cbr1_scale"
  type: "Scale"
  bottom: "L1_b8_cbr1_bn_top"
  top: "L1_b8_cbr1_bn_top"
  scale_param {
    bias_term: true
  }
}
layer {
  name: "L1_b8_cbr1_relu"
  type: "ReLU"
  bottom: "L1_b8_cbr1_bn_top"
  top: "L1_b8_cbr1_bn_top"
}
layer {
  name: "L1_b8_cbr2_conv"
  type: "Convolution"
  bottom: "L1_b8_cbr1_bn_top"
  top: "L1_b8_cbr2_conv_top"
  param {
    lr_mult: 1
    decay_mult: 1
  }
  param {
    lr_mult: 2
    decay_mult: 0
  }
  convolution_param {
    num_output: 16
    pad: 1
    kernel_size: 3
    stride: 1
    weight_filler {
      type: "msra"
    }
    bias_filler {
      type: "constant"
    }
  }
}
layer {
  name: "L1_b8_cbr2_bn"
  type: "BatchNorm"
  bottom: "L1_b8_cbr2_conv_top"
  top: "L1_b8_cbr2_bn_top"
  include {
    phase: TRAIN
  }
  batch_norm_param {
    use_global_stats: false
    moving_average_fraction: 0.999
  }
}
layer {
  name: "L1_b8_cbr2_scale"
  type: "Scale"
  bottom: "L1_b8_cbr2_bn_top"
  top: "L1_b8_cbr2_bn_top"
  scale_param {
    bias_term: true
  }
}
layer {
  name: "L1_b8_sum_eltwise"
  type: "Eltwise"
  bottom: "L1_b8_cbr2_bn_top"
  bottom: "L1_b7_sum_eltwise_top"
  top: "L1_b8_sum_eltwise_top"
  eltwise_param {
    operation: SUM
  }
}
layer {
  name: "L1_b8_relu"
  type: "ReLU"
  bottom: "L1_b8_sum_eltwise_top"
  top: "L1_b8_sum_eltwise_top"
}
layer {
  name: "L1_b9_cbr1_conv"
  type: "Convolution"
  bottom: "L1_b8_sum_eltwise_top"
  top: "L1_b9_cbr1_conv_top"
  param {
    lr_mult: 1
    decay_mult: 1
  }
  param {
    lr_mult: 2
    decay_mult: 0
  }
  convolution_param {
    num_output: 16
    pad: 1
    kernel_size: 3
    stride: 1
    weight_filler {
      type: "msra"
    }
    bias_filler {
      type: "constant"
    }
  }
}
layer {
  name: "L1_b9_cbr1_bn"
  type: "BatchNorm"
  bottom: "L1_b9_cbr1_conv_top"
  top: "L1_b9_cbr1_bn_top"
  include {
    phase: TRAIN
  }
  batch_norm_param {
    use_global_stats: false
    moving_average_fraction: 0.999
  }
}
layer {
  name: "L1_b9_cbr1_scale"
  type: "Scale"
  bottom: "L1_b9_cbr1_bn_top"
  top: "L1_b9_cbr1_bn_top"
  scale_param {
    bias_term: true
  }
}
layer {
  name: "L1_b9_cbr1_relu"
  type: "ReLU"
  bottom: "L1_b9_cbr1_bn_top"
  top: "L1_b9_cbr1_bn_top"
}
layer {
  name: "L1_b9_cbr2_conv"
  type: "Convolution"
  bottom: "L1_b9_cbr1_bn_top"
  top: "L1_b9_cbr2_conv_top"
  param {
    lr_mult: 1
    decay_mult: 1
  }
  param {
    lr_mult: 2
    decay_mult: 0
  }
  convolution_param {
    num_output: 16
    pad: 1
    kernel_size: 3
    stride: 1
    weight_filler {
      type: "msra"
    }
    bias_filler {
      type: "constant"
    }
  }
}
layer {
  name: "L1_b9_cbr2_bn"
  type: "BatchNorm"
  bottom: "L1_b9_cbr2_conv_top"
  top: "L1_b9_cbr2_bn_top"
  include {
    phase: TRAIN
  }
  batch_norm_param {
    use_global_stats: false
    moving_average_fraction: 0.999
  }
}
layer {
  name: "L1_b9_cbr2_scale"
  type: "Scale"
  bottom: "L1_b9_cbr2_bn_top"
  top: "L1_b9_cbr2_bn_top"
  scale_param {
    bias_term: true
  }
}
layer {
  name: "L1_b9_sum_eltwise"
  type: "Eltwise"
  bottom: "L1_b9_cbr2_bn_top"
  bottom: "L1_b8_sum_eltwise_top"
  top: "L1_b9_sum_eltwise_top"
  eltwise_param {
    operation: SUM
  }
}
layer {
  name: "L1_b9_relu"
  type: "ReLU"
  bottom: "L1_b9_sum_eltwise_top"
  top: "L1_b9_sum_eltwise_top"
}
layer {
  name: "L2_b1_cbr1_conv"
  type: "Convolution"
  bottom: "L1_b9_sum_eltwise_top"
  top: "L2_b1_cbr1_conv_top"
  param {
    lr_mult: 1
    decay_mult: 1
  }
  param {
    lr_mult: 2
    decay_mult: 0
  }
  convolution_param {
    num_output: 16
    pad: 1
    kernel_size: 3
    stride: 2
    weight_filler {
      type: "msra"
    }
    bias_filler {
      type: "constant"
    }
  }
}
layer {
  name: "L2_b1_cbr1_bn"
  type: "BatchNorm"
  bottom: "L2_b1_cbr1_conv_top"
  top: "L2_b1_cbr1_bn_top"
  include {
    phase: TRAIN
  }
  batch_norm_param {
    use_global_stats: false
    moving_average_fraction: 0.999
  }
}
layer {
  name: "L2_b1_cbr1_scale"
  type: "Scale"
  bottom: "L2_b1_cbr1_bn_top"
  top: "L2_b1_cbr1_bn_top"
  scale_param {
    bias_term: true
  }
}
layer {
  name: "L2_b1_cbr1_relu"
  type: "ReLU"
  bottom: "L2_b1_cbr1_bn_top"
  top: "L2_b1_cbr1_bn_top"
}
layer {
  name: "L2_b1_cbr2_conv"
  type: "Convolution"
  bottom: "L2_b1_cbr1_bn_top"
  top: "L2_b1_cbr2_conv_top"
  param {
    lr_mult: 1
    decay_mult: 1
  }
  param {
    lr_mult: 2
    decay_mult: 0
  }
  convolution_param {
    num_output: 16
    pad: 1
    kernel_size: 3
    stride: 1
    weight_filler {
      type: "msra"
    }
    bias_filler {
      type: "constant"
    }
  }
}
layer {
  name: "L2_b1_cbr2_bn"
  type: "BatchNorm"
  bottom: "L2_b1_cbr2_conv_top"
  top: "L2_b1_cbr2_bn_top"
  include {
    phase: TRAIN
  }
  batch_norm_param {
    use_global_stats: false
    moving_average_fraction: 0.999
  }
}
layer {
  name: "L2_b1_cbr2_scale"
  type: "Scale"
  bottom: "L2_b1_cbr2_bn_top"
  top: "L2_b1_cbr2_bn_top"
  scale_param {
    bias_term: true
  }
}
layer {
  name: "L2_b1_pool"
  type: "Pooling"
  bottom: "L1_b9_sum_eltwise_top"
  top: "L2_b1_pool"
  pooling_param {
    pool: AVE
    kernel_size: 3
    stride: 2
  }
}
layer {
  name: "L2_b1_sum_eltwise"
  type: "Eltwise"
  bottom: "L2_b1_cbr2_bn_top"
  bottom: "L2_b1_pool"
  top: "L2_b1_sum_eltwise_top"
  eltwise_param {
    operation: SUM
  }
}
layer {
  name: "L2_b1_relu"
  type: "ReLU"
  bottom: "L2_b1_sum_eltwise_top"
  top: "L2_b1_sum_eltwise_top"
}
layer {
  name: "L2_b1_zeros"
  type: "DummyData"
  top: "L2_b1_zeros"
  dummy_data_param {
    data_filler {
      type: "constant"
      value: 0
    }
    shape {
      dim: 125
      dim: 16
      dim: 16
      dim: 16
    }
  }
}
layer {
  name: "L2_b1_concat0"
  type: "Concat"
  bottom: "L2_b1_sum_eltwise_top"
  bottom: "L2_b1_zeros"
  top: "L2_b1_concat0"
  concat_param {
    axis: 1
  }
}
layer {
  name: "L2_b2_cbr1_conv"
  type: "Convolution"
  bottom: "L2_b1_concat0"
  top: "L2_b2_cbr1_conv_top"
  param {
    lr_mult: 1
    decay_mult: 1
  }
  param {
    lr_mult: 2
    decay_mult: 0
  }
  convolution_param {
    num_output: 32
    pad: 1
    kernel_size: 3
    stride: 1
    weight_filler {
      type: "msra"
    }
    bias_filler {
      type: "constant"
    }
  }
}
layer {
  name: "L2_b2_cbr1_bn"
  type: "BatchNorm"
  bottom: "L2_b2_cbr1_conv_top"
  top: "L2_b2_cbr1_bn_top"
  include {
    phase: TRAIN
  }
  batch_norm_param {
    use_global_stats: false
    moving_average_fraction: 0.999
  }
}
layer {
  name: "L2_b2_cbr1_scale"
  type: "Scale"
  bottom: "L2_b2_cbr1_bn_top"
  top: "L2_b2_cbr1_bn_top"
  scale_param {
    bias_term: true
  }
}
layer {
  name: "L2_b2_cbr1_relu"
  type: "ReLU"
  bottom: "L2_b2_cbr1_bn_top"
  top: "L2_b2_cbr1_bn_top"
}
layer {
  name: "L2_b2_cbr2_conv"
  type: "Convolution"
  bottom: "L2_b2_cbr1_bn_top"
  top: "L2_b2_cbr2_conv_top"
  param {
    lr_mult: 1
    decay_mult: 1
  }
  param {
    lr_mult: 2
    decay_mult: 0
  }
  convolution_param {
    num_output: 32
    pad: 1
    kernel_size: 3
    stride: 1
    weight_filler {
      type: "msra"
    }
    bias_filler {
      type: "constant"
    }
  }
}
layer {
  name: "L2_b2_cbr2_bn"
  type: "BatchNorm"
  bottom: "L2_b2_cbr2_conv_top"
  top: "L2_b2_cbr2_bn_top"
  include {
    phase: TRAIN
  }
  batch_norm_param {
    use_global_stats: false
    moving_average_fraction: 0.999
  }
}
layer {
  name: "L2_b2_cbr2_scale"
  type: "Scale"
  bottom: "L2_b2_cbr2_bn_top"
  top: "L2_b2_cbr2_bn_top"
  scale_param {
    bias_term: true
  }
}
layer {
  name: "L2_b2_sum_eltwise"
  type: "Eltwise"
  bottom: "L2_b2_cbr2_bn_top"
  bottom: "L2_b1_concat0"
  top: "L2_b2_sum_eltwise_top"
  eltwise_param {
    operation: SUM
  }
}
layer {
  name: "L2_b2_relu"
  type: "ReLU"
  bottom: "L2_b2_sum_eltwise_top"
  top: "L2_b2_sum_eltwise_top"
}
layer {
  name: "L2_b3_cbr1_conv"
  type: "Convolution"
  bottom: "L2_b2_sum_eltwise_top"
  top: "L2_b3_cbr1_conv_top"
  param {
    lr_mult: 1
    decay_mult: 1
  }
  param {
    lr_mult: 2
    decay_mult: 0
  }
  convolution_param {
    num_output: 32
    pad: 1
    kernel_size: 3
    stride: 1
    weight_filler {
      type: "msra"
    }
    bias_filler {
      type: "constant"
    }
  }
}
layer {
  name: "L2_b3_cbr1_bn"
  type: "BatchNorm"
  bottom: "L2_b3_cbr1_conv_top"
  top: "L2_b3_cbr1_bn_top"
  include {
    phase: TRAIN
  }
  batch_norm_param {
    use_global_stats: false
    moving_average_fraction: 0.999
  }
}
layer {
  name: "L2_b3_cbr1_scale"
  type: "Scale"
  bottom: "L2_b3_cbr1_bn_top"
  top: "L2_b3_cbr1_bn_top"
  scale_param {
    bias_term: true
  }
}
layer {
  name: "L2_b3_cbr1_relu"
  type: "ReLU"
  bottom: "L2_b3_cbr1_bn_top"
  top: "L2_b3_cbr1_bn_top"
}
layer {
  name: "L2_b3_cbr2_conv"
  type: "Convolution"
  bottom: "L2_b3_cbr1_bn_top"
  top: "L2_b3_cbr2_conv_top"
  param {
    lr_mult: 1
    decay_mult: 1
  }
  param {
    lr_mult: 2
    decay_mult: 0
  }
  convolution_param {
    num_output: 32
    pad: 1
    kernel_size: 3
    stride: 1
    weight_filler {
      type: "msra"
    }
    bias_filler {
      type: "constant"
    }
  }
}
layer {
  name: "L2_b3_cbr2_bn"
  type: "BatchNorm"
  bottom: "L2_b3_cbr2_conv_top"
  top: "L2_b3_cbr2_bn_top"
  include {
    phase: TRAIN
  }
  batch_norm_param {
    use_global_stats: false
    moving_average_fraction: 0.999
  }
}
layer {
  name: "L2_b3_cbr2_scale"
  type: "Scale"
  bottom: "L2_b3_cbr2_bn_top"
  top: "L2_b3_cbr2_bn_top"
  scale_param {
    bias_term: true
  }
}
layer {
  name: "L2_b3_sum_eltwise"
  type: "Eltwise"
  bottom: "L2_b3_cbr2_bn_top"
  bottom: "L2_b2_sum_eltwise_top"
  top: "L2_b3_sum_eltwise_top"
  eltwise_param {
    operation: SUM
  }
}
layer {
  name: "L2_b3_relu"
  type: "ReLU"
  bottom: "L2_b3_sum_eltwise_top"
  top: "L2_b3_sum_eltwise_top"
}
layer {
  name: "L2_b4_cbr1_conv"
  type: "Convolution"
  bottom: "L2_b3_sum_eltwise_top"
  top: "L2_b4_cbr1_conv_top"
  param {
    lr_mult: 1
    decay_mult: 1
  }
  param {
    lr_mult: 2
    decay_mult: 0
  }
  convolution_param {
    num_output: 32
    pad: 1
    kernel_size: 3
    stride: 1
    weight_filler {
      type: "msra"
    }
    bias_filler {
      type: "constant"
    }
  }
}
layer {
  name: "L2_b4_cbr1_bn"
  type: "BatchNorm"
  bottom: "L2_b4_cbr1_conv_top"
  top: "L2_b4_cbr1_bn_top"
  include {
    phase: TRAIN
  }
  batch_norm_param {
    use_global_stats: false
    moving_average_fraction: 0.999
  }
}
layer {
  name: "L2_b4_cbr1_scale"
  type: "Scale"
  bottom: "L2_b4_cbr1_bn_top"
  top: "L2_b4_cbr1_bn_top"
  scale_param {
    bias_term: true
  }
}
layer {
  name: "L2_b4_cbr1_relu"
  type: "ReLU"
  bottom: "L2_b4_cbr1_bn_top"
  top: "L2_b4_cbr1_bn_top"
}
layer {
  name: "L2_b4_cbr2_conv"
  type: "Convolution"
  bottom: "L2_b4_cbr1_bn_top"
  top: "L2_b4_cbr2_conv_top"
  param {
    lr_mult: 1
    decay_mult: 1
  }
  param {
    lr_mult: 2
    decay_mult: 0
  }
  convolution_param {
    num_output: 32
    pad: 1
    kernel_size: 3
    stride: 1
    weight_filler {
      type: "msra"
    }
    bias_filler {
      type: "constant"
    }
  }
}
layer {
  name: "L2_b4_cbr2_bn"
  type: "BatchNorm"
  bottom: "L2_b4_cbr2_conv_top"
  top: "L2_b4_cbr2_bn_top"
  include {
    phase: TRAIN
  }
  batch_norm_param {
    use_global_stats: false
    moving_average_fraction: 0.999
  }
}
layer {
  name: "L2_b4_cbr2_scale"
  type: "Scale"
  bottom: "L2_b4_cbr2_bn_top"
  top: "L2_b4_cbr2_bn_top"
  scale_param {
    bias_term: true
  }
}
layer {
  name: "L2_b4_sum_eltwise"
  type: "Eltwise"
  bottom: "L2_b4_cbr2_bn_top"
  bottom: "L2_b3_sum_eltwise_top"
  top: "L2_b4_sum_eltwise_top"
  eltwise_param {
    operation: SUM
  }
}
layer {
  name: "L2_b4_relu"
  type: "ReLU"
  bottom: "L2_b4_sum_eltwise_top"
  top: "L2_b4_sum_eltwise_top"
}
layer {
  name: "L2_b5_cbr1_conv"
  type: "Convolution"
  bottom: "L2_b4_sum_eltwise_top"
  top: "L2_b5_cbr1_conv_top"
  param {
    lr_mult: 1
    decay_mult: 1
  }
  param {
    lr_mult: 2
    decay_mult: 0
  }
  convolution_param {
    num_output: 32
    pad: 1
    kernel_size: 3
    stride: 1
    weight_filler {
      type: "msra"
    }
    bias_filler {
      type: "constant"
    }
  }
}
layer {
  name: "L2_b5_cbr1_bn"
  type: "BatchNorm"
  bottom: "L2_b5_cbr1_conv_top"
  top: "L2_b5_cbr1_bn_top"
  include {
    phase: TRAIN
  }
  batch_norm_param {
    use_global_stats: false
    moving_average_fraction: 0.999
  }
}
layer {
  name: "L2_b5_cbr1_scale"
  type: "Scale"
  bottom: "L2_b5_cbr1_bn_top"
  top: "L2_b5_cbr1_bn_top"
  scale_param {
    bias_term: true
  }
}
layer {
  name: "L2_b5_cbr1_relu"
  type: "ReLU"
  bottom: "L2_b5_cbr1_bn_top"
  top: "L2_b5_cbr1_bn_top"
}
layer {
  name: "L2_b5_cbr2_conv"
  type: "Convolution"
  bottom: "L2_b5_cbr1_bn_top"
  top: "L2_b5_cbr2_conv_top"
  param {
    lr_mult: 1
    decay_mult: 1
  }
  param {
    lr_mult: 2
    decay_mult: 0
  }
  convolution_param {
    num_output: 32
    pad: 1
    kernel_size: 3
    stride: 1
    weight_filler {
      type: "msra"
    }
    bias_filler {
      type: "constant"
    }
  }
}
layer {
  name: "L2_b5_cbr2_bn"
  type: "BatchNorm"
  bottom: "L2_b5_cbr2_conv_top"
  top: "L2_b5_cbr2_bn_top"
  include {
    phase: TRAIN
  }
  batch_norm_param {
    use_global_stats: false
    moving_average_fraction: 0.999
  }
}
layer {
  name: "L2_b5_cbr2_scale"
  type: "Scale"
  bottom: "L2_b5_cbr2_bn_top"
  top: "L2_b5_cbr2_bn_top"
  scale_param {
    bias_term: true
  }
}
layer {
  name: "L2_b5_sum_eltwise"
  type: "Eltwise"
  bottom: "L2_b5_cbr2_bn_top"
  bottom: "L2_b4_sum_eltwise_top"
  top: "L2_b5_sum_eltwise_top"
  eltwise_param {
    operation: SUM
  }
}
layer {
  name: "L2_b5_relu"
  type: "ReLU"
  bottom: "L2_b5_sum_eltwise_top"
  top: "L2_b5_sum_eltwise_top"
}
layer {
  name: "L2_b6_cbr1_conv"
  type: "Convolution"
  bottom: "L2_b5_sum_eltwise_top"
  top: "L2_b6_cbr1_conv_top"
  param {
    lr_mult: 1
    decay_mult: 1
  }
  param {
    lr_mult: 2
    decay_mult: 0
  }
  convolution_param {
    num_output: 32
    pad: 1
    kernel_size: 3
    stride: 1
    weight_filler {
      type: "msra"
    }
    bias_filler {
      type: "constant"
    }
  }
}
layer {
  name: "L2_b6_cbr1_bn"
  type: "BatchNorm"
  bottom: "L2_b6_cbr1_conv_top"
  top: "L2_b6_cbr1_bn_top"
  include {
    phase: TRAIN
  }
  batch_norm_param {
    use_global_stats: false
    moving_average_fraction: 0.999
I0817 16:27:31.406841 17344 layer_factory.hpp:77] Creating layer dataLayer
I0817 16:27:31.408052 17344 net.cpp:100] Creating Layer dataLayer
I0817 16:27:31.408125 17344 net.cpp:408] dataLayer -> data_top
I0817 16:27:31.408318 17344 net.cpp:408] dataLayer -> label
I0817 16:27:31.408433 17344 data_transformer.cpp:25] Loading mean file from: examples/cifar10/mean.binaryproto
I0817 16:27:31.418701 17349 db_lmdb.cpp:35] Opened lmdb examples/cifar10/cifar10_train_lmdb
I0817 16:27:31.440558 17344 data_layer.cpp:41] output data size: 125,3,32,32
I0817 16:27:31.447453 17344 net.cpp:150] Setting up dataLayer
I0817 16:27:31.447515 17344 net.cpp:157] Top shape: 125 3 32 32 (384000)
I0817 16:27:31.447527 17344 net.cpp:157] Top shape: 125 (125)
I0817 16:27:31.447533 17344 net.cpp:165] Memory required for data: 1536500
I0817 16:27:31.447549 17344 layer_factory.hpp:77] Creating layer label_dataLayer_1_split
I0817 16:27:31.447563 17344 net.cpp:100] Creating Layer label_dataLayer_1_split
I0817 16:27:31.447572 17344 net.cpp:434] label_dataLayer_1_split <- label
I0817 16:27:31.447590 17344 net.cpp:408] label_dataLayer_1_split -> label_dataLayer_1_split_0
I0817 16:27:31.447605 17344 net.cpp:408] label_dataLayer_1_split -> label_dataLayer_1_split_1
I0817 16:27:31.447692 17344 net.cpp:150] Setting up label_dataLayer_1_split
I0817 16:27:31.447705 17344 net.cpp:157] Top shape: 125 (125)
I0817 16:27:31.447712 17344 net.cpp:157] Top shape: 125 (125)
I0817 16:27:31.447717 17344 net.cpp:165] Memory required for data: 1537500
I0817 16:27:31.447722 17344 layer_factory.hpp:77] Creating layer pre_conv
I0817 16:27:31.447784 17344 net.cpp:100] Creating Layer pre_conv
I0817 16:27:31.447798 17344 net.cpp:434] pre_conv <- data_top
I0817 16:27:31.447818 17344 net.cpp:408] pre_conv -> pre_conv_top
I0817 16:27:31.449592 17344 net.cpp:150] Setting up pre_conv
I0817 16:27:31.449614 17344 net.cpp:157] Top shape: 125 16 32 32 (2048000)
I0817 16:27:31.449620 17344 net.cpp:165] Memory required for data: 9729500
I0817 16:27:31.449681 17344 layer_factory.hpp:77] Creating layer pre_bn
I0817 16:27:31.449749 17344 net.cpp:100] Creating Layer pre_bn
I0817 16:27:31.449761 17344 net.cpp:434] pre_bn <- pre_conv_top
I0817 16:27:31.449770 17344 net.cpp:408] pre_bn -> pre_bn_top
I0817 16:27:31.449916 17350 blocking_queue.cpp:50] Waiting for data
I0817 16:27:31.450100 17344 net.cpp:150] Setting up pre_bn
I0817 16:27:31.450119 17344 net.cpp:157] Top shape: 125 16 32 32 (2048000)
I0817 16:27:31.450124 17344 net.cpp:165] Memory required for data: 17921500
I0817 16:27:31.450141 17344 layer_factory.hpp:77] Creating layer pre_scale
I0817 16:27:31.450187 17344 net.cpp:100] Creating Layer pre_scale
I0817 16:27:31.450196 17344 net.cpp:434] pre_scale <- pre_bn_top
I0817 16:27:31.450206 17344 net.cpp:395] pre_scale -> pre_bn_top (in-place)
I0817 16:27:31.450366 17344 layer_factory.hpp:77] Creating layer pre_scale
I0817 16:27:31.450613 17344 net.cpp:150] Setting up pre_scale
I0817 16:27:31.450628 17344 net.cpp:157] Top shape: 125 16 32 32 (2048000)
I0817 16:27:31.450634 17344 net.cpp:165] Memory required for data: 26113500
I0817 16:27:31.450644 17344 layer_factory.hpp:77] Creating layer pre_relu
I0817 16:27:31.450686 17344 net.cpp:100] Creating Layer pre_relu
I0817 16:27:31.450697 17344 net.cpp:434] pre_relu <- pre_bn_top
I0817 16:27:31.450709 17344 net.cpp:395] pre_relu -> pre_bn_top (in-place)
I0817 16:27:31.450721 17344 net.cpp:150] Setting up pre_relu
I0817 16:27:31.450728 17344 net.cpp:157] Top shape: 125 16 32 32 (2048000)
I0817 16:27:31.450732 17344 net.cpp:165] Memory required for data: 34305500
I0817 16:27:31.450737 17344 layer_factory.hpp:77] Creating layer pre_bn_top_pre_relu_0_split
I0817 16:27:31.450744 17344 net.cpp:100] Creating Layer pre_bn_top_pre_relu_0_split
I0817 16:27:31.450749 17344 net.cpp:434] pre_bn_top_pre_relu_0_split <- pre_bn_top
I0817 16:27:31.450759 17344 net.cpp:408] pre_bn_top_pre_relu_0_split -> pre_bn_top_pre_relu_0_split_0
I0817 16:27:31.450769 17344 net.cpp:408] pre_bn_top_pre_relu_0_split -> pre_bn_top_pre_relu_0_split_1
I0817 16:27:31.450822 17344 net.cpp:150] Setting up pre_bn_top_pre_relu_0_split
I0817 16:27:31.450834 17344 net.cpp:157] Top shape: 125 16 32 32 (2048000)
I0817 16:27:31.450841 17344 net.cpp:157] Top shape: 125 16 32 32 (2048000)
I0817 16:27:31.450845 17344 net.cpp:165] Memory required for data: 50689500
I0817 16:27:31.450850 17344 layer_factory.hpp:77] Creating layer L1_b1_cbr1_conv
I0817 16:27:31.450866 17344 net.cpp:100] Creating Layer L1_b1_cbr1_conv
I0817 16:27:31.450872 17344 net.cpp:434] L1_b1_cbr1_conv <- pre_bn_top_pre_relu_0_split_0
I0817 16:27:31.450881 17344 net.cpp:408] L1_b1_cbr1_conv -> L1_b1_cbr1_conv_top
I0817 16:27:31.451189 17344 net.cpp:150] Setting up L1_b1_cbr1_conv
I0817 16:27:31.451203 17344 net.cpp:157] Top shape: 125 16 32 32 (2048000)
I0817 16:27:31.451208 17344 net.cpp:165] Memory required for data: 58881500
I0817 16:27:31.451220 17344 layer_factory.hpp:77] Creating layer L1_b1_cbr1_bn
I0817 16:27:31.451234 17344 net.cpp:100] Creating Layer L1_b1_cbr1_bn
I0817 16:27:31.451241 17344 net.cpp:434] L1_b1_cbr1_bn <- L1_b1_cbr1_conv_top
I0817 16:27:31.451249 17344 net.cpp:408] L1_b1_cbr1_bn -> L1_b1_cbr1_bn_top
I0817 16:27:31.451474 17344 net.cpp:150] Setting up L1_b1_cbr1_bn
I0817 16:27:31.451488 17344 net.cpp:157] Top shape: 125 16 32 32 (2048000)
I0817 16:27:31.451493 17344 net.cpp:165] Memory required for data: 67073500
I0817 16:27:31.451503 17344 layer_factory.hpp:77] Creating layer L1_b1_cbr1_scale
I0817 16:27:31.451515 17344 net.cpp:100] Creating Layer L1_b1_cbr1_scale
I0817 16:27:31.451520 17344 net.cpp:434] L1_b1_cbr1_scale <- L1_b1_cbr1_bn_top
I0817 16:27:31.451529 17344 net.cpp:395] L1_b1_cbr1_scale -> L1_b1_cbr1_bn_top (in-place)
I0817 16:27:31.451584 17344 layer_factory.hpp:77] Creating layer L1_b1_cbr1_scale
I0817 16:27:31.451721 17344 net.cpp:150] Setting up L1_b1_cbr1_scale
I0817 16:27:31.451735 17344 net.cpp:157] Top shape: 125 16 32 32 (2048000)
I0817 16:27:31.451740 17344 net.cpp:165] Memory required for data: 75265500
I0817 16:27:31.451748 17344 layer_factory.hpp:77] Creating layer L1_b1_cbr1_relu
I0817 16:27:31.451764 17344 net.cpp:100] Creating Layer L1_b1_cbr1_relu
I0817 16:27:31.451771 17344 net.cpp:434] L1_b1_cbr1_relu <- L1_b1_cbr1_bn_top
I0817 16:27:31.451781 17344 net.cpp:395] L1_b1_cbr1_relu -> L1_b1_cbr1_bn_top (in-place)
I0817 16:27:31.451791 17344 net.cpp:150] Setting up L1_b1_cbr1_relu
I0817 16:27:31.451797 17344 net.cpp:157] Top shape: 125 16 32 32 (2048000)
I0817 16:27:31.451808 17344 net.cpp:165] Memory required for data: 83457500
I0817 16:27:31.451814 17344 layer_factory.hpp:77] Creating layer L1_b1_cbr2_conv
I0817 16:27:31.451830 17344 net.cpp:100] Creating Layer L1_b1_cbr2_conv
I0817 16:27:31.451836 17344 net.cpp:434] L1_b1_cbr2_conv <- L1_b1_cbr1_bn_top
I0817 16:27:31.451845 17344 net.cpp:408] L1_b1_cbr2_conv -> L1_b1_cbr2_conv_top
I0817 16:27:31.452159 17344 net.cpp:150] Setting up L1_b1_cbr2_conv
I0817 16:27:31.452174 17344 net.cpp:157] Top shape: 125 16 32 32 (2048000)
I0817 16:27:31.452179 17344 net.cpp:165] Memory required for data: 91649500
I0817 16:27:31.452188 17344 layer_factory.hpp:77] Creating layer L1_b1_cbr2_bn
I0817 16:27:31.452200 17344 net.cpp:100] Creating Layer L1_b1_cbr2_bn
I0817 16:27:31.452205 17344 net.cpp:434] L1_b1_cbr2_bn <- L1_b1_cbr2_conv_top
I0817 16:27:31.452214 17344 net.cpp:408] L1_b1_cbr2_bn -> L1_b1_cbr2_bn_top
I0817 16:27:31.452440 17344 net.cpp:150] Setting up L1_b1_cbr2_bn
I0817 16:27:31.452453 17344 net.cpp:157] Top shape: 125 16 32 32 (2048000)
I0817 16:27:31.452458 17344 net.cpp:165] Memory required for data: 99841500
I0817 16:27:31.452472 17344 layer_factory.hpp:77] Creating layer L1_b1_cbr2_scale
I0817 16:27:31.452484 17344 net.cpp:100] Creating Layer L1_b1_cbr2_scale
I0817 16:27:31.452489 17344 net.cpp:434] L1_b1_cbr2_scale <- L1_b1_cbr2_bn_top
I0817 16:27:31.452497 17344 net.cpp:395] L1_b1_cbr2_scale -> L1_b1_cbr2_bn_top (in-place)
I0817 16:27:31.452551 17344 layer_factory.hpp:77] Creating layer L1_b1_cbr2_scale
I0817 16:27:31.452687 17344 net.cpp:150] Setting up L1_b1_cbr2_scale
I0817 16:27:31.452700 17344 net.cpp:157] Top shape: 125 16 32 32 (2048000)
I0817 16:27:31.452705 17344 net.cpp:165] Memory required for data: 108033500
I0817 16:27:31.452714 17344 layer_factory.hpp:77] Creating layer L1_b1_sum_eltwise
I0817 16:27:31.452764 17344 net.cpp:100] Creating Layer L1_b1_sum_eltwise
I0817 16:27:31.452775 17344 net.cpp:434] L1_b1_sum_eltwise <- L1_b1_cbr2_bn_top
I0817 16:27:31.452786 17344 net.cpp:434] L1_b1_sum_eltwise <- pre_bn_top_pre_relu_0_split_1
I0817 16:27:31.452795 17344 net.cpp:408] L1_b1_sum_eltwise -> L1_b1_sum_eltwise_top
I0817 16:27:31.452883 17344 net.cpp:150] Setting up L1_b1_sum_eltwise
I0817 16:27:31.452899 17344 net.cpp:157] Top shape: 125 16 32 32 (2048000)
I0817 16:27:31.452904 17344 net.cpp:165] Memory required for data: 116225500
I0817 16:27:31.452910 17344 layer_factory.hpp:77] Creating layer L1_b1_relu
I0817 16:27:31.452919 17344 net.cpp:100] Creating Layer L1_b1_relu
I0817 16:27:31.452924 17344 net.cpp:434] L1_b1_relu <- L1_b1_sum_eltwise_top
I0817 16:27:31.452935 17344 net.cpp:395] L1_b1_relu -> L1_b1_sum_eltwise_top (in-place)
I0817 16:27:31.452944 17344 net.cpp:150] Setting up L1_b1_relu
I0817 16:27:31.452951 17344 net.cpp:157] Top shape: 125 16 32 32 (2048000)
I0817 16:27:31.452956 17344 net.cpp:165] Memory required for data: 124417500
I0817 16:27:31.452961 17344 layer_factory.hpp:77] Creating layer L1_b1_sum_eltwise_top_L1_b1_relu_0_split
I0817 16:27:31.452971 17344 net.cpp:100] Creating Layer L1_b1_sum_eltwise_top_L1_b1_relu_0_split
I0817 16:27:31.452976 17344 net.cpp:434] L1_b1_sum_eltwise_top_L1_b1_relu_0_split <- L1_b1_sum_eltwise_top
I0817 16:27:31.452983 17344 net.cpp:408] L1_b1_sum_eltwise_top_L1_b1_relu_0_split -> L1_b1_sum_eltwise_top_L1_b1_relu_0_split_0
I0817 16:27:31.452992 17344 net.cpp:408] L1_b1_sum_eltwise_top_L1_b1_relu_0_split -> L1_b1_sum_eltwise_top_L1_b1_relu_0_split_1
I0817 16:27:31.453038 17344 net.cpp:150] Setting up L1_b1_sum_eltwise_top_L1_b1_relu_0_split
I0817 16:27:31.453050 17344 net.cpp:157] Top shape: 125 16 32 32 (2048000)
I0817 16:27:31.453057 17344 net.cpp:157] Top shape: 125 16 32 32 (2048000)
I0817 16:27:31.453068 17344 net.cpp:165] Memory required for data: 140801500
I0817 16:27:31.453074 17344 layer_factory.hpp:77] Creating layer L1_b2_cbr1_conv
I0817 16:27:31.453085 17344 net.cpp:100] Creating Layer L1_b2_cbr1_conv
I0817 16:27:31.453091 17344 net.cpp:434] L1_b2_cbr1_conv <- L1_b1_sum_eltwise_top_L1_b1_relu_0_split_0
I0817 16:27:31.453104 17344 net.cpp:408] L1_b2_cbr1_conv -> L1_b2_cbr1_conv_top
I0817 16:27:31.453403 17344 net.cpp:150] Setting up L1_b2_cbr1_conv
I0817 16:27:31.453418 17344 net.cpp:157] Top shape: 125 16 32 32 (2048000)
I0817 16:27:31.453423 17344 net.cpp:165] Memory required for data: 148993500
I0817 16:27:31.453431 17344 layer_factory.hpp:77] Creating layer L1_b2_cbr1_bn
I0817 16:27:31.453440 17344 net.cpp:100] Creating Layer L1_b2_cbr1_bn
I0817 16:27:31.453446 17344 net.cpp:434] L1_b2_cbr1_bn <- L1_b2_cbr1_conv_top
I0817 16:27:31.453459 17344 net.cpp:408] L1_b2_cbr1_bn -> L1_b2_cbr1_bn_top
I0817 16:27:31.453694 17344 net.cpp:150] Setting up L1_b2_cbr1_bn
I0817 16:27:31.453709 17344 net.cpp:157] Top shape: 125 16 32 32 (2048000)
I0817 16:27:31.453714 17344 net.cpp:165] Memory required for data: 157185500
I0817 16:27:31.453725 17344 layer_factory.hpp:77] Creating layer L1_b2_cbr1_scale
I0817 16:27:31.453734 17344 net.cpp:100] Creating Layer L1_b2_cbr1_scale
I0817 16:27:31.453740 17344 net.cpp:434] L1_b2_cbr1_scale <- L1_b2_cbr1_bn_top
I0817 16:27:31.453747 17344 net.cpp:395] L1_b2_cbr1_scale -> L1_b2_cbr1_bn_top (in-place)
I0817 16:27:31.453799 17344 layer_factory.hpp:77] Creating layer L1_b2_cbr1_scale
I0817 16:27:31.453945 17344 net.cpp:150] Setting up L1_b2_cbr1_scale
I0817 16:27:31.453958 17344 net.cpp:157] Top shape: 125 16 32 32 (2048000)
I0817 16:27:31.453963 17344 net.cpp:165] Memory required for data: 165377500
I0817 16:27:31.453972 17344 layer_factory.hpp:77] Creating layer L1_b2_cbr1_relu
I0817 16:27:31.453984 17344 net.cpp:100] Creating Layer L1_b2_cbr1_relu
I0817 16:27:31.453989 17344 net.cpp:434] L1_b2_cbr1_relu <- L1_b2_cbr1_bn_top
I0817 16:27:31.453999 17344 net.cpp:395] L1_b2_cbr1_relu -> L1_b2_cbr1_bn_top (in-place)
I0817 16:27:31.454008 17344 net.cpp:150] Setting up L1_b2_cbr1_relu
I0817 16:27:31.454015 17344 net.cpp:157] Top shape: 125 16 32 32 (2048000)
I0817 16:27:31.454020 17344 net.cpp:165] Memory required for data: 173569500
I0817 16:27:31.454025 17344 layer_factory.hpp:77] Creating layer L1_b2_cbr2_conv
I0817 16:27:31.454036 17344 net.cpp:100] Creating Layer L1_b2_cbr2_conv
I0817 16:27:31.454041 17344 net.cpp:434] L1_b2_cbr2_conv <- L1_b2_cbr1_bn_top
I0817 16:27:31.454052 17344 net.cpp:408] L1_b2_cbr2_conv -> L1_b2_cbr2_conv_top
I0817 16:27:31.454350 17344 net.cpp:150] Setting up L1_b2_cbr2_conv
I0817 16:27:31.454365 17344 net.cpp:157] Top shape: 125 16 32 32 (2048000)
I0817 16:27:31.454370 17344 net.cpp:165] Memory required for data: 181761500
I0817 16:27:31.454377 17344 layer_factory.hpp:77] Creating layer L1_b2_cbr2_bn
I0817 16:27:31.454386 17344 net.cpp:100] Creating Layer L1_b2_cbr2_bn
I0817 16:27:31.454392 17344 net.cpp:434] L1_b2_cbr2_bn <- L1_b2_cbr2_conv_top
I0817 16:27:31.454406 17344 net.cpp:408] L1_b2_cbr2_bn -> L1_b2_cbr2_bn_top
I0817 16:27:31.454643 17344 net.cpp:150] Setting up L1_b2_cbr2_bn
I0817 16:27:31.454655 17344 net.cpp:157] Top shape: 125 16 32 32 (2048000)
I0817 16:27:31.454660 17344 net.cpp:165] Memory required for data: 189953500
I0817 16:27:31.454679 17344 layer_factory.hpp:77] Creating layer L1_b2_cbr2_scale
I0817 16:27:31.454687 17344 net.cpp:100] Creating Layer L1_b2_cbr2_scale
I0817 16:27:31.454694 17344 net.cpp:434] L1_b2_cbr2_scale <- L1_b2_cbr2_bn_top
I0817 16:27:31.454704 17344 net.cpp:395] L1_b2_cbr2_scale -> L1_b2_cbr2_bn_top (in-place)
I0817 16:27:31.454756 17344 layer_factory.hpp:77] Creating layer L1_b2_cbr2_scale
I0817 16:27:31.454897 17344 net.cpp:150] Setting up L1_b2_cbr2_scale
I0817 16:27:31.454910 17344 net.cpp:157] Top shape: 125 16 32 32 (2048000)
I0817 16:27:31.454916 17344 net.cpp:165] Memory required for data: 198145500
I0817 16:27:31.454924 17344 layer_factory.hpp:77] Creating layer L1_b2_sum_eltwise
I0817 16:27:31.454942 17344 net.cpp:100] Creating Layer L1_b2_sum_eltwise
I0817 16:27:31.454949 17344 net.cpp:434] L1_b2_sum_eltwise <- L1_b2_cbr2_bn_top
I0817 16:27:31.454957 17344 net.cpp:434] L1_b2_sum_eltwise <- L1_b1_sum_eltwise_top_L1_b1_relu_0_split_1
I0817 16:27:31.454963 17344 net.cpp:408] L1_b2_sum_eltwise -> L1_b2_sum_eltwise_top
I0817 16:27:31.454996 17344 net.cpp:150] Setting up L1_b2_sum_eltwise
I0817 16:27:31.455008 17344 net.cpp:157] Top shape: 125 16 32 32 (2048000)
I0817 16:27:31.455013 17344 net.cpp:165] Memory required for data: 206337500
I0817 16:27:31.455018 17344 layer_factory.hpp:77] Creating layer L1_b2_relu
I0817 16:27:31.455025 17344 net.cpp:100] Creating Layer L1_b2_relu
I0817 16:27:31.455030 17344 net.cpp:434] L1_b2_relu <- L1_b2_sum_eltwise_top
I0817 16:27:31.455037 17344 net.cpp:395] L1_b2_relu -> L1_b2_sum_eltwise_top (in-place)
I0817 16:27:31.455046 17344 net.cpp:150] Setting up L1_b2_relu
I0817 16:27:31.455052 17344 net.cpp:157] Top shape: 125 16 32 32 (2048000)
I0817 16:27:31.455057 17344 net.cpp:165] Memory required for data: 214529500
I0817 16:27:31.455062 17344 layer_factory.hpp:77] Creating layer L1_b2_sum_eltwise_top_L1_b2_relu_0_split
I0817 16:27:31.455070 17344 net.cpp:100] Creating Layer L1_b2_sum_eltwise_top_L1_b2_relu_0_split
I0817 16:27:31.455075 17344 net.cpp:434] L1_b2_sum_eltwise_top_L1_b2_relu_0_split <- L1_b2_sum_eltwise_top
I0817 16:27:31.455083 17344 net.cpp:408] L1_b2_sum_eltwise_top_L1_b2_relu_0_split -> L1_b2_sum_eltwise_top_L1_b2_relu_0_split_0
I0817 16:27:31.455093 17344 net.cpp:408] L1_b2_sum_eltwise_top_L1_b2_relu_0_split -> L1_b2_sum_eltwise_top_L1_b2_relu_0_split_1
I0817 16:27:31.455133 17344 net.cpp:150] Setting up L1_b2_sum_eltwise_top_L1_b2_relu_0_split
I0817 16:27:31.455144 17344 net.cpp:157] Top shape: 125 16 32 32 (2048000)
I0817 16:27:31.455152 17344 net.cpp:157] Top shape: 125 16 32 32 (2048000)
I0817 16:27:31.455155 17344 net.cpp:165] Memory required for data: 230913500
I0817 16:27:31.455160 17344 layer_factory.hpp:77] Creating layer L1_b3_cbr1_conv
I0817 16:27:31.455174 17344 net.cpp:100] Creating Layer L1_b3_cbr1_conv
I0817 16:27:31.455181 17344 net.cpp:434] L1_b3_cbr1_conv <- L1_b2_sum_eltwise_top_L1_b2_relu_0_split_0
I0817 16:27:31.455189 17344 net.cpp:408] L1_b3_cbr1_conv -> L1_b3_cbr1_conv_top
I0817 16:27:31.455490 17344 net.cpp:150] Setting up L1_b3_cbr1_conv
I0817 16:27:31.455504 17344 net.cpp:157] Top shape: 125 16 32 32 (2048000)
I0817 16:27:31.455509 17344 net.cpp:165] Memory required for data: 239105500
I0817 16:27:31.455518 17344 layer_factory.hpp:77] Creating layer L1_b3_cbr1_bn
I0817 16:27:31.455530 17344 net.cpp:100] Creating Layer L1_b3_cbr1_bn
I0817 16:27:31.455536 17344 net.cpp:434] L1_b3_cbr1_bn <- L1_b3_cbr1_conv_top
I0817 16:27:31.455546 17344 net.cpp:408] L1_b3_cbr1_bn -> L1_b3_cbr1_bn_top
I0817 16:27:31.455777 17344 net.cpp:150] Setting up L1_b3_cbr1_bn
I0817 16:27:31.455790 17344 net.cpp:157] Top shape: 125 16 32 32 (2048000)
I0817 16:27:31.455795 17344 net.cpp:165] Memory required for data: 247297500
I0817 16:27:31.455811 17344 layer_factory.hpp:77] Creating layer L1_b3_cbr1_scale
I0817 16:27:31.455821 17344 net.cpp:100] Creating Layer L1_b3_cbr1_scale
I0817 16:27:31.455826 17344 net.cpp:434] L1_b3_cbr1_scale <- L1_b3_cbr1_bn_top
I0817 16:27:31.455837 17344 net.cpp:395] L1_b3_cbr1_scale -> L1_b3_cbr1_bn_top (in-place)
I0817 16:27:31.455888 17344 layer_factory.hpp:77] Creating layer L1_b3_cbr1_scale
I0817 16:27:31.456030 17344 net.cpp:150] Setting up L1_b3_cbr1_scale
I0817 16:27:31.456046 17344 net.cpp:157] Top shape: 125 16 32 32 (2048000)
I0817 16:27:31.456051 17344 net.cpp:165] Memory required for data: 255489500
I0817 16:27:31.456060 17344 layer_factory.hpp:77] Creating layer L1_b3_cbr1_relu
I0817 16:27:31.456068 17344 net.cpp:100] Creating Layer L1_b3_cbr1_relu
I0817 16:27:31.456074 17344 net.cpp:434] L1_b3_cbr1_relu <- L1_b3_cbr1_bn_top
I0817 16:27:31.456081 17344 net.cpp:395] L1_b3_cbr1_relu -> L1_b3_cbr1_bn_top (in-place)
I0817 16:27:31.456090 17344 net.cpp:150] Setting up L1_b3_cbr1_relu
I0817 16:27:31.456104 17344 net.cpp:157] Top shape: 125 16 32 32 (2048000)
I0817 16:27:31.456110 17344 net.cpp:165] Memory required for data: 263681500
I0817 16:27:31.456115 17344 layer_factory.hpp:77] Creating layer L1_b3_cbr2_conv
I0817 16:27:31.456128 17344 net.cpp:100] Creating Layer L1_b3_cbr2_conv
I0817 16:27:31.456133 17344 net.cpp:434] L1_b3_cbr2_conv <- L1_b3_cbr1_bn_top
I0817 16:27:31.456145 17344 net.cpp:408] L1_b3_cbr2_conv -> L1_b3_cbr2_conv_top
I0817 16:27:31.456452 17344 net.cpp:150] Setting up L1_b3_cbr2_conv
I0817 16:27:31.456465 17344 net.cpp:157] Top shape: 125 16 32 32 (2048000)
I0817 16:27:31.456470 17344 net.cpp:165] Memory required for data: 271873500
I0817 16:27:31.456480 17344 layer_factory.hpp:77] Creating layer L1_b3_cbr2_bn
I0817 16:27:31.456496 17344 net.cpp:100] Creating Layer L1_b3_cbr2_bn
I0817 16:27:31.456501 17344 net.cpp:434] L1_b3_cbr2_bn <- L1_b3_cbr2_conv_top
I0817 16:27:31.456509 17344 net.cpp:408] L1_b3_cbr2_bn -> L1_b3_cbr2_bn_top
I0817 16:27:31.456740 17344 net.cpp:150] Setting up L1_b3_cbr2_bn
I0817 16:27:31.456753 17344 net.cpp:157] Top shape: 125 16 32 32 (2048000)
I0817 16:27:31.456758 17344 net.cpp:165] Memory required for data: 280065500
I0817 16:27:31.456768 17344 layer_factory.hpp:77] Creating layer L1_b3_cbr2_scale
I0817 16:27:31.456778 17344 net.cpp:100] Creating Layer L1_b3_cbr2_scale
I0817 16:27:31.456782 17344 net.cpp:434] L1_b3_cbr2_scale <- L1_b3_cbr2_bn_top
I0817 16:27:31.456794 17344 net.cpp:395] L1_b3_cbr2_scale -> L1_b3_cbr2_bn_top (in-place)
I0817 16:27:31.456852 17344 layer_factory.hpp:77] Creating layer L1_b3_cbr2_scale
I0817 16:27:31.456989 17344 net.cpp:150] Setting up L1_b3_cbr2_scale
I0817 16:27:31.457003 17344 net.cpp:157] Top shape: 125 16 32 32 (2048000)
I0817 16:27:31.457008 17344 net.cpp:165] Memory required for data: 288257500
I0817 16:27:31.457017 17344 layer_factory.hpp:77] Creating layer L1_b3_sum_eltwise
I0817 16:27:31.457026 17344 net.cpp:100] Creating Layer L1_b3_sum_eltwise
I0817 16:27:31.457031 17344 net.cpp:434] L1_b3_sum_eltwise <- L1_b3_cbr2_bn_top
I0817 16:27:31.457038 17344 net.cpp:434] L1_b3_sum_eltwise <- L1_b2_sum_eltwise_top_L1_b2_relu_0_split_1
I0817 16:27:31.457046 17344 net.cpp:408] L1_b3_sum_eltwise -> L1_b3_sum_eltwise_top
I0817 16:27:31.457078 17344 net.cpp:150] Setting up L1_b3_sum_eltwise
I0817 16:27:31.457087 17344 net.cpp:157] Top shape: 125 16 32 32 (2048000)
I0817 16:27:31.457093 17344 net.cpp:165] Memory required for data: 296449500
I0817 16:27:31.457098 17344 layer_factory.hpp:77] Creating layer L1_b3_relu
I0817 16:27:31.457108 17344 net.cpp:100] Creating Layer L1_b3_relu
I0817 16:27:31.457113 17344 net.cpp:434] L1_b3_relu <- L1_b3_sum_eltwise_top
I0817 16:27:31.457120 17344 net.cpp:395] L1_b3_relu -> L1_b3_sum_eltwise_top (in-place)
I0817 16:27:31.457129 17344 net.cpp:150] Setting up L1_b3_relu
I0817 16:27:31.457135 17344 net.cpp:157] Top shape: 125 16 32 32 (2048000)
I0817 16:27:31.457139 17344 net.cpp:165] Memory required for data: 304641500
I0817 16:27:31.457144 17344 layer_factory.hpp:77] Creating layer L1_b3_sum_eltwise_top_L1_b3_relu_0_split
I0817 16:27:31.457154 17344 net.cpp:100] Creating Layer L1_b3_sum_eltwise_top_L1_b3_relu_0_split
I0817 16:27:31.457159 17344 net.cpp:434] L1_b3_sum_eltwise_top_L1_b3_relu_0_split <- L1_b3_sum_eltwise_top
I0817 16:27:31.457166 17344 net.cpp:408] L1_b3_sum_eltwise_top_L1_b3_relu_0_split -> L1_b3_sum_eltwise_top_L1_b3_relu_0_split_0
I0817 16:27:31.457175 17344 net.cpp:408] L1_b3_sum_eltwise_top_L1_b3_relu_0_split -> L1_b3_sum_eltwise_top_L1_b3_relu_0_split_1
I0817 16:27:31.457216 17344 net.cpp:150] Setting up L1_b3_sum_eltwise_top_L1_b3_relu_0_split
I0817 16:27:31.457229 17344 net.cpp:157] Top shape: 125 16 32 32 (2048000)
I0817 16:27:31.457237 17344 net.cpp:157] Top shape: 125 16 32 32 (2048000)
I0817 16:27:31.457242 17344 net.cpp:165] Memory required for data: 321025500
I0817 16:27:31.457245 17344 layer_factory.hpp:77] Creating layer L1_b4_cbr1_conv
I0817 16:27:31.457257 17344 net.cpp:100] Creating Layer L1_b4_cbr1_conv
I0817 16:27:31.457263 17344 net.cpp:434] L1_b4_cbr1_conv <- L1_b3_sum_eltwise_top_L1_b3_relu_0_split_0
I0817 16:27:31.457278 17344 net.cpp:408] L1_b4_cbr1_conv -> L1_b4_cbr1_conv_top
I0817 16:27:31.457592 17344 net.cpp:150] Setting up L1_b4_cbr1_conv
I0817 16:27:31.457605 17344 net.cpp:157] Top shape: 125 16 32 32 (2048000)
I0817 16:27:31.457610 17344 net.cpp:165] Memory required for data: 329217500
I0817 16:27:31.457619 17344 layer_factory.hpp:77] Creating layer L1_b4_cbr1_bn
I0817 16:27:31.457630 17344 net.cpp:100] Creating Layer L1_b4_cbr1_bn
I0817 16:27:31.457636 17344 net.cpp:434] L1_b4_cbr1_bn <- L1_b4_cbr1_conv_top
I0817 16:27:31.457644 17344 net.cpp:408] L1_b4_cbr1_bn -> L1_b4_cbr1_bn_top
I0817 16:27:31.457890 17344 net.cpp:150] Setting up L1_b4_cbr1_bn
I0817 16:27:31.457904 17344 net.cpp:157] Top shape: 125 16 32 32 (2048000)
I0817 16:27:31.457909 17344 net.cpp:165] Memory required for data: 337409500
I0817 16:27:31.457921 17344 layer_factory.hpp:77] Creating layer L1_b4_cbr1_scale
I0817 16:27:31.457928 17344 net.cpp:100] Creating Layer L1_b4_cbr1_scale
I0817 16:27:31.457934 17344 net.cpp:434] L1_b4_cbr1_scale <- L1_b4_cbr1_bn_top
I0817 16:27:31.457945 17344 net.cpp:395] L1_b4_cbr1_scale -> L1_b4_cbr1_bn_top (in-place)
I0817 16:27:31.457998 17344 layer_factory.hpp:77] Creating layer L1_b4_cbr1_scale
I0817 16:27:31.458137 17344 net.cpp:150] Setting up L1_b4_cbr1_scale
I0817 16:27:31.458149 17344 net.cpp:157] Top shape: 125 16 32 32 (2048000)
I0817 16:27:31.458155 17344 net.cpp:165] Memory required for data: 345601500
I0817 16:27:31.458163 17344 layer_factory.hpp:77] Creating layer L1_b4_cbr1_relu
I0817 16:27:31.458171 17344 net.cpp:100] Creating Layer L1_b4_cbr1_relu
I0817 16:27:31.458178 17344 net.cpp:434] L1_b4_cbr1_relu <- L1_b4_cbr1_bn_top
I0817 16:27:31.458184 17344 net.cpp:395] L1_b4_cbr1_relu -> L1_b4_cbr1_bn_top (in-place)
I0817 16:27:31.458194 17344 net.cpp:150] Setting up L1_b4_cbr1_relu
I0817 16:27:31.458200 17344 net.cpp:157] Top shape: 125 16 32 32 (2048000)
I0817 16:27:31.458205 17344 net.cpp:165] Memory required for data: 353793500
I0817 16:27:31.458209 17344 layer_factory.hpp:77] Creating layer L1_b4_cbr2_conv
I0817 16:27:31.458223 17344 net.cpp:100] Creating Layer L1_b4_cbr2_conv
I0817 16:27:31.458230 17344 net.cpp:434] L1_b4_cbr2_conv <- L1_b4_cbr1_bn_top
I0817 16:27:31.458240 17344 net.cpp:408] L1_b4_cbr2_conv -> L1_b4_cbr2_conv_top
I0817 16:27:31.458545 17344 net.cpp:150] Setting up L1_b4_cbr2_conv
I0817 16:27:31.458559 17344 net.cpp:157] Top shape: 125 16 32 32 (2048000)
I0817 16:27:31.458564 17344 net.cpp:165] Memory required for data: 361985500
I0817 16:27:31.458572 17344 layer_factory.hpp:77] Creating layer L1_b4_cbr2_bn
I0817 16:27:31.458583 17344 net.cpp:100] Creating Layer L1_b4_cbr2_bn
I0817 16:27:31.458590 17344 net.cpp:434] L1_b4_cbr2_bn <- L1_b4_cbr2_conv_top
I0817 16:27:31.458600 17344 net.cpp:408] L1_b4_cbr2_bn -> L1_b4_cbr2_bn_top
I0817 16:27:31.458847 17344 net.cpp:150] Setting up L1_b4_cbr2_bn
I0817 16:27:31.458860 17344 net.cpp:157] Top shape: 125 16 32 32 (2048000)
I0817 16:27:31.458865 17344 net.cpp:165] Memory required for data: 370177500
I0817 16:27:31.458875 17344 layer_factory.hpp:77] Creating layer L1_b4_cbr2_scale
I0817 16:27:31.458886 17344 net.cpp:100] Creating Layer L1_b4_cbr2_scale
I0817 16:27:31.458894 17344 net.cpp:434] L1_b4_cbr2_scale <- L1_b4_cbr2_bn_top
I0817 16:27:31.458900 17344 net.cpp:395] L1_b4_cbr2_scale -> L1_b4_cbr2_bn_top (in-place)
I0817 16:27:31.458953 17344 layer_factory.hpp:77] Creating layer L1_b4_cbr2_scale
I0817 16:27:31.459087 17344 net.cpp:150] Setting up L1_b4_cbr2_scale
I0817 16:27:31.459100 17344 net.cpp:157] Top shape: 125 16 32 32 (2048000)
I0817 16:27:31.459105 17344 net.cpp:165] Memory required for data: 378369500
I0817 16:27:31.459115 17344 layer_factory.hpp:77] Creating layer L1_b4_sum_eltwise
I0817 16:27:31.459122 17344 net.cpp:100] Creating Layer L1_b4_sum_eltwise
I0817 16:27:31.459128 17344 net.cpp:434] L1_b4_sum_eltwise <- L1_b4_cbr2_bn_top
I0817 16:27:31.459136 17344 net.cpp:434] L1_b4_sum_eltwise <- L1_b3_sum_eltwise_top_L1_b3_relu_0_split_1
I0817 16:27:31.459146 17344 net.cpp:408] L1_b4_sum_eltwise -> L1_b4_sum_eltwise_top
I0817 16:27:31.459183 17344 net.cpp:150] Setting up L1_b4_sum_eltwise
I0817 16:27:31.459197 17344 net.cpp:157] Top shape: 125 16 32 32 (2048000)
I0817 16:27:31.459203 17344 net.cpp:165] Memory required for data: 386561500
I0817 16:27:31.459208 17344 layer_factory.hpp:77] Creating layer L1_b4_relu
I0817 16:27:31.459215 17344 net.cpp:100] Creating Layer L1_b4_relu
I0817 16:27:31.459221 17344 net.cpp:434] L1_b4_relu <- L1_b4_sum_eltwise_top
I0817 16:27:31.459228 17344 net.cpp:395] L1_b4_relu -> L1_b4_sum_eltwise_top (in-place)
I0817 16:27:31.459237 17344 net.cpp:150] Setting up L1_b4_relu
I0817 16:27:31.459244 17344 net.cpp:157] Top shape: 125 16 32 32 (2048000)
I0817 16:27:31.459249 17344 net.cpp:165] Memory required for data: 394753500
I0817 16:27:31.459254 17344 layer_factory.hpp:77] Creating layer L1_b4_sum_eltwise_top_L1_b4_relu_0_split
I0817 16:27:31.459264 17344 net.cpp:100] Creating Layer L1_b4_sum_eltwise_top_L1_b4_relu_0_split
I0817 16:27:31.459270 17344 net.cpp:434] L1_b4_sum_eltwise_top_L1_b4_relu_0_split <- L1_b4_sum_eltwise_top
I0817 16:27:31.459276 17344 net.cpp:408] L1_b4_sum_eltwise_top_L1_b4_relu_0_split -> L1_b4_sum_eltwise_top_L1_b4_relu_0_split_0
I0817 16:27:31.459285 17344 net.cpp:408] L1_b4_sum_eltwise_top_L1_b4_relu_0_split -> L1_b4_sum_eltwise_top_L1_b4_relu_0_split_1
I0817 16:27:31.459329 17344 net.cpp:150] Setting up L1_b4_sum_eltwise_top_L1_b4_relu_0_split
I0817 16:27:31.459341 17344 net.cpp:157] Top shape: 125 16 32 32 (2048000)
I0817 16:27:31.459347 17344 net.cpp:157] Top shape: 125 16 32 32 (2048000)
I0817 16:27:31.459352 17344 net.cpp:165] Memory required for data: 411137500
I0817 16:27:31.459357 17344 layer_factory.hpp:77] Creating layer L1_b5_cbr1_conv
I0817 16:27:31.459367 17344 net.cpp:100] Creating Layer L1_b5_cbr1_conv
I0817 16:27:31.459372 17344 net.cpp:434] L1_b5_cbr1_conv <- L1_b4_sum_eltwise_top_L1_b4_relu_0_split_0
I0817 16:27:31.459384 17344 net.cpp:408] L1_b5_cbr1_conv -> L1_b5_cbr1_conv_top
I0817 16:27:31.459689 17344 net.cpp:150] Setting up L1_b5_cbr1_conv
I0817 16:27:31.459703 17344 net.cpp:157] Top shape: 125 16 32 32 (2048000)
I0817 16:27:31.459708 17344 net.cpp:165] Memory required for data: 419329500
I0817 16:27:31.459728 17344 layer_factory.hpp:77] Creating layer L1_b5_cbr1_bn
I0817 16:27:31.459739 17344 net.cpp:100] Creating Layer L1_b5_cbr1_bn
I0817 16:27:31.459745 17344 net.cpp:434] L1_b5_cbr1_bn <- L1_b5_cbr1_conv_top
I0817 16:27:31.459756 17344 net.cpp:408] L1_b5_cbr1_bn -> L1_b5_cbr1_bn_top
I0817 16:27:31.460000 17344 net.cpp:150] Setting up L1_b5_cbr1_bn
I0817 16:27:31.460013 17344 net.cpp:157] Top shape: 125 16 32 32 (2048000)
I0817 16:27:31.460018 17344 net.cpp:165] Memory required for data: 427521500
I0817 16:27:31.460029 17344 layer_factory.hpp:77] Creating layer L1_b5_cbr1_scale
I0817 16:27:31.460038 17344 net.cpp:100] Creating Layer L1_b5_cbr1_scale
I0817 16:27:31.460043 17344 net.cpp:434] L1_b5_cbr1_scale <- L1_b5_cbr1_bn_top
I0817 16:27:31.460054 17344 net.cpp:395] L1_b5_cbr1_scale -> L1_b5_cbr1_bn_top (in-place)
I0817 16:27:31.460103 17344 layer_factory.hpp:77] Creating layer L1_b5_cbr1_scale
I0817 16:27:31.460244 17344 net.cpp:150] Setting up L1_b5_cbr1_scale
I0817 16:27:31.460258 17344 net.cpp:157] Top shape: 125 16 32 32 (2048000)
I0817 16:27:31.460263 17344 net.cpp:165] Memory required for data: 435713500
I0817 16:27:31.460271 17344 layer_factory.hpp:77] Creating layer L1_b5_cbr1_relu
I0817 16:27:31.460279 17344 net.cpp:100] Creating Layer L1_b5_cbr1_relu
I0817 16:27:31.460285 17344 net.cpp:434] L1_b5_cbr1_relu <- L1_b5_cbr1_bn_top
I0817 16:27:31.460295 17344 net.cpp:395] L1_b5_cbr1_relu -> L1_b5_cbr1_bn_top (in-place)
I0817 16:27:31.460305 17344 net.cpp:150] Setting up L1_b5_cbr1_relu
I0817 16:27:31.460311 17344 net.cpp:157] Top shape: 125 16 32 32 (2048000)
I0817 16:27:31.460316 17344 net.cpp:165] Memory required for data: 443905500
I0817 16:27:31.460321 17344 layer_factory.hpp:77] Creating layer L1_b5_cbr2_conv
I0817 16:27:31.460335 17344 net.cpp:100] Creating Layer L1_b5_cbr2_conv
I0817 16:27:31.460347 17344 net.cpp:434] L1_b5_cbr2_conv <- L1_b5_cbr1_bn_top
I0817 16:27:31.460356 17344 net.cpp:408] L1_b5_cbr2_conv -> L1_b5_cbr2_conv_top
I0817 16:27:31.460666 17344 net.cpp:150] Setting up L1_b5_cbr2_conv
I0817 16:27:31.460680 17344 net.cpp:157] Top shape: 125 16 32 32 (2048000)
I0817 16:27:31.460685 17344 net.cpp:165] Memory required for data: 452097500
I0817 16:27:31.460695 17344 layer_factory.hpp:77] Creating layer L1_b5_cbr2_bn
I0817 16:27:31.460703 17344 net.cpp:100] Creating Layer L1_b5_cbr2_bn
I0817 16:27:31.460712 17344 net.cpp:434] L1_b5_cbr2_bn <- L1_b5_cbr2_conv_top
I0817 16:27:31.460721 17344 net.cpp:408] L1_b5_cbr2_bn -> L1_b5_cbr2_bn_top
I0817 16:27:31.460959 17344 net.cpp:150] Setting up L1_b5_cbr2_bn
I0817 16:27:31.460973 17344 net.cpp:157] Top shape: 125 16 32 32 (2048000)
I0817 16:27:31.460978 17344 net.cpp:165] Memory required for data: 460289500
I0817 16:27:31.460988 17344 layer_factory.hpp:77] Creating layer L1_b5_cbr2_scale
I0817 16:27:31.460997 17344 net.cpp:100] Creating Layer L1_b5_cbr2_scale
I0817 16:27:31.461004 17344 net.cpp:434] L1_b5_cbr2_scale <- L1_b5_cbr2_bn_top
I0817 16:27:31.461014 17344 net.cpp:395] L1_b5_cbr2_scale -> L1_b5_cbr2_bn_top (in-place)
I0817 16:27:31.461064 17344 layer_factory.hpp:77] Creating layer L1_b5_cbr2_scale
I0817 16:27:31.461200 17344 net.cpp:150] Setting up L1_b5_cbr2_scale
I0817 16:27:31.461216 17344 net.cpp:157] Top shape: 125 16 32 32 (2048000)
I0817 16:27:31.461221 17344 net.cpp:165] Memory required for data: 468481500
I0817 16:27:31.461231 17344 layer_factory.hpp:77] Creating layer L1_b5_sum_eltwise
I0817 16:27:31.461239 17344 net.cpp:100] Creating Layer L1_b5_sum_eltwise
I0817 16:27:31.461246 17344 net.cpp:434] L1_b5_sum_eltwise <- L1_b5_cbr2_bn_top
I0817 16:27:31.461252 17344 net.cpp:434] L1_b5_sum_eltwise <- L1_b4_sum_eltwise_top_L1_b4_relu_0_split_1
I0817 16:27:31.461261 17344 net.cpp:408] L1_b5_sum_eltwise -> L1_b5_sum_eltwise_top
I0817 16:27:31.461294 17344 net.cpp:150] Setting up L1_b5_sum_eltwise
I0817 16:27:31.461307 17344 net.cpp:157] Top shape: 125 16 32 32 (2048000)
I0817 16:27:31.461311 17344 net.cpp:165] Memory required for data: 476673500
I0817 16:27:31.461316 17344 layer_factory.hpp:77] Creating layer L1_b5_relu
I0817 16:27:31.461326 17344 net.cpp:100] Creating Layer L1_b5_relu
I0817 16:27:31.461333 17344 net.cpp:434] L1_b5_relu <- L1_b5_sum_eltwise_top
I0817 16:27:31.461338 17344 net.cpp:395] L1_b5_relu -> L1_b5_sum_eltwise_top (in-place)
I0817 16:27:31.461347 17344 net.cpp:150] Setting up L1_b5_relu
I0817 16:27:31.461354 17344 net.cpp:157] Top shape: 125 16 32 32 (2048000)
I0817 16:27:31.461359 17344 net.cpp:165] Memory required for data: 484865500
I0817 16:27:31.461364 17344 layer_factory.hpp:77] Creating layer L1_b5_sum_eltwise_top_L1_b5_relu_0_split
I0817 16:27:31.461374 17344 net.cpp:100] Creating Layer L1_b5_sum_eltwise_top_L1_b5_relu_0_split
I0817 16:27:31.461378 17344 net.cpp:434] L1_b5_sum_eltwise_top_L1_b5_relu_0_split <- L1_b5_sum_eltwise_top
I0817 16:27:31.461386 17344 net.cpp:408] L1_b5_sum_eltwise_top_L1_b5_relu_0_split -> L1_b5_sum_eltwise_top_L1_b5_relu_0_split_0
I0817 16:27:31.461395 17344 net.cpp:408] L1_b5_sum_eltwise_top_L1_b5_relu_0_split -> L1_b5_sum_eltwise_top_L1_b5_relu_0_split_1
I0817 16:27:31.461437 17344 net.cpp:150] Setting up L1_b5_sum_eltwise_top_L1_b5_relu_0_split
I0817 16:27:31.461452 17344 net.cpp:157] Top shape: 125 16 32 32 (2048000)
I0817 16:27:31.461458 17344 net.cpp:157] Top shape: 125 16 32 32 (2048000)
I0817 16:27:31.461462 17344 net.cpp:165] Memory required for data: 501249500
I0817 16:27:31.461467 17344 layer_factory.hpp:77] Creating layer L1_b6_cbr1_conv
I0817 16:27:31.461478 17344 net.cpp:100] Creating Layer L1_b6_cbr1_conv
I0817 16:27:31.461484 17344 net.cpp:434] L1_b6_cbr1_conv <- L1_b5_sum_eltwise_top_L1_b5_relu_0_split_0
I0817 16:27:31.461493 17344 net.cpp:408] L1_b6_cbr1_conv -> L1_b6_cbr1_conv_top
I0817 16:27:31.461809 17344 net.cpp:150] Setting up L1_b6_cbr1_conv
I0817 16:27:31.461824 17344 net.cpp:157] Top shape: 125 16 32 32 (2048000)
I0817 16:27:31.461829 17344 net.cpp:165] Memory required for data: 509441500
I0817 16:27:31.461845 17344 layer_factory.hpp:77] Creating layer L1_b6_cbr1_bn
I0817 16:27:31.461858 17344 net.cpp:100] Creating Layer L1_b6_cbr1_bn
I0817 16:27:31.461863 17344 net.cpp:434] L1_b6_cbr1_bn <- L1_b6_cbr1_conv_top
I0817 16:27:31.461871 17344 net.cpp:408] L1_b6_cbr1_bn -> L1_b6_cbr1_bn_top
I0817 16:27:31.462105 17344 net.cpp:150] Setting up L1_b6_cbr1_bn
I0817 16:27:31.462118 17344 net.cpp:157] Top shape: 125 16 32 32 (2048000)
I0817 16:27:31.462123 17344 net.cpp:165] Memory required for data: 517633500
I0817 16:27:31.462133 17344 layer_factory.hpp:77] Creating layer L1_b6_cbr1_scale
I0817 16:27:31.462142 17344 net.cpp:100] Creating Layer L1_b6_cbr1_scale
I0817 16:27:31.462148 17344 net.cpp:434] L1_b6_cbr1_scale <- L1_b6_cbr1_bn_top
I0817 16:27:31.462158 17344 net.cpp:395] L1_b6_cbr1_scale -> L1_b6_cbr1_bn_top (in-place)
I0817 16:27:31.462210 17344 layer_factory.hpp:77] Creating layer L1_b6_cbr1_scale
I0817 16:27:31.462348 17344 net.cpp:150] Setting up L1_b6_cbr1_scale
I0817 16:27:31.462360 17344 net.cpp:157] Top shape: 125 16 32 32 (2048000)
I0817 16:27:31.462365 17344 net.cpp:165] Memory required for data: 525825500
I0817 16:27:31.462374 17344 layer_factory.hpp:77] Creating layer L1_b6_cbr1_relu
I0817 16:27:31.462383 17344 net.cpp:100] Creating Layer L1_b6_cbr1_relu
I0817 16:27:31.462388 17344 net.cpp:434] L1_b6_cbr1_relu <- L1_b6_cbr1_bn_top
I0817 16:27:31.462395 17344 net.cpp:395] L1_b6_cbr1_relu -> L1_b6_cbr1_bn_top (in-place)
I0817 16:27:31.462404 17344 net.cpp:150] Setting up L1_b6_cbr1_relu
I0817 16:27:31.462411 17344 net.cpp:157] Top shape: 125 16 32 32 (2048000)
I0817 16:27:31.462415 17344 net.cpp:165] Memory required for data: 534017500
I0817 16:27:31.462420 17344 layer_factory.hpp:77] Creating layer L1_b6_cbr2_conv
I0817 16:27:31.462435 17344 net.cpp:100] Creating Layer L1_b6_cbr2_conv
I0817 16:27:31.462440 17344 net.cpp:434] L1_b6_cbr2_conv <- L1_b6_cbr1_bn_top
I0817 16:27:31.462450 17344 net.cpp:408] L1_b6_cbr2_conv -> L1_b6_cbr2_conv_top
I0817 16:27:31.462759 17344 net.cpp:150] Setting up L1_b6_cbr2_conv
I0817 16:27:31.462774 17344 net.cpp:157] Top shape: 125 16 32 32 (2048000)
I0817 16:27:31.462777 17344 net.cpp:165] Memory required for data: 542209500
I0817 16:27:31.462786 17344 layer_factory.hpp:77] Creating layer L1_b6_cbr2_bn
I0817 16:27:31.462798 17344 net.cpp:100] Creating Layer L1_b6_cbr2_bn
I0817 16:27:31.462810 17344 net.cpp:434] L1_b6_cbr2_bn <- L1_b6_cbr2_conv_top
I0817 16:27:31.462821 17344 net.cpp:408] L1_b6_cbr2_bn -> L1_b6_cbr2_bn_top
I0817 16:27:31.463063 17344 net.cpp:150] Setting up L1_b6_cbr2_bn
I0817 16:27:31.463075 17344 net.cpp:157] Top shape: 125 16 32 32 (2048000)
I0817 16:27:31.463080 17344 net.cpp:165] Memory required for data: 550401500
I0817 16:27:31.463090 17344 layer_factory.hpp:77] Creating layer L1_b6_cbr2_scale
I0817 16:27:31.463099 17344 net.cpp:100] Creating Layer L1_b6_cbr2_scale
I0817 16:27:31.463105 17344 net.cpp:434] L1_b6_cbr2_scale <- L1_b6_cbr2_bn_top
I0817 16:27:31.463115 17344 net.cpp:395] L1_b6_cbr2_scale -> L1_b6_cbr2_bn_top (in-place)
I0817 16:27:31.463168 17344 layer_factory.hpp:77] Creating layer L1_b6_cbr2_scale
I0817 16:27:31.463305 17344 net.cpp:150] Setting up L1_b6_cbr2_scale
I0817 16:27:31.463320 17344 net.cpp:157] Top shape: 125 16 32 32 (2048000)
I0817 16:27:31.463325 17344 net.cpp:165] Memory required for data: 558593500
I0817 16:27:31.463335 17344 layer_factory.hpp:77] Creating layer L1_b6_sum_eltwise
I0817 16:27:31.463351 17344 net.cpp:100] Creating Layer L1_b6_sum_eltwise
I0817 16:27:31.463357 17344 net.cpp:434] L1_b6_sum_eltwise <- L1_b6_cbr2_bn_top
I0817 16:27:31.463364 17344 net.cpp:434] L1_b6_sum_eltwise <- L1_b5_sum_eltwise_top_L1_b5_relu_0_split_1
I0817 16:27:31.463372 17344 net.cpp:408] L1_b6_sum_eltwise -> L1_b6_sum_eltwise_top
I0817 16:27:31.463407 17344 net.cpp:150] Setting up L1_b6_sum_eltwise
I0817 16:27:31.463418 17344 net.cpp:157] Top shape: 125 16 32 32 (2048000)
I0817 16:27:31.463423 17344 net.cpp:165] Memory required for data: 566785500
I0817 16:27:31.463429 17344 layer_factory.hpp:77] Creating layer L1_b6_relu
I0817 16:27:31.463444 17344 net.cpp:100] Creating Layer L1_b6_relu
I0817 16:27:31.463450 17344 net.cpp:434] L1_b6_relu <- L1_b6_sum_eltwise_top
I0817 16:27:31.463460 17344 net.cpp:395] L1_b6_relu -> L1_b6_sum_eltwise_top (in-place)
I0817 16:27:31.463470 17344 net.cpp:150] Setting up L1_b6_relu
I0817 16:27:31.463477 17344 net.cpp:157] Top shape: 125 16 32 32 (2048000)
I0817 16:27:31.463482 17344 net.cpp:165] Memory required for data: 574977500
I0817 16:27:31.463486 17344 layer_factory.hpp:77] Creating layer L1_b6_sum_eltwise_top_L1_b6_relu_0_split
I0817 16:27:31.463493 17344 net.cpp:100] Creating Layer L1_b6_sum_eltwise_top_L1_b6_relu_0_split
I0817 16:27:31.463498 17344 net.cpp:434] L1_b6_sum_eltwise_top_L1_b6_relu_0_split <- L1_b6_sum_eltwise_top
I0817 16:27:31.463506 17344 net.cpp:408] L1_b6_sum_eltwise_top_L1_b6_relu_0_split -> L1_b6_sum_eltwise_top_L1_b6_relu_0_split_0
I0817 16:27:31.463515 17344 net.cpp:408] L1_b6_sum_eltwise_top_L1_b6_relu_0_split -> L1_b6_sum_eltwise_top_L1_b6_relu_0_split_1
I0817 16:27:31.463562 17344 net.cpp:150] Setting up L1_b6_sum_eltwise_top_L1_b6_relu_0_split
I0817 16:27:31.463572 17344 net.cpp:157] Top shape: 125 16 32 32 (2048000)
I0817 16:27:31.463579 17344 net.cpp:157] Top shape: 125 16 32 32 (2048000)
I0817 16:27:31.463583 17344 net.cpp:165] Memory required for data: 591361500
I0817 16:27:31.463588 17344 layer_factory.hpp:77] Creating layer L1_b7_cbr1_conv
I0817 16:27:31.463599 17344 net.cpp:100] Creating Layer L1_b7_cbr1_conv
I0817 16:27:31.463605 17344 net.cpp:434] L1_b7_cbr1_conv <- L1_b6_sum_eltwise_top_L1_b6_relu_0_split_0
I0817 16:27:31.463618 17344 net.cpp:408] L1_b7_cbr1_conv -> L1_b7_cbr1_conv_top
I0817 16:27:31.463937 17344 net.cpp:150] Setting up L1_b7_cbr1_conv
I0817 16:27:31.463951 17344 net.cpp:157] Top shape: 125 16 32 32 (2048000)
I0817 16:27:31.463956 17344 net.cpp:165] Memory required for data: 599553500
I0817 16:27:31.463964 17344 layer_factory.hpp:77] Creating layer L1_b7_cbr1_bn
I0817 16:27:31.463973 17344 net.cpp:100] Creating Layer L1_b7_cbr1_bn
I0817 16:27:31.463979 17344 net.cpp:434] L1_b7_cbr1_bn <- L1_b7_cbr1_conv_top
I0817 16:27:31.463990 17344 net.cpp:408] L1_b7_cbr1_bn -> L1_b7_cbr1_bn_top
I0817 16:27:31.464228 17344 net.cpp:150] Setting up L1_b7_cbr1_bn
I0817 16:27:31.464241 17344 net.cpp:157] Top shape: 125 16 32 32 (2048000)
I0817 16:27:31.464246 17344 net.cpp:165] Memory required for data: 607745500
I0817 16:27:31.464257 17344 layer_factory.hpp:77] Creating layer L1_b7_cbr1_scale
I0817 16:27:31.464267 17344 net.cpp:100] Creating Layer L1_b7_cbr1_scale
I0817 16:27:31.464273 17344 net.cpp:434] L1_b7_cbr1_scale <- L1_b7_cbr1_bn_top
I0817 16:27:31.464280 17344 net.cpp:395] L1_b7_cbr1_scale -> L1_b7_cbr1_bn_top (in-place)
I0817 16:27:31.464332 17344 layer_factory.hpp:77] Creating layer L1_b7_cbr1_scale
I0817 16:27:31.464474 17344 net.cpp:150] Setting up L1_b7_cbr1_scale
I0817 16:27:31.464488 17344 net.cpp:157] Top shape: 125 16 32 32 (2048000)
I0817 16:27:31.464493 17344 net.cpp:165] Memory required for data: 615937500
I0817 16:27:31.464500 17344 layer_factory.hpp:77] Creating layer L1_b7_cbr1_relu
I0817 16:27:31.464511 17344 net.cpp:100] Creating Layer L1_b7_cbr1_relu
I0817 16:27:31.464517 17344 net.cpp:434] L1_b7_cbr1_relu <- L1_b7_cbr1_bn_top
I0817 16:27:31.464525 17344 net.cpp:395] L1_b7_cbr1_relu -> L1_b7_cbr1_bn_top (in-place)
I0817 16:27:31.464534 17344 net.cpp:150] Setting up L1_b7_cbr1_relu
I0817 16:27:31.464541 17344 net.cpp:157] Top shape: 125 16 32 32 (2048000)
I0817 16:27:31.464545 17344 net.cpp:165] Memory required for data: 624129500
I0817 16:27:31.464550 17344 layer_factory.hpp:77] Creating layer L1_b7_cbr2_conv
I0817 16:27:31.464565 17344 net.cpp:100] Creating Layer L1_b7_cbr2_conv
I0817 16:27:31.464571 17344 net.cpp:434] L1_b7_cbr2_conv <- L1_b7_cbr1_bn_top
I0817 16:27:31.464581 17344 net.cpp:408] L1_b7_cbr2_conv -> L1_b7_cbr2_conv_top
I0817 16:27:31.464895 17344 net.cpp:150] Setting up L1_b7_cbr2_conv
I0817 16:27:31.464910 17344 net.cpp:157] Top shape: 125 16 32 32 (2048000)
I0817 16:27:31.464915 17344 net.cpp:165] Memory required for data: 632321500
I0817 16:27:31.464931 17344 layer_factory.hpp:77] Creating layer L1_b7_cbr2_bn
I0817 16:27:31.464941 17344 net.cpp:100] Creating Layer L1_b7_cbr2_bn
I0817 16:27:31.464946 17344 net.cpp:434] L1_b7_cbr2_bn <- L1_b7_cbr2_conv_top
I0817 16:27:31.464954 17344 net.cpp:408] L1_b7_cbr2_bn -> L1_b7_cbr2_bn_top
I0817 16:27:31.465193 17344 net.cpp:150] Setting up L1_b7_cbr2_bn
I0817 16:27:31.465205 17344 net.cpp:157] Top shape: 125 16 32 32 (2048000)
I0817 16:27:31.465210 17344 net.cpp:165] Memory required for data: 640513500
I0817 16:27:31.465220 17344 layer_factory.hpp:77] Creating layer L1_b7_cbr2_scale
I0817 16:27:31.465231 17344 net.cpp:100] Creating Layer L1_b7_cbr2_scale
I0817 16:27:31.465237 17344 net.cpp:434] L1_b7_cbr2_scale <- L1_b7_cbr2_bn_top
I0817 16:27:31.465245 17344 net.cpp:395] L1_b7_cbr2_scale -> L1_b7_cbr2_bn_top (in-place)
I0817 16:27:31.465301 17344 layer_factory.hpp:77] Creating layer L1_b7_cbr2_scale
I0817 16:27:31.465440 17344 net.cpp:150] Setting up L1_b7_cbr2_scale
I0817 16:27:31.465451 17344 net.cpp:157] Top shape: 125 16 32 32 (2048000)
I0817 16:27:31.465456 17344 net.cpp:165] Memory required for data: 648705500
I0817 16:27:31.465466 17344 layer_factory.hpp:77] Creating layer L1_b7_sum_eltwise
I0817 16:27:31.465474 17344 net.cpp:100] Creating Layer L1_b7_sum_eltwise
I0817 16:27:31.465481 17344 net.cpp:434] L1_b7_sum_eltwise <- L1_b7_cbr2_bn_top
I0817 16:27:31.465487 17344 net.cpp:434] L1_b7_sum_eltwise <- L1_b6_sum_eltwise_top_L1_b6_relu_0_split_1
I0817 16:27:31.465497 17344 net.cpp:408] L1_b7_sum_eltwise -> L1_b7_sum_eltwise_top
I0817 16:27:31.465533 17344 net.cpp:150] Setting up L1_b7_sum_eltwise
I0817 16:27:31.465543 17344 net.cpp:157] Top shape: 125 16 32 32 (2048000)
I0817 16:27:31.465548 17344 net.cpp:165] Memory required for data: 656897500
I0817 16:27:31.465553 17344 layer_factory.hpp:77] Creating layer L1_b7_relu
I0817 16:27:31.465561 17344 net.cpp:100] Creating Layer L1_b7_relu
I0817 16:27:31.465566 17344 net.cpp:434] L1_b7_relu <- L1_b7_sum_eltwise_top
I0817 16:27:31.465574 17344 net.cpp:395] L1_b7_relu -> L1_b7_sum_eltwise_top (in-place)
I0817 16:27:31.465585 17344 net.cpp:150] Setting up L1_b7_relu
I0817 16:27:31.465592 17344 net.cpp:157] Top shape: 125 16 32 32 (2048000)
I0817 16:27:31.465596 17344 net.cpp:165] Memory required for data: 665089500
I0817 16:27:31.465601 17344 layer_factory.hpp:77] Creating layer L1_b7_sum_eltwise_top_L1_b7_relu_0_split
I0817 16:27:31.465608 17344 net.cpp:100] Creating Layer L1_b7_sum_eltwise_top_L1_b7_relu_0_split
I0817 16:27:31.465615 17344 net.cpp:434] L1_b7_sum_eltwise_top_L1_b7_relu_0_split <- L1_b7_sum_eltwise_top
I0817 16:27:31.465620 17344 net.cpp:408] L1_b7_sum_eltwise_top_L1_b7_relu_0_split -> L1_b7_sum_eltwise_top_L1_b7_relu_0_split_0
I0817 16:27:31.465629 17344 net.cpp:408] L1_b7_sum_eltwise_top_L1_b7_relu_0_split -> L1_b7_sum_eltwise_top_L1_b7_relu_0_split_1
I0817 16:27:31.465674 17344 net.cpp:150] Setting up L1_b7_sum_eltwise_top_L1_b7_relu_0_split
I0817 16:27:31.465685 17344 net.cpp:157] Top shape: 125 16 32 32 (2048000)
I0817 16:27:31.465692 17344 net.cpp:157] Top shape: 125 16 32 32 (2048000)
I0817 16:27:31.465697 17344 net.cpp:165] Memory required for data: 681473500
I0817 16:27:31.465701 17344 layer_factory.hpp:77] Creating layer L1_b8_cbr1_conv
I0817 16:27:31.465713 17344 net.cpp:100] Creating Layer L1_b8_cbr1_conv
I0817 16:27:31.465719 17344 net.cpp:434] L1_b8_cbr1_conv <- L1_b7_sum_eltwise_top_L1_b7_relu_0_split_0
I0817 16:27:31.465730 17344 net.cpp:408] L1_b8_cbr1_conv -> L1_b8_cbr1_conv_top
I0817 16:27:31.466048 17344 net.cpp:150] Setting up L1_b8_cbr1_conv
I0817 16:27:31.466063 17344 net.cpp:157] Top shape: 125 16 32 32 (2048000)
I0817 16:27:31.466068 17344 net.cpp:165] Memory required for data: 689665500
I0817 16:27:31.466076 17344 layer_factory.hpp:77] Creating layer L1_b8_cbr1_bn
I0817 16:27:31.466085 17344 net.cpp:100] Creating Layer L1_b8_cbr1_bn
I0817 16:27:31.466091 17344 net.cpp:434] L1_b8_cbr1_bn <- L1_b8_cbr1_conv_top
I0817 16:27:31.466104 17344 net.cpp:408] L1_b8_cbr1_bn -> L1_b8_cbr1_bn_top
I0817 16:27:31.466351 17344 net.cpp:150] Setting up L1_b8_cbr1_bn
I0817 16:27:31.466364 17344 net.cpp:157] Top shape: 125 16 32 32 (2048000)
I0817 16:27:31.466369 17344 net.cpp:165] Memory required for data: 697857500
I0817 16:27:31.466379 17344 layer_factory.hpp:77] Creating layer L1_b8_cbr1_scale
I0817 16:27:31.466392 17344 net.cpp:100] Creating Layer L1_b8_cbr1_scale
I0817 16:27:31.466398 17344 net.cpp:434] L1_b8_cbr1_scale <- L1_b8_cbr1_bn_top
I0817 16:27:31.466405 17344 net.cpp:395] L1_b8_cbr1_scale -> L1_b8_cbr1_bn_top (in-place)
I0817 16:27:31.466457 17344 layer_factory.hpp:77] Creating layer L1_b8_cbr1_scale
I0817 16:27:31.466600 17344 net.cpp:150] Setting up L1_b8_cbr1_scale
I0817 16:27:31.466614 17344 net.cpp:157] Top shape: 125 16 32 32 (2048000)
I0817 16:27:31.466619 17344 net.cpp:165] Memory required for data: 706049500
I0817 16:27:31.466627 17344 layer_factory.hpp:77] Creating layer L1_b8_cbr1_relu
I0817 16:27:31.466635 17344 net.cpp:100] Creating Layer L1_b8_cbr1_relu
I0817 16:27:31.466641 17344 net.cpp:434] L1_b8_cbr1_relu <- L1_b8_cbr1_bn_top
I0817 16:27:31.466651 17344 net.cpp:395] L1_b8_cbr1_relu -> L1_b8_cbr1_bn_top (in-place)
I0817 16:27:31.466661 17344 net.cpp:150] Setting up L1_b8_cbr1_relu
I0817 16:27:31.466668 17344 net.cpp:157] Top shape: 125 16 32 32 (2048000)
I0817 16:27:31.466672 17344 net.cpp:165] Memory required for data: 714241500
I0817 16:27:31.466677 17344 layer_factory.hpp:77] Creating layer L1_b8_cbr2_conv
I0817 16:27:31.466691 17344 net.cpp:100] Creating Layer L1_b8_cbr2_conv
I0817 16:27:31.466697 17344 net.cpp:434] L1_b8_cbr2_conv <- L1_b8_cbr1_bn_top
I0817 16:27:31.466706 17344 net.cpp:408] L1_b8_cbr2_conv -> L1_b8_cbr2_conv_top
I0817 16:27:31.467049 17344 net.cpp:150] Setting up L1_b8_cbr2_conv
I0817 16:27:31.467064 17344 net.cpp:157] Top shape: 125 16 32 32 (2048000)
I0817 16:27:31.467069 17344 net.cpp:165] Memory required for data: 722433500
I0817 16:27:31.467078 17344 layer_factory.hpp:77] Creating layer L1_b8_cbr2_bn
I0817 16:27:31.467090 17344 net.cpp:100] Creating Layer L1_b8_cbr2_bn
I0817 16:27:31.467097 17344 net.cpp:434] L1_b8_cbr2_bn <- L1_b8_cbr2_conv_top
I0817 16:27:31.467104 17344 net.cpp:408] L1_b8_cbr2_bn -> L1_b8_cbr2_bn_top
I0817 16:27:31.467350 17344 net.cpp:150] Setting up L1_b8_cbr2_bn
I0817 16:27:31.467361 17344 net.cpp:157] Top shape: 125 16 32 32 (2048000)
I0817 16:27:31.467366 17344 net.cpp:165] Memory required for data: 730625500
I0817 16:27:31.467376 17344 layer_factory.hpp:77] Creating layer L1_b8_cbr2_scale
I0817 16:27:31.467389 17344 net.cpp:100] Creating Layer L1_b8_cbr2_scale
I0817 16:27:31.467396 17344 net.cpp:434] L1_b8_cbr2_scale <- L1_b8_cbr2_bn_top
I0817 16:27:31.467403 17344 net.cpp:395] L1_b8_cbr2_scale -> L1_b8_cbr2_bn_top (in-place)
I0817 16:27:31.467459 17344 layer_factory.hpp:77] Creating layer L1_b8_cbr2_scale
I0817 16:27:31.467598 17344 net.cpp:150] Setting up L1_b8_cbr2_scale
I0817 16:27:31.467612 17344 net.cpp:157] Top shape: 125 16 32 32 (2048000)
I0817 16:27:31.467617 17344 net.cpp:165] Memory required for data: 738817500
I0817 16:27:31.467625 17344 layer_factory.hpp:77] Creating layer L1_b8_sum_eltwise
I0817 16:27:31.467634 17344 net.cpp:100] Creating Layer L1_b8_sum_eltwise
I0817 16:27:31.467640 17344 net.cpp:434] L1_b8_sum_eltwise <- L1_b8_cbr2_bn_top
I0817 16:27:31.467648 17344 net.cpp:434] L1_b8_sum_eltwise <- L1_b7_sum_eltwise_top_L1_b7_relu_0_split_1
I0817 16:27:31.467658 17344 net.cpp:408] L1_b8_sum_eltwise -> L1_b8_sum_eltwise_top
I0817 16:27:31.467689 17344 net.cpp:150] Setting up L1_b8_sum_eltwise
I0817 16:27:31.467701 17344 net.cpp:157] Top shape: 125 16 32 32 (2048000)
I0817 16:27:31.467706 17344 net.cpp:165] Memory required for data: 747009500
I0817 16:27:31.467711 17344 layer_factory.hpp:77] Creating layer L1_b8_relu
I0817 16:27:31.467718 17344 net.cpp:100] Creating Layer L1_b8_relu
I0817 16:27:31.467725 17344 net.cpp:434] L1_b8_relu <- L1_b8_sum_eltwise_top
I0817 16:27:31.467731 17344 net.cpp:395] L1_b8_relu -> L1_b8_sum_eltwise_top (in-place)
I0817 16:27:31.467739 17344 net.cpp:150] Setting up L1_b8_relu
I0817 16:27:31.467753 17344 net.cpp:157] Top shape: 125 16 32 32 (2048000)
I0817 16:27:31.467758 17344 net.cpp:165] Memory required for data: 755201500
I0817 16:27:31.467763 17344 layer_factory.hpp:77] Creating layer L1_b8_sum_eltwise_top_L1_b8_relu_0_split
I0817 16:27:31.467773 17344 net.cpp:100] Creating Layer L1_b8_sum_eltwise_top_L1_b8_relu_0_split
I0817 16:27:31.467779 17344 net.cpp:434] L1_b8_sum_eltwise_top_L1_b8_relu_0_split <- L1_b8_sum_eltwise_top
I0817 16:27:31.467787 17344 net.cpp:408] L1_b8_sum_eltwise_top_L1_b8_relu_0_split -> L1_b8_sum_eltwise_top_L1_b8_relu_0_split_0
I0817 16:27:31.467797 17344 net.cpp:408] L1_b8_sum_eltwise_top_L1_b8_relu_0_split -> L1_b8_sum_eltwise_top_L1_b8_relu_0_split_1
I0817 16:27:31.467850 17344 net.cpp:150] Setting up L1_b8_sum_eltwise_top_L1_b8_relu_0_split
I0817 16:27:31.467862 17344 net.cpp:157] Top shape: 125 16 32 32 (2048000)
I0817 16:27:31.467869 17344 net.cpp:157] Top shape: 125 16 32 32 (2048000)
I0817 16:27:31.467874 17344 net.cpp:165] Memory required for data: 771585500
I0817 16:27:31.467878 17344 layer_factory.hpp:77] Creating layer L1_b9_cbr1_conv
I0817 16:27:31.467890 17344 net.cpp:100] Creating Layer L1_b9_cbr1_conv
I0817 16:27:31.467896 17344 net.cpp:434] L1_b9_cbr1_conv <- L1_b8_sum_eltwise_top_L1_b8_relu_0_split_0
I0817 16:27:31.467908 17344 net.cpp:408] L1_b9_cbr1_conv -> L1_b9_cbr1_conv_top
I0817 16:27:31.468230 17344 net.cpp:150] Setting up L1_b9_cbr1_conv
I0817 16:27:31.468245 17344 net.cpp:157] Top shape: 125 16 32 32 (2048000)
I0817 16:27:31.468250 17344 net.cpp:165] Memory required for data: 779777500
I0817 16:27:31.468258 17344 layer_factory.hpp:77] Creating layer L1_b9_cbr1_bn
I0817 16:27:31.468272 17344 net.cpp:100] Creating Layer L1_b9_cbr1_bn
I0817 16:27:31.468279 17344 net.cpp:434] L1_b9_cbr1_bn <- L1_b9_cbr1_conv_top
I0817 16:27:31.468287 17344 net.cpp:408] L1_b9_cbr1_bn -> L1_b9_cbr1_bn_top
I0817 16:27:31.468533 17344 net.cpp:150] Setting up L1_b9_cbr1_bn
I0817 16:27:31.468546 17344 net.cpp:157] Top shape: 125 16 32 32 (2048000)
I0817 16:27:31.468551 17344 net.cpp:165] Memory required for data: 787969500
I0817 16:27:31.468561 17344 layer_factory.hpp:77] Creating layer L1_b9_cbr1_scale
I0817 16:27:31.468570 17344 net.cpp:100] Creating Layer L1_b9_cbr1_scale
I0817 16:27:31.468576 17344 net.cpp:434] L1_b9_cbr1_scale <- L1_b9_cbr1_bn_top
I0817 16:27:31.468583 17344 net.cpp:395] L1_b9_cbr1_scale -> L1_b9_cbr1_bn_top (in-place)
I0817 16:27:31.468638 17344 layer_factory.hpp:77] Creating layer L1_b9_cbr1_scale
I0817 16:27:31.468786 17344 net.cpp:150] Setting up L1_b9_cbr1_scale
I0817 16:27:31.468798 17344 net.cpp:157] Top shape: 125 16 32 32 (2048000)
I0817 16:27:31.468809 17344 net.cpp:165] Memory required for data: 796161500
I0817 16:27:31.468818 17344 layer_factory.hpp:77] Creating layer L1_b9_cbr1_relu
I0817 16:27:31.468827 17344 net.cpp:100] Creating Layer L1_b9_cbr1_relu
I0817 16:27:31.468833 17344 net.cpp:434] L1_b9_cbr1_relu <- L1_b9_cbr1_bn_top
I0817 16:27:31.468843 17344 net.cpp:395] L1_b9_cbr1_relu -> L1_b9_cbr1_bn_top (in-place)
I0817 16:27:31.468853 17344 net.cpp:150] Setting up L1_b9_cbr1_relu
I0817 16:27:31.468860 17344 net.cpp:157] Top shape: 125 16 32 32 (2048000)
I0817 16:27:31.468865 17344 net.cpp:165] Memory required for data: 804353500
I0817 16:27:31.468869 17344 layer_factory.hpp:77] Creating layer L1_b9_cbr2_conv
I0817 16:27:31.468883 17344 net.cpp:100] Creating Layer L1_b9_cbr2_conv
I0817 16:27:31.468889 17344 net.cpp:434] L1_b9_cbr2_conv <- L1_b9_cbr1_bn_top
I0817 16:27:31.468897 17344 net.cpp:408] L1_b9_cbr2_conv -> L1_b9_cbr2_conv_top
I0817 16:27:31.469213 17344 net.cpp:150] Setting up L1_b9_cbr2_conv
I0817 16:27:31.469228 17344 net.cpp:157] Top shape: 125 16 32 32 (2048000)
I0817 16:27:31.469233 17344 net.cpp:165] Memory required for data: 812545500
I0817 16:27:31.469241 17344 layer_factory.hpp:77] Creating layer L1_b9_cbr2_bn
I0817 16:27:31.469249 17344 net.cpp:100] Creating Layer L1_b9_cbr2_bn
I0817 16:27:31.469256 17344 net.cpp:434] L1_b9_cbr2_bn <- L1_b9_cbr2_conv_top
I0817 16:27:31.469266 17344 net.cpp:408] L1_b9_cbr2_bn -> L1_b9_cbr2_bn_top
I0817 16:27:31.469516 17344 net.cpp:150] Setting up L1_b9_cbr2_bn
I0817 16:27:31.469532 17344 net.cpp:157] Top shape: 125 16 32 32 (2048000)
I0817 16:27:31.469537 17344 net.cpp:165] Memory required for data: 820737500
I0817 16:27:31.469568 17344 layer_factory.hpp:77] Creating layer L1_b9_cbr2_scale
I0817 16:27:31.469576 17344 net.cpp:100] Creating Layer L1_b9_cbr2_scale
I0817 16:27:31.469583 17344 net.cpp:434] L1_b9_cbr2_scale <- L1_b9_cbr2_bn_top
I0817 16:27:31.469590 17344 net.cpp:395] L1_b9_cbr2_scale -> L1_b9_cbr2_bn_top (in-place)
I0817 16:27:31.469645 17344 layer_factory.hpp:77] Creating layer L1_b9_cbr2_scale
I0817 16:27:31.469784 17344 net.cpp:150] Setting up L1_b9_cbr2_scale
I0817 16:27:31.469796 17344 net.cpp:157] Top shape: 125 16 32 32 (2048000)
I0817 16:27:31.469801 17344 net.cpp:165] Memory required for data: 828929500
I0817 16:27:31.469816 17344 layer_factory.hpp:77] Creating layer L1_b9_sum_eltwise
I0817 16:27:31.469826 17344 net.cpp:100] Creating Layer L1_b9_sum_eltwise
I0817 16:27:31.469832 17344 net.cpp:434] L1_b9_sum_eltwise <- L1_b9_cbr2_bn_top
I0817 16:27:31.469840 17344 net.cpp:434] L1_b9_sum_eltwise <- L1_b8_sum_eltwise_top_L1_b8_relu_0_split_1
I0817 16:27:31.469851 17344 net.cpp:408] L1_b9_sum_eltwise -> L1_b9_sum_eltwise_top
I0817 16:27:31.469882 17344 net.cpp:150] Setting up L1_b9_sum_eltwise
I0817 16:27:31.469892 17344 net.cpp:157] Top shape: 125 16 32 32 (2048000)
I0817 16:27:31.469897 17344 net.cpp:165] Memory required for data: 837121500
I0817 16:27:31.469902 17344 layer_factory.hpp:77] Creating layer L1_b9_relu
I0817 16:27:31.469909 17344 net.cpp:100] Creating Layer L1_b9_relu
I0817 16:27:31.469914 17344 net.cpp:434] L1_b9_relu <- L1_b9_sum_eltwise_top
I0817 16:27:31.469924 17344 net.cpp:395] L1_b9_relu -> L1_b9_sum_eltwise_top (in-place)
I0817 16:27:31.469934 17344 net.cpp:150] Setting up L1_b9_relu
I0817 16:27:31.469941 17344 net.cpp:157] Top shape: 125 16 32 32 (2048000)
I0817 16:27:31.469945 17344 net.cpp:165] Memory required for data: 845313500
I0817 16:27:31.469950 17344 layer_factory.hpp:77] Creating layer L1_b9_sum_eltwise_top_L1_b9_relu_0_split
I0817 16:27:31.469957 17344 net.cpp:100] Creating Layer L1_b9_sum_eltwise_top_L1_b9_relu_0_split
I0817 16:27:31.469962 17344 net.cpp:434] L1_b9_sum_eltwise_top_L1_b9_relu_0_split <- L1_b9_sum_eltwise_top
I0817 16:27:31.469974 17344 net.cpp:408] L1_b9_sum_eltwise_top_L1_b9_relu_0_split -> L1_b9_sum_eltwise_top_L1_b9_relu_0_split_0
I0817 16:27:31.469983 17344 net.cpp:408] L1_b9_sum_eltwise_top_L1_b9_relu_0_split -> L1_b9_sum_eltwise_top_L1_b9_relu_0_split_1
I0817 16:27:31.470028 17344 net.cpp:150] Setting up L1_b9_sum_eltwise_top_L1_b9_relu_0_split
I0817 16:27:31.470039 17344 net.cpp:157] Top shape: 125 16 32 32 (2048000)
I0817 16:27:31.470046 17344 net.cpp:157] Top shape: 125 16 32 32 (2048000)
I0817 16:27:31.470051 17344 net.cpp:165] Memory required for data: 861697500
I0817 16:27:31.470054 17344 layer_factory.hpp:77] Creating layer L2_b1_cbr1_conv
I0817 16:27:31.470067 17344 net.cpp:100] Creating Layer L2_b1_cbr1_conv
I0817 16:27:31.470072 17344 net.cpp:434] L2_b1_cbr1_conv <- L1_b9_sum_eltwise_top_L1_b9_relu_0_split_0
I0817 16:27:31.470084 17344 net.cpp:408] L2_b1_cbr1_conv -> L2_b1_cbr1_conv_top
I0817 16:27:31.470399 17344 net.cpp:150] Setting up L2_b1_cbr1_conv
I0817 16:27:31.470413 17344 net.cpp:157] Top shape: 125 16 16 16 (512000)
I0817 16:27:31.470418 17344 net.cpp:165] Memory required for data: 863745500
I0817 16:27:31.470427 17344 layer_factory.hpp:77] Creating layer L2_b1_cbr1_bn
I0817 16:27:31.470437 17344 net.cpp:100] Creating Layer L2_b1_cbr1_bn
I0817 16:27:31.470443 17344 net.cpp:434] L2_b1_cbr1_bn <- L2_b1_cbr1_conv_top
I0817 16:27:31.470453 17344 net.cpp:408] L2_b1_cbr1_bn -> L2_b1_cbr1_bn_top
I0817 16:27:31.470688 17344 net.cpp:150] Setting up L2_b1_cbr1_bn
I0817 16:27:31.470701 17344 net.cpp:157] Top shape: 125 16 16 16 (512000)
I0817 16:27:31.470706 17344 net.cpp:165] Memory required for data: 865793500
I0817 16:27:31.470716 17344 layer_factory.hpp:77] Creating layer L2_b1_cbr1_scale
I0817 16:27:31.470729 17344 net.cpp:100] Creating Layer L2_b1_cbr1_scale
I0817 16:27:31.470741 17344 net.cpp:434] L2_b1_cbr1_scale <- L2_b1_cbr1_bn_top
I0817 16:27:31.470749 17344 net.cpp:395] L2_b1_cbr1_scale -> L2_b1_cbr1_bn_top (in-place)
I0817 16:27:31.470808 17344 layer_factory.hpp:77] Creating layer L2_b1_cbr1_scale
I0817 16:27:31.470949 17344 net.cpp:150] Setting up L2_b1_cbr1_scale
I0817 16:27:31.470963 17344 net.cpp:157] Top shape: 125 16 16 16 (512000)
I0817 16:27:31.470968 17344 net.cpp:165] Memory required for data: 867841500
I0817 16:27:31.470976 17344 layer_factory.hpp:77] Creating layer L2_b1_cbr1_relu
I0817 16:27:31.470988 17344 net.cpp:100] Creating Layer L2_b1_cbr1_relu
I0817 16:27:31.470993 17344 net.cpp:434] L2_b1_cbr1_relu <- L2_b1_cbr1_bn_top
I0817 16:27:31.471001 17344 net.cpp:395] L2_b1_cbr1_relu -> L2_b1_cbr1_bn_top (in-place)
I0817 16:27:31.471010 17344 net.cpp:150] Setting up L2_b1_cbr1_relu
I0817 16:27:31.471017 17344 net.cpp:157] Top shape: 125 16 16 16 (512000)
I0817 16:27:31.471021 17344 net.cpp:165] Memory required for data: 869889500
I0817 16:27:31.471026 17344 layer_factory.hpp:77] Creating layer L2_b1_cbr2_conv
I0817 16:27:31.471040 17344 net.cpp:100] Creating Layer L2_b1_cbr2_conv
I0817 16:27:31.471046 17344 net.cpp:434] L2_b1_cbr2_conv <- L2_b1_cbr1_bn_top
I0817 16:27:31.471056 17344 net.cpp:408] L2_b1_cbr2_conv -> L2_b1_cbr2_conv_top
I0817 16:27:31.471366 17344 net.cpp:150] Setting up L2_b1_cbr2_conv
I0817 16:27:31.471379 17344 net.cpp:157] Top shape: 125 16 16 16 (512000)
I0817 16:27:31.471385 17344 net.cpp:165] Memory required for data: 871937500
I0817 16:27:31.471392 17344 layer_factory.hpp:77] Creating layer L2_b1_cbr2_bn
I0817 16:27:31.471401 17344 net.cpp:100] Creating Layer L2_b1_cbr2_bn
I0817 16:27:31.471407 17344 net.cpp:434] L2_b1_cbr2_bn <- L2_b1_cbr2_conv_top
I0817 16:27:31.471421 17344 net.cpp:408] L2_b1_cbr2_bn -> L2_b1_cbr2_bn_top
I0817 16:27:31.471664 17344 net.cpp:150] Setting up L2_b1_cbr2_bn
I0817 16:27:31.471676 17344 net.cpp:157] Top shape: 125 16 16 16 (512000)
I0817 16:27:31.471681 17344 net.cpp:165] Memory required for data: 873985500
I0817 16:27:31.471693 17344 layer_factory.hpp:77] Creating layer L2_b1_cbr2_scale
I0817 16:27:31.471706 17344 net.cpp:100] Creating Layer L2_b1_cbr2_scale
I0817 16:27:31.471712 17344 net.cpp:434] L2_b1_cbr2_scale <- L2_b1_cbr2_bn_top
I0817 16:27:31.471719 17344 net.cpp:395] L2_b1_cbr2_scale -> L2_b1_cbr2_bn_top (in-place)
I0817 16:27:31.471772 17344 layer_factory.hpp:77] Creating layer L2_b1_cbr2_scale
I0817 16:27:31.471923 17344 net.cpp:150] Setting up L2_b1_cbr2_scale
I0817 16:27:31.471936 17344 net.cpp:157] Top shape: 125 16 16 16 (512000)
I0817 16:27:31.471941 17344 net.cpp:165] Memory required for data: 876033500
I0817 16:27:31.471951 17344 layer_factory.hpp:77] Creating layer L2_b1_pool
I0817 16:27:31.471964 17344 net.cpp:100] Creating Layer L2_b1_pool
I0817 16:27:31.471971 17344 net.cpp:434] L2_b1_pool <- L1_b9_sum_eltwise_top_L1_b9_relu_0_split_1
I0817 16:27:31.471979 17344 net.cpp:408] L2_b1_pool -> L2_b1_pool
I0817 16:27:31.472064 17344 net.cpp:150] Setting up L2_b1_pool
I0817 16:27:31.472079 17344 net.cpp:157] Top shape: 125 16 16 16 (512000)
I0817 16:27:31.472084 17344 net.cpp:165] Memory required for data: 878081500
I0817 16:27:31.472090 17344 layer_factory.hpp:77] Creating layer L2_b1_sum_eltwise
I0817 16:27:31.472100 17344 net.cpp:100] Creating Layer L2_b1_sum_eltwise
I0817 16:27:31.472105 17344 net.cpp:434] L2_b1_sum_eltwise <- L2_b1_cbr2_bn_top
I0817 16:27:31.472111 17344 net.cpp:434] L2_b1_sum_eltwise <- L2_b1_pool
I0817 16:27:31.472122 17344 net.cpp:408] L2_b1_sum_eltwise -> L2_b1_sum_eltwise_top
I0817 16:27:31.472156 17344 net.cpp:150] Setting up L2_b1_sum_eltwise
I0817 16:27:31.472164 17344 net.cpp:157] Top shape: 125 16 16 16 (512000)
I0817 16:27:31.472169 17344 net.cpp:165] Memory required for data: 880129500
I0817 16:27:31.472174 17344 layer_factory.hpp:77] Creating layer L2_b1_relu
I0817 16:27:31.472182 17344 net.cpp:100] Creating Layer L2_b1_relu
I0817 16:27:31.472187 17344 net.cpp:434] L2_b1_relu <- L2_b1_sum_eltwise_top
I0817 16:27:31.472203 17344 net.cpp:395] L2_b1_relu -> L2_b1_sum_eltwise_top (in-place)
I0817 16:27:31.472213 17344 net.cpp:150] Setting up L2_b1_relu
I0817 16:27:31.472219 17344 net.cpp:157] Top shape: 125 16 16 16 (512000)
I0817 16:27:31.472223 17344 net.cpp:165] Memory required for data: 882177500
I0817 16:27:31.472229 17344 layer_factory.hpp:77] Creating layer L2_b1_zeros
I0817 16:27:31.472277 17344 net.cpp:100] Creating Layer L2_b1_zeros
I0817 16:27:31.472291 17344 net.cpp:408] L2_b1_zeros -> L2_b1_zeros
I0817 16:27:31.474565 17344 net.cpp:150] Setting up L2_b1_zeros
I0817 16:27:31.474583 17344 net.cpp:157] Top shape: 125 16 16 16 (512000)
I0817 16:27:31.474588 17344 net.cpp:165] Memory required for data: 884225500
I0817 16:27:31.474594 17344 layer_factory.hpp:77] Creating layer L2_b1_concat0
I0817 16:27:31.474606 17344 net.cpp:100] Creating Layer L2_b1_concat0
I0817 16:27:31.474611 17344 net.cpp:434] L2_b1_concat0 <- L2_b1_sum_eltwise_top
I0817 16:27:31.474619 17344 net.cpp:434] L2_b1_concat0 <- L2_b1_zeros
I0817 16:27:31.474630 17344 net.cpp:408] L2_b1_concat0 -> L2_b1_concat0
I0817 16:27:31.474705 17344 net.cpp:150] Setting up L2_b1_concat0
I0817 16:27:31.474720 17344 net.cpp:157] Top shape: 125 32 16 16 (1024000)
I0817 16:27:31.474730 17344 net.cpp:165] Memory required for data: 888321500
I0817 16:27:31.474735 17344 layer_factory.hpp:77] Creating layer L2_b1_concat0_L2_b1_concat0_0_split
I0817 16:27:31.474745 17344 net.cpp:100] Creating Layer L2_b1_concat0_L2_b1_concat0_0_split
I0817 16:27:31.474750 17344 net.cpp:434] L2_b1_concat0_L2_b1_concat0_0_split <- L2_b1_concat0
I0817 16:27:31.474757 17344 net.cpp:408] L2_b1_concat0_L2_b1_concat0_0_split -> L2_b1_concat0_L2_b1_concat0_0_split_0
I0817 16:27:31.474767 17344 net.cpp:408] L2_b1_concat0_L2_b1_concat0_0_split -> L2_b1_concat0_L2_b1_concat0_0_split_1
I0817 16:27:31.474824 17344 net.cpp:150] Setting up L2_b1_concat0_L2_b1_concat0_0_split
I0817 16:27:31.474838 17344 net.cpp:157] Top shape: 125 32 16 16 (1024000)
I0817 16:27:31.474843 17344 net.cpp:157] Top shape: 125 32 16 16 (1024000)
I0817 16:27:31.474848 17344 net.cpp:165] Memory required for data: 896513500
I0817 16:27:31.474853 17344 layer_factory.hpp:77] Creating layer L2_b2_cbr1_conv
I0817 16:27:31.474869 17344 net.cpp:100] Creating Layer L2_b2_cbr1_conv
I0817 16:27:31.474875 17344 net.cpp:434] L2_b2_cbr1_conv <- L2_b1_concat0_L2_b1_concat0_0_split_0
I0817 16:27:31.474884 17344 net.cpp:408] L2_b2_cbr1_conv -> L2_b2_cbr1_conv_top
I0817 16:27:31.476302 17344 net.cpp:150] Setting up L2_b2_cbr1_conv
I0817 16:27:31.476320 17344 net.cpp:157] Top shape: 125 32 16 16 (1024000)
I0817 16:27:31.476325 17344 net.cpp:165] Memory required for data: 900609500
I0817 16:27:31.476336 17344 layer_factory.hpp:77] Creating layer L2_b2_cbr1_bn
I0817 16:27:31.476348 17344 net.cpp:100] Creating Layer L2_b2_cbr1_bn
I0817 16:27:31.476354 17344 net.cpp:434] L2_b2_cbr1_bn <- L2_b2_cbr1_conv_top
I0817 16:27:31.476363 17344 net.cpp:408] L2_b2_cbr1_bn -> L2_b2_cbr1_bn_top
I0817 16:27:31.476610 17344 net.cpp:150] Setting up L2_b2_cbr1_bn
I0817 16:27:31.476624 17344 net.cpp:157] Top shape: 125 32 16 16 (1024000)
I0817 16:27:31.476629 17344 net.cpp:165] Memory required for data: 904705500
I0817 16:27:31.476639 17344 layer_factory.hpp:77] Creating layer L2_b2_cbr1_scale
I0817 16:27:31.476650 17344 net.cpp:100] Creating Layer L2_b2_cbr1_scale
I0817 16:27:31.476657 17344 net.cpp:434] L2_b2_cbr1_scale <- L2_b2_cbr1_bn_top
I0817 16:27:31.476665 17344 net.cpp:395] L2_b2_cbr1_scale -> L2_b2_cbr1_bn_top (in-place)
I0817 16:27:31.476719 17344 layer_factory.hpp:77] Creating layer L2_b2_cbr1_scale
I0817 16:27:31.476874 17344 net.cpp:150] Setting up L2_b2_cbr1_scale
I0817 16:27:31.476888 17344 net.cpp:157] Top shape: 125 32 16 16 (1024000)
I0817 16:27:31.476893 17344 net.cpp:165] Memory required for data: 908801500
I0817 16:27:31.476902 17344 layer_factory.hpp:77] Creating layer L2_b2_cbr1_relu
I0817 16:27:31.476913 17344 net.cpp:100] Creating Layer L2_b2_cbr1_relu
I0817 16:27:31.476920 17344 net.cpp:434] L2_b2_cbr1_relu <- L2_b2_cbr1_bn_top
I0817 16:27:31.476935 17344 net.cpp:395] L2_b2_cbr1_relu -> L2_b2_cbr1_bn_top (in-place)
I0817 16:27:31.476948 17344 net.cpp:150] Setting up L2_b2_cbr1_relu
I0817 16:27:31.476956 17344 net.cpp:157] Top shape: 125 32 16 16 (1024000)
I0817 16:27:31.476961 17344 net.cpp:165] Memory required for data: 912897500
I0817 16:27:31.476965 17344 layer_factory.hpp:77] Creating layer L2_b2_cbr2_conv
I0817 16:27:31.476977 17344 net.cpp:100] Creating Layer L2_b2_cbr2_conv
I0817 16:27:31.476984 17344 net.cpp:434] L2_b2_cbr2_conv <- L2_b2_cbr1_bn_top
I0817 16:27:31.476994 17344 net.cpp:408] L2_b2_cbr2_conv -> L2_b2_cbr2_conv_top
I0817 16:27:31.477447 17344 net.cpp:150] Setting up L2_b2_cbr2_conv
I0817 16:27:31.477461 17344 net.cpp:157] Top shape: 125 32 16 16 (1024000)
I0817 16:27:31.477466 17344 net.cpp:165] Memory required for data: 916993500
I0817 16:27:31.477475 17344 layer_factory.hpp:77] Creating layer L2_b2_cbr2_bn
I0817 16:27:31.477484 17344 net.cpp:100] Creating Layer L2_b2_cbr2_bn
I0817 16:27:31.477490 17344 net.cpp:434] L2_b2_cbr2_bn <- L2_b2_cbr2_conv_top
I0817 16:27:31.477501 17344 net.cpp:408] L2_b2_cbr2_bn -> L2_b2_cbr2_bn_top
I0817 16:27:31.477744 17344 net.cpp:150] Setting up L2_b2_cbr2_bn
I0817 16:27:31.477757 17344 net.cpp:157] Top shape: 125 32 16 16 (1024000)
I0817 16:27:31.477762 17344 net.cpp:165] Memory required for data: 921089500
I0817 16:27:31.477772 17344 layer_factory.hpp:77] Creating layer L2_b2_cbr2_scale
I0817 16:27:31.477787 17344 net.cpp:100] Creating Layer L2_b2_cbr2_scale
I0817 16:27:31.477793 17344 net.cpp:434] L2_b2_cbr2_scale <- L2_b2_cbr2_bn_top
I0817 16:27:31.477800 17344 net.cpp:395] L2_b2_cbr2_scale -> L2_b2_cbr2_bn_top (in-place)
I0817 16:27:31.477864 17344 layer_factory.hpp:77] Creating layer L2_b2_cbr2_scale
I0817 16:27:31.478006 17344 net.cpp:150] Setting up L2_b2_cbr2_scale
I0817 16:27:31.478019 17344 net.cpp:157] Top shape: 125 32 16 16 (1024000)
I0817 16:27:31.478024 17344 net.cpp:165] Memory required for data: 925185500
I0817 16:27:31.478034 17344 layer_factory.hpp:77] Creating layer L2_b2_sum_eltwise
I0817 16:27:31.478045 17344 net.cpp:100] Creating Layer L2_b2_sum_eltwise
I0817 16:27:31.478052 17344 net.cpp:434] L2_b2_sum_eltwise <- L2_b2_cbr2_bn_top
I0817 16:27:31.478060 17344 net.cpp:434] L2_b2_sum_eltwise <- L2_b1_concat0_L2_b1_concat0_0_split_1
I0817 16:27:31.478067 17344 net.cpp:408] L2_b2_sum_eltwise -> L2_b2_sum_eltwise_top
I0817 16:27:31.478096 17344 net.cpp:150] Setting up L2_b2_sum_eltwise
I0817 16:27:31.478106 17344 net.cpp:157] Top shape: 125 32 16 16 (1024000)
I0817 16:27:31.478111 17344 net.cpp:165] Memory required for data: 929281500
I0817 16:27:31.478116 17344 layer_factory.hpp:77] Creating layer L2_b2_relu
I0817 16:27:31.478123 17344 net.cpp:100] Creating Layer L2_b2_relu
I0817 16:27:31.478129 17344 net.cpp:434] L2_b2_relu <- L2_b2_sum_eltwise_top
I0817 16:27:31.478139 17344 net.cpp:395] L2_b2_relu -> L2_b2_sum_eltwise_top (in-place)
I0817 16:27:31.478148 17344 net.cpp:150] Setting up L2_b2_relu
I0817 16:27:31.478155 17344 net.cpp:157] Top shape: 125 32 16 16 (1024000)
I0817 16:27:31.478160 17344 net.cpp:165] Memory required for data: 933377500
I0817 16:27:31.478164 17344 layer_factory.hpp:77] Creating layer L2_b2_sum_eltwise_top_L2_b2_relu_0_split
I0817 16:27:31.478171 17344 net.cpp:100] Creating Layer L2_b2_sum_eltwise_top_L2_b2_relu_0_split
I0817 16:27:31.478176 17344 net.cpp:434] L2_b2_sum_eltwise_top_L2_b2_relu_0_split <- L2_b2_sum_eltwise_top
I0817 16:27:31.478184 17344 net.cpp:408] L2_b2_sum_eltwise_top_L2_b2_relu_0_split -> L2_b2_sum_eltwise_top_L2_b2_relu_0_split_0
I0817 16:27:31.478193 17344 net.cpp:408] L2_b2_sum_eltwise_top_L2_b2_relu_0_split -> L2_b2_sum_eltwise_top_L2_b2_relu_0_split_1
I0817 16:27:31.478240 17344 net.cpp:150] Setting up L2_b2_sum_eltwise_top_L2_b2_relu_0_split
I0817 16:27:31.478251 17344 net.cpp:157] Top shape: 125 32 16 16 (1024000)
I0817 16:27:31.478258 17344 net.cpp:157] Top shape: 125 32 16 16 (1024000)
I0817 16:27:31.478263 17344 net.cpp:165] Memory required for data: 941569500
I0817 16:27:31.478268 17344 layer_factory.hpp:77] Creating layer L2_b3_cbr1_conv
I0817 16:27:31.478286 17344 net.cpp:100] Creating Layer L2_b3_cbr1_conv
I0817 16:27:31.478293 17344 net.cpp:434] L2_b3_cbr1_conv <- L2_b2_sum_eltwise_top_L2_b2_relu_0_split_0
I0817 16:27:31.478305 17344 net.cpp:408] L2_b3_cbr1_conv -> L2_b3_cbr1_conv_top
I0817 16:27:31.478765 17344 net.cpp:150] Setting up L2_b3_cbr1_conv
I0817 16:27:31.478780 17344 net.cpp:157] Top shape: 125 32 16 16 (1024000)
I0817 16:27:31.478785 17344 net.cpp:165] Memory required for data: 945665500
I0817 16:27:31.478793 17344 layer_factory.hpp:77] Creating layer L2_b3_cbr1_bn
I0817 16:27:31.478808 17344 net.cpp:100] Creating Layer L2_b3_cbr1_bn
I0817 16:27:31.478816 17344 net.cpp:434] L2_b3_cbr1_bn <- L2_b3_cbr1_conv_top
I0817 16:27:31.478826 17344 net.cpp:408] L2_b3_cbr1_bn -> L2_b3_cbr1_bn_top
I0817 16:27:31.479070 17344 net.cpp:150] Setting up L2_b3_cbr1_bn
I0817 16:27:31.479084 17344 net.cpp:157] Top shape: 125 32 16 16 (1024000)
I0817 16:27:31.479089 17344 net.cpp:165] Memory required for data: 949761500
I0817 16:27:31.479099 17344 layer_factory.hpp:77] Creating layer L2_b3_cbr1_scale
I0817 16:27:31.479110 17344 net.cpp:100] Creating Layer L2_b3_cbr1_scale
I0817 16:27:31.479116 17344 net.cpp:434] L2_b3_cbr1_scale <- L2_b3_cbr1_bn_top
I0817 16:27:31.479123 17344 net.cpp:395] L2_b3_cbr1_scale -> L2_b3_cbr1_bn_top (in-place)
I0817 16:27:31.479177 17344 layer_factory.hpp:77] Creating layer L2_b3_cbr1_scale
I0817 16:27:31.479321 17344 net.cpp:150] Setting up L2_b3_cbr1_scale
I0817 16:27:31.479333 17344 net.cpp:157] Top shape: 125 32 16 16 (1024000)
I0817 16:27:31.479338 17344 net.cpp:165] Memory required for data: 953857500
I0817 16:27:31.479347 17344 layer_factory.hpp:77] Creating layer L2_b3_cbr1_relu
I0817 16:27:31.479360 17344 net.cpp:100] Creating Layer L2_b3_cbr1_relu
I0817 16:27:31.479367 17344 net.cpp:434] L2_b3_cbr1_relu <- L2_b3_cbr1_bn_top
I0817 16:27:31.479374 17344 net.cpp:395] L2_b3_cbr1_relu -> L2_b3_cbr1_bn_top (in-place)
I0817 16:27:31.479383 17344 net.cpp:150] Setting up L2_b3_cbr1_relu
I0817 16:27:31.479390 17344 net.cpp:157] Top shape: 125 32 16 16 (1024000)
I0817 16:27:31.479395 17344 net.cpp:165] Memory required for data: 957953500
I0817 16:27:31.479400 17344 layer_factory.hpp:77] Creating layer L2_b3_cbr2_conv
I0817 16:27:31.479414 17344 net.cpp:100] Creating Layer L2_b3_cbr2_conv
I0817 16:27:31.479420 17344 net.cpp:434] L2_b3_cbr2_conv <- L2_b3_cbr1_bn_top
I0817 16:27:31.479431 17344 net.cpp:408] L2_b3_cbr2_conv -> L2_b3_cbr2_conv_top
I0817 16:27:31.479890 17344 net.cpp:150] Setting up L2_b3_cbr2_conv
I0817 16:27:31.479904 17344 net.cpp:157] Top shape: 125 32 16 16 (1024000)
I0817 16:27:31.479909 17344 net.cpp:165] Memory required for data: 962049500
I0817 16:27:31.479918 17344 layer_factory.hpp:77] Creating layer L2_b3_cbr2_bn
I0817 16:27:31.479928 17344 net.cpp:100] Creating Layer L2_b3_cbr2_bn
I0817 16:27:31.479933 17344 net.cpp:434] L2_b3_cbr2_bn <- L2_b3_cbr2_conv_top
I0817 16:27:31.479944 17344 net.cpp:408] L2_b3_cbr2_bn -> L2_b3_cbr2_bn_top
I0817 16:27:31.480190 17344 net.cpp:150] Setting up L2_b3_cbr2_bn
I0817 16:27:31.480202 17344 net.cpp:157] Top shape: 125 32 16 16 (1024000)
I0817 16:27:31.480207 17344 net.cpp:165] Memory required for data: 966145500
I0817 16:27:31.480217 17344 layer_factory.hpp:77] Creating layer L2_b3_cbr2_scale
I0817 16:27:31.480228 17344 net.cpp:100] Creating Layer L2_b3_cbr2_scale
I0817 16:27:31.480234 17344 net.cpp:434] L2_b3_cbr2_scale <- L2_b3_cbr2_bn_top
I0817 16:27:31.480242 17344 net.cpp:395] L2_b3_cbr2_scale -> L2_b3_cbr2_bn_top (in-place)
I0817 16:27:31.480295 17344 layer_factory.hpp:77] Creating layer L2_b3_cbr2_scale
I0817 16:27:31.480443 17344 net.cpp:150] Setting up L2_b3_cbr2_scale
I0817 16:27:31.480454 17344 net.cpp:157] Top shape: 125 32 16 16 (1024000)
I0817 16:27:31.480459 17344 net.cpp:165] Memory required for data: 970241500
I0817 16:27:31.480468 17344 layer_factory.hpp:77] Creating layer L2_b3_sum_eltwise
I0817 16:27:31.480480 17344 net.cpp:100] Creating Layer L2_b3_sum_eltwise
I0817 16:27:31.480486 17344 net.cpp:434] L2_b3_sum_eltwise <- L2_b3_cbr2_bn_top
I0817 16:27:31.480500 17344 net.cpp:434] L2_b3_sum_eltwise <- L2_b2_sum_eltwise_top_L2_b2_relu_0_split_1
I0817 16:27:31.480509 17344 net.cpp:408] L2_b3_sum_eltwise -> L2_b3_sum_eltwise_top
I0817 16:27:31.480536 17344 net.cpp:150] Setting up L2_b3_sum_eltwise
I0817 16:27:31.480551 17344 net.cpp:157] Top shape: 125 32 16 16 (1024000)
I0817 16:27:31.480556 17344 net.cpp:165] Memory required for data: 974337500
I0817 16:27:31.480561 17344 layer_factory.hpp:77] Creating layer L2_b3_relu
I0817 16:27:31.480581 17344 net.cpp:100] Creating Layer L2_b3_relu
I0817 16:27:31.480587 17344 net.cpp:434] L2_b3_relu <- L2_b3_sum_eltwise_top
I0817 16:27:31.480594 17344 net.cpp:395] L2_b3_relu -> L2_b3_sum_eltwise_top (in-place)
I0817 16:27:31.480603 17344 net.cpp:150] Setting up L2_b3_relu
I0817 16:27:31.480610 17344 net.cpp:157] Top shape: 125 32 16 16 (1024000)
I0817 16:27:31.480614 17344 net.cpp:165] Memory required for data: 978433500
I0817 16:27:31.480620 17344 layer_factory.hpp:77] Creating layer L2_b3_sum_eltwise_top_L2_b3_relu_0_split
I0817 16:27:31.480628 17344 net.cpp:100] Creating Layer L2_b3_sum_eltwise_top_L2_b3_relu_0_split
I0817 16:27:31.480633 17344 net.cpp:434] L2_b3_sum_eltwise_top_L2_b3_relu_0_split <- L2_b3_sum_eltwise_top
I0817 16:27:31.480643 17344 net.cpp:408] L2_b3_sum_eltwise_top_L2_b3_relu_0_split -> L2_b3_sum_eltwise_top_L2_b3_relu_0_split_0
I0817 16:27:31.480653 17344 net.cpp:408] L2_b3_sum_eltwise_top_L2_b3_relu_0_split -> L2_b3_sum_eltwise_top_L2_b3_relu_0_split_1
I0817 16:27:31.480697 17344 net.cpp:150] Setting up L2_b3_sum_eltwise_top_L2_b3_relu_0_split
I0817 16:27:31.480712 17344 net.cpp:157] Top shape: 125 32 16 16 (1024000)
I0817 16:27:31.480718 17344 net.cpp:157] Top shape: 125 32 16 16 (1024000)
I0817 16:27:31.480723 17344 net.cpp:165] Memory required for data: 986625500
I0817 16:27:31.480728 17344 layer_factory.hpp:77] Creating layer L2_b4_cbr1_conv
I0817 16:27:31.480739 17344 net.cpp:100] Creating Layer L2_b4_cbr1_conv
I0817 16:27:31.480746 17344 net.cpp:434] L2_b4_cbr1_conv <- L2_b3_sum_eltwise_top_L2_b3_relu_0_split_0
I0817 16:27:31.480754 17344 net.cpp:408] L2_b4_cbr1_conv -> L2_b4_cbr1_conv_top
I0817 16:27:31.481220 17344 net.cpp:150] Setting up L2_b4_cbr1_conv
I0817 16:27:31.481233 17344 net.cpp:157] Top shape: 125 32 16 16 (1024000)
I0817 16:27:31.481238 17344 net.cpp:165] Memory required for data: 990721500
I0817 16:27:31.481247 17344 layer_factory.hpp:77] Creating layer L2_b4_cbr1_bn
I0817 16:27:31.481259 17344 net.cpp:100] Creating Layer L2_b4_cbr1_bn
I0817 16:27:31.481266 17344 net.cpp:434] L2_b4_cbr1_bn <- L2_b4_cbr1_conv_top
I0817 16:27:31.481273 17344 net.cpp:408] L2_b4_cbr1_bn -> L2_b4_cbr1_bn_top
I0817 16:27:31.481519 17344 net.cpp:150] Setting up L2_b4_cbr1_bn
I0817 16:27:31.481531 17344 net.cpp:157] Top shape: 125 32 16 16 (1024000)
I0817 16:27:31.481536 17344 net.cpp:165] Memory required for data: 994817500
I0817 16:27:31.481546 17344 layer_factory.hpp:77] Creating layer L2_b4_cbr1_scale
I0817 16:27:31.481555 17344 net.cpp:100] Creating Layer L2_b4_cbr1_scale
I0817 16:27:31.481561 17344 net.cpp:434] L2_b4_cbr1_scale <- L2_b4_cbr1_bn_top
I0817 16:27:31.481571 17344 net.cpp:395] L2_b4_cbr1_scale -> L2_b4_cbr1_bn_top (in-place)
I0817 16:27:31.481626 17344 layer_factory.hpp:77] Creating layer L2_b4_cbr1_scale
I0817 16:27:31.481767 17344 net.cpp:150] Setting up L2_b4_cbr1_scale
I0817 16:27:31.481781 17344 net.cpp:157] Top shape: 125 32 16 16 (1024000)
I0817 16:27:31.481784 17344 net.cpp:165] Memory required for data: 998913500
I0817 16:27:31.481793 17344 layer_factory.hpp:77] Creating layer L2_b4_cbr1_relu
I0817 16:27:31.481806 17344 net.cpp:100] Creating Layer L2_b4_cbr1_relu
I0817 16:27:31.481813 17344 net.cpp:434] L2_b4_cbr1_relu <- L2_b4_cbr1_bn_top
I0817 16:27:31.481824 17344 net.cpp:395] L2_b4_cbr1_relu -> L2_b4_cbr1_bn_top (in-place)
I0817 16:27:31.481837 17344 net.cpp:150] Setting up L2_b4_cbr1_relu
I0817 16:27:31.481843 17344 net.cpp:157] Top shape: 125 32 16 16 (1024000)
I0817 16:27:31.481848 17344 net.cpp:165] Memory required for data: 1003009500
I0817 16:27:31.481853 17344 layer_factory.hpp:77] Creating layer L2_b4_cbr2_conv
I0817 16:27:31.481873 17344 net.cpp:100] Creating Layer L2_b4_cbr2_conv
I0817 16:27:31.481879 17344 net.cpp:434] L2_b4_cbr2_conv <- L2_b4_cbr1_bn_top
I0817 16:27:31.481889 17344 net.cpp:408] L2_b4_cbr2_conv -> L2_b4_cbr2_conv_top
I0817 16:27:31.482348 17344 net.cpp:150] Setting up L2_b4_cbr2_conv
I0817 16:27:31.482363 17344 net.cpp:157] Top shape: 125 32 16 16 (1024000)
I0817 16:27:31.482368 17344 net.cpp:165] Memory required for data: 1007105500
I0817 16:27:31.482376 17344 layer_factory.hpp:77] Creating layer L2_b4_cbr2_bn
I0817 16:27:31.482388 17344 net.cpp:100] Creating Layer L2_b4_cbr2_bn
I0817 16:27:31.482395 17344 net.cpp:434] L2_b4_cbr2_bn <- L2_b4_cbr2_conv_top
I0817 16:27:31.482403 17344 net.cpp:408] L2_b4_cbr2_bn -> L2_b4_cbr2_bn_top
I0817 16:27:31.482643 17344 net.cpp:150] Setting up L2_b4_cbr2_bn
I0817 16:27:31.482656 17344 net.cpp:157] Top shape: 125 32 16 16 (1024000)
I0817 16:27:31.482661 17344 net.cpp:165] Memory required for data: 1011201500
I0817 16:27:31.482671 17344 layer_factory.hpp:77] Creating layer L2_b4_cbr2_scale
I0817 16:27:31.482679 17344 net.cpp:100] Creating Layer L2_b4_cbr2_scale
I0817 16:27:31.482686 17344 net.cpp:434] L2_b4_cbr2_scale <- L2_b4_cbr2_bn_top
I0817 16:27:31.482692 17344 net.cpp:395] L2_b4_cbr2_scale -> L2_b4_cbr2_bn_top (in-place)
I0817 16:27:31.482748 17344 layer_factory.hpp:77] Creating layer L2_b4_cbr2_scale
I0817 16:27:31.482903 17344 net.cpp:150] Setting up L2_b4_cbr2_scale
I0817 16:27:31.482920 17344 net.cpp:157] Top shape: 125 32 16 16 (1024000)
I0817 16:27:31.482925 17344 net.cpp:165] Memory required for data: 1015297500
I0817 16:27:31.482934 17344 layer_factory.hpp:77] Creating layer L2_b4_sum_eltwise
I0817 16:27:31.482944 17344 net.cpp:100] Creating Layer L2_b4_sum_eltwise
I0817 16:27:31.482949 17344 net.cpp:434] L2_b4_sum_eltwise <- L2_b4_cbr2_bn_top
I0817 16:27:31.482956 17344 net.cpp:434] L2_b4_sum_eltwise <- L2_b3_sum_eltwise_top_L2_b3_relu_0_split_1
I0817 16:27:31.482964 17344 net.cpp:408] L2_b4_sum_eltwise -> L2_b4_sum_eltwise_top
I0817 16:27:31.482993 17344 net.cpp:150] Setting up L2_b4_sum_eltwise
I0817 16:27:31.483002 17344 net.cpp:157] Top shape: 125 32 16 16 (1024000)
I0817 16:27:31.483007 17344 net.cpp:165] Memory required for data: 1019393500
I0817 16:27:31.483012 17344 layer_factory.hpp:77] Creating layer L2_b4_relu
I0817 16:27:31.483021 17344 net.cpp:100] Creating Layer L2_b4_relu
I0817 16:27:31.483026 17344 net.cpp:434] L2_b4_relu <- L2_b4_sum_eltwise_top
I0817 16:27:31.483036 17344 net.cpp:395] L2_b4_relu -> L2_b4_sum_eltwise_top (in-place)
I0817 16:27:31.483044 17344 net.cpp:150] Setting up L2_b4_relu
I0817 16:27:31.483052 17344 net.cpp:157] Top shape: 125 32 16 16 (1024000)
I0817 16:27:31.483057 17344 net.cpp:165] Memory required for data: 1023489500
I0817 16:27:31.483060 17344 layer_factory.hpp:77] Creating layer L2_b4_sum_eltwise_top_L2_b4_relu_0_split
I0817 16:27:31.483068 17344 net.cpp:100] Creating Layer L2_b4_sum_eltwise_top_L2_b4_relu_0_split
I0817 16:27:31.483073 17344 net.cpp:434] L2_b4_sum_eltwise_top_L2_b4_relu_0_split <- L2_b4_sum_eltwise_top
I0817 16:27:31.483083 17344 net.cpp:408] L2_b4_sum_eltwise_top_L2_b4_relu_0_split -> L2_b4_sum_eltwise_top_L2_b4_relu_0_split_0
I0817 16:27:31.483093 17344 net.cpp:408] L2_b4_sum_eltwise_top_L2_b4_relu_0_split -> L2_b4_sum_eltwise_top_L2_b4_relu_0_split_1
I0817 16:27:31.483136 17344 net.cpp:150] Setting up L2_b4_sum_eltwise_top_L2_b4_relu_0_split
I0817 16:27:31.483147 17344 net.cpp:157] Top shape: 125 32 16 16 (1024000)
I0817 16:27:31.483153 17344 net.cpp:157] Top shape: 125 32 16 16 (1024000)
I0817 16:27:31.483158 17344 net.cpp:165] Memory required for data: 1031681500
I0817 16:27:31.483163 17344 layer_factory.hpp:77] Creating layer L2_b5_cbr1_conv
I0817 16:27:31.483177 17344 net.cpp:100] Creating Layer L2_b5_cbr1_conv
I0817 16:27:31.483184 17344 net.cpp:434] L2_b5_cbr1_conv <- L2_b4_sum_eltwise_top_L2_b4_relu_0_split_0
I0817 16:27:31.483193 17344 net.cpp:408] L2_b5_cbr1_conv -> L2_b5_cbr1_conv_top
I0817 16:27:31.483649 17344 net.cpp:150] Setting up L2_b5_cbr1_conv
I0817 16:27:31.483669 17344 net.cpp:157] Top shape: 125 32 16 16 (1024000)
I0817 16:27:31.483675 17344 net.cpp:165] Memory required for data: 1035777500
I0817 16:27:31.483685 17344 layer_factory.hpp:77] Creating layer L2_b5_cbr1_bn
I0817 16:27:31.483696 17344 net.cpp:100] Creating Layer L2_b5_cbr1_bn
I0817 16:27:31.483702 17344 net.cpp:434] L2_b5_cbr1_bn <- L2_b5_cbr1_conv_top
I0817 16:27:31.483711 17344 net.cpp:408] L2_b5_cbr1_bn -> L2_b5_cbr1_bn_top
I0817 16:27:31.483968 17344 net.cpp:150] Setting up L2_b5_cbr1_bn
I0817 16:27:31.483980 17344 net.cpp:157] Top shape: 125 32 16 16 (1024000)
I0817 16:27:31.483985 17344 net.cpp:165] Memory required for data: 1039873500
I0817 16:27:31.483995 17344 layer_factory.hpp:77] Creating layer L2_b5_cbr1_scale
I0817 16:27:31.484004 17344 net.cpp:100] Creating Layer L2_b5_cbr1_scale
I0817 16:27:31.484010 17344 net.cpp:434] L2_b5_cbr1_scale <- L2_b5_cbr1_bn_top
I0817 16:27:31.484020 17344 net.cpp:395] L2_b5_cbr1_scale -> L2_b5_cbr1_bn_top (in-place)
I0817 16:27:31.484074 17344 layer_factory.hpp:77] Creating layer L2_b5_cbr1_scale
I0817 16:27:31.484225 17344 net.cpp:150] Setting up L2_b5_cbr1_scale
I0817 16:27:31.484237 17344 net.cpp:157] Top shape: 125 32 16 16 (1024000)
I0817 16:27:31.484242 17344 net.cpp:165] Memory required for data: 1043969500
I0817 16:27:31.484251 17344 layer_factory.hpp:77] Creating layer L2_b5_cbr1_relu
I0817 16:27:31.484259 17344 net.cpp:100] Creating Layer L2_b5_cbr1_relu
I0817 16:27:31.484266 17344 net.cpp:434] L2_b5_cbr1_relu <- L2_b5_cbr1_bn_top
I0817 16:27:31.484272 17344 net.cpp:395] L2_b5_cbr1_relu -> L2_b5_cbr1_bn_top (in-place)
I0817 16:27:31.484284 17344 net.cpp:150] Setting up L2_b5_cbr1_relu
I0817 16:27:31.484292 17344 net.cpp:157] Top shape: 125 32 16 16 (1024000)
I0817 16:27:31.484297 17344 net.cpp:165] Memory required for data: 1048065500
I0817 16:27:31.484300 17344 layer_factory.hpp:77] Creating layer L2_b5_cbr2_conv
I0817 16:27:31.484311 17344 net.cpp:100] Creating Layer L2_b5_cbr2_conv
I0817 16:27:31.484320 17344 net.cpp:434] L2_b5_cbr2_conv <- L2_b5_cbr1_bn_top
I0817 16:27:31.484328 17344 net.cpp:408] L2_b5_cbr2_conv -> L2_b5_cbr2_conv_top
I0817 16:27:31.484793 17344 net.cpp:150] Setting up L2_b5_cbr2_conv
I0817 16:27:31.484812 17344 net.cpp:157] Top shape: 125 32 16 16 (1024000)
I0817 16:27:31.484818 17344 net.cpp:165] Memory required for data: 1052161500
I0817 16:27:31.484827 17344 layer_factory.hpp:77] Creating layer L2_b5_cbr2_bn
I0817 16:27:31.484839 17344 net.cpp:100] Creating Layer L2_b5_cbr2_bn
I0817 16:27:31.484845 17344 net.cpp:434] L2_b5_cbr2_bn <- L2_b5_cbr2_conv_top
I0817 16:27:31.484856 17344 net.cpp:408] L2_b5_cbr2_bn -> L2_b5_cbr2_bn_top
I0817 16:27:31.485097 17344 net.cpp:150] Setting up L2_b5_cbr2_bn
I0817 16:27:31.485110 17344 net.cpp:157] Top shape: 125 32 16 16 (1024000)
I0817 16:27:31.485116 17344 net.cpp:165] Memory required for data: 1056257500
I0817 16:27:31.485126 17344 layer_factory.hpp:77] Creating layer L2_b5_cbr2_scale
I0817 16:27:31.485134 17344 net.cpp:100] Creating Layer L2_b5_cbr2_scale
I0817 16:27:31.485141 17344 net.cpp:434] L2_b5_cbr2_scale <- L2_b5_cbr2_bn_top
I0817 16:27:31.485148 17344 net.cpp:395] L2_b5_cbr2_scale -> L2_b5_cbr2_bn_top (in-place)
I0817 16:27:31.485203 17344 layer_factory.hpp:77] Creating layer L2_b5_cbr2_scale
I0817 16:27:31.485347 17344 net.cpp:150] Setting up L2_b5_cbr2_scale
I0817 16:27:31.485363 17344 net.cpp:157] Top shape: 125 32 16 16 (1024000)
I0817 16:27:31.485368 17344 net.cpp:165] Memory required for data: 1060353500
I0817 16:27:31.485375 17344 layer_factory.hpp:77] Creating layer L2_b5_sum_eltwise
I0817 16:27:31.485384 17344 net.cpp:100] Creating Layer L2_b5_sum_eltwise
I0817 16:27:31.485390 17344 net.cpp:434] L2_b5_sum_eltwise <- L2_b5_cbr2_bn_top
I0817 16:27:31.485397 17344 net.cpp:434] L2_b5_sum_eltwise <- L2_b4_sum_eltwise_top_L2_b4_relu_0_split_1
I0817 16:27:31.485405 17344 net.cpp:408] L2_b5_sum_eltwise -> L2_b5_sum_eltwise_top
I0817 16:27:31.485435 17344 net.cpp:150] Setting up L2_b5_sum_eltwise
I0817 16:27:31.485443 17344 net.cpp:157] Top shape: 125 32 16 16 (1024000)
I0817 16:27:31.485455 17344 net.cpp:165] Memory required for data: 1064449500
I0817 16:27:31.485460 17344 layer_factory.hpp:77] Creating layer L2_b5_relu
I0817 16:27:31.485467 17344 net.cpp:100] Creating Layer L2_b5_relu
I0817 16:27:31.485473 17344 net.cpp:434] L2_b5_relu <- L2_b5_sum_eltwise_top
I0817 16:27:31.485482 17344 net.cpp:395] L2_b5_relu -> L2_b5_sum_eltwise_top (in-place)
I0817 16:27:31.485492 17344 net.cpp:150] Setting up L2_b5_relu
I0817 16:27:31.485499 17344 net.cpp:157] Top shape: 125 32 16 16 (1024000)
I0817 16:27:31.485503 17344 net.cpp:165] Memory required for data: 1068545500
I0817 16:27:31.485508 17344 layer_factory.hpp:77] Creating layer L2_b5_sum_eltwise_top_L2_b5_relu_0_split
I0817 16:27:31.485515 17344 net.cpp:100] Creating Layer L2_b5_sum_eltwise_top_L2_b5_relu_0_split
I0817 16:27:31.485520 17344 net.cpp:434] L2_b5_sum_eltwise_top_L2_b5_relu_0_split <- L2_b5_sum_eltwise_top
I0817 16:27:31.485530 17344 net.cpp:408] L2_b5_sum_eltwise_top_L2_b5_relu_0_split -> L2_b5_sum_eltwise_top_L2_b5_relu_0_split_0
I0817 16:27:31.485539 17344 net.cpp:408] L2_b5_sum_eltwise_top_L2_b5_relu_0_split -> L2_b5_sum_eltwise_top_L2_b5_relu_0_split_1
I0817 16:27:31.485584 17344 net.cpp:150] Setting up L2_b5_sum_eltwise_top_L2_b5_relu_0_split
I0817 16:27:31.485595 17344 net.cpp:157] Top shape: 125 32 16 16 (1024000)
I0817 16:27:31.485601 17344 net.cpp:157] Top shape: 125 32 16 16 (1024000)
I0817 16:27:31.485606 17344 net.cpp:165] Memory required for data: 1076737500
I0817 16:27:31.485610 17344 layer_factory.hpp:77] Creating layer L2_b6_cbr1_conv
I0817 16:27:31.485625 17344 net.cpp:100] Creating Layer L2_b6_cbr1_conv
I0817 16:27:31.485631 17344 net.cpp:434] L2_b6_cbr1_conv <- L2_b5_sum_eltwise_top_L2_b5_relu_0_split_0
I0817 16:27:31.485641 17344 net.cpp:408] L2_b6_cbr1_conv -> L2_b6_cbr1_conv_top
I0817 16:27:31.486116 17344 net.cpp:150] Setting up L2_b6_cbr1_conv
I0817 16:27:31.486130 17344 net.cpp:157] Top shape: 125 32 16 16 (1024000)
I0817 16:27:31.486135 17344 net.cpp:165] Memory required for data: 1080833500
I0817 16:27:31.486145 17344 layer_factory.hpp:77] Creating layer L2_b6_cbr1_bn
I0817 16:27:31.486156 17344 net.cpp:100] Creating Layer L2_b6_cbr1_bn
I0817 16:27:31.486162 17344 net.cpp:434] L2_b6_cbr1_bn <- L2_b6_cbr1_conv_top
I0817 16:27:31.486171 17344 net.cpp:408] L2_b6_cbr1_bn -> L2_b6_cbr1_bn_top
I0817 16:27:31.486421 17344 net.cpp:150] Setting up L2_b6_cbr1_bn
I0817 16:27:31.486434 17344 net.cpp:157] Top shape: 125 32 16 16 (1024000)
I0817 16:27:31.486439 17344 net.cpp:165] Memory required for data: 1084929500
I0817 16:27:31.486449 17344 layer_factory.hpp:77] Creating layer L2_b6_cbr1_scale
I0817 16:27:31.486459 17344 net.cpp:100] Creating Layer L2_b6_cbr1_scale
I0817 16:27:31.486464 17344 net.cpp:434] L2_b6_cbr1_scale <- L2_b6_cbr1_bn_top
I0817 16:27:31.486471 17344 net.cpp:395] L2_b6_cbr1_scale -> L2_b6_cbr1_bn_top (in-place)
I0817 16:27:31.486528 17344 layer_factory.hpp:77] Creating layer L2_b6_cbr1_scale
I0817 16:27:31.486670 17344 net.cpp:150] Setting up L2_b6_cbr1_scale
I0817 16:27:31.486685 17344 net.cpp:157] Top shape: 125 32 16 16 (1024000)
I0817 16:27:31.486690 17344 net.cpp:165] Memory required for data: 1089025500
I0817 16:27:31.486699 17344 layer_factory.hpp:77] Creating layer L2_b6_cbr1_relu
I0817 16:27:31.486706 17344 net.cpp:100] Creating Layer L2_b6_cbr1_relu
I0817 16:27:31.486712 17344 net.cpp:434] L2_b6_cbr1_relu <- L2_b6_cbr1_bn_top
I0817 16:27:31.486719 17344 net.cpp:395] L2_b6_cbr1_relu -> L2_b6_cbr1_bn_top (in-place)
I0817 16:27:31.486729 17344 net.cpp:150] Setting up L2_b6_cbr1_relu
I0817 16:27:31.486737 17344 net.cpp:157] Top shape: 125 32 16 16 (1024000)
I0817 16:27:31.486740 17344 net.cpp:165] Memory required for data: 1093121500
I0817 16:27:31.486745 17344 layer_factory.hpp:77] Creating layer L2_b6_cbr2_conv
I0817 16:27:31.486759 17344 net.cpp:100] Creating Layer L2_b6_cbr2_conv
I0817 16:27:31.486765 17344 net.cpp:434] L2_b6_cbr2_conv <- L2_b6_cbr1_bn_top
I0817 16:27:31.486776 17344 net.cpp:408] L2_b6_cbr2_conv -> L2_b6_cbr2_conv_top
I0817 16:27:31.487241 17344 net.cpp:150] Setting up L2_b6_cbr2_conv
I0817 16:27:31.487260 17344 net.cpp:157] Top shape: 125 32 16 16 (1024000)
I0817 16:27:31.487267 17344 net.cpp:165] Memory required for data: 1097217500
I0817 16:27:31.487274 17344 layer_factory.hpp:77] Creating layer L2_b6_cbr2_bn
I0817 16:27:31.487287 17344 net.cpp:100] Creating Layer L2_b6_cbr2_bn
I0817 16:27:31.487293 17344 net.cpp:434] L2_b6_cbr2_bn <- L2_b6_cbr2_conv_top
I0817 16:27:31.487304 17344 net.cpp:408] L2_b6_cbr2_bn -> L2_b6_cbr2_bn_top
I0817 16:27:31.487545 17344 net.cpp:150] Setting up L2_b6_cbr2_bn
I0817 16:27:31.487557 17344 net.cpp:157] Top shape: 125 32 16 16 (1024000)
I0817 16:27:31.487561 17344 net.cpp:165] Memory required for data: 1101313500
I0817 16:27:31.487571 17344 layer_factory.hpp:77] Creating layer L2_b6_cbr2_scale
I0817 16:27:31.487581 17344 net.cpp:100] Creating Layer L2_b6_cbr2_scale
I0817 16:27:31.487586 17344 net.cpp:434] L2_b6_cbr2_scale <- L2_b6_cbr2_bn_top
I0817 16:27:31.487593 17344 net.cpp:395] L2_b6_cbr2_scale -> L2_b6_cbr2_bn_top (in-place)
I0817 16:27:31.487649 17344 layer_factory.hpp:77] Creating layer L2_b6_cbr2_scale
I0817 16:27:31.487797 17344 net.cpp:150] Setting up L2_b6_cbr2_scale
I0817 16:27:31.487817 17344 net.cpp:157] Top shape: 125 32 16 16 (1024000)
I0817 16:27:31.487821 17344 net.cpp:165] Memory required for data: 1105409500
I0817 16:27:31.487829 17344 layer_factory.hpp:77] Creating layer L2_b6_sum_eltwise
I0817 16:27:31.487841 17344 net.cpp:100] Creating Layer L2_b6_sum_eltwise
I0817 16:27:31.487848 17344 net.cpp:434] L2_b6_sum_eltwise <- L2_b6_cbr2_bn_top
I0817 16:27:31.487855 17344 net.cpp:434] L2_b6_sum_eltwise <- L2_b5_sum_eltwise_top_L2_b5_relu_0_split_1
I0817 16:27:31.487862 17344 net.cpp:408] L2_b6_sum_eltwise -> L2_b6_sum_eltwise_top
I0817 16:27:31.487890 17344 net.cpp:150] Setting up L2_b6_sum_eltwise
I0817 16:27:31.487900 17344 net.cpp:157] Top shape: 125 32 16 16 (1024000)
I0817 16:27:31.487905 17344 net.cpp:165] Memory required for data: 1109505500
I0817 16:27:31.487910 17344 layer_factory.hpp:77] Creating layer L2_b6_relu
I0817 16:27:31.487921 17344 net.cpp:100] Creating Layer L2_b6_relu
I0817 16:27:31.487927 17344 net.cpp:434] L2_b6_relu <- L2_b6_sum_eltwise_top
I0817 16:27:31.487936 17344 net.cpp:395] L2_b6_relu -> L2_b6_sum_eltwise_top (in-place)
I0817 16:27:31.487946 17344 net.cpp:150] Setting up L2_b6_relu
I0817 16:27:31.487952 17344 net.cpp:157] Top shape: 125 32 16 16 (1024000)
I0817 16:27:31.487957 17344 net.cpp:165] Memory required for data: 1113601500
I0817 16:27:31.487962 17344 layer_factory.hpp:77] Creating layer L2_b6_sum_eltwise_top_L2_b6_relu_0_split
I0817 16:27:31.487969 17344 net.cpp:100] Creating Layer L2_b6_sum_eltwise_top_L2_b6_relu_0_split
I0817 16:27:31.487974 17344 net.cpp:434] L2_b6_sum_eltwise_top_L2_b6_relu_0_split <- L2_b6_sum_eltwise_top
I0817 16:27:31.487982 17344 net.cpp:408] L2_b6_sum_eltwise_top_L2_b6_relu_0_split -> L2_b6_sum_eltwise_top_L2_b6_relu_0_split_0
I0817 16:27:31.487990 17344 net.cpp:408] L2_b6_sum_eltwise_top_L2_b6_relu_0_split -> L2_b6_sum_eltwise_top_L2_b6_relu_0_split_1
I0817 16:27:31.488037 17344 net.cpp:150] Setting up L2_b6_sum_eltwise_top_L2_b6_relu_0_split
I0817 16:27:31.488049 17344 net.cpp:157] Top shape: 125 32 16 16 (1024000)
I0817 16:27:31.488055 17344 net.cpp:157] Top shape: 125 32 16 16 (1024000)
I0817 16:27:31.488059 17344 net.cpp:165] Memory required for data: 1121793500
I0817 16:27:31.488065 17344 layer_factory.hpp:77] Creating layer L2_b7_cbr1_conv
I0817 16:27:31.488078 17344 net.cpp:100] Creating Layer L2_b7_cbr1_conv
I0817 16:27:31.488085 17344 net.cpp:434] L2_b7_cbr1_conv <- L2_b6_sum_eltwise_top_L2_b6_relu_0_split_0
I0817 16:27:31.488093 17344 net.cpp:408] L2_b7_cbr1_conv -> L2_b7_cbr1_conv_top
I0817 16:27:31.488560 17344 net.cpp:150] Setting up L2_b7_cbr1_conv
I0817 16:27:31.488574 17344 net.cpp:157] Top shape: 125 32 16 16 (1024000)
I0817 16:27:31.488579 17344 net.cpp:165] Memory required for data: 1125889500
I0817 16:27:31.488587 17344 layer_factory.hpp:77] Creating layer L2_b7_cbr1_bn
I0817 16:27:31.488600 17344 net.cpp:100] Creating Layer L2_b7_cbr1_bn
I0817 16:27:31.488612 17344 net.cpp:434] L2_b7_cbr1_bn <- L2_b7_cbr1_conv_top
I0817 16:27:31.488625 17344 net.cpp:408] L2_b7_cbr1_bn -> L2_b7_cbr1_bn_top
I0817 16:27:31.488881 17344 net.cpp:150] Setting up L2_b7_cbr1_bn
I0817 16:27:31.488895 17344 net.cpp:157] Top shape: 125 32 16 16 (1024000)
I0817 16:27:31.488900 17344 net.cpp:165] Memory required for data: 1129985500
I0817 16:27:31.488910 17344 layer_factory.hpp:77] Creating layer L2_b7_cbr1_scale
I0817 16:27:31.488919 17344 net.cpp:100] Creating Layer L2_b7_cbr1_scale
I0817 16:27:31.488925 17344 net.cpp:434] L2_b7_cbr1_scale <- L2_b7_cbr1_bn_top
I0817 16:27:31.488932 17344 net.cpp:395] L2_b7_cbr1_scale -> L2_b7_cbr1_bn_top (in-place)
I0817 16:27:31.488989 17344 layer_factory.hpp:77] Creating layer L2_b7_cbr1_scale
I0817 16:27:31.489135 17344 net.cpp:150] Setting up L2_b7_cbr1_scale
I0817 16:27:31.489150 17344 net.cpp:157] Top shape: 125 32 16 16 (1024000)
I0817 16:27:31.489154 17344 net.cpp:165] Memory required for data: 1134081500
I0817 16:27:31.489163 17344 layer_factory.hpp:77] Creating layer L2_b7_cbr1_relu
I0817 16:27:31.489171 17344 net.cpp:100] Creating Layer L2_b7_cbr1_relu
I0817 16:27:31.489177 17344 net.cpp:434] L2_b7_cbr1_relu <- L2_b7_cbr1_bn_top
I0817 16:27:31.489184 17344 net.cpp:395] L2_b7_cbr1_relu -> L2_b7_cbr1_bn_top (in-place)
I0817 16:27:31.489194 17344 net.cpp:150] Setting up L2_b7_cbr1_relu
I0817 16:27:31.489202 17344 net.cpp:157] Top shape: 125 32 16 16 (1024000)
I0817 16:27:31.489205 17344 net.cpp:165] Memory required for data: 1138177500
I0817 16:27:31.489210 17344 layer_factory.hpp:77] Creating layer L2_b7_cbr2_conv
I0817 16:27:31.489225 17344 net.cpp:100] Creating Layer L2_b7_cbr2_conv
I0817 16:27:31.489231 17344 net.cpp:434] L2_b7_cbr2_conv <- L2_b7_cbr1_bn_top
I0817 16:27:31.489243 17344 net.cpp:408] L2_b7_cbr2_conv -> L2_b7_cbr2_conv_top
I0817 16:27:31.489708 17344 net.cpp:150] Setting up L2_b7_cbr2_conv
I0817 16:27:31.489722 17344 net.cpp:157] Top shape: 125 32 16 16 (1024000)
I0817 16:27:31.489727 17344 net.cpp:165] Memory required for data: 1142273500
I0817 16:27:31.489735 17344 layer_factory.hpp:77] Creating layer L2_b7_cbr2_bn
I0817 16:27:31.489748 17344 net.cpp:100] Creating Layer L2_b7_cbr2_bn
I0817 16:27:31.489754 17344 net.cpp:434] L2_b7_cbr2_bn <- L2_b7_cbr2_conv_top
I0817 16:27:31.489764 17344 net.cpp:408] L2_b7_cbr2_bn -> L2_b7_cbr2_bn_top
I0817 16:27:31.490022 17344 net.cpp:150] Setting up L2_b7_cbr2_bn
I0817 16:27:31.490036 17344 net.cpp:157] Top shape: 125 32 16 16 (1024000)
I0817 16:27:31.490041 17344 net.cpp:165] Memory required for data: 1146369500
I0817 16:27:31.490051 17344 layer_factory.hpp:77] Creating layer L2_b7_cbr2_scale
I0817 16:27:31.490059 17344 net.cpp:100] Creating Layer L2_b7_cbr2_scale
I0817 16:27:31.490065 17344 net.cpp:434] L2_b7_cbr2_scale <- L2_b7_cbr2_bn_top
I0817 16:27:31.490073 17344 net.cpp:395] L2_b7_cbr2_scale -> L2_b7_cbr2_bn_top (in-place)
I0817 16:27:31.490130 17344 layer_factory.hpp:77] Creating layer L2_b7_cbr2_scale
I0817 16:27:31.490276 17344 net.cpp:150] Setting up L2_b7_cbr2_scale
I0817 16:27:31.490289 17344 net.cpp:157] Top shape: 125 32 16 16 (1024000)
I0817 16:27:31.490294 17344 net.cpp:165] Memory required for data: 1150465500
I0817 16:27:31.490303 17344 layer_factory.hpp:77] Creating layer L2_b7_sum_eltwise
I0817 16:27:31.490314 17344 net.cpp:100] Creating Layer L2_b7_sum_eltwise
I0817 16:27:31.490321 17344 net.cpp:434] L2_b7_sum_eltwise <- L2_b7_cbr2_bn_top
I0817 16:27:31.490327 17344 net.cpp:434] L2_b7_sum_eltwise <- L2_b6_sum_eltwise_top_L2_b6_relu_0_split_1
I0817 16:27:31.490335 17344 net.cpp:408] L2_b7_sum_eltwise -> L2_b7_sum_eltwise_top
I0817 16:27:31.490362 17344 net.cpp:150] Setting up L2_b7_sum_eltwise
I0817 16:27:31.490371 17344 net.cpp:157] Top shape: 125 32 16 16 (1024000)
I0817 16:27:31.490375 17344 net.cpp:165] Memory required for data: 1154561500
I0817 16:27:31.490381 17344 layer_factory.hpp:77] Creating layer L2_b7_relu
I0817 16:27:31.490392 17344 net.cpp:100] Creating Layer L2_b7_relu
I0817 16:27:31.490397 17344 net.cpp:434] L2_b7_relu <- L2_b7_sum_eltwise_top
I0817 16:27:31.490411 17344 net.cpp:395] L2_b7_relu -> L2_b7_sum_eltwise_top (in-place)
I0817 16:27:31.490422 17344 net.cpp:150] Setting up L2_b7_relu
I0817 16:27:31.490428 17344 net.cpp:157] Top shape: 125 32 16 16 (1024000)
I0817 16:27:31.490433 17344 net.cpp:165] Memory required for data: 1158657500
I0817 16:27:31.490438 17344 layer_factory.hpp:77] Creating layer L2_b7_sum_eltwise_top_L2_b7_relu_0_split
I0817 16:27:31.490445 17344 net.cpp:100] Creating Layer L2_b7_sum_eltwise_top_L2_b7_relu_0_split
I0817 16:27:31.490450 17344 net.cpp:434] L2_b7_sum_eltwise_top_L2_b7_relu_0_split <- L2_b7_sum_eltwise_top
I0817 16:27:31.490458 17344 net.cpp:408] L2_b7_sum_eltwise_top_L2_b7_relu_0_split -> L2_b7_sum_eltwise_top_L2_b7_relu_0_split_0
I0817 16:27:31.490468 17344 net.cpp:408] L2_b7_sum_eltwise_top_L2_b7_relu_0_split -> L2_b7_sum_eltwise_top_L2_b7_relu_0_split_1
I0817 16:27:31.490514 17344 net.cpp:150] Setting up L2_b7_sum_eltwise_top_L2_b7_relu_0_split
I0817 16:27:31.490526 17344 net.cpp:157] Top shape: 125 32 16 16 (1024000)
I0817 16:27:31.490532 17344 net.cpp:157] Top shape: 125 32 16 16 (1024000)
I0817 16:27:31.490537 17344 net.cpp:165] Memory required for data: 1166849500
I0817 16:27:31.490542 17344 layer_factory.hpp:77] Creating layer L2_b8_cbr1_conv
I0817 16:27:31.490556 17344 net.cpp:100] Creating Layer L2_b8_cbr1_conv
I0817 16:27:31.490562 17344 net.cpp:434] L2_b8_cbr1_conv <- L2_b7_sum_eltwise_top_L2_b7_relu_0_split_0
I0817 16:27:31.490571 17344 net.cpp:408] L2_b8_cbr1_conv -> L2_b8_cbr1_conv_top
I0817 16:27:31.491048 17344 net.cpp:150] Setting up L2_b8_cbr1_conv
I0817 16:27:31.491062 17344 net.cpp:157] Top shape: 125 32 16 16 (1024000)
I0817 16:27:31.491068 17344 net.cpp:165] Memory required for data: 1170945500
I0817 16:27:31.491076 17344 layer_factory.hpp:77] Creating layer L2_b8_cbr1_bn
I0817 16:27:31.491088 17344 net.cpp:100] Creating Layer L2_b8_cbr1_bn
I0817 16:27:31.491096 17344 net.cpp:434] L2_b8_cbr1_bn <- L2_b8_cbr1_conv_top
I0817 16:27:31.491106 17344 net.cpp:408] L2_b8_cbr1_bn -> L2_b8_cbr1_bn_top
I0817 16:27:31.491355 17344 net.cpp:150] Setting up L2_b8_cbr1_bn
I0817 16:27:31.491369 17344 net.cpp:157] Top shape: 125 32 16 16 (1024000)
I0817 16:27:31.491372 17344 net.cpp:165] Memory required for data: 1175041500
I0817 16:27:31.491382 17344 layer_factory.hpp:77] Creating layer L2_b8_cbr1_scale
I0817 16:27:31.491391 17344 net.cpp:100] Creating Layer L2_b8_cbr1_scale
I0817 16:27:31.491397 17344 net.cpp:434] L2_b8_cbr1_scale <- L2_b8_cbr1_bn_top
I0817 16:27:31.491405 17344 net.cpp:395] L2_b8_cbr1_scale -> L2_b8_cbr1_bn_top (in-place)
I0817 16:27:31.491461 17344 layer_factory.hpp:77] Creating layer L2_b8_cbr1_scale
I0817 16:27:31.491608 17344 net.cpp:150] Setting up L2_b8_cbr1_scale
I0817 16:27:31.491621 17344 net.cpp:157] Top shape: 125 32 16 16 (1024000)
I0817 16:27:31.491626 17344 net.cpp:165] Memory required for data: 1179137500
I0817 16:27:31.491634 17344 layer_factory.hpp:77] Creating layer L2_b8_cbr1_relu
I0817 16:27:31.491645 17344 net.cpp:100] Creating Layer L2_b8_cbr1_relu
I0817 16:27:31.491652 17344 net.cpp:434] L2_b8_cbr1_relu <- L2_b8_cbr1_bn_top
I0817 16:27:31.491658 17344 net.cpp:395] L2_b8_cbr1_relu -> L2_b8_cbr1_bn_top (in-place)
I0817 16:27:31.491668 17344 net.cpp:150] Setting up L2_b8_cbr1_relu
I0817 16:27:31.491674 17344 net.cpp:157] Top shape: 125 32 16 16 (1024000)
I0817 16:27:31.491679 17344 net.cpp:165] Memory required for data: 1183233500
I0817 16:27:31.491684 17344 layer_factory.hpp:77] Creating layer L2_b8_cbr2_conv
I0817 16:27:31.491698 17344 net.cpp:100] Creating Layer L2_b8_cbr2_conv
I0817 16:27:31.491703 17344 net.cpp:434] L2_b8_cbr2_conv <- L2_b8_cbr1_bn_top
I0817 16:27:31.491714 17344 net.cpp:408] L2_b8_cbr2_conv -> L2_b8_cbr2_conv_top
I0817 16:27:31.492185 17344 net.cpp:150] Setting up L2_b8_cbr2_conv
I0817 16:27:31.492199 17344 net.cpp:157] Top shape: 125 32 16 16 (1024000)
I0817 16:27:31.492204 17344 net.cpp:165] Memory required for data: 1187329500
I0817 16:27:31.492213 17344 layer_factory.hpp:77] Creating layer L2_b8_cbr2_bn
I0817 16:27:31.492224 17344 net.cpp:100] Creating Layer L2_b8_cbr2_bn
I0817 16:27:31.492239 17344 net.cpp:434] L2_b8_cbr2_bn <- L2_b8_cbr2_conv_top
I0817 16:27:31.492250 17344 net.cpp:408] L2_b8_cbr2_bn -> L2_b8_cbr2_bn_top
I0817 16:27:31.492501 17344 net.cpp:150] Setting up L2_b8_cbr2_bn
I0817 16:27:31.492516 17344 net.cpp:157] Top shape: 125 32 16 16 (1024000)
I0817 16:27:31.492522 17344 net.cpp:165] Memory required for data: 1191425500
I0817 16:27:31.492532 17344 layer_factory.hpp:77] Creating layer L2_b8_cbr2_scale
I0817 16:27:31.492540 17344 net.cpp:100] Creating Layer L2_b8_cbr2_scale
I0817 16:27:31.492547 17344 net.cpp:434] L2_b8_cbr2_scale <- L2_b8_cbr2_bn_top
I0817 16:27:31.492554 17344 net.cpp:395] L2_b8_cbr2_scale -> L2_b8_cbr2_bn_top (in-place)
I0817 16:27:31.492609 17344 layer_factory.hpp:77] Creating layer L2_b8_cbr2_scale
I0817 16:27:31.492760 17344 net.cpp:150] Setting up L2_b8_cbr2_scale
I0817 16:27:31.492772 17344 net.cpp:157] Top shape: 125 32 16 16 (1024000)
I0817 16:27:31.492777 17344 net.cpp:165] Memory required for data: 1195521500
I0817 16:27:31.492786 17344 layer_factory.hpp:77] Creating layer L2_b8_sum_eltwise
I0817 16:27:31.492795 17344 net.cpp:100] Creating Layer L2_b8_sum_eltwise
I0817 16:27:31.492801 17344 net.cpp:434] L2_b8_sum_eltwise <- L2_b8_cbr2_bn_top
I0817 16:27:31.492817 17344 net.cpp:434] L2_b8_sum_eltwise <- L2_b7_sum_eltwise_top_L2_b7_relu_0_split_1
I0817 16:27:31.492825 17344 net.cpp:408] L2_b8_sum_eltwise -> L2_b8_sum_eltwise_top
I0817 16:27:31.492853 17344 net.cpp:150] Setting up L2_b8_sum_eltwise
I0817 16:27:31.492862 17344 net.cpp:157] Top shape: 125 32 16 16 (1024000)
I0817 16:27:31.492867 17344 net.cpp:165] Memory required for data: 1199617500
I0817 16:27:31.492872 17344 layer_factory.hpp:77] Creating layer L2_b8_relu
I0817 16:27:31.492883 17344 net.cpp:100] Creating Layer L2_b8_relu
I0817 16:27:31.492889 17344 net.cpp:434] L2_b8_relu <- L2_b8_sum_eltwise_top
I0817 16:27:31.492897 17344 net.cpp:395] L2_b8_relu -> L2_b8_sum_eltwise_top (in-place)
I0817 16:27:31.492905 17344 net.cpp:150] Setting up L2_b8_relu
I0817 16:27:31.492913 17344 net.cpp:157] Top shape: 125 32 16 16 (1024000)
I0817 16:27:31.492916 17344 net.cpp:165] Memory required for data: 1203713500
I0817 16:27:31.492921 17344 layer_factory.hpp:77] Creating layer L2_b8_sum_eltwise_top_L2_b8_relu_0_split
I0817 16:27:31.492928 17344 net.cpp:100] Creating Layer L2_b8_sum_eltwise_top_L2_b8_relu_0_split
I0817 16:27:31.492933 17344 net.cpp:434] L2_b8_sum_eltwise_top_L2_b8_relu_0_split <- L2_b8_sum_eltwise_top
I0817 16:27:31.492941 17344 net.cpp:408] L2_b8_sum_eltwise_top_L2_b8_relu_0_split -> L2_b8_sum_eltwise_top_L2_b8_relu_0_split_0
I0817 16:27:31.492964 17344 net.cpp:408] L2_b8_sum_eltwise_top_L2_b8_relu_0_split -> L2_b8_sum_eltwise_top_L2_b8_relu_0_split_1
I0817 16:27:31.493013 17344 net.cpp:150] Setting up L2_b8_sum_eltwise_top_L2_b8_relu_0_split
I0817 16:27:31.493026 17344 net.cpp:157] Top shape: 125 32 16 16 (1024000)
I0817 16:27:31.493032 17344 net.cpp:157] Top shape: 125 32 16 16 (1024000)
I0817 16:27:31.493036 17344 net.cpp:165] Memory required for data: 1211905500
I0817 16:27:31.493041 17344 layer_factory.hpp:77] Creating layer L2_b9_cbr1_conv
I0817 16:27:31.493055 17344 net.cpp:100] Creating Layer L2_b9_cbr1_conv
I0817 16:27:31.493062 17344 net.cpp:434] L2_b9_cbr1_conv <- L2_b8_sum_eltwise_top_L2_b8_relu_0_split_0
I0817 16:27:31.493072 17344 net.cpp:408] L2_b9_cbr1_conv -> L2_b9_cbr1_conv_top
I0817 16:27:31.493540 17344 net.cpp:150] Setting up L2_b9_cbr1_conv
I0817 16:27:31.493553 17344 net.cpp:157] Top shape: 125 32 16 16 (1024000)
I0817 16:27:31.493558 17344 net.cpp:165] Memory required for data: 1216001500
I0817 16:27:31.493566 17344 layer_factory.hpp:77] Creating layer L2_b9_cbr1_bn
I0817 16:27:31.493578 17344 net.cpp:100] Creating Layer L2_b9_cbr1_bn
I0817 16:27:31.493585 17344 net.cpp:434] L2_b9_cbr1_bn <- L2_b9_cbr1_conv_top
I0817 16:27:31.493593 17344 net.cpp:408] L2_b9_cbr1_bn -> L2_b9_cbr1_bn_top
I0817 16:27:31.493851 17344 net.cpp:150] Setting up L2_b9_cbr1_bn
I0817 16:27:31.493867 17344 net.cpp:157] Top shape: 125 32 16 16 (1024000)
I0817 16:27:31.493880 17344 net.cpp:165] Memory required for data: 1220097500
I0817 16:27:31.493891 17344 layer_factory.hpp:77] Creating layer L2_b9_cbr1_scale
I0817 16:27:31.493899 17344 net.cpp:100] Creating Layer L2_b9_cbr1_scale
I0817 16:27:31.493906 17344 net.cpp:434] L2_b9_cbr1_scale <- L2_b9_cbr1_bn_top
I0817 16:27:31.493913 17344 net.cpp:395] L2_b9_cbr1_scale -> L2_b9_cbr1_bn_top (in-place)
I0817 16:27:31.493968 17344 layer_factory.hpp:77] Creating layer L2_b9_cbr1_scale
I0817 16:27:31.494122 17344 net.cpp:150] Setting up L2_b9_cbr1_scale
I0817 16:27:31.494134 17344 net.cpp:157] Top shape: 125 32 16 16 (1024000)
I0817 16:27:31.494139 17344 net.cpp:165] Memory required for data: 1224193500
I0817 16:27:31.494148 17344 layer_factory.hpp:77] Creating layer L2_b9_cbr1_relu
I0817 16:27:31.494156 17344 net.cpp:100] Creating Layer L2_b9_cbr1_relu
I0817 16:27:31.494163 17344 net.cpp:434] L2_b9_cbr1_relu <- L2_b9_cbr1_bn_top
I0817 16:27:31.494173 17344 net.cpp:395] L2_b9_cbr1_relu -> L2_b9_cbr1_bn_top (in-place)
I0817 16:27:31.494182 17344 net.cpp:150] Setting up L2_b9_cbr1_relu
I0817 16:27:31.494189 17344 net.cpp:157] Top shape: 125 32 16 16 (1024000)
I0817 16:27:31.494194 17344 net.cpp:165] Memory required for data: 1228289500
I0817 16:27:31.494199 17344 layer_factory.hpp:77] Creating layer L2_b9_cbr2_conv
I0817 16:27:31.494212 17344 net.cpp:100] Creating Layer L2_b9_cbr2_conv
I0817 16:27:31.494218 17344 net.cpp:434] L2_b9_cbr2_conv <- L2_b9_cbr1_bn_top
I0817 16:27:31.494226 17344 net.cpp:408] L2_b9_cbr2_conv -> L2_b9_cbr2_conv_top
I0817 16:27:31.494691 17344 net.cpp:150] Setting up L2_b9_cbr2_conv
I0817 16:27:31.494705 17344 net.cpp:157] Top shape: 125 32 16 16 (1024000)
I0817 16:27:31.494710 17344 net.cpp:165] Memory required for data: 1232385500
I0817 16:27:31.494719 17344 layer_factory.hpp:77] Creating layer L2_b9_cbr2_bn
I0817 16:27:31.494731 17344 net.cpp:100] Creating Layer L2_b9_cbr2_bn
I0817 16:27:31.494738 17344 net.cpp:434] L2_b9_cbr2_bn <- L2_b9_cbr2_conv_top
I0817 16:27:31.494746 17344 net.cpp:408] L2_b9_cbr2_bn -> L2_b9_cbr2_bn_top
I0817 16:27:31.495004 17344 net.cpp:150] Setting up L2_b9_cbr2_bn
I0817 16:27:31.495018 17344 net.cpp:157] Top shape: 125 32 16 16 (1024000)
I0817 16:27:31.495023 17344 net.cpp:165] Memory required for data: 1236481500
I0817 16:27:31.495066 17344 layer_factory.hpp:77] Creating layer L2_b9_cbr2_scale
I0817 16:27:31.495079 17344 net.cpp:100] Creating Layer L2_b9_cbr2_scale
I0817 16:27:31.495085 17344 net.cpp:434] L2_b9_cbr2_scale <- L2_b9_cbr2_bn_top
I0817 16:27:31.495092 17344 net.cpp:395] L2_b9_cbr2_scale -> L2_b9_cbr2_bn_top (in-place)
I0817 16:27:31.495151 17344 layer_factory.hpp:77] Creating layer L2_b9_cbr2_scale
I0817 16:27:31.495301 17344 net.cpp:150] Setting up L2_b9_cbr2_scale
I0817 16:27:31.495314 17344 net.cpp:157] Top shape: 125 32 16 16 (1024000)
I0817 16:27:31.495319 17344 net.cpp:165] Memory required for data: 1240577500
I0817 16:27:31.495328 17344 layer_factory.hpp:77] Creating layer L2_b9_sum_eltwise
I0817 16:27:31.495337 17344 net.cpp:100] Creating Layer L2_b9_sum_eltwise
I0817 16:27:31.495344 17344 net.cpp:434] L2_b9_sum_eltwise <- L2_b9_cbr2_bn_top
I0817 16:27:31.495352 17344 net.cpp:434] L2_b9_sum_eltwise <- L2_b8_sum_eltwise_top_L2_b8_relu_0_split_1
I0817 16:27:31.495362 17344 net.cpp:408] L2_b9_sum_eltwise -> L2_b9_sum_eltwise_top
I0817 16:27:31.495389 17344 net.cpp:150] Setting up L2_b9_sum_eltwise
I0817 16:27:31.495398 17344 net.cpp:157] Top shape: 125 32 16 16 (1024000)
I0817 16:27:31.495404 17344 net.cpp:165] Memory required for data: 1244673500
I0817 16:27:31.495409 17344 layer_factory.hpp:77] Creating layer L2_b9_relu
I0817 16:27:31.495419 17344 net.cpp:100] Creating Layer L2_b9_relu
I0817 16:27:31.495424 17344 net.cpp:434] L2_b9_relu <- L2_b9_sum_eltwise_top
I0817 16:27:31.495431 17344 net.cpp:395] L2_b9_relu -> L2_b9_sum_eltwise_top (in-place)
I0817 16:27:31.495440 17344 net.cpp:150] Setting up L2_b9_relu
I0817 16:27:31.495447 17344 net.cpp:157] Top shape: 125 32 16 16 (1024000)
I0817 16:27:31.495452 17344 net.cpp:165] Memory required for data: 1248769500
I0817 16:27:31.495463 17344 layer_factory.hpp:77] Creating layer L2_b9_sum_eltwise_top_L2_b9_relu_0_split
I0817 16:27:31.495471 17344 net.cpp:100] Creating Layer L2_b9_sum_eltwise_top_L2_b9_relu_0_split
I0817 16:27:31.495476 17344 net.cpp:434] L2_b9_sum_eltwise_top_L2_b9_relu_0_split <- L2_b9_sum_eltwise_top
I0817 16:27:31.495486 17344 net.cpp:408] L2_b9_sum_eltwise_top_L2_b9_relu_0_split -> L2_b9_sum_eltwise_top_L2_b9_relu_0_split_0
I0817 16:27:31.495496 17344 net.cpp:408] L2_b9_sum_eltwise_top_L2_b9_relu_0_split -> L2_b9_sum_eltwise_top_L2_b9_relu_0_split_1
I0817 16:27:31.495543 17344 net.cpp:150] Setting up L2_b9_sum_eltwise_top_L2_b9_relu_0_split
I0817 16:27:31.495558 17344 net.cpp:157] Top shape: 125 32 16 16 (1024000)
I0817 16:27:31.495564 17344 net.cpp:157] Top shape: 125 32 16 16 (1024000)
I0817 16:27:31.495568 17344 net.cpp:165] Memory required for data: 1256961500
I0817 16:27:31.495573 17344 layer_factory.hpp:77] Creating layer L3_b1_cbr1_conv
I0817 16:27:31.495585 17344 net.cpp:100] Creating Layer L3_b1_cbr1_conv
I0817 16:27:31.495591 17344 net.cpp:434] L3_b1_cbr1_conv <- L2_b9_sum_eltwise_top_L2_b9_relu_0_split_0
I0817 16:27:31.495600 17344 net.cpp:408] L3_b1_cbr1_conv -> L3_b1_cbr1_conv_top
I0817 16:27:31.496078 17344 net.cpp:150] Setting up L3_b1_cbr1_conv
I0817 16:27:31.496093 17344 net.cpp:157] Top shape: 125 32 8 8 (256000)
I0817 16:27:31.496098 17344 net.cpp:165] Memory required for data: 1257985500
I0817 16:27:31.496106 17344 layer_factory.hpp:77] Creating layer L3_b1_cbr1_bn
I0817 16:27:31.496119 17344 net.cpp:100] Creating Layer L3_b1_cbr1_bn
I0817 16:27:31.496125 17344 net.cpp:434] L3_b1_cbr1_bn <- L3_b1_cbr1_conv_top
I0817 16:27:31.496134 17344 net.cpp:408] L3_b1_cbr1_bn -> L3_b1_cbr1_bn_top
I0817 16:27:31.496397 17344 net.cpp:150] Setting up L3_b1_cbr1_bn
I0817 16:27:31.496410 17344 net.cpp:157] Top shape: 125 32 8 8 (256000)
I0817 16:27:31.496415 17344 net.cpp:165] Memory required for data: 1259009500
I0817 16:27:31.496426 17344 layer_factory.hpp:77] Creating layer L3_b1_cbr1_scale
I0817 16:27:31.496438 17344 net.cpp:100] Creating Layer L3_b1_cbr1_scale
I0817 16:27:31.496444 17344 net.cpp:434] L3_b1_cbr1_scale <- L3_b1_cbr1_bn_top
I0817 16:27:31.496451 17344 net.cpp:395] L3_b1_cbr1_scale -> L3_b1_cbr1_bn_top (in-place)
I0817 16:27:31.496508 17344 layer_factory.hpp:77] Creating layer L3_b1_cbr1_scale
I0817 16:27:31.496659 17344 net.cpp:150] Setting up L3_b1_cbr1_scale
I0817 16:27:31.496672 17344 net.cpp:157] Top shape: 125 32 8 8 (256000)
I0817 16:27:31.496677 17344 net.cpp:165] Memory required for data: 1260033500
I0817 16:27:31.496686 17344 layer_factory.hpp:77] Creating layer L3_b1_cbr1_relu
I0817 16:27:31.496696 17344 net.cpp:100] Creating Layer L3_b1_cbr1_relu
I0817 16:27:31.496703 17344 net.cpp:434] L3_b1_cbr1_relu <- L3_b1_cbr1_bn_top
I0817 16:27:31.496712 17344 net.cpp:395] L3_b1_cbr1_relu -> L3_b1_cbr1_bn_top (in-place)
I0817 16:27:31.496722 17344 net.cpp:150] Setting up L3_b1_cbr1_relu
I0817 16:27:31.496729 17344 net.cpp:157] Top shape: 125 32 8 8 (256000)
I0817 16:27:31.496734 17344 net.cpp:165] Memory required for data: 1261057500
I0817 16:27:31.496738 17344 layer_factory.hpp:77] Creating layer L3_b1_cbr2_conv
I0817 16:27:31.496749 17344 net.cpp:100] Creating Layer L3_b1_cbr2_conv
I0817 16:27:31.496755 17344 net.cpp:434] L3_b1_cbr2_conv <- L3_b1_cbr1_bn_top
I0817 16:27:31.496767 17344 net.cpp:408] L3_b1_cbr2_conv -> L3_b1_cbr2_conv_top
I0817 16:27:31.497241 17344 net.cpp:150] Setting up L3_b1_cbr2_conv
I0817 16:27:31.497256 17344 net.cpp:157] Top shape: 125 32 8 8 (256000)
I0817 16:27:31.497262 17344 net.cpp:165] Memory required for data: 1262081500
I0817 16:27:31.497270 17344 layer_factory.hpp:77] Creating layer L3_b1_cbr2_bn
I0817 16:27:31.497282 17344 net.cpp:100] Creating Layer L3_b1_cbr2_bn
I0817 16:27:31.497288 17344 net.cpp:434] L3_b1_cbr2_bn <- L3_b1_cbr2_conv_top
I0817 16:27:31.497297 17344 net.cpp:408] L3_b1_cbr2_bn -> L3_b1_cbr2_bn_top
I0817 16:27:31.497555 17344 net.cpp:150] Setting up L3_b1_cbr2_bn
I0817 16:27:31.497568 17344 net.cpp:157] Top shape: 125 32 8 8 (256000)
I0817 16:27:31.497579 17344 net.cpp:165] Memory required for data: 1263105500
I0817 16:27:31.497591 17344 layer_factory.hpp:77] Creating layer L3_b1_cbr2_scale
I0817 16:27:31.497599 17344 net.cpp:100] Creating Layer L3_b1_cbr2_scale
I0817 16:27:31.497606 17344 net.cpp:434] L3_b1_cbr2_scale <- L3_b1_cbr2_bn_top
I0817 16:27:31.497612 17344 net.cpp:395] L3_b1_cbr2_scale -> L3_b1_cbr2_bn_top (in-place)
I0817 16:27:31.497670 17344 layer_factory.hpp:77] Creating layer L3_b1_cbr2_scale
I0817 16:27:31.497834 17344 net.cpp:150] Setting up L3_b1_cbr2_scale
I0817 16:27:31.497850 17344 net.cpp:157] Top shape: 125 32 8 8 (256000)
I0817 16:27:31.497855 17344 net.cpp:165] Memory required for data: 1264129500
I0817 16:27:31.497864 17344 layer_factory.hpp:77] Creating layer L3_b1_pool
I0817 16:27:31.497874 17344 net.cpp:100] Creating Layer L3_b1_pool
I0817 16:27:31.497880 17344 net.cpp:434] L3_b1_pool <- L2_b9_sum_eltwise_top_L2_b9_relu_0_split_1
I0817 16:27:31.497889 17344 net.cpp:408] L3_b1_pool -> L3_b1_pool
I0817 16:27:31.497925 17344 net.cpp:150] Setting up L3_b1_pool
I0817 16:27:31.497934 17344 net.cpp:157] Top shape: 125 32 8 8 (256000)
I0817 16:27:31.497939 17344 net.cpp:165] Memory required for data: 1265153500
I0817 16:27:31.497944 17344 layer_factory.hpp:77] Creating layer L3_b1_sum_eltwise
I0817 16:27:31.497953 17344 net.cpp:100] Creating Layer L3_b1_sum_eltwise
I0817 16:27:31.497959 17344 net.cpp:434] L3_b1_sum_eltwise <- L3_b1_cbr2_bn_top
I0817 16:27:31.497966 17344 net.cpp:434] L3_b1_sum_eltwise <- L3_b1_pool
I0817 16:27:31.497972 17344 net.cpp:408] L3_b1_sum_eltwise -> L3_b1_sum_eltwise_top
I0817 16:27:31.498006 17344 net.cpp:150] Setting up L3_b1_sum_eltwise
I0817 16:27:31.498016 17344 net.cpp:157] Top shape: 125 32 8 8 (256000)
I0817 16:27:31.498021 17344 net.cpp:165] Memory required for data: 1266177500
I0817 16:27:31.498026 17344 layer_factory.hpp:77] Creating layer L3_b1_relu
I0817 16:27:31.498034 17344 net.cpp:100] Creating Layer L3_b1_relu
I0817 16:27:31.498039 17344 net.cpp:434] L3_b1_relu <- L3_b1_sum_eltwise_top
I0817 16:27:31.498045 17344 net.cpp:395] L3_b1_relu -> L3_b1_sum_eltwise_top (in-place)
I0817 16:27:31.498054 17344 net.cpp:150] Setting up L3_b1_relu
I0817 16:27:31.498061 17344 net.cpp:157] Top shape: 125 32 8 8 (256000)
I0817 16:27:31.498066 17344 net.cpp:165] Memory required for data: 1267201500
I0817 16:27:31.498070 17344 layer_factory.hpp:77] Creating layer L3_b1_zeros
I0817 16:27:31.498080 17344 net.cpp:100] Creating Layer L3_b1_zeros
I0817 16:27:31.498090 17344 net.cpp:408] L3_b1_zeros -> L3_b1_zeros
I0817 16:27:31.499300 17344 net.cpp:150] Setting up L3_b1_zeros
I0817 16:27:31.499317 17344 net.cpp:157] Top shape: 125 32 8 8 (256000)
I0817 16:27:31.499322 17344 net.cpp:165] Memory required for data: 1268225500
I0817 16:27:31.499328 17344 layer_factory.hpp:77] Creating layer L3_b1_concat0
I0817 16:27:31.499341 17344 net.cpp:100] Creating Layer L3_b1_concat0
I0817 16:27:31.499347 17344 net.cpp:434] L3_b1_concat0 <- L3_b1_sum_eltwise_top
I0817 16:27:31.499356 17344 net.cpp:434] L3_b1_concat0 <- L3_b1_zeros
I0817 16:27:31.499362 17344 net.cpp:408] L3_b1_concat0 -> L3_b1_concat0
I0817 16:27:31.499405 17344 net.cpp:150] Setting up L3_b1_concat0
I0817 16:27:31.499418 17344 net.cpp:157] Top shape: 125 64 8 8 (512000)
I0817 16:27:31.499423 17344 net.cpp:165] Memory required for data: 1270273500
I0817 16:27:31.499428 17344 layer_factory.hpp:77] Creating layer L3_b1_concat0_L3_b1_concat0_0_split
I0817 16:27:31.499435 17344 net.cpp:100] Creating Layer L3_b1_concat0_L3_b1_concat0_0_split
I0817 16:27:31.499441 17344 net.cpp:434] L3_b1_concat0_L3_b1_concat0_0_split <- L3_b1_concat0
I0817 16:27:31.499451 17344 net.cpp:408] L3_b1_concat0_L3_b1_concat0_0_split -> L3_b1_concat0_L3_b1_concat0_0_split_0
I0817 16:27:31.499461 17344 net.cpp:408] L3_b1_concat0_L3_b1_concat0_0_split -> L3_b1_concat0_L3_b1_concat0_0_split_1
I0817 16:27:31.499511 17344 net.cpp:150] Setting up L3_b1_concat0_L3_b1_concat0_0_split
I0817 16:27:31.499526 17344 net.cpp:157] Top shape: 125 64 8 8 (512000)
I0817 16:27:31.499532 17344 net.cpp:157] Top shape: 125 64 8 8 (512000)
I0817 16:27:31.499544 17344 net.cpp:165] Memory required for data: 1274369500
I0817 16:27:31.499550 17344 layer_factory.hpp:77] Creating layer L3_b2_cbr1_conv
I0817 16:27:31.499565 17344 net.cpp:100] Creating Layer L3_b2_cbr1_conv
I0817 16:27:31.499572 17344 net.cpp:434] L3_b2_cbr1_conv <- L3_b1_concat0_L3_b1_concat0_0_split_0
I0817 16:27:31.499581 17344 net.cpp:408] L3_b2_cbr1_conv -> L3_b2_cbr1_conv_top
I0817 16:27:31.501560 17344 net.cpp:150] Setting up L3_b2_cbr1_conv
I0817 16:27:31.501580 17344 net.cpp:157] Top shape: 125 64 8 8 (512000)
I0817 16:27:31.501586 17344 net.cpp:165] Memory required for data: 1276417500
I0817 16:27:31.501595 17344 layer_factory.hpp:77] Creating layer L3_b2_cbr1_bn
I0817 16:27:31.501606 17344 net.cpp:100] Creating Layer L3_b2_cbr1_bn
I0817 16:27:31.501612 17344 net.cpp:434] L3_b2_cbr1_bn <- L3_b2_cbr1_conv_top
I0817 16:27:31.501623 17344 net.cpp:408] L3_b2_cbr1_bn -> L3_b2_cbr1_bn_top
I0817 16:27:31.501893 17344 net.cpp:150] Setting up L3_b2_cbr1_bn
I0817 16:27:31.501906 17344 net.cpp:157] Top shape: 125 64 8 8 (512000)
I0817 16:27:31.501911 17344 net.cpp:165] Memory required for data: 1278465500
I0817 16:27:31.501921 17344 layer_factory.hpp:77] Creating layer L3_b2_cbr1_scale
I0817 16:27:31.501933 17344 net.cpp:100] Creating Layer L3_b2_cbr1_scale
I0817 16:27:31.501940 17344 net.cpp:434] L3_b2_cbr1_scale <- L3_b2_cbr1_bn_top
I0817 16:27:31.501947 17344 net.cpp:395] L3_b2_cbr1_scale -> L3_b2_cbr1_bn_top (in-place)
I0817 16:27:31.502004 17344 layer_factory.hpp:77] Creating layer L3_b2_cbr1_scale
I0817 16:27:31.502159 17344 net.cpp:150] Setting up L3_b2_cbr1_scale
I0817 16:27:31.502172 17344 net.cpp:157] Top shape: 125 64 8 8 (512000)
I0817 16:27:31.502177 17344 net.cpp:165] Memory required for data: 1280513500
I0817 16:27:31.502187 17344 layer_factory.hpp:77] Creating layer L3_b2_cbr1_relu
I0817 16:27:31.502194 17344 net.cpp:100] Creating Layer L3_b2_cbr1_relu
I0817 16:27:31.502200 17344 net.cpp:434] L3_b2_cbr1_relu <- L3_b2_cbr1_bn_top
I0817 16:27:31.502210 17344 net.cpp:395] L3_b2_cbr1_relu -> L3_b2_cbr1_bn_top (in-place)
I0817 16:27:31.502220 17344 net.cpp:150] Setting up L3_b2_cbr1_relu
I0817 16:27:31.502228 17344 net.cpp:157] Top shape: 125 64 8 8 (512000)
I0817 16:27:31.502233 17344 net.cpp:165] Memory required for data: 1282561500
I0817 16:27:31.502238 17344 layer_factory.hpp:77] Creating layer L3_b2_cbr2_conv
I0817 16:27:31.502251 17344 net.cpp:100] Creating Layer L3_b2_cbr2_conv
I0817 16:27:31.502257 17344 net.cpp:434] L3_b2_cbr2_conv <- L3_b2_cbr1_bn_top
I0817 16:27:31.502266 17344 net.cpp:408] L3_b2_cbr2_conv -> L3_b2_cbr2_conv_top
I0817 16:27:31.503293 17344 net.cpp:150] Setting up L3_b2_cbr2_conv
I0817 16:27:31.503309 17344 net.cpp:157] Top shape: 125 64 8 8 (512000)
I0817 16:27:31.503314 17344 net.cpp:165] Memory required for data: 1284609500
I0817 16:27:31.503322 17344 layer_factory.hpp:77] Creating layer L3_b2_cbr2_bn
I0817 16:27:31.503334 17344 net.cpp:100] Creating Layer L3_b2_cbr2_bn
I0817 16:27:31.503341 17344 net.cpp:434] L3_b2_cbr2_bn <- L3_b2_cbr2_conv_top
I0817 16:27:31.503350 17344 net.cpp:408] L3_b2_cbr2_bn -> L3_b2_cbr2_bn_top
I0817 16:27:31.503615 17344 net.cpp:150] Setting up L3_b2_cbr2_bn
I0817 16:27:31.503629 17344 net.cpp:157] Top shape: 125 64 8 8 (512000)
I0817 16:27:31.503633 17344 net.cpp:165] Memory required for data: 1286657500
I0817 16:27:31.503644 17344 layer_factory.hpp:77] Creating layer L3_b2_cbr2_scale
I0817 16:27:31.503654 17344 net.cpp:100] Creating Layer L3_b2_cbr2_scale
I0817 16:27:31.503659 17344 net.cpp:434] L3_b2_cbr2_scale <- L3_b2_cbr2_bn_top
I0817 16:27:31.503666 17344 net.cpp:395] L3_b2_cbr2_scale -> L3_b2_cbr2_bn_top (in-place)
I0817 16:27:31.503726 17344 layer_factory.hpp:77] Creating layer L3_b2_cbr2_scale
I0817 16:27:31.503886 17344 net.cpp:150] Setting up L3_b2_cbr2_scale
I0817 16:27:31.503900 17344 net.cpp:157] Top shape: 125 64 8 8 (512000)
I0817 16:27:31.503904 17344 net.cpp:165] Memory required for data: 1288705500
I0817 16:27:31.503913 17344 layer_factory.hpp:77] Creating layer L3_b2_sum_eltwise
I0817 16:27:31.503931 17344 net.cpp:100] Creating Layer L3_b2_sum_eltwise
I0817 16:27:31.503938 17344 net.cpp:434] L3_b2_sum_eltwise <- L3_b2_cbr2_bn_top
I0817 16:27:31.503945 17344 net.cpp:434] L3_b2_sum_eltwise <- L3_b1_concat0_L3_b1_concat0_0_split_1
I0817 16:27:31.503955 17344 net.cpp:408] L3_b2_sum_eltwise -> L3_b2_sum_eltwise_top
I0817 16:27:31.503990 17344 net.cpp:150] Setting up L3_b2_sum_eltwise
I0817 16:27:31.504005 17344 net.cpp:157] Top shape: 125 64 8 8 (512000)
I0817 16:27:31.504010 17344 net.cpp:165] Memory required for data: 1290753500
I0817 16:27:31.504015 17344 layer_factory.hpp:77] Creating layer L3_b2_relu
I0817 16:27:31.504024 17344 net.cpp:100] Creating Layer L3_b2_relu
I0817 16:27:31.504029 17344 net.cpp:434] L3_b2_relu <- L3_b2_sum_eltwise_top
I0817 16:27:31.504036 17344 net.cpp:395] L3_b2_relu -> L3_b2_sum_eltwise_top (in-place)
I0817 16:27:31.504045 17344 net.cpp:150] Setting up L3_b2_relu
I0817 16:27:31.504052 17344 net.cpp:157] Top shape: 125 64 8 8 (512000)
I0817 16:27:31.504056 17344 net.cpp:165] Memory required for data: 1292801500
I0817 16:27:31.504061 17344 layer_factory.hpp:77] Creating layer L3_b2_sum_eltwise_top_L3_b2_relu_0_split
I0817 16:27:31.504071 17344 net.cpp:100] Creating Layer L3_b2_sum_eltwise_top_L3_b2_relu_0_split
I0817 16:27:31.504077 17344 net.cpp:434] L3_b2_sum_eltwise_top_L3_b2_relu_0_split <- L3_b2_sum_eltwise_top
I0817 16:27:31.504084 17344 net.cpp:408] L3_b2_sum_eltwise_top_L3_b2_relu_0_split -> L3_b2_sum_eltwise_top_L3_b2_relu_0_split_0
I0817 16:27:31.504094 17344 net.cpp:408] L3_b2_sum_eltwise_top_L3_b2_relu_0_split -> L3_b2_sum_eltwise_top_L3_b2_relu_0_split_1
I0817 16:27:31.504143 17344 net.cpp:150] Setting up L3_b2_sum_eltwise_top_L3_b2_relu_0_split
I0817 16:27:31.504155 17344 net.cpp:157] Top shape: 125 64 8 8 (512000)
I0817 16:27:31.504163 17344 net.cpp:157] Top shape: 125 64 8 8 (512000)
I0817 16:27:31.504166 17344 net.cpp:165] Memory required for data: 1296897500
I0817 16:27:31.504171 17344 layer_factory.hpp:77] Creating layer L3_b3_cbr1_conv
I0817 16:27:31.504184 17344 net.cpp:100] Creating Layer L3_b3_cbr1_conv
I0817 16:27:31.504189 17344 net.cpp:434] L3_b3_cbr1_conv <- L3_b2_sum_eltwise_top_L3_b2_relu_0_split_0
I0817 16:27:31.504201 17344 net.cpp:408] L3_b3_cbr1_conv -> L3_b3_cbr1_conv_top
I0817 16:27:31.505213 17344 net.cpp:150] Setting up L3_b3_cbr1_conv
I0817 16:27:31.505228 17344 net.cpp:157] Top shape: 125 64 8 8 (512000)
I0817 16:27:31.505233 17344 net.cpp:165] Memory required for data: 1298945500
I0817 16:27:31.505241 17344 layer_factory.hpp:77] Creating layer L3_b3_cbr1_bn
I0817 16:27:31.505250 17344 net.cpp:100] Creating Layer L3_b3_cbr1_bn
I0817 16:27:31.505256 17344 net.cpp:434] L3_b3_cbr1_bn <- L3_b3_cbr1_conv_top
I0817 16:27:31.505267 17344 net.cpp:408] L3_b3_cbr1_bn -> L3_b3_cbr1_bn_top
I0817 16:27:31.505527 17344 net.cpp:150] Setting up L3_b3_cbr1_bn
I0817 16:27:31.505543 17344 net.cpp:157] Top shape: 125 64 8 8 (512000)
I0817 16:27:31.505549 17344 net.cpp:165] Memory required for data: 1300993500
I0817 16:27:31.505559 17344 layer_factory.hpp:77] Creating layer L3_b3_cbr1_scale
I0817 16:27:31.505568 17344 net.cpp:100] Creating Layer L3_b3_cbr1_scale
I0817 16:27:31.505574 17344 net.cpp:434] L3_b3_cbr1_scale <- L3_b3_cbr1_bn_top
I0817 16:27:31.505581 17344 net.cpp:395] L3_b3_cbr1_scale -> L3_b3_cbr1_bn_top (in-place)
I0817 16:27:31.505636 17344 layer_factory.hpp:77] Creating layer L3_b3_cbr1_scale
I0817 16:27:31.505792 17344 net.cpp:150] Setting up L3_b3_cbr1_scale
I0817 16:27:31.505810 17344 net.cpp:157] Top shape: 125 64 8 8 (512000)
I0817 16:27:31.505815 17344 net.cpp:165] Memory required for data: 1303041500
I0817 16:27:31.505825 17344 layer_factory.hpp:77] Creating layer L3_b3_cbr1_relu
I0817 16:27:31.505833 17344 net.cpp:100] Creating Layer L3_b3_cbr1_relu
I0817 16:27:31.505839 17344 net.cpp:434] L3_b3_cbr1_relu <- L3_b3_cbr1_bn_top
I0817 16:27:31.505849 17344 net.cpp:395] L3_b3_cbr1_relu -> L3_b3_cbr1_bn_top (in-place)
I0817 16:27:31.505861 17344 net.cpp:150] Setting up L3_b3_cbr1_relu
I0817 16:27:31.505867 17344 net.cpp:157] Top shape: 125 64 8 8 (512000)
I0817 16:27:31.505878 17344 net.cpp:165] Memory required for data: 1305089500
I0817 16:27:31.505883 17344 layer_factory.hpp:77] Creating layer L3_b3_cbr2_conv
I0817 16:27:31.505898 17344 net.cpp:100] Creating Layer L3_b3_cbr2_conv
I0817 16:27:31.505904 17344 net.cpp:434] L3_b3_cbr2_conv <- L3_b3_cbr1_bn_top
I0817 16:27:31.505913 17344 net.cpp:408] L3_b3_cbr2_conv -> L3_b3_cbr2_conv_top
I0817 16:27:31.506939 17344 net.cpp:150] Setting up L3_b3_cbr2_conv
I0817 16:27:31.506953 17344 net.cpp:157] Top shape: 125 64 8 8 (512000)
I0817 16:27:31.506958 17344 net.cpp:165] Memory required for data: 1307137500
I0817 16:27:31.506968 17344 layer_factory.hpp:77] Creating layer L3_b3_cbr2_bn
I0817 16:27:31.506979 17344 net.cpp:100] Creating Layer L3_b3_cbr2_bn
I0817 16:27:31.506986 17344 net.cpp:434] L3_b3_cbr2_bn <- L3_b3_cbr2_conv_top
I0817 16:27:31.506999 17344 net.cpp:408] L3_b3_cbr2_bn -> L3_b3_cbr2_bn_top
I0817 16:27:31.507259 17344 net.cpp:150] Setting up L3_b3_cbr2_bn
I0817 16:27:31.507272 17344 net.cpp:157] Top shape: 125 64 8 8 (512000)
I0817 16:27:31.507277 17344 net.cpp:165] Memory required for data: 1309185500
I0817 16:27:31.507287 17344 layer_factory.hpp:77] Creating layer L3_b3_cbr2_scale
I0817 16:27:31.507295 17344 net.cpp:100] Creating Layer L3_b3_cbr2_scale
I0817 16:27:31.507302 17344 net.cpp:434] L3_b3_cbr2_scale <- L3_b3_cbr2_bn_top
I0817 16:27:31.507309 17344 net.cpp:395] L3_b3_cbr2_scale -> L3_b3_cbr2_bn_top (in-place)
I0817 16:27:31.507367 17344 layer_factory.hpp:77] Creating layer L3_b3_cbr2_scale
I0817 16:27:31.507519 17344 net.cpp:150] Setting up L3_b3_cbr2_scale
I0817 16:27:31.507532 17344 net.cpp:157] Top shape: 125 64 8 8 (512000)
I0817 16:27:31.507537 17344 net.cpp:165] Memory required for data: 1311233500
I0817 16:27:31.507546 17344 layer_factory.hpp:77] Creating layer L3_b3_sum_eltwise
I0817 16:27:31.507555 17344 net.cpp:100] Creating Layer L3_b3_sum_eltwise
I0817 16:27:31.507561 17344 net.cpp:434] L3_b3_sum_eltwise <- L3_b3_cbr2_bn_top
I0817 16:27:31.507568 17344 net.cpp:434] L3_b3_sum_eltwise <- L3_b2_sum_eltwise_top_L3_b2_relu_0_split_1
I0817 16:27:31.507580 17344 net.cpp:408] L3_b3_sum_eltwise -> L3_b3_sum_eltwise_top
I0817 16:27:31.507613 17344 net.cpp:150] Setting up L3_b3_sum_eltwise
I0817 16:27:31.507627 17344 net.cpp:157] Top shape: 125 64 8 8 (512000)
I0817 16:27:31.507632 17344 net.cpp:165] Memory required for data: 1313281500
I0817 16:27:31.507637 17344 layer_factory.hpp:77] Creating layer L3_b3_relu
I0817 16:27:31.507645 17344 net.cpp:100] Creating Layer L3_b3_relu
I0817 16:27:31.507652 17344 net.cpp:434] L3_b3_relu <- L3_b3_sum_eltwise_top
I0817 16:27:31.507658 17344 net.cpp:395] L3_b3_relu -> L3_b3_sum_eltwise_top (in-place)
I0817 16:27:31.507668 17344 net.cpp:150] Setting up L3_b3_relu
I0817 16:27:31.507674 17344 net.cpp:157] Top shape: 125 64 8 8 (512000)
I0817 16:27:31.507678 17344 net.cpp:165] Memory required for data: 1315329500
I0817 16:27:31.507683 17344 layer_factory.hpp:77] Creating layer L3_b3_sum_eltwise_top_L3_b3_relu_0_split
I0817 16:27:31.507694 17344 net.cpp:100] Creating Layer L3_b3_sum_eltwise_top_L3_b3_relu_0_split
I0817 16:27:31.507699 17344 net.cpp:434] L3_b3_sum_eltwise_top_L3_b3_relu_0_split <- L3_b3_sum_eltwise_top
I0817 16:27:31.507705 17344 net.cpp:408] L3_b3_sum_eltwise_top_L3_b3_relu_0_split -> L3_b3_sum_eltwise_top_L3_b3_relu_0_split_0
I0817 16:27:31.507715 17344 net.cpp:408] L3_b3_sum_eltwise_top_L3_b3_relu_0_split -> L3_b3_sum_eltwise_top_L3_b3_relu_0_split_1
I0817 16:27:31.507763 17344 net.cpp:150] Setting up L3_b3_sum_eltwise_top_L3_b3_relu_0_split
I0817 16:27:31.507776 17344 net.cpp:157] Top shape: 125 64 8 8 (512000)
I0817 16:27:31.507781 17344 net.cpp:157] Top shape: 125 64 8 8 (512000)
I0817 16:27:31.507786 17344 net.cpp:165] Memory required for data: 1319425500
I0817 16:27:31.507791 17344 layer_factory.hpp:77] Creating layer L3_b4_cbr1_conv
I0817 16:27:31.507807 17344 net.cpp:100] Creating Layer L3_b4_cbr1_conv
I0817 16:27:31.507815 17344 net.cpp:434] L3_b4_cbr1_conv <- L3_b3_sum_eltwise_top_L3_b3_relu_0_split_0
I0817 16:27:31.507827 17344 net.cpp:408] L3_b4_cbr1_conv -> L3_b4_cbr1_conv_top
I0817 16:27:31.508855 17344 net.cpp:150] Setting up L3_b4_cbr1_conv
I0817 16:27:31.508870 17344 net.cpp:157] Top shape: 125 64 8 8 (512000)
I0817 16:27:31.508875 17344 net.cpp:165] Memory required for data: 1321473500
I0817 16:27:31.508884 17344 layer_factory.hpp:77] Creating layer L3_b4_cbr1_bn
I0817 16:27:31.508893 17344 net.cpp:100] Creating Layer L3_b4_cbr1_bn
I0817 16:27:31.508899 17344 net.cpp:434] L3_b4_cbr1_bn <- L3_b4_cbr1_conv_top
I0817 16:27:31.508910 17344 net.cpp:408] L3_b4_cbr1_bn -> L3_b4_cbr1_bn_top
I0817 16:27:31.509178 17344 net.cpp:150] Setting up L3_b4_cbr1_bn
I0817 16:27:31.509193 17344 net.cpp:157] Top shape: 125 64 8 8 (512000)
I0817 16:27:31.509198 17344 net.cpp:165] Memory required for data: 1323521500
I0817 16:27:31.509208 17344 layer_factory.hpp:77] Creating layer L3_b4_cbr1_scale
I0817 16:27:31.509217 17344 net.cpp:100] Creating Layer L3_b4_cbr1_scale
I0817 16:27:31.509222 17344 net.cpp:434] L3_b4_cbr1_scale <- L3_b4_cbr1_bn_top
I0817 16:27:31.509230 17344 net.cpp:395] L3_b4_cbr1_scale -> L3_b4_cbr1_bn_top (in-place)
I0817 16:27:31.509289 17344 layer_factory.hpp:77] Creating layer L3_b4_cbr1_scale
I0817 16:27:31.509443 17344 net.cpp:150] Setting up L3_b4_cbr1_scale
I0817 16:27:31.509455 17344 net.cpp:157] Top shape: 125 64 8 8 (512000)
I0817 16:27:31.509460 17344 net.cpp:165] Memory required for data: 1325569500
I0817 16:27:31.509469 17344 layer_factory.hpp:77] Creating layer L3_b4_cbr1_relu
I0817 16:27:31.509479 17344 net.cpp:100] Creating Layer L3_b4_cbr1_relu
I0817 16:27:31.509486 17344 net.cpp:434] L3_b4_cbr1_relu <- L3_b4_cbr1_bn_top
I0817 16:27:31.509493 17344 net.cpp:395] L3_b4_cbr1_relu -> L3_b4_cbr1_bn_top (in-place)
I0817 16:27:31.509503 17344 net.cpp:150] Setting up L3_b4_cbr1_relu
I0817 16:27:31.509510 17344 net.cpp:157] Top shape: 125 64 8 8 (512000)
I0817 16:27:31.509515 17344 net.cpp:165] Memory required for data: 1327617500
I0817 16:27:31.509519 17344 layer_factory.hpp:77] Creating layer L3_b4_cbr2_conv
I0817 16:27:31.509532 17344 net.cpp:100] Creating Layer L3_b4_cbr2_conv
I0817 16:27:31.509539 17344 net.cpp:434] L3_b4_cbr2_conv <- L3_b4_cbr1_bn_top
I0817 16:27:31.509547 17344 net.cpp:408] L3_b4_cbr2_conv -> L3_b4_cbr2_conv_top
I0817 16:27:31.510603 17344 net.cpp:150] Setting up L3_b4_cbr2_conv
I0817 16:27:31.510618 17344 net.cpp:157] Top shape: 125 64 8 8 (512000)
I0817 16:27:31.510624 17344 net.cpp:165] Memory required for data: 1329665500
I0817 16:27:31.510632 17344 layer_factory.hpp:77] Creating layer L3_b4_cbr2_bn
I0817 16:27:31.510644 17344 net.cpp:100] Creating Layer L3_b4_cbr2_bn
I0817 16:27:31.510651 17344 net.cpp:434] L3_b4_cbr2_bn <- L3_b4_cbr2_conv_top
I0817 16:27:31.510663 17344 net.cpp:408] L3_b4_cbr2_bn -> L3_b4_cbr2_bn_top
I0817 16:27:31.510936 17344 net.cpp:150] Setting up L3_b4_cbr2_bn
I0817 16:27:31.510951 17344 net.cpp:157] Top shape: 125 64 8 8 (512000)
I0817 16:27:31.510956 17344 net.cpp:165] Memory required for data: 1331713500
I0817 16:27:31.510965 17344 layer_factory.hpp:77] Creating layer L3_b4_cbr2_scale
I0817 16:27:31.510973 17344 net.cpp:100] Creating Layer L3_b4_cbr2_scale
I0817 16:27:31.510980 17344 net.cpp:434] L3_b4_cbr2_scale <- L3_b4_cbr2_bn_top
I0817 16:27:31.510990 17344 net.cpp:395] L3_b4_cbr2_scale -> L3_b4_cbr2_bn_top (in-place)
I0817 16:27:31.511049 17344 layer_factory.hpp:77] Creating layer L3_b4_cbr2_scale
I0817 16:27:31.511211 17344 net.cpp:150] Setting up L3_b4_cbr2_scale
I0817 16:27:31.511224 17344 net.cpp:157] Top shape: 125 64 8 8 (512000)
I0817 16:27:31.511229 17344 net.cpp:165] Memory required for data: 1333761500
I0817 16:27:31.511237 17344 layer_factory.hpp:77] Creating layer L3_b4_sum_eltwise
I0817 16:27:31.511246 17344 net.cpp:100] Creating Layer L3_b4_sum_eltwise
I0817 16:27:31.511253 17344 net.cpp:434] L3_b4_sum_eltwise <- L3_b4_cbr2_bn_top
I0817 16:27:31.511260 17344 net.cpp:434] L3_b4_sum_eltwise <- L3_b3_sum_eltwise_top_L3_b3_relu_0_split_1
I0817 16:27:31.511271 17344 net.cpp:408] L3_b4_sum_eltwise -> L3_b4_sum_eltwise_top
I0817 16:27:31.511307 17344 net.cpp:150] Setting up L3_b4_sum_eltwise
I0817 16:27:31.511323 17344 net.cpp:157] Top shape: 125 64 8 8 (512000)
I0817 16:27:31.511328 17344 net.cpp:165] Memory required for data: 1335809500
I0817 16:27:31.511334 17344 layer_factory.hpp:77] Creating layer L3_b4_relu
I0817 16:27:31.511342 17344 net.cpp:100] Creating Layer L3_b4_relu
I0817 16:27:31.511348 17344 net.cpp:434] L3_b4_relu <- L3_b4_sum_eltwise_top
I0817 16:27:31.511358 17344 net.cpp:395] L3_b4_relu -> L3_b4_sum_eltwise_top (in-place)
I0817 16:27:31.511368 17344 net.cpp:150] Setting up L3_b4_relu
I0817 16:27:31.511374 17344 net.cpp:157] Top shape: 125 64 8 8 (512000)
I0817 16:27:31.511379 17344 net.cpp:165] Memory required for data: 1337857500
I0817 16:27:31.511384 17344 layer_factory.hpp:77] Creating layer L3_b4_sum_eltwise_top_L3_b4_relu_0_split
I0817 16:27:31.511390 17344 net.cpp:100] Creating Layer L3_b4_sum_eltwise_top_L3_b4_relu_0_split
I0817 16:27:31.511396 17344 net.cpp:434] L3_b4_sum_eltwise_top_L3_b4_relu_0_split <- L3_b4_sum_eltwise_top
I0817 16:27:31.511404 17344 net.cpp:408] L3_b4_sum_eltwise_top_L3_b4_relu_0_split -> L3_b4_sum_eltwise_top_L3_b4_relu_0_split_0
I0817 16:27:31.511412 17344 net.cpp:408] L3_b4_sum_eltwise_top_L3_b4_relu_0_split -> L3_b4_sum_eltwise_top_L3_b4_relu_0_split_1
I0817 16:27:31.511462 17344 net.cpp:150] Setting up L3_b4_sum_eltwise_top_L3_b4_relu_0_split
I0817 16:27:31.511473 17344 net.cpp:157] Top shape: 125 64 8 8 (512000)
I0817 16:27:31.511481 17344 net.cpp:157] Top shape: 125 64 8 8 (512000)
I0817 16:27:31.511484 17344 net.cpp:165] Memory required for data: 1341953500
I0817 16:27:31.511489 17344 layer_factory.hpp:77] Creating layer L3_b5_cbr1_conv
I0817 16:27:31.511502 17344 net.cpp:100] Creating Layer L3_b5_cbr1_conv
I0817 16:27:31.511507 17344 net.cpp:434] L3_b5_cbr1_conv <- L3_b4_sum_eltwise_top_L3_b4_relu_0_split_0
I0817 16:27:31.511519 17344 net.cpp:408] L3_b5_cbr1_conv -> L3_b5_cbr1_conv_top
I0817 16:27:31.512552 17344 net.cpp:150] Setting up L3_b5_cbr1_conv
I0817 16:27:31.512567 17344 net.cpp:157] Top shape: 125 64 8 8 (512000)
I0817 16:27:31.512572 17344 net.cpp:165] Memory required for data: 1344001500
I0817 16:27:31.512580 17344 layer_factory.hpp:77] Creating layer L3_b5_cbr1_bn
I0817 16:27:31.512589 17344 net.cpp:100] Creating Layer L3_b5_cbr1_bn
I0817 16:27:31.512596 17344 net.cpp:434] L3_b5_cbr1_bn <- L3_b5_cbr1_conv_top
I0817 16:27:31.512607 17344 net.cpp:408] L3_b5_cbr1_bn -> L3_b5_cbr1_bn_top
I0817 16:27:31.513839 17344 net.cpp:150] Setting up L3_b5_cbr1_bn
I0817 16:27:31.513856 17344 net.cpp:157] Top shape: 125 64 8 8 (512000)
I0817 16:27:31.513862 17344 net.cpp:165] Memory required for data: 1346049500
I0817 16:27:31.513875 17344 layer_factory.hpp:77] Creating layer L3_b5_cbr1_scale
I0817 16:27:31.513883 17344 net.cpp:100] Creating Layer L3_b5_cbr1_scale
I0817 16:27:31.513890 17344 net.cpp:434] L3_b5_cbr1_scale <- L3_b5_cbr1_bn_top
I0817 16:27:31.513901 17344 net.cpp:395] L3_b5_cbr1_scale -> L3_b5_cbr1_bn_top (in-place)
I0817 16:27:31.513962 17344 layer_factory.hpp:77] Creating layer L3_b5_cbr1_scale
I0817 16:27:31.514120 17344 net.cpp:150] Setting up L3_b5_cbr1_scale
I0817 16:27:31.514132 17344 net.cpp:157] Top shape: 125 64 8 8 (512000)
I0817 16:27:31.514137 17344 net.cpp:165] Memory required for data: 1348097500
I0817 16:27:31.514147 17344 layer_factory.hpp:77] Creating layer L3_b5_cbr1_relu
I0817 16:27:31.514155 17344 net.cpp:100] Creating Layer L3_b5_cbr1_relu
I0817 16:27:31.514161 17344 net.cpp:434] L3_b5_cbr1_relu <- L3_b5_cbr1_bn_top
I0817 16:27:31.514173 17344 net.cpp:395] L3_b5_cbr1_relu -> L3_b5_cbr1_bn_top (in-place)
I0817 16:27:31.514183 17344 net.cpp:150] Setting up L3_b5_cbr1_relu
I0817 16:27:31.514189 17344 net.cpp:157] Top shape: 125 64 8 8 (512000)
I0817 16:27:31.514194 17344 net.cpp:165] Memory required for data: 1350145500
I0817 16:27:31.514199 17344 layer_factory.hpp:77] Creating layer L3_b5_cbr2_conv
I0817 16:27:31.514214 17344 net.cpp:100] Creating Layer L3_b5_cbr2_conv
I0817 16:27:31.514219 17344 net.cpp:434] L3_b5_cbr2_conv <- L3_b5_cbr1_bn_top
I0817 16:27:31.514227 17344 net.cpp:408] L3_b5_cbr2_conv -> L3_b5_cbr2_conv_top
I0817 16:27:31.516240 17344 net.cpp:150] Setting up L3_b5_cbr2_conv
I0817 16:27:31.516258 17344 net.cpp:157] Top shape: 125 64 8 8 (512000)
I0817 16:27:31.516263 17344 net.cpp:165] Memory required for data: 1352193500
I0817 16:27:31.516273 17344 layer_factory.hpp:77] Creating layer L3_b5_cbr2_bn
I0817 16:27:31.516286 17344 net.cpp:100] Creating Layer L3_b5_cbr2_bn
I0817 16:27:31.516294 17344 net.cpp:434] L3_b5_cbr2_bn <- L3_b5_cbr2_conv_top
I0817 16:27:31.516304 17344 net.cpp:408] L3_b5_cbr2_bn -> L3_b5_cbr2_bn_top
I0817 16:27:31.516564 17344 net.cpp:150] Setting up L3_b5_cbr2_bn
I0817 16:27:31.516577 17344 net.cpp:157] Top shape: 125 64 8 8 (512000)
I0817 16:27:31.516582 17344 net.cpp:165] Memory required for data: 1354241500
I0817 16:27:31.516593 17344 layer_factory.hpp:77] Creating layer L3_b5_cbr2_scale
I0817 16:27:31.516602 17344 net.cpp:100] Creating Layer L3_b5_cbr2_scale
I0817 16:27:31.516608 17344 net.cpp:434] L3_b5_cbr2_scale <- L3_b5_cbr2_bn_top
I0817 16:27:31.516618 17344 net.cpp:395] L3_b5_cbr2_scale -> L3_b5_cbr2_bn_top (in-place)
I0817 16:27:31.516675 17344 layer_factory.hpp:77] Creating layer L3_b5_cbr2_scale
I0817 16:27:31.516837 17344 net.cpp:150] Setting up L3_b5_cbr2_scale
I0817 16:27:31.516851 17344 net.cpp:157] Top shape: 125 64 8 8 (512000)
I0817 16:27:31.516856 17344 net.cpp:165] Memory required for data: 1356289500
I0817 16:27:31.516865 17344 layer_factory.hpp:77] Creating layer L3_b5_sum_eltwise
I0817 16:27:31.516875 17344 net.cpp:100] Creating Layer L3_b5_sum_eltwise
I0817 16:27:31.516881 17344 net.cpp:434] L3_b5_sum_eltwise <- L3_b5_cbr2_bn_top
I0817 16:27:31.516888 17344 net.cpp:434] L3_b5_sum_eltwise <- L3_b4_sum_eltwise_top_L3_b4_relu_0_split_1
I0817 16:27:31.516899 17344 net.cpp:408] L3_b5_sum_eltwise -> L3_b5_sum_eltwise_top
I0817 16:27:31.516935 17344 net.cpp:150] Setting up L3_b5_sum_eltwise
I0817 16:27:31.516947 17344 net.cpp:157] Top shape: 125 64 8 8 (512000)
I0817 16:27:31.516952 17344 net.cpp:165] Memory required for data: 1358337500
I0817 16:27:31.516957 17344 layer_factory.hpp:77] Creating layer L3_b5_relu
I0817 16:27:31.516964 17344 net.cpp:100] Creating Layer L3_b5_relu
I0817 16:27:31.516970 17344 net.cpp:434] L3_b5_relu <- L3_b5_sum_eltwise_top
I0817 16:27:31.516978 17344 net.cpp:395] L3_b5_relu -> L3_b5_sum_eltwise_top (in-place)
I0817 16:27:31.516989 17344 net.cpp:150] Setting up L3_b5_relu
I0817 16:27:31.516996 17344 net.cpp:157] Top shape: 125 64 8 8 (512000)
I0817 16:27:31.517001 17344 net.cpp:165] Memory required for data: 1360385500
I0817 16:27:31.517005 17344 layer_factory.hpp:77] Creating layer L3_b5_sum_eltwise_top_L3_b5_relu_0_split
I0817 16:27:31.517014 17344 net.cpp:100] Creating Layer L3_b5_sum_eltwise_top_L3_b5_relu_0_split
I0817 16:27:31.517019 17344 net.cpp:434] L3_b5_sum_eltwise_top_L3_b5_relu_0_split <- L3_b5_sum_eltwise_top
I0817 16:27:31.517025 17344 net.cpp:408] L3_b5_sum_eltwise_top_L3_b5_relu_0_split -> L3_b5_sum_eltwise_top_L3_b5_relu_0_split_0
I0817 16:27:31.517035 17344 net.cpp:408] L3_b5_sum_eltwise_top_L3_b5_relu_0_split -> L3_b5_sum_eltwise_top_L3_b5_relu_0_split_1
I0817 16:27:31.517082 17344 net.cpp:150] Setting up L3_b5_sum_eltwise_top_L3_b5_relu_0_split
I0817 16:27:31.517093 17344 net.cpp:157] Top shape: 125 64 8 8 (512000)
I0817 16:27:31.517101 17344 net.cpp:157] Top shape: 125 64 8 8 (512000)
I0817 16:27:31.517104 17344 net.cpp:165] Memory required for data: 1364481500
I0817 16:27:31.517109 17344 layer_factory.hpp:77] Creating layer L3_b6_cbr1_conv
I0817 16:27:31.517122 17344 net.cpp:100] Creating Layer L3_b6_cbr1_conv
I0817 16:27:31.517128 17344 net.cpp:434] L3_b6_cbr1_conv <- L3_b5_sum_eltwise_top_L3_b5_relu_0_split_0
I0817 16:27:31.517139 17344 net.cpp:408] L3_b6_cbr1_conv -> L3_b6_cbr1_conv_top
I0817 16:27:31.518158 17344 net.cpp:150] Setting up L3_b6_cbr1_conv
I0817 16:27:31.518173 17344 net.cpp:157] Top shape: 125 64 8 8 (512000)
I0817 16:27:31.518178 17344 net.cpp:165] Memory required for data: 1366529500
I0817 16:27:31.518187 17344 layer_factory.hpp:77] Creating layer L3_b6_cbr1_bn
I0817 16:27:31.518196 17344 net.cpp:100] Creating Layer L3_b6_cbr1_bn
I0817 16:27:31.518211 17344 net.cpp:434] L3_b6_cbr1_bn <- L3_b6_cbr1_conv_top
I0817 16:27:31.518224 17344 net.cpp:408] L3_b6_cbr1_bn -> L3_b6_cbr1_bn_top
I0817 16:27:31.518484 17344 net.cpp:150] Setting up L3_b6_cbr1_bn
I0817 16:27:31.518501 17344 net.cpp:157] Top shape: 125 64 8 8 (512000)
I0817 16:27:31.518506 17344 net.cpp:165] Memory required for data: 1368577500
I0817 16:27:31.518515 17344 layer_factory.hpp:77] Creating layer L3_b6_cbr1_scale
I0817 16:27:31.518524 17344 net.cpp:100] Creating Layer L3_b6_cbr1_scale
I0817 16:27:31.518530 17344 net.cpp:434] L3_b6_cbr1_scale <- L3_b6_cbr1_bn_top
I0817 16:27:31.518538 17344 net.cpp:395] L3_b6_cbr1_scale -> L3_b6_cbr1_bn_top (in-place)
I0817 16:27:31.518594 17344 layer_factory.hpp:77] Creating layer L3_b6_cbr1_scale
I0817 16:27:31.518750 17344 net.cpp:150] Setting up L3_b6_cbr1_scale
I0817 16:27:31.518764 17344 net.cpp:157] Top shape: 125 64 8 8 (512000)
I0817 16:27:31.518769 17344 net.cpp:165] Memory required for data: 1370625500
I0817 16:27:31.518777 17344 layer_factory.hpp:77] Creating layer L3_b6_cbr1_relu
I0817 16:27:31.518788 17344 net.cpp:100] Creating Layer L3_b6_cbr1_relu
I0817 16:27:31.518795 17344 net.cpp:434] L3_b6_cbr1_relu <- L3_b6_cbr1_bn_top
I0817 16:27:31.518807 17344 net.cpp:395] L3_b6_cbr1_relu -> L3_b6_cbr1_bn_top (in-place)
I0817 16:27:31.518818 17344 net.cpp:150] Setting up L3_b6_cbr1_relu
I0817 16:27:31.518826 17344 net.cpp:157] Top shape: 125 64 8 8 (512000)
I0817 16:27:31.518831 17344 net.cpp:165] Memory required for data: 1372673500
I0817 16:27:31.518834 17344 layer_factory.hpp:77] Creating layer L3_b6_cbr2_conv
I0817 16:27:31.518848 17344 net.cpp:100] Creating Layer L3_b6_cbr2_conv
I0817 16:27:31.518856 17344 net.cpp:434] L3_b6_cbr2_conv <- L3_b6_cbr1_bn_top
I0817 16:27:31.518864 17344 net.cpp:408] L3_b6_cbr2_conv -> L3_b6_cbr2_conv_top
I0817 16:27:31.519882 17344 net.cpp:150] Setting up L3_b6_cbr2_conv
I0817 16:27:31.519897 17344 net.cpp:157] Top shape: 125 64 8 8 (512000)
I0817 16:27:31.519902 17344 net.cpp:165] Memory required for data: 1374721500
I0817 16:27:31.519912 17344 layer_factory.hpp:77] Creating layer L3_b6_cbr2_bn
I0817 16:27:31.519925 17344 net.cpp:100] Creating Layer L3_b6_cbr2_bn
I0817 16:27:31.519932 17344 net.cpp:434] L3_b6_cbr2_bn <- L3_b6_cbr2_conv_top
I0817 16:27:31.519943 17344 net.cpp:408] L3_b6_cbr2_bn -> L3_b6_cbr2_bn_top
I0817 16:27:31.520205 17344 net.cpp:150] Setting up L3_b6_cbr2_bn
I0817 16:27:31.520218 17344 net.cpp:157] Top shape: 125 64 8 8 (512000)
I0817 16:27:31.520223 17344 net.cpp:165] Memory required for data: 1376769500
I0817 16:27:31.520234 17344 layer_factory.hpp:77] Creating layer L3_b6_cbr2_scale
I0817 16:27:31.520242 17344 net.cpp:100] Creating Layer L3_b6_cbr2_scale
I0817 16:27:31.520248 17344 net.cpp:434] L3_b6_cbr2_scale <- L3_b6_cbr2_bn_top
I0817 16:27:31.520259 17344 net.cpp:395] L3_b6_cbr2_scale -> L3_b6_cbr2_bn_top (in-place)
I0817 16:27:31.520316 17344 layer_factory.hpp:77] Creating layer L3_b6_cbr2_scale
I0817 16:27:31.520470 17344 net.cpp:150] Setting up L3_b6_cbr2_scale
I0817 16:27:31.520483 17344 net.cpp:157] Top shape: 125 64 8 8 (512000)
I0817 16:27:31.520488 17344 net.cpp:165] Memory required for data: 1378817500
I0817 16:27:31.520498 17344 layer_factory.hpp:77] Creating layer L3_b6_sum_eltwise
I0817 16:27:31.520506 17344 net.cpp:100] Creating Layer L3_b6_sum_eltwise
I0817 16:27:31.520512 17344 net.cpp:434] L3_b6_sum_eltwise <- L3_b6_cbr2_bn_top
I0817 16:27:31.520519 17344 net.cpp:434] L3_b6_sum_eltwise <- L3_b5_sum_eltwise_top_L3_b5_relu_0_split_1
I0817 16:27:31.520530 17344 net.cpp:408] L3_b6_sum_eltwise -> L3_b6_sum_eltwise_top
I0817 16:27:31.520566 17344 net.cpp:150] Setting up L3_b6_sum_eltwise
I0817 16:27:31.520577 17344 net.cpp:157] Top shape: 125 64 8 8 (512000)
I0817 16:27:31.520582 17344 net.cpp:165] Memory required for data: 1380865500
I0817 16:27:31.520587 17344 layer_factory.hpp:77] Creating layer L3_b6_relu
I0817 16:27:31.520596 17344 net.cpp:100] Creating Layer L3_b6_relu
I0817 16:27:31.520601 17344 net.cpp:434] L3_b6_relu <- L3_b6_sum_eltwise_top
I0817 16:27:31.520617 17344 net.cpp:395] L3_b6_relu -> L3_b6_sum_eltwise_top (in-place)
I0817 16:27:31.520628 17344 net.cpp:150] Setting up L3_b6_relu
I0817 16:27:31.520635 17344 net.cpp:157] Top shape: 125 64 8 8 (512000)
I0817 16:27:31.520640 17344 net.cpp:165] Memory required for data: 1382913500
I0817 16:27:31.520645 17344 layer_factory.hpp:77] Creating layer L3_b6_sum_eltwise_top_L3_b6_relu_0_split
I0817 16:27:31.520653 17344 net.cpp:100] Creating Layer L3_b6_sum_eltwise_top_L3_b6_relu_0_split
I0817 16:27:31.520658 17344 net.cpp:434] L3_b6_sum_eltwise_top_L3_b6_relu_0_split <- L3_b6_sum_eltwise_top
I0817 16:27:31.520665 17344 net.cpp:408] L3_b6_sum_eltwise_top_L3_b6_relu_0_split -> L3_b6_sum_eltwise_top_L3_b6_relu_0_split_0
I0817 16:27:31.520675 17344 net.cpp:408] L3_b6_sum_eltwise_top_L3_b6_relu_0_split -> L3_b6_sum_eltwise_top_L3_b6_relu_0_split_1
I0817 16:27:31.520725 17344 net.cpp:150] Setting up L3_b6_sum_eltwise_top_L3_b6_relu_0_split
I0817 16:27:31.520735 17344 net.cpp:157] Top shape: 125 64 8 8 (512000)
I0817 16:27:31.520742 17344 net.cpp:157] Top shape: 125 64 8 8 (512000)
I0817 16:27:31.520746 17344 net.cpp:165] Memory required for data: 1387009500
I0817 16:27:31.520751 17344 layer_factory.hpp:77] Creating layer L3_b7_cbr1_conv
I0817 16:27:31.520762 17344 net.cpp:100] Creating Layer L3_b7_cbr1_conv
I0817 16:27:31.520769 17344 net.cpp:434] L3_b7_cbr1_conv <- L3_b6_sum_eltwise_top_L3_b6_relu_0_split_0
I0817 16:27:31.520781 17344 net.cpp:408] L3_b7_cbr1_conv -> L3_b7_cbr1_conv_top
I0817 16:27:31.521809 17344 net.cpp:150] Setting up L3_b7_cbr1_conv
I0817 16:27:31.521824 17344 net.cpp:157] Top shape: 125 64 8 8 (512000)
I0817 16:27:31.521829 17344 net.cpp:165] Memory required for data: 1389057500
I0817 16:27:31.521838 17344 layer_factory.hpp:77] Creating layer L3_b7_cbr1_bn
I0817 16:27:31.521847 17344 net.cpp:100] Creating Layer L3_b7_cbr1_bn
I0817 16:27:31.521853 17344 net.cpp:434] L3_b7_cbr1_bn <- L3_b7_cbr1_conv_top
I0817 16:27:31.521865 17344 net.cpp:408] L3_b7_cbr1_bn -> L3_b7_cbr1_bn_top
I0817 16:27:31.522130 17344 net.cpp:150] Setting up L3_b7_cbr1_bn
I0817 16:27:31.522142 17344 net.cpp:157] Top shape: 125 64 8 8 (512000)
I0817 16:27:31.522147 17344 net.cpp:165] Memory required for data: 1391105500
I0817 16:27:31.522157 17344 layer_factory.hpp:77] Creating layer L3_b7_cbr1_scale
I0817 16:27:31.522166 17344 net.cpp:100] Creating Layer L3_b7_cbr1_scale
I0817 16:27:31.522172 17344 net.cpp:434] L3_b7_cbr1_scale <- L3_b7_cbr1_bn_top
I0817 16:27:31.522179 17344 net.cpp:395] L3_b7_cbr1_scale -> L3_b7_cbr1_bn_top (in-place)
I0817 16:27:31.522238 17344 layer_factory.hpp:77] Creating layer L3_b7_cbr1_scale
I0817 16:27:31.522392 17344 net.cpp:150] Setting up L3_b7_cbr1_scale
I0817 16:27:31.522405 17344 net.cpp:157] Top shape: 125 64 8 8 (512000)
I0817 16:27:31.522410 17344 net.cpp:165] Memory required for data: 1393153500
I0817 16:27:31.522419 17344 layer_factory.hpp:77] Creating layer L3_b7_cbr1_relu
I0817 16:27:31.522454 17344 net.cpp:100] Creating Layer L3_b7_cbr1_relu
I0817 16:27:31.522462 17344 net.cpp:434] L3_b7_cbr1_relu <- L3_b7_cbr1_bn_top
I0817 16:27:31.522471 17344 net.cpp:395] L3_b7_cbr1_relu -> L3_b7_cbr1_bn_top (in-place)
I0817 16:27:31.522481 17344 net.cpp:150] Setting up L3_b7_cbr1_relu
I0817 16:27:31.522488 17344 net.cpp:157] Top shape: 125 64 8 8 (512000)
I0817 16:27:31.522493 17344 net.cpp:165] Memory required for data: 1395201500
I0817 16:27:31.522498 17344 layer_factory.hpp:77] Creating layer L3_b7_cbr2_conv
I0817 16:27:31.522511 17344 net.cpp:100] Creating Layer L3_b7_cbr2_conv
I0817 16:27:31.522516 17344 net.cpp:434] L3_b7_cbr2_conv <- L3_b7_cbr1_bn_top
I0817 16:27:31.522528 17344 net.cpp:408] L3_b7_cbr2_conv -> L3_b7_cbr2_conv_top
I0817 16:27:31.523556 17344 net.cpp:150] Setting up L3_b7_cbr2_conv
I0817 16:27:31.523571 17344 net.cpp:157] Top shape: 125 64 8 8 (512000)
I0817 16:27:31.523576 17344 net.cpp:165] Memory required for data: 1397249500
I0817 16:27:31.523586 17344 layer_factory.hpp:77] Creating layer L3_b7_cbr2_bn
I0817 16:27:31.523594 17344 net.cpp:100] Creating Layer L3_b7_cbr2_bn
I0817 16:27:31.523607 17344 net.cpp:434] L3_b7_cbr2_bn <- L3_b7_cbr2_conv_top
I0817 16:27:31.523619 17344 net.cpp:408] L3_b7_cbr2_bn -> L3_b7_cbr2_bn_top
I0817 16:27:31.523895 17344 net.cpp:150] Setting up L3_b7_cbr2_bn
I0817 16:27:31.523912 17344 net.cpp:157] Top shape: 125 64 8 8 (512000)
I0817 16:27:31.523917 17344 net.cpp:165] Memory required for data: 1399297500
I0817 16:27:31.523927 17344 layer_factory.hpp:77] Creating layer L3_b7_cbr2_scale
I0817 16:27:31.523936 17344 net.cpp:100] Creating Layer L3_b7_cbr2_scale
I0817 16:27:31.523942 17344 net.cpp:434] L3_b7_cbr2_scale <- L3_b7_cbr2_bn_top
I0817 16:27:31.523950 17344 net.cpp:395] L3_b7_cbr2_scale -> L3_b7_cbr2_bn_top (in-place)
I0817 16:27:31.524008 17344 layer_factory.hpp:77] Creating layer L3_b7_cbr2_scale
I0817 16:27:31.524161 17344 net.cpp:150] Setting up L3_b7_cbr2_scale
I0817 16:27:31.524174 17344 net.cpp:157] Top shape: 125 64 8 8 (512000)
I0817 16:27:31.524179 17344 net.cpp:165] Memory required for data: 1401345500
I0817 16:27:31.524188 17344 layer_factory.hpp:77] Creating layer L3_b7_sum_eltwise
I0817 16:27:31.524199 17344 net.cpp:100] Creating Layer L3_b7_sum_eltwise
I0817 16:27:31.524206 17344 net.cpp:434] L3_b7_sum_eltwise <- L3_b7_cbr2_bn_top
I0817 16:27:31.524214 17344 net.cpp:434] L3_b7_sum_eltwise <- L3_b6_sum_eltwise_top_L3_b6_relu_0_split_1
I0817 16:27:31.524221 17344 net.cpp:408] L3_b7_sum_eltwise -> L3_b7_sum_eltwise_top
I0817 16:27:31.524257 17344 net.cpp:150] Setting up L3_b7_sum_eltwise
I0817 16:27:31.524269 17344 net.cpp:157] Top shape: 125 64 8 8 (512000)
I0817 16:27:31.524274 17344 net.cpp:165] Memory required for data: 1403393500
I0817 16:27:31.524279 17344 layer_factory.hpp:77] Creating layer L3_b7_relu
I0817 16:27:31.524286 17344 net.cpp:100] Creating Layer L3_b7_relu
I0817 16:27:31.524292 17344 net.cpp:434] L3_b7_relu <- L3_b7_sum_eltwise_top
I0817 16:27:31.524299 17344 net.cpp:395] L3_b7_relu -> L3_b7_sum_eltwise_top (in-place)
I0817 16:27:31.524308 17344 net.cpp:150] Setting up L3_b7_relu
I0817 16:27:31.524315 17344 net.cpp:157] Top shape: 125 64 8 8 (512000)
I0817 16:27:31.524320 17344 net.cpp:165] Memory required for data: 1405441500
I0817 16:27:31.524324 17344 layer_factory.hpp:77] Creating layer L3_b7_sum_eltwise_top_L3_b7_relu_0_split
I0817 16:27:31.524332 17344 net.cpp:100] Creating Layer L3_b7_sum_eltwise_top_L3_b7_relu_0_split
I0817 16:27:31.524336 17344 net.cpp:434] L3_b7_sum_eltwise_top_L3_b7_relu_0_split <- L3_b7_sum_eltwise_top
I0817 16:27:31.524346 17344 net.cpp:408] L3_b7_sum_eltwise_top_L3_b7_relu_0_split -> L3_b7_sum_eltwise_top_L3_b7_relu_0_split_0
I0817 16:27:31.524356 17344 net.cpp:408] L3_b7_sum_eltwise_top_L3_b7_relu_0_split -> L3_b7_sum_eltwise_top_L3_b7_relu_0_split_1
I0817 16:27:31.524401 17344 net.cpp:150] Setting up L3_b7_sum_eltwise_top_L3_b7_relu_0_split
I0817 16:27:31.524412 17344 net.cpp:157] Top shape: 125 64 8 8 (512000)
I0817 16:27:31.524418 17344 net.cpp:157] Top shape: 125 64 8 8 (512000)
I0817 16:27:31.524423 17344 net.cpp:165] Memory required for data: 1409537500
I0817 16:27:31.524428 17344 layer_factory.hpp:77] Creating layer L3_b8_cbr1_conv
I0817 16:27:31.524442 17344 net.cpp:100] Creating Layer L3_b8_cbr1_conv
I0817 16:27:31.524449 17344 net.cpp:434] L3_b8_cbr1_conv <- L3_b7_sum_eltwise_top_L3_b7_relu_0_split_0
I0817 16:27:31.524458 17344 net.cpp:408] L3_b8_cbr1_conv -> L3_b8_cbr1_conv_top
I0817 16:27:31.525481 17344 net.cpp:150] Setting up L3_b8_cbr1_conv
I0817 16:27:31.525496 17344 net.cpp:157] Top shape: 125 64 8 8 (512000)
I0817 16:27:31.525501 17344 net.cpp:165] Memory required for data: 1411585500
I0817 16:27:31.525511 17344 layer_factory.hpp:77] Creating layer L3_b8_cbr1_bn
I0817 16:27:31.525522 17344 net.cpp:100] Creating Layer L3_b8_cbr1_bn
I0817 16:27:31.525528 17344 net.cpp:434] L3_b8_cbr1_bn <- L3_b8_cbr1_conv_top
I0817 16:27:31.525537 17344 net.cpp:408] L3_b8_cbr1_bn -> L3_b8_cbr1_bn_top
I0817 16:27:31.525799 17344 net.cpp:150] Setting up L3_b8_cbr1_bn
I0817 16:27:31.525817 17344 net.cpp:157] Top shape: 125 64 8 8 (512000)
I0817 16:27:31.525822 17344 net.cpp:165] Memory required for data: 1413633500
I0817 16:27:31.525840 17344 layer_factory.hpp:77] Creating layer L3_b8_cbr1_scale
I0817 16:27:31.525852 17344 net.cpp:100] Creating Layer L3_b8_cbr1_scale
I0817 16:27:31.525859 17344 net.cpp:434] L3_b8_cbr1_scale <- L3_b8_cbr1_bn_top
I0817 16:27:31.525867 17344 net.cpp:395] L3_b8_cbr1_scale -> L3_b8_cbr1_bn_top (in-place)
I0817 16:27:31.525933 17344 layer_factory.hpp:77] Creating layer L3_b8_cbr1_scale
I0817 16:27:31.526090 17344 net.cpp:150] Setting up L3_b8_cbr1_scale
I0817 16:27:31.526103 17344 net.cpp:157] Top shape: 125 64 8 8 (512000)
I0817 16:27:31.526108 17344 net.cpp:165] Memory required for data: 1415681500
I0817 16:27:31.526116 17344 layer_factory.hpp:77] Creating layer L3_b8_cbr1_relu
I0817 16:27:31.526127 17344 net.cpp:100] Creating Layer L3_b8_cbr1_relu
I0817 16:27:31.526134 17344 net.cpp:434] L3_b8_cbr1_relu <- L3_b8_cbr1_bn_top
I0817 16:27:31.526141 17344 net.cpp:395] L3_b8_cbr1_relu -> L3_b8_cbr1_bn_top (in-place)
I0817 16:27:31.526150 17344 net.cpp:150] Setting up L3_b8_cbr1_relu
I0817 16:27:31.526157 17344 net.cpp:157] Top shape: 125 64 8 8 (512000)
I0817 16:27:31.526162 17344 net.cpp:165] Memory required for data: 1417729500
I0817 16:27:31.526167 17344 layer_factory.hpp:77] Creating layer L3_b8_cbr2_conv
I0817 16:27:31.526180 17344 net.cpp:100] Creating Layer L3_b8_cbr2_conv
I0817 16:27:31.526187 17344 net.cpp:434] L3_b8_cbr2_conv <- L3_b8_cbr1_bn_top
I0817 16:27:31.526197 17344 net.cpp:408] L3_b8_cbr2_conv -> L3_b8_cbr2_conv_top
I0817 16:27:31.527221 17344 net.cpp:150] Setting up L3_b8_cbr2_conv
I0817 16:27:31.527235 17344 net.cpp:157] Top shape: 125 64 8 8 (512000)
I0817 16:27:31.527240 17344 net.cpp:165] Memory required for data: 1419777500
I0817 16:27:31.527249 17344 layer_factory.hpp:77] Creating layer L3_b8_cbr2_bn
I0817 16:27:31.527258 17344 net.cpp:100] Creating Layer L3_b8_cbr2_bn
I0817 16:27:31.527264 17344 net.cpp:434] L3_b8_cbr2_bn <- L3_b8_cbr2_conv_top
I0817 16:27:31.527276 17344 net.cpp:408] L3_b8_cbr2_bn -> L3_b8_cbr2_bn_top
I0817 16:27:31.527539 17344 net.cpp:150] Setting up L3_b8_cbr2_bn
I0817 16:27:31.527554 17344 net.cpp:157] Top shape: 125 64 8 8 (512000)
I0817 16:27:31.527559 17344 net.cpp:165] Memory required for data: 1421825500
I0817 16:27:31.527570 17344 layer_factory.hpp:77] Creating layer L3_b8_cbr2_scale
I0817 16:27:31.527577 17344 net.cpp:100] Creating Layer L3_b8_cbr2_scale
I0817 16:27:31.527583 17344 net.cpp:434] L3_b8_cbr2_scale <- L3_b8_cbr2_bn_top
I0817 16:27:31.527591 17344 net.cpp:395] L3_b8_cbr2_scale -> L3_b8_cbr2_bn_top (in-place)
I0817 16:27:31.527648 17344 layer_factory.hpp:77] Creating layer L3_b8_cbr2_scale
I0817 16:27:31.527813 17344 net.cpp:150] Setting up L3_b8_cbr2_scale
I0817 16:27:31.527827 17344 net.cpp:157] Top shape: 125 64 8 8 (512000)
I0817 16:27:31.527832 17344 net.cpp:165] Memory required for data: 1423873500
I0817 16:27:31.527842 17344 layer_factory.hpp:77] Creating layer L3_b8_sum_eltwise
I0817 16:27:31.527853 17344 net.cpp:100] Creating Layer L3_b8_sum_eltwise
I0817 16:27:31.527859 17344 net.cpp:434] L3_b8_sum_eltwise <- L3_b8_cbr2_bn_top
I0817 16:27:31.527868 17344 net.cpp:434] L3_b8_sum_eltwise <- L3_b7_sum_eltwise_top_L3_b7_relu_0_split_1
I0817 16:27:31.527874 17344 net.cpp:408] L3_b8_sum_eltwise -> L3_b8_sum_eltwise_top
I0817 16:27:31.527910 17344 net.cpp:150] Setting up L3_b8_sum_eltwise
I0817 16:27:31.527920 17344 net.cpp:157] Top shape: 125 64 8 8 (512000)
I0817 16:27:31.527925 17344 net.cpp:165] Memory required for data: 1425921500
I0817 16:27:31.527930 17344 layer_factory.hpp:77] Creating layer L3_b8_relu
I0817 16:27:31.527938 17344 net.cpp:100] Creating Layer L3_b8_relu
I0817 16:27:31.527943 17344 net.cpp:434] L3_b8_relu <- L3_b8_sum_eltwise_top
I0817 16:27:31.527951 17344 net.cpp:395] L3_b8_relu -> L3_b8_sum_eltwise_top (in-place)
I0817 16:27:31.527959 17344 net.cpp:150] Setting up L3_b8_relu
I0817 16:27:31.527966 17344 net.cpp:157] Top shape: 125 64 8 8 (512000)
I0817 16:27:31.527971 17344 net.cpp:165] Memory required for data: 1427969500
I0817 16:27:31.527976 17344 layer_factory.hpp:77] Creating layer L3_b8_sum_eltwise_top_L3_b8_relu_0_split
I0817 16:27:31.527992 17344 net.cpp:100] Creating Layer L3_b8_sum_eltwise_top_L3_b8_relu_0_split
I0817 16:27:31.527998 17344 net.cpp:434] L3_b8_sum_eltwise_top_L3_b8_relu_0_split <- L3_b8_sum_eltwise_top
I0817 16:27:31.528008 17344 net.cpp:408] L3_b8_sum_eltwise_top_L3_b8_relu_0_split -> L3_b8_sum_eltwise_top_L3_b8_relu_0_split_0
I0817 16:27:31.528018 17344 net.cpp:408] L3_b8_sum_eltwise_top_L3_b8_relu_0_split -> L3_b8_sum_eltwise_top_L3_b8_relu_0_split_1
I0817 16:27:31.528064 17344 net.cpp:150] Setting up L3_b8_sum_eltwise_top_L3_b8_relu_0_split
I0817 16:27:31.528076 17344 net.cpp:157] Top shape: 125 64 8 8 (512000)
I0817 16:27:31.528082 17344 net.cpp:157] Top shape: 125 64 8 8 (512000)
I0817 16:27:31.528087 17344 net.cpp:165] Memory required for data: 1432065500
I0817 16:27:31.528092 17344 layer_factory.hpp:77] Creating layer L3_b9_cbr1_conv
I0817 16:27:31.528108 17344 net.cpp:100] Creating Layer L3_b9_cbr1_conv
I0817 16:27:31.528115 17344 net.cpp:434] L3_b9_cbr1_conv <- L3_b8_sum_eltwise_top_L3_b8_relu_0_split_0
I0817 16:27:31.528125 17344 net.cpp:408] L3_b9_cbr1_conv -> L3_b9_cbr1_conv_top
I0817 16:27:31.530122 17344 net.cpp:150] Setting up L3_b9_cbr1_conv
I0817 16:27:31.530139 17344 net.cpp:157] Top shape: 125 64 8 8 (512000)
I0817 16:27:31.530144 17344 net.cpp:165] Memory required for data: 1434113500
I0817 16:27:31.530153 17344 layer_factory.hpp:77] Creating layer L3_b9_cbr1_bn
I0817 16:27:31.530166 17344 net.cpp:100] Creating Layer L3_b9_cbr1_bn
I0817 16:27:31.530174 17344 net.cpp:434] L3_b9_cbr1_bn <- L3_b9_cbr1_conv_top
I0817 16:27:31.530182 17344 net.cpp:408] L3_b9_cbr1_bn -> L3_b9_cbr1_bn_top
I0817 16:27:31.530448 17344 net.cpp:150] Setting up L3_b9_cbr1_bn
I0817 16:27:31.530462 17344 net.cpp:157] Top shape: 125 64 8 8 (512000)
I0817 16:27:31.530467 17344 net.cpp:165] Memory required for data: 1436161500
I0817 16:27:31.530477 17344 layer_factory.hpp:77] Creating layer L3_b9_cbr1_scale
I0817 16:27:31.530485 17344 net.cpp:100] Creating Layer L3_b9_cbr1_scale
I0817 16:27:31.530493 17344 net.cpp:434] L3_b9_cbr1_scale <- L3_b9_cbr1_bn_top
I0817 16:27:31.530499 17344 net.cpp:395] L3_b9_cbr1_scale -> L3_b9_cbr1_bn_top (in-place)
I0817 16:27:31.530560 17344 layer_factory.hpp:77] Creating layer L3_b9_cbr1_scale
I0817 16:27:31.530716 17344 net.cpp:150] Setting up L3_b9_cbr1_scale
I0817 16:27:31.530730 17344 net.cpp:157] Top shape: 125 64 8 8 (512000)
I0817 16:27:31.530735 17344 net.cpp:165] Memory required for data: 1438209500
I0817 16:27:31.530743 17344 layer_factory.hpp:77] Creating layer L3_b9_cbr1_relu
I0817 16:27:31.530752 17344 net.cpp:100] Creating Layer L3_b9_cbr1_relu
I0817 16:27:31.530758 17344 net.cpp:434] L3_b9_cbr1_relu <- L3_b9_cbr1_bn_top
I0817 16:27:31.530766 17344 net.cpp:395] L3_b9_cbr1_relu -> L3_b9_cbr1_bn_top (in-place)
I0817 16:27:31.530776 17344 net.cpp:150] Setting up L3_b9_cbr1_relu
I0817 16:27:31.530782 17344 net.cpp:157] Top shape: 125 64 8 8 (512000)
I0817 16:27:31.530786 17344 net.cpp:165] Memory required for data: 1440257500
I0817 16:27:31.530791 17344 layer_factory.hpp:77] Creating layer L3_b9_cbr2_conv
I0817 16:27:31.530812 17344 net.cpp:100] Creating Layer L3_b9_cbr2_conv
I0817 16:27:31.530818 17344 net.cpp:434] L3_b9_cbr2_conv <- L3_b9_cbr1_bn_top
I0817 16:27:31.530830 17344 net.cpp:408] L3_b9_cbr2_conv -> L3_b9_cbr2_conv_top
I0817 16:27:31.531867 17344 net.cpp:150] Setting up L3_b9_cbr2_conv
I0817 16:27:31.531882 17344 net.cpp:157] Top shape: 125 64 8 8 (512000)
I0817 16:27:31.531886 17344 net.cpp:165] Memory required for data: 1442305500
I0817 16:27:31.531895 17344 layer_factory.hpp:77] Creating layer L3_b9_cbr2_bn
I0817 16:27:31.531908 17344 net.cpp:100] Creating Layer L3_b9_cbr2_bn
I0817 16:27:31.531913 17344 net.cpp:434] L3_b9_cbr2_bn <- L3_b9_cbr2_conv_top
I0817 16:27:31.531922 17344 net.cpp:408] L3_b9_cbr2_bn -> L3_b9_cbr2_bn_top
I0817 16:27:31.532184 17344 net.cpp:150] Setting up L3_b9_cbr2_bn
I0817 16:27:31.532197 17344 net.cpp:157] Top shape: 125 64 8 8 (512000)
I0817 16:27:31.532202 17344 net.cpp:165] Memory required for data: 1444353500
I0817 16:27:31.532222 17344 layer_factory.hpp:77] Creating layer L3_b9_cbr2_scale
I0817 16:27:31.532233 17344 net.cpp:100] Creating Layer L3_b9_cbr2_scale
I0817 16:27:31.532239 17344 net.cpp:434] L3_b9_cbr2_scale <- L3_b9_cbr2_bn_top
I0817 16:27:31.532248 17344 net.cpp:395] L3_b9_cbr2_scale -> L3_b9_cbr2_bn_top (in-place)
I0817 16:27:31.532307 17344 layer_factory.hpp:77] Creating layer L3_b9_cbr2_scale
I0817 16:27:31.532461 17344 net.cpp:150] Setting up L3_b9_cbr2_scale
I0817 16:27:31.532474 17344 net.cpp:157] Top shape: 125 64 8 8 (512000)
I0817 16:27:31.532479 17344 net.cpp:165] Memory required for data: 1446401500
I0817 16:27:31.532488 17344 layer_factory.hpp:77] Creating layer L3_b9_sum_eltwise
I0817 16:27:31.532500 17344 net.cpp:100] Creating Layer L3_b9_sum_eltwise
I0817 16:27:31.532507 17344 net.cpp:434] L3_b9_sum_eltwise <- L3_b9_cbr2_bn_top
I0817 16:27:31.532515 17344 net.cpp:434] L3_b9_sum_eltwise <- L3_b8_sum_eltwise_top_L3_b8_relu_0_split_1
I0817 16:27:31.532524 17344 net.cpp:408] L3_b9_sum_eltwise -> L3_b9_sum_eltwise_top
I0817 16:27:31.532557 17344 net.cpp:150] Setting up L3_b9_sum_eltwise
I0817 16:27:31.532568 17344 net.cpp:157] Top shape: 125 64 8 8 (512000)
I0817 16:27:31.532573 17344 net.cpp:165] Memory required for data: 1448449500
I0817 16:27:31.532578 17344 layer_factory.hpp:77] Creating layer L3_b9_relu
I0817 16:27:31.532591 17344 net.cpp:100] Creating Layer L3_b9_relu
I0817 16:27:31.532598 17344 net.cpp:434] L3_b9_relu <- L3_b9_sum_eltwise_top
I0817 16:27:31.532604 17344 net.cpp:395] L3_b9_relu -> L3_b9_sum_eltwise_top (in-place)
I0817 16:27:31.532613 17344 net.cpp:150] Setting up L3_b9_relu
I0817 16:27:31.532620 17344 net.cpp:157] Top shape: 125 64 8 8 (512000)
I0817 16:27:31.532625 17344 net.cpp:165] Memory required for data: 1450497500
I0817 16:27:31.532630 17344 layer_factory.hpp:77] Creating layer post_pool
I0817 16:27:31.532639 17344 net.cpp:100] Creating Layer post_pool
I0817 16:27:31.532644 17344 net.cpp:434] post_pool <- L3_b9_sum_eltwise_top
I0817 16:27:31.532651 17344 net.cpp:408] post_pool -> post_pool
I0817 16:27:31.532685 17344 net.cpp:150] Setting up post_pool
I0817 16:27:31.532698 17344 net.cpp:157] Top shape: 125 64 1 1 (8000)
I0817 16:27:31.532703 17344 net.cpp:165] Memory required for data: 1450529500
I0817 16:27:31.532708 17344 layer_factory.hpp:77] Creating layer post_FC
I0817 16:27:31.532793 17344 net.cpp:100] Creating Layer post_FC
I0817 16:27:31.532812 17344 net.cpp:434] post_FC <- post_pool
I0817 16:27:31.532822 17344 net.cpp:408] post_FC -> post_FC_top
I0817 16:27:31.533062 17344 net.cpp:150] Setting up post_FC
I0817 16:27:31.533077 17344 net.cpp:157] Top shape: 125 10 (1250)
I0817 16:27:31.533083 17344 net.cpp:165] Memory required for data: 1450534500
I0817 16:27:31.533092 17344 layer_factory.hpp:77] Creating layer post_FC_top_post_FC_0_split
I0817 16:27:31.533102 17344 net.cpp:100] Creating Layer post_FC_top_post_FC_0_split
I0817 16:27:31.533107 17344 net.cpp:434] post_FC_top_post_FC_0_split <- post_FC_top
I0817 16:27:31.533115 17344 net.cpp:408] post_FC_top_post_FC_0_split -> post_FC_top_post_FC_0_split_0
I0817 16:27:31.533128 17344 net.cpp:408] post_FC_top_post_FC_0_split -> post_FC_top_post_FC_0_split_1
I0817 16:27:31.533175 17344 net.cpp:150] Setting up post_FC_top_post_FC_0_split
I0817 16:27:31.533186 17344 net.cpp:157] Top shape: 125 10 (1250)
I0817 16:27:31.533193 17344 net.cpp:157] Top shape: 125 10 (1250)
I0817 16:27:31.533197 17344 net.cpp:165] Memory required for data: 1450544500
I0817 16:27:31.533203 17344 layer_factory.hpp:77] Creating layer accuracy
I0817 16:27:31.533249 17344 net.cpp:100] Creating Layer accuracy
I0817 16:27:31.533262 17344 net.cpp:434] accuracy <- post_FC_top_post_FC_0_split_0
I0817 16:27:31.533269 17344 net.cpp:434] accuracy <- label_dataLayer_1_split_0
I0817 16:27:31.533277 17344 net.cpp:408] accuracy -> accuracy
…
