…
I0821 08:59:08.658195 32502 net.cpp:322] The NetState phase (0) differed from the phase (1) specified by a rule in layer L3_b18_cbr2_bn
I0821 08:59:08.661522 32502 net.cpp:58] Initializing net from parameters: 
name: "Cifar-Resnet"
state {
  phase: TRAIN
  level: 0
  stage: ""
}
layer {
  name: "dataLayer"
  type: "Data"
  top: "data_top"
  top: "label"
  include {
    phase: TRAIN
  }
  transform_param {
    mirror: true
    crop_size: 32
    mean_file: "examples/cifar10/mean.binaryproto"
  }
  data_param {
    source: "examples/cifar10/cifar10_train_lmdb"
    batch_size: 100
    backend: LMDB
  }
  image_data_param {
    shuffle: true
  }
}
layer {
  name: "pre_conv"
  type: "Convolution"
  bottom: "data_top"
  top: "pre_conv_top"
  param {
    lr_mult: 1
    decay_mult: 1
  }
  param {
    lr_mult: 2
    decay_mult: 0
  }
  convolution_param {
    num_output: 16
    pad: 1
    kernel_size: 3
    stride: 1
    weight_filler {
      type: "msra"
    }
    bias_filler {
      type: "constant"
    }
  }
}
layer {
  name: "pre_bn"
  type: "BatchNorm"
  bottom: "pre_conv_top"
  top: "pre_bn_top"
  include {
    phase: TRAIN
  }
  batch_norm_param {
    use_global_stats: false
    moving_average_fraction: 0.999
  }
}
layer {
  name: "pre_scale"
  type: "Scale"
  bottom: "pre_bn_top"
  top: "pre_bn_top"
  scale_param {
    bias_term: true
  }
}
layer {
  name: "pre_relu"
  type: "ReLU"
  bottom: "pre_bn_top"
  top: "pre_bn_top"
}
layer {
  name: "L1_b1_cbr1_conv"
  type: "Convolution"
  bottom: "pre_bn_top"
  top: "L1_b1_cbr1_conv_top"
  param {
    lr_mult: 1
    decay_mult: 1
  }
  param {
    lr_mult: 2
    decay_mult: 0
  }
  convolution_param {
    num_output: 16
    pad: 1
    kernel_size: 3
    stride: 1
    weight_filler {
      type: "msra"
    }
    bias_filler {
      type: "constant"
    }
  }
}
layer {
  name: "L1_b1_cbr1_bn"
  type: "BatchNorm"
  bottom: "L1_b1_cbr1_conv_top"
  top: "L1_b1_cbr1_bn_top"
  include {
    phase: TRAIN
  }
  batch_norm_param {
    use_global_stats: false
    moving_average_fraction: 0.999
  }
}
layer {
  name: "L1_b1_cbr1_scale"
  type: "Scale"
  bottom: "L1_b1_cbr1_bn_top"
  top: "L1_b1_cbr1_bn_top"
  scale_param {
    bias_term: true
  }
}
layer {
  name: "L1_b1_cbr1_relu"
  type: "ReLU"
  bottom: "L1_b1_cbr1_bn_top"
  top: "L1_b1_cbr1_bn_top"
}
layer {
  name: "L1_b1_cbr2_conv"
  type: "Convolution"
  bottom: "L1_b1_cbr1_bn_top"
  top: "L1_b1_cbr2_conv_top"
  param {
    lr_mult: 1
    decay_mult: 1
  }
  param {
    lr_mult: 2
    decay_mult: 0
  }
  convolution_param {
    num_output: 16
    pad: 1
    kernel_size: 3
    stride: 1
    weight_filler {
      type: "msra"
    }
    bias_filler {
      type: "constant"
    }
  }
}
layer {
  name: "L1_b1_cbr2_bn"
  type: "BatchNorm"
  bottom: "L1_b1_cbr2_conv_top"
  top: "L1_b1_cbr2_bn_top"
  include {
    phase: TRAIN
  }
  batch_norm_param {
    use_global_stats: false
    moving_average_fraction: 0.999
  }
}
layer {
  name: "L1_b1_cbr2_scale"
  type: "Scale"
  bottom: "L1_b1_cbr2_bn_top"
  top: "L1_b1_cbr2_bn_top"
  scale_param {
    bias_term: true
  }
}
layer {
  name: "L1_b1_sum_eltwise"
  type: "Eltwise"
  bottom: "L1_b1_cbr2_bn_top"
  bottom: "pre_bn_top"
  top: "L1_b1_sum_eltwise_top"
  eltwise_param {
    operation: SUM
  }
}
layer {
  name: "L1_b1_relu"
  type: "ReLU"
  bottom: "L1_b1_sum_eltwise_top"
  top: "L1_b1_sum_eltwise_top"
}
layer {
  name: "L1_b2_cbr1_conv"
  type: "Convolution"
  bottom: "L1_b1_sum_eltwise_top"
  top: "L1_b2_cbr1_conv_top"
  param {
    lr_mult: 1
    decay_mult: 1
  }
  param {
    lr_mult: 2
    decay_mult: 0
  }
  convolution_param {
    num_output: 16
    pad: 1
    kernel_size: 3
    stride: 1
    weight_filler {
      type: "msra"
    }
    bias_filler {
      type: "constant"
    }
  }
}
layer {
  name: "L1_b2_cbr1_bn"
  type: "BatchNorm"
  bottom: "L1_b2_cbr1_conv_top"
  top: "L1_b2_cbr1_bn_top"
  include {
    phase: TRAIN
  }
  batch_norm_param {
    use_global_stats: false
    moving_average_fraction: 0.999
  }
}
layer {
  name: "L1_b2_cbr1_scale"
  type: "Scale"
  bottom: "L1_b2_cbr1_bn_top"
  top: "L1_b2_cbr1_bn_top"
  scale_param {
    bias_term: true
  }
}
layer {
  name: "L1_b2_cbr1_relu"
  type: "ReLU"
  bottom: "L1_b2_cbr1_bn_top"
  top: "L1_b2_cbr1_bn_top"
}
layer {
  name: "L1_b2_cbr2_conv"
  type: "Convolution"
  bottom: "L1_b2_cbr1_bn_top"
  top: "L1_b2_cbr2_conv_top"
  param {
    lr_mult: 1
    decay_mult: 1
  }
  param {
    lr_mult: 2
    decay_mult: 0
  }
  convolution_param {
    num_output: 16
    pad: 1
    kernel_size: 3
    stride: 1
    weight_filler {
      type: "msra"
    }
    bias_filler {
      type: "constant"
    }
  }
}
layer {
  name: "L1_b2_cbr2_bn"
  type: "BatchNorm"
  bottom: "L1_b2_cbr2_conv_top"
  top: "L1_b2_cbr2_bn_top"
  include {
    phase: TRAIN
  }
  batch_norm_param {
    use_global_stats: false
    moving_average_fraction: 0.999
  }
}
layer {
  name: "L1_b2_cbr2_scale"
  type: "Scale"
  bottom: "L1_b2_cbr2_bn_top"
  top: "L1_b2_cbr2_bn_top"
  scale_param {
    bias_term: true
  }
}
layer {
  name: "L1_b2_sum_eltwise"
  type: "Eltwise"
  bottom: "L1_b2_cbr2_bn_top"
  bottom: "L1_b1_sum_eltwise_top"
  top: "L1_b2_sum_eltwise_top"
  eltwise_param {
    operation: SUM
  }
}
layer {
  name: "L1_b2_relu"
  type: "ReLU"
  bottom: "L1_b2_sum_eltwise_top"
  top: "L1_b2_sum_eltwise_top"
}
layer {
  name: "L1_b3_cbr1_conv"
  type: "Convolution"
  bottom: "L1_b2_sum_eltwise_top"
  top: "L1_b3_cbr1_conv_top"
  param {
    lr_mult: 1
    decay_mult: 1
  }
  param {
    lr_mult: 2
    decay_mult: 0
  }
  convolution_param {
    num_output: 16
    pad: 1
    kernel_size: 3
    stride: 1
    weight_filler {
      type: "msra"
    }
    bias_filler {
      type: "constant"
    }
  }
}
layer {
  name: "L1_b3_cbr1_bn"
  type: "BatchNorm"
  bottom: "L1_b3_cbr1_conv_top"
  top: "L1_b3_cbr1_bn_top"
  include {
    phase: TRAIN
  }
  batch_norm_param {
    use_global_stats: false
    moving_average_fraction: 0.999
  }
}
layer {
  name: "L1_b3_cbr1_scale"
  type: "Scale"
  bottom: "L1_b3_cbr1_bn_top"
  top: "L1_b3_cbr1_bn_top"
  scale_param {
    bias_term: true
  }
}
layer {
  name: "L1_b3_cbr1_relu"
  type: "ReLU"
  bottom: "L1_b3_cbr1_bn_top"
  top: "L1_b3_cbr1_bn_top"
}
layer {
  name: "L1_b3_cbr2_conv"
  type: "Convolution"
  bottom: "L1_b3_cbr1_bn_top"
  top: "L1_b3_cbr2_conv_top"
  param {
    lr_mult: 1
    decay_mult: 1
  }
  param {
    lr_mult: 2
    decay_mult: 0
  }
  convolution_param {
    num_output: 16
    pad: 1
    kernel_size: 3
    stride: 1
    weight_filler {
      type: "msra"
    }
    bias_filler {
      type: "constant"
    }
  }
}
layer {
  name: "L1_b3_cbr2_bn"
  type: "BatchNorm"
  bottom: "L1_b3_cbr2_conv_top"
  top: "L1_b3_cbr2_bn_top"
  include {
    phase: TRAIN
  }
  batch_norm_param {
    use_global_stats: false
    moving_average_fraction: 0.999
  }
}
layer {
  name: "L1_b3_cbr2_scale"
  type: "Scale"
  bottom: "L1_b3_cbr2_bn_top"
  top: "L1_b3_cbr2_bn_top"
  scale_param {
    bias_term: true
  }
}
layer {
  name: "L1_b3_sum_eltwise"
  type: "Eltwise"
  bottom: "L1_b3_cbr2_bn_top"
  bottom: "L1_b2_sum_eltwise_top"
  top: "L1_b3_sum_eltwise_top"
  eltwise_param {
    operation: SUM
  }
}
layer {
  name: "L1_b3_relu"
  type: "ReLU"
  bottom: "L1_b3_sum_eltwise_top"
  top: "L1_b3_sum_eltwise_top"
}
layer {
  name: "L1_b4_cbr1_conv"
  type: "Convolution"
  bottom: "L1_b3_sum_eltwise_top"
  top: "L1_b4_cbr1_conv_top"
  param {
    lr_mult: 1
    decay_mult: 1
  }
  param {
    lr_mult: 2
    decay_mult: 0
  }
  convolution_param {
    num_output: 16
    pad: 1
    kernel_size: 3
    stride: 1
    weight_filler {
      type: "msra"
    }
    bias_filler {
      type: "constant"
    }
  }
}
layer {
  name: "L1_b4_cbr1_bn"
  type: "BatchNorm"
  bottom: "L1_b4_cbr1_conv_top"
  top: "L1_b4_cbr1_bn_top"
  include {
    phase: TRAIN
  }
  batch_norm_param {
    use_global_stats: false
    moving_average_fraction: 0.999
  }
}
layer {
  name: "L1_b4_cbr1_scale"
  type: "Scale"
  bottom: "L1_b4_cbr1_bn_top"
  top: "L1_b4_cbr1_bn_top"
  scale_param {
    bias_term: true
  }
}
layer {
  name: "L1_b4_cbr1_relu"
  type: "ReLU"
  bottom: "L1_b4_cbr1_bn_top"
  top: "L1_b4_cbr1_bn_top"
}
layer {
  name: "L1_b4_cbr2_conv"
  type: "Convolution"
  bottom: "L1_b4_cbr1_bn_top"
  top: "L1_b4_cbr2_conv_top"
  param {
    lr_mult: 1
    decay_mult: 1
  }
  param {
    lr_mult: 2
    decay_mult: 0
  }
  convolution_param {
    num_output: 16
    pad: 1
    kernel_size: 3
    stride: 1
    weight_filler {
      type: "msra"
    }
    bias_filler {
      type: "constant"
    }
  }
}
layer {
  name: "L1_b4_cbr2_bn"
  type: "BatchNorm"
  bottom: "L1_b4_cbr2_conv_top"
  top: "L1_b4_cbr2_bn_top"
  include {
    phase: TRAIN
  }
  batch_norm_param {
    use_global_stats: false
    moving_average_fraction: 0.999
  }
}
layer {
  name: "L1_b4_cbr2_scale"
  type: "Scale"
  bottom: "L1_b4_cbr2_bn_top"
  top: "L1_b4_cbr2_bn_top"
  scale_param {
    bias_term: true
  }
}
layer {
  name: "L1_b4_sum_eltwise"
  type: "Eltwise"
  bottom: "L1_b4_cbr2_bn_top"
  bottom: "L1_b3_sum_eltwise_top"
  top: "L1_b4_sum_eltwise_top"
  eltwise_param {
    operation: SUM
  }
}
layer {
  name: "L1_b4_relu"
  type: "ReLU"
  bottom: "L1_b4_sum_eltwise_top"
  top: "L1_b4_sum_eltwise_top"
}
layer {
  name: "L1_b5_cbr1_conv"
  type: "Convolution"
  bottom: "L1_b4_sum_eltwise_top"
  top: "L1_b5_cbr1_conv_top"
  param {
    lr_mult: 1
    decay_mult: 1
  }
  param {
    lr_mult: 2
    decay_mult: 0
  }
  convolution_param {
    num_output: 16
    pad: 1
    kernel_size: 3
    stride: 1
    weight_filler {
      type: "msra"
    }
    bias_filler {
      type: "constant"
    }
  }
}
layer {
  name: "L1_b5_cbr1_bn"
  type: "BatchNorm"
  bottom: "L1_b5_cbr1_conv_top"
  top: "L1_b5_cbr1_bn_top"
  include {
    phase: TRAIN
  }
  batch_norm_param {
    use_global_stats: false
    moving_average_fraction: 0.999
  }
}
layer {
  name: "L1_b5_cbr1_scale"
  type: "Scale"
  bottom: "L1_b5_cbr1_bn_top"
  top: "L1_b5_cbr1_bn_top"
  scale_param {
    bias_term: true
  }
}
layer {
  name: "L1_b5_cbr1_relu"
  type: "ReLU"
  bottom: "L1_b5_cbr1_bn_top"
  top: "L1_b5_cbr1_bn_top"
}
layer {
  name: "L1_b5_cbr2_conv"
  type: "Convolution"
  bottom: "L1_b5_cbr1_bn_top"
  top: "L1_b5_cbr2_conv_top"
  param {
    lr_mult: 1
    decay_mult: 1
  }
  param {
    lr_mult: 2
    decay_mult: 0
  }
  convolution_param {
    num_output: 16
    pad: 1
    kernel_size: 3
    stride: 1
    weight_filler {
      type: "msra"
    }
    bias_filler {
      type: "constant"
    }
  }
}
layer {
  name: "L1_b5_cbr2_bn"
  type: "BatchNorm"
  bottom: "L1_b5_cbr2_conv_top"
  top: "L1_b5_cbr2_bn_top"
  include {
    phase: TRAIN
  }
  batch_norm_param {
    use_global_stats: false
    moving_average_fraction: 0.999
  }
}
layer {
  name: "L1_b5_cbr2_scale"
  type: "Scale"
  bottom: "L1_b5_cbr2_bn_top"
  top: "L1_b5_cbr2_bn_top"
  scale_param {
    bias_term: true
  }
}
layer {
  name: "L1_b5_sum_eltwise"
  type: "Eltwise"
  bottom: "L1_b5_cbr2_bn_top"
  bottom: "L1_b4_sum_eltwise_top"
  top: "L1_b5_sum_eltwise_top"
  eltwise_param {
    operation: SUM
  }
}
layer {
  name: "L1_b5_relu"
  type: "ReLU"
  bottom: "L1_b5_sum_eltwise_top"
  top: "L1_b5_sum_eltwise_top"
}
layer {
  name: "L1_b6_cbr1_conv"
  type: "Convolution"
  bottom: "L1_b5_sum_eltwise_top"
  top: "L1_b6_cbr1_conv_top"
  param {
    lr_mult: 1
    decay_mult: 1
  }
  param {
    lr_mult: 2
    decay_mult: 0
  }
  convolution_param {
    num_output: 16
    pad: 1
    kernel_size: 3
    stride: 1
    weight_filler {
      type: "msra"
    }
    bias_filler {
      type: "constant"
    }
  }
}
layer {
  name: "L1_b6_cbr1_bn"
  type: "BatchNorm"
  bottom: "L1_b6_cbr1_conv_top"
  top: "L1_b6_cbr1_bn_top"
  include {
    phase: TRAIN
  }
  batch_norm_param {
    use_global_stats: false
    moving_average_fraction: 0.999
  }
}
layer {
  name: "L1_b6_cbr1_scale"
  type: "Scale"
  bottom: "L1_b6_cbr1_bn_top"
  top: "L1_b6_cbr1_bn_top"
  scale_param {
    bias_term: true
  }
}
layer {
  name: "L1_b6_cbr1_relu"
  type: "ReLU"
  bottom: "L1_b6_cbr1_bn_top"
  top: "L1_b6_cbr1_bn_top"
}
layer {
  name: "L1_b6_cbr2_conv"
  type: "Convolution"
  bottom: "L1_b6_cbr1_bn_top"
  top: "L1_b6_cbr2_conv_top"
  param {
    lr_mult: 1
    decay_mult: 1
  }
  param {
    lr_mult: 2
    decay_mult: 0
  }
  convolution_param {
    num_output: 16
    pad: 1
    kernel_size: 3
    stride: 1
    weight_filler {
      type: "msra"
    }
    bias_filler {
      type: "constant"
    }
  }
}
layer {
  name: "L1_b6_cbr2_bn"
  type: "BatchNorm"
  bottom: "L1_b6_cbr2_conv_top"
  top: "L1_b6_cbr2_bn_top"
  include {
    phase: TRAIN
  }
  batch_norm_param {
    use_global_stats: false
    moving_average_fraction: 0.999
  }
}
layer {
  name: "L1_b6_cbr2_scale"
  type: "Scale"
  bottom: "L1_b6_cbr2_bn_top"
  top: "L1_b6_cbr2_bn_top"
  scale_param {
    bias_term: true
  }
}
layer {
  name: "L1_b6_sum_eltwise"
  type: "Eltwise"
  bottom: "L1_b6_cbr2_bn_top"
  bottom: "L1_b5_sum_eltwise_top"
  top: "L1_b6_sum_eltwise_top"
  eltwise_param {
    operation: SUM
  }
}
layer {
  name: "L1_b6_relu"
  type: "ReLU"
  bottom: "L1_b6_sum_eltwise_top"
  top: "L1_b6_sum_eltwise_top"
}
layer {
  name: "L1_b7_cbr1_conv"
  type: "Convolution"
  bottom: "L1_b6_sum_eltwise_top"
  top: "L1_b7_cbr1_conv_top"
  param {
    lr_mult: 1
    decay_mult: 1
  }
  param {
    lr_mult: 2
    decay_mult: 0
  }
  convolution_param {
    num_output: 16
    pad: 1
    kernel_size: 3
    stride: 1
    weight_filler {
      type: "msra"
    }
    bias_filler {
      type: "constant"
    }
  }
}
layer {
  name: "L1_b7_cbr1_bn"
  type: "BatchNorm"
  bottom: "L1_b7_cbr1_conv_top"
  top: "L1_b7_cbr1_bn_top"
  include {
    phase: TRAIN
  }
  batch_norm_param {
    use_global_stats: false
    moving_average_fraction: 0.999
  }
}
layer {
  name: "L1_b7_cbr1_scale"
  type: "Scale"
  bottom: "L1_b7_cbr1_bn_top"
  top: "L1_b7_cbr1_bn_top"
  scale_param {
    bias_term: true
  }
}
layer {
  name: "L1_b7_cbr1_relu"
  type: "ReLU"
  bottom: "L1_b7_cbr1_bn_top"
  top: "L1_b7_cbr1_bn_top"
}
layer {
  name: "L1_b7_cbr2_conv"
  type: "Convolution"
  bottom: "L1_b7_cbr1_bn_top"
  top: "L1_b7_cbr2_conv_top"
  param {
    lr_mult: 1
    decay_mult: 1
  }
  param {
    lr_mult: 2
    decay_mult: 0
  }
  convolution_param {
    num_output: 16
    pad: 1
    kernel_size: 3
    stride: 1
    weight_filler {
      type: "msra"
    }
    bias_filler {
      type: "constant"
    }
  }
}
layer {
  name: "L1_b7_cbr2_bn"
  type: "BatchNorm"
  bottom: "L1_b7_cbr2_conv_top"
  top: "L1_b7_cbr2_bn_top"
  include {
    phase: TRAIN
  }
  batch_norm_param {
    use_global_stats: false
    moving_average_fraction: 0.999
  }
}
layer {
  name: "L1_b7_cbr2_scale"
  type: "Scale"
  bottom: "L1_b7_cbr2_bn_top"
  top: "L1_b7_cbr2_bn_top"
  scale_param {
    bias_term: true
  }
}
layer {
  name: "L1_b7_sum_eltwise"
  type: "Eltwise"
  bottom: "L1_b7_cbr2_bn_top"
  bottom: "L1_b6_sum_eltwise_top"
  top: "L1_b7_sum_eltwise_top"
  eltwise_param {
    operation: SUM
  }
}
layer {
  name: "L1_b7_relu"
  type: "ReLU"
  bottom: "L1_b7_sum_eltwise_top"
  top: "L1_b7_sum_eltwise_top"
}
layer {
  name: "L1_b8_cbr1_conv"
  type: "Convolution"
  bottom: "L1_b7_sum_eltwise_top"
  top: "L1_b8_cbr1_conv_top"
  param {
    lr_mult: 1
    decay_mult: 1
  }
  param {
    lr_mult: 2
    decay_mult: 0
  }
  convolution_param {
    num_output: 16
    pad: 1
    kernel_size: 3
    stride: 1
    weight_filler {
      type: "msra"
    }
    bias_filler {
      type: "constant"
    }
  }
}
layer {
  name: "L1_b8_cbr1_bn"
  type: "BatchNorm"
  bottom: "L1_b8_cbr1_conv_top"
  top: "L1_b8_cbr1_bn_top"
  include {
    phase: TRAIN
  }
  batch_norm_param {
    use_global_stats: false
    moving_average_fraction: 0.999
  }
}
layer {
  name: "L1_b8_cbr1_scale"
  type: "Scale"
  bottom: "L1_b8_cbr1_bn_top"
  top: "L1_b8_cbr1_bn_top"
  scale_param {
    bias_term: true
  }
}
layer {
  name: "L1_b8_cbr1_relu"
  type: "ReLU"
  bottom: "L1_b8_cbr1_bn_top"
  top: "L1_b8_cbr1_bn_top"
}
layer {
  name: "L1_b8_cbr2_conv"
  type: "Convolution"
  bottom: "L1_b8_cbr1_bn_top"
  top: "L1_b8_cbr2_conv_top"
  param {
    lr_mult: 1
    decay_mult: 1
  }
  param {
    lr_mult: 2
    decay_mult: 0
  }
  convolution_param {
    num_output: 16
    pad: 1
    kernel_size: 3
    stride: 1
    weight_filler {
      type: "msra"
    }
    bias_filler {
      type: "constant"
    }
  }
}
layer {
  name: "L1_b8_cbr2_bn"
  type: "BatchNorm"
  bottom: "L1_b8_cbr2_conv_top"
  top: "L1_b8_cbr2_bn_top"
  include {
    phase: TRAIN
  }
  batch_norm_param {
    use_global_stats: false
    moving_average_fraction: 0.999
  }
}
layer {
  name: "L1_b8_cbr2_scale"
  type: "Scale"
  bottom: "L1_b8_cbr2_bn_top"
  top: "L1_b8_cbr2_bn_top"
  scale_param {
    bias_term: true
  }
}
layer {
  name: "L1_b8_sum_eltwise"
  type: "Eltwise"
  bottom: "L1_b8_cbr2_bn_top"
  bottom: "L1_b7_sum_eltwise_top"
  top: "L1_b8_sum_eltwise_top"
  eltwise_param {
    operation: SUM
  }
}
layer {
  name: "L1_b8_relu"
  type: "ReLU"
  bottom: "L1_b8_sum_eltwise_top"
  top: "L1_b8_sum_eltwise_top"
}
layer {
  name: "L1_b9_cbr1_conv"
  type: "Convolution"
  bottom: "L1_b8_sum_eltwise_top"
  top: "L1_b9_cbr1_conv_top"
  param {
    lr_mult: 1
    decay_mult: 1
  }
  param {
    lr_mult: 2
    decay_mult: 0
  }
  convolution_param {
    num_output: 16
    pad: 1
    kernel_size: 3
    stride: 1
    weight_filler {
      type: "msra"
    }
    bias_filler {
      type: "constant"
    }
  }
}
layer {
  name: "L1_b9_cbr1_bn"
  type: "BatchNorm"
  bottom: "L1_b9_cbr1_conv_top"
  top: "L1_b9_cbr1_bn_top"
  include {
    phase: TRAIN
  }
  batch_norm_param {
    use_global_stats: false
    moving_average_fraction: 0.999
  }
}
layer {
  name: "L1_b9_cbr1_scale"
  type: "Scale"
  bottom: "L1_b9_cbr1_bn_top"
  top: "L1_b9_cbr1_bn_top"
  scale_param {
    bias_term: true
  }
}
layer {
  name: "L1_b9_cbr1_relu"
  type: "ReLU"
  bottom: "L1_b9_cbr1_bn_top"
  top: "L1_b9_cbr1_bn_top"
}
layer {
  name: "L1_b9_cbr2_conv"
  type: "Convolution"
  bottom: "L1_b9_cbr1_bn_top"
  top: "L1_b9_cbr2_conv_top"
  param {
    lr_mult: 1
    decay_mult: 1
  }
  param {
    lr_mult: 2
    decay_mult: 0
  }
  convolution_param {
    num_output: 16
    pad: 1
    kernel_size: 3
    stride: 1
    weight_filler {
      type: "msra"
    }
    bias_filler {
      type: "constant"
    }
  }
}
layer {
  name: "L1_b9_cbr2_bn"
  type: "BatchNorm"
  bottom: "L1_b9_cbr2_conv_top"
  top: "L1_b9_cbr2_bn_top"
  include {
    phase: TRAIN
  }
  batch_norm_param {
    use_global_stats: false
    moving_average_fraction: 0.999
  }
}
layer {
  name: "L1_b9_cbr2_scale"
  type: "Scale"
  bottom: "L1_b9_cbr2_bn_top"
  top: "L1_b9_cbr2_bn_top"
  scale_param {
    bias_term: true
  }
}
layer {
  name: "L1_b9_sum_eltwise"
  type: "Eltwise"
  bottom: "L1_b9_cbr2_bn_top"
  bottom: "L1_b8_sum_eltwise_top"
  top: "L1_b9_sum_eltwise_top"
  eltwise_param {
    operation: SUM
  }
}
layer {
  name: "L1_b9_relu"
  type: "ReLU"
  bottom: "L1_b9_sum_eltwise_top"
  top: "L1_b9_sum_eltwise_top"
}
layer {
  name: "L1_b10_cbr1_conv"
  type: "Convolution"
  bottom: "L1_b9_sum_eltwise_top"
  top: "L1_b10_cbr1_conv_top"
  param {
    lr_mult: 1
    decay_mult: 1
  }
  param {
    lr_mult: 2
    decay_mult: 0
  }
  convolution_param {
    num_output: 16
    pad: 1
    kernel_size: 3
    stride: 1
    weight_filler {
      type: "msra"
    }
    bias_filler {
      type: "constant"
    }
  }
}
layer {
  name: "L1_b10_cbr1_bn"
  type: "BatchNorm"
  bottom: "L1_b10_cbr1_conv_top"
  top: "L1_b10_cbr1_bn_top"
  include {
    phase: TRAIN
  }
  batch_norm_param {
    use_global_stats: false
    moving_average_fraction: 0.999
  }
}
layer {
  name: "L1_b10_cbr1_scale"
  type: "Scale"
  bottom: "L1_b10_cbr1_bn_top"
  top: "L1_b10_cbr1_bn_top"
  scale_param {
    bias_term: true
  }
}
layer {
  name: "L1_b10_cbr1_relu"
  type: "ReLU"
  bottom: "L1_b10_cbr1_bn_top"
  top: "L1_b10_cbr1_bn_top"
}
layer {
  name: "L1_b10_cbr2_conv"
  type: "Convolution"
  bottom: "L1_b10_cbr1_bn_top"
  top: "L1_b10_cbr2_conv_top"
  param {
    lr_mult: 1
    decay_mult: 1
  }
  param {
    lr_mult: 2
    decay_mult: 0
  }
  convolution_param {
    num_output: 16
    pad: 1
    kernel_size: 3
    stride: 1
    weight_filler {
      type: "msra"
    }
    bias_filler {
      type: "constant"
    }
  }
}
layer {
  name: "L1_b10_cbr2_bn"
  type: "BatchNorm"
  bottom: "L1_b10_cbr2_conv_top"
  top: "L1_b10_cbr2_bn_top"
  include {
    phase: TRAIN
  }
  batch_norm_param {
    use_global_stats: false
    moving_average_fraction: 0.999
  }
}
layer {
  name: "L1_b10_cbr2_scale"
  type: "Scale"
  bottom: "L1_b10_cbr2_bn_top"
  top: "L1_b10_cbr2_bn_top"
  scale_param {
    bias_term: true
  }
}
layer {
  name: "L1_b10_sum_eltwise"
  type: "Eltwise"
  bottom: "L1_b10_cbr2_bn_top"
  bottom: "L1_b9_sum_eltwise_top"
  top: "L1_b10_sum_eltwise_top"
  eltwise_param {
    operation: SUM
  }
}
layer {
  name: "L1_b10_relu"
  type: "ReLU"
  bottom: "L1_b10_sum_eltwise_top"
  top: "L1_b10_sum_eltwise_top"
}
layer {
  name: "L1_b11_cbr1_conv"
  type: "Convolution"
  bottom: "L1_b10_sum_eltwise_top"
  top: "L1_b11_cbr1_conv_top"
  param {
    lr_mult: 1
    decay_mult: 1
  }
  param {
    lr_mult: 2
    decay_mult: 0
  }
  convolution_param {
    num_output: 16
    pad: 1
    kernel_size: 3
    stride: 1
    weight_filler {
      type: "msra"
    }
    bias_filler {
      type: "constant"
    }
  }
}
layer {
  name: "L1_b11_cbr1_bn"
  type: "BatchNorm"
  bottom: "L1_b11_cbr1_conv_top"
  top: "L1_b11_cbr1_bn_top"
  include {
    phase: TRAIN
  }
  batch_norm_param {
    use_global_stats: false
    moving_average_fraction: 0.999
  }
}
layer {
  name: "L1_b11_cbr1_scale"
  type: "Scale"
  bottom: "L1_b11_cbr1_bn_top"
  top: "L1_b11_cbr1_bn_top"
  scale_param {
    bias_term: true
  }
}
layer {
  name: "L1_b11_cbr1_relu"
  type: "ReLU"
  bottom: "L1_b11_cbr1_bn_top"
  top: "L1_b11_cbr1_bn_top"
}
layer {
  name: "L1_b11_cbr2_conv"
  type: "Convolution"
  bottom: "L1_b11_cbr1_bn_top"
  top: "L1_b11_cbr2_conv_top"
  param {
    lr_mult: 1
    decay_mult: 1
  }
  param {
    lr_mult: 2
    decay_mult: 0
  }
  convolution_param {
    num_output: 16
    pad: 1
    kernel_size: 3
    stride: 1
    weight_filler {
      type: "msra"
    }
    bias_filler {
      type: "constant"
    }
  }
}
layer {
  name: "L1_b11_cbr2_bn"
  type: "BatchNorm"
  bottom: "L1_b11_cbr2_conv_top"
  top: "L1_b11_cbr2_bn_top"
  include {
    phase: TRAIN
  }
  batch_norm_param {
    use_global_stats: false
    moving_average_fraction: 0.999
  }
}
layer {
  name: "L1_b11_cbr2_scale"
  type: "Scale"
  bottom: "L1_b11_cbr2_bn_top"
  top: "L1_b11_cbr2_bn_top"
  scale_param {
    bias_term: true
  }
}
layer {
  name: "L1_b11_sum_eltwise"
  type: "Eltwise"
  bottom: "L1_b11_cbr2_bn_top"
  bottom: "L1_b10_sum_eltwise_top"
  top: "L1_b11_sum_eltwise_top"
  eltwise_param {
    operation: SUM
  }
}
layer {
  name: "L1_b11_relu"
  type: "ReLU"
  bottom: "L1_b11_sum_eltwise_top"
  top: "L1_b11_sum_eltwise_top"
}
layer {
  name: "L1_b12_cbr1_conv"
  type: "Convolution"
  bottom: "L1_b11_sum_eltwise_top"
  top: "L1_b12_cbr1_conv_top"
  param {
    lr_mult: 1
    decay_mult: 1
  }
  param {
    lr_mult: 2
    decay_mult: 0
  }
  convolution_param {
    num_output: 16
    pad: 1
    kernel_size: 3
    stride: 1
    weight_filler {
      type: "msra"
    }
    bias_filler {
      type: "constant"
    }
  }
}
layer {
  name: "L1_b12_cbr1_bn"
  type: "BatchNorm"
  bottom: "L1_b12_cbr1_conv_top"
  top: "L1_b12_cbr1_bn_top"
  include {
    phase: TRAIN
  }
  batch_norm_param {
    use_global_stats: false
    moving_average_fraction: 0.999
  }
}
layer {
  name: "L1_b12_cbr1_scale"
  type: "Scale"
  bottom: "L1_b12_cbr1_bn_top"
  top: "L1_b12_cbr1_bn_top"
  scale_param {
    bias_term: true
  }
}
layer {
  name: "L1_b12_cbr1_relu"
  type: "ReLU"
  bottom: "L1_b12_cbr1_bn_top"
  top: "L1_b12_cbr1_bn_top"
}
layer {
  name: "L1_b12_cbr2_conv"
  type: "Convolution"
  bottom: "L1_b12_cbr1_bn_top"
  top: "L1_b12_cbr2_conv_top"
  param {
    lr_mult: 1
    decay_mult: 1
  }
  param {
    lr_mult: 2
    decay_mult: 0
  }
  convolution_param {
    num_output: 16
    pad: 1
    kernel_size: 3
    stride: 1
    weight_filler {
      type: "msra"
    }
    bias_filler {
      type: "constant"
    }
  }
}
layer {
  name: "L1_b12_cbr2_bn"
  type: "BatchNorm"
  bottom: "L1_b12_cbr2_conv_top"
  top: "L1_b12_cbr2_bn_top"
  include {
    phase: TRAIN
  }
  batch_norm_param {
    use_global_stats: false
    moving_average_fraction: 0.999
  }
}
layer {
  name: "L1_b12_cbr2_scale"
  type: "Scale"
  bottom: "L1_b12_cbr2_bn_top"
  top: "L1_b12_cbr2_bn_top"
  scale_param {
    bias_term: true
  }
}
layer {
  name: "L1_b12_sum_eltwise"
  type: "Eltwise"
  bottom: "L1_b12_cbr2_bn_top"
  bottom: "L1_b11_sum_eltwise_top"
  top: "L1_b12_sum_eltwise_top"
  eltwise_param {
    operation: SUM
  }
}
layer {
  name: "L1_b12_relu"
  type: "ReLU"
  bottom: "L1_b12_sum_eltwise_top"
  top: "L1_b12_sum_eltwise_top"
}
layer {
  name: "L1_b13_cbr1_conv"
  type: "Convolution"
  bottom: "L1_b12_sum_eltwise_top"
  top: "L1_b13_cbr1_conv_top"
  param {
    lr_mult: 1
    decay_mult: 1
  }
  param {
    lr_mult: 2
    decay_mult: 0
  }
  convolution_param {
    num_output: 16
    pad: 1
    kernel_size: 3
    stride: 1
    weight_filler {
      type: "msra"
    }
    bias_filler {
      type: "constant"
    }
  }
}
layer {
  name: "L1_b13_cbr1_bn"
  type: "BatchNorm"
  bottom: "L1_b13_cbr1_conv_top"
  top: "L1_b13_cbr1_bn_top"
  include {
    phase: TRAIN
  }
  batch_norm_param {
    use_global_stats: false
    moving_average_fraction: 0.999
  }
}
layer {
  name: "L1_b13_cbr1_scale"
  type: "Scale"
  bottom: "L1_b13_cbr1_bn_top"
  top: "L1_b13_cbr1_bn_top"
  scale_param {
    bias_term: true
  }
}
layer {
  name: "L1_b13_cbr1_relu"
  type: "ReLU"
  bottom: "L1_b13_cbr1_bn_top"
  top: "L1_b13_cbr1_bn_top"
}
layer {
  name: "L1_b13_cbr2_conv"
  type: "Convolution"
  bottom: "L1_b13_cbr1_bn_top"
  top: "L1_b13_cbr2_conv_top"
  param {
    lr_mult: 1
    decay_mult: 1
  }
  param {
    lr_mult: 2
    decay_mult: 0
  }
  convolution_param {
    num_output: 16
    pad: 1
    kernel_size: 3
    stride: 1
    weight_filler {
      type: "msra"
    }
    bias_filler {
      type: "constant"
    }
  }
}
layer {
  name: "L1_b13_cbr2_bn"
  type: "BatchNorm"
  bottom: "L1_b13_cbr2_conv_top"
  top: "L1_b13_cbr2_bn_top"
  include {
    phase: TRAIN
  }
  batch_norm_param {
    use_global_stats: false
    moving_average_fraction: 0.999
  }
}
layer {
  name: "L1_b13_cbr2_scale"
  type: "Scale"
  bottom: "L1_b13_cbr2_bn_top"
  top: "L1_b13_cbr2_bn_top"
  scale_param {
    bias_term: true
  }
}
layer {
  name: "L1_b13_sum_eltwise"
  type: "Eltwise"
  bottom: "L1_b13_cbr2_bn_top"
  bottom: "L1_b12_sum_eltwise_top"
  top: "L1_b13_sum_eltwise_top"
  eltwise_param {
    operation: SUM
  }
}
layer {
  name: "L1_b13_relu"
  type: "ReLU"
  bottom: "L1_b13_sum_eltwise_top"
  top: "L1_b13_sum_eltwise_top"
}
layer {
  name: "L1_b14_cbr1_conv"
  type: "Convolution"
  bottom: "L1_b13_sum_eltwise_top"
  top: "L1_b14_cbr1_conv_top"
  param {
    lr_mult: 1
    decay_mult: 1
  }
  param {
    lr_mult: 2
    decay_mult: 0
  }
  convolution_param {
    num_output: 16
    pad: 1
    kernel_size: 3
    stride: 1
    weight_filler {
      type: "msra"
    }
    bias_filler {
      type: "constant"
    }
  }
}
layer {
  name: "L1_b14_cbr1_bn"
  type: "BatchNorm"
  bottom: "L1_b14_cbr1_conv_top"
  top: "L1_b14_cbr1_bn_top"
  include {
    phase: TRAIN
  }
  batch_norm_param {
    use_global_stats: false
    moving_average_fraction: 0.999
  }
}
layer {
  name: "L1_b14_cbr1_scale"
  type: "Scale"
  bottom: "L1_b14_cbr1_bn_top"
  top: "L1_b14_cbr1_bn_top"
  scale_param {
    bias_term: true
  }
}
layer {
  name: "L1_b14_cbr1_relu"
  type: "ReLU"
  bottom: "L1_b14_cbr1_bn_top"
  top: "L1_b14_cbr1_bn_top"
}
layer {
  name: "L1_b14_cbr2_conv"
  type: "Convolution"
  bottom: "L1_b14_cbr1_bn_top"
  top: "L1_b14_cbr2_conv_top"
  param {
    lr_mult: 1
    decay_mult: 1
  }
  param {
    lr_mult: 2
    decay_mult: 0
  }
  convolution_param {
    num_output: 16
    pad: 1
    kernel_size: 3
    stride: 1
    weight_filler {
      type: "msra"
    }
    bias_filler {
      type: "constant"
    }
  }
}
layer {
  name: "L1_b14_cbr2_bn"
  type: "BatchNorm"
  bottom: "L1_b14_cbr2_conv_top"
  top: "L1_b14_cbr2_bn_top"
  include {
    phase: TRAIN
  }
  batch_norm_param {
    use_global_stats: false
    moving_average_fraction: 0.999
  }
}
layer {
  name: "L1_b14_cbr2_scale"
  type: "Scale"
  bottom: "L1_b14_cbr2_bn_top"
  top: "L1_b14_cbr2_bn_top"
  scale_param {
    bias_term: true
  }
}
layer {
  name: "L1_b14_sum_eltwise"
  type: "Eltwise"
  bottom: "L1_b14_cbr2_bn_top"
  bottom: "L1_b13_sum_eltwise_top"
  top: "L1_b14_sum_eltwise_top"
  eltwise_param {
    operation: SUM
  }
}
layer {
  name: "L1_b14_relu"
  type: "ReLU"
  bottom: "L1_b14_sum_eltwise_top"
  top: "L1_b14_sum_eltwise_top"
}
layer {
  name: "L1_b15_cbr1_conv"
  type: "Convolution"
  bottom: "L1_b14_sum_eltwise_top"
  top: "L1_b15_cbr1_conv_top"
  param {
    lr_mult: 1
    decay_mult: 1
  }
  param {
    lr_mult: 2
    decay_mult: 0
  }
  convolution_param {
    num_output: 16
    pad: 1
    kernel_size: 3
    stride: 1
    weight_filler {
      type: "msra"
    }
    bias_filler {
      type: "constant"
    }
  }
}
layer {
  name: "L1_b15_cbr1_bn"
  type: "BatchNorm"
  bottom: "L1_b15_cbr1_conv_top"
  top: "L1_b15_cbr1_bn_top"
  include {
    phase: TRAIN
  }
  batch_norm_param {
    use_global_stats: false
    moving_average_fraction: 0.999
  }
}
layer {
  name: "L1_b15_cbr1_scale"
  type: "Scale"
  bottom: "L1_b15_cbr1_bn_top"
  top: "L1_b15_cbr1_bn_top"
  scale_param {
    bias_term: true
  }
}
layer {
  name: "L1_b15_cbr1_relu"
  type: "ReLU"
  bottom: "L1_b15_cbr1_bn_top"
  top: "L1_b15_cbr1_bn_top"
}
layer {
  name: "L1_b15_cbr2_conv"
  type: "Convolution"
  bottom: "L1_b15_cbr1_bn_top"
  top: "L1_b15_cbr2_conv_top"
  param {
   
I0821 08:59:08.665316 32502 layer_factory.hpp:77] Creating layer dataLayer
I0821 08:59:08.667717 32502 net.cpp:100] Creating Layer dataLayer
I0821 08:59:08.667793 32502 net.cpp:408] dataLayer -> data_top
I0821 08:59:08.668005 32502 net.cpp:408] dataLayer -> label
I0821 08:59:08.668138 32502 data_transformer.cpp:25] Loading mean file from: examples/cifar10/mean.binaryproto
I0821 08:59:08.678056 32507 db_lmdb.cpp:35] Opened lmdb examples/cifar10/cifar10_train_lmdb
I0821 08:59:08.724216 32502 data_layer.cpp:41] output data size: 100,3,32,32
I0821 08:59:08.730196 32502 net.cpp:150] Setting up dataLayer
I0821 08:59:08.730265 32502 net.cpp:157] Top shape: 100 3 32 32 (307200)
I0821 08:59:08.730279 32502 net.cpp:157] Top shape: 100 (100)
I0821 08:59:08.730284 32502 net.cpp:165] Memory required for data: 1229200
I0821 08:59:08.730301 32502 layer_factory.hpp:77] Creating layer label_dataLayer_1_split
I0821 08:59:08.730319 32502 net.cpp:100] Creating Layer label_dataLayer_1_split
I0821 08:59:08.730326 32502 net.cpp:434] label_dataLayer_1_split <- label
I0821 08:59:08.730345 32502 net.cpp:408] label_dataLayer_1_split -> label_dataLayer_1_split_0
I0821 08:59:08.730361 32502 net.cpp:408] label_dataLayer_1_split -> label_dataLayer_1_split_1
I0821 08:59:08.730433 32502 net.cpp:150] Setting up label_dataLayer_1_split
I0821 08:59:08.730446 32502 net.cpp:157] Top shape: 100 (100)
I0821 08:59:08.730453 32502 net.cpp:157] Top shape: 100 (100)
I0821 08:59:08.730458 32502 net.cpp:165] Memory required for data: 1230000
I0821 08:59:08.730463 32502 layer_factory.hpp:77] Creating layer pre_conv
I0821 08:59:08.730537 32502 net.cpp:100] Creating Layer pre_conv
I0821 08:59:08.730551 32502 net.cpp:434] pre_conv <- data_top
I0821 08:59:08.730563 32502 net.cpp:408] pre_conv -> pre_conv_top
I0821 08:59:08.732444 32502 net.cpp:150] Setting up pre_conv
I0821 08:59:08.732463 32502 net.cpp:157] Top shape: 100 16 32 32 (1638400)
I0821 08:59:08.732470 32502 net.cpp:165] Memory required for data: 7783600
I0821 08:59:08.732529 32502 layer_factory.hpp:77] Creating layer pre_bn
I0821 08:59:08.732605 32502 net.cpp:100] Creating Layer pre_bn
I0821 08:59:08.732619 32502 net.cpp:434] pre_bn <- pre_conv_top
I0821 08:59:08.732627 32502 net.cpp:408] pre_bn -> pre_bn_top
I0821 08:59:08.732753 32509 blocking_queue.cpp:50] Waiting for data
I0821 08:59:08.732972 32502 net.cpp:150] Setting up pre_bn
I0821 08:59:08.732992 32502 net.cpp:157] Top shape: 100 16 32 32 (1638400)
I0821 08:59:08.732998 32502 net.cpp:165] Memory required for data: 14337200
I0821 08:59:08.733016 32502 layer_factory.hpp:77] Creating layer pre_scale
I0821 08:59:08.733067 32502 net.cpp:100] Creating Layer pre_scale
I0821 08:59:08.733078 32502 net.cpp:434] pre_scale <- pre_bn_top
I0821 08:59:08.733086 32502 net.cpp:395] pre_scale -> pre_bn_top (in-place)
I0821 08:59:08.733265 32502 layer_factory.hpp:77] Creating layer pre_scale
I0821 08:59:08.735188 32502 net.cpp:150] Setting up pre_scale
I0821 08:59:08.735205 32502 net.cpp:157] Top shape: 100 16 32 32 (1638400)
I0821 08:59:08.735210 32502 net.cpp:165] Memory required for data: 20890800
I0821 08:59:08.735222 32502 layer_factory.hpp:77] Creating layer pre_relu
I0821 08:59:08.735271 32502 net.cpp:100] Creating Layer pre_relu
I0821 08:59:08.735283 32502 net.cpp:434] pre_relu <- pre_bn_top
I0821 08:59:08.735296 32502 net.cpp:395] pre_relu -> pre_bn_top (in-place)
I0821 08:59:08.735306 32502 net.cpp:150] Setting up pre_relu
I0821 08:59:08.735314 32502 net.cpp:157] Top shape: 100 16 32 32 (1638400)
I0821 08:59:08.735319 32502 net.cpp:165] Memory required for data: 27444400
I0821 08:59:08.735324 32502 layer_factory.hpp:77] Creating layer pre_bn_top_pre_relu_0_split
I0821 08:59:08.735332 32502 net.cpp:100] Creating Layer pre_bn_top_pre_relu_0_split
I0821 08:59:08.735337 32502 net.cpp:434] pre_bn_top_pre_relu_0_split <- pre_bn_top
I0821 08:59:08.735347 32502 net.cpp:408] pre_bn_top_pre_relu_0_split -> pre_bn_top_pre_relu_0_split_0
I0821 08:59:08.735357 32502 net.cpp:408] pre_bn_top_pre_relu_0_split -> pre_bn_top_pre_relu_0_split_1
I0821 08:59:08.735401 32502 net.cpp:150] Setting up pre_bn_top_pre_relu_0_split
I0821 08:59:08.735412 32502 net.cpp:157] Top shape: 100 16 32 32 (1638400)
I0821 08:59:08.735419 32502 net.cpp:157] Top shape: 100 16 32 32 (1638400)
I0821 08:59:08.735424 32502 net.cpp:165] Memory required for data: 40551600
I0821 08:59:08.735430 32502 layer_factory.hpp:77] Creating layer L1_b1_cbr1_conv
I0821 08:59:08.735443 32502 net.cpp:100] Creating Layer L1_b1_cbr1_conv
I0821 08:59:08.735450 32502 net.cpp:434] L1_b1_cbr1_conv <- pre_bn_top_pre_relu_0_split_0
I0821 08:59:08.735458 32502 net.cpp:408] L1_b1_cbr1_conv -> L1_b1_cbr1_conv_top
I0821 08:59:08.735779 32502 net.cpp:150] Setting up L1_b1_cbr1_conv
I0821 08:59:08.735793 32502 net.cpp:157] Top shape: 100 16 32 32 (1638400)
I0821 08:59:08.735800 32502 net.cpp:165] Memory required for data: 47105200
I0821 08:59:08.735815 32502 layer_factory.hpp:77] Creating layer L1_b1_cbr1_bn
I0821 08:59:08.735828 32502 net.cpp:100] Creating Layer L1_b1_cbr1_bn
I0821 08:59:08.735834 32502 net.cpp:434] L1_b1_cbr1_bn <- L1_b1_cbr1_conv_top
I0821 08:59:08.735843 32502 net.cpp:408] L1_b1_cbr1_bn -> L1_b1_cbr1_bn_top
I0821 08:59:08.736065 32502 net.cpp:150] Setting up L1_b1_cbr1_bn
I0821 08:59:08.736078 32502 net.cpp:157] Top shape: 100 16 32 32 (1638400)
I0821 08:59:08.736083 32502 net.cpp:165] Memory required for data: 53658800
I0821 08:59:08.736094 32502 layer_factory.hpp:77] Creating layer L1_b1_cbr1_scale
I0821 08:59:08.736104 32502 net.cpp:100] Creating Layer L1_b1_cbr1_scale
I0821 08:59:08.736109 32502 net.cpp:434] L1_b1_cbr1_scale <- L1_b1_cbr1_bn_top
I0821 08:59:08.736120 32502 net.cpp:395] L1_b1_cbr1_scale -> L1_b1_cbr1_bn_top (in-place)
I0821 08:59:08.736171 32502 layer_factory.hpp:77] Creating layer L1_b1_cbr1_scale
I0821 08:59:08.736306 32502 net.cpp:150] Setting up L1_b1_cbr1_scale
I0821 08:59:08.736320 32502 net.cpp:157] Top shape: 100 16 32 32 (1638400)
I0821 08:59:08.736325 32502 net.cpp:165] Memory required for data: 60212400
I0821 08:59:08.736335 32502 layer_factory.hpp:77] Creating layer L1_b1_cbr1_relu
I0821 08:59:08.736342 32502 net.cpp:100] Creating Layer L1_b1_cbr1_relu
I0821 08:59:08.736348 32502 net.cpp:434] L1_b1_cbr1_relu <- L1_b1_cbr1_bn_top
I0821 08:59:08.736356 32502 net.cpp:395] L1_b1_cbr1_relu -> L1_b1_cbr1_bn_top (in-place)
I0821 08:59:08.736367 32502 net.cpp:150] Setting up L1_b1_cbr1_relu
I0821 08:59:08.736374 32502 net.cpp:157] Top shape: 100 16 32 32 (1638400)
I0821 08:59:08.736379 32502 net.cpp:165] Memory required for data: 66766000
I0821 08:59:08.736384 32502 layer_factory.hpp:77] Creating layer L1_b1_cbr2_conv
I0821 08:59:08.736395 32502 net.cpp:100] Creating Layer L1_b1_cbr2_conv
I0821 08:59:08.736403 32502 net.cpp:434] L1_b1_cbr2_conv <- L1_b1_cbr1_bn_top
I0821 08:59:08.736412 32502 net.cpp:408] L1_b1_cbr2_conv -> L1_b1_cbr2_conv_top
I0821 08:59:08.736891 32502 net.cpp:150] Setting up L1_b1_cbr2_conv
I0821 08:59:08.736914 32502 net.cpp:157] Top shape: 100 16 32 32 (1638400)
I0821 08:59:08.736920 32502 net.cpp:165] Memory required for data: 73319600
I0821 08:59:08.736930 32502 layer_factory.hpp:77] Creating layer L1_b1_cbr2_bn
I0821 08:59:08.736943 32502 net.cpp:100] Creating Layer L1_b1_cbr2_bn
I0821 08:59:08.736948 32502 net.cpp:434] L1_b1_cbr2_bn <- L1_b1_cbr2_conv_top
I0821 08:59:08.736959 32502 net.cpp:408] L1_b1_cbr2_bn -> L1_b1_cbr2_bn_top
I0821 08:59:08.737186 32502 net.cpp:150] Setting up L1_b1_cbr2_bn
I0821 08:59:08.737200 32502 net.cpp:157] Top shape: 100 16 32 32 (1638400)
I0821 08:59:08.737205 32502 net.cpp:165] Memory required for data: 79873200
I0821 08:59:08.737220 32502 layer_factory.hpp:77] Creating layer L1_b1_cbr2_scale
I0821 08:59:08.737231 32502 net.cpp:100] Creating Layer L1_b1_cbr2_scale
I0821 08:59:08.737237 32502 net.cpp:434] L1_b1_cbr2_scale <- L1_b1_cbr2_bn_top
I0821 08:59:08.737246 32502 net.cpp:395] L1_b1_cbr2_scale -> L1_b1_cbr2_bn_top (in-place)
I0821 08:59:08.737301 32502 layer_factory.hpp:77] Creating layer L1_b1_cbr2_scale
I0821 08:59:08.737435 32502 net.cpp:150] Setting up L1_b1_cbr2_scale
I0821 08:59:08.737448 32502 net.cpp:157] Top shape: 100 16 32 32 (1638400)
I0821 08:59:08.737453 32502 net.cpp:165] Memory required for data: 86426800
I0821 08:59:08.737462 32502 layer_factory.hpp:77] Creating layer L1_b1_sum_eltwise
I0821 08:59:08.737519 32502 net.cpp:100] Creating Layer L1_b1_sum_eltwise
I0821 08:59:08.737531 32502 net.cpp:434] L1_b1_sum_eltwise <- L1_b1_cbr2_bn_top
I0821 08:59:08.737540 32502 net.cpp:434] L1_b1_sum_eltwise <- pre_bn_top_pre_relu_0_split_1
I0821 08:59:08.737550 32502 net.cpp:408] L1_b1_sum_eltwise -> L1_b1_sum_eltwise_top
I0821 08:59:08.737627 32502 net.cpp:150] Setting up L1_b1_sum_eltwise
I0821 08:59:08.737645 32502 net.cpp:157] Top shape: 100 16 32 32 (1638400)
I0821 08:59:08.737650 32502 net.cpp:165] Memory required for data: 92980400
I0821 08:59:08.737656 32502 layer_factory.hpp:77] Creating layer L1_b1_relu
I0821 08:59:08.737665 32502 net.cpp:100] Creating Layer L1_b1_relu
I0821 08:59:08.737670 32502 net.cpp:434] L1_b1_relu <- L1_b1_sum_eltwise_top
I0821 08:59:08.737679 32502 net.cpp:395] L1_b1_relu -> L1_b1_sum_eltwise_top (in-place)
I0821 08:59:08.737689 32502 net.cpp:150] Setting up L1_b1_relu
I0821 08:59:08.737695 32502 net.cpp:157] Top shape: 100 16 32 32 (1638400)
I0821 08:59:08.737700 32502 net.cpp:165] Memory required for data: 99534000
I0821 08:59:08.737704 32502 layer_factory.hpp:77] Creating layer L1_b1_sum_eltwise_top_L1_b1_relu_0_split
I0821 08:59:08.737716 32502 net.cpp:100] Creating Layer L1_b1_sum_eltwise_top_L1_b1_relu_0_split
I0821 08:59:08.737722 32502 net.cpp:434] L1_b1_sum_eltwise_top_L1_b1_relu_0_split <- L1_b1_sum_eltwise_top
I0821 08:59:08.737730 32502 net.cpp:408] L1_b1_sum_eltwise_top_L1_b1_relu_0_split -> L1_b1_sum_eltwise_top_L1_b1_relu_0_split_0
I0821 08:59:08.737740 32502 net.cpp:408] L1_b1_sum_eltwise_top_L1_b1_relu_0_split -> L1_b1_sum_eltwise_top_L1_b1_relu_0_split_1
I0821 08:59:08.737789 32502 net.cpp:150] Setting up L1_b1_sum_eltwise_top_L1_b1_relu_0_split
I0821 08:59:08.737802 32502 net.cpp:157] Top shape: 100 16 32 32 (1638400)
I0821 08:59:08.737808 32502 net.cpp:157] Top shape: 100 16 32 32 (1638400)
I0821 08:59:08.737813 32502 net.cpp:165] Memory required for data: 112641200
I0821 08:59:08.737818 32502 layer_factory.hpp:77] Creating layer L1_b2_cbr1_conv
I0821 08:59:08.737830 32502 net.cpp:100] Creating Layer L1_b2_cbr1_conv
I0821 08:59:08.737836 32502 net.cpp:434] L1_b2_cbr1_conv <- L1_b1_sum_eltwise_top_L1_b1_relu_0_split_0
I0821 08:59:08.737848 32502 net.cpp:408] L1_b2_cbr1_conv -> L1_b2_cbr1_conv_top
I0821 08:59:08.738142 32502 net.cpp:150] Setting up L1_b2_cbr1_conv
I0821 08:59:08.738157 32502 net.cpp:157] Top shape: 100 16 32 32 (1638400)
I0821 08:59:08.738162 32502 net.cpp:165] Memory required for data: 119194800
I0821 08:59:08.738170 32502 layer_factory.hpp:77] Creating layer L1_b2_cbr1_bn
I0821 08:59:08.738180 32502 net.cpp:100] Creating Layer L1_b2_cbr1_bn
I0821 08:59:08.738186 32502 net.cpp:434] L1_b2_cbr1_bn <- L1_b2_cbr1_conv_top
I0821 08:59:08.738209 32502 net.cpp:408] L1_b2_cbr1_bn -> L1_b2_cbr1_bn_top
I0821 08:59:08.738445 32502 net.cpp:150] Setting up L1_b2_cbr1_bn
I0821 08:59:08.738461 32502 net.cpp:157] Top shape: 100 16 32 32 (1638400)
I0821 08:59:08.738466 32502 net.cpp:165] Memory required for data: 125748400
I0821 08:59:08.738477 32502 layer_factory.hpp:77] Creating layer L1_b2_cbr1_scale
I0821 08:59:08.738487 32502 net.cpp:100] Creating Layer L1_b2_cbr1_scale
I0821 08:59:08.738492 32502 net.cpp:434] L1_b2_cbr1_scale <- L1_b2_cbr1_bn_top
I0821 08:59:08.738499 32502 net.cpp:395] L1_b2_cbr1_scale -> L1_b2_cbr1_bn_top (in-place)
I0821 08:59:08.738551 32502 layer_factory.hpp:77] Creating layer L1_b2_cbr1_scale
I0821 08:59:08.738687 32502 net.cpp:150] Setting up L1_b2_cbr1_scale
I0821 08:59:08.738699 32502 net.cpp:157] Top shape: 100 16 32 32 (1638400)
I0821 08:59:08.738704 32502 net.cpp:165] Memory required for data: 132302000
I0821 08:59:08.738714 32502 layer_factory.hpp:77] Creating layer L1_b2_cbr1_relu
I0821 08:59:08.738725 32502 net.cpp:100] Creating Layer L1_b2_cbr1_relu
I0821 08:59:08.738730 32502 net.cpp:434] L1_b2_cbr1_relu <- L1_b2_cbr1_bn_top
I0821 08:59:08.738739 32502 net.cpp:395] L1_b2_cbr1_relu -> L1_b2_cbr1_bn_top (in-place)
I0821 08:59:08.738754 32502 net.cpp:150] Setting up L1_b2_cbr1_relu
I0821 08:59:08.738764 32502 net.cpp:157] Top shape: 100 16 32 32 (1638400)
I0821 08:59:08.738768 32502 net.cpp:165] Memory required for data: 138855600
I0821 08:59:08.738772 32502 layer_factory.hpp:77] Creating layer L1_b2_cbr2_conv
I0821 08:59:08.738786 32502 net.cpp:100] Creating Layer L1_b2_cbr2_conv
I0821 08:59:08.738792 32502 net.cpp:434] L1_b2_cbr2_conv <- L1_b2_cbr1_bn_top
I0821 08:59:08.738802 32502 net.cpp:408] L1_b2_cbr2_conv -> L1_b2_cbr2_conv_top
I0821 08:59:08.739094 32502 net.cpp:150] Setting up L1_b2_cbr2_conv
I0821 08:59:08.739109 32502 net.cpp:157] Top shape: 100 16 32 32 (1638400)
I0821 08:59:08.739114 32502 net.cpp:165] Memory required for data: 145409200
I0821 08:59:08.739122 32502 layer_factory.hpp:77] Creating layer L1_b2_cbr2_bn
I0821 08:59:08.739131 32502 net.cpp:100] Creating Layer L1_b2_cbr2_bn
I0821 08:59:08.739136 32502 net.cpp:434] L1_b2_cbr2_bn <- L1_b2_cbr2_conv_top
I0821 08:59:08.739147 32502 net.cpp:408] L1_b2_cbr2_bn -> L1_b2_cbr2_bn_top
I0821 08:59:08.739377 32502 net.cpp:150] Setting up L1_b2_cbr2_bn
I0821 08:59:08.739390 32502 net.cpp:157] Top shape: 100 16 32 32 (1638400)
I0821 08:59:08.739395 32502 net.cpp:165] Memory required for data: 151962800
I0821 08:59:08.739413 32502 layer_factory.hpp:77] Creating layer L1_b2_cbr2_scale
I0821 08:59:08.739423 32502 net.cpp:100] Creating Layer L1_b2_cbr2_scale
I0821 08:59:08.739429 32502 net.cpp:434] L1_b2_cbr2_scale <- L1_b2_cbr2_bn_top
I0821 08:59:08.739436 32502 net.cpp:395] L1_b2_cbr2_scale -> L1_b2_cbr2_bn_top (in-place)
I0821 08:59:08.739491 32502 layer_factory.hpp:77] Creating layer L1_b2_cbr2_scale
I0821 08:59:08.739630 32502 net.cpp:150] Setting up L1_b2_cbr2_scale
I0821 08:59:08.739644 32502 net.cpp:157] Top shape: 100 16 32 32 (1638400)
I0821 08:59:08.739648 32502 net.cpp:165] Memory required for data: 158516400
I0821 08:59:08.739657 32502 layer_factory.hpp:77] Creating layer L1_b2_sum_eltwise
I0821 08:59:08.739670 32502 net.cpp:100] Creating Layer L1_b2_sum_eltwise
I0821 08:59:08.739675 32502 net.cpp:434] L1_b2_sum_eltwise <- L1_b2_cbr2_bn_top
I0821 08:59:08.739682 32502 net.cpp:434] L1_b2_sum_eltwise <- L1_b1_sum_eltwise_top_L1_b1_relu_0_split_1
I0821 08:59:08.739691 32502 net.cpp:408] L1_b2_sum_eltwise -> L1_b2_sum_eltwise_top
I0821 08:59:08.739723 32502 net.cpp:150] Setting up L1_b2_sum_eltwise
I0821 08:59:08.739732 32502 net.cpp:157] Top shape: 100 16 32 32 (1638400)
I0821 08:59:08.739737 32502 net.cpp:165] Memory required for data: 165070000
I0821 08:59:08.739748 32502 layer_factory.hpp:77] Creating layer L1_b2_relu
I0821 08:59:08.739758 32502 net.cpp:100] Creating Layer L1_b2_relu
I0821 08:59:08.739763 32502 net.cpp:434] L1_b2_relu <- L1_b2_sum_eltwise_top
I0821 08:59:08.739771 32502 net.cpp:395] L1_b2_relu -> L1_b2_sum_eltwise_top (in-place)
I0821 08:59:08.739789 32502 net.cpp:150] Setting up L1_b2_relu
I0821 08:59:08.739795 32502 net.cpp:157] Top shape: 100 16 32 32 (1638400)
I0821 08:59:08.739800 32502 net.cpp:165] Memory required for data: 171623600
I0821 08:59:08.739805 32502 layer_factory.hpp:77] Creating layer L1_b2_sum_eltwise_top_L1_b2_relu_0_split
I0821 08:59:08.739812 32502 net.cpp:100] Creating Layer L1_b2_sum_eltwise_top_L1_b2_relu_0_split
I0821 08:59:08.739817 32502 net.cpp:434] L1_b2_sum_eltwise_top_L1_b2_relu_0_split <- L1_b2_sum_eltwise_top
I0821 08:59:08.739827 32502 net.cpp:408] L1_b2_sum_eltwise_top_L1_b2_relu_0_split -> L1_b2_sum_eltwise_top_L1_b2_relu_0_split_0
I0821 08:59:08.739837 32502 net.cpp:408] L1_b2_sum_eltwise_top_L1_b2_relu_0_split -> L1_b2_sum_eltwise_top_L1_b2_relu_0_split_1
I0821 08:59:08.739878 32502 net.cpp:150] Setting up L1_b2_sum_eltwise_top_L1_b2_relu_0_split
I0821 08:59:08.739889 32502 net.cpp:157] Top shape: 100 16 32 32 (1638400)
I0821 08:59:08.739897 32502 net.cpp:157] Top shape: 100 16 32 32 (1638400)
I0821 08:59:08.739900 32502 net.cpp:165] Memory required for data: 184730800
I0821 08:59:08.739905 32502 layer_factory.hpp:77] Creating layer L1_b3_cbr1_conv
I0821 08:59:08.739919 32502 net.cpp:100] Creating Layer L1_b3_cbr1_conv
I0821 08:59:08.739925 32502 net.cpp:434] L1_b3_cbr1_conv <- L1_b2_sum_eltwise_top_L1_b2_relu_0_split_0
I0821 08:59:08.739934 32502 net.cpp:408] L1_b3_cbr1_conv -> L1_b3_cbr1_conv_top
I0821 08:59:08.740233 32502 net.cpp:150] Setting up L1_b3_cbr1_conv
I0821 08:59:08.740247 32502 net.cpp:157] Top shape: 100 16 32 32 (1638400)
I0821 08:59:08.740252 32502 net.cpp:165] Memory required for data: 191284400
I0821 08:59:08.740262 32502 layer_factory.hpp:77] Creating layer L1_b3_cbr1_bn
I0821 08:59:08.740272 32502 net.cpp:100] Creating Layer L1_b3_cbr1_bn
I0821 08:59:08.740278 32502 net.cpp:434] L1_b3_cbr1_bn <- L1_b3_cbr1_conv_top
I0821 08:59:08.740289 32502 net.cpp:408] L1_b3_cbr1_bn -> L1_b3_cbr1_bn_top
I0821 08:59:08.740514 32502 net.cpp:150] Setting up L1_b3_cbr1_bn
I0821 08:59:08.740527 32502 net.cpp:157] Top shape: 100 16 32 32 (1638400)
I0821 08:59:08.740532 32502 net.cpp:165] Memory required for data: 197838000
I0821 08:59:08.740542 32502 layer_factory.hpp:77] Creating layer L1_b3_cbr1_scale
I0821 08:59:08.740551 32502 net.cpp:100] Creating Layer L1_b3_cbr1_scale
I0821 08:59:08.740557 32502 net.cpp:434] L1_b3_cbr1_scale <- L1_b3_cbr1_bn_top
I0821 08:59:08.740564 32502 net.cpp:395] L1_b3_cbr1_scale -> L1_b3_cbr1_bn_top (in-place)
I0821 08:59:08.740618 32502 layer_factory.hpp:77] Creating layer L1_b3_cbr1_scale
I0821 08:59:08.740761 32502 net.cpp:150] Setting up L1_b3_cbr1_scale
I0821 08:59:08.740774 32502 net.cpp:157] Top shape: 100 16 32 32 (1638400)
I0821 08:59:08.740779 32502 net.cpp:165] Memory required for data: 204391600
I0821 08:59:08.740788 32502 layer_factory.hpp:77] Creating layer L1_b3_cbr1_relu
I0821 08:59:08.740799 32502 net.cpp:100] Creating Layer L1_b3_cbr1_relu
I0821 08:59:08.740805 32502 net.cpp:434] L1_b3_cbr1_relu <- L1_b3_cbr1_bn_top
I0821 08:59:08.740813 32502 net.cpp:395] L1_b3_cbr1_relu -> L1_b3_cbr1_bn_top (in-place)
I0821 08:59:08.740823 32502 net.cpp:150] Setting up L1_b3_cbr1_relu
I0821 08:59:08.740829 32502 net.cpp:157] Top shape: 100 16 32 32 (1638400)
I0821 08:59:08.740833 32502 net.cpp:165] Memory required for data: 210945200
I0821 08:59:08.740839 32502 layer_factory.hpp:77] Creating layer L1_b3_cbr2_conv
I0821 08:59:08.740851 32502 net.cpp:100] Creating Layer L1_b3_cbr2_conv
I0821 08:59:08.740857 32502 net.cpp:434] L1_b3_cbr2_conv <- L1_b3_cbr1_bn_top
I0821 08:59:08.740869 32502 net.cpp:408] L1_b3_cbr2_conv -> L1_b3_cbr2_conv_top
I0821 08:59:08.741165 32502 net.cpp:150] Setting up L1_b3_cbr2_conv
I0821 08:59:08.741179 32502 net.cpp:157] Top shape: 100 16 32 32 (1638400)
I0821 08:59:08.741184 32502 net.cpp:165] Memory required for data: 217498800
I0821 08:59:08.741194 32502 layer_factory.hpp:77] Creating layer L1_b3_cbr2_bn
I0821 08:59:08.741210 32502 net.cpp:100] Creating Layer L1_b3_cbr2_bn
I0821 08:59:08.741224 32502 net.cpp:434] L1_b3_cbr2_bn <- L1_b3_cbr2_conv_top
I0821 08:59:08.741235 32502 net.cpp:408] L1_b3_cbr2_bn -> L1_b3_cbr2_bn_top
I0821 08:59:08.741462 32502 net.cpp:150] Setting up L1_b3_cbr2_bn
I0821 08:59:08.741477 32502 net.cpp:157] Top shape: 100 16 32 32 (1638400)
I0821 08:59:08.741482 32502 net.cpp:165] Memory required for data: 224052400
I0821 08:59:08.741492 32502 layer_factory.hpp:77] Creating layer L1_b3_cbr2_scale
I0821 08:59:08.741500 32502 net.cpp:100] Creating Layer L1_b3_cbr2_scale
I0821 08:59:08.741506 32502 net.cpp:434] L1_b3_cbr2_scale <- L1_b3_cbr2_bn_top
I0821 08:59:08.741513 32502 net.cpp:395] L1_b3_cbr2_scale -> L1_b3_cbr2_bn_top (in-place)
I0821 08:59:08.741569 32502 layer_factory.hpp:77] Creating layer L1_b3_cbr2_scale
I0821 08:59:08.741700 32502 net.cpp:150] Setting up L1_b3_cbr2_scale
I0821 08:59:08.741714 32502 net.cpp:157] Top shape: 100 16 32 32 (1638400)
I0821 08:59:08.741719 32502 net.cpp:165] Memory required for data: 230606000
I0821 08:59:08.741727 32502 layer_factory.hpp:77] Creating layer L1_b3_sum_eltwise
I0821 08:59:08.741739 32502 net.cpp:100] Creating Layer L1_b3_sum_eltwise
I0821 08:59:08.741758 32502 net.cpp:434] L1_b3_sum_eltwise <- L1_b3_cbr2_bn_top
I0821 08:59:08.741766 32502 net.cpp:434] L1_b3_sum_eltwise <- L1_b2_sum_eltwise_top_L1_b2_relu_0_split_1
I0821 08:59:08.741775 32502 net.cpp:408] L1_b3_sum_eltwise -> L1_b3_sum_eltwise_top
I0821 08:59:08.741807 32502 net.cpp:150] Setting up L1_b3_sum_eltwise
I0821 08:59:08.741819 32502 net.cpp:157] Top shape: 100 16 32 32 (1638400)
I0821 08:59:08.741824 32502 net.cpp:165] Memory required for data: 237159600
I0821 08:59:08.741829 32502 layer_factory.hpp:77] Creating layer L1_b3_relu
I0821 08:59:08.741837 32502 net.cpp:100] Creating Layer L1_b3_relu
I0821 08:59:08.741842 32502 net.cpp:434] L1_b3_relu <- L1_b3_sum_eltwise_top
I0821 08:59:08.741852 32502 net.cpp:395] L1_b3_relu -> L1_b3_sum_eltwise_top (in-place)
I0821 08:59:08.741861 32502 net.cpp:150] Setting up L1_b3_relu
I0821 08:59:08.741868 32502 net.cpp:157] Top shape: 100 16 32 32 (1638400)
I0821 08:59:08.741873 32502 net.cpp:165] Memory required for data: 243713200
I0821 08:59:08.741878 32502 layer_factory.hpp:77] Creating layer L1_b3_sum_eltwise_top_L1_b3_relu_0_split
I0821 08:59:08.741885 32502 net.cpp:100] Creating Layer L1_b3_sum_eltwise_top_L1_b3_relu_0_split
I0821 08:59:08.741890 32502 net.cpp:434] L1_b3_sum_eltwise_top_L1_b3_relu_0_split <- L1_b3_sum_eltwise_top
I0821 08:59:08.741900 32502 net.cpp:408] L1_b3_sum_eltwise_top_L1_b3_relu_0_split -> L1_b3_sum_eltwise_top_L1_b3_relu_0_split_0
I0821 08:59:08.741910 32502 net.cpp:408] L1_b3_sum_eltwise_top_L1_b3_relu_0_split -> L1_b3_sum_eltwise_top_L1_b3_relu_0_split_1
I0821 08:59:08.741951 32502 net.cpp:150] Setting up L1_b3_sum_eltwise_top_L1_b3_relu_0_split
I0821 08:59:08.741962 32502 net.cpp:157] Top shape: 100 16 32 32 (1638400)
I0821 08:59:08.741969 32502 net.cpp:157] Top shape: 100 16 32 32 (1638400)
I0821 08:59:08.741974 32502 net.cpp:165] Memory required for data: 256820400
I0821 08:59:08.741978 32502 layer_factory.hpp:77] Creating layer L1_b4_cbr1_conv
I0821 08:59:08.741993 32502 net.cpp:100] Creating Layer L1_b4_cbr1_conv
I0821 08:59:08.741999 32502 net.cpp:434] L1_b4_cbr1_conv <- L1_b3_sum_eltwise_top_L1_b3_relu_0_split_0
I0821 08:59:08.742008 32502 net.cpp:408] L1_b4_cbr1_conv -> L1_b4_cbr1_conv_top
I0821 08:59:08.742306 32502 net.cpp:150] Setting up L1_b4_cbr1_conv
I0821 08:59:08.742321 32502 net.cpp:157] Top shape: 100 16 32 32 (1638400)
I0821 08:59:08.742326 32502 net.cpp:165] Memory required for data: 263374000
I0821 08:59:08.742334 32502 layer_factory.hpp:77] Creating layer L1_b4_cbr1_bn
I0821 08:59:08.742347 32502 net.cpp:100] Creating Layer L1_b4_cbr1_bn
I0821 08:59:08.742352 32502 net.cpp:434] L1_b4_cbr1_bn <- L1_b4_cbr1_conv_top
I0821 08:59:08.742363 32502 net.cpp:408] L1_b4_cbr1_bn -> L1_b4_cbr1_bn_top
I0821 08:59:08.742594 32502 net.cpp:150] Setting up L1_b4_cbr1_bn
I0821 08:59:08.742607 32502 net.cpp:157] Top shape: 100 16 32 32 (1638400)
I0821 08:59:08.742612 32502 net.cpp:165] Memory required for data: 269927600
I0821 08:59:08.742630 32502 layer_factory.hpp:77] Creating layer L1_b4_cbr1_scale
I0821 08:59:08.742640 32502 net.cpp:100] Creating Layer L1_b4_cbr1_scale
I0821 08:59:08.742645 32502 net.cpp:434] L1_b4_cbr1_scale <- L1_b4_cbr1_bn_top
I0821 08:59:08.742655 32502 net.cpp:395] L1_b4_cbr1_scale -> L1_b4_cbr1_bn_top (in-place)
I0821 08:59:08.742709 32502 layer_factory.hpp:77] Creating layer L1_b4_cbr1_scale
I0821 08:59:08.742852 32502 net.cpp:150] Setting up L1_b4_cbr1_scale
I0821 08:59:08.742869 32502 net.cpp:157] Top shape: 100 16 32 32 (1638400)
I0821 08:59:08.742874 32502 net.cpp:165] Memory required for data: 276481200
I0821 08:59:08.742883 32502 layer_factory.hpp:77] Creating layer L1_b4_cbr1_relu
I0821 08:59:08.742892 32502 net.cpp:100] Creating Layer L1_b4_cbr1_relu
I0821 08:59:08.742897 32502 net.cpp:434] L1_b4_cbr1_relu <- L1_b4_cbr1_bn_top
I0821 08:59:08.742904 32502 net.cpp:395] L1_b4_cbr1_relu -> L1_b4_cbr1_bn_top (in-place)
I0821 08:59:08.742913 32502 net.cpp:150] Setting up L1_b4_cbr1_relu
I0821 08:59:08.742920 32502 net.cpp:157] Top shape: 100 16 32 32 (1638400)
I0821 08:59:08.742924 32502 net.cpp:165] Memory required for data: 283034800
I0821 08:59:08.742929 32502 layer_factory.hpp:77] Creating layer L1_b4_cbr2_conv
I0821 08:59:08.742943 32502 net.cpp:100] Creating Layer L1_b4_cbr2_conv
I0821 08:59:08.742949 32502 net.cpp:434] L1_b4_cbr2_conv <- L1_b4_cbr1_bn_top
I0821 08:59:08.742959 32502 net.cpp:408] L1_b4_cbr2_conv -> L1_b4_cbr2_conv_top
I0821 08:59:08.743265 32502 net.cpp:150] Setting up L1_b4_cbr2_conv
I0821 08:59:08.743279 32502 net.cpp:157] Top shape: 100 16 32 32 (1638400)
I0821 08:59:08.743285 32502 net.cpp:165] Memory required for data: 289588400
I0821 08:59:08.743294 32502 layer_factory.hpp:77] Creating layer L1_b4_cbr2_bn
I0821 08:59:08.743305 32502 net.cpp:100] Creating Layer L1_b4_cbr2_bn
I0821 08:59:08.743312 32502 net.cpp:434] L1_b4_cbr2_bn <- L1_b4_cbr2_conv_top
I0821 08:59:08.743322 32502 net.cpp:408] L1_b4_cbr2_bn -> L1_b4_cbr2_bn_top
I0821 08:59:08.743556 32502 net.cpp:150] Setting up L1_b4_cbr2_bn
I0821 08:59:08.743569 32502 net.cpp:157] Top shape: 100 16 32 32 (1638400)
I0821 08:59:08.743574 32502 net.cpp:165] Memory required for data: 296142000
I0821 08:59:08.743584 32502 layer_factory.hpp:77] Creating layer L1_b4_cbr2_scale
I0821 08:59:08.743593 32502 net.cpp:100] Creating Layer L1_b4_cbr2_scale
I0821 08:59:08.743599 32502 net.cpp:434] L1_b4_cbr2_scale <- L1_b4_cbr2_bn_top
I0821 08:59:08.743609 32502 net.cpp:395] L1_b4_cbr2_scale -> L1_b4_cbr2_bn_top (in-place)
I0821 08:59:08.743661 32502 layer_factory.hpp:77] Creating layer L1_b4_cbr2_scale
I0821 08:59:08.743800 32502 net.cpp:150] Setting up L1_b4_cbr2_scale
I0821 08:59:08.743816 32502 net.cpp:157] Top shape: 100 16 32 32 (1638400)
I0821 08:59:08.743821 32502 net.cpp:165] Memory required for data: 302695600
I0821 08:59:08.743831 32502 layer_factory.hpp:77] Creating layer L1_b4_sum_eltwise
I0821 08:59:08.743840 32502 net.cpp:100] Creating Layer L1_b4_sum_eltwise
I0821 08:59:08.743846 32502 net.cpp:434] L1_b4_sum_eltwise <- L1_b4_cbr2_bn_top
I0821 08:59:08.743852 32502 net.cpp:434] L1_b4_sum_eltwise <- L1_b3_sum_eltwise_top_L1_b3_relu_0_split_1
I0821 08:59:08.743863 32502 net.cpp:408] L1_b4_sum_eltwise -> L1_b4_sum_eltwise_top
I0821 08:59:08.743893 32502 net.cpp:150] Setting up L1_b4_sum_eltwise
I0821 08:59:08.743903 32502 net.cpp:157] Top shape: 100 16 32 32 (1638400)
I0821 08:59:08.743907 32502 net.cpp:165] Memory required for data: 309249200
I0821 08:59:08.743912 32502 layer_factory.hpp:77] Creating layer L1_b4_relu
I0821 08:59:08.743927 32502 net.cpp:100] Creating Layer L1_b4_relu
I0821 08:59:08.743932 32502 net.cpp:434] L1_b4_relu <- L1_b4_sum_eltwise_top
I0821 08:59:08.743939 32502 net.cpp:395] L1_b4_relu -> L1_b4_sum_eltwise_top (in-place)
I0821 08:59:08.743948 32502 net.cpp:150] Setting up L1_b4_relu
I0821 08:59:08.743955 32502 net.cpp:157] Top shape: 100 16 32 32 (1638400)
I0821 08:59:08.743960 32502 net.cpp:165] Memory required for data: 315802800
I0821 08:59:08.743964 32502 layer_factory.hpp:77] Creating layer L1_b4_sum_eltwise_top_L1_b4_relu_0_split
I0821 08:59:08.743983 32502 net.cpp:100] Creating Layer L1_b4_sum_eltwise_top_L1_b4_relu_0_split
I0821 08:59:08.743988 32502 net.cpp:434] L1_b4_sum_eltwise_top_L1_b4_relu_0_split <- L1_b4_sum_eltwise_top
I0821 08:59:08.743996 32502 net.cpp:408] L1_b4_sum_eltwise_top_L1_b4_relu_0_split -> L1_b4_sum_eltwise_top_L1_b4_relu_0_split_0
I0821 08:59:08.744006 32502 net.cpp:408] L1_b4_sum_eltwise_top_L1_b4_relu_0_split -> L1_b4_sum_eltwise_top_L1_b4_relu_0_split_1
I0821 08:59:08.744047 32502 net.cpp:150] Setting up L1_b4_sum_eltwise_top_L1_b4_relu_0_split
I0821 08:59:08.744061 32502 net.cpp:157] Top shape: 100 16 32 32 (1638400)
I0821 08:59:08.744068 32502 net.cpp:157] Top shape: 100 16 32 32 (1638400)
I0821 08:59:08.744073 32502 net.cpp:165] Memory required for data: 328910000
I0821 08:59:08.744078 32502 layer_factory.hpp:77] Creating layer L1_b5_cbr1_conv
I0821 08:59:08.744089 32502 net.cpp:100] Creating Layer L1_b5_cbr1_conv
I0821 08:59:08.744096 32502 net.cpp:434] L1_b5_cbr1_conv <- L1_b4_sum_eltwise_top_L1_b4_relu_0_split_0
I0821 08:59:08.744104 32502 net.cpp:408] L1_b5_cbr1_conv -> L1_b5_cbr1_conv_top
I0821 08:59:08.744406 32502 net.cpp:150] Setting up L1_b5_cbr1_conv
I0821 08:59:08.744421 32502 net.cpp:157] Top shape: 100 16 32 32 (1638400)
I0821 08:59:08.744426 32502 net.cpp:165] Memory required for data: 335463600
I0821 08:59:08.744446 32502 layer_factory.hpp:77] Creating layer L1_b5_cbr1_bn
I0821 08:59:08.744459 32502 net.cpp:100] Creating Layer L1_b5_cbr1_bn
I0821 08:59:08.744465 32502 net.cpp:434] L1_b5_cbr1_bn <- L1_b5_cbr1_conv_top
I0821 08:59:08.744473 32502 net.cpp:408] L1_b5_cbr1_bn -> L1_b5_cbr1_bn_top
I0821 08:59:08.744706 32502 net.cpp:150] Setting up L1_b5_cbr1_bn
I0821 08:59:08.744719 32502 net.cpp:157] Top shape: 100 16 32 32 (1638400)
I0821 08:59:08.744724 32502 net.cpp:165] Memory required for data: 342017200
I0821 08:59:08.744735 32502 layer_factory.hpp:77] Creating layer L1_b5_cbr1_scale
I0821 08:59:08.744748 32502 net.cpp:100] Creating Layer L1_b5_cbr1_scale
I0821 08:59:08.744755 32502 net.cpp:434] L1_b5_cbr1_scale <- L1_b5_cbr1_bn_top
I0821 08:59:08.744768 32502 net.cpp:395] L1_b5_cbr1_scale -> L1_b5_cbr1_bn_top (in-place)
I0821 08:59:08.744822 32502 layer_factory.hpp:77] Creating layer L1_b5_cbr1_scale
I0821 08:59:08.744957 32502 net.cpp:150] Setting up L1_b5_cbr1_scale
I0821 08:59:08.744972 32502 net.cpp:157] Top shape: 100 16 32 32 (1638400)
I0821 08:59:08.744977 32502 net.cpp:165] Memory required for data: 348570800
I0821 08:59:08.744987 32502 layer_factory.hpp:77] Creating layer L1_b5_cbr1_relu
I0821 08:59:08.744995 32502 net.cpp:100] Creating Layer L1_b5_cbr1_relu
I0821 08:59:08.745000 32502 net.cpp:434] L1_b5_cbr1_relu <- L1_b5_cbr1_bn_top
I0821 08:59:08.745008 32502 net.cpp:395] L1_b5_cbr1_relu -> L1_b5_cbr1_bn_top (in-place)
I0821 08:59:08.745018 32502 net.cpp:150] Setting up L1_b5_cbr1_relu
I0821 08:59:08.745024 32502 net.cpp:157] Top shape: 100 16 32 32 (1638400)
I0821 08:59:08.745028 32502 net.cpp:165] Memory required for data: 355124400
I0821 08:59:08.745033 32502 layer_factory.hpp:77] Creating layer L1_b5_cbr2_conv
I0821 08:59:08.745048 32502 net.cpp:100] Creating Layer L1_b5_cbr2_conv
I0821 08:59:08.745052 32502 net.cpp:434] L1_b5_cbr2_conv <- L1_b5_cbr1_bn_top
I0821 08:59:08.745064 32502 net.cpp:408] L1_b5_cbr2_conv -> L1_b5_cbr2_conv_top
I0821 08:59:08.745368 32502 net.cpp:150] Setting up L1_b5_cbr2_conv
I0821 08:59:08.745383 32502 net.cpp:157] Top shape: 100 16 32 32 (1638400)
I0821 08:59:08.745388 32502 net.cpp:165] Memory required for data: 361678000
I0821 08:59:08.745395 32502 layer_factory.hpp:77] Creating layer L1_b5_cbr2_bn
I0821 08:59:08.745409 32502 net.cpp:100] Creating Layer L1_b5_cbr2_bn
I0821 08:59:08.745415 32502 net.cpp:434] L1_b5_cbr2_bn <- L1_b5_cbr2_conv_top
I0821 08:59:08.745429 32502 net.cpp:408] L1_b5_cbr2_bn -> L1_b5_cbr2_bn_top
I0821 08:59:08.745654 32502 net.cpp:150] Setting up L1_b5_cbr2_bn
I0821 08:59:08.745667 32502 net.cpp:157] Top shape: 100 16 32 32 (1638400)
I0821 08:59:08.745672 32502 net.cpp:165] Memory required for data: 368231600
I0821 08:59:08.745689 32502 layer_factory.hpp:77] Creating layer L1_b5_cbr2_scale
I0821 08:59:08.745699 32502 net.cpp:100] Creating Layer L1_b5_cbr2_scale
I0821 08:59:08.745705 32502 net.cpp:434] L1_b5_cbr2_scale <- L1_b5_cbr2_bn_top
I0821 08:59:08.745712 32502 net.cpp:395] L1_b5_cbr2_scale -> L1_b5_cbr2_bn_top (in-place)
I0821 08:59:08.745774 32502 layer_factory.hpp:77] Creating layer L1_b5_cbr2_scale
I0821 08:59:08.745908 32502 net.cpp:150] Setting up L1_b5_cbr2_scale
I0821 08:59:08.745921 32502 net.cpp:157] Top shape: 100 16 32 32 (1638400)
I0821 08:59:08.745926 32502 net.cpp:165] Memory required for data: 374785200
I0821 08:59:08.745935 32502 layer_factory.hpp:77] Creating layer L1_b5_sum_eltwise
I0821 08:59:08.745949 32502 net.cpp:100] Creating Layer L1_b5_sum_eltwise
I0821 08:59:08.745955 32502 net.cpp:434] L1_b5_sum_eltwise <- L1_b5_cbr2_bn_top
I0821 08:59:08.745962 32502 net.cpp:434] L1_b5_sum_eltwise <- L1_b4_sum_eltwise_top_L1_b4_relu_0_split_1
I0821 08:59:08.745970 32502 net.cpp:408] L1_b5_sum_eltwise -> L1_b5_sum_eltwise_top
I0821 08:59:08.746002 32502 net.cpp:150] Setting up L1_b5_sum_eltwise
I0821 08:59:08.746012 32502 net.cpp:157] Top shape: 100 16 32 32 (1638400)
I0821 08:59:08.746017 32502 net.cpp:165] Memory required for data: 381338800
I0821 08:59:08.746022 32502 layer_factory.hpp:77] Creating layer L1_b5_relu
I0821 08:59:08.746031 32502 net.cpp:100] Creating Layer L1_b5_relu
I0821 08:59:08.746035 32502 net.cpp:434] L1_b5_relu <- L1_b5_sum_eltwise_top
I0821 08:59:08.746045 32502 net.cpp:395] L1_b5_relu -> L1_b5_sum_eltwise_top (in-place)
I0821 08:59:08.746054 32502 net.cpp:150] Setting up L1_b5_relu
I0821 08:59:08.746062 32502 net.cpp:157] Top shape: 100 16 32 32 (1638400)
I0821 08:59:08.746067 32502 net.cpp:165] Memory required for data: 387892400
I0821 08:59:08.746070 32502 layer_factory.hpp:77] Creating layer L1_b5_sum_eltwise_top_L1_b5_relu_0_split
I0821 08:59:08.746078 32502 net.cpp:100] Creating Layer L1_b5_sum_eltwise_top_L1_b5_relu_0_split
I0821 08:59:08.746083 32502 net.cpp:434] L1_b5_sum_eltwise_top_L1_b5_relu_0_split <- L1_b5_sum_eltwise_top
I0821 08:59:08.746093 32502 net.cpp:408] L1_b5_sum_eltwise_top_L1_b5_relu_0_split -> L1_b5_sum_eltwise_top_L1_b5_relu_0_split_0
I0821 08:59:08.746101 32502 net.cpp:408] L1_b5_sum_eltwise_top_L1_b5_relu_0_split -> L1_b5_sum_eltwise_top_L1_b5_relu_0_split_1
I0821 08:59:08.746142 32502 net.cpp:150] Setting up L1_b5_sum_eltwise_top_L1_b5_relu_0_split
I0821 08:59:08.746155 32502 net.cpp:157] Top shape: 100 16 32 32 (1638400)
I0821 08:59:08.746160 32502 net.cpp:157] Top shape: 100 16 32 32 (1638400)
I0821 08:59:08.746165 32502 net.cpp:165] Memory required for data: 400999600
I0821 08:59:08.746170 32502 layer_factory.hpp:77] Creating layer L1_b6_cbr1_conv
I0821 08:59:08.746183 32502 net.cpp:100] Creating Layer L1_b6_cbr1_conv
I0821 08:59:08.746191 32502 net.cpp:434] L1_b6_cbr1_conv <- L1_b5_sum_eltwise_top_L1_b5_relu_0_split_0
I0821 08:59:08.746198 32502 net.cpp:408] L1_b6_cbr1_conv -> L1_b6_cbr1_conv_top
I0821 08:59:08.746502 32502 net.cpp:150] Setting up L1_b6_cbr1_conv
I0821 08:59:08.746516 32502 net.cpp:157] Top shape: 100 16 32 32 (1638400)
I0821 08:59:08.746521 32502 net.cpp:165] Memory required for data: 407553200
I0821 08:59:08.746531 32502 layer_factory.hpp:77] Creating layer L1_b6_cbr1_bn
I0821 08:59:08.746541 32502 net.cpp:100] Creating Layer L1_b6_cbr1_bn
I0821 08:59:08.746548 32502 net.cpp:434] L1_b6_cbr1_bn <- L1_b6_cbr1_conv_top
I0821 08:59:08.746558 32502 net.cpp:408] L1_b6_cbr1_bn -> L1_b6_cbr1_bn_top
I0821 08:59:08.746795 32502 net.cpp:150] Setting up L1_b6_cbr1_bn
I0821 08:59:08.746809 32502 net.cpp:157] Top shape: 100 16 32 32 (1638400)
I0821 08:59:08.746814 32502 net.cpp:165] Memory required for data: 414106800
I0821 08:59:08.746825 32502 layer_factory.hpp:77] Creating layer L1_b6_cbr1_scale
I0821 08:59:08.746834 32502 net.cpp:100] Creating Layer L1_b6_cbr1_scale
I0821 08:59:08.746840 32502 net.cpp:434] L1_b6_cbr1_scale <- L1_b6_cbr1_bn_top
I0821 08:59:08.746853 32502 net.cpp:395] L1_b6_cbr1_scale -> L1_b6_cbr1_bn_top (in-place)
I0821 08:59:08.746914 32502 layer_factory.hpp:77] Creating layer L1_b6_cbr1_scale
I0821 08:59:08.747051 32502 net.cpp:150] Setting up L1_b6_cbr1_scale
I0821 08:59:08.747066 32502 net.cpp:157] Top shape: 100 16 32 32 (1638400)
I0821 08:59:08.747071 32502 net.cpp:165] Memory required for data: 420660400
I0821 08:59:08.747081 32502 layer_factory.hpp:77] Creating layer L1_b6_cbr1_relu
I0821 08:59:08.747088 32502 net.cpp:100] Creating Layer L1_b6_cbr1_relu
I0821 08:59:08.747094 32502 net.cpp:434] L1_b6_cbr1_relu <- L1_b6_cbr1_bn_top
I0821 08:59:08.747102 32502 net.cpp:395] L1_b6_cbr1_relu -> L1_b6_cbr1_bn_top (in-place)
I0821 08:59:08.747112 32502 net.cpp:150] Setting up L1_b6_cbr1_relu
I0821 08:59:08.747118 32502 net.cpp:157] Top shape: 100 16 32 32 (1638400)
I0821 08:59:08.747123 32502 net.cpp:165] Memory required for data: 427214000
I0821 08:59:08.747128 32502 layer_factory.hpp:77] Creating layer L1_b6_cbr2_conv
I0821 08:59:08.747141 32502 net.cpp:100] Creating Layer L1_b6_cbr2_conv
I0821 08:59:08.747148 32502 net.cpp:434] L1_b6_cbr2_conv <- L1_b6_cbr1_bn_top
I0821 08:59:08.747159 32502 net.cpp:408] L1_b6_cbr2_conv -> L1_b6_cbr2_conv_top
I0821 08:59:08.747467 32502 net.cpp:150] Setting up L1_b6_cbr2_conv
I0821 08:59:08.747481 32502 net.cpp:157] Top shape: 100 16 32 32 (1638400)
I0821 08:59:08.747486 32502 net.cpp:165] Memory required for data: 433767600
I0821 08:59:08.747495 32502 layer_factory.hpp:77] Creating layer L1_b6_cbr2_bn
I0821 08:59:08.747508 32502 net.cpp:100] Creating Layer L1_b6_cbr2_bn
I0821 08:59:08.747514 32502 net.cpp:434] L1_b6_cbr2_bn <- L1_b6_cbr2_conv_top
I0821 08:59:08.747524 32502 net.cpp:408] L1_b6_cbr2_bn -> L1_b6_cbr2_bn_top
I0821 08:59:08.747762 32502 net.cpp:150] Setting up L1_b6_cbr2_bn
I0821 08:59:08.747776 32502 net.cpp:157] Top shape: 100 16 32 32 (1638400)
I0821 08:59:08.747781 32502 net.cpp:165] Memory required for data: 440321200
I0821 08:59:08.747792 32502 layer_factory.hpp:77] Creating layer L1_b6_cbr2_scale
I0821 08:59:08.747800 32502 net.cpp:100] Creating Layer L1_b6_cbr2_scale
I0821 08:59:08.747807 32502 net.cpp:434] L1_b6_cbr2_scale <- L1_b6_cbr2_bn_top
I0821 08:59:08.747813 32502 net.cpp:395] L1_b6_cbr2_scale -> L1_b6_cbr2_bn_top (in-place)
I0821 08:59:08.747869 32502 layer_factory.hpp:77] Creating layer L1_b6_cbr2_scale
I0821 08:59:08.748008 32502 net.cpp:150] Setting up L1_b6_cbr2_scale
I0821 08:59:08.748021 32502 net.cpp:157] Top shape: 100 16 32 32 (1638400)
I0821 08:59:08.748026 32502 net.cpp:165] Memory required for data: 446874800
I0821 08:59:08.748035 32502 layer_factory.hpp:77] Creating layer L1_b6_sum_eltwise
I0821 08:59:08.748051 32502 net.cpp:100] Creating Layer L1_b6_sum_eltwise
I0821 08:59:08.748057 32502 net.cpp:434] L1_b6_sum_eltwise <- L1_b6_cbr2_bn_top
I0821 08:59:08.748065 32502 net.cpp:434] L1_b6_sum_eltwise <- L1_b5_sum_eltwise_top_L1_b5_relu_0_split_1
I0821 08:59:08.748076 32502 net.cpp:408] L1_b6_sum_eltwise -> L1_b6_sum_eltwise_top
I0821 08:59:08.748107 32502 net.cpp:150] Setting up L1_b6_sum_eltwise
I0821 08:59:08.748122 32502 net.cpp:157] Top shape: 100 16 32 32 (1638400)
I0821 08:59:08.748127 32502 net.cpp:165] Memory required for data: 453428400
I0821 08:59:08.748132 32502 layer_factory.hpp:77] Creating layer L1_b6_relu
I0821 08:59:08.748141 32502 net.cpp:100] Creating Layer L1_b6_relu
I0821 08:59:08.748147 32502 net.cpp:434] L1_b6_relu <- L1_b6_sum_eltwise_top
I0821 08:59:08.748153 32502 net.cpp:395] L1_b6_relu -> L1_b6_sum_eltwise_top (in-place)
I0821 08:59:08.748162 32502 net.cpp:150] Setting up L1_b6_relu
I0821 08:59:08.748169 32502 net.cpp:157] Top shape: 100 16 32 32 (1638400)
I0821 08:59:08.748173 32502 net.cpp:165] Memory required for data: 459982000
I0821 08:59:08.748178 32502 layer_factory.hpp:77] Creating layer L1_b6_sum_eltwise_top_L1_b6_relu_0_split
I0821 08:59:08.748191 32502 net.cpp:100] Creating Layer L1_b6_sum_eltwise_top_L1_b6_relu_0_split
I0821 08:59:08.748196 32502 net.cpp:434] L1_b6_sum_eltwise_top_L1_b6_relu_0_split <- L1_b6_sum_eltwise_top
I0821 08:59:08.748204 32502 net.cpp:408] L1_b6_sum_eltwise_top_L1_b6_relu_0_split -> L1_b6_sum_eltwise_top_L1_b6_relu_0_split_0
I0821 08:59:08.748222 32502 net.cpp:408] L1_b6_sum_eltwise_top_L1_b6_relu_0_split -> L1_b6_sum_eltwise_top_L1_b6_relu_0_split_1
I0821 08:59:08.748267 32502 net.cpp:150] Setting up L1_b6_sum_eltwise_top_L1_b6_relu_0_split
I0821 08:59:08.748281 32502 net.cpp:157] Top shape: 100 16 32 32 (1638400)
I0821 08:59:08.748287 32502 net.cpp:157] Top shape: 100 16 32 32 (1638400)
I0821 08:59:08.748291 32502 net.cpp:165] Memory required for data: 473089200
I0821 08:59:08.748296 32502 layer_factory.hpp:77] Creating layer L1_b7_cbr1_conv
I0821 08:59:08.748308 32502 net.cpp:100] Creating Layer L1_b7_cbr1_conv
I0821 08:59:08.748313 32502 net.cpp:434] L1_b7_cbr1_conv <- L1_b6_sum_eltwise_top_L1_b6_relu_0_split_0
I0821 08:59:08.748325 32502 net.cpp:408] L1_b7_cbr1_conv -> L1_b7_cbr1_conv_top
I0821 08:59:08.748634 32502 net.cpp:150] Setting up L1_b7_cbr1_conv
I0821 08:59:08.748648 32502 net.cpp:157] Top shape: 100 16 32 32 (1638400)
I0821 08:59:08.748653 32502 net.cpp:165] Memory required for data: 479642800
I0821 08:59:08.748662 32502 layer_factory.hpp:77] Creating layer L1_b7_cbr1_bn
I0821 08:59:08.748672 32502 net.cpp:100] Creating Layer L1_b7_cbr1_bn
I0821 08:59:08.748677 32502 net.cpp:434] L1_b7_cbr1_bn <- L1_b7_cbr1_conv_top
I0821 08:59:08.748685 32502 net.cpp:408] L1_b7_cbr1_bn -> L1_b7_cbr1_bn_top
I0821 08:59:08.748927 32502 net.cpp:150] Setting up L1_b7_cbr1_bn
I0821 08:59:08.748941 32502 net.cpp:157] Top shape: 100 16 32 32 (1638400)
I0821 08:59:08.748945 32502 net.cpp:165] Memory required for data: 486196400
I0821 08:59:08.748956 32502 layer_factory.hpp:77] Creating layer L1_b7_cbr1_scale
I0821 08:59:08.748968 32502 net.cpp:100] Creating Layer L1_b7_cbr1_scale
I0821 08:59:08.748975 32502 net.cpp:434] L1_b7_cbr1_scale <- L1_b7_cbr1_bn_top
I0821 08:59:08.748982 32502 net.cpp:395] L1_b7_cbr1_scale -> L1_b7_cbr1_bn_top (in-place)
I0821 08:59:08.749037 32502 layer_factory.hpp:77] Creating layer L1_b7_cbr1_scale
I0821 08:59:08.749173 32502 net.cpp:150] Setting up L1_b7_cbr1_scale
I0821 08:59:08.749186 32502 net.cpp:157] Top shape: 100 16 32 32 (1638400)
I0821 08:59:08.749191 32502 net.cpp:165] Memory required for data: 492750000
I0821 08:59:08.749200 32502 layer_factory.hpp:77] Creating layer L1_b7_cbr1_relu
I0821 08:59:08.749208 32502 net.cpp:100] Creating Layer L1_b7_cbr1_relu
I0821 08:59:08.749214 32502 net.cpp:434] L1_b7_cbr1_relu <- L1_b7_cbr1_bn_top
I0821 08:59:08.749224 32502 net.cpp:395] L1_b7_cbr1_relu -> L1_b7_cbr1_bn_top (in-place)
I0821 08:59:08.749234 32502 net.cpp:150] Setting up L1_b7_cbr1_relu
I0821 08:59:08.749241 32502 net.cpp:157] Top shape: 100 16 32 32 (1638400)
I0821 08:59:08.749245 32502 net.cpp:165] Memory required for data: 499303600
I0821 08:59:08.749250 32502 layer_factory.hpp:77] Creating layer L1_b7_cbr2_conv
I0821 08:59:08.749265 32502 net.cpp:100] Creating Layer L1_b7_cbr2_conv
I0821 08:59:08.749271 32502 net.cpp:434] L1_b7_cbr2_conv <- L1_b7_cbr1_bn_top
I0821 08:59:08.749279 32502 net.cpp:408] L1_b7_cbr2_conv -> L1_b7_cbr2_conv_top
I0821 08:59:08.749581 32502 net.cpp:150] Setting up L1_b7_cbr2_conv
I0821 08:59:08.749595 32502 net.cpp:157] Top shape: 100 16 32 32 (1638400)
I0821 08:59:08.749600 32502 net.cpp:165] Memory required for data: 505857200
I0821 08:59:08.749608 32502 layer_factory.hpp:77] Creating layer L1_b7_cbr2_bn
I0821 08:59:08.749620 32502 net.cpp:100] Creating Layer L1_b7_cbr2_bn
I0821 08:59:08.749626 32502 net.cpp:434] L1_b7_cbr2_bn <- L1_b7_cbr2_conv_top
I0821 08:59:08.749634 32502 net.cpp:408] L1_b7_cbr2_bn -> L1_b7_cbr2_bn_top
I0821 08:59:08.749881 32502 net.cpp:150] Setting up L1_b7_cbr2_bn
I0821 08:59:08.749896 32502 net.cpp:157] Top shape: 100 16 32 32 (1638400)
I0821 08:59:08.749900 32502 net.cpp:165] Memory required for data: 512410800
I0821 08:59:08.749912 32502 layer_factory.hpp:77] Creating layer L1_b7_cbr2_scale
I0821 08:59:08.749919 32502 net.cpp:100] Creating Layer L1_b7_cbr2_scale
I0821 08:59:08.749925 32502 net.cpp:434] L1_b7_cbr2_scale <- L1_b7_cbr2_bn_top
I0821 08:59:08.749936 32502 net.cpp:395] L1_b7_cbr2_scale -> L1_b7_cbr2_bn_top (in-place)
I0821 08:59:08.749997 32502 layer_factory.hpp:77] Creating layer L1_b7_cbr2_scale
I0821 08:59:08.750138 32502 net.cpp:150] Setting up L1_b7_cbr2_scale
I0821 08:59:08.750151 32502 net.cpp:157] Top shape: 100 16 32 32 (1638400)
I0821 08:59:08.750156 32502 net.cpp:165] Memory required for data: 518964400
I0821 08:59:08.750165 32502 layer_factory.hpp:77] Creating layer L1_b7_sum_eltwise
I0821 08:59:08.750174 32502 net.cpp:100] Creating Layer L1_b7_sum_eltwise
I0821 08:59:08.750180 32502 net.cpp:434] L1_b7_sum_eltwise <- L1_b7_cbr2_bn_top
I0821 08:59:08.750187 32502 net.cpp:434] L1_b7_sum_eltwise <- L1_b6_sum_eltwise_top_L1_b6_relu_0_split_1
I0821 08:59:08.750198 32502 net.cpp:408] L1_b7_sum_eltwise -> L1_b7_sum_eltwise_top
I0821 08:59:08.750229 32502 net.cpp:150] Setting up L1_b7_sum_eltwise
I0821 08:59:08.750241 32502 net.cpp:157] Top shape: 100 16 32 32 (1638400)
I0821 08:59:08.750247 32502 net.cpp:165] Memory required for data: 525518000
I0821 08:59:08.750252 32502 layer_factory.hpp:77] Creating layer L1_b7_relu
I0821 08:59:08.750259 32502 net.cpp:100] Creating Layer L1_b7_relu
I0821 08:59:08.750264 32502 net.cpp:434] L1_b7_relu <- L1_b7_sum_eltwise_top
I0821 08:59:08.750272 32502 net.cpp:395] L1_b7_relu -> L1_b7_sum_eltwise_top (in-place)
I0821 08:59:08.750280 32502 net.cpp:150] Setting up L1_b7_relu
I0821 08:59:08.750288 32502 net.cpp:157] Top shape: 100 16 32 32 (1638400)
I0821 08:59:08.750293 32502 net.cpp:165] Memory required for data: 532071600
I0821 08:59:08.750298 32502 layer_factory.hpp:77] Creating layer L1_b7_sum_eltwise_top_L1_b7_relu_0_split
I0821 08:59:08.750308 32502 net.cpp:100] Creating Layer L1_b7_sum_eltwise_top_L1_b7_relu_0_split
I0821 08:59:08.750313 32502 net.cpp:434] L1_b7_sum_eltwise_top_L1_b7_relu_0_split <- L1_b7_sum_eltwise_top
I0821 08:59:08.750319 32502 net.cpp:408] L1_b7_sum_eltwise_top_L1_b7_relu_0_split -> L1_b7_sum_eltwise_top_L1_b7_relu_0_split_0
I0821 08:59:08.750329 32502 net.cpp:408] L1_b7_sum_eltwise_top_L1_b7_relu_0_split -> L1_b7_sum_eltwise_top_L1_b7_relu_0_split_1
I0821 08:59:08.750373 32502 net.cpp:150] Setting up L1_b7_sum_eltwise_top_L1_b7_relu_0_split
I0821 08:59:08.750385 32502 net.cpp:157] Top shape: 100 16 32 32 (1638400)
I0821 08:59:08.750391 32502 net.cpp:157] Top shape: 100 16 32 32 (1638400)
I0821 08:59:08.750396 32502 net.cpp:165] Memory required for data: 545178800
I0821 08:59:08.750401 32502 layer_factory.hpp:77] Creating layer L1_b8_cbr1_conv
I0821 08:59:08.750411 32502 net.cpp:100] Creating Layer L1_b8_cbr1_conv
I0821 08:59:08.750417 32502 net.cpp:434] L1_b8_cbr1_conv <- L1_b7_sum_eltwise_top_L1_b7_relu_0_split_0
I0821 08:59:08.750429 32502 net.cpp:408] L1_b8_cbr1_conv -> L1_b8_cbr1_conv_top
I0821 08:59:08.750741 32502 net.cpp:150] Setting up L1_b8_cbr1_conv
I0821 08:59:08.750761 32502 net.cpp:157] Top shape: 100 16 32 32 (1638400)
I0821 08:59:08.750766 32502 net.cpp:165] Memory required for data: 551732400
I0821 08:59:08.750774 32502 layer_factory.hpp:77] Creating layer L1_b8_cbr1_bn
I0821 08:59:08.750783 32502 net.cpp:100] Creating Layer L1_b8_cbr1_bn
I0821 08:59:08.750789 32502 net.cpp:434] L1_b8_cbr1_bn <- L1_b8_cbr1_conv_top
I0821 08:59:08.750797 32502 net.cpp:408] L1_b8_cbr1_bn -> L1_b8_cbr1_bn_top
I0821 08:59:08.751037 32502 net.cpp:150] Setting up L1_b8_cbr1_bn
I0821 08:59:08.751050 32502 net.cpp:157] Top shape: 100 16 32 32 (1638400)
I0821 08:59:08.751055 32502 net.cpp:165] Memory required for data: 558286000
I0821 08:59:08.751066 32502 layer_factory.hpp:77] Creating layer L1_b8_cbr1_scale
I0821 08:59:08.751077 32502 net.cpp:100] Creating Layer L1_b8_cbr1_scale
I0821 08:59:08.751083 32502 net.cpp:434] L1_b8_cbr1_scale <- L1_b8_cbr1_bn_top
I0821 08:59:08.751091 32502 net.cpp:395] L1_b8_cbr1_scale -> L1_b8_cbr1_bn_top (in-place)
I0821 08:59:08.751152 32502 layer_factory.hpp:77] Creating layer L1_b8_cbr1_scale
I0821 08:59:08.751294 32502 net.cpp:150] Setting up L1_b8_cbr1_scale
I0821 08:59:08.751307 32502 net.cpp:157] Top shape: 100 16 32 32 (1638400)
I0821 08:59:08.751312 32502 net.cpp:165] Memory required for data: 564839600
I0821 08:59:08.751328 32502 layer_factory.hpp:77] Creating layer L1_b8_cbr1_relu
I0821 08:59:08.751336 32502 net.cpp:100] Creating Layer L1_b8_cbr1_relu
I0821 08:59:08.751343 32502 net.cpp:434] L1_b8_cbr1_relu <- L1_b8_cbr1_bn_top
I0821 08:59:08.751353 32502 net.cpp:395] L1_b8_cbr1_relu -> L1_b8_cbr1_bn_top (in-place)
I0821 08:59:08.751363 32502 net.cpp:150] Setting up L1_b8_cbr1_relu
I0821 08:59:08.751369 32502 net.cpp:157] Top shape: 100 16 32 32 (1638400)
I0821 08:59:08.751374 32502 net.cpp:165] Memory required for data: 571393200
I0821 08:59:08.751379 32502 layer_factory.hpp:77] Creating layer L1_b8_cbr2_conv
I0821 08:59:08.751392 32502 net.cpp:100] Creating Layer L1_b8_cbr2_conv
I0821 08:59:08.751399 32502 net.cpp:434] L1_b8_cbr2_conv <- L1_b8_cbr1_bn_top
I0821 08:59:08.751406 32502 net.cpp:408] L1_b8_cbr2_conv -> L1_b8_cbr2_conv_top
I0821 08:59:08.751718 32502 net.cpp:150] Setting up L1_b8_cbr2_conv
I0821 08:59:08.751732 32502 net.cpp:157] Top shape: 100 16 32 32 (1638400)
I0821 08:59:08.751737 32502 net.cpp:165] Memory required for data: 577946800
I0821 08:59:08.751751 32502 layer_factory.hpp:77] Creating layer L1_b8_cbr2_bn
I0821 08:59:08.751765 32502 net.cpp:100] Creating Layer L1_b8_cbr2_bn
I0821 08:59:08.751771 32502 net.cpp:434] L1_b8_cbr2_bn <- L1_b8_cbr2_conv_top
I0821 08:59:08.751780 32502 net.cpp:408] L1_b8_cbr2_bn -> L1_b8_cbr2_bn_top
I0821 08:59:08.752019 32502 net.cpp:150] Setting up L1_b8_cbr2_bn
I0821 08:59:08.752032 32502 net.cpp:157] Top shape: 100 16 32 32 (1638400)
I0821 08:59:08.752038 32502 net.cpp:165] Memory required for data: 584500400
I0821 08:59:08.752048 32502 layer_factory.hpp:77] Creating layer L1_b8_cbr2_scale
I0821 08:59:08.752058 32502 net.cpp:100] Creating Layer L1_b8_cbr2_scale
I0821 08:59:08.752063 32502 net.cpp:434] L1_b8_cbr2_scale <- L1_b8_cbr2_bn_top
I0821 08:59:08.752074 32502 net.cpp:395] L1_b8_cbr2_scale -> L1_b8_cbr2_bn_top (in-place)
I0821 08:59:08.752128 32502 layer_factory.hpp:77] Creating layer L1_b8_cbr2_scale
I0821 08:59:08.752265 32502 net.cpp:150] Setting up L1_b8_cbr2_scale
I0821 08:59:08.752280 32502 net.cpp:157] Top shape: 100 16 32 32 (1638400)
I0821 08:59:08.752285 32502 net.cpp:165] Memory required for data: 591054000
I0821 08:59:08.752295 32502 layer_factory.hpp:77] Creating layer L1_b8_sum_eltwise
I0821 08:59:08.752303 32502 net.cpp:100] Creating Layer L1_b8_sum_eltwise
I0821 08:59:08.752310 32502 net.cpp:434] L1_b8_sum_eltwise <- L1_b8_cbr2_bn_top
I0821 08:59:08.752316 32502 net.cpp:434] L1_b8_sum_eltwise <- L1_b7_sum_eltwise_top_L1_b7_relu_0_split_1
I0821 08:59:08.752327 32502 net.cpp:408] L1_b8_sum_eltwise -> L1_b8_sum_eltwise_top
I0821 08:59:08.752358 32502 net.cpp:150] Setting up L1_b8_sum_eltwise
I0821 08:59:08.752368 32502 net.cpp:157] Top shape: 100 16 32 32 (1638400)
I0821 08:59:08.752372 32502 net.cpp:165] Memory required for data: 597607600
I0821 08:59:08.752377 32502 layer_factory.hpp:77] Creating layer L1_b8_relu
I0821 08:59:08.752388 32502 net.cpp:100] Creating Layer L1_b8_relu
I0821 08:59:08.752394 32502 net.cpp:434] L1_b8_relu <- L1_b8_sum_eltwise_top
I0821 08:59:08.752401 32502 net.cpp:395] L1_b8_relu -> L1_b8_sum_eltwise_top (in-place)
I0821 08:59:08.752410 32502 net.cpp:150] Setting up L1_b8_relu
I0821 08:59:08.752418 32502 net.cpp:157] Top shape: 100 16 32 32 (1638400)
I0821 08:59:08.752421 32502 net.cpp:165] Memory required for data: 604161200
I0821 08:59:08.752426 32502 layer_factory.hpp:77] Creating layer L1_b8_sum_eltwise_top_L1_b8_relu_0_split
I0821 08:59:08.752436 32502 net.cpp:100] Creating Layer L1_b8_sum_eltwise_top_L1_b8_relu_0_split
I0821 08:59:08.752441 32502 net.cpp:434] L1_b8_sum_eltwise_top_L1_b8_relu_0_split <- L1_b8_sum_eltwise_top
I0821 08:59:08.752449 32502 net.cpp:408] L1_b8_sum_eltwise_top_L1_b8_relu_0_split -> L1_b8_sum_eltwise_top_L1_b8_relu_0_split_0
I0821 08:59:08.752459 32502 net.cpp:408] L1_b8_sum_eltwise_top_L1_b8_relu_0_split -> L1_b8_sum_eltwise_top_L1_b8_relu_0_split_1
I0821 08:59:08.752501 32502 net.cpp:150] Setting up L1_b8_sum_eltwise_top_L1_b8_relu_0_split
I0821 08:59:08.752512 32502 net.cpp:157] Top shape: 100 16 32 32 (1638400)
I0821 08:59:08.752529 32502 net.cpp:157] Top shape: 100 16 32 32 (1638400)
I0821 08:59:08.752534 32502 net.cpp:165] Memory required for data: 617268400
I0821 08:59:08.752539 32502 layer_factory.hpp:77] Creating layer L1_b9_cbr1_conv
I0821 08:59:08.752550 32502 net.cpp:100] Creating Layer L1_b9_cbr1_conv
I0821 08:59:08.752557 32502 net.cpp:434] L1_b9_cbr1_conv <- L1_b8_sum_eltwise_top_L1_b8_relu_0_split_0
I0821 08:59:08.752565 32502 net.cpp:408] L1_b9_cbr1_conv -> L1_b9_cbr1_conv_top
I0821 08:59:08.752895 32502 net.cpp:150] Setting up L1_b9_cbr1_conv
I0821 08:59:08.752910 32502 net.cpp:157] Top shape: 100 16 32 32 (1638400)
I0821 08:59:08.752915 32502 net.cpp:165] Memory required for data: 623822000
I0821 08:59:08.752923 32502 layer_factory.hpp:77] Creating layer L1_b9_cbr1_bn
I0821 08:59:08.752935 32502 net.cpp:100] Creating Layer L1_b9_cbr1_bn
I0821 08:59:08.752943 32502 net.cpp:434] L1_b9_cbr1_bn <- L1_b9_cbr1_conv_top
I0821 08:59:08.752950 32502 net.cpp:408] L1_b9_cbr1_bn -> L1_b9_cbr1_bn_top
I0821 08:59:08.753192 32502 net.cpp:150] Setting up L1_b9_cbr1_bn
I0821 08:59:08.753208 32502 net.cpp:157] Top shape: 100 16 32 32 (1638400)
I0821 08:59:08.753213 32502 net.cpp:165] Memory required for data: 630375600
I0821 08:59:08.753224 32502 layer_factory.hpp:77] Creating layer L1_b9_cbr1_scale
I0821 08:59:08.753233 32502 net.cpp:100] Creating Layer L1_b9_cbr1_scale
I0821 08:59:08.753238 32502 net.cpp:434] L1_b9_cbr1_scale <- L1_b9_cbr1_bn_top
I0821 08:59:08.753247 32502 net.cpp:395] L1_b9_cbr1_scale -> L1_b9_cbr1_bn_top (in-place)
I0821 08:59:08.753299 32502 layer_factory.hpp:77] Creating layer L1_b9_cbr1_scale
I0821 08:59:08.753446 32502 net.cpp:150] Setting up L1_b9_cbr1_scale
I0821 08:59:08.753459 32502 net.cpp:157] Top shape: 100 16 32 32 (1638400)
I0821 08:59:08.753464 32502 net.cpp:165] Memory required for data: 636929200
I0821 08:59:08.753473 32502 layer_factory.hpp:77] Creating layer L1_b9_cbr1_relu
I0821 08:59:08.753484 32502 net.cpp:100] Creating Layer L1_b9_cbr1_relu
I0821 08:59:08.753490 32502 net.cpp:434] L1_b9_cbr1_relu <- L1_b9_cbr1_bn_top
I0821 08:59:08.753500 32502 net.cpp:395] L1_b9_cbr1_relu -> L1_b9_cbr1_bn_top (in-place)
I0821 08:59:08.753510 32502 net.cpp:150] Setting up L1_b9_cbr1_relu
I0821 08:59:08.753517 32502 net.cpp:157] Top shape: 100 16 32 32 (1638400)
I0821 08:59:08.753522 32502 net.cpp:165] Memory required for data: 643482800
I0821 08:59:08.753526 32502 layer_factory.hpp:77] Creating layer L1_b9_cbr2_conv
I0821 08:59:08.753537 32502 net.cpp:100] Creating Layer L1_b9_cbr2_conv
I0821 08:59:08.753543 32502 net.cpp:434] L1_b9_cbr2_conv <- L1_b9_cbr1_bn_top
I0821 08:59:08.753553 32502 net.cpp:408] L1_b9_cbr2_conv -> L1_b9_cbr2_conv_top
I0821 08:59:08.753878 32502 net.cpp:150] Setting up L1_b9_cbr2_conv
I0821 08:59:08.753892 32502 net.cpp:157] Top shape: 100 16 32 32 (1638400)
I0821 08:59:08.753897 32502 net.cpp:165] Memory required for data: 650036400
I0821 08:59:08.753907 32502 layer_factory.hpp:77] Creating layer L1_b9_cbr2_bn
I0821 08:59:08.753916 32502 net.cpp:100] Creating Layer L1_b9_cbr2_bn
I0821 08:59:08.753922 32502 net.cpp:434] L1_b9_cbr2_bn <- L1_b9_cbr2_conv_top
I0821 08:59:08.753933 32502 net.cpp:408] L1_b9_cbr2_bn -> L1_b9_cbr2_bn_top
I0821 08:59:08.754174 32502 net.cpp:150] Setting up L1_b9_cbr2_bn
I0821 08:59:08.754187 32502 net.cpp:157] Top shape: 100 16 32 32 (1638400)
I0821 08:59:08.754192 32502 net.cpp:165] Memory required for data: 656590000
I0821 08:59:08.754221 32502 layer_factory.hpp:77] Creating layer L1_b9_cbr2_scale
I0821 08:59:08.754233 32502 net.cpp:100] Creating Layer L1_b9_cbr2_scale
I0821 08:59:08.754240 32502 net.cpp:434] L1_b9_cbr2_scale <- L1_b9_cbr2_bn_top
I0821 08:59:08.754246 32502 net.cpp:395] L1_b9_cbr2_scale -> L1_b9_cbr2_bn_top (in-place)
I0821 08:59:08.754302 32502 layer_factory.hpp:77] Creating layer L1_b9_cbr2_scale
I0821 08:59:08.754441 32502 net.cpp:150] Setting up L1_b9_cbr2_scale
I0821 08:59:08.754454 32502 net.cpp:157] Top shape: 100 16 32 32 (1638400)
I0821 08:59:08.754459 32502 net.cpp:165] Memory required for data: 663143600
I0821 08:59:08.754475 32502 layer_factory.hpp:77] Creating layer L1_b9_sum_eltwise
I0821 08:59:08.754485 32502 net.cpp:100] Creating Layer L1_b9_sum_eltwise
I0821 08:59:08.754492 32502 net.cpp:434] L1_b9_sum_eltwise <- L1_b9_cbr2_bn_top
I0821 08:59:08.754498 32502 net.cpp:434] L1_b9_sum_eltwise <- L1_b8_sum_eltwise_top_L1_b8_relu_0_split_1
I0821 08:59:08.754508 32502 net.cpp:408] L1_b9_sum_eltwise -> L1_b9_sum_eltwise_top
I0821 08:59:08.754540 32502 net.cpp:150] Setting up L1_b9_sum_eltwise
I0821 08:59:08.754554 32502 net.cpp:157] Top shape: 100 16 32 32 (1638400)
I0821 08:59:08.754559 32502 net.cpp:165] Memory required for data: 669697200
I0821 08:59:08.754565 32502 layer_factory.hpp:77] Creating layer L1_b9_relu
I0821 08:59:08.754572 32502 net.cpp:100] Creating Layer L1_b9_relu
I0821 08:59:08.754578 32502 net.cpp:434] L1_b9_relu <- L1_b9_sum_eltwise_top
I0821 08:59:08.754585 32502 net.cpp:395] L1_b9_relu -> L1_b9_sum_eltwise_top (in-place)
I0821 08:59:08.754595 32502 net.cpp:150] Setting up L1_b9_relu
I0821 08:59:08.754601 32502 net.cpp:157] Top shape: 100 16 32 32 (1638400)
I0821 08:59:08.754606 32502 net.cpp:165] Memory required for data: 676250800
I0821 08:59:08.754611 32502 layer_factory.hpp:77] Creating layer L1_b9_sum_eltwise_top_L1_b9_relu_0_split
I0821 08:59:08.754621 32502 net.cpp:100] Creating Layer L1_b9_sum_eltwise_top_L1_b9_relu_0_split
I0821 08:59:08.754626 32502 net.cpp:434] L1_b9_sum_eltwise_top_L1_b9_relu_0_split <- L1_b9_sum_eltwise_top
I0821 08:59:08.754634 32502 net.cpp:408] L1_b9_sum_eltwise_top_L1_b9_relu_0_split -> L1_b9_sum_eltwise_top_L1_b9_relu_0_split_0
I0821 08:59:08.754647 32502 net.cpp:408] L1_b9_sum_eltwise_top_L1_b9_relu_0_split -> L1_b9_sum_eltwise_top_L1_b9_relu_0_split_1
I0821 08:59:08.754693 32502 net.cpp:150] Setting up L1_b9_sum_eltwise_top_L1_b9_relu_0_split
I0821 08:59:08.754705 32502 net.cpp:157] Top shape: 100 16 32 32 (1638400)
I0821 08:59:08.754712 32502 net.cpp:157] Top shape: 100 16 32 32 (1638400)
I0821 08:59:08.754716 32502 net.cpp:165] Memory required for data: 689358000
I0821 08:59:08.754721 32502 layer_factory.hpp:77] Creating layer L1_b10_cbr1_conv
I0821 08:59:08.754732 32502 net.cpp:100] Creating Layer L1_b10_cbr1_conv
I0821 08:59:08.754739 32502 net.cpp:434] L1_b10_cbr1_conv <- L1_b9_sum_eltwise_top_L1_b9_relu_0_split_0
I0821 08:59:08.754755 32502 net.cpp:408] L1_b10_cbr1_conv -> L1_b10_cbr1_conv_top
I0821 08:59:08.755071 32502 net.cpp:150] Setting up L1_b10_cbr1_conv
I0821 08:59:08.755085 32502 net.cpp:157] Top shape: 100 16 32 32 (1638400)
I0821 08:59:08.755091 32502 net.cpp:165] Memory required for data: 695911600
I0821 08:59:08.755100 32502 layer_factory.hpp:77] Creating layer L1_b10_cbr1_bn
I0821 08:59:08.755108 32502 net.cpp:100] Creating Layer L1_b10_cbr1_bn
I0821 08:59:08.755115 32502 net.cpp:434] L1_b10_cbr1_bn <- L1_b10_cbr1_conv_top
I0821 08:59:08.755122 32502 net.cpp:408] L1_b10_cbr1_bn -> L1_b10_cbr1_bn_top
I0821 08:59:08.755362 32502 net.cpp:150] Setting up L1_b10_cbr1_bn
I0821 08:59:08.755374 32502 net.cpp:157] Top shape: 100 16 32 32 (1638400)
I0821 08:59:08.755379 32502 net.cpp:165] Memory required for data: 702465200
I0821 08:59:08.755389 32502 layer_factory.hpp:77] Creating layer L1_b10_cbr1_scale
I0821 08:59:08.755401 32502 net.cpp:100] Creating Layer L1_b10_cbr1_scale
I0821 08:59:08.755408 32502 net.cpp:434] L1_b10_cbr1_scale <- L1_b10_cbr1_bn_top
I0821 08:59:08.755415 32502 net.cpp:395] L1_b10_cbr1_scale -> L1_b10_cbr1_bn_top (in-place)
I0821 08:59:08.755476 32502 layer_factory.hpp:77] Creating layer L1_b10_cbr1_scale
I0821 08:59:08.755615 32502 net.cpp:150] Setting up L1_b10_cbr1_scale
I0821 08:59:08.755628 32502 net.cpp:157] Top shape: 100 16 32 32 (1638400)
I0821 08:59:08.755633 32502 net.cpp:165] Memory required for data: 709018800
I0821 08:59:08.755642 32502 layer_factory.hpp:77] Creating layer L1_b10_cbr1_relu
I0821 08:59:08.755650 32502 net.cpp:100] Creating Layer L1_b10_cbr1_relu
I0821 08:59:08.755656 32502 net.cpp:434] L1_b10_cbr1_relu <- L1_b10_cbr1_bn_top
I0821 08:59:08.755667 32502 net.cpp:395] L1_b10_cbr1_relu -> L1_b10_cbr1_bn_top (in-place)
I0821 08:59:08.755683 32502 net.cpp:150] Setting up L1_b10_cbr1_relu
I0821 08:59:08.755690 32502 net.cpp:157] Top shape: 100 16 32 32 (1638400)
I0821 08:59:08.755695 32502 net.cpp:165] Memory required for data: 715572400
I0821 08:59:08.755700 32502 layer_factory.hpp:77] Creating layer L1_b10_cbr2_conv
I0821 08:59:08.755713 32502 net.cpp:100] Creating Layer L1_b10_cbr2_conv
I0821 08:59:08.755719 32502 net.cpp:434] L1_b10_cbr2_conv <- L1_b10_cbr1_bn_top
I0821 08:59:08.755728 32502 net.cpp:408] L1_b10_cbr2_conv -> L1_b10_cbr2_conv_top
I0821 08:59:08.756043 32502 net.cpp:150] Setting up L1_b10_cbr2_conv
I0821 08:59:08.756058 32502 net.cpp:157] Top shape: 100 16 32 32 (1638400)
I0821 08:59:08.756063 32502 net.cpp:165] Memory required for data: 722126000
I0821 08:59:08.756072 32502 layer_factory.hpp:77] Creating layer L1_b10_cbr2_bn
I0821 08:59:08.756084 32502 net.cpp:100] Creating Layer L1_b10_cbr2_bn
I0821 08:59:08.756090 32502 net.cpp:434] L1_b10_cbr2_bn <- L1_b10_cbr2_conv_top
I0821 08:59:08.756098 32502 net.cpp:408] L1_b10_cbr2_bn -> L1_b10_cbr2_bn_top
I0821 08:59:08.756343 32502 net.cpp:150] Setting up L1_b10_cbr2_bn
I0821 08:59:08.756356 32502 net.cpp:157] Top shape: 100 16 32 32 (1638400)
I0821 08:59:08.756361 32502 net.cpp:165] Memory required for data: 728679600
I0821 08:59:08.756371 32502 layer_factory.hpp:77] Creating layer L1_b10_cbr2_scale
I0821 08:59:08.756381 32502 net.cpp:100] Creating Layer L1_b10_cbr2_scale
I0821 08:59:08.756386 32502 net.cpp:434] L1_b10_cbr2_scale <- L1_b10_cbr2_bn_top
I0821 08:59:08.756397 32502 net.cpp:395] L1_b10_cbr2_scale -> L1_b10_cbr2_bn_top (in-place)
I0821 08:59:08.756450 32502 layer_factory.hpp:77] Creating layer L1_b10_cbr2_scale
I0821 08:59:08.756593 32502 net.cpp:150] Setting up L1_b10_cbr2_scale
I0821 08:59:08.756606 32502 net.cpp:157] Top shape: 100 16 32 32 (1638400)
I0821 08:59:08.756611 32502 net.cpp:165] Memory required for data: 735233200
I0821 08:59:08.756620 32502 layer_factory.hpp:77] Creating layer L1_b10_sum_eltwise
I0821 08:59:08.756630 32502 net.cpp:100] Creating Layer L1_b10_sum_eltwise
I0821 08:59:08.756635 32502 net.cpp:434] L1_b10_sum_eltwise <- L1_b10_cbr2_bn_top
I0821 08:59:08.756644 32502 net.cpp:434] L1_b10_sum_eltwise <- L1_b9_sum_eltwise_top_L1_b9_relu_0_split_1
I0821 08:59:08.756654 32502 net.cpp:408] L1_b10_sum_eltwise -> L1_b10_sum_eltwise_top
I0821 08:59:08.756685 32502 net.cpp:150] Setting up L1_b10_sum_eltwise
I0821 08:59:08.756700 32502 net.cpp:157] Top shape: 100 16 32 32 (1638400)
I0821 08:59:08.756705 32502 net.cpp:165] Memory required for data: 741786800
I0821 08:59:08.756709 32502 layer_factory.hpp:77] Creating layer L1_b10_relu
I0821 08:59:08.756717 32502 net.cpp:100] Creating Layer L1_b10_relu
I0821 08:59:08.756722 32502 net.cpp:434] L1_b10_relu <- L1_b10_sum_eltwise_top
I0821 08:59:08.756729 32502 net.cpp:395] L1_b10_relu -> L1_b10_sum_eltwise_top (in-place)
I0821 08:59:08.756738 32502 net.cpp:150] Setting up L1_b10_relu
I0821 08:59:08.756752 32502 net.cpp:157] Top shape: 100 16 32 32 (1638400)
I0821 08:59:08.756757 32502 net.cpp:165] Memory required for data: 748340400
I0821 08:59:08.756762 32502 layer_factory.hpp:77] Creating layer L1_b10_sum_eltwise_top_L1_b10_relu_0_split
I0821 08:59:08.756772 32502 net.cpp:100] Creating Layer L1_b10_sum_eltwise_top_L1_b10_relu_0_split
I0821 08:59:08.756778 32502 net.cpp:434] L1_b10_sum_eltwise_top_L1_b10_relu_0_split <- L1_b10_sum_eltwise_top
I0821 08:59:08.756784 32502 net.cpp:408] L1_b10_sum_eltwise_top_L1_b10_relu_0_split -> L1_b10_sum_eltwise_top_L1_b10_relu_0_split_0
I0821 08:59:08.756794 32502 net.cpp:408] L1_b10_sum_eltwise_top_L1_b10_relu_0_split -> L1_b10_sum_eltwise_top_L1_b10_relu_0_split_1
I0821 08:59:08.756840 32502 net.cpp:150] Setting up L1_b10_sum_eltwise_top_L1_b10_relu_0_split
I0821 08:59:08.756852 32502 net.cpp:157] Top shape: 100 16 32 32 (1638400)
I0821 08:59:08.756860 32502 net.cpp:157] Top shape: 100 16 32 32 (1638400)
I0821 08:59:08.756865 32502 net.cpp:165] Memory required for data: 761447600
I0821 08:59:08.756870 32502 layer_factory.hpp:77] Creating layer L1_b11_cbr1_conv
I0821 08:59:08.756889 32502 net.cpp:100] Creating Layer L1_b11_cbr1_conv
I0821 08:59:08.756896 32502 net.cpp:434] L1_b11_cbr1_conv <- L1_b10_sum_eltwise_top_L1_b10_relu_0_split_0
I0821 08:59:08.756907 32502 net.cpp:408] L1_b11_cbr1_conv -> L1_b11_cbr1_conv_top
I0821 08:59:08.757226 32502 net.cpp:150] Setting up L1_b11_cbr1_conv
I0821 08:59:08.757241 32502 net.cpp:157] Top shape: 100 16 32 32 (1638400)
I0821 08:59:08.757246 32502 net.cpp:165] Memory required for data: 768001200
I0821 08:59:08.757254 32502 layer_factory.hpp:77] Creating layer L1_b11_cbr1_bn
I0821 08:59:08.757264 32502 net.cpp:100] Creating Layer L1_b11_cbr1_bn
I0821 08:59:08.757270 32502 net.cpp:434] L1_b11_cbr1_bn <- L1_b11_cbr1_conv_top
I0821 08:59:08.757278 32502 net.cpp:408] L1_b11_cbr1_bn -> L1_b11_cbr1_bn_top
I0821 08:59:08.757522 32502 net.cpp:150] Setting up L1_b11_cbr1_bn
I0821 08:59:08.757535 32502 net.cpp:157] Top shape: 100 16 32 32 (1638400)
I0821 08:59:08.757540 32502 net.cpp:165] Memory required for data: 774554800
I0821 08:59:08.757551 32502 layer_factory.hpp:77] Creating layer L1_b11_cbr1_scale
I0821 08:59:08.757563 32502 net.cpp:100] Creating Layer L1_b11_cbr1_scale
I0821 08:59:08.757570 32502 net.cpp:434] L1_b11_cbr1_scale <- L1_b11_cbr1_bn_top
I0821 08:59:08.757577 32502 net.cpp:395] L1_b11_cbr1_scale -> L1_b11_cbr1_bn_top (in-place)
I0821 08:59:08.757633 32502 layer_factory.hpp:77] Creating layer L1_b11_cbr1_scale
I0821 08:59:08.757782 32502 net.cpp:150] Setting up L1_b11_cbr1_scale
I0821 08:59:08.757797 32502 net.cpp:157] Top shape: 100 16 32 32 (1638400)
I0821 08:59:08.757802 32502 net.cpp:165] Memory required for data: 781108400
I0821 08:59:08.757810 32502 layer_factory.hpp:77] Creating layer L1_b11_cbr1_relu
I0821 08:59:08.757818 32502 net.cpp:100] Creating Layer L1_b11_cbr1_relu
I0821 08:59:08.757824 32502 net.cpp:434] L1_b11_cbr1_relu <- L1_b11_cbr1_bn_top
I0821 08:59:08.757834 32502 net.cpp:395] L1_b11_cbr1_relu -> L1_b11_cbr1_bn_top (in-place)
I0821 08:59:08.757844 32502 net.cpp:150] Setting up L1_b11_cbr1_relu
I0821 08:59:08.757851 32502 net.cpp:157] Top shape: 100 16 32 32 (1638400)
I0821 08:59:08.757856 32502 net.cpp:165] Memory required for data: 787662000
I0821 08:59:08.757861 32502 layer_factory.hpp:77] Creating layer L1_b11_cbr2_conv
I0821 08:59:08.757874 32502 net.cpp:100] Creating Layer L1_b11_cbr2_conv
I0821 08:59:08.757880 32502 net.cpp:434] L1_b11_cbr2_conv <- L1_b11_cbr1_bn_top
I0821 08:59:08.757889 32502 net.cpp:408] L1_b11_cbr2_conv -> L1_b11_cbr2_conv_top
I0821 08:59:08.758208 32502 net.cpp:150] Setting up L1_b11_cbr2_conv
I0821 08:59:08.758221 32502 net.cpp:157] Top shape: 100 16 32 32 (1638400)
I0821 08:59:08.758226 32502 net.cpp:165] Memory required for data: 794215600
I0821 08:59:08.758235 32502 layer_factory.hpp:77] Creating layer L1_b11_cbr2_bn
I0821 08:59:08.758247 32502 net.cpp:100] Creating Layer L1_b11_cbr2_bn
I0821 08:59:08.758253 32502 net.cpp:434] L1_b11_cbr2_bn <- L1_b11_cbr2_conv_top
I0821 08:59:08.758262 32502 net.cpp:408] L1_b11_cbr2_bn -> L1_b11_cbr2_bn_top
I0821 08:59:08.758508 32502 net.cpp:150] Setting up L1_b11_cbr2_bn
I0821 08:59:08.758522 32502 net.cpp:157] Top shape: 100 16 32 32 (1638400)
I0821 08:59:08.758527 32502 net.cpp:165] Memory required for data: 800769200
I0821 08:59:08.758536 32502 layer_factory.hpp:77] Creating layer L1_b11_cbr2_scale
I0821 08:59:08.758545 32502 net.cpp:100] Creating Layer L1_b11_cbr2_scale
I0821 08:59:08.758551 32502 net.cpp:434] L1_b11_cbr2_scale <- L1_b11_cbr2_bn_top
I0821 08:59:08.758561 32502 net.cpp:395] L1_b11_cbr2_scale -> L1_b11_cbr2_bn_top (in-place)
I0821 08:59:08.758616 32502 layer_factory.hpp:77] Creating layer L1_b11_cbr2_scale
I0821 08:59:08.758761 32502 net.cpp:150] Setting up L1_b11_cbr2_scale
I0821 08:59:08.758780 32502 net.cpp:157] Top shape: 100 16 32 32 (1638400)
I0821 08:59:08.758785 32502 net.cpp:165] Memory required for data: 807322800
I0821 08:59:08.758793 32502 layer_factory.hpp:77] Creating layer L1_b11_sum_eltwise
I0821 08:59:08.758802 32502 net.cpp:100] Creating Layer L1_b11_sum_eltwise
I0821 08:59:08.758808 32502 net.cpp:434] L1_b11_sum_eltwise <- L1_b11_cbr2_bn_top
I0821 08:59:08.758822 32502 net.cpp:434] L1_b11_sum_eltwise <- L1_b10_sum_eltwise_top_L1_b10_relu_0_split_1
I0821 08:59:08.758833 32502 net.cpp:408] L1_b11_sum_eltwise -> L1_b11_sum_eltwise_top
I0821 08:59:08.758865 32502 net.cpp:150] Setting up L1_b11_sum_eltwise
I0821 08:59:08.758874 32502 net.cpp:157] Top shape: 100 16 32 32 (1638400)
I0821 08:59:08.758879 32502 net.cpp:165] Memory required for data: 813876400
I0821 08:59:08.758884 32502 layer_factory.hpp:77] Creating layer L1_b11_relu
I0821 08:59:08.758895 32502 net.cpp:100] Creating Layer L1_b11_relu
I0821 08:59:08.758901 32502 net.cpp:434] L1_b11_relu <- L1_b11_sum_eltwise_top
I0821 08:59:08.758908 32502 net.cpp:395] L1_b11_relu -> L1_b11_sum_eltwise_top (in-place)
I0821 08:59:08.758918 32502 net.cpp:150] Setting up L1_b11_relu
I0821 08:59:08.758924 32502 net.cpp:157] Top shape: 100 16 32 32 (1638400)
I0821 08:59:08.758929 32502 net.cpp:165] Memory required for data: 820430000
I0821 08:59:08.758934 32502 layer_factory.hpp:77] Creating layer L1_b11_sum_eltwise_top_L1_b11_relu_0_split
I0821 08:59:08.758944 32502 net.cpp:100] Creating Layer L1_b11_sum_eltwise_top_L1_b11_relu_0_split
I0821 08:59:08.758949 32502 net.cpp:434] L1_b11_sum_eltwise_top_L1_b11_relu_0_split <- L1_b11_sum_eltwise_top
I0821 08:59:08.758956 32502 net.cpp:408] L1_b11_sum_eltwise_top_L1_b11_relu_0_split -> L1_b11_sum_eltwise_top_L1_b11_relu_0_split_0
I0821 08:59:08.758965 32502 net.cpp:408] L1_b11_sum_eltwise_top_L1_b11_relu_0_split -> L1_b11_sum_eltwise_top_L1_b11_relu_0_split_1
I0821 08:59:08.759008 32502 net.cpp:150] Setting up L1_b11_sum_eltwise_top_L1_b11_relu_0_split
I0821 08:59:08.759022 32502 net.cpp:157] Top shape: 100 16 32 32 (1638400)
I0821 08:59:08.759029 32502 net.cpp:157] Top shape: 100 16 32 32 (1638400)
I0821 08:59:08.759034 32502 net.cpp:165] Memory required for data: 833537200
I0821 08:59:08.759039 32502 layer_factory.hpp:77] Creating layer L1_b12_cbr1_conv
I0821 08:59:08.759050 32502 net.cpp:100] Creating Layer L1_b12_cbr1_conv
I0821 08:59:08.759057 32502 net.cpp:434] L1_b12_cbr1_conv <- L1_b11_sum_eltwise_top_L1_b11_relu_0_split_0
I0821 08:59:08.759064 32502 net.cpp:408] L1_b12_cbr1_conv -> L1_b12_cbr1_conv_top
I0821 08:59:08.759382 32502 net.cpp:150] Setting up L1_b12_cbr1_conv
I0821 08:59:08.759395 32502 net.cpp:157] Top shape: 100 16 32 32 (1638400)
I0821 08:59:08.759400 32502 net.cpp:165] Memory required for data: 840090800
I0821 08:59:08.759409 32502 layer_factory.hpp:77] Creating layer L1_b12_cbr1_bn
I0821 08:59:08.759421 32502 net.cpp:100] Creating Layer L1_b12_cbr1_bn
I0821 08:59:08.759428 32502 net.cpp:434] L1_b12_cbr1_bn <- L1_b12_cbr1_conv_top
I0821 08:59:08.759435 32502 net.cpp:408] L1_b12_cbr1_bn -> L1_b12_cbr1_bn_top
I0821 08:59:08.759681 32502 net.cpp:150] Setting up L1_b12_cbr1_bn
I0821 08:59:08.759694 32502 net.cpp:157] Top shape: 100 16 32 32 (1638400)
I0821 08:59:08.759699 32502 net.cpp:165] Memory required for data: 846644400
I0821 08:59:08.759709 32502 layer_factory.hpp:77] Creating layer L1_b12_cbr1_scale
I0821 08:59:08.759718 32502 net.cpp:100] Creating Layer L1_b12_cbr1_scale
I0821 08:59:08.759724 32502 net.cpp:434] L1_b12_cbr1_scale <- L1_b12_cbr1_bn_top
I0821 08:59:08.759735 32502 net.cpp:395] L1_b12_cbr1_scale -> L1_b12_cbr1_bn_top (in-place)
I0821 08:59:08.759796 32502 layer_factory.hpp:77] Creating layer L1_b12_cbr1_scale
I0821 08:59:08.760009 32502 net.cpp:150] Setting up L1_b12_cbr1_scale
I0821 08:59:08.760030 32502 net.cpp:157] Top shape: 100 16 32 32 (1638400)
I0821 08:59:08.760038 32502 net.cpp:165] Memory required for data: 853198000
I0821 08:59:08.760056 32502 layer_factory.hpp:77] Creating layer L1_b12_cbr1_relu
I0821 08:59:08.760071 32502 net.cpp:100] Creating Layer L1_b12_cbr1_relu
I0821 08:59:08.760082 32502 net.cpp:434] L1_b12_cbr1_relu <- L1_b12_cbr1_bn_top
I0821 08:59:08.760098 32502 net.cpp:395] L1_b12_cbr1_relu -> L1_b12_cbr1_bn_top (in-place)
I0821 08:59:08.760112 32502 net.cpp:150] Setting up L1_b12_cbr1_relu
I0821 08:59:08.760119 32502 net.cpp:157] Top shape: 100 16 32 32 (1638400)
I0821 08:59:08.760131 32502 net.cpp:165] Memory required for data: 859751600
I0821 08:59:08.760136 32502 layer_factory.hpp:77] Creating layer L1_b12_cbr2_conv
I0821 08:59:08.760151 32502 net.cpp:100] Creating Layer L1_b12_cbr2_conv
I0821 08:59:08.760157 32502 net.cpp:434] L1_b12_cbr2_conv <- L1_b12_cbr1_bn_top
I0821 08:59:08.760166 32502 net.cpp:408] L1_b12_cbr2_conv -> L1_b12_cbr2_conv_top
I0821 08:59:08.760493 32502 net.cpp:150] Setting up L1_b12_cbr2_conv
I0821 08:59:08.760507 32502 net.cpp:157] Top shape: 100 16 32 32 (1638400)
I0821 08:59:08.760512 32502 net.cpp:165] Memory required for data: 866305200
I0821 08:59:08.760522 32502 layer_factory.hpp:77] Creating layer L1_b12_cbr2_bn
I0821 08:59:08.760531 32502 net.cpp:100] Creating Layer L1_b12_cbr2_bn
I0821 08:59:08.760537 32502 net.cpp:434] L1_b12_cbr2_bn <- L1_b12_cbr2_conv_top
I0821 08:59:08.760548 32502 net.cpp:408] L1_b12_cbr2_bn -> L1_b12_cbr2_bn_top
I0821 08:59:08.760794 32502 net.cpp:150] Setting up L1_b12_cbr2_bn
I0821 08:59:08.760808 32502 net.cpp:157] Top shape: 100 16 32 32 (1638400)
I0821 08:59:08.760813 32502 net.cpp:165] Memory required for data: 872858800
I0821 08:59:08.760823 32502 layer_factory.hpp:77] Creating layer L1_b12_cbr2_scale
I0821 08:59:08.760833 32502 net.cpp:100] Creating Layer L1_b12_cbr2_scale
I0821 08:59:08.760838 32502 net.cpp:434] L1_b12_cbr2_scale <- L1_b12_cbr2_bn_top
I0821 08:59:08.760848 32502 net.cpp:395] L1_b12_cbr2_scale -> L1_b12_cbr2_bn_top (in-place)
I0821 08:59:08.760903 32502 layer_factory.hpp:77] Creating layer L1_b12_cbr2_scale
I0821 08:59:08.761044 32502 net.cpp:150] Setting up L1_b12_cbr2_scale
I0821 08:59:08.761060 32502 net.cpp:157] Top shape: 100 16 32 32 (1638400)
I0821 08:59:08.761065 32502 net.cpp:165] Memory required for data: 879412400
I0821 08:59:08.761075 32502 layer_factory.hpp:77] Creating layer L1_b12_sum_eltwise
I0821 08:59:08.761083 32502 net.cpp:100] Creating Layer L1_b12_sum_eltwise
I0821 08:59:08.761090 32502 net.cpp:434] L1_b12_sum_eltwise <- L1_b12_cbr2_bn_top
I0821 08:59:08.761096 32502 net.cpp:434] L1_b12_sum_eltwise <- L1_b11_sum_eltwise_top_L1_b11_relu_0_split_1
I0821 08:59:08.761104 32502 net.cpp:408] L1_b12_sum_eltwise -> L1_b12_sum_eltwise_top
I0821 08:59:08.761140 32502 net.cpp:150] Setting up L1_b12_sum_eltwise
I0821 08:59:08.761150 32502 net.cpp:157] Top shape: 100 16 32 32 (1638400)
I0821 08:59:08.761154 32502 net.cpp:165] Memory required for data: 885966000
I0821 08:59:08.761160 32502 layer_factory.hpp:77] Creating layer L1_b12_relu
I0821 08:59:08.761170 32502 net.cpp:100] Creating Layer L1_b12_relu
I0821 08:59:08.761176 32502 net.cpp:434] L1_b12_relu <- L1_b12_sum_eltwise_top
I0821 08:59:08.761183 32502 net.cpp:395] L1_b12_relu -> L1_b12_sum_eltwise_top (in-place)
I0821 08:59:08.761193 32502 net.cpp:150] Setting up L1_b12_relu
I0821 08:59:08.761198 32502 net.cpp:157] Top shape: 100 16 32 32 (1638400)
I0821 08:59:08.761204 32502 net.cpp:165] Memory required for data: 892519600
I0821 08:59:08.761209 32502 layer_factory.hpp:77] Creating layer L1_b12_sum_eltwise_top_L1_b12_relu_0_split
I0821 08:59:08.761219 32502 net.cpp:100] Creating Layer L1_b12_sum_eltwise_top_L1_b12_relu_0_split
I0821 08:59:08.761224 32502 net.cpp:434] L1_b12_sum_eltwise_top_L1_b12_relu_0_split <- L1_b12_sum_eltwise_top
I0821 08:59:08.761231 32502 net.cpp:408] L1_b12_sum_eltwise_top_L1_b12_relu_0_split -> L1_b12_sum_eltwise_top_L1_b12_relu_0_split_0
I0821 08:59:08.761241 32502 net.cpp:408] L1_b12_sum_eltwise_top_L1_b12_relu_0_split -> L1_b12_sum_eltwise_top_L1_b12_relu_0_split_1
I0821 08:59:08.761284 32502 net.cpp:150] Setting up L1_b12_sum_eltwise_top_L1_b12_relu_0_split
I0821 08:59:08.761299 32502 net.cpp:157] Top shape: 100 16 32 32 (1638400)
I0821 08:59:08.761307 32502 net.cpp:157] Top shape: 100 16 32 32 (1638400)
I0821 08:59:08.761310 32502 net.cpp:165] Memory required for data: 905626800
I0821 08:59:08.761315 32502 layer_factory.hpp:77] Creating layer L1_b13_cbr1_conv
I0821 08:59:08.761327 32502 net.cpp:100] Creating Layer L1_b13_cbr1_conv
I0821 08:59:08.761333 32502 net.cpp:434] L1_b13_cbr1_conv <- L1_b12_sum_eltwise_top_L1_b12_relu_0_split_0
I0821 08:59:08.761349 32502 net.cpp:408] L1_b13_cbr1_conv -> L1_b13_cbr1_conv_top
I0821 08:59:08.761675 32502 net.cpp:150] Setting up L1_b13_cbr1_conv
I0821 08:59:08.761689 32502 net.cpp:157] Top shape: 100 16 32 32 (1638400)
I0821 08:59:08.761694 32502 net.cpp:165] Memory required for data: 912180400
I0821 08:59:08.761703 32502 layer_factory.hpp:77] Creating layer L1_b13_cbr1_bn
I0821 08:59:08.761730 32502 net.cpp:100] Creating Layer L1_b13_cbr1_bn
I0821 08:59:08.761736 32502 net.cpp:434] L1_b13_cbr1_bn <- L1_b13_cbr1_conv_top
I0821 08:59:08.761751 32502 net.cpp:408] L1_b13_cbr1_bn -> L1_b13_cbr1_bn_top
I0821 08:59:08.761993 32502 net.cpp:150] Setting up L1_b13_cbr1_bn
I0821 08:59:08.762006 32502 net.cpp:157] Top shape: 100 16 32 32 (1638400)
I0821 08:59:08.762012 32502 net.cpp:165] Memory required for data: 918734000
I0821 08:59:08.762022 32502 layer_factory.hpp:77] Creating layer L1_b13_cbr1_scale
I0821 08:59:08.762032 32502 net.cpp:100] Creating Layer L1_b13_cbr1_scale
I0821 08:59:08.762037 32502 net.cpp:434] L1_b13_cbr1_scale <- L1_b13_cbr1_bn_top
I0821 08:59:08.762045 32502 net.cpp:395] L1_b13_cbr1_scale -> L1_b13_cbr1_bn_top (in-place)
I0821 08:59:08.762101 32502 layer_factory.hpp:77] Creating layer L1_b13_cbr1_scale
I0821 08:59:08.762244 32502 net.cpp:150] Setting up L1_b13_cbr1_scale
I0821 08:59:08.762257 32502 net.cpp:157] Top shape: 100 16 32 32 (1638400)
I0821 08:59:08.762262 32502 net.cpp:165] Memory required for data: 925287600
I0821 08:59:08.762272 32502 layer_factory.hpp:77] Creating layer L1_b13_cbr1_relu
I0821 08:59:08.762280 32502 net.cpp:100] Creating Layer L1_b13_cbr1_relu
I0821 08:59:08.762290 32502 net.cpp:434] L1_b13_cbr1_relu <- L1_b13_cbr1_bn_top
I0821 08:59:08.762296 32502 net.cpp:395] L1_b13_cbr1_relu -> L1_b13_cbr1_bn_top (in-place)
I0821 08:59:08.762306 32502 net.cpp:150] Setting up L1_b13_cbr1_relu
I0821 08:59:08.762313 32502 net.cpp:157] Top shape: 100 16 32 32 (1638400)
I0821 08:59:08.762317 32502 net.cpp:165] Memory required for data: 931841200
I0821 08:59:08.762322 32502 layer_factory.hpp:77] Creating layer L1_b13_cbr2_conv
I0821 08:59:08.762336 32502 net.cpp:100] Creating Layer L1_b13_cbr2_conv
I0821 08:59:08.762342 32502 net.cpp:434] L1_b13_cbr2_conv <- L1_b13_cbr1_bn_top
I0821 08:59:08.762356 32502 net.cpp:408] L1_b13_cbr2_conv -> L1_b13_cbr2_conv_top
I0821 08:59:08.762673 32502 net.cpp:150] Setting up L1_b13_cbr2_conv
I0821 08:59:08.762687 32502 net.cpp:157] Top shape: 100 16 32 32 (1638400)
I0821 08:59:08.762692 32502 net.cpp:165] Memory required for data: 938394800
I0821 08:59:08.762701 32502 layer_factory.hpp:77] Creating layer L1_b13_cbr2_bn
I0821 08:59:08.762713 32502 net.cpp:100] Creating Layer L1_b13_cbr2_bn
I0821 08:59:08.762720 32502 net.cpp:434] L1_b13_cbr2_bn <- L1_b13_cbr2_conv_top
I0821 08:59:08.762728 32502 net.cpp:408] L1_b13_cbr2_bn -> L1_b13_cbr2_bn_top
I0821 08:59:08.762984 32502 net.cpp:150] Setting up L1_b13_cbr2_bn
I0821 08:59:08.762997 32502 net.cpp:157] Top shape: 100 16 32 32 (1638400)
I0821 08:59:08.763002 32502 net.cpp:165] Memory required for data: 944948400
I0821 08:59:08.763012 32502 layer_factory.hpp:77] Creating layer L1_b13_cbr2_scale
I0821 08:59:08.763021 32502 net.cpp:100] Creating Layer L1_b13_cbr2_scale
I0821 08:59:08.763027 32502 net.cpp:434] L1_b13_cbr2_scale <- L1_b13_cbr2_bn_top
I0821 08:59:08.763036 32502 net.cpp:395] L1_b13_cbr2_scale -> L1_b13_cbr2_bn_top (in-place)
I0821 08:59:08.763093 32502 layer_factory.hpp:77] Creating layer L1_b13_cbr2_scale
I0821 08:59:08.763234 32502 net.cpp:150] Setting up L1_b13_cbr2_scale
I0821 08:59:08.763247 32502 net.cpp:157] Top shape: 100 16 32 32 (1638400)
I0821 08:59:08.763252 32502 net.cpp:165] Memory required for data: 951502000
I0821 08:59:08.763260 32502 layer_factory.hpp:77] Creating layer L1_b13_sum_eltwise
I0821 08:59:08.763270 32502 net.cpp:100] Creating Layer L1_b13_sum_eltwise
I0821 08:59:08.763276 32502 net.cpp:434] L1_b13_sum_eltwise <- L1_b13_cbr2_bn_top
I0821 08:59:08.763283 32502 net.cpp:434] L1_b13_sum_eltwise <- L1_b12_sum_eltwise_top_L1_b12_relu_0_split_1
I0821 08:59:08.763300 32502 net.cpp:408] L1_b13_sum_eltwise -> L1_b13_sum_eltwise_top
I0821 08:59:08.763332 32502 net.cpp:150] Setting up L1_b13_sum_eltwise
I0821 08:59:08.763341 32502 net.cpp:157] Top shape: 100 16 32 32 (1638400)
I0821 08:59:08.763346 32502 net.cpp:165] Memory required for data: 958055600
I0821 08:59:08.763351 32502 layer_factory.hpp:77] Creating layer L1_b13_relu
I0821 08:59:08.763362 32502 net.cpp:100] Creating Layer L1_b13_relu
I0821 08:59:08.763368 32502 net.cpp:434] L1_b13_relu <- L1_b13_sum_eltwise_top
I0821 08:59:08.763375 32502 net.cpp:395] L1_b13_relu -> L1_b13_sum_eltwise_top (in-place)
I0821 08:59:08.763384 32502 net.cpp:150] Setting up L1_b13_relu
I0821 08:59:08.763391 32502 net.cpp:157] Top shape: 100 16 32 32 (1638400)
I0821 08:59:08.763396 32502 net.cpp:165] Memory required for data: 964609200
I0821 08:59:08.763401 32502 layer_factory.hpp:77] Creating layer L1_b13_sum_eltwise_top_L1_b13_relu_0_split
I0821 08:59:08.763408 32502 net.cpp:100] Creating Layer L1_b13_sum_eltwise_top_L1_b13_relu_0_split
I0821 08:59:08.763413 32502 net.cpp:434] L1_b13_sum_eltwise_top_L1_b13_relu_0_split <- L1_b13_sum_eltwise_top
I0821 08:59:08.763420 32502 net.cpp:408] L1_b13_sum_eltwise_top_L1_b13_relu_0_split -> L1_b13_sum_eltwise_top_L1_b13_relu_0_split_0
I0821 08:59:08.763430 32502 net.cpp:408] L1_b13_sum_eltwise_top_L1_b13_relu_0_split -> L1_b13_sum_eltwise_top_L1_b13_relu_0_split_1
I0821 08:59:08.763475 32502 net.cpp:150] Setting up L1_b13_sum_eltwise_top_L1_b13_relu_0_split
I0821 08:59:08.763487 32502 net.cpp:157] Top shape: 100 16 32 32 (1638400)
I0821 08:59:08.763494 32502 net.cpp:157] Top shape: 100 16 32 32 (1638400)
I0821 08:59:08.763499 32502 net.cpp:165] Memory required for data: 977716400
I0821 08:59:08.763504 32502 layer_factory.hpp:77] Creating layer L1_b14_cbr1_conv
I0821 08:59:08.763517 32502 net.cpp:100] Creating Layer L1_b14_cbr1_conv
I0821 08:59:08.763523 32502 net.cpp:434] L1_b14_cbr1_conv <- L1_b13_sum_eltwise_top_L1_b13_relu_0_split_0
I0821 08:59:08.763532 32502 net.cpp:408] L1_b14_cbr1_conv -> L1_b14_cbr1_conv_top
I0821 08:59:08.763854 32502 net.cpp:150] Setting up L1_b14_cbr1_conv
I0821 08:59:08.763867 32502 net.cpp:157] Top shape: 100 16 32 32 (1638400)
I0821 08:59:08.763872 32502 net.cpp:165] Memory required for data: 984270000
I0821 08:59:08.763882 32502 layer_factory.hpp:77] Creating layer L1_b14_cbr1_bn
I0821 08:59:08.763895 32502 net.cpp:100] Creating Layer L1_b14_cbr1_bn
I0821 08:59:08.763901 32502 net.cpp:434] L1_b14_cbr1_bn <- L1_b14_cbr1_conv_top
I0821 08:59:08.763911 32502 net.cpp:408] L1_b14_cbr1_bn -> L1_b14_cbr1_bn_top
I0821 08:59:08.764154 32502 net.cpp:150] Setting up L1_b14_cbr1_bn
I0821 08:59:08.764168 32502 net.cpp:157] Top shape: 100 16 32 32 (1638400)
I0821 08:59:08.764173 32502 net.cpp:165] Memory required for data: 990823600
I0821 08:59:08.764183 32502 layer_factory.hpp:77] Creating layer L1_b14_cbr1_scale
I0821 08:59:08.764191 32502 net.cpp:100] Creating Layer L1_b14_cbr1_scale
I0821 08:59:08.764197 32502 net.cpp:434] L1_b14_cbr1_scale <- L1_b14_cbr1_bn_top
I0821 08:59:08.764205 32502 net.cpp:395] L1_b14_cbr1_scale -> L1_b14_cbr1_bn_top (in-place)
I0821 08:59:08.764261 32502 layer_factory.hpp:77] Creating layer L1_b14_cbr1_scale
I0821 08:59:08.764403 32502 net.cpp:150] Setting up L1_b14_cbr1_scale
I0821 08:59:08.764416 32502 net.cpp:157] Top shape: 100 16 32 32 (1638400)
I0821 08:59:08.764421 32502 net.cpp:165] Memory required for data: 997377200
I0821 08:59:08.764430 32502 layer_factory.hpp:77] Creating layer L1_b14_cbr1_relu
I0821 08:59:08.764439 32502 net.cpp:100] Creating Layer L1_b14_cbr1_relu
I0821 08:59:08.764444 32502 net.cpp:434] L1_b14_cbr1_relu <- L1_b14_cbr1_bn_top
I0821 08:59:08.764456 32502 net.cpp:395] L1_b14_cbr1_relu -> L1_b14_cbr1_bn_top (in-place)
I0821 08:59:08.764466 32502 net.cpp:150] Setting up L1_b14_cbr1_relu
I0821 08:59:08.764472 32502 net.cpp:157] Top shape: 100 16 32 32 (1638400)
I0821 08:59:08.764477 32502 net.cpp:165] Memory required for data: 1003930800
I0821 08:59:08.764482 32502 layer_factory.hpp:77] Creating layer L1_b14_cbr2_conv
I0821 08:59:08.764503 32502 net.cpp:100] Creating Layer L1_b14_cbr2_conv
I0821 08:59:08.764508 32502 net.cpp:434] L1_b14_cbr2_conv <- L1_b14_cbr1_bn_top
I0821 08:59:08.764518 32502 net.cpp:408] L1_b14_cbr2_conv -> L1_b14_cbr2_conv_top
I0821 08:59:08.764844 32502 net.cpp:150] Setting up L1_b14_cbr2_conv
I0821 08:59:08.764858 32502 net.cpp:157] Top shape: 100 16 32 32 (1638400)
I0821 08:59:08.764863 32502 net.cpp:165] Memory required for data: 1010484400
I0821 08:59:08.764873 32502 layer_factory.hpp:77] Creating layer L1_b14_cbr2_bn
I0821 08:59:08.764884 32502 net.cpp:100] Creating Layer L1_b14_cbr2_bn
I0821 08:59:08.764890 32502 net.cpp:434] L1_b14_cbr2_bn <- L1_b14_cbr2_conv_top
I0821 08:59:08.764899 32502 net.cpp:408] L1_b14_cbr2_bn -> L1_b14_cbr2_bn_top
I0821 08:59:08.765144 32502 net.cpp:150] Setting up L1_b14_cbr2_bn
I0821 08:59:08.765161 32502 net.cpp:157] Top shape: 100 16 32 32 (1638400)
I0821 08:59:08.765166 32502 net.cpp:165] Memory required for data: 1017038000
I0821 08:59:08.765177 32502 layer_factory.hpp:77] Creating layer L1_b14_cbr2_scale
I0821 08:59:08.765184 32502 net.cpp:100] Creating Layer L1_b14_cbr2_scale
I0821 08:59:08.765192 32502 net.cpp:434] L1_b14_cbr2_scale <- L1_b14_cbr2_bn_top
I0821 08:59:08.765198 32502 net.cpp:395] L1_b14_cbr2_scale -> L1_b14_cbr2_bn_top (in-place)
I0821 08:59:08.765254 32502 layer_factory.hpp:77] Creating layer L1_b14_cbr2_scale
I0821 08:59:08.765398 32502 net.cpp:150] Setting up L1_b14_cbr2_scale
I0821 08:59:08.765411 32502 net.cpp:157] Top shape: 100 16 32 32 (1638400)
I0821 08:59:08.765416 32502 net.cpp:165] Memory required for data: 1023591600
I0821 08:59:08.765425 32502 layer_factory.hpp:77] Creating layer L1_b14_sum_eltwise
I0821 08:59:08.765437 32502 net.cpp:100] Creating Layer L1_b14_sum_eltwise
I0821 08:59:08.765444 32502 net.cpp:434] L1_b14_sum_eltwise <- L1_b14_cbr2_bn_top
I0821 08:59:08.765450 32502 net.cpp:434] L1_b14_sum_eltwise <- L1_b13_sum_eltwise_top_L1_b13_relu_0_split_1
I0821 08:59:08.765460 32502 net.cpp:408] L1_b14_sum_eltwise -> L1_b14_sum_eltwise_top
I0821 08:59:08.765492 32502 net.cpp:150] Setting up L1_b14_sum_eltwise
I0821 08:59:08.765501 32502 net.cpp:157] Top shape: 100 16 32 32 (1638400)
I0821 08:59:08.765506 32502 net.cpp:165] Memory required for data: 1030145200
I0821 08:59:08.765511 32502 layer_factory.hpp:77] Creating layer L1_b14_relu
I0821 08:59:08.765522 32502 net.cpp:100] Creating Layer L1_b14_relu
I0821 08:59:08.765528 32502 net.cpp:434] L1_b14_relu <- L1_b14_sum_eltwise_top
I0821 08:59:08.765535 32502 net.cpp:395] L1_b14_relu -> L1_b14_sum_eltwise_top (in-place)
I0821 08:59:08.765544 32502 net.cpp:150] Setting up L1_b14_relu
I0821 08:59:08.765552 32502 net.cpp:157] Top shape: 100 16 32 32 (1638400)
I0821 08:59:08.765557 32502 net.cpp:165] Memory required for data: 1036698800
I0821 08:59:08.765560 32502 layer_factory.hpp:77] Creating layer L1_b14_sum_eltwise_top_L1_b14_relu_0_split
I0821 08:59:08.765568 32502 net.cpp:100] Creating Layer L1_b14_sum_eltwise_top_L1_b14_relu_0_split
I0821 08:59:08.765573 32502 net.cpp:434] L1_b14_sum_eltwise_top_L1_b14_relu_0_split <- L1_b14_sum_eltwise_top
I0821 08:59:08.765580 32502 net.cpp:408] L1_b14_sum_eltwise_top_L1_b14_relu_0_split -> L1_b14_sum_eltwise_top_L1_b14_relu_0_split_0
I0821 08:59:08.765589 32502 net.cpp:408] L1_b14_sum_eltwise_top_L1_b14_relu_0_split -> L1_b14_sum_eltwise_top_L1_b14_relu_0_split_1
I0821 08:59:08.765635 32502 net.cpp:150] Setting up L1_b14_sum_eltwise_top_L1_b14_relu_0_split
I0821 08:59:08.765647 32502 net.cpp:157] Top shape: 100 16 32 32 (1638400)
I0821 08:59:08.765653 32502 net.cpp:157] Top shape: 100 16 32 32 (1638400)
I0821 08:59:08.765658 32502 net.cpp:165] Memory required for data: 1049806000
I0821 08:59:08.765663 32502 layer_factory.hpp:77] Creating layer L1_b15_cbr1_conv
I0821 08:59:08.765677 32502 net.cpp:100] Creating Layer L1_b15_cbr1_conv
I0821 08:59:08.765683 32502 net.cpp:434] L1_b15_cbr1_conv <- L1_b14_sum_eltwise_top_L1_b14_relu_0_split_0
I0821 08:59:08.765692 32502 net.cpp:408] L1_b15_cbr1_conv -> L1_b15_cbr1_conv_top
I0821 08:59:08.766021 32502 net.cpp:150] Setting up L1_b15_cbr1_conv
I0821 08:59:08.766042 32502 net.cpp:157] Top shape: 100 16 32 32 (1638400)
I0821 08:59:08.766047 32502 net.cpp:165] Memory required for data: 1056359600
I0821 08:59:08.766057 32502 layer_factory.hpp:77] Creating layer L1_b15_cbr1_bn
I0821 08:59:08.766068 32502 net.cpp:100] Creating Layer L1_b15_cbr1_bn
I0821 08:59:08.766075 32502 net.cpp:434] L1_b15_cbr1_bn <- L1_b15_cbr1_conv_top
I0821 08:59:08.766083 32502 net.cpp:408] L1_b15_cbr1_bn -> L1_b15_cbr1_bn_top
I0821 08:59:08.766330 32502 net.cpp:150] Setting up L1_b15_cbr1_bn
I0821 08:59:08.766343 32502 net.cpp:157] Top shape: 100 16 32 32 (1638400)
I0821 08:59:08.766348 32502 net.cpp:165] Memory required for data: 1062913200
I0821 08:59:08.766360 32502 layer_factory.hpp:77] Creating layer L1_b15_cbr1_scale
I0821 08:59:08.766367 32502 net.cpp:100] Creating Layer L1_b15_cbr1_scale
I0821 08:59:08.766373 32502 net.cpp:434] L1_b15_cbr1_scale <- L1_b15_cbr1_bn_top
I0821 08:59:08.766381 32502 net.cpp:395] L1_b15_cbr1_scale -> L1_b15_cbr1_bn_top (in-place)
I0821 08:59:08.766438 32502 layer_factory.hpp:77] Creating layer L1_b15_cbr1_scale
I0821 08:59:08.766582 32502 net.cpp:150] Setting up L1_b15_cbr1_scale
I0821 08:59:08.766595 32502 net.cpp:157] Top shape: 100 16 32 32 (1638400)
I0821 08:59:08.766600 32502 net.cpp:165] Memory required for data: 1069466800
I0821 08:59:08.766609 32502 layer_factory.hpp:77] Creating layer L1_b15_cbr1_relu
I0821 08:59:08.766618 32502 net.cpp:100] Creating Layer L1_b15_cbr1_relu
I0821 08:59:08.766624 32502 net.cpp:434] L1_b15_cbr1_relu <- L1_b15_cbr1_bn_top
I0821 08:59:08.766634 32502 net.cpp:395] L1_b15_cbr1_relu -> L1_b15_cbr1_bn_top (in-place)
I0821 08:59:08.766644 32502 net.cpp:150] Setting up L1_b15_cbr1_relu
I0821 08:59:08.766651 32502 net.cpp:157] Top shape: 100 16 32 32 (1638400)
I0821 08:59:08.766655 32502 net.cpp:165] Memory required for data: 1076020400
I0821 08:59:08.766660 32502 layer_factory.hpp:77] Creating layer L1_b15_cbr2_conv
I0821 08:59:08.766671 32502 net.cpp:100] Creating Layer L1_b15_cbr2_conv
I0821 08:59:08.766677 32502 net.cpp:434] L1_b15_cbr2_conv <- L1_b15_cbr1_bn_top
I0821 08:59:08.766688 32502 net.cpp:408] L1_b15_cbr2_conv -> L1_b15_cbr2_conv_top
I0821 08:59:08.767041 32502 net.cpp:150] Setting up L1_b15_cbr2_conv
I0821 08:59:08.767056 32502 net.cpp:157] Top shape: 100 16 32 32 (1638400)
I0821 08:59:08.767061 32502 net.cpp:165] Memory required for data: 1082574000
I0821 08:59:08.767071 32502 layer_factory.hpp:77] Creating layer L1_b15_cbr2_bn
I0821 08:59:08.767079 32502 net.cpp:100] Creating Layer L1_b15_cbr2_bn
I0821 08:59:08.767086 32502 net.cpp:434] L1_b15_cbr2_bn <- L1_b15_cbr2_conv_top
I0821 08:59:08.767097 32502 net.cpp:408] L1_b15_cbr2_bn -> L1_b15_cbr2_bn_top
I0821 08:59:08.767343 32502 net.cpp:150] Setting up L1_b15_cbr2_bn
I0821 08:59:08.767360 32502 net.cpp:157] Top shape: 100 16 32 32 (1638400)
I0821 08:59:08.767365 32502 net.cpp:165] Memory required for data: 1089127600
I0821 08:59:08.767376 32502 layer_factory.hpp:77] Creating layer L1_b15_cbr2_scale
I0821 08:59:08.767385 32502 net.cpp:100] Creating Layer L1_b15_cbr2_scale
I0821 08:59:08.767391 32502 net.cpp:434] L1_b15_cbr2_scale <- L1_b15_cbr2_bn_top
I0821 08:59:08.767398 32502 net.cpp:395] L1_b15_cbr2_scale -> L1_b15_cbr2_bn_top (in-place)
I0821 08:59:08.767452 32502 layer_factory.hpp:77] Creating layer L1_b15_cbr2_scale
I0821 08:59:08.767598 32502 net.cpp:150] Setting up L1_b15_cbr2_scale
I0821 08:59:08.767611 32502 net.cpp:157] Top shape: 100 16 32 32 (1638400)
I0821 08:59:08.767616 32502 net.cpp:165] Memory required for data: 1095681200
I0821 08:59:08.767626 32502 layer_factory.hpp:77] Creating layer L1_b15_sum_eltwise
I0821 08:59:08.767637 32502 net.cpp:100] Creating Layer L1_b15_sum_eltwise
I0821 08:59:08.767644 32502 net.cpp:434] L1_b15_sum_eltwise <- L1_b15_cbr2_bn_top
I0821 08:59:08.767652 32502 net.cpp:434] L1_b15_sum_eltwise <- L1_b14_sum_eltwise_top_L1_b14_relu_0_split_1
I0821 08:59:08.767662 32502 net.cpp:408] L1_b15_sum_eltwise -> L1_b15_sum_eltwise_top
I0821 08:59:08.767693 32502 net.cpp:150] Setting up L1_b15_sum_eltwise
I0821 08:59:08.767710 32502 net.cpp:157] Top shape: 100 16 32 32 (1638400)
I0821 08:59:08.767715 32502 net.cpp:165] Memory required for data: 1102234800
I0821 08:59:08.767720 32502 layer_factory.hpp:77] Creating layer L1_b15_relu
I0821 08:59:08.767730 32502 net.cpp:100] Creating Layer L1_b15_relu
I0821 08:59:08.767737 32502 net.cpp:434] L1_b15_relu <- L1_b15_sum_eltwise_top
I0821 08:59:08.767750 32502 net.cpp:395] L1_b15_relu -> L1_b15_sum_eltwise_top (in-place)
I0821 08:59:08.767761 32502 net.cpp:150] Setting up L1_b15_relu
I0821 08:59:08.767768 32502 net.cpp:157] Top shape: 100 16 32 32 (1638400)
I0821 08:59:08.767772 32502 net.cpp:165] Memory required for data: 1108788400
I0821 08:59:08.767777 32502 layer_factory.hpp:77] Creating layer L1_b15_sum_eltwise_top_L1_b15_relu_0_split
I0821 08:59:08.767784 32502 net.cpp:100] Creating Layer L1_b15_sum_eltwise_top_L1_b15_relu_0_split
I0821 08:59:08.767791 32502 net.cpp:434] L1_b15_sum_eltwise_top_L1_b15_relu_0_split <- L1_b15_sum_eltwise_top
I0821 08:59:08.767797 32502 net.cpp:408] L1_b15_sum_eltwise_top_L1_b15_relu_0_split -> L1_b15_sum_eltwise_top_L1_b15_relu_0_split_0
I0821 08:59:08.767807 32502 net.cpp:408] L1_b15_sum_eltwise_top_L1_b15_relu_0_split -> L1_b15_sum_eltwise_top_L1_b15_relu_0_split_1
I0821 08:59:08.767855 32502 net.cpp:150] Setting up L1_b15_sum_eltwise_top_L1_b15_relu_0_split
I0821 08:59:08.767868 32502 net.cpp:157] Top shape: 100 16 32 32 (1638400)
I0821 08:59:08.767874 32502 net.cpp:157] Top shape: 100 16 32 32 (1638400)
I0821 08:59:08.767879 32502 net.cpp:165] Memory required for data: 1121895600
I0821 08:59:08.767884 32502 layer_factory.hpp:77] Creating layer L1_b16_cbr1_conv
I0821 08:59:08.767899 32502 net.cpp:100] Creating Layer L1_b16_cbr1_conv
I0821 08:59:08.767904 32502 net.cpp:434] L1_b16_cbr1_conv <- L1_b15_sum_eltwise_top_L1_b15_relu_0_split_0
I0821 08:59:08.767913 32502 net.cpp:408] L1_b16_cbr1_conv -> L1_b16_cbr1_conv_top
I0821 08:59:08.768235 32502 net.cpp:150] Setting up L1_b16_cbr1_conv
I0821 08:59:08.768249 32502 net.cpp:157] Top shape: 100 16 32 32 (1638400)
I0821 08:59:08.768254 32502 net.cpp:165] Memory required for data: 1128449200
I0821 08:59:08.768263 32502 layer_factory.hpp:77] Creating layer L1_b16_cbr1_bn
I0821 08:59:08.768275 32502 net.cpp:100] Creating Layer L1_b16_cbr1_bn
I0821 08:59:08.768282 32502 net.cpp:434] L1_b16_cbr1_bn <- L1_b16_cbr1_conv_top
I0821 08:59:08.768290 32502 net.cpp:408] L1_b16_cbr1_bn -> L1_b16_cbr1_bn_top
I0821 08:59:08.768534 32502 net.cpp:150] Setting up L1_b16_cbr1_bn
I0821 08:59:08.768549 32502 net.cpp:157] Top shape: 100 16 32 32 (1638400)
I0821 08:59:08.768555 32502 net.cpp:165] Memory required for data: 1135002800
I0821 08:59:08.768565 32502 layer_factory.hpp:77] Creating layer L1_b16_cbr1_scale
I0821 08:59:08.768574 32502 net.cpp:100] Creating Layer L1_b16_cbr1_scale
I0821 08:59:08.768581 32502 net.cpp:434] L1_b16_cbr1_scale <- L1_b16_cbr1_bn_top
I0821 08:59:08.768589 32502 net.cpp:395] L1_b16_cbr1_scale -> L1_b16_cbr1_bn_top (in-place)
I0821 08:59:08.768643 32502 layer_factory.hpp:77] Creating layer L1_b16_cbr1_scale
I0821 08:59:08.768795 32502 net.cpp:150] Setting up L1_b16_cbr1_scale
I0821 08:59:08.768810 32502 net.cpp:157] Top shape: 100 16 32 32 (1638400)
I0821 08:59:08.768815 32502 net.cpp:165] Memory required for data: 1141556400
I0821 08:59:08.768823 32502 layer_factory.hpp:77] Creating layer L1_b16_cbr1_relu
I0821 08:59:08.768836 32502 net.cpp:100] Creating Layer L1_b16_cbr1_relu
I0821 08:59:08.768843 32502 net.cpp:434] L1_b16_cbr1_relu <- L1_b16_cbr1_bn_top
I0821 08:59:08.768853 32502 net.cpp:395] L1_b16_cbr1_relu -> L1_b16_cbr1_bn_top (in-place)
I0821 08:59:08.768863 32502 net.cpp:150] Setting up L1_b16_cbr1_relu
I0821 08:59:08.768870 32502 net.cpp:157] Top shape: 100 16 32 32 (1638400)
I0821 08:59:08.768874 32502 net.cpp:165] Memory required for data: 1148110000
I0821 08:59:08.768879 32502 layer_factory.hpp:77] Creating layer L1_b16_cbr2_conv
I0821 08:59:08.768890 32502 net.cpp:100] Creating Layer L1_b16_cbr2_conv
I0821 08:59:08.768895 32502 net.cpp:434] L1_b16_cbr2_conv <- L1_b16_cbr1_bn_top
I0821 08:59:08.768915 32502 net.cpp:408] L1_b16_cbr2_conv -> L1_b16_cbr2_conv_top
I0821 08:59:08.769238 32502 net.cpp:150] Setting up L1_b16_cbr2_conv
I0821 08:59:08.769253 32502 net.cpp:157] Top shape: 100 16 32 32 (1638400)
I0821 08:59:08.769258 32502 net.cpp:165] Memory required for data: 1154663600
I0821 08:59:08.769265 32502 layer_factory.hpp:77] Creating layer L1_b16_cbr2_bn
I0821 08:59:08.769275 32502 net.cpp:100] Creating Layer L1_b16_cbr2_bn
I0821 08:59:08.769281 32502 net.cpp:434] L1_b16_cbr2_bn <- L1_b16_cbr2_conv_top
I0821 08:59:08.769294 32502 net.cpp:408] L1_b16_cbr2_bn -> L1_b16_cbr2_bn_top
I0821 08:59:08.769546 32502 net.cpp:150] Setting up L1_b16_cbr2_bn
I0821 08:59:08.769558 32502 net.cpp:157] Top shape: 100 16 32 32 (1638400)
I0821 08:59:08.769563 32502 net.cpp:165] Memory required for data: 1161217200
I0821 08:59:08.769574 32502 layer_factory.hpp:77] Creating layer L1_b16_cbr2_scale
I0821 08:59:08.769585 32502 net.cpp:100] Creating Layer L1_b16_cbr2_scale
I0821 08:59:08.769593 32502 net.cpp:434] L1_b16_cbr2_scale <- L1_b16_cbr2_bn_top
I0821 08:59:08.769599 32502 net.cpp:395] L1_b16_cbr2_scale -> L1_b16_cbr2_bn_top (in-place)
I0821 08:59:08.769654 32502 layer_factory.hpp:77] Creating layer L1_b16_cbr2_scale
I0821 08:59:08.769809 32502 net.cpp:150] Setting up L1_b16_cbr2_scale
I0821 08:59:08.769821 32502 net.cpp:157] Top shape: 100 16 32 32 (1638400)
I0821 08:59:08.769826 32502 net.cpp:165] Memory required for data: 1167770800
I0821 08:59:08.769835 32502 layer_factory.hpp:77] Creating layer L1_b16_sum_eltwise
I0821 08:59:08.769847 32502 net.cpp:100] Creating Layer L1_b16_sum_eltwise
I0821 08:59:08.769855 32502 net.cpp:434] L1_b16_sum_eltwise <- L1_b16_cbr2_bn_top
I0821 08:59:08.769861 32502 net.cpp:434] L1_b16_sum_eltwise <- L1_b15_sum_eltwise_top_L1_b15_relu_0_split_1
I0821 08:59:08.769870 32502 net.cpp:408] L1_b16_sum_eltwise -> L1_b16_sum_eltwise_top
I0821 08:59:08.769904 32502 net.cpp:150] Setting up L1_b16_sum_eltwise
I0821 08:59:08.769913 32502 net.cpp:157] Top shape: 100 16 32 32 (1638400)
I0821 08:59:08.769918 32502 net.cpp:165] Memory required for data: 1174324400
I0821 08:59:08.769923 32502 layer_factory.hpp:77] Creating layer L1_b16_relu
I0821 08:59:08.769932 32502 net.cpp:100] Creating Layer L1_b16_relu
I0821 08:59:08.769937 32502 net.cpp:434] L1_b16_relu <- L1_b16_sum_eltwise_top
I0821 08:59:08.769948 32502 net.cpp:395] L1_b16_relu -> L1_b16_sum_eltwise_top (in-place)
I0821 08:59:08.769958 32502 net.cpp:150] Setting up L1_b16_relu
I0821 08:59:08.769964 32502 net.cpp:157] Top shape: 100 16 32 32 (1638400)
I0821 08:59:08.769969 32502 net.cpp:165] Memory required for data: 1180878000
I0821 08:59:08.769973 32502 layer_factory.hpp:77] Creating layer L1_b16_sum_eltwise_top_L1_b16_relu_0_split
I0821 08:59:08.769980 32502 net.cpp:100] Creating Layer L1_b16_sum_eltwise_top_L1_b16_relu_0_split
I0821 08:59:08.769985 32502 net.cpp:434] L1_b16_sum_eltwise_top_L1_b16_relu_0_split <- L1_b16_sum_eltwise_top
I0821 08:59:08.769994 32502 net.cpp:408] L1_b16_sum_eltwise_top_L1_b16_relu_0_split -> L1_b16_sum_eltwise_top_L1_b16_relu_0_split_0
I0821 08:59:08.770002 32502 net.cpp:408] L1_b16_sum_eltwise_top_L1_b16_relu_0_split -> L1_b16_sum_eltwise_top_L1_b16_relu_0_split_1
I0821 08:59:08.770050 32502 net.cpp:150] Setting up L1_b16_sum_eltwise_top_L1_b16_relu_0_split
I0821 08:59:08.770061 32502 net.cpp:157] Top shape: 100 16 32 32 (1638400)
I0821 08:59:08.770067 32502 net.cpp:157] Top shape: 100 16 32 32 (1638400)
I0821 08:59:08.770072 32502 net.cpp:165] Memory required for data: 1193985200
I0821 08:59:08.770077 32502 layer_factory.hpp:77] Creating layer L1_b17_cbr1_conv
I0821 08:59:08.770087 32502 net.cpp:100] Creating Layer L1_b17_cbr1_conv
I0821 08:59:08.770093 32502 net.cpp:434] L1_b17_cbr1_conv <- L1_b16_sum_eltwise_top_L1_b16_relu_0_split_0
I0821 08:59:08.770105 32502 net.cpp:408] L1_b17_cbr1_conv -> L1_b17_cbr1_conv_top
I0821 08:59:08.770428 32502 net.cpp:150] Setting up L1_b17_cbr1_conv
I0821 08:59:08.770442 32502 net.cpp:157] Top shape: 100 16 32 32 (1638400)
I0821 08:59:08.770447 32502 net.cpp:165] Memory required for data: 1200538800
I0821 08:59:08.770463 32502 layer_factory.hpp:77] Creating layer L1_b17_cbr1_bn
I0821 08:59:08.770473 32502 net.cpp:100] Creating Layer L1_b17_cbr1_bn
I0821 08:59:08.770479 32502 net.cpp:434] L1_b17_cbr1_bn <- L1_b17_cbr1_conv_top
I0821 08:59:08.770493 32502 net.cpp:408] L1_b17_cbr1_bn -> L1_b17_cbr1_bn_top
I0821 08:59:08.770747 32502 net.cpp:150] Setting up L1_b17_cbr1_bn
I0821 08:59:08.770766 32502 net.cpp:157] Top shape: 100 16 32 32 (1638400)
I0821 08:59:08.770771 32502 net.cpp:165] Memory required for data: 1207092400
I0821 08:59:08.770781 32502 layer_factory.hpp:77] Creating layer L1_b17_cbr1_scale
I0821 08:59:08.770790 32502 net.cpp:100] Creating Layer L1_b17_cbr1_scale
I0821 08:59:08.770797 32502 net.cpp:434] L1_b17_cbr1_scale <- L1_b17_cbr1_bn_top
I0821 08:59:08.770803 32502 net.cpp:395] L1_b17_cbr1_scale -> L1_b17_cbr1_bn_top (in-place)
I0821 08:59:08.770859 32502 layer_factory.hpp:77] Creating layer L1_b17_cbr1_scale
I0821 08:59:08.771006 32502 net.cpp:150] Setting up L1_b17_cbr1_scale
I0821 08:59:08.771019 32502 net.cpp:157] Top shape: 100 16 32 32 (1638400)
I0821 08:59:08.771024 32502 net.cpp:165] Memory required for data: 1213646000
I0821 08:59:08.771034 32502 layer_factory.hpp:77] Creating layer L1_b17_cbr1_relu
I0821 08:59:08.771044 32502 net.cpp:100] Creating Layer L1_b17_cbr1_relu
I0821 08:59:08.771050 32502 net.cpp:434] L1_b17_cbr1_relu <- L1_b17_cbr1_bn_top
I0821 08:59:08.771057 32502 net.cpp:395] L1_b17_cbr1_relu -> L1_b17_cbr1_bn_top (in-place)
I0821 08:59:08.771067 32502 net.cpp:150] Setting up L1_b17_cbr1_relu
I0821 08:59:08.771075 32502 net.cpp:157] Top shape: 100 16 32 32 (1638400)
I0821 08:59:08.771078 32502 net.cpp:165] Memory required for data: 1220199600
I0821 08:59:08.771083 32502 layer_factory.hpp:77] Creating layer L1_b17_cbr2_conv
I0821 08:59:08.771097 32502 net.cpp:100] Creating Layer L1_b17_cbr2_conv
I0821 08:59:08.771103 32502 net.cpp:434] L1_b17_cbr2_conv <- L1_b17_cbr1_bn_top
I0821 08:59:08.771114 32502 net.cpp:408] L1_b17_cbr2_conv -> L1_b17_cbr2_conv_top
I0821 08:59:08.771438 32502 net.cpp:150] Setting up L1_b17_cbr2_conv
I0821 08:59:08.771452 32502 net.cpp:157] Top shape: 100 16 32 32 (1638400)
I0821 08:59:08.771457 32502 net.cpp:165] Memory required for data: 1226753200
I0821 08:59:08.771466 32502 layer_factory.hpp:77] Creating layer L1_b17_cbr2_bn
I0821 08:59:08.771476 32502 net.cpp:100] Creating Layer L1_b17_cbr2_bn
I0821 08:59:08.771481 32502 net.cpp:434] L1_b17_cbr2_bn <- L1_b17_cbr2_conv_top
I0821 08:59:08.771492 32502 net.cpp:408] L1_b17_cbr2_bn -> L1_b17_cbr2_bn_top
I0821 08:59:08.771749 32502 net.cpp:150] Setting up L1_b17_cbr2_bn
I0821 08:59:08.771762 32502 net.cpp:157] Top shape: 100 16 32 32 (1638400)
I0821 08:59:08.771767 32502 net.cpp:165] Memory required for data: 1233306800
I0821 08:59:08.771777 32502 layer_factory.hpp:77] Creating layer L1_b17_cbr2_scale
I0821 08:59:08.771790 32502 net.cpp:100] Creating Layer L1_b17_cbr2_scale
I0821 08:59:08.771795 32502 net.cpp:434] L1_b17_cbr2_scale <- L1_b17_cbr2_bn_top
I0821 08:59:08.771803 32502 net.cpp:395] L1_b17_cbr2_scale -> L1_b17_cbr2_bn_top (in-place)
I0821 08:59:08.771858 32502 layer_factory.hpp:77] Creating layer L1_b17_cbr2_scale
I0821 08:59:08.772008 32502 net.cpp:150] Setting up L1_b17_cbr2_scale
I0821 08:59:08.772022 32502 net.cpp:157] Top shape: 100 16 32 32 (1638400)
I0821 08:59:08.772027 32502 net.cpp:165] Memory required for data: 1239860400
I0821 08:59:08.772035 32502 layer_factory.hpp:77] Creating layer L1_b17_sum_eltwise
I0821 08:59:08.772048 32502 net.cpp:100] Creating Layer L1_b17_sum_eltwise
I0821 08:59:08.772055 32502 net.cpp:434] L1_b17_sum_eltwise <- L1_b17_cbr2_bn_top
I0821 08:59:08.772063 32502 net.cpp:434] L1_b17_sum_eltwise <- L1_b16_sum_eltwise_top_L1_b16_relu_0_split_1
I0821 08:59:08.772070 32502 net.cpp:408] L1_b17_sum_eltwise -> L1_b17_sum_eltwise_top
I0821 08:59:08.772105 32502 net.cpp:150] Setting up L1_b17_sum_eltwise
I0821 08:59:08.772115 32502 net.cpp:157] Top shape: 100 16 32 32 (1638400)
I0821 08:59:08.772119 32502 net.cpp:165] Memory required for data: 1246414000
I0821 08:59:08.772131 32502 layer_factory.hpp:77] Creating layer L1_b17_relu
I0821 08:59:08.772140 32502 net.cpp:100] Creating Layer L1_b17_relu
I0821 08:59:08.772145 32502 net.cpp:434] L1_b17_relu <- L1_b17_sum_eltwise_top
I0821 08:59:08.772156 32502 net.cpp:395] L1_b17_relu -> L1_b17_sum_eltwise_top (in-place)
I0821 08:59:08.772166 32502 net.cpp:150] Setting up L1_b17_relu
I0821 08:59:08.772173 32502 net.cpp:157] Top shape: 100 16 32 32 (1638400)
I0821 08:59:08.772177 32502 net.cpp:165] Memory required for data: 1252967600
I0821 08:59:08.772182 32502 layer_factory.hpp:77] Creating layer L1_b17_sum_eltwise_top_L1_b17_relu_0_split
I0821 08:59:08.772189 32502 net.cpp:100] Creating Layer L1_b17_sum_eltwise_top_L1_b17_relu_0_split
I0821 08:59:08.772194 32502 net.cpp:434] L1_b17_sum_eltwise_top_L1_b17_relu_0_split <- L1_b17_sum_eltwise_top
I0821 08:59:08.772202 32502 net.cpp:408] L1_b17_sum_eltwise_top_L1_b17_relu_0_split -> L1_b17_sum_eltwise_top_L1_b17_relu_0_split_0
I0821 08:59:08.772212 32502 net.cpp:408] L1_b17_sum_eltwise_top_L1_b17_relu_0_split -> L1_b17_sum_eltwise_top_L1_b17_relu_0_split_1
I0821 08:59:08.772259 32502 net.cpp:150] Setting up L1_b17_sum_eltwise_top_L1_b17_relu_0_split
I0821 08:59:08.772271 32502 net.cpp:157] Top shape: 100 16 32 32 (1638400)
I0821 08:59:08.772279 32502 net.cpp:157] Top shape: 100 16 32 32 (1638400)
I0821 08:59:08.772282 32502 net.cpp:165] Memory required for data: 1266074800
I0821 08:59:08.772287 32502 layer_factory.hpp:77] Creating layer L1_b18_cbr1_conv
I0821 08:59:08.772298 32502 net.cpp:100] Creating Layer L1_b18_cbr1_conv
I0821 08:59:08.772305 32502 net.cpp:434] L1_b18_cbr1_conv <- L1_b17_sum_eltwise_top_L1_b17_relu_0_split_0
I0821 08:59:08.772316 32502 net.cpp:408] L1_b18_cbr1_conv -> L1_b18_cbr1_conv_top
I0821 08:59:08.772635 32502 net.cpp:150] Setting up L1_b18_cbr1_conv
I0821 08:59:08.772650 32502 net.cpp:157] Top shape: 100 16 32 32 (1638400)
I0821 08:59:08.772655 32502 net.cpp:165] Memory required for data: 1272628400
I0821 08:59:08.772663 32502 layer_factory.hpp:77] Creating layer L1_b18_cbr1_bn
I0821 08:59:08.772672 32502 net.cpp:100] Creating Layer L1_b18_cbr1_bn
I0821 08:59:08.772678 32502 net.cpp:434] L1_b18_cbr1_bn <- L1_b18_cbr1_conv_top
I0821 08:59:08.772691 32502 net.cpp:408] L1_b18_cbr1_bn -> L1_b18_cbr1_bn_top
I0821 08:59:08.772963 32502 net.cpp:150] Setting up L1_b18_cbr1_bn
I0821 08:59:08.772976 32502 net.cpp:157] Top shape: 100 16 32 32 (1638400)
I0821 08:59:08.772982 32502 net.cpp:165] Memory required for data: 1279182000
I0821 08:59:08.772992 32502 layer_factory.hpp:77] Creating layer L1_b18_cbr1_scale
I0821 08:59:08.773005 32502 net.cpp:100] Creating Layer L1_b18_cbr1_scale
I0821 08:59:08.773011 32502 net.cpp:434] L1_b18_cbr1_scale <- L1_b18_cbr1_bn_top
I0821 08:59:08.773020 32502 net.cpp:395] L1_b18_cbr1_scale -> L1_b18_cbr1_bn_top (in-place)
I0821 08:59:08.773077 32502 layer_factory.hpp:77] Creating layer L1_b18_cbr1_scale
I0821 08:59:08.773221 32502 net.cpp:150] Setting up L1_b18_cbr1_scale
I0821 08:59:08.773234 32502 net.cpp:157] Top shape: 100 16 32 32 (1638400)
I0821 08:59:08.773239 32502 net.cpp:165] Memory required for data: 1285735600
I0821 08:59:08.773248 32502 layer_factory.hpp:77] Creating layer L1_b18_cbr1_relu
I0821 08:59:08.773257 32502 net.cpp:100] Creating Layer L1_b18_cbr1_relu
I0821 08:59:08.773263 32502 net.cpp:434] L1_b18_cbr1_relu <- L1_b18_cbr1_bn_top
I0821 08:59:08.773273 32502 net.cpp:395] L1_b18_cbr1_relu -> L1_b18_cbr1_bn_top (in-place)
I0821 08:59:08.773283 32502 net.cpp:150] Setting up L1_b18_cbr1_relu
I0821 08:59:08.773289 32502 net.cpp:157] Top shape: 100 16 32 32 (1638400)
I0821 08:59:08.773294 32502 net.cpp:165] Memory required for data: 1292289200
I0821 08:59:08.773299 32502 layer_factory.hpp:77] Creating layer L1_b18_cbr2_conv
I0821 08:59:08.773315 32502 net.cpp:100] Creating Layer L1_b18_cbr2_conv
I0821 08:59:08.773321 32502 net.cpp:434] L1_b18_cbr2_conv <- L1_b18_cbr1_bn_top
I0821 08:59:08.773332 32502 net.cpp:408] L1_b18_cbr2_conv -> L1_b18_cbr2_conv_top
I0821 08:59:08.773655 32502 net.cpp:150] Setting up L1_b18_cbr2_conv
I0821 08:59:08.773676 32502 net.cpp:157] Top shape: 100 16 32 32 (1638400)
I0821 08:59:08.773681 32502 net.cpp:165] Memory required for data: 1298842800
I0821 08:59:08.773690 32502 layer_factory.hpp:77] Creating layer L1_b18_cbr2_bn
I0821 08:59:08.773699 32502 net.cpp:100] Creating Layer L1_b18_cbr2_bn
I0821 08:59:08.773706 32502 net.cpp:434] L1_b18_cbr2_bn <- L1_b18_cbr2_conv_top
I0821 08:59:08.773715 32502 net.cpp:408] L1_b18_cbr2_bn -> L1_b18_cbr2_bn_top
I0821 08:59:08.773968 32502 net.cpp:150] Setting up L1_b18_cbr2_bn
I0821 08:59:08.773983 32502 net.cpp:157] Top shape: 100 16 32 32 (1638400)
I0821 08:59:08.773988 32502 net.cpp:165] Memory required for data: 1305396400
I0821 08:59:08.774031 32502 layer_factory.hpp:77] Creating layer L1_b18_cbr2_scale
I0821 08:59:08.774049 32502 net.cpp:100] Creating Layer L1_b18_cbr2_scale
I0821 08:59:08.774056 32502 net.cpp:434] L1_b18_cbr2_scale <- L1_b18_cbr2_bn_top
I0821 08:59:08.774065 32502 net.cpp:395] L1_b18_cbr2_scale -> L1_b18_cbr2_bn_top (in-place)
I0821 08:59:08.774123 32502 layer_factory.hpp:77] Creating layer L1_b18_cbr2_scale
I0821 08:59:08.774266 32502 net.cpp:150] Setting up L1_b18_cbr2_scale
I0821 08:59:08.774278 32502 net.cpp:157] Top shape: 100 16 32 32 (1638400)
I0821 08:59:08.774283 32502 net.cpp:165] Memory required for data: 1311950000
I0821 08:59:08.774293 32502 layer_factory.hpp:77] Creating layer L1_b18_sum_eltwise
I0821 08:59:08.774302 32502 net.cpp:100] Creating Layer L1_b18_sum_eltwise
I0821 08:59:08.774308 32502 net.cpp:434] L1_b18_sum_eltwise <- L1_b18_cbr2_bn_top
I0821 08:59:08.774315 32502 net.cpp:434] L1_b18_sum_eltwise <- L1_b17_sum_eltwise_top_L1_b17_relu_0_split_1
I0821 08:59:08.774327 32502 net.cpp:408] L1_b18_sum_eltwise -> L1_b18_sum_eltwise_top
I0821 08:59:08.774358 32502 net.cpp:150] Setting up L1_b18_sum_eltwise
I0821 08:59:08.774368 32502 net.cpp:157] Top shape: 100 16 32 32 (1638400)
I0821 08:59:08.774372 32502 net.cpp:165] Memory required for data: 1318503600
I0821 08:59:08.774377 32502 layer_factory.hpp:77] Creating layer L1_b18_relu
I0821 08:59:08.774389 32502 net.cpp:100] Creating Layer L1_b18_relu
I0821 08:59:08.774394 32502 net.cpp:434] L1_b18_relu <- L1_b18_sum_eltwise_top
I0821 08:59:08.774405 32502 net.cpp:395] L1_b18_relu -> L1_b18_sum_eltwise_top (in-place)
I0821 08:59:08.774415 32502 net.cpp:150] Setting up L1_b18_relu
I0821 08:59:08.774420 32502 net.cpp:157] Top shape: 100 16 32 32 (1638400)
I0821 08:59:08.774425 32502 net.cpp:165] Memory required for data: 1325057200
I0821 08:59:08.774430 32502 layer_factory.hpp:77] Creating layer L1_b18_sum_eltwise_top_L1_b18_relu_0_split
I0821 08:59:08.774436 32502 net.cpp:100] Creating Layer L1_b18_sum_eltwise_top_L1_b18_relu_0_split
I0821 08:59:08.774441 32502 net.cpp:434] L1_b18_sum_eltwise_top_L1_b18_relu_0_split <- L1_b18_sum_eltwise_top
I0821 08:59:08.774449 32502 net.cpp:408] L1_b18_sum_eltwise_top_L1_b18_relu_0_split -> L1_b18_sum_eltwise_top_L1_b18_relu_0_split_0
I0821 08:59:08.774458 32502 net.cpp:408] L1_b18_sum_eltwise_top_L1_b18_relu_0_split -> L1_b18_sum_eltwise_top_L1_b18_relu_0_split_1
I0821 08:59:08.774505 32502 net.cpp:150] Setting up L1_b18_sum_eltwise_top_L1_b18_relu_0_split
I0821 08:59:08.774516 32502 net.cpp:157] Top shape: 100 16 32 32 (1638400)
I0821 08:59:08.774523 32502 net.cpp:157] Top shape: 100 16 32 32 (1638400)
I0821 08:59:08.774528 32502 net.cpp:165] Memory required for data: 1338164400
I0821 08:59:08.774533 32502 layer_factory.hpp:77] Creating layer L2_b1_cbr1_conv
I0821 08:59:08.774546 32502 net.cpp:100] Creating Layer L2_b1_cbr1_conv
I0821 08:59:08.774552 32502 net.cpp:434] L2_b1_cbr1_conv <- L1_b18_sum_eltwise_top_L1_b18_relu_0_split_0
I0821 08:59:08.774562 32502 net.cpp:408] L2_b1_cbr1_conv -> L2_b1_cbr1_conv_top
I0821 08:59:08.774896 32502 net.cpp:150] Setting up L2_b1_cbr1_conv
I0821 08:59:08.774910 32502 net.cpp:157] Top shape: 100 16 16 16 (409600)
I0821 08:59:08.774915 32502 net.cpp:165] Memory required for data: 1339802800
I0821 08:59:08.774924 32502 layer_factory.hpp:77] Creating layer L2_b1_cbr1_bn
I0821 08:59:08.774945 32502 net.cpp:100] Creating Layer L2_b1_cbr1_bn
I0821 08:59:08.774951 32502 net.cpp:434] L2_b1_cbr1_bn <- L2_b1_cbr1_conv_top
I0821 08:59:08.774962 32502 net.cpp:408] L2_b1_cbr1_bn -> L2_b1_cbr1_bn_top
I0821 08:59:08.775207 32502 net.cpp:150] Setting up L2_b1_cbr1_bn
I0821 08:59:08.775220 32502 net.cpp:157] Top shape: 100 16 16 16 (409600)
I0821 08:59:08.775225 32502 net.cpp:165] Memory required for data: 1341441200
I0821 08:59:08.775235 32502 layer_factory.hpp:77] Creating layer L2_b1_cbr1_scale
I0821 08:59:08.775244 32502 net.cpp:100] Creating Layer L2_b1_cbr1_scale
I0821 08:59:08.775250 32502 net.cpp:434] L2_b1_cbr1_scale <- L2_b1_cbr1_bn_top
I0821 08:59:08.775259 32502 net.cpp:395] L2_b1_cbr1_scale -> L2_b1_cbr1_bn_top (in-place)
I0821 08:59:08.775316 32502 layer_factory.hpp:77] Creating layer L2_b1_cbr1_scale
I0821 08:59:08.775463 32502 net.cpp:150] Setting up L2_b1_cbr1_scale
I0821 08:59:08.775480 32502 net.cpp:157] Top shape: 100 16 16 16 (409600)
I0821 08:59:08.775485 32502 net.cpp:165] Memory required for data: 1343079600
I0821 08:59:08.775494 32502 layer_factory.hpp:77] Creating layer L2_b1_cbr1_relu
I0821 08:59:08.775502 32502 net.cpp:100] Creating Layer L2_b1_cbr1_relu
I0821 08:59:08.775508 32502 net.cpp:434] L2_b1_cbr1_relu <- L2_b1_cbr1_bn_top
I0821 08:59:08.775516 32502 net.cpp:395] L2_b1_cbr1_relu -> L2_b1_cbr1_bn_top (in-place)
I0821 08:59:08.775526 32502 net.cpp:150] Setting up L2_b1_cbr1_relu
I0821 08:59:08.775532 32502 net.cpp:157] Top shape: 100 16 16 16 (409600)
I0821 08:59:08.775537 32502 net.cpp:165] Memory required for data: 1344718000
I0821 08:59:08.775542 32502 layer_factory.hpp:77] Creating layer L2_b1_cbr2_conv
I0821 08:59:08.775555 32502 net.cpp:100] Creating Layer L2_b1_cbr2_conv
I0821 08:59:08.775562 32502 net.cpp:434] L2_b1_cbr2_conv <- L2_b1_cbr1_bn_top
I0821 08:59:08.775573 32502 net.cpp:408] L2_b1_cbr2_conv -> L2_b1_cbr2_conv_top
I0821 08:59:08.775904 32502 net.cpp:150] Setting up L2_b1_cbr2_conv
I0821 08:59:08.775918 32502 net.cpp:157] Top shape: 100 16 16 16 (409600)
I0821 08:59:08.775923 32502 net.cpp:165] Memory required for data: 1346356400
I0821 08:59:08.775933 32502 layer_factory.hpp:77] Creating layer L2_b1_cbr2_bn
I0821 08:59:08.775944 32502 net.cpp:100] Creating Layer L2_b1_cbr2_bn
I0821 08:59:08.775951 32502 net.cpp:434] L2_b1_cbr2_bn <- L2_b1_cbr2_conv_top
I0821 08:59:08.775962 32502 net.cpp:408] L2_b1_cbr2_bn -> L2_b1_cbr2_bn_top
I0821 08:59:08.776209 32502 net.cpp:150] Setting up L2_b1_cbr2_bn
I0821 08:59:08.776223 32502 net.cpp:157] Top shape: 100 16 16 16 (409600)
I0821 08:59:08.776228 32502 net.cpp:165] Memory required for data: 1347994800
I0821 08:59:08.776238 32502 layer_factory.hpp:77] Creating layer L2_b1_cbr2_scale
I0821 08:59:08.776247 32502 net.cpp:100] Creating Layer L2_b1_cbr2_scale
I0821 08:59:08.776252 32502 net.cpp:434] L2_b1_cbr2_scale <- L2_b1_cbr2_bn_top
I0821 08:59:08.776260 32502 net.cpp:395] L2_b1_cbr2_scale -> L2_b1_cbr2_bn_top (in-place)
I0821 08:59:08.776319 32502 layer_factory.hpp:77] Creating layer L2_b1_cbr2_scale
I0821 08:59:08.776466 32502 net.cpp:150] Setting up L2_b1_cbr2_scale
I0821 08:59:08.776479 32502 net.cpp:157] Top shape: 100 16 16 16 (409600)
I0821 08:59:08.776484 32502 net.cpp:165] Memory required for data: 1349633200
I0821 08:59:08.776494 32502 layer_factory.hpp:77] Creating layer L2_b1_pool
I0821 08:59:08.776506 32502 net.cpp:100] Creating Layer L2_b1_pool
I0821 08:59:08.776513 32502 net.cpp:434] L2_b1_pool <- L1_b18_sum_eltwise_top_L1_b18_relu_0_split_1
I0821 08:59:08.776522 32502 net.cpp:408] L2_b1_pool -> L2_b1_pool
I0821 08:59:08.776612 32502 net.cpp:150] Setting up L2_b1_pool
I0821 08:59:08.776628 32502 net.cpp:157] Top shape: 100 16 16 16 (409600)
I0821 08:59:08.776633 32502 net.cpp:165] Memory required for data: 1351271600
I0821 08:59:08.776638 32502 layer_factory.hpp:77] Creating layer L2_b1_sum_eltwise
I0821 08:59:08.776652 32502 net.cpp:100] Creating Layer L2_b1_sum_eltwise
I0821 08:59:08.776659 32502 net.cpp:434] L2_b1_sum_eltwise <- L2_b1_cbr2_bn_top
I0821 08:59:08.776665 32502 net.cpp:434] L2_b1_sum_eltwise <- L2_b1_pool
I0821 08:59:08.776680 32502 net.cpp:408] L2_b1_sum_eltwise -> L2_b1_sum_eltwise_top
I0821 08:59:08.776715 32502 net.cpp:150] Setting up L2_b1_sum_eltwise
I0821 08:59:08.776726 32502 net.cpp:157] Top shape: 100 16 16 16 (409600)
I0821 08:59:08.776731 32502 net.cpp:165] Memory required for data: 1352910000
I0821 08:59:08.776734 32502 layer_factory.hpp:77] Creating layer L2_b1_relu
I0821 08:59:08.776752 32502 net.cpp:100] Creating Layer L2_b1_relu
I0821 08:59:08.776760 32502 net.cpp:434] L2_b1_relu <- L2_b1_sum_eltwise_top
I0821 08:59:08.776767 32502 net.cpp:395] L2_b1_relu -> L2_b1_sum_eltwise_top (in-place)
I0821 08:59:08.776777 32502 net.cpp:150] Setting up L2_b1_relu
I0821 08:59:08.776783 32502 net.cpp:157] Top shape: 100 16 16 16 (409600)
I0821 08:59:08.776788 32502 net.cpp:165] Memory required for data: 1354548400
I0821 08:59:08.776793 32502 layer_factory.hpp:77] Creating layer L2_b1_zeros
I0821 08:59:08.776847 32502 net.cpp:100] Creating Layer L2_b1_zeros
I0821 08:59:08.776862 32502 net.cpp:408] L2_b1_zeros -> L2_b1_zeros
I0821 08:59:08.779044 32502 net.cpp:150] Setting up L2_b1_zeros
I0821 08:59:08.779067 32502 net.cpp:157] Top shape: 100 16 16 16 (409600)
I0821 08:59:08.779072 32502 net.cpp:165] Memory required for data: 1356186800
I0821 08:59:08.779078 32502 layer_factory.hpp:77] Creating layer L2_b1_concat0
I0821 08:59:08.779089 32502 net.cpp:100] Creating Layer L2_b1_concat0
I0821 08:59:08.779096 32502 net.cpp:434] L2_b1_concat0 <- L2_b1_sum_eltwise_top
I0821 08:59:08.779103 32502 net.cpp:434] L2_b1_concat0 <- L2_b1_zeros
I0821 08:59:08.779111 32502 net.cpp:408] L2_b1_concat0 -> L2_b1_concat0
I0821 08:59:08.779196 32502 net.cpp:150] Setting up L2_b1_concat0
I0821 08:59:08.779212 32502 net.cpp:157] Top shape: 100 32 16 16 (819200)
I0821 08:59:08.779217 32502 net.cpp:165] Memory required for data: 1359463600
I0821 08:59:08.779223 32502 layer_factory.hpp:77] Creating layer L2_b1_concat0_L2_b1_concat0_0_split
I0821 08:59:08.779232 32502 net.cpp:100] Creating Layer L2_b1_concat0_L2_b1_concat0_0_split
I0821 08:59:08.779237 32502 net.cpp:434] L2_b1_concat0_L2_b1_concat0_0_split <- L2_b1_concat0
I0821 08:59:08.779249 32502 net.cpp:408] L2_b1_concat0_L2_b1_concat0_0_split -> L2_b1_concat0_L2_b1_concat0_0_split_0
…
I0821 08:59:08.867969 32502 net.cpp:408] L3_b10_sum_eltwise_top_L3_b10_relu_0_split -> L3_b10_sum_eltwise_top_L3_b10_relu_0_split_0
I0821 08:59:08.867979 32502 net.cpp:408] L3_b10_sum_eltwise_top_L3_b10_relu_0_split -> L3_b10_sum_eltwise_top_L3_b10_relu_0_split_1
I0821 08:59:08.868026 32502 net.cpp:150] Setting up L3_b10_sum_eltwise_top_L3_b10_relu_0_split
I0821 08:59:08.868038 32502 net.cpp:157] Top shape: 100 64 8 8 (409600)
I0821 08:59:08.868044 32502 net.cpp:157] Top shape: 100 64 8 8 (409600)
I0821 08:59:08.868049 32502 net.cpp:165] Memory required for data: 2154906800
I0821 08:59:08.868054 32502 layer_factory.hpp:77] Creating layer L3_b11_cbr1_conv
I0821 08:59:08.868068 32502 net.cpp:100] Creating Layer L3_b11_cbr1_conv
I0821 08:59:08.868075 32502 net.cpp:434] L3_b11_cbr1_conv <- L3_b10_sum_eltwise_top_L3_b10_relu_0_split_0
I0821 08:59:08.868084 32502 net.cpp:408] L3_b11_cbr1_conv -> L3_b11_cbr1_conv_top
I0821 08:59:08.869128 32502 net.cpp:150] Setting up L3_b11_cbr1_conv
I0821 08:59:08.869143 32502 net.cpp:157] Top shape: 100 64 8 8 (409600)
I0821 08:59:08.869148 32502 net.cpp:165] Memory required for data: 2156545200
I0821 08:59:08.869158 32502 layer_factory.hpp:77] Creating layer L3_b11_cbr1_bn
I0821 08:59:08.869170 32502 net.cpp:100] Creating Layer L3_b11_cbr1_bn
I0821 08:59:08.869177 32502 net.cpp:434] L3_b11_cbr1_bn <- L3_b11_cbr1_conv_top
I0821 08:59:08.869185 32502 net.cpp:408] L3_b11_cbr1_bn -> L3_b11_cbr1_bn_top
I0821 08:59:08.869462 32502 net.cpp:150] Setting up L3_b11_cbr1_bn
I0821 08:59:08.869477 32502 net.cpp:157] Top shape: 100 64 8 8 (409600)
I0821 08:59:08.869482 32502 net.cpp:165] Memory required for data: 2158183600
I0821 08:59:08.869491 32502 layer_factory.hpp:77] Creating layer L3_b11_cbr1_scale
I0821 08:59:08.869503 32502 net.cpp:100] Creating Layer L3_b11_cbr1_scale
I0821 08:59:08.869509 32502 net.cpp:434] L3_b11_cbr1_scale <- L3_b11_cbr1_bn_top
I0821 08:59:08.869518 32502 net.cpp:395] L3_b11_cbr1_scale -> L3_b11_cbr1_bn_top (in-place)
I0821 08:59:08.869580 32502 layer_factory.hpp:77] Creating layer L3_b11_cbr1_scale
I0821 08:59:08.869741 32502 net.cpp:150] Setting up L3_b11_cbr1_scale
I0821 08:59:08.869760 32502 net.cpp:157] Top shape: 100 64 8 8 (409600)
I0821 08:59:08.869765 32502 net.cpp:165] Memory required for data: 2159822000
I0821 08:59:08.869781 32502 layer_factory.hpp:77] Creating layer L3_b11_cbr1_relu
I0821 08:59:08.869793 32502 net.cpp:100] Creating Layer L3_b11_cbr1_relu
I0821 08:59:08.869801 32502 net.cpp:434] L3_b11_cbr1_relu <- L3_b11_cbr1_bn_top
I0821 08:59:08.869807 32502 net.cpp:395] L3_b11_cbr1_relu -> L3_b11_cbr1_bn_top (in-place)
I0821 08:59:08.869817 32502 net.cpp:150] Setting up L3_b11_cbr1_relu
I0821 08:59:08.869824 32502 net.cpp:157] Top shape: 100 64 8 8 (409600)
I0821 08:59:08.869828 32502 net.cpp:165] Memory required for data: 2161460400
I0821 08:59:08.869833 32502 layer_factory.hpp:77] Creating layer L3_b11_cbr2_conv
I0821 08:59:08.869849 32502 net.cpp:100] Creating Layer L3_b11_cbr2_conv
I0821 08:59:08.869855 32502 net.cpp:434] L3_b11_cbr2_conv <- L3_b11_cbr1_bn_top
I0821 08:59:08.869866 32502 net.cpp:408] L3_b11_cbr2_conv -> L3_b11_cbr2_conv_top
I0821 08:59:08.870895 32502 net.cpp:150] Setting up L3_b11_cbr2_conv
I0821 08:59:08.870910 32502 net.cpp:157] Top shape: 100 64 8 8 (409600)
I0821 08:59:08.870916 32502 net.cpp:165] Memory required for data: 2163098800
I0821 08:59:08.870924 32502 layer_factory.hpp:77] Creating layer L3_b11_cbr2_bn
I0821 08:59:08.870934 32502 net.cpp:100] Creating Layer L3_b11_cbr2_bn
I0821 08:59:08.870940 32502 net.cpp:434] L3_b11_cbr2_bn <- L3_b11_cbr2_conv_top
I0821 08:59:08.870951 32502 net.cpp:408] L3_b11_cbr2_bn -> L3_b11_cbr2_bn_top
I0821 08:59:08.871237 32502 net.cpp:150] Setting up L3_b11_cbr2_bn
I0821 08:59:08.871250 32502 net.cpp:157] Top shape: 100 64 8 8 (409600)
I0821 08:59:08.871255 32502 net.cpp:165] Memory required for data: 2164737200
I0821 08:59:08.871265 32502 layer_factory.hpp:77] Creating layer L3_b11_cbr2_scale
I0821 08:59:08.871273 32502 net.cpp:100] Creating Layer L3_b11_cbr2_scale
I0821 08:59:08.871280 32502 net.cpp:434] L3_b11_cbr2_scale <- L3_b11_cbr2_bn_top
I0821 08:59:08.871287 32502 net.cpp:395] L3_b11_cbr2_scale -> L3_b11_cbr2_bn_top (in-place)
I0821 08:59:08.871352 32502 layer_factory.hpp:77] Creating layer L3_b11_cbr2_scale
I0821 08:59:08.871515 32502 net.cpp:150] Setting up L3_b11_cbr2_scale
I0821 08:59:08.871531 32502 net.cpp:157] Top shape: 100 64 8 8 (409600)
I0821 08:59:08.871536 32502 net.cpp:165] Memory required for data: 2166375600
I0821 08:59:08.871546 32502 layer_factory.hpp:77] Creating layer L3_b11_sum_eltwise
I0821 08:59:08.871556 32502 net.cpp:100] Creating Layer L3_b11_sum_eltwise
I0821 08:59:08.871562 32502 net.cpp:434] L3_b11_sum_eltwise <- L3_b11_cbr2_bn_top
I0821 08:59:08.871568 32502 net.cpp:434] L3_b11_sum_eltwise <- L3_b10_sum_eltwise_top_L3_b10_relu_0_split_1
I0821 08:59:08.871577 32502 net.cpp:408] L3_b11_sum_eltwise -> L3_b11_sum_eltwise_top
I0821 08:59:08.871613 32502 net.cpp:150] Setting up L3_b11_sum_eltwise
I0821 08:59:08.871625 32502 net.cpp:157] Top shape: 100 64 8 8 (409600)
I0821 08:59:08.871630 32502 net.cpp:165] Memory required for data: 2168014000
I0821 08:59:08.871635 32502 layer_factory.hpp:77] Creating layer L3_b11_relu
I0821 08:59:08.871644 32502 net.cpp:100] Creating Layer L3_b11_relu
I0821 08:59:08.871650 32502 net.cpp:434] L3_b11_relu <- L3_b11_sum_eltwise_top
I0821 08:59:08.871657 32502 net.cpp:395] L3_b11_relu -> L3_b11_sum_eltwise_top (in-place)
I0821 08:59:08.871666 32502 net.cpp:150] Setting up L3_b11_relu
I0821 08:59:08.871673 32502 net.cpp:157] Top shape: 100 64 8 8 (409600)
I0821 08:59:08.871677 32502 net.cpp:165] Memory required for data: 2169652400
I0821 08:59:08.871682 32502 layer_factory.hpp:77] Creating layer L3_b11_sum_eltwise_top_L3_b11_relu_0_split
I0821 08:59:08.871690 32502 net.cpp:100] Creating Layer L3_b11_sum_eltwise_top_L3_b11_relu_0_split
I0821 08:59:08.871695 32502 net.cpp:434] L3_b11_sum_eltwise_top_L3_b11_relu_0_split <- L3_b11_sum_eltwise_top
I0821 08:59:08.871704 32502 net.cpp:408] L3_b11_sum_eltwise_top_L3_b11_relu_0_split -> L3_b11_sum_eltwise_top_L3_b11_relu_0_split_0
I0821 08:59:08.871716 32502 net.cpp:408] L3_b11_sum_eltwise_top_L3_b11_relu_0_split -> L3_b11_sum_eltwise_top_L3_b11_relu_0_split_1
I0821 08:59:08.871769 32502 net.cpp:150] Setting up L3_b11_sum_eltwise_top_L3_b11_relu_0_split
I0821 08:59:08.871788 32502 net.cpp:157] Top shape: 100 64 8 8 (409600)
I0821 08:59:08.871795 32502 net.cpp:157] Top shape: 100 64 8 8 (409600)
I0821 08:59:08.871799 32502 net.cpp:165] Memory required for data: 2172929200
I0821 08:59:08.871805 32502 layer_factory.hpp:77] Creating layer L3_b12_cbr1_conv
I0821 08:59:08.871820 32502 net.cpp:100] Creating Layer L3_b12_cbr1_conv
I0821 08:59:08.871827 32502 net.cpp:434] L3_b12_cbr1_conv <- L3_b11_sum_eltwise_top_L3_b11_relu_0_split_0
I0821 08:59:08.871836 32502 net.cpp:408] L3_b12_cbr1_conv -> L3_b12_cbr1_conv_top
I0821 08:59:08.872877 32502 net.cpp:150] Setting up L3_b12_cbr1_conv
I0821 08:59:08.872892 32502 net.cpp:157] Top shape: 100 64 8 8 (409600)
I0821 08:59:08.872898 32502 net.cpp:165] Memory required for data: 2174567600
I0821 08:59:08.872906 32502 layer_factory.hpp:77] Creating layer L3_b12_cbr1_bn
I0821 08:59:08.872920 32502 net.cpp:100] Creating Layer L3_b12_cbr1_bn
I0821 08:59:08.872927 32502 net.cpp:434] L3_b12_cbr1_bn <- L3_b12_cbr1_conv_top
I0821 08:59:08.872936 32502 net.cpp:408] L3_b12_cbr1_bn -> L3_b12_cbr1_bn_top
I0821 08:59:08.873209 32502 net.cpp:150] Setting up L3_b12_cbr1_bn
I0821 08:59:08.873222 32502 net.cpp:157] Top shape: 100 64 8 8 (409600)
I0821 08:59:08.873227 32502 net.cpp:165] Memory required for data: 2176206000
I0821 08:59:08.873237 32502 layer_factory.hpp:77] Creating layer L3_b12_cbr1_scale
I0821 08:59:08.873250 32502 net.cpp:100] Creating Layer L3_b12_cbr1_scale
I0821 08:59:08.873255 32502 net.cpp:434] L3_b12_cbr1_scale <- L3_b12_cbr1_bn_top
I0821 08:59:08.873263 32502 net.cpp:395] L3_b12_cbr1_scale -> L3_b12_cbr1_bn_top (in-place)
I0821 08:59:08.873325 32502 layer_factory.hpp:77] Creating layer L3_b12_cbr1_scale
I0821 08:59:08.873492 32502 net.cpp:150] Setting up L3_b12_cbr1_scale
I0821 08:59:08.873505 32502 net.cpp:157] Top shape: 100 64 8 8 (409600)
I0821 08:59:08.873510 32502 net.cpp:165] Memory required for data: 2177844400
I0821 08:59:08.873519 32502 layer_factory.hpp:77] Creating layer L3_b12_cbr1_relu
I0821 08:59:08.873530 32502 net.cpp:100] Creating Layer L3_b12_cbr1_relu
I0821 08:59:08.873538 32502 net.cpp:434] L3_b12_cbr1_relu <- L3_b12_cbr1_bn_top
I0821 08:59:08.873548 32502 net.cpp:395] L3_b12_cbr1_relu -> L3_b12_cbr1_bn_top (in-place)
I0821 08:59:08.873558 32502 net.cpp:150] Setting up L3_b12_cbr1_relu
I0821 08:59:08.873564 32502 net.cpp:157] Top shape: 100 64 8 8 (409600)
I0821 08:59:08.873569 32502 net.cpp:165] Memory required for data: 2179482800
I0821 08:59:08.873574 32502 layer_factory.hpp:77] Creating layer L3_b12_cbr2_conv
I0821 08:59:08.873584 32502 net.cpp:100] Creating Layer L3_b12_cbr2_conv
I0821 08:59:08.873590 32502 net.cpp:434] L3_b12_cbr2_conv <- L3_b12_cbr1_bn_top
I0821 08:59:08.873601 32502 net.cpp:408] L3_b12_cbr2_conv -> L3_b12_cbr2_conv_top
I0821 08:59:08.875629 32502 net.cpp:150] Setting up L3_b12_cbr2_conv
I0821 08:59:08.875648 32502 net.cpp:157] Top shape: 100 64 8 8 (409600)
I0821 08:59:08.875653 32502 net.cpp:165] Memory required for data: 2181121200
I0821 08:59:08.875663 32502 layer_factory.hpp:77] Creating layer L3_b12_cbr2_bn
I0821 08:59:08.875675 32502 net.cpp:100] Creating Layer L3_b12_cbr2_bn
I0821 08:59:08.875682 32502 net.cpp:434] L3_b12_cbr2_bn <- L3_b12_cbr2_conv_top
I0821 08:59:08.875691 32502 net.cpp:408] L3_b12_cbr2_bn -> L3_b12_cbr2_bn_top
I0821 08:59:08.875977 32502 net.cpp:150] Setting up L3_b12_cbr2_bn
I0821 08:59:08.875991 32502 net.cpp:157] Top shape: 100 64 8 8 (409600)
I0821 08:59:08.875996 32502 net.cpp:165] Memory required for data: 2182759600
I0821 08:59:08.876008 32502 layer_factory.hpp:77] Creating layer L3_b12_cbr2_scale
I0821 08:59:08.876019 32502 net.cpp:100] Creating Layer L3_b12_cbr2_scale
I0821 08:59:08.876026 32502 net.cpp:434] L3_b12_cbr2_scale <- L3_b12_cbr2_bn_top
I0821 08:59:08.876034 32502 net.cpp:395] L3_b12_cbr2_scale -> L3_b12_cbr2_bn_top (in-place)
I0821 08:59:08.876099 32502 layer_factory.hpp:77] Creating layer L3_b12_cbr2_scale
I0821 08:59:08.876267 32502 net.cpp:150] Setting up L3_b12_cbr2_scale
I0821 08:59:08.876281 32502 net.cpp:157] Top shape: 100 64 8 8 (409600)
I0821 08:59:08.876293 32502 net.cpp:165] Memory required for data: 2184398000
I0821 08:59:08.876303 32502 layer_factory.hpp:77] Creating layer L3_b12_sum_eltwise
I0821 08:59:08.876315 32502 net.cpp:100] Creating Layer L3_b12_sum_eltwise
I0821 08:59:08.876322 32502 net.cpp:434] L3_b12_sum_eltwise <- L3_b12_cbr2_bn_top
I0821 08:59:08.876329 32502 net.cpp:434] L3_b12_sum_eltwise <- L3_b11_sum_eltwise_top_L3_b11_relu_0_split_1
I0821 08:59:08.876340 32502 net.cpp:408] L3_b12_sum_eltwise -> L3_b12_sum_eltwise_top
I0821 08:59:08.876376 32502 net.cpp:150] Setting up L3_b12_sum_eltwise
I0821 08:59:08.876389 32502 net.cpp:157] Top shape: 100 64 8 8 (409600)
I0821 08:59:08.876392 32502 net.cpp:165] Memory required for data: 2186036400
I0821 08:59:08.876397 32502 layer_factory.hpp:77] Creating layer L3_b12_relu
I0821 08:59:08.876410 32502 net.cpp:100] Creating Layer L3_b12_relu
I0821 08:59:08.876416 32502 net.cpp:434] L3_b12_relu <- L3_b12_sum_eltwise_top
I0821 08:59:08.876423 32502 net.cpp:395] L3_b12_relu -> L3_b12_sum_eltwise_top (in-place)
I0821 08:59:08.876433 32502 net.cpp:150] Setting up L3_b12_relu
I0821 08:59:08.876441 32502 net.cpp:157] Top shape: 100 64 8 8 (409600)
I0821 08:59:08.876444 32502 net.cpp:165] Memory required for data: 2187674800
I0821 08:59:08.876449 32502 layer_factory.hpp:77] Creating layer L3_b12_sum_eltwise_top_L3_b12_relu_0_split
I0821 08:59:08.876457 32502 net.cpp:100] Creating Layer L3_b12_sum_eltwise_top_L3_b12_relu_0_split
I0821 08:59:08.876462 32502 net.cpp:434] L3_b12_sum_eltwise_top_L3_b12_relu_0_split <- L3_b12_sum_eltwise_top
I0821 08:59:08.876471 32502 net.cpp:408] L3_b12_sum_eltwise_top_L3_b12_relu_0_split -> L3_b12_sum_eltwise_top_L3_b12_relu_0_split_0
I0821 08:59:08.876479 32502 net.cpp:408] L3_b12_sum_eltwise_top_L3_b12_relu_0_split -> L3_b12_sum_eltwise_top_L3_b12_relu_0_split_1
I0821 08:59:08.876530 32502 net.cpp:150] Setting up L3_b12_sum_eltwise_top_L3_b12_relu_0_split
I0821 08:59:08.876543 32502 net.cpp:157] Top shape: 100 64 8 8 (409600)
I0821 08:59:08.876549 32502 net.cpp:157] Top shape: 100 64 8 8 (409600)
I0821 08:59:08.876554 32502 net.cpp:165] Memory required for data: 2190951600
I0821 08:59:08.876559 32502 layer_factory.hpp:77] Creating layer L3_b13_cbr1_conv
I0821 08:59:08.876574 32502 net.cpp:100] Creating Layer L3_b13_cbr1_conv
I0821 08:59:08.876579 32502 net.cpp:434] L3_b13_cbr1_conv <- L3_b12_sum_eltwise_top_L3_b12_relu_0_split_0
I0821 08:59:08.876590 32502 net.cpp:408] L3_b13_cbr1_conv -> L3_b13_cbr1_conv_top
I0821 08:59:08.877625 32502 net.cpp:150] Setting up L3_b13_cbr1_conv
I0821 08:59:08.877641 32502 net.cpp:157] Top shape: 100 64 8 8 (409600)
I0821 08:59:08.877646 32502 net.cpp:165] Memory required for data: 2192590000
I0821 08:59:08.877655 32502 layer_factory.hpp:77] Creating layer L3_b13_cbr1_bn
I0821 08:59:08.877667 32502 net.cpp:100] Creating Layer L3_b13_cbr1_bn
I0821 08:59:08.877674 32502 net.cpp:434] L3_b13_cbr1_bn <- L3_b13_cbr1_conv_top
I0821 08:59:08.877687 32502 net.cpp:408] L3_b13_cbr1_bn -> L3_b13_cbr1_bn_top
I0821 08:59:08.877969 32502 net.cpp:150] Setting up L3_b13_cbr1_bn
I0821 08:59:08.877981 32502 net.cpp:157] Top shape: 100 64 8 8 (409600)
I0821 08:59:08.877986 32502 net.cpp:165] Memory required for data: 2194228400
I0821 08:59:08.877997 32502 layer_factory.hpp:77] Creating layer L3_b13_cbr1_scale
I0821 08:59:08.878006 32502 net.cpp:100] Creating Layer L3_b13_cbr1_scale
I0821 08:59:08.878012 32502 net.cpp:434] L3_b13_cbr1_scale <- L3_b13_cbr1_bn_top
I0821 08:59:08.878021 32502 net.cpp:395] L3_b13_cbr1_scale -> L3_b13_cbr1_bn_top (in-place)
I0821 08:59:08.878083 32502 layer_factory.hpp:77] Creating layer L3_b13_cbr1_scale
I0821 08:59:08.878248 32502 net.cpp:150] Setting up L3_b13_cbr1_scale
I0821 08:59:08.878262 32502 net.cpp:157] Top shape: 100 64 8 8 (409600)
I0821 08:59:08.878268 32502 net.cpp:165] Memory required for data: 2195866800
I0821 08:59:08.878276 32502 layer_factory.hpp:77] Creating layer L3_b13_cbr1_relu
I0821 08:59:08.878284 32502 net.cpp:100] Creating Layer L3_b13_cbr1_relu
I0821 08:59:08.878291 32502 net.cpp:434] L3_b13_cbr1_relu <- L3_b13_cbr1_bn_top
I0821 08:59:08.878309 32502 net.cpp:395] L3_b13_cbr1_relu -> L3_b13_cbr1_bn_top (in-place)
I0821 08:59:08.878320 32502 net.cpp:150] Setting up L3_b13_cbr1_relu
I0821 08:59:08.878329 32502 net.cpp:157] Top shape: 100 64 8 8 (409600)
I0821 08:59:08.878332 32502 net.cpp:165] Memory required for data: 2197505200
I0821 08:59:08.878337 32502 layer_factory.hpp:77] Creating layer L3_b13_cbr2_conv
I0821 08:59:08.878351 32502 net.cpp:100] Creating Layer L3_b13_cbr2_conv
I0821 08:59:08.878357 32502 net.cpp:434] L3_b13_cbr2_conv <- L3_b13_cbr1_bn_top
I0821 08:59:08.878366 32502 net.cpp:408] L3_b13_cbr2_conv -> L3_b13_cbr2_conv_top
I0821 08:59:08.879406 32502 net.cpp:150] Setting up L3_b13_cbr2_conv
I0821 08:59:08.879421 32502 net.cpp:157] Top shape: 100 64 8 8 (409600)
I0821 08:59:08.879426 32502 net.cpp:165] Memory required for data: 2199143600
I0821 08:59:08.879436 32502 layer_factory.hpp:77] Creating layer L3_b13_cbr2_bn
I0821 08:59:08.879447 32502 net.cpp:100] Creating Layer L3_b13_cbr2_bn
I0821 08:59:08.879454 32502 net.cpp:434] L3_b13_cbr2_bn <- L3_b13_cbr2_conv_top
I0821 08:59:08.879462 32502 net.cpp:408] L3_b13_cbr2_bn -> L3_b13_cbr2_bn_top
I0821 08:59:08.879736 32502 net.cpp:150] Setting up L3_b13_cbr2_bn
I0821 08:59:08.879755 32502 net.cpp:157] Top shape: 100 64 8 8 (409600)
I0821 08:59:08.879760 32502 net.cpp:165] Memory required for data: 2200782000
I0821 08:59:08.879771 32502 layer_factory.hpp:77] Creating layer L3_b13_cbr2_scale
I0821 08:59:08.879786 32502 net.cpp:100] Creating Layer L3_b13_cbr2_scale
I0821 08:59:08.879791 32502 net.cpp:434] L3_b13_cbr2_scale <- L3_b13_cbr2_bn_top
I0821 08:59:08.879799 32502 net.cpp:395] L3_b13_cbr2_scale -> L3_b13_cbr2_bn_top (in-place)
I0821 08:59:08.879863 32502 layer_factory.hpp:77] Creating layer L3_b13_cbr2_scale
I0821 08:59:08.880033 32502 net.cpp:150] Setting up L3_b13_cbr2_scale
I0821 08:59:08.880046 32502 net.cpp:157] Top shape: 100 64 8 8 (409600)
I0821 08:59:08.880051 32502 net.cpp:165] Memory required for data: 2202420400
I0821 08:59:08.880061 32502 layer_factory.hpp:77] Creating layer L3_b13_sum_eltwise
I0821 08:59:08.880074 32502 net.cpp:100] Creating Layer L3_b13_sum_eltwise
I0821 08:59:08.880080 32502 net.cpp:434] L3_b13_sum_eltwise <- L3_b13_cbr2_bn_top
I0821 08:59:08.880087 32502 net.cpp:434] L3_b13_sum_eltwise <- L3_b12_sum_eltwise_top_L3_b12_relu_0_split_1
I0821 08:59:08.880098 32502 net.cpp:408] L3_b13_sum_eltwise -> L3_b13_sum_eltwise_top
I0821 08:59:08.880133 32502 net.cpp:150] Setting up L3_b13_sum_eltwise
I0821 08:59:08.880146 32502 net.cpp:157] Top shape: 100 64 8 8 (409600)
I0821 08:59:08.880149 32502 net.cpp:165] Memory required for data: 2204058800
I0821 08:59:08.880154 32502 layer_factory.hpp:77] Creating layer L3_b13_relu
I0821 08:59:08.880165 32502 net.cpp:100] Creating Layer L3_b13_relu
I0821 08:59:08.880172 32502 net.cpp:434] L3_b13_relu <- L3_b13_sum_eltwise_top
I0821 08:59:08.880179 32502 net.cpp:395] L3_b13_relu -> L3_b13_sum_eltwise_top (in-place)
I0821 08:59:08.880188 32502 net.cpp:150] Setting up L3_b13_relu
I0821 08:59:08.880195 32502 net.cpp:157] Top shape: 100 64 8 8 (409600)
I0821 08:59:08.880199 32502 net.cpp:165] Memory required for data: 2205697200
I0821 08:59:08.880204 32502 layer_factory.hpp:77] Creating layer L3_b13_sum_eltwise_top_L3_b13_relu_0_split
I0821 08:59:08.880211 32502 net.cpp:100] Creating Layer L3_b13_sum_eltwise_top_L3_b13_relu_0_split
I0821 08:59:08.880216 32502 net.cpp:434] L3_b13_sum_eltwise_top_L3_b13_relu_0_split <- L3_b13_sum_eltwise_top
I0821 08:59:08.880224 32502 net.cpp:408] L3_b13_sum_eltwise_top_L3_b13_relu_0_split -> L3_b13_sum_eltwise_top_L3_b13_relu_0_split_0
I0821 08:59:08.880234 32502 net.cpp:408] L3_b13_sum_eltwise_top_L3_b13_relu_0_split -> L3_b13_sum_eltwise_top_L3_b13_relu_0_split_1
I0821 08:59:08.880285 32502 net.cpp:150] Setting up L3_b13_sum_eltwise_top_L3_b13_relu_0_split
I0821 08:59:08.880297 32502 net.cpp:157] Top shape: 100 64 8 8 (409600)
I0821 08:59:08.880304 32502 net.cpp:157] Top shape: 100 64 8 8 (409600)
I0821 08:59:08.880308 32502 net.cpp:165] Memory required for data: 2208974000
I0821 08:59:08.880321 32502 layer_factory.hpp:77] Creating layer L3_b14_cbr1_conv
I0821 08:59:08.880334 32502 net.cpp:100] Creating Layer L3_b14_cbr1_conv
I0821 08:59:08.880342 32502 net.cpp:434] L3_b14_cbr1_conv <- L3_b13_sum_eltwise_top_L3_b13_relu_0_split_0
I0821 08:59:08.880350 32502 net.cpp:408] L3_b14_cbr1_conv -> L3_b14_cbr1_conv_top
I0821 08:59:08.881386 32502 net.cpp:150] Setting up L3_b14_cbr1_conv
I0821 08:59:08.881402 32502 net.cpp:157] Top shape: 100 64 8 8 (409600)
I0821 08:59:08.881407 32502 net.cpp:165] Memory required for data: 2210612400
I0821 08:59:08.881415 32502 layer_factory.hpp:77] Creating layer L3_b14_cbr1_bn
I0821 08:59:08.881430 32502 net.cpp:100] Creating Layer L3_b14_cbr1_bn
I0821 08:59:08.881438 32502 net.cpp:434] L3_b14_cbr1_bn <- L3_b14_cbr1_conv_top
I0821 08:59:08.881448 32502 net.cpp:408] L3_b14_cbr1_bn -> L3_b14_cbr1_bn_top
I0821 08:59:08.881727 32502 net.cpp:150] Setting up L3_b14_cbr1_bn
I0821 08:59:08.881741 32502 net.cpp:157] Top shape: 100 64 8 8 (409600)
I0821 08:59:08.881750 32502 net.cpp:165] Memory required for data: 2212250800
I0821 08:59:08.881762 32502 layer_factory.hpp:77] Creating layer L3_b14_cbr1_scale
I0821 08:59:08.881774 32502 net.cpp:100] Creating Layer L3_b14_cbr1_scale
I0821 08:59:08.881780 32502 net.cpp:434] L3_b14_cbr1_scale <- L3_b14_cbr1_bn_top
I0821 08:59:08.881795 32502 net.cpp:395] L3_b14_cbr1_scale -> L3_b14_cbr1_bn_top (in-place)
I0821 08:59:08.881858 32502 layer_factory.hpp:77] Creating layer L3_b14_cbr1_scale
I0821 08:59:08.882024 32502 net.cpp:150] Setting up L3_b14_cbr1_scale
I0821 08:59:08.882037 32502 net.cpp:157] Top shape: 100 64 8 8 (409600)
I0821 08:59:08.882042 32502 net.cpp:165] Memory required for data: 2213889200
I0821 08:59:08.882051 32502 layer_factory.hpp:77] Creating layer L3_b14_cbr1_relu
I0821 08:59:08.882060 32502 net.cpp:100] Creating Layer L3_b14_cbr1_relu
I0821 08:59:08.882066 32502 net.cpp:434] L3_b14_cbr1_relu <- L3_b14_cbr1_bn_top
I0821 08:59:08.882076 32502 net.cpp:395] L3_b14_cbr1_relu -> L3_b14_cbr1_bn_top (in-place)
I0821 08:59:08.882086 32502 net.cpp:150] Setting up L3_b14_cbr1_relu
I0821 08:59:08.882092 32502 net.cpp:157] Top shape: 100 64 8 8 (409600)
I0821 08:59:08.882097 32502 net.cpp:165] Memory required for data: 2215527600
I0821 08:59:08.882102 32502 layer_factory.hpp:77] Creating layer L3_b14_cbr2_conv
I0821 08:59:08.882115 32502 net.cpp:100] Creating Layer L3_b14_cbr2_conv
I0821 08:59:08.882122 32502 net.cpp:434] L3_b14_cbr2_conv <- L3_b14_cbr1_bn_top
I0821 08:59:08.882130 32502 net.cpp:408] L3_b14_cbr2_conv -> L3_b14_cbr2_conv_top
I0821 08:59:08.883169 32502 net.cpp:150] Setting up L3_b14_cbr2_conv
I0821 08:59:08.883185 32502 net.cpp:157] Top shape: 100 64 8 8 (409600)
I0821 08:59:08.883190 32502 net.cpp:165] Memory required for data: 2217166000
I0821 08:59:08.883198 32502 layer_factory.hpp:77] Creating layer L3_b14_cbr2_bn
I0821 08:59:08.883211 32502 net.cpp:100] Creating Layer L3_b14_cbr2_bn
I0821 08:59:08.883219 32502 net.cpp:434] L3_b14_cbr2_bn <- L3_b14_cbr2_conv_top
I0821 08:59:08.883226 32502 net.cpp:408] L3_b14_cbr2_bn -> L3_b14_cbr2_bn_top
I0821 08:59:08.883502 32502 net.cpp:150] Setting up L3_b14_cbr2_bn
I0821 08:59:08.883514 32502 net.cpp:157] Top shape: 100 64 8 8 (409600)
I0821 08:59:08.883519 32502 net.cpp:165] Memory required for data: 2218804400
I0821 08:59:08.883529 32502 layer_factory.hpp:77] Creating layer L3_b14_cbr2_scale
I0821 08:59:08.883541 32502 net.cpp:100] Creating Layer L3_b14_cbr2_scale
I0821 08:59:08.883548 32502 net.cpp:434] L3_b14_cbr2_scale <- L3_b14_cbr2_bn_top
I0821 08:59:08.883558 32502 net.cpp:395] L3_b14_cbr2_scale -> L3_b14_cbr2_bn_top (in-place)
I0821 08:59:08.883620 32502 layer_factory.hpp:77] Creating layer L3_b14_cbr2_scale
I0821 08:59:08.883798 32502 net.cpp:150] Setting up L3_b14_cbr2_scale
I0821 08:59:08.883812 32502 net.cpp:157] Top shape: 100 64 8 8 (409600)
I0821 08:59:08.883817 32502 net.cpp:165] Memory required for data: 2220442800
I0821 08:59:08.883826 32502 layer_factory.hpp:77] Creating layer L3_b14_sum_eltwise
I0821 08:59:08.883836 32502 net.cpp:100] Creating Layer L3_b14_sum_eltwise
I0821 08:59:08.883848 32502 net.cpp:434] L3_b14_sum_eltwise <- L3_b14_cbr2_bn_top
I0821 08:59:08.883857 32502 net.cpp:434] L3_b14_sum_eltwise <- L3_b13_sum_eltwise_top_L3_b13_relu_0_split_1
I0821 08:59:08.883867 32502 net.cpp:408] L3_b14_sum_eltwise -> L3_b14_sum_eltwise_top
I0821 08:59:08.883903 32502 net.cpp:150] Setting up L3_b14_sum_eltwise
I0821 08:59:08.883914 32502 net.cpp:157] Top shape: 100 64 8 8 (409600)
I0821 08:59:08.883919 32502 net.cpp:165] Memory required for data: 2222081200
I0821 08:59:08.883924 32502 layer_factory.hpp:77] Creating layer L3_b14_relu
I0821 08:59:08.883934 32502 net.cpp:100] Creating Layer L3_b14_relu
I0821 08:59:08.883941 32502 net.cpp:434] L3_b14_relu <- L3_b14_sum_eltwise_top
I0821 08:59:08.883949 32502 net.cpp:395] L3_b14_relu -> L3_b14_sum_eltwise_top (in-place)
I0821 08:59:08.883957 32502 net.cpp:150] Setting up L3_b14_relu
I0821 08:59:08.883965 32502 net.cpp:157] Top shape: 100 64 8 8 (409600)
I0821 08:59:08.883970 32502 net.cpp:165] Memory required for data: 2223719600
I0821 08:59:08.883973 32502 layer_factory.hpp:77] Creating layer L3_b14_sum_eltwise_top_L3_b14_relu_0_split
I0821 08:59:08.884045 32502 net.cpp:100] Creating Layer L3_b14_sum_eltwise_top_L3_b14_relu_0_split
I0821 08:59:08.884055 32502 net.cpp:434] L3_b14_sum_eltwise_top_L3_b14_relu_0_split <- L3_b14_sum_eltwise_top
I0821 08:59:08.884064 32502 net.cpp:408] L3_b14_sum_eltwise_top_L3_b14_relu_0_split -> L3_b14_sum_eltwise_top_L3_b14_relu_0_split_0
I0821 08:59:08.884074 32502 net.cpp:408] L3_b14_sum_eltwise_top_L3_b14_relu_0_split -> L3_b14_sum_eltwise_top_L3_b14_relu_0_split_1
I0821 08:59:08.884125 32502 net.cpp:150] Setting up L3_b14_sum_eltwise_top_L3_b14_relu_0_split
I0821 08:59:08.884137 32502 net.cpp:157] Top shape: 100 64 8 8 (409600)
I0821 08:59:08.884143 32502 net.cpp:157] Top shape: 100 64 8 8 (409600)
I0821 08:59:08.884148 32502 net.cpp:165] Memory required for data: 2226996400
I0821 08:59:08.884155 32502 layer_factory.hpp:77] Creating layer L3_b15_cbr1_conv
I0821 08:59:08.884169 32502 net.cpp:100] Creating Layer L3_b15_cbr1_conv
I0821 08:59:08.884176 32502 net.cpp:434] L3_b15_cbr1_conv <- L3_b14_sum_eltwise_top_L3_b14_relu_0_split_0
I0821 08:59:08.884186 32502 net.cpp:408] L3_b15_cbr1_conv -> L3_b15_cbr1_conv_top
I0821 08:59:08.885226 32502 net.cpp:150] Setting up L3_b15_cbr1_conv
I0821 08:59:08.885241 32502 net.cpp:157] Top shape: 100 64 8 8 (409600)
I0821 08:59:08.885246 32502 net.cpp:165] Memory required for data: 2228634800
I0821 08:59:08.885255 32502 layer_factory.hpp:77] Creating layer L3_b15_cbr1_bn
I0821 08:59:08.885267 32502 net.cpp:100] Creating Layer L3_b15_cbr1_bn
I0821 08:59:08.885274 32502 net.cpp:434] L3_b15_cbr1_bn <- L3_b15_cbr1_conv_top
I0821 08:59:08.885285 32502 net.cpp:408] L3_b15_cbr1_bn -> L3_b15_cbr1_bn_top
I0821 08:59:08.885560 32502 net.cpp:150] Setting up L3_b15_cbr1_bn
I0821 08:59:08.885572 32502 net.cpp:157] Top shape: 100 64 8 8 (409600)
I0821 08:59:08.885577 32502 net.cpp:165] Memory required for data: 2230273200
I0821 08:59:08.885587 32502 layer_factory.hpp:77] Creating layer L3_b15_cbr1_scale
I0821 08:59:08.885596 32502 net.cpp:100] Creating Layer L3_b15_cbr1_scale
I0821 08:59:08.885602 32502 net.cpp:434] L3_b15_cbr1_scale <- L3_b15_cbr1_bn_top
I0821 08:59:08.885613 32502 net.cpp:395] L3_b15_cbr1_scale -> L3_b15_cbr1_bn_top (in-place)
I0821 08:59:08.885675 32502 layer_factory.hpp:77] Creating layer L3_b15_cbr1_scale
I0821 08:59:08.885846 32502 net.cpp:150] Setting up L3_b15_cbr1_scale
I0821 08:59:08.885860 32502 net.cpp:157] Top shape: 100 64 8 8 (409600)
I0821 08:59:08.885864 32502 net.cpp:165] Memory required for data: 2231911600
I0821 08:59:08.885874 32502 layer_factory.hpp:77] Creating layer L3_b15_cbr1_relu
I0821 08:59:08.885882 32502 net.cpp:100] Creating Layer L3_b15_cbr1_relu
I0821 08:59:08.885890 32502 net.cpp:434] L3_b15_cbr1_relu <- L3_b15_cbr1_bn_top
I0821 08:59:08.885900 32502 net.cpp:395] L3_b15_cbr1_relu -> L3_b15_cbr1_bn_top (in-place)
I0821 08:59:08.885910 32502 net.cpp:150] Setting up L3_b15_cbr1_relu
I0821 08:59:08.885916 32502 net.cpp:157] Top shape: 100 64 8 8 (409600)
I0821 08:59:08.885927 32502 net.cpp:165] Memory required for data: 2233550000
I0821 08:59:08.885932 32502 layer_factory.hpp:77] Creating layer L3_b15_cbr2_conv
I0821 08:59:08.885947 32502 net.cpp:100] Creating Layer L3_b15_cbr2_conv
I0821 08:59:08.885953 32502 net.cpp:434] L3_b15_cbr2_conv <- L3_b15_cbr1_bn_top
I0821 08:59:08.885962 32502 net.cpp:408] L3_b15_cbr2_conv -> L3_b15_cbr2_conv_top
I0821 08:59:08.887008 32502 net.cpp:150] Setting up L3_b15_cbr2_conv
I0821 08:59:08.887027 32502 net.cpp:157] Top shape: 100 64 8 8 (409600)
I0821 08:59:08.887032 32502 net.cpp:165] Memory required for data: 2235188400
I0821 08:59:08.887042 32502 layer_factory.hpp:77] Creating layer L3_b15_cbr2_bn
I0821 08:59:08.887051 32502 net.cpp:100] Creating Layer L3_b15_cbr2_bn
I0821 08:59:08.887058 32502 net.cpp:434] L3_b15_cbr2_bn <- L3_b15_cbr2_conv_top
I0821 08:59:08.887069 32502 net.cpp:408] L3_b15_cbr2_bn -> L3_b15_cbr2_bn_top
I0821 08:59:08.887341 32502 net.cpp:150] Setting up L3_b15_cbr2_bn
I0821 08:59:08.887354 32502 net.cpp:157] Top shape: 100 64 8 8 (409600)
I0821 08:59:08.887359 32502 net.cpp:165] Memory required for data: 2236826800
I0821 08:59:08.887370 32502 layer_factory.hpp:77] Creating layer L3_b15_cbr2_scale
I0821 08:59:08.887382 32502 net.cpp:100] Creating Layer L3_b15_cbr2_scale
I0821 08:59:08.887388 32502 net.cpp:434] L3_b15_cbr2_scale <- L3_b15_cbr2_bn_top
I0821 08:59:08.887397 32502 net.cpp:395] L3_b15_cbr2_scale -> L3_b15_cbr2_bn_top (in-place)
I0821 08:59:08.887456 32502 layer_factory.hpp:77] Creating layer L3_b15_cbr2_scale
I0821 08:59:08.887622 32502 net.cpp:150] Setting up L3_b15_cbr2_scale
I0821 08:59:08.887636 32502 net.cpp:157] Top shape: 100 64 8 8 (409600)
I0821 08:59:08.887641 32502 net.cpp:165] Memory required for data: 2238465200
I0821 08:59:08.887650 32502 layer_factory.hpp:77] Creating layer L3_b15_sum_eltwise
I0821 08:59:08.887660 32502 net.cpp:100] Creating Layer L3_b15_sum_eltwise
I0821 08:59:08.887666 32502 net.cpp:434] L3_b15_sum_eltwise <- L3_b15_cbr2_bn_top
I0821 08:59:08.887673 32502 net.cpp:434] L3_b15_sum_eltwise <- L3_b14_sum_eltwise_top_L3_b14_relu_0_split_1
I0821 08:59:08.887684 32502 net.cpp:408] L3_b15_sum_eltwise -> L3_b15_sum_eltwise_top
I0821 08:59:08.887719 32502 net.cpp:150] Setting up L3_b15_sum_eltwise
I0821 08:59:08.887728 32502 net.cpp:157] Top shape: 100 64 8 8 (409600)
I0821 08:59:08.887733 32502 net.cpp:165] Memory required for data: 2240103600
I0821 08:59:08.887738 32502 layer_factory.hpp:77] Creating layer L3_b15_relu
I0821 08:59:08.887755 32502 net.cpp:100] Creating Layer L3_b15_relu
I0821 08:59:08.887763 32502 net.cpp:434] L3_b15_relu <- L3_b15_sum_eltwise_top
I0821 08:59:08.887770 32502 net.cpp:395] L3_b15_relu -> L3_b15_sum_eltwise_top (in-place)
I0821 08:59:08.887780 32502 net.cpp:150] Setting up L3_b15_relu
I0821 08:59:08.887787 32502 net.cpp:157] Top shape: 100 64 8 8 (409600)
I0821 08:59:08.887791 32502 net.cpp:165] Memory required for data: 2241742000
I0821 08:59:08.887796 32502 layer_factory.hpp:77] Creating layer L3_b15_sum_eltwise_top_L3_b15_relu_0_split
I0821 08:59:08.887804 32502 net.cpp:100] Creating Layer L3_b15_sum_eltwise_top_L3_b15_relu_0_split
I0821 08:59:08.887809 32502 net.cpp:434] L3_b15_sum_eltwise_top_L3_b15_relu_0_split <- L3_b15_sum_eltwise_top
I0821 08:59:08.887816 32502 net.cpp:408] L3_b15_sum_eltwise_top_L3_b15_relu_0_split -> L3_b15_sum_eltwise_top_L3_b15_relu_0_split_0
I0821 08:59:08.887826 32502 net.cpp:408] L3_b15_sum_eltwise_top_L3_b15_relu_0_split -> L3_b15_sum_eltwise_top_L3_b15_relu_0_split_1
I0821 08:59:08.887877 32502 net.cpp:150] Setting up L3_b15_sum_eltwise_top_L3_b15_relu_0_split
I0821 08:59:08.887889 32502 net.cpp:157] Top shape: 100 64 8 8 (409600)
I0821 08:59:08.887897 32502 net.cpp:157] Top shape: 100 64 8 8 (409600)
I0821 08:59:08.887900 32502 net.cpp:165] Memory required for data: 2245018800
I0821 08:59:08.887907 32502 layer_factory.hpp:77] Creating layer L3_b16_cbr1_conv
I0821 08:59:08.887919 32502 net.cpp:100] Creating Layer L3_b16_cbr1_conv
I0821 08:59:08.887926 32502 net.cpp:434] L3_b16_cbr1_conv <- L3_b15_sum_eltwise_top_L3_b15_relu_0_split_0
I0821 08:59:08.887943 32502 net.cpp:408] L3_b16_cbr1_conv -> L3_b16_cbr1_conv_top
I0821 08:59:08.889984 32502 net.cpp:150] Setting up L3_b16_cbr1_conv
I0821 08:59:08.890002 32502 net.cpp:157] Top shape: 100 64 8 8 (409600)
I0821 08:59:08.890007 32502 net.cpp:165] Memory required for data: 2246657200
I0821 08:59:08.890017 32502 layer_factory.hpp:77] Creating layer L3_b16_cbr1_bn
I0821 08:59:08.890027 32502 net.cpp:100] Creating Layer L3_b16_cbr1_bn
I0821 08:59:08.890034 32502 net.cpp:434] L3_b16_cbr1_bn <- L3_b16_cbr1_conv_top
I0821 08:59:08.890046 32502 net.cpp:408] L3_b16_cbr1_bn -> L3_b16_cbr1_bn_top
I0821 08:59:08.890333 32502 net.cpp:150] Setting up L3_b16_cbr1_bn
I0821 08:59:08.890347 32502 net.cpp:157] Top shape: 100 64 8 8 (409600)
I0821 08:59:08.890352 32502 net.cpp:165] Memory required for data: 2248295600
I0821 08:59:08.890362 32502 layer_factory.hpp:77] Creating layer L3_b16_cbr1_scale
I0821 08:59:08.890372 32502 net.cpp:100] Creating Layer L3_b16_cbr1_scale
I0821 08:59:08.890377 32502 net.cpp:434] L3_b16_cbr1_scale <- L3_b16_cbr1_bn_top
I0821 08:59:08.890385 32502 net.cpp:395] L3_b16_cbr1_scale -> L3_b16_cbr1_bn_top (in-place)
I0821 08:59:08.890452 32502 layer_factory.hpp:77] Creating layer L3_b16_cbr1_scale
I0821 08:59:08.890619 32502 net.cpp:150] Setting up L3_b16_cbr1_scale
I0821 08:59:08.890632 32502 net.cpp:157] Top shape: 100 64 8 8 (409600)
I0821 08:59:08.890637 32502 net.cpp:165] Memory required for data: 2249934000
I0821 08:59:08.890646 32502 layer_factory.hpp:77] Creating layer L3_b16_cbr1_relu
I0821 08:59:08.890657 32502 net.cpp:100] Creating Layer L3_b16_cbr1_relu
I0821 08:59:08.890664 32502 net.cpp:434] L3_b16_cbr1_relu <- L3_b16_cbr1_bn_top
I0821 08:59:08.890671 32502 net.cpp:395] L3_b16_cbr1_relu -> L3_b16_cbr1_bn_top (in-place)
I0821 08:59:08.890681 32502 net.cpp:150] Setting up L3_b16_cbr1_relu
I0821 08:59:08.890688 32502 net.cpp:157] Top shape: 100 64 8 8 (409600)
I0821 08:59:08.890693 32502 net.cpp:165] Memory required for data: 2251572400
I0821 08:59:08.890697 32502 layer_factory.hpp:77] Creating layer L3_b16_cbr2_conv
I0821 08:59:08.890712 32502 net.cpp:100] Creating Layer L3_b16_cbr2_conv
I0821 08:59:08.890718 32502 net.cpp:434] L3_b16_cbr2_conv <- L3_b16_cbr1_bn_top
I0821 08:59:08.890727 32502 net.cpp:408] L3_b16_cbr2_conv -> L3_b16_cbr2_conv_top
I0821 08:59:08.891773 32502 net.cpp:150] Setting up L3_b16_cbr2_conv
I0821 08:59:08.891788 32502 net.cpp:157] Top shape: 100 64 8 8 (409600)
I0821 08:59:08.891793 32502 net.cpp:165] Memory required for data: 2253210800
I0821 08:59:08.891803 32502 layer_factory.hpp:77] Creating layer L3_b16_cbr2_bn
I0821 08:59:08.891815 32502 net.cpp:100] Creating Layer L3_b16_cbr2_bn
I0821 08:59:08.891822 32502 net.cpp:434] L3_b16_cbr2_bn <- L3_b16_cbr2_conv_top
I0821 08:59:08.891834 32502 net.cpp:408] L3_b16_cbr2_bn -> L3_b16_cbr2_bn_top
I0821 08:59:08.892117 32502 net.cpp:150] Setting up L3_b16_cbr2_bn
I0821 08:59:08.892130 32502 net.cpp:157] Top shape: 100 64 8 8 (409600)
I0821 08:59:08.892135 32502 net.cpp:165] Memory required for data: 2254849200
I0821 08:59:08.892145 32502 layer_factory.hpp:77] Creating layer L3_b16_cbr2_scale
I0821 08:59:08.892154 32502 net.cpp:100] Creating Layer L3_b16_cbr2_scale
I0821 08:59:08.892161 32502 net.cpp:434] L3_b16_cbr2_scale <- L3_b16_cbr2_bn_top
I0821 08:59:08.892172 32502 net.cpp:395] L3_b16_cbr2_scale -> L3_b16_cbr2_bn_top (in-place)
I0821 08:59:08.892235 32502 layer_factory.hpp:77] Creating layer L3_b16_cbr2_scale
I0821 08:59:08.892400 32502 net.cpp:150] Setting up L3_b16_cbr2_scale
I0821 08:59:08.892412 32502 net.cpp:157] Top shape: 100 64 8 8 (409600)
I0821 08:59:08.892416 32502 net.cpp:165] Memory required for data: 2256487600
I0821 08:59:08.892426 32502 layer_factory.hpp:77] Creating layer L3_b16_sum_eltwise
I0821 08:59:08.892437 32502 net.cpp:100] Creating Layer L3_b16_sum_eltwise
I0821 08:59:08.892444 32502 net.cpp:434] L3_b16_sum_eltwise <- L3_b16_cbr2_bn_top
I0821 08:59:08.892452 32502 net.cpp:434] L3_b16_sum_eltwise <- L3_b15_sum_eltwise_top_L3_b15_relu_0_split_1
I0821 08:59:08.892467 32502 net.cpp:408] L3_b16_sum_eltwise -> L3_b16_sum_eltwise_top
I0821 08:59:08.892508 32502 net.cpp:150] Setting up L3_b16_sum_eltwise
I0821 08:59:08.892518 32502 net.cpp:157] Top shape: 100 64 8 8 (409600)
I0821 08:59:08.892523 32502 net.cpp:165] Memory required for data: 2258126000
I0821 08:59:08.892527 32502 layer_factory.hpp:77] Creating layer L3_b16_relu
I0821 08:59:08.892535 32502 net.cpp:100] Creating Layer L3_b16_relu
I0821 08:59:08.892541 32502 net.cpp:434] L3_b16_relu <- L3_b16_sum_eltwise_top
I0821 08:59:08.892551 32502 net.cpp:395] L3_b16_relu -> L3_b16_sum_eltwise_top (in-place)
I0821 08:59:08.892561 32502 net.cpp:150] Setting up L3_b16_relu
I0821 08:59:08.892568 32502 net.cpp:157] Top shape: 100 64 8 8 (409600)
I0821 08:59:08.892573 32502 net.cpp:165] Memory required for data: 2259764400
I0821 08:59:08.892578 32502 layer_factory.hpp:77] Creating layer L3_b16_sum_eltwise_top_L3_b16_relu_0_split
I0821 08:59:08.892585 32502 net.cpp:100] Creating Layer L3_b16_sum_eltwise_top_L3_b16_relu_0_split
I0821 08:59:08.892590 32502 net.cpp:434] L3_b16_sum_eltwise_top_L3_b16_relu_0_split <- L3_b16_sum_eltwise_top
I0821 08:59:08.892597 32502 net.cpp:408] L3_b16_sum_eltwise_top_L3_b16_relu_0_split -> L3_b16_sum_eltwise_top_L3_b16_relu_0_split_0
I0821 08:59:08.892607 32502 net.cpp:408] L3_b16_sum_eltwise_top_L3_b16_relu_0_split -> L3_b16_sum_eltwise_top_L3_b16_relu_0_split_1
I0821 08:59:08.892658 32502 net.cpp:150] Setting up L3_b16_sum_eltwise_top_L3_b16_relu_0_split
I0821 08:59:08.892670 32502 net.cpp:157] Top shape: 100 64 8 8 (409600)
I0821 08:59:08.892678 32502 net.cpp:157] Top shape: 100 64 8 8 (409600)
I0821 08:59:08.892681 32502 net.cpp:165] Memory required for data: 2263041200
I0821 08:59:08.892686 32502 layer_factory.hpp:77] Creating layer L3_b17_cbr1_conv
I0821 08:59:08.892699 32502 net.cpp:100] Creating Layer L3_b17_cbr1_conv
I0821 08:59:08.892704 32502 net.cpp:434] L3_b17_cbr1_conv <- L3_b16_sum_eltwise_top_L3_b16_relu_0_split_0
I0821 08:59:08.892716 32502 net.cpp:408] L3_b17_cbr1_conv -> L3_b17_cbr1_conv_top
I0821 08:59:08.893760 32502 net.cpp:150] Setting up L3_b17_cbr1_conv
I0821 08:59:08.893775 32502 net.cpp:157] Top shape: 100 64 8 8 (409600)
I0821 08:59:08.893780 32502 net.cpp:165] Memory required for data: 2264679600
I0821 08:59:08.893790 32502 layer_factory.hpp:77] Creating layer L3_b17_cbr1_bn
I0821 08:59:08.893800 32502 net.cpp:100] Creating Layer L3_b17_cbr1_bn
I0821 08:59:08.893806 32502 net.cpp:434] L3_b17_cbr1_bn <- L3_b17_cbr1_conv_top
I0821 08:59:08.893817 32502 net.cpp:408] L3_b17_cbr1_bn -> L3_b17_cbr1_bn_top
I0821 08:59:08.894095 32502 net.cpp:150] Setting up L3_b17_cbr1_bn
I0821 08:59:08.894109 32502 net.cpp:157] Top shape: 100 64 8 8 (409600)
I0821 08:59:08.894114 32502 net.cpp:165] Memory required for data: 2266318000
I0821 08:59:08.894124 32502 layer_factory.hpp:77] Creating layer L3_b17_cbr1_scale
I0821 08:59:08.894132 32502 net.cpp:100] Creating Layer L3_b17_cbr1_scale
I0821 08:59:08.894140 32502 net.cpp:434] L3_b17_cbr1_scale <- L3_b17_cbr1_bn_top
I0821 08:59:08.894146 32502 net.cpp:395] L3_b17_cbr1_scale -> L3_b17_cbr1_bn_top (in-place)
I0821 08:59:08.894213 32502 layer_factory.hpp:77] Creating layer L3_b17_cbr1_scale
I0821 08:59:08.894371 32502 net.cpp:150] Setting up L3_b17_cbr1_scale
I0821 08:59:08.894387 32502 net.cpp:157] Top shape: 100 64 8 8 (409600)
I0821 08:59:08.894392 32502 net.cpp:165] Memory required for data: 2267956400
I0821 08:59:08.894400 32502 layer_factory.hpp:77] Creating layer L3_b17_cbr1_relu
I0821 08:59:08.894409 32502 net.cpp:100] Creating Layer L3_b17_cbr1_relu
I0821 08:59:08.894415 32502 net.cpp:434] L3_b17_cbr1_relu <- L3_b17_cbr1_bn_top
I0821 08:59:08.894423 32502 net.cpp:395] L3_b17_cbr1_relu -> L3_b17_cbr1_bn_top (in-place)
I0821 08:59:08.894433 32502 net.cpp:150] Setting up L3_b17_cbr1_relu
I0821 08:59:08.894439 32502 net.cpp:157] Top shape: 100 64 8 8 (409600)
I0821 08:59:08.894443 32502 net.cpp:165] Memory required for data: 2269594800
I0821 08:59:08.894448 32502 layer_factory.hpp:77] Creating layer L3_b17_cbr2_conv
I0821 08:59:08.894469 32502 net.cpp:100] Creating Layer L3_b17_cbr2_conv
I0821 08:59:08.894476 32502 net.cpp:434] L3_b17_cbr2_conv <- L3_b17_cbr1_bn_top
I0821 08:59:08.894485 32502 net.cpp:408] L3_b17_cbr2_conv -> L3_b17_cbr2_conv_top
I0821 08:59:08.895520 32502 net.cpp:150] Setting up L3_b17_cbr2_conv
I0821 08:59:08.895536 32502 net.cpp:157] Top shape: 100 64 8 8 (409600)
I0821 08:59:08.895541 32502 net.cpp:165] Memory required for data: 2271233200
I0821 08:59:08.895550 32502 layer_factory.hpp:77] Creating layer L3_b17_cbr2_bn
I0821 08:59:08.895562 32502 net.cpp:100] Creating Layer L3_b17_cbr2_bn
I0821 08:59:08.895570 32502 net.cpp:434] L3_b17_cbr2_bn <- L3_b17_cbr2_conv_top
I0821 08:59:08.895582 32502 net.cpp:408] L3_b17_cbr2_bn -> L3_b17_cbr2_bn_top
I0821 08:59:08.895864 32502 net.cpp:150] Setting up L3_b17_cbr2_bn
I0821 08:59:08.895879 32502 net.cpp:157] Top shape: 100 64 8 8 (409600)
I0821 08:59:08.895884 32502 net.cpp:165] Memory required for data: 2272871600
I0821 08:59:08.895894 32502 layer_factory.hpp:77] Creating layer L3_b17_cbr2_scale
I0821 08:59:08.895902 32502 net.cpp:100] Creating Layer L3_b17_cbr2_scale
I0821 08:59:08.895908 32502 net.cpp:434] L3_b17_cbr2_scale <- L3_b17_cbr2_bn_top
I0821 08:59:08.895921 32502 net.cpp:395] L3_b17_cbr2_scale -> L3_b17_cbr2_bn_top (in-place)
I0821 08:59:08.895983 32502 layer_factory.hpp:77] Creating layer L3_b17_cbr2_scale
I0821 08:59:08.896147 32502 net.cpp:150] Setting up L3_b17_cbr2_scale
I0821 08:59:08.896159 32502 net.cpp:157] Top shape: 100 64 8 8 (409600)
I0821 08:59:08.896164 32502 net.cpp:165] Memory required for data: 2274510000
I0821 08:59:08.896174 32502 layer_factory.hpp:77] Creating layer L3_b17_sum_eltwise
I0821 08:59:08.896188 32502 net.cpp:100] Creating Layer L3_b17_sum_eltwise
I0821 08:59:08.896194 32502 net.cpp:434] L3_b17_sum_eltwise <- L3_b17_cbr2_bn_top
I0821 08:59:08.896203 32502 net.cpp:434] L3_b17_sum_eltwise <- L3_b16_sum_eltwise_top_L3_b16_relu_0_split_1
I0821 08:59:08.896210 32502 net.cpp:408] L3_b17_sum_eltwise -> L3_b17_sum_eltwise_top
I0821 08:59:08.896250 32502 net.cpp:150] Setting up L3_b17_sum_eltwise
I0821 08:59:08.896260 32502 net.cpp:157] Top shape: 100 64 8 8 (409600)
I0821 08:59:08.896265 32502 net.cpp:165] Memory required for data: 2276148400
I0821 08:59:08.896270 32502 layer_factory.hpp:77] Creating layer L3_b17_relu
I0821 08:59:08.896278 32502 net.cpp:100] Creating Layer L3_b17_relu
I0821 08:59:08.896284 32502 net.cpp:434] L3_b17_relu <- L3_b17_sum_eltwise_top
I0821 08:59:08.896294 32502 net.cpp:395] L3_b17_relu -> L3_b17_sum_eltwise_top (in-place)
I0821 08:59:08.896304 32502 net.cpp:150] Setting up L3_b17_relu
I0821 08:59:08.896311 32502 net.cpp:157] Top shape: 100 64 8 8 (409600)
I0821 08:59:08.896315 32502 net.cpp:165] Memory required for data: 2277786800
I0821 08:59:08.896320 32502 layer_factory.hpp:77] Creating layer L3_b17_sum_eltwise_top_L3_b17_relu_0_split
I0821 08:59:08.896327 32502 net.cpp:100] Creating Layer L3_b17_sum_eltwise_top_L3_b17_relu_0_split
I0821 08:59:08.896333 32502 net.cpp:434] L3_b17_sum_eltwise_top_L3_b17_relu_0_split <- L3_b17_sum_eltwise_top
I0821 08:59:08.896340 32502 net.cpp:408] L3_b17_sum_eltwise_top_L3_b17_relu_0_split -> L3_b17_sum_eltwise_top_L3_b17_relu_0_split_0
I0821 08:59:08.896350 32502 net.cpp:408] L3_b17_sum_eltwise_top_L3_b17_relu_0_split -> L3_b17_sum_eltwise_top_L3_b17_relu_0_split_1
I0821 08:59:08.896405 32502 net.cpp:150] Setting up L3_b17_sum_eltwise_top_L3_b17_relu_0_split
I0821 08:59:08.896417 32502 net.cpp:157] Top shape: 100 64 8 8 (409600)
I0821 08:59:08.896425 32502 net.cpp:157] Top shape: 100 64 8 8 (409600)
I0821 08:59:08.896430 32502 net.cpp:165] Memory required for data: 2281063600
I0821 08:59:08.896435 32502 layer_factory.hpp:77] Creating layer L3_b18_cbr1_conv
I0821 08:59:08.896445 32502 net.cpp:100] Creating Layer L3_b18_cbr1_conv
I0821 08:59:08.896451 32502 net.cpp:434] L3_b18_cbr1_conv <- L3_b17_sum_eltwise_top_L3_b17_relu_0_split_0
I0821 08:59:08.896463 32502 net.cpp:408] L3_b18_cbr1_conv -> L3_b18_cbr1_conv_top
I0821 08:59:08.897501 32502 net.cpp:150] Setting up L3_b18_cbr1_conv
I0821 08:59:08.897523 32502 net.cpp:157] Top shape: 100 64 8 8 (409600)
I0821 08:59:08.897528 32502 net.cpp:165] Memory required for data: 2282702000
I0821 08:59:08.897537 32502 layer_factory.hpp:77] Creating layer L3_b18_cbr1_bn
I0821 08:59:08.897549 32502 net.cpp:100] Creating Layer L3_b18_cbr1_bn
I0821 08:59:08.897557 32502 net.cpp:434] L3_b18_cbr1_bn <- L3_b18_cbr1_conv_top
I0821 08:59:08.897564 32502 net.cpp:408] L3_b18_cbr1_bn -> L3_b18_cbr1_bn_top
I0821 08:59:08.897853 32502 net.cpp:150] Setting up L3_b18_cbr1_bn
I0821 08:59:08.897866 32502 net.cpp:157] Top shape: 100 64 8 8 (409600)
I0821 08:59:08.897872 32502 net.cpp:165] Memory required for data: 2284340400
I0821 08:59:08.897882 32502 layer_factory.hpp:77] Creating layer L3_b18_cbr1_scale
I0821 08:59:08.897891 32502 net.cpp:100] Creating Layer L3_b18_cbr1_scale
I0821 08:59:08.897897 32502 net.cpp:434] L3_b18_cbr1_scale <- L3_b18_cbr1_bn_top
I0821 08:59:08.897905 32502 net.cpp:395] L3_b18_cbr1_scale -> L3_b18_cbr1_bn_top (in-place)
I0821 08:59:08.897969 32502 layer_factory.hpp:77] Creating layer L3_b18_cbr1_scale
I0821 08:59:08.898126 32502 net.cpp:150] Setting up L3_b18_cbr1_scale
I0821 08:59:08.898142 32502 net.cpp:157] Top shape: 100 64 8 8 (409600)
I0821 08:59:08.898147 32502 net.cpp:165] Memory required for data: 2285978800
I0821 08:59:08.898156 32502 layer_factory.hpp:77] Creating layer L3_b18_cbr1_relu
I0821 08:59:08.898164 32502 net.cpp:100] Creating Layer L3_b18_cbr1_relu
I0821 08:59:08.898171 32502 net.cpp:434] L3_b18_cbr1_relu <- L3_b18_cbr1_bn_top
I0821 08:59:08.898178 32502 net.cpp:395] L3_b18_cbr1_relu -> L3_b18_cbr1_bn_top (in-place)
I0821 08:59:08.898188 32502 net.cpp:150] Setting up L3_b18_cbr1_relu
I0821 08:59:08.898195 32502 net.cpp:157] Top shape: 100 64 8 8 (409600)
I0821 08:59:08.898200 32502 net.cpp:165] Memory required for data: 2287617200
I0821 08:59:08.898205 32502 layer_factory.hpp:77] Creating layer L3_b18_cbr2_conv
I0821 08:59:08.898218 32502 net.cpp:100] Creating Layer L3_b18_cbr2_conv
I0821 08:59:08.898224 32502 net.cpp:434] L3_b18_cbr2_conv <- L3_b18_cbr1_bn_top
I0821 08:59:08.898236 32502 net.cpp:408] L3_b18_cbr2_conv -> L3_b18_cbr2_conv_top
I0821 08:59:08.899276 32502 net.cpp:150] Setting up L3_b18_cbr2_conv
I0821 08:59:08.899291 32502 net.cpp:157] Top shape: 100 64 8 8 (409600)
I0821 08:59:08.899296 32502 net.cpp:165] Memory required for data: 2289255600
I0821 08:59:08.899304 32502 layer_factory.hpp:77] Creating layer L3_b18_cbr2_bn
I0821 08:59:08.899317 32502 net.cpp:100] Creating Layer L3_b18_cbr2_bn
I0821 08:59:08.899324 32502 net.cpp:434] L3_b18_cbr2_bn <- L3_b18_cbr2_conv_top
I0821 08:59:08.899333 32502 net.cpp:408] L3_b18_cbr2_bn -> L3_b18_cbr2_bn_top
I0821 08:59:08.899603 32502 net.cpp:150] Setting up L3_b18_cbr2_bn
I0821 08:59:08.899616 32502 net.cpp:157] Top shape: 100 64 8 8 (409600)
I0821 08:59:08.899621 32502 net.cpp:165] Memory required for data: 2290894000
I0821 08:59:08.899632 32502 layer_factory.hpp:77] Creating layer L3_b18_cbr2_scale
I0821 08:59:08.899643 32502 net.cpp:100] Creating Layer L3_b18_cbr2_scale
I0821 08:59:08.899651 32502 net.cpp:434] L3_b18_cbr2_scale <- L3_b18_cbr2_bn_top
I0821 08:59:08.899658 32502 net.cpp:395] L3_b18_cbr2_scale -> L3_b18_cbr2_bn_top (in-place)
I0821 08:59:08.899719 32502 layer_factory.hpp:77] Creating layer L3_b18_cbr2_scale
I0821 08:59:08.899886 32502 net.cpp:150] Setting up L3_b18_cbr2_scale
I0821 08:59:08.899900 32502 net.cpp:157] Top shape: 100 64 8 8 (409600)
I0821 08:59:08.899905 32502 net.cpp:165] Memory required for data: 2292532400
I0821 08:59:08.899914 32502 layer_factory.hpp:77] Creating layer L3_b18_sum_eltwise
I0821 08:59:08.899927 32502 net.cpp:100] Creating Layer L3_b18_sum_eltwise
I0821 08:59:08.899935 32502 net.cpp:434] L3_b18_sum_eltwise <- L3_b18_cbr2_bn_top
I0821 08:59:08.899941 32502 net.cpp:434] L3_b18_sum_eltwise <- L3_b17_sum_eltwise_top_L3_b17_relu_0_split_1
I0821 08:59:08.899950 32502 net.cpp:408] L3_b18_sum_eltwise -> L3_b18_sum_eltwise_top
I0821 08:59:08.899986 32502 net.cpp:150] Setting up L3_b18_sum_eltwise
I0821 08:59:08.899996 32502 net.cpp:157] Top shape: 100 64 8 8 (409600)
I0821 08:59:08.900007 32502 net.cpp:165] Memory required for data: 2294170800
I0821 08:59:08.900012 32502 layer_factory.hpp:77] Creating layer L3_b18_relu
I0821 08:59:08.900020 32502 net.cpp:100] Creating Layer L3_b18_relu
I0821 08:59:08.900027 32502 net.cpp:434] L3_b18_relu <- L3_b18_sum_eltwise_top
I0821 08:59:08.900037 32502 net.cpp:395] L3_b18_relu -> L3_b18_sum_eltwise_top (in-place)
I0821 08:59:08.900046 32502 net.cpp:150] Setting up L3_b18_relu
I0821 08:59:08.900053 32502 net.cpp:157] Top shape: 100 64 8 8 (409600)
I0821 08:59:08.900058 32502 net.cpp:165] Memory required for data: 2295809200
I0821 08:59:08.900063 32502 layer_factory.hpp:77] Creating layer post_pool
I0821 08:59:08.900071 32502 net.cpp:100] Creating Layer post_pool
I0821 08:59:08.900077 32502 net.cpp:434] post_pool <- L3_b18_sum_eltwise_top
I0821 08:59:08.900086 32502 net.cpp:408] post_pool -> post_pool
I0821 08:59:08.900121 32502 net.cpp:150] Setting up post_pool
I0821 08:59:08.900136 32502 net.cpp:157] Top shape: 100 64 1 1 (6400)
I0821 08:59:08.900142 32502 net.cpp:165] Memory required for data: 2295834800
I0821 08:59:08.900147 32502 layer_factory.hpp:77] Creating layer post_FC
I0821 08:59:08.900255 32502 net.cpp:100] Creating Layer post_FC
I0821 08:59:08.900269 32502 net.cpp:434] post_FC <- post_pool
I0821 08:59:08.900279 32502 net.cpp:408] post_FC -> post_FC_top
I0821 08:59:08.900568 32502 net.cpp:150] Setting up post_FC
I0821 08:59:08.900586 32502 net.cpp:157] Top shape: 100 10 (1000)
I0821 08:59:08.900593 32502 net.cpp:165] Memory required for data: 2295838800
I0821 08:59:08.900602 32502 layer_factory.hpp:77] Creating layer post_FC_top_post_FC_0_split
I0821 08:59:08.900610 32502 net.cpp:100] Creating Layer post_FC_top_post_FC_0_split
I0821 08:59:08.900616 32502 net.cpp:434] post_FC_top_post_FC_0_split <- post_FC_top
I0821 08:59:08.900625 32502 net.cpp:408] post_FC_top_post_FC_0_split -> post_FC_top_post_FC_0_split_0
I0821 08:59:08.900636 32502 net.cpp:408] post_FC_top_post_FC_0_split -> post_FC_top_post_FC_0_split_1
I0821 08:59:08.900688 32502 net.cpp:150] Setting up post_FC_top_post_FC_0_split
I0821 08:59:08.900701 32502 net.cpp:157] Top shape: 100 10 (1000)
I0821 08:59:08.900707 32502 net.cpp:157] Top shape: 100 10 (1000)
I0821 08:59:08.900712 32502 net.cpp:165] Memory required for data: 2295846800
I0821 08:59:08.900717 32502 layer_factory.hpp:77] Creating layer accuracy
I0821 08:59:08.900771 32502 net.cpp:100] Creating Layer accuracy
I0821 08:59:08.900785 32502 net.cpp:434] accuracy <- post_FC_top_post_FC_0_split_0
I0821 08:59:08.900797 32502 net.cpp:434] accuracy <- label_dataLayer_1_split_0
I0821 08:59:08.900805 32502 net.cpp:408] accuracy -> accuracy
…
