…
I0817 16:26:33.327109 17350 net.cpp:322] The NetState phase (0) differed from the phase (1) specified by a rule in layer L3_b3_cbr2_bn
I0817 16:26:33.327888 17350 net.cpp:58] Initializing net from parameters: 
name: "Cifar-Resnet"
state {
  phase: TRAIN
  level: 0
  stage: ""
}
layer {
  name: "dataLayer"
  type: "Data"
  top: "data_top"
  top: "label"
  include {
    phase: TRAIN
  }
  transform_param {
    mirror: true
    crop_size: 32
    mean_file: "examples/cifar10/mean.binaryproto"
  }
  data_param {
    source: "examples/cifar10/cifar10_train_lmdb"
    batch_size: 125
    backend: LMDB
  }
  image_data_param {
    shuffle: true
  }
}
layer {
  name: "pre_conv"
  type: "Convolution"
  bottom: "data_top"
  top: "pre_conv_top"
  param {
    lr_mult: 1
    decay_mult: 1
  }
  param {
    lr_mult: 2
    decay_mult: 0
  }
  convolution_param {
    num_output: 16
    pad: 1
    kernel_size: 3
    stride: 1
    weight_filler {
      type: "msra"
    }
    bias_filler {
      type: "constant"
    }
  }
}
layer {
  name: "pre_bn"
  type: "BatchNorm"
  bottom: "pre_conv_top"
  top: "pre_bn_top"
  include {
    phase: TRAIN
  }
  batch_norm_param {
    use_global_stats: false
    moving_average_fraction: 0.999
  }
}
layer {
  name: "pre_scale"
  type: "Scale"
  bottom: "pre_bn_top"
  top: "pre_bn_top"
  scale_param {
    bias_term: true
  }
}
layer {
  name: "pre_relu"
  type: "ReLU"
  bottom: "pre_bn_top"
  top: "pre_bn_top"
}
layer {
  name: "L1_b1_cbr1_conv"
  type: "Convolution"
  bottom: "pre_bn_top"
  top: "L1_b1_cbr1_conv_top"
  param {
    lr_mult: 1
    decay_mult: 1
  }
  param {
    lr_mult: 2
    decay_mult: 0
  }
  convolution_param {
    num_output: 16
    pad: 1
    kernel_size: 3
    stride: 1
    weight_filler {
      type: "msra"
    }
    bias_filler {
      type: "constant"
    }
  }
}
layer {
  name: "L1_b1_cbr1_bn"
  type: "BatchNorm"
  bottom: "L1_b1_cbr1_conv_top"
  top: "L1_b1_cbr1_bn_top"
  include {
    phase: TRAIN
  }
  batch_norm_param {
    use_global_stats: false
    moving_average_fraction: 0.999
  }
}
layer {
  name: "L1_b1_cbr1_scale"
  type: "Scale"
  bottom: "L1_b1_cbr1_bn_top"
  top: "L1_b1_cbr1_bn_top"
  scale_param {
    bias_term: true
  }
}
layer {
  name: "L1_b1_cbr1_relu"
  type: "ReLU"
  bottom: "L1_b1_cbr1_bn_top"
  top: "L1_b1_cbr1_bn_top"
}
layer {
  name: "L1_b1_cbr2_conv"
  type: "Convolution"
  bottom: "L1_b1_cbr1_bn_top"
  top: "L1_b1_cbr2_conv_top"
  param {
    lr_mult: 1
    decay_mult: 1
  }
  param {
    lr_mult: 2
    decay_mult: 0
  }
  convolution_param {
    num_output: 16
    pad: 1
    kernel_size: 3
    stride: 1
    weight_filler {
      type: "msra"
    }
    bias_filler {
      type: "constant"
    }
  }
}
layer {
  name: "L1_b1_cbr2_bn"
  type: "BatchNorm"
  bottom: "L1_b1_cbr2_conv_top"
  top: "L1_b1_cbr2_bn_top"
  include {
    phase: TRAIN
  }
  batch_norm_param {
    use_global_stats: false
    moving_average_fraction: 0.999
  }
}
layer {
  name: "L1_b1_cbr2_scale"
  type: "Scale"
  bottom: "L1_b1_cbr2_bn_top"
  top: "L1_b1_cbr2_bn_top"
  scale_param {
    bias_term: true
  }
}
layer {
  name: "L1_b1_sum_eltwise"
  type: "Eltwise"
  bottom: "L1_b1_cbr2_bn_top"
  bottom: "pre_bn_top"
  top: "L1_b1_sum_eltwise_top"
  eltwise_param {
    operation: SUM
  }
}
layer {
  name: "L1_b1_relu"
  type: "ReLU"
  bottom: "L1_b1_sum_eltwise_top"
  top: "L1_b1_sum_eltwise_top"
}
layer {
  name: "L1_b2_cbr1_conv"
  type: "Convolution"
  bottom: "L1_b1_sum_eltwise_top"
  top: "L1_b2_cbr1_conv_top"
  param {
    lr_mult: 1
    decay_mult: 1
  }
  param {
    lr_mult: 2
    decay_mult: 0
  }
  convolution_param {
    num_output: 16
    pad: 1
    kernel_size: 3
    stride: 1
    weight_filler {
      type: "msra"
    }
    bias_filler {
      type: "constant"
    }
  }
}
layer {
  name: "L1_b2_cbr1_bn"
  type: "BatchNorm"
  bottom: "L1_b2_cbr1_conv_top"
  top: "L1_b2_cbr1_bn_top"
  include {
    phase: TRAIN
  }
  batch_norm_param {
    use_global_stats: false
    moving_average_fraction: 0.999
  }
}
layer {
  name: "L1_b2_cbr1_scale"
  type: "Scale"
  bottom: "L1_b2_cbr1_bn_top"
  top: "L1_b2_cbr1_bn_top"
  scale_param {
    bias_term: true
  }
}
layer {
  name: "L1_b2_cbr1_relu"
  type: "ReLU"
  bottom: "L1_b2_cbr1_bn_top"
  top: "L1_b2_cbr1_bn_top"
}
layer {
  name: "L1_b2_cbr2_conv"
  type: "Convolution"
  bottom: "L1_b2_cbr1_bn_top"
  top: "L1_b2_cbr2_conv_top"
  param {
    lr_mult: 1
    decay_mult: 1
  }
  param {
    lr_mult: 2
    decay_mult: 0
  }
  convolution_param {
    num_output: 16
    pad: 1
    kernel_size: 3
    stride: 1
    weight_filler {
      type: "msra"
    }
    bias_filler {
      type: "constant"
    }
  }
}
layer {
  name: "L1_b2_cbr2_bn"
  type: "BatchNorm"
  bottom: "L1_b2_cbr2_conv_top"
  top: "L1_b2_cbr2_bn_top"
  include {
    phase: TRAIN
  }
  batch_norm_param {
    use_global_stats: false
    moving_average_fraction: 0.999
  }
}
layer {
  name: "L1_b2_cbr2_scale"
  type: "Scale"
  bottom: "L1_b2_cbr2_bn_top"
  top: "L1_b2_cbr2_bn_top"
  scale_param {
    bias_term: true
  }
}
layer {
  name: "L1_b2_sum_eltwise"
  type: "Eltwise"
  bottom: "L1_b2_cbr2_bn_top"
  bottom: "L1_b1_sum_eltwise_top"
  top: "L1_b2_sum_eltwise_top"
  eltwise_param {
    operation: SUM
  }
}
layer {
  name: "L1_b2_relu"
  type: "ReLU"
  bottom: "L1_b2_sum_eltwise_top"
  top: "L1_b2_sum_eltwise_top"
}
layer {
  name: "L1_b3_cbr1_conv"
  type: "Convolution"
  bottom: "L1_b2_sum_eltwise_top"
  top: "L1_b3_cbr1_conv_top"
  param {
    lr_mult: 1
    decay_mult: 1
  }
  param {
    lr_mult: 2
    decay_mult: 0
  }
  convolution_param {
    num_output: 16
    pad: 1
    kernel_size: 3
    stride: 1
    weight_filler {
      type: "msra"
    }
    bias_filler {
      type: "constant"
    }
  }
}
layer {
  name: "L1_b3_cbr1_bn"
  type: "BatchNorm"
  bottom: "L1_b3_cbr1_conv_top"
  top: "L1_b3_cbr1_bn_top"
  include {
    phase: TRAIN
  }
  batch_norm_param {
    use_global_stats: false
    moving_average_fraction: 0.999
  }
}
layer {
  name: "L1_b3_cbr1_scale"
  type: "Scale"
  bottom: "L1_b3_cbr1_bn_top"
  top: "L1_b3_cbr1_bn_top"
  scale_param {
    bias_term: true
  }
}
layer {
  name: "L1_b3_cbr1_relu"
  type: "ReLU"
  bottom: "L1_b3_cbr1_bn_top"
  top: "L1_b3_cbr1_bn_top"
}
layer {
  name: "L1_b3_cbr2_conv"
  type: "Convolution"
  bottom: "L1_b3_cbr1_bn_top"
  top: "L1_b3_cbr2_conv_top"
  param {
    lr_mult: 1
    decay_mult: 1
  }
  param {
    lr_mult: 2
    decay_mult: 0
  }
  convolution_param {
    num_output: 16
    pad: 1
    kernel_size: 3
    stride: 1
    weight_filler {
      type: "msra"
    }
    bias_filler {
      type: "constant"
    }
  }
}
layer {
  name: "L1_b3_cbr2_bn"
  type: "BatchNorm"
  bottom: "L1_b3_cbr2_conv_top"
  top: "L1_b3_cbr2_bn_top"
  include {
    phase: TRAIN
  }
  batch_norm_param {
    use_global_stats: false
    moving_average_fraction: 0.999
  }
}
layer {
  name: "L1_b3_cbr2_scale"
  type: "Scale"
  bottom: "L1_b3_cbr2_bn_top"
  top: "L1_b3_cbr2_bn_top"
  scale_param {
    bias_term: true
  }
}
layer {
  name: "L1_b3_sum_eltwise"
  type: "Eltwise"
  bottom: "L1_b3_cbr2_bn_top"
  bottom: "L1_b2_sum_eltwise_top"
  top: "L1_b3_sum_eltwise_top"
  eltwise_param {
    operation: SUM
  }
}
layer {
  name: "L1_b3_relu"
  type: "ReLU"
  bottom: "L1_b3_sum_eltwise_top"
  top: "L1_b3_sum_eltwise_top"
}
layer {
  name: "L2_b1_cbr1_conv"
  type: "Convolution"
  bottom: "L1_b3_sum_eltwise_top"
  top: "L2_b1_cbr1_conv_top"
  param {
    lr_mult: 1
    decay_mult: 1
  }
  param {
    lr_mult: 2
    decay_mult: 0
  }
  convolution_param {
    num_output: 16
    pad: 1
    kernel_size: 3
    stride: 2
    weight_filler {
      type: "msra"
    }
    bias_filler {
      type: "constant"
    }
  }
}
layer {
  name: "L2_b1_cbr1_bn"
  type: "BatchNorm"
  bottom: "L2_b1_cbr1_conv_top"
  top: "L2_b1_cbr1_bn_top"
  include {
    phase: TRAIN
  }
  batch_norm_param {
    use_global_stats: false
    moving_average_fraction: 0.999
  }
}
layer {
  name: "L2_b1_cbr1_scale"
  type: "Scale"
  bottom: "L2_b1_cbr1_bn_top"
  top: "L2_b1_cbr1_bn_top"
  scale_param {
    bias_term: true
  }
}
layer {
  name: "L2_b1_cbr1_relu"
  type: "ReLU"
  bottom: "L2_b1_cbr1_bn_top"
  top: "L2_b1_cbr1_bn_top"
}
layer {
  name: "L2_b1_cbr2_conv"
  type: "Convolution"
  bottom: "L2_b1_cbr1_bn_top"
  top: "L2_b1_cbr2_conv_top"
  param {
    lr_mult: 1
    decay_mult: 1
  }
  param {
    lr_mult: 2
    decay_mult: 0
  }
  convolution_param {
    num_output: 16
    pad: 1
    kernel_size: 3
    stride: 1
    weight_filler {
      type: "msra"
    }
    bias_filler {
      type: "constant"
    }
  }
}
layer {
  name: "L2_b1_cbr2_bn"
  type: "BatchNorm"
  bottom: "L2_b1_cbr2_conv_top"
  top: "L2_b1_cbr2_bn_top"
  include {
    phase: TRAIN
  }
  batch_norm_param {
    use_global_stats: false
    moving_average_fraction: 0.999
  }
}
layer {
  name: "L2_b1_cbr2_scale"
  type: "Scale"
  bottom: "L2_b1_cbr2_bn_top"
  top: "L2_b1_cbr2_bn_top"
  scale_param {
    bias_term: true
  }
}
layer {
  name: "L2_b1_pool"
  type: "Pooling"
  bottom: "L1_b3_sum_eltwise_top"
  top: "L2_b1_pool"
  pooling_param {
    pool: AVE
    kernel_size: 3
    stride: 2
  }
}
layer {
  name: "L2_b1_sum_eltwise"
  type: "Eltwise"
  bottom: "L2_b1_cbr2_bn_top"
  bottom: "L2_b1_pool"
  top: "L2_b1_sum_eltwise_top"
  eltwise_param {
    operation: SUM
  }
}
layer {
  name: "L2_b1_relu"
  type: "ReLU"
  bottom: "L2_b1_sum_eltwise_top"
  top: "L2_b1_sum_eltwise_top"
}
layer {
  name: "L2_b1_zeros"
  type: "DummyData"
  top: "L2_b1_zeros"
  dummy_data_param {
    data_filler {
      type: "constant"
      value: 0
    }
    shape {
      dim: 125
      dim: 16
      dim: 16
      dim: 16
    }
  }
}
layer {
  name: "L2_b1_concat0"
  type: "Concat"
  bottom: "L2_b1_sum_eltwise_top"
  bottom: "L2_b1_zeros"
  top: "L2_b1_concat0"
  concat_param {
    axis: 1
  }
}
layer {
  name: "L2_b2_cbr1_conv"
  type: "Convolution"
  bottom: "L2_b1_concat0"
  top: "L2_b2_cbr1_conv_top"
  param {
    lr_mult: 1
    decay_mult: 1
  }
  param {
    lr_mult: 2
    decay_mult: 0
  }
  convolution_param {
    num_output: 32
    pad: 1
    kernel_size: 3
    stride: 1
    weight_filler {
      type: "msra"
    }
    bias_filler {
      type: "constant"
    }
  }
}
layer {
  name: "L2_b2_cbr1_bn"
  type: "BatchNorm"
  bottom: "L2_b2_cbr1_conv_top"
  top: "L2_b2_cbr1_bn_top"
  include {
    phase: TRAIN
  }
  batch_norm_param {
    use_global_stats: false
    moving_average_fraction: 0.999
  }
}
layer {
  name: "L2_b2_cbr1_scale"
  type: "Scale"
  bottom: "L2_b2_cbr1_bn_top"
  top: "L2_b2_cbr1_bn_top"
  scale_param {
    bias_term: true
  }
}
layer {
  name: "L2_b2_cbr1_relu"
  type: "ReLU"
  bottom: "L2_b2_cbr1_bn_top"
  top: "L2_b2_cbr1_bn_top"
}
layer {
  name: "L2_b2_cbr2_conv"
  type: "Convolution"
  bottom: "L2_b2_cbr1_bn_top"
  top: "L2_b2_cbr2_conv_top"
  param {
    lr_mult: 1
    decay_mult: 1
  }
  param {
    lr_mult: 2
    decay_mult: 0
  }
  convolution_param {
    num_output: 32
    pad: 1
    kernel_size: 3
    stride: 1
    weight_filler {
      type: "msra"
    }
    bias_filler {
      type: "constant"
    }
  }
}
layer {
  name: "L2_b2_cbr2_bn"
  type: "BatchNorm"
  bottom: "L2_b2_cbr2_conv_top"
  top: "L2_b2_cbr2_bn_top"
  include {
    phase: TRAIN
  }
  batch_norm_param {
    use_global_stats: false
    moving_average_fraction: 0.999
  }
}
layer {
  name: "L2_b2_cbr2_scale"
  type: "Scale"
  bottom: "L2_b2_cbr2_bn_top"
  top: "L2_b2_cbr2_bn_top"
  scale_param {
    bias_term: true
  }
}
layer {
  name: "L2_b2_sum_eltwise"
  type: "Eltwise"
  bottom: "L2_b2_cbr2_bn_top"
  bottom: "L2_b1_concat0"
  top: "L2_b2_sum_eltwise_top"
  eltwise_param {
    operation: SUM
  }
}
layer {
  name: "L2_b2_relu"
  type: "ReLU"
  bottom: "L2_b2_sum_eltwise_top"
  top: "L2_b2_sum_eltwise_top"
}
layer {
  name: "L2_b3_cbr1_conv"
  type: "Convolution"
  bottom: "L2_b2_sum_eltwise_top"
  top: "L2_b3_cbr1_conv_top"
  param {
    lr_mult: 1
    decay_mult: 1
  }
  param {
    lr_mult: 2
    decay_mult: 0
  }
  convolution_param {
    num_output: 32
    pad: 1
    kernel_size: 3
    stride: 1
    weight_filler {
      type: "msra"
    }
    bias_filler {
      type: "constant"
    }
  }
}
layer {
  name: "L2_b3_cbr1_bn"
  type: "BatchNorm"
  bottom: "L2_b3_cbr1_conv_top"
  top: "L2_b3_cbr1_bn_top"
  include {
    phase: TRAIN
  }
  batch_norm_param {
    use_global_stats: false
    moving_average_fraction: 0.999
  }
}
layer {
  name: "L2_b3_cbr1_scale"
  type: "Scale"
  bottom: "L2_b3_cbr1_bn_top"
  top: "L2_b3_cbr1_bn_top"
  scale_param {
    bias_term: true
  }
}
layer {
  name: "L2_b3_cbr1_relu"
  type: "ReLU"
  bottom: "L2_b3_cbr1_bn_top"
  top: "L2_b3_cbr1_bn_top"
}
layer {
  name: "L2_b3_cbr2_conv"
  type: "Convolution"
  bottom: "L2_b3_cbr1_bn_top"
  top: "L2_b3_cbr2_conv_top"
  param {
    lr_mult: 1
    decay_mult: 1
  }
  param {
    lr_mult: 2
    decay_mult: 0
  }
  convolution_param {
    num_output: 32
    pad: 1
    kernel_size: 3
    stride: 1
    weight_filler {
      type: "msra"
    }
    bias_filler {
      type: "constant"
    }
  }
}
layer {
  name: "L2_b3_cbr2_bn"
  type: "BatchNorm"
  bottom: "L2_b3_cbr2_conv_top"
  top: "L2_b3_cbr2_bn_top"
  include {
    phase: TRAIN
  }
  batch_norm_param {
    use_global_stats: false
    moving_average_fraction: 0.999
  }
}
layer {
  name: "L2_b3_cbr2_scale"
  type: "Scale"
  bottom: "L2_b3_cbr2_bn_top"
  top: "L2_b3_cbr2_bn_top"
  scale_param {
    bias_term: true
  }
}
layer {
  name: "L2_b3_sum_eltwise"
  type: "Eltwise"
  bottom: "L2_b3_cbr2_bn_top"
  bottom: "L2_b2_sum_eltwise_top"
  top: "L2_b3_sum_eltwise_top"
  eltwise_param {
    operation: SUM
  }
}
layer {
  name: "L2_b3_relu"
  type: "ReLU"
  bottom: "L2_b3_sum_eltwise_top"
  top: "L2_b3_sum_eltwise_top"
}
layer {
  name: "L3_b1_cbr1_conv"
  type: "Convolution"
  bottom: "L2_b3_sum_eltwise_top"
  top: "L3_b1_cbr1_conv_top"
  param {
    lr_mult: 1
    decay_mult: 1
  }
  param {
    lr_mult: 2
    decay_mult: 0
  }
  convolution_param {
    num_output: 32
    pad: 1
    kernel_size: 3
    stride: 2
    weight_filler {
      type: "msra"
    }
    bias_filler {
      type: "constant"
    }
  }
}
layer {
  name: "L3_b1_cbr1_bn"
  type: "BatchNorm"
  bottom: "L3_b1_cbr1_conv_top"
  top: "L3_b1_cbr1_bn_top"
  include {
    phase: TRAIN
  }
  batch_norm_param {
    use_global_stats: false
    moving_average_fraction: 0.999
  }
}
layer {
  name: "L3_b1_cbr1_scale"
  type: "Scale"
  bottom: "L3_b1_cbr1_bn_top"
  top: "L3_b1_cbr1_bn_top"
  scale_param {
    bias_term: true
  }
}
layer {
  name: "L3_b1_cbr1_relu"
  type: "ReLU"
  bottom: "L3_b1_cbr1_bn_top"
  top: "L3_b1_cbr1_bn_top"
}
layer {
  name: "L3_b1_cbr2_conv"
  type: "Convolution"
  bottom: "L3_b1_cbr1_bn_top"
  top: "L3_b1_cbr2_conv_top"
  param {
    lr_mult: 1
    decay_mult: 1
  }
  param {
    lr_mult: 2
    decay_mult: 0
  }
  convolution_param {
    num_output: 32
    pad: 1
    kernel_size: 3
    stride: 1
    weight_filler {
      type: "msra"
    }
    bias_filler {
      type: "constant"
    }
  }
}
layer {
  name: "L3_b1_cbr2_bn"
  type: "BatchNorm"
  bottom: "L3_b1_cbr2_conv_top"
  top: "L3_b1_cbr2_bn_top"
  include {
    phase: TRAIN
  }
  batch_norm_param {
    use_global_stats: false
    moving_average_fraction: 0.999
  }
}
layer {
  name: "L3_b1_cbr2_scale"
  type: "Scale"
  bottom: "L3_b1_cbr2_bn_top"
  top: "L3_b1_cbr2_bn_top"
  scale_param {
    bias_term: true
  }
}
layer {
  name: "L3_b1_pool"
  type: "Pooling"
  bottom: "L2_b3_sum_eltwise_top"
  top: "L3_b1_pool"
  pooling_param {
    pool: AVE
    kernel_size: 3
    stride: 2
  }
}
layer {
  name: "L3_b1_sum_eltwise"
  type: "Eltwise"
  bottom: "L3_b1_cbr2_bn_top"
  bottom: "L3_b1_pool"
  top: "L3_b1_sum_eltwise_top"
  eltwise_param {
    operation: SUM
  }
}
layer {
  name: "L3_b1_relu"
  type: "ReLU"
  bottom: "L3_b1_sum_eltwise_top"
  top: "L3_b1_sum_eltwise_top"
}
layer {
  name: "L3_b1_zeros"
  type: "DummyData"
  top: "L3_b1_zeros"
  dummy_data_param {
    data_filler {
      type: "constant"
      value: 0
    }
    shape {
      dim: 125
      dim: 32
      dim: 8
      dim: 8
    }
  }
}
layer {
  name: "L3_b1_concat0"
  type: "Concat"
  bottom: "L3_b1_sum_eltwise_top"
  bottom: "L3_b1_zeros"
  top: "L3_b1_concat0"
  concat_param {
    axis: 1
  }
}
layer {
  name: "L3_b2_cbr1_conv"
  type: "Convolution"
  bottom: "L3_b1_concat0"
  top: "L3_b2_cbr1_conv_top"
  param {
    lr_mult: 1
    decay_mult: 1
  }
  param {
    lr_mult: 2
    decay_mult: 0
  }
  convolution_param {
    num_output: 64
    pad: 1
    kernel_size: 3
    stride: 1
    weight_filler {
      type: "msra"
    }
    bias_filler {
      type: "constant"
    }
  }
}
layer {
  name: "L3_b2_cbr1_bn"
  type: "BatchNorm"
  bottom: "L3_b2_cbr1_conv_top"
  top: "L3_b2_cbr1_bn_top"
  include {
    phase: TRAIN
  }
  batch_norm_param {
    use_global_stats: false
    moving_average_fraction: 0.999
  }
}
layer {
  name: "L3_b2_cbr1_scale"
  type: "Scale"
  bottom: "L3_b2_cbr1_bn_top"
  top: "L3_b2_cbr1_bn_top"
  scale_param {
    bias_term: true
  }
}
layer {
  name: "L3_b2_cbr1_relu"
  type: "ReLU"
  bottom: "L3_b2_cbr1_bn_top"
  top: "L3_b2_cbr1_bn_top"
}
layer {
  name: "L3_b2_cbr2_conv"
  type: "Convolution"
  bottom: "L3_b2_cbr1_bn_top"
  top: "L3_b2_cbr2_conv_top"
  param {
    lr_mult: 1
    decay_mult: 1
  }
  param {
    lr_mult: 2
    decay_mult: 0
  }
  convolution_param {
    num_output: 64
    pad: 1
    kernel_size: 3
    stride: 1
    weight_filler {
      type: "msra"
    }
    bias_filler {
      type: "constant"
    }
  }
}
layer {
  name: "L3_b2_cbr2_bn"
  type: "BatchNorm"
  bottom: "L3_b2_cbr2_conv_top"
  top: "L3_b2_cbr2_bn_top"
  include {
    phase: TRAIN
  }
  batch_norm_param {
    use_global_stats: false
    moving_average_fraction: 0.999
  }
}
layer {
  name: "L3_b2_cbr2_scale"
  type: "Scale"
  bottom: "L3_b2_cbr2_bn_top"
  top: "L3_b2_cbr2_bn_top"
  scale_param {
    bias_term: true
  }
}
layer {
  name: "L3_b2_sum_eltwise"
  type: "Eltwise"
  bottom: "L3_b2_cbr2_bn_top"
  bottom: "L3_b1_concat0"
  top: "L3_b2_sum_eltwise_top"
  eltwise_param {
    operation: SUM
  }
}
layer {
  name: "L3_b2_relu"
  type: "ReLU"
  bottom: "L3_b2_sum_eltwise_top"
  top: "L3_b2_sum_eltwise_top"
}
layer {
  name: "L3_b3_cbr1_conv"
  type: "Convolution"
  bottom: "L3_b2_sum_eltwise_top"
  top: "L3_b3_cbr1_conv_top"
  param {
    lr_mult: 1
    decay_mult: 1
  }
  param {
    lr_mult: 2
    decay_mult: 0
  }
  convolution_param {
    num_output: 64
    pad: 1
    kernel_size: 3
    stride: 1
    weight_filler {
      type: "msra"
    }
    bias_filler {
      type: "constant"
    }
  }
}
layer {
  name: "L3_b3_cbr1_bn"
  type: "BatchNorm"
  bottom: "L3_b3_cbr1_conv_top"
  top: "L3_b3_cbr1_bn_top"
  include {
    phase: TRAIN
  }
  batch_norm_param {
    use_global_stats: false
    moving_average_fraction: 0.999
  }
}
layer {
  name: "L3_b3_cbr1_scale"
  type: "Scale"
  bottom: "L3_b3_cbr1_bn_top"
  top: "L3_b3_cbr1_bn_top"
  scale_param {
    bias_term: true
  }
}
layer {
  name: "L3_b3_cbr1_relu"
  type: "ReLU"
  bottom: "L3_b3_cbr1_bn_top"
  top: "L3_b3_cbr1_bn_top"
}
layer {
  name: "L3_b3_cbr2_conv"
  type: "Convolution"
  bottom: "L3_b3_cbr1_bn_top"
  top: "L3_b3_cbr2_conv_top"
  param {
    lr_mult: 1
    decay_mult: 1
  }
  param {
    lr_mult: 2
    decay_mult: 0
  }
  convolution_param {
    num_output: 64
    pad: 1
    kernel_size: 3
    stride: 1
    weight_filler {
      type: "msra"
    }
    bias_filler {
      type: "constant"
    }
  }
}
layer {
  name: "L3_b3_cbr2_bn"
  type: "BatchNorm"
  bottom: "L3_b3_cbr2_conv_top"
  top: "L3_b3_cbr2_bn_top"
  include {
    phase: TRAIN
  }
  batch_norm_param {
    use_global_stats: false
    moving_average_fraction: 0.999
  }
}
layer {
  name: "L3_b3_cbr2_scale"
  type: "Scale"
  bottom: "L3_b3_cbr2_bn_top"
  top: "L3_b3_cbr2_bn_top"
  scale_param {
    bias_term: true
  }
}
layer {
  name: "L3_b3_sum_eltwise"
  type: "Eltwise"
  bottom: "L3_b3_cbr2_bn_top"
  bottom: "L3_b2_sum_eltwise_top"
  top: "L3_b3_sum_eltwise_top"
  eltwise_param {
    operation: SUM
  }
}
layer {
  name: "L3_b3_relu"
  type: "ReLU"
  bottom: "L3_b3_sum_eltwise_top"
  top: "L3_b3_sum_eltwise_top"
}
layer {
  name: "post_pool"
  type: "Pooling"
  bottom: "L3_b3_sum_eltwise_top"
  top: "post_pool"
  pooling_param {
    pool: AVE
    kernel_size: 8
    stride: 1
  }
}
layer {
  name: "post_FC"
  type: "InnerProduct"
  bottom: "post_pool"
  top: "post_FC_top"
  param {
    lr_mult: 1
  }
  param {
    lr_mult: 2
  }
  inner_product_param {
    num_output: 10
    weight_filler {
      type: "xavier"
    }
    bias_filler {
      type: "constant"
    }
  }
}
layer {
  name: "accuracy"
  type: "Accuracy"
  bottom: "post_FC_top"
  bottom: "label"
  top: "accuracy"
}
layer {
  name: "loss"
  type: "SoftmaxWithLoss"
  bottom: "post_FC_top"
  bottom: "label"
  top: "loss"
}
I0817 16:26:33.328850 17350 layer_factory.hpp:77] Creating layer dataLayer
I0817 16:26:33.330032 17350 net.cpp:100] Creating Layer dataLayer
I0817 16:26:33.330102 17350 net.cpp:408] dataLayer -> data_top
I0817 16:26:33.330308 17350 net.cpp:408] dataLayer -> label
I0817 16:26:33.330425 17350 data_transformer.cpp:25] Loading mean file from: examples/cifar10/mean.binaryproto
I0817 16:26:33.339315 17355 db_lmdb.cpp:35] Opened lmdb examples/cifar10/cifar10_train_lmdb
I0817 16:26:33.361804 17350 data_layer.cpp:41] output data size: 125,3,32,32
I0817 16:26:33.369371 17350 net.cpp:150] Setting up dataLayer
I0817 16:26:33.369431 17350 net.cpp:157] Top shape: 125 3 32 32 (384000)
I0817 16:26:33.369443 17350 net.cpp:157] Top shape: 125 (125)
I0817 16:26:33.369448 17350 net.cpp:165] Memory required for data: 1536500
I0817 16:26:33.369463 17350 layer_factory.hpp:77] Creating layer label_dataLayer_1_split
I0817 16:26:33.369477 17350 net.cpp:100] Creating Layer label_dataLayer_1_split
I0817 16:26:33.369484 17350 net.cpp:434] label_dataLayer_1_split <- label
I0817 16:26:33.369500 17350 net.cpp:408] label_dataLayer_1_split -> label_dataLayer_1_split_0
I0817 16:26:33.369515 17350 net.cpp:408] label_dataLayer_1_split -> label_dataLayer_1_split_1
I0817 16:26:33.369585 17350 net.cpp:150] Setting up label_dataLayer_1_split
I0817 16:26:33.369602 17350 net.cpp:157] Top shape: 125 (125)
I0817 16:26:33.369608 17350 net.cpp:157] Top shape: 125 (125)
I0817 16:26:33.369613 17350 net.cpp:165] Memory required for data: 1537500
I0817 16:26:33.369619 17350 layer_factory.hpp:77] Creating layer pre_conv
I0817 16:26:33.369680 17350 net.cpp:100] Creating Layer pre_conv
I0817 16:26:33.369693 17350 net.cpp:434] pre_conv <- data_top
I0817 16:26:33.369702 17350 net.cpp:408] pre_conv -> pre_conv_top
I0817 16:26:33.371420 17350 net.cpp:150] Setting up pre_conv
I0817 16:26:33.371443 17350 net.cpp:157] Top shape: 125 16 32 32 (2048000)
I0817 16:26:33.371449 17350 net.cpp:165] Memory required for data: 9729500
I0817 16:26:33.371500 17350 layer_factory.hpp:77] Creating layer pre_bn
I0817 16:26:33.371562 17350 net.cpp:100] Creating Layer pre_bn
I0817 16:26:33.371573 17350 net.cpp:434] pre_bn <- pre_conv_top
I0817 16:26:33.371587 17350 net.cpp:408] pre_bn -> pre_bn_top
I0817 16:26:33.372174 17350 net.cpp:150] Setting up pre_bn
I0817 16:26:33.372193 17350 net.cpp:157] Top shape: 125 16 32 32 (2048000)
I0817 16:26:33.372191 17356 blocking_queue.cpp:50] Waiting for data
I0817 16:26:33.372200 17350 net.cpp:165] Memory required for data: 17921500
I0817 16:26:33.372242 17350 layer_factory.hpp:77] Creating layer pre_scale
I0817 16:26:33.372294 17350 net.cpp:100] Creating Layer pre_scale
I0817 16:26:33.372303 17350 net.cpp:434] pre_scale <- pre_bn_top
I0817 16:26:33.372313 17350 net.cpp:395] pre_scale -> pre_bn_top (in-place)
I0817 16:26:33.372469 17350 layer_factory.hpp:77] Creating layer pre_scale
I0817 16:26:33.372722 17350 net.cpp:150] Setting up pre_scale
I0817 16:26:33.372738 17350 net.cpp:157] Top shape: 125 16 32 32 (2048000)
I0817 16:26:33.372745 17350 net.cpp:165] Memory required for data: 26113500
I0817 16:26:33.372756 17350 layer_factory.hpp:77] Creating layer pre_relu
I0817 16:26:33.372807 17350 net.cpp:100] Creating Layer pre_relu
I0817 16:26:33.372817 17350 net.cpp:434] pre_relu <- pre_bn_top
I0817 16:26:33.372828 17350 net.cpp:395] pre_relu -> pre_bn_top (in-place)
I0817 16:26:33.372839 17350 net.cpp:150] Setting up pre_relu
I0817 16:26:33.372848 17350 net.cpp:157] Top shape: 125 16 32 32 (2048000)
I0817 16:26:33.372853 17350 net.cpp:165] Memory required for data: 34305500
I0817 16:26:33.372858 17350 layer_factory.hpp:77] Creating layer pre_bn_top_pre_relu_0_split
I0817 16:26:33.372865 17350 net.cpp:100] Creating Layer pre_bn_top_pre_relu_0_split
I0817 16:26:33.372870 17350 net.cpp:434] pre_bn_top_pre_relu_0_split <- pre_bn_top
I0817 16:26:33.372887 17350 net.cpp:408] pre_bn_top_pre_relu_0_split -> pre_bn_top_pre_relu_0_split_0
I0817 16:26:33.372897 17350 net.cpp:408] pre_bn_top_pre_relu_0_split -> pre_bn_top_pre_relu_0_split_1
I0817 16:26:33.372946 17350 net.cpp:150] Setting up pre_bn_top_pre_relu_0_split
I0817 16:26:33.372956 17350 net.cpp:157] Top shape: 125 16 32 32 (2048000)
I0817 16:26:33.372963 17350 net.cpp:157] Top shape: 125 16 32 32 (2048000)
I0817 16:26:33.372967 17350 net.cpp:165] Memory required for data: 50689500
I0817 16:26:33.372972 17350 layer_factory.hpp:77] Creating layer L1_b1_cbr1_conv
I0817 16:26:33.372987 17350 net.cpp:100] Creating Layer L1_b1_cbr1_conv
I0817 16:26:33.372993 17350 net.cpp:434] L1_b1_cbr1_conv <- pre_bn_top_pre_relu_0_split_0
I0817 16:26:33.373001 17350 net.cpp:408] L1_b1_cbr1_conv -> L1_b1_cbr1_conv_top
I0817 16:26:33.373317 17350 net.cpp:150] Setting up L1_b1_cbr1_conv
I0817 16:26:33.373332 17350 net.cpp:157] Top shape: 125 16 32 32 (2048000)
I0817 16:26:33.373337 17350 net.cpp:165] Memory required for data: 58881500
I0817 16:26:33.373353 17350 layer_factory.hpp:77] Creating layer L1_b1_cbr1_bn
I0817 16:26:33.373366 17350 net.cpp:100] Creating Layer L1_b1_cbr1_bn
I0817 16:26:33.373373 17350 net.cpp:434] L1_b1_cbr1_bn <- L1_b1_cbr1_conv_top
I0817 16:26:33.373381 17350 net.cpp:408] L1_b1_cbr1_bn -> L1_b1_cbr1_bn_top
I0817 16:26:33.373607 17350 net.cpp:150] Setting up L1_b1_cbr1_bn
I0817 16:26:33.373620 17350 net.cpp:157] Top shape: 125 16 32 32 (2048000)
I0817 16:26:33.373625 17350 net.cpp:165] Memory required for data: 67073500
I0817 16:26:33.373636 17350 layer_factory.hpp:77] Creating layer L1_b1_cbr1_scale
I0817 16:26:33.373646 17350 net.cpp:100] Creating Layer L1_b1_cbr1_scale
I0817 16:26:33.373651 17350 net.cpp:434] L1_b1_cbr1_scale <- L1_b1_cbr1_bn_top
I0817 16:26:33.373661 17350 net.cpp:395] L1_b1_cbr1_scale -> L1_b1_cbr1_bn_top (in-place)
I0817 16:26:33.373713 17350 layer_factory.hpp:77] Creating layer L1_b1_cbr1_scale
I0817 16:26:33.373854 17350 net.cpp:150] Setting up L1_b1_cbr1_scale
I0817 16:26:33.373870 17350 net.cpp:157] Top shape: 125 16 32 32 (2048000)
I0817 16:26:33.373877 17350 net.cpp:165] Memory required for data: 75265500
I0817 16:26:33.373885 17350 layer_factory.hpp:77] Creating layer L1_b1_cbr1_relu
I0817 16:26:33.373893 17350 net.cpp:100] Creating Layer L1_b1_cbr1_relu
I0817 16:26:33.373899 17350 net.cpp:434] L1_b1_cbr1_relu <- L1_b1_cbr1_bn_top
I0817 16:26:33.373906 17350 net.cpp:395] L1_b1_cbr1_relu -> L1_b1_cbr1_bn_top (in-place)
I0817 16:26:33.373915 17350 net.cpp:150] Setting up L1_b1_cbr1_relu
I0817 16:26:33.373922 17350 net.cpp:157] Top shape: 125 16 32 32 (2048000)
I0817 16:26:33.373927 17350 net.cpp:165] Memory required for data: 83457500
I0817 16:26:33.373932 17350 layer_factory.hpp:77] Creating layer L1_b1_cbr2_conv
I0817 16:26:33.373945 17350 net.cpp:100] Creating Layer L1_b1_cbr2_conv
I0817 16:26:33.373951 17350 net.cpp:434] L1_b1_cbr2_conv <- L1_b1_cbr1_bn_top
I0817 16:26:33.373962 17350 net.cpp:408] L1_b1_cbr2_conv -> L1_b1_cbr2_conv_top
I0817 16:26:33.374265 17350 net.cpp:150] Setting up L1_b1_cbr2_conv
I0817 16:26:33.374285 17350 net.cpp:157] Top shape: 125 16 32 32 (2048000)
I0817 16:26:33.374290 17350 net.cpp:165] Memory required for data: 91649500
I0817 16:26:33.374300 17350 layer_factory.hpp:77] Creating layer L1_b1_cbr2_bn
I0817 16:26:33.374311 17350 net.cpp:100] Creating Layer L1_b1_cbr2_bn
I0817 16:26:33.374316 17350 net.cpp:434] L1_b1_cbr2_bn <- L1_b1_cbr2_conv_top
I0817 16:26:33.374327 17350 net.cpp:408] L1_b1_cbr2_bn -> L1_b1_cbr2_bn_top
I0817 16:26:33.374557 17350 net.cpp:150] Setting up L1_b1_cbr2_bn
I0817 16:26:33.374570 17350 net.cpp:157] Top shape: 125 16 32 32 (2048000)
I0817 16:26:33.374575 17350 net.cpp:165] Memory required for data: 99841500
I0817 16:26:33.374589 17350 layer_factory.hpp:77] Creating layer L1_b1_cbr2_scale
I0817 16:26:33.374601 17350 net.cpp:100] Creating Layer L1_b1_cbr2_scale
I0817 16:26:33.374606 17350 net.cpp:434] L1_b1_cbr2_scale <- L1_b1_cbr2_bn_top
I0817 16:26:33.374614 17350 net.cpp:395] L1_b1_cbr2_scale -> L1_b1_cbr2_bn_top (in-place)
I0817 16:26:33.374673 17350 layer_factory.hpp:77] Creating layer L1_b1_cbr2_scale
I0817 16:26:33.374816 17350 net.cpp:150] Setting up L1_b1_cbr2_scale
I0817 16:26:33.374830 17350 net.cpp:157] Top shape: 125 16 32 32 (2048000)
I0817 16:26:33.374835 17350 net.cpp:165] Memory required for data: 108033500
I0817 16:26:33.374845 17350 layer_factory.hpp:77] Creating layer L1_b1_sum_eltwise
I0817 16:26:33.374894 17350 net.cpp:100] Creating Layer L1_b1_sum_eltwise
I0817 16:26:33.374905 17350 net.cpp:434] L1_b1_sum_eltwise <- L1_b1_cbr2_bn_top
I0817 16:26:33.374912 17350 net.cpp:434] L1_b1_sum_eltwise <- pre_bn_top_pre_relu_0_split_1
I0817 16:26:33.374924 17350 net.cpp:408] L1_b1_sum_eltwise -> L1_b1_sum_eltwise_top
I0817 16:26:33.374994 17350 net.cpp:150] Setting up L1_b1_sum_eltwise
I0817 16:26:33.375012 17350 net.cpp:157] Top shape: 125 16 32 32 (2048000)
I0817 16:26:33.375017 17350 net.cpp:165] Memory required for data: 116225500
I0817 16:26:33.375023 17350 layer_factory.hpp:77] Creating layer L1_b1_relu
I0817 16:26:33.375031 17350 net.cpp:100] Creating Layer L1_b1_relu
I0817 16:26:33.375036 17350 net.cpp:434] L1_b1_relu <- L1_b1_sum_eltwise_top
I0817 16:26:33.375044 17350 net.cpp:395] L1_b1_relu -> L1_b1_sum_eltwise_top (in-place)
I0817 16:26:33.375053 17350 net.cpp:150] Setting up L1_b1_relu
I0817 16:26:33.375061 17350 net.cpp:157] Top shape: 125 16 32 32 (2048000)
I0817 16:26:33.375066 17350 net.cpp:165] Memory required for data: 124417500
I0817 16:26:33.375069 17350 layer_factory.hpp:77] Creating layer L1_b1_sum_eltwise_top_L1_b1_relu_0_split
I0817 16:26:33.375082 17350 net.cpp:100] Creating Layer L1_b1_sum_eltwise_top_L1_b1_relu_0_split
I0817 16:26:33.375087 17350 net.cpp:434] L1_b1_sum_eltwise_top_L1_b1_relu_0_split <- L1_b1_sum_eltwise_top
I0817 16:26:33.375094 17350 net.cpp:408] L1_b1_sum_eltwise_top_L1_b1_relu_0_split -> L1_b1_sum_eltwise_top_L1_b1_relu_0_split_0
I0817 16:26:33.375103 17350 net.cpp:408] L1_b1_sum_eltwise_top_L1_b1_relu_0_split -> L1_b1_sum_eltwise_top_L1_b1_relu_0_split_1
I0817 16:26:33.375146 17350 net.cpp:150] Setting up L1_b1_sum_eltwise_top_L1_b1_relu_0_split
I0817 16:26:33.375159 17350 net.cpp:157] Top shape: 125 16 32 32 (2048000)
I0817 16:26:33.375164 17350 net.cpp:157] Top shape: 125 16 32 32 (2048000)
I0817 16:26:33.375169 17350 net.cpp:165] Memory required for data: 140801500
I0817 16:26:33.375174 17350 layer_factory.hpp:77] Creating layer L1_b2_cbr1_conv
I0817 16:26:33.375185 17350 net.cpp:100] Creating Layer L1_b2_cbr1_conv
I0817 16:26:33.375191 17350 net.cpp:434] L1_b2_cbr1_conv <- L1_b1_sum_eltwise_top_L1_b1_relu_0_split_0
I0817 16:26:33.375203 17350 net.cpp:408] L1_b2_cbr1_conv -> L1_b2_cbr1_conv_top
I0817 16:26:33.375515 17350 net.cpp:150] Setting up L1_b2_cbr1_conv
I0817 16:26:33.375529 17350 net.cpp:157] Top shape: 125 16 32 32 (2048000)
I0817 16:26:33.375533 17350 net.cpp:165] Memory required for data: 148993500
I0817 16:26:33.375542 17350 layer_factory.hpp:77] Creating layer L1_b2_cbr1_bn
I0817 16:26:33.375551 17350 net.cpp:100] Creating Layer L1_b2_cbr1_bn
I0817 16:26:33.375557 17350 net.cpp:434] L1_b2_cbr1_bn <- L1_b2_cbr1_conv_top
I0817 16:26:33.375566 17350 net.cpp:408] L1_b2_cbr1_bn -> L1_b2_cbr1_bn_top
I0817 16:26:33.375810 17350 net.cpp:150] Setting up L1_b2_cbr1_bn
I0817 16:26:33.375824 17350 net.cpp:157] Top shape: 125 16 32 32 (2048000)
I0817 16:26:33.375829 17350 net.cpp:165] Memory required for data: 157185500
I0817 16:26:33.375840 17350 layer_factory.hpp:77] Creating layer L1_b2_cbr1_scale
I0817 16:26:33.375852 17350 net.cpp:100] Creating Layer L1_b2_cbr1_scale
I0817 16:26:33.375857 17350 net.cpp:434] L1_b2_cbr1_scale <- L1_b2_cbr1_bn_top
I0817 16:26:33.375869 17350 net.cpp:395] L1_b2_cbr1_scale -> L1_b2_cbr1_bn_top (in-place)
I0817 16:26:33.375922 17350 layer_factory.hpp:77] Creating layer L1_b2_cbr1_scale
I0817 16:26:33.376061 17350 net.cpp:150] Setting up L1_b2_cbr1_scale
I0817 16:26:33.376075 17350 net.cpp:157] Top shape: 125 16 32 32 (2048000)
I0817 16:26:33.376080 17350 net.cpp:165] Memory required for data: 165377500
I0817 16:26:33.376096 17350 layer_factory.hpp:77] Creating layer L1_b2_cbr1_relu
I0817 16:26:33.376104 17350 net.cpp:100] Creating Layer L1_b2_cbr1_relu
I0817 16:26:33.376109 17350 net.cpp:434] L1_b2_cbr1_relu <- L1_b2_cbr1_bn_top
I0817 16:26:33.376119 17350 net.cpp:395] L1_b2_cbr1_relu -> L1_b2_cbr1_bn_top (in-place)
I0817 16:26:33.376129 17350 net.cpp:150] Setting up L1_b2_cbr1_relu
I0817 16:26:33.376135 17350 net.cpp:157] Top shape: 125 16 32 32 (2048000)
I0817 16:26:33.376140 17350 net.cpp:165] Memory required for data: 173569500
I0817 16:26:33.376145 17350 layer_factory.hpp:77] Creating layer L1_b2_cbr2_conv
I0817 16:26:33.376158 17350 net.cpp:100] Creating Layer L1_b2_cbr2_conv
I0817 16:26:33.376164 17350 net.cpp:434] L1_b2_cbr2_conv <- L1_b2_cbr1_bn_top
I0817 16:26:33.376175 17350 net.cpp:408] L1_b2_cbr2_conv -> L1_b2_cbr2_conv_top
I0817 16:26:33.376477 17350 net.cpp:150] Setting up L1_b2_cbr2_conv
I0817 16:26:33.376489 17350 net.cpp:157] Top shape: 125 16 32 32 (2048000)
I0817 16:26:33.376494 17350 net.cpp:165] Memory required for data: 181761500
I0817 16:26:33.376504 17350 layer_factory.hpp:77] Creating layer L1_b2_cbr2_bn
I0817 16:26:33.376513 17350 net.cpp:100] Creating Layer L1_b2_cbr2_bn
I0817 16:26:33.376518 17350 net.cpp:434] L1_b2_cbr2_bn <- L1_b2_cbr2_conv_top
I0817 16:26:33.376526 17350 net.cpp:408] L1_b2_cbr2_bn -> L1_b2_cbr2_bn_top
I0817 16:26:33.376761 17350 net.cpp:150] Setting up L1_b2_cbr2_bn
I0817 16:26:33.376775 17350 net.cpp:157] Top shape: 125 16 32 32 (2048000)
I0817 16:26:33.376785 17350 net.cpp:165] Memory required for data: 189953500
I0817 16:26:33.376806 17350 layer_factory.hpp:77] Creating layer L1_b2_cbr2_scale
I0817 16:26:33.376816 17350 net.cpp:100] Creating Layer L1_b2_cbr2_scale
I0817 16:26:33.376822 17350 net.cpp:434] L1_b2_cbr2_scale <- L1_b2_cbr2_bn_top
I0817 16:26:33.376830 17350 net.cpp:395] L1_b2_cbr2_scale -> L1_b2_cbr2_bn_top (in-place)
I0817 16:26:33.376886 17350 layer_factory.hpp:77] Creating layer L1_b2_cbr2_scale
I0817 16:26:33.377025 17350 net.cpp:150] Setting up L1_b2_cbr2_scale
I0817 16:26:33.377038 17350 net.cpp:157] Top shape: 125 16 32 32 (2048000)
I0817 16:26:33.377043 17350 net.cpp:165] Memory required for data: 198145500
I0817 16:26:33.377053 17350 layer_factory.hpp:77] Creating layer L1_b2_sum_eltwise
I0817 16:26:33.377061 17350 net.cpp:100] Creating Layer L1_b2_sum_eltwise
I0817 16:26:33.377066 17350 net.cpp:434] L1_b2_sum_eltwise <- L1_b2_cbr2_bn_top
I0817 16:26:33.377074 17350 net.cpp:434] L1_b2_sum_eltwise <- L1_b1_sum_eltwise_top_L1_b1_relu_0_split_1
I0817 16:26:33.377084 17350 net.cpp:408] L1_b2_sum_eltwise -> L1_b2_sum_eltwise_top
I0817 16:26:33.377115 17350 net.cpp:150] Setting up L1_b2_sum_eltwise
I0817 16:26:33.377125 17350 net.cpp:157] Top shape: 125 16 32 32 (2048000)
I0817 16:26:33.377128 17350 net.cpp:165] Memory required for data: 206337500
I0817 16:26:33.377133 17350 layer_factory.hpp:77] Creating layer L1_b2_relu
I0817 16:26:33.377144 17350 net.cpp:100] Creating Layer L1_b2_relu
I0817 16:26:33.377149 17350 net.cpp:434] L1_b2_relu <- L1_b2_sum_eltwise_top
I0817 16:26:33.377156 17350 net.cpp:395] L1_b2_relu -> L1_b2_sum_eltwise_top (in-place)
I0817 16:26:33.377166 17350 net.cpp:150] Setting up L1_b2_relu
I0817 16:26:33.377172 17350 net.cpp:157] Top shape: 125 16 32 32 (2048000)
I0817 16:26:33.377177 17350 net.cpp:165] Memory required for data: 214529500
I0817 16:26:33.377182 17350 layer_factory.hpp:77] Creating layer L1_b2_sum_eltwise_top_L1_b2_relu_0_split
I0817 16:26:33.377189 17350 net.cpp:100] Creating Layer L1_b2_sum_eltwise_top_L1_b2_relu_0_split
I0817 16:26:33.377194 17350 net.cpp:434] L1_b2_sum_eltwise_top_L1_b2_relu_0_split <- L1_b2_sum_eltwise_top
I0817 16:26:33.377202 17350 net.cpp:408] L1_b2_sum_eltwise_top_L1_b2_relu_0_split -> L1_b2_sum_eltwise_top_L1_b2_relu_0_split_0
I0817 16:26:33.377210 17350 net.cpp:408] L1_b2_sum_eltwise_top_L1_b2_relu_0_split -> L1_b2_sum_eltwise_top_L1_b2_relu_0_split_1
I0817 16:26:33.377255 17350 net.cpp:150] Setting up L1_b2_sum_eltwise_top_L1_b2_relu_0_split
I0817 16:26:33.377267 17350 net.cpp:157] Top shape: 125 16 32 32 (2048000)
I0817 16:26:33.377281 17350 net.cpp:157] Top shape: 125 16 32 32 (2048000)
I0817 16:26:33.377285 17350 net.cpp:165] Memory required for data: 230913500
I0817 16:26:33.377290 17350 layer_factory.hpp:77] Creating layer L1_b3_cbr1_conv
I0817 16:26:33.377308 17350 net.cpp:100] Creating Layer L1_b3_cbr1_conv
I0817 16:26:33.377315 17350 net.cpp:434] L1_b3_cbr1_conv <- L1_b2_sum_eltwise_top_L1_b2_relu_0_split_0
I0817 16:26:33.377323 17350 net.cpp:408] L1_b3_cbr1_conv -> L1_b3_cbr1_conv_top
I0817 16:26:33.377629 17350 net.cpp:150] Setting up L1_b3_cbr1_conv
I0817 16:26:33.377642 17350 net.cpp:157] Top shape: 125 16 32 32 (2048000)
I0817 16:26:33.377647 17350 net.cpp:165] Memory required for data: 239105500
I0817 16:26:33.377656 17350 layer_factory.hpp:77] Creating layer L1_b3_cbr1_bn
I0817 16:26:33.377667 17350 net.cpp:100] Creating Layer L1_b3_cbr1_bn
I0817 16:26:33.377674 17350 net.cpp:434] L1_b3_cbr1_bn <- L1_b3_cbr1_conv_top
I0817 16:26:33.377682 17350 net.cpp:408] L1_b3_cbr1_bn -> L1_b3_cbr1_bn_top
I0817 16:26:33.377929 17350 net.cpp:150] Setting up L1_b3_cbr1_bn
I0817 16:26:33.377943 17350 net.cpp:157] Top shape: 125 16 32 32 (2048000)
I0817 16:26:33.377948 17350 net.cpp:165] Memory required for data: 247297500
I0817 16:26:33.377959 17350 layer_factory.hpp:77] Creating layer L1_b3_cbr1_scale
I0817 16:26:33.377967 17350 net.cpp:100] Creating Layer L1_b3_cbr1_scale
I0817 16:26:33.377972 17350 net.cpp:434] L1_b3_cbr1_scale <- L1_b3_cbr1_bn_top
I0817 16:26:33.377980 17350 net.cpp:395] L1_b3_cbr1_scale -> L1_b3_cbr1_bn_top (in-place)
I0817 16:26:33.378033 17350 layer_factory.hpp:77] Creating layer L1_b3_cbr1_scale
I0817 16:26:33.378170 17350 net.cpp:150] Setting up L1_b3_cbr1_scale
I0817 16:26:33.378183 17350 net.cpp:157] Top shape: 125 16 32 32 (2048000)
I0817 16:26:33.378188 17350 net.cpp:165] Memory required for data: 255489500
I0817 16:26:33.378197 17350 layer_factory.hpp:77] Creating layer L1_b3_cbr1_relu
I0817 16:26:33.378206 17350 net.cpp:100] Creating Layer L1_b3_cbr1_relu
I0817 16:26:33.378211 17350 net.cpp:434] L1_b3_cbr1_relu <- L1_b3_cbr1_bn_top
I0817 16:26:33.378221 17350 net.cpp:395] L1_b3_cbr1_relu -> L1_b3_cbr1_bn_top (in-place)
I0817 16:26:33.378231 17350 net.cpp:150] Setting up L1_b3_cbr1_relu
I0817 16:26:33.378237 17350 net.cpp:157] Top shape: 125 16 32 32 (2048000)
I0817 16:26:33.378242 17350 net.cpp:165] Memory required for data: 263681500
I0817 16:26:33.378247 17350 layer_factory.hpp:77] Creating layer L1_b3_cbr2_conv
I0817 16:26:33.378260 17350 net.cpp:100] Creating Layer L1_b3_cbr2_conv
I0817 16:26:33.378265 17350 net.cpp:434] L1_b3_cbr2_conv <- L1_b3_cbr1_bn_top
I0817 16:26:33.378274 17350 net.cpp:408] L1_b3_cbr2_conv -> L1_b3_cbr2_conv_top
I0817 16:26:33.378579 17350 net.cpp:150] Setting up L1_b3_cbr2_conv
I0817 16:26:33.378592 17350 net.cpp:157] Top shape: 125 16 32 32 (2048000)
I0817 16:26:33.378597 17350 net.cpp:165] Memory required for data: 271873500
I0817 16:26:33.378607 17350 layer_factory.hpp:77] Creating layer L1_b3_cbr2_bn
I0817 16:26:33.378621 17350 net.cpp:100] Creating Layer L1_b3_cbr2_bn
I0817 16:26:33.378628 17350 net.cpp:434] L1_b3_cbr2_bn <- L1_b3_cbr2_conv_top
I0817 16:26:33.378638 17350 net.cpp:408] L1_b3_cbr2_bn -> L1_b3_cbr2_bn_top
I0817 16:26:33.378880 17350 net.cpp:150] Setting up L1_b3_cbr2_bn
I0817 16:26:33.378893 17350 net.cpp:157] Top shape: 125 16 32 32 (2048000)
I0817 16:26:33.378898 17350 net.cpp:165] Memory required for data: 280065500
I0817 16:26:33.378908 17350 layer_factory.hpp:77] Creating layer L1_b3_cbr2_scale
I0817 16:26:33.378916 17350 net.cpp:100] Creating Layer L1_b3_cbr2_scale
I0817 16:26:33.378922 17350 net.cpp:434] L1_b3_cbr2_scale <- L1_b3_cbr2_bn_top
I0817 16:26:33.378931 17350 net.cpp:395] L1_b3_cbr2_scale -> L1_b3_cbr2_bn_top (in-place)
I0817 16:26:33.378984 17350 layer_factory.hpp:77] Creating layer L1_b3_cbr2_scale
I0817 16:26:33.379117 17350 net.cpp:150] Setting up L1_b3_cbr2_scale
I0817 16:26:33.379129 17350 net.cpp:157] Top shape: 125 16 32 32 (2048000)
I0817 16:26:33.379134 17350 net.cpp:165] Memory required for data: 288257500
I0817 16:26:33.379150 17350 layer_factory.hpp:77] Creating layer L1_b3_sum_eltwise
I0817 16:26:33.379163 17350 net.cpp:100] Creating Layer L1_b3_sum_eltwise
I0817 16:26:33.379169 17350 net.cpp:434] L1_b3_sum_eltwise <- L1_b3_cbr2_bn_top
I0817 16:26:33.379175 17350 net.cpp:434] L1_b3_sum_eltwise <- L1_b2_sum_eltwise_top_L1_b2_relu_0_split_1
I0817 16:26:33.379184 17350 net.cpp:408] L1_b3_sum_eltwise -> L1_b3_sum_eltwise_top
I0817 16:26:33.379216 17350 net.cpp:150] Setting up L1_b3_sum_eltwise
I0817 16:26:33.379226 17350 net.cpp:157] Top shape: 125 16 32 32 (2048000)
I0817 16:26:33.379230 17350 net.cpp:165] Memory required for data: 296449500
I0817 16:26:33.379235 17350 layer_factory.hpp:77] Creating layer L1_b3_relu
I0817 16:26:33.379243 17350 net.cpp:100] Creating Layer L1_b3_relu
I0817 16:26:33.379248 17350 net.cpp:434] L1_b3_relu <- L1_b3_sum_eltwise_top
I0817 16:26:33.379258 17350 net.cpp:395] L1_b3_relu -> L1_b3_sum_eltwise_top (in-place)
I0817 16:26:33.379267 17350 net.cpp:150] Setting up L1_b3_relu
I0817 16:26:33.379274 17350 net.cpp:157] Top shape: 125 16 32 32 (2048000)
I0817 16:26:33.379278 17350 net.cpp:165] Memory required for data: 304641500
I0817 16:26:33.379283 17350 layer_factory.hpp:77] Creating layer L1_b3_sum_eltwise_top_L1_b3_relu_0_split
I0817 16:26:33.379290 17350 net.cpp:100] Creating Layer L1_b3_sum_eltwise_top_L1_b3_relu_0_split
I0817 16:26:33.379295 17350 net.cpp:434] L1_b3_sum_eltwise_top_L1_b3_relu_0_split <- L1_b3_sum_eltwise_top
I0817 16:26:33.379304 17350 net.cpp:408] L1_b3_sum_eltwise_top_L1_b3_relu_0_split -> L1_b3_sum_eltwise_top_L1_b3_relu_0_split_0
I0817 16:26:33.379314 17350 net.cpp:408] L1_b3_sum_eltwise_top_L1_b3_relu_0_split -> L1_b3_sum_eltwise_top_L1_b3_relu_0_split_1
I0817 16:26:33.379354 17350 net.cpp:150] Setting up L1_b3_sum_eltwise_top_L1_b3_relu_0_split
I0817 16:26:33.379365 17350 net.cpp:157] Top shape: 125 16 32 32 (2048000)
I0817 16:26:33.379372 17350 net.cpp:157] Top shape: 125 16 32 32 (2048000)
I0817 16:26:33.379376 17350 net.cpp:165] Memory required for data: 321025500
I0817 16:26:33.379382 17350 layer_factory.hpp:77] Creating layer L2_b1_cbr1_conv
I0817 16:26:33.379396 17350 net.cpp:100] Creating Layer L2_b1_cbr1_conv
I0817 16:26:33.379401 17350 net.cpp:434] L2_b1_cbr1_conv <- L1_b3_sum_eltwise_top_L1_b3_relu_0_split_0
I0817 16:26:33.379410 17350 net.cpp:408] L2_b1_cbr1_conv -> L2_b1_cbr1_conv_top
I0817 16:26:33.379721 17350 net.cpp:150] Setting up L2_b1_cbr1_conv
I0817 16:26:33.379734 17350 net.cpp:157] Top shape: 125 16 16 16 (512000)
I0817 16:26:33.379739 17350 net.cpp:165] Memory required for data: 323073500
I0817 16:26:33.379750 17350 layer_factory.hpp:77] Creating layer L2_b1_cbr1_bn
I0817 16:26:33.379757 17350 net.cpp:100] Creating Layer L2_b1_cbr1_bn
I0817 16:26:33.379766 17350 net.cpp:434] L2_b1_cbr1_bn <- L2_b1_cbr1_conv_top
I0817 16:26:33.379775 17350 net.cpp:408] L2_b1_cbr1_bn -> L2_b1_cbr1_bn_top
I0817 16:26:33.380010 17350 net.cpp:150] Setting up L2_b1_cbr1_bn
I0817 16:26:33.380023 17350 net.cpp:157] Top shape: 125 16 16 16 (512000)
I0817 16:26:33.380028 17350 net.cpp:165] Memory required for data: 325121500
I0817 16:26:33.380039 17350 layer_factory.hpp:77] Creating layer L2_b1_cbr1_scale
I0817 16:26:33.380048 17350 net.cpp:100] Creating Layer L2_b1_cbr1_scale
I0817 16:26:33.380053 17350 net.cpp:434] L2_b1_cbr1_scale <- L2_b1_cbr1_bn_top
I0817 16:26:33.380060 17350 net.cpp:395] L2_b1_cbr1_scale -> L2_b1_cbr1_bn_top (in-place)
I0817 16:26:33.380115 17350 layer_factory.hpp:77] Creating layer L2_b1_cbr1_scale
I0817 16:26:33.380259 17350 net.cpp:150] Setting up L2_b1_cbr1_scale
I0817 16:26:33.380275 17350 net.cpp:157] Top shape: 125 16 16 16 (512000)
I0817 16:26:33.380280 17350 net.cpp:165] Memory required for data: 327169500
I0817 16:26:33.380288 17350 layer_factory.hpp:77] Creating layer L2_b1_cbr1_relu
I0817 16:26:33.380296 17350 net.cpp:100] Creating Layer L2_b1_cbr1_relu
I0817 16:26:33.380302 17350 net.cpp:434] L2_b1_cbr1_relu <- L2_b1_cbr1_bn_top
I0817 16:26:33.380309 17350 net.cpp:395] L2_b1_cbr1_relu -> L2_b1_cbr1_bn_top (in-place)
I0817 16:26:33.380326 17350 net.cpp:150] Setting up L2_b1_cbr1_relu
I0817 16:26:33.380332 17350 net.cpp:157] Top shape: 125 16 16 16 (512000)
I0817 16:26:33.380337 17350 net.cpp:165] Memory required for data: 329217500
I0817 16:26:33.380342 17350 layer_factory.hpp:77] Creating layer L2_b1_cbr2_conv
I0817 16:26:33.380355 17350 net.cpp:100] Creating Layer L2_b1_cbr2_conv
I0817 16:26:33.380362 17350 net.cpp:434] L2_b1_cbr2_conv <- L2_b1_cbr1_bn_top
I0817 16:26:33.380373 17350 net.cpp:408] L2_b1_cbr2_conv -> L2_b1_cbr2_conv_top
I0817 16:26:33.380686 17350 net.cpp:150] Setting up L2_b1_cbr2_conv
I0817 16:26:33.380699 17350 net.cpp:157] Top shape: 125 16 16 16 (512000)
I0817 16:26:33.380704 17350 net.cpp:165] Memory required for data: 331265500
I0817 16:26:33.380713 17350 layer_factory.hpp:77] Creating layer L2_b1_cbr2_bn
I0817 16:26:33.380725 17350 net.cpp:100] Creating Layer L2_b1_cbr2_bn
I0817 16:26:33.380731 17350 net.cpp:434] L2_b1_cbr2_bn <- L2_b1_cbr2_conv_top
I0817 16:26:33.380741 17350 net.cpp:408] L2_b1_cbr2_bn -> L2_b1_cbr2_bn_top
I0817 16:26:33.380996 17350 net.cpp:150] Setting up L2_b1_cbr2_bn
I0817 16:26:33.381011 17350 net.cpp:157] Top shape: 125 16 16 16 (512000)
I0817 16:26:33.381016 17350 net.cpp:165] Memory required for data: 333313500
I0817 16:26:33.381026 17350 layer_factory.hpp:77] Creating layer L2_b1_cbr2_scale
I0817 16:26:33.381034 17350 net.cpp:100] Creating Layer L2_b1_cbr2_scale
I0817 16:26:33.381041 17350 net.cpp:434] L2_b1_cbr2_scale <- L2_b1_cbr2_bn_top
I0817 16:26:33.381050 17350 net.cpp:395] L2_b1_cbr2_scale -> L2_b1_cbr2_bn_top (in-place)
I0817 16:26:33.381104 17350 layer_factory.hpp:77] Creating layer L2_b1_cbr2_scale
I0817 16:26:33.381242 17350 net.cpp:150] Setting up L2_b1_cbr2_scale
I0817 16:26:33.381254 17350 net.cpp:157] Top shape: 125 16 16 16 (512000)
I0817 16:26:33.381259 17350 net.cpp:165] Memory required for data: 335361500
I0817 16:26:33.381268 17350 layer_factory.hpp:77] Creating layer L2_b1_pool
I0817 16:26:33.381279 17350 net.cpp:100] Creating Layer L2_b1_pool
I0817 16:26:33.381284 17350 net.cpp:434] L2_b1_pool <- L1_b3_sum_eltwise_top_L1_b3_relu_0_split_1
I0817 16:26:33.381295 17350 net.cpp:408] L2_b1_pool -> L2_b1_pool
I0817 16:26:33.381377 17350 net.cpp:150] Setting up L2_b1_pool
I0817 16:26:33.381392 17350 net.cpp:157] Top shape: 125 16 16 16 (512000)
I0817 16:26:33.381397 17350 net.cpp:165] Memory required for data: 337409500
I0817 16:26:33.381403 17350 layer_factory.hpp:77] Creating layer L2_b1_sum_eltwise
I0817 16:26:33.381417 17350 net.cpp:100] Creating Layer L2_b1_sum_eltwise
I0817 16:26:33.381422 17350 net.cpp:434] L2_b1_sum_eltwise <- L2_b1_cbr2_bn_top
I0817 16:26:33.381429 17350 net.cpp:434] L2_b1_sum_eltwise <- L2_b1_pool
I0817 16:26:33.381436 17350 net.cpp:408] L2_b1_sum_eltwise -> L2_b1_sum_eltwise_top
I0817 16:26:33.381472 17350 net.cpp:150] Setting up L2_b1_sum_eltwise
I0817 16:26:33.381485 17350 net.cpp:157] Top shape: 125 16 16 16 (512000)
I0817 16:26:33.381490 17350 net.cpp:165] Memory required for data: 339457500
I0817 16:26:33.381495 17350 layer_factory.hpp:77] Creating layer L2_b1_relu
I0817 16:26:33.381503 17350 net.cpp:100] Creating Layer L2_b1_relu
I0817 16:26:33.381510 17350 net.cpp:434] L2_b1_relu <- L2_b1_sum_eltwise_top
I0817 16:26:33.381515 17350 net.cpp:395] L2_b1_relu -> L2_b1_sum_eltwise_top (in-place)
I0817 16:26:33.381525 17350 net.cpp:150] Setting up L2_b1_relu
I0817 16:26:33.381532 17350 net.cpp:157] Top shape: 125 16 16 16 (512000)
I0817 16:26:33.381536 17350 net.cpp:165] Memory required for data: 341505500
I0817 16:26:33.381541 17350 layer_factory.hpp:77] Creating layer L2_b1_zeros
I0817 16:26:33.381585 17350 net.cpp:100] Creating Layer L2_b1_zeros
I0817 16:26:33.381603 17350 net.cpp:408] L2_b1_zeros -> L2_b1_zeros
I0817 16:26:33.383939 17350 net.cpp:150] Setting up L2_b1_zeros
I0817 16:26:33.383957 17350 net.cpp:157] Top shape: 125 16 16 16 (512000)
I0817 16:26:33.383962 17350 net.cpp:165] Memory required for data: 343553500
I0817 16:26:33.383968 17350 layer_factory.hpp:77] Creating layer L2_b1_concat0
I0817 16:26:33.383981 17350 net.cpp:100] Creating Layer L2_b1_concat0
I0817 16:26:33.383996 17350 net.cpp:434] L2_b1_concat0 <- L2_b1_sum_eltwise_top
I0817 16:26:33.384002 17350 net.cpp:434] L2_b1_concat0 <- L2_b1_zeros
I0817 16:26:33.384011 17350 net.cpp:408] L2_b1_concat0 -> L2_b1_concat0
I0817 16:26:33.384088 17350 net.cpp:150] Setting up L2_b1_concat0
I0817 16:26:33.384104 17350 net.cpp:157] Top shape: 125 32 16 16 (1024000)
I0817 16:26:33.384109 17350 net.cpp:165] Memory required for data: 347649500
I0817 16:26:33.384114 17350 layer_factory.hpp:77] Creating layer L2_b1_concat0_L2_b1_concat0_0_split
I0817 16:26:33.384124 17350 net.cpp:100] Creating Layer L2_b1_concat0_L2_b1_concat0_0_split
I0817 16:26:33.384130 17350 net.cpp:434] L2_b1_concat0_L2_b1_concat0_0_split <- L2_b1_concat0
I0817 16:26:33.384140 17350 net.cpp:408] L2_b1_concat0_L2_b1_concat0_0_split -> L2_b1_concat0_L2_b1_concat0_0_split_0
I0817 16:26:33.384150 17350 net.cpp:408] L2_b1_concat0_L2_b1_concat0_0_split -> L2_b1_concat0_L2_b1_concat0_0_split_1
I0817 16:26:33.384196 17350 net.cpp:150] Setting up L2_b1_concat0_L2_b1_concat0_0_split
I0817 16:26:33.384209 17350 net.cpp:157] Top shape: 125 32 16 16 (1024000)
I0817 16:26:33.384217 17350 net.cpp:157] Top shape: 125 32 16 16 (1024000)
I0817 16:26:33.384222 17350 net.cpp:165] Memory required for data: 355841500
I0817 16:26:33.384227 17350 layer_factory.hpp:77] Creating layer L2_b2_cbr1_conv
I0817 16:26:33.384238 17350 net.cpp:100] Creating Layer L2_b2_cbr1_conv
I0817 16:26:33.384243 17350 net.cpp:434] L2_b2_cbr1_conv <- L2_b1_concat0_L2_b1_concat0_0_split_0
I0817 16:26:33.384255 17350 net.cpp:408] L2_b2_cbr1_conv -> L2_b2_cbr1_conv_top
I0817 16:26:33.385700 17350 net.cpp:150] Setting up L2_b2_cbr1_conv
I0817 16:26:33.385717 17350 net.cpp:157] Top shape: 125 32 16 16 (1024000)
I0817 16:26:33.385722 17350 net.cpp:165] Memory required for data: 359937500
I0817 16:26:33.385748 17350 layer_factory.hpp:77] Creating layer L2_b2_cbr1_bn
I0817 16:26:33.385759 17350 net.cpp:100] Creating Layer L2_b2_cbr1_bn
I0817 16:26:33.385766 17350 net.cpp:434] L2_b2_cbr1_bn <- L2_b2_cbr1_conv_top
I0817 16:26:33.385776 17350 net.cpp:408] L2_b2_cbr1_bn -> L2_b2_cbr1_bn_top
I0817 16:26:33.386018 17350 net.cpp:150] Setting up L2_b2_cbr1_bn
I0817 16:26:33.386032 17350 net.cpp:157] Top shape: 125 32 16 16 (1024000)
I0817 16:26:33.386037 17350 net.cpp:165] Memory required for data: 364033500
I0817 16:26:33.386049 17350 layer_factory.hpp:77] Creating layer L2_b2_cbr1_scale
I0817 16:26:33.386056 17350 net.cpp:100] Creating Layer L2_b2_cbr1_scale
I0817 16:26:33.386062 17350 net.cpp:434] L2_b2_cbr1_scale <- L2_b2_cbr1_bn_top
I0817 16:26:33.386073 17350 net.cpp:395] L2_b2_cbr1_scale -> L2_b2_cbr1_bn_top (in-place)
I0817 16:26:33.386123 17350 layer_factory.hpp:77] Creating layer L2_b2_cbr1_scale
I0817 16:26:33.386266 17350 net.cpp:150] Setting up L2_b2_cbr1_scale
I0817 16:26:33.386279 17350 net.cpp:157] Top shape: 125 32 16 16 (1024000)
I0817 16:26:33.386284 17350 net.cpp:165] Memory required for data: 368129500
I0817 16:26:33.386293 17350 layer_factory.hpp:77] Creating layer L2_b2_cbr1_relu
I0817 16:26:33.386302 17350 net.cpp:100] Creating Layer L2_b2_cbr1_relu
I0817 16:26:33.386307 17350 net.cpp:434] L2_b2_cbr1_relu <- L2_b2_cbr1_bn_top
I0817 16:26:33.386318 17350 net.cpp:395] L2_b2_cbr1_relu -> L2_b2_cbr1_bn_top (in-place)
I0817 16:26:33.386328 17350 net.cpp:150] Setting up L2_b2_cbr1_relu
I0817 16:26:33.386335 17350 net.cpp:157] Top shape: 125 32 16 16 (1024000)
I0817 16:26:33.386339 17350 net.cpp:165] Memory required for data: 372225500
I0817 16:26:33.386344 17350 layer_factory.hpp:77] Creating layer L2_b2_cbr2_conv
I0817 16:26:33.386358 17350 net.cpp:100] Creating Layer L2_b2_cbr2_conv
I0817 16:26:33.386364 17350 net.cpp:434] L2_b2_cbr2_conv <- L2_b2_cbr1_bn_top
I0817 16:26:33.386373 17350 net.cpp:408] L2_b2_cbr2_conv -> L2_b2_cbr2_conv_top
I0817 16:26:33.386824 17350 net.cpp:150] Setting up L2_b2_cbr2_conv
I0817 16:26:33.386838 17350 net.cpp:157] Top shape: 125 32 16 16 (1024000)
I0817 16:26:33.386843 17350 net.cpp:165] Memory required for data: 376321500
I0817 16:26:33.386860 17350 layer_factory.hpp:77] Creating layer L2_b2_cbr2_bn
I0817 16:26:33.386873 17350 net.cpp:100] Creating Layer L2_b2_cbr2_bn
I0817 16:26:33.386879 17350 net.cpp:434] L2_b2_cbr2_bn <- L2_b2_cbr2_conv_top
I0817 16:26:33.386888 17350 net.cpp:408] L2_b2_cbr2_bn -> L2_b2_cbr2_bn_top
I0817 16:26:33.387120 17350 net.cpp:150] Setting up L2_b2_cbr2_bn
I0817 16:26:33.387132 17350 net.cpp:157] Top shape: 125 32 16 16 (1024000)
I0817 16:26:33.387137 17350 net.cpp:165] Memory required for data: 380417500
I0817 16:26:33.387147 17350 layer_factory.hpp:77] Creating layer L2_b2_cbr2_scale
I0817 16:26:33.387156 17350 net.cpp:100] Creating Layer L2_b2_cbr2_scale
I0817 16:26:33.387162 17350 net.cpp:434] L2_b2_cbr2_scale <- L2_b2_cbr2_bn_top
I0817 16:26:33.387169 17350 net.cpp:395] L2_b2_cbr2_scale -> L2_b2_cbr2_bn_top (in-place)
I0817 16:26:33.387224 17350 layer_factory.hpp:77] Creating layer L2_b2_cbr2_scale
I0817 16:26:33.387363 17350 net.cpp:150] Setting up L2_b2_cbr2_scale
I0817 16:26:33.387378 17350 net.cpp:157] Top shape: 125 32 16 16 (1024000)
I0817 16:26:33.387383 17350 net.cpp:165] Memory required for data: 384513500
I0817 16:26:33.387392 17350 layer_factory.hpp:77] Creating layer L2_b2_sum_eltwise
I0817 16:26:33.387403 17350 net.cpp:100] Creating Layer L2_b2_sum_eltwise
I0817 16:26:33.387408 17350 net.cpp:434] L2_b2_sum_eltwise <- L2_b2_cbr2_bn_top
I0817 16:26:33.387415 17350 net.cpp:434] L2_b2_sum_eltwise <- L2_b1_concat0_L2_b1_concat0_0_split_1
I0817 16:26:33.387423 17350 net.cpp:408] L2_b2_sum_eltwise -> L2_b2_sum_eltwise_top
I0817 16:26:33.387451 17350 net.cpp:150] Setting up L2_b2_sum_eltwise
I0817 16:26:33.387461 17350 net.cpp:157] Top shape: 125 32 16 16 (1024000)
I0817 16:26:33.387465 17350 net.cpp:165] Memory required for data: 388609500
I0817 16:26:33.387471 17350 layer_factory.hpp:77] Creating layer L2_b2_relu
I0817 16:26:33.387478 17350 net.cpp:100] Creating Layer L2_b2_relu
I0817 16:26:33.387485 17350 net.cpp:434] L2_b2_relu <- L2_b2_sum_eltwise_top
I0817 16:26:33.387493 17350 net.cpp:395] L2_b2_relu -> L2_b2_sum_eltwise_top (in-place)
I0817 16:26:33.387503 17350 net.cpp:150] Setting up L2_b2_relu
I0817 16:26:33.387511 17350 net.cpp:157] Top shape: 125 32 16 16 (1024000)
I0817 16:26:33.387514 17350 net.cpp:165] Memory required for data: 392705500
I0817 16:26:33.387519 17350 layer_factory.hpp:77] Creating layer L2_b2_sum_eltwise_top_L2_b2_relu_0_split
I0817 16:26:33.387526 17350 net.cpp:100] Creating Layer L2_b2_sum_eltwise_top_L2_b2_relu_0_split
I0817 16:26:33.387531 17350 net.cpp:434] L2_b2_sum_eltwise_top_L2_b2_relu_0_split <- L2_b2_sum_eltwise_top
I0817 16:26:33.387540 17350 net.cpp:408] L2_b2_sum_eltwise_top_L2_b2_relu_0_split -> L2_b2_sum_eltwise_top_L2_b2_relu_0_split_0
I0817 16:26:33.387550 17350 net.cpp:408] L2_b2_sum_eltwise_top_L2_b2_relu_0_split -> L2_b2_sum_eltwise_top_L2_b2_relu_0_split_1
I0817 16:26:33.387591 17350 net.cpp:150] Setting up L2_b2_sum_eltwise_top_L2_b2_relu_0_split
I0817 16:26:33.387603 17350 net.cpp:157] Top shape: 125 32 16 16 (1024000)
I0817 16:26:33.387609 17350 net.cpp:157] Top shape: 125 32 16 16 (1024000)
I0817 16:26:33.387614 17350 net.cpp:165] Memory required for data: 400897500
I0817 16:26:33.387619 17350 layer_factory.hpp:77] Creating layer L2_b3_cbr1_conv
I0817 16:26:33.387634 17350 net.cpp:100] Creating Layer L2_b3_cbr1_conv
I0817 16:26:33.387640 17350 net.cpp:434] L2_b3_cbr1_conv <- L2_b2_sum_eltwise_top_L2_b2_relu_0_split_0
I0817 16:26:33.387648 17350 net.cpp:408] L2_b3_cbr1_conv -> L2_b3_cbr1_conv_top
I0817 16:26:33.388108 17350 net.cpp:150] Setting up L2_b3_cbr1_conv
I0817 16:26:33.388123 17350 net.cpp:157] Top shape: 125 32 16 16 (1024000)
I0817 16:26:33.388128 17350 net.cpp:165] Memory required for data: 404993500
I0817 16:26:33.388136 17350 layer_factory.hpp:77] Creating layer L2_b3_cbr1_bn
I0817 16:26:33.388149 17350 net.cpp:100] Creating Layer L2_b3_cbr1_bn
I0817 16:26:33.388154 17350 net.cpp:434] L2_b3_cbr1_bn <- L2_b3_cbr1_conv_top
I0817 16:26:33.388162 17350 net.cpp:408] L2_b3_cbr1_bn -> L2_b3_cbr1_bn_top
I0817 16:26:33.388399 17350 net.cpp:150] Setting up L2_b3_cbr1_bn
I0817 16:26:33.388418 17350 net.cpp:157] Top shape: 125 32 16 16 (1024000)
I0817 16:26:33.388423 17350 net.cpp:165] Memory required for data: 409089500
I0817 16:26:33.388434 17350 layer_factory.hpp:77] Creating layer L2_b3_cbr1_scale
I0817 16:26:33.388443 17350 net.cpp:100] Creating Layer L2_b3_cbr1_scale
I0817 16:26:33.388448 17350 net.cpp:434] L2_b3_cbr1_scale <- L2_b3_cbr1_bn_top
I0817 16:26:33.388459 17350 net.cpp:395] L2_b3_cbr1_scale -> L2_b3_cbr1_bn_top (in-place)
I0817 16:26:33.388514 17350 layer_factory.hpp:77] Creating layer L2_b3_cbr1_scale
I0817 16:26:33.388655 17350 net.cpp:150] Setting up L2_b3_cbr1_scale
I0817 16:26:33.388667 17350 net.cpp:157] Top shape: 125 32 16 16 (1024000)
I0817 16:26:33.388672 17350 net.cpp:165] Memory required for data: 413185500
I0817 16:26:33.388681 17350 layer_factory.hpp:77] Creating layer L2_b3_cbr1_relu
I0817 16:26:33.388689 17350 net.cpp:100] Creating Layer L2_b3_cbr1_relu
I0817 16:26:33.388695 17350 net.cpp:434] L2_b3_cbr1_relu <- L2_b3_cbr1_bn_top
I0817 16:26:33.388702 17350 net.cpp:395] L2_b3_cbr1_relu -> L2_b3_cbr1_bn_top (in-place)
I0817 16:26:33.388711 17350 net.cpp:150] Setting up L2_b3_cbr1_relu
I0817 16:26:33.388718 17350 net.cpp:157] Top shape: 125 32 16 16 (1024000)
I0817 16:26:33.388722 17350 net.cpp:165] Memory required for data: 417281500
I0817 16:26:33.388727 17350 layer_factory.hpp:77] Creating layer L2_b3_cbr2_conv
I0817 16:26:33.388747 17350 net.cpp:100] Creating Layer L2_b3_cbr2_conv
I0817 16:26:33.388753 17350 net.cpp:434] L2_b3_cbr2_conv <- L2_b3_cbr1_bn_top
I0817 16:26:33.388766 17350 net.cpp:408] L2_b3_cbr2_conv -> L2_b3_cbr2_conv_top
I0817 16:26:33.389219 17350 net.cpp:150] Setting up L2_b3_cbr2_conv
I0817 16:26:33.389232 17350 net.cpp:157] Top shape: 125 32 16 16 (1024000)
I0817 16:26:33.389237 17350 net.cpp:165] Memory required for data: 421377500
I0817 16:26:33.389247 17350 layer_factory.hpp:77] Creating layer L2_b3_cbr2_bn
I0817 16:26:33.389256 17350 net.cpp:100] Creating Layer L2_b3_cbr2_bn
I0817 16:26:33.389262 17350 net.cpp:434] L2_b3_cbr2_bn <- L2_b3_cbr2_conv_top
I0817 16:26:33.389276 17350 net.cpp:408] L2_b3_cbr2_bn -> L2_b3_cbr2_bn_top
I0817 16:26:33.389513 17350 net.cpp:150] Setting up L2_b3_cbr2_bn
I0817 16:26:33.389525 17350 net.cpp:157] Top shape: 125 32 16 16 (1024000)
I0817 16:26:33.389530 17350 net.cpp:165] Memory required for data: 425473500
I0817 16:26:33.389541 17350 layer_factory.hpp:77] Creating layer L2_b3_cbr2_scale
I0817 16:26:33.389552 17350 net.cpp:100] Creating Layer L2_b3_cbr2_scale
I0817 16:26:33.389559 17350 net.cpp:434] L2_b3_cbr2_scale <- L2_b3_cbr2_bn_top
I0817 16:26:33.389566 17350 net.cpp:395] L2_b3_cbr2_scale -> L2_b3_cbr2_bn_top (in-place)
I0817 16:26:33.389617 17350 layer_factory.hpp:77] Creating layer L2_b3_cbr2_scale
I0817 16:26:33.389756 17350 net.cpp:150] Setting up L2_b3_cbr2_scale
I0817 16:26:33.389768 17350 net.cpp:157] Top shape: 125 32 16 16 (1024000)
I0817 16:26:33.389773 17350 net.cpp:165] Memory required for data: 429569500
I0817 16:26:33.389788 17350 layer_factory.hpp:77] Creating layer L2_b3_sum_eltwise
I0817 16:26:33.389802 17350 net.cpp:100] Creating Layer L2_b3_sum_eltwise
I0817 16:26:33.389808 17350 net.cpp:434] L2_b3_sum_eltwise <- L2_b3_cbr2_bn_top
I0817 16:26:33.389816 17350 net.cpp:434] L2_b3_sum_eltwise <- L2_b2_sum_eltwise_top_L2_b2_relu_0_split_1
I0817 16:26:33.389822 17350 net.cpp:408] L2_b3_sum_eltwise -> L2_b3_sum_eltwise_top
I0817 16:26:33.389849 17350 net.cpp:150] Setting up L2_b3_sum_eltwise
I0817 16:26:33.389861 17350 net.cpp:157] Top shape: 125 32 16 16 (1024000)
I0817 16:26:33.389866 17350 net.cpp:165] Memory required for data: 433665500
I0817 16:26:33.389871 17350 layer_factory.hpp:77] Creating layer L2_b3_relu
I0817 16:26:33.389879 17350 net.cpp:100] Creating Layer L2_b3_relu
I0817 16:26:33.389884 17350 net.cpp:434] L2_b3_relu <- L2_b3_sum_eltwise_top
I0817 16:26:33.389891 17350 net.cpp:395] L2_b3_relu -> L2_b3_sum_eltwise_top (in-place)
I0817 16:26:33.389900 17350 net.cpp:150] Setting up L2_b3_relu
I0817 16:26:33.389907 17350 net.cpp:157] Top shape: 125 32 16 16 (1024000)
I0817 16:26:33.389919 17350 net.cpp:165] Memory required for data: 437761500
I0817 16:26:33.389924 17350 layer_factory.hpp:77] Creating layer L2_b3_sum_eltwise_top_L2_b3_relu_0_split
I0817 16:26:33.389933 17350 net.cpp:100] Creating Layer L2_b3_sum_eltwise_top_L2_b3_relu_0_split
I0817 16:26:33.389938 17350 net.cpp:434] L2_b3_sum_eltwise_top_L2_b3_relu_0_split <- L2_b3_sum_eltwise_top
I0817 16:26:33.389945 17350 net.cpp:408] L2_b3_sum_eltwise_top_L2_b3_relu_0_split -> L2_b3_sum_eltwise_top_L2_b3_relu_0_split_0
I0817 16:26:33.389955 17350 net.cpp:408] L2_b3_sum_eltwise_top_L2_b3_relu_0_split -> L2_b3_sum_eltwise_top_L2_b3_relu_0_split_1
I0817 16:26:33.390000 17350 net.cpp:150] Setting up L2_b3_sum_eltwise_top_L2_b3_relu_0_split
I0817 16:26:33.390012 17350 net.cpp:157] Top shape: 125 32 16 16 (1024000)
I0817 16:26:33.390018 17350 net.cpp:157] Top shape: 125 32 16 16 (1024000)
I0817 16:26:33.390023 17350 net.cpp:165] Memory required for data: 445953500
I0817 16:26:33.390028 17350 layer_factory.hpp:77] Creating layer L3_b1_cbr1_conv
I0817 16:26:33.390039 17350 net.cpp:100] Creating Layer L3_b1_cbr1_conv
I0817 16:26:33.390045 17350 net.cpp:434] L3_b1_cbr1_conv <- L2_b3_sum_eltwise_top_L2_b3_relu_0_split_0
I0817 16:26:33.390056 17350 net.cpp:408] L3_b1_cbr1_conv -> L3_b1_cbr1_conv_top
I0817 16:26:33.390501 17350 net.cpp:150] Setting up L3_b1_cbr1_conv
I0817 16:26:33.390516 17350 net.cpp:157] Top shape: 125 32 8 8 (256000)
I0817 16:26:33.390521 17350 net.cpp:165] Memory required for data: 446977500
I0817 16:26:33.390529 17350 layer_factory.hpp:77] Creating layer L3_b1_cbr1_bn
I0817 16:26:33.390538 17350 net.cpp:100] Creating Layer L3_b1_cbr1_bn
I0817 16:26:33.390544 17350 net.cpp:434] L3_b1_cbr1_bn <- L3_b1_cbr1_conv_top
I0817 16:26:33.390554 17350 net.cpp:408] L3_b1_cbr1_bn -> L3_b1_cbr1_bn_top
I0817 16:26:33.390805 17350 net.cpp:150] Setting up L3_b1_cbr1_bn
I0817 16:26:33.390820 17350 net.cpp:157] Top shape: 125 32 8 8 (256000)
I0817 16:26:33.390825 17350 net.cpp:165] Memory required for data: 448001500
I0817 16:26:33.390836 17350 layer_factory.hpp:77] Creating layer L3_b1_cbr1_scale
I0817 16:26:33.390844 17350 net.cpp:100] Creating Layer L3_b1_cbr1_scale
I0817 16:26:33.390851 17350 net.cpp:434] L3_b1_cbr1_scale <- L3_b1_cbr1_bn_top
I0817 16:26:33.390858 17350 net.cpp:395] L3_b1_cbr1_scale -> L3_b1_cbr1_bn_top (in-place)
I0817 16:26:33.390909 17350 layer_factory.hpp:77] Creating layer L3_b1_cbr1_scale
I0817 16:26:33.391057 17350 net.cpp:150] Setting up L3_b1_cbr1_scale
I0817 16:26:33.391070 17350 net.cpp:157] Top shape: 125 32 8 8 (256000)
I0817 16:26:33.391075 17350 net.cpp:165] Memory required for data: 449025500
I0817 16:26:33.391084 17350 layer_factory.hpp:77] Creating layer L3_b1_cbr1_relu
I0817 16:26:33.391095 17350 net.cpp:100] Creating Layer L3_b1_cbr1_relu
I0817 16:26:33.391101 17350 net.cpp:434] L3_b1_cbr1_relu <- L3_b1_cbr1_bn_top
I0817 16:26:33.391108 17350 net.cpp:395] L3_b1_cbr1_relu -> L3_b1_cbr1_bn_top (in-place)
I0817 16:26:33.391118 17350 net.cpp:150] Setting up L3_b1_cbr1_relu
I0817 16:26:33.391124 17350 net.cpp:157] Top shape: 125 32 8 8 (256000)
I0817 16:26:33.391129 17350 net.cpp:165] Memory required for data: 450049500
I0817 16:26:33.391134 17350 layer_factory.hpp:77] Creating layer L3_b1_cbr2_conv
I0817 16:26:33.391147 17350 net.cpp:100] Creating Layer L3_b1_cbr2_conv
I0817 16:26:33.391154 17350 net.cpp:434] L3_b1_cbr2_conv <- L3_b1_cbr1_bn_top
I0817 16:26:33.391161 17350 net.cpp:408] L3_b1_cbr2_conv -> L3_b1_cbr2_conv_top
I0817 16:26:33.391613 17350 net.cpp:150] Setting up L3_b1_cbr2_conv
I0817 16:26:33.391628 17350 net.cpp:157] Top shape: 125 32 8 8 (256000)
I0817 16:26:33.391633 17350 net.cpp:165] Memory required for data: 451073500
I0817 16:26:33.391641 17350 layer_factory.hpp:77] Creating layer L3_b1_cbr2_bn
I0817 16:26:33.391652 17350 net.cpp:100] Creating Layer L3_b1_cbr2_bn
I0817 16:26:33.391659 17350 net.cpp:434] L3_b1_cbr2_bn <- L3_b1_cbr2_conv_top
I0817 16:26:33.391669 17350 net.cpp:408] L3_b1_cbr2_bn -> L3_b1_cbr2_bn_top
I0817 16:26:33.391916 17350 net.cpp:150] Setting up L3_b1_cbr2_bn
I0817 16:26:33.391937 17350 net.cpp:157] Top shape: 125 32 8 8 (256000)
I0817 16:26:33.391942 17350 net.cpp:165] Memory required for data: 452097500
I0817 16:26:33.391952 17350 layer_factory.hpp:77] Creating layer L3_b1_cbr2_scale
I0817 16:26:33.391961 17350 net.cpp:100] Creating Layer L3_b1_cbr2_scale
I0817 16:26:33.391966 17350 net.cpp:434] L3_b1_cbr2_scale <- L3_b1_cbr2_bn_top
I0817 16:26:33.391978 17350 net.cpp:395] L3_b1_cbr2_scale -> L3_b1_cbr2_bn_top (in-place)
I0817 16:26:33.392030 17350 layer_factory.hpp:77] Creating layer L3_b1_cbr2_scale
I0817 16:26:33.392176 17350 net.cpp:150] Setting up L3_b1_cbr2_scale
I0817 16:26:33.392189 17350 net.cpp:157] Top shape: 125 32 8 8 (256000)
I0817 16:26:33.392194 17350 net.cpp:165] Memory required for data: 453121500
I0817 16:26:33.392204 17350 layer_factory.hpp:77] Creating layer L3_b1_pool
I0817 16:26:33.392213 17350 net.cpp:100] Creating Layer L3_b1_pool
I0817 16:26:33.392220 17350 net.cpp:434] L3_b1_pool <- L2_b3_sum_eltwise_top_L2_b3_relu_0_split_1
I0817 16:26:33.392230 17350 net.cpp:408] L3_b1_pool -> L3_b1_pool
I0817 16:26:33.392266 17350 net.cpp:150] Setting up L3_b1_pool
I0817 16:26:33.392276 17350 net.cpp:157] Top shape: 125 32 8 8 (256000)
I0817 16:26:33.392279 17350 net.cpp:165] Memory required for data: 454145500
I0817 16:26:33.392285 17350 layer_factory.hpp:77] Creating layer L3_b1_sum_eltwise
I0817 16:26:33.392293 17350 net.cpp:100] Creating Layer L3_b1_sum_eltwise
I0817 16:26:33.392299 17350 net.cpp:434] L3_b1_sum_eltwise <- L3_b1_cbr2_bn_top
I0817 16:26:33.392307 17350 net.cpp:434] L3_b1_sum_eltwise <- L3_b1_pool
I0817 16:26:33.392316 17350 net.cpp:408] L3_b1_sum_eltwise -> L3_b1_sum_eltwise_top
I0817 16:26:33.392346 17350 net.cpp:150] Setting up L3_b1_sum_eltwise
I0817 16:26:33.392355 17350 net.cpp:157] Top shape: 125 32 8 8 (256000)
I0817 16:26:33.392360 17350 net.cpp:165] Memory required for data: 455169500
I0817 16:26:33.392365 17350 layer_factory.hpp:77] Creating layer L3_b1_relu
I0817 16:26:33.392374 17350 net.cpp:100] Creating Layer L3_b1_relu
I0817 16:26:33.392379 17350 net.cpp:434] L3_b1_relu <- L3_b1_sum_eltwise_top
I0817 16:26:33.392385 17350 net.cpp:395] L3_b1_relu -> L3_b1_sum_eltwise_top (in-place)
I0817 16:26:33.392395 17350 net.cpp:150] Setting up L3_b1_relu
I0817 16:26:33.392401 17350 net.cpp:157] Top shape: 125 32 8 8 (256000)
I0817 16:26:33.392405 17350 net.cpp:165] Memory required for data: 456193500
I0817 16:26:33.392410 17350 layer_factory.hpp:77] Creating layer L3_b1_zeros
I0817 16:26:33.392422 17350 net.cpp:100] Creating Layer L3_b1_zeros
I0817 16:26:33.392429 17350 net.cpp:408] L3_b1_zeros -> L3_b1_zeros
I0817 16:26:33.393656 17350 net.cpp:150] Setting up L3_b1_zeros
I0817 16:26:33.393674 17350 net.cpp:157] Top shape: 125 32 8 8 (256000)
I0817 16:26:33.393679 17350 net.cpp:165] Memory required for data: 457217500
I0817 16:26:33.393685 17350 layer_factory.hpp:77] Creating layer L3_b1_concat0
I0817 16:26:33.393694 17350 net.cpp:100] Creating Layer L3_b1_concat0
I0817 16:26:33.393700 17350 net.cpp:434] L3_b1_concat0 <- L3_b1_sum_eltwise_top
I0817 16:26:33.393708 17350 net.cpp:434] L3_b1_concat0 <- L3_b1_zeros
I0817 16:26:33.393718 17350 net.cpp:408] L3_b1_concat0 -> L3_b1_concat0
I0817 16:26:33.393757 17350 net.cpp:150] Setting up L3_b1_concat0
I0817 16:26:33.393772 17350 net.cpp:157] Top shape: 125 64 8 8 (512000)
I0817 16:26:33.393777 17350 net.cpp:165] Memory required for data: 459265500
I0817 16:26:33.393790 17350 layer_factory.hpp:77] Creating layer L3_b1_concat0_L3_b1_concat0_0_split
I0817 16:26:33.393797 17350 net.cpp:100] Creating Layer L3_b1_concat0_L3_b1_concat0_0_split
I0817 16:26:33.393803 17350 net.cpp:434] L3_b1_concat0_L3_b1_concat0_0_split <- L3_b1_concat0
I0817 16:26:33.393810 17350 net.cpp:408] L3_b1_concat0_L3_b1_concat0_0_split -> L3_b1_concat0_L3_b1_concat0_0_split_0
I0817 16:26:33.393821 17350 net.cpp:408] L3_b1_concat0_L3_b1_concat0_0_split -> L3_b1_concat0_L3_b1_concat0_0_split_1
I0817 16:26:33.393870 17350 net.cpp:150] Setting up L3_b1_concat0_L3_b1_concat0_0_split
I0817 16:26:33.393882 17350 net.cpp:157] Top shape: 125 64 8 8 (512000)
I0817 16:26:33.393896 17350 net.cpp:157] Top shape: 125 64 8 8 (512000)
I0817 16:26:33.393901 17350 net.cpp:165] Memory required for data: 463361500
I0817 16:26:33.393906 17350 layer_factory.hpp:77] Creating layer L3_b2_cbr1_conv
I0817 16:26:33.393920 17350 net.cpp:100] Creating Layer L3_b2_cbr1_conv
I0817 16:26:33.393926 17350 net.cpp:434] L3_b2_cbr1_conv <- L3_b1_concat0_L3_b1_concat0_0_split_0
I0817 16:26:33.393935 17350 net.cpp:408] L3_b2_cbr1_conv -> L3_b2_cbr1_conv_top
I0817 16:26:33.395911 17350 net.cpp:150] Setting up L3_b2_cbr1_conv
I0817 16:26:33.395928 17350 net.cpp:157] Top shape: 125 64 8 8 (512000)
I0817 16:26:33.395933 17350 net.cpp:165] Memory required for data: 465409500
I0817 16:26:33.395943 17350 layer_factory.hpp:77] Creating layer L3_b2_cbr1_bn
I0817 16:26:33.395953 17350 net.cpp:100] Creating Layer L3_b2_cbr1_bn
I0817 16:26:33.395959 17350 net.cpp:434] L3_b2_cbr1_bn <- L3_b2_cbr1_conv_top
I0817 16:26:33.395972 17350 net.cpp:408] L3_b2_cbr1_bn -> L3_b2_cbr1_bn_top
I0817 16:26:33.396229 17350 net.cpp:150] Setting up L3_b2_cbr1_bn
I0817 16:26:33.396242 17350 net.cpp:157] Top shape: 125 64 8 8 (512000)
I0817 16:26:33.396247 17350 net.cpp:165] Memory required for data: 467457500
I0817 16:26:33.396257 17350 layer_factory.hpp:77] Creating layer L3_b2_cbr1_scale
I0817 16:26:33.396266 17350 net.cpp:100] Creating Layer L3_b2_cbr1_scale
I0817 16:26:33.396272 17350 net.cpp:434] L3_b2_cbr1_scale <- L3_b2_cbr1_bn_top
I0817 16:26:33.396283 17350 net.cpp:395] L3_b2_cbr1_scale -> L3_b2_cbr1_bn_top (in-place)
I0817 16:26:33.396338 17350 layer_factory.hpp:77] Creating layer L3_b2_cbr1_scale
I0817 16:26:33.396487 17350 net.cpp:150] Setting up L3_b2_cbr1_scale
I0817 16:26:33.396500 17350 net.cpp:157] Top shape: 125 64 8 8 (512000)
I0817 16:26:33.396505 17350 net.cpp:165] Memory required for data: 469505500
I0817 16:26:33.396514 17350 layer_factory.hpp:77] Creating layer L3_b2_cbr1_relu
I0817 16:26:33.396525 17350 net.cpp:100] Creating Layer L3_b2_cbr1_relu
I0817 16:26:33.396531 17350 net.cpp:434] L3_b2_cbr1_relu <- L3_b2_cbr1_bn_top
I0817 16:26:33.396538 17350 net.cpp:395] L3_b2_cbr1_relu -> L3_b2_cbr1_bn_top (in-place)
I0817 16:26:33.396548 17350 net.cpp:150] Setting up L3_b2_cbr1_relu
I0817 16:26:33.396555 17350 net.cpp:157] Top shape: 125 64 8 8 (512000)
I0817 16:26:33.396559 17350 net.cpp:165] Memory required for data: 471553500
I0817 16:26:33.396564 17350 layer_factory.hpp:77] Creating layer L3_b2_cbr2_conv
I0817 16:26:33.396577 17350 net.cpp:100] Creating Layer L3_b2_cbr2_conv
I0817 16:26:33.396584 17350 net.cpp:434] L3_b2_cbr2_conv <- L3_b2_cbr1_bn_top
I0817 16:26:33.396595 17350 net.cpp:408] L3_b2_cbr2_conv -> L3_b2_cbr2_conv_top
I0817 16:26:33.397598 17350 net.cpp:150] Setting up L3_b2_cbr2_conv
I0817 16:26:33.397611 17350 net.cpp:157] Top shape: 125 64 8 8 (512000)
I0817 16:26:33.397616 17350 net.cpp:165] Memory required for data: 473601500
I0817 16:26:33.397626 17350 layer_factory.hpp:77] Creating layer L3_b2_cbr2_bn
I0817 16:26:33.397635 17350 net.cpp:100] Creating Layer L3_b2_cbr2_bn
I0817 16:26:33.397641 17350 net.cpp:434] L3_b2_cbr2_bn <- L3_b2_cbr2_conv_top
I0817 16:26:33.397652 17350 net.cpp:408] L3_b2_cbr2_bn -> L3_b2_cbr2_bn_top
I0817 16:26:33.397908 17350 net.cpp:150] Setting up L3_b2_cbr2_bn
I0817 16:26:33.397924 17350 net.cpp:157] Top shape: 125 64 8 8 (512000)
I0817 16:26:33.397929 17350 net.cpp:165] Memory required for data: 475649500
I0817 16:26:33.397940 17350 layer_factory.hpp:77] Creating layer L3_b2_cbr2_scale
I0817 16:26:33.397948 17350 net.cpp:100] Creating Layer L3_b2_cbr2_scale
I0817 16:26:33.397954 17350 net.cpp:434] L3_b2_cbr2_scale <- L3_b2_cbr2_bn_top
I0817 16:26:33.397963 17350 net.cpp:395] L3_b2_cbr2_scale -> L3_b2_cbr2_bn_top (in-place)
I0817 16:26:33.398015 17350 layer_factory.hpp:77] Creating layer L3_b2_cbr2_scale
I0817 16:26:33.398162 17350 net.cpp:150] Setting up L3_b2_cbr2_scale
I0817 16:26:33.398175 17350 net.cpp:157] Top shape: 125 64 8 8 (512000)
I0817 16:26:33.398180 17350 net.cpp:165] Memory required for data: 477697500
I0817 16:26:33.398200 17350 layer_factory.hpp:77] Creating layer L3_b2_sum_eltwise
I0817 16:26:33.398211 17350 net.cpp:100] Creating Layer L3_b2_sum_eltwise
I0817 16:26:33.398217 17350 net.cpp:434] L3_b2_sum_eltwise <- L3_b2_cbr2_bn_top
I0817 16:26:33.398224 17350 net.cpp:434] L3_b2_sum_eltwise <- L3_b1_concat0_L3_b1_concat0_0_split_1
I0817 16:26:33.398231 17350 net.cpp:408] L3_b2_sum_eltwise -> L3_b2_sum_eltwise_top
I0817 16:26:33.398267 17350 net.cpp:150] Setting up L3_b2_sum_eltwise
I0817 16:26:33.398277 17350 net.cpp:157] Top shape: 125 64 8 8 (512000)
I0817 16:26:33.398282 17350 net.cpp:165] Memory required for data: 479745500
I0817 16:26:33.398286 17350 layer_factory.hpp:77] Creating layer L3_b2_relu
I0817 16:26:33.398293 17350 net.cpp:100] Creating Layer L3_b2_relu
I0817 16:26:33.398299 17350 net.cpp:434] L3_b2_relu <- L3_b2_sum_eltwise_top
I0817 16:26:33.398306 17350 net.cpp:395] L3_b2_relu -> L3_b2_sum_eltwise_top (in-place)
I0817 16:26:33.398315 17350 net.cpp:150] Setting up L3_b2_relu
I0817 16:26:33.398322 17350 net.cpp:157] Top shape: 125 64 8 8 (512000)
I0817 16:26:33.398326 17350 net.cpp:165] Memory required for data: 481793500
I0817 16:26:33.398331 17350 layer_factory.hpp:77] Creating layer L3_b2_sum_eltwise_top_L3_b2_relu_0_split
I0817 16:26:33.398339 17350 net.cpp:100] Creating Layer L3_b2_sum_eltwise_top_L3_b2_relu_0_split
I0817 16:26:33.398344 17350 net.cpp:434] L3_b2_sum_eltwise_top_L3_b2_relu_0_split <- L3_b2_sum_eltwise_top
I0817 16:26:33.398355 17350 net.cpp:408] L3_b2_sum_eltwise_top_L3_b2_relu_0_split -> L3_b2_sum_eltwise_top_L3_b2_relu_0_split_0
I0817 16:26:33.398365 17350 net.cpp:408] L3_b2_sum_eltwise_top_L3_b2_relu_0_split -> L3_b2_sum_eltwise_top_L3_b2_relu_0_split_1
I0817 16:26:33.398407 17350 net.cpp:150] Setting up L3_b2_sum_eltwise_top_L3_b2_relu_0_split
I0817 16:26:33.398418 17350 net.cpp:157] Top shape: 125 64 8 8 (512000)
I0817 16:26:33.398424 17350 net.cpp:157] Top shape: 125 64 8 8 (512000)
I0817 16:26:33.398429 17350 net.cpp:165] Memory required for data: 485889500
I0817 16:26:33.398435 17350 layer_factory.hpp:77] Creating layer L3_b3_cbr1_conv
I0817 16:26:33.398449 17350 net.cpp:100] Creating Layer L3_b3_cbr1_conv
I0817 16:26:33.398455 17350 net.cpp:434] L3_b3_cbr1_conv <- L3_b2_sum_eltwise_top_L3_b2_relu_0_split_0
I0817 16:26:33.398464 17350 net.cpp:408] L3_b3_cbr1_conv -> L3_b3_cbr1_conv_top
I0817 16:26:33.399472 17350 net.cpp:150] Setting up L3_b3_cbr1_conv
I0817 16:26:33.399488 17350 net.cpp:157] Top shape: 125 64 8 8 (512000)
I0817 16:26:33.399493 17350 net.cpp:165] Memory required for data: 487937500
I0817 16:26:33.399503 17350 layer_factory.hpp:77] Creating layer L3_b3_cbr1_bn
I0817 16:26:33.399515 17350 net.cpp:100] Creating Layer L3_b3_cbr1_bn
I0817 16:26:33.399521 17350 net.cpp:434] L3_b3_cbr1_bn <- L3_b3_cbr1_conv_top
I0817 16:26:33.399529 17350 net.cpp:408] L3_b3_cbr1_bn -> L3_b3_cbr1_bn_top
I0817 16:26:33.399785 17350 net.cpp:150] Setting up L3_b3_cbr1_bn
I0817 16:26:33.399799 17350 net.cpp:157] Top shape: 125 64 8 8 (512000)
I0817 16:26:33.399804 17350 net.cpp:165] Memory required for data: 489985500
I0817 16:26:33.399814 17350 layer_factory.hpp:77] Creating layer L3_b3_cbr1_scale
I0817 16:26:33.399827 17350 net.cpp:100] Creating Layer L3_b3_cbr1_scale
I0817 16:26:33.399833 17350 net.cpp:434] L3_b3_cbr1_scale <- L3_b3_cbr1_bn_top
I0817 16:26:33.399842 17350 net.cpp:395] L3_b3_cbr1_scale -> L3_b3_cbr1_bn_top (in-place)
I0817 16:26:33.399899 17350 layer_factory.hpp:77] Creating layer L3_b3_cbr1_scale
I0817 16:26:33.400045 17350 net.cpp:150] Setting up L3_b3_cbr1_scale
I0817 16:26:33.400058 17350 net.cpp:157] Top shape: 125 64 8 8 (512000)
I0817 16:26:33.400063 17350 net.cpp:165] Memory required for data: 492033500
I0817 16:26:33.400072 17350 layer_factory.hpp:77] Creating layer L3_b3_cbr1_relu
I0817 16:26:33.400082 17350 net.cpp:100] Creating Layer L3_b3_cbr1_relu
I0817 16:26:33.400089 17350 net.cpp:434] L3_b3_cbr1_relu <- L3_b3_cbr1_bn_top
I0817 16:26:33.400095 17350 net.cpp:395] L3_b3_cbr1_relu -> L3_b3_cbr1_bn_top (in-place)
I0817 16:26:33.400104 17350 net.cpp:150] Setting up L3_b3_cbr1_relu
I0817 16:26:33.400118 17350 net.cpp:157] Top shape: 125 64 8 8 (512000)
I0817 16:26:33.400123 17350 net.cpp:165] Memory required for data: 494081500
I0817 16:26:33.400128 17350 layer_factory.hpp:77] Creating layer L3_b3_cbr2_conv
I0817 16:26:33.400142 17350 net.cpp:100] Creating Layer L3_b3_cbr2_conv
I0817 16:26:33.400148 17350 net.cpp:434] L3_b3_cbr2_conv <- L3_b3_cbr1_bn_top
I0817 16:26:33.400158 17350 net.cpp:408] L3_b3_cbr2_conv -> L3_b3_cbr2_conv_top
I0817 16:26:33.401165 17350 net.cpp:150] Setting up L3_b3_cbr2_conv
I0817 16:26:33.401178 17350 net.cpp:157] Top shape: 125 64 8 8 (512000)
I0817 16:26:33.401183 17350 net.cpp:165] Memory required for data: 496129500
I0817 16:26:33.401193 17350 layer_factory.hpp:77] Creating layer L3_b3_cbr2_bn
I0817 16:26:33.401202 17350 net.cpp:100] Creating Layer L3_b3_cbr2_bn
I0817 16:26:33.401208 17350 net.cpp:434] L3_b3_cbr2_bn <- L3_b3_cbr2_conv_top
I0817 16:26:33.401222 17350 net.cpp:408] L3_b3_cbr2_bn -> L3_b3_cbr2_bn_top
I0817 16:26:33.401474 17350 net.cpp:150] Setting up L3_b3_cbr2_bn
I0817 16:26:33.401490 17350 net.cpp:157] Top shape: 125 64 8 8 (512000)
I0817 16:26:33.401495 17350 net.cpp:165] Memory required for data: 498177500
I0817 16:26:33.401527 17350 layer_factory.hpp:77] Creating layer L3_b3_cbr2_scale
I0817 16:26:33.401538 17350 net.cpp:100] Creating Layer L3_b3_cbr2_scale
I0817 16:26:33.401545 17350 net.cpp:434] L3_b3_cbr2_scale <- L3_b3_cbr2_bn_top
I0817 16:26:33.401552 17350 net.cpp:395] L3_b3_cbr2_scale -> L3_b3_cbr2_bn_top (in-place)
I0817 16:26:33.401610 17350 layer_factory.hpp:77] Creating layer L3_b3_cbr2_scale
I0817 16:26:33.401759 17350 net.cpp:150] Setting up L3_b3_cbr2_scale
I0817 16:26:33.401772 17350 net.cpp:157] Top shape: 125 64 8 8 (512000)
I0817 16:26:33.401777 17350 net.cpp:165] Memory required for data: 500225500
I0817 16:26:33.401792 17350 layer_factory.hpp:77] Creating layer L3_b3_sum_eltwise
I0817 16:26:33.401801 17350 net.cpp:100] Creating Layer L3_b3_sum_eltwise
I0817 16:26:33.401808 17350 net.cpp:434] L3_b3_sum_eltwise <- L3_b3_cbr2_bn_top
I0817 16:26:33.401813 17350 net.cpp:434] L3_b3_sum_eltwise <- L3_b2_sum_eltwise_top_L3_b2_relu_0_split_1
I0817 16:26:33.401821 17350 net.cpp:408] L3_b3_sum_eltwise -> L3_b3_sum_eltwise_top
I0817 16:26:33.401854 17350 net.cpp:150] Setting up L3_b3_sum_eltwise
I0817 16:26:33.401862 17350 net.cpp:157] Top shape: 125 64 8 8 (512000)
I0817 16:26:33.401866 17350 net.cpp:165] Memory required for data: 502273500
I0817 16:26:33.401871 17350 layer_factory.hpp:77] Creating layer L3_b3_relu
I0817 16:26:33.401882 17350 net.cpp:100] Creating Layer L3_b3_relu
I0817 16:26:33.401888 17350 net.cpp:434] L3_b3_relu <- L3_b3_sum_eltwise_top
I0817 16:26:33.401895 17350 net.cpp:395] L3_b3_relu -> L3_b3_sum_eltwise_top (in-place)
I0817 16:26:33.401904 17350 net.cpp:150] Setting up L3_b3_relu
I0817 16:26:33.401911 17350 net.cpp:157] Top shape: 125 64 8 8 (512000)
I0817 16:26:33.401916 17350 net.cpp:165] Memory required for data: 504321500
I0817 16:26:33.401921 17350 layer_factory.hpp:77] Creating layer post_pool
I0817 16:26:33.401932 17350 net.cpp:100] Creating Layer post_pool
I0817 16:26:33.401937 17350 net.cpp:434] post_pool <- L3_b3_sum_eltwise_top
I0817 16:26:33.401944 17350 net.cpp:408] post_pool -> post_pool
I0817 16:26:33.401979 17350 net.cpp:150] Setting up post_pool
I0817 16:26:33.401989 17350 net.cpp:157] Top shape: 125 64 1 1 (8000)
I0817 16:26:33.401993 17350 net.cpp:165] Memory required for data: 504353500
I0817 16:26:33.401999 17350 layer_factory.hpp:77] Creating layer post_FC
I0817 16:26:33.402076 17350 net.cpp:100] Creating Layer post_FC
I0817 16:26:33.402088 17350 net.cpp:434] post_FC <- post_pool
I0817 16:26:33.402097 17350 net.cpp:408] post_FC -> post_FC_top
I0817 16:26:33.402323 17350 net.cpp:150] Setting up post_FC
I0817 16:26:33.402339 17350 net.cpp:157] Top shape: 125 10 (1250)
I0817 16:26:33.402344 17350 net.cpp:165] Memory required for data: 504358500
I0817 16:26:33.402354 17350 layer_factory.hpp:77] Creating layer post_FC_top_post_FC_0_split
I0817 16:26:33.402362 17350 net.cpp:100] Creating Layer post_FC_top_post_FC_0_split
I0817 16:26:33.402375 17350 net.cpp:434] post_FC_top_post_FC_0_split <- post_FC_top
I0817 16:26:33.402386 17350 net.cpp:408] post_FC_top_post_FC_0_split -> post_FC_top_post_FC_0_split_0
I0817 16:26:33.402397 17350 net.cpp:408] post_FC_top_post_FC_0_split -> post_FC_top_post_FC_0_split_1
I0817 16:26:33.402442 17350 net.cpp:150] Setting up post_FC_top_post_FC_0_split
I0817 16:26:33.402456 17350 net.cpp:157] Top shape: 125 10 (1250)
I0817 16:26:33.402463 17350 net.cpp:157] Top shape: 125 10 (1250)
I0817 16:26:33.402468 17350 net.cpp:165] Memory required for data: 504368500
I0817 16:26:33.402473 17350 layer_factory.hpp:77] Creating layer accuracy
I0817 16:26:33.402516 17350 net.cpp:100] Creating Layer accuracy
I0817 16:26:33.402526 17350 net.cpp:434] accuracy <- post_FC_top_post_FC_0_split_0
I0817 16:26:33.402534 17350 net.cpp:434] accuracy <- label_dataLayer_1_split_0
I0817 16:26:33.402542 17350 net.cpp:408] accuracy -> accuracy
…
