…
I0817 16:02:21.523735 17829 net.cpp:322] The NetState phase (0) differed from the phase (1) specified by a rule in layer L3_b9_cbr2_bn
I0817 16:02:21.525491 17829 net.cpp:58] Initializing net from parameters: 
name: "Cifar-Resnet"
state {
  phase: TRAIN
  level: 0
  stage: ""
}
layer {
  name: "dataLayer"
  type: "Data"
  top: "data_top"
  top: "label"
  include {
    phase: TRAIN
  }
  transform_param {
    mirror: true
    crop_size: 32
    mean_file: "examples/cifar10/mean.binaryproto"
  }
  data_param {
    source: "examples/cifar10/cifar10_train_lmdb"
    batch_size: 125
    backend: LMDB
  }
  image_data_param {
    shuffle: true
  }
}
layer {
  name: "pre_conv"
  type: "Convolution"
  bottom: "data_top"
  top: "pre_conv_top"
  param {
    lr_mult: 1
    decay_mult: 1
  }
  param {
    lr_mult: 2
    decay_mult: 0
  }
  convolution_param {
    num_output: 16
    pad: 1
    kernel_size: 3
    stride: 1
    weight_filler {
      type: "msra"
    }
    bias_filler {
      type: "constant"
    }
  }
}
layer {
  name: "pre_bn"
  type: "BatchNorm"
  bottom: "pre_conv_top"
  top: "pre_bn_top"
  include {
    phase: TRAIN
  }
  batch_norm_param {
    use_global_stats: false
    moving_average_fraction: 0.999
  }
}
layer {
  name: "pre_scale"
  type: "Scale"
  bottom: "pre_bn_top"
  top: "pre_bn_top"
  scale_param {
    bias_term: true
  }
}
layer {
  name: "pre_relu"
  type: "ReLU"
  bottom: "pre_bn_top"
  top: "pre_bn_top"
}
layer {
  name: "L1_b1_cbr1_conv"
  type: "Convolution"
  bottom: "pre_bn_top"
  top: "L1_b1_cbr1_conv_top"
  param {
    lr_mult: 1
    decay_mult: 1
  }
  param {
    lr_mult: 2
    decay_mult: 0
  }
  convolution_param {
    num_output: 16
    pad: 1
    kernel_size: 3
    stride: 1
    weight_filler {
      type: "msra"
    }
    bias_filler {
      type: "constant"
    }
  }
}
layer {
  name: "L1_b1_cbr1_bn"
  type: "BatchNorm"
  bottom: "L1_b1_cbr1_conv_top"
  top: "L1_b1_cbr1_bn_top"
  include {
    phase: TRAIN
  }
  batch_norm_param {
    use_global_stats: false
    moving_average_fraction: 0.999
  }
}
layer {
  name: "L1_b1_cbr1_scale"
  type: "Scale"
  bottom: "L1_b1_cbr1_bn_top"
  top: "L1_b1_cbr1_bn_top"
  scale_param {
    bias_term: true
  }
}
layer {
  name: "L1_b1_cbr1_relu"
  type: "ReLU"
  bottom: "L1_b1_cbr1_bn_top"
  top: "L1_b1_cbr1_bn_top"
}
layer {
  name: "L1_b1_cbr2_conv"
  type: "Convolution"
  bottom: "L1_b1_cbr1_bn_top"
  top: "L1_b1_cbr2_conv_top"
  param {
    lr_mult: 1
    decay_mult: 1
  }
  param {
    lr_mult: 2
    decay_mult: 0
  }
  convolution_param {
    num_output: 16
    pad: 1
    kernel_size: 3
    stride: 1
    weight_filler {
      type: "msra"
    }
    bias_filler {
      type: "constant"
    }
  }
}
layer {
  name: "L1_b1_cbr2_bn"
  type: "BatchNorm"
  bottom: "L1_b1_cbr2_conv_top"
  top: "L1_b1_cbr2_bn_top"
  include {
    phase: TRAIN
  }
  batch_norm_param {
    use_global_stats: false
    moving_average_fraction: 0.999
  }
}
layer {
  name: "L1_b1_cbr2_scale"
  type: "Scale"
  bottom: "L1_b1_cbr2_bn_top"
  top: "L1_b1_cbr2_bn_top"
  scale_param {
    bias_term: true
  }
}
layer {
  name: "L1_b1_sum_eltwise"
  type: "Eltwise"
  bottom: "L1_b1_cbr2_bn_top"
  bottom: "pre_bn_top"
  top: "L1_b1_sum_eltwise_top"
  eltwise_param {
    operation: SUM
  }
}
layer {
  name: "L1_b1_relu"
  type: "ReLU"
  bottom: "L1_b1_sum_eltwise_top"
  top: "L1_b1_sum_eltwise_top"
}
layer {
  name: "L1_b2_cbr1_conv"
  type: "Convolution"
  bottom: "L1_b1_sum_eltwise_top"
  top: "L1_b2_cbr1_conv_top"
  param {
    lr_mult: 1
    decay_mult: 1
  }
  param {
    lr_mult: 2
    decay_mult: 0
  }
  convolution_param {
    num_output: 16
    pad: 1
    kernel_size: 3
    stride: 1
    weight_filler {
      type: "msra"
    }
    bias_filler {
      type: "constant"
    }
  }
}
layer {
  name: "L1_b2_cbr1_bn"
  type: "BatchNorm"
  bottom: "L1_b2_cbr1_conv_top"
  top: "L1_b2_cbr1_bn_top"
  include {
    phase: TRAIN
  }
  batch_norm_param {
    use_global_stats: false
    moving_average_fraction: 0.999
  }
}
layer {
  name: "L1_b2_cbr1_scale"
  type: "Scale"
  bottom: "L1_b2_cbr1_bn_top"
  top: "L1_b2_cbr1_bn_top"
  scale_param {
    bias_term: true
  }
}
layer {
  name: "L1_b2_cbr1_relu"
  type: "ReLU"
  bottom: "L1_b2_cbr1_bn_top"
  top: "L1_b2_cbr1_bn_top"
}
layer {
  name: "L1_b2_cbr2_conv"
  type: "Convolution"
  bottom: "L1_b2_cbr1_bn_top"
  top: "L1_b2_cbr2_conv_top"
  param {
    lr_mult: 1
    decay_mult: 1
  }
  param {
    lr_mult: 2
    decay_mult: 0
  }
  convolution_param {
    num_output: 16
    pad: 1
    kernel_size: 3
    stride: 1
    weight_filler {
      type: "msra"
    }
    bias_filler {
      type: "constant"
    }
  }
}
layer {
  name: "L1_b2_cbr2_bn"
  type: "BatchNorm"
  bottom: "L1_b2_cbr2_conv_top"
  top: "L1_b2_cbr2_bn_top"
  include {
    phase: TRAIN
  }
  batch_norm_param {
    use_global_stats: false
    moving_average_fraction: 0.999
  }
}
layer {
  name: "L1_b2_cbr2_scale"
  type: "Scale"
  bottom: "L1_b2_cbr2_bn_top"
  top: "L1_b2_cbr2_bn_top"
  scale_param {
    bias_term: true
  }
}
layer {
  name: "L1_b2_sum_eltwise"
  type: "Eltwise"
  bottom: "L1_b2_cbr2_bn_top"
  bottom: "L1_b1_sum_eltwise_top"
  top: "L1_b2_sum_eltwise_top"
  eltwise_param {
    operation: SUM
  }
}
layer {
  name: "L1_b2_relu"
  type: "ReLU"
  bottom: "L1_b2_sum_eltwise_top"
  top: "L1_b2_sum_eltwise_top"
}
layer {
  name: "L1_b3_cbr1_conv"
  type: "Convolution"
  bottom: "L1_b2_sum_eltwise_top"
  top: "L1_b3_cbr1_conv_top"
  param {
    lr_mult: 1
    decay_mult: 1
  }
  param {
    lr_mult: 2
    decay_mult: 0
  }
  convolution_param {
    num_output: 16
    pad: 1
    kernel_size: 3
    stride: 1
    weight_filler {
      type: "msra"
    }
    bias_filler {
      type: "constant"
    }
  }
}
layer {
  name: "L1_b3_cbr1_bn"
  type: "BatchNorm"
  bottom: "L1_b3_cbr1_conv_top"
  top: "L1_b3_cbr1_bn_top"
  include {
    phase: TRAIN
  }
  batch_norm_param {
    use_global_stats: false
    moving_average_fraction: 0.999
  }
}
layer {
  name: "L1_b3_cbr1_scale"
  type: "Scale"
  bottom: "L1_b3_cbr1_bn_top"
  top: "L1_b3_cbr1_bn_top"
  scale_param {
    bias_term: true
  }
}
layer {
  name: "L1_b3_cbr1_relu"
  type: "ReLU"
  bottom: "L1_b3_cbr1_bn_top"
  top: "L1_b3_cbr1_bn_top"
}
layer {
  name: "L1_b3_cbr2_conv"
  type: "Convolution"
  bottom: "L1_b3_cbr1_bn_top"
  top: "L1_b3_cbr2_conv_top"
  param {
    lr_mult: 1
    decay_mult: 1
  }
  param {
    lr_mult: 2
    decay_mult: 0
  }
  convolution_param {
    num_output: 16
    pad: 1
    kernel_size: 3
    stride: 1
    weight_filler {
      type: "msra"
    }
    bias_filler {
      type: "constant"
    }
  }
}
layer {
  name: "L1_b3_cbr2_bn"
  type: "BatchNorm"
  bottom: "L1_b3_cbr2_conv_top"
  top: "L1_b3_cbr2_bn_top"
  include {
    phase: TRAIN
  }
  batch_norm_param {
    use_global_stats: false
    moving_average_fraction: 0.999
  }
}
layer {
  name: "L1_b3_cbr2_scale"
  type: "Scale"
  bottom: "L1_b3_cbr2_bn_top"
  top: "L1_b3_cbr2_bn_top"
  scale_param {
    bias_term: true
  }
}
layer {
  name: "L1_b3_sum_eltwise"
  type: "Eltwise"
  bottom: "L1_b3_cbr2_bn_top"
  bottom: "L1_b2_sum_eltwise_top"
  top: "L1_b3_sum_eltwise_top"
  eltwise_param {
    operation: SUM
  }
}
layer {
  name: "L1_b3_relu"
  type: "ReLU"
  bottom: "L1_b3_sum_eltwise_top"
  top: "L1_b3_sum_eltwise_top"
}
layer {
  name: "L1_b4_cbr1_conv"
  type: "Convolution"
  bottom: "L1_b3_sum_eltwise_top"
  top: "L1_b4_cbr1_conv_top"
  param {
    lr_mult: 1
    decay_mult: 1
  }
  param {
    lr_mult: 2
    decay_mult: 0
  }
  convolution_param {
    num_output: 16
    pad: 1
    kernel_size: 3
    stride: 1
    weight_filler {
      type: "msra"
    }
    bias_filler {
      type: "constant"
    }
  }
}
layer {
  name: "L1_b4_cbr1_bn"
  type: "BatchNorm"
  bottom: "L1_b4_cbr1_conv_top"
  top: "L1_b4_cbr1_bn_top"
  include {
    phase: TRAIN
  }
  batch_norm_param {
    use_global_stats: false
    moving_average_fraction: 0.999
  }
}
layer {
  name: "L1_b4_cbr1_scale"
  type: "Scale"
  bottom: "L1_b4_cbr1_bn_top"
  top: "L1_b4_cbr1_bn_top"
  scale_param {
    bias_term: true
  }
}
layer {
  name: "L1_b4_cbr1_relu"
  type: "ReLU"
  bottom: "L1_b4_cbr1_bn_top"
  top: "L1_b4_cbr1_bn_top"
}
layer {
  name: "L1_b4_cbr2_conv"
  type: "Convolution"
  bottom: "L1_b4_cbr1_bn_top"
  top: "L1_b4_cbr2_conv_top"
  param {
    lr_mult: 1
    decay_mult: 1
  }
  param {
    lr_mult: 2
    decay_mult: 0
  }
  convolution_param {
    num_output: 16
    pad: 1
    kernel_size: 3
    stride: 1
    weight_filler {
      type: "msra"
    }
    bias_filler {
      type: "constant"
    }
  }
}
layer {
  name: "L1_b4_cbr2_bn"
  type: "BatchNorm"
  bottom: "L1_b4_cbr2_conv_top"
  top: "L1_b4_cbr2_bn_top"
  include {
    phase: TRAIN
  }
  batch_norm_param {
    use_global_stats: false
    moving_average_fraction: 0.999
  }
}
layer {
  name: "L1_b4_cbr2_scale"
  type: "Scale"
  bottom: "L1_b4_cbr2_bn_top"
  top: "L1_b4_cbr2_bn_top"
  scale_param {
    bias_term: true
  }
}
layer {
  name: "L1_b4_sum_eltwise"
  type: "Eltwise"
  bottom: "L1_b4_cbr2_bn_top"
  bottom: "L1_b3_sum_eltwise_top"
  top: "L1_b4_sum_eltwise_top"
  eltwise_param {
    operation: SUM
  }
}
layer {
  name: "L1_b4_relu"
  type: "ReLU"
  bottom: "L1_b4_sum_eltwise_top"
  top: "L1_b4_sum_eltwise_top"
}
layer {
  name: "L1_b5_cbr1_conv"
  type: "Convolution"
  bottom: "L1_b4_sum_eltwise_top"
  top: "L1_b5_cbr1_conv_top"
  param {
    lr_mult: 1
    decay_mult: 1
  }
  param {
    lr_mult: 2
    decay_mult: 0
  }
  convolution_param {
    num_output: 16
    pad: 1
    kernel_size: 3
    stride: 1
    weight_filler {
      type: "msra"
    }
    bias_filler {
      type: "constant"
    }
  }
}
layer {
  name: "L1_b5_cbr1_bn"
  type: "BatchNorm"
  bottom: "L1_b5_cbr1_conv_top"
  top: "L1_b5_cbr1_bn_top"
  include {
    phase: TRAIN
  }
  batch_norm_param {
    use_global_stats: false
    moving_average_fraction: 0.999
  }
}
layer {
  name: "L1_b5_cbr1_scale"
  type: "Scale"
  bottom: "L1_b5_cbr1_bn_top"
  top: "L1_b5_cbr1_bn_top"
  scale_param {
    bias_term: true
  }
}
layer {
  name: "L1_b5_cbr1_relu"
  type: "ReLU"
  bottom: "L1_b5_cbr1_bn_top"
  top: "L1_b5_cbr1_bn_top"
}
layer {
  name: "L1_b5_cbr2_conv"
  type: "Convolution"
  bottom: "L1_b5_cbr1_bn_top"
  top: "L1_b5_cbr2_conv_top"
  param {
    lr_mult: 1
    decay_mult: 1
  }
  param {
    lr_mult: 2
    decay_mult: 0
  }
  convolution_param {
    num_output: 16
    pad: 1
    kernel_size: 3
    stride: 1
    weight_filler {
      type: "msra"
    }
    bias_filler {
      type: "constant"
    }
  }
}
layer {
  name: "L1_b5_cbr2_bn"
  type: "BatchNorm"
  bottom: "L1_b5_cbr2_conv_top"
  top: "L1_b5_cbr2_bn_top"
  include {
    phase: TRAIN
  }
  batch_norm_param {
    use_global_stats: false
    moving_average_fraction: 0.999
  }
}
layer {
  name: "L1_b5_cbr2_scale"
  type: "Scale"
  bottom: "L1_b5_cbr2_bn_top"
  top: "L1_b5_cbr2_bn_top"
  scale_param {
    bias_term: true
  }
}
layer {
  name: "L1_b5_sum_eltwise"
  type: "Eltwise"
  bottom: "L1_b5_cbr2_bn_top"
  bottom: "L1_b4_sum_eltwise_top"
  top: "L1_b5_sum_eltwise_top"
  eltwise_param {
    operation: SUM
  }
}
layer {
  name: "L1_b5_relu"
  type: "ReLU"
  bottom: "L1_b5_sum_eltwise_top"
  top: "L1_b5_sum_eltwise_top"
}
layer {
  name: "L1_b6_cbr1_conv"
  type: "Convolution"
  bottom: "L1_b5_sum_eltwise_top"
  top: "L1_b6_cbr1_conv_top"
  param {
    lr_mult: 1
    decay_mult: 1
  }
  param {
    lr_mult: 2
    decay_mult: 0
  }
  convolution_param {
    num_output: 16
    pad: 1
    kernel_size: 3
    stride: 1
    weight_filler {
      type: "msra"
    }
    bias_filler {
      type: "constant"
    }
  }
}
layer {
  name: "L1_b6_cbr1_bn"
  type: "BatchNorm"
  bottom: "L1_b6_cbr1_conv_top"
  top: "L1_b6_cbr1_bn_top"
  include {
    phase: TRAIN
  }
  batch_norm_param {
    use_global_stats: false
    moving_average_fraction: 0.999
  }
}
layer {
  name: "L1_b6_cbr1_scale"
  type: "Scale"
  bottom: "L1_b6_cbr1_bn_top"
  top: "L1_b6_cbr1_bn_top"
  scale_param {
    bias_term: true
  }
}
layer {
  name: "L1_b6_cbr1_relu"
  type: "ReLU"
  bottom: "L1_b6_cbr1_bn_top"
  top: "L1_b6_cbr1_bn_top"
}
layer {
  name: "L1_b6_cbr2_conv"
  type: "Convolution"
  bottom: "L1_b6_cbr1_bn_top"
  top: "L1_b6_cbr2_conv_top"
  param {
    lr_mult: 1
    decay_mult: 1
  }
  param {
    lr_mult: 2
    decay_mult: 0
  }
  convolution_param {
    num_output: 16
    pad: 1
    kernel_size: 3
    stride: 1
    weight_filler {
      type: "msra"
    }
    bias_filler {
      type: "constant"
    }
  }
}
layer {
  name: "L1_b6_cbr2_bn"
  type: "BatchNorm"
  bottom: "L1_b6_cbr2_conv_top"
  top: "L1_b6_cbr2_bn_top"
  include {
    phase: TRAIN
  }
  batch_norm_param {
    use_global_stats: false
    moving_average_fraction: 0.999
  }
}
layer {
  name: "L1_b6_cbr2_scale"
  type: "Scale"
  bottom: "L1_b6_cbr2_bn_top"
  top: "L1_b6_cbr2_bn_top"
  scale_param {
    bias_term: true
  }
}
layer {
  name: "L1_b6_sum_eltwise"
  type: "Eltwise"
  bottom: "L1_b6_cbr2_bn_top"
  bottom: "L1_b5_sum_eltwise_top"
  top: "L1_b6_sum_eltwise_top"
  eltwise_param {
    operation: SUM
  }
}
layer {
  name: "L1_b6_relu"
  type: "ReLU"
  bottom: "L1_b6_sum_eltwise_top"
  top: "L1_b6_sum_eltwise_top"
}
layer {
  name: "L1_b7_cbr1_conv"
  type: "Convolution"
  bottom: "L1_b6_sum_eltwise_top"
  top: "L1_b7_cbr1_conv_top"
  param {
    lr_mult: 1
    decay_mult: 1
  }
  param {
    lr_mult: 2
    decay_mult: 0
  }
  convolution_param {
    num_output: 16
    pad: 1
    kernel_size: 3
    stride: 1
    weight_filler {
      type: "msra"
    }
    bias_filler {
      type: "constant"
    }
  }
}
layer {
  name: "L1_b7_cbr1_bn"
  type: "BatchNorm"
  bottom: "L1_b7_cbr1_conv_top"
  top: "L1_b7_cbr1_bn_top"
  include {
    phase: TRAIN
  }
  batch_norm_param {
    use_global_stats: false
    moving_average_fraction: 0.999
  }
}
layer {
  name: "L1_b7_cbr1_scale"
  type: "Scale"
  bottom: "L1_b7_cbr1_bn_top"
  top: "L1_b7_cbr1_bn_top"
  scale_param {
    bias_term: true
  }
}
layer {
  name: "L1_b7_cbr1_relu"
  type: "ReLU"
  bottom: "L1_b7_cbr1_bn_top"
  top: "L1_b7_cbr1_bn_top"
}
layer {
  name: "L1_b7_cbr2_conv"
  type: "Convolution"
  bottom: "L1_b7_cbr1_bn_top"
  top: "L1_b7_cbr2_conv_top"
  param {
    lr_mult: 1
    decay_mult: 1
  }
  param {
    lr_mult: 2
    decay_mult: 0
  }
  convolution_param {
    num_output: 16
    pad: 1
    kernel_size: 3
    stride: 1
    weight_filler {
      type: "msra"
    }
    bias_filler {
      type: "constant"
    }
  }
}
layer {
  name: "L1_b7_cbr2_bn"
  type: "BatchNorm"
  bottom: "L1_b7_cbr2_conv_top"
  top: "L1_b7_cbr2_bn_top"
  include {
    phase: TRAIN
  }
  batch_norm_param {
    use_global_stats: false
    moving_average_fraction: 0.999
  }
}
layer {
  name: "L1_b7_cbr2_scale"
  type: "Scale"
  bottom: "L1_b7_cbr2_bn_top"
  top: "L1_b7_cbr2_bn_top"
  scale_param {
    bias_term: true
  }
}
layer {
  name: "L1_b7_sum_eltwise"
  type: "Eltwise"
  bottom: "L1_b7_cbr2_bn_top"
  bottom: "L1_b6_sum_eltwise_top"
  top: "L1_b7_sum_eltwise_top"
  eltwise_param {
    operation: SUM
  }
}
layer {
  name: "L1_b7_relu"
  type: "ReLU"
  bottom: "L1_b7_sum_eltwise_top"
  top: "L1_b7_sum_eltwise_top"
}
layer {
  name: "L1_b8_cbr1_conv"
  type: "Convolution"
  bottom: "L1_b7_sum_eltwise_top"
  top: "L1_b8_cbr1_conv_top"
  param {
    lr_mult: 1
    decay_mult: 1
  }
  param {
    lr_mult: 2
    decay_mult: 0
  }
  convolution_param {
    num_output: 16
    pad: 1
    kernel_size: 3
    stride: 1
    weight_filler {
      type: "msra"
    }
    bias_filler {
      type: "constant"
    }
  }
}
layer {
  name: "L1_b8_cbr1_bn"
  type: "BatchNorm"
  bottom: "L1_b8_cbr1_conv_top"
  top: "L1_b8_cbr1_bn_top"
  include {
    phase: TRAIN
  }
  batch_norm_param {
    use_global_stats: false
    moving_average_fraction: 0.999
  }
}
layer {
  name: "L1_b8_cbr1_scale"
  type: "Scale"
  bottom: "L1_b8_cbr1_bn_top"
  top: "L1_b8_cbr1_bn_top"
  scale_param {
    bias_term: true
  }
}
layer {
  name: "L1_b8_cbr1_relu"
  type: "ReLU"
  bottom: "L1_b8_cbr1_bn_top"
  top: "L1_b8_cbr1_bn_top"
}
layer {
  name: "L1_b8_cbr2_conv"
  type: "Convolution"
  bottom: "L1_b8_cbr1_bn_top"
  top: "L1_b8_cbr2_conv_top"
  param {
    lr_mult: 1
    decay_mult: 1
  }
  param {
    lr_mult: 2
    decay_mult: 0
  }
  convolution_param {
    num_output: 16
    pad: 1
    kernel_size: 3
    stride: 1
    weight_filler {
      type: "msra"
    }
    bias_filler {
      type: "constant"
    }
  }
}
layer {
  name: "L1_b8_cbr2_bn"
  type: "BatchNorm"
  bottom: "L1_b8_cbr2_conv_top"
  top: "L1_b8_cbr2_bn_top"
  include {
    phase: TRAIN
  }
  batch_norm_param {
    use_global_stats: false
    moving_average_fraction: 0.999
  }
}
layer {
  name: "L1_b8_cbr2_scale"
  type: "Scale"
  bottom: "L1_b8_cbr2_bn_top"
  top: "L1_b8_cbr2_bn_top"
  scale_param {
    bias_term: true
  }
}
layer {
  name: "L1_b8_sum_eltwise"
  type: "Eltwise"
  bottom: "L1_b8_cbr2_bn_top"
  bottom: "L1_b7_sum_eltwise_top"
  top: "L1_b8_sum_eltwise_top"
  eltwise_param {
    operation: SUM
  }
}
layer {
  name: "L1_b8_relu"
  type: "ReLU"
  bottom: "L1_b8_sum_eltwise_top"
  top: "L1_b8_sum_eltwise_top"
}
layer {
  name: "L1_b9_cbr1_conv"
  type: "Convolution"
  bottom: "L1_b8_sum_eltwise_top"
  top: "L1_b9_cbr1_conv_top"
  param {
    lr_mult: 1
    decay_mult: 1
  }
  param {
    lr_mult: 2
    decay_mult: 0
  }
  convolution_param {
    num_output: 16
    pad: 1
    kernel_size: 3
    stride: 1
    weight_filler {
      type: "msra"
    }
    bias_filler {
      type: "constant"
    }
  }
}
layer {
  name: "L1_b9_cbr1_bn"
  type: "BatchNorm"
  bottom: "L1_b9_cbr1_conv_top"
  top: "L1_b9_cbr1_bn_top"
  include {
    phase: TRAIN
  }
  batch_norm_param {
    use_global_stats: false
    moving_average_fraction: 0.999
  }
}
layer {
  name: "L1_b9_cbr1_scale"
  type: "Scale"
  bottom: "L1_b9_cbr1_bn_top"
  top: "L1_b9_cbr1_bn_top"
  scale_param {
    bias_term: true
  }
}
layer {
  name: "L1_b9_cbr1_relu"
  type: "ReLU"
  bottom: "L1_b9_cbr1_bn_top"
  top: "L1_b9_cbr1_bn_top"
}
layer {
  name: "L1_b9_cbr2_conv"
  type: "Convolution"
  bottom: "L1_b9_cbr1_bn_top"
  top: "L1_b9_cbr2_conv_top"
  param {
    lr_mult: 1
    decay_mult: 1
  }
  param {
    lr_mult: 2
    decay_mult: 0
  }
  convolution_param {
    num_output: 16
    pad: 1
    kernel_size: 3
    stride: 1
    weight_filler {
      type: "msra"
    }
    bias_filler {
      type: "constant"
    }
  }
}
layer {
  name: "L1_b9_cbr2_bn"
  type: "BatchNorm"
  bottom: "L1_b9_cbr2_conv_top"
  top: "L1_b9_cbr2_bn_top"
  include {
    phase: TRAIN
  }
  batch_norm_param {
    use_global_stats: false
    moving_average_fraction: 0.999
  }
}
layer {
  name: "L1_b9_cbr2_scale"
  type: "Scale"
  bottom: "L1_b9_cbr2_bn_top"
  top: "L1_b9_cbr2_bn_top"
  scale_param {
    bias_term: true
  }
}
layer {
  name: "L1_b9_sum_eltwise"
  type: "Eltwise"
  bottom: "L1_b9_cbr2_bn_top"
  bottom: "L1_b8_sum_eltwise_top"
  top: "L1_b9_sum_eltwise_top"
  eltwise_param {
    operation: SUM
  }
}
layer {
  name: "L1_b9_relu"
  type: "ReLU"
  bottom: "L1_b9_sum_eltwise_top"
  top: "L1_b9_sum_eltwise_top"
}
layer {
  name: "L2_b1_cbr1_conv"
  type: "Convolution"
  bottom: "L1_b9_sum_eltwise_top"
  top: "L2_b1_cbr1_conv_top"
  param {
    lr_mult: 1
    decay_mult: 1
  }
  param {
    lr_mult: 2
    decay_mult: 0
  }
  convolution_param {
    num_output: 16
    pad: 1
    kernel_size: 3
    stride: 2
    weight_filler {
      type: "msra"
    }
    bias_filler {
      type: "constant"
    }
  }
}
layer {
  name: "L2_b1_cbr1_bn"
  type: "BatchNorm"
  bottom: "L2_b1_cbr1_conv_top"
  top: "L2_b1_cbr1_bn_top"
  include {
    phase: TRAIN
  }
  batch_norm_param {
    use_global_stats: false
    moving_average_fraction: 0.999
  }
}
layer {
  name: "L2_b1_cbr1_scale"
  type: "Scale"
  bottom: "L2_b1_cbr1_bn_top"
  top: "L2_b1_cbr1_bn_top"
  scale_param {
    bias_term: true
  }
}
layer {
  name: "L2_b1_cbr1_relu"
  type: "ReLU"
  bottom: "L2_b1_cbr1_bn_top"
  top: "L2_b1_cbr1_bn_top"
}
layer {
  name: "L2_b1_cbr2_conv"
  type: "Convolution"
  bottom: "L2_b1_cbr1_bn_top"
  top: "L2_b1_cbr2_conv_top"
  param {
    lr_mult: 1
    decay_mult: 1
  }
  param {
    lr_mult: 2
    decay_mult: 0
  }
  convolution_param {
    num_output: 16
    pad: 1
    kernel_size: 3
    stride: 1
    weight_filler {
      type: "msra"
    }
    bias_filler {
      type: "constant"
    }
  }
}
layer {
  name: "L2_b1_cbr2_bn"
  type: "BatchNorm"
  bottom: "L2_b1_cbr2_conv_top"
  top: "L2_b1_cbr2_bn_top"
  include {
    phase: TRAIN
  }
  batch_norm_param {
    use_global_stats: false
    moving_average_fraction: 0.999
  }
}
layer {
  name: "L2_b1_cbr2_scale"
  type: "Scale"
  bottom: "L2_b1_cbr2_bn_top"
  top: "L2_b1_cbr2_bn_top"
  scale_param {
    bias_term: true
  }
}
layer {
  name: "L2_b1_pool"
  type: "Pooling"
  bottom: "L1_b9_sum_eltwise_top"
  top: "L2_b1_pool"
  pooling_param {
    pool: AVE
    kernel_size: 3
    stride: 2
  }
}
layer {
  name: "L2_b1_sum_eltwise"
  type: "Eltwise"
  bottom: "L2_b1_cbr2_bn_top"
  bottom: "L2_b1_pool"
  top: "L2_b1_sum_eltwise_top"
  eltwise_param {
    operation: SUM
  }
}
layer {
  name: "L2_b1_relu"
  type: "ReLU"
  bottom: "L2_b1_sum_eltwise_top"
  top: "L2_b1_sum_eltwise_top"
}
layer {
  name: "L2_b1_zeros"
  type: "DummyData"
  top: "L2_b1_zeros"
  dummy_data_param {
    data_filler {
      type: "constant"
      value: 0
    }
    shape {
      dim: 125
      dim: 16
      dim: 16
      dim: 16
    }
  }
}
layer {
  name: "L2_b1_concat0"
  type: "Concat"
  bottom: "L2_b1_sum_eltwise_top"
  bottom: "L2_b1_zeros"
  top: "L2_b1_concat0"
  concat_param {
    axis: 1
  }
}
layer {
  name: "L2_b2_cbr1_conv"
  type: "Convolution"
  bottom: "L2_b1_concat0"
  top: "L2_b2_cbr1_conv_top"
  param {
    lr_mult: 1
    decay_mult: 1
  }
  param {
    lr_mult: 2
    decay_mult: 0
  }
  convolution_param {
    num_output: 32
    pad: 1
    kernel_size: 3
    stride: 1
    weight_filler {
      type: "msra"
    }
    bias_filler {
      type: "constant"
    }
  }
}
layer {
  name: "L2_b2_cbr1_bn"
  type: "BatchNorm"
  bottom: "L2_b2_cbr1_conv_top"
  top: "L2_b2_cbr1_bn_top"
  include {
    phase: TRAIN
  }
  batch_norm_param {
    use_global_stats: false
    moving_average_fraction: 0.999
  }
}
layer {
  name: "L2_b2_cbr1_scale"
  type: "Scale"
  bottom: "L2_b2_cbr1_bn_top"
  top: "L2_b2_cbr1_bn_top"
  scale_param {
    bias_term: true
  }
}
layer {
  name: "L2_b2_cbr1_relu"
  type: "ReLU"
  bottom: "L2_b2_cbr1_bn_top"
  top: "L2_b2_cbr1_bn_top"
}
layer {
  name: "L2_b2_cbr2_conv"
  type: "Convolution"
  bottom: "L2_b2_cbr1_bn_top"
  top: "L2_b2_cbr2_conv_top"
  param {
    lr_mult: 1
    decay_mult: 1
  }
  param {
    lr_mult: 2
    decay_mult: 0
  }
  convolution_param {
    num_output: 32
    pad: 1
    kernel_size: 3
    stride: 1
    weight_filler {
      type: "msra"
    }
    bias_filler {
      type: "constant"
    }
  }
}
layer {
  name: "L2_b2_cbr2_bn"
  type: "BatchNorm"
  bottom: "L2_b2_cbr2_conv_top"
  top: "L2_b2_cbr2_bn_top"
  include {
    phase: TRAIN
  }
  batch_norm_param {
    use_global_stats: false
    moving_average_fraction: 0.999
  }
}
layer {
  name: "L2_b2_cbr2_scale"
  type: "Scale"
  bottom: "L2_b2_cbr2_bn_top"
  top: "L2_b2_cbr2_bn_top"
  scale_param {
    bias_term: true
  }
}
layer {
  name: "L2_b2_sum_eltwise"
  type: "Eltwise"
  bottom: "L2_b2_cbr2_bn_top"
  bottom: "L2_b1_concat0"
  top: "L2_b2_sum_eltwise_top"
  eltwise_param {
    operation: SUM
  }
}
layer {
  name: "L2_b2_relu"
  type: "ReLU"
  bottom: "L2_b2_sum_eltwise_top"
  top: "L2_b2_sum_eltwise_top"
}
layer {
  name: "L2_b3_cbr1_conv"
  type: "Convolution"
  bottom: "L2_b2_sum_eltwise_top"
  top: "L2_b3_cbr1_conv_top"
  param {
    lr_mult: 1
    decay_mult: 1
  }
  param {
    lr_mult: 2
    decay_mult: 0
  }
  convolution_param {
    num_output: 32
    pad: 1
    kernel_size: 3
    stride: 1
    weight_filler {
      type: "msra"
    }
    bias_filler {
      type: "constant"
    }
  }
}
layer {
  name: "L2_b3_cbr1_bn"
  type: "BatchNorm"
  bottom: "L2_b3_cbr1_conv_top"
  top: "L2_b3_cbr1_bn_top"
  include {
    phase: TRAIN
  }
  batch_norm_param {
    use_global_stats: false
    moving_average_fraction: 0.999
  }
}
layer {
  name: "L2_b3_cbr1_scale"
  type: "Scale"
  bottom: "L2_b3_cbr1_bn_top"
  top: "L2_b3_cbr1_bn_top"
  scale_param {
    bias_term: true
  }
}
layer {
  name: "L2_b3_cbr1_relu"
  type: "ReLU"
  bottom: "L2_b3_cbr1_bn_top"
  top: "L2_b3_cbr1_bn_top"
}
layer {
  name: "L2_b3_cbr2_conv"
  type: "Convolution"
  bottom: "L2_b3_cbr1_bn_top"
  top: "L2_b3_cbr2_conv_top"
  param {
    lr_mult: 1
    decay_mult: 1
  }
  param {
    lr_mult: 2
    decay_mult: 0
  }
  convolution_param {
    num_output: 32
    pad: 1
    kernel_size: 3
    stride: 1
    weight_filler {
      type: "msra"
    }
    bias_filler {
      type: "constant"
    }
  }
}
layer {
  name: "L2_b3_cbr2_bn"
  type: "BatchNorm"
  bottom: "L2_b3_cbr2_conv_top"
  top: "L2_b3_cbr2_bn_top"
  include {
    phase: TRAIN
  }
  batch_norm_param {
    use_global_stats: false
    moving_average_fraction: 0.999
  }
}
layer {
  name: "L2_b3_cbr2_scale"
  type: "Scale"
  bottom: "L2_b3_cbr2_bn_top"
  top: "L2_b3_cbr2_bn_top"
  scale_param {
    bias_term: true
  }
}
layer {
  name: "L2_b3_sum_eltwise"
  type: "Eltwise"
  bottom: "L2_b3_cbr2_bn_top"
  bottom: "L2_b2_sum_eltwise_top"
  top: "L2_b3_sum_eltwise_top"
  eltwise_param {
    operation: SUM
  }
}
layer {
  name: "L2_b3_relu"
  type: "ReLU"
  bottom: "L2_b3_sum_eltwise_top"
  top: "L2_b3_sum_eltwise_top"
}
layer {
  name: "L2_b4_cbr1_conv"
  type: "Convolution"
  bottom: "L2_b3_sum_eltwise_top"
  top: "L2_b4_cbr1_conv_top"
  param {
    lr_mult: 1
    decay_mult: 1
  }
  param {
    lr_mult: 2
    decay_mult: 0
  }
  convolution_param {
    num_output: 32
    pad: 1
    kernel_size: 3
    stride: 1
    weight_filler {
      type: "msra"
    }
    bias_filler {
      type: "constant"
    }
  }
}
layer {
  name: "L2_b4_cbr1_bn"
  type: "BatchNorm"
  bottom: "L2_b4_cbr1_conv_top"
  top: "L2_b4_cbr1_bn_top"
  include {
    phase: TRAIN
  }
  batch_norm_param {
    use_global_stats: false
    moving_average_fraction: 0.999
  }
}
layer {
  name: "L2_b4_cbr1_scale"
  type: "Scale"
  bottom: "L2_b4_cbr1_bn_top"
  top: "L2_b4_cbr1_bn_top"
  scale_param {
    bias_term: true
  }
}
layer {
  name: "L2_b4_cbr1_relu"
  type: "ReLU"
  bottom: "L2_b4_cbr1_bn_top"
  top: "L2_b4_cbr1_bn_top"
}
layer {
  name: "L2_b4_cbr2_conv"
  type: "Convolution"
  bottom: "L2_b4_cbr1_bn_top"
  top: "L2_b4_cbr2_conv_top"
  param {
    lr_mult: 1
    decay_mult: 1
  }
  param {
    lr_mult: 2
    decay_mult: 0
  }
  convolution_param {
    num_output: 32
    pad: 1
    kernel_size: 3
    stride: 1
    weight_filler {
      type: "msra"
    }
    bias_filler {
      type: "constant"
    }
  }
}
layer {
  name: "L2_b4_cbr2_bn"
  type: "BatchNorm"
  bottom: "L2_b4_cbr2_conv_top"
  top: "L2_b4_cbr2_bn_top"
  include {
    phase: TRAIN
  }
  batch_norm_param {
    use_global_stats: false
    moving_average_fraction: 0.999
  }
}
layer {
  name: "L2_b4_cbr2_scale"
  type: "Scale"
  bottom: "L2_b4_cbr2_bn_top"
  top: "L2_b4_cbr2_bn_top"
  scale_param {
    bias_term: true
  }
}
layer {
  name: "L2_b4_sum_eltwise"
  type: "Eltwise"
  bottom: "L2_b4_cbr2_bn_top"
  bottom: "L2_b3_sum_eltwise_top"
  top: "L2_b4_sum_eltwise_top"
  eltwise_param {
    operation: SUM
  }
}
layer {
  name: "L2_b4_relu"
  type: "ReLU"
  bottom: "L2_b4_sum_eltwise_top"
  top: "L2_b4_sum_eltwise_top"
}
layer {
  name: "L2_b5_cbr1_conv"
  type: "Convolution"
  bottom: "L2_b4_sum_eltwise_top"
  top: "L2_b5_cbr1_conv_top"
  param {
    lr_mult: 1
    decay_mult: 1
  }
  param {
    lr_mult: 2
    decay_mult: 0
  }
  convolution_param {
    num_output: 32
    pad: 1
    kernel_size: 3
    stride: 1
    weight_filler {
      type: "msra"
    }
    bias_filler {
      type: "constant"
    }
  }
}
layer {
  name: "L2_b5_cbr1_bn"
  type: "BatchNorm"
  bottom: "L2_b5_cbr1_conv_top"
  top: "L2_b5_cbr1_bn_top"
  include {
    phase: TRAIN
  }
  batch_norm_param {
    use_global_stats: false
    moving_average_fraction: 0.999
  }
}
layer {
  name: "L2_b5_cbr1_scale"
  type: "Scale"
  bottom: "L2_b5_cbr1_bn_top"
  top: "L2_b5_cbr1_bn_top"
  scale_param {
    bias_term: true
  }
}
layer {
  name: "L2_b5_cbr1_relu"
  type: "ReLU"
  bottom: "L2_b5_cbr1_bn_top"
  top: "L2_b5_cbr1_bn_top"
}
layer {
  name: "L2_b5_cbr2_conv"
  type: "Convolution"
  bottom: "L2_b5_cbr1_bn_top"
  top: "L2_b5_cbr2_conv_top"
  param {
    lr_mult: 1
    decay_mult: 1
  }
  param {
    lr_mult: 2
    decay_mult: 0
  }
  convolution_param {
    num_output: 32
    pad: 1
    kernel_size: 3
    stride: 1
    weight_filler {
      type: "msra"
    }
    bias_filler {
      type: "constant"
    }
  }
}
layer {
  name: "L2_b5_cbr2_bn"
  type: "BatchNorm"
  bottom: "L2_b5_cbr2_conv_top"
  top: "L2_b5_cbr2_bn_top"
  include {
    phase: TRAIN
  }
  batch_norm_param {
    use_global_stats: false
    moving_average_fraction: 0.999
  }
}
layer {
  name: "L2_b5_cbr2_scale"
  type: "Scale"
  bottom: "L2_b5_cbr2_bn_top"
  top: "L2_b5_cbr2_bn_top"
  scale_param {
    bias_term: true
  }
}
layer {
  name: "L2_b5_sum_eltwise"
  type: "Eltwise"
  bottom: "L2_b5_cbr2_bn_top"
  bottom: "L2_b4_sum_eltwise_top"
  top: "L2_b5_sum_eltwise_top"
  eltwise_param {
    operation: SUM
  }
}
layer {
  name: "L2_b5_relu"
  type: "ReLU"
  bottom: "L2_b5_sum_eltwise_top"
  top: "L2_b5_sum_eltwise_top"
}
layer {
  name: "L2_b6_cbr1_conv"
  type: "Convolution"
  bottom: "L2_b5_sum_eltwise_top"
  top: "L2_b6_cbr1_conv_top"
  param {
    lr_mult: 1
    decay_mult: 1
  }
  param {
    lr_mult: 2
    decay_mult: 0
  }
  convolution_param {
    num_output: 32
    pad: 1
    kernel_size: 3
    stride: 1
    weight_filler {
      type: "msra"
    }
    bias_filler {
      type: "constant"
    }
  }
}
layer {
  name: "L2_b6_cbr1_bn"
  type: "BatchNorm"
  bottom: "L2_b6_cbr1_conv_top"
  top: "L2_b6_cbr1_bn_top"
  include {
    phase: TRAIN
  }
  batch_norm_param {
    use_global_stats: false
    moving_average_fraction: 0.999
I0817 16:02:21.527554 17829 layer_factory.hpp:77] Creating layer dataLayer
I0817 16:02:21.528759 17829 net.cpp:100] Creating Layer dataLayer
I0817 16:02:21.528836 17829 net.cpp:408] dataLayer -> data_top
I0817 16:02:21.529023 17829 net.cpp:408] dataLayer -> label
I0817 16:02:21.529141 17829 data_transformer.cpp:25] Loading mean file from: examples/cifar10/mean.binaryproto
I0817 16:02:21.534973 17834 db_lmdb.cpp:35] Opened lmdb examples/cifar10/cifar10_train_lmdb
I0817 16:02:21.556870 17829 data_layer.cpp:41] output data size: 125,3,32,32
I0817 16:02:21.564519 17829 net.cpp:150] Setting up dataLayer
I0817 16:02:21.564602 17829 net.cpp:157] Top shape: 125 3 32 32 (384000)
I0817 16:02:21.564623 17829 net.cpp:157] Top shape: 125 (125)
I0817 16:02:21.564635 17829 net.cpp:165] Memory required for data: 1536500
I0817 16:02:21.564658 17829 layer_factory.hpp:77] Creating layer label_dataLayer_1_split
I0817 16:02:21.564680 17829 net.cpp:100] Creating Layer label_dataLayer_1_split
I0817 16:02:21.564695 17829 net.cpp:434] label_dataLayer_1_split <- label
I0817 16:02:21.564723 17829 net.cpp:408] label_dataLayer_1_split -> label_dataLayer_1_split_0
I0817 16:02:21.564749 17829 net.cpp:408] label_dataLayer_1_split -> label_dataLayer_1_split_1
I0817 16:02:21.564854 17829 net.cpp:150] Setting up label_dataLayer_1_split
I0817 16:02:21.564874 17829 net.cpp:157] Top shape: 125 (125)
I0817 16:02:21.564888 17829 net.cpp:157] Top shape: 125 (125)
I0817 16:02:21.564896 17829 net.cpp:165] Memory required for data: 1537500
I0817 16:02:21.564908 17829 layer_factory.hpp:77] Creating layer pre_conv
I0817 16:02:21.564987 17829 net.cpp:100] Creating Layer pre_conv
I0817 16:02:21.565002 17829 net.cpp:434] pre_conv <- data_top
I0817 16:02:21.565023 17829 net.cpp:408] pre_conv -> pre_conv_top
I0817 16:02:21.566862 17829 net.cpp:150] Setting up pre_conv
I0817 16:02:21.566887 17829 net.cpp:157] Top shape: 125 16 32 32 (2048000)
I0817 16:02:21.566900 17829 net.cpp:165] Memory required for data: 9729500
I0817 16:02:21.566992 17829 layer_factory.hpp:77] Creating layer pre_bn
I0817 16:02:21.567097 17829 net.cpp:100] Creating Layer pre_bn
I0817 16:02:21.567113 17829 net.cpp:434] pre_bn <- pre_conv_top
I0817 16:02:21.567129 17829 net.cpp:408] pre_bn -> pre_bn_top
I0817 16:02:21.567180 17835 blocking_queue.cpp:50] Waiting for data
I0817 16:02:21.567514 17829 net.cpp:150] Setting up pre_bn
I0817 16:02:21.567538 17829 net.cpp:157] Top shape: 125 16 32 32 (2048000)
I0817 16:02:21.567548 17829 net.cpp:165] Memory required for data: 17921500
I0817 16:02:21.567586 17829 layer_factory.hpp:77] Creating layer pre_scale
I0817 16:02:21.567649 17829 net.cpp:100] Creating Layer pre_scale
I0817 16:02:21.567665 17829 net.cpp:434] pre_scale <- pre_bn_top
I0817 16:02:21.567682 17829 net.cpp:395] pre_scale -> pre_bn_top (in-place)
I0817 16:02:21.567888 17829 layer_factory.hpp:77] Creating layer pre_scale
I0817 16:02:21.568174 17829 net.cpp:150] Setting up pre_scale
I0817 16:02:21.568194 17829 net.cpp:157] Top shape: 125 16 32 32 (2048000)
I0817 16:02:21.568203 17829 net.cpp:165] Memory required for data: 26113500
I0817 16:02:21.568224 17829 layer_factory.hpp:77] Creating layer pre_relu
I0817 16:02:21.568289 17829 net.cpp:100] Creating Layer pre_relu
I0817 16:02:21.568306 17829 net.cpp:434] pre_relu <- pre_bn_top
I0817 16:02:21.568321 17829 net.cpp:395] pre_relu -> pre_bn_top (in-place)
I0817 16:02:21.568341 17829 net.cpp:150] Setting up pre_relu
I0817 16:02:21.568356 17829 net.cpp:157] Top shape: 125 16 32 32 (2048000)
I0817 16:02:21.568367 17829 net.cpp:165] Memory required for data: 34305500
I0817 16:02:21.568377 17829 layer_factory.hpp:77] Creating layer pre_bn_top_pre_relu_0_split
I0817 16:02:21.568392 17829 net.cpp:100] Creating Layer pre_bn_top_pre_relu_0_split
I0817 16:02:21.568403 17829 net.cpp:434] pre_bn_top_pre_relu_0_split <- pre_bn_top
I0817 16:02:21.568421 17829 net.cpp:408] pre_bn_top_pre_relu_0_split -> pre_bn_top_pre_relu_0_split_0
I0817 16:02:21.568444 17829 net.cpp:408] pre_bn_top_pre_relu_0_split -> pre_bn_top_pre_relu_0_split_1
I0817 16:02:21.568516 17829 net.cpp:150] Setting up pre_bn_top_pre_relu_0_split
I0817 16:02:21.568534 17829 net.cpp:157] Top shape: 125 16 32 32 (2048000)
I0817 16:02:21.568547 17829 net.cpp:157] Top shape: 125 16 32 32 (2048000)
I0817 16:02:21.568557 17829 net.cpp:165] Memory required for data: 50689500
I0817 16:02:21.568568 17829 layer_factory.hpp:77] Creating layer L1_b1_cbr1_conv
I0817 16:02:21.568600 17829 net.cpp:100] Creating Layer L1_b1_cbr1_conv
I0817 16:02:21.568615 17829 net.cpp:434] L1_b1_cbr1_conv <- pre_bn_top_pre_relu_0_split_0
I0817 16:02:21.568634 17829 net.cpp:408] L1_b1_cbr1_conv -> L1_b1_cbr1_conv_top
I0817 16:02:21.569001 17829 net.cpp:150] Setting up L1_b1_cbr1_conv
I0817 16:02:21.569022 17829 net.cpp:157] Top shape: 125 16 32 32 (2048000)
I0817 16:02:21.569031 17829 net.cpp:165] Memory required for data: 58881500
I0817 16:02:21.569053 17829 layer_factory.hpp:77] Creating layer L1_b1_cbr1_bn
I0817 16:02:21.569079 17829 net.cpp:100] Creating Layer L1_b1_cbr1_bn
I0817 16:02:21.569092 17829 net.cpp:434] L1_b1_cbr1_bn <- L1_b1_cbr1_conv_top
I0817 16:02:21.569108 17829 net.cpp:408] L1_b1_cbr1_bn -> L1_b1_cbr1_bn_top
I0817 16:02:21.569381 17829 net.cpp:150] Setting up L1_b1_cbr1_bn
I0817 16:02:21.569401 17829 net.cpp:157] Top shape: 125 16 32 32 (2048000)
I0817 16:02:21.569411 17829 net.cpp:165] Memory required for data: 67073500
I0817 16:02:21.569432 17829 layer_factory.hpp:77] Creating layer L1_b1_cbr1_scale
I0817 16:02:21.569453 17829 net.cpp:100] Creating Layer L1_b1_cbr1_scale
I0817 16:02:21.569465 17829 net.cpp:434] L1_b1_cbr1_scale <- L1_b1_cbr1_bn_top
I0817 16:02:21.569483 17829 net.cpp:395] L1_b1_cbr1_scale -> L1_b1_cbr1_bn_top (in-place)
I0817 16:02:21.569567 17829 layer_factory.hpp:77] Creating layer L1_b1_cbr1_scale
I0817 16:02:21.569748 17829 net.cpp:150] Setting up L1_b1_cbr1_scale
I0817 16:02:21.569773 17829 net.cpp:157] Top shape: 125 16 32 32 (2048000)
I0817 16:02:21.569783 17829 net.cpp:165] Memory required for data: 75265500
I0817 16:02:21.569802 17829 layer_factory.hpp:77] Creating layer L1_b1_cbr1_relu
I0817 16:02:21.569826 17829 net.cpp:100] Creating Layer L1_b1_cbr1_relu
I0817 16:02:21.569838 17829 net.cpp:434] L1_b1_cbr1_relu <- L1_b1_cbr1_bn_top
I0817 16:02:21.569856 17829 net.cpp:395] L1_b1_cbr1_relu -> L1_b1_cbr1_bn_top (in-place)
I0817 16:02:21.569875 17829 net.cpp:150] Setting up L1_b1_cbr1_relu
I0817 16:02:21.569891 17829 net.cpp:157] Top shape: 125 16 32 32 (2048000)
I0817 16:02:21.569900 17829 net.cpp:165] Memory required for data: 83457500
I0817 16:02:21.569911 17829 layer_factory.hpp:77] Creating layer L1_b1_cbr2_conv
I0817 16:02:21.569938 17829 net.cpp:100] Creating Layer L1_b1_cbr2_conv
I0817 16:02:21.569950 17829 net.cpp:434] L1_b1_cbr2_conv <- L1_b1_cbr1_bn_top
I0817 16:02:21.569968 17829 net.cpp:408] L1_b1_cbr2_conv -> L1_b1_cbr2_conv_top
I0817 16:02:21.570307 17829 net.cpp:150] Setting up L1_b1_cbr2_conv
I0817 16:02:21.570325 17829 net.cpp:157] Top shape: 125 16 32 32 (2048000)
I0817 16:02:21.570335 17829 net.cpp:165] Memory required for data: 91649500
I0817 16:02:21.570353 17829 layer_factory.hpp:77] Creating layer L1_b1_cbr2_bn
I0817 16:02:21.570375 17829 net.cpp:100] Creating Layer L1_b1_cbr2_bn
I0817 16:02:21.570387 17829 net.cpp:434] L1_b1_cbr2_bn <- L1_b1_cbr2_conv_top
I0817 16:02:21.570402 17829 net.cpp:408] L1_b1_cbr2_bn -> L1_b1_cbr2_bn_top
I0817 16:02:21.570674 17829 net.cpp:150] Setting up L1_b1_cbr2_bn
I0817 16:02:21.570693 17829 net.cpp:157] Top shape: 125 16 32 32 (2048000)
I0817 16:02:21.570703 17829 net.cpp:165] Memory required for data: 99841500
I0817 16:02:21.570731 17829 layer_factory.hpp:77] Creating layer L1_b1_cbr2_scale
I0817 16:02:21.570755 17829 net.cpp:100] Creating Layer L1_b1_cbr2_scale
I0817 16:02:21.570767 17829 net.cpp:434] L1_b1_cbr2_scale <- L1_b1_cbr2_bn_top
I0817 16:02:21.570787 17829 net.cpp:395] L1_b1_cbr2_scale -> L1_b1_cbr2_bn_top (in-place)
I0817 16:02:21.570879 17829 layer_factory.hpp:77] Creating layer L1_b1_cbr2_scale
I0817 16:02:21.571053 17829 net.cpp:150] Setting up L1_b1_cbr2_scale
I0817 16:02:21.571071 17829 net.cpp:157] Top shape: 125 16 32 32 (2048000)
I0817 16:02:21.571080 17829 net.cpp:165] Memory required for data: 108033500
I0817 16:02:21.571099 17829 layer_factory.hpp:77] Creating layer L1_b1_sum_eltwise
I0817 16:02:21.571166 17829 net.cpp:100] Creating Layer L1_b1_sum_eltwise
I0817 16:02:21.571180 17829 net.cpp:434] L1_b1_sum_eltwise <- L1_b1_cbr2_bn_top
I0817 16:02:21.571198 17829 net.cpp:434] L1_b1_sum_eltwise <- pre_bn_top_pre_relu_0_split_1
I0817 16:02:21.571215 17829 net.cpp:408] L1_b1_sum_eltwise -> L1_b1_sum_eltwise_top
I0817 16:02:21.571311 17829 net.cpp:150] Setting up L1_b1_sum_eltwise
I0817 16:02:21.571331 17829 net.cpp:157] Top shape: 125 16 32 32 (2048000)
I0817 16:02:21.571342 17829 net.cpp:165] Memory required for data: 116225500
I0817 16:02:21.571352 17829 layer_factory.hpp:77] Creating layer L1_b1_relu
I0817 16:02:21.571367 17829 net.cpp:100] Creating Layer L1_b1_relu
I0817 16:02:21.571378 17829 net.cpp:434] L1_b1_relu <- L1_b1_sum_eltwise_top
I0817 16:02:21.571398 17829 net.cpp:395] L1_b1_relu -> L1_b1_sum_eltwise_top (in-place)
I0817 16:02:21.571416 17829 net.cpp:150] Setting up L1_b1_relu
I0817 16:02:21.571432 17829 net.cpp:157] Top shape: 125 16 32 32 (2048000)
I0817 16:02:21.571441 17829 net.cpp:165] Memory required for data: 124417500
I0817 16:02:21.571451 17829 layer_factory.hpp:77] Creating layer L1_b1_sum_eltwise_top_L1_b1_relu_0_split
I0817 16:02:21.571468 17829 net.cpp:100] Creating Layer L1_b1_sum_eltwise_top_L1_b1_relu_0_split
I0817 16:02:21.571480 17829 net.cpp:434] L1_b1_sum_eltwise_top_L1_b1_relu_0_split <- L1_b1_sum_eltwise_top
I0817 16:02:21.571493 17829 net.cpp:408] L1_b1_sum_eltwise_top_L1_b1_relu_0_split -> L1_b1_sum_eltwise_top_L1_b1_relu_0_split_0
I0817 16:02:21.571512 17829 net.cpp:408] L1_b1_sum_eltwise_top_L1_b1_relu_0_split -> L1_b1_sum_eltwise_top_L1_b1_relu_0_split_1
I0817 16:02:21.571597 17829 net.cpp:150] Setting up L1_b1_sum_eltwise_top_L1_b1_relu_0_split
I0817 16:02:21.571619 17829 net.cpp:157] Top shape: 125 16 32 32 (2048000)
I0817 16:02:21.571633 17829 net.cpp:157] Top shape: 125 16 32 32 (2048000)
I0817 16:02:21.571652 17829 net.cpp:165] Memory required for data: 140801500
I0817 16:02:21.571663 17829 layer_factory.hpp:77] Creating layer L1_b2_cbr1_conv
I0817 16:02:21.571684 17829 net.cpp:100] Creating Layer L1_b2_cbr1_conv
I0817 16:02:21.571697 17829 net.cpp:434] L1_b2_cbr1_conv <- L1_b1_sum_eltwise_top_L1_b1_relu_0_split_0
I0817 16:02:21.571724 17829 net.cpp:408] L1_b2_cbr1_conv -> L1_b2_cbr1_conv_top
I0817 16:02:21.572083 17829 net.cpp:150] Setting up L1_b2_cbr1_conv
I0817 16:02:21.572103 17829 net.cpp:157] Top shape: 125 16 32 32 (2048000)
I0817 16:02:21.572113 17829 net.cpp:165] Memory required for data: 148993500
I0817 16:02:21.572131 17829 layer_factory.hpp:77] Creating layer L1_b2_cbr1_bn
I0817 16:02:21.572149 17829 net.cpp:100] Creating Layer L1_b2_cbr1_bn
I0817 16:02:21.572160 17829 net.cpp:434] L1_b2_cbr1_bn <- L1_b2_cbr1_conv_top
I0817 16:02:21.572181 17829 net.cpp:408] L1_b2_cbr1_bn -> L1_b2_cbr1_bn_top
I0817 16:02:21.572453 17829 net.cpp:150] Setting up L1_b2_cbr1_bn
I0817 16:02:21.572477 17829 net.cpp:157] Top shape: 125 16 32 32 (2048000)
I0817 16:02:21.572489 17829 net.cpp:165] Memory required for data: 157185500
I0817 16:02:21.572510 17829 layer_factory.hpp:77] Creating layer L1_b2_cbr1_scale
I0817 16:02:21.572527 17829 net.cpp:100] Creating Layer L1_b2_cbr1_scale
I0817 16:02:21.572540 17829 net.cpp:434] L1_b2_cbr1_scale <- L1_b2_cbr1_bn_top
I0817 16:02:21.572554 17829 net.cpp:395] L1_b2_cbr1_scale -> L1_b2_cbr1_bn_top (in-place)
I0817 16:02:21.572643 17829 layer_factory.hpp:77] Creating layer L1_b2_cbr1_scale
I0817 16:02:21.572821 17829 net.cpp:150] Setting up L1_b2_cbr1_scale
I0817 16:02:21.572840 17829 net.cpp:157] Top shape: 125 16 32 32 (2048000)
I0817 16:02:21.572850 17829 net.cpp:165] Memory required for data: 165377500
I0817 16:02:21.572868 17829 layer_factory.hpp:77] Creating layer L1_b2_cbr1_relu
I0817 16:02:21.572885 17829 net.cpp:100] Creating Layer L1_b2_cbr1_relu
I0817 16:02:21.572896 17829 net.cpp:434] L1_b2_cbr1_relu <- L1_b2_cbr1_bn_top
I0817 16:02:21.572914 17829 net.cpp:395] L1_b2_cbr1_relu -> L1_b2_cbr1_bn_top (in-place)
I0817 16:02:21.572933 17829 net.cpp:150] Setting up L1_b2_cbr1_relu
I0817 16:02:21.572948 17829 net.cpp:157] Top shape: 125 16 32 32 (2048000)
I0817 16:02:21.572958 17829 net.cpp:165] Memory required for data: 173569500
I0817 16:02:21.572968 17829 layer_factory.hpp:77] Creating layer L1_b2_cbr2_conv
I0817 16:02:21.572988 17829 net.cpp:100] Creating Layer L1_b2_cbr2_conv
I0817 16:02:21.573000 17829 net.cpp:434] L1_b2_cbr2_conv <- L1_b2_cbr1_bn_top
I0817 16:02:21.573021 17829 net.cpp:408] L1_b2_cbr2_conv -> L1_b2_cbr2_conv_top
I0817 16:02:21.573364 17829 net.cpp:150] Setting up L1_b2_cbr2_conv
I0817 16:02:21.573384 17829 net.cpp:157] Top shape: 125 16 32 32 (2048000)
I0817 16:02:21.573395 17829 net.cpp:165] Memory required for data: 181761500
I0817 16:02:21.573413 17829 layer_factory.hpp:77] Creating layer L1_b2_cbr2_bn
I0817 16:02:21.573431 17829 net.cpp:100] Creating Layer L1_b2_cbr2_bn
I0817 16:02:21.573441 17829 net.cpp:434] L1_b2_cbr2_bn <- L1_b2_cbr2_conv_top
I0817 16:02:21.573462 17829 net.cpp:408] L1_b2_cbr2_bn -> L1_b2_cbr2_bn_top
I0817 16:02:21.573742 17829 net.cpp:150] Setting up L1_b2_cbr2_bn
I0817 16:02:21.573762 17829 net.cpp:157] Top shape: 125 16 32 32 (2048000)
I0817 16:02:21.573771 17829 net.cpp:165] Memory required for data: 189953500
I0817 16:02:21.573804 17829 layer_factory.hpp:77] Creating layer L1_b2_cbr2_scale
I0817 16:02:21.573822 17829 net.cpp:100] Creating Layer L1_b2_cbr2_scale
I0817 16:02:21.573834 17829 net.cpp:434] L1_b2_cbr2_scale <- L1_b2_cbr2_bn_top
I0817 16:02:21.573853 17829 net.cpp:395] L1_b2_cbr2_scale -> L1_b2_cbr2_bn_top (in-place)
I0817 16:02:21.573945 17829 layer_factory.hpp:77] Creating layer L1_b2_cbr2_scale
I0817 16:02:21.574117 17829 net.cpp:150] Setting up L1_b2_cbr2_scale
I0817 16:02:21.574136 17829 net.cpp:157] Top shape: 125 16 32 32 (2048000)
I0817 16:02:21.574146 17829 net.cpp:165] Memory required for data: 198145500
I0817 16:02:21.574164 17829 layer_factory.hpp:77] Creating layer L1_b2_sum_eltwise
I0817 16:02:21.574193 17829 net.cpp:100] Creating Layer L1_b2_sum_eltwise
I0817 16:02:21.574206 17829 net.cpp:434] L1_b2_sum_eltwise <- L1_b2_cbr2_bn_top
I0817 16:02:21.574219 17829 net.cpp:434] L1_b2_sum_eltwise <- L1_b1_sum_eltwise_top_L1_b1_relu_0_split_1
I0817 16:02:21.574235 17829 net.cpp:408] L1_b2_sum_eltwise -> L1_b2_sum_eltwise_top
I0817 16:02:21.574292 17829 net.cpp:150] Setting up L1_b2_sum_eltwise
I0817 16:02:21.574313 17829 net.cpp:157] Top shape: 125 16 32 32 (2048000)
I0817 16:02:21.574322 17829 net.cpp:165] Memory required for data: 206337500
I0817 16:02:21.574333 17829 layer_factory.hpp:77] Creating layer L1_b2_relu
I0817 16:02:21.574347 17829 net.cpp:100] Creating Layer L1_b2_relu
I0817 16:02:21.574359 17829 net.cpp:434] L1_b2_relu <- L1_b2_sum_eltwise_top
I0817 16:02:21.574373 17829 net.cpp:395] L1_b2_relu -> L1_b2_sum_eltwise_top (in-place)
I0817 16:02:21.574391 17829 net.cpp:150] Setting up L1_b2_relu
I0817 16:02:21.574407 17829 net.cpp:157] Top shape: 125 16 32 32 (2048000)
I0817 16:02:21.574416 17829 net.cpp:165] Memory required for data: 214529500
I0817 16:02:21.574427 17829 layer_factory.hpp:77] Creating layer L1_b2_sum_eltwise_top_L1_b2_relu_0_split
I0817 16:02:21.574441 17829 net.cpp:100] Creating Layer L1_b2_sum_eltwise_top_L1_b2_relu_0_split
I0817 16:02:21.574452 17829 net.cpp:434] L1_b2_sum_eltwise_top_L1_b2_relu_0_split <- L1_b2_sum_eltwise_top
I0817 16:02:21.574471 17829 net.cpp:408] L1_b2_sum_eltwise_top_L1_b2_relu_0_split -> L1_b2_sum_eltwise_top_L1_b2_relu_0_split_0
I0817 16:02:21.574491 17829 net.cpp:408] L1_b2_sum_eltwise_top_L1_b2_relu_0_split -> L1_b2_sum_eltwise_top_L1_b2_relu_0_split_1
I0817 16:02:21.574566 17829 net.cpp:150] Setting up L1_b2_sum_eltwise_top_L1_b2_relu_0_split
I0817 16:02:21.574601 17829 net.cpp:157] Top shape: 125 16 32 32 (2048000)
I0817 16:02:21.574617 17829 net.cpp:157] Top shape: 125 16 32 32 (2048000)
I0817 16:02:21.574627 17829 net.cpp:165] Memory required for data: 230913500
I0817 16:02:21.574636 17829 layer_factory.hpp:77] Creating layer L1_b3_cbr1_conv
I0817 16:02:21.574662 17829 net.cpp:100] Creating Layer L1_b3_cbr1_conv
I0817 16:02:21.574676 17829 net.cpp:434] L1_b3_cbr1_conv <- L1_b2_sum_eltwise_top_L1_b2_relu_0_split_0
I0817 16:02:21.574692 17829 net.cpp:408] L1_b3_cbr1_conv -> L1_b3_cbr1_conv_top
I0817 16:02:21.575039 17829 net.cpp:150] Setting up L1_b3_cbr1_conv
I0817 16:02:21.575059 17829 net.cpp:157] Top shape: 125 16 32 32 (2048000)
I0817 16:02:21.575068 17829 net.cpp:165] Memory required for data: 239105500
I0817 16:02:21.575086 17829 layer_factory.hpp:77] Creating layer L1_b3_cbr1_bn
I0817 16:02:21.575103 17829 net.cpp:100] Creating Layer L1_b3_cbr1_bn
I0817 16:02:21.575114 17829 net.cpp:434] L1_b3_cbr1_bn <- L1_b3_cbr1_conv_top
I0817 16:02:21.575134 17829 net.cpp:408] L1_b3_cbr1_bn -> L1_b3_cbr1_bn_top
I0817 16:02:21.575402 17829 net.cpp:150] Setting up L1_b3_cbr1_bn
I0817 16:02:21.575422 17829 net.cpp:157] Top shape: 125 16 32 32 (2048000)
I0817 16:02:21.575431 17829 net.cpp:165] Memory required for data: 247297500
I0817 16:02:21.575453 17829 layer_factory.hpp:77] Creating layer L1_b3_cbr1_scale
I0817 16:02:21.575470 17829 net.cpp:100] Creating Layer L1_b3_cbr1_scale
I0817 16:02:21.575481 17829 net.cpp:434] L1_b3_cbr1_scale <- L1_b3_cbr1_bn_top
I0817 16:02:21.575500 17829 net.cpp:395] L1_b3_cbr1_scale -> L1_b3_cbr1_bn_top (in-place)
I0817 16:02:21.575589 17829 layer_factory.hpp:77] Creating layer L1_b3_cbr1_scale
I0817 16:02:21.575768 17829 net.cpp:150] Setting up L1_b3_cbr1_scale
I0817 16:02:21.575791 17829 net.cpp:157] Top shape: 125 16 32 32 (2048000)
I0817 16:02:21.575803 17829 net.cpp:165] Memory required for data: 255489500
I0817 16:02:21.575820 17829 layer_factory.hpp:77] Creating layer L1_b3_cbr1_relu
I0817 16:02:21.575835 17829 net.cpp:100] Creating Layer L1_b3_cbr1_relu
I0817 16:02:21.575846 17829 net.cpp:434] L1_b3_cbr1_relu <- L1_b3_cbr1_bn_top
I0817 16:02:21.575860 17829 net.cpp:395] L1_b3_cbr1_relu -> L1_b3_cbr1_bn_top (in-place)
I0817 16:02:21.575878 17829 net.cpp:150] Setting up L1_b3_cbr1_relu
I0817 16:02:21.575901 17829 net.cpp:157] Top shape: 125 16 32 32 (2048000)
I0817 16:02:21.575911 17829 net.cpp:165] Memory required for data: 263681500
I0817 16:02:21.575922 17829 layer_factory.hpp:77] Creating layer L1_b3_cbr2_conv
I0817 16:02:21.575947 17829 net.cpp:100] Creating Layer L1_b3_cbr2_conv
I0817 16:02:21.575959 17829 net.cpp:434] L1_b3_cbr2_conv <- L1_b3_cbr1_bn_top
I0817 16:02:21.575980 17829 net.cpp:408] L1_b3_cbr2_conv -> L1_b3_cbr2_conv_top
I0817 16:02:21.576323 17829 net.cpp:150] Setting up L1_b3_cbr2_conv
I0817 16:02:21.576341 17829 net.cpp:157] Top shape: 125 16 32 32 (2048000)
I0817 16:02:21.576351 17829 net.cpp:165] Memory required for data: 271873500
I0817 16:02:21.576370 17829 layer_factory.hpp:77] Creating layer L1_b3_cbr2_bn
I0817 16:02:21.576400 17829 net.cpp:100] Creating Layer L1_b3_cbr2_bn
I0817 16:02:21.576412 17829 net.cpp:434] L1_b3_cbr2_bn <- L1_b3_cbr2_conv_top
I0817 16:02:21.576429 17829 net.cpp:408] L1_b3_cbr2_bn -> L1_b3_cbr2_bn_top
I0817 16:02:21.576717 17829 net.cpp:150] Setting up L1_b3_cbr2_bn
I0817 16:02:21.576736 17829 net.cpp:157] Top shape: 125 16 32 32 (2048000)
I0817 16:02:21.576745 17829 net.cpp:165] Memory required for data: 280065500
I0817 16:02:21.576766 17829 layer_factory.hpp:77] Creating layer L1_b3_cbr2_scale
I0817 16:02:21.576783 17829 net.cpp:100] Creating Layer L1_b3_cbr2_scale
I0817 16:02:21.576794 17829 net.cpp:434] L1_b3_cbr2_scale <- L1_b3_cbr2_bn_top
I0817 16:02:21.576815 17829 net.cpp:395] L1_b3_cbr2_scale -> L1_b3_cbr2_bn_top (in-place)
I0817 16:02:21.576900 17829 layer_factory.hpp:77] Creating layer L1_b3_cbr2_scale
I0817 16:02:21.577069 17829 net.cpp:150] Setting up L1_b3_cbr2_scale
I0817 16:02:21.577090 17829 net.cpp:157] Top shape: 125 16 32 32 (2048000)
I0817 16:02:21.577100 17829 net.cpp:165] Memory required for data: 288257500
I0817 16:02:21.577118 17829 layer_factory.hpp:77] Creating layer L1_b3_sum_eltwise
I0817 16:02:21.577134 17829 net.cpp:100] Creating Layer L1_b3_sum_eltwise
I0817 16:02:21.577147 17829 net.cpp:434] L1_b3_sum_eltwise <- L1_b3_cbr2_bn_top
I0817 16:02:21.577159 17829 net.cpp:434] L1_b3_sum_eltwise <- L1_b2_sum_eltwise_top_L1_b2_relu_0_split_1
I0817 16:02:21.577174 17829 net.cpp:408] L1_b3_sum_eltwise -> L1_b3_sum_eltwise_top
I0817 16:02:21.577230 17829 net.cpp:150] Setting up L1_b3_sum_eltwise
I0817 16:02:21.577250 17829 net.cpp:157] Top shape: 125 16 32 32 (2048000)
I0817 16:02:21.577260 17829 net.cpp:165] Memory required for data: 296449500
I0817 16:02:21.577270 17829 layer_factory.hpp:77] Creating layer L1_b3_relu
I0817 16:02:21.577288 17829 net.cpp:100] Creating Layer L1_b3_relu
I0817 16:02:21.577301 17829 net.cpp:434] L1_b3_relu <- L1_b3_sum_eltwise_top
I0817 16:02:21.577313 17829 net.cpp:395] L1_b3_relu -> L1_b3_sum_eltwise_top (in-place)
I0817 16:02:21.577332 17829 net.cpp:150] Setting up L1_b3_relu
I0817 16:02:21.577347 17829 net.cpp:157] Top shape: 125 16 32 32 (2048000)
I0817 16:02:21.577358 17829 net.cpp:165] Memory required for data: 304641500
I0817 16:02:21.577368 17829 layer_factory.hpp:77] Creating layer L1_b3_sum_eltwise_top_L1_b3_relu_0_split
I0817 16:02:21.577385 17829 net.cpp:100] Creating Layer L1_b3_sum_eltwise_top_L1_b3_relu_0_split
I0817 16:02:21.577397 17829 net.cpp:434] L1_b3_sum_eltwise_top_L1_b3_relu_0_split <- L1_b3_sum_eltwise_top
I0817 16:02:21.577411 17829 net.cpp:408] L1_b3_sum_eltwise_top_L1_b3_relu_0_split -> L1_b3_sum_eltwise_top_L1_b3_relu_0_split_0
I0817 16:02:21.577430 17829 net.cpp:408] L1_b3_sum_eltwise_top_L1_b3_relu_0_split -> L1_b3_sum_eltwise_top_L1_b3_relu_0_split_1
I0817 16:02:21.577502 17829 net.cpp:150] Setting up L1_b3_sum_eltwise_top_L1_b3_relu_0_split
I0817 16:02:21.577524 17829 net.cpp:157] Top shape: 125 16 32 32 (2048000)
I0817 16:02:21.577539 17829 net.cpp:157] Top shape: 125 16 32 32 (2048000)
I0817 16:02:21.577549 17829 net.cpp:165] Memory required for data: 321025500
I0817 16:02:21.577559 17829 layer_factory.hpp:77] Creating layer L1_b4_cbr1_conv
I0817 16:02:21.577585 17829 net.cpp:100] Creating Layer L1_b4_cbr1_conv
I0817 16:02:21.577599 17829 net.cpp:434] L1_b4_cbr1_conv <- L1_b3_sum_eltwise_top_L1_b3_relu_0_split_0
I0817 16:02:21.577626 17829 net.cpp:408] L1_b4_cbr1_conv -> L1_b4_cbr1_conv_top
I0817 16:02:21.577998 17829 net.cpp:150] Setting up L1_b4_cbr1_conv
I0817 16:02:21.578018 17829 net.cpp:157] Top shape: 125 16 32 32 (2048000)
I0817 16:02:21.578027 17829 net.cpp:165] Memory required for data: 329217500
I0817 16:02:21.578045 17829 layer_factory.hpp:77] Creating layer L1_b4_cbr1_bn
I0817 16:02:21.578068 17829 net.cpp:100] Creating Layer L1_b4_cbr1_bn
I0817 16:02:21.578078 17829 net.cpp:434] L1_b4_cbr1_bn <- L1_b4_cbr1_conv_top
I0817 16:02:21.578095 17829 net.cpp:408] L1_b4_cbr1_bn -> L1_b4_cbr1_bn_top
I0817 16:02:21.578369 17829 net.cpp:150] Setting up L1_b4_cbr1_bn
I0817 16:02:21.578387 17829 net.cpp:157] Top shape: 125 16 32 32 (2048000)
I0817 16:02:21.578397 17829 net.cpp:165] Memory required for data: 337409500
I0817 16:02:21.578418 17829 layer_factory.hpp:77] Creating layer L1_b4_cbr1_scale
I0817 16:02:21.578435 17829 net.cpp:100] Creating Layer L1_b4_cbr1_scale
I0817 16:02:21.578446 17829 net.cpp:434] L1_b4_cbr1_scale <- L1_b4_cbr1_bn_top
I0817 16:02:21.578466 17829 net.cpp:395] L1_b4_cbr1_scale -> L1_b4_cbr1_bn_top (in-place)
I0817 16:02:21.578552 17829 layer_factory.hpp:77] Creating layer L1_b4_cbr1_scale
I0817 16:02:21.578735 17829 net.cpp:150] Setting up L1_b4_cbr1_scale
I0817 16:02:21.578754 17829 net.cpp:157] Top shape: 125 16 32 32 (2048000)
I0817 16:02:21.578763 17829 net.cpp:165] Memory required for data: 345601500
I0817 16:02:21.578783 17829 layer_factory.hpp:77] Creating layer L1_b4_cbr1_relu
I0817 16:02:21.578797 17829 net.cpp:100] Creating Layer L1_b4_cbr1_relu
I0817 16:02:21.578809 17829 net.cpp:434] L1_b4_cbr1_relu <- L1_b4_cbr1_bn_top
I0817 16:02:21.578824 17829 net.cpp:395] L1_b4_cbr1_relu -> L1_b4_cbr1_bn_top (in-place)
I0817 16:02:21.578846 17829 net.cpp:150] Setting up L1_b4_cbr1_relu
I0817 16:02:21.578861 17829 net.cpp:157] Top shape: 125 16 32 32 (2048000)
I0817 16:02:21.578871 17829 net.cpp:165] Memory required for data: 353793500
I0817 16:02:21.578881 17829 layer_factory.hpp:77] Creating layer L1_b4_cbr2_conv
I0817 16:02:21.578902 17829 net.cpp:100] Creating Layer L1_b4_cbr2_conv
I0817 16:02:21.578919 17829 net.cpp:434] L1_b4_cbr2_conv <- L1_b4_cbr1_bn_top
I0817 16:02:21.578936 17829 net.cpp:408] L1_b4_cbr2_conv -> L1_b4_cbr2_conv_top
I0817 16:02:21.579293 17829 net.cpp:150] Setting up L1_b4_cbr2_conv
I0817 16:02:21.579313 17829 net.cpp:157] Top shape: 125 16 32 32 (2048000)
I0817 16:02:21.579322 17829 net.cpp:165] Memory required for data: 361985500
I0817 16:02:21.579339 17829 layer_factory.hpp:77] Creating layer L1_b4_cbr2_bn
I0817 16:02:21.579361 17829 net.cpp:100] Creating Layer L1_b4_cbr2_bn
I0817 16:02:21.579373 17829 net.cpp:434] L1_b4_cbr2_bn <- L1_b4_cbr2_conv_top
I0817 16:02:21.579393 17829 net.cpp:408] L1_b4_cbr2_bn -> L1_b4_cbr2_bn_top
I0817 16:02:21.579674 17829 net.cpp:150] Setting up L1_b4_cbr2_bn
I0817 16:02:21.579694 17829 net.cpp:157] Top shape: 125 16 32 32 (2048000)
I0817 16:02:21.579704 17829 net.cpp:165] Memory required for data: 370177500
I0817 16:02:21.579725 17829 layer_factory.hpp:77] Creating layer L1_b4_cbr2_scale
I0817 16:02:21.579751 17829 net.cpp:100] Creating Layer L1_b4_cbr2_scale
I0817 16:02:21.579763 17829 net.cpp:434] L1_b4_cbr2_scale <- L1_b4_cbr2_bn_top
I0817 16:02:21.579779 17829 net.cpp:395] L1_b4_cbr2_scale -> L1_b4_cbr2_bn_top (in-place)
I0817 16:02:21.579874 17829 layer_factory.hpp:77] Creating layer L1_b4_cbr2_scale
I0817 16:02:21.580051 17829 net.cpp:150] Setting up L1_b4_cbr2_scale
I0817 16:02:21.580070 17829 net.cpp:157] Top shape: 125 16 32 32 (2048000)
I0817 16:02:21.580080 17829 net.cpp:165] Memory required for data: 378369500
I0817 16:02:21.580098 17829 layer_factory.hpp:77] Creating layer L1_b4_sum_eltwise
I0817 16:02:21.580116 17829 net.cpp:100] Creating Layer L1_b4_sum_eltwise
I0817 16:02:21.580127 17829 net.cpp:434] L1_b4_sum_eltwise <- L1_b4_cbr2_bn_top
I0817 16:02:21.580139 17829 net.cpp:434] L1_b4_sum_eltwise <- L1_b3_sum_eltwise_top_L1_b3_relu_0_split_1
I0817 16:02:21.580159 17829 net.cpp:408] L1_b4_sum_eltwise -> L1_b4_sum_eltwise_top
I0817 16:02:21.580221 17829 net.cpp:150] Setting up L1_b4_sum_eltwise
I0817 16:02:21.580246 17829 net.cpp:157] Top shape: 125 16 32 32 (2048000)
I0817 16:02:21.580256 17829 net.cpp:165] Memory required for data: 386561500
I0817 16:02:21.580267 17829 layer_factory.hpp:77] Creating layer L1_b4_relu
I0817 16:02:21.580281 17829 net.cpp:100] Creating Layer L1_b4_relu
I0817 16:02:21.580292 17829 net.cpp:434] L1_b4_relu <- L1_b4_sum_eltwise_top
I0817 16:02:21.580307 17829 net.cpp:395] L1_b4_relu -> L1_b4_sum_eltwise_top (in-place)
I0817 16:02:21.580325 17829 net.cpp:150] Setting up L1_b4_relu
I0817 16:02:21.580341 17829 net.cpp:157] Top shape: 125 16 32 32 (2048000)
I0817 16:02:21.580350 17829 net.cpp:165] Memory required for data: 394753500
I0817 16:02:21.580361 17829 layer_factory.hpp:77] Creating layer L1_b4_sum_eltwise_top_L1_b4_relu_0_split
I0817 16:02:21.580380 17829 net.cpp:100] Creating Layer L1_b4_sum_eltwise_top_L1_b4_relu_0_split
I0817 16:02:21.580392 17829 net.cpp:434] L1_b4_sum_eltwise_top_L1_b4_relu_0_split <- L1_b4_sum_eltwise_top
I0817 16:02:21.580407 17829 net.cpp:408] L1_b4_sum_eltwise_top_L1_b4_relu_0_split -> L1_b4_sum_eltwise_top_L1_b4_relu_0_split_0
I0817 16:02:21.580426 17829 net.cpp:408] L1_b4_sum_eltwise_top_L1_b4_relu_0_split -> L1_b4_sum_eltwise_top_L1_b4_relu_0_split_1
I0817 16:02:21.580508 17829 net.cpp:150] Setting up L1_b4_sum_eltwise_top_L1_b4_relu_0_split
I0817 16:02:21.580528 17829 net.cpp:157] Top shape: 125 16 32 32 (2048000)
I0817 16:02:21.580540 17829 net.cpp:157] Top shape: 125 16 32 32 (2048000)
I0817 16:02:21.580549 17829 net.cpp:165] Memory required for data: 411137500
I0817 16:02:21.580560 17829 layer_factory.hpp:77] Creating layer L1_b5_cbr1_conv
I0817 16:02:21.580588 17829 net.cpp:100] Creating Layer L1_b5_cbr1_conv
I0817 16:02:21.580602 17829 net.cpp:434] L1_b5_cbr1_conv <- L1_b4_sum_eltwise_top_L1_b4_relu_0_split_0
I0817 16:02:21.580626 17829 net.cpp:408] L1_b5_cbr1_conv -> L1_b5_cbr1_conv_top
I0817 16:02:21.580981 17829 net.cpp:150] Setting up L1_b5_cbr1_conv
I0817 16:02:21.580999 17829 net.cpp:157] Top shape: 125 16 32 32 (2048000)
I0817 16:02:21.581008 17829 net.cpp:165] Memory required for data: 419329500
I0817 16:02:21.581043 17829 layer_factory.hpp:77] Creating layer L1_b5_cbr1_bn
I0817 16:02:21.581065 17829 net.cpp:100] Creating Layer L1_b5_cbr1_bn
I0817 16:02:21.581077 17829 net.cpp:434] L1_b5_cbr1_bn <- L1_b5_cbr1_conv_top
I0817 16:02:21.581099 17829 net.cpp:408] L1_b5_cbr1_bn -> L1_b5_cbr1_bn_top
I0817 16:02:21.581382 17829 net.cpp:150] Setting up L1_b5_cbr1_bn
I0817 16:02:21.581400 17829 net.cpp:157] Top shape: 125 16 32 32 (2048000)
I0817 16:02:21.581410 17829 net.cpp:165] Memory required for data: 427521500
I0817 16:02:21.581432 17829 layer_factory.hpp:77] Creating layer L1_b5_cbr1_scale
I0817 16:02:21.581454 17829 net.cpp:100] Creating Layer L1_b5_cbr1_scale
I0817 16:02:21.581465 17829 net.cpp:434] L1_b5_cbr1_scale <- L1_b5_cbr1_bn_top
I0817 16:02:21.581480 17829 net.cpp:395] L1_b5_cbr1_scale -> L1_b5_cbr1_bn_top (in-place)
I0817 16:02:21.581562 17829 layer_factory.hpp:77] Creating layer L1_b5_cbr1_scale
I0817 16:02:21.581746 17829 net.cpp:150] Setting up L1_b5_cbr1_scale
I0817 16:02:21.581765 17829 net.cpp:157] Top shape: 125 16 32 32 (2048000)
I0817 16:02:21.581775 17829 net.cpp:165] Memory required for data: 435713500
I0817 16:02:21.581794 17829 layer_factory.hpp:77] Creating layer L1_b5_cbr1_relu
I0817 16:02:21.581809 17829 net.cpp:100] Creating Layer L1_b5_cbr1_relu
I0817 16:02:21.581820 17829 net.cpp:434] L1_b5_cbr1_relu <- L1_b5_cbr1_bn_top
I0817 16:02:21.581840 17829 net.cpp:395] L1_b5_cbr1_relu -> L1_b5_cbr1_bn_top (in-place)
I0817 16:02:21.581859 17829 net.cpp:150] Setting up L1_b5_cbr1_relu
I0817 16:02:21.581873 17829 net.cpp:157] Top shape: 125 16 32 32 (2048000)
I0817 16:02:21.581884 17829 net.cpp:165] Memory required for data: 443905500
I0817 16:02:21.581893 17829 layer_factory.hpp:77] Creating layer L1_b5_cbr2_conv
I0817 16:02:21.581918 17829 net.cpp:100] Creating Layer L1_b5_cbr2_conv
I0817 16:02:21.581930 17829 net.cpp:434] L1_b5_cbr2_conv <- L1_b5_cbr1_bn_top
I0817 16:02:21.581957 17829 net.cpp:408] L1_b5_cbr2_conv -> L1_b5_cbr2_conv_top
I0817 16:02:21.582330 17829 net.cpp:150] Setting up L1_b5_cbr2_conv
I0817 16:02:21.582350 17829 net.cpp:157] Top shape: 125 16 32 32 (2048000)
I0817 16:02:21.582360 17829 net.cpp:165] Memory required for data: 452097500
I0817 16:02:21.582378 17829 layer_factory.hpp:77] Creating layer L1_b5_cbr2_bn
I0817 16:02:21.582401 17829 net.cpp:100] Creating Layer L1_b5_cbr2_bn
I0817 16:02:21.582412 17829 net.cpp:434] L1_b5_cbr2_bn <- L1_b5_cbr2_conv_top
I0817 16:02:21.582428 17829 net.cpp:408] L1_b5_cbr2_bn -> L1_b5_cbr2_bn_top
I0817 16:02:21.582702 17829 net.cpp:150] Setting up L1_b5_cbr2_bn
I0817 16:02:21.582721 17829 net.cpp:157] Top shape: 125 16 32 32 (2048000)
I0817 16:02:21.582731 17829 net.cpp:165] Memory required for data: 460289500
I0817 16:02:21.582751 17829 layer_factory.hpp:77] Creating layer L1_b5_cbr2_scale
I0817 16:02:21.582768 17829 net.cpp:100] Creating Layer L1_b5_cbr2_scale
I0817 16:02:21.582779 17829 net.cpp:434] L1_b5_cbr2_scale <- L1_b5_cbr2_bn_top
I0817 16:02:21.582799 17829 net.cpp:395] L1_b5_cbr2_scale -> L1_b5_cbr2_bn_top (in-place)
I0817 16:02:21.582885 17829 layer_factory.hpp:77] Creating layer L1_b5_cbr2_scale
I0817 16:02:21.583055 17829 net.cpp:150] Setting up L1_b5_cbr2_scale
I0817 16:02:21.583081 17829 net.cpp:157] Top shape: 125 16 32 32 (2048000)
I0817 16:02:21.583091 17829 net.cpp:165] Memory required for data: 468481500
I0817 16:02:21.583111 17829 layer_factory.hpp:77] Creating layer L1_b5_sum_eltwise
I0817 16:02:21.583127 17829 net.cpp:100] Creating Layer L1_b5_sum_eltwise
I0817 16:02:21.583138 17829 net.cpp:434] L1_b5_sum_eltwise <- L1_b5_cbr2_bn_top
I0817 16:02:21.583153 17829 net.cpp:434] L1_b5_sum_eltwise <- L1_b4_sum_eltwise_top_L1_b4_relu_0_split_1
I0817 16:02:21.583168 17829 net.cpp:408] L1_b5_sum_eltwise -> L1_b5_sum_eltwise_top
I0817 16:02:21.583225 17829 net.cpp:150] Setting up L1_b5_sum_eltwise
I0817 16:02:21.583243 17829 net.cpp:157] Top shape: 125 16 32 32 (2048000)
I0817 16:02:21.583252 17829 net.cpp:165] Memory required for data: 476673500
I0817 16:02:21.583263 17829 layer_factory.hpp:77] Creating layer L1_b5_relu
I0817 16:02:21.583282 17829 net.cpp:100] Creating Layer L1_b5_relu
I0817 16:02:21.583294 17829 net.cpp:434] L1_b5_relu <- L1_b5_sum_eltwise_top
I0817 16:02:21.583307 17829 net.cpp:395] L1_b5_relu -> L1_b5_sum_eltwise_top (in-place)
I0817 16:02:21.583325 17829 net.cpp:150] Setting up L1_b5_relu
I0817 16:02:21.583341 17829 net.cpp:157] Top shape: 125 16 32 32 (2048000)
I0817 16:02:21.583350 17829 net.cpp:165] Memory required for data: 484865500
I0817 16:02:21.583360 17829 layer_factory.hpp:77] Creating layer L1_b5_sum_eltwise_top_L1_b5_relu_0_split
I0817 16:02:21.583379 17829 net.cpp:100] Creating Layer L1_b5_sum_eltwise_top_L1_b5_relu_0_split
I0817 16:02:21.583390 17829 net.cpp:434] L1_b5_sum_eltwise_top_L1_b5_relu_0_split <- L1_b5_sum_eltwise_top
I0817 16:02:21.583405 17829 net.cpp:408] L1_b5_sum_eltwise_top_L1_b5_relu_0_split -> L1_b5_sum_eltwise_top_L1_b5_relu_0_split_0
I0817 16:02:21.583425 17829 net.cpp:408] L1_b5_sum_eltwise_top_L1_b5_relu_0_split -> L1_b5_sum_eltwise_top_L1_b5_relu_0_split_1
I0817 16:02:21.583501 17829 net.cpp:150] Setting up L1_b5_sum_eltwise_top_L1_b5_relu_0_split
I0817 16:02:21.583526 17829 net.cpp:157] Top shape: 125 16 32 32 (2048000)
I0817 16:02:21.583542 17829 net.cpp:157] Top shape: 125 16 32 32 (2048000)
I0817 16:02:21.583554 17829 net.cpp:165] Memory required for data: 501249500
I0817 16:02:21.583564 17829 layer_factory.hpp:77] Creating layer L1_b6_cbr1_conv
I0817 16:02:21.583590 17829 net.cpp:100] Creating Layer L1_b6_cbr1_conv
I0817 16:02:21.583603 17829 net.cpp:434] L1_b6_cbr1_conv <- L1_b5_sum_eltwise_top_L1_b5_relu_0_split_0
I0817 16:02:21.583621 17829 net.cpp:408] L1_b6_cbr1_conv -> L1_b6_cbr1_conv_top
I0817 16:02:21.583978 17829 net.cpp:150] Setting up L1_b6_cbr1_conv
I0817 16:02:21.583997 17829 net.cpp:157] Top shape: 125 16 32 32 (2048000)
I0817 16:02:21.584007 17829 net.cpp:165] Memory required for data: 509441500
I0817 16:02:21.584034 17829 layer_factory.hpp:77] Creating layer L1_b6_cbr1_bn
I0817 16:02:21.584056 17829 net.cpp:100] Creating Layer L1_b6_cbr1_bn
I0817 16:02:21.584069 17829 net.cpp:434] L1_b6_cbr1_bn <- L1_b6_cbr1_conv_top
I0817 16:02:21.584086 17829 net.cpp:408] L1_b6_cbr1_bn -> L1_b6_cbr1_bn_top
I0817 16:02:21.584367 17829 net.cpp:150] Setting up L1_b6_cbr1_bn
I0817 16:02:21.584386 17829 net.cpp:157] Top shape: 125 16 32 32 (2048000)
I0817 16:02:21.584396 17829 net.cpp:165] Memory required for data: 517633500
I0817 16:02:21.584417 17829 layer_factory.hpp:77] Creating layer L1_b6_cbr1_scale
I0817 16:02:21.584434 17829 net.cpp:100] Creating Layer L1_b6_cbr1_scale
I0817 16:02:21.584446 17829 net.cpp:434] L1_b6_cbr1_scale <- L1_b6_cbr1_bn_top
I0817 16:02:21.584466 17829 net.cpp:395] L1_b6_cbr1_scale -> L1_b6_cbr1_bn_top (in-place)
I0817 16:02:21.584553 17829 layer_factory.hpp:77] Creating layer L1_b6_cbr1_scale
I0817 16:02:21.584739 17829 net.cpp:150] Setting up L1_b6_cbr1_scale
I0817 16:02:21.584758 17829 net.cpp:157] Top shape: 125 16 32 32 (2048000)
I0817 16:02:21.584767 17829 net.cpp:165] Memory required for data: 525825500
I0817 16:02:21.584786 17829 layer_factory.hpp:77] Creating layer L1_b6_cbr1_relu
I0817 16:02:21.584802 17829 net.cpp:100] Creating Layer L1_b6_cbr1_relu
I0817 16:02:21.584813 17829 net.cpp:434] L1_b6_cbr1_relu <- L1_b6_cbr1_bn_top
I0817 16:02:21.584827 17829 net.cpp:395] L1_b6_cbr1_relu -> L1_b6_cbr1_bn_top (in-place)
I0817 16:02:21.584846 17829 net.cpp:150] Setting up L1_b6_cbr1_relu
I0817 16:02:21.584861 17829 net.cpp:157] Top shape: 125 16 32 32 (2048000)
I0817 16:02:21.584870 17829 net.cpp:165] Memory required for data: 534017500
I0817 16:02:21.584880 17829 layer_factory.hpp:77] Creating layer L1_b6_cbr2_conv
I0817 16:02:21.584904 17829 net.cpp:100] Creating Layer L1_b6_cbr2_conv
I0817 16:02:21.584918 17829 net.cpp:434] L1_b6_cbr2_conv <- L1_b6_cbr1_bn_top
I0817 16:02:21.584939 17829 net.cpp:408] L1_b6_cbr2_conv -> L1_b6_cbr2_conv_top
I0817 16:02:21.585300 17829 net.cpp:150] Setting up L1_b6_cbr2_conv
I0817 16:02:21.585320 17829 net.cpp:157] Top shape: 125 16 32 32 (2048000)
I0817 16:02:21.585330 17829 net.cpp:165] Memory required for data: 542209500
I0817 16:02:21.585347 17829 layer_factory.hpp:77] Creating layer L1_b6_cbr2_bn
I0817 16:02:21.585369 17829 net.cpp:100] Creating Layer L1_b6_cbr2_bn
I0817 16:02:21.585381 17829 net.cpp:434] L1_b6_cbr2_bn <- L1_b6_cbr2_conv_top
I0817 16:02:21.585402 17829 net.cpp:408] L1_b6_cbr2_bn -> L1_b6_cbr2_bn_top
I0817 16:02:21.585680 17829 net.cpp:150] Setting up L1_b6_cbr2_bn
I0817 16:02:21.585700 17829 net.cpp:157] Top shape: 125 16 32 32 (2048000)
I0817 16:02:21.585710 17829 net.cpp:165] Memory required for data: 550401500
I0817 16:02:21.585731 17829 layer_factory.hpp:77] Creating layer L1_b6_cbr2_scale
I0817 16:02:21.585748 17829 net.cpp:100] Creating Layer L1_b6_cbr2_scale
I0817 16:02:21.585759 17829 net.cpp:434] L1_b6_cbr2_scale <- L1_b6_cbr2_bn_top
I0817 16:02:21.585779 17829 net.cpp:395] L1_b6_cbr2_scale -> L1_b6_cbr2_bn_top (in-place)
I0817 16:02:21.585870 17829 layer_factory.hpp:77] Creating layer L1_b6_cbr2_scale
I0817 16:02:21.586045 17829 net.cpp:150] Setting up L1_b6_cbr2_scale
I0817 16:02:21.586068 17829 net.cpp:157] Top shape: 125 16 32 32 (2048000)
I0817 16:02:21.586079 17829 net.cpp:165] Memory required for data: 558593500
I0817 16:02:21.586097 17829 layer_factory.hpp:77] Creating layer L1_b6_sum_eltwise
I0817 16:02:21.586125 17829 net.cpp:100] Creating Layer L1_b6_sum_eltwise
I0817 16:02:21.586138 17829 net.cpp:434] L1_b6_sum_eltwise <- L1_b6_cbr2_bn_top
I0817 16:02:21.586153 17829 net.cpp:434] L1_b6_sum_eltwise <- L1_b5_sum_eltwise_top_L1_b5_relu_0_split_1
I0817 16:02:21.586166 17829 net.cpp:408] L1_b6_sum_eltwise -> L1_b6_sum_eltwise_top
I0817 16:02:21.586225 17829 net.cpp:150] Setting up L1_b6_sum_eltwise
I0817 16:02:21.586243 17829 net.cpp:157] Top shape: 125 16 32 32 (2048000)
I0817 16:02:21.586253 17829 net.cpp:165] Memory required for data: 566785500
I0817 16:02:21.586264 17829 layer_factory.hpp:77] Creating layer L1_b6_relu
I0817 16:02:21.586292 17829 net.cpp:100] Creating Layer L1_b6_relu
I0817 16:02:21.586303 17829 net.cpp:434] L1_b6_relu <- L1_b6_sum_eltwise_top
I0817 16:02:21.586323 17829 net.cpp:395] L1_b6_relu -> L1_b6_sum_eltwise_top (in-place)
I0817 16:02:21.586343 17829 net.cpp:150] Setting up L1_b6_relu
I0817 16:02:21.586359 17829 net.cpp:157] Top shape: 125 16 32 32 (2048000)
I0817 16:02:21.586369 17829 net.cpp:165] Memory required for data: 574977500
I0817 16:02:21.586378 17829 layer_factory.hpp:77] Creating layer L1_b6_sum_eltwise_top_L1_b6_relu_0_split
I0817 16:02:21.586392 17829 net.cpp:100] Creating Layer L1_b6_sum_eltwise_top_L1_b6_relu_0_split
I0817 16:02:21.586403 17829 net.cpp:434] L1_b6_sum_eltwise_top_L1_b6_relu_0_split <- L1_b6_sum_eltwise_top
I0817 16:02:21.586417 17829 net.cpp:408] L1_b6_sum_eltwise_top_L1_b6_relu_0_split -> L1_b6_sum_eltwise_top_L1_b6_relu_0_split_0
I0817 16:02:21.586437 17829 net.cpp:408] L1_b6_sum_eltwise_top_L1_b6_relu_0_split -> L1_b6_sum_eltwise_top_L1_b6_relu_0_split_1
I0817 16:02:21.586519 17829 net.cpp:150] Setting up L1_b6_sum_eltwise_top_L1_b6_relu_0_split
I0817 16:02:21.586540 17829 net.cpp:157] Top shape: 125 16 32 32 (2048000)
I0817 16:02:21.586554 17829 net.cpp:157] Top shape: 125 16 32 32 (2048000)
I0817 16:02:21.586565 17829 net.cpp:165] Memory required for data: 591361500
I0817 16:02:21.586575 17829 layer_factory.hpp:77] Creating layer L1_b7_cbr1_conv
I0817 16:02:21.586601 17829 net.cpp:100] Creating Layer L1_b7_cbr1_conv
I0817 16:02:21.586616 17829 net.cpp:434] L1_b7_cbr1_conv <- L1_b6_sum_eltwise_top_L1_b6_relu_0_split_0
I0817 16:02:21.586637 17829 net.cpp:408] L1_b7_cbr1_conv -> L1_b7_cbr1_conv_top
I0817 16:02:21.586995 17829 net.cpp:150] Setting up L1_b7_cbr1_conv
I0817 16:02:21.587014 17829 net.cpp:157] Top shape: 125 16 32 32 (2048000)
I0817 16:02:21.587023 17829 net.cpp:165] Memory required for data: 599553500
I0817 16:02:21.587041 17829 layer_factory.hpp:77] Creating layer L1_b7_cbr1_bn
I0817 16:02:21.587059 17829 net.cpp:100] Creating Layer L1_b7_cbr1_bn
I0817 16:02:21.587069 17829 net.cpp:434] L1_b7_cbr1_bn <- L1_b7_cbr1_conv_top
I0817 16:02:21.587093 17829 net.cpp:408] L1_b7_cbr1_bn -> L1_b7_cbr1_bn_top
I0817 16:02:21.587369 17829 net.cpp:150] Setting up L1_b7_cbr1_bn
I0817 16:02:21.587388 17829 net.cpp:157] Top shape: 125 16 32 32 (2048000)
I0817 16:02:21.587397 17829 net.cpp:165] Memory required for data: 607745500
I0817 16:02:21.587419 17829 layer_factory.hpp:77] Creating layer L1_b7_cbr1_scale
I0817 16:02:21.587441 17829 net.cpp:100] Creating Layer L1_b7_cbr1_scale
I0817 16:02:21.587453 17829 net.cpp:434] L1_b7_cbr1_scale <- L1_b7_cbr1_bn_top
I0817 16:02:21.587468 17829 net.cpp:395] L1_b7_cbr1_scale -> L1_b7_cbr1_bn_top (in-place)
I0817 16:02:21.587553 17829 layer_factory.hpp:77] Creating layer L1_b7_cbr1_scale
I0817 16:02:21.587733 17829 net.cpp:150] Setting up L1_b7_cbr1_scale
I0817 16:02:21.587751 17829 net.cpp:157] Top shape: 125 16 32 32 (2048000)
I0817 16:02:21.587761 17829 net.cpp:165] Memory required for data: 615937500
I0817 16:02:21.587779 17829 layer_factory.hpp:77] Creating layer L1_b7_cbr1_relu
I0817 16:02:21.587805 17829 net.cpp:100] Creating Layer L1_b7_cbr1_relu
I0817 16:02:21.587817 17829 net.cpp:434] L1_b7_cbr1_relu <- L1_b7_cbr1_bn_top
I0817 16:02:21.587832 17829 net.cpp:395] L1_b7_cbr1_relu -> L1_b7_cbr1_bn_top (in-place)
I0817 16:02:21.587851 17829 net.cpp:150] Setting up L1_b7_cbr1_relu
I0817 16:02:21.587867 17829 net.cpp:157] Top shape: 125 16 32 32 (2048000)
I0817 16:02:21.587877 17829 net.cpp:165] Memory required for data: 624129500
I0817 16:02:21.587887 17829 layer_factory.hpp:77] Creating layer L1_b7_cbr2_conv
I0817 16:02:21.587913 17829 net.cpp:100] Creating Layer L1_b7_cbr2_conv
I0817 16:02:21.587926 17829 net.cpp:434] L1_b7_cbr2_conv <- L1_b7_cbr1_bn_top
I0817 16:02:21.587947 17829 net.cpp:408] L1_b7_cbr2_conv -> L1_b7_cbr2_conv_top
I0817 16:02:21.588299 17829 net.cpp:150] Setting up L1_b7_cbr2_conv
I0817 16:02:21.588318 17829 net.cpp:157] Top shape: 125 16 32 32 (2048000)
I0817 16:02:21.588328 17829 net.cpp:165] Memory required for data: 632321500
I0817 16:02:21.588357 17829 layer_factory.hpp:77] Creating layer L1_b7_cbr2_bn
I0817 16:02:21.588376 17829 net.cpp:100] Creating Layer L1_b7_cbr2_bn
I0817 16:02:21.588387 17829 net.cpp:434] L1_b7_cbr2_bn <- L1_b7_cbr2_conv_top
I0817 16:02:21.588403 17829 net.cpp:408] L1_b7_cbr2_bn -> L1_b7_cbr2_bn_top
I0817 16:02:21.588698 17829 net.cpp:150] Setting up L1_b7_cbr2_bn
I0817 16:02:21.588717 17829 net.cpp:157] Top shape: 125 16 32 32 (2048000)
I0817 16:02:21.588727 17829 net.cpp:165] Memory required for data: 640513500
I0817 16:02:21.588748 17829 layer_factory.hpp:77] Creating layer L1_b7_cbr2_scale
I0817 16:02:21.588769 17829 net.cpp:100] Creating Layer L1_b7_cbr2_scale
I0817 16:02:21.588783 17829 net.cpp:434] L1_b7_cbr2_scale <- L1_b7_cbr2_bn_top
I0817 16:02:21.588798 17829 net.cpp:395] L1_b7_cbr2_scale -> L1_b7_cbr2_bn_top (in-place)
I0817 16:02:21.588887 17829 layer_factory.hpp:77] Creating layer L1_b7_cbr2_scale
I0817 16:02:21.589063 17829 net.cpp:150] Setting up L1_b7_cbr2_scale
I0817 16:02:21.589082 17829 net.cpp:157] Top shape: 125 16 32 32 (2048000)
I0817 16:02:21.589092 17829 net.cpp:165] Memory required for data: 648705500
I0817 16:02:21.589110 17829 layer_factory.hpp:77] Creating layer L1_b7_sum_eltwise
I0817 16:02:21.589128 17829 net.cpp:100] Creating Layer L1_b7_sum_eltwise
I0817 16:02:21.589138 17829 net.cpp:434] L1_b7_sum_eltwise <- L1_b7_cbr2_bn_top
I0817 16:02:21.589151 17829 net.cpp:434] L1_b7_sum_eltwise <- L1_b6_sum_eltwise_top_L1_b6_relu_0_split_1
I0817 16:02:21.589174 17829 net.cpp:408] L1_b7_sum_eltwise -> L1_b7_sum_eltwise_top
I0817 16:02:21.589233 17829 net.cpp:150] Setting up L1_b7_sum_eltwise
I0817 16:02:21.589251 17829 net.cpp:157] Top shape: 125 16 32 32 (2048000)
I0817 16:02:21.589262 17829 net.cpp:165] Memory required for data: 656897500
I0817 16:02:21.589272 17829 layer_factory.hpp:77] Creating layer L1_b7_relu
I0817 16:02:21.589287 17829 net.cpp:100] Creating Layer L1_b7_relu
I0817 16:02:21.589299 17829 net.cpp:434] L1_b7_relu <- L1_b7_sum_eltwise_top
I0817 16:02:21.589318 17829 net.cpp:395] L1_b7_relu -> L1_b7_sum_eltwise_top (in-place)
I0817 16:02:21.589336 17829 net.cpp:150] Setting up L1_b7_relu
I0817 16:02:21.589351 17829 net.cpp:157] Top shape: 125 16 32 32 (2048000)
I0817 16:02:21.589360 17829 net.cpp:165] Memory required for data: 665089500
I0817 16:02:21.589371 17829 layer_factory.hpp:77] Creating layer L1_b7_sum_eltwise_top_L1_b7_relu_0_split
I0817 16:02:21.589385 17829 net.cpp:100] Creating Layer L1_b7_sum_eltwise_top_L1_b7_relu_0_split
I0817 16:02:21.589396 17829 net.cpp:434] L1_b7_sum_eltwise_top_L1_b7_relu_0_split <- L1_b7_sum_eltwise_top
I0817 16:02:21.589411 17829 net.cpp:408] L1_b7_sum_eltwise_top_L1_b7_relu_0_split -> L1_b7_sum_eltwise_top_L1_b7_relu_0_split_0
I0817 16:02:21.589431 17829 net.cpp:408] L1_b7_sum_eltwise_top_L1_b7_relu_0_split -> L1_b7_sum_eltwise_top_L1_b7_relu_0_split_1
I0817 16:02:21.589510 17829 net.cpp:150] Setting up L1_b7_sum_eltwise_top_L1_b7_relu_0_split
I0817 16:02:21.589531 17829 net.cpp:157] Top shape: 125 16 32 32 (2048000)
I0817 16:02:21.589545 17829 net.cpp:157] Top shape: 125 16 32 32 (2048000)
I0817 16:02:21.589555 17829 net.cpp:165] Memory required for data: 681473500
I0817 16:02:21.589565 17829 layer_factory.hpp:77] Creating layer L1_b8_cbr1_conv
I0817 16:02:21.589591 17829 net.cpp:100] Creating Layer L1_b8_cbr1_conv
I0817 16:02:21.589607 17829 net.cpp:434] L1_b8_cbr1_conv <- L1_b7_sum_eltwise_top_L1_b7_relu_0_split_0
I0817 16:02:21.589628 17829 net.cpp:408] L1_b8_cbr1_conv -> L1_b8_cbr1_conv_top
I0817 16:02:21.589987 17829 net.cpp:150] Setting up L1_b8_cbr1_conv
I0817 16:02:21.590005 17829 net.cpp:157] Top shape: 125 16 32 32 (2048000)
I0817 16:02:21.590015 17829 net.cpp:165] Memory required for data: 689665500
I0817 16:02:21.590034 17829 layer_factory.hpp:77] Creating layer L1_b8_cbr1_bn
I0817 16:02:21.590050 17829 net.cpp:100] Creating Layer L1_b8_cbr1_bn
I0817 16:02:21.590062 17829 net.cpp:434] L1_b8_cbr1_bn <- L1_b8_cbr1_conv_top
I0817 16:02:21.590085 17829 net.cpp:408] L1_b8_cbr1_bn -> L1_b8_cbr1_bn_top
I0817 16:02:21.590401 17829 net.cpp:150] Setting up L1_b8_cbr1_bn
I0817 16:02:21.590421 17829 net.cpp:157] Top shape: 125 16 32 32 (2048000)
I0817 16:02:21.590431 17829 net.cpp:165] Memory required for data: 697857500
I0817 16:02:21.590452 17829 layer_factory.hpp:77] Creating layer L1_b8_cbr1_scale
I0817 16:02:21.590473 17829 net.cpp:100] Creating Layer L1_b8_cbr1_scale
I0817 16:02:21.590486 17829 net.cpp:434] L1_b8_cbr1_scale <- L1_b8_cbr1_bn_top
I0817 16:02:21.590502 17829 net.cpp:395] L1_b8_cbr1_scale -> L1_b8_cbr1_bn_top (in-place)
I0817 16:02:21.590590 17829 layer_factory.hpp:77] Creating layer L1_b8_cbr1_scale
I0817 16:02:21.590772 17829 net.cpp:150] Setting up L1_b8_cbr1_scale
I0817 16:02:21.590792 17829 net.cpp:157] Top shape: 125 16 32 32 (2048000)
I0817 16:02:21.590801 17829 net.cpp:165] Memory required for data: 706049500
I0817 16:02:21.590821 17829 layer_factory.hpp:77] Creating layer L1_b8_cbr1_relu
I0817 16:02:21.590837 17829 net.cpp:100] Creating Layer L1_b8_cbr1_relu
I0817 16:02:21.590847 17829 net.cpp:434] L1_b8_cbr1_relu <- L1_b8_cbr1_bn_top
I0817 16:02:21.590867 17829 net.cpp:395] L1_b8_cbr1_relu -> L1_b8_cbr1_bn_top (in-place)
I0817 16:02:21.590886 17829 net.cpp:150] Setting up L1_b8_cbr1_relu
I0817 16:02:21.590901 17829 net.cpp:157] Top shape: 125 16 32 32 (2048000)
I0817 16:02:21.590912 17829 net.cpp:165] Memory required for data: 714241500
I0817 16:02:21.590922 17829 layer_factory.hpp:77] Creating layer L1_b8_cbr2_conv
I0817 16:02:21.590946 17829 net.cpp:100] Creating Layer L1_b8_cbr2_conv
I0817 16:02:21.590960 17829 net.cpp:434] L1_b8_cbr2_conv <- L1_b8_cbr1_bn_top
I0817 16:02:21.590981 17829 net.cpp:408] L1_b8_cbr2_conv -> L1_b8_cbr2_conv_top
I0817 16:02:21.591337 17829 net.cpp:150] Setting up L1_b8_cbr2_conv
I0817 16:02:21.591357 17829 net.cpp:157] Top shape: 125 16 32 32 (2048000)
I0817 16:02:21.591367 17829 net.cpp:165] Memory required for data: 722433500
I0817 16:02:21.591383 17829 layer_factory.hpp:77] Creating layer L1_b8_cbr2_bn
I0817 16:02:21.591400 17829 net.cpp:100] Creating Layer L1_b8_cbr2_bn
I0817 16:02:21.591413 17829 net.cpp:434] L1_b8_cbr2_bn <- L1_b8_cbr2_conv_top
I0817 16:02:21.591428 17829 net.cpp:408] L1_b8_cbr2_bn -> L1_b8_cbr2_bn_top
I0817 16:02:21.591722 17829 net.cpp:150] Setting up L1_b8_cbr2_bn
I0817 16:02:21.591740 17829 net.cpp:157] Top shape: 125 16 32 32 (2048000)
I0817 16:02:21.591750 17829 net.cpp:165] Memory required for data: 730625500
I0817 16:02:21.591773 17829 layer_factory.hpp:77] Creating layer L1_b8_cbr2_scale
I0817 16:02:21.591794 17829 net.cpp:100] Creating Layer L1_b8_cbr2_scale
I0817 16:02:21.591807 17829 net.cpp:434] L1_b8_cbr2_scale <- L1_b8_cbr2_bn_top
I0817 16:02:21.591823 17829 net.cpp:395] L1_b8_cbr2_scale -> L1_b8_cbr2_bn_top (in-place)
I0817 16:02:21.591909 17829 layer_factory.hpp:77] Creating layer L1_b8_cbr2_scale
I0817 16:02:21.592088 17829 net.cpp:150] Setting up L1_b8_cbr2_scale
I0817 16:02:21.592108 17829 net.cpp:157] Top shape: 125 16 32 32 (2048000)
I0817 16:02:21.592118 17829 net.cpp:165] Memory required for data: 738817500
I0817 16:02:21.592135 17829 layer_factory.hpp:77] Creating layer L1_b8_sum_eltwise
I0817 16:02:21.592152 17829 net.cpp:100] Creating Layer L1_b8_sum_eltwise
I0817 16:02:21.592164 17829 net.cpp:434] L1_b8_sum_eltwise <- L1_b8_cbr2_bn_top
I0817 16:02:21.592177 17829 net.cpp:434] L1_b8_sum_eltwise <- L1_b7_sum_eltwise_top_L1_b7_relu_0_split_1
I0817 16:02:21.592197 17829 net.cpp:408] L1_b8_sum_eltwise -> L1_b8_sum_eltwise_top
I0817 16:02:21.592252 17829 net.cpp:150] Setting up L1_b8_sum_eltwise
I0817 16:02:21.592274 17829 net.cpp:157] Top shape: 125 16 32 32 (2048000)
I0817 16:02:21.592285 17829 net.cpp:165] Memory required for data: 747009500
I0817 16:02:21.592295 17829 layer_factory.hpp:77] Creating layer L1_b8_relu
I0817 16:02:21.592309 17829 net.cpp:100] Creating Layer L1_b8_relu
I0817 16:02:21.592321 17829 net.cpp:434] L1_b8_relu <- L1_b8_sum_eltwise_top
I0817 16:02:21.592335 17829 net.cpp:395] L1_b8_relu -> L1_b8_sum_eltwise_top (in-place)
I0817 16:02:21.592353 17829 net.cpp:150] Setting up L1_b8_relu
I0817 16:02:21.592378 17829 net.cpp:157] Top shape: 125 16 32 32 (2048000)
I0817 16:02:21.592388 17829 net.cpp:165] Memory required for data: 755201500
I0817 16:02:21.592398 17829 layer_factory.hpp:77] Creating layer L1_b8_sum_eltwise_top_L1_b8_relu_0_split
I0817 16:02:21.592417 17829 net.cpp:100] Creating Layer L1_b8_sum_eltwise_top_L1_b8_relu_0_split
I0817 16:02:21.592428 17829 net.cpp:434] L1_b8_sum_eltwise_top_L1_b8_relu_0_split <- L1_b8_sum_eltwise_top
I0817 16:02:21.592444 17829 net.cpp:408] L1_b8_sum_eltwise_top_L1_b8_relu_0_split -> L1_b8_sum_eltwise_top_L1_b8_relu_0_split_0
I0817 16:02:21.592464 17829 net.cpp:408] L1_b8_sum_eltwise_top_L1_b8_relu_0_split -> L1_b8_sum_eltwise_top_L1_b8_relu_0_split_1
I0817 16:02:21.592548 17829 net.cpp:150] Setting up L1_b8_sum_eltwise_top_L1_b8_relu_0_split
I0817 16:02:21.592567 17829 net.cpp:157] Top shape: 125 16 32 32 (2048000)
I0817 16:02:21.592587 17829 net.cpp:157] Top shape: 125 16 32 32 (2048000)
I0817 16:02:21.592598 17829 net.cpp:165] Memory required for data: 771585500
I0817 16:02:21.592609 17829 layer_factory.hpp:77] Creating layer L1_b9_cbr1_conv
I0817 16:02:21.592628 17829 net.cpp:100] Creating Layer L1_b9_cbr1_conv
I0817 16:02:21.592641 17829 net.cpp:434] L1_b9_cbr1_conv <- L1_b8_sum_eltwise_top_L1_b8_relu_0_split_0
I0817 16:02:21.592664 17829 net.cpp:408] L1_b9_cbr1_conv -> L1_b9_cbr1_conv_top
I0817 16:02:21.593031 17829 net.cpp:150] Setting up L1_b9_cbr1_conv
I0817 16:02:21.593052 17829 net.cpp:157] Top shape: 125 16 32 32 (2048000)
I0817 16:02:21.593062 17829 net.cpp:165] Memory required for data: 779777500
I0817 16:02:21.593080 17829 layer_factory.hpp:77] Creating layer L1_b9_cbr1_bn
I0817 16:02:21.593102 17829 net.cpp:100] Creating Layer L1_b9_cbr1_bn
I0817 16:02:21.593114 17829 net.cpp:434] L1_b9_cbr1_bn <- L1_b9_cbr1_conv_top
I0817 16:02:21.593132 17829 net.cpp:408] L1_b9_cbr1_bn -> L1_b9_cbr1_bn_top
I0817 16:02:21.593415 17829 net.cpp:150] Setting up L1_b9_cbr1_bn
I0817 16:02:21.593433 17829 net.cpp:157] Top shape: 125 16 32 32 (2048000)
I0817 16:02:21.593443 17829 net.cpp:165] Memory required for data: 787969500
I0817 16:02:21.593466 17829 layer_factory.hpp:77] Creating layer L1_b9_cbr1_scale
I0817 16:02:21.593482 17829 net.cpp:100] Creating Layer L1_b9_cbr1_scale
I0817 16:02:21.593492 17829 net.cpp:434] L1_b9_cbr1_scale <- L1_b9_cbr1_bn_top
I0817 16:02:21.593508 17829 net.cpp:395] L1_b9_cbr1_scale -> L1_b9_cbr1_bn_top (in-place)
I0817 16:02:21.593602 17829 layer_factory.hpp:77] Creating layer L1_b9_cbr1_scale
I0817 16:02:21.593786 17829 net.cpp:150] Setting up L1_b9_cbr1_scale
I0817 16:02:21.593806 17829 net.cpp:157] Top shape: 125 16 32 32 (2048000)
I0817 16:02:21.593816 17829 net.cpp:165] Memory required for data: 796161500
I0817 16:02:21.593833 17829 layer_factory.hpp:77] Creating layer L1_b9_cbr1_relu
I0817 16:02:21.593849 17829 net.cpp:100] Creating Layer L1_b9_cbr1_relu
I0817 16:02:21.593860 17829 net.cpp:434] L1_b9_cbr1_relu <- L1_b9_cbr1_bn_top
I0817 16:02:21.593880 17829 net.cpp:395] L1_b9_cbr1_relu -> L1_b9_cbr1_bn_top (in-place)
I0817 16:02:21.593899 17829 net.cpp:150] Setting up L1_b9_cbr1_relu
I0817 16:02:21.593914 17829 net.cpp:157] Top shape: 125 16 32 32 (2048000)
I0817 16:02:21.593924 17829 net.cpp:165] Memory required for data: 804353500
I0817 16:02:21.593935 17829 layer_factory.hpp:77] Creating layer L1_b9_cbr2_conv
I0817 16:02:21.593963 17829 net.cpp:100] Creating Layer L1_b9_cbr2_conv
I0817 16:02:21.593977 17829 net.cpp:434] L1_b9_cbr2_conv <- L1_b9_cbr1_bn_top
I0817 16:02:21.593993 17829 net.cpp:408] L1_b9_cbr2_conv -> L1_b9_cbr2_conv_top
I0817 16:02:21.594352 17829 net.cpp:150] Setting up L1_b9_cbr2_conv
I0817 16:02:21.594372 17829 net.cpp:157] Top shape: 125 16 32 32 (2048000)
I0817 16:02:21.594382 17829 net.cpp:165] Memory required for data: 812545500
I0817 16:02:21.594399 17829 layer_factory.hpp:77] Creating layer L1_b9_cbr2_bn
I0817 16:02:21.594416 17829 net.cpp:100] Creating Layer L1_b9_cbr2_bn
I0817 16:02:21.594427 17829 net.cpp:434] L1_b9_cbr2_bn <- L1_b9_cbr2_conv_top
I0817 16:02:21.594449 17829 net.cpp:408] L1_b9_cbr2_bn -> L1_b9_cbr2_bn_top
I0817 16:02:21.594750 17829 net.cpp:150] Setting up L1_b9_cbr2_bn
I0817 16:02:21.594774 17829 net.cpp:157] Top shape: 125 16 32 32 (2048000)
I0817 16:02:21.594784 17829 net.cpp:165] Memory required for data: 820737500
I0817 16:02:21.594836 17829 layer_factory.hpp:77] Creating layer L1_b9_cbr2_scale
I0817 16:02:21.594856 17829 net.cpp:100] Creating Layer L1_b9_cbr2_scale
I0817 16:02:21.594868 17829 net.cpp:434] L1_b9_cbr2_scale <- L1_b9_cbr2_bn_top
I0817 16:02:21.594883 17829 net.cpp:395] L1_b9_cbr2_scale -> L1_b9_cbr2_bn_top (in-place)
I0817 16:02:21.594977 17829 layer_factory.hpp:77] Creating layer L1_b9_cbr2_scale
I0817 16:02:21.595155 17829 net.cpp:150] Setting up L1_b9_cbr2_scale
I0817 16:02:21.595173 17829 net.cpp:157] Top shape: 125 16 32 32 (2048000)
I0817 16:02:21.595183 17829 net.cpp:165] Memory required for data: 828929500
I0817 16:02:21.595201 17829 layer_factory.hpp:77] Creating layer L1_b9_sum_eltwise
I0817 16:02:21.595218 17829 net.cpp:100] Creating Layer L1_b9_sum_eltwise
I0817 16:02:21.595229 17829 net.cpp:434] L1_b9_sum_eltwise <- L1_b9_cbr2_bn_top
I0817 16:02:21.595247 17829 net.cpp:434] L1_b9_sum_eltwise <- L1_b8_sum_eltwise_top_L1_b8_relu_0_split_1
I0817 16:02:21.595264 17829 net.cpp:408] L1_b9_sum_eltwise -> L1_b9_sum_eltwise_top
I0817 16:02:21.595316 17829 net.cpp:150] Setting up L1_b9_sum_eltwise
I0817 16:02:21.595335 17829 net.cpp:157] Top shape: 125 16 32 32 (2048000)
I0817 16:02:21.595345 17829 net.cpp:165] Memory required for data: 837121500
I0817 16:02:21.595355 17829 layer_factory.hpp:77] Creating layer L1_b9_relu
I0817 16:02:21.595369 17829 net.cpp:100] Creating Layer L1_b9_relu
I0817 16:02:21.595381 17829 net.cpp:434] L1_b9_relu <- L1_b9_sum_eltwise_top
I0817 16:02:21.595399 17829 net.cpp:395] L1_b9_relu -> L1_b9_sum_eltwise_top (in-place)
I0817 16:02:21.595418 17829 net.cpp:150] Setting up L1_b9_relu
I0817 16:02:21.595434 17829 net.cpp:157] Top shape: 125 16 32 32 (2048000)
I0817 16:02:21.595444 17829 net.cpp:165] Memory required for data: 845313500
I0817 16:02:21.595453 17829 layer_factory.hpp:77] Creating layer L1_b9_sum_eltwise_top_L1_b9_relu_0_split
I0817 16:02:21.595468 17829 net.cpp:100] Creating Layer L1_b9_sum_eltwise_top_L1_b9_relu_0_split
I0817 16:02:21.595479 17829 net.cpp:434] L1_b9_sum_eltwise_top_L1_b9_relu_0_split <- L1_b9_sum_eltwise_top
I0817 16:02:21.595500 17829 net.cpp:408] L1_b9_sum_eltwise_top_L1_b9_relu_0_split -> L1_b9_sum_eltwise_top_L1_b9_relu_0_split_0
I0817 16:02:21.595522 17829 net.cpp:408] L1_b9_sum_eltwise_top_L1_b9_relu_0_split -> L1_b9_sum_eltwise_top_L1_b9_relu_0_split_1
I0817 16:02:21.595605 17829 net.cpp:150] Setting up L1_b9_sum_eltwise_top_L1_b9_relu_0_split
I0817 16:02:21.595624 17829 net.cpp:157] Top shape: 125 16 32 32 (2048000)
I0817 16:02:21.595638 17829 net.cpp:157] Top shape: 125 16 32 32 (2048000)
I0817 16:02:21.595648 17829 net.cpp:165] Memory required for data: 861697500
I0817 16:02:21.595659 17829 layer_factory.hpp:77] Creating layer L2_b1_cbr1_conv
I0817 16:02:21.595679 17829 net.cpp:100] Creating Layer L2_b1_cbr1_conv
I0817 16:02:21.595691 17829 net.cpp:434] L2_b1_cbr1_conv <- L1_b9_sum_eltwise_top_L1_b9_relu_0_split_0
I0817 16:02:21.595713 17829 net.cpp:408] L2_b1_cbr1_conv -> L2_b1_cbr1_conv_top
I0817 16:02:21.596083 17829 net.cpp:150] Setting up L2_b1_cbr1_conv
I0817 16:02:21.596101 17829 net.cpp:157] Top shape: 125 16 16 16 (512000)
I0817 16:02:21.596112 17829 net.cpp:165] Memory required for data: 863745500
I0817 16:02:21.596129 17829 layer_factory.hpp:77] Creating layer L2_b1_cbr1_bn
I0817 16:02:21.596146 17829 net.cpp:100] Creating Layer L2_b1_cbr1_bn
I0817 16:02:21.596158 17829 net.cpp:434] L2_b1_cbr1_bn <- L2_b1_cbr1_conv_top
I0817 16:02:21.596179 17829 net.cpp:408] L2_b1_cbr1_bn -> L2_b1_cbr1_bn_top
I0817 16:02:21.596457 17829 net.cpp:150] Setting up L2_b1_cbr1_bn
I0817 16:02:21.596475 17829 net.cpp:157] Top shape: 125 16 16 16 (512000)
I0817 16:02:21.596485 17829 net.cpp:165] Memory required for data: 865793500
I0817 16:02:21.596508 17829 layer_factory.hpp:77] Creating layer L2_b1_cbr1_scale
I0817 16:02:21.596534 17829 net.cpp:100] Creating Layer L2_b1_cbr1_scale
I0817 16:02:21.596555 17829 net.cpp:434] L2_b1_cbr1_scale <- L2_b1_cbr1_bn_top
I0817 16:02:21.596573 17829 net.cpp:395] L2_b1_cbr1_scale -> L2_b1_cbr1_bn_top (in-place)
I0817 16:02:21.596669 17829 layer_factory.hpp:77] Creating layer L2_b1_cbr1_scale
I0817 16:02:21.596848 17829 net.cpp:150] Setting up L2_b1_cbr1_scale
I0817 16:02:21.596868 17829 net.cpp:157] Top shape: 125 16 16 16 (512000)
I0817 16:02:21.596877 17829 net.cpp:165] Memory required for data: 867841500
I0817 16:02:21.596896 17829 layer_factory.hpp:77] Creating layer L2_b1_cbr1_relu
I0817 16:02:21.596916 17829 net.cpp:100] Creating Layer L2_b1_cbr1_relu
I0817 16:02:21.596928 17829 net.cpp:434] L2_b1_cbr1_relu <- L2_b1_cbr1_bn_top
I0817 16:02:21.596943 17829 net.cpp:395] L2_b1_cbr1_relu -> L2_b1_cbr1_bn_top (in-place)
I0817 16:02:21.596962 17829 net.cpp:150] Setting up L2_b1_cbr1_relu
I0817 16:02:21.596982 17829 net.cpp:157] Top shape: 125 16 16 16 (512000)
I0817 16:02:21.596993 17829 net.cpp:165] Memory required for data: 869889500
I0817 16:02:21.597003 17829 layer_factory.hpp:77] Creating layer L2_b1_cbr2_conv
I0817 16:02:21.597023 17829 net.cpp:100] Creating Layer L2_b1_cbr2_conv
I0817 16:02:21.597036 17829 net.cpp:434] L2_b1_cbr2_conv <- L2_b1_cbr1_bn_top
I0817 16:02:21.597059 17829 net.cpp:408] L2_b1_cbr2_conv -> L2_b1_cbr2_conv_top
I0817 16:02:21.597416 17829 net.cpp:150] Setting up L2_b1_cbr2_conv
I0817 16:02:21.597435 17829 net.cpp:157] Top shape: 125 16 16 16 (512000)
I0817 16:02:21.597445 17829 net.cpp:165] Memory required for data: 871937500
I0817 16:02:21.597462 17829 layer_factory.hpp:77] Creating layer L2_b1_cbr2_bn
I0817 16:02:21.597479 17829 net.cpp:100] Creating Layer L2_b1_cbr2_bn
I0817 16:02:21.597491 17829 net.cpp:434] L2_b1_cbr2_bn <- L2_b1_cbr2_conv_top
I0817 16:02:21.597512 17829 net.cpp:408] L2_b1_cbr2_bn -> L2_b1_cbr2_bn_top
I0817 16:02:21.597798 17829 net.cpp:150] Setting up L2_b1_cbr2_bn
I0817 16:02:21.597818 17829 net.cpp:157] Top shape: 125 16 16 16 (512000)
I0817 16:02:21.597827 17829 net.cpp:165] Memory required for data: 873985500
I0817 16:02:21.597849 17829 layer_factory.hpp:77] Creating layer L2_b1_cbr2_scale
I0817 16:02:21.597872 17829 net.cpp:100] Creating Layer L2_b1_cbr2_scale
I0817 16:02:21.597883 17829 net.cpp:434] L2_b1_cbr2_scale <- L2_b1_cbr2_bn_top
I0817 16:02:21.597899 17829 net.cpp:395] L2_b1_cbr2_scale -> L2_b1_cbr2_bn_top (in-place)
I0817 16:02:21.597985 17829 layer_factory.hpp:77] Creating layer L2_b1_cbr2_scale
I0817 16:02:21.598167 17829 net.cpp:150] Setting up L2_b1_cbr2_scale
I0817 16:02:21.598186 17829 net.cpp:157] Top shape: 125 16 16 16 (512000)
I0817 16:02:21.598196 17829 net.cpp:165] Memory required for data: 876033500
I0817 16:02:21.598214 17829 layer_factory.hpp:77] Creating layer L2_b1_pool
I0817 16:02:21.598238 17829 net.cpp:100] Creating Layer L2_b1_pool
I0817 16:02:21.598251 17829 net.cpp:434] L2_b1_pool <- L1_b9_sum_eltwise_top_L1_b9_relu_0_split_1
I0817 16:02:21.598268 17829 net.cpp:408] L2_b1_pool -> L2_b1_pool
I0817 16:02:21.598371 17829 net.cpp:150] Setting up L2_b1_pool
I0817 16:02:21.598390 17829 net.cpp:157] Top shape: 125 16 16 16 (512000)
I0817 16:02:21.598399 17829 net.cpp:165] Memory required for data: 878081500
I0817 16:02:21.598410 17829 layer_factory.hpp:77] Creating layer L2_b1_sum_eltwise
I0817 16:02:21.598426 17829 net.cpp:100] Creating Layer L2_b1_sum_eltwise
I0817 16:02:21.598438 17829 net.cpp:434] L2_b1_sum_eltwise <- L2_b1_cbr2_bn_top
I0817 16:02:21.598450 17829 net.cpp:434] L2_b1_sum_eltwise <- L2_b1_pool
I0817 16:02:21.598470 17829 net.cpp:408] L2_b1_sum_eltwise -> L2_b1_sum_eltwise_top
I0817 16:02:21.598527 17829 net.cpp:150] Setting up L2_b1_sum_eltwise
I0817 16:02:21.598547 17829 net.cpp:157] Top shape: 125 16 16 16 (512000)
I0817 16:02:21.598557 17829 net.cpp:165] Memory required for data: 880129500
I0817 16:02:21.598568 17829 layer_factory.hpp:77] Creating layer L2_b1_relu
I0817 16:02:21.598589 17829 net.cpp:100] Creating Layer L2_b1_relu
I0817 16:02:21.598603 17829 net.cpp:434] L2_b1_relu <- L2_b1_sum_eltwise_top
I0817 16:02:21.598626 17829 net.cpp:395] L2_b1_relu -> L2_b1_sum_eltwise_top (in-place)
I0817 16:02:21.598645 17829 net.cpp:150] Setting up L2_b1_relu
I0817 16:02:21.598659 17829 net.cpp:157] Top shape: 125 16 16 16 (512000)
I0817 16:02:21.598670 17829 net.cpp:165] Memory required for data: 882177500
I0817 16:02:21.598680 17829 layer_factory.hpp:77] Creating layer L2_b1_zeros
I0817 16:02:21.598749 17829 net.cpp:100] Creating Layer L2_b1_zeros
I0817 16:02:21.598772 17829 net.cpp:408] L2_b1_zeros -> L2_b1_zeros
I0817 16:02:21.601148 17829 net.cpp:150] Setting up L2_b1_zeros
I0817 16:02:21.601171 17829 net.cpp:157] Top shape: 125 16 16 16 (512000)
I0817 16:02:21.601181 17829 net.cpp:165] Memory required for data: 884225500
I0817 16:02:21.601192 17829 layer_factory.hpp:77] Creating layer L2_b1_concat0
I0817 16:02:21.601210 17829 net.cpp:100] Creating Layer L2_b1_concat0
I0817 16:02:21.601223 17829 net.cpp:434] L2_b1_concat0 <- L2_b1_sum_eltwise_top
I0817 16:02:21.601236 17829 net.cpp:434] L2_b1_concat0 <- L2_b1_zeros
I0817 16:02:21.601258 17829 net.cpp:408] L2_b1_concat0 -> L2_b1_concat0
I0817 16:02:21.601352 17829 net.cpp:150] Setting up L2_b1_concat0
I0817 16:02:21.601377 17829 net.cpp:157] Top shape: 125 32 16 16 (1024000)
I0817 16:02:21.601388 17829 net.cpp:165] Memory required for data: 888321500
I0817 16:02:21.601398 17829 layer_factory.hpp:77] Creating layer L2_b1_concat0_L2_b1_concat0_0_split
I0817 16:02:21.601413 17829 net.cpp:100] Creating Layer L2_b1_concat0_L2_b1_concat0_0_split
I0817 16:02:21.601424 17829 net.cpp:434] L2_b1_concat0_L2_b1_concat0_0_split <- L2_b1_concat0
I0817 16:02:21.601439 17829 net.cpp:408] L2_b1_concat0_L2_b1_concat0_0_split -> L2_b1_concat0_L2_b1_concat0_0_split_0
I0817 16:02:21.601459 17829 net.cpp:408] L2_b1_concat0_L2_b1_concat0_0_split -> L2_b1_concat0_L2_b1_concat0_0_split_1
I0817 16:02:21.601549 17829 net.cpp:150] Setting up L2_b1_concat0_L2_b1_concat0_0_split
I0817 16:02:21.601572 17829 net.cpp:157] Top shape: 125 32 16 16 (1024000)
I0817 16:02:21.601593 17829 net.cpp:157] Top shape: 125 32 16 16 (1024000)
I0817 16:02:21.601603 17829 net.cpp:165] Memory required for data: 896513500
I0817 16:02:21.601613 17829 layer_factory.hpp:77] Creating layer L2_b2_cbr1_conv
I0817 16:02:21.601639 17829 net.cpp:100] Creating Layer L2_b2_cbr1_conv
I0817 16:02:21.601651 17829 net.cpp:434] L2_b2_cbr1_conv <- L2_b1_concat0_L2_b1_concat0_0_split_0
I0817 16:02:21.601670 17829 net.cpp:408] L2_b2_cbr1_conv -> L2_b2_cbr1_conv_top
I0817 16:02:21.603166 17829 net.cpp:150] Setting up L2_b2_cbr1_conv
I0817 16:02:21.603188 17829 net.cpp:157] Top shape: 125 32 16 16 (1024000)
I0817 16:02:21.603197 17829 net.cpp:165] Memory required for data: 900609500
I0817 16:02:21.603215 17829 layer_factory.hpp:77] Creating layer L2_b2_cbr1_bn
I0817 16:02:21.603238 17829 net.cpp:100] Creating Layer L2_b2_cbr1_bn
I0817 16:02:21.603250 17829 net.cpp:434] L2_b2_cbr1_bn <- L2_b2_cbr1_conv_top
I0817 16:02:21.603267 17829 net.cpp:408] L2_b2_cbr1_bn -> L2_b2_cbr1_bn_top
I0817 16:02:21.603554 17829 net.cpp:150] Setting up L2_b2_cbr1_bn
I0817 16:02:21.603574 17829 net.cpp:157] Top shape: 125 32 16 16 (1024000)
I0817 16:02:21.603590 17829 net.cpp:165] Memory required for data: 904705500
I0817 16:02:21.603612 17829 layer_factory.hpp:77] Creating layer L2_b2_cbr1_scale
I0817 16:02:21.603633 17829 net.cpp:100] Creating Layer L2_b2_cbr1_scale
I0817 16:02:21.603646 17829 net.cpp:434] L2_b2_cbr1_scale <- L2_b2_cbr1_bn_top
I0817 16:02:21.603662 17829 net.cpp:395] L2_b2_cbr1_scale -> L2_b2_cbr1_bn_top (in-place)
I0817 16:02:21.603757 17829 layer_factory.hpp:77] Creating layer L2_b2_cbr1_scale
I0817 16:02:21.603945 17829 net.cpp:150] Setting up L2_b2_cbr1_scale
I0817 16:02:21.603963 17829 net.cpp:157] Top shape: 125 32 16 16 (1024000)
I0817 16:02:21.603972 17829 net.cpp:165] Memory required for data: 908801500
I0817 16:02:21.603991 17829 layer_factory.hpp:77] Creating layer L2_b2_cbr1_relu
I0817 16:02:21.604012 17829 net.cpp:100] Creating Layer L2_b2_cbr1_relu
I0817 16:02:21.604023 17829 net.cpp:434] L2_b2_cbr1_relu <- L2_b2_cbr1_bn_top
I0817 16:02:21.604043 17829 net.cpp:395] L2_b2_cbr1_relu -> L2_b2_cbr1_bn_top (in-place)
I0817 16:02:21.604071 17829 net.cpp:150] Setting up L2_b2_cbr1_relu
I0817 16:02:21.604087 17829 net.cpp:157] Top shape: 125 32 16 16 (1024000)
I0817 16:02:21.604099 17829 net.cpp:165] Memory required for data: 912897500
I0817 16:02:21.604110 17829 layer_factory.hpp:77] Creating layer L2_b2_cbr2_conv
I0817 16:02:21.604131 17829 net.cpp:100] Creating Layer L2_b2_cbr2_conv
I0817 16:02:21.604143 17829 net.cpp:434] L2_b2_cbr2_conv <- L2_b2_cbr1_bn_top
I0817 16:02:21.604164 17829 net.cpp:408] L2_b2_cbr2_conv -> L2_b2_cbr2_conv_top
I0817 16:02:21.604665 17829 net.cpp:150] Setting up L2_b2_cbr2_conv
I0817 16:02:21.604684 17829 net.cpp:157] Top shape: 125 32 16 16 (1024000)
I0817 16:02:21.604694 17829 net.cpp:165] Memory required for data: 916993500
I0817 16:02:21.604712 17829 layer_factory.hpp:77] Creating layer L2_b2_cbr2_bn
I0817 16:02:21.604730 17829 net.cpp:100] Creating Layer L2_b2_cbr2_bn
I0817 16:02:21.604742 17829 net.cpp:434] L2_b2_cbr2_bn <- L2_b2_cbr2_conv_top
I0817 16:02:21.604763 17829 net.cpp:408] L2_b2_cbr2_bn -> L2_b2_cbr2_bn_top
I0817 16:02:21.605046 17829 net.cpp:150] Setting up L2_b2_cbr2_bn
I0817 16:02:21.605065 17829 net.cpp:157] Top shape: 125 32 16 16 (1024000)
I0817 16:02:21.605075 17829 net.cpp:165] Memory required for data: 921089500
I0817 16:02:21.605098 17829 layer_factory.hpp:77] Creating layer L2_b2_cbr2_scale
I0817 16:02:21.605118 17829 net.cpp:100] Creating Layer L2_b2_cbr2_scale
I0817 16:02:21.605131 17829 net.cpp:434] L2_b2_cbr2_scale <- L2_b2_cbr2_bn_top
I0817 16:02:21.605147 17829 net.cpp:395] L2_b2_cbr2_scale -> L2_b2_cbr2_bn_top (in-place)
I0817 16:02:21.605233 17829 layer_factory.hpp:77] Creating layer L2_b2_cbr2_scale
I0817 16:02:21.605417 17829 net.cpp:150] Setting up L2_b2_cbr2_scale
I0817 16:02:21.605437 17829 net.cpp:157] Top shape: 125 32 16 16 (1024000)
I0817 16:02:21.605445 17829 net.cpp:165] Memory required for data: 925185500
I0817 16:02:21.605464 17829 layer_factory.hpp:77] Creating layer L2_b2_sum_eltwise
I0817 16:02:21.605486 17829 net.cpp:100] Creating Layer L2_b2_sum_eltwise
I0817 16:02:21.605499 17829 net.cpp:434] L2_b2_sum_eltwise <- L2_b2_cbr2_bn_top
I0817 16:02:21.605512 17829 net.cpp:434] L2_b2_sum_eltwise <- L2_b1_concat0_L2_b1_concat0_0_split_1
I0817 16:02:21.605527 17829 net.cpp:408] L2_b2_sum_eltwise -> L2_b2_sum_eltwise_top
I0817 16:02:21.605585 17829 net.cpp:150] Setting up L2_b2_sum_eltwise
I0817 16:02:21.605605 17829 net.cpp:157] Top shape: 125 32 16 16 (1024000)
I0817 16:02:21.605615 17829 net.cpp:165] Memory required for data: 929281500
I0817 16:02:21.605624 17829 layer_factory.hpp:77] Creating layer L2_b2_relu
I0817 16:02:21.605640 17829 net.cpp:100] Creating Layer L2_b2_relu
I0817 16:02:21.605651 17829 net.cpp:434] L2_b2_relu <- L2_b2_sum_eltwise_top
I0817 16:02:21.605670 17829 net.cpp:395] L2_b2_relu -> L2_b2_sum_eltwise_top (in-place)
I0817 16:02:21.605690 17829 net.cpp:150] Setting up L2_b2_relu
I0817 16:02:21.605705 17829 net.cpp:157] Top shape: 125 32 16 16 (1024000)
I0817 16:02:21.605713 17829 net.cpp:165] Memory required for data: 933377500
I0817 16:02:21.605725 17829 layer_factory.hpp:77] Creating layer L2_b2_sum_eltwise_top_L2_b2_relu_0_split
I0817 16:02:21.605738 17829 net.cpp:100] Creating Layer L2_b2_sum_eltwise_top_L2_b2_relu_0_split
I0817 16:02:21.605748 17829 net.cpp:434] L2_b2_sum_eltwise_top_L2_b2_relu_0_split <- L2_b2_sum_eltwise_top
I0817 16:02:21.605763 17829 net.cpp:408] L2_b2_sum_eltwise_top_L2_b2_relu_0_split -> L2_b2_sum_eltwise_top_L2_b2_relu_0_split_0
I0817 16:02:21.605783 17829 net.cpp:408] L2_b2_sum_eltwise_top_L2_b2_relu_0_split -> L2_b2_sum_eltwise_top_L2_b2_relu_0_split_1
I0817 16:02:21.605870 17829 net.cpp:150] Setting up L2_b2_sum_eltwise_top_L2_b2_relu_0_split
I0817 16:02:21.605890 17829 net.cpp:157] Top shape: 125 32 16 16 (1024000)
I0817 16:02:21.605903 17829 net.cpp:157] Top shape: 125 32 16 16 (1024000)
I0817 16:02:21.605913 17829 net.cpp:165] Memory required for data: 941569500
I0817 16:02:21.605924 17829 layer_factory.hpp:77] Creating layer L2_b3_cbr1_conv
I0817 16:02:21.605954 17829 net.cpp:100] Creating Layer L2_b3_cbr1_conv
I0817 16:02:21.605968 17829 net.cpp:434] L2_b3_cbr1_conv <- L2_b2_sum_eltwise_top_L2_b2_relu_0_split_0
I0817 16:02:21.605991 17829 net.cpp:408] L2_b3_cbr1_conv -> L2_b3_cbr1_conv_top
I0817 16:02:21.606487 17829 net.cpp:150] Setting up L2_b3_cbr1_conv
I0817 16:02:21.606505 17829 net.cpp:157] Top shape: 125 32 16 16 (1024000)
I0817 16:02:21.606515 17829 net.cpp:165] Memory required for data: 945665500
I0817 16:02:21.606533 17829 layer_factory.hpp:77] Creating layer L2_b3_cbr1_bn
I0817 16:02:21.606549 17829 net.cpp:100] Creating Layer L2_b3_cbr1_bn
I0817 16:02:21.606561 17829 net.cpp:434] L2_b3_cbr1_bn <- L2_b3_cbr1_conv_top
I0817 16:02:21.606587 17829 net.cpp:408] L2_b3_cbr1_bn -> L2_b3_cbr1_bn_top
I0817 16:02:21.606866 17829 net.cpp:150] Setting up L2_b3_cbr1_bn
I0817 16:02:21.606885 17829 net.cpp:157] Top shape: 125 32 16 16 (1024000)
I0817 16:02:21.606895 17829 net.cpp:165] Memory required for data: 949761500
I0817 16:02:21.606917 17829 layer_factory.hpp:77] Creating layer L2_b3_cbr1_scale
I0817 16:02:21.606938 17829 net.cpp:100] Creating Layer L2_b3_cbr1_scale
I0817 16:02:21.606951 17829 net.cpp:434] L2_b3_cbr1_scale <- L2_b3_cbr1_bn_top
I0817 16:02:21.606967 17829 net.cpp:395] L2_b3_cbr1_scale -> L2_b3_cbr1_bn_top (in-place)
I0817 16:02:21.607053 17829 layer_factory.hpp:77] Creating layer L2_b3_cbr1_scale
I0817 16:02:21.607234 17829 net.cpp:150] Setting up L2_b3_cbr1_scale
I0817 16:02:21.607252 17829 net.cpp:157] Top shape: 125 32 16 16 (1024000)
I0817 16:02:21.607261 17829 net.cpp:165] Memory required for data: 953857500
I0817 16:02:21.607280 17829 layer_factory.hpp:77] Creating layer L2_b3_cbr1_relu
I0817 16:02:21.607300 17829 net.cpp:100] Creating Layer L2_b3_cbr1_relu
I0817 16:02:21.607312 17829 net.cpp:434] L2_b3_cbr1_relu <- L2_b3_cbr1_bn_top
I0817 16:02:21.607326 17829 net.cpp:395] L2_b3_cbr1_relu -> L2_b3_cbr1_bn_top (in-place)
I0817 16:02:21.607347 17829 net.cpp:150] Setting up L2_b3_cbr1_relu
I0817 16:02:21.607360 17829 net.cpp:157] Top shape: 125 32 16 16 (1024000)
I0817 16:02:21.607370 17829 net.cpp:165] Memory required for data: 957953500
I0817 16:02:21.607380 17829 layer_factory.hpp:77] Creating layer L2_b3_cbr2_conv
I0817 16:02:21.607406 17829 net.cpp:100] Creating Layer L2_b3_cbr2_conv
I0817 16:02:21.607419 17829 net.cpp:434] L2_b3_cbr2_conv <- L2_b3_cbr1_bn_top
I0817 16:02:21.607445 17829 net.cpp:408] L2_b3_cbr2_conv -> L2_b3_cbr2_conv_top
I0817 16:02:21.607955 17829 net.cpp:150] Setting up L2_b3_cbr2_conv
I0817 16:02:21.607975 17829 net.cpp:157] Top shape: 125 32 16 16 (1024000)
I0817 16:02:21.607985 17829 net.cpp:165] Memory required for data: 962049500
I0817 16:02:21.608001 17829 layer_factory.hpp:77] Creating layer L2_b3_cbr2_bn
I0817 16:02:21.608019 17829 net.cpp:100] Creating Layer L2_b3_cbr2_bn
I0817 16:02:21.608031 17829 net.cpp:434] L2_b3_cbr2_bn <- L2_b3_cbr2_conv_top
I0817 16:02:21.608052 17829 net.cpp:408] L2_b3_cbr2_bn -> L2_b3_cbr2_bn_top
I0817 16:02:21.608335 17829 net.cpp:150] Setting up L2_b3_cbr2_bn
I0817 16:02:21.608353 17829 net.cpp:157] Top shape: 125 32 16 16 (1024000)
I0817 16:02:21.608363 17829 net.cpp:165] Memory required for data: 966145500
I0817 16:02:21.608384 17829 layer_factory.hpp:77] Creating layer L2_b3_cbr2_scale
I0817 16:02:21.608405 17829 net.cpp:100] Creating Layer L2_b3_cbr2_scale
I0817 16:02:21.608418 17829 net.cpp:434] L2_b3_cbr2_scale <- L2_b3_cbr2_bn_top
I0817 16:02:21.608434 17829 net.cpp:395] L2_b3_cbr2_scale -> L2_b3_cbr2_bn_top (in-place)
I0817 16:02:21.608522 17829 layer_factory.hpp:77] Creating layer L2_b3_cbr2_scale
I0817 16:02:21.608711 17829 net.cpp:150] Setting up L2_b3_cbr2_scale
I0817 16:02:21.608729 17829 net.cpp:157] Top shape: 125 32 16 16 (1024000)
I0817 16:02:21.608739 17829 net.cpp:165] Memory required for data: 970241500
I0817 16:02:21.608758 17829 layer_factory.hpp:77] Creating layer L2_b3_sum_eltwise
I0817 16:02:21.608779 17829 net.cpp:100] Creating Layer L2_b3_sum_eltwise
I0817 16:02:21.608793 17829 net.cpp:434] L2_b3_sum_eltwise <- L2_b3_cbr2_bn_top
I0817 16:02:21.608814 17829 net.cpp:434] L2_b3_sum_eltwise <- L2_b2_sum_eltwise_top_L2_b2_relu_0_split_1
I0817 16:02:21.608831 17829 net.cpp:408] L2_b3_sum_eltwise -> L2_b3_sum_eltwise_top
I0817 16:02:21.608887 17829 net.cpp:150] Setting up L2_b3_sum_eltwise
I0817 16:02:21.608906 17829 net.cpp:157] Top shape: 125 32 16 16 (1024000)
I0817 16:02:21.608916 17829 net.cpp:165] Memory required for data: 974337500
I0817 16:02:21.608927 17829 layer_factory.hpp:77] Creating layer L2_b3_relu
I0817 16:02:21.608959 17829 net.cpp:100] Creating Layer L2_b3_relu
I0817 16:02:21.608973 17829 net.cpp:434] L2_b3_relu <- L2_b3_sum_eltwise_top
I0817 16:02:21.608988 17829 net.cpp:395] L2_b3_relu -> L2_b3_sum_eltwise_top (in-place)
I0817 16:02:21.609006 17829 net.cpp:150] Setting up L2_b3_relu
I0817 16:02:21.609021 17829 net.cpp:157] Top shape: 125 32 16 16 (1024000)
I0817 16:02:21.609030 17829 net.cpp:165] Memory required for data: 978433500
I0817 16:02:21.609041 17829 layer_factory.hpp:77] Creating layer L2_b3_sum_eltwise_top_L2_b3_relu_0_split
I0817 16:02:21.609061 17829 net.cpp:100] Creating Layer L2_b3_sum_eltwise_top_L2_b3_relu_0_split
I0817 16:02:21.609072 17829 net.cpp:434] L2_b3_sum_eltwise_top_L2_b3_relu_0_split <- L2_b3_sum_eltwise_top
I0817 16:02:21.609087 17829 net.cpp:408] L2_b3_sum_eltwise_top_L2_b3_relu_0_split -> L2_b3_sum_eltwise_top_L2_b3_relu_0_split_0
I0817 16:02:21.609107 17829 net.cpp:408] L2_b3_sum_eltwise_top_L2_b3_relu_0_split -> L2_b3_sum_eltwise_top_L2_b3_relu_0_split_1
I0817 16:02:21.609189 17829 net.cpp:150] Setting up L2_b3_sum_eltwise_top_L2_b3_relu_0_split
I0817 16:02:21.609213 17829 net.cpp:157] Top shape: 125 32 16 16 (1024000)
I0817 16:02:21.609230 17829 net.cpp:157] Top shape: 125 32 16 16 (1024000)
I0817 16:02:21.609239 17829 net.cpp:165] Memory required for data: 986625500
I0817 16:02:21.609251 17829 layer_factory.hpp:77] Creating layer L2_b4_cbr1_conv
I0817 16:02:21.609271 17829 net.cpp:100] Creating Layer L2_b4_cbr1_conv
I0817 16:02:21.609283 17829 net.cpp:434] L2_b4_cbr1_conv <- L2_b3_sum_eltwise_top_L2_b3_relu_0_split_0
I0817 16:02:21.609302 17829 net.cpp:408] L2_b4_cbr1_conv -> L2_b4_cbr1_conv_top
I0817 16:02:21.609817 17829 net.cpp:150] Setting up L2_b4_cbr1_conv
I0817 16:02:21.609836 17829 net.cpp:157] Top shape: 125 32 16 16 (1024000)
I0817 16:02:21.609845 17829 net.cpp:165] Memory required for data: 990721500
I0817 16:02:21.609863 17829 layer_factory.hpp:77] Creating layer L2_b4_cbr1_bn
I0817 16:02:21.609885 17829 net.cpp:100] Creating Layer L2_b4_cbr1_bn
I0817 16:02:21.609899 17829 net.cpp:434] L2_b4_cbr1_bn <- L2_b4_cbr1_conv_top
I0817 16:02:21.609915 17829 net.cpp:408] L2_b4_cbr1_bn -> L2_b4_cbr1_bn_top
I0817 16:02:21.610199 17829 net.cpp:150] Setting up L2_b4_cbr1_bn
I0817 16:02:21.610219 17829 net.cpp:157] Top shape: 125 32 16 16 (1024000)
I0817 16:02:21.610226 17829 net.cpp:165] Memory required for data: 994817500
I0817 16:02:21.610249 17829 layer_factory.hpp:77] Creating layer L2_b4_cbr1_scale
I0817 16:02:21.610265 17829 net.cpp:100] Creating Layer L2_b4_cbr1_scale
I0817 16:02:21.610276 17829 net.cpp:434] L2_b4_cbr1_scale <- L2_b4_cbr1_bn_top
I0817 16:02:21.610296 17829 net.cpp:395] L2_b4_cbr1_scale -> L2_b4_cbr1_bn_top (in-place)
I0817 16:02:21.610388 17829 layer_factory.hpp:77] Creating layer L2_b4_cbr1_scale
I0817 16:02:21.610574 17829 net.cpp:150] Setting up L2_b4_cbr1_scale
I0817 16:02:21.610599 17829 net.cpp:157] Top shape: 125 32 16 16 (1024000)
I0817 16:02:21.610610 17829 net.cpp:165] Memory required for data: 998913500
I0817 16:02:21.610628 17829 layer_factory.hpp:77] Creating layer L2_b4_cbr1_relu
I0817 16:02:21.610643 17829 net.cpp:100] Creating Layer L2_b4_cbr1_relu
I0817 16:02:21.610656 17829 net.cpp:434] L2_b4_cbr1_relu <- L2_b4_cbr1_bn_top
I0817 16:02:21.610674 17829 net.cpp:395] L2_b4_cbr1_relu -> L2_b4_cbr1_bn_top (in-place)
I0817 16:02:21.610694 17829 net.cpp:150] Setting up L2_b4_cbr1_relu
I0817 16:02:21.610709 17829 net.cpp:157] Top shape: 125 32 16 16 (1024000)
I0817 16:02:21.610718 17829 net.cpp:165] Memory required for data: 1003009500
I0817 16:02:21.610728 17829 layer_factory.hpp:77] Creating layer L2_b4_cbr2_conv
I0817 16:02:21.610760 17829 net.cpp:100] Creating Layer L2_b4_cbr2_conv
I0817 16:02:21.610774 17829 net.cpp:434] L2_b4_cbr2_conv <- L2_b4_cbr1_bn_top
I0817 16:02:21.610793 17829 net.cpp:408] L2_b4_cbr2_conv -> L2_b4_cbr2_conv_top
I0817 16:02:21.611289 17829 net.cpp:150] Setting up L2_b4_cbr2_conv
I0817 16:02:21.611310 17829 net.cpp:157] Top shape: 125 32 16 16 (1024000)
I0817 16:02:21.611318 17829 net.cpp:165] Memory required for data: 1007105500
I0817 16:02:21.611336 17829 layer_factory.hpp:77] Creating layer L2_b4_cbr2_bn
I0817 16:02:21.611359 17829 net.cpp:100] Creating Layer L2_b4_cbr2_bn
I0817 16:02:21.611371 17829 net.cpp:434] L2_b4_cbr2_bn <- L2_b4_cbr2_conv_top
I0817 16:02:21.611388 17829 net.cpp:408] L2_b4_cbr2_bn -> L2_b4_cbr2_bn_top
I0817 16:02:21.611677 17829 net.cpp:150] Setting up L2_b4_cbr2_bn
I0817 16:02:21.611696 17829 net.cpp:157] Top shape: 125 32 16 16 (1024000)
I0817 16:02:21.611706 17829 net.cpp:165] Memory required for data: 1011201500
I0817 16:02:21.611728 17829 layer_factory.hpp:77] Creating layer L2_b4_cbr2_scale
I0817 16:02:21.611744 17829 net.cpp:100] Creating Layer L2_b4_cbr2_scale
I0817 16:02:21.611757 17829 net.cpp:434] L2_b4_cbr2_scale <- L2_b4_cbr2_bn_top
I0817 16:02:21.611771 17829 net.cpp:395] L2_b4_cbr2_scale -> L2_b4_cbr2_bn_top (in-place)
I0817 16:02:21.611863 17829 layer_factory.hpp:77] Creating layer L2_b4_cbr2_scale
I0817 16:02:21.612046 17829 net.cpp:150] Setting up L2_b4_cbr2_scale
I0817 16:02:21.612068 17829 net.cpp:157] Top shape: 125 32 16 16 (1024000)
I0817 16:02:21.612078 17829 net.cpp:165] Memory required for data: 1015297500
I0817 16:02:21.612097 17829 layer_factory.hpp:77] Creating layer L2_b4_sum_eltwise
I0817 16:02:21.612114 17829 net.cpp:100] Creating Layer L2_b4_sum_eltwise
I0817 16:02:21.612126 17829 net.cpp:434] L2_b4_sum_eltwise <- L2_b4_cbr2_bn_top
I0817 16:02:21.612140 17829 net.cpp:434] L2_b4_sum_eltwise <- L2_b3_sum_eltwise_top_L2_b3_relu_0_split_1
I0817 16:02:21.612161 17829 net.cpp:408] L2_b4_sum_eltwise -> L2_b4_sum_eltwise_top
I0817 16:02:21.612210 17829 net.cpp:150] Setting up L2_b4_sum_eltwise
I0817 16:02:21.612227 17829 net.cpp:157] Top shape: 125 32 16 16 (1024000)
I0817 16:02:21.612237 17829 net.cpp:165] Memory required for data: 1019393500
I0817 16:02:21.612248 17829 layer_factory.hpp:77] Creating layer L2_b4_relu
I0817 16:02:21.612262 17829 net.cpp:100] Creating Layer L2_b4_relu
I0817 16:02:21.612273 17829 net.cpp:434] L2_b4_relu <- L2_b4_sum_eltwise_top
I0817 16:02:21.612293 17829 net.cpp:395] L2_b4_relu -> L2_b4_sum_eltwise_top (in-place)
I0817 16:02:21.612311 17829 net.cpp:150] Setting up L2_b4_relu
I0817 16:02:21.612326 17829 net.cpp:157] Top shape: 125 32 16 16 (1024000)
I0817 16:02:21.612336 17829 net.cpp:165] Memory required for data: 1023489500
I0817 16:02:21.612346 17829 layer_factory.hpp:77] Creating layer L2_b4_sum_eltwise_top_L2_b4_relu_0_split
I0817 16:02:21.612361 17829 net.cpp:100] Creating Layer L2_b4_sum_eltwise_top_L2_b4_relu_0_split
I0817 16:02:21.612373 17829 net.cpp:434] L2_b4_sum_eltwise_top_L2_b4_relu_0_split <- L2_b4_sum_eltwise_top
I0817 16:02:21.612392 17829 net.cpp:408] L2_b4_sum_eltwise_top_L2_b4_relu_0_split -> L2_b4_sum_eltwise_top_L2_b4_relu_0_split_0
I0817 16:02:21.612413 17829 net.cpp:408] L2_b4_sum_eltwise_top_L2_b4_relu_0_split -> L2_b4_sum_eltwise_top_L2_b4_relu_0_split_1
I0817 16:02:21.612488 17829 net.cpp:150] Setting up L2_b4_sum_eltwise_top_L2_b4_relu_0_split
I0817 16:02:21.612507 17829 net.cpp:157] Top shape: 125 32 16 16 (1024000)
I0817 16:02:21.612520 17829 net.cpp:157] Top shape: 125 32 16 16 (1024000)
I0817 16:02:21.612529 17829 net.cpp:165] Memory required for data: 1031681500
I0817 16:02:21.612540 17829 layer_factory.hpp:77] Creating layer L2_b5_cbr1_conv
I0817 16:02:21.612563 17829 net.cpp:100] Creating Layer L2_b5_cbr1_conv
I0817 16:02:21.612576 17829 net.cpp:434] L2_b5_cbr1_conv <- L2_b4_sum_eltwise_top_L2_b4_relu_0_split_0
I0817 16:02:21.612604 17829 net.cpp:408] L2_b5_cbr1_conv -> L2_b5_cbr1_conv_top
I0817 16:02:21.613131 17829 net.cpp:150] Setting up L2_b5_cbr1_conv
I0817 16:02:21.613157 17829 net.cpp:157] Top shape: 125 32 16 16 (1024000)
I0817 16:02:21.613168 17829 net.cpp:165] Memory required for data: 1035777500
I0817 16:02:21.613185 17829 layer_factory.hpp:77] Creating layer L2_b5_cbr1_bn
I0817 16:02:21.613207 17829 net.cpp:100] Creating Layer L2_b5_cbr1_bn
I0817 16:02:21.613219 17829 net.cpp:434] L2_b5_cbr1_bn <- L2_b5_cbr1_conv_top
I0817 16:02:21.613237 17829 net.cpp:408] L2_b5_cbr1_bn -> L2_b5_cbr1_bn_top
I0817 16:02:21.613523 17829 net.cpp:150] Setting up L2_b5_cbr1_bn
I0817 16:02:21.613541 17829 net.cpp:157] Top shape: 125 32 16 16 (1024000)
I0817 16:02:21.613551 17829 net.cpp:165] Memory required for data: 1039873500
I0817 16:02:21.613572 17829 layer_factory.hpp:77] Creating layer L2_b5_cbr1_scale
I0817 16:02:21.613596 17829 net.cpp:100] Creating Layer L2_b5_cbr1_scale
I0817 16:02:21.613608 17829 net.cpp:434] L2_b5_cbr1_scale <- L2_b5_cbr1_bn_top
I0817 16:02:21.613629 17829 net.cpp:395] L2_b5_cbr1_scale -> L2_b5_cbr1_bn_top (in-place)
I0817 16:02:21.613725 17829 layer_factory.hpp:77] Creating layer L2_b5_cbr1_scale
I0817 16:02:21.613911 17829 net.cpp:150] Setting up L2_b5_cbr1_scale
I0817 16:02:21.613929 17829 net.cpp:157] Top shape: 125 32 16 16 (1024000)
I0817 16:02:21.613940 17829 net.cpp:165] Memory required for data: 1043969500
I0817 16:02:21.613957 17829 layer_factory.hpp:77] Creating layer L2_b5_cbr1_relu
I0817 16:02:21.613973 17829 net.cpp:100] Creating Layer L2_b5_cbr1_relu
I0817 16:02:21.613983 17829 net.cpp:434] L2_b5_cbr1_relu <- L2_b5_cbr1_bn_top
I0817 16:02:21.614002 17829 net.cpp:395] L2_b5_cbr1_relu -> L2_b5_cbr1_bn_top (in-place)
I0817 16:02:21.614023 17829 net.cpp:150] Setting up L2_b5_cbr1_relu
I0817 16:02:21.614038 17829 net.cpp:157] Top shape: 125 32 16 16 (1024000)
I0817 16:02:21.614048 17829 net.cpp:165] Memory required for data: 1048065500
I0817 16:02:21.614058 17829 layer_factory.hpp:77] Creating layer L2_b5_cbr2_conv
I0817 16:02:21.614084 17829 net.cpp:100] Creating Layer L2_b5_cbr2_conv
I0817 16:02:21.614096 17829 net.cpp:434] L2_b5_cbr2_conv <- L2_b5_cbr1_bn_top
I0817 16:02:21.614114 17829 net.cpp:408] L2_b5_cbr2_conv -> L2_b5_cbr2_conv_top
I0817 16:02:21.614634 17829 net.cpp:150] Setting up L2_b5_cbr2_conv
I0817 16:02:21.614655 17829 net.cpp:157] Top shape: 125 32 16 16 (1024000)
I0817 16:02:21.614663 17829 net.cpp:165] Memory required for data: 1052161500
I0817 16:02:21.614681 17829 layer_factory.hpp:77] Creating layer L2_b5_cbr2_bn
I0817 16:02:21.614698 17829 net.cpp:100] Creating Layer L2_b5_cbr2_bn
I0817 16:02:21.614709 17829 net.cpp:434] L2_b5_cbr2_bn <- L2_b5_cbr2_conv_top
I0817 16:02:21.614730 17829 net.cpp:408] L2_b5_cbr2_bn -> L2_b5_cbr2_bn_top
I0817 16:02:21.615007 17829 net.cpp:150] Setting up L2_b5_cbr2_bn
I0817 16:02:21.615025 17829 net.cpp:157] Top shape: 125 32 16 16 (1024000)
I0817 16:02:21.615036 17829 net.cpp:165] Memory required for data: 1056257500
I0817 16:02:21.615057 17829 layer_factory.hpp:77] Creating layer L2_b5_cbr2_scale
I0817 16:02:21.615074 17829 net.cpp:100] Creating Layer L2_b5_cbr2_scale
I0817 16:02:21.615087 17829 net.cpp:434] L2_b5_cbr2_scale <- L2_b5_cbr2_bn_top
I0817 16:02:21.615101 17829 net.cpp:395] L2_b5_cbr2_scale -> L2_b5_cbr2_bn_top (in-place)
I0817 16:02:21.615190 17829 layer_factory.hpp:77] Creating layer L2_b5_cbr2_scale
I0817 16:02:21.615370 17829 net.cpp:150] Setting up L2_b5_cbr2_scale
I0817 16:02:21.615392 17829 net.cpp:157] Top shape: 125 32 16 16 (1024000)
I0817 16:02:21.615403 17829 net.cpp:165] Memory required for data: 1060353500
I0817 16:02:21.615422 17829 layer_factory.hpp:77] Creating layer L2_b5_sum_eltwise
I0817 16:02:21.615439 17829 net.cpp:100] Creating Layer L2_b5_sum_eltwise
I0817 16:02:21.615452 17829 net.cpp:434] L2_b5_sum_eltwise <- L2_b5_cbr2_bn_top
I0817 16:02:21.615464 17829 net.cpp:434] L2_b5_sum_eltwise <- L2_b4_sum_eltwise_top_L2_b4_relu_0_split_1
I0817 16:02:21.615480 17829 net.cpp:408] L2_b5_sum_eltwise -> L2_b5_sum_eltwise_top
I0817 16:02:21.615532 17829 net.cpp:150] Setting up L2_b5_sum_eltwise
I0817 16:02:21.615550 17829 net.cpp:157] Top shape: 125 32 16 16 (1024000)
I0817 16:02:21.615568 17829 net.cpp:165] Memory required for data: 1064449500
I0817 16:02:21.615586 17829 layer_factory.hpp:77] Creating layer L2_b5_relu
I0817 16:02:21.615602 17829 net.cpp:100] Creating Layer L2_b5_relu
I0817 16:02:21.615613 17829 net.cpp:434] L2_b5_relu <- L2_b5_sum_eltwise_top
I0817 16:02:21.615633 17829 net.cpp:395] L2_b5_relu -> L2_b5_sum_eltwise_top (in-place)
I0817 16:02:21.615653 17829 net.cpp:150] Setting up L2_b5_relu
I0817 16:02:21.615669 17829 net.cpp:157] Top shape: 125 32 16 16 (1024000)
I0817 16:02:21.615679 17829 net.cpp:165] Memory required for data: 1068545500
I0817 16:02:21.615689 17829 layer_factory.hpp:77] Creating layer L2_b5_sum_eltwise_top_L2_b5_relu_0_split
I0817 16:02:21.615702 17829 net.cpp:100] Creating Layer L2_b5_sum_eltwise_top_L2_b5_relu_0_split
I0817 16:02:21.615713 17829 net.cpp:434] L2_b5_sum_eltwise_top_L2_b5_relu_0_split <- L2_b5_sum_eltwise_top
I0817 16:02:21.615731 17829 net.cpp:408] L2_b5_sum_eltwise_top_L2_b5_relu_0_split -> L2_b5_sum_eltwise_top_L2_b5_relu_0_split_0
I0817 16:02:21.615752 17829 net.cpp:408] L2_b5_sum_eltwise_top_L2_b5_relu_0_split -> L2_b5_sum_eltwise_top_L2_b5_relu_0_split_1
I0817 16:02:21.615828 17829 net.cpp:150] Setting up L2_b5_sum_eltwise_top_L2_b5_relu_0_split
I0817 16:02:21.615846 17829 net.cpp:157] Top shape: 125 32 16 16 (1024000)
I0817 16:02:21.615859 17829 net.cpp:157] Top shape: 125 32 16 16 (1024000)
I0817 16:02:21.615869 17829 net.cpp:165] Memory required for data: 1076737500
I0817 16:02:21.615880 17829 layer_factory.hpp:77] Creating layer L2_b6_cbr1_conv
I0817 16:02:21.615905 17829 net.cpp:100] Creating Layer L2_b6_cbr1_conv
I0817 16:02:21.615918 17829 net.cpp:434] L2_b6_cbr1_conv <- L2_b5_sum_eltwise_top_L2_b5_relu_0_split_0
I0817 16:02:21.615937 17829 net.cpp:408] L2_b6_cbr1_conv -> L2_b6_cbr1_conv_top
I0817 16:02:21.616452 17829 net.cpp:150] Setting up L2_b6_cbr1_conv
I0817 16:02:21.616472 17829 net.cpp:157] Top shape: 125 32 16 16 (1024000)
I0817 16:02:21.616480 17829 net.cpp:165] Memory required for data: 1080833500
I0817 16:02:21.616498 17829 layer_factory.hpp:77] Creating layer L2_b6_cbr1_bn
I0817 16:02:21.616520 17829 net.cpp:100] Creating Layer L2_b6_cbr1_bn
I0817 16:02:21.616533 17829 net.cpp:434] L2_b6_cbr1_bn <- L2_b6_cbr1_conv_top
I0817 16:02:21.616549 17829 net.cpp:408] L2_b6_cbr1_bn -> L2_b6_cbr1_bn_top
I0817 16:02:21.616837 17829 net.cpp:150] Setting up L2_b6_cbr1_bn
I0817 16:02:21.616856 17829 net.cpp:157] Top shape: 125 32 16 16 (1024000)
I0817 16:02:21.616865 17829 net.cpp:165] Memory required for data: 1084929500
I0817 16:02:21.616888 17829 layer_factory.hpp:77] Creating layer L2_b6_cbr1_scale
I0817 16:02:21.616904 17829 net.cpp:100] Creating Layer L2_b6_cbr1_scale
I0817 16:02:21.616915 17829 net.cpp:434] L2_b6_cbr1_scale <- L2_b6_cbr1_bn_top
I0817 16:02:21.616935 17829 net.cpp:395] L2_b6_cbr1_scale -> L2_b6_cbr1_bn_top (in-place)
I0817 16:02:21.617023 17829 layer_factory.hpp:77] Creating layer L2_b6_cbr1_scale
I0817 16:02:21.617204 17829 net.cpp:150] Setting up L2_b6_cbr1_scale
I0817 16:02:21.617224 17829 net.cpp:157] Top shape: 125 32 16 16 (1024000)
I0817 16:02:21.617233 17829 net.cpp:165] Memory required for data: 1089025500
I0817 16:02:21.617252 17829 layer_factory.hpp:77] Creating layer L2_b6_cbr1_relu
I0817 16:02:21.617267 17829 net.cpp:100] Creating Layer L2_b6_cbr1_relu
I0817 16:02:21.617280 17829 net.cpp:434] L2_b6_cbr1_relu <- L2_b6_cbr1_bn_top
I0817 16:02:21.617293 17829 net.cpp:395] L2_b6_cbr1_relu -> L2_b6_cbr1_bn_top (in-place)
I0817 16:02:21.617312 17829 net.cpp:150] Setting up L2_b6_cbr1_relu
I0817 16:02:21.617326 17829 net.cpp:157] Top shape: 125 32 16 16 (1024000)
I0817 16:02:21.617336 17829 net.cpp:165] Memory required for data: 1093121500
I0817 16:02:21.617347 17829 layer_factory.hpp:77] Creating layer L2_b6_cbr2_conv
I0817 16:02:21.617372 17829 net.cpp:100] Creating Layer L2_b6_cbr2_conv
I0817 16:02:21.617385 17829 net.cpp:434] L2_b6_cbr2_conv <- L2_b6_cbr1_bn_top
I0817 16:02:21.617408 17829 net.cpp:408] L2_b6_cbr2_conv -> L2_b6_cbr2_conv_top
I0817 16:02:21.617933 17829 net.cpp:150] Setting up L2_b6_cbr2_conv
I0817 16:02:21.617960 17829 net.cpp:157] Top shape: 125 32 16 16 (1024000)
I0817 16:02:21.617970 17829 net.cpp:165] Memory required for data: 1097217500
I0817 16:02:21.617990 17829 layer_factory.hpp:77] Creating layer L2_b6_cbr2_bn
I0817 16:02:21.618011 17829 net.cpp:100] Creating Layer L2_b6_cbr2_bn
I0817 16:02:21.618024 17829 net.cpp:434] L2_b6_cbr2_bn <- L2_b6_cbr2_conv_top
I0817 16:02:21.618044 17829 net.cpp:408] L2_b6_cbr2_bn -> L2_b6_cbr2_bn_top
I0817 16:02:21.618319 17829 net.cpp:150] Setting up L2_b6_cbr2_bn
I0817 16:02:21.618337 17829 net.cpp:157] Top shape: 125 32 16 16 (1024000)
I0817 16:02:21.618346 17829 net.cpp:165] Memory required for data: 1101313500
I0817 16:02:21.618368 17829 layer_factory.hpp:77] Creating layer L2_b6_cbr2_scale
I0817 16:02:21.618386 17829 net.cpp:100] Creating Layer L2_b6_cbr2_scale
I0817 16:02:21.618397 17829 net.cpp:434] L2_b6_cbr2_scale <- L2_b6_cbr2_bn_top
I0817 16:02:21.618412 17829 net.cpp:395] L2_b6_cbr2_scale -> L2_b6_cbr2_bn_top (in-place)
I0817 16:02:21.618504 17829 layer_factory.hpp:77] Creating layer L2_b6_cbr2_scale
I0817 16:02:21.618691 17829 net.cpp:150] Setting up L2_b6_cbr2_scale
I0817 16:02:21.618710 17829 net.cpp:157] Top shape: 125 32 16 16 (1024000)
I0817 16:02:21.618721 17829 net.cpp:165] Memory required for data: 1105409500
I0817 16:02:21.618739 17829 layer_factory.hpp:77] Creating layer L2_b6_sum_eltwise
I0817 16:02:21.618764 17829 net.cpp:100] Creating Layer L2_b6_sum_eltwise
I0817 16:02:21.618777 17829 net.cpp:434] L2_b6_sum_eltwise <- L2_b6_cbr2_bn_top
I0817 16:02:21.618791 17829 net.cpp:434] L2_b6_sum_eltwise <- L2_b5_sum_eltwise_top_L2_b5_relu_0_split_1
I0817 16:02:21.618808 17829 net.cpp:408] L2_b6_sum_eltwise -> L2_b6_sum_eltwise_top
I0817 16:02:21.618860 17829 net.cpp:150] Setting up L2_b6_sum_eltwise
I0817 16:02:21.618878 17829 net.cpp:157] Top shape: 125 32 16 16 (1024000)
I0817 16:02:21.618888 17829 net.cpp:165] Memory required for data: 1109505500
I0817 16:02:21.618898 17829 layer_factory.hpp:77] Creating layer L2_b6_relu
I0817 16:02:21.618913 17829 net.cpp:100] Creating Layer L2_b6_relu
I0817 16:02:21.618926 17829 net.cpp:434] L2_b6_relu <- L2_b6_sum_eltwise_top
I0817 16:02:21.618944 17829 net.cpp:395] L2_b6_relu -> L2_b6_sum_eltwise_top (in-place)
I0817 16:02:21.618964 17829 net.cpp:150] Setting up L2_b6_relu
I0817 16:02:21.618978 17829 net.cpp:157] Top shape: 125 32 16 16 (1024000)
I0817 16:02:21.618988 17829 net.cpp:165] Memory required for data: 1113601500
I0817 16:02:21.618999 17829 layer_factory.hpp:77] Creating layer L2_b6_sum_eltwise_top_L2_b6_relu_0_split
I0817 16:02:21.619014 17829 net.cpp:100] Creating Layer L2_b6_sum_eltwise_top_L2_b6_relu_0_split
I0817 16:02:21.619024 17829 net.cpp:434] L2_b6_sum_eltwise_top_L2_b6_relu_0_split <- L2_b6_sum_eltwise_top
I0817 16:02:21.619045 17829 net.cpp:408] L2_b6_sum_eltwise_top_L2_b6_relu_0_split -> L2_b6_sum_eltwise_top_L2_b6_relu_0_split_0
I0817 16:02:21.619065 17829 net.cpp:408] L2_b6_sum_eltwise_top_L2_b6_relu_0_split -> L2_b6_sum_eltwise_top_L2_b6_relu_0_split_1
I0817 16:02:21.619145 17829 net.cpp:150] Setting up L2_b6_sum_eltwise_top_L2_b6_relu_0_split
I0817 16:02:21.619165 17829 net.cpp:157] Top shape: 125 32 16 16 (1024000)
I0817 16:02:21.619179 17829 net.cpp:157] Top shape: 125 32 16 16 (1024000)
I0817 16:02:21.619189 17829 net.cpp:165] Memory required for data: 1121793500
I0817 16:02:21.619199 17829 layer_factory.hpp:77] Creating layer L2_b7_cbr1_conv
I0817 16:02:21.619225 17829 net.cpp:100] Creating Layer L2_b7_cbr1_conv
I0817 16:02:21.619238 17829 net.cpp:434] L2_b7_cbr1_conv <- L2_b6_sum_eltwise_top_L2_b6_relu_0_split_0
I0817 16:02:21.619257 17829 net.cpp:408] L2_b7_cbr1_conv -> L2_b7_cbr1_conv_top
I0817 16:02:21.619778 17829 net.cpp:150] Setting up L2_b7_cbr1_conv
I0817 16:02:21.619799 17829 net.cpp:157] Top shape: 125 32 16 16 (1024000)
I0817 16:02:21.619808 17829 net.cpp:165] Memory required for data: 1125889500
I0817 16:02:21.619827 17829 layer_factory.hpp:77] Creating layer L2_b7_cbr1_bn
I0817 16:02:21.619844 17829 net.cpp:100] Creating Layer L2_b7_cbr1_bn
I0817 16:02:21.619871 17829 net.cpp:434] L2_b7_cbr1_bn <- L2_b7_cbr1_conv_top
I0817 16:02:21.619890 17829 net.cpp:408] L2_b7_cbr1_bn -> L2_b7_cbr1_bn_top
I0817 16:02:21.620177 17829 net.cpp:150] Setting up L2_b7_cbr1_bn
I0817 16:02:21.620196 17829 net.cpp:157] Top shape: 125 32 16 16 (1024000)
I0817 16:02:21.620205 17829 net.cpp:165] Memory required for data: 1129985500
I0817 16:02:21.620227 17829 layer_factory.hpp:77] Creating layer L2_b7_cbr1_scale
I0817 16:02:21.620245 17829 net.cpp:100] Creating Layer L2_b7_cbr1_scale
I0817 16:02:21.620256 17829 net.cpp:434] L2_b7_cbr1_scale <- L2_b7_cbr1_bn_top
I0817 16:02:21.620271 17829 net.cpp:395] L2_b7_cbr1_scale -> L2_b7_cbr1_bn_top (in-place)
I0817 16:02:21.620367 17829 layer_factory.hpp:77] Creating layer L2_b7_cbr1_scale
I0817 16:02:21.620548 17829 net.cpp:150] Setting up L2_b7_cbr1_scale
I0817 16:02:21.620573 17829 net.cpp:157] Top shape: 125 32 16 16 (1024000)
I0817 16:02:21.620589 17829 net.cpp:165] Memory required for data: 1134081500
I0817 16:02:21.620609 17829 layer_factory.hpp:77] Creating layer L2_b7_cbr1_relu
I0817 16:02:21.620625 17829 net.cpp:100] Creating Layer L2_b7_cbr1_relu
I0817 16:02:21.620637 17829 net.cpp:434] L2_b7_cbr1_relu <- L2_b7_cbr1_bn_top
I0817 16:02:21.620652 17829 net.cpp:395] L2_b7_cbr1_relu -> L2_b7_cbr1_bn_top (in-place)
I0817 16:02:21.620671 17829 net.cpp:150] Setting up L2_b7_cbr1_relu
I0817 16:02:21.620685 17829 net.cpp:157] Top shape: 125 32 16 16 (1024000)
I0817 16:02:21.620695 17829 net.cpp:165] Memory required for data: 1138177500
I0817 16:02:21.620704 17829 layer_factory.hpp:77] Creating layer L2_b7_cbr2_conv
I0817 16:02:21.620733 17829 net.cpp:100] Creating Layer L2_b7_cbr2_conv
I0817 16:02:21.620745 17829 net.cpp:434] L2_b7_cbr2_conv <- L2_b7_cbr1_bn_top
I0817 16:02:21.620767 17829 net.cpp:408] L2_b7_cbr2_conv -> L2_b7_cbr2_conv_top
I0817 16:02:21.621268 17829 net.cpp:150] Setting up L2_b7_cbr2_conv
I0817 16:02:21.621286 17829 net.cpp:157] Top shape: 125 32 16 16 (1024000)
I0817 16:02:21.621295 17829 net.cpp:165] Memory required for data: 1142273500
I0817 16:02:21.621314 17829 layer_factory.hpp:77] Creating layer L2_b7_cbr2_bn
I0817 16:02:21.621341 17829 net.cpp:100] Creating Layer L2_b7_cbr2_bn
I0817 16:02:21.621354 17829 net.cpp:434] L2_b7_cbr2_bn <- L2_b7_cbr2_conv_top
I0817 16:02:21.621376 17829 net.cpp:408] L2_b7_cbr2_bn -> L2_b7_cbr2_bn_top
I0817 16:02:21.621671 17829 net.cpp:150] Setting up L2_b7_cbr2_bn
I0817 16:02:21.621690 17829 net.cpp:157] Top shape: 125 32 16 16 (1024000)
I0817 16:02:21.621701 17829 net.cpp:165] Memory required for data: 1146369500
I0817 16:02:21.621722 17829 layer_factory.hpp:77] Creating layer L2_b7_cbr2_scale
I0817 16:02:21.621739 17829 net.cpp:100] Creating Layer L2_b7_cbr2_scale
I0817 16:02:21.621752 17829 net.cpp:434] L2_b7_cbr2_scale <- L2_b7_cbr2_bn_top
I0817 16:02:21.621765 17829 net.cpp:395] L2_b7_cbr2_scale -> L2_b7_cbr2_bn_top (in-place)
I0817 16:02:21.621858 17829 layer_factory.hpp:77] Creating layer L2_b7_cbr2_scale
I0817 16:02:21.622040 17829 net.cpp:150] Setting up L2_b7_cbr2_scale
I0817 16:02:21.622058 17829 net.cpp:157] Top shape: 125 32 16 16 (1024000)
I0817 16:02:21.622067 17829 net.cpp:165] Memory required for data: 1150465500
I0817 16:02:21.622086 17829 layer_factory.hpp:77] Creating layer L2_b7_sum_eltwise
I0817 16:02:21.622107 17829 net.cpp:100] Creating Layer L2_b7_sum_eltwise
I0817 16:02:21.622119 17829 net.cpp:434] L2_b7_sum_eltwise <- L2_b7_cbr2_bn_top
I0817 16:02:21.622133 17829 net.cpp:434] L2_b7_sum_eltwise <- L2_b6_sum_eltwise_top_L2_b6_relu_0_split_1
I0817 16:02:21.622149 17829 net.cpp:408] L2_b7_sum_eltwise -> L2_b7_sum_eltwise_top
I0817 16:02:21.622196 17829 net.cpp:150] Setting up L2_b7_sum_eltwise
I0817 16:02:21.622215 17829 net.cpp:157] Top shape: 125 32 16 16 (1024000)
I0817 16:02:21.622225 17829 net.cpp:165] Memory required for data: 1154561500
I0817 16:02:21.622236 17829 layer_factory.hpp:77] Creating layer L2_b7_relu
I0817 16:02:21.622254 17829 net.cpp:100] Creating Layer L2_b7_relu
I0817 16:02:21.622267 17829 net.cpp:434] L2_b7_relu <- L2_b7_sum_eltwise_top
I0817 16:02:21.622290 17829 net.cpp:395] L2_b7_relu -> L2_b7_sum_eltwise_top (in-place)
I0817 16:02:21.622310 17829 net.cpp:150] Setting up L2_b7_relu
I0817 16:02:21.622328 17829 net.cpp:157] Top shape: 125 32 16 16 (1024000)
I0817 16:02:21.622337 17829 net.cpp:165] Memory required for data: 1158657500
I0817 16:02:21.622347 17829 layer_factory.hpp:77] Creating layer L2_b7_sum_eltwise_top_L2_b7_relu_0_split
I0817 16:02:21.622361 17829 net.cpp:100] Creating Layer L2_b7_sum_eltwise_top_L2_b7_relu_0_split
I0817 16:02:21.622373 17829 net.cpp:434] L2_b7_sum_eltwise_top_L2_b7_relu_0_split <- L2_b7_sum_eltwise_top
I0817 16:02:21.622388 17829 net.cpp:408] L2_b7_sum_eltwise_top_L2_b7_relu_0_split -> L2_b7_sum_eltwise_top_L2_b7_relu_0_split_0
I0817 16:02:21.622409 17829 net.cpp:408] L2_b7_sum_eltwise_top_L2_b7_relu_0_split -> L2_b7_sum_eltwise_top_L2_b7_relu_0_split_1
I0817 16:02:21.622496 17829 net.cpp:150] Setting up L2_b7_sum_eltwise_top_L2_b7_relu_0_split
I0817 16:02:21.622515 17829 net.cpp:157] Top shape: 125 32 16 16 (1024000)
I0817 16:02:21.622529 17829 net.cpp:157] Top shape: 125 32 16 16 (1024000)
I0817 16:02:21.622539 17829 net.cpp:165] Memory required for data: 1166849500
I0817 16:02:21.622550 17829 layer_factory.hpp:77] Creating layer L2_b8_cbr1_conv
I0817 16:02:21.622573 17829 net.cpp:100] Creating Layer L2_b8_cbr1_conv
I0817 16:02:21.622594 17829 net.cpp:434] L2_b8_cbr1_conv <- L2_b7_sum_eltwise_top_L2_b7_relu_0_split_0
I0817 16:02:21.622614 17829 net.cpp:408] L2_b8_cbr1_conv -> L2_b8_cbr1_conv_top
I0817 16:02:21.623307 17829 net.cpp:150] Setting up L2_b8_cbr1_conv
I0817 16:02:21.623327 17829 net.cpp:157] Top shape: 125 32 16 16 (1024000)
I0817 16:02:21.623338 17829 net.cpp:165] Memory required for data: 1170945500
I0817 16:02:21.623356 17829 layer_factory.hpp:77] Creating layer L2_b8_cbr1_bn
I0817 16:02:21.623378 17829 net.cpp:100] Creating Layer L2_b8_cbr1_bn
I0817 16:02:21.623390 17829 net.cpp:434] L2_b8_cbr1_bn <- L2_b8_cbr1_conv_top
I0817 16:02:21.623411 17829 net.cpp:408] L2_b8_cbr1_bn -> L2_b8_cbr1_bn_top
I0817 16:02:21.623709 17829 net.cpp:150] Setting up L2_b8_cbr1_bn
I0817 16:02:21.623728 17829 net.cpp:157] Top shape: 125 32 16 16 (1024000)
I0817 16:02:21.623739 17829 net.cpp:165] Memory required for data: 1175041500
I0817 16:02:21.623760 17829 layer_factory.hpp:77] Creating layer L2_b8_cbr1_scale
I0817 16:02:21.623776 17829 net.cpp:100] Creating Layer L2_b8_cbr1_scale
I0817 16:02:21.623788 17829 net.cpp:434] L2_b8_cbr1_scale <- L2_b8_cbr1_bn_top
I0817 16:02:21.623803 17829 net.cpp:395] L2_b8_cbr1_scale -> L2_b8_cbr1_bn_top (in-place)
I0817 16:02:21.623896 17829 layer_factory.hpp:77] Creating layer L2_b8_cbr1_scale
I0817 16:02:21.624083 17829 net.cpp:150] Setting up L2_b8_cbr1_scale
I0817 16:02:21.624102 17829 net.cpp:157] Top shape: 125 32 16 16 (1024000)
I0817 16:02:21.624112 17829 net.cpp:165] Memory required for data: 1179137500
I0817 16:02:21.624130 17829 layer_factory.hpp:77] Creating layer L2_b8_cbr1_relu
I0817 16:02:21.624150 17829 net.cpp:100] Creating Layer L2_b8_cbr1_relu
I0817 16:02:21.624162 17829 net.cpp:434] L2_b8_cbr1_relu <- L2_b8_cbr1_bn_top
I0817 16:02:21.624177 17829 net.cpp:395] L2_b8_cbr1_relu -> L2_b8_cbr1_bn_top (in-place)
I0817 16:02:21.624197 17829 net.cpp:150] Setting up L2_b8_cbr1_relu
I0817 16:02:21.624210 17829 net.cpp:157] Top shape: 125 32 16 16 (1024000)
I0817 16:02:21.624222 17829 net.cpp:165] Memory required for data: 1183233500
I0817 16:02:21.624231 17829 layer_factory.hpp:77] Creating layer L2_b8_cbr2_conv
I0817 16:02:21.624255 17829 net.cpp:100] Creating Layer L2_b8_cbr2_conv
I0817 16:02:21.624269 17829 net.cpp:434] L2_b8_cbr2_conv <- L2_b8_cbr1_bn_top
I0817 16:02:21.624290 17829 net.cpp:408] L2_b8_cbr2_conv -> L2_b8_cbr2_conv_top
I0817 16:02:21.624814 17829 net.cpp:150] Setting up L2_b8_cbr2_conv
I0817 16:02:21.624833 17829 net.cpp:157] Top shape: 125 32 16 16 (1024000)
I0817 16:02:21.624843 17829 net.cpp:165] Memory required for data: 1187329500
I0817 16:02:21.624862 17829 layer_factory.hpp:77] Creating layer L2_b8_cbr2_bn
I0817 16:02:21.624883 17829 net.cpp:100] Creating Layer L2_b8_cbr2_bn
I0817 16:02:21.624907 17829 net.cpp:434] L2_b8_cbr2_bn <- L2_b8_cbr2_conv_top
I0817 16:02:21.624928 17829 net.cpp:408] L2_b8_cbr2_bn -> L2_b8_cbr2_bn_top
I0817 16:02:21.625223 17829 net.cpp:150] Setting up L2_b8_cbr2_bn
I0817 16:02:21.625242 17829 net.cpp:157] Top shape: 125 32 16 16 (1024000)
I0817 16:02:21.625252 17829 net.cpp:165] Memory required for data: 1191425500
I0817 16:02:21.625273 17829 layer_factory.hpp:77] Creating layer L2_b8_cbr2_scale
I0817 16:02:21.625289 17829 net.cpp:100] Creating Layer L2_b8_cbr2_scale
I0817 16:02:21.625301 17829 net.cpp:434] L2_b8_cbr2_scale <- L2_b8_cbr2_bn_top
I0817 16:02:21.625316 17829 net.cpp:395] L2_b8_cbr2_scale -> L2_b8_cbr2_bn_top (in-place)
I0817 16:02:21.625412 17829 layer_factory.hpp:77] Creating layer L2_b8_cbr2_scale
I0817 16:02:21.625604 17829 net.cpp:150] Setting up L2_b8_cbr2_scale
I0817 16:02:21.625623 17829 net.cpp:157] Top shape: 125 32 16 16 (1024000)
I0817 16:02:21.625633 17829 net.cpp:165] Memory required for data: 1195521500
I0817 16:02:21.625651 17829 layer_factory.hpp:77] Creating layer L2_b8_sum_eltwise
I0817 16:02:21.625671 17829 net.cpp:100] Creating Layer L2_b8_sum_eltwise
I0817 16:02:21.625685 17829 net.cpp:434] L2_b8_sum_eltwise <- L2_b8_cbr2_bn_top
I0817 16:02:21.625699 17829 net.cpp:434] L2_b8_sum_eltwise <- L2_b7_sum_eltwise_top_L2_b7_relu_0_split_1
I0817 16:02:21.625715 17829 net.cpp:408] L2_b8_sum_eltwise -> L2_b8_sum_eltwise_top
I0817 16:02:21.625763 17829 net.cpp:150] Setting up L2_b8_sum_eltwise
I0817 16:02:21.625782 17829 net.cpp:157] Top shape: 125 32 16 16 (1024000)
I0817 16:02:21.625792 17829 net.cpp:165] Memory required for data: 1199617500
I0817 16:02:21.625803 17829 layer_factory.hpp:77] Creating layer L2_b8_relu
I0817 16:02:21.625828 17829 net.cpp:100] Creating Layer L2_b8_relu
I0817 16:02:21.625840 17829 net.cpp:434] L2_b8_relu <- L2_b8_sum_eltwise_top
I0817 16:02:21.625854 17829 net.cpp:395] L2_b8_relu -> L2_b8_sum_eltwise_top (in-place)
I0817 16:02:21.625874 17829 net.cpp:150] Setting up L2_b8_relu
I0817 16:02:21.625888 17829 net.cpp:157] Top shape: 125 32 16 16 (1024000)
I0817 16:02:21.625897 17829 net.cpp:165] Memory required for data: 1203713500
I0817 16:02:21.625908 17829 layer_factory.hpp:77] Creating layer L2_b8_sum_eltwise_top_L2_b8_relu_0_split
I0817 16:02:21.625922 17829 net.cpp:100] Creating Layer L2_b8_sum_eltwise_top_L2_b8_relu_0_split
I0817 16:02:21.625933 17829 net.cpp:434] L2_b8_sum_eltwise_top_L2_b8_relu_0_split <- L2_b8_sum_eltwise_top
I0817 16:02:21.625948 17829 net.cpp:408] L2_b8_sum_eltwise_top_L2_b8_relu_0_split -> L2_b8_sum_eltwise_top_L2_b8_relu_0_split_0
I0817 16:02:21.625986 17829 net.cpp:408] L2_b8_sum_eltwise_top_L2_b8_relu_0_split -> L2_b8_sum_eltwise_top_L2_b8_relu_0_split_1
I0817 16:02:21.626073 17829 net.cpp:150] Setting up L2_b8_sum_eltwise_top_L2_b8_relu_0_split
I0817 16:02:21.626092 17829 net.cpp:157] Top shape: 125 32 16 16 (1024000)
I0817 16:02:21.626106 17829 net.cpp:157] Top shape: 125 32 16 16 (1024000)
I0817 16:02:21.626116 17829 net.cpp:165] Memory required for data: 1211905500
I0817 16:02:21.626126 17829 layer_factory.hpp:77] Creating layer L2_b9_cbr1_conv
I0817 16:02:21.626150 17829 net.cpp:100] Creating Layer L2_b9_cbr1_conv
I0817 16:02:21.626164 17829 net.cpp:434] L2_b9_cbr1_conv <- L2_b8_sum_eltwise_top_L2_b8_relu_0_split_0
I0817 16:02:21.626183 17829 net.cpp:408] L2_b9_cbr1_conv -> L2_b9_cbr1_conv_top
I0817 16:02:21.626713 17829 net.cpp:150] Setting up L2_b9_cbr1_conv
I0817 16:02:21.626734 17829 net.cpp:157] Top shape: 125 32 16 16 (1024000)
I0817 16:02:21.626742 17829 net.cpp:165] Memory required for data: 1216001500
I0817 16:02:21.626761 17829 layer_factory.hpp:77] Creating layer L2_b9_cbr1_bn
I0817 16:02:21.626783 17829 net.cpp:100] Creating Layer L2_b9_cbr1_bn
I0817 16:02:21.626796 17829 net.cpp:434] L2_b9_cbr1_bn <- L2_b9_cbr1_conv_top
I0817 16:02:21.626813 17829 net.cpp:408] L2_b9_cbr1_bn -> L2_b9_cbr1_bn_top
I0817 16:02:21.627102 17829 net.cpp:150] Setting up L2_b9_cbr1_bn
I0817 16:02:21.627125 17829 net.cpp:157] Top shape: 125 32 16 16 (1024000)
I0817 16:02:21.627144 17829 net.cpp:165] Memory required for data: 1220097500
I0817 16:02:21.627168 17829 layer_factory.hpp:77] Creating layer L2_b9_cbr1_scale
I0817 16:02:21.627185 17829 net.cpp:100] Creating Layer L2_b9_cbr1_scale
I0817 16:02:21.627197 17829 net.cpp:434] L2_b9_cbr1_scale <- L2_b9_cbr1_bn_top
I0817 16:02:21.627213 17829 net.cpp:395] L2_b9_cbr1_scale -> L2_b9_cbr1_bn_top (in-place)
I0817 16:02:21.627307 17829 layer_factory.hpp:77] Creating layer L2_b9_cbr1_scale
I0817 16:02:21.627496 17829 net.cpp:150] Setting up L2_b9_cbr1_scale
I0817 16:02:21.627516 17829 net.cpp:157] Top shape: 125 32 16 16 (1024000)
I0817 16:02:21.627524 17829 net.cpp:165] Memory required for data: 1224193500
I0817 16:02:21.627543 17829 layer_factory.hpp:77] Creating layer L2_b9_cbr1_relu
I0817 16:02:21.627559 17829 net.cpp:100] Creating Layer L2_b9_cbr1_relu
I0817 16:02:21.627570 17829 net.cpp:434] L2_b9_cbr1_relu <- L2_b9_cbr1_bn_top
I0817 16:02:21.627596 17829 net.cpp:395] L2_b9_cbr1_relu -> L2_b9_cbr1_bn_top (in-place)
I0817 16:02:21.627617 17829 net.cpp:150] Setting up L2_b9_cbr1_relu
I0817 16:02:21.627634 17829 net.cpp:157] Top shape: 125 32 16 16 (1024000)
I0817 16:02:21.627642 17829 net.cpp:165] Memory required for data: 1228289500
I0817 16:02:21.627653 17829 layer_factory.hpp:77] Creating layer L2_b9_cbr2_conv
I0817 16:02:21.627678 17829 net.cpp:100] Creating Layer L2_b9_cbr2_conv
I0817 16:02:21.627692 17829 net.cpp:434] L2_b9_cbr2_conv <- L2_b9_cbr1_bn_top
I0817 16:02:21.627712 17829 net.cpp:408] L2_b9_cbr2_conv -> L2_b9_cbr2_conv_top
I0817 16:02:21.628212 17829 net.cpp:150] Setting up L2_b9_cbr2_conv
I0817 16:02:21.628232 17829 net.cpp:157] Top shape: 125 32 16 16 (1024000)
I0817 16:02:21.628242 17829 net.cpp:165] Memory required for data: 1232385500
I0817 16:02:21.628259 17829 layer_factory.hpp:77] Creating layer L2_b9_cbr2_bn
I0817 16:02:21.628280 17829 net.cpp:100] Creating Layer L2_b9_cbr2_bn
I0817 16:02:21.628293 17829 net.cpp:434] L2_b9_cbr2_bn <- L2_b9_cbr2_conv_top
I0817 16:02:21.628309 17829 net.cpp:408] L2_b9_cbr2_bn -> L2_b9_cbr2_bn_top
I0817 16:02:21.628612 17829 net.cpp:150] Setting up L2_b9_cbr2_bn
I0817 16:02:21.628631 17829 net.cpp:157] Top shape: 125 32 16 16 (1024000)
I0817 16:02:21.628641 17829 net.cpp:165] Memory required for data: 1236481500
I0817 16:02:21.628710 17829 layer_factory.hpp:77] Creating layer L2_b9_cbr2_scale
I0817 16:02:21.628731 17829 net.cpp:100] Creating Layer L2_b9_cbr2_scale
I0817 16:02:21.628748 17829 net.cpp:434] L2_b9_cbr2_scale <- L2_b9_cbr2_bn_top
I0817 16:02:21.628764 17829 net.cpp:395] L2_b9_cbr2_scale -> L2_b9_cbr2_bn_top (in-place)
I0817 16:02:21.628859 17829 layer_factory.hpp:77] Creating layer L2_b9_cbr2_scale
I0817 16:02:21.629045 17829 net.cpp:150] Setting up L2_b9_cbr2_scale
I0817 16:02:21.629065 17829 net.cpp:157] Top shape: 125 32 16 16 (1024000)
I0817 16:02:21.629073 17829 net.cpp:165] Memory required for data: 1240577500
I0817 16:02:21.629091 17829 layer_factory.hpp:77] Creating layer L2_b9_sum_eltwise
I0817 16:02:21.629108 17829 net.cpp:100] Creating Layer L2_b9_sum_eltwise
I0817 16:02:21.629120 17829 net.cpp:434] L2_b9_sum_eltwise <- L2_b9_cbr2_bn_top
I0817 16:02:21.629133 17829 net.cpp:434] L2_b9_sum_eltwise <- L2_b8_sum_eltwise_top_L2_b8_relu_0_split_1
I0817 16:02:21.629153 17829 net.cpp:408] L2_b9_sum_eltwise -> L2_b9_sum_eltwise_top
I0817 16:02:21.629202 17829 net.cpp:150] Setting up L2_b9_sum_eltwise
I0817 16:02:21.629220 17829 net.cpp:157] Top shape: 125 32 16 16 (1024000)
I0817 16:02:21.629230 17829 net.cpp:165] Memory required for data: 1244673500
I0817 16:02:21.629241 17829 layer_factory.hpp:77] Creating layer L2_b9_relu
I0817 16:02:21.629259 17829 net.cpp:100] Creating Layer L2_b9_relu
I0817 16:02:21.629272 17829 net.cpp:434] L2_b9_relu <- L2_b9_sum_eltwise_top
I0817 16:02:21.629287 17829 net.cpp:395] L2_b9_relu -> L2_b9_sum_eltwise_top (in-place)
I0817 16:02:21.629304 17829 net.cpp:150] Setting up L2_b9_relu
I0817 16:02:21.629320 17829 net.cpp:157] Top shape: 125 32 16 16 (1024000)
I0817 16:02:21.629329 17829 net.cpp:165] Memory required for data: 1248769500
I0817 16:02:21.629346 17829 layer_factory.hpp:77] Creating layer L2_b9_sum_eltwise_top_L2_b9_relu_0_split
I0817 16:02:21.629365 17829 net.cpp:100] Creating Layer L2_b9_sum_eltwise_top_L2_b9_relu_0_split
I0817 16:02:21.629377 17829 net.cpp:434] L2_b9_sum_eltwise_top_L2_b9_relu_0_split <- L2_b9_sum_eltwise_top
I0817 16:02:21.629391 17829 net.cpp:408] L2_b9_sum_eltwise_top_L2_b9_relu_0_split -> L2_b9_sum_eltwise_top_L2_b9_relu_0_split_0
I0817 16:02:21.629412 17829 net.cpp:408] L2_b9_sum_eltwise_top_L2_b9_relu_0_split -> L2_b9_sum_eltwise_top_L2_b9_relu_0_split_1
I0817 16:02:21.629496 17829 net.cpp:150] Setting up L2_b9_sum_eltwise_top_L2_b9_relu_0_split
I0817 16:02:21.629523 17829 net.cpp:157] Top shape: 125 32 16 16 (1024000)
I0817 16:02:21.629536 17829 net.cpp:157] Top shape: 125 32 16 16 (1024000)
I0817 16:02:21.629546 17829 net.cpp:165] Memory required for data: 1256961500
I0817 16:02:21.629557 17829 layer_factory.hpp:77] Creating layer L3_b1_cbr1_conv
I0817 16:02:21.629592 17829 net.cpp:100] Creating Layer L3_b1_cbr1_conv
I0817 16:02:21.629607 17829 net.cpp:434] L3_b1_cbr1_conv <- L2_b9_sum_eltwise_top_L2_b9_relu_0_split_0
I0817 16:02:21.629627 17829 net.cpp:408] L3_b1_cbr1_conv -> L3_b1_cbr1_conv_top
I0817 16:02:21.630153 17829 net.cpp:150] Setting up L3_b1_cbr1_conv
I0817 16:02:21.630173 17829 net.cpp:157] Top shape: 125 32 8 8 (256000)
I0817 16:02:21.630182 17829 net.cpp:165] Memory required for data: 1257985500
I0817 16:02:21.630200 17829 layer_factory.hpp:77] Creating layer L3_b1_cbr1_bn
I0817 16:02:21.630223 17829 net.cpp:100] Creating Layer L3_b1_cbr1_bn
I0817 16:02:21.630235 17829 net.cpp:434] L3_b1_cbr1_bn <- L3_b1_cbr1_conv_top
I0817 16:02:21.630252 17829 net.cpp:408] L3_b1_cbr1_bn -> L3_b1_cbr1_bn_top
I0817 16:02:21.630551 17829 net.cpp:150] Setting up L3_b1_cbr1_bn
I0817 16:02:21.630570 17829 net.cpp:157] Top shape: 125 32 8 8 (256000)
I0817 16:02:21.630585 17829 net.cpp:165] Memory required for data: 1259009500
I0817 16:02:21.630609 17829 layer_factory.hpp:77] Creating layer L3_b1_cbr1_scale
I0817 16:02:21.630630 17829 net.cpp:100] Creating Layer L3_b1_cbr1_scale
I0817 16:02:21.630642 17829 net.cpp:434] L3_b1_cbr1_scale <- L3_b1_cbr1_bn_top
I0817 16:02:21.630658 17829 net.cpp:395] L3_b1_cbr1_scale -> L3_b1_cbr1_bn_top (in-place)
I0817 16:02:21.630759 17829 layer_factory.hpp:77] Creating layer L3_b1_cbr1_scale
I0817 16:02:21.630952 17829 net.cpp:150] Setting up L3_b1_cbr1_scale
I0817 16:02:21.630972 17829 net.cpp:157] Top shape: 125 32 8 8 (256000)
I0817 16:02:21.630981 17829 net.cpp:165] Memory required for data: 1260033500
I0817 16:02:21.631000 17829 layer_factory.hpp:77] Creating layer L3_b1_cbr1_relu
I0817 16:02:21.631016 17829 net.cpp:100] Creating Layer L3_b1_cbr1_relu
I0817 16:02:21.631028 17829 net.cpp:434] L3_b1_cbr1_relu <- L3_b1_cbr1_bn_top
I0817 16:02:21.631048 17829 net.cpp:395] L3_b1_cbr1_relu -> L3_b1_cbr1_bn_top (in-place)
I0817 16:02:21.631068 17829 net.cpp:150] Setting up L3_b1_cbr1_relu
I0817 16:02:21.631083 17829 net.cpp:157] Top shape: 125 32 8 8 (256000)
I0817 16:02:21.631093 17829 net.cpp:165] Memory required for data: 1261057500
I0817 16:02:21.631104 17829 layer_factory.hpp:77] Creating layer L3_b1_cbr2_conv
I0817 16:02:21.631124 17829 net.cpp:100] Creating Layer L3_b1_cbr2_conv
I0817 16:02:21.631136 17829 net.cpp:434] L3_b1_cbr2_conv <- L3_b1_cbr1_bn_top
I0817 16:02:21.631158 17829 net.cpp:408] L3_b1_cbr2_conv -> L3_b1_cbr2_conv_top
I0817 16:02:21.631686 17829 net.cpp:150] Setting up L3_b1_cbr2_conv
I0817 16:02:21.631705 17829 net.cpp:157] Top shape: 125 32 8 8 (256000)
I0817 16:02:21.631716 17829 net.cpp:165] Memory required for data: 1262081500
I0817 16:02:21.631733 17829 layer_factory.hpp:77] Creating layer L3_b1_cbr2_bn
I0817 16:02:21.631754 17829 net.cpp:100] Creating Layer L3_b1_cbr2_bn
I0817 16:02:21.631767 17829 net.cpp:434] L3_b1_cbr2_bn <- L3_b1_cbr2_conv_top
I0817 16:02:21.631783 17829 net.cpp:408] L3_b1_cbr2_bn -> L3_b1_cbr2_bn_top
I0817 16:02:21.632086 17829 net.cpp:150] Setting up L3_b1_cbr2_bn
I0817 16:02:21.632104 17829 net.cpp:157] Top shape: 125 32 8 8 (256000)
I0817 16:02:21.632122 17829 net.cpp:165] Memory required for data: 1263105500
I0817 16:02:21.632143 17829 layer_factory.hpp:77] Creating layer L3_b1_cbr2_scale
I0817 16:02:21.632160 17829 net.cpp:100] Creating Layer L3_b1_cbr2_scale
I0817 16:02:21.632174 17829 net.cpp:434] L3_b1_cbr2_scale <- L3_b1_cbr2_bn_top
I0817 16:02:21.632187 17829 net.cpp:395] L3_b1_cbr2_scale -> L3_b1_cbr2_bn_top (in-place)
I0817 16:02:21.632285 17829 layer_factory.hpp:77] Creating layer L3_b1_cbr2_scale
I0817 16:02:21.632488 17829 net.cpp:150] Setting up L3_b1_cbr2_scale
I0817 16:02:21.632511 17829 net.cpp:157] Top shape: 125 32 8 8 (256000)
I0817 16:02:21.632521 17829 net.cpp:165] Memory required for data: 1264129500
I0817 16:02:21.632540 17829 layer_factory.hpp:77] Creating layer L3_b1_pool
I0817 16:02:21.632557 17829 net.cpp:100] Creating Layer L3_b1_pool
I0817 16:02:21.632570 17829 net.cpp:434] L3_b1_pool <- L2_b9_sum_eltwise_top_L2_b9_relu_0_split_1
I0817 16:02:21.632593 17829 net.cpp:408] L3_b1_pool -> L3_b1_pool
I0817 16:02:21.632655 17829 net.cpp:150] Setting up L3_b1_pool
I0817 16:02:21.632674 17829 net.cpp:157] Top shape: 125 32 8 8 (256000)
I0817 16:02:21.632685 17829 net.cpp:165] Memory required for data: 1265153500
I0817 16:02:21.632695 17829 layer_factory.hpp:77] Creating layer L3_b1_sum_eltwise
I0817 16:02:21.632715 17829 net.cpp:100] Creating Layer L3_b1_sum_eltwise
I0817 16:02:21.632728 17829 net.cpp:434] L3_b1_sum_eltwise <- L3_b1_cbr2_bn_top
I0817 16:02:21.632741 17829 net.cpp:434] L3_b1_sum_eltwise <- L3_b1_pool
I0817 16:02:21.632756 17829 net.cpp:408] L3_b1_sum_eltwise -> L3_b1_sum_eltwise_top
I0817 16:02:21.632818 17829 net.cpp:150] Setting up L3_b1_sum_eltwise
I0817 16:02:21.632836 17829 net.cpp:157] Top shape: 125 32 8 8 (256000)
I0817 16:02:21.632848 17829 net.cpp:165] Memory required for data: 1266177500
I0817 16:02:21.632858 17829 layer_factory.hpp:77] Creating layer L3_b1_relu
I0817 16:02:21.632872 17829 net.cpp:100] Creating Layer L3_b1_relu
I0817 16:02:21.632884 17829 net.cpp:434] L3_b1_relu <- L3_b1_sum_eltwise_top
I0817 16:02:21.632899 17829 net.cpp:395] L3_b1_relu -> L3_b1_sum_eltwise_top (in-place)
I0817 16:02:21.632916 17829 net.cpp:150] Setting up L3_b1_relu
I0817 16:02:21.632931 17829 net.cpp:157] Top shape: 125 32 8 8 (256000)
I0817 16:02:21.632941 17829 net.cpp:165] Memory required for data: 1267201500
I0817 16:02:21.632951 17829 layer_factory.hpp:77] Creating layer L3_b1_zeros
I0817 16:02:21.632968 17829 net.cpp:100] Creating Layer L3_b1_zeros
I0817 16:02:21.632987 17829 net.cpp:408] L3_b1_zeros -> L3_b1_zeros
I0817 16:02:21.634270 17829 net.cpp:150] Setting up L3_b1_zeros
I0817 16:02:21.634294 17829 net.cpp:157] Top shape: 125 32 8 8 (256000)
I0817 16:02:21.634308 17829 net.cpp:165] Memory required for data: 1268225500
I0817 16:02:21.634318 17829 layer_factory.hpp:77] Creating layer L3_b1_concat0
I0817 16:02:21.634335 17829 net.cpp:100] Creating Layer L3_b1_concat0
I0817 16:02:21.634347 17829 net.cpp:434] L3_b1_concat0 <- L3_b1_sum_eltwise_top
I0817 16:02:21.634361 17829 net.cpp:434] L3_b1_concat0 <- L3_b1_zeros
I0817 16:02:21.634377 17829 net.cpp:408] L3_b1_concat0 -> L3_b1_concat0
I0817 16:02:21.634449 17829 net.cpp:150] Setting up L3_b1_concat0
I0817 16:02:21.634470 17829 net.cpp:157] Top shape: 125 64 8 8 (512000)
I0817 16:02:21.634480 17829 net.cpp:165] Memory required for data: 1270273500
I0817 16:02:21.634490 17829 layer_factory.hpp:77] Creating layer L3_b1_concat0_L3_b1_concat0_0_split
I0817 16:02:21.634505 17829 net.cpp:100] Creating Layer L3_b1_concat0_L3_b1_concat0_0_split
I0817 16:02:21.634516 17829 net.cpp:434] L3_b1_concat0_L3_b1_concat0_0_split <- L3_b1_concat0
I0817 16:02:21.634536 17829 net.cpp:408] L3_b1_concat0_L3_b1_concat0_0_split -> L3_b1_concat0_L3_b1_concat0_0_split_0
I0817 16:02:21.634557 17829 net.cpp:408] L3_b1_concat0_L3_b1_concat0_0_split -> L3_b1_concat0_L3_b1_concat0_0_split_1
I0817 16:02:21.634655 17829 net.cpp:150] Setting up L3_b1_concat0_L3_b1_concat0_0_split
I0817 16:02:21.634675 17829 net.cpp:157] Top shape: 125 64 8 8 (512000)
I0817 16:02:21.634687 17829 net.cpp:157] Top shape: 125 64 8 8 (512000)
I0817 16:02:21.634706 17829 net.cpp:165] Memory required for data: 1274369500
I0817 16:02:21.634718 17829 layer_factory.hpp:77] Creating layer L3_b2_cbr1_conv
I0817 16:02:21.634742 17829 net.cpp:100] Creating Layer L3_b2_cbr1_conv
I0817 16:02:21.634757 17829 net.cpp:434] L3_b2_cbr1_conv <- L3_b1_concat0_L3_b1_concat0_0_split_0
I0817 16:02:21.634776 17829 net.cpp:408] L3_b2_cbr1_conv -> L3_b2_cbr1_conv_top
I0817 16:02:21.636808 17829 net.cpp:150] Setting up L3_b2_cbr1_conv
I0817 16:02:21.636837 17829 net.cpp:157] Top shape: 125 64 8 8 (512000)
I0817 16:02:21.636849 17829 net.cpp:165] Memory required for data: 1276417500
I0817 16:02:21.636868 17829 layer_factory.hpp:77] Creating layer L3_b2_cbr1_bn
I0817 16:02:21.636886 17829 net.cpp:100] Creating Layer L3_b2_cbr1_bn
I0817 16:02:21.636898 17829 net.cpp:434] L3_b2_cbr1_bn <- L3_b2_cbr1_conv_top
I0817 16:02:21.636920 17829 net.cpp:408] L3_b2_cbr1_bn -> L3_b2_cbr1_bn_top
I0817 16:02:21.637235 17829 net.cpp:150] Setting up L3_b2_cbr1_bn
I0817 16:02:21.637254 17829 net.cpp:157] Top shape: 125 64 8 8 (512000)
I0817 16:02:21.637264 17829 net.cpp:165] Memory required for data: 1278465500
I0817 16:02:21.637284 17829 layer_factory.hpp:77] Creating layer L3_b2_cbr1_scale
I0817 16:02:21.637305 17829 net.cpp:100] Creating Layer L3_b2_cbr1_scale
I0817 16:02:21.637320 17829 net.cpp:434] L3_b2_cbr1_scale <- L3_b2_cbr1_bn_top
I0817 16:02:21.637336 17829 net.cpp:395] L3_b2_cbr1_scale -> L3_b2_cbr1_bn_top (in-place)
I0817 16:02:21.637428 17829 layer_factory.hpp:77] Creating layer L3_b2_cbr1_scale
I0817 16:02:21.637625 17829 net.cpp:150] Setting up L3_b2_cbr1_scale
I0817 16:02:21.637645 17829 net.cpp:157] Top shape: 125 64 8 8 (512000)
I0817 16:02:21.637655 17829 net.cpp:165] Memory required for data: 1280513500
I0817 16:02:21.637673 17829 layer_factory.hpp:77] Creating layer L3_b2_cbr1_relu
I0817 16:02:21.637688 17829 net.cpp:100] Creating Layer L3_b2_cbr1_relu
I0817 16:02:21.637701 17829 net.cpp:434] L3_b2_cbr1_relu <- L3_b2_cbr1_bn_top
I0817 16:02:21.637718 17829 net.cpp:395] L3_b2_cbr1_relu -> L3_b2_cbr1_bn_top (in-place)
I0817 16:02:21.637739 17829 net.cpp:150] Setting up L3_b2_cbr1_relu
I0817 16:02:21.637753 17829 net.cpp:157] Top shape: 125 64 8 8 (512000)
I0817 16:02:21.637763 17829 net.cpp:165] Memory required for data: 1282561500
I0817 16:02:21.637773 17829 layer_factory.hpp:77] Creating layer L3_b2_cbr2_conv
I0817 16:02:21.637799 17829 net.cpp:100] Creating Layer L3_b2_cbr2_conv
I0817 16:02:21.637812 17829 net.cpp:434] L3_b2_cbr2_conv <- L3_b2_cbr1_bn_top
I0817 16:02:21.637830 17829 net.cpp:408] L3_b2_cbr2_conv -> L3_b2_cbr2_conv_top
I0817 16:02:21.638896 17829 net.cpp:150] Setting up L3_b2_cbr2_conv
I0817 16:02:21.638916 17829 net.cpp:157] Top shape: 125 64 8 8 (512000)
I0817 16:02:21.638926 17829 net.cpp:165] Memory required for data: 1284609500
I0817 16:02:21.638952 17829 layer_factory.hpp:77] Creating layer L3_b2_cbr2_bn
I0817 16:02:21.638973 17829 net.cpp:100] Creating Layer L3_b2_cbr2_bn
I0817 16:02:21.638988 17829 net.cpp:434] L3_b2_cbr2_bn <- L3_b2_cbr2_conv_top
I0817 16:02:21.639004 17829 net.cpp:408] L3_b2_cbr2_bn -> L3_b2_cbr2_bn_top
I0817 16:02:21.639315 17829 net.cpp:150] Setting up L3_b2_cbr2_bn
I0817 16:02:21.639333 17829 net.cpp:157] Top shape: 125 64 8 8 (512000)
I0817 16:02:21.639343 17829 net.cpp:165] Memory required for data: 1286657500
I0817 16:02:21.639364 17829 layer_factory.hpp:77] Creating layer L3_b2_cbr2_scale
I0817 16:02:21.639381 17829 net.cpp:100] Creating Layer L3_b2_cbr2_scale
I0817 16:02:21.639394 17829 net.cpp:434] L3_b2_cbr2_scale <- L3_b2_cbr2_bn_top
I0817 16:02:21.639410 17829 net.cpp:395] L3_b2_cbr2_scale -> L3_b2_cbr2_bn_top (in-place)
I0817 16:02:21.639508 17829 layer_factory.hpp:77] Creating layer L3_b2_cbr2_scale
I0817 16:02:21.639708 17829 net.cpp:150] Setting up L3_b2_cbr2_scale
I0817 16:02:21.639727 17829 net.cpp:157] Top shape: 125 64 8 8 (512000)
I0817 16:02:21.639736 17829 net.cpp:165] Memory required for data: 1288705500
I0817 16:02:21.639755 17829 layer_factory.hpp:77] Creating layer L3_b2_sum_eltwise
I0817 16:02:21.639783 17829 net.cpp:100] Creating Layer L3_b2_sum_eltwise
I0817 16:02:21.639796 17829 net.cpp:434] L3_b2_sum_eltwise <- L3_b2_cbr2_bn_top
I0817 16:02:21.639811 17829 net.cpp:434] L3_b2_sum_eltwise <- L3_b1_concat0_L3_b1_concat0_0_split_1
I0817 16:02:21.639832 17829 net.cpp:408] L3_b2_sum_eltwise -> L3_b2_sum_eltwise_top
I0817 16:02:21.639890 17829 net.cpp:150] Setting up L3_b2_sum_eltwise
I0817 16:02:21.639917 17829 net.cpp:157] Top shape: 125 64 8 8 (512000)
I0817 16:02:21.639928 17829 net.cpp:165] Memory required for data: 1290753500
I0817 16:02:21.639940 17829 layer_factory.hpp:77] Creating layer L3_b2_relu
I0817 16:02:21.639952 17829 net.cpp:100] Creating Layer L3_b2_relu
I0817 16:02:21.639964 17829 net.cpp:434] L3_b2_relu <- L3_b2_sum_eltwise_top
I0817 16:02:21.639979 17829 net.cpp:395] L3_b2_relu -> L3_b2_sum_eltwise_top (in-place)
I0817 16:02:21.639998 17829 net.cpp:150] Setting up L3_b2_relu
I0817 16:02:21.640013 17829 net.cpp:157] Top shape: 125 64 8 8 (512000)
I0817 16:02:21.640023 17829 net.cpp:165] Memory required for data: 1292801500
I0817 16:02:21.640033 17829 layer_factory.hpp:77] Creating layer L3_b2_sum_eltwise_top_L3_b2_relu_0_split
I0817 16:02:21.640051 17829 net.cpp:100] Creating Layer L3_b2_sum_eltwise_top_L3_b2_relu_0_split
I0817 16:02:21.640064 17829 net.cpp:434] L3_b2_sum_eltwise_top_L3_b2_relu_0_split <- L3_b2_sum_eltwise_top
I0817 16:02:21.640079 17829 net.cpp:408] L3_b2_sum_eltwise_top_L3_b2_relu_0_split -> L3_b2_sum_eltwise_top_L3_b2_relu_0_split_0
I0817 16:02:21.640100 17829 net.cpp:408] L3_b2_sum_eltwise_top_L3_b2_relu_0_split -> L3_b2_sum_eltwise_top_L3_b2_relu_0_split_1
I0817 16:02:21.640187 17829 net.cpp:150] Setting up L3_b2_sum_eltwise_top_L3_b2_relu_0_split
I0817 16:02:21.640204 17829 net.cpp:157] Top shape: 125 64 8 8 (512000)
I0817 16:02:21.640216 17829 net.cpp:157] Top shape: 125 64 8 8 (512000)
I0817 16:02:21.640226 17829 net.cpp:165] Memory required for data: 1296897500
I0817 16:02:21.640236 17829 layer_factory.hpp:77] Creating layer L3_b3_cbr1_conv
I0817 16:02:21.640257 17829 net.cpp:100] Creating Layer L3_b3_cbr1_conv
I0817 16:02:21.640270 17829 net.cpp:434] L3_b3_cbr1_conv <- L3_b2_sum_eltwise_top_L3_b2_relu_0_split_0
I0817 16:02:21.640295 17829 net.cpp:408] L3_b3_cbr1_conv -> L3_b3_cbr1_conv_top
I0817 16:02:21.641361 17829 net.cpp:150] Setting up L3_b3_cbr1_conv
I0817 16:02:21.641381 17829 net.cpp:157] Top shape: 125 64 8 8 (512000)
I0817 16:02:21.641391 17829 net.cpp:165] Memory required for data: 1298945500
I0817 16:02:21.641410 17829 layer_factory.hpp:77] Creating layer L3_b3_cbr1_bn
I0817 16:02:21.641427 17829 net.cpp:100] Creating Layer L3_b3_cbr1_bn
I0817 16:02:21.641439 17829 net.cpp:434] L3_b3_cbr1_bn <- L3_b3_cbr1_conv_top
I0817 16:02:21.641460 17829 net.cpp:408] L3_b3_cbr1_bn -> L3_b3_cbr1_bn_top
I0817 16:02:21.641762 17829 net.cpp:150] Setting up L3_b3_cbr1_bn
I0817 16:02:21.641786 17829 net.cpp:157] Top shape: 125 64 8 8 (512000)
I0817 16:02:21.641798 17829 net.cpp:165] Memory required for data: 1300993500
I0817 16:02:21.641819 17829 layer_factory.hpp:77] Creating layer L3_b3_cbr1_scale
I0817 16:02:21.641835 17829 net.cpp:100] Creating Layer L3_b3_cbr1_scale
I0817 16:02:21.641849 17829 net.cpp:434] L3_b3_cbr1_scale <- L3_b3_cbr1_bn_top
I0817 16:02:21.641865 17829 net.cpp:395] L3_b3_cbr1_scale -> L3_b3_cbr1_bn_top (in-place)
I0817 16:02:21.641964 17829 layer_factory.hpp:77] Creating layer L3_b3_cbr1_scale
I0817 16:02:21.642155 17829 net.cpp:150] Setting up L3_b3_cbr1_scale
I0817 16:02:21.642174 17829 net.cpp:157] Top shape: 125 64 8 8 (512000)
I0817 16:02:21.642184 17829 net.cpp:165] Memory required for data: 1303041500
I0817 16:02:21.642202 17829 layer_factory.hpp:77] Creating layer L3_b3_cbr1_relu
I0817 16:02:21.642218 17829 net.cpp:100] Creating Layer L3_b3_cbr1_relu
I0817 16:02:21.642230 17829 net.cpp:434] L3_b3_cbr1_relu <- L3_b3_cbr1_bn_top
I0817 16:02:21.642253 17829 net.cpp:395] L3_b3_cbr1_relu -> L3_b3_cbr1_bn_top (in-place)
I0817 16:02:21.642274 17829 net.cpp:150] Setting up L3_b3_cbr1_relu
I0817 16:02:21.642289 17829 net.cpp:157] Top shape: 125 64 8 8 (512000)
I0817 16:02:21.642308 17829 net.cpp:165] Memory required for data: 1305089500
I0817 16:02:21.642319 17829 layer_factory.hpp:77] Creating layer L3_b3_cbr2_conv
I0817 16:02:21.642344 17829 net.cpp:100] Creating Layer L3_b3_cbr2_conv
I0817 16:02:21.642359 17829 net.cpp:434] L3_b3_cbr2_conv <- L3_b3_cbr1_bn_top
I0817 16:02:21.642377 17829 net.cpp:408] L3_b3_cbr2_conv -> L3_b3_cbr2_conv_top
I0817 16:02:21.643445 17829 net.cpp:150] Setting up L3_b3_cbr2_conv
I0817 16:02:21.643465 17829 net.cpp:157] Top shape: 125 64 8 8 (512000)
I0817 16:02:21.643476 17829 net.cpp:165] Memory required for data: 1307137500
I0817 16:02:21.643493 17829 layer_factory.hpp:77] Creating layer L3_b3_cbr2_bn
I0817 16:02:21.643515 17829 net.cpp:100] Creating Layer L3_b3_cbr2_bn
I0817 16:02:21.643527 17829 net.cpp:434] L3_b3_cbr2_bn <- L3_b3_cbr2_conv_top
I0817 16:02:21.643550 17829 net.cpp:408] L3_b3_cbr2_bn -> L3_b3_cbr2_bn_top
I0817 16:02:21.643849 17829 net.cpp:150] Setting up L3_b3_cbr2_bn
I0817 16:02:21.643868 17829 net.cpp:157] Top shape: 125 64 8 8 (512000)
I0817 16:02:21.643877 17829 net.cpp:165] Memory required for data: 1309185500
I0817 16:02:21.643898 17829 layer_factory.hpp:77] Creating layer L3_b3_cbr2_scale
I0817 16:02:21.643915 17829 net.cpp:100] Creating Layer L3_b3_cbr2_scale
I0817 16:02:21.643928 17829 net.cpp:434] L3_b3_cbr2_scale <- L3_b3_cbr2_bn_top
I0817 16:02:21.643947 17829 net.cpp:395] L3_b3_cbr2_scale -> L3_b3_cbr2_bn_top (in-place)
I0817 16:02:21.644039 17829 layer_factory.hpp:77] Creating layer L3_b3_cbr2_scale
I0817 16:02:21.644232 17829 net.cpp:150] Setting up L3_b3_cbr2_scale
I0817 16:02:21.644249 17829 net.cpp:157] Top shape: 125 64 8 8 (512000)
I0817 16:02:21.644258 17829 net.cpp:165] Memory required for data: 1311233500
I0817 16:02:21.644278 17829 layer_factory.hpp:77] Creating layer L3_b3_sum_eltwise
I0817 16:02:21.644294 17829 net.cpp:100] Creating Layer L3_b3_sum_eltwise
I0817 16:02:21.644306 17829 net.cpp:434] L3_b3_sum_eltwise <- L3_b3_cbr2_bn_top
I0817 16:02:21.644320 17829 net.cpp:434] L3_b3_sum_eltwise <- L3_b2_sum_eltwise_top_L3_b2_relu_0_split_1
I0817 16:02:21.644343 17829 net.cpp:408] L3_b3_sum_eltwise -> L3_b3_sum_eltwise_top
I0817 16:02:21.644407 17829 net.cpp:150] Setting up L3_b3_sum_eltwise
I0817 16:02:21.644425 17829 net.cpp:157] Top shape: 125 64 8 8 (512000)
I0817 16:02:21.644435 17829 net.cpp:165] Memory required for data: 1313281500
I0817 16:02:21.644445 17829 layer_factory.hpp:77] Creating layer L3_b3_relu
I0817 16:02:21.644459 17829 net.cpp:100] Creating Layer L3_b3_relu
I0817 16:02:21.644471 17829 net.cpp:434] L3_b3_relu <- L3_b3_sum_eltwise_top
I0817 16:02:21.644485 17829 net.cpp:395] L3_b3_relu -> L3_b3_sum_eltwise_top (in-place)
I0817 16:02:21.644510 17829 net.cpp:150] Setting up L3_b3_relu
I0817 16:02:21.644525 17829 net.cpp:157] Top shape: 125 64 8 8 (512000)
I0817 16:02:21.644534 17829 net.cpp:165] Memory required for data: 1315329500
I0817 16:02:21.644546 17829 layer_factory.hpp:77] Creating layer L3_b3_sum_eltwise_top_L3_b3_relu_0_split
I0817 16:02:21.644559 17829 net.cpp:100] Creating Layer L3_b3_sum_eltwise_top_L3_b3_relu_0_split
I0817 16:02:21.644570 17829 net.cpp:434] L3_b3_sum_eltwise_top_L3_b3_relu_0_split <- L3_b3_sum_eltwise_top
I0817 16:02:21.644593 17829 net.cpp:408] L3_b3_sum_eltwise_top_L3_b3_relu_0_split -> L3_b3_sum_eltwise_top_L3_b3_relu_0_split_0
I0817 16:02:21.644614 17829 net.cpp:408] L3_b3_sum_eltwise_top_L3_b3_relu_0_split -> L3_b3_sum_eltwise_top_L3_b3_relu_0_split_1
I0817 16:02:21.644701 17829 net.cpp:150] Setting up L3_b3_sum_eltwise_top_L3_b3_relu_0_split
I0817 16:02:21.644719 17829 net.cpp:157] Top shape: 125 64 8 8 (512000)
I0817 16:02:21.644732 17829 net.cpp:157] Top shape: 125 64 8 8 (512000)
I0817 16:02:21.644742 17829 net.cpp:165] Memory required for data: 1319425500
I0817 16:02:21.644752 17829 layer_factory.hpp:77] Creating layer L3_b4_cbr1_conv
I0817 16:02:21.644773 17829 net.cpp:100] Creating Layer L3_b4_cbr1_conv
I0817 16:02:21.644785 17829 net.cpp:434] L3_b4_cbr1_conv <- L3_b3_sum_eltwise_top_L3_b3_relu_0_split_0
I0817 16:02:21.644809 17829 net.cpp:408] L3_b4_cbr1_conv -> L3_b4_cbr1_conv_top
I0817 16:02:21.645898 17829 net.cpp:150] Setting up L3_b4_cbr1_conv
I0817 16:02:21.645918 17829 net.cpp:157] Top shape: 125 64 8 8 (512000)
I0817 16:02:21.645928 17829 net.cpp:165] Memory required for data: 1321473500
I0817 16:02:21.645946 17829 layer_factory.hpp:77] Creating layer L3_b4_cbr1_bn
I0817 16:02:21.645964 17829 net.cpp:100] Creating Layer L3_b4_cbr1_bn
I0817 16:02:21.645975 17829 net.cpp:434] L3_b4_cbr1_bn <- L3_b4_cbr1_conv_top
I0817 16:02:21.645998 17829 net.cpp:408] L3_b4_cbr1_bn -> L3_b4_cbr1_bn_top
I0817 16:02:21.646301 17829 net.cpp:150] Setting up L3_b4_cbr1_bn
I0817 16:02:21.646323 17829 net.cpp:157] Top shape: 125 64 8 8 (512000)
I0817 16:02:21.646333 17829 net.cpp:165] Memory required for data: 1323521500
I0817 16:02:21.646356 17829 layer_factory.hpp:77] Creating layer L3_b4_cbr1_scale
I0817 16:02:21.646373 17829 net.cpp:100] Creating Layer L3_b4_cbr1_scale
I0817 16:02:21.646384 17829 net.cpp:434] L3_b4_cbr1_scale <- L3_b4_cbr1_bn_top
I0817 16:02:21.646400 17829 net.cpp:395] L3_b4_cbr1_scale -> L3_b4_cbr1_bn_top (in-place)
I0817 16:02:21.646493 17829 layer_factory.hpp:77] Creating layer L3_b4_cbr1_scale
I0817 16:02:21.646692 17829 net.cpp:150] Setting up L3_b4_cbr1_scale
I0817 16:02:21.646711 17829 net.cpp:157] Top shape: 125 64 8 8 (512000)
I0817 16:02:21.646721 17829 net.cpp:165] Memory required for data: 1325569500
I0817 16:02:21.646739 17829 layer_factory.hpp:77] Creating layer L3_b4_cbr1_relu
I0817 16:02:21.646759 17829 net.cpp:100] Creating Layer L3_b4_cbr1_relu
I0817 16:02:21.646772 17829 net.cpp:434] L3_b4_cbr1_relu <- L3_b4_cbr1_bn_top
I0817 16:02:21.646787 17829 net.cpp:395] L3_b4_cbr1_relu -> L3_b4_cbr1_bn_top (in-place)
I0817 16:02:21.646806 17829 net.cpp:150] Setting up L3_b4_cbr1_relu
I0817 16:02:21.646821 17829 net.cpp:157] Top shape: 125 64 8 8 (512000)
I0817 16:02:21.646831 17829 net.cpp:165] Memory required for data: 1327617500
I0817 16:02:21.646842 17829 layer_factory.hpp:77] Creating layer L3_b4_cbr2_conv
I0817 16:02:21.646865 17829 net.cpp:100] Creating Layer L3_b4_cbr2_conv
I0817 16:02:21.646878 17829 net.cpp:434] L3_b4_cbr2_conv <- L3_b4_cbr1_bn_top
I0817 16:02:21.646896 17829 net.cpp:408] L3_b4_cbr2_conv -> L3_b4_cbr2_conv_top
I0817 16:02:21.647964 17829 net.cpp:150] Setting up L3_b4_cbr2_conv
I0817 16:02:21.647984 17829 net.cpp:157] Top shape: 125 64 8 8 (512000)
I0817 16:02:21.647994 17829 net.cpp:165] Memory required for data: 1329665500
I0817 16:02:21.648012 17829 layer_factory.hpp:77] Creating layer L3_b4_cbr2_bn
I0817 16:02:21.648035 17829 net.cpp:100] Creating Layer L3_b4_cbr2_bn
I0817 16:02:21.648047 17829 net.cpp:434] L3_b4_cbr2_bn <- L3_b4_cbr2_conv_top
I0817 16:02:21.648068 17829 net.cpp:408] L3_b4_cbr2_bn -> L3_b4_cbr2_bn_top
I0817 16:02:21.648366 17829 net.cpp:150] Setting up L3_b4_cbr2_bn
I0817 16:02:21.648386 17829 net.cpp:157] Top shape: 125 64 8 8 (512000)
I0817 16:02:21.648394 17829 net.cpp:165] Memory required for data: 1331713500
I0817 16:02:21.648416 17829 layer_factory.hpp:77] Creating layer L3_b4_cbr2_scale
I0817 16:02:21.648432 17829 net.cpp:100] Creating Layer L3_b4_cbr2_scale
I0817 16:02:21.648444 17829 net.cpp:434] L3_b4_cbr2_scale <- L3_b4_cbr2_bn_top
I0817 16:02:21.648464 17829 net.cpp:395] L3_b4_cbr2_scale -> L3_b4_cbr2_bn_top (in-place)
I0817 16:02:21.648561 17829 layer_factory.hpp:77] Creating layer L3_b4_cbr2_scale
I0817 16:02:21.648766 17829 net.cpp:150] Setting up L3_b4_cbr2_scale
I0817 16:02:21.648784 17829 net.cpp:157] Top shape: 125 64 8 8 (512000)
I0817 16:02:21.648793 17829 net.cpp:165] Memory required for data: 1333761500
I0817 16:02:21.648813 17829 layer_factory.hpp:77] Creating layer L3_b4_sum_eltwise
I0817 16:02:21.648830 17829 net.cpp:100] Creating Layer L3_b4_sum_eltwise
I0817 16:02:21.648843 17829 net.cpp:434] L3_b4_sum_eltwise <- L3_b4_cbr2_bn_top
I0817 16:02:21.648855 17829 net.cpp:434] L3_b4_sum_eltwise <- L3_b3_sum_eltwise_top_L3_b3_relu_0_split_1
I0817 16:02:21.648876 17829 net.cpp:408] L3_b4_sum_eltwise -> L3_b4_sum_eltwise_top
I0817 16:02:21.648939 17829 net.cpp:150] Setting up L3_b4_sum_eltwise
I0817 16:02:21.648967 17829 net.cpp:157] Top shape: 125 64 8 8 (512000)
I0817 16:02:21.648977 17829 net.cpp:165] Memory required for data: 1335809500
I0817 16:02:21.648988 17829 layer_factory.hpp:77] Creating layer L3_b4_relu
I0817 16:02:21.649000 17829 net.cpp:100] Creating Layer L3_b4_relu
I0817 16:02:21.649013 17829 net.cpp:434] L3_b4_relu <- L3_b4_sum_eltwise_top
I0817 16:02:21.649032 17829 net.cpp:395] L3_b4_relu -> L3_b4_sum_eltwise_top (in-place)
I0817 16:02:21.649052 17829 net.cpp:150] Setting up L3_b4_relu
I0817 16:02:21.649067 17829 net.cpp:157] Top shape: 125 64 8 8 (512000)
I0817 16:02:21.649077 17829 net.cpp:165] Memory required for data: 1337857500
I0817 16:02:21.649087 17829 layer_factory.hpp:77] Creating layer L3_b4_sum_eltwise_top_L3_b4_relu_0_split
I0817 16:02:21.649102 17829 net.cpp:100] Creating Layer L3_b4_sum_eltwise_top_L3_b4_relu_0_split
I0817 16:02:21.649113 17829 net.cpp:434] L3_b4_sum_eltwise_top_L3_b4_relu_0_split <- L3_b4_sum_eltwise_top
I0817 16:02:21.649127 17829 net.cpp:408] L3_b4_sum_eltwise_top_L3_b4_relu_0_split -> L3_b4_sum_eltwise_top_L3_b4_relu_0_split_0
I0817 16:02:21.649147 17829 net.cpp:408] L3_b4_sum_eltwise_top_L3_b4_relu_0_split -> L3_b4_sum_eltwise_top_L3_b4_relu_0_split_1
I0817 16:02:21.649230 17829 net.cpp:150] Setting up L3_b4_sum_eltwise_top_L3_b4_relu_0_split
I0817 16:02:21.649248 17829 net.cpp:157] Top shape: 125 64 8 8 (512000)
I0817 16:02:21.649262 17829 net.cpp:157] Top shape: 125 64 8 8 (512000)
I0817 16:02:21.649271 17829 net.cpp:165] Memory required for data: 1341953500
I0817 16:02:21.649281 17829 layer_factory.hpp:77] Creating layer L3_b5_cbr1_conv
I0817 16:02:21.649302 17829 net.cpp:100] Creating Layer L3_b5_cbr1_conv
I0817 16:02:21.649314 17829 net.cpp:434] L3_b5_cbr1_conv <- L3_b4_sum_eltwise_top_L3_b4_relu_0_split_0
I0817 16:02:21.649338 17829 net.cpp:408] L3_b5_cbr1_conv -> L3_b5_cbr1_conv_top
I0817 16:02:21.650414 17829 net.cpp:150] Setting up L3_b5_cbr1_conv
I0817 16:02:21.650434 17829 net.cpp:157] Top shape: 125 64 8 8 (512000)
I0817 16:02:21.650444 17829 net.cpp:165] Memory required for data: 1344001500
I0817 16:02:21.650461 17829 layer_factory.hpp:77] Creating layer L3_b5_cbr1_bn
I0817 16:02:21.650478 17829 net.cpp:100] Creating Layer L3_b5_cbr1_bn
I0817 16:02:21.650491 17829 net.cpp:434] L3_b5_cbr1_bn <- L3_b5_cbr1_conv_top
I0817 16:02:21.650511 17829 net.cpp:408] L3_b5_cbr1_bn -> L3_b5_cbr1_bn_top
I0817 16:02:21.651821 17829 net.cpp:150] Setting up L3_b5_cbr1_bn
I0817 16:02:21.651844 17829 net.cpp:157] Top shape: 125 64 8 8 (512000)
I0817 16:02:21.651852 17829 net.cpp:165] Memory required for data: 1346049500
I0817 16:02:21.651875 17829 layer_factory.hpp:77] Creating layer L3_b5_cbr1_scale
I0817 16:02:21.651892 17829 net.cpp:100] Creating Layer L3_b5_cbr1_scale
I0817 16:02:21.651904 17829 net.cpp:434] L3_b5_cbr1_scale <- L3_b5_cbr1_bn_top
I0817 16:02:21.651924 17829 net.cpp:395] L3_b5_cbr1_scale -> L3_b5_cbr1_bn_top (in-place)
I0817 16:02:21.652017 17829 layer_factory.hpp:77] Creating layer L3_b5_cbr1_scale
I0817 16:02:21.652212 17829 net.cpp:150] Setting up L3_b5_cbr1_scale
I0817 16:02:21.652231 17829 net.cpp:157] Top shape: 125 64 8 8 (512000)
I0817 16:02:21.652241 17829 net.cpp:165] Memory required for data: 1348097500
I0817 16:02:21.652259 17829 layer_factory.hpp:77] Creating layer L3_b5_cbr1_relu
I0817 16:02:21.652276 17829 net.cpp:100] Creating Layer L3_b5_cbr1_relu
I0817 16:02:21.652288 17829 net.cpp:434] L3_b5_cbr1_relu <- L3_b5_cbr1_bn_top
I0817 16:02:21.652307 17829 net.cpp:395] L3_b5_cbr1_relu -> L3_b5_cbr1_bn_top (in-place)
I0817 16:02:21.652328 17829 net.cpp:150] Setting up L3_b5_cbr1_relu
I0817 16:02:21.652343 17829 net.cpp:157] Top shape: 125 64 8 8 (512000)
I0817 16:02:21.652353 17829 net.cpp:165] Memory required for data: 1350145500
I0817 16:02:21.652364 17829 layer_factory.hpp:77] Creating layer L3_b5_cbr2_conv
I0817 16:02:21.652390 17829 net.cpp:100] Creating Layer L3_b5_cbr2_conv
I0817 16:02:21.652402 17829 net.cpp:434] L3_b5_cbr2_conv <- L3_b5_cbr1_bn_top
I0817 16:02:21.652420 17829 net.cpp:408] L3_b5_cbr2_conv -> L3_b5_cbr2_conv_top
I0817 16:02:21.654502 17829 net.cpp:150] Setting up L3_b5_cbr2_conv
I0817 16:02:21.654525 17829 net.cpp:157] Top shape: 125 64 8 8 (512000)
I0817 16:02:21.654536 17829 net.cpp:165] Memory required for data: 1352193500
I0817 16:02:21.654553 17829 layer_factory.hpp:77] Creating layer L3_b5_cbr2_bn
I0817 16:02:21.654577 17829 net.cpp:100] Creating Layer L3_b5_cbr2_bn
I0817 16:02:21.654597 17829 net.cpp:434] L3_b5_cbr2_bn <- L3_b5_cbr2_conv_top
I0817 16:02:21.654619 17829 net.cpp:408] L3_b5_cbr2_bn -> L3_b5_cbr2_bn_top
I0817 16:02:21.654932 17829 net.cpp:150] Setting up L3_b5_cbr2_bn
I0817 16:02:21.654953 17829 net.cpp:157] Top shape: 125 64 8 8 (512000)
I0817 16:02:21.654963 17829 net.cpp:165] Memory required for data: 1354241500
I0817 16:02:21.654984 17829 layer_factory.hpp:77] Creating layer L3_b5_cbr2_scale
I0817 16:02:21.655002 17829 net.cpp:100] Creating Layer L3_b5_cbr2_scale
I0817 16:02:21.655015 17829 net.cpp:434] L3_b5_cbr2_scale <- L3_b5_cbr2_bn_top
I0817 16:02:21.655035 17829 net.cpp:395] L3_b5_cbr2_scale -> L3_b5_cbr2_bn_top (in-place)
I0817 16:02:21.655125 17829 layer_factory.hpp:77] Creating layer L3_b5_cbr2_scale
I0817 16:02:21.655315 17829 net.cpp:150] Setting up L3_b5_cbr2_scale
I0817 16:02:21.655334 17829 net.cpp:157] Top shape: 125 64 8 8 (512000)
I0817 16:02:21.655344 17829 net.cpp:165] Memory required for data: 1356289500
I0817 16:02:21.655362 17829 layer_factory.hpp:77] Creating layer L3_b5_sum_eltwise
I0817 16:02:21.655380 17829 net.cpp:100] Creating Layer L3_b5_sum_eltwise
I0817 16:02:21.655392 17829 net.cpp:434] L3_b5_sum_eltwise <- L3_b5_cbr2_bn_top
I0817 16:02:21.655405 17829 net.cpp:434] L3_b5_sum_eltwise <- L3_b4_sum_eltwise_top_L3_b4_relu_0_split_1
I0817 16:02:21.655426 17829 net.cpp:408] L3_b5_sum_eltwise -> L3_b5_sum_eltwise_top
I0817 16:02:21.655486 17829 net.cpp:150] Setting up L3_b5_sum_eltwise
I0817 16:02:21.655504 17829 net.cpp:157] Top shape: 125 64 8 8 (512000)
I0817 16:02:21.655514 17829 net.cpp:165] Memory required for data: 1358337500
I0817 16:02:21.655524 17829 layer_factory.hpp:77] Creating layer L3_b5_relu
I0817 16:02:21.655539 17829 net.cpp:100] Creating Layer L3_b5_relu
I0817 16:02:21.655551 17829 net.cpp:434] L3_b5_relu <- L3_b5_sum_eltwise_top
I0817 16:02:21.655570 17829 net.cpp:395] L3_b5_relu -> L3_b5_sum_eltwise_top (in-place)
I0817 16:02:21.655597 17829 net.cpp:150] Setting up L3_b5_relu
I0817 16:02:21.655613 17829 net.cpp:157] Top shape: 125 64 8 8 (512000)
I0817 16:02:21.655623 17829 net.cpp:165] Memory required for data: 1360385500
I0817 16:02:21.655633 17829 layer_factory.hpp:77] Creating layer L3_b5_sum_eltwise_top_L3_b5_relu_0_split
I0817 16:02:21.655647 17829 net.cpp:100] Creating Layer L3_b5_sum_eltwise_top_L3_b5_relu_0_split
I0817 16:02:21.655659 17829 net.cpp:434] L3_b5_sum_eltwise_top_L3_b5_relu_0_split <- L3_b5_sum_eltwise_top
I0817 16:02:21.655676 17829 net.cpp:408] L3_b5_sum_eltwise_top_L3_b5_relu_0_split -> L3_b5_sum_eltwise_top_L3_b5_relu_0_split_0
I0817 16:02:21.655696 17829 net.cpp:408] L3_b5_sum_eltwise_top_L3_b5_relu_0_split -> L3_b5_sum_eltwise_top_L3_b5_relu_0_split_1
I0817 16:02:21.655781 17829 net.cpp:150] Setting up L3_b5_sum_eltwise_top_L3_b5_relu_0_split
I0817 16:02:21.655800 17829 net.cpp:157] Top shape: 125 64 8 8 (512000)
I0817 16:02:21.655814 17829 net.cpp:157] Top shape: 125 64 8 8 (512000)
I0817 16:02:21.655824 17829 net.cpp:165] Memory required for data: 1364481500
I0817 16:02:21.655835 17829 layer_factory.hpp:77] Creating layer L3_b6_cbr1_conv
I0817 16:02:21.655854 17829 net.cpp:100] Creating Layer L3_b6_cbr1_conv
I0817 16:02:21.655867 17829 net.cpp:434] L3_b6_cbr1_conv <- L3_b5_sum_eltwise_top_L3_b5_relu_0_split_0
I0817 16:02:21.655891 17829 net.cpp:408] L3_b6_cbr1_conv -> L3_b6_cbr1_conv_top
I0817 16:02:21.656961 17829 net.cpp:150] Setting up L3_b6_cbr1_conv
I0817 16:02:21.656982 17829 net.cpp:157] Top shape: 125 64 8 8 (512000)
I0817 16:02:21.656991 17829 net.cpp:165] Memory required for data: 1366529500
I0817 16:02:21.657011 17829 layer_factory.hpp:77] Creating layer L3_b6_cbr1_bn
I0817 16:02:21.657027 17829 net.cpp:100] Creating Layer L3_b6_cbr1_bn
I0817 16:02:21.657047 17829 net.cpp:434] L3_b6_cbr1_bn <- L3_b6_cbr1_conv_top
I0817 16:02:21.657071 17829 net.cpp:408] L3_b6_cbr1_bn -> L3_b6_cbr1_bn_top
I0817 16:02:21.657373 17829 net.cpp:150] Setting up L3_b6_cbr1_bn
I0817 16:02:21.657397 17829 net.cpp:157] Top shape: 125 64 8 8 (512000)
I0817 16:02:21.657407 17829 net.cpp:165] Memory required for data: 1368577500
I0817 16:02:21.657429 17829 layer_factory.hpp:77] Creating layer L3_b6_cbr1_scale
I0817 16:02:21.657446 17829 net.cpp:100] Creating Layer L3_b6_cbr1_scale
I0817 16:02:21.657459 17829 net.cpp:434] L3_b6_cbr1_scale <- L3_b6_cbr1_bn_top
I0817 16:02:21.657474 17829 net.cpp:395] L3_b6_cbr1_scale -> L3_b6_cbr1_bn_top (in-place)
I0817 16:02:21.657565 17829 layer_factory.hpp:77] Creating layer L3_b6_cbr1_scale
I0817 16:02:21.657765 17829 net.cpp:150] Setting up L3_b6_cbr1_scale
I0817 16:02:21.657785 17829 net.cpp:157] Top shape: 125 64 8 8 (512000)
I0817 16:02:21.657794 17829 net.cpp:165] Memory required for data: 1370625500
I0817 16:02:21.657814 17829 layer_factory.hpp:77] Creating layer L3_b6_cbr1_relu
I0817 16:02:21.657833 17829 net.cpp:100] Creating Layer L3_b6_cbr1_relu
I0817 16:02:21.657846 17829 net.cpp:434] L3_b6_cbr1_relu <- L3_b6_cbr1_bn_top
I0817 16:02:21.657861 17829 net.cpp:395] L3_b6_cbr1_relu -> L3_b6_cbr1_bn_top (in-place)
I0817 16:02:21.657881 17829 net.cpp:150] Setting up L3_b6_cbr1_relu
I0817 16:02:21.657894 17829 net.cpp:157] Top shape: 125 64 8 8 (512000)
I0817 16:02:21.657905 17829 net.cpp:165] Memory required for data: 1372673500
I0817 16:02:21.657914 17829 layer_factory.hpp:77] Creating layer L3_b6_cbr2_conv
I0817 16:02:21.657939 17829 net.cpp:100] Creating Layer L3_b6_cbr2_conv
I0817 16:02:21.657953 17829 net.cpp:434] L3_b6_cbr2_conv <- L3_b6_cbr1_bn_top
I0817 16:02:21.657970 17829 net.cpp:408] L3_b6_cbr2_conv -> L3_b6_cbr2_conv_top
I0817 16:02:21.659024 17829 net.cpp:150] Setting up L3_b6_cbr2_conv
I0817 16:02:21.659044 17829 net.cpp:157] Top shape: 125 64 8 8 (512000)
I0817 16:02:21.659054 17829 net.cpp:165] Memory required for data: 1374721500
I0817 16:02:21.659072 17829 layer_factory.hpp:77] Creating layer L3_b6_cbr2_bn
I0817 16:02:21.659093 17829 net.cpp:100] Creating Layer L3_b6_cbr2_bn
I0817 16:02:21.659106 17829 net.cpp:434] L3_b6_cbr2_bn <- L3_b6_cbr2_conv_top
I0817 16:02:21.659126 17829 net.cpp:408] L3_b6_cbr2_bn -> L3_b6_cbr2_bn_top
I0817 16:02:21.659418 17829 net.cpp:150] Setting up L3_b6_cbr2_bn
I0817 16:02:21.659437 17829 net.cpp:157] Top shape: 125 64 8 8 (512000)
I0817 16:02:21.659447 17829 net.cpp:165] Memory required for data: 1376769500
I0817 16:02:21.659468 17829 layer_factory.hpp:77] Creating layer L3_b6_cbr2_scale
I0817 16:02:21.659485 17829 net.cpp:100] Creating Layer L3_b6_cbr2_scale
I0817 16:02:21.659497 17829 net.cpp:434] L3_b6_cbr2_scale <- L3_b6_cbr2_bn_top
I0817 16:02:21.659517 17829 net.cpp:395] L3_b6_cbr2_scale -> L3_b6_cbr2_bn_top (in-place)
I0817 16:02:21.659612 17829 layer_factory.hpp:77] Creating layer L3_b6_cbr2_scale
I0817 16:02:21.659803 17829 net.cpp:150] Setting up L3_b6_cbr2_scale
I0817 16:02:21.659822 17829 net.cpp:157] Top shape: 125 64 8 8 (512000)
I0817 16:02:21.659832 17829 net.cpp:165] Memory required for data: 1378817500
I0817 16:02:21.659850 17829 layer_factory.hpp:77] Creating layer L3_b6_sum_eltwise
I0817 16:02:21.659868 17829 net.cpp:100] Creating Layer L3_b6_sum_eltwise
I0817 16:02:21.659879 17829 net.cpp:434] L3_b6_sum_eltwise <- L3_b6_cbr2_bn_top
I0817 16:02:21.659893 17829 net.cpp:434] L3_b6_sum_eltwise <- L3_b5_sum_eltwise_top_L3_b5_relu_0_split_1
I0817 16:02:21.659914 17829 net.cpp:408] L3_b6_sum_eltwise -> L3_b6_sum_eltwise_top
I0817 16:02:21.659973 17829 net.cpp:150] Setting up L3_b6_sum_eltwise
I0817 16:02:21.659991 17829 net.cpp:157] Top shape: 125 64 8 8 (512000)
I0817 16:02:21.660001 17829 net.cpp:165] Memory required for data: 1380865500
I0817 16:02:21.660012 17829 layer_factory.hpp:77] Creating layer L3_b6_relu
I0817 16:02:21.660027 17829 net.cpp:100] Creating Layer L3_b6_relu
I0817 16:02:21.660038 17829 net.cpp:434] L3_b6_relu <- L3_b6_sum_eltwise_top
I0817 16:02:21.660063 17829 net.cpp:395] L3_b6_relu -> L3_b6_sum_eltwise_top (in-place)
I0817 16:02:21.660084 17829 net.cpp:150] Setting up L3_b6_relu
I0817 16:02:21.660101 17829 net.cpp:157] Top shape: 125 64 8 8 (512000)
I0817 16:02:21.660110 17829 net.cpp:165] Memory required for data: 1382913500
I0817 16:02:21.660120 17829 layer_factory.hpp:77] Creating layer L3_b6_sum_eltwise_top_L3_b6_relu_0_split
I0817 16:02:21.660133 17829 net.cpp:100] Creating Layer L3_b6_sum_eltwise_top_L3_b6_relu_0_split
I0817 16:02:21.660145 17829 net.cpp:434] L3_b6_sum_eltwise_top_L3_b6_relu_0_split <- L3_b6_sum_eltwise_top
I0817 16:02:21.660161 17829 net.cpp:408] L3_b6_sum_eltwise_top_L3_b6_relu_0_split -> L3_b6_sum_eltwise_top_L3_b6_relu_0_split_0
I0817 16:02:21.660179 17829 net.cpp:408] L3_b6_sum_eltwise_top_L3_b6_relu_0_split -> L3_b6_sum_eltwise_top_L3_b6_relu_0_split_1
I0817 16:02:21.660264 17829 net.cpp:150] Setting up L3_b6_sum_eltwise_top_L3_b6_relu_0_split
I0817 16:02:21.660282 17829 net.cpp:157] Top shape: 125 64 8 8 (512000)
I0817 16:02:21.660295 17829 net.cpp:157] Top shape: 125 64 8 8 (512000)
I0817 16:02:21.660305 17829 net.cpp:165] Memory required for data: 1387009500
I0817 16:02:21.660315 17829 layer_factory.hpp:77] Creating layer L3_b7_cbr1_conv
I0817 16:02:21.660334 17829 net.cpp:100] Creating Layer L3_b7_cbr1_conv
I0817 16:02:21.660347 17829 net.cpp:434] L3_b7_cbr1_conv <- L3_b6_sum_eltwise_top_L3_b6_relu_0_split_0
I0817 16:02:21.660372 17829 net.cpp:408] L3_b7_cbr1_conv -> L3_b7_cbr1_conv_top
I0817 16:02:21.661428 17829 net.cpp:150] Setting up L3_b7_cbr1_conv
I0817 16:02:21.661448 17829 net.cpp:157] Top shape: 125 64 8 8 (512000)
I0817 16:02:21.661458 17829 net.cpp:165] Memory required for data: 1389057500
I0817 16:02:21.661476 17829 layer_factory.hpp:77] Creating layer L3_b7_cbr1_bn
I0817 16:02:21.661494 17829 net.cpp:100] Creating Layer L3_b7_cbr1_bn
I0817 16:02:21.661506 17829 net.cpp:434] L3_b7_cbr1_bn <- L3_b7_cbr1_conv_top
I0817 16:02:21.661528 17829 net.cpp:408] L3_b7_cbr1_bn -> L3_b7_cbr1_bn_top
I0817 16:02:21.661833 17829 net.cpp:150] Setting up L3_b7_cbr1_bn
I0817 16:02:21.661851 17829 net.cpp:157] Top shape: 125 64 8 8 (512000)
I0817 16:02:21.661860 17829 net.cpp:165] Memory required for data: 1391105500
I0817 16:02:21.661882 17829 layer_factory.hpp:77] Creating layer L3_b7_cbr1_scale
I0817 16:02:21.661898 17829 net.cpp:100] Creating Layer L3_b7_cbr1_scale
I0817 16:02:21.661911 17829 net.cpp:434] L3_b7_cbr1_scale <- L3_b7_cbr1_bn_top
I0817 16:02:21.661926 17829 net.cpp:395] L3_b7_cbr1_scale -> L3_b7_cbr1_bn_top (in-place)
I0817 16:02:21.662019 17829 layer_factory.hpp:77] Creating layer L3_b7_cbr1_scale
I0817 16:02:21.662210 17829 net.cpp:150] Setting up L3_b7_cbr1_scale
I0817 16:02:21.662233 17829 net.cpp:157] Top shape: 125 64 8 8 (512000)
I0817 16:02:21.662243 17829 net.cpp:165] Memory required for data: 1393153500
I0817 16:02:21.662262 17829 layer_factory.hpp:77] Creating layer L3_b7_cbr1_relu
I0817 16:02:21.662310 17829 net.cpp:100] Creating Layer L3_b7_cbr1_relu
I0817 16:02:21.662328 17829 net.cpp:434] L3_b7_cbr1_relu <- L3_b7_cbr1_bn_top
I0817 16:02:21.662343 17829 net.cpp:395] L3_b7_cbr1_relu -> L3_b7_cbr1_bn_top (in-place)
I0817 16:02:21.662364 17829 net.cpp:150] Setting up L3_b7_cbr1_relu
I0817 16:02:21.662379 17829 net.cpp:157] Top shape: 125 64 8 8 (512000)
I0817 16:02:21.662389 17829 net.cpp:165] Memory required for data: 1395201500
I0817 16:02:21.662400 17829 layer_factory.hpp:77] Creating layer L3_b7_cbr2_conv
I0817 16:02:21.662422 17829 net.cpp:100] Creating Layer L3_b7_cbr2_conv
I0817 16:02:21.662434 17829 net.cpp:434] L3_b7_cbr2_conv <- L3_b7_cbr1_bn_top
I0817 16:02:21.662457 17829 net.cpp:408] L3_b7_cbr2_conv -> L3_b7_cbr2_conv_top
I0817 16:02:21.663525 17829 net.cpp:150] Setting up L3_b7_cbr2_conv
I0817 16:02:21.663545 17829 net.cpp:157] Top shape: 125 64 8 8 (512000)
I0817 16:02:21.663555 17829 net.cpp:165] Memory required for data: 1397249500
I0817 16:02:21.663573 17829 layer_factory.hpp:77] Creating layer L3_b7_cbr2_bn
I0817 16:02:21.663597 17829 net.cpp:100] Creating Layer L3_b7_cbr2_bn
I0817 16:02:21.663619 17829 net.cpp:434] L3_b7_cbr2_bn <- L3_b7_cbr2_conv_top
I0817 16:02:21.663640 17829 net.cpp:408] L3_b7_cbr2_bn -> L3_b7_cbr2_bn_top
I0817 16:02:21.663952 17829 net.cpp:150] Setting up L3_b7_cbr2_bn
I0817 16:02:21.663975 17829 net.cpp:157] Top shape: 125 64 8 8 (512000)
I0817 16:02:21.663986 17829 net.cpp:165] Memory required for data: 1399297500
I0817 16:02:21.664008 17829 layer_factory.hpp:77] Creating layer L3_b7_cbr2_scale
I0817 16:02:21.664026 17829 net.cpp:100] Creating Layer L3_b7_cbr2_scale
I0817 16:02:21.664037 17829 net.cpp:434] L3_b7_cbr2_scale <- L3_b7_cbr2_bn_top
I0817 16:02:21.664053 17829 net.cpp:395] L3_b7_cbr2_scale -> L3_b7_cbr2_bn_top (in-place)
I0817 16:02:21.664144 17829 layer_factory.hpp:77] Creating layer L3_b7_cbr2_scale
I0817 16:02:21.664341 17829 net.cpp:150] Setting up L3_b7_cbr2_scale
I0817 16:02:21.664361 17829 net.cpp:157] Top shape: 125 64 8 8 (512000)
I0817 16:02:21.664369 17829 net.cpp:165] Memory required for data: 1401345500
I0817 16:02:21.664387 17829 layer_factory.hpp:77] Creating layer L3_b7_sum_eltwise
I0817 16:02:21.664408 17829 net.cpp:100] Creating Layer L3_b7_sum_eltwise
I0817 16:02:21.664422 17829 net.cpp:434] L3_b7_sum_eltwise <- L3_b7_cbr2_bn_top
I0817 16:02:21.664434 17829 net.cpp:434] L3_b7_sum_eltwise <- L3_b6_sum_eltwise_top_L3_b6_relu_0_split_1
I0817 16:02:21.664451 17829 net.cpp:408] L3_b7_sum_eltwise -> L3_b7_sum_eltwise_top
I0817 16:02:21.664512 17829 net.cpp:150] Setting up L3_b7_sum_eltwise
I0817 16:02:21.664531 17829 net.cpp:157] Top shape: 125 64 8 8 (512000)
I0817 16:02:21.664541 17829 net.cpp:165] Memory required for data: 1403393500
I0817 16:02:21.664551 17829 layer_factory.hpp:77] Creating layer L3_b7_relu
I0817 16:02:21.664566 17829 net.cpp:100] Creating Layer L3_b7_relu
I0817 16:02:21.664583 17829 net.cpp:434] L3_b7_relu <- L3_b7_sum_eltwise_top
I0817 16:02:21.664599 17829 net.cpp:395] L3_b7_relu -> L3_b7_sum_eltwise_top (in-place)
I0817 16:02:21.664618 17829 net.cpp:150] Setting up L3_b7_relu
I0817 16:02:21.664633 17829 net.cpp:157] Top shape: 125 64 8 8 (512000)
I0817 16:02:21.664643 17829 net.cpp:165] Memory required for data: 1405441500
I0817 16:02:21.664652 17829 layer_factory.hpp:77] Creating layer L3_b7_sum_eltwise_top_L3_b7_relu_0_split
I0817 16:02:21.664666 17829 net.cpp:100] Creating Layer L3_b7_sum_eltwise_top_L3_b7_relu_0_split
I0817 16:02:21.664677 17829 net.cpp:434] L3_b7_sum_eltwise_top_L3_b7_relu_0_split <- L3_b7_sum_eltwise_top
I0817 16:02:21.664696 17829 net.cpp:408] L3_b7_sum_eltwise_top_L3_b7_relu_0_split -> L3_b7_sum_eltwise_top_L3_b7_relu_0_split_0
I0817 16:02:21.664718 17829 net.cpp:408] L3_b7_sum_eltwise_top_L3_b7_relu_0_split -> L3_b7_sum_eltwise_top_L3_b7_relu_0_split_1
I0817 16:02:21.664798 17829 net.cpp:150] Setting up L3_b7_sum_eltwise_top_L3_b7_relu_0_split
I0817 16:02:21.664815 17829 net.cpp:157] Top shape: 125 64 8 8 (512000)
I0817 16:02:21.664829 17829 net.cpp:157] Top shape: 125 64 8 8 (512000)
I0817 16:02:21.664839 17829 net.cpp:165] Memory required for data: 1409537500
I0817 16:02:21.664849 17829 layer_factory.hpp:77] Creating layer L3_b8_cbr1_conv
I0817 16:02:21.664875 17829 net.cpp:100] Creating Layer L3_b8_cbr1_conv
I0817 16:02:21.664888 17829 net.cpp:434] L3_b8_cbr1_conv <- L3_b7_sum_eltwise_top_L3_b7_relu_0_split_0
I0817 16:02:21.664907 17829 net.cpp:408] L3_b8_cbr1_conv -> L3_b8_cbr1_conv_top
I0817 16:02:21.665982 17829 net.cpp:150] Setting up L3_b8_cbr1_conv
I0817 16:02:21.666003 17829 net.cpp:157] Top shape: 125 64 8 8 (512000)
I0817 16:02:21.666013 17829 net.cpp:165] Memory required for data: 1411585500
I0817 16:02:21.666030 17829 layer_factory.hpp:77] Creating layer L3_b8_cbr1_bn
I0817 16:02:21.666051 17829 net.cpp:100] Creating Layer L3_b8_cbr1_bn
I0817 16:02:21.666064 17829 net.cpp:434] L3_b8_cbr1_bn <- L3_b8_cbr1_conv_top
I0817 16:02:21.666081 17829 net.cpp:408] L3_b8_cbr1_bn -> L3_b8_cbr1_bn_top
I0817 16:02:21.666383 17829 net.cpp:150] Setting up L3_b8_cbr1_bn
I0817 16:02:21.666401 17829 net.cpp:157] Top shape: 125 64 8 8 (512000)
I0817 16:02:21.666411 17829 net.cpp:165] Memory required for data: 1413633500
I0817 16:02:21.666442 17829 layer_factory.hpp:77] Creating layer L3_b8_cbr1_scale
I0817 16:02:21.666463 17829 net.cpp:100] Creating Layer L3_b8_cbr1_scale
I0817 16:02:21.666477 17829 net.cpp:434] L3_b8_cbr1_scale <- L3_b8_cbr1_bn_top
I0817 16:02:21.666493 17829 net.cpp:395] L3_b8_cbr1_scale -> L3_b8_cbr1_bn_top (in-place)
I0817 16:02:21.666597 17829 layer_factory.hpp:77] Creating layer L3_b8_cbr1_scale
I0817 16:02:21.666795 17829 net.cpp:150] Setting up L3_b8_cbr1_scale
I0817 16:02:21.666815 17829 net.cpp:157] Top shape: 125 64 8 8 (512000)
I0817 16:02:21.666824 17829 net.cpp:165] Memory required for data: 1415681500
I0817 16:02:21.666843 17829 layer_factory.hpp:77] Creating layer L3_b8_cbr1_relu
I0817 16:02:21.666862 17829 net.cpp:100] Creating Layer L3_b8_cbr1_relu
I0817 16:02:21.666875 17829 net.cpp:434] L3_b8_cbr1_relu <- L3_b8_cbr1_bn_top
I0817 16:02:21.666890 17829 net.cpp:395] L3_b8_cbr1_relu -> L3_b8_cbr1_bn_top (in-place)
I0817 16:02:21.666910 17829 net.cpp:150] Setting up L3_b8_cbr1_relu
I0817 16:02:21.666925 17829 net.cpp:157] Top shape: 125 64 8 8 (512000)
I0817 16:02:21.666935 17829 net.cpp:165] Memory required for data: 1417729500
I0817 16:02:21.666945 17829 layer_factory.hpp:77] Creating layer L3_b8_cbr2_conv
I0817 16:02:21.666970 17829 net.cpp:100] Creating Layer L3_b8_cbr2_conv
I0817 16:02:21.666983 17829 net.cpp:434] L3_b8_cbr2_conv <- L3_b8_cbr1_bn_top
I0817 16:02:21.667006 17829 net.cpp:408] L3_b8_cbr2_conv -> L3_b8_cbr2_conv_top
I0817 16:02:21.668066 17829 net.cpp:150] Setting up L3_b8_cbr2_conv
I0817 16:02:21.668087 17829 net.cpp:157] Top shape: 125 64 8 8 (512000)
I0817 16:02:21.668095 17829 net.cpp:165] Memory required for data: 1419777500
I0817 16:02:21.668113 17829 layer_factory.hpp:77] Creating layer L3_b8_cbr2_bn
I0817 16:02:21.668131 17829 net.cpp:100] Creating Layer L3_b8_cbr2_bn
I0817 16:02:21.668143 17829 net.cpp:434] L3_b8_cbr2_bn <- L3_b8_cbr2_conv_top
I0817 16:02:21.668169 17829 net.cpp:408] L3_b8_cbr2_bn -> L3_b8_cbr2_bn_top
I0817 16:02:21.668467 17829 net.cpp:150] Setting up L3_b8_cbr2_bn
I0817 16:02:21.668488 17829 net.cpp:157] Top shape: 125 64 8 8 (512000)
I0817 16:02:21.668496 17829 net.cpp:165] Memory required for data: 1421825500
I0817 16:02:21.668517 17829 layer_factory.hpp:77] Creating layer L3_b8_cbr2_scale
I0817 16:02:21.668534 17829 net.cpp:100] Creating Layer L3_b8_cbr2_scale
I0817 16:02:21.668546 17829 net.cpp:434] L3_b8_cbr2_scale <- L3_b8_cbr2_bn_top
I0817 16:02:21.668561 17829 net.cpp:395] L3_b8_cbr2_scale -> L3_b8_cbr2_bn_top (in-place)
I0817 16:02:21.668659 17829 layer_factory.hpp:77] Creating layer L3_b8_cbr2_scale
I0817 16:02:21.668851 17829 net.cpp:150] Setting up L3_b8_cbr2_scale
I0817 16:02:21.668870 17829 net.cpp:157] Top shape: 125 64 8 8 (512000)
I0817 16:02:21.668880 17829 net.cpp:165] Memory required for data: 1423873500
I0817 16:02:21.668900 17829 layer_factory.hpp:77] Creating layer L3_b8_sum_eltwise
I0817 16:02:21.668920 17829 net.cpp:100] Creating Layer L3_b8_sum_eltwise
I0817 16:02:21.668933 17829 net.cpp:434] L3_b8_sum_eltwise <- L3_b8_cbr2_bn_top
I0817 16:02:21.668946 17829 net.cpp:434] L3_b8_sum_eltwise <- L3_b7_sum_eltwise_top_L3_b7_relu_0_split_1
I0817 16:02:21.668962 17829 net.cpp:408] L3_b8_sum_eltwise -> L3_b8_sum_eltwise_top
I0817 16:02:21.669021 17829 net.cpp:150] Setting up L3_b8_sum_eltwise
I0817 16:02:21.669040 17829 net.cpp:157] Top shape: 125 64 8 8 (512000)
I0817 16:02:21.669050 17829 net.cpp:165] Memory required for data: 1425921500
I0817 16:02:21.669060 17829 layer_factory.hpp:77] Creating layer L3_b8_relu
I0817 16:02:21.669075 17829 net.cpp:100] Creating Layer L3_b8_relu
I0817 16:02:21.669085 17829 net.cpp:434] L3_b8_relu <- L3_b8_sum_eltwise_top
I0817 16:02:21.669100 17829 net.cpp:395] L3_b8_relu -> L3_b8_sum_eltwise_top (in-place)
I0817 16:02:21.669118 17829 net.cpp:150] Setting up L3_b8_relu
I0817 16:02:21.669133 17829 net.cpp:157] Top shape: 125 64 8 8 (512000)
I0817 16:02:21.669143 17829 net.cpp:165] Memory required for data: 1427969500
I0817 16:02:21.669154 17829 layer_factory.hpp:77] Creating layer L3_b8_sum_eltwise_top_L3_b8_relu_0_split
I0817 16:02:21.669178 17829 net.cpp:100] Creating Layer L3_b8_sum_eltwise_top_L3_b8_relu_0_split
I0817 16:02:21.669190 17829 net.cpp:434] L3_b8_sum_eltwise_top_L3_b8_relu_0_split <- L3_b8_sum_eltwise_top
I0817 16:02:21.669209 17829 net.cpp:408] L3_b8_sum_eltwise_top_L3_b8_relu_0_split -> L3_b8_sum_eltwise_top_L3_b8_relu_0_split_0
I0817 16:02:21.669231 17829 net.cpp:408] L3_b8_sum_eltwise_top_L3_b8_relu_0_split -> L3_b8_sum_eltwise_top_L3_b8_relu_0_split_1
I0817 16:02:21.669317 17829 net.cpp:150] Setting up L3_b8_sum_eltwise_top_L3_b8_relu_0_split
I0817 16:02:21.669337 17829 net.cpp:157] Top shape: 125 64 8 8 (512000)
I0817 16:02:21.669349 17829 net.cpp:157] Top shape: 125 64 8 8 (512000)
I0817 16:02:21.669359 17829 net.cpp:165] Memory required for data: 1432065500
I0817 16:02:21.669370 17829 layer_factory.hpp:77] Creating layer L3_b9_cbr1_conv
I0817 16:02:21.669395 17829 net.cpp:100] Creating Layer L3_b9_cbr1_conv
I0817 16:02:21.669409 17829 net.cpp:434] L3_b9_cbr1_conv <- L3_b8_sum_eltwise_top_L3_b8_relu_0_split_0
I0817 16:02:21.669427 17829 net.cpp:408] L3_b9_cbr1_conv -> L3_b9_cbr1_conv_top
I0817 16:02:21.671491 17829 net.cpp:150] Setting up L3_b9_cbr1_conv
I0817 16:02:21.671514 17829 net.cpp:157] Top shape: 125 64 8 8 (512000)
I0817 16:02:21.671525 17829 net.cpp:165] Memory required for data: 1434113500
I0817 16:02:21.671542 17829 layer_factory.hpp:77] Creating layer L3_b9_cbr1_bn
I0817 16:02:21.671564 17829 net.cpp:100] Creating Layer L3_b9_cbr1_bn
I0817 16:02:21.671583 17829 net.cpp:434] L3_b9_cbr1_bn <- L3_b9_cbr1_conv_top
I0817 16:02:21.671602 17829 net.cpp:408] L3_b9_cbr1_bn -> L3_b9_cbr1_bn_top
I0817 16:02:21.671900 17829 net.cpp:150] Setting up L3_b9_cbr1_bn
I0817 16:02:21.671921 17829 net.cpp:157] Top shape: 125 64 8 8 (512000)
I0817 16:02:21.671929 17829 net.cpp:165] Memory required for data: 1436161500
I0817 16:02:21.671952 17829 layer_factory.hpp:77] Creating layer L3_b9_cbr1_scale
I0817 16:02:21.671968 17829 net.cpp:100] Creating Layer L3_b9_cbr1_scale
I0817 16:02:21.671980 17829 net.cpp:434] L3_b9_cbr1_scale <- L3_b9_cbr1_bn_top
I0817 16:02:21.671995 17829 net.cpp:395] L3_b9_cbr1_scale -> L3_b9_cbr1_bn_top (in-place)
I0817 16:02:21.672089 17829 layer_factory.hpp:77] Creating layer L3_b9_cbr1_scale
I0817 16:02:21.672288 17829 net.cpp:150] Setting up L3_b9_cbr1_scale
I0817 16:02:21.672307 17829 net.cpp:157] Top shape: 125 64 8 8 (512000)
I0817 16:02:21.672317 17829 net.cpp:165] Memory required for data: 1438209500
I0817 16:02:21.672334 17829 layer_factory.hpp:77] Creating layer L3_b9_cbr1_relu
I0817 16:02:21.672351 17829 net.cpp:100] Creating Layer L3_b9_cbr1_relu
I0817 16:02:21.672363 17829 net.cpp:434] L3_b9_cbr1_relu <- L3_b9_cbr1_bn_top
I0817 16:02:21.672377 17829 net.cpp:395] L3_b9_cbr1_relu -> L3_b9_cbr1_bn_top (in-place)
I0817 16:02:21.672401 17829 net.cpp:150] Setting up L3_b9_cbr1_relu
I0817 16:02:21.672416 17829 net.cpp:157] Top shape: 125 64 8 8 (512000)
I0817 16:02:21.672426 17829 net.cpp:165] Memory required for data: 1440257500
I0817 16:02:21.672437 17829 layer_factory.hpp:77] Creating layer L3_b9_cbr2_conv
I0817 16:02:21.672458 17829 net.cpp:100] Creating Layer L3_b9_cbr2_conv
I0817 16:02:21.672475 17829 net.cpp:434] L3_b9_cbr2_conv <- L3_b9_cbr1_bn_top
I0817 16:02:21.672493 17829 net.cpp:408] L3_b9_cbr2_conv -> L3_b9_cbr2_conv_top
I0817 16:02:21.673560 17829 net.cpp:150] Setting up L3_b9_cbr2_conv
I0817 16:02:21.673586 17829 net.cpp:157] Top shape: 125 64 8 8 (512000)
I0817 16:02:21.673598 17829 net.cpp:165] Memory required for data: 1442305500
I0817 16:02:21.673616 17829 layer_factory.hpp:77] Creating layer L3_b9_cbr2_bn
I0817 16:02:21.673638 17829 net.cpp:100] Creating Layer L3_b9_cbr2_bn
I0817 16:02:21.673651 17829 net.cpp:434] L3_b9_cbr2_bn <- L3_b9_cbr2_conv_top
I0817 16:02:21.673668 17829 net.cpp:408] L3_b9_cbr2_bn -> L3_b9_cbr2_bn_top
I0817 16:02:21.673967 17829 net.cpp:150] Setting up L3_b9_cbr2_bn
I0817 16:02:21.673985 17829 net.cpp:157] Top shape: 125 64 8 8 (512000)
I0817 16:02:21.673995 17829 net.cpp:165] Memory required for data: 1444353500
I0817 16:02:21.674026 17829 layer_factory.hpp:77] Creating layer L3_b9_cbr2_scale
I0817 16:02:21.674047 17829 net.cpp:100] Creating Layer L3_b9_cbr2_scale
I0817 16:02:21.674060 17829 net.cpp:434] L3_b9_cbr2_scale <- L3_b9_cbr2_bn_top
I0817 16:02:21.674077 17829 net.cpp:395] L3_b9_cbr2_scale -> L3_b9_cbr2_bn_top (in-place)
I0817 16:02:21.674177 17829 layer_factory.hpp:77] Creating layer L3_b9_cbr2_scale
I0817 16:02:21.674367 17829 net.cpp:150] Setting up L3_b9_cbr2_scale
I0817 16:02:21.674387 17829 net.cpp:157] Top shape: 125 64 8 8 (512000)
I0817 16:02:21.674396 17829 net.cpp:165] Memory required for data: 1446401500
I0817 16:02:21.674414 17829 layer_factory.hpp:77] Creating layer L3_b9_sum_eltwise
I0817 16:02:21.674437 17829 net.cpp:100] Creating Layer L3_b9_sum_eltwise
I0817 16:02:21.674450 17829 net.cpp:434] L3_b9_sum_eltwise <- L3_b9_cbr2_bn_top
I0817 16:02:21.674464 17829 net.cpp:434] L3_b9_sum_eltwise <- L3_b8_sum_eltwise_top_L3_b8_relu_0_split_1
I0817 16:02:21.674484 17829 net.cpp:408] L3_b9_sum_eltwise -> L3_b9_sum_eltwise_top
I0817 16:02:21.674540 17829 net.cpp:150] Setting up L3_b9_sum_eltwise
I0817 16:02:21.674558 17829 net.cpp:157] Top shape: 125 64 8 8 (512000)
I0817 16:02:21.674568 17829 net.cpp:165] Memory required for data: 1448449500
I0817 16:02:21.674585 17829 layer_factory.hpp:77] Creating layer L3_b9_relu
I0817 16:02:21.674609 17829 net.cpp:100] Creating Layer L3_b9_relu
I0817 16:02:21.674623 17829 net.cpp:434] L3_b9_relu <- L3_b9_sum_eltwise_top
I0817 16:02:21.674638 17829 net.cpp:395] L3_b9_relu -> L3_b9_sum_eltwise_top (in-place)
I0817 16:02:21.674657 17829 net.cpp:150] Setting up L3_b9_relu
I0817 16:02:21.674671 17829 net.cpp:157] Top shape: 125 64 8 8 (512000)
I0817 16:02:21.674681 17829 net.cpp:165] Memory required for data: 1450497500
I0817 16:02:21.674691 17829 layer_factory.hpp:77] Creating layer post_pool
I0817 16:02:21.674706 17829 net.cpp:100] Creating Layer post_pool
I0817 16:02:21.674718 17829 net.cpp:434] post_pool <- L3_b9_sum_eltwise_top
I0817 16:02:21.674733 17829 net.cpp:408] post_pool -> post_pool
I0817 16:02:21.674791 17829 net.cpp:150] Setting up post_pool
I0817 16:02:21.674814 17829 net.cpp:157] Top shape: 125 64 1 1 (8000)
I0817 16:02:21.674824 17829 net.cpp:165] Memory required for data: 1450529500
I0817 16:02:21.674835 17829 layer_factory.hpp:77] Creating layer post_FC
I0817 16:02:21.674942 17829 net.cpp:100] Creating Layer post_FC
I0817 16:02:21.674957 17829 net.cpp:434] post_FC <- post_pool
I0817 16:02:21.674974 17829 net.cpp:408] post_FC -> post_FC_top
I0817 16:02:21.675251 17829 net.cpp:150] Setting up post_FC
I0817 16:02:21.675271 17829 net.cpp:157] Top shape: 125 10 (1250)
I0817 16:02:21.675282 17829 net.cpp:165] Memory required for data: 1450534500
I0817 16:02:21.675299 17829 layer_factory.hpp:77] Creating layer post_FC_top_post_FC_0_split
I0817 16:02:21.675315 17829 net.cpp:100] Creating Layer post_FC_top_post_FC_0_split
I0817 16:02:21.675328 17829 net.cpp:434] post_FC_top_post_FC_0_split <- post_FC_top
I0817 16:02:21.675343 17829 net.cpp:408] post_FC_top_post_FC_0_split -> post_FC_top_post_FC_0_split_0
I0817 16:02:21.675367 17829 net.cpp:408] post_FC_top_post_FC_0_split -> post_FC_top_post_FC_0_split_1
I0817 16:02:21.675449 17829 net.cpp:150] Setting up post_FC_top_post_FC_0_split
I0817 16:02:21.675467 17829 net.cpp:157] Top shape: 125 10 (1250)
I0817 16:02:21.675482 17829 net.cpp:157] Top shape: 125 10 (1250)
I0817 16:02:21.675493 17829 net.cpp:165] Memory required for data: 1450544500
I0817 16:02:21.675503 17829 layer_factory.hpp:77] Creating layer accuracy
I0817 16:02:21.675565 17829 net.cpp:100] Creating Layer accuracy
I0817 16:02:21.675590 17829 net.cpp:434] accuracy <- post_FC_top_post_FC_0_split_0
I0817 16:02:21.675604 17829 net.cpp:434] accuracy <- label_dataLayer_1_split_0
I0817 16:02:21.675621 17829 net.cpp:408] accuracy -> accuracy
…
