…
I0821 08:27:21.469177 32551 net.cpp:322] The NetState phase (0) differed from the phase (1) specified by a rule in layer L3_b9_cbr2_bn
I0821 08:27:21.470960 32551 net.cpp:58] Initializing net from parameters: 
name: "Cifar-Resnet"
state {
  phase: TRAIN
  level: 0
  stage: ""
}
layer {
  name: "dataLayer"
  type: "Data"
  top: "data_top"
  top: "label"
  include {
    phase: TRAIN
  }
  transform_param {
    mirror: true
    crop_size: 32
    mean_file: "examples/cifar10/mean.binaryproto"
  }
  data_param {
    source: "examples/cifar10/cifar10_train20k_lmdb"
    batch_size: 125
    backend: LMDB
  }
  image_data_param {
    shuffle: true
  }
}
layer {
  name: "pre_conv"
  type: "Convolution"
  bottom: "data_top"
  top: "pre_conv_top"
  param {
    lr_mult: 1
    decay_mult: 1
  }
  param {
    lr_mult: 2
    decay_mult: 0
  }
  convolution_param {
    num_output: 16
    pad: 1
    kernel_size: 3
    stride: 1
    weight_filler {
      type: "msra"
    }
    bias_filler {
      type: "constant"
    }
  }
}
layer {
  name: "pre_bn"
  type: "BatchNorm"
  bottom: "pre_conv_top"
  top: "pre_bn_top"
  include {
    phase: TRAIN
  }
  batch_norm_param {
    use_global_stats: false
    moving_average_fraction: 0.999
  }
}
layer {
  name: "pre_scale"
  type: "Scale"
  bottom: "pre_bn_top"
  top: "pre_bn_top"
  scale_param {
    bias_term: true
  }
}
layer {
  name: "pre_relu"
  type: "ReLU"
  bottom: "pre_bn_top"
  top: "pre_bn_top"
}
layer {
  name: "L1_b1_cbr1_conv"
  type: "Convolution"
  bottom: "pre_bn_top"
  top: "L1_b1_cbr1_conv_top"
  param {
    lr_mult: 1
    decay_mult: 1
  }
  param {
    lr_mult: 2
    decay_mult: 0
  }
  convolution_param {
    num_output: 16
    pad: 1
    kernel_size: 3
    stride: 1
    weight_filler {
      type: "msra"
    }
    bias_filler {
      type: "constant"
    }
  }
}
layer {
  name: "L1_b1_cbr1_bn"
  type: "BatchNorm"
  bottom: "L1_b1_cbr1_conv_top"
  top: "L1_b1_cbr1_bn_top"
  include {
    phase: TRAIN
  }
  batch_norm_param {
    use_global_stats: false
    moving_average_fraction: 0.999
  }
}
layer {
  name: "L1_b1_cbr1_scale"
  type: "Scale"
  bottom: "L1_b1_cbr1_bn_top"
  top: "L1_b1_cbr1_bn_top"
  scale_param {
    bias_term: true
  }
}
layer {
  name: "L1_b1_cbr1_relu"
  type: "ReLU"
  bottom: "L1_b1_cbr1_bn_top"
  top: "L1_b1_cbr1_bn_top"
}
layer {
  name: "L1_b1_cbr2_conv"
  type: "Convolution"
  bottom: "L1_b1_cbr1_bn_top"
  top: "L1_b1_cbr2_conv_top"
  param {
    lr_mult: 1
    decay_mult: 1
  }
  param {
    lr_mult: 2
    decay_mult: 0
  }
  convolution_param {
    num_output: 16
    pad: 1
    kernel_size: 3
    stride: 1
    weight_filler {
      type: "msra"
    }
    bias_filler {
      type: "constant"
    }
  }
}
layer {
  name: "L1_b1_cbr2_bn"
  type: "BatchNorm"
  bottom: "L1_b1_cbr2_conv_top"
  top: "L1_b1_cbr2_bn_top"
  include {
    phase: TRAIN
  }
  batch_norm_param {
    use_global_stats: false
    moving_average_fraction: 0.999
  }
}
layer {
  name: "L1_b1_cbr2_scale"
  type: "Scale"
  bottom: "L1_b1_cbr2_bn_top"
  top: "L1_b1_cbr2_bn_top"
  scale_param {
    bias_term: true
  }
}
layer {
  name: "L1_b1_sum_eltwise"
  type: "Eltwise"
  bottom: "L1_b1_cbr2_bn_top"
  bottom: "pre_bn_top"
  top: "L1_b1_sum_eltwise_top"
  eltwise_param {
    operation: SUM
  }
}
layer {
  name: "L1_b1_relu"
  type: "ReLU"
  bottom: "L1_b1_sum_eltwise_top"
  top: "L1_b1_sum_eltwise_top"
}
layer {
  name: "L1_b2_cbr1_conv"
  type: "Convolution"
  bottom: "L1_b1_sum_eltwise_top"
  top: "L1_b2_cbr1_conv_top"
  param {
    lr_mult: 1
    decay_mult: 1
  }
  param {
    lr_mult: 2
    decay_mult: 0
  }
  convolution_param {
    num_output: 16
    pad: 1
    kernel_size: 3
    stride: 1
    weight_filler {
      type: "msra"
    }
    bias_filler {
      type: "constant"
    }
  }
}
layer {
  name: "L1_b2_cbr1_bn"
  type: "BatchNorm"
  bottom: "L1_b2_cbr1_conv_top"
  top: "L1_b2_cbr1_bn_top"
  include {
    phase: TRAIN
  }
  batch_norm_param {
    use_global_stats: false
    moving_average_fraction: 0.999
  }
}
layer {
  name: "L1_b2_cbr1_scale"
  type: "Scale"
  bottom: "L1_b2_cbr1_bn_top"
  top: "L1_b2_cbr1_bn_top"
  scale_param {
    bias_term: true
  }
}
layer {
  name: "L1_b2_cbr1_relu"
  type: "ReLU"
  bottom: "L1_b2_cbr1_bn_top"
  top: "L1_b2_cbr1_bn_top"
}
layer {
  name: "L1_b2_cbr2_conv"
  type: "Convolution"
  bottom: "L1_b2_cbr1_bn_top"
  top: "L1_b2_cbr2_conv_top"
  param {
    lr_mult: 1
    decay_mult: 1
  }
  param {
    lr_mult: 2
    decay_mult: 0
  }
  convolution_param {
    num_output: 16
    pad: 1
    kernel_size: 3
    stride: 1
    weight_filler {
      type: "msra"
    }
    bias_filler {
      type: "constant"
    }
  }
}
layer {
  name: "L1_b2_cbr2_bn"
  type: "BatchNorm"
  bottom: "L1_b2_cbr2_conv_top"
  top: "L1_b2_cbr2_bn_top"
  include {
    phase: TRAIN
  }
  batch_norm_param {
    use_global_stats: false
    moving_average_fraction: 0.999
  }
}
layer {
  name: "L1_b2_cbr2_scale"
  type: "Scale"
  bottom: "L1_b2_cbr2_bn_top"
  top: "L1_b2_cbr2_bn_top"
  scale_param {
    bias_term: true
  }
}
layer {
  name: "L1_b2_sum_eltwise"
  type: "Eltwise"
  bottom: "L1_b2_cbr2_bn_top"
  bottom: "L1_b1_sum_eltwise_top"
  top: "L1_b2_sum_eltwise_top"
  eltwise_param {
    operation: SUM
  }
}
layer {
  name: "L1_b2_relu"
  type: "ReLU"
  bottom: "L1_b2_sum_eltwise_top"
  top: "L1_b2_sum_eltwise_top"
}
layer {
  name: "L1_b3_cbr1_conv"
  type: "Convolution"
  bottom: "L1_b2_sum_eltwise_top"
  top: "L1_b3_cbr1_conv_top"
  param {
    lr_mult: 1
    decay_mult: 1
  }
  param {
    lr_mult: 2
    decay_mult: 0
  }
  convolution_param {
    num_output: 16
    pad: 1
    kernel_size: 3
    stride: 1
    weight_filler {
      type: "msra"
    }
    bias_filler {
      type: "constant"
    }
  }
}
layer {
  name: "L1_b3_cbr1_bn"
  type: "BatchNorm"
  bottom: "L1_b3_cbr1_conv_top"
  top: "L1_b3_cbr1_bn_top"
  include {
    phase: TRAIN
  }
  batch_norm_param {
    use_global_stats: false
    moving_average_fraction: 0.999
  }
}
layer {
  name: "L1_b3_cbr1_scale"
  type: "Scale"
  bottom: "L1_b3_cbr1_bn_top"
  top: "L1_b3_cbr1_bn_top"
  scale_param {
    bias_term: true
  }
}
layer {
  name: "L1_b3_cbr1_relu"
  type: "ReLU"
  bottom: "L1_b3_cbr1_bn_top"
  top: "L1_b3_cbr1_bn_top"
}
layer {
  name: "L1_b3_cbr2_conv"
  type: "Convolution"
  bottom: "L1_b3_cbr1_bn_top"
  top: "L1_b3_cbr2_conv_top"
  param {
    lr_mult: 1
    decay_mult: 1
  }
  param {
    lr_mult: 2
    decay_mult: 0
  }
  convolution_param {
    num_output: 16
    pad: 1
    kernel_size: 3
    stride: 1
    weight_filler {
      type: "msra"
    }
    bias_filler {
      type: "constant"
    }
  }
}
layer {
  name: "L1_b3_cbr2_bn"
  type: "BatchNorm"
  bottom: "L1_b3_cbr2_conv_top"
  top: "L1_b3_cbr2_bn_top"
  include {
    phase: TRAIN
  }
  batch_norm_param {
    use_global_stats: false
    moving_average_fraction: 0.999
  }
}
layer {
  name: "L1_b3_cbr2_scale"
  type: "Scale"
  bottom: "L1_b3_cbr2_bn_top"
  top: "L1_b3_cbr2_bn_top"
  scale_param {
    bias_term: true
  }
}
layer {
  name: "L1_b3_sum_eltwise"
  type: "Eltwise"
  bottom: "L1_b3_cbr2_bn_top"
  bottom: "L1_b2_sum_eltwise_top"
  top: "L1_b3_sum_eltwise_top"
  eltwise_param {
    operation: SUM
  }
}
layer {
  name: "L1_b3_relu"
  type: "ReLU"
  bottom: "L1_b3_sum_eltwise_top"
  top: "L1_b3_sum_eltwise_top"
}
layer {
  name: "L1_b4_cbr1_conv"
  type: "Convolution"
  bottom: "L1_b3_sum_eltwise_top"
  top: "L1_b4_cbr1_conv_top"
  param {
    lr_mult: 1
    decay_mult: 1
  }
  param {
    lr_mult: 2
    decay_mult: 0
  }
  convolution_param {
    num_output: 16
    pad: 1
    kernel_size: 3
    stride: 1
    weight_filler {
      type: "msra"
    }
    bias_filler {
      type: "constant"
    }
  }
}
layer {
  name: "L1_b4_cbr1_bn"
  type: "BatchNorm"
  bottom: "L1_b4_cbr1_conv_top"
  top: "L1_b4_cbr1_bn_top"
  include {
    phase: TRAIN
  }
  batch_norm_param {
    use_global_stats: false
    moving_average_fraction: 0.999
  }
}
layer {
  name: "L1_b4_cbr1_scale"
  type: "Scale"
  bottom: "L1_b4_cbr1_bn_top"
  top: "L1_b4_cbr1_bn_top"
  scale_param {
    bias_term: true
  }
}
layer {
  name: "L1_b4_cbr1_relu"
  type: "ReLU"
  bottom: "L1_b4_cbr1_bn_top"
  top: "L1_b4_cbr1_bn_top"
}
layer {
  name: "L1_b4_cbr2_conv"
  type: "Convolution"
  bottom: "L1_b4_cbr1_bn_top"
  top: "L1_b4_cbr2_conv_top"
  param {
    lr_mult: 1
    decay_mult: 1
  }
  param {
    lr_mult: 2
    decay_mult: 0
  }
  convolution_param {
    num_output: 16
    pad: 1
    kernel_size: 3
    stride: 1
    weight_filler {
      type: "msra"
    }
    bias_filler {
      type: "constant"
    }
  }
}
layer {
  name: "L1_b4_cbr2_bn"
  type: "BatchNorm"
  bottom: "L1_b4_cbr2_conv_top"
  top: "L1_b4_cbr2_bn_top"
  include {
    phase: TRAIN
  }
  batch_norm_param {
    use_global_stats: false
    moving_average_fraction: 0.999
  }
}
layer {
  name: "L1_b4_cbr2_scale"
  type: "Scale"
  bottom: "L1_b4_cbr2_bn_top"
  top: "L1_b4_cbr2_bn_top"
  scale_param {
    bias_term: true
  }
}
layer {
  name: "L1_b4_sum_eltwise"
  type: "Eltwise"
  bottom: "L1_b4_cbr2_bn_top"
  bottom: "L1_b3_sum_eltwise_top"
  top: "L1_b4_sum_eltwise_top"
  eltwise_param {
    operation: SUM
  }
}
layer {
  name: "L1_b4_relu"
  type: "ReLU"
  bottom: "L1_b4_sum_eltwise_top"
  top: "L1_b4_sum_eltwise_top"
}
layer {
  name: "L1_b5_cbr1_conv"
  type: "Convolution"
  bottom: "L1_b4_sum_eltwise_top"
  top: "L1_b5_cbr1_conv_top"
  param {
    lr_mult: 1
    decay_mult: 1
  }
  param {
    lr_mult: 2
    decay_mult: 0
  }
  convolution_param {
    num_output: 16
    pad: 1
    kernel_size: 3
    stride: 1
    weight_filler {
      type: "msra"
    }
    bias_filler {
      type: "constant"
    }
  }
}
layer {
  name: "L1_b5_cbr1_bn"
  type: "BatchNorm"
  bottom: "L1_b5_cbr1_conv_top"
  top: "L1_b5_cbr1_bn_top"
  include {
    phase: TRAIN
  }
  batch_norm_param {
    use_global_stats: false
    moving_average_fraction: 0.999
  }
}
layer {
  name: "L1_b5_cbr1_scale"
  type: "Scale"
  bottom: "L1_b5_cbr1_bn_top"
  top: "L1_b5_cbr1_bn_top"
  scale_param {
    bias_term: true
  }
}
layer {
  name: "L1_b5_cbr1_relu"
  type: "ReLU"
  bottom: "L1_b5_cbr1_bn_top"
  top: "L1_b5_cbr1_bn_top"
}
layer {
  name: "L1_b5_cbr2_conv"
  type: "Convolution"
  bottom: "L1_b5_cbr1_bn_top"
  top: "L1_b5_cbr2_conv_top"
  param {
    lr_mult: 1
    decay_mult: 1
  }
  param {
    lr_mult: 2
    decay_mult: 0
  }
  convolution_param {
    num_output: 16
    pad: 1
    kernel_size: 3
    stride: 1
    weight_filler {
      type: "msra"
    }
    bias_filler {
      type: "constant"
    }
  }
}
layer {
  name: "L1_b5_cbr2_bn"
  type: "BatchNorm"
  bottom: "L1_b5_cbr2_conv_top"
  top: "L1_b5_cbr2_bn_top"
  include {
    phase: TRAIN
  }
  batch_norm_param {
    use_global_stats: false
    moving_average_fraction: 0.999
  }
}
layer {
  name: "L1_b5_cbr2_scale"
  type: "Scale"
  bottom: "L1_b5_cbr2_bn_top"
  top: "L1_b5_cbr2_bn_top"
  scale_param {
    bias_term: true
  }
}
layer {
  name: "L1_b5_sum_eltwise"
  type: "Eltwise"
  bottom: "L1_b5_cbr2_bn_top"
  bottom: "L1_b4_sum_eltwise_top"
  top: "L1_b5_sum_eltwise_top"
  eltwise_param {
    operation: SUM
  }
}
layer {
  name: "L1_b5_relu"
  type: "ReLU"
  bottom: "L1_b5_sum_eltwise_top"
  top: "L1_b5_sum_eltwise_top"
}
layer {
  name: "L1_b6_cbr1_conv"
  type: "Convolution"
  bottom: "L1_b5_sum_eltwise_top"
  top: "L1_b6_cbr1_conv_top"
  param {
    lr_mult: 1
    decay_mult: 1
  }
  param {
    lr_mult: 2
    decay_mult: 0
  }
  convolution_param {
    num_output: 16
    pad: 1
    kernel_size: 3
    stride: 1
    weight_filler {
      type: "msra"
    }
    bias_filler {
      type: "constant"
    }
  }
}
layer {
  name: "L1_b6_cbr1_bn"
  type: "BatchNorm"
  bottom: "L1_b6_cbr1_conv_top"
  top: "L1_b6_cbr1_bn_top"
  include {
    phase: TRAIN
  }
  batch_norm_param {
    use_global_stats: false
    moving_average_fraction: 0.999
  }
}
layer {
  name: "L1_b6_cbr1_scale"
  type: "Scale"
  bottom: "L1_b6_cbr1_bn_top"
  top: "L1_b6_cbr1_bn_top"
  scale_param {
    bias_term: true
  }
}
layer {
  name: "L1_b6_cbr1_relu"
  type: "ReLU"
  bottom: "L1_b6_cbr1_bn_top"
  top: "L1_b6_cbr1_bn_top"
}
layer {
  name: "L1_b6_cbr2_conv"
  type: "Convolution"
  bottom: "L1_b6_cbr1_bn_top"
  top: "L1_b6_cbr2_conv_top"
  param {
    lr_mult: 1
    decay_mult: 1
  }
  param {
    lr_mult: 2
    decay_mult: 0
  }
  convolution_param {
    num_output: 16
    pad: 1
    kernel_size: 3
    stride: 1
    weight_filler {
      type: "msra"
    }
    bias_filler {
      type: "constant"
    }
  }
}
layer {
  name: "L1_b6_cbr2_bn"
  type: "BatchNorm"
  bottom: "L1_b6_cbr2_conv_top"
  top: "L1_b6_cbr2_bn_top"
  include {
    phase: TRAIN
  }
  batch_norm_param {
    use_global_stats: false
    moving_average_fraction: 0.999
  }
}
layer {
  name: "L1_b6_cbr2_scale"
  type: "Scale"
  bottom: "L1_b6_cbr2_bn_top"
  top: "L1_b6_cbr2_bn_top"
  scale_param {
    bias_term: true
  }
}
layer {
  name: "L1_b6_sum_eltwise"
  type: "Eltwise"
  bottom: "L1_b6_cbr2_bn_top"
  bottom: "L1_b5_sum_eltwise_top"
  top: "L1_b6_sum_eltwise_top"
  eltwise_param {
    operation: SUM
  }
}
layer {
  name: "L1_b6_relu"
  type: "ReLU"
  bottom: "L1_b6_sum_eltwise_top"
  top: "L1_b6_sum_eltwise_top"
}
layer {
  name: "L1_b7_cbr1_conv"
  type: "Convolution"
  bottom: "L1_b6_sum_eltwise_top"
  top: "L1_b7_cbr1_conv_top"
  param {
    lr_mult: 1
    decay_mult: 1
  }
  param {
    lr_mult: 2
    decay_mult: 0
  }
  convolution_param {
    num_output: 16
    pad: 1
    kernel_size: 3
    stride: 1
    weight_filler {
      type: "msra"
    }
    bias_filler {
      type: "constant"
    }
  }
}
layer {
  name: "L1_b7_cbr1_bn"
  type: "BatchNorm"
  bottom: "L1_b7_cbr1_conv_top"
  top: "L1_b7_cbr1_bn_top"
  include {
    phase: TRAIN
  }
  batch_norm_param {
    use_global_stats: false
    moving_average_fraction: 0.999
  }
}
layer {
  name: "L1_b7_cbr1_scale"
  type: "Scale"
  bottom: "L1_b7_cbr1_bn_top"
  top: "L1_b7_cbr1_bn_top"
  scale_param {
    bias_term: true
  }
}
layer {
  name: "L1_b7_cbr1_relu"
  type: "ReLU"
  bottom: "L1_b7_cbr1_bn_top"
  top: "L1_b7_cbr1_bn_top"
}
layer {
  name: "L1_b7_cbr2_conv"
  type: "Convolution"
  bottom: "L1_b7_cbr1_bn_top"
  top: "L1_b7_cbr2_conv_top"
  param {
    lr_mult: 1
    decay_mult: 1
  }
  param {
    lr_mult: 2
    decay_mult: 0
  }
  convolution_param {
    num_output: 16
    pad: 1
    kernel_size: 3
    stride: 1
    weight_filler {
      type: "msra"
    }
    bias_filler {
      type: "constant"
    }
  }
}
layer {
  name: "L1_b7_cbr2_bn"
  type: "BatchNorm"
  bottom: "L1_b7_cbr2_conv_top"
  top: "L1_b7_cbr2_bn_top"
  include {
    phase: TRAIN
  }
  batch_norm_param {
    use_global_stats: false
    moving_average_fraction: 0.999
  }
}
layer {
  name: "L1_b7_cbr2_scale"
  type: "Scale"
  bottom: "L1_b7_cbr2_bn_top"
  top: "L1_b7_cbr2_bn_top"
  scale_param {
    bias_term: true
  }
}
layer {
  name: "L1_b7_sum_eltwise"
  type: "Eltwise"
  bottom: "L1_b7_cbr2_bn_top"
  bottom: "L1_b6_sum_eltwise_top"
  top: "L1_b7_sum_eltwise_top"
  eltwise_param {
    operation: SUM
  }
}
layer {
  name: "L1_b7_relu"
  type: "ReLU"
  bottom: "L1_b7_sum_eltwise_top"
  top: "L1_b7_sum_eltwise_top"
}
layer {
  name: "L1_b8_cbr1_conv"
  type: "Convolution"
  bottom: "L1_b7_sum_eltwise_top"
  top: "L1_b8_cbr1_conv_top"
  param {
    lr_mult: 1
    decay_mult: 1
  }
  param {
    lr_mult: 2
    decay_mult: 0
  }
  convolution_param {
    num_output: 16
    pad: 1
    kernel_size: 3
    stride: 1
    weight_filler {
      type: "msra"
    }
    bias_filler {
      type: "constant"
    }
  }
}
layer {
  name: "L1_b8_cbr1_bn"
  type: "BatchNorm"
  bottom: "L1_b8_cbr1_conv_top"
  top: "L1_b8_cbr1_bn_top"
  include {
    phase: TRAIN
  }
  batch_norm_param {
    use_global_stats: false
    moving_average_fraction: 0.999
  }
}
layer {
  name: "L1_b8_cbr1_scale"
  type: "Scale"
  bottom: "L1_b8_cbr1_bn_top"
  top: "L1_b8_cbr1_bn_top"
  scale_param {
    bias_term: true
  }
}
layer {
  name: "L1_b8_cbr1_relu"
  type: "ReLU"
  bottom: "L1_b8_cbr1_bn_top"
  top: "L1_b8_cbr1_bn_top"
}
layer {
  name: "L1_b8_cbr2_conv"
  type: "Convolution"
  bottom: "L1_b8_cbr1_bn_top"
  top: "L1_b8_cbr2_conv_top"
  param {
    lr_mult: 1
    decay_mult: 1
  }
  param {
    lr_mult: 2
    decay_mult: 0
  }
  convolution_param {
    num_output: 16
    pad: 1
    kernel_size: 3
    stride: 1
    weight_filler {
      type: "msra"
    }
    bias_filler {
      type: "constant"
    }
  }
}
layer {
  name: "L1_b8_cbr2_bn"
  type: "BatchNorm"
  bottom: "L1_b8_cbr2_conv_top"
  top: "L1_b8_cbr2_bn_top"
  include {
    phase: TRAIN
  }
  batch_norm_param {
    use_global_stats: false
    moving_average_fraction: 0.999
  }
}
layer {
  name: "L1_b8_cbr2_scale"
  type: "Scale"
  bottom: "L1_b8_cbr2_bn_top"
  top: "L1_b8_cbr2_bn_top"
  scale_param {
    bias_term: true
  }
}
layer {
  name: "L1_b8_sum_eltwise"
  type: "Eltwise"
  bottom: "L1_b8_cbr2_bn_top"
  bottom: "L1_b7_sum_eltwise_top"
  top: "L1_b8_sum_eltwise_top"
  eltwise_param {
    operation: SUM
  }
}
layer {
  name: "L1_b8_relu"
  type: "ReLU"
  bottom: "L1_b8_sum_eltwise_top"
  top: "L1_b8_sum_eltwise_top"
}
layer {
  name: "L1_b9_cbr1_conv"
  type: "Convolution"
  bottom: "L1_b8_sum_eltwise_top"
  top: "L1_b9_cbr1_conv_top"
  param {
    lr_mult: 1
    decay_mult: 1
  }
  param {
    lr_mult: 2
    decay_mult: 0
  }
  convolution_param {
    num_output: 16
    pad: 1
    kernel_size: 3
    stride: 1
    weight_filler {
      type: "msra"
    }
    bias_filler {
      type: "constant"
    }
  }
}
layer {
  name: "L1_b9_cbr1_bn"
  type: "BatchNorm"
  bottom: "L1_b9_cbr1_conv_top"
  top: "L1_b9_cbr1_bn_top"
  include {
    phase: TRAIN
  }
  batch_norm_param {
    use_global_stats: false
    moving_average_fraction: 0.999
  }
}
layer {
  name: "L1_b9_cbr1_scale"
  type: "Scale"
  bottom: "L1_b9_cbr1_bn_top"
  top: "L1_b9_cbr1_bn_top"
  scale_param {
    bias_term: true
  }
}
layer {
  name: "L1_b9_cbr1_relu"
  type: "ReLU"
  bottom: "L1_b9_cbr1_bn_top"
  top: "L1_b9_cbr1_bn_top"
}
layer {
  name: "L1_b9_cbr2_conv"
  type: "Convolution"
  bottom: "L1_b9_cbr1_bn_top"
  top: "L1_b9_cbr2_conv_top"
  param {
    lr_mult: 1
    decay_mult: 1
  }
  param {
    lr_mult: 2
    decay_mult: 0
  }
  convolution_param {
    num_output: 16
    pad: 1
    kernel_size: 3
    stride: 1
    weight_filler {
      type: "msra"
    }
    bias_filler {
      type: "constant"
    }
  }
}
layer {
  name: "L1_b9_cbr2_bn"
  type: "BatchNorm"
  bottom: "L1_b9_cbr2_conv_top"
  top: "L1_b9_cbr2_bn_top"
  include {
    phase: TRAIN
  }
  batch_norm_param {
    use_global_stats: false
    moving_average_fraction: 0.999
  }
}
layer {
  name: "L1_b9_cbr2_scale"
  type: "Scale"
  bottom: "L1_b9_cbr2_bn_top"
  top: "L1_b9_cbr2_bn_top"
  scale_param {
    bias_term: true
  }
}
layer {
  name: "L1_b9_sum_eltwise"
  type: "Eltwise"
  bottom: "L1_b9_cbr2_bn_top"
  bottom: "L1_b8_sum_eltwise_top"
  top: "L1_b9_sum_eltwise_top"
  eltwise_param {
    operation: SUM
  }
}
layer {
  name: "L1_b9_relu"
  type: "ReLU"
  bottom: "L1_b9_sum_eltwise_top"
  top: "L1_b9_sum_eltwise_top"
}
layer {
  name: "L2_b1_cbr1_conv"
  type: "Convolution"
  bottom: "L1_b9_sum_eltwise_top"
  top: "L2_b1_cbr1_conv_top"
  param {
    lr_mult: 1
    decay_mult: 1
  }
  param {
    lr_mult: 2
    decay_mult: 0
  }
  convolution_param {
    num_output: 16
    pad: 1
    kernel_size: 3
    stride: 2
    weight_filler {
      type: "msra"
    }
    bias_filler {
      type: "constant"
    }
  }
}
layer {
  name: "L2_b1_cbr1_bn"
  type: "BatchNorm"
  bottom: "L2_b1_cbr1_conv_top"
  top: "L2_b1_cbr1_bn_top"
  include {
    phase: TRAIN
  }
  batch_norm_param {
    use_global_stats: false
    moving_average_fraction: 0.999
  }
}
layer {
  name: "L2_b1_cbr1_scale"
  type: "Scale"
  bottom: "L2_b1_cbr1_bn_top"
  top: "L2_b1_cbr1_bn_top"
  scale_param {
    bias_term: true
  }
}
layer {
  name: "L2_b1_cbr1_relu"
  type: "ReLU"
  bottom: "L2_b1_cbr1_bn_top"
  top: "L2_b1_cbr1_bn_top"
}
layer {
  name: "L2_b1_cbr2_conv"
  type: "Convolution"
  bottom: "L2_b1_cbr1_bn_top"
  top: "L2_b1_cbr2_conv_top"
  param {
    lr_mult: 1
    decay_mult: 1
  }
  param {
    lr_mult: 2
    decay_mult: 0
  }
  convolution_param {
    num_output: 16
    pad: 1
    kernel_size: 3
    stride: 1
    weight_filler {
      type: "msra"
    }
    bias_filler {
      type: "constant"
    }
  }
}
layer {
  name: "L2_b1_cbr2_bn"
  type: "BatchNorm"
  bottom: "L2_b1_cbr2_conv_top"
  top: "L2_b1_cbr2_bn_top"
  include {
    phase: TRAIN
  }
  batch_norm_param {
    use_global_stats: false
    moving_average_fraction: 0.999
  }
}
layer {
  name: "L2_b1_cbr2_scale"
  type: "Scale"
  bottom: "L2_b1_cbr2_bn_top"
  top: "L2_b1_cbr2_bn_top"
  scale_param {
    bias_term: true
  }
}
layer {
  name: "L2_b1_pool"
  type: "Pooling"
  bottom: "L1_b9_sum_eltwise_top"
  top: "L2_b1_pool"
  pooling_param {
    pool: AVE
    kernel_size: 3
    stride: 2
  }
}
layer {
  name: "L2_b1_sum_eltwise"
  type: "Eltwise"
  bottom: "L2_b1_cbr2_bn_top"
  bottom: "L2_b1_pool"
  top: "L2_b1_sum_eltwise_top"
  eltwise_param {
    operation: SUM
  }
}
layer {
  name: "L2_b1_relu"
  type: "ReLU"
  bottom: "L2_b1_sum_eltwise_top"
  top: "L2_b1_sum_eltwise_top"
}
layer {
  name: "L2_b1_zeros"
  type: "DummyData"
  top: "L2_b1_zeros"
  dummy_data_param {
    data_filler {
      type: "constant"
      value: 0
    }
    shape {
      dim: 125
      dim: 16
      dim: 16
      dim: 16
    }
  }
}
layer {
  name: "L2_b1_concat0"
  type: "Concat"
  bottom: "L2_b1_sum_eltwise_top"
  bottom: "L2_b1_zeros"
  top: "L2_b1_concat0"
  concat_param {
    axis: 1
  }
}
layer {
  name: "L2_b2_cbr1_conv"
  type: "Convolution"
  bottom: "L2_b1_concat0"
  top: "L2_b2_cbr1_conv_top"
  param {
    lr_mult: 1
    decay_mult: 1
  }
  param {
    lr_mult: 2
    decay_mult: 0
  }
  convolution_param {
    num_output: 32
    pad: 1
    kernel_size: 3
    stride: 1
    weight_filler {
      type: "msra"
    }
    bias_filler {
      type: "constant"
    }
  }
}
layer {
  name: "L2_b2_cbr1_bn"
  type: "BatchNorm"
  bottom: "L2_b2_cbr1_conv_top"
  top: "L2_b2_cbr1_bn_top"
  include {
    phase: TRAIN
  }
  batch_norm_param {
    use_global_stats: false
    moving_average_fraction: 0.999
  }
}
layer {
  name: "L2_b2_cbr1_scale"
  type: "Scale"
  bottom: "L2_b2_cbr1_bn_top"
  top: "L2_b2_cbr1_bn_top"
  scale_param {
    bias_term: true
  }
}
layer {
  name: "L2_b2_cbr1_relu"
  type: "ReLU"
  bottom: "L2_b2_cbr1_bn_top"
  top: "L2_b2_cbr1_bn_top"
}
layer {
  name: "L2_b2_cbr2_conv"
  type: "Convolution"
  bottom: "L2_b2_cbr1_bn_top"
  top: "L2_b2_cbr2_conv_top"
  param {
    lr_mult: 1
    decay_mult: 1
  }
  param {
    lr_mult: 2
    decay_mult: 0
  }
  convolution_param {
    num_output: 32
    pad: 1
    kernel_size: 3
    stride: 1
    weight_filler {
      type: "msra"
    }
    bias_filler {
      type: "constant"
    }
  }
}
layer {
  name: "L2_b2_cbr2_bn"
  type: "BatchNorm"
  bottom: "L2_b2_cbr2_conv_top"
  top: "L2_b2_cbr2_bn_top"
  include {
    phase: TRAIN
  }
  batch_norm_param {
    use_global_stats: false
    moving_average_fraction: 0.999
  }
}
layer {
  name: "L2_b2_cbr2_scale"
  type: "Scale"
  bottom: "L2_b2_cbr2_bn_top"
  top: "L2_b2_cbr2_bn_top"
  scale_param {
    bias_term: true
  }
}
layer {
  name: "L2_b2_sum_eltwise"
  type: "Eltwise"
  bottom: "L2_b2_cbr2_bn_top"
  bottom: "L2_b1_concat0"
  top: "L2_b2_sum_eltwise_top"
  eltwise_param {
    operation: SUM
  }
}
layer {
  name: "L2_b2_relu"
  type: "ReLU"
  bottom: "L2_b2_sum_eltwise_top"
  top: "L2_b2_sum_eltwise_top"
}
layer {
  name: "L2_b3_cbr1_conv"
  type: "Convolution"
  bottom: "L2_b2_sum_eltwise_top"
  top: "L2_b3_cbr1_conv_top"
  param {
    lr_mult: 1
    decay_mult: 1
  }
  param {
    lr_mult: 2
    decay_mult: 0
  }
  convolution_param {
    num_output: 32
    pad: 1
    kernel_size: 3
    stride: 1
    weight_filler {
      type: "msra"
    }
    bias_filler {
      type: "constant"
    }
  }
}
layer {
  name: "L2_b3_cbr1_bn"
  type: "BatchNorm"
  bottom: "L2_b3_cbr1_conv_top"
  top: "L2_b3_cbr1_bn_top"
  include {
    phase: TRAIN
  }
  batch_norm_param {
    use_global_stats: false
    moving_average_fraction: 0.999
  }
}
layer {
  name: "L2_b3_cbr1_scale"
  type: "Scale"
  bottom: "L2_b3_cbr1_bn_top"
  top: "L2_b3_cbr1_bn_top"
  scale_param {
    bias_term: true
  }
}
layer {
  name: "L2_b3_cbr1_relu"
  type: "ReLU"
  bottom: "L2_b3_cbr1_bn_top"
  top: "L2_b3_cbr1_bn_top"
}
layer {
  name: "L2_b3_cbr2_conv"
  type: "Convolution"
  bottom: "L2_b3_cbr1_bn_top"
  top: "L2_b3_cbr2_conv_top"
  param {
    lr_mult: 1
    decay_mult: 1
  }
  param {
    lr_mult: 2
    decay_mult: 0
  }
  convolution_param {
    num_output: 32
    pad: 1
    kernel_size: 3
    stride: 1
    weight_filler {
      type: "msra"
    }
    bias_filler {
      type: "constant"
    }
  }
}
layer {
  name: "L2_b3_cbr2_bn"
  type: "BatchNorm"
  bottom: "L2_b3_cbr2_conv_top"
  top: "L2_b3_cbr2_bn_top"
  include {
    phase: TRAIN
  }
  batch_norm_param {
    use_global_stats: false
    moving_average_fraction: 0.999
  }
}
layer {
  name: "L2_b3_cbr2_scale"
  type: "Scale"
  bottom: "L2_b3_cbr2_bn_top"
  top: "L2_b3_cbr2_bn_top"
  scale_param {
    bias_term: true
  }
}
layer {
  name: "L2_b3_sum_eltwise"
  type: "Eltwise"
  bottom: "L2_b3_cbr2_bn_top"
  bottom: "L2_b2_sum_eltwise_top"
  top: "L2_b3_sum_eltwise_top"
  eltwise_param {
    operation: SUM
  }
}
layer {
  name: "L2_b3_relu"
  type: "ReLU"
  bottom: "L2_b3_sum_eltwise_top"
  top: "L2_b3_sum_eltwise_top"
}
layer {
  name: "L2_b4_cbr1_conv"
  type: "Convolution"
  bottom: "L2_b3_sum_eltwise_top"
  top: "L2_b4_cbr1_conv_top"
  param {
    lr_mult: 1
    decay_mult: 1
  }
  param {
    lr_mult: 2
    decay_mult: 0
  }
  convolution_param {
    num_output: 32
    pad: 1
    kernel_size: 3
    stride: 1
    weight_filler {
      type: "msra"
    }
    bias_filler {
      type: "constant"
    }
  }
}
layer {
  name: "L2_b4_cbr1_bn"
  type: "BatchNorm"
  bottom: "L2_b4_cbr1_conv_top"
  top: "L2_b4_cbr1_bn_top"
  include {
    phase: TRAIN
  }
  batch_norm_param {
    use_global_stats: false
    moving_average_fraction: 0.999
  }
}
layer {
  name: "L2_b4_cbr1_scale"
  type: "Scale"
  bottom: "L2_b4_cbr1_bn_top"
  top: "L2_b4_cbr1_bn_top"
  scale_param {
    bias_term: true
  }
}
layer {
  name: "L2_b4_cbr1_relu"
  type: "ReLU"
  bottom: "L2_b4_cbr1_bn_top"
  top: "L2_b4_cbr1_bn_top"
}
layer {
  name: "L2_b4_cbr2_conv"
  type: "Convolution"
  bottom: "L2_b4_cbr1_bn_top"
  top: "L2_b4_cbr2_conv_top"
  param {
    lr_mult: 1
    decay_mult: 1
  }
  param {
    lr_mult: 2
    decay_mult: 0
  }
  convolution_param {
    num_output: 32
    pad: 1
    kernel_size: 3
    stride: 1
    weight_filler {
      type: "msra"
    }
    bias_filler {
      type: "constant"
    }
  }
}
layer {
  name: "L2_b4_cbr2_bn"
  type: "BatchNorm"
  bottom: "L2_b4_cbr2_conv_top"
  top: "L2_b4_cbr2_bn_top"
  include {
    phase: TRAIN
  }
  batch_norm_param {
    use_global_stats: false
    moving_average_fraction: 0.999
  }
}
layer {
  name: "L2_b4_cbr2_scale"
  type: "Scale"
  bottom: "L2_b4_cbr2_bn_top"
  top: "L2_b4_cbr2_bn_top"
  scale_param {
    bias_term: true
  }
}
layer {
  name: "L2_b4_sum_eltwise"
  type: "Eltwise"
  bottom: "L2_b4_cbr2_bn_top"
  bottom: "L2_b3_sum_eltwise_top"
  top: "L2_b4_sum_eltwise_top"
  eltwise_param {
    operation: SUM
  }
}
layer {
  name: "L2_b4_relu"
  type: "ReLU"
  bottom: "L2_b4_sum_eltwise_top"
  top: "L2_b4_sum_eltwise_top"
}
layer {
  name: "L2_b5_cbr1_conv"
  type: "Convolution"
  bottom: "L2_b4_sum_eltwise_top"
  top: "L2_b5_cbr1_conv_top"
  param {
    lr_mult: 1
    decay_mult: 1
  }
  param {
    lr_mult: 2
    decay_mult: 0
  }
  convolution_param {
    num_output: 32
    pad: 1
    kernel_size: 3
    stride: 1
    weight_filler {
      type: "msra"
    }
    bias_filler {
      type: "constant"
    }
  }
}
layer {
  name: "L2_b5_cbr1_bn"
  type: "BatchNorm"
  bottom: "L2_b5_cbr1_conv_top"
  top: "L2_b5_cbr1_bn_top"
  include {
    phase: TRAIN
  }
  batch_norm_param {
    use_global_stats: false
    moving_average_fraction: 0.999
  }
}
layer {
  name: "L2_b5_cbr1_scale"
  type: "Scale"
  bottom: "L2_b5_cbr1_bn_top"
  top: "L2_b5_cbr1_bn_top"
  scale_param {
    bias_term: true
  }
}
layer {
  name: "L2_b5_cbr1_relu"
  type: "ReLU"
  bottom: "L2_b5_cbr1_bn_top"
  top: "L2_b5_cbr1_bn_top"
}
layer {
  name: "L2_b5_cbr2_conv"
  type: "Convolution"
  bottom: "L2_b5_cbr1_bn_top"
  top: "L2_b5_cbr2_conv_top"
  param {
    lr_mult: 1
    decay_mult: 1
  }
  param {
    lr_mult: 2
    decay_mult: 0
  }
  convolution_param {
    num_output: 32
    pad: 1
    kernel_size: 3
    stride: 1
    weight_filler {
      type: "msra"
    }
    bias_filler {
      type: "constant"
    }
  }
}
layer {
  name: "L2_b5_cbr2_bn"
  type: "BatchNorm"
  bottom: "L2_b5_cbr2_conv_top"
  top: "L2_b5_cbr2_bn_top"
  include {
    phase: TRAIN
  }
  batch_norm_param {
    use_global_stats: false
    moving_average_fraction: 0.999
  }
}
layer {
  name: "L2_b5_cbr2_scale"
  type: "Scale"
  bottom: "L2_b5_cbr2_bn_top"
  top: "L2_b5_cbr2_bn_top"
  scale_param {
    bias_term: true
  }
}
layer {
  name: "L2_b5_sum_eltwise"
  type: "Eltwise"
  bottom: "L2_b5_cbr2_bn_top"
  bottom: "L2_b4_sum_eltwise_top"
  top: "L2_b5_sum_eltwise_top"
  eltwise_param {
    operation: SUM
  }
}
layer {
  name: "L2_b5_relu"
  type: "ReLU"
  bottom: "L2_b5_sum_eltwise_top"
  top: "L2_b5_sum_eltwise_top"
}
layer {
  name: "L2_b6_cbr1_conv"
  type: "Convolution"
  bottom: "L2_b5_sum_eltwise_top"
  top: "L2_b6_cbr1_conv_top"
  param {
    lr_mult: 1
    decay_mult: 1
  }
  param {
    lr_mult: 2
    decay_mult: 0
  }
  convolution_param {
    num_output: 32
    pad: 1
    kernel_size: 3
    stride: 1
    weight_filler {
      type: "msra"
    }
    bias_filler {
      type: "constant"
    }
  }
}
layer {
  name: "L2_b6_cbr1_bn"
  type: "BatchNorm"
  bottom: "L2_b6_cbr1_conv_top"
  top: "L2_b6_cbr1_bn_top"
  include {
    phase: TRAIN
  }
  batch_norm_param {
    use_global_stats: false
    moving_average_fraction: 0.9
I0821 08:27:21.473067 32551 layer_factory.hpp:77] Creating layer dataLayer
I0821 08:27:21.475574 32551 net.cpp:100] Creating Layer dataLayer
I0821 08:27:21.475654 32551 net.cpp:408] dataLayer -> data_top
I0821 08:27:21.475900 32551 net.cpp:408] dataLayer -> label
I0821 08:27:21.476032 32551 data_transformer.cpp:25] Loading mean file from: examples/cifar10/mean.binaryproto
I0821 08:27:21.565357 32556 db_lmdb.cpp:35] Opened lmdb examples/cifar10/cifar10_train20k_lmdb
I0821 08:27:21.565879 32551 data_layer.cpp:41] output data size: 125,3,32,32
I0821 08:27:21.573057 32551 net.cpp:150] Setting up dataLayer
I0821 08:27:21.573143 32551 net.cpp:157] Top shape: 125 3 32 32 (384000)
I0821 08:27:21.573163 32551 net.cpp:157] Top shape: 125 (125)
I0821 08:27:21.573171 32551 net.cpp:165] Memory required for data: 1536500
I0821 08:27:21.573191 32551 layer_factory.hpp:77] Creating layer label_dataLayer_1_split
I0821 08:27:21.573212 32551 net.cpp:100] Creating Layer label_dataLayer_1_split
I0821 08:27:21.573225 32551 net.cpp:434] label_dataLayer_1_split <- label
I0821 08:27:21.573251 32551 net.cpp:408] label_dataLayer_1_split -> label_dataLayer_1_split_0
I0821 08:27:21.573273 32551 net.cpp:408] label_dataLayer_1_split -> label_dataLayer_1_split_1
I0821 08:27:21.573397 32551 net.cpp:150] Setting up label_dataLayer_1_split
I0821 08:27:21.573420 32551 net.cpp:157] Top shape: 125 (125)
I0821 08:27:21.573433 32551 net.cpp:157] Top shape: 125 (125)
I0821 08:27:21.573443 32551 net.cpp:165] Memory required for data: 1537500
I0821 08:27:21.573454 32551 layer_factory.hpp:77] Creating layer pre_conv
I0821 08:27:21.573535 32551 net.cpp:100] Creating Layer pre_conv
I0821 08:27:21.573551 32551 net.cpp:434] pre_conv <- data_top
I0821 08:27:21.573572 32551 net.cpp:408] pre_conv -> pre_conv_top
I0821 08:27:21.575321 32551 net.cpp:150] Setting up pre_conv
I0821 08:27:21.575351 32551 net.cpp:157] Top shape: 125 16 32 32 (2048000)
I0821 08:27:21.575361 32551 net.cpp:165] Memory required for data: 9729500
I0821 08:27:21.575455 32551 layer_factory.hpp:77] Creating layer pre_bn
I0821 08:27:21.575575 32551 net.cpp:100] Creating Layer pre_bn
I0821 08:27:21.575592 32551 net.cpp:434] pre_bn <- pre_conv_top
I0821 08:27:21.575614 32551 net.cpp:408] pre_bn -> pre_bn_top
I0821 08:27:21.575796 32557 blocking_queue.cpp:50] Waiting for data
I0821 08:27:21.575996 32551 net.cpp:150] Setting up pre_bn
I0821 08:27:21.576020 32551 net.cpp:157] Top shape: 125 16 32 32 (2048000)
I0821 08:27:21.576030 32551 net.cpp:165] Memory required for data: 17921500
I0821 08:27:21.576059 32551 layer_factory.hpp:77] Creating layer pre_scale
I0821 08:27:21.576133 32551 net.cpp:100] Creating Layer pre_scale
I0821 08:27:21.576148 32551 net.cpp:434] pre_scale <- pre_bn_top
I0821 08:27:21.576164 32551 net.cpp:395] pre_scale -> pre_bn_top (in-place)
I0821 08:27:21.576391 32551 layer_factory.hpp:77] Creating layer pre_scale
I0821 08:27:21.579126 32551 net.cpp:150] Setting up pre_scale
I0821 08:27:21.579154 32551 net.cpp:157] Top shape: 125 16 32 32 (2048000)
I0821 08:27:21.579164 32551 net.cpp:165] Memory required for data: 26113500
I0821 08:27:21.579183 32551 layer_factory.hpp:77] Creating layer pre_relu
I0821 08:27:21.579263 32551 net.cpp:100] Creating Layer pre_relu
I0821 08:27:21.579282 32551 net.cpp:434] pre_relu <- pre_bn_top
I0821 08:27:21.579298 32551 net.cpp:395] pre_relu -> pre_bn_top (in-place)
I0821 08:27:21.579319 32551 net.cpp:150] Setting up pre_relu
I0821 08:27:21.579334 32551 net.cpp:157] Top shape: 125 16 32 32 (2048000)
I0821 08:27:21.579344 32551 net.cpp:165] Memory required for data: 34305500
I0821 08:27:21.579355 32551 layer_factory.hpp:77] Creating layer pre_bn_top_pre_relu_0_split
I0821 08:27:21.579375 32551 net.cpp:100] Creating Layer pre_bn_top_pre_relu_0_split
I0821 08:27:21.579386 32551 net.cpp:434] pre_bn_top_pre_relu_0_split <- pre_bn_top
I0821 08:27:21.579401 32551 net.cpp:408] pre_bn_top_pre_relu_0_split -> pre_bn_top_pre_relu_0_split_0
I0821 08:27:21.579421 32551 net.cpp:408] pre_bn_top_pre_relu_0_split -> pre_bn_top_pre_relu_0_split_1
I0821 08:27:21.579502 32551 net.cpp:150] Setting up pre_bn_top_pre_relu_0_split
I0821 08:27:21.579529 32551 net.cpp:157] Top shape: 125 16 32 32 (2048000)
I0821 08:27:21.579543 32551 net.cpp:157] Top shape: 125 16 32 32 (2048000)
I0821 08:27:21.579552 32551 net.cpp:165] Memory required for data: 50689500
I0821 08:27:21.579562 32551 layer_factory.hpp:77] Creating layer L1_b1_cbr1_conv
I0821 08:27:21.579583 32551 net.cpp:100] Creating Layer L1_b1_cbr1_conv
I0821 08:27:21.579596 32551 net.cpp:434] L1_b1_cbr1_conv <- pre_bn_top_pre_relu_0_split_0
I0821 08:27:21.579613 32551 net.cpp:408] L1_b1_cbr1_conv -> L1_b1_cbr1_conv_top
I0821 08:27:21.579995 32551 net.cpp:150] Setting up L1_b1_cbr1_conv
I0821 08:27:21.580016 32551 net.cpp:157] Top shape: 125 16 32 32 (2048000)
I0821 08:27:21.580026 32551 net.cpp:165] Memory required for data: 58881500
I0821 08:27:21.580049 32551 layer_factory.hpp:77] Creating layer L1_b1_cbr1_bn
I0821 08:27:21.580075 32551 net.cpp:100] Creating Layer L1_b1_cbr1_bn
I0821 08:27:21.580087 32551 net.cpp:434] L1_b1_cbr1_bn <- L1_b1_cbr1_conv_top
I0821 08:27:21.580108 32551 net.cpp:408] L1_b1_cbr1_bn -> L1_b1_cbr1_bn_top
I0821 08:27:21.580384 32551 net.cpp:150] Setting up L1_b1_cbr1_bn
I0821 08:27:21.580404 32551 net.cpp:157] Top shape: 125 16 32 32 (2048000)
I0821 08:27:21.580413 32551 net.cpp:165] Memory required for data: 67073500
I0821 08:27:21.580435 32551 layer_factory.hpp:77] Creating layer L1_b1_cbr1_scale
I0821 08:27:21.580456 32551 net.cpp:100] Creating Layer L1_b1_cbr1_scale
I0821 08:27:21.580468 32551 net.cpp:434] L1_b1_cbr1_scale <- L1_b1_cbr1_bn_top
I0821 08:27:21.580484 32551 net.cpp:395] L1_b1_cbr1_scale -> L1_b1_cbr1_bn_top (in-place)
I0821 08:27:21.580567 32551 layer_factory.hpp:77] Creating layer L1_b1_cbr1_scale
I0821 08:27:21.580742 32551 net.cpp:150] Setting up L1_b1_cbr1_scale
I0821 08:27:21.580761 32551 net.cpp:157] Top shape: 125 16 32 32 (2048000)
I0821 08:27:21.580772 32551 net.cpp:165] Memory required for data: 75265500
I0821 08:27:21.580790 32551 layer_factory.hpp:77] Creating layer L1_b1_cbr1_relu
I0821 08:27:21.580814 32551 net.cpp:100] Creating Layer L1_b1_cbr1_relu
I0821 08:27:21.580824 32551 net.cpp:434] L1_b1_cbr1_relu <- L1_b1_cbr1_bn_top
I0821 08:27:21.580844 32551 net.cpp:395] L1_b1_cbr1_relu -> L1_b1_cbr1_bn_top (in-place)
I0821 08:27:21.580863 32551 net.cpp:150] Setting up L1_b1_cbr1_relu
I0821 08:27:21.580878 32551 net.cpp:157] Top shape: 125 16 32 32 (2048000)
I0821 08:27:21.580888 32551 net.cpp:165] Memory required for data: 83457500
I0821 08:27:21.580898 32551 layer_factory.hpp:77] Creating layer L1_b1_cbr2_conv
I0821 08:27:21.580924 32551 net.cpp:100] Creating Layer L1_b1_cbr2_conv
I0821 08:27:21.580937 32551 net.cpp:434] L1_b1_cbr2_conv <- L1_b1_cbr1_bn_top
I0821 08:27:21.580965 32551 net.cpp:408] L1_b1_cbr2_conv -> L1_b1_cbr2_conv_top
I0821 08:27:21.581300 32551 net.cpp:150] Setting up L1_b1_cbr2_conv
I0821 08:27:21.581320 32551 net.cpp:157] Top shape: 125 16 32 32 (2048000)
I0821 08:27:21.581329 32551 net.cpp:165] Memory required for data: 91649500
I0821 08:27:21.581347 32551 layer_factory.hpp:77] Creating layer L1_b1_cbr2_bn
I0821 08:27:21.581368 32551 net.cpp:100] Creating Layer L1_b1_cbr2_bn
I0821 08:27:21.581380 32551 net.cpp:434] L1_b1_cbr2_bn <- L1_b1_cbr2_conv_top
I0821 08:27:21.581398 32551 net.cpp:408] L1_b1_cbr2_bn -> L1_b1_cbr2_bn_top
I0821 08:27:21.581661 32551 net.cpp:150] Setting up L1_b1_cbr2_bn
I0821 08:27:21.581681 32551 net.cpp:157] Top shape: 125 16 32 32 (2048000)
I0821 08:27:21.581691 32551 net.cpp:165] Memory required for data: 99841500
I0821 08:27:21.581717 32551 layer_factory.hpp:77] Creating layer L1_b1_cbr2_scale
I0821 08:27:21.581740 32551 net.cpp:100] Creating Layer L1_b1_cbr2_scale
I0821 08:27:21.581753 32551 net.cpp:434] L1_b1_cbr2_scale <- L1_b1_cbr2_bn_top
I0821 08:27:21.581773 32551 net.cpp:395] L1_b1_cbr2_scale -> L1_b1_cbr2_bn_top (in-place)
I0821 08:27:21.581856 32551 layer_factory.hpp:77] Creating layer L1_b1_cbr2_scale
I0821 08:27:21.582037 32551 net.cpp:150] Setting up L1_b1_cbr2_scale
I0821 08:27:21.582057 32551 net.cpp:157] Top shape: 125 16 32 32 (2048000)
I0821 08:27:21.582067 32551 net.cpp:165] Memory required for data: 108033500
I0821 08:27:21.582085 32551 layer_factory.hpp:77] Creating layer L1_b1_sum_eltwise
I0821 08:27:21.582160 32551 net.cpp:100] Creating Layer L1_b1_sum_eltwise
I0821 08:27:21.582176 32551 net.cpp:434] L1_b1_sum_eltwise <- L1_b1_cbr2_bn_top
I0821 08:27:21.582190 32551 net.cpp:434] L1_b1_sum_eltwise <- pre_bn_top_pre_relu_0_split_1
I0821 08:27:21.582206 32551 net.cpp:408] L1_b1_sum_eltwise -> L1_b1_sum_eltwise_top
I0821 08:27:21.582307 32551 net.cpp:150] Setting up L1_b1_sum_eltwise
I0821 08:27:21.582326 32551 net.cpp:157] Top shape: 125 16 32 32 (2048000)
I0821 08:27:21.582336 32551 net.cpp:165] Memory required for data: 116225500
I0821 08:27:21.582346 32551 layer_factory.hpp:77] Creating layer L1_b1_relu
I0821 08:27:21.582361 32551 net.cpp:100] Creating Layer L1_b1_relu
I0821 08:27:21.582372 32551 net.cpp:434] L1_b1_relu <- L1_b1_sum_eltwise_top
I0821 08:27:21.582391 32551 net.cpp:395] L1_b1_relu -> L1_b1_sum_eltwise_top (in-place)
I0821 08:27:21.582411 32551 net.cpp:150] Setting up L1_b1_relu
I0821 08:27:21.582425 32551 net.cpp:157] Top shape: 125 16 32 32 (2048000)
I0821 08:27:21.582434 32551 net.cpp:165] Memory required for data: 124417500
I0821 08:27:21.582444 32551 layer_factory.hpp:77] Creating layer L1_b1_sum_eltwise_top_L1_b1_relu_0_split
I0821 08:27:21.582460 32551 net.cpp:100] Creating Layer L1_b1_sum_eltwise_top_L1_b1_relu_0_split
I0821 08:27:21.582470 32551 net.cpp:434] L1_b1_sum_eltwise_top_L1_b1_relu_0_split <- L1_b1_sum_eltwise_top
I0821 08:27:21.582485 32551 net.cpp:408] L1_b1_sum_eltwise_top_L1_b1_relu_0_split -> L1_b1_sum_eltwise_top_L1_b1_relu_0_split_0
I0821 08:27:21.582505 32551 net.cpp:408] L1_b1_sum_eltwise_top_L1_b1_relu_0_split -> L1_b1_sum_eltwise_top_L1_b1_relu_0_split_1
I0821 08:27:21.582582 32551 net.cpp:150] Setting up L1_b1_sum_eltwise_top_L1_b1_relu_0_split
I0821 08:27:21.582602 32551 net.cpp:157] Top shape: 125 16 32 32 (2048000)
I0821 08:27:21.582614 32551 net.cpp:157] Top shape: 125 16 32 32 (2048000)
I0821 08:27:21.582633 32551 net.cpp:165] Memory required for data: 140801500
I0821 08:27:21.582644 32551 layer_factory.hpp:77] Creating layer L1_b2_cbr1_conv
I0821 08:27:21.582669 32551 net.cpp:100] Creating Layer L1_b2_cbr1_conv
I0821 08:27:21.582681 32551 net.cpp:434] L1_b2_cbr1_conv <- L1_b1_sum_eltwise_top_L1_b1_relu_0_split_0
I0821 08:27:21.582700 32551 net.cpp:408] L1_b2_cbr1_conv -> L1_b2_cbr1_conv_top
I0821 08:27:21.583056 32551 net.cpp:150] Setting up L1_b2_cbr1_conv
I0821 08:27:21.583077 32551 net.cpp:157] Top shape: 125 16 32 32 (2048000)
I0821 08:27:21.583087 32551 net.cpp:165] Memory required for data: 148993500
I0821 08:27:21.583106 32551 layer_factory.hpp:77] Creating layer L1_b2_cbr1_bn
I0821 08:27:21.583129 32551 net.cpp:100] Creating Layer L1_b2_cbr1_bn
I0821 08:27:21.583142 32551 net.cpp:434] L1_b2_cbr1_bn <- L1_b2_cbr1_conv_top
I0821 08:27:21.583159 32551 net.cpp:408] L1_b2_cbr1_bn -> L1_b2_cbr1_bn_top
I0821 08:27:21.583431 32551 net.cpp:150] Setting up L1_b2_cbr1_bn
I0821 08:27:21.583451 32551 net.cpp:157] Top shape: 125 16 32 32 (2048000)
I0821 08:27:21.583461 32551 net.cpp:165] Memory required for data: 157185500
I0821 08:27:21.583482 32551 layer_factory.hpp:77] Creating layer L1_b2_cbr1_scale
I0821 08:27:21.583499 32551 net.cpp:100] Creating Layer L1_b2_cbr1_scale
I0821 08:27:21.583510 32551 net.cpp:434] L1_b2_cbr1_scale <- L1_b2_cbr1_bn_top
I0821 08:27:21.583525 32551 net.cpp:395] L1_b2_cbr1_scale -> L1_b2_cbr1_bn_top (in-place)
I0821 08:27:21.583612 32551 layer_factory.hpp:77] Creating layer L1_b2_cbr1_scale
I0821 08:27:21.583786 32551 net.cpp:150] Setting up L1_b2_cbr1_scale
I0821 08:27:21.583804 32551 net.cpp:157] Top shape: 125 16 32 32 (2048000)
I0821 08:27:21.583814 32551 net.cpp:165] Memory required for data: 165377500
I0821 08:27:21.583832 32551 layer_factory.hpp:77] Creating layer L1_b2_cbr1_relu
I0821 08:27:21.583848 32551 net.cpp:100] Creating Layer L1_b2_cbr1_relu
I0821 08:27:21.583859 32551 net.cpp:434] L1_b2_cbr1_relu <- L1_b2_cbr1_bn_top
I0821 08:27:21.583878 32551 net.cpp:395] L1_b2_cbr1_relu -> L1_b2_cbr1_bn_top (in-place)
I0821 08:27:21.583896 32551 net.cpp:150] Setting up L1_b2_cbr1_relu
I0821 08:27:21.583910 32551 net.cpp:157] Top shape: 125 16 32 32 (2048000)
I0821 08:27:21.583920 32551 net.cpp:165] Memory required for data: 173569500
I0821 08:27:21.583930 32551 layer_factory.hpp:77] Creating layer L1_b2_cbr2_conv
I0821 08:27:21.583956 32551 net.cpp:100] Creating Layer L1_b2_cbr2_conv
I0821 08:27:21.583969 32551 net.cpp:434] L1_b2_cbr2_conv <- L1_b2_cbr1_bn_top
I0821 08:27:21.583992 32551 net.cpp:408] L1_b2_cbr2_conv -> L1_b2_cbr2_conv_top
I0821 08:27:21.584336 32551 net.cpp:150] Setting up L1_b2_cbr2_conv
I0821 08:27:21.584357 32551 net.cpp:157] Top shape: 125 16 32 32 (2048000)
I0821 08:27:21.584367 32551 net.cpp:165] Memory required for data: 181761500
I0821 08:27:21.584383 32551 layer_factory.hpp:77] Creating layer L1_b2_cbr2_bn
I0821 08:27:21.584400 32551 net.cpp:100] Creating Layer L1_b2_cbr2_bn
I0821 08:27:21.584410 32551 net.cpp:434] L1_b2_cbr2_bn <- L1_b2_cbr2_conv_top
I0821 08:27:21.584434 32551 net.cpp:408] L1_b2_cbr2_bn -> L1_b2_cbr2_bn_top
I0821 08:27:21.584702 32551 net.cpp:150] Setting up L1_b2_cbr2_bn
I0821 08:27:21.584725 32551 net.cpp:157] Top shape: 125 16 32 32 (2048000)
I0821 08:27:21.584738 32551 net.cpp:165] Memory required for data: 189953500
I0821 08:27:21.584766 32551 layer_factory.hpp:77] Creating layer L1_b2_cbr2_scale
I0821 08:27:21.584784 32551 net.cpp:100] Creating Layer L1_b2_cbr2_scale
I0821 08:27:21.584795 32551 net.cpp:434] L1_b2_cbr2_scale <- L1_b2_cbr2_bn_top
I0821 08:27:21.584818 32551 net.cpp:395] L1_b2_cbr2_scale -> L1_b2_cbr2_bn_top (in-place)
I0821 08:27:21.584910 32551 layer_factory.hpp:77] Creating layer L1_b2_cbr2_scale
I0821 08:27:21.585088 32551 net.cpp:150] Setting up L1_b2_cbr2_scale
I0821 08:27:21.585111 32551 net.cpp:157] Top shape: 125 16 32 32 (2048000)
I0821 08:27:21.585120 32551 net.cpp:165] Memory required for data: 198145500
I0821 08:27:21.585139 32551 layer_factory.hpp:77] Creating layer L1_b2_sum_eltwise
I0821 08:27:21.585165 32551 net.cpp:100] Creating Layer L1_b2_sum_eltwise
I0821 08:27:21.585177 32551 net.cpp:434] L1_b2_sum_eltwise <- L1_b2_cbr2_bn_top
I0821 08:27:21.585191 32551 net.cpp:434] L1_b2_sum_eltwise <- L1_b1_sum_eltwise_top_L1_b1_relu_0_split_1
I0821 08:27:21.585206 32551 net.cpp:408] L1_b2_sum_eltwise -> L1_b2_sum_eltwise_top
I0821 08:27:21.585264 32551 net.cpp:150] Setting up L1_b2_sum_eltwise
I0821 08:27:21.585285 32551 net.cpp:157] Top shape: 125 16 32 32 (2048000)
I0821 08:27:21.585294 32551 net.cpp:165] Memory required for data: 206337500
I0821 08:27:21.585305 32551 layer_factory.hpp:77] Creating layer L1_b2_relu
I0821 08:27:21.585319 32551 net.cpp:100] Creating Layer L1_b2_relu
I0821 08:27:21.585330 32551 net.cpp:434] L1_b2_relu <- L1_b2_sum_eltwise_top
I0821 08:27:21.585345 32551 net.cpp:395] L1_b2_relu -> L1_b2_sum_eltwise_top (in-place)
I0821 08:27:21.585362 32551 net.cpp:150] Setting up L1_b2_relu
I0821 08:27:21.585376 32551 net.cpp:157] Top shape: 125 16 32 32 (2048000)
I0821 08:27:21.585386 32551 net.cpp:165] Memory required for data: 214529500
I0821 08:27:21.585395 32551 layer_factory.hpp:77] Creating layer L1_b2_sum_eltwise_top_L1_b2_relu_0_split
I0821 08:27:21.585410 32551 net.cpp:100] Creating Layer L1_b2_sum_eltwise_top_L1_b2_relu_0_split
I0821 08:27:21.585420 32551 net.cpp:434] L1_b2_sum_eltwise_top_L1_b2_relu_0_split <- L1_b2_sum_eltwise_top
I0821 08:27:21.585440 32551 net.cpp:408] L1_b2_sum_eltwise_top_L1_b2_relu_0_split -> L1_b2_sum_eltwise_top_L1_b2_relu_0_split_0
I0821 08:27:21.585460 32551 net.cpp:408] L1_b2_sum_eltwise_top_L1_b2_relu_0_split -> L1_b2_sum_eltwise_top_L1_b2_relu_0_split_1
I0821 08:27:21.585535 32551 net.cpp:150] Setting up L1_b2_sum_eltwise_top_L1_b2_relu_0_split
I0821 08:27:21.585561 32551 net.cpp:157] Top shape: 125 16 32 32 (2048000)
I0821 08:27:21.585577 32551 net.cpp:157] Top shape: 125 16 32 32 (2048000)
I0821 08:27:21.585587 32551 net.cpp:165] Memory required for data: 230913500
I0821 08:27:21.585597 32551 layer_factory.hpp:77] Creating layer L1_b3_cbr1_conv
I0821 08:27:21.585616 32551 net.cpp:100] Creating Layer L1_b3_cbr1_conv
I0821 08:27:21.585628 32551 net.cpp:434] L1_b3_cbr1_conv <- L1_b2_sum_eltwise_top_L1_b2_relu_0_split_0
I0821 08:27:21.585645 32551 net.cpp:408] L1_b3_cbr1_conv -> L1_b3_cbr1_conv_top
I0821 08:27:21.586009 32551 net.cpp:150] Setting up L1_b3_cbr1_conv
I0821 08:27:21.586030 32551 net.cpp:157] Top shape: 125 16 32 32 (2048000)
I0821 08:27:21.586040 32551 net.cpp:165] Memory required for data: 239105500
I0821 08:27:21.586057 32551 layer_factory.hpp:77] Creating layer L1_b3_cbr1_bn
I0821 08:27:21.586078 32551 net.cpp:100] Creating Layer L1_b3_cbr1_bn
I0821 08:27:21.586091 32551 net.cpp:434] L1_b3_cbr1_bn <- L1_b3_cbr1_conv_top
I0821 08:27:21.586107 32551 net.cpp:408] L1_b3_cbr1_bn -> L1_b3_cbr1_bn_top
I0821 08:27:21.586372 32551 net.cpp:150] Setting up L1_b3_cbr1_bn
I0821 08:27:21.586391 32551 net.cpp:157] Top shape: 125 16 32 32 (2048000)
I0821 08:27:21.586401 32551 net.cpp:165] Memory required for data: 247297500
I0821 08:27:21.586422 32551 layer_factory.hpp:77] Creating layer L1_b3_cbr1_scale
I0821 08:27:21.586439 32551 net.cpp:100] Creating Layer L1_b3_cbr1_scale
I0821 08:27:21.586452 32551 net.cpp:434] L1_b3_cbr1_scale <- L1_b3_cbr1_bn_top
I0821 08:27:21.586472 32551 net.cpp:395] L1_b3_cbr1_scale -> L1_b3_cbr1_bn_top (in-place)
I0821 08:27:21.586555 32551 layer_factory.hpp:77] Creating layer L1_b3_cbr1_scale
I0821 08:27:21.586730 32551 net.cpp:150] Setting up L1_b3_cbr1_scale
I0821 08:27:21.586751 32551 net.cpp:157] Top shape: 125 16 32 32 (2048000)
I0821 08:27:21.586761 32551 net.cpp:165] Memory required for data: 255489500
I0821 08:27:21.586781 32551 layer_factory.hpp:77] Creating layer L1_b3_cbr1_relu
I0821 08:27:21.586796 32551 net.cpp:100] Creating Layer L1_b3_cbr1_relu
I0821 08:27:21.586807 32551 net.cpp:434] L1_b3_cbr1_relu <- L1_b3_cbr1_bn_top
I0821 08:27:21.586822 32551 net.cpp:395] L1_b3_cbr1_relu -> L1_b3_cbr1_bn_top (in-place)
I0821 08:27:21.586839 32551 net.cpp:150] Setting up L1_b3_cbr1_relu
I0821 08:27:21.586863 32551 net.cpp:157] Top shape: 125 16 32 32 (2048000)
I0821 08:27:21.586874 32551 net.cpp:165] Memory required for data: 263681500
I0821 08:27:21.586884 32551 layer_factory.hpp:77] Creating layer L1_b3_cbr2_conv
I0821 08:27:21.586913 32551 net.cpp:100] Creating Layer L1_b3_cbr2_conv
I0821 08:27:21.586925 32551 net.cpp:434] L1_b3_cbr2_conv <- L1_b3_cbr1_bn_top
I0821 08:27:21.586956 32551 net.cpp:408] L1_b3_cbr2_conv -> L1_b3_cbr2_conv_top
I0821 08:27:21.587294 32551 net.cpp:150] Setting up L1_b3_cbr2_conv
I0821 08:27:21.587314 32551 net.cpp:157] Top shape: 125 16 32 32 (2048000)
I0821 08:27:21.587324 32551 net.cpp:165] Memory required for data: 271873500
I0821 08:27:21.587342 32551 layer_factory.hpp:77] Creating layer L1_b3_cbr2_bn
I0821 08:27:21.587370 32551 net.cpp:100] Creating Layer L1_b3_cbr2_bn
I0821 08:27:21.587383 32551 net.cpp:434] L1_b3_cbr2_bn <- L1_b3_cbr2_conv_top
I0821 08:27:21.587400 32551 net.cpp:408] L1_b3_cbr2_bn -> L1_b3_cbr2_bn_top
I0821 08:27:21.587661 32551 net.cpp:150] Setting up L1_b3_cbr2_bn
I0821 08:27:21.587680 32551 net.cpp:157] Top shape: 125 16 32 32 (2048000)
I0821 08:27:21.587690 32551 net.cpp:165] Memory required for data: 280065500
I0821 08:27:21.587713 32551 layer_factory.hpp:77] Creating layer L1_b3_cbr2_scale
I0821 08:27:21.587729 32551 net.cpp:100] Creating Layer L1_b3_cbr2_scale
I0821 08:27:21.587741 32551 net.cpp:434] L1_b3_cbr2_scale <- L1_b3_cbr2_bn_top
I0821 08:27:21.587760 32551 net.cpp:395] L1_b3_cbr2_scale -> L1_b3_cbr2_bn_top (in-place)
I0821 08:27:21.587847 32551 layer_factory.hpp:77] Creating layer L1_b3_cbr2_scale
I0821 08:27:21.588027 32551 net.cpp:150] Setting up L1_b3_cbr2_scale
I0821 08:27:21.588047 32551 net.cpp:157] Top shape: 125 16 32 32 (2048000)
I0821 08:27:21.588057 32551 net.cpp:165] Memory required for data: 288257500
I0821 08:27:21.588074 32551 layer_factory.hpp:77] Creating layer L1_b3_sum_eltwise
I0821 08:27:21.588091 32551 net.cpp:100] Creating Layer L1_b3_sum_eltwise
I0821 08:27:21.588102 32551 net.cpp:434] L1_b3_sum_eltwise <- L1_b3_cbr2_bn_top
I0821 08:27:21.588114 32551 net.cpp:434] L1_b3_sum_eltwise <- L1_b2_sum_eltwise_top_L1_b2_relu_0_split_1
I0821 08:27:21.588135 32551 net.cpp:408] L1_b3_sum_eltwise -> L1_b3_sum_eltwise_top
I0821 08:27:21.588187 32551 net.cpp:150] Setting up L1_b3_sum_eltwise
I0821 08:27:21.588210 32551 net.cpp:157] Top shape: 125 16 32 32 (2048000)
I0821 08:27:21.588222 32551 net.cpp:165] Memory required for data: 296449500
I0821 08:27:21.588232 32551 layer_factory.hpp:77] Creating layer L1_b3_relu
I0821 08:27:21.588245 32551 net.cpp:100] Creating Layer L1_b3_relu
I0821 08:27:21.588256 32551 net.cpp:434] L1_b3_relu <- L1_b3_sum_eltwise_top
I0821 08:27:21.588270 32551 net.cpp:395] L1_b3_relu -> L1_b3_sum_eltwise_top (in-place)
I0821 08:27:21.588287 32551 net.cpp:150] Setting up L1_b3_relu
I0821 08:27:21.588302 32551 net.cpp:157] Top shape: 125 16 32 32 (2048000)
I0821 08:27:21.588311 32551 net.cpp:165] Memory required for data: 304641500
I0821 08:27:21.588320 32551 layer_factory.hpp:77] Creating layer L1_b3_sum_eltwise_top_L1_b3_relu_0_split
I0821 08:27:21.588340 32551 net.cpp:100] Creating Layer L1_b3_sum_eltwise_top_L1_b3_relu_0_split
I0821 08:27:21.588351 32551 net.cpp:434] L1_b3_sum_eltwise_top_L1_b3_relu_0_split <- L1_b3_sum_eltwise_top
I0821 08:27:21.588366 32551 net.cpp:408] L1_b3_sum_eltwise_top_L1_b3_relu_0_split -> L1_b3_sum_eltwise_top_L1_b3_relu_0_split_0
I0821 08:27:21.588385 32551 net.cpp:408] L1_b3_sum_eltwise_top_L1_b3_relu_0_split -> L1_b3_sum_eltwise_top_L1_b3_relu_0_split_1
I0821 08:27:21.588457 32551 net.cpp:150] Setting up L1_b3_sum_eltwise_top_L1_b3_relu_0_split
I0821 08:27:21.588480 32551 net.cpp:157] Top shape: 125 16 32 32 (2048000)
I0821 08:27:21.588495 32551 net.cpp:157] Top shape: 125 16 32 32 (2048000)
I0821 08:27:21.588503 32551 net.cpp:165] Memory required for data: 321025500
I0821 08:27:21.588512 32551 layer_factory.hpp:77] Creating layer L1_b4_cbr1_conv
I0821 08:27:21.588532 32551 net.cpp:100] Creating Layer L1_b4_cbr1_conv
I0821 08:27:21.588544 32551 net.cpp:434] L1_b4_cbr1_conv <- L1_b3_sum_eltwise_top_L1_b3_relu_0_split_0
I0821 08:27:21.588572 32551 net.cpp:408] L1_b4_cbr1_conv -> L1_b4_cbr1_conv_top
I0821 08:27:21.588949 32551 net.cpp:150] Setting up L1_b4_cbr1_conv
I0821 08:27:21.588970 32551 net.cpp:157] Top shape: 125 16 32 32 (2048000)
I0821 08:27:21.588980 32551 net.cpp:165] Memory required for data: 329217500
I0821 08:27:21.588999 32551 layer_factory.hpp:77] Creating layer L1_b4_cbr1_bn
I0821 08:27:21.589018 32551 net.cpp:100] Creating Layer L1_b4_cbr1_bn
I0821 08:27:21.589030 32551 net.cpp:434] L1_b4_cbr1_bn <- L1_b4_cbr1_conv_top
I0821 08:27:21.589047 32551 net.cpp:408] L1_b4_cbr1_bn -> L1_b4_cbr1_bn_top
I0821 08:27:21.589325 32551 net.cpp:150] Setting up L1_b4_cbr1_bn
I0821 08:27:21.589344 32551 net.cpp:157] Top shape: 125 16 32 32 (2048000)
I0821 08:27:21.589354 32551 net.cpp:165] Memory required for data: 337409500
I0821 08:27:21.589375 32551 layer_factory.hpp:77] Creating layer L1_b4_cbr1_scale
I0821 08:27:21.589396 32551 net.cpp:100] Creating Layer L1_b4_cbr1_scale
I0821 08:27:21.589408 32551 net.cpp:434] L1_b4_cbr1_scale <- L1_b4_cbr1_bn_top
I0821 08:27:21.589424 32551 net.cpp:395] L1_b4_cbr1_scale -> L1_b4_cbr1_bn_top (in-place)
I0821 08:27:21.589509 32551 layer_factory.hpp:77] Creating layer L1_b4_cbr1_scale
I0821 08:27:21.589685 32551 net.cpp:150] Setting up L1_b4_cbr1_scale
I0821 08:27:21.589704 32551 net.cpp:157] Top shape: 125 16 32 32 (2048000)
I0821 08:27:21.589715 32551 net.cpp:165] Memory required for data: 345601500
I0821 08:27:21.589732 32551 layer_factory.hpp:77] Creating layer L1_b4_cbr1_relu
I0821 08:27:21.589748 32551 net.cpp:100] Creating Layer L1_b4_cbr1_relu
I0821 08:27:21.589759 32551 net.cpp:434] L1_b4_cbr1_relu <- L1_b4_cbr1_bn_top
I0821 08:27:21.589777 32551 net.cpp:395] L1_b4_cbr1_relu -> L1_b4_cbr1_bn_top (in-place)
I0821 08:27:21.589797 32551 net.cpp:150] Setting up L1_b4_cbr1_relu
I0821 08:27:21.589812 32551 net.cpp:157] Top shape: 125 16 32 32 (2048000)
I0821 08:27:21.589821 32551 net.cpp:165] Memory required for data: 353793500
I0821 08:27:21.589831 32551 layer_factory.hpp:77] Creating layer L1_b4_cbr2_conv
I0821 08:27:21.589856 32551 net.cpp:100] Creating Layer L1_b4_cbr2_conv
I0821 08:27:21.589869 32551 net.cpp:434] L1_b4_cbr2_conv <- L1_b4_cbr1_bn_top
I0821 08:27:21.589885 32551 net.cpp:408] L1_b4_cbr2_conv -> L1_b4_cbr2_conv_top
I0821 08:27:21.590248 32551 net.cpp:150] Setting up L1_b4_cbr2_conv
I0821 08:27:21.590268 32551 net.cpp:157] Top shape: 125 16 32 32 (2048000)
I0821 08:27:21.590278 32551 net.cpp:165] Memory required for data: 361985500
I0821 08:27:21.590296 32551 layer_factory.hpp:77] Creating layer L1_b4_cbr2_bn
I0821 08:27:21.590317 32551 net.cpp:100] Creating Layer L1_b4_cbr2_bn
I0821 08:27:21.590328 32551 net.cpp:434] L1_b4_cbr2_bn <- L1_b4_cbr2_conv_top
I0821 08:27:21.590345 32551 net.cpp:408] L1_b4_cbr2_bn -> L1_b4_cbr2_bn_top
I0821 08:27:21.590615 32551 net.cpp:150] Setting up L1_b4_cbr2_bn
I0821 08:27:21.590636 32551 net.cpp:157] Top shape: 125 16 32 32 (2048000)
I0821 08:27:21.590646 32551 net.cpp:165] Memory required for data: 370177500
I0821 08:27:21.590667 32551 layer_factory.hpp:77] Creating layer L1_b4_cbr2_scale
I0821 08:27:21.590687 32551 net.cpp:100] Creating Layer L1_b4_cbr2_scale
I0821 08:27:21.590698 32551 net.cpp:434] L1_b4_cbr2_scale <- L1_b4_cbr2_bn_top
I0821 08:27:21.590713 32551 net.cpp:395] L1_b4_cbr2_scale -> L1_b4_cbr2_bn_top (in-place)
I0821 08:27:21.590806 32551 layer_factory.hpp:77] Creating layer L1_b4_cbr2_scale
I0821 08:27:21.590991 32551 net.cpp:150] Setting up L1_b4_cbr2_scale
I0821 08:27:21.591011 32551 net.cpp:157] Top shape: 125 16 32 32 (2048000)
I0821 08:27:21.591019 32551 net.cpp:165] Memory required for data: 378369500
I0821 08:27:21.591037 32551 layer_factory.hpp:77] Creating layer L1_b4_sum_eltwise
I0821 08:27:21.591055 32551 net.cpp:100] Creating Layer L1_b4_sum_eltwise
I0821 08:27:21.591066 32551 net.cpp:434] L1_b4_sum_eltwise <- L1_b4_cbr2_bn_top
I0821 08:27:21.591078 32551 net.cpp:434] L1_b4_sum_eltwise <- L1_b3_sum_eltwise_top_L1_b3_relu_0_split_1
I0821 08:27:21.591099 32551 net.cpp:408] L1_b4_sum_eltwise -> L1_b4_sum_eltwise_top
I0821 08:27:21.591166 32551 net.cpp:150] Setting up L1_b4_sum_eltwise
I0821 08:27:21.591184 32551 net.cpp:157] Top shape: 125 16 32 32 (2048000)
I0821 08:27:21.591194 32551 net.cpp:165] Memory required for data: 386561500
I0821 08:27:21.591205 32551 layer_factory.hpp:77] Creating layer L1_b4_relu
I0821 08:27:21.591219 32551 net.cpp:100] Creating Layer L1_b4_relu
I0821 08:27:21.591230 32551 net.cpp:434] L1_b4_relu <- L1_b4_sum_eltwise_top
I0821 08:27:21.591248 32551 net.cpp:395] L1_b4_relu -> L1_b4_sum_eltwise_top (in-place)
I0821 08:27:21.591267 32551 net.cpp:150] Setting up L1_b4_relu
I0821 08:27:21.591282 32551 net.cpp:157] Top shape: 125 16 32 32 (2048000)
I0821 08:27:21.591291 32551 net.cpp:165] Memory required for data: 394753500
I0821 08:27:21.591301 32551 layer_factory.hpp:77] Creating layer L1_b4_sum_eltwise_top_L1_b4_relu_0_split
I0821 08:27:21.591315 32551 net.cpp:100] Creating Layer L1_b4_sum_eltwise_top_L1_b4_relu_0_split
I0821 08:27:21.591326 32551 net.cpp:434] L1_b4_sum_eltwise_top_L1_b4_relu_0_split <- L1_b4_sum_eltwise_top
I0821 08:27:21.591341 32551 net.cpp:408] L1_b4_sum_eltwise_top_L1_b4_relu_0_split -> L1_b4_sum_eltwise_top_L1_b4_relu_0_split_0
I0821 08:27:21.591359 32551 net.cpp:408] L1_b4_sum_eltwise_top_L1_b4_relu_0_split -> L1_b4_sum_eltwise_top_L1_b4_relu_0_split_1
I0821 08:27:21.591439 32551 net.cpp:150] Setting up L1_b4_sum_eltwise_top_L1_b4_relu_0_split
I0821 08:27:21.591459 32551 net.cpp:157] Top shape: 125 16 32 32 (2048000)
I0821 08:27:21.591472 32551 net.cpp:157] Top shape: 125 16 32 32 (2048000)
I0821 08:27:21.591482 32551 net.cpp:165] Memory required for data: 411137500
I0821 08:27:21.591492 32551 layer_factory.hpp:77] Creating layer L1_b5_cbr1_conv
I0821 08:27:21.591512 32551 net.cpp:100] Creating Layer L1_b5_cbr1_conv
I0821 08:27:21.591524 32551 net.cpp:434] L1_b5_cbr1_conv <- L1_b4_sum_eltwise_top_L1_b4_relu_0_split_0
I0821 08:27:21.591547 32551 net.cpp:408] L1_b5_cbr1_conv -> L1_b5_cbr1_conv_top
I0821 08:27:21.591908 32551 net.cpp:150] Setting up L1_b5_cbr1_conv
I0821 08:27:21.591928 32551 net.cpp:157] Top shape: 125 16 32 32 (2048000)
I0821 08:27:21.591938 32551 net.cpp:165] Memory required for data: 419329500
I0821 08:27:21.591982 32551 layer_factory.hpp:77] Creating layer L1_b5_cbr1_bn
I0821 08:27:21.592002 32551 net.cpp:100] Creating Layer L1_b5_cbr1_bn
I0821 08:27:21.592015 32551 net.cpp:434] L1_b5_cbr1_bn <- L1_b5_cbr1_conv_top
I0821 08:27:21.592036 32551 net.cpp:408] L1_b5_cbr1_bn -> L1_b5_cbr1_bn_top
I0821 08:27:21.592315 32551 net.cpp:150] Setting up L1_b5_cbr1_bn
I0821 08:27:21.592335 32551 net.cpp:157] Top shape: 125 16 32 32 (2048000)
I0821 08:27:21.592345 32551 net.cpp:165] Memory required for data: 427521500
I0821 08:27:21.592366 32551 layer_factory.hpp:77] Creating layer L1_b5_cbr1_scale
I0821 08:27:21.592387 32551 net.cpp:100] Creating Layer L1_b5_cbr1_scale
I0821 08:27:21.592398 32551 net.cpp:434] L1_b5_cbr1_scale <- L1_b5_cbr1_bn_top
I0821 08:27:21.592414 32551 net.cpp:395] L1_b5_cbr1_scale -> L1_b5_cbr1_bn_top (in-place)
I0821 08:27:21.592499 32551 layer_factory.hpp:77] Creating layer L1_b5_cbr1_scale
I0821 08:27:21.592675 32551 net.cpp:150] Setting up L1_b5_cbr1_scale
I0821 08:27:21.592694 32551 net.cpp:157] Top shape: 125 16 32 32 (2048000)
I0821 08:27:21.592705 32551 net.cpp:165] Memory required for data: 435713500
I0821 08:27:21.592721 32551 layer_factory.hpp:77] Creating layer L1_b5_cbr1_relu
I0821 08:27:21.592737 32551 net.cpp:100] Creating Layer L1_b5_cbr1_relu
I0821 08:27:21.592749 32551 net.cpp:434] L1_b5_cbr1_relu <- L1_b5_cbr1_bn_top
I0821 08:27:21.592768 32551 net.cpp:395] L1_b5_cbr1_relu -> L1_b5_cbr1_bn_top (in-place)
I0821 08:27:21.592788 32551 net.cpp:150] Setting up L1_b5_cbr1_relu
I0821 08:27:21.592803 32551 net.cpp:157] Top shape: 125 16 32 32 (2048000)
I0821 08:27:21.592811 32551 net.cpp:165] Memory required for data: 443905500
I0821 08:27:21.592821 32551 layer_factory.hpp:77] Creating layer L1_b5_cbr2_conv
I0821 08:27:21.592849 32551 net.cpp:100] Creating Layer L1_b5_cbr2_conv
I0821 08:27:21.592871 32551 net.cpp:434] L1_b5_cbr2_conv <- L1_b5_cbr1_bn_top
I0821 08:27:21.592890 32551 net.cpp:408] L1_b5_cbr2_conv -> L1_b5_cbr2_conv_top
I0821 08:27:21.593258 32551 net.cpp:150] Setting up L1_b5_cbr2_conv
I0821 08:27:21.593281 32551 net.cpp:157] Top shape: 125 16 32 32 (2048000)
I0821 08:27:21.593291 32551 net.cpp:165] Memory required for data: 452097500
I0821 08:27:21.593308 32551 layer_factory.hpp:77] Creating layer L1_b5_cbr2_bn
I0821 08:27:21.593330 32551 net.cpp:100] Creating Layer L1_b5_cbr2_bn
I0821 08:27:21.593343 32551 net.cpp:434] L1_b5_cbr2_bn <- L1_b5_cbr2_conv_top
I0821 08:27:21.593358 32551 net.cpp:408] L1_b5_cbr2_bn -> L1_b5_cbr2_bn_top
I0821 08:27:21.593631 32551 net.cpp:150] Setting up L1_b5_cbr2_bn
I0821 08:27:21.593649 32551 net.cpp:157] Top shape: 125 16 32 32 (2048000)
I0821 08:27:21.593659 32551 net.cpp:165] Memory required for data: 460289500
I0821 08:27:21.593680 32551 layer_factory.hpp:77] Creating layer L1_b5_cbr2_scale
I0821 08:27:21.593698 32551 net.cpp:100] Creating Layer L1_b5_cbr2_scale
I0821 08:27:21.593708 32551 net.cpp:434] L1_b5_cbr2_scale <- L1_b5_cbr2_bn_top
I0821 08:27:21.593729 32551 net.cpp:395] L1_b5_cbr2_scale -> L1_b5_cbr2_bn_top (in-place)
I0821 08:27:21.593818 32551 layer_factory.hpp:77] Creating layer L1_b5_cbr2_scale
I0821 08:27:21.594003 32551 net.cpp:150] Setting up L1_b5_cbr2_scale
I0821 08:27:21.594023 32551 net.cpp:157] Top shape: 125 16 32 32 (2048000)
I0821 08:27:21.594033 32551 net.cpp:165] Memory required for data: 468481500
I0821 08:27:21.594050 32551 layer_factory.hpp:77] Creating layer L1_b5_sum_eltwise
I0821 08:27:21.594068 32551 net.cpp:100] Creating Layer L1_b5_sum_eltwise
I0821 08:27:21.594079 32551 net.cpp:434] L1_b5_sum_eltwise <- L1_b5_cbr2_bn_top
I0821 08:27:21.594091 32551 net.cpp:434] L1_b5_sum_eltwise <- L1_b4_sum_eltwise_top_L1_b4_relu_0_split_1
I0821 08:27:21.594111 32551 net.cpp:408] L1_b5_sum_eltwise -> L1_b5_sum_eltwise_top
I0821 08:27:21.594163 32551 net.cpp:150] Setting up L1_b5_sum_eltwise
I0821 08:27:21.594187 32551 net.cpp:157] Top shape: 125 16 32 32 (2048000)
I0821 08:27:21.594198 32551 net.cpp:165] Memory required for data: 476673500
I0821 08:27:21.594208 32551 layer_factory.hpp:77] Creating layer L1_b5_relu
I0821 08:27:21.594223 32551 net.cpp:100] Creating Layer L1_b5_relu
I0821 08:27:21.594234 32551 net.cpp:434] L1_b5_relu <- L1_b5_sum_eltwise_top
I0821 08:27:21.594249 32551 net.cpp:395] L1_b5_relu -> L1_b5_sum_eltwise_top (in-place)
I0821 08:27:21.594267 32551 net.cpp:150] Setting up L1_b5_relu
I0821 08:27:21.594281 32551 net.cpp:157] Top shape: 125 16 32 32 (2048000)
I0821 08:27:21.594290 32551 net.cpp:165] Memory required for data: 484865500
I0821 08:27:21.594300 32551 layer_factory.hpp:77] Creating layer L1_b5_sum_eltwise_top_L1_b5_relu_0_split
I0821 08:27:21.594319 32551 net.cpp:100] Creating Layer L1_b5_sum_eltwise_top_L1_b5_relu_0_split
I0821 08:27:21.594331 32551 net.cpp:434] L1_b5_sum_eltwise_top_L1_b5_relu_0_split <- L1_b5_sum_eltwise_top
I0821 08:27:21.594347 32551 net.cpp:408] L1_b5_sum_eltwise_top_L1_b5_relu_0_split -> L1_b5_sum_eltwise_top_L1_b5_relu_0_split_0
I0821 08:27:21.594367 32551 net.cpp:408] L1_b5_sum_eltwise_top_L1_b5_relu_0_split -> L1_b5_sum_eltwise_top_L1_b5_relu_0_split_1
I0821 08:27:21.594441 32551 net.cpp:150] Setting up L1_b5_sum_eltwise_top_L1_b5_relu_0_split
I0821 08:27:21.594463 32551 net.cpp:157] Top shape: 125 16 32 32 (2048000)
I0821 08:27:21.594478 32551 net.cpp:157] Top shape: 125 16 32 32 (2048000)
I0821 08:27:21.594488 32551 net.cpp:165] Memory required for data: 501249500
I0821 08:27:21.594498 32551 layer_factory.hpp:77] Creating layer L1_b6_cbr1_conv
I0821 08:27:21.594518 32551 net.cpp:100] Creating Layer L1_b6_cbr1_conv
I0821 08:27:21.594532 32551 net.cpp:434] L1_b6_cbr1_conv <- L1_b5_sum_eltwise_top_L1_b5_relu_0_split_0
I0821 08:27:21.594548 32551 net.cpp:408] L1_b6_cbr1_conv -> L1_b6_cbr1_conv_top
I0821 08:27:21.594907 32551 net.cpp:150] Setting up L1_b6_cbr1_conv
I0821 08:27:21.594926 32551 net.cpp:157] Top shape: 125 16 32 32 (2048000)
I0821 08:27:21.594936 32551 net.cpp:165] Memory required for data: 509441500
I0821 08:27:21.594971 32551 layer_factory.hpp:77] Creating layer L1_b6_cbr1_bn
I0821 08:27:21.594993 32551 net.cpp:100] Creating Layer L1_b6_cbr1_bn
I0821 08:27:21.595006 32551 net.cpp:434] L1_b6_cbr1_bn <- L1_b6_cbr1_conv_top
I0821 08:27:21.595022 32551 net.cpp:408] L1_b6_cbr1_bn -> L1_b6_cbr1_bn_top
I0821 08:27:21.595306 32551 net.cpp:150] Setting up L1_b6_cbr1_bn
I0821 08:27:21.595326 32551 net.cpp:157] Top shape: 125 16 32 32 (2048000)
I0821 08:27:21.595336 32551 net.cpp:165] Memory required for data: 517633500
I0821 08:27:21.595357 32551 layer_factory.hpp:77] Creating layer L1_b6_cbr1_scale
I0821 08:27:21.595374 32551 net.cpp:100] Creating Layer L1_b6_cbr1_scale
I0821 08:27:21.595386 32551 net.cpp:434] L1_b6_cbr1_scale <- L1_b6_cbr1_bn_top
I0821 08:27:21.595407 32551 net.cpp:395] L1_b6_cbr1_scale -> L1_b6_cbr1_bn_top (in-place)
I0821 08:27:21.595490 32551 layer_factory.hpp:77] Creating layer L1_b6_cbr1_scale
I0821 08:27:21.595667 32551 net.cpp:150] Setting up L1_b6_cbr1_scale
I0821 08:27:21.595687 32551 net.cpp:157] Top shape: 125 16 32 32 (2048000)
I0821 08:27:21.595696 32551 net.cpp:165] Memory required for data: 525825500
I0821 08:27:21.595715 32551 layer_factory.hpp:77] Creating layer L1_b6_cbr1_relu
I0821 08:27:21.595729 32551 net.cpp:100] Creating Layer L1_b6_cbr1_relu
I0821 08:27:21.595741 32551 net.cpp:434] L1_b6_cbr1_relu <- L1_b6_cbr1_bn_top
I0821 08:27:21.595760 32551 net.cpp:395] L1_b6_cbr1_relu -> L1_b6_cbr1_bn_top (in-place)
I0821 08:27:21.595780 32551 net.cpp:150] Setting up L1_b6_cbr1_relu
I0821 08:27:21.595794 32551 net.cpp:157] Top shape: 125 16 32 32 (2048000)
I0821 08:27:21.595803 32551 net.cpp:165] Memory required for data: 534017500
I0821 08:27:21.595813 32551 layer_factory.hpp:77] Creating layer L1_b6_cbr2_conv
I0821 08:27:21.595839 32551 net.cpp:100] Creating Layer L1_b6_cbr2_conv
I0821 08:27:21.595851 32551 net.cpp:434] L1_b6_cbr2_conv <- L1_b6_cbr1_bn_top
I0821 08:27:21.595868 32551 net.cpp:408] L1_b6_cbr2_conv -> L1_b6_cbr2_conv_top
I0821 08:27:21.596246 32551 net.cpp:150] Setting up L1_b6_cbr2_conv
I0821 08:27:21.596266 32551 net.cpp:157] Top shape: 125 16 32 32 (2048000)
I0821 08:27:21.596276 32551 net.cpp:165] Memory required for data: 542209500
I0821 08:27:21.596292 32551 layer_factory.hpp:77] Creating layer L1_b6_cbr2_bn
I0821 08:27:21.596309 32551 net.cpp:100] Creating Layer L1_b6_cbr2_bn
I0821 08:27:21.596325 32551 net.cpp:434] L1_b6_cbr2_bn <- L1_b6_cbr2_conv_top
I0821 08:27:21.596343 32551 net.cpp:408] L1_b6_cbr2_bn -> L1_b6_cbr2_bn_top
I0821 08:27:21.596616 32551 net.cpp:150] Setting up L1_b6_cbr2_bn
I0821 08:27:21.596634 32551 net.cpp:157] Top shape: 125 16 32 32 (2048000)
I0821 08:27:21.596643 32551 net.cpp:165] Memory required for data: 550401500
I0821 08:27:21.596664 32551 layer_factory.hpp:77] Creating layer L1_b6_cbr2_scale
I0821 08:27:21.596680 32551 net.cpp:100] Creating Layer L1_b6_cbr2_scale
I0821 08:27:21.596693 32551 net.cpp:434] L1_b6_cbr2_scale <- L1_b6_cbr2_bn_top
I0821 08:27:21.596712 32551 net.cpp:395] L1_b6_cbr2_scale -> L1_b6_cbr2_bn_top (in-place)
I0821 08:27:21.596801 32551 layer_factory.hpp:77] Creating layer L1_b6_cbr2_scale
I0821 08:27:21.596992 32551 net.cpp:150] Setting up L1_b6_cbr2_scale
I0821 08:27:21.597015 32551 net.cpp:157] Top shape: 125 16 32 32 (2048000)
I0821 08:27:21.597025 32551 net.cpp:165] Memory required for data: 558593500
I0821 08:27:21.597043 32551 layer_factory.hpp:77] Creating layer L1_b6_sum_eltwise
I0821 08:27:21.597071 32551 net.cpp:100] Creating Layer L1_b6_sum_eltwise
I0821 08:27:21.597084 32551 net.cpp:434] L1_b6_sum_eltwise <- L1_b6_cbr2_bn_top
I0821 08:27:21.597098 32551 net.cpp:434] L1_b6_sum_eltwise <- L1_b5_sum_eltwise_top_L1_b5_relu_0_split_1
I0821 08:27:21.597115 32551 net.cpp:408] L1_b6_sum_eltwise -> L1_b6_sum_eltwise_top
I0821 08:27:21.597173 32551 net.cpp:150] Setting up L1_b6_sum_eltwise
I0821 08:27:21.597192 32551 net.cpp:157] Top shape: 125 16 32 32 (2048000)
I0821 08:27:21.597201 32551 net.cpp:165] Memory required for data: 566785500
I0821 08:27:21.597213 32551 layer_factory.hpp:77] Creating layer L1_b6_relu
I0821 08:27:21.597239 32551 net.cpp:100] Creating Layer L1_b6_relu
I0821 08:27:21.597250 32551 net.cpp:434] L1_b6_relu <- L1_b6_sum_eltwise_top
I0821 08:27:21.597270 32551 net.cpp:395] L1_b6_relu -> L1_b6_sum_eltwise_top (in-place)
I0821 08:27:21.597290 32551 net.cpp:150] Setting up L1_b6_relu
I0821 08:27:21.597306 32551 net.cpp:157] Top shape: 125 16 32 32 (2048000)
I0821 08:27:21.597313 32551 net.cpp:165] Memory required for data: 574977500
I0821 08:27:21.597323 32551 layer_factory.hpp:77] Creating layer L1_b6_sum_eltwise_top_L1_b6_relu_0_split
I0821 08:27:21.597337 32551 net.cpp:100] Creating Layer L1_b6_sum_eltwise_top_L1_b6_relu_0_split
I0821 08:27:21.597348 32551 net.cpp:434] L1_b6_sum_eltwise_top_L1_b6_relu_0_split <- L1_b6_sum_eltwise_top
I0821 08:27:21.597363 32551 net.cpp:408] L1_b6_sum_eltwise_top_L1_b6_relu_0_split -> L1_b6_sum_eltwise_top_L1_b6_relu_0_split_0
I0821 08:27:21.597383 32551 net.cpp:408] L1_b6_sum_eltwise_top_L1_b6_relu_0_split -> L1_b6_sum_eltwise_top_L1_b6_relu_0_split_1
I0821 08:27:21.597460 32551 net.cpp:150] Setting up L1_b6_sum_eltwise_top_L1_b6_relu_0_split
I0821 08:27:21.597477 32551 net.cpp:157] Top shape: 125 16 32 32 (2048000)
I0821 08:27:21.597491 32551 net.cpp:157] Top shape: 125 16 32 32 (2048000)
I0821 08:27:21.597501 32551 net.cpp:165] Memory required for data: 591361500
I0821 08:27:21.597510 32551 layer_factory.hpp:77] Creating layer L1_b7_cbr1_conv
I0821 08:27:21.597532 32551 net.cpp:100] Creating Layer L1_b7_cbr1_conv
I0821 08:27:21.597543 32551 net.cpp:434] L1_b7_cbr1_conv <- L1_b6_sum_eltwise_top_L1_b6_relu_0_split_0
I0821 08:27:21.597565 32551 net.cpp:408] L1_b7_cbr1_conv -> L1_b7_cbr1_conv_top
I0821 08:27:21.597932 32551 net.cpp:150] Setting up L1_b7_cbr1_conv
I0821 08:27:21.597959 32551 net.cpp:157] Top shape: 125 16 32 32 (2048000)
I0821 08:27:21.597968 32551 net.cpp:165] Memory required for data: 599553500
I0821 08:27:21.597987 32551 layer_factory.hpp:77] Creating layer L1_b7_cbr1_bn
I0821 08:27:21.598004 32551 net.cpp:100] Creating Layer L1_b7_cbr1_bn
I0821 08:27:21.598016 32551 net.cpp:434] L1_b7_cbr1_bn <- L1_b7_cbr1_conv_top
I0821 08:27:21.598037 32551 net.cpp:408] L1_b7_cbr1_bn -> L1_b7_cbr1_bn_top
I0821 08:27:21.598311 32551 net.cpp:150] Setting up L1_b7_cbr1_bn
I0821 08:27:21.598330 32551 net.cpp:157] Top shape: 125 16 32 32 (2048000)
I0821 08:27:21.598340 32551 net.cpp:165] Memory required for data: 607745500
I0821 08:27:21.598362 32551 layer_factory.hpp:77] Creating layer L1_b7_cbr1_scale
I0821 08:27:21.598382 32551 net.cpp:100] Creating Layer L1_b7_cbr1_scale
I0821 08:27:21.598394 32551 net.cpp:434] L1_b7_cbr1_scale <- L1_b7_cbr1_bn_top
I0821 08:27:21.598409 32551 net.cpp:395] L1_b7_cbr1_scale -> L1_b7_cbr1_bn_top (in-place)
I0821 08:27:21.598495 32551 layer_factory.hpp:77] Creating layer L1_b7_cbr1_scale
I0821 08:27:21.598671 32551 net.cpp:150] Setting up L1_b7_cbr1_scale
I0821 08:27:21.598690 32551 net.cpp:157] Top shape: 125 16 32 32 (2048000)
I0821 08:27:21.598701 32551 net.cpp:165] Memory required for data: 615937500
I0821 08:27:21.598718 32551 layer_factory.hpp:77] Creating layer L1_b7_cbr1_relu
I0821 08:27:21.598738 32551 net.cpp:100] Creating Layer L1_b7_cbr1_relu
I0821 08:27:21.598750 32551 net.cpp:434] L1_b7_cbr1_relu <- L1_b7_cbr1_bn_top
I0821 08:27:21.598765 32551 net.cpp:395] L1_b7_cbr1_relu -> L1_b7_cbr1_bn_top (in-place)
I0821 08:27:21.598784 32551 net.cpp:150] Setting up L1_b7_cbr1_relu
I0821 08:27:21.598798 32551 net.cpp:157] Top shape: 125 16 32 32 (2048000)
I0821 08:27:21.598809 32551 net.cpp:165] Memory required for data: 624129500
I0821 08:27:21.598819 32551 layer_factory.hpp:77] Creating layer L1_b7_cbr2_conv
I0821 08:27:21.598845 32551 net.cpp:100] Creating Layer L1_b7_cbr2_conv
I0821 08:27:21.598858 32551 net.cpp:434] L1_b7_cbr2_conv <- L1_b7_cbr1_bn_top
I0821 08:27:21.598881 32551 net.cpp:408] L1_b7_cbr2_conv -> L1_b7_cbr2_conv_top
I0821 08:27:21.599256 32551 net.cpp:150] Setting up L1_b7_cbr2_conv
I0821 08:27:21.599277 32551 net.cpp:157] Top shape: 125 16 32 32 (2048000)
I0821 08:27:21.599285 32551 net.cpp:165] Memory required for data: 632321500
I0821 08:27:21.599314 32551 layer_factory.hpp:77] Creating layer L1_b7_cbr2_bn
I0821 08:27:21.599333 32551 net.cpp:100] Creating Layer L1_b7_cbr2_bn
I0821 08:27:21.599345 32551 net.cpp:434] L1_b7_cbr2_bn <- L1_b7_cbr2_conv_top
I0821 08:27:21.599366 32551 net.cpp:408] L1_b7_cbr2_bn -> L1_b7_cbr2_bn_top
I0821 08:27:21.599650 32551 net.cpp:150] Setting up L1_b7_cbr2_bn
I0821 08:27:21.599669 32551 net.cpp:157] Top shape: 125 16 32 32 (2048000)
I0821 08:27:21.599679 32551 net.cpp:165] Memory required for data: 640513500
I0821 08:27:21.599701 32551 layer_factory.hpp:77] Creating layer L1_b7_cbr2_scale
I0821 08:27:21.599722 32551 net.cpp:100] Creating Layer L1_b7_cbr2_scale
I0821 08:27:21.599735 32551 net.cpp:434] L1_b7_cbr2_scale <- L1_b7_cbr2_bn_top
I0821 08:27:21.599750 32551 net.cpp:395] L1_b7_cbr2_scale -> L1_b7_cbr2_bn_top (in-place)
I0821 08:27:21.599839 32551 layer_factory.hpp:77] Creating layer L1_b7_cbr2_scale
I0821 08:27:21.600023 32551 net.cpp:150] Setting up L1_b7_cbr2_scale
I0821 08:27:21.600044 32551 net.cpp:157] Top shape: 125 16 32 32 (2048000)
I0821 08:27:21.600052 32551 net.cpp:165] Memory required for data: 648705500
I0821 08:27:21.600071 32551 layer_factory.hpp:77] Creating layer L1_b7_sum_eltwise
I0821 08:27:21.600088 32551 net.cpp:100] Creating Layer L1_b7_sum_eltwise
I0821 08:27:21.600100 32551 net.cpp:434] L1_b7_sum_eltwise <- L1_b7_cbr2_bn_top
I0821 08:27:21.600116 32551 net.cpp:434] L1_b7_sum_eltwise <- L1_b6_sum_eltwise_top_L1_b6_relu_0_split_1
I0821 08:27:21.600134 32551 net.cpp:408] L1_b7_sum_eltwise -> L1_b7_sum_eltwise_top
I0821 08:27:21.600191 32551 net.cpp:150] Setting up L1_b7_sum_eltwise
I0821 08:27:21.600210 32551 net.cpp:157] Top shape: 125 16 32 32 (2048000)
I0821 08:27:21.600220 32551 net.cpp:165] Memory required for data: 656897500
I0821 08:27:21.600229 32551 layer_factory.hpp:77] Creating layer L1_b7_relu
I0821 08:27:21.600244 32551 net.cpp:100] Creating Layer L1_b7_relu
I0821 08:27:21.600255 32551 net.cpp:434] L1_b7_relu <- L1_b7_sum_eltwise_top
I0821 08:27:21.600275 32551 net.cpp:395] L1_b7_relu -> L1_b7_sum_eltwise_top (in-place)
I0821 08:27:21.600293 32551 net.cpp:150] Setting up L1_b7_relu
I0821 08:27:21.600308 32551 net.cpp:157] Top shape: 125 16 32 32 (2048000)
I0821 08:27:21.600317 32551 net.cpp:165] Memory required for data: 665089500
I0821 08:27:21.600327 32551 layer_factory.hpp:77] Creating layer L1_b7_sum_eltwise_top_L1_b7_relu_0_split
I0821 08:27:21.600342 32551 net.cpp:100] Creating Layer L1_b7_sum_eltwise_top_L1_b7_relu_0_split
I0821 08:27:21.600353 32551 net.cpp:434] L1_b7_sum_eltwise_top_L1_b7_relu_0_split <- L1_b7_sum_eltwise_top
I0821 08:27:21.600366 32551 net.cpp:408] L1_b7_sum_eltwise_top_L1_b7_relu_0_split -> L1_b7_sum_eltwise_top_L1_b7_relu_0_split_0
I0821 08:27:21.600385 32551 net.cpp:408] L1_b7_sum_eltwise_top_L1_b7_relu_0_split -> L1_b7_sum_eltwise_top_L1_b7_relu_0_split_1
I0821 08:27:21.600461 32551 net.cpp:150] Setting up L1_b7_sum_eltwise_top_L1_b7_relu_0_split
I0821 08:27:21.600478 32551 net.cpp:157] Top shape: 125 16 32 32 (2048000)
I0821 08:27:21.600492 32551 net.cpp:157] Top shape: 125 16 32 32 (2048000)
I0821 08:27:21.600500 32551 net.cpp:165] Memory required for data: 681473500
I0821 08:27:21.600510 32551 layer_factory.hpp:77] Creating layer L1_b8_cbr1_conv
I0821 08:27:21.600531 32551 net.cpp:100] Creating Layer L1_b8_cbr1_conv
I0821 08:27:21.600544 32551 net.cpp:434] L1_b8_cbr1_conv <- L1_b7_sum_eltwise_top_L1_b7_relu_0_split_0
I0821 08:27:21.600566 32551 net.cpp:408] L1_b8_cbr1_conv -> L1_b8_cbr1_conv_top
I0821 08:27:21.600934 32551 net.cpp:150] Setting up L1_b8_cbr1_conv
I0821 08:27:21.600960 32551 net.cpp:157] Top shape: 125 16 32 32 (2048000)
I0821 08:27:21.600970 32551 net.cpp:165] Memory required for data: 689665500
I0821 08:27:21.600988 32551 layer_factory.hpp:77] Creating layer L1_b8_cbr1_bn
I0821 08:27:21.601006 32551 net.cpp:100] Creating Layer L1_b8_cbr1_bn
I0821 08:27:21.601016 32551 net.cpp:434] L1_b8_cbr1_bn <- L1_b8_cbr1_conv_top
I0821 08:27:21.601039 32551 net.cpp:408] L1_b8_cbr1_bn -> L1_b8_cbr1_bn_top
I0821 08:27:21.601359 32551 net.cpp:150] Setting up L1_b8_cbr1_bn
I0821 08:27:21.601379 32551 net.cpp:157] Top shape: 125 16 32 32 (2048000)
I0821 08:27:21.601389 32551 net.cpp:165] Memory required for data: 697857500
I0821 08:27:21.601411 32551 layer_factory.hpp:77] Creating layer L1_b8_cbr1_scale
I0821 08:27:21.601433 32551 net.cpp:100] Creating Layer L1_b8_cbr1_scale
I0821 08:27:21.601446 32551 net.cpp:434] L1_b8_cbr1_scale <- L1_b8_cbr1_bn_top
I0821 08:27:21.601461 32551 net.cpp:395] L1_b8_cbr1_scale -> L1_b8_cbr1_bn_top (in-place)
I0821 08:27:21.601544 32551 layer_factory.hpp:77] Creating layer L1_b8_cbr1_scale
I0821 08:27:21.601725 32551 net.cpp:150] Setting up L1_b8_cbr1_scale
I0821 08:27:21.601744 32551 net.cpp:157] Top shape: 125 16 32 32 (2048000)
I0821 08:27:21.601754 32551 net.cpp:165] Memory required for data: 706049500
I0821 08:27:21.601773 32551 layer_factory.hpp:77] Creating layer L1_b8_cbr1_relu
I0821 08:27:21.601791 32551 net.cpp:100] Creating Layer L1_b8_cbr1_relu
I0821 08:27:21.601804 32551 net.cpp:434] L1_b8_cbr1_relu <- L1_b8_cbr1_bn_top
I0821 08:27:21.601819 32551 net.cpp:395] L1_b8_cbr1_relu -> L1_b8_cbr1_bn_top (in-place)
I0821 08:27:21.601837 32551 net.cpp:150] Setting up L1_b8_cbr1_relu
I0821 08:27:21.601851 32551 net.cpp:157] Top shape: 125 16 32 32 (2048000)
I0821 08:27:21.601861 32551 net.cpp:165] Memory required for data: 714241500
I0821 08:27:21.601871 32551 layer_factory.hpp:77] Creating layer L1_b8_cbr2_conv
I0821 08:27:21.601897 32551 net.cpp:100] Creating Layer L1_b8_cbr2_conv
I0821 08:27:21.601908 32551 net.cpp:434] L1_b8_cbr2_conv <- L1_b8_cbr1_bn_top
I0821 08:27:21.601929 32551 net.cpp:408] L1_b8_cbr2_conv -> L1_b8_cbr2_conv_top
I0821 08:27:21.602296 32551 net.cpp:150] Setting up L1_b8_cbr2_conv
I0821 08:27:21.602316 32551 net.cpp:157] Top shape: 125 16 32 32 (2048000)
I0821 08:27:21.602326 32551 net.cpp:165] Memory required for data: 722433500
I0821 08:27:21.602344 32551 layer_factory.hpp:77] Creating layer L1_b8_cbr2_bn
I0821 08:27:21.602361 32551 net.cpp:100] Creating Layer L1_b8_cbr2_bn
I0821 08:27:21.602372 32551 net.cpp:434] L1_b8_cbr2_bn <- L1_b8_cbr2_conv_top
I0821 08:27:21.602388 32551 net.cpp:408] L1_b8_cbr2_bn -> L1_b8_cbr2_bn_top
I0821 08:27:21.602670 32551 net.cpp:150] Setting up L1_b8_cbr2_bn
I0821 08:27:21.602689 32551 net.cpp:157] Top shape: 125 16 32 32 (2048000)
I0821 08:27:21.602699 32551 net.cpp:165] Memory required for data: 730625500
I0821 08:27:21.602720 32551 layer_factory.hpp:77] Creating layer L1_b8_cbr2_scale
I0821 08:27:21.602742 32551 net.cpp:100] Creating Layer L1_b8_cbr2_scale
I0821 08:27:21.602754 32551 net.cpp:434] L1_b8_cbr2_scale <- L1_b8_cbr2_bn_top
I0821 08:27:21.602771 32551 net.cpp:395] L1_b8_cbr2_scale -> L1_b8_cbr2_bn_top (in-place)
I0821 08:27:21.602861 32551 layer_factory.hpp:77] Creating layer L1_b8_cbr2_scale
I0821 08:27:21.603047 32551 net.cpp:150] Setting up L1_b8_cbr2_scale
I0821 08:27:21.603067 32551 net.cpp:157] Top shape: 125 16 32 32 (2048000)
I0821 08:27:21.603076 32551 net.cpp:165] Memory required for data: 738817500
I0821 08:27:21.603094 32551 layer_factory.hpp:77] Creating layer L1_b8_sum_eltwise
I0821 08:27:21.603111 32551 net.cpp:100] Creating Layer L1_b8_sum_eltwise
I0821 08:27:21.603122 32551 net.cpp:434] L1_b8_sum_eltwise <- L1_b8_cbr2_bn_top
I0821 08:27:21.603137 32551 net.cpp:434] L1_b8_sum_eltwise <- L1_b7_sum_eltwise_top_L1_b7_relu_0_split_1
I0821 08:27:21.603157 32551 net.cpp:408] L1_b8_sum_eltwise -> L1_b8_sum_eltwise_top
I0821 08:27:21.603215 32551 net.cpp:150] Setting up L1_b8_sum_eltwise
I0821 08:27:21.603233 32551 net.cpp:157] Top shape: 125 16 32 32 (2048000)
I0821 08:27:21.603243 32551 net.cpp:165] Memory required for data: 747009500
I0821 08:27:21.603252 32551 layer_factory.hpp:77] Creating layer L1_b8_relu
I0821 08:27:21.603267 32551 net.cpp:100] Creating Layer L1_b8_relu
I0821 08:27:21.603278 32551 net.cpp:434] L1_b8_relu <- L1_b8_sum_eltwise_top
I0821 08:27:21.603298 32551 net.cpp:395] L1_b8_relu -> L1_b8_sum_eltwise_top (in-place)
I0821 08:27:21.603317 32551 net.cpp:150] Setting up L1_b8_relu
I0821 08:27:21.603341 32551 net.cpp:157] Top shape: 125 16 32 32 (2048000)
I0821 08:27:21.603351 32551 net.cpp:165] Memory required for data: 755201500
I0821 08:27:21.603361 32551 layer_factory.hpp:77] Creating layer L1_b8_sum_eltwise_top_L1_b8_relu_0_split
I0821 08:27:21.603376 32551 net.cpp:100] Creating Layer L1_b8_sum_eltwise_top_L1_b8_relu_0_split
I0821 08:27:21.603386 32551 net.cpp:434] L1_b8_sum_eltwise_top_L1_b8_relu_0_split <- L1_b8_sum_eltwise_top
I0821 08:27:21.603402 32551 net.cpp:408] L1_b8_sum_eltwise_top_L1_b8_relu_0_split -> L1_b8_sum_eltwise_top_L1_b8_relu_0_split_0
I0821 08:27:21.603420 32551 net.cpp:408] L1_b8_sum_eltwise_top_L1_b8_relu_0_split -> L1_b8_sum_eltwise_top_L1_b8_relu_0_split_1
I0821 08:27:21.603502 32551 net.cpp:150] Setting up L1_b8_sum_eltwise_top_L1_b8_relu_0_split
I0821 08:27:21.603521 32551 net.cpp:157] Top shape: 125 16 32 32 (2048000)
I0821 08:27:21.603534 32551 net.cpp:157] Top shape: 125 16 32 32 (2048000)
I0821 08:27:21.603543 32551 net.cpp:165] Memory required for data: 771585500
I0821 08:27:21.603554 32551 layer_factory.hpp:77] Creating layer L1_b9_cbr1_conv
I0821 08:27:21.603574 32551 net.cpp:100] Creating Layer L1_b9_cbr1_conv
I0821 08:27:21.603586 32551 net.cpp:434] L1_b9_cbr1_conv <- L1_b8_sum_eltwise_top_L1_b8_relu_0_split_0
I0821 08:27:21.603610 32551 net.cpp:408] L1_b9_cbr1_conv -> L1_b9_cbr1_conv_top
I0821 08:27:21.603992 32551 net.cpp:150] Setting up L1_b9_cbr1_conv
I0821 08:27:21.604013 32551 net.cpp:157] Top shape: 125 16 32 32 (2048000)
I0821 08:27:21.604022 32551 net.cpp:165] Memory required for data: 779777500
I0821 08:27:21.604040 32551 layer_factory.hpp:77] Creating layer L1_b9_cbr1_bn
I0821 08:27:21.604065 32551 net.cpp:100] Creating Layer L1_b9_cbr1_bn
I0821 08:27:21.604079 32551 net.cpp:434] L1_b9_cbr1_bn <- L1_b9_cbr1_conv_top
I0821 08:27:21.604100 32551 net.cpp:408] L1_b9_cbr1_bn -> L1_b9_cbr1_bn_top
I0821 08:27:21.604377 32551 net.cpp:150] Setting up L1_b9_cbr1_bn
I0821 08:27:21.604395 32551 net.cpp:157] Top shape: 125 16 32 32 (2048000)
I0821 08:27:21.604405 32551 net.cpp:165] Memory required for data: 787969500
I0821 08:27:21.604426 32551 layer_factory.hpp:77] Creating layer L1_b9_cbr1_scale
I0821 08:27:21.604444 32551 net.cpp:100] Creating Layer L1_b9_cbr1_scale
I0821 08:27:21.604455 32551 net.cpp:434] L1_b9_cbr1_scale <- L1_b9_cbr1_bn_top
I0821 08:27:21.604470 32551 net.cpp:395] L1_b9_cbr1_scale -> L1_b9_cbr1_bn_top (in-place)
I0821 08:27:21.604560 32551 layer_factory.hpp:77] Creating layer L1_b9_cbr1_scale
I0821 08:27:21.604742 32551 net.cpp:150] Setting up L1_b9_cbr1_scale
I0821 08:27:21.604760 32551 net.cpp:157] Top shape: 125 16 32 32 (2048000)
I0821 08:27:21.604769 32551 net.cpp:165] Memory required for data: 796161500
I0821 08:27:21.604787 32551 layer_factory.hpp:77] Creating layer L1_b9_cbr1_relu
I0821 08:27:21.604804 32551 net.cpp:100] Creating Layer L1_b9_cbr1_relu
I0821 08:27:21.604815 32551 net.cpp:434] L1_b9_cbr1_relu <- L1_b9_cbr1_bn_top
I0821 08:27:21.604832 32551 net.cpp:395] L1_b9_cbr1_relu -> L1_b9_cbr1_bn_top (in-place)
I0821 08:27:21.604853 32551 net.cpp:150] Setting up L1_b9_cbr1_relu
I0821 08:27:21.604867 32551 net.cpp:157] Top shape: 125 16 32 32 (2048000)
I0821 08:27:21.604876 32551 net.cpp:165] Memory required for data: 804353500
I0821 08:27:21.604887 32551 layer_factory.hpp:77] Creating layer L1_b9_cbr2_conv
I0821 08:27:21.604913 32551 net.cpp:100] Creating Layer L1_b9_cbr2_conv
I0821 08:27:21.604925 32551 net.cpp:434] L1_b9_cbr2_conv <- L1_b9_cbr1_bn_top
I0821 08:27:21.604951 32551 net.cpp:408] L1_b9_cbr2_conv -> L1_b9_cbr2_conv_top
I0821 08:27:21.605324 32551 net.cpp:150] Setting up L1_b9_cbr2_conv
I0821 08:27:21.605345 32551 net.cpp:157] Top shape: 125 16 32 32 (2048000)
I0821 08:27:21.605355 32551 net.cpp:165] Memory required for data: 812545500
I0821 08:27:21.605372 32551 layer_factory.hpp:77] Creating layer L1_b9_cbr2_bn
I0821 08:27:21.605393 32551 net.cpp:100] Creating Layer L1_b9_cbr2_bn
I0821 08:27:21.605406 32551 net.cpp:434] L1_b9_cbr2_bn <- L1_b9_cbr2_conv_top
I0821 08:27:21.605423 32551 net.cpp:408] L1_b9_cbr2_bn -> L1_b9_cbr2_bn_top
I0821 08:27:21.605720 32551 net.cpp:150] Setting up L1_b9_cbr2_bn
I0821 08:27:21.605742 32551 net.cpp:157] Top shape: 125 16 32 32 (2048000)
I0821 08:27:21.605754 32551 net.cpp:165] Memory required for data: 820737500
I0821 08:27:21.605805 32551 layer_factory.hpp:77] Creating layer L1_b9_cbr2_scale
I0821 08:27:21.605823 32551 net.cpp:100] Creating Layer L1_b9_cbr2_scale
I0821 08:27:21.605835 32551 net.cpp:434] L1_b9_cbr2_scale <- L1_b9_cbr2_bn_top
I0821 08:27:21.605850 32551 net.cpp:395] L1_b9_cbr2_scale -> L1_b9_cbr2_bn_top (in-place)
I0821 08:27:21.605945 32551 layer_factory.hpp:77] Creating layer L1_b9_cbr2_scale
I0821 08:27:21.606133 32551 net.cpp:150] Setting up L1_b9_cbr2_scale
I0821 08:27:21.606153 32551 net.cpp:157] Top shape: 125 16 32 32 (2048000)
I0821 08:27:21.606163 32551 net.cpp:165] Memory required for data: 828929500
I0821 08:27:21.606181 32551 layer_factory.hpp:77] Creating layer L1_b9_sum_eltwise
I0821 08:27:21.606202 32551 net.cpp:100] Creating Layer L1_b9_sum_eltwise
I0821 08:27:21.606215 32551 net.cpp:434] L1_b9_sum_eltwise <- L1_b9_cbr2_bn_top
I0821 08:27:21.606228 32551 net.cpp:434] L1_b9_sum_eltwise <- L1_b8_sum_eltwise_top_L1_b8_relu_0_split_1
I0821 08:27:21.606245 32551 net.cpp:408] L1_b9_sum_eltwise -> L1_b9_sum_eltwise_top
I0821 08:27:21.606297 32551 net.cpp:150] Setting up L1_b9_sum_eltwise
I0821 08:27:21.606314 32551 net.cpp:157] Top shape: 125 16 32 32 (2048000)
I0821 08:27:21.606324 32551 net.cpp:165] Memory required for data: 837121500
I0821 08:27:21.606334 32551 layer_factory.hpp:77] Creating layer L1_b9_relu
I0821 08:27:21.606348 32551 net.cpp:100] Creating Layer L1_b9_relu
I0821 08:27:21.606360 32551 net.cpp:434] L1_b9_relu <- L1_b9_sum_eltwise_top
I0821 08:27:21.606380 32551 net.cpp:395] L1_b9_relu -> L1_b9_sum_eltwise_top (in-place)
I0821 08:27:21.606400 32551 net.cpp:150] Setting up L1_b9_relu
I0821 08:27:21.606415 32551 net.cpp:157] Top shape: 125 16 32 32 (2048000)
I0821 08:27:21.606423 32551 net.cpp:165] Memory required for data: 845313500
I0821 08:27:21.606433 32551 layer_factory.hpp:77] Creating layer L1_b9_sum_eltwise_top_L1_b9_relu_0_split
I0821 08:27:21.606447 32551 net.cpp:100] Creating Layer L1_b9_sum_eltwise_top_L1_b9_relu_0_split
I0821 08:27:21.606458 32551 net.cpp:434] L1_b9_sum_eltwise_top_L1_b9_relu_0_split <- L1_b9_sum_eltwise_top
I0821 08:27:21.606480 32551 net.cpp:408] L1_b9_sum_eltwise_top_L1_b9_relu_0_split -> L1_b9_sum_eltwise_top_L1_b9_relu_0_split_0
I0821 08:27:21.606501 32551 net.cpp:408] L1_b9_sum_eltwise_top_L1_b9_relu_0_split -> L1_b9_sum_eltwise_top_L1_b9_relu_0_split_1
I0821 08:27:21.606581 32551 net.cpp:150] Setting up L1_b9_sum_eltwise_top_L1_b9_relu_0_split
I0821 08:27:21.606601 32551 net.cpp:157] Top shape: 125 16 32 32 (2048000)
I0821 08:27:21.606616 32551 net.cpp:157] Top shape: 125 16 32 32 (2048000)
I0821 08:27:21.606626 32551 net.cpp:165] Memory required for data: 861697500
I0821 08:27:21.606636 32551 layer_factory.hpp:77] Creating layer L2_b1_cbr1_conv
I0821 08:27:21.606654 32551 net.cpp:100] Creating Layer L2_b1_cbr1_conv
I0821 08:27:21.606667 32551 net.cpp:434] L2_b1_cbr1_conv <- L1_b9_sum_eltwise_top_L1_b9_relu_0_split_0
I0821 08:27:21.606689 32551 net.cpp:408] L2_b1_cbr1_conv -> L2_b1_cbr1_conv_top
I0821 08:27:21.607067 32551 net.cpp:150] Setting up L2_b1_cbr1_conv
I0821 08:27:21.607089 32551 net.cpp:157] Top shape: 125 16 16 16 (512000)
I0821 08:27:21.607098 32551 net.cpp:165] Memory required for data: 863745500
I0821 08:27:21.607117 32551 layer_factory.hpp:77] Creating layer L2_b1_cbr1_bn
I0821 08:27:21.607138 32551 net.cpp:100] Creating Layer L2_b1_cbr1_bn
I0821 08:27:21.607151 32551 net.cpp:434] L2_b1_cbr1_bn <- L2_b1_cbr1_conv_top
I0821 08:27:21.607167 32551 net.cpp:408] L2_b1_cbr1_bn -> L2_b1_cbr1_bn_top
I0821 08:27:21.607445 32551 net.cpp:150] Setting up L2_b1_cbr1_bn
I0821 08:27:21.607463 32551 net.cpp:157] Top shape: 125 16 16 16 (512000)
I0821 08:27:21.607473 32551 net.cpp:165] Memory required for data: 865793500
I0821 08:27:21.607496 32551 layer_factory.hpp:77] Creating layer L2_b1_cbr1_scale
I0821 08:27:21.607519 32551 net.cpp:100] Creating Layer L2_b1_cbr1_scale
I0821 08:27:21.607540 32551 net.cpp:434] L2_b1_cbr1_scale <- L2_b1_cbr1_bn_top
I0821 08:27:21.607558 32551 net.cpp:395] L2_b1_cbr1_scale -> L2_b1_cbr1_bn_top (in-place)
I0821 08:27:21.607650 32551 layer_factory.hpp:77] Creating layer L2_b1_cbr1_scale
I0821 08:27:21.607833 32551 net.cpp:150] Setting up L2_b1_cbr1_scale
I0821 08:27:21.607853 32551 net.cpp:157] Top shape: 125 16 16 16 (512000)
I0821 08:27:21.607862 32551 net.cpp:165] Memory required for data: 867841500
I0821 08:27:21.607882 32551 layer_factory.hpp:77] Creating layer L2_b1_cbr1_relu
I0821 08:27:21.607902 32551 net.cpp:100] Creating Layer L2_b1_cbr1_relu
I0821 08:27:21.607913 32551 net.cpp:434] L2_b1_cbr1_relu <- L2_b1_cbr1_bn_top
I0821 08:27:21.607931 32551 net.cpp:395] L2_b1_cbr1_relu -> L2_b1_cbr1_bn_top (in-place)
I0821 08:27:21.607959 32551 net.cpp:150] Setting up L2_b1_cbr1_relu
I0821 08:27:21.607975 32551 net.cpp:157] Top shape: 125 16 16 16 (512000)
I0821 08:27:21.607985 32551 net.cpp:165] Memory required for data: 869889500
I0821 08:27:21.607995 32551 layer_factory.hpp:77] Creating layer L2_b1_cbr2_conv
I0821 08:27:21.608014 32551 net.cpp:100] Creating Layer L2_b1_cbr2_conv
I0821 08:27:21.608027 32551 net.cpp:434] L2_b1_cbr2_conv <- L2_b1_cbr1_bn_top
I0821 08:27:21.608047 32551 net.cpp:408] L2_b1_cbr2_conv -> L2_b1_cbr2_conv_top
I0821 08:27:21.608408 32551 net.cpp:150] Setting up L2_b1_cbr2_conv
I0821 08:27:21.608428 32551 net.cpp:157] Top shape: 125 16 16 16 (512000)
I0821 08:27:21.608438 32551 net.cpp:165] Memory required for data: 871937500
I0821 08:27:21.608455 32551 layer_factory.hpp:77] Creating layer L2_b1_cbr2_bn
I0821 08:27:21.608471 32551 net.cpp:100] Creating Layer L2_b1_cbr2_bn
I0821 08:27:21.608484 32551 net.cpp:434] L2_b1_cbr2_bn <- L2_b1_cbr2_conv_top
I0821 08:27:21.608507 32551 net.cpp:408] L2_b1_cbr2_bn -> L2_b1_cbr2_bn_top
I0821 08:27:21.608788 32551 net.cpp:150] Setting up L2_b1_cbr2_bn
I0821 08:27:21.608808 32551 net.cpp:157] Top shape: 125 16 16 16 (512000)
I0821 08:27:21.608817 32551 net.cpp:165] Memory required for data: 873985500
I0821 08:27:21.608839 32551 layer_factory.hpp:77] Creating layer L2_b1_cbr2_scale
I0821 08:27:21.608860 32551 net.cpp:100] Creating Layer L2_b1_cbr2_scale
I0821 08:27:21.608871 32551 net.cpp:434] L2_b1_cbr2_scale <- L2_b1_cbr2_bn_top
I0821 08:27:21.608887 32551 net.cpp:395] L2_b1_cbr2_scale -> L2_b1_cbr2_bn_top (in-place)
I0821 08:27:21.608981 32551 layer_factory.hpp:77] Creating layer L2_b1_cbr2_scale
I0821 08:27:21.609166 32551 net.cpp:150] Setting up L2_b1_cbr2_scale
I0821 08:27:21.609185 32551 net.cpp:157] Top shape: 125 16 16 16 (512000)
I0821 08:27:21.609194 32551 net.cpp:165] Memory required for data: 876033500
I0821 08:27:21.609213 32551 layer_factory.hpp:77] Creating layer L2_b1_pool
I0821 08:27:21.609237 32551 net.cpp:100] Creating Layer L2_b1_pool
I0821 08:27:21.609251 32551 net.cpp:434] L2_b1_pool <- L1_b9_sum_eltwise_top_L1_b9_relu_0_split_1
I0821 08:27:21.609267 32551 net.cpp:408] L2_b1_pool -> L2_b1_pool
I0821 08:27:21.609375 32551 net.cpp:150] Setting up L2_b1_pool
I0821 08:27:21.609395 32551 net.cpp:157] Top shape: 125 16 16 16 (512000)
I0821 08:27:21.609405 32551 net.cpp:165] Memory required for data: 878081500
I0821 08:27:21.609416 32551 layer_factory.hpp:77] Creating layer L2_b1_sum_eltwise
I0821 08:27:21.609431 32551 net.cpp:100] Creating Layer L2_b1_sum_eltwise
I0821 08:27:21.609442 32551 net.cpp:434] L2_b1_sum_eltwise <- L2_b1_cbr2_bn_top
I0821 08:27:21.609455 32551 net.cpp:434] L2_b1_sum_eltwise <- L2_b1_pool
I0821 08:27:21.609477 32551 net.cpp:408] L2_b1_sum_eltwise -> L2_b1_sum_eltwise_top
I0821 08:27:21.609531 32551 net.cpp:150] Setting up L2_b1_sum_eltwise
I0821 08:27:21.609552 32551 net.cpp:157] Top shape: 125 16 16 16 (512000)
I0821 08:27:21.609562 32551 net.cpp:165] Memory required for data: 880129500
I0821 08:27:21.609572 32551 layer_factory.hpp:77] Creating layer L2_b1_relu
I0821 08:27:21.609587 32551 net.cpp:100] Creating Layer L2_b1_relu
I0821 08:27:21.609599 32551 net.cpp:434] L2_b1_relu <- L2_b1_sum_eltwise_top
I0821 08:27:21.609622 32551 net.cpp:395] L2_b1_relu -> L2_b1_sum_eltwise_top (in-place)
I0821 08:27:21.609642 32551 net.cpp:150] Setting up L2_b1_relu
I0821 08:27:21.609658 32551 net.cpp:157] Top shape: 125 16 16 16 (512000)
I0821 08:27:21.609666 32551 net.cpp:165] Memory required for data: 882177500
I0821 08:27:21.609675 32551 layer_factory.hpp:77] Creating layer L2_b1_zeros
I0821 08:27:21.609750 32551 net.cpp:100] Creating Layer L2_b1_zeros
I0821 08:27:21.609769 32551 net.cpp:408] L2_b1_zeros -> L2_b1_zeros
I0821 08:27:21.612113 32551 net.cpp:150] Setting up L2_b1_zeros
I0821 08:27:21.612136 32551 net.cpp:157] Top shape: 125 16 16 16 (512000)
I0821 08:27:21.612146 32551 net.cpp:165] Memory required for data: 884225500
I0821 08:27:21.612157 32551 layer_factory.hpp:77] Creating layer L2_b1_concat0
I0821 08:27:21.612174 32551 net.cpp:100] Creating Layer L2_b1_concat0
I0821 08:27:21.612186 32551 net.cpp:434] L2_b1_concat0 <- L2_b1_sum_eltwise_top
I0821 08:27:21.612200 32551 net.cpp:434] L2_b1_concat0 <- L2_b1_zeros
I0821 08:27:21.612221 32551 net.cpp:408] L2_b1_concat0 -> L2_b1_concat0
I0821 08:27:21.612320 32551 net.cpp:150] Setting up L2_b1_concat0
I0821 08:27:21.612346 32551 net.cpp:157] Top shape: 125 32 16 16 (1024000)
I0821 08:27:21.612356 32551 net.cpp:165] Memory required for data: 888321500
I0821 08:27:21.612366 32551 layer_factory.hpp:77] Creating layer L2_b1_concat0_L2_b1_concat0_0_split
I0821 08:27:21.612381 32551 net.cpp:100] Creating Layer L2_b1_concat0_L2_b1_concat0_0_split
I0821 08:27:21.612392 32551 net.cpp:434] L2_b1_concat0_L2_b1_concat0_0_split <- L2_b1_concat0
I0821 08:27:21.612407 32551 net.cpp:408] L2_b1_concat0_L2_b1_concat0_0_split -> L2_b1_concat0_L2_b1_concat0_0_split_0
I0821 08:27:21.612427 32551 net.cpp:408] L2_b1_concat0_L2_b1_concat0_0_split -> L2_b1_concat0_L2_b1_concat0_0_split_1
I0821 08:27:21.612515 32551 net.cpp:150] Setting up L2_b1_concat0_L2_b1_concat0_0_split
I0821 08:27:21.612537 32551 net.cpp:157] Top shape: 125 32 16 16 (1024000)
I0821 08:27:21.612551 32551 net.cpp:157] Top shape: 125 32 16 16 (1024000)
I0821 08:27:21.612560 32551 net.cpp:165] Memory required for data: 896513500
I0821 08:27:21.612571 32551 layer_factory.hpp:77] Creating layer L2_b2_cbr1_conv
I0821 08:27:21.612596 32551 net.cpp:100] Creating Layer L2_b2_cbr1_conv
I0821 08:27:21.612609 32551 net.cpp:434] L2_b2_cbr1_conv <- L2_b1_concat0_L2_b1_concat0_0_split_0
I0821 08:27:21.612628 32551 net.cpp:408] L2_b2_cbr1_conv -> L2_b2_cbr1_conv_top
I0821 08:27:21.614122 32551 net.cpp:150] Setting up L2_b2_cbr1_conv
I0821 08:27:21.614145 32551 net.cpp:157] Top shape: 125 32 16 16 (1024000)
I0821 08:27:21.614154 32551 net.cpp:165] Memory required for data: 900609500
I0821 08:27:21.614172 32551 layer_factory.hpp:77] Creating layer L2_b2_cbr1_bn
I0821 08:27:21.614195 32551 net.cpp:100] Creating Layer L2_b2_cbr1_bn
I0821 08:27:21.614207 32551 net.cpp:434] L2_b2_cbr1_bn <- L2_b2_cbr1_conv_top
I0821 08:27:21.614224 32551 net.cpp:408] L2_b2_cbr1_bn -> L2_b2_cbr1_bn_top
I0821 08:27:21.614516 32551 net.cpp:150] Setting up L2_b2_cbr1_bn
I0821 08:27:21.614538 32551 net.cpp:157] Top shape: 125 32 16 16 (1024000)
I0821 08:27:21.614549 32551 net.cpp:165] Memory required for data: 904705500
I0821 08:27:21.614573 32551 layer_factory.hpp:77] Creating layer L2_b2_cbr1_scale
I0821 08:27:21.614589 32551 net.cpp:100] Creating Layer L2_b2_cbr1_scale
I0821 08:27:21.614601 32551 net.cpp:434] L2_b2_cbr1_scale <- L2_b2_cbr1_bn_top
I0821 08:27:21.614617 32551 net.cpp:395] L2_b2_cbr1_scale -> L2_b2_cbr1_bn_top (in-place)
I0821 08:27:21.614704 32551 layer_factory.hpp:77] Creating layer L2_b2_cbr1_scale
I0821 08:27:21.614893 32551 net.cpp:150] Setting up L2_b2_cbr1_scale
I0821 08:27:21.614912 32551 net.cpp:157] Top shape: 125 32 16 16 (1024000)
I0821 08:27:21.614922 32551 net.cpp:165] Memory required for data: 908801500
I0821 08:27:21.614946 32551 layer_factory.hpp:77] Creating layer L2_b2_cbr1_relu
I0821 08:27:21.614964 32551 net.cpp:100] Creating Layer L2_b2_cbr1_relu
I0821 08:27:21.614976 32551 net.cpp:434] L2_b2_cbr1_relu <- L2_b2_cbr1_bn_top
I0821 08:27:21.615005 32551 net.cpp:395] L2_b2_cbr1_relu -> L2_b2_cbr1_bn_top (in-place)
I0821 08:27:21.615025 32551 net.cpp:150] Setting up L2_b2_cbr1_relu
I0821 08:27:21.615041 32551 net.cpp:157] Top shape: 125 32 16 16 (1024000)
I0821 08:27:21.615049 32551 net.cpp:165] Memory required for data: 912897500
I0821 08:27:21.615058 32551 layer_factory.hpp:77] Creating layer L2_b2_cbr2_conv
I0821 08:27:21.615079 32551 net.cpp:100] Creating Layer L2_b2_cbr2_conv
I0821 08:27:21.615092 32551 net.cpp:434] L2_b2_cbr2_conv <- L2_b2_cbr1_bn_top
I0821 08:27:21.615113 32551 net.cpp:408] L2_b2_cbr2_conv -> L2_b2_cbr2_conv_top
I0821 08:27:21.615610 32551 net.cpp:150] Setting up L2_b2_cbr2_conv
I0821 08:27:21.615630 32551 net.cpp:157] Top shape: 125 32 16 16 (1024000)
I0821 08:27:21.615640 32551 net.cpp:165] Memory required for data: 916993500
I0821 08:27:21.615658 32551 layer_factory.hpp:77] Creating layer L2_b2_cbr2_bn
I0821 08:27:21.615675 32551 net.cpp:100] Creating Layer L2_b2_cbr2_bn
I0821 08:27:21.615687 32551 net.cpp:434] L2_b2_cbr2_bn <- L2_b2_cbr2_conv_top
I0821 08:27:21.615708 32551 net.cpp:408] L2_b2_cbr2_bn -> L2_b2_cbr2_bn_top
I0821 08:27:21.616004 32551 net.cpp:150] Setting up L2_b2_cbr2_bn
I0821 08:27:21.616025 32551 net.cpp:157] Top shape: 125 32 16 16 (1024000)
I0821 08:27:21.616034 32551 net.cpp:165] Memory required for data: 921089500
I0821 08:27:21.616056 32551 layer_factory.hpp:77] Creating layer L2_b2_cbr2_scale
I0821 08:27:21.616077 32551 net.cpp:100] Creating Layer L2_b2_cbr2_scale
I0821 08:27:21.616089 32551 net.cpp:434] L2_b2_cbr2_scale <- L2_b2_cbr2_bn_top
I0821 08:27:21.616106 32551 net.cpp:395] L2_b2_cbr2_scale -> L2_b2_cbr2_bn_top (in-place)
I0821 08:27:21.616192 32551 layer_factory.hpp:77] Creating layer L2_b2_cbr2_scale
I0821 08:27:21.616377 32551 net.cpp:150] Setting up L2_b2_cbr2_scale
I0821 08:27:21.616396 32551 net.cpp:157] Top shape: 125 32 16 16 (1024000)
I0821 08:27:21.616406 32551 net.cpp:165] Memory required for data: 925185500
I0821 08:27:21.616423 32551 layer_factory.hpp:77] Creating layer L2_b2_sum_eltwise
I0821 08:27:21.616446 32551 net.cpp:100] Creating Layer L2_b2_sum_eltwise
I0821 08:27:21.616457 32551 net.cpp:434] L2_b2_sum_eltwise <- L2_b2_cbr2_bn_top
I0821 08:27:21.616470 32551 net.cpp:434] L2_b2_sum_eltwise <- L2_b1_concat0_L2_b1_concat0_0_split_1
I0821 08:27:21.616487 32551 net.cpp:408] L2_b2_sum_eltwise -> L2_b2_sum_eltwise_top
I0821 08:27:21.616539 32551 net.cpp:150] Setting up L2_b2_sum_eltwise
I0821 08:27:21.616556 32551 net.cpp:157] Top shape: 125 32 16 16 (1024000)
I0821 08:27:21.616566 32551 net.cpp:165] Memory required for data: 929281500
I0821 08:27:21.616576 32551 layer_factory.hpp:77] Creating layer L2_b2_relu
I0821 08:27:21.616590 32551 net.cpp:100] Creating Layer L2_b2_relu
I0821 08:27:21.616602 32551 net.cpp:434] L2_b2_relu <- L2_b2_sum_eltwise_top
I0821 08:27:21.616621 32551 net.cpp:395] L2_b2_relu -> L2_b2_sum_eltwise_top (in-place)
I0821 08:27:21.616641 32551 net.cpp:150] Setting up L2_b2_relu
I0821 08:27:21.616655 32551 net.cpp:157] Top shape: 125 32 16 16 (1024000)
I0821 08:27:21.616664 32551 net.cpp:165] Memory required for data: 933377500
I0821 08:27:21.616674 32551 layer_factory.hpp:77] Creating layer L2_b2_sum_eltwise_top_L2_b2_relu_0_split
I0821 08:27:21.616688 32551 net.cpp:100] Creating Layer L2_b2_sum_eltwise_top_L2_b2_relu_0_split
I0821 08:27:21.616700 32551 net.cpp:434] L2_b2_sum_eltwise_top_L2_b2_relu_0_split <- L2_b2_sum_eltwise_top
I0821 08:27:21.616715 32551 net.cpp:408] L2_b2_sum_eltwise_top_L2_b2_relu_0_split -> L2_b2_sum_eltwise_top_L2_b2_relu_0_split_0
I0821 08:27:21.616734 32551 net.cpp:408] L2_b2_sum_eltwise_top_L2_b2_relu_0_split -> L2_b2_sum_eltwise_top_L2_b2_relu_0_split_1
I0821 08:27:21.616818 32551 net.cpp:150] Setting up L2_b2_sum_eltwise_top_L2_b2_relu_0_split
I0821 08:27:21.616837 32551 net.cpp:157] Top shape: 125 32 16 16 (1024000)
I0821 08:27:21.616850 32551 net.cpp:157] Top shape: 125 32 16 16 (1024000)
I0821 08:27:21.616859 32551 net.cpp:165] Memory required for data: 941569500
I0821 08:27:21.616870 32551 layer_factory.hpp:77] Creating layer L2_b3_cbr1_conv
I0821 08:27:21.616899 32551 net.cpp:100] Creating Layer L2_b3_cbr1_conv
I0821 08:27:21.616914 32551 net.cpp:434] L2_b3_cbr1_conv <- L2_b2_sum_eltwise_top_L2_b2_relu_0_split_0
I0821 08:27:21.616935 32551 net.cpp:408] L2_b3_cbr1_conv -> L2_b3_cbr1_conv_top
I0821 08:27:21.617446 32551 net.cpp:150] Setting up L2_b3_cbr1_conv
I0821 08:27:21.617466 32551 net.cpp:157] Top shape: 125 32 16 16 (1024000)
I0821 08:27:21.617476 32551 net.cpp:165] Memory required for data: 945665500
I0821 08:27:21.617496 32551 layer_factory.hpp:77] Creating layer L2_b3_cbr1_bn
I0821 08:27:21.617516 32551 net.cpp:100] Creating Layer L2_b3_cbr1_bn
I0821 08:27:21.617528 32551 net.cpp:434] L2_b3_cbr1_bn <- L2_b3_cbr1_conv_top
I0821 08:27:21.617545 32551 net.cpp:408] L2_b3_cbr1_bn -> L2_b3_cbr1_bn_top
I0821 08:27:21.617995 32551 net.cpp:150] Setting up L2_b3_cbr1_bn
I0821 08:27:21.618016 32551 net.cpp:157] Top shape: 125 32 16 16 (1024000)
I0821 08:27:21.618026 32551 net.cpp:165] Memory required for data: 949761500
I0821 08:27:21.618047 32551 layer_factory.hpp:77] Creating layer L2_b3_cbr1_scale
I0821 08:27:21.618068 32551 net.cpp:100] Creating Layer L2_b3_cbr1_scale
I0821 08:27:21.618080 32551 net.cpp:434] L2_b3_cbr1_scale <- L2_b3_cbr1_bn_top
I0821 08:27:21.618096 32551 net.cpp:395] L2_b3_cbr1_scale -> L2_b3_cbr1_bn_top (in-place)
I0821 08:27:21.618186 32551 layer_factory.hpp:77] Creating layer L2_b3_cbr1_scale
I0821 08:27:21.618367 32551 net.cpp:150] Setting up L2_b3_cbr1_scale
I0821 08:27:21.618386 32551 net.cpp:157] Top shape: 125 32 16 16 (1024000)
I0821 08:27:21.618396 32551 net.cpp:165] Memory required for data: 953857500
I0821 08:27:21.618413 32551 layer_factory.hpp:77] Creating layer L2_b3_cbr1_relu
I0821 08:27:21.618433 32551 net.cpp:100] Creating Layer L2_b3_cbr1_relu
I0821 08:27:21.618445 32551 net.cpp:434] L2_b3_cbr1_relu <- L2_b3_cbr1_bn_top
I0821 08:27:21.618459 32551 net.cpp:395] L2_b3_cbr1_relu -> L2_b3_cbr1_bn_top (in-place)
I0821 08:27:21.618484 32551 net.cpp:150] Setting up L2_b3_cbr1_relu
I0821 08:27:21.618499 32551 net.cpp:157] Top shape: 125 32 16 16 (1024000)
I0821 08:27:21.618507 32551 net.cpp:165] Memory required for data: 957953500
I0821 08:27:21.618517 32551 layer_factory.hpp:77] Creating layer L2_b3_cbr2_conv
I0821 08:27:21.618537 32551 net.cpp:100] Creating Layer L2_b3_cbr2_conv
I0821 08:27:21.618551 32551 net.cpp:434] L2_b3_cbr2_conv <- L2_b3_cbr1_bn_top
I0821 08:27:21.618573 32551 net.cpp:408] L2_b3_cbr2_conv -> L2_b3_cbr2_conv_top
I0821 08:27:21.619091 32551 net.cpp:150] Setting up L2_b3_cbr2_conv
I0821 08:27:21.619112 32551 net.cpp:157] Top shape: 125 32 16 16 (1024000)
I0821 08:27:21.619122 32551 net.cpp:165] Memory required for data: 962049500
I0821 08:27:21.619140 32551 layer_factory.hpp:77] Creating layer L2_b3_cbr2_bn
I0821 08:27:21.619158 32551 net.cpp:100] Creating Layer L2_b3_cbr2_bn
I0821 08:27:21.619169 32551 net.cpp:434] L2_b3_cbr2_bn <- L2_b3_cbr2_conv_top
I0821 08:27:21.619190 32551 net.cpp:408] L2_b3_cbr2_bn -> L2_b3_cbr2_bn_top
I0821 08:27:21.619477 32551 net.cpp:150] Setting up L2_b3_cbr2_bn
I0821 08:27:21.619496 32551 net.cpp:157] Top shape: 125 32 16 16 (1024000)
I0821 08:27:21.619505 32551 net.cpp:165] Memory required for data: 966145500
I0821 08:27:21.619526 32551 layer_factory.hpp:77] Creating layer L2_b3_cbr2_scale
I0821 08:27:21.619547 32551 net.cpp:100] Creating Layer L2_b3_cbr2_scale
I0821 08:27:21.619560 32551 net.cpp:434] L2_b3_cbr2_scale <- L2_b3_cbr2_bn_top
I0821 08:27:21.619576 32551 net.cpp:395] L2_b3_cbr2_scale -> L2_b3_cbr2_bn_top (in-place)
I0821 08:27:21.619663 32551 layer_factory.hpp:77] Creating layer L2_b3_cbr2_scale
I0821 08:27:21.619853 32551 net.cpp:150] Setting up L2_b3_cbr2_scale
I0821 08:27:21.619874 32551 net.cpp:157] Top shape: 125 32 16 16 (1024000)
I0821 08:27:21.619884 32551 net.cpp:165] Memory required for data: 970241500
I0821 08:27:21.619901 32551 layer_factory.hpp:77] Creating layer L2_b3_sum_eltwise
I0821 08:27:21.619923 32551 net.cpp:100] Creating Layer L2_b3_sum_eltwise
I0821 08:27:21.619935 32551 net.cpp:434] L2_b3_sum_eltwise <- L2_b3_cbr2_bn_top
I0821 08:27:21.619966 32551 net.cpp:434] L2_b3_sum_eltwise <- L2_b2_sum_eltwise_top_L2_b2_relu_0_split_1
I0821 08:27:21.619982 32551 net.cpp:408] L2_b3_sum_eltwise -> L2_b3_sum_eltwise_top
I0821 08:27:21.620031 32551 net.cpp:150] Setting up L2_b3_sum_eltwise
I0821 08:27:21.620048 32551 net.cpp:157] Top shape: 125 32 16 16 (1024000)
I0821 08:27:21.620055 32551 net.cpp:165] Memory required for data: 974337500
I0821 08:27:21.620064 32551 layer_factory.hpp:77] Creating layer L2_b3_relu
I0821 08:27:21.620093 32551 net.cpp:100] Creating Layer L2_b3_relu
I0821 08:27:21.620105 32551 net.cpp:434] L2_b3_relu <- L2_b3_sum_eltwise_top
I0821 08:27:21.620118 32551 net.cpp:395] L2_b3_relu -> L2_b3_sum_eltwise_top (in-place)
I0821 08:27:21.620133 32551 net.cpp:150] Setting up L2_b3_relu
I0821 08:27:21.620146 32551 net.cpp:157] Top shape: 125 32 16 16 (1024000)
I0821 08:27:21.620156 32551 net.cpp:165] Memory required for data: 978433500
I0821 08:27:21.620165 32551 layer_factory.hpp:77] Creating layer L2_b3_sum_eltwise_top_L2_b3_relu_0_split
I0821 08:27:21.620183 32551 net.cpp:100] Creating Layer L2_b3_sum_eltwise_top_L2_b3_relu_0_split
I0821 08:27:21.620193 32551 net.cpp:434] L2_b3_sum_eltwise_top_L2_b3_relu_0_split <- L2_b3_sum_eltwise_top
I0821 08:27:21.620206 32551 net.cpp:408] L2_b3_sum_eltwise_top_L2_b3_relu_0_split -> L2_b3_sum_eltwise_top_L2_b3_relu_0_split_0
I0821 08:27:21.620223 32551 net.cpp:408] L2_b3_sum_eltwise_top_L2_b3_relu_0_split -> L2_b3_sum_eltwise_top_L2_b3_relu_0_split_1
I0821 08:27:21.620287 32551 net.cpp:150] Setting up L2_b3_sum_eltwise_top_L2_b3_relu_0_split
I0821 08:27:21.620307 32551 net.cpp:157] Top shape: 125 32 16 16 (1024000)
I0821 08:27:21.620321 32551 net.cpp:157] Top shape: 125 32 16 16 (1024000)
I0821 08:27:21.620329 32551 net.cpp:165] Memory required for data: 986625500
I0821 08:27:21.620339 32551 layer_factory.hpp:77] Creating layer L2_b4_cbr1_conv
I0821 08:27:21.620359 32551 net.cpp:100] Creating Layer L2_b4_cbr1_conv
I0821 08:27:21.620373 32551 net.cpp:434] L2_b4_cbr1_conv <- L2_b3_sum_eltwise_top_L2_b3_relu_0_split_0
I0821 08:27:21.620390 32551 net.cpp:408] L2_b4_cbr1_conv -> L2_b4_cbr1_conv_top
I0821 08:27:21.620909 32551 net.cpp:150] Setting up L2_b4_cbr1_conv
I0821 08:27:21.620929 32551 net.cpp:157] Top shape: 125 32 16 16 (1024000)
I0821 08:27:21.620944 32551 net.cpp:165] Memory required for data: 990721500
I0821 08:27:21.620965 32551 layer_factory.hpp:77] Creating layer L2_b4_cbr1_bn
I0821 08:27:21.620985 32551 net.cpp:100] Creating Layer L2_b4_cbr1_bn
I0821 08:27:21.620998 32551 net.cpp:434] L2_b4_cbr1_bn <- L2_b4_cbr1_conv_top
I0821 08:27:21.621016 32551 net.cpp:408] L2_b4_cbr1_bn -> L2_b4_cbr1_bn_top
I0821 08:27:21.621299 32551 net.cpp:150] Setting up L2_b4_cbr1_bn
I0821 08:27:21.621318 32551 net.cpp:157] Top shape: 125 32 16 16 (1024000)
I0821 08:27:21.621330 32551 net.cpp:165] Memory required for data: 994817500
I0821 08:27:21.621351 32551 layer_factory.hpp:77] Creating layer L2_b4_cbr1_scale
I0821 08:27:21.621367 32551 net.cpp:100] Creating Layer L2_b4_cbr1_scale
I0821 08:27:21.621378 32551 net.cpp:434] L2_b4_cbr1_scale <- L2_b4_cbr1_bn_top
I0821 08:27:21.621398 32551 net.cpp:395] L2_b4_cbr1_scale -> L2_b4_cbr1_bn_top (in-place)
I0821 08:27:21.621487 32551 layer_factory.hpp:77] Creating layer L2_b4_cbr1_scale
I0821 08:27:21.621670 32551 net.cpp:150] Setting up L2_b4_cbr1_scale
I0821 08:27:21.621690 32551 net.cpp:157] Top shape: 125 32 16 16 (1024000)
I0821 08:27:21.621698 32551 net.cpp:165] Memory required for data: 998913500
I0821 08:27:21.621717 32551 layer_factory.hpp:77] Creating layer L2_b4_cbr1_relu
I0821 08:27:21.621733 32551 net.cpp:100] Creating Layer L2_b4_cbr1_relu
I0821 08:27:21.621744 32551 net.cpp:434] L2_b4_cbr1_relu <- L2_b4_cbr1_bn_top
I0821 08:27:21.621762 32551 net.cpp:395] L2_b4_cbr1_relu -> L2_b4_cbr1_bn_top (in-place)
I0821 08:27:21.621783 32551 net.cpp:150] Setting up L2_b4_cbr1_relu
I0821 08:27:21.621798 32551 net.cpp:157] Top shape: 125 32 16 16 (1024000)
I0821 08:27:21.621807 32551 net.cpp:165] Memory required for data: 1003009500
I0821 08:27:21.621817 32551 layer_factory.hpp:77] Creating layer L2_b4_cbr2_conv
I0821 08:27:21.621851 32551 net.cpp:100] Creating Layer L2_b4_cbr2_conv
I0821 08:27:21.621865 32551 net.cpp:434] L2_b4_cbr2_conv <- L2_b4_cbr1_bn_top
I0821 08:27:21.621881 32551 net.cpp:408] L2_b4_cbr2_conv -> L2_b4_cbr2_conv_top
I0821 08:27:21.622395 32551 net.cpp:150] Setting up L2_b4_cbr2_conv
I0821 08:27:21.622414 32551 net.cpp:157] Top shape: 125 32 16 16 (1024000)
I0821 08:27:21.622423 32551 net.cpp:165] Memory required for data: 1007105500
I0821 08:27:21.622442 32551 layer_factory.hpp:77] Creating layer L2_b4_cbr2_bn
I0821 08:27:21.622467 32551 net.cpp:100] Creating Layer L2_b4_cbr2_bn
I0821 08:27:21.622479 32551 net.cpp:434] L2_b4_cbr2_bn <- L2_b4_cbr2_conv_top
I0821 08:27:21.622495 32551 net.cpp:408] L2_b4_cbr2_bn -> L2_b4_cbr2_bn_top
I0821 08:27:21.622778 32551 net.cpp:150] Setting up L2_b4_cbr2_bn
I0821 08:27:21.622797 32551 net.cpp:157] Top shape: 125 32 16 16 (1024000)
I0821 08:27:21.622807 32551 net.cpp:165] Memory required for data: 1011201500
I0821 08:27:21.622828 32551 layer_factory.hpp:77] Creating layer L2_b4_cbr2_scale
I0821 08:27:21.622845 32551 net.cpp:100] Creating Layer L2_b4_cbr2_scale
I0821 08:27:21.622856 32551 net.cpp:434] L2_b4_cbr2_scale <- L2_b4_cbr2_bn_top
I0821 08:27:21.622876 32551 net.cpp:395] L2_b4_cbr2_scale -> L2_b4_cbr2_bn_top (in-place)
I0821 08:27:21.622972 32551 layer_factory.hpp:77] Creating layer L2_b4_cbr2_scale
I0821 08:27:21.623155 32551 net.cpp:150] Setting up L2_b4_cbr2_scale
I0821 08:27:21.623174 32551 net.cpp:157] Top shape: 125 32 16 16 (1024000)
I0821 08:27:21.623184 32551 net.cpp:165] Memory required for data: 1015297500
I0821 08:27:21.623203 32551 layer_factory.hpp:77] Creating layer L2_b4_sum_eltwise
I0821 08:27:21.623219 32551 net.cpp:100] Creating Layer L2_b4_sum_eltwise
I0821 08:27:21.623230 32551 net.cpp:434] L2_b4_sum_eltwise <- L2_b4_cbr2_bn_top
I0821 08:27:21.623245 32551 net.cpp:434] L2_b4_sum_eltwise <- L2_b3_sum_eltwise_top_L2_b3_relu_0_split_1
I0821 08:27:21.623268 32551 net.cpp:408] L2_b4_sum_eltwise -> L2_b4_sum_eltwise_top
I0821 08:27:21.623317 32551 net.cpp:150] Setting up L2_b4_sum_eltwise
I0821 08:27:21.623335 32551 net.cpp:157] Top shape: 125 32 16 16 (1024000)
I0821 08:27:21.623344 32551 net.cpp:165] Memory required for data: 1019393500
I0821 08:27:21.623354 32551 layer_factory.hpp:77] Creating layer L2_b4_relu
I0821 08:27:21.623374 32551 net.cpp:100] Creating Layer L2_b4_relu
I0821 08:27:21.623386 32551 net.cpp:434] L2_b4_relu <- L2_b4_sum_eltwise_top
I0821 08:27:21.623401 32551 net.cpp:395] L2_b4_relu -> L2_b4_sum_eltwise_top (in-place)
I0821 08:27:21.623420 32551 net.cpp:150] Setting up L2_b4_relu
I0821 08:27:21.623435 32551 net.cpp:157] Top shape: 125 32 16 16 (1024000)
I0821 08:27:21.623442 32551 net.cpp:165] Memory required for data: 1023489500
I0821 08:27:21.623452 32551 layer_factory.hpp:77] Creating layer L2_b4_sum_eltwise_top_L2_b4_relu_0_split
I0821 08:27:21.623466 32551 net.cpp:100] Creating Layer L2_b4_sum_eltwise_top_L2_b4_relu_0_split
I0821 08:27:21.623477 32551 net.cpp:434] L2_b4_sum_eltwise_top_L2_b4_relu_0_split <- L2_b4_sum_eltwise_top
I0821 08:27:21.623497 32551 net.cpp:408] L2_b4_sum_eltwise_top_L2_b4_relu_0_split -> L2_b4_sum_eltwise_top_L2_b4_relu_0_split_0
I0821 08:27:21.623517 32551 net.cpp:408] L2_b4_sum_eltwise_top_L2_b4_relu_0_split -> L2_b4_sum_eltwise_top_L2_b4_relu_0_split_1
I0821 08:27:21.623592 32551 net.cpp:150] Setting up L2_b4_sum_eltwise_top_L2_b4_relu_0_split
I0821 08:27:21.623615 32551 net.cpp:157] Top shape: 125 32 16 16 (1024000)
I0821 08:27:21.623630 32551 net.cpp:157] Top shape: 125 32 16 16 (1024000)
I0821 08:27:21.623638 32551 net.cpp:165] Memory required for data: 1031681500
I0821 08:27:21.623649 32551 layer_factory.hpp:77] Creating layer L2_b5_cbr1_conv
I0821 08:27:21.623668 32551 net.cpp:100] Creating Layer L2_b5_cbr1_conv
I0821 08:27:21.623680 32551 net.cpp:434] L2_b5_cbr1_conv <- L2_b4_sum_eltwise_top_L2_b4_relu_0_split_0
I0821 08:27:21.623699 32551 net.cpp:408] L2_b5_cbr1_conv -> L2_b5_cbr1_conv_top
I0821 08:27:21.624217 32551 net.cpp:150] Setting up L2_b5_cbr1_conv
I0821 08:27:21.624244 32551 net.cpp:157] Top shape: 125 32 16 16 (1024000)
I0821 08:27:21.624255 32551 net.cpp:165] Memory required for data: 1035777500
I0821 08:27:21.624274 32551 layer_factory.hpp:77] Creating layer L2_b5_cbr1_bn
I0821 08:27:21.624295 32551 net.cpp:100] Creating Layer L2_b5_cbr1_bn
I0821 08:27:21.624307 32551 net.cpp:434] L2_b5_cbr1_bn <- L2_b5_cbr1_conv_top
I0821 08:27:21.624323 32551 net.cpp:408] L2_b5_cbr1_bn -> L2_b5_cbr1_bn_top
I0821 08:27:21.624609 32551 net.cpp:150] Setting up L2_b5_cbr1_bn
I0821 08:27:21.624627 32551 net.cpp:157] Top shape: 125 32 16 16 (1024000)
I0821 08:27:21.624636 32551 net.cpp:165] Memory required for data: 1039873500
I0821 08:27:21.624658 32551 layer_factory.hpp:77] Creating layer L2_b5_cbr1_scale
I0821 08:27:21.624675 32551 net.cpp:100] Creating Layer L2_b5_cbr1_scale
I0821 08:27:21.624686 32551 net.cpp:434] L2_b5_cbr1_scale <- L2_b5_cbr1_bn_top
I0821 08:27:21.624706 32551 net.cpp:395] L2_b5_cbr1_scale -> L2_b5_cbr1_bn_top (in-place)
I0821 08:27:21.624797 32551 layer_factory.hpp:77] Creating layer L2_b5_cbr1_scale
I0821 08:27:21.624994 32551 net.cpp:150] Setting up L2_b5_cbr1_scale
I0821 08:27:21.625015 32551 net.cpp:157] Top shape: 125 32 16 16 (1024000)
I0821 08:27:21.625025 32551 net.cpp:165] Memory required for data: 1043969500
I0821 08:27:21.625043 32551 layer_factory.hpp:77] Creating layer L2_b5_cbr1_relu
I0821 08:27:21.625059 32551 net.cpp:100] Creating Layer L2_b5_cbr1_relu
I0821 08:27:21.625071 32551 net.cpp:434] L2_b5_cbr1_relu <- L2_b5_cbr1_bn_top
I0821 08:27:21.625089 32551 net.cpp:395] L2_b5_cbr1_relu -> L2_b5_cbr1_bn_top (in-place)
I0821 08:27:21.625110 32551 net.cpp:150] Setting up L2_b5_cbr1_relu
I0821 08:27:21.625124 32551 net.cpp:157] Top shape: 125 32 16 16 (1024000)
I0821 08:27:21.625135 32551 net.cpp:165] Memory required for data: 1048065500
I0821 08:27:21.625145 32551 layer_factory.hpp:77] Creating layer L2_b5_cbr2_conv
I0821 08:27:21.625170 32551 net.cpp:100] Creating Layer L2_b5_cbr2_conv
I0821 08:27:21.625183 32551 net.cpp:434] L2_b5_cbr2_conv <- L2_b5_cbr1_bn_top
I0821 08:27:21.625200 32551 net.cpp:408] L2_b5_cbr2_conv -> L2_b5_cbr2_conv_top
I0821 08:27:21.625715 32551 net.cpp:150] Setting up L2_b5_cbr2_conv
I0821 08:27:21.625735 32551 net.cpp:157] Top shape: 125 32 16 16 (1024000)
I0821 08:27:21.625746 32551 net.cpp:165] Memory required for data: 1052161500
I0821 08:27:21.625763 32551 layer_factory.hpp:77] Creating layer L2_b5_cbr2_bn
I0821 08:27:21.625789 32551 net.cpp:100] Creating Layer L2_b5_cbr2_bn
I0821 08:27:21.625802 32551 net.cpp:434] L2_b5_cbr2_bn <- L2_b5_cbr2_conv_top
I0821 08:27:21.625819 32551 net.cpp:408] L2_b5_cbr2_bn -> L2_b5_cbr2_bn_top
I0821 08:27:21.626104 32551 net.cpp:150] Setting up L2_b5_cbr2_bn
I0821 08:27:21.626123 32551 net.cpp:157] Top shape: 125 32 16 16 (1024000)
I0821 08:27:21.626133 32551 net.cpp:165] Memory required for data: 1056257500
I0821 08:27:21.626155 32551 layer_factory.hpp:77] Creating layer L2_b5_cbr2_scale
I0821 08:27:21.626173 32551 net.cpp:100] Creating Layer L2_b5_cbr2_scale
I0821 08:27:21.626184 32551 net.cpp:434] L2_b5_cbr2_scale <- L2_b5_cbr2_bn_top
I0821 08:27:21.626199 32551 net.cpp:395] L2_b5_cbr2_scale -> L2_b5_cbr2_bn_top (in-place)
I0821 08:27:21.626291 32551 layer_factory.hpp:77] Creating layer L2_b5_cbr2_scale
I0821 08:27:21.626473 32551 net.cpp:150] Setting up L2_b5_cbr2_scale
I0821 08:27:21.626497 32551 net.cpp:157] Top shape: 125 32 16 16 (1024000)
I0821 08:27:21.626507 32551 net.cpp:165] Memory required for data: 1060353500
I0821 08:27:21.626524 32551 layer_factory.hpp:77] Creating layer L2_b5_sum_eltwise
I0821 08:27:21.626541 32551 net.cpp:100] Creating Layer L2_b5_sum_eltwise
I0821 08:27:21.626552 32551 net.cpp:434] L2_b5_sum_eltwise <- L2_b5_cbr2_bn_top
I0821 08:27:21.626565 32551 net.cpp:434] L2_b5_sum_eltwise <- L2_b4_sum_eltwise_top_L2_b4_relu_0_split_1
I0821 08:27:21.626581 32551 net.cpp:408] L2_b5_sum_eltwise -> L2_b5_sum_eltwise_top
I0821 08:27:21.626631 32551 net.cpp:150] Setting up L2_b5_sum_eltwise
I0821 08:27:21.626649 32551 net.cpp:157] Top shape: 125 32 16 16 (1024000)
I0821 08:27:21.626668 32551 net.cpp:165] Memory required for data: 1064449500
I0821 08:27:21.626680 32551 layer_factory.hpp:77] Creating layer L2_b5_relu
I0821 08:27:21.626694 32551 net.cpp:100] Creating Layer L2_b5_relu
I0821 08:27:21.626706 32551 net.cpp:434] L2_b5_relu <- L2_b5_sum_eltwise_top
I0821 08:27:21.626725 32551 net.cpp:395] L2_b5_relu -> L2_b5_sum_eltwise_top (in-place)
I0821 08:27:21.626744 32551 net.cpp:150] Setting up L2_b5_relu
I0821 08:27:21.626760 32551 net.cpp:157] Top shape: 125 32 16 16 (1024000)
I0821 08:27:21.626768 32551 net.cpp:165] Memory required for data: 1068545500
I0821 08:27:21.626778 32551 layer_factory.hpp:77] Creating layer L2_b5_sum_eltwise_top_L2_b5_relu_0_split
I0821 08:27:21.626792 32551 net.cpp:100] Creating Layer L2_b5_sum_eltwise_top_L2_b5_relu_0_split
I0821 08:27:21.626802 32551 net.cpp:434] L2_b5_sum_eltwise_top_L2_b5_relu_0_split <- L2_b5_sum_eltwise_top
I0821 08:27:21.626822 32551 net.cpp:408] L2_b5_sum_eltwise_top_L2_b5_relu_0_split -> L2_b5_sum_eltwise_top_L2_b5_relu_0_split_0
I0821 08:27:21.626843 32551 net.cpp:408] L2_b5_sum_eltwise_top_L2_b5_relu_0_split -> L2_b5_sum_eltwise_top_L2_b5_relu_0_split_1
I0821 08:27:21.626924 32551 net.cpp:150] Setting up L2_b5_sum_eltwise_top_L2_b5_relu_0_split
I0821 08:27:21.626950 32551 net.cpp:157] Top shape: 125 32 16 16 (1024000)
I0821 08:27:21.626965 32551 net.cpp:157] Top shape: 125 32 16 16 (1024000)
I0821 08:27:21.626973 32551 net.cpp:165] Memory required for data: 1076737500
I0821 08:27:21.627068 32551 layer_factory.hpp:77] Creating layer L2_b6_cbr1_conv
I0821 08:27:21.627099 32551 net.cpp:100] Creating Layer L2_b6_cbr1_conv
I0821 08:27:21.627115 32551 net.cpp:434] L2_b6_cbr1_conv <- L2_b5_sum_eltwise_top_L2_b5_relu_0_split_0
I0821 08:27:21.627133 32551 net.cpp:408] L2_b6_cbr1_conv -> L2_b6_cbr1_conv_top
I0821 08:27:21.627789 32551 net.cpp:150] Setting up L2_b6_cbr1_conv
I0821 08:27:21.627810 32551 net.cpp:157] Top shape: 125 32 16 16 (1024000)
I0821 08:27:21.627820 32551 net.cpp:165] Memory required for data: 1080833500
I0821 08:27:21.627837 32551 layer_factory.hpp:77] Creating layer L2_b6_cbr1_bn
I0821 08:27:21.627859 32551 net.cpp:100] Creating Layer L2_b6_cbr1_bn
I0821 08:27:21.627872 32551 net.cpp:434] L2_b6_cbr1_bn <- L2_b6_cbr1_conv_top
I0821 08:27:21.627888 32551 net.cpp:408] L2_b6_cbr1_bn -> L2_b6_cbr1_bn_top
I0821 08:27:21.628186 32551 net.cpp:150] Setting up L2_b6_cbr1_bn
I0821 08:27:21.628206 32551 net.cpp:157] Top shape: 125 32 16 16 (1024000)
I0821 08:27:21.628216 32551 net.cpp:165] Memory required for data: 1084929500
I0821 08:27:21.628237 32551 layer_factory.hpp:77] Creating layer L2_b6_cbr1_scale
I0821 08:27:21.628253 32551 net.cpp:100] Creating Layer L2_b6_cbr1_scale
I0821 08:27:21.628265 32551 net.cpp:434] L2_b6_cbr1_scale <- L2_b6_cbr1_bn_top
I0821 08:27:21.628291 32551 net.cpp:395] L2_b6_cbr1_scale -> L2_b6_cbr1_bn_top (in-place)
I0821 08:27:21.628387 32551 layer_factory.hpp:77] Creating layer L2_b6_cbr1_scale
I0821 08:27:21.628574 32551 net.cpp:150] Setting up L2_b6_cbr1_scale
I0821 08:27:21.628593 32551 net.cpp:157] Top shape: 125 32 16 16 (1024000)
I0821 08:27:21.628603 32551 net.cpp:165] Memory required for data: 1089025500
I0821 08:27:21.628623 32551 layer_factory.hpp:77] Creating layer L2_b6_cbr1_relu
I0821 08:27:21.628638 32551 net.cpp:100] Creating Layer L2_b6_cbr1_relu
I0821 08:27:21.628649 32551 net.cpp:434] L2_b6_cbr1_relu <- L2_b6_cbr1_bn_top
I0821 08:27:21.628664 32551 net.cpp:395] L2_b6_cbr1_relu -> L2_b6_cbr1_bn_top (in-place)
I0821 08:27:21.628687 32551 net.cpp:150] Setting up L2_b6_cbr1_relu
I0821 08:27:21.628702 32551 net.cpp:157] Top shape: 125 32 16 16 (1024000)
I0821 08:27:21.628712 32551 net.cpp:165] Memory required for data: 1093121500
I0821 08:27:21.628721 32551 layer_factory.hpp:77] Creating layer L2_b6_cbr2_conv
I0821 08:27:21.628742 32551 net.cpp:100] Creating Layer L2_b6_cbr2_conv
I0821 08:27:21.628759 32551 net.cpp:434] L2_b6_cbr2_conv <- L2_b6_cbr1_bn_top
I0821 08:27:21.628777 32551 net.cpp:408] L2_b6_cbr2_conv -> L2_b6_cbr2_conv_top
I0821 08:27:21.629298 32551 net.cpp:150] Setting up L2_b6_cbr2_conv
I0821 08:27:21.629326 32551 net.cpp:157] Top shape: 125 32 16 16 (1024000)
I0821 08:27:21.629338 32551 net.cpp:165] Memory required for data: 1097217500
I0821 08:27:21.629355 32551 layer_factory.hpp:77] Creating layer L2_b6_cbr2_bn
I0821 08:27:21.629376 32551 net.cpp:100] Creating Layer L2_b6_cbr2_bn
I0821 08:27:21.629390 32551 net.cpp:434] L2_b6_cbr2_bn <- L2_b6_cbr2_conv_top
I0821 08:27:21.629410 32551 net.cpp:408] L2_b6_cbr2_bn -> L2_b6_cbr2_bn_top
I0821 08:27:21.629686 32551 net.cpp:150] Setting up L2_b6_cbr2_bn
I0821 08:27:21.629706 32551 net.cpp:157] Top shape: 125 32 16 16 (1024000)
I0821 08:27:21.629716 32551 net.cpp:165] Memory required for data: 1101313500
I0821 08:27:21.629737 32551 layer_factory.hpp:77] Creating layer L2_b6_cbr2_scale
I0821 08:27:21.629755 32551 net.cpp:100] Creating Layer L2_b6_cbr2_scale
I0821 08:27:21.629765 32551 net.cpp:434] L2_b6_cbr2_scale <- L2_b6_cbr2_bn_top
I0821 08:27:21.629781 32551 net.cpp:395] L2_b6_cbr2_scale -> L2_b6_cbr2_bn_top (in-place)
I0821 08:27:21.629873 32551 layer_factory.hpp:77] Creating layer L2_b6_cbr2_scale
I0821 08:27:21.630060 32551 net.cpp:150] Setting up L2_b6_cbr2_scale
I0821 08:27:21.630084 32551 net.cpp:157] Top shape: 125 32 16 16 (1024000)
I0821 08:27:21.630095 32551 net.cpp:165] Memory required for data: 1105409500
I0821 08:27:21.630112 32551 layer_factory.hpp:77] Creating layer L2_b6_sum_eltwise
I0821 08:27:21.630129 32551 net.cpp:100] Creating Layer L2_b6_sum_eltwise
I0821 08:27:21.630141 32551 net.cpp:434] L2_b6_sum_eltwise <- L2_b6_cbr2_bn_top
I0821 08:27:21.630156 32551 net.cpp:434] L2_b6_sum_eltwise <- L2_b5_sum_eltwise_top_L2_b5_relu_0_split_1
I0821 08:27:21.630172 32551 net.cpp:408] L2_b6_sum_eltwise -> L2_b6_sum_eltwise_top
I0821 08:27:21.630224 32551 net.cpp:150] Setting up L2_b6_sum_eltwise
I0821 08:27:21.630242 32551 net.cpp:157] Top shape: 125 32 16 16 (1024000)
I0821 08:27:21.630252 32551 net.cpp:165] Memory required for data: 1109505500
I0821 08:27:21.630262 32551 layer_factory.hpp:77] Creating layer L2_b6_relu
I0821 08:27:21.630275 32551 net.cpp:100] Creating Layer L2_b6_relu
I0821 08:27:21.630287 32551 net.cpp:434] L2_b6_relu <- L2_b6_sum_eltwise_top
I0821 08:27:21.630306 32551 net.cpp:395] L2_b6_relu -> L2_b6_sum_eltwise_top (in-place)
I0821 08:27:21.630326 32551 net.cpp:150] Setting up L2_b6_relu
I0821 08:27:21.630340 32551 net.cpp:157] Top shape: 125 32 16 16 (1024000)
I0821 08:27:21.630349 32551 net.cpp:165] Memory required for data: 1113601500
I0821 08:27:21.630360 32551 layer_factory.hpp:77] Creating layer L2_b6_sum_eltwise_top_L2_b6_relu_0_split
I0821 08:27:21.630374 32551 net.cpp:100] Creating Layer L2_b6_sum_eltwise_top_L2_b6_relu_0_split
I0821 08:27:21.630386 32551 net.cpp:434] L2_b6_sum_eltwise_top_L2_b6_relu_0_split <- L2_b6_sum_eltwise_top
I0821 08:27:21.630410 32551 net.cpp:408] L2_b6_sum_eltwise_top_L2_b6_relu_0_split -> L2_b6_sum_eltwise_top_L2_b6_relu_0_split_0
I0821 08:27:21.630430 32551 net.cpp:408] L2_b6_sum_eltwise_top_L2_b6_relu_0_split -> L2_b6_sum_eltwise_top_L2_b6_relu_0_split_1
I0821 08:27:21.630509 32551 net.cpp:150] Setting up L2_b6_sum_eltwise_top_L2_b6_relu_0_split
I0821 08:27:21.630532 32551 net.cpp:157] Top shape: 125 32 16 16 (1024000)
I0821 08:27:21.630545 32551 net.cpp:157] Top shape: 125 32 16 16 (1024000)
I0821 08:27:21.630555 32551 net.cpp:165] Memory required for data: 1121793500
I0821 08:27:21.630565 32551 layer_factory.hpp:77] Creating layer L2_b7_cbr1_conv
I0821 08:27:21.630590 32551 net.cpp:100] Creating Layer L2_b7_cbr1_conv
I0821 08:27:21.630605 32551 net.cpp:434] L2_b7_cbr1_conv <- L2_b6_sum_eltwise_top_L2_b6_relu_0_split_0
I0821 08:27:21.630623 32551 net.cpp:408] L2_b7_cbr1_conv -> L2_b7_cbr1_conv_top
I0821 08:27:21.631155 32551 net.cpp:150] Setting up L2_b7_cbr1_conv
I0821 08:27:21.631175 32551 net.cpp:157] Top shape: 125 32 16 16 (1024000)
I0821 08:27:21.631184 32551 net.cpp:165] Memory required for data: 1125889500
I0821 08:27:21.631202 32551 layer_factory.hpp:77] Creating layer L2_b7_cbr1_bn
I0821 08:27:21.631227 32551 net.cpp:100] Creating Layer L2_b7_cbr1_bn
I0821 08:27:21.631247 32551 net.cpp:434] L2_b7_cbr1_bn <- L2_b7_cbr1_conv_top
I0821 08:27:21.631265 32551 net.cpp:408] L2_b7_cbr1_bn -> L2_b7_cbr1_bn_top
I0821 08:27:21.631562 32551 net.cpp:150] Setting up L2_b7_cbr1_bn
I0821 08:27:21.631582 32551 net.cpp:157] Top shape: 125 32 16 16 (1024000)
I0821 08:27:21.631592 32551 net.cpp:165] Memory required for data: 1129985500
I0821 08:27:21.631613 32551 layer_factory.hpp:77] Creating layer L2_b7_cbr1_scale
I0821 08:27:21.631629 32551 net.cpp:100] Creating Layer L2_b7_cbr1_scale
I0821 08:27:21.631640 32551 net.cpp:434] L2_b7_cbr1_scale <- L2_b7_cbr1_bn_top
I0821 08:27:21.631655 32551 net.cpp:395] L2_b7_cbr1_scale -> L2_b7_cbr1_bn_top (in-place)
I0821 08:27:21.631752 32551 layer_factory.hpp:77] Creating layer L2_b7_cbr1_scale
I0821 08:27:21.631937 32551 net.cpp:150] Setting up L2_b7_cbr1_scale
I0821 08:27:21.631965 32551 net.cpp:157] Top shape: 125 32 16 16 (1024000)
I0821 08:27:21.631975 32551 net.cpp:165] Memory required for data: 1134081500
I0821 08:27:21.631994 32551 layer_factory.hpp:77] Creating layer L2_b7_cbr1_relu
I0821 08:27:21.632009 32551 net.cpp:100] Creating Layer L2_b7_cbr1_relu
I0821 08:27:21.632021 32551 net.cpp:434] L2_b7_cbr1_relu <- L2_b7_cbr1_bn_top
I0821 08:27:21.632035 32551 net.cpp:395] L2_b7_cbr1_relu -> L2_b7_cbr1_bn_top (in-place)
I0821 08:27:21.632055 32551 net.cpp:150] Setting up L2_b7_cbr1_relu
I0821 08:27:21.632068 32551 net.cpp:157] Top shape: 125 32 16 16 (1024000)
I0821 08:27:21.632078 32551 net.cpp:165] Memory required for data: 1138177500
I0821 08:27:21.632089 32551 layer_factory.hpp:77] Creating layer L2_b7_cbr2_conv
I0821 08:27:21.632117 32551 net.cpp:100] Creating Layer L2_b7_cbr2_conv
I0821 08:27:21.632129 32551 net.cpp:434] L2_b7_cbr2_conv <- L2_b7_cbr1_bn_top
I0821 08:27:21.632150 32551 net.cpp:408] L2_b7_cbr2_conv -> L2_b7_cbr2_conv_top
I0821 08:27:21.632724 32551 net.cpp:150] Setting up L2_b7_cbr2_conv
I0821 08:27:21.632745 32551 net.cpp:157] Top shape: 125 32 16 16 (1024000)
I0821 08:27:21.632755 32551 net.cpp:165] Memory required for data: 1142273500
I0821 08:27:21.632772 32551 layer_factory.hpp:77] Creating layer L2_b7_cbr2_bn
I0821 08:27:21.632794 32551 net.cpp:100] Creating Layer L2_b7_cbr2_bn
I0821 08:27:21.632807 32551 net.cpp:434] L2_b7_cbr2_bn <- L2_b7_cbr2_conv_top
I0821 08:27:21.632828 32551 net.cpp:408] L2_b7_cbr2_bn -> L2_b7_cbr2_bn_top
I0821 08:27:21.633123 32551 net.cpp:150] Setting up L2_b7_cbr2_bn
I0821 08:27:21.633142 32551 net.cpp:157] Top shape: 125 32 16 16 (1024000)
I0821 08:27:21.633152 32551 net.cpp:165] Memory required for data: 1146369500
I0821 08:27:21.633173 32551 layer_factory.hpp:77] Creating layer L2_b7_cbr2_scale
I0821 08:27:21.633190 32551 net.cpp:100] Creating Layer L2_b7_cbr2_scale
I0821 08:27:21.633203 32551 net.cpp:434] L2_b7_cbr2_scale <- L2_b7_cbr2_bn_top
I0821 08:27:21.633218 32551 net.cpp:395] L2_b7_cbr2_scale -> L2_b7_cbr2_bn_top (in-place)
I0821 08:27:21.633312 32551 layer_factory.hpp:77] Creating layer L2_b7_cbr2_scale
I0821 08:27:21.633499 32551 net.cpp:150] Setting up L2_b7_cbr2_scale
I0821 08:27:21.633518 32551 net.cpp:157] Top shape: 125 32 16 16 (1024000)
I0821 08:27:21.633527 32551 net.cpp:165] Memory required for data: 1150465500
I0821 08:27:21.633546 32551 layer_factory.hpp:77] Creating layer L2_b7_sum_eltwise
I0821 08:27:21.633568 32551 net.cpp:100] Creating Layer L2_b7_sum_eltwise
I0821 08:27:21.633579 32551 net.cpp:434] L2_b7_sum_eltwise <- L2_b7_cbr2_bn_top
I0821 08:27:21.633594 32551 net.cpp:434] L2_b7_sum_eltwise <- L2_b6_sum_eltwise_top_L2_b6_relu_0_split_1
I0821 08:27:21.633610 32551 net.cpp:408] L2_b7_sum_eltwise -> L2_b7_sum_eltwise_top
I0821 08:27:21.633656 32551 net.cpp:150] Setting up L2_b7_sum_eltwise
I0821 08:27:21.633674 32551 net.cpp:157] Top shape: 125 32 16 16 (1024000)
I0821 08:27:21.633683 32551 net.cpp:165] Memory required for data: 1154561500
I0821 08:27:21.633694 32551 layer_factory.hpp:77] Creating layer L2_b7_relu
I0821 08:27:21.633713 32551 net.cpp:100] Creating Layer L2_b7_relu
I0821 08:27:21.633726 32551 net.cpp:434] L2_b7_relu <- L2_b7_sum_eltwise_top
I0821 08:27:21.633754 32551 net.cpp:395] L2_b7_relu -> L2_b7_sum_eltwise_top (in-place)
I0821 08:27:21.633774 32551 net.cpp:150] Setting up L2_b7_relu
I0821 08:27:21.633788 32551 net.cpp:157] Top shape: 125 32 16 16 (1024000)
I0821 08:27:21.633797 32551 net.cpp:165] Memory required for data: 1158657500
I0821 08:27:21.633807 32551 layer_factory.hpp:77] Creating layer L2_b7_sum_eltwise_top_L2_b7_relu_0_split
I0821 08:27:21.633821 32551 net.cpp:100] Creating Layer L2_b7_sum_eltwise_top_L2_b7_relu_0_split
I0821 08:27:21.633831 32551 net.cpp:434] L2_b7_sum_eltwise_top_L2_b7_relu_0_split <- L2_b7_sum_eltwise_top
I0821 08:27:21.633846 32551 net.cpp:408] L2_b7_sum_eltwise_top_L2_b7_relu_0_split -> L2_b7_sum_eltwise_top_L2_b7_relu_0_split_0
I0821 08:27:21.633867 32551 net.cpp:408] L2_b7_sum_eltwise_top_L2_b7_relu_0_split -> L2_b7_sum_eltwise_top_L2_b7_relu_0_split_1
I0821 08:27:21.633962 32551 net.cpp:150] Setting up L2_b7_sum_eltwise_top_L2_b7_relu_0_split
I0821 08:27:21.633982 32551 net.cpp:157] Top shape: 125 32 16 16 (1024000)
I0821 08:27:21.633996 32551 net.cpp:157] Top shape: 125 32 16 16 (1024000)
I0821 08:27:21.634006 32551 net.cpp:165] Memory required for data: 1166849500
I0821 08:27:21.634016 32551 layer_factory.hpp:77] Creating layer L2_b8_cbr1_conv
I0821 08:27:21.634042 32551 net.cpp:100] Creating Layer L2_b8_cbr1_conv
I0821 08:27:21.634055 32551 net.cpp:434] L2_b8_cbr1_conv <- L2_b7_sum_eltwise_top_L2_b7_relu_0_split_0
I0821 08:27:21.634073 32551 net.cpp:408] L2_b8_cbr1_conv -> L2_b8_cbr1_conv_top
I0821 08:27:21.634594 32551 net.cpp:150] Setting up L2_b8_cbr1_conv
I0821 08:27:21.634614 32551 net.cpp:157] Top shape: 125 32 16 16 (1024000)
I0821 08:27:21.634624 32551 net.cpp:165] Memory required for data: 1170945500
I0821 08:27:21.634641 32551 layer_factory.hpp:77] Creating layer L2_b8_cbr1_bn
I0821 08:27:21.634665 32551 net.cpp:100] Creating Layer L2_b8_cbr1_bn
I0821 08:27:21.634678 32551 net.cpp:434] L2_b8_cbr1_bn <- L2_b8_cbr1_conv_top
I0821 08:27:21.634699 32551 net.cpp:408] L2_b8_cbr1_bn -> L2_b8_cbr1_bn_top
I0821 08:27:21.634995 32551 net.cpp:150] Setting up L2_b8_cbr1_bn
I0821 08:27:21.635015 32551 net.cpp:157] Top shape: 125 32 16 16 (1024000)
I0821 08:27:21.635025 32551 net.cpp:165] Memory required for data: 1175041500
I0821 08:27:21.635046 32551 layer_factory.hpp:77] Creating layer L2_b8_cbr1_scale
I0821 08:27:21.635063 32551 net.cpp:100] Creating Layer L2_b8_cbr1_scale
I0821 08:27:21.635074 32551 net.cpp:434] L2_b8_cbr1_scale <- L2_b8_cbr1_bn_top
I0821 08:27:21.635090 32551 net.cpp:395] L2_b8_cbr1_scale -> L2_b8_cbr1_bn_top (in-place)
I0821 08:27:21.635182 32551 layer_factory.hpp:77] Creating layer L2_b8_cbr1_scale
I0821 08:27:21.635372 32551 net.cpp:150] Setting up L2_b8_cbr1_scale
I0821 08:27:21.635396 32551 net.cpp:157] Top shape: 125 32 16 16 (1024000)
I0821 08:27:21.635406 32551 net.cpp:165] Memory required for data: 1179137500
I0821 08:27:21.635424 32551 layer_factory.hpp:77] Creating layer L2_b8_cbr1_relu
I0821 08:27:21.635439 32551 net.cpp:100] Creating Layer L2_b8_cbr1_relu
I0821 08:27:21.635450 32551 net.cpp:434] L2_b8_cbr1_relu <- L2_b8_cbr1_bn_top
I0821 08:27:21.635465 32551 net.cpp:395] L2_b8_cbr1_relu -> L2_b8_cbr1_bn_top (in-place)
I0821 08:27:21.635484 32551 net.cpp:150] Setting up L2_b8_cbr1_relu
I0821 08:27:21.635499 32551 net.cpp:157] Top shape: 125 32 16 16 (1024000)
I0821 08:27:21.635509 32551 net.cpp:165] Memory required for data: 1183233500
I0821 08:27:21.635519 32551 layer_factory.hpp:77] Creating layer L2_b8_cbr2_conv
I0821 08:27:21.635543 32551 net.cpp:100] Creating Layer L2_b8_cbr2_conv
I0821 08:27:21.635556 32551 net.cpp:434] L2_b8_cbr2_conv <- L2_b8_cbr1_bn_top
I0821 08:27:21.635578 32551 net.cpp:408] L2_b8_cbr2_conv -> L2_b8_cbr2_conv_top
I0821 08:27:21.636101 32551 net.cpp:150] Setting up L2_b8_cbr2_conv
I0821 08:27:21.636121 32551 net.cpp:157] Top shape: 125 32 16 16 (1024000)
I0821 08:27:21.636132 32551 net.cpp:165] Memory required for data: 1187329500
I0821 08:27:21.636149 32551 layer_factory.hpp:77] Creating layer L2_b8_cbr2_bn
I0821 08:27:21.636171 32551 net.cpp:100] Creating Layer L2_b8_cbr2_bn
I0821 08:27:21.636193 32551 net.cpp:434] L2_b8_cbr2_bn <- L2_b8_cbr2_conv_top
I0821 08:27:21.636215 32551 net.cpp:408] L2_b8_cbr2_bn -> L2_b8_cbr2_bn_top
I0821 08:27:21.636514 32551 net.cpp:150] Setting up L2_b8_cbr2_bn
I0821 08:27:21.636533 32551 net.cpp:157] Top shape: 125 32 16 16 (1024000)
I0821 08:27:21.636543 32551 net.cpp:165] Memory required for data: 1191425500
I0821 08:27:21.636564 32551 layer_factory.hpp:77] Creating layer L2_b8_cbr2_scale
I0821 08:27:21.636581 32551 net.cpp:100] Creating Layer L2_b8_cbr2_scale
I0821 08:27:21.636593 32551 net.cpp:434] L2_b8_cbr2_scale <- L2_b8_cbr2_bn_top
I0821 08:27:21.636610 32551 net.cpp:395] L2_b8_cbr2_scale -> L2_b8_cbr2_bn_top (in-place)
I0821 08:27:21.636703 32551 layer_factory.hpp:77] Creating layer L2_b8_cbr2_scale
I0821 08:27:21.636888 32551 net.cpp:150] Setting up L2_b8_cbr2_scale
I0821 08:27:21.636909 32551 net.cpp:157] Top shape: 125 32 16 16 (1024000)
I0821 08:27:21.636917 32551 net.cpp:165] Memory required for data: 1195521500
I0821 08:27:21.636935 32551 layer_factory.hpp:77] Creating layer L2_b8_sum_eltwise
I0821 08:27:21.636963 32551 net.cpp:100] Creating Layer L2_b8_sum_eltwise
I0821 08:27:21.636977 32551 net.cpp:434] L2_b8_sum_eltwise <- L2_b8_cbr2_bn_top
I0821 08:27:21.636991 32551 net.cpp:434] L2_b8_sum_eltwise <- L2_b7_sum_eltwise_top_L2_b7_relu_0_split_1
I0821 08:27:21.637007 32551 net.cpp:408] L2_b8_sum_eltwise -> L2_b8_sum_eltwise_top
I0821 08:27:21.637055 32551 net.cpp:150] Setting up L2_b8_sum_eltwise
I0821 08:27:21.637073 32551 net.cpp:157] Top shape: 125 32 16 16 (1024000)
I0821 08:27:21.637084 32551 net.cpp:165] Memory required for data: 1199617500
I0821 08:27:21.637094 32551 layer_factory.hpp:77] Creating layer L2_b8_relu
I0821 08:27:21.637112 32551 net.cpp:100] Creating Layer L2_b8_relu
I0821 08:27:21.637125 32551 net.cpp:434] L2_b8_relu <- L2_b8_sum_eltwise_top
I0821 08:27:21.637140 32551 net.cpp:395] L2_b8_relu -> L2_b8_sum_eltwise_top (in-place)
I0821 08:27:21.637158 32551 net.cpp:150] Setting up L2_b8_relu
I0821 08:27:21.637173 32551 net.cpp:157] Top shape: 125 32 16 16 (1024000)
I0821 08:27:21.637181 32551 net.cpp:165] Memory required for data: 1203713500
I0821 08:27:21.637192 32551 layer_factory.hpp:77] Creating layer L2_b8_sum_eltwise_top_L2_b8_relu_0_split
I0821 08:27:21.637205 32551 net.cpp:100] Creating Layer L2_b8_sum_eltwise_top_L2_b8_relu_0_split
I0821 08:27:21.637217 32551 net.cpp:434] L2_b8_sum_eltwise_top_L2_b8_relu_0_split <- L2_b8_sum_eltwise_top
I0821 08:27:21.637230 32551 net.cpp:408] L2_b8_sum_eltwise_top_L2_b8_relu_0_split -> L2_b8_sum_eltwise_top_L2_b8_relu_0_split_0
I0821 08:27:21.637269 32551 net.cpp:408] L2_b8_sum_eltwise_top_L2_b8_relu_0_split -> L2_b8_sum_eltwise_top_L2_b8_relu_0_split_1
I0821 08:27:21.637357 32551 net.cpp:150] Setting up L2_b8_sum_eltwise_top_L2_b8_relu_0_split
I0821 08:27:21.637377 32551 net.cpp:157] Top shape: 125 32 16 16 (1024000)
I0821 08:27:21.637390 32551 net.cpp:157] Top shape: 125 32 16 16 (1024000)
I0821 08:27:21.637400 32551 net.cpp:165] Memory required for data: 1211905500
I0821 08:27:21.637410 32551 layer_factory.hpp:77] Creating layer L2_b9_cbr1_conv
I0821 08:27:21.637441 32551 net.cpp:100] Creating Layer L2_b9_cbr1_conv
I0821 08:27:21.637456 32551 net.cpp:434] L2_b9_cbr1_conv <- L2_b8_sum_eltwise_top_L2_b8_relu_0_split_0
I0821 08:27:21.637480 32551 net.cpp:408] L2_b9_cbr1_conv -> L2_b9_cbr1_conv_top
I0821 08:27:21.638005 32551 net.cpp:150] Setting up L2_b9_cbr1_conv
I0821 08:27:21.638025 32551 net.cpp:157] Top shape: 125 32 16 16 (1024000)
I0821 08:27:21.638036 32551 net.cpp:165] Memory required for data: 1216001500
I0821 08:27:21.638053 32551 layer_factory.hpp:77] Creating layer L2_b9_cbr1_bn
I0821 08:27:21.638074 32551 net.cpp:100] Creating Layer L2_b9_cbr1_bn
I0821 08:27:21.638087 32551 net.cpp:434] L2_b9_cbr1_bn <- L2_b9_cbr1_conv_top
I0821 08:27:21.638108 32551 net.cpp:408] L2_b9_cbr1_bn -> L2_b9_cbr1_bn_top
I0821 08:27:21.638396 32551 net.cpp:150] Setting up L2_b9_cbr1_bn
I0821 08:27:21.638414 32551 net.cpp:157] Top shape: 125 32 16 16 (1024000)
I0821 08:27:21.638433 32551 net.cpp:165] Memory required for data: 1220097500
I0821 08:27:21.638456 32551 layer_factory.hpp:77] Creating layer L2_b9_cbr1_scale
I0821 08:27:21.638473 32551 net.cpp:100] Creating Layer L2_b9_cbr1_scale
I0821 08:27:21.638486 32551 net.cpp:434] L2_b9_cbr1_scale <- L2_b9_cbr1_bn_top
I0821 08:27:21.638500 32551 net.cpp:395] L2_b9_cbr1_scale -> L2_b9_cbr1_bn_top (in-place)
I0821 08:27:21.638599 32551 layer_factory.hpp:77] Creating layer L2_b9_cbr1_scale
I0821 08:27:21.638787 32551 net.cpp:150] Setting up L2_b9_cbr1_scale
I0821 08:27:21.638805 32551 net.cpp:157] Top shape: 125 32 16 16 (1024000)
I0821 08:27:21.638815 32551 net.cpp:165] Memory required for data: 1224193500
I0821 08:27:21.638833 32551 layer_factory.hpp:77] Creating layer L2_b9_cbr1_relu
I0821 08:27:21.638849 32551 net.cpp:100] Creating Layer L2_b9_cbr1_relu
I0821 08:27:21.638860 32551 net.cpp:434] L2_b9_cbr1_relu <- L2_b9_cbr1_bn_top
I0821 08:27:21.638880 32551 net.cpp:395] L2_b9_cbr1_relu -> L2_b9_cbr1_bn_top (in-place)
I0821 08:27:21.638900 32551 net.cpp:150] Setting up L2_b9_cbr1_relu
I0821 08:27:21.638913 32551 net.cpp:157] Top shape: 125 32 16 16 (1024000)
I0821 08:27:21.638922 32551 net.cpp:165] Memory required for data: 1228289500
I0821 08:27:21.638932 32551 layer_factory.hpp:77] Creating layer L2_b9_cbr2_conv
I0821 08:27:21.638965 32551 net.cpp:100] Creating Layer L2_b9_cbr2_conv
I0821 08:27:21.638979 32551 net.cpp:434] L2_b9_cbr2_conv <- L2_b9_cbr1_bn_top
I0821 08:27:21.638998 32551 net.cpp:408] L2_b9_cbr2_conv -> L2_b9_cbr2_conv_top
I0821 08:27:21.639513 32551 net.cpp:150] Setting up L2_b9_cbr2_conv
I0821 08:27:21.639533 32551 net.cpp:157] Top shape: 125 32 16 16 (1024000)
I0821 08:27:21.639542 32551 net.cpp:165] Memory required for data: 1232385500
I0821 08:27:21.639560 32551 layer_factory.hpp:77] Creating layer L2_b9_cbr2_bn
I0821 08:27:21.639582 32551 net.cpp:100] Creating Layer L2_b9_cbr2_bn
I0821 08:27:21.639595 32551 net.cpp:434] L2_b9_cbr2_bn <- L2_b9_cbr2_conv_top
I0821 08:27:21.639611 32551 net.cpp:408] L2_b9_cbr2_bn -> L2_b9_cbr2_bn_top
I0821 08:27:21.639906 32551 net.cpp:150] Setting up L2_b9_cbr2_bn
I0821 08:27:21.639928 32551 net.cpp:157] Top shape: 125 32 16 16 (1024000)
I0821 08:27:21.639945 32551 net.cpp:165] Memory required for data: 1236481500
I0821 08:27:21.640015 32551 layer_factory.hpp:77] Creating layer L2_b9_cbr2_scale
I0821 08:27:21.640041 32551 net.cpp:100] Creating Layer L2_b9_cbr2_scale
I0821 08:27:21.640055 32551 net.cpp:434] L2_b9_cbr2_scale <- L2_b9_cbr2_bn_top
I0821 08:27:21.640071 32551 net.cpp:395] L2_b9_cbr2_scale -> L2_b9_cbr2_bn_top (in-place)
I0821 08:27:21.640166 32551 layer_factory.hpp:77] Creating layer L2_b9_cbr2_scale
I0821 08:27:21.640350 32551 net.cpp:150] Setting up L2_b9_cbr2_scale
I0821 08:27:21.640369 32551 net.cpp:157] Top shape: 125 32 16 16 (1024000)
I0821 08:27:21.640378 32551 net.cpp:165] Memory required for data: 1240577500
I0821 08:27:21.640396 32551 layer_factory.hpp:77] Creating layer L2_b9_sum_eltwise
I0821 08:27:21.640413 32551 net.cpp:100] Creating Layer L2_b9_sum_eltwise
I0821 08:27:21.640425 32551 net.cpp:434] L2_b9_sum_eltwise <- L2_b9_cbr2_bn_top
I0821 08:27:21.640439 32551 net.cpp:434] L2_b9_sum_eltwise <- L2_b8_sum_eltwise_top_L2_b8_relu_0_split_1
I0821 08:27:21.640463 32551 net.cpp:408] L2_b9_sum_eltwise -> L2_b9_sum_eltwise_top
I0821 08:27:21.640511 32551 net.cpp:150] Setting up L2_b9_sum_eltwise
I0821 08:27:21.640528 32551 net.cpp:157] Top shape: 125 32 16 16 (1024000)
I0821 08:27:21.640537 32551 net.cpp:165] Memory required for data: 1244673500
I0821 08:27:21.640547 32551 layer_factory.hpp:77] Creating layer L2_b9_relu
I0821 08:27:21.640566 32551 net.cpp:100] Creating Layer L2_b9_relu
I0821 08:27:21.640578 32551 net.cpp:434] L2_b9_relu <- L2_b9_sum_eltwise_top
I0821 08:27:21.640594 32551 net.cpp:395] L2_b9_relu -> L2_b9_sum_eltwise_top (in-place)
I0821 08:27:21.640612 32551 net.cpp:150] Setting up L2_b9_relu
I0821 08:27:21.640627 32551 net.cpp:157] Top shape: 125 32 16 16 (1024000)
I0821 08:27:21.640636 32551 net.cpp:165] Memory required for data: 1248769500
I0821 08:27:21.640653 32551 layer_factory.hpp:77] Creating layer L2_b9_sum_eltwise_top_L2_b9_relu_0_split
I0821 08:27:21.640674 32551 net.cpp:100] Creating Layer L2_b9_sum_eltwise_top_L2_b9_relu_0_split
I0821 08:27:21.640686 32551 net.cpp:434] L2_b9_sum_eltwise_top_L2_b9_relu_0_split <- L2_b9_sum_eltwise_top
I0821 08:27:21.640703 32551 net.cpp:408] L2_b9_sum_eltwise_top_L2_b9_relu_0_split -> L2_b9_sum_eltwise_top_L2_b9_relu_0_split_0
I0821 08:27:21.640723 32551 net.cpp:408] L2_b9_sum_eltwise_top_L2_b9_relu_0_split -> L2_b9_sum_eltwise_top_L2_b9_relu_0_split_1
I0821 08:27:21.640812 32551 net.cpp:150] Setting up L2_b9_sum_eltwise_top_L2_b9_relu_0_split
I0821 08:27:21.640836 32551 net.cpp:157] Top shape: 125 32 16 16 (1024000)
I0821 08:27:21.640851 32551 net.cpp:157] Top shape: 125 32 16 16 (1024000)
I0821 08:27:21.640861 32551 net.cpp:165] Memory required for data: 1256961500
I0821 08:27:21.640872 32551 layer_factory.hpp:77] Creating layer L3_b1_cbr1_conv
I0821 08:27:21.640892 32551 net.cpp:100] Creating Layer L3_b1_cbr1_conv
I0821 08:27:21.640904 32551 net.cpp:434] L3_b1_cbr1_conv <- L2_b9_sum_eltwise_top_L2_b9_relu_0_split_0
I0821 08:27:21.640924 32551 net.cpp:408] L3_b1_cbr1_conv -> L3_b1_cbr1_conv_top
I0821 08:27:21.641453 32551 net.cpp:150] Setting up L3_b1_cbr1_conv
I0821 08:27:21.641474 32551 net.cpp:157] Top shape: 125 32 8 8 (256000)
I0821 08:27:21.641482 32551 net.cpp:165] Memory required for data: 1257985500
I0821 08:27:21.641500 32551 layer_factory.hpp:77] Creating layer L3_b1_cbr1_bn
I0821 08:27:21.641522 32551 net.cpp:100] Creating Layer L3_b1_cbr1_bn
I0821 08:27:21.641535 32551 net.cpp:434] L3_b1_cbr1_bn <- L3_b1_cbr1_conv_top
I0821 08:27:21.641551 32551 net.cpp:408] L3_b1_cbr1_bn -> L3_b1_cbr1_bn_top
I0821 08:27:21.641854 32551 net.cpp:150] Setting up L3_b1_cbr1_bn
I0821 08:27:21.641872 32551 net.cpp:157] Top shape: 125 32 8 8 (256000)
I0821 08:27:21.641882 32551 net.cpp:165] Memory required for data: 1259009500
I0821 08:27:21.641904 32551 layer_factory.hpp:77] Creating layer L3_b1_cbr1_scale
I0821 08:27:21.641929 32551 net.cpp:100] Creating Layer L3_b1_cbr1_scale
I0821 08:27:21.641948 32551 net.cpp:434] L3_b1_cbr1_scale <- L3_b1_cbr1_bn_top
I0821 08:27:21.641971 32551 net.cpp:395] L3_b1_cbr1_scale -> L3_b1_cbr1_bn_top (in-place)
I0821 08:27:21.642066 32551 layer_factory.hpp:77] Creating layer L3_b1_cbr1_scale
I0821 08:27:21.642262 32551 net.cpp:150] Setting up L3_b1_cbr1_scale
I0821 08:27:21.642282 32551 net.cpp:157] Top shape: 125 32 8 8 (256000)
I0821 08:27:21.642290 32551 net.cpp:165] Memory required for data: 1260033500
I0821 08:27:21.642309 32551 layer_factory.hpp:77] Creating layer L3_b1_cbr1_relu
I0821 08:27:21.642325 32551 net.cpp:100] Creating Layer L3_b1_cbr1_relu
I0821 08:27:21.642338 32551 net.cpp:434] L3_b1_cbr1_relu <- L3_b1_cbr1_bn_top
I0821 08:27:21.642354 32551 net.cpp:395] L3_b1_cbr1_relu -> L3_b1_cbr1_bn_top (in-place)
I0821 08:27:21.642375 32551 net.cpp:150] Setting up L3_b1_cbr1_relu
I0821 08:27:21.642390 32551 net.cpp:157] Top shape: 125 32 8 8 (256000)
I0821 08:27:21.642398 32551 net.cpp:165] Memory required for data: 1261057500
I0821 08:27:21.642410 32551 layer_factory.hpp:77] Creating layer L3_b1_cbr2_conv
I0821 08:27:21.642429 32551 net.cpp:100] Creating Layer L3_b1_cbr2_conv
I0821 08:27:21.642441 32551 net.cpp:434] L3_b1_cbr2_conv <- L3_b1_cbr1_bn_top
I0821 08:27:21.642462 32551 net.cpp:408] L3_b1_cbr2_conv -> L3_b1_cbr2_conv_top
I0821 08:27:21.642992 32551 net.cpp:150] Setting up L3_b1_cbr2_conv
I0821 08:27:21.643013 32551 net.cpp:157] Top shape: 125 32 8 8 (256000)
I0821 08:27:21.643023 32551 net.cpp:165] Memory required for data: 1262081500
I0821 08:27:21.643040 32551 layer_factory.hpp:77] Creating layer L3_b1_cbr2_bn
I0821 08:27:21.643061 32551 net.cpp:100] Creating Layer L3_b1_cbr2_bn
I0821 08:27:21.643074 32551 net.cpp:434] L3_b1_cbr2_bn <- L3_b1_cbr2_conv_top
I0821 08:27:21.643090 32551 net.cpp:408] L3_b1_cbr2_bn -> L3_b1_cbr2_bn_top
I0821 08:27:21.643391 32551 net.cpp:150] Setting up L3_b1_cbr2_bn
I0821 08:27:21.643410 32551 net.cpp:157] Top shape: 125 32 8 8 (256000)
I0821 08:27:21.643427 32551 net.cpp:165] Memory required for data: 1263105500
I0821 08:27:21.643450 32551 layer_factory.hpp:77] Creating layer L3_b1_cbr2_scale
I0821 08:27:21.643467 32551 net.cpp:100] Creating Layer L3_b1_cbr2_scale
I0821 08:27:21.643481 32551 net.cpp:434] L3_b1_cbr2_scale <- L3_b1_cbr2_bn_top
I0821 08:27:21.643494 32551 net.cpp:395] L3_b1_cbr2_scale -> L3_b1_cbr2_bn_top (in-place)
I0821 08:27:21.643594 32551 layer_factory.hpp:77] Creating layer L3_b1_cbr2_scale
I0821 08:27:21.643788 32551 net.cpp:150] Setting up L3_b1_cbr2_scale
I0821 08:27:21.643807 32551 net.cpp:157] Top shape: 125 32 8 8 (256000)
I0821 08:27:21.643816 32551 net.cpp:165] Memory required for data: 1264129500
I0821 08:27:21.643836 32551 layer_factory.hpp:77] Creating layer L3_b1_pool
I0821 08:27:21.643851 32551 net.cpp:100] Creating Layer L3_b1_pool
I0821 08:27:21.643863 32551 net.cpp:434] L3_b1_pool <- L2_b9_sum_eltwise_top_L2_b9_relu_0_split_1
I0821 08:27:21.643884 32551 net.cpp:408] L3_b1_pool -> L3_b1_pool
I0821 08:27:21.643949 32551 net.cpp:150] Setting up L3_b1_pool
I0821 08:27:21.643980 32551 net.cpp:157] Top shape: 125 32 8 8 (256000)
I0821 08:27:21.643990 32551 net.cpp:165] Memory required for data: 1265153500
I0821 08:27:21.644001 32551 layer_factory.hpp:77] Creating layer L3_b1_sum_eltwise
I0821 08:27:21.644017 32551 net.cpp:100] Creating Layer L3_b1_sum_eltwise
I0821 08:27:21.644029 32551 net.cpp:434] L3_b1_sum_eltwise <- L3_b1_cbr2_bn_top
I0821 08:27:21.644042 32551 net.cpp:434] L3_b1_sum_eltwise <- L3_b1_pool
I0821 08:27:21.644057 32551 net.cpp:408] L3_b1_sum_eltwise -> L3_b1_sum_eltwise_top
I0821 08:27:21.644117 32551 net.cpp:150] Setting up L3_b1_sum_eltwise
I0821 08:27:21.644135 32551 net.cpp:157] Top shape: 125 32 8 8 (256000)
I0821 08:27:21.644145 32551 net.cpp:165] Memory required for data: 1266177500
I0821 08:27:21.644155 32551 layer_factory.hpp:77] Creating layer L3_b1_relu
I0821 08:27:21.644170 32551 net.cpp:100] Creating Layer L3_b1_relu
I0821 08:27:21.644182 32551 net.cpp:434] L3_b1_relu <- L3_b1_sum_eltwise_top
I0821 08:27:21.644196 32551 net.cpp:395] L3_b1_relu -> L3_b1_sum_eltwise_top (in-place)
I0821 08:27:21.644214 32551 net.cpp:150] Setting up L3_b1_relu
I0821 08:27:21.644229 32551 net.cpp:157] Top shape: 125 32 8 8 (256000)
I0821 08:27:21.644238 32551 net.cpp:165] Memory required for data: 1267201500
I0821 08:27:21.644248 32551 layer_factory.hpp:77] Creating layer L3_b1_zeros
I0821 08:27:21.644269 32551 net.cpp:100] Creating Layer L3_b1_zeros
I0821 08:27:21.644284 32551 net.cpp:408] L3_b1_zeros -> L3_b1_zeros
I0821 08:27:21.645547 32551 net.cpp:150] Setting up L3_b1_zeros
I0821 08:27:21.645575 32551 net.cpp:157] Top shape: 125 32 8 8 (256000)
I0821 08:27:21.645586 32551 net.cpp:165] Memory required for data: 1268225500
I0821 08:27:21.645596 32551 layer_factory.hpp:77] Creating layer L3_b1_concat0
I0821 08:27:21.645612 32551 net.cpp:100] Creating Layer L3_b1_concat0
I0821 08:27:21.645624 32551 net.cpp:434] L3_b1_concat0 <- L3_b1_sum_eltwise_top
I0821 08:27:21.645638 32551 net.cpp:434] L3_b1_concat0 <- L3_b1_zeros
I0821 08:27:21.645654 32551 net.cpp:408] L3_b1_concat0 -> L3_b1_concat0
I0821 08:27:21.645717 32551 net.cpp:150] Setting up L3_b1_concat0
I0821 08:27:21.645740 32551 net.cpp:157] Top shape: 125 64 8 8 (512000)
I0821 08:27:21.645750 32551 net.cpp:165] Memory required for data: 1270273500
I0821 08:27:21.645759 32551 layer_factory.hpp:77] Creating layer L3_b1_concat0_L3_b1_concat0_0_split
I0821 08:27:21.645778 32551 net.cpp:100] Creating Layer L3_b1_concat0_L3_b1_concat0_0_split
I0821 08:27:21.645789 32551 net.cpp:434] L3_b1_concat0_L3_b1_concat0_0_split <- L3_b1_concat0
I0821 08:27:21.645805 32551 net.cpp:408] L3_b1_concat0_L3_b1_concat0_0_split -> L3_b1_concat0_L3_b1_concat0_0_split_0
I0821 08:27:21.645825 32551 net.cpp:408] L3_b1_concat0_L3_b1_concat0_0_split -> L3_b1_concat0_L3_b1_concat0_0_split_1
I0821 08:27:21.645917 32551 net.cpp:150] Setting up L3_b1_concat0_L3_b1_concat0_0_split
I0821 08:27:21.645938 32551 net.cpp:157] Top shape: 125 64 8 8 (512000)
I0821 08:27:21.645959 32551 net.cpp:157] Top shape: 125 64 8 8 (512000)
I0821 08:27:21.645979 32551 net.cpp:165] Memory required for data: 1274369500
I0821 08:27:21.645990 32551 layer_factory.hpp:77] Creating layer L3_b2_cbr1_conv
I0821 08:27:21.646015 32551 net.cpp:100] Creating Layer L3_b2_cbr1_conv
I0821 08:27:21.646029 32551 net.cpp:434] L3_b2_cbr1_conv <- L3_b1_concat0_L3_b1_concat0_0_split_0
I0821 08:27:21.646049 32551 net.cpp:408] L3_b2_cbr1_conv -> L3_b2_cbr1_conv_top
I0821 08:27:21.648105 32551 net.cpp:150] Setting up L3_b2_cbr1_conv
I0821 08:27:21.648133 32551 net.cpp:157] Top shape: 125 64 8 8 (512000)
I0821 08:27:21.648142 32551 net.cpp:165] Memory required for data: 1276417500
I0821 08:27:21.648161 32551 layer_factory.hpp:77] Creating layer L3_b2_cbr1_bn
I0821 08:27:21.648180 32551 net.cpp:100] Creating Layer L3_b2_cbr1_bn
I0821 08:27:21.648191 32551 net.cpp:434] L3_b2_cbr1_bn <- L3_b2_cbr1_conv_top
I0821 08:27:21.648213 32551 net.cpp:408] L3_b2_cbr1_bn -> L3_b2_cbr1_bn_top
I0821 08:27:21.648516 32551 net.cpp:150] Setting up L3_b2_cbr1_bn
I0821 08:27:21.648540 32551 net.cpp:157] Top shape: 125 64 8 8 (512000)
I0821 08:27:21.648550 32551 net.cpp:165] Memory required for data: 1278465500
I0821 08:27:21.648572 32551 layer_factory.hpp:77] Creating layer L3_b2_cbr1_scale
I0821 08:27:21.648589 32551 net.cpp:100] Creating Layer L3_b2_cbr1_scale
I0821 08:27:21.648602 32551 net.cpp:434] L3_b2_cbr1_scale <- L3_b2_cbr1_bn_top
I0821 08:27:21.648618 32551 net.cpp:395] L3_b2_cbr1_scale -> L3_b2_cbr1_bn_top (in-place)
I0821 08:27:21.648707 32551 layer_factory.hpp:77] Creating layer L3_b2_cbr1_scale
I0821 08:27:21.648901 32551 net.cpp:150] Setting up L3_b2_cbr1_scale
I0821 08:27:21.648921 32551 net.cpp:157] Top shape: 125 64 8 8 (512000)
I0821 08:27:21.648931 32551 net.cpp:165] Memory required for data: 1280513500
I0821 08:27:21.648957 32551 layer_factory.hpp:77] Creating layer L3_b2_cbr1_relu
I0821 08:27:21.648972 32551 net.cpp:100] Creating Layer L3_b2_cbr1_relu
I0821 08:27:21.648984 32551 net.cpp:434] L3_b2_cbr1_relu <- L3_b2_cbr1_bn_top
I0821 08:27:21.649004 32551 net.cpp:395] L3_b2_cbr1_relu -> L3_b2_cbr1_bn_top (in-place)
I0821 08:27:21.649024 32551 net.cpp:150] Setting up L3_b2_cbr1_relu
I0821 08:27:21.649039 32551 net.cpp:157] Top shape: 125 64 8 8 (512000)
I0821 08:27:21.649049 32551 net.cpp:165] Memory required for data: 1282561500
I0821 08:27:21.649058 32551 layer_factory.hpp:77] Creating layer L3_b2_cbr2_conv
I0821 08:27:21.649085 32551 net.cpp:100] Creating Layer L3_b2_cbr2_conv
I0821 08:27:21.649097 32551 net.cpp:434] L3_b2_cbr2_conv <- L3_b2_cbr1_bn_top
I0821 08:27:21.649114 32551 net.cpp:408] L3_b2_cbr2_conv -> L3_b2_cbr2_conv_top
I0821 08:27:21.650192 32551 net.cpp:150] Setting up L3_b2_cbr2_conv
I0821 08:27:21.650213 32551 net.cpp:157] Top shape: 125 64 8 8 (512000)
I0821 08:27:21.650223 32551 net.cpp:165] Memory required for data: 1284609500
I0821 08:27:21.650241 32551 layer_factory.hpp:77] Creating layer L3_b2_cbr2_bn
I0821 08:27:21.650264 32551 net.cpp:100] Creating Layer L3_b2_cbr2_bn
I0821 08:27:21.650275 32551 net.cpp:434] L3_b2_cbr2_bn <- L3_b2_cbr2_conv_top
I0821 08:27:21.650296 32551 net.cpp:408] L3_b2_cbr2_bn -> L3_b2_cbr2_bn_top
I0821 08:27:21.650593 32551 net.cpp:150] Setting up L3_b2_cbr2_bn
I0821 08:27:21.650612 32551 net.cpp:157] Top shape: 125 64 8 8 (512000)
I0821 08:27:21.650622 32551 net.cpp:165] Memory required for data: 1286657500
I0821 08:27:21.650645 32551 layer_factory.hpp:77] Creating layer L3_b2_cbr2_scale
I0821 08:27:21.650661 32551 net.cpp:100] Creating Layer L3_b2_cbr2_scale
I0821 08:27:21.650673 32551 net.cpp:434] L3_b2_cbr2_scale <- L3_b2_cbr2_bn_top
I0821 08:27:21.650693 32551 net.cpp:395] L3_b2_cbr2_scale -> L3_b2_cbr2_bn_top (in-place)
I0821 08:27:21.650787 32551 layer_factory.hpp:77] Creating layer L3_b2_cbr2_scale
I0821 08:27:21.650991 32551 net.cpp:150] Setting up L3_b2_cbr2_scale
I0821 08:27:21.651010 32551 net.cpp:157] Top shape: 125 64 8 8 (512000)
I0821 08:27:21.651021 32551 net.cpp:165] Memory required for data: 1288705500
I0821 08:27:21.651038 32551 layer_factory.hpp:77] Creating layer L3_b2_sum_eltwise
I0821 08:27:21.651067 32551 net.cpp:100] Creating Layer L3_b2_sum_eltwise
I0821 08:27:21.651079 32551 net.cpp:434] L3_b2_sum_eltwise <- L3_b2_cbr2_bn_top
I0821 08:27:21.651093 32551 net.cpp:434] L3_b2_sum_eltwise <- L3_b1_concat0_L3_b1_concat0_0_split_1
I0821 08:27:21.651114 32551 net.cpp:408] L3_b2_sum_eltwise -> L3_b2_sum_eltwise_top
I0821 08:27:21.651177 32551 net.cpp:150] Setting up L3_b2_sum_eltwise
I0821 08:27:21.651199 32551 net.cpp:157] Top shape: 125 64 8 8 (512000)
I0821 08:27:21.651209 32551 net.cpp:165] Memory required for data: 1290753500
I0821 08:27:21.651221 32551 layer_factory.hpp:77] Creating layer L3_b2_relu
I0821 08:27:21.651235 32551 net.cpp:100] Creating Layer L3_b2_relu
I0821 08:27:21.651247 32551 net.cpp:434] L3_b2_relu <- L3_b2_sum_eltwise_top
I0821 08:27:21.651262 32551 net.cpp:395] L3_b2_relu -> L3_b2_sum_eltwise_top (in-place)
I0821 08:27:21.651280 32551 net.cpp:150] Setting up L3_b2_relu
I0821 08:27:21.651294 32551 net.cpp:157] Top shape: 125 64 8 8 (512000)
I0821 08:27:21.651304 32551 net.cpp:165] Memory required for data: 1292801500
I0821 08:27:21.651314 32551 layer_factory.hpp:77] Creating layer L3_b2_sum_eltwise_top_L3_b2_relu_0_split
I0821 08:27:21.651332 32551 net.cpp:100] Creating Layer L3_b2_sum_eltwise_top_L3_b2_relu_0_split
I0821 08:27:21.651345 32551 net.cpp:434] L3_b2_sum_eltwise_top_L3_b2_relu_0_split <- L3_b2_sum_eltwise_top
I0821 08:27:21.651360 32551 net.cpp:408] L3_b2_sum_eltwise_top_L3_b2_relu_0_split -> L3_b2_sum_eltwise_top_L3_b2_relu_0_split_0
I0821 08:27:21.651381 32551 net.cpp:408] L3_b2_sum_eltwise_top_L3_b2_relu_0_split -> L3_b2_sum_eltwise_top_L3_b2_relu_0_split_1
I0821 08:27:21.651470 32551 net.cpp:150] Setting up L3_b2_sum_eltwise_top_L3_b2_relu_0_split
I0821 08:27:21.651489 32551 net.cpp:157] Top shape: 125 64 8 8 (512000)
I0821 08:27:21.651501 32551 net.cpp:157] Top shape: 125 64 8 8 (512000)
I0821 08:27:21.651511 32551 net.cpp:165] Memory required for data: 1296897500
I0821 08:27:21.651521 32551 layer_factory.hpp:77] Creating layer L3_b3_cbr1_conv
I0821 08:27:21.651542 32551 net.cpp:100] Creating Layer L3_b3_cbr1_conv
I0821 08:27:21.651556 32551 net.cpp:434] L3_b3_cbr1_conv <- L3_b2_sum_eltwise_top_L3_b2_relu_0_split_0
I0821 08:27:21.651578 32551 net.cpp:408] L3_b3_cbr1_conv -> L3_b3_cbr1_conv_top
I0821 08:27:21.652668 32551 net.cpp:150] Setting up L3_b3_cbr1_conv
I0821 08:27:21.652688 32551 net.cpp:157] Top shape: 125 64 8 8 (512000)
I0821 08:27:21.652698 32551 net.cpp:165] Memory required for data: 1298945500
I0821 08:27:21.652716 32551 layer_factory.hpp:77] Creating layer L3_b3_cbr1_bn
I0821 08:27:21.652732 32551 net.cpp:100] Creating Layer L3_b3_cbr1_bn
I0821 08:27:21.652745 32551 net.cpp:434] L3_b3_cbr1_bn <- L3_b3_cbr1_conv_top
I0821 08:27:21.652766 32551 net.cpp:408] L3_b3_cbr1_bn -> L3_b3_cbr1_bn_top
I0821 08:27:21.653077 32551 net.cpp:150] Setting up L3_b3_cbr1_bn
I0821 08:27:21.653102 32551 net.cpp:157] Top shape: 125 64 8 8 (512000)
I0821 08:27:21.653115 32551 net.cpp:165] Memory required for data: 1300993500
I0821 08:27:21.653136 32551 layer_factory.hpp:77] Creating layer L3_b3_cbr1_scale
I0821 08:27:21.653152 32551 net.cpp:100] Creating Layer L3_b3_cbr1_scale
I0821 08:27:21.653164 32551 net.cpp:434] L3_b3_cbr1_scale <- L3_b3_cbr1_bn_top
I0821 08:27:21.653180 32551 net.cpp:395] L3_b3_cbr1_scale -> L3_b3_cbr1_bn_top (in-place)
I0821 08:27:21.653270 32551 layer_factory.hpp:77] Creating layer L3_b3_cbr1_scale
I0821 08:27:21.653463 32551 net.cpp:150] Setting up L3_b3_cbr1_scale
I0821 08:27:21.653483 32551 net.cpp:157] Top shape: 125 64 8 8 (512000)
I0821 08:27:21.653492 32551 net.cpp:165] Memory required for data: 1303041500
I0821 08:27:21.653511 32551 layer_factory.hpp:77] Creating layer L3_b3_cbr1_relu
I0821 08:27:21.653530 32551 net.cpp:100] Creating Layer L3_b3_cbr1_relu
I0821 08:27:21.653542 32551 net.cpp:434] L3_b3_cbr1_relu <- L3_b3_cbr1_bn_top
I0821 08:27:21.653556 32551 net.cpp:395] L3_b3_cbr1_relu -> L3_b3_cbr1_bn_top (in-place)
I0821 08:27:21.653575 32551 net.cpp:150] Setting up L3_b3_cbr1_relu
I0821 08:27:21.653589 32551 net.cpp:157] Top shape: 125 64 8 8 (512000)
I0821 08:27:21.653607 32551 net.cpp:165] Memory required for data: 1305089500
I0821 08:27:21.653620 32551 layer_factory.hpp:77] Creating layer L3_b3_cbr2_conv
I0821 08:27:21.653643 32551 net.cpp:100] Creating Layer L3_b3_cbr2_conv
I0821 08:27:21.653657 32551 net.cpp:434] L3_b3_cbr2_conv <- L3_b3_cbr1_bn_top
I0821 08:27:21.653674 32551 net.cpp:408] L3_b3_cbr2_conv -> L3_b3_cbr2_conv_top
I0821 08:27:21.654762 32551 net.cpp:150] Setting up L3_b3_cbr2_conv
I0821 08:27:21.654783 32551 net.cpp:157] Top shape: 125 64 8 8 (512000)
I0821 08:27:21.654793 32551 net.cpp:165] Memory required for data: 1307137500
I0821 08:27:21.654810 32551 layer_factory.hpp:77] Creating layer L3_b3_cbr2_bn
I0821 08:27:21.654831 32551 net.cpp:100] Creating Layer L3_b3_cbr2_bn
I0821 08:27:21.654844 32551 net.cpp:434] L3_b3_cbr2_bn <- L3_b3_cbr2_conv_top
I0821 08:27:21.654868 32551 net.cpp:408] L3_b3_cbr2_bn -> L3_b3_cbr2_bn_top
I0821 08:27:21.655172 32551 net.cpp:150] Setting up L3_b3_cbr2_bn
I0821 08:27:21.655191 32551 net.cpp:157] Top shape: 125 64 8 8 (512000)
I0821 08:27:21.655200 32551 net.cpp:165] Memory required for data: 1309185500
I0821 08:27:21.655222 32551 layer_factory.hpp:77] Creating layer L3_b3_cbr2_scale
I0821 08:27:21.655239 32551 net.cpp:100] Creating Layer L3_b3_cbr2_scale
I0821 08:27:21.655251 32551 net.cpp:434] L3_b3_cbr2_scale <- L3_b3_cbr2_bn_top
I0821 08:27:21.655272 32551 net.cpp:395] L3_b3_cbr2_scale -> L3_b3_cbr2_bn_top (in-place)
I0821 08:27:21.655362 32551 layer_factory.hpp:77] Creating layer L3_b3_cbr2_scale
I0821 08:27:21.655555 32551 net.cpp:150] Setting up L3_b3_cbr2_scale
I0821 08:27:21.655575 32551 net.cpp:157] Top shape: 125 64 8 8 (512000)
I0821 08:27:21.655583 32551 net.cpp:165] Memory required for data: 1311233500
I0821 08:27:21.655602 32551 layer_factory.hpp:77] Creating layer L3_b3_sum_eltwise
I0821 08:27:21.655619 32551 net.cpp:100] Creating Layer L3_b3_sum_eltwise
I0821 08:27:21.655632 32551 net.cpp:434] L3_b3_sum_eltwise <- L3_b3_cbr2_bn_top
I0821 08:27:21.655644 32551 net.cpp:434] L3_b3_sum_eltwise <- L3_b2_sum_eltwise_top_L3_b2_relu_0_split_1
I0821 08:27:21.655666 32551 net.cpp:408] L3_b3_sum_eltwise -> L3_b3_sum_eltwise_top
I0821 08:27:21.655727 32551 net.cpp:150] Setting up L3_b3_sum_eltwise
I0821 08:27:21.655746 32551 net.cpp:157] Top shape: 125 64 8 8 (512000)
I0821 08:27:21.655756 32551 net.cpp:165] Memory required for data: 1313281500
I0821 08:27:21.655766 32551 layer_factory.hpp:77] Creating layer L3_b3_relu
I0821 08:27:21.655781 32551 net.cpp:100] Creating Layer L3_b3_relu
I0821 08:27:21.655792 32551 net.cpp:434] L3_b3_relu <- L3_b3_sum_eltwise_top
I0821 08:27:21.655812 32551 net.cpp:395] L3_b3_relu -> L3_b3_sum_eltwise_top (in-place)
I0821 08:27:21.655830 32551 net.cpp:150] Setting up L3_b3_relu
I0821 08:27:21.655846 32551 net.cpp:157] Top shape: 125 64 8 8 (512000)
I0821 08:27:21.655854 32551 net.cpp:165] Memory required for data: 1315329500
I0821 08:27:21.655864 32551 layer_factory.hpp:77] Creating layer L3_b3_sum_eltwise_top_L3_b3_relu_0_split
I0821 08:27:21.655879 32551 net.cpp:100] Creating Layer L3_b3_sum_eltwise_top_L3_b3_relu_0_split
I0821 08:27:21.655890 32551 net.cpp:434] L3_b3_sum_eltwise_top_L3_b3_relu_0_split <- L3_b3_sum_eltwise_top
I0821 08:27:21.655905 32551 net.cpp:408] L3_b3_sum_eltwise_top_L3_b3_relu_0_split -> L3_b3_sum_eltwise_top_L3_b3_relu_0_split_0
I0821 08:27:21.655925 32551 net.cpp:408] L3_b3_sum_eltwise_top_L3_b3_relu_0_split -> L3_b3_sum_eltwise_top_L3_b3_relu_0_split_1
I0821 08:27:21.656010 32551 net.cpp:150] Setting up L3_b3_sum_eltwise_top_L3_b3_relu_0_split
I0821 08:27:21.656029 32551 net.cpp:157] Top shape: 125 64 8 8 (512000)
I0821 08:27:21.656044 32551 net.cpp:157] Top shape: 125 64 8 8 (512000)
I0821 08:27:21.656052 32551 net.cpp:165] Memory required for data: 1319425500
I0821 08:27:21.656064 32551 layer_factory.hpp:77] Creating layer L3_b4_cbr1_conv
I0821 08:27:21.656083 32551 net.cpp:100] Creating Layer L3_b4_cbr1_conv
I0821 08:27:21.656096 32551 net.cpp:434] L3_b4_cbr1_conv <- L3_b3_sum_eltwise_top_L3_b3_relu_0_split_0
I0821 08:27:21.656121 32551 net.cpp:408] L3_b4_cbr1_conv -> L3_b4_cbr1_conv_top
I0821 08:27:21.657222 32551 net.cpp:150] Setting up L3_b4_cbr1_conv
I0821 08:27:21.657243 32551 net.cpp:157] Top shape: 125 64 8 8 (512000)
I0821 08:27:21.657253 32551 net.cpp:165] Memory required for data: 1321473500
I0821 08:27:21.657269 32551 layer_factory.hpp:77] Creating layer L3_b4_cbr1_bn
I0821 08:27:21.657287 32551 net.cpp:100] Creating Layer L3_b4_cbr1_bn
I0821 08:27:21.657299 32551 net.cpp:434] L3_b4_cbr1_bn <- L3_b4_cbr1_conv_top
I0821 08:27:21.657320 32551 net.cpp:408] L3_b4_cbr1_bn -> L3_b4_cbr1_bn_top
I0821 08:27:21.657634 32551 net.cpp:150] Setting up L3_b4_cbr1_bn
I0821 08:27:21.657654 32551 net.cpp:157] Top shape: 125 64 8 8 (512000)
I0821 08:27:21.657662 32551 net.cpp:165] Memory required for data: 1323521500
I0821 08:27:21.657685 32551 layer_factory.hpp:77] Creating layer L3_b4_cbr1_scale
I0821 08:27:21.657701 32551 net.cpp:100] Creating Layer L3_b4_cbr1_scale
I0821 08:27:21.657713 32551 net.cpp:434] L3_b4_cbr1_scale <- L3_b4_cbr1_bn_top
I0821 08:27:21.657728 32551 net.cpp:395] L3_b4_cbr1_scale -> L3_b4_cbr1_bn_top (in-place)
I0821 08:27:21.657827 32551 layer_factory.hpp:77] Creating layer L3_b4_cbr1_scale
I0821 08:27:21.658041 32551 net.cpp:150] Setting up L3_b4_cbr1_scale
I0821 08:27:21.658061 32551 net.cpp:157] Top shape: 125 64 8 8 (512000)
I0821 08:27:21.658071 32551 net.cpp:165] Memory required for data: 1325569500
I0821 08:27:21.658090 32551 layer_factory.hpp:77] Creating layer L3_b4_cbr1_relu
I0821 08:27:21.658110 32551 net.cpp:100] Creating Layer L3_b4_cbr1_relu
I0821 08:27:21.658123 32551 net.cpp:434] L3_b4_cbr1_relu <- L3_b4_cbr1_bn_top
I0821 08:27:21.658138 32551 net.cpp:395] L3_b4_cbr1_relu -> L3_b4_cbr1_bn_top (in-place)
I0821 08:27:21.658156 32551 net.cpp:150] Setting up L3_b4_cbr1_relu
I0821 08:27:21.658170 32551 net.cpp:157] Top shape: 125 64 8 8 (512000)
I0821 08:27:21.658180 32551 net.cpp:165] Memory required for data: 1327617500
I0821 08:27:21.658190 32551 layer_factory.hpp:77] Creating layer L3_b4_cbr2_conv
I0821 08:27:21.658215 32551 net.cpp:100] Creating Layer L3_b4_cbr2_conv
I0821 08:27:21.658228 32551 net.cpp:434] L3_b4_cbr2_conv <- L3_b4_cbr1_bn_top
I0821 08:27:21.658247 32551 net.cpp:408] L3_b4_cbr2_conv -> L3_b4_cbr2_conv_top
I0821 08:27:21.659337 32551 net.cpp:150] Setting up L3_b4_cbr2_conv
I0821 08:27:21.659358 32551 net.cpp:157] Top shape: 125 64 8 8 (512000)
I0821 08:27:21.659368 32551 net.cpp:165] Memory required for data: 1329665500
I0821 08:27:21.659385 32551 layer_factory.hpp:77] Creating layer L3_b4_cbr2_bn
I0821 08:27:21.659407 32551 net.cpp:100] Creating Layer L3_b4_cbr2_bn
I0821 08:27:21.659420 32551 net.cpp:434] L3_b4_cbr2_bn <- L3_b4_cbr2_conv_top
I0821 08:27:21.659441 32551 net.cpp:408] L3_b4_cbr2_bn -> L3_b4_cbr2_bn_top
I0821 08:27:21.659742 32551 net.cpp:150] Setting up L3_b4_cbr2_bn
I0821 08:27:21.659762 32551 net.cpp:157] Top shape: 125 64 8 8 (512000)
I0821 08:27:21.659772 32551 net.cpp:165] Memory required for data: 1331713500
I0821 08:27:21.659793 32551 layer_factory.hpp:77] Creating layer L3_b4_cbr2_scale
I0821 08:27:21.659809 32551 net.cpp:100] Creating Layer L3_b4_cbr2_scale
I0821 08:27:21.659821 32551 net.cpp:434] L3_b4_cbr2_scale <- L3_b4_cbr2_bn_top
I0821 08:27:21.659840 32551 net.cpp:395] L3_b4_cbr2_scale -> L3_b4_cbr2_bn_top (in-place)
I0821 08:27:21.659934 32551 layer_factory.hpp:77] Creating layer L3_b4_cbr2_scale
I0821 08:27:21.660142 32551 net.cpp:150] Setting up L3_b4_cbr2_scale
I0821 08:27:21.660161 32551 net.cpp:157] Top shape: 125 64 8 8 (512000)
I0821 08:27:21.660171 32551 net.cpp:165] Memory required for data: 1333761500
I0821 08:27:21.660190 32551 layer_factory.hpp:77] Creating layer L3_b4_sum_eltwise
I0821 08:27:21.660207 32551 net.cpp:100] Creating Layer L3_b4_sum_eltwise
I0821 08:27:21.660218 32551 net.cpp:434] L3_b4_sum_eltwise <- L3_b4_cbr2_bn_top
I0821 08:27:21.660236 32551 net.cpp:434] L3_b4_sum_eltwise <- L3_b3_sum_eltwise_top_L3_b3_relu_0_split_1
I0821 08:27:21.660254 32551 net.cpp:408] L3_b4_sum_eltwise -> L3_b4_sum_eltwise_top
I0821 08:27:21.660315 32551 net.cpp:150] Setting up L3_b4_sum_eltwise
I0821 08:27:21.660342 32551 net.cpp:157] Top shape: 125 64 8 8 (512000)
I0821 08:27:21.660352 32551 net.cpp:165] Memory required for data: 1335809500
I0821 08:27:21.660363 32551 layer_factory.hpp:77] Creating layer L3_b4_relu
I0821 08:27:21.660377 32551 net.cpp:100] Creating Layer L3_b4_relu
I0821 08:27:21.660388 32551 net.cpp:434] L3_b4_relu <- L3_b4_sum_eltwise_top
I0821 08:27:21.660406 32551 net.cpp:395] L3_b4_relu -> L3_b4_sum_eltwise_top (in-place)
I0821 08:27:21.660426 32551 net.cpp:150] Setting up L3_b4_relu
I0821 08:27:21.660440 32551 net.cpp:157] Top shape: 125 64 8 8 (512000)
I0821 08:27:21.660449 32551 net.cpp:165] Memory required for data: 1337857500
I0821 08:27:21.660459 32551 layer_factory.hpp:77] Creating layer L3_b4_sum_eltwise_top_L3_b4_relu_0_split
I0821 08:27:21.660472 32551 net.cpp:100] Creating Layer L3_b4_sum_eltwise_top_L3_b4_relu_0_split
I0821 08:27:21.660483 32551 net.cpp:434] L3_b4_sum_eltwise_top_L3_b4_relu_0_split <- L3_b4_sum_eltwise_top
I0821 08:27:21.660498 32551 net.cpp:408] L3_b4_sum_eltwise_top_L3_b4_relu_0_split -> L3_b4_sum_eltwise_top_L3_b4_relu_0_split_0
I0821 08:27:21.660518 32551 net.cpp:408] L3_b4_sum_eltwise_top_L3_b4_relu_0_split -> L3_b4_sum_eltwise_top_L3_b4_relu_0_split_1
I0821 08:27:21.660604 32551 net.cpp:150] Setting up L3_b4_sum_eltwise_top_L3_b4_relu_0_split
I0821 08:27:21.660626 32551 net.cpp:157] Top shape: 125 64 8 8 (512000)
I0821 08:27:21.660640 32551 net.cpp:157] Top shape: 125 64 8 8 (512000)
I0821 08:27:21.660648 32551 net.cpp:165] Memory required for data: 1341953500
I0821 08:27:21.660660 32551 layer_factory.hpp:77] Creating layer L3_b5_cbr1_conv
I0821 08:27:21.660681 32551 net.cpp:100] Creating Layer L3_b5_cbr1_conv
I0821 08:27:21.660692 32551 net.cpp:434] L3_b5_cbr1_conv <- L3_b4_sum_eltwise_top_L3_b4_relu_0_split_0
I0821 08:27:21.660717 32551 net.cpp:408] L3_b5_cbr1_conv -> L3_b5_cbr1_conv_top
I0821 08:27:21.661814 32551 net.cpp:150] Setting up L3_b5_cbr1_conv
I0821 08:27:21.661835 32551 net.cpp:157] Top shape: 125 64 8 8 (512000)
I0821 08:27:21.661846 32551 net.cpp:165] Memory required for data: 1344001500
I0821 08:27:21.661864 32551 layer_factory.hpp:77] Creating layer L3_b5_cbr1_bn
I0821 08:27:21.661881 32551 net.cpp:100] Creating Layer L3_b5_cbr1_bn
I0821 08:27:21.661892 32551 net.cpp:434] L3_b5_cbr1_bn <- L3_b5_cbr1_conv_top
I0821 08:27:21.661913 32551 net.cpp:408] L3_b5_cbr1_bn -> L3_b5_cbr1_bn_top
I0821 08:27:21.663270 32551 net.cpp:150] Setting up L3_b5_cbr1_bn
I0821 08:27:21.663292 32551 net.cpp:157] Top shape: 125 64 8 8 (512000)
I0821 08:27:21.663302 32551 net.cpp:165] Memory required for data: 1346049500
I0821 08:27:21.663326 32551 layer_factory.hpp:77] Creating layer L3_b5_cbr1_scale
I0821 08:27:21.663342 32551 net.cpp:100] Creating Layer L3_b5_cbr1_scale
I0821 08:27:21.663354 32551 net.cpp:434] L3_b5_cbr1_scale <- L3_b5_cbr1_bn_top
I0821 08:27:21.663375 32551 net.cpp:395] L3_b5_cbr1_scale -> L3_b5_cbr1_bn_top (in-place)
I0821 08:27:21.663468 32551 layer_factory.hpp:77] Creating layer L3_b5_cbr1_scale
I0821 08:27:21.663666 32551 net.cpp:150] Setting up L3_b5_cbr1_scale
I0821 08:27:21.663686 32551 net.cpp:157] Top shape: 125 64 8 8 (512000)
I0821 08:27:21.663697 32551 net.cpp:165] Memory required for data: 1348097500
I0821 08:27:21.663714 32551 layer_factory.hpp:77] Creating layer L3_b5_cbr1_relu
I0821 08:27:21.663730 32551 net.cpp:100] Creating Layer L3_b5_cbr1_relu
I0821 08:27:21.663743 32551 net.cpp:434] L3_b5_cbr1_relu <- L3_b5_cbr1_bn_top
I0821 08:27:21.663761 32551 net.cpp:395] L3_b5_cbr1_relu -> L3_b5_cbr1_bn_top (in-place)
I0821 08:27:21.663781 32551 net.cpp:150] Setting up L3_b5_cbr1_relu
I0821 08:27:21.663796 32551 net.cpp:157] Top shape: 125 64 8 8 (512000)
I0821 08:27:21.663805 32551 net.cpp:165] Memory required for data: 1350145500
I0821 08:27:21.663815 32551 layer_factory.hpp:77] Creating layer L3_b5_cbr2_conv
I0821 08:27:21.663841 32551 net.cpp:100] Creating Layer L3_b5_cbr2_conv
I0821 08:27:21.663854 32551 net.cpp:434] L3_b5_cbr2_conv <- L3_b5_cbr1_bn_top
I0821 08:27:21.663877 32551 net.cpp:408] L3_b5_cbr2_conv -> L3_b5_cbr2_conv_top
I0821 08:27:21.665966 32551 net.cpp:150] Setting up L3_b5_cbr2_conv
I0821 08:27:21.665989 32551 net.cpp:157] Top shape: 125 64 8 8 (512000)
I0821 08:27:21.665999 32551 net.cpp:165] Memory required for data: 1352193500
I0821 08:27:21.666018 32551 layer_factory.hpp:77] Creating layer L3_b5_cbr2_bn
I0821 08:27:21.666040 32551 net.cpp:100] Creating Layer L3_b5_cbr2_bn
I0821 08:27:21.666052 32551 net.cpp:434] L3_b5_cbr2_bn <- L3_b5_cbr2_conv_top
I0821 08:27:21.666075 32551 net.cpp:408] L3_b5_cbr2_bn -> L3_b5_cbr2_bn_top
I0821 08:27:21.666366 32551 net.cpp:150] Setting up L3_b5_cbr2_bn
I0821 08:27:21.666385 32551 net.cpp:157] Top shape: 125 64 8 8 (512000)
I0821 08:27:21.666395 32551 net.cpp:165] Memory required for data: 1354241500
I0821 08:27:21.666419 32551 layer_factory.hpp:77] Creating layer L3_b5_cbr2_scale
I0821 08:27:21.666435 32551 net.cpp:100] Creating Layer L3_b5_cbr2_scale
I0821 08:27:21.666446 32551 net.cpp:434] L3_b5_cbr2_scale <- L3_b5_cbr2_bn_top
I0821 08:27:21.666466 32551 net.cpp:395] L3_b5_cbr2_scale -> L3_b5_cbr2_bn_top (in-place)
I0821 08:27:21.666558 32551 layer_factory.hpp:77] Creating layer L3_b5_cbr2_scale
I0821 08:27:21.666751 32551 net.cpp:150] Setting up L3_b5_cbr2_scale
I0821 08:27:21.666771 32551 net.cpp:157] Top shape: 125 64 8 8 (512000)
I0821 08:27:21.666781 32551 net.cpp:165] Memory required for data: 1356289500
I0821 08:27:21.666800 32551 layer_factory.hpp:77] Creating layer L3_b5_sum_eltwise
I0821 08:27:21.666817 32551 net.cpp:100] Creating Layer L3_b5_sum_eltwise
I0821 08:27:21.666829 32551 net.cpp:434] L3_b5_sum_eltwise <- L3_b5_cbr2_bn_top
I0821 08:27:21.666842 32551 net.cpp:434] L3_b5_sum_eltwise <- L3_b4_sum_eltwise_top_L3_b4_relu_0_split_1
I0821 08:27:21.666863 32551 net.cpp:408] L3_b5_sum_eltwise -> L3_b5_sum_eltwise_top
I0821 08:27:21.666923 32551 net.cpp:150] Setting up L3_b5_sum_eltwise
I0821 08:27:21.666949 32551 net.cpp:157] Top shape: 125 64 8 8 (512000)
I0821 08:27:21.666960 32551 net.cpp:165] Memory required for data: 1358337500
I0821 08:27:21.666971 32551 layer_factory.hpp:77] Creating layer L3_b5_relu
I0821 08:27:21.666985 32551 net.cpp:100] Creating Layer L3_b5_relu
I0821 08:27:21.666997 32551 net.cpp:434] L3_b5_relu <- L3_b5_sum_eltwise_top
I0821 08:27:21.667016 32551 net.cpp:395] L3_b5_relu -> L3_b5_sum_eltwise_top (in-place)
I0821 08:27:21.667037 32551 net.cpp:150] Setting up L3_b5_relu
I0821 08:27:21.667050 32551 net.cpp:157] Top shape: 125 64 8 8 (512000)
I0821 08:27:21.667060 32551 net.cpp:165] Memory required for data: 1360385500
I0821 08:27:21.667070 32551 layer_factory.hpp:77] Creating layer L3_b5_sum_eltwise_top_L3_b5_relu_0_split
I0821 08:27:21.667084 32551 net.cpp:100] Creating Layer L3_b5_sum_eltwise_top_L3_b5_relu_0_split
I0821 08:27:21.667095 32551 net.cpp:434] L3_b5_sum_eltwise_top_L3_b5_relu_0_split <- L3_b5_sum_eltwise_top
I0821 08:27:21.667111 32551 net.cpp:408] L3_b5_sum_eltwise_top_L3_b5_relu_0_split -> L3_b5_sum_eltwise_top_L3_b5_relu_0_split_0
I0821 08:27:21.667132 32551 net.cpp:408] L3_b5_sum_eltwise_top_L3_b5_relu_0_split -> L3_b5_sum_eltwise_top_L3_b5_relu_0_split_1
I0821 08:27:21.667214 32551 net.cpp:150] Setting up L3_b5_sum_eltwise_top_L3_b5_relu_0_split
I0821 08:27:21.667235 32551 net.cpp:157] Top shape: 125 64 8 8 (512000)
I0821 08:27:21.667248 32551 net.cpp:157] Top shape: 125 64 8 8 (512000)
I0821 08:27:21.667258 32551 net.cpp:165] Memory required for data: 1364481500
I0821 08:27:21.667268 32551 layer_factory.hpp:77] Creating layer L3_b6_cbr1_conv
I0821 08:27:21.667289 32551 net.cpp:100] Creating Layer L3_b6_cbr1_conv
I0821 08:27:21.667300 32551 net.cpp:434] L3_b6_cbr1_conv <- L3_b5_sum_eltwise_top_L3_b5_relu_0_split_0
I0821 08:27:21.667323 32551 net.cpp:408] L3_b6_cbr1_conv -> L3_b6_cbr1_conv_top
I0821 08:27:21.668400 32551 net.cpp:150] Setting up L3_b6_cbr1_conv
I0821 08:27:21.668421 32551 net.cpp:157] Top shape: 125 64 8 8 (512000)
I0821 08:27:21.668431 32551 net.cpp:165] Memory required for data: 1366529500
I0821 08:27:21.668448 32551 layer_factory.hpp:77] Creating layer L3_b6_cbr1_bn
I0821 08:27:21.668467 32551 net.cpp:100] Creating Layer L3_b6_cbr1_bn
I0821 08:27:21.668485 32551 net.cpp:434] L3_b6_cbr1_bn <- L3_b6_cbr1_conv_top
I0821 08:27:21.668507 32551 net.cpp:408] L3_b6_cbr1_bn -> L3_b6_cbr1_bn_top
I0821 08:27:21.668812 32551 net.cpp:150] Setting up L3_b6_cbr1_bn
I0821 08:27:21.668833 32551 net.cpp:157] Top shape: 125 64 8 8 (512000)
I0821 08:27:21.668843 32551 net.cpp:165] Memory required for data: 1368577500
I0821 08:27:21.668865 32551 layer_factory.hpp:77] Creating layer L3_b6_cbr1_scale
I0821 08:27:21.668882 32551 net.cpp:100] Creating Layer L3_b6_cbr1_scale
I0821 08:27:21.668895 32551 net.cpp:434] L3_b6_cbr1_scale <- L3_b6_cbr1_bn_top
I0821 08:27:21.668910 32551 net.cpp:395] L3_b6_cbr1_scale -> L3_b6_cbr1_bn_top (in-place)
I0821 08:27:21.669006 32551 layer_factory.hpp:77] Creating layer L3_b6_cbr1_scale
I0821 08:27:21.669193 32551 net.cpp:150] Setting up L3_b6_cbr1_scale
I0821 08:27:21.669217 32551 net.cpp:157] Top shape: 125 64 8 8 (512000)
I0821 08:27:21.669229 32551 net.cpp:165] Memory required for data: 1370625500
I0821 08:27:21.669247 32551 layer_factory.hpp:77] Creating layer L3_b6_cbr1_relu
I0821 08:27:21.669263 32551 net.cpp:100] Creating Layer L3_b6_cbr1_relu
I0821 08:27:21.669275 32551 net.cpp:434] L3_b6_cbr1_relu <- L3_b6_cbr1_bn_top
I0821 08:27:21.669291 32551 net.cpp:395] L3_b6_cbr1_relu -> L3_b6_cbr1_bn_top (in-place)
I0821 08:27:21.669309 32551 net.cpp:150] Setting up L3_b6_cbr1_relu
I0821 08:27:21.669324 32551 net.cpp:157] Top shape: 125 64 8 8 (512000)
I0821 08:27:21.669334 32551 net.cpp:165] Memory required for data: 1372673500
I0821 08:27:21.669343 32551 layer_factory.hpp:77] Creating layer L3_b6_cbr2_conv
I0821 08:27:21.669373 32551 net.cpp:100] Creating Layer L3_b6_cbr2_conv
I0821 08:27:21.669386 32551 net.cpp:434] L3_b6_cbr2_conv <- L3_b6_cbr1_bn_top
I0821 08:27:21.669404 32551 net.cpp:408] L3_b6_cbr2_conv -> L3_b6_cbr2_conv_top
I0821 08:27:21.670467 32551 net.cpp:150] Setting up L3_b6_cbr2_conv
I0821 08:27:21.670488 32551 net.cpp:157] Top shape: 125 64 8 8 (512000)
I0821 08:27:21.670498 32551 net.cpp:165] Memory required for data: 1374721500
I0821 08:27:21.670516 32551 layer_factory.hpp:77] Creating layer L3_b6_cbr2_bn
I0821 08:27:21.670541 32551 net.cpp:100] Creating Layer L3_b6_cbr2_bn
I0821 08:27:21.670554 32551 net.cpp:434] L3_b6_cbr2_bn <- L3_b6_cbr2_conv_top
I0821 08:27:21.670575 32551 net.cpp:408] L3_b6_cbr2_bn -> L3_b6_cbr2_bn_top
I0821 08:27:21.670862 32551 net.cpp:150] Setting up L3_b6_cbr2_bn
I0821 08:27:21.670881 32551 net.cpp:157] Top shape: 125 64 8 8 (512000)
I0821 08:27:21.670891 32551 net.cpp:165] Memory required for data: 1376769500
I0821 08:27:21.670912 32551 layer_factory.hpp:77] Creating layer L3_b6_cbr2_scale
I0821 08:27:21.670929 32551 net.cpp:100] Creating Layer L3_b6_cbr2_scale
I0821 08:27:21.670948 32551 net.cpp:434] L3_b6_cbr2_scale <- L3_b6_cbr2_bn_top
I0821 08:27:21.670971 32551 net.cpp:395] L3_b6_cbr2_scale -> L3_b6_cbr2_bn_top (in-place)
I0821 08:27:21.671068 32551 layer_factory.hpp:77] Creating layer L3_b6_cbr2_scale
I0821 08:27:21.671258 32551 net.cpp:150] Setting up L3_b6_cbr2_scale
I0821 08:27:21.671277 32551 net.cpp:157] Top shape: 125 64 8 8 (512000)
I0821 08:27:21.671288 32551 net.cpp:165] Memory required for data: 1378817500
I0821 08:27:21.671305 32551 layer_factory.hpp:77] Creating layer L3_b6_sum_eltwise
I0821 08:27:21.671327 32551 net.cpp:100] Creating Layer L3_b6_sum_eltwise
I0821 08:27:21.671340 32551 net.cpp:434] L3_b6_sum_eltwise <- L3_b6_cbr2_bn_top
I0821 08:27:21.671353 32551 net.cpp:434] L3_b6_sum_eltwise <- L3_b5_sum_eltwise_top_L3_b5_relu_0_split_1
I0821 08:27:21.671370 32551 net.cpp:408] L3_b6_sum_eltwise -> L3_b6_sum_eltwise_top
I0821 08:27:21.671428 32551 net.cpp:150] Setting up L3_b6_sum_eltwise
I0821 08:27:21.671447 32551 net.cpp:157] Top shape: 125 64 8 8 (512000)
I0821 08:27:21.671458 32551 net.cpp:165] Memory required for data: 1380865500
I0821 08:27:21.671466 32551 layer_factory.hpp:77] Creating layer L3_b6_relu
I0821 08:27:21.671481 32551 net.cpp:100] Creating Layer L3_b6_relu
I0821 08:27:21.671494 32551 net.cpp:434] L3_b6_relu <- L3_b6_sum_eltwise_top
I0821 08:27:21.671521 32551 net.cpp:395] L3_b6_relu -> L3_b6_sum_eltwise_top (in-place)
I0821 08:27:21.671541 32551 net.cpp:150] Setting up L3_b6_relu
I0821 08:27:21.671557 32551 net.cpp:157] Top shape: 125 64 8 8 (512000)
I0821 08:27:21.671566 32551 net.cpp:165] Memory required for data: 1382913500
I0821 08:27:21.671576 32551 layer_factory.hpp:77] Creating layer L3_b6_sum_eltwise_top_L3_b6_relu_0_split
I0821 08:27:21.671591 32551 net.cpp:100] Creating Layer L3_b6_sum_eltwise_top_L3_b6_relu_0_split
I0821 08:27:21.671602 32551 net.cpp:434] L3_b6_sum_eltwise_top_L3_b6_relu_0_split <- L3_b6_sum_eltwise_top
I0821 08:27:21.671618 32551 net.cpp:408] L3_b6_sum_eltwise_top_L3_b6_relu_0_split -> L3_b6_sum_eltwise_top_L3_b6_relu_0_split_0
I0821 08:27:21.671638 32551 net.cpp:408] L3_b6_sum_eltwise_top_L3_b6_relu_0_split -> L3_b6_sum_eltwise_top_L3_b6_relu_0_split_1
I0821 08:27:21.671722 32551 net.cpp:150] Setting up L3_b6_sum_eltwise_top_L3_b6_relu_0_split
I0821 08:27:21.671742 32551 net.cpp:157] Top shape: 125 64 8 8 (512000)
I0821 08:27:21.671756 32551 net.cpp:157] Top shape: 125 64 8 8 (512000)
I0821 08:27:21.671764 32551 net.cpp:165] Memory required for data: 1387009500
I0821 08:27:21.671775 32551 layer_factory.hpp:77] Creating layer L3_b7_cbr1_conv
I0821 08:27:21.671794 32551 net.cpp:100] Creating Layer L3_b7_cbr1_conv
I0821 08:27:21.671808 32551 net.cpp:434] L3_b7_cbr1_conv <- L3_b6_sum_eltwise_top_L3_b6_relu_0_split_0
I0821 08:27:21.671830 32551 net.cpp:408] L3_b7_cbr1_conv -> L3_b7_cbr1_conv_top
I0821 08:27:21.672909 32551 net.cpp:150] Setting up L3_b7_cbr1_conv
I0821 08:27:21.672930 32551 net.cpp:157] Top shape: 125 64 8 8 (512000)
I0821 08:27:21.672945 32551 net.cpp:165] Memory required for data: 1389057500
I0821 08:27:21.672965 32551 layer_factory.hpp:77] Creating layer L3_b7_cbr1_bn
I0821 08:27:21.672987 32551 net.cpp:100] Creating Layer L3_b7_cbr1_bn
I0821 08:27:21.673001 32551 net.cpp:434] L3_b7_cbr1_bn <- L3_b7_cbr1_conv_top
I0821 08:27:21.673017 32551 net.cpp:408] L3_b7_cbr1_bn -> L3_b7_cbr1_bn_top
I0821 08:27:21.673372 32551 net.cpp:150] Setting up L3_b7_cbr1_bn
I0821 08:27:21.673393 32551 net.cpp:157] Top shape: 125 64 8 8 (512000)
I0821 08:27:21.673403 32551 net.cpp:165] Memory required for data: 1391105500
I0821 08:27:21.673424 32551 layer_factory.hpp:77] Creating layer L3_b7_cbr1_scale
I0821 08:27:21.673441 32551 net.cpp:100] Creating Layer L3_b7_cbr1_scale
I0821 08:27:21.673454 32551 net.cpp:434] L3_b7_cbr1_scale <- L3_b7_cbr1_bn_top
I0821 08:27:21.673470 32551 net.cpp:395] L3_b7_cbr1_scale -> L3_b7_cbr1_bn_top (in-place)
I0821 08:27:21.673563 32551 layer_factory.hpp:77] Creating layer L3_b7_cbr1_scale
I0821 08:27:21.673754 32551 net.cpp:150] Setting up L3_b7_cbr1_scale
I0821 08:27:21.673779 32551 net.cpp:157] Top shape: 125 64 8 8 (512000)
I0821 08:27:21.673789 32551 net.cpp:165] Memory required for data: 1393153500
I0821 08:27:21.673807 32551 layer_factory.hpp:77] Creating layer L3_b7_cbr1_relu
I0821 08:27:21.673852 32551 net.cpp:100] Creating Layer L3_b7_cbr1_relu
I0821 08:27:21.673868 32551 net.cpp:434] L3_b7_cbr1_relu <- L3_b7_cbr1_bn_top
I0821 08:27:21.673883 32551 net.cpp:395] L3_b7_cbr1_relu -> L3_b7_cbr1_bn_top (in-place)
I0821 08:27:21.673902 32551 net.cpp:150] Setting up L3_b7_cbr1_relu
I0821 08:27:21.673918 32551 net.cpp:157] Top shape: 125 64 8 8 (512000)
I0821 08:27:21.673926 32551 net.cpp:165] Memory required for data: 1395201500
I0821 08:27:21.673938 32551 layer_factory.hpp:77] Creating layer L3_b7_cbr2_conv
I0821 08:27:21.673972 32551 net.cpp:100] Creating Layer L3_b7_cbr2_conv
I0821 08:27:21.673985 32551 net.cpp:434] L3_b7_cbr2_conv <- L3_b7_cbr1_bn_top
I0821 08:27:21.674003 32551 net.cpp:408] L3_b7_cbr2_conv -> L3_b7_cbr2_conv_top
I0821 08:27:21.675082 32551 net.cpp:150] Setting up L3_b7_cbr2_conv
I0821 08:27:21.675103 32551 net.cpp:157] Top shape: 125 64 8 8 (512000)
I0821 08:27:21.675112 32551 net.cpp:165] Memory required for data: 1397249500
I0821 08:27:21.675130 32551 layer_factory.hpp:77] Creating layer L3_b7_cbr2_bn
I0821 08:27:21.675148 32551 net.cpp:100] Creating Layer L3_b7_cbr2_bn
I0821 08:27:21.675168 32551 net.cpp:434] L3_b7_cbr2_bn <- L3_b7_cbr2_conv_top
I0821 08:27:21.675190 32551 net.cpp:408] L3_b7_cbr2_bn -> L3_b7_cbr2_bn_top
I0821 08:27:21.675508 32551 net.cpp:150] Setting up L3_b7_cbr2_bn
I0821 08:27:21.675529 32551 net.cpp:157] Top shape: 125 64 8 8 (512000)
I0821 08:27:21.675537 32551 net.cpp:165] Memory required for data: 1399297500
I0821 08:27:21.675559 32551 layer_factory.hpp:77] Creating layer L3_b7_cbr2_scale
I0821 08:27:21.675576 32551 net.cpp:100] Creating Layer L3_b7_cbr2_scale
I0821 08:27:21.675588 32551 net.cpp:434] L3_b7_cbr2_scale <- L3_b7_cbr2_bn_top
I0821 08:27:21.675603 32551 net.cpp:395] L3_b7_cbr2_scale -> L3_b7_cbr2_bn_top (in-place)
I0821 08:27:21.675696 32551 layer_factory.hpp:77] Creating layer L3_b7_cbr2_scale
I0821 08:27:21.675899 32551 net.cpp:150] Setting up L3_b7_cbr2_scale
I0821 08:27:21.675920 32551 net.cpp:157] Top shape: 125 64 8 8 (512000)
I0821 08:27:21.675930 32551 net.cpp:165] Memory required for data: 1401345500
I0821 08:27:21.675956 32551 layer_factory.hpp:77] Creating layer L3_b7_sum_eltwise
I0821 08:27:21.675977 32551 net.cpp:100] Creating Layer L3_b7_sum_eltwise
I0821 08:27:21.675992 32551 net.cpp:434] L3_b7_sum_eltwise <- L3_b7_cbr2_bn_top
I0821 08:27:21.676004 32551 net.cpp:434] L3_b7_sum_eltwise <- L3_b6_sum_eltwise_top_L3_b6_relu_0_split_1
I0821 08:27:21.676020 32551 net.cpp:408] L3_b7_sum_eltwise -> L3_b7_sum_eltwise_top
I0821 08:27:21.676080 32551 net.cpp:150] Setting up L3_b7_sum_eltwise
I0821 08:27:21.676098 32551 net.cpp:157] Top shape: 125 64 8 8 (512000)
I0821 08:27:21.676107 32551 net.cpp:165] Memory required for data: 1403393500
I0821 08:27:21.676118 32551 layer_factory.hpp:77] Creating layer L3_b7_relu
I0821 08:27:21.676132 32551 net.cpp:100] Creating Layer L3_b7_relu
I0821 08:27:21.676144 32551 net.cpp:434] L3_b7_relu <- L3_b7_sum_eltwise_top
I0821 08:27:21.676157 32551 net.cpp:395] L3_b7_relu -> L3_b7_sum_eltwise_top (in-place)
I0821 08:27:21.676177 32551 net.cpp:150] Setting up L3_b7_relu
I0821 08:27:21.676192 32551 net.cpp:157] Top shape: 125 64 8 8 (512000)
I0821 08:27:21.676200 32551 net.cpp:165] Memory required for data: 1405441500
I0821 08:27:21.676210 32551 layer_factory.hpp:77] Creating layer L3_b7_sum_eltwise_top_L3_b7_relu_0_split
I0821 08:27:21.676224 32551 net.cpp:100] Creating Layer L3_b7_sum_eltwise_top_L3_b7_relu_0_split
I0821 08:27:21.676235 32551 net.cpp:434] L3_b7_sum_eltwise_top_L3_b7_relu_0_split <- L3_b7_sum_eltwise_top
I0821 08:27:21.676256 32551 net.cpp:408] L3_b7_sum_eltwise_top_L3_b7_relu_0_split -> L3_b7_sum_eltwise_top_L3_b7_relu_0_split_0
I0821 08:27:21.676278 32551 net.cpp:408] L3_b7_sum_eltwise_top_L3_b7_relu_0_split -> L3_b7_sum_eltwise_top_L3_b7_relu_0_split_1
I0821 08:27:21.676358 32551 net.cpp:150] Setting up L3_b7_sum_eltwise_top_L3_b7_relu_0_split
I0821 08:27:21.676378 32551 net.cpp:157] Top shape: 125 64 8 8 (512000)
I0821 08:27:21.676391 32551 net.cpp:157] Top shape: 125 64 8 8 (512000)
I0821 08:27:21.676401 32551 net.cpp:165] Memory required for data: 1409537500
I0821 08:27:21.676411 32551 layer_factory.hpp:77] Creating layer L3_b8_cbr1_conv
I0821 08:27:21.676436 32551 net.cpp:100] Creating Layer L3_b8_cbr1_conv
I0821 08:27:21.676451 32551 net.cpp:434] L3_b8_cbr1_conv <- L3_b7_sum_eltwise_top_L3_b7_relu_0_split_0
I0821 08:27:21.676470 32551 net.cpp:408] L3_b8_cbr1_conv -> L3_b8_cbr1_conv_top
I0821 08:27:21.677553 32551 net.cpp:150] Setting up L3_b8_cbr1_conv
I0821 08:27:21.677574 32551 net.cpp:157] Top shape: 125 64 8 8 (512000)
I0821 08:27:21.677584 32551 net.cpp:165] Memory required for data: 1411585500
I0821 08:27:21.677603 32551 layer_factory.hpp:77] Creating layer L3_b8_cbr1_bn
I0821 08:27:21.677624 32551 net.cpp:100] Creating Layer L3_b8_cbr1_bn
I0821 08:27:21.677637 32551 net.cpp:434] L3_b8_cbr1_bn <- L3_b8_cbr1_conv_top
I0821 08:27:21.677654 32551 net.cpp:408] L3_b8_cbr1_bn -> L3_b8_cbr1_bn_top
I0821 08:27:21.677965 32551 net.cpp:150] Setting up L3_b8_cbr1_bn
I0821 08:27:21.677985 32551 net.cpp:157] Top shape: 125 64 8 8 (512000)
I0821 08:27:21.677995 32551 net.cpp:165] Memory required for data: 1413633500
I0821 08:27:21.678026 32551 layer_factory.hpp:77] Creating layer L3_b8_cbr1_scale
I0821 08:27:21.678050 32551 net.cpp:100] Creating Layer L3_b8_cbr1_scale
I0821 08:27:21.678064 32551 net.cpp:434] L3_b8_cbr1_scale <- L3_b8_cbr1_bn_top
I0821 08:27:21.678081 32551 net.cpp:395] L3_b8_cbr1_scale -> L3_b8_cbr1_bn_top (in-place)
I0821 08:27:21.678179 32551 layer_factory.hpp:77] Creating layer L3_b8_cbr1_scale
I0821 08:27:21.678376 32551 net.cpp:150] Setting up L3_b8_cbr1_scale
I0821 08:27:21.678395 32551 net.cpp:157] Top shape: 125 64 8 8 (512000)
I0821 08:27:21.678405 32551 net.cpp:165] Memory required for data: 1415681500
I0821 08:27:21.678423 32551 layer_factory.hpp:77] Creating layer L3_b8_cbr1_relu
I0821 08:27:21.678442 32551 net.cpp:100] Creating Layer L3_b8_cbr1_relu
I0821 08:27:21.678455 32551 net.cpp:434] L3_b8_cbr1_relu <- L3_b8_cbr1_bn_top
I0821 08:27:21.678469 32551 net.cpp:395] L3_b8_cbr1_relu -> L3_b8_cbr1_bn_top (in-place)
I0821 08:27:21.678494 32551 net.cpp:150] Setting up L3_b8_cbr1_relu
I0821 08:27:21.678508 32551 net.cpp:157] Top shape: 125 64 8 8 (512000)
I0821 08:27:21.678519 32551 net.cpp:165] Memory required for data: 1417729500
I0821 08:27:21.678529 32551 layer_factory.hpp:77] Creating layer L3_b8_cbr2_conv
I0821 08:27:21.678548 32551 net.cpp:100] Creating Layer L3_b8_cbr2_conv
I0821 08:27:21.678561 32551 net.cpp:434] L3_b8_cbr2_conv <- L3_b8_cbr1_bn_top
I0821 08:27:21.678583 32551 net.cpp:408] L3_b8_cbr2_conv -> L3_b8_cbr2_conv_top
I0821 08:27:21.679658 32551 net.cpp:150] Setting up L3_b8_cbr2_conv
I0821 08:27:21.679678 32551 net.cpp:157] Top shape: 125 64 8 8 (512000)
I0821 08:27:21.679688 32551 net.cpp:165] Memory required for data: 1419777500
I0821 08:27:21.679707 32551 layer_factory.hpp:77] Creating layer L3_b8_cbr2_bn
I0821 08:27:21.679724 32551 net.cpp:100] Creating Layer L3_b8_cbr2_bn
I0821 08:27:21.679738 32551 net.cpp:434] L3_b8_cbr2_bn <- L3_b8_cbr2_conv_top
I0821 08:27:21.679759 32551 net.cpp:408] L3_b8_cbr2_bn -> L3_b8_cbr2_bn_top
I0821 08:27:21.680068 32551 net.cpp:150] Setting up L3_b8_cbr2_bn
I0821 08:27:21.680088 32551 net.cpp:157] Top shape: 125 64 8 8 (512000)
I0821 08:27:21.680099 32551 net.cpp:165] Memory required for data: 1421825500
I0821 08:27:21.680119 32551 layer_factory.hpp:77] Creating layer L3_b8_cbr2_scale
I0821 08:27:21.680135 32551 net.cpp:100] Creating Layer L3_b8_cbr2_scale
I0821 08:27:21.680146 32551 net.cpp:434] L3_b8_cbr2_scale <- L3_b8_cbr2_bn_top
I0821 08:27:21.680162 32551 net.cpp:395] L3_b8_cbr2_scale -> L3_b8_cbr2_bn_top (in-place)
I0821 08:27:21.680255 32551 layer_factory.hpp:77] Creating layer L3_b8_cbr2_scale
I0821 08:27:21.680449 32551 net.cpp:150] Setting up L3_b8_cbr2_scale
I0821 08:27:21.680471 32551 net.cpp:157] Top shape: 125 64 8 8 (512000)
I0821 08:27:21.680482 32551 net.cpp:165] Memory required for data: 1423873500
I0821 08:27:21.680501 32551 layer_factory.hpp:77] Creating layer L3_b8_sum_eltwise
I0821 08:27:21.680521 32551 net.cpp:100] Creating Layer L3_b8_sum_eltwise
I0821 08:27:21.680532 32551 net.cpp:434] L3_b8_sum_eltwise <- L3_b8_cbr2_bn_top
I0821 08:27:21.680546 32551 net.cpp:434] L3_b8_sum_eltwise <- L3_b7_sum_eltwise_top_L3_b7_relu_0_split_1
I0821 08:27:21.680562 32551 net.cpp:408] L3_b8_sum_eltwise -> L3_b8_sum_eltwise_top
I0821 08:27:21.680621 32551 net.cpp:150] Setting up L3_b8_sum_eltwise
I0821 08:27:21.680641 32551 net.cpp:157] Top shape: 125 64 8 8 (512000)
I0821 08:27:21.680651 32551 net.cpp:165] Memory required for data: 1425921500
I0821 08:27:21.680661 32551 layer_factory.hpp:77] Creating layer L3_b8_relu
I0821 08:27:21.680676 32551 net.cpp:100] Creating Layer L3_b8_relu
I0821 08:27:21.680688 32551 net.cpp:434] L3_b8_relu <- L3_b8_sum_eltwise_top
I0821 08:27:21.680702 32551 net.cpp:395] L3_b8_relu -> L3_b8_sum_eltwise_top (in-place)
I0821 08:27:21.680721 32551 net.cpp:150] Setting up L3_b8_relu
I0821 08:27:21.680737 32551 net.cpp:157] Top shape: 125 64 8 8 (512000)
I0821 08:27:21.680745 32551 net.cpp:165] Memory required for data: 1427969500
I0821 08:27:21.680755 32551 layer_factory.hpp:77] Creating layer L3_b8_sum_eltwise_top_L3_b8_relu_0_split
I0821 08:27:21.680778 32551 net.cpp:100] Creating Layer L3_b8_sum_eltwise_top_L3_b8_relu_0_split
I0821 08:27:21.680790 32551 net.cpp:434] L3_b8_sum_eltwise_top_L3_b8_relu_0_split <- L3_b8_sum_eltwise_top
I0821 08:27:21.680809 32551 net.cpp:408] L3_b8_sum_eltwise_top_L3_b8_relu_0_split -> L3_b8_sum_eltwise_top_L3_b8_relu_0_split_0
I0821 08:27:21.680830 32551 net.cpp:408] L3_b8_sum_eltwise_top_L3_b8_relu_0_split -> L3_b8_sum_eltwise_top_L3_b8_relu_0_split_1
I0821 08:27:21.680912 32551 net.cpp:150] Setting up L3_b8_sum_eltwise_top_L3_b8_relu_0_split
I0821 08:27:21.680938 32551 net.cpp:157] Top shape: 125 64 8 8 (512000)
I0821 08:27:21.680960 32551 net.cpp:157] Top shape: 125 64 8 8 (512000)
I0821 08:27:21.680970 32551 net.cpp:165] Memory required for data: 1432065500
I0821 08:27:21.680980 32551 layer_factory.hpp:77] Creating layer L3_b9_cbr1_conv
I0821 08:27:21.681000 32551 net.cpp:100] Creating Layer L3_b9_cbr1_conv
I0821 08:27:21.681013 32551 net.cpp:434] L3_b9_cbr1_conv <- L3_b8_sum_eltwise_top_L3_b8_relu_0_split_0
I0821 08:27:21.681031 32551 net.cpp:408] L3_b9_cbr1_conv -> L3_b9_cbr1_conv_top
I0821 08:27:21.683118 32551 net.cpp:150] Setting up L3_b9_cbr1_conv
I0821 08:27:21.683140 32551 net.cpp:157] Top shape: 125 64 8 8 (512000)
I0821 08:27:21.683151 32551 net.cpp:165] Memory required for data: 1434113500
I0821 08:27:21.683168 32551 layer_factory.hpp:77] Creating layer L3_b9_cbr1_bn
I0821 08:27:21.683190 32551 net.cpp:100] Creating Layer L3_b9_cbr1_bn
I0821 08:27:21.683203 32551 net.cpp:434] L3_b9_cbr1_bn <- L3_b9_cbr1_conv_top
I0821 08:27:21.683220 32551 net.cpp:408] L3_b9_cbr1_bn -> L3_b9_cbr1_bn_top
I0821 08:27:21.683521 32551 net.cpp:150] Setting up L3_b9_cbr1_bn
I0821 08:27:21.683539 32551 net.cpp:157] Top shape: 125 64 8 8 (512000)
I0821 08:27:21.683549 32551 net.cpp:165] Memory required for data: 1436161500
I0821 08:27:21.683571 32551 layer_factory.hpp:77] Creating layer L3_b9_cbr1_scale
I0821 08:27:21.683588 32551 net.cpp:100] Creating Layer L3_b9_cbr1_scale
I0821 08:27:21.683599 32551 net.cpp:434] L3_b9_cbr1_scale <- L3_b9_cbr1_bn_top
I0821 08:27:21.683615 32551 net.cpp:395] L3_b9_cbr1_scale -> L3_b9_cbr1_bn_top (in-place)
I0821 08:27:21.683709 32551 layer_factory.hpp:77] Creating layer L3_b9_cbr1_scale
I0821 08:27:21.683902 32551 net.cpp:150] Setting up L3_b9_cbr1_scale
I0821 08:27:21.683923 32551 net.cpp:157] Top shape: 125 64 8 8 (512000)
I0821 08:27:21.683933 32551 net.cpp:165] Memory required for data: 1438209500
I0821 08:27:21.683957 32551 layer_factory.hpp:77] Creating layer L3_b9_cbr1_relu
I0821 08:27:21.683974 32551 net.cpp:100] Creating Layer L3_b9_cbr1_relu
I0821 08:27:21.683986 32551 net.cpp:434] L3_b9_cbr1_relu <- L3_b9_cbr1_bn_top
I0821 08:27:21.684006 32551 net.cpp:395] L3_b9_cbr1_relu -> L3_b9_cbr1_bn_top (in-place)
I0821 08:27:21.684026 32551 net.cpp:150] Setting up L3_b9_cbr1_relu
I0821 08:27:21.684041 32551 net.cpp:157] Top shape: 125 64 8 8 (512000)
I0821 08:27:21.684051 32551 net.cpp:165] Memory required for data: 1440257500
I0821 08:27:21.684059 32551 layer_factory.hpp:77] Creating layer L3_b9_cbr2_conv
I0821 08:27:21.684084 32551 net.cpp:100] Creating Layer L3_b9_cbr2_conv
I0821 08:27:21.684098 32551 net.cpp:434] L3_b9_cbr2_conv <- L3_b9_cbr1_bn_top
I0821 08:27:21.684115 32551 net.cpp:408] L3_b9_cbr2_conv -> L3_b9_cbr2_conv_top
I0821 08:27:21.685191 32551 net.cpp:150] Setting up L3_b9_cbr2_conv
I0821 08:27:21.685211 32551 net.cpp:157] Top shape: 125 64 8 8 (512000)
I0821 08:27:21.685221 32551 net.cpp:165] Memory required for data: 1442305500
I0821 08:27:21.685240 32551 layer_factory.hpp:77] Creating layer L3_b9_cbr2_bn
I0821 08:27:21.685261 32551 net.cpp:100] Creating Layer L3_b9_cbr2_bn
I0821 08:27:21.685274 32551 net.cpp:434] L3_b9_cbr2_bn <- L3_b9_cbr2_conv_top
I0821 08:27:21.685292 32551 net.cpp:408] L3_b9_cbr2_bn -> L3_b9_cbr2_bn_top
I0821 08:27:21.685595 32551 net.cpp:150] Setting up L3_b9_cbr2_bn
I0821 08:27:21.685613 32551 net.cpp:157] Top shape: 125 64 8 8 (512000)
I0821 08:27:21.685623 32551 net.cpp:165] Memory required for data: 1444353500
I0821 08:27:21.685655 32551 layer_factory.hpp:77] Creating layer L3_b9_cbr2_scale
I0821 08:27:21.685676 32551 net.cpp:100] Creating Layer L3_b9_cbr2_scale
I0821 08:27:21.685690 32551 net.cpp:434] L3_b9_cbr2_scale <- L3_b9_cbr2_bn_top
I0821 08:27:21.685706 32551 net.cpp:395] L3_b9_cbr2_scale -> L3_b9_cbr2_bn_top (in-place)
I0821 08:27:21.685806 32551 layer_factory.hpp:77] Creating layer L3_b9_cbr2_scale
I0821 08:27:21.686003 32551 net.cpp:150] Setting up L3_b9_cbr2_scale
I0821 08:27:21.686023 32551 net.cpp:157] Top shape: 125 64 8 8 (512000)
I0821 08:27:21.686033 32551 net.cpp:165] Memory required for data: 1446401500
I0821 08:27:21.686051 32551 layer_factory.hpp:77] Creating layer L3_b9_sum_eltwise
I0821 08:27:21.686072 32551 net.cpp:100] Creating Layer L3_b9_sum_eltwise
I0821 08:27:21.686085 32551 net.cpp:434] L3_b9_sum_eltwise <- L3_b9_cbr2_bn_top
I0821 08:27:21.686100 32551 net.cpp:434] L3_b9_sum_eltwise <- L3_b8_sum_eltwise_top_L3_b8_relu_0_split_1
I0821 08:27:21.686120 32551 net.cpp:408] L3_b9_sum_eltwise -> L3_b9_sum_eltwise_top
I0821 08:27:21.686175 32551 net.cpp:150] Setting up L3_b9_sum_eltwise
I0821 08:27:21.686193 32551 net.cpp:157] Top shape: 125 64 8 8 (512000)
I0821 08:27:21.686203 32551 net.cpp:165] Memory required for data: 1448449500
I0821 08:27:21.686213 32551 layer_factory.hpp:77] Creating layer L3_b9_relu
I0821 08:27:21.686234 32551 net.cpp:100] Creating Layer L3_b9_relu
I0821 08:27:21.686247 32551 net.cpp:434] L3_b9_relu <- L3_b9_sum_eltwise_top
I0821 08:27:21.686262 32551 net.cpp:395] L3_b9_relu -> L3_b9_sum_eltwise_top (in-place)
I0821 08:27:21.686281 32551 net.cpp:150] Setting up L3_b9_relu
I0821 08:27:21.686295 32551 net.cpp:157] Top shape: 125 64 8 8 (512000)
I0821 08:27:21.686305 32551 net.cpp:165] Memory required for data: 1450497500
I0821 08:27:21.686314 32551 layer_factory.hpp:77] Creating layer post_pool
I0821 08:27:21.686329 32551 net.cpp:100] Creating Layer post_pool
I0821 08:27:21.686342 32551 net.cpp:434] post_pool <- L3_b9_sum_eltwise_top
I0821 08:27:21.686358 32551 net.cpp:408] post_pool -> post_pool
I0821 08:27:21.686419 32551 net.cpp:150] Setting up post_pool
I0821 08:27:21.686439 32551 net.cpp:157] Top shape: 125 64 1 1 (8000)
I0821 08:27:21.686450 32551 net.cpp:165] Memory required for data: 1450529500
I0821 08:27:21.686460 32551 layer_factory.hpp:77] Creating layer post_FC
I0821 08:27:21.686571 32551 net.cpp:100] Creating Layer post_FC
I0821 08:27:21.686589 32551 net.cpp:434] post_FC <- post_pool
I0821 08:27:21.686606 32551 net.cpp:408] post_FC -> post_FC_top
I0821 08:27:21.686909 32551 net.cpp:150] Setting up post_FC
I0821 08:27:21.686930 32551 net.cpp:157] Top shape: 125 10 (1250)
I0821 08:27:21.686946 32551 net.cpp:165] Memory required for data: 1450534500
I0821 08:27:21.686966 32551 layer_factory.hpp:77] Creating layer post_FC_top_post_FC_0_split
I0821 08:27:21.686981 32551 net.cpp:100] Creating Layer post_FC_top_post_FC_0_split
I0821 08:27:21.686993 32551 net.cpp:434] post_FC_top_post_FC_0_split <- post_FC_top
I0821 08:27:21.687014 32551 net.cpp:408] post_FC_top_post_FC_0_split -> post_FC_top_post_FC_0_split_0
I0821 08:27:21.687036 32551 net.cpp:408] post_FC_top_post_FC_0_split -> post_FC_top_post_FC_0_split_1
I0821 08:27:21.687116 32551 net.cpp:150] Setting up post_FC_top_post_FC_0_split
I0821 08:27:21.687136 32551 net.cpp:157] Top shape: 125 10 (1250)
I0821 08:27:21.687150 32551 net.cpp:157] Top shape: 125 10 (1250)
I0821 08:27:21.687158 32551 net.cpp:165] Memory required for data: 1450544500
I0821 08:27:21.687170 32551 layer_factory.hpp:77] Creating layer accuracy
I0821 08:27:21.687235 32551 net.cpp:100] Creating Layer accuracy
I0821 08:27:21.687252 32551 net.cpp:434] accuracy <- post_FC_top_post_FC_0_split_0
I0821 08:27:21.687264 32551 net.cpp:434] accuracy <- label_dataLayer_1_split_0
I0821 08:27:21.687280 32551 net.cpp:408] accuracy -> accuracy
…
