…
I0817 16:28:31.611671 17344 net.cpp:322] The NetState phase (0) differed from the phase (1) specified by a rule in layer L3_b9_cbr2_bn
I0817 16:28:31.613404 17344 net.cpp:58] Initializing net from parameters: 
name: "Cifar-Resnet"
state {
  phase: TRAIN
  level: 0
  stage: ""
}
layer {
  name: "dataLayer"
  type: "Data"
  top: "data_top"
  top: "label"
  include {
    phase: TRAIN
  }
  transform_param {
    mirror: true
    crop_size: 32
    mean_file: "examples/cifar10/mean.binaryproto"
  }
  data_param {
    source: "examples/cifar10/cifar10_train_lmdb"
    batch_size: 125
    backend: LMDB
  }
  image_data_param {
    shuffle: true
  }
}
layer {
  name: "pre_conv"
  type: "Convolution"
  bottom: "data_top"
  top: "pre_conv_top"
  param {
    lr_mult: 1
    decay_mult: 1
  }
  param {
    lr_mult: 2
    decay_mult: 0
  }
  convolution_param {
    num_output: 16
    pad: 1
    kernel_size: 3
    stride: 1
    weight_filler {
      type: "msra"
    }
    bias_filler {
      type: "constant"
    }
  }
}
layer {
  name: "pre_bn"
  type: "BatchNorm"
  bottom: "pre_conv_top"
  top: "pre_bn_top"
  include {
    phase: TRAIN
  }
  batch_norm_param {
    use_global_stats: false
    moving_average_fraction: 0.999
  }
}
layer {
  name: "pre_scale"
  type: "Scale"
  bottom: "pre_bn_top"
  top: "pre_bn_top"
  scale_param {
    bias_term: true
  }
}
layer {
  name: "pre_relu"
  type: "ReLU"
  bottom: "pre_bn_top"
  top: "pre_bn_top"
}
layer {
  name: "L1_b1_cbr1_conv"
  type: "Convolution"
  bottom: "pre_bn_top"
  top: "L1_b1_cbr1_conv_top"
  param {
    lr_mult: 1
    decay_mult: 1
  }
  param {
    lr_mult: 2
    decay_mult: 0
  }
  convolution_param {
    num_output: 16
    pad: 1
    kernel_size: 3
    stride: 1
    weight_filler {
      type: "msra"
    }
    bias_filler {
      type: "constant"
    }
  }
}
layer {
  name: "L1_b1_cbr1_bn"
  type: "BatchNorm"
  bottom: "L1_b1_cbr1_conv_top"
  top: "L1_b1_cbr1_bn_top"
  include {
    phase: TRAIN
  }
  batch_norm_param {
    use_global_stats: false
    moving_average_fraction: 0.999
  }
}
layer {
  name: "L1_b1_cbr1_scale"
  type: "Scale"
  bottom: "L1_b1_cbr1_bn_top"
  top: "L1_b1_cbr1_bn_top"
  scale_param {
    bias_term: true
  }
}
layer {
  name: "L1_b1_cbr1_relu"
  type: "ReLU"
  bottom: "L1_b1_cbr1_bn_top"
  top: "L1_b1_cbr1_bn_top"
}
layer {
  name: "L1_b1_cbr2_conv"
  type: "Convolution"
  bottom: "L1_b1_cbr1_bn_top"
  top: "L1_b1_cbr2_conv_top"
  param {
    lr_mult: 1
    decay_mult: 1
  }
  param {
    lr_mult: 2
    decay_mult: 0
  }
  convolution_param {
    num_output: 16
    pad: 1
    kernel_size: 3
    stride: 1
    weight_filler {
      type: "msra"
    }
    bias_filler {
      type: "constant"
    }
  }
}
layer {
  name: "L1_b1_cbr2_bn"
  type: "BatchNorm"
  bottom: "L1_b1_cbr2_conv_top"
  top: "L1_b1_cbr2_bn_top"
  include {
    phase: TRAIN
  }
  batch_norm_param {
    use_global_stats: false
    moving_average_fraction: 0.999
  }
}
layer {
  name: "L1_b1_cbr2_scale"
  type: "Scale"
  bottom: "L1_b1_cbr2_bn_top"
  top: "L1_b1_cbr2_bn_top"
  scale_param {
    bias_term: true
  }
}
layer {
  name: "L1_b1_sum_eltwise"
  type: "Eltwise"
  bottom: "L1_b1_cbr2_bn_top"
  bottom: "pre_bn_top"
  top: "L1_b1_sum_eltwise_top"
  eltwise_param {
    operation: SUM
  }
}
layer {
  name: "L1_b1_relu"
  type: "ReLU"
  bottom: "L1_b1_sum_eltwise_top"
  top: "L1_b1_sum_eltwise_top"
}
layer {
  name: "L1_b2_cbr1_conv"
  type: "Convolution"
  bottom: "L1_b1_sum_eltwise_top"
  top: "L1_b2_cbr1_conv_top"
  param {
    lr_mult: 1
    decay_mult: 1
  }
  param {
    lr_mult: 2
    decay_mult: 0
  }
  convolution_param {
    num_output: 16
    pad: 1
    kernel_size: 3
    stride: 1
    weight_filler {
      type: "msra"
    }
    bias_filler {
      type: "constant"
    }
  }
}
layer {
  name: "L1_b2_cbr1_bn"
  type: "BatchNorm"
  bottom: "L1_b2_cbr1_conv_top"
  top: "L1_b2_cbr1_bn_top"
  include {
    phase: TRAIN
  }
  batch_norm_param {
    use_global_stats: false
    moving_average_fraction: 0.999
  }
}
layer {
  name: "L1_b2_cbr1_scale"
  type: "Scale"
  bottom: "L1_b2_cbr1_bn_top"
  top: "L1_b2_cbr1_bn_top"
  scale_param {
    bias_term: true
  }
}
layer {
  name: "L1_b2_cbr1_relu"
  type: "ReLU"
  bottom: "L1_b2_cbr1_bn_top"
  top: "L1_b2_cbr1_bn_top"
}
layer {
  name: "L1_b2_cbr2_conv"
  type: "Convolution"
  bottom: "L1_b2_cbr1_bn_top"
  top: "L1_b2_cbr2_conv_top"
  param {
    lr_mult: 1
    decay_mult: 1
  }
  param {
    lr_mult: 2
    decay_mult: 0
  }
  convolution_param {
    num_output: 16
    pad: 1
    kernel_size: 3
    stride: 1
    weight_filler {
      type: "msra"
    }
    bias_filler {
      type: "constant"
    }
  }
}
layer {
  name: "L1_b2_cbr2_bn"
  type: "BatchNorm"
  bottom: "L1_b2_cbr2_conv_top"
  top: "L1_b2_cbr2_bn_top"
  include {
    phase: TRAIN
  }
  batch_norm_param {
    use_global_stats: false
    moving_average_fraction: 0.999
  }
}
layer {
  name: "L1_b2_cbr2_scale"
  type: "Scale"
  bottom: "L1_b2_cbr2_bn_top"
  top: "L1_b2_cbr2_bn_top"
  scale_param {
    bias_term: true
  }
}
layer {
  name: "L1_b2_sum_eltwise"
  type: "Eltwise"
  bottom: "L1_b2_cbr2_bn_top"
  bottom: "L1_b1_sum_eltwise_top"
  top: "L1_b2_sum_eltwise_top"
  eltwise_param {
    operation: SUM
  }
}
layer {
  name: "L1_b2_relu"
  type: "ReLU"
  bottom: "L1_b2_sum_eltwise_top"
  top: "L1_b2_sum_eltwise_top"
}
layer {
  name: "L1_b3_cbr1_conv"
  type: "Convolution"
  bottom: "L1_b2_sum_eltwise_top"
  top: "L1_b3_cbr1_conv_top"
  param {
    lr_mult: 1
    decay_mult: 1
  }
  param {
    lr_mult: 2
    decay_mult: 0
  }
  convolution_param {
    num_output: 16
    pad: 1
    kernel_size: 3
    stride: 1
    weight_filler {
      type: "msra"
    }
    bias_filler {
      type: "constant"
    }
  }
}
layer {
  name: "L1_b3_cbr1_bn"
  type: "BatchNorm"
  bottom: "L1_b3_cbr1_conv_top"
  top: "L1_b3_cbr1_bn_top"
  include {
    phase: TRAIN
  }
  batch_norm_param {
    use_global_stats: false
    moving_average_fraction: 0.999
  }
}
layer {
  name: "L1_b3_cbr1_scale"
  type: "Scale"
  bottom: "L1_b3_cbr1_bn_top"
  top: "L1_b3_cbr1_bn_top"
  scale_param {
    bias_term: true
  }
}
layer {
  name: "L1_b3_cbr1_relu"
  type: "ReLU"
  bottom: "L1_b3_cbr1_bn_top"
  top: "L1_b3_cbr1_bn_top"
}
layer {
  name: "L1_b3_cbr2_conv"
  type: "Convolution"
  bottom: "L1_b3_cbr1_bn_top"
  top: "L1_b3_cbr2_conv_top"
  param {
    lr_mult: 1
    decay_mult: 1
  }
  param {
    lr_mult: 2
    decay_mult: 0
  }
  convolution_param {
    num_output: 16
    pad: 1
    kernel_size: 3
    stride: 1
    weight_filler {
      type: "msra"
    }
    bias_filler {
      type: "constant"
    }
  }
}
layer {
  name: "L1_b3_cbr2_bn"
  type: "BatchNorm"
  bottom: "L1_b3_cbr2_conv_top"
  top: "L1_b3_cbr2_bn_top"
  include {
    phase: TRAIN
  }
  batch_norm_param {
    use_global_stats: false
    moving_average_fraction: 0.999
  }
}
layer {
  name: "L1_b3_cbr2_scale"
  type: "Scale"
  bottom: "L1_b3_cbr2_bn_top"
  top: "L1_b3_cbr2_bn_top"
  scale_param {
    bias_term: true
  }
}
layer {
  name: "L1_b3_sum_eltwise"
  type: "Eltwise"
  bottom: "L1_b3_cbr2_bn_top"
  bottom: "L1_b2_sum_eltwise_top"
  top: "L1_b3_sum_eltwise_top"
  eltwise_param {
    operation: SUM
  }
}
layer {
  name: "L1_b3_relu"
  type: "ReLU"
  bottom: "L1_b3_sum_eltwise_top"
  top: "L1_b3_sum_eltwise_top"
}
layer {
  name: "L1_b4_cbr1_conv"
  type: "Convolution"
  bottom: "L1_b3_sum_eltwise_top"
  top: "L1_b4_cbr1_conv_top"
  param {
    lr_mult: 1
    decay_mult: 1
  }
  param {
    lr_mult: 2
    decay_mult: 0
  }
  convolution_param {
    num_output: 16
    pad: 1
    kernel_size: 3
    stride: 1
    weight_filler {
      type: "msra"
    }
    bias_filler {
      type: "constant"
    }
  }
}
layer {
  name: "L1_b4_cbr1_bn"
  type: "BatchNorm"
  bottom: "L1_b4_cbr1_conv_top"
  top: "L1_b4_cbr1_bn_top"
  include {
    phase: TRAIN
  }
  batch_norm_param {
    use_global_stats: false
    moving_average_fraction: 0.999
  }
}
layer {
  name: "L1_b4_cbr1_scale"
  type: "Scale"
  bottom: "L1_b4_cbr1_bn_top"
  top: "L1_b4_cbr1_bn_top"
  scale_param {
    bias_term: true
  }
}
layer {
  name: "L1_b4_cbr1_relu"
  type: "ReLU"
  bottom: "L1_b4_cbr1_bn_top"
  top: "L1_b4_cbr1_bn_top"
}
layer {
  name: "L1_b4_cbr2_conv"
  type: "Convolution"
  bottom: "L1_b4_cbr1_bn_top"
  top: "L1_b4_cbr2_conv_top"
  param {
    lr_mult: 1
    decay_mult: 1
  }
  param {
    lr_mult: 2
    decay_mult: 0
  }
  convolution_param {
    num_output: 16
    pad: 1
    kernel_size: 3
    stride: 1
    weight_filler {
      type: "msra"
    }
    bias_filler {
      type: "constant"
    }
  }
}
layer {
  name: "L1_b4_cbr2_bn"
  type: "BatchNorm"
  bottom: "L1_b4_cbr2_conv_top"
  top: "L1_b4_cbr2_bn_top"
  include {
    phase: TRAIN
  }
  batch_norm_param {
    use_global_stats: false
    moving_average_fraction: 0.999
  }
}
layer {
  name: "L1_b4_cbr2_scale"
  type: "Scale"
  bottom: "L1_b4_cbr2_bn_top"
  top: "L1_b4_cbr2_bn_top"
  scale_param {
    bias_term: true
  }
}
layer {
  name: "L1_b4_sum_eltwise"
  type: "Eltwise"
  bottom: "L1_b4_cbr2_bn_top"
  bottom: "L1_b3_sum_eltwise_top"
  top: "L1_b4_sum_eltwise_top"
  eltwise_param {
    operation: SUM
  }
}
layer {
  name: "L1_b4_relu"
  type: "ReLU"
  bottom: "L1_b4_sum_eltwise_top"
  top: "L1_b4_sum_eltwise_top"
}
layer {
  name: "L1_b5_cbr1_conv"
  type: "Convolution"
  bottom: "L1_b4_sum_eltwise_top"
  top: "L1_b5_cbr1_conv_top"
  param {
    lr_mult: 1
    decay_mult: 1
  }
  param {
    lr_mult: 2
    decay_mult: 0
  }
  convolution_param {
    num_output: 16
    pad: 1
    kernel_size: 3
    stride: 1
    weight_filler {
      type: "msra"
    }
    bias_filler {
      type: "constant"
    }
  }
}
layer {
  name: "L1_b5_cbr1_bn"
  type: "BatchNorm"
  bottom: "L1_b5_cbr1_conv_top"
  top: "L1_b5_cbr1_bn_top"
  include {
    phase: TRAIN
  }
  batch_norm_param {
    use_global_stats: false
    moving_average_fraction: 0.999
  }
}
layer {
  name: "L1_b5_cbr1_scale"
  type: "Scale"
  bottom: "L1_b5_cbr1_bn_top"
  top: "L1_b5_cbr1_bn_top"
  scale_param {
    bias_term: true
  }
}
layer {
  name: "L1_b5_cbr1_relu"
  type: "ReLU"
  bottom: "L1_b5_cbr1_bn_top"
  top: "L1_b5_cbr1_bn_top"
}
layer {
  name: "L1_b5_cbr2_conv"
  type: "Convolution"
  bottom: "L1_b5_cbr1_bn_top"
  top: "L1_b5_cbr2_conv_top"
  param {
    lr_mult: 1
    decay_mult: 1
  }
  param {
    lr_mult: 2
    decay_mult: 0
  }
  convolution_param {
    num_output: 16
    pad: 1
    kernel_size: 3
    stride: 1
    weight_filler {
      type: "msra"
    }
    bias_filler {
      type: "constant"
    }
  }
}
layer {
  name: "L1_b5_cbr2_bn"
  type: "BatchNorm"
  bottom: "L1_b5_cbr2_conv_top"
  top: "L1_b5_cbr2_bn_top"
  include {
    phase: TRAIN
  }
  batch_norm_param {
    use_global_stats: false
    moving_average_fraction: 0.999
  }
}
layer {
  name: "L1_b5_cbr2_scale"
  type: "Scale"
  bottom: "L1_b5_cbr2_bn_top"
  top: "L1_b5_cbr2_bn_top"
  scale_param {
    bias_term: true
  }
}
layer {
  name: "L1_b5_sum_eltwise"
  type: "Eltwise"
  bottom: "L1_b5_cbr2_bn_top"
  bottom: "L1_b4_sum_eltwise_top"
  top: "L1_b5_sum_eltwise_top"
  eltwise_param {
    operation: SUM
  }
}
layer {
  name: "L1_b5_relu"
  type: "ReLU"
  bottom: "L1_b5_sum_eltwise_top"
  top: "L1_b5_sum_eltwise_top"
}
layer {
  name: "L1_b6_cbr1_conv"
  type: "Convolution"
  bottom: "L1_b5_sum_eltwise_top"
  top: "L1_b6_cbr1_conv_top"
  param {
    lr_mult: 1
    decay_mult: 1
  }
  param {
    lr_mult: 2
    decay_mult: 0
  }
  convolution_param {
    num_output: 16
    pad: 1
    kernel_size: 3
    stride: 1
    weight_filler {
      type: "msra"
    }
    bias_filler {
      type: "constant"
    }
  }
}
layer {
  name: "L1_b6_cbr1_bn"
  type: "BatchNorm"
  bottom: "L1_b6_cbr1_conv_top"
  top: "L1_b6_cbr1_bn_top"
  include {
    phase: TRAIN
  }
  batch_norm_param {
    use_global_stats: false
    moving_average_fraction: 0.999
  }
}
layer {
  name: "L1_b6_cbr1_scale"
  type: "Scale"
  bottom: "L1_b6_cbr1_bn_top"
  top: "L1_b6_cbr1_bn_top"
  scale_param {
    bias_term: true
  }
}
layer {
  name: "L1_b6_cbr1_relu"
  type: "ReLU"
  bottom: "L1_b6_cbr1_bn_top"
  top: "L1_b6_cbr1_bn_top"
}
layer {
  name: "L1_b6_cbr2_conv"
  type: "Convolution"
  bottom: "L1_b6_cbr1_bn_top"
  top: "L1_b6_cbr2_conv_top"
  param {
    lr_mult: 1
    decay_mult: 1
  }
  param {
    lr_mult: 2
    decay_mult: 0
  }
  convolution_param {
    num_output: 16
    pad: 1
    kernel_size: 3
    stride: 1
    weight_filler {
      type: "msra"
    }
    bias_filler {
      type: "constant"
    }
  }
}
layer {
  name: "L1_b6_cbr2_bn"
  type: "BatchNorm"
  bottom: "L1_b6_cbr2_conv_top"
  top: "L1_b6_cbr2_bn_top"
  include {
    phase: TRAIN
  }
  batch_norm_param {
    use_global_stats: false
    moving_average_fraction: 0.999
  }
}
layer {
  name: "L1_b6_cbr2_scale"
  type: "Scale"
  bottom: "L1_b6_cbr2_bn_top"
  top: "L1_b6_cbr2_bn_top"
  scale_param {
    bias_term: true
  }
}
layer {
  name: "L1_b6_sum_eltwise"
  type: "Eltwise"
  bottom: "L1_b6_cbr2_bn_top"
  bottom: "L1_b5_sum_eltwise_top"
  top: "L1_b6_sum_eltwise_top"
  eltwise_param {
    operation: SUM
  }
}
layer {
  name: "L1_b6_relu"
  type: "ReLU"
  bottom: "L1_b6_sum_eltwise_top"
  top: "L1_b6_sum_eltwise_top"
}
layer {
  name: "L1_b7_cbr1_conv"
  type: "Convolution"
  bottom: "L1_b6_sum_eltwise_top"
  top: "L1_b7_cbr1_conv_top"
  param {
    lr_mult: 1
    decay_mult: 1
  }
  param {
    lr_mult: 2
    decay_mult: 0
  }
  convolution_param {
    num_output: 16
    pad: 1
    kernel_size: 3
    stride: 1
    weight_filler {
      type: "msra"
    }
    bias_filler {
      type: "constant"
    }
  }
}
layer {
  name: "L1_b7_cbr1_bn"
  type: "BatchNorm"
  bottom: "L1_b7_cbr1_conv_top"
  top: "L1_b7_cbr1_bn_top"
  include {
    phase: TRAIN
  }
  batch_norm_param {
    use_global_stats: false
    moving_average_fraction: 0.999
  }
}
layer {
  name: "L1_b7_cbr1_scale"
  type: "Scale"
  bottom: "L1_b7_cbr1_bn_top"
  top: "L1_b7_cbr1_bn_top"
  scale_param {
    bias_term: true
  }
}
layer {
  name: "L1_b7_cbr1_relu"
  type: "ReLU"
  bottom: "L1_b7_cbr1_bn_top"
  top: "L1_b7_cbr1_bn_top"
}
layer {
  name: "L1_b7_cbr2_conv"
  type: "Convolution"
  bottom: "L1_b7_cbr1_bn_top"
  top: "L1_b7_cbr2_conv_top"
  param {
    lr_mult: 1
    decay_mult: 1
  }
  param {
    lr_mult: 2
    decay_mult: 0
  }
  convolution_param {
    num_output: 16
    pad: 1
    kernel_size: 3
    stride: 1
    weight_filler {
      type: "msra"
    }
    bias_filler {
      type: "constant"
    }
  }
}
layer {
  name: "L1_b7_cbr2_bn"
  type: "BatchNorm"
  bottom: "L1_b7_cbr2_conv_top"
  top: "L1_b7_cbr2_bn_top"
  include {
    phase: TRAIN
  }
  batch_norm_param {
    use_global_stats: false
    moving_average_fraction: 0.999
  }
}
layer {
  name: "L1_b7_cbr2_scale"
  type: "Scale"
  bottom: "L1_b7_cbr2_bn_top"
  top: "L1_b7_cbr2_bn_top"
  scale_param {
    bias_term: true
  }
}
layer {
  name: "L1_b7_sum_eltwise"
  type: "Eltwise"
  bottom: "L1_b7_cbr2_bn_top"
  bottom: "L1_b6_sum_eltwise_top"
  top: "L1_b7_sum_eltwise_top"
  eltwise_param {
    operation: SUM
  }
}
layer {
  name: "L1_b7_relu"
  type: "ReLU"
  bottom: "L1_b7_sum_eltwise_top"
  top: "L1_b7_sum_eltwise_top"
}
layer {
  name: "L1_b8_cbr1_conv"
  type: "Convolution"
  bottom: "L1_b7_sum_eltwise_top"
  top: "L1_b8_cbr1_conv_top"
  param {
    lr_mult: 1
    decay_mult: 1
  }
  param {
    lr_mult: 2
    decay_mult: 0
  }
  convolution_param {
    num_output: 16
    pad: 1
    kernel_size: 3
    stride: 1
    weight_filler {
      type: "msra"
    }
    bias_filler {
      type: "constant"
    }
  }
}
layer {
  name: "L1_b8_cbr1_bn"
  type: "BatchNorm"
  bottom: "L1_b8_cbr1_conv_top"
  top: "L1_b8_cbr1_bn_top"
  include {
    phase: TRAIN
  }
  batch_norm_param {
    use_global_stats: false
    moving_average_fraction: 0.999
  }
}
layer {
  name: "L1_b8_cbr1_scale"
  type: "Scale"
  bottom: "L1_b8_cbr1_bn_top"
  top: "L1_b8_cbr1_bn_top"
  scale_param {
    bias_term: true
  }
}
layer {
  name: "L1_b8_cbr1_relu"
  type: "ReLU"
  bottom: "L1_b8_cbr1_bn_top"
  top: "L1_b8_cbr1_bn_top"
}
layer {
  name: "L1_b8_cbr2_conv"
  type: "Convolution"
  bottom: "L1_b8_cbr1_bn_top"
  top: "L1_b8_cbr2_conv_top"
  param {
    lr_mult: 1
    decay_mult: 1
  }
  param {
    lr_mult: 2
    decay_mult: 0
  }
  convolution_param {
    num_output: 16
    pad: 1
    kernel_size: 3
    stride: 1
    weight_filler {
      type: "msra"
    }
    bias_filler {
      type: "constant"
    }
  }
}
layer {
  name: "L1_b8_cbr2_bn"
  type: "BatchNorm"
  bottom: "L1_b8_cbr2_conv_top"
  top: "L1_b8_cbr2_bn_top"
  include {
    phase: TRAIN
  }
  batch_norm_param {
    use_global_stats: false
    moving_average_fraction: 0.999
  }
}
layer {
  name: "L1_b8_cbr2_scale"
  type: "Scale"
  bottom: "L1_b8_cbr2_bn_top"
  top: "L1_b8_cbr2_bn_top"
  scale_param {
    bias_term: true
  }
}
layer {
  name: "L1_b8_sum_eltwise"
  type: "Eltwise"
  bottom: "L1_b8_cbr2_bn_top"
  bottom: "L1_b7_sum_eltwise_top"
  top: "L1_b8_sum_eltwise_top"
  eltwise_param {
    operation: SUM
  }
}
layer {
  name: "L1_b8_relu"
  type: "ReLU"
  bottom: "L1_b8_sum_eltwise_top"
  top: "L1_b8_sum_eltwise_top"
}
layer {
  name: "L1_b9_cbr1_conv"
  type: "Convolution"
  bottom: "L1_b8_sum_eltwise_top"
  top: "L1_b9_cbr1_conv_top"
  param {
    lr_mult: 1
    decay_mult: 1
  }
  param {
    lr_mult: 2
    decay_mult: 0
  }
  convolution_param {
    num_output: 16
    pad: 1
    kernel_size: 3
    stride: 1
    weight_filler {
      type: "msra"
    }
    bias_filler {
      type: "constant"
    }
  }
}
layer {
  name: "L1_b9_cbr1_bn"
  type: "BatchNorm"
  bottom: "L1_b9_cbr1_conv_top"
  top: "L1_b9_cbr1_bn_top"
  include {
    phase: TRAIN
  }
  batch_norm_param {
    use_global_stats: false
    moving_average_fraction: 0.999
  }
}
layer {
  name: "L1_b9_cbr1_scale"
  type: "Scale"
  bottom: "L1_b9_cbr1_bn_top"
  top: "L1_b9_cbr1_bn_top"
  scale_param {
    bias_term: true
  }
}
layer {
  name: "L1_b9_cbr1_relu"
  type: "ReLU"
  bottom: "L1_b9_cbr1_bn_top"
  top: "L1_b9_cbr1_bn_top"
}
layer {
  name: "L1_b9_cbr2_conv"
  type: "Convolution"
  bottom: "L1_b9_cbr1_bn_top"
  top: "L1_b9_cbr2_conv_top"
  param {
    lr_mult: 1
    decay_mult: 1
  }
  param {
    lr_mult: 2
    decay_mult: 0
  }
  convolution_param {
    num_output: 16
    pad: 1
    kernel_size: 3
    stride: 1
    weight_filler {
      type: "msra"
    }
    bias_filler {
      type: "constant"
    }
  }
}
layer {
  name: "L1_b9_cbr2_bn"
  type: "BatchNorm"
  bottom: "L1_b9_cbr2_conv_top"
  top: "L1_b9_cbr2_bn_top"
  include {
    phase: TRAIN
  }
  batch_norm_param {
    use_global_stats: false
    moving_average_fraction: 0.999
  }
}
layer {
  name: "L1_b9_cbr2_scale"
  type: "Scale"
  bottom: "L1_b9_cbr2_bn_top"
  top: "L1_b9_cbr2_bn_top"
  scale_param {
    bias_term: true
  }
}
layer {
  name: "L1_b9_sum_eltwise"
  type: "Eltwise"
  bottom: "L1_b9_cbr2_bn_top"
  bottom: "L1_b8_sum_eltwise_top"
  top: "L1_b9_sum_eltwise_top"
  eltwise_param {
    operation: SUM
  }
}
layer {
  name: "L1_b9_relu"
  type: "ReLU"
  bottom: "L1_b9_sum_eltwise_top"
  top: "L1_b9_sum_eltwise_top"
}
layer {
  name: "L2_b1_cbr1_conv"
  type: "Convolution"
  bottom: "L1_b9_sum_eltwise_top"
  top: "L2_b1_cbr1_conv_top"
  param {
    lr_mult: 1
    decay_mult: 1
  }
  param {
    lr_mult: 2
    decay_mult: 0
  }
  convolution_param {
    num_output: 16
    pad: 1
    kernel_size: 3
    stride: 2
    weight_filler {
      type: "msra"
    }
    bias_filler {
      type: "constant"
    }
  }
}
layer {
  name: "L2_b1_cbr1_bn"
  type: "BatchNorm"
  bottom: "L2_b1_cbr1_conv_top"
  top: "L2_b1_cbr1_bn_top"
  include {
    phase: TRAIN
  }
  batch_norm_param {
    use_global_stats: false
    moving_average_fraction: 0.999
  }
}
layer {
  name: "L2_b1_cbr1_scale"
  type: "Scale"
  bottom: "L2_b1_cbr1_bn_top"
  top: "L2_b1_cbr1_bn_top"
  scale_param {
    bias_term: true
  }
}
layer {
  name: "L2_b1_cbr1_relu"
  type: "ReLU"
  bottom: "L2_b1_cbr1_bn_top"
  top: "L2_b1_cbr1_bn_top"
}
layer {
  name: "L2_b1_cbr2_conv"
  type: "Convolution"
  bottom: "L2_b1_cbr1_bn_top"
  top: "L2_b1_cbr2_conv_top"
  param {
    lr_mult: 1
    decay_mult: 1
  }
  param {
    lr_mult: 2
    decay_mult: 0
  }
  convolution_param {
    num_output: 16
    pad: 1
    kernel_size: 3
    stride: 1
    weight_filler {
      type: "msra"
    }
    bias_filler {
      type: "constant"
    }
  }
}
layer {
  name: "L2_b1_cbr2_bn"
  type: "BatchNorm"
  bottom: "L2_b1_cbr2_conv_top"
  top: "L2_b1_cbr2_bn_top"
  include {
    phase: TRAIN
  }
  batch_norm_param {
    use_global_stats: false
    moving_average_fraction: 0.999
  }
}
layer {
  name: "L2_b1_cbr2_scale"
  type: "Scale"
  bottom: "L2_b1_cbr2_bn_top"
  top: "L2_b1_cbr2_bn_top"
  scale_param {
    bias_term: true
  }
}
layer {
  name: "L2_b1_pool"
  type: "Pooling"
  bottom: "L1_b9_sum_eltwise_top"
  top: "L2_b1_pool"
  pooling_param {
    pool: AVE
    kernel_size: 3
    stride: 2
  }
}
layer {
  name: "L2_b1_sum_eltwise"
  type: "Eltwise"
  bottom: "L2_b1_cbr2_bn_top"
  bottom: "L2_b1_pool"
  top: "L2_b1_sum_eltwise_top"
  eltwise_param {
    operation: SUM
  }
}
layer {
  name: "L2_b1_relu"
  type: "ReLU"
  bottom: "L2_b1_sum_eltwise_top"
  top: "L2_b1_sum_eltwise_top"
}
layer {
  name: "L2_b1_zeros"
  type: "DummyData"
  top: "L2_b1_zeros"
  dummy_data_param {
    data_filler {
      type: "constant"
      value: 0
    }
    shape {
      dim: 125
      dim: 16
      dim: 16
      dim: 16
    }
  }
}
layer {
  name: "L2_b1_concat0"
  type: "Concat"
  bottom: "L2_b1_sum_eltwise_top"
  bottom: "L2_b1_zeros"
  top: "L2_b1_concat0"
  concat_param {
    axis: 1
  }
}
layer {
  name: "L2_b2_cbr1_conv"
  type: "Convolution"
  bottom: "L2_b1_concat0"
  top: "L2_b2_cbr1_conv_top"
  param {
    lr_mult: 1
    decay_mult: 1
  }
  param {
    lr_mult: 2
    decay_mult: 0
  }
  convolution_param {
    num_output: 32
    pad: 1
    kernel_size: 3
    stride: 1
    weight_filler {
      type: "msra"
    }
    bias_filler {
      type: "constant"
    }
  }
}
layer {
  name: "L2_b2_cbr1_bn"
  type: "BatchNorm"
  bottom: "L2_b2_cbr1_conv_top"
  top: "L2_b2_cbr1_bn_top"
  include {
    phase: TRAIN
  }
  batch_norm_param {
    use_global_stats: false
    moving_average_fraction: 0.999
  }
}
layer {
  name: "L2_b2_cbr1_scale"
  type: "Scale"
  bottom: "L2_b2_cbr1_bn_top"
  top: "L2_b2_cbr1_bn_top"
  scale_param {
    bias_term: true
  }
}
layer {
  name: "L2_b2_cbr1_relu"
  type: "ReLU"
  bottom: "L2_b2_cbr1_bn_top"
  top: "L2_b2_cbr1_bn_top"
}
layer {
  name: "L2_b2_cbr2_conv"
  type: "Convolution"
  bottom: "L2_b2_cbr1_bn_top"
  top: "L2_b2_cbr2_conv_top"
  param {
    lr_mult: 1
    decay_mult: 1
  }
  param {
    lr_mult: 2
    decay_mult: 0
  }
  convolution_param {
    num_output: 32
    pad: 1
    kernel_size: 3
    stride: 1
    weight_filler {
      type: "msra"
    }
    bias_filler {
      type: "constant"
    }
  }
}
layer {
  name: "L2_b2_cbr2_bn"
  type: "BatchNorm"
  bottom: "L2_b2_cbr2_conv_top"
  top: "L2_b2_cbr2_bn_top"
  include {
    phase: TRAIN
  }
  batch_norm_param {
    use_global_stats: false
    moving_average_fraction: 0.999
  }
}
layer {
  name: "L2_b2_cbr2_scale"
  type: "Scale"
  bottom: "L2_b2_cbr2_bn_top"
  top: "L2_b2_cbr2_bn_top"
  scale_param {
    bias_term: true
  }
}
layer {
  name: "L2_b2_sum_eltwise"
  type: "Eltwise"
  bottom: "L2_b2_cbr2_bn_top"
  bottom: "L2_b1_concat0"
  top: "L2_b2_sum_eltwise_top"
  eltwise_param {
    operation: SUM
  }
}
layer {
  name: "L2_b2_relu"
  type: "ReLU"
  bottom: "L2_b2_sum_eltwise_top"
  top: "L2_b2_sum_eltwise_top"
}
layer {
  name: "L2_b3_cbr1_conv"
  type: "Convolution"
  bottom: "L2_b2_sum_eltwise_top"
  top: "L2_b3_cbr1_conv_top"
  param {
    lr_mult: 1
    decay_mult: 1
  }
  param {
    lr_mult: 2
    decay_mult: 0
  }
  convolution_param {
    num_output: 32
    pad: 1
    kernel_size: 3
    stride: 1
    weight_filler {
      type: "msra"
    }
    bias_filler {
      type: "constant"
    }
  }
}
layer {
  name: "L2_b3_cbr1_bn"
  type: "BatchNorm"
  bottom: "L2_b3_cbr1_conv_top"
  top: "L2_b3_cbr1_bn_top"
  include {
    phase: TRAIN
  }
  batch_norm_param {
    use_global_stats: false
    moving_average_fraction: 0.999
  }
}
layer {
  name: "L2_b3_cbr1_scale"
  type: "Scale"
  bottom: "L2_b3_cbr1_bn_top"
  top: "L2_b3_cbr1_bn_top"
  scale_param {
    bias_term: true
  }
}
layer {
  name: "L2_b3_cbr1_relu"
  type: "ReLU"
  bottom: "L2_b3_cbr1_bn_top"
  top: "L2_b3_cbr1_bn_top"
}
layer {
  name: "L2_b3_cbr2_conv"
  type: "Convolution"
  bottom: "L2_b3_cbr1_bn_top"
  top: "L2_b3_cbr2_conv_top"
  param {
    lr_mult: 1
    decay_mult: 1
  }
  param {
    lr_mult: 2
    decay_mult: 0
  }
  convolution_param {
    num_output: 32
    pad: 1
    kernel_size: 3
    stride: 1
    weight_filler {
      type: "msra"
    }
    bias_filler {
      type: "constant"
    }
  }
}
layer {
  name: "L2_b3_cbr2_bn"
  type: "BatchNorm"
  bottom: "L2_b3_cbr2_conv_top"
  top: "L2_b3_cbr2_bn_top"
  include {
    phase: TRAIN
  }
  batch_norm_param {
    use_global_stats: false
    moving_average_fraction: 0.999
  }
}
layer {
  name: "L2_b3_cbr2_scale"
  type: "Scale"
  bottom: "L2_b3_cbr2_bn_top"
  top: "L2_b3_cbr2_bn_top"
  scale_param {
    bias_term: true
  }
}
layer {
  name: "L2_b3_sum_eltwise"
  type: "Eltwise"
  bottom: "L2_b3_cbr2_bn_top"
  bottom: "L2_b2_sum_eltwise_top"
  top: "L2_b3_sum_eltwise_top"
  eltwise_param {
    operation: SUM
  }
}
layer {
  name: "L2_b3_relu"
  type: "ReLU"
  bottom: "L2_b3_sum_eltwise_top"
  top: "L2_b3_sum_eltwise_top"
}
layer {
  name: "L2_b4_cbr1_conv"
  type: "Convolution"
  bottom: "L2_b3_sum_eltwise_top"
  top: "L2_b4_cbr1_conv_top"
  param {
    lr_mult: 1
    decay_mult: 1
  }
  param {
    lr_mult: 2
    decay_mult: 0
  }
  convolution_param {
    num_output: 32
    pad: 1
    kernel_size: 3
    stride: 1
    weight_filler {
      type: "msra"
    }
    bias_filler {
      type: "constant"
    }
  }
}
layer {
  name: "L2_b4_cbr1_bn"
  type: "BatchNorm"
  bottom: "L2_b4_cbr1_conv_top"
  top: "L2_b4_cbr1_bn_top"
  include {
    phase: TRAIN
  }
  batch_norm_param {
    use_global_stats: false
    moving_average_fraction: 0.999
  }
}
layer {
  name: "L2_b4_cbr1_scale"
  type: "Scale"
  bottom: "L2_b4_cbr1_bn_top"
  top: "L2_b4_cbr1_bn_top"
  scale_param {
    bias_term: true
  }
}
layer {
  name: "L2_b4_cbr1_relu"
  type: "ReLU"
  bottom: "L2_b4_cbr1_bn_top"
  top: "L2_b4_cbr1_bn_top"
}
layer {
  name: "L2_b4_cbr2_conv"
  type: "Convolution"
  bottom: "L2_b4_cbr1_bn_top"
  top: "L2_b4_cbr2_conv_top"
  param {
    lr_mult: 1
    decay_mult: 1
  }
  param {
    lr_mult: 2
    decay_mult: 0
  }
  convolution_param {
    num_output: 32
    pad: 1
    kernel_size: 3
    stride: 1
    weight_filler {
      type: "msra"
    }
    bias_filler {
      type: "constant"
    }
  }
}
layer {
  name: "L2_b4_cbr2_bn"
  type: "BatchNorm"
  bottom: "L2_b4_cbr2_conv_top"
  top: "L2_b4_cbr2_bn_top"
  include {
    phase: TRAIN
  }
  batch_norm_param {
    use_global_stats: false
    moving_average_fraction: 0.999
  }
}
layer {
  name: "L2_b4_cbr2_scale"
  type: "Scale"
  bottom: "L2_b4_cbr2_bn_top"
  top: "L2_b4_cbr2_bn_top"
  scale_param {
    bias_term: true
  }
}
layer {
  name: "L2_b4_sum_eltwise"
  type: "Eltwise"
  bottom: "L2_b4_cbr2_bn_top"
  bottom: "L2_b3_sum_eltwise_top"
  top: "L2_b4_sum_eltwise_top"
  eltwise_param {
    operation: SUM
  }
}
layer {
  name: "L2_b4_relu"
  type: "ReLU"
  bottom: "L2_b4_sum_eltwise_top"
  top: "L2_b4_sum_eltwise_top"
}
layer {
  name: "L2_b5_cbr1_conv"
  type: "Convolution"
  bottom: "L2_b4_sum_eltwise_top"
  top: "L2_b5_cbr1_conv_top"
  param {
    lr_mult: 1
    decay_mult: 1
  }
  param {
    lr_mult: 2
    decay_mult: 0
  }
  convolution_param {
    num_output: 32
    pad: 1
    kernel_size: 3
    stride: 1
    weight_filler {
      type: "msra"
    }
    bias_filler {
      type: "constant"
    }
  }
}
layer {
  name: "L2_b5_cbr1_bn"
  type: "BatchNorm"
  bottom: "L2_b5_cbr1_conv_top"
  top: "L2_b5_cbr1_bn_top"
  include {
    phase: TRAIN
  }
  batch_norm_param {
    use_global_stats: false
    moving_average_fraction: 0.999
  }
}
layer {
  name: "L2_b5_cbr1_scale"
  type: "Scale"
  bottom: "L2_b5_cbr1_bn_top"
  top: "L2_b5_cbr1_bn_top"
  scale_param {
    bias_term: true
  }
}
layer {
  name: "L2_b5_cbr1_relu"
  type: "ReLU"
  bottom: "L2_b5_cbr1_bn_top"
  top: "L2_b5_cbr1_bn_top"
}
layer {
  name: "L2_b5_cbr2_conv"
  type: "Convolution"
  bottom: "L2_b5_cbr1_bn_top"
  top: "L2_b5_cbr2_conv_top"
  param {
    lr_mult: 1
    decay_mult: 1
  }
  param {
    lr_mult: 2
    decay_mult: 0
  }
  convolution_param {
    num_output: 32
    pad: 1
    kernel_size: 3
    stride: 1
    weight_filler {
      type: "msra"
    }
    bias_filler {
      type: "constant"
    }
  }
}
layer {
  name: "L2_b5_cbr2_bn"
  type: "BatchNorm"
  bottom: "L2_b5_cbr2_conv_top"
  top: "L2_b5_cbr2_bn_top"
  include {
    phase: TRAIN
  }
  batch_norm_param {
    use_global_stats: false
    moving_average_fraction: 0.999
  }
}
layer {
  name: "L2_b5_cbr2_scale"
  type: "Scale"
  bottom: "L2_b5_cbr2_bn_top"
  top: "L2_b5_cbr2_bn_top"
  scale_param {
    bias_term: true
  }
}
layer {
  name: "L2_b5_sum_eltwise"
  type: "Eltwise"
  bottom: "L2_b5_cbr2_bn_top"
  bottom: "L2_b4_sum_eltwise_top"
  top: "L2_b5_sum_eltwise_top"
  eltwise_param {
    operation: SUM
  }
}
layer {
  name: "L2_b5_relu"
  type: "ReLU"
  bottom: "L2_b5_sum_eltwise_top"
  top: "L2_b5_sum_eltwise_top"
}
layer {
  name: "L2_b6_cbr1_conv"
  type: "Convolution"
  bottom: "L2_b5_sum_eltwise_top"
  top: "L2_b6_cbr1_conv_top"
  param {
    lr_mult: 1
    decay_mult: 1
  }
  param {
    lr_mult: 2
    decay_mult: 0
  }
  convolution_param {
    num_output: 32
    pad: 1
    kernel_size: 3
    stride: 1
    weight_filler {
      type: "msra"
    }
    bias_filler {
      type: "constant"
    }
  }
}
layer {
  name: "L2_b6_cbr1_bn"
  type: "BatchNorm"
  bottom: "L2_b6_cbr1_conv_top"
  top: "L2_b6_cbr1_bn_top"
  include {
    phase: TRAIN
  }
  batch_norm_param {
    use_global_stats: false
    moving_average_fraction: 0.999
I0817 16:28:31.615329 17344 layer_factory.hpp:77] Creating layer dataLayer
I0817 16:28:31.617028 17344 net.cpp:100] Creating Layer dataLayer
I0817 16:28:31.617089 17344 net.cpp:408] dataLayer -> data_top
I0817 16:28:31.617274 17344 net.cpp:408] dataLayer -> label
I0817 16:28:31.617362 17344 data_transformer.cpp:25] Loading mean file from: examples/cifar10/mean.binaryproto
I0817 16:28:31.626590 17349 db_lmdb.cpp:35] Opened lmdb examples/cifar10/cifar10_train_lmdb
I0817 16:28:31.649118 17344 data_layer.cpp:41] output data size: 125,3,32,32
I0817 16:28:31.656270 17344 net.cpp:150] Setting up dataLayer
I0817 16:28:31.656332 17344 net.cpp:157] Top shape: 125 3 32 32 (384000)
I0817 16:28:31.656344 17344 net.cpp:157] Top shape: 125 (125)
I0817 16:28:31.656350 17344 net.cpp:165] Memory required for data: 1536500
I0817 16:28:31.656365 17344 layer_factory.hpp:77] Creating layer label_dataLayer_1_split
I0817 16:28:31.656379 17344 net.cpp:100] Creating Layer label_dataLayer_1_split
I0817 16:28:31.656388 17344 net.cpp:434] label_dataLayer_1_split <- label
I0817 16:28:31.656410 17344 net.cpp:408] label_dataLayer_1_split -> label_dataLayer_1_split_0
I0817 16:28:31.656425 17344 net.cpp:408] label_dataLayer_1_split -> label_dataLayer_1_split_1
I0817 16:28:31.656496 17344 net.cpp:150] Setting up label_dataLayer_1_split
I0817 16:28:31.656512 17344 net.cpp:157] Top shape: 125 (125)
I0817 16:28:31.656518 17344 net.cpp:157] Top shape: 125 (125)
I0817 16:28:31.656523 17344 net.cpp:165] Memory required for data: 1537500
I0817 16:28:31.656528 17344 layer_factory.hpp:77] Creating layer pre_conv
I0817 16:28:31.656590 17344 net.cpp:100] Creating Layer pre_conv
I0817 16:28:31.656601 17344 net.cpp:434] pre_conv <- data_top
I0817 16:28:31.656611 17344 net.cpp:408] pre_conv -> pre_conv_top
I0817 16:28:31.658330 17344 net.cpp:150] Setting up pre_conv
I0817 16:28:31.658350 17344 net.cpp:157] Top shape: 125 16 32 32 (2048000)
I0817 16:28:31.658356 17344 net.cpp:165] Memory required for data: 9729500
I0817 16:28:31.658423 17344 layer_factory.hpp:77] Creating layer pre_bn
I0817 16:28:31.658491 17344 net.cpp:100] Creating Layer pre_bn
I0817 16:28:31.658504 17344 net.cpp:434] pre_bn <- pre_conv_top
I0817 16:28:31.658512 17344 net.cpp:408] pre_bn -> pre_bn_top
I0817 16:28:31.658937 17350 blocking_queue.cpp:50] Waiting for data
I0817 16:28:31.659061 17344 net.cpp:150] Setting up pre_bn
I0817 16:28:31.659082 17344 net.cpp:157] Top shape: 125 16 32 32 (2048000)
I0817 16:28:31.659087 17344 net.cpp:165] Memory required for data: 17921500
I0817 16:28:31.659104 17344 layer_factory.hpp:77] Creating layer pre_scale
I0817 16:28:31.659150 17344 net.cpp:100] Creating Layer pre_scale
I0817 16:28:31.659160 17344 net.cpp:434] pre_scale <- pre_bn_top
I0817 16:28:31.659173 17344 net.cpp:395] pre_scale -> pre_bn_top (in-place)
I0817 16:28:31.659340 17344 layer_factory.hpp:77] Creating layer pre_scale
I0817 16:28:31.659595 17344 net.cpp:150] Setting up pre_scale
I0817 16:28:31.659610 17344 net.cpp:157] Top shape: 125 16 32 32 (2048000)
I0817 16:28:31.659615 17344 net.cpp:165] Memory required for data: 26113500
I0817 16:28:31.659626 17344 layer_factory.hpp:77] Creating layer pre_relu
I0817 16:28:31.659668 17344 net.cpp:100] Creating Layer pre_relu
I0817 16:28:31.659684 17344 net.cpp:434] pre_relu <- pre_bn_top
I0817 16:28:31.659693 17344 net.cpp:395] pre_relu -> pre_bn_top (in-place)
I0817 16:28:31.659703 17344 net.cpp:150] Setting up pre_relu
I0817 16:28:31.659713 17344 net.cpp:157] Top shape: 125 16 32 32 (2048000)
I0817 16:28:31.659716 17344 net.cpp:165] Memory required for data: 34305500
I0817 16:28:31.659721 17344 layer_factory.hpp:77] Creating layer pre_bn_top_pre_relu_0_split
I0817 16:28:31.659734 17344 net.cpp:100] Creating Layer pre_bn_top_pre_relu_0_split
I0817 16:28:31.659739 17344 net.cpp:434] pre_bn_top_pre_relu_0_split <- pre_bn_top
I0817 16:28:31.659752 17344 net.cpp:408] pre_bn_top_pre_relu_0_split -> pre_bn_top_pre_relu_0_split_0
I0817 16:28:31.659765 17344 net.cpp:408] pre_bn_top_pre_relu_0_split -> pre_bn_top_pre_relu_0_split_1
I0817 16:28:31.659811 17344 net.cpp:150] Setting up pre_bn_top_pre_relu_0_split
I0817 16:28:31.659823 17344 net.cpp:157] Top shape: 125 16 32 32 (2048000)
I0817 16:28:31.659831 17344 net.cpp:157] Top shape: 125 16 32 32 (2048000)
I0817 16:28:31.659835 17344 net.cpp:165] Memory required for data: 50689500
I0817 16:28:31.659840 17344 layer_factory.hpp:77] Creating layer L1_b1_cbr1_conv
I0817 16:28:31.659860 17344 net.cpp:100] Creating Layer L1_b1_cbr1_conv
I0817 16:28:31.659865 17344 net.cpp:434] L1_b1_cbr1_conv <- pre_bn_top_pre_relu_0_split_0
I0817 16:28:31.659879 17344 net.cpp:408] L1_b1_cbr1_conv -> L1_b1_cbr1_conv_top
I0817 16:28:31.660192 17344 net.cpp:150] Setting up L1_b1_cbr1_conv
I0817 16:28:31.660205 17344 net.cpp:157] Top shape: 125 16 32 32 (2048000)
I0817 16:28:31.660210 17344 net.cpp:165] Memory required for data: 58881500
I0817 16:28:31.660223 17344 layer_factory.hpp:77] Creating layer L1_b1_cbr1_bn
I0817 16:28:31.660236 17344 net.cpp:100] Creating Layer L1_b1_cbr1_bn
I0817 16:28:31.660243 17344 net.cpp:434] L1_b1_cbr1_bn <- L1_b1_cbr1_conv_top
I0817 16:28:31.660250 17344 net.cpp:408] L1_b1_cbr1_bn -> L1_b1_cbr1_bn_top
I0817 16:28:31.660480 17344 net.cpp:150] Setting up L1_b1_cbr1_bn
I0817 16:28:31.660496 17344 net.cpp:157] Top shape: 125 16 32 32 (2048000)
I0817 16:28:31.660501 17344 net.cpp:165] Memory required for data: 67073500
I0817 16:28:31.660512 17344 layer_factory.hpp:77] Creating layer L1_b1_cbr1_scale
I0817 16:28:31.660521 17344 net.cpp:100] Creating Layer L1_b1_cbr1_scale
I0817 16:28:31.660526 17344 net.cpp:434] L1_b1_cbr1_scale <- L1_b1_cbr1_bn_top
I0817 16:28:31.660533 17344 net.cpp:395] L1_b1_cbr1_scale -> L1_b1_cbr1_bn_top (in-place)
I0817 16:28:31.660584 17344 layer_factory.hpp:77] Creating layer L1_b1_cbr1_scale
I0817 16:28:31.660728 17344 net.cpp:150] Setting up L1_b1_cbr1_scale
I0817 16:28:31.660742 17344 net.cpp:157] Top shape: 125 16 32 32 (2048000)
I0817 16:28:31.660748 17344 net.cpp:165] Memory required for data: 75265500
I0817 16:28:31.660756 17344 layer_factory.hpp:77] Creating layer L1_b1_cbr1_relu
I0817 16:28:31.660774 17344 net.cpp:100] Creating Layer L1_b1_cbr1_relu
I0817 16:28:31.660781 17344 net.cpp:434] L1_b1_cbr1_relu <- L1_b1_cbr1_bn_top
I0817 16:28:31.660789 17344 net.cpp:395] L1_b1_cbr1_relu -> L1_b1_cbr1_bn_top (in-place)
I0817 16:28:31.660797 17344 net.cpp:150] Setting up L1_b1_cbr1_relu
I0817 16:28:31.660804 17344 net.cpp:157] Top shape: 125 16 32 32 (2048000)
I0817 16:28:31.660809 17344 net.cpp:165] Memory required for data: 83457500
I0817 16:28:31.660814 17344 layer_factory.hpp:77] Creating layer L1_b1_cbr2_conv
I0817 16:28:31.660828 17344 net.cpp:100] Creating Layer L1_b1_cbr2_conv
I0817 16:28:31.660835 17344 net.cpp:434] L1_b1_cbr2_conv <- L1_b1_cbr1_bn_top
I0817 16:28:31.660845 17344 net.cpp:408] L1_b1_cbr2_conv -> L1_b1_cbr2_conv_top
I0817 16:28:31.661145 17344 net.cpp:150] Setting up L1_b1_cbr2_conv
I0817 16:28:31.661159 17344 net.cpp:157] Top shape: 125 16 32 32 (2048000)
I0817 16:28:31.661164 17344 net.cpp:165] Memory required for data: 91649500
I0817 16:28:31.661178 17344 layer_factory.hpp:77] Creating layer L1_b1_cbr2_bn
I0817 16:28:31.661187 17344 net.cpp:100] Creating Layer L1_b1_cbr2_bn
I0817 16:28:31.661193 17344 net.cpp:434] L1_b1_cbr2_bn <- L1_b1_cbr2_conv_top
I0817 16:28:31.661204 17344 net.cpp:408] L1_b1_cbr2_bn -> L1_b1_cbr2_bn_top
I0817 16:28:31.661440 17344 net.cpp:150] Setting up L1_b1_cbr2_bn
I0817 16:28:31.661453 17344 net.cpp:157] Top shape: 125 16 32 32 (2048000)
I0817 16:28:31.661458 17344 net.cpp:165] Memory required for data: 99841500
I0817 16:28:31.661475 17344 layer_factory.hpp:77] Creating layer L1_b1_cbr2_scale
I0817 16:28:31.661485 17344 net.cpp:100] Creating Layer L1_b1_cbr2_scale
I0817 16:28:31.661490 17344 net.cpp:434] L1_b1_cbr2_scale <- L1_b1_cbr2_bn_top
I0817 16:28:31.661499 17344 net.cpp:395] L1_b1_cbr2_scale -> L1_b1_cbr2_bn_top (in-place)
I0817 16:28:31.661551 17344 layer_factory.hpp:77] Creating layer L1_b1_cbr2_scale
I0817 16:28:31.661691 17344 net.cpp:150] Setting up L1_b1_cbr2_scale
I0817 16:28:31.661705 17344 net.cpp:157] Top shape: 125 16 32 32 (2048000)
I0817 16:28:31.661710 17344 net.cpp:165] Memory required for data: 108033500
I0817 16:28:31.661720 17344 layer_factory.hpp:77] Creating layer L1_b1_sum_eltwise
I0817 16:28:31.661772 17344 net.cpp:100] Creating Layer L1_b1_sum_eltwise
I0817 16:28:31.661783 17344 net.cpp:434] L1_b1_sum_eltwise <- L1_b1_cbr2_bn_top
I0817 16:28:31.661792 17344 net.cpp:434] L1_b1_sum_eltwise <- pre_bn_top_pre_relu_0_split_1
I0817 16:28:31.661801 17344 net.cpp:408] L1_b1_sum_eltwise -> L1_b1_sum_eltwise_top
I0817 16:28:31.661871 17344 net.cpp:150] Setting up L1_b1_sum_eltwise
I0817 16:28:31.661885 17344 net.cpp:157] Top shape: 125 16 32 32 (2048000)
I0817 16:28:31.661891 17344 net.cpp:165] Memory required for data: 116225500
I0817 16:28:31.661897 17344 layer_factory.hpp:77] Creating layer L1_b1_relu
I0817 16:28:31.661908 17344 net.cpp:100] Creating Layer L1_b1_relu
I0817 16:28:31.661914 17344 net.cpp:434] L1_b1_relu <- L1_b1_sum_eltwise_top
I0817 16:28:31.661922 17344 net.cpp:395] L1_b1_relu -> L1_b1_sum_eltwise_top (in-place)
I0817 16:28:31.661931 17344 net.cpp:150] Setting up L1_b1_relu
I0817 16:28:31.661938 17344 net.cpp:157] Top shape: 125 16 32 32 (2048000)
I0817 16:28:31.661943 17344 net.cpp:165] Memory required for data: 124417500
I0817 16:28:31.661947 17344 layer_factory.hpp:77] Creating layer L1_b1_sum_eltwise_top_L1_b1_relu_0_split
I0817 16:28:31.661957 17344 net.cpp:100] Creating Layer L1_b1_sum_eltwise_top_L1_b1_relu_0_split
I0817 16:28:31.661962 17344 net.cpp:434] L1_b1_sum_eltwise_top_L1_b1_relu_0_split <- L1_b1_sum_eltwise_top
I0817 16:28:31.661969 17344 net.cpp:408] L1_b1_sum_eltwise_top_L1_b1_relu_0_split -> L1_b1_sum_eltwise_top_L1_b1_relu_0_split_0
I0817 16:28:31.661978 17344 net.cpp:408] L1_b1_sum_eltwise_top_L1_b1_relu_0_split -> L1_b1_sum_eltwise_top_L1_b1_relu_0_split_1
I0817 16:28:31.662021 17344 net.cpp:150] Setting up L1_b1_sum_eltwise_top_L1_b1_relu_0_split
I0817 16:28:31.662034 17344 net.cpp:157] Top shape: 125 16 32 32 (2048000)
I0817 16:28:31.662047 17344 net.cpp:157] Top shape: 125 16 32 32 (2048000)
I0817 16:28:31.662052 17344 net.cpp:165] Memory required for data: 140801500
I0817 16:28:31.662057 17344 layer_factory.hpp:77] Creating layer L1_b2_cbr1_conv
I0817 16:28:31.662071 17344 net.cpp:100] Creating Layer L1_b2_cbr1_conv
I0817 16:28:31.662078 17344 net.cpp:434] L1_b2_cbr1_conv <- L1_b1_sum_eltwise_top_L1_b1_relu_0_split_0
I0817 16:28:31.662087 17344 net.cpp:408] L1_b2_cbr1_conv -> L1_b2_cbr1_conv_top
I0817 16:28:31.662391 17344 net.cpp:150] Setting up L1_b2_cbr1_conv
I0817 16:28:31.662405 17344 net.cpp:157] Top shape: 125 16 32 32 (2048000)
I0817 16:28:31.662410 17344 net.cpp:165] Memory required for data: 148993500
I0817 16:28:31.662420 17344 layer_factory.hpp:77] Creating layer L1_b2_cbr1_bn
I0817 16:28:31.662432 17344 net.cpp:100] Creating Layer L1_b2_cbr1_bn
I0817 16:28:31.662438 17344 net.cpp:434] L1_b2_cbr1_bn <- L1_b2_cbr1_conv_top
I0817 16:28:31.662449 17344 net.cpp:408] L1_b2_cbr1_bn -> L1_b2_cbr1_bn_top
I0817 16:28:31.662693 17344 net.cpp:150] Setting up L1_b2_cbr1_bn
I0817 16:28:31.662706 17344 net.cpp:157] Top shape: 125 16 32 32 (2048000)
I0817 16:28:31.662711 17344 net.cpp:165] Memory required for data: 157185500
I0817 16:28:31.662722 17344 layer_factory.hpp:77] Creating layer L1_b2_cbr1_scale
I0817 16:28:31.662736 17344 net.cpp:100] Creating Layer L1_b2_cbr1_scale
I0817 16:28:31.662742 17344 net.cpp:434] L1_b2_cbr1_scale <- L1_b2_cbr1_bn_top
I0817 16:28:31.662750 17344 net.cpp:395] L1_b2_cbr1_scale -> L1_b2_cbr1_bn_top (in-place)
I0817 16:28:31.662804 17344 layer_factory.hpp:77] Creating layer L1_b2_cbr1_scale
I0817 16:28:31.662938 17344 net.cpp:150] Setting up L1_b2_cbr1_scale
I0817 16:28:31.662951 17344 net.cpp:157] Top shape: 125 16 32 32 (2048000)
I0817 16:28:31.662956 17344 net.cpp:165] Memory required for data: 165377500
I0817 16:28:31.662966 17344 layer_factory.hpp:77] Creating layer L1_b2_cbr1_relu
I0817 16:28:31.662981 17344 net.cpp:100] Creating Layer L1_b2_cbr1_relu
I0817 16:28:31.662986 17344 net.cpp:434] L1_b2_cbr1_relu <- L1_b2_cbr1_bn_top
I0817 16:28:31.662993 17344 net.cpp:395] L1_b2_cbr1_relu -> L1_b2_cbr1_bn_top (in-place)
I0817 16:28:31.663002 17344 net.cpp:150] Setting up L1_b2_cbr1_relu
I0817 16:28:31.663009 17344 net.cpp:157] Top shape: 125 16 32 32 (2048000)
I0817 16:28:31.663014 17344 net.cpp:165] Memory required for data: 173569500
I0817 16:28:31.663019 17344 layer_factory.hpp:77] Creating layer L1_b2_cbr2_conv
I0817 16:28:31.663033 17344 net.cpp:100] Creating Layer L1_b2_cbr2_conv
I0817 16:28:31.663038 17344 net.cpp:434] L1_b2_cbr2_conv <- L1_b2_cbr1_bn_top
I0817 16:28:31.663049 17344 net.cpp:408] L1_b2_cbr2_conv -> L1_b2_cbr2_conv_top
I0817 16:28:31.663353 17344 net.cpp:150] Setting up L1_b2_cbr2_conv
I0817 16:28:31.663367 17344 net.cpp:157] Top shape: 125 16 32 32 (2048000)
I0817 16:28:31.663372 17344 net.cpp:165] Memory required for data: 181761500
I0817 16:28:31.663381 17344 layer_factory.hpp:77] Creating layer L1_b2_cbr2_bn
I0817 16:28:31.663393 17344 net.cpp:100] Creating Layer L1_b2_cbr2_bn
I0817 16:28:31.663399 17344 net.cpp:434] L1_b2_cbr2_bn <- L1_b2_cbr2_conv_top
I0817 16:28:31.663408 17344 net.cpp:408] L1_b2_cbr2_bn -> L1_b2_cbr2_bn_top
I0817 16:28:31.663643 17344 net.cpp:150] Setting up L1_b2_cbr2_bn
I0817 16:28:31.663656 17344 net.cpp:157] Top shape: 125 16 32 32 (2048000)
I0817 16:28:31.663661 17344 net.cpp:165] Memory required for data: 189953500
I0817 16:28:31.663681 17344 layer_factory.hpp:77] Creating layer L1_b2_cbr2_scale
I0817 16:28:31.663694 17344 net.cpp:100] Creating Layer L1_b2_cbr2_scale
I0817 16:28:31.663700 17344 net.cpp:434] L1_b2_cbr2_scale <- L1_b2_cbr2_bn_top
I0817 16:28:31.663707 17344 net.cpp:395] L1_b2_cbr2_scale -> L1_b2_cbr2_bn_top (in-place)
I0817 16:28:31.663763 17344 layer_factory.hpp:77] Creating layer L1_b2_cbr2_scale
I0817 16:28:31.663898 17344 net.cpp:150] Setting up L1_b2_cbr2_scale
I0817 16:28:31.663911 17344 net.cpp:157] Top shape: 125 16 32 32 (2048000)
I0817 16:28:31.663916 17344 net.cpp:165] Memory required for data: 198145500
I0817 16:28:31.663925 17344 layer_factory.hpp:77] Creating layer L1_b2_sum_eltwise
I0817 16:28:31.663942 17344 net.cpp:100] Creating Layer L1_b2_sum_eltwise
I0817 16:28:31.663949 17344 net.cpp:434] L1_b2_sum_eltwise <- L1_b2_cbr2_bn_top
I0817 16:28:31.663955 17344 net.cpp:434] L1_b2_sum_eltwise <- L1_b1_sum_eltwise_top_L1_b1_relu_0_split_1
I0817 16:28:31.663965 17344 net.cpp:408] L1_b2_sum_eltwise -> L1_b2_sum_eltwise_top
I0817 16:28:31.663996 17344 net.cpp:150] Setting up L1_b2_sum_eltwise
I0817 16:28:31.664005 17344 net.cpp:157] Top shape: 125 16 32 32 (2048000)
I0817 16:28:31.664010 17344 net.cpp:165] Memory required for data: 206337500
I0817 16:28:31.664014 17344 layer_factory.hpp:77] Creating layer L1_b2_relu
I0817 16:28:31.664021 17344 net.cpp:100] Creating Layer L1_b2_relu
I0817 16:28:31.664026 17344 net.cpp:434] L1_b2_relu <- L1_b2_sum_eltwise_top
I0817 16:28:31.664033 17344 net.cpp:395] L1_b2_relu -> L1_b2_sum_eltwise_top (in-place)
I0817 16:28:31.664042 17344 net.cpp:150] Setting up L1_b2_relu
I0817 16:28:31.664048 17344 net.cpp:157] Top shape: 125 16 32 32 (2048000)
I0817 16:28:31.664053 17344 net.cpp:165] Memory required for data: 214529500
I0817 16:28:31.664057 17344 layer_factory.hpp:77] Creating layer L1_b2_sum_eltwise_top_L1_b2_relu_0_split
I0817 16:28:31.664067 17344 net.cpp:100] Creating Layer L1_b2_sum_eltwise_top_L1_b2_relu_0_split
I0817 16:28:31.664072 17344 net.cpp:434] L1_b2_sum_eltwise_top_L1_b2_relu_0_split <- L1_b2_sum_eltwise_top
I0817 16:28:31.664080 17344 net.cpp:408] L1_b2_sum_eltwise_top_L1_b2_relu_0_split -> L1_b2_sum_eltwise_top_L1_b2_relu_0_split_0
I0817 16:28:31.664088 17344 net.cpp:408] L1_b2_sum_eltwise_top_L1_b2_relu_0_split -> L1_b2_sum_eltwise_top_L1_b2_relu_0_split_1
I0817 16:28:31.664131 17344 net.cpp:150] Setting up L1_b2_sum_eltwise_top_L1_b2_relu_0_split
I0817 16:28:31.664142 17344 net.cpp:157] Top shape: 125 16 32 32 (2048000)
I0817 16:28:31.664149 17344 net.cpp:157] Top shape: 125 16 32 32 (2048000)
I0817 16:28:31.664153 17344 net.cpp:165] Memory required for data: 230913500
I0817 16:28:31.664160 17344 layer_factory.hpp:77] Creating layer L1_b3_cbr1_conv
I0817 16:28:31.664170 17344 net.cpp:100] Creating Layer L1_b3_cbr1_conv
I0817 16:28:31.664175 17344 net.cpp:434] L1_b3_cbr1_conv <- L1_b2_sum_eltwise_top_L1_b2_relu_0_split_0
I0817 16:28:31.664192 17344 net.cpp:408] L1_b3_cbr1_conv -> L1_b3_cbr1_conv_top
I0817 16:28:31.664510 17344 net.cpp:150] Setting up L1_b3_cbr1_conv
I0817 16:28:31.664523 17344 net.cpp:157] Top shape: 125 16 32 32 (2048000)
I0817 16:28:31.664528 17344 net.cpp:165] Memory required for data: 239105500
I0817 16:28:31.664537 17344 layer_factory.hpp:77] Creating layer L1_b3_cbr1_bn
I0817 16:28:31.664546 17344 net.cpp:100] Creating Layer L1_b3_cbr1_bn
I0817 16:28:31.664552 17344 net.cpp:434] L1_b3_cbr1_bn <- L1_b3_cbr1_conv_top
I0817 16:28:31.664561 17344 net.cpp:408] L1_b3_cbr1_bn -> L1_b3_cbr1_bn_top
I0817 16:28:31.664804 17344 net.cpp:150] Setting up L1_b3_cbr1_bn
I0817 16:28:31.664819 17344 net.cpp:157] Top shape: 125 16 32 32 (2048000)
I0817 16:28:31.664824 17344 net.cpp:165] Memory required for data: 247297500
I0817 16:28:31.664834 17344 layer_factory.hpp:77] Creating layer L1_b3_cbr1_scale
I0817 16:28:31.664844 17344 net.cpp:100] Creating Layer L1_b3_cbr1_scale
I0817 16:28:31.664850 17344 net.cpp:434] L1_b3_cbr1_scale <- L1_b3_cbr1_bn_top
I0817 16:28:31.664858 17344 net.cpp:395] L1_b3_cbr1_scale -> L1_b3_cbr1_bn_top (in-place)
I0817 16:28:31.664914 17344 layer_factory.hpp:77] Creating layer L1_b3_cbr1_scale
I0817 16:28:31.665051 17344 net.cpp:150] Setting up L1_b3_cbr1_scale
I0817 16:28:31.665065 17344 net.cpp:157] Top shape: 125 16 32 32 (2048000)
I0817 16:28:31.665069 17344 net.cpp:165] Memory required for data: 255489500
I0817 16:28:31.665078 17344 layer_factory.hpp:77] Creating layer L1_b3_cbr1_relu
I0817 16:28:31.665086 17344 net.cpp:100] Creating Layer L1_b3_cbr1_relu
I0817 16:28:31.665091 17344 net.cpp:434] L1_b3_cbr1_relu <- L1_b3_cbr1_bn_top
I0817 16:28:31.665102 17344 net.cpp:395] L1_b3_cbr1_relu -> L1_b3_cbr1_bn_top (in-place)
I0817 16:28:31.665110 17344 net.cpp:150] Setting up L1_b3_cbr1_relu
I0817 16:28:31.665124 17344 net.cpp:157] Top shape: 125 16 32 32 (2048000)
I0817 16:28:31.665129 17344 net.cpp:165] Memory required for data: 263681500
I0817 16:28:31.665133 17344 layer_factory.hpp:77] Creating layer L1_b3_cbr2_conv
I0817 16:28:31.665148 17344 net.cpp:100] Creating Layer L1_b3_cbr2_conv
I0817 16:28:31.665153 17344 net.cpp:434] L1_b3_cbr2_conv <- L1_b3_cbr1_bn_top
I0817 16:28:31.665161 17344 net.cpp:408] L1_b3_cbr2_conv -> L1_b3_cbr2_conv_top
I0817 16:28:31.665464 17344 net.cpp:150] Setting up L1_b3_cbr2_conv
I0817 16:28:31.665477 17344 net.cpp:157] Top shape: 125 16 32 32 (2048000)
I0817 16:28:31.665482 17344 net.cpp:165] Memory required for data: 271873500
I0817 16:28:31.665491 17344 layer_factory.hpp:77] Creating layer L1_b3_cbr2_bn
I0817 16:28:31.665505 17344 net.cpp:100] Creating Layer L1_b3_cbr2_bn
I0817 16:28:31.665511 17344 net.cpp:434] L1_b3_cbr2_bn <- L1_b3_cbr2_conv_top
I0817 16:28:31.665522 17344 net.cpp:408] L1_b3_cbr2_bn -> L1_b3_cbr2_bn_top
I0817 16:28:31.665765 17344 net.cpp:150] Setting up L1_b3_cbr2_bn
I0817 16:28:31.665778 17344 net.cpp:157] Top shape: 125 16 32 32 (2048000)
I0817 16:28:31.665783 17344 net.cpp:165] Memory required for data: 280065500
I0817 16:28:31.665793 17344 layer_factory.hpp:77] Creating layer L1_b3_cbr2_scale
I0817 16:28:31.665807 17344 net.cpp:100] Creating Layer L1_b3_cbr2_scale
I0817 16:28:31.665813 17344 net.cpp:434] L1_b3_cbr2_scale <- L1_b3_cbr2_bn_top
I0817 16:28:31.665822 17344 net.cpp:395] L1_b3_cbr2_scale -> L1_b3_cbr2_bn_top (in-place)
I0817 16:28:31.665873 17344 layer_factory.hpp:77] Creating layer L1_b3_cbr2_scale
I0817 16:28:31.666007 17344 net.cpp:150] Setting up L1_b3_cbr2_scale
I0817 16:28:31.666019 17344 net.cpp:157] Top shape: 125 16 32 32 (2048000)
I0817 16:28:31.666024 17344 net.cpp:165] Memory required for data: 288257500
I0817 16:28:31.666033 17344 layer_factory.hpp:77] Creating layer L1_b3_sum_eltwise
I0817 16:28:31.666043 17344 net.cpp:100] Creating Layer L1_b3_sum_eltwise
I0817 16:28:31.666048 17344 net.cpp:434] L1_b3_sum_eltwise <- L1_b3_cbr2_bn_top
I0817 16:28:31.666057 17344 net.cpp:434] L1_b3_sum_eltwise <- L1_b2_sum_eltwise_top_L1_b2_relu_0_split_1
I0817 16:28:31.666065 17344 net.cpp:408] L1_b3_sum_eltwise -> L1_b3_sum_eltwise_top
I0817 16:28:31.666098 17344 net.cpp:150] Setting up L1_b3_sum_eltwise
I0817 16:28:31.666107 17344 net.cpp:157] Top shape: 125 16 32 32 (2048000)
I0817 16:28:31.666111 17344 net.cpp:165] Memory required for data: 296449500
I0817 16:28:31.666116 17344 layer_factory.hpp:77] Creating layer L1_b3_relu
I0817 16:28:31.666124 17344 net.cpp:100] Creating Layer L1_b3_relu
I0817 16:28:31.666129 17344 net.cpp:434] L1_b3_relu <- L1_b3_sum_eltwise_top
I0817 16:28:31.666138 17344 net.cpp:395] L1_b3_relu -> L1_b3_sum_eltwise_top (in-place)
I0817 16:28:31.666147 17344 net.cpp:150] Setting up L1_b3_relu
I0817 16:28:31.666154 17344 net.cpp:157] Top shape: 125 16 32 32 (2048000)
I0817 16:28:31.666159 17344 net.cpp:165] Memory required for data: 304641500
I0817 16:28:31.666164 17344 layer_factory.hpp:77] Creating layer L1_b3_sum_eltwise_top_L1_b3_relu_0_split
I0817 16:28:31.666172 17344 net.cpp:100] Creating Layer L1_b3_sum_eltwise_top_L1_b3_relu_0_split
I0817 16:28:31.666177 17344 net.cpp:434] L1_b3_sum_eltwise_top_L1_b3_relu_0_split <- L1_b3_sum_eltwise_top
I0817 16:28:31.666183 17344 net.cpp:408] L1_b3_sum_eltwise_top_L1_b3_relu_0_split -> L1_b3_sum_eltwise_top_L1_b3_relu_0_split_0
I0817 16:28:31.666191 17344 net.cpp:408] L1_b3_sum_eltwise_top_L1_b3_relu_0_split -> L1_b3_sum_eltwise_top_L1_b3_relu_0_split_1
I0817 16:28:31.666236 17344 net.cpp:150] Setting up L1_b3_sum_eltwise_top_L1_b3_relu_0_split
I0817 16:28:31.666247 17344 net.cpp:157] Top shape: 125 16 32 32 (2048000)
I0817 16:28:31.666254 17344 net.cpp:157] Top shape: 125 16 32 32 (2048000)
I0817 16:28:31.666259 17344 net.cpp:165] Memory required for data: 321025500
I0817 16:28:31.666263 17344 layer_factory.hpp:77] Creating layer L1_b4_cbr1_conv
I0817 16:28:31.666275 17344 net.cpp:100] Creating Layer L1_b4_cbr1_conv
I0817 16:28:31.666280 17344 net.cpp:434] L1_b4_cbr1_conv <- L1_b3_sum_eltwise_top_L1_b3_relu_0_split_0
I0817 16:28:31.666298 17344 net.cpp:408] L1_b4_cbr1_conv -> L1_b4_cbr1_conv_top
I0817 16:28:31.666607 17344 net.cpp:150] Setting up L1_b4_cbr1_conv
I0817 16:28:31.666621 17344 net.cpp:157] Top shape: 125 16 32 32 (2048000)
I0817 16:28:31.666626 17344 net.cpp:165] Memory required for data: 329217500
I0817 16:28:31.666635 17344 layer_factory.hpp:77] Creating layer L1_b4_cbr1_bn
I0817 16:28:31.666643 17344 net.cpp:100] Creating Layer L1_b4_cbr1_bn
I0817 16:28:31.666649 17344 net.cpp:434] L1_b4_cbr1_bn <- L1_b4_cbr1_conv_top
I0817 16:28:31.666661 17344 net.cpp:408] L1_b4_cbr1_bn -> L1_b4_cbr1_bn_top
I0817 16:28:31.666904 17344 net.cpp:150] Setting up L1_b4_cbr1_bn
I0817 16:28:31.666918 17344 net.cpp:157] Top shape: 125 16 32 32 (2048000)
I0817 16:28:31.666923 17344 net.cpp:165] Memory required for data: 337409500
I0817 16:28:31.666934 17344 layer_factory.hpp:77] Creating layer L1_b4_cbr1_scale
I0817 16:28:31.666944 17344 net.cpp:100] Creating Layer L1_b4_cbr1_scale
I0817 16:28:31.666950 17344 net.cpp:434] L1_b4_cbr1_scale <- L1_b4_cbr1_bn_top
I0817 16:28:31.666959 17344 net.cpp:395] L1_b4_cbr1_scale -> L1_b4_cbr1_bn_top (in-place)
I0817 16:28:31.667011 17344 layer_factory.hpp:77] Creating layer L1_b4_cbr1_scale
I0817 16:28:31.667150 17344 net.cpp:150] Setting up L1_b4_cbr1_scale
I0817 16:28:31.667162 17344 net.cpp:157] Top shape: 125 16 32 32 (2048000)
I0817 16:28:31.667167 17344 net.cpp:165] Memory required for data: 345601500
I0817 16:28:31.667176 17344 layer_factory.hpp:77] Creating layer L1_b4_cbr1_relu
I0817 16:28:31.667189 17344 net.cpp:100] Creating Layer L1_b4_cbr1_relu
I0817 16:28:31.667196 17344 net.cpp:434] L1_b4_cbr1_relu <- L1_b4_cbr1_bn_top
I0817 16:28:31.667202 17344 net.cpp:395] L1_b4_cbr1_relu -> L1_b4_cbr1_bn_top (in-place)
I0817 16:28:31.667212 17344 net.cpp:150] Setting up L1_b4_cbr1_relu
I0817 16:28:31.667218 17344 net.cpp:157] Top shape: 125 16 32 32 (2048000)
I0817 16:28:31.667222 17344 net.cpp:165] Memory required for data: 353793500
I0817 16:28:31.667227 17344 layer_factory.hpp:77] Creating layer L1_b4_cbr2_conv
I0817 16:28:31.667242 17344 net.cpp:100] Creating Layer L1_b4_cbr2_conv
I0817 16:28:31.667246 17344 net.cpp:434] L1_b4_cbr2_conv <- L1_b4_cbr1_bn_top
I0817 16:28:31.667258 17344 net.cpp:408] L1_b4_cbr2_conv -> L1_b4_cbr2_conv_top
I0817 16:28:31.667563 17344 net.cpp:150] Setting up L1_b4_cbr2_conv
I0817 16:28:31.667577 17344 net.cpp:157] Top shape: 125 16 32 32 (2048000)
I0817 16:28:31.667582 17344 net.cpp:165] Memory required for data: 361985500
I0817 16:28:31.667592 17344 layer_factory.hpp:77] Creating layer L1_b4_cbr2_bn
I0817 16:28:31.667599 17344 net.cpp:100] Creating Layer L1_b4_cbr2_bn
I0817 16:28:31.667605 17344 net.cpp:434] L1_b4_cbr2_bn <- L1_b4_cbr2_conv_top
I0817 16:28:31.667613 17344 net.cpp:408] L1_b4_cbr2_bn -> L1_b4_cbr2_bn_top
I0817 16:28:31.667866 17344 net.cpp:150] Setting up L1_b4_cbr2_bn
I0817 16:28:31.667881 17344 net.cpp:157] Top shape: 125 16 32 32 (2048000)
I0817 16:28:31.667886 17344 net.cpp:165] Memory required for data: 370177500
I0817 16:28:31.667898 17344 layer_factory.hpp:77] Creating layer L1_b4_cbr2_scale
I0817 16:28:31.667907 17344 net.cpp:100] Creating Layer L1_b4_cbr2_scale
I0817 16:28:31.667913 17344 net.cpp:434] L1_b4_cbr2_scale <- L1_b4_cbr2_bn_top
I0817 16:28:31.667922 17344 net.cpp:395] L1_b4_cbr2_scale -> L1_b4_cbr2_bn_top (in-place)
I0817 16:28:31.667974 17344 layer_factory.hpp:77] Creating layer L1_b4_cbr2_scale
I0817 16:28:31.668112 17344 net.cpp:150] Setting up L1_b4_cbr2_scale
I0817 16:28:31.668125 17344 net.cpp:157] Top shape: 125 16 32 32 (2048000)
I0817 16:28:31.668130 17344 net.cpp:165] Memory required for data: 378369500
I0817 16:28:31.668139 17344 layer_factory.hpp:77] Creating layer L1_b4_sum_eltwise
I0817 16:28:31.668150 17344 net.cpp:100] Creating Layer L1_b4_sum_eltwise
I0817 16:28:31.668156 17344 net.cpp:434] L1_b4_sum_eltwise <- L1_b4_cbr2_bn_top
I0817 16:28:31.668164 17344 net.cpp:434] L1_b4_sum_eltwise <- L1_b3_sum_eltwise_top_L1_b3_relu_0_split_1
I0817 16:28:31.668170 17344 net.cpp:408] L1_b4_sum_eltwise -> L1_b4_sum_eltwise_top
I0817 16:28:31.668212 17344 net.cpp:150] Setting up L1_b4_sum_eltwise
I0817 16:28:31.668222 17344 net.cpp:157] Top shape: 125 16 32 32 (2048000)
I0817 16:28:31.668226 17344 net.cpp:165] Memory required for data: 386561500
I0817 16:28:31.668231 17344 layer_factory.hpp:77] Creating layer L1_b4_relu
I0817 16:28:31.668239 17344 net.cpp:100] Creating Layer L1_b4_relu
I0817 16:28:31.668244 17344 net.cpp:434] L1_b4_relu <- L1_b4_sum_eltwise_top
I0817 16:28:31.668254 17344 net.cpp:395] L1_b4_relu -> L1_b4_sum_eltwise_top (in-place)
I0817 16:28:31.668263 17344 net.cpp:150] Setting up L1_b4_relu
I0817 16:28:31.668270 17344 net.cpp:157] Top shape: 125 16 32 32 (2048000)
I0817 16:28:31.668274 17344 net.cpp:165] Memory required for data: 394753500
I0817 16:28:31.668279 17344 layer_factory.hpp:77] Creating layer L1_b4_sum_eltwise_top_L1_b4_relu_0_split
I0817 16:28:31.668287 17344 net.cpp:100] Creating Layer L1_b4_sum_eltwise_top_L1_b4_relu_0_split
I0817 16:28:31.668292 17344 net.cpp:434] L1_b4_sum_eltwise_top_L1_b4_relu_0_split <- L1_b4_sum_eltwise_top
I0817 16:28:31.668298 17344 net.cpp:408] L1_b4_sum_eltwise_top_L1_b4_relu_0_split -> L1_b4_sum_eltwise_top_L1_b4_relu_0_split_0
I0817 16:28:31.668308 17344 net.cpp:408] L1_b4_sum_eltwise_top_L1_b4_relu_0_split -> L1_b4_sum_eltwise_top_L1_b4_relu_0_split_1
I0817 16:28:31.668350 17344 net.cpp:150] Setting up L1_b4_sum_eltwise_top_L1_b4_relu_0_split
I0817 16:28:31.668362 17344 net.cpp:157] Top shape: 125 16 32 32 (2048000)
I0817 16:28:31.668368 17344 net.cpp:157] Top shape: 125 16 32 32 (2048000)
I0817 16:28:31.668373 17344 net.cpp:165] Memory required for data: 411137500
I0817 16:28:31.668378 17344 layer_factory.hpp:77] Creating layer L1_b5_cbr1_conv
I0817 16:28:31.668391 17344 net.cpp:100] Creating Layer L1_b5_cbr1_conv
I0817 16:28:31.668398 17344 net.cpp:434] L1_b5_cbr1_conv <- L1_b4_sum_eltwise_top_L1_b4_relu_0_split_0
I0817 16:28:31.668406 17344 net.cpp:408] L1_b5_cbr1_conv -> L1_b5_cbr1_conv_top
I0817 16:28:31.668720 17344 net.cpp:150] Setting up L1_b5_cbr1_conv
I0817 16:28:31.668735 17344 net.cpp:157] Top shape: 125 16 32 32 (2048000)
I0817 16:28:31.668740 17344 net.cpp:165] Memory required for data: 419329500
I0817 16:28:31.668763 17344 layer_factory.hpp:77] Creating layer L1_b5_cbr1_bn
I0817 16:28:31.668776 17344 net.cpp:100] Creating Layer L1_b5_cbr1_bn
I0817 16:28:31.668782 17344 net.cpp:434] L1_b5_cbr1_bn <- L1_b5_cbr1_conv_top
I0817 16:28:31.668790 17344 net.cpp:408] L1_b5_cbr1_bn -> L1_b5_cbr1_bn_top
I0817 16:28:31.669030 17344 net.cpp:150] Setting up L1_b5_cbr1_bn
I0817 16:28:31.669042 17344 net.cpp:157] Top shape: 125 16 32 32 (2048000)
I0817 16:28:31.669047 17344 net.cpp:165] Memory required for data: 427521500
I0817 16:28:31.669059 17344 layer_factory.hpp:77] Creating layer L1_b5_cbr1_scale
I0817 16:28:31.669070 17344 net.cpp:100] Creating Layer L1_b5_cbr1_scale
I0817 16:28:31.669075 17344 net.cpp:434] L1_b5_cbr1_scale <- L1_b5_cbr1_bn_top
I0817 16:28:31.669083 17344 net.cpp:395] L1_b5_cbr1_scale -> L1_b5_cbr1_bn_top (in-place)
I0817 16:28:31.669134 17344 layer_factory.hpp:77] Creating layer L1_b5_cbr1_scale
I0817 16:28:31.669272 17344 net.cpp:150] Setting up L1_b5_cbr1_scale
I0817 16:28:31.669286 17344 net.cpp:157] Top shape: 125 16 32 32 (2048000)
I0817 16:28:31.669289 17344 net.cpp:165] Memory required for data: 435713500
I0817 16:28:31.669298 17344 layer_factory.hpp:77] Creating layer L1_b5_cbr1_relu
I0817 16:28:31.669308 17344 net.cpp:100] Creating Layer L1_b5_cbr1_relu
I0817 16:28:31.669314 17344 net.cpp:434] L1_b5_cbr1_relu <- L1_b5_cbr1_bn_top
I0817 16:28:31.669322 17344 net.cpp:395] L1_b5_cbr1_relu -> L1_b5_cbr1_bn_top (in-place)
I0817 16:28:31.669330 17344 net.cpp:150] Setting up L1_b5_cbr1_relu
I0817 16:28:31.669337 17344 net.cpp:157] Top shape: 125 16 32 32 (2048000)
I0817 16:28:31.669342 17344 net.cpp:165] Memory required for data: 443905500
I0817 16:28:31.669347 17344 layer_factory.hpp:77] Creating layer L1_b5_cbr2_conv
I0817 16:28:31.669359 17344 net.cpp:100] Creating Layer L1_b5_cbr2_conv
I0817 16:28:31.669373 17344 net.cpp:434] L1_b5_cbr2_conv <- L1_b5_cbr1_bn_top
I0817 16:28:31.669384 17344 net.cpp:408] L1_b5_cbr2_conv -> L1_b5_cbr2_conv_top
I0817 16:28:31.669698 17344 net.cpp:150] Setting up L1_b5_cbr2_conv
I0817 16:28:31.669713 17344 net.cpp:157] Top shape: 125 16 32 32 (2048000)
I0817 16:28:31.669718 17344 net.cpp:165] Memory required for data: 452097500
I0817 16:28:31.669726 17344 layer_factory.hpp:77] Creating layer L1_b5_cbr2_bn
I0817 16:28:31.669735 17344 net.cpp:100] Creating Layer L1_b5_cbr2_bn
I0817 16:28:31.669741 17344 net.cpp:434] L1_b5_cbr2_bn <- L1_b5_cbr2_conv_top
I0817 16:28:31.669749 17344 net.cpp:408] L1_b5_cbr2_bn -> L1_b5_cbr2_bn_top
I0817 16:28:31.669984 17344 net.cpp:150] Setting up L1_b5_cbr2_bn
I0817 16:28:31.669997 17344 net.cpp:157] Top shape: 125 16 32 32 (2048000)
I0817 16:28:31.670001 17344 net.cpp:165] Memory required for data: 460289500
I0817 16:28:31.670011 17344 layer_factory.hpp:77] Creating layer L1_b5_cbr2_scale
I0817 16:28:31.670023 17344 net.cpp:100] Creating Layer L1_b5_cbr2_scale
I0817 16:28:31.670029 17344 net.cpp:434] L1_b5_cbr2_scale <- L1_b5_cbr2_bn_top
I0817 16:28:31.670037 17344 net.cpp:395] L1_b5_cbr2_scale -> L1_b5_cbr2_bn_top (in-place)
I0817 16:28:31.670094 17344 layer_factory.hpp:77] Creating layer L1_b5_cbr2_scale
I0817 16:28:31.670230 17344 net.cpp:150] Setting up L1_b5_cbr2_scale
I0817 16:28:31.670243 17344 net.cpp:157] Top shape: 125 16 32 32 (2048000)
I0817 16:28:31.670248 17344 net.cpp:165] Memory required for data: 468481500
I0817 16:28:31.670256 17344 layer_factory.hpp:77] Creating layer L1_b5_sum_eltwise
I0817 16:28:31.670265 17344 net.cpp:100] Creating Layer L1_b5_sum_eltwise
I0817 16:28:31.670271 17344 net.cpp:434] L1_b5_sum_eltwise <- L1_b5_cbr2_bn_top
I0817 16:28:31.670279 17344 net.cpp:434] L1_b5_sum_eltwise <- L1_b4_sum_eltwise_top_L1_b4_relu_0_split_1
I0817 16:28:31.670289 17344 net.cpp:408] L1_b5_sum_eltwise -> L1_b5_sum_eltwise_top
I0817 16:28:31.670321 17344 net.cpp:150] Setting up L1_b5_sum_eltwise
I0817 16:28:31.670331 17344 net.cpp:157] Top shape: 125 16 32 32 (2048000)
I0817 16:28:31.670336 17344 net.cpp:165] Memory required for data: 476673500
I0817 16:28:31.670341 17344 layer_factory.hpp:77] Creating layer L1_b5_relu
I0817 16:28:31.670347 17344 net.cpp:100] Creating Layer L1_b5_relu
I0817 16:28:31.670353 17344 net.cpp:434] L1_b5_relu <- L1_b5_sum_eltwise_top
I0817 16:28:31.670362 17344 net.cpp:395] L1_b5_relu -> L1_b5_sum_eltwise_top (in-place)
I0817 16:28:31.670372 17344 net.cpp:150] Setting up L1_b5_relu
I0817 16:28:31.670378 17344 net.cpp:157] Top shape: 125 16 32 32 (2048000)
I0817 16:28:31.670382 17344 net.cpp:165] Memory required for data: 484865500
I0817 16:28:31.670387 17344 layer_factory.hpp:77] Creating layer L1_b5_sum_eltwise_top_L1_b5_relu_0_split
I0817 16:28:31.670394 17344 net.cpp:100] Creating Layer L1_b5_sum_eltwise_top_L1_b5_relu_0_split
I0817 16:28:31.670399 17344 net.cpp:434] L1_b5_sum_eltwise_top_L1_b5_relu_0_split <- L1_b5_sum_eltwise_top
I0817 16:28:31.670406 17344 net.cpp:408] L1_b5_sum_eltwise_top_L1_b5_relu_0_split -> L1_b5_sum_eltwise_top_L1_b5_relu_0_split_0
I0817 16:28:31.670415 17344 net.cpp:408] L1_b5_sum_eltwise_top_L1_b5_relu_0_split -> L1_b5_sum_eltwise_top_L1_b5_relu_0_split_1
I0817 16:28:31.670459 17344 net.cpp:150] Setting up L1_b5_sum_eltwise_top_L1_b5_relu_0_split
I0817 16:28:31.670471 17344 net.cpp:157] Top shape: 125 16 32 32 (2048000)
I0817 16:28:31.670477 17344 net.cpp:157] Top shape: 125 16 32 32 (2048000)
I0817 16:28:31.670482 17344 net.cpp:165] Memory required for data: 501249500
I0817 16:28:31.670487 17344 layer_factory.hpp:77] Creating layer L1_b6_cbr1_conv
I0817 16:28:31.670497 17344 net.cpp:100] Creating Layer L1_b6_cbr1_conv
I0817 16:28:31.670503 17344 net.cpp:434] L1_b6_cbr1_conv <- L1_b5_sum_eltwise_top_L1_b5_relu_0_split_0
I0817 16:28:31.670514 17344 net.cpp:408] L1_b6_cbr1_conv -> L1_b6_cbr1_conv_top
I0817 16:28:31.670830 17344 net.cpp:150] Setting up L1_b6_cbr1_conv
I0817 16:28:31.670843 17344 net.cpp:157] Top shape: 125 16 32 32 (2048000)
I0817 16:28:31.670848 17344 net.cpp:165] Memory required for data: 509441500
I0817 16:28:31.670864 17344 layer_factory.hpp:77] Creating layer L1_b6_cbr1_bn
I0817 16:28:31.670874 17344 net.cpp:100] Creating Layer L1_b6_cbr1_bn
I0817 16:28:31.670879 17344 net.cpp:434] L1_b6_cbr1_bn <- L1_b6_cbr1_conv_top
I0817 16:28:31.670891 17344 net.cpp:408] L1_b6_cbr1_bn -> L1_b6_cbr1_bn_top
I0817 16:28:31.671130 17344 net.cpp:150] Setting up L1_b6_cbr1_bn
I0817 16:28:31.671144 17344 net.cpp:157] Top shape: 125 16 32 32 (2048000)
I0817 16:28:31.671149 17344 net.cpp:165] Memory required for data: 517633500
I0817 16:28:31.671159 17344 layer_factory.hpp:77] Creating layer L1_b6_cbr1_scale
I0817 16:28:31.671170 17344 net.cpp:100] Creating Layer L1_b6_cbr1_scale
I0817 16:28:31.671176 17344 net.cpp:434] L1_b6_cbr1_scale <- L1_b6_cbr1_bn_top
I0817 16:28:31.671183 17344 net.cpp:395] L1_b6_cbr1_scale -> L1_b6_cbr1_bn_top (in-place)
I0817 16:28:31.671236 17344 layer_factory.hpp:77] Creating layer L1_b6_cbr1_scale
I0817 16:28:31.671377 17344 net.cpp:150] Setting up L1_b6_cbr1_scale
I0817 16:28:31.671389 17344 net.cpp:157] Top shape: 125 16 32 32 (2048000)
I0817 16:28:31.671394 17344 net.cpp:165] Memory required for data: 525825500
I0817 16:28:31.671403 17344 layer_factory.hpp:77] Creating layer L1_b6_cbr1_relu
I0817 16:28:31.671411 17344 net.cpp:100] Creating Layer L1_b6_cbr1_relu
I0817 16:28:31.671416 17344 net.cpp:434] L1_b6_cbr1_relu <- L1_b6_cbr1_bn_top
I0817 16:28:31.671427 17344 net.cpp:395] L1_b6_cbr1_relu -> L1_b6_cbr1_bn_top (in-place)
I0817 16:28:31.671435 17344 net.cpp:150] Setting up L1_b6_cbr1_relu
I0817 16:28:31.671442 17344 net.cpp:157] Top shape: 125 16 32 32 (2048000)
I0817 16:28:31.671447 17344 net.cpp:165] Memory required for data: 534017500
I0817 16:28:31.671452 17344 layer_factory.hpp:77] Creating layer L1_b6_cbr2_conv
I0817 16:28:31.671468 17344 net.cpp:100] Creating Layer L1_b6_cbr2_conv
I0817 16:28:31.671473 17344 net.cpp:434] L1_b6_cbr2_conv <- L1_b6_cbr1_bn_top
I0817 16:28:31.671484 17344 net.cpp:408] L1_b6_cbr2_conv -> L1_b6_cbr2_conv_top
I0817 16:28:31.671803 17344 net.cpp:150] Setting up L1_b6_cbr2_conv
I0817 16:28:31.671818 17344 net.cpp:157] Top shape: 125 16 32 32 (2048000)
I0817 16:28:31.671823 17344 net.cpp:165] Memory required for data: 542209500
I0817 16:28:31.671831 17344 layer_factory.hpp:77] Creating layer L1_b6_cbr2_bn
I0817 16:28:31.671839 17344 net.cpp:100] Creating Layer L1_b6_cbr2_bn
I0817 16:28:31.671845 17344 net.cpp:434] L1_b6_cbr2_bn <- L1_b6_cbr2_conv_top
I0817 16:28:31.671854 17344 net.cpp:408] L1_b6_cbr2_bn -> L1_b6_cbr2_bn_top
I0817 16:28:31.672091 17344 net.cpp:150] Setting up L1_b6_cbr2_bn
I0817 16:28:31.672102 17344 net.cpp:157] Top shape: 125 16 32 32 (2048000)
I0817 16:28:31.672107 17344 net.cpp:165] Memory required for data: 550401500
I0817 16:28:31.672117 17344 layer_factory.hpp:77] Creating layer L1_b6_cbr2_scale
I0817 16:28:31.672128 17344 net.cpp:100] Creating Layer L1_b6_cbr2_scale
I0817 16:28:31.672134 17344 net.cpp:434] L1_b6_cbr2_scale <- L1_b6_cbr2_bn_top
I0817 16:28:31.672142 17344 net.cpp:395] L1_b6_cbr2_scale -> L1_b6_cbr2_bn_top (in-place)
I0817 16:28:31.672196 17344 layer_factory.hpp:77] Creating layer L1_b6_cbr2_scale
I0817 16:28:31.672338 17344 net.cpp:150] Setting up L1_b6_cbr2_scale
I0817 16:28:31.672349 17344 net.cpp:157] Top shape: 125 16 32 32 (2048000)
I0817 16:28:31.672354 17344 net.cpp:165] Memory required for data: 558593500
I0817 16:28:31.672363 17344 layer_factory.hpp:77] Creating layer L1_b6_sum_eltwise
I0817 16:28:31.672380 17344 net.cpp:100] Creating Layer L1_b6_sum_eltwise
I0817 16:28:31.672386 17344 net.cpp:434] L1_b6_sum_eltwise <- L1_b6_cbr2_bn_top
I0817 16:28:31.672394 17344 net.cpp:434] L1_b6_sum_eltwise <- L1_b5_sum_eltwise_top_L1_b5_relu_0_split_1
I0817 16:28:31.672404 17344 net.cpp:408] L1_b6_sum_eltwise -> L1_b6_sum_eltwise_top
I0817 16:28:31.672435 17344 net.cpp:150] Setting up L1_b6_sum_eltwise
I0817 16:28:31.672446 17344 net.cpp:157] Top shape: 125 16 32 32 (2048000)
I0817 16:28:31.672451 17344 net.cpp:165] Memory required for data: 566785500
I0817 16:28:31.672456 17344 layer_factory.hpp:77] Creating layer L1_b6_relu
I0817 16:28:31.672474 17344 net.cpp:100] Creating Layer L1_b6_relu
I0817 16:28:31.672482 17344 net.cpp:434] L1_b6_relu <- L1_b6_sum_eltwise_top
I0817 16:28:31.672488 17344 net.cpp:395] L1_b6_relu -> L1_b6_sum_eltwise_top (in-place)
I0817 16:28:31.672497 17344 net.cpp:150] Setting up L1_b6_relu
I0817 16:28:31.672504 17344 net.cpp:157] Top shape: 125 16 32 32 (2048000)
I0817 16:28:31.672508 17344 net.cpp:165] Memory required for data: 574977500
I0817 16:28:31.672513 17344 layer_factory.hpp:77] Creating layer L1_b6_sum_eltwise_top_L1_b6_relu_0_split
I0817 16:28:31.672520 17344 net.cpp:100] Creating Layer L1_b6_sum_eltwise_top_L1_b6_relu_0_split
I0817 16:28:31.672525 17344 net.cpp:434] L1_b6_sum_eltwise_top_L1_b6_relu_0_split <- L1_b6_sum_eltwise_top
I0817 16:28:31.672533 17344 net.cpp:408] L1_b6_sum_eltwise_top_L1_b6_relu_0_split -> L1_b6_sum_eltwise_top_L1_b6_relu_0_split_0
I0817 16:28:31.672541 17344 net.cpp:408] L1_b6_sum_eltwise_top_L1_b6_relu_0_split -> L1_b6_sum_eltwise_top_L1_b6_relu_0_split_1
I0817 16:28:31.672586 17344 net.cpp:150] Setting up L1_b6_sum_eltwise_top_L1_b6_relu_0_split
I0817 16:28:31.672598 17344 net.cpp:157] Top shape: 125 16 32 32 (2048000)
I0817 16:28:31.672605 17344 net.cpp:157] Top shape: 125 16 32 32 (2048000)
I0817 16:28:31.672610 17344 net.cpp:165] Memory required for data: 591361500
I0817 16:28:31.672614 17344 layer_factory.hpp:77] Creating layer L1_b7_cbr1_conv
I0817 16:28:31.672627 17344 net.cpp:100] Creating Layer L1_b7_cbr1_conv
I0817 16:28:31.672634 17344 net.cpp:434] L1_b7_cbr1_conv <- L1_b6_sum_eltwise_top_L1_b6_relu_0_split_0
I0817 16:28:31.672642 17344 net.cpp:408] L1_b7_cbr1_conv -> L1_b7_cbr1_conv_top
I0817 16:28:31.672962 17344 net.cpp:150] Setting up L1_b7_cbr1_conv
I0817 16:28:31.672977 17344 net.cpp:157] Top shape: 125 16 32 32 (2048000)
I0817 16:28:31.672982 17344 net.cpp:165] Memory required for data: 599553500
I0817 16:28:31.672991 17344 layer_factory.hpp:77] Creating layer L1_b7_cbr1_bn
I0817 16:28:31.673004 17344 net.cpp:100] Creating Layer L1_b7_cbr1_bn
I0817 16:28:31.673010 17344 net.cpp:434] L1_b7_cbr1_bn <- L1_b7_cbr1_conv_top
I0817 16:28:31.673019 17344 net.cpp:408] L1_b7_cbr1_bn -> L1_b7_cbr1_bn_top
I0817 16:28:31.673261 17344 net.cpp:150] Setting up L1_b7_cbr1_bn
I0817 16:28:31.673274 17344 net.cpp:157] Top shape: 125 16 32 32 (2048000)
I0817 16:28:31.673279 17344 net.cpp:165] Memory required for data: 607745500
I0817 16:28:31.673290 17344 layer_factory.hpp:77] Creating layer L1_b7_cbr1_scale
I0817 16:28:31.673297 17344 net.cpp:100] Creating Layer L1_b7_cbr1_scale
I0817 16:28:31.673302 17344 net.cpp:434] L1_b7_cbr1_scale <- L1_b7_cbr1_bn_top
I0817 16:28:31.673310 17344 net.cpp:395] L1_b7_cbr1_scale -> L1_b7_cbr1_bn_top (in-place)
I0817 16:28:31.673364 17344 layer_factory.hpp:77] Creating layer L1_b7_cbr1_scale
I0817 16:28:31.673503 17344 net.cpp:150] Setting up L1_b7_cbr1_scale
I0817 16:28:31.673516 17344 net.cpp:157] Top shape: 125 16 32 32 (2048000)
I0817 16:28:31.673521 17344 net.cpp:165] Memory required for data: 615937500
I0817 16:28:31.673529 17344 layer_factory.hpp:77] Creating layer L1_b7_cbr1_relu
I0817 16:28:31.673537 17344 net.cpp:100] Creating Layer L1_b7_cbr1_relu
I0817 16:28:31.673542 17344 net.cpp:434] L1_b7_cbr1_relu <- L1_b7_cbr1_bn_top
I0817 16:28:31.673553 17344 net.cpp:395] L1_b7_cbr1_relu -> L1_b7_cbr1_bn_top (in-place)
I0817 16:28:31.673563 17344 net.cpp:150] Setting up L1_b7_cbr1_relu
I0817 16:28:31.673569 17344 net.cpp:157] Top shape: 125 16 32 32 (2048000)
I0817 16:28:31.673574 17344 net.cpp:165] Memory required for data: 624129500
I0817 16:28:31.673578 17344 layer_factory.hpp:77] Creating layer L1_b7_cbr2_conv
I0817 16:28:31.673589 17344 net.cpp:100] Creating Layer L1_b7_cbr2_conv
I0817 16:28:31.673594 17344 net.cpp:434] L1_b7_cbr2_conv <- L1_b7_cbr1_bn_top
I0817 16:28:31.673605 17344 net.cpp:408] L1_b7_cbr2_conv -> L1_b7_cbr2_conv_top
I0817 16:28:31.673923 17344 net.cpp:150] Setting up L1_b7_cbr2_conv
I0817 16:28:31.673936 17344 net.cpp:157] Top shape: 125 16 32 32 (2048000)
I0817 16:28:31.673941 17344 net.cpp:165] Memory required for data: 632321500
I0817 16:28:31.673957 17344 layer_factory.hpp:77] Creating layer L1_b7_cbr2_bn
I0817 16:28:31.673966 17344 net.cpp:100] Creating Layer L1_b7_cbr2_bn
I0817 16:28:31.673972 17344 net.cpp:434] L1_b7_cbr2_bn <- L1_b7_cbr2_conv_top
I0817 16:28:31.673984 17344 net.cpp:408] L1_b7_cbr2_bn -> L1_b7_cbr2_bn_top
I0817 16:28:31.674222 17344 net.cpp:150] Setting up L1_b7_cbr2_bn
I0817 16:28:31.674238 17344 net.cpp:157] Top shape: 125 16 32 32 (2048000)
I0817 16:28:31.674243 17344 net.cpp:165] Memory required for data: 640513500
I0817 16:28:31.674253 17344 layer_factory.hpp:77] Creating layer L1_b7_cbr2_scale
I0817 16:28:31.674262 17344 net.cpp:100] Creating Layer L1_b7_cbr2_scale
I0817 16:28:31.674268 17344 net.cpp:434] L1_b7_cbr2_scale <- L1_b7_cbr2_bn_top
I0817 16:28:31.674274 17344 net.cpp:395] L1_b7_cbr2_scale -> L1_b7_cbr2_bn_top (in-place)
I0817 16:28:31.674329 17344 layer_factory.hpp:77] Creating layer L1_b7_cbr2_scale
I0817 16:28:31.674470 17344 net.cpp:150] Setting up L1_b7_cbr2_scale
I0817 16:28:31.674484 17344 net.cpp:157] Top shape: 125 16 32 32 (2048000)
I0817 16:28:31.674489 17344 net.cpp:165] Memory required for data: 648705500
I0817 16:28:31.674496 17344 layer_factory.hpp:77] Creating layer L1_b7_sum_eltwise
I0817 16:28:31.674510 17344 net.cpp:100] Creating Layer L1_b7_sum_eltwise
I0817 16:28:31.674516 17344 net.cpp:434] L1_b7_sum_eltwise <- L1_b7_cbr2_bn_top
I0817 16:28:31.674523 17344 net.cpp:434] L1_b7_sum_eltwise <- L1_b6_sum_eltwise_top_L1_b6_relu_0_split_1
I0817 16:28:31.674533 17344 net.cpp:408] L1_b7_sum_eltwise -> L1_b7_sum_eltwise_top
I0817 16:28:31.674564 17344 net.cpp:150] Setting up L1_b7_sum_eltwise
I0817 16:28:31.674573 17344 net.cpp:157] Top shape: 125 16 32 32 (2048000)
I0817 16:28:31.674578 17344 net.cpp:165] Memory required for data: 656897500
I0817 16:28:31.674583 17344 layer_factory.hpp:77] Creating layer L1_b7_relu
I0817 16:28:31.674594 17344 net.cpp:100] Creating Layer L1_b7_relu
I0817 16:28:31.674600 17344 net.cpp:434] L1_b7_relu <- L1_b7_sum_eltwise_top
I0817 16:28:31.674607 17344 net.cpp:395] L1_b7_relu -> L1_b7_sum_eltwise_top (in-place)
I0817 16:28:31.674615 17344 net.cpp:150] Setting up L1_b7_relu
I0817 16:28:31.674623 17344 net.cpp:157] Top shape: 125 16 32 32 (2048000)
I0817 16:28:31.674626 17344 net.cpp:165] Memory required for data: 665089500
I0817 16:28:31.674631 17344 layer_factory.hpp:77] Creating layer L1_b7_sum_eltwise_top_L1_b7_relu_0_split
I0817 16:28:31.674638 17344 net.cpp:100] Creating Layer L1_b7_sum_eltwise_top_L1_b7_relu_0_split
I0817 16:28:31.674643 17344 net.cpp:434] L1_b7_sum_eltwise_top_L1_b7_relu_0_split <- L1_b7_sum_eltwise_top
I0817 16:28:31.674650 17344 net.cpp:408] L1_b7_sum_eltwise_top_L1_b7_relu_0_split -> L1_b7_sum_eltwise_top_L1_b7_relu_0_split_0
I0817 16:28:31.674659 17344 net.cpp:408] L1_b7_sum_eltwise_top_L1_b7_relu_0_split -> L1_b7_sum_eltwise_top_L1_b7_relu_0_split_1
I0817 16:28:31.674711 17344 net.cpp:150] Setting up L1_b7_sum_eltwise_top_L1_b7_relu_0_split
I0817 16:28:31.674723 17344 net.cpp:157] Top shape: 125 16 32 32 (2048000)
I0817 16:28:31.674731 17344 net.cpp:157] Top shape: 125 16 32 32 (2048000)
I0817 16:28:31.674736 17344 net.cpp:165] Memory required for data: 681473500
I0817 16:28:31.674739 17344 layer_factory.hpp:77] Creating layer L1_b8_cbr1_conv
I0817 16:28:31.674758 17344 net.cpp:100] Creating Layer L1_b8_cbr1_conv
I0817 16:28:31.674764 17344 net.cpp:434] L1_b8_cbr1_conv <- L1_b7_sum_eltwise_top_L1_b7_relu_0_split_0
I0817 16:28:31.674773 17344 net.cpp:408] L1_b8_cbr1_conv -> L1_b8_cbr1_conv_top
I0817 16:28:31.675087 17344 net.cpp:150] Setting up L1_b8_cbr1_conv
I0817 16:28:31.675101 17344 net.cpp:157] Top shape: 125 16 32 32 (2048000)
I0817 16:28:31.675107 17344 net.cpp:165] Memory required for data: 689665500
I0817 16:28:31.675115 17344 layer_factory.hpp:77] Creating layer L1_b8_cbr1_bn
I0817 16:28:31.675128 17344 net.cpp:100] Creating Layer L1_b8_cbr1_bn
I0817 16:28:31.675134 17344 net.cpp:434] L1_b8_cbr1_bn <- L1_b8_cbr1_conv_top
I0817 16:28:31.675143 17344 net.cpp:408] L1_b8_cbr1_bn -> L1_b8_cbr1_bn_top
I0817 16:28:31.675392 17344 net.cpp:150] Setting up L1_b8_cbr1_bn
I0817 16:28:31.675408 17344 net.cpp:157] Top shape: 125 16 32 32 (2048000)
I0817 16:28:31.675413 17344 net.cpp:165] Memory required for data: 697857500
I0817 16:28:31.675423 17344 layer_factory.hpp:77] Creating layer L1_b8_cbr1_scale
I0817 16:28:31.675432 17344 net.cpp:100] Creating Layer L1_b8_cbr1_scale
I0817 16:28:31.675438 17344 net.cpp:434] L1_b8_cbr1_scale <- L1_b8_cbr1_bn_top
I0817 16:28:31.675446 17344 net.cpp:395] L1_b8_cbr1_scale -> L1_b8_cbr1_bn_top (in-place)
I0817 16:28:31.675498 17344 layer_factory.hpp:77] Creating layer L1_b8_cbr1_scale
I0817 16:28:31.675639 17344 net.cpp:150] Setting up L1_b8_cbr1_scale
I0817 16:28:31.675652 17344 net.cpp:157] Top shape: 125 16 32 32 (2048000)
I0817 16:28:31.675657 17344 net.cpp:165] Memory required for data: 706049500
I0817 16:28:31.675665 17344 layer_factory.hpp:77] Creating layer L1_b8_cbr1_relu
I0817 16:28:31.675683 17344 net.cpp:100] Creating Layer L1_b8_cbr1_relu
I0817 16:28:31.675689 17344 net.cpp:434] L1_b8_cbr1_relu <- L1_b8_cbr1_bn_top
I0817 16:28:31.675699 17344 net.cpp:395] L1_b8_cbr1_relu -> L1_b8_cbr1_bn_top (in-place)
I0817 16:28:31.675709 17344 net.cpp:150] Setting up L1_b8_cbr1_relu
I0817 16:28:31.675716 17344 net.cpp:157] Top shape: 125 16 32 32 (2048000)
I0817 16:28:31.675720 17344 net.cpp:165] Memory required for data: 714241500
I0817 16:28:31.675725 17344 layer_factory.hpp:77] Creating layer L1_b8_cbr2_conv
I0817 16:28:31.675736 17344 net.cpp:100] Creating Layer L1_b8_cbr2_conv
I0817 16:28:31.675741 17344 net.cpp:434] L1_b8_cbr2_conv <- L1_b8_cbr1_bn_top
I0817 16:28:31.675757 17344 net.cpp:408] L1_b8_cbr2_conv -> L1_b8_cbr2_conv_top
I0817 16:28:31.676102 17344 net.cpp:150] Setting up L1_b8_cbr2_conv
I0817 16:28:31.676117 17344 net.cpp:157] Top shape: 125 16 32 32 (2048000)
I0817 16:28:31.676122 17344 net.cpp:165] Memory required for data: 722433500
I0817 16:28:31.676131 17344 layer_factory.hpp:77] Creating layer L1_b8_cbr2_bn
I0817 16:28:31.676139 17344 net.cpp:100] Creating Layer L1_b8_cbr2_bn
I0817 16:28:31.676146 17344 net.cpp:434] L1_b8_cbr2_bn <- L1_b8_cbr2_conv_top
I0817 16:28:31.676156 17344 net.cpp:408] L1_b8_cbr2_bn -> L1_b8_cbr2_bn_top
I0817 16:28:31.676404 17344 net.cpp:150] Setting up L1_b8_cbr2_bn
I0817 16:28:31.676417 17344 net.cpp:157] Top shape: 125 16 32 32 (2048000)
I0817 16:28:31.676422 17344 net.cpp:165] Memory required for data: 730625500
I0817 16:28:31.676434 17344 layer_factory.hpp:77] Creating layer L1_b8_cbr2_scale
I0817 16:28:31.676445 17344 net.cpp:100] Creating Layer L1_b8_cbr2_scale
I0817 16:28:31.676450 17344 net.cpp:434] L1_b8_cbr2_scale <- L1_b8_cbr2_bn_top
I0817 16:28:31.676457 17344 net.cpp:395] L1_b8_cbr2_scale -> L1_b8_cbr2_bn_top (in-place)
I0817 16:28:31.676511 17344 layer_factory.hpp:77] Creating layer L1_b8_cbr2_scale
I0817 16:28:31.676673 17344 net.cpp:150] Setting up L1_b8_cbr2_scale
I0817 16:28:31.676694 17344 net.cpp:157] Top shape: 125 16 32 32 (2048000)
I0817 16:28:31.676699 17344 net.cpp:165] Memory required for data: 738817500
I0817 16:28:31.676708 17344 layer_factory.hpp:77] Creating layer L1_b8_sum_eltwise
I0817 16:28:31.676726 17344 net.cpp:100] Creating Layer L1_b8_sum_eltwise
I0817 16:28:31.676733 17344 net.cpp:434] L1_b8_sum_eltwise <- L1_b8_cbr2_bn_top
I0817 16:28:31.676739 17344 net.cpp:434] L1_b8_sum_eltwise <- L1_b7_sum_eltwise_top_L1_b7_relu_0_split_1
I0817 16:28:31.676748 17344 net.cpp:408] L1_b8_sum_eltwise -> L1_b8_sum_eltwise_top
I0817 16:28:31.676781 17344 net.cpp:150] Setting up L1_b8_sum_eltwise
I0817 16:28:31.676795 17344 net.cpp:157] Top shape: 125 16 32 32 (2048000)
I0817 16:28:31.676798 17344 net.cpp:165] Memory required for data: 747009500
I0817 16:28:31.676803 17344 layer_factory.hpp:77] Creating layer L1_b8_relu
I0817 16:28:31.676811 17344 net.cpp:100] Creating Layer L1_b8_relu
I0817 16:28:31.676817 17344 net.cpp:434] L1_b8_relu <- L1_b8_sum_eltwise_top
I0817 16:28:31.676827 17344 net.cpp:395] L1_b8_relu -> L1_b8_sum_eltwise_top (in-place)
I0817 16:28:31.676836 17344 net.cpp:150] Setting up L1_b8_relu
I0817 16:28:31.676851 17344 net.cpp:157] Top shape: 125 16 32 32 (2048000)
I0817 16:28:31.676856 17344 net.cpp:165] Memory required for data: 755201500
I0817 16:28:31.676859 17344 layer_factory.hpp:77] Creating layer L1_b8_sum_eltwise_top_L1_b8_relu_0_split
I0817 16:28:31.676867 17344 net.cpp:100] Creating Layer L1_b8_sum_eltwise_top_L1_b8_relu_0_split
I0817 16:28:31.676872 17344 net.cpp:434] L1_b8_sum_eltwise_top_L1_b8_relu_0_split <- L1_b8_sum_eltwise_top
I0817 16:28:31.676879 17344 net.cpp:408] L1_b8_sum_eltwise_top_L1_b8_relu_0_split -> L1_b8_sum_eltwise_top_L1_b8_relu_0_split_0
I0817 16:28:31.676889 17344 net.cpp:408] L1_b8_sum_eltwise_top_L1_b8_relu_0_split -> L1_b8_sum_eltwise_top_L1_b8_relu_0_split_1
I0817 16:28:31.676935 17344 net.cpp:150] Setting up L1_b8_sum_eltwise_top_L1_b8_relu_0_split
I0817 16:28:31.676951 17344 net.cpp:157] Top shape: 125 16 32 32 (2048000)
I0817 16:28:31.676959 17344 net.cpp:157] Top shape: 125 16 32 32 (2048000)
I0817 16:28:31.676964 17344 net.cpp:165] Memory required for data: 771585500
I0817 16:28:31.676968 17344 layer_factory.hpp:77] Creating layer L1_b9_cbr1_conv
I0817 16:28:31.676981 17344 net.cpp:100] Creating Layer L1_b9_cbr1_conv
I0817 16:28:31.676988 17344 net.cpp:434] L1_b9_cbr1_conv <- L1_b8_sum_eltwise_top_L1_b8_relu_0_split_0
I0817 16:28:31.676997 17344 net.cpp:408] L1_b9_cbr1_conv -> L1_b9_cbr1_conv_top
I0817 16:28:31.677320 17344 net.cpp:150] Setting up L1_b9_cbr1_conv
I0817 16:28:31.677336 17344 net.cpp:157] Top shape: 125 16 32 32 (2048000)
I0817 16:28:31.677341 17344 net.cpp:165] Memory required for data: 779777500
I0817 16:28:31.677350 17344 layer_factory.hpp:77] Creating layer L1_b9_cbr1_bn
I0817 16:28:31.677359 17344 net.cpp:100] Creating Layer L1_b9_cbr1_bn
I0817 16:28:31.677368 17344 net.cpp:434] L1_b9_cbr1_bn <- L1_b9_cbr1_conv_top
I0817 16:28:31.677376 17344 net.cpp:408] L1_b9_cbr1_bn -> L1_b9_cbr1_bn_top
I0817 16:28:31.677624 17344 net.cpp:150] Setting up L1_b9_cbr1_bn
I0817 16:28:31.677637 17344 net.cpp:157] Top shape: 125 16 32 32 (2048000)
I0817 16:28:31.677642 17344 net.cpp:165] Memory required for data: 787969500
I0817 16:28:31.677652 17344 layer_factory.hpp:77] Creating layer L1_b9_cbr1_scale
I0817 16:28:31.677661 17344 net.cpp:100] Creating Layer L1_b9_cbr1_scale
I0817 16:28:31.677666 17344 net.cpp:434] L1_b9_cbr1_scale <- L1_b9_cbr1_bn_top
I0817 16:28:31.677683 17344 net.cpp:395] L1_b9_cbr1_scale -> L1_b9_cbr1_bn_top (in-place)
I0817 16:28:31.677741 17344 layer_factory.hpp:77] Creating layer L1_b9_cbr1_scale
I0817 16:28:31.677884 17344 net.cpp:150] Setting up L1_b9_cbr1_scale
I0817 16:28:31.677901 17344 net.cpp:157] Top shape: 125 16 32 32 (2048000)
I0817 16:28:31.677906 17344 net.cpp:165] Memory required for data: 796161500
I0817 16:28:31.677914 17344 layer_factory.hpp:77] Creating layer L1_b9_cbr1_relu
I0817 16:28:31.677922 17344 net.cpp:100] Creating Layer L1_b9_cbr1_relu
I0817 16:28:31.677927 17344 net.cpp:434] L1_b9_cbr1_relu <- L1_b9_cbr1_bn_top
I0817 16:28:31.677934 17344 net.cpp:395] L1_b9_cbr1_relu -> L1_b9_cbr1_bn_top (in-place)
I0817 16:28:31.677943 17344 net.cpp:150] Setting up L1_b9_cbr1_relu
I0817 16:28:31.677950 17344 net.cpp:157] Top shape: 125 16 32 32 (2048000)
I0817 16:28:31.677954 17344 net.cpp:165] Memory required for data: 804353500
I0817 16:28:31.677959 17344 layer_factory.hpp:77] Creating layer L1_b9_cbr2_conv
I0817 16:28:31.677973 17344 net.cpp:100] Creating Layer L1_b9_cbr2_conv
I0817 16:28:31.677978 17344 net.cpp:434] L1_b9_cbr2_conv <- L1_b9_cbr1_bn_top
I0817 16:28:31.677989 17344 net.cpp:408] L1_b9_cbr2_conv -> L1_b9_cbr2_conv_top
I0817 16:28:31.678313 17344 net.cpp:150] Setting up L1_b9_cbr2_conv
I0817 16:28:31.678328 17344 net.cpp:157] Top shape: 125 16 32 32 (2048000)
I0817 16:28:31.678333 17344 net.cpp:165] Memory required for data: 812545500
I0817 16:28:31.678340 17344 layer_factory.hpp:77] Creating layer L1_b9_cbr2_bn
I0817 16:28:31.678352 17344 net.cpp:100] Creating Layer L1_b9_cbr2_bn
I0817 16:28:31.678359 17344 net.cpp:434] L1_b9_cbr2_bn <- L1_b9_cbr2_conv_top
I0817 16:28:31.678369 17344 net.cpp:408] L1_b9_cbr2_bn -> L1_b9_cbr2_bn_top
I0817 16:28:31.678618 17344 net.cpp:150] Setting up L1_b9_cbr2_bn
I0817 16:28:31.678632 17344 net.cpp:157] Top shape: 125 16 32 32 (2048000)
I0817 16:28:31.678637 17344 net.cpp:165] Memory required for data: 820737500
I0817 16:28:31.678668 17344 layer_factory.hpp:77] Creating layer L1_b9_cbr2_scale
I0817 16:28:31.678683 17344 net.cpp:100] Creating Layer L1_b9_cbr2_scale
I0817 16:28:31.678689 17344 net.cpp:434] L1_b9_cbr2_scale <- L1_b9_cbr2_bn_top
I0817 16:28:31.678700 17344 net.cpp:395] L1_b9_cbr2_scale -> L1_b9_cbr2_bn_top (in-place)
I0817 16:28:31.678753 17344 layer_factory.hpp:77] Creating layer L1_b9_cbr2_scale
I0817 16:28:31.678900 17344 net.cpp:150] Setting up L1_b9_cbr2_scale
I0817 16:28:31.678912 17344 net.cpp:157] Top shape: 125 16 32 32 (2048000)
I0817 16:28:31.678917 17344 net.cpp:165] Memory required for data: 828929500
I0817 16:28:31.678925 17344 layer_factory.hpp:77] Creating layer L1_b9_sum_eltwise
I0817 16:28:31.678938 17344 net.cpp:100] Creating Layer L1_b9_sum_eltwise
I0817 16:28:31.678944 17344 net.cpp:434] L1_b9_sum_eltwise <- L1_b9_cbr2_bn_top
I0817 16:28:31.678951 17344 net.cpp:434] L1_b9_sum_eltwise <- L1_b8_sum_eltwise_top_L1_b8_relu_0_split_1
I0817 16:28:31.678958 17344 net.cpp:408] L1_b9_sum_eltwise -> L1_b9_sum_eltwise_top
I0817 16:28:31.678989 17344 net.cpp:150] Setting up L1_b9_sum_eltwise
I0817 16:28:31.678998 17344 net.cpp:157] Top shape: 125 16 32 32 (2048000)
I0817 16:28:31.679003 17344 net.cpp:165] Memory required for data: 837121500
I0817 16:28:31.679008 17344 layer_factory.hpp:77] Creating layer L1_b9_relu
I0817 16:28:31.679018 17344 net.cpp:100] Creating Layer L1_b9_relu
I0817 16:28:31.679024 17344 net.cpp:434] L1_b9_relu <- L1_b9_sum_eltwise_top
I0817 16:28:31.679031 17344 net.cpp:395] L1_b9_relu -> L1_b9_sum_eltwise_top (in-place)
I0817 16:28:31.679040 17344 net.cpp:150] Setting up L1_b9_relu
I0817 16:28:31.679046 17344 net.cpp:157] Top shape: 125 16 32 32 (2048000)
I0817 16:28:31.679051 17344 net.cpp:165] Memory required for data: 845313500
I0817 16:28:31.679056 17344 layer_factory.hpp:77] Creating layer L1_b9_sum_eltwise_top_L1_b9_relu_0_split
I0817 16:28:31.679066 17344 net.cpp:100] Creating Layer L1_b9_sum_eltwise_top_L1_b9_relu_0_split
I0817 16:28:31.679072 17344 net.cpp:434] L1_b9_sum_eltwise_top_L1_b9_relu_0_split <- L1_b9_sum_eltwise_top
I0817 16:28:31.679080 17344 net.cpp:408] L1_b9_sum_eltwise_top_L1_b9_relu_0_split -> L1_b9_sum_eltwise_top_L1_b9_relu_0_split_0
I0817 16:28:31.679088 17344 net.cpp:408] L1_b9_sum_eltwise_top_L1_b9_relu_0_split -> L1_b9_sum_eltwise_top_L1_b9_relu_0_split_1
I0817 16:28:31.679134 17344 net.cpp:150] Setting up L1_b9_sum_eltwise_top_L1_b9_relu_0_split
I0817 16:28:31.679145 17344 net.cpp:157] Top shape: 125 16 32 32 (2048000)
I0817 16:28:31.679152 17344 net.cpp:157] Top shape: 125 16 32 32 (2048000)
I0817 16:28:31.679157 17344 net.cpp:165] Memory required for data: 861697500
I0817 16:28:31.679162 17344 layer_factory.hpp:77] Creating layer L2_b1_cbr1_conv
I0817 16:28:31.679175 17344 net.cpp:100] Creating Layer L2_b1_cbr1_conv
I0817 16:28:31.679181 17344 net.cpp:434] L2_b1_cbr1_conv <- L1_b9_sum_eltwise_top_L1_b9_relu_0_split_0
I0817 16:28:31.679190 17344 net.cpp:408] L2_b1_cbr1_conv -> L2_b1_cbr1_conv_top
I0817 16:28:31.679508 17344 net.cpp:150] Setting up L2_b1_cbr1_conv
I0817 16:28:31.679522 17344 net.cpp:157] Top shape: 125 16 16 16 (512000)
I0817 16:28:31.679527 17344 net.cpp:165] Memory required for data: 863745500
I0817 16:28:31.679536 17344 layer_factory.hpp:77] Creating layer L2_b1_cbr1_bn
I0817 16:28:31.679548 17344 net.cpp:100] Creating Layer L2_b1_cbr1_bn
I0817 16:28:31.679554 17344 net.cpp:434] L2_b1_cbr1_bn <- L2_b1_cbr1_conv_top
I0817 16:28:31.679564 17344 net.cpp:408] L2_b1_cbr1_bn -> L2_b1_cbr1_bn_top
I0817 16:28:31.679813 17344 net.cpp:150] Setting up L2_b1_cbr1_bn
I0817 16:28:31.679827 17344 net.cpp:157] Top shape: 125 16 16 16 (512000)
I0817 16:28:31.679832 17344 net.cpp:165] Memory required for data: 865793500
I0817 16:28:31.679842 17344 layer_factory.hpp:77] Creating layer L2_b1_cbr1_scale
I0817 16:28:31.679858 17344 net.cpp:100] Creating Layer L2_b1_cbr1_scale
I0817 16:28:31.679864 17344 net.cpp:434] L2_b1_cbr1_scale <- L2_b1_cbr1_bn_top
I0817 16:28:31.679872 17344 net.cpp:395] L2_b1_cbr1_scale -> L2_b1_cbr1_bn_top (in-place)
I0817 16:28:31.679929 17344 layer_factory.hpp:77] Creating layer L2_b1_cbr1_scale
I0817 16:28:31.680068 17344 net.cpp:150] Setting up L2_b1_cbr1_scale
I0817 16:28:31.680080 17344 net.cpp:157] Top shape: 125 16 16 16 (512000)
I0817 16:28:31.680085 17344 net.cpp:165] Memory required for data: 867841500
I0817 16:28:31.680094 17344 layer_factory.hpp:77] Creating layer L2_b1_cbr1_relu
I0817 16:28:31.680101 17344 net.cpp:100] Creating Layer L2_b1_cbr1_relu
I0817 16:28:31.680110 17344 net.cpp:434] L2_b1_cbr1_relu <- L2_b1_cbr1_bn_top
I0817 16:28:31.680119 17344 net.cpp:395] L2_b1_cbr1_relu -> L2_b1_cbr1_bn_top (in-place)
I0817 16:28:31.680127 17344 net.cpp:150] Setting up L2_b1_cbr1_relu
I0817 16:28:31.680135 17344 net.cpp:157] Top shape: 125 16 16 16 (512000)
I0817 16:28:31.680138 17344 net.cpp:165] Memory required for data: 869889500
I0817 16:28:31.680143 17344 layer_factory.hpp:77] Creating layer L2_b1_cbr2_conv
I0817 16:28:31.680157 17344 net.cpp:100] Creating Layer L2_b1_cbr2_conv
I0817 16:28:31.680163 17344 net.cpp:434] L2_b1_cbr2_conv <- L2_b1_cbr1_bn_top
I0817 16:28:31.680171 17344 net.cpp:408] L2_b1_cbr2_conv -> L2_b1_cbr2_conv_top
I0817 16:28:31.680492 17344 net.cpp:150] Setting up L2_b1_cbr2_conv
I0817 16:28:31.680505 17344 net.cpp:157] Top shape: 125 16 16 16 (512000)
I0817 16:28:31.680510 17344 net.cpp:165] Memory required for data: 871937500
I0817 16:28:31.680519 17344 layer_factory.hpp:77] Creating layer L2_b1_cbr2_bn
I0817 16:28:31.680531 17344 net.cpp:100] Creating Layer L2_b1_cbr2_bn
I0817 16:28:31.680536 17344 net.cpp:434] L2_b1_cbr2_bn <- L2_b1_cbr2_conv_top
I0817 16:28:31.680546 17344 net.cpp:408] L2_b1_cbr2_bn -> L2_b1_cbr2_bn_top
I0817 16:28:31.680796 17344 net.cpp:150] Setting up L2_b1_cbr2_bn
I0817 16:28:31.680812 17344 net.cpp:157] Top shape: 125 16 16 16 (512000)
I0817 16:28:31.680817 17344 net.cpp:165] Memory required for data: 873985500
I0817 16:28:31.680829 17344 layer_factory.hpp:77] Creating layer L2_b1_cbr2_scale
I0817 16:28:31.680836 17344 net.cpp:100] Creating Layer L2_b1_cbr2_scale
I0817 16:28:31.680842 17344 net.cpp:434] L2_b1_cbr2_scale <- L2_b1_cbr2_bn_top
I0817 16:28:31.680850 17344 net.cpp:395] L2_b1_cbr2_scale -> L2_b1_cbr2_bn_top (in-place)
I0817 16:28:31.680903 17344 layer_factory.hpp:77] Creating layer L2_b1_cbr2_scale
I0817 16:28:31.681051 17344 net.cpp:150] Setting up L2_b1_cbr2_scale
I0817 16:28:31.681062 17344 net.cpp:157] Top shape: 125 16 16 16 (512000)
I0817 16:28:31.681067 17344 net.cpp:165] Memory required for data: 876033500
I0817 16:28:31.681077 17344 layer_factory.hpp:77] Creating layer L2_b1_pool
I0817 16:28:31.681087 17344 net.cpp:100] Creating Layer L2_b1_pool
I0817 16:28:31.681092 17344 net.cpp:434] L2_b1_pool <- L1_b9_sum_eltwise_top_L1_b9_relu_0_split_1
I0817 16:28:31.681103 17344 net.cpp:408] L2_b1_pool -> L2_b1_pool
I0817 16:28:31.681186 17344 net.cpp:150] Setting up L2_b1_pool
I0817 16:28:31.681201 17344 net.cpp:157] Top shape: 125 16 16 16 (512000)
I0817 16:28:31.681206 17344 net.cpp:165] Memory required for data: 878081500
I0817 16:28:31.681211 17344 layer_factory.hpp:77] Creating layer L2_b1_sum_eltwise
I0817 16:28:31.681226 17344 net.cpp:100] Creating Layer L2_b1_sum_eltwise
I0817 16:28:31.681231 17344 net.cpp:434] L2_b1_sum_eltwise <- L2_b1_cbr2_bn_top
I0817 16:28:31.681238 17344 net.cpp:434] L2_b1_sum_eltwise <- L2_b1_pool
I0817 16:28:31.681246 17344 net.cpp:408] L2_b1_sum_eltwise -> L2_b1_sum_eltwise_top
I0817 16:28:31.681278 17344 net.cpp:150] Setting up L2_b1_sum_eltwise
I0817 16:28:31.681288 17344 net.cpp:157] Top shape: 125 16 16 16 (512000)
I0817 16:28:31.681293 17344 net.cpp:165] Memory required for data: 880129500
I0817 16:28:31.681298 17344 layer_factory.hpp:77] Creating layer L2_b1_relu
I0817 16:28:31.681304 17344 net.cpp:100] Creating Layer L2_b1_relu
I0817 16:28:31.681310 17344 net.cpp:434] L2_b1_relu <- L2_b1_sum_eltwise_top
I0817 16:28:31.681327 17344 net.cpp:395] L2_b1_relu -> L2_b1_sum_eltwise_top (in-place)
I0817 16:28:31.681337 17344 net.cpp:150] Setting up L2_b1_relu
I0817 16:28:31.681344 17344 net.cpp:157] Top shape: 125 16 16 16 (512000)
I0817 16:28:31.681349 17344 net.cpp:165] Memory required for data: 882177500
I0817 16:28:31.681354 17344 layer_factory.hpp:77] Creating layer L2_b1_zeros
I0817 16:28:31.681401 17344 net.cpp:100] Creating Layer L2_b1_zeros
I0817 16:28:31.681413 17344 net.cpp:408] L2_b1_zeros -> L2_b1_zeros
I0817 16:28:31.683738 17344 net.cpp:150] Setting up L2_b1_zeros
I0817 16:28:31.683756 17344 net.cpp:157] Top shape: 125 16 16 16 (512000)
I0817 16:28:31.683763 17344 net.cpp:165] Memory required for data: 884225500
I0817 16:28:31.683768 17344 layer_factory.hpp:77] Creating layer L2_b1_concat0
I0817 16:28:31.683781 17344 net.cpp:100] Creating Layer L2_b1_concat0
I0817 16:28:31.683787 17344 net.cpp:434] L2_b1_concat0 <- L2_b1_sum_eltwise_top
I0817 16:28:31.683795 17344 net.cpp:434] L2_b1_concat0 <- L2_b1_zeros
I0817 16:28:31.683802 17344 net.cpp:408] L2_b1_concat0 -> L2_b1_concat0
I0817 16:28:31.683882 17344 net.cpp:150] Setting up L2_b1_concat0
I0817 16:28:31.683897 17344 net.cpp:157] Top shape: 125 32 16 16 (1024000)
I0817 16:28:31.683902 17344 net.cpp:165] Memory required for data: 888321500
I0817 16:28:31.683908 17344 layer_factory.hpp:77] Creating layer L2_b1_concat0_L2_b1_concat0_0_split
I0817 16:28:31.683917 17344 net.cpp:100] Creating Layer L2_b1_concat0_L2_b1_concat0_0_split
I0817 16:28:31.683923 17344 net.cpp:434] L2_b1_concat0_L2_b1_concat0_0_split <- L2_b1_concat0
I0817 16:28:31.683933 17344 net.cpp:408] L2_b1_concat0_L2_b1_concat0_0_split -> L2_b1_concat0_L2_b1_concat0_0_split_0
I0817 16:28:31.683943 17344 net.cpp:408] L2_b1_concat0_L2_b1_concat0_0_split -> L2_b1_concat0_L2_b1_concat0_0_split_1
I0817 16:28:31.683995 17344 net.cpp:150] Setting up L2_b1_concat0_L2_b1_concat0_0_split
I0817 16:28:31.684010 17344 net.cpp:157] Top shape: 125 32 16 16 (1024000)
I0817 16:28:31.684017 17344 net.cpp:157] Top shape: 125 32 16 16 (1024000)
I0817 16:28:31.684021 17344 net.cpp:165] Memory required for data: 896513500
I0817 16:28:31.684026 17344 layer_factory.hpp:77] Creating layer L2_b2_cbr1_conv
I0817 16:28:31.684039 17344 net.cpp:100] Creating Layer L2_b2_cbr1_conv
I0817 16:28:31.684046 17344 net.cpp:434] L2_b2_cbr1_conv <- L2_b1_concat0_L2_b1_concat0_0_split_0
I0817 16:28:31.684054 17344 net.cpp:408] L2_b2_cbr1_conv -> L2_b2_cbr1_conv_top
I0817 16:28:31.685696 17344 net.cpp:150] Setting up L2_b2_cbr1_conv
I0817 16:28:31.685714 17344 net.cpp:157] Top shape: 125 32 16 16 (1024000)
I0817 16:28:31.685719 17344 net.cpp:165] Memory required for data: 900609500
I0817 16:28:31.685729 17344 layer_factory.hpp:77] Creating layer L2_b2_cbr1_bn
I0817 16:28:31.685742 17344 net.cpp:100] Creating Layer L2_b2_cbr1_bn
I0817 16:28:31.685748 17344 net.cpp:434] L2_b2_cbr1_bn <- L2_b2_cbr1_conv_top
I0817 16:28:31.685760 17344 net.cpp:408] L2_b2_cbr1_bn -> L2_b2_cbr1_bn_top
I0817 16:28:31.686005 17344 net.cpp:150] Setting up L2_b2_cbr1_bn
I0817 16:28:31.686018 17344 net.cpp:157] Top shape: 125 32 16 16 (1024000)
I0817 16:28:31.686023 17344 net.cpp:165] Memory required for data: 904705500
I0817 16:28:31.686033 17344 layer_factory.hpp:77] Creating layer L2_b2_cbr1_scale
I0817 16:28:31.686043 17344 net.cpp:100] Creating Layer L2_b2_cbr1_scale
I0817 16:28:31.686049 17344 net.cpp:434] L2_b2_cbr1_scale <- L2_b2_cbr1_bn_top
I0817 16:28:31.686056 17344 net.cpp:395] L2_b2_cbr1_scale -> L2_b2_cbr1_bn_top (in-place)
I0817 16:28:31.686113 17344 layer_factory.hpp:77] Creating layer L2_b2_cbr1_scale
I0817 16:28:31.686261 17344 net.cpp:150] Setting up L2_b2_cbr1_scale
I0817 16:28:31.686275 17344 net.cpp:157] Top shape: 125 32 16 16 (1024000)
I0817 16:28:31.686280 17344 net.cpp:165] Memory required for data: 908801500
I0817 16:28:31.686287 17344 layer_factory.hpp:77] Creating layer L2_b2_cbr1_relu
I0817 16:28:31.686298 17344 net.cpp:100] Creating Layer L2_b2_cbr1_relu
I0817 16:28:31.686305 17344 net.cpp:434] L2_b2_cbr1_relu <- L2_b2_cbr1_bn_top
I0817 16:28:31.686321 17344 net.cpp:395] L2_b2_cbr1_relu -> L2_b2_cbr1_bn_top (in-place)
I0817 16:28:31.686331 17344 net.cpp:150] Setting up L2_b2_cbr1_relu
I0817 16:28:31.686337 17344 net.cpp:157] Top shape: 125 32 16 16 (1024000)
I0817 16:28:31.686342 17344 net.cpp:165] Memory required for data: 912897500
I0817 16:28:31.686347 17344 layer_factory.hpp:77] Creating layer L2_b2_cbr2_conv
I0817 16:28:31.686362 17344 net.cpp:100] Creating Layer L2_b2_cbr2_conv
I0817 16:28:31.686367 17344 net.cpp:434] L2_b2_cbr2_conv <- L2_b2_cbr1_bn_top
I0817 16:28:31.686375 17344 net.cpp:408] L2_b2_cbr2_conv -> L2_b2_cbr2_conv_top
I0817 16:28:31.686848 17344 net.cpp:150] Setting up L2_b2_cbr2_conv
I0817 16:28:31.686863 17344 net.cpp:157] Top shape: 125 32 16 16 (1024000)
I0817 16:28:31.686868 17344 net.cpp:165] Memory required for data: 916993500
I0817 16:28:31.686877 17344 layer_factory.hpp:77] Creating layer L2_b2_cbr2_bn
I0817 16:28:31.686888 17344 net.cpp:100] Creating Layer L2_b2_cbr2_bn
I0817 16:28:31.686895 17344 net.cpp:434] L2_b2_cbr2_bn <- L2_b2_cbr2_conv_top
I0817 16:28:31.686903 17344 net.cpp:408] L2_b2_cbr2_bn -> L2_b2_cbr2_bn_top
I0817 16:28:31.687150 17344 net.cpp:150] Setting up L2_b2_cbr2_bn
I0817 16:28:31.687165 17344 net.cpp:157] Top shape: 125 32 16 16 (1024000)
I0817 16:28:31.687170 17344 net.cpp:165] Memory required for data: 921089500
I0817 16:28:31.687180 17344 layer_factory.hpp:77] Creating layer L2_b2_cbr2_scale
I0817 16:28:31.687188 17344 net.cpp:100] Creating Layer L2_b2_cbr2_scale
I0817 16:28:31.687194 17344 net.cpp:434] L2_b2_cbr2_scale <- L2_b2_cbr2_bn_top
I0817 16:28:31.687202 17344 net.cpp:395] L2_b2_cbr2_scale -> L2_b2_cbr2_bn_top (in-place)
I0817 16:28:31.687258 17344 layer_factory.hpp:77] Creating layer L2_b2_cbr2_scale
I0817 16:28:31.687403 17344 net.cpp:150] Setting up L2_b2_cbr2_scale
I0817 16:28:31.687415 17344 net.cpp:157] Top shape: 125 32 16 16 (1024000)
I0817 16:28:31.687420 17344 net.cpp:165] Memory required for data: 925185500
I0817 16:28:31.687429 17344 layer_factory.hpp:77] Creating layer L2_b2_sum_eltwise
I0817 16:28:31.687438 17344 net.cpp:100] Creating Layer L2_b2_sum_eltwise
I0817 16:28:31.687443 17344 net.cpp:434] L2_b2_sum_eltwise <- L2_b2_cbr2_bn_top
I0817 16:28:31.687450 17344 net.cpp:434] L2_b2_sum_eltwise <- L2_b1_concat0_L2_b1_concat0_0_split_1
I0817 16:28:31.687461 17344 net.cpp:408] L2_b2_sum_eltwise -> L2_b2_sum_eltwise_top
I0817 16:28:31.687487 17344 net.cpp:150] Setting up L2_b2_sum_eltwise
I0817 16:28:31.687496 17344 net.cpp:157] Top shape: 125 32 16 16 (1024000)
I0817 16:28:31.687501 17344 net.cpp:165] Memory required for data: 929281500
I0817 16:28:31.687506 17344 layer_factory.hpp:77] Creating layer L2_b2_relu
I0817 16:28:31.687516 17344 net.cpp:100] Creating Layer L2_b2_relu
I0817 16:28:31.687522 17344 net.cpp:434] L2_b2_relu <- L2_b2_sum_eltwise_top
I0817 16:28:31.687551 17344 net.cpp:395] L2_b2_relu -> L2_b2_sum_eltwise_top (in-place)
I0817 16:28:31.687562 17344 net.cpp:150] Setting up L2_b2_relu
I0817 16:28:31.687569 17344 net.cpp:157] Top shape: 125 32 16 16 (1024000)
I0817 16:28:31.687574 17344 net.cpp:165] Memory required for data: 933377500
I0817 16:28:31.687579 17344 layer_factory.hpp:77] Creating layer L2_b2_sum_eltwise_top_L2_b2_relu_0_split
I0817 16:28:31.687587 17344 net.cpp:100] Creating Layer L2_b2_sum_eltwise_top_L2_b2_relu_0_split
I0817 16:28:31.687592 17344 net.cpp:434] L2_b2_sum_eltwise_top_L2_b2_relu_0_split <- L2_b2_sum_eltwise_top
I0817 16:28:31.687599 17344 net.cpp:408] L2_b2_sum_eltwise_top_L2_b2_relu_0_split -> L2_b2_sum_eltwise_top_L2_b2_relu_0_split_0
I0817 16:28:31.687608 17344 net.cpp:408] L2_b2_sum_eltwise_top_L2_b2_relu_0_split -> L2_b2_sum_eltwise_top_L2_b2_relu_0_split_1
I0817 16:28:31.687657 17344 net.cpp:150] Setting up L2_b2_sum_eltwise_top_L2_b2_relu_0_split
I0817 16:28:31.687669 17344 net.cpp:157] Top shape: 125 32 16 16 (1024000)
I0817 16:28:31.687682 17344 net.cpp:157] Top shape: 125 32 16 16 (1024000)
I0817 16:28:31.687688 17344 net.cpp:165] Memory required for data: 941569500
I0817 16:28:31.687693 17344 layer_factory.hpp:77] Creating layer L2_b3_cbr1_conv
I0817 16:28:31.687714 17344 net.cpp:100] Creating Layer L2_b3_cbr1_conv
I0817 16:28:31.687721 17344 net.cpp:434] L2_b3_cbr1_conv <- L2_b2_sum_eltwise_top_L2_b2_relu_0_split_0
I0817 16:28:31.687731 17344 net.cpp:408] L2_b3_cbr1_conv -> L2_b3_cbr1_conv_top
I0817 16:28:31.688192 17344 net.cpp:150] Setting up L2_b3_cbr1_conv
I0817 16:28:31.688206 17344 net.cpp:157] Top shape: 125 32 16 16 (1024000)
I0817 16:28:31.688211 17344 net.cpp:165] Memory required for data: 945665500
I0817 16:28:31.688220 17344 layer_factory.hpp:77] Creating layer L2_b3_cbr1_bn
I0817 16:28:31.688232 17344 net.cpp:100] Creating Layer L2_b3_cbr1_bn
I0817 16:28:31.688238 17344 net.cpp:434] L2_b3_cbr1_bn <- L2_b3_cbr1_conv_top
I0817 16:28:31.688249 17344 net.cpp:408] L2_b3_cbr1_bn -> L2_b3_cbr1_bn_top
I0817 16:28:31.688498 17344 net.cpp:150] Setting up L2_b3_cbr1_bn
I0817 16:28:31.688510 17344 net.cpp:157] Top shape: 125 32 16 16 (1024000)
I0817 16:28:31.688515 17344 net.cpp:165] Memory required for data: 949761500
I0817 16:28:31.688525 17344 layer_factory.hpp:77] Creating layer L2_b3_cbr1_scale
I0817 16:28:31.688534 17344 net.cpp:100] Creating Layer L2_b3_cbr1_scale
I0817 16:28:31.688539 17344 net.cpp:434] L2_b3_cbr1_scale <- L2_b3_cbr1_bn_top
I0817 16:28:31.688547 17344 net.cpp:395] L2_b3_cbr1_scale -> L2_b3_cbr1_bn_top (in-place)
I0817 16:28:31.688604 17344 layer_factory.hpp:77] Creating layer L2_b3_cbr1_scale
I0817 16:28:31.688756 17344 net.cpp:150] Setting up L2_b3_cbr1_scale
I0817 16:28:31.688771 17344 net.cpp:157] Top shape: 125 32 16 16 (1024000)
I0817 16:28:31.688776 17344 net.cpp:165] Memory required for data: 953857500
I0817 16:28:31.688784 17344 layer_factory.hpp:77] Creating layer L2_b3_cbr1_relu
I0817 16:28:31.688791 17344 net.cpp:100] Creating Layer L2_b3_cbr1_relu
I0817 16:28:31.688797 17344 net.cpp:434] L2_b3_cbr1_relu <- L2_b3_cbr1_bn_top
I0817 16:28:31.688807 17344 net.cpp:395] L2_b3_cbr1_relu -> L2_b3_cbr1_bn_top (in-place)
I0817 16:28:31.688817 17344 net.cpp:150] Setting up L2_b3_cbr1_relu
I0817 16:28:31.688824 17344 net.cpp:157] Top shape: 125 32 16 16 (1024000)
I0817 16:28:31.688828 17344 net.cpp:165] Memory required for data: 957953500
I0817 16:28:31.688833 17344 layer_factory.hpp:77] Creating layer L2_b3_cbr2_conv
I0817 16:28:31.688846 17344 net.cpp:100] Creating Layer L2_b3_cbr2_conv
I0817 16:28:31.688853 17344 net.cpp:434] L2_b3_cbr2_conv <- L2_b3_cbr1_bn_top
I0817 16:28:31.688860 17344 net.cpp:408] L2_b3_cbr2_conv -> L2_b3_cbr2_conv_top
I0817 16:28:31.689324 17344 net.cpp:150] Setting up L2_b3_cbr2_conv
I0817 16:28:31.689338 17344 net.cpp:157] Top shape: 125 32 16 16 (1024000)
I0817 16:28:31.689343 17344 net.cpp:165] Memory required for data: 962049500
I0817 16:28:31.689352 17344 layer_factory.hpp:77] Creating layer L2_b3_cbr2_bn
I0817 16:28:31.689363 17344 net.cpp:100] Creating Layer L2_b3_cbr2_bn
I0817 16:28:31.689369 17344 net.cpp:434] L2_b3_cbr2_bn <- L2_b3_cbr2_conv_top
I0817 16:28:31.689378 17344 net.cpp:408] L2_b3_cbr2_bn -> L2_b3_cbr2_bn_top
I0817 16:28:31.689627 17344 net.cpp:150] Setting up L2_b3_cbr2_bn
I0817 16:28:31.689642 17344 net.cpp:157] Top shape: 125 32 16 16 (1024000)
I0817 16:28:31.689647 17344 net.cpp:165] Memory required for data: 966145500
I0817 16:28:31.689658 17344 layer_factory.hpp:77] Creating layer L2_b3_cbr2_scale
I0817 16:28:31.689666 17344 net.cpp:100] Creating Layer L2_b3_cbr2_scale
I0817 16:28:31.689672 17344 net.cpp:434] L2_b3_cbr2_scale <- L2_b3_cbr2_bn_top
I0817 16:28:31.689685 17344 net.cpp:395] L2_b3_cbr2_scale -> L2_b3_cbr2_bn_top (in-place)
I0817 16:28:31.689741 17344 layer_factory.hpp:77] Creating layer L2_b3_cbr2_scale
I0817 16:28:31.689895 17344 net.cpp:150] Setting up L2_b3_cbr2_scale
I0817 16:28:31.689908 17344 net.cpp:157] Top shape: 125 32 16 16 (1024000)
I0817 16:28:31.689913 17344 net.cpp:165] Memory required for data: 970241500
I0817 16:28:31.689921 17344 layer_factory.hpp:77] Creating layer L2_b3_sum_eltwise
I0817 16:28:31.689930 17344 net.cpp:100] Creating Layer L2_b3_sum_eltwise
I0817 16:28:31.689936 17344 net.cpp:434] L2_b3_sum_eltwise <- L2_b3_cbr2_bn_top
I0817 16:28:31.689950 17344 net.cpp:434] L2_b3_sum_eltwise <- L2_b2_sum_eltwise_top_L2_b2_relu_0_split_1
I0817 16:28:31.689962 17344 net.cpp:408] L2_b3_sum_eltwise -> L2_b3_sum_eltwise_top
I0817 16:28:31.689990 17344 net.cpp:150] Setting up L2_b3_sum_eltwise
I0817 16:28:31.689999 17344 net.cpp:157] Top shape: 125 32 16 16 (1024000)
I0817 16:28:31.690004 17344 net.cpp:165] Memory required for data: 974337500
I0817 16:28:31.690009 17344 layer_factory.hpp:77] Creating layer L2_b3_relu
I0817 16:28:31.690032 17344 net.cpp:100] Creating Layer L2_b3_relu
I0817 16:28:31.690037 17344 net.cpp:434] L2_b3_relu <- L2_b3_sum_eltwise_top
I0817 16:28:31.690044 17344 net.cpp:395] L2_b3_relu -> L2_b3_sum_eltwise_top (in-place)
I0817 16:28:31.690054 17344 net.cpp:150] Setting up L2_b3_relu
I0817 16:28:31.690062 17344 net.cpp:157] Top shape: 125 32 16 16 (1024000)
I0817 16:28:31.690065 17344 net.cpp:165] Memory required for data: 978433500
I0817 16:28:31.690070 17344 layer_factory.hpp:77] Creating layer L2_b3_sum_eltwise_top_L2_b3_relu_0_split
I0817 16:28:31.690078 17344 net.cpp:100] Creating Layer L2_b3_sum_eltwise_top_L2_b3_relu_0_split
I0817 16:28:31.690083 17344 net.cpp:434] L2_b3_sum_eltwise_top_L2_b3_relu_0_split <- L2_b3_sum_eltwise_top
I0817 16:28:31.690090 17344 net.cpp:408] L2_b3_sum_eltwise_top_L2_b3_relu_0_split -> L2_b3_sum_eltwise_top_L2_b3_relu_0_split_0
I0817 16:28:31.690099 17344 net.cpp:408] L2_b3_sum_eltwise_top_L2_b3_relu_0_split -> L2_b3_sum_eltwise_top_L2_b3_relu_0_split_1
I0817 16:28:31.690147 17344 net.cpp:150] Setting up L2_b3_sum_eltwise_top_L2_b3_relu_0_split
I0817 16:28:31.690160 17344 net.cpp:157] Top shape: 125 32 16 16 (1024000)
I0817 16:28:31.690166 17344 net.cpp:157] Top shape: 125 32 16 16 (1024000)
I0817 16:28:31.690171 17344 net.cpp:165] Memory required for data: 986625500
I0817 16:28:31.690176 17344 layer_factory.hpp:77] Creating layer L2_b4_cbr1_conv
I0817 16:28:31.690187 17344 net.cpp:100] Creating Layer L2_b4_cbr1_conv
I0817 16:28:31.690193 17344 net.cpp:434] L2_b4_cbr1_conv <- L2_b3_sum_eltwise_top_L2_b3_relu_0_split_0
I0817 16:28:31.690204 17344 net.cpp:408] L2_b4_cbr1_conv -> L2_b4_cbr1_conv_top
I0817 16:28:31.690666 17344 net.cpp:150] Setting up L2_b4_cbr1_conv
I0817 16:28:31.690686 17344 net.cpp:157] Top shape: 125 32 16 16 (1024000)
I0817 16:28:31.690692 17344 net.cpp:165] Memory required for data: 990721500
I0817 16:28:31.690701 17344 layer_factory.hpp:77] Creating layer L2_b4_cbr1_bn
I0817 16:28:31.690711 17344 net.cpp:100] Creating Layer L2_b4_cbr1_bn
I0817 16:28:31.690716 17344 net.cpp:434] L2_b4_cbr1_bn <- L2_b4_cbr1_conv_top
I0817 16:28:31.690726 17344 net.cpp:408] L2_b4_cbr1_bn -> L2_b4_cbr1_bn_top
I0817 16:28:31.690975 17344 net.cpp:150] Setting up L2_b4_cbr1_bn
I0817 16:28:31.690989 17344 net.cpp:157] Top shape: 125 32 16 16 (1024000)
I0817 16:28:31.690994 17344 net.cpp:165] Memory required for data: 994817500
I0817 16:28:31.691004 17344 layer_factory.hpp:77] Creating layer L2_b4_cbr1_scale
I0817 16:28:31.691015 17344 net.cpp:100] Creating Layer L2_b4_cbr1_scale
I0817 16:28:31.691020 17344 net.cpp:434] L2_b4_cbr1_scale <- L2_b4_cbr1_bn_top
I0817 16:28:31.691028 17344 net.cpp:395] L2_b4_cbr1_scale -> L2_b4_cbr1_bn_top (in-place)
I0817 16:28:31.691084 17344 layer_factory.hpp:77] Creating layer L2_b4_cbr1_scale
I0817 16:28:31.691232 17344 net.cpp:150] Setting up L2_b4_cbr1_scale
I0817 16:28:31.691244 17344 net.cpp:157] Top shape: 125 32 16 16 (1024000)
I0817 16:28:31.691249 17344 net.cpp:165] Memory required for data: 998913500
I0817 16:28:31.691258 17344 layer_factory.hpp:77] Creating layer L2_b4_cbr1_relu
I0817 16:28:31.691269 17344 net.cpp:100] Creating Layer L2_b4_cbr1_relu
I0817 16:28:31.691275 17344 net.cpp:434] L2_b4_cbr1_relu <- L2_b4_cbr1_bn_top
I0817 16:28:31.691282 17344 net.cpp:395] L2_b4_cbr1_relu -> L2_b4_cbr1_bn_top (in-place)
I0817 16:28:31.691292 17344 net.cpp:150] Setting up L2_b4_cbr1_relu
I0817 16:28:31.691298 17344 net.cpp:157] Top shape: 125 32 16 16 (1024000)
I0817 16:28:31.691303 17344 net.cpp:165] Memory required for data: 1003009500
I0817 16:28:31.691308 17344 layer_factory.hpp:77] Creating layer L2_b4_cbr2_conv
I0817 16:28:31.691329 17344 net.cpp:100] Creating Layer L2_b4_cbr2_conv
I0817 16:28:31.691335 17344 net.cpp:434] L2_b4_cbr2_conv <- L2_b4_cbr1_bn_top
I0817 16:28:31.691345 17344 net.cpp:408] L2_b4_cbr2_conv -> L2_b4_cbr2_conv_top
I0817 16:28:31.691815 17344 net.cpp:150] Setting up L2_b4_cbr2_conv
I0817 16:28:31.691830 17344 net.cpp:157] Top shape: 125 32 16 16 (1024000)
I0817 16:28:31.691835 17344 net.cpp:165] Memory required for data: 1007105500
I0817 16:28:31.691843 17344 layer_factory.hpp:77] Creating layer L2_b4_cbr2_bn
I0817 16:28:31.691853 17344 net.cpp:100] Creating Layer L2_b4_cbr2_bn
I0817 16:28:31.691859 17344 net.cpp:434] L2_b4_cbr2_bn <- L2_b4_cbr2_conv_top
I0817 16:28:31.691869 17344 net.cpp:408] L2_b4_cbr2_bn -> L2_b4_cbr2_bn_top
I0817 16:28:31.692116 17344 net.cpp:150] Setting up L2_b4_cbr2_bn
I0817 16:28:31.692129 17344 net.cpp:157] Top shape: 125 32 16 16 (1024000)
I0817 16:28:31.692133 17344 net.cpp:165] Memory required for data: 1011201500
I0817 16:28:31.692143 17344 layer_factory.hpp:77] Creating layer L2_b4_cbr2_scale
I0817 16:28:31.692154 17344 net.cpp:100] Creating Layer L2_b4_cbr2_scale
I0817 16:28:31.692160 17344 net.cpp:434] L2_b4_cbr2_scale <- L2_b4_cbr2_bn_top
I0817 16:28:31.692168 17344 net.cpp:395] L2_b4_cbr2_scale -> L2_b4_cbr2_bn_top (in-place)
I0817 16:28:31.692221 17344 layer_factory.hpp:77] Creating layer L2_b4_cbr2_scale
I0817 16:28:31.692368 17344 net.cpp:150] Setting up L2_b4_cbr2_scale
I0817 16:28:31.692381 17344 net.cpp:157] Top shape: 125 32 16 16 (1024000)
I0817 16:28:31.692385 17344 net.cpp:165] Memory required for data: 1015297500
I0817 16:28:31.692394 17344 layer_factory.hpp:77] Creating layer L2_b4_sum_eltwise
I0817 16:28:31.692404 17344 net.cpp:100] Creating Layer L2_b4_sum_eltwise
I0817 16:28:31.692409 17344 net.cpp:434] L2_b4_sum_eltwise <- L2_b4_cbr2_bn_top
I0817 16:28:31.692418 17344 net.cpp:434] L2_b4_sum_eltwise <- L2_b3_sum_eltwise_top_L2_b3_relu_0_split_1
I0817 16:28:31.692426 17344 net.cpp:408] L2_b4_sum_eltwise -> L2_b4_sum_eltwise_top
I0817 16:28:31.692452 17344 net.cpp:150] Setting up L2_b4_sum_eltwise
I0817 16:28:31.692464 17344 net.cpp:157] Top shape: 125 32 16 16 (1024000)
I0817 16:28:31.692469 17344 net.cpp:165] Memory required for data: 1019393500
I0817 16:28:31.692474 17344 layer_factory.hpp:77] Creating layer L2_b4_relu
I0817 16:28:31.692482 17344 net.cpp:100] Creating Layer L2_b4_relu
I0817 16:28:31.692487 17344 net.cpp:434] L2_b4_relu <- L2_b4_sum_eltwise_top
I0817 16:28:31.692494 17344 net.cpp:395] L2_b4_relu -> L2_b4_sum_eltwise_top (in-place)
I0817 16:28:31.692503 17344 net.cpp:150] Setting up L2_b4_relu
I0817 16:28:31.692509 17344 net.cpp:157] Top shape: 125 32 16 16 (1024000)
I0817 16:28:31.692514 17344 net.cpp:165] Memory required for data: 1023489500
I0817 16:28:31.692518 17344 layer_factory.hpp:77] Creating layer L2_b4_sum_eltwise_top_L2_b4_relu_0_split
I0817 16:28:31.692528 17344 net.cpp:100] Creating Layer L2_b4_sum_eltwise_top_L2_b4_relu_0_split
I0817 16:28:31.692533 17344 net.cpp:434] L2_b4_sum_eltwise_top_L2_b4_relu_0_split <- L2_b4_sum_eltwise_top
I0817 16:28:31.692541 17344 net.cpp:408] L2_b4_sum_eltwise_top_L2_b4_relu_0_split -> L2_b4_sum_eltwise_top_L2_b4_relu_0_split_0
I0817 16:28:31.692550 17344 net.cpp:408] L2_b4_sum_eltwise_top_L2_b4_relu_0_split -> L2_b4_sum_eltwise_top_L2_b4_relu_0_split_1
I0817 16:28:31.692596 17344 net.cpp:150] Setting up L2_b4_sum_eltwise_top_L2_b4_relu_0_split
I0817 16:28:31.692607 17344 net.cpp:157] Top shape: 125 32 16 16 (1024000)
I0817 16:28:31.692615 17344 net.cpp:157] Top shape: 125 32 16 16 (1024000)
I0817 16:28:31.692618 17344 net.cpp:165] Memory required for data: 1031681500
I0817 16:28:31.692623 17344 layer_factory.hpp:77] Creating layer L2_b5_cbr1_conv
I0817 16:28:31.692634 17344 net.cpp:100] Creating Layer L2_b5_cbr1_conv
I0817 16:28:31.692641 17344 net.cpp:434] L2_b5_cbr1_conv <- L2_b4_sum_eltwise_top_L2_b4_relu_0_split_0
I0817 16:28:31.692651 17344 net.cpp:408] L2_b5_cbr1_conv -> L2_b5_cbr1_conv_top
I0817 16:28:31.693120 17344 net.cpp:150] Setting up L2_b5_cbr1_conv
I0817 16:28:31.693140 17344 net.cpp:157] Top shape: 125 32 16 16 (1024000)
I0817 16:28:31.693145 17344 net.cpp:165] Memory required for data: 1035777500
I0817 16:28:31.693155 17344 layer_factory.hpp:77] Creating layer L2_b5_cbr1_bn
I0817 16:28:31.693163 17344 net.cpp:100] Creating Layer L2_b5_cbr1_bn
I0817 16:28:31.693169 17344 net.cpp:434] L2_b5_cbr1_bn <- L2_b5_cbr1_conv_top
I0817 16:28:31.693181 17344 net.cpp:408] L2_b5_cbr1_bn -> L2_b5_cbr1_bn_top
I0817 16:28:31.693434 17344 net.cpp:150] Setting up L2_b5_cbr1_bn
I0817 16:28:31.693447 17344 net.cpp:157] Top shape: 125 32 16 16 (1024000)
I0817 16:28:31.693452 17344 net.cpp:165] Memory required for data: 1039873500
I0817 16:28:31.693462 17344 layer_factory.hpp:77] Creating layer L2_b5_cbr1_scale
I0817 16:28:31.693473 17344 net.cpp:100] Creating Layer L2_b5_cbr1_scale
I0817 16:28:31.693480 17344 net.cpp:434] L2_b5_cbr1_scale <- L2_b5_cbr1_bn_top
I0817 16:28:31.693487 17344 net.cpp:395] L2_b5_cbr1_scale -> L2_b5_cbr1_bn_top (in-place)
I0817 16:28:31.693541 17344 layer_factory.hpp:77] Creating layer L2_b5_cbr1_scale
I0817 16:28:31.693694 17344 net.cpp:150] Setting up L2_b5_cbr1_scale
I0817 16:28:31.693708 17344 net.cpp:157] Top shape: 125 32 16 16 (1024000)
I0817 16:28:31.693713 17344 net.cpp:165] Memory required for data: 1043969500
I0817 16:28:31.693722 17344 layer_factory.hpp:77] Creating layer L2_b5_cbr1_relu
I0817 16:28:31.693732 17344 net.cpp:100] Creating Layer L2_b5_cbr1_relu
I0817 16:28:31.693738 17344 net.cpp:434] L2_b5_cbr1_relu <- L2_b5_cbr1_bn_top
I0817 16:28:31.693745 17344 net.cpp:395] L2_b5_cbr1_relu -> L2_b5_cbr1_bn_top (in-place)
I0817 16:28:31.693755 17344 net.cpp:150] Setting up L2_b5_cbr1_relu
I0817 16:28:31.693761 17344 net.cpp:157] Top shape: 125 32 16 16 (1024000)
I0817 16:28:31.693766 17344 net.cpp:165] Memory required for data: 1048065500
I0817 16:28:31.693770 17344 layer_factory.hpp:77] Creating layer L2_b5_cbr2_conv
I0817 16:28:31.693784 17344 net.cpp:100] Creating Layer L2_b5_cbr2_conv
I0817 16:28:31.693790 17344 net.cpp:434] L2_b5_cbr2_conv <- L2_b5_cbr1_bn_top
I0817 16:28:31.693800 17344 net.cpp:408] L2_b5_cbr2_conv -> L2_b5_cbr2_conv_top
I0817 16:28:31.694258 17344 net.cpp:150] Setting up L2_b5_cbr2_conv
I0817 16:28:31.694272 17344 net.cpp:157] Top shape: 125 32 16 16 (1024000)
I0817 16:28:31.694278 17344 net.cpp:165] Memory required for data: 1052161500
I0817 16:28:31.694285 17344 layer_factory.hpp:77] Creating layer L2_b5_cbr2_bn
I0817 16:28:31.694294 17344 net.cpp:100] Creating Layer L2_b5_cbr2_bn
I0817 16:28:31.694300 17344 net.cpp:434] L2_b5_cbr2_bn <- L2_b5_cbr2_conv_top
I0817 16:28:31.694308 17344 net.cpp:408] L2_b5_cbr2_bn -> L2_b5_cbr2_bn_top
I0817 16:28:31.694553 17344 net.cpp:150] Setting up L2_b5_cbr2_bn
I0817 16:28:31.694566 17344 net.cpp:157] Top shape: 125 32 16 16 (1024000)
I0817 16:28:31.694571 17344 net.cpp:165] Memory required for data: 1056257500
I0817 16:28:31.694581 17344 layer_factory.hpp:77] Creating layer L2_b5_cbr2_scale
I0817 16:28:31.694589 17344 net.cpp:100] Creating Layer L2_b5_cbr2_scale
I0817 16:28:31.694595 17344 net.cpp:434] L2_b5_cbr2_scale <- L2_b5_cbr2_bn_top
I0817 16:28:31.694605 17344 net.cpp:395] L2_b5_cbr2_scale -> L2_b5_cbr2_bn_top (in-place)
I0817 16:28:31.694660 17344 layer_factory.hpp:77] Creating layer L2_b5_cbr2_scale
I0817 16:28:31.694815 17344 net.cpp:150] Setting up L2_b5_cbr2_scale
I0817 16:28:31.694828 17344 net.cpp:157] Top shape: 125 32 16 16 (1024000)
I0817 16:28:31.694833 17344 net.cpp:165] Memory required for data: 1060353500
I0817 16:28:31.694842 17344 layer_factory.hpp:77] Creating layer L2_b5_sum_eltwise
I0817 16:28:31.694851 17344 net.cpp:100] Creating Layer L2_b5_sum_eltwise
I0817 16:28:31.694857 17344 net.cpp:434] L2_b5_sum_eltwise <- L2_b5_cbr2_bn_top
I0817 16:28:31.694864 17344 net.cpp:434] L2_b5_sum_eltwise <- L2_b4_sum_eltwise_top_L2_b4_relu_0_split_1
I0817 16:28:31.694875 17344 net.cpp:408] L2_b5_sum_eltwise -> L2_b5_sum_eltwise_top
I0817 16:28:31.694901 17344 net.cpp:150] Setting up L2_b5_sum_eltwise
I0817 16:28:31.694916 17344 net.cpp:157] Top shape: 125 32 16 16 (1024000)
I0817 16:28:31.694927 17344 net.cpp:165] Memory required for data: 1064449500
I0817 16:28:31.694932 17344 layer_factory.hpp:77] Creating layer L2_b5_relu
I0817 16:28:31.694941 17344 net.cpp:100] Creating Layer L2_b5_relu
I0817 16:28:31.694946 17344 net.cpp:434] L2_b5_relu <- L2_b5_sum_eltwise_top
I0817 16:28:31.694952 17344 net.cpp:395] L2_b5_relu -> L2_b5_sum_eltwise_top (in-place)
I0817 16:28:31.694962 17344 net.cpp:150] Setting up L2_b5_relu
I0817 16:28:31.694968 17344 net.cpp:157] Top shape: 125 32 16 16 (1024000)
I0817 16:28:31.694973 17344 net.cpp:165] Memory required for data: 1068545500
I0817 16:28:31.694978 17344 layer_factory.hpp:77] Creating layer L2_b5_sum_eltwise_top_L2_b5_relu_0_split
I0817 16:28:31.694988 17344 net.cpp:100] Creating Layer L2_b5_sum_eltwise_top_L2_b5_relu_0_split
I0817 16:28:31.694993 17344 net.cpp:434] L2_b5_sum_eltwise_top_L2_b5_relu_0_split <- L2_b5_sum_eltwise_top
I0817 16:28:31.695000 17344 net.cpp:408] L2_b5_sum_eltwise_top_L2_b5_relu_0_split -> L2_b5_sum_eltwise_top_L2_b5_relu_0_split_0
I0817 16:28:31.695009 17344 net.cpp:408] L2_b5_sum_eltwise_top_L2_b5_relu_0_split -> L2_b5_sum_eltwise_top_L2_b5_relu_0_split_1
I0817 16:28:31.695056 17344 net.cpp:150] Setting up L2_b5_sum_eltwise_top_L2_b5_relu_0_split
I0817 16:28:31.695068 17344 net.cpp:157] Top shape: 125 32 16 16 (1024000)
I0817 16:28:31.695075 17344 net.cpp:157] Top shape: 125 32 16 16 (1024000)
I0817 16:28:31.695080 17344 net.cpp:165] Memory required for data: 1076737500
I0817 16:28:31.695085 17344 layer_factory.hpp:77] Creating layer L2_b6_cbr1_conv
I0817 16:28:31.695094 17344 net.cpp:100] Creating Layer L2_b6_cbr1_conv
I0817 16:28:31.695101 17344 net.cpp:434] L2_b6_cbr1_conv <- L2_b5_sum_eltwise_top_L2_b5_relu_0_split_0
I0817 16:28:31.695112 17344 net.cpp:408] L2_b6_cbr1_conv -> L2_b6_cbr1_conv_top
I0817 16:28:31.695578 17344 net.cpp:150] Setting up L2_b6_cbr1_conv
I0817 16:28:31.695592 17344 net.cpp:157] Top shape: 125 32 16 16 (1024000)
I0817 16:28:31.695597 17344 net.cpp:165] Memory required for data: 1080833500
I0817 16:28:31.695605 17344 layer_factory.hpp:77] Creating layer L2_b6_cbr1_bn
I0817 16:28:31.695614 17344 net.cpp:100] Creating Layer L2_b6_cbr1_bn
I0817 16:28:31.695621 17344 net.cpp:434] L2_b6_cbr1_bn <- L2_b6_cbr1_conv_top
I0817 16:28:31.695631 17344 net.cpp:408] L2_b6_cbr1_bn -> L2_b6_cbr1_bn_top
I0817 16:28:31.695889 17344 net.cpp:150] Setting up L2_b6_cbr1_bn
I0817 16:28:31.695902 17344 net.cpp:157] Top shape: 125 32 16 16 (1024000)
I0817 16:28:31.695907 17344 net.cpp:165] Memory required for data: 1084929500
I0817 16:28:31.695917 17344 layer_factory.hpp:77] Creating layer L2_b6_cbr1_scale
I0817 16:28:31.695930 17344 net.cpp:100] Creating Layer L2_b6_cbr1_scale
I0817 16:28:31.695935 17344 net.cpp:434] L2_b6_cbr1_scale <- L2_b6_cbr1_bn_top
I0817 16:28:31.695943 17344 net.cpp:395] L2_b6_cbr1_scale -> L2_b6_cbr1_bn_top (in-place)
I0817 16:28:31.695997 17344 layer_factory.hpp:77] Creating layer L2_b6_cbr1_scale
I0817 16:28:31.696142 17344 net.cpp:150] Setting up L2_b6_cbr1_scale
I0817 16:28:31.696156 17344 net.cpp:157] Top shape: 125 32 16 16 (1024000)
I0817 16:28:31.696159 17344 net.cpp:165] Memory required for data: 1089025500
I0817 16:28:31.696168 17344 layer_factory.hpp:77] Creating layer L2_b6_cbr1_relu
I0817 16:28:31.696177 17344 net.cpp:100] Creating Layer L2_b6_cbr1_relu
I0817 16:28:31.696182 17344 net.cpp:434] L2_b6_cbr1_relu <- L2_b6_cbr1_bn_top
I0817 16:28:31.696192 17344 net.cpp:395] L2_b6_cbr1_relu -> L2_b6_cbr1_bn_top (in-place)
I0817 16:28:31.696202 17344 net.cpp:150] Setting up L2_b6_cbr1_relu
I0817 16:28:31.696208 17344 net.cpp:157] Top shape: 125 32 16 16 (1024000)
I0817 16:28:31.696213 17344 net.cpp:165] Memory required for data: 1093121500
I0817 16:28:31.696218 17344 layer_factory.hpp:77] Creating layer L2_b6_cbr2_conv
I0817 16:28:31.696233 17344 net.cpp:100] Creating Layer L2_b6_cbr2_conv
I0817 16:28:31.696238 17344 net.cpp:434] L2_b6_cbr2_conv <- L2_b6_cbr1_bn_top
I0817 16:28:31.696249 17344 net.cpp:408] L2_b6_cbr2_conv -> L2_b6_cbr2_conv_top
I0817 16:28:31.696710 17344 net.cpp:150] Setting up L2_b6_cbr2_conv
I0817 16:28:31.696730 17344 net.cpp:157] Top shape: 125 32 16 16 (1024000)
I0817 16:28:31.696737 17344 net.cpp:165] Memory required for data: 1097217500
I0817 16:28:31.696744 17344 layer_factory.hpp:77] Creating layer L2_b6_cbr2_bn
I0817 16:28:31.696753 17344 net.cpp:100] Creating Layer L2_b6_cbr2_bn
I0817 16:28:31.696759 17344 net.cpp:434] L2_b6_cbr2_bn <- L2_b6_cbr2_conv_top
I0817 16:28:31.696768 17344 net.cpp:408] L2_b6_cbr2_bn -> L2_b6_cbr2_bn_top
I0817 16:28:31.697019 17344 net.cpp:150] Setting up L2_b6_cbr2_bn
I0817 16:28:31.697032 17344 net.cpp:157] Top shape: 125 32 16 16 (1024000)
I0817 16:28:31.697037 17344 net.cpp:165] Memory required for data: 1101313500
I0817 16:28:31.697047 17344 layer_factory.hpp:77] Creating layer L2_b6_cbr2_scale
I0817 16:28:31.697057 17344 net.cpp:100] Creating Layer L2_b6_cbr2_scale
I0817 16:28:31.697062 17344 net.cpp:434] L2_b6_cbr2_scale <- L2_b6_cbr2_bn_top
I0817 16:28:31.697072 17344 net.cpp:395] L2_b6_cbr2_scale -> L2_b6_cbr2_bn_top (in-place)
I0817 16:28:31.697126 17344 layer_factory.hpp:77] Creating layer L2_b6_cbr2_scale
I0817 16:28:31.697273 17344 net.cpp:150] Setting up L2_b6_cbr2_scale
I0817 16:28:31.697285 17344 net.cpp:157] Top shape: 125 32 16 16 (1024000)
I0817 16:28:31.697290 17344 net.cpp:165] Memory required for data: 1105409500
I0817 16:28:31.697299 17344 layer_factory.hpp:77] Creating layer L2_b6_sum_eltwise
I0817 16:28:31.697309 17344 net.cpp:100] Creating Layer L2_b6_sum_eltwise
I0817 16:28:31.697314 17344 net.cpp:434] L2_b6_sum_eltwise <- L2_b6_cbr2_bn_top
I0817 16:28:31.697320 17344 net.cpp:434] L2_b6_sum_eltwise <- L2_b5_sum_eltwise_top_L2_b5_relu_0_split_1
I0817 16:28:31.697331 17344 net.cpp:408] L2_b6_sum_eltwise -> L2_b6_sum_eltwise_top
I0817 16:28:31.697357 17344 net.cpp:150] Setting up L2_b6_sum_eltwise
I0817 16:28:31.697366 17344 net.cpp:157] Top shape: 125 32 16 16 (1024000)
I0817 16:28:31.697371 17344 net.cpp:165] Memory required for data: 1109505500
I0817 16:28:31.697376 17344 layer_factory.hpp:77] Creating layer L2_b6_relu
I0817 16:28:31.697386 17344 net.cpp:100] Creating Layer L2_b6_relu
I0817 16:28:31.697392 17344 net.cpp:434] L2_b6_relu <- L2_b6_sum_eltwise_top
I0817 16:28:31.697399 17344 net.cpp:395] L2_b6_relu -> L2_b6_sum_eltwise_top (in-place)
I0817 16:28:31.697408 17344 net.cpp:150] Setting up L2_b6_relu
I0817 16:28:31.697415 17344 net.cpp:157] Top shape: 125 32 16 16 (1024000)
I0817 16:28:31.697419 17344 net.cpp:165] Memory required for data: 1113601500
I0817 16:28:31.697424 17344 layer_factory.hpp:77] Creating layer L2_b6_sum_eltwise_top_L2_b6_relu_0_split
I0817 16:28:31.697433 17344 net.cpp:100] Creating Layer L2_b6_sum_eltwise_top_L2_b6_relu_0_split
I0817 16:28:31.697439 17344 net.cpp:434] L2_b6_sum_eltwise_top_L2_b6_relu_0_split <- L2_b6_sum_eltwise_top
I0817 16:28:31.697446 17344 net.cpp:408] L2_b6_sum_eltwise_top_L2_b6_relu_0_split -> L2_b6_sum_eltwise_top_L2_b6_relu_0_split_0
I0817 16:28:31.697455 17344 net.cpp:408] L2_b6_sum_eltwise_top_L2_b6_relu_0_split -> L2_b6_sum_eltwise_top_L2_b6_relu_0_split_1
I0817 16:28:31.697499 17344 net.cpp:150] Setting up L2_b6_sum_eltwise_top_L2_b6_relu_0_split
I0817 16:28:31.697513 17344 net.cpp:157] Top shape: 125 32 16 16 (1024000)
I0817 16:28:31.697520 17344 net.cpp:157] Top shape: 125 32 16 16 (1024000)
I0817 16:28:31.697525 17344 net.cpp:165] Memory required for data: 1121793500
I0817 16:28:31.697530 17344 layer_factory.hpp:77] Creating layer L2_b7_cbr1_conv
I0817 16:28:31.697540 17344 net.cpp:100] Creating Layer L2_b7_cbr1_conv
I0817 16:28:31.697546 17344 net.cpp:434] L2_b7_cbr1_conv <- L2_b6_sum_eltwise_top_L2_b6_relu_0_split_0
I0817 16:28:31.697556 17344 net.cpp:408] L2_b7_cbr1_conv -> L2_b7_cbr1_conv_top
I0817 16:28:31.698029 17344 net.cpp:150] Setting up L2_b7_cbr1_conv
I0817 16:28:31.698042 17344 net.cpp:157] Top shape: 125 32 16 16 (1024000)
I0817 16:28:31.698047 17344 net.cpp:165] Memory required for data: 1125889500
I0817 16:28:31.698056 17344 layer_factory.hpp:77] Creating layer L2_b7_cbr1_bn
I0817 16:28:31.698068 17344 net.cpp:100] Creating Layer L2_b7_cbr1_bn
I0817 16:28:31.698081 17344 net.cpp:434] L2_b7_cbr1_bn <- L2_b7_cbr1_conv_top
I0817 16:28:31.698091 17344 net.cpp:408] L2_b7_cbr1_bn -> L2_b7_cbr1_bn_top
I0817 16:28:31.698343 17344 net.cpp:150] Setting up L2_b7_cbr1_bn
I0817 16:28:31.698356 17344 net.cpp:157] Top shape: 125 32 16 16 (1024000)
I0817 16:28:31.698361 17344 net.cpp:165] Memory required for data: 1129985500
I0817 16:28:31.698371 17344 layer_factory.hpp:77] Creating layer L2_b7_cbr1_scale
I0817 16:28:31.698380 17344 net.cpp:100] Creating Layer L2_b7_cbr1_scale
I0817 16:28:31.698386 17344 net.cpp:434] L2_b7_cbr1_scale <- L2_b7_cbr1_bn_top
I0817 16:28:31.698398 17344 net.cpp:395] L2_b7_cbr1_scale -> L2_b7_cbr1_bn_top (in-place)
I0817 16:28:31.698456 17344 layer_factory.hpp:77] Creating layer L2_b7_cbr1_scale
I0817 16:28:31.698604 17344 net.cpp:150] Setting up L2_b7_cbr1_scale
I0817 16:28:31.698616 17344 net.cpp:157] Top shape: 125 32 16 16 (1024000)
I0817 16:28:31.698621 17344 net.cpp:165] Memory required for data: 1134081500
I0817 16:28:31.698631 17344 layer_factory.hpp:77] Creating layer L2_b7_cbr1_relu
I0817 16:28:31.698638 17344 net.cpp:100] Creating Layer L2_b7_cbr1_relu
I0817 16:28:31.698644 17344 net.cpp:434] L2_b7_cbr1_relu <- L2_b7_cbr1_bn_top
I0817 16:28:31.698655 17344 net.cpp:395] L2_b7_cbr1_relu -> L2_b7_cbr1_bn_top (in-place)
I0817 16:28:31.698665 17344 net.cpp:150] Setting up L2_b7_cbr1_relu
I0817 16:28:31.698673 17344 net.cpp:157] Top shape: 125 32 16 16 (1024000)
I0817 16:28:31.698683 17344 net.cpp:165] Memory required for data: 1138177500
I0817 16:28:31.698688 17344 layer_factory.hpp:77] Creating layer L2_b7_cbr2_conv
I0817 16:28:31.698703 17344 net.cpp:100] Creating Layer L2_b7_cbr2_conv
I0817 16:28:31.698709 17344 net.cpp:434] L2_b7_cbr2_conv <- L2_b7_cbr1_bn_top
I0817 16:28:31.698717 17344 net.cpp:408] L2_b7_cbr2_conv -> L2_b7_cbr2_conv_top
I0817 16:28:31.699188 17344 net.cpp:150] Setting up L2_b7_cbr2_conv
I0817 16:28:31.699203 17344 net.cpp:157] Top shape: 125 32 16 16 (1024000)
I0817 16:28:31.699208 17344 net.cpp:165] Memory required for data: 1142273500
I0817 16:28:31.699216 17344 layer_factory.hpp:77] Creating layer L2_b7_cbr2_bn
I0817 16:28:31.699229 17344 net.cpp:100] Creating Layer L2_b7_cbr2_bn
I0817 16:28:31.699234 17344 net.cpp:434] L2_b7_cbr2_bn <- L2_b7_cbr2_conv_top
I0817 16:28:31.699242 17344 net.cpp:408] L2_b7_cbr2_bn -> L2_b7_cbr2_bn_top
I0817 16:28:31.699492 17344 net.cpp:150] Setting up L2_b7_cbr2_bn
I0817 16:28:31.699504 17344 net.cpp:157] Top shape: 125 32 16 16 (1024000)
I0817 16:28:31.699509 17344 net.cpp:165] Memory required for data: 1146369500
I0817 16:28:31.699519 17344 layer_factory.hpp:77] Creating layer L2_b7_cbr2_scale
I0817 16:28:31.699528 17344 net.cpp:100] Creating Layer L2_b7_cbr2_scale
I0817 16:28:31.699534 17344 net.cpp:434] L2_b7_cbr2_scale <- L2_b7_cbr2_bn_top
I0817 16:28:31.699545 17344 net.cpp:395] L2_b7_cbr2_scale -> L2_b7_cbr2_bn_top (in-place)
I0817 16:28:31.699601 17344 layer_factory.hpp:77] Creating layer L2_b7_cbr2_scale
I0817 16:28:31.699757 17344 net.cpp:150] Setting up L2_b7_cbr2_scale
I0817 16:28:31.699771 17344 net.cpp:157] Top shape: 125 32 16 16 (1024000)
I0817 16:28:31.699776 17344 net.cpp:165] Memory required for data: 1150465500
I0817 16:28:31.699785 17344 layer_factory.hpp:77] Creating layer L2_b7_sum_eltwise
I0817 16:28:31.699793 17344 net.cpp:100] Creating Layer L2_b7_sum_eltwise
I0817 16:28:31.699800 17344 net.cpp:434] L2_b7_sum_eltwise <- L2_b7_cbr2_bn_top
I0817 16:28:31.699806 17344 net.cpp:434] L2_b7_sum_eltwise <- L2_b6_sum_eltwise_top_L2_b6_relu_0_split_1
I0817 16:28:31.699817 17344 net.cpp:408] L2_b7_sum_eltwise -> L2_b7_sum_eltwise_top
I0817 16:28:31.699844 17344 net.cpp:150] Setting up L2_b7_sum_eltwise
I0817 16:28:31.699853 17344 net.cpp:157] Top shape: 125 32 16 16 (1024000)
I0817 16:28:31.699857 17344 net.cpp:165] Memory required for data: 1154561500
I0817 16:28:31.699862 17344 layer_factory.hpp:77] Creating layer L2_b7_relu
I0817 16:28:31.699873 17344 net.cpp:100] Creating Layer L2_b7_relu
I0817 16:28:31.699879 17344 net.cpp:434] L2_b7_relu <- L2_b7_sum_eltwise_top
I0817 16:28:31.699892 17344 net.cpp:395] L2_b7_relu -> L2_b7_sum_eltwise_top (in-place)
I0817 16:28:31.699903 17344 net.cpp:150] Setting up L2_b7_relu
I0817 16:28:31.699909 17344 net.cpp:157] Top shape: 125 32 16 16 (1024000)
I0817 16:28:31.699913 17344 net.cpp:165] Memory required for data: 1158657500
I0817 16:28:31.699918 17344 layer_factory.hpp:77] Creating layer L2_b7_sum_eltwise_top_L2_b7_relu_0_split
I0817 16:28:31.699925 17344 net.cpp:100] Creating Layer L2_b7_sum_eltwise_top_L2_b7_relu_0_split
I0817 16:28:31.699930 17344 net.cpp:434] L2_b7_sum_eltwise_top_L2_b7_relu_0_split <- L2_b7_sum_eltwise_top
I0817 16:28:31.699944 17344 net.cpp:408] L2_b7_sum_eltwise_top_L2_b7_relu_0_split -> L2_b7_sum_eltwise_top_L2_b7_relu_0_split_0
I0817 16:28:31.699954 17344 net.cpp:408] L2_b7_sum_eltwise_top_L2_b7_relu_0_split -> L2_b7_sum_eltwise_top_L2_b7_relu_0_split_1
I0817 16:28:31.699998 17344 net.cpp:150] Setting up L2_b7_sum_eltwise_top_L2_b7_relu_0_split
I0817 16:28:31.700013 17344 net.cpp:157] Top shape: 125 32 16 16 (1024000)
I0817 16:28:31.700019 17344 net.cpp:157] Top shape: 125 32 16 16 (1024000)
I0817 16:28:31.700024 17344 net.cpp:165] Memory required for data: 1166849500
I0817 16:28:31.700029 17344 layer_factory.hpp:77] Creating layer L2_b8_cbr1_conv
I0817 16:28:31.700040 17344 net.cpp:100] Creating Layer L2_b8_cbr1_conv
I0817 16:28:31.700047 17344 net.cpp:434] L2_b8_cbr1_conv <- L2_b7_sum_eltwise_top_L2_b7_relu_0_split_0
I0817 16:28:31.700055 17344 net.cpp:408] L2_b8_cbr1_conv -> L2_b8_cbr1_conv_top
I0817 16:28:31.700525 17344 net.cpp:150] Setting up L2_b8_cbr1_conv
I0817 16:28:31.700539 17344 net.cpp:157] Top shape: 125 32 16 16 (1024000)
I0817 16:28:31.700544 17344 net.cpp:165] Memory required for data: 1170945500
I0817 16:28:31.700553 17344 layer_factory.hpp:77] Creating layer L2_b8_cbr1_bn
I0817 16:28:31.700564 17344 net.cpp:100] Creating Layer L2_b8_cbr1_bn
I0817 16:28:31.700572 17344 net.cpp:434] L2_b8_cbr1_bn <- L2_b8_cbr1_conv_top
I0817 16:28:31.700579 17344 net.cpp:408] L2_b8_cbr1_bn -> L2_b8_cbr1_bn_top
I0817 16:28:31.700837 17344 net.cpp:150] Setting up L2_b8_cbr1_bn
I0817 16:28:31.700851 17344 net.cpp:157] Top shape: 125 32 16 16 (1024000)
I0817 16:28:31.700855 17344 net.cpp:165] Memory required for data: 1175041500
I0817 16:28:31.700866 17344 layer_factory.hpp:77] Creating layer L2_b8_cbr1_scale
I0817 16:28:31.700875 17344 net.cpp:100] Creating Layer L2_b8_cbr1_scale
I0817 16:28:31.700881 17344 net.cpp:434] L2_b8_cbr1_scale <- L2_b8_cbr1_bn_top
I0817 16:28:31.700891 17344 net.cpp:395] L2_b8_cbr1_scale -> L2_b8_cbr1_bn_top (in-place)
I0817 16:28:31.700947 17344 layer_factory.hpp:77] Creating layer L2_b8_cbr1_scale
I0817 16:28:31.701124 17344 net.cpp:150] Setting up L2_b8_cbr1_scale
I0817 16:28:31.701139 17344 net.cpp:157] Top shape: 125 32 16 16 (1024000)
I0817 16:28:31.701144 17344 net.cpp:165] Memory required for data: 1179137500
I0817 16:28:31.701153 17344 layer_factory.hpp:77] Creating layer L2_b8_cbr1_relu
I0817 16:28:31.701160 17344 net.cpp:100] Creating Layer L2_b8_cbr1_relu
I0817 16:28:31.701166 17344 net.cpp:434] L2_b8_cbr1_relu <- L2_b8_cbr1_bn_top
I0817 16:28:31.701176 17344 net.cpp:395] L2_b8_cbr1_relu -> L2_b8_cbr1_bn_top (in-place)
I0817 16:28:31.701186 17344 net.cpp:150] Setting up L2_b8_cbr1_relu
I0817 16:28:31.701194 17344 net.cpp:157] Top shape: 125 32 16 16 (1024000)
I0817 16:28:31.701197 17344 net.cpp:165] Memory required for data: 1183233500
I0817 16:28:31.701202 17344 layer_factory.hpp:77] Creating layer L2_b8_cbr2_conv
I0817 16:28:31.701215 17344 net.cpp:100] Creating Layer L2_b8_cbr2_conv
I0817 16:28:31.701222 17344 net.cpp:434] L2_b8_cbr2_conv <- L2_b8_cbr1_bn_top
I0817 16:28:31.701231 17344 net.cpp:408] L2_b8_cbr2_conv -> L2_b8_cbr2_conv_top
I0817 16:28:31.701704 17344 net.cpp:150] Setting up L2_b8_cbr2_conv
I0817 16:28:31.701717 17344 net.cpp:157] Top shape: 125 32 16 16 (1024000)
I0817 16:28:31.701722 17344 net.cpp:165] Memory required for data: 1187329500
I0817 16:28:31.701731 17344 layer_factory.hpp:77] Creating layer L2_b8_cbr2_bn
I0817 16:28:31.701743 17344 net.cpp:100] Creating Layer L2_b8_cbr2_bn
I0817 16:28:31.701757 17344 net.cpp:434] L2_b8_cbr2_bn <- L2_b8_cbr2_conv_top
I0817 16:28:31.701766 17344 net.cpp:408] L2_b8_cbr2_bn -> L2_b8_cbr2_bn_top
I0817 16:28:31.702019 17344 net.cpp:150] Setting up L2_b8_cbr2_bn
I0817 16:28:31.702033 17344 net.cpp:157] Top shape: 125 32 16 16 (1024000)
I0817 16:28:31.702038 17344 net.cpp:165] Memory required for data: 1191425500
I0817 16:28:31.702047 17344 layer_factory.hpp:77] Creating layer L2_b8_cbr2_scale
I0817 16:28:31.702056 17344 net.cpp:100] Creating Layer L2_b8_cbr2_scale
I0817 16:28:31.702062 17344 net.cpp:434] L2_b8_cbr2_scale <- L2_b8_cbr2_bn_top
I0817 16:28:31.702069 17344 net.cpp:395] L2_b8_cbr2_scale -> L2_b8_cbr2_bn_top (in-place)
I0817 16:28:31.702127 17344 layer_factory.hpp:77] Creating layer L2_b8_cbr2_scale
I0817 16:28:31.702273 17344 net.cpp:150] Setting up L2_b8_cbr2_scale
I0817 16:28:31.702289 17344 net.cpp:157] Top shape: 125 32 16 16 (1024000)
I0817 16:28:31.702294 17344 net.cpp:165] Memory required for data: 1195521500
I0817 16:28:31.702302 17344 layer_factory.hpp:77] Creating layer L2_b8_sum_eltwise
I0817 16:28:31.702311 17344 net.cpp:100] Creating Layer L2_b8_sum_eltwise
I0817 16:28:31.702317 17344 net.cpp:434] L2_b8_sum_eltwise <- L2_b8_cbr2_bn_top
I0817 16:28:31.702324 17344 net.cpp:434] L2_b8_sum_eltwise <- L2_b7_sum_eltwise_top_L2_b7_relu_0_split_1
I0817 16:28:31.702332 17344 net.cpp:408] L2_b8_sum_eltwise -> L2_b8_sum_eltwise_top
I0817 16:28:31.702361 17344 net.cpp:150] Setting up L2_b8_sum_eltwise
I0817 16:28:31.702371 17344 net.cpp:157] Top shape: 125 32 16 16 (1024000)
I0817 16:28:31.702375 17344 net.cpp:165] Memory required for data: 1199617500
I0817 16:28:31.702381 17344 layer_factory.hpp:77] Creating layer L2_b8_relu
I0817 16:28:31.702389 17344 net.cpp:100] Creating Layer L2_b8_relu
I0817 16:28:31.702394 17344 net.cpp:434] L2_b8_relu <- L2_b8_sum_eltwise_top
I0817 16:28:31.702404 17344 net.cpp:395] L2_b8_relu -> L2_b8_sum_eltwise_top (in-place)
I0817 16:28:31.702412 17344 net.cpp:150] Setting up L2_b8_relu
I0817 16:28:31.702419 17344 net.cpp:157] Top shape: 125 32 16 16 (1024000)
I0817 16:28:31.702425 17344 net.cpp:165] Memory required for data: 1203713500
I0817 16:28:31.702428 17344 layer_factory.hpp:77] Creating layer L2_b8_sum_eltwise_top_L2_b8_relu_0_split
I0817 16:28:31.702435 17344 net.cpp:100] Creating Layer L2_b8_sum_eltwise_top_L2_b8_relu_0_split
I0817 16:28:31.702440 17344 net.cpp:434] L2_b8_sum_eltwise_top_L2_b8_relu_0_split <- L2_b8_sum_eltwise_top
I0817 16:28:31.702450 17344 net.cpp:408] L2_b8_sum_eltwise_top_L2_b8_relu_0_split -> L2_b8_sum_eltwise_top_L2_b8_relu_0_split_0
I0817 16:28:31.702472 17344 net.cpp:408] L2_b8_sum_eltwise_top_L2_b8_relu_0_split -> L2_b8_sum_eltwise_top_L2_b8_relu_0_split_1
I0817 16:28:31.702518 17344 net.cpp:150] Setting up L2_b8_sum_eltwise_top_L2_b8_relu_0_split
I0817 16:28:31.702530 17344 net.cpp:157] Top shape: 125 32 16 16 (1024000)
I0817 16:28:31.702538 17344 net.cpp:157] Top shape: 125 32 16 16 (1024000)
I0817 16:28:31.702541 17344 net.cpp:165] Memory required for data: 1211905500
I0817 16:28:31.702548 17344 layer_factory.hpp:77] Creating layer L2_b9_cbr1_conv
I0817 16:28:31.702561 17344 net.cpp:100] Creating Layer L2_b9_cbr1_conv
I0817 16:28:31.702567 17344 net.cpp:434] L2_b9_cbr1_conv <- L2_b8_sum_eltwise_top_L2_b8_relu_0_split_0
I0817 16:28:31.702580 17344 net.cpp:408] L2_b9_cbr1_conv -> L2_b9_cbr1_conv_top
I0817 16:28:31.703052 17344 net.cpp:150] Setting up L2_b9_cbr1_conv
I0817 16:28:31.703068 17344 net.cpp:157] Top shape: 125 32 16 16 (1024000)
I0817 16:28:31.703073 17344 net.cpp:165] Memory required for data: 1216001500
I0817 16:28:31.703080 17344 layer_factory.hpp:77] Creating layer L2_b9_cbr1_bn
I0817 16:28:31.703092 17344 net.cpp:100] Creating Layer L2_b9_cbr1_bn
I0817 16:28:31.703099 17344 net.cpp:434] L2_b9_cbr1_bn <- L2_b9_cbr1_conv_top
I0817 16:28:31.703107 17344 net.cpp:408] L2_b9_cbr1_bn -> L2_b9_cbr1_bn_top
I0817 16:28:31.703351 17344 net.cpp:150] Setting up L2_b9_cbr1_bn
I0817 16:28:31.703364 17344 net.cpp:157] Top shape: 125 32 16 16 (1024000)
I0817 16:28:31.703377 17344 net.cpp:165] Memory required for data: 1220097500
I0817 16:28:31.703387 17344 layer_factory.hpp:77] Creating layer L2_b9_cbr1_scale
I0817 16:28:31.703395 17344 net.cpp:100] Creating Layer L2_b9_cbr1_scale
I0817 16:28:31.703402 17344 net.cpp:434] L2_b9_cbr1_scale <- L2_b9_cbr1_bn_top
I0817 16:28:31.703409 17344 net.cpp:395] L2_b9_cbr1_scale -> L2_b9_cbr1_bn_top (in-place)
I0817 16:28:31.703470 17344 layer_factory.hpp:77] Creating layer L2_b9_cbr1_scale
I0817 16:28:31.703619 17344 net.cpp:150] Setting up L2_b9_cbr1_scale
I0817 16:28:31.703634 17344 net.cpp:157] Top shape: 125 32 16 16 (1024000)
I0817 16:28:31.703639 17344 net.cpp:165] Memory required for data: 1224193500
I0817 16:28:31.703647 17344 layer_factory.hpp:77] Creating layer L2_b9_cbr1_relu
I0817 16:28:31.703655 17344 net.cpp:100] Creating Layer L2_b9_cbr1_relu
I0817 16:28:31.703660 17344 net.cpp:434] L2_b9_cbr1_relu <- L2_b9_cbr1_bn_top
I0817 16:28:31.703667 17344 net.cpp:395] L2_b9_cbr1_relu -> L2_b9_cbr1_bn_top (in-place)
I0817 16:28:31.703682 17344 net.cpp:150] Setting up L2_b9_cbr1_relu
I0817 16:28:31.703691 17344 net.cpp:157] Top shape: 125 32 16 16 (1024000)
I0817 16:28:31.703696 17344 net.cpp:165] Memory required for data: 1228289500
I0817 16:28:31.703701 17344 layer_factory.hpp:77] Creating layer L2_b9_cbr2_conv
I0817 16:28:31.703714 17344 net.cpp:100] Creating Layer L2_b9_cbr2_conv
I0817 16:28:31.703721 17344 net.cpp:434] L2_b9_cbr2_conv <- L2_b9_cbr1_bn_top
I0817 16:28:31.703732 17344 net.cpp:408] L2_b9_cbr2_conv -> L2_b9_cbr2_conv_top
I0817 16:28:31.704200 17344 net.cpp:150] Setting up L2_b9_cbr2_conv
I0817 16:28:31.704213 17344 net.cpp:157] Top shape: 125 32 16 16 (1024000)
I0817 16:28:31.704218 17344 net.cpp:165] Memory required for data: 1232385500
I0817 16:28:31.704227 17344 layer_factory.hpp:77] Creating layer L2_b9_cbr2_bn
I0817 16:28:31.704238 17344 net.cpp:100] Creating Layer L2_b9_cbr2_bn
I0817 16:28:31.704246 17344 net.cpp:434] L2_b9_cbr2_bn <- L2_b9_cbr2_conv_top
I0817 16:28:31.704255 17344 net.cpp:408] L2_b9_cbr2_bn -> L2_b9_cbr2_bn_top
I0817 16:28:31.704505 17344 net.cpp:150] Setting up L2_b9_cbr2_bn
I0817 16:28:31.704519 17344 net.cpp:157] Top shape: 125 32 16 16 (1024000)
I0817 16:28:31.704524 17344 net.cpp:165] Memory required for data: 1236481500
I0817 16:28:31.704565 17344 layer_factory.hpp:77] Creating layer L2_b9_cbr2_scale
I0817 16:28:31.704578 17344 net.cpp:100] Creating Layer L2_b9_cbr2_scale
I0817 16:28:31.704586 17344 net.cpp:434] L2_b9_cbr2_scale <- L2_b9_cbr2_bn_top
I0817 16:28:31.704592 17344 net.cpp:395] L2_b9_cbr2_scale -> L2_b9_cbr2_bn_top (in-place)
I0817 16:28:31.704653 17344 layer_factory.hpp:77] Creating layer L2_b9_cbr2_scale
I0817 16:28:31.704809 17344 net.cpp:150] Setting up L2_b9_cbr2_scale
I0817 16:28:31.704823 17344 net.cpp:157] Top shape: 125 32 16 16 (1024000)
I0817 16:28:31.704828 17344 net.cpp:165] Memory required for data: 1240577500
I0817 16:28:31.704836 17344 layer_factory.hpp:77] Creating layer L2_b9_sum_eltwise
I0817 16:28:31.704849 17344 net.cpp:100] Creating Layer L2_b9_sum_eltwise
I0817 16:28:31.704855 17344 net.cpp:434] L2_b9_sum_eltwise <- L2_b9_cbr2_bn_top
I0817 16:28:31.704862 17344 net.cpp:434] L2_b9_sum_eltwise <- L2_b8_sum_eltwise_top_L2_b8_relu_0_split_1
I0817 16:28:31.704869 17344 net.cpp:408] L2_b9_sum_eltwise -> L2_b9_sum_eltwise_top
I0817 16:28:31.704903 17344 net.cpp:150] Setting up L2_b9_sum_eltwise
I0817 16:28:31.704913 17344 net.cpp:157] Top shape: 125 32 16 16 (1024000)
I0817 16:28:31.704918 17344 net.cpp:165] Memory required for data: 1244673500
I0817 16:28:31.704923 17344 layer_factory.hpp:77] Creating layer L2_b9_relu
I0817 16:28:31.704931 17344 net.cpp:100] Creating Layer L2_b9_relu
I0817 16:28:31.704936 17344 net.cpp:434] L2_b9_relu <- L2_b9_sum_eltwise_top
I0817 16:28:31.704946 17344 net.cpp:395] L2_b9_relu -> L2_b9_sum_eltwise_top (in-place)
I0817 16:28:31.704955 17344 net.cpp:150] Setting up L2_b9_relu
I0817 16:28:31.704962 17344 net.cpp:157] Top shape: 125 32 16 16 (1024000)
I0817 16:28:31.704967 17344 net.cpp:165] Memory required for data: 1248769500
I0817 16:28:31.704977 17344 layer_factory.hpp:77] Creating layer L2_b9_sum_eltwise_top_L2_b9_relu_0_split
I0817 16:28:31.704985 17344 net.cpp:100] Creating Layer L2_b9_sum_eltwise_top_L2_b9_relu_0_split
I0817 16:28:31.704990 17344 net.cpp:434] L2_b9_sum_eltwise_top_L2_b9_relu_0_split <- L2_b9_sum_eltwise_top
I0817 16:28:31.705000 17344 net.cpp:408] L2_b9_sum_eltwise_top_L2_b9_relu_0_split -> L2_b9_sum_eltwise_top_L2_b9_relu_0_split_0
I0817 16:28:31.705010 17344 net.cpp:408] L2_b9_sum_eltwise_top_L2_b9_relu_0_split -> L2_b9_sum_eltwise_top_L2_b9_relu_0_split_1
I0817 16:28:31.705060 17344 net.cpp:150] Setting up L2_b9_sum_eltwise_top_L2_b9_relu_0_split
I0817 16:28:31.705072 17344 net.cpp:157] Top shape: 125 32 16 16 (1024000)
I0817 16:28:31.705078 17344 net.cpp:157] Top shape: 125 32 16 16 (1024000)
I0817 16:28:31.705083 17344 net.cpp:165] Memory required for data: 1256961500
I0817 16:28:31.705087 17344 layer_factory.hpp:77] Creating layer L3_b1_cbr1_conv
I0817 16:28:31.705098 17344 net.cpp:100] Creating Layer L3_b1_cbr1_conv
I0817 16:28:31.705104 17344 net.cpp:434] L3_b1_cbr1_conv <- L2_b9_sum_eltwise_top_L2_b9_relu_0_split_0
I0817 16:28:31.705116 17344 net.cpp:408] L3_b1_cbr1_conv -> L3_b1_cbr1_conv_top
I0817 16:28:31.705587 17344 net.cpp:150] Setting up L3_b1_cbr1_conv
I0817 16:28:31.705601 17344 net.cpp:157] Top shape: 125 32 8 8 (256000)
I0817 16:28:31.705606 17344 net.cpp:165] Memory required for data: 1257985500
I0817 16:28:31.705615 17344 layer_factory.hpp:77] Creating layer L3_b1_cbr1_bn
I0817 16:28:31.705624 17344 net.cpp:100] Creating Layer L3_b1_cbr1_bn
I0817 16:28:31.705631 17344 net.cpp:434] L3_b1_cbr1_bn <- L3_b1_cbr1_conv_top
I0817 16:28:31.705641 17344 net.cpp:408] L3_b1_cbr1_bn -> L3_b1_cbr1_bn_top
I0817 16:28:31.706094 17344 net.cpp:150] Setting up L3_b1_cbr1_bn
I0817 16:28:31.706112 17344 net.cpp:157] Top shape: 125 32 8 8 (256000)
I0817 16:28:31.706117 17344 net.cpp:165] Memory required for data: 1259009500
I0817 16:28:31.706128 17344 layer_factory.hpp:77] Creating layer L3_b1_cbr1_scale
I0817 16:28:31.706137 17344 net.cpp:100] Creating Layer L3_b1_cbr1_scale
I0817 16:28:31.706145 17344 net.cpp:434] L3_b1_cbr1_scale <- L3_b1_cbr1_bn_top
I0817 16:28:31.706152 17344 net.cpp:395] L3_b1_cbr1_scale -> L3_b1_cbr1_bn_top (in-place)
I0817 16:28:31.706208 17344 layer_factory.hpp:77] Creating layer L3_b1_cbr1_scale
I0817 16:28:31.706362 17344 net.cpp:150] Setting up L3_b1_cbr1_scale
I0817 16:28:31.706374 17344 net.cpp:157] Top shape: 125 32 8 8 (256000)
I0817 16:28:31.706379 17344 net.cpp:165] Memory required for data: 1260033500
I0817 16:28:31.706388 17344 layer_factory.hpp:77] Creating layer L3_b1_cbr1_relu
I0817 16:28:31.706399 17344 net.cpp:100] Creating Layer L3_b1_cbr1_relu
I0817 16:28:31.706405 17344 net.cpp:434] L3_b1_cbr1_relu <- L3_b1_cbr1_bn_top
I0817 16:28:31.706413 17344 net.cpp:395] L3_b1_cbr1_relu -> L3_b1_cbr1_bn_top (in-place)
I0817 16:28:31.706423 17344 net.cpp:150] Setting up L3_b1_cbr1_relu
I0817 16:28:31.706429 17344 net.cpp:157] Top shape: 125 32 8 8 (256000)
I0817 16:28:31.706434 17344 net.cpp:165] Memory required for data: 1261057500
I0817 16:28:31.706437 17344 layer_factory.hpp:77] Creating layer L3_b1_cbr2_conv
I0817 16:28:31.706452 17344 net.cpp:100] Creating Layer L3_b1_cbr2_conv
I0817 16:28:31.706459 17344 net.cpp:434] L3_b1_cbr2_conv <- L3_b1_cbr1_bn_top
I0817 16:28:31.706466 17344 net.cpp:408] L3_b1_cbr2_conv -> L3_b1_cbr2_conv_top
I0817 16:28:31.706951 17344 net.cpp:150] Setting up L3_b1_cbr2_conv
I0817 16:28:31.706966 17344 net.cpp:157] Top shape: 125 32 8 8 (256000)
I0817 16:28:31.706971 17344 net.cpp:165] Memory required for data: 1262081500
I0817 16:28:31.706980 17344 layer_factory.hpp:77] Creating layer L3_b1_cbr2_bn
I0817 16:28:31.706992 17344 net.cpp:100] Creating Layer L3_b1_cbr2_bn
I0817 16:28:31.706998 17344 net.cpp:434] L3_b1_cbr2_bn <- L3_b1_cbr2_conv_top
I0817 16:28:31.707012 17344 net.cpp:408] L3_b1_cbr2_bn -> L3_b1_cbr2_bn_top
I0817 16:28:31.707267 17344 net.cpp:150] Setting up L3_b1_cbr2_bn
I0817 16:28:31.707279 17344 net.cpp:157] Top shape: 125 32 8 8 (256000)
I0817 16:28:31.707291 17344 net.cpp:165] Memory required for data: 1263105500
I0817 16:28:31.707303 17344 layer_factory.hpp:77] Creating layer L3_b1_cbr2_scale
I0817 16:28:31.707311 17344 net.cpp:100] Creating Layer L3_b1_cbr2_scale
I0817 16:28:31.707317 17344 net.cpp:434] L3_b1_cbr2_scale <- L3_b1_cbr2_bn_top
I0817 16:28:31.707329 17344 net.cpp:395] L3_b1_cbr2_scale -> L3_b1_cbr2_bn_top (in-place)
I0817 16:28:31.707384 17344 layer_factory.hpp:77] Creating layer L3_b1_cbr2_scale
I0817 16:28:31.707538 17344 net.cpp:150] Setting up L3_b1_cbr2_scale
I0817 16:28:31.707551 17344 net.cpp:157] Top shape: 125 32 8 8 (256000)
I0817 16:28:31.707556 17344 net.cpp:165] Memory required for data: 1264129500
I0817 16:28:31.707566 17344 layer_factory.hpp:77] Creating layer L3_b1_pool
I0817 16:28:31.707574 17344 net.cpp:100] Creating Layer L3_b1_pool
I0817 16:28:31.707581 17344 net.cpp:434] L3_b1_pool <- L2_b9_sum_eltwise_top_L2_b9_relu_0_split_1
I0817 16:28:31.707592 17344 net.cpp:408] L3_b1_pool -> L3_b1_pool
I0817 16:28:31.707628 17344 net.cpp:150] Setting up L3_b1_pool
I0817 16:28:31.707639 17344 net.cpp:157] Top shape: 125 32 8 8 (256000)
I0817 16:28:31.707644 17344 net.cpp:165] Memory required for data: 1265153500
I0817 16:28:31.707649 17344 layer_factory.hpp:77] Creating layer L3_b1_sum_eltwise
I0817 16:28:31.707659 17344 net.cpp:100] Creating Layer L3_b1_sum_eltwise
I0817 16:28:31.707664 17344 net.cpp:434] L3_b1_sum_eltwise <- L3_b1_cbr2_bn_top
I0817 16:28:31.707670 17344 net.cpp:434] L3_b1_sum_eltwise <- L3_b1_pool
I0817 16:28:31.707686 17344 net.cpp:408] L3_b1_sum_eltwise -> L3_b1_sum_eltwise_top
I0817 16:28:31.707721 17344 net.cpp:150] Setting up L3_b1_sum_eltwise
I0817 16:28:31.707731 17344 net.cpp:157] Top shape: 125 32 8 8 (256000)
I0817 16:28:31.707736 17344 net.cpp:165] Memory required for data: 1266177500
I0817 16:28:31.707741 17344 layer_factory.hpp:77] Creating layer L3_b1_relu
I0817 16:28:31.707753 17344 net.cpp:100] Creating Layer L3_b1_relu
I0817 16:28:31.707758 17344 net.cpp:434] L3_b1_relu <- L3_b1_sum_eltwise_top
I0817 16:28:31.707765 17344 net.cpp:395] L3_b1_relu -> L3_b1_sum_eltwise_top (in-place)
I0817 16:28:31.707774 17344 net.cpp:150] Setting up L3_b1_relu
I0817 16:28:31.707782 17344 net.cpp:157] Top shape: 125 32 8 8 (256000)
I0817 16:28:31.707785 17344 net.cpp:165] Memory required for data: 1267201500
I0817 16:28:31.707790 17344 layer_factory.hpp:77] Creating layer L3_b1_zeros
I0817 16:28:31.707803 17344 net.cpp:100] Creating Layer L3_b1_zeros
I0817 16:28:31.707809 17344 net.cpp:408] L3_b1_zeros -> L3_b1_zeros
I0817 16:28:31.709061 17344 net.cpp:150] Setting up L3_b1_zeros
I0817 16:28:31.709079 17344 net.cpp:157] Top shape: 125 32 8 8 (256000)
I0817 16:28:31.709084 17344 net.cpp:165] Memory required for data: 1268225500
I0817 16:28:31.709090 17344 layer_factory.hpp:77] Creating layer L3_b1_concat0
I0817 16:28:31.709100 17344 net.cpp:100] Creating Layer L3_b1_concat0
I0817 16:28:31.709106 17344 net.cpp:434] L3_b1_concat0 <- L3_b1_sum_eltwise_top
I0817 16:28:31.709113 17344 net.cpp:434] L3_b1_concat0 <- L3_b1_zeros
I0817 16:28:31.709125 17344 net.cpp:408] L3_b1_concat0 -> L3_b1_concat0
I0817 16:28:31.709164 17344 net.cpp:150] Setting up L3_b1_concat0
I0817 16:28:31.709180 17344 net.cpp:157] Top shape: 125 64 8 8 (512000)
I0817 16:28:31.709185 17344 net.cpp:165] Memory required for data: 1270273500
I0817 16:28:31.709190 17344 layer_factory.hpp:77] Creating layer L3_b1_concat0_L3_b1_concat0_0_split
I0817 16:28:31.709198 17344 net.cpp:100] Creating Layer L3_b1_concat0_L3_b1_concat0_0_split
I0817 16:28:31.709204 17344 net.cpp:434] L3_b1_concat0_L3_b1_concat0_0_split <- L3_b1_concat0
I0817 16:28:31.709211 17344 net.cpp:408] L3_b1_concat0_L3_b1_concat0_0_split -> L3_b1_concat0_L3_b1_concat0_0_split_0
I0817 16:28:31.709226 17344 net.cpp:408] L3_b1_concat0_L3_b1_concat0_0_split -> L3_b1_concat0_L3_b1_concat0_0_split_1
I0817 16:28:31.709275 17344 net.cpp:150] Setting up L3_b1_concat0_L3_b1_concat0_0_split
I0817 16:28:31.709286 17344 net.cpp:157] Top shape: 125 64 8 8 (512000)
I0817 16:28:31.709293 17344 net.cpp:157] Top shape: 125 64 8 8 (512000)
I0817 16:28:31.709306 17344 net.cpp:165] Memory required for data: 1274369500
I0817 16:28:31.709311 17344 layer_factory.hpp:77] Creating layer L3_b2_cbr1_conv
I0817 16:28:31.709326 17344 net.cpp:100] Creating Layer L3_b2_cbr1_conv
I0817 16:28:31.709332 17344 net.cpp:434] L3_b2_cbr1_conv <- L3_b1_concat0_L3_b1_concat0_0_split_0
I0817 16:28:31.709342 17344 net.cpp:408] L3_b2_cbr1_conv -> L3_b2_cbr1_conv_top
I0817 16:28:31.711325 17344 net.cpp:150] Setting up L3_b2_cbr1_conv
I0817 16:28:31.711344 17344 net.cpp:157] Top shape: 125 64 8 8 (512000)
I0817 16:28:31.711349 17344 net.cpp:165] Memory required for data: 1276417500
I0817 16:28:31.711359 17344 layer_factory.hpp:77] Creating layer L3_b2_cbr1_bn
I0817 16:28:31.711370 17344 net.cpp:100] Creating Layer L3_b2_cbr1_bn
I0817 16:28:31.711377 17344 net.cpp:434] L3_b2_cbr1_bn <- L3_b2_cbr1_conv_top
I0817 16:28:31.711385 17344 net.cpp:408] L3_b2_cbr1_bn -> L3_b2_cbr1_bn_top
I0817 16:28:31.711652 17344 net.cpp:150] Setting up L3_b2_cbr1_bn
I0817 16:28:31.711664 17344 net.cpp:157] Top shape: 125 64 8 8 (512000)
I0817 16:28:31.711669 17344 net.cpp:165] Memory required for data: 1278465500
I0817 16:28:31.711688 17344 layer_factory.hpp:77] Creating layer L3_b2_cbr1_scale
I0817 16:28:31.711697 17344 net.cpp:100] Creating Layer L3_b2_cbr1_scale
I0817 16:28:31.711704 17344 net.cpp:434] L3_b2_cbr1_scale <- L3_b2_cbr1_bn_top
I0817 16:28:31.711711 17344 net.cpp:395] L3_b2_cbr1_scale -> L3_b2_cbr1_bn_top (in-place)
I0817 16:28:31.711778 17344 layer_factory.hpp:77] Creating layer L3_b2_cbr1_scale
I0817 16:28:31.711937 17344 net.cpp:150] Setting up L3_b2_cbr1_scale
I0817 16:28:31.711953 17344 net.cpp:157] Top shape: 125 64 8 8 (512000)
I0817 16:28:31.711958 17344 net.cpp:165] Memory required for data: 1280513500
I0817 16:28:31.711967 17344 layer_factory.hpp:77] Creating layer L3_b2_cbr1_relu
I0817 16:28:31.711975 17344 net.cpp:100] Creating Layer L3_b2_cbr1_relu
I0817 16:28:31.711982 17344 net.cpp:434] L3_b2_cbr1_relu <- L3_b2_cbr1_bn_top
I0817 16:28:31.711988 17344 net.cpp:395] L3_b2_cbr1_relu -> L3_b2_cbr1_bn_top (in-place)
I0817 16:28:31.711997 17344 net.cpp:150] Setting up L3_b2_cbr1_relu
I0817 16:28:31.712004 17344 net.cpp:157] Top shape: 125 64 8 8 (512000)
I0817 16:28:31.712009 17344 net.cpp:165] Memory required for data: 1282561500
I0817 16:28:31.712013 17344 layer_factory.hpp:77] Creating layer L3_b2_cbr2_conv
I0817 16:28:31.712028 17344 net.cpp:100] Creating Layer L3_b2_cbr2_conv
I0817 16:28:31.712034 17344 net.cpp:434] L3_b2_cbr2_conv <- L3_b2_cbr1_bn_top
I0817 16:28:31.712043 17344 net.cpp:408] L3_b2_cbr2_conv -> L3_b2_cbr2_conv_top
I0817 16:28:31.713075 17344 net.cpp:150] Setting up L3_b2_cbr2_conv
I0817 16:28:31.713090 17344 net.cpp:157] Top shape: 125 64 8 8 (512000)
I0817 16:28:31.713095 17344 net.cpp:165] Memory required for data: 1284609500
I0817 16:28:31.713104 17344 layer_factory.hpp:77] Creating layer L3_b2_cbr2_bn
I0817 16:28:31.713116 17344 net.cpp:100] Creating Layer L3_b2_cbr2_bn
I0817 16:28:31.713122 17344 net.cpp:434] L3_b2_cbr2_bn <- L3_b2_cbr2_conv_top
I0817 16:28:31.713130 17344 net.cpp:408] L3_b2_cbr2_bn -> L3_b2_cbr2_bn_top
I0817 16:28:31.713392 17344 net.cpp:150] Setting up L3_b2_cbr2_bn
I0817 16:28:31.713404 17344 net.cpp:157] Top shape: 125 64 8 8 (512000)
I0817 16:28:31.713409 17344 net.cpp:165] Memory required for data: 1286657500
I0817 16:28:31.713419 17344 layer_factory.hpp:77] Creating layer L3_b2_cbr2_scale
I0817 16:28:31.713428 17344 net.cpp:100] Creating Layer L3_b2_cbr2_scale
I0817 16:28:31.713434 17344 net.cpp:434] L3_b2_cbr2_scale <- L3_b2_cbr2_bn_top
I0817 16:28:31.713444 17344 net.cpp:395] L3_b2_cbr2_scale -> L3_b2_cbr2_bn_top (in-place)
I0817 16:28:31.713501 17344 layer_factory.hpp:77] Creating layer L3_b2_cbr2_scale
I0817 16:28:31.713656 17344 net.cpp:150] Setting up L3_b2_cbr2_scale
I0817 16:28:31.713668 17344 net.cpp:157] Top shape: 125 64 8 8 (512000)
I0817 16:28:31.713673 17344 net.cpp:165] Memory required for data: 1288705500
I0817 16:28:31.713690 17344 layer_factory.hpp:77] Creating layer L3_b2_sum_eltwise
I0817 16:28:31.713709 17344 net.cpp:100] Creating Layer L3_b2_sum_eltwise
I0817 16:28:31.713716 17344 net.cpp:434] L3_b2_sum_eltwise <- L3_b2_cbr2_bn_top
I0817 16:28:31.713723 17344 net.cpp:434] L3_b2_sum_eltwise <- L3_b1_concat0_L3_b1_concat0_0_split_1
I0817 16:28:31.713732 17344 net.cpp:408] L3_b2_sum_eltwise -> L3_b2_sum_eltwise_top
I0817 16:28:31.713778 17344 net.cpp:150] Setting up L3_b2_sum_eltwise
I0817 16:28:31.713788 17344 net.cpp:157] Top shape: 125 64 8 8 (512000)
I0817 16:28:31.713793 17344 net.cpp:165] Memory required for data: 1290753500
I0817 16:28:31.713798 17344 layer_factory.hpp:77] Creating layer L3_b2_relu
I0817 16:28:31.713806 17344 net.cpp:100] Creating Layer L3_b2_relu
I0817 16:28:31.713812 17344 net.cpp:434] L3_b2_relu <- L3_b2_sum_eltwise_top
I0817 16:28:31.713826 17344 net.cpp:395] L3_b2_relu -> L3_b2_sum_eltwise_top (in-place)
I0817 16:28:31.713835 17344 net.cpp:150] Setting up L3_b2_relu
I0817 16:28:31.713842 17344 net.cpp:157] Top shape: 125 64 8 8 (512000)
I0817 16:28:31.713847 17344 net.cpp:165] Memory required for data: 1292801500
I0817 16:28:31.713851 17344 layer_factory.hpp:77] Creating layer L3_b2_sum_eltwise_top_L3_b2_relu_0_split
I0817 16:28:31.713858 17344 net.cpp:100] Creating Layer L3_b2_sum_eltwise_top_L3_b2_relu_0_split
I0817 16:28:31.713865 17344 net.cpp:434] L3_b2_sum_eltwise_top_L3_b2_relu_0_split <- L3_b2_sum_eltwise_top
I0817 16:28:31.713871 17344 net.cpp:408] L3_b2_sum_eltwise_top_L3_b2_relu_0_split -> L3_b2_sum_eltwise_top_L3_b2_relu_0_split_0
I0817 16:28:31.713881 17344 net.cpp:408] L3_b2_sum_eltwise_top_L3_b2_relu_0_split -> L3_b2_sum_eltwise_top_L3_b2_relu_0_split_1
I0817 16:28:31.713929 17344 net.cpp:150] Setting up L3_b2_sum_eltwise_top_L3_b2_relu_0_split
I0817 16:28:31.713942 17344 net.cpp:157] Top shape: 125 64 8 8 (512000)
I0817 16:28:31.713948 17344 net.cpp:157] Top shape: 125 64 8 8 (512000)
I0817 16:28:31.713953 17344 net.cpp:165] Memory required for data: 1296897500
I0817 16:28:31.713958 17344 layer_factory.hpp:77] Creating layer L3_b3_cbr1_conv
I0817 16:28:31.713968 17344 net.cpp:100] Creating Layer L3_b3_cbr1_conv
I0817 16:28:31.713974 17344 net.cpp:434] L3_b3_cbr1_conv <- L3_b2_sum_eltwise_top_L3_b2_relu_0_split_0
I0817 16:28:31.713986 17344 net.cpp:408] L3_b3_cbr1_conv -> L3_b3_cbr1_conv_top
I0817 16:28:31.715008 17344 net.cpp:150] Setting up L3_b3_cbr1_conv
I0817 16:28:31.715023 17344 net.cpp:157] Top shape: 125 64 8 8 (512000)
I0817 16:28:31.715029 17344 net.cpp:165] Memory required for data: 1298945500
I0817 16:28:31.715036 17344 layer_factory.hpp:77] Creating layer L3_b3_cbr1_bn
I0817 16:28:31.715049 17344 net.cpp:100] Creating Layer L3_b3_cbr1_bn
I0817 16:28:31.715055 17344 net.cpp:434] L3_b3_cbr1_bn <- L3_b3_cbr1_conv_top
I0817 16:28:31.715064 17344 net.cpp:408] L3_b3_cbr1_bn -> L3_b3_cbr1_bn_top
I0817 16:28:31.715327 17344 net.cpp:150] Setting up L3_b3_cbr1_bn
I0817 16:28:31.715339 17344 net.cpp:157] Top shape: 125 64 8 8 (512000)
I0817 16:28:31.715344 17344 net.cpp:165] Memory required for data: 1300993500
I0817 16:28:31.715354 17344 layer_factory.hpp:77] Creating layer L3_b3_cbr1_scale
I0817 16:28:31.715363 17344 net.cpp:100] Creating Layer L3_b3_cbr1_scale
I0817 16:28:31.715368 17344 net.cpp:434] L3_b3_cbr1_scale <- L3_b3_cbr1_bn_top
I0817 16:28:31.715376 17344 net.cpp:395] L3_b3_cbr1_scale -> L3_b3_cbr1_bn_top (in-place)
I0817 16:28:31.715436 17344 layer_factory.hpp:77] Creating layer L3_b3_cbr1_scale
I0817 16:28:31.715590 17344 net.cpp:150] Setting up L3_b3_cbr1_scale
I0817 16:28:31.715602 17344 net.cpp:157] Top shape: 125 64 8 8 (512000)
I0817 16:28:31.715607 17344 net.cpp:165] Memory required for data: 1303041500
I0817 16:28:31.715615 17344 layer_factory.hpp:77] Creating layer L3_b3_cbr1_relu
I0817 16:28:31.715623 17344 net.cpp:100] Creating Layer L3_b3_cbr1_relu
I0817 16:28:31.715629 17344 net.cpp:434] L3_b3_cbr1_relu <- L3_b3_cbr1_bn_top
I0817 16:28:31.715636 17344 net.cpp:395] L3_b3_cbr1_relu -> L3_b3_cbr1_bn_top (in-place)
I0817 16:28:31.715646 17344 net.cpp:150] Setting up L3_b3_cbr1_relu
I0817 16:28:31.715652 17344 net.cpp:157] Top shape: 125 64 8 8 (512000)
I0817 16:28:31.715663 17344 net.cpp:165] Memory required for data: 1305089500
I0817 16:28:31.715669 17344 layer_factory.hpp:77] Creating layer L3_b3_cbr2_conv
I0817 16:28:31.715689 17344 net.cpp:100] Creating Layer L3_b3_cbr2_conv
I0817 16:28:31.715697 17344 net.cpp:434] L3_b3_cbr2_conv <- L3_b3_cbr1_bn_top
I0817 16:28:31.715708 17344 net.cpp:408] L3_b3_cbr2_conv -> L3_b3_cbr2_conv_top
I0817 16:28:31.716747 17344 net.cpp:150] Setting up L3_b3_cbr2_conv
I0817 16:28:31.716761 17344 net.cpp:157] Top shape: 125 64 8 8 (512000)
I0817 16:28:31.716766 17344 net.cpp:165] Memory required for data: 1307137500
I0817 16:28:31.716774 17344 layer_factory.hpp:77] Creating layer L3_b3_cbr2_bn
I0817 16:28:31.716789 17344 net.cpp:100] Creating Layer L3_b3_cbr2_bn
I0817 16:28:31.716794 17344 net.cpp:434] L3_b3_cbr2_bn <- L3_b3_cbr2_conv_top
I0817 16:28:31.716804 17344 net.cpp:408] L3_b3_cbr2_bn -> L3_b3_cbr2_bn_top
I0817 16:28:31.717066 17344 net.cpp:150] Setting up L3_b3_cbr2_bn
I0817 16:28:31.717078 17344 net.cpp:157] Top shape: 125 64 8 8 (512000)
I0817 16:28:31.717083 17344 net.cpp:165] Memory required for data: 1309185500
I0817 16:28:31.717092 17344 layer_factory.hpp:77] Creating layer L3_b3_cbr2_scale
I0817 16:28:31.717104 17344 net.cpp:100] Creating Layer L3_b3_cbr2_scale
I0817 16:28:31.717111 17344 net.cpp:434] L3_b3_cbr2_scale <- L3_b3_cbr2_bn_top
I0817 16:28:31.717118 17344 net.cpp:395] L3_b3_cbr2_scale -> L3_b3_cbr2_bn_top (in-place)
I0817 16:28:31.717177 17344 layer_factory.hpp:77] Creating layer L3_b3_cbr2_scale
I0817 16:28:31.717339 17344 net.cpp:150] Setting up L3_b3_cbr2_scale
I0817 16:28:31.717351 17344 net.cpp:157] Top shape: 125 64 8 8 (512000)
I0817 16:28:31.717356 17344 net.cpp:165] Memory required for data: 1311233500
I0817 16:28:31.717365 17344 layer_factory.hpp:77] Creating layer L3_b3_sum_eltwise
I0817 16:28:31.717376 17344 net.cpp:100] Creating Layer L3_b3_sum_eltwise
I0817 16:28:31.717383 17344 net.cpp:434] L3_b3_sum_eltwise <- L3_b3_cbr2_bn_top
I0817 16:28:31.717391 17344 net.cpp:434] L3_b3_sum_eltwise <- L3_b2_sum_eltwise_top_L3_b2_relu_0_split_1
I0817 16:28:31.717398 17344 net.cpp:408] L3_b3_sum_eltwise -> L3_b3_sum_eltwise_top
I0817 16:28:31.717434 17344 net.cpp:150] Setting up L3_b3_sum_eltwise
I0817 16:28:31.717443 17344 net.cpp:157] Top shape: 125 64 8 8 (512000)
I0817 16:28:31.717448 17344 net.cpp:165] Memory required for data: 1313281500
I0817 16:28:31.717453 17344 layer_factory.hpp:77] Creating layer L3_b3_relu
I0817 16:28:31.717460 17344 net.cpp:100] Creating Layer L3_b3_relu
I0817 16:28:31.717466 17344 net.cpp:434] L3_b3_relu <- L3_b3_sum_eltwise_top
I0817 16:28:31.717476 17344 net.cpp:395] L3_b3_relu -> L3_b3_sum_eltwise_top (in-place)
I0817 16:28:31.717485 17344 net.cpp:150] Setting up L3_b3_relu
I0817 16:28:31.717492 17344 net.cpp:157] Top shape: 125 64 8 8 (512000)
I0817 16:28:31.717496 17344 net.cpp:165] Memory required for data: 1315329500
I0817 16:28:31.717501 17344 layer_factory.hpp:77] Creating layer L3_b3_sum_eltwise_top_L3_b3_relu_0_split
I0817 16:28:31.717509 17344 net.cpp:100] Creating Layer L3_b3_sum_eltwise_top_L3_b3_relu_0_split
I0817 16:28:31.717514 17344 net.cpp:434] L3_b3_sum_eltwise_top_L3_b3_relu_0_split <- L3_b3_sum_eltwise_top
I0817 16:28:31.717520 17344 net.cpp:408] L3_b3_sum_eltwise_top_L3_b3_relu_0_split -> L3_b3_sum_eltwise_top_L3_b3_relu_0_split_0
I0817 16:28:31.717530 17344 net.cpp:408] L3_b3_sum_eltwise_top_L3_b3_relu_0_split -> L3_b3_sum_eltwise_top_L3_b3_relu_0_split_1
I0817 16:28:31.717578 17344 net.cpp:150] Setting up L3_b3_sum_eltwise_top_L3_b3_relu_0_split
I0817 16:28:31.717591 17344 net.cpp:157] Top shape: 125 64 8 8 (512000)
I0817 16:28:31.717597 17344 net.cpp:157] Top shape: 125 64 8 8 (512000)
I0817 16:28:31.717602 17344 net.cpp:165] Memory required for data: 1319425500
I0817 16:28:31.717607 17344 layer_factory.hpp:77] Creating layer L3_b4_cbr1_conv
I0817 16:28:31.717620 17344 net.cpp:100] Creating Layer L3_b4_cbr1_conv
I0817 16:28:31.717627 17344 net.cpp:434] L3_b4_cbr1_conv <- L3_b3_sum_eltwise_top_L3_b3_relu_0_split_0
I0817 16:28:31.717643 17344 net.cpp:408] L3_b4_cbr1_conv -> L3_b4_cbr1_conv_top
I0817 16:28:31.718689 17344 net.cpp:150] Setting up L3_b4_cbr1_conv
I0817 16:28:31.718705 17344 net.cpp:157] Top shape: 125 64 8 8 (512000)
I0817 16:28:31.718710 17344 net.cpp:165] Memory required for data: 1321473500
I0817 16:28:31.718719 17344 layer_factory.hpp:77] Creating layer L3_b4_cbr1_bn
I0817 16:28:31.718731 17344 net.cpp:100] Creating Layer L3_b4_cbr1_bn
I0817 16:28:31.718737 17344 net.cpp:434] L3_b4_cbr1_bn <- L3_b4_cbr1_conv_top
I0817 16:28:31.718746 17344 net.cpp:408] L3_b4_cbr1_bn -> L3_b4_cbr1_bn_top
I0817 16:28:31.719014 17344 net.cpp:150] Setting up L3_b4_cbr1_bn
I0817 16:28:31.719027 17344 net.cpp:157] Top shape: 125 64 8 8 (512000)
I0817 16:28:31.719032 17344 net.cpp:165] Memory required for data: 1323521500
I0817 16:28:31.719041 17344 layer_factory.hpp:77] Creating layer L3_b4_cbr1_scale
I0817 16:28:31.719050 17344 net.cpp:100] Creating Layer L3_b4_cbr1_scale
I0817 16:28:31.719056 17344 net.cpp:434] L3_b4_cbr1_scale <- L3_b4_cbr1_bn_top
I0817 16:28:31.719064 17344 net.cpp:395] L3_b4_cbr1_scale -> L3_b4_cbr1_bn_top (in-place)
I0817 16:28:31.719123 17344 layer_factory.hpp:77] Creating layer L3_b4_cbr1_scale
I0817 16:28:31.719280 17344 net.cpp:150] Setting up L3_b4_cbr1_scale
I0817 16:28:31.719291 17344 net.cpp:157] Top shape: 125 64 8 8 (512000)
I0817 16:28:31.719296 17344 net.cpp:165] Memory required for data: 1325569500
I0817 16:28:31.719305 17344 layer_factory.hpp:77] Creating layer L3_b4_cbr1_relu
I0817 16:28:31.719313 17344 net.cpp:100] Creating Layer L3_b4_cbr1_relu
I0817 16:28:31.719319 17344 net.cpp:434] L3_b4_cbr1_relu <- L3_b4_cbr1_bn_top
I0817 16:28:31.719329 17344 net.cpp:395] L3_b4_cbr1_relu -> L3_b4_cbr1_bn_top (in-place)
I0817 16:28:31.719338 17344 net.cpp:150] Setting up L3_b4_cbr1_relu
I0817 16:28:31.719346 17344 net.cpp:157] Top shape: 125 64 8 8 (512000)
I0817 16:28:31.719350 17344 net.cpp:165] Memory required for data: 1327617500
I0817 16:28:31.719354 17344 layer_factory.hpp:77] Creating layer L3_b4_cbr2_conv
I0817 16:28:31.719368 17344 net.cpp:100] Creating Layer L3_b4_cbr2_conv
I0817 16:28:31.719374 17344 net.cpp:434] L3_b4_cbr2_conv <- L3_b4_cbr1_bn_top
I0817 16:28:31.719383 17344 net.cpp:408] L3_b4_cbr2_conv -> L3_b4_cbr2_conv_top
I0817 16:28:31.720422 17344 net.cpp:150] Setting up L3_b4_cbr2_conv
I0817 16:28:31.720438 17344 net.cpp:157] Top shape: 125 64 8 8 (512000)
I0817 16:28:31.720443 17344 net.cpp:165] Memory required for data: 1329665500
I0817 16:28:31.720450 17344 layer_factory.hpp:77] Creating layer L3_b4_cbr2_bn
I0817 16:28:31.720463 17344 net.cpp:100] Creating Layer L3_b4_cbr2_bn
I0817 16:28:31.720469 17344 net.cpp:434] L3_b4_cbr2_bn <- L3_b4_cbr2_conv_top
I0817 16:28:31.720479 17344 net.cpp:408] L3_b4_cbr2_bn -> L3_b4_cbr2_bn_top
I0817 16:28:31.720758 17344 net.cpp:150] Setting up L3_b4_cbr2_bn
I0817 16:28:31.720772 17344 net.cpp:157] Top shape: 125 64 8 8 (512000)
I0817 16:28:31.720777 17344 net.cpp:165] Memory required for data: 1331713500
I0817 16:28:31.720788 17344 layer_factory.hpp:77] Creating layer L3_b4_cbr2_scale
I0817 16:28:31.720798 17344 net.cpp:100] Creating Layer L3_b4_cbr2_scale
I0817 16:28:31.720805 17344 net.cpp:434] L3_b4_cbr2_scale <- L3_b4_cbr2_bn_top
I0817 16:28:31.720813 17344 net.cpp:395] L3_b4_cbr2_scale -> L3_b4_cbr2_bn_top (in-place)
I0817 16:28:31.720875 17344 layer_factory.hpp:77] Creating layer L3_b4_cbr2_scale
I0817 16:28:31.721035 17344 net.cpp:150] Setting up L3_b4_cbr2_scale
I0817 16:28:31.721048 17344 net.cpp:157] Top shape: 125 64 8 8 (512000)
I0817 16:28:31.721053 17344 net.cpp:165] Memory required for data: 1333761500
I0817 16:28:31.721061 17344 layer_factory.hpp:77] Creating layer L3_b4_sum_eltwise
I0817 16:28:31.721073 17344 net.cpp:100] Creating Layer L3_b4_sum_eltwise
I0817 16:28:31.721081 17344 net.cpp:434] L3_b4_sum_eltwise <- L3_b4_cbr2_bn_top
I0817 16:28:31.721087 17344 net.cpp:434] L3_b4_sum_eltwise <- L3_b3_sum_eltwise_top_L3_b3_relu_0_split_1
I0817 16:28:31.721097 17344 net.cpp:408] L3_b4_sum_eltwise -> L3_b4_sum_eltwise_top
I0817 16:28:31.721132 17344 net.cpp:150] Setting up L3_b4_sum_eltwise
I0817 16:28:31.721148 17344 net.cpp:157] Top shape: 125 64 8 8 (512000)
I0817 16:28:31.721153 17344 net.cpp:165] Memory required for data: 1335809500
I0817 16:28:31.721158 17344 layer_factory.hpp:77] Creating layer L3_b4_relu
I0817 16:28:31.721168 17344 net.cpp:100] Creating Layer L3_b4_relu
I0817 16:28:31.721174 17344 net.cpp:434] L3_b4_relu <- L3_b4_sum_eltwise_top
I0817 16:28:31.721181 17344 net.cpp:395] L3_b4_relu -> L3_b4_sum_eltwise_top (in-place)
I0817 16:28:31.721190 17344 net.cpp:150] Setting up L3_b4_relu
I0817 16:28:31.721197 17344 net.cpp:157] Top shape: 125 64 8 8 (512000)
I0817 16:28:31.721201 17344 net.cpp:165] Memory required for data: 1337857500
I0817 16:28:31.721206 17344 layer_factory.hpp:77] Creating layer L3_b4_sum_eltwise_top_L3_b4_relu_0_split
I0817 16:28:31.721213 17344 net.cpp:100] Creating Layer L3_b4_sum_eltwise_top_L3_b4_relu_0_split
I0817 16:28:31.721218 17344 net.cpp:434] L3_b4_sum_eltwise_top_L3_b4_relu_0_split <- L3_b4_sum_eltwise_top
I0817 16:28:31.721225 17344 net.cpp:408] L3_b4_sum_eltwise_top_L3_b4_relu_0_split -> L3_b4_sum_eltwise_top_L3_b4_relu_0_split_0
I0817 16:28:31.721235 17344 net.cpp:408] L3_b4_sum_eltwise_top_L3_b4_relu_0_split -> L3_b4_sum_eltwise_top_L3_b4_relu_0_split_1
I0817 16:28:31.721284 17344 net.cpp:150] Setting up L3_b4_sum_eltwise_top_L3_b4_relu_0_split
I0817 16:28:31.721297 17344 net.cpp:157] Top shape: 125 64 8 8 (512000)
I0817 16:28:31.721302 17344 net.cpp:157] Top shape: 125 64 8 8 (512000)
I0817 16:28:31.721307 17344 net.cpp:165] Memory required for data: 1341953500
I0817 16:28:31.721312 17344 layer_factory.hpp:77] Creating layer L3_b5_cbr1_conv
I0817 16:28:31.721325 17344 net.cpp:100] Creating Layer L3_b5_cbr1_conv
I0817 16:28:31.721333 17344 net.cpp:434] L3_b5_cbr1_conv <- L3_b4_sum_eltwise_top_L3_b4_relu_0_split_0
I0817 16:28:31.721340 17344 net.cpp:408] L3_b5_cbr1_conv -> L3_b5_cbr1_conv_top
I0817 16:28:31.722371 17344 net.cpp:150] Setting up L3_b5_cbr1_conv
I0817 16:28:31.722388 17344 net.cpp:157] Top shape: 125 64 8 8 (512000)
I0817 16:28:31.722393 17344 net.cpp:165] Memory required for data: 1344001500
I0817 16:28:31.722400 17344 layer_factory.hpp:77] Creating layer L3_b5_cbr1_bn
I0817 16:28:31.722412 17344 net.cpp:100] Creating Layer L3_b5_cbr1_bn
I0817 16:28:31.722419 17344 net.cpp:434] L3_b5_cbr1_bn <- L3_b5_cbr1_conv_top
I0817 16:28:31.722429 17344 net.cpp:408] L3_b5_cbr1_bn -> L3_b5_cbr1_bn_top
I0817 16:28:31.723697 17344 net.cpp:150] Setting up L3_b5_cbr1_bn
I0817 16:28:31.723714 17344 net.cpp:157] Top shape: 125 64 8 8 (512000)
I0817 16:28:31.723719 17344 net.cpp:165] Memory required for data: 1346049500
I0817 16:28:31.723731 17344 layer_factory.hpp:77] Creating layer L3_b5_cbr1_scale
I0817 16:28:31.723743 17344 net.cpp:100] Creating Layer L3_b5_cbr1_scale
I0817 16:28:31.723750 17344 net.cpp:434] L3_b5_cbr1_scale <- L3_b5_cbr1_bn_top
I0817 16:28:31.723758 17344 net.cpp:395] L3_b5_cbr1_scale -> L3_b5_cbr1_bn_top (in-place)
I0817 16:28:31.723824 17344 layer_factory.hpp:77] Creating layer L3_b5_cbr1_scale
I0817 16:28:31.723984 17344 net.cpp:150] Setting up L3_b5_cbr1_scale
I0817 16:28:31.723996 17344 net.cpp:157] Top shape: 125 64 8 8 (512000)
I0817 16:28:31.724000 17344 net.cpp:165] Memory required for data: 1348097500
I0817 16:28:31.724009 17344 layer_factory.hpp:77] Creating layer L3_b5_cbr1_relu
I0817 16:28:31.724020 17344 net.cpp:100] Creating Layer L3_b5_cbr1_relu
I0817 16:28:31.724027 17344 net.cpp:434] L3_b5_cbr1_relu <- L3_b5_cbr1_bn_top
I0817 16:28:31.724035 17344 net.cpp:395] L3_b5_cbr1_relu -> L3_b5_cbr1_bn_top (in-place)
I0817 16:28:31.724046 17344 net.cpp:150] Setting up L3_b5_cbr1_relu
I0817 16:28:31.724053 17344 net.cpp:157] Top shape: 125 64 8 8 (512000)
I0817 16:28:31.724058 17344 net.cpp:165] Memory required for data: 1350145500
I0817 16:28:31.724062 17344 layer_factory.hpp:77] Creating layer L3_b5_cbr2_conv
I0817 16:28:31.724073 17344 net.cpp:100] Creating Layer L3_b5_cbr2_conv
I0817 16:28:31.724079 17344 net.cpp:434] L3_b5_cbr2_conv <- L3_b5_cbr1_bn_top
I0817 16:28:31.724090 17344 net.cpp:408] L3_b5_cbr2_conv -> L3_b5_cbr2_conv_top
I0817 16:28:31.726100 17344 net.cpp:150] Setting up L3_b5_cbr2_conv
I0817 16:28:31.726119 17344 net.cpp:157] Top shape: 125 64 8 8 (512000)
I0817 16:28:31.726124 17344 net.cpp:165] Memory required for data: 1352193500
I0817 16:28:31.726133 17344 layer_factory.hpp:77] Creating layer L3_b5_cbr2_bn
I0817 16:28:31.726146 17344 net.cpp:100] Creating Layer L3_b5_cbr2_bn
I0817 16:28:31.726153 17344 net.cpp:434] L3_b5_cbr2_bn <- L3_b5_cbr2_conv_top
I0817 16:28:31.726161 17344 net.cpp:408] L3_b5_cbr2_bn -> L3_b5_cbr2_bn_top
I0817 16:28:31.726419 17344 net.cpp:150] Setting up L3_b5_cbr2_bn
I0817 16:28:31.726433 17344 net.cpp:157] Top shape: 125 64 8 8 (512000)
I0817 16:28:31.726438 17344 net.cpp:165] Memory required for data: 1354241500
I0817 16:28:31.726449 17344 layer_factory.hpp:77] Creating layer L3_b5_cbr2_scale
I0817 16:28:31.726460 17344 net.cpp:100] Creating Layer L3_b5_cbr2_scale
I0817 16:28:31.726466 17344 net.cpp:434] L3_b5_cbr2_scale <- L3_b5_cbr2_bn_top
I0817 16:28:31.726475 17344 net.cpp:395] L3_b5_cbr2_scale -> L3_b5_cbr2_bn_top (in-place)
I0817 16:28:31.726533 17344 layer_factory.hpp:77] Creating layer L3_b5_cbr2_scale
I0817 16:28:31.726692 17344 net.cpp:150] Setting up L3_b5_cbr2_scale
I0817 16:28:31.726706 17344 net.cpp:157] Top shape: 125 64 8 8 (512000)
I0817 16:28:31.726711 17344 net.cpp:165] Memory required for data: 1356289500
I0817 16:28:31.726719 17344 layer_factory.hpp:77] Creating layer L3_b5_sum_eltwise
I0817 16:28:31.726732 17344 net.cpp:100] Creating Layer L3_b5_sum_eltwise
I0817 16:28:31.726738 17344 net.cpp:434] L3_b5_sum_eltwise <- L3_b5_cbr2_bn_top
I0817 16:28:31.726745 17344 net.cpp:434] L3_b5_sum_eltwise <- L3_b4_sum_eltwise_top_L3_b4_relu_0_split_1
I0817 16:28:31.726755 17344 net.cpp:408] L3_b5_sum_eltwise -> L3_b5_sum_eltwise_top
I0817 16:28:31.726788 17344 net.cpp:150] Setting up L3_b5_sum_eltwise
I0817 16:28:31.726797 17344 net.cpp:157] Top shape: 125 64 8 8 (512000)
I0817 16:28:31.726801 17344 net.cpp:165] Memory required for data: 1358337500
I0817 16:28:31.726806 17344 layer_factory.hpp:77] Creating layer L3_b5_relu
I0817 16:28:31.726817 17344 net.cpp:100] Creating Layer L3_b5_relu
I0817 16:28:31.726824 17344 net.cpp:434] L3_b5_relu <- L3_b5_sum_eltwise_top
I0817 16:28:31.726830 17344 net.cpp:395] L3_b5_relu -> L3_b5_sum_eltwise_top (in-place)
I0817 16:28:31.726840 17344 net.cpp:150] Setting up L3_b5_relu
I0817 16:28:31.726846 17344 net.cpp:157] Top shape: 125 64 8 8 (512000)
I0817 16:28:31.726850 17344 net.cpp:165] Memory required for data: 1360385500
I0817 16:28:31.726855 17344 layer_factory.hpp:77] Creating layer L3_b5_sum_eltwise_top_L3_b5_relu_0_split
I0817 16:28:31.726862 17344 net.cpp:100] Creating Layer L3_b5_sum_eltwise_top_L3_b5_relu_0_split
I0817 16:28:31.726868 17344 net.cpp:434] L3_b5_sum_eltwise_top_L3_b5_relu_0_split <- L3_b5_sum_eltwise_top
I0817 16:28:31.726876 17344 net.cpp:408] L3_b5_sum_eltwise_top_L3_b5_relu_0_split -> L3_b5_sum_eltwise_top_L3_b5_relu_0_split_0
I0817 16:28:31.726884 17344 net.cpp:408] L3_b5_sum_eltwise_top_L3_b5_relu_0_split -> L3_b5_sum_eltwise_top_L3_b5_relu_0_split_1
I0817 16:28:31.726933 17344 net.cpp:150] Setting up L3_b5_sum_eltwise_top_L3_b5_relu_0_split
I0817 16:28:31.726943 17344 net.cpp:157] Top shape: 125 64 8 8 (512000)
I0817 16:28:31.726950 17344 net.cpp:157] Top shape: 125 64 8 8 (512000)
I0817 16:28:31.726954 17344 net.cpp:165] Memory required for data: 1364481500
I0817 16:28:31.726959 17344 layer_factory.hpp:77] Creating layer L3_b6_cbr1_conv
I0817 16:28:31.726974 17344 net.cpp:100] Creating Layer L3_b6_cbr1_conv
I0817 16:28:31.726980 17344 net.cpp:434] L3_b6_cbr1_conv <- L3_b5_sum_eltwise_top_L3_b5_relu_0_split_0
I0817 16:28:31.726989 17344 net.cpp:408] L3_b6_cbr1_conv -> L3_b6_cbr1_conv_top
I0817 16:28:31.728008 17344 net.cpp:150] Setting up L3_b6_cbr1_conv
I0817 16:28:31.728024 17344 net.cpp:157] Top shape: 125 64 8 8 (512000)
I0817 16:28:31.728029 17344 net.cpp:165] Memory required for data: 1366529500
I0817 16:28:31.728037 17344 layer_factory.hpp:77] Creating layer L3_b6_cbr1_bn
I0817 16:28:31.728060 17344 net.cpp:100] Creating Layer L3_b6_cbr1_bn
I0817 16:28:31.728067 17344 net.cpp:434] L3_b6_cbr1_bn <- L3_b6_cbr1_conv_top
I0817 16:28:31.728075 17344 net.cpp:408] L3_b6_cbr1_bn -> L3_b6_cbr1_bn_top
I0817 16:28:31.728335 17344 net.cpp:150] Setting up L3_b6_cbr1_bn
I0817 16:28:31.728348 17344 net.cpp:157] Top shape: 125 64 8 8 (512000)
I0817 16:28:31.728353 17344 net.cpp:165] Memory required for data: 1368577500
I0817 16:28:31.728363 17344 layer_factory.hpp:77] Creating layer L3_b6_cbr1_scale
I0817 16:28:31.728373 17344 net.cpp:100] Creating Layer L3_b6_cbr1_scale
I0817 16:28:31.728379 17344 net.cpp:434] L3_b6_cbr1_scale <- L3_b6_cbr1_bn_top
I0817 16:28:31.728386 17344 net.cpp:395] L3_b6_cbr1_scale -> L3_b6_cbr1_bn_top (in-place)
I0817 16:28:31.728446 17344 layer_factory.hpp:77] Creating layer L3_b6_cbr1_scale
I0817 16:28:31.728597 17344 net.cpp:150] Setting up L3_b6_cbr1_scale
I0817 16:28:31.728610 17344 net.cpp:157] Top shape: 125 64 8 8 (512000)
I0817 16:28:31.728615 17344 net.cpp:165] Memory required for data: 1370625500
I0817 16:28:31.728623 17344 layer_factory.hpp:77] Creating layer L3_b6_cbr1_relu
I0817 16:28:31.728631 17344 net.cpp:100] Creating Layer L3_b6_cbr1_relu
I0817 16:28:31.728638 17344 net.cpp:434] L3_b6_cbr1_relu <- L3_b6_cbr1_bn_top
I0817 16:28:31.728649 17344 net.cpp:395] L3_b6_cbr1_relu -> L3_b6_cbr1_bn_top (in-place)
I0817 16:28:31.728659 17344 net.cpp:150] Setting up L3_b6_cbr1_relu
I0817 16:28:31.728667 17344 net.cpp:157] Top shape: 125 64 8 8 (512000)
I0817 16:28:31.728670 17344 net.cpp:165] Memory required for data: 1372673500
I0817 16:28:31.728680 17344 layer_factory.hpp:77] Creating layer L3_b6_cbr2_conv
I0817 16:28:31.728696 17344 net.cpp:100] Creating Layer L3_b6_cbr2_conv
I0817 16:28:31.728703 17344 net.cpp:434] L3_b6_cbr2_conv <- L3_b6_cbr1_bn_top
I0817 16:28:31.728711 17344 net.cpp:408] L3_b6_cbr2_conv -> L3_b6_cbr2_conv_top
I0817 16:28:31.729722 17344 net.cpp:150] Setting up L3_b6_cbr2_conv
I0817 16:28:31.729737 17344 net.cpp:157] Top shape: 125 64 8 8 (512000)
I0817 16:28:31.729743 17344 net.cpp:165] Memory required for data: 1374721500
I0817 16:28:31.729751 17344 layer_factory.hpp:77] Creating layer L3_b6_cbr2_bn
I0817 16:28:31.729763 17344 net.cpp:100] Creating Layer L3_b6_cbr2_bn
I0817 16:28:31.729770 17344 net.cpp:434] L3_b6_cbr2_bn <- L3_b6_cbr2_conv_top
I0817 16:28:31.729779 17344 net.cpp:408] L3_b6_cbr2_bn -> L3_b6_cbr2_bn_top
I0817 16:28:31.730033 17344 net.cpp:150] Setting up L3_b6_cbr2_bn
I0817 16:28:31.730046 17344 net.cpp:157] Top shape: 125 64 8 8 (512000)
I0817 16:28:31.730051 17344 net.cpp:165] Memory required for data: 1376769500
I0817 16:28:31.730060 17344 layer_factory.hpp:77] Creating layer L3_b6_cbr2_scale
I0817 16:28:31.730073 17344 net.cpp:100] Creating Layer L3_b6_cbr2_scale
I0817 16:28:31.730079 17344 net.cpp:434] L3_b6_cbr2_scale <- L3_b6_cbr2_bn_top
I0817 16:28:31.730087 17344 net.cpp:395] L3_b6_cbr2_scale -> L3_b6_cbr2_bn_top (in-place)
I0817 16:28:31.730150 17344 layer_factory.hpp:77] Creating layer L3_b6_cbr2_scale
I0817 16:28:31.730306 17344 net.cpp:150] Setting up L3_b6_cbr2_scale
I0817 16:28:31.730319 17344 net.cpp:157] Top shape: 125 64 8 8 (512000)
I0817 16:28:31.730324 17344 net.cpp:165] Memory required for data: 1378817500
I0817 16:28:31.730334 17344 layer_factory.hpp:77] Creating layer L3_b6_sum_eltwise
I0817 16:28:31.730345 17344 net.cpp:100] Creating Layer L3_b6_sum_eltwise
I0817 16:28:31.730351 17344 net.cpp:434] L3_b6_sum_eltwise <- L3_b6_cbr2_bn_top
I0817 16:28:31.730358 17344 net.cpp:434] L3_b6_sum_eltwise <- L3_b5_sum_eltwise_top_L3_b5_relu_0_split_1
I0817 16:28:31.730368 17344 net.cpp:408] L3_b6_sum_eltwise -> L3_b6_sum_eltwise_top
I0817 16:28:31.730401 17344 net.cpp:150] Setting up L3_b6_sum_eltwise
I0817 16:28:31.730409 17344 net.cpp:157] Top shape: 125 64 8 8 (512000)
I0817 16:28:31.730413 17344 net.cpp:165] Memory required for data: 1380865500
I0817 16:28:31.730418 17344 layer_factory.hpp:77] Creating layer L3_b6_relu
I0817 16:28:31.730429 17344 net.cpp:100] Creating Layer L3_b6_relu
I0817 16:28:31.730435 17344 net.cpp:434] L3_b6_relu <- L3_b6_sum_eltwise_top
I0817 16:28:31.730449 17344 net.cpp:395] L3_b6_relu -> L3_b6_sum_eltwise_top (in-place)
I0817 16:28:31.730459 17344 net.cpp:150] Setting up L3_b6_relu
I0817 16:28:31.730466 17344 net.cpp:157] Top shape: 125 64 8 8 (512000)
I0817 16:28:31.730470 17344 net.cpp:165] Memory required for data: 1382913500
I0817 16:28:31.730475 17344 layer_factory.hpp:77] Creating layer L3_b6_sum_eltwise_top_L3_b6_relu_0_split
I0817 16:28:31.730482 17344 net.cpp:100] Creating Layer L3_b6_sum_eltwise_top_L3_b6_relu_0_split
I0817 16:28:31.730487 17344 net.cpp:434] L3_b6_sum_eltwise_top_L3_b6_relu_0_split <- L3_b6_sum_eltwise_top
I0817 16:28:31.730494 17344 net.cpp:408] L3_b6_sum_eltwise_top_L3_b6_relu_0_split -> L3_b6_sum_eltwise_top_L3_b6_relu_0_split_0
I0817 16:28:31.730504 17344 net.cpp:408] L3_b6_sum_eltwise_top_L3_b6_relu_0_split -> L3_b6_sum_eltwise_top_L3_b6_relu_0_split_1
I0817 16:28:31.730551 17344 net.cpp:150] Setting up L3_b6_sum_eltwise_top_L3_b6_relu_0_split
I0817 16:28:31.730563 17344 net.cpp:157] Top shape: 125 64 8 8 (512000)
I0817 16:28:31.730569 17344 net.cpp:157] Top shape: 125 64 8 8 (512000)
I0817 16:28:31.730574 17344 net.cpp:165] Memory required for data: 1387009500
I0817 16:28:31.730579 17344 layer_factory.hpp:77] Creating layer L3_b7_cbr1_conv
I0817 16:28:31.730592 17344 net.cpp:100] Creating Layer L3_b7_cbr1_conv
I0817 16:28:31.730599 17344 net.cpp:434] L3_b7_cbr1_conv <- L3_b6_sum_eltwise_top_L3_b6_relu_0_split_0
I0817 16:28:31.730608 17344 net.cpp:408] L3_b7_cbr1_conv -> L3_b7_cbr1_conv_top
I0817 16:28:31.731627 17344 net.cpp:150] Setting up L3_b7_cbr1_conv
I0817 16:28:31.731643 17344 net.cpp:157] Top shape: 125 64 8 8 (512000)
I0817 16:28:31.731648 17344 net.cpp:165] Memory required for data: 1389057500
I0817 16:28:31.731657 17344 layer_factory.hpp:77] Creating layer L3_b7_cbr1_bn
I0817 16:28:31.731668 17344 net.cpp:100] Creating Layer L3_b7_cbr1_bn
I0817 16:28:31.731680 17344 net.cpp:434] L3_b7_cbr1_bn <- L3_b7_cbr1_conv_top
I0817 16:28:31.731693 17344 net.cpp:408] L3_b7_cbr1_bn -> L3_b7_cbr1_bn_top
I0817 16:28:31.731956 17344 net.cpp:150] Setting up L3_b7_cbr1_bn
I0817 16:28:31.731968 17344 net.cpp:157] Top shape: 125 64 8 8 (512000)
I0817 16:28:31.731973 17344 net.cpp:165] Memory required for data: 1391105500
I0817 16:28:31.731983 17344 layer_factory.hpp:77] Creating layer L3_b7_cbr1_scale
I0817 16:28:31.731992 17344 net.cpp:100] Creating Layer L3_b7_cbr1_scale
I0817 16:28:31.731998 17344 net.cpp:434] L3_b7_cbr1_scale <- L3_b7_cbr1_bn_top
I0817 16:28:31.732009 17344 net.cpp:395] L3_b7_cbr1_scale -> L3_b7_cbr1_bn_top (in-place)
I0817 16:28:31.732066 17344 layer_factory.hpp:77] Creating layer L3_b7_cbr1_scale
I0817 16:28:31.732220 17344 net.cpp:150] Setting up L3_b7_cbr1_scale
I0817 16:28:31.732234 17344 net.cpp:157] Top shape: 125 64 8 8 (512000)
I0817 16:28:31.732239 17344 net.cpp:165] Memory required for data: 1393153500
I0817 16:28:31.732247 17344 layer_factory.hpp:77] Creating layer L3_b7_cbr1_relu
I0817 16:28:31.732280 17344 net.cpp:100] Creating Layer L3_b7_cbr1_relu
I0817 16:28:31.732290 17344 net.cpp:434] L3_b7_cbr1_relu <- L3_b7_cbr1_bn_top
I0817 16:28:31.732297 17344 net.cpp:395] L3_b7_cbr1_relu -> L3_b7_cbr1_bn_top (in-place)
I0817 16:28:31.732307 17344 net.cpp:150] Setting up L3_b7_cbr1_relu
I0817 16:28:31.732313 17344 net.cpp:157] Top shape: 125 64 8 8 (512000)
I0817 16:28:31.732318 17344 net.cpp:165] Memory required for data: 1395201500
I0817 16:28:31.732323 17344 layer_factory.hpp:77] Creating layer L3_b7_cbr2_conv
I0817 16:28:31.732338 17344 net.cpp:100] Creating Layer L3_b7_cbr2_conv
I0817 16:28:31.732344 17344 net.cpp:434] L3_b7_cbr2_conv <- L3_b7_cbr1_bn_top
I0817 16:28:31.732352 17344 net.cpp:408] L3_b7_cbr2_conv -> L3_b7_cbr2_conv_top
I0817 16:28:31.733384 17344 net.cpp:150] Setting up L3_b7_cbr2_conv
I0817 16:28:31.733399 17344 net.cpp:157] Top shape: 125 64 8 8 (512000)
I0817 16:28:31.733404 17344 net.cpp:165] Memory required for data: 1397249500
I0817 16:28:31.733413 17344 layer_factory.hpp:77] Creating layer L3_b7_cbr2_bn
I0817 16:28:31.733425 17344 net.cpp:100] Creating Layer L3_b7_cbr2_bn
I0817 16:28:31.733438 17344 net.cpp:434] L3_b7_cbr2_bn <- L3_b7_cbr2_conv_top
I0817 16:28:31.733448 17344 net.cpp:408] L3_b7_cbr2_bn -> L3_b7_cbr2_bn_top
I0817 16:28:31.733721 17344 net.cpp:150] Setting up L3_b7_cbr2_bn
I0817 16:28:31.733734 17344 net.cpp:157] Top shape: 125 64 8 8 (512000)
I0817 16:28:31.733739 17344 net.cpp:165] Memory required for data: 1399297500
I0817 16:28:31.733749 17344 layer_factory.hpp:77] Creating layer L3_b7_cbr2_scale
I0817 16:28:31.733757 17344 net.cpp:100] Creating Layer L3_b7_cbr2_scale
I0817 16:28:31.733764 17344 net.cpp:434] L3_b7_cbr2_scale <- L3_b7_cbr2_bn_top
I0817 16:28:31.733772 17344 net.cpp:395] L3_b7_cbr2_scale -> L3_b7_cbr2_bn_top (in-place)
I0817 16:28:31.733832 17344 layer_factory.hpp:77] Creating layer L3_b7_cbr2_scale
I0817 16:28:31.733988 17344 net.cpp:150] Setting up L3_b7_cbr2_scale
I0817 16:28:31.733999 17344 net.cpp:157] Top shape: 125 64 8 8 (512000)
I0817 16:28:31.734004 17344 net.cpp:165] Memory required for data: 1401345500
I0817 16:28:31.734014 17344 layer_factory.hpp:77] Creating layer L3_b7_sum_eltwise
I0817 16:28:31.734022 17344 net.cpp:100] Creating Layer L3_b7_sum_eltwise
I0817 16:28:31.734028 17344 net.cpp:434] L3_b7_sum_eltwise <- L3_b7_cbr2_bn_top
I0817 16:28:31.734035 17344 net.cpp:434] L3_b7_sum_eltwise <- L3_b6_sum_eltwise_top_L3_b6_relu_0_split_1
I0817 16:28:31.734046 17344 net.cpp:408] L3_b7_sum_eltwise -> L3_b7_sum_eltwise_top
I0817 16:28:31.734078 17344 net.cpp:150] Setting up L3_b7_sum_eltwise
I0817 16:28:31.734091 17344 net.cpp:157] Top shape: 125 64 8 8 (512000)
I0817 16:28:31.734096 17344 net.cpp:165] Memory required for data: 1403393500
I0817 16:28:31.734102 17344 layer_factory.hpp:77] Creating layer L3_b7_relu
I0817 16:28:31.734108 17344 net.cpp:100] Creating Layer L3_b7_relu
I0817 16:28:31.734114 17344 net.cpp:434] L3_b7_relu <- L3_b7_sum_eltwise_top
I0817 16:28:31.734122 17344 net.cpp:395] L3_b7_relu -> L3_b7_sum_eltwise_top (in-place)
I0817 16:28:31.734130 17344 net.cpp:150] Setting up L3_b7_relu
I0817 16:28:31.734138 17344 net.cpp:157] Top shape: 125 64 8 8 (512000)
I0817 16:28:31.734141 17344 net.cpp:165] Memory required for data: 1405441500
I0817 16:28:31.734146 17344 layer_factory.hpp:77] Creating layer L3_b7_sum_eltwise_top_L3_b7_relu_0_split
I0817 16:28:31.734158 17344 net.cpp:100] Creating Layer L3_b7_sum_eltwise_top_L3_b7_relu_0_split
I0817 16:28:31.734163 17344 net.cpp:434] L3_b7_sum_eltwise_top_L3_b7_relu_0_split <- L3_b7_sum_eltwise_top
I0817 16:28:31.734170 17344 net.cpp:408] L3_b7_sum_eltwise_top_L3_b7_relu_0_split -> L3_b7_sum_eltwise_top_L3_b7_relu_0_split_0
I0817 16:28:31.734179 17344 net.cpp:408] L3_b7_sum_eltwise_top_L3_b7_relu_0_split -> L3_b7_sum_eltwise_top_L3_b7_relu_0_split_1
I0817 16:28:31.734226 17344 net.cpp:150] Setting up L3_b7_sum_eltwise_top_L3_b7_relu_0_split
I0817 16:28:31.734237 17344 net.cpp:157] Top shape: 125 64 8 8 (512000)
I0817 16:28:31.734244 17344 net.cpp:157] Top shape: 125 64 8 8 (512000)
I0817 16:28:31.734248 17344 net.cpp:165] Memory required for data: 1409537500
I0817 16:28:31.734253 17344 layer_factory.hpp:77] Creating layer L3_b8_cbr1_conv
I0817 16:28:31.734264 17344 net.cpp:100] Creating Layer L3_b8_cbr1_conv
I0817 16:28:31.734271 17344 net.cpp:434] L3_b8_cbr1_conv <- L3_b7_sum_eltwise_top_L3_b7_relu_0_split_0
I0817 16:28:31.734282 17344 net.cpp:408] L3_b8_cbr1_conv -> L3_b8_cbr1_conv_top
I0817 16:28:31.735306 17344 net.cpp:150] Setting up L3_b8_cbr1_conv
I0817 16:28:31.735321 17344 net.cpp:157] Top shape: 125 64 8 8 (512000)
I0817 16:28:31.735327 17344 net.cpp:165] Memory required for data: 1411585500
I0817 16:28:31.735334 17344 layer_factory.hpp:77] Creating layer L3_b8_cbr1_bn
I0817 16:28:31.735343 17344 net.cpp:100] Creating Layer L3_b8_cbr1_bn
I0817 16:28:31.735350 17344 net.cpp:434] L3_b8_cbr1_bn <- L3_b8_cbr1_conv_top
I0817 16:28:31.735361 17344 net.cpp:408] L3_b8_cbr1_bn -> L3_b8_cbr1_bn_top
I0817 16:28:31.735626 17344 net.cpp:150] Setting up L3_b8_cbr1_bn
I0817 16:28:31.735641 17344 net.cpp:157] Top shape: 125 64 8 8 (512000)
I0817 16:28:31.735647 17344 net.cpp:165] Memory required for data: 1413633500
I0817 16:28:31.735664 17344 layer_factory.hpp:77] Creating layer L3_b8_cbr1_scale
I0817 16:28:31.735672 17344 net.cpp:100] Creating Layer L3_b8_cbr1_scale
I0817 16:28:31.735685 17344 net.cpp:434] L3_b8_cbr1_scale <- L3_b8_cbr1_bn_top
I0817 16:28:31.735693 17344 net.cpp:395] L3_b8_cbr1_scale -> L3_b8_cbr1_bn_top (in-place)
I0817 16:28:31.735754 17344 layer_factory.hpp:77] Creating layer L3_b8_cbr1_scale
I0817 16:28:31.735910 17344 net.cpp:150] Setting up L3_b8_cbr1_scale
I0817 16:28:31.735924 17344 net.cpp:157] Top shape: 125 64 8 8 (512000)
I0817 16:28:31.735929 17344 net.cpp:165] Memory required for data: 1415681500
I0817 16:28:31.735936 17344 layer_factory.hpp:77] Creating layer L3_b8_cbr1_relu
I0817 16:28:31.735944 17344 net.cpp:100] Creating Layer L3_b8_cbr1_relu
I0817 16:28:31.735950 17344 net.cpp:434] L3_b8_cbr1_relu <- L3_b8_cbr1_bn_top
I0817 16:28:31.735960 17344 net.cpp:395] L3_b8_cbr1_relu -> L3_b8_cbr1_bn_top (in-place)
I0817 16:28:31.735970 17344 net.cpp:150] Setting up L3_b8_cbr1_relu
I0817 16:28:31.735977 17344 net.cpp:157] Top shape: 125 64 8 8 (512000)
I0817 16:28:31.735981 17344 net.cpp:165] Memory required for data: 1417729500
I0817 16:28:31.735986 17344 layer_factory.hpp:77] Creating layer L3_b8_cbr2_conv
I0817 16:28:31.736001 17344 net.cpp:100] Creating Layer L3_b8_cbr2_conv
I0817 16:28:31.736006 17344 net.cpp:434] L3_b8_cbr2_conv <- L3_b8_cbr1_bn_top
I0817 16:28:31.736014 17344 net.cpp:408] L3_b8_cbr2_conv -> L3_b8_cbr2_conv_top
I0817 16:28:31.737033 17344 net.cpp:150] Setting up L3_b8_cbr2_conv
I0817 16:28:31.737048 17344 net.cpp:157] Top shape: 125 64 8 8 (512000)
I0817 16:28:31.737053 17344 net.cpp:165] Memory required for data: 1419777500
I0817 16:28:31.737062 17344 layer_factory.hpp:77] Creating layer L3_b8_cbr2_bn
I0817 16:28:31.737076 17344 net.cpp:100] Creating Layer L3_b8_cbr2_bn
I0817 16:28:31.737082 17344 net.cpp:434] L3_b8_cbr2_bn <- L3_b8_cbr2_conv_top
I0817 16:28:31.737093 17344 net.cpp:408] L3_b8_cbr2_bn -> L3_b8_cbr2_bn_top
I0817 16:28:31.737352 17344 net.cpp:150] Setting up L3_b8_cbr2_bn
I0817 16:28:31.737365 17344 net.cpp:157] Top shape: 125 64 8 8 (512000)
I0817 16:28:31.737370 17344 net.cpp:165] Memory required for data: 1421825500
I0817 16:28:31.737381 17344 layer_factory.hpp:77] Creating layer L3_b8_cbr2_scale
I0817 16:28:31.737390 17344 net.cpp:100] Creating Layer L3_b8_cbr2_scale
I0817 16:28:31.737396 17344 net.cpp:434] L3_b8_cbr2_scale <- L3_b8_cbr2_bn_top
I0817 16:28:31.737403 17344 net.cpp:395] L3_b8_cbr2_scale -> L3_b8_cbr2_bn_top (in-place)
I0817 16:28:31.737467 17344 layer_factory.hpp:77] Creating layer L3_b8_cbr2_scale
I0817 16:28:31.737619 17344 net.cpp:150] Setting up L3_b8_cbr2_scale
I0817 16:28:31.737632 17344 net.cpp:157] Top shape: 125 64 8 8 (512000)
I0817 16:28:31.737637 17344 net.cpp:165] Memory required for data: 1423873500
I0817 16:28:31.737646 17344 layer_factory.hpp:77] Creating layer L3_b8_sum_eltwise
I0817 16:28:31.737655 17344 net.cpp:100] Creating Layer L3_b8_sum_eltwise
I0817 16:28:31.737661 17344 net.cpp:434] L3_b8_sum_eltwise <- L3_b8_cbr2_bn_top
I0817 16:28:31.737668 17344 net.cpp:434] L3_b8_sum_eltwise <- L3_b7_sum_eltwise_top_L3_b7_relu_0_split_1
I0817 16:28:31.737684 17344 net.cpp:408] L3_b8_sum_eltwise -> L3_b8_sum_eltwise_top
I0817 16:28:31.737720 17344 net.cpp:150] Setting up L3_b8_sum_eltwise
I0817 16:28:31.737735 17344 net.cpp:157] Top shape: 125 64 8 8 (512000)
I0817 16:28:31.737740 17344 net.cpp:165] Memory required for data: 1425921500
I0817 16:28:31.737745 17344 layer_factory.hpp:77] Creating layer L3_b8_relu
I0817 16:28:31.737757 17344 net.cpp:100] Creating Layer L3_b8_relu
I0817 16:28:31.737762 17344 net.cpp:434] L3_b8_relu <- L3_b8_sum_eltwise_top
I0817 16:28:31.737769 17344 net.cpp:395] L3_b8_relu -> L3_b8_sum_eltwise_top (in-place)
I0817 16:28:31.737779 17344 net.cpp:150] Setting up L3_b8_relu
I0817 16:28:31.737785 17344 net.cpp:157] Top shape: 125 64 8 8 (512000)
I0817 16:28:31.737790 17344 net.cpp:165] Memory required for data: 1427969500
I0817 16:28:31.737794 17344 layer_factory.hpp:77] Creating layer L3_b8_sum_eltwise_top_L3_b8_relu_0_split
I0817 16:28:31.737812 17344 net.cpp:100] Creating Layer L3_b8_sum_eltwise_top_L3_b8_relu_0_split
I0817 16:28:31.737818 17344 net.cpp:434] L3_b8_sum_eltwise_top_L3_b8_relu_0_split <- L3_b8_sum_eltwise_top
I0817 16:28:31.737825 17344 net.cpp:408] L3_b8_sum_eltwise_top_L3_b8_relu_0_split -> L3_b8_sum_eltwise_top_L3_b8_relu_0_split_0
I0817 16:28:31.737834 17344 net.cpp:408] L3_b8_sum_eltwise_top_L3_b8_relu_0_split -> L3_b8_sum_eltwise_top_L3_b8_relu_0_split_1
I0817 16:28:31.737882 17344 net.cpp:150] Setting up L3_b8_sum_eltwise_top_L3_b8_relu_0_split
I0817 16:28:31.737895 17344 net.cpp:157] Top shape: 125 64 8 8 (512000)
I0817 16:28:31.737900 17344 net.cpp:157] Top shape: 125 64 8 8 (512000)
I0817 16:28:31.737905 17344 net.cpp:165] Memory required for data: 1432065500
I0817 16:28:31.737910 17344 layer_factory.hpp:77] Creating layer L3_b9_cbr1_conv
I0817 16:28:31.737921 17344 net.cpp:100] Creating Layer L3_b9_cbr1_conv
I0817 16:28:31.737927 17344 net.cpp:434] L3_b9_cbr1_conv <- L3_b8_sum_eltwise_top_L3_b8_relu_0_split_0
I0817 16:28:31.737938 17344 net.cpp:408] L3_b9_cbr1_conv -> L3_b9_cbr1_conv_top
I0817 16:28:31.739948 17344 net.cpp:150] Setting up L3_b9_cbr1_conv
I0817 16:28:31.739966 17344 net.cpp:157] Top shape: 125 64 8 8 (512000)
I0817 16:28:31.739971 17344 net.cpp:165] Memory required for data: 1434113500
I0817 16:28:31.739980 17344 layer_factory.hpp:77] Creating layer L3_b9_cbr1_bn
I0817 16:28:31.739994 17344 net.cpp:100] Creating Layer L3_b9_cbr1_bn
I0817 16:28:31.740000 17344 net.cpp:434] L3_b9_cbr1_bn <- L3_b9_cbr1_conv_top
I0817 16:28:31.740011 17344 net.cpp:408] L3_b9_cbr1_bn -> L3_b9_cbr1_bn_top
I0817 16:28:31.740276 17344 net.cpp:150] Setting up L3_b9_cbr1_bn
I0817 16:28:31.740289 17344 net.cpp:157] Top shape: 125 64 8 8 (512000)
I0817 16:28:31.740294 17344 net.cpp:165] Memory required for data: 1436161500
I0817 16:28:31.740304 17344 layer_factory.hpp:77] Creating layer L3_b9_cbr1_scale
I0817 16:28:31.740314 17344 net.cpp:100] Creating Layer L3_b9_cbr1_scale
I0817 16:28:31.740319 17344 net.cpp:434] L3_b9_cbr1_scale <- L3_b9_cbr1_bn_top
I0817 16:28:31.740330 17344 net.cpp:395] L3_b9_cbr1_scale -> L3_b9_cbr1_bn_top (in-place)
I0817 16:28:31.740388 17344 layer_factory.hpp:77] Creating layer L3_b9_cbr1_scale
I0817 16:28:31.740547 17344 net.cpp:150] Setting up L3_b9_cbr1_scale
I0817 16:28:31.740559 17344 net.cpp:157] Top shape: 125 64 8 8 (512000)
I0817 16:28:31.740564 17344 net.cpp:165] Memory required for data: 1438209500
I0817 16:28:31.740573 17344 layer_factory.hpp:77] Creating layer L3_b9_cbr1_relu
I0817 16:28:31.740584 17344 net.cpp:100] Creating Layer L3_b9_cbr1_relu
I0817 16:28:31.740591 17344 net.cpp:434] L3_b9_cbr1_relu <- L3_b9_cbr1_bn_top
I0817 16:28:31.740598 17344 net.cpp:395] L3_b9_cbr1_relu -> L3_b9_cbr1_bn_top (in-place)
I0817 16:28:31.740607 17344 net.cpp:150] Setting up L3_b9_cbr1_relu
I0817 16:28:31.740614 17344 net.cpp:157] Top shape: 125 64 8 8 (512000)
I0817 16:28:31.740618 17344 net.cpp:165] Memory required for data: 1440257500
I0817 16:28:31.740623 17344 layer_factory.hpp:77] Creating layer L3_b9_cbr2_conv
I0817 16:28:31.740638 17344 net.cpp:100] Creating Layer L3_b9_cbr2_conv
I0817 16:28:31.740644 17344 net.cpp:434] L3_b9_cbr2_conv <- L3_b9_cbr1_bn_top
I0817 16:28:31.740654 17344 net.cpp:408] L3_b9_cbr2_conv -> L3_b9_cbr2_conv_top
I0817 16:28:31.741684 17344 net.cpp:150] Setting up L3_b9_cbr2_conv
I0817 16:28:31.741699 17344 net.cpp:157] Top shape: 125 64 8 8 (512000)
I0817 16:28:31.741704 17344 net.cpp:165] Memory required for data: 1442305500
I0817 16:28:31.741714 17344 layer_factory.hpp:77] Creating layer L3_b9_cbr2_bn
I0817 16:28:31.741722 17344 net.cpp:100] Creating Layer L3_b9_cbr2_bn
I0817 16:28:31.741729 17344 net.cpp:434] L3_b9_cbr2_bn <- L3_b9_cbr2_conv_top
I0817 16:28:31.741740 17344 net.cpp:408] L3_b9_cbr2_bn -> L3_b9_cbr2_bn_top
I0817 16:28:31.742013 17344 net.cpp:150] Setting up L3_b9_cbr2_bn
I0817 16:28:31.742029 17344 net.cpp:157] Top shape: 125 64 8 8 (512000)
I0817 16:28:31.742034 17344 net.cpp:165] Memory required for data: 1444353500
I0817 16:28:31.742053 17344 layer_factory.hpp:77] Creating layer L3_b9_cbr2_scale
I0817 16:28:31.742061 17344 net.cpp:100] Creating Layer L3_b9_cbr2_scale
I0817 16:28:31.742069 17344 net.cpp:434] L3_b9_cbr2_scale <- L3_b9_cbr2_bn_top
I0817 16:28:31.742075 17344 net.cpp:395] L3_b9_cbr2_scale -> L3_b9_cbr2_bn_top (in-place)
I0817 16:28:31.742133 17344 layer_factory.hpp:77] Creating layer L3_b9_cbr2_scale
I0817 16:28:31.742292 17344 net.cpp:150] Setting up L3_b9_cbr2_scale
I0817 16:28:31.742305 17344 net.cpp:157] Top shape: 125 64 8 8 (512000)
I0817 16:28:31.742311 17344 net.cpp:165] Memory required for data: 1446401500
I0817 16:28:31.742318 17344 layer_factory.hpp:77] Creating layer L3_b9_sum_eltwise
I0817 16:28:31.742331 17344 net.cpp:100] Creating Layer L3_b9_sum_eltwise
I0817 16:28:31.742337 17344 net.cpp:434] L3_b9_sum_eltwise <- L3_b9_cbr2_bn_top
I0817 16:28:31.742344 17344 net.cpp:434] L3_b9_sum_eltwise <- L3_b8_sum_eltwise_top_L3_b8_relu_0_split_1
I0817 16:28:31.742352 17344 net.cpp:408] L3_b9_sum_eltwise -> L3_b9_sum_eltwise_top
I0817 16:28:31.742388 17344 net.cpp:150] Setting up L3_b9_sum_eltwise
I0817 16:28:31.742399 17344 net.cpp:157] Top shape: 125 64 8 8 (512000)
I0817 16:28:31.742404 17344 net.cpp:165] Memory required for data: 1448449500
I0817 16:28:31.742409 17344 layer_factory.hpp:77] Creating layer L3_b9_relu
I0817 16:28:31.742416 17344 net.cpp:100] Creating Layer L3_b9_relu
I0817 16:28:31.742422 17344 net.cpp:434] L3_b9_relu <- L3_b9_sum_eltwise_top
I0817 16:28:31.742429 17344 net.cpp:395] L3_b9_relu -> L3_b9_sum_eltwise_top (in-place)
I0817 16:28:31.742439 17344 net.cpp:150] Setting up L3_b9_relu
I0817 16:28:31.742446 17344 net.cpp:157] Top shape: 125 64 8 8 (512000)
I0817 16:28:31.742450 17344 net.cpp:165] Memory required for data: 1450497500
I0817 16:28:31.742455 17344 layer_factory.hpp:77] Creating layer post_pool
I0817 16:28:31.742462 17344 net.cpp:100] Creating Layer post_pool
I0817 16:28:31.742468 17344 net.cpp:434] post_pool <- L3_b9_sum_eltwise_top
I0817 16:28:31.742478 17344 net.cpp:408] post_pool -> post_pool
I0817 16:28:31.742513 17344 net.cpp:150] Setting up post_pool
I0817 16:28:31.742524 17344 net.cpp:157] Top shape: 125 64 1 1 (8000)
I0817 16:28:31.742529 17344 net.cpp:165] Memory required for data: 1450529500
I0817 16:28:31.742534 17344 layer_factory.hpp:77] Creating layer post_FC
I0817 16:28:31.742617 17344 net.cpp:100] Creating Layer post_FC
I0817 16:28:31.742630 17344 net.cpp:434] post_FC <- post_pool
I0817 16:28:31.742645 17344 net.cpp:408] post_FC -> post_FC_top
I0817 16:28:31.742894 17344 net.cpp:150] Setting up post_FC
I0817 16:28:31.742910 17344 net.cpp:157] Top shape: 125 10 (1250)
I0817 16:28:31.742916 17344 net.cpp:165] Memory required for data: 1450534500
I0817 16:28:31.742925 17344 layer_factory.hpp:77] Creating layer post_FC_top_post_FC_0_split
I0817 16:28:31.742934 17344 net.cpp:100] Creating Layer post_FC_top_post_FC_0_split
I0817 16:28:31.742940 17344 net.cpp:434] post_FC_top_post_FC_0_split <- post_FC_top
I0817 16:28:31.742951 17344 net.cpp:408] post_FC_top_post_FC_0_split -> post_FC_top_post_FC_0_split_0
I0817 16:28:31.742962 17344 net.cpp:408] post_FC_top_post_FC_0_split -> post_FC_top_post_FC_0_split_1
I0817 16:28:31.743015 17344 net.cpp:150] Setting up post_FC_top_post_FC_0_split
I0817 16:28:31.743026 17344 net.cpp:157] Top shape: 125 10 (1250)
I0817 16:28:31.743032 17344 net.cpp:157] Top shape: 125 10 (1250)
I0817 16:28:31.743037 17344 net.cpp:165] Memory required for data: 1450544500
I0817 16:28:31.743042 17344 layer_factory.hpp:77] Creating layer accuracy
I0817 16:28:31.743084 17344 net.cpp:100] Creating Layer accuracy
I0817 16:28:31.743095 17344 net.cpp:434] accuracy <- post_FC_top_post_FC_0_split_0
I0817 16:28:31.743103 17344 net.cpp:434] accuracy <- label_dataLayer_1_split_0
I0817 16:28:31.743110 17344 net.cpp:408] accuracy -> accuracy
…
