…
I0817 16:12:04.993130 17389 net.cpp:322] The NetState phase (0) differed from the phase (1) specified by a rule in layer L3_b9_cbr2_bn
I0817 16:12:04.994889 17389 net.cpp:58] Initializing net from parameters: 
name: "Cifar-Resnet"
state {
  phase: TRAIN
  level: 0
  stage: ""
}
layer {
  name: "dataLayer"
  type: "Data"
  top: "data_top"
  top: "label"
  include {
    phase: TRAIN
  }
  transform_param {
    mirror: true
    crop_size: 32
    mean_file: "examples/cifar100/mean.binaryproto"
  }
  data_param {
    source: "examples/cifar100/cifar100_train_lmdb"
    batch_size: 125
    backend: LMDB
  }
  image_data_param {
    shuffle: true
  }
}
layer {
  name: "pre_conv"
  type: "Convolution"
  bottom: "data_top"
  top: "pre_conv_top"
  param {
    lr_mult: 1
    decay_mult: 1
  }
  param {
    lr_mult: 2
    decay_mult: 0
  }
  convolution_param {
    num_output: 16
    pad: 1
    kernel_size: 3
    stride: 1
    weight_filler {
      type: "msra"
    }
    bias_filler {
      type: "constant"
    }
  }
}
layer {
  name: "pre_bn"
  type: "BatchNorm"
  bottom: "pre_conv_top"
  top: "pre_bn_top"
  include {
    phase: TRAIN
  }
  batch_norm_param {
    use_global_stats: false
    moving_average_fraction: 0.999
  }
}
layer {
  name: "pre_scale"
  type: "Scale"
  bottom: "pre_bn_top"
  top: "pre_bn_top"
  scale_param {
    bias_term: true
  }
}
layer {
  name: "pre_relu"
  type: "ReLU"
  bottom: "pre_bn_top"
  top: "pre_bn_top"
}
layer {
  name: "L1_b1_cbr1_conv"
  type: "Convolution"
  bottom: "pre_bn_top"
  top: "L1_b1_cbr1_conv_top"
  param {
    lr_mult: 1
    decay_mult: 1
  }
  param {
    lr_mult: 2
    decay_mult: 0
  }
  convolution_param {
    num_output: 16
    pad: 1
    kernel_size: 3
    stride: 1
    weight_filler {
      type: "msra"
    }
    bias_filler {
      type: "constant"
    }
  }
}
layer {
  name: "L1_b1_cbr1_bn"
  type: "BatchNorm"
  bottom: "L1_b1_cbr1_conv_top"
  top: "L1_b1_cbr1_bn_top"
  include {
    phase: TRAIN
  }
  batch_norm_param {
    use_global_stats: false
    moving_average_fraction: 0.999
  }
}
layer {
  name: "L1_b1_cbr1_scale"
  type: "Scale"
  bottom: "L1_b1_cbr1_bn_top"
  top: "L1_b1_cbr1_bn_top"
  scale_param {
    bias_term: true
  }
}
layer {
  name: "L1_b1_cbr1_relu"
  type: "ReLU"
  bottom: "L1_b1_cbr1_bn_top"
  top: "L1_b1_cbr1_bn_top"
}
layer {
  name: "L1_b1_cbr2_conv"
  type: "Convolution"
  bottom: "L1_b1_cbr1_bn_top"
  top: "L1_b1_cbr2_conv_top"
  param {
    lr_mult: 1
    decay_mult: 1
  }
  param {
    lr_mult: 2
    decay_mult: 0
  }
  convolution_param {
    num_output: 16
    pad: 1
    kernel_size: 3
    stride: 1
    weight_filler {
      type: "msra"
    }
    bias_filler {
      type: "constant"
    }
  }
}
layer {
  name: "L1_b1_cbr2_bn"
  type: "BatchNorm"
  bottom: "L1_b1_cbr2_conv_top"
  top: "L1_b1_cbr2_bn_top"
  include {
    phase: TRAIN
  }
  batch_norm_param {
    use_global_stats: false
    moving_average_fraction: 0.999
  }
}
layer {
  name: "L1_b1_cbr2_scale"
  type: "Scale"
  bottom: "L1_b1_cbr2_bn_top"
  top: "L1_b1_cbr2_bn_top"
  scale_param {
    bias_term: true
  }
}
layer {
  name: "L1_b1_sum_eltwise"
  type: "Eltwise"
  bottom: "L1_b1_cbr2_bn_top"
  bottom: "pre_bn_top"
  top: "L1_b1_sum_eltwise_top"
  eltwise_param {
    operation: SUM
  }
}
layer {
  name: "L1_b1_relu"
  type: "ReLU"
  bottom: "L1_b1_sum_eltwise_top"
  top: "L1_b1_sum_eltwise_top"
}
layer {
  name: "L1_b2_cbr1_conv"
  type: "Convolution"
  bottom: "L1_b1_sum_eltwise_top"
  top: "L1_b2_cbr1_conv_top"
  param {
    lr_mult: 1
    decay_mult: 1
  }
  param {
    lr_mult: 2
    decay_mult: 0
  }
  convolution_param {
    num_output: 16
    pad: 1
    kernel_size: 3
    stride: 1
    weight_filler {
      type: "msra"
    }
    bias_filler {
      type: "constant"
    }
  }
}
layer {
  name: "L1_b2_cbr1_bn"
  type: "BatchNorm"
  bottom: "L1_b2_cbr1_conv_top"
  top: "L1_b2_cbr1_bn_top"
  include {
    phase: TRAIN
  }
  batch_norm_param {
    use_global_stats: false
    moving_average_fraction: 0.999
  }
}
layer {
  name: "L1_b2_cbr1_scale"
  type: "Scale"
  bottom: "L1_b2_cbr1_bn_top"
  top: "L1_b2_cbr1_bn_top"
  scale_param {
    bias_term: true
  }
}
layer {
  name: "L1_b2_cbr1_relu"
  type: "ReLU"
  bottom: "L1_b2_cbr1_bn_top"
  top: "L1_b2_cbr1_bn_top"
}
layer {
  name: "L1_b2_cbr2_conv"
  type: "Convolution"
  bottom: "L1_b2_cbr1_bn_top"
  top: "L1_b2_cbr2_conv_top"
  param {
    lr_mult: 1
    decay_mult: 1
  }
  param {
    lr_mult: 2
    decay_mult: 0
  }
  convolution_param {
    num_output: 16
    pad: 1
    kernel_size: 3
    stride: 1
    weight_filler {
      type: "msra"
    }
    bias_filler {
      type: "constant"
    }
  }
}
layer {
  name: "L1_b2_cbr2_bn"
  type: "BatchNorm"
  bottom: "L1_b2_cbr2_conv_top"
  top: "L1_b2_cbr2_bn_top"
  include {
    phase: TRAIN
  }
  batch_norm_param {
    use_global_stats: false
    moving_average_fraction: 0.999
  }
}
layer {
  name: "L1_b2_cbr2_scale"
  type: "Scale"
  bottom: "L1_b2_cbr2_bn_top"
  top: "L1_b2_cbr2_bn_top"
  scale_param {
    bias_term: true
  }
}
layer {
  name: "L1_b2_sum_eltwise"
  type: "Eltwise"
  bottom: "L1_b2_cbr2_bn_top"
  bottom: "L1_b1_sum_eltwise_top"
  top: "L1_b2_sum_eltwise_top"
  eltwise_param {
    operation: SUM
  }
}
layer {
  name: "L1_b2_relu"
  type: "ReLU"
  bottom: "L1_b2_sum_eltwise_top"
  top: "L1_b2_sum_eltwise_top"
}
layer {
  name: "L1_b3_cbr1_conv"
  type: "Convolution"
  bottom: "L1_b2_sum_eltwise_top"
  top: "L1_b3_cbr1_conv_top"
  param {
    lr_mult: 1
    decay_mult: 1
  }
  param {
    lr_mult: 2
    decay_mult: 0
  }
  convolution_param {
    num_output: 16
    pad: 1
    kernel_size: 3
    stride: 1
    weight_filler {
      type: "msra"
    }
    bias_filler {
      type: "constant"
    }
  }
}
layer {
  name: "L1_b3_cbr1_bn"
  type: "BatchNorm"
  bottom: "L1_b3_cbr1_conv_top"
  top: "L1_b3_cbr1_bn_top"
  include {
    phase: TRAIN
  }
  batch_norm_param {
    use_global_stats: false
    moving_average_fraction: 0.999
  }
}
layer {
  name: "L1_b3_cbr1_scale"
  type: "Scale"
  bottom: "L1_b3_cbr1_bn_top"
  top: "L1_b3_cbr1_bn_top"
  scale_param {
    bias_term: true
  }
}
layer {
  name: "L1_b3_cbr1_relu"
  type: "ReLU"
  bottom: "L1_b3_cbr1_bn_top"
  top: "L1_b3_cbr1_bn_top"
}
layer {
  name: "L1_b3_cbr2_conv"
  type: "Convolution"
  bottom: "L1_b3_cbr1_bn_top"
  top: "L1_b3_cbr2_conv_top"
  param {
    lr_mult: 1
    decay_mult: 1
  }
  param {
    lr_mult: 2
    decay_mult: 0
  }
  convolution_param {
    num_output: 16
    pad: 1
    kernel_size: 3
    stride: 1
    weight_filler {
      type: "msra"
    }
    bias_filler {
      type: "constant"
    }
  }
}
layer {
  name: "L1_b3_cbr2_bn"
  type: "BatchNorm"
  bottom: "L1_b3_cbr2_conv_top"
  top: "L1_b3_cbr2_bn_top"
  include {
    phase: TRAIN
  }
  batch_norm_param {
    use_global_stats: false
    moving_average_fraction: 0.999
  }
}
layer {
  name: "L1_b3_cbr2_scale"
  type: "Scale"
  bottom: "L1_b3_cbr2_bn_top"
  top: "L1_b3_cbr2_bn_top"
  scale_param {
    bias_term: true
  }
}
layer {
  name: "L1_b3_sum_eltwise"
  type: "Eltwise"
  bottom: "L1_b3_cbr2_bn_top"
  bottom: "L1_b2_sum_eltwise_top"
  top: "L1_b3_sum_eltwise_top"
  eltwise_param {
    operation: SUM
  }
}
layer {
  name: "L1_b3_relu"
  type: "ReLU"
  bottom: "L1_b3_sum_eltwise_top"
  top: "L1_b3_sum_eltwise_top"
}
layer {
  name: "L1_b4_cbr1_conv"
  type: "Convolution"
  bottom: "L1_b3_sum_eltwise_top"
  top: "L1_b4_cbr1_conv_top"
  param {
    lr_mult: 1
    decay_mult: 1
  }
  param {
    lr_mult: 2
    decay_mult: 0
  }
  convolution_param {
    num_output: 16
    pad: 1
    kernel_size: 3
    stride: 1
    weight_filler {
      type: "msra"
    }
    bias_filler {
      type: "constant"
    }
  }
}
layer {
  name: "L1_b4_cbr1_bn"
  type: "BatchNorm"
  bottom: "L1_b4_cbr1_conv_top"
  top: "L1_b4_cbr1_bn_top"
  include {
    phase: TRAIN
  }
  batch_norm_param {
    use_global_stats: false
    moving_average_fraction: 0.999
  }
}
layer {
  name: "L1_b4_cbr1_scale"
  type: "Scale"
  bottom: "L1_b4_cbr1_bn_top"
  top: "L1_b4_cbr1_bn_top"
  scale_param {
    bias_term: true
  }
}
layer {
  name: "L1_b4_cbr1_relu"
  type: "ReLU"
  bottom: "L1_b4_cbr1_bn_top"
  top: "L1_b4_cbr1_bn_top"
}
layer {
  name: "L1_b4_cbr2_conv"
  type: "Convolution"
  bottom: "L1_b4_cbr1_bn_top"
  top: "L1_b4_cbr2_conv_top"
  param {
    lr_mult: 1
    decay_mult: 1
  }
  param {
    lr_mult: 2
    decay_mult: 0
  }
  convolution_param {
    num_output: 16
    pad: 1
    kernel_size: 3
    stride: 1
    weight_filler {
      type: "msra"
    }
    bias_filler {
      type: "constant"
    }
  }
}
layer {
  name: "L1_b4_cbr2_bn"
  type: "BatchNorm"
  bottom: "L1_b4_cbr2_conv_top"
  top: "L1_b4_cbr2_bn_top"
  include {
    phase: TRAIN
  }
  batch_norm_param {
    use_global_stats: false
    moving_average_fraction: 0.999
  }
}
layer {
  name: "L1_b4_cbr2_scale"
  type: "Scale"
  bottom: "L1_b4_cbr2_bn_top"
  top: "L1_b4_cbr2_bn_top"
  scale_param {
    bias_term: true
  }
}
layer {
  name: "L1_b4_sum_eltwise"
  type: "Eltwise"
  bottom: "L1_b4_cbr2_bn_top"
  bottom: "L1_b3_sum_eltwise_top"
  top: "L1_b4_sum_eltwise_top"
  eltwise_param {
    operation: SUM
  }
}
layer {
  name: "L1_b4_relu"
  type: "ReLU"
  bottom: "L1_b4_sum_eltwise_top"
  top: "L1_b4_sum_eltwise_top"
}
layer {
  name: "L1_b5_cbr1_conv"
  type: "Convolution"
  bottom: "L1_b4_sum_eltwise_top"
  top: "L1_b5_cbr1_conv_top"
  param {
    lr_mult: 1
    decay_mult: 1
  }
  param {
    lr_mult: 2
    decay_mult: 0
  }
  convolution_param {
    num_output: 16
    pad: 1
    kernel_size: 3
    stride: 1
    weight_filler {
      type: "msra"
    }
    bias_filler {
      type: "constant"
    }
  }
}
layer {
  name: "L1_b5_cbr1_bn"
  type: "BatchNorm"
  bottom: "L1_b5_cbr1_conv_top"
  top: "L1_b5_cbr1_bn_top"
  include {
    phase: TRAIN
  }
  batch_norm_param {
    use_global_stats: false
    moving_average_fraction: 0.999
  }
}
layer {
  name: "L1_b5_cbr1_scale"
  type: "Scale"
  bottom: "L1_b5_cbr1_bn_top"
  top: "L1_b5_cbr1_bn_top"
  scale_param {
    bias_term: true
  }
}
layer {
  name: "L1_b5_cbr1_relu"
  type: "ReLU"
  bottom: "L1_b5_cbr1_bn_top"
  top: "L1_b5_cbr1_bn_top"
}
layer {
  name: "L1_b5_cbr2_conv"
  type: "Convolution"
  bottom: "L1_b5_cbr1_bn_top"
  top: "L1_b5_cbr2_conv_top"
  param {
    lr_mult: 1
    decay_mult: 1
  }
  param {
    lr_mult: 2
    decay_mult: 0
  }
  convolution_param {
    num_output: 16
    pad: 1
    kernel_size: 3
    stride: 1
    weight_filler {
      type: "msra"
    }
    bias_filler {
      type: "constant"
    }
  }
}
layer {
  name: "L1_b5_cbr2_bn"
  type: "BatchNorm"
  bottom: "L1_b5_cbr2_conv_top"
  top: "L1_b5_cbr2_bn_top"
  include {
    phase: TRAIN
  }
  batch_norm_param {
    use_global_stats: false
    moving_average_fraction: 0.999
  }
}
layer {
  name: "L1_b5_cbr2_scale"
  type: "Scale"
  bottom: "L1_b5_cbr2_bn_top"
  top: "L1_b5_cbr2_bn_top"
  scale_param {
    bias_term: true
  }
}
layer {
  name: "L1_b5_sum_eltwise"
  type: "Eltwise"
  bottom: "L1_b5_cbr2_bn_top"
  bottom: "L1_b4_sum_eltwise_top"
  top: "L1_b5_sum_eltwise_top"
  eltwise_param {
    operation: SUM
  }
}
layer {
  name: "L1_b5_relu"
  type: "ReLU"
  bottom: "L1_b5_sum_eltwise_top"
  top: "L1_b5_sum_eltwise_top"
}
layer {
  name: "L1_b6_cbr1_conv"
  type: "Convolution"
  bottom: "L1_b5_sum_eltwise_top"
  top: "L1_b6_cbr1_conv_top"
  param {
    lr_mult: 1
    decay_mult: 1
  }
  param {
    lr_mult: 2
    decay_mult: 0
  }
  convolution_param {
    num_output: 16
    pad: 1
    kernel_size: 3
    stride: 1
    weight_filler {
      type: "msra"
    }
    bias_filler {
      type: "constant"
    }
  }
}
layer {
  name: "L1_b6_cbr1_bn"
  type: "BatchNorm"
  bottom: "L1_b6_cbr1_conv_top"
  top: "L1_b6_cbr1_bn_top"
  include {
    phase: TRAIN
  }
  batch_norm_param {
    use_global_stats: false
    moving_average_fraction: 0.999
  }
}
layer {
  name: "L1_b6_cbr1_scale"
  type: "Scale"
  bottom: "L1_b6_cbr1_bn_top"
  top: "L1_b6_cbr1_bn_top"
  scale_param {
    bias_term: true
  }
}
layer {
  name: "L1_b6_cbr1_relu"
  type: "ReLU"
  bottom: "L1_b6_cbr1_bn_top"
  top: "L1_b6_cbr1_bn_top"
}
layer {
  name: "L1_b6_cbr2_conv"
  type: "Convolution"
  bottom: "L1_b6_cbr1_bn_top"
  top: "L1_b6_cbr2_conv_top"
  param {
    lr_mult: 1
    decay_mult: 1
  }
  param {
    lr_mult: 2
    decay_mult: 0
  }
  convolution_param {
    num_output: 16
    pad: 1
    kernel_size: 3
    stride: 1
    weight_filler {
      type: "msra"
    }
    bias_filler {
      type: "constant"
    }
  }
}
layer {
  name: "L1_b6_cbr2_bn"
  type: "BatchNorm"
  bottom: "L1_b6_cbr2_conv_top"
  top: "L1_b6_cbr2_bn_top"
  include {
    phase: TRAIN
  }
  batch_norm_param {
    use_global_stats: false
    moving_average_fraction: 0.999
  }
}
layer {
  name: "L1_b6_cbr2_scale"
  type: "Scale"
  bottom: "L1_b6_cbr2_bn_top"
  top: "L1_b6_cbr2_bn_top"
  scale_param {
    bias_term: true
  }
}
layer {
  name: "L1_b6_sum_eltwise"
  type: "Eltwise"
  bottom: "L1_b6_cbr2_bn_top"
  bottom: "L1_b5_sum_eltwise_top"
  top: "L1_b6_sum_eltwise_top"
  eltwise_param {
    operation: SUM
  }
}
layer {
  name: "L1_b6_relu"
  type: "ReLU"
  bottom: "L1_b6_sum_eltwise_top"
  top: "L1_b6_sum_eltwise_top"
}
layer {
  name: "L1_b7_cbr1_conv"
  type: "Convolution"
  bottom: "L1_b6_sum_eltwise_top"
  top: "L1_b7_cbr1_conv_top"
  param {
    lr_mult: 1
    decay_mult: 1
  }
  param {
    lr_mult: 2
    decay_mult: 0
  }
  convolution_param {
    num_output: 16
    pad: 1
    kernel_size: 3
    stride: 1
    weight_filler {
      type: "msra"
    }
    bias_filler {
      type: "constant"
    }
  }
}
layer {
  name: "L1_b7_cbr1_bn"
  type: "BatchNorm"
  bottom: "L1_b7_cbr1_conv_top"
  top: "L1_b7_cbr1_bn_top"
  include {
    phase: TRAIN
  }
  batch_norm_param {
    use_global_stats: false
    moving_average_fraction: 0.999
  }
}
layer {
  name: "L1_b7_cbr1_scale"
  type: "Scale"
  bottom: "L1_b7_cbr1_bn_top"
  top: "L1_b7_cbr1_bn_top"
  scale_param {
    bias_term: true
  }
}
layer {
  name: "L1_b7_cbr1_relu"
  type: "ReLU"
  bottom: "L1_b7_cbr1_bn_top"
  top: "L1_b7_cbr1_bn_top"
}
layer {
  name: "L1_b7_cbr2_conv"
  type: "Convolution"
  bottom: "L1_b7_cbr1_bn_top"
  top: "L1_b7_cbr2_conv_top"
  param {
    lr_mult: 1
    decay_mult: 1
  }
  param {
    lr_mult: 2
    decay_mult: 0
  }
  convolution_param {
    num_output: 16
    pad: 1
    kernel_size: 3
    stride: 1
    weight_filler {
      type: "msra"
    }
    bias_filler {
      type: "constant"
    }
  }
}
layer {
  name: "L1_b7_cbr2_bn"
  type: "BatchNorm"
  bottom: "L1_b7_cbr2_conv_top"
  top: "L1_b7_cbr2_bn_top"
  include {
    phase: TRAIN
  }
  batch_norm_param {
    use_global_stats: false
    moving_average_fraction: 0.999
  }
}
layer {
  name: "L1_b7_cbr2_scale"
  type: "Scale"
  bottom: "L1_b7_cbr2_bn_top"
  top: "L1_b7_cbr2_bn_top"
  scale_param {
    bias_term: true
  }
}
layer {
  name: "L1_b7_sum_eltwise"
  type: "Eltwise"
  bottom: "L1_b7_cbr2_bn_top"
  bottom: "L1_b6_sum_eltwise_top"
  top: "L1_b7_sum_eltwise_top"
  eltwise_param {
    operation: SUM
  }
}
layer {
  name: "L1_b7_relu"
  type: "ReLU"
  bottom: "L1_b7_sum_eltwise_top"
  top: "L1_b7_sum_eltwise_top"
}
layer {
  name: "L1_b8_cbr1_conv"
  type: "Convolution"
  bottom: "L1_b7_sum_eltwise_top"
  top: "L1_b8_cbr1_conv_top"
  param {
    lr_mult: 1
    decay_mult: 1
  }
  param {
    lr_mult: 2
    decay_mult: 0
  }
  convolution_param {
    num_output: 16
    pad: 1
    kernel_size: 3
    stride: 1
    weight_filler {
      type: "msra"
    }
    bias_filler {
      type: "constant"
    }
  }
}
layer {
  name: "L1_b8_cbr1_bn"
  type: "BatchNorm"
  bottom: "L1_b8_cbr1_conv_top"
  top: "L1_b8_cbr1_bn_top"
  include {
    phase: TRAIN
  }
  batch_norm_param {
    use_global_stats: false
    moving_average_fraction: 0.999
  }
}
layer {
  name: "L1_b8_cbr1_scale"
  type: "Scale"
  bottom: "L1_b8_cbr1_bn_top"
  top: "L1_b8_cbr1_bn_top"
  scale_param {
    bias_term: true
  }
}
layer {
  name: "L1_b8_cbr1_relu"
  type: "ReLU"
  bottom: "L1_b8_cbr1_bn_top"
  top: "L1_b8_cbr1_bn_top"
}
layer {
  name: "L1_b8_cbr2_conv"
  type: "Convolution"
  bottom: "L1_b8_cbr1_bn_top"
  top: "L1_b8_cbr2_conv_top"
  param {
    lr_mult: 1
    decay_mult: 1
  }
  param {
    lr_mult: 2
    decay_mult: 0
  }
  convolution_param {
    num_output: 16
    pad: 1
    kernel_size: 3
    stride: 1
    weight_filler {
      type: "msra"
    }
    bias_filler {
      type: "constant"
    }
  }
}
layer {
  name: "L1_b8_cbr2_bn"
  type: "BatchNorm"
  bottom: "L1_b8_cbr2_conv_top"
  top: "L1_b8_cbr2_bn_top"
  include {
    phase: TRAIN
  }
  batch_norm_param {
    use_global_stats: false
    moving_average_fraction: 0.999
  }
}
layer {
  name: "L1_b8_cbr2_scale"
  type: "Scale"
  bottom: "L1_b8_cbr2_bn_top"
  top: "L1_b8_cbr2_bn_top"
  scale_param {
    bias_term: true
  }
}
layer {
  name: "L1_b8_sum_eltwise"
  type: "Eltwise"
  bottom: "L1_b8_cbr2_bn_top"
  bottom: "L1_b7_sum_eltwise_top"
  top: "L1_b8_sum_eltwise_top"
  eltwise_param {
    operation: SUM
  }
}
layer {
  name: "L1_b8_relu"
  type: "ReLU"
  bottom: "L1_b8_sum_eltwise_top"
  top: "L1_b8_sum_eltwise_top"
}
layer {
  name: "L1_b9_cbr1_conv"
  type: "Convolution"
  bottom: "L1_b8_sum_eltwise_top"
  top: "L1_b9_cbr1_conv_top"
  param {
    lr_mult: 1
    decay_mult: 1
  }
  param {
    lr_mult: 2
    decay_mult: 0
  }
  convolution_param {
    num_output: 16
    pad: 1
    kernel_size: 3
    stride: 1
    weight_filler {
      type: "msra"
    }
    bias_filler {
      type: "constant"
    }
  }
}
layer {
  name: "L1_b9_cbr1_bn"
  type: "BatchNorm"
  bottom: "L1_b9_cbr1_conv_top"
  top: "L1_b9_cbr1_bn_top"
  include {
    phase: TRAIN
  }
  batch_norm_param {
    use_global_stats: false
    moving_average_fraction: 0.999
  }
}
layer {
  name: "L1_b9_cbr1_scale"
  type: "Scale"
  bottom: "L1_b9_cbr1_bn_top"
  top: "L1_b9_cbr1_bn_top"
  scale_param {
    bias_term: true
  }
}
layer {
  name: "L1_b9_cbr1_relu"
  type: "ReLU"
  bottom: "L1_b9_cbr1_bn_top"
  top: "L1_b9_cbr1_bn_top"
}
layer {
  name: "L1_b9_cbr2_conv"
  type: "Convolution"
  bottom: "L1_b9_cbr1_bn_top"
  top: "L1_b9_cbr2_conv_top"
  param {
    lr_mult: 1
    decay_mult: 1
  }
  param {
    lr_mult: 2
    decay_mult: 0
  }
  convolution_param {
    num_output: 16
    pad: 1
    kernel_size: 3
    stride: 1
    weight_filler {
      type: "msra"
    }
    bias_filler {
      type: "constant"
    }
  }
}
layer {
  name: "L1_b9_cbr2_bn"
  type: "BatchNorm"
  bottom: "L1_b9_cbr2_conv_top"
  top: "L1_b9_cbr2_bn_top"
  include {
    phase: TRAIN
  }
  batch_norm_param {
    use_global_stats: false
    moving_average_fraction: 0.999
  }
}
layer {
  name: "L1_b9_cbr2_scale"
  type: "Scale"
  bottom: "L1_b9_cbr2_bn_top"
  top: "L1_b9_cbr2_bn_top"
  scale_param {
    bias_term: true
  }
}
layer {
  name: "L1_b9_sum_eltwise"
  type: "Eltwise"
  bottom: "L1_b9_cbr2_bn_top"
  bottom: "L1_b8_sum_eltwise_top"
  top: "L1_b9_sum_eltwise_top"
  eltwise_param {
    operation: SUM
  }
}
layer {
  name: "L1_b9_relu"
  type: "ReLU"
  bottom: "L1_b9_sum_eltwise_top"
  top: "L1_b9_sum_eltwise_top"
}
layer {
  name: "L2_b1_cbr1_conv"
  type: "Convolution"
  bottom: "L1_b9_sum_eltwise_top"
  top: "L2_b1_cbr1_conv_top"
  param {
    lr_mult: 1
    decay_mult: 1
  }
  param {
    lr_mult: 2
    decay_mult: 0
  }
  convolution_param {
    num_output: 16
    pad: 1
    kernel_size: 3
    stride: 2
    weight_filler {
      type: "msra"
    }
    bias_filler {
      type: "constant"
    }
  }
}
layer {
  name: "L2_b1_cbr1_bn"
  type: "BatchNorm"
  bottom: "L2_b1_cbr1_conv_top"
  top: "L2_b1_cbr1_bn_top"
  include {
    phase: TRAIN
  }
  batch_norm_param {
    use_global_stats: false
    moving_average_fraction: 0.999
  }
}
layer {
  name: "L2_b1_cbr1_scale"
  type: "Scale"
  bottom: "L2_b1_cbr1_bn_top"
  top: "L2_b1_cbr1_bn_top"
  scale_param {
    bias_term: true
  }
}
layer {
  name: "L2_b1_cbr1_relu"
  type: "ReLU"
  bottom: "L2_b1_cbr1_bn_top"
  top: "L2_b1_cbr1_bn_top"
}
layer {
  name: "L2_b1_cbr2_conv"
  type: "Convolution"
  bottom: "L2_b1_cbr1_bn_top"
  top: "L2_b1_cbr2_conv_top"
  param {
    lr_mult: 1
    decay_mult: 1
  }
  param {
    lr_mult: 2
    decay_mult: 0
  }
  convolution_param {
    num_output: 16
    pad: 1
    kernel_size: 3
    stride: 1
    weight_filler {
      type: "msra"
    }
    bias_filler {
      type: "constant"
    }
  }
}
layer {
  name: "L2_b1_cbr2_bn"
  type: "BatchNorm"
  bottom: "L2_b1_cbr2_conv_top"
  top: "L2_b1_cbr2_bn_top"
  include {
    phase: TRAIN
  }
  batch_norm_param {
    use_global_stats: false
    moving_average_fraction: 0.999
  }
}
layer {
  name: "L2_b1_cbr2_scale"
  type: "Scale"
  bottom: "L2_b1_cbr2_bn_top"
  top: "L2_b1_cbr2_bn_top"
  scale_param {
    bias_term: true
  }
}
layer {
  name: "L2_b1_pool"
  type: "Pooling"
  bottom: "L1_b9_sum_eltwise_top"
  top: "L2_b1_pool"
  pooling_param {
    pool: AVE
    kernel_size: 3
    stride: 2
  }
}
layer {
  name: "L2_b1_sum_eltwise"
  type: "Eltwise"
  bottom: "L2_b1_cbr2_bn_top"
  bottom: "L2_b1_pool"
  top: "L2_b1_sum_eltwise_top"
  eltwise_param {
    operation: SUM
  }
}
layer {
  name: "L2_b1_relu"
  type: "ReLU"
  bottom: "L2_b1_sum_eltwise_top"
  top: "L2_b1_sum_eltwise_top"
}
layer {
  name: "L2_b1_zeros"
  type: "DummyData"
  top: "L2_b1_zeros"
  dummy_data_param {
    data_filler {
      type: "constant"
      value: 0
    }
    shape {
      dim: 125
      dim: 16
      dim: 16
      dim: 16
    }
  }
}
layer {
  name: "L2_b1_concat0"
  type: "Concat"
  bottom: "L2_b1_sum_eltwise_top"
  bottom: "L2_b1_zeros"
  top: "L2_b1_concat0"
  concat_param {
    axis: 1
  }
}
layer {
  name: "L2_b2_cbr1_conv"
  type: "Convolution"
  bottom: "L2_b1_concat0"
  top: "L2_b2_cbr1_conv_top"
  param {
    lr_mult: 1
    decay_mult: 1
  }
  param {
    lr_mult: 2
    decay_mult: 0
  }
  convolution_param {
    num_output: 32
    pad: 1
    kernel_size: 3
    stride: 1
    weight_filler {
      type: "msra"
    }
    bias_filler {
      type: "constant"
    }
  }
}
layer {
  name: "L2_b2_cbr1_bn"
  type: "BatchNorm"
  bottom: "L2_b2_cbr1_conv_top"
  top: "L2_b2_cbr1_bn_top"
  include {
    phase: TRAIN
  }
  batch_norm_param {
    use_global_stats: false
    moving_average_fraction: 0.999
  }
}
layer {
  name: "L2_b2_cbr1_scale"
  type: "Scale"
  bottom: "L2_b2_cbr1_bn_top"
  top: "L2_b2_cbr1_bn_top"
  scale_param {
    bias_term: true
  }
}
layer {
  name: "L2_b2_cbr1_relu"
  type: "ReLU"
  bottom: "L2_b2_cbr1_bn_top"
  top: "L2_b2_cbr1_bn_top"
}
layer {
  name: "L2_b2_cbr2_conv"
  type: "Convolution"
  bottom: "L2_b2_cbr1_bn_top"
  top: "L2_b2_cbr2_conv_top"
  param {
    lr_mult: 1
    decay_mult: 1
  }
  param {
    lr_mult: 2
    decay_mult: 0
  }
  convolution_param {
    num_output: 32
    pad: 1
    kernel_size: 3
    stride: 1
    weight_filler {
      type: "msra"
    }
    bias_filler {
      type: "constant"
    }
  }
}
layer {
  name: "L2_b2_cbr2_bn"
  type: "BatchNorm"
  bottom: "L2_b2_cbr2_conv_top"
  top: "L2_b2_cbr2_bn_top"
  include {
    phase: TRAIN
  }
  batch_norm_param {
    use_global_stats: false
    moving_average_fraction: 0.999
  }
}
layer {
  name: "L2_b2_cbr2_scale"
  type: "Scale"
  bottom: "L2_b2_cbr2_bn_top"
  top: "L2_b2_cbr2_bn_top"
  scale_param {
    bias_term: true
  }
}
layer {
  name: "L2_b2_sum_eltwise"
  type: "Eltwise"
  bottom: "L2_b2_cbr2_bn_top"
  bottom: "L2_b1_concat0"
  top: "L2_b2_sum_eltwise_top"
  eltwise_param {
    operation: SUM
  }
}
layer {
  name: "L2_b2_relu"
  type: "ReLU"
  bottom: "L2_b2_sum_eltwise_top"
  top: "L2_b2_sum_eltwise_top"
}
layer {
  name: "L2_b3_cbr1_conv"
  type: "Convolution"
  bottom: "L2_b2_sum_eltwise_top"
  top: "L2_b3_cbr1_conv_top"
  param {
    lr_mult: 1
    decay_mult: 1
  }
  param {
    lr_mult: 2
    decay_mult: 0
  }
  convolution_param {
    num_output: 32
    pad: 1
    kernel_size: 3
    stride: 1
    weight_filler {
      type: "msra"
    }
    bias_filler {
      type: "constant"
    }
  }
}
layer {
  name: "L2_b3_cbr1_bn"
  type: "BatchNorm"
  bottom: "L2_b3_cbr1_conv_top"
  top: "L2_b3_cbr1_bn_top"
  include {
    phase: TRAIN
  }
  batch_norm_param {
    use_global_stats: false
    moving_average_fraction: 0.999
  }
}
layer {
  name: "L2_b3_cbr1_scale"
  type: "Scale"
  bottom: "L2_b3_cbr1_bn_top"
  top: "L2_b3_cbr1_bn_top"
  scale_param {
    bias_term: true
  }
}
layer {
  name: "L2_b3_cbr1_relu"
  type: "ReLU"
  bottom: "L2_b3_cbr1_bn_top"
  top: "L2_b3_cbr1_bn_top"
}
layer {
  name: "L2_b3_cbr2_conv"
  type: "Convolution"
  bottom: "L2_b3_cbr1_bn_top"
  top: "L2_b3_cbr2_conv_top"
  param {
    lr_mult: 1
    decay_mult: 1
  }
  param {
    lr_mult: 2
    decay_mult: 0
  }
  convolution_param {
    num_output: 32
    pad: 1
    kernel_size: 3
    stride: 1
    weight_filler {
      type: "msra"
    }
    bias_filler {
      type: "constant"
    }
  }
}
layer {
  name: "L2_b3_cbr2_bn"
  type: "BatchNorm"
  bottom: "L2_b3_cbr2_conv_top"
  top: "L2_b3_cbr2_bn_top"
  include {
    phase: TRAIN
  }
  batch_norm_param {
    use_global_stats: false
    moving_average_fraction: 0.999
  }
}
layer {
  name: "L2_b3_cbr2_scale"
  type: "Scale"
  bottom: "L2_b3_cbr2_bn_top"
  top: "L2_b3_cbr2_bn_top"
  scale_param {
    bias_term: true
  }
}
layer {
  name: "L2_b3_sum_eltwise"
  type: "Eltwise"
  bottom: "L2_b3_cbr2_bn_top"
  bottom: "L2_b2_sum_eltwise_top"
  top: "L2_b3_sum_eltwise_top"
  eltwise_param {
    operation: SUM
  }
}
layer {
  name: "L2_b3_relu"
  type: "ReLU"
  bottom: "L2_b3_sum_eltwise_top"
  top: "L2_b3_sum_eltwise_top"
}
layer {
  name: "L2_b4_cbr1_conv"
  type: "Convolution"
  bottom: "L2_b3_sum_eltwise_top"
  top: "L2_b4_cbr1_conv_top"
  param {
    lr_mult: 1
    decay_mult: 1
  }
  param {
    lr_mult: 2
    decay_mult: 0
  }
  convolution_param {
    num_output: 32
    pad: 1
    kernel_size: 3
    stride: 1
    weight_filler {
      type: "msra"
    }
    bias_filler {
      type: "constant"
    }
  }
}
layer {
  name: "L2_b4_cbr1_bn"
  type: "BatchNorm"
  bottom: "L2_b4_cbr1_conv_top"
  top: "L2_b4_cbr1_bn_top"
  include {
    phase: TRAIN
  }
  batch_norm_param {
    use_global_stats: false
    moving_average_fraction: 0.999
  }
}
layer {
  name: "L2_b4_cbr1_scale"
  type: "Scale"
  bottom: "L2_b4_cbr1_bn_top"
  top: "L2_b4_cbr1_bn_top"
  scale_param {
    bias_term: true
  }
}
layer {
  name: "L2_b4_cbr1_relu"
  type: "ReLU"
  bottom: "L2_b4_cbr1_bn_top"
  top: "L2_b4_cbr1_bn_top"
}
layer {
  name: "L2_b4_cbr2_conv"
  type: "Convolution"
  bottom: "L2_b4_cbr1_bn_top"
  top: "L2_b4_cbr2_conv_top"
  param {
    lr_mult: 1
    decay_mult: 1
  }
  param {
    lr_mult: 2
    decay_mult: 0
  }
  convolution_param {
    num_output: 32
    pad: 1
    kernel_size: 3
    stride: 1
    weight_filler {
      type: "msra"
    }
    bias_filler {
      type: "constant"
    }
  }
}
layer {
  name: "L2_b4_cbr2_bn"
  type: "BatchNorm"
  bottom: "L2_b4_cbr2_conv_top"
  top: "L2_b4_cbr2_bn_top"
  include {
    phase: TRAIN
  }
  batch_norm_param {
    use_global_stats: false
    moving_average_fraction: 0.999
  }
}
layer {
  name: "L2_b4_cbr2_scale"
  type: "Scale"
  bottom: "L2_b4_cbr2_bn_top"
  top: "L2_b4_cbr2_bn_top"
  scale_param {
    bias_term: true
  }
}
layer {
  name: "L2_b4_sum_eltwise"
  type: "Eltwise"
  bottom: "L2_b4_cbr2_bn_top"
  bottom: "L2_b3_sum_eltwise_top"
  top: "L2_b4_sum_eltwise_top"
  eltwise_param {
    operation: SUM
  }
}
layer {
  name: "L2_b4_relu"
  type: "ReLU"
  bottom: "L2_b4_sum_eltwise_top"
  top: "L2_b4_sum_eltwise_top"
}
layer {
  name: "L2_b5_cbr1_conv"
  type: "Convolution"
  bottom: "L2_b4_sum_eltwise_top"
  top: "L2_b5_cbr1_conv_top"
  param {
    lr_mult: 1
    decay_mult: 1
  }
  param {
    lr_mult: 2
    decay_mult: 0
  }
  convolution_param {
    num_output: 32
    pad: 1
    kernel_size: 3
    stride: 1
    weight_filler {
      type: "msra"
    }
    bias_filler {
      type: "constant"
    }
  }
}
layer {
  name: "L2_b5_cbr1_bn"
  type: "BatchNorm"
  bottom: "L2_b5_cbr1_conv_top"
  top: "L2_b5_cbr1_bn_top"
  include {
    phase: TRAIN
  }
  batch_norm_param {
    use_global_stats: false
    moving_average_fraction: 0.999
  }
}
layer {
  name: "L2_b5_cbr1_scale"
  type: "Scale"
  bottom: "L2_b5_cbr1_bn_top"
  top: "L2_b5_cbr1_bn_top"
  scale_param {
    bias_term: true
  }
}
layer {
  name: "L2_b5_cbr1_relu"
  type: "ReLU"
  bottom: "L2_b5_cbr1_bn_top"
  top: "L2_b5_cbr1_bn_top"
}
layer {
  name: "L2_b5_cbr2_conv"
  type: "Convolution"
  bottom: "L2_b5_cbr1_bn_top"
  top: "L2_b5_cbr2_conv_top"
  param {
    lr_mult: 1
    decay_mult: 1
  }
  param {
    lr_mult: 2
    decay_mult: 0
  }
  convolution_param {
    num_output: 32
    pad: 1
    kernel_size: 3
    stride: 1
    weight_filler {
      type: "msra"
    }
    bias_filler {
      type: "constant"
    }
  }
}
layer {
  name: "L2_b5_cbr2_bn"
  type: "BatchNorm"
  bottom: "L2_b5_cbr2_conv_top"
  top: "L2_b5_cbr2_bn_top"
  include {
    phase: TRAIN
  }
  batch_norm_param {
    use_global_stats: false
    moving_average_fraction: 0.999
  }
}
layer {
  name: "L2_b5_cbr2_scale"
  type: "Scale"
  bottom: "L2_b5_cbr2_bn_top"
  top: "L2_b5_cbr2_bn_top"
  scale_param {
    bias_term: true
  }
}
layer {
  name: "L2_b5_sum_eltwise"
  type: "Eltwise"
  bottom: "L2_b5_cbr2_bn_top"
  bottom: "L2_b4_sum_eltwise_top"
  top: "L2_b5_sum_eltwise_top"
  eltwise_param {
    operation: SUM
  }
}
layer {
  name: "L2_b5_relu"
  type: "ReLU"
  bottom: "L2_b5_sum_eltwise_top"
  top: "L2_b5_sum_eltwise_top"
}
layer {
  name: "L2_b6_cbr1_conv"
  type: "Convolution"
  bottom: "L2_b5_sum_eltwise_top"
  top: "L2_b6_cbr1_conv_top"
  param {
    lr_mult: 1
    decay_mult: 1
  }
  param {
    lr_mult: 2
    decay_mult: 0
  }
  convolution_param {
    num_output: 32
    pad: 1
    kernel_size: 3
    stride: 1
    weight_filler {
      type: "msra"
    }
    bias_filler {
      type: "constant"
    }
  }
}
layer {
  name: "L2_b6_cbr1_bn"
  type: "BatchNorm"
  bottom: "L2_b6_cbr1_conv_top"
  top: "L2_b6_cbr1_bn_top"
  include {
    phase: TRAIN
  }
  batch_norm_param {
    use_global_stats: false
    moving_average_fraction: 0.9
I0817 16:12:04.996956 17389 layer_factory.hpp:77] Creating layer dataLayer
I0817 16:12:04.998152 17389 net.cpp:100] Creating Layer dataLayer
I0817 16:12:04.998225 17389 net.cpp:408] dataLayer -> data_top
I0817 16:12:04.998421 17389 net.cpp:408] dataLayer -> label
I0817 16:12:04.998574 17389 data_transformer.cpp:25] Loading mean file from: examples/cifar100/mean.binaryproto
I0817 16:12:05.033730 17394 db_lmdb.cpp:35] Opened lmdb examples/cifar100/cifar100_train_lmdb
I0817 16:12:05.051635 17389 data_layer.cpp:41] output data size: 125,3,32,32
I0817 16:12:05.058689 17389 net.cpp:150] Setting up dataLayer
I0817 16:12:05.058750 17389 net.cpp:157] Top shape: 125 3 32 32 (384000)
I0817 16:12:05.058763 17389 net.cpp:157] Top shape: 125 (125)
I0817 16:12:05.058768 17389 net.cpp:165] Memory required for data: 1536500
I0817 16:12:05.058784 17389 layer_factory.hpp:77] Creating layer label_dataLayer_1_split
I0817 16:12:05.058797 17389 net.cpp:100] Creating Layer label_dataLayer_1_split
I0817 16:12:05.058805 17389 net.cpp:434] label_dataLayer_1_split <- label
I0817 16:12:05.058825 17389 net.cpp:408] label_dataLayer_1_split -> label_dataLayer_1_split_0
I0817 16:12:05.058838 17389 net.cpp:408] label_dataLayer_1_split -> label_dataLayer_1_split_1
I0817 16:12:05.058921 17389 net.cpp:150] Setting up label_dataLayer_1_split
I0817 16:12:05.058934 17389 net.cpp:157] Top shape: 125 (125)
I0817 16:12:05.058941 17389 net.cpp:157] Top shape: 125 (125)
I0817 16:12:05.058946 17389 net.cpp:165] Memory required for data: 1537500
I0817 16:12:05.058953 17389 layer_factory.hpp:77] Creating layer pre_conv
I0817 16:12:05.059011 17389 net.cpp:100] Creating Layer pre_conv
I0817 16:12:05.059023 17389 net.cpp:434] pre_conv <- data_top
I0817 16:12:05.059036 17389 net.cpp:408] pre_conv -> pre_conv_top
I0817 16:12:05.060837 17389 net.cpp:150] Setting up pre_conv
I0817 16:12:05.060858 17389 net.cpp:157] Top shape: 125 16 32 32 (2048000)
I0817 16:12:05.060863 17389 net.cpp:165] Memory required for data: 9729500
I0817 16:12:05.060928 17389 layer_factory.hpp:77] Creating layer pre_bn
I0817 16:12:05.060997 17389 net.cpp:100] Creating Layer pre_bn
I0817 16:12:05.061008 17389 net.cpp:434] pre_bn <- pre_conv_top
I0817 16:12:05.061018 17389 net.cpp:408] pre_bn -> pre_bn_top
I0817 16:12:05.061532 17396 blocking_queue.cpp:50] Waiting for data
I0817 16:12:05.061568 17389 net.cpp:150] Setting up pre_bn
I0817 16:12:05.061584 17389 net.cpp:157] Top shape: 125 16 32 32 (2048000)
I0817 16:12:05.061589 17389 net.cpp:165] Memory required for data: 17921500
I0817 16:12:05.061607 17389 layer_factory.hpp:77] Creating layer pre_scale
I0817 16:12:05.061663 17389 net.cpp:100] Creating Layer pre_scale
I0817 16:12:05.061673 17389 net.cpp:434] pre_scale <- pre_bn_top
I0817 16:12:05.061682 17389 net.cpp:395] pre_scale -> pre_bn_top (in-place)
I0817 16:12:05.061851 17389 layer_factory.hpp:77] Creating layer pre_scale
I0817 16:12:05.062104 17389 net.cpp:150] Setting up pre_scale
I0817 16:12:05.062120 17389 net.cpp:157] Top shape: 125 16 32 32 (2048000)
I0817 16:12:05.062125 17389 net.cpp:165] Memory required for data: 26113500
I0817 16:12:05.062135 17389 layer_factory.hpp:77] Creating layer pre_relu
I0817 16:12:05.062178 17389 net.cpp:100] Creating Layer pre_relu
I0817 16:12:05.062187 17389 net.cpp:434] pre_relu <- pre_bn_top
I0817 16:12:05.062198 17389 net.cpp:395] pre_relu -> pre_bn_top (in-place)
I0817 16:12:05.062209 17389 net.cpp:150] Setting up pre_relu
I0817 16:12:05.062217 17389 net.cpp:157] Top shape: 125 16 32 32 (2048000)
I0817 16:12:05.062222 17389 net.cpp:165] Memory required for data: 34305500
I0817 16:12:05.062227 17389 layer_factory.hpp:77] Creating layer pre_bn_top_pre_relu_0_split
I0817 16:12:05.062235 17389 net.cpp:100] Creating Layer pre_bn_top_pre_relu_0_split
I0817 16:12:05.062243 17389 net.cpp:434] pre_bn_top_pre_relu_0_split <- pre_bn_top
I0817 16:12:05.062252 17389 net.cpp:408] pre_bn_top_pre_relu_0_split -> pre_bn_top_pre_relu_0_split_0
I0817 16:12:05.062260 17389 net.cpp:408] pre_bn_top_pre_relu_0_split -> pre_bn_top_pre_relu_0_split_1
I0817 16:12:05.062309 17389 net.cpp:150] Setting up pre_bn_top_pre_relu_0_split
I0817 16:12:05.062321 17389 net.cpp:157] Top shape: 125 16 32 32 (2048000)
I0817 16:12:05.062328 17389 net.cpp:157] Top shape: 125 16 32 32 (2048000)
I0817 16:12:05.062333 17389 net.cpp:165] Memory required for data: 50689500
I0817 16:12:05.062338 17389 layer_factory.hpp:77] Creating layer L1_b1_cbr1_conv
I0817 16:12:05.062350 17389 net.cpp:100] Creating Layer L1_b1_cbr1_conv
I0817 16:12:05.062356 17389 net.cpp:434] L1_b1_cbr1_conv <- pre_bn_top_pre_relu_0_split_0
I0817 16:12:05.062368 17389 net.cpp:408] L1_b1_cbr1_conv -> L1_b1_cbr1_conv_top
I0817 16:12:05.062683 17389 net.cpp:150] Setting up L1_b1_cbr1_conv
I0817 16:12:05.062700 17389 net.cpp:157] Top shape: 125 16 32 32 (2048000)
I0817 16:12:05.062705 17389 net.cpp:165] Memory required for data: 58881500
I0817 16:12:05.062716 17389 layer_factory.hpp:77] Creating layer L1_b1_cbr1_bn
I0817 16:12:05.062732 17389 net.cpp:100] Creating Layer L1_b1_cbr1_bn
I0817 16:12:05.062739 17389 net.cpp:434] L1_b1_cbr1_bn <- L1_b1_cbr1_conv_top
I0817 16:12:05.062750 17389 net.cpp:408] L1_b1_cbr1_bn -> L1_b1_cbr1_bn_top
I0817 16:12:05.062986 17389 net.cpp:150] Setting up L1_b1_cbr1_bn
I0817 16:12:05.063000 17389 net.cpp:157] Top shape: 125 16 32 32 (2048000)
I0817 16:12:05.063005 17389 net.cpp:165] Memory required for data: 67073500
I0817 16:12:05.063016 17389 layer_factory.hpp:77] Creating layer L1_b1_cbr1_scale
I0817 16:12:05.063025 17389 net.cpp:100] Creating Layer L1_b1_cbr1_scale
I0817 16:12:05.063031 17389 net.cpp:434] L1_b1_cbr1_scale <- L1_b1_cbr1_bn_top
I0817 16:12:05.063040 17389 net.cpp:395] L1_b1_cbr1_scale -> L1_b1_cbr1_bn_top (in-place)
I0817 16:12:05.063092 17389 layer_factory.hpp:77] Creating layer L1_b1_cbr1_scale
I0817 16:12:05.063230 17389 net.cpp:150] Setting up L1_b1_cbr1_scale
I0817 16:12:05.063243 17389 net.cpp:157] Top shape: 125 16 32 32 (2048000)
I0817 16:12:05.063248 17389 net.cpp:165] Memory required for data: 75265500
I0817 16:12:05.063257 17389 layer_factory.hpp:77] Creating layer L1_b1_cbr1_relu
I0817 16:12:05.063273 17389 net.cpp:100] Creating Layer L1_b1_cbr1_relu
I0817 16:12:05.063279 17389 net.cpp:434] L1_b1_cbr1_relu <- L1_b1_cbr1_bn_top
I0817 16:12:05.063292 17389 net.cpp:395] L1_b1_cbr1_relu -> L1_b1_cbr1_bn_top (in-place)
I0817 16:12:05.063302 17389 net.cpp:150] Setting up L1_b1_cbr1_relu
I0817 16:12:05.063308 17389 net.cpp:157] Top shape: 125 16 32 32 (2048000)
I0817 16:12:05.063313 17389 net.cpp:165] Memory required for data: 83457500
I0817 16:12:05.063318 17389 layer_factory.hpp:77] Creating layer L1_b1_cbr2_conv
I0817 16:12:05.063333 17389 net.cpp:100] Creating Layer L1_b1_cbr2_conv
I0817 16:12:05.063338 17389 net.cpp:434] L1_b1_cbr2_conv <- L1_b1_cbr1_bn_top
I0817 16:12:05.063346 17389 net.cpp:408] L1_b1_cbr2_conv -> L1_b1_cbr2_conv_top
I0817 16:12:05.063676 17389 net.cpp:150] Setting up L1_b1_cbr2_conv
I0817 16:12:05.063691 17389 net.cpp:157] Top shape: 125 16 32 32 (2048000)
I0817 16:12:05.063697 17389 net.cpp:165] Memory required for data: 91649500
I0817 16:12:05.063706 17389 layer_factory.hpp:77] Creating layer L1_b1_cbr2_bn
I0817 16:12:05.063716 17389 net.cpp:100] Creating Layer L1_b1_cbr2_bn
I0817 16:12:05.063721 17389 net.cpp:434] L1_b1_cbr2_bn <- L1_b1_cbr2_conv_top
I0817 16:12:05.063733 17389 net.cpp:408] L1_b1_cbr2_bn -> L1_b1_cbr2_bn_top
I0817 16:12:05.063968 17389 net.cpp:150] Setting up L1_b1_cbr2_bn
I0817 16:12:05.063984 17389 net.cpp:157] Top shape: 125 16 32 32 (2048000)
I0817 16:12:05.063989 17389 net.cpp:165] Memory required for data: 99841500
I0817 16:12:05.064003 17389 layer_factory.hpp:77] Creating layer L1_b1_cbr2_scale
I0817 16:12:05.064013 17389 net.cpp:100] Creating Layer L1_b1_cbr2_scale
I0817 16:12:05.064018 17389 net.cpp:434] L1_b1_cbr2_scale <- L1_b1_cbr2_bn_top
I0817 16:12:05.064026 17389 net.cpp:395] L1_b1_cbr2_scale -> L1_b1_cbr2_bn_top (in-place)
I0817 16:12:05.064082 17389 layer_factory.hpp:77] Creating layer L1_b1_cbr2_scale
I0817 16:12:05.064221 17389 net.cpp:150] Setting up L1_b1_cbr2_scale
I0817 16:12:05.064234 17389 net.cpp:157] Top shape: 125 16 32 32 (2048000)
I0817 16:12:05.064239 17389 net.cpp:165] Memory required for data: 108033500
I0817 16:12:05.064249 17389 layer_factory.hpp:77] Creating layer L1_b1_sum_eltwise
I0817 16:12:05.064301 17389 net.cpp:100] Creating Layer L1_b1_sum_eltwise
I0817 16:12:05.064313 17389 net.cpp:434] L1_b1_sum_eltwise <- L1_b1_cbr2_bn_top
I0817 16:12:05.064321 17389 net.cpp:434] L1_b1_sum_eltwise <- pre_bn_top_pre_relu_0_split_1
I0817 16:12:05.064329 17389 net.cpp:408] L1_b1_sum_eltwise -> L1_b1_sum_eltwise_top
I0817 16:12:05.064402 17389 net.cpp:150] Setting up L1_b1_sum_eltwise
I0817 16:12:05.064416 17389 net.cpp:157] Top shape: 125 16 32 32 (2048000)
I0817 16:12:05.064421 17389 net.cpp:165] Memory required for data: 116225500
I0817 16:12:05.064427 17389 layer_factory.hpp:77] Creating layer L1_b1_relu
I0817 16:12:05.064436 17389 net.cpp:100] Creating Layer L1_b1_relu
I0817 16:12:05.064441 17389 net.cpp:434] L1_b1_relu <- L1_b1_sum_eltwise_top
I0817 16:12:05.064450 17389 net.cpp:395] L1_b1_relu -> L1_b1_sum_eltwise_top (in-place)
I0817 16:12:05.064458 17389 net.cpp:150] Setting up L1_b1_relu
I0817 16:12:05.064466 17389 net.cpp:157] Top shape: 125 16 32 32 (2048000)
I0817 16:12:05.064471 17389 net.cpp:165] Memory required for data: 124417500
I0817 16:12:05.064476 17389 layer_factory.hpp:77] Creating layer L1_b1_sum_eltwise_top_L1_b1_relu_0_split
I0817 16:12:05.064484 17389 net.cpp:100] Creating Layer L1_b1_sum_eltwise_top_L1_b1_relu_0_split
I0817 16:12:05.064489 17389 net.cpp:434] L1_b1_sum_eltwise_top_L1_b1_relu_0_split <- L1_b1_sum_eltwise_top
I0817 16:12:05.064517 17389 net.cpp:408] L1_b1_sum_eltwise_top_L1_b1_relu_0_split -> L1_b1_sum_eltwise_top_L1_b1_relu_0_split_0
I0817 16:12:05.064529 17389 net.cpp:408] L1_b1_sum_eltwise_top_L1_b1_relu_0_split -> L1_b1_sum_eltwise_top_L1_b1_relu_0_split_1
I0817 16:12:05.064573 17389 net.cpp:150] Setting up L1_b1_sum_eltwise_top_L1_b1_relu_0_split
I0817 16:12:05.064582 17389 net.cpp:157] Top shape: 125 16 32 32 (2048000)
I0817 16:12:05.064589 17389 net.cpp:157] Top shape: 125 16 32 32 (2048000)
I0817 16:12:05.064600 17389 net.cpp:165] Memory required for data: 140801500
I0817 16:12:05.064606 17389 layer_factory.hpp:77] Creating layer L1_b2_cbr1_conv
I0817 16:12:05.064620 17389 net.cpp:100] Creating Layer L1_b2_cbr1_conv
I0817 16:12:05.064627 17389 net.cpp:434] L1_b2_cbr1_conv <- L1_b1_sum_eltwise_top_L1_b1_relu_0_split_0
I0817 16:12:05.064636 17389 net.cpp:408] L1_b2_cbr1_conv -> L1_b2_cbr1_conv_top
I0817 16:12:05.064946 17389 net.cpp:150] Setting up L1_b2_cbr1_conv
I0817 16:12:05.064960 17389 net.cpp:157] Top shape: 125 16 32 32 (2048000)
I0817 16:12:05.064965 17389 net.cpp:165] Memory required for data: 148993500
I0817 16:12:05.064975 17389 layer_factory.hpp:77] Creating layer L1_b2_cbr1_bn
I0817 16:12:05.064987 17389 net.cpp:100] Creating Layer L1_b2_cbr1_bn
I0817 16:12:05.064995 17389 net.cpp:434] L1_b2_cbr1_bn <- L1_b2_cbr1_conv_top
I0817 16:12:05.065004 17389 net.cpp:408] L1_b2_cbr1_bn -> L1_b2_cbr1_bn_top
I0817 16:12:05.065243 17389 net.cpp:150] Setting up L1_b2_cbr1_bn
I0817 16:12:05.065258 17389 net.cpp:157] Top shape: 125 16 32 32 (2048000)
I0817 16:12:05.065263 17389 net.cpp:165] Memory required for data: 157185500
I0817 16:12:05.065273 17389 layer_factory.hpp:77] Creating layer L1_b2_cbr1_scale
I0817 16:12:05.065281 17389 net.cpp:100] Creating Layer L1_b2_cbr1_scale
I0817 16:12:05.065286 17389 net.cpp:434] L1_b2_cbr1_scale <- L1_b2_cbr1_bn_top
I0817 16:12:05.065297 17389 net.cpp:395] L1_b2_cbr1_scale -> L1_b2_cbr1_bn_top (in-place)
I0817 16:12:05.065349 17389 layer_factory.hpp:77] Creating layer L1_b2_cbr1_scale
I0817 16:12:05.065488 17389 net.cpp:150] Setting up L1_b2_cbr1_scale
I0817 16:12:05.065508 17389 net.cpp:157] Top shape: 125 16 32 32 (2048000)
I0817 16:12:05.065513 17389 net.cpp:165] Memory required for data: 165377500
I0817 16:12:05.065522 17389 layer_factory.hpp:77] Creating layer L1_b2_cbr1_relu
I0817 16:12:05.065531 17389 net.cpp:100] Creating Layer L1_b2_cbr1_relu
I0817 16:12:05.065536 17389 net.cpp:434] L1_b2_cbr1_relu <- L1_b2_cbr1_bn_top
I0817 16:12:05.065544 17389 net.cpp:395] L1_b2_cbr1_relu -> L1_b2_cbr1_bn_top (in-place)
I0817 16:12:05.065553 17389 net.cpp:150] Setting up L1_b2_cbr1_relu
I0817 16:12:05.065560 17389 net.cpp:157] Top shape: 125 16 32 32 (2048000)
I0817 16:12:05.065564 17389 net.cpp:165] Memory required for data: 173569500
I0817 16:12:05.065569 17389 layer_factory.hpp:77] Creating layer L1_b2_cbr2_conv
I0817 16:12:05.065583 17389 net.cpp:100] Creating Layer L1_b2_cbr2_conv
I0817 16:12:05.065589 17389 net.cpp:434] L1_b2_cbr2_conv <- L1_b2_cbr1_bn_top
I0817 16:12:05.065600 17389 net.cpp:408] L1_b2_cbr2_conv -> L1_b2_cbr2_conv_top
I0817 16:12:05.065903 17389 net.cpp:150] Setting up L1_b2_cbr2_conv
I0817 16:12:05.065917 17389 net.cpp:157] Top shape: 125 16 32 32 (2048000)
I0817 16:12:05.065922 17389 net.cpp:165] Memory required for data: 181761500
I0817 16:12:05.065932 17389 layer_factory.hpp:77] Creating layer L1_b2_cbr2_bn
I0817 16:12:05.065943 17389 net.cpp:100] Creating Layer L1_b2_cbr2_bn
I0817 16:12:05.065948 17389 net.cpp:434] L1_b2_cbr2_bn <- L1_b2_cbr2_conv_top
I0817 16:12:05.065961 17389 net.cpp:408] L1_b2_cbr2_bn -> L1_b2_cbr2_bn_top
I0817 16:12:05.066195 17389 net.cpp:150] Setting up L1_b2_cbr2_bn
I0817 16:12:05.066210 17389 net.cpp:157] Top shape: 125 16 32 32 (2048000)
I0817 16:12:05.066215 17389 net.cpp:165] Memory required for data: 189953500
I0817 16:12:05.066229 17389 layer_factory.hpp:77] Creating layer L1_b2_cbr2_scale
I0817 16:12:05.066241 17389 net.cpp:100] Creating Layer L1_b2_cbr2_scale
I0817 16:12:05.066248 17389 net.cpp:434] L1_b2_cbr2_scale <- L1_b2_cbr2_bn_top
I0817 16:12:05.066258 17389 net.cpp:395] L1_b2_cbr2_scale -> L1_b2_cbr2_bn_top (in-place)
I0817 16:12:05.066311 17389 layer_factory.hpp:77] Creating layer L1_b2_cbr2_scale
I0817 16:12:05.066449 17389 net.cpp:150] Setting up L1_b2_cbr2_scale
I0817 16:12:05.066462 17389 net.cpp:157] Top shape: 125 16 32 32 (2048000)
I0817 16:12:05.066468 17389 net.cpp:165] Memory required for data: 198145500
I0817 16:12:05.066476 17389 layer_factory.hpp:77] Creating layer L1_b2_sum_eltwise
I0817 16:12:05.066501 17389 net.cpp:100] Creating Layer L1_b2_sum_eltwise
I0817 16:12:05.066509 17389 net.cpp:434] L1_b2_sum_eltwise <- L1_b2_cbr2_bn_top
I0817 16:12:05.066516 17389 net.cpp:434] L1_b2_sum_eltwise <- L1_b1_sum_eltwise_top_L1_b1_relu_0_split_1
I0817 16:12:05.066524 17389 net.cpp:408] L1_b2_sum_eltwise -> L1_b2_sum_eltwise_top
I0817 16:12:05.066560 17389 net.cpp:150] Setting up L1_b2_sum_eltwise
I0817 16:12:05.066570 17389 net.cpp:157] Top shape: 125 16 32 32 (2048000)
I0817 16:12:05.066576 17389 net.cpp:165] Memory required for data: 206337500
I0817 16:12:05.066581 17389 layer_factory.hpp:77] Creating layer L1_b2_relu
I0817 16:12:05.066587 17389 net.cpp:100] Creating Layer L1_b2_relu
I0817 16:12:05.066593 17389 net.cpp:434] L1_b2_relu <- L1_b2_sum_eltwise_top
I0817 16:12:05.066603 17389 net.cpp:395] L1_b2_relu -> L1_b2_sum_eltwise_top (in-place)
I0817 16:12:05.066612 17389 net.cpp:150] Setting up L1_b2_relu
I0817 16:12:05.066619 17389 net.cpp:157] Top shape: 125 16 32 32 (2048000)
I0817 16:12:05.066623 17389 net.cpp:165] Memory required for data: 214529500
I0817 16:12:05.066628 17389 layer_factory.hpp:77] Creating layer L1_b2_sum_eltwise_top_L1_b2_relu_0_split
I0817 16:12:05.066635 17389 net.cpp:100] Creating Layer L1_b2_sum_eltwise_top_L1_b2_relu_0_split
I0817 16:12:05.066642 17389 net.cpp:434] L1_b2_sum_eltwise_top_L1_b2_relu_0_split <- L1_b2_sum_eltwise_top
I0817 16:12:05.066648 17389 net.cpp:408] L1_b2_sum_eltwise_top_L1_b2_relu_0_split -> L1_b2_sum_eltwise_top_L1_b2_relu_0_split_0
I0817 16:12:05.066658 17389 net.cpp:408] L1_b2_sum_eltwise_top_L1_b2_relu_0_split -> L1_b2_sum_eltwise_top_L1_b2_relu_0_split_1
I0817 16:12:05.066700 17389 net.cpp:150] Setting up L1_b2_sum_eltwise_top_L1_b2_relu_0_split
I0817 16:12:05.066712 17389 net.cpp:157] Top shape: 125 16 32 32 (2048000)
I0817 16:12:05.066720 17389 net.cpp:157] Top shape: 125 16 32 32 (2048000)
I0817 16:12:05.066725 17389 net.cpp:165] Memory required for data: 230913500
I0817 16:12:05.066730 17389 layer_factory.hpp:77] Creating layer L1_b3_cbr1_conv
I0817 16:12:05.066740 17389 net.cpp:100] Creating Layer L1_b3_cbr1_conv
I0817 16:12:05.066745 17389 net.cpp:434] L1_b3_cbr1_conv <- L1_b2_sum_eltwise_top_L1_b2_relu_0_split_0
I0817 16:12:05.066757 17389 net.cpp:408] L1_b3_cbr1_conv -> L1_b3_cbr1_conv_top
I0817 16:12:05.067059 17389 net.cpp:150] Setting up L1_b3_cbr1_conv
I0817 16:12:05.067073 17389 net.cpp:157] Top shape: 125 16 32 32 (2048000)
I0817 16:12:05.067078 17389 net.cpp:165] Memory required for data: 239105500
I0817 16:12:05.067087 17389 layer_factory.hpp:77] Creating layer L1_b3_cbr1_bn
I0817 16:12:05.067096 17389 net.cpp:100] Creating Layer L1_b3_cbr1_bn
I0817 16:12:05.067102 17389 net.cpp:434] L1_b3_cbr1_bn <- L1_b3_cbr1_conv_top
I0817 16:12:05.067113 17389 net.cpp:408] L1_b3_cbr1_bn -> L1_b3_cbr1_bn_top
I0817 16:12:05.067350 17389 net.cpp:150] Setting up L1_b3_cbr1_bn
I0817 16:12:05.067363 17389 net.cpp:157] Top shape: 125 16 32 32 (2048000)
I0817 16:12:05.067368 17389 net.cpp:165] Memory required for data: 247297500
I0817 16:12:05.067379 17389 layer_factory.hpp:77] Creating layer L1_b3_cbr1_scale
I0817 16:12:05.067390 17389 net.cpp:100] Creating Layer L1_b3_cbr1_scale
I0817 16:12:05.067396 17389 net.cpp:434] L1_b3_cbr1_scale <- L1_b3_cbr1_bn_top
I0817 16:12:05.067404 17389 net.cpp:395] L1_b3_cbr1_scale -> L1_b3_cbr1_bn_top (in-place)
I0817 16:12:05.067456 17389 layer_factory.hpp:77] Creating layer L1_b3_cbr1_scale
I0817 16:12:05.067602 17389 net.cpp:150] Setting up L1_b3_cbr1_scale
I0817 16:12:05.067615 17389 net.cpp:157] Top shape: 125 16 32 32 (2048000)
I0817 16:12:05.067620 17389 net.cpp:165] Memory required for data: 255489500
I0817 16:12:05.067629 17389 layer_factory.hpp:77] Creating layer L1_b3_cbr1_relu
I0817 16:12:05.067641 17389 net.cpp:100] Creating Layer L1_b3_cbr1_relu
I0817 16:12:05.067646 17389 net.cpp:434] L1_b3_cbr1_relu <- L1_b3_cbr1_bn_top
I0817 16:12:05.067654 17389 net.cpp:395] L1_b3_cbr1_relu -> L1_b3_cbr1_bn_top (in-place)
I0817 16:12:05.067663 17389 net.cpp:150] Setting up L1_b3_cbr1_relu
I0817 16:12:05.067677 17389 net.cpp:157] Top shape: 125 16 32 32 (2048000)
I0817 16:12:05.067682 17389 net.cpp:165] Memory required for data: 263681500
I0817 16:12:05.067687 17389 layer_factory.hpp:77] Creating layer L1_b3_cbr2_conv
I0817 16:12:05.067701 17389 net.cpp:100] Creating Layer L1_b3_cbr2_conv
I0817 16:12:05.067706 17389 net.cpp:434] L1_b3_cbr2_conv <- L1_b3_cbr1_bn_top
I0817 16:12:05.067718 17389 net.cpp:408] L1_b3_cbr2_conv -> L1_b3_cbr2_conv_top
I0817 16:12:05.068024 17389 net.cpp:150] Setting up L1_b3_cbr2_conv
I0817 16:12:05.068038 17389 net.cpp:157] Top shape: 125 16 32 32 (2048000)
I0817 16:12:05.068043 17389 net.cpp:165] Memory required for data: 271873500
I0817 16:12:05.068053 17389 layer_factory.hpp:77] Creating layer L1_b3_cbr2_bn
I0817 16:12:05.068066 17389 net.cpp:100] Creating Layer L1_b3_cbr2_bn
I0817 16:12:05.068073 17389 net.cpp:434] L1_b3_cbr2_bn <- L1_b3_cbr2_conv_top
I0817 16:12:05.068081 17389 net.cpp:408] L1_b3_cbr2_bn -> L1_b3_cbr2_bn_top
I0817 16:12:05.068315 17389 net.cpp:150] Setting up L1_b3_cbr2_bn
I0817 16:12:05.068330 17389 net.cpp:157] Top shape: 125 16 32 32 (2048000)
I0817 16:12:05.068336 17389 net.cpp:165] Memory required for data: 280065500
I0817 16:12:05.068346 17389 layer_factory.hpp:77] Creating layer L1_b3_cbr2_scale
I0817 16:12:05.068354 17389 net.cpp:100] Creating Layer L1_b3_cbr2_scale
I0817 16:12:05.068361 17389 net.cpp:434] L1_b3_cbr2_scale <- L1_b3_cbr2_bn_top
I0817 16:12:05.068368 17389 net.cpp:395] L1_b3_cbr2_scale -> L1_b3_cbr2_bn_top (in-place)
I0817 16:12:05.068420 17389 layer_factory.hpp:77] Creating layer L1_b3_cbr2_scale
I0817 16:12:05.068564 17389 net.cpp:150] Setting up L1_b3_cbr2_scale
I0817 16:12:05.068578 17389 net.cpp:157] Top shape: 125 16 32 32 (2048000)
I0817 16:12:05.068583 17389 net.cpp:165] Memory required for data: 288257500
I0817 16:12:05.068593 17389 layer_factory.hpp:77] Creating layer L1_b3_sum_eltwise
I0817 16:12:05.068604 17389 net.cpp:100] Creating Layer L1_b3_sum_eltwise
I0817 16:12:05.068611 17389 net.cpp:434] L1_b3_sum_eltwise <- L1_b3_cbr2_bn_top
I0817 16:12:05.068619 17389 net.cpp:434] L1_b3_sum_eltwise <- L1_b2_sum_eltwise_top_L1_b2_relu_0_split_1
I0817 16:12:05.068650 17389 net.cpp:408] L1_b3_sum_eltwise -> L1_b3_sum_eltwise_top
I0817 16:12:05.068687 17389 net.cpp:150] Setting up L1_b3_sum_eltwise
I0817 16:12:05.068699 17389 net.cpp:157] Top shape: 125 16 32 32 (2048000)
I0817 16:12:05.068704 17389 net.cpp:165] Memory required for data: 296449500
I0817 16:12:05.068712 17389 layer_factory.hpp:77] Creating layer L1_b3_relu
I0817 16:12:05.068723 17389 net.cpp:100] Creating Layer L1_b3_relu
I0817 16:12:05.068729 17389 net.cpp:434] L1_b3_relu <- L1_b3_sum_eltwise_top
I0817 16:12:05.068737 17389 net.cpp:395] L1_b3_relu -> L1_b3_sum_eltwise_top (in-place)
I0817 16:12:05.068745 17389 net.cpp:150] Setting up L1_b3_relu
I0817 16:12:05.068753 17389 net.cpp:157] Top shape: 125 16 32 32 (2048000)
I0817 16:12:05.068758 17389 net.cpp:165] Memory required for data: 304641500
I0817 16:12:05.068763 17389 layer_factory.hpp:77] Creating layer L1_b3_sum_eltwise_top_L1_b3_relu_0_split
I0817 16:12:05.068769 17389 net.cpp:100] Creating Layer L1_b3_sum_eltwise_top_L1_b3_relu_0_split
I0817 16:12:05.068774 17389 net.cpp:434] L1_b3_sum_eltwise_top_L1_b3_relu_0_split <- L1_b3_sum_eltwise_top
I0817 16:12:05.068783 17389 net.cpp:408] L1_b3_sum_eltwise_top_L1_b3_relu_0_split -> L1_b3_sum_eltwise_top_L1_b3_relu_0_split_0
I0817 16:12:05.068791 17389 net.cpp:408] L1_b3_sum_eltwise_top_L1_b3_relu_0_split -> L1_b3_sum_eltwise_top_L1_b3_relu_0_split_1
I0817 16:12:05.068837 17389 net.cpp:150] Setting up L1_b3_sum_eltwise_top_L1_b3_relu_0_split
I0817 16:12:05.068850 17389 net.cpp:157] Top shape: 125 16 32 32 (2048000)
I0817 16:12:05.068856 17389 net.cpp:157] Top shape: 125 16 32 32 (2048000)
I0817 16:12:05.068861 17389 net.cpp:165] Memory required for data: 321025500
I0817 16:12:05.068866 17389 layer_factory.hpp:77] Creating layer L1_b4_cbr1_conv
I0817 16:12:05.068879 17389 net.cpp:100] Creating Layer L1_b4_cbr1_conv
I0817 16:12:05.068886 17389 net.cpp:434] L1_b4_cbr1_conv <- L1_b3_sum_eltwise_top_L1_b3_relu_0_split_0
I0817 16:12:05.068902 17389 net.cpp:408] L1_b4_cbr1_conv -> L1_b4_cbr1_conv_top
I0817 16:12:05.069211 17389 net.cpp:150] Setting up L1_b4_cbr1_conv
I0817 16:12:05.069226 17389 net.cpp:157] Top shape: 125 16 32 32 (2048000)
I0817 16:12:05.069231 17389 net.cpp:165] Memory required for data: 329217500
I0817 16:12:05.069239 17389 layer_factory.hpp:77] Creating layer L1_b4_cbr1_bn
I0817 16:12:05.069250 17389 net.cpp:100] Creating Layer L1_b4_cbr1_bn
I0817 16:12:05.069257 17389 net.cpp:434] L1_b4_cbr1_bn <- L1_b4_cbr1_conv_top
I0817 16:12:05.069265 17389 net.cpp:408] L1_b4_cbr1_bn -> L1_b4_cbr1_bn_top
I0817 16:12:05.069514 17389 net.cpp:150] Setting up L1_b4_cbr1_bn
I0817 16:12:05.069530 17389 net.cpp:157] Top shape: 125 16 32 32 (2048000)
I0817 16:12:05.069536 17389 net.cpp:165] Memory required for data: 337409500
I0817 16:12:05.069546 17389 layer_factory.hpp:77] Creating layer L1_b4_cbr1_scale
I0817 16:12:05.069555 17389 net.cpp:100] Creating Layer L1_b4_cbr1_scale
I0817 16:12:05.069561 17389 net.cpp:434] L1_b4_cbr1_scale <- L1_b4_cbr1_bn_top
I0817 16:12:05.069569 17389 net.cpp:395] L1_b4_cbr1_scale -> L1_b4_cbr1_bn_top (in-place)
I0817 16:12:05.069622 17389 layer_factory.hpp:77] Creating layer L1_b4_cbr1_scale
I0817 16:12:05.069766 17389 net.cpp:150] Setting up L1_b4_cbr1_scale
I0817 16:12:05.069778 17389 net.cpp:157] Top shape: 125 16 32 32 (2048000)
I0817 16:12:05.069783 17389 net.cpp:165] Memory required for data: 345601500
I0817 16:12:05.069792 17389 layer_factory.hpp:77] Creating layer L1_b4_cbr1_relu
I0817 16:12:05.069802 17389 net.cpp:100] Creating Layer L1_b4_cbr1_relu
I0817 16:12:05.069808 17389 net.cpp:434] L1_b4_cbr1_relu <- L1_b4_cbr1_bn_top
I0817 16:12:05.069818 17389 net.cpp:395] L1_b4_cbr1_relu -> L1_b4_cbr1_bn_top (in-place)
I0817 16:12:05.069828 17389 net.cpp:150] Setting up L1_b4_cbr1_relu
I0817 16:12:05.069835 17389 net.cpp:157] Top shape: 125 16 32 32 (2048000)
I0817 16:12:05.069840 17389 net.cpp:165] Memory required for data: 353793500
I0817 16:12:05.069845 17389 layer_factory.hpp:77] Creating layer L1_b4_cbr2_conv
I0817 16:12:05.069856 17389 net.cpp:100] Creating Layer L1_b4_cbr2_conv
I0817 16:12:05.069862 17389 net.cpp:434] L1_b4_cbr2_conv <- L1_b4_cbr1_bn_top
I0817 16:12:05.069874 17389 net.cpp:408] L1_b4_cbr2_conv -> L1_b4_cbr2_conv_top
I0817 16:12:05.070178 17389 net.cpp:150] Setting up L1_b4_cbr2_conv
I0817 16:12:05.070191 17389 net.cpp:157] Top shape: 125 16 32 32 (2048000)
I0817 16:12:05.070196 17389 net.cpp:165] Memory required for data: 361985500
I0817 16:12:05.070206 17389 layer_factory.hpp:77] Creating layer L1_b4_cbr2_bn
I0817 16:12:05.070215 17389 net.cpp:100] Creating Layer L1_b4_cbr2_bn
I0817 16:12:05.070221 17389 net.cpp:434] L1_b4_cbr2_bn <- L1_b4_cbr2_conv_top
I0817 16:12:05.070232 17389 net.cpp:408] L1_b4_cbr2_bn -> L1_b4_cbr2_bn_top
I0817 16:12:05.070472 17389 net.cpp:150] Setting up L1_b4_cbr2_bn
I0817 16:12:05.070488 17389 net.cpp:157] Top shape: 125 16 32 32 (2048000)
I0817 16:12:05.070493 17389 net.cpp:165] Memory required for data: 370177500
I0817 16:12:05.070510 17389 layer_factory.hpp:77] Creating layer L1_b4_cbr2_scale
I0817 16:12:05.070519 17389 net.cpp:100] Creating Layer L1_b4_cbr2_scale
I0817 16:12:05.070525 17389 net.cpp:434] L1_b4_cbr2_scale <- L1_b4_cbr2_bn_top
I0817 16:12:05.070533 17389 net.cpp:395] L1_b4_cbr2_scale -> L1_b4_cbr2_bn_top (in-place)
I0817 16:12:05.070588 17389 layer_factory.hpp:77] Creating layer L1_b4_cbr2_scale
I0817 16:12:05.070726 17389 net.cpp:150] Setting up L1_b4_cbr2_scale
I0817 16:12:05.070739 17389 net.cpp:157] Top shape: 125 16 32 32 (2048000)
I0817 16:12:05.070744 17389 net.cpp:165] Memory required for data: 378369500
I0817 16:12:05.070753 17389 layer_factory.hpp:77] Creating layer L1_b4_sum_eltwise
I0817 16:12:05.070762 17389 net.cpp:100] Creating Layer L1_b4_sum_eltwise
I0817 16:12:05.070768 17389 net.cpp:434] L1_b4_sum_eltwise <- L1_b4_cbr2_bn_top
I0817 16:12:05.070775 17389 net.cpp:434] L1_b4_sum_eltwise <- L1_b3_sum_eltwise_top_L1_b3_relu_0_split_1
I0817 16:12:05.070786 17389 net.cpp:408] L1_b4_sum_eltwise -> L1_b4_sum_eltwise_top
I0817 16:12:05.070825 17389 net.cpp:150] Setting up L1_b4_sum_eltwise
I0817 16:12:05.070834 17389 net.cpp:157] Top shape: 125 16 32 32 (2048000)
I0817 16:12:05.070839 17389 net.cpp:165] Memory required for data: 386561500
I0817 16:12:05.070844 17389 layer_factory.hpp:77] Creating layer L1_b4_relu
I0817 16:12:05.070855 17389 net.cpp:100] Creating Layer L1_b4_relu
I0817 16:12:05.070861 17389 net.cpp:434] L1_b4_relu <- L1_b4_sum_eltwise_top
I0817 16:12:05.070868 17389 net.cpp:395] L1_b4_relu -> L1_b4_sum_eltwise_top (in-place)
I0817 16:12:05.070878 17389 net.cpp:150] Setting up L1_b4_relu
I0817 16:12:05.070884 17389 net.cpp:157] Top shape: 125 16 32 32 (2048000)
I0817 16:12:05.070889 17389 net.cpp:165] Memory required for data: 394753500
I0817 16:12:05.070894 17389 layer_factory.hpp:77] Creating layer L1_b4_sum_eltwise_top_L1_b4_relu_0_split
I0817 16:12:05.070900 17389 net.cpp:100] Creating Layer L1_b4_sum_eltwise_top_L1_b4_relu_0_split
I0817 16:12:05.070906 17389 net.cpp:434] L1_b4_sum_eltwise_top_L1_b4_relu_0_split <- L1_b4_sum_eltwise_top
I0817 16:12:05.070914 17389 net.cpp:408] L1_b4_sum_eltwise_top_L1_b4_relu_0_split -> L1_b4_sum_eltwise_top_L1_b4_relu_0_split_0
I0817 16:12:05.070922 17389 net.cpp:408] L1_b4_sum_eltwise_top_L1_b4_relu_0_split -> L1_b4_sum_eltwise_top_L1_b4_relu_0_split_1
I0817 16:12:05.070967 17389 net.cpp:150] Setting up L1_b4_sum_eltwise_top_L1_b4_relu_0_split
I0817 16:12:05.070978 17389 net.cpp:157] Top shape: 125 16 32 32 (2048000)
I0817 16:12:05.070986 17389 net.cpp:157] Top shape: 125 16 32 32 (2048000)
I0817 16:12:05.070991 17389 net.cpp:165] Memory required for data: 411137500
I0817 16:12:05.070996 17389 layer_factory.hpp:77] Creating layer L1_b5_cbr1_conv
I0817 16:12:05.071009 17389 net.cpp:100] Creating Layer L1_b5_cbr1_conv
I0817 16:12:05.071015 17389 net.cpp:434] L1_b5_cbr1_conv <- L1_b4_sum_eltwise_top_L1_b4_relu_0_split_0
I0817 16:12:05.071024 17389 net.cpp:408] L1_b5_cbr1_conv -> L1_b5_cbr1_conv_top
I0817 16:12:05.071332 17389 net.cpp:150] Setting up L1_b5_cbr1_conv
I0817 16:12:05.071346 17389 net.cpp:157] Top shape: 125 16 32 32 (2048000)
I0817 16:12:05.071352 17389 net.cpp:165] Memory required for data: 419329500
I0817 16:12:05.071375 17389 layer_factory.hpp:77] Creating layer L1_b5_cbr1_bn
I0817 16:12:05.071388 17389 net.cpp:100] Creating Layer L1_b5_cbr1_bn
I0817 16:12:05.071394 17389 net.cpp:434] L1_b5_cbr1_bn <- L1_b5_cbr1_conv_top
I0817 16:12:05.071405 17389 net.cpp:408] L1_b5_cbr1_bn -> L1_b5_cbr1_bn_top
I0817 16:12:05.071655 17389 net.cpp:150] Setting up L1_b5_cbr1_bn
I0817 16:12:05.071668 17389 net.cpp:157] Top shape: 125 16 32 32 (2048000)
I0817 16:12:05.071673 17389 net.cpp:165] Memory required for data: 427521500
I0817 16:12:05.071683 17389 layer_factory.hpp:77] Creating layer L1_b5_cbr1_scale
I0817 16:12:05.071692 17389 net.cpp:100] Creating Layer L1_b5_cbr1_scale
I0817 16:12:05.071698 17389 net.cpp:434] L1_b5_cbr1_scale <- L1_b5_cbr1_bn_top
I0817 16:12:05.071707 17389 net.cpp:395] L1_b5_cbr1_scale -> L1_b5_cbr1_bn_top (in-place)
I0817 16:12:05.071760 17389 layer_factory.hpp:77] Creating layer L1_b5_cbr1_scale
I0817 16:12:05.071899 17389 net.cpp:150] Setting up L1_b5_cbr1_scale
I0817 16:12:05.071913 17389 net.cpp:157] Top shape: 125 16 32 32 (2048000)
I0817 16:12:05.071918 17389 net.cpp:165] Memory required for data: 435713500
I0817 16:12:05.071926 17389 layer_factory.hpp:77] Creating layer L1_b5_cbr1_relu
I0817 16:12:05.071933 17389 net.cpp:100] Creating Layer L1_b5_cbr1_relu
I0817 16:12:05.071939 17389 net.cpp:434] L1_b5_cbr1_relu <- L1_b5_cbr1_bn_top
I0817 16:12:05.071949 17389 net.cpp:395] L1_b5_cbr1_relu -> L1_b5_cbr1_bn_top (in-place)
I0817 16:12:05.071959 17389 net.cpp:150] Setting up L1_b5_cbr1_relu
I0817 16:12:05.071966 17389 net.cpp:157] Top shape: 125 16 32 32 (2048000)
I0817 16:12:05.071971 17389 net.cpp:165] Memory required for data: 443905500
I0817 16:12:05.071975 17389 layer_factory.hpp:77] Creating layer L1_b5_cbr2_conv
I0817 16:12:05.071986 17389 net.cpp:100] Creating Layer L1_b5_cbr2_conv
I0817 16:12:05.072000 17389 net.cpp:434] L1_b5_cbr2_conv <- L1_b5_cbr1_bn_top
I0817 16:12:05.072011 17389 net.cpp:408] L1_b5_cbr2_conv -> L1_b5_cbr2_conv_top
I0817 16:12:05.072319 17389 net.cpp:150] Setting up L1_b5_cbr2_conv
I0817 16:12:05.072332 17389 net.cpp:157] Top shape: 125 16 32 32 (2048000)
I0817 16:12:05.072337 17389 net.cpp:165] Memory required for data: 452097500
I0817 16:12:05.072346 17389 layer_factory.hpp:77] Creating layer L1_b5_cbr2_bn
I0817 16:12:05.072355 17389 net.cpp:100] Creating Layer L1_b5_cbr2_bn
I0817 16:12:05.072361 17389 net.cpp:434] L1_b5_cbr2_bn <- L1_b5_cbr2_conv_top
I0817 16:12:05.072372 17389 net.cpp:408] L1_b5_cbr2_bn -> L1_b5_cbr2_bn_top
I0817 16:12:05.072616 17389 net.cpp:150] Setting up L1_b5_cbr2_bn
I0817 16:12:05.072633 17389 net.cpp:157] Top shape: 125 16 32 32 (2048000)
I0817 16:12:05.072638 17389 net.cpp:165] Memory required for data: 460289500
I0817 16:12:05.072649 17389 layer_factory.hpp:77] Creating layer L1_b5_cbr2_scale
I0817 16:12:05.072657 17389 net.cpp:100] Creating Layer L1_b5_cbr2_scale
I0817 16:12:05.072664 17389 net.cpp:434] L1_b5_cbr2_scale <- L1_b5_cbr2_bn_top
I0817 16:12:05.072671 17389 net.cpp:395] L1_b5_cbr2_scale -> L1_b5_cbr2_bn_top (in-place)
I0817 16:12:05.072724 17389 layer_factory.hpp:77] Creating layer L1_b5_cbr2_scale
I0817 16:12:05.072872 17389 net.cpp:150] Setting up L1_b5_cbr2_scale
I0817 16:12:05.072885 17389 net.cpp:157] Top shape: 125 16 32 32 (2048000)
I0817 16:12:05.072891 17389 net.cpp:165] Memory required for data: 468481500
I0817 16:12:05.072906 17389 layer_factory.hpp:77] Creating layer L1_b5_sum_eltwise
I0817 16:12:05.072918 17389 net.cpp:100] Creating Layer L1_b5_sum_eltwise
I0817 16:12:05.072924 17389 net.cpp:434] L1_b5_sum_eltwise <- L1_b5_cbr2_bn_top
I0817 16:12:05.072932 17389 net.cpp:434] L1_b5_sum_eltwise <- L1_b4_sum_eltwise_top_L1_b4_relu_0_split_1
I0817 16:12:05.072939 17389 net.cpp:408] L1_b5_sum_eltwise -> L1_b5_sum_eltwise_top
I0817 16:12:05.072973 17389 net.cpp:150] Setting up L1_b5_sum_eltwise
I0817 16:12:05.072983 17389 net.cpp:157] Top shape: 125 16 32 32 (2048000)
I0817 16:12:05.072988 17389 net.cpp:165] Memory required for data: 476673500
I0817 16:12:05.072994 17389 layer_factory.hpp:77] Creating layer L1_b5_relu
I0817 16:12:05.073001 17389 net.cpp:100] Creating Layer L1_b5_relu
I0817 16:12:05.073007 17389 net.cpp:434] L1_b5_relu <- L1_b5_sum_eltwise_top
I0817 16:12:05.073019 17389 net.cpp:395] L1_b5_relu -> L1_b5_sum_eltwise_top (in-place)
I0817 16:12:05.073029 17389 net.cpp:150] Setting up L1_b5_relu
I0817 16:12:05.073036 17389 net.cpp:157] Top shape: 125 16 32 32 (2048000)
I0817 16:12:05.073040 17389 net.cpp:165] Memory required for data: 484865500
I0817 16:12:05.073045 17389 layer_factory.hpp:77] Creating layer L1_b5_sum_eltwise_top_L1_b5_relu_0_split
I0817 16:12:05.073052 17389 net.cpp:100] Creating Layer L1_b5_sum_eltwise_top_L1_b5_relu_0_split
I0817 16:12:05.073057 17389 net.cpp:434] L1_b5_sum_eltwise_top_L1_b5_relu_0_split <- L1_b5_sum_eltwise_top
I0817 16:12:05.073065 17389 net.cpp:408] L1_b5_sum_eltwise_top_L1_b5_relu_0_split -> L1_b5_sum_eltwise_top_L1_b5_relu_0_split_0
I0817 16:12:05.073074 17389 net.cpp:408] L1_b5_sum_eltwise_top_L1_b5_relu_0_split -> L1_b5_sum_eltwise_top_L1_b5_relu_0_split_1
I0817 16:12:05.073119 17389 net.cpp:150] Setting up L1_b5_sum_eltwise_top_L1_b5_relu_0_split
I0817 16:12:05.073132 17389 net.cpp:157] Top shape: 125 16 32 32 (2048000)
I0817 16:12:05.073138 17389 net.cpp:157] Top shape: 125 16 32 32 (2048000)
I0817 16:12:05.073143 17389 net.cpp:165] Memory required for data: 501249500
I0817 16:12:05.073148 17389 layer_factory.hpp:77] Creating layer L1_b6_cbr1_conv
I0817 16:12:05.073161 17389 net.cpp:100] Creating Layer L1_b6_cbr1_conv
I0817 16:12:05.073168 17389 net.cpp:434] L1_b6_cbr1_conv <- L1_b5_sum_eltwise_top_L1_b5_relu_0_split_0
I0817 16:12:05.073177 17389 net.cpp:408] L1_b6_cbr1_conv -> L1_b6_cbr1_conv_top
I0817 16:12:05.073482 17389 net.cpp:150] Setting up L1_b6_cbr1_conv
I0817 16:12:05.073503 17389 net.cpp:157] Top shape: 125 16 32 32 (2048000)
I0817 16:12:05.073508 17389 net.cpp:165] Memory required for data: 509441500
I0817 16:12:05.073523 17389 layer_factory.hpp:77] Creating layer L1_b6_cbr1_bn
I0817 16:12:05.073535 17389 net.cpp:100] Creating Layer L1_b6_cbr1_bn
I0817 16:12:05.073542 17389 net.cpp:434] L1_b6_cbr1_bn <- L1_b6_cbr1_conv_top
I0817 16:12:05.073550 17389 net.cpp:408] L1_b6_cbr1_bn -> L1_b6_cbr1_bn_top
I0817 16:12:05.073796 17389 net.cpp:150] Setting up L1_b6_cbr1_bn
I0817 16:12:05.073812 17389 net.cpp:157] Top shape: 125 16 32 32 (2048000)
I0817 16:12:05.073817 17389 net.cpp:165] Memory required for data: 517633500
I0817 16:12:05.073827 17389 layer_factory.hpp:77] Creating layer L1_b6_cbr1_scale
I0817 16:12:05.073837 17389 net.cpp:100] Creating Layer L1_b6_cbr1_scale
I0817 16:12:05.073843 17389 net.cpp:434] L1_b6_cbr1_scale <- L1_b6_cbr1_bn_top
I0817 16:12:05.073850 17389 net.cpp:395] L1_b6_cbr1_scale -> L1_b6_cbr1_bn_top (in-place)
I0817 16:12:05.073902 17389 layer_factory.hpp:77] Creating layer L1_b6_cbr1_scale
I0817 16:12:05.074043 17389 net.cpp:150] Setting up L1_b6_cbr1_scale
I0817 16:12:05.074055 17389 net.cpp:157] Top shape: 125 16 32 32 (2048000)
I0817 16:12:05.074060 17389 net.cpp:165] Memory required for data: 525825500
I0817 16:12:05.074069 17389 layer_factory.hpp:77] Creating layer L1_b6_cbr1_relu
I0817 16:12:05.074080 17389 net.cpp:100] Creating Layer L1_b6_cbr1_relu
I0817 16:12:05.074086 17389 net.cpp:434] L1_b6_cbr1_relu <- L1_b6_cbr1_bn_top
I0817 16:12:05.074093 17389 net.cpp:395] L1_b6_cbr1_relu -> L1_b6_cbr1_bn_top (in-place)
I0817 16:12:05.074106 17389 net.cpp:150] Setting up L1_b6_cbr1_relu
I0817 16:12:05.074113 17389 net.cpp:157] Top shape: 125 16 32 32 (2048000)
I0817 16:12:05.074117 17389 net.cpp:165] Memory required for data: 534017500
I0817 16:12:05.074122 17389 layer_factory.hpp:77] Creating layer L1_b6_cbr2_conv
I0817 16:12:05.074133 17389 net.cpp:100] Creating Layer L1_b6_cbr2_conv
I0817 16:12:05.074138 17389 net.cpp:434] L1_b6_cbr2_conv <- L1_b6_cbr1_bn_top
I0817 16:12:05.074151 17389 net.cpp:408] L1_b6_cbr2_conv -> L1_b6_cbr2_conv_top
I0817 16:12:05.074460 17389 net.cpp:150] Setting up L1_b6_cbr2_conv
I0817 16:12:05.074473 17389 net.cpp:157] Top shape: 125 16 32 32 (2048000)
I0817 16:12:05.074478 17389 net.cpp:165] Memory required for data: 542209500
I0817 16:12:05.074487 17389 layer_factory.hpp:77] Creating layer L1_b6_cbr2_bn
I0817 16:12:05.074502 17389 net.cpp:100] Creating Layer L1_b6_cbr2_bn
I0817 16:12:05.074509 17389 net.cpp:434] L1_b6_cbr2_bn <- L1_b6_cbr2_conv_top
I0817 16:12:05.074522 17389 net.cpp:408] L1_b6_cbr2_bn -> L1_b6_cbr2_bn_top
I0817 16:12:05.074764 17389 net.cpp:150] Setting up L1_b6_cbr2_bn
I0817 16:12:05.074776 17389 net.cpp:157] Top shape: 125 16 32 32 (2048000)
I0817 16:12:05.074781 17389 net.cpp:165] Memory required for data: 550401500
I0817 16:12:05.074792 17389 layer_factory.hpp:77] Creating layer L1_b6_cbr2_scale
I0817 16:12:05.074803 17389 net.cpp:100] Creating Layer L1_b6_cbr2_scale
I0817 16:12:05.074810 17389 net.cpp:434] L1_b6_cbr2_scale <- L1_b6_cbr2_bn_top
I0817 16:12:05.074817 17389 net.cpp:395] L1_b6_cbr2_scale -> L1_b6_cbr2_bn_top (in-place)
I0817 16:12:05.074869 17389 layer_factory.hpp:77] Creating layer L1_b6_cbr2_scale
I0817 16:12:05.075009 17389 net.cpp:150] Setting up L1_b6_cbr2_scale
I0817 16:12:05.075022 17389 net.cpp:157] Top shape: 125 16 32 32 (2048000)
I0817 16:12:05.075027 17389 net.cpp:165] Memory required for data: 558593500
I0817 16:12:05.075037 17389 layer_factory.hpp:77] Creating layer L1_b6_sum_eltwise
I0817 16:12:05.075054 17389 net.cpp:100] Creating Layer L1_b6_sum_eltwise
I0817 16:12:05.075062 17389 net.cpp:434] L1_b6_sum_eltwise <- L1_b6_cbr2_bn_top
I0817 16:12:05.075068 17389 net.cpp:434] L1_b6_sum_eltwise <- L1_b5_sum_eltwise_top_L1_b5_relu_0_split_1
I0817 16:12:05.075076 17389 net.cpp:408] L1_b6_sum_eltwise -> L1_b6_sum_eltwise_top
I0817 16:12:05.075110 17389 net.cpp:150] Setting up L1_b6_sum_eltwise
I0817 16:12:05.075122 17389 net.cpp:157] Top shape: 125 16 32 32 (2048000)
I0817 16:12:05.075127 17389 net.cpp:165] Memory required for data: 566785500
I0817 16:12:05.075134 17389 layer_factory.hpp:77] Creating layer L1_b6_relu
I0817 16:12:05.075148 17389 net.cpp:100] Creating Layer L1_b6_relu
I0817 16:12:05.075155 17389 net.cpp:434] L1_b6_relu <- L1_b6_sum_eltwise_top
I0817 16:12:05.075162 17389 net.cpp:395] L1_b6_relu -> L1_b6_sum_eltwise_top (in-place)
I0817 16:12:05.075171 17389 net.cpp:150] Setting up L1_b6_relu
I0817 16:12:05.075178 17389 net.cpp:157] Top shape: 125 16 32 32 (2048000)
I0817 16:12:05.075183 17389 net.cpp:165] Memory required for data: 574977500
I0817 16:12:05.075187 17389 layer_factory.hpp:77] Creating layer L1_b6_sum_eltwise_top_L1_b6_relu_0_split
I0817 16:12:05.075196 17389 net.cpp:100] Creating Layer L1_b6_sum_eltwise_top_L1_b6_relu_0_split
I0817 16:12:05.075201 17389 net.cpp:434] L1_b6_sum_eltwise_top_L1_b6_relu_0_split <- L1_b6_sum_eltwise_top
I0817 16:12:05.075211 17389 net.cpp:408] L1_b6_sum_eltwise_top_L1_b6_relu_0_split -> L1_b6_sum_eltwise_top_L1_b6_relu_0_split_0
I0817 16:12:05.075220 17389 net.cpp:408] L1_b6_sum_eltwise_top_L1_b6_relu_0_split -> L1_b6_sum_eltwise_top_L1_b6_relu_0_split_1
I0817 16:12:05.075264 17389 net.cpp:150] Setting up L1_b6_sum_eltwise_top_L1_b6_relu_0_split
I0817 16:12:05.075275 17389 net.cpp:157] Top shape: 125 16 32 32 (2048000)
I0817 16:12:05.075283 17389 net.cpp:157] Top shape: 125 16 32 32 (2048000)
I0817 16:12:05.075287 17389 net.cpp:165] Memory required for data: 591361500
I0817 16:12:05.075292 17389 layer_factory.hpp:77] Creating layer L1_b7_cbr1_conv
I0817 16:12:05.075306 17389 net.cpp:100] Creating Layer L1_b7_cbr1_conv
I0817 16:12:05.075312 17389 net.cpp:434] L1_b7_cbr1_conv <- L1_b6_sum_eltwise_top_L1_b6_relu_0_split_0
I0817 16:12:05.075321 17389 net.cpp:408] L1_b7_cbr1_conv -> L1_b7_cbr1_conv_top
I0817 16:12:05.075644 17389 net.cpp:150] Setting up L1_b7_cbr1_conv
I0817 16:12:05.075659 17389 net.cpp:157] Top shape: 125 16 32 32 (2048000)
I0817 16:12:05.075664 17389 net.cpp:165] Memory required for data: 599553500
I0817 16:12:05.075672 17389 layer_factory.hpp:77] Creating layer L1_b7_cbr1_bn
I0817 16:12:05.075683 17389 net.cpp:100] Creating Layer L1_b7_cbr1_bn
I0817 16:12:05.075690 17389 net.cpp:434] L1_b7_cbr1_bn <- L1_b7_cbr1_conv_top
I0817 16:12:05.075700 17389 net.cpp:408] L1_b7_cbr1_bn -> L1_b7_cbr1_bn_top
I0817 16:12:05.075939 17389 net.cpp:150] Setting up L1_b7_cbr1_bn
I0817 16:12:05.075953 17389 net.cpp:157] Top shape: 125 16 32 32 (2048000)
I0817 16:12:05.075958 17389 net.cpp:165] Memory required for data: 607745500
I0817 16:12:05.075968 17389 layer_factory.hpp:77] Creating layer L1_b7_cbr1_scale
I0817 16:12:05.075975 17389 net.cpp:100] Creating Layer L1_b7_cbr1_scale
I0817 16:12:05.075983 17389 net.cpp:434] L1_b7_cbr1_scale <- L1_b7_cbr1_bn_top
I0817 16:12:05.075989 17389 net.cpp:395] L1_b7_cbr1_scale -> L1_b7_cbr1_bn_top (in-place)
I0817 16:12:05.076043 17389 layer_factory.hpp:77] Creating layer L1_b7_cbr1_scale
I0817 16:12:05.076185 17389 net.cpp:150] Setting up L1_b7_cbr1_scale
I0817 16:12:05.076198 17389 net.cpp:157] Top shape: 125 16 32 32 (2048000)
I0817 16:12:05.076203 17389 net.cpp:165] Memory required for data: 615937500
I0817 16:12:05.076212 17389 layer_factory.hpp:77] Creating layer L1_b7_cbr1_relu
I0817 16:12:05.076223 17389 net.cpp:100] Creating Layer L1_b7_cbr1_relu
I0817 16:12:05.076230 17389 net.cpp:434] L1_b7_cbr1_relu <- L1_b7_cbr1_bn_top
I0817 16:12:05.076237 17389 net.cpp:395] L1_b7_cbr1_relu -> L1_b7_cbr1_bn_top (in-place)
I0817 16:12:05.076246 17389 net.cpp:150] Setting up L1_b7_cbr1_relu
I0817 16:12:05.076253 17389 net.cpp:157] Top shape: 125 16 32 32 (2048000)
I0817 16:12:05.076258 17389 net.cpp:165] Memory required for data: 624129500
I0817 16:12:05.076262 17389 layer_factory.hpp:77] Creating layer L1_b7_cbr2_conv
I0817 16:12:05.076275 17389 net.cpp:100] Creating Layer L1_b7_cbr2_conv
I0817 16:12:05.076282 17389 net.cpp:434] L1_b7_cbr2_conv <- L1_b7_cbr1_bn_top
I0817 16:12:05.076294 17389 net.cpp:408] L1_b7_cbr2_conv -> L1_b7_cbr2_conv_top
I0817 16:12:05.076613 17389 net.cpp:150] Setting up L1_b7_cbr2_conv
I0817 16:12:05.076627 17389 net.cpp:157] Top shape: 125 16 32 32 (2048000)
I0817 16:12:05.076632 17389 net.cpp:165] Memory required for data: 632321500
I0817 16:12:05.076648 17389 layer_factory.hpp:77] Creating layer L1_b7_cbr2_bn
I0817 16:12:05.076668 17389 net.cpp:100] Creating Layer L1_b7_cbr2_bn
I0817 16:12:05.076674 17389 net.cpp:434] L1_b7_cbr2_bn <- L1_b7_cbr2_conv_top
I0817 16:12:05.076683 17389 net.cpp:408] L1_b7_cbr2_bn -> L1_b7_cbr2_bn_top
I0817 16:12:05.076921 17389 net.cpp:150] Setting up L1_b7_cbr2_bn
I0817 16:12:05.076934 17389 net.cpp:157] Top shape: 125 16 32 32 (2048000)
I0817 16:12:05.076939 17389 net.cpp:165] Memory required for data: 640513500
I0817 16:12:05.076949 17389 layer_factory.hpp:77] Creating layer L1_b7_cbr2_scale
I0817 16:12:05.076958 17389 net.cpp:100] Creating Layer L1_b7_cbr2_scale
I0817 16:12:05.076964 17389 net.cpp:434] L1_b7_cbr2_scale <- L1_b7_cbr2_bn_top
I0817 16:12:05.076972 17389 net.cpp:395] L1_b7_cbr2_scale -> L1_b7_cbr2_bn_top (in-place)
I0817 16:12:05.077028 17389 layer_factory.hpp:77] Creating layer L1_b7_cbr2_scale
I0817 16:12:05.077168 17389 net.cpp:150] Setting up L1_b7_cbr2_scale
I0817 16:12:05.077180 17389 net.cpp:157] Top shape: 125 16 32 32 (2048000)
I0817 16:12:05.077186 17389 net.cpp:165] Memory required for data: 648705500
I0817 16:12:05.077194 17389 layer_factory.hpp:77] Creating layer L1_b7_sum_eltwise
I0817 16:12:05.077203 17389 net.cpp:100] Creating Layer L1_b7_sum_eltwise
I0817 16:12:05.077209 17389 net.cpp:434] L1_b7_sum_eltwise <- L1_b7_cbr2_bn_top
I0817 16:12:05.077216 17389 net.cpp:434] L1_b7_sum_eltwise <- L1_b6_sum_eltwise_top_L1_b6_relu_0_split_1
I0817 16:12:05.077226 17389 net.cpp:408] L1_b7_sum_eltwise -> L1_b7_sum_eltwise_top
I0817 16:12:05.077257 17389 net.cpp:150] Setting up L1_b7_sum_eltwise
I0817 16:12:05.077266 17389 net.cpp:157] Top shape: 125 16 32 32 (2048000)
I0817 16:12:05.077271 17389 net.cpp:165] Memory required for data: 656897500
I0817 16:12:05.077276 17389 layer_factory.hpp:77] Creating layer L1_b7_relu
I0817 16:12:05.077286 17389 net.cpp:100] Creating Layer L1_b7_relu
I0817 16:12:05.077292 17389 net.cpp:434] L1_b7_relu <- L1_b7_sum_eltwise_top
I0817 16:12:05.077299 17389 net.cpp:395] L1_b7_relu -> L1_b7_sum_eltwise_top (in-place)
I0817 16:12:05.077308 17389 net.cpp:150] Setting up L1_b7_relu
I0817 16:12:05.077316 17389 net.cpp:157] Top shape: 125 16 32 32 (2048000)
I0817 16:12:05.077320 17389 net.cpp:165] Memory required for data: 665089500
I0817 16:12:05.077324 17389 layer_factory.hpp:77] Creating layer L1_b7_sum_eltwise_top_L1_b7_relu_0_split
I0817 16:12:05.077332 17389 net.cpp:100] Creating Layer L1_b7_sum_eltwise_top_L1_b7_relu_0_split
I0817 16:12:05.077337 17389 net.cpp:434] L1_b7_sum_eltwise_top_L1_b7_relu_0_split <- L1_b7_sum_eltwise_top
I0817 16:12:05.077344 17389 net.cpp:408] L1_b7_sum_eltwise_top_L1_b7_relu_0_split -> L1_b7_sum_eltwise_top_L1_b7_relu_0_split_0
I0817 16:12:05.077353 17389 net.cpp:408] L1_b7_sum_eltwise_top_L1_b7_relu_0_split -> L1_b7_sum_eltwise_top_L1_b7_relu_0_split_1
I0817 16:12:05.077399 17389 net.cpp:150] Setting up L1_b7_sum_eltwise_top_L1_b7_relu_0_split
I0817 16:12:05.077410 17389 net.cpp:157] Top shape: 125 16 32 32 (2048000)
I0817 16:12:05.077416 17389 net.cpp:157] Top shape: 125 16 32 32 (2048000)
I0817 16:12:05.077421 17389 net.cpp:165] Memory required for data: 681473500
I0817 16:12:05.077426 17389 layer_factory.hpp:77] Creating layer L1_b8_cbr1_conv
I0817 16:12:05.077442 17389 net.cpp:100] Creating Layer L1_b8_cbr1_conv
I0817 16:12:05.077450 17389 net.cpp:434] L1_b8_cbr1_conv <- L1_b7_sum_eltwise_top_L1_b7_relu_0_split_0
I0817 16:12:05.077458 17389 net.cpp:408] L1_b8_cbr1_conv -> L1_b8_cbr1_conv_top
I0817 16:12:05.077780 17389 net.cpp:150] Setting up L1_b8_cbr1_conv
I0817 16:12:05.077795 17389 net.cpp:157] Top shape: 125 16 32 32 (2048000)
I0817 16:12:05.077800 17389 net.cpp:165] Memory required for data: 689665500
I0817 16:12:05.077808 17389 layer_factory.hpp:77] Creating layer L1_b8_cbr1_bn
I0817 16:12:05.077822 17389 net.cpp:100] Creating Layer L1_b8_cbr1_bn
I0817 16:12:05.077828 17389 net.cpp:434] L1_b8_cbr1_bn <- L1_b8_cbr1_conv_top
I0817 16:12:05.077839 17389 net.cpp:408] L1_b8_cbr1_bn -> L1_b8_cbr1_bn_top
I0817 16:12:05.078091 17389 net.cpp:150] Setting up L1_b8_cbr1_bn
I0817 16:12:05.078105 17389 net.cpp:157] Top shape: 125 16 32 32 (2048000)
I0817 16:12:05.078110 17389 net.cpp:165] Memory required for data: 697857500
I0817 16:12:05.078120 17389 layer_factory.hpp:77] Creating layer L1_b8_cbr1_scale
I0817 16:12:05.078130 17389 net.cpp:100] Creating Layer L1_b8_cbr1_scale
I0817 16:12:05.078135 17389 net.cpp:434] L1_b8_cbr1_scale <- L1_b8_cbr1_bn_top
I0817 16:12:05.078142 17389 net.cpp:395] L1_b8_cbr1_scale -> L1_b8_cbr1_bn_top (in-place)
I0817 16:12:05.078198 17389 layer_factory.hpp:77] Creating layer L1_b8_cbr1_scale
I0817 16:12:05.078338 17389 net.cpp:150] Setting up L1_b8_cbr1_scale
I0817 16:12:05.078351 17389 net.cpp:157] Top shape: 125 16 32 32 (2048000)
I0817 16:12:05.078356 17389 net.cpp:165] Memory required for data: 706049500
I0817 16:12:05.078366 17389 layer_factory.hpp:77] Creating layer L1_b8_cbr1_relu
I0817 16:12:05.078373 17389 net.cpp:100] Creating Layer L1_b8_cbr1_relu
I0817 16:12:05.078379 17389 net.cpp:434] L1_b8_cbr1_relu <- L1_b8_cbr1_bn_top
I0817 16:12:05.078392 17389 net.cpp:395] L1_b8_cbr1_relu -> L1_b8_cbr1_bn_top (in-place)
I0817 16:12:05.078400 17389 net.cpp:150] Setting up L1_b8_cbr1_relu
I0817 16:12:05.078408 17389 net.cpp:157] Top shape: 125 16 32 32 (2048000)
I0817 16:12:05.078413 17389 net.cpp:165] Memory required for data: 714241500
I0817 16:12:05.078418 17389 layer_factory.hpp:77] Creating layer L1_b8_cbr2_conv
I0817 16:12:05.078430 17389 net.cpp:100] Creating Layer L1_b8_cbr2_conv
I0817 16:12:05.078436 17389 net.cpp:434] L1_b8_cbr2_conv <- L1_b8_cbr1_bn_top
I0817 16:12:05.078447 17389 net.cpp:408] L1_b8_cbr2_conv -> L1_b8_cbr2_conv_top
I0817 16:12:05.078775 17389 net.cpp:150] Setting up L1_b8_cbr2_conv
I0817 16:12:05.078789 17389 net.cpp:157] Top shape: 125 16 32 32 (2048000)
I0817 16:12:05.078794 17389 net.cpp:165] Memory required for data: 722433500
I0817 16:12:05.078802 17389 layer_factory.hpp:77] Creating layer L1_b8_cbr2_bn
I0817 16:12:05.078814 17389 net.cpp:100] Creating Layer L1_b8_cbr2_bn
I0817 16:12:05.078821 17389 net.cpp:434] L1_b8_cbr2_bn <- L1_b8_cbr2_conv_top
I0817 16:12:05.078830 17389 net.cpp:408] L1_b8_cbr2_bn -> L1_b8_cbr2_bn_top
I0817 16:12:05.079078 17389 net.cpp:150] Setting up L1_b8_cbr2_bn
I0817 16:12:05.079092 17389 net.cpp:157] Top shape: 125 16 32 32 (2048000)
I0817 16:12:05.079097 17389 net.cpp:165] Memory required for data: 730625500
I0817 16:12:05.079107 17389 layer_factory.hpp:77] Creating layer L1_b8_cbr2_scale
I0817 16:12:05.079115 17389 net.cpp:100] Creating Layer L1_b8_cbr2_scale
I0817 16:12:05.079121 17389 net.cpp:434] L1_b8_cbr2_scale <- L1_b8_cbr2_bn_top
I0817 16:12:05.079129 17389 net.cpp:395] L1_b8_cbr2_scale -> L1_b8_cbr2_bn_top (in-place)
I0817 16:12:05.079182 17389 layer_factory.hpp:77] Creating layer L1_b8_cbr2_scale
I0817 16:12:05.079322 17389 net.cpp:150] Setting up L1_b8_cbr2_scale
I0817 16:12:05.079335 17389 net.cpp:157] Top shape: 125 16 32 32 (2048000)
I0817 16:12:05.079340 17389 net.cpp:165] Memory required for data: 738817500
I0817 16:12:05.079349 17389 layer_factory.hpp:77] Creating layer L1_b8_sum_eltwise
I0817 16:12:05.079357 17389 net.cpp:100] Creating Layer L1_b8_sum_eltwise
I0817 16:12:05.079365 17389 net.cpp:434] L1_b8_sum_eltwise <- L1_b8_cbr2_bn_top
I0817 16:12:05.079370 17389 net.cpp:434] L1_b8_sum_eltwise <- L1_b7_sum_eltwise_top_L1_b7_relu_0_split_1
I0817 16:12:05.079381 17389 net.cpp:408] L1_b8_sum_eltwise -> L1_b8_sum_eltwise_top
I0817 16:12:05.079412 17389 net.cpp:150] Setting up L1_b8_sum_eltwise
I0817 16:12:05.079421 17389 net.cpp:157] Top shape: 125 16 32 32 (2048000)
I0817 16:12:05.079426 17389 net.cpp:165] Memory required for data: 747009500
I0817 16:12:05.079430 17389 layer_factory.hpp:77] Creating layer L1_b8_relu
I0817 16:12:05.079442 17389 net.cpp:100] Creating Layer L1_b8_relu
I0817 16:12:05.079447 17389 net.cpp:434] L1_b8_relu <- L1_b8_sum_eltwise_top
I0817 16:12:05.079454 17389 net.cpp:395] L1_b8_relu -> L1_b8_sum_eltwise_top (in-place)
I0817 16:12:05.079463 17389 net.cpp:150] Setting up L1_b8_relu
I0817 16:12:05.079478 17389 net.cpp:157] Top shape: 125 16 32 32 (2048000)
I0817 16:12:05.079483 17389 net.cpp:165] Memory required for data: 755201500
I0817 16:12:05.079488 17389 layer_factory.hpp:77] Creating layer L1_b8_sum_eltwise_top_L1_b8_relu_0_split
I0817 16:12:05.079499 17389 net.cpp:100] Creating Layer L1_b8_sum_eltwise_top_L1_b8_relu_0_split
I0817 16:12:05.079506 17389 net.cpp:434] L1_b8_sum_eltwise_top_L1_b8_relu_0_split <- L1_b8_sum_eltwise_top
I0817 16:12:05.079514 17389 net.cpp:408] L1_b8_sum_eltwise_top_L1_b8_relu_0_split -> L1_b8_sum_eltwise_top_L1_b8_relu_0_split_0
I0817 16:12:05.079524 17389 net.cpp:408] L1_b8_sum_eltwise_top_L1_b8_relu_0_split -> L1_b8_sum_eltwise_top_L1_b8_relu_0_split_1
I0817 16:12:05.079571 17389 net.cpp:150] Setting up L1_b8_sum_eltwise_top_L1_b8_relu_0_split
I0817 16:12:05.079582 17389 net.cpp:157] Top shape: 125 16 32 32 (2048000)
I0817 16:12:05.079589 17389 net.cpp:157] Top shape: 125 16 32 32 (2048000)
I0817 16:12:05.079593 17389 net.cpp:165] Memory required for data: 771585500
I0817 16:12:05.079598 17389 layer_factory.hpp:77] Creating layer L1_b9_cbr1_conv
I0817 16:12:05.079612 17389 net.cpp:100] Creating Layer L1_b9_cbr1_conv
I0817 16:12:05.079618 17389 net.cpp:434] L1_b9_cbr1_conv <- L1_b8_sum_eltwise_top_L1_b8_relu_0_split_0
I0817 16:12:05.079627 17389 net.cpp:408] L1_b9_cbr1_conv -> L1_b9_cbr1_conv_top
I0817 16:12:05.079949 17389 net.cpp:150] Setting up L1_b9_cbr1_conv
I0817 16:12:05.079964 17389 net.cpp:157] Top shape: 125 16 32 32 (2048000)
I0817 16:12:05.079969 17389 net.cpp:165] Memory required for data: 779777500
I0817 16:12:05.079977 17389 layer_factory.hpp:77] Creating layer L1_b9_cbr1_bn
I0817 16:12:05.079989 17389 net.cpp:100] Creating Layer L1_b9_cbr1_bn
I0817 16:12:05.079996 17389 net.cpp:434] L1_b9_cbr1_bn <- L1_b9_cbr1_conv_top
I0817 16:12:05.080004 17389 net.cpp:408] L1_b9_cbr1_bn -> L1_b9_cbr1_bn_top
I0817 16:12:05.080247 17389 net.cpp:150] Setting up L1_b9_cbr1_bn
I0817 16:12:05.080260 17389 net.cpp:157] Top shape: 125 16 32 32 (2048000)
I0817 16:12:05.080265 17389 net.cpp:165] Memory required for data: 787969500
I0817 16:12:05.080276 17389 layer_factory.hpp:77] Creating layer L1_b9_cbr1_scale
I0817 16:12:05.080287 17389 net.cpp:100] Creating Layer L1_b9_cbr1_scale
I0817 16:12:05.080293 17389 net.cpp:434] L1_b9_cbr1_scale <- L1_b9_cbr1_bn_top
I0817 16:12:05.080302 17389 net.cpp:395] L1_b9_cbr1_scale -> L1_b9_cbr1_bn_top (in-place)
I0817 16:12:05.080356 17389 layer_factory.hpp:77] Creating layer L1_b9_cbr1_scale
I0817 16:12:05.080510 17389 net.cpp:150] Setting up L1_b9_cbr1_scale
I0817 16:12:05.080524 17389 net.cpp:157] Top shape: 125 16 32 32 (2048000)
I0817 16:12:05.080529 17389 net.cpp:165] Memory required for data: 796161500
I0817 16:12:05.080538 17389 layer_factory.hpp:77] Creating layer L1_b9_cbr1_relu
I0817 16:12:05.080546 17389 net.cpp:100] Creating Layer L1_b9_cbr1_relu
I0817 16:12:05.080552 17389 net.cpp:434] L1_b9_cbr1_relu <- L1_b9_cbr1_bn_top
I0817 16:12:05.080562 17389 net.cpp:395] L1_b9_cbr1_relu -> L1_b9_cbr1_bn_top (in-place)
I0817 16:12:05.080572 17389 net.cpp:150] Setting up L1_b9_cbr1_relu
I0817 16:12:05.080579 17389 net.cpp:157] Top shape: 125 16 32 32 (2048000)
I0817 16:12:05.080585 17389 net.cpp:165] Memory required for data: 804353500
I0817 16:12:05.080588 17389 layer_factory.hpp:77] Creating layer L1_b9_cbr2_conv
I0817 16:12:05.080602 17389 net.cpp:100] Creating Layer L1_b9_cbr2_conv
I0817 16:12:05.080608 17389 net.cpp:434] L1_b9_cbr2_conv <- L1_b9_cbr1_bn_top
I0817 16:12:05.080617 17389 net.cpp:408] L1_b9_cbr2_conv -> L1_b9_cbr2_conv_top
I0817 16:12:05.080935 17389 net.cpp:150] Setting up L1_b9_cbr2_conv
I0817 16:12:05.080950 17389 net.cpp:157] Top shape: 125 16 32 32 (2048000)
I0817 16:12:05.080955 17389 net.cpp:165] Memory required for data: 812545500
I0817 16:12:05.080963 17389 layer_factory.hpp:77] Creating layer L1_b9_cbr2_bn
I0817 16:12:05.080974 17389 net.cpp:100] Creating Layer L1_b9_cbr2_bn
I0817 16:12:05.080981 17389 net.cpp:434] L1_b9_cbr2_bn <- L1_b9_cbr2_conv_top
I0817 16:12:05.080989 17389 net.cpp:408] L1_b9_cbr2_bn -> L1_b9_cbr2_bn_top
I0817 16:12:05.081236 17389 net.cpp:150] Setting up L1_b9_cbr2_bn
I0817 16:12:05.081250 17389 net.cpp:157] Top shape: 125 16 32 32 (2048000)
I0817 16:12:05.081255 17389 net.cpp:165] Memory required for data: 820737500
I0817 16:12:05.081285 17389 layer_factory.hpp:77] Creating layer L1_b9_cbr2_scale
I0817 16:12:05.081297 17389 net.cpp:100] Creating Layer L1_b9_cbr2_scale
I0817 16:12:05.081305 17389 net.cpp:434] L1_b9_cbr2_scale <- L1_b9_cbr2_bn_top
I0817 16:12:05.081312 17389 net.cpp:395] L1_b9_cbr2_scale -> L1_b9_cbr2_bn_top (in-place)
I0817 16:12:05.081367 17389 layer_factory.hpp:77] Creating layer L1_b9_cbr2_scale
I0817 16:12:05.081511 17389 net.cpp:150] Setting up L1_b9_cbr2_scale
I0817 16:12:05.081526 17389 net.cpp:157] Top shape: 125 16 32 32 (2048000)
I0817 16:12:05.081531 17389 net.cpp:165] Memory required for data: 828929500
I0817 16:12:05.081539 17389 layer_factory.hpp:77] Creating layer L1_b9_sum_eltwise
I0817 16:12:05.081548 17389 net.cpp:100] Creating Layer L1_b9_sum_eltwise
I0817 16:12:05.081554 17389 net.cpp:434] L1_b9_sum_eltwise <- L1_b9_cbr2_bn_top
I0817 16:12:05.081562 17389 net.cpp:434] L1_b9_sum_eltwise <- L1_b8_sum_eltwise_top_L1_b8_relu_0_split_1
I0817 16:12:05.081569 17389 net.cpp:408] L1_b9_sum_eltwise -> L1_b9_sum_eltwise_top
I0817 16:12:05.081604 17389 net.cpp:150] Setting up L1_b9_sum_eltwise
I0817 16:12:05.081614 17389 net.cpp:157] Top shape: 125 16 32 32 (2048000)
I0817 16:12:05.081619 17389 net.cpp:165] Memory required for data: 837121500
I0817 16:12:05.081624 17389 layer_factory.hpp:77] Creating layer L1_b9_relu
I0817 16:12:05.081630 17389 net.cpp:100] Creating Layer L1_b9_relu
I0817 16:12:05.081636 17389 net.cpp:434] L1_b9_relu <- L1_b9_sum_eltwise_top
I0817 16:12:05.081646 17389 net.cpp:395] L1_b9_relu -> L1_b9_sum_eltwise_top (in-place)
I0817 16:12:05.081655 17389 net.cpp:150] Setting up L1_b9_relu
I0817 16:12:05.081662 17389 net.cpp:157] Top shape: 125 16 32 32 (2048000)
I0817 16:12:05.081667 17389 net.cpp:165] Memory required for data: 845313500
I0817 16:12:05.081672 17389 layer_factory.hpp:77] Creating layer L1_b9_sum_eltwise_top_L1_b9_relu_0_split
I0817 16:12:05.081679 17389 net.cpp:100] Creating Layer L1_b9_sum_eltwise_top_L1_b9_relu_0_split
I0817 16:12:05.081684 17389 net.cpp:434] L1_b9_sum_eltwise_top_L1_b9_relu_0_split <- L1_b9_sum_eltwise_top
I0817 16:12:05.081696 17389 net.cpp:408] L1_b9_sum_eltwise_top_L1_b9_relu_0_split -> L1_b9_sum_eltwise_top_L1_b9_relu_0_split_0
I0817 16:12:05.081707 17389 net.cpp:408] L1_b9_sum_eltwise_top_L1_b9_relu_0_split -> L1_b9_sum_eltwise_top_L1_b9_relu_0_split_1
I0817 16:12:05.081748 17389 net.cpp:150] Setting up L1_b9_sum_eltwise_top_L1_b9_relu_0_split
I0817 16:12:05.081759 17389 net.cpp:157] Top shape: 125 16 32 32 (2048000)
I0817 16:12:05.081766 17389 net.cpp:157] Top shape: 125 16 32 32 (2048000)
I0817 16:12:05.081770 17389 net.cpp:165] Memory required for data: 861697500
I0817 16:12:05.081776 17389 layer_factory.hpp:77] Creating layer L2_b1_cbr1_conv
I0817 16:12:05.081789 17389 net.cpp:100] Creating Layer L2_b1_cbr1_conv
I0817 16:12:05.081796 17389 net.cpp:434] L2_b1_cbr1_conv <- L1_b9_sum_eltwise_top_L1_b9_relu_0_split_0
I0817 16:12:05.081805 17389 net.cpp:408] L2_b1_cbr1_conv -> L2_b1_cbr1_conv_top
I0817 16:12:05.082129 17389 net.cpp:150] Setting up L2_b1_cbr1_conv
I0817 16:12:05.082144 17389 net.cpp:157] Top shape: 125 16 16 16 (512000)
I0817 16:12:05.082149 17389 net.cpp:165] Memory required for data: 863745500
I0817 16:12:05.082156 17389 layer_factory.hpp:77] Creating layer L2_b1_cbr1_bn
I0817 16:12:05.082165 17389 net.cpp:100] Creating Layer L2_b1_cbr1_bn
I0817 16:12:05.082175 17389 net.cpp:434] L2_b1_cbr1_bn <- L2_b1_cbr1_conv_top
I0817 16:12:05.082183 17389 net.cpp:408] L2_b1_cbr1_bn -> L2_b1_cbr1_bn_top
I0817 16:12:05.082417 17389 net.cpp:150] Setting up L2_b1_cbr1_bn
I0817 16:12:05.082430 17389 net.cpp:157] Top shape: 125 16 16 16 (512000)
I0817 16:12:05.082435 17389 net.cpp:165] Memory required for data: 865793500
I0817 16:12:05.082446 17389 layer_factory.hpp:77] Creating layer L2_b1_cbr1_scale
I0817 16:12:05.082454 17389 net.cpp:100] Creating Layer L2_b1_cbr1_scale
I0817 16:12:05.082468 17389 net.cpp:434] L2_b1_cbr1_scale <- L2_b1_cbr1_bn_top
I0817 16:12:05.082476 17389 net.cpp:395] L2_b1_cbr1_scale -> L2_b1_cbr1_bn_top (in-place)
I0817 16:12:05.082548 17389 layer_factory.hpp:77] Creating layer L2_b1_cbr1_scale
I0817 16:12:05.082696 17389 net.cpp:150] Setting up L2_b1_cbr1_scale
I0817 16:12:05.082711 17389 net.cpp:157] Top shape: 125 16 16 16 (512000)
I0817 16:12:05.082717 17389 net.cpp:165] Memory required for data: 867841500
I0817 16:12:05.082726 17389 layer_factory.hpp:77] Creating layer L2_b1_cbr1_relu
I0817 16:12:05.082733 17389 net.cpp:100] Creating Layer L2_b1_cbr1_relu
I0817 16:12:05.082739 17389 net.cpp:434] L2_b1_cbr1_relu <- L2_b1_cbr1_bn_top
I0817 16:12:05.082747 17389 net.cpp:395] L2_b1_cbr1_relu -> L2_b1_cbr1_bn_top (in-place)
I0817 16:12:05.082756 17389 net.cpp:150] Setting up L2_b1_cbr1_relu
I0817 16:12:05.082763 17389 net.cpp:157] Top shape: 125 16 16 16 (512000)
I0817 16:12:05.082768 17389 net.cpp:165] Memory required for data: 869889500
I0817 16:12:05.082773 17389 layer_factory.hpp:77] Creating layer L2_b1_cbr2_conv
I0817 16:12:05.082787 17389 net.cpp:100] Creating Layer L2_b1_cbr2_conv
I0817 16:12:05.082792 17389 net.cpp:434] L2_b1_cbr2_conv <- L2_b1_cbr1_bn_top
I0817 16:12:05.082803 17389 net.cpp:408] L2_b1_cbr2_conv -> L2_b1_cbr2_conv_top
I0817 16:12:05.083120 17389 net.cpp:150] Setting up L2_b1_cbr2_conv
I0817 16:12:05.083134 17389 net.cpp:157] Top shape: 125 16 16 16 (512000)
I0817 16:12:05.083139 17389 net.cpp:165] Memory required for data: 871937500
I0817 16:12:05.083148 17389 layer_factory.hpp:77] Creating layer L2_b1_cbr2_bn
I0817 16:12:05.083159 17389 net.cpp:100] Creating Layer L2_b1_cbr2_bn
I0817 16:12:05.083166 17389 net.cpp:434] L2_b1_cbr2_bn <- L2_b1_cbr2_conv_top
I0817 16:12:05.083181 17389 net.cpp:408] L2_b1_cbr2_bn -> L2_b1_cbr2_bn_top
I0817 16:12:05.083426 17389 net.cpp:150] Setting up L2_b1_cbr2_bn
I0817 16:12:05.083439 17389 net.cpp:157] Top shape: 125 16 16 16 (512000)
I0817 16:12:05.083444 17389 net.cpp:165] Memory required for data: 873985500
I0817 16:12:05.083454 17389 layer_factory.hpp:77] Creating layer L2_b1_cbr2_scale
I0817 16:12:05.083463 17389 net.cpp:100] Creating Layer L2_b1_cbr2_scale
I0817 16:12:05.083469 17389 net.cpp:434] L2_b1_cbr2_scale <- L2_b1_cbr2_bn_top
I0817 16:12:05.083477 17389 net.cpp:395] L2_b1_cbr2_scale -> L2_b1_cbr2_bn_top (in-place)
I0817 16:12:05.083542 17389 layer_factory.hpp:77] Creating layer L2_b1_cbr2_scale
I0817 16:12:05.083684 17389 net.cpp:150] Setting up L2_b1_cbr2_scale
I0817 16:12:05.083698 17389 net.cpp:157] Top shape: 125 16 16 16 (512000)
I0817 16:12:05.083703 17389 net.cpp:165] Memory required for data: 876033500
I0817 16:12:05.083711 17389 layer_factory.hpp:77] Creating layer L2_b1_pool
I0817 16:12:05.083725 17389 net.cpp:100] Creating Layer L2_b1_pool
I0817 16:12:05.083732 17389 net.cpp:434] L2_b1_pool <- L1_b9_sum_eltwise_top_L1_b9_relu_0_split_1
I0817 16:12:05.083741 17389 net.cpp:408] L2_b1_pool -> L2_b1_pool
I0817 16:12:05.083823 17389 net.cpp:150] Setting up L2_b1_pool
I0817 16:12:05.083838 17389 net.cpp:157] Top shape: 125 16 16 16 (512000)
I0817 16:12:05.083843 17389 net.cpp:165] Memory required for data: 878081500
I0817 16:12:05.083848 17389 layer_factory.hpp:77] Creating layer L2_b1_sum_eltwise
I0817 16:12:05.083861 17389 net.cpp:100] Creating Layer L2_b1_sum_eltwise
I0817 16:12:05.083868 17389 net.cpp:434] L2_b1_sum_eltwise <- L2_b1_cbr2_bn_top
I0817 16:12:05.083875 17389 net.cpp:434] L2_b1_sum_eltwise <- L2_b1_pool
I0817 16:12:05.083884 17389 net.cpp:408] L2_b1_sum_eltwise -> L2_b1_sum_eltwise_top
I0817 16:12:05.083915 17389 net.cpp:150] Setting up L2_b1_sum_eltwise
I0817 16:12:05.083925 17389 net.cpp:157] Top shape: 125 16 16 16 (512000)
I0817 16:12:05.083930 17389 net.cpp:165] Memory required for data: 880129500
I0817 16:12:05.083935 17389 layer_factory.hpp:77] Creating layer L2_b1_relu
I0817 16:12:05.083945 17389 net.cpp:100] Creating Layer L2_b1_relu
I0817 16:12:05.083951 17389 net.cpp:434] L2_b1_relu <- L2_b1_sum_eltwise_top
I0817 16:12:05.083966 17389 net.cpp:395] L2_b1_relu -> L2_b1_sum_eltwise_top (in-place)
I0817 16:12:05.083976 17389 net.cpp:150] Setting up L2_b1_relu
I0817 16:12:05.083983 17389 net.cpp:157] Top shape: 125 16 16 16 (512000)
I0817 16:12:05.083987 17389 net.cpp:165] Memory required for data: 882177500
I0817 16:12:05.083992 17389 layer_factory.hpp:77] Creating layer L2_b1_zeros
I0817 16:12:05.084038 17389 net.cpp:100] Creating Layer L2_b1_zeros
I0817 16:12:05.084051 17389 net.cpp:408] L2_b1_zeros -> L2_b1_zeros
I0817 16:12:05.086385 17389 net.cpp:150] Setting up L2_b1_zeros
I0817 16:12:05.086405 17389 net.cpp:157] Top shape: 125 16 16 16 (512000)
I0817 16:12:05.086411 17389 net.cpp:165] Memory required for data: 884225500
I0817 16:12:05.086417 17389 layer_factory.hpp:77] Creating layer L2_b1_concat0
I0817 16:12:05.086427 17389 net.cpp:100] Creating Layer L2_b1_concat0
I0817 16:12:05.086434 17389 net.cpp:434] L2_b1_concat0 <- L2_b1_sum_eltwise_top
I0817 16:12:05.086441 17389 net.cpp:434] L2_b1_concat0 <- L2_b1_zeros
I0817 16:12:05.086452 17389 net.cpp:408] L2_b1_concat0 -> L2_b1_concat0
I0817 16:12:05.086534 17389 net.cpp:150] Setting up L2_b1_concat0
I0817 16:12:05.086549 17389 net.cpp:157] Top shape: 125 32 16 16 (1024000)
I0817 16:12:05.086555 17389 net.cpp:165] Memory required for data: 888321500
I0817 16:12:05.086560 17389 layer_factory.hpp:77] Creating layer L2_b1_concat0_L2_b1_concat0_0_split
I0817 16:12:05.086572 17389 net.cpp:100] Creating Layer L2_b1_concat0_L2_b1_concat0_0_split
I0817 16:12:05.086578 17389 net.cpp:434] L2_b1_concat0_L2_b1_concat0_0_split <- L2_b1_concat0
I0817 16:12:05.086586 17389 net.cpp:408] L2_b1_concat0_L2_b1_concat0_0_split -> L2_b1_concat0_L2_b1_concat0_0_split_0
I0817 16:12:05.086597 17389 net.cpp:408] L2_b1_concat0_L2_b1_concat0_0_split -> L2_b1_concat0_L2_b1_concat0_0_split_1
I0817 16:12:05.086647 17389 net.cpp:150] Setting up L2_b1_concat0_L2_b1_concat0_0_split
I0817 16:12:05.086659 17389 net.cpp:157] Top shape: 125 32 16 16 (1024000)
I0817 16:12:05.086666 17389 net.cpp:157] Top shape: 125 32 16 16 (1024000)
I0817 16:12:05.086671 17389 net.cpp:165] Memory required for data: 896513500
I0817 16:12:05.086676 17389 layer_factory.hpp:77] Creating layer L2_b2_cbr1_conv
I0817 16:12:05.086690 17389 net.cpp:100] Creating Layer L2_b2_cbr1_conv
I0817 16:12:05.086697 17389 net.cpp:434] L2_b2_cbr1_conv <- L2_b1_concat0_L2_b1_concat0_0_split_0
I0817 16:12:05.086709 17389 net.cpp:408] L2_b2_cbr1_conv -> L2_b2_cbr1_conv_top
I0817 16:12:05.088158 17389 net.cpp:150] Setting up L2_b2_cbr1_conv
I0817 16:12:05.088176 17389 net.cpp:157] Top shape: 125 32 16 16 (1024000)
I0817 16:12:05.088181 17389 net.cpp:165] Memory required for data: 900609500
I0817 16:12:05.088191 17389 layer_factory.hpp:77] Creating layer L2_b2_cbr1_bn
I0817 16:12:05.088203 17389 net.cpp:100] Creating Layer L2_b2_cbr1_bn
I0817 16:12:05.088210 17389 net.cpp:434] L2_b2_cbr1_bn <- L2_b2_cbr1_conv_top
I0817 16:12:05.088218 17389 net.cpp:408] L2_b2_cbr1_bn -> L2_b2_cbr1_bn_top
I0817 16:12:05.088459 17389 net.cpp:150] Setting up L2_b2_cbr1_bn
I0817 16:12:05.088472 17389 net.cpp:157] Top shape: 125 32 16 16 (1024000)
I0817 16:12:05.088479 17389 net.cpp:165] Memory required for data: 904705500
I0817 16:12:05.088488 17389 layer_factory.hpp:77] Creating layer L2_b2_cbr1_scale
I0817 16:12:05.088503 17389 net.cpp:100] Creating Layer L2_b2_cbr1_scale
I0817 16:12:05.088510 17389 net.cpp:434] L2_b2_cbr1_scale <- L2_b2_cbr1_bn_top
I0817 16:12:05.088518 17389 net.cpp:395] L2_b2_cbr1_scale -> L2_b2_cbr1_bn_top (in-place)
I0817 16:12:05.088577 17389 layer_factory.hpp:77] Creating layer L2_b2_cbr1_scale
I0817 16:12:05.088722 17389 net.cpp:150] Setting up L2_b2_cbr1_scale
I0817 16:12:05.088737 17389 net.cpp:157] Top shape: 125 32 16 16 (1024000)
I0817 16:12:05.088742 17389 net.cpp:165] Memory required for data: 908801500
I0817 16:12:05.088752 17389 layer_factory.hpp:77] Creating layer L2_b2_cbr1_relu
I0817 16:12:05.088760 17389 net.cpp:100] Creating Layer L2_b2_cbr1_relu
I0817 16:12:05.088766 17389 net.cpp:434] L2_b2_cbr1_relu <- L2_b2_cbr1_bn_top
I0817 16:12:05.088781 17389 net.cpp:395] L2_b2_cbr1_relu -> L2_b2_cbr1_bn_top (in-place)
I0817 16:12:05.088793 17389 net.cpp:150] Setting up L2_b2_cbr1_relu
I0817 16:12:05.088799 17389 net.cpp:157] Top shape: 125 32 16 16 (1024000)
I0817 16:12:05.088804 17389 net.cpp:165] Memory required for data: 912897500
I0817 16:12:05.088809 17389 layer_factory.hpp:77] Creating layer L2_b2_cbr2_conv
I0817 16:12:05.088825 17389 net.cpp:100] Creating Layer L2_b2_cbr2_conv
I0817 16:12:05.088832 17389 net.cpp:434] L2_b2_cbr2_conv <- L2_b2_cbr1_bn_top
I0817 16:12:05.088843 17389 net.cpp:408] L2_b2_cbr2_conv -> L2_b2_cbr2_conv_top
I0817 16:12:05.089303 17389 net.cpp:150] Setting up L2_b2_cbr2_conv
I0817 16:12:05.089318 17389 net.cpp:157] Top shape: 125 32 16 16 (1024000)
I0817 16:12:05.089323 17389 net.cpp:165] Memory required for data: 916993500
I0817 16:12:05.089331 17389 layer_factory.hpp:77] Creating layer L2_b2_cbr2_bn
I0817 16:12:05.089344 17389 net.cpp:100] Creating Layer L2_b2_cbr2_bn
I0817 16:12:05.089349 17389 net.cpp:434] L2_b2_cbr2_bn <- L2_b2_cbr2_conv_top
I0817 16:12:05.089360 17389 net.cpp:408] L2_b2_cbr2_bn -> L2_b2_cbr2_bn_top
I0817 16:12:05.089613 17389 net.cpp:150] Setting up L2_b2_cbr2_bn
I0817 16:12:05.089627 17389 net.cpp:157] Top shape: 125 32 16 16 (1024000)
I0817 16:12:05.089632 17389 net.cpp:165] Memory required for data: 921089500
I0817 16:12:05.089643 17389 layer_factory.hpp:77] Creating layer L2_b2_cbr2_scale
I0817 16:12:05.089653 17389 net.cpp:100] Creating Layer L2_b2_cbr2_scale
I0817 16:12:05.089658 17389 net.cpp:434] L2_b2_cbr2_scale <- L2_b2_cbr2_bn_top
I0817 16:12:05.089666 17389 net.cpp:395] L2_b2_cbr2_scale -> L2_b2_cbr2_bn_top (in-place)
I0817 16:12:05.089723 17389 layer_factory.hpp:77] Creating layer L2_b2_cbr2_scale
I0817 16:12:05.089865 17389 net.cpp:150] Setting up L2_b2_cbr2_scale
I0817 16:12:05.089877 17389 net.cpp:157] Top shape: 125 32 16 16 (1024000)
I0817 16:12:05.089882 17389 net.cpp:165] Memory required for data: 925185500
I0817 16:12:05.089891 17389 layer_factory.hpp:77] Creating layer L2_b2_sum_eltwise
I0817 16:12:05.089903 17389 net.cpp:100] Creating Layer L2_b2_sum_eltwise
I0817 16:12:05.089910 17389 net.cpp:434] L2_b2_sum_eltwise <- L2_b2_cbr2_bn_top
I0817 16:12:05.089917 17389 net.cpp:434] L2_b2_sum_eltwise <- L2_b1_concat0_L2_b1_concat0_0_split_1
I0817 16:12:05.089926 17389 net.cpp:408] L2_b2_sum_eltwise -> L2_b2_sum_eltwise_top
I0817 16:12:05.089952 17389 net.cpp:150] Setting up L2_b2_sum_eltwise
I0817 16:12:05.089962 17389 net.cpp:157] Top shape: 125 32 16 16 (1024000)
I0817 16:12:05.089965 17389 net.cpp:165] Memory required for data: 929281500
I0817 16:12:05.089972 17389 layer_factory.hpp:77] Creating layer L2_b2_relu
I0817 16:12:05.089982 17389 net.cpp:100] Creating Layer L2_b2_relu
I0817 16:12:05.089987 17389 net.cpp:434] L2_b2_relu <- L2_b2_sum_eltwise_top
I0817 16:12:05.089998 17389 net.cpp:395] L2_b2_relu -> L2_b2_sum_eltwise_top (in-place)
I0817 16:12:05.090008 17389 net.cpp:150] Setting up L2_b2_relu
I0817 16:12:05.090014 17389 net.cpp:157] Top shape: 125 32 16 16 (1024000)
I0817 16:12:05.090019 17389 net.cpp:165] Memory required for data: 933377500
I0817 16:12:05.090023 17389 layer_factory.hpp:77] Creating layer L2_b2_sum_eltwise_top_L2_b2_relu_0_split
I0817 16:12:05.090030 17389 net.cpp:100] Creating Layer L2_b2_sum_eltwise_top_L2_b2_relu_0_split
I0817 16:12:05.090035 17389 net.cpp:434] L2_b2_sum_eltwise_top_L2_b2_relu_0_split <- L2_b2_sum_eltwise_top
I0817 16:12:05.090044 17389 net.cpp:408] L2_b2_sum_eltwise_top_L2_b2_relu_0_split -> L2_b2_sum_eltwise_top_L2_b2_relu_0_split_0
I0817 16:12:05.090054 17389 net.cpp:408] L2_b2_sum_eltwise_top_L2_b2_relu_0_split -> L2_b2_sum_eltwise_top_L2_b2_relu_0_split_1
I0817 16:12:05.090100 17389 net.cpp:150] Setting up L2_b2_sum_eltwise_top_L2_b2_relu_0_split
I0817 16:12:05.090111 17389 net.cpp:157] Top shape: 125 32 16 16 (1024000)
I0817 16:12:05.090117 17389 net.cpp:157] Top shape: 125 32 16 16 (1024000)
I0817 16:12:05.090122 17389 net.cpp:165] Memory required for data: 941569500
I0817 16:12:05.090127 17389 layer_factory.hpp:77] Creating layer L2_b3_cbr1_conv
I0817 16:12:05.090147 17389 net.cpp:100] Creating Layer L2_b3_cbr1_conv
I0817 16:12:05.090154 17389 net.cpp:434] L2_b3_cbr1_conv <- L2_b2_sum_eltwise_top_L2_b2_relu_0_split_0
I0817 16:12:05.090164 17389 net.cpp:408] L2_b3_cbr1_conv -> L2_b3_cbr1_conv_top
I0817 16:12:05.090636 17389 net.cpp:150] Setting up L2_b3_cbr1_conv
I0817 16:12:05.090651 17389 net.cpp:157] Top shape: 125 32 16 16 (1024000)
I0817 16:12:05.090656 17389 net.cpp:165] Memory required for data: 945665500
I0817 16:12:05.090664 17389 layer_factory.hpp:77] Creating layer L2_b3_cbr1_bn
I0817 16:12:05.090675 17389 net.cpp:100] Creating Layer L2_b3_cbr1_bn
I0817 16:12:05.090682 17389 net.cpp:434] L2_b3_cbr1_bn <- L2_b3_cbr1_conv_top
I0817 16:12:05.090693 17389 net.cpp:408] L2_b3_cbr1_bn -> L2_b3_cbr1_bn_top
I0817 16:12:05.090934 17389 net.cpp:150] Setting up L2_b3_cbr1_bn
I0817 16:12:05.090947 17389 net.cpp:157] Top shape: 125 32 16 16 (1024000)
I0817 16:12:05.090952 17389 net.cpp:165] Memory required for data: 949761500
I0817 16:12:05.090963 17389 layer_factory.hpp:77] Creating layer L2_b3_cbr1_scale
I0817 16:12:05.090971 17389 net.cpp:100] Creating Layer L2_b3_cbr1_scale
I0817 16:12:05.090978 17389 net.cpp:434] L2_b3_cbr1_scale <- L2_b3_cbr1_bn_top
I0817 16:12:05.090986 17389 net.cpp:395] L2_b3_cbr1_scale -> L2_b3_cbr1_bn_top (in-place)
I0817 16:12:05.091042 17389 layer_factory.hpp:77] Creating layer L2_b3_cbr1_scale
I0817 16:12:05.091188 17389 net.cpp:150] Setting up L2_b3_cbr1_scale
I0817 16:12:05.091204 17389 net.cpp:157] Top shape: 125 32 16 16 (1024000)
I0817 16:12:05.091209 17389 net.cpp:165] Memory required for data: 953857500
I0817 16:12:05.091218 17389 layer_factory.hpp:77] Creating layer L2_b3_cbr1_relu
I0817 16:12:05.091226 17389 net.cpp:100] Creating Layer L2_b3_cbr1_relu
I0817 16:12:05.091233 17389 net.cpp:434] L2_b3_cbr1_relu <- L2_b3_cbr1_bn_top
I0817 16:12:05.091239 17389 net.cpp:395] L2_b3_cbr1_relu -> L2_b3_cbr1_bn_top (in-place)
I0817 16:12:05.091249 17389 net.cpp:150] Setting up L2_b3_cbr1_relu
I0817 16:12:05.091256 17389 net.cpp:157] Top shape: 125 32 16 16 (1024000)
I0817 16:12:05.091260 17389 net.cpp:165] Memory required for data: 957953500
I0817 16:12:05.091265 17389 layer_factory.hpp:77] Creating layer L2_b3_cbr2_conv
I0817 16:12:05.091279 17389 net.cpp:100] Creating Layer L2_b3_cbr2_conv
I0817 16:12:05.091285 17389 net.cpp:434] L2_b3_cbr2_conv <- L2_b3_cbr1_bn_top
I0817 16:12:05.091296 17389 net.cpp:408] L2_b3_cbr2_conv -> L2_b3_cbr2_conv_top
I0817 16:12:05.091763 17389 net.cpp:150] Setting up L2_b3_cbr2_conv
I0817 16:12:05.091778 17389 net.cpp:157] Top shape: 125 32 16 16 (1024000)
I0817 16:12:05.091784 17389 net.cpp:165] Memory required for data: 962049500
I0817 16:12:05.091792 17389 layer_factory.hpp:77] Creating layer L2_b3_cbr2_bn
I0817 16:12:05.091804 17389 net.cpp:100] Creating Layer L2_b3_cbr2_bn
I0817 16:12:05.091810 17389 net.cpp:434] L2_b3_cbr2_bn <- L2_b3_cbr2_conv_top
I0817 16:12:05.091821 17389 net.cpp:408] L2_b3_cbr2_bn -> L2_b3_cbr2_bn_top
I0817 16:12:05.092067 17389 net.cpp:150] Setting up L2_b3_cbr2_bn
I0817 16:12:05.092079 17389 net.cpp:157] Top shape: 125 32 16 16 (1024000)
I0817 16:12:05.092085 17389 net.cpp:165] Memory required for data: 966145500
I0817 16:12:05.092095 17389 layer_factory.hpp:77] Creating layer L2_b3_cbr2_scale
I0817 16:12:05.092104 17389 net.cpp:100] Creating Layer L2_b3_cbr2_scale
I0817 16:12:05.092110 17389 net.cpp:434] L2_b3_cbr2_scale <- L2_b3_cbr2_bn_top
I0817 16:12:05.092118 17389 net.cpp:395] L2_b3_cbr2_scale -> L2_b3_cbr2_bn_top (in-place)
I0817 16:12:05.092175 17389 layer_factory.hpp:77] Creating layer L2_b3_cbr2_scale
I0817 16:12:05.092319 17389 net.cpp:150] Setting up L2_b3_cbr2_scale
I0817 16:12:05.092332 17389 net.cpp:157] Top shape: 125 32 16 16 (1024000)
I0817 16:12:05.092337 17389 net.cpp:165] Memory required for data: 970241500
I0817 16:12:05.092345 17389 layer_factory.hpp:77] Creating layer L2_b3_sum_eltwise
I0817 16:12:05.092357 17389 net.cpp:100] Creating Layer L2_b3_sum_eltwise
I0817 16:12:05.092365 17389 net.cpp:434] L2_b3_sum_eltwise <- L2_b3_cbr2_bn_top
I0817 16:12:05.092377 17389 net.cpp:434] L2_b3_sum_eltwise <- L2_b2_sum_eltwise_top_L2_b2_relu_0_split_1
I0817 16:12:05.092386 17389 net.cpp:408] L2_b3_sum_eltwise -> L2_b3_sum_eltwise_top
I0817 16:12:05.092413 17389 net.cpp:150] Setting up L2_b3_sum_eltwise
I0817 16:12:05.092422 17389 net.cpp:157] Top shape: 125 32 16 16 (1024000)
I0817 16:12:05.092427 17389 net.cpp:165] Memory required for data: 974337500
I0817 16:12:05.092432 17389 layer_factory.hpp:77] Creating layer L2_b3_relu
I0817 16:12:05.092453 17389 net.cpp:100] Creating Layer L2_b3_relu
I0817 16:12:05.092458 17389 net.cpp:434] L2_b3_relu <- L2_b3_sum_eltwise_top
I0817 16:12:05.092465 17389 net.cpp:395] L2_b3_relu -> L2_b3_sum_eltwise_top (in-place)
I0817 16:12:05.092475 17389 net.cpp:150] Setting up L2_b3_relu
I0817 16:12:05.092483 17389 net.cpp:157] Top shape: 125 32 16 16 (1024000)
I0817 16:12:05.092488 17389 net.cpp:165] Memory required for data: 978433500
I0817 16:12:05.092492 17389 layer_factory.hpp:77] Creating layer L2_b3_sum_eltwise_top_L2_b3_relu_0_split
I0817 16:12:05.092506 17389 net.cpp:100] Creating Layer L2_b3_sum_eltwise_top_L2_b3_relu_0_split
I0817 16:12:05.092512 17389 net.cpp:434] L2_b3_sum_eltwise_top_L2_b3_relu_0_split <- L2_b3_sum_eltwise_top
I0817 16:12:05.092519 17389 net.cpp:408] L2_b3_sum_eltwise_top_L2_b3_relu_0_split -> L2_b3_sum_eltwise_top_L2_b3_relu_0_split_0
I0817 16:12:05.092528 17389 net.cpp:408] L2_b3_sum_eltwise_top_L2_b3_relu_0_split -> L2_b3_sum_eltwise_top_L2_b3_relu_0_split_1
I0817 16:12:05.092579 17389 net.cpp:150] Setting up L2_b3_sum_eltwise_top_L2_b3_relu_0_split
I0817 16:12:05.092592 17389 net.cpp:157] Top shape: 125 32 16 16 (1024000)
I0817 16:12:05.092597 17389 net.cpp:157] Top shape: 125 32 16 16 (1024000)
I0817 16:12:05.092602 17389 net.cpp:165] Memory required for data: 986625500
I0817 16:12:05.092607 17389 layer_factory.hpp:77] Creating layer L2_b4_cbr1_conv
I0817 16:12:05.092618 17389 net.cpp:100] Creating Layer L2_b4_cbr1_conv
I0817 16:12:05.092625 17389 net.cpp:434] L2_b4_cbr1_conv <- L2_b3_sum_eltwise_top_L2_b3_relu_0_split_0
I0817 16:12:05.092638 17389 net.cpp:408] L2_b4_cbr1_conv -> L2_b4_cbr1_conv_top
I0817 16:12:05.093137 17389 net.cpp:150] Setting up L2_b4_cbr1_conv
I0817 16:12:05.093150 17389 net.cpp:157] Top shape: 125 32 16 16 (1024000)
I0817 16:12:05.093156 17389 net.cpp:165] Memory required for data: 990721500
I0817 16:12:05.093164 17389 layer_factory.hpp:77] Creating layer L2_b4_cbr1_bn
I0817 16:12:05.093176 17389 net.cpp:100] Creating Layer L2_b4_cbr1_bn
I0817 16:12:05.093183 17389 net.cpp:434] L2_b4_cbr1_bn <- L2_b4_cbr1_conv_top
I0817 16:12:05.093191 17389 net.cpp:408] L2_b4_cbr1_bn -> L2_b4_cbr1_bn_top
I0817 16:12:05.093436 17389 net.cpp:150] Setting up L2_b4_cbr1_bn
I0817 16:12:05.093451 17389 net.cpp:157] Top shape: 125 32 16 16 (1024000)
I0817 16:12:05.093456 17389 net.cpp:165] Memory required for data: 994817500
I0817 16:12:05.093466 17389 layer_factory.hpp:77] Creating layer L2_b4_cbr1_scale
I0817 16:12:05.093475 17389 net.cpp:100] Creating Layer L2_b4_cbr1_scale
I0817 16:12:05.093482 17389 net.cpp:434] L2_b4_cbr1_scale <- L2_b4_cbr1_bn_top
I0817 16:12:05.093489 17389 net.cpp:395] L2_b4_cbr1_scale -> L2_b4_cbr1_bn_top (in-place)
I0817 16:12:05.093550 17389 layer_factory.hpp:77] Creating layer L2_b4_cbr1_scale
I0817 16:12:05.093699 17389 net.cpp:150] Setting up L2_b4_cbr1_scale
I0817 16:12:05.093711 17389 net.cpp:157] Top shape: 125 32 16 16 (1024000)
I0817 16:12:05.093716 17389 net.cpp:165] Memory required for data: 998913500
I0817 16:12:05.093725 17389 layer_factory.hpp:77] Creating layer L2_b4_cbr1_relu
I0817 16:12:05.093734 17389 net.cpp:100] Creating Layer L2_b4_cbr1_relu
I0817 16:12:05.093739 17389 net.cpp:434] L2_b4_cbr1_relu <- L2_b4_cbr1_bn_top
I0817 16:12:05.093750 17389 net.cpp:395] L2_b4_cbr1_relu -> L2_b4_cbr1_bn_top (in-place)
I0817 16:12:05.093760 17389 net.cpp:150] Setting up L2_b4_cbr1_relu
I0817 16:12:05.093766 17389 net.cpp:157] Top shape: 125 32 16 16 (1024000)
I0817 16:12:05.093771 17389 net.cpp:165] Memory required for data: 1003009500
I0817 16:12:05.093776 17389 layer_factory.hpp:77] Creating layer L2_b4_cbr2_conv
I0817 16:12:05.093794 17389 net.cpp:100] Creating Layer L2_b4_cbr2_conv
I0817 16:12:05.093801 17389 net.cpp:434] L2_b4_cbr2_conv <- L2_b4_cbr1_bn_top
I0817 16:12:05.093811 17389 net.cpp:408] L2_b4_cbr2_conv -> L2_b4_cbr2_conv_top
I0817 16:12:05.094264 17389 net.cpp:150] Setting up L2_b4_cbr2_conv
I0817 16:12:05.094277 17389 net.cpp:157] Top shape: 125 32 16 16 (1024000)
I0817 16:12:05.094282 17389 net.cpp:165] Memory required for data: 1007105500
I0817 16:12:05.094291 17389 layer_factory.hpp:77] Creating layer L2_b4_cbr2_bn
I0817 16:12:05.094300 17389 net.cpp:100] Creating Layer L2_b4_cbr2_bn
I0817 16:12:05.094306 17389 net.cpp:434] L2_b4_cbr2_bn <- L2_b4_cbr2_conv_top
I0817 16:12:05.094318 17389 net.cpp:408] L2_b4_cbr2_bn -> L2_b4_cbr2_bn_top
I0817 16:12:05.094573 17389 net.cpp:150] Setting up L2_b4_cbr2_bn
I0817 16:12:05.094588 17389 net.cpp:157] Top shape: 125 32 16 16 (1024000)
I0817 16:12:05.094593 17389 net.cpp:165] Memory required for data: 1011201500
I0817 16:12:05.094602 17389 layer_factory.hpp:77] Creating layer L2_b4_cbr2_scale
I0817 16:12:05.094614 17389 net.cpp:100] Creating Layer L2_b4_cbr2_scale
I0817 16:12:05.094620 17389 net.cpp:434] L2_b4_cbr2_scale <- L2_b4_cbr2_bn_top
I0817 16:12:05.094629 17389 net.cpp:395] L2_b4_cbr2_scale -> L2_b4_cbr2_bn_top (in-place)
I0817 16:12:05.094682 17389 layer_factory.hpp:77] Creating layer L2_b4_cbr2_scale
I0817 16:12:05.094831 17389 net.cpp:150] Setting up L2_b4_cbr2_scale
I0817 16:12:05.094844 17389 net.cpp:157] Top shape: 125 32 16 16 (1024000)
I0817 16:12:05.094851 17389 net.cpp:165] Memory required for data: 1015297500
I0817 16:12:05.094859 17389 layer_factory.hpp:77] Creating layer L2_b4_sum_eltwise
I0817 16:12:05.094871 17389 net.cpp:100] Creating Layer L2_b4_sum_eltwise
I0817 16:12:05.094877 17389 net.cpp:434] L2_b4_sum_eltwise <- L2_b4_cbr2_bn_top
I0817 16:12:05.094884 17389 net.cpp:434] L2_b4_sum_eltwise <- L2_b3_sum_eltwise_top_L2_b3_relu_0_split_1
I0817 16:12:05.094895 17389 net.cpp:408] L2_b4_sum_eltwise -> L2_b4_sum_eltwise_top
I0817 16:12:05.094923 17389 net.cpp:150] Setting up L2_b4_sum_eltwise
I0817 16:12:05.094931 17389 net.cpp:157] Top shape: 125 32 16 16 (1024000)
I0817 16:12:05.094936 17389 net.cpp:165] Memory required for data: 1019393500
I0817 16:12:05.094941 17389 layer_factory.hpp:77] Creating layer L2_b4_relu
I0817 16:12:05.094949 17389 net.cpp:100] Creating Layer L2_b4_relu
I0817 16:12:05.094954 17389 net.cpp:434] L2_b4_relu <- L2_b4_sum_eltwise_top
I0817 16:12:05.094965 17389 net.cpp:395] L2_b4_relu -> L2_b4_sum_eltwise_top (in-place)
I0817 16:12:05.094974 17389 net.cpp:150] Setting up L2_b4_relu
I0817 16:12:05.094981 17389 net.cpp:157] Top shape: 125 32 16 16 (1024000)
I0817 16:12:05.094986 17389 net.cpp:165] Memory required for data: 1023489500
I0817 16:12:05.094990 17389 layer_factory.hpp:77] Creating layer L2_b4_sum_eltwise_top_L2_b4_relu_0_split
I0817 16:12:05.094997 17389 net.cpp:100] Creating Layer L2_b4_sum_eltwise_top_L2_b4_relu_0_split
I0817 16:12:05.095002 17389 net.cpp:434] L2_b4_sum_eltwise_top_L2_b4_relu_0_split <- L2_b4_sum_eltwise_top
I0817 16:12:05.095010 17389 net.cpp:408] L2_b4_sum_eltwise_top_L2_b4_relu_0_split -> L2_b4_sum_eltwise_top_L2_b4_relu_0_split_0
I0817 16:12:05.095021 17389 net.cpp:408] L2_b4_sum_eltwise_top_L2_b4_relu_0_split -> L2_b4_sum_eltwise_top_L2_b4_relu_0_split_1
I0817 16:12:05.095067 17389 net.cpp:150] Setting up L2_b4_sum_eltwise_top_L2_b4_relu_0_split
I0817 16:12:05.095078 17389 net.cpp:157] Top shape: 125 32 16 16 (1024000)
I0817 16:12:05.095085 17389 net.cpp:157] Top shape: 125 32 16 16 (1024000)
I0817 16:12:05.095090 17389 net.cpp:165] Memory required for data: 1031681500
I0817 16:12:05.095095 17389 layer_factory.hpp:77] Creating layer L2_b5_cbr1_conv
I0817 16:12:05.095106 17389 net.cpp:100] Creating Layer L2_b5_cbr1_conv
I0817 16:12:05.095113 17389 net.cpp:434] L2_b5_cbr1_conv <- L2_b4_sum_eltwise_top_L2_b4_relu_0_split_0
I0817 16:12:05.095124 17389 net.cpp:408] L2_b5_cbr1_conv -> L2_b5_cbr1_conv_top
I0817 16:12:05.095588 17389 net.cpp:150] Setting up L2_b5_cbr1_conv
I0817 16:12:05.095609 17389 net.cpp:157] Top shape: 125 32 16 16 (1024000)
I0817 16:12:05.095614 17389 net.cpp:165] Memory required for data: 1035777500
I0817 16:12:05.095623 17389 layer_factory.hpp:77] Creating layer L2_b5_cbr1_bn
I0817 16:12:05.095635 17389 net.cpp:100] Creating Layer L2_b5_cbr1_bn
I0817 16:12:05.095641 17389 net.cpp:434] L2_b5_cbr1_bn <- L2_b5_cbr1_conv_top
I0817 16:12:05.095650 17389 net.cpp:408] L2_b5_cbr1_bn -> L2_b5_cbr1_bn_top
I0817 16:12:05.095899 17389 net.cpp:150] Setting up L2_b5_cbr1_bn
I0817 16:12:05.095912 17389 net.cpp:157] Top shape: 125 32 16 16 (1024000)
I0817 16:12:05.095917 17389 net.cpp:165] Memory required for data: 1039873500
I0817 16:12:05.095927 17389 layer_factory.hpp:77] Creating layer L2_b5_cbr1_scale
I0817 16:12:05.095938 17389 net.cpp:100] Creating Layer L2_b5_cbr1_scale
I0817 16:12:05.095945 17389 net.cpp:434] L2_b5_cbr1_scale <- L2_b5_cbr1_bn_top
I0817 16:12:05.095952 17389 net.cpp:395] L2_b5_cbr1_scale -> L2_b5_cbr1_bn_top (in-place)
I0817 16:12:05.096006 17389 layer_factory.hpp:77] Creating layer L2_b5_cbr1_scale
I0817 16:12:05.096158 17389 net.cpp:150] Setting up L2_b5_cbr1_scale
I0817 16:12:05.096170 17389 net.cpp:157] Top shape: 125 32 16 16 (1024000)
I0817 16:12:05.096175 17389 net.cpp:165] Memory required for data: 1043969500
I0817 16:12:05.096184 17389 layer_factory.hpp:77] Creating layer L2_b5_cbr1_relu
I0817 16:12:05.096195 17389 net.cpp:100] Creating Layer L2_b5_cbr1_relu
I0817 16:12:05.096201 17389 net.cpp:434] L2_b5_cbr1_relu <- L2_b5_cbr1_bn_top
I0817 16:12:05.096211 17389 net.cpp:395] L2_b5_cbr1_relu -> L2_b5_cbr1_bn_top (in-place)
I0817 16:12:05.096221 17389 net.cpp:150] Setting up L2_b5_cbr1_relu
I0817 16:12:05.096228 17389 net.cpp:157] Top shape: 125 32 16 16 (1024000)
I0817 16:12:05.096232 17389 net.cpp:165] Memory required for data: 1048065500
I0817 16:12:05.096237 17389 layer_factory.hpp:77] Creating layer L2_b5_cbr2_conv
I0817 16:12:05.096248 17389 net.cpp:100] Creating Layer L2_b5_cbr2_conv
I0817 16:12:05.096253 17389 net.cpp:434] L2_b5_cbr2_conv <- L2_b5_cbr1_bn_top
I0817 16:12:05.096266 17389 net.cpp:408] L2_b5_cbr2_conv -> L2_b5_cbr2_conv_top
I0817 16:12:05.096730 17389 net.cpp:150] Setting up L2_b5_cbr2_conv
I0817 16:12:05.096745 17389 net.cpp:157] Top shape: 125 32 16 16 (1024000)
I0817 16:12:05.096750 17389 net.cpp:165] Memory required for data: 1052161500
I0817 16:12:05.096758 17389 layer_factory.hpp:77] Creating layer L2_b5_cbr2_bn
I0817 16:12:05.096767 17389 net.cpp:100] Creating Layer L2_b5_cbr2_bn
I0817 16:12:05.096773 17389 net.cpp:434] L2_b5_cbr2_bn <- L2_b5_cbr2_conv_top
I0817 16:12:05.096787 17389 net.cpp:408] L2_b5_cbr2_bn -> L2_b5_cbr2_bn_top
I0817 16:12:05.097033 17389 net.cpp:150] Setting up L2_b5_cbr2_bn
I0817 16:12:05.097045 17389 net.cpp:157] Top shape: 125 32 16 16 (1024000)
I0817 16:12:05.097050 17389 net.cpp:165] Memory required for data: 1056257500
I0817 16:12:05.097060 17389 layer_factory.hpp:77] Creating layer L2_b5_cbr2_scale
I0817 16:12:05.097071 17389 net.cpp:100] Creating Layer L2_b5_cbr2_scale
I0817 16:12:05.097079 17389 net.cpp:434] L2_b5_cbr2_scale <- L2_b5_cbr2_bn_top
I0817 16:12:05.097085 17389 net.cpp:395] L2_b5_cbr2_scale -> L2_b5_cbr2_bn_top (in-place)
I0817 16:12:05.097141 17389 layer_factory.hpp:77] Creating layer L2_b5_cbr2_scale
I0817 16:12:05.097286 17389 net.cpp:150] Setting up L2_b5_cbr2_scale
I0817 16:12:05.097299 17389 net.cpp:157] Top shape: 125 32 16 16 (1024000)
I0817 16:12:05.097304 17389 net.cpp:165] Memory required for data: 1060353500
I0817 16:12:05.097313 17389 layer_factory.hpp:77] Creating layer L2_b5_sum_eltwise
I0817 16:12:05.097324 17389 net.cpp:100] Creating Layer L2_b5_sum_eltwise
I0817 16:12:05.097332 17389 net.cpp:434] L2_b5_sum_eltwise <- L2_b5_cbr2_bn_top
I0817 16:12:05.097338 17389 net.cpp:434] L2_b5_sum_eltwise <- L2_b4_sum_eltwise_top_L2_b4_relu_0_split_1
I0817 16:12:05.097347 17389 net.cpp:408] L2_b5_sum_eltwise -> L2_b5_sum_eltwise_top
I0817 16:12:05.097375 17389 net.cpp:150] Setting up L2_b5_sum_eltwise
I0817 16:12:05.097385 17389 net.cpp:157] Top shape: 125 32 16 16 (1024000)
I0817 16:12:05.097396 17389 net.cpp:165] Memory required for data: 1064449500
I0817 16:12:05.097401 17389 layer_factory.hpp:77] Creating layer L2_b5_relu
I0817 16:12:05.097409 17389 net.cpp:100] Creating Layer L2_b5_relu
I0817 16:12:05.097415 17389 net.cpp:434] L2_b5_relu <- L2_b5_sum_eltwise_top
I0817 16:12:05.097424 17389 net.cpp:395] L2_b5_relu -> L2_b5_sum_eltwise_top (in-place)
I0817 16:12:05.097434 17389 net.cpp:150] Setting up L2_b5_relu
I0817 16:12:05.097441 17389 net.cpp:157] Top shape: 125 32 16 16 (1024000)
I0817 16:12:05.097446 17389 net.cpp:165] Memory required for data: 1068545500
I0817 16:12:05.097451 17389 layer_factory.hpp:77] Creating layer L2_b5_sum_eltwise_top_L2_b5_relu_0_split
I0817 16:12:05.097458 17389 net.cpp:100] Creating Layer L2_b5_sum_eltwise_top_L2_b5_relu_0_split
I0817 16:12:05.097463 17389 net.cpp:434] L2_b5_sum_eltwise_top_L2_b5_relu_0_split <- L2_b5_sum_eltwise_top
I0817 16:12:05.097471 17389 net.cpp:408] L2_b5_sum_eltwise_top_L2_b5_relu_0_split -> L2_b5_sum_eltwise_top_L2_b5_relu_0_split_0
I0817 16:12:05.097481 17389 net.cpp:408] L2_b5_sum_eltwise_top_L2_b5_relu_0_split -> L2_b5_sum_eltwise_top_L2_b5_relu_0_split_1
I0817 16:12:05.097534 17389 net.cpp:150] Setting up L2_b5_sum_eltwise_top_L2_b5_relu_0_split
I0817 16:12:05.097546 17389 net.cpp:157] Top shape: 125 32 16 16 (1024000)
I0817 16:12:05.097553 17389 net.cpp:157] Top shape: 125 32 16 16 (1024000)
I0817 16:12:05.097558 17389 net.cpp:165] Memory required for data: 1076737500
I0817 16:12:05.097563 17389 layer_factory.hpp:77] Creating layer L2_b6_cbr1_conv
I0817 16:12:05.097574 17389 net.cpp:100] Creating Layer L2_b6_cbr1_conv
I0817 16:12:05.097581 17389 net.cpp:434] L2_b6_cbr1_conv <- L2_b5_sum_eltwise_top_L2_b5_relu_0_split_0
I0817 16:12:05.097594 17389 net.cpp:408] L2_b6_cbr1_conv -> L2_b6_cbr1_conv_top
I0817 16:12:05.098060 17389 net.cpp:150] Setting up L2_b6_cbr1_conv
I0817 16:12:05.098074 17389 net.cpp:157] Top shape: 125 32 16 16 (1024000)
I0817 16:12:05.098079 17389 net.cpp:165] Memory required for data: 1080833500
I0817 16:12:05.098088 17389 layer_factory.hpp:77] Creating layer L2_b6_cbr1_bn
I0817 16:12:05.098096 17389 net.cpp:100] Creating Layer L2_b6_cbr1_bn
I0817 16:12:05.098104 17389 net.cpp:434] L2_b6_cbr1_bn <- L2_b6_cbr1_conv_top
I0817 16:12:05.098114 17389 net.cpp:408] L2_b6_cbr1_bn -> L2_b6_cbr1_bn_top
I0817 16:12:05.098364 17389 net.cpp:150] Setting up L2_b6_cbr1_bn
I0817 16:12:05.098376 17389 net.cpp:157] Top shape: 125 32 16 16 (1024000)
I0817 16:12:05.098381 17389 net.cpp:165] Memory required for data: 1084929500
I0817 16:12:05.098392 17389 layer_factory.hpp:77] Creating layer L2_b6_cbr1_scale
I0817 16:12:05.098403 17389 net.cpp:100] Creating Layer L2_b6_cbr1_scale
I0817 16:12:05.098409 17389 net.cpp:434] L2_b6_cbr1_scale <- L2_b6_cbr1_bn_top
I0817 16:12:05.098417 17389 net.cpp:395] L2_b6_cbr1_scale -> L2_b6_cbr1_bn_top (in-place)
I0817 16:12:05.098471 17389 layer_factory.hpp:77] Creating layer L2_b6_cbr1_scale
I0817 16:12:05.098628 17389 net.cpp:150] Setting up L2_b6_cbr1_scale
I0817 16:12:05.098640 17389 net.cpp:157] Top shape: 125 32 16 16 (1024000)
I0817 16:12:05.098645 17389 net.cpp:165] Memory required for data: 1089025500
I0817 16:12:05.098654 17389 layer_factory.hpp:77] Creating layer L2_b6_cbr1_relu
I0817 16:12:05.098665 17389 net.cpp:100] Creating Layer L2_b6_cbr1_relu
I0817 16:12:05.098672 17389 net.cpp:434] L2_b6_cbr1_relu <- L2_b6_cbr1_bn_top
I0817 16:12:05.098680 17389 net.cpp:395] L2_b6_cbr1_relu -> L2_b6_cbr1_bn_top (in-place)
I0817 16:12:05.098690 17389 net.cpp:150] Setting up L2_b6_cbr1_relu
I0817 16:12:05.098696 17389 net.cpp:157] Top shape: 125 32 16 16 (1024000)
I0817 16:12:05.098701 17389 net.cpp:165] Memory required for data: 1093121500
I0817 16:12:05.098706 17389 layer_factory.hpp:77] Creating layer L2_b6_cbr2_conv
I0817 16:12:05.098721 17389 net.cpp:100] Creating Layer L2_b6_cbr2_conv
I0817 16:12:05.098726 17389 net.cpp:434] L2_b6_cbr2_conv <- L2_b6_cbr1_bn_top
I0817 16:12:05.098739 17389 net.cpp:408] L2_b6_cbr2_conv -> L2_b6_cbr2_conv_top
I0817 16:12:05.099195 17389 net.cpp:150] Setting up L2_b6_cbr2_conv
I0817 16:12:05.099215 17389 net.cpp:157] Top shape: 125 32 16 16 (1024000)
I0817 16:12:05.099221 17389 net.cpp:165] Memory required for data: 1097217500
I0817 16:12:05.099230 17389 layer_factory.hpp:77] Creating layer L2_b6_cbr2_bn
I0817 16:12:05.099238 17389 net.cpp:100] Creating Layer L2_b6_cbr2_bn
I0817 16:12:05.099246 17389 net.cpp:434] L2_b6_cbr2_bn <- L2_b6_cbr2_conv_top
I0817 16:12:05.099256 17389 net.cpp:408] L2_b6_cbr2_bn -> L2_b6_cbr2_bn_top
I0817 16:12:05.099506 17389 net.cpp:150] Setting up L2_b6_cbr2_bn
I0817 16:12:05.099520 17389 net.cpp:157] Top shape: 125 32 16 16 (1024000)
I0817 16:12:05.099525 17389 net.cpp:165] Memory required for data: 1101313500
I0817 16:12:05.099535 17389 layer_factory.hpp:77] Creating layer L2_b6_cbr2_scale
I0817 16:12:05.099550 17389 net.cpp:100] Creating Layer L2_b6_cbr2_scale
I0817 16:12:05.099556 17389 net.cpp:434] L2_b6_cbr2_scale <- L2_b6_cbr2_bn_top
I0817 16:12:05.099565 17389 net.cpp:395] L2_b6_cbr2_scale -> L2_b6_cbr2_bn_top (in-place)
I0817 16:12:05.099619 17389 layer_factory.hpp:77] Creating layer L2_b6_cbr2_scale
I0817 16:12:05.099766 17389 net.cpp:150] Setting up L2_b6_cbr2_scale
I0817 16:12:05.099778 17389 net.cpp:157] Top shape: 125 32 16 16 (1024000)
I0817 16:12:05.099783 17389 net.cpp:165] Memory required for data: 1105409500
I0817 16:12:05.099792 17389 layer_factory.hpp:77] Creating layer L2_b6_sum_eltwise
I0817 16:12:05.099804 17389 net.cpp:100] Creating Layer L2_b6_sum_eltwise
I0817 16:12:05.099812 17389 net.cpp:434] L2_b6_sum_eltwise <- L2_b6_cbr2_bn_top
I0817 16:12:05.099818 17389 net.cpp:434] L2_b6_sum_eltwise <- L2_b5_sum_eltwise_top_L2_b5_relu_0_split_1
I0817 16:12:05.099827 17389 net.cpp:408] L2_b6_sum_eltwise -> L2_b6_sum_eltwise_top
I0817 16:12:05.099855 17389 net.cpp:150] Setting up L2_b6_sum_eltwise
I0817 16:12:05.099864 17389 net.cpp:157] Top shape: 125 32 16 16 (1024000)
I0817 16:12:05.099869 17389 net.cpp:165] Memory required for data: 1109505500
I0817 16:12:05.099874 17389 layer_factory.hpp:77] Creating layer L2_b6_relu
I0817 16:12:05.099882 17389 net.cpp:100] Creating Layer L2_b6_relu
I0817 16:12:05.099887 17389 net.cpp:434] L2_b6_relu <- L2_b6_sum_eltwise_top
I0817 16:12:05.099895 17389 net.cpp:395] L2_b6_relu -> L2_b6_sum_eltwise_top (in-place)
I0817 16:12:05.099907 17389 net.cpp:150] Setting up L2_b6_relu
I0817 16:12:05.099915 17389 net.cpp:157] Top shape: 125 32 16 16 (1024000)
I0817 16:12:05.099920 17389 net.cpp:165] Memory required for data: 1113601500
I0817 16:12:05.099923 17389 layer_factory.hpp:77] Creating layer L2_b6_sum_eltwise_top_L2_b6_relu_0_split
I0817 16:12:05.099931 17389 net.cpp:100] Creating Layer L2_b6_sum_eltwise_top_L2_b6_relu_0_split
I0817 16:12:05.099936 17389 net.cpp:434] L2_b6_sum_eltwise_top_L2_b6_relu_0_split <- L2_b6_sum_eltwise_top
I0817 16:12:05.099943 17389 net.cpp:408] L2_b6_sum_eltwise_top_L2_b6_relu_0_split -> L2_b6_sum_eltwise_top_L2_b6_relu_0_split_0
I0817 16:12:05.099953 17389 net.cpp:408] L2_b6_sum_eltwise_top_L2_b6_relu_0_split -> L2_b6_sum_eltwise_top_L2_b6_relu_0_split_1
I0817 16:12:05.100002 17389 net.cpp:150] Setting up L2_b6_sum_eltwise_top_L2_b6_relu_0_split
I0817 16:12:05.100013 17389 net.cpp:157] Top shape: 125 32 16 16 (1024000)
I0817 16:12:05.100019 17389 net.cpp:157] Top shape: 125 32 16 16 (1024000)
I0817 16:12:05.100024 17389 net.cpp:165] Memory required for data: 1121793500
I0817 16:12:05.100029 17389 layer_factory.hpp:77] Creating layer L2_b7_cbr1_conv
I0817 16:12:05.100040 17389 net.cpp:100] Creating Layer L2_b7_cbr1_conv
I0817 16:12:05.100046 17389 net.cpp:434] L2_b7_cbr1_conv <- L2_b6_sum_eltwise_top_L2_b6_relu_0_split_0
I0817 16:12:05.100059 17389 net.cpp:408] L2_b7_cbr1_conv -> L2_b7_cbr1_conv_top
I0817 16:12:05.100528 17389 net.cpp:150] Setting up L2_b7_cbr1_conv
I0817 16:12:05.100543 17389 net.cpp:157] Top shape: 125 32 16 16 (1024000)
I0817 16:12:05.100548 17389 net.cpp:165] Memory required for data: 1125889500
I0817 16:12:05.100555 17389 layer_factory.hpp:77] Creating layer L2_b7_cbr1_bn
I0817 16:12:05.100564 17389 net.cpp:100] Creating Layer L2_b7_cbr1_bn
I0817 16:12:05.100577 17389 net.cpp:434] L2_b7_cbr1_bn <- L2_b7_cbr1_conv_top
I0817 16:12:05.100591 17389 net.cpp:408] L2_b7_cbr1_bn -> L2_b7_cbr1_bn_top
I0817 16:12:05.100844 17389 net.cpp:150] Setting up L2_b7_cbr1_bn
I0817 16:12:05.100857 17389 net.cpp:157] Top shape: 125 32 16 16 (1024000)
I0817 16:12:05.100862 17389 net.cpp:165] Memory required for data: 1129985500
I0817 16:12:05.100872 17389 layer_factory.hpp:77] Creating layer L2_b7_cbr1_scale
I0817 16:12:05.100884 17389 net.cpp:100] Creating Layer L2_b7_cbr1_scale
I0817 16:12:05.100890 17389 net.cpp:434] L2_b7_cbr1_scale <- L2_b7_cbr1_bn_top
I0817 16:12:05.100898 17389 net.cpp:395] L2_b7_cbr1_scale -> L2_b7_cbr1_bn_top (in-place)
I0817 16:12:05.100953 17389 layer_factory.hpp:77] Creating layer L2_b7_cbr1_scale
I0817 16:12:05.101099 17389 net.cpp:150] Setting up L2_b7_cbr1_scale
I0817 16:12:05.101112 17389 net.cpp:157] Top shape: 125 32 16 16 (1024000)
I0817 16:12:05.101117 17389 net.cpp:165] Memory required for data: 1134081500
I0817 16:12:05.101126 17389 layer_factory.hpp:77] Creating layer L2_b7_cbr1_relu
I0817 16:12:05.101140 17389 net.cpp:100] Creating Layer L2_b7_cbr1_relu
I0817 16:12:05.101146 17389 net.cpp:434] L2_b7_cbr1_relu <- L2_b7_cbr1_bn_top
I0817 16:12:05.101153 17389 net.cpp:395] L2_b7_cbr1_relu -> L2_b7_cbr1_bn_top (in-place)
I0817 16:12:05.101162 17389 net.cpp:150] Setting up L2_b7_cbr1_relu
I0817 16:12:05.101171 17389 net.cpp:157] Top shape: 125 32 16 16 (1024000)
I0817 16:12:05.101174 17389 net.cpp:165] Memory required for data: 1138177500
I0817 16:12:05.101179 17389 layer_factory.hpp:77] Creating layer L2_b7_cbr2_conv
I0817 16:12:05.101192 17389 net.cpp:100] Creating Layer L2_b7_cbr2_conv
I0817 16:12:05.101199 17389 net.cpp:434] L2_b7_cbr2_conv <- L2_b7_cbr1_bn_top
I0817 16:12:05.101210 17389 net.cpp:408] L2_b7_cbr2_conv -> L2_b7_cbr2_conv_top
I0817 16:12:05.101678 17389 net.cpp:150] Setting up L2_b7_cbr2_conv
I0817 16:12:05.101692 17389 net.cpp:157] Top shape: 125 32 16 16 (1024000)
I0817 16:12:05.101697 17389 net.cpp:165] Memory required for data: 1142273500
I0817 16:12:05.101706 17389 layer_factory.hpp:77] Creating layer L2_b7_cbr2_bn
I0817 16:12:05.101716 17389 net.cpp:100] Creating Layer L2_b7_cbr2_bn
I0817 16:12:05.101722 17389 net.cpp:434] L2_b7_cbr2_bn <- L2_b7_cbr2_conv_top
I0817 16:12:05.101733 17389 net.cpp:408] L2_b7_cbr2_bn -> L2_b7_cbr2_bn_top
I0817 16:12:05.101982 17389 net.cpp:150] Setting up L2_b7_cbr2_bn
I0817 16:12:05.101994 17389 net.cpp:157] Top shape: 125 32 16 16 (1024000)
I0817 16:12:05.102000 17389 net.cpp:165] Memory required for data: 1146369500
I0817 16:12:05.102010 17389 layer_factory.hpp:77] Creating layer L2_b7_cbr2_scale
I0817 16:12:05.102023 17389 net.cpp:100] Creating Layer L2_b7_cbr2_scale
I0817 16:12:05.102030 17389 net.cpp:434] L2_b7_cbr2_scale <- L2_b7_cbr2_bn_top
I0817 16:12:05.102037 17389 net.cpp:395] L2_b7_cbr2_scale -> L2_b7_cbr2_bn_top (in-place)
I0817 16:12:05.102089 17389 layer_factory.hpp:77] Creating layer L2_b7_cbr2_scale
I0817 16:12:05.102236 17389 net.cpp:150] Setting up L2_b7_cbr2_scale
I0817 16:12:05.102247 17389 net.cpp:157] Top shape: 125 32 16 16 (1024000)
I0817 16:12:05.102252 17389 net.cpp:165] Memory required for data: 1150465500
I0817 16:12:05.102262 17389 layer_factory.hpp:77] Creating layer L2_b7_sum_eltwise
I0817 16:12:05.102270 17389 net.cpp:100] Creating Layer L2_b7_sum_eltwise
I0817 16:12:05.102277 17389 net.cpp:434] L2_b7_sum_eltwise <- L2_b7_cbr2_bn_top
I0817 16:12:05.102288 17389 net.cpp:434] L2_b7_sum_eltwise <- L2_b6_sum_eltwise_top_L2_b6_relu_0_split_1
I0817 16:12:05.102298 17389 net.cpp:408] L2_b7_sum_eltwise -> L2_b7_sum_eltwise_top
I0817 16:12:05.102324 17389 net.cpp:150] Setting up L2_b7_sum_eltwise
I0817 16:12:05.102336 17389 net.cpp:157] Top shape: 125 32 16 16 (1024000)
I0817 16:12:05.102340 17389 net.cpp:165] Memory required for data: 1154561500
I0817 16:12:05.102346 17389 layer_factory.hpp:77] Creating layer L2_b7_relu
I0817 16:12:05.102354 17389 net.cpp:100] Creating Layer L2_b7_relu
I0817 16:12:05.102360 17389 net.cpp:434] L2_b7_relu <- L2_b7_sum_eltwise_top
I0817 16:12:05.102373 17389 net.cpp:395] L2_b7_relu -> L2_b7_sum_eltwise_top (in-place)
I0817 16:12:05.102383 17389 net.cpp:150] Setting up L2_b7_relu
I0817 16:12:05.102391 17389 net.cpp:157] Top shape: 125 32 16 16 (1024000)
I0817 16:12:05.102394 17389 net.cpp:165] Memory required for data: 1158657500
I0817 16:12:05.102399 17389 layer_factory.hpp:77] Creating layer L2_b7_sum_eltwise_top_L2_b7_relu_0_split
I0817 16:12:05.102409 17389 net.cpp:100] Creating Layer L2_b7_sum_eltwise_top_L2_b7_relu_0_split
I0817 16:12:05.102416 17389 net.cpp:434] L2_b7_sum_eltwise_top_L2_b7_relu_0_split <- L2_b7_sum_eltwise_top
I0817 16:12:05.102422 17389 net.cpp:408] L2_b7_sum_eltwise_top_L2_b7_relu_0_split -> L2_b7_sum_eltwise_top_L2_b7_relu_0_split_0
I0817 16:12:05.102432 17389 net.cpp:408] L2_b7_sum_eltwise_top_L2_b7_relu_0_split -> L2_b7_sum_eltwise_top_L2_b7_relu_0_split_1
I0817 16:12:05.102479 17389 net.cpp:150] Setting up L2_b7_sum_eltwise_top_L2_b7_relu_0_split
I0817 16:12:05.102491 17389 net.cpp:157] Top shape: 125 32 16 16 (1024000)
I0817 16:12:05.102504 17389 net.cpp:157] Top shape: 125 32 16 16 (1024000)
I0817 16:12:05.102509 17389 net.cpp:165] Memory required for data: 1166849500
I0817 16:12:05.102514 17389 layer_factory.hpp:77] Creating layer L2_b8_cbr1_conv
I0817 16:12:05.102525 17389 net.cpp:100] Creating Layer L2_b8_cbr1_conv
I0817 16:12:05.102532 17389 net.cpp:434] L2_b8_cbr1_conv <- L2_b7_sum_eltwise_top_L2_b7_relu_0_split_0
I0817 16:12:05.102545 17389 net.cpp:408] L2_b8_cbr1_conv -> L2_b8_cbr1_conv_top
I0817 16:12:05.103018 17389 net.cpp:150] Setting up L2_b8_cbr1_conv
I0817 16:12:05.103031 17389 net.cpp:157] Top shape: 125 32 16 16 (1024000)
I0817 16:12:05.103036 17389 net.cpp:165] Memory required for data: 1170945500
I0817 16:12:05.103045 17389 layer_factory.hpp:77] Creating layer L2_b8_cbr1_bn
I0817 16:12:05.103055 17389 net.cpp:100] Creating Layer L2_b8_cbr1_bn
I0817 16:12:05.103060 17389 net.cpp:434] L2_b8_cbr1_bn <- L2_b8_cbr1_conv_top
I0817 16:12:05.103071 17389 net.cpp:408] L2_b8_cbr1_bn -> L2_b8_cbr1_bn_top
I0817 16:12:05.103323 17389 net.cpp:150] Setting up L2_b8_cbr1_bn
I0817 16:12:05.103335 17389 net.cpp:157] Top shape: 125 32 16 16 (1024000)
I0817 16:12:05.103340 17389 net.cpp:165] Memory required for data: 1175041500
I0817 16:12:05.103351 17389 layer_factory.hpp:77] Creating layer L2_b8_cbr1_scale
I0817 16:12:05.103363 17389 net.cpp:100] Creating Layer L2_b8_cbr1_scale
I0817 16:12:05.103368 17389 net.cpp:434] L2_b8_cbr1_scale <- L2_b8_cbr1_bn_top
I0817 16:12:05.103376 17389 net.cpp:395] L2_b8_cbr1_scale -> L2_b8_cbr1_bn_top (in-place)
I0817 16:12:05.103431 17389 layer_factory.hpp:77] Creating layer L2_b8_cbr1_scale
I0817 16:12:05.103591 17389 net.cpp:150] Setting up L2_b8_cbr1_scale
I0817 16:12:05.103605 17389 net.cpp:157] Top shape: 125 32 16 16 (1024000)
I0817 16:12:05.103610 17389 net.cpp:165] Memory required for data: 1179137500
I0817 16:12:05.103618 17389 layer_factory.hpp:77] Creating layer L2_b8_cbr1_relu
I0817 16:12:05.103629 17389 net.cpp:100] Creating Layer L2_b8_cbr1_relu
I0817 16:12:05.103636 17389 net.cpp:434] L2_b8_cbr1_relu <- L2_b8_cbr1_bn_top
I0817 16:12:05.103643 17389 net.cpp:395] L2_b8_cbr1_relu -> L2_b8_cbr1_bn_top (in-place)
I0817 16:12:05.103652 17389 net.cpp:150] Setting up L2_b8_cbr1_relu
I0817 16:12:05.103659 17389 net.cpp:157] Top shape: 125 32 16 16 (1024000)
I0817 16:12:05.103664 17389 net.cpp:165] Memory required for data: 1183233500
I0817 16:12:05.103669 17389 layer_factory.hpp:77] Creating layer L2_b8_cbr2_conv
I0817 16:12:05.103683 17389 net.cpp:100] Creating Layer L2_b8_cbr2_conv
I0817 16:12:05.103689 17389 net.cpp:434] L2_b8_cbr2_conv <- L2_b8_cbr1_bn_top
I0817 16:12:05.103700 17389 net.cpp:408] L2_b8_cbr2_conv -> L2_b8_cbr2_conv_top
I0817 16:12:05.104163 17389 net.cpp:150] Setting up L2_b8_cbr2_conv
I0817 16:12:05.104176 17389 net.cpp:157] Top shape: 125 32 16 16 (1024000)
I0817 16:12:05.104182 17389 net.cpp:165] Memory required for data: 1187329500
I0817 16:12:05.104190 17389 layer_factory.hpp:77] Creating layer L2_b8_cbr2_bn
I0817 16:12:05.104199 17389 net.cpp:100] Creating Layer L2_b8_cbr2_bn
I0817 16:12:05.104214 17389 net.cpp:434] L2_b8_cbr2_bn <- L2_b8_cbr2_conv_top
I0817 16:12:05.104223 17389 net.cpp:408] L2_b8_cbr2_bn -> L2_b8_cbr2_bn_top
I0817 16:12:05.104476 17389 net.cpp:150] Setting up L2_b8_cbr2_bn
I0817 16:12:05.104490 17389 net.cpp:157] Top shape: 125 32 16 16 (1024000)
I0817 16:12:05.104501 17389 net.cpp:165] Memory required for data: 1191425500
I0817 16:12:05.104511 17389 layer_factory.hpp:77] Creating layer L2_b8_cbr2_scale
I0817 16:12:05.104519 17389 net.cpp:100] Creating Layer L2_b8_cbr2_scale
I0817 16:12:05.104526 17389 net.cpp:434] L2_b8_cbr2_scale <- L2_b8_cbr2_bn_top
I0817 16:12:05.104537 17389 net.cpp:395] L2_b8_cbr2_scale -> L2_b8_cbr2_bn_top (in-place)
I0817 16:12:05.104594 17389 layer_factory.hpp:77] Creating layer L2_b8_cbr2_scale
I0817 16:12:05.104743 17389 net.cpp:150] Setting up L2_b8_cbr2_scale
I0817 16:12:05.104756 17389 net.cpp:157] Top shape: 125 32 16 16 (1024000)
I0817 16:12:05.104761 17389 net.cpp:165] Memory required for data: 1195521500
I0817 16:12:05.104770 17389 layer_factory.hpp:77] Creating layer L2_b8_sum_eltwise
I0817 16:12:05.104779 17389 net.cpp:100] Creating Layer L2_b8_sum_eltwise
I0817 16:12:05.104785 17389 net.cpp:434] L2_b8_sum_eltwise <- L2_b8_cbr2_bn_top
I0817 16:12:05.104792 17389 net.cpp:434] L2_b8_sum_eltwise <- L2_b7_sum_eltwise_top_L2_b7_relu_0_split_1
I0817 16:12:05.104804 17389 net.cpp:408] L2_b8_sum_eltwise -> L2_b8_sum_eltwise_top
I0817 16:12:05.104831 17389 net.cpp:150] Setting up L2_b8_sum_eltwise
I0817 16:12:05.104843 17389 net.cpp:157] Top shape: 125 32 16 16 (1024000)
I0817 16:12:05.104848 17389 net.cpp:165] Memory required for data: 1199617500
I0817 16:12:05.104853 17389 layer_factory.hpp:77] Creating layer L2_b8_relu
I0817 16:12:05.104861 17389 net.cpp:100] Creating Layer L2_b8_relu
I0817 16:12:05.104866 17389 net.cpp:434] L2_b8_relu <- L2_b8_sum_eltwise_top
I0817 16:12:05.104873 17389 net.cpp:395] L2_b8_relu -> L2_b8_sum_eltwise_top (in-place)
I0817 16:12:05.104883 17389 net.cpp:150] Setting up L2_b8_relu
I0817 16:12:05.104890 17389 net.cpp:157] Top shape: 125 32 16 16 (1024000)
I0817 16:12:05.104894 17389 net.cpp:165] Memory required for data: 1203713500
I0817 16:12:05.104899 17389 layer_factory.hpp:77] Creating layer L2_b8_sum_eltwise_top_L2_b8_relu_0_split
I0817 16:12:05.104909 17389 net.cpp:100] Creating Layer L2_b8_sum_eltwise_top_L2_b8_relu_0_split
I0817 16:12:05.104914 17389 net.cpp:434] L2_b8_sum_eltwise_top_L2_b8_relu_0_split <- L2_b8_sum_eltwise_top
I0817 16:12:05.104923 17389 net.cpp:408] L2_b8_sum_eltwise_top_L2_b8_relu_0_split -> L2_b8_sum_eltwise_top_L2_b8_relu_0_split_0
I0817 16:12:05.104944 17389 net.cpp:408] L2_b8_sum_eltwise_top_L2_b8_relu_0_split -> L2_b8_sum_eltwise_top_L2_b8_relu_0_split_1
I0817 16:12:05.104991 17389 net.cpp:150] Setting up L2_b8_sum_eltwise_top_L2_b8_relu_0_split
I0817 16:12:05.105007 17389 net.cpp:157] Top shape: 125 32 16 16 (1024000)
I0817 16:12:05.105015 17389 net.cpp:157] Top shape: 125 32 16 16 (1024000)
I0817 16:12:05.105020 17389 net.cpp:165] Memory required for data: 1211905500
I0817 16:12:05.105024 17389 layer_factory.hpp:77] Creating layer L2_b9_cbr1_conv
I0817 16:12:05.105038 17389 net.cpp:100] Creating Layer L2_b9_cbr1_conv
I0817 16:12:05.105044 17389 net.cpp:434] L2_b9_cbr1_conv <- L2_b8_sum_eltwise_top_L2_b8_relu_0_split_0
I0817 16:12:05.105053 17389 net.cpp:408] L2_b9_cbr1_conv -> L2_b9_cbr1_conv_top
I0817 16:12:05.105530 17389 net.cpp:150] Setting up L2_b9_cbr1_conv
I0817 16:12:05.105543 17389 net.cpp:157] Top shape: 125 32 16 16 (1024000)
I0817 16:12:05.105548 17389 net.cpp:165] Memory required for data: 1216001500
I0817 16:12:05.105557 17389 layer_factory.hpp:77] Creating layer L2_b9_cbr1_bn
I0817 16:12:05.105569 17389 net.cpp:100] Creating Layer L2_b9_cbr1_bn
I0817 16:12:05.105576 17389 net.cpp:434] L2_b9_cbr1_bn <- L2_b9_cbr1_conv_top
I0817 16:12:05.105584 17389 net.cpp:408] L2_b9_cbr1_bn -> L2_b9_cbr1_bn_top
I0817 16:12:05.105834 17389 net.cpp:150] Setting up L2_b9_cbr1_bn
I0817 16:12:05.105846 17389 net.cpp:157] Top shape: 125 32 16 16 (1024000)
I0817 16:12:05.105859 17389 net.cpp:165] Memory required for data: 1220097500
I0817 16:12:05.105870 17389 layer_factory.hpp:77] Creating layer L2_b9_cbr1_scale
I0817 16:12:05.105877 17389 net.cpp:100] Creating Layer L2_b9_cbr1_scale
I0817 16:12:05.105883 17389 net.cpp:434] L2_b9_cbr1_scale <- L2_b9_cbr1_bn_top
I0817 16:12:05.105895 17389 net.cpp:395] L2_b9_cbr1_scale -> L2_b9_cbr1_bn_top (in-place)
I0817 16:12:05.105952 17389 layer_factory.hpp:77] Creating layer L2_b9_cbr1_scale
I0817 16:12:05.106101 17389 net.cpp:150] Setting up L2_b9_cbr1_scale
I0817 16:12:05.106114 17389 net.cpp:157] Top shape: 125 32 16 16 (1024000)
I0817 16:12:05.106118 17389 net.cpp:165] Memory required for data: 1224193500
I0817 16:12:05.106127 17389 layer_factory.hpp:77] Creating layer L2_b9_cbr1_relu
I0817 16:12:05.106135 17389 net.cpp:100] Creating Layer L2_b9_cbr1_relu
I0817 16:12:05.106142 17389 net.cpp:434] L2_b9_cbr1_relu <- L2_b9_cbr1_bn_top
I0817 16:12:05.106153 17389 net.cpp:395] L2_b9_cbr1_relu -> L2_b9_cbr1_bn_top (in-place)
I0817 16:12:05.106161 17389 net.cpp:150] Setting up L2_b9_cbr1_relu
I0817 16:12:05.106168 17389 net.cpp:157] Top shape: 125 32 16 16 (1024000)
I0817 16:12:05.106173 17389 net.cpp:165] Memory required for data: 1228289500
I0817 16:12:05.106178 17389 layer_factory.hpp:77] Creating layer L2_b9_cbr2_conv
I0817 16:12:05.106191 17389 net.cpp:100] Creating Layer L2_b9_cbr2_conv
I0817 16:12:05.106197 17389 net.cpp:434] L2_b9_cbr2_conv <- L2_b9_cbr1_bn_top
I0817 16:12:05.106206 17389 net.cpp:408] L2_b9_cbr2_conv -> L2_b9_cbr2_conv_top
I0817 16:12:05.106688 17389 net.cpp:150] Setting up L2_b9_cbr2_conv
I0817 16:12:05.106703 17389 net.cpp:157] Top shape: 125 32 16 16 (1024000)
I0817 16:12:05.106708 17389 net.cpp:165] Memory required for data: 1232385500
I0817 16:12:05.106716 17389 layer_factory.hpp:77] Creating layer L2_b9_cbr2_bn
I0817 16:12:05.106727 17389 net.cpp:100] Creating Layer L2_b9_cbr2_bn
I0817 16:12:05.106734 17389 net.cpp:434] L2_b9_cbr2_bn <- L2_b9_cbr2_conv_top
I0817 16:12:05.106744 17389 net.cpp:408] L2_b9_cbr2_bn -> L2_b9_cbr2_bn_top
I0817 16:12:05.106992 17389 net.cpp:150] Setting up L2_b9_cbr2_bn
I0817 16:12:05.107004 17389 net.cpp:157] Top shape: 125 32 16 16 (1024000)
I0817 16:12:05.107009 17389 net.cpp:165] Memory required for data: 1236481500
I0817 16:12:05.107053 17389 layer_factory.hpp:77] Creating layer L2_b9_cbr2_scale
I0817 16:12:05.107065 17389 net.cpp:100] Creating Layer L2_b9_cbr2_scale
I0817 16:12:05.107072 17389 net.cpp:434] L2_b9_cbr2_scale <- L2_b9_cbr2_bn_top
I0817 16:12:05.107080 17389 net.cpp:395] L2_b9_cbr2_scale -> L2_b9_cbr2_bn_top (in-place)
I0817 16:12:05.107139 17389 layer_factory.hpp:77] Creating layer L2_b9_cbr2_scale
I0817 16:12:05.107286 17389 net.cpp:150] Setting up L2_b9_cbr2_scale
I0817 16:12:05.107300 17389 net.cpp:157] Top shape: 125 32 16 16 (1024000)
I0817 16:12:05.107305 17389 net.cpp:165] Memory required for data: 1240577500
I0817 16:12:05.107313 17389 layer_factory.hpp:77] Creating layer L2_b9_sum_eltwise
I0817 16:12:05.107326 17389 net.cpp:100] Creating Layer L2_b9_sum_eltwise
I0817 16:12:05.107333 17389 net.cpp:434] L2_b9_sum_eltwise <- L2_b9_cbr2_bn_top
I0817 16:12:05.107341 17389 net.cpp:434] L2_b9_sum_eltwise <- L2_b8_sum_eltwise_top_L2_b8_relu_0_split_1
I0817 16:12:05.107352 17389 net.cpp:408] L2_b9_sum_eltwise -> L2_b9_sum_eltwise_top
I0817 16:12:05.107378 17389 net.cpp:150] Setting up L2_b9_sum_eltwise
I0817 16:12:05.107388 17389 net.cpp:157] Top shape: 125 32 16 16 (1024000)
I0817 16:12:05.107393 17389 net.cpp:165] Memory required for data: 1244673500
I0817 16:12:05.107398 17389 layer_factory.hpp:77] Creating layer L2_b9_relu
I0817 16:12:05.107405 17389 net.cpp:100] Creating Layer L2_b9_relu
I0817 16:12:05.107410 17389 net.cpp:434] L2_b9_relu <- L2_b9_sum_eltwise_top
I0817 16:12:05.107421 17389 net.cpp:395] L2_b9_relu -> L2_b9_sum_eltwise_top (in-place)
I0817 16:12:05.107430 17389 net.cpp:150] Setting up L2_b9_relu
I0817 16:12:05.107437 17389 net.cpp:157] Top shape: 125 32 16 16 (1024000)
I0817 16:12:05.107442 17389 net.cpp:165] Memory required for data: 1248769500
I0817 16:12:05.107453 17389 layer_factory.hpp:77] Creating layer L2_b9_sum_eltwise_top_L2_b9_relu_0_split
I0817 16:12:05.107465 17389 net.cpp:100] Creating Layer L2_b9_sum_eltwise_top_L2_b9_relu_0_split
I0817 16:12:05.107470 17389 net.cpp:434] L2_b9_sum_eltwise_top_L2_b9_relu_0_split <- L2_b9_sum_eltwise_top
I0817 16:12:05.107477 17389 net.cpp:408] L2_b9_sum_eltwise_top_L2_b9_relu_0_split -> L2_b9_sum_eltwise_top_L2_b9_relu_0_split_0
I0817 16:12:05.107487 17389 net.cpp:408] L2_b9_sum_eltwise_top_L2_b9_relu_0_split -> L2_b9_sum_eltwise_top_L2_b9_relu_0_split_1
I0817 16:12:05.107542 17389 net.cpp:150] Setting up L2_b9_sum_eltwise_top_L2_b9_relu_0_split
I0817 16:12:05.107555 17389 net.cpp:157] Top shape: 125 32 16 16 (1024000)
I0817 16:12:05.107563 17389 net.cpp:157] Top shape: 125 32 16 16 (1024000)
I0817 16:12:05.107566 17389 net.cpp:165] Memory required for data: 1256961500
I0817 16:12:05.107571 17389 layer_factory.hpp:77] Creating layer L3_b1_cbr1_conv
I0817 16:12:05.107583 17389 net.cpp:100] Creating Layer L3_b1_cbr1_conv
I0817 16:12:05.107589 17389 net.cpp:434] L3_b1_cbr1_conv <- L2_b9_sum_eltwise_top_L2_b9_relu_0_split_0
I0817 16:12:05.107601 17389 net.cpp:408] L3_b1_cbr1_conv -> L3_b1_cbr1_conv_top
I0817 16:12:05.108072 17389 net.cpp:150] Setting up L3_b1_cbr1_conv
I0817 16:12:05.108088 17389 net.cpp:157] Top shape: 125 32 8 8 (256000)
I0817 16:12:05.108093 17389 net.cpp:165] Memory required for data: 1257985500
I0817 16:12:05.108101 17389 layer_factory.hpp:77] Creating layer L3_b1_cbr1_bn
I0817 16:12:05.108113 17389 net.cpp:100] Creating Layer L3_b1_cbr1_bn
I0817 16:12:05.108119 17389 net.cpp:434] L3_b1_cbr1_bn <- L3_b1_cbr1_conv_top
I0817 16:12:05.108127 17389 net.cpp:408] L3_b1_cbr1_bn -> L3_b1_cbr1_bn_top
I0817 16:12:05.108392 17389 net.cpp:150] Setting up L3_b1_cbr1_bn
I0817 16:12:05.108404 17389 net.cpp:157] Top shape: 125 32 8 8 (256000)
I0817 16:12:05.108410 17389 net.cpp:165] Memory required for data: 1259009500
I0817 16:12:05.108420 17389 layer_factory.hpp:77] Creating layer L3_b1_cbr1_scale
I0817 16:12:05.108429 17389 net.cpp:100] Creating Layer L3_b1_cbr1_scale
I0817 16:12:05.108435 17389 net.cpp:434] L3_b1_cbr1_scale <- L3_b1_cbr1_bn_top
I0817 16:12:05.108443 17389 net.cpp:395] L3_b1_cbr1_scale -> L3_b1_cbr1_bn_top (in-place)
I0817 16:12:05.108507 17389 layer_factory.hpp:77] Creating layer L3_b1_cbr1_scale
I0817 16:12:05.108664 17389 net.cpp:150] Setting up L3_b1_cbr1_scale
I0817 16:12:05.108675 17389 net.cpp:157] Top shape: 125 32 8 8 (256000)
I0817 16:12:05.108680 17389 net.cpp:165] Memory required for data: 1260033500
I0817 16:12:05.108690 17389 layer_factory.hpp:77] Creating layer L3_b1_cbr1_relu
I0817 16:12:05.108697 17389 net.cpp:100] Creating Layer L3_b1_cbr1_relu
I0817 16:12:05.108705 17389 net.cpp:434] L3_b1_cbr1_relu <- L3_b1_cbr1_bn_top
I0817 16:12:05.108711 17389 net.cpp:395] L3_b1_cbr1_relu -> L3_b1_cbr1_bn_top (in-place)
I0817 16:12:05.108721 17389 net.cpp:150] Setting up L3_b1_cbr1_relu
I0817 16:12:05.108727 17389 net.cpp:157] Top shape: 125 32 8 8 (256000)
I0817 16:12:05.108732 17389 net.cpp:165] Memory required for data: 1261057500
I0817 16:12:05.108737 17389 layer_factory.hpp:77] Creating layer L3_b1_cbr2_conv
I0817 16:12:05.108750 17389 net.cpp:100] Creating Layer L3_b1_cbr2_conv
I0817 16:12:05.108757 17389 net.cpp:434] L3_b1_cbr2_conv <- L3_b1_cbr1_bn_top
I0817 16:12:05.108768 17389 net.cpp:408] L3_b1_cbr2_conv -> L3_b1_cbr2_conv_top
I0817 16:12:05.109243 17389 net.cpp:150] Setting up L3_b1_cbr2_conv
I0817 16:12:05.109257 17389 net.cpp:157] Top shape: 125 32 8 8 (256000)
I0817 16:12:05.109262 17389 net.cpp:165] Memory required for data: 1262081500
I0817 16:12:05.109272 17389 layer_factory.hpp:77] Creating layer L3_b1_cbr2_bn
I0817 16:12:05.109283 17389 net.cpp:100] Creating Layer L3_b1_cbr2_bn
I0817 16:12:05.109289 17389 net.cpp:434] L3_b1_cbr2_bn <- L3_b1_cbr2_conv_top
I0817 16:12:05.109297 17389 net.cpp:408] L3_b1_cbr2_bn -> L3_b1_cbr2_bn_top
I0817 16:12:05.109561 17389 net.cpp:150] Setting up L3_b1_cbr2_bn
I0817 16:12:05.109575 17389 net.cpp:157] Top shape: 125 32 8 8 (256000)
I0817 16:12:05.109586 17389 net.cpp:165] Memory required for data: 1263105500
I0817 16:12:05.109597 17389 layer_factory.hpp:77] Creating layer L3_b1_cbr2_scale
I0817 16:12:05.109611 17389 net.cpp:100] Creating Layer L3_b1_cbr2_scale
I0817 16:12:05.109617 17389 net.cpp:434] L3_b1_cbr2_scale <- L3_b1_cbr2_bn_top
I0817 16:12:05.109625 17389 net.cpp:395] L3_b1_cbr2_scale -> L3_b1_cbr2_bn_top (in-place)
I0817 16:12:05.109684 17389 layer_factory.hpp:77] Creating layer L3_b1_cbr2_scale
I0817 16:12:05.109848 17389 net.cpp:150] Setting up L3_b1_cbr2_scale
I0817 16:12:05.109861 17389 net.cpp:157] Top shape: 125 32 8 8 (256000)
I0817 16:12:05.109866 17389 net.cpp:165] Memory required for data: 1264129500
I0817 16:12:05.109875 17389 layer_factory.hpp:77] Creating layer L3_b1_pool
I0817 16:12:05.109887 17389 net.cpp:100] Creating Layer L3_b1_pool
I0817 16:12:05.109894 17389 net.cpp:434] L3_b1_pool <- L2_b9_sum_eltwise_top_L2_b9_relu_0_split_1
I0817 16:12:05.109905 17389 net.cpp:408] L3_b1_pool -> L3_b1_pool
I0817 16:12:05.109938 17389 net.cpp:150] Setting up L3_b1_pool
I0817 16:12:05.109947 17389 net.cpp:157] Top shape: 125 32 8 8 (256000)
I0817 16:12:05.109951 17389 net.cpp:165] Memory required for data: 1265153500
I0817 16:12:05.109957 17389 layer_factory.hpp:77] Creating layer L3_b1_sum_eltwise
I0817 16:12:05.109968 17389 net.cpp:100] Creating Layer L3_b1_sum_eltwise
I0817 16:12:05.109975 17389 net.cpp:434] L3_b1_sum_eltwise <- L3_b1_cbr2_bn_top
I0817 16:12:05.109982 17389 net.cpp:434] L3_b1_sum_eltwise <- L3_b1_pool
I0817 16:12:05.109989 17389 net.cpp:408] L3_b1_sum_eltwise -> L3_b1_sum_eltwise_top
I0817 16:12:05.110020 17389 net.cpp:150] Setting up L3_b1_sum_eltwise
I0817 16:12:05.110029 17389 net.cpp:157] Top shape: 125 32 8 8 (256000)
I0817 16:12:05.110034 17389 net.cpp:165] Memory required for data: 1266177500
I0817 16:12:05.110039 17389 layer_factory.hpp:77] Creating layer L3_b1_relu
I0817 16:12:05.110046 17389 net.cpp:100] Creating Layer L3_b1_relu
I0817 16:12:05.110052 17389 net.cpp:434] L3_b1_relu <- L3_b1_sum_eltwise_top
I0817 16:12:05.110062 17389 net.cpp:395] L3_b1_relu -> L3_b1_sum_eltwise_top (in-place)
I0817 16:12:05.110072 17389 net.cpp:150] Setting up L3_b1_relu
I0817 16:12:05.110080 17389 net.cpp:157] Top shape: 125 32 8 8 (256000)
I0817 16:12:05.110083 17389 net.cpp:165] Memory required for data: 1267201500
I0817 16:12:05.110088 17389 layer_factory.hpp:77] Creating layer L3_b1_zeros
I0817 16:12:05.110098 17389 net.cpp:100] Creating Layer L3_b1_zeros
I0817 16:12:05.110105 17389 net.cpp:408] L3_b1_zeros -> L3_b1_zeros
I0817 16:12:05.111335 17389 net.cpp:150] Setting up L3_b1_zeros
I0817 16:12:05.111353 17389 net.cpp:157] Top shape: 125 32 8 8 (256000)
I0817 16:12:05.111358 17389 net.cpp:165] Memory required for data: 1268225500
I0817 16:12:05.111364 17389 layer_factory.hpp:77] Creating layer L3_b1_concat0
I0817 16:12:05.111377 17389 net.cpp:100] Creating Layer L3_b1_concat0
I0817 16:12:05.111383 17389 net.cpp:434] L3_b1_concat0 <- L3_b1_sum_eltwise_top
I0817 16:12:05.111392 17389 net.cpp:434] L3_b1_concat0 <- L3_b1_zeros
I0817 16:12:05.111399 17389 net.cpp:408] L3_b1_concat0 -> L3_b1_concat0
I0817 16:12:05.111443 17389 net.cpp:150] Setting up L3_b1_concat0
I0817 16:12:05.111454 17389 net.cpp:157] Top shape: 125 64 8 8 (512000)
I0817 16:12:05.111459 17389 net.cpp:165] Memory required for data: 1270273500
I0817 16:12:05.111464 17389 layer_factory.hpp:77] Creating layer L3_b1_concat0_L3_b1_concat0_0_split
I0817 16:12:05.111472 17389 net.cpp:100] Creating Layer L3_b1_concat0_L3_b1_concat0_0_split
I0817 16:12:05.111479 17389 net.cpp:434] L3_b1_concat0_L3_b1_concat0_0_split <- L3_b1_concat0
I0817 16:12:05.111490 17389 net.cpp:408] L3_b1_concat0_L3_b1_concat0_0_split -> L3_b1_concat0_L3_b1_concat0_0_split_0
I0817 16:12:05.111505 17389 net.cpp:408] L3_b1_concat0_L3_b1_concat0_0_split -> L3_b1_concat0_L3_b1_concat0_0_split_1
I0817 16:12:05.111557 17389 net.cpp:150] Setting up L3_b1_concat0_L3_b1_concat0_0_split
I0817 16:12:05.111573 17389 net.cpp:157] Top shape: 125 64 8 8 (512000)
I0817 16:12:05.111582 17389 net.cpp:157] Top shape: 125 64 8 8 (512000)
I0817 16:12:05.111593 17389 net.cpp:165] Memory required for data: 1274369500
I0817 16:12:05.111599 17389 layer_factory.hpp:77] Creating layer L3_b2_cbr1_conv
I0817 16:12:05.111611 17389 net.cpp:100] Creating Layer L3_b2_cbr1_conv
I0817 16:12:05.111618 17389 net.cpp:434] L3_b2_cbr1_conv <- L3_b1_concat0_L3_b1_concat0_0_split_0
I0817 16:12:05.111626 17389 net.cpp:408] L3_b2_cbr1_conv -> L3_b2_cbr1_conv_top
I0817 16:12:05.113641 17389 net.cpp:150] Setting up L3_b2_cbr1_conv
I0817 16:12:05.113657 17389 net.cpp:157] Top shape: 125 64 8 8 (512000)
I0817 16:12:05.113663 17389 net.cpp:165] Memory required for data: 1276417500
I0817 16:12:05.113672 17389 layer_factory.hpp:77] Creating layer L3_b2_cbr1_bn
I0817 16:12:05.113685 17389 net.cpp:100] Creating Layer L3_b2_cbr1_bn
I0817 16:12:05.113692 17389 net.cpp:434] L3_b2_cbr1_bn <- L3_b2_cbr1_conv_top
I0817 16:12:05.113704 17389 net.cpp:408] L3_b2_cbr1_bn -> L3_b2_cbr1_bn_top
I0817 16:12:05.113965 17389 net.cpp:150] Setting up L3_b2_cbr1_bn
I0817 16:12:05.113979 17389 net.cpp:157] Top shape: 125 64 8 8 (512000)
I0817 16:12:05.113984 17389 net.cpp:165] Memory required for data: 1278465500
I0817 16:12:05.113994 17389 layer_factory.hpp:77] Creating layer L3_b2_cbr1_scale
I0817 16:12:05.114003 17389 net.cpp:100] Creating Layer L3_b2_cbr1_scale
I0817 16:12:05.114011 17389 net.cpp:434] L3_b2_cbr1_scale <- L3_b2_cbr1_bn_top
I0817 16:12:05.114022 17389 net.cpp:395] L3_b2_cbr1_scale -> L3_b2_cbr1_bn_top (in-place)
I0817 16:12:05.114079 17389 layer_factory.hpp:77] Creating layer L3_b2_cbr1_scale
I0817 16:12:05.114235 17389 net.cpp:150] Setting up L3_b2_cbr1_scale
I0817 16:12:05.114248 17389 net.cpp:157] Top shape: 125 64 8 8 (512000)
I0817 16:12:05.114253 17389 net.cpp:165] Memory required for data: 1280513500
I0817 16:12:05.114262 17389 layer_factory.hpp:77] Creating layer L3_b2_cbr1_relu
I0817 16:12:05.114270 17389 net.cpp:100] Creating Layer L3_b2_cbr1_relu
I0817 16:12:05.114276 17389 net.cpp:434] L3_b2_cbr1_relu <- L3_b2_cbr1_bn_top
I0817 16:12:05.114286 17389 net.cpp:395] L3_b2_cbr1_relu -> L3_b2_cbr1_bn_top (in-place)
I0817 16:12:05.114296 17389 net.cpp:150] Setting up L3_b2_cbr1_relu
I0817 16:12:05.114303 17389 net.cpp:157] Top shape: 125 64 8 8 (512000)
I0817 16:12:05.114308 17389 net.cpp:165] Memory required for data: 1282561500
I0817 16:12:05.114313 17389 layer_factory.hpp:77] Creating layer L3_b2_cbr2_conv
I0817 16:12:05.114327 17389 net.cpp:100] Creating Layer L3_b2_cbr2_conv
I0817 16:12:05.114333 17389 net.cpp:434] L3_b2_cbr2_conv <- L3_b2_cbr1_bn_top
I0817 16:12:05.114342 17389 net.cpp:408] L3_b2_cbr2_conv -> L3_b2_cbr2_conv_top
I0817 16:12:05.115371 17389 net.cpp:150] Setting up L3_b2_cbr2_conv
I0817 16:12:05.115386 17389 net.cpp:157] Top shape: 125 64 8 8 (512000)
I0817 16:12:05.115391 17389 net.cpp:165] Memory required for data: 1284609500
I0817 16:12:05.115401 17389 layer_factory.hpp:77] Creating layer L3_b2_cbr2_bn
I0817 16:12:05.115412 17389 net.cpp:100] Creating Layer L3_b2_cbr2_bn
I0817 16:12:05.115419 17389 net.cpp:434] L3_b2_cbr2_bn <- L3_b2_cbr2_conv_top
I0817 16:12:05.115427 17389 net.cpp:408] L3_b2_cbr2_bn -> L3_b2_cbr2_bn_top
I0817 16:12:05.115715 17389 net.cpp:150] Setting up L3_b2_cbr2_bn
I0817 16:12:05.115728 17389 net.cpp:157] Top shape: 125 64 8 8 (512000)
I0817 16:12:05.115733 17389 net.cpp:165] Memory required for data: 1286657500
I0817 16:12:05.115744 17389 layer_factory.hpp:77] Creating layer L3_b2_cbr2_scale
I0817 16:12:05.115756 17389 net.cpp:100] Creating Layer L3_b2_cbr2_scale
I0817 16:12:05.115762 17389 net.cpp:434] L3_b2_cbr2_scale <- L3_b2_cbr2_bn_top
I0817 16:12:05.115770 17389 net.cpp:395] L3_b2_cbr2_scale -> L3_b2_cbr2_bn_top (in-place)
I0817 16:12:05.115830 17389 layer_factory.hpp:77] Creating layer L3_b2_cbr2_scale
I0817 16:12:05.115993 17389 net.cpp:150] Setting up L3_b2_cbr2_scale
I0817 16:12:05.116004 17389 net.cpp:157] Top shape: 125 64 8 8 (512000)
I0817 16:12:05.116010 17389 net.cpp:165] Memory required for data: 1288705500
I0817 16:12:05.116019 17389 layer_factory.hpp:77] Creating layer L3_b2_sum_eltwise
I0817 16:12:05.116036 17389 net.cpp:100] Creating Layer L3_b2_sum_eltwise
I0817 16:12:05.116044 17389 net.cpp:434] L3_b2_sum_eltwise <- L3_b2_cbr2_bn_top
I0817 16:12:05.116051 17389 net.cpp:434] L3_b2_sum_eltwise <- L3_b1_concat0_L3_b1_concat0_0_split_1
I0817 16:12:05.116062 17389 net.cpp:408] L3_b2_sum_eltwise -> L3_b2_sum_eltwise_top
I0817 16:12:05.116096 17389 net.cpp:150] Setting up L3_b2_sum_eltwise
I0817 16:12:05.116106 17389 net.cpp:157] Top shape: 125 64 8 8 (512000)
I0817 16:12:05.116111 17389 net.cpp:165] Memory required for data: 1290753500
I0817 16:12:05.116116 17389 layer_factory.hpp:77] Creating layer L3_b2_relu
I0817 16:12:05.116127 17389 net.cpp:100] Creating Layer L3_b2_relu
I0817 16:12:05.116134 17389 net.cpp:434] L3_b2_relu <- L3_b2_sum_eltwise_top
I0817 16:12:05.116142 17389 net.cpp:395] L3_b2_relu -> L3_b2_sum_eltwise_top (in-place)
I0817 16:12:05.116152 17389 net.cpp:150] Setting up L3_b2_relu
I0817 16:12:05.116158 17389 net.cpp:157] Top shape: 125 64 8 8 (512000)
I0817 16:12:05.116163 17389 net.cpp:165] Memory required for data: 1292801500
I0817 16:12:05.116168 17389 layer_factory.hpp:77] Creating layer L3_b2_sum_eltwise_top_L3_b2_relu_0_split
I0817 16:12:05.116175 17389 net.cpp:100] Creating Layer L3_b2_sum_eltwise_top_L3_b2_relu_0_split
I0817 16:12:05.116180 17389 net.cpp:434] L3_b2_sum_eltwise_top_L3_b2_relu_0_split <- L3_b2_sum_eltwise_top
I0817 16:12:05.116189 17389 net.cpp:408] L3_b2_sum_eltwise_top_L3_b2_relu_0_split -> L3_b2_sum_eltwise_top_L3_b2_relu_0_split_0
I0817 16:12:05.116197 17389 net.cpp:408] L3_b2_sum_eltwise_top_L3_b2_relu_0_split -> L3_b2_sum_eltwise_top_L3_b2_relu_0_split_1
I0817 16:12:05.116247 17389 net.cpp:150] Setting up L3_b2_sum_eltwise_top_L3_b2_relu_0_split
I0817 16:12:05.116259 17389 net.cpp:157] Top shape: 125 64 8 8 (512000)
I0817 16:12:05.116266 17389 net.cpp:157] Top shape: 125 64 8 8 (512000)
I0817 16:12:05.116271 17389 net.cpp:165] Memory required for data: 1296897500
I0817 16:12:05.116276 17389 layer_factory.hpp:77] Creating layer L3_b3_cbr1_conv
I0817 16:12:05.116291 17389 net.cpp:100] Creating Layer L3_b3_cbr1_conv
I0817 16:12:05.116297 17389 net.cpp:434] L3_b3_cbr1_conv <- L3_b2_sum_eltwise_top_L3_b2_relu_0_split_0
I0817 16:12:05.116307 17389 net.cpp:408] L3_b3_cbr1_conv -> L3_b3_cbr1_conv_top
I0817 16:12:05.117331 17389 net.cpp:150] Setting up L3_b3_cbr1_conv
I0817 16:12:05.117347 17389 net.cpp:157] Top shape: 125 64 8 8 (512000)
I0817 16:12:05.117352 17389 net.cpp:165] Memory required for data: 1298945500
I0817 16:12:05.117360 17389 layer_factory.hpp:77] Creating layer L3_b3_cbr1_bn
I0817 16:12:05.117372 17389 net.cpp:100] Creating Layer L3_b3_cbr1_bn
I0817 16:12:05.117379 17389 net.cpp:434] L3_b3_cbr1_bn <- L3_b3_cbr1_conv_top
I0817 16:12:05.117390 17389 net.cpp:408] L3_b3_cbr1_bn -> L3_b3_cbr1_bn_top
I0817 16:12:05.117660 17389 net.cpp:150] Setting up L3_b3_cbr1_bn
I0817 16:12:05.117672 17389 net.cpp:157] Top shape: 125 64 8 8 (512000)
I0817 16:12:05.117677 17389 net.cpp:165] Memory required for data: 1300993500
I0817 16:12:05.117687 17389 layer_factory.hpp:77] Creating layer L3_b3_cbr1_scale
I0817 16:12:05.117697 17389 net.cpp:100] Creating Layer L3_b3_cbr1_scale
I0817 16:12:05.117702 17389 net.cpp:434] L3_b3_cbr1_scale <- L3_b3_cbr1_bn_top
I0817 16:12:05.117714 17389 net.cpp:395] L3_b3_cbr1_scale -> L3_b3_cbr1_bn_top (in-place)
I0817 16:12:05.117772 17389 layer_factory.hpp:77] Creating layer L3_b3_cbr1_scale
I0817 16:12:05.117933 17389 net.cpp:150] Setting up L3_b3_cbr1_scale
I0817 16:12:05.117944 17389 net.cpp:157] Top shape: 125 64 8 8 (512000)
I0817 16:12:05.117949 17389 net.cpp:165] Memory required for data: 1303041500
I0817 16:12:05.117959 17389 layer_factory.hpp:77] Creating layer L3_b3_cbr1_relu
I0817 16:12:05.117966 17389 net.cpp:100] Creating Layer L3_b3_cbr1_relu
I0817 16:12:05.117972 17389 net.cpp:434] L3_b3_cbr1_relu <- L3_b3_cbr1_bn_top
I0817 16:12:05.117983 17389 net.cpp:395] L3_b3_cbr1_relu -> L3_b3_cbr1_bn_top (in-place)
I0817 16:12:05.117993 17389 net.cpp:150] Setting up L3_b3_cbr1_relu
I0817 16:12:05.118000 17389 net.cpp:157] Top shape: 125 64 8 8 (512000)
I0817 16:12:05.118011 17389 net.cpp:165] Memory required for data: 1305089500
I0817 16:12:05.118017 17389 layer_factory.hpp:77] Creating layer L3_b3_cbr2_conv
I0817 16:12:05.118031 17389 net.cpp:100] Creating Layer L3_b3_cbr2_conv
I0817 16:12:05.118036 17389 net.cpp:434] L3_b3_cbr2_conv <- L3_b3_cbr1_bn_top
I0817 16:12:05.118046 17389 net.cpp:408] L3_b3_cbr2_conv -> L3_b3_cbr2_conv_top
I0817 16:12:05.119150 17389 net.cpp:150] Setting up L3_b3_cbr2_conv
I0817 16:12:05.119168 17389 net.cpp:157] Top shape: 125 64 8 8 (512000)
I0817 16:12:05.119173 17389 net.cpp:165] Memory required for data: 1307137500
I0817 16:12:05.119182 17389 layer_factory.hpp:77] Creating layer L3_b3_cbr2_bn
I0817 16:12:05.119194 17389 net.cpp:100] Creating Layer L3_b3_cbr2_bn
I0817 16:12:05.119201 17389 net.cpp:434] L3_b3_cbr2_bn <- L3_b3_cbr2_conv_top
I0817 16:12:05.119210 17389 net.cpp:408] L3_b3_cbr2_bn -> L3_b3_cbr2_bn_top
I0817 16:12:05.119484 17389 net.cpp:150] Setting up L3_b3_cbr2_bn
I0817 16:12:05.119503 17389 net.cpp:157] Top shape: 125 64 8 8 (512000)
I0817 16:12:05.119509 17389 net.cpp:165] Memory required for data: 1309185500
I0817 16:12:05.119519 17389 layer_factory.hpp:77] Creating layer L3_b3_cbr2_scale
I0817 16:12:05.119531 17389 net.cpp:100] Creating Layer L3_b3_cbr2_scale
I0817 16:12:05.119539 17389 net.cpp:434] L3_b3_cbr2_scale <- L3_b3_cbr2_bn_top
I0817 16:12:05.119549 17389 net.cpp:395] L3_b3_cbr2_scale -> L3_b3_cbr2_bn_top (in-place)
I0817 16:12:05.119608 17389 layer_factory.hpp:77] Creating layer L3_b3_cbr2_scale
I0817 16:12:05.119771 17389 net.cpp:150] Setting up L3_b3_cbr2_scale
I0817 16:12:05.119783 17389 net.cpp:157] Top shape: 125 64 8 8 (512000)
I0817 16:12:05.119788 17389 net.cpp:165] Memory required for data: 1311233500
I0817 16:12:05.119797 17389 layer_factory.hpp:77] Creating layer L3_b3_sum_eltwise
I0817 16:12:05.119807 17389 net.cpp:100] Creating Layer L3_b3_sum_eltwise
I0817 16:12:05.119813 17389 net.cpp:434] L3_b3_sum_eltwise <- L3_b3_cbr2_bn_top
I0817 16:12:05.119820 17389 net.cpp:434] L3_b3_sum_eltwise <- L3_b2_sum_eltwise_top_L3_b2_relu_0_split_1
I0817 16:12:05.119832 17389 net.cpp:408] L3_b3_sum_eltwise -> L3_b3_sum_eltwise_top
I0817 16:12:05.119865 17389 net.cpp:150] Setting up L3_b3_sum_eltwise
I0817 16:12:05.119876 17389 net.cpp:157] Top shape: 125 64 8 8 (512000)
I0817 16:12:05.119881 17389 net.cpp:165] Memory required for data: 1313281500
I0817 16:12:05.119886 17389 layer_factory.hpp:77] Creating layer L3_b3_relu
I0817 16:12:05.119897 17389 net.cpp:100] Creating Layer L3_b3_relu
I0817 16:12:05.119904 17389 net.cpp:434] L3_b3_relu <- L3_b3_sum_eltwise_top
I0817 16:12:05.119910 17389 net.cpp:395] L3_b3_relu -> L3_b3_sum_eltwise_top (in-place)
I0817 16:12:05.119920 17389 net.cpp:150] Setting up L3_b3_relu
I0817 16:12:05.119927 17389 net.cpp:157] Top shape: 125 64 8 8 (512000)
I0817 16:12:05.119931 17389 net.cpp:165] Memory required for data: 1315329500
I0817 16:12:05.119936 17389 layer_factory.hpp:77] Creating layer L3_b3_sum_eltwise_top_L3_b3_relu_0_split
I0817 16:12:05.119943 17389 net.cpp:100] Creating Layer L3_b3_sum_eltwise_top_L3_b3_relu_0_split
I0817 16:12:05.119949 17389 net.cpp:434] L3_b3_sum_eltwise_top_L3_b3_relu_0_split <- L3_b3_sum_eltwise_top
I0817 16:12:05.119956 17389 net.cpp:408] L3_b3_sum_eltwise_top_L3_b3_relu_0_split -> L3_b3_sum_eltwise_top_L3_b3_relu_0_split_0
I0817 16:12:05.119966 17389 net.cpp:408] L3_b3_sum_eltwise_top_L3_b3_relu_0_split -> L3_b3_sum_eltwise_top_L3_b3_relu_0_split_1
I0817 16:12:05.120018 17389 net.cpp:150] Setting up L3_b3_sum_eltwise_top_L3_b3_relu_0_split
I0817 16:12:05.120030 17389 net.cpp:157] Top shape: 125 64 8 8 (512000)
I0817 16:12:05.120038 17389 net.cpp:157] Top shape: 125 64 8 8 (512000)
I0817 16:12:05.120041 17389 net.cpp:165] Memory required for data: 1319425500
I0817 16:12:05.120046 17389 layer_factory.hpp:77] Creating layer L3_b4_cbr1_conv
I0817 16:12:05.120060 17389 net.cpp:100] Creating Layer L3_b4_cbr1_conv
I0817 16:12:05.120067 17389 net.cpp:434] L3_b4_cbr1_conv <- L3_b3_sum_eltwise_top_L3_b3_relu_0_split_0
I0817 16:12:05.120076 17389 net.cpp:408] L3_b4_cbr1_conv -> L3_b4_cbr1_conv_top
I0817 16:12:05.121106 17389 net.cpp:150] Setting up L3_b4_cbr1_conv
I0817 16:12:05.121121 17389 net.cpp:157] Top shape: 125 64 8 8 (512000)
I0817 16:12:05.121126 17389 net.cpp:165] Memory required for data: 1321473500
I0817 16:12:05.121135 17389 layer_factory.hpp:77] Creating layer L3_b4_cbr1_bn
I0817 16:12:05.121147 17389 net.cpp:100] Creating Layer L3_b4_cbr1_bn
I0817 16:12:05.121155 17389 net.cpp:434] L3_b4_cbr1_bn <- L3_b4_cbr1_conv_top
I0817 16:12:05.121165 17389 net.cpp:408] L3_b4_cbr1_bn -> L3_b4_cbr1_bn_top
I0817 16:12:05.121436 17389 net.cpp:150] Setting up L3_b4_cbr1_bn
I0817 16:12:05.121449 17389 net.cpp:157] Top shape: 125 64 8 8 (512000)
I0817 16:12:05.121454 17389 net.cpp:165] Memory required for data: 1323521500
I0817 16:12:05.121464 17389 layer_factory.hpp:77] Creating layer L3_b4_cbr1_scale
I0817 16:12:05.121474 17389 net.cpp:100] Creating Layer L3_b4_cbr1_scale
I0817 16:12:05.121479 17389 net.cpp:434] L3_b4_cbr1_scale <- L3_b4_cbr1_bn_top
I0817 16:12:05.121490 17389 net.cpp:395] L3_b4_cbr1_scale -> L3_b4_cbr1_bn_top (in-place)
I0817 16:12:05.121556 17389 layer_factory.hpp:77] Creating layer L3_b4_cbr1_scale
I0817 16:12:05.121717 17389 net.cpp:150] Setting up L3_b4_cbr1_scale
I0817 16:12:05.121731 17389 net.cpp:157] Top shape: 125 64 8 8 (512000)
I0817 16:12:05.121736 17389 net.cpp:165] Memory required for data: 1325569500
I0817 16:12:05.121745 17389 layer_factory.hpp:77] Creating layer L3_b4_cbr1_relu
I0817 16:12:05.121753 17389 net.cpp:100] Creating Layer L3_b4_cbr1_relu
I0817 16:12:05.121759 17389 net.cpp:434] L3_b4_cbr1_relu <- L3_b4_cbr1_bn_top
I0817 16:12:05.121769 17389 net.cpp:395] L3_b4_cbr1_relu -> L3_b4_cbr1_bn_top (in-place)
I0817 16:12:05.121779 17389 net.cpp:150] Setting up L3_b4_cbr1_relu
I0817 16:12:05.121786 17389 net.cpp:157] Top shape: 125 64 8 8 (512000)
I0817 16:12:05.121791 17389 net.cpp:165] Memory required for data: 1327617500
I0817 16:12:05.121796 17389 layer_factory.hpp:77] Creating layer L3_b4_cbr2_conv
I0817 16:12:05.121809 17389 net.cpp:100] Creating Layer L3_b4_cbr2_conv
I0817 16:12:05.121816 17389 net.cpp:434] L3_b4_cbr2_conv <- L3_b4_cbr1_bn_top
I0817 16:12:05.121824 17389 net.cpp:408] L3_b4_cbr2_conv -> L3_b4_cbr2_conv_top
I0817 16:12:05.122859 17389 net.cpp:150] Setting up L3_b4_cbr2_conv
I0817 16:12:05.122875 17389 net.cpp:157] Top shape: 125 64 8 8 (512000)
I0817 16:12:05.122880 17389 net.cpp:165] Memory required for data: 1329665500
I0817 16:12:05.122889 17389 layer_factory.hpp:77] Creating layer L3_b4_cbr2_bn
I0817 16:12:05.122898 17389 net.cpp:100] Creating Layer L3_b4_cbr2_bn
I0817 16:12:05.122905 17389 net.cpp:434] L3_b4_cbr2_bn <- L3_b4_cbr2_conv_top
I0817 16:12:05.122916 17389 net.cpp:408] L3_b4_cbr2_bn -> L3_b4_cbr2_bn_top
I0817 16:12:05.123191 17389 net.cpp:150] Setting up L3_b4_cbr2_bn
I0817 16:12:05.123204 17389 net.cpp:157] Top shape: 125 64 8 8 (512000)
I0817 16:12:05.123209 17389 net.cpp:165] Memory required for data: 1331713500
I0817 16:12:05.123219 17389 layer_factory.hpp:77] Creating layer L3_b4_cbr2_scale
I0817 16:12:05.123230 17389 net.cpp:100] Creating Layer L3_b4_cbr2_scale
I0817 16:12:05.123237 17389 net.cpp:434] L3_b4_cbr2_scale <- L3_b4_cbr2_bn_top
I0817 16:12:05.123245 17389 net.cpp:395] L3_b4_cbr2_scale -> L3_b4_cbr2_bn_top (in-place)
I0817 16:12:05.123304 17389 layer_factory.hpp:77] Creating layer L3_b4_cbr2_scale
I0817 16:12:05.123469 17389 net.cpp:150] Setting up L3_b4_cbr2_scale
I0817 16:12:05.123482 17389 net.cpp:157] Top shape: 125 64 8 8 (512000)
I0817 16:12:05.123487 17389 net.cpp:165] Memory required for data: 1333761500
I0817 16:12:05.123502 17389 layer_factory.hpp:77] Creating layer L3_b4_sum_eltwise
I0817 16:12:05.123512 17389 net.cpp:100] Creating Layer L3_b4_sum_eltwise
I0817 16:12:05.123518 17389 net.cpp:434] L3_b4_sum_eltwise <- L3_b4_cbr2_bn_top
I0817 16:12:05.123525 17389 net.cpp:434] L3_b4_sum_eltwise <- L3_b3_sum_eltwise_top_L3_b3_relu_0_split_1
I0817 16:12:05.123538 17389 net.cpp:408] L3_b4_sum_eltwise -> L3_b4_sum_eltwise_top
I0817 16:12:05.123571 17389 net.cpp:150] Setting up L3_b4_sum_eltwise
I0817 16:12:05.123587 17389 net.cpp:157] Top shape: 125 64 8 8 (512000)
I0817 16:12:05.123594 17389 net.cpp:165] Memory required for data: 1335809500
I0817 16:12:05.123598 17389 layer_factory.hpp:77] Creating layer L3_b4_relu
I0817 16:12:05.123610 17389 net.cpp:100] Creating Layer L3_b4_relu
I0817 16:12:05.123616 17389 net.cpp:434] L3_b4_relu <- L3_b4_sum_eltwise_top
I0817 16:12:05.123623 17389 net.cpp:395] L3_b4_relu -> L3_b4_sum_eltwise_top (in-place)
I0817 16:12:05.123632 17389 net.cpp:150] Setting up L3_b4_relu
I0817 16:12:05.123641 17389 net.cpp:157] Top shape: 125 64 8 8 (512000)
I0817 16:12:05.123644 17389 net.cpp:165] Memory required for data: 1337857500
I0817 16:12:05.123649 17389 layer_factory.hpp:77] Creating layer L3_b4_sum_eltwise_top_L3_b4_relu_0_split
I0817 16:12:05.123656 17389 net.cpp:100] Creating Layer L3_b4_sum_eltwise_top_L3_b4_relu_0_split
I0817 16:12:05.123662 17389 net.cpp:434] L3_b4_sum_eltwise_top_L3_b4_relu_0_split <- L3_b4_sum_eltwise_top
I0817 16:12:05.123669 17389 net.cpp:408] L3_b4_sum_eltwise_top_L3_b4_relu_0_split -> L3_b4_sum_eltwise_top_L3_b4_relu_0_split_0
I0817 16:12:05.123679 17389 net.cpp:408] L3_b4_sum_eltwise_top_L3_b4_relu_0_split -> L3_b4_sum_eltwise_top_L3_b4_relu_0_split_1
I0817 16:12:05.123729 17389 net.cpp:150] Setting up L3_b4_sum_eltwise_top_L3_b4_relu_0_split
I0817 16:12:05.123741 17389 net.cpp:157] Top shape: 125 64 8 8 (512000)
I0817 16:12:05.123749 17389 net.cpp:157] Top shape: 125 64 8 8 (512000)
I0817 16:12:05.123754 17389 net.cpp:165] Memory required for data: 1341953500
I0817 16:12:05.123759 17389 layer_factory.hpp:77] Creating layer L3_b5_cbr1_conv
I0817 16:12:05.123772 17389 net.cpp:100] Creating Layer L3_b5_cbr1_conv
I0817 16:12:05.123778 17389 net.cpp:434] L3_b5_cbr1_conv <- L3_b4_sum_eltwise_top_L3_b4_relu_0_split_0
I0817 16:12:05.123788 17389 net.cpp:408] L3_b5_cbr1_conv -> L3_b5_cbr1_conv_top
I0817 16:12:05.124814 17389 net.cpp:150] Setting up L3_b5_cbr1_conv
I0817 16:12:05.124830 17389 net.cpp:157] Top shape: 125 64 8 8 (512000)
I0817 16:12:05.124835 17389 net.cpp:165] Memory required for data: 1344001500
I0817 16:12:05.124842 17389 layer_factory.hpp:77] Creating layer L3_b5_cbr1_bn
I0817 16:12:05.124856 17389 net.cpp:100] Creating Layer L3_b5_cbr1_bn
I0817 16:12:05.124864 17389 net.cpp:434] L3_b5_cbr1_bn <- L3_b5_cbr1_conv_top
I0817 16:12:05.124876 17389 net.cpp:408] L3_b5_cbr1_bn -> L3_b5_cbr1_bn_top
I0817 16:12:05.126428 17389 net.cpp:150] Setting up L3_b5_cbr1_bn
I0817 16:12:05.126446 17389 net.cpp:157] Top shape: 125 64 8 8 (512000)
I0817 16:12:05.126451 17389 net.cpp:165] Memory required for data: 1346049500
I0817 16:12:05.126462 17389 layer_factory.hpp:77] Creating layer L3_b5_cbr1_scale
I0817 16:12:05.126476 17389 net.cpp:100] Creating Layer L3_b5_cbr1_scale
I0817 16:12:05.126482 17389 net.cpp:434] L3_b5_cbr1_scale <- L3_b5_cbr1_bn_top
I0817 16:12:05.126493 17389 net.cpp:395] L3_b5_cbr1_scale -> L3_b5_cbr1_bn_top (in-place)
I0817 16:12:05.126564 17389 layer_factory.hpp:77] Creating layer L3_b5_cbr1_scale
I0817 16:12:05.126724 17389 net.cpp:150] Setting up L3_b5_cbr1_scale
I0817 16:12:05.126737 17389 net.cpp:157] Top shape: 125 64 8 8 (512000)
I0817 16:12:05.126742 17389 net.cpp:165] Memory required for data: 1348097500
I0817 16:12:05.126751 17389 layer_factory.hpp:77] Creating layer L3_b5_cbr1_relu
I0817 16:12:05.126760 17389 net.cpp:100] Creating Layer L3_b5_cbr1_relu
I0817 16:12:05.126765 17389 net.cpp:434] L3_b5_cbr1_relu <- L3_b5_cbr1_bn_top
I0817 16:12:05.126776 17389 net.cpp:395] L3_b5_cbr1_relu -> L3_b5_cbr1_bn_top (in-place)
I0817 16:12:05.126786 17389 net.cpp:150] Setting up L3_b5_cbr1_relu
I0817 16:12:05.126793 17389 net.cpp:157] Top shape: 125 64 8 8 (512000)
I0817 16:12:05.126798 17389 net.cpp:165] Memory required for data: 1350145500
I0817 16:12:05.126803 17389 layer_factory.hpp:77] Creating layer L3_b5_cbr2_conv
I0817 16:12:05.126817 17389 net.cpp:100] Creating Layer L3_b5_cbr2_conv
I0817 16:12:05.126824 17389 net.cpp:434] L3_b5_cbr2_conv <- L3_b5_cbr1_bn_top
I0817 16:12:05.126833 17389 net.cpp:408] L3_b5_cbr2_conv -> L3_b5_cbr2_conv_top
I0817 16:12:05.128844 17389 net.cpp:150] Setting up L3_b5_cbr2_conv
I0817 16:12:05.128861 17389 net.cpp:157] Top shape: 125 64 8 8 (512000)
I0817 16:12:05.128866 17389 net.cpp:165] Memory required for data: 1352193500
I0817 16:12:05.128875 17389 layer_factory.hpp:77] Creating layer L3_b5_cbr2_bn
I0817 16:12:05.128888 17389 net.cpp:100] Creating Layer L3_b5_cbr2_bn
I0817 16:12:05.128895 17389 net.cpp:434] L3_b5_cbr2_bn <- L3_b5_cbr2_conv_top
I0817 16:12:05.128904 17389 net.cpp:408] L3_b5_cbr2_bn -> L3_b5_cbr2_bn_top
I0817 16:12:05.129165 17389 net.cpp:150] Setting up L3_b5_cbr2_bn
I0817 16:12:05.129179 17389 net.cpp:157] Top shape: 125 64 8 8 (512000)
I0817 16:12:05.129184 17389 net.cpp:165] Memory required for data: 1354241500
I0817 16:12:05.129194 17389 layer_factory.hpp:77] Creating layer L3_b5_cbr2_scale
I0817 16:12:05.129205 17389 net.cpp:100] Creating Layer L3_b5_cbr2_scale
I0817 16:12:05.129212 17389 net.cpp:434] L3_b5_cbr2_scale <- L3_b5_cbr2_bn_top
I0817 16:12:05.129223 17389 net.cpp:395] L3_b5_cbr2_scale -> L3_b5_cbr2_bn_top (in-place)
I0817 16:12:05.129281 17389 layer_factory.hpp:77] Creating layer L3_b5_cbr2_scale
I0817 16:12:05.129437 17389 net.cpp:150] Setting up L3_b5_cbr2_scale
I0817 16:12:05.129451 17389 net.cpp:157] Top shape: 125 64 8 8 (512000)
I0817 16:12:05.129456 17389 net.cpp:165] Memory required for data: 1356289500
I0817 16:12:05.129464 17389 layer_factory.hpp:77] Creating layer L3_b5_sum_eltwise
I0817 16:12:05.129473 17389 net.cpp:100] Creating Layer L3_b5_sum_eltwise
I0817 16:12:05.129480 17389 net.cpp:434] L3_b5_sum_eltwise <- L3_b5_cbr2_bn_top
I0817 16:12:05.129487 17389 net.cpp:434] L3_b5_sum_eltwise <- L3_b4_sum_eltwise_top_L3_b4_relu_0_split_1
I0817 16:12:05.129504 17389 net.cpp:408] L3_b5_sum_eltwise -> L3_b5_sum_eltwise_top
I0817 16:12:05.129539 17389 net.cpp:150] Setting up L3_b5_sum_eltwise
I0817 16:12:05.129550 17389 net.cpp:157] Top shape: 125 64 8 8 (512000)
I0817 16:12:05.129555 17389 net.cpp:165] Memory required for data: 1358337500
I0817 16:12:05.129561 17389 layer_factory.hpp:77] Creating layer L3_b5_relu
I0817 16:12:05.129572 17389 net.cpp:100] Creating Layer L3_b5_relu
I0817 16:12:05.129578 17389 net.cpp:434] L3_b5_relu <- L3_b5_sum_eltwise_top
I0817 16:12:05.129585 17389 net.cpp:395] L3_b5_relu -> L3_b5_sum_eltwise_top (in-place)
I0817 16:12:05.129595 17389 net.cpp:150] Setting up L3_b5_relu
I0817 16:12:05.129602 17389 net.cpp:157] Top shape: 125 64 8 8 (512000)
I0817 16:12:05.129607 17389 net.cpp:165] Memory required for data: 1360385500
I0817 16:12:05.129611 17389 layer_factory.hpp:77] Creating layer L3_b5_sum_eltwise_top_L3_b5_relu_0_split
I0817 16:12:05.129618 17389 net.cpp:100] Creating Layer L3_b5_sum_eltwise_top_L3_b5_relu_0_split
I0817 16:12:05.129624 17389 net.cpp:434] L3_b5_sum_eltwise_top_L3_b5_relu_0_split <- L3_b5_sum_eltwise_top
I0817 16:12:05.129631 17389 net.cpp:408] L3_b5_sum_eltwise_top_L3_b5_relu_0_split -> L3_b5_sum_eltwise_top_L3_b5_relu_0_split_0
I0817 16:12:05.129642 17389 net.cpp:408] L3_b5_sum_eltwise_top_L3_b5_relu_0_split -> L3_b5_sum_eltwise_top_L3_b5_relu_0_split_1
I0817 16:12:05.129689 17389 net.cpp:150] Setting up L3_b5_sum_eltwise_top_L3_b5_relu_0_split
I0817 16:12:05.129701 17389 net.cpp:157] Top shape: 125 64 8 8 (512000)
I0817 16:12:05.129707 17389 net.cpp:157] Top shape: 125 64 8 8 (512000)
I0817 16:12:05.129712 17389 net.cpp:165] Memory required for data: 1364481500
I0817 16:12:05.129717 17389 layer_factory.hpp:77] Creating layer L3_b6_cbr1_conv
I0817 16:12:05.129731 17389 net.cpp:100] Creating Layer L3_b6_cbr1_conv
I0817 16:12:05.129739 17389 net.cpp:434] L3_b6_cbr1_conv <- L3_b5_sum_eltwise_top_L3_b5_relu_0_split_0
I0817 16:12:05.129747 17389 net.cpp:408] L3_b6_cbr1_conv -> L3_b6_cbr1_conv_top
I0817 16:12:05.130756 17389 net.cpp:150] Setting up L3_b6_cbr1_conv
I0817 16:12:05.130771 17389 net.cpp:157] Top shape: 125 64 8 8 (512000)
I0817 16:12:05.130776 17389 net.cpp:165] Memory required for data: 1366529500
I0817 16:12:05.130784 17389 layer_factory.hpp:77] Creating layer L3_b6_cbr1_bn
I0817 16:12:05.130798 17389 net.cpp:100] Creating Layer L3_b6_cbr1_bn
I0817 16:12:05.130812 17389 net.cpp:434] L3_b6_cbr1_bn <- L3_b6_cbr1_conv_top
I0817 16:12:05.130825 17389 net.cpp:408] L3_b6_cbr1_bn -> L3_b6_cbr1_bn_top
I0817 16:12:05.131078 17389 net.cpp:150] Setting up L3_b6_cbr1_bn
I0817 16:12:05.131091 17389 net.cpp:157] Top shape: 125 64 8 8 (512000)
I0817 16:12:05.131096 17389 net.cpp:165] Memory required for data: 1368577500
I0817 16:12:05.131106 17389 layer_factory.hpp:77] Creating layer L3_b6_cbr1_scale
I0817 16:12:05.131115 17389 net.cpp:100] Creating Layer L3_b6_cbr1_scale
I0817 16:12:05.131121 17389 net.cpp:434] L3_b6_cbr1_scale <- L3_b6_cbr1_bn_top
I0817 16:12:05.131134 17389 net.cpp:395] L3_b6_cbr1_scale -> L3_b6_cbr1_bn_top (in-place)
I0817 16:12:05.131192 17389 layer_factory.hpp:77] Creating layer L3_b6_cbr1_scale
I0817 16:12:05.131345 17389 net.cpp:150] Setting up L3_b6_cbr1_scale
I0817 16:12:05.131358 17389 net.cpp:157] Top shape: 125 64 8 8 (512000)
I0817 16:12:05.131363 17389 net.cpp:165] Memory required for data: 1370625500
I0817 16:12:05.131372 17389 layer_factory.hpp:77] Creating layer L3_b6_cbr1_relu
I0817 16:12:05.131381 17389 net.cpp:100] Creating Layer L3_b6_cbr1_relu
I0817 16:12:05.131386 17389 net.cpp:434] L3_b6_cbr1_relu <- L3_b6_cbr1_bn_top
I0817 16:12:05.131397 17389 net.cpp:395] L3_b6_cbr1_relu -> L3_b6_cbr1_bn_top (in-place)
I0817 16:12:05.131407 17389 net.cpp:150] Setting up L3_b6_cbr1_relu
I0817 16:12:05.131413 17389 net.cpp:157] Top shape: 125 64 8 8 (512000)
I0817 16:12:05.131418 17389 net.cpp:165] Memory required for data: 1372673500
I0817 16:12:05.131423 17389 layer_factory.hpp:77] Creating layer L3_b6_cbr2_conv
I0817 16:12:05.131436 17389 net.cpp:100] Creating Layer L3_b6_cbr2_conv
I0817 16:12:05.131443 17389 net.cpp:434] L3_b6_cbr2_conv <- L3_b6_cbr1_bn_top
I0817 16:12:05.131453 17389 net.cpp:408] L3_b6_cbr2_conv -> L3_b6_cbr2_conv_top
I0817 16:12:05.132459 17389 net.cpp:150] Setting up L3_b6_cbr2_conv
I0817 16:12:05.132474 17389 net.cpp:157] Top shape: 125 64 8 8 (512000)
I0817 16:12:05.132479 17389 net.cpp:165] Memory required for data: 1374721500
I0817 16:12:05.132488 17389 layer_factory.hpp:77] Creating layer L3_b6_cbr2_bn
I0817 16:12:05.132503 17389 net.cpp:100] Creating Layer L3_b6_cbr2_bn
I0817 16:12:05.132509 17389 net.cpp:434] L3_b6_cbr2_bn <- L3_b6_cbr2_conv_top
I0817 16:12:05.132524 17389 net.cpp:408] L3_b6_cbr2_bn -> L3_b6_cbr2_bn_top
I0817 16:12:05.132786 17389 net.cpp:150] Setting up L3_b6_cbr2_bn
I0817 16:12:05.132802 17389 net.cpp:157] Top shape: 125 64 8 8 (512000)
I0817 16:12:05.132807 17389 net.cpp:165] Memory required for data: 1376769500
I0817 16:12:05.132817 17389 layer_factory.hpp:77] Creating layer L3_b6_cbr2_scale
I0817 16:12:05.132827 17389 net.cpp:100] Creating Layer L3_b6_cbr2_scale
I0817 16:12:05.132833 17389 net.cpp:434] L3_b6_cbr2_scale <- L3_b6_cbr2_bn_top
I0817 16:12:05.132840 17389 net.cpp:395] L3_b6_cbr2_scale -> L3_b6_cbr2_bn_top (in-place)
I0817 16:12:05.132897 17389 layer_factory.hpp:77] Creating layer L3_b6_cbr2_scale
I0817 16:12:05.133050 17389 net.cpp:150] Setting up L3_b6_cbr2_scale
I0817 16:12:05.133064 17389 net.cpp:157] Top shape: 125 64 8 8 (512000)
I0817 16:12:05.133069 17389 net.cpp:165] Memory required for data: 1378817500
I0817 16:12:05.133077 17389 layer_factory.hpp:77] Creating layer L3_b6_sum_eltwise
I0817 16:12:05.133086 17389 net.cpp:100] Creating Layer L3_b6_sum_eltwise
I0817 16:12:05.133096 17389 net.cpp:434] L3_b6_sum_eltwise <- L3_b6_cbr2_bn_top
I0817 16:12:05.133103 17389 net.cpp:434] L3_b6_sum_eltwise <- L3_b5_sum_eltwise_top_L3_b5_relu_0_split_1
I0817 16:12:05.133111 17389 net.cpp:408] L3_b6_sum_eltwise -> L3_b6_sum_eltwise_top
I0817 16:12:05.133147 17389 net.cpp:150] Setting up L3_b6_sum_eltwise
I0817 16:12:05.133158 17389 net.cpp:157] Top shape: 125 64 8 8 (512000)
I0817 16:12:05.133163 17389 net.cpp:165] Memory required for data: 1380865500
I0817 16:12:05.133168 17389 layer_factory.hpp:77] Creating layer L3_b6_relu
I0817 16:12:05.133177 17389 net.cpp:100] Creating Layer L3_b6_relu
I0817 16:12:05.133183 17389 net.cpp:434] L3_b6_relu <- L3_b6_sum_eltwise_top
I0817 16:12:05.133199 17389 net.cpp:395] L3_b6_relu -> L3_b6_sum_eltwise_top (in-place)
I0817 16:12:05.133209 17389 net.cpp:150] Setting up L3_b6_relu
I0817 16:12:05.133216 17389 net.cpp:157] Top shape: 125 64 8 8 (512000)
I0817 16:12:05.133221 17389 net.cpp:165] Memory required for data: 1382913500
I0817 16:12:05.133225 17389 layer_factory.hpp:77] Creating layer L3_b6_sum_eltwise_top_L3_b6_relu_0_split
I0817 16:12:05.133232 17389 net.cpp:100] Creating Layer L3_b6_sum_eltwise_top_L3_b6_relu_0_split
I0817 16:12:05.133239 17389 net.cpp:434] L3_b6_sum_eltwise_top_L3_b6_relu_0_split <- L3_b6_sum_eltwise_top
I0817 16:12:05.133245 17389 net.cpp:408] L3_b6_sum_eltwise_top_L3_b6_relu_0_split -> L3_b6_sum_eltwise_top_L3_b6_relu_0_split_0
I0817 16:12:05.133255 17389 net.cpp:408] L3_b6_sum_eltwise_top_L3_b6_relu_0_split -> L3_b6_sum_eltwise_top_L3_b6_relu_0_split_1
I0817 16:12:05.133304 17389 net.cpp:150] Setting up L3_b6_sum_eltwise_top_L3_b6_relu_0_split
I0817 16:12:05.133316 17389 net.cpp:157] Top shape: 125 64 8 8 (512000)
I0817 16:12:05.133322 17389 net.cpp:157] Top shape: 125 64 8 8 (512000)
I0817 16:12:05.133327 17389 net.cpp:165] Memory required for data: 1387009500
I0817 16:12:05.133332 17389 layer_factory.hpp:77] Creating layer L3_b7_cbr1_conv
I0817 16:12:05.133345 17389 net.cpp:100] Creating Layer L3_b7_cbr1_conv
I0817 16:12:05.133352 17389 net.cpp:434] L3_b7_cbr1_conv <- L3_b6_sum_eltwise_top_L3_b6_relu_0_split_0
I0817 16:12:05.133361 17389 net.cpp:408] L3_b7_cbr1_conv -> L3_b7_cbr1_conv_top
I0817 16:12:05.134378 17389 net.cpp:150] Setting up L3_b7_cbr1_conv
I0817 16:12:05.134393 17389 net.cpp:157] Top shape: 125 64 8 8 (512000)
I0817 16:12:05.134398 17389 net.cpp:165] Memory required for data: 1389057500
I0817 16:12:05.134407 17389 layer_factory.hpp:77] Creating layer L3_b7_cbr1_bn
I0817 16:12:05.134416 17389 net.cpp:100] Creating Layer L3_b7_cbr1_bn
I0817 16:12:05.134423 17389 net.cpp:434] L3_b7_cbr1_bn <- L3_b7_cbr1_conv_top
I0817 16:12:05.134434 17389 net.cpp:408] L3_b7_cbr1_bn -> L3_b7_cbr1_bn_top
I0817 16:12:05.134697 17389 net.cpp:150] Setting up L3_b7_cbr1_bn
I0817 16:12:05.134711 17389 net.cpp:157] Top shape: 125 64 8 8 (512000)
I0817 16:12:05.134716 17389 net.cpp:165] Memory required for data: 1391105500
I0817 16:12:05.134727 17389 layer_factory.hpp:77] Creating layer L3_b7_cbr1_scale
I0817 16:12:05.134735 17389 net.cpp:100] Creating Layer L3_b7_cbr1_scale
I0817 16:12:05.134742 17389 net.cpp:434] L3_b7_cbr1_scale <- L3_b7_cbr1_bn_top
I0817 16:12:05.134752 17389 net.cpp:395] L3_b7_cbr1_scale -> L3_b7_cbr1_bn_top (in-place)
I0817 16:12:05.134810 17389 layer_factory.hpp:77] Creating layer L3_b7_cbr1_scale
I0817 16:12:05.134968 17389 net.cpp:150] Setting up L3_b7_cbr1_scale
I0817 16:12:05.134981 17389 net.cpp:157] Top shape: 125 64 8 8 (512000)
I0817 16:12:05.134986 17389 net.cpp:165] Memory required for data: 1393153500
I0817 16:12:05.134995 17389 layer_factory.hpp:77] Creating layer L3_b7_cbr1_relu
I0817 16:12:05.135030 17389 net.cpp:100] Creating Layer L3_b7_cbr1_relu
I0817 16:12:05.135040 17389 net.cpp:434] L3_b7_cbr1_relu <- L3_b7_cbr1_bn_top
I0817 16:12:05.135046 17389 net.cpp:395] L3_b7_cbr1_relu -> L3_b7_cbr1_bn_top (in-place)
I0817 16:12:05.135057 17389 net.cpp:150] Setting up L3_b7_cbr1_relu
I0817 16:12:05.135064 17389 net.cpp:157] Top shape: 125 64 8 8 (512000)
I0817 16:12:05.135069 17389 net.cpp:165] Memory required for data: 1395201500
I0817 16:12:05.135074 17389 layer_factory.hpp:77] Creating layer L3_b7_cbr2_conv
I0817 16:12:05.135085 17389 net.cpp:100] Creating Layer L3_b7_cbr2_conv
I0817 16:12:05.135092 17389 net.cpp:434] L3_b7_cbr2_conv <- L3_b7_cbr1_bn_top
I0817 16:12:05.135100 17389 net.cpp:408] L3_b7_cbr2_conv -> L3_b7_cbr2_conv_top
I0817 16:12:05.136126 17389 net.cpp:150] Setting up L3_b7_cbr2_conv
I0817 16:12:05.136140 17389 net.cpp:157] Top shape: 125 64 8 8 (512000)
I0817 16:12:05.136145 17389 net.cpp:165] Memory required for data: 1397249500
I0817 16:12:05.136154 17389 layer_factory.hpp:77] Creating layer L3_b7_cbr2_bn
I0817 16:12:05.136167 17389 net.cpp:100] Creating Layer L3_b7_cbr2_bn
I0817 16:12:05.136181 17389 net.cpp:434] L3_b7_cbr2_bn <- L3_b7_cbr2_conv_top
I0817 16:12:05.136193 17389 net.cpp:408] L3_b7_cbr2_bn -> L3_b7_cbr2_bn_top
I0817 16:12:05.136459 17389 net.cpp:150] Setting up L3_b7_cbr2_bn
I0817 16:12:05.136472 17389 net.cpp:157] Top shape: 125 64 8 8 (512000)
I0817 16:12:05.136477 17389 net.cpp:165] Memory required for data: 1399297500
I0817 16:12:05.136487 17389 layer_factory.hpp:77] Creating layer L3_b7_cbr2_scale
I0817 16:12:05.136504 17389 net.cpp:100] Creating Layer L3_b7_cbr2_scale
I0817 16:12:05.136515 17389 net.cpp:434] L3_b7_cbr2_scale <- L3_b7_cbr2_bn_top
I0817 16:12:05.136533 17389 net.cpp:395] L3_b7_cbr2_scale -> L3_b7_cbr2_bn_top (in-place)
I0817 16:12:05.136601 17389 layer_factory.hpp:77] Creating layer L3_b7_cbr2_scale
I0817 16:12:05.136760 17389 net.cpp:150] Setting up L3_b7_cbr2_scale
I0817 16:12:05.136773 17389 net.cpp:157] Top shape: 125 64 8 8 (512000)
I0817 16:12:05.136778 17389 net.cpp:165] Memory required for data: 1401345500
I0817 16:12:05.136787 17389 layer_factory.hpp:77] Creating layer L3_b7_sum_eltwise
I0817 16:12:05.136800 17389 net.cpp:100] Creating Layer L3_b7_sum_eltwise
I0817 16:12:05.136806 17389 net.cpp:434] L3_b7_sum_eltwise <- L3_b7_cbr2_bn_top
I0817 16:12:05.136813 17389 net.cpp:434] L3_b7_sum_eltwise <- L3_b6_sum_eltwise_top_L3_b6_relu_0_split_1
I0817 16:12:05.136821 17389 net.cpp:408] L3_b7_sum_eltwise -> L3_b7_sum_eltwise_top
I0817 16:12:05.136859 17389 net.cpp:150] Setting up L3_b7_sum_eltwise
I0817 16:12:05.136871 17389 net.cpp:157] Top shape: 125 64 8 8 (512000)
I0817 16:12:05.136876 17389 net.cpp:165] Memory required for data: 1403393500
I0817 16:12:05.136881 17389 layer_factory.hpp:77] Creating layer L3_b7_relu
I0817 16:12:05.136889 17389 net.cpp:100] Creating Layer L3_b7_relu
I0817 16:12:05.136895 17389 net.cpp:434] L3_b7_relu <- L3_b7_sum_eltwise_top
I0817 16:12:05.136905 17389 net.cpp:395] L3_b7_relu -> L3_b7_sum_eltwise_top (in-place)
I0817 16:12:05.136915 17389 net.cpp:150] Setting up L3_b7_relu
I0817 16:12:05.136922 17389 net.cpp:157] Top shape: 125 64 8 8 (512000)
I0817 16:12:05.136927 17389 net.cpp:165] Memory required for data: 1405441500
I0817 16:12:05.136931 17389 layer_factory.hpp:77] Creating layer L3_b7_sum_eltwise_top_L3_b7_relu_0_split
I0817 16:12:05.136939 17389 net.cpp:100] Creating Layer L3_b7_sum_eltwise_top_L3_b7_relu_0_split
I0817 16:12:05.136945 17389 net.cpp:434] L3_b7_sum_eltwise_top_L3_b7_relu_0_split <- L3_b7_sum_eltwise_top
I0817 16:12:05.136951 17389 net.cpp:408] L3_b7_sum_eltwise_top_L3_b7_relu_0_split -> L3_b7_sum_eltwise_top_L3_b7_relu_0_split_0
I0817 16:12:05.136960 17389 net.cpp:408] L3_b7_sum_eltwise_top_L3_b7_relu_0_split -> L3_b7_sum_eltwise_top_L3_b7_relu_0_split_1
I0817 16:12:05.137009 17389 net.cpp:150] Setting up L3_b7_sum_eltwise_top_L3_b7_relu_0_split
I0817 16:12:05.137022 17389 net.cpp:157] Top shape: 125 64 8 8 (512000)
I0817 16:12:05.137027 17389 net.cpp:157] Top shape: 125 64 8 8 (512000)
I0817 16:12:05.137032 17389 net.cpp:165] Memory required for data: 1409537500
I0817 16:12:05.137037 17389 layer_factory.hpp:77] Creating layer L3_b8_cbr1_conv
I0817 16:12:05.137048 17389 net.cpp:100] Creating Layer L3_b8_cbr1_conv
I0817 16:12:05.137055 17389 net.cpp:434] L3_b8_cbr1_conv <- L3_b7_sum_eltwise_top_L3_b7_relu_0_split_0
I0817 16:12:05.137068 17389 net.cpp:408] L3_b8_cbr1_conv -> L3_b8_cbr1_conv_top
I0817 16:12:05.138097 17389 net.cpp:150] Setting up L3_b8_cbr1_conv
I0817 16:12:05.138111 17389 net.cpp:157] Top shape: 125 64 8 8 (512000)
I0817 16:12:05.138116 17389 net.cpp:165] Memory required for data: 1411585500
I0817 16:12:05.138125 17389 layer_factory.hpp:77] Creating layer L3_b8_cbr1_bn
I0817 16:12:05.138134 17389 net.cpp:100] Creating Layer L3_b8_cbr1_bn
I0817 16:12:05.138141 17389 net.cpp:434] L3_b8_cbr1_bn <- L3_b8_cbr1_conv_top
I0817 16:12:05.138152 17389 net.cpp:408] L3_b8_cbr1_bn -> L3_b8_cbr1_bn_top
I0817 16:12:05.138423 17389 net.cpp:150] Setting up L3_b8_cbr1_bn
I0817 16:12:05.138437 17389 net.cpp:157] Top shape: 125 64 8 8 (512000)
I0817 16:12:05.138442 17389 net.cpp:165] Memory required for data: 1413633500
I0817 16:12:05.138459 17389 layer_factory.hpp:77] Creating layer L3_b8_cbr1_scale
I0817 16:12:05.138468 17389 net.cpp:100] Creating Layer L3_b8_cbr1_scale
I0817 16:12:05.138474 17389 net.cpp:434] L3_b8_cbr1_scale <- L3_b8_cbr1_bn_top
I0817 16:12:05.138483 17389 net.cpp:395] L3_b8_cbr1_scale -> L3_b8_cbr1_bn_top (in-place)
I0817 16:12:05.138700 17389 layer_factory.hpp:77] Creating layer L3_b8_cbr1_scale
I0817 16:12:05.138859 17389 net.cpp:150] Setting up L3_b8_cbr1_scale
I0817 16:12:05.138875 17389 net.cpp:157] Top shape: 125 64 8 8 (512000)
I0817 16:12:05.138881 17389 net.cpp:165] Memory required for data: 1415681500
I0817 16:12:05.138890 17389 layer_factory.hpp:77] Creating layer L3_b8_cbr1_relu
I0817 16:12:05.138898 17389 net.cpp:100] Creating Layer L3_b8_cbr1_relu
I0817 16:12:05.138906 17389 net.cpp:434] L3_b8_cbr1_relu <- L3_b8_cbr1_bn_top
I0817 16:12:05.138912 17389 net.cpp:395] L3_b8_cbr1_relu -> L3_b8_cbr1_bn_top (in-place)
I0817 16:12:05.138922 17389 net.cpp:150] Setting up L3_b8_cbr1_relu
I0817 16:12:05.138929 17389 net.cpp:157] Top shape: 125 64 8 8 (512000)
I0817 16:12:05.138934 17389 net.cpp:165] Memory required for data: 1417729500
I0817 16:12:05.138939 17389 layer_factory.hpp:77] Creating layer L3_b8_cbr2_conv
I0817 16:12:05.138953 17389 net.cpp:100] Creating Layer L3_b8_cbr2_conv
I0817 16:12:05.138959 17389 net.cpp:434] L3_b8_cbr2_conv <- L3_b8_cbr1_bn_top
I0817 16:12:05.138968 17389 net.cpp:408] L3_b8_cbr2_conv -> L3_b8_cbr2_conv_top
I0817 16:12:05.139988 17389 net.cpp:150] Setting up L3_b8_cbr2_conv
I0817 16:12:05.140003 17389 net.cpp:157] Top shape: 125 64 8 8 (512000)
I0817 16:12:05.140008 17389 net.cpp:165] Memory required for data: 1419777500
I0817 16:12:05.140017 17389 layer_factory.hpp:77] Creating layer L3_b8_cbr2_bn
I0817 16:12:05.140029 17389 net.cpp:100] Creating Layer L3_b8_cbr2_bn
I0817 16:12:05.140036 17389 net.cpp:434] L3_b8_cbr2_bn <- L3_b8_cbr2_conv_top
I0817 16:12:05.140048 17389 net.cpp:408] L3_b8_cbr2_bn -> L3_b8_cbr2_bn_top
I0817 16:12:05.140306 17389 net.cpp:150] Setting up L3_b8_cbr2_bn
I0817 16:12:05.140319 17389 net.cpp:157] Top shape: 125 64 8 8 (512000)
I0817 16:12:05.140326 17389 net.cpp:165] Memory required for data: 1421825500
I0817 16:12:05.140336 17389 layer_factory.hpp:77] Creating layer L3_b8_cbr2_scale
I0817 16:12:05.140343 17389 net.cpp:100] Creating Layer L3_b8_cbr2_scale
I0817 16:12:05.140350 17389 net.cpp:434] L3_b8_cbr2_scale <- L3_b8_cbr2_bn_top
I0817 16:12:05.140362 17389 net.cpp:395] L3_b8_cbr2_scale -> L3_b8_cbr2_bn_top (in-place)
I0817 16:12:05.140419 17389 layer_factory.hpp:77] Creating layer L3_b8_cbr2_scale
I0817 16:12:05.140585 17389 net.cpp:150] Setting up L3_b8_cbr2_scale
I0817 16:12:05.140599 17389 net.cpp:157] Top shape: 125 64 8 8 (512000)
I0817 16:12:05.140604 17389 net.cpp:165] Memory required for data: 1423873500
I0817 16:12:05.140614 17389 layer_factory.hpp:77] Creating layer L3_b8_sum_eltwise
I0817 16:12:05.140625 17389 net.cpp:100] Creating Layer L3_b8_sum_eltwise
I0817 16:12:05.140631 17389 net.cpp:434] L3_b8_sum_eltwise <- L3_b8_cbr2_bn_top
I0817 16:12:05.140640 17389 net.cpp:434] L3_b8_sum_eltwise <- L3_b7_sum_eltwise_top_L3_b7_relu_0_split_1
I0817 16:12:05.140647 17389 net.cpp:408] L3_b8_sum_eltwise -> L3_b8_sum_eltwise_top
I0817 16:12:05.140686 17389 net.cpp:150] Setting up L3_b8_sum_eltwise
I0817 16:12:05.140698 17389 net.cpp:157] Top shape: 125 64 8 8 (512000)
I0817 16:12:05.140703 17389 net.cpp:165] Memory required for data: 1425921500
I0817 16:12:05.140709 17389 layer_factory.hpp:77] Creating layer L3_b8_relu
I0817 16:12:05.140717 17389 net.cpp:100] Creating Layer L3_b8_relu
I0817 16:12:05.140722 17389 net.cpp:434] L3_b8_relu <- L3_b8_sum_eltwise_top
I0817 16:12:05.140733 17389 net.cpp:395] L3_b8_relu -> L3_b8_sum_eltwise_top (in-place)
I0817 16:12:05.140743 17389 net.cpp:150] Setting up L3_b8_relu
I0817 16:12:05.140749 17389 net.cpp:157] Top shape: 125 64 8 8 (512000)
I0817 16:12:05.140754 17389 net.cpp:165] Memory required for data: 1427969500
I0817 16:12:05.140758 17389 layer_factory.hpp:77] Creating layer L3_b8_sum_eltwise_top_L3_b8_relu_0_split
I0817 16:12:05.140774 17389 net.cpp:100] Creating Layer L3_b8_sum_eltwise_top_L3_b8_relu_0_split
I0817 16:12:05.140779 17389 net.cpp:434] L3_b8_sum_eltwise_top_L3_b8_relu_0_split <- L3_b8_sum_eltwise_top
I0817 16:12:05.140786 17389 net.cpp:408] L3_b8_sum_eltwise_top_L3_b8_relu_0_split -> L3_b8_sum_eltwise_top_L3_b8_relu_0_split_0
I0817 16:12:05.140796 17389 net.cpp:408] L3_b8_sum_eltwise_top_L3_b8_relu_0_split -> L3_b8_sum_eltwise_top_L3_b8_relu_0_split_1
I0817 16:12:05.140846 17389 net.cpp:150] Setting up L3_b8_sum_eltwise_top_L3_b8_relu_0_split
I0817 16:12:05.140857 17389 net.cpp:157] Top shape: 125 64 8 8 (512000)
I0817 16:12:05.140864 17389 net.cpp:157] Top shape: 125 64 8 8 (512000)
I0817 16:12:05.140869 17389 net.cpp:165] Memory required for data: 1432065500
I0817 16:12:05.140874 17389 layer_factory.hpp:77] Creating layer L3_b9_cbr1_conv
I0817 16:12:05.140885 17389 net.cpp:100] Creating Layer L3_b9_cbr1_conv
I0817 16:12:05.140892 17389 net.cpp:434] L3_b9_cbr1_conv <- L3_b8_sum_eltwise_top_L3_b8_relu_0_split_0
I0817 16:12:05.140903 17389 net.cpp:408] L3_b9_cbr1_conv -> L3_b9_cbr1_conv_top
I0817 16:12:05.143128 17389 net.cpp:150] Setting up L3_b9_cbr1_conv
I0817 16:12:05.143146 17389 net.cpp:157] Top shape: 125 64 8 8 (512000)
I0817 16:12:05.143151 17389 net.cpp:165] Memory required for data: 1434113500
I0817 16:12:05.143160 17389 layer_factory.hpp:77] Creating layer L3_b9_cbr1_bn
I0817 16:12:05.143173 17389 net.cpp:100] Creating Layer L3_b9_cbr1_bn
I0817 16:12:05.143180 17389 net.cpp:434] L3_b9_cbr1_bn <- L3_b9_cbr1_conv_top
I0817 16:12:05.143189 17389 net.cpp:408] L3_b9_cbr1_bn -> L3_b9_cbr1_bn_top
I0817 16:12:05.143455 17389 net.cpp:150] Setting up L3_b9_cbr1_bn
I0817 16:12:05.143468 17389 net.cpp:157] Top shape: 125 64 8 8 (512000)
I0817 16:12:05.143473 17389 net.cpp:165] Memory required for data: 1436161500
I0817 16:12:05.143483 17389 layer_factory.hpp:77] Creating layer L3_b9_cbr1_scale
I0817 16:12:05.143501 17389 net.cpp:100] Creating Layer L3_b9_cbr1_scale
I0817 16:12:05.143508 17389 net.cpp:434] L3_b9_cbr1_scale <- L3_b9_cbr1_bn_top
I0817 16:12:05.143517 17389 net.cpp:395] L3_b9_cbr1_scale -> L3_b9_cbr1_bn_top (in-place)
I0817 16:12:05.143579 17389 layer_factory.hpp:77] Creating layer L3_b9_cbr1_scale
I0817 16:12:05.143740 17389 net.cpp:150] Setting up L3_b9_cbr1_scale
I0817 16:12:05.143754 17389 net.cpp:157] Top shape: 125 64 8 8 (512000)
I0817 16:12:05.143759 17389 net.cpp:165] Memory required for data: 1438209500
I0817 16:12:05.143767 17389 layer_factory.hpp:77] Creating layer L3_b9_cbr1_relu
I0817 16:12:05.143779 17389 net.cpp:100] Creating Layer L3_b9_cbr1_relu
I0817 16:12:05.143785 17389 net.cpp:434] L3_b9_cbr1_relu <- L3_b9_cbr1_bn_top
I0817 16:12:05.143795 17389 net.cpp:395] L3_b9_cbr1_relu -> L3_b9_cbr1_bn_top (in-place)
I0817 16:12:05.143805 17389 net.cpp:150] Setting up L3_b9_cbr1_relu
I0817 16:12:05.143812 17389 net.cpp:157] Top shape: 125 64 8 8 (512000)
I0817 16:12:05.143817 17389 net.cpp:165] Memory required for data: 1440257500
I0817 16:12:05.143822 17389 layer_factory.hpp:77] Creating layer L3_b9_cbr2_conv
I0817 16:12:05.143833 17389 net.cpp:100] Creating Layer L3_b9_cbr2_conv
I0817 16:12:05.143839 17389 net.cpp:434] L3_b9_cbr2_conv <- L3_b9_cbr1_bn_top
I0817 16:12:05.143851 17389 net.cpp:408] L3_b9_cbr2_conv -> L3_b9_cbr2_conv_top
I0817 16:12:05.144871 17389 net.cpp:150] Setting up L3_b9_cbr2_conv
I0817 16:12:05.144886 17389 net.cpp:157] Top shape: 125 64 8 8 (512000)
I0817 16:12:05.144891 17389 net.cpp:165] Memory required for data: 1442305500
I0817 16:12:05.144901 17389 layer_factory.hpp:77] Creating layer L3_b9_cbr2_bn
I0817 16:12:05.144913 17389 net.cpp:100] Creating Layer L3_b9_cbr2_bn
I0817 16:12:05.144919 17389 net.cpp:434] L3_b9_cbr2_bn <- L3_b9_cbr2_conv_top
I0817 16:12:05.144928 17389 net.cpp:408] L3_b9_cbr2_bn -> L3_b9_cbr2_bn_top
I0817 16:12:05.145195 17389 net.cpp:150] Setting up L3_b9_cbr2_bn
I0817 16:12:05.145208 17389 net.cpp:157] Top shape: 125 64 8 8 (512000)
I0817 16:12:05.145213 17389 net.cpp:165] Memory required for data: 1444353500
I0817 16:12:05.145232 17389 layer_factory.hpp:77] Creating layer L3_b9_cbr2_scale
I0817 16:12:05.145241 17389 net.cpp:100] Creating Layer L3_b9_cbr2_scale
I0817 16:12:05.145247 17389 net.cpp:434] L3_b9_cbr2_scale <- L3_b9_cbr2_bn_top
I0817 16:12:05.145256 17389 net.cpp:395] L3_b9_cbr2_scale -> L3_b9_cbr2_bn_top (in-place)
I0817 16:12:05.145316 17389 layer_factory.hpp:77] Creating layer L3_b9_cbr2_scale
I0817 16:12:05.145469 17389 net.cpp:150] Setting up L3_b9_cbr2_scale
I0817 16:12:05.145485 17389 net.cpp:157] Top shape: 125 64 8 8 (512000)
I0817 16:12:05.145490 17389 net.cpp:165] Memory required for data: 1446401500
I0817 16:12:05.145504 17389 layer_factory.hpp:77] Creating layer L3_b9_sum_eltwise
I0817 16:12:05.145514 17389 net.cpp:100] Creating Layer L3_b9_sum_eltwise
I0817 16:12:05.145521 17389 net.cpp:434] L3_b9_sum_eltwise <- L3_b9_cbr2_bn_top
I0817 16:12:05.145550 17389 net.cpp:434] L3_b9_sum_eltwise <- L3_b8_sum_eltwise_top_L3_b8_relu_0_split_1
I0817 16:12:05.145558 17389 net.cpp:408] L3_b9_sum_eltwise -> L3_b9_sum_eltwise_top
I0817 16:12:05.145604 17389 net.cpp:150] Setting up L3_b9_sum_eltwise
I0817 16:12:05.145617 17389 net.cpp:157] Top shape: 125 64 8 8 (512000)
I0817 16:12:05.145622 17389 net.cpp:165] Memory required for data: 1448449500
I0817 16:12:05.145627 17389 layer_factory.hpp:77] Creating layer L3_b9_relu
I0817 16:12:05.145634 17389 net.cpp:100] Creating Layer L3_b9_relu
I0817 16:12:05.145640 17389 net.cpp:434] L3_b9_relu <- L3_b9_sum_eltwise_top
I0817 16:12:05.145648 17389 net.cpp:395] L3_b9_relu -> L3_b9_sum_eltwise_top (in-place)
I0817 16:12:05.145658 17389 net.cpp:150] Setting up L3_b9_relu
I0817 16:12:05.145664 17389 net.cpp:157] Top shape: 125 64 8 8 (512000)
I0817 16:12:05.145669 17389 net.cpp:165] Memory required for data: 1450497500
I0817 16:12:05.145674 17389 layer_factory.hpp:77] Creating layer post_pool
I0817 16:12:05.145685 17389 net.cpp:100] Creating Layer post_pool
I0817 16:12:05.145691 17389 net.cpp:434] post_pool <- L3_b9_sum_eltwise_top
I0817 16:12:05.145699 17389 net.cpp:408] post_pool -> post_pool
I0817 16:12:05.145733 17389 net.cpp:150] Setting up post_pool
I0817 16:12:05.145745 17389 net.cpp:157] Top shape: 125 64 1 1 (8000)
I0817 16:12:05.145750 17389 net.cpp:165] Memory required for data: 1450529500
I0817 16:12:05.145756 17389 layer_factory.hpp:77] Creating layer post_FC
I0817 16:12:05.145845 17389 net.cpp:100] Creating Layer post_FC
I0817 16:12:05.145858 17389 net.cpp:434] post_FC <- post_pool
I0817 16:12:05.145874 17389 net.cpp:408] post_FC -> post_FC_top
I0817 16:12:05.146175 17389 net.cpp:150] Setting up post_FC
I0817 16:12:05.146191 17389 net.cpp:157] Top shape: 125 100 (12500)
I0817 16:12:05.146196 17389 net.cpp:165] Memory required for data: 1450579500
I0817 16:12:05.146205 17389 layer_factory.hpp:77] Creating layer post_FC_top_post_FC_0_split
I0817 16:12:05.146219 17389 net.cpp:100] Creating Layer post_FC_top_post_FC_0_split
I0817 16:12:05.146225 17389 net.cpp:434] post_FC_top_post_FC_0_split <- post_FC_top
I0817 16:12:05.146234 17389 net.cpp:408] post_FC_top_post_FC_0_split -> post_FC_top_post_FC_0_split_0
I0817 16:12:05.146247 17389 net.cpp:408] post_FC_top_post_FC_0_split -> post_FC_top_post_FC_0_split_1
I0817 16:12:05.146297 17389 net.cpp:150] Setting up post_FC_top_post_FC_0_split
I0817 16:12:05.146309 17389 net.cpp:157] Top shape: 125 100 (12500)
I0817 16:12:05.146315 17389 net.cpp:157] Top shape: 125 100 (12500)
I0817 16:12:05.146320 17389 net.cpp:165] Memory required for data: 1450679500
I0817 16:12:05.146325 17389 layer_factory.hpp:77] Creating layer accuracy
I0817 16:12:05.146368 17389 net.cpp:100] Creating Layer accuracy
I0817 16:12:05.146379 17389 net.cpp:434] accuracy <- post_FC_top_post_FC_0_split_0
I0817 16:12:05.146387 17389 net.cpp:434] accuracy <- label_dataLayer_1_split_0
I0817 16:12:05.146395 17389 net.cpp:408] accuracy -> accuracy
…
