…
I1207 05:37:08.997186   369 net.cpp:322] The NetState phase (0) differed from the phase (1) specified by a rule in layer dataLayer
I1207 05:37:08.998819   369 net.cpp:58] Initializing net from parameters: 
name: "Cifar-Resnet"
state {
  phase: TRAIN
  level: 0
  stage: ""
}
layer {
  name: "dataLayer"
  type: "Data"
  top: "data_top"
  top: "label"
  include {
    phase: TRAIN
  }
  transform_param {
    mirror: true
    crop_size: 32
    mean_file: "examples/cifar10/mean.binaryproto"
  }
  data_param {
    source: "examples/cifar10/cifar10_train_lmdb"
    batch_size: 100
    backend: LMDB
  }
  image_data_param {
    shuffle: true
  }
}
layer {
  name: "pre_conv"
  type: "Convolution"
  bottom: "data_top"
  top: "pre_conv_top"
  param {
    lr_mult: 1
    decay_mult: 1
  }
  param {
    lr_mult: 2
    decay_mult: 0
  }
  convolution_param {
    num_output: 16
    pad: 1
    kernel_size: 3
    stride: 1
    weight_filler {
      type: "msra"
    }
    bias_filler {
      type: "constant"
    }
  }
}
layer {
  name: "L1_b1_brc1_bn"
  type: "BatchNorm"
  bottom: "pre_conv_top"
  top: "L1_b1_brc1_bn_top"
  batch_norm_param {
    use_global_stats: false
    moving_average_fraction: 0.95
  }
}
layer {
  name: "L1_b1_brc1_relu"
  type: "ReLU"
  bottom: "L1_b1_brc1_bn_top"
  top: "L1_b1_brc1_bn_top"
}
layer {
  name: "L1_b1_brc1_conv"
  type: "Convolution"
  bottom: "L1_b1_brc1_bn_top"
  top: "L1_b1_brc1_conv_top"
  param {
    lr_mult: 1
    decay_mult: 1
  }
  param {
    lr_mult: 2
    decay_mult: 0
  }
  convolution_param {
    num_output: 16
    pad: 0
    kernel_size: 1
    stride: 1
    weight_filler {
      type: "msra"
    }
    bias_filler {
      type: "constant"
    }
  }
}
layer {
  name: "L1_b1_brc2_bn"
  type: "BatchNorm"
  bottom: "L1_b1_brc1_conv_top"
  top: "L1_b1_brc2_bn_top"
  batch_norm_param {
    use_global_stats: false
    moving_average_fraction: 0.95
  }
}
layer {
  name: "L1_b1_brc2_relu"
  type: "ReLU"
  bottom: "L1_b1_brc2_bn_top"
  top: "L1_b1_brc2_bn_top"
}
layer {
  name: "L1_b1_brc2_conv"
  type: "Convolution"
  bottom: "L1_b1_brc2_bn_top"
  top: "L1_b1_brc2_conv_top"
  param {
    lr_mult: 1
    decay_mult: 1
  }
  param {
    lr_mult: 2
    decay_mult: 0
  }
  convolution_param {
    num_output: 16
    pad: 1
    kernel_size: 3
    stride: 1
    weight_filler {
      type: "msra"
    }
    bias_filler {
      type: "constant"
    }
  }
}
layer {
  name: "L1_b1_brc3_bn"
  type: "BatchNorm"
  bottom: "L1_b1_brc2_conv_top"
  top: "L1_b1_brc3_bn_top"
  batch_norm_param {
    use_global_stats: false
    moving_average_fraction: 0.95
  }
}
layer {
  name: "L1_b1_brc3_relu"
  type: "ReLU"
  bottom: "L1_b1_brc3_bn_top"
  top: "L1_b1_brc3_bn_top"
}
layer {
  name: "L1_b1_brc3_conv"
  type: "Convolution"
  bottom: "L1_b1_brc3_bn_top"
  top: "L1_b1_brc3_conv_top"
  param {
    lr_mult: 1
    decay_mult: 1
  }
  param {
    lr_mult: 2
    decay_mult: 0
  }
  convolution_param {
    num_output: 64
    pad: 0
    kernel_size: 1
    stride: 1
    weight_filler {
      type: "msra"
    }
    bias_filler {
      type: "constant"
    }
  }
}
layer {
  name: "L1_b1_chanInc_conv"
  type: "Convolution"
  bottom: "pre_conv_top"
  top: "L1_b1_chanInc_conv_top"
  param {
    lr_mult: 1
    decay_mult: 1
  }
  param {
    lr_mult: 2
    decay_mult: 0
  }
  convolution_param {
    num_output: 64
    pad: 0
    kernel_size: 1
    stride: 1
    weight_filler {
      type: "msra"
    }
    bias_filler {
      type: "constant"
    }
  }
}
layer {
  name: "L1_b1_sum_eltwise"
  type: "Eltwise"
  bottom: "L1_b1_brc3_conv_top"
  bottom: "L1_b1_chanInc_conv_top"
  top: "L1_b1_sum_eltwise_top"
  eltwise_param {
    operation: SUM
  }
}
layer {
  name: "L1_b2_brc1_bn"
  type: "BatchNorm"
  bottom: "L1_b1_sum_eltwise_top"
  top: "L1_b2_brc1_bn_top"
  batch_norm_param {
    use_global_stats: false
    moving_average_fraction: 0.95
  }
}
layer {
  name: "L1_b2_brc1_relu"
  type: "ReLU"
  bottom: "L1_b2_brc1_bn_top"
  top: "L1_b2_brc1_bn_top"
}
layer {
  name: "L1_b2_brc1_conv"
  type: "Convolution"
  bottom: "L1_b2_brc1_bn_top"
  top: "L1_b2_brc1_conv_top"
  param {
    lr_mult: 1
    decay_mult: 1
  }
  param {
    lr_mult: 2
    decay_mult: 0
  }
  convolution_param {
    num_output: 16
    pad: 0
    kernel_size: 1
    stride: 1
    weight_filler {
      type: "msra"
    }
    bias_filler {
      type: "constant"
    }
  }
}
layer {
  name: "L1_b2_brc2_bn"
  type: "BatchNorm"
  bottom: "L1_b2_brc1_conv_top"
  top: "L1_b2_brc2_bn_top"
  batch_norm_param {
    use_global_stats: false
    moving_average_fraction: 0.95
  }
}
layer {
  name: "L1_b2_brc2_relu"
  type: "ReLU"
  bottom: "L1_b2_brc2_bn_top"
  top: "L1_b2_brc2_bn_top"
}
layer {
  name: "L1_b2_brc2_conv"
  type: "Convolution"
  bottom: "L1_b2_brc2_bn_top"
  top: "L1_b2_brc2_conv_top"
  param {
    lr_mult: 1
    decay_mult: 1
  }
  param {
    lr_mult: 2
    decay_mult: 0
  }
  convolution_param {
    num_output: 16
    pad: 1
    kernel_size: 3
    stride: 1
    weight_filler {
      type: "msra"
    }
    bias_filler {
      type: "constant"
    }
  }
}
layer {
  name: "L1_b2_brc3_bn"
  type: "BatchNorm"
  bottom: "L1_b2_brc2_conv_top"
  top: "L1_b2_brc3_bn_top"
  batch_norm_param {
    use_global_stats: false
    moving_average_fraction: 0.95
  }
}
layer {
  name: "L1_b2_brc3_relu"
  type: "ReLU"
  bottom: "L1_b2_brc3_bn_top"
  top: "L1_b2_brc3_bn_top"
}
layer {
  name: "L1_b2_brc3_conv"
  type: "Convolution"
  bottom: "L1_b2_brc3_bn_top"
  top: "L1_b2_brc3_conv_top"
  param {
    lr_mult: 1
    decay_mult: 1
  }
  param {
    lr_mult: 2
    decay_mult: 0
  }
  convolution_param {
    num_output: 64
    pad: 0
    kernel_size: 1
    stride: 1
    weight_filler {
      type: "msra"
    }
    bias_filler {
      type: "constant"
    }
  }
}
layer {
  name: "L1_b2_sum_eltwise"
  type: "Eltwise"
  bottom: "L1_b2_brc3_conv_top"
  bottom: "L1_b1_sum_eltwise_top"
  top: "L1_b2_sum_eltwise_top"
  eltwise_param {
    operation: SUM
  }
}
layer {
  name: "L1_b3_brc1_bn"
  type: "BatchNorm"
  bottom: "L1_b2_sum_eltwise_top"
  top: "L1_b3_brc1_bn_top"
  batch_norm_param {
    use_global_stats: false
    moving_average_fraction: 0.95
  }
}
layer {
  name: "L1_b3_brc1_relu"
  type: "ReLU"
  bottom: "L1_b3_brc1_bn_top"
  top: "L1_b3_brc1_bn_top"
}
layer {
  name: "L1_b3_brc1_conv"
  type: "Convolution"
  bottom: "L1_b3_brc1_bn_top"
  top: "L1_b3_brc1_conv_top"
  param {
    lr_mult: 1
    decay_mult: 1
  }
  param {
    lr_mult: 2
    decay_mult: 0
  }
  convolution_param {
    num_output: 16
    pad: 0
    kernel_size: 1
    stride: 1
    weight_filler {
      type: "msra"
    }
    bias_filler {
      type: "constant"
    }
  }
}
layer {
  name: "L1_b3_brc2_bn"
  type: "BatchNorm"
  bottom: "L1_b3_brc1_conv_top"
  top: "L1_b3_brc2_bn_top"
  batch_norm_param {
    use_global_stats: false
    moving_average_fraction: 0.95
  }
}
layer {
  name: "L1_b3_brc2_relu"
  type: "ReLU"
  bottom: "L1_b3_brc2_bn_top"
  top: "L1_b3_brc2_bn_top"
}
layer {
  name: "L1_b3_brc2_conv"
  type: "Convolution"
  bottom: "L1_b3_brc2_bn_top"
  top: "L1_b3_brc2_conv_top"
  param {
    lr_mult: 1
    decay_mult: 1
  }
  param {
    lr_mult: 2
    decay_mult: 0
  }
  convolution_param {
    num_output: 16
    pad: 1
    kernel_size: 3
    stride: 1
    weight_filler {
      type: "msra"
    }
    bias_filler {
      type: "constant"
    }
  }
}
layer {
  name: "L1_b3_brc3_bn"
  type: "BatchNorm"
  bottom: "L1_b3_brc2_conv_top"
  top: "L1_b3_brc3_bn_top"
  batch_norm_param {
    use_global_stats: false
    moving_average_fraction: 0.95
  }
}
layer {
  name: "L1_b3_brc3_relu"
  type: "ReLU"
  bottom: "L1_b3_brc3_bn_top"
  top: "L1_b3_brc3_bn_top"
}
layer {
  name: "L1_b3_brc3_conv"
  type: "Convolution"
  bottom: "L1_b3_brc3_bn_top"
  top: "L1_b3_brc3_conv_top"
  param {
    lr_mult: 1
    decay_mult: 1
  }
  param {
    lr_mult: 2
    decay_mult: 0
  }
  convolution_param {
    num_output: 64
    pad: 0
    kernel_size: 1
    stride: 1
    weight_filler {
      type: "msra"
    }
    bias_filler {
      type: "constant"
    }
  }
}
layer {
  name: "L1_b3_sum_eltwise"
  type: "Eltwise"
  bottom: "L1_b3_brc3_conv_top"
  bottom: "L1_b2_sum_eltwise_top"
  top: "L1_b3_sum_eltwise_top"
  eltwise_param {
    operation: SUM
  }
}
layer {
  name: "L1_b4_brc1_bn"
  type: "BatchNorm"
  bottom: "L1_b3_sum_eltwise_top"
  top: "L1_b4_brc1_bn_top"
  batch_norm_param {
    use_global_stats: false
    moving_average_fraction: 0.95
  }
}
layer {
  name: "L1_b4_brc1_relu"
  type: "ReLU"
  bottom: "L1_b4_brc1_bn_top"
  top: "L1_b4_brc1_bn_top"
}
layer {
  name: "L1_b4_brc1_conv"
  type: "Convolution"
  bottom: "L1_b4_brc1_bn_top"
  top: "L1_b4_brc1_conv_top"
  param {
    lr_mult: 1
    decay_mult: 1
  }
  param {
    lr_mult: 2
    decay_mult: 0
  }
  convolution_param {
    num_output: 16
    pad: 0
    kernel_size: 1
    stride: 1
    weight_filler {
      type: "msra"
    }
    bias_filler {
      type: "constant"
    }
  }
}
layer {
  name: "L1_b4_brc2_bn"
  type: "BatchNorm"
  bottom: "L1_b4_brc1_conv_top"
  top: "L1_b4_brc2_bn_top"
  batch_norm_param {
    use_global_stats: false
    moving_average_fraction: 0.95
  }
}
layer {
  name: "L1_b4_brc2_relu"
  type: "ReLU"
  bottom: "L1_b4_brc2_bn_top"
  top: "L1_b4_brc2_bn_top"
}
layer {
  name: "L1_b4_brc2_conv"
  type: "Convolution"
  bottom: "L1_b4_brc2_bn_top"
  top: "L1_b4_brc2_conv_top"
  param {
    lr_mult: 1
    decay_mult: 1
  }
  param {
    lr_mult: 2
    decay_mult: 0
  }
  convolution_param {
    num_output: 16
    pad: 1
    kernel_size: 3
    stride: 1
    weight_filler {
      type: "msra"
    }
    bias_filler {
      type: "constant"
    }
  }
}
layer {
  name: "L1_b4_brc3_bn"
  type: "BatchNorm"
  bottom: "L1_b4_brc2_conv_top"
  top: "L1_b4_brc3_bn_top"
  batch_norm_param {
    use_global_stats: false
    moving_average_fraction: 0.95
  }
}
layer {
  name: "L1_b4_brc3_relu"
  type: "ReLU"
  bottom: "L1_b4_brc3_bn_top"
  top: "L1_b4_brc3_bn_top"
}
layer {
  name: "L1_b4_brc3_conv"
  type: "Convolution"
  bottom: "L1_b4_brc3_bn_top"
  top: "L1_b4_brc3_conv_top"
  param {
    lr_mult: 1
    decay_mult: 1
  }
  param {
    lr_mult: 2
    decay_mult: 0
  }
  convolution_param {
    num_output: 64
    pad: 0
    kernel_size: 1
    stride: 1
    weight_filler {
      type: "msra"
    }
    bias_filler {
      type: "constant"
    }
  }
}
layer {
  name: "L1_b4_sum_eltwise"
  type: "Eltwise"
  bottom: "L1_b4_brc3_conv_top"
  bottom: "L1_b3_sum_eltwise_top"
  top: "L1_b4_sum_eltwise_top"
  eltwise_param {
    operation: SUM
  }
}
layer {
  name: "L1_b5_brc1_bn"
  type: "BatchNorm"
  bottom: "L1_b4_sum_eltwise_top"
  top: "L1_b5_brc1_bn_top"
  batch_norm_param {
    use_global_stats: false
    moving_average_fraction: 0.95
  }
}
layer {
  name: "L1_b5_brc1_relu"
  type: "ReLU"
  bottom: "L1_b5_brc1_bn_top"
  top: "L1_b5_brc1_bn_top"
}
layer {
  name: "L1_b5_brc1_conv"
  type: "Convolution"
  bottom: "L1_b5_brc1_bn_top"
  top: "L1_b5_brc1_conv_top"
  param {
    lr_mult: 1
    decay_mult: 1
  }
  param {
    lr_mult: 2
    decay_mult: 0
  }
  convolution_param {
    num_output: 16
    pad: 0
    kernel_size: 1
    stride: 1
    weight_filler {
      type: "msra"
    }
    bias_filler {
      type: "constant"
    }
  }
}
layer {
  name: "L1_b5_brc2_bn"
  type: "BatchNorm"
  bottom: "L1_b5_brc1_conv_top"
  top: "L1_b5_brc2_bn_top"
  batch_norm_param {
    use_global_stats: false
    moving_average_fraction: 0.95
  }
}
layer {
  name: "L1_b5_brc2_relu"
  type: "ReLU"
  bottom: "L1_b5_brc2_bn_top"
  top: "L1_b5_brc2_bn_top"
}
layer {
  name: "L1_b5_brc2_conv"
  type: "Convolution"
  bottom: "L1_b5_brc2_bn_top"
  top: "L1_b5_brc2_conv_top"
  param {
    lr_mult: 1
    decay_mult: 1
  }
  param {
    lr_mult: 2
    decay_mult: 0
  }
  convolution_param {
    num_output: 16
    pad: 1
    kernel_size: 3
    stride: 1
    weight_filler {
      type: "msra"
    }
    bias_filler {
      type: "constant"
    }
  }
}
layer {
  name: "L1_b5_brc3_bn"
  type: "BatchNorm"
  bottom: "L1_b5_brc2_conv_top"
  top: "L1_b5_brc3_bn_top"
  batch_norm_param {
    use_global_stats: false
    moving_average_fraction: 0.95
  }
}
layer {
  name: "L1_b5_brc3_relu"
  type: "ReLU"
  bottom: "L1_b5_brc3_bn_top"
  top: "L1_b5_brc3_bn_top"
}
layer {
  name: "L1_b5_brc3_conv"
  type: "Convolution"
  bottom: "L1_b5_brc3_bn_top"
  top: "L1_b5_brc3_conv_top"
  param {
    lr_mult: 1
    decay_mult: 1
  }
  param {
    lr_mult: 2
    decay_mult: 0
  }
  convolution_param {
    num_output: 64
    pad: 0
    kernel_size: 1
    stride: 1
    weight_filler {
      type: "msra"
    }
    bias_filler {
      type: "constant"
    }
  }
}
layer {
  name: "L1_b5_sum_eltwise"
  type: "Eltwise"
  bottom: "L1_b5_brc3_conv_top"
  bottom: "L1_b4_sum_eltwise_top"
  top: "L1_b5_sum_eltwise_top"
  eltwise_param {
    operation: SUM
  }
}
layer {
  name: "L1_b6_brc1_bn"
  type: "BatchNorm"
  bottom: "L1_b5_sum_eltwise_top"
  top: "L1_b6_brc1_bn_top"
  batch_norm_param {
    use_global_stats: false
    moving_average_fraction: 0.95
  }
}
layer {
  name: "L1_b6_brc1_relu"
  type: "ReLU"
  bottom: "L1_b6_brc1_bn_top"
  top: "L1_b6_brc1_bn_top"
}
layer {
  name: "L1_b6_brc1_conv"
  type: "Convolution"
  bottom: "L1_b6_brc1_bn_top"
  top: "L1_b6_brc1_conv_top"
  param {
    lr_mult: 1
    decay_mult: 1
  }
  param {
    lr_mult: 2
    decay_mult: 0
  }
  convolution_param {
    num_output: 16
    pad: 0
    kernel_size: 1
    stride: 1
    weight_filler {
      type: "msra"
    }
    bias_filler {
      type: "constant"
    }
  }
}
layer {
  name: "L1_b6_brc2_bn"
  type: "BatchNorm"
  bottom: "L1_b6_brc1_conv_top"
  top: "L1_b6_brc2_bn_top"
  batch_norm_param {
    use_global_stats: false
    moving_average_fraction: 0.95
  }
}
layer {
  name: "L1_b6_brc2_relu"
  type: "ReLU"
  bottom: "L1_b6_brc2_bn_top"
  top: "L1_b6_brc2_bn_top"
}
layer {
  name: "L1_b6_brc2_conv"
  type: "Convolution"
  bottom: "L1_b6_brc2_bn_top"
  top: "L1_b6_brc2_conv_top"
  param {
    lr_mult: 1
    decay_mult: 1
  }
  param {
    lr_mult: 2
    decay_mult: 0
  }
  convolution_param {
    num_output: 16
    pad: 1
    kernel_size: 3
    stride: 1
    weight_filler {
      type: "msra"
    }
    bias_filler {
      type: "constant"
    }
  }
}
layer {
  name: "L1_b6_brc3_bn"
  type: "BatchNorm"
  bottom: "L1_b6_brc2_conv_top"
  top: "L1_b6_brc3_bn_top"
  batch_norm_param {
    use_global_stats: false
    moving_average_fraction: 0.95
  }
}
layer {
  name: "L1_b6_brc3_relu"
  type: "ReLU"
  bottom: "L1_b6_brc3_bn_top"
  top: "L1_b6_brc3_bn_top"
}
layer {
  name: "L1_b6_brc3_conv"
  type: "Convolution"
  bottom: "L1_b6_brc3_bn_top"
  top: "L1_b6_brc3_conv_top"
  param {
    lr_mult: 1
    decay_mult: 1
  }
  param {
    lr_mult: 2
    decay_mult: 0
  }
  convolution_param {
    num_output: 64
    pad: 0
    kernel_size: 1
    stride: 1
    weight_filler {
      type: "msra"
    }
    bias_filler {
      type: "constant"
    }
  }
}
layer {
  name: "L1_b6_sum_eltwise"
  type: "Eltwise"
  bottom: "L1_b6_brc3_conv_top"
  bottom: "L1_b5_sum_eltwise_top"
  top: "L1_b6_sum_eltwise_top"
  eltwise_param {
    operation: SUM
  }
}
layer {
  name: "L2_b1_brc1_bn"
  type: "BatchNorm"
  bottom: "L1_b6_sum_eltwise_top"
  top: "L2_b1_brc1_bn_top"
  batch_norm_param {
    use_global_stats: false
    moving_average_fraction: 0.95
  }
}
layer {
  name: "L2_b1_brc1_relu"
  type: "ReLU"
  bottom: "L2_b1_brc1_bn_top"
  top: "L2_b1_brc1_bn_top"
}
layer {
  name: "L2_b1_brc1_conv"
  type: "Convolution"
  bottom: "L2_b1_brc1_bn_top"
  top: "L2_b1_brc1_conv_top"
  param {
    lr_mult: 1
    decay_mult: 1
  }
  param {
    lr_mult: 2
    decay_mult: 0
  }
  convolution_param {
    num_output: 32
    pad: 0
    kernel_size: 1
    stride: 2
    weight_filler {
      type: "msra"
    }
    bias_filler {
      type: "constant"
    }
  }
}
layer {
  name: "L2_b1_brc2_bn"
  type: "BatchNorm"
  bottom: "L2_b1_brc1_conv_top"
  top: "L2_b1_brc2_bn_top"
  batch_norm_param {
    use_global_stats: false
    moving_average_fraction: 0.95
  }
}
layer {
  name: "L2_b1_brc2_relu"
  type: "ReLU"
  bottom: "L2_b1_brc2_bn_top"
  top: "L2_b1_brc2_bn_top"
}
layer {
  name: "L2_b1_brc2_conv"
  type: "Convolution"
  bottom: "L2_b1_brc2_bn_top"
  top: "L2_b1_brc2_conv_top"
  param {
    lr_mult: 1
    decay_mult: 1
  }
  param {
    lr_mult: 2
    decay_mult: 0
  }
  convolution_param {
    num_output: 32
    pad: 1
    kernel_size: 3
    stride: 1
    weight_filler {
      type: "msra"
    }
    bias_filler {
      type: "constant"
    }
  }
}
layer {
  name: "L2_b1_brc3_bn"
  type: "BatchNorm"
  bottom: "L2_b1_brc2_conv_top"
  top: "L2_b1_brc3_bn_top"
  batch_norm_param {
    use_global_stats: false
    moving_average_fraction: 0.95
  }
}
layer {
  name: "L2_b1_brc3_relu"
  type: "ReLU"
  bottom: "L2_b1_brc3_bn_top"
  top: "L2_b1_brc3_bn_top"
}
layer {
  name: "L2_b1_brc3_conv"
  type: "Convolution"
  bottom: "L2_b1_brc3_bn_top"
  top: "L2_b1_brc3_conv_top"
  param {
    lr_mult: 1
    decay_mult: 1
  }
  param {
    lr_mult: 2
    decay_mult: 0
  }
  convolution_param {
    num_output: 128
    pad: 0
    kernel_size: 1
    stride: 1
    weight_filler {
      type: "msra"
    }
    bias_filler {
      type: "constant"
    }
  }
}
layer {
  name: "L2_b1_chanInc_conv"
  type: "Convolution"
  bottom: "L1_b6_sum_eltwise_top"
  top: "L2_b1_chanInc_conv_top"
  param {
    lr_mult: 1
    decay_mult: 1
  }
  param {
    lr_mult: 2
    decay_mult: 0
  }
  convolution_param {
    num_output: 128
    pad: 0
    kernel_size: 1
    stride: 2
    weight_filler {
      type: "msra"
    }
    bias_filler {
      type: "constant"
    }
  }
}
layer {
  name: "L2_b1_sum_eltwise"
  type: "Eltwise"
  bottom: "L2_b1_brc3_conv_top"
  bottom: "L2_b1_chanInc_conv_top"
  top: "L2_b1_sum_eltwise_top"
  eltwise_param {
    operation: SUM
  }
}
layer {
  name: "L2_b2_brc1_bn"
  type: "BatchNorm"
  bottom: "L2_b1_sum_eltwise_top"
  top: "L2_b2_brc1_bn_top"
  batch_norm_param {
    use_global_stats: false
    moving_average_fraction: 0.95
  }
}
layer {
  name: "L2_b2_brc1_relu"
  type: "ReLU"
  bottom: "L2_b2_brc1_bn_top"
  top: "L2_b2_brc1_bn_top"
}
layer {
  name: "L2_b2_brc1_conv"
  type: "Convolution"
  bottom: "L2_b2_brc1_bn_top"
  top: "L2_b2_brc1_conv_top"
  param {
    lr_mult: 1
    decay_mult: 1
  }
  param {
    lr_mult: 2
    decay_mult: 0
  }
  convolution_param {
    num_output: 32
    pad: 0
    kernel_size: 1
    stride: 1
    weight_filler {
      type: "msra"
    }
    bias_filler {
      type: "constant"
    }
  }
}
layer {
  name: "L2_b2_brc2_bn"
  type: "BatchNorm"
  bottom: "L2_b2_brc1_conv_top"
  top: "L2_b2_brc2_bn_top"
  batch_norm_param {
    use_global_stats: false
    moving_average_fraction: 0.95
  }
}
layer {
  name: "L2_b2_brc2_relu"
  type: "ReLU"
  bottom: "L2_b2_brc2_bn_top"
  top: "L2_b2_brc2_bn_top"
}
layer {
  name: "L2_b2_brc2_conv"
  type: "Convolution"
  bottom: "L2_b2_brc2_bn_top"
  top: "L2_b2_brc2_conv_top"
  param {
    lr_mult: 1
    decay_mult: 1
  }
  param {
    lr_mult: 2
    decay_mult: 0
  }
  convolution_param {
    num_output: 32
    pad: 1
    kernel_size: 3
    stride: 1
    weight_filler {
      type: "msra"
    }
    bias_filler {
      type: "constant"
    }
  }
}
layer {
  name: "L2_b2_brc3_bn"
  type: "BatchNorm"
  bottom: "L2_b2_brc2_conv_top"
  top: "L2_b2_brc3_bn_top"
  batch_norm_param {
    use_global_stats: false
    moving_average_fraction: 0.95
  }
}
layer {
  name: "L2_b2_brc3_relu"
  type: "ReLU"
  bottom: "L2_b2_brc3_bn_top"
  top: "L2_b2_brc3_bn_top"
}
layer {
  name: "L2_b2_brc3_conv"
  type: "Convolution"
  bottom: "L2_b2_brc3_bn_top"
  top: "L2_b2_brc3_conv_top"
  param {
    lr_mult: 1
    decay_mult: 1
  }
  param {
    lr_mult: 2
    decay_mult: 0
  }
  convolution_param {
    num_output: 128
    pad: 0
    kernel_size: 1
    stride: 1
    weight_filler {
      type: "msra"
    }
    bias_filler {
      type: "constant"
    }
  }
}
layer {
  name: "L2_b2_sum_eltwise"
  type: "Eltwise"
  bottom: "L2_b2_brc3_conv_top"
  bottom: "L2_b1_sum_eltwise_top"
  top: "L2_b2_sum_eltwise_top"
  eltwise_param {
    operation: SUM
  }
}
layer {
  name: "L2_b3_brc1_bn"
  type: "BatchNorm"
  bottom: "L2_b2_sum_eltwise_top"
  top: "L2_b3_brc1_bn_top"
  batch_norm_param {
    use_global_stats: false
    moving_average_fraction: 0.95
  }
}
layer {
  name: "L2_b3_brc1_relu"
  type: "ReLU"
  bottom: "L2_b3_brc1_bn_top"
  top: "L2_b3_brc1_bn_top"
}
layer {
  name: "L2_b3_brc1_conv"
  type: "Convolution"
  bottom: "L2_b3_brc1_bn_top"
  top: "L2_b3_brc1_conv_top"
  param {
    lr_mult: 1
    decay_mult: 1
  }
  param {
    lr_mult: 2
    decay_mult: 0
  }
  convolution_param {
    num_output: 32
    pad: 0
    kernel_size: 1
    stride: 1
    weight_filler {
      type: "msra"
    }
    bias_filler {
      type: "constant"
    }
  }
}
layer {
  name: "L2_b3_brc2_bn"
  type: "BatchNorm"
  bottom: "L2_b3_brc1_conv_top"
  top: "L2_b3_brc2_bn_top"
  batch_norm_param {
    use_global_stats: false
    moving_average_fraction: 0.95
  }
}
layer {
  name: "L2_b3_brc2_relu"
  type: "ReLU"
  bottom: "L2_b3_brc2_bn_top"
  top: "L2_b3_brc2_bn_top"
}
layer {
  name: "L2_b3_brc2_conv"
  type: "Convolution"
  bottom: "L2_b3_brc2_bn_top"
  top: "L2_b3_brc2_conv_top"
  param {
    lr_mult: 1
    decay_mult: 1
  }
  param {
    lr_mult: 2
    decay_mult: 0
  }
  convolution_param {
    num_output: 32
    pad: 1
    kernel_size: 3
    stride: 1
    weight_filler {
      type: "msra"
    }
    bias_filler {
      type: "constant"
    }
  }
}
layer {
  name: "L2_b3_brc3_bn"
  type: "BatchNorm"
  bottom: "L2_b3_brc2_conv_top"
  top: "L2_b3_brc3_bn_top"
  batch_norm_param {
    use_global_stats: false
    moving_average_fraction: 0.95
  }
}
layer {
  name: "L2_b3_brc3_relu"
  type: "ReLU"
  bottom: "L2_b3_brc3_bn_top"
  top: "L2_b3_brc3_bn_top"
}
layer {
  name: "L2_b3_brc3_conv"
  type: "Convolution"
  bottom: "L2_b3_brc3_bn_top"
  top: "L2_b3_brc3_conv_top"
  param {
    lr_mult: 1
    decay_mult: 1
  }
  param {
    lr_mult: 2
    decay_mult: 0
  }
  convolution_param {
    num_output: 128
    pad: 0
    kernel_size: 1
    stride: 1
    weight_filler {
      type: "msra"
    }
    bias_filler {
      type: "constant"
    }
  }
}
layer {
  name: "L2_b3_sum_eltwise"
  type: "Eltwise"
  bottom: "L2_b3_brc3_conv_top"
  bottom: "L2_b2_sum_eltwise_top"
  top: "L2_b3_sum_eltwise_top"
  eltwise_param {
    operation: SUM
  }
}
layer {
  name: "L2_b4_brc1_bn"
  type: "BatchNorm"
  bottom: "L2_b3_sum_eltwise_top"
  top: "L2_b4_brc1_bn_top"
  batch_norm_param {
    use_global_stats: false
    moving_average_fraction: 0.95
  }
}
layer {
  name: "L2_b4_brc1_relu"
  type: "ReLU"
  bottom: "L2_b4_brc1_bn_top"
  top: "L2_b4_brc1_bn_top"
}
layer {
  name: "L2_b4_brc1_conv"
  type: "Convolution"
  bottom: "L2_b4_brc1_bn_top"
  top: "L2_b4_brc1_conv_top"
  param {
    lr_mult: 1
    decay_mult: 1
  }
  param {
    lr_mult: 2
    decay_mult: 0
  }
  convolution_param {
    num_output: 32
    pad: 0
    kernel_size: 1
    stride: 1
    weight_filler {
      type: "msra"
    }
    bias_filler {
      type: "constant"
    }
  }
}
layer {
  name: "L2_b4_brc2_bn"
  type: "BatchNorm"
  bottom: "L2_b4_brc1_conv_top"
  top: "L2_b4_brc2_bn_top"
  batch_norm_param {
    use_global_stats: false
    moving_average_fraction: 0.95
  }
}
layer {
  name: "L2_b4_brc2_relu"
  type: "ReLU"
  bottom: "L2_b4_brc2_bn_top"
  top: "L2_b4_brc2_bn_top"
}
layer {
  name: "L2_b4_brc2_conv"
  type: "Convolution"
  bottom: "L2_b4_brc2_bn_top"
  top: "L2_b4_brc2_conv_top"
  param {
    lr_mult: 1
    decay_mult: 1
  }
  param {
    lr_mult: 2
    decay_mult: 0
  }
  convolution_param {
    num_output: 32
    pad: 1
    kernel_size: 3
    stride: 1
    weight_filler {
      type: "msra"
    }
    bias_filler {
      type: "constant"
    }
  }
}
layer {
  name: "L2_b4_brc3_bn"
  type: "BatchNorm"
  bottom: "L2_b4_brc2_conv_top"
  top: "L2_b4_brc3_bn_top"
  batch_norm_param {
    use_global_stats: false
    moving_average_fraction: 0.95
  }
}
layer {
  name: "L2_b4_brc3_relu"
  type: "ReLU"
  bottom: "L2_b4_brc3_bn_top"
  top: "L2_b4_brc3_bn_top"
}
layer {
  name: "L2_b4_brc3_conv"
  type: "Convolution"
  bottom: "L2_b4_brc3_bn_top"
  top: "L2_b4_brc3_conv_top"
  param {
    lr_mult: 1
    decay_mult: 1
  }
  param {
    lr_mult: 2
    decay_mult: 0
  }
  convolution_param {
    num_output: 128
    pad: 0
    kernel_size: 1
    stride: 1
    weight_filler {
      type: "msra"
    }
    bias_filler {
      type: "constant"
    }
  }
}
layer {
  name: "L2_b4_sum_eltwise"
  type: "Eltwise"
  bottom: "L2_b4_brc3_conv_top"
  bottom: "L2_b3_sum_eltwise_top"
  top: "L2_b4_sum_eltwise_top"
  eltwise_param {
    operation: SUM
  }
}
layer {
  name: "L2_b5_brc1_bn"
  type: "BatchNorm"
  bottom: "L2_b4_sum_eltwise_top"
  top: "L2_b5_brc1_bn_top"
  batch_norm_param {
    use_global_stats: false
    moving_average_fraction: 0.95
  }
}
layer {
  name: "L2_b5_brc1_relu"
  type: "ReLU"
  bottom: "L2_b5_brc1_bn_top"
  top: "L2_b5_brc1_bn_top"
}
layer {
  name: "L2_b5_brc1_conv"
  type: "Convolution"
  bottom: "L2_b5_brc1_bn_top"
  top: "L2_b5_brc1_conv_top"
  param {
    lr_mult: 1
    decay_mult: 1
  }
  param {
    lr_mult: 2
    decay_mult: 0
  }
  convolution_param {
    num_output: 32
    pad: 0
    kernel_size: 1
    stride: 1
    weight_filler {
      type: "msra"
    }
    bias_filler {
      type: "constant"
    }
  }
}
layer {
  name: "L2_b5_brc2_bn"
  type: "BatchNorm"
  bottom: "L2_b5_brc1_conv_top"
  top: "L2_b5_brc2_bn_top"
  batch_norm_param {
    use_global_stats: false
    moving_average_fraction: 0.95
  }
}
layer {
  name: "L2_b5_brc2_relu"
  type: "ReLU"
  bottom: "L2_b5_brc2_bn_top"
  top: "L2_b5_brc2_bn_top"
}
layer {
  name: "L2_b5_brc2_conv"
  type: "Convolution"
  bottom: "L2_b5_brc2_bn_top"
  top: "L2_b5_brc2_conv_top"
  param {
    lr_mult: 1
    decay_mult: 1
  }
  param {
    lr_mult: 2
    decay_mult: 0
  }
  convolution_param {
    num_output: 32
    pad: 1
    kernel_size: 3
    stride: 1
    weight_filler {
      type: "msra"
    }
    bias_filler {
      type: "constant"
    }
  }
}
layer {
  name: "L2_b5_brc3_bn"
  type: "BatchNorm"
  bottom: "L2_b5_brc2_conv_top"
  top: "L2_b5_brc3_bn_top"
  batch_norm_param {
    use_global_stats: false
    moving_average_fraction: 0.95
  }
}
layer {
  name: "L2_b5_brc3_relu"
  type: "ReLU"
  bottom: "L2_b5_brc3_bn_top"
  top: "L2_b5_brc3_bn_top"
}
layer {
  name: "L2_b5_brc3_conv"
  type: "Convolution"
  bottom: "L2_b5_brc3_bn_top"
  top: "L2_b5_brc3_conv_top"
  param {
    lr_mult: 1
    decay_mult: 1
  }
  param {
    lr_mult: 2
    decay_mult: 0
  }
  convolution_param {
    num_output: 128
    pad: 0
    kernel_size: 1
    stride: 1
    weight_filler {
      type: "msra"
    }
    bias_filler {
      type: "constant"
    }
  }
}
layer {
  name: "L2_b5_sum_eltwise"
  type: "Eltwise"
  bottom: "L2_b5_brc3_conv_top"
  bottom: "L2_b4_sum_eltwise_top"
  top: "L2_b5_sum_eltwise_top"
  eltwise_param {
    operation: SUM
  }
}
layer {
  name: "L2_b6_brc1_bn"
  type: "BatchNorm"
  bottom: "L2_b5_sum_eltwise_top"
  top: "L2_b6_brc1_bn_top"
  batch_norm_param {
    use_global_stats: false
    moving_average_fraction: 0.95
  }
}
layer {
  name: "L2_b6_brc1_relu"
  type: "ReLU"
  bottom: "L2_b6_brc1_bn_top"
  top: "L2_b6_brc1_bn_top"
}
layer {
  name: "L2_b6_brc1_conv"
  type: "Convolution"
  bottom: "L2_b6_brc1_bn_top"
  top: "L2_b6_brc1_conv_top"
  param {
    lr_mult: 1
    decay_mult: 1
  }
  param {
    lr_mult: 2
    decay_mult: 0
  }
  convolution_param {
    num_output: 32
    pad: 0
    kernel_size: 1
    stride: 1
    weight_filler {
      type: "msra"
    }
    bias_filler {
      type: "constant"
    }
  }
}
layer {
  name: "L2_b6_brc2_bn"
  type: "BatchNorm"
  bottom: "L2_b6_brc1_conv_top"
  top: "L2_b6_brc2_bn_top"
  batch_norm_param {
    use_global_stats: false
    moving_average_fraction: 0.95
  }
}
layer {
  name: "L2_b6_brc2_relu"
  type: "ReLU"
  bottom: "L2_b6_brc2_bn_top"
  top: "L2_b6_brc2_bn_top"
}
layer {
  name: "L2_b6_brc2_conv"
  type: "Convolution"
  bottom: "L2_b6_brc2_bn_top"
  top: "L2_b6_brc2_conv_top"
  param {
    lr_mult: 1
    decay_mult: 1
  }
  param {
    lr_mult: 2
    decay_mult: 0
  }
  convolution_param {
    num_output: 32
    pad: 1
    kernel_size: 3
    stride: 1
    weight_filler {
      type: "msra"
    }
    bias_filler {
      type: "constant"
    }
  }
}
layer {
  name: "L2_b6_brc3_bn"
  type: "BatchNorm"
  bottom: "L2_b6_brc2_conv_top"
  top: "L2_b6_brc3_bn_top"
  batch_norm_param {
    use_global_stats: false
    moving_average_fraction: 0.95
  }
}
layer {
  name: "L2_b6_brc3_relu"
  type: "ReLU"
  bottom: "L2_b6_brc3_bn_top"
  top: "L2_b6_brc3_bn_top"
}
layer {
  name: "L2_b6_brc3_conv"
  type: "Convolution"
  bottom: "L2_b6_brc3_bn_top"
  top: "L2_b6_brc3_conv_top"
  param {
    lr_mult: 1
    decay_mult: 1
  }
  param {
    lr_mult: 2
    decay_mult: 0
  }
  convolution_param {
    num_output: 128
    pad: 0
    kernel_size: 1
    stride: 1
    weight_filler {
      type: "msra"
    }
    bias_filler {
      type: "constant"
    }
  }
}
layer {
  name: "L2_b6_sum_eltwise"
  type: "Eltwise"
  bottom: "L2_b6_brc3_conv_top"
  bottom: "L2_b5_sum_eltwise_top"
  top: "L2_b6_sum_eltwise_top"
  eltwise_param {
    operation: SUM
  }
}
layer {
  name: "L3_b1_brc1_bn"
  type: "BatchNorm"
  bottom: "L2_b6_sum_eltwise_top"
  top: "L3_b1_brc1_bn_top"
  batch_norm_param {
    use_global_stats: false
    moving_average_fraction: 0.95
  }
}
layer {
  name: "L3_b1_brc1_relu"
  type: "ReLU"
  bottom: "L3_b1_brc1_bn_top"
  top: "L3_b1_brc1_bn_top"
}
layer {
  name: "L3_b1_brc1_conv"
  type: "Convolution"
  bottom: "L3_b1_brc1_bn_top"
  top: "L3_b1_brc1_conv_top"
  param {
    lr_mult: 1
    decay_mult: 1
  }
  param {
    lr_mult: 2
    decay_mult: 0
  }
  convolution_param {
    num_output: 64
    pad: 0
    kernel_size: 1
    stride: 2
    weight_filler {
      type: "msra"
    }
    bias_filler {
      type: "constant"
    }
  }
}
layer {
  name: "L3_b1_brc2_bn"
  type: "BatchNorm"
  bottom: "L3
I1207 05:37:09.000437   369 layer_factory.hpp:77] Creating layer dataLayer
I1207 05:37:09.001612   369 net.cpp:100] Creating Layer dataLayer
I1207 05:37:09.001691   369 net.cpp:408] dataLayer -> data_top
I1207 05:37:09.001888   369 net.cpp:408] dataLayer -> label
I1207 05:37:09.002009   369 data_transformer.cpp:25] Loading mean file from: examples/cifar10/mean.binaryproto
I1207 05:37:09.025980   377 db_lmdb.cpp:35] Opened lmdb examples/cifar10/cifar10_train_lmdb
I1207 05:37:09.030030   369 data_layer.cpp:41] output data size: 100,3,32,32
I1207 05:37:09.036255   369 net.cpp:150] Setting up dataLayer
I1207 05:37:09.036315   369 net.cpp:157] Top shape: 100 3 32 32 (307200)
I1207 05:37:09.036327   369 net.cpp:157] Top shape: 100 (100)
I1207 05:37:09.036334   369 net.cpp:165] Memory required for data: 1229200
I1207 05:37:09.036348   369 layer_factory.hpp:77] Creating layer label_dataLayer_1_split
I1207 05:37:09.036363   369 net.cpp:100] Creating Layer label_dataLayer_1_split
I1207 05:37:09.036371   369 net.cpp:434] label_dataLayer_1_split <- label
I1207 05:37:09.036391   369 net.cpp:408] label_dataLayer_1_split -> label_dataLayer_1_split_0
I1207 05:37:09.036408   369 net.cpp:408] label_dataLayer_1_split -> label_dataLayer_1_split_1
I1207 05:37:09.036495   369 net.cpp:150] Setting up label_dataLayer_1_split
I1207 05:37:09.036514   369 net.cpp:157] Top shape: 100 (100)
I1207 05:37:09.036521   369 net.cpp:157] Top shape: 100 (100)
I1207 05:37:09.036526   369 net.cpp:165] Memory required for data: 1230000
I1207 05:37:09.036532   369 layer_factory.hpp:77] Creating layer pre_conv
I1207 05:37:09.036594   369 net.cpp:100] Creating Layer pre_conv
I1207 05:37:09.036607   369 net.cpp:434] pre_conv <- data_top
I1207 05:37:09.036617   369 net.cpp:408] pre_conv -> pre_conv_top
I1207 05:37:09.038322   369 net.cpp:150] Setting up pre_conv
I1207 05:37:09.038341   369 net.cpp:157] Top shape: 100 16 32 32 (1638400)
I1207 05:37:09.038347   369 net.cpp:165] Memory required for data: 7783600
I1207 05:37:09.038401   369 layer_factory.hpp:77] Creating layer pre_conv_top_pre_conv_0_split
I1207 05:37:09.038414   369 net.cpp:100] Creating Layer pre_conv_top_pre_conv_0_split
I1207 05:37:09.038420   369 net.cpp:434] pre_conv_top_pre_conv_0_split <- pre_conv_top
I1207 05:37:09.038430   369 net.cpp:408] pre_conv_top_pre_conv_0_split -> pre_conv_top_pre_conv_0_split_0
I1207 05:37:09.038441   369 net.cpp:408] pre_conv_top_pre_conv_0_split -> pre_conv_top_pre_conv_0_split_1
I1207 05:37:09.038535   369 net.cpp:150] Setting up pre_conv_top_pre_conv_0_split
I1207 05:37:09.038549   369 net.cpp:157] Top shape: 100 16 32 32 (1638400)
I1207 05:37:09.038556   369 net.cpp:157] Top shape: 100 16 32 32 (1638400)
I1207 05:37:09.038561   369 net.cpp:165] Memory required for data: 20890800
I1207 05:37:09.038568   369 layer_factory.hpp:77] Creating layer L1_b1_brc1_bn
I1207 05:37:09.038640   369 net.cpp:100] Creating Layer L1_b1_brc1_bn
I1207 05:37:09.038652   369 net.cpp:434] L1_b1_brc1_bn <- pre_conv_top_pre_conv_0_split_0
I1207 05:37:09.038661   369 net.cpp:408] L1_b1_brc1_bn -> L1_b1_brc1_bn_top
I1207 05:37:09.038784   378 blocking_queue.cpp:50] Waiting for data
I1207 05:37:09.038969   369 net.cpp:150] Setting up L1_b1_brc1_bn
I1207 05:37:09.038986   369 net.cpp:157] Top shape: 100 16 32 32 (1638400)
I1207 05:37:09.038992   369 net.cpp:165] Memory required for data: 27444400
I1207 05:37:09.039010   369 layer_factory.hpp:77] Creating layer L1_b1_brc1_relu
I1207 05:37:09.039057   369 net.cpp:100] Creating Layer L1_b1_brc1_relu
I1207 05:37:09.039067   369 net.cpp:434] L1_b1_brc1_relu <- L1_b1_brc1_bn_top
I1207 05:37:09.039075   369 net.cpp:395] L1_b1_brc1_relu -> L1_b1_brc1_bn_top (in-place)
I1207 05:37:09.039086   369 net.cpp:150] Setting up L1_b1_brc1_relu
I1207 05:37:09.039094   369 net.cpp:157] Top shape: 100 16 32 32 (1638400)
I1207 05:37:09.039099   369 net.cpp:165] Memory required for data: 33998000
I1207 05:37:09.039104   369 layer_factory.hpp:77] Creating layer L1_b1_brc1_conv
I1207 05:37:09.039119   369 net.cpp:100] Creating Layer L1_b1_brc1_conv
I1207 05:37:09.039125   369 net.cpp:434] L1_b1_brc1_conv <- L1_b1_brc1_bn_top
I1207 05:37:09.039139   369 net.cpp:408] L1_b1_brc1_conv -> L1_b1_brc1_conv_top
I1207 05:37:09.039408   369 net.cpp:150] Setting up L1_b1_brc1_conv
I1207 05:37:09.039423   369 net.cpp:157] Top shape: 100 16 32 32 (1638400)
I1207 05:37:09.039428   369 net.cpp:165] Memory required for data: 40551600
I1207 05:37:09.039438   369 layer_factory.hpp:77] Creating layer L1_b1_brc2_bn
I1207 05:37:09.039448   369 net.cpp:100] Creating Layer L1_b1_brc2_bn
I1207 05:37:09.039453   369 net.cpp:434] L1_b1_brc2_bn <- L1_b1_brc1_conv_top
I1207 05:37:09.039463   369 net.cpp:408] L1_b1_brc2_bn -> L1_b1_brc2_bn_top
I1207 05:37:09.039700   369 net.cpp:150] Setting up L1_b1_brc2_bn
I1207 05:37:09.039714   369 net.cpp:157] Top shape: 100 16 32 32 (1638400)
I1207 05:37:09.039721   369 net.cpp:165] Memory required for data: 47105200
I1207 05:37:09.039734   369 layer_factory.hpp:77] Creating layer L1_b1_brc2_relu
I1207 05:37:09.039747   369 net.cpp:100] Creating Layer L1_b1_brc2_relu
I1207 05:37:09.039753   369 net.cpp:434] L1_b1_brc2_relu <- L1_b1_brc2_bn_top
I1207 05:37:09.039762   369 net.cpp:395] L1_b1_brc2_relu -> L1_b1_brc2_bn_top (in-place)
I1207 05:37:09.039772   369 net.cpp:150] Setting up L1_b1_brc2_relu
I1207 05:37:09.039788   369 net.cpp:157] Top shape: 100 16 32 32 (1638400)
I1207 05:37:09.039793   369 net.cpp:165] Memory required for data: 53658800
I1207 05:37:09.039798   369 layer_factory.hpp:77] Creating layer L1_b1_brc2_conv
I1207 05:37:09.039809   369 net.cpp:100] Creating Layer L1_b1_brc2_conv
I1207 05:37:09.039814   369 net.cpp:434] L1_b1_brc2_conv <- L1_b1_brc2_bn_top
I1207 05:37:09.039826   369 net.cpp:408] L1_b1_brc2_conv -> L1_b1_brc2_conv_top
I1207 05:37:09.040150   369 net.cpp:150] Setting up L1_b1_brc2_conv
I1207 05:37:09.040165   369 net.cpp:157] Top shape: 100 16 32 32 (1638400)
I1207 05:37:09.040170   369 net.cpp:165] Memory required for data: 60212400
I1207 05:37:09.040179   369 layer_factory.hpp:77] Creating layer L1_b1_brc3_bn
I1207 05:37:09.040189   369 net.cpp:100] Creating Layer L1_b1_brc3_bn
I1207 05:37:09.040194   369 net.cpp:434] L1_b1_brc3_bn <- L1_b1_brc2_conv_top
I1207 05:37:09.040205   369 net.cpp:408] L1_b1_brc3_bn -> L1_b1_brc3_bn_top
I1207 05:37:09.040436   369 net.cpp:150] Setting up L1_b1_brc3_bn
I1207 05:37:09.040449   369 net.cpp:157] Top shape: 100 16 32 32 (1638400)
I1207 05:37:09.040454   369 net.cpp:165] Memory required for data: 66766000
I1207 05:37:09.040472   369 layer_factory.hpp:77] Creating layer L1_b1_brc3_relu
I1207 05:37:09.040484   369 net.cpp:100] Creating Layer L1_b1_brc3_relu
I1207 05:37:09.040490   369 net.cpp:434] L1_b1_brc3_relu <- L1_b1_brc3_bn_top
I1207 05:37:09.040498   369 net.cpp:395] L1_b1_brc3_relu -> L1_b1_brc3_bn_top (in-place)
I1207 05:37:09.040508   369 net.cpp:150] Setting up L1_b1_brc3_relu
I1207 05:37:09.040514   369 net.cpp:157] Top shape: 100 16 32 32 (1638400)
I1207 05:37:09.040519   369 net.cpp:165] Memory required for data: 73319600
I1207 05:37:09.040524   369 layer_factory.hpp:77] Creating layer L1_b1_brc3_conv
I1207 05:37:09.040535   369 net.cpp:100] Creating Layer L1_b1_brc3_conv
I1207 05:37:09.040540   369 net.cpp:434] L1_b1_brc3_conv <- L1_b1_brc3_bn_top
I1207 05:37:09.040551   369 net.cpp:408] L1_b1_brc3_conv -> L1_b1_brc3_conv_top
I1207 05:37:09.040834   369 net.cpp:150] Setting up L1_b1_brc3_conv
I1207 05:37:09.040848   369 net.cpp:157] Top shape: 100 64 32 32 (6553600)
I1207 05:37:09.040853   369 net.cpp:165] Memory required for data: 99534000
I1207 05:37:09.040866   369 layer_factory.hpp:77] Creating layer L1_b1_chanInc_conv
I1207 05:37:09.040881   369 net.cpp:100] Creating Layer L1_b1_chanInc_conv
I1207 05:37:09.040887   369 net.cpp:434] L1_b1_chanInc_conv <- pre_conv_top_pre_conv_0_split_1
I1207 05:37:09.040899   369 net.cpp:408] L1_b1_chanInc_conv -> L1_b1_chanInc_conv_top
I1207 05:37:09.041187   369 net.cpp:150] Setting up L1_b1_chanInc_conv
I1207 05:37:09.041200   369 net.cpp:157] Top shape: 100 64 32 32 (6553600)
I1207 05:37:09.041205   369 net.cpp:165] Memory required for data: 125748400
I1207 05:37:09.041214   369 layer_factory.hpp:77] Creating layer L1_b1_sum_eltwise
I1207 05:37:09.041265   369 net.cpp:100] Creating Layer L1_b1_sum_eltwise
I1207 05:37:09.041275   369 net.cpp:434] L1_b1_sum_eltwise <- L1_b1_brc3_conv_top
I1207 05:37:09.041281   369 net.cpp:434] L1_b1_sum_eltwise <- L1_b1_chanInc_conv_top
I1207 05:37:09.041293   369 net.cpp:408] L1_b1_sum_eltwise -> L1_b1_sum_eltwise_top
I1207 05:37:09.041366   369 net.cpp:150] Setting up L1_b1_sum_eltwise
I1207 05:37:09.041381   369 net.cpp:157] Top shape: 100 64 32 32 (6553600)
I1207 05:37:09.041386   369 net.cpp:165] Memory required for data: 151962800
I1207 05:37:09.041393   369 layer_factory.hpp:77] Creating layer L1_b1_sum_eltwise_top_L1_b1_sum_eltwise_0_split
I1207 05:37:09.041400   369 net.cpp:100] Creating Layer L1_b1_sum_eltwise_top_L1_b1_sum_eltwise_0_split
I1207 05:37:09.041406   369 net.cpp:434] L1_b1_sum_eltwise_top_L1_b1_sum_eltwise_0_split <- L1_b1_sum_eltwise_top
I1207 05:37:09.041417   369 net.cpp:408] L1_b1_sum_eltwise_top_L1_b1_sum_eltwise_0_split -> L1_b1_sum_eltwise_top_L1_b1_sum_eltwise_0_split_0
I1207 05:37:09.041427   369 net.cpp:408] L1_b1_sum_eltwise_top_L1_b1_sum_eltwise_0_split -> L1_b1_sum_eltwise_top_L1_b1_sum_eltwise_0_split_1
I1207 05:37:09.041489   369 net.cpp:150] Setting up L1_b1_sum_eltwise_top_L1_b1_sum_eltwise_0_split
I1207 05:37:09.041503   369 net.cpp:157] Top shape: 100 64 32 32 (6553600)
I1207 05:37:09.041512   369 net.cpp:157] Top shape: 100 64 32 32 (6553600)
I1207 05:37:09.041515   369 net.cpp:165] Memory required for data: 204391600
I1207 05:37:09.041522   369 layer_factory.hpp:77] Creating layer L1_b2_brc1_bn
I1207 05:37:09.041534   369 net.cpp:100] Creating Layer L1_b2_brc1_bn
I1207 05:37:09.041540   369 net.cpp:434] L1_b2_brc1_bn <- L1_b1_sum_eltwise_top_L1_b1_sum_eltwise_0_split_0
I1207 05:37:09.041549   369 net.cpp:408] L1_b2_brc1_bn -> L1_b2_brc1_bn_top
I1207 05:37:09.041774   369 net.cpp:150] Setting up L1_b2_brc1_bn
I1207 05:37:09.041788   369 net.cpp:157] Top shape: 100 64 32 32 (6553600)
I1207 05:37:09.041793   369 net.cpp:165] Memory required for data: 230606000
I1207 05:37:09.041805   369 layer_factory.hpp:77] Creating layer L1_b2_brc1_relu
I1207 05:37:09.041813   369 net.cpp:100] Creating Layer L1_b2_brc1_relu
I1207 05:37:09.041818   369 net.cpp:434] L1_b2_brc1_relu <- L1_b2_brc1_bn_top
I1207 05:37:09.041833   369 net.cpp:395] L1_b2_brc1_relu -> L1_b2_brc1_bn_top (in-place)
I1207 05:37:09.041843   369 net.cpp:150] Setting up L1_b2_brc1_relu
I1207 05:37:09.041851   369 net.cpp:157] Top shape: 100 64 32 32 (6553600)
I1207 05:37:09.041857   369 net.cpp:165] Memory required for data: 256820400
I1207 05:37:09.041862   369 layer_factory.hpp:77] Creating layer L1_b2_brc1_conv
I1207 05:37:09.041875   369 net.cpp:100] Creating Layer L1_b2_brc1_conv
I1207 05:37:09.041882   369 net.cpp:434] L1_b2_brc1_conv <- L1_b2_brc1_bn_top
I1207 05:37:09.041890   369 net.cpp:408] L1_b2_brc1_conv -> L1_b2_brc1_conv_top
I1207 05:37:09.042183   369 net.cpp:150] Setting up L1_b2_brc1_conv
I1207 05:37:09.042197   369 net.cpp:157] Top shape: 100 16 32 32 (1638400)
I1207 05:37:09.042202   369 net.cpp:165] Memory required for data: 263374000
I1207 05:37:09.042212   369 layer_factory.hpp:77] Creating layer L1_b2_brc2_bn
I1207 05:37:09.042219   369 net.cpp:100] Creating Layer L1_b2_brc2_bn
I1207 05:37:09.042228   369 net.cpp:434] L1_b2_brc2_bn <- L1_b2_brc1_conv_top
I1207 05:37:09.042237   369 net.cpp:408] L1_b2_brc2_bn -> L1_b2_brc2_bn_top
I1207 05:37:09.042471   369 net.cpp:150] Setting up L1_b2_brc2_bn
I1207 05:37:09.042485   369 net.cpp:157] Top shape: 100 16 32 32 (1638400)
I1207 05:37:09.042491   369 net.cpp:165] Memory required for data: 269927600
I1207 05:37:09.042501   369 layer_factory.hpp:77] Creating layer L1_b2_brc2_relu
I1207 05:37:09.042510   369 net.cpp:100] Creating Layer L1_b2_brc2_relu
I1207 05:37:09.042515   369 net.cpp:434] L1_b2_brc2_relu <- L1_b2_brc2_bn_top
I1207 05:37:09.042522   369 net.cpp:395] L1_b2_brc2_relu -> L1_b2_brc2_bn_top (in-place)
I1207 05:37:09.042531   369 net.cpp:150] Setting up L1_b2_brc2_relu
I1207 05:37:09.042538   369 net.cpp:157] Top shape: 100 16 32 32 (1638400)
I1207 05:37:09.042543   369 net.cpp:165] Memory required for data: 276481200
I1207 05:37:09.042548   369 layer_factory.hpp:77] Creating layer L1_b2_brc2_conv
I1207 05:37:09.042565   369 net.cpp:100] Creating Layer L1_b2_brc2_conv
I1207 05:37:09.042572   369 net.cpp:434] L1_b2_brc2_conv <- L1_b2_brc2_bn_top
I1207 05:37:09.042582   369 net.cpp:408] L1_b2_brc2_conv -> L1_b2_brc2_conv_top
I1207 05:37:09.042889   369 net.cpp:150] Setting up L1_b2_brc2_conv
I1207 05:37:09.042903   369 net.cpp:157] Top shape: 100 16 32 32 (1638400)
I1207 05:37:09.042908   369 net.cpp:165] Memory required for data: 283034800
I1207 05:37:09.042917   369 layer_factory.hpp:77] Creating layer L1_b2_brc3_bn
I1207 05:37:09.042929   369 net.cpp:100] Creating Layer L1_b2_brc3_bn
I1207 05:37:09.042935   369 net.cpp:434] L1_b2_brc3_bn <- L1_b2_brc2_conv_top
I1207 05:37:09.042946   369 net.cpp:408] L1_b2_brc3_bn -> L1_b2_brc3_bn_top
I1207 05:37:09.043179   369 net.cpp:150] Setting up L1_b2_brc3_bn
I1207 05:37:09.043192   369 net.cpp:157] Top shape: 100 16 32 32 (1638400)
I1207 05:37:09.043197   369 net.cpp:165] Memory required for data: 289588400
I1207 05:37:09.043207   369 layer_factory.hpp:77] Creating layer L1_b2_brc3_relu
I1207 05:37:09.043223   369 net.cpp:100] Creating Layer L1_b2_brc3_relu
I1207 05:37:09.043231   369 net.cpp:434] L1_b2_brc3_relu <- L1_b2_brc3_bn_top
I1207 05:37:09.043237   369 net.cpp:395] L1_b2_brc3_relu -> L1_b2_brc3_bn_top (in-place)
I1207 05:37:09.043247   369 net.cpp:150] Setting up L1_b2_brc3_relu
I1207 05:37:09.043254   369 net.cpp:157] Top shape: 100 16 32 32 (1638400)
I1207 05:37:09.043259   369 net.cpp:165] Memory required for data: 296142000
I1207 05:37:09.043263   369 layer_factory.hpp:77] Creating layer L1_b2_brc3_conv
I1207 05:37:09.043277   369 net.cpp:100] Creating Layer L1_b2_brc3_conv
I1207 05:37:09.043283   369 net.cpp:434] L1_b2_brc3_conv <- L1_b2_brc3_bn_top
I1207 05:37:09.043294   369 net.cpp:408] L1_b2_brc3_conv -> L1_b2_brc3_conv_top
I1207 05:37:09.043577   369 net.cpp:150] Setting up L1_b2_brc3_conv
I1207 05:37:09.043591   369 net.cpp:157] Top shape: 100 64 32 32 (6553600)
I1207 05:37:09.043597   369 net.cpp:165] Memory required for data: 322356400
I1207 05:37:09.043617   369 layer_factory.hpp:77] Creating layer L1_b2_sum_eltwise
I1207 05:37:09.043627   369 net.cpp:100] Creating Layer L1_b2_sum_eltwise
I1207 05:37:09.043633   369 net.cpp:434] L1_b2_sum_eltwise <- L1_b2_brc3_conv_top
I1207 05:37:09.043640   369 net.cpp:434] L1_b2_sum_eltwise <- L1_b1_sum_eltwise_top_L1_b1_sum_eltwise_0_split_1
I1207 05:37:09.043648   369 net.cpp:408] L1_b2_sum_eltwise -> L1_b2_sum_eltwise_top
I1207 05:37:09.043682   369 net.cpp:150] Setting up L1_b2_sum_eltwise
I1207 05:37:09.043692   369 net.cpp:157] Top shape: 100 64 32 32 (6553600)
I1207 05:37:09.043697   369 net.cpp:165] Memory required for data: 348570800
I1207 05:37:09.043702   369 layer_factory.hpp:77] Creating layer L1_b2_sum_eltwise_top_L1_b2_sum_eltwise_0_split
I1207 05:37:09.043709   369 net.cpp:100] Creating Layer L1_b2_sum_eltwise_top_L1_b2_sum_eltwise_0_split
I1207 05:37:09.043715   369 net.cpp:434] L1_b2_sum_eltwise_top_L1_b2_sum_eltwise_0_split <- L1_b2_sum_eltwise_top
I1207 05:37:09.043725   369 net.cpp:408] L1_b2_sum_eltwise_top_L1_b2_sum_eltwise_0_split -> L1_b2_sum_eltwise_top_L1_b2_sum_eltwise_0_split_0
I1207 05:37:09.043735   369 net.cpp:408] L1_b2_sum_eltwise_top_L1_b2_sum_eltwise_0_split -> L1_b2_sum_eltwise_top_L1_b2_sum_eltwise_0_split_1
I1207 05:37:09.043779   369 net.cpp:150] Setting up L1_b2_sum_eltwise_top_L1_b2_sum_eltwise_0_split
I1207 05:37:09.043790   369 net.cpp:157] Top shape: 100 64 32 32 (6553600)
I1207 05:37:09.043797   369 net.cpp:157] Top shape: 100 64 32 32 (6553600)
I1207 05:37:09.043802   369 net.cpp:165] Memory required for data: 400999600
I1207 05:37:09.043807   369 layer_factory.hpp:77] Creating layer L1_b3_brc1_bn
I1207 05:37:09.043815   369 net.cpp:100] Creating Layer L1_b3_brc1_bn
I1207 05:37:09.043822   369 net.cpp:434] L1_b3_brc1_bn <- L1_b2_sum_eltwise_top_L1_b2_sum_eltwise_0_split_0
I1207 05:37:09.043831   369 net.cpp:408] L1_b3_brc1_bn -> L1_b3_brc1_bn_top
I1207 05:37:09.044051   369 net.cpp:150] Setting up L1_b3_brc1_bn
I1207 05:37:09.044066   369 net.cpp:157] Top shape: 100 64 32 32 (6553600)
I1207 05:37:09.044072   369 net.cpp:165] Memory required for data: 427214000
I1207 05:37:09.044082   369 layer_factory.hpp:77] Creating layer L1_b3_brc1_relu
I1207 05:37:09.044090   369 net.cpp:100] Creating Layer L1_b3_brc1_relu
I1207 05:37:09.044096   369 net.cpp:434] L1_b3_brc1_relu <- L1_b3_brc1_bn_top
I1207 05:37:09.044103   369 net.cpp:395] L1_b3_brc1_relu -> L1_b3_brc1_bn_top (in-place)
I1207 05:37:09.044112   369 net.cpp:150] Setting up L1_b3_brc1_relu
I1207 05:37:09.044119   369 net.cpp:157] Top shape: 100 64 32 32 (6553600)
I1207 05:37:09.044124   369 net.cpp:165] Memory required for data: 453428400
I1207 05:37:09.044128   369 layer_factory.hpp:77] Creating layer L1_b3_brc1_conv
I1207 05:37:09.044139   369 net.cpp:100] Creating Layer L1_b3_brc1_conv
I1207 05:37:09.044144   369 net.cpp:434] L1_b3_brc1_conv <- L1_b3_brc1_bn_top
I1207 05:37:09.044155   369 net.cpp:408] L1_b3_brc1_conv -> L1_b3_brc1_conv_top
I1207 05:37:09.044440   369 net.cpp:150] Setting up L1_b3_brc1_conv
I1207 05:37:09.044461   369 net.cpp:157] Top shape: 100 16 32 32 (1638400)
I1207 05:37:09.044474   369 net.cpp:165] Memory required for data: 459982000
I1207 05:37:09.044484   369 layer_factory.hpp:77] Creating layer L1_b3_brc2_bn
I1207 05:37:09.044493   369 net.cpp:100] Creating Layer L1_b3_brc2_bn
I1207 05:37:09.044499   369 net.cpp:434] L1_b3_brc2_bn <- L1_b3_brc1_conv_top
I1207 05:37:09.044510   369 net.cpp:408] L1_b3_brc2_bn -> L1_b3_brc2_bn_top
I1207 05:37:09.044741   369 net.cpp:150] Setting up L1_b3_brc2_bn
I1207 05:37:09.044755   369 net.cpp:157] Top shape: 100 16 32 32 (1638400)
I1207 05:37:09.044760   369 net.cpp:165] Memory required for data: 466535600
I1207 05:37:09.044770   369 layer_factory.hpp:77] Creating layer L1_b3_brc2_relu
I1207 05:37:09.044782   369 net.cpp:100] Creating Layer L1_b3_brc2_relu
I1207 05:37:09.044788   369 net.cpp:434] L1_b3_brc2_relu <- L1_b3_brc2_bn_top
I1207 05:37:09.044795   369 net.cpp:395] L1_b3_brc2_relu -> L1_b3_brc2_bn_top (in-place)
I1207 05:37:09.044806   369 net.cpp:150] Setting up L1_b3_brc2_relu
I1207 05:37:09.044812   369 net.cpp:157] Top shape: 100 16 32 32 (1638400)
I1207 05:37:09.044816   369 net.cpp:165] Memory required for data: 473089200
I1207 05:37:09.044821   369 layer_factory.hpp:77] Creating layer L1_b3_brc2_conv
I1207 05:37:09.044837   369 net.cpp:100] Creating Layer L1_b3_brc2_conv
I1207 05:37:09.044844   369 net.cpp:434] L1_b3_brc2_conv <- L1_b3_brc2_bn_top
I1207 05:37:09.044852   369 net.cpp:408] L1_b3_brc2_conv -> L1_b3_brc2_conv_top
I1207 05:37:09.045156   369 net.cpp:150] Setting up L1_b3_brc2_conv
I1207 05:37:09.045169   369 net.cpp:157] Top shape: 100 16 32 32 (1638400)
I1207 05:37:09.045174   369 net.cpp:165] Memory required for data: 479642800
I1207 05:37:09.045183   369 layer_factory.hpp:77] Creating layer L1_b3_brc3_bn
I1207 05:37:09.045192   369 net.cpp:100] Creating Layer L1_b3_brc3_bn
I1207 05:37:09.045197   369 net.cpp:434] L1_b3_brc3_bn <- L1_b3_brc2_conv_top
I1207 05:37:09.045208   369 net.cpp:408] L1_b3_brc3_bn -> L1_b3_brc3_bn_top
I1207 05:37:09.045442   369 net.cpp:150] Setting up L1_b3_brc3_bn
I1207 05:37:09.045460   369 net.cpp:157] Top shape: 100 16 32 32 (1638400)
I1207 05:37:09.045478   369 net.cpp:165] Memory required for data: 486196400
I1207 05:37:09.045490   369 layer_factory.hpp:77] Creating layer L1_b3_brc3_relu
I1207 05:37:09.045497   369 net.cpp:100] Creating Layer L1_b3_brc3_relu
I1207 05:37:09.045503   369 net.cpp:434] L1_b3_brc3_relu <- L1_b3_brc3_bn_top
I1207 05:37:09.045511   369 net.cpp:395] L1_b3_brc3_relu -> L1_b3_brc3_bn_top (in-place)
I1207 05:37:09.045521   369 net.cpp:150] Setting up L1_b3_brc3_relu
I1207 05:37:09.045527   369 net.cpp:157] Top shape: 100 16 32 32 (1638400)
I1207 05:37:09.045532   369 net.cpp:165] Memory required for data: 492750000
I1207 05:37:09.045537   369 layer_factory.hpp:77] Creating layer L1_b3_brc3_conv
I1207 05:37:09.045547   369 net.cpp:100] Creating Layer L1_b3_brc3_conv
I1207 05:37:09.045552   369 net.cpp:434] L1_b3_brc3_conv <- L1_b3_brc3_bn_top
I1207 05:37:09.045564   369 net.cpp:408] L1_b3_brc3_conv -> L1_b3_brc3_conv_top
I1207 05:37:09.045848   369 net.cpp:150] Setting up L1_b3_brc3_conv
I1207 05:37:09.045861   369 net.cpp:157] Top shape: 100 64 32 32 (6553600)
I1207 05:37:09.045867   369 net.cpp:165] Memory required for data: 518964400
I1207 05:37:09.045876   369 layer_factory.hpp:77] Creating layer L1_b3_sum_eltwise
I1207 05:37:09.045884   369 net.cpp:100] Creating Layer L1_b3_sum_eltwise
I1207 05:37:09.045892   369 net.cpp:434] L1_b3_sum_eltwise <- L1_b3_brc3_conv_top
I1207 05:37:09.045898   369 net.cpp:434] L1_b3_sum_eltwise <- L1_b2_sum_eltwise_top_L1_b2_sum_eltwise_0_split_1
I1207 05:37:09.045907   369 net.cpp:408] L1_b3_sum_eltwise -> L1_b3_sum_eltwise_top
I1207 05:37:09.045949   369 net.cpp:150] Setting up L1_b3_sum_eltwise
I1207 05:37:09.045963   369 net.cpp:157] Top shape: 100 64 32 32 (6553600)
I1207 05:37:09.045967   369 net.cpp:165] Memory required for data: 545178800
I1207 05:37:09.045974   369 layer_factory.hpp:77] Creating layer L1_b3_sum_eltwise_top_L1_b3_sum_eltwise_0_split
I1207 05:37:09.045987   369 net.cpp:100] Creating Layer L1_b3_sum_eltwise_top_L1_b3_sum_eltwise_0_split
I1207 05:37:09.045994   369 net.cpp:434] L1_b3_sum_eltwise_top_L1_b3_sum_eltwise_0_split <- L1_b3_sum_eltwise_top
I1207 05:37:09.046005   369 net.cpp:408] L1_b3_sum_eltwise_top_L1_b3_sum_eltwise_0_split -> L1_b3_sum_eltwise_top_L1_b3_sum_eltwise_0_split_0
I1207 05:37:09.046015   369 net.cpp:408] L1_b3_sum_eltwise_top_L1_b3_sum_eltwise_0_split -> L1_b3_sum_eltwise_top_L1_b3_sum_eltwise_0_split_1
I1207 05:37:09.046061   369 net.cpp:150] Setting up L1_b3_sum_eltwise_top_L1_b3_sum_eltwise_0_split
I1207 05:37:09.046072   369 net.cpp:157] Top shape: 100 64 32 32 (6553600)
I1207 05:37:09.046079   369 net.cpp:157] Top shape: 100 64 32 32 (6553600)
I1207 05:37:09.046084   369 net.cpp:165] Memory required for data: 597607600
I1207 05:37:09.046089   369 layer_factory.hpp:77] Creating layer L1_b4_brc1_bn
I1207 05:37:09.046100   369 net.cpp:100] Creating Layer L1_b4_brc1_bn
I1207 05:37:09.046108   369 net.cpp:434] L1_b4_brc1_bn <- L1_b3_sum_eltwise_top_L1_b3_sum_eltwise_0_split_0
I1207 05:37:09.046118   369 net.cpp:408] L1_b4_brc1_bn -> L1_b4_brc1_bn_top
I1207 05:37:09.046342   369 net.cpp:150] Setting up L1_b4_brc1_bn
I1207 05:37:09.046355   369 net.cpp:157] Top shape: 100 64 32 32 (6553600)
I1207 05:37:09.046360   369 net.cpp:165] Memory required for data: 623822000
I1207 05:37:09.046371   369 layer_factory.hpp:77] Creating layer L1_b4_brc1_relu
I1207 05:37:09.046380   369 net.cpp:100] Creating Layer L1_b4_brc1_relu
I1207 05:37:09.046386   369 net.cpp:434] L1_b4_brc1_relu <- L1_b4_brc1_bn_top
I1207 05:37:09.046392   369 net.cpp:395] L1_b4_brc1_relu -> L1_b4_brc1_bn_top (in-place)
I1207 05:37:09.046401   369 net.cpp:150] Setting up L1_b4_brc1_relu
I1207 05:37:09.046408   369 net.cpp:157] Top shape: 100 64 32 32 (6553600)
I1207 05:37:09.046413   369 net.cpp:165] Memory required for data: 650036400
I1207 05:37:09.046417   369 layer_factory.hpp:77] Creating layer L1_b4_brc1_conv
I1207 05:37:09.046432   369 net.cpp:100] Creating Layer L1_b4_brc1_conv
I1207 05:37:09.046437   369 net.cpp:434] L1_b4_brc1_conv <- L1_b4_brc1_bn_top
I1207 05:37:09.046448   369 net.cpp:408] L1_b4_brc1_conv -> L1_b4_brc1_conv_top
I1207 05:37:09.046742   369 net.cpp:150] Setting up L1_b4_brc1_conv
I1207 05:37:09.046756   369 net.cpp:157] Top shape: 100 16 32 32 (1638400)
I1207 05:37:09.046762   369 net.cpp:165] Memory required for data: 656590000
I1207 05:37:09.046771   369 layer_factory.hpp:77] Creating layer L1_b4_brc2_bn
I1207 05:37:09.046782   369 net.cpp:100] Creating Layer L1_b4_brc2_bn
I1207 05:37:09.046788   369 net.cpp:434] L1_b4_brc2_bn <- L1_b4_brc1_conv_top
I1207 05:37:09.046797   369 net.cpp:408] L1_b4_brc2_bn -> L1_b4_brc2_bn_top
I1207 05:37:09.047030   369 net.cpp:150] Setting up L1_b4_brc2_bn
I1207 05:37:09.047044   369 net.cpp:157] Top shape: 100 16 32 32 (1638400)
I1207 05:37:09.047049   369 net.cpp:165] Memory required for data: 663143600
I1207 05:37:09.047058   369 layer_factory.hpp:77] Creating layer L1_b4_brc2_relu
I1207 05:37:09.047067   369 net.cpp:100] Creating Layer L1_b4_brc2_relu
I1207 05:37:09.047073   369 net.cpp:434] L1_b4_brc2_relu <- L1_b4_brc2_bn_top
I1207 05:37:09.047080   369 net.cpp:395] L1_b4_brc2_relu -> L1_b4_brc2_bn_top (in-place)
I1207 05:37:09.047089   369 net.cpp:150] Setting up L1_b4_brc2_relu
I1207 05:37:09.047096   369 net.cpp:157] Top shape: 100 16 32 32 (1638400)
I1207 05:37:09.047101   369 net.cpp:165] Memory required for data: 669697200
I1207 05:37:09.047106   369 layer_factory.hpp:77] Creating layer L1_b4_brc2_conv
I1207 05:37:09.047118   369 net.cpp:100] Creating Layer L1_b4_brc2_conv
I1207 05:37:09.047125   369 net.cpp:434] L1_b4_brc2_conv <- L1_b4_brc2_bn_top
I1207 05:37:09.047135   369 net.cpp:408] L1_b4_brc2_conv -> L1_b4_brc2_conv_top
I1207 05:37:09.047451   369 net.cpp:150] Setting up L1_b4_brc2_conv
I1207 05:37:09.047471   369 net.cpp:157] Top shape: 100 16 32 32 (1638400)
I1207 05:37:09.047477   369 net.cpp:165] Memory required for data: 676250800
I1207 05:37:09.047487   369 layer_factory.hpp:77] Creating layer L1_b4_brc3_bn
I1207 05:37:09.047505   369 net.cpp:100] Creating Layer L1_b4_brc3_bn
I1207 05:37:09.047513   369 net.cpp:434] L1_b4_brc3_bn <- L1_b4_brc2_conv_top
I1207 05:37:09.047521   369 net.cpp:408] L1_b4_brc3_bn -> L1_b4_brc3_bn_top
I1207 05:37:09.047758   369 net.cpp:150] Setting up L1_b4_brc3_bn
I1207 05:37:09.047771   369 net.cpp:157] Top shape: 100 16 32 32 (1638400)
I1207 05:37:09.047776   369 net.cpp:165] Memory required for data: 682804400
I1207 05:37:09.047787   369 layer_factory.hpp:77] Creating layer L1_b4_brc3_relu
I1207 05:37:09.047796   369 net.cpp:100] Creating Layer L1_b4_brc3_relu
I1207 05:37:09.047801   369 net.cpp:434] L1_b4_brc3_relu <- L1_b4_brc3_bn_top
I1207 05:37:09.047807   369 net.cpp:395] L1_b4_brc3_relu -> L1_b4_brc3_bn_top (in-place)
I1207 05:37:09.047817   369 net.cpp:150] Setting up L1_b4_brc3_relu
I1207 05:37:09.047824   369 net.cpp:157] Top shape: 100 16 32 32 (1638400)
I1207 05:37:09.047828   369 net.cpp:165] Memory required for data: 689358000
I1207 05:37:09.047834   369 layer_factory.hpp:77] Creating layer L1_b4_brc3_conv
I1207 05:37:09.047847   369 net.cpp:100] Creating Layer L1_b4_brc3_conv
I1207 05:37:09.047853   369 net.cpp:434] L1_b4_brc3_conv <- L1_b4_brc3_bn_top
I1207 05:37:09.047861   369 net.cpp:408] L1_b4_brc3_conv -> L1_b4_brc3_conv_top
I1207 05:37:09.048146   369 net.cpp:150] Setting up L1_b4_brc3_conv
I1207 05:37:09.048161   369 net.cpp:157] Top shape: 100 64 32 32 (6553600)
I1207 05:37:09.048166   369 net.cpp:165] Memory required for data: 715572400
I1207 05:37:09.048174   369 layer_factory.hpp:77] Creating layer L1_b4_sum_eltwise
I1207 05:37:09.048183   369 net.cpp:100] Creating Layer L1_b4_sum_eltwise
I1207 05:37:09.048189   369 net.cpp:434] L1_b4_sum_eltwise <- L1_b4_brc3_conv_top
I1207 05:37:09.048197   369 net.cpp:434] L1_b4_sum_eltwise <- L1_b3_sum_eltwise_top_L1_b3_sum_eltwise_0_split_1
I1207 05:37:09.048207   369 net.cpp:408] L1_b4_sum_eltwise -> L1_b4_sum_eltwise_top
I1207 05:37:09.048238   369 net.cpp:150] Setting up L1_b4_sum_eltwise
I1207 05:37:09.048249   369 net.cpp:157] Top shape: 100 64 32 32 (6553600)
I1207 05:37:09.048254   369 net.cpp:165] Memory required for data: 741786800
I1207 05:37:09.048260   369 layer_factory.hpp:77] Creating layer L1_b4_sum_eltwise_top_L1_b4_sum_eltwise_0_split
I1207 05:37:09.048267   369 net.cpp:100] Creating Layer L1_b4_sum_eltwise_top_L1_b4_sum_eltwise_0_split
I1207 05:37:09.048274   369 net.cpp:434] L1_b4_sum_eltwise_top_L1_b4_sum_eltwise_0_split <- L1_b4_sum_eltwise_top
I1207 05:37:09.048280   369 net.cpp:408] L1_b4_sum_eltwise_top_L1_b4_sum_eltwise_0_split -> L1_b4_sum_eltwise_top_L1_b4_sum_eltwise_0_split_0
I1207 05:37:09.048291   369 net.cpp:408] L1_b4_sum_eltwise_top_L1_b4_sum_eltwise_0_split -> L1_b4_sum_eltwise_top_L1_b4_sum_eltwise_0_split_1
I1207 05:37:09.048336   369 net.cpp:150] Setting up L1_b4_sum_eltwise_top_L1_b4_sum_eltwise_0_split
I1207 05:37:09.048346   369 net.cpp:157] Top shape: 100 64 32 32 (6553600)
I1207 05:37:09.048353   369 net.cpp:157] Top shape: 100 64 32 32 (6553600)
I1207 05:37:09.048357   369 net.cpp:165] Memory required for data: 794215600
I1207 05:37:09.048363   369 layer_factory.hpp:77] Creating layer L1_b5_brc1_bn
I1207 05:37:09.048374   369 net.cpp:100] Creating Layer L1_b5_brc1_bn
I1207 05:37:09.048380   369 net.cpp:434] L1_b5_brc1_bn <- L1_b4_sum_eltwise_top_L1_b4_sum_eltwise_0_split_0
I1207 05:37:09.048388   369 net.cpp:408] L1_b5_brc1_bn -> L1_b5_brc1_bn_top
I1207 05:37:09.048619   369 net.cpp:150] Setting up L1_b5_brc1_bn
I1207 05:37:09.048632   369 net.cpp:157] Top shape: 100 64 32 32 (6553600)
I1207 05:37:09.048637   369 net.cpp:165] Memory required for data: 820430000
I1207 05:37:09.048666   369 layer_factory.hpp:77] Creating layer L1_b5_brc1_relu
I1207 05:37:09.048676   369 net.cpp:100] Creating Layer L1_b5_brc1_relu
I1207 05:37:09.048681   369 net.cpp:434] L1_b5_brc1_relu <- L1_b5_brc1_bn_top
I1207 05:37:09.048689   369 net.cpp:395] L1_b5_brc1_relu -> L1_b5_brc1_bn_top (in-place)
I1207 05:37:09.048698   369 net.cpp:150] Setting up L1_b5_brc1_relu
I1207 05:37:09.048713   369 net.cpp:157] Top shape: 100 64 32 32 (6553600)
I1207 05:37:09.048718   369 net.cpp:165] Memory required for data: 846644400
I1207 05:37:09.048723   369 layer_factory.hpp:77] Creating layer L1_b5_brc1_conv
I1207 05:37:09.048739   369 net.cpp:100] Creating Layer L1_b5_brc1_conv
I1207 05:37:09.048745   369 net.cpp:434] L1_b5_brc1_conv <- L1_b5_brc1_bn_top
I1207 05:37:09.048754   369 net.cpp:408] L1_b5_brc1_conv -> L1_b5_brc1_conv_top
I1207 05:37:09.049041   369 net.cpp:150] Setting up L1_b5_brc1_conv
I1207 05:37:09.049054   369 net.cpp:157] Top shape: 100 16 32 32 (1638400)
I1207 05:37:09.049060   369 net.cpp:165] Memory required for data: 853198000
I1207 05:37:09.049068   369 layer_factory.hpp:77] Creating layer L1_b5_brc2_bn
I1207 05:37:09.049077   369 net.cpp:100] Creating Layer L1_b5_brc2_bn
I1207 05:37:09.049083   369 net.cpp:434] L1_b5_brc2_bn <- L1_b5_brc1_conv_top
I1207 05:37:09.049094   369 net.cpp:408] L1_b5_brc2_bn -> L1_b5_brc2_bn_top
I1207 05:37:09.049327   369 net.cpp:150] Setting up L1_b5_brc2_bn
I1207 05:37:09.049343   369 net.cpp:157] Top shape: 100 16 32 32 (1638400)
I1207 05:37:09.049348   369 net.cpp:165] Memory required for data: 859751600
I1207 05:37:09.049360   369 layer_factory.hpp:77] Creating layer L1_b5_brc2_relu
I1207 05:37:09.049368   369 net.cpp:100] Creating Layer L1_b5_brc2_relu
I1207 05:37:09.049374   369 net.cpp:434] L1_b5_brc2_relu <- L1_b5_brc2_bn_top
I1207 05:37:09.049381   369 net.cpp:395] L1_b5_brc2_relu -> L1_b5_brc2_bn_top (in-place)
I1207 05:37:09.049391   369 net.cpp:150] Setting up L1_b5_brc2_relu
I1207 05:37:09.049398   369 net.cpp:157] Top shape: 100 16 32 32 (1638400)
I1207 05:37:09.049402   369 net.cpp:165] Memory required for data: 866305200
I1207 05:37:09.049408   369 layer_factory.hpp:77] Creating layer L1_b5_brc2_conv
I1207 05:37:09.049418   369 net.cpp:100] Creating Layer L1_b5_brc2_conv
I1207 05:37:09.049423   369 net.cpp:434] L1_b5_brc2_conv <- L1_b5_brc2_bn_top
I1207 05:37:09.049435   369 net.cpp:408] L1_b5_brc2_conv -> L1_b5_brc2_conv_top
I1207 05:37:09.049752   369 net.cpp:150] Setting up L1_b5_brc2_conv
I1207 05:37:09.049767   369 net.cpp:157] Top shape: 100 16 32 32 (1638400)
I1207 05:37:09.049772   369 net.cpp:165] Memory required for data: 872858800
I1207 05:37:09.049782   369 layer_factory.hpp:77] Creating layer L1_b5_brc3_bn
I1207 05:37:09.049789   369 net.cpp:100] Creating Layer L1_b5_brc3_bn
I1207 05:37:09.049795   369 net.cpp:434] L1_b5_brc3_bn <- L1_b5_brc2_conv_top
I1207 05:37:09.049806   369 net.cpp:408] L1_b5_brc3_bn -> L1_b5_brc3_bn_top
I1207 05:37:09.050050   369 net.cpp:150] Setting up L1_b5_brc3_bn
I1207 05:37:09.050062   369 net.cpp:157] Top shape: 100 16 32 32 (1638400)
I1207 05:37:09.050067   369 net.cpp:165] Memory required for data: 879412400
I1207 05:37:09.050077   369 layer_factory.hpp:77] Creating layer L1_b5_brc3_relu
I1207 05:37:09.050089   369 net.cpp:100] Creating Layer L1_b5_brc3_relu
I1207 05:37:09.050096   369 net.cpp:434] L1_b5_brc3_relu <- L1_b5_brc3_bn_top
I1207 05:37:09.050102   369 net.cpp:395] L1_b5_brc3_relu -> L1_b5_brc3_bn_top (in-place)
I1207 05:37:09.050113   369 net.cpp:150] Setting up L1_b5_brc3_relu
I1207 05:37:09.050120   369 net.cpp:157] Top shape: 100 16 32 32 (1638400)
I1207 05:37:09.050124   369 net.cpp:165] Memory required for data: 885966000
I1207 05:37:09.050130   369 layer_factory.hpp:77] Creating layer L1_b5_brc3_conv
I1207 05:37:09.050140   369 net.cpp:100] Creating Layer L1_b5_brc3_conv
I1207 05:37:09.050146   369 net.cpp:434] L1_b5_brc3_conv <- L1_b5_brc3_bn_top
I1207 05:37:09.050158   369 net.cpp:408] L1_b5_brc3_conv -> L1_b5_brc3_conv_top
I1207 05:37:09.050443   369 net.cpp:150] Setting up L1_b5_brc3_conv
I1207 05:37:09.050457   369 net.cpp:157] Top shape: 100 64 32 32 (6553600)
I1207 05:37:09.050462   369 net.cpp:165] Memory required for data: 912180400
I1207 05:37:09.050477   369 layer_factory.hpp:77] Creating layer L1_b5_sum_eltwise
I1207 05:37:09.050487   369 net.cpp:100] Creating Layer L1_b5_sum_eltwise
I1207 05:37:09.050493   369 net.cpp:434] L1_b5_sum_eltwise <- L1_b5_brc3_conv_top
I1207 05:37:09.050508   369 net.cpp:434] L1_b5_sum_eltwise <- L1_b4_sum_eltwise_top_L1_b4_sum_eltwise_0_split_1
I1207 05:37:09.050515   369 net.cpp:408] L1_b5_sum_eltwise -> L1_b5_sum_eltwise_top
I1207 05:37:09.050552   369 net.cpp:150] Setting up L1_b5_sum_eltwise
I1207 05:37:09.050564   369 net.cpp:157] Top shape: 100 64 32 32 (6553600)
I1207 05:37:09.050568   369 net.cpp:165] Memory required for data: 938394800
I1207 05:37:09.050575   369 layer_factory.hpp:77] Creating layer L1_b5_sum_eltwise_top_L1_b5_sum_eltwise_0_split
I1207 05:37:09.050585   369 net.cpp:100] Creating Layer L1_b5_sum_eltwise_top_L1_b5_sum_eltwise_0_split
I1207 05:37:09.050590   369 net.cpp:434] L1_b5_sum_eltwise_top_L1_b5_sum_eltwise_0_split <- L1_b5_sum_eltwise_top
I1207 05:37:09.050597   369 net.cpp:408] L1_b5_sum_eltwise_top_L1_b5_sum_eltwise_0_split -> L1_b5_sum_eltwise_top_L1_b5_sum_eltwise_0_split_0
I1207 05:37:09.050607   369 net.cpp:408] L1_b5_sum_eltwise_top_L1_b5_sum_eltwise_0_split -> L1_b5_sum_eltwise_top_L1_b5_sum_eltwise_0_split_1
I1207 05:37:09.050655   369 net.cpp:150] Setting up L1_b5_sum_eltwise_top_L1_b5_sum_eltwise_0_split
I1207 05:37:09.050667   369 net.cpp:157] Top shape: 100 64 32 32 (6553600)
I1207 05:37:09.050673   369 net.cpp:157] Top shape: 100 64 32 32 (6553600)
I1207 05:37:09.050678   369 net.cpp:165] Memory required for data: 990823600
I1207 05:37:09.050683   369 layer_factory.hpp:77] Creating layer L1_b6_brc1_bn
I1207 05:37:09.050691   369 net.cpp:100] Creating Layer L1_b6_brc1_bn
I1207 05:37:09.050698   369 net.cpp:434] L1_b6_brc1_bn <- L1_b5_sum_eltwise_top_L1_b5_sum_eltwise_0_split_0
I1207 05:37:09.050707   369 net.cpp:408] L1_b6_brc1_bn -> L1_b6_brc1_bn_top
I1207 05:37:09.050936   369 net.cpp:150] Setting up L1_b6_brc1_bn
I1207 05:37:09.050951   369 net.cpp:157] Top shape: 100 64 32 32 (6553600)
I1207 05:37:09.050956   369 net.cpp:165] Memory required for data: 1017038000
I1207 05:37:09.050967   369 layer_factory.hpp:77] Creating layer L1_b6_brc1_relu
I1207 05:37:09.050976   369 net.cpp:100] Creating Layer L1_b6_brc1_relu
I1207 05:37:09.050981   369 net.cpp:434] L1_b6_brc1_relu <- L1_b6_brc1_bn_top
I1207 05:37:09.050988   369 net.cpp:395] L1_b6_brc1_relu -> L1_b6_brc1_bn_top (in-place)
I1207 05:37:09.050998   369 net.cpp:150] Setting up L1_b6_brc1_relu
I1207 05:37:09.051005   369 net.cpp:157] Top shape: 100 64 32 32 (6553600)
I1207 05:37:09.051009   369 net.cpp:165] Memory required for data: 1043252400
I1207 05:37:09.051014   369 layer_factory.hpp:77] Creating layer L1_b6_brc1_conv
I1207 05:37:09.051028   369 net.cpp:100] Creating Layer L1_b6_brc1_conv
I1207 05:37:09.051034   369 net.cpp:434] L1_b6_brc1_conv <- L1_b6_brc1_bn_top
I1207 05:37:09.051043   369 net.cpp:408] L1_b6_brc1_conv -> L1_b6_brc1_conv_top
I1207 05:37:09.051331   369 net.cpp:150] Setting up L1_b6_brc1_conv
I1207 05:37:09.051343   369 net.cpp:157] Top shape: 100 16 32 32 (1638400)
I1207 05:37:09.051348   369 net.cpp:165] Memory required for data: 1049806000
I1207 05:37:09.051357   369 layer_factory.hpp:77] Creating layer L1_b6_brc2_bn
I1207 05:37:09.051367   369 net.cpp:100] Creating Layer L1_b6_brc2_bn
I1207 05:37:09.051373   369 net.cpp:434] L1_b6_brc2_bn <- L1_b6_brc1_conv_top
I1207 05:37:09.051383   369 net.cpp:408] L1_b6_brc2_bn -> L1_b6_brc2_bn_top
I1207 05:37:09.051630   369 net.cpp:150] Setting up L1_b6_brc2_bn
I1207 05:37:09.051647   369 net.cpp:157] Top shape: 100 16 32 32 (1638400)
I1207 05:37:09.051652   369 net.cpp:165] Memory required for data: 1056359600
I1207 05:37:09.051663   369 layer_factory.hpp:77] Creating layer L1_b6_brc2_relu
I1207 05:37:09.051676   369 net.cpp:100] Creating Layer L1_b6_brc2_relu
I1207 05:37:09.051682   369 net.cpp:434] L1_b6_brc2_relu <- L1_b6_brc2_bn_top
I1207 05:37:09.051689   369 net.cpp:395] L1_b6_brc2_relu -> L1_b6_brc2_bn_top (in-place)
I1207 05:37:09.051699   369 net.cpp:150] Setting up L1_b6_brc2_relu
I1207 05:37:09.051705   369 net.cpp:157] Top shape: 100 16 32 32 (1638400)
I1207 05:37:09.051710   369 net.cpp:165] Memory required for data: 1062913200
I1207 05:37:09.051715   369 layer_factory.hpp:77] Creating layer L1_b6_brc2_conv
I1207 05:37:09.051736   369 net.cpp:100] Creating Layer L1_b6_brc2_conv
I1207 05:37:09.051743   369 net.cpp:434] L1_b6_brc2_conv <- L1_b6_brc2_bn_top
I1207 05:37:09.051754   369 net.cpp:408] L1_b6_brc2_conv -> L1_b6_brc2_conv_top
I1207 05:37:09.052073   369 net.cpp:150] Setting up L1_b6_brc2_conv
I1207 05:37:09.052086   369 net.cpp:157] Top shape: 100 16 32 32 (1638400)
I1207 05:37:09.052093   369 net.cpp:165] Memory required for data: 1069466800
I1207 05:37:09.052100   369 layer_factory.hpp:77] Creating layer L1_b6_brc3_bn
I1207 05:37:09.052112   369 net.cpp:100] Creating Layer L1_b6_brc3_bn
I1207 05:37:09.052119   369 net.cpp:434] L1_b6_brc3_bn <- L1_b6_brc2_conv_top
I1207 05:37:09.052126   369 net.cpp:408] L1_b6_brc3_bn -> L1_b6_brc3_bn_top
I1207 05:37:09.052364   369 net.cpp:150] Setting up L1_b6_brc3_bn
I1207 05:37:09.052377   369 net.cpp:157] Top shape: 100 16 32 32 (1638400)
I1207 05:37:09.052382   369 net.cpp:165] Memory required for data: 1076020400
I1207 05:37:09.052392   369 layer_factory.hpp:77] Creating layer L1_b6_brc3_relu
I1207 05:37:09.052402   369 net.cpp:100] Creating Layer L1_b6_brc3_relu
I1207 05:37:09.052407   369 net.cpp:434] L1_b6_brc3_relu <- L1_b6_brc3_bn_top
I1207 05:37:09.052413   369 net.cpp:395] L1_b6_brc3_relu -> L1_b6_brc3_bn_top (in-place)
I1207 05:37:09.052423   369 net.cpp:150] Setting up L1_b6_brc3_relu
I1207 05:37:09.052430   369 net.cpp:157] Top shape: 100 16 32 32 (1638400)
I1207 05:37:09.052434   369 net.cpp:165] Memory required for data: 1082574000
I1207 05:37:09.052439   369 layer_factory.hpp:77] Creating layer L1_b6_brc3_conv
I1207 05:37:09.052453   369 net.cpp:100] Creating Layer L1_b6_brc3_conv
I1207 05:37:09.052459   369 net.cpp:434] L1_b6_brc3_conv <- L1_b6_brc3_bn_top
I1207 05:37:09.052475   369 net.cpp:408] L1_b6_brc3_conv -> L1_b6_brc3_conv_top
I1207 05:37:09.052779   369 net.cpp:150] Setting up L1_b6_brc3_conv
I1207 05:37:09.052793   369 net.cpp:157] Top shape: 100 64 32 32 (6553600)
I1207 05:37:09.052798   369 net.cpp:165] Memory required for data: 1108788400
I1207 05:37:09.052808   369 layer_factory.hpp:77] Creating layer L1_b6_sum_eltwise
I1207 05:37:09.052819   369 net.cpp:100] Creating Layer L1_b6_sum_eltwise
I1207 05:37:09.052825   369 net.cpp:434] L1_b6_sum_eltwise <- L1_b6_brc3_conv_top
I1207 05:37:09.052834   369 net.cpp:434] L1_b6_sum_eltwise <- L1_b5_sum_eltwise_top_L1_b5_sum_eltwise_0_split_1
I1207 05:37:09.052840   369 net.cpp:408] L1_b6_sum_eltwise -> L1_b6_sum_eltwise_top
I1207 05:37:09.052875   369 net.cpp:150] Setting up L1_b6_sum_eltwise
I1207 05:37:09.052884   369 net.cpp:157] Top shape: 100 64 32 32 (6553600)
I1207 05:37:09.052888   369 net.cpp:165] Memory required for data: 1135002800
I1207 05:37:09.052894   369 layer_factory.hpp:77] Creating layer L1_b6_sum_eltwise_top_L1_b6_sum_eltwise_0_split
I1207 05:37:09.052901   369 net.cpp:100] Creating Layer L1_b6_sum_eltwise_top_L1_b6_sum_eltwise_0_split
I1207 05:37:09.052907   369 net.cpp:434] L1_b6_sum_eltwise_top_L1_b6_sum_eltwise_0_split <- L1_b6_sum_eltwise_top
I1207 05:37:09.052917   369 net.cpp:408] L1_b6_sum_eltwise_top_L1_b6_sum_eltwise_0_split -> L1_b6_sum_eltwise_top_L1_b6_sum_eltwise_0_split_0
I1207 05:37:09.052927   369 net.cpp:408] L1_b6_sum_eltwise_top_L1_b6_sum_eltwise_0_split -> L1_b6_sum_eltwise_top_L1_b6_sum_eltwise_0_split_1
I1207 05:37:09.052970   369 net.cpp:150] Setting up L1_b6_sum_eltwise_top_L1_b6_sum_eltwise_0_split
I1207 05:37:09.052985   369 net.cpp:157] Top shape: 100 64 32 32 (6553600)
I1207 05:37:09.052992   369 net.cpp:157] Top shape: 100 64 32 32 (6553600)
I1207 05:37:09.052997   369 net.cpp:165] Memory required for data: 1187431600
I1207 05:37:09.053002   369 layer_factory.hpp:77] Creating layer L2_b1_brc1_bn
I1207 05:37:09.053011   369 net.cpp:100] Creating Layer L2_b1_brc1_bn
I1207 05:37:09.053016   369 net.cpp:434] L2_b1_brc1_bn <- L1_b6_sum_eltwise_top_L1_b6_sum_eltwise_0_split_0
I1207 05:37:09.053027   369 net.cpp:408] L2_b1_brc1_bn -> L2_b1_brc1_bn_top
I1207 05:37:09.053253   369 net.cpp:150] Setting up L2_b1_brc1_bn
I1207 05:37:09.053274   369 net.cpp:157] Top shape: 100 64 32 32 (6553600)
I1207 05:37:09.053280   369 net.cpp:165] Memory required for data: 1213646000
I1207 05:37:09.053290   369 layer_factory.hpp:77] Creating layer L2_b1_brc1_relu
I1207 05:37:09.053298   369 net.cpp:100] Creating Layer L2_b1_brc1_relu
I1207 05:37:09.053304   369 net.cpp:434] L2_b1_brc1_relu <- L2_b1_brc1_bn_top
I1207 05:37:09.053311   369 net.cpp:395] L2_b1_brc1_relu -> L2_b1_brc1_bn_top (in-place)
I1207 05:37:09.053321   369 net.cpp:150] Setting up L2_b1_brc1_relu
I1207 05:37:09.053328   369 net.cpp:157] Top shape: 100 64 32 32 (6553600)
I1207 05:37:09.053333   369 net.cpp:165] Memory required for data: 1239860400
I1207 05:37:09.053337   369 layer_factory.hpp:77] Creating layer L2_b1_brc1_conv
I1207 05:37:09.053351   369 net.cpp:100] Creating Layer L2_b1_brc1_conv
I1207 05:37:09.053357   369 net.cpp:434] L2_b1_brc1_conv <- L2_b1_brc1_bn_top
I1207 05:37:09.053369   369 net.cpp:408] L2_b1_brc1_conv -> L2_b1_brc1_conv_top
I1207 05:37:09.053695   369 net.cpp:150] Setting up L2_b1_brc1_conv
I1207 05:37:09.053710   369 net.cpp:157] Top shape: 100 32 16 16 (819200)
I1207 05:37:09.053715   369 net.cpp:165] Memory required for data: 1243137200
I1207 05:37:09.053725   369 layer_factory.hpp:77] Creating layer L2_b1_brc2_bn
I1207 05:37:09.053733   369 net.cpp:100] Creating Layer L2_b1_brc2_bn
I1207 05:37:09.053740   369 net.cpp:434] L2_b1_brc2_bn <- L2_b1_brc1_conv_top
I1207 05:37:09.053750   369 net.cpp:408] L2_b1_brc2_bn -> L2_b1_brc2_bn_top
I1207 05:37:09.053993   369 net.cpp:150] Setting up L2_b1_brc2_bn
I1207 05:37:09.054008   369 net.cpp:157] Top shape: 100 32 16 16 (819200)
I1207 05:37:09.054013   369 net.cpp:165] Memory required for data: 1246414000
I1207 05:37:09.054023   369 layer_factory.hpp:77] Creating layer L2_b1_brc2_relu
I1207 05:37:09.054031   369 net.cpp:100] Creating Layer L2_b1_brc2_relu
I1207 05:37:09.054038   369 net.cpp:434] L2_b1_brc2_relu <- L2_b1_brc2_bn_top
I1207 05:37:09.054047   369 net.cpp:395] L2_b1_brc2_relu -> L2_b1_brc2_bn_top (in-place)
I1207 05:37:09.054056   369 net.cpp:150] Setting up L2_b1_brc2_relu
I1207 05:37:09.054064   369 net.cpp:157] Top shape: 100 32 16 16 (819200)
I1207 05:37:09.054069   369 net.cpp:165] Memory required for data: 1249690800
I1207 05:37:09.054074   369 layer_factory.hpp:77] Creating layer L2_b1_brc2_conv
I1207 05:37:09.054087   369 net.cpp:100] Creating Layer L2_b1_brc2_conv
I1207 05:37:09.054093   369 net.cpp:434] L2_b1_brc2_conv <- L2_b1_brc2_bn_top
I1207 05:37:09.054105   369 net.cpp:408] L2_b1_brc2_conv -> L2_b1_brc2_conv_top
I1207 05:37:09.055619   369 net.cpp:150] Setting up L2_b1_brc2_conv
I1207 05:37:09.055637   369 net.cpp:157] Top shape: 100 32 16 16 (819200)
I1207 05:37:09.055642   369 net.cpp:165] Memory required for data: 1252967600
I1207 05:37:09.055652   369 layer_factory.hpp:77] Creating layer L2_b1_brc3_bn
I1207 05:37:09.055665   369 net.cpp:100] Creating Layer L2_b1_brc3_bn
I1207 05:37:09.055671   369 net.cpp:434] L2_b1_brc3_bn <- L2_b1_brc2_conv_top
I1207 05:37:09.055682   369 net.cpp:408] L2_b1_brc3_bn -> L2_b1_brc3_bn_top
I1207 05:37:09.055919   369 net.cpp:150] Setting up L2_b1_brc3_bn
I1207 05:37:09.055932   369 net.cpp:157] Top shape: 100 32 16 16 (819200)
I1207 05:37:09.055938   369 net.cpp:165] Memory required for data: 1256244400
I1207 05:37:09.055948   369 layer_factory.hpp:77] Creating layer L2_b1_brc3_relu
I1207 05:37:09.055956   369 net.cpp:100] Creating Layer L2_b1_brc3_relu
I1207 05:37:09.055963   369 net.cpp:434] L2_b1_brc3_relu <- L2_b1_brc3_bn_top
I1207 05:37:09.055970   369 net.cpp:395] L2_b1_brc3_relu -> L2_b1_brc3_bn_top (in-place)
I1207 05:37:09.055979   369 net.cpp:150] Setting up L2_b1_brc3_relu
I1207 05:37:09.055986   369 net.cpp:157] Top shape: 100 32 16 16 (819200)
I1207 05:37:09.055991   369 net.cpp:165] Memory required for data: 1259521200
I1207 05:37:09.055996   369 layer_factory.hpp:77] Creating layer L2_b1_brc3_conv
I1207 05:37:09.056010   369 net.cpp:100] Creating Layer L2_b1_brc3_conv
I1207 05:37:09.056016   369 net.cpp:434] L2_b1_brc3_conv <- L2_b1_brc3_bn_top
I1207 05:37:09.056036   369 net.cpp:408] L2_b1_brc3_conv -> L2_b1_brc3_conv_top
I1207 05:37:09.056392   369 net.cpp:150] Setting up L2_b1_brc3_conv
I1207 05:37:09.056406   369 net.cpp:157] Top shape: 100 128 16 16 (3276800)
I1207 05:37:09.056411   369 net.cpp:165] Memory required for data: 1272628400
I1207 05:37:09.056421   369 layer_factory.hpp:77] Creating layer L2_b1_chanInc_conv
I1207 05:37:09.056442   369 net.cpp:100] Creating Layer L2_b1_chanInc_conv
I1207 05:37:09.056449   369 net.cpp:434] L2_b1_chanInc_conv <- L1_b6_sum_eltwise_top_L1_b6_sum_eltwise_0_split_1
I1207 05:37:09.056462   369 net.cpp:408] L2_b1_chanInc_conv -> L2_b1_chanInc_conv_top
I1207 05:37:09.056896   369 net.cpp:150] Setting up L2_b1_chanInc_conv
I1207 05:37:09.056910   369 net.cpp:157] Top shape: 100 128 16 16 (3276800)
I1207 05:37:09.056915   369 net.cpp:165] Memory required for data: 1285735600
I1207 05:37:09.056924   369 layer_factory.hpp:77] Creating layer L2_b1_sum_eltwise
I1207 05:37:09.056934   369 net.cpp:100] Creating Layer L2_b1_sum_eltwise
I1207 05:37:09.056941   369 net.cpp:434] L2_b1_sum_eltwise <- L2_b1_brc3_conv_top
I1207 05:37:09.056947   369 net.cpp:434] L2_b1_sum_eltwise <- L2_b1_chanInc_conv_top
I1207 05:37:09.056958   369 net.cpp:408] L2_b1_sum_eltwise -> L2_b1_sum_eltwise_top
I1207 05:37:09.056985   369 net.cpp:150] Setting up L2_b1_sum_eltwise
I1207 05:37:09.056994   369 net.cpp:157] Top shape: 100 128 16 16 (3276800)
I1207 05:37:09.056999   369 net.cpp:165] Memory required for data: 1298842800
I1207 05:37:09.057004   369 layer_factory.hpp:77] Creating layer L2_b1_sum_eltwise_top_L2_b1_sum_eltwise_0_split
I1207 05:37:09.057018   369 net.cpp:100] Creating Layer L2_b1_sum_eltwise_top_L2_b1_sum_eltwise_0_split
I1207 05:37:09.057024   369 net.cpp:434] L2_b1_sum_eltwise_top_L2_b1_sum_eltwise_0_split <- L2_b1_sum_eltwise_top
I1207 05:37:09.057030   369 net.cpp:408] L2_b1_sum_eltwise_top_L2_b1_sum_eltwise_0_split -> L2_b1_sum_eltwise_top_L2_b1_sum_eltwise_0_split_0
I1207 05:37:09.057040   369 net.cpp:408] L2_b1_sum_eltwise_top_L2_b1_sum_eltwise_0_split -> L2_b1_sum_eltwise_top_L2_b1_sum_eltwise_0_split_1
I1207 05:37:09.057086   369 net.cpp:150] Setting up L2_b1_sum_eltwise_top_L2_b1_sum_eltwise_0_split
I1207 05:37:09.057098   369 net.cpp:157] Top shape: 100 128 16 16 (3276800)
I1207 05:37:09.057106   369 net.cpp:157] Top shape: 100 128 16 16 (3276800)
I1207 05:37:09.057111   369 net.cpp:165] Memory required for data: 1325057200
I1207 05:37:09.057116   369 layer_factory.hpp:77] Creating layer L2_b2_brc1_bn
I1207 05:37:09.057126   369 net.cpp:100] Creating Layer L2_b2_brc1_bn
I1207 05:37:09.057132   369 net.cpp:434] L2_b2_brc1_bn <- L2_b1_sum_eltwise_top_L2_b1_sum_eltwise_0_split_0
I1207 05:37:09.057140   369 net.cpp:408] L2_b2_brc1_bn -> L2_b2_brc1_bn_top
I1207 05:37:09.057363   369 net.cpp:150] Setting up L2_b2_brc1_bn
I1207 05:37:09.057375   369 net.cpp:157] Top shape: 100 128 16 16 (3276800)
I1207 05:37:09.057380   369 net.cpp:165] Memory required for data: 1338164400
I1207 05:37:09.057391   369 layer_factory.hpp:77] Creating layer L2_b2_brc1_relu
I1207 05:37:09.057402   369 net.cpp:100] Creating Layer L2_b2_brc1_relu
I1207 05:37:09.057409   369 net.cpp:434] L2_b2_brc1_relu <- L2_b2_brc1_bn_top
I1207 05:37:09.057416   369 net.cpp:395] L2_b2_brc1_relu -> L2_b2_brc1_bn_top (in-place)
I1207 05:37:09.057426   369 net.cpp:150] Setting up L2_b2_brc1_relu
I1207 05:37:09.057433   369 net.cpp:157] Top shape: 100 128 16 16 (3276800)
I1207 05:37:09.057438   369 net.cpp:165] Memory required for data: 1351271600
I1207 05:37:09.057443   369 layer_factory.hpp:77] Creating layer L2_b2_brc1_conv
I1207 05:37:09.057453   369 net.cpp:100] Creating Layer L2_b2_brc1_conv
I1207 05:37:09.057459   369 net.cpp:434] L2_b2_brc1_conv <- L2_b2_brc1_bn_top
I1207 05:37:09.057476   369 net.cpp:408] L2_b2_brc1_conv -> L2_b2_brc1_conv_top
I1207 05:37:09.057873   369 net.cpp:150] Setting up L2_b2_brc1_conv
I1207 05:37:09.057888   369 net.cpp:157] Top shape: 100 32 16 16 (819200)
I1207 05:37:09.057893   369 net.cpp:165] Memory required for data: 1354548400
I1207 05:37:09.057910   369 layer_factory.hpp:77] Creating layer L2_b2_brc2_bn
I1207 05:37:09.057920   369 net.cpp:100] Creating Layer L2_b2_brc2_bn
I1207 05:37:09.057926   369 net.cpp:434] L2_b2_brc2_bn <- L2_b2_brc1_conv_top
I1207 05:37:09.057937   369 net.cpp:408] L2_b2_brc2_bn -> L2_b2_brc2_bn_top
I1207 05:37:09.058182   369 net.cpp:150] Setting up L2_b2_brc2_bn
I1207 05:37:09.058194   369 net.cpp:157] Top shape: 100 32 16 16 (819200)
I1207 05:37:09.058199   369 net.cpp:165] Memory required for data: 1357825200
I1207 05:37:09.058209   369 layer_factory.hpp:77] Creating layer L2_b2_brc2_relu
I1207 05:37:09.058223   369 net.cpp:100] Creating Layer L2_b2_brc2_relu
I1207 05:37:09.058230   369 net.cpp:434] L2_b2_brc2_relu <- L2_b2_brc2_bn_top
I1207 05:37:09.058238   369 net.cpp:395] L2_b2_brc2_relu -> L2_b2_brc2_bn_top (in-place)
I1207 05:37:09.058248   369 net.cpp:150] Setting up L2_b2_brc2_relu
I1207 05:37:09.058254   369 net.cpp:157] Top shape: 100 32 16 16 (819200)
I1207 05:37:09.058259   369 net.cpp:165] Memory required for data: 1361102000
I1207 05:37:09.058264   369 layer_factory.hpp:77] Creating layer L2_b2_brc2_conv
I1207 05:37:09.058274   369 net.cpp:100] Creating Layer L2_b2_brc2_conv
I1207 05:37:09.058279   369 net.cpp:434] L2_b2_brc2_conv <- L2_b2_brc2_bn_top
I1207 05:37:09.058291   369 net.cpp:408] L2_b2_brc2_conv -> L2_b2_brc2_conv_top
I1207 05:37:09.058759   369 net.cpp:150] Setting up L2_b2_brc2_conv
I1207 05:37:09.058774   369 net.cpp:157] Top shape: 100 32 16 16 (819200)
I1207 05:37:09.058779   369 net.cpp:165] Memory required for data: 1364378800
I1207 05:37:09.058789   369 layer_factory.hpp:77] Creating layer L2_b2_brc3_bn
I1207 05:37:09.058797   369 net.cpp:100] Creating Layer L2_b2_brc3_bn
I1207 05:37:09.058804   369 net.cpp:434] L2_b2_brc3_bn <- L2_b2_brc2_conv_top
I1207 05:37:09.058811   369 net.cpp:408] L2_b2_brc3_bn -> L2_b2_brc3_bn_top
I1207 05:37:09.059046   369 net.cpp:150] Setting up L2_b2_brc3_bn
I1207 05:37:09.059058   369 net.cpp:157] Top shape: 100 32 16 16 (819200)
I1207 05:37:09.059063   369 net.cpp:165] Memory required for data: 1367655600
I1207 05:37:09.059073   369 layer_factory.hpp:77] Creating layer L2_b2_brc3_relu
I1207 05:37:09.059082   369 net.cpp:100] Creating Layer L2_b2_brc3_relu
I1207 05:37:09.059087   369 net.cpp:434] L2_b2_brc3_relu <- L2_b2_brc3_bn_top
I1207 05:37:09.059098   369 net.cpp:395] L2_b2_brc3_relu -> L2_b2_brc3_bn_top (in-place)
I1207 05:37:09.059108   369 net.cpp:150] Setting up L2_b2_brc3_relu
I1207 05:37:09.059115   369 net.cpp:157] Top shape: 100 32 16 16 (819200)
I1207 05:37:09.059119   369 net.cpp:165] Memory required for data: 1370932400
I1207 05:37:09.059124   369 layer_factory.hpp:77] Creating layer L2_b2_brc3_conv
I1207 05:37:09.059139   369 net.cpp:100] Creating Layer L2_b2_brc3_conv
I1207 05:37:09.059144   369 net.cpp:434] L2_b2_brc3_conv <- L2_b2_brc3_bn_top
I1207 05:37:09.059152   369 net.cpp:408] L2_b2_brc3_conv -> L2_b2_brc3_conv_top
I1207 05:37:09.059518   369 net.cpp:150] Setting up L2_b2_brc3_conv
I1207 05:37:09.059532   369 net.cpp:157] Top shape: 100 128 16 16 (3276800)
I1207 05:37:09.059538   369 net.cpp:165] Memory required for data: 1384039600
I1207 05:37:09.059547   369 layer_factory.hpp:77] Creating layer L2_b2_sum_eltwise
I1207 05:37:09.059556   369 net.cpp:100] Creating Layer L2_b2_sum_eltwise
I1207 05:37:09.059562   369 net.cpp:434] L2_b2_sum_eltwise <- L2_b2_brc3_conv_top
I1207 05:37:09.059571   369 net.cpp:434] L2_b2_sum_eltwise <- L2_b1_sum_eltwise_top_L2_b1_sum_eltwise_0_split_1
I1207 05:37:09.059581   369 net.cpp:408] L2_b2_sum_eltwise -> L2_b2_sum_eltwise_top
I1207 05:37:09.059607   369 net.cpp:150] Setting up L2_b2_sum_eltwise
I1207 05:37:09.059617   369 net.cpp:157] Top shape: 100 128 16 16 (3276800)
I1207 05:37:09.059622   369 net.cpp:165] Memory required for data: 1397146800
I1207 05:37:09.059628   369 layer_factory.hpp:77] Creating layer L2_b2_sum_eltwise_top_L2_b2_sum_eltwise_0_split
I1207 05:37:09.059638   369 net.cpp:100] Creating Layer L2_b2_sum_eltwise_top_L2_b2_sum_eltwise_0_split
I1207 05:37:09.059644   369 net.cpp:434] L2_b2_sum_eltwise_top_L2_b2_sum_eltwise_0_split <- L2_b2_sum_eltwise_top
I1207 05:37:09.059659   369 net.cpp:408] L2_b2_sum_eltwise_top_L2_b2_sum_eltwise_0_split -> L2_b2_sum_eltwise_top_L2_b2_sum_eltwise_0_split_0
I1207 05:37:09.059669   369 net.cpp:408] L2_b2_sum_eltwise_top_L2_b2_sum_eltwise_0_split -> L2_b2_sum_eltwise_top_L2_b2_sum_eltwise_0_split_1
I1207 05:37:09.059722   369 net.cpp:150] Setting up L2_b2_sum_eltwise_top_L2_b2_sum_eltwise_0_split
I1207 05:37:09.059736   369 net.cpp:157] Top shape: 100 128 16 16 (3276800)
I1207 05:37:09.059741   369 net.cpp:157] Top shape: 100 128 16 16 (3276800)
I1207 05:37:09.059746   369 net.cpp:165] Memory required for data: 1423361200
I1207 05:37:09.059752   369 layer_factory.hpp:77] Creating layer L2_b3_brc1_bn
I1207 05:37:09.059763   369 net.cpp:100] Creating Layer L2_b3_brc1_bn
I1207 05:37:09.059769   369 net.cpp:434] L2_b3_brc1_bn <- L2_b2_sum_eltwise_top_L2_b2_sum_eltwise_0_split_0
I1207 05:37:09.059777   369 net.cpp:408] L2_b3_brc1_bn -> L2_b3_brc1_bn_top
I1207 05:37:09.060005   369 net.cpp:150] Setting up L2_b3_brc1_bn
I1207 05:37:09.060019   369 net.cpp:157] Top shape: 100 128 16 16 (3276800)
I1207 05:37:09.060024   369 net.cpp:165] Memory required for data: 1436468400
I1207 05:37:09.060055   369 layer_factory.hpp:77] Creating layer L2_b3_brc1_relu
I1207 05:37:09.060066   369 net.cpp:100] Creating Layer L2_b3_brc1_relu
I1207 05:37:09.060073   369 net.cpp:434] L2_b3_brc1_relu <- L2_b3_brc1_bn_top
I1207 05:37:09.060081   369 net.cpp:395] L2_b3_brc1_relu -> L2_b3_brc1_bn_top (in-place)
I1207 05:37:09.060091   369 net.cpp:150] Setting up L2_b3_brc1_relu
I1207 05:37:09.060097   369 net.cpp:157] Top shape: 100 128 16 16 (3276800)
I1207 05:37:09.060102   369 net.cpp:165] Memory required for data: 1449575600
I1207 05:37:09.060107   369 layer_factory.hpp:77] Creating layer L2_b3_brc1_conv
I1207 05:37:09.060120   369 net.cpp:100] Creating Layer L2_b3_brc1_conv
I1207 05:37:09.060127   369 net.cpp:434] L2_b3_brc1_conv <- L2_b3_brc1_bn_top
I1207 05:37:09.060135   369 net.cpp:408] L2_b3_brc1_conv -> L2_b3_brc1_conv_top
I1207 05:37:09.060501   369 net.cpp:150] Setting up L2_b3_brc1_conv
I1207 05:37:09.060516   369 net.cpp:157] Top shape: 100 32 16 16 (819200)
I1207 05:37:09.060521   369 net.cpp:165] Memory required for data: 1452852400
I1207 05:37:09.060530   369 layer_factory.hpp:77] Creating layer L2_b3_brc2_bn
I1207 05:37:09.060542   369 net.cpp:100] Creating Layer L2_b3_brc2_bn
I1207 05:37:09.060549   369 net.cpp:434] L2_b3_brc2_bn <- L2_b3_brc1_conv_top
I1207 05:37:09.060557   369 net.cpp:408] L2_b3_brc2_bn -> L2_b3_brc2_bn_top
I1207 05:37:09.060793   369 net.cpp:150] Setting up L2_b3_brc2_bn
I1207 05:37:09.060809   369 net.cpp:157] Top shape: 100 32 16 16 (819200)
I1207 05:37:09.060814   369 net.cpp:165] Memory required for data: 1456129200
I1207 05:37:09.060824   369 layer_factory.hpp:77] Creating layer L2_b3_brc2_relu
I1207 05:37:09.060832   369 net.cpp:100] Creating Layer L2_b3_brc2_relu
I1207 05:37:09.060838   369 net.cpp:434] L2_b3_brc2_relu <- L2_b3_brc2_bn_top
I1207 05:37:09.060845   369 net.cpp:395] L2_b3_brc2_relu -> L2_b3_brc2_bn_top (in-place)
I1207 05:37:09.060855   369 net.cpp:150] Setting up L2_b3_brc2_relu
I1207 05:37:09.060863   369 net.cpp:157] Top shape: 100 32 16 16 (819200)
I1207 05:37:09.060866   369 net.cpp:165] Memory required for data: 1459406000
I1207 05:37:09.060871   369 layer_factory.hpp:77] Creating layer L2_b3_brc2_conv
I1207 05:37:09.060883   369 net.cpp:100] Creating Layer L2_b3_brc2_conv
I1207 05:37:09.060887   369 net.cpp:434] L2_b3_brc2_conv <- L2_b3_brc2_bn_top
I1207 05:37:09.060899   369 net.cpp:408] L2_b3_brc2_conv -> L2_b3_brc2_conv_top
I1207 05:37:09.061362   369 net.cpp:150] Setting up L2_b3_brc2_conv
I1207 05:37:09.061375   369 net.cpp:157] Top shape: 100 32 16 16 (819200)
I1207 05:37:09.061380   369 net.cpp:165] Memory required for data: 1462682800
I1207 05:37:09.061389   369 layer_factory.hpp:77] Creating layer L2_b3_brc3_bn
I1207 05:37:09.061403   369 net.cpp:100] Creating Layer L2_b3_brc3_bn
I1207 05:37:09.061408   369 net.cpp:434] L2_b3_brc3_bn <- L2_b3_brc2_conv_top
I1207 05:37:09.061424   369 net.cpp:408] L2_b3_brc3_bn -> L2_b3_brc3_bn_top
I1207 05:37:09.061671   369 net.cpp:150] Setting up L2_b3_brc3_bn
I1207 05:37:09.061686   369 net.cpp:157] Top shape: 100 32 16 16 (819200)
I1207 05:37:09.061691   369 net.cpp:165] Memory required for data: 1465959600
I1207 05:37:09.061702   369 layer_factory.hpp:77] Creating layer L2_b3_brc3_relu
I1207 05:37:09.061712   369 net.cpp:100] Creating Layer L2_b3_brc3_relu
I1207 05:37:09.061719   369 net.cpp:434] L2_b3_brc3_relu <- L2_b3_brc3_bn_top
I1207 05:37:09.061727   369 net.cpp:395] L2_b3_brc3_relu -> L2_b3_brc3_bn_top (in-place)
I1207 05:37:09.061736   369 net.cpp:150] Setting up L2_b3_brc3_relu
I1207 05:37:09.061743   369 net.cpp:157] Top shape: 100 32 16 16 (819200)
I1207 05:37:09.061748   369 net.cpp:165] Memory required for data: 1469236400
I1207 05:37:09.061753   369 layer_factory.hpp:77] Creating layer L2_b3_brc3_conv
I1207 05:37:09.061764   369 net.cpp:100] Creating Layer L2_b3_brc3_conv
I1207 05:37:09.061769   369 net.cpp:434] L2_b3_brc3_conv <- L2_b3_brc3_bn_top
I1207 05:37:09.061780   369 net.cpp:408] L2_b3_brc3_conv -> L2_b3_brc3_conv_top
I1207 05:37:09.062135   369 net.cpp:150] Setting up L2_b3_brc3_conv
I1207 05:37:09.062150   369 net.cpp:157] Top shape: 100 128 16 16 (3276800)
I1207 05:37:09.062155   369 net.cpp:165] Memory required for data: 1482343600
I1207 05:37:09.062163   369 layer_factory.hpp:77] Creating layer L2_b3_sum_eltwise
I1207 05:37:09.062172   369 net.cpp:100] Creating Layer L2_b3_sum_eltwise
I1207 05:37:09.062180   369 net.cpp:434] L2_b3_sum_eltwise <- L2_b3_brc3_conv_top
I1207 05:37:09.062186   369 net.cpp:434] L2_b3_sum_eltwise <- L2_b2_sum_eltwise_top_L2_b2_sum_eltwise_0_split_1
I1207 05:37:09.062193   369 net.cpp:408] L2_b3_sum_eltwise -> L2_b3_sum_eltwise_top
I1207 05:37:09.062222   369 net.cpp:150] Setting up L2_b3_sum_eltwise
I1207 05:37:09.062232   369 net.cpp:157] Top shape: 100 128 16 16 (3276800)
I1207 05:37:09.062238   369 net.cpp:165] Memory required for data: 1495450800
I1207 05:37:09.062243   369 layer_factory.hpp:77] Creating layer L2_b3_sum_eltwise_top_L2_b3_sum_eltwise_0_split
I1207 05:37:09.062252   369 net.cpp:100] Creating Layer L2_b3_sum_eltwise_top_L2_b3_sum_eltwise_0_split
I1207 05:37:09.062256   369 net.cpp:434] L2_b3_sum_eltwise_top_L2_b3_sum_eltwise_0_split <- L2_b3_sum_eltwise_top
I1207 05:37:09.062266   369 net.cpp:408] L2_b3_sum_eltwise_top_L2_b3_sum_eltwise_0_split -> L2_b3_sum_eltwise_top_L2_b3_sum_eltwise_0_split_0
I1207 05:37:09.062276   369 net.cpp:408] L2_b3_sum_eltwise_top_L2_b3_sum_eltwise_0_split -> L2_b3_sum_eltwise_top_L2_b3_sum_eltwise_0_split_1
I1207 05:37:09.062320   369 net.cpp:150] Setting up L2_b3_sum_eltwise_top_L2_b3_sum_eltwise_0_split
I1207 05:37:09.062335   369 net.cpp:157] Top shape: 100 128 16 16 (3276800)
I1207 05:37:09.062341   369 net.cpp:157] Top shape: 100 128 16 16 (3276800)
I1207 05:37:09.062346   369 net.cpp:165] Memory required for data: 1521665200
I1207 05:37:09.062351   369 layer_factory.hpp:77] Creating layer L2_b4_brc1_bn
I1207 05:37:09.062360   369 net.cpp:100] Creating Layer L2_b4_brc1_bn
I1207 05:37:09.062364   369 net.cpp:434] L2_b4_brc1_bn <- L2_b3_sum_eltwise_top_L2_b3_sum_eltwise_0_split_0
I1207 05:37:09.062376   369 net.cpp:408] L2_b4_brc1_bn -> L2_b4_brc1_bn_top
I1207 05:37:09.062610   369 net.cpp:150] Setting up L2_b4_brc1_bn
I1207 05:37:09.062623   369 net.cpp:157] Top shape: 100 128 16 16 (3276800)
I1207 05:37:09.062628   369 net.cpp:165] Memory required for data: 1534772400
I1207 05:37:09.062639   369 layer_factory.hpp:77] Creating layer L2_b4_brc1_relu
I1207 05:37:09.062647   369 net.cpp:100] Creating Layer L2_b4_brc1_relu
I1207 05:37:09.062654   369 net.cpp:434] L2_b4_brc1_relu <- L2_b4_brc1_bn_top
I1207 05:37:09.062664   369 net.cpp:395] L2_b4_brc1_relu -> L2_b4_brc1_bn_top (in-place)
I1207 05:37:09.062674   369 net.cpp:150] Setting up L2_b4_brc1_relu
I1207 05:37:09.062681   369 net.cpp:157] Top shape: 100 128 16 16 (3276800)
I1207 05:37:09.062685   369 net.cpp:165] Memory required for data: 1547879600
I1207 05:37:09.062697   369 layer_factory.hpp:77] Creating layer L2_b4_brc1_conv
I1207 05:37:09.062708   369 net.cpp:100] Creating Layer L2_b4_brc1_conv
I1207 05:37:09.062714   369 net.cpp:434] L2_b4_brc1_conv <- L2_b4_brc1_bn_top
I1207 05:37:09.062723   369 net.cpp:408] L2_b4_brc1_conv -> L2_b4_brc1_conv_top
I1207 05:37:09.063094   369 net.cpp:150] Setting up L2_b4_brc1_conv
I1207 05:37:09.063107   369 net.cpp:157] Top shape: 100 32 16 16 (819200)
I1207 05:37:09.063113   369 net.cpp:165] Memory required for data: 1551156400
I1207 05:37:09.063122   369 layer_factory.hpp:77] Creating layer L2_b4_brc2_bn
I1207 05:37:09.063133   369 net.cpp:100] Creating Layer L2_b4_brc2_bn
I1207 05:37:09.063139   369 net.cpp:434] L2_b4_brc2_bn <- L2_b4_brc1_conv_top
I1207 05:37:09.063148   369 net.cpp:408] L2_b4_brc2_bn -> L2_b4_brc2_bn_top
I1207 05:37:09.063391   369 net.cpp:150] Setting up L2_b4_brc2_bn
I1207 05:37:09.063405   369 net.cpp:157] Top shape: 100 32 16 16 (819200)
I1207 05:37:09.063410   369 net.cpp:165] Memory required for data: 1554433200
I1207 05:37:09.063421   369 layer_factory.hpp:77] Creating layer L2_b4_brc2_relu
I1207 05:37:09.063428   369 net.cpp:100] Creating Layer L2_b4_brc2_relu
I1207 05:37:09.063434   369 net.cpp:434] L2_b4_brc2_relu <- L2_b4_brc2_bn_top
I1207 05:37:09.063444   369 net.cpp:395] L2_b4_brc2_relu -> L2_b4_brc2_bn_top (in-place)
I1207 05:37:09.063454   369 net.cpp:150] Setting up L2_b4_brc2_relu
I1207 05:37:09.063462   369 net.cpp:157] Top shape: 100 32 16 16 (819200)
I1207 05:37:09.063472   369 net.cpp:165] Memory required for data: 1557710000
I1207 05:37:09.063478   369 layer_factory.hpp:77] Creating layer L2_b4_brc2_conv
I1207 05:37:09.063493   369 net.cpp:100] Creating Layer L2_b4_brc2_conv
I1207 05:37:09.063500   369 net.cpp:434] L2_b4_brc2_conv <- L2_b4_brc2_bn_top
I1207 05:37:09.063508   369 net.cpp:408] L2_b4_brc2_conv -> L2_b4_brc2_conv_top
I1207 05:37:09.063971   369 net.cpp:150] Setting up L2_b4_brc2_conv
I1207 05:37:09.063984   369 net.cpp:157] Top shape: 100 32 16 16 (819200)
I1207 05:37:09.063989   369 net.cpp:165] Memory required for data: 1560986800
I1207 05:37:09.063997   369 layer_factory.hpp:77] Creating layer L2_b4_brc3_bn
I1207 05:37:09.064009   369 net.cpp:100] Creating Layer L2_b4_brc3_bn
I1207 05:37:09.064015   369 net.cpp:434] L2_b4_brc3_bn <- L2_b4_brc2_conv_top
I1207 05:37:09.064023   369 net.cpp:408] L2_b4_brc3_bn -> L2_b4_brc3_bn_top
I1207 05:37:09.064265   369 net.cpp:150] Setting up L2_b4_brc3_bn
I1207 05:37:09.064277   369 net.cpp:157] Top shape: 100 32 16 16 (819200)
I1207 05:37:09.064282   369 net.cpp:165] Memory required for data: 1564263600
I1207 05:37:09.064292   369 layer_factory.hpp:77] Creating layer L2_b4_brc3_relu
I1207 05:37:09.064301   369 net.cpp:100] Creating Layer L2_b4_brc3_relu
I1207 05:37:09.064306   369 net.cpp:434] L2_b4_brc3_relu <- L2_b4_brc3_bn_top
I1207 05:37:09.064313   369 net.cpp:395] L2_b4_brc3_relu -> L2_b4_brc3_bn_top (in-place)
I1207 05:37:09.064322   369 net.cpp:150] Setting up L2_b4_brc3_relu
I1207 05:37:09.064329   369 net.cpp:157] Top shape: 100 32 16 16 (819200)
I1207 05:37:09.064334   369 net.cpp:165] Memory required for data: 1567540400
I1207 05:37:09.064339   369 layer_factory.hpp:77] Creating layer L2_b4_brc3_conv
I1207 05:37:09.064352   369 net.cpp:100] Creating Layer L2_b4_brc3_conv
I1207 05:37:09.064358   369 net.cpp:434] L2_b4_brc3_conv <- L2_b4_brc3_bn_top
I1207 05:37:09.064374   369 net.cpp:408] L2_b4_brc3_conv -> L2_b4_brc3_conv_top
I1207 05:37:09.064738   369 net.cpp:150] Setting up L2_b4_brc3_conv
I1207 05:37:09.064754   369 net.cpp:157] Top shape: 100 128 16 16 (3276800)
I1207 05:37:09.064759   369 net.cpp:165] Memory required for data: 1580647600
I1207 05:37:09.064767   369 layer_factory.hpp:77] Creating layer L2_b4_sum_eltwise
I1207 05:37:09.064779   369 net.cpp:100] Creating Layer L2_b4_sum_eltwise
I1207 05:37:09.064786   369 net.cpp:434] L2_b4_sum_eltwise <- L2_b4_brc3_conv_top
I1207 05:37:09.064793   369 net.cpp:434] L2_b4_sum_eltwise <- L2_b3_sum_eltwise_top_L2_b3_sum_eltwise_0_split_1
I1207 05:37:09.064810   369 net.cpp:408] L2_b4_sum_eltwise -> L2_b4_sum_eltwise_top
I1207 05:37:09.064838   369 net.cpp:150] Setting up L2_b4_sum_eltwise
I1207 05:37:09.064848   369 net.cpp:157] Top shape: 100 128 16 16 (3276800)
I1207 05:37:09.064853   369 net.cpp:165] Memory required for data: 1593754800
I1207 05:37:09.064858   369 layer_factory.hpp:77] Creating layer L2_b4_sum_eltwise_top_L2_b4_sum_eltwise_0_split
I1207 05:37:09.064865   369 net.cpp:100] Creating Layer L2_b4_sum_eltwise_top_L2_b4_sum_eltwise_0_split
I1207 05:37:09.064872   369 net.cpp:434] L2_b4_sum_eltwise_top_L2_b4_sum_eltwise_0_split <- L2_b4_sum_eltwise_top
I1207 05:37:09.064883   369 net.cpp:408] L2_b4_sum_eltwise_top_L2_b4_sum_eltwise_0_split -> L2_b4_sum_eltwise_top_L2_b4_sum_eltwise_0_split_0
I1207 05:37:09.064893   369 net.cpp:408] L2_b4_sum_eltwise_top_L2_b4_sum_eltwise_0_split -> L2_b4_sum_eltwise_top_L2_b4_sum_eltwise_0_split_1
I1207 05:37:09.064939   369 net.cpp:150] Setting up L2_b4_sum_eltwise_top_L2_b4_sum_eltwise_0_split
I1207 05:37:09.064954   369 net.cpp:157] Top shape: 100 128 16 16 (3276800)
I1207 05:37:09.064960   369 net.cpp:157] Top shape: 100 128 16 16 (3276800)
I1207 05:37:09.064965   369 net.cpp:165] Memory required for data: 1619969200
I1207 05:37:09.064970   369 layer_factory.hpp:77] Creating layer L2_b5_brc1_bn
I1207 05:37:09.064978   369 net.cpp:100] Creating Layer L2_b5_brc1_bn
I1207 05:37:09.064985   369 net.cpp:434] L2_b5_brc1_bn <- L2_b4_sum_eltwise_top_L2_b4_sum_eltwise_0_split_0
I1207 05:37:09.064996   369 net.cpp:408] L2_b5_brc1_bn -> L2_b5_brc1_bn_top
I1207 05:37:09.065227   369 net.cpp:150] Setting up L2_b5_brc1_bn
I1207 05:37:09.065240   369 net.cpp:157] Top shape: 100 128 16 16 (3276800)
I1207 05:37:09.065245   369 net.cpp:165] Memory required for data: 1633076400
I1207 05:37:09.065256   369 layer_factory.hpp:77] Creating layer L2_b5_brc1_relu
I1207 05:37:09.065264   369 net.cpp:100] Creating Layer L2_b5_brc1_relu
I1207 05:37:09.065270   369 net.cpp:434] L2_b5_brc1_relu <- L2_b5_brc1_bn_top
I1207 05:37:09.065277   369 net.cpp:395] L2_b5_brc1_relu -> L2_b5_brc1_bn_top (in-place)
I1207 05:37:09.065287   369 net.cpp:150] Setting up L2_b5_brc1_relu
I1207 05:37:09.065294   369 net.cpp:157] Top shape: 100 128 16 16 (3276800)
I1207 05:37:09.065299   369 net.cpp:165] Memory required for data: 1646183600
I1207 05:37:09.065304   369 layer_factory.hpp:77] Creating layer L2_b5_brc1_conv
I1207 05:37:09.065317   369 net.cpp:100] Creating Layer L2_b5_brc1_conv
I1207 05:37:09.065323   369 net.cpp:434] L2_b5_brc1_conv <- L2_b5_brc1_bn_top
I1207 05:37:09.065335   369 net.cpp:408] L2_b5_brc1_conv -> L2_b5_brc1_conv_top
I1207 05:37:09.065773   369 net.cpp:150] Setting up L2_b5_brc1_conv
I1207 05:37:09.065788   369 net.cpp:157] Top shape: 100 32 16 16 (819200)
I1207 05:37:09.065794   369 net.cpp:165] Memory required for data: 1649460400
I1207 05:37:09.065804   369 layer_factory.hpp:77] Creating layer L2_b5_brc2_bn
I1207 05:37:09.065815   369 net.cpp:100] Creating Layer L2_b5_brc2_bn
I1207 05:37:09.065822   369 net.cpp:434] L2_b5_brc2_bn <- L2_b5_brc1_conv_top
I1207 05:37:09.065830   369 net.cpp:408] L2_b5_brc2_bn -> L2_b5_brc2_bn_top
I1207 05:37:09.066082   369 net.cpp:150] Setting up L2_b5_brc2_bn
I1207 05:37:09.066097   369 net.cpp:157] Top shape: 100 32 16 16 (819200)
I1207 05:37:09.066102   369 net.cpp:165] Memory required for data: 1652737200
I1207 05:37:09.066112   369 layer_factory.hpp:77] Creating layer L2_b5_brc2_relu
I1207 05:37:09.066121   369 net.cpp:100] Creating Layer L2_b5_brc2_relu
I1207 05:37:09.066128   369 net.cpp:434] L2_b5_brc2_relu <- L2_b5_brc2_bn_top
I1207 05:37:09.066134   369 net.cpp:395] L2_b5_brc2_relu -> L2_b5_brc2_bn_top (in-place)
I1207 05:37:09.066144   369 net.cpp:150] Setting up L2_b5_brc2_relu
I1207 05:37:09.066151   369 net.cpp:157] Top shape: 100 32 16 16 (819200)
I1207 05:37:09.066156   369 net.cpp:165] Memory required for data: 1656014000
I1207 05:37:09.066160   369 layer_factory.hpp:77] Creating layer L2_b5_brc2_conv
I1207 05:37:09.066174   369 net.cpp:100] Creating Layer L2_b5_brc2_conv
I1207 05:37:09.066187   369 net.cpp:434] L2_b5_brc2_conv <- L2_b5_brc2_bn_top
I1207 05:37:09.066197   369 net.cpp:408] L2_b5_brc2_conv -> L2_b5_brc2_conv_top
I1207 05:37:09.066674   369 net.cpp:150] Setting up L2_b5_brc2_conv
I1207 05:37:09.066689   369 net.cpp:157] Top shape: 100 32 16 16 (819200)
I1207 05:37:09.066694   369 net.cpp:165] Memory required for data: 1659290800
I1207 05:37:09.066704   369 layer_factory.hpp:77] Creating layer L2_b5_brc3_bn
I1207 05:37:09.066715   369 net.cpp:100] Creating Layer L2_b5_brc3_bn
I1207 05:37:09.066721   369 net.cpp:434] L2_b5_brc3_bn <- L2_b5_brc2_conv_top
I1207 05:37:09.066730   369 net.cpp:408] L2_b5_brc3_bn -> L2_b5_brc3_bn_top
I1207 05:37:09.066972   369 net.cpp:150] Setting up L2_b5_brc3_bn
I1207 05:37:09.066987   369 net.cpp:157] Top shape: 100 32 16 16 (819200)
I1207 05:37:09.066992   369 net.cpp:165] Memory required for data: 1662567600
I1207 05:37:09.067003   369 layer_factory.hpp:77] Creating layer L2_b5_brc3_relu
I1207 05:37:09.067010   369 net.cpp:100] Creating Layer L2_b5_brc3_relu
I1207 05:37:09.067018   369 net.cpp:434] L2_b5_brc3_relu <- L2_b5_brc3_bn_top
I1207 05:37:09.067024   369 net.cpp:395] L2_b5_brc3_relu -> L2_b5_brc3_bn_top (in-place)
I1207 05:37:09.067034   369 net.cpp:150] Setting up L2_b5_brc3_relu
I1207 05:37:09.067040   369 net.cpp:157] Top shape: 100 32 16 16 (819200)
I1207 05:37:09.067045   369 net.cpp:165] Memory required for data: 1665844400
I1207 05:37:09.067049   369 layer_factory.hpp:77] Creating layer L2_b5_brc3_conv
I1207 05:37:09.067059   369 net.cpp:100] Creating Layer L2_b5_brc3_conv
I1207 05:37:09.067065   369 net.cpp:434] L2_b5_brc3_conv <- L2_b5_brc3_bn_top
I1207 05:37:09.067080   369 net.cpp:408] L2_b5_brc3_conv -> L2_b5_brc3_conv_top
I1207 05:37:09.067445   369 net.cpp:150] Setting up L2_b5_brc3_conv
I1207 05:37:09.067458   369 net.cpp:157] Top shape: 100 128 16 16 (3276800)
I1207 05:37:09.067463   369 net.cpp:165] Memory required for data: 1678951600
I1207 05:37:09.067479   369 layer_factory.hpp:77] Creating layer L2_b5_sum_eltwise
I1207 05:37:09.067488   369 net.cpp:100] Creating Layer L2_b5_sum_eltwise
I1207 05:37:09.067495   369 net.cpp:434] L2_b5_sum_eltwise <- L2_b5_brc3_conv_top
I1207 05:37:09.067502   369 net.cpp:434] L2_b5_sum_eltwise <- L2_b4_sum_eltwise_top_L2_b4_sum_eltwise_0_split_1
I1207 05:37:09.067510   369 net.cpp:408] L2_b5_sum_eltwise -> L2_b5_sum_eltwise_top
I1207 05:37:09.067540   369 net.cpp:150] Setting up L2_b5_sum_eltwise
I1207 05:37:09.067550   369 net.cpp:157] Top shape: 100 128 16 16 (3276800)
I1207 05:37:09.067555   369 net.cpp:165] Memory required for data: 1692058800
I1207 05:37:09.067562   369 layer_factory.hpp:77] Creating layer L2_b5_sum_eltwise_top_L2_b5_sum_eltwise_0_split
I1207 05:37:09.067570   369 net.cpp:100] Creating Layer L2_b5_sum_eltwise_top_L2_b5_sum_eltwise_0_split
I1207 05:37:09.067576   369 net.cpp:434] L2_b5_sum_eltwise_top_L2_b5_sum_eltwise_0_split <- L2_b5_sum_eltwise_top
I1207 05:37:09.067586   369 net.cpp:408] L2_b5_sum_eltwise_top_L2_b5_sum_eltwise_0_split -> L2_b5_sum_eltwise_top_L2_b5_sum_eltwise_0_split_0
I1207 05:37:09.067596   369 net.cpp:408] L2_b5_sum_eltwise_top_L2_b5_sum_eltwise_0_split -> L2_b5_sum_eltwise_top_L2_b5_sum_eltwise_0_split_1
I1207 05:37:09.067648   369 net.cpp:150] Setting up L2_b5_sum_eltwise_top_L2_b5_sum_eltwise_0_split
I1207 05:37:09.067664   369 net.cpp:157] Top shape: 100 128 16 16 (3276800)
I1207 05:37:09.067672   369 net.cpp:157] Top shape: 100 128 16 16 (3276800)
I1207 05:37:09.067677   369 net.cpp:165] Memory required for data: 1718273200
I1207 05:37:09.067682   369 layer_factory.hpp:77] Creating layer L2_b6_brc1_bn
I1207 05:37:09.067689   369 net.cpp:100] Creating Layer L2_b6_brc1_bn
I1207 05:37:09.067695   369 net.cpp:434] L2_b6_brc1_bn <- L2_b5_sum_eltwise_top_L2_b5_sum_eltwise_0_split_0
I1207 05:37:09.067706   369 net.cpp:408] L2_b6_brc1_bn -> L2_b6_brc1_bn_top
I1207 05:37:09.067937   369 net.cpp:150] Setting up L2_b6_brc1_bn
I1207 05:37:09.067950   369 net.cpp:157] Top shape: 100 128 16 16 (3276800)
I1207 05:37:09.067955   369 net.cpp:165] Memory required for data: 1731380400
I1207 05:37:09.067972   369 layer_factory.hpp:77] Creating layer L2_b6_brc1_relu
I1207 05:37:09.067994   369 net.cpp:100] Creating Layer L2_b6_brc1_relu
I1207 05:37:09.068001   369 net.cpp:434] L2_b6_brc1_relu <- L2_b6_brc1_bn_top
I1207 05:37:09.068008   369 net.cpp:395] L2_b6_brc1_relu -> L2_b6_brc1_bn_top (in-place)
I1207 05:37:09.068018   369 net.cpp:150] Setting up L2_b6_brc1_relu
I1207 05:37:09.068025   369 net.cpp:157] Top shape: 100 128 16 16 (3276800)
I1207 05:37:09.068030   369 net.cpp:165] Memory required for data: 1744487600
I1207 05:37:09.068035   369 layer_factory.hpp:77] Creating layer L2_b6_brc1_conv
I1207 05:37:09.068051   369 net.cpp:100] Creating Layer L2_b6_brc1_conv
I1207 05:37:09.068058   369 net.cpp:434] L2_b6_brc1_conv <- L2_b6_brc1_bn_top
I1207 05:37:09.068068   369 net.cpp:408] L2_b6_brc1_conv -> L2_b6_brc1_conv_top
I1207 05:37:09.068459   369 net.cpp:150] Setting up L2_b6_brc1_conv
I1207 05:37:09.068480   369 net.cpp:157] Top shape: 100 32 16 16 (819200)
I1207 05:37:09.068486   369 net.cpp:165] Memory required for data: 1747764400
I1207 05:37:09.068495   369 layer_factory.hpp:77] Creating layer L2_b6_brc2_bn
I1207 05:37:09.068505   369 net.cpp:100] Creating Layer L2_b6_brc2_bn
I1207 05:37:09.068514   369 net.cpp:434] L2_b6_brc2_bn <- L2_b6_brc1_conv_top
I1207 05:37:09.068522   369 net.cpp:408] L2_b6_brc2_bn -> L2_b6_brc2_bn_top
I1207 05:37:09.068773   369 net.cpp:150] Setting up L2_b6_brc2_bn
I1207 05:37:09.068786   369 net.cpp:157] Top shape: 100 32 16 16 (819200)
I1207 05:37:09.068791   369 net.cpp:165] Memory required for data: 1751041200
I1207 05:37:09.068802   369 layer_factory.hpp:77] Creating layer L2_b6_brc2_relu
I1207 05:37:09.068810   369 net.cpp:100] Creating Layer L2_b6_brc2_relu
I1207 05:37:09.068816   369 net.cpp:434] L2_b6_brc2_relu <- L2_b6_brc2_bn_top
I1207 05:37:09.068823   369 net.cpp:395] L2_b6_brc2_relu -> L2_b6_brc2_bn_top (in-place)
I1207 05:37:09.068833   369 net.cpp:150] Setting up L2_b6_brc2_relu
I1207 05:37:09.068840   369 net.cpp:157] Top shape: 100 32 16 16 (819200)
I1207 05:37:09.068845   369 net.cpp:165] Memory required for data: 1754318000
I1207 05:37:09.068850   369 layer_factory.hpp:77] Creating layer L2_b6_brc2_conv
I1207 05:37:09.068863   369 net.cpp:100] Creating Layer L2_b6_brc2_conv
I1207 05:37:09.068871   369 net.cpp:434] L2_b6_brc2_conv <- L2_b6_brc2_bn_top
I1207 05:37:09.068881   369 net.cpp:408] L2_b6_brc2_conv -> L2_b6_brc2_conv_top
I1207 05:37:09.069351   369 net.cpp:150] Setting up L2_b6_brc2_conv
I1207 05:37:09.069365   369 net.cpp:157] Top shape: 100 32 16 16 (819200)
I1207 05:37:09.069370   369 net.cpp:165] Memory required for data: 1757594800
I1207 05:37:09.069378   369 layer_factory.hpp:77] Creating layer L2_b6_brc3_bn
I1207 05:37:09.069391   369 net.cpp:100] Creating Layer L2_b6_brc3_bn
I1207 05:37:09.069397   369 net.cpp:434] L2_b6_brc3_bn <- L2_b6_brc2_conv_top
I1207 05:37:09.069407   369 net.cpp:408] L2_b6_brc3_bn -> L2_b6_brc3_bn_top
I1207 05:37:09.069660   369 net.cpp:150] Setting up L2_b6_brc3_bn
I1207 05:37:09.069674   369 net.cpp:157] Top shape: 100 32 16 16 (819200)
I1207 05:37:09.069679   369 net.cpp:165] Memory required for data: 1760871600
I1207 05:37:09.069690   369 layer_factory.hpp:77] Creating layer L2_b6_brc3_relu
I1207 05:37:09.069699   369 net.cpp:100] Creating Layer L2_b6_brc3_relu
I1207 05:37:09.069705   369 net.cpp:434] L2_b6_brc3_relu <- L2_b6_brc3_bn_top
I1207 05:37:09.069711   369 net.cpp:395] L2_b6_brc3_relu -> L2_b6_brc3_bn_top (in-place)
I1207 05:37:09.069721   369 net.cpp:150] Setting up L2_b6_brc3_relu
I1207 05:37:09.069728   369 net.cpp:157] Top shape: 100 32 16 16 (819200)
I1207 05:37:09.069733   369 net.cpp:165] Memory required for data: 1764148400
I1207 05:37:09.069737   369 layer_factory.hpp:77] Creating layer L2_b6_brc3_conv
I1207 05:37:09.069751   369 net.cpp:100] Creating Layer L2_b6_brc3_conv
I1207 05:37:09.069758   369 net.cpp:434] L2_b6_brc3_conv <- L2_b6_brc3_bn_top
I1207 05:37:09.069769   369 net.cpp:408] L2_b6_brc3_conv -> L2_b6_brc3_conv_top
I1207 05:37:09.070138   369 net.cpp:150] Setting up L2_b6_brc3_conv
I1207 05:37:09.070159   369 net.cpp:157] Top shape: 100 128 16 16 (3276800)
I1207 05:37:09.070164   369 net.cpp:165] Memory required for data: 1777255600
I1207 05:37:09.070173   369 layer_factory.hpp:77] Creating layer L2_b6_sum_eltwise
I1207 05:37:09.070183   369 net.cpp:100] Creating Layer L2_b6_sum_eltwise
I1207 05:37:09.070189   369 net.cpp:434] L2_b6_sum_eltwise <- L2_b6_brc3_conv_top
I1207 05:37:09.070197   369 net.cpp:434] L2_b6_sum_eltwise <- L2_b5_sum_eltwise_top_L2_b5_sum_eltwise_0_split_1
I1207 05:37:09.070207   369 net.cpp:408] L2_b6_sum_eltwise -> L2_b6_sum_eltwise_top
I1207 05:37:09.070235   369 net.cpp:150] Setting up L2_b6_sum_eltwise
I1207 05:37:09.070248   369 net.cpp:157] Top shape: 100 128 16 16 (3276800)
I1207 05:37:09.070253   369 net.cpp:165] Memory required for data: 1790362800
I1207 05:37:09.070258   369 layer_factory.hpp:77] Creating layer L2_b6_sum_eltwise_top_L2_b6_sum_eltwise_0_split
I1207 05:37:09.070266   369 net.cpp:100] Creating Layer L2_b6_sum_eltwise_top_L2_b6_sum_eltwise_0_split
I1207 05:37:09.070271   369 net.cpp:434] L2_b6_sum_eltwise_top_L2_b6_sum_eltwise_0_split <- L2_b6_sum_eltwise_top
I1207 05:37:09.070279   369 net.cpp:408] L2_b6_sum_eltwise_top_L2_b6_sum_eltwise_0_split -> L2_b6_sum_eltwise_top_L2_b6_sum_eltwise_0_split_0
I1207 05:37:09.070291   369 net.cpp:408] L2_b6_sum_eltwise_top_L2_b6_sum_eltwise_0_split -> L2_b6_sum_eltwise_top_L2_b6_sum_eltwise_0_split_1
I1207 05:37:09.070341   369 net.cpp:150] Setting up L2_b6_sum_eltwise_top_L2_b6_sum_eltwise_0_split
I1207 05:37:09.070353   369 net.cpp:157] Top shape: 100 128 16 16 (3276800)
I1207 05:37:09.070360   369 net.cpp:157] Top shape: 100 128 16 16 (3276800)
I1207 05:37:09.070365   369 net.cpp:165] Memory required for data: 1816577200
I1207 05:37:09.070370   369 layer_factory.hpp:77] Creating layer L3_b1_brc1_bn
I1207 05:37:09.070381   369 net.cpp:100] Creating Layer L3_b1_brc1_bn
I1207 05:37:09.070387   369 net.cpp:434] L3_b1_brc1_bn <- L2_b6_sum_eltwise_top_L2_b6_sum_eltwise_0_split_0
I1207 05:37:09.070395   369 net.cpp:408] L3_b1_brc1_bn -> L3_b1_brc1_bn_top
I1207 05:37:09.070638   369 net.cpp:150] Setting up L3_b1_brc1_bn
I1207 05:37:09.070654   369 net.cpp:157] Top shape: 100 128 16 16 (3276800)
I1207 05:37:09.070660   369 net.cpp:165] Memory required for data: 1829684400
I1207 05:37:09.070670   369 layer_factory.hpp:77] Creating layer L3_b1_brc1_relu
I1207 05:37:09.070679   369 net.cpp:100] Creating Layer L3_b1_brc1_relu
I1207 05:37:09.070685   369 net.cpp:434] L3_b1_brc1_relu <- L3_b1_brc1_bn_top
I1207 05:37:09.070693   369 net.cpp:395] L3_b1_brc1_relu -> L3_b1_brc1_bn_top (in-place)
I1207 05:37:09.070703   369 net.cpp:150] Setting up L3_b1_brc1_relu
I1207 05:37:09.070709   369 net.cpp:157] Top shape: 100 128 16 16 (3276800)
I1207 05:37:09.070714   369 net.cpp:165] Memory required for data: 1842791600
I1207 05:37:09.070719   369 layer_factory.hpp:77] Creating layer L3_b1_brc1_conv
I1207 05:37:09.070729   369 net.cpp:100] Creating Layer L3_b1_brc1_conv
I1207 05:37:09.070735   369 net.cpp:434] L3_b1_brc1_conv <- L3_b1_brc1_bn_top
I1207 05:37:09.070746   369 net.cpp:408] L3_b1_brc1_conv -> L3_b1_brc1_conv_top
I1207 05:37:09.071202   369 net.cpp:150] Setting up L3_b1_brc1_conv
I1207 05:37:09.071215   369 net.cpp:157] Top shape: 100 64 8 8 (409600)
I1207 05:37:09.071220   369 net.cpp:165] Memory required for data: 1844430000
I1207 05:37:09.071230   369 layer_factory.hpp:77] Creating layer L3_b1_brc2_bn
I1207 05:37:09.071238   369 net.cpp:100] Creating Layer L3_b1_brc2_bn
I1207 05:37:09.071244   369 net.cpp:434] L3_b1_brc2_bn <- L3_b1_brc1_conv_top
I1207 05:37:09.071255   369 net.cpp:408] L3_b1_brc2_bn -> L3_b1_brc2_bn_top
I1207 05:37:09.071521   369 net.cpp:150] Setting up L3_b1_brc2_bn
I1207 05:37:09.071534   369 net.cpp:157] Top shape: 100 64 8 8 (409600)
I1207 05:37:09.071539   369 net.cpp:165] Memory required for data: 1846068400
I1207 05:37:09.071549   369 layer_factory.hpp:77] Creating layer L3_b1_brc2_relu
I1207 05:37:09.071558   369 net.cpp:100] Creating Layer L3_b1_brc2_relu
I1207 05:37:09.071573   369 net.cpp:434] L3_b1_brc2_relu <- L3_b1_brc2_bn_top
I1207 05:37:09.071580   369 net.cpp:395] L3_b1_brc2_relu -> L3_b1_brc2_bn_top (in-place)
I1207 05:37:09.071590   369 net.cpp:150] Setting up L3_b1_brc2_relu
I1207 05:37:09.071599   369 net.cpp:157] Top shape: 100 64 8 8 (409600)
I1207 05:37:09.071602   369 net.cpp:165] Memory required for data: 1847706800
I1207 05:37:09.071609   369 layer_factory.hpp:77] Creating layer L3_b1_brc2_conv
I1207 05:37:09.071621   369 net.cpp:100] Creating Layer L3_b1_brc2_conv
I1207 05:37:09.071627   369 net.cpp:434] L3_b1_brc2_conv <- L3_b1_brc2_bn_top
I1207 05:37:09.071635   369 net.cpp:408] L3_b1_brc2_conv -> L3_b1_brc2_conv_top
I1207 05:37:09.073679   369 net.cpp:150] Setting up L3_b1_brc2_conv
I1207 05:37:09.073696   369 net.cpp:157] Top shape: 100 64 8 8 (409600)
I1207 05:37:09.073703   369 net.cpp:165] Memory required for data: 1849345200
I1207 05:37:09.073711   369 layer_factory.hpp:77] Creating layer L3_b1_brc3_bn
I1207 05:37:09.073724   369 net.cpp:100] Creating Layer L3_b1_brc3_bn
I1207 05:37:09.073731   369 net.cpp:434] L3_b1_brc3_bn <- L3_b1_brc2_conv_top
I1207 05:37:09.073740   369 net.cpp:408] L3_b1_brc3_bn -> L3_b1_brc3_bn_top
I1207 05:37:09.074002   369 net.cpp:150] Setting up L3_b1_brc3_bn
I1207 05:37:09.074017   369 net.cpp:157] Top shape: 100 64 8 8 (409600)
I1207 05:37:09.074021   369 net.cpp:165] Memory required for data: 1850983600
I1207 05:37:09.074033   369 layer_factory.hpp:77] Creating layer L3_b1_brc3_relu
I1207 05:37:09.074043   369 net.cpp:100] Creating Layer L3_b1_brc3_relu
I1207 05:37:09.074049   369 net.cpp:434] L3_b1_brc3_relu <- L3_b1_brc3_bn_top
I1207 05:37:09.074057   369 net.cpp:395] L3_b1_brc3_relu -> L3_b1_brc3_bn_top (in-place)
I1207 05:37:09.074067   369 net.cpp:150] Setting up L3_b1_brc3_relu
I1207 05:37:09.074074   369 net.cpp:157] Top shape: 100 64 8 8 (409600)
I1207 05:37:09.074079   369 net.cpp:165] Memory required for data: 1852622000
I1207 05:37:09.074084   369 layer_factory.hpp:77] Creating layer L3_b1_brc3_conv
I1207 05:37:09.074098   369 net.cpp:100] Creating Layer L3_b1_brc3_conv
I1207 05:37:09.074105   369 net.cpp:434] L3_b1_brc3_conv <- L3_b1_brc3_bn_top
I1207 05:37:09.074116   369 net.cpp:408] L3_b1_brc3_conv -> L3_b1_brc3_conv_top
I1207 05:37:09.074731   369 net.cpp:150] Setting up L3_b1_brc3_conv
I1207 05:37:09.074746   369 net.cpp:157] Top shape: 100 256 8 8 (1638400)
I1207 05:37:09.074753   369 net.cpp:165] Memory required for data: 1859175600
I1207 05:37:09.074761   369 layer_factory.hpp:77] Creating layer L3_b1_chanInc_conv
I1207 05:37:09.074774   369 net.cpp:100] Creating Layer L3_b1_chanInc_conv
I1207 05:37:09.074779   369 net.cpp:434] L3_b1_chanInc_conv <- L2_b6_sum_eltwise_top_L2_b6_sum_eltwise_0_split_1
I1207 05:37:09.074792   369 net.cpp:408] L3_b1_chanInc_conv -> L3_b1_chanInc_conv_top
I1207 05:37:09.075729   369 net.cpp:150] Setting up L3_b1_chanInc_conv
I1207 05:37:09.075744   369 net.cpp:157] Top shape: 100 256 8 8 (1638400)
I1207 05:37:09.075749   369 net.cpp:165] Memory required for data: 1865729200
I1207 05:37:09.075758   369 layer_factory.hpp:77] Creating layer L3_b1_sum_eltwise
I1207 05:37:09.075768   369 net.cpp:100] Creating Layer L3_b1_sum_eltwise
I1207 05:37:09.075774   369 net.cpp:434] L3_b1_sum_eltwise <- L3_b1_brc3_conv_top
I1207 05:37:09.075781   369 net.cpp:434] L3_b1_sum_eltwise <- L3_b1_chanInc_conv_top
I1207 05:37:09.075789   369 net.cpp:408] L3_b1_sum_eltwise -> L3_b1_sum_eltwise_top
I1207 05:37:09.075826   369 net.cpp:150] Setting up L3_b1_sum_eltwise
I1207 05:37:09.075839   369 net.cpp:157] Top shape: 100 256 8 8 (1638400)
I1207 05:37:09.075844   369 net.cpp:165] Memory required for data: 1872282800
I1207 05:37:09.075850   369 layer_factory.hpp:77] Creating layer L3_b1_sum_eltwise_top_L3_b1_sum_eltwise_0_split
I1207 05:37:09.075860   369 net.cpp:100] Creating Layer L3_b1_sum_eltwise_top_L3_b1_sum_eltwise_0_split
I1207 05:37:09.075866   369 net.cpp:434] L3_b1_sum_eltwise_top_L3_b1_sum_eltwise_0_split <- L3_b1_sum_eltwise_top
I1207 05:37:09.075875   369 net.cpp:408] L3_b1_sum_eltwise_top_L3_b1_sum_eltwise_0_split -> L3_b1_sum_eltwise_top_L3_b1_sum_eltwise_0_split_0
I1207 05:37:09.075891   369 net.cpp:408] L3_b1_sum_eltwise_top_L3_b1_sum_eltwise_0_split -> L3_b1_sum_eltwise_top_L3_b1_sum_eltwise_0_split_1
I1207 05:37:09.075943   369 net.cpp:150] Setting up L3_b1_sum_eltwise_top_L3_b1_sum_eltwise_0_split
I1207 05:37:09.075955   369 net.cpp:157] Top shape: 100 256 8 8 (1638400)
I1207 05:37:09.075963   369 net.cpp:157] Top shape: 100 256 8 8 (1638400)
I1207 05:37:09.075968   369 net.cpp:165] Memory required for data: 1885390000
I1207 05:37:09.075973   369 layer_factory.hpp:77] Creating layer L3_b2_brc1_bn
I1207 05:37:09.075984   369 net.cpp:100] Creating Layer L3_b2_brc1_bn
I1207 05:37:09.075990   369 net.cpp:434] L3_b2_brc1_bn <- L3_b1_sum_eltwise_top_L3_b1_sum_eltwise_0_split_0
I1207 05:37:09.075999   369 net.cpp:408] L3_b2_brc1_bn -> L3_b2_brc1_bn_top
I1207 05:37:09.076241   369 net.cpp:150] Setting up L3_b2_brc1_bn
I1207 05:37:09.076256   369 net.cpp:157] Top shape: 100 256 8 8 (1638400)
I1207 05:37:09.076262   369 net.cpp:165] Memory required for data: 1891943600
I1207 05:37:09.076273   369 layer_factory.hpp:77] Creating layer L3_b2_brc1_relu
I1207 05:37:09.076282   369 net.cpp:100] Creating Layer L3_b2_brc1_relu
I1207 05:37:09.076288   369 net.cpp:434] L3_b2_brc1_relu <- L3_b2_brc1_bn_top
I1207 05:37:09.076295   369 net.cpp:395] L3_b2_brc1_relu -> L3_b2_brc1_bn_top (in-place)
I1207 05:37:09.076306   369 net.cpp:150] Setting up L3_b2_brc1_relu
I1207 05:37:09.076313   369 net.cpp:157] Top shape: 100 256 8 8 (1638400)
I1207 05:37:09.076318   369 net.cpp:165] Memory required for data: 1898497200
I1207 05:37:09.076323   369 layer_factory.hpp:77] Creating layer L3_b2_brc1_conv
I1207 05:37:09.076333   369 net.cpp:100] Creating Layer L3_b2_brc1_conv
I1207 05:37:09.076339   369 net.cpp:434] L3_b2_brc1_conv <- L3_b2_brc1_bn_top
I1207 05:37:09.076350   369 net.cpp:408] L3_b2_brc1_conv -> L3_b2_brc1_conv_top
I1207 05:37:09.076990   369 net.cpp:150] Setting up L3_b2_brc1_conv
I1207 05:37:09.077009   369 net.cpp:157] Top shape: 100 64 8 8 (409600)
I1207 05:37:09.077014   369 net.cpp:165] Memory required for data: 1900135600
I1207 05:37:09.077023   369 layer_factory.hpp:77] Creating layer L3_b2_brc2_bn
I1207 05:37:09.077033   369 net.cpp:100] Creating Layer L3_b2_brc2_bn
I1207 05:37:09.077039   369 net.cpp:434] L3_b2_brc2_bn <- L3_b2_brc1_conv_top
I1207 05:37:09.077050   369 net.cpp:408] L3_b2_brc2_bn -> L3_b2_brc2_bn_top
I1207 05:37:09.077306   369 net.cpp:150] Setting up L3_b2_brc2_bn
I1207 05:37:09.077322   369 net.cpp:157] Top shape: 100 64 8 8 (409600)
I1207 05:37:09.077328   369 net.cpp:165] Memory required for data: 1901774000
I1207 05:37:09.077338   369 layer_factory.hpp:77] Creating layer L3_b2_brc2_relu
I1207 05:37:09.077347   369 net.cpp:100] Creating Layer L3_b2_brc2_relu
I1207 05:37:09.077353   369 net.cpp:434] L3_b2_brc2_relu <- L3_b2_brc2_bn_top
I1207 05:37:09.077360   369 net.cpp:395] L3_b2_brc2_relu -> L3_b2_brc2_bn_top (in-place)
I1207 05:37:09.077370   369 net.cpp:150] Setting up L3_b2_brc2_relu
I1207 05:37:09.077378   369 net.cpp:157] Top shape: 100 64 8 8 (409600)
I1207 05:37:09.077381   369 net.cpp:165] Memory required for data: 1903412400
I1207 05:37:09.077386   369 layer_factory.hpp:77] Creating layer L3_b2_brc2_conv
I1207 05:37:09.077397   369 net.cpp:100] Creating Layer L3_b2_brc2_conv
I1207 05:37:09.077404   369 net.cpp:434] L3_b2_brc2_conv <- L3_b2_brc2_bn_top
I1207 05:37:09.077416   369 net.cpp:408] L3_b2_brc2_conv -> L3_b2_brc2_conv_top
I1207 05:37:09.078426   369 net.cpp:150] Setting up L3_b2_brc2_conv
I1207 05:37:09.078441   369 net.cpp:157] Top shape: 100 64 8 8 (409600)
I1207 05:37:09.078447   369 net.cpp:165] Memory required for data: 1905050800
I1207 05:37:09.078455   369 layer_factory.hpp:77] Creating layer L3_b2_brc3_bn
I1207 05:37:09.078472   369 net.cpp:100] Creating Layer L3_b2_brc3_bn
I1207 05:37:09.078480   369 net.cpp:434] L3_b2_brc3_bn <- L3_b2_brc2_conv_top
I1207 05:37:09.078488   369 net.cpp:408] L3_b2_brc3_bn -> L3_b2_brc3_bn_top
I1207 05:37:09.078764   369 net.cpp:150] Setting up L3_b2_brc3_bn
I1207 05:37:09.078785   369 net.cpp:157] Top shape: 100 64 8 8 (409600)
I1207 05:37:09.078790   369 net.cpp:165] Memory required for data: 1906689200
I1207 05:37:09.078801   369 layer_factory.hpp:77] Creating layer L3_b2_brc3_relu
I1207 05:37:09.078810   369 net.cpp:100] Creating Layer L3_b2_brc3_relu
I1207 05:37:09.078816   369 net.cpp:434] L3_b2_brc3_relu <- L3_b2_brc3_bn_top
I1207 05:37:09.078824   369 net.cpp:395] L3_b2_brc3_relu -> L3_b2_brc3_bn_top (in-place)
I1207 05:37:09.078833   369 net.cpp:150] Setting up L3_b2_brc3_relu
I1207 05:37:09.078840   369 net.cpp:157] Top shape: 100 64 8 8 (409600)
I1207 05:37:09.078845   369 net.cpp:165] Memory required for data: 1908327600
I1207 05:37:09.078850   369 layer_factory.hpp:77] Creating layer L3_b2_brc3_conv
I1207 05:37:09.078863   369 net.cpp:100] Creating Layer L3_b2_brc3_conv
I1207 05:37:09.078871   369 net.cpp:434] L3_b2_brc3_conv <- L3_b2_brc3_bn_top
I1207 05:37:09.078881   369 net.cpp:408] L3_b2_brc3_conv -> L3_b2_brc3_conv_top
I1207 05:37:09.079496   369 net.cpp:150] Setting up L3_b2_brc3_conv
I1207 05:37:09.079511   369 net.cpp:157] Top shape: 100 256 8 8 (1638400)
I1207 05:37:09.079516   369 net.cpp:165] Memory required for data: 1914881200
I1207 05:37:09.079525   369 layer_factory.hpp:77] Creating layer L3_b2_sum_eltwise
I1207 05:37:09.079535   369 net.cpp:100] Creating Layer L3_b2_sum_eltwise
I1207 05:37:09.079541   369 net.cpp:434] L3_b2_sum_eltwise <- L3_b2_brc3_conv_top
I1207 05:37:09.079548   369 net.cpp:434] L3_b2_sum_eltwise <- L3_b1_sum_eltwise_top_L3_b1_sum_eltwise_0_split_1
I1207 05:37:09.079561   369 net.cpp:408] L3_b2_sum_eltwise -> L3_b2_sum_eltwise_top
I1207 05:37:09.079598   369 net.cpp:150] Setting up L3_b2_sum_eltwise
I1207 05:37:09.079610   369 net.cpp:157] Top shape: 100 256 8 8 (1638400)
I1207 05:37:09.079615   369 net.cpp:165] Memory required for data: 1921434800
I1207 05:37:09.079622   369 layer_factory.hpp:77] Creating layer L3_b2_sum_eltwise_top_L3_b2_sum_eltwise_0_split
I1207 05:37:09.079628   369 net.cpp:100] Creating Layer L3_b2_sum_eltwise_top_L3_b2_sum_eltwise_0_split
I1207 05:37:09.079634   369 net.cpp:434] L3_b2_sum_eltwise_top_L3_b2_sum_eltwise_0_split <- L3_b2_sum_eltwise_top
I1207 05:37:09.079645   369 net.cpp:408] L3_b2_sum_eltwise_top_L3_b2_sum_eltwise_0_split -> L3_b2_sum_eltwise_top_L3_b2_sum_eltwise_0_split_0
I1207 05:37:09.079655   369 net.cpp:408] L3_b2_sum_eltwise_top_L3_b2_sum_eltwise_0_split -> L3_b2_sum_eltwise_top_L3_b2_sum_eltwise_0_split_1
I1207 05:37:09.079702   369 net.cpp:150] Setting up L3_b2_sum_eltwise_top_L3_b2_sum_eltwise_0_split
I1207 05:37:09.079716   369 net.cpp:157] Top shape: 100 256 8 8 (1638400)
I1207 05:37:09.079723   369 net.cpp:157] Top shape: 100 256 8 8 (1638400)
I1207 05:37:09.079728   369 net.cpp:165] Memory required for data: 1934542000
I1207 05:37:09.079733   369 layer_factory.hpp:77] Creating layer L3_b3_brc1_bn
I1207 05:37:09.079741   369 net.cpp:100] Creating Layer L3_b3_brc1_bn
I1207 05:37:09.079747   369 net.cpp:434] L3_b3_brc1_bn <- L3_b2_sum_eltwise_top_L3_b2_sum_eltwise_0_split_0
I1207 05:37:09.079759   369 net.cpp:408] L3_b3_brc1_bn -> L3_b3_brc1_bn_top
I1207 05:37:09.079998   369 net.cpp:150] Setting up L3_b3_brc1_bn
I1207 05:37:09.080009   369 net.cpp:157] Top shape: 100 256 8 8 (1638400)
I1207 05:37:09.080014   369 net.cpp:165] Memory required for data: 1941095600
I1207 05:37:09.080025   369 layer_factory.hpp:77] Creating layer L3_b3_brc1_relu
I1207 05:37:09.080034   369 net.cpp:100] Creating Layer L3_b3_brc1_relu
I1207 05:37:09.080040   369 net.cpp:434] L3_b3_brc1_relu <- L3_b3_brc1_bn_top
I1207 05:37:09.080047   369 net.cpp:395] L3_b3_brc1_relu -> L3_b3_brc1_bn_top (in-place)
I1207 05:37:09.080057   369 net.cpp:150] Setting up L3_b3_brc1_relu
I1207 05:37:09.080065   369 net.cpp:157] Top shape: 100 256 8 8 (1638400)
I1207 05:37:09.080068   369 net.cpp:165] Memory required for data: 1947649200
I1207 05:37:09.080073   369 layer_factory.hpp:77] Creating layer L3_b3_brc1_conv
I1207 05:37:09.080087   369 net.cpp:100] Creating Layer L3_b3_brc1_conv
I1207 05:37:09.080101   369 net.cpp:434] L3_b3_brc1_conv <- L3_b3_brc1_bn_top
I1207 05:37:09.080113   369 net.cpp:408] L3_b3_brc1_conv -> L3_b3_brc1_conv_top
I1207 05:37:09.080735   369 net.cpp:150] Setting up L3_b3_brc1_conv
I1207 05:37:09.080750   369 net.cpp:157] Top shape: 100 64 8 8 (409600)
I1207 05:37:09.080756   369 net.cpp:165] Memory required for data: 1949287600
I1207 05:37:09.080765   369 layer_factory.hpp:77] Creating layer L3_b3_brc2_bn
I1207 05:37:09.080776   369 net.cpp:100] Creating Layer L3_b3_brc2_bn
I1207 05:37:09.080783   369 net.cpp:434] L3_b3_brc2_bn <- L3_b3_brc1_conv_top
I1207 05:37:09.080796   369 net.cpp:408] L3_b3_brc2_bn -> L3_b3_brc2_bn_top
I1207 05:37:09.081048   369 net.cpp:150] Setting up L3_b3_brc2_bn
I1207 05:37:09.081060   369 net.cpp:157] Top shape: 100 64 8 8 (409600)
I1207 05:37:09.081065   369 net.cpp:165] Memory required for data: 1950926000
I1207 05:37:09.081075   369 layer_factory.hpp:77] Creating layer L3_b3_brc2_relu
I1207 05:37:09.081084   369 net.cpp:100] Creating Layer L3_b3_brc2_relu
I1207 05:37:09.081089   369 net.cpp:434] L3_b3_brc2_relu <- L3_b3_brc2_bn_top
I1207 05:37:09.081096   369 net.cpp:395] L3_b3_brc2_relu -> L3_b3_brc2_bn_top (in-place)
I1207 05:37:09.081106   369 net.cpp:150] Setting up L3_b3_brc2_relu
I1207 05:37:09.081113   369 net.cpp:157] Top shape: 100 64 8 8 (409600)
I1207 05:37:09.081118   369 net.cpp:165] Memory required for data: 1952564400
I1207 05:37:09.081123   369 layer_factory.hpp:77] Creating layer L3_b3_brc2_conv
I1207 05:37:09.081136   369 net.cpp:100] Creating Layer L3_b3_brc2_conv
I1207 05:37:09.081143   369 net.cpp:434] L3_b3_brc2_conv <- L3_b3_brc2_bn_top
I1207 05:37:09.081154   369 net.cpp:408] L3_b3_brc2_conv -> L3_b3_brc2_conv_top
I1207 05:37:09.082170   369 net.cpp:150] Setting up L3_b3_brc2_conv
I1207 05:37:09.082185   369 net.cpp:157] Top shape: 100 64 8 8 (409600)
I1207 05:37:09.082190   369 net.cpp:165] Memory required for data: 1954202800
I1207 05:37:09.082200   369 layer_factory.hpp:77] Creating layer L3_b3_brc3_bn
I1207 05:37:09.082208   369 net.cpp:100] Creating Layer L3_b3_brc3_bn
I1207 05:37:09.082214   369 net.cpp:434] L3_b3_brc3_bn <- L3_b3_brc2_conv_top
I1207 05:37:09.082226   369 net.cpp:408] L3_b3_brc3_bn -> L3_b3_brc3_bn_top
I1207 05:37:09.082489   369 net.cpp:150] Setting up L3_b3_brc3_bn
I1207 05:37:09.082504   369 net.cpp:157] Top shape: 100 64 8 8 (409600)
I1207 05:37:09.082509   369 net.cpp:165] Memory required for data: 1955841200
I1207 05:37:09.082518   369 layer_factory.hpp:77] Creating layer L3_b3_brc3_relu
I1207 05:37:09.082526   369 net.cpp:100] Creating Layer L3_b3_brc3_relu
I1207 05:37:09.082533   369 net.cpp:434] L3_b3_brc3_relu <- L3_b3_brc3_bn_top
I1207 05:37:09.082543   369 net.cpp:395] L3_b3_brc3_relu -> L3_b3_brc3_bn_top (in-place)
I1207 05:37:09.082554   369 net.cpp:150] Setting up L3_b3_brc3_relu
I1207 05:37:09.082561   369 net.cpp:157] Top shape: 100 64 8 8 (409600)
I1207 05:37:09.082566   369 net.cpp:165] Memory required for data: 1957479600
I1207 05:37:09.082571   369 layer_factory.hpp:77] Creating layer L3_b3_brc3_conv
I1207 05:37:09.082583   369 net.cpp:100] Creating Layer L3_b3_brc3_conv
I1207 05:37:09.082590   369 net.cpp:434] L3_b3_brc3_conv <- L3_b3_brc3_bn_top
I1207 05:37:09.082598   369 net.cpp:408] L3_b3_brc3_conv -> L3_b3_brc3_conv_top
I1207 05:37:09.083209   369 net.cpp:150] Setting up L3_b3_brc3_conv
I1207 05:37:09.083225   369 net.cpp:157] Top shape: 100 256 8 8 (1638400)
I1207 05:37:09.083230   369 net.cpp:165] Memory required for data: 1964033200
I1207 05:37:09.083238   369 layer_factory.hpp:77] Creating layer L3_b3_sum_eltwise
I1207 05:37:09.083247   369 net.cpp:100] Creating Layer L3_b3_sum_eltwise
I1207 05:37:09.083254   369 net.cpp:434] L3_b3_sum_eltwise <- L3_b3_brc3_conv_top
I1207 05:37:09.083261   369 net.cpp:434] L3_b3_sum_eltwise <- L3_b2_sum_eltwise_top_L3_b2_sum_eltwise_0_split_1
I1207 05:37:09.083272   369 net.cpp:408] L3_b3_sum_eltwise -> L3_b3_sum_eltwise_top
I1207 05:37:09.083305   369 net.cpp:150] Setting up L3_b3_sum_eltwise
I1207 05:37:09.083315   369 net.cpp:157] Top shape: 100 256 8 8 (1638400)
I1207 05:37:09.083328   369 net.cpp:165] Memory required for data: 1970586800
I1207 05:37:09.083333   369 layer_factory.hpp:77] Creating layer L3_b3_sum_eltwise_top_L3_b3_sum_eltwise_0_split
I1207 05:37:09.083343   369 net.cpp:100] Creating Layer L3_b3_sum_eltwise_top_L3_b3_sum_eltwise_0_split
I1207 05:37:09.083350   369 net.cpp:434] L3_b3_sum_eltwise_top_L3_b3_sum_eltwise_0_split <- L3_b3_sum_eltwise_top
I1207 05:37:09.083359   369 net.cpp:408] L3_b3_sum_eltwise_top_L3_b3_sum_eltwise_0_split -> L3_b3_sum_eltwise_top_L3_b3_sum_eltwise_0_split_0
I1207 05:37:09.083370   369 net.cpp:408] L3_b3_sum_eltwise_top_L3_b3_sum_eltwise_0_split -> L3_b3_sum_eltwise_top_L3_b3_sum_eltwise_0_split_1
I1207 05:37:09.083418   369 net.cpp:150] Setting up L3_b3_sum_eltwise_top_L3_b3_sum_eltwise_0_split
I1207 05:37:09.083431   369 net.cpp:157] Top shape: 100 256 8 8 (1638400)
I1207 05:37:09.083437   369 net.cpp:157] Top shape: 100 256 8 8 (1638400)
I1207 05:37:09.083442   369 net.cpp:165] Memory required for data: 1983694000
I1207 05:37:09.083447   369 layer_factory.hpp:77] Creating layer L3_b4_brc1_bn
I1207 05:37:09.083458   369 net.cpp:100] Creating Layer L3_b4_brc1_bn
I1207 05:37:09.083464   369 net.cpp:434] L3_b4_brc1_bn <- L3_b3_sum_eltwise_top_L3_b3_sum_eltwise_0_split_0
I1207 05:37:09.083479   369 net.cpp:408] L3_b4_brc1_bn -> L3_b4_brc1_bn_top
I1207 05:37:09.083722   369 net.cpp:150] Setting up L3_b4_brc1_bn
I1207 05:37:09.083735   369 net.cpp:157] Top shape: 100 256 8 8 (1638400)
I1207 05:37:09.083740   369 net.cpp:165] Memory required for data: 1990247600
I1207 05:37:09.083751   369 layer_factory.hpp:77] Creating layer L3_b4_brc1_relu
I1207 05:37:09.083760   369 net.cpp:100] Creating Layer L3_b4_brc1_relu
I1207 05:37:09.083765   369 net.cpp:434] L3_b4_brc1_relu <- L3_b4_brc1_bn_top
I1207 05:37:09.083775   369 net.cpp:395] L3_b4_brc1_relu -> L3_b4_brc1_bn_top (in-place)
I1207 05:37:09.083786   369 net.cpp:150] Setting up L3_b4_brc1_relu
I1207 05:37:09.083792   369 net.cpp:157] Top shape: 100 256 8 8 (1638400)
I1207 05:37:09.083797   369 net.cpp:165] Memory required for data: 1996801200
I1207 05:37:09.083802   369 layer_factory.hpp:77] Creating layer L3_b4_brc1_conv
I1207 05:37:09.083817   369 net.cpp:100] Creating Layer L3_b4_brc1_conv
I1207 05:37:09.083823   369 net.cpp:434] L3_b4_brc1_conv <- L3_b4_brc1_bn_top
I1207 05:37:09.083832   369 net.cpp:408] L3_b4_brc1_conv -> L3_b4_brc1_conv_top
I1207 05:37:09.084445   369 net.cpp:150] Setting up L3_b4_brc1_conv
I1207 05:37:09.084460   369 net.cpp:157] Top shape: 100 64 8 8 (409600)
I1207 05:37:09.084465   369 net.cpp:165] Memory required for data: 1998439600
I1207 05:37:09.084481   369 layer_factory.hpp:77] Creating layer L3_b4_brc2_bn
I1207 05:37:09.084492   369 net.cpp:100] Creating Layer L3_b4_brc2_bn
I1207 05:37:09.084499   369 net.cpp:434] L3_b4_brc2_bn <- L3_b4_brc1_conv_top
I1207 05:37:09.084507   369 net.cpp:408] L3_b4_brc2_bn -> L3_b4_brc2_bn_top
I1207 05:37:09.084769   369 net.cpp:150] Setting up L3_b4_brc2_bn
I1207 05:37:09.084784   369 net.cpp:157] Top shape: 100 64 8 8 (409600)
I1207 05:37:09.084789   369 net.cpp:165] Memory required for data: 2000078000
I1207 05:37:09.084798   369 layer_factory.hpp:77] Creating layer L3_b4_brc2_relu
I1207 05:37:09.084815   369 net.cpp:100] Creating Layer L3_b4_brc2_relu
I1207 05:37:09.084821   369 net.cpp:434] L3_b4_brc2_relu <- L3_b4_brc2_bn_top
I1207 05:37:09.084828   369 net.cpp:395] L3_b4_brc2_relu -> L3_b4_brc2_bn_top (in-place)
I1207 05:37:09.084838   369 net.cpp:150] Setting up L3_b4_brc2_relu
I1207 05:37:09.084846   369 net.cpp:157] Top shape: 100 64 8 8 (409600)
I1207 05:37:09.084849   369 net.cpp:165] Memory required for data: 2001716400
I1207 05:37:09.084854   369 layer_factory.hpp:77] Creating layer L3_b4_brc2_conv
I1207 05:37:09.084867   369 net.cpp:100] Creating Layer L3_b4_brc2_conv
I1207 05:37:09.084873   369 net.cpp:434] L3_b4_brc2_conv <- L3_b4_brc2_bn_top
I1207 05:37:09.084884   369 net.cpp:408] L3_b4_brc2_conv -> L3_b4_brc2_conv_top
I1207 05:37:09.085901   369 net.cpp:150] Setting up L3_b4_brc2_conv
I1207 05:37:09.085922   369 net.cpp:157] Top shape: 100 64 8 8 (409600)
I1207 05:37:09.085928   369 net.cpp:165] Memory required for data: 2003354800
I1207 05:37:09.085937   369 layer_factory.hpp:77] Creating layer L3_b4_brc3_bn
I1207 05:37:09.085947   369 net.cpp:100] Creating Layer L3_b4_brc3_bn
I1207 05:37:09.085953   369 net.cpp:434] L3_b4_brc3_bn <- L3_b4_brc2_conv_top
I1207 05:37:09.085964   369 net.cpp:408] L3_b4_brc3_bn -> L3_b4_brc3_bn_top
I1207 05:37:09.086230   369 net.cpp:150] Setting up L3_b4_brc3_bn
I1207 05:37:09.086246   369 net.cpp:157] Top shape: 100 64 8 8 (409600)
I1207 05:37:09.086251   369 net.cpp:165] Memory required for data: 2004993200
I1207 05:37:09.086261   369 layer_factory.hpp:77] Creating layer L3_b4_brc3_relu
I1207 05:37:09.086269   369 net.cpp:100] Creating Layer L3_b4_brc3_relu
I1207 05:37:09.086277   369 net.cpp:434] L3_b4_brc3_relu <- L3_b4_brc3_bn_top
I1207 05:37:09.086283   369 net.cpp:395] L3_b4_brc3_relu -> L3_b4_brc3_bn_top (in-place)
I1207 05:37:09.086292   369 net.cpp:150] Setting up L3_b4_brc3_relu
I1207 05:37:09.086299   369 net.cpp:157] Top shape: 100 64 8 8 (409600)
I1207 05:37:09.086304   369 net.cpp:165] Memory required for data: 2006631600
I1207 05:37:09.086309   369 layer_factory.hpp:77] Creating layer L3_b4_brc3_conv
I1207 05:37:09.086319   369 net.cpp:100] Creating Layer L3_b4_brc3_conv
I1207 05:37:09.086325   369 net.cpp:434] L3_b4_brc3_conv <- L3_b4_brc3_bn_top
I1207 05:37:09.086336   369 net.cpp:408] L3_b4_brc3_conv -> L3_b4_brc3_conv_top
I1207 05:37:09.086948   369 net.cpp:150] Setting up L3_b4_brc3_conv
I1207 05:37:09.086964   369 net.cpp:157] Top shape: 100 256 8 8 (1638400)
I1207 05:37:09.086969   369 net.cpp:165] Memory required for data: 2013185200
I1207 05:37:09.086978   369 layer_factory.hpp:77] Creating layer L3_b4_sum_eltwise
I1207 05:37:09.086987   369 net.cpp:100] Creating Layer L3_b4_sum_eltwise
I1207 05:37:09.086994   369 net.cpp:434] L3_b4_sum_eltwise <- L3_b4_brc3_conv_top
I1207 05:37:09.087002   369 net.cpp:434] L3_b4_sum_eltwise <- L3_b3_sum_eltwise_top_L3_b3_sum_eltwise_0_split_1
I1207 05:37:09.087009   369 net.cpp:408] L3_b4_sum_eltwise -> L3_b4_sum_eltwise_top
I1207 05:37:09.087047   369 net.cpp:150] Setting up L3_b4_sum_eltwise
I1207 05:37:09.087060   369 net.cpp:157] Top shape: 100 256 8 8 (1638400)
I1207 05:37:09.087065   369 net.cpp:165] Memory required for data: 2019738800
I1207 05:37:09.087070   369 layer_factory.hpp:77] Creating layer L3_b4_sum_eltwise_top_L3_b4_sum_eltwise_0_split
I1207 05:37:09.087080   369 net.cpp:100] Creating Layer L3_b4_sum_eltwise_top_L3_b4_sum_eltwise_0_split
I1207 05:37:09.087087   369 net.cpp:434] L3_b4_sum_eltwise_top_L3_b4_sum_eltwise_0_split <- L3_b4_sum_eltwise_top
I1207 05:37:09.087095   369 net.cpp:408] L3_b4_sum_eltwise_top_L3_b4_sum_eltwise_0_split -> L3_b4_sum_eltwise_top_L3_b4_sum_eltwise_0_split_0
I1207 05:37:09.087105   369 net.cpp:408] L3_b4_sum_eltwise_top_L3_b4_sum_eltwise_0_split -> L3_b4_sum_eltwise_top_L3_b4_sum_eltwise_0_split_1
I1207 05:37:09.087157   369 net.cpp:150] Setting up L3_b4_sum_eltwise_top_L3_b4_sum_eltwise_0_split
I1207 05:37:09.087169   369 net.cpp:157] Top shape: 100 256 8 8 (1638400)
I1207 05:37:09.087175   369 net.cpp:157] Top shape: 100 256 8 8 (1638400)
I1207 05:37:09.087180   369 net.cpp:165] Memory required for data: 2032846000
I1207 05:37:09.087185   369 layer_factory.hpp:77] Creating layer L3_b5_brc1_bn
I1207 05:37:09.087196   369 net.cpp:100] Creating Layer L3_b5_brc1_bn
I1207 05:37:09.087203   369 net.cpp:434] L3_b5_brc1_bn <- L3_b4_sum_eltwise_top_L3_b4_sum_eltwise_0_split_0
I1207 05:37:09.087211   369 net.cpp:408] L3_b5_brc1_bn -> L3_b5_brc1_bn_top
I1207 05:37:09.087457   369 net.cpp:150] Setting up L3_b5_brc1_bn
I1207 05:37:09.087479   369 net.cpp:157] Top shape: 100 256 8 8 (1638400)
I1207 05:37:09.087486   369 net.cpp:165] Memory required for data: 2039399600
I1207 05:37:09.087496   369 layer_factory.hpp:77] Creating layer L3_b5_brc1_relu
I1207 05:37:09.087504   369 net.cpp:100] Creating Layer L3_b5_brc1_relu
I1207 05:37:09.087510   369 net.cpp:434] L3_b5_brc1_relu <- L3_b5_brc1_bn_top
I1207 05:37:09.087524   369 net.cpp:395] L3_b5_brc1_relu -> L3_b5_brc1_bn_top (in-place)
I1207 05:37:09.087535   369 net.cpp:150] Setting up L3_b5_brc1_relu
I1207 05:37:09.087543   369 net.cpp:157] Top shape: 100 256 8 8 (1638400)
I1207 05:37:09.087548   369 net.cpp:165] Memory required for data: 2045953200
I1207 05:37:09.087553   369 layer_factory.hpp:77] Creating layer L3_b5_brc1_conv
I1207 05:37:09.087563   369 net.cpp:100] Creating Layer L3_b5_brc1_conv
I1207 05:37:09.087568   369 net.cpp:434] L3_b5_brc1_conv <- L3_b5_brc1_bn_top
I1207 05:37:09.087580   369 net.cpp:408] L3_b5_brc1_conv -> L3_b5_brc1_conv_top
I1207 05:37:09.088198   369 net.cpp:150] Setting up L3_b5_brc1_conv
I1207 05:37:09.088213   369 net.cpp:157] Top shape: 100 64 8 8 (409600)
I1207 05:37:09.088218   369 net.cpp:165] Memory required for data: 2047591600
I1207 05:37:09.088227   369 layer_factory.hpp:77] Creating layer L3_b5_brc2_bn
I1207 05:37:09.088235   369 net.cpp:100] Creating Layer L3_b5_brc2_bn
I1207 05:37:09.088243   369 net.cpp:434] L3_b5_brc2_bn <- L3_b5_brc1_conv_top
I1207 05:37:09.088253   369 net.cpp:408] L3_b5_brc2_bn -> L3_b5_brc2_bn_top
I1207 05:37:09.088524   369 net.cpp:150] Setting up L3_b5_brc2_bn
I1207 05:37:09.088538   369 net.cpp:157] Top shape: 100 64 8 8 (409600)
I1207 05:37:09.088543   369 net.cpp:165] Memory required for data: 2049230000
I1207 05:37:09.088554   369 layer_factory.hpp:77] Creating layer L3_b5_brc2_relu
I1207 05:37:09.088562   369 net.cpp:100] Creating Layer L3_b5_brc2_relu
I1207 05:37:09.088568   369 net.cpp:434] L3_b5_brc2_relu <- L3_b5_brc2_bn_top
I1207 05:37:09.088575   369 net.cpp:395] L3_b5_brc2_relu -> L3_b5_brc2_bn_top (in-place)
I1207 05:37:09.088585   369 net.cpp:150] Setting up L3_b5_brc2_relu
I1207 05:37:09.088593   369 net.cpp:157] Top shape: 100 64 8 8 (409600)
I1207 05:37:09.088596   369 net.cpp:165] Memory required for data: 2050868400
I1207 05:37:09.088601   369 layer_factory.hpp:77] Creating layer L3_b5_brc2_conv
I1207 05:37:09.088615   369 net.cpp:100] Creating Layer L3_b5_brc2_conv
I1207 05:37:09.088621   369 net.cpp:434] L3_b5_brc2_conv <- L3_b5_brc2_bn_top
I1207 05:37:09.088630   369 net.cpp:408] L3_b5_brc2_conv -> L3_b5_brc2_conv_top
I1207 05:37:09.089651   369 net.cpp:150] Setting up L3_b5_brc2_conv
I1207 05:37:09.089666   369 net.cpp:157] Top shape: 100 64 8 8 (409600)
I1207 05:37:09.089671   369 net.cpp:165] Memory required for data: 2052506800
I1207 05:37:09.089721   369 layer_factory.hpp:77] Creating layer L3_b5_brc3_bn
I1207 05:37:09.089738   369 net.cpp:100] Creating Layer L3_b5_brc3_bn
I1207 05:37:09.089745   369 net.cpp:434] L3_b5_brc3_bn <- L3_b5_brc2_conv_top
I1207 05:37:09.089754   369 net.cpp:408] L3_b5_brc3_bn -> L3_b5_brc3_bn_top
I1207 05:37:09.090024   369 net.cpp:150] Setting up L3_b5_brc3_bn
I1207 05:37:09.090037   369 net.cpp:157] Top shape: 100 64 8 8 (409600)
I1207 05:37:09.090042   369 net.cpp:165] Memory required for data: 2054145200
I1207 05:37:09.090052   369 layer_factory.hpp:77] Creating layer L3_b5_brc3_relu
I1207 05:37:09.090065   369 net.cpp:100] Creating Layer L3_b5_brc3_relu
I1207 05:37:09.090070   369 net.cpp:434] L3_b5_brc3_relu <- L3_b5_brc3_bn_top
I1207 05:37:09.090078   369 net.cpp:395] L3_b5_brc3_relu -> L3_b5_brc3_bn_top (in-place)
I1207 05:37:09.090087   369 net.cpp:150] Setting up L3_b5_brc3_relu
I1207 05:37:09.090095   369 net.cpp:157] Top shape: 100 64 8 8 (409600)
I1207 05:37:09.090100   369 net.cpp:165] Memory required for data: 2055783600
I1207 05:37:09.090104   369 layer_factory.hpp:77] Creating layer L3_b5_brc3_conv
I1207 05:37:09.090116   369 net.cpp:100] Creating Layer L3_b5_brc3_conv
I1207 05:37:09.090121   369 net.cpp:434] L3_b5_brc3_conv <- L3_b5_brc3_bn_top
I1207 05:37:09.090132   369 net.cpp:408] L3_b5_brc3_conv -> L3_b5_brc3_conv_top
I1207 05:37:09.090756   369 net.cpp:150] Setting up L3_b5_brc3_conv
I1207 05:37:09.090771   369 net.cpp:157] Top shape: 100 256 8 8 (1638400)
I1207 05:37:09.090776   369 net.cpp:165] Memory required for data: 2062337200
I1207 05:37:09.090785   369 layer_factory.hpp:77] Creating layer L3_b5_sum_eltwise
I1207 05:37:09.090801   369 net.cpp:100] Creating Layer L3_b5_sum_eltwise
I1207 05:37:09.090808   369 net.cpp:434] L3_b5_sum_eltwise <- L3_b5_brc3_conv_top
I1207 05:37:09.090816   369 net.cpp:434] L3_b5_sum_eltwise <- L3_b4_sum_eltwise_top_L3_b4_sum_eltwise_0_split_1
I1207 05:37:09.090823   369 net.cpp:408] L3_b5_sum_eltwise -> L3_b5_sum_eltwise_top
I1207 05:37:09.090862   369 net.cpp:150] Setting up L3_b5_sum_eltwise
I1207 05:37:09.090873   369 net.cpp:157] Top shape: 100 256 8 8 (1638400)
I1207 05:37:09.090878   369 net.cpp:165] Memory required for data: 2068890800
I1207 05:37:09.090884   369 layer_factory.hpp:77] Creating layer L3_b5_sum_eltwise_top_L3_b5_sum_eltwise_0_split
I1207 05:37:09.090893   369 net.cpp:100] Creating Layer L3_b5_sum_eltwise_top_L3_b5_sum_eltwise_0_split
I1207 05:37:09.090901   369 net.cpp:434] L3_b5_sum_eltwise_top_L3_b5_sum_eltwise_0_split <- L3_b5_sum_eltwise_top
I1207 05:37:09.090909   369 net.cpp:408] L3_b5_sum_eltwise_top_L3_b5_sum_eltwise_0_split -> L3_b5_sum_eltwise_top_L3_b5_sum_eltwise_0_split_0
I1207 05:37:09.090919   369 net.cpp:408] L3_b5_sum_eltwise_top_L3_b5_sum_eltwise_0_split -> L3_b5_sum_eltwise_top_L3_b5_sum_eltwise_0_split_1
I1207 05:37:09.090968   369 net.cpp:150] Setting up L3_b5_sum_eltwise_top_L3_b5_sum_eltwise_0_split
I1207 05:37:09.090981   369 net.cpp:157] Top shape: 100 256 8 8 (1638400)
I1207 05:37:09.090987   369 net.cpp:157] Top shape: 100 256 8 8 (1638400)
I1207 05:37:09.090992   369 net.cpp:165] Memory required for data: 2081998000
I1207 05:37:09.090997   369 layer_factory.hpp:77] Creating layer L3_b6_brc1_bn
I1207 05:37:09.091006   369 net.cpp:100] Creating Layer L3_b6_brc1_bn
I1207 05:37:09.091012   369 net.cpp:434] L3_b6_brc1_bn <- L3_b5_sum_eltwise_top_L3_b5_sum_eltwise_0_split_0
I1207 05:37:09.091024   369 net.cpp:408] L3_b6_brc1_bn -> L3_b6_brc1_bn_top
I1207 05:37:09.091266   369 net.cpp:150] Setting up L3_b6_brc1_bn
I1207 05:37:09.091279   369 net.cpp:157] Top shape: 100 256 8 8 (1638400)
I1207 05:37:09.091284   369 net.cpp:165] Memory required for data: 2088551600
I1207 05:37:09.091295   369 layer_factory.hpp:77] Creating layer L3_b6_brc1_relu
I1207 05:37:09.091305   369 net.cpp:100] Creating Layer L3_b6_brc1_relu
I1207 05:37:09.091312   369 net.cpp:434] L3_b6_brc1_relu <- L3_b6_brc1_bn_top
I1207 05:37:09.091320   369 net.cpp:395] L3_b6_brc1_relu -> L3_b6_brc1_bn_top (in-place)
I1207 05:37:09.091331   369 net.cpp:150] Setting up L3_b6_brc1_relu
I1207 05:37:09.091337   369 net.cpp:157] Top shape: 100 256 8 8 (1638400)
I1207 05:37:09.091342   369 net.cpp:165] Memory required for data: 2095105200
I1207 05:37:09.091346   369 layer_factory.hpp:77] Creating layer L3_b6_brc1_conv
I1207 05:37:09.091357   369 net.cpp:100] Creating Layer L3_b6_brc1_conv
I1207 05:37:09.091363   369 net.cpp:434] L3_b6_brc1_conv <- L3_b6_brc1_bn_top
I1207 05:37:09.091379   369 net.cpp:408] L3_b6_brc1_conv -> L3_b6_brc1_conv_top
I1207 05:37:09.092020   369 net.cpp:150] Setting up L3_b6_brc1_conv
I1207 05:37:09.092036   369 net.cpp:157] Top shape: 100 64 8 8 (409600)
I1207 05:37:09.092041   369 net.cpp:165] Memory required for data: 2096743600
I1207 05:37:09.092049   369 layer_factory.hpp:77] Creating layer L3_b6_brc2_bn
I1207 05:37:09.092058   369 net.cpp:100] Creating Layer L3_b6_brc2_bn
I1207 05:37:09.092064   369 net.cpp:434] L3_b6_brc2_bn <- L3_b6_brc1_conv_top
I1207 05:37:09.092077   369 net.cpp:408] L3_b6_brc2_bn -> L3_b6_brc2_bn_top
I1207 05:37:09.092342   369 net.cpp:150] Setting up L3_b6_brc2_bn
I1207 05:37:09.092358   369 net.cpp:157] Top shape: 100 64 8 8 (409600)
I1207 05:37:09.092365   369 net.cpp:165] Memory required for data: 2098382000
I1207 05:37:09.092375   369 layer_factory.hpp:77] Creating layer L3_b6_brc2_relu
I1207 05:37:09.092383   369 net.cpp:100] Creating Layer L3_b6_brc2_relu
I1207 05:37:09.092389   369 net.cpp:434] L3_b6_brc2_relu <- L3_b6_brc2_bn_top
I1207 05:37:09.092396   369 net.cpp:395] L3_b6_brc2_relu -> L3_b6_brc2_bn_top (in-place)
I1207 05:37:09.092406   369 net.cpp:150] Setting up L3_b6_brc2_relu
I1207 05:37:09.092413   369 net.cpp:157] Top shape: 100 64 8 8 (409600)
I1207 05:37:09.092424   369 net.cpp:165] Memory required for data: 2100020400
I1207 05:37:09.092430   369 layer_factory.hpp:77] Creating layer L3_b6_brc2_conv
I1207 05:37:09.092440   369 net.cpp:100] Creating Layer L3_b6_brc2_conv
I1207 05:37:09.092447   369 net.cpp:434] L3_b6_brc2_conv <- L3_b6_brc2_bn_top
I1207 05:37:09.092458   369 net.cpp:408] L3_b6_brc2_conv -> L3_b6_brc2_conv_top
I1207 05:37:09.093500   369 net.cpp:150] Setting up L3_b6_brc2_conv
I1207 05:37:09.093515   369 net.cpp:157] Top shape: 100 64 8 8 (409600)
I1207 05:37:09.093521   369 net.cpp:165] Memory required for data: 2101658800
I1207 05:37:09.093529   369 layer_factory.hpp:77] Creating layer L3_b6_brc3_bn
I1207 05:37:09.093541   369 net.cpp:100] Creating Layer L3_b6_brc3_bn
I1207 05:37:09.093549   369 net.cpp:434] L3_b6_brc3_bn <- L3_b6_brc2_conv_top
I1207 05:37:09.093556   369 net.cpp:408] L3_b6_brc3_bn -> L3_b6_brc3_bn_top
I1207 05:37:09.093827   369 net.cpp:150] Setting up L3_b6_brc3_bn
I1207 05:37:09.093840   369 net.cpp:157] Top shape: 100 64 8 8 (409600)
I1207 05:37:09.093845   369 net.cpp:165] Memory required for data: 2103297200
I1207 05:37:09.093857   369 layer_factory.hpp:77] Creating layer L3_b6_brc3_relu
I1207 05:37:09.093865   369 net.cpp:100] Creating Layer L3_b6_brc3_relu
I1207 05:37:09.093871   369 net.cpp:434] L3_b6_brc3_relu <- L3_b6_brc3_bn_top
I1207 05:37:09.093878   369 net.cpp:395] L3_b6_brc3_relu -> L3_b6_brc3_bn_top (in-place)
I1207 05:37:09.093888   369 net.cpp:150] Setting up L3_b6_brc3_relu
I1207 05:37:09.093894   369 net.cpp:157] Top shape: 100 64 8 8 (409600)
I1207 05:37:09.093899   369 net.cpp:165] Memory required for data: 2104935600
I1207 05:37:09.093904   369 layer_factory.hpp:77] Creating layer L3_b6_brc3_conv
I1207 05:37:09.093919   369 net.cpp:100] Creating Layer L3_b6_brc3_conv
I1207 05:37:09.093925   369 net.cpp:434] L3_b6_brc3_conv <- L3_b6_brc3_bn_top
I1207 05:37:09.093936   369 net.cpp:408] L3_b6_brc3_conv -> L3_b6_brc3_conv_top
I1207 05:37:09.094561   369 net.cpp:150] Setting up L3_b6_brc3_conv
I1207 05:37:09.094576   369 net.cpp:157] Top shape: 100 256 8 8 (1638400)
I1207 05:37:09.094581   369 net.cpp:165] Memory required for data: 2111489200
I1207 05:37:09.094590   369 layer_factory.hpp:77] Creating layer L3_b6_sum_eltwise
I1207 05:37:09.094599   369 net.cpp:100] Creating Layer L3_b6_sum_eltwise
I1207 05:37:09.094605   369 net.cpp:434] L3_b6_sum_eltwise <- L3_b6_brc3_conv_top
I1207 05:37:09.094612   369 net.cpp:434] L3_b6_sum_eltwise <- L3_b5_sum_eltwise_top_L3_b5_sum_eltwise_0_split_1
I1207 05:37:09.094625   369 net.cpp:408] L3_b6_sum_eltwise -> L3_b6_sum_eltwise_top
I1207 05:37:09.094663   369 net.cpp:150] Setting up L3_b6_sum_eltwise
I1207 05:37:09.094676   369 net.cpp:157] Top shape: 100 256 8 8 (1638400)
I1207 05:37:09.094681   369 net.cpp:165] Memory required for data: 2118042800
I1207 05:37:09.094686   369 layer_factory.hpp:77] Creating layer post_bn
I1207 05:37:09.094694   369 net.cpp:100] Creating Layer post_bn
I1207 05:37:09.094700   369 net.cpp:434] post_bn <- L3_b6_sum_eltwise_top
I1207 05:37:09.094712   369 net.cpp:408] post_bn -> post_bn_top
I1207 05:37:09.094959   369 net.cpp:150] Setting up post_bn
I1207 05:37:09.094971   369 net.cpp:157] Top shape: 100 256 8 8 (1638400)
I1207 05:37:09.094976   369 net.cpp:165] Memory required for data: 2124596400
I1207 05:37:09.094987   369 layer_factory.hpp:77] Creating layer post_relu
I1207 05:37:09.094998   369 net.cpp:100] Creating Layer post_relu
I1207 05:37:09.095005   369 net.cpp:434] post_relu <- post_bn_top
I1207 05:37:09.095012   369 net.cpp:395] post_relu -> post_bn_top (in-place)
I1207 05:37:09.095021   369 net.cpp:150] Setting up post_relu
I1207 05:37:09.095028   369 net.cpp:157] Top shape: 100 256 8 8 (1638400)
I1207 05:37:09.095033   369 net.cpp:165] Memory required for data: 2131150000
I1207 05:37:09.095038   369 layer_factory.hpp:77] Creating layer post_pool
I1207 05:37:09.095048   369 net.cpp:100] Creating Layer post_pool
I1207 05:37:09.095054   369 net.cpp:434] post_pool <- post_bn_top
I1207 05:37:09.095069   369 net.cpp:408] post_pool -> post_pool
I1207 05:37:09.095173   369 net.cpp:150] Setting up post_pool
I1207 05:37:09.095190   369 net.cpp:157] Top shape: 100 256 1 1 (25600)
I1207 05:37:09.095196   369 net.cpp:165] Memory required for data: 2131252400
I1207 05:37:09.095201   369 layer_factory.hpp:77] Creating layer post_FC
I1207 05:37:09.095271   369 net.cpp:100] Creating Layer post_FC
I1207 05:37:09.095284   369 net.cpp:434] post_FC <- post_pool
I1207 05:37:09.095294   369 net.cpp:408] post_FC -> post_FC_top
I1207 05:37:09.095568   369 net.cpp:150] Setting up post_FC
I1207 05:37:09.095584   369 net.cpp:157] Top shape: 100 10 (1000)
I1207 05:37:09.095589   369 net.cpp:165] Memory required for data: 2131256400
I1207 05:37:09.095599   369 layer_factory.hpp:77] Creating layer post_FC_top_post_FC_0_split
I1207 05:37:09.095607   369 net.cpp:100] Creating Layer post_FC_top_post_FC_0_split
I1207 05:37:09.095613   369 net.cpp:434] post_FC_top_post_FC_0_split <- post_FC_top
I1207 05:37:09.095625   369 net.cpp:408] post_FC_top_post_FC_0_split -> post_FC_top_post_FC_0_split_0
I1207 05:37:09.095636   369 net.cpp:408] post_FC_top_post_FC_0_split -> post_FC_top_post_FC_0_split_1
I1207 05:37:09.095687   369 net.cpp:150] Setting up post_FC_top_post_FC_0_split
I1207 05:37:09.095700   369 net.cpp:157] Top shape: 100 10 (1000)
I1207 05:37:09.095705   369 net.cpp:157] Top shape: 100 10 (1000)
I1207 05:37:09.095710   369 net.cpp:165] Memory required for data: 2131264400
I1207 05:37:09.095715   369 layer_factory.hpp:77] Creating layer accuracy
I1207 05:37:09.095762   369 net.cpp:100] Creating Layer accuracy
I1207 05:37:09.095774   369 net.cpp:434] accuracy <- post_FC_top_post_FC_0_split_0
I1207 05:37:09.095782   369 net.cpp:434] accuracy <- label_dataLayer_1_split_0
I1207 05:37:09.095790   369 net.cpp:408] accuracy -> accuracy
…
