…
I1206 09:09:45.596678 22755 net.cpp:322] The NetState phase (0) differed from the phase (1) specified by a rule in layer dataLayer
I1206 09:09:45.598340 22755 net.cpp:58] Initializing net from parameters: 
name: "Cifar-Resnet"
state {
  phase: TRAIN
  level: 0
  stage: ""
}
layer {
  name: "dataLayer"
  type: "Data"
  top: "data_top"
  top: "label"
  include {
    phase: TRAIN
  }
  transform_param {
    mirror: true
    crop_size: 32
    mean_file: "examples/cifar10/mean.binaryproto"
  }
  data_param {
    source: "examples/cifar10/cifar10_train_lmdb"
    batch_size: 100
    backend: LMDB
  }
  image_data_param {
    shuffle: true
  }
}
layer {
  name: "pre_conv"
  type: "Convolution"
  bottom: "data_top"
  top: "pre_conv_top"
  param {
    lr_mult: 1
    decay_mult: 1
  }
  param {
    lr_mult: 2
    decay_mult: 0
  }
  convolution_param {
    num_output: 16
    pad: 1
    kernel_size: 3
    stride: 1
    weight_filler {
      type: "msra"
    }
    bias_filler {
      type: "constant"
    }
  }
}
layer {
  name: "L1_b1_brc1_bn"
  type: "BatchNorm"
  bottom: "pre_conv_top"
  top: "L1_b1_brc1_bn_top"
  batch_norm_param {
    use_global_stats: false
    moving_average_fraction: 0.95
  }
}
layer {
  name: "L1_b1_brc1_relu"
  type: "ReLU"
  bottom: "L1_b1_brc1_bn_top"
  top: "L1_b1_brc1_bn_top"
}
layer {
  name: "L1_b1_brc1_conv"
  type: "Convolution"
  bottom: "L1_b1_brc1_bn_top"
  top: "L1_b1_brc1_conv_top"
  param {
    lr_mult: 1
    decay_mult: 1
  }
  param {
    lr_mult: 2
    decay_mult: 0
  }
  convolution_param {
    num_output: 16
    pad: 0
    kernel_size: 1
    stride: 1
    weight_filler {
      type: "msra"
    }
    bias_filler {
      type: "constant"
    }
  }
}
layer {
  name: "L1_b1_brc2_bn"
  type: "BatchNorm"
  bottom: "L1_b1_brc1_conv_top"
  top: "L1_b1_brc2_bn_top"
  batch_norm_param {
    use_global_stats: false
    moving_average_fraction: 0.95
  }
}
layer {
  name: "L1_b1_brc2_relu"
  type: "ReLU"
  bottom: "L1_b1_brc2_bn_top"
  top: "L1_b1_brc2_bn_top"
}
layer {
  name: "L1_b1_brc2_conv"
  type: "Convolution"
  bottom: "L1_b1_brc2_bn_top"
  top: "L1_b1_brc2_conv_top"
  param {
    lr_mult: 1
    decay_mult: 1
  }
  param {
    lr_mult: 2
    decay_mult: 0
  }
  convolution_param {
    num_output: 16
    pad: 1
    kernel_size: 3
    stride: 1
    weight_filler {
      type: "msra"
    }
    bias_filler {
      type: "constant"
    }
  }
}
layer {
  name: "L1_b1_brc3_bn"
  type: "BatchNorm"
  bottom: "L1_b1_brc2_conv_top"
  top: "L1_b1_brc3_bn_top"
  batch_norm_param {
    use_global_stats: false
    moving_average_fraction: 0.95
  }
}
layer {
  name: "L1_b1_brc3_relu"
  type: "ReLU"
  bottom: "L1_b1_brc3_bn_top"
  top: "L1_b1_brc3_bn_top"
}
layer {
  name: "L1_b1_brc3_conv"
  type: "Convolution"
  bottom: "L1_b1_brc3_bn_top"
  top: "L1_b1_brc3_conv_top"
  param {
    lr_mult: 1
    decay_mult: 1
  }
  param {
    lr_mult: 2
    decay_mult: 0
  }
  convolution_param {
    num_output: 64
    pad: 0
    kernel_size: 1
    stride: 1
    weight_filler {
      type: "msra"
    }
    bias_filler {
      type: "constant"
    }
  }
}
layer {
  name: "L1_b1_chanInc_conv"
  type: "Convolution"
  bottom: "pre_conv_top"
  top: "L1_b1_chanInc_conv_top"
  param {
    lr_mult: 1
    decay_mult: 1
  }
  param {
    lr_mult: 2
    decay_mult: 0
  }
  convolution_param {
    num_output: 64
    pad: 0
    kernel_size: 1
    stride: 1
    weight_filler {
      type: "msra"
    }
    bias_filler {
      type: "constant"
    }
  }
}
layer {
  name: "L1_b1_sum_eltwise"
  type: "Eltwise"
  bottom: "L1_b1_brc3_conv_top"
  bottom: "L1_b1_chanInc_conv_top"
  top: "L1_b1_sum_eltwise_top"
  eltwise_param {
    operation: SUM
  }
}
layer {
  name: "L1_b2_brc1_bn"
  type: "BatchNorm"
  bottom: "L1_b1_sum_eltwise_top"
  top: "L1_b2_brc1_bn_top"
  batch_norm_param {
    use_global_stats: false
    moving_average_fraction: 0.95
  }
}
layer {
  name: "L1_b2_brc1_relu"
  type: "ReLU"
  bottom: "L1_b2_brc1_bn_top"
  top: "L1_b2_brc1_bn_top"
}
layer {
  name: "L1_b2_brc1_conv"
  type: "Convolution"
  bottom: "L1_b2_brc1_bn_top"
  top: "L1_b2_brc1_conv_top"
  param {
    lr_mult: 1
    decay_mult: 1
  }
  param {
    lr_mult: 2
    decay_mult: 0
  }
  convolution_param {
    num_output: 16
    pad: 0
    kernel_size: 1
    stride: 1
    weight_filler {
      type: "msra"
    }
    bias_filler {
      type: "constant"
    }
  }
}
layer {
  name: "L1_b2_brc2_bn"
  type: "BatchNorm"
  bottom: "L1_b2_brc1_conv_top"
  top: "L1_b2_brc2_bn_top"
  batch_norm_param {
    use_global_stats: false
    moving_average_fraction: 0.95
  }
}
layer {
  name: "L1_b2_brc2_relu"
  type: "ReLU"
  bottom: "L1_b2_brc2_bn_top"
  top: "L1_b2_brc2_bn_top"
}
layer {
  name: "L1_b2_brc2_conv"
  type: "Convolution"
  bottom: "L1_b2_brc2_bn_top"
  top: "L1_b2_brc2_conv_top"
  param {
    lr_mult: 1
    decay_mult: 1
  }
  param {
    lr_mult: 2
    decay_mult: 0
  }
  convolution_param {
    num_output: 16
    pad: 1
    kernel_size: 3
    stride: 1
    weight_filler {
      type: "msra"
    }
    bias_filler {
      type: "constant"
    }
  }
}
layer {
  name: "L1_b2_brc3_bn"
  type: "BatchNorm"
  bottom: "L1_b2_brc2_conv_top"
  top: "L1_b2_brc3_bn_top"
  batch_norm_param {
    use_global_stats: false
    moving_average_fraction: 0.95
  }
}
layer {
  name: "L1_b2_brc3_relu"
  type: "ReLU"
  bottom: "L1_b2_brc3_bn_top"
  top: "L1_b2_brc3_bn_top"
}
layer {
  name: "L1_b2_brc3_conv"
  type: "Convolution"
  bottom: "L1_b2_brc3_bn_top"
  top: "L1_b2_brc3_conv_top"
  param {
    lr_mult: 1
    decay_mult: 1
  }
  param {
    lr_mult: 2
    decay_mult: 0
  }
  convolution_param {
    num_output: 64
    pad: 0
    kernel_size: 1
    stride: 1
    weight_filler {
      type: "msra"
    }
    bias_filler {
      type: "constant"
    }
  }
}
layer {
  name: "L1_b2_sum_eltwise"
  type: "Eltwise"
  bottom: "L1_b2_brc3_conv_top"
  bottom: "L1_b1_sum_eltwise_top"
  top: "L1_b2_sum_eltwise_top"
  eltwise_param {
    operation: SUM
  }
}
layer {
  name: "L1_b3_brc1_bn"
  type: "BatchNorm"
  bottom: "L1_b2_sum_eltwise_top"
  top: "L1_b3_brc1_bn_top"
  batch_norm_param {
    use_global_stats: false
    moving_average_fraction: 0.95
  }
}
layer {
  name: "L1_b3_brc1_relu"
  type: "ReLU"
  bottom: "L1_b3_brc1_bn_top"
  top: "L1_b3_brc1_bn_top"
}
layer {
  name: "L1_b3_brc1_conv"
  type: "Convolution"
  bottom: "L1_b3_brc1_bn_top"
  top: "L1_b3_brc1_conv_top"
  param {
    lr_mult: 1
    decay_mult: 1
  }
  param {
    lr_mult: 2
    decay_mult: 0
  }
  convolution_param {
    num_output: 16
    pad: 0
    kernel_size: 1
    stride: 1
    weight_filler {
      type: "msra"
    }
    bias_filler {
      type: "constant"
    }
  }
}
layer {
  name: "L1_b3_brc2_bn"
  type: "BatchNorm"
  bottom: "L1_b3_brc1_conv_top"
  top: "L1_b3_brc2_bn_top"
  batch_norm_param {
    use_global_stats: false
    moving_average_fraction: 0.95
  }
}
layer {
  name: "L1_b3_brc2_relu"
  type: "ReLU"
  bottom: "L1_b3_brc2_bn_top"
  top: "L1_b3_brc2_bn_top"
}
layer {
  name: "L1_b3_brc2_conv"
  type: "Convolution"
  bottom: "L1_b3_brc2_bn_top"
  top: "L1_b3_brc2_conv_top"
  param {
    lr_mult: 1
    decay_mult: 1
  }
  param {
    lr_mult: 2
    decay_mult: 0
  }
  convolution_param {
    num_output: 16
    pad: 1
    kernel_size: 3
    stride: 1
    weight_filler {
      type: "msra"
    }
    bias_filler {
      type: "constant"
    }
  }
}
layer {
  name: "L1_b3_brc3_bn"
  type: "BatchNorm"
  bottom: "L1_b3_brc2_conv_top"
  top: "L1_b3_brc3_bn_top"
  batch_norm_param {
    use_global_stats: false
    moving_average_fraction: 0.95
  }
}
layer {
  name: "L1_b3_brc3_relu"
  type: "ReLU"
  bottom: "L1_b3_brc3_bn_top"
  top: "L1_b3_brc3_bn_top"
}
layer {
  name: "L1_b3_brc3_conv"
  type: "Convolution"
  bottom: "L1_b3_brc3_bn_top"
  top: "L1_b3_brc3_conv_top"
  param {
    lr_mult: 1
    decay_mult: 1
  }
  param {
    lr_mult: 2
    decay_mult: 0
  }
  convolution_param {
    num_output: 64
    pad: 0
    kernel_size: 1
    stride: 1
    weight_filler {
      type: "msra"
    }
    bias_filler {
      type: "constant"
    }
  }
}
layer {
  name: "L1_b3_sum_eltwise"
  type: "Eltwise"
  bottom: "L1_b3_brc3_conv_top"
  bottom: "L1_b2_sum_eltwise_top"
  top: "L1_b3_sum_eltwise_top"
  eltwise_param {
    operation: SUM
  }
}
layer {
  name: "L1_b4_brc1_bn"
  type: "BatchNorm"
  bottom: "L1_b3_sum_eltwise_top"
  top: "L1_b4_brc1_bn_top"
  batch_norm_param {
    use_global_stats: false
    moving_average_fraction: 0.95
  }
}
layer {
  name: "L1_b4_brc1_relu"
  type: "ReLU"
  bottom: "L1_b4_brc1_bn_top"
  top: "L1_b4_brc1_bn_top"
}
layer {
  name: "L1_b4_brc1_conv"
  type: "Convolution"
  bottom: "L1_b4_brc1_bn_top"
  top: "L1_b4_brc1_conv_top"
  param {
    lr_mult: 1
    decay_mult: 1
  }
  param {
    lr_mult: 2
    decay_mult: 0
  }
  convolution_param {
    num_output: 16
    pad: 0
    kernel_size: 1
    stride: 1
    weight_filler {
      type: "msra"
    }
    bias_filler {
      type: "constant"
    }
  }
}
layer {
  name: "L1_b4_brc2_bn"
  type: "BatchNorm"
  bottom: "L1_b4_brc1_conv_top"
  top: "L1_b4_brc2_bn_top"
  batch_norm_param {
    use_global_stats: false
    moving_average_fraction: 0.95
  }
}
layer {
  name: "L1_b4_brc2_relu"
  type: "ReLU"
  bottom: "L1_b4_brc2_bn_top"
  top: "L1_b4_brc2_bn_top"
}
layer {
  name: "L1_b4_brc2_conv"
  type: "Convolution"
  bottom: "L1_b4_brc2_bn_top"
  top: "L1_b4_brc2_conv_top"
  param {
    lr_mult: 1
    decay_mult: 1
  }
  param {
    lr_mult: 2
    decay_mult: 0
  }
  convolution_param {
    num_output: 16
    pad: 1
    kernel_size: 3
    stride: 1
    weight_filler {
      type: "msra"
    }
    bias_filler {
      type: "constant"
    }
  }
}
layer {
  name: "L1_b4_brc3_bn"
  type: "BatchNorm"
  bottom: "L1_b4_brc2_conv_top"
  top: "L1_b4_brc3_bn_top"
  batch_norm_param {
    use_global_stats: false
    moving_average_fraction: 0.95
  }
}
layer {
  name: "L1_b4_brc3_relu"
  type: "ReLU"
  bottom: "L1_b4_brc3_bn_top"
  top: "L1_b4_brc3_bn_top"
}
layer {
  name: "L1_b4_brc3_conv"
  type: "Convolution"
  bottom: "L1_b4_brc3_bn_top"
  top: "L1_b4_brc3_conv_top"
  param {
    lr_mult: 1
    decay_mult: 1
  }
  param {
    lr_mult: 2
    decay_mult: 0
  }
  convolution_param {
    num_output: 64
    pad: 0
    kernel_size: 1
    stride: 1
    weight_filler {
      type: "msra"
    }
    bias_filler {
      type: "constant"
    }
  }
}
layer {
  name: "L1_b4_sum_eltwise"
  type: "Eltwise"
  bottom: "L1_b4_brc3_conv_top"
  bottom: "L1_b3_sum_eltwise_top"
  top: "L1_b4_sum_eltwise_top"
  eltwise_param {
    operation: SUM
  }
}
layer {
  name: "L1_b5_brc1_bn"
  type: "BatchNorm"
  bottom: "L1_b4_sum_eltwise_top"
  top: "L1_b5_brc1_bn_top"
  batch_norm_param {
    use_global_stats: false
    moving_average_fraction: 0.95
  }
}
layer {
  name: "L1_b5_brc1_relu"
  type: "ReLU"
  bottom: "L1_b5_brc1_bn_top"
  top: "L1_b5_brc1_bn_top"
}
layer {
  name: "L1_b5_brc1_conv"
  type: "Convolution"
  bottom: "L1_b5_brc1_bn_top"
  top: "L1_b5_brc1_conv_top"
  param {
    lr_mult: 1
    decay_mult: 1
  }
  param {
    lr_mult: 2
    decay_mult: 0
  }
  convolution_param {
    num_output: 16
    pad: 0
    kernel_size: 1
    stride: 1
    weight_filler {
      type: "msra"
    }
    bias_filler {
      type: "constant"
    }
  }
}
layer {
  name: "L1_b5_brc2_bn"
  type: "BatchNorm"
  bottom: "L1_b5_brc1_conv_top"
  top: "L1_b5_brc2_bn_top"
  batch_norm_param {
    use_global_stats: false
    moving_average_fraction: 0.95
  }
}
layer {
  name: "L1_b5_brc2_relu"
  type: "ReLU"
  bottom: "L1_b5_brc2_bn_top"
  top: "L1_b5_brc2_bn_top"
}
layer {
  name: "L1_b5_brc2_conv"
  type: "Convolution"
  bottom: "L1_b5_brc2_bn_top"
  top: "L1_b5_brc2_conv_top"
  param {
    lr_mult: 1
    decay_mult: 1
  }
  param {
    lr_mult: 2
    decay_mult: 0
  }
  convolution_param {
    num_output: 16
    pad: 1
    kernel_size: 3
    stride: 1
    weight_filler {
      type: "msra"
    }
    bias_filler {
      type: "constant"
    }
  }
}
layer {
  name: "L1_b5_brc3_bn"
  type: "BatchNorm"
  bottom: "L1_b5_brc2_conv_top"
  top: "L1_b5_brc3_bn_top"
  batch_norm_param {
    use_global_stats: false
    moving_average_fraction: 0.95
  }
}
layer {
  name: "L1_b5_brc3_relu"
  type: "ReLU"
  bottom: "L1_b5_brc3_bn_top"
  top: "L1_b5_brc3_bn_top"
}
layer {
  name: "L1_b5_brc3_conv"
  type: "Convolution"
  bottom: "L1_b5_brc3_bn_top"
  top: "L1_b5_brc3_conv_top"
  param {
    lr_mult: 1
    decay_mult: 1
  }
  param {
    lr_mult: 2
    decay_mult: 0
  }
  convolution_param {
    num_output: 64
    pad: 0
    kernel_size: 1
    stride: 1
    weight_filler {
      type: "msra"
    }
    bias_filler {
      type: "constant"
    }
  }
}
layer {
  name: "L1_b5_sum_eltwise"
  type: "Eltwise"
  bottom: "L1_b5_brc3_conv_top"
  bottom: "L1_b4_sum_eltwise_top"
  top: "L1_b5_sum_eltwise_top"
  eltwise_param {
    operation: SUM
  }
}
layer {
  name: "L1_b6_brc1_bn"
  type: "BatchNorm"
  bottom: "L1_b5_sum_eltwise_top"
  top: "L1_b6_brc1_bn_top"
  batch_norm_param {
    use_global_stats: false
    moving_average_fraction: 0.95
  }
}
layer {
  name: "L1_b6_brc1_relu"
  type: "ReLU"
  bottom: "L1_b6_brc1_bn_top"
  top: "L1_b6_brc1_bn_top"
}
layer {
  name: "L1_b6_brc1_conv"
  type: "Convolution"
  bottom: "L1_b6_brc1_bn_top"
  top: "L1_b6_brc1_conv_top"
  param {
    lr_mult: 1
    decay_mult: 1
  }
  param {
    lr_mult: 2
    decay_mult: 0
  }
  convolution_param {
    num_output: 16
    pad: 0
    kernel_size: 1
    stride: 1
    weight_filler {
      type: "msra"
    }
    bias_filler {
      type: "constant"
    }
  }
}
layer {
  name: "L1_b6_brc2_bn"
  type: "BatchNorm"
  bottom: "L1_b6_brc1_conv_top"
  top: "L1_b6_brc2_bn_top"
  batch_norm_param {
    use_global_stats: false
    moving_average_fraction: 0.95
  }
}
layer {
  name: "L1_b6_brc2_relu"
  type: "ReLU"
  bottom: "L1_b6_brc2_bn_top"
  top: "L1_b6_brc2_bn_top"
}
layer {
  name: "L1_b6_brc2_conv"
  type: "Convolution"
  bottom: "L1_b6_brc2_bn_top"
  top: "L1_b6_brc2_conv_top"
  param {
    lr_mult: 1
    decay_mult: 1
  }
  param {
    lr_mult: 2
    decay_mult: 0
  }
  convolution_param {
    num_output: 16
    pad: 1
    kernel_size: 3
    stride: 1
    weight_filler {
      type: "msra"
    }
    bias_filler {
      type: "constant"
    }
  }
}
layer {
  name: "L1_b6_brc3_bn"
  type: "BatchNorm"
  bottom: "L1_b6_brc2_conv_top"
  top: "L1_b6_brc3_bn_top"
  batch_norm_param {
    use_global_stats: false
    moving_average_fraction: 0.95
  }
}
layer {
  name: "L1_b6_brc3_relu"
  type: "ReLU"
  bottom: "L1_b6_brc3_bn_top"
  top: "L1_b6_brc3_bn_top"
}
layer {
  name: "L1_b6_brc3_conv"
  type: "Convolution"
  bottom: "L1_b6_brc3_bn_top"
  top: "L1_b6_brc3_conv_top"
  param {
    lr_mult: 1
    decay_mult: 1
  }
  param {
    lr_mult: 2
    decay_mult: 0
  }
  convolution_param {
    num_output: 64
    pad: 0
    kernel_size: 1
    stride: 1
    weight_filler {
      type: "msra"
    }
    bias_filler {
      type: "constant"
    }
  }
}
layer {
  name: "L1_b6_sum_eltwise"
  type: "Eltwise"
  bottom: "L1_b6_brc3_conv_top"
  bottom: "L1_b5_sum_eltwise_top"
  top: "L1_b6_sum_eltwise_top"
  eltwise_param {
    operation: SUM
  }
}
layer {
  name: "L2_b1_brc1_bn"
  type: "BatchNorm"
  bottom: "L1_b6_sum_eltwise_top"
  top: "L2_b1_brc1_bn_top"
  batch_norm_param {
    use_global_stats: false
    moving_average_fraction: 0.95
  }
}
layer {
  name: "L2_b1_brc1_relu"
  type: "ReLU"
  bottom: "L2_b1_brc1_bn_top"
  top: "L2_b1_brc1_bn_top"
}
layer {
  name: "L2_b1_brc1_conv"
  type: "Convolution"
  bottom: "L2_b1_brc1_bn_top"
  top: "L2_b1_brc1_conv_top"
  param {
    lr_mult: 1
    decay_mult: 1
  }
  param {
    lr_mult: 2
    decay_mult: 0
  }
  convolution_param {
    num_output: 32
    pad: 0
    kernel_size: 1
    stride: 2
    weight_filler {
      type: "msra"
    }
    bias_filler {
      type: "constant"
    }
  }
}
layer {
  name: "L2_b1_brc2_bn"
  type: "BatchNorm"
  bottom: "L2_b1_brc1_conv_top"
  top: "L2_b1_brc2_bn_top"
  batch_norm_param {
    use_global_stats: false
    moving_average_fraction: 0.95
  }
}
layer {
  name: "L2_b1_brc2_relu"
  type: "ReLU"
  bottom: "L2_b1_brc2_bn_top"
  top: "L2_b1_brc2_bn_top"
}
layer {
  name: "L2_b1_brc2_conv"
  type: "Convolution"
  bottom: "L2_b1_brc2_bn_top"
  top: "L2_b1_brc2_conv_top"
  param {
    lr_mult: 1
    decay_mult: 1
  }
  param {
    lr_mult: 2
    decay_mult: 0
  }
  convolution_param {
    num_output: 32
    pad: 1
    kernel_size: 3
    stride: 1
    weight_filler {
      type: "msra"
    }
    bias_filler {
      type: "constant"
    }
  }
}
layer {
  name: "L2_b1_brc3_bn"
  type: "BatchNorm"
  bottom: "L2_b1_brc2_conv_top"
  top: "L2_b1_brc3_bn_top"
  batch_norm_param {
    use_global_stats: false
    moving_average_fraction: 0.95
  }
}
layer {
  name: "L2_b1_brc3_relu"
  type: "ReLU"
  bottom: "L2_b1_brc3_bn_top"
  top: "L2_b1_brc3_bn_top"
}
layer {
  name: "L2_b1_brc3_conv"
  type: "Convolution"
  bottom: "L2_b1_brc3_bn_top"
  top: "L2_b1_brc3_conv_top"
  param {
    lr_mult: 1
    decay_mult: 1
  }
  param {
    lr_mult: 2
    decay_mult: 0
  }
  convolution_param {
    num_output: 128
    pad: 0
    kernel_size: 1
    stride: 1
    weight_filler {
      type: "msra"
    }
    bias_filler {
      type: "constant"
    }
  }
}
layer {
  name: "L2_b1_chanInc_conv"
  type: "Convolution"
  bottom: "L1_b6_sum_eltwise_top"
  top: "L2_b1_chanInc_conv_top"
  param {
    lr_mult: 1
    decay_mult: 1
  }
  param {
    lr_mult: 2
    decay_mult: 0
  }
  convolution_param {
    num_output: 128
    pad: 0
    kernel_size: 1
    stride: 2
    weight_filler {
      type: "msra"
    }
    bias_filler {
      type: "constant"
    }
  }
}
layer {
  name: "L2_b1_sum_eltwise"
  type: "Eltwise"
  bottom: "L2_b1_brc3_conv_top"
  bottom: "L2_b1_chanInc_conv_top"
  top: "L2_b1_sum_eltwise_top"
  eltwise_param {
    operation: SUM
  }
}
layer {
  name: "L2_b2_brc1_bn"
  type: "BatchNorm"
  bottom: "L2_b1_sum_eltwise_top"
  top: "L2_b2_brc1_bn_top"
  batch_norm_param {
    use_global_stats: false
    moving_average_fraction: 0.95
  }
}
layer {
  name: "L2_b2_brc1_relu"
  type: "ReLU"
  bottom: "L2_b2_brc1_bn_top"
  top: "L2_b2_brc1_bn_top"
}
layer {
  name: "L2_b2_brc1_conv"
  type: "Convolution"
  bottom: "L2_b2_brc1_bn_top"
  top: "L2_b2_brc1_conv_top"
  param {
    lr_mult: 1
    decay_mult: 1
  }
  param {
    lr_mult: 2
    decay_mult: 0
  }
  convolution_param {
    num_output: 32
    pad: 0
    kernel_size: 1
    stride: 1
    weight_filler {
      type: "msra"
    }
    bias_filler {
      type: "constant"
    }
  }
}
layer {
  name: "L2_b2_brc2_bn"
  type: "BatchNorm"
  bottom: "L2_b2_brc1_conv_top"
  top: "L2_b2_brc2_bn_top"
  batch_norm_param {
    use_global_stats: false
    moving_average_fraction: 0.95
  }
}
layer {
  name: "L2_b2_brc2_relu"
  type: "ReLU"
  bottom: "L2_b2_brc2_bn_top"
  top: "L2_b2_brc2_bn_top"
}
layer {
  name: "L2_b2_brc2_conv"
  type: "Convolution"
  bottom: "L2_b2_brc2_bn_top"
  top: "L2_b2_brc2_conv_top"
  param {
    lr_mult: 1
    decay_mult: 1
  }
  param {
    lr_mult: 2
    decay_mult: 0
  }
  convolution_param {
    num_output: 32
    pad: 1
    kernel_size: 3
    stride: 1
    weight_filler {
      type: "msra"
    }
    bias_filler {
      type: "constant"
    }
  }
}
layer {
  name: "L2_b2_brc3_bn"
  type: "BatchNorm"
  bottom: "L2_b2_brc2_conv_top"
  top: "L2_b2_brc3_bn_top"
  batch_norm_param {
    use_global_stats: false
    moving_average_fraction: 0.95
  }
}
layer {
  name: "L2_b2_brc3_relu"
  type: "ReLU"
  bottom: "L2_b2_brc3_bn_top"
  top: "L2_b2_brc3_bn_top"
}
layer {
  name: "L2_b2_brc3_conv"
  type: "Convolution"
  bottom: "L2_b2_brc3_bn_top"
  top: "L2_b2_brc3_conv_top"
  param {
    lr_mult: 1
    decay_mult: 1
  }
  param {
    lr_mult: 2
    decay_mult: 0
  }
  convolution_param {
    num_output: 128
    pad: 0
    kernel_size: 1
    stride: 1
    weight_filler {
      type: "msra"
    }
    bias_filler {
      type: "constant"
    }
  }
}
layer {
  name: "L2_b2_sum_eltwise"
  type: "Eltwise"
  bottom: "L2_b2_brc3_conv_top"
  bottom: "L2_b1_sum_eltwise_top"
  top: "L2_b2_sum_eltwise_top"
  eltwise_param {
    operation: SUM
  }
}
layer {
  name: "L2_b3_brc1_bn"
  type: "BatchNorm"
  bottom: "L2_b2_sum_eltwise_top"
  top: "L2_b3_brc1_bn_top"
  batch_norm_param {
    use_global_stats: false
    moving_average_fraction: 0.95
  }
}
layer {
  name: "L2_b3_brc1_relu"
  type: "ReLU"
  bottom: "L2_b3_brc1_bn_top"
  top: "L2_b3_brc1_bn_top"
}
layer {
  name: "L2_b3_brc1_conv"
  type: "Convolution"
  bottom: "L2_b3_brc1_bn_top"
  top: "L2_b3_brc1_conv_top"
  param {
    lr_mult: 1
    decay_mult: 1
  }
  param {
    lr_mult: 2
    decay_mult: 0
  }
  convolution_param {
    num_output: 32
    pad: 0
    kernel_size: 1
    stride: 1
    weight_filler {
      type: "msra"
    }
    bias_filler {
      type: "constant"
    }
  }
}
layer {
  name: "L2_b3_brc2_bn"
  type: "BatchNorm"
  bottom: "L2_b3_brc1_conv_top"
  top: "L2_b3_brc2_bn_top"
  batch_norm_param {
    use_global_stats: false
    moving_average_fraction: 0.95
  }
}
layer {
  name: "L2_b3_brc2_relu"
  type: "ReLU"
  bottom: "L2_b3_brc2_bn_top"
  top: "L2_b3_brc2_bn_top"
}
layer {
  name: "L2_b3_brc2_conv"
  type: "Convolution"
  bottom: "L2_b3_brc2_bn_top"
  top: "L2_b3_brc2_conv_top"
  param {
    lr_mult: 1
    decay_mult: 1
  }
  param {
    lr_mult: 2
    decay_mult: 0
  }
  convolution_param {
    num_output: 32
    pad: 1
    kernel_size: 3
    stride: 1
    weight_filler {
      type: "msra"
    }
    bias_filler {
      type: "constant"
    }
  }
}
layer {
  name: "L2_b3_brc3_bn"
  type: "BatchNorm"
  bottom: "L2_b3_brc2_conv_top"
  top: "L2_b3_brc3_bn_top"
  batch_norm_param {
    use_global_stats: false
    moving_average_fraction: 0.95
  }
}
layer {
  name: "L2_b3_brc3_relu"
  type: "ReLU"
  bottom: "L2_b3_brc3_bn_top"
  top: "L2_b3_brc3_bn_top"
}
layer {
  name: "L2_b3_brc3_conv"
  type: "Convolution"
  bottom: "L2_b3_brc3_bn_top"
  top: "L2_b3_brc3_conv_top"
  param {
    lr_mult: 1
    decay_mult: 1
  }
  param {
    lr_mult: 2
    decay_mult: 0
  }
  convolution_param {
    num_output: 128
    pad: 0
    kernel_size: 1
    stride: 1
    weight_filler {
      type: "msra"
    }
    bias_filler {
      type: "constant"
    }
  }
}
layer {
  name: "L2_b3_sum_eltwise"
  type: "Eltwise"
  bottom: "L2_b3_brc3_conv_top"
  bottom: "L2_b2_sum_eltwise_top"
  top: "L2_b3_sum_eltwise_top"
  eltwise_param {
    operation: SUM
  }
}
layer {
  name: "L2_b4_brc1_bn"
  type: "BatchNorm"
  bottom: "L2_b3_sum_eltwise_top"
  top: "L2_b4_brc1_bn_top"
  batch_norm_param {
    use_global_stats: false
    moving_average_fraction: 0.95
  }
}
layer {
  name: "L2_b4_brc1_relu"
  type: "ReLU"
  bottom: "L2_b4_brc1_bn_top"
  top: "L2_b4_brc1_bn_top"
}
layer {
  name: "L2_b4_brc1_conv"
  type: "Convolution"
  bottom: "L2_b4_brc1_bn_top"
  top: "L2_b4_brc1_conv_top"
  param {
    lr_mult: 1
    decay_mult: 1
  }
  param {
    lr_mult: 2
    decay_mult: 0
  }
  convolution_param {
    num_output: 32
    pad: 0
    kernel_size: 1
    stride: 1
    weight_filler {
      type: "msra"
    }
    bias_filler {
      type: "constant"
    }
  }
}
layer {
  name: "L2_b4_brc2_bn"
  type: "BatchNorm"
  bottom: "L2_b4_brc1_conv_top"
  top: "L2_b4_brc2_bn_top"
  batch_norm_param {
    use_global_stats: false
    moving_average_fraction: 0.95
  }
}
layer {
  name: "L2_b4_brc2_relu"
  type: "ReLU"
  bottom: "L2_b4_brc2_bn_top"
  top: "L2_b4_brc2_bn_top"
}
layer {
  name: "L2_b4_brc2_conv"
  type: "Convolution"
  bottom: "L2_b4_brc2_bn_top"
  top: "L2_b4_brc2_conv_top"
  param {
    lr_mult: 1
    decay_mult: 1
  }
  param {
    lr_mult: 2
    decay_mult: 0
  }
  convolution_param {
    num_output: 32
    pad: 1
    kernel_size: 3
    stride: 1
    weight_filler {
      type: "msra"
    }
    bias_filler {
      type: "constant"
    }
  }
}
layer {
  name: "L2_b4_brc3_bn"
  type: "BatchNorm"
  bottom: "L2_b4_brc2_conv_top"
  top: "L2_b4_brc3_bn_top"
  batch_norm_param {
    use_global_stats: false
    moving_average_fraction: 0.95
  }
}
layer {
  name: "L2_b4_brc3_relu"
  type: "ReLU"
  bottom: "L2_b4_brc3_bn_top"
  top: "L2_b4_brc3_bn_top"
}
layer {
  name: "L2_b4_brc3_conv"
  type: "Convolution"
  bottom: "L2_b4_brc3_bn_top"
  top: "L2_b4_brc3_conv_top"
  param {
    lr_mult: 1
    decay_mult: 1
  }
  param {
    lr_mult: 2
    decay_mult: 0
  }
  convolution_param {
    num_output: 128
    pad: 0
    kernel_size: 1
    stride: 1
    weight_filler {
      type: "msra"
    }
    bias_filler {
      type: "constant"
    }
  }
}
layer {
  name: "L2_b4_sum_eltwise"
  type: "Eltwise"
  bottom: "L2_b4_brc3_conv_top"
  bottom: "L2_b3_sum_eltwise_top"
  top: "L2_b4_sum_eltwise_top"
  eltwise_param {
    operation: SUM
  }
}
layer {
  name: "L2_b5_brc1_bn"
  type: "BatchNorm"
  bottom: "L2_b4_sum_eltwise_top"
  top: "L2_b5_brc1_bn_top"
  batch_norm_param {
    use_global_stats: false
    moving_average_fraction: 0.95
  }
}
layer {
  name: "L2_b5_brc1_relu"
  type: "ReLU"
  bottom: "L2_b5_brc1_bn_top"
  top: "L2_b5_brc1_bn_top"
}
layer {
  name: "L2_b5_brc1_conv"
  type: "Convolution"
  bottom: "L2_b5_brc1_bn_top"
  top: "L2_b5_brc1_conv_top"
  param {
    lr_mult: 1
    decay_mult: 1
  }
  param {
    lr_mult: 2
    decay_mult: 0
  }
  convolution_param {
    num_output: 32
    pad: 0
    kernel_size: 1
    stride: 1
    weight_filler {
      type: "msra"
    }
    bias_filler {
      type: "constant"
    }
  }
}
layer {
  name: "L2_b5_brc2_bn"
  type: "BatchNorm"
  bottom: "L2_b5_brc1_conv_top"
  top: "L2_b5_brc2_bn_top"
  batch_norm_param {
    use_global_stats: false
    moving_average_fraction: 0.95
  }
}
layer {
  name: "L2_b5_brc2_relu"
  type: "ReLU"
  bottom: "L2_b5_brc2_bn_top"
  top: "L2_b5_brc2_bn_top"
}
layer {
  name: "L2_b5_brc2_conv"
  type: "Convolution"
  bottom: "L2_b5_brc2_bn_top"
  top: "L2_b5_brc2_conv_top"
  param {
    lr_mult: 1
    decay_mult: 1
  }
  param {
    lr_mult: 2
    decay_mult: 0
  }
  convolution_param {
    num_output: 32
    pad: 1
    kernel_size: 3
    stride: 1
    weight_filler {
      type: "msra"
    }
    bias_filler {
      type: "constant"
    }
  }
}
layer {
  name: "L2_b5_brc3_bn"
  type: "BatchNorm"
  bottom: "L2_b5_brc2_conv_top"
  top: "L2_b5_brc3_bn_top"
  batch_norm_param {
    use_global_stats: false
    moving_average_fraction: 0.95
  }
}
layer {
  name: "L2_b5_brc3_relu"
  type: "ReLU"
  bottom: "L2_b5_brc3_bn_top"
  top: "L2_b5_brc3_bn_top"
}
layer {
  name: "L2_b5_brc3_conv"
  type: "Convolution"
  bottom: "L2_b5_brc3_bn_top"
  top: "L2_b5_brc3_conv_top"
  param {
    lr_mult: 1
    decay_mult: 1
  }
  param {
    lr_mult: 2
    decay_mult: 0
  }
  convolution_param {
    num_output: 128
    pad: 0
    kernel_size: 1
    stride: 1
    weight_filler {
      type: "msra"
    }
    bias_filler {
      type: "constant"
    }
  }
}
layer {
  name: "L2_b5_sum_eltwise"
  type: "Eltwise"
  bottom: "L2_b5_brc3_conv_top"
  bottom: "L2_b4_sum_eltwise_top"
  top: "L2_b5_sum_eltwise_top"
  eltwise_param {
    operation: SUM
  }
}
layer {
  name: "L2_b6_brc1_bn"
  type: "BatchNorm"
  bottom: "L2_b5_sum_eltwise_top"
  top: "L2_b6_brc1_bn_top"
  batch_norm_param {
    use_global_stats: false
    moving_average_fraction: 0.95
  }
}
layer {
  name: "L2_b6_brc1_relu"
  type: "ReLU"
  bottom: "L2_b6_brc1_bn_top"
  top: "L2_b6_brc1_bn_top"
}
layer {
  name: "L2_b6_brc1_conv"
  type: "Convolution"
  bottom: "L2_b6_brc1_bn_top"
  top: "L2_b6_brc1_conv_top"
  param {
    lr_mult: 1
    decay_mult: 1
  }
  param {
    lr_mult: 2
    decay_mult: 0
  }
  convolution_param {
    num_output: 32
    pad: 0
    kernel_size: 1
    stride: 1
    weight_filler {
      type: "msra"
    }
    bias_filler {
      type: "constant"
    }
  }
}
layer {
  name: "L2_b6_brc2_bn"
  type: "BatchNorm"
  bottom: "L2_b6_brc1_conv_top"
  top: "L2_b6_brc2_bn_top"
  batch_norm_param {
    use_global_stats: false
    moving_average_fraction: 0.95
  }
}
layer {
  name: "L2_b6_brc2_relu"
  type: "ReLU"
  bottom: "L2_b6_brc2_bn_top"
  top: "L2_b6_brc2_bn_top"
}
layer {
  name: "L2_b6_brc2_conv"
  type: "Convolution"
  bottom: "L2_b6_brc2_bn_top"
  top: "L2_b6_brc2_conv_top"
  param {
    lr_mult: 1
    decay_mult: 1
  }
  param {
    lr_mult: 2
    decay_mult: 0
  }
  convolution_param {
    num_output: 32
    pad: 1
    kernel_size: 3
    stride: 1
    weight_filler {
      type: "msra"
    }
    bias_filler {
      type: "constant"
    }
  }
}
layer {
  name: "L2_b6_brc3_bn"
  type: "BatchNorm"
  bottom: "L2_b6_brc2_conv_top"
  top: "L2_b6_brc3_bn_top"
  batch_norm_param {
    use_global_stats: false
    moving_average_fraction: 0.95
  }
}
layer {
  name: "L2_b6_brc3_relu"
  type: "ReLU"
  bottom: "L2_b6_brc3_bn_top"
  top: "L2_b6_brc3_bn_top"
}
layer {
  name: "L2_b6_brc3_conv"
  type: "Convolution"
  bottom: "L2_b6_brc3_bn_top"
  top: "L2_b6_brc3_conv_top"
  param {
    lr_mult: 1
    decay_mult: 1
  }
  param {
    lr_mult: 2
    decay_mult: 0
  }
  convolution_param {
    num_output: 128
    pad: 0
    kernel_size: 1
    stride: 1
    weight_filler {
      type: "msra"
    }
    bias_filler {
      type: "constant"
    }
  }
}
layer {
  name: "L2_b6_sum_eltwise"
  type: "Eltwise"
  bottom: "L2_b6_brc3_conv_top"
  bottom: "L2_b5_sum_eltwise_top"
  top: "L2_b6_sum_eltwise_top"
  eltwise_param {
    operation: SUM
  }
}
layer {
  name: "L3_b1_brc1_bn"
  type: "BatchNorm"
  bottom: "L2_b6_sum_eltwise_top"
  top: "L3_b1_brc1_bn_top"
  batch_norm_param {
    use_global_stats: false
    moving_average_fraction: 0.95
  }
}
layer {
  name: "L3_b1_brc1_relu"
  type: "ReLU"
  bottom: "L3_b1_brc1_bn_top"
  top: "L3_b1_brc1_bn_top"
}
layer {
  name: "L3_b1_brc1_conv"
  type: "Convolution"
  bottom: "L3_b1_brc1_bn_top"
  top: "L3_b1_brc1_conv_top"
  param {
    lr_mult: 1
    decay_mult: 1
  }
  param {
    lr_mult: 2
    decay_mult: 0
  }
  convolution_param {
    num_output: 64
    pad: 0
    kernel_size: 1
    stride: 2
    weight_filler {
      type: "msra"
    }
    bias_filler {
      type: "constant"
    }
  }
}
layer {
  name: "L3_b1_brc2_bn"
  type: "BatchNorm"
  bottom: "L3
I1206 09:09:45.600075 22755 layer_factory.hpp:77] Creating layer dataLayer
I1206 09:09:45.602274 22755 net.cpp:100] Creating Layer dataLayer
I1206 09:09:45.602360 22755 net.cpp:408] dataLayer -> data_top
I1206 09:09:45.602586 22755 net.cpp:408] dataLayer -> label
I1206 09:09:45.602720 22755 data_transformer.cpp:25] Loading mean file from: examples/cifar10/mean.binaryproto
I1206 09:09:45.612563 22760 db_lmdb.cpp:35] Opened lmdb examples/cifar10/cifar10_train_lmdb
I1206 09:09:45.667789 22755 data_layer.cpp:41] output data size: 100,3,32,32
I1206 09:09:45.674774 22755 net.cpp:150] Setting up dataLayer
I1206 09:09:45.674863 22755 net.cpp:157] Top shape: 100 3 32 32 (307200)
I1206 09:09:45.674885 22755 net.cpp:157] Top shape: 100 (100)
I1206 09:09:45.674896 22755 net.cpp:165] Memory required for data: 1229200
I1206 09:09:45.674922 22755 layer_factory.hpp:77] Creating layer label_dataLayer_1_split
I1206 09:09:45.674948 22755 net.cpp:100] Creating Layer label_dataLayer_1_split
I1206 09:09:45.674963 22755 net.cpp:434] label_dataLayer_1_split <- label
I1206 09:09:45.675001 22755 net.cpp:408] label_dataLayer_1_split -> label_dataLayer_1_split_0
I1206 09:09:45.675030 22755 net.cpp:408] label_dataLayer_1_split -> label_dataLayer_1_split_1
I1206 09:09:45.675151 22755 net.cpp:150] Setting up label_dataLayer_1_split
I1206 09:09:45.675177 22755 net.cpp:157] Top shape: 100 (100)
I1206 09:09:45.675192 22755 net.cpp:157] Top shape: 100 (100)
I1206 09:09:45.675202 22755 net.cpp:165] Memory required for data: 1230000
I1206 09:09:45.675213 22755 layer_factory.hpp:77] Creating layer pre_conv
I1206 09:09:45.675308 22755 net.cpp:100] Creating Layer pre_conv
I1206 09:09:45.675324 22755 net.cpp:434] pre_conv <- data_top
I1206 09:09:45.675343 22755 net.cpp:408] pre_conv -> pre_conv_top
I1206 09:09:45.677299 22755 net.cpp:150] Setting up pre_conv
I1206 09:09:45.677322 22755 net.cpp:157] Top shape: 100 16 32 32 (1638400)
I1206 09:09:45.677336 22755 net.cpp:165] Memory required for data: 7783600
I1206 09:09:45.677426 22755 layer_factory.hpp:77] Creating layer pre_conv_top_pre_conv_0_split
I1206 09:09:45.677448 22755 net.cpp:100] Creating Layer pre_conv_top_pre_conv_0_split
I1206 09:09:45.677459 22755 net.cpp:434] pre_conv_top_pre_conv_0_split <- pre_conv_top
I1206 09:09:45.677481 22755 net.cpp:408] pre_conv_top_pre_conv_0_split -> pre_conv_top_pre_conv_0_split_0
I1206 09:09:45.677501 22755 net.cpp:408] pre_conv_top_pre_conv_0_split -> pre_conv_top_pre_conv_0_split_1
I1206 09:09:45.677752 22755 net.cpp:150] Setting up pre_conv_top_pre_conv_0_split
I1206 09:09:45.677772 22755 net.cpp:157] Top shape: 100 16 32 32 (1638400)
I1206 09:09:45.677784 22755 net.cpp:157] Top shape: 100 16 32 32 (1638400)
I1206 09:09:45.677793 22755 net.cpp:165] Memory required for data: 20890800
I1206 09:09:45.677812 22755 layer_factory.hpp:77] Creating layer L1_b1_brc1_bn
I1206 09:09:45.677856 22761 blocking_queue.cpp:50] Waiting for data
I1206 09:09:45.677932 22755 net.cpp:100] Creating Layer L1_b1_brc1_bn
I1206 09:09:45.677949 22755 net.cpp:434] L1_b1_brc1_bn <- pre_conv_top_pre_conv_0_split_0
I1206 09:09:45.677964 22755 net.cpp:408] L1_b1_brc1_bn -> L1_b1_brc1_bn_top
I1206 09:09:45.678515 22755 net.cpp:150] Setting up L1_b1_brc1_bn
I1206 09:09:45.678536 22755 net.cpp:157] Top shape: 100 16 32 32 (1638400)
I1206 09:09:45.678546 22755 net.cpp:165] Memory required for data: 27444400
I1206 09:09:45.678576 22755 layer_factory.hpp:77] Creating layer L1_b1_brc1_relu
I1206 09:09:45.678654 22755 net.cpp:100] Creating Layer L1_b1_brc1_relu
I1206 09:09:45.678669 22755 net.cpp:434] L1_b1_brc1_relu <- L1_b1_brc1_bn_top
I1206 09:09:45.678684 22755 net.cpp:395] L1_b1_brc1_relu -> L1_b1_brc1_bn_top (in-place)
I1206 09:09:45.678704 22755 net.cpp:150] Setting up L1_b1_brc1_relu
I1206 09:09:45.678719 22755 net.cpp:157] Top shape: 100 16 32 32 (1638400)
I1206 09:09:45.678728 22755 net.cpp:165] Memory required for data: 33998000
I1206 09:09:45.678742 22755 layer_factory.hpp:77] Creating layer L1_b1_brc1_conv
I1206 09:09:45.678772 22755 net.cpp:100] Creating Layer L1_b1_brc1_conv
I1206 09:09:45.678786 22755 net.cpp:434] L1_b1_brc1_conv <- L1_b1_brc1_bn_top
I1206 09:09:45.678818 22755 net.cpp:408] L1_b1_brc1_conv -> L1_b1_brc1_conv_top
I1206 09:09:45.679141 22755 net.cpp:150] Setting up L1_b1_brc1_conv
I1206 09:09:45.679162 22755 net.cpp:157] Top shape: 100 16 32 32 (1638400)
I1206 09:09:45.679170 22755 net.cpp:165] Memory required for data: 40551600
I1206 09:09:45.679188 22755 layer_factory.hpp:77] Creating layer L1_b1_brc2_bn
I1206 09:09:45.679206 22755 net.cpp:100] Creating Layer L1_b1_brc2_bn
I1206 09:09:45.679217 22755 net.cpp:434] L1_b1_brc2_bn <- L1_b1_brc1_conv_top
I1206 09:09:45.679234 22755 net.cpp:408] L1_b1_brc2_bn -> L1_b1_brc2_bn_top
I1206 09:09:45.679508 22755 net.cpp:150] Setting up L1_b1_brc2_bn
I1206 09:09:45.679527 22755 net.cpp:157] Top shape: 100 16 32 32 (1638400)
I1206 09:09:45.679536 22755 net.cpp:165] Memory required for data: 47105200
I1206 09:09:45.679564 22755 layer_factory.hpp:77] Creating layer L1_b1_brc2_relu
I1206 09:09:45.679592 22755 net.cpp:100] Creating Layer L1_b1_brc2_relu
I1206 09:09:45.679606 22755 net.cpp:434] L1_b1_brc2_relu <- L1_b1_brc2_bn_top
I1206 09:09:45.679628 22755 net.cpp:395] L1_b1_brc2_relu -> L1_b1_brc2_bn_top (in-place)
I1206 09:09:45.679647 22755 net.cpp:150] Setting up L1_b1_brc2_relu
I1206 09:09:45.679673 22755 net.cpp:157] Top shape: 100 16 32 32 (1638400)
I1206 09:09:45.679683 22755 net.cpp:165] Memory required for data: 53658800
I1206 09:09:45.679694 22755 layer_factory.hpp:77] Creating layer L1_b1_brc2_conv
I1206 09:09:45.679718 22755 net.cpp:100] Creating Layer L1_b1_brc2_conv
I1206 09:09:45.679730 22755 net.cpp:434] L1_b1_brc2_conv <- L1_b1_brc2_bn_top
I1206 09:09:45.679752 22755 net.cpp:408] L1_b1_brc2_conv -> L1_b1_brc2_conv_top
I1206 09:09:45.680156 22755 net.cpp:150] Setting up L1_b1_brc2_conv
I1206 09:09:45.680177 22755 net.cpp:157] Top shape: 100 16 32 32 (1638400)
I1206 09:09:45.680187 22755 net.cpp:165] Memory required for data: 60212400
I1206 09:09:45.680205 22755 layer_factory.hpp:77] Creating layer L1_b1_brc3_bn
I1206 09:09:45.680223 22755 net.cpp:100] Creating Layer L1_b1_brc3_bn
I1206 09:09:45.680234 22755 net.cpp:434] L1_b1_brc3_bn <- L1_b1_brc2_conv_top
I1206 09:09:45.680256 22755 net.cpp:408] L1_b1_brc3_bn -> L1_b1_brc3_bn_top
I1206 09:09:45.680539 22755 net.cpp:150] Setting up L1_b1_brc3_bn
I1206 09:09:45.680558 22755 net.cpp:157] Top shape: 100 16 32 32 (1638400)
I1206 09:09:45.680567 22755 net.cpp:165] Memory required for data: 66766000
I1206 09:09:45.680589 22755 layer_factory.hpp:77] Creating layer L1_b1_brc3_relu
I1206 09:09:45.680613 22755 net.cpp:100] Creating Layer L1_b1_brc3_relu
I1206 09:09:45.680625 22755 net.cpp:434] L1_b1_brc3_relu <- L1_b1_brc3_bn_top
I1206 09:09:45.680640 22755 net.cpp:395] L1_b1_brc3_relu -> L1_b1_brc3_bn_top (in-place)
I1206 09:09:45.680658 22755 net.cpp:150] Setting up L1_b1_brc3_relu
I1206 09:09:45.680672 22755 net.cpp:157] Top shape: 100 16 32 32 (1638400)
I1206 09:09:45.680682 22755 net.cpp:165] Memory required for data: 73319600
I1206 09:09:45.680691 22755 layer_factory.hpp:77] Creating layer L1_b1_brc3_conv
I1206 09:09:45.680714 22755 net.cpp:100] Creating Layer L1_b1_brc3_conv
I1206 09:09:45.680725 22755 net.cpp:434] L1_b1_brc3_conv <- L1_b1_brc3_bn_top
I1206 09:09:45.680748 22755 net.cpp:408] L1_b1_brc3_conv -> L1_b1_brc3_conv_top
I1206 09:09:45.681102 22755 net.cpp:150] Setting up L1_b1_brc3_conv
I1206 09:09:45.681120 22755 net.cpp:157] Top shape: 100 64 32 32 (6553600)
I1206 09:09:45.681129 22755 net.cpp:165] Memory required for data: 99534000
I1206 09:09:45.681154 22755 layer_factory.hpp:77] Creating layer L1_b1_chanInc_conv
I1206 09:09:45.681185 22755 net.cpp:100] Creating Layer L1_b1_chanInc_conv
I1206 09:09:45.681197 22755 net.cpp:434] L1_b1_chanInc_conv <- pre_conv_top_pre_conv_0_split_1
I1206 09:09:45.681221 22755 net.cpp:408] L1_b1_chanInc_conv -> L1_b1_chanInc_conv_top
I1206 09:09:45.681560 22755 net.cpp:150] Setting up L1_b1_chanInc_conv
I1206 09:09:45.681578 22755 net.cpp:157] Top shape: 100 64 32 32 (6553600)
I1206 09:09:45.681587 22755 net.cpp:165] Memory required for data: 125748400
I1206 09:09:45.681604 22755 layer_factory.hpp:77] Creating layer L1_b1_sum_eltwise
I1206 09:09:45.681681 22755 net.cpp:100] Creating Layer L1_b1_sum_eltwise
I1206 09:09:45.681696 22755 net.cpp:434] L1_b1_sum_eltwise <- L1_b1_brc3_conv_top
I1206 09:09:45.681710 22755 net.cpp:434] L1_b1_sum_eltwise <- L1_b1_chanInc_conv_top
I1206 09:09:45.681732 22755 net.cpp:408] L1_b1_sum_eltwise -> L1_b1_sum_eltwise_top
I1206 09:09:45.681843 22755 net.cpp:150] Setting up L1_b1_sum_eltwise
I1206 09:09:45.681862 22755 net.cpp:157] Top shape: 100 64 32 32 (6553600)
I1206 09:09:45.681872 22755 net.cpp:165] Memory required for data: 151962800
I1206 09:09:45.681885 22755 layer_factory.hpp:77] Creating layer L1_b1_sum_eltwise_top_L1_b1_sum_eltwise_0_split
I1206 09:09:45.681900 22755 net.cpp:100] Creating Layer L1_b1_sum_eltwise_top_L1_b1_sum_eltwise_0_split
I1206 09:09:45.681912 22755 net.cpp:434] L1_b1_sum_eltwise_top_L1_b1_sum_eltwise_0_split <- L1_b1_sum_eltwise_top
I1206 09:09:45.681933 22755 net.cpp:408] L1_b1_sum_eltwise_top_L1_b1_sum_eltwise_0_split -> L1_b1_sum_eltwise_top_L1_b1_sum_eltwise_0_split_0
I1206 09:09:45.681954 22755 net.cpp:408] L1_b1_sum_eltwise_top_L1_b1_sum_eltwise_0_split -> L1_b1_sum_eltwise_top_L1_b1_sum_eltwise_0_split_1
I1206 09:09:45.682055 22755 net.cpp:150] Setting up L1_b1_sum_eltwise_top_L1_b1_sum_eltwise_0_split
I1206 09:09:45.682082 22755 net.cpp:157] Top shape: 100 64 32 32 (6553600)
I1206 09:09:45.682098 22755 net.cpp:157] Top shape: 100 64 32 32 (6553600)
I1206 09:09:45.682107 22755 net.cpp:165] Memory required for data: 204391600
I1206 09:09:45.682118 22755 layer_factory.hpp:77] Creating layer L1_b2_brc1_bn
I1206 09:09:45.682144 22755 net.cpp:100] Creating Layer L1_b2_brc1_bn
I1206 09:09:45.682157 22755 net.cpp:434] L1_b2_brc1_bn <- L1_b1_sum_eltwise_top_L1_b1_sum_eltwise_0_split_0
I1206 09:09:45.682175 22755 net.cpp:408] L1_b2_brc1_bn -> L1_b2_brc1_bn_top
I1206 09:09:45.682461 22755 net.cpp:150] Setting up L1_b2_brc1_bn
I1206 09:09:45.682481 22755 net.cpp:157] Top shape: 100 64 32 32 (6553600)
I1206 09:09:45.682490 22755 net.cpp:165] Memory required for data: 230606000
I1206 09:09:45.682512 22755 layer_factory.hpp:77] Creating layer L1_b2_brc1_relu
I1206 09:09:45.682529 22755 net.cpp:100] Creating Layer L1_b2_brc1_relu
I1206 09:09:45.682541 22755 net.cpp:434] L1_b2_brc1_relu <- L1_b2_brc1_bn_top
I1206 09:09:45.682562 22755 net.cpp:395] L1_b2_brc1_relu -> L1_b2_brc1_bn_top (in-place)
I1206 09:09:45.682584 22755 net.cpp:150] Setting up L1_b2_brc1_relu
I1206 09:09:45.682597 22755 net.cpp:157] Top shape: 100 64 32 32 (6553600)
I1206 09:09:45.682608 22755 net.cpp:165] Memory required for data: 256820400
I1206 09:09:45.682621 22755 layer_factory.hpp:77] Creating layer L1_b2_brc1_conv
I1206 09:09:45.682648 22755 net.cpp:100] Creating Layer L1_b2_brc1_conv
I1206 09:09:45.682662 22755 net.cpp:434] L1_b2_brc1_conv <- L1_b2_brc1_bn_top
I1206 09:09:45.682679 22755 net.cpp:408] L1_b2_brc1_conv -> L1_b2_brc1_conv_top
I1206 09:09:45.683029 22755 net.cpp:150] Setting up L1_b2_brc1_conv
I1206 09:09:45.683053 22755 net.cpp:157] Top shape: 100 16 32 32 (1638400)
I1206 09:09:45.683063 22755 net.cpp:165] Memory required for data: 263374000
I1206 09:09:45.683082 22755 layer_factory.hpp:77] Creating layer L1_b2_brc2_bn
I1206 09:09:45.683099 22755 net.cpp:100] Creating Layer L1_b2_brc2_bn
I1206 09:09:45.683110 22755 net.cpp:434] L1_b2_brc2_bn <- L1_b2_brc1_conv_top
I1206 09:09:45.683132 22755 net.cpp:408] L1_b2_brc2_bn -> L1_b2_brc2_bn_top
I1206 09:09:45.683408 22755 net.cpp:150] Setting up L1_b2_brc2_bn
I1206 09:09:45.683426 22755 net.cpp:157] Top shape: 100 16 32 32 (1638400)
I1206 09:09:45.683434 22755 net.cpp:165] Memory required for data: 269927600
I1206 09:09:45.683457 22755 layer_factory.hpp:77] Creating layer L1_b2_brc2_relu
I1206 09:09:45.683476 22755 net.cpp:100] Creating Layer L1_b2_brc2_relu
I1206 09:09:45.683487 22755 net.cpp:434] L1_b2_brc2_relu <- L1_b2_brc2_bn_top
I1206 09:09:45.683503 22755 net.cpp:395] L1_b2_brc2_relu -> L1_b2_brc2_bn_top (in-place)
I1206 09:09:45.683522 22755 net.cpp:150] Setting up L1_b2_brc2_relu
I1206 09:09:45.683537 22755 net.cpp:157] Top shape: 100 16 32 32 (1638400)
I1206 09:09:45.683547 22755 net.cpp:165] Memory required for data: 276481200
I1206 09:09:45.683559 22755 layer_factory.hpp:77] Creating layer L1_b2_brc2_conv
I1206 09:09:45.683588 22755 net.cpp:100] Creating Layer L1_b2_brc2_conv
I1206 09:09:45.683600 22755 net.cpp:434] L1_b2_brc2_conv <- L1_b2_brc2_bn_top
I1206 09:09:45.683624 22755 net.cpp:408] L1_b2_brc2_conv -> L1_b2_brc2_conv_top
I1206 09:09:45.683989 22755 net.cpp:150] Setting up L1_b2_brc2_conv
I1206 09:09:45.684008 22755 net.cpp:157] Top shape: 100 16 32 32 (1638400)
I1206 09:09:45.684017 22755 net.cpp:165] Memory required for data: 283034800
I1206 09:09:45.684038 22755 layer_factory.hpp:77] Creating layer L1_b2_brc3_bn
I1206 09:09:45.684067 22755 net.cpp:100] Creating Layer L1_b2_brc3_bn
I1206 09:09:45.684079 22755 net.cpp:434] L1_b2_brc3_bn <- L1_b2_brc2_conv_top
I1206 09:09:45.684103 22755 net.cpp:408] L1_b2_brc3_bn -> L1_b2_brc3_bn_top
I1206 09:09:45.684394 22755 net.cpp:150] Setting up L1_b2_brc3_bn
I1206 09:09:45.684413 22755 net.cpp:157] Top shape: 100 16 32 32 (1638400)
I1206 09:09:45.684423 22755 net.cpp:165] Memory required for data: 289588400
I1206 09:09:45.684444 22755 layer_factory.hpp:77] Creating layer L1_b2_brc3_relu
I1206 09:09:45.684471 22755 net.cpp:100] Creating Layer L1_b2_brc3_relu
I1206 09:09:45.684484 22755 net.cpp:434] L1_b2_brc3_relu <- L1_b2_brc3_bn_top
I1206 09:09:45.684499 22755 net.cpp:395] L1_b2_brc3_relu -> L1_b2_brc3_bn_top (in-place)
I1206 09:09:45.684518 22755 net.cpp:150] Setting up L1_b2_brc3_relu
I1206 09:09:45.684533 22755 net.cpp:157] Top shape: 100 16 32 32 (1638400)
I1206 09:09:45.684542 22755 net.cpp:165] Memory required for data: 296142000
I1206 09:09:45.684552 22755 layer_factory.hpp:77] Creating layer L1_b2_brc3_conv
I1206 09:09:45.684581 22755 net.cpp:100] Creating Layer L1_b2_brc3_conv
I1206 09:09:45.684593 22755 net.cpp:434] L1_b2_brc3_conv <- L1_b2_brc3_bn_top
I1206 09:09:45.684617 22755 net.cpp:408] L1_b2_brc3_conv -> L1_b2_brc3_conv_top
I1206 09:09:45.684948 22755 net.cpp:150] Setting up L1_b2_brc3_conv
I1206 09:09:45.684968 22755 net.cpp:157] Top shape: 100 64 32 32 (6553600)
I1206 09:09:45.684978 22755 net.cpp:165] Memory required for data: 322356400
I1206 09:09:45.685019 22755 layer_factory.hpp:77] Creating layer L1_b2_sum_eltwise
I1206 09:09:45.685037 22755 net.cpp:100] Creating Layer L1_b2_sum_eltwise
I1206 09:09:45.685056 22755 net.cpp:434] L1_b2_sum_eltwise <- L1_b2_brc3_conv_top
I1206 09:09:45.685070 22755 net.cpp:434] L1_b2_sum_eltwise <- L1_b1_sum_eltwise_top_L1_b1_sum_eltwise_0_split_1
I1206 09:09:45.685086 22755 net.cpp:408] L1_b2_sum_eltwise -> L1_b2_sum_eltwise_top
I1206 09:09:45.685147 22755 net.cpp:150] Setting up L1_b2_sum_eltwise
I1206 09:09:45.685168 22755 net.cpp:157] Top shape: 100 64 32 32 (6553600)
I1206 09:09:45.685178 22755 net.cpp:165] Memory required for data: 348570800
I1206 09:09:45.685189 22755 layer_factory.hpp:77] Creating layer L1_b2_sum_eltwise_top_L1_b2_sum_eltwise_0_split
I1206 09:09:45.685204 22755 net.cpp:100] Creating Layer L1_b2_sum_eltwise_top_L1_b2_sum_eltwise_0_split
I1206 09:09:45.685214 22755 net.cpp:434] L1_b2_sum_eltwise_top_L1_b2_sum_eltwise_0_split <- L1_b2_sum_eltwise_top
I1206 09:09:45.685238 22755 net.cpp:408] L1_b2_sum_eltwise_top_L1_b2_sum_eltwise_0_split -> L1_b2_sum_eltwise_top_L1_b2_sum_eltwise_0_split_0
I1206 09:09:45.685258 22755 net.cpp:408] L1_b2_sum_eltwise_top_L1_b2_sum_eltwise_0_split -> L1_b2_sum_eltwise_top_L1_b2_sum_eltwise_0_split_1
I1206 09:09:45.685336 22755 net.cpp:150] Setting up L1_b2_sum_eltwise_top_L1_b2_sum_eltwise_0_split
I1206 09:09:45.685361 22755 net.cpp:157] Top shape: 100 64 32 32 (6553600)
I1206 09:09:45.685374 22755 net.cpp:157] Top shape: 100 64 32 32 (6553600)
I1206 09:09:45.685384 22755 net.cpp:165] Memory required for data: 400999600
I1206 09:09:45.685396 22755 layer_factory.hpp:77] Creating layer L1_b3_brc1_bn
I1206 09:09:45.685415 22755 net.cpp:100] Creating Layer L1_b3_brc1_bn
I1206 09:09:45.685427 22755 net.cpp:434] L1_b3_brc1_bn <- L1_b2_sum_eltwise_top_L1_b2_sum_eltwise_0_split_0
I1206 09:09:45.685449 22755 net.cpp:408] L1_b3_brc1_bn -> L1_b3_brc1_bn_top
I1206 09:09:45.685726 22755 net.cpp:150] Setting up L1_b3_brc1_bn
I1206 09:09:45.685745 22755 net.cpp:157] Top shape: 100 64 32 32 (6553600)
I1206 09:09:45.685755 22755 net.cpp:165] Memory required for data: 427214000
I1206 09:09:45.685781 22755 layer_factory.hpp:77] Creating layer L1_b3_brc1_relu
I1206 09:09:45.685811 22755 net.cpp:100] Creating Layer L1_b3_brc1_relu
I1206 09:09:45.685827 22755 net.cpp:434] L1_b3_brc1_relu <- L1_b3_brc1_bn_top
I1206 09:09:45.685842 22755 net.cpp:395] L1_b3_brc1_relu -> L1_b3_brc1_bn_top (in-place)
I1206 09:09:45.685861 22755 net.cpp:150] Setting up L1_b3_brc1_relu
I1206 09:09:45.685876 22755 net.cpp:157] Top shape: 100 64 32 32 (6553600)
I1206 09:09:45.685885 22755 net.cpp:165] Memory required for data: 453428400
I1206 09:09:45.685899 22755 layer_factory.hpp:77] Creating layer L1_b3_brc1_conv
I1206 09:09:45.685921 22755 net.cpp:100] Creating Layer L1_b3_brc1_conv
I1206 09:09:45.685935 22755 net.cpp:434] L1_b3_brc1_conv <- L1_b3_brc1_bn_top
I1206 09:09:45.685958 22755 net.cpp:408] L1_b3_brc1_conv -> L1_b3_brc1_conv_top
I1206 09:09:45.686331 22755 net.cpp:150] Setting up L1_b3_brc1_conv
I1206 09:09:45.686421 22755 net.cpp:157] Top shape: 100 16 32 32 (1638400)
I1206 09:09:45.686434 22755 net.cpp:165] Memory required for data: 459982000
I1206 09:09:45.686450 22755 layer_factory.hpp:77] Creating layer L1_b3_brc2_bn
I1206 09:09:45.686467 22755 net.cpp:100] Creating Layer L1_b3_brc2_bn
I1206 09:09:45.686480 22755 net.cpp:434] L1_b3_brc2_bn <- L1_b3_brc1_conv_top
I1206 09:09:45.686501 22755 net.cpp:408] L1_b3_brc2_bn -> L1_b3_brc2_bn_top
I1206 09:09:45.686794 22755 net.cpp:150] Setting up L1_b3_brc2_bn
I1206 09:09:45.686820 22755 net.cpp:157] Top shape: 100 16 32 32 (1638400)
I1206 09:09:45.686828 22755 net.cpp:165] Memory required for data: 466535600
I1206 09:09:45.686853 22755 layer_factory.hpp:77] Creating layer L1_b3_brc2_relu
I1206 09:09:45.686877 22755 net.cpp:100] Creating Layer L1_b3_brc2_relu
I1206 09:09:45.686890 22755 net.cpp:434] L1_b3_brc2_relu <- L1_b3_brc2_bn_top
I1206 09:09:45.686906 22755 net.cpp:395] L1_b3_brc2_relu -> L1_b3_brc2_bn_top (in-place)
I1206 09:09:45.686925 22755 net.cpp:150] Setting up L1_b3_brc2_relu
I1206 09:09:45.686940 22755 net.cpp:157] Top shape: 100 16 32 32 (1638400)
I1206 09:09:45.686950 22755 net.cpp:165] Memory required for data: 473089200
I1206 09:09:45.686960 22755 layer_factory.hpp:77] Creating layer L1_b3_brc2_conv
I1206 09:09:45.686993 22755 net.cpp:100] Creating Layer L1_b3_brc2_conv
I1206 09:09:45.687007 22755 net.cpp:434] L1_b3_brc2_conv <- L1_b3_brc2_bn_top
I1206 09:09:45.687026 22755 net.cpp:408] L1_b3_brc2_conv -> L1_b3_brc2_conv_top
I1206 09:09:45.687378 22755 net.cpp:150] Setting up L1_b3_brc2_conv
I1206 09:09:45.687397 22755 net.cpp:157] Top shape: 100 16 32 32 (1638400)
I1206 09:09:45.687407 22755 net.cpp:165] Memory required for data: 479642800
I1206 09:09:45.687427 22755 layer_factory.hpp:77] Creating layer L1_b3_brc3_bn
I1206 09:09:45.687445 22755 net.cpp:100] Creating Layer L1_b3_brc3_bn
I1206 09:09:45.687456 22755 net.cpp:434] L1_b3_brc3_bn <- L1_b3_brc2_conv_top
I1206 09:09:45.687477 22755 net.cpp:408] L1_b3_brc3_bn -> L1_b3_brc3_bn_top
I1206 09:09:45.687763 22755 net.cpp:150] Setting up L1_b3_brc3_bn
I1206 09:09:45.687783 22755 net.cpp:157] Top shape: 100 16 32 32 (1638400)
I1206 09:09:45.687793 22755 net.cpp:165] Memory required for data: 486196400
I1206 09:09:45.687824 22755 layer_factory.hpp:77] Creating layer L1_b3_brc3_relu
I1206 09:09:45.687849 22755 net.cpp:100] Creating Layer L1_b3_brc3_relu
I1206 09:09:45.687862 22755 net.cpp:434] L1_b3_brc3_relu <- L1_b3_brc3_bn_top
I1206 09:09:45.687878 22755 net.cpp:395] L1_b3_brc3_relu -> L1_b3_brc3_bn_top (in-place)
I1206 09:09:45.687898 22755 net.cpp:150] Setting up L1_b3_brc3_relu
I1206 09:09:45.687913 22755 net.cpp:157] Top shape: 100 16 32 32 (1638400)
I1206 09:09:45.687923 22755 net.cpp:165] Memory required for data: 492750000
I1206 09:09:45.687933 22755 layer_factory.hpp:77] Creating layer L1_b3_brc3_conv
I1206 09:09:45.687957 22755 net.cpp:100] Creating Layer L1_b3_brc3_conv
I1206 09:09:45.687968 22755 net.cpp:434] L1_b3_brc3_conv <- L1_b3_brc3_bn_top
I1206 09:09:45.687993 22755 net.cpp:408] L1_b3_brc3_conv -> L1_b3_brc3_conv_top
I1206 09:09:45.688328 22755 net.cpp:150] Setting up L1_b3_brc3_conv
I1206 09:09:45.688346 22755 net.cpp:157] Top shape: 100 64 32 32 (6553600)
I1206 09:09:45.688355 22755 net.cpp:165] Memory required for data: 518964400
I1206 09:09:45.688376 22755 layer_factory.hpp:77] Creating layer L1_b3_sum_eltwise
I1206 09:09:45.688395 22755 net.cpp:100] Creating Layer L1_b3_sum_eltwise
I1206 09:09:45.688407 22755 net.cpp:434] L1_b3_sum_eltwise <- L1_b3_brc3_conv_top
I1206 09:09:45.688423 22755 net.cpp:434] L1_b3_sum_eltwise <- L1_b2_sum_eltwise_top_L1_b2_sum_eltwise_0_split_1
I1206 09:09:45.688439 22755 net.cpp:408] L1_b3_sum_eltwise -> L1_b3_sum_eltwise_top
I1206 09:09:45.688506 22755 net.cpp:150] Setting up L1_b3_sum_eltwise
I1206 09:09:45.688531 22755 net.cpp:157] Top shape: 100 64 32 32 (6553600)
I1206 09:09:45.688541 22755 net.cpp:165] Memory required for data: 545178800
I1206 09:09:45.688554 22755 layer_factory.hpp:77] Creating layer L1_b3_sum_eltwise_top_L1_b3_sum_eltwise_0_split
I1206 09:09:45.688580 22755 net.cpp:100] Creating Layer L1_b3_sum_eltwise_top_L1_b3_sum_eltwise_0_split
I1206 09:09:45.688593 22755 net.cpp:434] L1_b3_sum_eltwise_top_L1_b3_sum_eltwise_0_split <- L1_b3_sum_eltwise_top
I1206 09:09:45.688606 22755 net.cpp:408] L1_b3_sum_eltwise_top_L1_b3_sum_eltwise_0_split -> L1_b3_sum_eltwise_top_L1_b3_sum_eltwise_0_split_0
I1206 09:09:45.688621 22755 net.cpp:408] L1_b3_sum_eltwise_top_L1_b3_sum_eltwise_0_split -> L1_b3_sum_eltwise_top_L1_b3_sum_eltwise_0_split_1
I1206 09:09:45.688671 22755 net.cpp:150] Setting up L1_b3_sum_eltwise_top_L1_b3_sum_eltwise_0_split
I1206 09:09:45.688681 22755 net.cpp:157] Top shape: 100 64 32 32 (6553600)
I1206 09:09:45.688688 22755 net.cpp:157] Top shape: 100 64 32 32 (6553600)
I1206 09:09:45.688693 22755 net.cpp:165] Memory required for data: 597607600
I1206 09:09:45.688697 22755 layer_factory.hpp:77] Creating layer L1_b4_brc1_bn
I1206 09:09:45.688711 22755 net.cpp:100] Creating Layer L1_b4_brc1_bn
I1206 09:09:45.688717 22755 net.cpp:434] L1_b4_brc1_bn <- L1_b3_sum_eltwise_top_L1_b3_sum_eltwise_0_split_0
I1206 09:09:45.688730 22755 net.cpp:408] L1_b4_brc1_bn -> L1_b4_brc1_bn_top
I1206 09:09:45.688973 22755 net.cpp:150] Setting up L1_b4_brc1_bn
I1206 09:09:45.688990 22755 net.cpp:157] Top shape: 100 64 32 32 (6553600)
I1206 09:09:45.688999 22755 net.cpp:165] Memory required for data: 623822000
I1206 09:09:45.689020 22755 layer_factory.hpp:77] Creating layer L1_b4_brc1_relu
I1206 09:09:45.689038 22755 net.cpp:100] Creating Layer L1_b4_brc1_relu
I1206 09:09:45.689049 22755 net.cpp:434] L1_b4_brc1_relu <- L1_b4_brc1_bn_top
I1206 09:09:45.689064 22755 net.cpp:395] L1_b4_brc1_relu -> L1_b4_brc1_bn_top (in-place)
I1206 09:09:45.689083 22755 net.cpp:150] Setting up L1_b4_brc1_relu
I1206 09:09:45.689097 22755 net.cpp:157] Top shape: 100 64 32 32 (6553600)
I1206 09:09:45.689107 22755 net.cpp:165] Memory required for data: 650036400
I1206 09:09:45.689119 22755 layer_factory.hpp:77] Creating layer L1_b4_brc1_conv
I1206 09:09:45.689147 22755 net.cpp:100] Creating Layer L1_b4_brc1_conv
I1206 09:09:45.689162 22755 net.cpp:434] L1_b4_brc1_conv <- L1_b4_brc1_bn_top
I1206 09:09:45.689185 22755 net.cpp:408] L1_b4_brc1_conv -> L1_b4_brc1_conv_top
I1206 09:09:45.689527 22755 net.cpp:150] Setting up L1_b4_brc1_conv
I1206 09:09:45.689545 22755 net.cpp:157] Top shape: 100 16 32 32 (1638400)
I1206 09:09:45.689555 22755 net.cpp:165] Memory required for data: 656590000
I1206 09:09:45.689574 22755 layer_factory.hpp:77] Creating layer L1_b4_brc2_bn
I1206 09:09:45.689597 22755 net.cpp:100] Creating Layer L1_b4_brc2_bn
I1206 09:09:45.689609 22755 net.cpp:434] L1_b4_brc2_bn <- L1_b4_brc1_conv_top
I1206 09:09:45.689625 22755 net.cpp:408] L1_b4_brc2_bn -> L1_b4_brc2_bn_top
I1206 09:09:45.689923 22755 net.cpp:150] Setting up L1_b4_brc2_bn
I1206 09:09:45.689941 22755 net.cpp:157] Top shape: 100 16 32 32 (1638400)
I1206 09:09:45.689951 22755 net.cpp:165] Memory required for data: 663143600
I1206 09:09:45.689975 22755 layer_factory.hpp:77] Creating layer L1_b4_brc2_relu
I1206 09:09:45.689991 22755 net.cpp:100] Creating Layer L1_b4_brc2_relu
I1206 09:09:45.690003 22755 net.cpp:434] L1_b4_brc2_relu <- L1_b4_brc2_bn_top
I1206 09:09:45.690019 22755 net.cpp:395] L1_b4_brc2_relu -> L1_b4_brc2_bn_top (in-place)
I1206 09:09:45.690039 22755 net.cpp:150] Setting up L1_b4_brc2_relu
I1206 09:09:45.690054 22755 net.cpp:157] Top shape: 100 16 32 32 (1638400)
I1206 09:09:45.690064 22755 net.cpp:165] Memory required for data: 669697200
I1206 09:09:45.690076 22755 layer_factory.hpp:77] Creating layer L1_b4_brc2_conv
I1206 09:09:45.690112 22755 net.cpp:100] Creating Layer L1_b4_brc2_conv
I1206 09:09:45.690125 22755 net.cpp:434] L1_b4_brc2_conv <- L1_b4_brc2_bn_top
I1206 09:09:45.690150 22755 net.cpp:408] L1_b4_brc2_conv -> L1_b4_brc2_conv_top
I1206 09:09:45.690529 22755 net.cpp:150] Setting up L1_b4_brc2_conv
I1206 09:09:45.690548 22755 net.cpp:157] Top shape: 100 16 32 32 (1638400)
I1206 09:09:45.690558 22755 net.cpp:165] Memory required for data: 676250800
I1206 09:09:45.690575 22755 layer_factory.hpp:77] Creating layer L1_b4_brc3_bn
I1206 09:09:45.690611 22755 net.cpp:100] Creating Layer L1_b4_brc3_bn
I1206 09:09:45.690624 22755 net.cpp:434] L1_b4_brc3_bn <- L1_b4_brc2_conv_top
I1206 09:09:45.690640 22755 net.cpp:408] L1_b4_brc3_bn -> L1_b4_brc3_bn_top
I1206 09:09:45.690946 22755 net.cpp:150] Setting up L1_b4_brc3_bn
I1206 09:09:45.690971 22755 net.cpp:157] Top shape: 100 16 32 32 (1638400)
I1206 09:09:45.690982 22755 net.cpp:165] Memory required for data: 682804400
I1206 09:09:45.691004 22755 layer_factory.hpp:77] Creating layer L1_b4_brc3_relu
I1206 09:09:45.691021 22755 net.cpp:100] Creating Layer L1_b4_brc3_relu
I1206 09:09:45.691032 22755 net.cpp:434] L1_b4_brc3_relu <- L1_b4_brc3_bn_top
I1206 09:09:45.691047 22755 net.cpp:395] L1_b4_brc3_relu -> L1_b4_brc3_bn_top (in-place)
I1206 09:09:45.691066 22755 net.cpp:150] Setting up L1_b4_brc3_relu
I1206 09:09:45.691082 22755 net.cpp:157] Top shape: 100 16 32 32 (1638400)
I1206 09:09:45.691092 22755 net.cpp:165] Memory required for data: 689358000
I1206 09:09:45.691103 22755 layer_factory.hpp:77] Creating layer L1_b4_brc3_conv
I1206 09:09:45.691131 22755 net.cpp:100] Creating Layer L1_b4_brc3_conv
I1206 09:09:45.691144 22755 net.cpp:434] L1_b4_brc3_conv <- L1_b4_brc3_bn_top
I1206 09:09:45.691162 22755 net.cpp:408] L1_b4_brc3_conv -> L1_b4_brc3_conv_top
I1206 09:09:45.691504 22755 net.cpp:150] Setting up L1_b4_brc3_conv
I1206 09:09:45.691524 22755 net.cpp:157] Top shape: 100 64 32 32 (6553600)
I1206 09:09:45.691532 22755 net.cpp:165] Memory required for data: 715572400
I1206 09:09:45.691553 22755 layer_factory.hpp:77] Creating layer L1_b4_sum_eltwise
I1206 09:09:45.691572 22755 net.cpp:100] Creating Layer L1_b4_sum_eltwise
I1206 09:09:45.691584 22755 net.cpp:434] L1_b4_sum_eltwise <- L1_b4_brc3_conv_top
I1206 09:09:45.691597 22755 net.cpp:434] L1_b4_sum_eltwise <- L1_b3_sum_eltwise_top_L1_b3_sum_eltwise_0_split_1
I1206 09:09:45.691620 22755 net.cpp:408] L1_b4_sum_eltwise -> L1_b4_sum_eltwise_top
I1206 09:09:45.691673 22755 net.cpp:150] Setting up L1_b4_sum_eltwise
I1206 09:09:45.691699 22755 net.cpp:157] Top shape: 100 64 32 32 (6553600)
I1206 09:09:45.691709 22755 net.cpp:165] Memory required for data: 741786800
I1206 09:09:45.691720 22755 layer_factory.hpp:77] Creating layer L1_b4_sum_eltwise_top_L1_b4_sum_eltwise_0_split
I1206 09:09:45.691735 22755 net.cpp:100] Creating Layer L1_b4_sum_eltwise_top_L1_b4_sum_eltwise_0_split
I1206 09:09:45.691746 22755 net.cpp:434] L1_b4_sum_eltwise_top_L1_b4_sum_eltwise_0_split <- L1_b4_sum_eltwise_top
I1206 09:09:45.691761 22755 net.cpp:408] L1_b4_sum_eltwise_top_L1_b4_sum_eltwise_0_split -> L1_b4_sum_eltwise_top_L1_b4_sum_eltwise_0_split_0
I1206 09:09:45.691787 22755 net.cpp:408] L1_b4_sum_eltwise_top_L1_b4_sum_eltwise_0_split -> L1_b4_sum_eltwise_top_L1_b4_sum_eltwise_0_split_1
I1206 09:09:45.691877 22755 net.cpp:150] Setting up L1_b4_sum_eltwise_top_L1_b4_sum_eltwise_0_split
I1206 09:09:45.691900 22755 net.cpp:157] Top shape: 100 64 32 32 (6553600)
I1206 09:09:45.691912 22755 net.cpp:157] Top shape: 100 64 32 32 (6553600)
I1206 09:09:45.691922 22755 net.cpp:165] Memory required for data: 794215600
I1206 09:09:45.691934 22755 layer_factory.hpp:77] Creating layer L1_b5_brc1_bn
I1206 09:09:45.691956 22755 net.cpp:100] Creating Layer L1_b5_brc1_bn
I1206 09:09:45.691969 22755 net.cpp:434] L1_b5_brc1_bn <- L1_b4_sum_eltwise_top_L1_b4_sum_eltwise_0_split_0
I1206 09:09:45.691987 22755 net.cpp:408] L1_b5_brc1_bn -> L1_b5_brc1_bn_top
I1206 09:09:45.692276 22755 net.cpp:150] Setting up L1_b5_brc1_bn
I1206 09:09:45.692294 22755 net.cpp:157] Top shape: 100 64 32 32 (6553600)
I1206 09:09:45.692303 22755 net.cpp:165] Memory required for data: 820430000
I1206 09:09:45.692343 22755 layer_factory.hpp:77] Creating layer L1_b5_brc1_relu
I1206 09:09:45.692366 22755 net.cpp:100] Creating Layer L1_b5_brc1_relu
I1206 09:09:45.692379 22755 net.cpp:434] L1_b5_brc1_relu <- L1_b5_brc1_bn_top
I1206 09:09:45.692395 22755 net.cpp:395] L1_b5_brc1_relu -> L1_b5_brc1_bn_top (in-place)
I1206 09:09:45.692414 22755 net.cpp:150] Setting up L1_b5_brc1_relu
I1206 09:09:45.692442 22755 net.cpp:157] Top shape: 100 64 32 32 (6553600)
I1206 09:09:45.692453 22755 net.cpp:165] Memory required for data: 846644400
I1206 09:09:45.692463 22755 layer_factory.hpp:77] Creating layer L1_b5_brc1_conv
I1206 09:09:45.692494 22755 net.cpp:100] Creating Layer L1_b5_brc1_conv
I1206 09:09:45.692508 22755 net.cpp:434] L1_b5_brc1_conv <- L1_b5_brc1_bn_top
I1206 09:09:45.692526 22755 net.cpp:408] L1_b5_brc1_conv -> L1_b5_brc1_conv_top
I1206 09:09:45.692868 22755 net.cpp:150] Setting up L1_b5_brc1_conv
I1206 09:09:45.692888 22755 net.cpp:157] Top shape: 100 16 32 32 (1638400)
I1206 09:09:45.692898 22755 net.cpp:165] Memory required for data: 853198000
I1206 09:09:45.692915 22755 layer_factory.hpp:77] Creating layer L1_b5_brc2_bn
I1206 09:09:45.692932 22755 net.cpp:100] Creating Layer L1_b5_brc2_bn
I1206 09:09:45.692945 22755 net.cpp:434] L1_b5_brc2_bn <- L1_b5_brc1_conv_top
I1206 09:09:45.692965 22755 net.cpp:408] L1_b5_brc2_bn -> L1_b5_brc2_bn_top
I1206 09:09:45.693253 22755 net.cpp:150] Setting up L1_b5_brc2_bn
I1206 09:09:45.693279 22755 net.cpp:157] Top shape: 100 16 32 32 (1638400)
I1206 09:09:45.693289 22755 net.cpp:165] Memory required for data: 859751600
I1206 09:09:45.693310 22755 layer_factory.hpp:77] Creating layer L1_b5_brc2_relu
I1206 09:09:45.693330 22755 net.cpp:100] Creating Layer L1_b5_brc2_relu
I1206 09:09:45.693341 22755 net.cpp:434] L1_b5_brc2_relu <- L1_b5_brc2_bn_top
I1206 09:09:45.693356 22755 net.cpp:395] L1_b5_brc2_relu -> L1_b5_brc2_bn_top (in-place)
I1206 09:09:45.693374 22755 net.cpp:150] Setting up L1_b5_brc2_relu
I1206 09:09:45.693388 22755 net.cpp:157] Top shape: 100 16 32 32 (1638400)
I1206 09:09:45.693398 22755 net.cpp:165] Memory required for data: 866305200
I1206 09:09:45.693413 22755 layer_factory.hpp:77] Creating layer L1_b5_brc2_conv
I1206 09:09:45.693434 22755 net.cpp:100] Creating Layer L1_b5_brc2_conv
I1206 09:09:45.693447 22755 net.cpp:434] L1_b5_brc2_conv <- L1_b5_brc2_bn_top
I1206 09:09:45.693470 22755 net.cpp:408] L1_b5_brc2_conv -> L1_b5_brc2_conv_top
I1206 09:09:45.693842 22755 net.cpp:150] Setting up L1_b5_brc2_conv
I1206 09:09:45.693862 22755 net.cpp:157] Top shape: 100 16 32 32 (1638400)
I1206 09:09:45.693871 22755 net.cpp:165] Memory required for data: 872858800
I1206 09:09:45.693892 22755 layer_factory.hpp:77] Creating layer L1_b5_brc3_bn
I1206 09:09:45.693909 22755 net.cpp:100] Creating Layer L1_b5_brc3_bn
I1206 09:09:45.693922 22755 net.cpp:434] L1_b5_brc3_bn <- L1_b5_brc2_conv_top
I1206 09:09:45.693945 22755 net.cpp:408] L1_b5_brc3_bn -> L1_b5_brc3_bn_top
I1206 09:09:45.694252 22755 net.cpp:150] Setting up L1_b5_brc3_bn
I1206 09:09:45.694272 22755 net.cpp:157] Top shape: 100 16 32 32 (1638400)
I1206 09:09:45.694280 22755 net.cpp:165] Memory required for data: 879412400
I1206 09:09:45.694303 22755 layer_factory.hpp:77] Creating layer L1_b5_brc3_relu
I1206 09:09:45.694329 22755 net.cpp:100] Creating Layer L1_b5_brc3_relu
I1206 09:09:45.694341 22755 net.cpp:434] L1_b5_brc3_relu <- L1_b5_brc3_bn_top
I1206 09:09:45.694356 22755 net.cpp:395] L1_b5_brc3_relu -> L1_b5_brc3_bn_top (in-place)
I1206 09:09:45.694375 22755 net.cpp:150] Setting up L1_b5_brc3_relu
I1206 09:09:45.694391 22755 net.cpp:157] Top shape: 100 16 32 32 (1638400)
I1206 09:09:45.694399 22755 net.cpp:165] Memory required for data: 885966000
I1206 09:09:45.694412 22755 layer_factory.hpp:77] Creating layer L1_b5_brc3_conv
I1206 09:09:45.694433 22755 net.cpp:100] Creating Layer L1_b5_brc3_conv
I1206 09:09:45.694447 22755 net.cpp:434] L1_b5_brc3_conv <- L1_b5_brc3_bn_top
I1206 09:09:45.694470 22755 net.cpp:408] L1_b5_brc3_conv -> L1_b5_brc3_conv_top
I1206 09:09:45.694818 22755 net.cpp:150] Setting up L1_b5_brc3_conv
I1206 09:09:45.694839 22755 net.cpp:157] Top shape: 100 64 32 32 (6553600)
I1206 09:09:45.694847 22755 net.cpp:165] Memory required for data: 912180400
I1206 09:09:45.694869 22755 layer_factory.hpp:77] Creating layer L1_b5_sum_eltwise
I1206 09:09:45.694886 22755 net.cpp:100] Creating Layer L1_b5_sum_eltwise
I1206 09:09:45.694898 22755 net.cpp:434] L1_b5_sum_eltwise <- L1_b5_brc3_conv_top
I1206 09:09:45.694923 22755 net.cpp:434] L1_b5_sum_eltwise <- L1_b4_sum_eltwise_top_L1_b4_sum_eltwise_0_split_1
I1206 09:09:45.694941 22755 net.cpp:408] L1_b5_sum_eltwise -> L1_b5_sum_eltwise_top
I1206 09:09:45.695003 22755 net.cpp:150] Setting up L1_b5_sum_eltwise
I1206 09:09:45.695024 22755 net.cpp:157] Top shape: 100 64 32 32 (6553600)
I1206 09:09:45.695034 22755 net.cpp:165] Memory required for data: 938394800
I1206 09:09:45.695044 22755 layer_factory.hpp:77] Creating layer L1_b5_sum_eltwise_top_L1_b5_sum_eltwise_0_split
I1206 09:09:45.695066 22755 net.cpp:100] Creating Layer L1_b5_sum_eltwise_top_L1_b5_sum_eltwise_0_split
I1206 09:09:45.695080 22755 net.cpp:434] L1_b5_sum_eltwise_top_L1_b5_sum_eltwise_0_split <- L1_b5_sum_eltwise_top
I1206 09:09:45.695096 22755 net.cpp:408] L1_b5_sum_eltwise_top_L1_b5_sum_eltwise_0_split -> L1_b5_sum_eltwise_top_L1_b5_sum_eltwise_0_split_0
I1206 09:09:45.695114 22755 net.cpp:408] L1_b5_sum_eltwise_top_L1_b5_sum_eltwise_0_split -> L1_b5_sum_eltwise_top_L1_b5_sum_eltwise_0_split_1
I1206 09:09:45.695204 22755 net.cpp:150] Setting up L1_b5_sum_eltwise_top_L1_b5_sum_eltwise_0_split
I1206 09:09:45.695222 22755 net.cpp:157] Top shape: 100 64 32 32 (6553600)
I1206 09:09:45.695236 22755 net.cpp:157] Top shape: 100 64 32 32 (6553600)
I1206 09:09:45.695245 22755 net.cpp:165] Memory required for data: 990823600
I1206 09:09:45.695258 22755 layer_factory.hpp:77] Creating layer L1_b6_brc1_bn
I1206 09:09:45.695276 22755 net.cpp:100] Creating Layer L1_b6_brc1_bn
I1206 09:09:45.695287 22755 net.cpp:434] L1_b6_brc1_bn <- L1_b5_sum_eltwise_top_L1_b5_sum_eltwise_0_split_0
I1206 09:09:45.695310 22755 net.cpp:408] L1_b6_brc1_bn -> L1_b6_brc1_bn_top
I1206 09:09:45.695597 22755 net.cpp:150] Setting up L1_b6_brc1_bn
I1206 09:09:45.695621 22755 net.cpp:157] Top shape: 100 64 32 32 (6553600)
I1206 09:09:45.695632 22755 net.cpp:165] Memory required for data: 1017038000
I1206 09:09:45.695654 22755 layer_factory.hpp:77] Creating layer L1_b6_brc1_relu
I1206 09:09:45.695670 22755 net.cpp:100] Creating Layer L1_b6_brc1_relu
I1206 09:09:45.695683 22755 net.cpp:434] L1_b6_brc1_relu <- L1_b6_brc1_bn_top
I1206 09:09:45.695696 22755 net.cpp:395] L1_b6_brc1_relu -> L1_b6_brc1_bn_top (in-place)
I1206 09:09:45.695716 22755 net.cpp:150] Setting up L1_b6_brc1_relu
I1206 09:09:45.695730 22755 net.cpp:157] Top shape: 100 64 32 32 (6553600)
I1206 09:09:45.695740 22755 net.cpp:165] Memory required for data: 1043252400
I1206 09:09:45.695752 22755 layer_factory.hpp:77] Creating layer L1_b6_brc1_conv
I1206 09:09:45.695775 22755 net.cpp:100] Creating Layer L1_b6_brc1_conv
I1206 09:09:45.695788 22755 net.cpp:434] L1_b6_brc1_conv <- L1_b6_brc1_bn_top
I1206 09:09:45.695818 22755 net.cpp:408] L1_b6_brc1_conv -> L1_b6_brc1_conv_top
I1206 09:09:45.696167 22755 net.cpp:150] Setting up L1_b6_brc1_conv
I1206 09:09:45.696187 22755 net.cpp:157] Top shape: 100 16 32 32 (1638400)
I1206 09:09:45.696197 22755 net.cpp:165] Memory required for data: 1049806000
I1206 09:09:45.696218 22755 layer_factory.hpp:77] Creating layer L1_b6_brc2_bn
I1206 09:09:45.696234 22755 net.cpp:100] Creating Layer L1_b6_brc2_bn
I1206 09:09:45.696245 22755 net.cpp:434] L1_b6_brc2_bn <- L1_b6_brc1_conv_top
I1206 09:09:45.696267 22755 net.cpp:408] L1_b6_brc2_bn -> L1_b6_brc2_bn_top
I1206 09:09:45.696552 22755 net.cpp:150] Setting up L1_b6_brc2_bn
I1206 09:09:45.696575 22755 net.cpp:157] Top shape: 100 16 32 32 (1638400)
I1206 09:09:45.696586 22755 net.cpp:165] Memory required for data: 1056359600
I1206 09:09:45.696609 22755 layer_factory.hpp:77] Creating layer L1_b6_brc2_relu
I1206 09:09:45.696635 22755 net.cpp:100] Creating Layer L1_b6_brc2_relu
I1206 09:09:45.696647 22755 net.cpp:434] L1_b6_brc2_relu <- L1_b6_brc2_bn_top
I1206 09:09:45.696665 22755 net.cpp:395] L1_b6_brc2_relu -> L1_b6_brc2_bn_top (in-place)
I1206 09:09:45.696683 22755 net.cpp:150] Setting up L1_b6_brc2_relu
I1206 09:09:45.696698 22755 net.cpp:157] Top shape: 100 16 32 32 (1638400)
I1206 09:09:45.696707 22755 net.cpp:165] Memory required for data: 1062913200
I1206 09:09:45.696718 22755 layer_factory.hpp:77] Creating layer L1_b6_brc2_conv
I1206 09:09:45.696756 22755 net.cpp:100] Creating Layer L1_b6_brc2_conv
I1206 09:09:45.696770 22755 net.cpp:434] L1_b6_brc2_conv <- L1_b6_brc2_bn_top
I1206 09:09:45.696794 22755 net.cpp:408] L1_b6_brc2_conv -> L1_b6_brc2_conv_top
I1206 09:09:45.697168 22755 net.cpp:150] Setting up L1_b6_brc2_conv
I1206 09:09:45.697188 22755 net.cpp:157] Top shape: 100 16 32 32 (1638400)
I1206 09:09:45.697197 22755 net.cpp:165] Memory required for data: 1069466800
I1206 09:09:45.697217 22755 layer_factory.hpp:77] Creating layer L1_b6_brc3_bn
I1206 09:09:45.697242 22755 net.cpp:100] Creating Layer L1_b6_brc3_bn
I1206 09:09:45.697254 22755 net.cpp:434] L1_b6_brc3_bn <- L1_b6_brc2_conv_top
I1206 09:09:45.697271 22755 net.cpp:408] L1_b6_brc3_bn -> L1_b6_brc3_bn_top
I1206 09:09:45.697557 22755 net.cpp:150] Setting up L1_b6_brc3_bn
I1206 09:09:45.697576 22755 net.cpp:157] Top shape: 100 16 32 32 (1638400)
I1206 09:09:45.697584 22755 net.cpp:165] Memory required for data: 1076020400
I1206 09:09:45.697607 22755 layer_factory.hpp:77] Creating layer L1_b6_brc3_relu
I1206 09:09:45.697625 22755 net.cpp:100] Creating Layer L1_b6_brc3_relu
I1206 09:09:45.697638 22755 net.cpp:434] L1_b6_brc3_relu <- L1_b6_brc3_bn_top
I1206 09:09:45.697651 22755 net.cpp:395] L1_b6_brc3_relu -> L1_b6_brc3_bn_top (in-place)
I1206 09:09:45.697670 22755 net.cpp:150] Setting up L1_b6_brc3_relu
I1206 09:09:45.697685 22755 net.cpp:157] Top shape: 100 16 32 32 (1638400)
I1206 09:09:45.697695 22755 net.cpp:165] Memory required for data: 1082574000
I1206 09:09:45.697708 22755 layer_factory.hpp:77] Creating layer L1_b6_brc3_conv
I1206 09:09:45.697736 22755 net.cpp:100] Creating Layer L1_b6_brc3_conv
I1206 09:09:45.697749 22755 net.cpp:434] L1_b6_brc3_conv <- L1_b6_brc3_bn_top
I1206 09:09:45.697772 22755 net.cpp:408] L1_b6_brc3_conv -> L1_b6_brc3_conv_top
I1206 09:09:45.698125 22755 net.cpp:150] Setting up L1_b6_brc3_conv
I1206 09:09:45.698145 22755 net.cpp:157] Top shape: 100 64 32 32 (6553600)
I1206 09:09:45.698154 22755 net.cpp:165] Memory required for data: 1108788400
I1206 09:09:45.698173 22755 layer_factory.hpp:77] Creating layer L1_b6_sum_eltwise
I1206 09:09:45.698191 22755 net.cpp:100] Creating Layer L1_b6_sum_eltwise
I1206 09:09:45.698204 22755 net.cpp:434] L1_b6_sum_eltwise <- L1_b6_brc3_conv_top
I1206 09:09:45.698217 22755 net.cpp:434] L1_b6_sum_eltwise <- L1_b5_sum_eltwise_top_L1_b5_sum_eltwise_0_split_1
I1206 09:09:45.698240 22755 net.cpp:408] L1_b6_sum_eltwise -> L1_b6_sum_eltwise_top
I1206 09:09:45.698302 22755 net.cpp:150] Setting up L1_b6_sum_eltwise
I1206 09:09:45.698319 22755 net.cpp:157] Top shape: 100 64 32 32 (6553600)
I1206 09:09:45.698328 22755 net.cpp:165] Memory required for data: 1135002800
I1206 09:09:45.698340 22755 layer_factory.hpp:77] Creating layer L1_b6_sum_eltwise_top_L1_b6_sum_eltwise_0_split
I1206 09:09:45.698357 22755 net.cpp:100] Creating Layer L1_b6_sum_eltwise_top_L1_b6_sum_eltwise_0_split
I1206 09:09:45.698369 22755 net.cpp:434] L1_b6_sum_eltwise_top_L1_b6_sum_eltwise_0_split <- L1_b6_sum_eltwise_top
I1206 09:09:45.698390 22755 net.cpp:408] L1_b6_sum_eltwise_top_L1_b6_sum_eltwise_0_split -> L1_b6_sum_eltwise_top_L1_b6_sum_eltwise_0_split_0
I1206 09:09:45.698410 22755 net.cpp:408] L1_b6_sum_eltwise_top_L1_b6_sum_eltwise_0_split -> L1_b6_sum_eltwise_top_L1_b6_sum_eltwise_0_split_1
I1206 09:09:45.698490 22755 net.cpp:150] Setting up L1_b6_sum_eltwise_top_L1_b6_sum_eltwise_0_split
I1206 09:09:45.698518 22755 net.cpp:157] Top shape: 100 64 32 32 (6553600)
I1206 09:09:45.698532 22755 net.cpp:157] Top shape: 100 64 32 32 (6553600)
I1206 09:09:45.698542 22755 net.cpp:165] Memory required for data: 1187431600
I1206 09:09:45.698554 22755 layer_factory.hpp:77] Creating layer L2_b1_brc1_bn
I1206 09:09:45.698571 22755 net.cpp:100] Creating Layer L2_b1_brc1_bn
I1206 09:09:45.698583 22755 net.cpp:434] L2_b1_brc1_bn <- L1_b6_sum_eltwise_top_L1_b6_sum_eltwise_0_split_0
I1206 09:09:45.698607 22755 net.cpp:408] L2_b1_brc1_bn -> L2_b1_brc1_bn_top
I1206 09:09:45.698915 22755 net.cpp:150] Setting up L2_b1_brc1_bn
I1206 09:09:45.698945 22755 net.cpp:157] Top shape: 100 64 32 32 (6553600)
I1206 09:09:45.698954 22755 net.cpp:165] Memory required for data: 1213646000
I1206 09:09:45.698976 22755 layer_factory.hpp:77] Creating layer L2_b1_brc1_relu
I1206 09:09:45.698995 22755 net.cpp:100] Creating Layer L2_b1_brc1_relu
I1206 09:09:45.699007 22755 net.cpp:434] L2_b1_brc1_relu <- L2_b1_brc1_bn_top
I1206 09:09:45.699023 22755 net.cpp:395] L2_b1_brc1_relu -> L2_b1_brc1_bn_top (in-place)
I1206 09:09:45.699043 22755 net.cpp:150] Setting up L2_b1_brc1_relu
I1206 09:09:45.699057 22755 net.cpp:157] Top shape: 100 64 32 32 (6553600)
I1206 09:09:45.699067 22755 net.cpp:165] Memory required for data: 1239860400
I1206 09:09:45.699080 22755 layer_factory.hpp:77] Creating layer L2_b1_brc1_conv
I1206 09:09:45.699110 22755 net.cpp:100] Creating Layer L2_b1_brc1_conv
I1206 09:09:45.699123 22755 net.cpp:434] L2_b1_brc1_conv <- L2_b1_brc1_bn_top
I1206 09:09:45.699146 22755 net.cpp:408] L2_b1_brc1_conv -> L2_b1_brc1_conv_top
I1206 09:09:45.699517 22755 net.cpp:150] Setting up L2_b1_brc1_conv
I1206 09:09:45.699537 22755 net.cpp:157] Top shape: 100 32 16 16 (819200)
I1206 09:09:45.699545 22755 net.cpp:165] Memory required for data: 1243137200
I1206 09:09:45.699565 22755 layer_factory.hpp:77] Creating layer L2_b1_brc2_bn
I1206 09:09:45.699589 22755 net.cpp:100] Creating Layer L2_b1_brc2_bn
I1206 09:09:45.699601 22755 net.cpp:434] L2_b1_brc2_bn <- L2_b1_brc1_conv_top
I1206 09:09:45.699623 22755 net.cpp:408] L2_b1_brc2_bn -> L2_b1_brc2_bn_top
I1206 09:09:45.699923 22755 net.cpp:150] Setting up L2_b1_brc2_bn
I1206 09:09:45.699944 22755 net.cpp:157] Top shape: 100 32 16 16 (819200)
I1206 09:09:45.699954 22755 net.cpp:165] Memory required for data: 1246414000
I1206 09:09:45.699976 22755 layer_factory.hpp:77] Creating layer L2_b1_brc2_relu
I1206 09:09:45.699995 22755 net.cpp:100] Creating Layer L2_b1_brc2_relu
I1206 09:09:45.700006 22755 net.cpp:434] L2_b1_brc2_relu <- L2_b1_brc2_bn_top
I1206 09:09:45.700037 22755 net.cpp:395] L2_b1_brc2_relu -> L2_b1_brc2_bn_top (in-place)
I1206 09:09:45.700057 22755 net.cpp:150] Setting up L2_b1_brc2_relu
I1206 09:09:45.700073 22755 net.cpp:157] Top shape: 100 32 16 16 (819200)
I1206 09:09:45.700083 22755 net.cpp:165] Memory required for data: 1249690800
I1206 09:09:45.700095 22755 layer_factory.hpp:77] Creating layer L2_b1_brc2_conv
I1206 09:09:45.700125 22755 net.cpp:100] Creating Layer L2_b1_brc2_conv
I1206 09:09:45.700139 22755 net.cpp:434] L2_b1_brc2_conv <- L2_b1_brc2_bn_top
I1206 09:09:45.700157 22755 net.cpp:408] L2_b1_brc2_conv -> L2_b1_brc2_conv_top
I1206 09:09:45.701942 22755 net.cpp:150] Setting up L2_b1_brc2_conv
I1206 09:09:45.701963 22755 net.cpp:157] Top shape: 100 32 16 16 (819200)
I1206 09:09:45.701973 22755 net.cpp:165] Memory required for data: 1252967600
I1206 09:09:45.701994 22755 layer_factory.hpp:77] Creating layer L2_b1_brc3_bn
I1206 09:09:45.702018 22755 net.cpp:100] Creating Layer L2_b1_brc3_bn
I1206 09:09:45.702031 22755 net.cpp:434] L2_b1_brc3_bn <- L2_b1_brc2_conv_top
I1206 09:09:45.702054 22755 net.cpp:408] L2_b1_brc3_bn -> L2_b1_brc3_bn_top
I1206 09:09:45.702343 22755 net.cpp:150] Setting up L2_b1_brc3_bn
I1206 09:09:45.702363 22755 net.cpp:157] Top shape: 100 32 16 16 (819200)
I1206 09:09:45.702371 22755 net.cpp:165] Memory required for data: 1256244400
I1206 09:09:45.702395 22755 layer_factory.hpp:77] Creating layer L2_b1_brc3_relu
I1206 09:09:45.702414 22755 net.cpp:100] Creating Layer L2_b1_brc3_relu
I1206 09:09:45.702425 22755 net.cpp:434] L2_b1_brc3_relu <- L2_b1_brc3_bn_top
I1206 09:09:45.702440 22755 net.cpp:395] L2_b1_brc3_relu -> L2_b1_brc3_bn_top (in-place)
I1206 09:09:45.702461 22755 net.cpp:150] Setting up L2_b1_brc3_relu
I1206 09:09:45.702476 22755 net.cpp:157] Top shape: 100 32 16 16 (819200)
I1206 09:09:45.702484 22755 net.cpp:165] Memory required for data: 1259521200
I1206 09:09:45.702495 22755 layer_factory.hpp:77] Creating layer L2_b1_brc3_conv
I1206 09:09:45.702525 22755 net.cpp:100] Creating Layer L2_b1_brc3_conv
I1206 09:09:45.702539 22755 net.cpp:434] L2_b1_brc3_conv <- L2_b1_brc3_bn_top
I1206 09:09:45.702569 22755 net.cpp:408] L2_b1_brc3_conv -> L2_b1_brc3_conv_top
I1206 09:09:45.703032 22755 net.cpp:150] Setting up L2_b1_brc3_conv
I1206 09:09:45.703052 22755 net.cpp:157] Top shape: 100 128 16 16 (3276800)
I1206 09:09:45.703063 22755 net.cpp:165] Memory required for data: 1272628400
I1206 09:09:45.703083 22755 layer_factory.hpp:77] Creating layer L2_b1_chanInc_conv
I1206 09:09:45.703112 22755 net.cpp:100] Creating Layer L2_b1_chanInc_conv
I1206 09:09:45.703127 22755 net.cpp:434] L2_b1_chanInc_conv <- L1_b6_sum_eltwise_top_L1_b6_sum_eltwise_0_split_1
I1206 09:09:45.703152 22755 net.cpp:408] L2_b1_chanInc_conv -> L2_b1_chanInc_conv_top
I1206 09:09:45.703639 22755 net.cpp:150] Setting up L2_b1_chanInc_conv
I1206 09:09:45.703658 22755 net.cpp:157] Top shape: 100 128 16 16 (3276800)
I1206 09:09:45.703667 22755 net.cpp:165] Memory required for data: 1285735600
I1206 09:09:45.703687 22755 layer_factory.hpp:77] Creating layer L2_b1_sum_eltwise
I1206 09:09:45.703707 22755 net.cpp:100] Creating Layer L2_b1_sum_eltwise
I1206 09:09:45.703718 22755 net.cpp:434] L2_b1_sum_eltwise <- L2_b1_brc3_conv_top
I1206 09:09:45.703732 22755 net.cpp:434] L2_b1_sum_eltwise <- L2_b1_chanInc_conv_top
I1206 09:09:45.703758 22755 net.cpp:408] L2_b1_sum_eltwise -> L2_b1_sum_eltwise_top
I1206 09:09:45.703810 22755 net.cpp:150] Setting up L2_b1_sum_eltwise
I1206 09:09:45.703830 22755 net.cpp:157] Top shape: 100 128 16 16 (3276800)
I1206 09:09:45.703838 22755 net.cpp:165] Memory required for data: 1298842800
I1206 09:09:45.703850 22755 layer_factory.hpp:77] Creating layer L2_b1_sum_eltwise_top_L2_b1_sum_eltwise_0_split
I1206 09:09:45.703871 22755 net.cpp:100] Creating Layer L2_b1_sum_eltwise_top_L2_b1_sum_eltwise_0_split
I1206 09:09:45.703884 22755 net.cpp:434] L2_b1_sum_eltwise_top_L2_b1_sum_eltwise_0_split <- L2_b1_sum_eltwise_top
I1206 09:09:45.703900 22755 net.cpp:408] L2_b1_sum_eltwise_top_L2_b1_sum_eltwise_0_split -> L2_b1_sum_eltwise_top_L2_b1_sum_eltwise_0_split_0
I1206 09:09:45.703920 22755 net.cpp:408] L2_b1_sum_eltwise_top_L2_b1_sum_eltwise_0_split -> L2_b1_sum_eltwise_top_L2_b1_sum_eltwise_0_split_1
I1206 09:09:45.704008 22755 net.cpp:150] Setting up L2_b1_sum_eltwise_top_L2_b1_sum_eltwise_0_split
I1206 09:09:45.704030 22755 net.cpp:157] Top shape: 100 128 16 16 (3276800)
I1206 09:09:45.704044 22755 net.cpp:157] Top shape: 100 128 16 16 (3276800)
I1206 09:09:45.704053 22755 net.cpp:165] Memory required for data: 1325057200
I1206 09:09:45.704064 22755 layer_factory.hpp:77] Creating layer L2_b2_brc1_bn
I1206 09:09:45.704087 22755 net.cpp:100] Creating Layer L2_b2_brc1_bn
I1206 09:09:45.704102 22755 net.cpp:434] L2_b2_brc1_bn <- L2_b1_sum_eltwise_top_L2_b1_sum_eltwise_0_split_0
I1206 09:09:45.704118 22755 net.cpp:408] L2_b2_brc1_bn -> L2_b2_brc1_bn_top
I1206 09:09:45.704401 22755 net.cpp:150] Setting up L2_b2_brc1_bn
I1206 09:09:45.704419 22755 net.cpp:157] Top shape: 100 128 16 16 (3276800)
I1206 09:09:45.704428 22755 net.cpp:165] Memory required for data: 1338164400
I1206 09:09:45.704452 22755 layer_factory.hpp:77] Creating layer L2_b2_brc1_relu
I1206 09:09:45.704476 22755 net.cpp:100] Creating Layer L2_b2_brc1_relu
I1206 09:09:45.704489 22755 net.cpp:434] L2_b2_brc1_relu <- L2_b2_brc1_bn_top
I1206 09:09:45.704504 22755 net.cpp:395] L2_b2_brc1_relu -> L2_b2_brc1_bn_top (in-place)
I1206 09:09:45.704524 22755 net.cpp:150] Setting up L2_b2_brc1_relu
I1206 09:09:45.704540 22755 net.cpp:157] Top shape: 100 128 16 16 (3276800)
I1206 09:09:45.704550 22755 net.cpp:165] Memory required for data: 1351271600
I1206 09:09:45.704562 22755 layer_factory.hpp:77] Creating layer L2_b2_brc1_conv
I1206 09:09:45.704586 22755 net.cpp:100] Creating Layer L2_b2_brc1_conv
I1206 09:09:45.704598 22755 net.cpp:434] L2_b2_brc1_conv <- L2_b2_brc1_bn_top
I1206 09:09:45.704622 22755 net.cpp:408] L2_b2_brc1_conv -> L2_b2_brc1_conv_top
I1206 09:09:45.705051 22755 net.cpp:150] Setting up L2_b2_brc1_conv
I1206 09:09:45.705071 22755 net.cpp:157] Top shape: 100 32 16 16 (819200)
I1206 09:09:45.705081 22755 net.cpp:165] Memory required for data: 1354548400
I1206 09:09:45.705111 22755 layer_factory.hpp:77] Creating layer L2_b2_brc2_bn
I1206 09:09:45.705128 22755 net.cpp:100] Creating Layer L2_b2_brc2_bn
I1206 09:09:45.705140 22755 net.cpp:434] L2_b2_brc2_bn <- L2_b2_brc1_conv_top
I1206 09:09:45.705163 22755 net.cpp:408] L2_b2_brc2_bn -> L2_b2_brc2_bn_top
I1206 09:09:45.705480 22755 net.cpp:150] Setting up L2_b2_brc2_bn
I1206 09:09:45.705500 22755 net.cpp:157] Top shape: 100 32 16 16 (819200)
I1206 09:09:45.705509 22755 net.cpp:165] Memory required for data: 1357825200
I1206 09:09:45.705533 22755 layer_factory.hpp:77] Creating layer L2_b2_brc2_relu
I1206 09:09:45.705559 22755 net.cpp:100] Creating Layer L2_b2_brc2_relu
I1206 09:09:45.705571 22755 net.cpp:434] L2_b2_brc2_relu <- L2_b2_brc2_bn_top
I1206 09:09:45.705586 22755 net.cpp:395] L2_b2_brc2_relu -> L2_b2_brc2_bn_top (in-place)
I1206 09:09:45.705606 22755 net.cpp:150] Setting up L2_b2_brc2_relu
I1206 09:09:45.705621 22755 net.cpp:157] Top shape: 100 32 16 16 (819200)
I1206 09:09:45.705631 22755 net.cpp:165] Memory required for data: 1361102000
I1206 09:09:45.705642 22755 layer_factory.hpp:77] Creating layer L2_b2_brc2_conv
I1206 09:09:45.705664 22755 net.cpp:100] Creating Layer L2_b2_brc2_conv
I1206 09:09:45.705677 22755 net.cpp:434] L2_b2_brc2_conv <- L2_b2_brc2_bn_top
I1206 09:09:45.705700 22755 net.cpp:408] L2_b2_brc2_conv -> L2_b2_brc2_conv_top
I1206 09:09:45.706223 22755 net.cpp:150] Setting up L2_b2_brc2_conv
I1206 09:09:45.706243 22755 net.cpp:157] Top shape: 100 32 16 16 (819200)
I1206 09:09:45.706252 22755 net.cpp:165] Memory required for data: 1364378800
I1206 09:09:45.706272 22755 layer_factory.hpp:77] Creating layer L2_b2_brc3_bn
I1206 09:09:45.706291 22755 net.cpp:100] Creating Layer L2_b2_brc3_bn
I1206 09:09:45.706303 22755 net.cpp:434] L2_b2_brc3_bn <- L2_b2_brc2_conv_top
I1206 09:09:45.706320 22755 net.cpp:408] L2_b2_brc3_bn -> L2_b2_brc3_bn_top
I1206 09:09:45.706609 22755 net.cpp:150] Setting up L2_b2_brc3_bn
I1206 09:09:45.706629 22755 net.cpp:157] Top shape: 100 32 16 16 (819200)
I1206 09:09:45.706637 22755 net.cpp:165] Memory required for data: 1367655600
I1206 09:09:45.706660 22755 layer_factory.hpp:77] Creating layer L2_b2_brc3_relu
I1206 09:09:45.706678 22755 net.cpp:100] Creating Layer L2_b2_brc3_relu
I1206 09:09:45.706691 22755 net.cpp:434] L2_b2_brc3_relu <- L2_b2_brc3_bn_top
I1206 09:09:45.706710 22755 net.cpp:395] L2_b2_brc3_relu -> L2_b2_brc3_bn_top (in-place)
I1206 09:09:45.706732 22755 net.cpp:150] Setting up L2_b2_brc3_relu
I1206 09:09:45.706746 22755 net.cpp:157] Top shape: 100 32 16 16 (819200)
I1206 09:09:45.706756 22755 net.cpp:165] Memory required for data: 1370932400
I1206 09:09:45.706768 22755 layer_factory.hpp:77] Creating layer L2_b2_brc3_conv
I1206 09:09:45.706804 22755 net.cpp:100] Creating Layer L2_b2_brc3_conv
I1206 09:09:45.706820 22755 net.cpp:434] L2_b2_brc3_conv <- L2_b2_brc3_bn_top
I1206 09:09:45.706837 22755 net.cpp:408] L2_b2_brc3_conv -> L2_b2_brc3_conv_top
I1206 09:09:45.707260 22755 net.cpp:150] Setting up L2_b2_brc3_conv
I1206 09:09:45.707280 22755 net.cpp:157] Top shape: 100 128 16 16 (3276800)
I1206 09:09:45.707289 22755 net.cpp:165] Memory required for data: 1384039600
I1206 09:09:45.707309 22755 layer_factory.hpp:77] Creating layer L2_b2_sum_eltwise
I1206 09:09:45.707329 22755 net.cpp:100] Creating Layer L2_b2_sum_eltwise
I1206 09:09:45.707341 22755 net.cpp:434] L2_b2_sum_eltwise <- L2_b2_brc3_conv_top
I1206 09:09:45.707355 22755 net.cpp:434] L2_b2_sum_eltwise <- L2_b1_sum_eltwise_top_L2_b1_sum_eltwise_0_split_1
I1206 09:09:45.707377 22755 net.cpp:408] L2_b2_sum_eltwise -> L2_b2_sum_eltwise_top
I1206 09:09:45.707424 22755 net.cpp:150] Setting up L2_b2_sum_eltwise
I1206 09:09:45.707442 22755 net.cpp:157] Top shape: 100 128 16 16 (3276800)
I1206 09:09:45.707453 22755 net.cpp:165] Memory required for data: 1397146800
I1206 09:09:45.707465 22755 layer_factory.hpp:77] Creating layer L2_b2_sum_eltwise_top_L2_b2_sum_eltwise_0_split
I1206 09:09:45.707494 22755 net.cpp:100] Creating Layer L2_b2_sum_eltwise_top_L2_b2_sum_eltwise_0_split
I1206 09:09:45.707509 22755 net.cpp:434] L2_b2_sum_eltwise_top_L2_b2_sum_eltwise_0_split <- L2_b2_sum_eltwise_top
I1206 09:09:45.707535 22755 net.cpp:408] L2_b2_sum_eltwise_top_L2_b2_sum_eltwise_0_split -> L2_b2_sum_eltwise_top_L2_b2_sum_eltwise_0_split_0
I1206 09:09:45.707556 22755 net.cpp:408] L2_b2_sum_eltwise_top_L2_b2_sum_eltwise_0_split -> L2_b2_sum_eltwise_top_L2_b2_sum_eltwise_0_split_1
I1206 09:09:45.707648 22755 net.cpp:150] Setting up L2_b2_sum_eltwise_top_L2_b2_sum_eltwise_0_split
I1206 09:09:45.707667 22755 net.cpp:157] Top shape: 100 128 16 16 (3276800)
I1206 09:09:45.707680 22755 net.cpp:157] Top shape: 100 128 16 16 (3276800)
I1206 09:09:45.707690 22755 net.cpp:165] Memory required for data: 1423361200
I1206 09:09:45.707705 22755 layer_factory.hpp:77] Creating layer L2_b3_brc1_bn
I1206 09:09:45.707726 22755 net.cpp:100] Creating Layer L2_b3_brc1_bn
I1206 09:09:45.707738 22755 net.cpp:434] L2_b3_brc1_bn <- L2_b2_sum_eltwise_top_L2_b2_sum_eltwise_0_split_0
I1206 09:09:45.707754 22755 net.cpp:408] L2_b3_brc1_bn -> L2_b3_brc1_bn_top
I1206 09:09:45.708051 22755 net.cpp:150] Setting up L2_b3_brc1_bn
I1206 09:09:45.708071 22755 net.cpp:157] Top shape: 100 128 16 16 (3276800)
I1206 09:09:45.708081 22755 net.cpp:165] Memory required for data: 1436468400
I1206 09:09:45.708135 22755 layer_factory.hpp:77] Creating layer L2_b3_brc1_relu
I1206 09:09:45.708159 22755 net.cpp:100] Creating Layer L2_b3_brc1_relu
I1206 09:09:45.708173 22755 net.cpp:434] L2_b3_brc1_relu <- L2_b3_brc1_bn_top
I1206 09:09:45.708187 22755 net.cpp:395] L2_b3_brc1_relu -> L2_b3_brc1_bn_top (in-place)
I1206 09:09:45.708207 22755 net.cpp:150] Setting up L2_b3_brc1_relu
I1206 09:09:45.708221 22755 net.cpp:157] Top shape: 100 128 16 16 (3276800)
I1206 09:09:45.708232 22755 net.cpp:165] Memory required for data: 1449575600
I1206 09:09:45.708243 22755 layer_factory.hpp:77] Creating layer L2_b3_brc1_conv
I1206 09:09:45.708272 22755 net.cpp:100] Creating Layer L2_b3_brc1_conv
I1206 09:09:45.708286 22755 net.cpp:434] L2_b3_brc1_conv <- L2_b3_brc1_bn_top
I1206 09:09:45.708304 22755 net.cpp:408] L2_b3_brc1_conv -> L2_b3_brc1_conv_top
I1206 09:09:45.708724 22755 net.cpp:150] Setting up L2_b3_brc1_conv
I1206 09:09:45.708744 22755 net.cpp:157] Top shape: 100 32 16 16 (819200)
I1206 09:09:45.708752 22755 net.cpp:165] Memory required for data: 1452852400
I1206 09:09:45.708772 22755 layer_factory.hpp:77] Creating layer L2_b3_brc2_bn
I1206 09:09:45.708803 22755 net.cpp:100] Creating Layer L2_b3_brc2_bn
I1206 09:09:45.708818 22755 net.cpp:434] L2_b3_brc2_bn <- L2_b3_brc1_conv_top
I1206 09:09:45.708837 22755 net.cpp:408] L2_b3_brc2_bn -> L2_b3_brc2_bn_top
I1206 09:09:45.709137 22755 net.cpp:150] Setting up L2_b3_brc2_bn
I1206 09:09:45.709161 22755 net.cpp:157] Top shape: 100 32 16 16 (819200)
I1206 09:09:45.709172 22755 net.cpp:165] Memory required for data: 1456129200
I1206 09:09:45.709193 22755 layer_factory.hpp:77] Creating layer L2_b3_brc2_relu
I1206 09:09:45.709210 22755 net.cpp:100] Creating Layer L2_b3_brc2_relu
I1206 09:09:45.709223 22755 net.cpp:434] L2_b3_brc2_relu <- L2_b3_brc2_bn_top
I1206 09:09:45.709237 22755 net.cpp:395] L2_b3_brc2_relu -> L2_b3_brc2_bn_top (in-place)
I1206 09:09:45.709257 22755 net.cpp:150] Setting up L2_b3_brc2_relu
I1206 09:09:45.709272 22755 net.cpp:157] Top shape: 100 32 16 16 (819200)
I1206 09:09:45.709281 22755 net.cpp:165] Memory required for data: 1459406000
I1206 09:09:45.709295 22755 layer_factory.hpp:77] Creating layer L2_b3_brc2_conv
I1206 09:09:45.709317 22755 net.cpp:100] Creating Layer L2_b3_brc2_conv
I1206 09:09:45.709331 22755 net.cpp:434] L2_b3_brc2_conv <- L2_b3_brc2_bn_top
I1206 09:09:45.709353 22755 net.cpp:408] L2_b3_brc2_conv -> L2_b3_brc2_conv_top
I1206 09:09:45.709887 22755 net.cpp:150] Setting up L2_b3_brc2_conv
I1206 09:09:45.709906 22755 net.cpp:157] Top shape: 100 32 16 16 (819200)
I1206 09:09:45.709915 22755 net.cpp:165] Memory required for data: 1462682800
I1206 09:09:45.709936 22755 layer_factory.hpp:77] Creating layer L2_b3_brc3_bn
I1206 09:09:45.709959 22755 net.cpp:100] Creating Layer L2_b3_brc3_bn
I1206 09:09:45.709972 22755 net.cpp:434] L2_b3_brc3_bn <- L2_b3_brc2_conv_top
I1206 09:09:45.710000 22755 net.cpp:408] L2_b3_brc3_bn -> L2_b3_brc3_bn_top
I1206 09:09:45.710300 22755 net.cpp:150] Setting up L2_b3_brc3_bn
I1206 09:09:45.710319 22755 net.cpp:157] Top shape: 100 32 16 16 (819200)
I1206 09:09:45.710330 22755 net.cpp:165] Memory required for data: 1465959600
I1206 09:09:45.710352 22755 layer_factory.hpp:77] Creating layer L2_b3_brc3_relu
I1206 09:09:45.710376 22755 net.cpp:100] Creating Layer L2_b3_brc3_relu
I1206 09:09:45.710389 22755 net.cpp:434] L2_b3_brc3_relu <- L2_b3_brc3_bn_top
I1206 09:09:45.710404 22755 net.cpp:395] L2_b3_brc3_relu -> L2_b3_brc3_bn_top (in-place)
I1206 09:09:45.710423 22755 net.cpp:150] Setting up L2_b3_brc3_relu
I1206 09:09:45.710438 22755 net.cpp:157] Top shape: 100 32 16 16 (819200)
I1206 09:09:45.710448 22755 net.cpp:165] Memory required for data: 1469236400
I1206 09:09:45.710458 22755 layer_factory.hpp:77] Creating layer L2_b3_brc3_conv
I1206 09:09:45.710481 22755 net.cpp:100] Creating Layer L2_b3_brc3_conv
I1206 09:09:45.710494 22755 net.cpp:434] L2_b3_brc3_conv <- L2_b3_brc3_bn_top
I1206 09:09:45.710518 22755 net.cpp:408] L2_b3_brc3_conv -> L2_b3_brc3_conv_top
I1206 09:09:45.710942 22755 net.cpp:150] Setting up L2_b3_brc3_conv
I1206 09:09:45.710961 22755 net.cpp:157] Top shape: 100 128 16 16 (3276800)
I1206 09:09:45.710970 22755 net.cpp:165] Memory required for data: 1482343600
I1206 09:09:45.710990 22755 layer_factory.hpp:77] Creating layer L2_b3_sum_eltwise
I1206 09:09:45.711009 22755 net.cpp:100] Creating Layer L2_b3_sum_eltwise
I1206 09:09:45.711020 22755 net.cpp:434] L2_b3_sum_eltwise <- L2_b3_brc3_conv_top
I1206 09:09:45.711035 22755 net.cpp:434] L2_b3_sum_eltwise <- L2_b2_sum_eltwise_top_L2_b2_sum_eltwise_0_split_1
I1206 09:09:45.711051 22755 net.cpp:408] L2_b3_sum_eltwise -> L2_b3_sum_eltwise_top
I1206 09:09:45.711104 22755 net.cpp:150] Setting up L2_b3_sum_eltwise
I1206 09:09:45.711123 22755 net.cpp:157] Top shape: 100 128 16 16 (3276800)
I1206 09:09:45.711133 22755 net.cpp:165] Memory required for data: 1495450800
I1206 09:09:45.711145 22755 layer_factory.hpp:77] Creating layer L2_b3_sum_eltwise_top_L2_b3_sum_eltwise_0_split
I1206 09:09:45.711163 22755 net.cpp:100] Creating Layer L2_b3_sum_eltwise_top_L2_b3_sum_eltwise_0_split
I1206 09:09:45.711174 22755 net.cpp:434] L2_b3_sum_eltwise_top_L2_b3_sum_eltwise_0_split <- L2_b3_sum_eltwise_top
I1206 09:09:45.711195 22755 net.cpp:408] L2_b3_sum_eltwise_top_L2_b3_sum_eltwise_0_split -> L2_b3_sum_eltwise_top_L2_b3_sum_eltwise_0_split_0
I1206 09:09:45.711216 22755 net.cpp:408] L2_b3_sum_eltwise_top_L2_b3_sum_eltwise_0_split -> L2_b3_sum_eltwise_top_L2_b3_sum_eltwise_0_split_1
I1206 09:09:45.711298 22755 net.cpp:150] Setting up L2_b3_sum_eltwise_top_L2_b3_sum_eltwise_0_split
I1206 09:09:45.711324 22755 net.cpp:157] Top shape: 100 128 16 16 (3276800)
I1206 09:09:45.711339 22755 net.cpp:157] Top shape: 100 128 16 16 (3276800)
I1206 09:09:45.711349 22755 net.cpp:165] Memory required for data: 1521665200
I1206 09:09:45.711359 22755 layer_factory.hpp:77] Creating layer L2_b4_brc1_bn
I1206 09:09:45.711374 22755 net.cpp:100] Creating Layer L2_b4_brc1_bn
I1206 09:09:45.711387 22755 net.cpp:434] L2_b4_brc1_bn <- L2_b3_sum_eltwise_top_L2_b3_sum_eltwise_0_split_0
I1206 09:09:45.711410 22755 net.cpp:408] L2_b4_brc1_bn -> L2_b4_brc1_bn_top
I1206 09:09:45.711700 22755 net.cpp:150] Setting up L2_b4_brc1_bn
I1206 09:09:45.711719 22755 net.cpp:157] Top shape: 100 128 16 16 (3276800)
I1206 09:09:45.711727 22755 net.cpp:165] Memory required for data: 1534772400
I1206 09:09:45.711750 22755 layer_factory.hpp:77] Creating layer L2_b4_brc1_relu
I1206 09:09:45.711769 22755 net.cpp:100] Creating Layer L2_b4_brc1_relu
I1206 09:09:45.711781 22755 net.cpp:434] L2_b4_brc1_relu <- L2_b4_brc1_bn_top
I1206 09:09:45.711808 22755 net.cpp:395] L2_b4_brc1_relu -> L2_b4_brc1_bn_top (in-place)
I1206 09:09:45.711830 22755 net.cpp:150] Setting up L2_b4_brc1_relu
I1206 09:09:45.711845 22755 net.cpp:157] Top shape: 100 128 16 16 (3276800)
I1206 09:09:45.711854 22755 net.cpp:165] Memory required for data: 1547879600
I1206 09:09:45.711874 22755 layer_factory.hpp:77] Creating layer L2_b4_brc1_conv
I1206 09:09:45.711899 22755 net.cpp:100] Creating Layer L2_b4_brc1_conv
I1206 09:09:45.711911 22755 net.cpp:434] L2_b4_brc1_conv <- L2_b4_brc1_bn_top
I1206 09:09:45.711930 22755 net.cpp:408] L2_b4_brc1_conv -> L2_b4_brc1_conv_top
I1206 09:09:45.712358 22755 net.cpp:150] Setting up L2_b4_brc1_conv
I1206 09:09:45.712378 22755 net.cpp:157] Top shape: 100 32 16 16 (819200)
I1206 09:09:45.712388 22755 net.cpp:165] Memory required for data: 1551156400
I1206 09:09:45.712409 22755 layer_factory.hpp:77] Creating layer L2_b4_brc2_bn
I1206 09:09:45.712432 22755 net.cpp:100] Creating Layer L2_b4_brc2_bn
I1206 09:09:45.712445 22755 net.cpp:434] L2_b4_brc2_bn <- L2_b4_brc1_conv_top
I1206 09:09:45.712462 22755 net.cpp:408] L2_b4_brc2_bn -> L2_b4_brc2_bn_top
I1206 09:09:45.712751 22755 net.cpp:150] Setting up L2_b4_brc2_bn
I1206 09:09:45.712769 22755 net.cpp:157] Top shape: 100 32 16 16 (819200)
I1206 09:09:45.712779 22755 net.cpp:165] Memory required for data: 1554433200
I1206 09:09:45.712810 22755 layer_factory.hpp:77] Creating layer L2_b4_brc2_relu
I1206 09:09:45.712831 22755 net.cpp:100] Creating Layer L2_b4_brc2_relu
I1206 09:09:45.712842 22755 net.cpp:434] L2_b4_brc2_relu <- L2_b4_brc2_bn_top
I1206 09:09:45.712865 22755 net.cpp:395] L2_b4_brc2_relu -> L2_b4_brc2_bn_top (in-place)
I1206 09:09:45.712887 22755 net.cpp:150] Setting up L2_b4_brc2_relu
I1206 09:09:45.712901 22755 net.cpp:157] Top shape: 100 32 16 16 (819200)
I1206 09:09:45.712910 22755 net.cpp:165] Memory required for data: 1557710000
I1206 09:09:45.712921 22755 layer_factory.hpp:77] Creating layer L2_b4_brc2_conv
I1206 09:09:45.712949 22755 net.cpp:100] Creating Layer L2_b4_brc2_conv
I1206 09:09:45.712962 22755 net.cpp:434] L2_b4_brc2_conv <- L2_b4_brc2_bn_top
I1206 09:09:45.712980 22755 net.cpp:408] L2_b4_brc2_conv -> L2_b4_brc2_conv_top
I1206 09:09:45.713490 22755 net.cpp:150] Setting up L2_b4_brc2_conv
I1206 09:09:45.713510 22755 net.cpp:157] Top shape: 100 32 16 16 (819200)
I1206 09:09:45.713518 22755 net.cpp:165] Memory required for data: 1560986800
I1206 09:09:45.713537 22755 layer_factory.hpp:77] Creating layer L2_b4_brc3_bn
I1206 09:09:45.713562 22755 net.cpp:100] Creating Layer L2_b4_brc3_bn
I1206 09:09:45.713573 22755 net.cpp:434] L2_b4_brc3_bn <- L2_b4_brc2_conv_top
I1206 09:09:45.713589 22755 net.cpp:408] L2_b4_brc3_bn -> L2_b4_brc3_bn_top
I1206 09:09:45.713892 22755 net.cpp:150] Setting up L2_b4_brc3_bn
I1206 09:09:45.713912 22755 net.cpp:157] Top shape: 100 32 16 16 (819200)
I1206 09:09:45.713920 22755 net.cpp:165] Memory required for data: 1564263600
I1206 09:09:45.713943 22755 layer_factory.hpp:77] Creating layer L2_b4_brc3_relu
I1206 09:09:45.713959 22755 net.cpp:100] Creating Layer L2_b4_brc3_relu
I1206 09:09:45.713970 22755 net.cpp:434] L2_b4_brc3_relu <- L2_b4_brc3_bn_top
I1206 09:09:45.713985 22755 net.cpp:395] L2_b4_brc3_relu -> L2_b4_brc3_bn_top (in-place)
I1206 09:09:45.714005 22755 net.cpp:150] Setting up L2_b4_brc3_relu
I1206 09:09:45.714020 22755 net.cpp:157] Top shape: 100 32 16 16 (819200)
I1206 09:09:45.714030 22755 net.cpp:165] Memory required for data: 1567540400
I1206 09:09:45.714040 22755 layer_factory.hpp:77] Creating layer L2_b4_brc3_conv
I1206 09:09:45.714066 22755 net.cpp:100] Creating Layer L2_b4_brc3_conv
I1206 09:09:45.714079 22755 net.cpp:434] L2_b4_brc3_conv <- L2_b4_brc3_bn_top
I1206 09:09:45.714102 22755 net.cpp:408] L2_b4_brc3_conv -> L2_b4_brc3_conv_top
I1206 09:09:45.714511 22755 net.cpp:150] Setting up L2_b4_brc3_conv
I1206 09:09:45.714530 22755 net.cpp:157] Top shape: 100 128 16 16 (3276800)
I1206 09:09:45.714540 22755 net.cpp:165] Memory required for data: 1580647600
I1206 09:09:45.714557 22755 layer_factory.hpp:77] Creating layer L2_b4_sum_eltwise
I1206 09:09:45.714581 22755 net.cpp:100] Creating Layer L2_b4_sum_eltwise
I1206 09:09:45.714594 22755 net.cpp:434] L2_b4_sum_eltwise <- L2_b4_brc3_conv_top
I1206 09:09:45.714608 22755 net.cpp:434] L2_b4_sum_eltwise <- L2_b3_sum_eltwise_top_L2_b3_sum_eltwise_0_split_1
I1206 09:09:45.714640 22755 net.cpp:408] L2_b4_sum_eltwise -> L2_b4_sum_eltwise_top
I1206 09:09:45.714689 22755 net.cpp:150] Setting up L2_b4_sum_eltwise
I1206 09:09:45.714709 22755 net.cpp:157] Top shape: 100 128 16 16 (3276800)
I1206 09:09:45.714718 22755 net.cpp:165] Memory required for data: 1593754800
I1206 09:09:45.714730 22755 layer_factory.hpp:77] Creating layer L2_b4_sum_eltwise_top_L2_b4_sum_eltwise_0_split
I1206 09:09:45.714745 22755 net.cpp:100] Creating Layer L2_b4_sum_eltwise_top_L2_b4_sum_eltwise_0_split
I1206 09:09:45.714756 22755 net.cpp:434] L2_b4_sum_eltwise_top_L2_b4_sum_eltwise_0_split <- L2_b4_sum_eltwise_top
I1206 09:09:45.714777 22755 net.cpp:408] L2_b4_sum_eltwise_top_L2_b4_sum_eltwise_0_split -> L2_b4_sum_eltwise_top_L2_b4_sum_eltwise_0_split_0
I1206 09:09:45.714807 22755 net.cpp:408] L2_b4_sum_eltwise_top_L2_b4_sum_eltwise_0_split -> L2_b4_sum_eltwise_top_L2_b4_sum_eltwise_0_split_1
I1206 09:09:45.714893 22755 net.cpp:150] Setting up L2_b4_sum_eltwise_top_L2_b4_sum_eltwise_0_split
I1206 09:09:45.714920 22755 net.cpp:157] Top shape: 100 128 16 16 (3276800)
I1206 09:09:45.714936 22755 net.cpp:157] Top shape: 100 128 16 16 (3276800)
I1206 09:09:45.714944 22755 net.cpp:165] Memory required for data: 1619969200
I1206 09:09:45.714956 22755 layer_factory.hpp:77] Creating layer L2_b5_brc1_bn
I1206 09:09:45.714970 22755 net.cpp:100] Creating Layer L2_b5_brc1_bn
I1206 09:09:45.714982 22755 net.cpp:434] L2_b5_brc1_bn <- L2_b4_sum_eltwise_top_L2_b4_sum_eltwise_0_split_0
I1206 09:09:45.715005 22755 net.cpp:408] L2_b5_brc1_bn -> L2_b5_brc1_bn_top
I1206 09:09:45.715289 22755 net.cpp:150] Setting up L2_b5_brc1_bn
I1206 09:09:45.715308 22755 net.cpp:157] Top shape: 100 128 16 16 (3276800)
I1206 09:09:45.715317 22755 net.cpp:165] Memory required for data: 1633076400
I1206 09:09:45.715338 22755 layer_factory.hpp:77] Creating layer L2_b5_brc1_relu
I1206 09:09:45.715355 22755 net.cpp:100] Creating Layer L2_b5_brc1_relu
I1206 09:09:45.715366 22755 net.cpp:434] L2_b5_brc1_relu <- L2_b5_brc1_bn_top
I1206 09:09:45.715381 22755 net.cpp:395] L2_b5_brc1_relu -> L2_b5_brc1_bn_top (in-place)
I1206 09:09:45.715401 22755 net.cpp:150] Setting up L2_b5_brc1_relu
I1206 09:09:45.715415 22755 net.cpp:157] Top shape: 100 128 16 16 (3276800)
I1206 09:09:45.715425 22755 net.cpp:165] Memory required for data: 1646183600
I1206 09:09:45.715435 22755 layer_factory.hpp:77] Creating layer L2_b5_brc1_conv
I1206 09:09:45.715461 22755 net.cpp:100] Creating Layer L2_b5_brc1_conv
I1206 09:09:45.715476 22755 net.cpp:434] L2_b5_brc1_conv <- L2_b5_brc1_bn_top
I1206 09:09:45.715492 22755 net.cpp:408] L2_b5_brc1_conv -> L2_b5_brc1_conv_top
I1206 09:09:45.715914 22755 net.cpp:150] Setting up L2_b5_brc1_conv
I1206 09:09:45.715935 22755 net.cpp:157] Top shape: 100 32 16 16 (819200)
I1206 09:09:45.715945 22755 net.cpp:165] Memory required for data: 1649460400
I1206 09:09:45.715961 22755 layer_factory.hpp:77] Creating layer L2_b5_brc2_bn
I1206 09:09:45.715986 22755 net.cpp:100] Creating Layer L2_b5_brc2_bn
I1206 09:09:45.715999 22755 net.cpp:434] L2_b5_brc2_bn <- L2_b5_brc1_conv_top
I1206 09:09:45.716017 22755 net.cpp:408] L2_b5_brc2_bn -> L2_b5_brc2_bn_top
I1206 09:09:45.716311 22755 net.cpp:150] Setting up L2_b5_brc2_bn
I1206 09:09:45.716336 22755 net.cpp:157] Top shape: 100 32 16 16 (819200)
I1206 09:09:45.716346 22755 net.cpp:165] Memory required for data: 1652737200
I1206 09:09:45.716367 22755 layer_factory.hpp:77] Creating layer L2_b5_brc2_relu
I1206 09:09:45.716384 22755 net.cpp:100] Creating Layer L2_b5_brc2_relu
I1206 09:09:45.716395 22755 net.cpp:434] L2_b5_brc2_relu <- L2_b5_brc2_bn_top
I1206 09:09:45.716410 22755 net.cpp:395] L2_b5_brc2_relu -> L2_b5_brc2_bn_top (in-place)
I1206 09:09:45.716429 22755 net.cpp:150] Setting up L2_b5_brc2_relu
I1206 09:09:45.716444 22755 net.cpp:157] Top shape: 100 32 16 16 (819200)
I1206 09:09:45.716454 22755 net.cpp:165] Memory required for data: 1656014000
I1206 09:09:45.716464 22755 layer_factory.hpp:77] Creating layer L2_b5_brc2_conv
I1206 09:09:45.716485 22755 net.cpp:100] Creating Layer L2_b5_brc2_conv
I1206 09:09:45.716507 22755 net.cpp:434] L2_b5_brc2_conv <- L2_b5_brc2_bn_top
I1206 09:09:45.716534 22755 net.cpp:408] L2_b5_brc2_conv -> L2_b5_brc2_conv_top
I1206 09:09:45.717075 22755 net.cpp:150] Setting up L2_b5_brc2_conv
I1206 09:09:45.717097 22755 net.cpp:157] Top shape: 100 32 16 16 (819200)
I1206 09:09:45.717105 22755 net.cpp:165] Memory required for data: 1659290800
I1206 09:09:45.717124 22755 layer_factory.hpp:77] Creating layer L2_b5_brc3_bn
I1206 09:09:45.717147 22755 net.cpp:100] Creating Layer L2_b5_brc3_bn
I1206 09:09:45.717161 22755 net.cpp:434] L2_b5_brc3_bn <- L2_b5_brc2_conv_top
I1206 09:09:45.717178 22755 net.cpp:408] L2_b5_brc3_bn -> L2_b5_brc3_bn_top
I1206 09:09:45.717465 22755 net.cpp:150] Setting up L2_b5_brc3_bn
I1206 09:09:45.717489 22755 net.cpp:157] Top shape: 100 32 16 16 (819200)
I1206 09:09:45.717499 22755 net.cpp:165] Memory required for data: 1662567600
I1206 09:09:45.717521 22755 layer_factory.hpp:77] Creating layer L2_b5_brc3_relu
I1206 09:09:45.717538 22755 net.cpp:100] Creating Layer L2_b5_brc3_relu
I1206 09:09:45.717550 22755 net.cpp:434] L2_b5_brc3_relu <- L2_b5_brc3_bn_top
I1206 09:09:45.717566 22755 net.cpp:395] L2_b5_brc3_relu -> L2_b5_brc3_bn_top (in-place)
I1206 09:09:45.717584 22755 net.cpp:150] Setting up L2_b5_brc3_relu
I1206 09:09:45.717598 22755 net.cpp:157] Top shape: 100 32 16 16 (819200)
I1206 09:09:45.717608 22755 net.cpp:165] Memory required for data: 1665844400
I1206 09:09:45.717618 22755 layer_factory.hpp:77] Creating layer L2_b5_brc3_conv
I1206 09:09:45.717639 22755 net.cpp:100] Creating Layer L2_b5_brc3_conv
I1206 09:09:45.717653 22755 net.cpp:434] L2_b5_brc3_conv <- L2_b5_brc3_bn_top
I1206 09:09:45.717679 22755 net.cpp:408] L2_b5_brc3_conv -> L2_b5_brc3_conv_top
I1206 09:09:45.718106 22755 net.cpp:150] Setting up L2_b5_brc3_conv
I1206 09:09:45.718127 22755 net.cpp:157] Top shape: 100 128 16 16 (3276800)
I1206 09:09:45.718135 22755 net.cpp:165] Memory required for data: 1678951600
I1206 09:09:45.718153 22755 layer_factory.hpp:77] Creating layer L2_b5_sum_eltwise
I1206 09:09:45.718173 22755 net.cpp:100] Creating Layer L2_b5_sum_eltwise
I1206 09:09:45.718183 22755 net.cpp:434] L2_b5_sum_eltwise <- L2_b5_brc3_conv_top
I1206 09:09:45.718197 22755 net.cpp:434] L2_b5_sum_eltwise <- L2_b4_sum_eltwise_top_L2_b4_sum_eltwise_0_split_1
I1206 09:09:45.718214 22755 net.cpp:408] L2_b5_sum_eltwise -> L2_b5_sum_eltwise_top
I1206 09:09:45.718276 22755 net.cpp:150] Setting up L2_b5_sum_eltwise
I1206 09:09:45.718294 22755 net.cpp:157] Top shape: 100 128 16 16 (3276800)
I1206 09:09:45.718304 22755 net.cpp:165] Memory required for data: 1692058800
I1206 09:09:45.718314 22755 layer_factory.hpp:77] Creating layer L2_b5_sum_eltwise_top_L2_b5_sum_eltwise_0_split
I1206 09:09:45.718329 22755 net.cpp:100] Creating Layer L2_b5_sum_eltwise_top_L2_b5_sum_eltwise_0_split
I1206 09:09:45.718340 22755 net.cpp:434] L2_b5_sum_eltwise_top_L2_b5_sum_eltwise_0_split <- L2_b5_sum_eltwise_top
I1206 09:09:45.718360 22755 net.cpp:408] L2_b5_sum_eltwise_top_L2_b5_sum_eltwise_0_split -> L2_b5_sum_eltwise_top_L2_b5_sum_eltwise_0_split_0
I1206 09:09:45.718381 22755 net.cpp:408] L2_b5_sum_eltwise_top_L2_b5_sum_eltwise_0_split -> L2_b5_sum_eltwise_top_L2_b5_sum_eltwise_0_split_1
I1206 09:09:45.718467 22755 net.cpp:150] Setting up L2_b5_sum_eltwise_top_L2_b5_sum_eltwise_0_split
I1206 09:09:45.718489 22755 net.cpp:157] Top shape: 100 128 16 16 (3276800)
I1206 09:09:45.718502 22755 net.cpp:157] Top shape: 100 128 16 16 (3276800)
I1206 09:09:45.718513 22755 net.cpp:165] Memory required for data: 1718273200
I1206 09:09:45.718523 22755 layer_factory.hpp:77] Creating layer L2_b6_brc1_bn
I1206 09:09:45.718538 22755 net.cpp:100] Creating Layer L2_b6_brc1_bn
I1206 09:09:45.718550 22755 net.cpp:434] L2_b6_brc1_bn <- L2_b5_sum_eltwise_top_L2_b5_sum_eltwise_0_split_0
I1206 09:09:45.718572 22755 net.cpp:408] L2_b6_brc1_bn -> L2_b6_brc1_bn_top
I1206 09:09:45.718937 22755 net.cpp:150] Setting up L2_b6_brc1_bn
I1206 09:09:45.718957 22755 net.cpp:157] Top shape: 100 128 16 16 (3276800)
I1206 09:09:45.718967 22755 net.cpp:165] Memory required for data: 1731380400
I1206 09:09:45.719000 22755 layer_factory.hpp:77] Creating layer L2_b6_brc1_relu
I1206 09:09:45.719038 22755 net.cpp:100] Creating Layer L2_b6_brc1_relu
I1206 09:09:45.719054 22755 net.cpp:434] L2_b6_brc1_relu <- L2_b6_brc1_bn_top
I1206 09:09:45.719070 22755 net.cpp:395] L2_b6_brc1_relu -> L2_b6_brc1_bn_top (in-place)
I1206 09:09:45.719090 22755 net.cpp:150] Setting up L2_b6_brc1_relu
I1206 09:09:45.719105 22755 net.cpp:157] Top shape: 100 128 16 16 (3276800)
I1206 09:09:45.719115 22755 net.cpp:165] Memory required for data: 1744487600
I1206 09:09:45.719126 22755 layer_factory.hpp:77] Creating layer L2_b6_brc1_conv
I1206 09:09:45.719156 22755 net.cpp:100] Creating Layer L2_b6_brc1_conv
I1206 09:09:45.719168 22755 net.cpp:434] L2_b6_brc1_conv <- L2_b6_brc1_bn_top
I1206 09:09:45.719192 22755 net.cpp:408] L2_b6_brc1_conv -> L2_b6_brc1_conv_top
I1206 09:09:45.719604 22755 net.cpp:150] Setting up L2_b6_brc1_conv
I1206 09:09:45.719624 22755 net.cpp:157] Top shape: 100 32 16 16 (819200)
I1206 09:09:45.719632 22755 net.cpp:165] Memory required for data: 1747764400
I1206 09:09:45.719650 22755 layer_factory.hpp:77] Creating layer L2_b6_brc2_bn
I1206 09:09:45.719668 22755 net.cpp:100] Creating Layer L2_b6_brc2_bn
I1206 09:09:45.719681 22755 net.cpp:434] L2_b6_brc2_bn <- L2_b6_brc1_conv_top
I1206 09:09:45.719702 22755 net.cpp:408] L2_b6_brc2_bn -> L2_b6_brc2_bn_top
I1206 09:09:45.720003 22755 net.cpp:150] Setting up L2_b6_brc2_bn
I1206 09:09:45.720022 22755 net.cpp:157] Top shape: 100 32 16 16 (819200)
I1206 09:09:45.720031 22755 net.cpp:165] Memory required for data: 1751041200
I1206 09:09:45.720053 22755 layer_factory.hpp:77] Creating layer L2_b6_brc2_relu
I1206 09:09:45.720070 22755 net.cpp:100] Creating Layer L2_b6_brc2_relu
I1206 09:09:45.720082 22755 net.cpp:434] L2_b6_brc2_relu <- L2_b6_brc2_bn_top
I1206 09:09:45.720096 22755 net.cpp:395] L2_b6_brc2_relu -> L2_b6_brc2_bn_top (in-place)
I1206 09:09:45.720118 22755 net.cpp:150] Setting up L2_b6_brc2_relu
I1206 09:09:45.720131 22755 net.cpp:157] Top shape: 100 32 16 16 (819200)
I1206 09:09:45.720141 22755 net.cpp:165] Memory required for data: 1754318000
I1206 09:09:45.720151 22755 layer_factory.hpp:77] Creating layer L2_b6_brc2_conv
I1206 09:09:45.720177 22755 net.cpp:100] Creating Layer L2_b6_brc2_conv
I1206 09:09:45.720191 22755 net.cpp:434] L2_b6_brc2_conv <- L2_b6_brc2_bn_top
I1206 09:09:45.720216 22755 net.cpp:408] L2_b6_brc2_conv -> L2_b6_brc2_conv_top
I1206 09:09:45.720736 22755 net.cpp:150] Setting up L2_b6_brc2_conv
I1206 09:09:45.720754 22755 net.cpp:157] Top shape: 100 32 16 16 (819200)
I1206 09:09:45.720762 22755 net.cpp:165] Memory required for data: 1757594800
I1206 09:09:45.720780 22755 layer_factory.hpp:77] Creating layer L2_b6_brc3_bn
I1206 09:09:45.720809 22755 net.cpp:100] Creating Layer L2_b6_brc3_bn
I1206 09:09:45.720824 22755 net.cpp:434] L2_b6_brc3_bn <- L2_b6_brc2_conv_top
I1206 09:09:45.720847 22755 net.cpp:408] L2_b6_brc3_bn -> L2_b6_brc3_bn_top
I1206 09:09:45.721153 22755 net.cpp:150] Setting up L2_b6_brc3_bn
I1206 09:09:45.721171 22755 net.cpp:157] Top shape: 100 32 16 16 (819200)
I1206 09:09:45.721180 22755 net.cpp:165] Memory required for data: 1760871600
I1206 09:09:45.721204 22755 layer_factory.hpp:77] Creating layer L2_b6_brc3_relu
I1206 09:09:45.721220 22755 net.cpp:100] Creating Layer L2_b6_brc3_relu
I1206 09:09:45.721232 22755 net.cpp:434] L2_b6_brc3_relu <- L2_b6_brc3_bn_top
I1206 09:09:45.721247 22755 net.cpp:395] L2_b6_brc3_relu -> L2_b6_brc3_bn_top (in-place)
I1206 09:09:45.721267 22755 net.cpp:150] Setting up L2_b6_brc3_relu
I1206 09:09:45.721282 22755 net.cpp:157] Top shape: 100 32 16 16 (819200)
I1206 09:09:45.721292 22755 net.cpp:165] Memory required for data: 1764148400
I1206 09:09:45.721302 22755 layer_factory.hpp:77] Creating layer L2_b6_brc3_conv
I1206 09:09:45.721328 22755 net.cpp:100] Creating Layer L2_b6_brc3_conv
I1206 09:09:45.721343 22755 net.cpp:434] L2_b6_brc3_conv <- L2_b6_brc3_bn_top
I1206 09:09:45.721365 22755 net.cpp:408] L2_b6_brc3_conv -> L2_b6_brc3_conv_top
I1206 09:09:45.721788 22755 net.cpp:150] Setting up L2_b6_brc3_conv
I1206 09:09:45.721822 22755 net.cpp:157] Top shape: 100 128 16 16 (3276800)
I1206 09:09:45.721832 22755 net.cpp:165] Memory required for data: 1777255600
I1206 09:09:45.721850 22755 layer_factory.hpp:77] Creating layer L2_b6_sum_eltwise
I1206 09:09:45.721868 22755 net.cpp:100] Creating Layer L2_b6_sum_eltwise
I1206 09:09:45.721880 22755 net.cpp:434] L2_b6_sum_eltwise <- L2_b6_brc3_conv_top
I1206 09:09:45.721894 22755 net.cpp:434] L2_b6_sum_eltwise <- L2_b5_sum_eltwise_top_L2_b5_sum_eltwise_0_split_1
I1206 09:09:45.721918 22755 net.cpp:408] L2_b6_sum_eltwise -> L2_b6_sum_eltwise_top
I1206 09:09:45.721966 22755 net.cpp:150] Setting up L2_b6_sum_eltwise
I1206 09:09:45.721992 22755 net.cpp:157] Top shape: 100 128 16 16 (3276800)
I1206 09:09:45.722002 22755 net.cpp:165] Memory required for data: 1790362800
I1206 09:09:45.722013 22755 layer_factory.hpp:77] Creating layer L2_b6_sum_eltwise_top_L2_b6_sum_eltwise_0_split
I1206 09:09:45.722028 22755 net.cpp:100] Creating Layer L2_b6_sum_eltwise_top_L2_b6_sum_eltwise_0_split
I1206 09:09:45.722040 22755 net.cpp:434] L2_b6_sum_eltwise_top_L2_b6_sum_eltwise_0_split <- L2_b6_sum_eltwise_top
I1206 09:09:45.722055 22755 net.cpp:408] L2_b6_sum_eltwise_top_L2_b6_sum_eltwise_0_split -> L2_b6_sum_eltwise_top_L2_b6_sum_eltwise_0_split_0
I1206 09:09:45.722075 22755 net.cpp:408] L2_b6_sum_eltwise_top_L2_b6_sum_eltwise_0_split -> L2_b6_sum_eltwise_top_L2_b6_sum_eltwise_0_split_1
I1206 09:09:45.722169 22755 net.cpp:150] Setting up L2_b6_sum_eltwise_top_L2_b6_sum_eltwise_0_split
I1206 09:09:45.722192 22755 net.cpp:157] Top shape: 100 128 16 16 (3276800)
I1206 09:09:45.722204 22755 net.cpp:157] Top shape: 100 128 16 16 (3276800)
I1206 09:09:45.722213 22755 net.cpp:165] Memory required for data: 1816577200
I1206 09:09:45.722224 22755 layer_factory.hpp:77] Creating layer L3_b1_brc1_bn
I1206 09:09:45.722246 22755 net.cpp:100] Creating Layer L3_b1_brc1_bn
I1206 09:09:45.722259 22755 net.cpp:434] L3_b1_brc1_bn <- L2_b6_sum_eltwise_top_L2_b6_sum_eltwise_0_split_0
I1206 09:09:45.722276 22755 net.cpp:408] L3_b1_brc1_bn -> L3_b1_brc1_bn_top
I1206 09:09:45.722568 22755 net.cpp:150] Setting up L3_b1_brc1_bn
I1206 09:09:45.722586 22755 net.cpp:157] Top shape: 100 128 16 16 (3276800)
I1206 09:09:45.722595 22755 net.cpp:165] Memory required for data: 1829684400
I1206 09:09:45.722617 22755 layer_factory.hpp:77] Creating layer L3_b1_brc1_relu
I1206 09:09:45.722647 22755 net.cpp:100] Creating Layer L3_b1_brc1_relu
I1206 09:09:45.722661 22755 net.cpp:434] L3_b1_brc1_relu <- L3_b1_brc1_bn_top
I1206 09:09:45.722677 22755 net.cpp:395] L3_b1_brc1_relu -> L3_b1_brc1_bn_top (in-place)
I1206 09:09:45.722697 22755 net.cpp:150] Setting up L3_b1_brc1_relu
I1206 09:09:45.722710 22755 net.cpp:157] Top shape: 100 128 16 16 (3276800)
I1206 09:09:45.722720 22755 net.cpp:165] Memory required for data: 1842791600
I1206 09:09:45.722730 22755 layer_factory.hpp:77] Creating layer L3_b1_brc1_conv
I1206 09:09:45.722754 22755 net.cpp:100] Creating Layer L3_b1_brc1_conv
I1206 09:09:45.722765 22755 net.cpp:434] L3_b1_brc1_conv <- L3_b1_brc1_bn_top
I1206 09:09:45.722789 22755 net.cpp:408] L3_b1_brc1_conv -> L3_b1_brc1_conv_top
I1206 09:09:45.723292 22755 net.cpp:150] Setting up L3_b1_brc1_conv
I1206 09:09:45.723312 22755 net.cpp:157] Top shape: 100 64 8 8 (409600)
I1206 09:09:45.723321 22755 net.cpp:165] Memory required for data: 1844430000
I1206 09:09:45.723340 22755 layer_factory.hpp:77] Creating layer L3_b1_brc2_bn
I1206 09:09:45.723357 22755 net.cpp:100] Creating Layer L3_b1_brc2_bn
I1206 09:09:45.723369 22755 net.cpp:434] L3_b1_brc2_bn <- L3_b1_brc1_conv_top
I1206 09:09:45.723392 22755 net.cpp:408] L3_b1_brc2_bn -> L3_b1_brc2_bn_top
I1206 09:09:45.723695 22755 net.cpp:150] Setting up L3_b1_brc2_bn
I1206 09:09:45.723713 22755 net.cpp:157] Top shape: 100 64 8 8 (409600)
I1206 09:09:45.723722 22755 net.cpp:165] Memory required for data: 1846068400
I1206 09:09:45.723744 22755 layer_factory.hpp:77] Creating layer L3_b1_brc2_relu
I1206 09:09:45.723760 22755 net.cpp:100] Creating Layer L3_b1_brc2_relu
I1206 09:09:45.723783 22755 net.cpp:434] L3_b1_brc2_relu <- L3_b1_brc2_bn_top
I1206 09:09:45.723805 22755 net.cpp:395] L3_b1_brc2_relu -> L3_b1_brc2_bn_top (in-place)
I1206 09:09:45.723829 22755 net.cpp:150] Setting up L3_b1_brc2_relu
I1206 09:09:45.723843 22755 net.cpp:157] Top shape: 100 64 8 8 (409600)
I1206 09:09:45.723852 22755 net.cpp:165] Memory required for data: 1847706800
I1206 09:09:45.723863 22755 layer_factory.hpp:77] Creating layer L3_b1_brc2_conv
I1206 09:09:45.723892 22755 net.cpp:100] Creating Layer L3_b1_brc2_conv
I1206 09:09:45.723906 22755 net.cpp:434] L3_b1_brc2_conv <- L3_b1_brc2_bn_top
I1206 09:09:45.723925 22755 net.cpp:408] L3_b1_brc2_conv -> L3_b1_brc2_conv_top
I1206 09:09:45.726176 22755 net.cpp:150] Setting up L3_b1_brc2_conv
I1206 09:09:45.726198 22755 net.cpp:157] Top shape: 100 64 8 8 (409600)
I1206 09:09:45.726208 22755 net.cpp:165] Memory required for data: 1849345200
I1206 09:09:45.726227 22755 layer_factory.hpp:77] Creating layer L3_b1_brc3_bn
I1206 09:09:45.726249 22755 net.cpp:100] Creating Layer L3_b1_brc3_bn
I1206 09:09:45.726263 22755 net.cpp:434] L3_b1_brc3_bn <- L3_b1_brc2_conv_top
I1206 09:09:45.726279 22755 net.cpp:408] L3_b1_brc3_bn -> L3_b1_brc3_bn_top
I1206 09:09:45.726579 22755 net.cpp:150] Setting up L3_b1_brc3_bn
I1206 09:09:45.726599 22755 net.cpp:157] Top shape: 100 64 8 8 (409600)
I1206 09:09:45.726608 22755 net.cpp:165] Memory required for data: 1850983600
I1206 09:09:45.726630 22755 layer_factory.hpp:77] Creating layer L3_b1_brc3_relu
I1206 09:09:45.726653 22755 net.cpp:100] Creating Layer L3_b1_brc3_relu
I1206 09:09:45.726666 22755 net.cpp:434] L3_b1_brc3_relu <- L3_b1_brc3_bn_top
I1206 09:09:45.726681 22755 net.cpp:395] L3_b1_brc3_relu -> L3_b1_brc3_bn_top (in-place)
I1206 09:09:45.726701 22755 net.cpp:150] Setting up L3_b1_brc3_relu
I1206 09:09:45.726716 22755 net.cpp:157] Top shape: 100 64 8 8 (409600)
I1206 09:09:45.726727 22755 net.cpp:165] Memory required for data: 1852622000
I1206 09:09:45.726737 22755 layer_factory.hpp:77] Creating layer L3_b1_brc3_conv
I1206 09:09:45.726763 22755 net.cpp:100] Creating Layer L3_b1_brc3_conv
I1206 09:09:45.726778 22755 net.cpp:434] L3_b1_brc3_conv <- L3_b1_brc3_bn_top
I1206 09:09:45.726806 22755 net.cpp:408] L3_b1_brc3_conv -> L3_b1_brc3_conv_top
I1206 09:09:45.727458 22755 net.cpp:150] Setting up L3_b1_brc3_conv
I1206 09:09:45.727478 22755 net.cpp:157] Top shape: 100 256 8 8 (1638400)
I1206 09:09:45.727486 22755 net.cpp:165] Memory required for data: 1859175600
I1206 09:09:45.727504 22755 layer_factory.hpp:77] Creating layer L3_b1_chanInc_conv
I1206 09:09:45.727527 22755 net.cpp:100] Creating Layer L3_b1_chanInc_conv
I1206 09:09:45.727540 22755 net.cpp:434] L3_b1_chanInc_conv <- L2_b6_sum_eltwise_top_L2_b6_sum_eltwise_0_split_1
I1206 09:09:45.727565 22755 net.cpp:408] L3_b1_chanInc_conv -> L3_b1_chanInc_conv_top
I1206 09:09:45.728550 22755 net.cpp:150] Setting up L3_b1_chanInc_conv
I1206 09:09:45.728570 22755 net.cpp:157] Top shape: 100 256 8 8 (1638400)
I1206 09:09:45.728579 22755 net.cpp:165] Memory required for data: 1865729200
I1206 09:09:45.728597 22755 layer_factory.hpp:77] Creating layer L3_b1_sum_eltwise
I1206 09:09:45.728615 22755 net.cpp:100] Creating Layer L3_b1_sum_eltwise
I1206 09:09:45.728627 22755 net.cpp:434] L3_b1_sum_eltwise <- L3_b1_brc3_conv_top
I1206 09:09:45.728641 22755 net.cpp:434] L3_b1_sum_eltwise <- L3_b1_chanInc_conv_top
I1206 09:09:45.728657 22755 net.cpp:408] L3_b1_sum_eltwise -> L3_b1_sum_eltwise_top
I1206 09:09:45.728720 22755 net.cpp:150] Setting up L3_b1_sum_eltwise
I1206 09:09:45.728739 22755 net.cpp:157] Top shape: 100 256 8 8 (1638400)
I1206 09:09:45.728749 22755 net.cpp:165] Memory required for data: 1872282800
I1206 09:09:45.728760 22755 layer_factory.hpp:77] Creating layer L3_b1_sum_eltwise_top_L3_b1_sum_eltwise_0_split
I1206 09:09:45.728780 22755 net.cpp:100] Creating Layer L3_b1_sum_eltwise_top_L3_b1_sum_eltwise_0_split
I1206 09:09:45.728793 22755 net.cpp:434] L3_b1_sum_eltwise_top_L3_b1_sum_eltwise_0_split <- L3_b1_sum_eltwise_top
I1206 09:09:45.728818 22755 net.cpp:408] L3_b1_sum_eltwise_top_L3_b1_sum_eltwise_0_split -> L3_b1_sum_eltwise_top_L3_b1_sum_eltwise_0_split_0
I1206 09:09:45.728850 22755 net.cpp:408] L3_b1_sum_eltwise_top_L3_b1_sum_eltwise_0_split -> L3_b1_sum_eltwise_top_L3_b1_sum_eltwise_0_split_1
I1206 09:09:45.728950 22755 net.cpp:150] Setting up L3_b1_sum_eltwise_top_L3_b1_sum_eltwise_0_split
I1206 09:09:45.728973 22755 net.cpp:157] Top shape: 100 256 8 8 (1638400)
I1206 09:09:45.728987 22755 net.cpp:157] Top shape: 100 256 8 8 (1638400)
I1206 09:09:45.728997 22755 net.cpp:165] Memory required for data: 1885390000
I1206 09:09:45.729008 22755 layer_factory.hpp:77] Creating layer L3_b2_brc1_bn
I1206 09:09:45.729029 22755 net.cpp:100] Creating Layer L3_b2_brc1_bn
I1206 09:09:45.729043 22755 net.cpp:434] L3_b2_brc1_bn <- L3_b1_sum_eltwise_top_L3_b1_sum_eltwise_0_split_0
I1206 09:09:45.729059 22755 net.cpp:408] L3_b2_brc1_bn -> L3_b2_brc1_bn_top
I1206 09:09:45.729351 22755 net.cpp:150] Setting up L3_b2_brc1_bn
I1206 09:09:45.729373 22755 net.cpp:157] Top shape: 100 256 8 8 (1638400)
I1206 09:09:45.729384 22755 net.cpp:165] Memory required for data: 1891943600
I1206 09:09:45.729405 22755 layer_factory.hpp:77] Creating layer L3_b2_brc1_relu
I1206 09:09:45.729423 22755 net.cpp:100] Creating Layer L3_b2_brc1_relu
I1206 09:09:45.729434 22755 net.cpp:434] L3_b2_brc1_relu <- L3_b2_brc1_bn_top
I1206 09:09:45.729449 22755 net.cpp:395] L3_b2_brc1_relu -> L3_b2_brc1_bn_top (in-place)
I1206 09:09:45.729470 22755 net.cpp:150] Setting up L3_b2_brc1_relu
I1206 09:09:45.729485 22755 net.cpp:157] Top shape: 100 256 8 8 (1638400)
I1206 09:09:45.729496 22755 net.cpp:165] Memory required for data: 1898497200
I1206 09:09:45.729506 22755 layer_factory.hpp:77] Creating layer L3_b2_brc1_conv
I1206 09:09:45.729526 22755 net.cpp:100] Creating Layer L3_b2_brc1_conv
I1206 09:09:45.729540 22755 net.cpp:434] L3_b2_brc1_conv <- L3_b2_brc1_bn_top
I1206 09:09:45.729564 22755 net.cpp:408] L3_b2_brc1_conv -> L3_b2_brc1_conv_top
I1206 09:09:45.730252 22755 net.cpp:150] Setting up L3_b2_brc1_conv
I1206 09:09:45.730278 22755 net.cpp:157] Top shape: 100 64 8 8 (409600)
I1206 09:09:45.730288 22755 net.cpp:165] Memory required for data: 1900135600
I1206 09:09:45.730306 22755 layer_factory.hpp:77] Creating layer L3_b2_brc2_bn
I1206 09:09:45.730324 22755 net.cpp:100] Creating Layer L3_b2_brc2_bn
I1206 09:09:45.730336 22755 net.cpp:434] L3_b2_brc2_bn <- L3_b2_brc1_conv_top
I1206 09:09:45.730357 22755 net.cpp:408] L3_b2_brc2_bn -> L3_b2_brc2_bn_top
I1206 09:09:45.730674 22755 net.cpp:150] Setting up L3_b2_brc2_bn
I1206 09:09:45.730697 22755 net.cpp:157] Top shape: 100 64 8 8 (409600)
I1206 09:09:45.730708 22755 net.cpp:165] Memory required for data: 1901774000
I1206 09:09:45.730731 22755 layer_factory.hpp:77] Creating layer L3_b2_brc2_relu
I1206 09:09:45.730747 22755 net.cpp:100] Creating Layer L3_b2_brc2_relu
I1206 09:09:45.730759 22755 net.cpp:434] L3_b2_brc2_relu <- L3_b2_brc2_bn_top
I1206 09:09:45.730775 22755 net.cpp:395] L3_b2_brc2_relu -> L3_b2_brc2_bn_top (in-place)
I1206 09:09:45.730795 22755 net.cpp:150] Setting up L3_b2_brc2_relu
I1206 09:09:45.730818 22755 net.cpp:157] Top shape: 100 64 8 8 (409600)
I1206 09:09:45.730828 22755 net.cpp:165] Memory required for data: 1903412400
I1206 09:09:45.730837 22755 layer_factory.hpp:77] Creating layer L3_b2_brc2_conv
I1206 09:09:45.730859 22755 net.cpp:100] Creating Layer L3_b2_brc2_conv
I1206 09:09:45.730872 22755 net.cpp:434] L3_b2_brc2_conv <- L3_b2_brc2_bn_top
I1206 09:09:45.730898 22755 net.cpp:408] L3_b2_brc2_conv -> L3_b2_brc2_conv_top
I1206 09:09:45.731957 22755 net.cpp:150] Setting up L3_b2_brc2_conv
I1206 09:09:45.731978 22755 net.cpp:157] Top shape: 100 64 8 8 (409600)
I1206 09:09:45.731986 22755 net.cpp:165] Memory required for data: 1905050800
I1206 09:09:45.732005 22755 layer_factory.hpp:77] Creating layer L3_b2_brc3_bn
I1206 09:09:45.732028 22755 net.cpp:100] Creating Layer L3_b2_brc3_bn
I1206 09:09:45.732041 22755 net.cpp:434] L3_b2_brc3_bn <- L3_b2_brc2_conv_top
I1206 09:09:45.732059 22755 net.cpp:408] L3_b2_brc3_bn -> L3_b2_brc3_bn_top
I1206 09:09:45.732379 22755 net.cpp:150] Setting up L3_b2_brc3_bn
I1206 09:09:45.732408 22755 net.cpp:157] Top shape: 100 64 8 8 (409600)
I1206 09:09:45.732417 22755 net.cpp:165] Memory required for data: 1906689200
I1206 09:09:45.732439 22755 layer_factory.hpp:77] Creating layer L3_b2_brc3_relu
I1206 09:09:45.732456 22755 net.cpp:100] Creating Layer L3_b2_brc3_relu
I1206 09:09:45.732470 22755 net.cpp:434] L3_b2_brc3_relu <- L3_b2_brc3_bn_top
I1206 09:09:45.732484 22755 net.cpp:395] L3_b2_brc3_relu -> L3_b2_brc3_bn_top (in-place)
I1206 09:09:45.732506 22755 net.cpp:150] Setting up L3_b2_brc3_relu
I1206 09:09:45.732520 22755 net.cpp:157] Top shape: 100 64 8 8 (409600)
I1206 09:09:45.732529 22755 net.cpp:165] Memory required for data: 1908327600
I1206 09:09:45.732540 22755 layer_factory.hpp:77] Creating layer L3_b2_brc3_conv
I1206 09:09:45.732568 22755 net.cpp:100] Creating Layer L3_b2_brc3_conv
I1206 09:09:45.732583 22755 net.cpp:434] L3_b2_brc3_conv <- L3_b2_brc3_bn_top
I1206 09:09:45.732606 22755 net.cpp:408] L3_b2_brc3_conv -> L3_b2_brc3_conv_top
I1206 09:09:45.733264 22755 net.cpp:150] Setting up L3_b2_brc3_conv
I1206 09:09:45.733284 22755 net.cpp:157] Top shape: 100 256 8 8 (1638400)
I1206 09:09:45.733294 22755 net.cpp:165] Memory required for data: 1914881200
I1206 09:09:45.733311 22755 layer_factory.hpp:77] Creating layer L3_b2_sum_eltwise
I1206 09:09:45.733330 22755 net.cpp:100] Creating Layer L3_b2_sum_eltwise
I1206 09:09:45.733342 22755 net.cpp:434] L3_b2_sum_eltwise <- L3_b2_brc3_conv_top
I1206 09:09:45.733356 22755 net.cpp:434] L3_b2_sum_eltwise <- L3_b1_sum_eltwise_top_L3_b1_sum_eltwise_0_split_1
I1206 09:09:45.733381 22755 net.cpp:408] L3_b2_sum_eltwise -> L3_b2_sum_eltwise_top
I1206 09:09:45.733446 22755 net.cpp:150] Setting up L3_b2_sum_eltwise
I1206 09:09:45.733464 22755 net.cpp:157] Top shape: 100 256 8 8 (1638400)
I1206 09:09:45.733474 22755 net.cpp:165] Memory required for data: 1921434800
I1206 09:09:45.733484 22755 layer_factory.hpp:77] Creating layer L3_b2_sum_eltwise_top_L3_b2_sum_eltwise_0_split
I1206 09:09:45.733500 22755 net.cpp:100] Creating Layer L3_b2_sum_eltwise_top_L3_b2_sum_eltwise_0_split
I1206 09:09:45.733511 22755 net.cpp:434] L3_b2_sum_eltwise_top_L3_b2_sum_eltwise_0_split <- L3_b2_sum_eltwise_top
I1206 09:09:45.733532 22755 net.cpp:408] L3_b2_sum_eltwise_top_L3_b2_sum_eltwise_0_split -> L3_b2_sum_eltwise_top_L3_b2_sum_eltwise_0_split_0
I1206 09:09:45.733554 22755 net.cpp:408] L3_b2_sum_eltwise_top_L3_b2_sum_eltwise_0_split -> L3_b2_sum_eltwise_top_L3_b2_sum_eltwise_0_split_1
I1206 09:09:45.733640 22755 net.cpp:150] Setting up L3_b2_sum_eltwise_top_L3_b2_sum_eltwise_0_split
I1206 09:09:45.733661 22755 net.cpp:157] Top shape: 100 256 8 8 (1638400)
I1206 09:09:45.733675 22755 net.cpp:157] Top shape: 100 256 8 8 (1638400)
I1206 09:09:45.733685 22755 net.cpp:165] Memory required for data: 1934542000
I1206 09:09:45.733695 22755 layer_factory.hpp:77] Creating layer L3_b3_brc1_bn
I1206 09:09:45.733716 22755 net.cpp:100] Creating Layer L3_b3_brc1_bn
I1206 09:09:45.733729 22755 net.cpp:434] L3_b3_brc1_bn <- L3_b2_sum_eltwise_top_L3_b2_sum_eltwise_0_split_0
I1206 09:09:45.733755 22755 net.cpp:408] L3_b3_brc1_bn -> L3_b3_brc1_bn_top
I1206 09:09:45.734113 22755 net.cpp:150] Setting up L3_b3_brc1_bn
I1206 09:09:45.734135 22755 net.cpp:157] Top shape: 100 256 8 8 (1638400)
I1206 09:09:45.734146 22755 net.cpp:165] Memory required for data: 1941095600
I1206 09:09:45.734165 22755 layer_factory.hpp:77] Creating layer L3_b3_brc1_relu
I1206 09:09:45.734179 22755 net.cpp:100] Creating Layer L3_b3_brc1_relu
I1206 09:09:45.734189 22755 net.cpp:434] L3_b3_brc1_relu <- L3_b3_brc1_bn_top
I1206 09:09:45.734203 22755 net.cpp:395] L3_b3_brc1_relu -> L3_b3_brc1_bn_top (in-place)
I1206 09:09:45.734218 22755 net.cpp:150] Setting up L3_b3_brc1_relu
I1206 09:09:45.734225 22755 net.cpp:157] Top shape: 100 256 8 8 (1638400)
I1206 09:09:45.734230 22755 net.cpp:165] Memory required for data: 1947649200
I1206 09:09:45.734236 22755 layer_factory.hpp:77] Creating layer L3_b3_brc1_conv
I1206 09:09:45.734252 22755 net.cpp:100] Creating Layer L3_b3_brc1_conv
I1206 09:09:45.734266 22755 net.cpp:434] L3_b3_brc1_conv <- L3_b3_brc1_bn_top
I1206 09:09:45.734288 22755 net.cpp:408] L3_b3_brc1_conv -> L3_b3_brc1_conv_top
I1206 09:09:45.734957 22755 net.cpp:150] Setting up L3_b3_brc1_conv
I1206 09:09:45.734971 22755 net.cpp:157] Top shape: 100 64 8 8 (409600)
I1206 09:09:45.734975 22755 net.cpp:165] Memory required for data: 1949287600
I1206 09:09:45.734985 22755 layer_factory.hpp:77] Creating layer L3_b3_brc2_bn
I1206 09:09:45.734998 22755 net.cpp:100] Creating Layer L3_b3_brc2_bn
I1206 09:09:45.735005 22755 net.cpp:434] L3_b3_brc2_bn <- L3_b3_brc1_conv_top
I1206 09:09:45.735013 22755 net.cpp:408] L3_b3_brc2_bn -> L3_b3_brc2_bn_top
I1206 09:09:45.735278 22755 net.cpp:150] Setting up L3_b3_brc2_bn
I1206 09:09:45.735290 22755 net.cpp:157] Top shape: 100 64 8 8 (409600)
I1206 09:09:45.735294 22755 net.cpp:165] Memory required for data: 1950926000
I1206 09:09:45.735304 22755 layer_factory.hpp:77] Creating layer L3_b3_brc2_relu
I1206 09:09:45.735313 22755 net.cpp:100] Creating Layer L3_b3_brc2_relu
I1206 09:09:45.735319 22755 net.cpp:434] L3_b3_brc2_relu <- L3_b3_brc2_bn_top
I1206 09:09:45.735327 22755 net.cpp:395] L3_b3_brc2_relu -> L3_b3_brc2_bn_top (in-place)
I1206 09:09:45.735337 22755 net.cpp:150] Setting up L3_b3_brc2_relu
I1206 09:09:45.735343 22755 net.cpp:157] Top shape: 100 64 8 8 (409600)
I1206 09:09:45.735348 22755 net.cpp:165] Memory required for data: 1952564400
I1206 09:09:45.735353 22755 layer_factory.hpp:77] Creating layer L3_b3_brc2_conv
I1206 09:09:45.735368 22755 net.cpp:100] Creating Layer L3_b3_brc2_conv
I1206 09:09:45.735375 22755 net.cpp:434] L3_b3_brc2_conv <- L3_b3_brc2_bn_top
I1206 09:09:45.735388 22755 net.cpp:408] L3_b3_brc2_conv -> L3_b3_brc2_conv_top
I1206 09:09:45.736505 22755 net.cpp:150] Setting up L3_b3_brc2_conv
I1206 09:09:45.736526 22755 net.cpp:157] Top shape: 100 64 8 8 (409600)
I1206 09:09:45.736536 22755 net.cpp:165] Memory required for data: 1954202800
I1206 09:09:45.736552 22755 layer_factory.hpp:77] Creating layer L3_b3_brc3_bn
I1206 09:09:45.736572 22755 net.cpp:100] Creating Layer L3_b3_brc3_bn
I1206 09:09:45.736583 22755 net.cpp:434] L3_b3_brc3_bn <- L3_b3_brc2_conv_top
I1206 09:09:45.736606 22755 net.cpp:408] L3_b3_brc3_bn -> L3_b3_brc3_bn_top
I1206 09:09:45.736924 22755 net.cpp:150] Setting up L3_b3_brc3_bn
I1206 09:09:45.736944 22755 net.cpp:157] Top shape: 100 64 8 8 (409600)
I1206 09:09:45.736953 22755 net.cpp:165] Memory required for data: 1955841200
I1206 09:09:45.736974 22755 layer_factory.hpp:77] Creating layer L3_b3_brc3_relu
I1206 09:09:45.736991 22755 net.cpp:100] Creating Layer L3_b3_brc3_relu
I1206 09:09:45.737004 22755 net.cpp:434] L3_b3_brc3_relu <- L3_b3_brc3_bn_top
I1206 09:09:45.737025 22755 net.cpp:395] L3_b3_brc3_relu -> L3_b3_brc3_bn_top (in-place)
I1206 09:09:45.737046 22755 net.cpp:150] Setting up L3_b3_brc3_relu
I1206 09:09:45.737059 22755 net.cpp:157] Top shape: 100 64 8 8 (409600)
I1206 09:09:45.737069 22755 net.cpp:165] Memory required for data: 1957479600
I1206 09:09:45.737080 22755 layer_factory.hpp:77] Creating layer L3_b3_brc3_conv
I1206 09:09:45.737107 22755 net.cpp:100] Creating Layer L3_b3_brc3_conv
I1206 09:09:45.737120 22755 net.cpp:434] L3_b3_brc3_conv <- L3_b3_brc3_bn_top
I1206 09:09:45.737138 22755 net.cpp:408] L3_b3_brc3_conv -> L3_b3_brc3_conv_top
I1206 09:09:45.737794 22755 net.cpp:150] Setting up L3_b3_brc3_conv
I1206 09:09:45.737820 22755 net.cpp:157] Top shape: 100 256 8 8 (1638400)
I1206 09:09:45.737830 22755 net.cpp:165] Memory required for data: 1964033200
I1206 09:09:45.737848 22755 layer_factory.hpp:77] Creating layer L3_b3_sum_eltwise
I1206 09:09:45.737867 22755 net.cpp:100] Creating Layer L3_b3_sum_eltwise
I1206 09:09:45.737880 22755 net.cpp:434] L3_b3_sum_eltwise <- L3_b3_brc3_conv_top
I1206 09:09:45.737895 22755 net.cpp:434] L3_b3_sum_eltwise <- L3_b2_sum_eltwise_top_L3_b2_sum_eltwise_0_split_1
I1206 09:09:45.737917 22755 net.cpp:408] L3_b3_sum_eltwise -> L3_b3_sum_eltwise_top
I1206 09:09:45.737974 22755 net.cpp:150] Setting up L3_b3_sum_eltwise
I1206 09:09:45.737993 22755 net.cpp:157] Top shape: 100 256 8 8 (1638400)
I1206 09:09:45.738013 22755 net.cpp:165] Memory required for data: 1970586800
I1206 09:09:45.738024 22755 layer_factory.hpp:77] Creating layer L3_b3_sum_eltwise_top_L3_b3_sum_eltwise_0_split
I1206 09:09:45.738045 22755 net.cpp:100] Creating Layer L3_b3_sum_eltwise_top_L3_b3_sum_eltwise_0_split
I1206 09:09:45.738059 22755 net.cpp:434] L3_b3_sum_eltwise_top_L3_b3_sum_eltwise_0_split <- L3_b3_sum_eltwise_top
I1206 09:09:45.738075 22755 net.cpp:408] L3_b3_sum_eltwise_top_L3_b3_sum_eltwise_0_split -> L3_b3_sum_eltwise_top_L3_b3_sum_eltwise_0_split_0
I1206 09:09:45.738101 22755 net.cpp:408] L3_b3_sum_eltwise_top_L3_b3_sum_eltwise_0_split -> L3_b3_sum_eltwise_top_L3_b3_sum_eltwise_0_split_1
I1206 09:09:45.738184 22755 net.cpp:150] Setting up L3_b3_sum_eltwise_top_L3_b3_sum_eltwise_0_split
I1206 09:09:45.738204 22755 net.cpp:157] Top shape: 100 256 8 8 (1638400)
I1206 09:09:45.738215 22755 net.cpp:157] Top shape: 100 256 8 8 (1638400)
I1206 09:09:45.738225 22755 net.cpp:165] Memory required for data: 1983694000
I1206 09:09:45.738235 22755 layer_factory.hpp:77] Creating layer L3_b4_brc1_bn
I1206 09:09:45.738257 22755 net.cpp:100] Creating Layer L3_b4_brc1_bn
I1206 09:09:45.738270 22755 net.cpp:434] L3_b4_brc1_bn <- L3_b3_sum_eltwise_top_L3_b3_sum_eltwise_0_split_0
I1206 09:09:45.738287 22755 net.cpp:408] L3_b4_brc1_bn -> L3_b4_brc1_bn_top
I1206 09:09:45.738582 22755 net.cpp:150] Setting up L3_b4_brc1_bn
I1206 09:09:45.738601 22755 net.cpp:157] Top shape: 100 256 8 8 (1638400)
I1206 09:09:45.738610 22755 net.cpp:165] Memory required for data: 1990247600
I1206 09:09:45.738631 22755 layer_factory.hpp:77] Creating layer L3_b4_brc1_relu
I1206 09:09:45.738647 22755 net.cpp:100] Creating Layer L3_b4_brc1_relu
I1206 09:09:45.738659 22755 net.cpp:434] L3_b4_brc1_relu <- L3_b4_brc1_bn_top
I1206 09:09:45.738679 22755 net.cpp:395] L3_b4_brc1_relu -> L3_b4_brc1_bn_top (in-place)
I1206 09:09:45.738700 22755 net.cpp:150] Setting up L3_b4_brc1_relu
I1206 09:09:45.738715 22755 net.cpp:157] Top shape: 100 256 8 8 (1638400)
I1206 09:09:45.738725 22755 net.cpp:165] Memory required for data: 1996801200
I1206 09:09:45.738735 22755 layer_factory.hpp:77] Creating layer L3_b4_brc1_conv
I1206 09:09:45.738765 22755 net.cpp:100] Creating Layer L3_b4_brc1_conv
I1206 09:09:45.738778 22755 net.cpp:434] L3_b4_brc1_conv <- L3_b4_brc1_bn_top
I1206 09:09:45.738796 22755 net.cpp:408] L3_b4_brc1_conv -> L3_b4_brc1_conv_top
I1206 09:09:45.739460 22755 net.cpp:150] Setting up L3_b4_brc1_conv
I1206 09:09:45.739480 22755 net.cpp:157] Top shape: 100 64 8 8 (409600)
I1206 09:09:45.739490 22755 net.cpp:165] Memory required for data: 1998439600
I1206 09:09:45.739507 22755 layer_factory.hpp:77] Creating layer L3_b4_brc2_bn
I1206 09:09:45.739531 22755 net.cpp:100] Creating Layer L3_b4_brc2_bn
I1206 09:09:45.739543 22755 net.cpp:434] L3_b4_brc2_bn <- L3_b4_brc1_conv_top
I1206 09:09:45.739559 22755 net.cpp:408] L3_b4_brc2_bn -> L3_b4_brc2_bn_top
I1206 09:09:45.739881 22755 net.cpp:150] Setting up L3_b4_brc2_bn
I1206 09:09:45.739900 22755 net.cpp:157] Top shape: 100 64 8 8 (409600)
I1206 09:09:45.739909 22755 net.cpp:165] Memory required for data: 2000078000
I1206 09:09:45.739930 22755 layer_factory.hpp:77] Creating layer L3_b4_brc2_relu
I1206 09:09:45.739953 22755 net.cpp:100] Creating Layer L3_b4_brc2_relu
I1206 09:09:45.739966 22755 net.cpp:434] L3_b4_brc2_relu <- L3_b4_brc2_bn_top
I1206 09:09:45.739981 22755 net.cpp:395] L3_b4_brc2_relu -> L3_b4_brc2_bn_top (in-place)
I1206 09:09:45.740001 22755 net.cpp:150] Setting up L3_b4_brc2_relu
I1206 09:09:45.740016 22755 net.cpp:157] Top shape: 100 64 8 8 (409600)
I1206 09:09:45.740025 22755 net.cpp:165] Memory required for data: 2001716400
I1206 09:09:45.740036 22755 layer_factory.hpp:77] Creating layer L3_b4_brc2_conv
I1206 09:09:45.740062 22755 net.cpp:100] Creating Layer L3_b4_brc2_conv
I1206 09:09:45.740075 22755 net.cpp:434] L3_b4_brc2_conv <- L3_b4_brc2_bn_top
I1206 09:09:45.740098 22755 net.cpp:408] L3_b4_brc2_conv -> L3_b4_brc2_conv_top
I1206 09:09:45.741173 22755 net.cpp:150] Setting up L3_b4_brc2_conv
I1206 09:09:45.741201 22755 net.cpp:157] Top shape: 100 64 8 8 (409600)
I1206 09:09:45.741211 22755 net.cpp:165] Memory required for data: 2003354800
I1206 09:09:45.741230 22755 layer_factory.hpp:77] Creating layer L3_b4_brc3_bn
I1206 09:09:45.741248 22755 net.cpp:100] Creating Layer L3_b4_brc3_bn
I1206 09:09:45.741261 22755 net.cpp:434] L3_b4_brc3_bn <- L3_b4_brc2_conv_top
I1206 09:09:45.741277 22755 net.cpp:408] L3_b4_brc3_bn -> L3_b4_brc3_bn_top
I1206 09:09:45.741585 22755 net.cpp:150] Setting up L3_b4_brc3_bn
I1206 09:09:45.741603 22755 net.cpp:157] Top shape: 100 64 8 8 (409600)
I1206 09:09:45.741612 22755 net.cpp:165] Memory required for data: 2004993200
I1206 09:09:45.741633 22755 layer_factory.hpp:77] Creating layer L3_b4_brc3_relu
I1206 09:09:45.741657 22755 net.cpp:100] Creating Layer L3_b4_brc3_relu
I1206 09:09:45.741669 22755 net.cpp:434] L3_b4_brc3_relu <- L3_b4_brc3_bn_top
I1206 09:09:45.741685 22755 net.cpp:395] L3_b4_brc3_relu -> L3_b4_brc3_bn_top (in-place)
I1206 09:09:45.741710 22755 net.cpp:150] Setting up L3_b4_brc3_relu
I1206 09:09:45.741726 22755 net.cpp:157] Top shape: 100 64 8 8 (409600)
I1206 09:09:45.741736 22755 net.cpp:165] Memory required for data: 2006631600
I1206 09:09:45.741745 22755 layer_factory.hpp:77] Creating layer L3_b4_brc3_conv
I1206 09:09:45.741766 22755 net.cpp:100] Creating Layer L3_b4_brc3_conv
I1206 09:09:45.741780 22755 net.cpp:434] L3_b4_brc3_conv <- L3_b4_brc3_bn_top
I1206 09:09:45.741808 22755 net.cpp:408] L3_b4_brc3_conv -> L3_b4_brc3_conv_top
I1206 09:09:45.742460 22755 net.cpp:150] Setting up L3_b4_brc3_conv
I1206 09:09:45.742480 22755 net.cpp:157] Top shape: 100 256 8 8 (1638400)
I1206 09:09:45.742489 22755 net.cpp:165] Memory required for data: 2013185200
I1206 09:09:45.742508 22755 layer_factory.hpp:77] Creating layer L3_b4_sum_eltwise
I1206 09:09:45.742527 22755 net.cpp:100] Creating Layer L3_b4_sum_eltwise
I1206 09:09:45.742537 22755 net.cpp:434] L3_b4_sum_eltwise <- L3_b4_brc3_conv_top
I1206 09:09:45.742552 22755 net.cpp:434] L3_b4_sum_eltwise <- L3_b3_sum_eltwise_top_L3_b3_sum_eltwise_0_split_1
I1206 09:09:45.742568 22755 net.cpp:408] L3_b4_sum_eltwise -> L3_b4_sum_eltwise_top
I1206 09:09:45.742640 22755 net.cpp:150] Setting up L3_b4_sum_eltwise
I1206 09:09:45.742658 22755 net.cpp:157] Top shape: 100 256 8 8 (1638400)
I1206 09:09:45.742667 22755 net.cpp:165] Memory required for data: 2019738800
I1206 09:09:45.742678 22755 layer_factory.hpp:77] Creating layer L3_b4_sum_eltwise_top_L3_b4_sum_eltwise_0_split
I1206 09:09:45.742699 22755 net.cpp:100] Creating Layer L3_b4_sum_eltwise_top_L3_b4_sum_eltwise_0_split
I1206 09:09:45.742712 22755 net.cpp:434] L3_b4_sum_eltwise_top_L3_b4_sum_eltwise_0_split <- L3_b4_sum_eltwise_top
I1206 09:09:45.742727 22755 net.cpp:408] L3_b4_sum_eltwise_top_L3_b4_sum_eltwise_0_split -> L3_b4_sum_eltwise_top_L3_b4_sum_eltwise_0_split_0
I1206 09:09:45.742748 22755 net.cpp:408] L3_b4_sum_eltwise_top_L3_b4_sum_eltwise_0_split -> L3_b4_sum_eltwise_top_L3_b4_sum_eltwise_0_split_1
I1206 09:09:45.742848 22755 net.cpp:150] Setting up L3_b4_sum_eltwise_top_L3_b4_sum_eltwise_0_split
I1206 09:09:45.742866 22755 net.cpp:157] Top shape: 100 256 8 8 (1638400)
I1206 09:09:45.742879 22755 net.cpp:157] Top shape: 100 256 8 8 (1638400)
I1206 09:09:45.742888 22755 net.cpp:165] Memory required for data: 2032846000
I1206 09:09:45.742899 22755 layer_factory.hpp:77] Creating layer L3_b5_brc1_bn
I1206 09:09:45.742920 22755 net.cpp:100] Creating Layer L3_b5_brc1_bn
I1206 09:09:45.742933 22755 net.cpp:434] L3_b5_brc1_bn <- L3_b4_sum_eltwise_top_L3_b4_sum_eltwise_0_split_0
I1206 09:09:45.742951 22755 net.cpp:408] L3_b5_brc1_bn -> L3_b5_brc1_bn_top
I1206 09:09:45.743245 22755 net.cpp:150] Setting up L3_b5_brc1_bn
I1206 09:09:45.743264 22755 net.cpp:157] Top shape: 100 256 8 8 (1638400)
I1206 09:09:45.743273 22755 net.cpp:165] Memory required for data: 2039399600
I1206 09:09:45.743295 22755 layer_factory.hpp:77] Creating layer L3_b5_brc1_relu
I1206 09:09:45.743319 22755 net.cpp:100] Creating Layer L3_b5_brc1_relu
I1206 09:09:45.743331 22755 net.cpp:434] L3_b5_brc1_relu <- L3_b5_brc1_bn_top
I1206 09:09:45.743357 22755 net.cpp:395] L3_b5_brc1_relu -> L3_b5_brc1_bn_top (in-place)
I1206 09:09:45.743377 22755 net.cpp:150] Setting up L3_b5_brc1_relu
I1206 09:09:45.743392 22755 net.cpp:157] Top shape: 100 256 8 8 (1638400)
I1206 09:09:45.743402 22755 net.cpp:165] Memory required for data: 2045953200
I1206 09:09:45.743413 22755 layer_factory.hpp:77] Creating layer L3_b5_brc1_conv
I1206 09:09:45.743434 22755 net.cpp:100] Creating Layer L3_b5_brc1_conv
I1206 09:09:45.743448 22755 net.cpp:434] L3_b5_brc1_conv <- L3_b5_brc1_bn_top
I1206 09:09:45.743470 22755 net.cpp:408] L3_b5_brc1_conv -> L3_b5_brc1_conv_top
I1206 09:09:45.744156 22755 net.cpp:150] Setting up L3_b5_brc1_conv
I1206 09:09:45.744176 22755 net.cpp:157] Top shape: 100 64 8 8 (409600)
I1206 09:09:45.744185 22755 net.cpp:165] Memory required for data: 2047591600
I1206 09:09:45.744204 22755 layer_factory.hpp:77] Creating layer L3_b5_brc2_bn
I1206 09:09:45.744221 22755 net.cpp:100] Creating Layer L3_b5_brc2_bn
I1206 09:09:45.744232 22755 net.cpp:434] L3_b5_brc2_bn <- L3_b5_brc1_conv_top
I1206 09:09:45.744253 22755 net.cpp:408] L3_b5_brc2_bn -> L3_b5_brc2_bn_top
I1206 09:09:45.744557 22755 net.cpp:150] Setting up L3_b5_brc2_bn
I1206 09:09:45.744576 22755 net.cpp:157] Top shape: 100 64 8 8 (409600)
I1206 09:09:45.744585 22755 net.cpp:165] Memory required for data: 2049230000
I1206 09:09:45.744607 22755 layer_factory.hpp:77] Creating layer L3_b5_brc2_relu
I1206 09:09:45.744624 22755 net.cpp:100] Creating Layer L3_b5_brc2_relu
I1206 09:09:45.744637 22755 net.cpp:434] L3_b5_brc2_relu <- L3_b5_brc2_bn_top
I1206 09:09:45.744650 22755 net.cpp:395] L3_b5_brc2_relu -> L3_b5_brc2_bn_top (in-place)
I1206 09:09:45.744670 22755 net.cpp:150] Setting up L3_b5_brc2_relu
I1206 09:09:45.744684 22755 net.cpp:157] Top shape: 100 64 8 8 (409600)
I1206 09:09:45.744693 22755 net.cpp:165] Memory required for data: 2050868400
I1206 09:09:45.744704 22755 layer_factory.hpp:77] Creating layer L3_b5_brc2_conv
I1206 09:09:45.744731 22755 net.cpp:100] Creating Layer L3_b5_brc2_conv
I1206 09:09:45.744745 22755 net.cpp:434] L3_b5_brc2_conv <- L3_b5_brc2_bn_top
I1206 09:09:45.744762 22755 net.cpp:408] L3_b5_brc2_conv -> L3_b5_brc2_conv_top
I1206 09:09:45.745839 22755 net.cpp:150] Setting up L3_b5_brc2_conv
I1206 09:09:45.745859 22755 net.cpp:157] Top shape: 100 64 8 8 (409600)
I1206 09:09:45.745868 22755 net.cpp:165] Memory required for data: 2052506800
I1206 09:09:45.745940 22755 layer_factory.hpp:77] Creating layer L3_b5_brc3_bn
I1206 09:09:45.745965 22755 net.cpp:100] Creating Layer L3_b5_brc3_bn
I1206 09:09:45.745980 22755 net.cpp:434] L3_b5_brc3_bn <- L3_b5_brc2_conv_top
I1206 09:09:45.745995 22755 net.cpp:408] L3_b5_brc3_bn -> L3_b5_brc3_bn_top
I1206 09:09:45.746315 22755 net.cpp:150] Setting up L3_b5_brc3_bn
I1206 09:09:45.746335 22755 net.cpp:157] Top shape: 100 64 8 8 (409600)
I1206 09:09:45.746343 22755 net.cpp:165] Memory required for data: 2054145200
I1206 09:09:45.746366 22755 layer_factory.hpp:77] Creating layer L3_b5_brc3_relu
I1206 09:09:45.746388 22755 net.cpp:100] Creating Layer L3_b5_brc3_relu
I1206 09:09:45.746402 22755 net.cpp:434] L3_b5_brc3_relu <- L3_b5_brc3_bn_top
I1206 09:09:45.746417 22755 net.cpp:395] L3_b5_brc3_relu -> L3_b5_brc3_bn_top (in-place)
I1206 09:09:45.746436 22755 net.cpp:150] Setting up L3_b5_brc3_relu
I1206 09:09:45.746451 22755 net.cpp:157] Top shape: 100 64 8 8 (409600)
I1206 09:09:45.746461 22755 net.cpp:165] Memory required for data: 2055783600
I1206 09:09:45.746471 22755 layer_factory.hpp:77] Creating layer L3_b5_brc3_conv
I1206 09:09:45.746491 22755 net.cpp:100] Creating Layer L3_b5_brc3_conv
I1206 09:09:45.746505 22755 net.cpp:434] L3_b5_brc3_conv <- L3_b5_brc3_bn_top
I1206 09:09:45.746527 22755 net.cpp:408] L3_b5_brc3_conv -> L3_b5_brc3_conv_top
I1206 09:09:45.747200 22755 net.cpp:150] Setting up L3_b5_brc3_conv
I1206 09:09:45.747220 22755 net.cpp:157] Top shape: 100 256 8 8 (1638400)
I1206 09:09:45.747229 22755 net.cpp:165] Memory required for data: 2062337200
I1206 09:09:45.747246 22755 layer_factory.hpp:77] Creating layer L3_b5_sum_eltwise
I1206 09:09:45.747277 22755 net.cpp:100] Creating Layer L3_b5_sum_eltwise
I1206 09:09:45.747288 22755 net.cpp:434] L3_b5_sum_eltwise <- L3_b5_brc3_conv_top
I1206 09:09:45.747303 22755 net.cpp:434] L3_b5_sum_eltwise <- L3_b4_sum_eltwise_top_L3_b4_sum_eltwise_0_split_1
I1206 09:09:45.747320 22755 net.cpp:408] L3_b5_sum_eltwise -> L3_b5_sum_eltwise_top
I1206 09:09:45.747385 22755 net.cpp:150] Setting up L3_b5_sum_eltwise
I1206 09:09:45.747406 22755 net.cpp:157] Top shape: 100 256 8 8 (1638400)
I1206 09:09:45.747416 22755 net.cpp:165] Memory required for data: 2068890800
I1206 09:09:45.747426 22755 layer_factory.hpp:77] Creating layer L3_b5_sum_eltwise_top_L3_b5_sum_eltwise_0_split
I1206 09:09:45.747442 22755 net.cpp:100] Creating Layer L3_b5_sum_eltwise_top_L3_b5_sum_eltwise_0_split
I1206 09:09:45.747454 22755 net.cpp:434] L3_b5_sum_eltwise_top_L3_b5_sum_eltwise_0_split <- L3_b5_sum_eltwise_top
I1206 09:09:45.747476 22755 net.cpp:408] L3_b5_sum_eltwise_top_L3_b5_sum_eltwise_0_split -> L3_b5_sum_eltwise_top_L3_b5_sum_eltwise_0_split_0
I1206 09:09:45.747496 22755 net.cpp:408] L3_b5_sum_eltwise_top_L3_b5_sum_eltwise_0_split -> L3_b5_sum_eltwise_top_L3_b5_sum_eltwise_0_split_1
I1206 09:09:45.747588 22755 net.cpp:150] Setting up L3_b5_sum_eltwise_top_L3_b5_sum_eltwise_0_split
I1206 09:09:45.747608 22755 net.cpp:157] Top shape: 100 256 8 8 (1638400)
I1206 09:09:45.747622 22755 net.cpp:157] Top shape: 100 256 8 8 (1638400)
I1206 09:09:45.747632 22755 net.cpp:165] Memory required for data: 2081998000
I1206 09:09:45.747642 22755 layer_factory.hpp:77] Creating layer L3_b6_brc1_bn
I1206 09:09:45.747658 22755 net.cpp:100] Creating Layer L3_b6_brc1_bn
I1206 09:09:45.747669 22755 net.cpp:434] L3_b6_brc1_bn <- L3_b5_sum_eltwise_top_L3_b5_sum_eltwise_0_split_0
I1206 09:09:45.747694 22755 net.cpp:408] L3_b6_brc1_bn -> L3_b6_brc1_bn_top
I1206 09:09:45.748008 22755 net.cpp:150] Setting up L3_b6_brc1_bn
I1206 09:09:45.748028 22755 net.cpp:157] Top shape: 100 256 8 8 (1638400)
I1206 09:09:45.748036 22755 net.cpp:165] Memory required for data: 2088551600
I1206 09:09:45.748059 22755 layer_factory.hpp:77] Creating layer L3_b6_brc1_relu
I1206 09:09:45.748081 22755 net.cpp:100] Creating Layer L3_b6_brc1_relu
I1206 09:09:45.748095 22755 net.cpp:434] L3_b6_brc1_relu <- L3_b6_brc1_bn_top
I1206 09:09:45.748111 22755 net.cpp:395] L3_b6_brc1_relu -> L3_b6_brc1_bn_top (in-place)
I1206 09:09:45.748131 22755 net.cpp:150] Setting up L3_b6_brc1_relu
I1206 09:09:45.748144 22755 net.cpp:157] Top shape: 100 256 8 8 (1638400)
I1206 09:09:45.748154 22755 net.cpp:165] Memory required for data: 2095105200
I1206 09:09:45.748164 22755 layer_factory.hpp:77] Creating layer L3_b6_brc1_conv
I1206 09:09:45.748186 22755 net.cpp:100] Creating Layer L3_b6_brc1_conv
I1206 09:09:45.748199 22755 net.cpp:434] L3_b6_brc1_conv <- L3_b6_brc1_bn_top
I1206 09:09:45.748222 22755 net.cpp:408] L3_b6_brc1_conv -> L3_b6_brc1_conv_top
I1206 09:09:45.748898 22755 net.cpp:150] Setting up L3_b6_brc1_conv
I1206 09:09:45.748917 22755 net.cpp:157] Top shape: 100 64 8 8 (409600)
I1206 09:09:45.748926 22755 net.cpp:165] Memory required for data: 2096743600
I1206 09:09:45.748944 22755 layer_factory.hpp:77] Creating layer L3_b6_brc2_bn
I1206 09:09:45.748962 22755 net.cpp:100] Creating Layer L3_b6_brc2_bn
I1206 09:09:45.748973 22755 net.cpp:434] L3_b6_brc2_bn <- L3_b6_brc1_conv_top
I1206 09:09:45.748999 22755 net.cpp:408] L3_b6_brc2_bn -> L3_b6_brc2_bn_top
I1206 09:09:45.749307 22755 net.cpp:150] Setting up L3_b6_brc2_bn
I1206 09:09:45.749331 22755 net.cpp:157] Top shape: 100 64 8 8 (409600)
I1206 09:09:45.749341 22755 net.cpp:165] Memory required for data: 2098382000
I1206 09:09:45.749363 22755 layer_factory.hpp:77] Creating layer L3_b6_brc2_relu
I1206 09:09:45.749380 22755 net.cpp:100] Creating Layer L3_b6_brc2_relu
I1206 09:09:45.749392 22755 net.cpp:434] L3_b6_brc2_relu <- L3_b6_brc2_bn_top
I1206 09:09:45.749408 22755 net.cpp:395] L3_b6_brc2_relu -> L3_b6_brc2_bn_top (in-place)
I1206 09:09:45.749428 22755 net.cpp:150] Setting up L3_b6_brc2_relu
I1206 09:09:45.749442 22755 net.cpp:157] Top shape: 100 64 8 8 (409600)
I1206 09:09:45.749461 22755 net.cpp:165] Memory required for data: 2100020400
I1206 09:09:45.749474 22755 layer_factory.hpp:77] Creating layer L3_b6_brc2_conv
I1206 09:09:45.749495 22755 net.cpp:100] Creating Layer L3_b6_brc2_conv
I1206 09:09:45.749507 22755 net.cpp:434] L3_b6_brc2_conv <- L3_b6_brc2_bn_top
I1206 09:09:45.749532 22755 net.cpp:408] L3_b6_brc2_conv -> L3_b6_brc2_conv_top
I1206 09:09:45.750627 22755 net.cpp:150] Setting up L3_b6_brc2_conv
I1206 09:09:45.750648 22755 net.cpp:157] Top shape: 100 64 8 8 (409600)
I1206 09:09:45.750656 22755 net.cpp:165] Memory required for data: 2101658800
I1206 09:09:45.750674 22755 layer_factory.hpp:77] Creating layer L3_b6_brc3_bn
I1206 09:09:45.750696 22755 net.cpp:100] Creating Layer L3_b6_brc3_bn
I1206 09:09:45.750710 22755 net.cpp:434] L3_b6_brc3_bn <- L3_b6_brc2_conv_top
I1206 09:09:45.750726 22755 net.cpp:408] L3_b6_brc3_bn -> L3_b6_brc3_bn_top
I1206 09:09:45.751049 22755 net.cpp:150] Setting up L3_b6_brc3_bn
I1206 09:09:45.751067 22755 net.cpp:157] Top shape: 100 64 8 8 (409600)
I1206 09:09:45.751076 22755 net.cpp:165] Memory required for data: 2103297200
I1206 09:09:45.751098 22755 layer_factory.hpp:77] Creating layer L3_b6_brc3_relu
I1206 09:09:45.751114 22755 net.cpp:100] Creating Layer L3_b6_brc3_relu
I1206 09:09:45.751127 22755 net.cpp:434] L3_b6_brc3_relu <- L3_b6_brc3_bn_top
I1206 09:09:45.751142 22755 net.cpp:395] L3_b6_brc3_relu -> L3_b6_brc3_bn_top (in-place)
I1206 09:09:45.751161 22755 net.cpp:150] Setting up L3_b6_brc3_relu
I1206 09:09:45.751176 22755 net.cpp:157] Top shape: 100 64 8 8 (409600)
I1206 09:09:45.751186 22755 net.cpp:165] Memory required for data: 2104935600
I1206 09:09:45.751196 22755 layer_factory.hpp:77] Creating layer L3_b6_brc3_conv
I1206 09:09:45.751224 22755 net.cpp:100] Creating Layer L3_b6_brc3_conv
I1206 09:09:45.751237 22755 net.cpp:434] L3_b6_brc3_conv <- L3_b6_brc3_bn_top
I1206 09:09:45.751260 22755 net.cpp:408] L3_b6_brc3_conv -> L3_b6_brc3_conv_top
I1206 09:09:45.751929 22755 net.cpp:150] Setting up L3_b6_brc3_conv
I1206 09:09:45.751948 22755 net.cpp:157] Top shape: 100 256 8 8 (1638400)
I1206 09:09:45.751957 22755 net.cpp:165] Memory required for data: 2111489200
I1206 09:09:45.751976 22755 layer_factory.hpp:77] Creating layer L3_b6_sum_eltwise
I1206 09:09:45.751993 22755 net.cpp:100] Creating Layer L3_b6_sum_eltwise
I1206 09:09:45.752005 22755 net.cpp:434] L3_b6_sum_eltwise <- L3_b6_brc3_conv_top
I1206 09:09:45.752018 22755 net.cpp:434] L3_b6_sum_eltwise <- L3_b5_sum_eltwise_top_L3_b5_sum_eltwise_0_split_1
I1206 09:09:45.752043 22755 net.cpp:408] L3_b6_sum_eltwise -> L3_b6_sum_eltwise_top
I1206 09:09:45.752107 22755 net.cpp:150] Setting up L3_b6_sum_eltwise
I1206 09:09:45.752125 22755 net.cpp:157] Top shape: 100 256 8 8 (1638400)
I1206 09:09:45.752135 22755 net.cpp:165] Memory required for data: 2118042800
I1206 09:09:45.752146 22755 layer_factory.hpp:77] Creating layer post_bn
I1206 09:09:45.752161 22755 net.cpp:100] Creating Layer post_bn
I1206 09:09:45.752173 22755 net.cpp:434] post_bn <- L3_b6_sum_eltwise_top
I1206 09:09:45.752195 22755 net.cpp:408] post_bn -> post_bn_top
I1206 09:09:45.752485 22755 net.cpp:150] Setting up post_bn
I1206 09:09:45.752503 22755 net.cpp:157] Top shape: 100 256 8 8 (1638400)
I1206 09:09:45.752512 22755 net.cpp:165] Memory required for data: 2124596400
I1206 09:09:45.752534 22755 layer_factory.hpp:77] Creating layer post_relu
I1206 09:09:45.752555 22755 net.cpp:100] Creating Layer post_relu
I1206 09:09:45.752568 22755 net.cpp:434] post_relu <- post_bn_top
I1206 09:09:45.752584 22755 net.cpp:395] post_relu -> post_bn_top (in-place)
I1206 09:09:45.752604 22755 net.cpp:150] Setting up post_relu
I1206 09:09:45.752619 22755 net.cpp:157] Top shape: 100 256 8 8 (1638400)
I1206 09:09:45.752629 22755 net.cpp:165] Memory required for data: 2131150000
I1206 09:09:45.752638 22755 layer_factory.hpp:77] Creating layer post_pool
I1206 09:09:45.752655 22755 net.cpp:100] Creating Layer post_pool
I1206 09:09:45.752666 22755 net.cpp:434] post_pool <- post_bn_top
I1206 09:09:45.752696 22755 net.cpp:408] post_pool -> post_pool
I1206 09:09:45.752836 22755 net.cpp:150] Setting up post_pool
I1206 09:09:45.752856 22755 net.cpp:157] Top shape: 100 256 1 1 (25600)
I1206 09:09:45.752866 22755 net.cpp:165] Memory required for data: 2131252400
I1206 09:09:45.752876 22755 layer_factory.hpp:77] Creating layer post_FC
I1206 09:09:45.752986 22755 net.cpp:100] Creating Layer post_FC
I1206 09:09:45.753008 22755 net.cpp:434] post_FC <- post_pool
I1206 09:09:45.753026 22755 net.cpp:408] post_FC -> post_FC_top
I1206 09:09:45.753335 22755 net.cpp:150] Setting up post_FC
I1206 09:09:45.753356 22755 net.cpp:157] Top shape: 100 10 (1000)
I1206 09:09:45.753365 22755 net.cpp:165] Memory required for data: 2131256400
I1206 09:09:45.753383 22755 layer_factory.hpp:77] Creating layer post_FC_top_post_FC_0_split
I1206 09:09:45.753401 22755 net.cpp:100] Creating Layer post_FC_top_post_FC_0_split
I1206 09:09:45.753412 22755 net.cpp:434] post_FC_top_post_FC_0_split <- post_FC_top
I1206 09:09:45.753442 22755 net.cpp:408] post_FC_top_post_FC_0_split -> post_FC_top_post_FC_0_split_0
I1206 09:09:45.753463 22755 net.cpp:408] post_FC_top_post_FC_0_split -> post_FC_top_post_FC_0_split_1
I1206 09:09:45.753551 22755 net.cpp:150] Setting up post_FC_top_post_FC_0_split
I1206 09:09:45.753571 22755 net.cpp:157] Top shape: 100 10 (1000)
I1206 09:09:45.753583 22755 net.cpp:157] Top shape: 100 10 (1000)
I1206 09:09:45.753593 22755 net.cpp:165] Memory required for data: 2131264400
I1206 09:09:45.753604 22755 layer_factory.hpp:77] Creating layer accuracy
I1206 09:09:45.753674 22755 net.cpp:100] Creating Layer accuracy
I1206 09:09:45.753690 22755 net.cpp:434] accuracy <- post_FC_top_post_FC_0_split_0
I1206 09:09:45.753705 22755 net.cpp:434] accuracy <- label_dataLayer_1_split_0
I1206 09:09:45.753720 22755 net.cpp:408] accuracy -> accuracy
…
