…
I1206 09:01:38.241539 28553 net.cpp:322] The NetState phase (0) differed from the phase (1) specified by a rule in layer dataLayer
I1206 09:01:38.243172 28553 net.cpp:58] Initializing net from parameters: 
name: "Cifar-ResNeXt"
state {
  phase: TRAIN
  level: 0
  stage: ""
}
layer {
  name: "dataLayer"
  type: "Data"
  top: "data_top"
  top: "label"
  include {
    phase: TRAIN
  }
  transform_param {
    mirror: true
    crop_size: 32
    mean_file: "examples/cifar10/mean.binaryproto"
  }
  data_param {
    source: "examples/cifar10/cifar10_train_lmdb"
    batch_size: 85
    backend: LMDB
  }
  image_data_param {
    shuffle: true
  }
}
layer {
  name: "pre_conv"
  type: "Convolution"
  bottom: "data_top"
  top: "pre_conv_top"
  param {
    lr_mult: 1
    decay_mult: 1
  }
  param {
    lr_mult: 2
    decay_mult: 0
  }
  convolution_param {
    num_output: 16
    pad: 1
    kernel_size: 3
    stride: 1
    weight_filler {
      type: "msra"
    }
    bias_filler {
      type: "constant"
    }
  }
}
layer {
  name: "L1_b1_brc1_bn"
  type: "BatchNorm"
  bottom: "pre_conv_top"
  top: "L1_b1_brc1_bn_top"
  batch_norm_param {
    use_global_stats: false
    moving_average_fraction: 0.95
  }
}
layer {
  name: "L1_b1_brc1_relu"
  type: "ReLU"
  bottom: "L1_b1_brc1_bn_top"
  top: "L1_b1_brc1_bn_top"
}
layer {
  name: "L1_b1_brc1_conv"
  type: "Convolution"
  bottom: "L1_b1_brc1_bn_top"
  top: "L1_b1_brc1_conv_top"
  param {
    lr_mult: 1
    decay_mult: 1
  }
  param {
    lr_mult: 2
    decay_mult: 0
  }
  convolution_param {
    num_output: 32
    pad: 0
    kernel_size: 1
    stride: 1
    weight_filler {
      type: "msra"
    }
    bias_filler {
      type: "constant"
    }
  }
}
layer {
  name: "L1_b1_brc2_bn"
  type: "BatchNorm"
  bottom: "L1_b1_brc1_conv_top"
  top: "L1_b1_brc2_bn_top"
  batch_norm_param {
    use_global_stats: false
    moving_average_fraction: 0.95
  }
}
layer {
  name: "L1_b1_brc2_relu"
  type: "ReLU"
  bottom: "L1_b1_brc2_bn_top"
  top: "L1_b1_brc2_bn_top"
}
layer {
  name: "L1_b1_brc2_conv"
  type: "Convolution"
  bottom: "L1_b1_brc2_bn_top"
  top: "L1_b1_brc2_conv_top"
  param {
    lr_mult: 1
    decay_mult: 1
  }
  param {
    lr_mult: 2
    decay_mult: 0
  }
  convolution_param {
    num_output: 32
    pad: 1
    kernel_size: 3
    group: 32
    stride: 1
    weight_filler {
      type: "msra"
    }
    bias_filler {
      type: "constant"
    }
  }
}
layer {
  name: "L1_b1_brc3_bn"
  type: "BatchNorm"
  bottom: "L1_b1_brc2_conv_top"
  top: "L1_b1_brc3_bn_top"
  batch_norm_param {
    use_global_stats: false
    moving_average_fraction: 0.95
  }
}
layer {
  name: "L1_b1_brc3_relu"
  type: "ReLU"
  bottom: "L1_b1_brc3_bn_top"
  top: "L1_b1_brc3_bn_top"
}
layer {
  name: "L1_b1_brc3_conv"
  type: "Convolution"
  bottom: "L1_b1_brc3_bn_top"
  top: "L1_b1_brc3_conv_top"
  param {
    lr_mult: 1
    decay_mult: 1
  }
  param {
    lr_mult: 2
    decay_mult: 0
  }
  convolution_param {
    num_output: 64
    pad: 0
    kernel_size: 1
    stride: 1
    weight_filler {
      type: "msra"
    }
    bias_filler {
      type: "constant"
    }
  }
}
layer {
  name: "L1_b1_chanInc_conv"
  type: "Convolution"
  bottom: "pre_conv_top"
  top: "L1_b1_chanInc_conv_top"
  param {
    lr_mult: 1
    decay_mult: 1
  }
  param {
    lr_mult: 2
    decay_mult: 0
  }
  convolution_param {
    num_output: 64
    pad: 0
    kernel_size: 1
    stride: 1
    weight_filler {
      type: "msra"
    }
    bias_filler {
      type: "constant"
    }
  }
}
layer {
  name: "L1_b1_sum_eltwise"
  type: "Eltwise"
  bottom: "L1_b1_brc3_conv_top"
  bottom: "L1_b1_chanInc_conv_top"
  top: "L1_b1_sum_eltwise_top"
  eltwise_param {
    operation: SUM
  }
}
layer {
  name: "L1_b2_brc1_bn"
  type: "BatchNorm"
  bottom: "L1_b1_sum_eltwise_top"
  top: "L1_b2_brc1_bn_top"
  batch_norm_param {
    use_global_stats: false
    moving_average_fraction: 0.95
  }
}
layer {
  name: "L1_b2_brc1_relu"
  type: "ReLU"
  bottom: "L1_b2_brc1_bn_top"
  top: "L1_b2_brc1_bn_top"
}
layer {
  name: "L1_b2_brc1_conv"
  type: "Convolution"
  bottom: "L1_b2_brc1_bn_top"
  top: "L1_b2_brc1_conv_top"
  param {
    lr_mult: 1
    decay_mult: 1
  }
  param {
    lr_mult: 2
    decay_mult: 0
  }
  convolution_param {
    num_output: 32
    pad: 0
    kernel_size: 1
    stride: 1
    weight_filler {
      type: "msra"
    }
    bias_filler {
      type: "constant"
    }
  }
}
layer {
  name: "L1_b2_brc2_bn"
  type: "BatchNorm"
  bottom: "L1_b2_brc1_conv_top"
  top: "L1_b2_brc2_bn_top"
  batch_norm_param {
    use_global_stats: false
    moving_average_fraction: 0.95
  }
}
layer {
  name: "L1_b2_brc2_relu"
  type: "ReLU"
  bottom: "L1_b2_brc2_bn_top"
  top: "L1_b2_brc2_bn_top"
}
layer {
  name: "L1_b2_brc2_conv"
  type: "Convolution"
  bottom: "L1_b2_brc2_bn_top"
  top: "L1_b2_brc2_conv_top"
  param {
    lr_mult: 1
    decay_mult: 1
  }
  param {
    lr_mult: 2
    decay_mult: 0
  }
  convolution_param {
    num_output: 32
    pad: 1
    kernel_size: 3
    group: 32
    stride: 1
    weight_filler {
      type: "msra"
    }
    bias_filler {
      type: "constant"
    }
  }
}
layer {
  name: "L1_b2_brc3_bn"
  type: "BatchNorm"
  bottom: "L1_b2_brc2_conv_top"
  top: "L1_b2_brc3_bn_top"
  batch_norm_param {
    use_global_stats: false
    moving_average_fraction: 0.95
  }
}
layer {
  name: "L1_b2_brc3_relu"
  type: "ReLU"
  bottom: "L1_b2_brc3_bn_top"
  top: "L1_b2_brc3_bn_top"
}
layer {
  name: "L1_b2_brc3_conv"
  type: "Convolution"
  bottom: "L1_b2_brc3_bn_top"
  top: "L1_b2_brc3_conv_top"
  param {
    lr_mult: 1
    decay_mult: 1
  }
  param {
    lr_mult: 2
    decay_mult: 0
  }
  convolution_param {
    num_output: 64
    pad: 0
    kernel_size: 1
    stride: 1
    weight_filler {
      type: "msra"
    }
    bias_filler {
      type: "constant"
    }
  }
}
layer {
  name: "L1_b2_sum_eltwise"
  type: "Eltwise"
  bottom: "L1_b2_brc3_conv_top"
  bottom: "L1_b1_sum_eltwise_top"
  top: "L1_b2_sum_eltwise_top"
  eltwise_param {
    operation: SUM
  }
}
layer {
  name: "L1_b3_brc1_bn"
  type: "BatchNorm"
  bottom: "L1_b2_sum_eltwise_top"
  top: "L1_b3_brc1_bn_top"
  batch_norm_param {
    use_global_stats: false
    moving_average_fraction: 0.95
  }
}
layer {
  name: "L1_b3_brc1_relu"
  type: "ReLU"
  bottom: "L1_b3_brc1_bn_top"
  top: "L1_b3_brc1_bn_top"
}
layer {
  name: "L1_b3_brc1_conv"
  type: "Convolution"
  bottom: "L1_b3_brc1_bn_top"
  top: "L1_b3_brc1_conv_top"
  param {
    lr_mult: 1
    decay_mult: 1
  }
  param {
    lr_mult: 2
    decay_mult: 0
  }
  convolution_param {
    num_output: 32
    pad: 0
    kernel_size: 1
    stride: 1
    weight_filler {
      type: "msra"
    }
    bias_filler {
      type: "constant"
    }
  }
}
layer {
  name: "L1_b3_brc2_bn"
  type: "BatchNorm"
  bottom: "L1_b3_brc1_conv_top"
  top: "L1_b3_brc2_bn_top"
  batch_norm_param {
    use_global_stats: false
    moving_average_fraction: 0.95
  }
}
layer {
  name: "L1_b3_brc2_relu"
  type: "ReLU"
  bottom: "L1_b3_brc2_bn_top"
  top: "L1_b3_brc2_bn_top"
}
layer {
  name: "L1_b3_brc2_conv"
  type: "Convolution"
  bottom: "L1_b3_brc2_bn_top"
  top: "L1_b3_brc2_conv_top"
  param {
    lr_mult: 1
    decay_mult: 1
  }
  param {
    lr_mult: 2
    decay_mult: 0
  }
  convolution_param {
    num_output: 32
    pad: 1
    kernel_size: 3
    group: 32
    stride: 1
    weight_filler {
      type: "msra"
    }
    bias_filler {
      type: "constant"
    }
  }
}
layer {
  name: "L1_b3_brc3_bn"
  type: "BatchNorm"
  bottom: "L1_b3_brc2_conv_top"
  top: "L1_b3_brc3_bn_top"
  batch_norm_param {
    use_global_stats: false
    moving_average_fraction: 0.95
  }
}
layer {
  name: "L1_b3_brc3_relu"
  type: "ReLU"
  bottom: "L1_b3_brc3_bn_top"
  top: "L1_b3_brc3_bn_top"
}
layer {
  name: "L1_b3_brc3_conv"
  type: "Convolution"
  bottom: "L1_b3_brc3_bn_top"
  top: "L1_b3_brc3_conv_top"
  param {
    lr_mult: 1
    decay_mult: 1
  }
  param {
    lr_mult: 2
    decay_mult: 0
  }
  convolution_param {
    num_output: 64
    pad: 0
    kernel_size: 1
    stride: 1
    weight_filler {
      type: "msra"
    }
    bias_filler {
      type: "constant"
    }
  }
}
layer {
  name: "L1_b3_sum_eltwise"
  type: "Eltwise"
  bottom: "L1_b3_brc3_conv_top"
  bottom: "L1_b2_sum_eltwise_top"
  top: "L1_b3_sum_eltwise_top"
  eltwise_param {
    operation: SUM
  }
}
layer {
  name: "L1_b4_brc1_bn"
  type: "BatchNorm"
  bottom: "L1_b3_sum_eltwise_top"
  top: "L1_b4_brc1_bn_top"
  batch_norm_param {
    use_global_stats: false
    moving_average_fraction: 0.95
  }
}
layer {
  name: "L1_b4_brc1_relu"
  type: "ReLU"
  bottom: "L1_b4_brc1_bn_top"
  top: "L1_b4_brc1_bn_top"
}
layer {
  name: "L1_b4_brc1_conv"
  type: "Convolution"
  bottom: "L1_b4_brc1_bn_top"
  top: "L1_b4_brc1_conv_top"
  param {
    lr_mult: 1
    decay_mult: 1
  }
  param {
    lr_mult: 2
    decay_mult: 0
  }
  convolution_param {
    num_output: 32
    pad: 0
    kernel_size: 1
    stride: 1
    weight_filler {
      type: "msra"
    }
    bias_filler {
      type: "constant"
    }
  }
}
layer {
  name: "L1_b4_brc2_bn"
  type: "BatchNorm"
  bottom: "L1_b4_brc1_conv_top"
  top: "L1_b4_brc2_bn_top"
  batch_norm_param {
    use_global_stats: false
    moving_average_fraction: 0.95
  }
}
layer {
  name: "L1_b4_brc2_relu"
  type: "ReLU"
  bottom: "L1_b4_brc2_bn_top"
  top: "L1_b4_brc2_bn_top"
}
layer {
  name: "L1_b4_brc2_conv"
  type: "Convolution"
  bottom: "L1_b4_brc2_bn_top"
  top: "L1_b4_brc2_conv_top"
  param {
    lr_mult: 1
    decay_mult: 1
  }
  param {
    lr_mult: 2
    decay_mult: 0
  }
  convolution_param {
    num_output: 32
    pad: 1
    kernel_size: 3
    group: 32
    stride: 1
    weight_filler {
      type: "msra"
    }
    bias_filler {
      type: "constant"
    }
  }
}
layer {
  name: "L1_b4_brc3_bn"
  type: "BatchNorm"
  bottom: "L1_b4_brc2_conv_top"
  top: "L1_b4_brc3_bn_top"
  batch_norm_param {
    use_global_stats: false
    moving_average_fraction: 0.95
  }
}
layer {
  name: "L1_b4_brc3_relu"
  type: "ReLU"
  bottom: "L1_b4_brc3_bn_top"
  top: "L1_b4_brc3_bn_top"
}
layer {
  name: "L1_b4_brc3_conv"
  type: "Convolution"
  bottom: "L1_b4_brc3_bn_top"
  top: "L1_b4_brc3_conv_top"
  param {
    lr_mult: 1
    decay_mult: 1
  }
  param {
    lr_mult: 2
    decay_mult: 0
  }
  convolution_param {
    num_output: 64
    pad: 0
    kernel_size: 1
    stride: 1
    weight_filler {
      type: "msra"
    }
    bias_filler {
      type: "constant"
    }
  }
}
layer {
  name: "L1_b4_sum_eltwise"
  type: "Eltwise"
  bottom: "L1_b4_brc3_conv_top"
  bottom: "L1_b3_sum_eltwise_top"
  top: "L1_b4_sum_eltwise_top"
  eltwise_param {
    operation: SUM
  }
}
layer {
  name: "L1_b5_brc1_bn"
  type: "BatchNorm"
  bottom: "L1_b4_sum_eltwise_top"
  top: "L1_b5_brc1_bn_top"
  batch_norm_param {
    use_global_stats: false
    moving_average_fraction: 0.95
  }
}
layer {
  name: "L1_b5_brc1_relu"
  type: "ReLU"
  bottom: "L1_b5_brc1_bn_top"
  top: "L1_b5_brc1_bn_top"
}
layer {
  name: "L1_b5_brc1_conv"
  type: "Convolution"
  bottom: "L1_b5_brc1_bn_top"
  top: "L1_b5_brc1_conv_top"
  param {
    lr_mult: 1
    decay_mult: 1
  }
  param {
    lr_mult: 2
    decay_mult: 0
  }
  convolution_param {
    num_output: 32
    pad: 0
    kernel_size: 1
    stride: 1
    weight_filler {
      type: "msra"
    }
    bias_filler {
      type: "constant"
    }
  }
}
layer {
  name: "L1_b5_brc2_bn"
  type: "BatchNorm"
  bottom: "L1_b5_brc1_conv_top"
  top: "L1_b5_brc2_bn_top"
  batch_norm_param {
    use_global_stats: false
    moving_average_fraction: 0.95
  }
}
layer {
  name: "L1_b5_brc2_relu"
  type: "ReLU"
  bottom: "L1_b5_brc2_bn_top"
  top: "L1_b5_brc2_bn_top"
}
layer {
  name: "L1_b5_brc2_conv"
  type: "Convolution"
  bottom: "L1_b5_brc2_bn_top"
  top: "L1_b5_brc2_conv_top"
  param {
    lr_mult: 1
    decay_mult: 1
  }
  param {
    lr_mult: 2
    decay_mult: 0
  }
  convolution_param {
    num_output: 32
    pad: 1
    kernel_size: 3
    group: 32
    stride: 1
    weight_filler {
      type: "msra"
    }
    bias_filler {
      type: "constant"
    }
  }
}
layer {
  name: "L1_b5_brc3_bn"
  type: "BatchNorm"
  bottom: "L1_b5_brc2_conv_top"
  top: "L1_b5_brc3_bn_top"
  batch_norm_param {
    use_global_stats: false
    moving_average_fraction: 0.95
  }
}
layer {
  name: "L1_b5_brc3_relu"
  type: "ReLU"
  bottom: "L1_b5_brc3_bn_top"
  top: "L1_b5_brc3_bn_top"
}
layer {
  name: "L1_b5_brc3_conv"
  type: "Convolution"
  bottom: "L1_b5_brc3_bn_top"
  top: "L1_b5_brc3_conv_top"
  param {
    lr_mult: 1
    decay_mult: 1
  }
  param {
    lr_mult: 2
    decay_mult: 0
  }
  convolution_param {
    num_output: 64
    pad: 0
    kernel_size: 1
    stride: 1
    weight_filler {
      type: "msra"
    }
    bias_filler {
      type: "constant"
    }
  }
}
layer {
  name: "L1_b5_sum_eltwise"
  type: "Eltwise"
  bottom: "L1_b5_brc3_conv_top"
  bottom: "L1_b4_sum_eltwise_top"
  top: "L1_b5_sum_eltwise_top"
  eltwise_param {
    operation: SUM
  }
}
layer {
  name: "L1_b6_brc1_bn"
  type: "BatchNorm"
  bottom: "L1_b5_sum_eltwise_top"
  top: "L1_b6_brc1_bn_top"
  batch_norm_param {
    use_global_stats: false
    moving_average_fraction: 0.95
  }
}
layer {
  name: "L1_b6_brc1_relu"
  type: "ReLU"
  bottom: "L1_b6_brc1_bn_top"
  top: "L1_b6_brc1_bn_top"
}
layer {
  name: "L1_b6_brc1_conv"
  type: "Convolution"
  bottom: "L1_b6_brc1_bn_top"
  top: "L1_b6_brc1_conv_top"
  param {
    lr_mult: 1
    decay_mult: 1
  }
  param {
    lr_mult: 2
    decay_mult: 0
  }
  convolution_param {
    num_output: 32
    pad: 0
    kernel_size: 1
    stride: 1
    weight_filler {
      type: "msra"
    }
    bias_filler {
      type: "constant"
    }
  }
}
layer {
  name: "L1_b6_brc2_bn"
  type: "BatchNorm"
  bottom: "L1_b6_brc1_conv_top"
  top: "L1_b6_brc2_bn_top"
  batch_norm_param {
    use_global_stats: false
    moving_average_fraction: 0.95
  }
}
layer {
  name: "L1_b6_brc2_relu"
  type: "ReLU"
  bottom: "L1_b6_brc2_bn_top"
  top: "L1_b6_brc2_bn_top"
}
layer {
  name: "L1_b6_brc2_conv"
  type: "Convolution"
  bottom: "L1_b6_brc2_bn_top"
  top: "L1_b6_brc2_conv_top"
  param {
    lr_mult: 1
    decay_mult: 1
  }
  param {
    lr_mult: 2
    decay_mult: 0
  }
  convolution_param {
    num_output: 32
    pad: 1
    kernel_size: 3
    group: 32
    stride: 1
    weight_filler {
      type: "msra"
    }
    bias_filler {
      type: "constant"
    }
  }
}
layer {
  name: "L1_b6_brc3_bn"
  type: "BatchNorm"
  bottom: "L1_b6_brc2_conv_top"
  top: "L1_b6_brc3_bn_top"
  batch_norm_param {
    use_global_stats: false
    moving_average_fraction: 0.95
  }
}
layer {
  name: "L1_b6_brc3_relu"
  type: "ReLU"
  bottom: "L1_b6_brc3_bn_top"
  top: "L1_b6_brc3_bn_top"
}
layer {
  name: "L1_b6_brc3_conv"
  type: "Convolution"
  bottom: "L1_b6_brc3_bn_top"
  top: "L1_b6_brc3_conv_top"
  param {
    lr_mult: 1
    decay_mult: 1
  }
  param {
    lr_mult: 2
    decay_mult: 0
  }
  convolution_param {
    num_output: 64
    pad: 0
    kernel_size: 1
    stride: 1
    weight_filler {
      type: "msra"
    }
    bias_filler {
      type: "constant"
    }
  }
}
layer {
  name: "L1_b6_sum_eltwise"
  type: "Eltwise"
  bottom: "L1_b6_brc3_conv_top"
  bottom: "L1_b5_sum_eltwise_top"
  top: "L1_b6_sum_eltwise_top"
  eltwise_param {
    operation: SUM
  }
}
layer {
  name: "L2_b1_brc1_bn"
  type: "BatchNorm"
  bottom: "L1_b6_sum_eltwise_top"
  top: "L2_b1_brc1_bn_top"
  batch_norm_param {
    use_global_stats: false
    moving_average_fraction: 0.95
  }
}
layer {
  name: "L2_b1_brc1_relu"
  type: "ReLU"
  bottom: "L2_b1_brc1_bn_top"
  top: "L2_b1_brc1_bn_top"
}
layer {
  name: "L2_b1_brc1_conv"
  type: "Convolution"
  bottom: "L2_b1_brc1_bn_top"
  top: "L2_b1_brc1_conv_top"
  param {
    lr_mult: 1
    decay_mult: 1
  }
  param {
    lr_mult: 2
    decay_mult: 0
  }
  convolution_param {
    num_output: 64
    pad: 0
    kernel_size: 1
    stride: 2
    weight_filler {
      type: "msra"
    }
    bias_filler {
      type: "constant"
    }
  }
}
layer {
  name: "L2_b1_brc2_bn"
  type: "BatchNorm"
  bottom: "L2_b1_brc1_conv_top"
  top: "L2_b1_brc2_bn_top"
  batch_norm_param {
    use_global_stats: false
    moving_average_fraction: 0.95
  }
}
layer {
  name: "L2_b1_brc2_relu"
  type: "ReLU"
  bottom: "L2_b1_brc2_bn_top"
  top: "L2_b1_brc2_bn_top"
}
layer {
  name: "L2_b1_brc2_conv"
  type: "Convolution"
  bottom: "L2_b1_brc2_bn_top"
  top: "L2_b1_brc2_conv_top"
  param {
    lr_mult: 1
    decay_mult: 1
  }
  param {
    lr_mult: 2
    decay_mult: 0
  }
  convolution_param {
    num_output: 64
    pad: 1
    kernel_size: 3
    group: 32
    stride: 1
    weight_filler {
      type: "msra"
    }
    bias_filler {
      type: "constant"
    }
  }
}
layer {
  name: "L2_b1_brc3_bn"
  type: "BatchNorm"
  bottom: "L2_b1_brc2_conv_top"
  top: "L2_b1_brc3_bn_top"
  batch_norm_param {
    use_global_stats: false
    moving_average_fraction: 0.95
  }
}
layer {
  name: "L2_b1_brc3_relu"
  type: "ReLU"
  bottom: "L2_b1_brc3_bn_top"
  top: "L2_b1_brc3_bn_top"
}
layer {
  name: "L2_b1_brc3_conv"
  type: "Convolution"
  bottom: "L2_b1_brc3_bn_top"
  top: "L2_b1_brc3_conv_top"
  param {
    lr_mult: 1
    decay_mult: 1
  }
  param {
    lr_mult: 2
    decay_mult: 0
  }
  convolution_param {
    num_output: 128
    pad: 0
    kernel_size: 1
    stride: 1
    weight_filler {
      type: "msra"
    }
    bias_filler {
      type: "constant"
    }
  }
}
layer {
  name: "L2_b1_chanInc_conv"
  type: "Convolution"
  bottom: "L1_b6_sum_eltwise_top"
  top: "L2_b1_chanInc_conv_top"
  param {
    lr_mult: 1
    decay_mult: 1
  }
  param {
    lr_mult: 2
    decay_mult: 0
  }
  convolution_param {
    num_output: 128
    pad: 0
    kernel_size: 1
    stride: 2
    weight_filler {
      type: "msra"
    }
    bias_filler {
      type: "constant"
    }
  }
}
layer {
  name: "L2_b1_sum_eltwise"
  type: "Eltwise"
  bottom: "L2_b1_brc3_conv_top"
  bottom: "L2_b1_chanInc_conv_top"
  top: "L2_b1_sum_eltwise_top"
  eltwise_param {
    operation: SUM
  }
}
layer {
  name: "L2_b2_brc1_bn"
  type: "BatchNorm"
  bottom: "L2_b1_sum_eltwise_top"
  top: "L2_b2_brc1_bn_top"
  batch_norm_param {
    use_global_stats: false
    moving_average_fraction: 0.95
  }
}
layer {
  name: "L2_b2_brc1_relu"
  type: "ReLU"
  bottom: "L2_b2_brc1_bn_top"
  top: "L2_b2_brc1_bn_top"
}
layer {
  name: "L2_b2_brc1_conv"
  type: "Convolution"
  bottom: "L2_b2_brc1_bn_top"
  top: "L2_b2_brc1_conv_top"
  param {
    lr_mult: 1
    decay_mult: 1
  }
  param {
    lr_mult: 2
    decay_mult: 0
  }
  convolution_param {
    num_output: 64
    pad: 0
    kernel_size: 1
    stride: 1
    weight_filler {
      type: "msra"
    }
    bias_filler {
      type: "constant"
    }
  }
}
layer {
  name: "L2_b2_brc2_bn"
  type: "BatchNorm"
  bottom: "L2_b2_brc1_conv_top"
  top: "L2_b2_brc2_bn_top"
  batch_norm_param {
    use_global_stats: false
    moving_average_fraction: 0.95
  }
}
layer {
  name: "L2_b2_brc2_relu"
  type: "ReLU"
  bottom: "L2_b2_brc2_bn_top"
  top: "L2_b2_brc2_bn_top"
}
layer {
  name: "L2_b2_brc2_conv"
  type: "Convolution"
  bottom: "L2_b2_brc2_bn_top"
  top: "L2_b2_brc2_conv_top"
  param {
    lr_mult: 1
    decay_mult: 1
  }
  param {
    lr_mult: 2
    decay_mult: 0
  }
  convolution_param {
    num_output: 64
    pad: 1
    kernel_size: 3
    group: 32
    stride: 1
    weight_filler {
      type: "msra"
    }
    bias_filler {
      type: "constant"
    }
  }
}
layer {
  name: "L2_b2_brc3_bn"
  type: "BatchNorm"
  bottom: "L2_b2_brc2_conv_top"
  top: "L2_b2_brc3_bn_top"
  batch_norm_param {
    use_global_stats: false
    moving_average_fraction: 0.95
  }
}
layer {
  name: "L2_b2_brc3_relu"
  type: "ReLU"
  bottom: "L2_b2_brc3_bn_top"
  top: "L2_b2_brc3_bn_top"
}
layer {
  name: "L2_b2_brc3_conv"
  type: "Convolution"
  bottom: "L2_b2_brc3_bn_top"
  top: "L2_b2_brc3_conv_top"
  param {
    lr_mult: 1
    decay_mult: 1
  }
  param {
    lr_mult: 2
    decay_mult: 0
  }
  convolution_param {
    num_output: 128
    pad: 0
    kernel_size: 1
    stride: 1
    weight_filler {
      type: "msra"
    }
    bias_filler {
      type: "constant"
    }
  }
}
layer {
  name: "L2_b2_sum_eltwise"
  type: "Eltwise"
  bottom: "L2_b2_brc3_conv_top"
  bottom: "L2_b1_sum_eltwise_top"
  top: "L2_b2_sum_eltwise_top"
  eltwise_param {
    operation: SUM
  }
}
layer {
  name: "L2_b3_brc1_bn"
  type: "BatchNorm"
  bottom: "L2_b2_sum_eltwise_top"
  top: "L2_b3_brc1_bn_top"
  batch_norm_param {
    use_global_stats: false
    moving_average_fraction: 0.95
  }
}
layer {
  name: "L2_b3_brc1_relu"
  type: "ReLU"
  bottom: "L2_b3_brc1_bn_top"
  top: "L2_b3_brc1_bn_top"
}
layer {
  name: "L2_b3_brc1_conv"
  type: "Convolution"
  bottom: "L2_b3_brc1_bn_top"
  top: "L2_b3_brc1_conv_top"
  param {
    lr_mult: 1
    decay_mult: 1
  }
  param {
    lr_mult: 2
    decay_mult: 0
  }
  convolution_param {
    num_output: 64
    pad: 0
    kernel_size: 1
    stride: 1
    weight_filler {
      type: "msra"
    }
    bias_filler {
      type: "constant"
    }
  }
}
layer {
  name: "L2_b3_brc2_bn"
  type: "BatchNorm"
  bottom: "L2_b3_brc1_conv_top"
  top: "L2_b3_brc2_bn_top"
  batch_norm_param {
    use_global_stats: false
    moving_average_fraction: 0.95
  }
}
layer {
  name: "L2_b3_brc2_relu"
  type: "ReLU"
  bottom: "L2_b3_brc2_bn_top"
  top: "L2_b3_brc2_bn_top"
}
layer {
  name: "L2_b3_brc2_conv"
  type: "Convolution"
  bottom: "L2_b3_brc2_bn_top"
  top: "L2_b3_brc2_conv_top"
  param {
    lr_mult: 1
    decay_mult: 1
  }
  param {
    lr_mult: 2
    decay_mult: 0
  }
  convolution_param {
    num_output: 64
    pad: 1
    kernel_size: 3
    group: 32
    stride: 1
    weight_filler {
      type: "msra"
    }
    bias_filler {
      type: "constant"
    }
  }
}
layer {
  name: "L2_b3_brc3_bn"
  type: "BatchNorm"
  bottom: "L2_b3_brc2_conv_top"
  top: "L2_b3_brc3_bn_top"
  batch_norm_param {
    use_global_stats: false
    moving_average_fraction: 0.95
  }
}
layer {
  name: "L2_b3_brc3_relu"
  type: "ReLU"
  bottom: "L2_b3_brc3_bn_top"
  top: "L2_b3_brc3_bn_top"
}
layer {
  name: "L2_b3_brc3_conv"
  type: "Convolution"
  bottom: "L2_b3_brc3_bn_top"
  top: "L2_b3_brc3_conv_top"
  param {
    lr_mult: 1
    decay_mult: 1
  }
  param {
    lr_mult: 2
    decay_mult: 0
  }
  convolution_param {
    num_output: 128
    pad: 0
    kernel_size: 1
    stride: 1
    weight_filler {
      type: "msra"
    }
    bias_filler {
      type: "constant"
    }
  }
}
layer {
  name: "L2_b3_sum_eltwise"
  type: "Eltwise"
  bottom: "L2_b3_brc3_conv_top"
  bottom: "L2_b2_sum_eltwise_top"
  top: "L2_b3_sum_eltwise_top"
  eltwise_param {
    operation: SUM
  }
}
layer {
  name: "L2_b4_brc1_bn"
  type: "BatchNorm"
  bottom: "L2_b3_sum_eltwise_top"
  top: "L2_b4_brc1_bn_top"
  batch_norm_param {
    use_global_stats: false
    moving_average_fraction: 0.95
  }
}
layer {
  name: "L2_b4_brc1_relu"
  type: "ReLU"
  bottom: "L2_b4_brc1_bn_top"
  top: "L2_b4_brc1_bn_top"
}
layer {
  name: "L2_b4_brc1_conv"
  type: "Convolution"
  bottom: "L2_b4_brc1_bn_top"
  top: "L2_b4_brc1_conv_top"
  param {
    lr_mult: 1
    decay_mult: 1
  }
  param {
    lr_mult: 2
    decay_mult: 0
  }
  convolution_param {
    num_output: 64
    pad: 0
    kernel_size: 1
    stride: 1
    weight_filler {
      type: "msra"
    }
    bias_filler {
      type: "constant"
    }
  }
}
layer {
  name: "L2_b4_brc2_bn"
  type: "BatchNorm"
  bottom: "L2_b4_brc1_conv_top"
  top: "L2_b4_brc2_bn_top"
  batch_norm_param {
    use_global_stats: false
    moving_average_fraction: 0.95
  }
}
layer {
  name: "L2_b4_brc2_relu"
  type: "ReLU"
  bottom: "L2_b4_brc2_bn_top"
  top: "L2_b4_brc2_bn_top"
}
layer {
  name: "L2_b4_brc2_conv"
  type: "Convolution"
  bottom: "L2_b4_brc2_bn_top"
  top: "L2_b4_brc2_conv_top"
  param {
    lr_mult: 1
    decay_mult: 1
  }
  param {
    lr_mult: 2
    decay_mult: 0
  }
  convolution_param {
    num_output: 64
    pad: 1
    kernel_size: 3
    group: 32
    stride: 1
    weight_filler {
      type: "msra"
    }
    bias_filler {
      type: "constant"
    }
  }
}
layer {
  name: "L2_b4_brc3_bn"
  type: "BatchNorm"
  bottom: "L2_b4_brc2_conv_top"
  top: "L2_b4_brc3_bn_top"
  batch_norm_param {
    use_global_stats: false
    moving_average_fraction: 0.95
  }
}
layer {
  name: "L2_b4_brc3_relu"
  type: "ReLU"
  bottom: "L2_b4_brc3_bn_top"
  top: "L2_b4_brc3_bn_top"
}
layer {
  name: "L2_b4_brc3_conv"
  type: "Convolution"
  bottom: "L2_b4_brc3_bn_top"
  top: "L2_b4_brc3_conv_top"
  param {
    lr_mult: 1
    decay_mult: 1
  }
  param {
    lr_mult: 2
    decay_mult: 0
  }
  convolution_param {
    num_output: 128
    pad: 0
    kernel_size: 1
    stride: 1
    weight_filler {
      type: "msra"
    }
    bias_filler {
      type: "constant"
    }
  }
}
layer {
  name: "L2_b4_sum_eltwise"
  type: "Eltwise"
  bottom: "L2_b4_brc3_conv_top"
  bottom: "L2_b3_sum_eltwise_top"
  top: "L2_b4_sum_eltwise_top"
  eltwise_param {
    operation: SUM
  }
}
layer {
  name: "L2_b5_brc1_bn"
  type: "BatchNorm"
  bottom: "L2_b4_sum_eltwise_top"
  top: "L2_b5_brc1_bn_top"
  batch_norm_param {
    use_global_stats: false
    moving_average_fraction: 0.95
  }
}
layer {
  name: "L2_b5_brc1_relu"
  type: "ReLU"
  bottom: "L2_b5_brc1_bn_top"
  top: "L2_b5_brc1_bn_top"
}
layer {
  name: "L2_b5_brc1_conv"
  type: "Convolution"
  bottom: "L2_b5_brc1_bn_top"
  top: "L2_b5_brc1_conv_top"
  param {
    lr_mult: 1
    decay_mult: 1
  }
  param {
    lr_mult: 2
    decay_mult: 0
  }
  convolution_param {
    num_output: 64
    pad: 0
    kernel_size: 1
    stride: 1
    weight_filler {
      type: "msra"
    }
    bias_filler {
      type: "constant"
    }
  }
}
layer {
  name: "L2_b5_brc2_bn"
  type: "BatchNorm"
  bottom: "L2_b5_brc1_conv_top"
  top: "L2_b5_brc2_bn_top"
  batch_norm_param {
    use_global_stats: false
    moving_average_fraction: 0.95
  }
}
layer {
  name: "L2_b5_brc2_relu"
  type: "ReLU"
  bottom: "L2_b5_brc2_bn_top"
  top: "L2_b5_brc2_bn_top"
}
layer {
  name: "L2_b5_brc2_conv"
  type: "Convolution"
  bottom: "L2_b5_brc2_bn_top"
  top: "L2_b5_brc2_conv_top"
  param {
    lr_mult: 1
    decay_mult: 1
  }
  param {
    lr_mult: 2
    decay_mult: 0
  }
  convolution_param {
    num_output: 64
    pad: 1
    kernel_size: 3
    group: 32
    stride: 1
    weight_filler {
      type: "msra"
    }
    bias_filler {
      type: "constant"
    }
  }
}
layer {
  name: "L2_b5_brc3_bn"
  type: "BatchNorm"
  bottom: "L2_b5_brc2_conv_top"
  top: "L2_b5_brc3_bn_top"
  batch_norm_param {
    use_global_stats: false
    moving_average_fraction: 0.95
  }
}
layer {
  name: "L2_b5_brc3_relu"
  type: "ReLU"
  bottom: "L2_b5_brc3_bn_top"
  top: "L2_b5_brc3_bn_top"
}
layer {
  name: "L2_b5_brc3_conv"
  type: "Convolution"
  bottom: "L2_b5_brc3_bn_top"
  top: "L2_b5_brc3_conv_top"
  param {
    lr_mult: 1
    decay_mult: 1
  }
  param {
    lr_mult: 2
    decay_mult: 0
  }
  convolution_param {
    num_output: 128
    pad: 0
    kernel_size: 1
    stride: 1
    weight_filler {
      type: "msra"
    }
    bias_filler {
      type: "constant"
    }
  }
}
layer {
  name: "L2_b5_sum_eltwise"
  type: "Eltwise"
  bottom: "L2_b5_brc3_conv_top"
  bottom: "L2_b4_sum_eltwise_top"
  top: "L2_b5_sum_eltwise_top"
  eltwise_param {
    operation: SUM
  }
}
layer {
  name: "L2_b6_brc1_bn"
  type: "BatchNorm"
  bottom: "L2_b5_sum_eltwise_top"
  top: "L2_b6_brc1_bn_top"
  batch_norm_param {
    use_global_stats: false
    moving_average_fraction: 0.95
  }
}
layer {
  name: "L2_b6_brc1_relu"
  type: "ReLU"
  bottom: "L2_b6_brc1_bn_top"
  top: "L2_b6_brc1_bn_top"
}
layer {
  name: "L2_b6_brc1_conv"
  type: "Convolution"
  bottom: "L2_b6_brc1_bn_top"
  top: "L2_b6_brc1_conv_top"
  param {
    lr_mult: 1
    decay_mult: 1
  }
  param {
    lr_mult: 2
    decay_mult: 0
  }
  convolution_param {
    num_output: 64
    pad: 0
    kernel_size: 1
    stride: 1
    weight_filler {
      type: "msra"
    }
    bias_filler {
      type: "constant"
    }
  }
}
layer {
  name: "L2_b6_brc2_bn"
  type: "BatchNorm"
  bottom: "L2_b6_brc1_conv_top"
  top: "L2_b6_brc2_bn_top"
  batch_norm_param {
    use_global_stats: false
    moving_average_fraction: 0.95
  }
}
layer {
  name: "L2_b6_brc2_relu"
  type: "ReLU"
  bottom: "L2_b6_brc2_bn_top"
  top: "L2_b6_brc2_bn_top"
}
layer {
  name: "L2_b6_brc2_conv"
  type: "Convolution"
  bottom: "L2_b6_brc2_bn_top"
  top: "L2_b6_brc2_conv_top"
  param {
    lr_mult: 1
    decay_mult: 1
  }
  param {
    lr_mult: 2
    decay_mult: 0
  }
  convolution_param {
    num_output: 64
    pad: 1
    kernel_size: 3
    group: 32
    stride: 1
    weight_filler {
      type: "msra"
    }
    bias_filler {
      type: "constant"
    }
  }
}
layer {
  name: "L2_b6_brc3_bn"
  type: "BatchNorm"
  bottom: "L2_b6_brc2_conv_top"
  top: "L2_b6_brc3_bn_top"
  batch_norm_param {
    use_global_stats: false
    moving_average_fraction: 0.95
  }
}
layer {
  name: "L2_b6_brc3_relu"
  type: "ReLU"
  bottom: "L2_b6_brc3_bn_top"
  top: "L2_b6_brc3_bn_top"
}
layer {
  name: "L2_b6_brc3_conv"
  type: "Convolution"
  bottom: "L2_b6_brc3_bn_top"
  top: "L2_b6_brc3_conv_top"
  param {
    lr_mult: 1
    decay_mult: 1
  }
  param {
    lr_mult: 2
    decay_mult: 0
  }
  convolution_param {
    num_output: 128
    pad: 0
    kernel_size: 1
    stride: 1
    weight_filler {
      type: "msra"
    }
    bias_filler {
      type: "constant"
    }
  }
}
layer {
  name: "L2_b6_sum_eltwise"
  type: "Eltwise"
  bottom: "L2_b6_brc3_conv_top"
  bottom: "L2_b5_sum_eltwise_top"
  top: "L2_b6_sum_eltwise_top"
  eltwise_param {
    operation: SUM
  }
}
layer {
  name: "L3_b1_brc1_bn"
  type: "BatchNorm"
  bottom: "L2_b6_sum_eltwise_top"
  top: "L3_b1_brc1_bn_top"
  batch_norm_param {
    use_global_stats: false
    moving_average_fraction: 0.95
  }
}
layer {
  name: "L3_b1_brc1_relu"
  type: "ReLU"
  bottom: "L3_b1_brc1_bn_top"
  top: "L3_b1_brc1_bn_top"
}
layer {
  name: "L3_b1_brc1_conv"
  type: "Convolution"
  bottom: "L3_b1_brc1_bn_top"
  top: "L3_b1_brc1_conv_top"
  param {
    lr_mult: 1
    decay_mult: 1
  }
  param {
    lr_mult: 2
    decay_mult: 0
  }
  convolution_param {
    num_output: 128
    pad: 0
    kernel_size: 1
    stri
I1206 09:01:38.244825 28553 layer_factory.hpp:77] Creating layer dataLayer
I1206 09:01:38.247292 28553 net.cpp:100] Creating Layer dataLayer
I1206 09:01:38.247375 28553 net.cpp:408] dataLayer -> data_top
I1206 09:01:38.247601 28553 net.cpp:408] dataLayer -> label
I1206 09:01:38.247735 28553 data_transformer.cpp:25] Loading mean file from: examples/cifar10/mean.binaryproto
I1206 09:01:47.582607 28561 db_lmdb.cpp:35] Opened lmdb examples/cifar10/cifar10_train_lmdb
I1206 09:01:47.589159 28553 data_layer.cpp:41] output data size: 85,3,32,32
I1206 09:01:47.594386 28553 net.cpp:150] Setting up dataLayer
I1206 09:01:47.594465 28553 net.cpp:157] Top shape: 85 3 32 32 (261120)
I1206 09:01:47.594488 28553 net.cpp:157] Top shape: 85 (85)
I1206 09:01:47.594496 28553 net.cpp:165] Memory required for data: 1044820
I1206 09:01:47.594513 28553 layer_factory.hpp:77] Creating layer label_dataLayer_1_split
I1206 09:01:47.594533 28553 net.cpp:100] Creating Layer label_dataLayer_1_split
I1206 09:01:47.594542 28553 net.cpp:434] label_dataLayer_1_split <- label
I1206 09:01:47.594561 28553 net.cpp:408] label_dataLayer_1_split -> label_dataLayer_1_split_0
I1206 09:01:47.594584 28553 net.cpp:408] label_dataLayer_1_split -> label_dataLayer_1_split_1
I1206 09:01:47.594718 28553 net.cpp:150] Setting up label_dataLayer_1_split
I1206 09:01:47.594732 28553 net.cpp:157] Top shape: 85 (85)
I1206 09:01:47.594739 28553 net.cpp:157] Top shape: 85 (85)
I1206 09:01:47.594744 28553 net.cpp:165] Memory required for data: 1045500
I1206 09:01:47.594750 28553 layer_factory.hpp:77] Creating layer pre_conv
I1206 09:01:47.594823 28553 net.cpp:100] Creating Layer pre_conv
I1206 09:01:47.594836 28553 net.cpp:434] pre_conv <- data_top
I1206 09:01:47.594849 28553 net.cpp:408] pre_conv -> pre_conv_top
I1206 09:01:47.596770 28553 net.cpp:150] Setting up pre_conv
I1206 09:01:47.596789 28553 net.cpp:157] Top shape: 85 16 32 32 (1392640)
I1206 09:01:47.596796 28553 net.cpp:165] Memory required for data: 6616060
I1206 09:01:47.596850 28553 layer_factory.hpp:77] Creating layer pre_conv_top_pre_conv_0_split
I1206 09:01:47.596868 28553 net.cpp:100] Creating Layer pre_conv_top_pre_conv_0_split
I1206 09:01:47.596873 28553 net.cpp:434] pre_conv_top_pre_conv_0_split <- pre_conv_top
I1206 09:01:47.596881 28553 net.cpp:408] pre_conv_top_pre_conv_0_split -> pre_conv_top_pre_conv_0_split_0
I1206 09:01:47.596891 28553 net.cpp:408] pre_conv_top_pre_conv_0_split -> pre_conv_top_pre_conv_0_split_1
I1206 09:01:47.596942 28553 net.cpp:150] Setting up pre_conv_top_pre_conv_0_split
I1206 09:01:47.596956 28553 net.cpp:157] Top shape: 85 16 32 32 (1392640)
I1206 09:01:47.596962 28553 net.cpp:157] Top shape: 85 16 32 32 (1392640)
I1206 09:01:47.596967 28553 net.cpp:165] Memory required for data: 17757180
I1206 09:01:47.596972 28553 layer_factory.hpp:77] Creating layer L1_b1_brc1_bn
I1206 09:01:47.597048 28553 net.cpp:100] Creating Layer L1_b1_brc1_bn
I1206 09:01:47.597060 28553 net.cpp:434] L1_b1_brc1_bn <- pre_conv_top_pre_conv_0_split_0
I1206 09:01:47.597072 28553 net.cpp:408] L1_b1_brc1_bn -> L1_b1_brc1_bn_top
I1206 09:01:47.597780 28553 net.cpp:150] Setting up L1_b1_brc1_bn
I1206 09:01:47.597800 28553 net.cpp:157] Top shape: 85 16 32 32 (1392640)
I1206 09:01:47.597806 28553 net.cpp:165] Memory required for data: 23327740
I1206 09:01:47.597825 28553 layer_factory.hpp:77] Creating layer L1_b1_brc1_relu
I1206 09:01:47.597849 28562 blocking_queue.cpp:50] Waiting for data
I1206 09:01:47.597877 28553 net.cpp:100] Creating Layer L1_b1_brc1_relu
I1206 09:01:47.597887 28553 net.cpp:434] L1_b1_brc1_relu <- L1_b1_brc1_bn_top
I1206 09:01:47.597896 28553 net.cpp:395] L1_b1_brc1_relu -> L1_b1_brc1_bn_top (in-place)
I1206 09:01:47.597908 28553 net.cpp:150] Setting up L1_b1_brc1_relu
I1206 09:01:47.597915 28553 net.cpp:157] Top shape: 85 16 32 32 (1392640)
I1206 09:01:47.597920 28553 net.cpp:165] Memory required for data: 28898300
I1206 09:01:47.597925 28553 layer_factory.hpp:77] Creating layer L1_b1_brc1_conv
I1206 09:01:47.597937 28553 net.cpp:100] Creating Layer L1_b1_brc1_conv
I1206 09:01:47.597944 28553 net.cpp:434] L1_b1_brc1_conv <- L1_b1_brc1_bn_top
I1206 09:01:47.597957 28553 net.cpp:408] L1_b1_brc1_conv -> L1_b1_brc1_conv_top
I1206 09:01:47.598229 28553 net.cpp:150] Setting up L1_b1_brc1_conv
I1206 09:01:47.598244 28553 net.cpp:157] Top shape: 85 32 32 32 (2785280)
I1206 09:01:47.598249 28553 net.cpp:165] Memory required for data: 40039420
I1206 09:01:47.598259 28553 layer_factory.hpp:77] Creating layer L1_b1_brc2_bn
I1206 09:01:47.598268 28553 net.cpp:100] Creating Layer L1_b1_brc2_bn
I1206 09:01:47.598274 28553 net.cpp:434] L1_b1_brc2_bn <- L1_b1_brc1_conv_top
I1206 09:01:47.598284 28553 net.cpp:408] L1_b1_brc2_bn -> L1_b1_brc2_bn_top
I1206 09:01:47.598528 28553 net.cpp:150] Setting up L1_b1_brc2_bn
I1206 09:01:47.598546 28553 net.cpp:157] Top shape: 85 32 32 32 (2785280)
I1206 09:01:47.598551 28553 net.cpp:165] Memory required for data: 51180540
I1206 09:01:47.598565 28553 layer_factory.hpp:77] Creating layer L1_b1_brc2_relu
I1206 09:01:47.598575 28553 net.cpp:100] Creating Layer L1_b1_brc2_relu
I1206 09:01:47.598582 28553 net.cpp:434] L1_b1_brc2_relu <- L1_b1_brc2_bn_top
I1206 09:01:47.598589 28553 net.cpp:395] L1_b1_brc2_relu -> L1_b1_brc2_bn_top (in-place)
I1206 09:01:47.598598 28553 net.cpp:150] Setting up L1_b1_brc2_relu
I1206 09:01:47.598613 28553 net.cpp:157] Top shape: 85 32 32 32 (2785280)
I1206 09:01:47.598619 28553 net.cpp:165] Memory required for data: 62321660
I1206 09:01:47.598624 28553 layer_factory.hpp:77] Creating layer L1_b1_brc2_conv
I1206 09:01:47.598641 28553 net.cpp:100] Creating Layer L1_b1_brc2_conv
I1206 09:01:47.598647 28553 net.cpp:434] L1_b1_brc2_conv <- L1_b1_brc2_bn_top
I1206 09:01:47.598659 28553 net.cpp:408] L1_b1_brc2_conv -> L1_b1_brc2_conv_top
I1206 09:01:47.598923 28553 net.cpp:150] Setting up L1_b1_brc2_conv
I1206 09:01:47.598937 28553 net.cpp:157] Top shape: 85 32 32 32 (2785280)
I1206 09:01:47.598942 28553 net.cpp:165] Memory required for data: 73462780
I1206 09:01:47.598951 28553 layer_factory.hpp:77] Creating layer L1_b1_brc3_bn
I1206 09:01:47.598968 28553 net.cpp:100] Creating Layer L1_b1_brc3_bn
I1206 09:01:47.598973 28553 net.cpp:434] L1_b1_brc3_bn <- L1_b1_brc2_conv_top
I1206 09:01:47.598981 28553 net.cpp:408] L1_b1_brc3_bn -> L1_b1_brc3_bn_top
I1206 09:01:47.599203 28553 net.cpp:150] Setting up L1_b1_brc3_bn
I1206 09:01:47.599216 28553 net.cpp:157] Top shape: 85 32 32 32 (2785280)
I1206 09:01:47.599221 28553 net.cpp:165] Memory required for data: 84603900
I1206 09:01:47.599232 28553 layer_factory.hpp:77] Creating layer L1_b1_brc3_relu
I1206 09:01:47.599241 28553 net.cpp:100] Creating Layer L1_b1_brc3_relu
I1206 09:01:47.599246 28553 net.cpp:434] L1_b1_brc3_relu <- L1_b1_brc3_bn_top
I1206 09:01:47.599253 28553 net.cpp:395] L1_b1_brc3_relu -> L1_b1_brc3_bn_top (in-place)
I1206 09:01:47.599262 28553 net.cpp:150] Setting up L1_b1_brc3_relu
I1206 09:01:47.599269 28553 net.cpp:157] Top shape: 85 32 32 32 (2785280)
I1206 09:01:47.599273 28553 net.cpp:165] Memory required for data: 95745020
I1206 09:01:47.599278 28553 layer_factory.hpp:77] Creating layer L1_b1_brc3_conv
I1206 09:01:47.599292 28553 net.cpp:100] Creating Layer L1_b1_brc3_conv
I1206 09:01:47.599298 28553 net.cpp:434] L1_b1_brc3_conv <- L1_b1_brc3_bn_top
I1206 09:01:47.599308 28553 net.cpp:408] L1_b1_brc3_conv -> L1_b1_brc3_conv_top
I1206 09:01:47.599829 28553 net.cpp:150] Setting up L1_b1_brc3_conv
I1206 09:01:47.599845 28553 net.cpp:157] Top shape: 85 64 32 32 (5570560)
I1206 09:01:47.599850 28553 net.cpp:165] Memory required for data: 118027260
I1206 09:01:47.599865 28553 layer_factory.hpp:77] Creating layer L1_b1_chanInc_conv
I1206 09:01:47.599880 28553 net.cpp:100] Creating Layer L1_b1_chanInc_conv
I1206 09:01:47.599886 28553 net.cpp:434] L1_b1_chanInc_conv <- pre_conv_top_pre_conv_0_split_1
I1206 09:01:47.599895 28553 net.cpp:408] L1_b1_chanInc_conv -> L1_b1_chanInc_conv_top
I1206 09:01:47.600179 28553 net.cpp:150] Setting up L1_b1_chanInc_conv
I1206 09:01:47.600193 28553 net.cpp:157] Top shape: 85 64 32 32 (5570560)
I1206 09:01:47.600198 28553 net.cpp:165] Memory required for data: 140309500
I1206 09:01:47.600208 28553 layer_factory.hpp:77] Creating layer L1_b1_sum_eltwise
I1206 09:01:47.600265 28553 net.cpp:100] Creating Layer L1_b1_sum_eltwise
I1206 09:01:47.600277 28553 net.cpp:434] L1_b1_sum_eltwise <- L1_b1_brc3_conv_top
I1206 09:01:47.600286 28553 net.cpp:434] L1_b1_sum_eltwise <- L1_b1_chanInc_conv_top
I1206 09:01:47.600297 28553 net.cpp:408] L1_b1_sum_eltwise -> L1_b1_sum_eltwise_top
I1206 09:01:47.600373 28553 net.cpp:150] Setting up L1_b1_sum_eltwise
I1206 09:01:47.600389 28553 net.cpp:157] Top shape: 85 64 32 32 (5570560)
I1206 09:01:47.600394 28553 net.cpp:165] Memory required for data: 162591740
I1206 09:01:47.600399 28553 layer_factory.hpp:77] Creating layer L1_b1_sum_eltwise_top_L1_b1_sum_eltwise_0_split
I1206 09:01:47.600411 28553 net.cpp:100] Creating Layer L1_b1_sum_eltwise_top_L1_b1_sum_eltwise_0_split
I1206 09:01:47.600417 28553 net.cpp:434] L1_b1_sum_eltwise_top_L1_b1_sum_eltwise_0_split <- L1_b1_sum_eltwise_top
I1206 09:01:47.600425 28553 net.cpp:408] L1_b1_sum_eltwise_top_L1_b1_sum_eltwise_0_split -> L1_b1_sum_eltwise_top_L1_b1_sum_eltwise_0_split_0
I1206 09:01:47.600437 28553 net.cpp:408] L1_b1_sum_eltwise_top_L1_b1_sum_eltwise_0_split -> L1_b1_sum_eltwise_top_L1_b1_sum_eltwise_0_split_1
I1206 09:01:47.600512 28553 net.cpp:150] Setting up L1_b1_sum_eltwise_top_L1_b1_sum_eltwise_0_split
I1206 09:01:47.600525 28553 net.cpp:157] Top shape: 85 64 32 32 (5570560)
I1206 09:01:47.600535 28553 net.cpp:157] Top shape: 85 64 32 32 (5570560)
I1206 09:01:47.600539 28553 net.cpp:165] Memory required for data: 207156220
I1206 09:01:47.600544 28553 layer_factory.hpp:77] Creating layer L1_b2_brc1_bn
I1206 09:01:47.600555 28553 net.cpp:100] Creating Layer L1_b2_brc1_bn
I1206 09:01:47.600561 28553 net.cpp:434] L1_b2_brc1_bn <- L1_b1_sum_eltwise_top_L1_b1_sum_eltwise_0_split_0
I1206 09:01:47.600572 28553 net.cpp:408] L1_b2_brc1_bn -> L1_b2_brc1_bn_top
I1206 09:01:47.600790 28553 net.cpp:150] Setting up L1_b2_brc1_bn
I1206 09:01:47.600803 28553 net.cpp:157] Top shape: 85 64 32 32 (5570560)
I1206 09:01:47.600808 28553 net.cpp:165] Memory required for data: 229438460
I1206 09:01:47.600821 28553 layer_factory.hpp:77] Creating layer L1_b2_brc1_relu
I1206 09:01:47.600831 28553 net.cpp:100] Creating Layer L1_b2_brc1_relu
I1206 09:01:47.600837 28553 net.cpp:434] L1_b2_brc1_relu <- L1_b2_brc1_bn_top
I1206 09:01:47.600844 28553 net.cpp:395] L1_b2_brc1_relu -> L1_b2_brc1_bn_top (in-place)
I1206 09:01:47.600853 28553 net.cpp:150] Setting up L1_b2_brc1_relu
I1206 09:01:47.600860 28553 net.cpp:157] Top shape: 85 64 32 32 (5570560)
I1206 09:01:47.600865 28553 net.cpp:165] Memory required for data: 251720700
I1206 09:01:47.600870 28553 layer_factory.hpp:77] Creating layer L1_b2_brc1_conv
I1206 09:01:47.600881 28553 net.cpp:100] Creating Layer L1_b2_brc1_conv
I1206 09:01:47.600886 28553 net.cpp:434] L1_b2_brc1_conv <- L1_b2_brc1_bn_top
I1206 09:01:47.600898 28553 net.cpp:408] L1_b2_brc1_conv -> L1_b2_brc1_conv_top
I1206 09:01:47.601193 28553 net.cpp:150] Setting up L1_b2_brc1_conv
I1206 09:01:47.601207 28553 net.cpp:157] Top shape: 85 32 32 32 (2785280)
I1206 09:01:47.601212 28553 net.cpp:165] Memory required for data: 262861820
I1206 09:01:47.601220 28553 layer_factory.hpp:77] Creating layer L1_b2_brc2_bn
I1206 09:01:47.601229 28553 net.cpp:100] Creating Layer L1_b2_brc2_bn
I1206 09:01:47.601235 28553 net.cpp:434] L1_b2_brc2_bn <- L1_b2_brc1_conv_top
I1206 09:01:47.601243 28553 net.cpp:408] L1_b2_brc2_bn -> L1_b2_brc2_bn_top
I1206 09:01:47.601475 28553 net.cpp:150] Setting up L1_b2_brc2_bn
I1206 09:01:47.601488 28553 net.cpp:157] Top shape: 85 32 32 32 (2785280)
I1206 09:01:47.601493 28553 net.cpp:165] Memory required for data: 274002940
I1206 09:01:47.601503 28553 layer_factory.hpp:77] Creating layer L1_b2_brc2_relu
I1206 09:01:47.601514 28553 net.cpp:100] Creating Layer L1_b2_brc2_relu
I1206 09:01:47.601521 28553 net.cpp:434] L1_b2_brc2_relu <- L1_b2_brc2_bn_top
I1206 09:01:47.601527 28553 net.cpp:395] L1_b2_brc2_relu -> L1_b2_brc2_bn_top (in-place)
I1206 09:01:47.601537 28553 net.cpp:150] Setting up L1_b2_brc2_relu
I1206 09:01:47.601544 28553 net.cpp:157] Top shape: 85 32 32 32 (2785280)
I1206 09:01:47.601548 28553 net.cpp:165] Memory required for data: 285144060
I1206 09:01:47.601553 28553 layer_factory.hpp:77] Creating layer L1_b2_brc2_conv
I1206 09:01:47.601567 28553 net.cpp:100] Creating Layer L1_b2_brc2_conv
I1206 09:01:47.601573 28553 net.cpp:434] L1_b2_brc2_conv <- L1_b2_brc2_bn_top
I1206 09:01:47.601583 28553 net.cpp:408] L1_b2_brc2_conv -> L1_b2_brc2_conv_top
I1206 09:01:47.601853 28553 net.cpp:150] Setting up L1_b2_brc2_conv
I1206 09:01:47.601866 28553 net.cpp:157] Top shape: 85 32 32 32 (2785280)
I1206 09:01:47.601872 28553 net.cpp:165] Memory required for data: 296285180
I1206 09:01:47.601881 28553 layer_factory.hpp:77] Creating layer L1_b2_brc3_bn
I1206 09:01:47.601889 28553 net.cpp:100] Creating Layer L1_b2_brc3_bn
I1206 09:01:47.601894 28553 net.cpp:434] L1_b2_brc3_bn <- L1_b2_brc2_conv_top
I1206 09:01:47.601914 28553 net.cpp:408] L1_b2_brc3_bn -> L1_b2_brc3_bn_top
I1206 09:01:47.602146 28553 net.cpp:150] Setting up L1_b2_brc3_bn
I1206 09:01:47.602159 28553 net.cpp:157] Top shape: 85 32 32 32 (2785280)
I1206 09:01:47.602164 28553 net.cpp:165] Memory required for data: 307426300
I1206 09:01:47.602174 28553 layer_factory.hpp:77] Creating layer L1_b2_brc3_relu
I1206 09:01:47.602191 28553 net.cpp:100] Creating Layer L1_b2_brc3_relu
I1206 09:01:47.602197 28553 net.cpp:434] L1_b2_brc3_relu <- L1_b2_brc3_bn_top
I1206 09:01:47.602205 28553 net.cpp:395] L1_b2_brc3_relu -> L1_b2_brc3_bn_top (in-place)
I1206 09:01:47.602214 28553 net.cpp:150] Setting up L1_b2_brc3_relu
I1206 09:01:47.602221 28553 net.cpp:157] Top shape: 85 32 32 32 (2785280)
I1206 09:01:47.602226 28553 net.cpp:165] Memory required for data: 318567420
I1206 09:01:47.602231 28553 layer_factory.hpp:77] Creating layer L1_b2_brc3_conv
I1206 09:01:47.602241 28553 net.cpp:100] Creating Layer L1_b2_brc3_conv
I1206 09:01:47.602246 28553 net.cpp:434] L1_b2_brc3_conv <- L1_b2_brc3_bn_top
I1206 09:01:47.602257 28553 net.cpp:408] L1_b2_brc3_conv -> L1_b2_brc3_conv_top
I1206 09:01:47.602557 28553 net.cpp:150] Setting up L1_b2_brc3_conv
I1206 09:01:47.602572 28553 net.cpp:157] Top shape: 85 64 32 32 (5570560)
I1206 09:01:47.602577 28553 net.cpp:165] Memory required for data: 340849660
I1206 09:01:47.602591 28553 layer_factory.hpp:77] Creating layer L1_b2_sum_eltwise
I1206 09:01:47.602605 28553 net.cpp:100] Creating Layer L1_b2_sum_eltwise
I1206 09:01:47.602612 28553 net.cpp:434] L1_b2_sum_eltwise <- L1_b2_brc3_conv_top
I1206 09:01:47.602618 28553 net.cpp:434] L1_b2_sum_eltwise <- L1_b1_sum_eltwise_top_L1_b1_sum_eltwise_0_split_1
I1206 09:01:47.602627 28553 net.cpp:408] L1_b2_sum_eltwise -> L1_b2_sum_eltwise_top
I1206 09:01:47.602659 28553 net.cpp:150] Setting up L1_b2_sum_eltwise
I1206 09:01:47.602671 28553 net.cpp:157] Top shape: 85 64 32 32 (5570560)
I1206 09:01:47.602676 28553 net.cpp:165] Memory required for data: 363131900
I1206 09:01:47.602681 28553 layer_factory.hpp:77] Creating layer L1_b2_sum_eltwise_top_L1_b2_sum_eltwise_0_split
I1206 09:01:47.602689 28553 net.cpp:100] Creating Layer L1_b2_sum_eltwise_top_L1_b2_sum_eltwise_0_split
I1206 09:01:47.602695 28553 net.cpp:434] L1_b2_sum_eltwise_top_L1_b2_sum_eltwise_0_split <- L1_b2_sum_eltwise_top
I1206 09:01:47.602705 28553 net.cpp:408] L1_b2_sum_eltwise_top_L1_b2_sum_eltwise_0_split -> L1_b2_sum_eltwise_top_L1_b2_sum_eltwise_0_split_0
I1206 09:01:47.602715 28553 net.cpp:408] L1_b2_sum_eltwise_top_L1_b2_sum_eltwise_0_split -> L1_b2_sum_eltwise_top_L1_b2_sum_eltwise_0_split_1
I1206 09:01:47.602756 28553 net.cpp:150] Setting up L1_b2_sum_eltwise_top_L1_b2_sum_eltwise_0_split
I1206 09:01:47.602771 28553 net.cpp:157] Top shape: 85 64 32 32 (5570560)
I1206 09:01:47.602777 28553 net.cpp:157] Top shape: 85 64 32 32 (5570560)
I1206 09:01:47.602782 28553 net.cpp:165] Memory required for data: 407696380
I1206 09:01:47.602787 28553 layer_factory.hpp:77] Creating layer L1_b3_brc1_bn
I1206 09:01:47.602795 28553 net.cpp:100] Creating Layer L1_b3_brc1_bn
I1206 09:01:47.602800 28553 net.cpp:434] L1_b3_brc1_bn <- L1_b2_sum_eltwise_top_L1_b2_sum_eltwise_0_split_0
I1206 09:01:47.602810 28553 net.cpp:408] L1_b3_brc1_bn -> L1_b3_brc1_bn_top
I1206 09:01:47.603027 28553 net.cpp:150] Setting up L1_b3_brc1_bn
I1206 09:01:47.603039 28553 net.cpp:157] Top shape: 85 64 32 32 (5570560)
I1206 09:01:47.603044 28553 net.cpp:165] Memory required for data: 429978620
I1206 09:01:47.603055 28553 layer_factory.hpp:77] Creating layer L1_b3_brc1_relu
I1206 09:01:47.603062 28553 net.cpp:100] Creating Layer L1_b3_brc1_relu
I1206 09:01:47.603068 28553 net.cpp:434] L1_b3_brc1_relu <- L1_b3_brc1_bn_top
I1206 09:01:47.603075 28553 net.cpp:395] L1_b3_brc1_relu -> L1_b3_brc1_bn_top (in-place)
I1206 09:01:47.603085 28553 net.cpp:150] Setting up L1_b3_brc1_relu
I1206 09:01:47.603091 28553 net.cpp:157] Top shape: 85 64 32 32 (5570560)
I1206 09:01:47.603096 28553 net.cpp:165] Memory required for data: 452260860
I1206 09:01:47.603101 28553 layer_factory.hpp:77] Creating layer L1_b3_brc1_conv
I1206 09:01:47.603113 28553 net.cpp:100] Creating Layer L1_b3_brc1_conv
I1206 09:01:47.603121 28553 net.cpp:434] L1_b3_brc1_conv <- L1_b3_brc1_bn_top
I1206 09:01:47.603130 28553 net.cpp:408] L1_b3_brc1_conv -> L1_b3_brc1_conv_top
I1206 09:01:47.603431 28553 net.cpp:150] Setting up L1_b3_brc1_conv
I1206 09:01:47.603451 28553 net.cpp:157] Top shape: 85 32 32 32 (2785280)
I1206 09:01:47.603456 28553 net.cpp:165] Memory required for data: 463401980
I1206 09:01:47.603471 28553 layer_factory.hpp:77] Creating layer L1_b3_brc2_bn
I1206 09:01:47.603483 28553 net.cpp:100] Creating Layer L1_b3_brc2_bn
I1206 09:01:47.603490 28553 net.cpp:434] L1_b3_brc2_bn <- L1_b3_brc1_conv_top
I1206 09:01:47.603500 28553 net.cpp:408] L1_b3_brc2_bn -> L1_b3_brc2_bn_top
I1206 09:01:47.603725 28553 net.cpp:150] Setting up L1_b3_brc2_bn
I1206 09:01:47.603739 28553 net.cpp:157] Top shape: 85 32 32 32 (2785280)
I1206 09:01:47.603744 28553 net.cpp:165] Memory required for data: 474543100
I1206 09:01:47.603754 28553 layer_factory.hpp:77] Creating layer L1_b3_brc2_relu
I1206 09:01:47.603761 28553 net.cpp:100] Creating Layer L1_b3_brc2_relu
I1206 09:01:47.603766 28553 net.cpp:434] L1_b3_brc2_relu <- L1_b3_brc2_bn_top
I1206 09:01:47.603773 28553 net.cpp:395] L1_b3_brc2_relu -> L1_b3_brc2_bn_top (in-place)
I1206 09:01:47.603782 28553 net.cpp:150] Setting up L1_b3_brc2_relu
I1206 09:01:47.603790 28553 net.cpp:157] Top shape: 85 32 32 32 (2785280)
I1206 09:01:47.603793 28553 net.cpp:165] Memory required for data: 485684220
I1206 09:01:47.603798 28553 layer_factory.hpp:77] Creating layer L1_b3_brc2_conv
I1206 09:01:47.603817 28553 net.cpp:100] Creating Layer L1_b3_brc2_conv
I1206 09:01:47.603823 28553 net.cpp:434] L1_b3_brc2_conv <- L1_b3_brc2_bn_top
I1206 09:01:47.603832 28553 net.cpp:408] L1_b3_brc2_conv -> L1_b3_brc2_conv_top
I1206 09:01:47.604097 28553 net.cpp:150] Setting up L1_b3_brc2_conv
I1206 09:01:47.604111 28553 net.cpp:157] Top shape: 85 32 32 32 (2785280)
I1206 09:01:47.604116 28553 net.cpp:165] Memory required for data: 496825340
I1206 09:01:47.604125 28553 layer_factory.hpp:77] Creating layer L1_b3_brc3_bn
I1206 09:01:47.604135 28553 net.cpp:100] Creating Layer L1_b3_brc3_bn
I1206 09:01:47.604142 28553 net.cpp:434] L1_b3_brc3_bn <- L1_b3_brc2_conv_top
I1206 09:01:47.604149 28553 net.cpp:408] L1_b3_brc3_bn -> L1_b3_brc3_bn_top
I1206 09:01:47.604379 28553 net.cpp:150] Setting up L1_b3_brc3_bn
I1206 09:01:47.604393 28553 net.cpp:157] Top shape: 85 32 32 32 (2785280)
I1206 09:01:47.604398 28553 net.cpp:165] Memory required for data: 507966460
I1206 09:01:47.604408 28553 layer_factory.hpp:77] Creating layer L1_b3_brc3_relu
I1206 09:01:47.604415 28553 net.cpp:100] Creating Layer L1_b3_brc3_relu
I1206 09:01:47.604421 28553 net.cpp:434] L1_b3_brc3_relu <- L1_b3_brc3_bn_top
I1206 09:01:47.604434 28553 net.cpp:395] L1_b3_brc3_relu -> L1_b3_brc3_bn_top (in-place)
I1206 09:01:47.604444 28553 net.cpp:150] Setting up L1_b3_brc3_relu
I1206 09:01:47.604449 28553 net.cpp:157] Top shape: 85 32 32 32 (2785280)
I1206 09:01:47.604454 28553 net.cpp:165] Memory required for data: 519107580
I1206 09:01:47.604460 28553 layer_factory.hpp:77] Creating layer L1_b3_brc3_conv
I1206 09:01:47.604478 28553 net.cpp:100] Creating Layer L1_b3_brc3_conv
I1206 09:01:47.604485 28553 net.cpp:434] L1_b3_brc3_conv <- L1_b3_brc3_bn_top
I1206 09:01:47.604495 28553 net.cpp:408] L1_b3_brc3_conv -> L1_b3_brc3_conv_top
I1206 09:01:47.604799 28553 net.cpp:150] Setting up L1_b3_brc3_conv
I1206 09:01:47.604813 28553 net.cpp:157] Top shape: 85 64 32 32 (5570560)
I1206 09:01:47.604818 28553 net.cpp:165] Memory required for data: 541389820
I1206 09:01:47.604826 28553 layer_factory.hpp:77] Creating layer L1_b3_sum_eltwise
I1206 09:01:47.604835 28553 net.cpp:100] Creating Layer L1_b3_sum_eltwise
I1206 09:01:47.604841 28553 net.cpp:434] L1_b3_sum_eltwise <- L1_b3_brc3_conv_top
I1206 09:01:47.604848 28553 net.cpp:434] L1_b3_sum_eltwise <- L1_b2_sum_eltwise_top_L1_b2_sum_eltwise_0_split_1
I1206 09:01:47.604858 28553 net.cpp:408] L1_b3_sum_eltwise -> L1_b3_sum_eltwise_top
I1206 09:01:47.604894 28553 net.cpp:150] Setting up L1_b3_sum_eltwise
I1206 09:01:47.604907 28553 net.cpp:157] Top shape: 85 64 32 32 (5570560)
I1206 09:01:47.604912 28553 net.cpp:165] Memory required for data: 563672060
I1206 09:01:47.604917 28553 layer_factory.hpp:77] Creating layer L1_b3_sum_eltwise_top_L1_b3_sum_eltwise_0_split
I1206 09:01:47.604931 28553 net.cpp:100] Creating Layer L1_b3_sum_eltwise_top_L1_b3_sum_eltwise_0_split
I1206 09:01:47.604938 28553 net.cpp:434] L1_b3_sum_eltwise_top_L1_b3_sum_eltwise_0_split <- L1_b3_sum_eltwise_top
I1206 09:01:47.604948 28553 net.cpp:408] L1_b3_sum_eltwise_top_L1_b3_sum_eltwise_0_split -> L1_b3_sum_eltwise_top_L1_b3_sum_eltwise_0_split_0
I1206 09:01:47.604956 28553 net.cpp:408] L1_b3_sum_eltwise_top_L1_b3_sum_eltwise_0_split -> L1_b3_sum_eltwise_top_L1_b3_sum_eltwise_0_split_1
I1206 09:01:47.605000 28553 net.cpp:150] Setting up L1_b3_sum_eltwise_top_L1_b3_sum_eltwise_0_split
I1206 09:01:47.605013 28553 net.cpp:157] Top shape: 85 64 32 32 (5570560)
I1206 09:01:47.605020 28553 net.cpp:157] Top shape: 85 64 32 32 (5570560)
I1206 09:01:47.605024 28553 net.cpp:165] Memory required for data: 608236540
I1206 09:01:47.605029 28553 layer_factory.hpp:77] Creating layer L1_b4_brc1_bn
I1206 09:01:47.605037 28553 net.cpp:100] Creating Layer L1_b4_brc1_bn
I1206 09:01:47.605043 28553 net.cpp:434] L1_b4_brc1_bn <- L1_b3_sum_eltwise_top_L1_b3_sum_eltwise_0_split_0
I1206 09:01:47.605056 28553 net.cpp:408] L1_b4_brc1_bn -> L1_b4_brc1_bn_top
I1206 09:01:47.605275 28553 net.cpp:150] Setting up L1_b4_brc1_bn
I1206 09:01:47.605288 28553 net.cpp:157] Top shape: 85 64 32 32 (5570560)
I1206 09:01:47.605293 28553 net.cpp:165] Memory required for data: 630518780
I1206 09:01:47.605304 28553 layer_factory.hpp:77] Creating layer L1_b4_brc1_relu
I1206 09:01:47.605314 28553 net.cpp:100] Creating Layer L1_b4_brc1_relu
I1206 09:01:47.605320 28553 net.cpp:434] L1_b4_brc1_relu <- L1_b4_brc1_bn_top
I1206 09:01:47.605327 28553 net.cpp:395] L1_b4_brc1_relu -> L1_b4_brc1_bn_top (in-place)
I1206 09:01:47.605336 28553 net.cpp:150] Setting up L1_b4_brc1_relu
I1206 09:01:47.605343 28553 net.cpp:157] Top shape: 85 64 32 32 (5570560)
I1206 09:01:47.605348 28553 net.cpp:165] Memory required for data: 652801020
I1206 09:01:47.605352 28553 layer_factory.hpp:77] Creating layer L1_b4_brc1_conv
I1206 09:01:47.605363 28553 net.cpp:100] Creating Layer L1_b4_brc1_conv
I1206 09:01:47.605368 28553 net.cpp:434] L1_b4_brc1_conv <- L1_b4_brc1_bn_top
I1206 09:01:47.605379 28553 net.cpp:408] L1_b4_brc1_conv -> L1_b4_brc1_conv_top
I1206 09:01:47.605698 28553 net.cpp:150] Setting up L1_b4_brc1_conv
I1206 09:01:47.605712 28553 net.cpp:157] Top shape: 85 32 32 32 (2785280)
I1206 09:01:47.605717 28553 net.cpp:165] Memory required for data: 663942140
I1206 09:01:47.605726 28553 layer_factory.hpp:77] Creating layer L1_b4_brc2_bn
I1206 09:01:47.605736 28553 net.cpp:100] Creating Layer L1_b4_brc2_bn
I1206 09:01:47.605741 28553 net.cpp:434] L1_b4_brc2_bn <- L1_b4_brc1_conv_top
I1206 09:01:47.605754 28553 net.cpp:408] L1_b4_brc2_bn -> L1_b4_brc2_bn_top
I1206 09:01:47.605990 28553 net.cpp:150] Setting up L1_b4_brc2_bn
I1206 09:01:47.606003 28553 net.cpp:157] Top shape: 85 32 32 32 (2785280)
I1206 09:01:47.606009 28553 net.cpp:165] Memory required for data: 675083260
I1206 09:01:47.606019 28553 layer_factory.hpp:77] Creating layer L1_b4_brc2_relu
I1206 09:01:47.606030 28553 net.cpp:100] Creating Layer L1_b4_brc2_relu
I1206 09:01:47.606036 28553 net.cpp:434] L1_b4_brc2_relu <- L1_b4_brc2_bn_top
I1206 09:01:47.606043 28553 net.cpp:395] L1_b4_brc2_relu -> L1_b4_brc2_bn_top (in-place)
I1206 09:01:47.606052 28553 net.cpp:150] Setting up L1_b4_brc2_relu
I1206 09:01:47.606060 28553 net.cpp:157] Top shape: 85 32 32 32 (2785280)
I1206 09:01:47.606065 28553 net.cpp:165] Memory required for data: 686224380
I1206 09:01:47.606068 28553 layer_factory.hpp:77] Creating layer L1_b4_brc2_conv
I1206 09:01:47.606079 28553 net.cpp:100] Creating Layer L1_b4_brc2_conv
I1206 09:01:47.606084 28553 net.cpp:434] L1_b4_brc2_conv <- L1_b4_brc2_bn_top
I1206 09:01:47.606096 28553 net.cpp:408] L1_b4_brc2_conv -> L1_b4_brc2_conv_top
I1206 09:01:47.606364 28553 net.cpp:150] Setting up L1_b4_brc2_conv
I1206 09:01:47.606379 28553 net.cpp:157] Top shape: 85 32 32 32 (2785280)
I1206 09:01:47.606384 28553 net.cpp:165] Memory required for data: 697365500
I1206 09:01:47.606391 28553 layer_factory.hpp:77] Creating layer L1_b4_brc3_bn
I1206 09:01:47.606406 28553 net.cpp:100] Creating Layer L1_b4_brc3_bn
I1206 09:01:47.606413 28553 net.cpp:434] L1_b4_brc3_bn <- L1_b4_brc2_conv_top
I1206 09:01:47.606425 28553 net.cpp:408] L1_b4_brc3_bn -> L1_b4_brc3_bn_top
I1206 09:01:47.606664 28553 net.cpp:150] Setting up L1_b4_brc3_bn
I1206 09:01:47.606678 28553 net.cpp:157] Top shape: 85 32 32 32 (2785280)
I1206 09:01:47.606683 28553 net.cpp:165] Memory required for data: 708506620
I1206 09:01:47.606693 28553 layer_factory.hpp:77] Creating layer L1_b4_brc3_relu
I1206 09:01:47.606704 28553 net.cpp:100] Creating Layer L1_b4_brc3_relu
I1206 09:01:47.606710 28553 net.cpp:434] L1_b4_brc3_relu <- L1_b4_brc3_bn_top
I1206 09:01:47.606717 28553 net.cpp:395] L1_b4_brc3_relu -> L1_b4_brc3_bn_top (in-place)
I1206 09:01:47.606727 28553 net.cpp:150] Setting up L1_b4_brc3_relu
I1206 09:01:47.606734 28553 net.cpp:157] Top shape: 85 32 32 32 (2785280)
I1206 09:01:47.606739 28553 net.cpp:165] Memory required for data: 719647740
I1206 09:01:47.606743 28553 layer_factory.hpp:77] Creating layer L1_b4_brc3_conv
I1206 09:01:47.606753 28553 net.cpp:100] Creating Layer L1_b4_brc3_conv
I1206 09:01:47.606760 28553 net.cpp:434] L1_b4_brc3_conv <- L1_b4_brc3_bn_top
I1206 09:01:47.606770 28553 net.cpp:408] L1_b4_brc3_conv -> L1_b4_brc3_conv_top
I1206 09:01:47.607082 28553 net.cpp:150] Setting up L1_b4_brc3_conv
I1206 09:01:47.607096 28553 net.cpp:157] Top shape: 85 64 32 32 (5570560)
I1206 09:01:47.607101 28553 net.cpp:165] Memory required for data: 741929980
I1206 09:01:47.607110 28553 layer_factory.hpp:77] Creating layer L1_b4_sum_eltwise
I1206 09:01:47.607118 28553 net.cpp:100] Creating Layer L1_b4_sum_eltwise
I1206 09:01:47.607125 28553 net.cpp:434] L1_b4_sum_eltwise <- L1_b4_brc3_conv_top
I1206 09:01:47.607131 28553 net.cpp:434] L1_b4_sum_eltwise <- L1_b3_sum_eltwise_top_L1_b3_sum_eltwise_0_split_1
I1206 09:01:47.607139 28553 net.cpp:408] L1_b4_sum_eltwise -> L1_b4_sum_eltwise_top
I1206 09:01:47.607172 28553 net.cpp:150] Setting up L1_b4_sum_eltwise
I1206 09:01:47.607182 28553 net.cpp:157] Top shape: 85 64 32 32 (5570560)
I1206 09:01:47.607187 28553 net.cpp:165] Memory required for data: 764212220
I1206 09:01:47.607192 28553 layer_factory.hpp:77] Creating layer L1_b4_sum_eltwise_top_L1_b4_sum_eltwise_0_split
I1206 09:01:47.607201 28553 net.cpp:100] Creating Layer L1_b4_sum_eltwise_top_L1_b4_sum_eltwise_0_split
I1206 09:01:47.607208 28553 net.cpp:434] L1_b4_sum_eltwise_top_L1_b4_sum_eltwise_0_split <- L1_b4_sum_eltwise_top
I1206 09:01:47.607215 28553 net.cpp:408] L1_b4_sum_eltwise_top_L1_b4_sum_eltwise_0_split -> L1_b4_sum_eltwise_top_L1_b4_sum_eltwise_0_split_0
I1206 09:01:47.607224 28553 net.cpp:408] L1_b4_sum_eltwise_top_L1_b4_sum_eltwise_0_split -> L1_b4_sum_eltwise_top_L1_b4_sum_eltwise_0_split_1
I1206 09:01:47.607269 28553 net.cpp:150] Setting up L1_b4_sum_eltwise_top_L1_b4_sum_eltwise_0_split
I1206 09:01:47.607280 28553 net.cpp:157] Top shape: 85 64 32 32 (5570560)
I1206 09:01:47.607286 28553 net.cpp:157] Top shape: 85 64 32 32 (5570560)
I1206 09:01:47.607291 28553 net.cpp:165] Memory required for data: 808776700
I1206 09:01:47.607296 28553 layer_factory.hpp:77] Creating layer L1_b5_brc1_bn
I1206 09:01:47.607305 28553 net.cpp:100] Creating Layer L1_b5_brc1_bn
I1206 09:01:47.607309 28553 net.cpp:434] L1_b5_brc1_bn <- L1_b4_sum_eltwise_top_L1_b4_sum_eltwise_0_split_0
I1206 09:01:47.607321 28553 net.cpp:408] L1_b5_brc1_bn -> L1_b5_brc1_bn_top
I1206 09:01:47.607549 28553 net.cpp:150] Setting up L1_b5_brc1_bn
I1206 09:01:47.607564 28553 net.cpp:157] Top shape: 85 64 32 32 (5570560)
I1206 09:01:47.607570 28553 net.cpp:165] Memory required for data: 831058940
I1206 09:01:47.607592 28553 layer_factory.hpp:77] Creating layer L1_b5_brc1_relu
I1206 09:01:47.607601 28553 net.cpp:100] Creating Layer L1_b5_brc1_relu
I1206 09:01:47.607607 28553 net.cpp:434] L1_b5_brc1_relu <- L1_b5_brc1_bn_top
I1206 09:01:47.607617 28553 net.cpp:395] L1_b5_brc1_relu -> L1_b5_brc1_bn_top (in-place)
I1206 09:01:47.607627 28553 net.cpp:150] Setting up L1_b5_brc1_relu
I1206 09:01:47.607635 28553 net.cpp:157] Top shape: 85 64 32 32 (5570560)
I1206 09:01:47.607645 28553 net.cpp:165] Memory required for data: 853341180
I1206 09:01:47.607650 28553 layer_factory.hpp:77] Creating layer L1_b5_brc1_conv
I1206 09:01:47.607661 28553 net.cpp:100] Creating Layer L1_b5_brc1_conv
I1206 09:01:47.607667 28553 net.cpp:434] L1_b5_brc1_conv <- L1_b5_brc1_bn_top
I1206 09:01:47.607678 28553 net.cpp:408] L1_b5_brc1_conv -> L1_b5_brc1_conv_top
I1206 09:01:47.607980 28553 net.cpp:150] Setting up L1_b5_brc1_conv
I1206 09:01:47.607993 28553 net.cpp:157] Top shape: 85 32 32 32 (2785280)
I1206 09:01:47.607998 28553 net.cpp:165] Memory required for data: 864482300
I1206 09:01:47.608007 28553 layer_factory.hpp:77] Creating layer L1_b5_brc2_bn
I1206 09:01:47.608016 28553 net.cpp:100] Creating Layer L1_b5_brc2_bn
I1206 09:01:47.608021 28553 net.cpp:434] L1_b5_brc2_bn <- L1_b5_brc1_conv_top
I1206 09:01:47.608029 28553 net.cpp:408] L1_b5_brc2_bn -> L1_b5_brc2_bn_top
I1206 09:01:47.608259 28553 net.cpp:150] Setting up L1_b5_brc2_bn
I1206 09:01:47.608273 28553 net.cpp:157] Top shape: 85 32 32 32 (2785280)
I1206 09:01:47.608278 28553 net.cpp:165] Memory required for data: 875623420
I1206 09:01:47.608288 28553 layer_factory.hpp:77] Creating layer L1_b5_brc2_relu
I1206 09:01:47.608299 28553 net.cpp:100] Creating Layer L1_b5_brc2_relu
I1206 09:01:47.608304 28553 net.cpp:434] L1_b5_brc2_relu <- L1_b5_brc2_bn_top
I1206 09:01:47.608311 28553 net.cpp:395] L1_b5_brc2_relu -> L1_b5_brc2_bn_top (in-place)
I1206 09:01:47.608321 28553 net.cpp:150] Setting up L1_b5_brc2_relu
I1206 09:01:47.608328 28553 net.cpp:157] Top shape: 85 32 32 32 (2785280)
I1206 09:01:47.608332 28553 net.cpp:165] Memory required for data: 886764540
I1206 09:01:47.608337 28553 layer_factory.hpp:77] Creating layer L1_b5_brc2_conv
I1206 09:01:47.608350 28553 net.cpp:100] Creating Layer L1_b5_brc2_conv
I1206 09:01:47.608356 28553 net.cpp:434] L1_b5_brc2_conv <- L1_b5_brc2_bn_top
I1206 09:01:47.608371 28553 net.cpp:408] L1_b5_brc2_conv -> L1_b5_brc2_conv_top
I1206 09:01:47.608645 28553 net.cpp:150] Setting up L1_b5_brc2_conv
I1206 09:01:47.608660 28553 net.cpp:157] Top shape: 85 32 32 32 (2785280)
I1206 09:01:47.608665 28553 net.cpp:165] Memory required for data: 897905660
I1206 09:01:47.608674 28553 layer_factory.hpp:77] Creating layer L1_b5_brc3_bn
I1206 09:01:47.608682 28553 net.cpp:100] Creating Layer L1_b5_brc3_bn
I1206 09:01:47.608688 28553 net.cpp:434] L1_b5_brc3_bn <- L1_b5_brc2_conv_top
I1206 09:01:47.608700 28553 net.cpp:408] L1_b5_brc3_bn -> L1_b5_brc3_bn_top
I1206 09:01:47.608937 28553 net.cpp:150] Setting up L1_b5_brc3_bn
I1206 09:01:47.608950 28553 net.cpp:157] Top shape: 85 32 32 32 (2785280)
I1206 09:01:47.608955 28553 net.cpp:165] Memory required for data: 909046780
I1206 09:01:47.608965 28553 layer_factory.hpp:77] Creating layer L1_b5_brc3_relu
I1206 09:01:47.608976 28553 net.cpp:100] Creating Layer L1_b5_brc3_relu
I1206 09:01:47.608983 28553 net.cpp:434] L1_b5_brc3_relu <- L1_b5_brc3_bn_top
I1206 09:01:47.608989 28553 net.cpp:395] L1_b5_brc3_relu -> L1_b5_brc3_bn_top (in-place)
I1206 09:01:47.608999 28553 net.cpp:150] Setting up L1_b5_brc3_relu
I1206 09:01:47.609006 28553 net.cpp:157] Top shape: 85 32 32 32 (2785280)
I1206 09:01:47.609010 28553 net.cpp:165] Memory required for data: 920187900
I1206 09:01:47.609015 28553 layer_factory.hpp:77] Creating layer L1_b5_brc3_conv
I1206 09:01:47.609025 28553 net.cpp:100] Creating Layer L1_b5_brc3_conv
I1206 09:01:47.609030 28553 net.cpp:434] L1_b5_brc3_conv <- L1_b5_brc3_bn_top
I1206 09:01:47.609041 28553 net.cpp:408] L1_b5_brc3_conv -> L1_b5_brc3_conv_top
I1206 09:01:47.609347 28553 net.cpp:150] Setting up L1_b5_brc3_conv
I1206 09:01:47.609360 28553 net.cpp:157] Top shape: 85 64 32 32 (5570560)
I1206 09:01:47.609365 28553 net.cpp:165] Memory required for data: 942470140
I1206 09:01:47.609375 28553 layer_factory.hpp:77] Creating layer L1_b5_sum_eltwise
I1206 09:01:47.609383 28553 net.cpp:100] Creating Layer L1_b5_sum_eltwise
I1206 09:01:47.609390 28553 net.cpp:434] L1_b5_sum_eltwise <- L1_b5_brc3_conv_top
I1206 09:01:47.609396 28553 net.cpp:434] L1_b5_sum_eltwise <- L1_b4_sum_eltwise_top_L1_b4_sum_eltwise_0_split_1
I1206 09:01:47.609411 28553 net.cpp:408] L1_b5_sum_eltwise -> L1_b5_sum_eltwise_top
I1206 09:01:47.609447 28553 net.cpp:150] Setting up L1_b5_sum_eltwise
I1206 09:01:47.609457 28553 net.cpp:157] Top shape: 85 64 32 32 (5570560)
I1206 09:01:47.609462 28553 net.cpp:165] Memory required for data: 964752380
I1206 09:01:47.609472 28553 layer_factory.hpp:77] Creating layer L1_b5_sum_eltwise_top_L1_b5_sum_eltwise_0_split
I1206 09:01:47.609480 28553 net.cpp:100] Creating Layer L1_b5_sum_eltwise_top_L1_b5_sum_eltwise_0_split
I1206 09:01:47.609485 28553 net.cpp:434] L1_b5_sum_eltwise_top_L1_b5_sum_eltwise_0_split <- L1_b5_sum_eltwise_top
I1206 09:01:47.609496 28553 net.cpp:408] L1_b5_sum_eltwise_top_L1_b5_sum_eltwise_0_split -> L1_b5_sum_eltwise_top_L1_b5_sum_eltwise_0_split_0
I1206 09:01:47.609506 28553 net.cpp:408] L1_b5_sum_eltwise_top_L1_b5_sum_eltwise_0_split -> L1_b5_sum_eltwise_top_L1_b5_sum_eltwise_0_split_1
I1206 09:01:47.609555 28553 net.cpp:150] Setting up L1_b5_sum_eltwise_top_L1_b5_sum_eltwise_0_split
I1206 09:01:47.609567 28553 net.cpp:157] Top shape: 85 64 32 32 (5570560)
I1206 09:01:47.609575 28553 net.cpp:157] Top shape: 85 64 32 32 (5570560)
I1206 09:01:47.609580 28553 net.cpp:165] Memory required for data: 1009316860
I1206 09:01:47.609585 28553 layer_factory.hpp:77] Creating layer L1_b6_brc1_bn
I1206 09:01:47.609592 28553 net.cpp:100] Creating Layer L1_b6_brc1_bn
I1206 09:01:47.609598 28553 net.cpp:434] L1_b6_brc1_bn <- L1_b5_sum_eltwise_top_L1_b5_sum_eltwise_0_split_0
I1206 09:01:47.609608 28553 net.cpp:408] L1_b6_brc1_bn -> L1_b6_brc1_bn_top
I1206 09:01:47.609838 28553 net.cpp:150] Setting up L1_b6_brc1_bn
I1206 09:01:47.609853 28553 net.cpp:157] Top shape: 85 64 32 32 (5570560)
I1206 09:01:47.609858 28553 net.cpp:165] Memory required for data: 1031599100
I1206 09:01:47.609869 28553 layer_factory.hpp:77] Creating layer L1_b6_brc1_relu
I1206 09:01:47.609876 28553 net.cpp:100] Creating Layer L1_b6_brc1_relu
I1206 09:01:47.609882 28553 net.cpp:434] L1_b6_brc1_relu <- L1_b6_brc1_bn_top
I1206 09:01:47.609889 28553 net.cpp:395] L1_b6_brc1_relu -> L1_b6_brc1_bn_top (in-place)
I1206 09:01:47.609899 28553 net.cpp:150] Setting up L1_b6_brc1_relu
I1206 09:01:47.609905 28553 net.cpp:157] Top shape: 85 64 32 32 (5570560)
I1206 09:01:47.609910 28553 net.cpp:165] Memory required for data: 1053881340
I1206 09:01:47.609915 28553 layer_factory.hpp:77] Creating layer L1_b6_brc1_conv
I1206 09:01:47.609925 28553 net.cpp:100] Creating Layer L1_b6_brc1_conv
I1206 09:01:47.609930 28553 net.cpp:434] L1_b6_brc1_conv <- L1_b6_brc1_bn_top
I1206 09:01:47.609941 28553 net.cpp:408] L1_b6_brc1_conv -> L1_b6_brc1_conv_top
I1206 09:01:47.610244 28553 net.cpp:150] Setting up L1_b6_brc1_conv
I1206 09:01:47.610258 28553 net.cpp:157] Top shape: 85 32 32 32 (2785280)
I1206 09:01:47.610263 28553 net.cpp:165] Memory required for data: 1065022460
I1206 09:01:47.610271 28553 layer_factory.hpp:77] Creating layer L1_b6_brc2_bn
I1206 09:01:47.610280 28553 net.cpp:100] Creating Layer L1_b6_brc2_bn
I1206 09:01:47.610286 28553 net.cpp:434] L1_b6_brc2_bn <- L1_b6_brc1_conv_top
I1206 09:01:47.610296 28553 net.cpp:408] L1_b6_brc2_bn -> L1_b6_brc2_bn_top
I1206 09:01:47.610538 28553 net.cpp:150] Setting up L1_b6_brc2_bn
I1206 09:01:47.610550 28553 net.cpp:157] Top shape: 85 32 32 32 (2785280)
I1206 09:01:47.610555 28553 net.cpp:165] Memory required for data: 1076163580
I1206 09:01:47.610565 28553 layer_factory.hpp:77] Creating layer L1_b6_brc2_relu
I1206 09:01:47.610581 28553 net.cpp:100] Creating Layer L1_b6_brc2_relu
I1206 09:01:47.610587 28553 net.cpp:434] L1_b6_brc2_relu <- L1_b6_brc2_bn_top
I1206 09:01:47.610595 28553 net.cpp:395] L1_b6_brc2_relu -> L1_b6_brc2_bn_top (in-place)
I1206 09:01:47.610605 28553 net.cpp:150] Setting up L1_b6_brc2_relu
I1206 09:01:47.610611 28553 net.cpp:157] Top shape: 85 32 32 32 (2785280)
I1206 09:01:47.610616 28553 net.cpp:165] Memory required for data: 1087304700
I1206 09:01:47.610621 28553 layer_factory.hpp:77] Creating layer L1_b6_brc2_conv
I1206 09:01:47.610641 28553 net.cpp:100] Creating Layer L1_b6_brc2_conv
I1206 09:01:47.610648 28553 net.cpp:434] L1_b6_brc2_conv <- L1_b6_brc2_bn_top
I1206 09:01:47.610659 28553 net.cpp:408] L1_b6_brc2_conv -> L1_b6_brc2_conv_top
I1206 09:01:47.610935 28553 net.cpp:150] Setting up L1_b6_brc2_conv
I1206 09:01:47.610949 28553 net.cpp:157] Top shape: 85 32 32 32 (2785280)
I1206 09:01:47.610954 28553 net.cpp:165] Memory required for data: 1098445820
I1206 09:01:47.610962 28553 layer_factory.hpp:77] Creating layer L1_b6_brc3_bn
I1206 09:01:47.610973 28553 net.cpp:100] Creating Layer L1_b6_brc3_bn
I1206 09:01:47.610980 28553 net.cpp:434] L1_b6_brc3_bn <- L1_b6_brc2_conv_top
I1206 09:01:47.610991 28553 net.cpp:408] L1_b6_brc3_bn -> L1_b6_brc3_bn_top
I1206 09:01:47.611227 28553 net.cpp:150] Setting up L1_b6_brc3_bn
I1206 09:01:47.611240 28553 net.cpp:157] Top shape: 85 32 32 32 (2785280)
I1206 09:01:47.611245 28553 net.cpp:165] Memory required for data: 1109586940
I1206 09:01:47.611255 28553 layer_factory.hpp:77] Creating layer L1_b6_brc3_relu
I1206 09:01:47.611263 28553 net.cpp:100] Creating Layer L1_b6_brc3_relu
I1206 09:01:47.611269 28553 net.cpp:434] L1_b6_brc3_relu <- L1_b6_brc3_bn_top
I1206 09:01:47.611276 28553 net.cpp:395] L1_b6_brc3_relu -> L1_b6_brc3_bn_top (in-place)
I1206 09:01:47.611285 28553 net.cpp:150] Setting up L1_b6_brc3_relu
I1206 09:01:47.611292 28553 net.cpp:157] Top shape: 85 32 32 32 (2785280)
I1206 09:01:47.611296 28553 net.cpp:165] Memory required for data: 1120728060
I1206 09:01:47.611301 28553 layer_factory.hpp:77] Creating layer L1_b6_brc3_conv
I1206 09:01:47.611315 28553 net.cpp:100] Creating Layer L1_b6_brc3_conv
I1206 09:01:47.611320 28553 net.cpp:434] L1_b6_brc3_conv <- L1_b6_brc3_bn_top
I1206 09:01:47.611331 28553 net.cpp:408] L1_b6_brc3_conv -> L1_b6_brc3_conv_top
I1206 09:01:47.611646 28553 net.cpp:150] Setting up L1_b6_brc3_conv
I1206 09:01:47.611660 28553 net.cpp:157] Top shape: 85 64 32 32 (5570560)
I1206 09:01:47.611665 28553 net.cpp:165] Memory required for data: 1143010300
I1206 09:01:47.611675 28553 layer_factory.hpp:77] Creating layer L1_b6_sum_eltwise
I1206 09:01:47.611686 28553 net.cpp:100] Creating Layer L1_b6_sum_eltwise
I1206 09:01:47.611692 28553 net.cpp:434] L1_b6_sum_eltwise <- L1_b6_brc3_conv_top
I1206 09:01:47.611699 28553 net.cpp:434] L1_b6_sum_eltwise <- L1_b5_sum_eltwise_top_L1_b5_sum_eltwise_0_split_1
I1206 09:01:47.611707 28553 net.cpp:408] L1_b6_sum_eltwise -> L1_b6_sum_eltwise_top
I1206 09:01:47.611739 28553 net.cpp:150] Setting up L1_b6_sum_eltwise
I1206 09:01:47.611749 28553 net.cpp:157] Top shape: 85 64 32 32 (5570560)
I1206 09:01:47.611754 28553 net.cpp:165] Memory required for data: 1165292540
I1206 09:01:47.611759 28553 layer_factory.hpp:77] Creating layer L1_b6_sum_eltwise_top_L1_b6_sum_eltwise_0_split
I1206 09:01:47.611766 28553 net.cpp:100] Creating Layer L1_b6_sum_eltwise_top_L1_b6_sum_eltwise_0_split
I1206 09:01:47.611771 28553 net.cpp:434] L1_b6_sum_eltwise_top_L1_b6_sum_eltwise_0_split <- L1_b6_sum_eltwise_top
I1206 09:01:47.611783 28553 net.cpp:408] L1_b6_sum_eltwise_top_L1_b6_sum_eltwise_0_split -> L1_b6_sum_eltwise_top_L1_b6_sum_eltwise_0_split_0
I1206 09:01:47.611793 28553 net.cpp:408] L1_b6_sum_eltwise_top_L1_b6_sum_eltwise_0_split -> L1_b6_sum_eltwise_top_L1_b6_sum_eltwise_0_split_1
I1206 09:01:47.611835 28553 net.cpp:150] Setting up L1_b6_sum_eltwise_top_L1_b6_sum_eltwise_0_split
I1206 09:01:47.611850 28553 net.cpp:157] Top shape: 85 64 32 32 (5570560)
I1206 09:01:47.611856 28553 net.cpp:157] Top shape: 85 64 32 32 (5570560)
I1206 09:01:47.611860 28553 net.cpp:165] Memory required for data: 1209857020
I1206 09:01:47.611865 28553 layer_factory.hpp:77] Creating layer L2_b1_brc1_bn
I1206 09:01:47.611873 28553 net.cpp:100] Creating Layer L2_b1_brc1_bn
I1206 09:01:47.611879 28553 net.cpp:434] L2_b1_brc1_bn <- L1_b6_sum_eltwise_top_L1_b6_sum_eltwise_0_split_0
I1206 09:01:47.611889 28553 net.cpp:408] L2_b1_brc1_bn -> L2_b1_brc1_bn_top
I1206 09:01:47.612112 28553 net.cpp:150] Setting up L2_b1_brc1_bn
I1206 09:01:47.612124 28553 net.cpp:157] Top shape: 85 64 32 32 (5570560)
I1206 09:01:47.612138 28553 net.cpp:165] Memory required for data: 1232139260
I1206 09:01:47.612149 28553 layer_factory.hpp:77] Creating layer L2_b1_brc1_relu
I1206 09:01:47.612159 28553 net.cpp:100] Creating Layer L2_b1_brc1_relu
I1206 09:01:47.612164 28553 net.cpp:434] L2_b1_brc1_relu <- L2_b1_brc1_bn_top
I1206 09:01:47.612170 28553 net.cpp:395] L2_b1_brc1_relu -> L2_b1_brc1_bn_top (in-place)
I1206 09:01:47.612180 28553 net.cpp:150] Setting up L2_b1_brc1_relu
I1206 09:01:47.612186 28553 net.cpp:157] Top shape: 85 64 32 32 (5570560)
I1206 09:01:47.612191 28553 net.cpp:165] Memory required for data: 1254421500
I1206 09:01:47.612196 28553 layer_factory.hpp:77] Creating layer L2_b1_brc1_conv
I1206 09:01:47.612210 28553 net.cpp:100] Creating Layer L2_b1_brc1_conv
I1206 09:01:47.612215 28553 net.cpp:434] L2_b1_brc1_conv <- L2_b1_brc1_bn_top
I1206 09:01:47.612226 28553 net.cpp:408] L2_b1_brc1_conv -> L2_b1_brc1_conv_top
I1206 09:01:47.612591 28553 net.cpp:150] Setting up L2_b1_brc1_conv
I1206 09:01:47.612606 28553 net.cpp:157] Top shape: 85 64 16 16 (1392640)
I1206 09:01:47.612610 28553 net.cpp:165] Memory required for data: 1259992060
I1206 09:01:47.612619 28553 layer_factory.hpp:77] Creating layer L2_b1_brc2_bn
I1206 09:01:47.612628 28553 net.cpp:100] Creating Layer L2_b1_brc2_bn
I1206 09:01:47.612637 28553 net.cpp:434] L2_b1_brc2_bn <- L2_b1_brc1_conv_top
I1206 09:01:47.612644 28553 net.cpp:408] L2_b1_brc2_bn -> L2_b1_brc2_bn_top
I1206 09:01:47.612884 28553 net.cpp:150] Setting up L2_b1_brc2_bn
I1206 09:01:47.612896 28553 net.cpp:157] Top shape: 85 64 16 16 (1392640)
I1206 09:01:47.612901 28553 net.cpp:165] Memory required for data: 1265562620
I1206 09:01:47.612911 28553 layer_factory.hpp:77] Creating layer L2_b1_brc2_relu
I1206 09:01:47.612920 28553 net.cpp:100] Creating Layer L2_b1_brc2_relu
I1206 09:01:47.612926 28553 net.cpp:434] L2_b1_brc2_relu <- L2_b1_brc2_bn_top
I1206 09:01:47.612936 28553 net.cpp:395] L2_b1_brc2_relu -> L2_b1_brc2_bn_top (in-place)
I1206 09:01:47.612946 28553 net.cpp:150] Setting up L2_b1_brc2_relu
I1206 09:01:47.612952 28553 net.cpp:157] Top shape: 85 64 16 16 (1392640)
I1206 09:01:47.612957 28553 net.cpp:165] Memory required for data: 1271133180
I1206 09:01:47.612962 28553 layer_factory.hpp:77] Creating layer L2_b1_brc2_conv
I1206 09:01:47.612975 28553 net.cpp:100] Creating Layer L2_b1_brc2_conv
I1206 09:01:47.612982 28553 net.cpp:434] L2_b1_brc2_conv <- L2_b1_brc2_bn_top
I1206 09:01:47.612993 28553 net.cpp:408] L2_b1_brc2_conv -> L2_b1_brc2_conv_top
I1206 09:01:47.613282 28553 net.cpp:150] Setting up L2_b1_brc2_conv
I1206 09:01:47.613296 28553 net.cpp:157] Top shape: 85 64 16 16 (1392640)
I1206 09:01:47.613301 28553 net.cpp:165] Memory required for data: 1276703740
I1206 09:01:47.613309 28553 layer_factory.hpp:77] Creating layer L2_b1_brc3_bn
I1206 09:01:47.613317 28553 net.cpp:100] Creating Layer L2_b1_brc3_bn
I1206 09:01:47.613323 28553 net.cpp:434] L2_b1_brc3_bn <- L2_b1_brc2_conv_top
I1206 09:01:47.613332 28553 net.cpp:408] L2_b1_brc3_bn -> L2_b1_brc3_bn_top
I1206 09:01:47.613572 28553 net.cpp:150] Setting up L2_b1_brc3_bn
I1206 09:01:47.613586 28553 net.cpp:157] Top shape: 85 64 16 16 (1392640)
I1206 09:01:47.613591 28553 net.cpp:165] Memory required for data: 1282274300
I1206 09:01:47.613601 28553 layer_factory.hpp:77] Creating layer L2_b1_brc3_relu
I1206 09:01:47.613610 28553 net.cpp:100] Creating Layer L2_b1_brc3_relu
I1206 09:01:47.613615 28553 net.cpp:434] L2_b1_brc3_relu <- L2_b1_brc3_bn_top
I1206 09:01:47.613625 28553 net.cpp:395] L2_b1_brc3_relu -> L2_b1_brc3_bn_top (in-place)
I1206 09:01:47.613634 28553 net.cpp:150] Setting up L2_b1_brc3_relu
I1206 09:01:47.613641 28553 net.cpp:157] Top shape: 85 64 16 16 (1392640)
I1206 09:01:47.613646 28553 net.cpp:165] Memory required for data: 1287844860
I1206 09:01:47.613651 28553 layer_factory.hpp:77] Creating layer L2_b1_brc3_conv
I1206 09:01:47.613664 28553 net.cpp:100] Creating Layer L2_b1_brc3_conv
I1206 09:01:47.613670 28553 net.cpp:434] L2_b1_brc3_conv <- L2_b1_brc3_bn_top
I1206 09:01:47.613678 28553 net.cpp:408] L2_b1_brc3_conv -> L2_b1_brc3_conv_top
I1206 09:01:47.615170 28553 net.cpp:150] Setting up L2_b1_brc3_conv
I1206 09:01:47.615187 28553 net.cpp:157] Top shape: 85 128 16 16 (2785280)
I1206 09:01:47.615193 28553 net.cpp:165] Memory required for data: 1298985980
I1206 09:01:47.615202 28553 layer_factory.hpp:77] Creating layer L2_b1_chanInc_conv
I1206 09:01:47.615219 28553 net.cpp:100] Creating Layer L2_b1_chanInc_conv
I1206 09:01:47.615226 28553 net.cpp:434] L2_b1_chanInc_conv <- L1_b6_sum_eltwise_top_L1_b6_sum_eltwise_0_split_1
I1206 09:01:47.615239 28553 net.cpp:408] L2_b1_chanInc_conv -> L2_b1_chanInc_conv_top
I1206 09:01:47.615667 28553 net.cpp:150] Setting up L2_b1_chanInc_conv
I1206 09:01:47.615682 28553 net.cpp:157] Top shape: 85 128 16 16 (2785280)
I1206 09:01:47.615687 28553 net.cpp:165] Memory required for data: 1310127100
I1206 09:01:47.615696 28553 layer_factory.hpp:77] Creating layer L2_b1_sum_eltwise
I1206 09:01:47.615705 28553 net.cpp:100] Creating Layer L2_b1_sum_eltwise
I1206 09:01:47.615711 28553 net.cpp:434] L2_b1_sum_eltwise <- L2_b1_brc3_conv_top
I1206 09:01:47.615718 28553 net.cpp:434] L2_b1_sum_eltwise <- L2_b1_chanInc_conv_top
I1206 09:01:47.615730 28553 net.cpp:408] L2_b1_sum_eltwise -> L2_b1_sum_eltwise_top
I1206 09:01:47.615756 28553 net.cpp:150] Setting up L2_b1_sum_eltwise
I1206 09:01:47.615768 28553 net.cpp:157] Top shape: 85 128 16 16 (2785280)
I1206 09:01:47.615773 28553 net.cpp:165] Memory required for data: 1321268220
I1206 09:01:47.615778 28553 layer_factory.hpp:77] Creating layer L2_b1_sum_eltwise_top_L2_b1_sum_eltwise_0_split
I1206 09:01:47.615787 28553 net.cpp:100] Creating Layer L2_b1_sum_eltwise_top_L2_b1_sum_eltwise_0_split
I1206 09:01:47.615792 28553 net.cpp:434] L2_b1_sum_eltwise_top_L2_b1_sum_eltwise_0_split <- L2_b1_sum_eltwise_top
I1206 09:01:47.615799 28553 net.cpp:408] L2_b1_sum_eltwise_top_L2_b1_sum_eltwise_0_split -> L2_b1_sum_eltwise_top_L2_b1_sum_eltwise_0_split_0
I1206 09:01:47.615808 28553 net.cpp:408] L2_b1_sum_eltwise_top_L2_b1_sum_eltwise_0_split -> L2_b1_sum_eltwise_top_L2_b1_sum_eltwise_0_split_1
I1206 09:01:47.615857 28553 net.cpp:150] Setting up L2_b1_sum_eltwise_top_L2_b1_sum_eltwise_0_split
I1206 09:01:47.615869 28553 net.cpp:157] Top shape: 85 128 16 16 (2785280)
I1206 09:01:47.615875 28553 net.cpp:157] Top shape: 85 128 16 16 (2785280)
I1206 09:01:47.615880 28553 net.cpp:165] Memory required for data: 1343550460
I1206 09:01:47.615885 28553 layer_factory.hpp:77] Creating layer L2_b2_brc1_bn
I1206 09:01:47.615896 28553 net.cpp:100] Creating Layer L2_b2_brc1_bn
I1206 09:01:47.615902 28553 net.cpp:434] L2_b2_brc1_bn <- L2_b1_sum_eltwise_top_L2_b1_sum_eltwise_0_split_0
I1206 09:01:47.615909 28553 net.cpp:408] L2_b2_brc1_bn -> L2_b2_brc1_bn_top
I1206 09:01:47.616127 28553 net.cpp:150] Setting up L2_b2_brc1_bn
I1206 09:01:47.616139 28553 net.cpp:157] Top shape: 85 128 16 16 (2785280)
I1206 09:01:47.616144 28553 net.cpp:165] Memory required for data: 1354691580
I1206 09:01:47.616155 28553 layer_factory.hpp:77] Creating layer L2_b2_brc1_relu
I1206 09:01:47.616166 28553 net.cpp:100] Creating Layer L2_b2_brc1_relu
I1206 09:01:47.616173 28553 net.cpp:434] L2_b2_brc1_relu <- L2_b2_brc1_bn_top
I1206 09:01:47.616179 28553 net.cpp:395] L2_b2_brc1_relu -> L2_b2_brc1_bn_top (in-place)
I1206 09:01:47.616189 28553 net.cpp:150] Setting up L2_b2_brc1_relu
I1206 09:01:47.616196 28553 net.cpp:157] Top shape: 85 128 16 16 (2785280)
I1206 09:01:47.616200 28553 net.cpp:165] Memory required for data: 1365832700
I1206 09:01:47.616205 28553 layer_factory.hpp:77] Creating layer L2_b2_brc1_conv
I1206 09:01:47.616215 28553 net.cpp:100] Creating Layer L2_b2_brc1_conv
I1206 09:01:47.616221 28553 net.cpp:434] L2_b2_brc1_conv <- L2_b2_brc1_bn_top
I1206 09:01:47.616236 28553 net.cpp:408] L2_b2_brc1_conv -> L2_b2_brc1_conv_top
I1206 09:01:47.616683 28553 net.cpp:150] Setting up L2_b2_brc1_conv
I1206 09:01:47.616698 28553 net.cpp:157] Top shape: 85 64 16 16 (1392640)
I1206 09:01:47.616703 28553 net.cpp:165] Memory required for data: 1371403260
I1206 09:01:47.616711 28553 layer_factory.hpp:77] Creating layer L2_b2_brc2_bn
I1206 09:01:47.616729 28553 net.cpp:100] Creating Layer L2_b2_brc2_bn
I1206 09:01:47.616735 28553 net.cpp:434] L2_b2_brc2_bn <- L2_b2_brc1_conv_top
I1206 09:01:47.616746 28553 net.cpp:408] L2_b2_brc2_bn -> L2_b2_brc2_bn_top
I1206 09:01:47.616982 28553 net.cpp:150] Setting up L2_b2_brc2_bn
I1206 09:01:47.616994 28553 net.cpp:157] Top shape: 85 64 16 16 (1392640)
I1206 09:01:47.616999 28553 net.cpp:165] Memory required for data: 1376973820
I1206 09:01:47.617009 28553 layer_factory.hpp:77] Creating layer L2_b2_brc2_relu
I1206 09:01:47.617022 28553 net.cpp:100] Creating Layer L2_b2_brc2_relu
I1206 09:01:47.617029 28553 net.cpp:434] L2_b2_brc2_relu <- L2_b2_brc2_bn_top
I1206 09:01:47.617036 28553 net.cpp:395] L2_b2_brc2_relu -> L2_b2_brc2_bn_top (in-place)
I1206 09:01:47.617045 28553 net.cpp:150] Setting up L2_b2_brc2_relu
I1206 09:01:47.617053 28553 net.cpp:157] Top shape: 85 64 16 16 (1392640)
I1206 09:01:47.617058 28553 net.cpp:165] Memory required for data: 1382544380
I1206 09:01:47.617063 28553 layer_factory.hpp:77] Creating layer L2_b2_brc2_conv
I1206 09:01:47.617072 28553 net.cpp:100] Creating Layer L2_b2_brc2_conv
I1206 09:01:47.617079 28553 net.cpp:434] L2_b2_brc2_conv <- L2_b2_brc2_bn_top
I1206 09:01:47.617089 28553 net.cpp:408] L2_b2_brc2_conv -> L2_b2_brc2_conv_top
I1206 09:01:47.617394 28553 net.cpp:150] Setting up L2_b2_brc2_conv
I1206 09:01:47.617408 28553 net.cpp:157] Top shape: 85 64 16 16 (1392640)
I1206 09:01:47.617413 28553 net.cpp:165] Memory required for data: 1388114940
I1206 09:01:47.617421 28553 layer_factory.hpp:77] Creating layer L2_b2_brc3_bn
I1206 09:01:47.617429 28553 net.cpp:100] Creating Layer L2_b2_brc3_bn
I1206 09:01:47.617435 28553 net.cpp:434] L2_b2_brc3_bn <- L2_b2_brc2_conv_top
I1206 09:01:47.617446 28553 net.cpp:408] L2_b2_brc3_bn -> L2_b2_brc3_bn_top
I1206 09:01:47.617694 28553 net.cpp:150] Setting up L2_b2_brc3_bn
I1206 09:01:47.617708 28553 net.cpp:157] Top shape: 85 64 16 16 (1392640)
I1206 09:01:47.617713 28553 net.cpp:165] Memory required for data: 1393685500
I1206 09:01:47.617723 28553 layer_factory.hpp:77] Creating layer L2_b2_brc3_relu
I1206 09:01:47.617732 28553 net.cpp:100] Creating Layer L2_b2_brc3_relu
I1206 09:01:47.617738 28553 net.cpp:434] L2_b2_brc3_relu <- L2_b2_brc3_bn_top
I1206 09:01:47.617748 28553 net.cpp:395] L2_b2_brc3_relu -> L2_b2_brc3_bn_top (in-place)
I1206 09:01:47.617758 28553 net.cpp:150] Setting up L2_b2_brc3_relu
I1206 09:01:47.617764 28553 net.cpp:157] Top shape: 85 64 16 16 (1392640)
I1206 09:01:47.617769 28553 net.cpp:165] Memory required for data: 1399256060
I1206 09:01:47.617774 28553 layer_factory.hpp:77] Creating layer L2_b2_brc3_conv
I1206 09:01:47.617784 28553 net.cpp:100] Creating Layer L2_b2_brc3_conv
I1206 09:01:47.617789 28553 net.cpp:434] L2_b2_brc3_conv <- L2_b2_brc3_bn_top
I1206 09:01:47.617797 28553 net.cpp:408] L2_b2_brc3_conv -> L2_b2_brc3_conv_top
I1206 09:01:47.618227 28553 net.cpp:150] Setting up L2_b2_brc3_conv
I1206 09:01:47.618239 28553 net.cpp:157] Top shape: 85 128 16 16 (2785280)
I1206 09:01:47.618245 28553 net.cpp:165] Memory required for data: 1410397180
I1206 09:01:47.618253 28553 layer_factory.hpp:77] Creating layer L2_b2_sum_eltwise
I1206 09:01:47.618265 28553 net.cpp:100] Creating Layer L2_b2_sum_eltwise
I1206 09:01:47.618271 28553 net.cpp:434] L2_b2_sum_eltwise <- L2_b2_brc3_conv_top
I1206 09:01:47.618278 28553 net.cpp:434] L2_b2_sum_eltwise <- L2_b1_sum_eltwise_top_L2_b1_sum_eltwise_0_split_1
I1206 09:01:47.618286 28553 net.cpp:408] L2_b2_sum_eltwise -> L2_b2_sum_eltwise_top
I1206 09:01:47.618311 28553 net.cpp:150] Setting up L2_b2_sum_eltwise
I1206 09:01:47.618320 28553 net.cpp:157] Top shape: 85 128 16 16 (2785280)
I1206 09:01:47.618325 28553 net.cpp:165] Memory required for data: 1421538300
I1206 09:01:47.618330 28553 layer_factory.hpp:77] Creating layer L2_b2_sum_eltwise_top_L2_b2_sum_eltwise_0_split
I1206 09:01:47.618340 28553 net.cpp:100] Creating Layer L2_b2_sum_eltwise_top_L2_b2_sum_eltwise_0_split
I1206 09:01:47.618346 28553 net.cpp:434] L2_b2_sum_eltwise_top_L2_b2_sum_eltwise_0_split <- L2_b2_sum_eltwise_top
I1206 09:01:47.618361 28553 net.cpp:408] L2_b2_sum_eltwise_top_L2_b2_sum_eltwise_0_split -> L2_b2_sum_eltwise_top_L2_b2_sum_eltwise_0_split_0
I1206 09:01:47.618374 28553 net.cpp:408] L2_b2_sum_eltwise_top_L2_b2_sum_eltwise_0_split -> L2_b2_sum_eltwise_top_L2_b2_sum_eltwise_0_split_1
I1206 09:01:47.618420 28553 net.cpp:150] Setting up L2_b2_sum_eltwise_top_L2_b2_sum_eltwise_0_split
I1206 09:01:47.618430 28553 net.cpp:157] Top shape: 85 128 16 16 (2785280)
I1206 09:01:47.618438 28553 net.cpp:157] Top shape: 85 128 16 16 (2785280)
I1206 09:01:47.618441 28553 net.cpp:165] Memory required for data: 1443820540
I1206 09:01:47.618446 28553 layer_factory.hpp:77] Creating layer L2_b3_brc1_bn
I1206 09:01:47.618458 28553 net.cpp:100] Creating Layer L2_b3_brc1_bn
I1206 09:01:47.618463 28553 net.cpp:434] L2_b3_brc1_bn <- L2_b2_sum_eltwise_top_L2_b2_sum_eltwise_0_split_0
I1206 09:01:47.618477 28553 net.cpp:408] L2_b3_brc1_bn -> L2_b3_brc1_bn_top
I1206 09:01:47.618770 28553 net.cpp:150] Setting up L2_b3_brc1_bn
I1206 09:01:47.618793 28553 net.cpp:157] Top shape: 85 128 16 16 (2785280)
I1206 09:01:47.618803 28553 net.cpp:165] Memory required for data: 1454961660
I1206 09:01:47.618844 28553 layer_factory.hpp:77] Creating layer L2_b3_brc1_relu
I1206 09:01:47.618860 28553 net.cpp:100] Creating Layer L2_b3_brc1_relu
I1206 09:01:47.618866 28553 net.cpp:434] L2_b3_brc1_relu <- L2_b3_brc1_bn_top
I1206 09:01:47.618875 28553 net.cpp:395] L2_b3_brc1_relu -> L2_b3_brc1_bn_top (in-place)
I1206 09:01:47.618885 28553 net.cpp:150] Setting up L2_b3_brc1_relu
I1206 09:01:47.618891 28553 net.cpp:157] Top shape: 85 128 16 16 (2785280)
I1206 09:01:47.618896 28553 net.cpp:165] Memory required for data: 1466102780
I1206 09:01:47.618901 28553 layer_factory.hpp:77] Creating layer L2_b3_brc1_conv
I1206 09:01:47.618916 28553 net.cpp:100] Creating Layer L2_b3_brc1_conv
I1206 09:01:47.618921 28553 net.cpp:434] L2_b3_brc1_conv <- L2_b3_brc1_bn_top
I1206 09:01:47.618930 28553 net.cpp:408] L2_b3_brc1_conv -> L2_b3_brc1_conv_top
I1206 09:01:47.619361 28553 net.cpp:150] Setting up L2_b3_brc1_conv
I1206 09:01:47.619376 28553 net.cpp:157] Top shape: 85 64 16 16 (1392640)
I1206 09:01:47.619381 28553 net.cpp:165] Memory required for data: 1471673340
I1206 09:01:47.619390 28553 layer_factory.hpp:77] Creating layer L2_b3_brc2_bn
I1206 09:01:47.619401 28553 net.cpp:100] Creating Layer L2_b3_brc2_bn
I1206 09:01:47.619407 28553 net.cpp:434] L2_b3_brc2_bn <- L2_b3_brc1_conv_top
I1206 09:01:47.619415 28553 net.cpp:408] L2_b3_brc2_bn -> L2_b3_brc2_bn_top
I1206 09:01:47.619663 28553 net.cpp:150] Setting up L2_b3_brc2_bn
I1206 09:01:47.619678 28553 net.cpp:157] Top shape: 85 64 16 16 (1392640)
I1206 09:01:47.619683 28553 net.cpp:165] Memory required for data: 1477243900
I1206 09:01:47.619694 28553 layer_factory.hpp:77] Creating layer L2_b3_brc2_relu
I1206 09:01:47.619702 28553 net.cpp:100] Creating Layer L2_b3_brc2_relu
I1206 09:01:47.619709 28553 net.cpp:434] L2_b3_brc2_relu <- L2_b3_brc2_bn_top
I1206 09:01:47.619715 28553 net.cpp:395] L2_b3_brc2_relu -> L2_b3_brc2_bn_top (in-place)
I1206 09:01:47.619725 28553 net.cpp:150] Setting up L2_b3_brc2_relu
I1206 09:01:47.619731 28553 net.cpp:157] Top shape: 85 64 16 16 (1392640)
I1206 09:01:47.619736 28553 net.cpp:165] Memory required for data: 1482814460
I1206 09:01:47.619741 28553 layer_factory.hpp:77] Creating layer L2_b3_brc2_conv
I1206 09:01:47.619751 28553 net.cpp:100] Creating Layer L2_b3_brc2_conv
I1206 09:01:47.619757 28553 net.cpp:434] L2_b3_brc2_conv <- L2_b3_brc2_bn_top
I1206 09:01:47.619768 28553 net.cpp:408] L2_b3_brc2_conv -> L2_b3_brc2_conv_top
I1206 09:01:47.620069 28553 net.cpp:150] Setting up L2_b3_brc2_conv
I1206 09:01:47.620082 28553 net.cpp:157] Top shape: 85 64 16 16 (1392640)
I1206 09:01:47.620088 28553 net.cpp:165] Memory required for data: 1488385020
I1206 09:01:47.620097 28553 layer_factory.hpp:77] Creating layer L2_b3_brc3_bn
I1206 09:01:47.620108 28553 net.cpp:100] Creating Layer L2_b3_brc3_bn
I1206 09:01:47.620115 28553 net.cpp:434] L2_b3_brc3_bn <- L2_b3_brc2_conv_top
I1206 09:01:47.620122 28553 net.cpp:408] L2_b3_brc3_bn -> L2_b3_brc3_bn_top
I1206 09:01:47.620371 28553 net.cpp:150] Setting up L2_b3_brc3_bn
I1206 09:01:47.620388 28553 net.cpp:157] Top shape: 85 64 16 16 (1392640)
I1206 09:01:47.620393 28553 net.cpp:165] Memory required for data: 1493955580
I1206 09:01:47.620404 28553 layer_factory.hpp:77] Creating layer L2_b3_brc3_relu
I1206 09:01:47.620411 28553 net.cpp:100] Creating Layer L2_b3_brc3_relu
I1206 09:01:47.620417 28553 net.cpp:434] L2_b3_brc3_relu <- L2_b3_brc3_bn_top
I1206 09:01:47.620424 28553 net.cpp:395] L2_b3_brc3_relu -> L2_b3_brc3_bn_top (in-place)
I1206 09:01:47.620434 28553 net.cpp:150] Setting up L2_b3_brc3_relu
I1206 09:01:47.620440 28553 net.cpp:157] Top shape: 85 64 16 16 (1392640)
I1206 09:01:47.620445 28553 net.cpp:165] Memory required for data: 1499526140
I1206 09:01:47.620450 28553 layer_factory.hpp:77] Creating layer L2_b3_brc3_conv
I1206 09:01:47.620460 28553 net.cpp:100] Creating Layer L2_b3_brc3_conv
I1206 09:01:47.620471 28553 net.cpp:434] L2_b3_brc3_conv <- L2_b3_brc3_bn_top
I1206 09:01:47.620483 28553 net.cpp:408] L2_b3_brc3_conv -> L2_b3_brc3_conv_top
I1206 09:01:47.620915 28553 net.cpp:150] Setting up L2_b3_brc3_conv
I1206 09:01:47.620929 28553 net.cpp:157] Top shape: 85 128 16 16 (2785280)
I1206 09:01:47.620934 28553 net.cpp:165] Memory required for data: 1510667260
I1206 09:01:47.620944 28553 layer_factory.hpp:77] Creating layer L2_b3_sum_eltwise
I1206 09:01:47.620952 28553 net.cpp:100] Creating Layer L2_b3_sum_eltwise
I1206 09:01:47.620959 28553 net.cpp:434] L2_b3_sum_eltwise <- L2_b3_brc3_conv_top
I1206 09:01:47.620965 28553 net.cpp:434] L2_b3_sum_eltwise <- L2_b2_sum_eltwise_top_L2_b2_sum_eltwise_0_split_1
I1206 09:01:47.620973 28553 net.cpp:408] L2_b3_sum_eltwise -> L2_b3_sum_eltwise_top
I1206 09:01:47.621006 28553 net.cpp:150] Setting up L2_b3_sum_eltwise
I1206 09:01:47.621016 28553 net.cpp:157] Top shape: 85 128 16 16 (2785280)
I1206 09:01:47.621021 28553 net.cpp:165] Memory required for data: 1521808380
I1206 09:01:47.621026 28553 layer_factory.hpp:77] Creating layer L2_b3_sum_eltwise_top_L2_b3_sum_eltwise_0_split
I1206 09:01:47.621034 28553 net.cpp:100] Creating Layer L2_b3_sum_eltwise_top_L2_b3_sum_eltwise_0_split
I1206 09:01:47.621039 28553 net.cpp:434] L2_b3_sum_eltwise_top_L2_b3_sum_eltwise_0_split <- L2_b3_sum_eltwise_top
I1206 09:01:47.621050 28553 net.cpp:408] L2_b3_sum_eltwise_top_L2_b3_sum_eltwise_0_split -> L2_b3_sum_eltwise_top_L2_b3_sum_eltwise_0_split_0
I1206 09:01:47.621059 28553 net.cpp:408] L2_b3_sum_eltwise_top_L2_b3_sum_eltwise_0_split -> L2_b3_sum_eltwise_top_L2_b3_sum_eltwise_0_split_1
I1206 09:01:47.621106 28553 net.cpp:150] Setting up L2_b3_sum_eltwise_top_L2_b3_sum_eltwise_0_split
I1206 09:01:47.621117 28553 net.cpp:157] Top shape: 85 128 16 16 (2785280)
I1206 09:01:47.621124 28553 net.cpp:157] Top shape: 85 128 16 16 (2785280)
I1206 09:01:47.621129 28553 net.cpp:165] Memory required for data: 1544090620
I1206 09:01:47.621134 28553 layer_factory.hpp:77] Creating layer L2_b4_brc1_bn
I1206 09:01:47.621141 28553 net.cpp:100] Creating Layer L2_b4_brc1_bn
I1206 09:01:47.621147 28553 net.cpp:434] L2_b4_brc1_bn <- L2_b3_sum_eltwise_top_L2_b3_sum_eltwise_0_split_0
I1206 09:01:47.621158 28553 net.cpp:408] L2_b4_brc1_bn -> L2_b4_brc1_bn_top
I1206 09:01:47.621381 28553 net.cpp:150] Setting up L2_b4_brc1_bn
I1206 09:01:47.621394 28553 net.cpp:157] Top shape: 85 128 16 16 (2785280)
I1206 09:01:47.621399 28553 net.cpp:165] Memory required for data: 1555231740
I1206 09:01:47.621409 28553 layer_factory.hpp:77] Creating layer L2_b4_brc1_relu
I1206 09:01:47.621417 28553 net.cpp:100] Creating Layer L2_b4_brc1_relu
I1206 09:01:47.621423 28553 net.cpp:434] L2_b4_brc1_relu <- L2_b4_brc1_bn_top
I1206 09:01:47.621433 28553 net.cpp:395] L2_b4_brc1_relu -> L2_b4_brc1_bn_top (in-place)
I1206 09:01:47.621443 28553 net.cpp:150] Setting up L2_b4_brc1_relu
I1206 09:01:47.621449 28553 net.cpp:157] Top shape: 85 128 16 16 (2785280)
I1206 09:01:47.621454 28553 net.cpp:165] Memory required for data: 1566372860
I1206 09:01:47.621459 28553 layer_factory.hpp:77] Creating layer L2_b4_brc1_conv
I1206 09:01:47.621482 28553 net.cpp:100] Creating Layer L2_b4_brc1_conv
I1206 09:01:47.621490 28553 net.cpp:434] L2_b4_brc1_conv <- L2_b4_brc1_bn_top
I1206 09:01:47.621498 28553 net.cpp:408] L2_b4_brc1_conv -> L2_b4_brc1_conv_top
I1206 09:01:47.621945 28553 net.cpp:150] Setting up L2_b4_brc1_conv
I1206 09:01:47.621959 28553 net.cpp:157] Top shape: 85 64 16 16 (1392640)
I1206 09:01:47.621964 28553 net.cpp:165] Memory required for data: 1571943420
I1206 09:01:47.621973 28553 layer_factory.hpp:77] Creating layer L2_b4_brc2_bn
I1206 09:01:47.621984 28553 net.cpp:100] Creating Layer L2_b4_brc2_bn
I1206 09:01:47.621990 28553 net.cpp:434] L2_b4_brc2_bn <- L2_b4_brc1_conv_top
I1206 09:01:47.621999 28553 net.cpp:408] L2_b4_brc2_bn -> L2_b4_brc2_bn_top
I1206 09:01:47.622239 28553 net.cpp:150] Setting up L2_b4_brc2_bn
I1206 09:01:47.622251 28553 net.cpp:157] Top shape: 85 64 16 16 (1392640)
I1206 09:01:47.622257 28553 net.cpp:165] Memory required for data: 1577513980
I1206 09:01:47.622267 28553 layer_factory.hpp:77] Creating layer L2_b4_brc2_relu
I1206 09:01:47.622275 28553 net.cpp:100] Creating Layer L2_b4_brc2_relu
I1206 09:01:47.622282 28553 net.cpp:434] L2_b4_brc2_relu <- L2_b4_brc2_bn_top
I1206 09:01:47.622292 28553 net.cpp:395] L2_b4_brc2_relu -> L2_b4_brc2_bn_top (in-place)
I1206 09:01:47.622301 28553 net.cpp:150] Setting up L2_b4_brc2_relu
I1206 09:01:47.622308 28553 net.cpp:157] Top shape: 85 64 16 16 (1392640)
I1206 09:01:47.622313 28553 net.cpp:165] Memory required for data: 1583084540
I1206 09:01:47.622318 28553 layer_factory.hpp:77] Creating layer L2_b4_brc2_conv
I1206 09:01:47.622331 28553 net.cpp:100] Creating Layer L2_b4_brc2_conv
I1206 09:01:47.622337 28553 net.cpp:434] L2_b4_brc2_conv <- L2_b4_brc2_bn_top
I1206 09:01:47.622345 28553 net.cpp:408] L2_b4_brc2_conv -> L2_b4_brc2_conv_top
I1206 09:01:47.622661 28553 net.cpp:150] Setting up L2_b4_brc2_conv
I1206 09:01:47.622675 28553 net.cpp:157] Top shape: 85 64 16 16 (1392640)
I1206 09:01:47.622681 28553 net.cpp:165] Memory required for data: 1588655100
I1206 09:01:47.622689 28553 layer_factory.hpp:77] Creating layer L2_b4_brc3_bn
I1206 09:01:47.622701 28553 net.cpp:100] Creating Layer L2_b4_brc3_bn
I1206 09:01:47.622707 28553 net.cpp:434] L2_b4_brc3_bn <- L2_b4_brc2_conv_top
I1206 09:01:47.622715 28553 net.cpp:408] L2_b4_brc3_bn -> L2_b4_brc3_bn_top
I1206 09:01:47.622954 28553 net.cpp:150] Setting up L2_b4_brc3_bn
I1206 09:01:47.622967 28553 net.cpp:157] Top shape: 85 64 16 16 (1392640)
I1206 09:01:47.622972 28553 net.cpp:165] Memory required for data: 1594225660
I1206 09:01:47.622982 28553 layer_factory.hpp:77] Creating layer L2_b4_brc3_relu
I1206 09:01:47.622989 28553 net.cpp:100] Creating Layer L2_b4_brc3_relu
I1206 09:01:47.622995 28553 net.cpp:434] L2_b4_brc3_relu <- L2_b4_brc3_bn_top
I1206 09:01:47.623003 28553 net.cpp:395] L2_b4_brc3_relu -> L2_b4_brc3_bn_top (in-place)
I1206 09:01:47.623013 28553 net.cpp:150] Setting up L2_b4_brc3_relu
I1206 09:01:47.623018 28553 net.cpp:157] Top shape: 85 64 16 16 (1392640)
I1206 09:01:47.623023 28553 net.cpp:165] Memory required for data: 1599796220
I1206 09:01:47.623028 28553 layer_factory.hpp:77] Creating layer L2_b4_brc3_conv
I1206 09:01:47.623044 28553 net.cpp:100] Creating Layer L2_b4_brc3_conv
I1206 09:01:47.623050 28553 net.cpp:434] L2_b4_brc3_conv <- L2_b4_brc3_bn_top
I1206 09:01:47.623061 28553 net.cpp:408] L2_b4_brc3_conv -> L2_b4_brc3_conv_top
I1206 09:01:47.623499 28553 net.cpp:150] Setting up L2_b4_brc3_conv
I1206 09:01:47.623513 28553 net.cpp:157] Top shape: 85 128 16 16 (2785280)
I1206 09:01:47.623519 28553 net.cpp:165] Memory required for data: 1610937340
I1206 09:01:47.623528 28553 layer_factory.hpp:77] Creating layer L2_b4_sum_eltwise
I1206 09:01:47.623539 28553 net.cpp:100] Creating Layer L2_b4_sum_eltwise
I1206 09:01:47.623546 28553 net.cpp:434] L2_b4_sum_eltwise <- L2_b4_brc3_conv_top
I1206 09:01:47.623553 28553 net.cpp:434] L2_b4_sum_eltwise <- L2_b3_sum_eltwise_top_L2_b3_sum_eltwise_0_split_1
I1206 09:01:47.623564 28553 net.cpp:408] L2_b4_sum_eltwise -> L2_b4_sum_eltwise_top
I1206 09:01:47.623589 28553 net.cpp:150] Setting up L2_b4_sum_eltwise
I1206 09:01:47.623605 28553 net.cpp:157] Top shape: 85 128 16 16 (2785280)
I1206 09:01:47.623611 28553 net.cpp:165] Memory required for data: 1622078460
I1206 09:01:47.623616 28553 layer_factory.hpp:77] Creating layer L2_b4_sum_eltwise_top_L2_b4_sum_eltwise_0_split
I1206 09:01:47.623625 28553 net.cpp:100] Creating Layer L2_b4_sum_eltwise_top_L2_b4_sum_eltwise_0_split
I1206 09:01:47.623630 28553 net.cpp:434] L2_b4_sum_eltwise_top_L2_b4_sum_eltwise_0_split <- L2_b4_sum_eltwise_top
I1206 09:01:47.623641 28553 net.cpp:408] L2_b4_sum_eltwise_top_L2_b4_sum_eltwise_0_split -> L2_b4_sum_eltwise_top_L2_b4_sum_eltwise_0_split_0
I1206 09:01:47.623649 28553 net.cpp:408] L2_b4_sum_eltwise_top_L2_b4_sum_eltwise_0_split -> L2_b4_sum_eltwise_top_L2_b4_sum_eltwise_0_split_1
I1206 09:01:47.623694 28553 net.cpp:150] Setting up L2_b4_sum_eltwise_top_L2_b4_sum_eltwise_0_split
I1206 09:01:47.623709 28553 net.cpp:157] Top shape: 85 128 16 16 (2785280)
I1206 09:01:47.623716 28553 net.cpp:157] Top shape: 85 128 16 16 (2785280)
I1206 09:01:47.623721 28553 net.cpp:165] Memory required for data: 1644360700
I1206 09:01:47.623726 28553 layer_factory.hpp:77] Creating layer L2_b5_brc1_bn
I1206 09:01:47.623733 28553 net.cpp:100] Creating Layer L2_b5_brc1_bn
I1206 09:01:47.623739 28553 net.cpp:434] L2_b5_brc1_bn <- L2_b4_sum_eltwise_top_L2_b4_sum_eltwise_0_split_0
I1206 09:01:47.623750 28553 net.cpp:408] L2_b5_brc1_bn -> L2_b5_brc1_bn_top
I1206 09:01:47.623982 28553 net.cpp:150] Setting up L2_b5_brc1_bn
I1206 09:01:47.623994 28553 net.cpp:157] Top shape: 85 128 16 16 (2785280)
I1206 09:01:47.623999 28553 net.cpp:165] Memory required for data: 1655501820
I1206 09:01:47.624011 28553 layer_factory.hpp:77] Creating layer L2_b5_brc1_relu
I1206 09:01:47.624018 28553 net.cpp:100] Creating Layer L2_b5_brc1_relu
I1206 09:01:47.624024 28553 net.cpp:434] L2_b5_brc1_relu <- L2_b5_brc1_bn_top
I1206 09:01:47.624032 28553 net.cpp:395] L2_b5_brc1_relu -> L2_b5_brc1_bn_top (in-place)
I1206 09:01:47.624042 28553 net.cpp:150] Setting up L2_b5_brc1_relu
I1206 09:01:47.624048 28553 net.cpp:157] Top shape: 85 128 16 16 (2785280)
I1206 09:01:47.624053 28553 net.cpp:165] Memory required for data: 1666642940
I1206 09:01:47.624058 28553 layer_factory.hpp:77] Creating layer L2_b5_brc1_conv
I1206 09:01:47.624075 28553 net.cpp:100] Creating Layer L2_b5_brc1_conv
I1206 09:01:47.624083 28553 net.cpp:434] L2_b5_brc1_conv <- L2_b5_brc1_bn_top
I1206 09:01:47.624094 28553 net.cpp:408] L2_b5_brc1_conv -> L2_b5_brc1_conv_top
I1206 09:01:47.624536 28553 net.cpp:150] Setting up L2_b5_brc1_conv
I1206 09:01:47.624550 28553 net.cpp:157] Top shape: 85 64 16 16 (1392640)
I1206 09:01:47.624555 28553 net.cpp:165] Memory required for data: 1672213500
I1206 09:01:47.624564 28553 layer_factory.hpp:77] Creating layer L2_b5_brc2_bn
I1206 09:01:47.624575 28553 net.cpp:100] Creating Layer L2_b5_brc2_bn
I1206 09:01:47.624583 28553 net.cpp:434] L2_b5_brc2_bn <- L2_b5_brc1_conv_top
I1206 09:01:47.624590 28553 net.cpp:408] L2_b5_brc2_bn -> L2_b5_brc2_bn_top
I1206 09:01:47.624833 28553 net.cpp:150] Setting up L2_b5_brc2_bn
I1206 09:01:47.624845 28553 net.cpp:157] Top shape: 85 64 16 16 (1392640)
I1206 09:01:47.624850 28553 net.cpp:165] Memory required for data: 1677784060
I1206 09:01:47.624861 28553 layer_factory.hpp:77] Creating layer L2_b5_brc2_relu
I1206 09:01:47.624869 28553 net.cpp:100] Creating Layer L2_b5_brc2_relu
I1206 09:01:47.624874 28553 net.cpp:434] L2_b5_brc2_relu <- L2_b5_brc2_bn_top
I1206 09:01:47.624882 28553 net.cpp:395] L2_b5_brc2_relu -> L2_b5_brc2_bn_top (in-place)
I1206 09:01:47.624891 28553 net.cpp:150] Setting up L2_b5_brc2_relu
I1206 09:01:47.624898 28553 net.cpp:157] Top shape: 85 64 16 16 (1392640)
I1206 09:01:47.624902 28553 net.cpp:165] Memory required for data: 1683354620
I1206 09:01:47.624907 28553 layer_factory.hpp:77] Creating layer L2_b5_brc2_conv
I1206 09:01:47.624922 28553 net.cpp:100] Creating Layer L2_b5_brc2_conv
I1206 09:01:47.624927 28553 net.cpp:434] L2_b5_brc2_conv <- L2_b5_brc2_bn_top
I1206 09:01:47.624935 28553 net.cpp:408] L2_b5_brc2_conv -> L2_b5_brc2_conv_top
I1206 09:01:47.625244 28553 net.cpp:150] Setting up L2_b5_brc2_conv
I1206 09:01:47.625258 28553 net.cpp:157] Top shape: 85 64 16 16 (1392640)
I1206 09:01:47.625263 28553 net.cpp:165] Memory required for data: 1688925180
I1206 09:01:47.625272 28553 layer_factory.hpp:77] Creating layer L2_b5_brc3_bn
I1206 09:01:47.625285 28553 net.cpp:100] Creating Layer L2_b5_brc3_bn
I1206 09:01:47.625291 28553 net.cpp:434] L2_b5_brc3_bn <- L2_b5_brc2_conv_top
I1206 09:01:47.625299 28553 net.cpp:408] L2_b5_brc3_bn -> L2_b5_brc3_bn_top
I1206 09:01:47.625550 28553 net.cpp:150] Setting up L2_b5_brc3_bn
I1206 09:01:47.625566 28553 net.cpp:157] Top shape: 85 64 16 16 (1392640)
I1206 09:01:47.625571 28553 net.cpp:165] Memory required for data: 1694495740
I1206 09:01:47.625581 28553 layer_factory.hpp:77] Creating layer L2_b5_brc3_relu
I1206 09:01:47.625589 28553 net.cpp:100] Creating Layer L2_b5_brc3_relu
I1206 09:01:47.625596 28553 net.cpp:434] L2_b5_brc3_relu <- L2_b5_brc3_bn_top
I1206 09:01:47.625602 28553 net.cpp:395] L2_b5_brc3_relu -> L2_b5_brc3_bn_top (in-place)
I1206 09:01:47.625612 28553 net.cpp:150] Setting up L2_b5_brc3_relu
I1206 09:01:47.625618 28553 net.cpp:157] Top shape: 85 64 16 16 (1392640)
I1206 09:01:47.625623 28553 net.cpp:165] Memory required for data: 1700066300
I1206 09:01:47.625627 28553 layer_factory.hpp:77] Creating layer L2_b5_brc3_conv
I1206 09:01:47.625638 28553 net.cpp:100] Creating Layer L2_b5_brc3_conv
I1206 09:01:47.625643 28553 net.cpp:434] L2_b5_brc3_conv <- L2_b5_brc3_bn_top
I1206 09:01:47.625656 28553 net.cpp:408] L2_b5_brc3_conv -> L2_b5_brc3_conv_top
I1206 09:01:47.626090 28553 net.cpp:150] Setting up L2_b5_brc3_conv
I1206 09:01:47.626103 28553 net.cpp:157] Top shape: 85 128 16 16 (2785280)
I1206 09:01:47.626108 28553 net.cpp:165] Memory required for data: 1711207420
I1206 09:01:47.626117 28553 layer_factory.hpp:77] Creating layer L2_b5_sum_eltwise
I1206 09:01:47.626127 28553 net.cpp:100] Creating Layer L2_b5_sum_eltwise
I1206 09:01:47.626132 28553 net.cpp:434] L2_b5_sum_eltwise <- L2_b5_brc3_conv_top
I1206 09:01:47.626139 28553 net.cpp:434] L2_b5_sum_eltwise <- L2_b4_sum_eltwise_top_L2_b4_sum_eltwise_0_split_1
I1206 09:01:47.626149 28553 net.cpp:408] L2_b5_sum_eltwise -> L2_b5_sum_eltwise_top
I1206 09:01:47.626175 28553 net.cpp:150] Setting up L2_b5_sum_eltwise
I1206 09:01:47.626184 28553 net.cpp:157] Top shape: 85 128 16 16 (2785280)
I1206 09:01:47.626189 28553 net.cpp:165] Memory required for data: 1722348540
I1206 09:01:47.626194 28553 layer_factory.hpp:77] Creating layer L2_b5_sum_eltwise_top_L2_b5_sum_eltwise_0_split
I1206 09:01:47.626205 28553 net.cpp:100] Creating Layer L2_b5_sum_eltwise_top_L2_b5_sum_eltwise_0_split
I1206 09:01:47.626211 28553 net.cpp:434] L2_b5_sum_eltwise_top_L2_b5_sum_eltwise_0_split <- L2_b5_sum_eltwise_top
I1206 09:01:47.626219 28553 net.cpp:408] L2_b5_sum_eltwise_top_L2_b5_sum_eltwise_0_split -> L2_b5_sum_eltwise_top_L2_b5_sum_eltwise_0_split_0
I1206 09:01:47.626227 28553 net.cpp:408] L2_b5_sum_eltwise_top_L2_b5_sum_eltwise_0_split -> L2_b5_sum_eltwise_top_L2_b5_sum_eltwise_0_split_1
I1206 09:01:47.626276 28553 net.cpp:150] Setting up L2_b5_sum_eltwise_top_L2_b5_sum_eltwise_0_split
I1206 09:01:47.626286 28553 net.cpp:157] Top shape: 85 128 16 16 (2785280)
I1206 09:01:47.626293 28553 net.cpp:157] Top shape: 85 128 16 16 (2785280)
I1206 09:01:47.626298 28553 net.cpp:165] Memory required for data: 1744630780
I1206 09:01:47.626303 28553 layer_factory.hpp:77] Creating layer L2_b6_brc1_bn
I1206 09:01:47.626312 28553 net.cpp:100] Creating Layer L2_b6_brc1_bn
I1206 09:01:47.626317 28553 net.cpp:434] L2_b6_brc1_bn <- L2_b5_sum_eltwise_top_L2_b5_sum_eltwise_0_split_0
I1206 09:01:47.626327 28553 net.cpp:408] L2_b6_brc1_bn -> L2_b6_brc1_bn_top
I1206 09:01:47.626562 28553 net.cpp:150] Setting up L2_b6_brc1_bn
I1206 09:01:47.626575 28553 net.cpp:157] Top shape: 85 128 16 16 (2785280)
I1206 09:01:47.626580 28553 net.cpp:165] Memory required for data: 1755771900
I1206 09:01:47.626590 28553 layer_factory.hpp:77] Creating layer L2_b6_brc1_relu
I1206 09:01:47.626619 28553 net.cpp:100] Creating Layer L2_b6_brc1_relu
I1206 09:01:47.626627 28553 net.cpp:434] L2_b6_brc1_relu <- L2_b6_brc1_bn_top
I1206 09:01:47.626634 28553 net.cpp:395] L2_b6_brc1_relu -> L2_b6_brc1_bn_top (in-place)
I1206 09:01:47.626644 28553 net.cpp:150] Setting up L2_b6_brc1_relu
I1206 09:01:47.626652 28553 net.cpp:157] Top shape: 85 128 16 16 (2785280)
I1206 09:01:47.626655 28553 net.cpp:165] Memory required for data: 1766913020
I1206 09:01:47.626660 28553 layer_factory.hpp:77] Creating layer L2_b6_brc1_conv
I1206 09:01:47.626672 28553 net.cpp:100] Creating Layer L2_b6_brc1_conv
I1206 09:01:47.626683 28553 net.cpp:434] L2_b6_brc1_conv <- L2_b6_brc1_bn_top
I1206 09:01:47.626693 28553 net.cpp:408] L2_b6_brc1_conv -> L2_b6_brc1_conv_top
I1206 09:01:47.627132 28553 net.cpp:150] Setting up L2_b6_brc1_conv
I1206 09:01:47.627146 28553 net.cpp:157] Top shape: 85 64 16 16 (1392640)
I1206 09:01:47.627151 28553 net.cpp:165] Memory required for data: 1772483580
I1206 09:01:47.627161 28553 layer_factory.hpp:77] Creating layer L2_b6_brc2_bn
I1206 09:01:47.627171 28553 net.cpp:100] Creating Layer L2_b6_brc2_bn
I1206 09:01:47.627178 28553 net.cpp:434] L2_b6_brc2_bn <- L2_b6_brc1_conv_top
I1206 09:01:47.627187 28553 net.cpp:408] L2_b6_brc2_bn -> L2_b6_brc2_bn_top
I1206 09:01:47.627431 28553 net.cpp:150] Setting up L2_b6_brc2_bn
I1206 09:01:47.627444 28553 net.cpp:157] Top shape: 85 64 16 16 (1392640)
I1206 09:01:47.627449 28553 net.cpp:165] Memory required for data: 1778054140
I1206 09:01:47.627460 28553 layer_factory.hpp:77] Creating layer L2_b6_brc2_relu
I1206 09:01:47.627473 28553 net.cpp:100] Creating Layer L2_b6_brc2_relu
I1206 09:01:47.627480 28553 net.cpp:434] L2_b6_brc2_relu <- L2_b6_brc2_bn_top
I1206 09:01:47.627487 28553 net.cpp:395] L2_b6_brc2_relu -> L2_b6_brc2_bn_top (in-place)
I1206 09:01:47.627497 28553 net.cpp:150] Setting up L2_b6_brc2_relu
I1206 09:01:47.627504 28553 net.cpp:157] Top shape: 85 64 16 16 (1392640)
I1206 09:01:47.627508 28553 net.cpp:165] Memory required for data: 1783624700
I1206 09:01:47.627513 28553 layer_factory.hpp:77] Creating layer L2_b6_brc2_conv
I1206 09:01:47.627529 28553 net.cpp:100] Creating Layer L2_b6_brc2_conv
I1206 09:01:47.627535 28553 net.cpp:434] L2_b6_brc2_conv <- L2_b6_brc2_bn_top
I1206 09:01:47.627547 28553 net.cpp:408] L2_b6_brc2_conv -> L2_b6_brc2_conv_top
I1206 09:01:47.627848 28553 net.cpp:150] Setting up L2_b6_brc2_conv
I1206 09:01:47.627861 28553 net.cpp:157] Top shape: 85 64 16 16 (1392640)
I1206 09:01:47.627866 28553 net.cpp:165] Memory required for data: 1789195260
I1206 09:01:47.627876 28553 layer_factory.hpp:77] Creating layer L2_b6_brc3_bn
I1206 09:01:47.627887 28553 net.cpp:100] Creating Layer L2_b6_brc3_bn
I1206 09:01:47.627893 28553 net.cpp:434] L2_b6_brc3_bn <- L2_b6_brc2_conv_top
I1206 09:01:47.627904 28553 net.cpp:408] L2_b6_brc3_bn -> L2_b6_brc3_bn_top
I1206 09:01:47.628142 28553 net.cpp:150] Setting up L2_b6_brc3_bn
I1206 09:01:47.628154 28553 net.cpp:157] Top shape: 85 64 16 16 (1392640)
I1206 09:01:47.628159 28553 net.cpp:165] Memory required for data: 1794765820
I1206 09:01:47.628170 28553 layer_factory.hpp:77] Creating layer L2_b6_brc3_relu
I1206 09:01:47.628177 28553 net.cpp:100] Creating Layer L2_b6_brc3_relu
I1206 09:01:47.628183 28553 net.cpp:434] L2_b6_brc3_relu <- L2_b6_brc3_bn_top
I1206 09:01:47.628190 28553 net.cpp:395] L2_b6_brc3_relu -> L2_b6_brc3_bn_top (in-place)
I1206 09:01:47.628201 28553 net.cpp:150] Setting up L2_b6_brc3_relu
I1206 09:01:47.628206 28553 net.cpp:157] Top shape: 85 64 16 16 (1392640)
I1206 09:01:47.628211 28553 net.cpp:165] Memory required for data: 1800336380
I1206 09:01:47.628216 28553 layer_factory.hpp:77] Creating layer L2_b6_brc3_conv
I1206 09:01:47.628229 28553 net.cpp:100] Creating Layer L2_b6_brc3_conv
I1206 09:01:47.628235 28553 net.cpp:434] L2_b6_brc3_conv <- L2_b6_brc3_bn_top
I1206 09:01:47.628247 28553 net.cpp:408] L2_b6_brc3_conv -> L2_b6_brc3_conv_top
I1206 09:01:47.628681 28553 net.cpp:150] Setting up L2_b6_brc3_conv
I1206 09:01:47.628696 28553 net.cpp:157] Top shape: 85 128 16 16 (2785280)
I1206 09:01:47.628707 28553 net.cpp:165] Memory required for data: 1811477500
I1206 09:01:47.628716 28553 layer_factory.hpp:77] Creating layer L2_b6_sum_eltwise
I1206 09:01:47.628728 28553 net.cpp:100] Creating Layer L2_b6_sum_eltwise
I1206 09:01:47.628734 28553 net.cpp:434] L2_b6_sum_eltwise <- L2_b6_brc3_conv_top
I1206 09:01:47.628742 28553 net.cpp:434] L2_b6_sum_eltwise <- L2_b5_sum_eltwise_top_L2_b5_sum_eltwise_0_split_1
I1206 09:01:47.628749 28553 net.cpp:408] L2_b6_sum_eltwise -> L2_b6_sum_eltwise_top
I1206 09:01:47.628775 28553 net.cpp:150] Setting up L2_b6_sum_eltwise
I1206 09:01:47.628795 28553 net.cpp:157] Top shape: 85 128 16 16 (2785280)
I1206 09:01:47.628800 28553 net.cpp:165] Memory required for data: 1822618620
I1206 09:01:47.628805 28553 layer_factory.hpp:77] Creating layer L2_b6_sum_eltwise_top_L2_b6_sum_eltwise_0_split
I1206 09:01:47.628813 28553 net.cpp:100] Creating Layer L2_b6_sum_eltwise_top_L2_b6_sum_eltwise_0_split
I1206 09:01:47.628818 28553 net.cpp:434] L2_b6_sum_eltwise_top_L2_b6_sum_eltwise_0_split <- L2_b6_sum_eltwise_top
I1206 09:01:47.628826 28553 net.cpp:408] L2_b6_sum_eltwise_top_L2_b6_sum_eltwise_0_split -> L2_b6_sum_eltwise_top_L2_b6_sum_eltwise_0_split_0
I1206 09:01:47.628839 28553 net.cpp:408] L2_b6_sum_eltwise_top_L2_b6_sum_eltwise_0_split -> L2_b6_sum_eltwise_top_L2_b6_sum_eltwise_0_split_1
I1206 09:01:47.628883 28553 net.cpp:150] Setting up L2_b6_sum_eltwise_top_L2_b6_sum_eltwise_0_split
I1206 09:01:47.628895 28553 net.cpp:157] Top shape: 85 128 16 16 (2785280)
I1206 09:01:47.628901 28553 net.cpp:157] Top shape: 85 128 16 16 (2785280)
I1206 09:01:47.628906 28553 net.cpp:165] Memory required for data: 1844900860
I1206 09:01:47.628911 28553 layer_factory.hpp:77] Creating layer L3_b1_brc1_bn
I1206 09:01:47.628924 28553 net.cpp:100] Creating Layer L3_b1_brc1_bn
I1206 09:01:47.628931 28553 net.cpp:434] L3_b1_brc1_bn <- L2_b6_sum_eltwise_top_L2_b6_sum_eltwise_0_split_0
I1206 09:01:47.628942 28553 net.cpp:408] L3_b1_brc1_bn -> L3_b1_brc1_bn_top
I1206 09:01:47.629168 28553 net.cpp:150] Setting up L3_b1_brc1_bn
I1206 09:01:47.629182 28553 net.cpp:157] Top shape: 85 128 16 16 (2785280)
I1206 09:01:47.629189 28553 net.cpp:165] Memory required for data: 1856041980
I1206 09:01:47.629199 28553 layer_factory.hpp:77] Creating layer L3_b1_brc1_relu
I1206 09:01:47.629206 28553 net.cpp:100] Creating Layer L3_b1_brc1_relu
I1206 09:01:47.629212 28553 net.cpp:434] L3_b1_brc1_relu <- L3_b1_brc1_bn_top
I1206 09:01:47.629220 28553 net.cpp:395] L3_b1_brc1_relu -> L3_b1_brc1_bn_top (in-place)
I1206 09:01:47.629230 28553 net.cpp:150] Setting up L3_b1_brc1_relu
I1206 09:01:47.629236 28553 net.cpp:157] Top shape: 85 128 16 16 (2785280)
I1206 09:01:47.629240 28553 net.cpp:165] Memory required for data: 1867183100
I1206 09:01:47.629245 28553 layer_factory.hpp:77] Creating layer L3_b1_brc1_conv
I1206 09:01:47.629256 28553 net.cpp:100] Creating Layer L3_b1_brc1_conv
I1206 09:01:47.629261 28553 net.cpp:434] L3_b1_brc1_conv <- L3_b1_brc1_bn_top
I1206 09:01:47.629272 28553 net.cpp:408] L3_b1_brc1_conv -> L3_b1_brc1_conv_top
I1206 09:01:47.629899 28553 net.cpp:150] Setting up L3_b1_brc1_conv
I1206 09:01:47.629914 28553 net.cpp:157] Top shape: 85 128 8 8 (696320)
I1206 09:01:47.629920 28553 net.cpp:165] Memory required for data: 1869968380
I1206 09:01:47.629928 28553 layer_factory.hpp:77] Creating layer L3_b1_brc2_bn
I1206 09:01:47.629937 28553 net.cpp:100] Creating Layer L3_b1_brc2_bn
I1206 09:01:47.629943 28553 net.cpp:434] L3_b1_brc2_bn <- L3_b1_brc1_conv_top
I1206 09:01:47.629956 28553 net.cpp:408] L3_b1_brc2_bn -> L3_b1_brc2_bn_top
I1206 09:01:47.630197 28553 net.cpp:150] Setting up L3_b1_brc2_bn
I1206 09:01:47.630208 28553 net.cpp:157] Top shape: 85 128 8 8 (696320)
I1206 09:01:47.630213 28553 net.cpp:165] Memory required for data: 1872753660
I1206 09:01:47.630224 28553 layer_factory.hpp:77] Creating layer L3_b1_brc2_relu
I1206 09:01:47.630235 28553 net.cpp:100] Creating Layer L3_b1_brc2_relu
I1206 09:01:47.630241 28553 net.cpp:434] L3_b1_brc2_relu <- L3_b1_brc2_bn_top
I1206 09:01:47.630249 28553 net.cpp:395] L3_b1_brc2_relu -> L3_b1_brc2_bn_top (in-place)
I1206 09:01:47.630265 28553 net.cpp:150] Setting up L3_b1_brc2_relu
I1206 09:01:47.630273 28553 net.cpp:157] Top shape: 85 128 8 8 (696320)
I1206 09:01:47.630278 28553 net.cpp:165] Memory required for data: 1875538940
I1206 09:01:47.630282 28553 layer_factory.hpp:77] Creating layer L3_b1_brc2_conv
I1206 09:01:47.630293 28553 net.cpp:100] Creating Layer L3_b1_brc2_conv
I1206 09:01:47.630298 28553 net.cpp:434] L3_b1_brc2_conv <- L3_b1_brc2_bn_top
I1206 09:01:47.630311 28553 net.cpp:408] L3_b1_brc2_conv -> L3_b1_brc2_conv_top
I1206 09:01:47.630687 28553 net.cpp:150] Setting up L3_b1_brc2_conv
I1206 09:01:47.630702 28553 net.cpp:157] Top shape: 85 128 8 8 (696320)
I1206 09:01:47.630707 28553 net.cpp:165] Memory required for data: 1878324220
I1206 09:01:47.630715 28553 layer_factory.hpp:77] Creating layer L3_b1_brc3_bn
I1206 09:01:47.630723 28553 net.cpp:100] Creating Layer L3_b1_brc3_bn
I1206 09:01:47.630729 28553 net.cpp:434] L3_b1_brc3_bn <- L3_b1_brc2_conv_top
I1206 09:01:47.630738 28553 net.cpp:408] L3_b1_brc3_bn -> L3_b1_brc3_bn_top
I1206 09:01:47.630972 28553 net.cpp:150] Setting up L3_b1_brc3_bn
I1206 09:01:47.630985 28553 net.cpp:157] Top shape: 85 128 8 8 (696320)
I1206 09:01:47.630990 28553 net.cpp:165] Memory required for data: 1881109500
I1206 09:01:47.631000 28553 layer_factory.hpp:77] Creating layer L3_b1_brc3_relu
I1206 09:01:47.631007 28553 net.cpp:100] Creating Layer L3_b1_brc3_relu
I1206 09:01:47.631013 28553 net.cpp:434] L3_b1_brc3_relu <- L3_b1_brc3_bn_top
I1206 09:01:47.631026 28553 net.cpp:395] L3_b1_brc3_relu -> L3_b1_brc3_bn_top (in-place)
I1206 09:01:47.631036 28553 net.cpp:150] Setting up L3_b1_brc3_relu
I1206 09:01:47.631043 28553 net.cpp:157] Top shape: 85 128 8 8 (696320)
I1206 09:01:47.631048 28553 net.cpp:165] Memory required for data: 1883894780
I1206 09:01:47.631053 28553 layer_factory.hpp:77] Creating layer L3_b1_brc3_conv
I1206 09:01:47.631063 28553 net.cpp:100] Creating Layer L3_b1_brc3_conv
I1206 09:01:47.631072 28553 net.cpp:434] L3_b1_brc3_conv <- L3_b1_brc3_bn_top
I1206 09:01:47.631080 28553 net.cpp:408] L3_b1_brc3_conv -> L3_b1_brc3_conv_top
I1206 09:01:47.633090 28553 net.cpp:150] Setting up L3_b1_brc3_conv
I1206 09:01:47.633108 28553 net.cpp:157] Top shape: 85 256 8 8 (1392640)
I1206 09:01:47.633114 28553 net.cpp:165] Memory required for data: 1889465340
I1206 09:01:47.633123 28553 layer_factory.hpp:77] Creating layer L3_b1_chanInc_conv
I1206 09:01:47.633138 28553 net.cpp:100] Creating Layer L3_b1_chanInc_conv
I1206 09:01:47.633147 28553 net.cpp:434] L3_b1_chanInc_conv <- L2_b6_sum_eltwise_top_L2_b6_sum_eltwise_0_split_1
I1206 09:01:47.633158 28553 net.cpp:408] L3_b1_chanInc_conv -> L3_b1_chanInc_conv_top
I1206 09:01:47.634093 28553 net.cpp:150] Setting up L3_b1_chanInc_conv
I1206 09:01:47.634109 28553 net.cpp:157] Top shape: 85 256 8 8 (1392640)
I1206 09:01:47.634114 28553 net.cpp:165] Memory required for data: 1895035900
I1206 09:01:47.634122 28553 layer_factory.hpp:77] Creating layer L3_b1_sum_eltwise
I1206 09:01:47.634131 28553 net.cpp:100] Creating Layer L3_b1_sum_eltwise
I1206 09:01:47.634137 28553 net.cpp:434] L3_b1_sum_eltwise <- L3_b1_brc3_conv_top
I1206 09:01:47.634145 28553 net.cpp:434] L3_b1_sum_eltwise <- L3_b1_chanInc_conv_top
I1206 09:01:47.634155 28553 net.cpp:408] L3_b1_sum_eltwise -> L3_b1_sum_eltwise_top
I1206 09:01:47.634191 28553 net.cpp:150] Setting up L3_b1_sum_eltwise
I1206 09:01:47.634202 28553 net.cpp:157] Top shape: 85 256 8 8 (1392640)
I1206 09:01:47.634207 28553 net.cpp:165] Memory required for data: 1900606460
I1206 09:01:47.634212 28553 layer_factory.hpp:77] Creating layer L3_b1_sum_eltwise_top_L3_b1_sum_eltwise_0_split
I1206 09:01:47.634220 28553 net.cpp:100] Creating Layer L3_b1_sum_eltwise_top_L3_b1_sum_eltwise_0_split
I1206 09:01:47.634227 28553 net.cpp:434] L3_b1_sum_eltwise_top_L3_b1_sum_eltwise_0_split <- L3_b1_sum_eltwise_top
I1206 09:01:47.634239 28553 net.cpp:408] L3_b1_sum_eltwise_top_L3_b1_sum_eltwise_0_split -> L3_b1_sum_eltwise_top_L3_b1_sum_eltwise_0_split_0
I1206 09:01:47.634249 28553 net.cpp:408] L3_b1_sum_eltwise_top_L3_b1_sum_eltwise_0_split -> L3_b1_sum_eltwise_top_L3_b1_sum_eltwise_0_split_1
I1206 09:01:47.634305 28553 net.cpp:150] Setting up L3_b1_sum_eltwise_top_L3_b1_sum_eltwise_0_split
I1206 09:01:47.634316 28553 net.cpp:157] Top shape: 85 256 8 8 (1392640)
I1206 09:01:47.634323 28553 net.cpp:157] Top shape: 85 256 8 8 (1392640)
I1206 09:01:47.634327 28553 net.cpp:165] Memory required for data: 1911747580
I1206 09:01:47.634332 28553 layer_factory.hpp:77] Creating layer L3_b2_brc1_bn
I1206 09:01:47.634344 28553 net.cpp:100] Creating Layer L3_b2_brc1_bn
I1206 09:01:47.634351 28553 net.cpp:434] L3_b2_brc1_bn <- L3_b1_sum_eltwise_top_L3_b1_sum_eltwise_0_split_0
I1206 09:01:47.634361 28553 net.cpp:408] L3_b2_brc1_bn -> L3_b2_brc1_bn_top
I1206 09:01:47.634598 28553 net.cpp:150] Setting up L3_b2_brc1_bn
I1206 09:01:47.634611 28553 net.cpp:157] Top shape: 85 256 8 8 (1392640)
I1206 09:01:47.634616 28553 net.cpp:165] Memory required for data: 1917318140
I1206 09:01:47.634626 28553 layer_factory.hpp:77] Creating layer L3_b2_brc1_relu
I1206 09:01:47.634635 28553 net.cpp:100] Creating Layer L3_b2_brc1_relu
I1206 09:01:47.634641 28553 net.cpp:434] L3_b2_brc1_relu <- L3_b2_brc1_bn_top
I1206 09:01:47.634649 28553 net.cpp:395] L3_b2_brc1_relu -> L3_b2_brc1_bn_top (in-place)
I1206 09:01:47.634658 28553 net.cpp:150] Setting up L3_b2_brc1_relu
I1206 09:01:47.634665 28553 net.cpp:157] Top shape: 85 256 8 8 (1392640)
I1206 09:01:47.634670 28553 net.cpp:165] Memory required for data: 1922888700
I1206 09:01:47.634673 28553 layer_factory.hpp:77] Creating layer L3_b2_brc1_conv
I1206 09:01:47.634690 28553 net.cpp:100] Creating Layer L3_b2_brc1_conv
I1206 09:01:47.634696 28553 net.cpp:434] L3_b2_brc1_conv <- L3_b2_brc1_bn_top
I1206 09:01:47.634707 28553 net.cpp:408] L3_b2_brc1_conv -> L3_b2_brc1_conv_top
I1206 09:01:47.635646 28553 net.cpp:150] Setting up L3_b2_brc1_conv
I1206 09:01:47.635665 28553 net.cpp:157] Top shape: 85 128 8 8 (696320)
I1206 09:01:47.635670 28553 net.cpp:165] Memory required for data: 1925673980
I1206 09:01:47.635679 28553 layer_factory.hpp:77] Creating layer L3_b2_brc2_bn
I1206 09:01:47.635691 28553 net.cpp:100] Creating Layer L3_b2_brc2_bn
I1206 09:01:47.635697 28553 net.cpp:434] L3_b2_brc2_bn <- L3_b2_brc1_conv_top
I1206 09:01:47.635706 28553 net.cpp:408] L3_b2_brc2_bn -> L3_b2_brc2_bn_top
I1206 09:01:47.635951 28553 net.cpp:150] Setting up L3_b2_brc2_bn
I1206 09:01:47.635964 28553 net.cpp:157] Top shape: 85 128 8 8 (696320)
I1206 09:01:47.635969 28553 net.cpp:165] Memory required for data: 1928459260
I1206 09:01:47.635980 28553 layer_factory.hpp:77] Creating layer L3_b2_brc2_relu
I1206 09:01:47.635992 28553 net.cpp:100] Creating Layer L3_b2_brc2_relu
I1206 09:01:47.635998 28553 net.cpp:434] L3_b2_brc2_relu <- L3_b2_brc2_bn_top
I1206 09:01:47.636004 28553 net.cpp:395] L3_b2_brc2_relu -> L3_b2_brc2_bn_top (in-place)
I1206 09:01:47.636014 28553 net.cpp:150] Setting up L3_b2_brc2_relu
I1206 09:01:47.636021 28553 net.cpp:157] Top shape: 85 128 8 8 (696320)
I1206 09:01:47.636025 28553 net.cpp:165] Memory required for data: 1931244540
I1206 09:01:47.636030 28553 layer_factory.hpp:77] Creating layer L3_b2_brc2_conv
I1206 09:01:47.636041 28553 net.cpp:100] Creating Layer L3_b2_brc2_conv
I1206 09:01:47.636046 28553 net.cpp:434] L3_b2_brc2_conv <- L3_b2_brc2_bn_top
I1206 09:01:47.636059 28553 net.cpp:408] L3_b2_brc2_conv -> L3_b2_brc2_conv_top
I1206 09:01:47.636435 28553 net.cpp:150] Setting up L3_b2_brc2_conv
I1206 09:01:47.636448 28553 net.cpp:157] Top shape: 85 128 8 8 (696320)
I1206 09:01:47.636453 28553 net.cpp:165] Memory required for data: 1934029820
I1206 09:01:47.636462 28553 layer_factory.hpp:77] Creating layer L3_b2_brc3_bn
I1206 09:01:47.636477 28553 net.cpp:100] Creating Layer L3_b2_brc3_bn
I1206 09:01:47.636483 28553 net.cpp:434] L3_b2_brc3_bn <- L3_b2_brc2_conv_top
I1206 09:01:47.636492 28553 net.cpp:408] L3_b2_brc3_bn -> L3_b2_brc3_bn_top
I1206 09:01:47.636744 28553 net.cpp:150] Setting up L3_b2_brc3_bn
I1206 09:01:47.636756 28553 net.cpp:157] Top shape: 85 128 8 8 (696320)
I1206 09:01:47.636761 28553 net.cpp:165] Memory required for data: 1936815100
I1206 09:01:47.636778 28553 layer_factory.hpp:77] Creating layer L3_b2_brc3_relu
I1206 09:01:47.636787 28553 net.cpp:100] Creating Layer L3_b2_brc3_relu
I1206 09:01:47.636793 28553 net.cpp:434] L3_b2_brc3_relu <- L3_b2_brc3_bn_top
I1206 09:01:47.636803 28553 net.cpp:395] L3_b2_brc3_relu -> L3_b2_brc3_bn_top (in-place)
I1206 09:01:47.636813 28553 net.cpp:150] Setting up L3_b2_brc3_relu
I1206 09:01:47.636821 28553 net.cpp:157] Top shape: 85 128 8 8 (696320)
I1206 09:01:47.636824 28553 net.cpp:165] Memory required for data: 1939600380
I1206 09:01:47.636829 28553 layer_factory.hpp:77] Creating layer L3_b2_brc3_conv
I1206 09:01:47.636843 28553 net.cpp:100] Creating Layer L3_b2_brc3_conv
I1206 09:01:47.636849 28553 net.cpp:434] L3_b2_brc3_conv <- L3_b2_brc3_bn_top
I1206 09:01:47.636857 28553 net.cpp:408] L3_b2_brc3_conv -> L3_b2_brc3_conv_top
I1206 09:01:47.637792 28553 net.cpp:150] Setting up L3_b2_brc3_conv
I1206 09:01:47.637806 28553 net.cpp:157] Top shape: 85 256 8 8 (1392640)
I1206 09:01:47.637812 28553 net.cpp:165] Memory required for data: 1945170940
I1206 09:01:47.637820 28553 layer_factory.hpp:77] Creating layer L3_b2_sum_eltwise
I1206 09:01:47.637830 28553 net.cpp:100] Creating Layer L3_b2_sum_eltwise
I1206 09:01:47.637836 28553 net.cpp:434] L3_b2_sum_eltwise <- L3_b2_brc3_conv_top
I1206 09:01:47.637843 28553 net.cpp:434] L3_b2_sum_eltwise <- L3_b1_sum_eltwise_top_L3_b1_sum_eltwise_0_split_1
I1206 09:01:47.637854 28553 net.cpp:408] L3_b2_sum_eltwise -> L3_b2_sum_eltwise_top
I1206 09:01:47.637886 28553 net.cpp:150] Setting up L3_b2_sum_eltwise
I1206 09:01:47.637894 28553 net.cpp:157] Top shape: 85 256 8 8 (1392640)
I1206 09:01:47.637899 28553 net.cpp:165] Memory required for data: 1950741500
I1206 09:01:47.637904 28553 layer_factory.hpp:77] Creating layer L3_b2_sum_eltwise_top_L3_b2_sum_eltwise_0_split
I1206 09:01:47.637918 28553 net.cpp:100] Creating Layer L3_b2_sum_eltwise_top_L3_b2_sum_eltwise_0_split
I1206 09:01:47.637925 28553 net.cpp:434] L3_b2_sum_eltwise_top_L3_b2_sum_eltwise_0_split <- L3_b2_sum_eltwise_top
I1206 09:01:47.637933 28553 net.cpp:408] L3_b2_sum_eltwise_top_L3_b2_sum_eltwise_0_split -> L3_b2_sum_eltwise_top_L3_b2_sum_eltwise_0_split_0
I1206 09:01:47.637945 28553 net.cpp:408] L3_b2_sum_eltwise_top_L3_b2_sum_eltwise_0_split -> L3_b2_sum_eltwise_top_L3_b2_sum_eltwise_0_split_1
I1206 09:01:47.637991 28553 net.cpp:150] Setting up L3_b2_sum_eltwise_top_L3_b2_sum_eltwise_0_split
I1206 09:01:47.638003 28553 net.cpp:157] Top shape: 85 256 8 8 (1392640)
I1206 09:01:47.638010 28553 net.cpp:157] Top shape: 85 256 8 8 (1392640)
I1206 09:01:47.638015 28553 net.cpp:165] Memory required for data: 1961882620
I1206 09:01:47.638020 28553 layer_factory.hpp:77] Creating layer L3_b3_brc1_bn
I1206 09:01:47.638031 28553 net.cpp:100] Creating Layer L3_b3_brc1_bn
I1206 09:01:47.638036 28553 net.cpp:434] L3_b3_brc1_bn <- L3_b2_sum_eltwise_top_L3_b2_sum_eltwise_0_split_0
I1206 09:01:47.638044 28553 net.cpp:408] L3_b3_brc1_bn -> L3_b3_brc1_bn_top
I1206 09:01:47.638281 28553 net.cpp:150] Setting up L3_b3_brc1_bn
I1206 09:01:47.638294 28553 net.cpp:157] Top shape: 85 256 8 8 (1392640)
I1206 09:01:47.638299 28553 net.cpp:165] Memory required for data: 1967453180
I1206 09:01:47.638309 28553 layer_factory.hpp:77] Creating layer L3_b3_brc1_relu
I1206 09:01:47.638317 28553 net.cpp:100] Creating Layer L3_b3_brc1_relu
I1206 09:01:47.638324 28553 net.cpp:434] L3_b3_brc1_relu <- L3_b3_brc1_bn_top
I1206 09:01:47.638334 28553 net.cpp:395] L3_b3_brc1_relu -> L3_b3_brc1_bn_top (in-place)
I1206 09:01:47.638344 28553 net.cpp:150] Setting up L3_b3_brc1_relu
I1206 09:01:47.638350 28553 net.cpp:157] Top shape: 85 256 8 8 (1392640)
I1206 09:01:47.638355 28553 net.cpp:165] Memory required for data: 1973023740
I1206 09:01:47.638360 28553 layer_factory.hpp:77] Creating layer L3_b3_brc1_conv
I1206 09:01:47.638373 28553 net.cpp:100] Creating Layer L3_b3_brc1_conv
I1206 09:01:47.638380 28553 net.cpp:434] L3_b3_brc1_conv <- L3_b3_brc1_bn_top
I1206 09:01:47.638387 28553 net.cpp:408] L3_b3_brc1_conv -> L3_b3_brc1_conv_top
I1206 09:01:47.639323 28553 net.cpp:150] Setting up L3_b3_brc1_conv
I1206 09:01:47.639338 28553 net.cpp:157] Top shape: 85 128 8 8 (696320)
I1206 09:01:47.639343 28553 net.cpp:165] Memory required for data: 1975809020
I1206 09:01:47.639353 28553 layer_factory.hpp:77] Creating layer L3_b3_brc2_bn
I1206 09:01:47.639360 28553 net.cpp:100] Creating Layer L3_b3_brc2_bn
I1206 09:01:47.639370 28553 net.cpp:434] L3_b3_brc2_bn <- L3_b3_brc1_conv_top
I1206 09:01:47.639379 28553 net.cpp:408] L3_b3_brc2_bn -> L3_b3_brc2_bn_top
I1206 09:01:47.639623 28553 net.cpp:150] Setting up L3_b3_brc2_bn
I1206 09:01:47.639637 28553 net.cpp:157] Top shape: 85 128 8 8 (696320)
I1206 09:01:47.639642 28553 net.cpp:165] Memory required for data: 1978594300
I1206 09:01:47.639652 28553 layer_factory.hpp:77] Creating layer L3_b3_brc2_relu
I1206 09:01:47.639660 28553 net.cpp:100] Creating Layer L3_b3_brc2_relu
I1206 09:01:47.639667 28553 net.cpp:434] L3_b3_brc2_relu <- L3_b3_brc2_bn_top
I1206 09:01:47.639673 28553 net.cpp:395] L3_b3_brc2_relu -> L3_b3_brc2_bn_top (in-place)
I1206 09:01:47.639683 28553 net.cpp:150] Setting up L3_b3_brc2_relu
I1206 09:01:47.639690 28553 net.cpp:157] Top shape: 85 128 8 8 (696320)
I1206 09:01:47.639694 28553 net.cpp:165] Memory required for data: 1981379580
I1206 09:01:47.639699 28553 layer_factory.hpp:77] Creating layer L3_b3_brc2_conv
I1206 09:01:47.639714 28553 net.cpp:100] Creating Layer L3_b3_brc2_conv
I1206 09:01:47.639719 28553 net.cpp:434] L3_b3_brc2_conv <- L3_b3_brc2_bn_top
I1206 09:01:47.639730 28553 net.cpp:408] L3_b3_brc2_conv -> L3_b3_brc2_conv_top
I1206 09:01:47.640100 28553 net.cpp:150] Setting up L3_b3_brc2_conv
I1206 09:01:47.640115 28553 net.cpp:157] Top shape: 85 128 8 8 (696320)
I1206 09:01:47.640120 28553 net.cpp:165] Memory required for data: 1984164860
I1206 09:01:47.640127 28553 layer_factory.hpp:77] Creating layer L3_b3_brc3_bn
I1206 09:01:47.640141 28553 net.cpp:100] Creating Layer L3_b3_brc3_bn
I1206 09:01:47.640147 28553 net.cpp:434] L3_b3_brc3_bn <- L3_b3_brc2_conv_top
I1206 09:01:47.640156 28553 net.cpp:408] L3_b3_brc3_bn -> L3_b3_brc3_bn_top
I1206 09:01:47.640403 28553 net.cpp:150] Setting up L3_b3_brc3_bn
I1206 09:01:47.640419 28553 net.cpp:157] Top shape: 85 128 8 8 (696320)
I1206 09:01:47.640424 28553 net.cpp:165] Memory required for data: 1986950140
I1206 09:01:47.640434 28553 layer_factory.hpp:77] Creating layer L3_b3_brc3_relu
I1206 09:01:47.640442 28553 net.cpp:100] Creating Layer L3_b3_brc3_relu
I1206 09:01:47.640449 28553 net.cpp:434] L3_b3_brc3_relu <- L3_b3_brc3_bn_top
I1206 09:01:47.640455 28553 net.cpp:395] L3_b3_brc3_relu -> L3_b3_brc3_bn_top (in-place)
I1206 09:01:47.640470 28553 net.cpp:150] Setting up L3_b3_brc3_relu
I1206 09:01:47.640477 28553 net.cpp:157] Top shape: 85 128 8 8 (696320)
I1206 09:01:47.640482 28553 net.cpp:165] Memory required for data: 1989735420
I1206 09:01:47.640487 28553 layer_factory.hpp:77] Creating layer L3_b3_brc3_conv
I1206 09:01:47.640501 28553 net.cpp:100] Creating Layer L3_b3_brc3_conv
I1206 09:01:47.640507 28553 net.cpp:434] L3_b3_brc3_conv <- L3_b3_brc3_bn_top
I1206 09:01:47.640516 28553 net.cpp:408] L3_b3_brc3_conv -> L3_b3_brc3_conv_top
I1206 09:01:47.641436 28553 net.cpp:150] Setting up L3_b3_brc3_conv
I1206 09:01:47.641450 28553 net.cpp:157] Top shape: 85 256 8 8 (1392640)
I1206 09:01:47.641455 28553 net.cpp:165] Memory required for data: 1995305980
I1206 09:01:47.641464 28553 layer_factory.hpp:77] Creating layer L3_b3_sum_eltwise
I1206 09:01:47.641479 28553 net.cpp:100] Creating Layer L3_b3_sum_eltwise
I1206 09:01:47.641485 28553 net.cpp:434] L3_b3_sum_eltwise <- L3_b3_brc3_conv_top
I1206 09:01:47.641492 28553 net.cpp:434] L3_b3_sum_eltwise <- L3_b2_sum_eltwise_top_L3_b2_sum_eltwise_0_split_1
I1206 09:01:47.641505 28553 net.cpp:408] L3_b3_sum_eltwise -> L3_b3_sum_eltwise_top
I1206 09:01:47.641540 28553 net.cpp:150] Setting up L3_b3_sum_eltwise
I1206 09:01:47.641558 28553 net.cpp:157] Top shape: 85 256 8 8 (1392640)
I1206 09:01:47.641563 28553 net.cpp:165] Memory required for data: 2000876540
I1206 09:01:47.641568 28553 layer_factory.hpp:77] Creating layer L3_b3_sum_eltwise_top_L3_b3_sum_eltwise_0_split
I1206 09:01:47.641583 28553 net.cpp:100] Creating Layer L3_b3_sum_eltwise_top_L3_b3_sum_eltwise_0_split
I1206 09:01:47.641589 28553 net.cpp:434] L3_b3_sum_eltwise_top_L3_b3_sum_eltwise_0_split <- L3_b3_sum_eltwise_top
I1206 09:01:47.641597 28553 net.cpp:408] L3_b3_sum_eltwise_top_L3_b3_sum_eltwise_0_split -> L3_b3_sum_eltwise_top_L3_b3_sum_eltwise_0_split_0
I1206 09:01:47.641609 28553 net.cpp:408] L3_b3_sum_eltwise_top_L3_b3_sum_eltwise_0_split -> L3_b3_sum_eltwise_top_L3_b3_sum_eltwise_0_split_1
I1206 09:01:47.641659 28553 net.cpp:150] Setting up L3_b3_sum_eltwise_top_L3_b3_sum_eltwise_0_split
I1206 09:01:47.641670 28553 net.cpp:157] Top shape: 85 256 8 8 (1392640)
I1206 09:01:47.641677 28553 net.cpp:157] Top shape: 85 256 8 8 (1392640)
I1206 09:01:47.641682 28553 net.cpp:165] Memory required for data: 2012017660
I1206 09:01:47.641687 28553 layer_factory.hpp:77] Creating layer L3_b4_brc1_bn
I1206 09:01:47.641698 28553 net.cpp:100] Creating Layer L3_b4_brc1_bn
I1206 09:01:47.641705 28553 net.cpp:434] L3_b4_brc1_bn <- L3_b3_sum_eltwise_top_L3_b3_sum_eltwise_0_split_0
I1206 09:01:47.641712 28553 net.cpp:408] L3_b4_brc1_bn -> L3_b4_brc1_bn_top
I1206 09:01:47.641947 28553 net.cpp:150] Setting up L3_b4_brc1_bn
I1206 09:01:47.641961 28553 net.cpp:157] Top shape: 85 256 8 8 (1392640)
I1206 09:01:47.641966 28553 net.cpp:165] Memory required for data: 2017588220
I1206 09:01:47.641978 28553 layer_factory.hpp:77] Creating layer L3_b4_brc1_relu
I1206 09:01:47.641985 28553 net.cpp:100] Creating Layer L3_b4_brc1_relu
I1206 09:01:47.641991 28553 net.cpp:434] L3_b4_brc1_relu <- L3_b4_brc1_bn_top
I1206 09:01:47.641999 28553 net.cpp:395] L3_b4_brc1_relu -> L3_b4_brc1_bn_top (in-place)
I1206 09:01:47.642007 28553 net.cpp:150] Setting up L3_b4_brc1_relu
I1206 09:01:47.642014 28553 net.cpp:157] Top shape: 85 256 8 8 (1392640)
I1206 09:01:47.642019 28553 net.cpp:165] Memory required for data: 2023158780
I1206 09:01:47.642024 28553 layer_factory.hpp:77] Creating layer L3_b4_brc1_conv
I1206 09:01:47.642037 28553 net.cpp:100] Creating Layer L3_b4_brc1_conv
I1206 09:01:47.642043 28553 net.cpp:434] L3_b4_brc1_conv <- L3_b4_brc1_bn_top
I1206 09:01:47.642051 28553 net.cpp:408] L3_b4_brc1_conv -> L3_b4_brc1_conv_top
I1206 09:01:47.642980 28553 net.cpp:150] Setting up L3_b4_brc1_conv
I1206 09:01:47.642994 28553 net.cpp:157] Top shape: 85 128 8 8 (696320)
I1206 09:01:47.643000 28553 net.cpp:165] Memory required for data: 2025944060
I1206 09:01:47.643008 28553 layer_factory.hpp:77] Creating layer L3_b4_brc2_bn
I1206 09:01:47.643018 28553 net.cpp:100] Creating Layer L3_b4_brc2_bn
I1206 09:01:47.643023 28553 net.cpp:434] L3_b4_brc2_bn <- L3_b4_brc1_conv_top
I1206 09:01:47.643034 28553 net.cpp:408] L3_b4_brc2_bn -> L3_b4_brc2_bn_top
I1206 09:01:47.643273 28553 net.cpp:150] Setting up L3_b4_brc2_bn
I1206 09:01:47.643286 28553 net.cpp:157] Top shape: 85 128 8 8 (696320)
I1206 09:01:47.643291 28553 net.cpp:165] Memory required for data: 2028729340
I1206 09:01:47.643301 28553 layer_factory.hpp:77] Creating layer L3_b4_brc2_relu
I1206 09:01:47.643312 28553 net.cpp:100] Creating Layer L3_b4_brc2_relu
I1206 09:01:47.643319 28553 net.cpp:434] L3_b4_brc2_relu <- L3_b4_brc2_bn_top
I1206 09:01:47.643326 28553 net.cpp:395] L3_b4_brc2_relu -> L3_b4_brc2_bn_top (in-place)
I1206 09:01:47.643335 28553 net.cpp:150] Setting up L3_b4_brc2_relu
I1206 09:01:47.643342 28553 net.cpp:157] Top shape: 85 128 8 8 (696320)
I1206 09:01:47.643347 28553 net.cpp:165] Memory required for data: 2031514620
I1206 09:01:47.643352 28553 layer_factory.hpp:77] Creating layer L3_b4_brc2_conv
I1206 09:01:47.643362 28553 net.cpp:100] Creating Layer L3_b4_brc2_conv
I1206 09:01:47.643368 28553 net.cpp:434] L3_b4_brc2_conv <- L3_b4_brc2_bn_top
I1206 09:01:47.643378 28553 net.cpp:408] L3_b4_brc2_conv -> L3_b4_brc2_conv_top
I1206 09:01:47.643760 28553 net.cpp:150] Setting up L3_b4_brc2_conv
I1206 09:01:47.643774 28553 net.cpp:157] Top shape: 85 128 8 8 (696320)
I1206 09:01:47.643779 28553 net.cpp:165] Memory required for data: 2034299900
I1206 09:01:47.643795 28553 layer_factory.hpp:77] Creating layer L3_b4_brc3_bn
I1206 09:01:47.643805 28553 net.cpp:100] Creating Layer L3_b4_brc3_bn
I1206 09:01:47.643810 28553 net.cpp:434] L3_b4_brc3_bn <- L3_b4_brc2_conv_top
I1206 09:01:47.643818 28553 net.cpp:408] L3_b4_brc3_bn -> L3_b4_brc3_bn_top
I1206 09:01:47.644057 28553 net.cpp:150] Setting up L3_b4_brc3_bn
I1206 09:01:47.644070 28553 net.cpp:157] Top shape: 85 128 8 8 (696320)
I1206 09:01:47.644075 28553 net.cpp:165] Memory required for data: 2037085180
I1206 09:01:47.644085 28553 layer_factory.hpp:77] Creating layer L3_b4_brc3_relu
I1206 09:01:47.644093 28553 net.cpp:100] Creating Layer L3_b4_brc3_relu
I1206 09:01:47.644099 28553 net.cpp:434] L3_b4_brc3_relu <- L3_b4_brc3_bn_top
I1206 09:01:47.644109 28553 net.cpp:395] L3_b4_brc3_relu -> L3_b4_brc3_bn_top (in-place)
I1206 09:01:47.644119 28553 net.cpp:150] Setting up L3_b4_brc3_relu
I1206 09:01:47.644126 28553 net.cpp:157] Top shape: 85 128 8 8 (696320)
I1206 09:01:47.644131 28553 net.cpp:165] Memory required for data: 2039870460
I1206 09:01:47.644135 28553 layer_factory.hpp:77] Creating layer L3_b4_brc3_conv
I1206 09:01:47.644151 28553 net.cpp:100] Creating Layer L3_b4_brc3_conv
I1206 09:01:47.644157 28553 net.cpp:434] L3_b4_brc3_conv <- L3_b4_brc3_bn_top
I1206 09:01:47.644166 28553 net.cpp:408] L3_b4_brc3_conv -> L3_b4_brc3_conv_top
I1206 09:01:47.645102 28553 net.cpp:150] Setting up L3_b4_brc3_conv
I1206 09:01:47.645117 28553 net.cpp:157] Top shape: 85 256 8 8 (1392640)
I1206 09:01:47.645123 28553 net.cpp:165] Memory required for data: 2045441020
I1206 09:01:47.645130 28553 layer_factory.hpp:77] Creating layer L3_b4_sum_eltwise
I1206 09:01:47.645139 28553 net.cpp:100] Creating Layer L3_b4_sum_eltwise
I1206 09:01:47.645146 28553 net.cpp:434] L3_b4_sum_eltwise <- L3_b4_brc3_conv_top
I1206 09:01:47.645153 28553 net.cpp:434] L3_b4_sum_eltwise <- L3_b3_sum_eltwise_top_L3_b3_sum_eltwise_0_split_1
I1206 09:01:47.645164 28553 net.cpp:408] L3_b4_sum_eltwise -> L3_b4_sum_eltwise_top
I1206 09:01:47.645196 28553 net.cpp:150] Setting up L3_b4_sum_eltwise
I1206 09:01:47.645205 28553 net.cpp:157] Top shape: 85 256 8 8 (1392640)
I1206 09:01:47.645210 28553 net.cpp:165] Memory required for data: 2051011580
I1206 09:01:47.645215 28553 layer_factory.hpp:77] Creating layer L3_b4_sum_eltwise_top_L3_b4_sum_eltwise_0_split
I1206 09:01:47.645228 28553 net.cpp:100] Creating Layer L3_b4_sum_eltwise_top_L3_b4_sum_eltwise_0_split
I1206 09:01:47.645234 28553 net.cpp:434] L3_b4_sum_eltwise_top_L3_b4_sum_eltwise_0_split <- L3_b4_sum_eltwise_top
I1206 09:01:47.645242 28553 net.cpp:408] L3_b4_sum_eltwise_top_L3_b4_sum_eltwise_0_split -> L3_b4_sum_eltwise_top_L3_b4_sum_eltwise_0_split_0
I1206 09:01:47.645256 28553 net.cpp:408] L3_b4_sum_eltwise_top_L3_b4_sum_eltwise_0_split -> L3_b4_sum_eltwise_top_L3_b4_sum_eltwise_0_split_1
I1206 09:01:47.645300 28553 net.cpp:150] Setting up L3_b4_sum_eltwise_top_L3_b4_sum_eltwise_0_split
I1206 09:01:47.645313 28553 net.cpp:157] Top shape: 85 256 8 8 (1392640)
I1206 09:01:47.645318 28553 net.cpp:157] Top shape: 85 256 8 8 (1392640)
I1206 09:01:47.645323 28553 net.cpp:165] Memory required for data: 2062152700
I1206 09:01:47.645328 28553 layer_factory.hpp:77] Creating layer L3_b5_brc1_bn
I1206 09:01:47.645339 28553 net.cpp:100] Creating Layer L3_b5_brc1_bn
I1206 09:01:47.645345 28553 net.cpp:434] L3_b5_brc1_bn <- L3_b4_sum_eltwise_top_L3_b4_sum_eltwise_0_split_0
I1206 09:01:47.645354 28553 net.cpp:408] L3_b5_brc1_bn -> L3_b5_brc1_bn_top
I1206 09:01:47.645589 28553 net.cpp:150] Setting up L3_b5_brc1_bn
I1206 09:01:47.645602 28553 net.cpp:157] Top shape: 85 256 8 8 (1392640)
I1206 09:01:47.645608 28553 net.cpp:165] Memory required for data: 2067723260
I1206 09:01:47.645618 28553 layer_factory.hpp:77] Creating layer L3_b5_brc1_relu
I1206 09:01:47.645627 28553 net.cpp:100] Creating Layer L3_b5_brc1_relu
I1206 09:01:47.645632 28553 net.cpp:434] L3_b5_brc1_relu <- L3_b5_brc1_bn_top
I1206 09:01:47.645642 28553 net.cpp:395] L3_b5_brc1_relu -> L3_b5_brc1_bn_top (in-place)
I1206 09:01:47.645653 28553 net.cpp:150] Setting up L3_b5_brc1_relu
I1206 09:01:47.645666 28553 net.cpp:157] Top shape: 85 256 8 8 (1392640)
I1206 09:01:47.645671 28553 net.cpp:165] Memory required for data: 2073293820
I1206 09:01:47.645676 28553 layer_factory.hpp:77] Creating layer L3_b5_brc1_conv
I1206 09:01:47.645690 28553 net.cpp:100] Creating Layer L3_b5_brc1_conv
I1206 09:01:47.645696 28553 net.cpp:434] L3_b5_brc1_conv <- L3_b5_brc1_bn_top
I1206 09:01:47.645705 28553 net.cpp:408] L3_b5_brc1_conv -> L3_b5_brc1_conv_top
I1206 09:01:47.647686 28553 net.cpp:150] Setting up L3_b5_brc1_conv
I1206 09:01:47.647704 28553 net.cpp:157] Top shape: 85 128 8 8 (696320)
I1206 09:01:47.647709 28553 net.cpp:165] Memory required for data: 2076079100
I1206 09:01:47.647719 28553 layer_factory.hpp:77] Creating layer L3_b5_brc2_bn
I1206 09:01:47.647728 28553 net.cpp:100] Creating Layer L3_b5_brc2_bn
I1206 09:01:47.647735 28553 net.cpp:434] L3_b5_brc2_bn <- L3_b5_brc1_conv_top
I1206 09:01:47.647752 28553 net.cpp:408] L3_b5_brc2_bn -> L3_b5_brc2_bn_top
I1206 09:01:47.647992 28553 net.cpp:150] Setting up L3_b5_brc2_bn
I1206 09:01:47.648005 28553 net.cpp:157] Top shape: 85 128 8 8 (696320)
I1206 09:01:47.648010 28553 net.cpp:165] Memory required for data: 2078864380
I1206 09:01:47.648021 28553 layer_factory.hpp:77] Creating layer L3_b5_brc2_relu
I1206 09:01:47.648032 28553 net.cpp:100] Creating Layer L3_b5_brc2_relu
I1206 09:01:47.648039 28553 net.cpp:434] L3_b5_brc2_relu <- L3_b5_brc2_bn_top
I1206 09:01:47.648046 28553 net.cpp:395] L3_b5_brc2_relu -> L3_b5_brc2_bn_top (in-place)
I1206 09:01:47.648056 28553 net.cpp:150] Setting up L3_b5_brc2_relu
I1206 09:01:47.648063 28553 net.cpp:157] Top shape: 85 128 8 8 (696320)
I1206 09:01:47.648068 28553 net.cpp:165] Memory required for data: 2081649660
I1206 09:01:47.648072 28553 layer_factory.hpp:77] Creating layer L3_b5_brc2_conv
I1206 09:01:47.648083 28553 net.cpp:100] Creating Layer L3_b5_brc2_conv
I1206 09:01:47.648089 28553 net.cpp:434] L3_b5_brc2_conv <- L3_b5_brc2_bn_top
I1206 09:01:47.648102 28553 net.cpp:408] L3_b5_brc2_conv -> L3_b5_brc2_conv_top
I1206 09:01:47.648483 28553 net.cpp:150] Setting up L3_b5_brc2_conv
I1206 09:01:47.648499 28553 net.cpp:157] Top shape: 85 128 8 8 (696320)
I1206 09:01:47.648504 28553 net.cpp:165] Memory required for data: 2084434940
I1206 09:01:47.648545 28553 layer_factory.hpp:77] Creating layer L3_b5_brc3_bn
I1206 09:01:47.648561 28553 net.cpp:100] Creating Layer L3_b5_brc3_bn
I1206 09:01:47.648568 28553 net.cpp:434] L3_b5_brc3_bn <- L3_b5_brc2_conv_top
I1206 09:01:47.648576 28553 net.cpp:408] L3_b5_brc3_bn -> L3_b5_brc3_bn_top
I1206 09:01:47.648825 28553 net.cpp:150] Setting up L3_b5_brc3_bn
I1206 09:01:47.648841 28553 net.cpp:157] Top shape: 85 128 8 8 (696320)
I1206 09:01:47.648847 28553 net.cpp:165] Memory required for data: 2087220220
I1206 09:01:47.648857 28553 layer_factory.hpp:77] Creating layer L3_b5_brc3_relu
I1206 09:01:47.648866 28553 net.cpp:100] Creating Layer L3_b5_brc3_relu
I1206 09:01:47.648872 28553 net.cpp:434] L3_b5_brc3_relu <- L3_b5_brc3_bn_top
I1206 09:01:47.648880 28553 net.cpp:395] L3_b5_brc3_relu -> L3_b5_brc3_bn_top (in-place)
I1206 09:01:47.648890 28553 net.cpp:150] Setting up L3_b5_brc3_relu
I1206 09:01:47.648896 28553 net.cpp:157] Top shape: 85 128 8 8 (696320)
I1206 09:01:47.648901 28553 net.cpp:165] Memory required for data: 2090005500
I1206 09:01:47.648905 28553 layer_factory.hpp:77] Creating layer L3_b5_brc3_conv
I1206 09:01:47.648916 28553 net.cpp:100] Creating Layer L3_b5_brc3_conv
I1206 09:01:47.648921 28553 net.cpp:434] L3_b5_brc3_conv <- L3_b5_brc3_bn_top
I1206 09:01:47.648932 28553 net.cpp:408] L3_b5_brc3_conv -> L3_b5_brc3_conv_top
I1206 09:01:47.649883 28553 net.cpp:150] Setting up L3_b5_brc3_conv
I1206 09:01:47.649897 28553 net.cpp:157] Top shape: 85 256 8 8 (1392640)
I1206 09:01:47.649902 28553 net.cpp:165] Memory required for data: 2095576060
I1206 09:01:47.649910 28553 layer_factory.hpp:77] Creating layer L3_b5_sum_eltwise
I1206 09:01:47.649920 28553 net.cpp:100] Creating Layer L3_b5_sum_eltwise
I1206 09:01:47.649926 28553 net.cpp:434] L3_b5_sum_eltwise <- L3_b5_brc3_conv_top
I1206 09:01:47.649941 28553 net.cpp:434] L3_b5_sum_eltwise <- L3_b4_sum_eltwise_top_L3_b4_sum_eltwise_0_split_1
I1206 09:01:47.649953 28553 net.cpp:408] L3_b5_sum_eltwise -> L3_b5_sum_eltwise_top
I1206 09:01:47.649987 28553 net.cpp:150] Setting up L3_b5_sum_eltwise
I1206 09:01:47.650001 28553 net.cpp:157] Top shape: 85 256 8 8 (1392640)
I1206 09:01:47.650005 28553 net.cpp:165] Memory required for data: 2101146620
I1206 09:01:47.650010 28553 layer_factory.hpp:77] Creating layer L3_b5_sum_eltwise_top_L3_b5_sum_eltwise_0_split
I1206 09:01:47.650018 28553 net.cpp:100] Creating Layer L3_b5_sum_eltwise_top_L3_b5_sum_eltwise_0_split
I1206 09:01:47.650024 28553 net.cpp:434] L3_b5_sum_eltwise_top_L3_b5_sum_eltwise_0_split <- L3_b5_sum_eltwise_top
I1206 09:01:47.650032 28553 net.cpp:408] L3_b5_sum_eltwise_top_L3_b5_sum_eltwise_0_split -> L3_b5_sum_eltwise_top_L3_b5_sum_eltwise_0_split_0
I1206 09:01:47.650041 28553 net.cpp:408] L3_b5_sum_eltwise_top_L3_b5_sum_eltwise_0_split -> L3_b5_sum_eltwise_top_L3_b5_sum_eltwise_0_split_1
I1206 09:01:47.650092 28553 net.cpp:150] Setting up L3_b5_sum_eltwise_top_L3_b5_sum_eltwise_0_split
I1206 09:01:47.650104 28553 net.cpp:157] Top shape: 85 256 8 8 (1392640)
I1206 09:01:47.650111 28553 net.cpp:157] Top shape: 85 256 8 8 (1392640)
I1206 09:01:47.650116 28553 net.cpp:165] Memory required for data: 2112287740
I1206 09:01:47.650121 28553 layer_factory.hpp:77] Creating layer L3_b6_brc1_bn
I1206 09:01:47.650131 28553 net.cpp:100] Creating Layer L3_b6_brc1_bn
I1206 09:01:47.650137 28553 net.cpp:434] L3_b6_brc1_bn <- L3_b5_sum_eltwise_top_L3_b5_sum_eltwise_0_split_0
I1206 09:01:47.650146 28553 net.cpp:408] L3_b6_brc1_bn -> L3_b6_brc1_bn_top
I1206 09:01:47.650380 28553 net.cpp:150] Setting up L3_b6_brc1_bn
I1206 09:01:47.650396 28553 net.cpp:157] Top shape: 85 256 8 8 (1392640)
I1206 09:01:47.650401 28553 net.cpp:165] Memory required for data: 2117858300
I1206 09:01:47.650413 28553 layer_factory.hpp:77] Creating layer L3_b6_brc1_relu
I1206 09:01:47.650420 28553 net.cpp:100] Creating Layer L3_b6_brc1_relu
I1206 09:01:47.650426 28553 net.cpp:434] L3_b6_brc1_relu <- L3_b6_brc1_bn_top
I1206 09:01:47.650434 28553 net.cpp:395] L3_b6_brc1_relu -> L3_b6_brc1_bn_top (in-place)
I1206 09:01:47.650442 28553 net.cpp:150] Setting up L3_b6_brc1_relu
I1206 09:01:47.650449 28553 net.cpp:157] Top shape: 85 256 8 8 (1392640)
I1206 09:01:47.650454 28553 net.cpp:165] Memory required for data: 2123428860
I1206 09:01:47.650458 28553 layer_factory.hpp:77] Creating layer L3_b6_brc1_conv
I1206 09:01:47.650475 28553 net.cpp:100] Creating Layer L3_b6_brc1_conv
I1206 09:01:47.650482 28553 net.cpp:434] L3_b6_brc1_conv <- L3_b6_brc1_bn_top
I1206 09:01:47.650493 28553 net.cpp:408] L3_b6_brc1_conv -> L3_b6_brc1_conv_top
I1206 09:01:47.651422 28553 net.cpp:150] Setting up L3_b6_brc1_conv
I1206 09:01:47.651437 28553 net.cpp:157] Top shape: 85 128 8 8 (696320)
I1206 09:01:47.651443 28553 net.cpp:165] Memory required for data: 2126214140
I1206 09:01:47.651450 28553 layer_factory.hpp:77] Creating layer L3_b6_brc2_bn
I1206 09:01:47.651459 28553 net.cpp:100] Creating Layer L3_b6_brc2_bn
I1206 09:01:47.651471 28553 net.cpp:434] L3_b6_brc2_bn <- L3_b6_brc1_conv_top
I1206 09:01:47.651484 28553 net.cpp:408] L3_b6_brc2_bn -> L3_b6_brc2_bn_top
I1206 09:01:47.651758 28553 net.cpp:150] Setting up L3_b6_brc2_bn
I1206 09:01:47.651772 28553 net.cpp:157] Top shape: 85 128 8 8 (696320)
I1206 09:01:47.651777 28553 net.cpp:165] Memory required for data: 2128999420
I1206 09:01:47.651788 28553 layer_factory.hpp:77] Creating layer L3_b6_brc2_relu
I1206 09:01:47.651804 28553 net.cpp:100] Creating Layer L3_b6_brc2_relu
I1206 09:01:47.651810 28553 net.cpp:434] L3_b6_brc2_relu <- L3_b6_brc2_bn_top
I1206 09:01:47.651818 28553 net.cpp:395] L3_b6_brc2_relu -> L3_b6_brc2_bn_top (in-place)
I1206 09:01:47.651828 28553 net.cpp:150] Setting up L3_b6_brc2_relu
I1206 09:01:47.651834 28553 net.cpp:157] Top shape: 85 128 8 8 (696320)
I1206 09:01:47.651839 28553 net.cpp:165] Memory required for data: 2131784700
I1206 09:01:47.651844 28553 layer_factory.hpp:77] Creating layer L3_b6_brc2_conv
I1206 09:01:47.651862 28553 net.cpp:100] Creating Layer L3_b6_brc2_conv
I1206 09:01:47.651868 28553 net.cpp:434] L3_b6_brc2_conv <- L3_b6_brc2_bn_top
I1206 09:01:47.651880 28553 net.cpp:408] L3_b6_brc2_conv -> L3_b6_brc2_conv_top
I1206 09:01:47.652266 28553 net.cpp:150] Setting up L3_b6_brc2_conv
I1206 09:01:47.652281 28553 net.cpp:157] Top shape: 85 128 8 8 (696320)
I1206 09:01:47.652285 28553 net.cpp:165] Memory required for data: 2134569980
I1206 09:01:47.652293 28553 layer_factory.hpp:77] Creating layer L3_b6_brc3_bn
I1206 09:01:47.652302 28553 net.cpp:100] Creating Layer L3_b6_brc3_bn
I1206 09:01:47.652308 28553 net.cpp:434] L3_b6_brc3_bn <- L3_b6_brc2_conv_top
I1206 09:01:47.652317 28553 net.cpp:408] L3_b6_brc3_bn -> L3_b6_brc3_bn_top
I1206 09:01:47.652627 28553 net.cpp:150] Setting up L3_b6_brc3_bn
I1206 09:01:47.652649 28553 net.cpp:157] Top shape: 85 128 8 8 (696320)
I1206 09:01:47.652657 28553 net.cpp:165] Memory required for data: 2137355260
I1206 09:01:47.652667 28553 layer_factory.hpp:77] Creating layer L3_b6_brc3_relu
I1206 09:01:47.652675 28553 net.cpp:100] Creating Layer L3_b6_brc3_relu
I1206 09:01:47.652683 28553 net.cpp:434] L3_b6_brc3_relu <- L3_b6_brc3_bn_top
I1206 09:01:47.652693 28553 net.cpp:395] L3_b6_brc3_relu -> L3_b6_brc3_bn_top (in-place)
I1206 09:01:47.652704 28553 net.cpp:150] Setting up L3_b6_brc3_relu
I1206 09:01:47.652711 28553 net.cpp:157] Top shape: 85 128 8 8 (696320)
I1206 09:01:47.652715 28553 net.cpp:165] Memory required for data: 2140140540
I1206 09:01:47.652720 28553 layer_factory.hpp:77] Creating layer L3_b6_brc3_conv
I1206 09:01:47.652734 28553 net.cpp:100] Creating Layer L3_b6_brc3_conv
I1206 09:01:47.652740 28553 net.cpp:434] L3_b6_brc3_conv <- L3_b6_brc3_bn_top
I1206 09:01:47.652750 28553 net.cpp:408] L3_b6_brc3_conv -> L3_b6_brc3_conv_top
I1206 09:01:47.653707 28553 net.cpp:150] Setting up L3_b6_brc3_conv
I1206 09:01:47.653723 28553 net.cpp:157] Top shape: 85 256 8 8 (1392640)
I1206 09:01:47.653728 28553 net.cpp:165] Memory required for data: 2145711100
I1206 09:01:47.653735 28553 layer_factory.hpp:77] Creating layer L3_b6_sum_eltwise
I1206 09:01:47.653744 28553 net.cpp:100] Creating Layer L3_b6_sum_eltwise
I1206 09:01:47.653750 28553 net.cpp:434] L3_b6_sum_eltwise <- L3_b6_brc3_conv_top
I1206 09:01:47.653758 28553 net.cpp:434] L3_b6_sum_eltwise <- L3_b5_sum_eltwise_top_L3_b5_sum_eltwise_0_split_1
I1206 09:01:47.653769 28553 net.cpp:408] L3_b6_sum_eltwise -> L3_b6_sum_eltwise_top
I1206 09:01:47.653801 28553 net.cpp:150] Setting up L3_b6_sum_eltwise
I1206 09:01:47.653810 28553 net.cpp:157] Top shape: 85 256 8 8 (1392640)
I1206 09:01:47.653815 28553 net.cpp:165] Memory required for data: 2151281660
I1206 09:01:47.653821 28553 layer_factory.hpp:77] Creating layer post_bn
I1206 09:01:47.653834 28553 net.cpp:100] Creating Layer post_bn
I1206 09:01:47.653841 28553 net.cpp:434] post_bn <- L3_b6_sum_eltwise_top
I1206 09:01:47.653852 28553 net.cpp:408] post_bn -> post_bn_top
I1206 09:01:47.654096 28553 net.cpp:150] Setting up post_bn
I1206 09:01:47.654109 28553 net.cpp:157] Top shape: 85 256 8 8 (1392640)
I1206 09:01:47.654114 28553 net.cpp:165] Memory required for data: 2156852220
I1206 09:01:47.654124 28553 layer_factory.hpp:77] Creating layer post_relu
I1206 09:01:47.654134 28553 net.cpp:100] Creating Layer post_relu
I1206 09:01:47.654139 28553 net.cpp:434] post_relu <- post_bn_top
I1206 09:01:47.654146 28553 net.cpp:395] post_relu -> post_bn_top (in-place)
I1206 09:01:47.654155 28553 net.cpp:150] Setting up post_relu
I1206 09:01:47.654162 28553 net.cpp:157] Top shape: 85 256 8 8 (1392640)
I1206 09:01:47.654167 28553 net.cpp:165] Memory required for data: 2162422780
I1206 09:01:47.654171 28553 layer_factory.hpp:77] Creating layer post_pool
I1206 09:01:47.654186 28553 net.cpp:100] Creating Layer post_pool
I1206 09:01:47.654192 28553 net.cpp:434] post_pool <- post_bn_top
I1206 09:01:47.654201 28553 net.cpp:408] post_pool -> post_pool
I1206 09:01:47.654306 28553 net.cpp:150] Setting up post_pool
I1206 09:01:47.654327 28553 net.cpp:157] Top shape: 85 256 1 1 (21760)
I1206 09:01:47.654340 28553 net.cpp:165] Memory required for data: 2162509820
I1206 09:01:47.654346 28553 layer_factory.hpp:77] Creating layer post_FC
I1206 09:01:47.654423 28553 net.cpp:100] Creating Layer post_FC
I1206 09:01:47.654435 28553 net.cpp:434] post_FC <- post_pool
I1206 09:01:47.654449 28553 net.cpp:408] post_FC -> post_FC_top
I1206 09:01:47.654728 28553 net.cpp:150] Setting up post_FC
I1206 09:01:47.654745 28553 net.cpp:157] Top shape: 85 10 (850)
I1206 09:01:47.654750 28553 net.cpp:165] Memory required for data: 2162513220
I1206 09:01:47.654760 28553 layer_factory.hpp:77] Creating layer post_FC_top_post_FC_0_split
I1206 09:01:47.654772 28553 net.cpp:100] Creating Layer post_FC_top_post_FC_0_split
I1206 09:01:47.654778 28553 net.cpp:434] post_FC_top_post_FC_0_split <- post_FC_top
I1206 09:01:47.654786 28553 net.cpp:408] post_FC_top_post_FC_0_split -> post_FC_top_post_FC_0_split_0
I1206 09:01:47.654799 28553 net.cpp:408] post_FC_top_post_FC_0_split -> post_FC_top_post_FC_0_split_1
I1206 09:01:47.654850 28553 net.cpp:150] Setting up post_FC_top_post_FC_0_split
I1206 09:01:47.654861 28553 net.cpp:157] Top shape: 85 10 (850)
I1206 09:01:47.654867 28553 net.cpp:157] Top shape: 85 10 (850)
I1206 09:01:47.654872 28553 net.cpp:165] Memory required for data: 2162520020
I1206 09:01:47.654877 28553 layer_factory.hpp:77] Creating layer accuracy
I1206 09:01:47.654927 28553 net.cpp:100] Creating Layer accuracy
I1206 09:01:47.654939 28553 net.cpp:434] accuracy <- post_FC_top_post_FC_0_split_0
I1206 09:01:47.654947 28553 net.cpp:434] accuracy <- label_dataLayer_1_split_0
I1206 09:01:47.654955 28553 net.cpp:408] accuracy -> accuracy
…
