…
I1206 09:01:38.236769 30052 net.cpp:322] The NetState phase (0) differed from the phase (1) specified by a rule in layer dataLayer
I1206 09:01:38.238394 30052 net.cpp:58] Initializing net from parameters: 
name: "Cifar-ResNeXt"
state {
  phase: TRAIN
  level: 0
  stage: ""
}
layer {
  name: "dataLayer"
  type: "Data"
  top: "data_top"
  top: "label"
  include {
    phase: TRAIN
  }
  transform_param {
    mirror: true
    crop_size: 32
    mean_file: "examples/cifar10/mean.binaryproto"
  }
  data_param {
    source: "examples/cifar10/cifar10_train_lmdb"
    batch_size: 85
    backend: LMDB
  }
  image_data_param {
    shuffle: true
  }
}
layer {
  name: "pre_conv"
  type: "Convolution"
  bottom: "data_top"
  top: "pre_conv_top"
  param {
    lr_mult: 1
    decay_mult: 1
  }
  param {
    lr_mult: 2
    decay_mult: 0
  }
  convolution_param {
    num_output: 16
    pad: 1
    kernel_size: 3
    stride: 1
    weight_filler {
      type: "msra"
    }
    bias_filler {
      type: "constant"
    }
  }
}
layer {
  name: "L1_b1_brc1_bn"
  type: "BatchNorm"
  bottom: "pre_conv_top"
  top: "L1_b1_brc1_bn_top"
  batch_norm_param {
    use_global_stats: false
    moving_average_fraction: 0.95
  }
}
layer {
  name: "L1_b1_brc1_relu"
  type: "ReLU"
  bottom: "L1_b1_brc1_bn_top"
  top: "L1_b1_brc1_bn_top"
}
layer {
  name: "L1_b1_brc1_conv"
  type: "Convolution"
  bottom: "L1_b1_brc1_bn_top"
  top: "L1_b1_brc1_conv_top"
  param {
    lr_mult: 1
    decay_mult: 1
  }
  param {
    lr_mult: 2
    decay_mult: 0
  }
  convolution_param {
    num_output: 32
    pad: 0
    kernel_size: 1
    stride: 1
    weight_filler {
      type: "msra"
    }
    bias_filler {
      type: "constant"
    }
  }
}
layer {
  name: "L1_b1_brc2_bn"
  type: "BatchNorm"
  bottom: "L1_b1_brc1_conv_top"
  top: "L1_b1_brc2_bn_top"
  batch_norm_param {
    use_global_stats: false
    moving_average_fraction: 0.95
  }
}
layer {
  name: "L1_b1_brc2_relu"
  type: "ReLU"
  bottom: "L1_b1_brc2_bn_top"
  top: "L1_b1_brc2_bn_top"
}
layer {
  name: "L1_b1_brc2_conv"
  type: "Convolution"
  bottom: "L1_b1_brc2_bn_top"
  top: "L1_b1_brc2_conv_top"
  param {
    lr_mult: 1
    decay_mult: 1
  }
  param {
    lr_mult: 2
    decay_mult: 0
  }
  convolution_param {
    num_output: 32
    pad: 1
    kernel_size: 3
    group: 32
    stride: 1
    weight_filler {
      type: "msra"
    }
    bias_filler {
      type: "constant"
    }
  }
}
layer {
  name: "L1_b1_brc3_bn"
  type: "BatchNorm"
  bottom: "L1_b1_brc2_conv_top"
  top: "L1_b1_brc3_bn_top"
  batch_norm_param {
    use_global_stats: false
    moving_average_fraction: 0.95
  }
}
layer {
  name: "L1_b1_brc3_relu"
  type: "ReLU"
  bottom: "L1_b1_brc3_bn_top"
  top: "L1_b1_brc3_bn_top"
}
layer {
  name: "L1_b1_brc3_conv"
  type: "Convolution"
  bottom: "L1_b1_brc3_bn_top"
  top: "L1_b1_brc3_conv_top"
  param {
    lr_mult: 1
    decay_mult: 1
  }
  param {
    lr_mult: 2
    decay_mult: 0
  }
  convolution_param {
    num_output: 64
    pad: 0
    kernel_size: 1
    stride: 1
    weight_filler {
      type: "msra"
    }
    bias_filler {
      type: "constant"
    }
  }
}
layer {
  name: "L1_b1_chanInc_conv"
  type: "Convolution"
  bottom: "pre_conv_top"
  top: "L1_b1_chanInc_conv_top"
  param {
    lr_mult: 1
    decay_mult: 1
  }
  param {
    lr_mult: 2
    decay_mult: 0
  }
  convolution_param {
    num_output: 64
    pad: 0
    kernel_size: 1
    stride: 1
    weight_filler {
      type: "msra"
    }
    bias_filler {
      type: "constant"
    }
  }
}
layer {
  name: "L1_b1_sum_eltwise"
  type: "Eltwise"
  bottom: "L1_b1_brc3_conv_top"
  bottom: "L1_b1_chanInc_conv_top"
  top: "L1_b1_sum_eltwise_top"
  eltwise_param {
    operation: SUM
  }
}
layer {
  name: "L1_b2_brc1_bn"
  type: "BatchNorm"
  bottom: "L1_b1_sum_eltwise_top"
  top: "L1_b2_brc1_bn_top"
  batch_norm_param {
    use_global_stats: false
    moving_average_fraction: 0.95
  }
}
layer {
  name: "L1_b2_brc1_relu"
  type: "ReLU"
  bottom: "L1_b2_brc1_bn_top"
  top: "L1_b2_brc1_bn_top"
}
layer {
  name: "L1_b2_brc1_conv"
  type: "Convolution"
  bottom: "L1_b2_brc1_bn_top"
  top: "L1_b2_brc1_conv_top"
  param {
    lr_mult: 1
    decay_mult: 1
  }
  param {
    lr_mult: 2
    decay_mult: 0
  }
  convolution_param {
    num_output: 32
    pad: 0
    kernel_size: 1
    stride: 1
    weight_filler {
      type: "msra"
    }
    bias_filler {
      type: "constant"
    }
  }
}
layer {
  name: "L1_b2_brc2_bn"
  type: "BatchNorm"
  bottom: "L1_b2_brc1_conv_top"
  top: "L1_b2_brc2_bn_top"
  batch_norm_param {
    use_global_stats: false
    moving_average_fraction: 0.95
  }
}
layer {
  name: "L1_b2_brc2_relu"
  type: "ReLU"
  bottom: "L1_b2_brc2_bn_top"
  top: "L1_b2_brc2_bn_top"
}
layer {
  name: "L1_b2_brc2_conv"
  type: "Convolution"
  bottom: "L1_b2_brc2_bn_top"
  top: "L1_b2_brc2_conv_top"
  param {
    lr_mult: 1
    decay_mult: 1
  }
  param {
    lr_mult: 2
    decay_mult: 0
  }
  convolution_param {
    num_output: 32
    pad: 1
    kernel_size: 3
    group: 32
    stride: 1
    weight_filler {
      type: "msra"
    }
    bias_filler {
      type: "constant"
    }
  }
}
layer {
  name: "L1_b2_brc3_bn"
  type: "BatchNorm"
  bottom: "L1_b2_brc2_conv_top"
  top: "L1_b2_brc3_bn_top"
  batch_norm_param {
    use_global_stats: false
    moving_average_fraction: 0.95
  }
}
layer {
  name: "L1_b2_brc3_relu"
  type: "ReLU"
  bottom: "L1_b2_brc3_bn_top"
  top: "L1_b2_brc3_bn_top"
}
layer {
  name: "L1_b2_brc3_conv"
  type: "Convolution"
  bottom: "L1_b2_brc3_bn_top"
  top: "L1_b2_brc3_conv_top"
  param {
    lr_mult: 1
    decay_mult: 1
  }
  param {
    lr_mult: 2
    decay_mult: 0
  }
  convolution_param {
    num_output: 64
    pad: 0
    kernel_size: 1
    stride: 1
    weight_filler {
      type: "msra"
    }
    bias_filler {
      type: "constant"
    }
  }
}
layer {
  name: "L1_b2_sum_eltwise"
  type: "Eltwise"
  bottom: "L1_b2_brc3_conv_top"
  bottom: "L1_b1_sum_eltwise_top"
  top: "L1_b2_sum_eltwise_top"
  eltwise_param {
    operation: SUM
  }
}
layer {
  name: "L1_b3_brc1_bn"
  type: "BatchNorm"
  bottom: "L1_b2_sum_eltwise_top"
  top: "L1_b3_brc1_bn_top"
  batch_norm_param {
    use_global_stats: false
    moving_average_fraction: 0.95
  }
}
layer {
  name: "L1_b3_brc1_relu"
  type: "ReLU"
  bottom: "L1_b3_brc1_bn_top"
  top: "L1_b3_brc1_bn_top"
}
layer {
  name: "L1_b3_brc1_conv"
  type: "Convolution"
  bottom: "L1_b3_brc1_bn_top"
  top: "L1_b3_brc1_conv_top"
  param {
    lr_mult: 1
    decay_mult: 1
  }
  param {
    lr_mult: 2
    decay_mult: 0
  }
  convolution_param {
    num_output: 32
    pad: 0
    kernel_size: 1
    stride: 1
    weight_filler {
      type: "msra"
    }
    bias_filler {
      type: "constant"
    }
  }
}
layer {
  name: "L1_b3_brc2_bn"
  type: "BatchNorm"
  bottom: "L1_b3_brc1_conv_top"
  top: "L1_b3_brc2_bn_top"
  batch_norm_param {
    use_global_stats: false
    moving_average_fraction: 0.95
  }
}
layer {
  name: "L1_b3_brc2_relu"
  type: "ReLU"
  bottom: "L1_b3_brc2_bn_top"
  top: "L1_b3_brc2_bn_top"
}
layer {
  name: "L1_b3_brc2_conv"
  type: "Convolution"
  bottom: "L1_b3_brc2_bn_top"
  top: "L1_b3_brc2_conv_top"
  param {
    lr_mult: 1
    decay_mult: 1
  }
  param {
    lr_mult: 2
    decay_mult: 0
  }
  convolution_param {
    num_output: 32
    pad: 1
    kernel_size: 3
    group: 32
    stride: 1
    weight_filler {
      type: "msra"
    }
    bias_filler {
      type: "constant"
    }
  }
}
layer {
  name: "L1_b3_brc3_bn"
  type: "BatchNorm"
  bottom: "L1_b3_brc2_conv_top"
  top: "L1_b3_brc3_bn_top"
  batch_norm_param {
    use_global_stats: false
    moving_average_fraction: 0.95
  }
}
layer {
  name: "L1_b3_brc3_relu"
  type: "ReLU"
  bottom: "L1_b3_brc3_bn_top"
  top: "L1_b3_brc3_bn_top"
}
layer {
  name: "L1_b3_brc3_conv"
  type: "Convolution"
  bottom: "L1_b3_brc3_bn_top"
  top: "L1_b3_brc3_conv_top"
  param {
    lr_mult: 1
    decay_mult: 1
  }
  param {
    lr_mult: 2
    decay_mult: 0
  }
  convolution_param {
    num_output: 64
    pad: 0
    kernel_size: 1
    stride: 1
    weight_filler {
      type: "msra"
    }
    bias_filler {
      type: "constant"
    }
  }
}
layer {
  name: "L1_b3_sum_eltwise"
  type: "Eltwise"
  bottom: "L1_b3_brc3_conv_top"
  bottom: "L1_b2_sum_eltwise_top"
  top: "L1_b3_sum_eltwise_top"
  eltwise_param {
    operation: SUM
  }
}
layer {
  name: "L1_b4_brc1_bn"
  type: "BatchNorm"
  bottom: "L1_b3_sum_eltwise_top"
  top: "L1_b4_brc1_bn_top"
  batch_norm_param {
    use_global_stats: false
    moving_average_fraction: 0.95
  }
}
layer {
  name: "L1_b4_brc1_relu"
  type: "ReLU"
  bottom: "L1_b4_brc1_bn_top"
  top: "L1_b4_brc1_bn_top"
}
layer {
  name: "L1_b4_brc1_conv"
  type: "Convolution"
  bottom: "L1_b4_brc1_bn_top"
  top: "L1_b4_brc1_conv_top"
  param {
    lr_mult: 1
    decay_mult: 1
  }
  param {
    lr_mult: 2
    decay_mult: 0
  }
  convolution_param {
    num_output: 32
    pad: 0
    kernel_size: 1
    stride: 1
    weight_filler {
      type: "msra"
    }
    bias_filler {
      type: "constant"
    }
  }
}
layer {
  name: "L1_b4_brc2_bn"
  type: "BatchNorm"
  bottom: "L1_b4_brc1_conv_top"
  top: "L1_b4_brc2_bn_top"
  batch_norm_param {
    use_global_stats: false
    moving_average_fraction: 0.95
  }
}
layer {
  name: "L1_b4_brc2_relu"
  type: "ReLU"
  bottom: "L1_b4_brc2_bn_top"
  top: "L1_b4_brc2_bn_top"
}
layer {
  name: "L1_b4_brc2_conv"
  type: "Convolution"
  bottom: "L1_b4_brc2_bn_top"
  top: "L1_b4_brc2_conv_top"
  param {
    lr_mult: 1
    decay_mult: 1
  }
  param {
    lr_mult: 2
    decay_mult: 0
  }
  convolution_param {
    num_output: 32
    pad: 1
    kernel_size: 3
    group: 32
    stride: 1
    weight_filler {
      type: "msra"
    }
    bias_filler {
      type: "constant"
    }
  }
}
layer {
  name: "L1_b4_brc3_bn"
  type: "BatchNorm"
  bottom: "L1_b4_brc2_conv_top"
  top: "L1_b4_brc3_bn_top"
  batch_norm_param {
    use_global_stats: false
    moving_average_fraction: 0.95
  }
}
layer {
  name: "L1_b4_brc3_relu"
  type: "ReLU"
  bottom: "L1_b4_brc3_bn_top"
  top: "L1_b4_brc3_bn_top"
}
layer {
  name: "L1_b4_brc3_conv"
  type: "Convolution"
  bottom: "L1_b4_brc3_bn_top"
  top: "L1_b4_brc3_conv_top"
  param {
    lr_mult: 1
    decay_mult: 1
  }
  param {
    lr_mult: 2
    decay_mult: 0
  }
  convolution_param {
    num_output: 64
    pad: 0
    kernel_size: 1
    stride: 1
    weight_filler {
      type: "msra"
    }
    bias_filler {
      type: "constant"
    }
  }
}
layer {
  name: "L1_b4_sum_eltwise"
  type: "Eltwise"
  bottom: "L1_b4_brc3_conv_top"
  bottom: "L1_b3_sum_eltwise_top"
  top: "L1_b4_sum_eltwise_top"
  eltwise_param {
    operation: SUM
  }
}
layer {
  name: "L1_b5_brc1_bn"
  type: "BatchNorm"
  bottom: "L1_b4_sum_eltwise_top"
  top: "L1_b5_brc1_bn_top"
  batch_norm_param {
    use_global_stats: false
    moving_average_fraction: 0.95
  }
}
layer {
  name: "L1_b5_brc1_relu"
  type: "ReLU"
  bottom: "L1_b5_brc1_bn_top"
  top: "L1_b5_brc1_bn_top"
}
layer {
  name: "L1_b5_brc1_conv"
  type: "Convolution"
  bottom: "L1_b5_brc1_bn_top"
  top: "L1_b5_brc1_conv_top"
  param {
    lr_mult: 1
    decay_mult: 1
  }
  param {
    lr_mult: 2
    decay_mult: 0
  }
  convolution_param {
    num_output: 32
    pad: 0
    kernel_size: 1
    stride: 1
    weight_filler {
      type: "msra"
    }
    bias_filler {
      type: "constant"
    }
  }
}
layer {
  name: "L1_b5_brc2_bn"
  type: "BatchNorm"
  bottom: "L1_b5_brc1_conv_top"
  top: "L1_b5_brc2_bn_top"
  batch_norm_param {
    use_global_stats: false
    moving_average_fraction: 0.95
  }
}
layer {
  name: "L1_b5_brc2_relu"
  type: "ReLU"
  bottom: "L1_b5_brc2_bn_top"
  top: "L1_b5_brc2_bn_top"
}
layer {
  name: "L1_b5_brc2_conv"
  type: "Convolution"
  bottom: "L1_b5_brc2_bn_top"
  top: "L1_b5_brc2_conv_top"
  param {
    lr_mult: 1
    decay_mult: 1
  }
  param {
    lr_mult: 2
    decay_mult: 0
  }
  convolution_param {
    num_output: 32
    pad: 1
    kernel_size: 3
    group: 32
    stride: 1
    weight_filler {
      type: "msra"
    }
    bias_filler {
      type: "constant"
    }
  }
}
layer {
  name: "L1_b5_brc3_bn"
  type: "BatchNorm"
  bottom: "L1_b5_brc2_conv_top"
  top: "L1_b5_brc3_bn_top"
  batch_norm_param {
    use_global_stats: false
    moving_average_fraction: 0.95
  }
}
layer {
  name: "L1_b5_brc3_relu"
  type: "ReLU"
  bottom: "L1_b5_brc3_bn_top"
  top: "L1_b5_brc3_bn_top"
}
layer {
  name: "L1_b5_brc3_conv"
  type: "Convolution"
  bottom: "L1_b5_brc3_bn_top"
  top: "L1_b5_brc3_conv_top"
  param {
    lr_mult: 1
    decay_mult: 1
  }
  param {
    lr_mult: 2
    decay_mult: 0
  }
  convolution_param {
    num_output: 64
    pad: 0
    kernel_size: 1
    stride: 1
    weight_filler {
      type: "msra"
    }
    bias_filler {
      type: "constant"
    }
  }
}
layer {
  name: "L1_b5_sum_eltwise"
  type: "Eltwise"
  bottom: "L1_b5_brc3_conv_top"
  bottom: "L1_b4_sum_eltwise_top"
  top: "L1_b5_sum_eltwise_top"
  eltwise_param {
    operation: SUM
  }
}
layer {
  name: "L1_b6_brc1_bn"
  type: "BatchNorm"
  bottom: "L1_b5_sum_eltwise_top"
  top: "L1_b6_brc1_bn_top"
  batch_norm_param {
    use_global_stats: false
    moving_average_fraction: 0.95
  }
}
layer {
  name: "L1_b6_brc1_relu"
  type: "ReLU"
  bottom: "L1_b6_brc1_bn_top"
  top: "L1_b6_brc1_bn_top"
}
layer {
  name: "L1_b6_brc1_conv"
  type: "Convolution"
  bottom: "L1_b6_brc1_bn_top"
  top: "L1_b6_brc1_conv_top"
  param {
    lr_mult: 1
    decay_mult: 1
  }
  param {
    lr_mult: 2
    decay_mult: 0
  }
  convolution_param {
    num_output: 32
    pad: 0
    kernel_size: 1
    stride: 1
    weight_filler {
      type: "msra"
    }
    bias_filler {
      type: "constant"
    }
  }
}
layer {
  name: "L1_b6_brc2_bn"
  type: "BatchNorm"
  bottom: "L1_b6_brc1_conv_top"
  top: "L1_b6_brc2_bn_top"
  batch_norm_param {
    use_global_stats: false
    moving_average_fraction: 0.95
  }
}
layer {
  name: "L1_b6_brc2_relu"
  type: "ReLU"
  bottom: "L1_b6_brc2_bn_top"
  top: "L1_b6_brc2_bn_top"
}
layer {
  name: "L1_b6_brc2_conv"
  type: "Convolution"
  bottom: "L1_b6_brc2_bn_top"
  top: "L1_b6_brc2_conv_top"
  param {
    lr_mult: 1
    decay_mult: 1
  }
  param {
    lr_mult: 2
    decay_mult: 0
  }
  convolution_param {
    num_output: 32
    pad: 1
    kernel_size: 3
    group: 32
    stride: 1
    weight_filler {
      type: "msra"
    }
    bias_filler {
      type: "constant"
    }
  }
}
layer {
  name: "L1_b6_brc3_bn"
  type: "BatchNorm"
  bottom: "L1_b6_brc2_conv_top"
  top: "L1_b6_brc3_bn_top"
  batch_norm_param {
    use_global_stats: false
    moving_average_fraction: 0.95
  }
}
layer {
  name: "L1_b6_brc3_relu"
  type: "ReLU"
  bottom: "L1_b6_brc3_bn_top"
  top: "L1_b6_brc3_bn_top"
}
layer {
  name: "L1_b6_brc3_conv"
  type: "Convolution"
  bottom: "L1_b6_brc3_bn_top"
  top: "L1_b6_brc3_conv_top"
  param {
    lr_mult: 1
    decay_mult: 1
  }
  param {
    lr_mult: 2
    decay_mult: 0
  }
  convolution_param {
    num_output: 64
    pad: 0
    kernel_size: 1
    stride: 1
    weight_filler {
      type: "msra"
    }
    bias_filler {
      type: "constant"
    }
  }
}
layer {
  name: "L1_b6_sum_eltwise"
  type: "Eltwise"
  bottom: "L1_b6_brc3_conv_top"
  bottom: "L1_b5_sum_eltwise_top"
  top: "L1_b6_sum_eltwise_top"
  eltwise_param {
    operation: SUM
  }
}
layer {
  name: "L2_b1_brc1_bn"
  type: "BatchNorm"
  bottom: "L1_b6_sum_eltwise_top"
  top: "L2_b1_brc1_bn_top"
  batch_norm_param {
    use_global_stats: false
    moving_average_fraction: 0.95
  }
}
layer {
  name: "L2_b1_brc1_relu"
  type: "ReLU"
  bottom: "L2_b1_brc1_bn_top"
  top: "L2_b1_brc1_bn_top"
}
layer {
  name: "L2_b1_brc1_conv"
  type: "Convolution"
  bottom: "L2_b1_brc1_bn_top"
  top: "L2_b1_brc1_conv_top"
  param {
    lr_mult: 1
    decay_mult: 1
  }
  param {
    lr_mult: 2
    decay_mult: 0
  }
  convolution_param {
    num_output: 64
    pad: 0
    kernel_size: 1
    stride: 2
    weight_filler {
      type: "msra"
    }
    bias_filler {
      type: "constant"
    }
  }
}
layer {
  name: "L2_b1_brc2_bn"
  type: "BatchNorm"
  bottom: "L2_b1_brc1_conv_top"
  top: "L2_b1_brc2_bn_top"
  batch_norm_param {
    use_global_stats: false
    moving_average_fraction: 0.95
  }
}
layer {
  name: "L2_b1_brc2_relu"
  type: "ReLU"
  bottom: "L2_b1_brc2_bn_top"
  top: "L2_b1_brc2_bn_top"
}
layer {
  name: "L2_b1_brc2_conv"
  type: "Convolution"
  bottom: "L2_b1_brc2_bn_top"
  top: "L2_b1_brc2_conv_top"
  param {
    lr_mult: 1
    decay_mult: 1
  }
  param {
    lr_mult: 2
    decay_mult: 0
  }
  convolution_param {
    num_output: 64
    pad: 1
    kernel_size: 3
    group: 32
    stride: 1
    weight_filler {
      type: "msra"
    }
    bias_filler {
      type: "constant"
    }
  }
}
layer {
  name: "L2_b1_brc3_bn"
  type: "BatchNorm"
  bottom: "L2_b1_brc2_conv_top"
  top: "L2_b1_brc3_bn_top"
  batch_norm_param {
    use_global_stats: false
    moving_average_fraction: 0.95
  }
}
layer {
  name: "L2_b1_brc3_relu"
  type: "ReLU"
  bottom: "L2_b1_brc3_bn_top"
  top: "L2_b1_brc3_bn_top"
}
layer {
  name: "L2_b1_brc3_conv"
  type: "Convolution"
  bottom: "L2_b1_brc3_bn_top"
  top: "L2_b1_brc3_conv_top"
  param {
    lr_mult: 1
    decay_mult: 1
  }
  param {
    lr_mult: 2
    decay_mult: 0
  }
  convolution_param {
    num_output: 128
    pad: 0
    kernel_size: 1
    stride: 1
    weight_filler {
      type: "msra"
    }
    bias_filler {
      type: "constant"
    }
  }
}
layer {
  name: "L2_b1_chanInc_conv"
  type: "Convolution"
  bottom: "L1_b6_sum_eltwise_top"
  top: "L2_b1_chanInc_conv_top"
  param {
    lr_mult: 1
    decay_mult: 1
  }
  param {
    lr_mult: 2
    decay_mult: 0
  }
  convolution_param {
    num_output: 128
    pad: 0
    kernel_size: 1
    stride: 2
    weight_filler {
      type: "msra"
    }
    bias_filler {
      type: "constant"
    }
  }
}
layer {
  name: "L2_b1_sum_eltwise"
  type: "Eltwise"
  bottom: "L2_b1_brc3_conv_top"
  bottom: "L2_b1_chanInc_conv_top"
  top: "L2_b1_sum_eltwise_top"
  eltwise_param {
    operation: SUM
  }
}
layer {
  name: "L2_b2_brc1_bn"
  type: "BatchNorm"
  bottom: "L2_b1_sum_eltwise_top"
  top: "L2_b2_brc1_bn_top"
  batch_norm_param {
    use_global_stats: false
    moving_average_fraction: 0.95
  }
}
layer {
  name: "L2_b2_brc1_relu"
  type: "ReLU"
  bottom: "L2_b2_brc1_bn_top"
  top: "L2_b2_brc1_bn_top"
}
layer {
  name: "L2_b2_brc1_conv"
  type: "Convolution"
  bottom: "L2_b2_brc1_bn_top"
  top: "L2_b2_brc1_conv_top"
  param {
    lr_mult: 1
    decay_mult: 1
  }
  param {
    lr_mult: 2
    decay_mult: 0
  }
  convolution_param {
    num_output: 64
    pad: 0
    kernel_size: 1
    stride: 1
    weight_filler {
      type: "msra"
    }
    bias_filler {
      type: "constant"
    }
  }
}
layer {
  name: "L2_b2_brc2_bn"
  type: "BatchNorm"
  bottom: "L2_b2_brc1_conv_top"
  top: "L2_b2_brc2_bn_top"
  batch_norm_param {
    use_global_stats: false
    moving_average_fraction: 0.95
  }
}
layer {
  name: "L2_b2_brc2_relu"
  type: "ReLU"
  bottom: "L2_b2_brc2_bn_top"
  top: "L2_b2_brc2_bn_top"
}
layer {
  name: "L2_b2_brc2_conv"
  type: "Convolution"
  bottom: "L2_b2_brc2_bn_top"
  top: "L2_b2_brc2_conv_top"
  param {
    lr_mult: 1
    decay_mult: 1
  }
  param {
    lr_mult: 2
    decay_mult: 0
  }
  convolution_param {
    num_output: 64
    pad: 1
    kernel_size: 3
    group: 32
    stride: 1
    weight_filler {
      type: "msra"
    }
    bias_filler {
      type: "constant"
    }
  }
}
layer {
  name: "L2_b2_brc3_bn"
  type: "BatchNorm"
  bottom: "L2_b2_brc2_conv_top"
  top: "L2_b2_brc3_bn_top"
  batch_norm_param {
    use_global_stats: false
    moving_average_fraction: 0.95
  }
}
layer {
  name: "L2_b2_brc3_relu"
  type: "ReLU"
  bottom: "L2_b2_brc3_bn_top"
  top: "L2_b2_brc3_bn_top"
}
layer {
  name: "L2_b2_brc3_conv"
  type: "Convolution"
  bottom: "L2_b2_brc3_bn_top"
  top: "L2_b2_brc3_conv_top"
  param {
    lr_mult: 1
    decay_mult: 1
  }
  param {
    lr_mult: 2
    decay_mult: 0
  }
  convolution_param {
    num_output: 128
    pad: 0
    kernel_size: 1
    stride: 1
    weight_filler {
      type: "msra"
    }
    bias_filler {
      type: "constant"
    }
  }
}
layer {
  name: "L2_b2_sum_eltwise"
  type: "Eltwise"
  bottom: "L2_b2_brc3_conv_top"
  bottom: "L2_b1_sum_eltwise_top"
  top: "L2_b2_sum_eltwise_top"
  eltwise_param {
    operation: SUM
  }
}
layer {
  name: "L2_b3_brc1_bn"
  type: "BatchNorm"
  bottom: "L2_b2_sum_eltwise_top"
  top: "L2_b3_brc1_bn_top"
  batch_norm_param {
    use_global_stats: false
    moving_average_fraction: 0.95
  }
}
layer {
  name: "L2_b3_brc1_relu"
  type: "ReLU"
  bottom: "L2_b3_brc1_bn_top"
  top: "L2_b3_brc1_bn_top"
}
layer {
  name: "L2_b3_brc1_conv"
  type: "Convolution"
  bottom: "L2_b3_brc1_bn_top"
  top: "L2_b3_brc1_conv_top"
  param {
    lr_mult: 1
    decay_mult: 1
  }
  param {
    lr_mult: 2
    decay_mult: 0
  }
  convolution_param {
    num_output: 64
    pad: 0
    kernel_size: 1
    stride: 1
    weight_filler {
      type: "msra"
    }
    bias_filler {
      type: "constant"
    }
  }
}
layer {
  name: "L2_b3_brc2_bn"
  type: "BatchNorm"
  bottom: "L2_b3_brc1_conv_top"
  top: "L2_b3_brc2_bn_top"
  batch_norm_param {
    use_global_stats: false
    moving_average_fraction: 0.95
  }
}
layer {
  name: "L2_b3_brc2_relu"
  type: "ReLU"
  bottom: "L2_b3_brc2_bn_top"
  top: "L2_b3_brc2_bn_top"
}
layer {
  name: "L2_b3_brc2_conv"
  type: "Convolution"
  bottom: "L2_b3_brc2_bn_top"
  top: "L2_b3_brc2_conv_top"
  param {
    lr_mult: 1
    decay_mult: 1
  }
  param {
    lr_mult: 2
    decay_mult: 0
  }
  convolution_param {
    num_output: 64
    pad: 1
    kernel_size: 3
    group: 32
    stride: 1
    weight_filler {
      type: "msra"
    }
    bias_filler {
      type: "constant"
    }
  }
}
layer {
  name: "L2_b3_brc3_bn"
  type: "BatchNorm"
  bottom: "L2_b3_brc2_conv_top"
  top: "L2_b3_brc3_bn_top"
  batch_norm_param {
    use_global_stats: false
    moving_average_fraction: 0.95
  }
}
layer {
  name: "L2_b3_brc3_relu"
  type: "ReLU"
  bottom: "L2_b3_brc3_bn_top"
  top: "L2_b3_brc3_bn_top"
}
layer {
  name: "L2_b3_brc3_conv"
  type: "Convolution"
  bottom: "L2_b3_brc3_bn_top"
  top: "L2_b3_brc3_conv_top"
  param {
    lr_mult: 1
    decay_mult: 1
  }
  param {
    lr_mult: 2
    decay_mult: 0
  }
  convolution_param {
    num_output: 128
    pad: 0
    kernel_size: 1
    stride: 1
    weight_filler {
      type: "msra"
    }
    bias_filler {
      type: "constant"
    }
  }
}
layer {
  name: "L2_b3_sum_eltwise"
  type: "Eltwise"
  bottom: "L2_b3_brc3_conv_top"
  bottom: "L2_b2_sum_eltwise_top"
  top: "L2_b3_sum_eltwise_top"
  eltwise_param {
    operation: SUM
  }
}
layer {
  name: "L2_b4_brc1_bn"
  type: "BatchNorm"
  bottom: "L2_b3_sum_eltwise_top"
  top: "L2_b4_brc1_bn_top"
  batch_norm_param {
    use_global_stats: false
    moving_average_fraction: 0.95
  }
}
layer {
  name: "L2_b4_brc1_relu"
  type: "ReLU"
  bottom: "L2_b4_brc1_bn_top"
  top: "L2_b4_brc1_bn_top"
}
layer {
  name: "L2_b4_brc1_conv"
  type: "Convolution"
  bottom: "L2_b4_brc1_bn_top"
  top: "L2_b4_brc1_conv_top"
  param {
    lr_mult: 1
    decay_mult: 1
  }
  param {
    lr_mult: 2
    decay_mult: 0
  }
  convolution_param {
    num_output: 64
    pad: 0
    kernel_size: 1
    stride: 1
    weight_filler {
      type: "msra"
    }
    bias_filler {
      type: "constant"
    }
  }
}
layer {
  name: "L2_b4_brc2_bn"
  type: "BatchNorm"
  bottom: "L2_b4_brc1_conv_top"
  top: "L2_b4_brc2_bn_top"
  batch_norm_param {
    use_global_stats: false
    moving_average_fraction: 0.95
  }
}
layer {
  name: "L2_b4_brc2_relu"
  type: "ReLU"
  bottom: "L2_b4_brc2_bn_top"
  top: "L2_b4_brc2_bn_top"
}
layer {
  name: "L2_b4_brc2_conv"
  type: "Convolution"
  bottom: "L2_b4_brc2_bn_top"
  top: "L2_b4_brc2_conv_top"
  param {
    lr_mult: 1
    decay_mult: 1
  }
  param {
    lr_mult: 2
    decay_mult: 0
  }
  convolution_param {
    num_output: 64
    pad: 1
    kernel_size: 3
    group: 32
    stride: 1
    weight_filler {
      type: "msra"
    }
    bias_filler {
      type: "constant"
    }
  }
}
layer {
  name: "L2_b4_brc3_bn"
  type: "BatchNorm"
  bottom: "L2_b4_brc2_conv_top"
  top: "L2_b4_brc3_bn_top"
  batch_norm_param {
    use_global_stats: false
    moving_average_fraction: 0.95
  }
}
layer {
  name: "L2_b4_brc3_relu"
  type: "ReLU"
  bottom: "L2_b4_brc3_bn_top"
  top: "L2_b4_brc3_bn_top"
}
layer {
  name: "L2_b4_brc3_conv"
  type: "Convolution"
  bottom: "L2_b4_brc3_bn_top"
  top: "L2_b4_brc3_conv_top"
  param {
    lr_mult: 1
    decay_mult: 1
  }
  param {
    lr_mult: 2
    decay_mult: 0
  }
  convolution_param {
    num_output: 128
    pad: 0
    kernel_size: 1
    stride: 1
    weight_filler {
      type: "msra"
    }
    bias_filler {
      type: "constant"
    }
  }
}
layer {
  name: "L2_b4_sum_eltwise"
  type: "Eltwise"
  bottom: "L2_b4_brc3_conv_top"
  bottom: "L2_b3_sum_eltwise_top"
  top: "L2_b4_sum_eltwise_top"
  eltwise_param {
    operation: SUM
  }
}
layer {
  name: "L2_b5_brc1_bn"
  type: "BatchNorm"
  bottom: "L2_b4_sum_eltwise_top"
  top: "L2_b5_brc1_bn_top"
  batch_norm_param {
    use_global_stats: false
    moving_average_fraction: 0.95
  }
}
layer {
  name: "L2_b5_brc1_relu"
  type: "ReLU"
  bottom: "L2_b5_brc1_bn_top"
  top: "L2_b5_brc1_bn_top"
}
layer {
  name: "L2_b5_brc1_conv"
  type: "Convolution"
  bottom: "L2_b5_brc1_bn_top"
  top: "L2_b5_brc1_conv_top"
  param {
    lr_mult: 1
    decay_mult: 1
  }
  param {
    lr_mult: 2
    decay_mult: 0
  }
  convolution_param {
    num_output: 64
    pad: 0
    kernel_size: 1
    stride: 1
    weight_filler {
      type: "msra"
    }
    bias_filler {
      type: "constant"
    }
  }
}
layer {
  name: "L2_b5_brc2_bn"
  type: "BatchNorm"
  bottom: "L2_b5_brc1_conv_top"
  top: "L2_b5_brc2_bn_top"
  batch_norm_param {
    use_global_stats: false
    moving_average_fraction: 0.95
  }
}
layer {
  name: "L2_b5_brc2_relu"
  type: "ReLU"
  bottom: "L2_b5_brc2_bn_top"
  top: "L2_b5_brc2_bn_top"
}
layer {
  name: "L2_b5_brc2_conv"
  type: "Convolution"
  bottom: "L2_b5_brc2_bn_top"
  top: "L2_b5_brc2_conv_top"
  param {
    lr_mult: 1
    decay_mult: 1
  }
  param {
    lr_mult: 2
    decay_mult: 0
  }
  convolution_param {
    num_output: 64
    pad: 1
    kernel_size: 3
    group: 32
    stride: 1
    weight_filler {
      type: "msra"
    }
    bias_filler {
      type: "constant"
    }
  }
}
layer {
  name: "L2_b5_brc3_bn"
  type: "BatchNorm"
  bottom: "L2_b5_brc2_conv_top"
  top: "L2_b5_brc3_bn_top"
  batch_norm_param {
    use_global_stats: false
    moving_average_fraction: 0.95
  }
}
layer {
  name: "L2_b5_brc3_relu"
  type: "ReLU"
  bottom: "L2_b5_brc3_bn_top"
  top: "L2_b5_brc3_bn_top"
}
layer {
  name: "L2_b5_brc3_conv"
  type: "Convolution"
  bottom: "L2_b5_brc3_bn_top"
  top: "L2_b5_brc3_conv_top"
  param {
    lr_mult: 1
    decay_mult: 1
  }
  param {
    lr_mult: 2
    decay_mult: 0
  }
  convolution_param {
    num_output: 128
    pad: 0
    kernel_size: 1
    stride: 1
    weight_filler {
      type: "msra"
    }
    bias_filler {
      type: "constant"
    }
  }
}
layer {
  name: "L2_b5_sum_eltwise"
  type: "Eltwise"
  bottom: "L2_b5_brc3_conv_top"
  bottom: "L2_b4_sum_eltwise_top"
  top: "L2_b5_sum_eltwise_top"
  eltwise_param {
    operation: SUM
  }
}
layer {
  name: "L2_b6_brc1_bn"
  type: "BatchNorm"
  bottom: "L2_b5_sum_eltwise_top"
  top: "L2_b6_brc1_bn_top"
  batch_norm_param {
    use_global_stats: false
    moving_average_fraction: 0.95
  }
}
layer {
  name: "L2_b6_brc1_relu"
  type: "ReLU"
  bottom: "L2_b6_brc1_bn_top"
  top: "L2_b6_brc1_bn_top"
}
layer {
  name: "L2_b6_brc1_conv"
  type: "Convolution"
  bottom: "L2_b6_brc1_bn_top"
  top: "L2_b6_brc1_conv_top"
  param {
    lr_mult: 1
    decay_mult: 1
  }
  param {
    lr_mult: 2
    decay_mult: 0
  }
  convolution_param {
    num_output: 64
    pad: 0
    kernel_size: 1
    stride: 1
    weight_filler {
      type: "msra"
    }
    bias_filler {
      type: "constant"
    }
  }
}
layer {
  name: "L2_b6_brc2_bn"
  type: "BatchNorm"
  bottom: "L2_b6_brc1_conv_top"
  top: "L2_b6_brc2_bn_top"
  batch_norm_param {
    use_global_stats: false
    moving_average_fraction: 0.95
  }
}
layer {
  name: "L2_b6_brc2_relu"
  type: "ReLU"
  bottom: "L2_b6_brc2_bn_top"
  top: "L2_b6_brc2_bn_top"
}
layer {
  name: "L2_b6_brc2_conv"
  type: "Convolution"
  bottom: "L2_b6_brc2_bn_top"
  top: "L2_b6_brc2_conv_top"
  param {
    lr_mult: 1
    decay_mult: 1
  }
  param {
    lr_mult: 2
    decay_mult: 0
  }
  convolution_param {
    num_output: 64
    pad: 1
    kernel_size: 3
    group: 32
    stride: 1
    weight_filler {
      type: "msra"
    }
    bias_filler {
      type: "constant"
    }
  }
}
layer {
  name: "L2_b6_brc3_bn"
  type: "BatchNorm"
  bottom: "L2_b6_brc2_conv_top"
  top: "L2_b6_brc3_bn_top"
  batch_norm_param {
    use_global_stats: false
    moving_average_fraction: 0.95
  }
}
layer {
  name: "L2_b6_brc3_relu"
  type: "ReLU"
  bottom: "L2_b6_brc3_bn_top"
  top: "L2_b6_brc3_bn_top"
}
layer {
  name: "L2_b6_brc3_conv"
  type: "Convolution"
  bottom: "L2_b6_brc3_bn_top"
  top: "L2_b6_brc3_conv_top"
  param {
    lr_mult: 1
    decay_mult: 1
  }
  param {
    lr_mult: 2
    decay_mult: 0
  }
  convolution_param {
    num_output: 128
    pad: 0
    kernel_size: 1
    stride: 1
    weight_filler {
      type: "msra"
    }
    bias_filler {
      type: "constant"
    }
  }
}
layer {
  name: "L2_b6_sum_eltwise"
  type: "Eltwise"
  bottom: "L2_b6_brc3_conv_top"
  bottom: "L2_b5_sum_eltwise_top"
  top: "L2_b6_sum_eltwise_top"
  eltwise_param {
    operation: SUM
  }
}
layer {
  name: "L3_b1_brc1_bn"
  type: "BatchNorm"
  bottom: "L2_b6_sum_eltwise_top"
  top: "L3_b1_brc1_bn_top"
  batch_norm_param {
    use_global_stats: false
    moving_average_fraction: 0.95
  }
}
layer {
  name: "L3_b1_brc1_relu"
  type: "ReLU"
  bottom: "L3_b1_brc1_bn_top"
  top: "L3_b1_brc1_bn_top"
}
layer {
  name: "L3_b1_brc1_conv"
  type: "Convolution"
  bottom: "L3_b1_brc1_bn_top"
  top: "L3_b1_brc1_conv_top"
  param {
    lr_mult: 1
    decay_mult: 1
  }
  param {
    lr_mult: 2
    decay_mult: 0
  }
  convolution_param {
    num_output: 128
    pad: 0
    kernel_size: 1
    stri
I1206 09:01:38.240054 30052 layer_factory.hpp:77] Creating layer dataLayer
I1206 09:01:38.245827 30052 net.cpp:100] Creating Layer dataLayer
I1206 09:01:38.245908 30052 net.cpp:408] dataLayer -> data_top
I1206 09:01:38.246134 30052 net.cpp:408] dataLayer -> label
I1206 09:01:38.246269 30052 data_transformer.cpp:25] Loading mean file from: examples/cifar10/mean.binaryproto
I1206 09:01:47.532135 30061 db_lmdb.cpp:35] Opened lmdb examples/cifar10/cifar10_train_lmdb
I1206 09:01:47.552681 30052 data_layer.cpp:41] output data size: 85,3,32,32
I1206 09:01:47.558512 30052 net.cpp:150] Setting up dataLayer
I1206 09:01:47.558599 30052 net.cpp:157] Top shape: 85 3 32 32 (261120)
I1206 09:01:47.558621 30052 net.cpp:157] Top shape: 85 (85)
I1206 09:01:47.558632 30052 net.cpp:165] Memory required for data: 1044820
I1206 09:01:47.558660 30052 layer_factory.hpp:77] Creating layer label_dataLayer_1_split
I1206 09:01:47.558686 30052 net.cpp:100] Creating Layer label_dataLayer_1_split
I1206 09:01:47.558702 30052 net.cpp:434] label_dataLayer_1_split <- label
I1206 09:01:47.558734 30052 net.cpp:408] label_dataLayer_1_split -> label_dataLayer_1_split_0
I1206 09:01:47.558764 30052 net.cpp:408] label_dataLayer_1_split -> label_dataLayer_1_split_1
I1206 09:01:47.558881 30052 net.cpp:150] Setting up label_dataLayer_1_split
I1206 09:01:47.558908 30052 net.cpp:157] Top shape: 85 (85)
I1206 09:01:47.558923 30052 net.cpp:157] Top shape: 85 (85)
I1206 09:01:47.558934 30052 net.cpp:165] Memory required for data: 1045500
I1206 09:01:47.558954 30052 layer_factory.hpp:77] Creating layer pre_conv
I1206 09:01:47.559047 30052 net.cpp:100] Creating Layer pre_conv
I1206 09:01:47.559063 30052 net.cpp:434] pre_conv <- data_top
I1206 09:01:47.559087 30052 net.cpp:408] pre_conv -> pre_conv_top
I1206 09:01:47.560969 30052 net.cpp:150] Setting up pre_conv
I1206 09:01:47.560997 30052 net.cpp:157] Top shape: 85 16 32 32 (1392640)
I1206 09:01:47.561007 30052 net.cpp:165] Memory required for data: 6616060
I1206 09:01:47.561096 30052 layer_factory.hpp:77] Creating layer pre_conv_top_pre_conv_0_split
I1206 09:01:47.561120 30052 net.cpp:100] Creating Layer pre_conv_top_pre_conv_0_split
I1206 09:01:47.561131 30052 net.cpp:434] pre_conv_top_pre_conv_0_split <- pre_conv_top
I1206 09:01:47.561153 30052 net.cpp:408] pre_conv_top_pre_conv_0_split -> pre_conv_top_pre_conv_0_split_0
I1206 09:01:47.561173 30052 net.cpp:408] pre_conv_top_pre_conv_0_split -> pre_conv_top_pre_conv_0_split_1
I1206 09:01:47.561254 30062 blocking_queue.cpp:50] Waiting for data
I1206 09:01:47.561257 30052 net.cpp:150] Setting up pre_conv_top_pre_conv_0_split
I1206 09:01:47.561287 30052 net.cpp:157] Top shape: 85 16 32 32 (1392640)
I1206 09:01:47.561295 30052 net.cpp:157] Top shape: 85 16 32 32 (1392640)
I1206 09:01:47.561300 30052 net.cpp:165] Memory required for data: 17757180
I1206 09:01:47.561306 30052 layer_factory.hpp:77] Creating layer L1_b1_brc1_bn
I1206 09:01:47.561393 30052 net.cpp:100] Creating Layer L1_b1_brc1_bn
I1206 09:01:47.561409 30052 net.cpp:434] L1_b1_brc1_bn <- pre_conv_top_pre_conv_0_split_0
I1206 09:01:47.561424 30052 net.cpp:408] L1_b1_brc1_bn -> L1_b1_brc1_bn_top
I1206 09:01:47.561908 30052 net.cpp:150] Setting up L1_b1_brc1_bn
I1206 09:01:47.561929 30052 net.cpp:157] Top shape: 85 16 32 32 (1392640)
I1206 09:01:47.561949 30052 net.cpp:165] Memory required for data: 23327740
I1206 09:01:47.561981 30052 layer_factory.hpp:77] Creating layer L1_b1_brc1_relu
I1206 09:01:47.562053 30052 net.cpp:100] Creating Layer L1_b1_brc1_relu
I1206 09:01:47.562069 30052 net.cpp:434] L1_b1_brc1_relu <- L1_b1_brc1_bn_top
I1206 09:01:47.562085 30052 net.cpp:395] L1_b1_brc1_relu -> L1_b1_brc1_bn_top (in-place)
I1206 09:01:47.562105 30052 net.cpp:150] Setting up L1_b1_brc1_relu
I1206 09:01:47.562121 30052 net.cpp:157] Top shape: 85 16 32 32 (1392640)
I1206 09:01:47.562131 30052 net.cpp:165] Memory required for data: 28898300
I1206 09:01:47.562141 30052 layer_factory.hpp:77] Creating layer L1_b1_brc1_conv
I1206 09:01:47.562168 30052 net.cpp:100] Creating Layer L1_b1_brc1_conv
I1206 09:01:47.562181 30052 net.cpp:434] L1_b1_brc1_conv <- L1_b1_brc1_bn_top
I1206 09:01:47.562203 30052 net.cpp:408] L1_b1_brc1_conv -> L1_b1_brc1_conv_top
I1206 09:01:47.562537 30052 net.cpp:150] Setting up L1_b1_brc1_conv
I1206 09:01:47.562559 30052 net.cpp:157] Top shape: 85 32 32 32 (2785280)
I1206 09:01:47.562568 30052 net.cpp:165] Memory required for data: 40039420
I1206 09:01:47.562587 30052 layer_factory.hpp:77] Creating layer L1_b1_brc2_bn
I1206 09:01:47.562604 30052 net.cpp:100] Creating Layer L1_b1_brc2_bn
I1206 09:01:47.562615 30052 net.cpp:434] L1_b1_brc2_bn <- L1_b1_brc1_conv_top
I1206 09:01:47.562635 30052 net.cpp:408] L1_b1_brc2_bn -> L1_b1_brc2_bn_top
I1206 09:01:47.562922 30052 net.cpp:150] Setting up L1_b1_brc2_bn
I1206 09:01:47.562948 30052 net.cpp:157] Top shape: 85 32 32 32 (2785280)
I1206 09:01:47.562959 30052 net.cpp:165] Memory required for data: 51180540
I1206 09:01:47.562988 30052 layer_factory.hpp:77] Creating layer L1_b1_brc2_relu
I1206 09:01:47.563014 30052 net.cpp:100] Creating Layer L1_b1_brc2_relu
I1206 09:01:47.563027 30052 net.cpp:434] L1_b1_brc2_relu <- L1_b1_brc2_bn_top
I1206 09:01:47.563043 30052 net.cpp:395] L1_b1_brc2_relu -> L1_b1_brc2_bn_top (in-place)
I1206 09:01:47.563062 30052 net.cpp:150] Setting up L1_b1_brc2_relu
I1206 09:01:47.563088 30052 net.cpp:157] Top shape: 85 32 32 32 (2785280)
I1206 09:01:47.563098 30052 net.cpp:165] Memory required for data: 62321660
I1206 09:01:47.563109 30052 layer_factory.hpp:77] Creating layer L1_b1_brc2_conv
I1206 09:01:47.563132 30052 net.cpp:100] Creating Layer L1_b1_brc2_conv
I1206 09:01:47.563144 30052 net.cpp:434] L1_b1_brc2_conv <- L1_b1_brc2_bn_top
I1206 09:01:47.563166 30052 net.cpp:408] L1_b1_brc2_conv -> L1_b1_brc2_conv_top
I1206 09:01:47.563475 30052 net.cpp:150] Setting up L1_b1_brc2_conv
I1206 09:01:47.563495 30052 net.cpp:157] Top shape: 85 32 32 32 (2785280)
I1206 09:01:47.563506 30052 net.cpp:165] Memory required for data: 73462780
I1206 09:01:47.563524 30052 layer_factory.hpp:77] Creating layer L1_b1_brc3_bn
I1206 09:01:47.563542 30052 net.cpp:100] Creating Layer L1_b1_brc3_bn
I1206 09:01:47.563552 30052 net.cpp:434] L1_b1_brc3_bn <- L1_b1_brc2_conv_top
I1206 09:01:47.563572 30052 net.cpp:408] L1_b1_brc3_bn -> L1_b1_brc3_bn_top
I1206 09:01:47.563830 30052 net.cpp:150] Setting up L1_b1_brc3_bn
I1206 09:01:47.563856 30052 net.cpp:157] Top shape: 85 32 32 32 (2785280)
I1206 09:01:47.563868 30052 net.cpp:165] Memory required for data: 84603900
I1206 09:01:47.563891 30052 layer_factory.hpp:77] Creating layer L1_b1_brc3_relu
I1206 09:01:47.563907 30052 net.cpp:100] Creating Layer L1_b1_brc3_relu
I1206 09:01:47.563918 30052 net.cpp:434] L1_b1_brc3_relu <- L1_b1_brc3_bn_top
I1206 09:01:47.563935 30052 net.cpp:395] L1_b1_brc3_relu -> L1_b1_brc3_bn_top (in-place)
I1206 09:01:47.563973 30052 net.cpp:150] Setting up L1_b1_brc3_relu
I1206 09:01:47.563989 30052 net.cpp:157] Top shape: 85 32 32 32 (2785280)
I1206 09:01:47.563999 30052 net.cpp:165] Memory required for data: 95745020
I1206 09:01:47.564010 30052 layer_factory.hpp:77] Creating layer L1_b1_brc3_conv
I1206 09:01:47.564031 30052 net.cpp:100] Creating Layer L1_b1_brc3_conv
I1206 09:01:47.564043 30052 net.cpp:434] L1_b1_brc3_conv <- L1_b1_brc3_bn_top
I1206 09:01:47.564066 30052 net.cpp:408] L1_b1_brc3_conv -> L1_b1_brc3_conv_top
I1206 09:01:47.564415 30052 net.cpp:150] Setting up L1_b1_brc3_conv
I1206 09:01:47.564435 30052 net.cpp:157] Top shape: 85 64 32 32 (5570560)
I1206 09:01:47.564445 30052 net.cpp:165] Memory required for data: 118027260
I1206 09:01:47.564468 30052 layer_factory.hpp:77] Creating layer L1_b1_chanInc_conv
I1206 09:01:47.564504 30052 net.cpp:100] Creating Layer L1_b1_chanInc_conv
I1206 09:01:47.564518 30052 net.cpp:434] L1_b1_chanInc_conv <- pre_conv_top_pre_conv_0_split_1
I1206 09:01:47.564540 30052 net.cpp:408] L1_b1_chanInc_conv -> L1_b1_chanInc_conv_top
I1206 09:01:47.564863 30052 net.cpp:150] Setting up L1_b1_chanInc_conv
I1206 09:01:47.564882 30052 net.cpp:157] Top shape: 85 64 32 32 (5570560)
I1206 09:01:47.564893 30052 net.cpp:165] Memory required for data: 140309500
I1206 09:01:47.564911 30052 layer_factory.hpp:77] Creating layer L1_b1_sum_eltwise
I1206 09:01:47.564993 30052 net.cpp:100] Creating Layer L1_b1_sum_eltwise
I1206 09:01:47.565008 30052 net.cpp:434] L1_b1_sum_eltwise <- L1_b1_brc3_conv_top
I1206 09:01:47.565022 30052 net.cpp:434] L1_b1_sum_eltwise <- L1_b1_chanInc_conv_top
I1206 09:01:47.565038 30052 net.cpp:408] L1_b1_sum_eltwise -> L1_b1_sum_eltwise_top
I1206 09:01:47.565138 30052 net.cpp:150] Setting up L1_b1_sum_eltwise
I1206 09:01:47.565160 30052 net.cpp:157] Top shape: 85 64 32 32 (5570560)
I1206 09:01:47.565170 30052 net.cpp:165] Memory required for data: 162591740
I1206 09:01:47.565179 30052 layer_factory.hpp:77] Creating layer L1_b1_sum_eltwise_top_L1_b1_sum_eltwise_0_split
I1206 09:01:47.565196 30052 net.cpp:100] Creating Layer L1_b1_sum_eltwise_top_L1_b1_sum_eltwise_0_split
I1206 09:01:47.565207 30052 net.cpp:434] L1_b1_sum_eltwise_top_L1_b1_sum_eltwise_0_split <- L1_b1_sum_eltwise_top
I1206 09:01:47.565227 30052 net.cpp:408] L1_b1_sum_eltwise_top_L1_b1_sum_eltwise_0_split -> L1_b1_sum_eltwise_top_L1_b1_sum_eltwise_0_split_0
I1206 09:01:47.565248 30052 net.cpp:408] L1_b1_sum_eltwise_top_L1_b1_sum_eltwise_0_split -> L1_b1_sum_eltwise_top_L1_b1_sum_eltwise_0_split_1
I1206 09:01:47.565340 30052 net.cpp:150] Setting up L1_b1_sum_eltwise_top_L1_b1_sum_eltwise_0_split
I1206 09:01:47.565359 30052 net.cpp:157] Top shape: 85 64 32 32 (5570560)
I1206 09:01:47.565374 30052 net.cpp:157] Top shape: 85 64 32 32 (5570560)
I1206 09:01:47.565383 30052 net.cpp:165] Memory required for data: 207156220
I1206 09:01:47.565394 30052 layer_factory.hpp:77] Creating layer L1_b2_brc1_bn
I1206 09:01:47.565418 30052 net.cpp:100] Creating Layer L1_b2_brc1_bn
I1206 09:01:47.565431 30052 net.cpp:434] L1_b2_brc1_bn <- L1_b1_sum_eltwise_top_L1_b1_sum_eltwise_0_split_0
I1206 09:01:47.565448 30052 net.cpp:408] L1_b2_brc1_bn -> L1_b2_brc1_bn_top
I1206 09:01:47.565701 30052 net.cpp:150] Setting up L1_b2_brc1_bn
I1206 09:01:47.565721 30052 net.cpp:157] Top shape: 85 64 32 32 (5570560)
I1206 09:01:47.565731 30052 net.cpp:165] Memory required for data: 229438460
I1206 09:01:47.565753 30052 layer_factory.hpp:77] Creating layer L1_b2_brc1_relu
I1206 09:01:47.565776 30052 net.cpp:100] Creating Layer L1_b2_brc1_relu
I1206 09:01:47.565789 30052 net.cpp:434] L1_b2_brc1_relu <- L1_b2_brc1_bn_top
I1206 09:01:47.565804 30052 net.cpp:395] L1_b2_brc1_relu -> L1_b2_brc1_bn_top (in-place)
I1206 09:01:47.565824 30052 net.cpp:150] Setting up L1_b2_brc1_relu
I1206 09:01:47.565837 30052 net.cpp:157] Top shape: 85 64 32 32 (5570560)
I1206 09:01:47.565848 30052 net.cpp:165] Memory required for data: 251720700
I1206 09:01:47.565858 30052 layer_factory.hpp:77] Creating layer L1_b2_brc1_conv
I1206 09:01:47.565884 30052 net.cpp:100] Creating Layer L1_b2_brc1_conv
I1206 09:01:47.565898 30052 net.cpp:434] L1_b2_brc1_conv <- L1_b2_brc1_bn_top
I1206 09:01:47.565919 30052 net.cpp:408] L1_b2_brc1_conv -> L1_b2_brc1_conv_top
I1206 09:01:47.566263 30052 net.cpp:150] Setting up L1_b2_brc1_conv
I1206 09:01:47.566283 30052 net.cpp:157] Top shape: 85 32 32 32 (2785280)
I1206 09:01:47.566293 30052 net.cpp:165] Memory required for data: 262861820
I1206 09:01:47.566311 30052 layer_factory.hpp:77] Creating layer L1_b2_brc2_bn
I1206 09:01:47.566328 30052 net.cpp:100] Creating Layer L1_b2_brc2_bn
I1206 09:01:47.566339 30052 net.cpp:434] L1_b2_brc2_bn <- L1_b2_brc1_conv_top
I1206 09:01:47.566354 30052 net.cpp:408] L1_b2_brc2_bn -> L1_b2_brc2_bn_top
I1206 09:01:47.566628 30052 net.cpp:150] Setting up L1_b2_brc2_bn
I1206 09:01:47.566648 30052 net.cpp:157] Top shape: 85 32 32 32 (2785280)
I1206 09:01:47.566658 30052 net.cpp:165] Memory required for data: 274002940
I1206 09:01:47.566680 30052 layer_factory.hpp:77] Creating layer L1_b2_brc2_relu
I1206 09:01:47.566696 30052 net.cpp:100] Creating Layer L1_b2_brc2_relu
I1206 09:01:47.566707 30052 net.cpp:434] L1_b2_brc2_relu <- L1_b2_brc2_bn_top
I1206 09:01:47.566726 30052 net.cpp:395] L1_b2_brc2_relu -> L1_b2_brc2_bn_top (in-place)
I1206 09:01:47.566746 30052 net.cpp:150] Setting up L1_b2_brc2_relu
I1206 09:01:47.566761 30052 net.cpp:157] Top shape: 85 32 32 32 (2785280)
I1206 09:01:47.566771 30052 net.cpp:165] Memory required for data: 285144060
I1206 09:01:47.566781 30052 layer_factory.hpp:77] Creating layer L1_b2_brc2_conv
I1206 09:01:47.566807 30052 net.cpp:100] Creating Layer L1_b2_brc2_conv
I1206 09:01:47.566821 30052 net.cpp:434] L1_b2_brc2_conv <- L1_b2_brc2_bn_top
I1206 09:01:47.566838 30052 net.cpp:408] L1_b2_brc2_conv -> L1_b2_brc2_conv_top
I1206 09:01:47.567160 30052 net.cpp:150] Setting up L1_b2_brc2_conv
I1206 09:01:47.567180 30052 net.cpp:157] Top shape: 85 32 32 32 (2785280)
I1206 09:01:47.567190 30052 net.cpp:165] Memory required for data: 296285180
I1206 09:01:47.567209 30052 layer_factory.hpp:77] Creating layer L1_b2_brc3_bn
I1206 09:01:47.567230 30052 net.cpp:100] Creating Layer L1_b2_brc3_bn
I1206 09:01:47.567241 30052 net.cpp:434] L1_b2_brc3_bn <- L1_b2_brc2_conv_top
I1206 09:01:47.567258 30052 net.cpp:408] L1_b2_brc3_bn -> L1_b2_brc3_bn_top
I1206 09:01:47.567525 30052 net.cpp:150] Setting up L1_b2_brc3_bn
I1206 09:01:47.567544 30052 net.cpp:157] Top shape: 85 32 32 32 (2785280)
I1206 09:01:47.567553 30052 net.cpp:165] Memory required for data: 307426300
I1206 09:01:47.567575 30052 layer_factory.hpp:77] Creating layer L1_b2_brc3_relu
I1206 09:01:47.567602 30052 net.cpp:100] Creating Layer L1_b2_brc3_relu
I1206 09:01:47.567615 30052 net.cpp:434] L1_b2_brc3_relu <- L1_b2_brc3_bn_top
I1206 09:01:47.567633 30052 net.cpp:395] L1_b2_brc3_relu -> L1_b2_brc3_bn_top (in-place)
I1206 09:01:47.567653 30052 net.cpp:150] Setting up L1_b2_brc3_relu
I1206 09:01:47.567668 30052 net.cpp:157] Top shape: 85 32 32 32 (2785280)
I1206 09:01:47.567678 30052 net.cpp:165] Memory required for data: 318567420
I1206 09:01:47.567688 30052 layer_factory.hpp:77] Creating layer L1_b2_brc3_conv
I1206 09:01:47.567714 30052 net.cpp:100] Creating Layer L1_b2_brc3_conv
I1206 09:01:47.567726 30052 net.cpp:434] L1_b2_brc3_conv <- L1_b2_brc3_bn_top
I1206 09:01:47.567745 30052 net.cpp:408] L1_b2_brc3_conv -> L1_b2_brc3_conv_top
I1206 09:01:47.568090 30052 net.cpp:150] Setting up L1_b2_brc3_conv
I1206 09:01:47.568110 30052 net.cpp:157] Top shape: 85 64 32 32 (5570560)
I1206 09:01:47.568120 30052 net.cpp:165] Memory required for data: 340849660
I1206 09:01:47.568151 30052 layer_factory.hpp:77] Creating layer L1_b2_sum_eltwise
I1206 09:01:47.568176 30052 net.cpp:100] Creating Layer L1_b2_sum_eltwise
I1206 09:01:47.568190 30052 net.cpp:434] L1_b2_sum_eltwise <- L1_b2_brc3_conv_top
I1206 09:01:47.568203 30052 net.cpp:434] L1_b2_sum_eltwise <- L1_b1_sum_eltwise_top_L1_b1_sum_eltwise_0_split_1
I1206 09:01:47.568219 30052 net.cpp:408] L1_b2_sum_eltwise -> L1_b2_sum_eltwise_top
I1206 09:01:47.568271 30052 net.cpp:150] Setting up L1_b2_sum_eltwise
I1206 09:01:47.568305 30052 net.cpp:157] Top shape: 85 64 32 32 (5570560)
I1206 09:01:47.568316 30052 net.cpp:165] Memory required for data: 363131900
I1206 09:01:47.568328 30052 layer_factory.hpp:77] Creating layer L1_b2_sum_eltwise_top_L1_b2_sum_eltwise_0_split
I1206 09:01:47.568342 30052 net.cpp:100] Creating Layer L1_b2_sum_eltwise_top_L1_b2_sum_eltwise_0_split
I1206 09:01:47.568353 30052 net.cpp:434] L1_b2_sum_eltwise_top_L1_b2_sum_eltwise_0_split <- L1_b2_sum_eltwise_top
I1206 09:01:47.568369 30052 net.cpp:408] L1_b2_sum_eltwise_top_L1_b2_sum_eltwise_0_split -> L1_b2_sum_eltwise_top_L1_b2_sum_eltwise_0_split_0
I1206 09:01:47.568392 30052 net.cpp:408] L1_b2_sum_eltwise_top_L1_b2_sum_eltwise_0_split -> L1_b2_sum_eltwise_top_L1_b2_sum_eltwise_0_split_1
I1206 09:01:47.568470 30052 net.cpp:150] Setting up L1_b2_sum_eltwise_top_L1_b2_sum_eltwise_0_split
I1206 09:01:47.568490 30052 net.cpp:157] Top shape: 85 64 32 32 (5570560)
I1206 09:01:47.568502 30052 net.cpp:157] Top shape: 85 64 32 32 (5570560)
I1206 09:01:47.568512 30052 net.cpp:165] Memory required for data: 407696380
I1206 09:01:47.568523 30052 layer_factory.hpp:77] Creating layer L1_b3_brc1_bn
I1206 09:01:47.568543 30052 net.cpp:100] Creating Layer L1_b3_brc1_bn
I1206 09:01:47.568555 30052 net.cpp:434] L1_b3_brc1_bn <- L1_b2_sum_eltwise_top_L1_b2_sum_eltwise_0_split_0
I1206 09:01:47.568572 30052 net.cpp:408] L1_b3_brc1_bn -> L1_b3_brc1_bn_top
I1206 09:01:47.568842 30052 net.cpp:150] Setting up L1_b3_brc1_bn
I1206 09:01:47.568861 30052 net.cpp:157] Top shape: 85 64 32 32 (5570560)
I1206 09:01:47.568871 30052 net.cpp:165] Memory required for data: 429978620
I1206 09:01:47.568892 30052 layer_factory.hpp:77] Creating layer L1_b3_brc1_relu
I1206 09:01:47.568908 30052 net.cpp:100] Creating Layer L1_b3_brc1_relu
I1206 09:01:47.568919 30052 net.cpp:434] L1_b3_brc1_relu <- L1_b3_brc1_bn_top
I1206 09:01:47.568933 30052 net.cpp:395] L1_b3_brc1_relu -> L1_b3_brc1_bn_top (in-place)
I1206 09:01:47.568961 30052 net.cpp:150] Setting up L1_b3_brc1_relu
I1206 09:01:47.568976 30052 net.cpp:157] Top shape: 85 64 32 32 (5570560)
I1206 09:01:47.568986 30052 net.cpp:165] Memory required for data: 452260860
I1206 09:01:47.568996 30052 layer_factory.hpp:77] Creating layer L1_b3_brc1_conv
I1206 09:01:47.569023 30052 net.cpp:100] Creating Layer L1_b3_brc1_conv
I1206 09:01:47.569036 30052 net.cpp:434] L1_b3_brc1_conv <- L1_b3_brc1_bn_top
I1206 09:01:47.569058 30052 net.cpp:408] L1_b3_brc1_conv -> L1_b3_brc1_conv_top
I1206 09:01:47.569416 30052 net.cpp:150] Setting up L1_b3_brc1_conv
I1206 09:01:47.569443 30052 net.cpp:157] Top shape: 85 32 32 32 (2785280)
I1206 09:01:47.569454 30052 net.cpp:165] Memory required for data: 463401980
I1206 09:01:47.569473 30052 layer_factory.hpp:77] Creating layer L1_b3_brc2_bn
I1206 09:01:47.569494 30052 net.cpp:100] Creating Layer L1_b3_brc2_bn
I1206 09:01:47.569505 30052 net.cpp:434] L1_b3_brc2_bn <- L1_b3_brc1_conv_top
I1206 09:01:47.569522 30052 net.cpp:408] L1_b3_brc2_bn -> L1_b3_brc2_bn_top
I1206 09:01:47.569784 30052 net.cpp:150] Setting up L1_b3_brc2_bn
I1206 09:01:47.569803 30052 net.cpp:157] Top shape: 85 32 32 32 (2785280)
I1206 09:01:47.569813 30052 net.cpp:165] Memory required for data: 474543100
I1206 09:01:47.569835 30052 layer_factory.hpp:77] Creating layer L1_b3_brc2_relu
I1206 09:01:47.569851 30052 net.cpp:100] Creating Layer L1_b3_brc2_relu
I1206 09:01:47.569864 30052 net.cpp:434] L1_b3_brc2_relu <- L1_b3_brc2_bn_top
I1206 09:01:47.569877 30052 net.cpp:395] L1_b3_brc2_relu -> L1_b3_brc2_bn_top (in-place)
I1206 09:01:47.569896 30052 net.cpp:150] Setting up L1_b3_brc2_relu
I1206 09:01:47.569911 30052 net.cpp:157] Top shape: 85 32 32 32 (2785280)
I1206 09:01:47.569921 30052 net.cpp:165] Memory required for data: 485684220
I1206 09:01:47.569932 30052 layer_factory.hpp:77] Creating layer L1_b3_brc2_conv
I1206 09:01:47.569969 30052 net.cpp:100] Creating Layer L1_b3_brc2_conv
I1206 09:01:47.569983 30052 net.cpp:434] L1_b3_brc2_conv <- L1_b3_brc2_bn_top
I1206 09:01:47.570008 30052 net.cpp:408] L1_b3_brc2_conv -> L1_b3_brc2_conv_top
I1206 09:01:47.570319 30052 net.cpp:150] Setting up L1_b3_brc2_conv
I1206 09:01:47.570338 30052 net.cpp:157] Top shape: 85 32 32 32 (2785280)
I1206 09:01:47.570348 30052 net.cpp:165] Memory required for data: 496825340
I1206 09:01:47.570366 30052 layer_factory.hpp:77] Creating layer L1_b3_brc3_bn
I1206 09:01:47.570387 30052 net.cpp:100] Creating Layer L1_b3_brc3_bn
I1206 09:01:47.570399 30052 net.cpp:434] L1_b3_brc3_bn <- L1_b3_brc2_conv_top
I1206 09:01:47.570421 30052 net.cpp:408] L1_b3_brc3_bn -> L1_b3_brc3_bn_top
I1206 09:01:47.570682 30052 net.cpp:150] Setting up L1_b3_brc3_bn
I1206 09:01:47.570700 30052 net.cpp:157] Top shape: 85 32 32 32 (2785280)
I1206 09:01:47.570710 30052 net.cpp:165] Memory required for data: 507966460
I1206 09:01:47.570732 30052 layer_factory.hpp:77] Creating layer L1_b3_brc3_relu
I1206 09:01:47.570749 30052 net.cpp:100] Creating Layer L1_b3_brc3_relu
I1206 09:01:47.570760 30052 net.cpp:434] L1_b3_brc3_relu <- L1_b3_brc3_bn_top
I1206 09:01:47.570773 30052 net.cpp:395] L1_b3_brc3_relu -> L1_b3_brc3_bn_top (in-place)
I1206 09:01:47.570793 30052 net.cpp:150] Setting up L1_b3_brc3_relu
I1206 09:01:47.570808 30052 net.cpp:157] Top shape: 85 32 32 32 (2785280)
I1206 09:01:47.570817 30052 net.cpp:165] Memory required for data: 519107580
I1206 09:01:47.570828 30052 layer_factory.hpp:77] Creating layer L1_b3_brc3_conv
I1206 09:01:47.570853 30052 net.cpp:100] Creating Layer L1_b3_brc3_conv
I1206 09:01:47.570866 30052 net.cpp:434] L1_b3_brc3_conv <- L1_b3_brc3_bn_top
I1206 09:01:47.570893 30052 net.cpp:408] L1_b3_brc3_conv -> L1_b3_brc3_conv_top
I1206 09:01:47.571249 30052 net.cpp:150] Setting up L1_b3_brc3_conv
I1206 09:01:47.571269 30052 net.cpp:157] Top shape: 85 64 32 32 (5570560)
I1206 09:01:47.571279 30052 net.cpp:165] Memory required for data: 541389820
I1206 09:01:47.571296 30052 layer_factory.hpp:77] Creating layer L1_b3_sum_eltwise
I1206 09:01:47.571317 30052 net.cpp:100] Creating Layer L1_b3_sum_eltwise
I1206 09:01:47.571329 30052 net.cpp:434] L1_b3_sum_eltwise <- L1_b3_brc3_conv_top
I1206 09:01:47.571344 30052 net.cpp:434] L1_b3_sum_eltwise <- L1_b2_sum_eltwise_top_L1_b2_sum_eltwise_0_split_1
I1206 09:01:47.571360 30052 net.cpp:408] L1_b3_sum_eltwise -> L1_b3_sum_eltwise_top
I1206 09:01:47.571421 30052 net.cpp:150] Setting up L1_b3_sum_eltwise
I1206 09:01:47.571440 30052 net.cpp:157] Top shape: 85 64 32 32 (5570560)
I1206 09:01:47.571450 30052 net.cpp:165] Memory required for data: 563672060
I1206 09:01:47.571460 30052 layer_factory.hpp:77] Creating layer L1_b3_sum_eltwise_top_L1_b3_sum_eltwise_0_split
I1206 09:01:47.571490 30052 net.cpp:100] Creating Layer L1_b3_sum_eltwise_top_L1_b3_sum_eltwise_0_split
I1206 09:01:47.571502 30052 net.cpp:434] L1_b3_sum_eltwise_top_L1_b3_sum_eltwise_0_split <- L1_b3_sum_eltwise_top
I1206 09:01:47.571518 30052 net.cpp:408] L1_b3_sum_eltwise_top_L1_b3_sum_eltwise_0_split -> L1_b3_sum_eltwise_top_L1_b3_sum_eltwise_0_split_0
I1206 09:01:47.571543 30052 net.cpp:408] L1_b3_sum_eltwise_top_L1_b3_sum_eltwise_0_split -> L1_b3_sum_eltwise_top_L1_b3_sum_eltwise_0_split_1
I1206 09:01:47.571622 30052 net.cpp:150] Setting up L1_b3_sum_eltwise_top_L1_b3_sum_eltwise_0_split
I1206 09:01:47.571641 30052 net.cpp:157] Top shape: 85 64 32 32 (5570560)
I1206 09:01:47.571655 30052 net.cpp:157] Top shape: 85 64 32 32 (5570560)
I1206 09:01:47.571666 30052 net.cpp:165] Memory required for data: 608236540
I1206 09:01:47.571676 30052 layer_factory.hpp:77] Creating layer L1_b4_brc1_bn
I1206 09:01:47.571696 30052 net.cpp:100] Creating Layer L1_b4_brc1_bn
I1206 09:01:47.571709 30052 net.cpp:434] L1_b4_brc1_bn <- L1_b3_sum_eltwise_top_L1_b3_sum_eltwise_0_split_0
I1206 09:01:47.571725 30052 net.cpp:408] L1_b4_brc1_bn -> L1_b4_brc1_bn_top
I1206 09:01:47.571992 30052 net.cpp:150] Setting up L1_b4_brc1_bn
I1206 09:01:47.572013 30052 net.cpp:157] Top shape: 85 64 32 32 (5570560)
I1206 09:01:47.572022 30052 net.cpp:165] Memory required for data: 630518780
I1206 09:01:47.572044 30052 layer_factory.hpp:77] Creating layer L1_b4_brc1_relu
I1206 09:01:47.572067 30052 net.cpp:100] Creating Layer L1_b4_brc1_relu
I1206 09:01:47.572078 30052 net.cpp:434] L1_b4_brc1_relu <- L1_b4_brc1_bn_top
I1206 09:01:47.572093 30052 net.cpp:395] L1_b4_brc1_relu -> L1_b4_brc1_bn_top (in-place)
I1206 09:01:47.572113 30052 net.cpp:150] Setting up L1_b4_brc1_relu
I1206 09:01:47.572126 30052 net.cpp:157] Top shape: 85 64 32 32 (5570560)
I1206 09:01:47.572137 30052 net.cpp:165] Memory required for data: 652801020
I1206 09:01:47.572147 30052 layer_factory.hpp:77] Creating layer L1_b4_brc1_conv
I1206 09:01:47.572180 30052 net.cpp:100] Creating Layer L1_b4_brc1_conv
I1206 09:01:47.572192 30052 net.cpp:434] L1_b4_brc1_conv <- L1_b4_brc1_bn_top
I1206 09:01:47.572214 30052 net.cpp:408] L1_b4_brc1_conv -> L1_b4_brc1_conv_top
I1206 09:01:47.572566 30052 net.cpp:150] Setting up L1_b4_brc1_conv
I1206 09:01:47.572587 30052 net.cpp:157] Top shape: 85 32 32 32 (2785280)
I1206 09:01:47.572595 30052 net.cpp:165] Memory required for data: 663942140
I1206 09:01:47.572614 30052 layer_factory.hpp:77] Creating layer L1_b4_brc2_bn
I1206 09:01:47.572630 30052 net.cpp:100] Creating Layer L1_b4_brc2_bn
I1206 09:01:47.572641 30052 net.cpp:434] L1_b4_brc2_bn <- L1_b4_brc1_conv_top
I1206 09:01:47.572657 30052 net.cpp:408] L1_b4_brc2_bn -> L1_b4_brc2_bn_top
I1206 09:01:47.572944 30052 net.cpp:150] Setting up L1_b4_brc2_bn
I1206 09:01:47.572964 30052 net.cpp:157] Top shape: 85 32 32 32 (2785280)
I1206 09:01:47.572974 30052 net.cpp:165] Memory required for data: 675083260
I1206 09:01:47.572998 30052 layer_factory.hpp:77] Creating layer L1_b4_brc2_relu
I1206 09:01:47.573014 30052 net.cpp:100] Creating Layer L1_b4_brc2_relu
I1206 09:01:47.573024 30052 net.cpp:434] L1_b4_brc2_relu <- L1_b4_brc2_bn_top
I1206 09:01:47.573043 30052 net.cpp:395] L1_b4_brc2_relu -> L1_b4_brc2_bn_top (in-place)
I1206 09:01:47.573063 30052 net.cpp:150] Setting up L1_b4_brc2_relu
I1206 09:01:47.573078 30052 net.cpp:157] Top shape: 85 32 32 32 (2785280)
I1206 09:01:47.573088 30052 net.cpp:165] Memory required for data: 686224380
I1206 09:01:47.573098 30052 layer_factory.hpp:77] Creating layer L1_b4_brc2_conv
I1206 09:01:47.573125 30052 net.cpp:100] Creating Layer L1_b4_brc2_conv
I1206 09:01:47.573138 30052 net.cpp:434] L1_b4_brc2_conv <- L1_b4_brc2_bn_top
I1206 09:01:47.573154 30052 net.cpp:408] L1_b4_brc2_conv -> L1_b4_brc2_conv_top
I1206 09:01:47.573464 30052 net.cpp:150] Setting up L1_b4_brc2_conv
I1206 09:01:47.573483 30052 net.cpp:157] Top shape: 85 32 32 32 (2785280)
I1206 09:01:47.573493 30052 net.cpp:165] Memory required for data: 697365500
I1206 09:01:47.573513 30052 layer_factory.hpp:77] Creating layer L1_b4_brc3_bn
I1206 09:01:47.573542 30052 net.cpp:100] Creating Layer L1_b4_brc3_bn
I1206 09:01:47.573555 30052 net.cpp:434] L1_b4_brc3_bn <- L1_b4_brc2_conv_top
I1206 09:01:47.573572 30052 net.cpp:408] L1_b4_brc3_bn -> L1_b4_brc3_bn_top
I1206 09:01:47.573854 30052 net.cpp:150] Setting up L1_b4_brc3_bn
I1206 09:01:47.573875 30052 net.cpp:157] Top shape: 85 32 32 32 (2785280)
I1206 09:01:47.573884 30052 net.cpp:165] Memory required for data: 708506620
I1206 09:01:47.573907 30052 layer_factory.hpp:77] Creating layer L1_b4_brc3_relu
I1206 09:01:47.573923 30052 net.cpp:100] Creating Layer L1_b4_brc3_relu
I1206 09:01:47.573941 30052 net.cpp:434] L1_b4_brc3_relu <- L1_b4_brc3_bn_top
I1206 09:01:47.573963 30052 net.cpp:395] L1_b4_brc3_relu -> L1_b4_brc3_bn_top (in-place)
I1206 09:01:47.573982 30052 net.cpp:150] Setting up L1_b4_brc3_relu
I1206 09:01:47.573997 30052 net.cpp:157] Top shape: 85 32 32 32 (2785280)
I1206 09:01:47.574007 30052 net.cpp:165] Memory required for data: 719647740
I1206 09:01:47.574018 30052 layer_factory.hpp:77] Creating layer L1_b4_brc3_conv
I1206 09:01:47.574041 30052 net.cpp:100] Creating Layer L1_b4_brc3_conv
I1206 09:01:47.574054 30052 net.cpp:434] L1_b4_brc3_conv <- L1_b4_brc3_bn_top
I1206 09:01:47.574072 30052 net.cpp:408] L1_b4_brc3_conv -> L1_b4_brc3_conv_top
I1206 09:01:47.574419 30052 net.cpp:150] Setting up L1_b4_brc3_conv
I1206 09:01:47.574440 30052 net.cpp:157] Top shape: 85 64 32 32 (5570560)
I1206 09:01:47.574450 30052 net.cpp:165] Memory required for data: 741929980
I1206 09:01:47.574467 30052 layer_factory.hpp:77] Creating layer L1_b4_sum_eltwise
I1206 09:01:47.574484 30052 net.cpp:100] Creating Layer L1_b4_sum_eltwise
I1206 09:01:47.574501 30052 net.cpp:434] L1_b4_sum_eltwise <- L1_b4_brc3_conv_top
I1206 09:01:47.574515 30052 net.cpp:434] L1_b4_sum_eltwise <- L1_b3_sum_eltwise_top_L1_b3_sum_eltwise_0_split_1
I1206 09:01:47.574532 30052 net.cpp:408] L1_b4_sum_eltwise -> L1_b4_sum_eltwise_top
I1206 09:01:47.574581 30052 net.cpp:150] Setting up L1_b4_sum_eltwise
I1206 09:01:47.574600 30052 net.cpp:157] Top shape: 85 64 32 32 (5570560)
I1206 09:01:47.574610 30052 net.cpp:165] Memory required for data: 764212220
I1206 09:01:47.574620 30052 layer_factory.hpp:77] Creating layer L1_b4_sum_eltwise_top_L1_b4_sum_eltwise_0_split
I1206 09:01:47.574642 30052 net.cpp:100] Creating Layer L1_b4_sum_eltwise_top_L1_b4_sum_eltwise_0_split
I1206 09:01:47.574656 30052 net.cpp:434] L1_b4_sum_eltwise_top_L1_b4_sum_eltwise_0_split <- L1_b4_sum_eltwise_top
I1206 09:01:47.574676 30052 net.cpp:408] L1_b4_sum_eltwise_top_L1_b4_sum_eltwise_0_split -> L1_b4_sum_eltwise_top_L1_b4_sum_eltwise_0_split_0
I1206 09:01:47.574697 30052 net.cpp:408] L1_b4_sum_eltwise_top_L1_b4_sum_eltwise_0_split -> L1_b4_sum_eltwise_top_L1_b4_sum_eltwise_0_split_1
I1206 09:01:47.574771 30052 net.cpp:150] Setting up L1_b4_sum_eltwise_top_L1_b4_sum_eltwise_0_split
I1206 09:01:47.574795 30052 net.cpp:157] Top shape: 85 64 32 32 (5570560)
I1206 09:01:47.574808 30052 net.cpp:157] Top shape: 85 64 32 32 (5570560)
I1206 09:01:47.574817 30052 net.cpp:165] Memory required for data: 808776700
I1206 09:01:47.574828 30052 layer_factory.hpp:77] Creating layer L1_b5_brc1_bn
I1206 09:01:47.574843 30052 net.cpp:100] Creating Layer L1_b5_brc1_bn
I1206 09:01:47.574854 30052 net.cpp:434] L1_b5_brc1_bn <- L1_b4_sum_eltwise_top_L1_b4_sum_eltwise_0_split_0
I1206 09:01:47.574877 30052 net.cpp:408] L1_b5_brc1_bn -> L1_b5_brc1_bn_top
I1206 09:01:47.575158 30052 net.cpp:150] Setting up L1_b5_brc1_bn
I1206 09:01:47.575178 30052 net.cpp:157] Top shape: 85 64 32 32 (5570560)
I1206 09:01:47.575187 30052 net.cpp:165] Memory required for data: 831058940
I1206 09:01:47.575227 30052 layer_factory.hpp:77] Creating layer L1_b5_brc1_relu
I1206 09:01:47.575248 30052 net.cpp:100] Creating Layer L1_b5_brc1_relu
I1206 09:01:47.575259 30052 net.cpp:434] L1_b5_brc1_relu <- L1_b5_brc1_bn_top
I1206 09:01:47.575274 30052 net.cpp:395] L1_b5_brc1_relu -> L1_b5_brc1_bn_top (in-place)
I1206 09:01:47.575294 30052 net.cpp:150] Setting up L1_b5_brc1_relu
I1206 09:01:47.575309 30052 net.cpp:157] Top shape: 85 64 32 32 (5570560)
I1206 09:01:47.575326 30052 net.cpp:165] Memory required for data: 853341180
I1206 09:01:47.575337 30052 layer_factory.hpp:77] Creating layer L1_b5_brc1_conv
I1206 09:01:47.575366 30052 net.cpp:100] Creating Layer L1_b5_brc1_conv
I1206 09:01:47.575379 30052 net.cpp:434] L1_b5_brc1_conv <- L1_b5_brc1_bn_top
I1206 09:01:47.575397 30052 net.cpp:408] L1_b5_brc1_conv -> L1_b5_brc1_conv_top
I1206 09:01:47.575742 30052 net.cpp:150] Setting up L1_b5_brc1_conv
I1206 09:01:47.575762 30052 net.cpp:157] Top shape: 85 32 32 32 (2785280)
I1206 09:01:47.575772 30052 net.cpp:165] Memory required for data: 864482300
I1206 09:01:47.575790 30052 layer_factory.hpp:77] Creating layer L1_b5_brc2_bn
I1206 09:01:47.575811 30052 net.cpp:100] Creating Layer L1_b5_brc2_bn
I1206 09:01:47.575822 30052 net.cpp:434] L1_b5_brc2_bn <- L1_b5_brc1_conv_top
I1206 09:01:47.575839 30052 net.cpp:408] L1_b5_brc2_bn -> L1_b5_brc2_bn_top
I1206 09:01:47.576114 30052 net.cpp:150] Setting up L1_b5_brc2_bn
I1206 09:01:47.576134 30052 net.cpp:157] Top shape: 85 32 32 32 (2785280)
I1206 09:01:47.576143 30052 net.cpp:165] Memory required for data: 875623420
I1206 09:01:47.576164 30052 layer_factory.hpp:77] Creating layer L1_b5_brc2_relu
I1206 09:01:47.576181 30052 net.cpp:100] Creating Layer L1_b5_brc2_relu
I1206 09:01:47.576192 30052 net.cpp:434] L1_b5_brc2_relu <- L1_b5_brc2_bn_top
I1206 09:01:47.576215 30052 net.cpp:395] L1_b5_brc2_relu -> L1_b5_brc2_bn_top (in-place)
I1206 09:01:47.576234 30052 net.cpp:150] Setting up L1_b5_brc2_relu
I1206 09:01:47.576249 30052 net.cpp:157] Top shape: 85 32 32 32 (2785280)
I1206 09:01:47.576259 30052 net.cpp:165] Memory required for data: 886764540
I1206 09:01:47.576269 30052 layer_factory.hpp:77] Creating layer L1_b5_brc2_conv
I1206 09:01:47.576295 30052 net.cpp:100] Creating Layer L1_b5_brc2_conv
I1206 09:01:47.576308 30052 net.cpp:434] L1_b5_brc2_conv <- L1_b5_brc2_bn_top
I1206 09:01:47.576326 30052 net.cpp:408] L1_b5_brc2_conv -> L1_b5_brc2_conv_top
I1206 09:01:47.576673 30052 net.cpp:150] Setting up L1_b5_brc2_conv
I1206 09:01:47.576696 30052 net.cpp:157] Top shape: 85 32 32 32 (2785280)
I1206 09:01:47.576706 30052 net.cpp:165] Memory required for data: 897905660
I1206 09:01:47.576722 30052 layer_factory.hpp:77] Creating layer L1_b5_brc3_bn
I1206 09:01:47.576743 30052 net.cpp:100] Creating Layer L1_b5_brc3_bn
I1206 09:01:47.576753 30052 net.cpp:434] L1_b5_brc3_bn <- L1_b5_brc2_conv_top
I1206 09:01:47.576768 30052 net.cpp:408] L1_b5_brc3_bn -> L1_b5_brc3_bn_top
I1206 09:01:47.577090 30052 net.cpp:150] Setting up L1_b5_brc3_bn
I1206 09:01:47.577111 30052 net.cpp:157] Top shape: 85 32 32 32 (2785280)
I1206 09:01:47.577121 30052 net.cpp:165] Memory required for data: 909046780
I1206 09:01:47.577142 30052 layer_factory.hpp:77] Creating layer L1_b5_brc3_relu
I1206 09:01:47.577159 30052 net.cpp:100] Creating Layer L1_b5_brc3_relu
I1206 09:01:47.577172 30052 net.cpp:434] L1_b5_brc3_relu <- L1_b5_brc3_bn_top
I1206 09:01:47.577191 30052 net.cpp:395] L1_b5_brc3_relu -> L1_b5_brc3_bn_top (in-place)
I1206 09:01:47.577213 30052 net.cpp:150] Setting up L1_b5_brc3_relu
I1206 09:01:47.577226 30052 net.cpp:157] Top shape: 85 32 32 32 (2785280)
I1206 09:01:47.577236 30052 net.cpp:165] Memory required for data: 920187900
I1206 09:01:47.577247 30052 layer_factory.hpp:77] Creating layer L1_b5_brc3_conv
I1206 09:01:47.577273 30052 net.cpp:100] Creating Layer L1_b5_brc3_conv
I1206 09:01:47.577286 30052 net.cpp:434] L1_b5_brc3_conv <- L1_b5_brc3_bn_top
I1206 09:01:47.577306 30052 net.cpp:408] L1_b5_brc3_conv -> L1_b5_brc3_conv_top
I1206 09:01:47.577666 30052 net.cpp:150] Setting up L1_b5_brc3_conv
I1206 09:01:47.577685 30052 net.cpp:157] Top shape: 85 64 32 32 (5570560)
I1206 09:01:47.577695 30052 net.cpp:165] Memory required for data: 942470140
I1206 09:01:47.577713 30052 layer_factory.hpp:77] Creating layer L1_b5_sum_eltwise
I1206 09:01:47.577730 30052 net.cpp:100] Creating Layer L1_b5_sum_eltwise
I1206 09:01:47.577744 30052 net.cpp:434] L1_b5_sum_eltwise <- L1_b5_brc3_conv_top
I1206 09:01:47.577756 30052 net.cpp:434] L1_b5_sum_eltwise <- L1_b4_sum_eltwise_top_L1_b4_sum_eltwise_0_split_1
I1206 09:01:47.577791 30052 net.cpp:408] L1_b5_sum_eltwise -> L1_b5_sum_eltwise_top
I1206 09:01:47.577846 30052 net.cpp:150] Setting up L1_b5_sum_eltwise
I1206 09:01:47.577863 30052 net.cpp:157] Top shape: 85 64 32 32 (5570560)
I1206 09:01:47.577873 30052 net.cpp:165] Memory required for data: 964752380
I1206 09:01:47.577884 30052 layer_factory.hpp:77] Creating layer L1_b5_sum_eltwise_top_L1_b5_sum_eltwise_0_split
I1206 09:01:47.577905 30052 net.cpp:100] Creating Layer L1_b5_sum_eltwise_top_L1_b5_sum_eltwise_0_split
I1206 09:01:47.577917 30052 net.cpp:434] L1_b5_sum_eltwise_top_L1_b5_sum_eltwise_0_split <- L1_b5_sum_eltwise_top
I1206 09:01:47.577946 30052 net.cpp:408] L1_b5_sum_eltwise_top_L1_b5_sum_eltwise_0_split -> L1_b5_sum_eltwise_top_L1_b5_sum_eltwise_0_split_0
I1206 09:01:47.577970 30052 net.cpp:408] L1_b5_sum_eltwise_top_L1_b5_sum_eltwise_0_split -> L1_b5_sum_eltwise_top_L1_b5_sum_eltwise_0_split_1
I1206 09:01:47.578049 30052 net.cpp:150] Setting up L1_b5_sum_eltwise_top_L1_b5_sum_eltwise_0_split
I1206 09:01:47.578068 30052 net.cpp:157] Top shape: 85 64 32 32 (5570560)
I1206 09:01:47.578081 30052 net.cpp:157] Top shape: 85 64 32 32 (5570560)
I1206 09:01:47.578091 30052 net.cpp:165] Memory required for data: 1009316860
I1206 09:01:47.578102 30052 layer_factory.hpp:77] Creating layer L1_b6_brc1_bn
I1206 09:01:47.578122 30052 net.cpp:100] Creating Layer L1_b6_brc1_bn
I1206 09:01:47.578135 30052 net.cpp:434] L1_b6_brc1_bn <- L1_b5_sum_eltwise_top_L1_b5_sum_eltwise_0_split_0
I1206 09:01:47.578152 30052 net.cpp:408] L1_b6_brc1_bn -> L1_b6_brc1_bn_top
I1206 09:01:47.578426 30052 net.cpp:150] Setting up L1_b6_brc1_bn
I1206 09:01:47.578445 30052 net.cpp:157] Top shape: 85 64 32 32 (5570560)
I1206 09:01:47.578455 30052 net.cpp:165] Memory required for data: 1031599100
I1206 09:01:47.578477 30052 layer_factory.hpp:77] Creating layer L1_b6_brc1_relu
I1206 09:01:47.578498 30052 net.cpp:100] Creating Layer L1_b6_brc1_relu
I1206 09:01:47.578511 30052 net.cpp:434] L1_b6_brc1_relu <- L1_b6_brc1_bn_top
I1206 09:01:47.578526 30052 net.cpp:395] L1_b6_brc1_relu -> L1_b6_brc1_bn_top (in-place)
I1206 09:01:47.578546 30052 net.cpp:150] Setting up L1_b6_brc1_relu
I1206 09:01:47.578560 30052 net.cpp:157] Top shape: 85 64 32 32 (5570560)
I1206 09:01:47.578572 30052 net.cpp:165] Memory required for data: 1053881340
I1206 09:01:47.578582 30052 layer_factory.hpp:77] Creating layer L1_b6_brc1_conv
I1206 09:01:47.578608 30052 net.cpp:100] Creating Layer L1_b6_brc1_conv
I1206 09:01:47.578620 30052 net.cpp:434] L1_b6_brc1_conv <- L1_b6_brc1_bn_top
I1206 09:01:47.578641 30052 net.cpp:408] L1_b6_brc1_conv -> L1_b6_brc1_conv_top
I1206 09:01:47.579017 30052 net.cpp:150] Setting up L1_b6_brc1_conv
I1206 09:01:47.579038 30052 net.cpp:157] Top shape: 85 32 32 32 (2785280)
I1206 09:01:47.579048 30052 net.cpp:165] Memory required for data: 1065022460
I1206 09:01:47.579067 30052 layer_factory.hpp:77] Creating layer L1_b6_brc2_bn
I1206 09:01:47.579088 30052 net.cpp:100] Creating Layer L1_b6_brc2_bn
I1206 09:01:47.579099 30052 net.cpp:434] L1_b6_brc2_bn <- L1_b6_brc1_conv_top
I1206 09:01:47.579115 30052 net.cpp:408] L1_b6_brc2_bn -> L1_b6_brc2_bn_top
I1206 09:01:47.579391 30052 net.cpp:150] Setting up L1_b6_brc2_bn
I1206 09:01:47.579411 30052 net.cpp:157] Top shape: 85 32 32 32 (2785280)
I1206 09:01:47.579421 30052 net.cpp:165] Memory required for data: 1076163580
I1206 09:01:47.579443 30052 layer_factory.hpp:77] Creating layer L1_b6_brc2_relu
I1206 09:01:47.579474 30052 net.cpp:100] Creating Layer L1_b6_brc2_relu
I1206 09:01:47.579488 30052 net.cpp:434] L1_b6_brc2_relu <- L1_b6_brc2_bn_top
I1206 09:01:47.579504 30052 net.cpp:395] L1_b6_brc2_relu -> L1_b6_brc2_bn_top (in-place)
I1206 09:01:47.579524 30052 net.cpp:150] Setting up L1_b6_brc2_relu
I1206 09:01:47.579540 30052 net.cpp:157] Top shape: 85 32 32 32 (2785280)
I1206 09:01:47.579550 30052 net.cpp:165] Memory required for data: 1087304700
I1206 09:01:47.579560 30052 layer_factory.hpp:77] Creating layer L1_b6_brc2_conv
I1206 09:01:47.579589 30052 net.cpp:100] Creating Layer L1_b6_brc2_conv
I1206 09:01:47.579602 30052 net.cpp:434] L1_b6_brc2_conv <- L1_b6_brc2_bn_top
I1206 09:01:47.579625 30052 net.cpp:408] L1_b6_brc2_conv -> L1_b6_brc2_conv_top
I1206 09:01:47.579970 30052 net.cpp:150] Setting up L1_b6_brc2_conv
I1206 09:01:47.579990 30052 net.cpp:157] Top shape: 85 32 32 32 (2785280)
I1206 09:01:47.580000 30052 net.cpp:165] Memory required for data: 1098445820
I1206 09:01:47.580019 30052 layer_factory.hpp:77] Creating layer L1_b6_brc3_bn
I1206 09:01:47.580040 30052 net.cpp:100] Creating Layer L1_b6_brc3_bn
I1206 09:01:47.580052 30052 net.cpp:434] L1_b6_brc3_bn <- L1_b6_brc2_conv_top
I1206 09:01:47.580070 30052 net.cpp:408] L1_b6_brc3_bn -> L1_b6_brc3_bn_top
I1206 09:01:47.580339 30052 net.cpp:150] Setting up L1_b6_brc3_bn
I1206 09:01:47.580363 30052 net.cpp:157] Top shape: 85 32 32 32 (2785280)
I1206 09:01:47.580373 30052 net.cpp:165] Memory required for data: 1109586940
I1206 09:01:47.580395 30052 layer_factory.hpp:77] Creating layer L1_b6_brc3_relu
I1206 09:01:47.580410 30052 net.cpp:100] Creating Layer L1_b6_brc3_relu
I1206 09:01:47.580421 30052 net.cpp:434] L1_b6_brc3_relu <- L1_b6_brc3_bn_top
I1206 09:01:47.580436 30052 net.cpp:395] L1_b6_brc3_relu -> L1_b6_brc3_bn_top (in-place)
I1206 09:01:47.580456 30052 net.cpp:150] Setting up L1_b6_brc3_relu
I1206 09:01:47.580471 30052 net.cpp:157] Top shape: 85 32 32 32 (2785280)
I1206 09:01:47.580482 30052 net.cpp:165] Memory required for data: 1120728060
I1206 09:01:47.580492 30052 layer_factory.hpp:77] Creating layer L1_b6_brc3_conv
I1206 09:01:47.580516 30052 net.cpp:100] Creating Layer L1_b6_brc3_conv
I1206 09:01:47.580530 30052 net.cpp:434] L1_b6_brc3_conv <- L1_b6_brc3_bn_top
I1206 09:01:47.580548 30052 net.cpp:408] L1_b6_brc3_conv -> L1_b6_brc3_conv_top
I1206 09:01:47.580899 30052 net.cpp:150] Setting up L1_b6_brc3_conv
I1206 09:01:47.580919 30052 net.cpp:157] Top shape: 85 64 32 32 (5570560)
I1206 09:01:47.580929 30052 net.cpp:165] Memory required for data: 1143010300
I1206 09:01:47.580955 30052 layer_factory.hpp:77] Creating layer L1_b6_sum_eltwise
I1206 09:01:47.580973 30052 net.cpp:100] Creating Layer L1_b6_sum_eltwise
I1206 09:01:47.580986 30052 net.cpp:434] L1_b6_sum_eltwise <- L1_b6_brc3_conv_top
I1206 09:01:47.580999 30052 net.cpp:434] L1_b6_sum_eltwise <- L1_b5_sum_eltwise_top_L1_b5_sum_eltwise_0_split_1
I1206 09:01:47.581024 30052 net.cpp:408] L1_b6_sum_eltwise -> L1_b6_sum_eltwise_top
I1206 09:01:47.581077 30052 net.cpp:150] Setting up L1_b6_sum_eltwise
I1206 09:01:47.581101 30052 net.cpp:157] Top shape: 85 64 32 32 (5570560)
I1206 09:01:47.581111 30052 net.cpp:165] Memory required for data: 1165292540
I1206 09:01:47.581123 30052 layer_factory.hpp:77] Creating layer L1_b6_sum_eltwise_top_L1_b6_sum_eltwise_0_split
I1206 09:01:47.581137 30052 net.cpp:100] Creating Layer L1_b6_sum_eltwise_top_L1_b6_sum_eltwise_0_split
I1206 09:01:47.581149 30052 net.cpp:434] L1_b6_sum_eltwise_top_L1_b6_sum_eltwise_0_split <- L1_b6_sum_eltwise_top
I1206 09:01:47.581166 30052 net.cpp:408] L1_b6_sum_eltwise_top_L1_b6_sum_eltwise_0_split -> L1_b6_sum_eltwise_top_L1_b6_sum_eltwise_0_split_0
I1206 09:01:47.581185 30052 net.cpp:408] L1_b6_sum_eltwise_top_L1_b6_sum_eltwise_0_split -> L1_b6_sum_eltwise_top_L1_b6_sum_eltwise_0_split_1
I1206 09:01:47.581270 30052 net.cpp:150] Setting up L1_b6_sum_eltwise_top_L1_b6_sum_eltwise_0_split
I1206 09:01:47.581292 30052 net.cpp:157] Top shape: 85 64 32 32 (5570560)
I1206 09:01:47.581305 30052 net.cpp:157] Top shape: 85 64 32 32 (5570560)
I1206 09:01:47.581316 30052 net.cpp:165] Memory required for data: 1209857020
I1206 09:01:47.581327 30052 layer_factory.hpp:77] Creating layer L2_b1_brc1_bn
I1206 09:01:47.581347 30052 net.cpp:100] Creating Layer L2_b1_brc1_bn
I1206 09:01:47.581360 30052 net.cpp:434] L2_b1_brc1_bn <- L1_b6_sum_eltwise_top_L1_b6_sum_eltwise_0_split_0
I1206 09:01:47.581377 30052 net.cpp:408] L2_b1_brc1_bn -> L2_b1_brc1_bn_top
I1206 09:01:47.581653 30052 net.cpp:150] Setting up L2_b1_brc1_bn
I1206 09:01:47.581673 30052 net.cpp:157] Top shape: 85 64 32 32 (5570560)
I1206 09:01:47.581701 30052 net.cpp:165] Memory required for data: 1232139260
I1206 09:01:47.581725 30052 layer_factory.hpp:77] Creating layer L2_b1_brc1_relu
I1206 09:01:47.581743 30052 net.cpp:100] Creating Layer L2_b1_brc1_relu
I1206 09:01:47.581754 30052 net.cpp:434] L2_b1_brc1_relu <- L2_b1_brc1_bn_top
I1206 09:01:47.581768 30052 net.cpp:395] L2_b1_brc1_relu -> L2_b1_brc1_bn_top (in-place)
I1206 09:01:47.581789 30052 net.cpp:150] Setting up L2_b1_brc1_relu
I1206 09:01:47.581804 30052 net.cpp:157] Top shape: 85 64 32 32 (5570560)
I1206 09:01:47.581814 30052 net.cpp:165] Memory required for data: 1254421500
I1206 09:01:47.581825 30052 layer_factory.hpp:77] Creating layer L2_b1_brc1_conv
I1206 09:01:47.581849 30052 net.cpp:100] Creating Layer L2_b1_brc1_conv
I1206 09:01:47.581862 30052 net.cpp:434] L2_b1_brc1_conv <- L2_b1_brc1_bn_top
I1206 09:01:47.581884 30052 net.cpp:408] L2_b1_brc1_conv -> L2_b1_brc1_conv_top
I1206 09:01:47.582289 30052 net.cpp:150] Setting up L2_b1_brc1_conv
I1206 09:01:47.582310 30052 net.cpp:157] Top shape: 85 64 16 16 (1392640)
I1206 09:01:47.582320 30052 net.cpp:165] Memory required for data: 1259992060
I1206 09:01:47.582340 30052 layer_factory.hpp:77] Creating layer L2_b1_brc2_bn
I1206 09:01:47.582360 30052 net.cpp:100] Creating Layer L2_b1_brc2_bn
I1206 09:01:47.582372 30052 net.cpp:434] L2_b1_brc2_bn <- L2_b1_brc1_conv_top
I1206 09:01:47.582394 30052 net.cpp:408] L2_b1_brc2_bn -> L2_b1_brc2_bn_top
I1206 09:01:47.582665 30052 net.cpp:150] Setting up L2_b1_brc2_bn
I1206 09:01:47.582685 30052 net.cpp:157] Top shape: 85 64 16 16 (1392640)
I1206 09:01:47.582695 30052 net.cpp:165] Memory required for data: 1265562620
I1206 09:01:47.582717 30052 layer_factory.hpp:77] Creating layer L2_b1_brc2_relu
I1206 09:01:47.582733 30052 net.cpp:100] Creating Layer L2_b1_brc2_relu
I1206 09:01:47.582746 30052 net.cpp:434] L2_b1_brc2_relu <- L2_b1_brc2_bn_top
I1206 09:01:47.582764 30052 net.cpp:395] L2_b1_brc2_relu -> L2_b1_brc2_bn_top (in-place)
I1206 09:01:47.582785 30052 net.cpp:150] Setting up L2_b1_brc2_relu
I1206 09:01:47.582800 30052 net.cpp:157] Top shape: 85 64 16 16 (1392640)
I1206 09:01:47.582810 30052 net.cpp:165] Memory required for data: 1271133180
I1206 09:01:47.582820 30052 layer_factory.hpp:77] Creating layer L2_b1_brc2_conv
I1206 09:01:47.582845 30052 net.cpp:100] Creating Layer L2_b1_brc2_conv
I1206 09:01:47.582859 30052 net.cpp:434] L2_b1_brc2_conv <- L2_b1_brc2_bn_top
I1206 09:01:47.582876 30052 net.cpp:408] L2_b1_brc2_conv -> L2_b1_brc2_conv_top
I1206 09:01:47.583223 30052 net.cpp:150] Setting up L2_b1_brc2_conv
I1206 09:01:47.583243 30052 net.cpp:157] Top shape: 85 64 16 16 (1392640)
I1206 09:01:47.583253 30052 net.cpp:165] Memory required for data: 1276703740
I1206 09:01:47.583271 30052 layer_factory.hpp:77] Creating layer L2_b1_brc3_bn
I1206 09:01:47.583292 30052 net.cpp:100] Creating Layer L2_b1_brc3_bn
I1206 09:01:47.583305 30052 net.cpp:434] L2_b1_brc3_bn <- L2_b1_brc2_conv_top
I1206 09:01:47.583323 30052 net.cpp:408] L2_b1_brc3_bn -> L2_b1_brc3_bn_top
I1206 09:01:47.583600 30052 net.cpp:150] Setting up L2_b1_brc3_bn
I1206 09:01:47.583618 30052 net.cpp:157] Top shape: 85 64 16 16 (1392640)
I1206 09:01:47.583628 30052 net.cpp:165] Memory required for data: 1282274300
I1206 09:01:47.583652 30052 layer_factory.hpp:77] Creating layer L2_b1_brc3_relu
I1206 09:01:47.583667 30052 net.cpp:100] Creating Layer L2_b1_brc3_relu
I1206 09:01:47.583679 30052 net.cpp:434] L2_b1_brc3_relu <- L2_b1_brc3_bn_top
I1206 09:01:47.583694 30052 net.cpp:395] L2_b1_brc3_relu -> L2_b1_brc3_bn_top (in-place)
I1206 09:01:47.583714 30052 net.cpp:150] Setting up L2_b1_brc3_relu
I1206 09:01:47.583729 30052 net.cpp:157] Top shape: 85 64 16 16 (1392640)
I1206 09:01:47.583739 30052 net.cpp:165] Memory required for data: 1287844860
I1206 09:01:47.583750 30052 layer_factory.hpp:77] Creating layer L2_b1_brc3_conv
I1206 09:01:47.583773 30052 net.cpp:100] Creating Layer L2_b1_brc3_conv
I1206 09:01:47.583787 30052 net.cpp:434] L2_b1_brc3_conv <- L2_b1_brc3_bn_top
I1206 09:01:47.583811 30052 net.cpp:408] L2_b1_brc3_conv -> L2_b1_brc3_conv_top
I1206 09:01:47.585338 30052 net.cpp:150] Setting up L2_b1_brc3_conv
I1206 09:01:47.585361 30052 net.cpp:157] Top shape: 85 128 16 16 (2785280)
I1206 09:01:47.585371 30052 net.cpp:165] Memory required for data: 1298985980
I1206 09:01:47.585391 30052 layer_factory.hpp:77] Creating layer L2_b1_chanInc_conv
I1206 09:01:47.585423 30052 net.cpp:100] Creating Layer L2_b1_chanInc_conv
I1206 09:01:47.585438 30052 net.cpp:434] L2_b1_chanInc_conv <- L1_b6_sum_eltwise_top_L1_b6_sum_eltwise_0_split_1
I1206 09:01:47.585458 30052 net.cpp:408] L2_b1_chanInc_conv -> L2_b1_chanInc_conv_top
I1206 09:01:47.585918 30052 net.cpp:150] Setting up L2_b1_chanInc_conv
I1206 09:01:47.585943 30052 net.cpp:157] Top shape: 85 128 16 16 (2785280)
I1206 09:01:47.585954 30052 net.cpp:165] Memory required for data: 1310127100
I1206 09:01:47.585973 30052 layer_factory.hpp:77] Creating layer L2_b1_sum_eltwise
I1206 09:01:47.585990 30052 net.cpp:100] Creating Layer L2_b1_sum_eltwise
I1206 09:01:47.586002 30052 net.cpp:434] L2_b1_sum_eltwise <- L2_b1_brc3_conv_top
I1206 09:01:47.586017 30052 net.cpp:434] L2_b1_sum_eltwise <- L2_b1_chanInc_conv_top
I1206 09:01:47.586032 30052 net.cpp:408] L2_b1_sum_eltwise -> L2_b1_sum_eltwise_top
I1206 09:01:47.586083 30052 net.cpp:150] Setting up L2_b1_sum_eltwise
I1206 09:01:47.586102 30052 net.cpp:157] Top shape: 85 128 16 16 (2785280)
I1206 09:01:47.586113 30052 net.cpp:165] Memory required for data: 1321268220
I1206 09:01:47.586123 30052 layer_factory.hpp:77] Creating layer L2_b1_sum_eltwise_top_L2_b1_sum_eltwise_0_split
I1206 09:01:47.586138 30052 net.cpp:100] Creating Layer L2_b1_sum_eltwise_top_L2_b1_sum_eltwise_0_split
I1206 09:01:47.586150 30052 net.cpp:434] L2_b1_sum_eltwise_top_L2_b1_sum_eltwise_0_split <- L2_b1_sum_eltwise_top
I1206 09:01:47.586171 30052 net.cpp:408] L2_b1_sum_eltwise_top_L2_b1_sum_eltwise_0_split -> L2_b1_sum_eltwise_top_L2_b1_sum_eltwise_0_split_0
I1206 09:01:47.586191 30052 net.cpp:408] L2_b1_sum_eltwise_top_L2_b1_sum_eltwise_0_split -> L2_b1_sum_eltwise_top_L2_b1_sum_eltwise_0_split_1
I1206 09:01:47.586277 30052 net.cpp:150] Setting up L2_b1_sum_eltwise_top_L2_b1_sum_eltwise_0_split
I1206 09:01:47.586297 30052 net.cpp:157] Top shape: 85 128 16 16 (2785280)
I1206 09:01:47.586309 30052 net.cpp:157] Top shape: 85 128 16 16 (2785280)
I1206 09:01:47.586319 30052 net.cpp:165] Memory required for data: 1343550460
I1206 09:01:47.586330 30052 layer_factory.hpp:77] Creating layer L2_b2_brc1_bn
I1206 09:01:47.586345 30052 net.cpp:100] Creating Layer L2_b2_brc1_bn
I1206 09:01:47.586357 30052 net.cpp:434] L2_b2_brc1_bn <- L2_b1_sum_eltwise_top_L2_b1_sum_eltwise_0_split_0
I1206 09:01:47.586378 30052 net.cpp:408] L2_b2_brc1_bn -> L2_b2_brc1_bn_top
I1206 09:01:47.586637 30052 net.cpp:150] Setting up L2_b2_brc1_bn
I1206 09:01:47.586657 30052 net.cpp:157] Top shape: 85 128 16 16 (2785280)
I1206 09:01:47.586666 30052 net.cpp:165] Memory required for data: 1354691580
I1206 09:01:47.586688 30052 layer_factory.hpp:77] Creating layer L2_b2_brc1_relu
I1206 09:01:47.586705 30052 net.cpp:100] Creating Layer L2_b2_brc1_relu
I1206 09:01:47.586719 30052 net.cpp:434] L2_b2_brc1_relu <- L2_b2_brc1_bn_top
I1206 09:01:47.586737 30052 net.cpp:395] L2_b2_brc1_relu -> L2_b2_brc1_bn_top (in-place)
I1206 09:01:47.586758 30052 net.cpp:150] Setting up L2_b2_brc1_relu
I1206 09:01:47.586773 30052 net.cpp:157] Top shape: 85 128 16 16 (2785280)
I1206 09:01:47.586782 30052 net.cpp:165] Memory required for data: 1365832700
I1206 09:01:47.586793 30052 layer_factory.hpp:77] Creating layer L2_b2_brc1_conv
I1206 09:01:47.586813 30052 net.cpp:100] Creating Layer L2_b2_brc1_conv
I1206 09:01:47.586825 30052 net.cpp:434] L2_b2_brc1_conv <- L2_b2_brc1_bn_top
I1206 09:01:47.586843 30052 net.cpp:408] L2_b2_brc1_conv -> L2_b2_brc1_conv_top
I1206 09:01:47.587339 30052 net.cpp:150] Setting up L2_b2_brc1_conv
I1206 09:01:47.587359 30052 net.cpp:157] Top shape: 85 64 16 16 (1392640)
I1206 09:01:47.587369 30052 net.cpp:165] Memory required for data: 1371403260
I1206 09:01:47.587388 30052 layer_factory.hpp:77] Creating layer L2_b2_brc2_bn
I1206 09:01:47.587419 30052 net.cpp:100] Creating Layer L2_b2_brc2_bn
I1206 09:01:47.587432 30052 net.cpp:434] L2_b2_brc2_bn <- L2_b2_brc1_conv_top
I1206 09:01:47.587450 30052 net.cpp:408] L2_b2_brc2_bn -> L2_b2_brc2_bn_top
I1206 09:01:47.587733 30052 net.cpp:150] Setting up L2_b2_brc2_bn
I1206 09:01:47.587752 30052 net.cpp:157] Top shape: 85 64 16 16 (1392640)
I1206 09:01:47.587762 30052 net.cpp:165] Memory required for data: 1376973820
I1206 09:01:47.587785 30052 layer_factory.hpp:77] Creating layer L2_b2_brc2_relu
I1206 09:01:47.587801 30052 net.cpp:100] Creating Layer L2_b2_brc2_relu
I1206 09:01:47.587813 30052 net.cpp:434] L2_b2_brc2_relu <- L2_b2_brc2_bn_top
I1206 09:01:47.587833 30052 net.cpp:395] L2_b2_brc2_relu -> L2_b2_brc2_bn_top (in-place)
I1206 09:01:47.587853 30052 net.cpp:150] Setting up L2_b2_brc2_relu
I1206 09:01:47.587869 30052 net.cpp:157] Top shape: 85 64 16 16 (1392640)
I1206 09:01:47.587879 30052 net.cpp:165] Memory required for data: 1382544380
I1206 09:01:47.587889 30052 layer_factory.hpp:77] Creating layer L2_b2_brc2_conv
I1206 09:01:47.587915 30052 net.cpp:100] Creating Layer L2_b2_brc2_conv
I1206 09:01:47.587929 30052 net.cpp:434] L2_b2_brc2_conv <- L2_b2_brc2_bn_top
I1206 09:01:47.587954 30052 net.cpp:408] L2_b2_brc2_conv -> L2_b2_brc2_conv_top
I1206 09:01:47.588299 30052 net.cpp:150] Setting up L2_b2_brc2_conv
I1206 09:01:47.588320 30052 net.cpp:157] Top shape: 85 64 16 16 (1392640)
I1206 09:01:47.588328 30052 net.cpp:165] Memory required for data: 1388114940
I1206 09:01:47.588347 30052 layer_factory.hpp:77] Creating layer L2_b2_brc3_bn
I1206 09:01:47.588374 30052 net.cpp:100] Creating Layer L2_b2_brc3_bn
I1206 09:01:47.588387 30052 net.cpp:434] L2_b2_brc3_bn <- L2_b2_brc2_conv_top
I1206 09:01:47.588404 30052 net.cpp:408] L2_b2_brc3_bn -> L2_b2_brc3_bn_top
I1206 09:01:47.588671 30052 net.cpp:150] Setting up L2_b2_brc3_bn
I1206 09:01:47.588690 30052 net.cpp:157] Top shape: 85 64 16 16 (1392640)
I1206 09:01:47.588701 30052 net.cpp:165] Memory required for data: 1393685500
I1206 09:01:47.588721 30052 layer_factory.hpp:77] Creating layer L2_b2_brc3_relu
I1206 09:01:47.588737 30052 net.cpp:100] Creating Layer L2_b2_brc3_relu
I1206 09:01:47.588749 30052 net.cpp:434] L2_b2_brc3_relu <- L2_b2_brc3_bn_top
I1206 09:01:47.588763 30052 net.cpp:395] L2_b2_brc3_relu -> L2_b2_brc3_bn_top (in-place)
I1206 09:01:47.588783 30052 net.cpp:150] Setting up L2_b2_brc3_relu
I1206 09:01:47.588798 30052 net.cpp:157] Top shape: 85 64 16 16 (1392640)
I1206 09:01:47.588807 30052 net.cpp:165] Memory required for data: 1399256060
I1206 09:01:47.588817 30052 layer_factory.hpp:77] Creating layer L2_b2_brc3_conv
I1206 09:01:47.588846 30052 net.cpp:100] Creating Layer L2_b2_brc3_conv
I1206 09:01:47.588860 30052 net.cpp:434] L2_b2_brc3_conv <- L2_b2_brc3_bn_top
I1206 09:01:47.588883 30052 net.cpp:408] L2_b2_brc3_conv -> L2_b2_brc3_conv_top
I1206 09:01:47.589362 30052 net.cpp:150] Setting up L2_b2_brc3_conv
I1206 09:01:47.589383 30052 net.cpp:157] Top shape: 85 128 16 16 (2785280)
I1206 09:01:47.589392 30052 net.cpp:165] Memory required for data: 1410397180
I1206 09:01:47.589411 30052 layer_factory.hpp:77] Creating layer L2_b2_sum_eltwise
I1206 09:01:47.589432 30052 net.cpp:100] Creating Layer L2_b2_sum_eltwise
I1206 09:01:47.589445 30052 net.cpp:434] L2_b2_sum_eltwise <- L2_b2_brc3_conv_top
I1206 09:01:47.589459 30052 net.cpp:434] L2_b2_sum_eltwise <- L2_b1_sum_eltwise_top_L2_b1_sum_eltwise_0_split_1
I1206 09:01:47.589481 30052 net.cpp:408] L2_b2_sum_eltwise -> L2_b2_sum_eltwise_top
I1206 09:01:47.589527 30052 net.cpp:150] Setting up L2_b2_sum_eltwise
I1206 09:01:47.589546 30052 net.cpp:157] Top shape: 85 128 16 16 (2785280)
I1206 09:01:47.589556 30052 net.cpp:165] Memory required for data: 1421538300
I1206 09:01:47.589567 30052 layer_factory.hpp:77] Creating layer L2_b2_sum_eltwise_top_L2_b2_sum_eltwise_0_split
I1206 09:01:47.589582 30052 net.cpp:100] Creating Layer L2_b2_sum_eltwise_top_L2_b2_sum_eltwise_0_split
I1206 09:01:47.589594 30052 net.cpp:434] L2_b2_sum_eltwise_top_L2_b2_sum_eltwise_0_split <- L2_b2_sum_eltwise_top
I1206 09:01:47.589624 30052 net.cpp:408] L2_b2_sum_eltwise_top_L2_b2_sum_eltwise_0_split -> L2_b2_sum_eltwise_top_L2_b2_sum_eltwise_0_split_0
I1206 09:01:47.589646 30052 net.cpp:408] L2_b2_sum_eltwise_top_L2_b2_sum_eltwise_0_split -> L2_b2_sum_eltwise_top_L2_b2_sum_eltwise_0_split_1
I1206 09:01:47.589730 30052 net.cpp:150] Setting up L2_b2_sum_eltwise_top_L2_b2_sum_eltwise_0_split
I1206 09:01:47.589756 30052 net.cpp:157] Top shape: 85 128 16 16 (2785280)
I1206 09:01:47.589772 30052 net.cpp:157] Top shape: 85 128 16 16 (2785280)
I1206 09:01:47.589783 30052 net.cpp:165] Memory required for data: 1443820540
I1206 09:01:47.589793 30052 layer_factory.hpp:77] Creating layer L2_b3_brc1_bn
I1206 09:01:47.589808 30052 net.cpp:100] Creating Layer L2_b3_brc1_bn
I1206 09:01:47.589821 30052 net.cpp:434] L2_b3_brc1_bn <- L2_b2_sum_eltwise_top_L2_b2_sum_eltwise_0_split_0
I1206 09:01:47.589843 30052 net.cpp:408] L2_b3_brc1_bn -> L2_b3_brc1_bn_top
I1206 09:01:47.590121 30052 net.cpp:150] Setting up L2_b3_brc1_bn
I1206 09:01:47.590140 30052 net.cpp:157] Top shape: 85 128 16 16 (2785280)
I1206 09:01:47.590149 30052 net.cpp:165] Memory required for data: 1454961660
I1206 09:01:47.590201 30052 layer_factory.hpp:77] Creating layer L2_b3_brc1_relu
I1206 09:01:47.590220 30052 net.cpp:100] Creating Layer L2_b3_brc1_relu
I1206 09:01:47.590232 30052 net.cpp:434] L2_b3_brc1_relu <- L2_b3_brc1_bn_top
I1206 09:01:47.590257 30052 net.cpp:395] L2_b3_brc1_relu -> L2_b3_brc1_bn_top (in-place)
I1206 09:01:47.590279 30052 net.cpp:150] Setting up L2_b3_brc1_relu
I1206 09:01:47.590294 30052 net.cpp:157] Top shape: 85 128 16 16 (2785280)
I1206 09:01:47.590304 30052 net.cpp:165] Memory required for data: 1466102780
I1206 09:01:47.590314 30052 layer_factory.hpp:77] Creating layer L2_b3_brc1_conv
I1206 09:01:47.590335 30052 net.cpp:100] Creating Layer L2_b3_brc1_conv
I1206 09:01:47.590348 30052 net.cpp:434] L2_b3_brc1_conv <- L2_b3_brc1_bn_top
I1206 09:01:47.590371 30052 net.cpp:408] L2_b3_brc1_conv -> L2_b3_brc1_conv_top
I1206 09:01:47.590847 30052 net.cpp:150] Setting up L2_b3_brc1_conv
I1206 09:01:47.590865 30052 net.cpp:157] Top shape: 85 64 16 16 (1392640)
I1206 09:01:47.590875 30052 net.cpp:165] Memory required for data: 1471673340
I1206 09:01:47.590894 30052 layer_factory.hpp:77] Creating layer L2_b3_brc2_bn
I1206 09:01:47.590911 30052 net.cpp:100] Creating Layer L2_b3_brc2_bn
I1206 09:01:47.590922 30052 net.cpp:434] L2_b3_brc2_bn <- L2_b3_brc1_conv_top
I1206 09:01:47.590950 30052 net.cpp:408] L2_b3_brc2_bn -> L2_b3_brc2_bn_top
I1206 09:01:47.591223 30052 net.cpp:150] Setting up L2_b3_brc2_bn
I1206 09:01:47.591243 30052 net.cpp:157] Top shape: 85 64 16 16 (1392640)
I1206 09:01:47.591251 30052 net.cpp:165] Memory required for data: 1477243900
I1206 09:01:47.591274 30052 layer_factory.hpp:77] Creating layer L2_b3_brc2_relu
I1206 09:01:47.591295 30052 net.cpp:100] Creating Layer L2_b3_brc2_relu
I1206 09:01:47.591308 30052 net.cpp:434] L2_b3_brc2_relu <- L2_b3_brc2_bn_top
I1206 09:01:47.591325 30052 net.cpp:395] L2_b3_brc2_relu -> L2_b3_brc2_bn_top (in-place)
I1206 09:01:47.591343 30052 net.cpp:150] Setting up L2_b3_brc2_relu
I1206 09:01:47.591358 30052 net.cpp:157] Top shape: 85 64 16 16 (1392640)
I1206 09:01:47.591369 30052 net.cpp:165] Memory required for data: 1482814460
I1206 09:01:47.591379 30052 layer_factory.hpp:77] Creating layer L2_b3_brc2_conv
I1206 09:01:47.591400 30052 net.cpp:100] Creating Layer L2_b3_brc2_conv
I1206 09:01:47.591413 30052 net.cpp:434] L2_b3_brc2_conv <- L2_b3_brc2_bn_top
I1206 09:01:47.591434 30052 net.cpp:408] L2_b3_brc2_conv -> L2_b3_brc2_conv_top
I1206 09:01:47.591779 30052 net.cpp:150] Setting up L2_b3_brc2_conv
I1206 09:01:47.591799 30052 net.cpp:157] Top shape: 85 64 16 16 (1392640)
I1206 09:01:47.591809 30052 net.cpp:165] Memory required for data: 1488385020
I1206 09:01:47.591826 30052 layer_factory.hpp:77] Creating layer L2_b3_brc3_bn
I1206 09:01:47.591843 30052 net.cpp:100] Creating Layer L2_b3_brc3_bn
I1206 09:01:47.591856 30052 net.cpp:434] L2_b3_brc3_bn <- L2_b3_brc2_conv_top
I1206 09:01:47.591876 30052 net.cpp:408] L2_b3_brc3_bn -> L2_b3_brc3_bn_top
I1206 09:01:47.592173 30052 net.cpp:150] Setting up L2_b3_brc3_bn
I1206 09:01:47.592193 30052 net.cpp:157] Top shape: 85 64 16 16 (1392640)
I1206 09:01:47.592202 30052 net.cpp:165] Memory required for data: 1493955580
I1206 09:01:47.592224 30052 layer_factory.hpp:77] Creating layer L2_b3_brc3_relu
I1206 09:01:47.592252 30052 net.cpp:100] Creating Layer L2_b3_brc3_relu
I1206 09:01:47.592265 30052 net.cpp:434] L2_b3_brc3_relu <- L2_b3_brc3_bn_top
I1206 09:01:47.592280 30052 net.cpp:395] L2_b3_brc3_relu -> L2_b3_brc3_bn_top (in-place)
I1206 09:01:47.592299 30052 net.cpp:150] Setting up L2_b3_brc3_relu
I1206 09:01:47.592314 30052 net.cpp:157] Top shape: 85 64 16 16 (1392640)
I1206 09:01:47.592324 30052 net.cpp:165] Memory required for data: 1499526140
I1206 09:01:47.592334 30052 layer_factory.hpp:77] Creating layer L2_b3_brc3_conv
I1206 09:01:47.592355 30052 net.cpp:100] Creating Layer L2_b3_brc3_conv
I1206 09:01:47.592368 30052 net.cpp:434] L2_b3_brc3_conv <- L2_b3_brc3_bn_top
I1206 09:01:47.592389 30052 net.cpp:408] L2_b3_brc3_conv -> L2_b3_brc3_conv_top
I1206 09:01:47.592860 30052 net.cpp:150] Setting up L2_b3_brc3_conv
I1206 09:01:47.592881 30052 net.cpp:157] Top shape: 85 128 16 16 (2785280)
I1206 09:01:47.592890 30052 net.cpp:165] Memory required for data: 1510667260
I1206 09:01:47.592909 30052 layer_factory.hpp:77] Creating layer L2_b3_sum_eltwise
I1206 09:01:47.592926 30052 net.cpp:100] Creating Layer L2_b3_sum_eltwise
I1206 09:01:47.592945 30052 net.cpp:434] L2_b3_sum_eltwise <- L2_b3_brc3_conv_top
I1206 09:01:47.592962 30052 net.cpp:434] L2_b3_sum_eltwise <- L2_b2_sum_eltwise_top_L2_b2_sum_eltwise_0_split_1
I1206 09:01:47.592978 30052 net.cpp:408] L2_b3_sum_eltwise -> L2_b3_sum_eltwise_top
I1206 09:01:47.593024 30052 net.cpp:150] Setting up L2_b3_sum_eltwise
I1206 09:01:47.593041 30052 net.cpp:157] Top shape: 85 128 16 16 (2785280)
I1206 09:01:47.593052 30052 net.cpp:165] Memory required for data: 1521808380
I1206 09:01:47.593062 30052 layer_factory.hpp:77] Creating layer L2_b3_sum_eltwise_top_L2_b3_sum_eltwise_0_split
I1206 09:01:47.593081 30052 net.cpp:100] Creating Layer L2_b3_sum_eltwise_top_L2_b3_sum_eltwise_0_split
I1206 09:01:47.593094 30052 net.cpp:434] L2_b3_sum_eltwise_top_L2_b3_sum_eltwise_0_split <- L2_b3_sum_eltwise_top
I1206 09:01:47.593113 30052 net.cpp:408] L2_b3_sum_eltwise_top_L2_b3_sum_eltwise_0_split -> L2_b3_sum_eltwise_top_L2_b3_sum_eltwise_0_split_0
I1206 09:01:47.593134 30052 net.cpp:408] L2_b3_sum_eltwise_top_L2_b3_sum_eltwise_0_split -> L2_b3_sum_eltwise_top_L2_b3_sum_eltwise_0_split_1
I1206 09:01:47.593214 30052 net.cpp:150] Setting up L2_b3_sum_eltwise_top_L2_b3_sum_eltwise_0_split
I1206 09:01:47.593231 30052 net.cpp:157] Top shape: 85 128 16 16 (2785280)
I1206 09:01:47.593245 30052 net.cpp:157] Top shape: 85 128 16 16 (2785280)
I1206 09:01:47.593255 30052 net.cpp:165] Memory required for data: 1544090620
I1206 09:01:47.593266 30052 layer_factory.hpp:77] Creating layer L2_b4_brc1_bn
I1206 09:01:47.593286 30052 net.cpp:100] Creating Layer L2_b4_brc1_bn
I1206 09:01:47.593298 30052 net.cpp:434] L2_b4_brc1_bn <- L2_b3_sum_eltwise_top_L2_b3_sum_eltwise_0_split_0
I1206 09:01:47.593315 30052 net.cpp:408] L2_b4_brc1_bn -> L2_b4_brc1_bn_top
I1206 09:01:47.593596 30052 net.cpp:150] Setting up L2_b4_brc1_bn
I1206 09:01:47.593616 30052 net.cpp:157] Top shape: 85 128 16 16 (2785280)
I1206 09:01:47.593626 30052 net.cpp:165] Memory required for data: 1555231740
I1206 09:01:47.593647 30052 layer_factory.hpp:77] Creating layer L2_b4_brc1_relu
I1206 09:01:47.593663 30052 net.cpp:100] Creating Layer L2_b4_brc1_relu
I1206 09:01:47.593674 30052 net.cpp:434] L2_b4_brc1_relu <- L2_b4_brc1_bn_top
I1206 09:01:47.593689 30052 net.cpp:395] L2_b4_brc1_relu -> L2_b4_brc1_bn_top (in-place)
I1206 09:01:47.593708 30052 net.cpp:150] Setting up L2_b4_brc1_relu
I1206 09:01:47.593722 30052 net.cpp:157] Top shape: 85 128 16 16 (2785280)
I1206 09:01:47.593734 30052 net.cpp:165] Memory required for data: 1566372860
I1206 09:01:47.593744 30052 layer_factory.hpp:77] Creating layer L2_b4_brc1_conv
I1206 09:01:47.593778 30052 net.cpp:100] Creating Layer L2_b4_brc1_conv
I1206 09:01:47.593792 30052 net.cpp:434] L2_b4_brc1_conv <- L2_b4_brc1_bn_top
I1206 09:01:47.593816 30052 net.cpp:408] L2_b4_brc1_conv -> L2_b4_brc1_conv_top
I1206 09:01:47.594306 30052 net.cpp:150] Setting up L2_b4_brc1_conv
I1206 09:01:47.594327 30052 net.cpp:157] Top shape: 85 64 16 16 (1392640)
I1206 09:01:47.594337 30052 net.cpp:165] Memory required for data: 1571943420
I1206 09:01:47.594357 30052 layer_factory.hpp:77] Creating layer L2_b4_brc2_bn
I1206 09:01:47.594378 30052 net.cpp:100] Creating Layer L2_b4_brc2_bn
I1206 09:01:47.594390 30052 net.cpp:434] L2_b4_brc2_bn <- L2_b4_brc1_conv_top
I1206 09:01:47.594408 30052 net.cpp:408] L2_b4_brc2_bn -> L2_b4_brc2_bn_top
I1206 09:01:47.594682 30052 net.cpp:150] Setting up L2_b4_brc2_bn
I1206 09:01:47.594702 30052 net.cpp:157] Top shape: 85 64 16 16 (1392640)
I1206 09:01:47.594712 30052 net.cpp:165] Memory required for data: 1577513980
I1206 09:01:47.594734 30052 layer_factory.hpp:77] Creating layer L2_b4_brc2_relu
I1206 09:01:47.594750 30052 net.cpp:100] Creating Layer L2_b4_brc2_relu
I1206 09:01:47.594761 30052 net.cpp:434] L2_b4_brc2_relu <- L2_b4_brc2_bn_top
I1206 09:01:47.594776 30052 net.cpp:395] L2_b4_brc2_relu -> L2_b4_brc2_bn_top (in-place)
I1206 09:01:47.594795 30052 net.cpp:150] Setting up L2_b4_brc2_relu
I1206 09:01:47.594810 30052 net.cpp:157] Top shape: 85 64 16 16 (1392640)
I1206 09:01:47.594821 30052 net.cpp:165] Memory required for data: 1583084540
I1206 09:01:47.594831 30052 layer_factory.hpp:77] Creating layer L2_b4_brc2_conv
I1206 09:01:47.594854 30052 net.cpp:100] Creating Layer L2_b4_brc2_conv
I1206 09:01:47.594868 30052 net.cpp:434] L2_b4_brc2_conv <- L2_b4_brc2_bn_top
I1206 09:01:47.594892 30052 net.cpp:408] L2_b4_brc2_conv -> L2_b4_brc2_conv_top
I1206 09:01:47.595243 30052 net.cpp:150] Setting up L2_b4_brc2_conv
I1206 09:01:47.595263 30052 net.cpp:157] Top shape: 85 64 16 16 (1392640)
I1206 09:01:47.595273 30052 net.cpp:165] Memory required for data: 1588655100
I1206 09:01:47.595293 30052 layer_factory.hpp:77] Creating layer L2_b4_brc3_bn
I1206 09:01:47.595309 30052 net.cpp:100] Creating Layer L2_b4_brc3_bn
I1206 09:01:47.595319 30052 net.cpp:434] L2_b4_brc3_bn <- L2_b4_brc2_conv_top
I1206 09:01:47.595341 30052 net.cpp:408] L2_b4_brc3_bn -> L2_b4_brc3_bn_top
I1206 09:01:47.595613 30052 net.cpp:150] Setting up L2_b4_brc3_bn
I1206 09:01:47.595631 30052 net.cpp:157] Top shape: 85 64 16 16 (1392640)
I1206 09:01:47.595641 30052 net.cpp:165] Memory required for data: 1594225660
I1206 09:01:47.595662 30052 layer_factory.hpp:77] Creating layer L2_b4_brc3_relu
I1206 09:01:47.595679 30052 net.cpp:100] Creating Layer L2_b4_brc3_relu
I1206 09:01:47.595690 30052 net.cpp:434] L2_b4_brc3_relu <- L2_b4_brc3_bn_top
I1206 09:01:47.595705 30052 net.cpp:395] L2_b4_brc3_relu -> L2_b4_brc3_bn_top (in-place)
I1206 09:01:47.595724 30052 net.cpp:150] Setting up L2_b4_brc3_relu
I1206 09:01:47.595738 30052 net.cpp:157] Top shape: 85 64 16 16 (1392640)
I1206 09:01:47.595748 30052 net.cpp:165] Memory required for data: 1599796220
I1206 09:01:47.595759 30052 layer_factory.hpp:77] Creating layer L2_b4_brc3_conv
I1206 09:01:47.595788 30052 net.cpp:100] Creating Layer L2_b4_brc3_conv
I1206 09:01:47.595803 30052 net.cpp:434] L2_b4_brc3_conv <- L2_b4_brc3_bn_top
I1206 09:01:47.595826 30052 net.cpp:408] L2_b4_brc3_conv -> L2_b4_brc3_conv_top
I1206 09:01:47.596310 30052 net.cpp:150] Setting up L2_b4_brc3_conv
I1206 09:01:47.596331 30052 net.cpp:157] Top shape: 85 128 16 16 (2785280)
I1206 09:01:47.596340 30052 net.cpp:165] Memory required for data: 1610937340
I1206 09:01:47.596359 30052 layer_factory.hpp:77] Creating layer L2_b4_sum_eltwise
I1206 09:01:47.596381 30052 net.cpp:100] Creating Layer L2_b4_sum_eltwise
I1206 09:01:47.596395 30052 net.cpp:434] L2_b4_sum_eltwise <- L2_b4_brc3_conv_top
I1206 09:01:47.596408 30052 net.cpp:434] L2_b4_sum_eltwise <- L2_b3_sum_eltwise_top_L2_b3_sum_eltwise_0_split_1
I1206 09:01:47.596426 30052 net.cpp:408] L2_b4_sum_eltwise -> L2_b4_sum_eltwise_top
I1206 09:01:47.596472 30052 net.cpp:150] Setting up L2_b4_sum_eltwise
I1206 09:01:47.596503 30052 net.cpp:157] Top shape: 85 128 16 16 (2785280)
I1206 09:01:47.596513 30052 net.cpp:165] Memory required for data: 1622078460
I1206 09:01:47.596524 30052 layer_factory.hpp:77] Creating layer L2_b4_sum_eltwise_top_L2_b4_sum_eltwise_0_split
I1206 09:01:47.596539 30052 net.cpp:100] Creating Layer L2_b4_sum_eltwise_top_L2_b4_sum_eltwise_0_split
I1206 09:01:47.596550 30052 net.cpp:434] L2_b4_sum_eltwise_top_L2_b4_sum_eltwise_0_split <- L2_b4_sum_eltwise_top
I1206 09:01:47.596566 30052 net.cpp:408] L2_b4_sum_eltwise_top_L2_b4_sum_eltwise_0_split -> L2_b4_sum_eltwise_top_L2_b4_sum_eltwise_0_split_0
I1206 09:01:47.596592 30052 net.cpp:408] L2_b4_sum_eltwise_top_L2_b4_sum_eltwise_0_split -> L2_b4_sum_eltwise_top_L2_b4_sum_eltwise_0_split_1
I1206 09:01:47.596683 30052 net.cpp:150] Setting up L2_b4_sum_eltwise_top_L2_b4_sum_eltwise_0_split
I1206 09:01:47.596701 30052 net.cpp:157] Top shape: 85 128 16 16 (2785280)
I1206 09:01:47.596714 30052 net.cpp:157] Top shape: 85 128 16 16 (2785280)
I1206 09:01:47.596724 30052 net.cpp:165] Memory required for data: 1644360700
I1206 09:01:47.596735 30052 layer_factory.hpp:77] Creating layer L2_b5_brc1_bn
I1206 09:01:47.596755 30052 net.cpp:100] Creating Layer L2_b5_brc1_bn
I1206 09:01:47.596768 30052 net.cpp:434] L2_b5_brc1_bn <- L2_b4_sum_eltwise_top_L2_b4_sum_eltwise_0_split_0
I1206 09:01:47.596789 30052 net.cpp:408] L2_b5_brc1_bn -> L2_b5_brc1_bn_top
I1206 09:01:47.597074 30052 net.cpp:150] Setting up L2_b5_brc1_bn
I1206 09:01:47.597097 30052 net.cpp:157] Top shape: 85 128 16 16 (2785280)
I1206 09:01:47.597108 30052 net.cpp:165] Memory required for data: 1655501820
I1206 09:01:47.597131 30052 layer_factory.hpp:77] Creating layer L2_b5_brc1_relu
I1206 09:01:47.597147 30052 net.cpp:100] Creating Layer L2_b5_brc1_relu
I1206 09:01:47.597159 30052 net.cpp:434] L2_b5_brc1_relu <- L2_b5_brc1_bn_top
I1206 09:01:47.597174 30052 net.cpp:395] L2_b5_brc1_relu -> L2_b5_brc1_bn_top (in-place)
I1206 09:01:47.597193 30052 net.cpp:150] Setting up L2_b5_brc1_relu
I1206 09:01:47.597209 30052 net.cpp:157] Top shape: 85 128 16 16 (2785280)
I1206 09:01:47.597219 30052 net.cpp:165] Memory required for data: 1666642940
I1206 09:01:47.597230 30052 layer_factory.hpp:77] Creating layer L2_b5_brc1_conv
I1206 09:01:47.597250 30052 net.cpp:100] Creating Layer L2_b5_brc1_conv
I1206 09:01:47.597263 30052 net.cpp:434] L2_b5_brc1_conv <- L2_b5_brc1_bn_top
I1206 09:01:47.597285 30052 net.cpp:408] L2_b5_brc1_conv -> L2_b5_brc1_conv_top
I1206 09:01:47.597765 30052 net.cpp:150] Setting up L2_b5_brc1_conv
I1206 09:01:47.597785 30052 net.cpp:157] Top shape: 85 64 16 16 (1392640)
I1206 09:01:47.597795 30052 net.cpp:165] Memory required for data: 1672213500
I1206 09:01:47.597813 30052 layer_factory.hpp:77] Creating layer L2_b5_brc2_bn
I1206 09:01:47.597834 30052 net.cpp:100] Creating Layer L2_b5_brc2_bn
I1206 09:01:47.597846 30052 net.cpp:434] L2_b5_brc2_bn <- L2_b5_brc1_conv_top
I1206 09:01:47.597863 30052 net.cpp:408] L2_b5_brc2_bn -> L2_b5_brc2_bn_top
I1206 09:01:47.598146 30052 net.cpp:150] Setting up L2_b5_brc2_bn
I1206 09:01:47.598166 30052 net.cpp:157] Top shape: 85 64 16 16 (1392640)
I1206 09:01:47.598176 30052 net.cpp:165] Memory required for data: 1677784060
I1206 09:01:47.598197 30052 layer_factory.hpp:77] Creating layer L2_b5_brc2_relu
I1206 09:01:47.598222 30052 net.cpp:100] Creating Layer L2_b5_brc2_relu
I1206 09:01:47.598234 30052 net.cpp:434] L2_b5_brc2_relu <- L2_b5_brc2_bn_top
I1206 09:01:47.598250 30052 net.cpp:395] L2_b5_brc2_relu -> L2_b5_brc2_bn_top (in-place)
I1206 09:01:47.598269 30052 net.cpp:150] Setting up L2_b5_brc2_relu
I1206 09:01:47.598284 30052 net.cpp:157] Top shape: 85 64 16 16 (1392640)
I1206 09:01:47.598295 30052 net.cpp:165] Memory required for data: 1683354620
I1206 09:01:47.598304 30052 layer_factory.hpp:77] Creating layer L2_b5_brc2_conv
I1206 09:01:47.598325 30052 net.cpp:100] Creating Layer L2_b5_brc2_conv
I1206 09:01:47.598337 30052 net.cpp:434] L2_b5_brc2_conv <- L2_b5_brc2_bn_top
I1206 09:01:47.598361 30052 net.cpp:408] L2_b5_brc2_conv -> L2_b5_brc2_conv_top
I1206 09:01:47.598728 30052 net.cpp:150] Setting up L2_b5_brc2_conv
I1206 09:01:47.598748 30052 net.cpp:157] Top shape: 85 64 16 16 (1392640)
I1206 09:01:47.598759 30052 net.cpp:165] Memory required for data: 1688925180
I1206 09:01:47.598778 30052 layer_factory.hpp:77] Creating layer L2_b5_brc3_bn
I1206 09:01:47.598795 30052 net.cpp:100] Creating Layer L2_b5_brc3_bn
I1206 09:01:47.598808 30052 net.cpp:434] L2_b5_brc3_bn <- L2_b5_brc2_conv_top
I1206 09:01:47.598830 30052 net.cpp:408] L2_b5_brc3_bn -> L2_b5_brc3_bn_top
I1206 09:01:47.599114 30052 net.cpp:150] Setting up L2_b5_brc3_bn
I1206 09:01:47.599133 30052 net.cpp:157] Top shape: 85 64 16 16 (1392640)
I1206 09:01:47.599143 30052 net.cpp:165] Memory required for data: 1694495740
I1206 09:01:47.599165 30052 layer_factory.hpp:77] Creating layer L2_b5_brc3_relu
I1206 09:01:47.599186 30052 net.cpp:100] Creating Layer L2_b5_brc3_relu
I1206 09:01:47.599198 30052 net.cpp:434] L2_b5_brc3_relu <- L2_b5_brc3_bn_top
I1206 09:01:47.599215 30052 net.cpp:395] L2_b5_brc3_relu -> L2_b5_brc3_bn_top (in-place)
I1206 09:01:47.599233 30052 net.cpp:150] Setting up L2_b5_brc3_relu
I1206 09:01:47.599249 30052 net.cpp:157] Top shape: 85 64 16 16 (1392640)
I1206 09:01:47.599259 30052 net.cpp:165] Memory required for data: 1700066300
I1206 09:01:47.599270 30052 layer_factory.hpp:77] Creating layer L2_b5_brc3_conv
I1206 09:01:47.599292 30052 net.cpp:100] Creating Layer L2_b5_brc3_conv
I1206 09:01:47.599304 30052 net.cpp:434] L2_b5_brc3_conv <- L2_b5_brc3_bn_top
I1206 09:01:47.599326 30052 net.cpp:408] L2_b5_brc3_conv -> L2_b5_brc3_conv_top
I1206 09:01:47.599805 30052 net.cpp:150] Setting up L2_b5_brc3_conv
I1206 09:01:47.599825 30052 net.cpp:157] Top shape: 85 128 16 16 (2785280)
I1206 09:01:47.599835 30052 net.cpp:165] Memory required for data: 1711207420
I1206 09:01:47.599853 30052 layer_factory.hpp:77] Creating layer L2_b5_sum_eltwise
I1206 09:01:47.599871 30052 net.cpp:100] Creating Layer L2_b5_sum_eltwise
I1206 09:01:47.599884 30052 net.cpp:434] L2_b5_sum_eltwise <- L2_b5_brc3_conv_top
I1206 09:01:47.599897 30052 net.cpp:434] L2_b5_sum_eltwise <- L2_b4_sum_eltwise_top_L2_b4_sum_eltwise_0_split_1
I1206 09:01:47.599913 30052 net.cpp:408] L2_b5_sum_eltwise -> L2_b5_sum_eltwise_top
I1206 09:01:47.599966 30052 net.cpp:150] Setting up L2_b5_sum_eltwise
I1206 09:01:47.599983 30052 net.cpp:157] Top shape: 85 128 16 16 (2785280)
I1206 09:01:47.599994 30052 net.cpp:165] Memory required for data: 1722348540
I1206 09:01:47.600005 30052 layer_factory.hpp:77] Creating layer L2_b5_sum_eltwise_top_L2_b5_sum_eltwise_0_split
I1206 09:01:47.600024 30052 net.cpp:100] Creating Layer L2_b5_sum_eltwise_top_L2_b5_sum_eltwise_0_split
I1206 09:01:47.600037 30052 net.cpp:434] L2_b5_sum_eltwise_top_L2_b5_sum_eltwise_0_split <- L2_b5_sum_eltwise_top
I1206 09:01:47.600059 30052 net.cpp:408] L2_b5_sum_eltwise_top_L2_b5_sum_eltwise_0_split -> L2_b5_sum_eltwise_top_L2_b5_sum_eltwise_0_split_0
I1206 09:01:47.600080 30052 net.cpp:408] L2_b5_sum_eltwise_top_L2_b5_sum_eltwise_0_split -> L2_b5_sum_eltwise_top_L2_b5_sum_eltwise_0_split_1
I1206 09:01:47.600157 30052 net.cpp:150] Setting up L2_b5_sum_eltwise_top_L2_b5_sum_eltwise_0_split
I1206 09:01:47.600175 30052 net.cpp:157] Top shape: 85 128 16 16 (2785280)
I1206 09:01:47.600193 30052 net.cpp:157] Top shape: 85 128 16 16 (2785280)
I1206 09:01:47.600204 30052 net.cpp:165] Memory required for data: 1744630780
I1206 09:01:47.600215 30052 layer_factory.hpp:77] Creating layer L2_b6_brc1_bn
I1206 09:01:47.600229 30052 net.cpp:100] Creating Layer L2_b6_brc1_bn
I1206 09:01:47.600241 30052 net.cpp:434] L2_b6_brc1_bn <- L2_b5_sum_eltwise_top_L2_b5_sum_eltwise_0_split_0
I1206 09:01:47.600258 30052 net.cpp:408] L2_b6_brc1_bn -> L2_b6_brc1_bn_top
I1206 09:01:47.600540 30052 net.cpp:150] Setting up L2_b6_brc1_bn
I1206 09:01:47.600559 30052 net.cpp:157] Top shape: 85 128 16 16 (2785280)
I1206 09:01:47.600569 30052 net.cpp:165] Memory required for data: 1755771900
I1206 09:01:47.600592 30052 layer_factory.hpp:77] Creating layer L2_b6_brc1_relu
I1206 09:01:47.600637 30052 net.cpp:100] Creating Layer L2_b6_brc1_relu
I1206 09:01:47.600653 30052 net.cpp:434] L2_b6_brc1_relu <- L2_b6_brc1_bn_top
I1206 09:01:47.600669 30052 net.cpp:395] L2_b6_brc1_relu -> L2_b6_brc1_bn_top (in-place)
I1206 09:01:47.600689 30052 net.cpp:150] Setting up L2_b6_brc1_relu
I1206 09:01:47.600706 30052 net.cpp:157] Top shape: 85 128 16 16 (2785280)
I1206 09:01:47.600716 30052 net.cpp:165] Memory required for data: 1766913020
I1206 09:01:47.600728 30052 layer_factory.hpp:77] Creating layer L2_b6_brc1_conv
I1206 09:01:47.600751 30052 net.cpp:100] Creating Layer L2_b6_brc1_conv
I1206 09:01:47.600765 30052 net.cpp:434] L2_b6_brc1_conv <- L2_b6_brc1_bn_top
I1206 09:01:47.600791 30052 net.cpp:408] L2_b6_brc1_conv -> L2_b6_brc1_conv_top
I1206 09:01:47.601286 30052 net.cpp:150] Setting up L2_b6_brc1_conv
I1206 09:01:47.601306 30052 net.cpp:157] Top shape: 85 64 16 16 (1392640)
I1206 09:01:47.601316 30052 net.cpp:165] Memory required for data: 1772483580
I1206 09:01:47.601336 30052 layer_factory.hpp:77] Creating layer L2_b6_brc2_bn
I1206 09:01:47.601356 30052 net.cpp:100] Creating Layer L2_b6_brc2_bn
I1206 09:01:47.601369 30052 net.cpp:434] L2_b6_brc2_bn <- L2_b6_brc1_conv_top
I1206 09:01:47.601390 30052 net.cpp:408] L2_b6_brc2_bn -> L2_b6_brc2_bn_top
I1206 09:01:47.601667 30052 net.cpp:150] Setting up L2_b6_brc2_bn
I1206 09:01:47.601686 30052 net.cpp:157] Top shape: 85 64 16 16 (1392640)
I1206 09:01:47.601696 30052 net.cpp:165] Memory required for data: 1778054140
I1206 09:01:47.601717 30052 layer_factory.hpp:77] Creating layer L2_b6_brc2_relu
I1206 09:01:47.601733 30052 net.cpp:100] Creating Layer L2_b6_brc2_relu
I1206 09:01:47.601745 30052 net.cpp:434] L2_b6_brc2_relu <- L2_b6_brc2_bn_top
I1206 09:01:47.601760 30052 net.cpp:395] L2_b6_brc2_relu -> L2_b6_brc2_bn_top (in-place)
I1206 09:01:47.601781 30052 net.cpp:150] Setting up L2_b6_brc2_relu
I1206 09:01:47.601795 30052 net.cpp:157] Top shape: 85 64 16 16 (1392640)
I1206 09:01:47.601805 30052 net.cpp:165] Memory required for data: 1783624700
I1206 09:01:47.601816 30052 layer_factory.hpp:77] Creating layer L2_b6_brc2_conv
I1206 09:01:47.601841 30052 net.cpp:100] Creating Layer L2_b6_brc2_conv
I1206 09:01:47.601855 30052 net.cpp:434] L2_b6_brc2_conv <- L2_b6_brc2_bn_top
I1206 09:01:47.601874 30052 net.cpp:408] L2_b6_brc2_conv -> L2_b6_brc2_conv_top
I1206 09:01:47.602231 30052 net.cpp:150] Setting up L2_b6_brc2_conv
I1206 09:01:47.602252 30052 net.cpp:157] Top shape: 85 64 16 16 (1392640)
I1206 09:01:47.602262 30052 net.cpp:165] Memory required for data: 1789195260
I1206 09:01:47.602280 30052 layer_factory.hpp:77] Creating layer L2_b6_brc3_bn
I1206 09:01:47.602301 30052 net.cpp:100] Creating Layer L2_b6_brc3_bn
I1206 09:01:47.602314 30052 net.cpp:434] L2_b6_brc3_bn <- L2_b6_brc2_conv_top
I1206 09:01:47.602330 30052 net.cpp:408] L2_b6_brc3_bn -> L2_b6_brc3_bn_top
I1206 09:01:47.602605 30052 net.cpp:150] Setting up L2_b6_brc3_bn
I1206 09:01:47.602632 30052 net.cpp:157] Top shape: 85 64 16 16 (1392640)
I1206 09:01:47.602643 30052 net.cpp:165] Memory required for data: 1794765820
I1206 09:01:47.602665 30052 layer_factory.hpp:77] Creating layer L2_b6_brc3_relu
I1206 09:01:47.602681 30052 net.cpp:100] Creating Layer L2_b6_brc3_relu
I1206 09:01:47.602694 30052 net.cpp:434] L2_b6_brc3_relu <- L2_b6_brc3_bn_top
I1206 09:01:47.602710 30052 net.cpp:395] L2_b6_brc3_relu -> L2_b6_brc3_bn_top (in-place)
I1206 09:01:47.602730 30052 net.cpp:150] Setting up L2_b6_brc3_relu
I1206 09:01:47.602744 30052 net.cpp:157] Top shape: 85 64 16 16 (1392640)
I1206 09:01:47.602754 30052 net.cpp:165] Memory required for data: 1800336380
I1206 09:01:47.602764 30052 layer_factory.hpp:77] Creating layer L2_b6_brc3_conv
I1206 09:01:47.602784 30052 net.cpp:100] Creating Layer L2_b6_brc3_conv
I1206 09:01:47.602797 30052 net.cpp:434] L2_b6_brc3_conv <- L2_b6_brc3_bn_top
I1206 09:01:47.602820 30052 net.cpp:408] L2_b6_brc3_conv -> L2_b6_brc3_conv_top
I1206 09:01:47.603312 30052 net.cpp:150] Setting up L2_b6_brc3_conv
I1206 09:01:47.603332 30052 net.cpp:157] Top shape: 85 128 16 16 (2785280)
I1206 09:01:47.603350 30052 net.cpp:165] Memory required for data: 1811477500
I1206 09:01:47.603369 30052 layer_factory.hpp:77] Creating layer L2_b6_sum_eltwise
I1206 09:01:47.603386 30052 net.cpp:100] Creating Layer L2_b6_sum_eltwise
I1206 09:01:47.603399 30052 net.cpp:434] L2_b6_sum_eltwise <- L2_b6_brc3_conv_top
I1206 09:01:47.603413 30052 net.cpp:434] L2_b6_sum_eltwise <- L2_b5_sum_eltwise_top_L2_b5_sum_eltwise_0_split_1
I1206 09:01:47.603433 30052 net.cpp:408] L2_b6_sum_eltwise -> L2_b6_sum_eltwise_top
I1206 09:01:47.603482 30052 net.cpp:150] Setting up L2_b6_sum_eltwise
I1206 09:01:47.603500 30052 net.cpp:157] Top shape: 85 128 16 16 (2785280)
I1206 09:01:47.603509 30052 net.cpp:165] Memory required for data: 1822618620
I1206 09:01:47.603520 30052 layer_factory.hpp:77] Creating layer L2_b6_sum_eltwise_top_L2_b6_sum_eltwise_0_split
I1206 09:01:47.603540 30052 net.cpp:100] Creating Layer L2_b6_sum_eltwise_top_L2_b6_sum_eltwise_0_split
I1206 09:01:47.603552 30052 net.cpp:434] L2_b6_sum_eltwise_top_L2_b6_sum_eltwise_0_split <- L2_b6_sum_eltwise_top
I1206 09:01:47.603569 30052 net.cpp:408] L2_b6_sum_eltwise_top_L2_b6_sum_eltwise_0_split -> L2_b6_sum_eltwise_top_L2_b6_sum_eltwise_0_split_0
I1206 09:01:47.603588 30052 net.cpp:408] L2_b6_sum_eltwise_top_L2_b6_sum_eltwise_0_split -> L2_b6_sum_eltwise_top_L2_b6_sum_eltwise_0_split_1
I1206 09:01:47.603673 30052 net.cpp:150] Setting up L2_b6_sum_eltwise_top_L2_b6_sum_eltwise_0_split
I1206 09:01:47.603693 30052 net.cpp:157] Top shape: 85 128 16 16 (2785280)
I1206 09:01:47.603706 30052 net.cpp:157] Top shape: 85 128 16 16 (2785280)
I1206 09:01:47.603716 30052 net.cpp:165] Memory required for data: 1844900860
I1206 09:01:47.603727 30052 layer_factory.hpp:77] Creating layer L3_b1_brc1_bn
I1206 09:01:47.603742 30052 net.cpp:100] Creating Layer L3_b1_brc1_bn
I1206 09:01:47.603754 30052 net.cpp:434] L3_b1_brc1_bn <- L2_b6_sum_eltwise_top_L2_b6_sum_eltwise_0_split_0
I1206 09:01:47.603777 30052 net.cpp:408] L3_b1_brc1_bn -> L3_b1_brc1_bn_top
I1206 09:01:47.604050 30052 net.cpp:150] Setting up L3_b1_brc1_bn
I1206 09:01:47.604070 30052 net.cpp:157] Top shape: 85 128 16 16 (2785280)
I1206 09:01:47.604080 30052 net.cpp:165] Memory required for data: 1856041980
I1206 09:01:47.604102 30052 layer_factory.hpp:77] Creating layer L3_b1_brc1_relu
I1206 09:01:47.604122 30052 net.cpp:100] Creating Layer L3_b1_brc1_relu
I1206 09:01:47.604135 30052 net.cpp:434] L3_b1_brc1_relu <- L3_b1_brc1_bn_top
I1206 09:01:47.604151 30052 net.cpp:395] L3_b1_brc1_relu -> L3_b1_brc1_bn_top (in-place)
I1206 09:01:47.604171 30052 net.cpp:150] Setting up L3_b1_brc1_relu
I1206 09:01:47.604185 30052 net.cpp:157] Top shape: 85 128 16 16 (2785280)
I1206 09:01:47.604197 30052 net.cpp:165] Memory required for data: 1867183100
I1206 09:01:47.604207 30052 layer_factory.hpp:77] Creating layer L3_b1_brc1_conv
I1206 09:01:47.604226 30052 net.cpp:100] Creating Layer L3_b1_brc1_conv
I1206 09:01:47.604239 30052 net.cpp:434] L3_b1_brc1_conv <- L3_b1_brc1_bn_top
I1206 09:01:47.604261 30052 net.cpp:408] L3_b1_brc1_conv -> L3_b1_brc1_conv_top
I1206 09:01:47.604904 30052 net.cpp:150] Setting up L3_b1_brc1_conv
I1206 09:01:47.604924 30052 net.cpp:157] Top shape: 85 128 8 8 (696320)
I1206 09:01:47.604934 30052 net.cpp:165] Memory required for data: 1869968380
I1206 09:01:47.604961 30052 layer_factory.hpp:77] Creating layer L3_b1_brc2_bn
I1206 09:01:47.604977 30052 net.cpp:100] Creating Layer L3_b1_brc2_bn
I1206 09:01:47.604990 30052 net.cpp:434] L3_b1_brc2_bn <- L3_b1_brc1_conv_top
I1206 09:01:47.605006 30052 net.cpp:408] L3_b1_brc2_bn -> L3_b1_brc2_bn_top
I1206 09:01:47.605290 30052 net.cpp:150] Setting up L3_b1_brc2_bn
I1206 09:01:47.605310 30052 net.cpp:157] Top shape: 85 128 8 8 (696320)
I1206 09:01:47.605319 30052 net.cpp:165] Memory required for data: 1872753660
I1206 09:01:47.605342 30052 layer_factory.hpp:77] Creating layer L3_b1_brc2_relu
I1206 09:01:47.605358 30052 net.cpp:100] Creating Layer L3_b1_brc2_relu
I1206 09:01:47.605370 30052 net.cpp:434] L3_b1_brc2_relu <- L3_b1_brc2_bn_top
I1206 09:01:47.605389 30052 net.cpp:395] L3_b1_brc2_relu -> L3_b1_brc2_bn_top (in-place)
I1206 09:01:47.605419 30052 net.cpp:150] Setting up L3_b1_brc2_relu
I1206 09:01:47.605435 30052 net.cpp:157] Top shape: 85 128 8 8 (696320)
I1206 09:01:47.605446 30052 net.cpp:165] Memory required for data: 1875538940
I1206 09:01:47.605456 30052 layer_factory.hpp:77] Creating layer L3_b1_brc2_conv
I1206 09:01:47.605481 30052 net.cpp:100] Creating Layer L3_b1_brc2_conv
I1206 09:01:47.605494 30052 net.cpp:434] L3_b1_brc2_conv <- L3_b1_brc2_bn_top
I1206 09:01:47.605514 30052 net.cpp:408] L3_b1_brc2_conv -> L3_b1_brc2_conv_top
I1206 09:01:47.605940 30052 net.cpp:150] Setting up L3_b1_brc2_conv
I1206 09:01:47.605962 30052 net.cpp:157] Top shape: 85 128 8 8 (696320)
I1206 09:01:47.605971 30052 net.cpp:165] Memory required for data: 1878324220
I1206 09:01:47.605990 30052 layer_factory.hpp:77] Creating layer L3_b1_brc3_bn
I1206 09:01:47.606007 30052 net.cpp:100] Creating Layer L3_b1_brc3_bn
I1206 09:01:47.606019 30052 net.cpp:434] L3_b1_brc3_bn <- L3_b1_brc2_conv_top
I1206 09:01:47.606040 30052 net.cpp:408] L3_b1_brc3_bn -> L3_b1_brc3_bn_top
I1206 09:01:47.606310 30052 net.cpp:150] Setting up L3_b1_brc3_bn
I1206 09:01:47.606329 30052 net.cpp:157] Top shape: 85 128 8 8 (696320)
I1206 09:01:47.606339 30052 net.cpp:165] Memory required for data: 1881109500
I1206 09:01:47.606361 30052 layer_factory.hpp:77] Creating layer L3_b1_brc3_relu
I1206 09:01:47.606377 30052 net.cpp:100] Creating Layer L3_b1_brc3_relu
I1206 09:01:47.606389 30052 net.cpp:434] L3_b1_brc3_relu <- L3_b1_brc3_bn_top
I1206 09:01:47.606403 30052 net.cpp:395] L3_b1_brc3_relu -> L3_b1_brc3_bn_top (in-place)
I1206 09:01:47.606423 30052 net.cpp:150] Setting up L3_b1_brc3_relu
I1206 09:01:47.606437 30052 net.cpp:157] Top shape: 85 128 8 8 (696320)
I1206 09:01:47.606447 30052 net.cpp:165] Memory required for data: 1883894780
I1206 09:01:47.606458 30052 layer_factory.hpp:77] Creating layer L3_b1_brc3_conv
I1206 09:01:47.606482 30052 net.cpp:100] Creating Layer L3_b1_brc3_conv
I1206 09:01:47.606495 30052 net.cpp:434] L3_b1_brc3_conv <- L3_b1_brc3_bn_top
I1206 09:01:47.606518 30052 net.cpp:408] L3_b1_brc3_conv -> L3_b1_brc3_conv_top
I1206 09:01:47.608525 30052 net.cpp:150] Setting up L3_b1_brc3_conv
I1206 09:01:47.608551 30052 net.cpp:157] Top shape: 85 256 8 8 (1392640)
I1206 09:01:47.608562 30052 net.cpp:165] Memory required for data: 1889465340
I1206 09:01:47.608582 30052 layer_factory.hpp:77] Creating layer L3_b1_chanInc_conv
I1206 09:01:47.608603 30052 net.cpp:100] Creating Layer L3_b1_chanInc_conv
I1206 09:01:47.608616 30052 net.cpp:434] L3_b1_chanInc_conv <- L2_b6_sum_eltwise_top_L2_b6_sum_eltwise_0_split_1
I1206 09:01:47.608640 30052 net.cpp:408] L3_b1_chanInc_conv -> L3_b1_chanInc_conv_top
I1206 09:01:47.609634 30052 net.cpp:150] Setting up L3_b1_chanInc_conv
I1206 09:01:47.609655 30052 net.cpp:157] Top shape: 85 256 8 8 (1392640)
I1206 09:01:47.609665 30052 net.cpp:165] Memory required for data: 1895035900
I1206 09:01:47.609684 30052 layer_factory.hpp:77] Creating layer L3_b1_sum_eltwise
I1206 09:01:47.609701 30052 net.cpp:100] Creating Layer L3_b1_sum_eltwise
I1206 09:01:47.609714 30052 net.cpp:434] L3_b1_sum_eltwise <- L3_b1_brc3_conv_top
I1206 09:01:47.609727 30052 net.cpp:434] L3_b1_sum_eltwise <- L3_b1_chanInc_conv_top
I1206 09:01:47.609745 30052 net.cpp:408] L3_b1_sum_eltwise -> L3_b1_sum_eltwise_top
I1206 09:01:47.609804 30052 net.cpp:150] Setting up L3_b1_sum_eltwise
I1206 09:01:47.609825 30052 net.cpp:157] Top shape: 85 256 8 8 (1392640)
I1206 09:01:47.609836 30052 net.cpp:165] Memory required for data: 1900606460
I1206 09:01:47.609848 30052 layer_factory.hpp:77] Creating layer L3_b1_sum_eltwise_top_L3_b1_sum_eltwise_0_split
I1206 09:01:47.609869 30052 net.cpp:100] Creating Layer L3_b1_sum_eltwise_top_L3_b1_sum_eltwise_0_split
I1206 09:01:47.609882 30052 net.cpp:434] L3_b1_sum_eltwise_top_L3_b1_sum_eltwise_0_split <- L3_b1_sum_eltwise_top
I1206 09:01:47.609899 30052 net.cpp:408] L3_b1_sum_eltwise_top_L3_b1_sum_eltwise_0_split -> L3_b1_sum_eltwise_top_L3_b1_sum_eltwise_0_split_0
I1206 09:01:47.609918 30052 net.cpp:408] L3_b1_sum_eltwise_top_L3_b1_sum_eltwise_0_split -> L3_b1_sum_eltwise_top_L3_b1_sum_eltwise_0_split_1
I1206 09:01:47.610023 30052 net.cpp:150] Setting up L3_b1_sum_eltwise_top_L3_b1_sum_eltwise_0_split
I1206 09:01:47.610046 30052 net.cpp:157] Top shape: 85 256 8 8 (1392640)
I1206 09:01:47.610060 30052 net.cpp:157] Top shape: 85 256 8 8 (1392640)
I1206 09:01:47.610070 30052 net.cpp:165] Memory required for data: 1911747580
I1206 09:01:47.610081 30052 layer_factory.hpp:77] Creating layer L3_b2_brc1_bn
I1206 09:01:47.610101 30052 net.cpp:100] Creating Layer L3_b2_brc1_bn
I1206 09:01:47.610114 30052 net.cpp:434] L3_b2_brc1_bn <- L3_b1_sum_eltwise_top_L3_b1_sum_eltwise_0_split_0
I1206 09:01:47.610131 30052 net.cpp:408] L3_b2_brc1_bn -> L3_b2_brc1_bn_top
I1206 09:01:47.610410 30052 net.cpp:150] Setting up L3_b2_brc1_bn
I1206 09:01:47.610433 30052 net.cpp:157] Top shape: 85 256 8 8 (1392640)
I1206 09:01:47.610445 30052 net.cpp:165] Memory required for data: 1917318140
I1206 09:01:47.610468 30052 layer_factory.hpp:77] Creating layer L3_b2_brc1_relu
I1206 09:01:47.610484 30052 net.cpp:100] Creating Layer L3_b2_brc1_relu
I1206 09:01:47.610496 30052 net.cpp:434] L3_b2_brc1_relu <- L3_b2_brc1_bn_top
I1206 09:01:47.610512 30052 net.cpp:395] L3_b2_brc1_relu -> L3_b2_brc1_bn_top (in-place)
I1206 09:01:47.610532 30052 net.cpp:150] Setting up L3_b2_brc1_relu
I1206 09:01:47.610548 30052 net.cpp:157] Top shape: 85 256 8 8 (1392640)
I1206 09:01:47.610558 30052 net.cpp:165] Memory required for data: 1922888700
I1206 09:01:47.610566 30052 layer_factory.hpp:77] Creating layer L3_b2_brc1_conv
I1206 09:01:47.610587 30052 net.cpp:100] Creating Layer L3_b2_brc1_conv
I1206 09:01:47.610600 30052 net.cpp:434] L3_b2_brc1_conv <- L3_b2_brc1_bn_top
I1206 09:01:47.610622 30052 net.cpp:408] L3_b2_brc1_conv -> L3_b2_brc1_conv_top
I1206 09:01:47.611610 30052 net.cpp:150] Setting up L3_b2_brc1_conv
I1206 09:01:47.611644 30052 net.cpp:157] Top shape: 85 128 8 8 (696320)
I1206 09:01:47.611655 30052 net.cpp:165] Memory required for data: 1925673980
I1206 09:01:47.611675 30052 layer_factory.hpp:77] Creating layer L3_b2_brc2_bn
I1206 09:01:47.611691 30052 net.cpp:100] Creating Layer L3_b2_brc2_bn
I1206 09:01:47.611703 30052 net.cpp:434] L3_b2_brc2_bn <- L3_b2_brc1_conv_top
I1206 09:01:47.611724 30052 net.cpp:408] L3_b2_brc2_bn -> L3_b2_brc2_bn_top
I1206 09:01:47.612004 30052 net.cpp:150] Setting up L3_b2_brc2_bn
I1206 09:01:47.612025 30052 net.cpp:157] Top shape: 85 128 8 8 (696320)
I1206 09:01:47.612035 30052 net.cpp:165] Memory required for data: 1928459260
I1206 09:01:47.612056 30052 layer_factory.hpp:77] Creating layer L3_b2_brc2_relu
I1206 09:01:47.612072 30052 net.cpp:100] Creating Layer L3_b2_brc2_relu
I1206 09:01:47.612084 30052 net.cpp:434] L3_b2_brc2_relu <- L3_b2_brc2_bn_top
I1206 09:01:47.612104 30052 net.cpp:395] L3_b2_brc2_relu -> L3_b2_brc2_bn_top (in-place)
I1206 09:01:47.612124 30052 net.cpp:150] Setting up L3_b2_brc2_relu
I1206 09:01:47.612139 30052 net.cpp:157] Top shape: 85 128 8 8 (696320)
I1206 09:01:47.612150 30052 net.cpp:165] Memory required for data: 1931244540
I1206 09:01:47.612160 30052 layer_factory.hpp:77] Creating layer L3_b2_brc2_conv
I1206 09:01:47.612181 30052 net.cpp:100] Creating Layer L3_b2_brc2_conv
I1206 09:01:47.612195 30052 net.cpp:434] L3_b2_brc2_conv <- L3_b2_brc2_bn_top
I1206 09:01:47.612211 30052 net.cpp:408] L3_b2_brc2_conv -> L3_b2_brc2_conv_top
I1206 09:01:47.612640 30052 net.cpp:150] Setting up L3_b2_brc2_conv
I1206 09:01:47.612660 30052 net.cpp:157] Top shape: 85 128 8 8 (696320)
I1206 09:01:47.612669 30052 net.cpp:165] Memory required for data: 1934029820
I1206 09:01:47.612689 30052 layer_factory.hpp:77] Creating layer L3_b2_brc3_bn
I1206 09:01:47.612709 30052 net.cpp:100] Creating Layer L3_b2_brc3_bn
I1206 09:01:47.612722 30052 net.cpp:434] L3_b2_brc3_bn <- L3_b2_brc2_conv_top
I1206 09:01:47.612740 30052 net.cpp:408] L3_b2_brc3_bn -> L3_b2_brc3_bn_top
I1206 09:01:47.613029 30052 net.cpp:150] Setting up L3_b2_brc3_bn
I1206 09:01:47.613049 30052 net.cpp:157] Top shape: 85 128 8 8 (696320)
I1206 09:01:47.613059 30052 net.cpp:165] Memory required for data: 1936815100
I1206 09:01:47.613090 30052 layer_factory.hpp:77] Creating layer L3_b2_brc3_relu
I1206 09:01:47.613108 30052 net.cpp:100] Creating Layer L3_b2_brc3_relu
I1206 09:01:47.613121 30052 net.cpp:434] L3_b2_brc3_relu <- L3_b2_brc3_bn_top
I1206 09:01:47.613134 30052 net.cpp:395] L3_b2_brc3_relu -> L3_b2_brc3_bn_top (in-place)
I1206 09:01:47.613154 30052 net.cpp:150] Setting up L3_b2_brc3_relu
I1206 09:01:47.613169 30052 net.cpp:157] Top shape: 85 128 8 8 (696320)
I1206 09:01:47.613179 30052 net.cpp:165] Memory required for data: 1939600380
I1206 09:01:47.613189 30052 layer_factory.hpp:77] Creating layer L3_b2_brc3_conv
I1206 09:01:47.613215 30052 net.cpp:100] Creating Layer L3_b2_brc3_conv
I1206 09:01:47.613229 30052 net.cpp:434] L3_b2_brc3_conv <- L3_b2_brc3_bn_top
I1206 09:01:47.613255 30052 net.cpp:408] L3_b2_brc3_conv -> L3_b2_brc3_conv_top
I1206 09:01:47.614234 30052 net.cpp:150] Setting up L3_b2_brc3_conv
I1206 09:01:47.614255 30052 net.cpp:157] Top shape: 85 256 8 8 (1392640)
I1206 09:01:47.614264 30052 net.cpp:165] Memory required for data: 1945170940
I1206 09:01:47.614284 30052 layer_factory.hpp:77] Creating layer L3_b2_sum_eltwise
I1206 09:01:47.614305 30052 net.cpp:100] Creating Layer L3_b2_sum_eltwise
I1206 09:01:47.614318 30052 net.cpp:434] L3_b2_sum_eltwise <- L3_b2_brc3_conv_top
I1206 09:01:47.614333 30052 net.cpp:434] L3_b2_sum_eltwise <- L3_b1_sum_eltwise_top_L3_b1_sum_eltwise_0_split_1
I1206 09:01:47.614351 30052 net.cpp:408] L3_b2_sum_eltwise -> L3_b2_sum_eltwise_top
I1206 09:01:47.614410 30052 net.cpp:150] Setting up L3_b2_sum_eltwise
I1206 09:01:47.614429 30052 net.cpp:157] Top shape: 85 256 8 8 (1392640)
I1206 09:01:47.614439 30052 net.cpp:165] Memory required for data: 1950741500
I1206 09:01:47.614450 30052 layer_factory.hpp:77] Creating layer L3_b2_sum_eltwise_top_L3_b2_sum_eltwise_0_split
I1206 09:01:47.614465 30052 net.cpp:100] Creating Layer L3_b2_sum_eltwise_top_L3_b2_sum_eltwise_0_split
I1206 09:01:47.614477 30052 net.cpp:434] L3_b2_sum_eltwise_top_L3_b2_sum_eltwise_0_split <- L3_b2_sum_eltwise_top
I1206 09:01:47.614497 30052 net.cpp:408] L3_b2_sum_eltwise_top_L3_b2_sum_eltwise_0_split -> L3_b2_sum_eltwise_top_L3_b2_sum_eltwise_0_split_0
I1206 09:01:47.614518 30052 net.cpp:408] L3_b2_sum_eltwise_top_L3_b2_sum_eltwise_0_split -> L3_b2_sum_eltwise_top_L3_b2_sum_eltwise_0_split_1
I1206 09:01:47.614601 30052 net.cpp:150] Setting up L3_b2_sum_eltwise_top_L3_b2_sum_eltwise_0_split
I1206 09:01:47.614629 30052 net.cpp:157] Top shape: 85 256 8 8 (1392640)
I1206 09:01:47.614645 30052 net.cpp:157] Top shape: 85 256 8 8 (1392640)
I1206 09:01:47.614655 30052 net.cpp:165] Memory required for data: 1961882620
I1206 09:01:47.614666 30052 layer_factory.hpp:77] Creating layer L3_b3_brc1_bn
I1206 09:01:47.614681 30052 net.cpp:100] Creating Layer L3_b3_brc1_bn
I1206 09:01:47.614694 30052 net.cpp:434] L3_b3_brc1_bn <- L3_b2_sum_eltwise_top_L3_b2_sum_eltwise_0_split_0
I1206 09:01:47.614715 30052 net.cpp:408] L3_b3_brc1_bn -> L3_b3_brc1_bn_top
I1206 09:01:47.615005 30052 net.cpp:150] Setting up L3_b3_brc1_bn
I1206 09:01:47.615025 30052 net.cpp:157] Top shape: 85 256 8 8 (1392640)
I1206 09:01:47.615034 30052 net.cpp:165] Memory required for data: 1967453180
I1206 09:01:47.615056 30052 layer_factory.hpp:77] Creating layer L3_b3_brc1_relu
I1206 09:01:47.615072 30052 net.cpp:100] Creating Layer L3_b3_brc1_relu
I1206 09:01:47.615084 30052 net.cpp:434] L3_b3_brc1_relu <- L3_b3_brc1_bn_top
I1206 09:01:47.615099 30052 net.cpp:395] L3_b3_brc1_relu -> L3_b3_brc1_bn_top (in-place)
I1206 09:01:47.615119 30052 net.cpp:150] Setting up L3_b3_brc1_relu
I1206 09:01:47.615134 30052 net.cpp:157] Top shape: 85 256 8 8 (1392640)
I1206 09:01:47.615144 30052 net.cpp:165] Memory required for data: 1973023740
I1206 09:01:47.615154 30052 layer_factory.hpp:77] Creating layer L3_b3_brc1_conv
I1206 09:01:47.615178 30052 net.cpp:100] Creating Layer L3_b3_brc1_conv
I1206 09:01:47.615192 30052 net.cpp:434] L3_b3_brc1_conv <- L3_b3_brc1_bn_top
I1206 09:01:47.615216 30052 net.cpp:408] L3_b3_brc1_conv -> L3_b3_brc1_conv_top
I1206 09:01:47.616209 30052 net.cpp:150] Setting up L3_b3_brc1_conv
I1206 09:01:47.616230 30052 net.cpp:157] Top shape: 85 128 8 8 (696320)
I1206 09:01:47.616240 30052 net.cpp:165] Memory required for data: 1975809020
I1206 09:01:47.616256 30052 layer_factory.hpp:77] Creating layer L3_b3_brc2_bn
I1206 09:01:47.616277 30052 net.cpp:100] Creating Layer L3_b3_brc2_bn
I1206 09:01:47.616291 30052 net.cpp:434] L3_b3_brc2_bn <- L3_b3_brc1_conv_top
I1206 09:01:47.616307 30052 net.cpp:408] L3_b3_brc2_bn -> L3_b3_brc2_bn_top
I1206 09:01:47.616614 30052 net.cpp:150] Setting up L3_b3_brc2_bn
I1206 09:01:47.616634 30052 net.cpp:157] Top shape: 85 128 8 8 (696320)
I1206 09:01:47.616644 30052 net.cpp:165] Memory required for data: 1978594300
I1206 09:01:47.616667 30052 layer_factory.hpp:77] Creating layer L3_b3_brc2_relu
I1206 09:01:47.616683 30052 net.cpp:100] Creating Layer L3_b3_brc2_relu
I1206 09:01:47.616695 30052 net.cpp:434] L3_b3_brc2_relu <- L3_b3_brc2_bn_top
I1206 09:01:47.616709 30052 net.cpp:395] L3_b3_brc2_relu -> L3_b3_brc2_bn_top (in-place)
I1206 09:01:47.616729 30052 net.cpp:150] Setting up L3_b3_brc2_relu
I1206 09:01:47.616744 30052 net.cpp:157] Top shape: 85 128 8 8 (696320)
I1206 09:01:47.616753 30052 net.cpp:165] Memory required for data: 1981379580
I1206 09:01:47.616765 30052 layer_factory.hpp:77] Creating layer L3_b3_brc2_conv
I1206 09:01:47.616791 30052 net.cpp:100] Creating Layer L3_b3_brc2_conv
I1206 09:01:47.616803 30052 net.cpp:434] L3_b3_brc2_conv <- L3_b3_brc2_bn_top
I1206 09:01:47.616822 30052 net.cpp:408] L3_b3_brc2_conv -> L3_b3_brc2_conv_top
I1206 09:01:47.617254 30052 net.cpp:150] Setting up L3_b3_brc2_conv
I1206 09:01:47.617274 30052 net.cpp:157] Top shape: 85 128 8 8 (696320)
I1206 09:01:47.617283 30052 net.cpp:165] Memory required for data: 1984164860
I1206 09:01:47.617301 30052 layer_factory.hpp:77] Creating layer L3_b3_brc3_bn
I1206 09:01:47.617318 30052 net.cpp:100] Creating Layer L3_b3_brc3_bn
I1206 09:01:47.617331 30052 net.cpp:434] L3_b3_brc3_bn <- L3_b3_brc2_conv_top
I1206 09:01:47.617350 30052 net.cpp:408] L3_b3_brc3_bn -> L3_b3_brc3_bn_top
I1206 09:01:47.617630 30052 net.cpp:150] Setting up L3_b3_brc3_bn
I1206 09:01:47.617650 30052 net.cpp:157] Top shape: 85 128 8 8 (696320)
I1206 09:01:47.617660 30052 net.cpp:165] Memory required for data: 1986950140
I1206 09:01:47.617682 30052 layer_factory.hpp:77] Creating layer L3_b3_brc3_relu
I1206 09:01:47.617703 30052 net.cpp:100] Creating Layer L3_b3_brc3_relu
I1206 09:01:47.617717 30052 net.cpp:434] L3_b3_brc3_relu <- L3_b3_brc3_bn_top
I1206 09:01:47.617730 30052 net.cpp:395] L3_b3_brc3_relu -> L3_b3_brc3_bn_top (in-place)
I1206 09:01:47.617751 30052 net.cpp:150] Setting up L3_b3_brc3_relu
I1206 09:01:47.617766 30052 net.cpp:157] Top shape: 85 128 8 8 (696320)
I1206 09:01:47.617775 30052 net.cpp:165] Memory required for data: 1989735420
I1206 09:01:47.617786 30052 layer_factory.hpp:77] Creating layer L3_b3_brc3_conv
I1206 09:01:47.617805 30052 net.cpp:100] Creating Layer L3_b3_brc3_conv
I1206 09:01:47.617820 30052 net.cpp:434] L3_b3_brc3_conv <- L3_b3_brc3_bn_top
I1206 09:01:47.617841 30052 net.cpp:408] L3_b3_brc3_conv -> L3_b3_brc3_conv_top
I1206 09:01:47.618818 30052 net.cpp:150] Setting up L3_b3_brc3_conv
I1206 09:01:47.618839 30052 net.cpp:157] Top shape: 85 256 8 8 (1392640)
I1206 09:01:47.618849 30052 net.cpp:165] Memory required for data: 1995305980
I1206 09:01:47.618867 30052 layer_factory.hpp:77] Creating layer L3_b3_sum_eltwise
I1206 09:01:47.618885 30052 net.cpp:100] Creating Layer L3_b3_sum_eltwise
I1206 09:01:47.618898 30052 net.cpp:434] L3_b3_sum_eltwise <- L3_b3_brc3_conv_top
I1206 09:01:47.618912 30052 net.cpp:434] L3_b3_sum_eltwise <- L3_b2_sum_eltwise_top_L3_b2_sum_eltwise_0_split_1
I1206 09:01:47.618928 30052 net.cpp:408] L3_b3_sum_eltwise -> L3_b3_sum_eltwise_top
I1206 09:01:47.618999 30052 net.cpp:150] Setting up L3_b3_sum_eltwise
I1206 09:01:47.619017 30052 net.cpp:157] Top shape: 85 256 8 8 (1392640)
I1206 09:01:47.619027 30052 net.cpp:165] Memory required for data: 2000876540
I1206 09:01:47.619037 30052 layer_factory.hpp:77] Creating layer L3_b3_sum_eltwise_top_L3_b3_sum_eltwise_0_split
I1206 09:01:47.619065 30052 net.cpp:100] Creating Layer L3_b3_sum_eltwise_top_L3_b3_sum_eltwise_0_split
I1206 09:01:47.619077 30052 net.cpp:434] L3_b3_sum_eltwise_top_L3_b3_sum_eltwise_0_split <- L3_b3_sum_eltwise_top
I1206 09:01:47.619093 30052 net.cpp:408] L3_b3_sum_eltwise_top_L3_b3_sum_eltwise_0_split -> L3_b3_sum_eltwise_top_L3_b3_sum_eltwise_0_split_0
I1206 09:01:47.619114 30052 net.cpp:408] L3_b3_sum_eltwise_top_L3_b3_sum_eltwise_0_split -> L3_b3_sum_eltwise_top_L3_b3_sum_eltwise_0_split_1
I1206 09:01:47.619201 30052 net.cpp:150] Setting up L3_b3_sum_eltwise_top_L3_b3_sum_eltwise_0_split
I1206 09:01:47.619220 30052 net.cpp:157] Top shape: 85 256 8 8 (1392640)
I1206 09:01:47.619235 30052 net.cpp:157] Top shape: 85 256 8 8 (1392640)
I1206 09:01:47.619244 30052 net.cpp:165] Memory required for data: 2012017660
I1206 09:01:47.619256 30052 layer_factory.hpp:77] Creating layer L3_b4_brc1_bn
I1206 09:01:47.619271 30052 net.cpp:100] Creating Layer L3_b4_brc1_bn
I1206 09:01:47.619282 30052 net.cpp:434] L3_b4_brc1_bn <- L3_b3_sum_eltwise_top_L3_b3_sum_eltwise_0_split_0
I1206 09:01:47.619303 30052 net.cpp:408] L3_b4_brc1_bn -> L3_b4_brc1_bn_top
I1206 09:01:47.619598 30052 net.cpp:150] Setting up L3_b4_brc1_bn
I1206 09:01:47.619617 30052 net.cpp:157] Top shape: 85 256 8 8 (1392640)
I1206 09:01:47.619627 30052 net.cpp:165] Memory required for data: 2017588220
I1206 09:01:47.619649 30052 layer_factory.hpp:77] Creating layer L3_b4_brc1_relu
I1206 09:01:47.619670 30052 net.cpp:100] Creating Layer L3_b4_brc1_relu
I1206 09:01:47.619683 30052 net.cpp:434] L3_b4_brc1_relu <- L3_b4_brc1_bn_top
I1206 09:01:47.619699 30052 net.cpp:395] L3_b4_brc1_relu -> L3_b4_brc1_bn_top (in-place)
I1206 09:01:47.619719 30052 net.cpp:150] Setting up L3_b4_brc1_relu
I1206 09:01:47.619734 30052 net.cpp:157] Top shape: 85 256 8 8 (1392640)
I1206 09:01:47.619743 30052 net.cpp:165] Memory required for data: 2023158780
I1206 09:01:47.619755 30052 layer_factory.hpp:77] Creating layer L3_b4_brc1_conv
I1206 09:01:47.619776 30052 net.cpp:100] Creating Layer L3_b4_brc1_conv
I1206 09:01:47.619788 30052 net.cpp:434] L3_b4_brc1_conv <- L3_b4_brc1_bn_top
I1206 09:01:47.619812 30052 net.cpp:408] L3_b4_brc1_conv -> L3_b4_brc1_conv_top
I1206 09:01:47.620784 30052 net.cpp:150] Setting up L3_b4_brc1_conv
I1206 09:01:47.620803 30052 net.cpp:157] Top shape: 85 128 8 8 (696320)
I1206 09:01:47.620813 30052 net.cpp:165] Memory required for data: 2025944060
I1206 09:01:47.620832 30052 layer_factory.hpp:77] Creating layer L3_b4_brc2_bn
I1206 09:01:47.620849 30052 net.cpp:100] Creating Layer L3_b4_brc2_bn
I1206 09:01:47.620862 30052 net.cpp:434] L3_b4_brc2_bn <- L3_b4_brc1_conv_top
I1206 09:01:47.620877 30052 net.cpp:408] L3_b4_brc2_bn -> L3_b4_brc2_bn_top
I1206 09:01:47.621163 30052 net.cpp:150] Setting up L3_b4_brc2_bn
I1206 09:01:47.621183 30052 net.cpp:157] Top shape: 85 128 8 8 (696320)
I1206 09:01:47.621192 30052 net.cpp:165] Memory required for data: 2028729340
I1206 09:01:47.621214 30052 layer_factory.hpp:77] Creating layer L3_b4_brc2_relu
I1206 09:01:47.621230 30052 net.cpp:100] Creating Layer L3_b4_brc2_relu
I1206 09:01:47.621243 30052 net.cpp:434] L3_b4_brc2_relu <- L3_b4_brc2_bn_top
I1206 09:01:47.621261 30052 net.cpp:395] L3_b4_brc2_relu -> L3_b4_brc2_bn_top (in-place)
I1206 09:01:47.621282 30052 net.cpp:150] Setting up L3_b4_brc2_relu
I1206 09:01:47.621297 30052 net.cpp:157] Top shape: 85 128 8 8 (696320)
I1206 09:01:47.621307 30052 net.cpp:165] Memory required for data: 2031514620
I1206 09:01:47.621317 30052 layer_factory.hpp:77] Creating layer L3_b4_brc2_conv
I1206 09:01:47.621343 30052 net.cpp:100] Creating Layer L3_b4_brc2_conv
I1206 09:01:47.621356 30052 net.cpp:434] L3_b4_brc2_conv <- L3_b4_brc2_bn_top
I1206 09:01:47.621374 30052 net.cpp:408] L3_b4_brc2_conv -> L3_b4_brc2_conv_top
I1206 09:01:47.621803 30052 net.cpp:150] Setting up L3_b4_brc2_conv
I1206 09:01:47.621822 30052 net.cpp:157] Top shape: 85 128 8 8 (696320)
I1206 09:01:47.621832 30052 net.cpp:165] Memory required for data: 2034299900
I1206 09:01:47.621861 30052 layer_factory.hpp:77] Creating layer L3_b4_brc3_bn
I1206 09:01:47.621882 30052 net.cpp:100] Creating Layer L3_b4_brc3_bn
I1206 09:01:47.621896 30052 net.cpp:434] L3_b4_brc3_bn <- L3_b4_brc2_conv_top
I1206 09:01:47.621914 30052 net.cpp:408] L3_b4_brc3_bn -> L3_b4_brc3_bn_top
I1206 09:01:47.622202 30052 net.cpp:150] Setting up L3_b4_brc3_bn
I1206 09:01:47.622222 30052 net.cpp:157] Top shape: 85 128 8 8 (696320)
I1206 09:01:47.622232 30052 net.cpp:165] Memory required for data: 2037085180
I1206 09:01:47.622253 30052 layer_factory.hpp:77] Creating layer L3_b4_brc3_relu
I1206 09:01:47.622270 30052 net.cpp:100] Creating Layer L3_b4_brc3_relu
I1206 09:01:47.622282 30052 net.cpp:434] L3_b4_brc3_relu <- L3_b4_brc3_bn_top
I1206 09:01:47.622298 30052 net.cpp:395] L3_b4_brc3_relu -> L3_b4_brc3_bn_top (in-place)
I1206 09:01:47.622318 30052 net.cpp:150] Setting up L3_b4_brc3_relu
I1206 09:01:47.622333 30052 net.cpp:157] Top shape: 85 128 8 8 (696320)
I1206 09:01:47.622342 30052 net.cpp:165] Memory required for data: 2039870460
I1206 09:01:47.622352 30052 layer_factory.hpp:77] Creating layer L3_b4_brc3_conv
I1206 09:01:47.622380 30052 net.cpp:100] Creating Layer L3_b4_brc3_conv
I1206 09:01:47.622395 30052 net.cpp:434] L3_b4_brc3_conv <- L3_b4_brc3_bn_top
I1206 09:01:47.622416 30052 net.cpp:408] L3_b4_brc3_conv -> L3_b4_brc3_conv_top
I1206 09:01:47.623389 30052 net.cpp:150] Setting up L3_b4_brc3_conv
I1206 09:01:47.623409 30052 net.cpp:157] Top shape: 85 256 8 8 (1392640)
I1206 09:01:47.623420 30052 net.cpp:165] Memory required for data: 2045441020
I1206 09:01:47.623440 30052 layer_factory.hpp:77] Creating layer L3_b4_sum_eltwise
I1206 09:01:47.623461 30052 net.cpp:100] Creating Layer L3_b4_sum_eltwise
I1206 09:01:47.623473 30052 net.cpp:434] L3_b4_sum_eltwise <- L3_b4_brc3_conv_top
I1206 09:01:47.623487 30052 net.cpp:434] L3_b4_sum_eltwise <- L3_b3_sum_eltwise_top_L3_b3_sum_eltwise_0_split_1
I1206 09:01:47.623504 30052 net.cpp:408] L3_b4_sum_eltwise -> L3_b4_sum_eltwise_top
I1206 09:01:47.623564 30052 net.cpp:150] Setting up L3_b4_sum_eltwise
I1206 09:01:47.623584 30052 net.cpp:157] Top shape: 85 256 8 8 (1392640)
I1206 09:01:47.623594 30052 net.cpp:165] Memory required for data: 2051011580
I1206 09:01:47.623605 30052 layer_factory.hpp:77] Creating layer L3_b4_sum_eltwise_top_L3_b4_sum_eltwise_0_split
I1206 09:01:47.623620 30052 net.cpp:100] Creating Layer L3_b4_sum_eltwise_top_L3_b4_sum_eltwise_0_split
I1206 09:01:47.623631 30052 net.cpp:434] L3_b4_sum_eltwise_top_L3_b4_sum_eltwise_0_split <- L3_b4_sum_eltwise_top
I1206 09:01:47.623652 30052 net.cpp:408] L3_b4_sum_eltwise_top_L3_b4_sum_eltwise_0_split -> L3_b4_sum_eltwise_top_L3_b4_sum_eltwise_0_split_0
I1206 09:01:47.623673 30052 net.cpp:408] L3_b4_sum_eltwise_top_L3_b4_sum_eltwise_0_split -> L3_b4_sum_eltwise_top_L3_b4_sum_eltwise_0_split_1
I1206 09:01:47.623757 30052 net.cpp:150] Setting up L3_b4_sum_eltwise_top_L3_b4_sum_eltwise_0_split
I1206 09:01:47.623781 30052 net.cpp:157] Top shape: 85 256 8 8 (1392640)
I1206 09:01:47.623796 30052 net.cpp:157] Top shape: 85 256 8 8 (1392640)
I1206 09:01:47.623807 30052 net.cpp:165] Memory required for data: 2062152700
I1206 09:01:47.623817 30052 layer_factory.hpp:77] Creating layer L3_b5_brc1_bn
I1206 09:01:47.623832 30052 net.cpp:100] Creating Layer L3_b5_brc1_bn
I1206 09:01:47.623845 30052 net.cpp:434] L3_b5_brc1_bn <- L3_b4_sum_eltwise_top_L3_b4_sum_eltwise_0_split_0
I1206 09:01:47.623867 30052 net.cpp:408] L3_b5_brc1_bn -> L3_b5_brc1_bn_top
I1206 09:01:47.624150 30052 net.cpp:150] Setting up L3_b5_brc1_bn
I1206 09:01:47.624171 30052 net.cpp:157] Top shape: 85 256 8 8 (1392640)
I1206 09:01:47.624181 30052 net.cpp:165] Memory required for data: 2067723260
I1206 09:01:47.624203 30052 layer_factory.hpp:77] Creating layer L3_b5_brc1_relu
I1206 09:01:47.624219 30052 net.cpp:100] Creating Layer L3_b5_brc1_relu
I1206 09:01:47.624231 30052 net.cpp:434] L3_b5_brc1_relu <- L3_b5_brc1_bn_top
I1206 09:01:47.624246 30052 net.cpp:395] L3_b5_brc1_relu -> L3_b5_brc1_bn_top (in-place)
I1206 09:01:47.624266 30052 net.cpp:150] Setting up L3_b5_brc1_relu
I1206 09:01:47.624290 30052 net.cpp:157] Top shape: 85 256 8 8 (1392640)
I1206 09:01:47.624301 30052 net.cpp:165] Memory required for data: 2073293820
I1206 09:01:47.624311 30052 layer_factory.hpp:77] Creating layer L3_b5_brc1_conv
I1206 09:01:47.624336 30052 net.cpp:100] Creating Layer L3_b5_brc1_conv
I1206 09:01:47.624349 30052 net.cpp:434] L3_b5_brc1_conv <- L3_b5_brc1_bn_top
I1206 09:01:47.624372 30052 net.cpp:408] L3_b5_brc1_conv -> L3_b5_brc1_conv_top
I1206 09:01:47.626519 30052 net.cpp:150] Setting up L3_b5_brc1_conv
I1206 09:01:47.626543 30052 net.cpp:157] Top shape: 85 128 8 8 (696320)
I1206 09:01:47.626554 30052 net.cpp:165] Memory required for data: 2076079100
I1206 09:01:47.626571 30052 layer_factory.hpp:77] Creating layer L3_b5_brc2_bn
I1206 09:01:47.626593 30052 net.cpp:100] Creating Layer L3_b5_brc2_bn
I1206 09:01:47.626606 30052 net.cpp:434] L3_b5_brc2_bn <- L3_b5_brc1_conv_top
I1206 09:01:47.626623 30052 net.cpp:408] L3_b5_brc2_bn -> L3_b5_brc2_bn_top
I1206 09:01:47.626907 30052 net.cpp:150] Setting up L3_b5_brc2_bn
I1206 09:01:47.626927 30052 net.cpp:157] Top shape: 85 128 8 8 (696320)
I1206 09:01:47.626943 30052 net.cpp:165] Memory required for data: 2078864380
I1206 09:01:47.626968 30052 layer_factory.hpp:77] Creating layer L3_b5_brc2_relu
I1206 09:01:47.626983 30052 net.cpp:100] Creating Layer L3_b5_brc2_relu
I1206 09:01:47.626996 30052 net.cpp:434] L3_b5_brc2_relu <- L3_b5_brc2_bn_top
I1206 09:01:47.627015 30052 net.cpp:395] L3_b5_brc2_relu -> L3_b5_brc2_bn_top (in-place)
I1206 09:01:47.627037 30052 net.cpp:150] Setting up L3_b5_brc2_relu
I1206 09:01:47.627053 30052 net.cpp:157] Top shape: 85 128 8 8 (696320)
I1206 09:01:47.627063 30052 net.cpp:165] Memory required for data: 2081649660
I1206 09:01:47.627073 30052 layer_factory.hpp:77] Creating layer L3_b5_brc2_conv
I1206 09:01:47.627099 30052 net.cpp:100] Creating Layer L3_b5_brc2_conv
I1206 09:01:47.627111 30052 net.cpp:434] L3_b5_brc2_conv <- L3_b5_brc2_bn_top
I1206 09:01:47.627130 30052 net.cpp:408] L3_b5_brc2_conv -> L3_b5_brc2_conv_top
I1206 09:01:47.627544 30052 net.cpp:150] Setting up L3_b5_brc2_conv
I1206 09:01:47.627565 30052 net.cpp:157] Top shape: 85 128 8 8 (696320)
I1206 09:01:47.627575 30052 net.cpp:165] Memory required for data: 2084434940
I1206 09:01:47.627643 30052 layer_factory.hpp:77] Creating layer L3_b5_brc3_bn
I1206 09:01:47.627667 30052 net.cpp:100] Creating Layer L3_b5_brc3_bn
I1206 09:01:47.627681 30052 net.cpp:434] L3_b5_brc3_bn <- L3_b5_brc2_conv_top
I1206 09:01:47.627699 30052 net.cpp:408] L3_b5_brc3_bn -> L3_b5_brc3_bn_top
I1206 09:01:47.627993 30052 net.cpp:150] Setting up L3_b5_brc3_bn
I1206 09:01:47.628012 30052 net.cpp:157] Top shape: 85 128 8 8 (696320)
I1206 09:01:47.628022 30052 net.cpp:165] Memory required for data: 2087220220
I1206 09:01:47.628044 30052 layer_factory.hpp:77] Creating layer L3_b5_brc3_relu
I1206 09:01:47.628065 30052 net.cpp:100] Creating Layer L3_b5_brc3_relu
I1206 09:01:47.628078 30052 net.cpp:434] L3_b5_brc3_relu <- L3_b5_brc3_bn_top
I1206 09:01:47.628094 30052 net.cpp:395] L3_b5_brc3_relu -> L3_b5_brc3_bn_top (in-place)
I1206 09:01:47.628114 30052 net.cpp:150] Setting up L3_b5_brc3_relu
I1206 09:01:47.628129 30052 net.cpp:157] Top shape: 85 128 8 8 (696320)
I1206 09:01:47.628137 30052 net.cpp:165] Memory required for data: 2090005500
I1206 09:01:47.628147 30052 layer_factory.hpp:77] Creating layer L3_b5_brc3_conv
I1206 09:01:47.628167 30052 net.cpp:100] Creating Layer L3_b5_brc3_conv
I1206 09:01:47.628180 30052 net.cpp:434] L3_b5_brc3_conv <- L3_b5_brc3_bn_top
I1206 09:01:47.628203 30052 net.cpp:408] L3_b5_brc3_conv -> L3_b5_brc3_conv_top
I1206 09:01:47.629176 30052 net.cpp:150] Setting up L3_b5_brc3_conv
I1206 09:01:47.629196 30052 net.cpp:157] Top shape: 85 256 8 8 (1392640)
I1206 09:01:47.629206 30052 net.cpp:165] Memory required for data: 2095576060
I1206 09:01:47.629225 30052 layer_factory.hpp:77] Creating layer L3_b5_sum_eltwise
I1206 09:01:47.629242 30052 net.cpp:100] Creating Layer L3_b5_sum_eltwise
I1206 09:01:47.629254 30052 net.cpp:434] L3_b5_sum_eltwise <- L3_b5_brc3_conv_top
I1206 09:01:47.629276 30052 net.cpp:434] L3_b5_sum_eltwise <- L3_b4_sum_eltwise_top_L3_b4_sum_eltwise_0_split_1
I1206 09:01:47.629295 30052 net.cpp:408] L3_b5_sum_eltwise -> L3_b5_sum_eltwise_top
I1206 09:01:47.629356 30052 net.cpp:150] Setting up L3_b5_sum_eltwise
I1206 09:01:47.629375 30052 net.cpp:157] Top shape: 85 256 8 8 (1392640)
I1206 09:01:47.629385 30052 net.cpp:165] Memory required for data: 2101146620
I1206 09:01:47.629396 30052 layer_factory.hpp:77] Creating layer L3_b5_sum_eltwise_top_L3_b5_sum_eltwise_0_split
I1206 09:01:47.629411 30052 net.cpp:100] Creating Layer L3_b5_sum_eltwise_top_L3_b5_sum_eltwise_0_split
I1206 09:01:47.629423 30052 net.cpp:434] L3_b5_sum_eltwise_top_L3_b5_sum_eltwise_0_split <- L3_b5_sum_eltwise_top
I1206 09:01:47.629444 30052 net.cpp:408] L3_b5_sum_eltwise_top_L3_b5_sum_eltwise_0_split -> L3_b5_sum_eltwise_top_L3_b5_sum_eltwise_0_split_0
I1206 09:01:47.629465 30052 net.cpp:408] L3_b5_sum_eltwise_top_L3_b5_sum_eltwise_0_split -> L3_b5_sum_eltwise_top_L3_b5_sum_eltwise_0_split_1
I1206 09:01:47.629551 30052 net.cpp:150] Setting up L3_b5_sum_eltwise_top_L3_b5_sum_eltwise_0_split
I1206 09:01:47.629576 30052 net.cpp:157] Top shape: 85 256 8 8 (1392640)
I1206 09:01:47.629590 30052 net.cpp:157] Top shape: 85 256 8 8 (1392640)
I1206 09:01:47.629601 30052 net.cpp:165] Memory required for data: 2112287740
I1206 09:01:47.629611 30052 layer_factory.hpp:77] Creating layer L3_b6_brc1_bn
I1206 09:01:47.629626 30052 net.cpp:100] Creating Layer L3_b6_brc1_bn
I1206 09:01:47.629637 30052 net.cpp:434] L3_b6_brc1_bn <- L3_b5_sum_eltwise_top_L3_b5_sum_eltwise_0_split_0
I1206 09:01:47.629659 30052 net.cpp:408] L3_b6_brc1_bn -> L3_b6_brc1_bn_top
I1206 09:01:47.629961 30052 net.cpp:150] Setting up L3_b6_brc1_bn
I1206 09:01:47.629981 30052 net.cpp:157] Top shape: 85 256 8 8 (1392640)
I1206 09:01:47.629992 30052 net.cpp:165] Memory required for data: 2117858300
I1206 09:01:47.630013 30052 layer_factory.hpp:77] Creating layer L3_b6_brc1_relu
I1206 09:01:47.630034 30052 net.cpp:100] Creating Layer L3_b6_brc1_relu
I1206 09:01:47.630048 30052 net.cpp:434] L3_b6_brc1_relu <- L3_b6_brc1_bn_top
I1206 09:01:47.630064 30052 net.cpp:395] L3_b6_brc1_relu -> L3_b6_brc1_bn_top (in-place)
I1206 09:01:47.630084 30052 net.cpp:150] Setting up L3_b6_brc1_relu
I1206 09:01:47.630098 30052 net.cpp:157] Top shape: 85 256 8 8 (1392640)
I1206 09:01:47.630110 30052 net.cpp:165] Memory required for data: 2123428860
I1206 09:01:47.630120 30052 layer_factory.hpp:77] Creating layer L3_b6_brc1_conv
I1206 09:01:47.630141 30052 net.cpp:100] Creating Layer L3_b6_brc1_conv
I1206 09:01:47.630153 30052 net.cpp:434] L3_b6_brc1_conv <- L3_b6_brc1_bn_top
I1206 09:01:47.630177 30052 net.cpp:408] L3_b6_brc1_conv -> L3_b6_brc1_conv_top
I1206 09:01:47.631151 30052 net.cpp:150] Setting up L3_b6_brc1_conv
I1206 09:01:47.631171 30052 net.cpp:157] Top shape: 85 128 8 8 (696320)
I1206 09:01:47.631181 30052 net.cpp:165] Memory required for data: 2126214140
I1206 09:01:47.631199 30052 layer_factory.hpp:77] Creating layer L3_b6_brc2_bn
I1206 09:01:47.631216 30052 net.cpp:100] Creating Layer L3_b6_brc2_bn
I1206 09:01:47.631228 30052 net.cpp:434] L3_b6_brc2_bn <- L3_b6_brc1_conv_top
I1206 09:01:47.631244 30052 net.cpp:408] L3_b6_brc2_bn -> L3_b6_brc2_bn_top
I1206 09:01:47.631533 30052 net.cpp:150] Setting up L3_b6_brc2_bn
I1206 09:01:47.631558 30052 net.cpp:157] Top shape: 85 128 8 8 (696320)
I1206 09:01:47.631567 30052 net.cpp:165] Memory required for data: 2128999420
I1206 09:01:47.631589 30052 layer_factory.hpp:77] Creating layer L3_b6_brc2_relu
I1206 09:01:47.631605 30052 net.cpp:100] Creating Layer L3_b6_brc2_relu
I1206 09:01:47.631618 30052 net.cpp:434] L3_b6_brc2_relu <- L3_b6_brc2_bn_top
I1206 09:01:47.631638 30052 net.cpp:395] L3_b6_brc2_relu -> L3_b6_brc2_bn_top (in-place)
I1206 09:01:47.631659 30052 net.cpp:150] Setting up L3_b6_brc2_relu
I1206 09:01:47.631673 30052 net.cpp:157] Top shape: 85 128 8 8 (696320)
I1206 09:01:47.631685 30052 net.cpp:165] Memory required for data: 2131784700
I1206 09:01:47.631695 30052 layer_factory.hpp:77] Creating layer L3_b6_brc2_conv
I1206 09:01:47.631728 30052 net.cpp:100] Creating Layer L3_b6_brc2_conv
I1206 09:01:47.631743 30052 net.cpp:434] L3_b6_brc2_conv <- L3_b6_brc2_bn_top
I1206 09:01:47.631762 30052 net.cpp:408] L3_b6_brc2_conv -> L3_b6_brc2_conv_top
I1206 09:01:47.632196 30052 net.cpp:150] Setting up L3_b6_brc2_conv
I1206 09:01:47.632217 30052 net.cpp:157] Top shape: 85 128 8 8 (696320)
I1206 09:01:47.632226 30052 net.cpp:165] Memory required for data: 2134569980
I1206 09:01:47.632246 30052 layer_factory.hpp:77] Creating layer L3_b6_brc3_bn
I1206 09:01:47.632262 30052 net.cpp:100] Creating Layer L3_b6_brc3_bn
I1206 09:01:47.632274 30052 net.cpp:434] L3_b6_brc3_bn <- L3_b6_brc2_conv_top
I1206 09:01:47.632295 30052 net.cpp:408] L3_b6_brc3_bn -> L3_b6_brc3_bn_top
I1206 09:01:47.632571 30052 net.cpp:150] Setting up L3_b6_brc3_bn
I1206 09:01:47.632591 30052 net.cpp:157] Top shape: 85 128 8 8 (696320)
I1206 09:01:47.632601 30052 net.cpp:165] Memory required for data: 2137355260
I1206 09:01:47.632622 30052 layer_factory.hpp:77] Creating layer L3_b6_brc3_relu
I1206 09:01:47.632639 30052 net.cpp:100] Creating Layer L3_b6_brc3_relu
I1206 09:01:47.632650 30052 net.cpp:434] L3_b6_brc3_relu <- L3_b6_brc3_bn_top
I1206 09:01:47.632665 30052 net.cpp:395] L3_b6_brc3_relu -> L3_b6_brc3_bn_top (in-place)
I1206 09:01:47.632686 30052 net.cpp:150] Setting up L3_b6_brc3_relu
I1206 09:01:47.632700 30052 net.cpp:157] Top shape: 85 128 8 8 (696320)
I1206 09:01:47.632710 30052 net.cpp:165] Memory required for data: 2140140540
I1206 09:01:47.632720 30052 layer_factory.hpp:77] Creating layer L3_b6_brc3_conv
I1206 09:01:47.632745 30052 net.cpp:100] Creating Layer L3_b6_brc3_conv
I1206 09:01:47.632760 30052 net.cpp:434] L3_b6_brc3_conv <- L3_b6_brc3_bn_top
I1206 09:01:47.632782 30052 net.cpp:408] L3_b6_brc3_conv -> L3_b6_brc3_conv_top
I1206 09:01:47.633761 30052 net.cpp:150] Setting up L3_b6_brc3_conv
I1206 09:01:47.633782 30052 net.cpp:157] Top shape: 85 256 8 8 (1392640)
I1206 09:01:47.633792 30052 net.cpp:165] Memory required for data: 2145711100
I1206 09:01:47.633811 30052 layer_factory.hpp:77] Creating layer L3_b6_sum_eltwise
I1206 09:01:47.633832 30052 net.cpp:100] Creating Layer L3_b6_sum_eltwise
I1206 09:01:47.633846 30052 net.cpp:434] L3_b6_sum_eltwise <- L3_b6_brc3_conv_top
I1206 09:01:47.633859 30052 net.cpp:434] L3_b6_sum_eltwise <- L3_b5_sum_eltwise_top_L3_b5_sum_eltwise_0_split_1
I1206 09:01:47.633877 30052 net.cpp:408] L3_b6_sum_eltwise -> L3_b6_sum_eltwise_top
I1206 09:01:47.633944 30052 net.cpp:150] Setting up L3_b6_sum_eltwise
I1206 09:01:47.633963 30052 net.cpp:157] Top shape: 85 256 8 8 (1392640)
I1206 09:01:47.633973 30052 net.cpp:165] Memory required for data: 2151281660
I1206 09:01:47.633985 30052 layer_factory.hpp:77] Creating layer post_bn
I1206 09:01:47.634004 30052 net.cpp:100] Creating Layer post_bn
I1206 09:01:47.634017 30052 net.cpp:434] post_bn <- L3_b6_sum_eltwise_top
I1206 09:01:47.634033 30052 net.cpp:408] post_bn -> post_bn_top
I1206 09:01:47.634312 30052 net.cpp:150] Setting up post_bn
I1206 09:01:47.634335 30052 net.cpp:157] Top shape: 85 256 8 8 (1392640)
I1206 09:01:47.634346 30052 net.cpp:165] Memory required for data: 2156852220
I1206 09:01:47.634368 30052 layer_factory.hpp:77] Creating layer post_relu
I1206 09:01:47.634383 30052 net.cpp:100] Creating Layer post_relu
I1206 09:01:47.634397 30052 net.cpp:434] post_relu <- post_bn_top
I1206 09:01:47.634412 30052 net.cpp:395] post_relu -> post_bn_top (in-place)
I1206 09:01:47.634430 30052 net.cpp:150] Setting up post_relu
I1206 09:01:47.634446 30052 net.cpp:157] Top shape: 85 256 8 8 (1392640)
I1206 09:01:47.634456 30052 net.cpp:165] Memory required for data: 2162422780
I1206 09:01:47.634466 30052 layer_factory.hpp:77] Creating layer post_pool
I1206 09:01:47.634485 30052 net.cpp:100] Creating Layer post_pool
I1206 09:01:47.634498 30052 net.cpp:434] post_pool <- post_bn_top
I1206 09:01:47.634515 30052 net.cpp:408] post_pool -> post_pool
I1206 09:01:47.634649 30052 net.cpp:150] Setting up post_pool
I1206 09:01:47.634670 30052 net.cpp:157] Top shape: 85 256 1 1 (21760)
I1206 09:01:47.634690 30052 net.cpp:165] Memory required for data: 2162509820
I1206 09:01:47.634701 30052 layer_factory.hpp:77] Creating layer post_FC
I1206 09:01:47.634812 30052 net.cpp:100] Creating Layer post_FC
I1206 09:01:47.634829 30052 net.cpp:434] post_FC <- post_pool
I1206 09:01:47.634848 30052 net.cpp:408] post_FC -> post_FC_top
I1206 09:01:47.635159 30052 net.cpp:150] Setting up post_FC
I1206 09:01:47.635179 30052 net.cpp:157] Top shape: 85 10 (850)
I1206 09:01:47.635190 30052 net.cpp:165] Memory required for data: 2162513220
I1206 09:01:47.635208 30052 layer_factory.hpp:77] Creating layer post_FC_top_post_FC_0_split
I1206 09:01:47.635224 30052 net.cpp:100] Creating Layer post_FC_top_post_FC_0_split
I1206 09:01:47.635236 30052 net.cpp:434] post_FC_top_post_FC_0_split <- post_FC_top
I1206 09:01:47.635258 30052 net.cpp:408] post_FC_top_post_FC_0_split -> post_FC_top_post_FC_0_split_0
I1206 09:01:47.635280 30052 net.cpp:408] post_FC_top_post_FC_0_split -> post_FC_top_post_FC_0_split_1
I1206 09:01:47.635366 30052 net.cpp:150] Setting up post_FC_top_post_FC_0_split
I1206 09:01:47.635391 30052 net.cpp:157] Top shape: 85 10 (850)
I1206 09:01:47.635406 30052 net.cpp:157] Top shape: 85 10 (850)
I1206 09:01:47.635416 30052 net.cpp:165] Memory required for data: 2162520020
I1206 09:01:47.635428 30052 layer_factory.hpp:77] Creating layer accuracy
I1206 09:01:47.635493 30052 net.cpp:100] Creating Layer accuracy
I1206 09:01:47.635509 30052 net.cpp:434] accuracy <- post_FC_top_post_FC_0_split_0
I1206 09:01:47.635522 30052 net.cpp:434] accuracy <- label_dataLayer_1_split_0
I1206 09:01:47.635540 30052 net.cpp:408] accuracy -> accuracy
…
