…
I1207 05:38:14.286345  1922 net.cpp:322] The NetState phase (0) differed from the phase (1) specified by a rule in layer dataLayer
I1207 05:38:14.287935  1922 net.cpp:58] Initializing net from parameters: 
name: "Cifar-ResNeXt"
state {
  phase: TRAIN
  level: 0
  stage: ""
}
layer {
  name: "dataLayer"
  type: "Data"
  top: "data_top"
  top: "label"
  include {
    phase: TRAIN
  }
  transform_param {
    mirror: true
    crop_size: 32
    mean_file: "examples/cifar10/mean.binaryproto"
  }
  data_param {
    source: "examples/cifar10/cifar10_train_lmdb"
    batch_size: 85
    backend: LMDB
  }
  image_data_param {
    shuffle: true
  }
}
layer {
  name: "pre_conv"
  type: "Convolution"
  bottom: "data_top"
  top: "pre_conv_top"
  param {
    lr_mult: 1
    decay_mult: 1
  }
  param {
    lr_mult: 2
    decay_mult: 0
  }
  convolution_param {
    num_output: 16
    pad: 1
    kernel_size: 3
    stride: 1
    weight_filler {
      type: "msra"
    }
    bias_filler {
      type: "constant"
    }
  }
}
layer {
  name: "L1_b1_brc1_bn"
  type: "BatchNorm"
  bottom: "pre_conv_top"
  top: "L1_b1_brc1_bn_top"
  batch_norm_param {
    use_global_stats: false
    moving_average_fraction: 0.95
  }
}
layer {
  name: "L1_b1_brc1_relu"
  type: "ReLU"
  bottom: "L1_b1_brc1_bn_top"
  top: "L1_b1_brc1_bn_top"
}
layer {
  name: "L1_b1_brc1_conv"
  type: "Convolution"
  bottom: "L1_b1_brc1_bn_top"
  top: "L1_b1_brc1_conv_top"
  param {
    lr_mult: 1
    decay_mult: 1
  }
  param {
    lr_mult: 2
    decay_mult: 0
  }
  convolution_param {
    num_output: 32
    pad: 0
    kernel_size: 1
    stride: 1
    weight_filler {
      type: "msra"
    }
    bias_filler {
      type: "constant"
    }
  }
}
layer {
  name: "L1_b1_brc2_bn"
  type: "BatchNorm"
  bottom: "L1_b1_brc1_conv_top"
  top: "L1_b1_brc2_bn_top"
  batch_norm_param {
    use_global_stats: false
    moving_average_fraction: 0.95
  }
}
layer {
  name: "L1_b1_brc2_relu"
  type: "ReLU"
  bottom: "L1_b1_brc2_bn_top"
  top: "L1_b1_brc2_bn_top"
}
layer {
  name: "L1_b1_brc2_conv"
  type: "Convolution"
  bottom: "L1_b1_brc2_bn_top"
  top: "L1_b1_brc2_conv_top"
  param {
    lr_mult: 1
    decay_mult: 1
  }
  param {
    lr_mult: 2
    decay_mult: 0
  }
  convolution_param {
    num_output: 32
    pad: 1
    kernel_size: 3
    group: 32
    stride: 1
    weight_filler {
      type: "msra"
    }
    bias_filler {
      type: "constant"
    }
  }
}
layer {
  name: "L1_b1_brc3_bn"
  type: "BatchNorm"
  bottom: "L1_b1_brc2_conv_top"
  top: "L1_b1_brc3_bn_top"
  batch_norm_param {
    use_global_stats: false
    moving_average_fraction: 0.95
  }
}
layer {
  name: "L1_b1_brc3_relu"
  type: "ReLU"
  bottom: "L1_b1_brc3_bn_top"
  top: "L1_b1_brc3_bn_top"
}
layer {
  name: "L1_b1_brc3_conv"
  type: "Convolution"
  bottom: "L1_b1_brc3_bn_top"
  top: "L1_b1_brc3_conv_top"
  param {
    lr_mult: 1
    decay_mult: 1
  }
  param {
    lr_mult: 2
    decay_mult: 0
  }
  convolution_param {
    num_output: 64
    pad: 0
    kernel_size: 1
    stride: 1
    weight_filler {
      type: "msra"
    }
    bias_filler {
      type: "constant"
    }
  }
}
layer {
  name: "L1_b1_chanInc_conv"
  type: "Convolution"
  bottom: "pre_conv_top"
  top: "L1_b1_chanInc_conv_top"
  param {
    lr_mult: 1
    decay_mult: 1
  }
  param {
    lr_mult: 2
    decay_mult: 0
  }
  convolution_param {
    num_output: 64
    pad: 0
    kernel_size: 1
    stride: 1
    weight_filler {
      type: "msra"
    }
    bias_filler {
      type: "constant"
    }
  }
}
layer {
  name: "L1_b1_sum_eltwise"
  type: "Eltwise"
  bottom: "L1_b1_brc3_conv_top"
  bottom: "L1_b1_chanInc_conv_top"
  top: "L1_b1_sum_eltwise_top"
  eltwise_param {
    operation: SUM
  }
}
layer {
  name: "L1_b2_brc1_bn"
  type: "BatchNorm"
  bottom: "L1_b1_sum_eltwise_top"
  top: "L1_b2_brc1_bn_top"
  batch_norm_param {
    use_global_stats: false
    moving_average_fraction: 0.95
  }
}
layer {
  name: "L1_b2_brc1_relu"
  type: "ReLU"
  bottom: "L1_b2_brc1_bn_top"
  top: "L1_b2_brc1_bn_top"
}
layer {
  name: "L1_b2_brc1_conv"
  type: "Convolution"
  bottom: "L1_b2_brc1_bn_top"
  top: "L1_b2_brc1_conv_top"
  param {
    lr_mult: 1
    decay_mult: 1
  }
  param {
    lr_mult: 2
    decay_mult: 0
  }
  convolution_param {
    num_output: 32
    pad: 0
    kernel_size: 1
    stride: 1
    weight_filler {
      type: "msra"
    }
    bias_filler {
      type: "constant"
    }
  }
}
layer {
  name: "L1_b2_brc2_bn"
  type: "BatchNorm"
  bottom: "L1_b2_brc1_conv_top"
  top: "L1_b2_brc2_bn_top"
  batch_norm_param {
    use_global_stats: false
    moving_average_fraction: 0.95
  }
}
layer {
  name: "L1_b2_brc2_relu"
  type: "ReLU"
  bottom: "L1_b2_brc2_bn_top"
  top: "L1_b2_brc2_bn_top"
}
layer {
  name: "L1_b2_brc2_conv"
  type: "Convolution"
  bottom: "L1_b2_brc2_bn_top"
  top: "L1_b2_brc2_conv_top"
  param {
    lr_mult: 1
    decay_mult: 1
  }
  param {
    lr_mult: 2
    decay_mult: 0
  }
  convolution_param {
    num_output: 32
    pad: 1
    kernel_size: 3
    group: 32
    stride: 1
    weight_filler {
      type: "msra"
    }
    bias_filler {
      type: "constant"
    }
  }
}
layer {
  name: "L1_b2_brc3_bn"
  type: "BatchNorm"
  bottom: "L1_b2_brc2_conv_top"
  top: "L1_b2_brc3_bn_top"
  batch_norm_param {
    use_global_stats: false
    moving_average_fraction: 0.95
  }
}
layer {
  name: "L1_b2_brc3_relu"
  type: "ReLU"
  bottom: "L1_b2_brc3_bn_top"
  top: "L1_b2_brc3_bn_top"
}
layer {
  name: "L1_b2_brc3_conv"
  type: "Convolution"
  bottom: "L1_b2_brc3_bn_top"
  top: "L1_b2_brc3_conv_top"
  param {
    lr_mult: 1
    decay_mult: 1
  }
  param {
    lr_mult: 2
    decay_mult: 0
  }
  convolution_param {
    num_output: 64
    pad: 0
    kernel_size: 1
    stride: 1
    weight_filler {
      type: "msra"
    }
    bias_filler {
      type: "constant"
    }
  }
}
layer {
  name: "L1_b2_sum_eltwise"
  type: "Eltwise"
  bottom: "L1_b2_brc3_conv_top"
  bottom: "L1_b1_sum_eltwise_top"
  top: "L1_b2_sum_eltwise_top"
  eltwise_param {
    operation: SUM
  }
}
layer {
  name: "L1_b3_brc1_bn"
  type: "BatchNorm"
  bottom: "L1_b2_sum_eltwise_top"
  top: "L1_b3_brc1_bn_top"
  batch_norm_param {
    use_global_stats: false
    moving_average_fraction: 0.95
  }
}
layer {
  name: "L1_b3_brc1_relu"
  type: "ReLU"
  bottom: "L1_b3_brc1_bn_top"
  top: "L1_b3_brc1_bn_top"
}
layer {
  name: "L1_b3_brc1_conv"
  type: "Convolution"
  bottom: "L1_b3_brc1_bn_top"
  top: "L1_b3_brc1_conv_top"
  param {
    lr_mult: 1
    decay_mult: 1
  }
  param {
    lr_mult: 2
    decay_mult: 0
  }
  convolution_param {
    num_output: 32
    pad: 0
    kernel_size: 1
    stride: 1
    weight_filler {
      type: "msra"
    }
    bias_filler {
      type: "constant"
    }
  }
}
layer {
  name: "L1_b3_brc2_bn"
  type: "BatchNorm"
  bottom: "L1_b3_brc1_conv_top"
  top: "L1_b3_brc2_bn_top"
  batch_norm_param {
    use_global_stats: false
    moving_average_fraction: 0.95
  }
}
layer {
  name: "L1_b3_brc2_relu"
  type: "ReLU"
  bottom: "L1_b3_brc2_bn_top"
  top: "L1_b3_brc2_bn_top"
}
layer {
  name: "L1_b3_brc2_conv"
  type: "Convolution"
  bottom: "L1_b3_brc2_bn_top"
  top: "L1_b3_brc2_conv_top"
  param {
    lr_mult: 1
    decay_mult: 1
  }
  param {
    lr_mult: 2
    decay_mult: 0
  }
  convolution_param {
    num_output: 32
    pad: 1
    kernel_size: 3
    group: 32
    stride: 1
    weight_filler {
      type: "msra"
    }
    bias_filler {
      type: "constant"
    }
  }
}
layer {
  name: "L1_b3_brc3_bn"
  type: "BatchNorm"
  bottom: "L1_b3_brc2_conv_top"
  top: "L1_b3_brc3_bn_top"
  batch_norm_param {
    use_global_stats: false
    moving_average_fraction: 0.95
  }
}
layer {
  name: "L1_b3_brc3_relu"
  type: "ReLU"
  bottom: "L1_b3_brc3_bn_top"
  top: "L1_b3_brc3_bn_top"
}
layer {
  name: "L1_b3_brc3_conv"
  type: "Convolution"
  bottom: "L1_b3_brc3_bn_top"
  top: "L1_b3_brc3_conv_top"
  param {
    lr_mult: 1
    decay_mult: 1
  }
  param {
    lr_mult: 2
    decay_mult: 0
  }
  convolution_param {
    num_output: 64
    pad: 0
    kernel_size: 1
    stride: 1
    weight_filler {
      type: "msra"
    }
    bias_filler {
      type: "constant"
    }
  }
}
layer {
  name: "L1_b3_sum_eltwise"
  type: "Eltwise"
  bottom: "L1_b3_brc3_conv_top"
  bottom: "L1_b2_sum_eltwise_top"
  top: "L1_b3_sum_eltwise_top"
  eltwise_param {
    operation: SUM
  }
}
layer {
  name: "L1_b4_brc1_bn"
  type: "BatchNorm"
  bottom: "L1_b3_sum_eltwise_top"
  top: "L1_b4_brc1_bn_top"
  batch_norm_param {
    use_global_stats: false
    moving_average_fraction: 0.95
  }
}
layer {
  name: "L1_b4_brc1_relu"
  type: "ReLU"
  bottom: "L1_b4_brc1_bn_top"
  top: "L1_b4_brc1_bn_top"
}
layer {
  name: "L1_b4_brc1_conv"
  type: "Convolution"
  bottom: "L1_b4_brc1_bn_top"
  top: "L1_b4_brc1_conv_top"
  param {
    lr_mult: 1
    decay_mult: 1
  }
  param {
    lr_mult: 2
    decay_mult: 0
  }
  convolution_param {
    num_output: 32
    pad: 0
    kernel_size: 1
    stride: 1
    weight_filler {
      type: "msra"
    }
    bias_filler {
      type: "constant"
    }
  }
}
layer {
  name: "L1_b4_brc2_bn"
  type: "BatchNorm"
  bottom: "L1_b4_brc1_conv_top"
  top: "L1_b4_brc2_bn_top"
  batch_norm_param {
    use_global_stats: false
    moving_average_fraction: 0.95
  }
}
layer {
  name: "L1_b4_brc2_relu"
  type: "ReLU"
  bottom: "L1_b4_brc2_bn_top"
  top: "L1_b4_brc2_bn_top"
}
layer {
  name: "L1_b4_brc2_conv"
  type: "Convolution"
  bottom: "L1_b4_brc2_bn_top"
  top: "L1_b4_brc2_conv_top"
  param {
    lr_mult: 1
    decay_mult: 1
  }
  param {
    lr_mult: 2
    decay_mult: 0
  }
  convolution_param {
    num_output: 32
    pad: 1
    kernel_size: 3
    group: 32
    stride: 1
    weight_filler {
      type: "msra"
    }
    bias_filler {
      type: "constant"
    }
  }
}
layer {
  name: "L1_b4_brc3_bn"
  type: "BatchNorm"
  bottom: "L1_b4_brc2_conv_top"
  top: "L1_b4_brc3_bn_top"
  batch_norm_param {
    use_global_stats: false
    moving_average_fraction: 0.95
  }
}
layer {
  name: "L1_b4_brc3_relu"
  type: "ReLU"
  bottom: "L1_b4_brc3_bn_top"
  top: "L1_b4_brc3_bn_top"
}
layer {
  name: "L1_b4_brc3_conv"
  type: "Convolution"
  bottom: "L1_b4_brc3_bn_top"
  top: "L1_b4_brc3_conv_top"
  param {
    lr_mult: 1
    decay_mult: 1
  }
  param {
    lr_mult: 2
    decay_mult: 0
  }
  convolution_param {
    num_output: 64
    pad: 0
    kernel_size: 1
    stride: 1
    weight_filler {
      type: "msra"
    }
    bias_filler {
      type: "constant"
    }
  }
}
layer {
  name: "L1_b4_sum_eltwise"
  type: "Eltwise"
  bottom: "L1_b4_brc3_conv_top"
  bottom: "L1_b3_sum_eltwise_top"
  top: "L1_b4_sum_eltwise_top"
  eltwise_param {
    operation: SUM
  }
}
layer {
  name: "L1_b5_brc1_bn"
  type: "BatchNorm"
  bottom: "L1_b4_sum_eltwise_top"
  top: "L1_b5_brc1_bn_top"
  batch_norm_param {
    use_global_stats: false
    moving_average_fraction: 0.95
  }
}
layer {
  name: "L1_b5_brc1_relu"
  type: "ReLU"
  bottom: "L1_b5_brc1_bn_top"
  top: "L1_b5_brc1_bn_top"
}
layer {
  name: "L1_b5_brc1_conv"
  type: "Convolution"
  bottom: "L1_b5_brc1_bn_top"
  top: "L1_b5_brc1_conv_top"
  param {
    lr_mult: 1
    decay_mult: 1
  }
  param {
    lr_mult: 2
    decay_mult: 0
  }
  convolution_param {
    num_output: 32
    pad: 0
    kernel_size: 1
    stride: 1
    weight_filler {
      type: "msra"
    }
    bias_filler {
      type: "constant"
    }
  }
}
layer {
  name: "L1_b5_brc2_bn"
  type: "BatchNorm"
  bottom: "L1_b5_brc1_conv_top"
  top: "L1_b5_brc2_bn_top"
  batch_norm_param {
    use_global_stats: false
    moving_average_fraction: 0.95
  }
}
layer {
  name: "L1_b5_brc2_relu"
  type: "ReLU"
  bottom: "L1_b5_brc2_bn_top"
  top: "L1_b5_brc2_bn_top"
}
layer {
  name: "L1_b5_brc2_conv"
  type: "Convolution"
  bottom: "L1_b5_brc2_bn_top"
  top: "L1_b5_brc2_conv_top"
  param {
    lr_mult: 1
    decay_mult: 1
  }
  param {
    lr_mult: 2
    decay_mult: 0
  }
  convolution_param {
    num_output: 32
    pad: 1
    kernel_size: 3
    group: 32
    stride: 1
    weight_filler {
      type: "msra"
    }
    bias_filler {
      type: "constant"
    }
  }
}
layer {
  name: "L1_b5_brc3_bn"
  type: "BatchNorm"
  bottom: "L1_b5_brc2_conv_top"
  top: "L1_b5_brc3_bn_top"
  batch_norm_param {
    use_global_stats: false
    moving_average_fraction: 0.95
  }
}
layer {
  name: "L1_b5_brc3_relu"
  type: "ReLU"
  bottom: "L1_b5_brc3_bn_top"
  top: "L1_b5_brc3_bn_top"
}
layer {
  name: "L1_b5_brc3_conv"
  type: "Convolution"
  bottom: "L1_b5_brc3_bn_top"
  top: "L1_b5_brc3_conv_top"
  param {
    lr_mult: 1
    decay_mult: 1
  }
  param {
    lr_mult: 2
    decay_mult: 0
  }
  convolution_param {
    num_output: 64
    pad: 0
    kernel_size: 1
    stride: 1
    weight_filler {
      type: "msra"
    }
    bias_filler {
      type: "constant"
    }
  }
}
layer {
  name: "L1_b5_sum_eltwise"
  type: "Eltwise"
  bottom: "L1_b5_brc3_conv_top"
  bottom: "L1_b4_sum_eltwise_top"
  top: "L1_b5_sum_eltwise_top"
  eltwise_param {
    operation: SUM
  }
}
layer {
  name: "L1_b6_brc1_bn"
  type: "BatchNorm"
  bottom: "L1_b5_sum_eltwise_top"
  top: "L1_b6_brc1_bn_top"
  batch_norm_param {
    use_global_stats: false
    moving_average_fraction: 0.95
  }
}
layer {
  name: "L1_b6_brc1_relu"
  type: "ReLU"
  bottom: "L1_b6_brc1_bn_top"
  top: "L1_b6_brc1_bn_top"
}
layer {
  name: "L1_b6_brc1_conv"
  type: "Convolution"
  bottom: "L1_b6_brc1_bn_top"
  top: "L1_b6_brc1_conv_top"
  param {
    lr_mult: 1
    decay_mult: 1
  }
  param {
    lr_mult: 2
    decay_mult: 0
  }
  convolution_param {
    num_output: 32
    pad: 0
    kernel_size: 1
    stride: 1
    weight_filler {
      type: "msra"
    }
    bias_filler {
      type: "constant"
    }
  }
}
layer {
  name: "L1_b6_brc2_bn"
  type: "BatchNorm"
  bottom: "L1_b6_brc1_conv_top"
  top: "L1_b6_brc2_bn_top"
  batch_norm_param {
    use_global_stats: false
    moving_average_fraction: 0.95
  }
}
layer {
  name: "L1_b6_brc2_relu"
  type: "ReLU"
  bottom: "L1_b6_brc2_bn_top"
  top: "L1_b6_brc2_bn_top"
}
layer {
  name: "L1_b6_brc2_conv"
  type: "Convolution"
  bottom: "L1_b6_brc2_bn_top"
  top: "L1_b6_brc2_conv_top"
  param {
    lr_mult: 1
    decay_mult: 1
  }
  param {
    lr_mult: 2
    decay_mult: 0
  }
  convolution_param {
    num_output: 32
    pad: 1
    kernel_size: 3
    group: 32
    stride: 1
    weight_filler {
      type: "msra"
    }
    bias_filler {
      type: "constant"
    }
  }
}
layer {
  name: "L1_b6_brc3_bn"
  type: "BatchNorm"
  bottom: "L1_b6_brc2_conv_top"
  top: "L1_b6_brc3_bn_top"
  batch_norm_param {
    use_global_stats: false
    moving_average_fraction: 0.95
  }
}
layer {
  name: "L1_b6_brc3_relu"
  type: "ReLU"
  bottom: "L1_b6_brc3_bn_top"
  top: "L1_b6_brc3_bn_top"
}
layer {
  name: "L1_b6_brc3_conv"
  type: "Convolution"
  bottom: "L1_b6_brc3_bn_top"
  top: "L1_b6_brc3_conv_top"
  param {
    lr_mult: 1
    decay_mult: 1
  }
  param {
    lr_mult: 2
    decay_mult: 0
  }
  convolution_param {
    num_output: 64
    pad: 0
    kernel_size: 1
    stride: 1
    weight_filler {
      type: "msra"
    }
    bias_filler {
      type: "constant"
    }
  }
}
layer {
  name: "L1_b6_sum_eltwise"
  type: "Eltwise"
  bottom: "L1_b6_brc3_conv_top"
  bottom: "L1_b5_sum_eltwise_top"
  top: "L1_b6_sum_eltwise_top"
  eltwise_param {
    operation: SUM
  }
}
layer {
  name: "L2_b1_brc1_bn"
  type: "BatchNorm"
  bottom: "L1_b6_sum_eltwise_top"
  top: "L2_b1_brc1_bn_top"
  batch_norm_param {
    use_global_stats: false
    moving_average_fraction: 0.95
  }
}
layer {
  name: "L2_b1_brc1_relu"
  type: "ReLU"
  bottom: "L2_b1_brc1_bn_top"
  top: "L2_b1_brc1_bn_top"
}
layer {
  name: "L2_b1_brc1_conv"
  type: "Convolution"
  bottom: "L2_b1_brc1_bn_top"
  top: "L2_b1_brc1_conv_top"
  param {
    lr_mult: 1
    decay_mult: 1
  }
  param {
    lr_mult: 2
    decay_mult: 0
  }
  convolution_param {
    num_output: 64
    pad: 0
    kernel_size: 1
    stride: 2
    weight_filler {
      type: "msra"
    }
    bias_filler {
      type: "constant"
    }
  }
}
layer {
  name: "L2_b1_brc2_bn"
  type: "BatchNorm"
  bottom: "L2_b1_brc1_conv_top"
  top: "L2_b1_brc2_bn_top"
  batch_norm_param {
    use_global_stats: false
    moving_average_fraction: 0.95
  }
}
layer {
  name: "L2_b1_brc2_relu"
  type: "ReLU"
  bottom: "L2_b1_brc2_bn_top"
  top: "L2_b1_brc2_bn_top"
}
layer {
  name: "L2_b1_brc2_conv"
  type: "Convolution"
  bottom: "L2_b1_brc2_bn_top"
  top: "L2_b1_brc2_conv_top"
  param {
    lr_mult: 1
    decay_mult: 1
  }
  param {
    lr_mult: 2
    decay_mult: 0
  }
  convolution_param {
    num_output: 64
    pad: 1
    kernel_size: 3
    group: 32
    stride: 1
    weight_filler {
      type: "msra"
    }
    bias_filler {
      type: "constant"
    }
  }
}
layer {
  name: "L2_b1_brc3_bn"
  type: "BatchNorm"
  bottom: "L2_b1_brc2_conv_top"
  top: "L2_b1_brc3_bn_top"
  batch_norm_param {
    use_global_stats: false
    moving_average_fraction: 0.95
  }
}
layer {
  name: "L2_b1_brc3_relu"
  type: "ReLU"
  bottom: "L2_b1_brc3_bn_top"
  top: "L2_b1_brc3_bn_top"
}
layer {
  name: "L2_b1_brc3_conv"
  type: "Convolution"
  bottom: "L2_b1_brc3_bn_top"
  top: "L2_b1_brc3_conv_top"
  param {
    lr_mult: 1
    decay_mult: 1
  }
  param {
    lr_mult: 2
    decay_mult: 0
  }
  convolution_param {
    num_output: 128
    pad: 0
    kernel_size: 1
    stride: 1
    weight_filler {
      type: "msra"
    }
    bias_filler {
      type: "constant"
    }
  }
}
layer {
  name: "L2_b1_chanInc_conv"
  type: "Convolution"
  bottom: "L1_b6_sum_eltwise_top"
  top: "L2_b1_chanInc_conv_top"
  param {
    lr_mult: 1
    decay_mult: 1
  }
  param {
    lr_mult: 2
    decay_mult: 0
  }
  convolution_param {
    num_output: 128
    pad: 0
    kernel_size: 1
    stride: 2
    weight_filler {
      type: "msra"
    }
    bias_filler {
      type: "constant"
    }
  }
}
layer {
  name: "L2_b1_sum_eltwise"
  type: "Eltwise"
  bottom: "L2_b1_brc3_conv_top"
  bottom: "L2_b1_chanInc_conv_top"
  top: "L2_b1_sum_eltwise_top"
  eltwise_param {
    operation: SUM
  }
}
layer {
  name: "L2_b2_brc1_bn"
  type: "BatchNorm"
  bottom: "L2_b1_sum_eltwise_top"
  top: "L2_b2_brc1_bn_top"
  batch_norm_param {
    use_global_stats: false
    moving_average_fraction: 0.95
  }
}
layer {
  name: "L2_b2_brc1_relu"
  type: "ReLU"
  bottom: "L2_b2_brc1_bn_top"
  top: "L2_b2_brc1_bn_top"
}
layer {
  name: "L2_b2_brc1_conv"
  type: "Convolution"
  bottom: "L2_b2_brc1_bn_top"
  top: "L2_b2_brc1_conv_top"
  param {
    lr_mult: 1
    decay_mult: 1
  }
  param {
    lr_mult: 2
    decay_mult: 0
  }
  convolution_param {
    num_output: 64
    pad: 0
    kernel_size: 1
    stride: 1
    weight_filler {
      type: "msra"
    }
    bias_filler {
      type: "constant"
    }
  }
}
layer {
  name: "L2_b2_brc2_bn"
  type: "BatchNorm"
  bottom: "L2_b2_brc1_conv_top"
  top: "L2_b2_brc2_bn_top"
  batch_norm_param {
    use_global_stats: false
    moving_average_fraction: 0.95
  }
}
layer {
  name: "L2_b2_brc2_relu"
  type: "ReLU"
  bottom: "L2_b2_brc2_bn_top"
  top: "L2_b2_brc2_bn_top"
}
layer {
  name: "L2_b2_brc2_conv"
  type: "Convolution"
  bottom: "L2_b2_brc2_bn_top"
  top: "L2_b2_brc2_conv_top"
  param {
    lr_mult: 1
    decay_mult: 1
  }
  param {
    lr_mult: 2
    decay_mult: 0
  }
  convolution_param {
    num_output: 64
    pad: 1
    kernel_size: 3
    group: 32
    stride: 1
    weight_filler {
      type: "msra"
    }
    bias_filler {
      type: "constant"
    }
  }
}
layer {
  name: "L2_b2_brc3_bn"
  type: "BatchNorm"
  bottom: "L2_b2_brc2_conv_top"
  top: "L2_b2_brc3_bn_top"
  batch_norm_param {
    use_global_stats: false
    moving_average_fraction: 0.95
  }
}
layer {
  name: "L2_b2_brc3_relu"
  type: "ReLU"
  bottom: "L2_b2_brc3_bn_top"
  top: "L2_b2_brc3_bn_top"
}
layer {
  name: "L2_b2_brc3_conv"
  type: "Convolution"
  bottom: "L2_b2_brc3_bn_top"
  top: "L2_b2_brc3_conv_top"
  param {
    lr_mult: 1
    decay_mult: 1
  }
  param {
    lr_mult: 2
    decay_mult: 0
  }
  convolution_param {
    num_output: 128
    pad: 0
    kernel_size: 1
    stride: 1
    weight_filler {
      type: "msra"
    }
    bias_filler {
      type: "constant"
    }
  }
}
layer {
  name: "L2_b2_sum_eltwise"
  type: "Eltwise"
  bottom: "L2_b2_brc3_conv_top"
  bottom: "L2_b1_sum_eltwise_top"
  top: "L2_b2_sum_eltwise_top"
  eltwise_param {
    operation: SUM
  }
}
layer {
  name: "L2_b3_brc1_bn"
  type: "BatchNorm"
  bottom: "L2_b2_sum_eltwise_top"
  top: "L2_b3_brc1_bn_top"
  batch_norm_param {
    use_global_stats: false
    moving_average_fraction: 0.95
  }
}
layer {
  name: "L2_b3_brc1_relu"
  type: "ReLU"
  bottom: "L2_b3_brc1_bn_top"
  top: "L2_b3_brc1_bn_top"
}
layer {
  name: "L2_b3_brc1_conv"
  type: "Convolution"
  bottom: "L2_b3_brc1_bn_top"
  top: "L2_b3_brc1_conv_top"
  param {
    lr_mult: 1
    decay_mult: 1
  }
  param {
    lr_mult: 2
    decay_mult: 0
  }
  convolution_param {
    num_output: 64
    pad: 0
    kernel_size: 1
    stride: 1
    weight_filler {
      type: "msra"
    }
    bias_filler {
      type: "constant"
    }
  }
}
layer {
  name: "L2_b3_brc2_bn"
  type: "BatchNorm"
  bottom: "L2_b3_brc1_conv_top"
  top: "L2_b3_brc2_bn_top"
  batch_norm_param {
    use_global_stats: false
    moving_average_fraction: 0.95
  }
}
layer {
  name: "L2_b3_brc2_relu"
  type: "ReLU"
  bottom: "L2_b3_brc2_bn_top"
  top: "L2_b3_brc2_bn_top"
}
layer {
  name: "L2_b3_brc2_conv"
  type: "Convolution"
  bottom: "L2_b3_brc2_bn_top"
  top: "L2_b3_brc2_conv_top"
  param {
    lr_mult: 1
    decay_mult: 1
  }
  param {
    lr_mult: 2
    decay_mult: 0
  }
  convolution_param {
    num_output: 64
    pad: 1
    kernel_size: 3
    group: 32
    stride: 1
    weight_filler {
      type: "msra"
    }
    bias_filler {
      type: "constant"
    }
  }
}
layer {
  name: "L2_b3_brc3_bn"
  type: "BatchNorm"
  bottom: "L2_b3_brc2_conv_top"
  top: "L2_b3_brc3_bn_top"
  batch_norm_param {
    use_global_stats: false
    moving_average_fraction: 0.95
  }
}
layer {
  name: "L2_b3_brc3_relu"
  type: "ReLU"
  bottom: "L2_b3_brc3_bn_top"
  top: "L2_b3_brc3_bn_top"
}
layer {
  name: "L2_b3_brc3_conv"
  type: "Convolution"
  bottom: "L2_b3_brc3_bn_top"
  top: "L2_b3_brc3_conv_top"
  param {
    lr_mult: 1
    decay_mult: 1
  }
  param {
    lr_mult: 2
    decay_mult: 0
  }
  convolution_param {
    num_output: 128
    pad: 0
    kernel_size: 1
    stride: 1
    weight_filler {
      type: "msra"
    }
    bias_filler {
      type: "constant"
    }
  }
}
layer {
  name: "L2_b3_sum_eltwise"
  type: "Eltwise"
  bottom: "L2_b3_brc3_conv_top"
  bottom: "L2_b2_sum_eltwise_top"
  top: "L2_b3_sum_eltwise_top"
  eltwise_param {
    operation: SUM
  }
}
layer {
  name: "L2_b4_brc1_bn"
  type: "BatchNorm"
  bottom: "L2_b3_sum_eltwise_top"
  top: "L2_b4_brc1_bn_top"
  batch_norm_param {
    use_global_stats: false
    moving_average_fraction: 0.95
  }
}
layer {
  name: "L2_b4_brc1_relu"
  type: "ReLU"
  bottom: "L2_b4_brc1_bn_top"
  top: "L2_b4_brc1_bn_top"
}
layer {
  name: "L2_b4_brc1_conv"
  type: "Convolution"
  bottom: "L2_b4_brc1_bn_top"
  top: "L2_b4_brc1_conv_top"
  param {
    lr_mult: 1
    decay_mult: 1
  }
  param {
    lr_mult: 2
    decay_mult: 0
  }
  convolution_param {
    num_output: 64
    pad: 0
    kernel_size: 1
    stride: 1
    weight_filler {
      type: "msra"
    }
    bias_filler {
      type: "constant"
    }
  }
}
layer {
  name: "L2_b4_brc2_bn"
  type: "BatchNorm"
  bottom: "L2_b4_brc1_conv_top"
  top: "L2_b4_brc2_bn_top"
  batch_norm_param {
    use_global_stats: false
    moving_average_fraction: 0.95
  }
}
layer {
  name: "L2_b4_brc2_relu"
  type: "ReLU"
  bottom: "L2_b4_brc2_bn_top"
  top: "L2_b4_brc2_bn_top"
}
layer {
  name: "L2_b4_brc2_conv"
  type: "Convolution"
  bottom: "L2_b4_brc2_bn_top"
  top: "L2_b4_brc2_conv_top"
  param {
    lr_mult: 1
    decay_mult: 1
  }
  param {
    lr_mult: 2
    decay_mult: 0
  }
  convolution_param {
    num_output: 64
    pad: 1
    kernel_size: 3
    group: 32
    stride: 1
    weight_filler {
      type: "msra"
    }
    bias_filler {
      type: "constant"
    }
  }
}
layer {
  name: "L2_b4_brc3_bn"
  type: "BatchNorm"
  bottom: "L2_b4_brc2_conv_top"
  top: "L2_b4_brc3_bn_top"
  batch_norm_param {
    use_global_stats: false
    moving_average_fraction: 0.95
  }
}
layer {
  name: "L2_b4_brc3_relu"
  type: "ReLU"
  bottom: "L2_b4_brc3_bn_top"
  top: "L2_b4_brc3_bn_top"
}
layer {
  name: "L2_b4_brc3_conv"
  type: "Convolution"
  bottom: "L2_b4_brc3_bn_top"
  top: "L2_b4_brc3_conv_top"
  param {
    lr_mult: 1
    decay_mult: 1
  }
  param {
    lr_mult: 2
    decay_mult: 0
  }
  convolution_param {
    num_output: 128
    pad: 0
    kernel_size: 1
    stride: 1
    weight_filler {
      type: "msra"
    }
    bias_filler {
      type: "constant"
    }
  }
}
layer {
  name: "L2_b4_sum_eltwise"
  type: "Eltwise"
  bottom: "L2_b4_brc3_conv_top"
  bottom: "L2_b3_sum_eltwise_top"
  top: "L2_b4_sum_eltwise_top"
  eltwise_param {
    operation: SUM
  }
}
layer {
  name: "L2_b5_brc1_bn"
  type: "BatchNorm"
  bottom: "L2_b4_sum_eltwise_top"
  top: "L2_b5_brc1_bn_top"
  batch_norm_param {
    use_global_stats: false
    moving_average_fraction: 0.95
  }
}
layer {
  name: "L2_b5_brc1_relu"
  type: "ReLU"
  bottom: "L2_b5_brc1_bn_top"
  top: "L2_b5_brc1_bn_top"
}
layer {
  name: "L2_b5_brc1_conv"
  type: "Convolution"
  bottom: "L2_b5_brc1_bn_top"
  top: "L2_b5_brc1_conv_top"
  param {
    lr_mult: 1
    decay_mult: 1
  }
  param {
    lr_mult: 2
    decay_mult: 0
  }
  convolution_param {
    num_output: 64
    pad: 0
    kernel_size: 1
    stride: 1
    weight_filler {
      type: "msra"
    }
    bias_filler {
      type: "constant"
    }
  }
}
layer {
  name: "L2_b5_brc2_bn"
  type: "BatchNorm"
  bottom: "L2_b5_brc1_conv_top"
  top: "L2_b5_brc2_bn_top"
  batch_norm_param {
    use_global_stats: false
    moving_average_fraction: 0.95
  }
}
layer {
  name: "L2_b5_brc2_relu"
  type: "ReLU"
  bottom: "L2_b5_brc2_bn_top"
  top: "L2_b5_brc2_bn_top"
}
layer {
  name: "L2_b5_brc2_conv"
  type: "Convolution"
  bottom: "L2_b5_brc2_bn_top"
  top: "L2_b5_brc2_conv_top"
  param {
    lr_mult: 1
    decay_mult: 1
  }
  param {
    lr_mult: 2
    decay_mult: 0
  }
  convolution_param {
    num_output: 64
    pad: 1
    kernel_size: 3
    group: 32
    stride: 1
    weight_filler {
      type: "msra"
    }
    bias_filler {
      type: "constant"
    }
  }
}
layer {
  name: "L2_b5_brc3_bn"
  type: "BatchNorm"
  bottom: "L2_b5_brc2_conv_top"
  top: "L2_b5_brc3_bn_top"
  batch_norm_param {
    use_global_stats: false
    moving_average_fraction: 0.95
  }
}
layer {
  name: "L2_b5_brc3_relu"
  type: "ReLU"
  bottom: "L2_b5_brc3_bn_top"
  top: "L2_b5_brc3_bn_top"
}
layer {
  name: "L2_b5_brc3_conv"
  type: "Convolution"
  bottom: "L2_b5_brc3_bn_top"
  top: "L2_b5_brc3_conv_top"
  param {
    lr_mult: 1
    decay_mult: 1
  }
  param {
    lr_mult: 2
    decay_mult: 0
  }
  convolution_param {
    num_output: 128
    pad: 0
    kernel_size: 1
    stride: 1
    weight_filler {
      type: "msra"
    }
    bias_filler {
      type: "constant"
    }
  }
}
layer {
  name: "L2_b5_sum_eltwise"
  type: "Eltwise"
  bottom: "L2_b5_brc3_conv_top"
  bottom: "L2_b4_sum_eltwise_top"
  top: "L2_b5_sum_eltwise_top"
  eltwise_param {
    operation: SUM
  }
}
layer {
  name: "L2_b6_brc1_bn"
  type: "BatchNorm"
  bottom: "L2_b5_sum_eltwise_top"
  top: "L2_b6_brc1_bn_top"
  batch_norm_param {
    use_global_stats: false
    moving_average_fraction: 0.95
  }
}
layer {
  name: "L2_b6_brc1_relu"
  type: "ReLU"
  bottom: "L2_b6_brc1_bn_top"
  top: "L2_b6_brc1_bn_top"
}
layer {
  name: "L2_b6_brc1_conv"
  type: "Convolution"
  bottom: "L2_b6_brc1_bn_top"
  top: "L2_b6_brc1_conv_top"
  param {
    lr_mult: 1
    decay_mult: 1
  }
  param {
    lr_mult: 2
    decay_mult: 0
  }
  convolution_param {
    num_output: 64
    pad: 0
    kernel_size: 1
    stride: 1
    weight_filler {
      type: "msra"
    }
    bias_filler {
      type: "constant"
    }
  }
}
layer {
  name: "L2_b6_brc2_bn"
  type: "BatchNorm"
  bottom: "L2_b6_brc1_conv_top"
  top: "L2_b6_brc2_bn_top"
  batch_norm_param {
    use_global_stats: false
    moving_average_fraction: 0.95
  }
}
layer {
  name: "L2_b6_brc2_relu"
  type: "ReLU"
  bottom: "L2_b6_brc2_bn_top"
  top: "L2_b6_brc2_bn_top"
}
layer {
  name: "L2_b6_brc2_conv"
  type: "Convolution"
  bottom: "L2_b6_brc2_bn_top"
  top: "L2_b6_brc2_conv_top"
  param {
    lr_mult: 1
    decay_mult: 1
  }
  param {
    lr_mult: 2
    decay_mult: 0
  }
  convolution_param {
    num_output: 64
    pad: 1
    kernel_size: 3
    group: 32
    stride: 1
    weight_filler {
      type: "msra"
    }
    bias_filler {
      type: "constant"
    }
  }
}
layer {
  name: "L2_b6_brc3_bn"
  type: "BatchNorm"
  bottom: "L2_b6_brc2_conv_top"
  top: "L2_b6_brc3_bn_top"
  batch_norm_param {
    use_global_stats: false
    moving_average_fraction: 0.95
  }
}
layer {
  name: "L2_b6_brc3_relu"
  type: "ReLU"
  bottom: "L2_b6_brc3_bn_top"
  top: "L2_b6_brc3_bn_top"
}
layer {
  name: "L2_b6_brc3_conv"
  type: "Convolution"
  bottom: "L2_b6_brc3_bn_top"
  top: "L2_b6_brc3_conv_top"
  param {
    lr_mult: 1
    decay_mult: 1
  }
  param {
    lr_mult: 2
    decay_mult: 0
  }
  convolution_param {
    num_output: 128
    pad: 0
    kernel_size: 1
    stride: 1
    weight_filler {
      type: "msra"
    }
    bias_filler {
      type: "constant"
    }
  }
}
layer {
  name: "L2_b6_sum_eltwise"
  type: "Eltwise"
  bottom: "L2_b6_brc3_conv_top"
  bottom: "L2_b5_sum_eltwise_top"
  top: "L2_b6_sum_eltwise_top"
  eltwise_param {
    operation: SUM
  }
}
layer {
  name: "L3_b1_brc1_bn"
  type: "BatchNorm"
  bottom: "L2_b6_sum_eltwise_top"
  top: "L3_b1_brc1_bn_top"
  batch_norm_param {
    use_global_stats: false
    moving_average_fraction: 0.95
  }
}
layer {
  name: "L3_b1_brc1_relu"
  type: "ReLU"
  bottom: "L3_b1_brc1_bn_top"
  top: "L3_b1_brc1_bn_top"
}
layer {
  name: "L3_b1_brc1_conv"
  type: "Convolution"
  bottom: "L3_b1_brc1_bn_top"
  top: "L3_b1_brc1_conv_top"
  param {
    lr_mult: 1
    decay_mult: 1
  }
  param {
    lr_mult: 2
    decay_mult: 0
  }
  convolution_param {
    num_output: 128
    pad: 0
    kernel_size: 1
    stri
I1207 05:38:14.289438  1922 layer_factory.hpp:77] Creating layer dataLayer
I1207 05:38:14.290567  1922 net.cpp:100] Creating Layer dataLayer
I1207 05:38:14.290621  1922 net.cpp:408] dataLayer -> data_top
I1207 05:38:14.290802  1922 net.cpp:408] dataLayer -> label
I1207 05:38:14.290895  1922 data_transformer.cpp:25] Loading mean file from: examples/cifar10/mean.binaryproto
I1207 05:38:14.296048  1927 db_lmdb.cpp:35] Opened lmdb examples/cifar10/cifar10_train_lmdb
I1207 05:38:14.318827  1922 data_layer.cpp:41] output data size: 85,3,32,32
I1207 05:38:14.324509  1922 net.cpp:150] Setting up dataLayer
I1207 05:38:14.324569  1922 net.cpp:157] Top shape: 85 3 32 32 (261120)
I1207 05:38:14.324581  1922 net.cpp:157] Top shape: 85 (85)
I1207 05:38:14.324587  1922 net.cpp:165] Memory required for data: 1044820
I1207 05:38:14.324604  1922 layer_factory.hpp:77] Creating layer label_dataLayer_1_split
I1207 05:38:14.324618  1922 net.cpp:100] Creating Layer label_dataLayer_1_split
I1207 05:38:14.324626  1922 net.cpp:434] label_dataLayer_1_split <- label
I1207 05:38:14.324645  1922 net.cpp:408] label_dataLayer_1_split -> label_dataLayer_1_split_0
I1207 05:38:14.324658  1922 net.cpp:408] label_dataLayer_1_split -> label_dataLayer_1_split_1
I1207 05:38:14.324751  1922 net.cpp:150] Setting up label_dataLayer_1_split
I1207 05:38:14.324765  1922 net.cpp:157] Top shape: 85 (85)
I1207 05:38:14.324772  1922 net.cpp:157] Top shape: 85 (85)
I1207 05:38:14.324777  1922 net.cpp:165] Memory required for data: 1045500
I1207 05:38:14.324782  1922 layer_factory.hpp:77] Creating layer pre_conv
I1207 05:38:14.324846  1922 net.cpp:100] Creating Layer pre_conv
I1207 05:38:14.324858  1922 net.cpp:434] pre_conv <- data_top
I1207 05:38:14.324870  1922 net.cpp:408] pre_conv -> pre_conv_top
I1207 05:38:14.326570  1922 net.cpp:150] Setting up pre_conv
I1207 05:38:14.326588  1922 net.cpp:157] Top shape: 85 16 32 32 (1392640)
I1207 05:38:14.326593  1922 net.cpp:165] Memory required for data: 6616060
I1207 05:38:14.326643  1922 layer_factory.hpp:77] Creating layer pre_conv_top_pre_conv_0_split
I1207 05:38:14.326655  1922 net.cpp:100] Creating Layer pre_conv_top_pre_conv_0_split
I1207 05:38:14.326661  1922 net.cpp:434] pre_conv_top_pre_conv_0_split <- pre_conv_top
I1207 05:38:14.326673  1922 net.cpp:408] pre_conv_top_pre_conv_0_split -> pre_conv_top_pre_conv_0_split_0
I1207 05:38:14.326684  1922 net.cpp:408] pre_conv_top_pre_conv_0_split -> pre_conv_top_pre_conv_0_split_1
I1207 05:38:14.326766  1922 net.cpp:150] Setting up pre_conv_top_pre_conv_0_split
I1207 05:38:14.326779  1922 net.cpp:157] Top shape: 85 16 32 32 (1392640)
I1207 05:38:14.326786  1922 net.cpp:157] Top shape: 85 16 32 32 (1392640)
I1207 05:38:14.326792  1922 net.cpp:165] Memory required for data: 17757180
I1207 05:38:14.326797  1922 layer_factory.hpp:77] Creating layer L1_b1_brc1_bn
I1207 05:38:14.326869  1922 net.cpp:100] Creating Layer L1_b1_brc1_bn
I1207 05:38:14.326881  1922 net.cpp:434] L1_b1_brc1_bn <- pre_conv_top_pre_conv_0_split_0
I1207 05:38:14.326897  1922 net.cpp:408] L1_b1_brc1_bn -> L1_b1_brc1_bn_top
I1207 05:38:14.327013  1928 blocking_queue.cpp:50] Waiting for data
I1207 05:38:14.327214  1922 net.cpp:150] Setting up L1_b1_brc1_bn
I1207 05:38:14.327229  1922 net.cpp:157] Top shape: 85 16 32 32 (1392640)
I1207 05:38:14.327235  1922 net.cpp:165] Memory required for data: 23327740
I1207 05:38:14.327251  1922 layer_factory.hpp:77] Creating layer L1_b1_brc1_relu
I1207 05:38:14.327294  1922 net.cpp:100] Creating Layer L1_b1_brc1_relu
I1207 05:38:14.327303  1922 net.cpp:434] L1_b1_brc1_relu <- L1_b1_brc1_bn_top
I1207 05:38:14.327311  1922 net.cpp:395] L1_b1_brc1_relu -> L1_b1_brc1_bn_top (in-place)
I1207 05:38:14.327322  1922 net.cpp:150] Setting up L1_b1_brc1_relu
I1207 05:38:14.327330  1922 net.cpp:157] Top shape: 85 16 32 32 (1392640)
I1207 05:38:14.327335  1922 net.cpp:165] Memory required for data: 28898300
I1207 05:38:14.327340  1922 layer_factory.hpp:77] Creating layer L1_b1_brc1_conv
I1207 05:38:14.327355  1922 net.cpp:100] Creating Layer L1_b1_brc1_conv
I1207 05:38:14.327361  1922 net.cpp:434] L1_b1_brc1_conv <- L1_b1_brc1_bn_top
I1207 05:38:14.327374  1922 net.cpp:408] L1_b1_brc1_conv -> L1_b1_brc1_conv_top
I1207 05:38:14.327653  1922 net.cpp:150] Setting up L1_b1_brc1_conv
I1207 05:38:14.327668  1922 net.cpp:157] Top shape: 85 32 32 32 (2785280)
I1207 05:38:14.327673  1922 net.cpp:165] Memory required for data: 40039420
I1207 05:38:14.327682  1922 layer_factory.hpp:77] Creating layer L1_b1_brc2_bn
I1207 05:38:14.327700  1922 net.cpp:100] Creating Layer L1_b1_brc2_bn
I1207 05:38:14.327708  1922 net.cpp:434] L1_b1_brc2_bn <- L1_b1_brc1_conv_top
I1207 05:38:14.327718  1922 net.cpp:408] L1_b1_brc2_bn -> L1_b1_brc2_bn_top
I1207 05:38:14.327944  1922 net.cpp:150] Setting up L1_b1_brc2_bn
I1207 05:38:14.327957  1922 net.cpp:157] Top shape: 85 32 32 32 (2785280)
I1207 05:38:14.327962  1922 net.cpp:165] Memory required for data: 51180540
I1207 05:38:14.327976  1922 layer_factory.hpp:77] Creating layer L1_b1_brc2_relu
I1207 05:38:14.327986  1922 net.cpp:100] Creating Layer L1_b1_brc2_relu
I1207 05:38:14.327991  1922 net.cpp:434] L1_b1_brc2_relu <- L1_b1_brc2_bn_top
I1207 05:38:14.328001  1922 net.cpp:395] L1_b1_brc2_relu -> L1_b1_brc2_bn_top (in-place)
I1207 05:38:14.328011  1922 net.cpp:150] Setting up L1_b1_brc2_relu
I1207 05:38:14.328027  1922 net.cpp:157] Top shape: 85 32 32 32 (2785280)
I1207 05:38:14.328032  1922 net.cpp:165] Memory required for data: 62321660
I1207 05:38:14.328037  1922 layer_factory.hpp:77] Creating layer L1_b1_brc2_conv
I1207 05:38:14.328052  1922 net.cpp:100] Creating Layer L1_b1_brc2_conv
I1207 05:38:14.328058  1922 net.cpp:434] L1_b1_brc2_conv <- L1_b1_brc2_bn_top
I1207 05:38:14.328065  1922 net.cpp:408] L1_b1_brc2_conv -> L1_b1_brc2_conv_top
I1207 05:38:14.328333  1922 net.cpp:150] Setting up L1_b1_brc2_conv
I1207 05:38:14.328347  1922 net.cpp:157] Top shape: 85 32 32 32 (2785280)
I1207 05:38:14.328352  1922 net.cpp:165] Memory required for data: 73462780
I1207 05:38:14.328361  1922 layer_factory.hpp:77] Creating layer L1_b1_brc3_bn
I1207 05:38:14.328377  1922 net.cpp:100] Creating Layer L1_b1_brc3_bn
I1207 05:38:14.328383  1922 net.cpp:434] L1_b1_brc3_bn <- L1_b1_brc2_conv_top
I1207 05:38:14.328392  1922 net.cpp:408] L1_b1_brc3_bn -> L1_b1_brc3_bn_top
I1207 05:38:14.328618  1922 net.cpp:150] Setting up L1_b1_brc3_bn
I1207 05:38:14.328630  1922 net.cpp:157] Top shape: 85 32 32 32 (2785280)
I1207 05:38:14.328635  1922 net.cpp:165] Memory required for data: 84603900
I1207 05:38:14.328645  1922 layer_factory.hpp:77] Creating layer L1_b1_brc3_relu
I1207 05:38:14.328653  1922 net.cpp:100] Creating Layer L1_b1_brc3_relu
I1207 05:38:14.328660  1922 net.cpp:434] L1_b1_brc3_relu <- L1_b1_brc3_bn_top
I1207 05:38:14.328670  1922 net.cpp:395] L1_b1_brc3_relu -> L1_b1_brc3_bn_top (in-place)
I1207 05:38:14.328680  1922 net.cpp:150] Setting up L1_b1_brc3_relu
I1207 05:38:14.328691  1922 net.cpp:157] Top shape: 85 32 32 32 (2785280)
I1207 05:38:14.328697  1922 net.cpp:165] Memory required for data: 95745020
I1207 05:38:14.328702  1922 layer_factory.hpp:77] Creating layer L1_b1_brc3_conv
I1207 05:38:14.328716  1922 net.cpp:100] Creating Layer L1_b1_brc3_conv
I1207 05:38:14.328722  1922 net.cpp:434] L1_b1_brc3_conv <- L1_b1_brc3_bn_top
I1207 05:38:14.328730  1922 net.cpp:408] L1_b1_brc3_conv -> L1_b1_brc3_conv_top
I1207 05:38:14.329054  1922 net.cpp:150] Setting up L1_b1_brc3_conv
I1207 05:38:14.329069  1922 net.cpp:157] Top shape: 85 64 32 32 (5570560)
I1207 05:38:14.329074  1922 net.cpp:165] Memory required for data: 118027260
I1207 05:38:14.329087  1922 layer_factory.hpp:77] Creating layer L1_b1_chanInc_conv
I1207 05:38:14.329102  1922 net.cpp:100] Creating Layer L1_b1_chanInc_conv
I1207 05:38:14.329109  1922 net.cpp:434] L1_b1_chanInc_conv <- pre_conv_top_pre_conv_0_split_1
I1207 05:38:14.329120  1922 net.cpp:408] L1_b1_chanInc_conv -> L1_b1_chanInc_conv_top
I1207 05:38:14.329401  1922 net.cpp:150] Setting up L1_b1_chanInc_conv
I1207 05:38:14.329416  1922 net.cpp:157] Top shape: 85 64 32 32 (5570560)
I1207 05:38:14.329421  1922 net.cpp:165] Memory required for data: 140309500
I1207 05:38:14.329429  1922 layer_factory.hpp:77] Creating layer L1_b1_sum_eltwise
I1207 05:38:14.329479  1922 net.cpp:100] Creating Layer L1_b1_sum_eltwise
I1207 05:38:14.329488  1922 net.cpp:434] L1_b1_sum_eltwise <- L1_b1_brc3_conv_top
I1207 05:38:14.329496  1922 net.cpp:434] L1_b1_sum_eltwise <- L1_b1_chanInc_conv_top
I1207 05:38:14.329504  1922 net.cpp:408] L1_b1_sum_eltwise -> L1_b1_sum_eltwise_top
I1207 05:38:14.329576  1922 net.cpp:150] Setting up L1_b1_sum_eltwise
I1207 05:38:14.329591  1922 net.cpp:157] Top shape: 85 64 32 32 (5570560)
I1207 05:38:14.329596  1922 net.cpp:165] Memory required for data: 162591740
I1207 05:38:14.329602  1922 layer_factory.hpp:77] Creating layer L1_b1_sum_eltwise_top_L1_b1_sum_eltwise_0_split
I1207 05:38:14.329612  1922 net.cpp:100] Creating Layer L1_b1_sum_eltwise_top_L1_b1_sum_eltwise_0_split
I1207 05:38:14.329618  1922 net.cpp:434] L1_b1_sum_eltwise_top_L1_b1_sum_eltwise_0_split <- L1_b1_sum_eltwise_top
I1207 05:38:14.329627  1922 net.cpp:408] L1_b1_sum_eltwise_top_L1_b1_sum_eltwise_0_split -> L1_b1_sum_eltwise_top_L1_b1_sum_eltwise_0_split_0
I1207 05:38:14.329635  1922 net.cpp:408] L1_b1_sum_eltwise_top_L1_b1_sum_eltwise_0_split -> L1_b1_sum_eltwise_top_L1_b1_sum_eltwise_0_split_1
I1207 05:38:14.329699  1922 net.cpp:150] Setting up L1_b1_sum_eltwise_top_L1_b1_sum_eltwise_0_split
I1207 05:38:14.329712  1922 net.cpp:157] Top shape: 85 64 32 32 (5570560)
I1207 05:38:14.329720  1922 net.cpp:157] Top shape: 85 64 32 32 (5570560)
I1207 05:38:14.329725  1922 net.cpp:165] Memory required for data: 207156220
I1207 05:38:14.329730  1922 layer_factory.hpp:77] Creating layer L1_b2_brc1_bn
I1207 05:38:14.329742  1922 net.cpp:100] Creating Layer L1_b2_brc1_bn
I1207 05:38:14.329748  1922 net.cpp:434] L1_b2_brc1_bn <- L1_b1_sum_eltwise_top_L1_b1_sum_eltwise_0_split_0
I1207 05:38:14.329764  1922 net.cpp:408] L1_b2_brc1_bn -> L1_b2_brc1_bn_top
I1207 05:38:14.329988  1922 net.cpp:150] Setting up L1_b2_brc1_bn
I1207 05:38:14.330000  1922 net.cpp:157] Top shape: 85 64 32 32 (5570560)
I1207 05:38:14.330005  1922 net.cpp:165] Memory required for data: 229438460
I1207 05:38:14.330016  1922 layer_factory.hpp:77] Creating layer L1_b2_brc1_relu
I1207 05:38:14.330024  1922 net.cpp:100] Creating Layer L1_b2_brc1_relu
I1207 05:38:14.330030  1922 net.cpp:434] L1_b2_brc1_relu <- L1_b2_brc1_bn_top
I1207 05:38:14.330037  1922 net.cpp:395] L1_b2_brc1_relu -> L1_b2_brc1_bn_top (in-place)
I1207 05:38:14.330047  1922 net.cpp:150] Setting up L1_b2_brc1_relu
I1207 05:38:14.330054  1922 net.cpp:157] Top shape: 85 64 32 32 (5570560)
I1207 05:38:14.330058  1922 net.cpp:165] Memory required for data: 251720700
I1207 05:38:14.330063  1922 layer_factory.hpp:77] Creating layer L1_b2_brc1_conv
I1207 05:38:14.330077  1922 net.cpp:100] Creating Layer L1_b2_brc1_conv
I1207 05:38:14.330083  1922 net.cpp:434] L1_b2_brc1_conv <- L1_b2_brc1_bn_top
I1207 05:38:14.330096  1922 net.cpp:408] L1_b2_brc1_conv -> L1_b2_brc1_conv_top
I1207 05:38:14.330397  1922 net.cpp:150] Setting up L1_b2_brc1_conv
I1207 05:38:14.330411  1922 net.cpp:157] Top shape: 85 32 32 32 (2785280)
I1207 05:38:14.330416  1922 net.cpp:165] Memory required for data: 262861820
I1207 05:38:14.330425  1922 layer_factory.hpp:77] Creating layer L1_b2_brc2_bn
I1207 05:38:14.330436  1922 net.cpp:100] Creating Layer L1_b2_brc2_bn
I1207 05:38:14.330442  1922 net.cpp:434] L1_b2_brc2_bn <- L1_b2_brc1_conv_top
I1207 05:38:14.330451  1922 net.cpp:408] L1_b2_brc2_bn -> L1_b2_brc2_bn_top
I1207 05:38:14.330694  1922 net.cpp:150] Setting up L1_b2_brc2_bn
I1207 05:38:14.330708  1922 net.cpp:157] Top shape: 85 32 32 32 (2785280)
I1207 05:38:14.330714  1922 net.cpp:165] Memory required for data: 274002940
I1207 05:38:14.330724  1922 layer_factory.hpp:77] Creating layer L1_b2_brc2_relu
I1207 05:38:14.330732  1922 net.cpp:100] Creating Layer L1_b2_brc2_relu
I1207 05:38:14.330739  1922 net.cpp:434] L1_b2_brc2_relu <- L1_b2_brc2_bn_top
I1207 05:38:14.330745  1922 net.cpp:395] L1_b2_brc2_relu -> L1_b2_brc2_bn_top (in-place)
I1207 05:38:14.330755  1922 net.cpp:150] Setting up L1_b2_brc2_relu
I1207 05:38:14.330762  1922 net.cpp:157] Top shape: 85 32 32 32 (2785280)
I1207 05:38:14.330766  1922 net.cpp:165] Memory required for data: 285144060
I1207 05:38:14.330771  1922 layer_factory.hpp:77] Creating layer L1_b2_brc2_conv
I1207 05:38:14.330785  1922 net.cpp:100] Creating Layer L1_b2_brc2_conv
I1207 05:38:14.330790  1922 net.cpp:434] L1_b2_brc2_conv <- L1_b2_brc2_bn_top
I1207 05:38:14.330801  1922 net.cpp:408] L1_b2_brc2_conv -> L1_b2_brc2_conv_top
I1207 05:38:14.331070  1922 net.cpp:150] Setting up L1_b2_brc2_conv
I1207 05:38:14.331084  1922 net.cpp:157] Top shape: 85 32 32 32 (2785280)
I1207 05:38:14.331089  1922 net.cpp:165] Memory required for data: 296285180
I1207 05:38:14.331097  1922 layer_factory.hpp:77] Creating layer L1_b2_brc3_bn
I1207 05:38:14.331110  1922 net.cpp:100] Creating Layer L1_b2_brc3_bn
I1207 05:38:14.331115  1922 net.cpp:434] L1_b2_brc3_bn <- L1_b2_brc2_conv_top
I1207 05:38:14.331123  1922 net.cpp:408] L1_b2_brc3_bn -> L1_b2_brc3_bn_top
I1207 05:38:14.331363  1922 net.cpp:150] Setting up L1_b2_brc3_bn
I1207 05:38:14.331377  1922 net.cpp:157] Top shape: 85 32 32 32 (2785280)
I1207 05:38:14.331382  1922 net.cpp:165] Memory required for data: 307426300
I1207 05:38:14.331392  1922 layer_factory.hpp:77] Creating layer L1_b2_brc3_relu
I1207 05:38:14.331406  1922 net.cpp:100] Creating Layer L1_b2_brc3_relu
I1207 05:38:14.331413  1922 net.cpp:434] L1_b2_brc3_relu <- L1_b2_brc3_bn_top
I1207 05:38:14.331420  1922 net.cpp:395] L1_b2_brc3_relu -> L1_b2_brc3_bn_top (in-place)
I1207 05:38:14.331429  1922 net.cpp:150] Setting up L1_b2_brc3_relu
I1207 05:38:14.331437  1922 net.cpp:157] Top shape: 85 32 32 32 (2785280)
I1207 05:38:14.331441  1922 net.cpp:165] Memory required for data: 318567420
I1207 05:38:14.331446  1922 layer_factory.hpp:77] Creating layer L1_b2_brc3_conv
I1207 05:38:14.331460  1922 net.cpp:100] Creating Layer L1_b2_brc3_conv
I1207 05:38:14.331466  1922 net.cpp:434] L1_b2_brc3_conv <- L1_b2_brc3_bn_top
I1207 05:38:14.331477  1922 net.cpp:408] L1_b2_brc3_conv -> L1_b2_brc3_conv_top
I1207 05:38:14.331786  1922 net.cpp:150] Setting up L1_b2_brc3_conv
I1207 05:38:14.331800  1922 net.cpp:157] Top shape: 85 64 32 32 (5570560)
I1207 05:38:14.331805  1922 net.cpp:165] Memory required for data: 340849660
I1207 05:38:14.331823  1922 layer_factory.hpp:77] Creating layer L1_b2_sum_eltwise
I1207 05:38:14.331836  1922 net.cpp:100] Creating Layer L1_b2_sum_eltwise
I1207 05:38:14.331842  1922 net.cpp:434] L1_b2_sum_eltwise <- L1_b2_brc3_conv_top
I1207 05:38:14.331849  1922 net.cpp:434] L1_b2_sum_eltwise <- L1_b1_sum_eltwise_top_L1_b1_sum_eltwise_0_split_1
I1207 05:38:14.331857  1922 net.cpp:408] L1_b2_sum_eltwise -> L1_b2_sum_eltwise_top
I1207 05:38:14.331887  1922 net.cpp:150] Setting up L1_b2_sum_eltwise
I1207 05:38:14.331897  1922 net.cpp:157] Top shape: 85 64 32 32 (5570560)
I1207 05:38:14.331902  1922 net.cpp:165] Memory required for data: 363131900
I1207 05:38:14.331907  1922 layer_factory.hpp:77] Creating layer L1_b2_sum_eltwise_top_L1_b2_sum_eltwise_0_split
I1207 05:38:14.331917  1922 net.cpp:100] Creating Layer L1_b2_sum_eltwise_top_L1_b2_sum_eltwise_0_split
I1207 05:38:14.331923  1922 net.cpp:434] L1_b2_sum_eltwise_top_L1_b2_sum_eltwise_0_split <- L1_b2_sum_eltwise_top
I1207 05:38:14.331933  1922 net.cpp:408] L1_b2_sum_eltwise_top_L1_b2_sum_eltwise_0_split -> L1_b2_sum_eltwise_top_L1_b2_sum_eltwise_0_split_0
I1207 05:38:14.331943  1922 net.cpp:408] L1_b2_sum_eltwise_top_L1_b2_sum_eltwise_0_split -> L1_b2_sum_eltwise_top_L1_b2_sum_eltwise_0_split_1
I1207 05:38:14.331985  1922 net.cpp:150] Setting up L1_b2_sum_eltwise_top_L1_b2_sum_eltwise_0_split
I1207 05:38:14.332000  1922 net.cpp:157] Top shape: 85 64 32 32 (5570560)
I1207 05:38:14.332006  1922 net.cpp:157] Top shape: 85 64 32 32 (5570560)
I1207 05:38:14.332010  1922 net.cpp:165] Memory required for data: 407696380
I1207 05:38:14.332016  1922 layer_factory.hpp:77] Creating layer L1_b3_brc1_bn
I1207 05:38:14.332023  1922 net.cpp:100] Creating Layer L1_b3_brc1_bn
I1207 05:38:14.332029  1922 net.cpp:434] L1_b3_brc1_bn <- L1_b2_sum_eltwise_top_L1_b2_sum_eltwise_0_split_0
I1207 05:38:14.332036  1922 net.cpp:408] L1_b3_brc1_bn -> L1_b3_brc1_bn_top
I1207 05:38:14.332259  1922 net.cpp:150] Setting up L1_b3_brc1_bn
I1207 05:38:14.332273  1922 net.cpp:157] Top shape: 85 64 32 32 (5570560)
I1207 05:38:14.332278  1922 net.cpp:165] Memory required for data: 429978620
I1207 05:38:14.332288  1922 layer_factory.hpp:77] Creating layer L1_b3_brc1_relu
I1207 05:38:14.332299  1922 net.cpp:100] Creating Layer L1_b3_brc1_relu
I1207 05:38:14.332305  1922 net.cpp:434] L1_b3_brc1_relu <- L1_b3_brc1_bn_top
I1207 05:38:14.332314  1922 net.cpp:395] L1_b3_brc1_relu -> L1_b3_brc1_bn_top (in-place)
I1207 05:38:14.332322  1922 net.cpp:150] Setting up L1_b3_brc1_relu
I1207 05:38:14.332330  1922 net.cpp:157] Top shape: 85 64 32 32 (5570560)
I1207 05:38:14.332334  1922 net.cpp:165] Memory required for data: 452260860
I1207 05:38:14.332340  1922 layer_factory.hpp:77] Creating layer L1_b3_brc1_conv
I1207 05:38:14.332352  1922 net.cpp:100] Creating Layer L1_b3_brc1_conv
I1207 05:38:14.332358  1922 net.cpp:434] L1_b3_brc1_conv <- L1_b3_brc1_bn_top
I1207 05:38:14.332370  1922 net.cpp:408] L1_b3_brc1_conv -> L1_b3_brc1_conv_top
I1207 05:38:14.332682  1922 net.cpp:150] Setting up L1_b3_brc1_conv
I1207 05:38:14.332708  1922 net.cpp:157] Top shape: 85 32 32 32 (2785280)
I1207 05:38:14.332715  1922 net.cpp:165] Memory required for data: 463401980
I1207 05:38:14.332722  1922 layer_factory.hpp:77] Creating layer L1_b3_brc2_bn
I1207 05:38:14.332731  1922 net.cpp:100] Creating Layer L1_b3_brc2_bn
I1207 05:38:14.332737  1922 net.cpp:434] L1_b3_brc2_bn <- L1_b3_brc1_conv_top
I1207 05:38:14.332746  1922 net.cpp:408] L1_b3_brc2_bn -> L1_b3_brc2_bn_top
I1207 05:38:14.332978  1922 net.cpp:150] Setting up L1_b3_brc2_bn
I1207 05:38:14.332991  1922 net.cpp:157] Top shape: 85 32 32 32 (2785280)
I1207 05:38:14.332996  1922 net.cpp:165] Memory required for data: 474543100
I1207 05:38:14.333006  1922 layer_factory.hpp:77] Creating layer L1_b3_brc2_relu
I1207 05:38:14.333014  1922 net.cpp:100] Creating Layer L1_b3_brc2_relu
I1207 05:38:14.333020  1922 net.cpp:434] L1_b3_brc2_relu <- L1_b3_brc2_bn_top
I1207 05:38:14.333029  1922 net.cpp:395] L1_b3_brc2_relu -> L1_b3_brc2_bn_top (in-place)
I1207 05:38:14.333039  1922 net.cpp:150] Setting up L1_b3_brc2_relu
I1207 05:38:14.333047  1922 net.cpp:157] Top shape: 85 32 32 32 (2785280)
I1207 05:38:14.333051  1922 net.cpp:165] Memory required for data: 485684220
I1207 05:38:14.333056  1922 layer_factory.hpp:77] Creating layer L1_b3_brc2_conv
I1207 05:38:14.333072  1922 net.cpp:100] Creating Layer L1_b3_brc2_conv
I1207 05:38:14.333078  1922 net.cpp:434] L1_b3_brc2_conv <- L1_b3_brc2_bn_top
I1207 05:38:14.333091  1922 net.cpp:408] L1_b3_brc2_conv -> L1_b3_brc2_conv_top
I1207 05:38:14.333364  1922 net.cpp:150] Setting up L1_b3_brc2_conv
I1207 05:38:14.333379  1922 net.cpp:157] Top shape: 85 32 32 32 (2785280)
I1207 05:38:14.333384  1922 net.cpp:165] Memory required for data: 496825340
I1207 05:38:14.333391  1922 layer_factory.hpp:77] Creating layer L1_b3_brc3_bn
I1207 05:38:14.333400  1922 net.cpp:100] Creating Layer L1_b3_brc3_bn
I1207 05:38:14.333406  1922 net.cpp:434] L1_b3_brc3_bn <- L1_b3_brc2_conv_top
I1207 05:38:14.333416  1922 net.cpp:408] L1_b3_brc3_bn -> L1_b3_brc3_bn_top
I1207 05:38:14.333649  1922 net.cpp:150] Setting up L1_b3_brc3_bn
I1207 05:38:14.333662  1922 net.cpp:157] Top shape: 85 32 32 32 (2785280)
I1207 05:38:14.333667  1922 net.cpp:165] Memory required for data: 507966460
I1207 05:38:14.333678  1922 layer_factory.hpp:77] Creating layer L1_b3_brc3_relu
I1207 05:38:14.333705  1922 net.cpp:100] Creating Layer L1_b3_brc3_relu
I1207 05:38:14.333714  1922 net.cpp:434] L1_b3_brc3_relu <- L1_b3_brc3_bn_top
I1207 05:38:14.333721  1922 net.cpp:395] L1_b3_brc3_relu -> L1_b3_brc3_bn_top (in-place)
I1207 05:38:14.333730  1922 net.cpp:150] Setting up L1_b3_brc3_relu
I1207 05:38:14.333737  1922 net.cpp:157] Top shape: 85 32 32 32 (2785280)
I1207 05:38:14.333742  1922 net.cpp:165] Memory required for data: 519107580
I1207 05:38:14.333747  1922 layer_factory.hpp:77] Creating layer L1_b3_brc3_conv
I1207 05:38:14.333758  1922 net.cpp:100] Creating Layer L1_b3_brc3_conv
I1207 05:38:14.333763  1922 net.cpp:434] L1_b3_brc3_conv <- L1_b3_brc3_bn_top
I1207 05:38:14.333775  1922 net.cpp:408] L1_b3_brc3_conv -> L1_b3_brc3_conv_top
I1207 05:38:14.334086  1922 net.cpp:150] Setting up L1_b3_brc3_conv
I1207 05:38:14.334100  1922 net.cpp:157] Top shape: 85 64 32 32 (5570560)
I1207 05:38:14.334105  1922 net.cpp:165] Memory required for data: 541389820
I1207 05:38:14.334113  1922 layer_factory.hpp:77] Creating layer L1_b3_sum_eltwise
I1207 05:38:14.334123  1922 net.cpp:100] Creating Layer L1_b3_sum_eltwise
I1207 05:38:14.334130  1922 net.cpp:434] L1_b3_sum_eltwise <- L1_b3_brc3_conv_top
I1207 05:38:14.334136  1922 net.cpp:434] L1_b3_sum_eltwise <- L1_b2_sum_eltwise_top_L1_b2_sum_eltwise_0_split_1
I1207 05:38:14.334143  1922 net.cpp:408] L1_b3_sum_eltwise -> L1_b3_sum_eltwise_top
I1207 05:38:14.334180  1922 net.cpp:150] Setting up L1_b3_sum_eltwise
I1207 05:38:14.334193  1922 net.cpp:157] Top shape: 85 64 32 32 (5570560)
I1207 05:38:14.334197  1922 net.cpp:165] Memory required for data: 563672060
I1207 05:38:14.334203  1922 layer_factory.hpp:77] Creating layer L1_b3_sum_eltwise_top_L1_b3_sum_eltwise_0_split
I1207 05:38:14.334218  1922 net.cpp:100] Creating Layer L1_b3_sum_eltwise_top_L1_b3_sum_eltwise_0_split
I1207 05:38:14.334223  1922 net.cpp:434] L1_b3_sum_eltwise_top_L1_b3_sum_eltwise_0_split <- L1_b3_sum_eltwise_top
I1207 05:38:14.334233  1922 net.cpp:408] L1_b3_sum_eltwise_top_L1_b3_sum_eltwise_0_split -> L1_b3_sum_eltwise_top_L1_b3_sum_eltwise_0_split_0
I1207 05:38:14.334244  1922 net.cpp:408] L1_b3_sum_eltwise_top_L1_b3_sum_eltwise_0_split -> L1_b3_sum_eltwise_top_L1_b3_sum_eltwise_0_split_1
I1207 05:38:14.334288  1922 net.cpp:150] Setting up L1_b3_sum_eltwise_top_L1_b3_sum_eltwise_0_split
I1207 05:38:14.334298  1922 net.cpp:157] Top shape: 85 64 32 32 (5570560)
I1207 05:38:14.334305  1922 net.cpp:157] Top shape: 85 64 32 32 (5570560)
I1207 05:38:14.334309  1922 net.cpp:165] Memory required for data: 608236540
I1207 05:38:14.334314  1922 layer_factory.hpp:77] Creating layer L1_b4_brc1_bn
I1207 05:38:14.334324  1922 net.cpp:100] Creating Layer L1_b4_brc1_bn
I1207 05:38:14.334331  1922 net.cpp:434] L1_b4_brc1_bn <- L1_b3_sum_eltwise_top_L1_b3_sum_eltwise_0_split_0
I1207 05:38:14.334342  1922 net.cpp:408] L1_b4_brc1_bn -> L1_b4_brc1_bn_top
I1207 05:38:14.334564  1922 net.cpp:150] Setting up L1_b4_brc1_bn
I1207 05:38:14.334578  1922 net.cpp:157] Top shape: 85 64 32 32 (5570560)
I1207 05:38:14.334583  1922 net.cpp:165] Memory required for data: 630518780
I1207 05:38:14.334594  1922 layer_factory.hpp:77] Creating layer L1_b4_brc1_relu
I1207 05:38:14.334601  1922 net.cpp:100] Creating Layer L1_b4_brc1_relu
I1207 05:38:14.334607  1922 net.cpp:434] L1_b4_brc1_relu <- L1_b4_brc1_bn_top
I1207 05:38:14.334614  1922 net.cpp:395] L1_b4_brc1_relu -> L1_b4_brc1_bn_top (in-place)
I1207 05:38:14.334623  1922 net.cpp:150] Setting up L1_b4_brc1_relu
I1207 05:38:14.334630  1922 net.cpp:157] Top shape: 85 64 32 32 (5570560)
I1207 05:38:14.334635  1922 net.cpp:165] Memory required for data: 652801020
I1207 05:38:14.334640  1922 layer_factory.hpp:77] Creating layer L1_b4_brc1_conv
I1207 05:38:14.334653  1922 net.cpp:100] Creating Layer L1_b4_brc1_conv
I1207 05:38:14.334659  1922 net.cpp:434] L1_b4_brc1_conv <- L1_b4_brc1_bn_top
I1207 05:38:14.334671  1922 net.cpp:408] L1_b4_brc1_conv -> L1_b4_brc1_conv_top
I1207 05:38:14.334987  1922 net.cpp:150] Setting up L1_b4_brc1_conv
I1207 05:38:14.335001  1922 net.cpp:157] Top shape: 85 32 32 32 (2785280)
I1207 05:38:14.335006  1922 net.cpp:165] Memory required for data: 663942140
I1207 05:38:14.335014  1922 layer_factory.hpp:77] Creating layer L1_b4_brc2_bn
I1207 05:38:14.335026  1922 net.cpp:100] Creating Layer L1_b4_brc2_bn
I1207 05:38:14.335032  1922 net.cpp:434] L1_b4_brc2_bn <- L1_b4_brc1_conv_top
I1207 05:38:14.335041  1922 net.cpp:408] L1_b4_brc2_bn -> L1_b4_brc2_bn_top
I1207 05:38:14.335284  1922 net.cpp:150] Setting up L1_b4_brc2_bn
I1207 05:38:14.335297  1922 net.cpp:157] Top shape: 85 32 32 32 (2785280)
I1207 05:38:14.335302  1922 net.cpp:165] Memory required for data: 675083260
I1207 05:38:14.335312  1922 layer_factory.hpp:77] Creating layer L1_b4_brc2_relu
I1207 05:38:14.335321  1922 net.cpp:100] Creating Layer L1_b4_brc2_relu
I1207 05:38:14.335327  1922 net.cpp:434] L1_b4_brc2_relu <- L1_b4_brc2_bn_top
I1207 05:38:14.335335  1922 net.cpp:395] L1_b4_brc2_relu -> L1_b4_brc2_bn_top (in-place)
I1207 05:38:14.335343  1922 net.cpp:150] Setting up L1_b4_brc2_relu
I1207 05:38:14.335350  1922 net.cpp:157] Top shape: 85 32 32 32 (2785280)
I1207 05:38:14.335355  1922 net.cpp:165] Memory required for data: 686224380
I1207 05:38:14.335360  1922 layer_factory.hpp:77] Creating layer L1_b4_brc2_conv
I1207 05:38:14.335372  1922 net.cpp:100] Creating Layer L1_b4_brc2_conv
I1207 05:38:14.335378  1922 net.cpp:434] L1_b4_brc2_conv <- L1_b4_brc2_bn_top
I1207 05:38:14.335389  1922 net.cpp:408] L1_b4_brc2_conv -> L1_b4_brc2_conv_top
I1207 05:38:14.335664  1922 net.cpp:150] Setting up L1_b4_brc2_conv
I1207 05:38:14.335677  1922 net.cpp:157] Top shape: 85 32 32 32 (2785280)
I1207 05:38:14.335682  1922 net.cpp:165] Memory required for data: 697365500
I1207 05:38:14.335698  1922 layer_factory.hpp:77] Creating layer L1_b4_brc3_bn
I1207 05:38:14.335717  1922 net.cpp:100] Creating Layer L1_b4_brc3_bn
I1207 05:38:14.335724  1922 net.cpp:434] L1_b4_brc3_bn <- L1_b4_brc2_conv_top
I1207 05:38:14.335732  1922 net.cpp:408] L1_b4_brc3_bn -> L1_b4_brc3_bn_top
I1207 05:38:14.335971  1922 net.cpp:150] Setting up L1_b4_brc3_bn
I1207 05:38:14.335984  1922 net.cpp:157] Top shape: 85 32 32 32 (2785280)
I1207 05:38:14.335989  1922 net.cpp:165] Memory required for data: 708506620
I1207 05:38:14.335999  1922 layer_factory.hpp:77] Creating layer L1_b4_brc3_relu
I1207 05:38:14.336007  1922 net.cpp:100] Creating Layer L1_b4_brc3_relu
I1207 05:38:14.336014  1922 net.cpp:434] L1_b4_brc3_relu <- L1_b4_brc3_bn_top
I1207 05:38:14.336020  1922 net.cpp:395] L1_b4_brc3_relu -> L1_b4_brc3_bn_top (in-place)
I1207 05:38:14.336030  1922 net.cpp:150] Setting up L1_b4_brc3_relu
I1207 05:38:14.336037  1922 net.cpp:157] Top shape: 85 32 32 32 (2785280)
I1207 05:38:14.336041  1922 net.cpp:165] Memory required for data: 719647740
I1207 05:38:14.336046  1922 layer_factory.hpp:77] Creating layer L1_b4_brc3_conv
I1207 05:38:14.336060  1922 net.cpp:100] Creating Layer L1_b4_brc3_conv
I1207 05:38:14.336066  1922 net.cpp:434] L1_b4_brc3_conv <- L1_b4_brc3_bn_top
I1207 05:38:14.336076  1922 net.cpp:408] L1_b4_brc3_conv -> L1_b4_brc3_conv_top
I1207 05:38:14.336387  1922 net.cpp:150] Setting up L1_b4_brc3_conv
I1207 05:38:14.336401  1922 net.cpp:157] Top shape: 85 64 32 32 (5570560)
I1207 05:38:14.336406  1922 net.cpp:165] Memory required for data: 741929980
I1207 05:38:14.336416  1922 layer_factory.hpp:77] Creating layer L1_b4_sum_eltwise
I1207 05:38:14.336423  1922 net.cpp:100] Creating Layer L1_b4_sum_eltwise
I1207 05:38:14.336429  1922 net.cpp:434] L1_b4_sum_eltwise <- L1_b4_brc3_conv_top
I1207 05:38:14.336439  1922 net.cpp:434] L1_b4_sum_eltwise <- L1_b3_sum_eltwise_top_L1_b3_sum_eltwise_0_split_1
I1207 05:38:14.336447  1922 net.cpp:408] L1_b4_sum_eltwise -> L1_b4_sum_eltwise_top
I1207 05:38:14.336482  1922 net.cpp:150] Setting up L1_b4_sum_eltwise
I1207 05:38:14.336490  1922 net.cpp:157] Top shape: 85 64 32 32 (5570560)
I1207 05:38:14.336495  1922 net.cpp:165] Memory required for data: 764212220
I1207 05:38:14.336500  1922 layer_factory.hpp:77] Creating layer L1_b4_sum_eltwise_top_L1_b4_sum_eltwise_0_split
I1207 05:38:14.336508  1922 net.cpp:100] Creating Layer L1_b4_sum_eltwise_top_L1_b4_sum_eltwise_0_split
I1207 05:38:14.336513  1922 net.cpp:434] L1_b4_sum_eltwise_top_L1_b4_sum_eltwise_0_split <- L1_b4_sum_eltwise_top
I1207 05:38:14.336524  1922 net.cpp:408] L1_b4_sum_eltwise_top_L1_b4_sum_eltwise_0_split -> L1_b4_sum_eltwise_top_L1_b4_sum_eltwise_0_split_0
I1207 05:38:14.336534  1922 net.cpp:408] L1_b4_sum_eltwise_top_L1_b4_sum_eltwise_0_split -> L1_b4_sum_eltwise_top_L1_b4_sum_eltwise_0_split_1
I1207 05:38:14.336577  1922 net.cpp:150] Setting up L1_b4_sum_eltwise_top_L1_b4_sum_eltwise_0_split
I1207 05:38:14.336591  1922 net.cpp:157] Top shape: 85 64 32 32 (5570560)
I1207 05:38:14.336598  1922 net.cpp:157] Top shape: 85 64 32 32 (5570560)
I1207 05:38:14.336603  1922 net.cpp:165] Memory required for data: 808776700
I1207 05:38:14.336608  1922 layer_factory.hpp:77] Creating layer L1_b5_brc1_bn
I1207 05:38:14.336616  1922 net.cpp:100] Creating Layer L1_b5_brc1_bn
I1207 05:38:14.336621  1922 net.cpp:434] L1_b5_brc1_bn <- L1_b4_sum_eltwise_top_L1_b4_sum_eltwise_0_split_0
I1207 05:38:14.336637  1922 net.cpp:408] L1_b5_brc1_bn -> L1_b5_brc1_bn_top
I1207 05:38:14.336871  1922 net.cpp:150] Setting up L1_b5_brc1_bn
I1207 05:38:14.336885  1922 net.cpp:157] Top shape: 85 64 32 32 (5570560)
I1207 05:38:14.336890  1922 net.cpp:165] Memory required for data: 831058940
I1207 05:38:14.336916  1922 layer_factory.hpp:77] Creating layer L1_b5_brc1_relu
I1207 05:38:14.336926  1922 net.cpp:100] Creating Layer L1_b5_brc1_relu
I1207 05:38:14.336932  1922 net.cpp:434] L1_b5_brc1_relu <- L1_b5_brc1_bn_top
I1207 05:38:14.336940  1922 net.cpp:395] L1_b5_brc1_relu -> L1_b5_brc1_bn_top (in-place)
I1207 05:38:14.336949  1922 net.cpp:150] Setting up L1_b5_brc1_relu
I1207 05:38:14.336956  1922 net.cpp:157] Top shape: 85 64 32 32 (5570560)
I1207 05:38:14.336967  1922 net.cpp:165] Memory required for data: 853341180
I1207 05:38:14.336973  1922 layer_factory.hpp:77] Creating layer L1_b5_brc1_conv
I1207 05:38:14.336987  1922 net.cpp:100] Creating Layer L1_b5_brc1_conv
I1207 05:38:14.336993  1922 net.cpp:434] L1_b5_brc1_conv <- L1_b5_brc1_bn_top
I1207 05:38:14.337004  1922 net.cpp:408] L1_b5_brc1_conv -> L1_b5_brc1_conv_top
I1207 05:38:14.337307  1922 net.cpp:150] Setting up L1_b5_brc1_conv
I1207 05:38:14.337321  1922 net.cpp:157] Top shape: 85 32 32 32 (2785280)
I1207 05:38:14.337327  1922 net.cpp:165] Memory required for data: 864482300
I1207 05:38:14.337334  1922 layer_factory.hpp:77] Creating layer L1_b5_brc2_bn
I1207 05:38:14.337345  1922 net.cpp:100] Creating Layer L1_b5_brc2_bn
I1207 05:38:14.337352  1922 net.cpp:434] L1_b5_brc2_bn <- L1_b5_brc1_conv_top
I1207 05:38:14.337360  1922 net.cpp:408] L1_b5_brc2_bn -> L1_b5_brc2_bn_top
I1207 05:38:14.337596  1922 net.cpp:150] Setting up L1_b5_brc2_bn
I1207 05:38:14.337610  1922 net.cpp:157] Top shape: 85 32 32 32 (2785280)
I1207 05:38:14.337615  1922 net.cpp:165] Memory required for data: 875623420
I1207 05:38:14.337625  1922 layer_factory.hpp:77] Creating layer L1_b5_brc2_relu
I1207 05:38:14.337632  1922 net.cpp:100] Creating Layer L1_b5_brc2_relu
I1207 05:38:14.337638  1922 net.cpp:434] L1_b5_brc2_relu <- L1_b5_brc2_bn_top
I1207 05:38:14.337646  1922 net.cpp:395] L1_b5_brc2_relu -> L1_b5_brc2_bn_top (in-place)
I1207 05:38:14.337656  1922 net.cpp:150] Setting up L1_b5_brc2_relu
I1207 05:38:14.337662  1922 net.cpp:157] Top shape: 85 32 32 32 (2785280)
I1207 05:38:14.337666  1922 net.cpp:165] Memory required for data: 886764540
I1207 05:38:14.337671  1922 layer_factory.hpp:77] Creating layer L1_b5_brc2_conv
I1207 05:38:14.337689  1922 net.cpp:100] Creating Layer L1_b5_brc2_conv
I1207 05:38:14.337697  1922 net.cpp:434] L1_b5_brc2_conv <- L1_b5_brc2_bn_top
I1207 05:38:14.337707  1922 net.cpp:408] L1_b5_brc2_conv -> L1_b5_brc2_conv_top
I1207 05:38:14.337981  1922 net.cpp:150] Setting up L1_b5_brc2_conv
I1207 05:38:14.337996  1922 net.cpp:157] Top shape: 85 32 32 32 (2785280)
I1207 05:38:14.338001  1922 net.cpp:165] Memory required for data: 897905660
I1207 05:38:14.338008  1922 layer_factory.hpp:77] Creating layer L1_b5_brc3_bn
I1207 05:38:14.338024  1922 net.cpp:100] Creating Layer L1_b5_brc3_bn
I1207 05:38:14.338032  1922 net.cpp:434] L1_b5_brc3_bn <- L1_b5_brc2_conv_top
I1207 05:38:14.338039  1922 net.cpp:408] L1_b5_brc3_bn -> L1_b5_brc3_bn_top
I1207 05:38:14.338289  1922 net.cpp:150] Setting up L1_b5_brc3_bn
I1207 05:38:14.338302  1922 net.cpp:157] Top shape: 85 32 32 32 (2785280)
I1207 05:38:14.338307  1922 net.cpp:165] Memory required for data: 909046780
I1207 05:38:14.338317  1922 layer_factory.hpp:77] Creating layer L1_b5_brc3_relu
I1207 05:38:14.338325  1922 net.cpp:100] Creating Layer L1_b5_brc3_relu
I1207 05:38:14.338331  1922 net.cpp:434] L1_b5_brc3_relu <- L1_b5_brc3_bn_top
I1207 05:38:14.338338  1922 net.cpp:395] L1_b5_brc3_relu -> L1_b5_brc3_bn_top (in-place)
I1207 05:38:14.338348  1922 net.cpp:150] Setting up L1_b5_brc3_relu
I1207 05:38:14.338356  1922 net.cpp:157] Top shape: 85 32 32 32 (2785280)
I1207 05:38:14.338361  1922 net.cpp:165] Memory required for data: 920187900
I1207 05:38:14.338364  1922 layer_factory.hpp:77] Creating layer L1_b5_brc3_conv
I1207 05:38:14.338377  1922 net.cpp:100] Creating Layer L1_b5_brc3_conv
I1207 05:38:14.338384  1922 net.cpp:434] L1_b5_brc3_conv <- L1_b5_brc3_bn_top
I1207 05:38:14.338395  1922 net.cpp:408] L1_b5_brc3_conv -> L1_b5_brc3_conv_top
I1207 05:38:14.338711  1922 net.cpp:150] Setting up L1_b5_brc3_conv
I1207 05:38:14.338726  1922 net.cpp:157] Top shape: 85 64 32 32 (5570560)
I1207 05:38:14.338731  1922 net.cpp:165] Memory required for data: 942470140
I1207 05:38:14.338739  1922 layer_factory.hpp:77] Creating layer L1_b5_sum_eltwise
I1207 05:38:14.338748  1922 net.cpp:100] Creating Layer L1_b5_sum_eltwise
I1207 05:38:14.338754  1922 net.cpp:434] L1_b5_sum_eltwise <- L1_b5_brc3_conv_top
I1207 05:38:14.338762  1922 net.cpp:434] L1_b5_sum_eltwise <- L1_b4_sum_eltwise_top_L1_b4_sum_eltwise_0_split_1
I1207 05:38:14.338778  1922 net.cpp:408] L1_b5_sum_eltwise -> L1_b5_sum_eltwise_top
I1207 05:38:14.338812  1922 net.cpp:150] Setting up L1_b5_sum_eltwise
I1207 05:38:14.338822  1922 net.cpp:157] Top shape: 85 64 32 32 (5570560)
I1207 05:38:14.338827  1922 net.cpp:165] Memory required for data: 964752380
I1207 05:38:14.338832  1922 layer_factory.hpp:77] Creating layer L1_b5_sum_eltwise_top_L1_b5_sum_eltwise_0_split
I1207 05:38:14.338840  1922 net.cpp:100] Creating Layer L1_b5_sum_eltwise_top_L1_b5_sum_eltwise_0_split
I1207 05:38:14.338845  1922 net.cpp:434] L1_b5_sum_eltwise_top_L1_b5_sum_eltwise_0_split <- L1_b5_sum_eltwise_top
I1207 05:38:14.338857  1922 net.cpp:408] L1_b5_sum_eltwise_top_L1_b5_sum_eltwise_0_split -> L1_b5_sum_eltwise_top_L1_b5_sum_eltwise_0_split_0
I1207 05:38:14.338867  1922 net.cpp:408] L1_b5_sum_eltwise_top_L1_b5_sum_eltwise_0_split -> L1_b5_sum_eltwise_top_L1_b5_sum_eltwise_0_split_1
I1207 05:38:14.338912  1922 net.cpp:150] Setting up L1_b5_sum_eltwise_top_L1_b5_sum_eltwise_0_split
I1207 05:38:14.338922  1922 net.cpp:157] Top shape: 85 64 32 32 (5570560)
I1207 05:38:14.338929  1922 net.cpp:157] Top shape: 85 64 32 32 (5570560)
I1207 05:38:14.338934  1922 net.cpp:165] Memory required for data: 1009316860
I1207 05:38:14.338939  1922 layer_factory.hpp:77] Creating layer L1_b6_brc1_bn
I1207 05:38:14.338950  1922 net.cpp:100] Creating Layer L1_b6_brc1_bn
I1207 05:38:14.338956  1922 net.cpp:434] L1_b6_brc1_bn <- L1_b5_sum_eltwise_top_L1_b5_sum_eltwise_0_split_0
I1207 05:38:14.338966  1922 net.cpp:408] L1_b6_brc1_bn -> L1_b6_brc1_bn_top
I1207 05:38:14.339191  1922 net.cpp:150] Setting up L1_b6_brc1_bn
I1207 05:38:14.339205  1922 net.cpp:157] Top shape: 85 64 32 32 (5570560)
I1207 05:38:14.339208  1922 net.cpp:165] Memory required for data: 1031599100
I1207 05:38:14.339220  1922 layer_factory.hpp:77] Creating layer L1_b6_brc1_relu
I1207 05:38:14.339227  1922 net.cpp:100] Creating Layer L1_b6_brc1_relu
I1207 05:38:14.339233  1922 net.cpp:434] L1_b6_brc1_relu <- L1_b6_brc1_bn_top
I1207 05:38:14.339241  1922 net.cpp:395] L1_b6_brc1_relu -> L1_b6_brc1_bn_top (in-place)
I1207 05:38:14.339249  1922 net.cpp:150] Setting up L1_b6_brc1_relu
I1207 05:38:14.339257  1922 net.cpp:157] Top shape: 85 64 32 32 (5570560)
I1207 05:38:14.339262  1922 net.cpp:165] Memory required for data: 1053881340
I1207 05:38:14.339265  1922 layer_factory.hpp:77] Creating layer L1_b6_brc1_conv
I1207 05:38:14.339279  1922 net.cpp:100] Creating Layer L1_b6_brc1_conv
I1207 05:38:14.339285  1922 net.cpp:434] L1_b6_brc1_conv <- L1_b6_brc1_bn_top
I1207 05:38:14.339298  1922 net.cpp:408] L1_b6_brc1_conv -> L1_b6_brc1_conv_top
I1207 05:38:14.339612  1922 net.cpp:150] Setting up L1_b6_brc1_conv
I1207 05:38:14.339625  1922 net.cpp:157] Top shape: 85 32 32 32 (2785280)
I1207 05:38:14.339630  1922 net.cpp:165] Memory required for data: 1065022460
I1207 05:38:14.339639  1922 layer_factory.hpp:77] Creating layer L1_b6_brc2_bn
I1207 05:38:14.339650  1922 net.cpp:100] Creating Layer L1_b6_brc2_bn
I1207 05:38:14.339656  1922 net.cpp:434] L1_b6_brc2_bn <- L1_b6_brc1_conv_top
I1207 05:38:14.339664  1922 net.cpp:408] L1_b6_brc2_bn -> L1_b6_brc2_bn_top
I1207 05:38:14.339911  1922 net.cpp:150] Setting up L1_b6_brc2_bn
I1207 05:38:14.339925  1922 net.cpp:157] Top shape: 85 32 32 32 (2785280)
I1207 05:38:14.339931  1922 net.cpp:165] Memory required for data: 1076163580
I1207 05:38:14.339941  1922 layer_factory.hpp:77] Creating layer L1_b6_brc2_relu
I1207 05:38:14.339956  1922 net.cpp:100] Creating Layer L1_b6_brc2_relu
I1207 05:38:14.339962  1922 net.cpp:434] L1_b6_brc2_relu <- L1_b6_brc2_bn_top
I1207 05:38:14.339969  1922 net.cpp:395] L1_b6_brc2_relu -> L1_b6_brc2_bn_top (in-place)
I1207 05:38:14.339980  1922 net.cpp:150] Setting up L1_b6_brc2_relu
I1207 05:38:14.339987  1922 net.cpp:157] Top shape: 85 32 32 32 (2785280)
I1207 05:38:14.339992  1922 net.cpp:165] Memory required for data: 1087304700
I1207 05:38:14.339996  1922 layer_factory.hpp:77] Creating layer L1_b6_brc2_conv
I1207 05:38:14.340018  1922 net.cpp:100] Creating Layer L1_b6_brc2_conv
I1207 05:38:14.340023  1922 net.cpp:434] L1_b6_brc2_conv <- L1_b6_brc2_bn_top
I1207 05:38:14.340032  1922 net.cpp:408] L1_b6_brc2_conv -> L1_b6_brc2_conv_top
I1207 05:38:14.340315  1922 net.cpp:150] Setting up L1_b6_brc2_conv
I1207 05:38:14.340329  1922 net.cpp:157] Top shape: 85 32 32 32 (2785280)
I1207 05:38:14.340334  1922 net.cpp:165] Memory required for data: 1098445820
I1207 05:38:14.340343  1922 layer_factory.hpp:77] Creating layer L1_b6_brc3_bn
I1207 05:38:14.340354  1922 net.cpp:100] Creating Layer L1_b6_brc3_bn
I1207 05:38:14.340360  1922 net.cpp:434] L1_b6_brc3_bn <- L1_b6_brc2_conv_top
I1207 05:38:14.340368  1922 net.cpp:408] L1_b6_brc3_bn -> L1_b6_brc3_bn_top
I1207 05:38:14.340606  1922 net.cpp:150] Setting up L1_b6_brc3_bn
I1207 05:38:14.340618  1922 net.cpp:157] Top shape: 85 32 32 32 (2785280)
I1207 05:38:14.340623  1922 net.cpp:165] Memory required for data: 1109586940
I1207 05:38:14.340633  1922 layer_factory.hpp:77] Creating layer L1_b6_brc3_relu
I1207 05:38:14.340642  1922 net.cpp:100] Creating Layer L1_b6_brc3_relu
I1207 05:38:14.340648  1922 net.cpp:434] L1_b6_brc3_relu <- L1_b6_brc3_bn_top
I1207 05:38:14.340657  1922 net.cpp:395] L1_b6_brc3_relu -> L1_b6_brc3_bn_top (in-place)
I1207 05:38:14.340668  1922 net.cpp:150] Setting up L1_b6_brc3_relu
I1207 05:38:14.340675  1922 net.cpp:157] Top shape: 85 32 32 32 (2785280)
I1207 05:38:14.340679  1922 net.cpp:165] Memory required for data: 1120728060
I1207 05:38:14.340684  1922 layer_factory.hpp:77] Creating layer L1_b6_brc3_conv
I1207 05:38:14.340703  1922 net.cpp:100] Creating Layer L1_b6_brc3_conv
I1207 05:38:14.340710  1922 net.cpp:434] L1_b6_brc3_conv <- L1_b6_brc3_bn_top
I1207 05:38:14.340718  1922 net.cpp:408] L1_b6_brc3_conv -> L1_b6_brc3_conv_top
I1207 05:38:14.341039  1922 net.cpp:150] Setting up L1_b6_brc3_conv
I1207 05:38:14.341053  1922 net.cpp:157] Top shape: 85 64 32 32 (5570560)
I1207 05:38:14.341058  1922 net.cpp:165] Memory required for data: 1143010300
I1207 05:38:14.341066  1922 layer_factory.hpp:77] Creating layer L1_b6_sum_eltwise
I1207 05:38:14.341075  1922 net.cpp:100] Creating Layer L1_b6_sum_eltwise
I1207 05:38:14.341083  1922 net.cpp:434] L1_b6_sum_eltwise <- L1_b6_brc3_conv_top
I1207 05:38:14.341089  1922 net.cpp:434] L1_b6_sum_eltwise <- L1_b5_sum_eltwise_top_L1_b5_sum_eltwise_0_split_1
I1207 05:38:14.341099  1922 net.cpp:408] L1_b6_sum_eltwise -> L1_b6_sum_eltwise_top
I1207 05:38:14.341130  1922 net.cpp:150] Setting up L1_b6_sum_eltwise
I1207 05:38:14.341140  1922 net.cpp:157] Top shape: 85 64 32 32 (5570560)
I1207 05:38:14.341145  1922 net.cpp:165] Memory required for data: 1165292540
I1207 05:38:14.341150  1922 layer_factory.hpp:77] Creating layer L1_b6_sum_eltwise_top_L1_b6_sum_eltwise_0_split
I1207 05:38:14.341159  1922 net.cpp:100] Creating Layer L1_b6_sum_eltwise_top_L1_b6_sum_eltwise_0_split
I1207 05:38:14.341166  1922 net.cpp:434] L1_b6_sum_eltwise_top_L1_b6_sum_eltwise_0_split <- L1_b6_sum_eltwise_top
I1207 05:38:14.341176  1922 net.cpp:408] L1_b6_sum_eltwise_top_L1_b6_sum_eltwise_0_split -> L1_b6_sum_eltwise_top_L1_b6_sum_eltwise_0_split_0
I1207 05:38:14.341186  1922 net.cpp:408] L1_b6_sum_eltwise_top_L1_b6_sum_eltwise_0_split -> L1_b6_sum_eltwise_top_L1_b6_sum_eltwise_0_split_1
I1207 05:38:14.341230  1922 net.cpp:150] Setting up L1_b6_sum_eltwise_top_L1_b6_sum_eltwise_0_split
I1207 05:38:14.341243  1922 net.cpp:157] Top shape: 85 64 32 32 (5570560)
I1207 05:38:14.341251  1922 net.cpp:157] Top shape: 85 64 32 32 (5570560)
I1207 05:38:14.341256  1922 net.cpp:165] Memory required for data: 1209857020
I1207 05:38:14.341261  1922 layer_factory.hpp:77] Creating layer L2_b1_brc1_bn
I1207 05:38:14.341269  1922 net.cpp:100] Creating Layer L2_b1_brc1_bn
I1207 05:38:14.341275  1922 net.cpp:434] L2_b1_brc1_bn <- L1_b6_sum_eltwise_top_L1_b6_sum_eltwise_0_split_0
I1207 05:38:14.341284  1922 net.cpp:408] L2_b1_brc1_bn -> L2_b1_brc1_bn_top
I1207 05:38:14.341517  1922 net.cpp:150] Setting up L2_b1_brc1_bn
I1207 05:38:14.341531  1922 net.cpp:157] Top shape: 85 64 32 32 (5570560)
I1207 05:38:14.341543  1922 net.cpp:165] Memory required for data: 1232139260
I1207 05:38:14.341554  1922 layer_factory.hpp:77] Creating layer L2_b1_brc1_relu
I1207 05:38:14.341565  1922 net.cpp:100] Creating Layer L2_b1_brc1_relu
I1207 05:38:14.341572  1922 net.cpp:434] L2_b1_brc1_relu <- L2_b1_brc1_bn_top
I1207 05:38:14.341578  1922 net.cpp:395] L2_b1_brc1_relu -> L2_b1_brc1_bn_top (in-place)
I1207 05:38:14.341588  1922 net.cpp:150] Setting up L2_b1_brc1_relu
I1207 05:38:14.341595  1922 net.cpp:157] Top shape: 85 64 32 32 (5570560)
I1207 05:38:14.341599  1922 net.cpp:165] Memory required for data: 1254421500
I1207 05:38:14.341604  1922 layer_factory.hpp:77] Creating layer L2_b1_brc1_conv
I1207 05:38:14.341617  1922 net.cpp:100] Creating Layer L2_b1_brc1_conv
I1207 05:38:14.341624  1922 net.cpp:434] L2_b1_brc1_conv <- L2_b1_brc1_bn_top
I1207 05:38:14.341634  1922 net.cpp:408] L2_b1_brc1_conv -> L2_b1_brc1_conv_top
I1207 05:38:14.342001  1922 net.cpp:150] Setting up L2_b1_brc1_conv
I1207 05:38:14.342015  1922 net.cpp:157] Top shape: 85 64 16 16 (1392640)
I1207 05:38:14.342020  1922 net.cpp:165] Memory required for data: 1259992060
I1207 05:38:14.342030  1922 layer_factory.hpp:77] Creating layer L2_b1_brc2_bn
I1207 05:38:14.342037  1922 net.cpp:100] Creating Layer L2_b1_brc2_bn
I1207 05:38:14.342043  1922 net.cpp:434] L2_b1_brc2_bn <- L2_b1_brc1_conv_top
I1207 05:38:14.342054  1922 net.cpp:408] L2_b1_brc2_bn -> L2_b1_brc2_bn_top
I1207 05:38:14.342305  1922 net.cpp:150] Setting up L2_b1_brc2_bn
I1207 05:38:14.342321  1922 net.cpp:157] Top shape: 85 64 16 16 (1392640)
I1207 05:38:14.342326  1922 net.cpp:165] Memory required for data: 1265562620
I1207 05:38:14.342336  1922 layer_factory.hpp:77] Creating layer L2_b1_brc2_relu
I1207 05:38:14.342345  1922 net.cpp:100] Creating Layer L2_b1_brc2_relu
I1207 05:38:14.342351  1922 net.cpp:434] L2_b1_brc2_relu <- L2_b1_brc2_bn_top
I1207 05:38:14.342358  1922 net.cpp:395] L2_b1_brc2_relu -> L2_b1_brc2_bn_top (in-place)
I1207 05:38:14.342368  1922 net.cpp:150] Setting up L2_b1_brc2_relu
I1207 05:38:14.342375  1922 net.cpp:157] Top shape: 85 64 16 16 (1392640)
I1207 05:38:14.342380  1922 net.cpp:165] Memory required for data: 1271133180
I1207 05:38:14.342384  1922 layer_factory.hpp:77] Creating layer L2_b1_brc2_conv
I1207 05:38:14.342397  1922 net.cpp:100] Creating Layer L2_b1_brc2_conv
I1207 05:38:14.342403  1922 net.cpp:434] L2_b1_brc2_conv <- L2_b1_brc2_bn_top
I1207 05:38:14.342412  1922 net.cpp:408] L2_b1_brc2_conv -> L2_b1_brc2_conv_top
I1207 05:38:14.342720  1922 net.cpp:150] Setting up L2_b1_brc2_conv
I1207 05:38:14.342733  1922 net.cpp:157] Top shape: 85 64 16 16 (1392640)
I1207 05:38:14.342738  1922 net.cpp:165] Memory required for data: 1276703740
I1207 05:38:14.342746  1922 layer_factory.hpp:77] Creating layer L2_b1_brc3_bn
I1207 05:38:14.342758  1922 net.cpp:100] Creating Layer L2_b1_brc3_bn
I1207 05:38:14.342766  1922 net.cpp:434] L2_b1_brc3_bn <- L2_b1_brc2_conv_top
I1207 05:38:14.342773  1922 net.cpp:408] L2_b1_brc3_bn -> L2_b1_brc3_bn_top
I1207 05:38:14.343014  1922 net.cpp:150] Setting up L2_b1_brc3_bn
I1207 05:38:14.343030  1922 net.cpp:157] Top shape: 85 64 16 16 (1392640)
I1207 05:38:14.343035  1922 net.cpp:165] Memory required for data: 1282274300
I1207 05:38:14.343046  1922 layer_factory.hpp:77] Creating layer L2_b1_brc3_relu
I1207 05:38:14.343055  1922 net.cpp:100] Creating Layer L2_b1_brc3_relu
I1207 05:38:14.343060  1922 net.cpp:434] L2_b1_brc3_relu <- L2_b1_brc3_bn_top
I1207 05:38:14.343067  1922 net.cpp:395] L2_b1_brc3_relu -> L2_b1_brc3_bn_top (in-place)
I1207 05:38:14.343077  1922 net.cpp:150] Setting up L2_b1_brc3_relu
I1207 05:38:14.343085  1922 net.cpp:157] Top shape: 85 64 16 16 (1392640)
I1207 05:38:14.343088  1922 net.cpp:165] Memory required for data: 1287844860
I1207 05:38:14.343093  1922 layer_factory.hpp:77] Creating layer L2_b1_brc3_conv
I1207 05:38:14.343103  1922 net.cpp:100] Creating Layer L2_b1_brc3_conv
I1207 05:38:14.343108  1922 net.cpp:434] L2_b1_brc3_conv <- L2_b1_brc3_bn_top
I1207 05:38:14.343119  1922 net.cpp:408] L2_b1_brc3_conv -> L2_b1_brc3_conv_top
I1207 05:38:14.344606  1922 net.cpp:150] Setting up L2_b1_brc3_conv
I1207 05:38:14.344624  1922 net.cpp:157] Top shape: 85 128 16 16 (2785280)
I1207 05:38:14.344630  1922 net.cpp:165] Memory required for data: 1298985980
I1207 05:38:14.344640  1922 layer_factory.hpp:77] Creating layer L2_b1_chanInc_conv
I1207 05:38:14.344655  1922 net.cpp:100] Creating Layer L2_b1_chanInc_conv
I1207 05:38:14.344661  1922 net.cpp:434] L2_b1_chanInc_conv <- L1_b6_sum_eltwise_top_L1_b6_sum_eltwise_0_split_1
I1207 05:38:14.344671  1922 net.cpp:408] L2_b1_chanInc_conv -> L2_b1_chanInc_conv_top
I1207 05:38:14.345110  1922 net.cpp:150] Setting up L2_b1_chanInc_conv
I1207 05:38:14.345124  1922 net.cpp:157] Top shape: 85 128 16 16 (2785280)
I1207 05:38:14.345130  1922 net.cpp:165] Memory required for data: 1310127100
I1207 05:38:14.345139  1922 layer_factory.hpp:77] Creating layer L2_b1_sum_eltwise
I1207 05:38:14.345149  1922 net.cpp:100] Creating Layer L2_b1_sum_eltwise
I1207 05:38:14.345155  1922 net.cpp:434] L2_b1_sum_eltwise <- L2_b1_brc3_conv_top
I1207 05:38:14.345161  1922 net.cpp:434] L2_b1_sum_eltwise <- L2_b1_chanInc_conv_top
I1207 05:38:14.345172  1922 net.cpp:408] L2_b1_sum_eltwise -> L2_b1_sum_eltwise_top
I1207 05:38:14.345198  1922 net.cpp:150] Setting up L2_b1_sum_eltwise
I1207 05:38:14.345207  1922 net.cpp:157] Top shape: 85 128 16 16 (2785280)
I1207 05:38:14.345212  1922 net.cpp:165] Memory required for data: 1321268220
I1207 05:38:14.345217  1922 layer_factory.hpp:77] Creating layer L2_b1_sum_eltwise_top_L2_b1_sum_eltwise_0_split
I1207 05:38:14.345226  1922 net.cpp:100] Creating Layer L2_b1_sum_eltwise_top_L2_b1_sum_eltwise_0_split
I1207 05:38:14.345232  1922 net.cpp:434] L2_b1_sum_eltwise_top_L2_b1_sum_eltwise_0_split <- L2_b1_sum_eltwise_top
I1207 05:38:14.345242  1922 net.cpp:408] L2_b1_sum_eltwise_top_L2_b1_sum_eltwise_0_split -> L2_b1_sum_eltwise_top_L2_b1_sum_eltwise_0_split_0
I1207 05:38:14.345252  1922 net.cpp:408] L2_b1_sum_eltwise_top_L2_b1_sum_eltwise_0_split -> L2_b1_sum_eltwise_top_L2_b1_sum_eltwise_0_split_1
I1207 05:38:14.345301  1922 net.cpp:150] Setting up L2_b1_sum_eltwise_top_L2_b1_sum_eltwise_0_split
I1207 05:38:14.345314  1922 net.cpp:157] Top shape: 85 128 16 16 (2785280)
I1207 05:38:14.345320  1922 net.cpp:157] Top shape: 85 128 16 16 (2785280)
I1207 05:38:14.345324  1922 net.cpp:165] Memory required for data: 1343550460
I1207 05:38:14.345329  1922 layer_factory.hpp:77] Creating layer L2_b2_brc1_bn
I1207 05:38:14.345341  1922 net.cpp:100] Creating Layer L2_b2_brc1_bn
I1207 05:38:14.345347  1922 net.cpp:434] L2_b2_brc1_bn <- L2_b1_sum_eltwise_top_L2_b1_sum_eltwise_0_split_0
I1207 05:38:14.345355  1922 net.cpp:408] L2_b2_brc1_bn -> L2_b2_brc1_bn_top
I1207 05:38:14.345577  1922 net.cpp:150] Setting up L2_b2_brc1_bn
I1207 05:38:14.345589  1922 net.cpp:157] Top shape: 85 128 16 16 (2785280)
I1207 05:38:14.345594  1922 net.cpp:165] Memory required for data: 1354691580
I1207 05:38:14.345604  1922 layer_factory.hpp:77] Creating layer L2_b2_brc1_relu
I1207 05:38:14.345613  1922 net.cpp:100] Creating Layer L2_b2_brc1_relu
I1207 05:38:14.345619  1922 net.cpp:434] L2_b2_brc1_relu <- L2_b2_brc1_bn_top
I1207 05:38:14.345626  1922 net.cpp:395] L2_b2_brc1_relu -> L2_b2_brc1_bn_top (in-place)
I1207 05:38:14.345636  1922 net.cpp:150] Setting up L2_b2_brc1_relu
I1207 05:38:14.345644  1922 net.cpp:157] Top shape: 85 128 16 16 (2785280)
I1207 05:38:14.345649  1922 net.cpp:165] Memory required for data: 1365832700
I1207 05:38:14.345654  1922 layer_factory.hpp:77] Creating layer L2_b2_brc1_conv
I1207 05:38:14.345666  1922 net.cpp:100] Creating Layer L2_b2_brc1_conv
I1207 05:38:14.345672  1922 net.cpp:434] L2_b2_brc1_conv <- L2_b2_brc1_bn_top
I1207 05:38:14.345685  1922 net.cpp:408] L2_b2_brc1_conv -> L2_b2_brc1_conv_top
I1207 05:38:14.346168  1922 net.cpp:150] Setting up L2_b2_brc1_conv
I1207 05:38:14.346184  1922 net.cpp:157] Top shape: 85 64 16 16 (1392640)
I1207 05:38:14.346189  1922 net.cpp:165] Memory required for data: 1371403260
I1207 05:38:14.346199  1922 layer_factory.hpp:77] Creating layer L2_b2_brc2_bn
I1207 05:38:14.346222  1922 net.cpp:100] Creating Layer L2_b2_brc2_bn
I1207 05:38:14.346230  1922 net.cpp:434] L2_b2_brc2_bn <- L2_b2_brc1_conv_top
I1207 05:38:14.346240  1922 net.cpp:408] L2_b2_brc2_bn -> L2_b2_brc2_bn_top
I1207 05:38:14.346479  1922 net.cpp:150] Setting up L2_b2_brc2_bn
I1207 05:38:14.346493  1922 net.cpp:157] Top shape: 85 64 16 16 (1392640)
I1207 05:38:14.346498  1922 net.cpp:165] Memory required for data: 1376973820
I1207 05:38:14.346508  1922 layer_factory.hpp:77] Creating layer L2_b2_brc2_relu
I1207 05:38:14.346515  1922 net.cpp:100] Creating Layer L2_b2_brc2_relu
I1207 05:38:14.346521  1922 net.cpp:434] L2_b2_brc2_relu <- L2_b2_brc2_bn_top
I1207 05:38:14.346529  1922 net.cpp:395] L2_b2_brc2_relu -> L2_b2_brc2_bn_top (in-place)
I1207 05:38:14.346539  1922 net.cpp:150] Setting up L2_b2_brc2_relu
I1207 05:38:14.346545  1922 net.cpp:157] Top shape: 85 64 16 16 (1392640)
I1207 05:38:14.346549  1922 net.cpp:165] Memory required for data: 1382544380
I1207 05:38:14.346554  1922 layer_factory.hpp:77] Creating layer L2_b2_brc2_conv
I1207 05:38:14.346568  1922 net.cpp:100] Creating Layer L2_b2_brc2_conv
I1207 05:38:14.346575  1922 net.cpp:434] L2_b2_brc2_conv <- L2_b2_brc2_bn_top
I1207 05:38:14.346583  1922 net.cpp:408] L2_b2_brc2_conv -> L2_b2_brc2_conv_top
I1207 05:38:14.346901  1922 net.cpp:150] Setting up L2_b2_brc2_conv
I1207 05:38:14.346916  1922 net.cpp:157] Top shape: 85 64 16 16 (1392640)
I1207 05:38:14.346921  1922 net.cpp:165] Memory required for data: 1388114940
I1207 05:38:14.346930  1922 layer_factory.hpp:77] Creating layer L2_b2_brc3_bn
I1207 05:38:14.346940  1922 net.cpp:100] Creating Layer L2_b2_brc3_bn
I1207 05:38:14.346947  1922 net.cpp:434] L2_b2_brc3_bn <- L2_b2_brc2_conv_top
I1207 05:38:14.346956  1922 net.cpp:408] L2_b2_brc3_bn -> L2_b2_brc3_bn_top
I1207 05:38:14.347193  1922 net.cpp:150] Setting up L2_b2_brc3_bn
I1207 05:38:14.347208  1922 net.cpp:157] Top shape: 85 64 16 16 (1392640)
I1207 05:38:14.347214  1922 net.cpp:165] Memory required for data: 1393685500
I1207 05:38:14.347224  1922 layer_factory.hpp:77] Creating layer L2_b2_brc3_relu
I1207 05:38:14.347232  1922 net.cpp:100] Creating Layer L2_b2_brc3_relu
I1207 05:38:14.347239  1922 net.cpp:434] L2_b2_brc3_relu <- L2_b2_brc3_bn_top
I1207 05:38:14.347245  1922 net.cpp:395] L2_b2_brc3_relu -> L2_b2_brc3_bn_top (in-place)
I1207 05:38:14.347255  1922 net.cpp:150] Setting up L2_b2_brc3_relu
I1207 05:38:14.347262  1922 net.cpp:157] Top shape: 85 64 16 16 (1392640)
I1207 05:38:14.347266  1922 net.cpp:165] Memory required for data: 1399256060
I1207 05:38:14.347271  1922 layer_factory.hpp:77] Creating layer L2_b2_brc3_conv
I1207 05:38:14.347281  1922 net.cpp:100] Creating Layer L2_b2_brc3_conv
I1207 05:38:14.347286  1922 net.cpp:434] L2_b2_brc3_conv <- L2_b2_brc3_bn_top
I1207 05:38:14.347298  1922 net.cpp:408] L2_b2_brc3_conv -> L2_b2_brc3_conv_top
I1207 05:38:14.347740  1922 net.cpp:150] Setting up L2_b2_brc3_conv
I1207 05:38:14.347755  1922 net.cpp:157] Top shape: 85 128 16 16 (2785280)
I1207 05:38:14.347760  1922 net.cpp:165] Memory required for data: 1410397180
I1207 05:38:14.347769  1922 layer_factory.hpp:77] Creating layer L2_b2_sum_eltwise
I1207 05:38:14.347779  1922 net.cpp:100] Creating Layer L2_b2_sum_eltwise
I1207 05:38:14.347784  1922 net.cpp:434] L2_b2_sum_eltwise <- L2_b2_brc3_conv_top
I1207 05:38:14.347791  1922 net.cpp:434] L2_b2_sum_eltwise <- L2_b1_sum_eltwise_top_L2_b1_sum_eltwise_0_split_1
I1207 05:38:14.347805  1922 net.cpp:408] L2_b2_sum_eltwise -> L2_b2_sum_eltwise_top
I1207 05:38:14.347831  1922 net.cpp:150] Setting up L2_b2_sum_eltwise
I1207 05:38:14.347841  1922 net.cpp:157] Top shape: 85 128 16 16 (2785280)
I1207 05:38:14.347846  1922 net.cpp:165] Memory required for data: 1421538300
I1207 05:38:14.347851  1922 layer_factory.hpp:77] Creating layer L2_b2_sum_eltwise_top_L2_b2_sum_eltwise_0_split
I1207 05:38:14.347862  1922 net.cpp:100] Creating Layer L2_b2_sum_eltwise_top_L2_b2_sum_eltwise_0_split
I1207 05:38:14.347867  1922 net.cpp:434] L2_b2_sum_eltwise_top_L2_b2_sum_eltwise_0_split <- L2_b2_sum_eltwise_top
I1207 05:38:14.347882  1922 net.cpp:408] L2_b2_sum_eltwise_top_L2_b2_sum_eltwise_0_split -> L2_b2_sum_eltwise_top_L2_b2_sum_eltwise_0_split_0
I1207 05:38:14.347892  1922 net.cpp:408] L2_b2_sum_eltwise_top_L2_b2_sum_eltwise_0_split -> L2_b2_sum_eltwise_top_L2_b2_sum_eltwise_0_split_1
I1207 05:38:14.347940  1922 net.cpp:150] Setting up L2_b2_sum_eltwise_top_L2_b2_sum_eltwise_0_split
I1207 05:38:14.347952  1922 net.cpp:157] Top shape: 85 128 16 16 (2785280)
I1207 05:38:14.347959  1922 net.cpp:157] Top shape: 85 128 16 16 (2785280)
I1207 05:38:14.347965  1922 net.cpp:165] Memory required for data: 1443820540
I1207 05:38:14.347970  1922 layer_factory.hpp:77] Creating layer L2_b3_brc1_bn
I1207 05:38:14.347977  1922 net.cpp:100] Creating Layer L2_b3_brc1_bn
I1207 05:38:14.347983  1922 net.cpp:434] L2_b3_brc1_bn <- L2_b2_sum_eltwise_top_L2_b2_sum_eltwise_0_split_0
I1207 05:38:14.347993  1922 net.cpp:408] L2_b3_brc1_bn -> L2_b3_brc1_bn_top
I1207 05:38:14.348220  1922 net.cpp:150] Setting up L2_b3_brc1_bn
I1207 05:38:14.348232  1922 net.cpp:157] Top shape: 85 128 16 16 (2785280)
I1207 05:38:14.348237  1922 net.cpp:165] Memory required for data: 1454961660
I1207 05:38:14.348265  1922 layer_factory.hpp:77] Creating layer L2_b3_brc1_relu
I1207 05:38:14.348278  1922 net.cpp:100] Creating Layer L2_b3_brc1_relu
I1207 05:38:14.348284  1922 net.cpp:434] L2_b3_brc1_relu <- L2_b3_brc1_bn_top
I1207 05:38:14.348291  1922 net.cpp:395] L2_b3_brc1_relu -> L2_b3_brc1_bn_top (in-place)
I1207 05:38:14.348301  1922 net.cpp:150] Setting up L2_b3_brc1_relu
I1207 05:38:14.348309  1922 net.cpp:157] Top shape: 85 128 16 16 (2785280)
I1207 05:38:14.348312  1922 net.cpp:165] Memory required for data: 1466102780
I1207 05:38:14.348317  1922 layer_factory.hpp:77] Creating layer L2_b3_brc1_conv
I1207 05:38:14.348327  1922 net.cpp:100] Creating Layer L2_b3_brc1_conv
I1207 05:38:14.348333  1922 net.cpp:434] L2_b3_brc1_conv <- L2_b3_brc1_bn_top
I1207 05:38:14.348345  1922 net.cpp:408] L2_b3_brc1_conv -> L2_b3_brc1_conv_top
I1207 05:38:14.348800  1922 net.cpp:150] Setting up L2_b3_brc1_conv
I1207 05:38:14.348815  1922 net.cpp:157] Top shape: 85 64 16 16 (1392640)
I1207 05:38:14.348820  1922 net.cpp:165] Memory required for data: 1471673340
I1207 05:38:14.348829  1922 layer_factory.hpp:77] Creating layer L2_b3_brc2_bn
I1207 05:38:14.348837  1922 net.cpp:100] Creating Layer L2_b3_brc2_bn
I1207 05:38:14.348843  1922 net.cpp:434] L2_b3_brc2_bn <- L2_b3_brc1_conv_top
I1207 05:38:14.348851  1922 net.cpp:408] L2_b3_brc2_bn -> L2_b3_brc2_bn_top
I1207 05:38:14.349088  1922 net.cpp:150] Setting up L2_b3_brc2_bn
I1207 05:38:14.349102  1922 net.cpp:157] Top shape: 85 64 16 16 (1392640)
I1207 05:38:14.349107  1922 net.cpp:165] Memory required for data: 1477243900
I1207 05:38:14.349117  1922 layer_factory.hpp:77] Creating layer L2_b3_brc2_relu
I1207 05:38:14.349123  1922 net.cpp:100] Creating Layer L2_b3_brc2_relu
I1207 05:38:14.349129  1922 net.cpp:434] L2_b3_brc2_relu <- L2_b3_brc2_bn_top
I1207 05:38:14.349136  1922 net.cpp:395] L2_b3_brc2_relu -> L2_b3_brc2_bn_top (in-place)
I1207 05:38:14.349146  1922 net.cpp:150] Setting up L2_b3_brc2_relu
I1207 05:38:14.349153  1922 net.cpp:157] Top shape: 85 64 16 16 (1392640)
I1207 05:38:14.349159  1922 net.cpp:165] Memory required for data: 1482814460
I1207 05:38:14.349164  1922 layer_factory.hpp:77] Creating layer L2_b3_brc2_conv
I1207 05:38:14.349176  1922 net.cpp:100] Creating Layer L2_b3_brc2_conv
I1207 05:38:14.349182  1922 net.cpp:434] L2_b3_brc2_conv <- L2_b3_brc2_bn_top
I1207 05:38:14.349198  1922 net.cpp:408] L2_b3_brc2_conv -> L2_b3_brc2_conv_top
I1207 05:38:14.349510  1922 net.cpp:150] Setting up L2_b3_brc2_conv
I1207 05:38:14.349524  1922 net.cpp:157] Top shape: 85 64 16 16 (1392640)
I1207 05:38:14.349529  1922 net.cpp:165] Memory required for data: 1488385020
I1207 05:38:14.349539  1922 layer_factory.hpp:77] Creating layer L2_b3_brc3_bn
I1207 05:38:14.349546  1922 net.cpp:100] Creating Layer L2_b3_brc3_bn
I1207 05:38:14.349552  1922 net.cpp:434] L2_b3_brc3_bn <- L2_b3_brc2_conv_top
I1207 05:38:14.349563  1922 net.cpp:408] L2_b3_brc3_bn -> L2_b3_brc3_bn_top
I1207 05:38:14.349817  1922 net.cpp:150] Setting up L2_b3_brc3_bn
I1207 05:38:14.349831  1922 net.cpp:157] Top shape: 85 64 16 16 (1392640)
I1207 05:38:14.349836  1922 net.cpp:165] Memory required for data: 1493955580
I1207 05:38:14.349846  1922 layer_factory.hpp:77] Creating layer L2_b3_brc3_relu
I1207 05:38:14.349854  1922 net.cpp:100] Creating Layer L2_b3_brc3_relu
I1207 05:38:14.349860  1922 net.cpp:434] L2_b3_brc3_relu <- L2_b3_brc3_bn_top
I1207 05:38:14.349867  1922 net.cpp:395] L2_b3_brc3_relu -> L2_b3_brc3_bn_top (in-place)
I1207 05:38:14.349877  1922 net.cpp:150] Setting up L2_b3_brc3_relu
I1207 05:38:14.349884  1922 net.cpp:157] Top shape: 85 64 16 16 (1392640)
I1207 05:38:14.349889  1922 net.cpp:165] Memory required for data: 1499526140
I1207 05:38:14.349894  1922 layer_factory.hpp:77] Creating layer L2_b3_brc3_conv
I1207 05:38:14.349907  1922 net.cpp:100] Creating Layer L2_b3_brc3_conv
I1207 05:38:14.349913  1922 net.cpp:434] L2_b3_brc3_conv <- L2_b3_brc3_bn_top
I1207 05:38:14.349925  1922 net.cpp:408] L2_b3_brc3_conv -> L2_b3_brc3_conv_top
I1207 05:38:14.350360  1922 net.cpp:150] Setting up L2_b3_brc3_conv
I1207 05:38:14.350374  1922 net.cpp:157] Top shape: 85 128 16 16 (2785280)
I1207 05:38:14.350379  1922 net.cpp:165] Memory required for data: 1510667260
I1207 05:38:14.350388  1922 layer_factory.hpp:77] Creating layer L2_b3_sum_eltwise
I1207 05:38:14.350401  1922 net.cpp:100] Creating Layer L2_b3_sum_eltwise
I1207 05:38:14.350407  1922 net.cpp:434] L2_b3_sum_eltwise <- L2_b3_brc3_conv_top
I1207 05:38:14.350415  1922 net.cpp:434] L2_b3_sum_eltwise <- L2_b2_sum_eltwise_top_L2_b2_sum_eltwise_0_split_1
I1207 05:38:14.350422  1922 net.cpp:408] L2_b3_sum_eltwise -> L2_b3_sum_eltwise_top
I1207 05:38:14.350452  1922 net.cpp:150] Setting up L2_b3_sum_eltwise
I1207 05:38:14.350461  1922 net.cpp:157] Top shape: 85 128 16 16 (2785280)
I1207 05:38:14.350466  1922 net.cpp:165] Memory required for data: 1521808380
I1207 05:38:14.350471  1922 layer_factory.hpp:77] Creating layer L2_b3_sum_eltwise_top_L2_b3_sum_eltwise_0_split
I1207 05:38:14.350478  1922 net.cpp:100] Creating Layer L2_b3_sum_eltwise_top_L2_b3_sum_eltwise_0_split
I1207 05:38:14.350484  1922 net.cpp:434] L2_b3_sum_eltwise_top_L2_b3_sum_eltwise_0_split <- L2_b3_sum_eltwise_top
I1207 05:38:14.350494  1922 net.cpp:408] L2_b3_sum_eltwise_top_L2_b3_sum_eltwise_0_split -> L2_b3_sum_eltwise_top_L2_b3_sum_eltwise_0_split_0
I1207 05:38:14.350504  1922 net.cpp:408] L2_b3_sum_eltwise_top_L2_b3_sum_eltwise_0_split -> L2_b3_sum_eltwise_top_L2_b3_sum_eltwise_0_split_1
I1207 05:38:14.350549  1922 net.cpp:150] Setting up L2_b3_sum_eltwise_top_L2_b3_sum_eltwise_0_split
I1207 05:38:14.350561  1922 net.cpp:157] Top shape: 85 128 16 16 (2785280)
I1207 05:38:14.350567  1922 net.cpp:157] Top shape: 85 128 16 16 (2785280)
I1207 05:38:14.350572  1922 net.cpp:165] Memory required for data: 1544090620
I1207 05:38:14.350577  1922 layer_factory.hpp:77] Creating layer L2_b4_brc1_bn
I1207 05:38:14.350589  1922 net.cpp:100] Creating Layer L2_b4_brc1_bn
I1207 05:38:14.350594  1922 net.cpp:434] L2_b4_brc1_bn <- L2_b3_sum_eltwise_top_L2_b3_sum_eltwise_0_split_0
I1207 05:38:14.350605  1922 net.cpp:408] L2_b4_brc1_bn -> L2_b4_brc1_bn_top
I1207 05:38:14.350841  1922 net.cpp:150] Setting up L2_b4_brc1_bn
I1207 05:38:14.350857  1922 net.cpp:157] Top shape: 85 128 16 16 (2785280)
I1207 05:38:14.350862  1922 net.cpp:165] Memory required for data: 1555231740
I1207 05:38:14.350872  1922 layer_factory.hpp:77] Creating layer L2_b4_brc1_relu
I1207 05:38:14.350880  1922 net.cpp:100] Creating Layer L2_b4_brc1_relu
I1207 05:38:14.350886  1922 net.cpp:434] L2_b4_brc1_relu <- L2_b4_brc1_bn_top
I1207 05:38:14.350893  1922 net.cpp:395] L2_b4_brc1_relu -> L2_b4_brc1_bn_top (in-place)
I1207 05:38:14.350903  1922 net.cpp:150] Setting up L2_b4_brc1_relu
I1207 05:38:14.350909  1922 net.cpp:157] Top shape: 85 128 16 16 (2785280)
I1207 05:38:14.350914  1922 net.cpp:165] Memory required for data: 1566372860
I1207 05:38:14.350919  1922 layer_factory.hpp:77] Creating layer L2_b4_brc1_conv
I1207 05:38:14.350936  1922 net.cpp:100] Creating Layer L2_b4_brc1_conv
I1207 05:38:14.350942  1922 net.cpp:434] L2_b4_brc1_conv <- L2_b4_brc1_bn_top
I1207 05:38:14.350953  1922 net.cpp:408] L2_b4_brc1_conv -> L2_b4_brc1_conv_top
I1207 05:38:14.351397  1922 net.cpp:150] Setting up L2_b4_brc1_conv
I1207 05:38:14.351411  1922 net.cpp:157] Top shape: 85 64 16 16 (1392640)
I1207 05:38:14.351416  1922 net.cpp:165] Memory required for data: 1571943420
I1207 05:38:14.351425  1922 layer_factory.hpp:77] Creating layer L2_b4_brc2_bn
I1207 05:38:14.351436  1922 net.cpp:100] Creating Layer L2_b4_brc2_bn
I1207 05:38:14.351444  1922 net.cpp:434] L2_b4_brc2_bn <- L2_b4_brc1_conv_top
I1207 05:38:14.351451  1922 net.cpp:408] L2_b4_brc2_bn -> L2_b4_brc2_bn_top
I1207 05:38:14.351698  1922 net.cpp:150] Setting up L2_b4_brc2_bn
I1207 05:38:14.351711  1922 net.cpp:157] Top shape: 85 64 16 16 (1392640)
I1207 05:38:14.351716  1922 net.cpp:165] Memory required for data: 1577513980
I1207 05:38:14.351727  1922 layer_factory.hpp:77] Creating layer L2_b4_brc2_relu
I1207 05:38:14.351737  1922 net.cpp:100] Creating Layer L2_b4_brc2_relu
I1207 05:38:14.351744  1922 net.cpp:434] L2_b4_brc2_relu <- L2_b4_brc2_bn_top
I1207 05:38:14.351752  1922 net.cpp:395] L2_b4_brc2_relu -> L2_b4_brc2_bn_top (in-place)
I1207 05:38:14.351761  1922 net.cpp:150] Setting up L2_b4_brc2_relu
I1207 05:38:14.351768  1922 net.cpp:157] Top shape: 85 64 16 16 (1392640)
I1207 05:38:14.351773  1922 net.cpp:165] Memory required for data: 1583084540
I1207 05:38:14.351778  1922 layer_factory.hpp:77] Creating layer L2_b4_brc2_conv
I1207 05:38:14.351788  1922 net.cpp:100] Creating Layer L2_b4_brc2_conv
I1207 05:38:14.351794  1922 net.cpp:434] L2_b4_brc2_conv <- L2_b4_brc2_bn_top
I1207 05:38:14.351804  1922 net.cpp:408] L2_b4_brc2_conv -> L2_b4_brc2_conv_top
I1207 05:38:14.352111  1922 net.cpp:150] Setting up L2_b4_brc2_conv
I1207 05:38:14.352125  1922 net.cpp:157] Top shape: 85 64 16 16 (1392640)
I1207 05:38:14.352130  1922 net.cpp:165] Memory required for data: 1588655100
I1207 05:38:14.352138  1922 layer_factory.hpp:77] Creating layer L2_b4_brc3_bn
I1207 05:38:14.352147  1922 net.cpp:100] Creating Layer L2_b4_brc3_bn
I1207 05:38:14.352154  1922 net.cpp:434] L2_b4_brc3_bn <- L2_b4_brc2_conv_top
I1207 05:38:14.352164  1922 net.cpp:408] L2_b4_brc3_bn -> L2_b4_brc3_bn_top
I1207 05:38:14.352411  1922 net.cpp:150] Setting up L2_b4_brc3_bn
I1207 05:38:14.352423  1922 net.cpp:157] Top shape: 85 64 16 16 (1392640)
I1207 05:38:14.352428  1922 net.cpp:165] Memory required for data: 1594225660
I1207 05:38:14.352438  1922 layer_factory.hpp:77] Creating layer L2_b4_brc3_relu
I1207 05:38:14.352452  1922 net.cpp:100] Creating Layer L2_b4_brc3_relu
I1207 05:38:14.352458  1922 net.cpp:434] L2_b4_brc3_relu <- L2_b4_brc3_bn_top
I1207 05:38:14.352464  1922 net.cpp:395] L2_b4_brc3_relu -> L2_b4_brc3_bn_top (in-place)
I1207 05:38:14.352474  1922 net.cpp:150] Setting up L2_b4_brc3_relu
I1207 05:38:14.352481  1922 net.cpp:157] Top shape: 85 64 16 16 (1392640)
I1207 05:38:14.352485  1922 net.cpp:165] Memory required for data: 1599796220
I1207 05:38:14.352490  1922 layer_factory.hpp:77] Creating layer L2_b4_brc3_conv
I1207 05:38:14.352500  1922 net.cpp:100] Creating Layer L2_b4_brc3_conv
I1207 05:38:14.352506  1922 net.cpp:434] L2_b4_brc3_conv <- L2_b4_brc3_bn_top
I1207 05:38:14.352517  1922 net.cpp:408] L2_b4_brc3_conv -> L2_b4_brc3_conv_top
I1207 05:38:14.352986  1922 net.cpp:150] Setting up L2_b4_brc3_conv
I1207 05:38:14.353001  1922 net.cpp:157] Top shape: 85 128 16 16 (2785280)
I1207 05:38:14.353006  1922 net.cpp:165] Memory required for data: 1610937340
I1207 05:38:14.353014  1922 layer_factory.hpp:77] Creating layer L2_b4_sum_eltwise
I1207 05:38:14.353024  1922 net.cpp:100] Creating Layer L2_b4_sum_eltwise
I1207 05:38:14.353030  1922 net.cpp:434] L2_b4_sum_eltwise <- L2_b4_brc3_conv_top
I1207 05:38:14.353037  1922 net.cpp:434] L2_b4_sum_eltwise <- L2_b3_sum_eltwise_top_L2_b3_sum_eltwise_0_split_1
I1207 05:38:14.353045  1922 net.cpp:408] L2_b4_sum_eltwise -> L2_b4_sum_eltwise_top
I1207 05:38:14.353077  1922 net.cpp:150] Setting up L2_b4_sum_eltwise
I1207 05:38:14.353093  1922 net.cpp:157] Top shape: 85 128 16 16 (2785280)
I1207 05:38:14.353098  1922 net.cpp:165] Memory required for data: 1622078460
I1207 05:38:14.353103  1922 layer_factory.hpp:77] Creating layer L2_b4_sum_eltwise_top_L2_b4_sum_eltwise_0_split
I1207 05:38:14.353111  1922 net.cpp:100] Creating Layer L2_b4_sum_eltwise_top_L2_b4_sum_eltwise_0_split
I1207 05:38:14.353117  1922 net.cpp:434] L2_b4_sum_eltwise_top_L2_b4_sum_eltwise_0_split <- L2_b4_sum_eltwise_top
I1207 05:38:14.353127  1922 net.cpp:408] L2_b4_sum_eltwise_top_L2_b4_sum_eltwise_0_split -> L2_b4_sum_eltwise_top_L2_b4_sum_eltwise_0_split_0
I1207 05:38:14.353137  1922 net.cpp:408] L2_b4_sum_eltwise_top_L2_b4_sum_eltwise_0_split -> L2_b4_sum_eltwise_top_L2_b4_sum_eltwise_0_split_1
I1207 05:38:14.353184  1922 net.cpp:150] Setting up L2_b4_sum_eltwise_top_L2_b4_sum_eltwise_0_split
I1207 05:38:14.353199  1922 net.cpp:157] Top shape: 85 128 16 16 (2785280)
I1207 05:38:14.353205  1922 net.cpp:157] Top shape: 85 128 16 16 (2785280)
I1207 05:38:14.353209  1922 net.cpp:165] Memory required for data: 1644360700
I1207 05:38:14.353214  1922 layer_factory.hpp:77] Creating layer L2_b5_brc1_bn
I1207 05:38:14.353224  1922 net.cpp:100] Creating Layer L2_b5_brc1_bn
I1207 05:38:14.353229  1922 net.cpp:434] L2_b5_brc1_bn <- L2_b4_sum_eltwise_top_L2_b4_sum_eltwise_0_split_0
I1207 05:38:14.353240  1922 net.cpp:408] L2_b5_brc1_bn -> L2_b5_brc1_bn_top
I1207 05:38:14.353499  1922 net.cpp:150] Setting up L2_b5_brc1_bn
I1207 05:38:14.353513  1922 net.cpp:157] Top shape: 85 128 16 16 (2785280)
I1207 05:38:14.353518  1922 net.cpp:165] Memory required for data: 1655501820
I1207 05:38:14.353528  1922 layer_factory.hpp:77] Creating layer L2_b5_brc1_relu
I1207 05:38:14.353538  1922 net.cpp:100] Creating Layer L2_b5_brc1_relu
I1207 05:38:14.353543  1922 net.cpp:434] L2_b5_brc1_relu <- L2_b5_brc1_bn_top
I1207 05:38:14.353554  1922 net.cpp:395] L2_b5_brc1_relu -> L2_b5_brc1_bn_top (in-place)
I1207 05:38:14.353564  1922 net.cpp:150] Setting up L2_b5_brc1_relu
I1207 05:38:14.353570  1922 net.cpp:157] Top shape: 85 128 16 16 (2785280)
I1207 05:38:14.353575  1922 net.cpp:165] Memory required for data: 1666642940
I1207 05:38:14.353579  1922 layer_factory.hpp:77] Creating layer L2_b5_brc1_conv
I1207 05:38:14.353590  1922 net.cpp:100] Creating Layer L2_b5_brc1_conv
I1207 05:38:14.353595  1922 net.cpp:434] L2_b5_brc1_conv <- L2_b5_brc1_bn_top
I1207 05:38:14.353605  1922 net.cpp:408] L2_b5_brc1_conv -> L2_b5_brc1_conv_top
I1207 05:38:14.354058  1922 net.cpp:150] Setting up L2_b5_brc1_conv
I1207 05:38:14.354073  1922 net.cpp:157] Top shape: 85 64 16 16 (1392640)
I1207 05:38:14.354077  1922 net.cpp:165] Memory required for data: 1672213500
I1207 05:38:14.354085  1922 layer_factory.hpp:77] Creating layer L2_b5_brc2_bn
I1207 05:38:14.354102  1922 net.cpp:100] Creating Layer L2_b5_brc2_bn
I1207 05:38:14.354109  1922 net.cpp:434] L2_b5_brc2_bn <- L2_b5_brc1_conv_top
I1207 05:38:14.354116  1922 net.cpp:408] L2_b5_brc2_bn -> L2_b5_brc2_bn_top
I1207 05:38:14.354362  1922 net.cpp:150] Setting up L2_b5_brc2_bn
I1207 05:38:14.354374  1922 net.cpp:157] Top shape: 85 64 16 16 (1392640)
I1207 05:38:14.354379  1922 net.cpp:165] Memory required for data: 1677784060
I1207 05:38:14.354389  1922 layer_factory.hpp:77] Creating layer L2_b5_brc2_relu
I1207 05:38:14.354398  1922 net.cpp:100] Creating Layer L2_b5_brc2_relu
I1207 05:38:14.354403  1922 net.cpp:434] L2_b5_brc2_relu <- L2_b5_brc2_bn_top
I1207 05:38:14.354410  1922 net.cpp:395] L2_b5_brc2_relu -> L2_b5_brc2_bn_top (in-place)
I1207 05:38:14.354419  1922 net.cpp:150] Setting up L2_b5_brc2_relu
I1207 05:38:14.354426  1922 net.cpp:157] Top shape: 85 64 16 16 (1392640)
I1207 05:38:14.354431  1922 net.cpp:165] Memory required for data: 1683354620
I1207 05:38:14.354435  1922 layer_factory.hpp:77] Creating layer L2_b5_brc2_conv
I1207 05:38:14.354449  1922 net.cpp:100] Creating Layer L2_b5_brc2_conv
I1207 05:38:14.354454  1922 net.cpp:434] L2_b5_brc2_conv <- L2_b5_brc2_bn_top
I1207 05:38:14.354465  1922 net.cpp:408] L2_b5_brc2_conv -> L2_b5_brc2_conv_top
I1207 05:38:14.354792  1922 net.cpp:150] Setting up L2_b5_brc2_conv
I1207 05:38:14.354806  1922 net.cpp:157] Top shape: 85 64 16 16 (1392640)
I1207 05:38:14.354811  1922 net.cpp:165] Memory required for data: 1688925180
I1207 05:38:14.354820  1922 layer_factory.hpp:77] Creating layer L2_b5_brc3_bn
I1207 05:38:14.354833  1922 net.cpp:100] Creating Layer L2_b5_brc3_bn
I1207 05:38:14.354840  1922 net.cpp:434] L2_b5_brc3_bn <- L2_b5_brc2_conv_top
I1207 05:38:14.354848  1922 net.cpp:408] L2_b5_brc3_bn -> L2_b5_brc3_bn_top
I1207 05:38:14.355088  1922 net.cpp:150] Setting up L2_b5_brc3_bn
I1207 05:38:14.355100  1922 net.cpp:157] Top shape: 85 64 16 16 (1392640)
I1207 05:38:14.355105  1922 net.cpp:165] Memory required for data: 1694495740
I1207 05:38:14.355115  1922 layer_factory.hpp:77] Creating layer L2_b5_brc3_relu
I1207 05:38:14.355124  1922 net.cpp:100] Creating Layer L2_b5_brc3_relu
I1207 05:38:14.355130  1922 net.cpp:434] L2_b5_brc3_relu <- L2_b5_brc3_bn_top
I1207 05:38:14.355137  1922 net.cpp:395] L2_b5_brc3_relu -> L2_b5_brc3_bn_top (in-place)
I1207 05:38:14.355147  1922 net.cpp:150] Setting up L2_b5_brc3_relu
I1207 05:38:14.355154  1922 net.cpp:157] Top shape: 85 64 16 16 (1392640)
I1207 05:38:14.355159  1922 net.cpp:165] Memory required for data: 1700066300
I1207 05:38:14.355163  1922 layer_factory.hpp:77] Creating layer L2_b5_brc3_conv
I1207 05:38:14.355176  1922 net.cpp:100] Creating Layer L2_b5_brc3_conv
I1207 05:38:14.355183  1922 net.cpp:434] L2_b5_brc3_conv <- L2_b5_brc3_bn_top
I1207 05:38:14.355195  1922 net.cpp:408] L2_b5_brc3_conv -> L2_b5_brc3_conv_top
I1207 05:38:14.355636  1922 net.cpp:150] Setting up L2_b5_brc3_conv
I1207 05:38:14.355650  1922 net.cpp:157] Top shape: 85 128 16 16 (2785280)
I1207 05:38:14.355655  1922 net.cpp:165] Memory required for data: 1711207420
I1207 05:38:14.355664  1922 layer_factory.hpp:77] Creating layer L2_b5_sum_eltwise
I1207 05:38:14.355676  1922 net.cpp:100] Creating Layer L2_b5_sum_eltwise
I1207 05:38:14.355682  1922 net.cpp:434] L2_b5_sum_eltwise <- L2_b5_brc3_conv_top
I1207 05:38:14.355696  1922 net.cpp:434] L2_b5_sum_eltwise <- L2_b4_sum_eltwise_top_L2_b4_sum_eltwise_0_split_1
I1207 05:38:14.355705  1922 net.cpp:408] L2_b5_sum_eltwise -> L2_b5_sum_eltwise_top
I1207 05:38:14.355734  1922 net.cpp:150] Setting up L2_b5_sum_eltwise
I1207 05:38:14.355744  1922 net.cpp:157] Top shape: 85 128 16 16 (2785280)
I1207 05:38:14.355749  1922 net.cpp:165] Memory required for data: 1722348540
I1207 05:38:14.355754  1922 layer_factory.hpp:77] Creating layer L2_b5_sum_eltwise_top_L2_b5_sum_eltwise_0_split
I1207 05:38:14.355762  1922 net.cpp:100] Creating Layer L2_b5_sum_eltwise_top_L2_b5_sum_eltwise_0_split
I1207 05:38:14.355767  1922 net.cpp:434] L2_b5_sum_eltwise_top_L2_b5_sum_eltwise_0_split <- L2_b5_sum_eltwise_top
I1207 05:38:14.355778  1922 net.cpp:408] L2_b5_sum_eltwise_top_L2_b5_sum_eltwise_0_split -> L2_b5_sum_eltwise_top_L2_b5_sum_eltwise_0_split_0
I1207 05:38:14.355788  1922 net.cpp:408] L2_b5_sum_eltwise_top_L2_b5_sum_eltwise_0_split -> L2_b5_sum_eltwise_top_L2_b5_sum_eltwise_0_split_1
I1207 05:38:14.355834  1922 net.cpp:150] Setting up L2_b5_sum_eltwise_top_L2_b5_sum_eltwise_0_split
I1207 05:38:14.355849  1922 net.cpp:157] Top shape: 85 128 16 16 (2785280)
I1207 05:38:14.355855  1922 net.cpp:157] Top shape: 85 128 16 16 (2785280)
I1207 05:38:14.355860  1922 net.cpp:165] Memory required for data: 1744630780
I1207 05:38:14.355865  1922 layer_factory.hpp:77] Creating layer L2_b6_brc1_bn
I1207 05:38:14.355873  1922 net.cpp:100] Creating Layer L2_b6_brc1_bn
I1207 05:38:14.355880  1922 net.cpp:434] L2_b6_brc1_bn <- L2_b5_sum_eltwise_top_L2_b5_sum_eltwise_0_split_0
I1207 05:38:14.355890  1922 net.cpp:408] L2_b6_brc1_bn -> L2_b6_brc1_bn_top
I1207 05:38:14.356114  1922 net.cpp:150] Setting up L2_b6_brc1_bn
I1207 05:38:14.356130  1922 net.cpp:157] Top shape: 85 128 16 16 (2785280)
I1207 05:38:14.356135  1922 net.cpp:165] Memory required for data: 1755771900
I1207 05:38:14.356145  1922 layer_factory.hpp:77] Creating layer L2_b6_brc1_relu
I1207 05:38:14.356173  1922 net.cpp:100] Creating Layer L2_b6_brc1_relu
I1207 05:38:14.356179  1922 net.cpp:434] L2_b6_brc1_relu <- L2_b6_brc1_bn_top
I1207 05:38:14.356186  1922 net.cpp:395] L2_b6_brc1_relu -> L2_b6_brc1_bn_top (in-place)
I1207 05:38:14.356197  1922 net.cpp:150] Setting up L2_b6_brc1_relu
I1207 05:38:14.356204  1922 net.cpp:157] Top shape: 85 128 16 16 (2785280)
I1207 05:38:14.356209  1922 net.cpp:165] Memory required for data: 1766913020
I1207 05:38:14.356215  1922 layer_factory.hpp:77] Creating layer L2_b6_brc1_conv
I1207 05:38:14.356227  1922 net.cpp:100] Creating Layer L2_b6_brc1_conv
I1207 05:38:14.356233  1922 net.cpp:434] L2_b6_brc1_conv <- L2_b6_brc1_bn_top
I1207 05:38:14.356246  1922 net.cpp:408] L2_b6_brc1_conv -> L2_b6_brc1_conv_top
I1207 05:38:14.356695  1922 net.cpp:150] Setting up L2_b6_brc1_conv
I1207 05:38:14.356709  1922 net.cpp:157] Top shape: 85 64 16 16 (1392640)
I1207 05:38:14.356714  1922 net.cpp:165] Memory required for data: 1772483580
I1207 05:38:14.356724  1922 layer_factory.hpp:77] Creating layer L2_b6_brc2_bn
I1207 05:38:14.356732  1922 net.cpp:100] Creating Layer L2_b6_brc2_bn
I1207 05:38:14.356739  1922 net.cpp:434] L2_b6_brc2_bn <- L2_b6_brc1_conv_top
I1207 05:38:14.356750  1922 net.cpp:408] L2_b6_brc2_bn -> L2_b6_brc2_bn_top
I1207 05:38:14.356994  1922 net.cpp:150] Setting up L2_b6_brc2_bn
I1207 05:38:14.357007  1922 net.cpp:157] Top shape: 85 64 16 16 (1392640)
I1207 05:38:14.357012  1922 net.cpp:165] Memory required for data: 1778054140
I1207 05:38:14.357023  1922 layer_factory.hpp:77] Creating layer L2_b6_brc2_relu
I1207 05:38:14.357034  1922 net.cpp:100] Creating Layer L2_b6_brc2_relu
I1207 05:38:14.357041  1922 net.cpp:434] L2_b6_brc2_relu <- L2_b6_brc2_bn_top
I1207 05:38:14.357048  1922 net.cpp:395] L2_b6_brc2_relu -> L2_b6_brc2_bn_top (in-place)
I1207 05:38:14.357059  1922 net.cpp:150] Setting up L2_b6_brc2_relu
I1207 05:38:14.357065  1922 net.cpp:157] Top shape: 85 64 16 16 (1392640)
I1207 05:38:14.357069  1922 net.cpp:165] Memory required for data: 1783624700
I1207 05:38:14.357074  1922 layer_factory.hpp:77] Creating layer L2_b6_brc2_conv
I1207 05:38:14.357085  1922 net.cpp:100] Creating Layer L2_b6_brc2_conv
I1207 05:38:14.357091  1922 net.cpp:434] L2_b6_brc2_conv <- L2_b6_brc2_bn_top
I1207 05:38:14.357107  1922 net.cpp:408] L2_b6_brc2_conv -> L2_b6_brc2_conv_top
I1207 05:38:14.357415  1922 net.cpp:150] Setting up L2_b6_brc2_conv
I1207 05:38:14.357429  1922 net.cpp:157] Top shape: 85 64 16 16 (1392640)
I1207 05:38:14.357434  1922 net.cpp:165] Memory required for data: 1789195260
I1207 05:38:14.357442  1922 layer_factory.hpp:77] Creating layer L2_b6_brc3_bn
I1207 05:38:14.357450  1922 net.cpp:100] Creating Layer L2_b6_brc3_bn
I1207 05:38:14.357457  1922 net.cpp:434] L2_b6_brc3_bn <- L2_b6_brc2_conv_top
I1207 05:38:14.357465  1922 net.cpp:408] L2_b6_brc3_bn -> L2_b6_brc3_bn_top
I1207 05:38:14.357713  1922 net.cpp:150] Setting up L2_b6_brc3_bn
I1207 05:38:14.357726  1922 net.cpp:157] Top shape: 85 64 16 16 (1392640)
I1207 05:38:14.357731  1922 net.cpp:165] Memory required for data: 1794765820
I1207 05:38:14.357743  1922 layer_factory.hpp:77] Creating layer L2_b6_brc3_relu
I1207 05:38:14.357750  1922 net.cpp:100] Creating Layer L2_b6_brc3_relu
I1207 05:38:14.357756  1922 net.cpp:434] L2_b6_brc3_relu <- L2_b6_brc3_bn_top
I1207 05:38:14.357766  1922 net.cpp:395] L2_b6_brc3_relu -> L2_b6_brc3_bn_top (in-place)
I1207 05:38:14.357777  1922 net.cpp:150] Setting up L2_b6_brc3_relu
I1207 05:38:14.357784  1922 net.cpp:157] Top shape: 85 64 16 16 (1392640)
I1207 05:38:14.357789  1922 net.cpp:165] Memory required for data: 1800336380
I1207 05:38:14.357794  1922 layer_factory.hpp:77] Creating layer L2_b6_brc3_conv
I1207 05:38:14.357807  1922 net.cpp:100] Creating Layer L2_b6_brc3_conv
I1207 05:38:14.357813  1922 net.cpp:434] L2_b6_brc3_conv <- L2_b6_brc3_bn_top
I1207 05:38:14.357821  1922 net.cpp:408] L2_b6_brc3_conv -> L2_b6_brc3_conv_top
I1207 05:38:14.358253  1922 net.cpp:150] Setting up L2_b6_brc3_conv
I1207 05:38:14.358266  1922 net.cpp:157] Top shape: 85 128 16 16 (2785280)
I1207 05:38:14.358278  1922 net.cpp:165] Memory required for data: 1811477500
I1207 05:38:14.358286  1922 layer_factory.hpp:77] Creating layer L2_b6_sum_eltwise
I1207 05:38:14.358295  1922 net.cpp:100] Creating Layer L2_b6_sum_eltwise
I1207 05:38:14.358301  1922 net.cpp:434] L2_b6_sum_eltwise <- L2_b6_brc3_conv_top
I1207 05:38:14.358309  1922 net.cpp:434] L2_b6_sum_eltwise <- L2_b5_sum_eltwise_top_L2_b5_sum_eltwise_0_split_1
I1207 05:38:14.358319  1922 net.cpp:408] L2_b6_sum_eltwise -> L2_b6_sum_eltwise_top
I1207 05:38:14.358346  1922 net.cpp:150] Setting up L2_b6_sum_eltwise
I1207 05:38:14.358357  1922 net.cpp:157] Top shape: 85 128 16 16 (2785280)
I1207 05:38:14.358362  1922 net.cpp:165] Memory required for data: 1822618620
I1207 05:38:14.358367  1922 layer_factory.hpp:77] Creating layer L2_b6_sum_eltwise_top_L2_b6_sum_eltwise_0_split
I1207 05:38:14.358381  1922 net.cpp:100] Creating Layer L2_b6_sum_eltwise_top_L2_b6_sum_eltwise_0_split
I1207 05:38:14.358387  1922 net.cpp:434] L2_b6_sum_eltwise_top_L2_b6_sum_eltwise_0_split <- L2_b6_sum_eltwise_top
I1207 05:38:14.358394  1922 net.cpp:408] L2_b6_sum_eltwise_top_L2_b6_sum_eltwise_0_split -> L2_b6_sum_eltwise_top_L2_b6_sum_eltwise_0_split_0
I1207 05:38:14.358404  1922 net.cpp:408] L2_b6_sum_eltwise_top_L2_b6_sum_eltwise_0_split -> L2_b6_sum_eltwise_top_L2_b6_sum_eltwise_0_split_1
I1207 05:38:14.358453  1922 net.cpp:150] Setting up L2_b6_sum_eltwise_top_L2_b6_sum_eltwise_0_split
I1207 05:38:14.358464  1922 net.cpp:157] Top shape: 85 128 16 16 (2785280)
I1207 05:38:14.358471  1922 net.cpp:157] Top shape: 85 128 16 16 (2785280)
I1207 05:38:14.358475  1922 net.cpp:165] Memory required for data: 1844900860
I1207 05:38:14.358480  1922 layer_factory.hpp:77] Creating layer L3_b1_brc1_bn
I1207 05:38:14.358492  1922 net.cpp:100] Creating Layer L3_b1_brc1_bn
I1207 05:38:14.358500  1922 net.cpp:434] L3_b1_brc1_bn <- L2_b6_sum_eltwise_top_L2_b6_sum_eltwise_0_split_0
I1207 05:38:14.358507  1922 net.cpp:408] L3_b1_brc1_bn -> L3_b1_brc1_bn_top
I1207 05:38:14.358747  1922 net.cpp:150] Setting up L3_b1_brc1_bn
I1207 05:38:14.358759  1922 net.cpp:157] Top shape: 85 128 16 16 (2785280)
I1207 05:38:14.358764  1922 net.cpp:165] Memory required for data: 1856041980
I1207 05:38:14.358775  1922 layer_factory.hpp:77] Creating layer L3_b1_brc1_relu
I1207 05:38:14.358783  1922 net.cpp:100] Creating Layer L3_b1_brc1_relu
I1207 05:38:14.358789  1922 net.cpp:434] L3_b1_brc1_relu <- L3_b1_brc1_bn_top
I1207 05:38:14.358796  1922 net.cpp:395] L3_b1_brc1_relu -> L3_b1_brc1_bn_top (in-place)
I1207 05:38:14.358806  1922 net.cpp:150] Setting up L3_b1_brc1_relu
I1207 05:38:14.358814  1922 net.cpp:157] Top shape: 85 128 16 16 (2785280)
I1207 05:38:14.358817  1922 net.cpp:165] Memory required for data: 1867183100
I1207 05:38:14.358822  1922 layer_factory.hpp:77] Creating layer L3_b1_brc1_conv
I1207 05:38:14.358835  1922 net.cpp:100] Creating Layer L3_b1_brc1_conv
I1207 05:38:14.358841  1922 net.cpp:434] L3_b1_brc1_conv <- L3_b1_brc1_bn_top
I1207 05:38:14.358852  1922 net.cpp:408] L3_b1_brc1_conv -> L3_b1_brc1_conv_top
I1207 05:38:14.359453  1922 net.cpp:150] Setting up L3_b1_brc1_conv
I1207 05:38:14.359468  1922 net.cpp:157] Top shape: 85 128 8 8 (696320)
I1207 05:38:14.359473  1922 net.cpp:165] Memory required for data: 1869968380
I1207 05:38:14.359482  1922 layer_factory.hpp:77] Creating layer L3_b1_brc2_bn
I1207 05:38:14.359493  1922 net.cpp:100] Creating Layer L3_b1_brc2_bn
I1207 05:38:14.359499  1922 net.cpp:434] L3_b1_brc2_bn <- L3_b1_brc1_conv_top
I1207 05:38:14.359508  1922 net.cpp:408] L3_b1_brc2_bn -> L3_b1_brc2_bn_top
I1207 05:38:14.359763  1922 net.cpp:150] Setting up L3_b1_brc2_bn
I1207 05:38:14.359777  1922 net.cpp:157] Top shape: 85 128 8 8 (696320)
I1207 05:38:14.359782  1922 net.cpp:165] Memory required for data: 1872753660
I1207 05:38:14.359792  1922 layer_factory.hpp:77] Creating layer L3_b1_brc2_relu
I1207 05:38:14.359802  1922 net.cpp:100] Creating Layer L3_b1_brc2_relu
I1207 05:38:14.359807  1922 net.cpp:434] L3_b1_brc2_relu <- L3_b1_brc2_bn_top
I1207 05:38:14.359814  1922 net.cpp:395] L3_b1_brc2_relu -> L3_b1_brc2_bn_top (in-place)
I1207 05:38:14.359832  1922 net.cpp:150] Setting up L3_b1_brc2_relu
I1207 05:38:14.359839  1922 net.cpp:157] Top shape: 85 128 8 8 (696320)
I1207 05:38:14.359843  1922 net.cpp:165] Memory required for data: 1875538940
I1207 05:38:14.359848  1922 layer_factory.hpp:77] Creating layer L3_b1_brc2_conv
I1207 05:38:14.359863  1922 net.cpp:100] Creating Layer L3_b1_brc2_conv
I1207 05:38:14.359869  1922 net.cpp:434] L3_b1_brc2_conv <- L3_b1_brc2_bn_top
I1207 05:38:14.359876  1922 net.cpp:408] L3_b1_brc2_conv -> L3_b1_brc2_conv_top
I1207 05:38:14.360249  1922 net.cpp:150] Setting up L3_b1_brc2_conv
I1207 05:38:14.360262  1922 net.cpp:157] Top shape: 85 128 8 8 (696320)
I1207 05:38:14.360267  1922 net.cpp:165] Memory required for data: 1878324220
I1207 05:38:14.360275  1922 layer_factory.hpp:77] Creating layer L3_b1_brc3_bn
I1207 05:38:14.360285  1922 net.cpp:100] Creating Layer L3_b1_brc3_bn
I1207 05:38:14.360291  1922 net.cpp:434] L3_b1_brc3_bn <- L3_b1_brc2_conv_top
I1207 05:38:14.360303  1922 net.cpp:408] L3_b1_brc3_bn -> L3_b1_brc3_bn_top
I1207 05:38:14.360548  1922 net.cpp:150] Setting up L3_b1_brc3_bn
I1207 05:38:14.360561  1922 net.cpp:157] Top shape: 85 128 8 8 (696320)
I1207 05:38:14.360566  1922 net.cpp:165] Memory required for data: 1881109500
I1207 05:38:14.360576  1922 layer_factory.hpp:77] Creating layer L3_b1_brc3_relu
I1207 05:38:14.360587  1922 net.cpp:100] Creating Layer L3_b1_brc3_relu
I1207 05:38:14.360594  1922 net.cpp:434] L3_b1_brc3_relu <- L3_b1_brc3_bn_top
I1207 05:38:14.360600  1922 net.cpp:395] L3_b1_brc3_relu -> L3_b1_brc3_bn_top (in-place)
I1207 05:38:14.360610  1922 net.cpp:150] Setting up L3_b1_brc3_relu
I1207 05:38:14.360617  1922 net.cpp:157] Top shape: 85 128 8 8 (696320)
I1207 05:38:14.360622  1922 net.cpp:165] Memory required for data: 1883894780
I1207 05:38:14.360626  1922 layer_factory.hpp:77] Creating layer L3_b1_brc3_conv
I1207 05:38:14.360636  1922 net.cpp:100] Creating Layer L3_b1_brc3_conv
I1207 05:38:14.360642  1922 net.cpp:434] L3_b1_brc3_conv <- L3_b1_brc3_bn_top
I1207 05:38:14.360653  1922 net.cpp:408] L3_b1_brc3_conv -> L3_b1_brc3_conv_top
I1207 05:38:14.362623  1922 net.cpp:150] Setting up L3_b1_brc3_conv
I1207 05:38:14.362642  1922 net.cpp:157] Top shape: 85 256 8 8 (1392640)
I1207 05:38:14.362646  1922 net.cpp:165] Memory required for data: 1889465340
I1207 05:38:14.362656  1922 layer_factory.hpp:77] Creating layer L3_b1_chanInc_conv
I1207 05:38:14.362673  1922 net.cpp:100] Creating Layer L3_b1_chanInc_conv
I1207 05:38:14.362680  1922 net.cpp:434] L3_b1_chanInc_conv <- L2_b6_sum_eltwise_top_L2_b6_sum_eltwise_0_split_1
I1207 05:38:14.362697  1922 net.cpp:408] L3_b1_chanInc_conv -> L3_b1_chanInc_conv_top
I1207 05:38:14.363627  1922 net.cpp:150] Setting up L3_b1_chanInc_conv
I1207 05:38:14.363641  1922 net.cpp:157] Top shape: 85 256 8 8 (1392640)
I1207 05:38:14.363647  1922 net.cpp:165] Memory required for data: 1895035900
I1207 05:38:14.363656  1922 layer_factory.hpp:77] Creating layer L3_b1_sum_eltwise
I1207 05:38:14.363668  1922 net.cpp:100] Creating Layer L3_b1_sum_eltwise
I1207 05:38:14.363674  1922 net.cpp:434] L3_b1_sum_eltwise <- L3_b1_brc3_conv_top
I1207 05:38:14.363682  1922 net.cpp:434] L3_b1_sum_eltwise <- L3_b1_chanInc_conv_top
I1207 05:38:14.363699  1922 net.cpp:408] L3_b1_sum_eltwise -> L3_b1_sum_eltwise_top
I1207 05:38:14.363734  1922 net.cpp:150] Setting up L3_b1_sum_eltwise
I1207 05:38:14.363745  1922 net.cpp:157] Top shape: 85 256 8 8 (1392640)
I1207 05:38:14.363750  1922 net.cpp:165] Memory required for data: 1900606460
I1207 05:38:14.363755  1922 layer_factory.hpp:77] Creating layer L3_b1_sum_eltwise_top_L3_b1_sum_eltwise_0_split
I1207 05:38:14.363766  1922 net.cpp:100] Creating Layer L3_b1_sum_eltwise_top_L3_b1_sum_eltwise_0_split
I1207 05:38:14.363773  1922 net.cpp:434] L3_b1_sum_eltwise_top_L3_b1_sum_eltwise_0_split <- L3_b1_sum_eltwise_top
I1207 05:38:14.363781  1922 net.cpp:408] L3_b1_sum_eltwise_top_L3_b1_sum_eltwise_0_split -> L3_b1_sum_eltwise_top_L3_b1_sum_eltwise_0_split_0
I1207 05:38:14.363790  1922 net.cpp:408] L3_b1_sum_eltwise_top_L3_b1_sum_eltwise_0_split -> L3_b1_sum_eltwise_top_L3_b1_sum_eltwise_0_split_1
I1207 05:38:14.363855  1922 net.cpp:150] Setting up L3_b1_sum_eltwise_top_L3_b1_sum_eltwise_0_split
I1207 05:38:14.363868  1922 net.cpp:157] Top shape: 85 256 8 8 (1392640)
I1207 05:38:14.363875  1922 net.cpp:157] Top shape: 85 256 8 8 (1392640)
I1207 05:38:14.363879  1922 net.cpp:165] Memory required for data: 1911747580
I1207 05:38:14.363885  1922 layer_factory.hpp:77] Creating layer L3_b2_brc1_bn
I1207 05:38:14.363896  1922 net.cpp:100] Creating Layer L3_b2_brc1_bn
I1207 05:38:14.363903  1922 net.cpp:434] L3_b2_brc1_bn <- L3_b1_sum_eltwise_top_L3_b1_sum_eltwise_0_split_0
I1207 05:38:14.363911  1922 net.cpp:408] L3_b2_brc1_bn -> L3_b2_brc1_bn_top
I1207 05:38:14.364148  1922 net.cpp:150] Setting up L3_b2_brc1_bn
I1207 05:38:14.364161  1922 net.cpp:157] Top shape: 85 256 8 8 (1392640)
I1207 05:38:14.364166  1922 net.cpp:165] Memory required for data: 1917318140
I1207 05:38:14.364177  1922 layer_factory.hpp:77] Creating layer L3_b2_brc1_relu
I1207 05:38:14.364186  1922 net.cpp:100] Creating Layer L3_b2_brc1_relu
I1207 05:38:14.364192  1922 net.cpp:434] L3_b2_brc1_relu <- L3_b2_brc1_bn_top
I1207 05:38:14.364202  1922 net.cpp:395] L3_b2_brc1_relu -> L3_b2_brc1_bn_top (in-place)
I1207 05:38:14.364212  1922 net.cpp:150] Setting up L3_b2_brc1_relu
I1207 05:38:14.364219  1922 net.cpp:157] Top shape: 85 256 8 8 (1392640)
I1207 05:38:14.364223  1922 net.cpp:165] Memory required for data: 1922888700
I1207 05:38:14.364228  1922 layer_factory.hpp:77] Creating layer L3_b2_brc1_conv
I1207 05:38:14.364241  1922 net.cpp:100] Creating Layer L3_b2_brc1_conv
I1207 05:38:14.364248  1922 net.cpp:434] L3_b2_brc1_conv <- L3_b2_brc1_bn_top
I1207 05:38:14.364256  1922 net.cpp:408] L3_b2_brc1_conv -> L3_b2_brc1_conv_top
I1207 05:38:14.365208  1922 net.cpp:150] Setting up L3_b2_brc1_conv
I1207 05:38:14.365227  1922 net.cpp:157] Top shape: 85 128 8 8 (696320)
I1207 05:38:14.365232  1922 net.cpp:165] Memory required for data: 1925673980
I1207 05:38:14.365242  1922 layer_factory.hpp:77] Creating layer L3_b2_brc2_bn
I1207 05:38:14.365250  1922 net.cpp:100] Creating Layer L3_b2_brc2_bn
I1207 05:38:14.365257  1922 net.cpp:434] L3_b2_brc2_bn <- L3_b2_brc1_conv_top
I1207 05:38:14.365268  1922 net.cpp:408] L3_b2_brc2_bn -> L3_b2_brc2_bn_top
I1207 05:38:14.365512  1922 net.cpp:150] Setting up L3_b2_brc2_bn
I1207 05:38:14.365525  1922 net.cpp:157] Top shape: 85 128 8 8 (696320)
I1207 05:38:14.365530  1922 net.cpp:165] Memory required for data: 1928459260
I1207 05:38:14.365540  1922 layer_factory.hpp:77] Creating layer L3_b2_brc2_relu
I1207 05:38:14.365550  1922 net.cpp:100] Creating Layer L3_b2_brc2_relu
I1207 05:38:14.365556  1922 net.cpp:434] L3_b2_brc2_relu <- L3_b2_brc2_bn_top
I1207 05:38:14.365562  1922 net.cpp:395] L3_b2_brc2_relu -> L3_b2_brc2_bn_top (in-place)
I1207 05:38:14.365572  1922 net.cpp:150] Setting up L3_b2_brc2_relu
I1207 05:38:14.365579  1922 net.cpp:157] Top shape: 85 128 8 8 (696320)
I1207 05:38:14.365583  1922 net.cpp:165] Memory required for data: 1931244540
I1207 05:38:14.365588  1922 layer_factory.hpp:77] Creating layer L3_b2_brc2_conv
I1207 05:38:14.365602  1922 net.cpp:100] Creating Layer L3_b2_brc2_conv
I1207 05:38:14.365608  1922 net.cpp:434] L3_b2_brc2_conv <- L3_b2_brc2_bn_top
I1207 05:38:14.365619  1922 net.cpp:408] L3_b2_brc2_conv -> L3_b2_brc2_conv_top
I1207 05:38:14.366014  1922 net.cpp:150] Setting up L3_b2_brc2_conv
I1207 05:38:14.366029  1922 net.cpp:157] Top shape: 85 128 8 8 (696320)
I1207 05:38:14.366034  1922 net.cpp:165] Memory required for data: 1934029820
I1207 05:38:14.366041  1922 layer_factory.hpp:77] Creating layer L3_b2_brc3_bn
I1207 05:38:14.366053  1922 net.cpp:100] Creating Layer L3_b2_brc3_bn
I1207 05:38:14.366060  1922 net.cpp:434] L3_b2_brc3_bn <- L3_b2_brc2_conv_top
I1207 05:38:14.366068  1922 net.cpp:408] L3_b2_brc3_bn -> L3_b2_brc3_bn_top
I1207 05:38:14.366313  1922 net.cpp:150] Setting up L3_b2_brc3_bn
I1207 05:38:14.366327  1922 net.cpp:157] Top shape: 85 128 8 8 (696320)
I1207 05:38:14.366331  1922 net.cpp:165] Memory required for data: 1936815100
I1207 05:38:14.366348  1922 layer_factory.hpp:77] Creating layer L3_b2_brc3_relu
I1207 05:38:14.366363  1922 net.cpp:100] Creating Layer L3_b2_brc3_relu
I1207 05:38:14.366369  1922 net.cpp:434] L3_b2_brc3_relu <- L3_b2_brc3_bn_top
I1207 05:38:14.366376  1922 net.cpp:395] L3_b2_brc3_relu -> L3_b2_brc3_bn_top (in-place)
I1207 05:38:14.366386  1922 net.cpp:150] Setting up L3_b2_brc3_relu
I1207 05:38:14.366394  1922 net.cpp:157] Top shape: 85 128 8 8 (696320)
I1207 05:38:14.366399  1922 net.cpp:165] Memory required for data: 1939600380
I1207 05:38:14.366402  1922 layer_factory.hpp:77] Creating layer L3_b2_brc3_conv
I1207 05:38:14.366413  1922 net.cpp:100] Creating Layer L3_b2_brc3_conv
I1207 05:38:14.366420  1922 net.cpp:434] L3_b2_brc3_conv <- L3_b2_brc3_bn_top
I1207 05:38:14.366430  1922 net.cpp:408] L3_b2_brc3_conv -> L3_b2_brc3_conv_top
I1207 05:38:14.367367  1922 net.cpp:150] Setting up L3_b2_brc3_conv
I1207 05:38:14.367382  1922 net.cpp:157] Top shape: 85 256 8 8 (1392640)
I1207 05:38:14.367386  1922 net.cpp:165] Memory required for data: 1945170940
I1207 05:38:14.367395  1922 layer_factory.hpp:77] Creating layer L3_b2_sum_eltwise
I1207 05:38:14.367404  1922 net.cpp:100] Creating Layer L3_b2_sum_eltwise
I1207 05:38:14.367410  1922 net.cpp:434] L3_b2_sum_eltwise <- L3_b2_brc3_conv_top
I1207 05:38:14.367417  1922 net.cpp:434] L3_b2_sum_eltwise <- L3_b1_sum_eltwise_top_L3_b1_sum_eltwise_0_split_1
I1207 05:38:14.367425  1922 net.cpp:408] L3_b2_sum_eltwise -> L3_b2_sum_eltwise_top
I1207 05:38:14.367461  1922 net.cpp:150] Setting up L3_b2_sum_eltwise
I1207 05:38:14.367473  1922 net.cpp:157] Top shape: 85 256 8 8 (1392640)
I1207 05:38:14.367478  1922 net.cpp:165] Memory required for data: 1950741500
I1207 05:38:14.367483  1922 layer_factory.hpp:77] Creating layer L3_b2_sum_eltwise_top_L3_b2_sum_eltwise_0_split
I1207 05:38:14.367494  1922 net.cpp:100] Creating Layer L3_b2_sum_eltwise_top_L3_b2_sum_eltwise_0_split
I1207 05:38:14.367501  1922 net.cpp:434] L3_b2_sum_eltwise_top_L3_b2_sum_eltwise_0_split <- L3_b2_sum_eltwise_top
I1207 05:38:14.367507  1922 net.cpp:408] L3_b2_sum_eltwise_top_L3_b2_sum_eltwise_0_split -> L3_b2_sum_eltwise_top_L3_b2_sum_eltwise_0_split_0
I1207 05:38:14.367517  1922 net.cpp:408] L3_b2_sum_eltwise_top_L3_b2_sum_eltwise_0_split -> L3_b2_sum_eltwise_top_L3_b2_sum_eltwise_0_split_1
I1207 05:38:14.367566  1922 net.cpp:150] Setting up L3_b2_sum_eltwise_top_L3_b2_sum_eltwise_0_split
I1207 05:38:14.367578  1922 net.cpp:157] Top shape: 85 256 8 8 (1392640)
I1207 05:38:14.367585  1922 net.cpp:157] Top shape: 85 256 8 8 (1392640)
I1207 05:38:14.367589  1922 net.cpp:165] Memory required for data: 1961882620
I1207 05:38:14.367594  1922 layer_factory.hpp:77] Creating layer L3_b3_brc1_bn
I1207 05:38:14.367602  1922 net.cpp:100] Creating Layer L3_b3_brc1_bn
I1207 05:38:14.367609  1922 net.cpp:434] L3_b3_brc1_bn <- L3_b2_sum_eltwise_top_L3_b2_sum_eltwise_0_split_0
I1207 05:38:14.367619  1922 net.cpp:408] L3_b3_brc1_bn -> L3_b3_brc1_bn_top
I1207 05:38:14.367866  1922 net.cpp:150] Setting up L3_b3_brc1_bn
I1207 05:38:14.367879  1922 net.cpp:157] Top shape: 85 256 8 8 (1392640)
I1207 05:38:14.367884  1922 net.cpp:165] Memory required for data: 1967453180
I1207 05:38:14.367894  1922 layer_factory.hpp:77] Creating layer L3_b3_brc1_relu
I1207 05:38:14.367907  1922 net.cpp:100] Creating Layer L3_b3_brc1_relu
I1207 05:38:14.367913  1922 net.cpp:434] L3_b3_brc1_relu <- L3_b3_brc1_bn_top
I1207 05:38:14.367919  1922 net.cpp:395] L3_b3_brc1_relu -> L3_b3_brc1_bn_top (in-place)
I1207 05:38:14.367929  1922 net.cpp:150] Setting up L3_b3_brc1_relu
I1207 05:38:14.367938  1922 net.cpp:157] Top shape: 85 256 8 8 (1392640)
I1207 05:38:14.367941  1922 net.cpp:165] Memory required for data: 1973023740
I1207 05:38:14.367946  1922 layer_factory.hpp:77] Creating layer L3_b3_brc1_conv
I1207 05:38:14.367956  1922 net.cpp:100] Creating Layer L3_b3_brc1_conv
I1207 05:38:14.367962  1922 net.cpp:434] L3_b3_brc1_conv <- L3_b3_brc1_bn_top
I1207 05:38:14.367974  1922 net.cpp:408] L3_b3_brc1_conv -> L3_b3_brc1_conv_top
I1207 05:38:14.368919  1922 net.cpp:150] Setting up L3_b3_brc1_conv
I1207 05:38:14.368934  1922 net.cpp:157] Top shape: 85 128 8 8 (696320)
I1207 05:38:14.368939  1922 net.cpp:165] Memory required for data: 1975809020
I1207 05:38:14.368947  1922 layer_factory.hpp:77] Creating layer L3_b3_brc2_bn
I1207 05:38:14.368957  1922 net.cpp:100] Creating Layer L3_b3_brc2_bn
I1207 05:38:14.368963  1922 net.cpp:434] L3_b3_brc2_bn <- L3_b3_brc1_conv_top
I1207 05:38:14.368973  1922 net.cpp:408] L3_b3_brc2_bn -> L3_b3_brc2_bn_top
I1207 05:38:14.369246  1922 net.cpp:150] Setting up L3_b3_brc2_bn
I1207 05:38:14.369267  1922 net.cpp:157] Top shape: 85 128 8 8 (696320)
I1207 05:38:14.369274  1922 net.cpp:165] Memory required for data: 1978594300
I1207 05:38:14.369297  1922 layer_factory.hpp:77] Creating layer L3_b3_brc2_relu
I1207 05:38:14.369309  1922 net.cpp:100] Creating Layer L3_b3_brc2_relu
I1207 05:38:14.369319  1922 net.cpp:434] L3_b3_brc2_relu <- L3_b3_brc2_bn_top
I1207 05:38:14.369338  1922 net.cpp:395] L3_b3_brc2_relu -> L3_b3_brc2_bn_top (in-place)
I1207 05:38:14.369355  1922 net.cpp:150] Setting up L3_b3_brc2_relu
I1207 05:38:14.369367  1922 net.cpp:157] Top shape: 85 128 8 8 (696320)
I1207 05:38:14.369375  1922 net.cpp:165] Memory required for data: 1981379580
I1207 05:38:14.369385  1922 layer_factory.hpp:77] Creating layer L3_b3_brc2_conv
I1207 05:38:14.369397  1922 net.cpp:100] Creating Layer L3_b3_brc2_conv
I1207 05:38:14.369405  1922 net.cpp:434] L3_b3_brc2_conv <- L3_b3_brc2_bn_top
I1207 05:38:14.369412  1922 net.cpp:408] L3_b3_brc2_conv -> L3_b3_brc2_conv_top
I1207 05:38:14.369812  1922 net.cpp:150] Setting up L3_b3_brc2_conv
I1207 05:38:14.369827  1922 net.cpp:157] Top shape: 85 128 8 8 (696320)
I1207 05:38:14.369832  1922 net.cpp:165] Memory required for data: 1984164860
I1207 05:38:14.369841  1922 layer_factory.hpp:77] Creating layer L3_b3_brc3_bn
I1207 05:38:14.369853  1922 net.cpp:100] Creating Layer L3_b3_brc3_bn
I1207 05:38:14.369859  1922 net.cpp:434] L3_b3_brc3_bn <- L3_b3_brc2_conv_top
I1207 05:38:14.369868  1922 net.cpp:408] L3_b3_brc3_bn -> L3_b3_brc3_bn_top
I1207 05:38:14.370115  1922 net.cpp:150] Setting up L3_b3_brc3_bn
I1207 05:38:14.370128  1922 net.cpp:157] Top shape: 85 128 8 8 (696320)
I1207 05:38:14.370133  1922 net.cpp:165] Memory required for data: 1986950140
I1207 05:38:14.370143  1922 layer_factory.hpp:77] Creating layer L3_b3_brc3_relu
I1207 05:38:14.370151  1922 net.cpp:100] Creating Layer L3_b3_brc3_relu
I1207 05:38:14.370157  1922 net.cpp:434] L3_b3_brc3_relu <- L3_b3_brc3_bn_top
I1207 05:38:14.370164  1922 net.cpp:395] L3_b3_brc3_relu -> L3_b3_brc3_bn_top (in-place)
I1207 05:38:14.370174  1922 net.cpp:150] Setting up L3_b3_brc3_relu
I1207 05:38:14.370182  1922 net.cpp:157] Top shape: 85 128 8 8 (696320)
I1207 05:38:14.370187  1922 net.cpp:165] Memory required for data: 1989735420
I1207 05:38:14.370190  1922 layer_factory.hpp:77] Creating layer L3_b3_brc3_conv
I1207 05:38:14.370204  1922 net.cpp:100] Creating Layer L3_b3_brc3_conv
I1207 05:38:14.370210  1922 net.cpp:434] L3_b3_brc3_conv <- L3_b3_brc3_bn_top
I1207 05:38:14.370226  1922 net.cpp:408] L3_b3_brc3_conv -> L3_b3_brc3_conv_top
I1207 05:38:14.371183  1922 net.cpp:150] Setting up L3_b3_brc3_conv
I1207 05:38:14.371198  1922 net.cpp:157] Top shape: 85 256 8 8 (1392640)
I1207 05:38:14.371204  1922 net.cpp:165] Memory required for data: 1995305980
I1207 05:38:14.371212  1922 layer_factory.hpp:77] Creating layer L3_b3_sum_eltwise
I1207 05:38:14.371224  1922 net.cpp:100] Creating Layer L3_b3_sum_eltwise
I1207 05:38:14.371232  1922 net.cpp:434] L3_b3_sum_eltwise <- L3_b3_brc3_conv_top
I1207 05:38:14.371238  1922 net.cpp:434] L3_b3_sum_eltwise <- L3_b2_sum_eltwise_top_L3_b2_sum_eltwise_0_split_1
I1207 05:38:14.371251  1922 net.cpp:408] L3_b3_sum_eltwise -> L3_b3_sum_eltwise_top
I1207 05:38:14.371285  1922 net.cpp:150] Setting up L3_b3_sum_eltwise
I1207 05:38:14.371295  1922 net.cpp:157] Top shape: 85 256 8 8 (1392640)
I1207 05:38:14.371300  1922 net.cpp:165] Memory required for data: 2000876540
I1207 05:38:14.371305  1922 layer_factory.hpp:77] Creating layer L3_b3_sum_eltwise_top_L3_b3_sum_eltwise_0_split
I1207 05:38:14.371322  1922 net.cpp:100] Creating Layer L3_b3_sum_eltwise_top_L3_b3_sum_eltwise_0_split
I1207 05:38:14.371330  1922 net.cpp:434] L3_b3_sum_eltwise_top_L3_b3_sum_eltwise_0_split <- L3_b3_sum_eltwise_top
I1207 05:38:14.371337  1922 net.cpp:408] L3_b3_sum_eltwise_top_L3_b3_sum_eltwise_0_split -> L3_b3_sum_eltwise_top_L3_b3_sum_eltwise_0_split_0
I1207 05:38:14.371347  1922 net.cpp:408] L3_b3_sum_eltwise_top_L3_b3_sum_eltwise_0_split -> L3_b3_sum_eltwise_top_L3_b3_sum_eltwise_0_split_1
I1207 05:38:14.371398  1922 net.cpp:150] Setting up L3_b3_sum_eltwise_top_L3_b3_sum_eltwise_0_split
I1207 05:38:14.371410  1922 net.cpp:157] Top shape: 85 256 8 8 (1392640)
I1207 05:38:14.371417  1922 net.cpp:157] Top shape: 85 256 8 8 (1392640)
I1207 05:38:14.371423  1922 net.cpp:165] Memory required for data: 2012017660
I1207 05:38:14.371428  1922 layer_factory.hpp:77] Creating layer L3_b4_brc1_bn
I1207 05:38:14.371438  1922 net.cpp:100] Creating Layer L3_b4_brc1_bn
I1207 05:38:14.371444  1922 net.cpp:434] L3_b4_brc1_bn <- L3_b3_sum_eltwise_top_L3_b3_sum_eltwise_0_split_0
I1207 05:38:14.371453  1922 net.cpp:408] L3_b4_brc1_bn -> L3_b4_brc1_bn_top
I1207 05:38:14.371698  1922 net.cpp:150] Setting up L3_b4_brc1_bn
I1207 05:38:14.371711  1922 net.cpp:157] Top shape: 85 256 8 8 (1392640)
I1207 05:38:14.371716  1922 net.cpp:165] Memory required for data: 2017588220
I1207 05:38:14.371727  1922 layer_factory.hpp:77] Creating layer L3_b4_brc1_relu
I1207 05:38:14.371736  1922 net.cpp:100] Creating Layer L3_b4_brc1_relu
I1207 05:38:14.371742  1922 net.cpp:434] L3_b4_brc1_relu <- L3_b4_brc1_bn_top
I1207 05:38:14.371749  1922 net.cpp:395] L3_b4_brc1_relu -> L3_b4_brc1_bn_top (in-place)
I1207 05:38:14.371759  1922 net.cpp:150] Setting up L3_b4_brc1_relu
I1207 05:38:14.371767  1922 net.cpp:157] Top shape: 85 256 8 8 (1392640)
I1207 05:38:14.371770  1922 net.cpp:165] Memory required for data: 2023158780
I1207 05:38:14.371775  1922 layer_factory.hpp:77] Creating layer L3_b4_brc1_conv
I1207 05:38:14.371788  1922 net.cpp:100] Creating Layer L3_b4_brc1_conv
I1207 05:38:14.371795  1922 net.cpp:434] L3_b4_brc1_conv <- L3_b4_brc1_bn_top
I1207 05:38:14.371806  1922 net.cpp:408] L3_b4_brc1_conv -> L3_b4_brc1_conv_top
I1207 05:38:14.372741  1922 net.cpp:150] Setting up L3_b4_brc1_conv
I1207 05:38:14.372756  1922 net.cpp:157] Top shape: 85 128 8 8 (696320)
I1207 05:38:14.372761  1922 net.cpp:165] Memory required for data: 2025944060
I1207 05:38:14.372769  1922 layer_factory.hpp:77] Creating layer L3_b4_brc2_bn
I1207 05:38:14.372781  1922 net.cpp:100] Creating Layer L3_b4_brc2_bn
I1207 05:38:14.372787  1922 net.cpp:434] L3_b4_brc2_bn <- L3_b4_brc1_conv_top
I1207 05:38:14.372798  1922 net.cpp:408] L3_b4_brc2_bn -> L3_b4_brc2_bn_top
I1207 05:38:14.373049  1922 net.cpp:150] Setting up L3_b4_brc2_bn
I1207 05:38:14.373061  1922 net.cpp:157] Top shape: 85 128 8 8 (696320)
I1207 05:38:14.373066  1922 net.cpp:165] Memory required for data: 2028729340
I1207 05:38:14.373076  1922 layer_factory.hpp:77] Creating layer L3_b4_brc2_relu
I1207 05:38:14.373085  1922 net.cpp:100] Creating Layer L3_b4_brc2_relu
I1207 05:38:14.373090  1922 net.cpp:434] L3_b4_brc2_relu <- L3_b4_brc2_bn_top
I1207 05:38:14.373097  1922 net.cpp:395] L3_b4_brc2_relu -> L3_b4_brc2_bn_top (in-place)
I1207 05:38:14.373107  1922 net.cpp:150] Setting up L3_b4_brc2_relu
I1207 05:38:14.373114  1922 net.cpp:157] Top shape: 85 128 8 8 (696320)
I1207 05:38:14.373119  1922 net.cpp:165] Memory required for data: 2031514620
I1207 05:38:14.373123  1922 layer_factory.hpp:77] Creating layer L3_b4_brc2_conv
I1207 05:38:14.373136  1922 net.cpp:100] Creating Layer L3_b4_brc2_conv
I1207 05:38:14.373143  1922 net.cpp:434] L3_b4_brc2_conv <- L3_b4_brc2_bn_top
I1207 05:38:14.373154  1922 net.cpp:408] L3_b4_brc2_conv -> L3_b4_brc2_conv_top
I1207 05:38:14.373535  1922 net.cpp:150] Setting up L3_b4_brc2_conv
I1207 05:38:14.373549  1922 net.cpp:157] Top shape: 85 128 8 8 (696320)
I1207 05:38:14.373554  1922 net.cpp:165] Memory required for data: 2034299900
I1207 05:38:14.373569  1922 layer_factory.hpp:77] Creating layer L3_b4_brc3_bn
I1207 05:38:14.373582  1922 net.cpp:100] Creating Layer L3_b4_brc3_bn
I1207 05:38:14.373589  1922 net.cpp:434] L3_b4_brc3_bn <- L3_b4_brc2_conv_top
I1207 05:38:14.373596  1922 net.cpp:408] L3_b4_brc3_bn -> L3_b4_brc3_bn_top
I1207 05:38:14.373872  1922 net.cpp:150] Setting up L3_b4_brc3_bn
I1207 05:38:14.373889  1922 net.cpp:157] Top shape: 85 128 8 8 (696320)
I1207 05:38:14.373894  1922 net.cpp:165] Memory required for data: 2037085180
I1207 05:38:14.373904  1922 layer_factory.hpp:77] Creating layer L3_b4_brc3_relu
I1207 05:38:14.373913  1922 net.cpp:100] Creating Layer L3_b4_brc3_relu
I1207 05:38:14.373919  1922 net.cpp:434] L3_b4_brc3_relu <- L3_b4_brc3_bn_top
I1207 05:38:14.373926  1922 net.cpp:395] L3_b4_brc3_relu -> L3_b4_brc3_bn_top (in-place)
I1207 05:38:14.373936  1922 net.cpp:150] Setting up L3_b4_brc3_relu
I1207 05:38:14.373944  1922 net.cpp:157] Top shape: 85 128 8 8 (696320)
I1207 05:38:14.373947  1922 net.cpp:165] Memory required for data: 2039870460
I1207 05:38:14.373952  1922 layer_factory.hpp:77] Creating layer L3_b4_brc3_conv
I1207 05:38:14.373962  1922 net.cpp:100] Creating Layer L3_b4_brc3_conv
I1207 05:38:14.373968  1922 net.cpp:434] L3_b4_brc3_conv <- L3_b4_brc3_bn_top
I1207 05:38:14.373983  1922 net.cpp:408] L3_b4_brc3_conv -> L3_b4_brc3_conv_top
I1207 05:38:14.374922  1922 net.cpp:150] Setting up L3_b4_brc3_conv
I1207 05:38:14.374936  1922 net.cpp:157] Top shape: 85 256 8 8 (1392640)
I1207 05:38:14.374941  1922 net.cpp:165] Memory required for data: 2045441020
I1207 05:38:14.374950  1922 layer_factory.hpp:77] Creating layer L3_b4_sum_eltwise
I1207 05:38:14.374959  1922 net.cpp:100] Creating Layer L3_b4_sum_eltwise
I1207 05:38:14.374966  1922 net.cpp:434] L3_b4_sum_eltwise <- L3_b4_brc3_conv_top
I1207 05:38:14.374974  1922 net.cpp:434] L3_b4_sum_eltwise <- L3_b3_sum_eltwise_top_L3_b3_sum_eltwise_0_split_1
I1207 05:38:14.374981  1922 net.cpp:408] L3_b4_sum_eltwise -> L3_b4_sum_eltwise_top
I1207 05:38:14.375017  1922 net.cpp:150] Setting up L3_b4_sum_eltwise
I1207 05:38:14.375030  1922 net.cpp:157] Top shape: 85 256 8 8 (1392640)
I1207 05:38:14.375033  1922 net.cpp:165] Memory required for data: 2051011580
I1207 05:38:14.375039  1922 layer_factory.hpp:77] Creating layer L3_b4_sum_eltwise_top_L3_b4_sum_eltwise_0_split
I1207 05:38:14.375049  1922 net.cpp:100] Creating Layer L3_b4_sum_eltwise_top_L3_b4_sum_eltwise_0_split
I1207 05:38:14.375056  1922 net.cpp:434] L3_b4_sum_eltwise_top_L3_b4_sum_eltwise_0_split <- L3_b4_sum_eltwise_top
I1207 05:38:14.375063  1922 net.cpp:408] L3_b4_sum_eltwise_top_L3_b4_sum_eltwise_0_split -> L3_b4_sum_eltwise_top_L3_b4_sum_eltwise_0_split_0
I1207 05:38:14.375072  1922 net.cpp:408] L3_b4_sum_eltwise_top_L3_b4_sum_eltwise_0_split -> L3_b4_sum_eltwise_top_L3_b4_sum_eltwise_0_split_1
I1207 05:38:14.375128  1922 net.cpp:150] Setting up L3_b4_sum_eltwise_top_L3_b4_sum_eltwise_0_split
I1207 05:38:14.375139  1922 net.cpp:157] Top shape: 85 256 8 8 (1392640)
I1207 05:38:14.375145  1922 net.cpp:157] Top shape: 85 256 8 8 (1392640)
I1207 05:38:14.375150  1922 net.cpp:165] Memory required for data: 2062152700
I1207 05:38:14.375155  1922 layer_factory.hpp:77] Creating layer L3_b5_brc1_bn
I1207 05:38:14.375166  1922 net.cpp:100] Creating Layer L3_b5_brc1_bn
I1207 05:38:14.375172  1922 net.cpp:434] L3_b5_brc1_bn <- L3_b4_sum_eltwise_top_L3_b4_sum_eltwise_0_split_0
I1207 05:38:14.375180  1922 net.cpp:408] L3_b5_brc1_bn -> L3_b5_brc1_bn_top
I1207 05:38:14.375422  1922 net.cpp:150] Setting up L3_b5_brc1_bn
I1207 05:38:14.375434  1922 net.cpp:157] Top shape: 85 256 8 8 (1392640)
I1207 05:38:14.375439  1922 net.cpp:165] Memory required for data: 2067723260
I1207 05:38:14.375449  1922 layer_factory.hpp:77] Creating layer L3_b5_brc1_relu
I1207 05:38:14.375460  1922 net.cpp:100] Creating Layer L3_b5_brc1_relu
I1207 05:38:14.375468  1922 net.cpp:434] L3_b5_brc1_relu <- L3_b5_brc1_bn_top
I1207 05:38:14.375474  1922 net.cpp:395] L3_b5_brc1_relu -> L3_b5_brc1_bn_top (in-place)
I1207 05:38:14.375484  1922 net.cpp:150] Setting up L3_b5_brc1_relu
I1207 05:38:14.375499  1922 net.cpp:157] Top shape: 85 256 8 8 (1392640)
I1207 05:38:14.375504  1922 net.cpp:165] Memory required for data: 2073293820
I1207 05:38:14.375509  1922 layer_factory.hpp:77] Creating layer L3_b5_brc1_conv
I1207 05:38:14.375519  1922 net.cpp:100] Creating Layer L3_b5_brc1_conv
I1207 05:38:14.375524  1922 net.cpp:434] L3_b5_brc1_conv <- L3_b5_brc1_bn_top
I1207 05:38:14.375536  1922 net.cpp:408] L3_b5_brc1_conv -> L3_b5_brc1_conv_top
I1207 05:38:14.377507  1922 net.cpp:150] Setting up L3_b5_brc1_conv
I1207 05:38:14.377526  1922 net.cpp:157] Top shape: 85 128 8 8 (696320)
I1207 05:38:14.377530  1922 net.cpp:165] Memory required for data: 2076079100
I1207 05:38:14.377539  1922 layer_factory.hpp:77] Creating layer L3_b5_brc2_bn
I1207 05:38:14.377552  1922 net.cpp:100] Creating Layer L3_b5_brc2_bn
I1207 05:38:14.377558  1922 net.cpp:434] L3_b5_brc2_bn <- L3_b5_brc1_conv_top
I1207 05:38:14.377568  1922 net.cpp:408] L3_b5_brc2_bn -> L3_b5_brc2_bn_top
I1207 05:38:14.377831  1922 net.cpp:150] Setting up L3_b5_brc2_bn
I1207 05:38:14.377846  1922 net.cpp:157] Top shape: 85 128 8 8 (696320)
I1207 05:38:14.377851  1922 net.cpp:165] Memory required for data: 2078864380
I1207 05:38:14.377861  1922 layer_factory.hpp:77] Creating layer L3_b5_brc2_relu
I1207 05:38:14.377871  1922 net.cpp:100] Creating Layer L3_b5_brc2_relu
I1207 05:38:14.377876  1922 net.cpp:434] L3_b5_brc2_relu <- L3_b5_brc2_bn_top
I1207 05:38:14.377883  1922 net.cpp:395] L3_b5_brc2_relu -> L3_b5_brc2_bn_top (in-place)
I1207 05:38:14.377894  1922 net.cpp:150] Setting up L3_b5_brc2_relu
I1207 05:38:14.377902  1922 net.cpp:157] Top shape: 85 128 8 8 (696320)
I1207 05:38:14.377907  1922 net.cpp:165] Memory required for data: 2081649660
I1207 05:38:14.377910  1922 layer_factory.hpp:77] Creating layer L3_b5_brc2_conv
I1207 05:38:14.377924  1922 net.cpp:100] Creating Layer L3_b5_brc2_conv
I1207 05:38:14.377931  1922 net.cpp:434] L3_b5_brc2_conv <- L3_b5_brc2_bn_top
I1207 05:38:14.377940  1922 net.cpp:408] L3_b5_brc2_conv -> L3_b5_brc2_conv_top
I1207 05:38:14.378324  1922 net.cpp:150] Setting up L3_b5_brc2_conv
I1207 05:38:14.378337  1922 net.cpp:157] Top shape: 85 128 8 8 (696320)
I1207 05:38:14.378342  1922 net.cpp:165] Memory required for data: 2084434940
I1207 05:38:14.378386  1922 layer_factory.hpp:77] Creating layer L3_b5_brc3_bn
I1207 05:38:14.378402  1922 net.cpp:100] Creating Layer L3_b5_brc3_bn
I1207 05:38:14.378409  1922 net.cpp:434] L3_b5_brc3_bn <- L3_b5_brc2_conv_top
I1207 05:38:14.378417  1922 net.cpp:408] L3_b5_brc3_bn -> L3_b5_brc3_bn_top
I1207 05:38:14.378670  1922 net.cpp:150] Setting up L3_b5_brc3_bn
I1207 05:38:14.378684  1922 net.cpp:157] Top shape: 85 128 8 8 (696320)
I1207 05:38:14.378695  1922 net.cpp:165] Memory required for data: 2087220220
I1207 05:38:14.378705  1922 layer_factory.hpp:77] Creating layer L3_b5_brc3_relu
I1207 05:38:14.378713  1922 net.cpp:100] Creating Layer L3_b5_brc3_relu
I1207 05:38:14.378720  1922 net.cpp:434] L3_b5_brc3_relu <- L3_b5_brc3_bn_top
I1207 05:38:14.378727  1922 net.cpp:395] L3_b5_brc3_relu -> L3_b5_brc3_bn_top (in-place)
I1207 05:38:14.378737  1922 net.cpp:150] Setting up L3_b5_brc3_relu
I1207 05:38:14.378744  1922 net.cpp:157] Top shape: 85 128 8 8 (696320)
I1207 05:38:14.378748  1922 net.cpp:165] Memory required for data: 2090005500
I1207 05:38:14.378753  1922 layer_factory.hpp:77] Creating layer L3_b5_brc3_conv
I1207 05:38:14.378767  1922 net.cpp:100] Creating Layer L3_b5_brc3_conv
I1207 05:38:14.378773  1922 net.cpp:434] L3_b5_brc3_conv <- L3_b5_brc3_bn_top
I1207 05:38:14.378782  1922 net.cpp:408] L3_b5_brc3_conv -> L3_b5_brc3_conv_top
I1207 05:38:14.379722  1922 net.cpp:150] Setting up L3_b5_brc3_conv
I1207 05:38:14.379737  1922 net.cpp:157] Top shape: 85 256 8 8 (1392640)
I1207 05:38:14.379742  1922 net.cpp:165] Memory required for data: 2095576060
I1207 05:38:14.379750  1922 layer_factory.hpp:77] Creating layer L3_b5_sum_eltwise
I1207 05:38:14.379763  1922 net.cpp:100] Creating Layer L3_b5_sum_eltwise
I1207 05:38:14.379770  1922 net.cpp:434] L3_b5_sum_eltwise <- L3_b5_brc3_conv_top
I1207 05:38:14.379784  1922 net.cpp:434] L3_b5_sum_eltwise <- L3_b4_sum_eltwise_top_L3_b4_sum_eltwise_0_split_1
I1207 05:38:14.379793  1922 net.cpp:408] L3_b5_sum_eltwise -> L3_b5_sum_eltwise_top
I1207 05:38:14.379830  1922 net.cpp:150] Setting up L3_b5_sum_eltwise
I1207 05:38:14.379840  1922 net.cpp:157] Top shape: 85 256 8 8 (1392640)
I1207 05:38:14.379845  1922 net.cpp:165] Memory required for data: 2101146620
I1207 05:38:14.379850  1922 layer_factory.hpp:77] Creating layer L3_b5_sum_eltwise_top_L3_b5_sum_eltwise_0_split
I1207 05:38:14.379858  1922 net.cpp:100] Creating Layer L3_b5_sum_eltwise_top_L3_b5_sum_eltwise_0_split
I1207 05:38:14.379864  1922 net.cpp:434] L3_b5_sum_eltwise_top_L3_b5_sum_eltwise_0_split <- L3_b5_sum_eltwise_top
I1207 05:38:14.379879  1922 net.cpp:408] L3_b5_sum_eltwise_top_L3_b5_sum_eltwise_0_split -> L3_b5_sum_eltwise_top_L3_b5_sum_eltwise_0_split_0
I1207 05:38:14.379889  1922 net.cpp:408] L3_b5_sum_eltwise_top_L3_b5_sum_eltwise_0_split -> L3_b5_sum_eltwise_top_L3_b5_sum_eltwise_0_split_1
I1207 05:38:14.379941  1922 net.cpp:150] Setting up L3_b5_sum_eltwise_top_L3_b5_sum_eltwise_0_split
I1207 05:38:14.379953  1922 net.cpp:157] Top shape: 85 256 8 8 (1392640)
I1207 05:38:14.379959  1922 net.cpp:157] Top shape: 85 256 8 8 (1392640)
I1207 05:38:14.379964  1922 net.cpp:165] Memory required for data: 2112287740
I1207 05:38:14.379969  1922 layer_factory.hpp:77] Creating layer L3_b6_brc1_bn
I1207 05:38:14.379981  1922 net.cpp:100] Creating Layer L3_b6_brc1_bn
I1207 05:38:14.379987  1922 net.cpp:434] L3_b6_brc1_bn <- L3_b5_sum_eltwise_top_L3_b5_sum_eltwise_0_split_0
I1207 05:38:14.379995  1922 net.cpp:408] L3_b6_brc1_bn -> L3_b6_brc1_bn_top
I1207 05:38:14.380234  1922 net.cpp:150] Setting up L3_b6_brc1_bn
I1207 05:38:14.380246  1922 net.cpp:157] Top shape: 85 256 8 8 (1392640)
I1207 05:38:14.380251  1922 net.cpp:165] Memory required for data: 2117858300
I1207 05:38:14.380261  1922 layer_factory.hpp:77] Creating layer L3_b6_brc1_relu
I1207 05:38:14.380270  1922 net.cpp:100] Creating Layer L3_b6_brc1_relu
I1207 05:38:14.380275  1922 net.cpp:434] L3_b6_brc1_relu <- L3_b6_brc1_bn_top
I1207 05:38:14.380282  1922 net.cpp:395] L3_b6_brc1_relu -> L3_b6_brc1_bn_top (in-place)
I1207 05:38:14.380292  1922 net.cpp:150] Setting up L3_b6_brc1_relu
I1207 05:38:14.380300  1922 net.cpp:157] Top shape: 85 256 8 8 (1392640)
I1207 05:38:14.380304  1922 net.cpp:165] Memory required for data: 2123428860
I1207 05:38:14.380308  1922 layer_factory.hpp:77] Creating layer L3_b6_brc1_conv
I1207 05:38:14.380322  1922 net.cpp:100] Creating Layer L3_b6_brc1_conv
I1207 05:38:14.380328  1922 net.cpp:434] L3_b6_brc1_conv <- L3_b6_brc1_bn_top
I1207 05:38:14.380340  1922 net.cpp:408] L3_b6_brc1_conv -> L3_b6_brc1_conv_top
I1207 05:38:14.381278  1922 net.cpp:150] Setting up L3_b6_brc1_conv
I1207 05:38:14.381292  1922 net.cpp:157] Top shape: 85 128 8 8 (696320)
I1207 05:38:14.381297  1922 net.cpp:165] Memory required for data: 2126214140
I1207 05:38:14.381306  1922 layer_factory.hpp:77] Creating layer L3_b6_brc2_bn
I1207 05:38:14.381319  1922 net.cpp:100] Creating Layer L3_b6_brc2_bn
I1207 05:38:14.381325  1922 net.cpp:434] L3_b6_brc2_bn <- L3_b6_brc1_conv_top
I1207 05:38:14.381336  1922 net.cpp:408] L3_b6_brc2_bn -> L3_b6_brc2_bn_top
I1207 05:38:14.381580  1922 net.cpp:150] Setting up L3_b6_brc2_bn
I1207 05:38:14.381592  1922 net.cpp:157] Top shape: 85 128 8 8 (696320)
I1207 05:38:14.381597  1922 net.cpp:165] Memory required for data: 2128999420
I1207 05:38:14.381608  1922 layer_factory.hpp:77] Creating layer L3_b6_brc2_relu
I1207 05:38:14.381616  1922 net.cpp:100] Creating Layer L3_b6_brc2_relu
I1207 05:38:14.381623  1922 net.cpp:434] L3_b6_brc2_relu <- L3_b6_brc2_bn_top
I1207 05:38:14.381629  1922 net.cpp:395] L3_b6_brc2_relu -> L3_b6_brc2_bn_top (in-place)
I1207 05:38:14.381639  1922 net.cpp:150] Setting up L3_b6_brc2_relu
I1207 05:38:14.381646  1922 net.cpp:157] Top shape: 85 128 8 8 (696320)
I1207 05:38:14.381650  1922 net.cpp:165] Memory required for data: 2131784700
I1207 05:38:14.381655  1922 layer_factory.hpp:77] Creating layer L3_b6_brc2_conv
I1207 05:38:14.381675  1922 net.cpp:100] Creating Layer L3_b6_brc2_conv
I1207 05:38:14.381682  1922 net.cpp:434] L3_b6_brc2_conv <- L3_b6_brc2_bn_top
I1207 05:38:14.381697  1922 net.cpp:408] L3_b6_brc2_conv -> L3_b6_brc2_conv_top
I1207 05:38:14.382093  1922 net.cpp:150] Setting up L3_b6_brc2_conv
I1207 05:38:14.382107  1922 net.cpp:157] Top shape: 85 128 8 8 (696320)
I1207 05:38:14.382112  1922 net.cpp:165] Memory required for data: 2134569980
I1207 05:38:14.382122  1922 layer_factory.hpp:77] Creating layer L3_b6_brc3_bn
I1207 05:38:14.382133  1922 net.cpp:100] Creating Layer L3_b6_brc3_bn
I1207 05:38:14.382139  1922 net.cpp:434] L3_b6_brc3_bn <- L3_b6_brc2_conv_top
I1207 05:38:14.382148  1922 net.cpp:408] L3_b6_brc3_bn -> L3_b6_brc3_bn_top
I1207 05:38:14.382395  1922 net.cpp:150] Setting up L3_b6_brc3_bn
I1207 05:38:14.382407  1922 net.cpp:157] Top shape: 85 128 8 8 (696320)
I1207 05:38:14.382412  1922 net.cpp:165] Memory required for data: 2137355260
I1207 05:38:14.382422  1922 layer_factory.hpp:77] Creating layer L3_b6_brc3_relu
I1207 05:38:14.382433  1922 net.cpp:100] Creating Layer L3_b6_brc3_relu
I1207 05:38:14.382439  1922 net.cpp:434] L3_b6_brc3_relu <- L3_b6_brc3_bn_top
I1207 05:38:14.382447  1922 net.cpp:395] L3_b6_brc3_relu -> L3_b6_brc3_bn_top (in-place)
I1207 05:38:14.382457  1922 net.cpp:150] Setting up L3_b6_brc3_relu
I1207 05:38:14.382464  1922 net.cpp:157] Top shape: 85 128 8 8 (696320)
I1207 05:38:14.382468  1922 net.cpp:165] Memory required for data: 2140140540
I1207 05:38:14.382473  1922 layer_factory.hpp:77] Creating layer L3_b6_brc3_conv
I1207 05:38:14.382484  1922 net.cpp:100] Creating Layer L3_b6_brc3_conv
I1207 05:38:14.382489  1922 net.cpp:434] L3_b6_brc3_conv <- L3_b6_brc3_bn_top
I1207 05:38:14.382503  1922 net.cpp:408] L3_b6_brc3_conv -> L3_b6_brc3_conv_top
I1207 05:38:14.383445  1922 net.cpp:150] Setting up L3_b6_brc3_conv
I1207 05:38:14.383458  1922 net.cpp:157] Top shape: 85 256 8 8 (1392640)
I1207 05:38:14.383464  1922 net.cpp:165] Memory required for data: 2145711100
I1207 05:38:14.383472  1922 layer_factory.hpp:77] Creating layer L3_b6_sum_eltwise
I1207 05:38:14.383481  1922 net.cpp:100] Creating Layer L3_b6_sum_eltwise
I1207 05:38:14.383488  1922 net.cpp:434] L3_b6_sum_eltwise <- L3_b6_brc3_conv_top
I1207 05:38:14.383496  1922 net.cpp:434] L3_b6_sum_eltwise <- L3_b5_sum_eltwise_top_L3_b5_sum_eltwise_0_split_1
I1207 05:38:14.383503  1922 net.cpp:408] L3_b6_sum_eltwise -> L3_b6_sum_eltwise_top
I1207 05:38:14.383539  1922 net.cpp:150] Setting up L3_b6_sum_eltwise
I1207 05:38:14.383551  1922 net.cpp:157] Top shape: 85 256 8 8 (1392640)
I1207 05:38:14.383556  1922 net.cpp:165] Memory required for data: 2151281660
I1207 05:38:14.383561  1922 layer_factory.hpp:77] Creating layer post_bn
I1207 05:38:14.383572  1922 net.cpp:100] Creating Layer post_bn
I1207 05:38:14.383579  1922 net.cpp:434] post_bn <- L3_b6_sum_eltwise_top
I1207 05:38:14.383587  1922 net.cpp:408] post_bn -> post_bn_top
I1207 05:38:14.383838  1922 net.cpp:150] Setting up post_bn
I1207 05:38:14.383852  1922 net.cpp:157] Top shape: 85 256 8 8 (1392640)
I1207 05:38:14.383857  1922 net.cpp:165] Memory required for data: 2156852220
I1207 05:38:14.383867  1922 layer_factory.hpp:77] Creating layer post_relu
I1207 05:38:14.383875  1922 net.cpp:100] Creating Layer post_relu
I1207 05:38:14.383882  1922 net.cpp:434] post_relu <- post_bn_top
I1207 05:38:14.383891  1922 net.cpp:395] post_relu -> post_bn_top (in-place)
I1207 05:38:14.383903  1922 net.cpp:150] Setting up post_relu
I1207 05:38:14.383910  1922 net.cpp:157] Top shape: 85 256 8 8 (1392640)
I1207 05:38:14.383914  1922 net.cpp:165] Memory required for data: 2162422780
I1207 05:38:14.383919  1922 layer_factory.hpp:77] Creating layer post_pool
I1207 05:38:14.383929  1922 net.cpp:100] Creating Layer post_pool
I1207 05:38:14.383934  1922 net.cpp:434] post_pool <- post_bn_top
I1207 05:38:14.383945  1922 net.cpp:408] post_pool -> post_pool
I1207 05:38:14.384042  1922 net.cpp:150] Setting up post_pool
I1207 05:38:14.384057  1922 net.cpp:157] Top shape: 85 256 1 1 (21760)
I1207 05:38:14.384070  1922 net.cpp:165] Memory required for data: 2162509820
I1207 05:38:14.384076  1922 layer_factory.hpp:77] Creating layer post_FC
I1207 05:38:14.384148  1922 net.cpp:100] Creating Layer post_FC
I1207 05:38:14.384161  1922 net.cpp:434] post_FC <- post_pool
I1207 05:38:14.384173  1922 net.cpp:408] post_FC -> post_FC_top
I1207 05:38:14.384433  1922 net.cpp:150] Setting up post_FC
I1207 05:38:14.384447  1922 net.cpp:157] Top shape: 85 10 (850)
I1207 05:38:14.384454  1922 net.cpp:165] Memory required for data: 2162513220
I1207 05:38:14.384462  1922 layer_factory.hpp:77] Creating layer post_FC_top_post_FC_0_split
I1207 05:38:14.384474  1922 net.cpp:100] Creating Layer post_FC_top_post_FC_0_split
I1207 05:38:14.384480  1922 net.cpp:434] post_FC_top_post_FC_0_split <- post_FC_top
I1207 05:38:14.384488  1922 net.cpp:408] post_FC_top_post_FC_0_split -> post_FC_top_post_FC_0_split_0
I1207 05:38:14.384498  1922 net.cpp:408] post_FC_top_post_FC_0_split -> post_FC_top_post_FC_0_split_1
I1207 05:38:14.384551  1922 net.cpp:150] Setting up post_FC_top_post_FC_0_split
I1207 05:38:14.384562  1922 net.cpp:157] Top shape: 85 10 (850)
I1207 05:38:14.384569  1922 net.cpp:157] Top shape: 85 10 (850)
I1207 05:38:14.384573  1922 net.cpp:165] Memory required for data: 2162520020
I1207 05:38:14.384578  1922 layer_factory.hpp:77] Creating layer accuracy
I1207 05:38:14.384623  1922 net.cpp:100] Creating Layer accuracy
I1207 05:38:14.384634  1922 net.cpp:434] accuracy <- post_FC_top_post_FC_0_split_0
I1207 05:38:14.384642  1922 net.cpp:434] accuracy <- label_dataLayer_1_split_0
I1207 05:38:14.384654  1922 net.cpp:408] accuracy -> accuracy
…
