…
I1206 09:11:00.188133 23310 net.cpp:322] The NetState phase (0) differed from the phase (1) specified by a rule in layer dataLayer
I1206 09:11:00.189815 23310 net.cpp:58] Initializing net from parameters: 
name: "Cifar-ResNeXt"
state {
  phase: TRAIN
  level: 0
  stage: ""
}
layer {
  name: "dataLayer"
  type: "Data"
  top: "data_top"
  top: "label"
  include {
    phase: TRAIN
  }
  transform_param {
    mirror: true
    crop_size: 32
    mean_file: "examples/cifar10/mean.binaryproto"
  }
  data_param {
    source: "examples/cifar10/cifar10_train_lmdb"
    batch_size: 85
    backend: LMDB
  }
  image_data_param {
    shuffle: true
  }
}
layer {
  name: "pre_conv"
  type: "Convolution"
  bottom: "data_top"
  top: "pre_conv_top"
  param {
    lr_mult: 1
    decay_mult: 1
  }
  param {
    lr_mult: 2
    decay_mult: 0
  }
  convolution_param {
    num_output: 16
    pad: 1
    kernel_size: 3
    stride: 1
    weight_filler {
      type: "msra"
    }
    bias_filler {
      type: "constant"
    }
  }
}
layer {
  name: "L1_b1_brc1_bn"
  type: "BatchNorm"
  bottom: "pre_conv_top"
  top: "L1_b1_brc1_bn_top"
  batch_norm_param {
    use_global_stats: false
    moving_average_fraction: 0.95
  }
}
layer {
  name: "L1_b1_brc1_relu"
  type: "ReLU"
  bottom: "L1_b1_brc1_bn_top"
  top: "L1_b1_brc1_bn_top"
}
layer {
  name: "L1_b1_brc1_conv"
  type: "Convolution"
  bottom: "L1_b1_brc1_bn_top"
  top: "L1_b1_brc1_conv_top"
  param {
    lr_mult: 1
    decay_mult: 1
  }
  param {
    lr_mult: 2
    decay_mult: 0
  }
  convolution_param {
    num_output: 32
    pad: 0
    kernel_size: 1
    stride: 1
    weight_filler {
      type: "msra"
    }
    bias_filler {
      type: "constant"
    }
  }
}
layer {
  name: "L1_b1_brc2_bn"
  type: "BatchNorm"
  bottom: "L1_b1_brc1_conv_top"
  top: "L1_b1_brc2_bn_top"
  batch_norm_param {
    use_global_stats: false
    moving_average_fraction: 0.95
  }
}
layer {
  name: "L1_b1_brc2_relu"
  type: "ReLU"
  bottom: "L1_b1_brc2_bn_top"
  top: "L1_b1_brc2_bn_top"
}
layer {
  name: "L1_b1_brc2_conv"
  type: "Convolution"
  bottom: "L1_b1_brc2_bn_top"
  top: "L1_b1_brc2_conv_top"
  param {
    lr_mult: 1
    decay_mult: 1
  }
  param {
    lr_mult: 2
    decay_mult: 0
  }
  convolution_param {
    num_output: 32
    pad: 1
    kernel_size: 3
    group: 32
    stride: 1
    weight_filler {
      type: "msra"
    }
    bias_filler {
      type: "constant"
    }
  }
}
layer {
  name: "L1_b1_brc3_bn"
  type: "BatchNorm"
  bottom: "L1_b1_brc2_conv_top"
  top: "L1_b1_brc3_bn_top"
  batch_norm_param {
    use_global_stats: false
    moving_average_fraction: 0.95
  }
}
layer {
  name: "L1_b1_brc3_relu"
  type: "ReLU"
  bottom: "L1_b1_brc3_bn_top"
  top: "L1_b1_brc3_bn_top"
}
layer {
  name: "L1_b1_brc3_conv"
  type: "Convolution"
  bottom: "L1_b1_brc3_bn_top"
  top: "L1_b1_brc3_conv_top"
  param {
    lr_mult: 1
    decay_mult: 1
  }
  param {
    lr_mult: 2
    decay_mult: 0
  }
  convolution_param {
    num_output: 64
    pad: 0
    kernel_size: 1
    stride: 1
    weight_filler {
      type: "msra"
    }
    bias_filler {
      type: "constant"
    }
  }
}
layer {
  name: "L1_b1_chanInc_conv"
  type: "Convolution"
  bottom: "pre_conv_top"
  top: "L1_b1_chanInc_conv_top"
  param {
    lr_mult: 1
    decay_mult: 1
  }
  param {
    lr_mult: 2
    decay_mult: 0
  }
  convolution_param {
    num_output: 64
    pad: 0
    kernel_size: 1
    stride: 1
    weight_filler {
      type: "msra"
    }
    bias_filler {
      type: "constant"
    }
  }
}
layer {
  name: "L1_b1_sum_eltwise"
  type: "Eltwise"
  bottom: "L1_b1_brc3_conv_top"
  bottom: "L1_b1_chanInc_conv_top"
  top: "L1_b1_sum_eltwise_top"
  eltwise_param {
    operation: SUM
  }
}
layer {
  name: "L1_b2_brc1_bn"
  type: "BatchNorm"
  bottom: "L1_b1_sum_eltwise_top"
  top: "L1_b2_brc1_bn_top"
  batch_norm_param {
    use_global_stats: false
    moving_average_fraction: 0.95
  }
}
layer {
  name: "L1_b2_brc1_relu"
  type: "ReLU"
  bottom: "L1_b2_brc1_bn_top"
  top: "L1_b2_brc1_bn_top"
}
layer {
  name: "L1_b2_brc1_conv"
  type: "Convolution"
  bottom: "L1_b2_brc1_bn_top"
  top: "L1_b2_brc1_conv_top"
  param {
    lr_mult: 1
    decay_mult: 1
  }
  param {
    lr_mult: 2
    decay_mult: 0
  }
  convolution_param {
    num_output: 32
    pad: 0
    kernel_size: 1
    stride: 1
    weight_filler {
      type: "msra"
    }
    bias_filler {
      type: "constant"
    }
  }
}
layer {
  name: "L1_b2_brc2_bn"
  type: "BatchNorm"
  bottom: "L1_b2_brc1_conv_top"
  top: "L1_b2_brc2_bn_top"
  batch_norm_param {
    use_global_stats: false
    moving_average_fraction: 0.95
  }
}
layer {
  name: "L1_b2_brc2_relu"
  type: "ReLU"
  bottom: "L1_b2_brc2_bn_top"
  top: "L1_b2_brc2_bn_top"
}
layer {
  name: "L1_b2_brc2_conv"
  type: "Convolution"
  bottom: "L1_b2_brc2_bn_top"
  top: "L1_b2_brc2_conv_top"
  param {
    lr_mult: 1
    decay_mult: 1
  }
  param {
    lr_mult: 2
    decay_mult: 0
  }
  convolution_param {
    num_output: 32
    pad: 1
    kernel_size: 3
    group: 32
    stride: 1
    weight_filler {
      type: "msra"
    }
    bias_filler {
      type: "constant"
    }
  }
}
layer {
  name: "L1_b2_brc3_bn"
  type: "BatchNorm"
  bottom: "L1_b2_brc2_conv_top"
  top: "L1_b2_brc3_bn_top"
  batch_norm_param {
    use_global_stats: false
    moving_average_fraction: 0.95
  }
}
layer {
  name: "L1_b2_brc3_relu"
  type: "ReLU"
  bottom: "L1_b2_brc3_bn_top"
  top: "L1_b2_brc3_bn_top"
}
layer {
  name: "L1_b2_brc3_conv"
  type: "Convolution"
  bottom: "L1_b2_brc3_bn_top"
  top: "L1_b2_brc3_conv_top"
  param {
    lr_mult: 1
    decay_mult: 1
  }
  param {
    lr_mult: 2
    decay_mult: 0
  }
  convolution_param {
    num_output: 64
    pad: 0
    kernel_size: 1
    stride: 1
    weight_filler {
      type: "msra"
    }
    bias_filler {
      type: "constant"
    }
  }
}
layer {
  name: "L1_b2_sum_eltwise"
  type: "Eltwise"
  bottom: "L1_b2_brc3_conv_top"
  bottom: "L1_b1_sum_eltwise_top"
  top: "L1_b2_sum_eltwise_top"
  eltwise_param {
    operation: SUM
  }
}
layer {
  name: "L1_b3_brc1_bn"
  type: "BatchNorm"
  bottom: "L1_b2_sum_eltwise_top"
  top: "L1_b3_brc1_bn_top"
  batch_norm_param {
    use_global_stats: false
    moving_average_fraction: 0.95
  }
}
layer {
  name: "L1_b3_brc1_relu"
  type: "ReLU"
  bottom: "L1_b3_brc1_bn_top"
  top: "L1_b3_brc1_bn_top"
}
layer {
  name: "L1_b3_brc1_conv"
  type: "Convolution"
  bottom: "L1_b3_brc1_bn_top"
  top: "L1_b3_brc1_conv_top"
  param {
    lr_mult: 1
    decay_mult: 1
  }
  param {
    lr_mult: 2
    decay_mult: 0
  }
  convolution_param {
    num_output: 32
    pad: 0
    kernel_size: 1
    stride: 1
    weight_filler {
      type: "msra"
    }
    bias_filler {
      type: "constant"
    }
  }
}
layer {
  name: "L1_b3_brc2_bn"
  type: "BatchNorm"
  bottom: "L1_b3_brc1_conv_top"
  top: "L1_b3_brc2_bn_top"
  batch_norm_param {
    use_global_stats: false
    moving_average_fraction: 0.95
  }
}
layer {
  name: "L1_b3_brc2_relu"
  type: "ReLU"
  bottom: "L1_b3_brc2_bn_top"
  top: "L1_b3_brc2_bn_top"
}
layer {
  name: "L1_b3_brc2_conv"
  type: "Convolution"
  bottom: "L1_b3_brc2_bn_top"
  top: "L1_b3_brc2_conv_top"
  param {
    lr_mult: 1
    decay_mult: 1
  }
  param {
    lr_mult: 2
    decay_mult: 0
  }
  convolution_param {
    num_output: 32
    pad: 1
    kernel_size: 3
    group: 32
    stride: 1
    weight_filler {
      type: "msra"
    }
    bias_filler {
      type: "constant"
    }
  }
}
layer {
  name: "L1_b3_brc3_bn"
  type: "BatchNorm"
  bottom: "L1_b3_brc2_conv_top"
  top: "L1_b3_brc3_bn_top"
  batch_norm_param {
    use_global_stats: false
    moving_average_fraction: 0.95
  }
}
layer {
  name: "L1_b3_brc3_relu"
  type: "ReLU"
  bottom: "L1_b3_brc3_bn_top"
  top: "L1_b3_brc3_bn_top"
}
layer {
  name: "L1_b3_brc3_conv"
  type: "Convolution"
  bottom: "L1_b3_brc3_bn_top"
  top: "L1_b3_brc3_conv_top"
  param {
    lr_mult: 1
    decay_mult: 1
  }
  param {
    lr_mult: 2
    decay_mult: 0
  }
  convolution_param {
    num_output: 64
    pad: 0
    kernel_size: 1
    stride: 1
    weight_filler {
      type: "msra"
    }
    bias_filler {
      type: "constant"
    }
  }
}
layer {
  name: "L1_b3_sum_eltwise"
  type: "Eltwise"
  bottom: "L1_b3_brc3_conv_top"
  bottom: "L1_b2_sum_eltwise_top"
  top: "L1_b3_sum_eltwise_top"
  eltwise_param {
    operation: SUM
  }
}
layer {
  name: "L1_b4_brc1_bn"
  type: "BatchNorm"
  bottom: "L1_b3_sum_eltwise_top"
  top: "L1_b4_brc1_bn_top"
  batch_norm_param {
    use_global_stats: false
    moving_average_fraction: 0.95
  }
}
layer {
  name: "L1_b4_brc1_relu"
  type: "ReLU"
  bottom: "L1_b4_brc1_bn_top"
  top: "L1_b4_brc1_bn_top"
}
layer {
  name: "L1_b4_brc1_conv"
  type: "Convolution"
  bottom: "L1_b4_brc1_bn_top"
  top: "L1_b4_brc1_conv_top"
  param {
    lr_mult: 1
    decay_mult: 1
  }
  param {
    lr_mult: 2
    decay_mult: 0
  }
  convolution_param {
    num_output: 32
    pad: 0
    kernel_size: 1
    stride: 1
    weight_filler {
      type: "msra"
    }
    bias_filler {
      type: "constant"
    }
  }
}
layer {
  name: "L1_b4_brc2_bn"
  type: "BatchNorm"
  bottom: "L1_b4_brc1_conv_top"
  top: "L1_b4_brc2_bn_top"
  batch_norm_param {
    use_global_stats: false
    moving_average_fraction: 0.95
  }
}
layer {
  name: "L1_b4_brc2_relu"
  type: "ReLU"
  bottom: "L1_b4_brc2_bn_top"
  top: "L1_b4_brc2_bn_top"
}
layer {
  name: "L1_b4_brc2_conv"
  type: "Convolution"
  bottom: "L1_b4_brc2_bn_top"
  top: "L1_b4_brc2_conv_top"
  param {
    lr_mult: 1
    decay_mult: 1
  }
  param {
    lr_mult: 2
    decay_mult: 0
  }
  convolution_param {
    num_output: 32
    pad: 1
    kernel_size: 3
    group: 32
    stride: 1
    weight_filler {
      type: "msra"
    }
    bias_filler {
      type: "constant"
    }
  }
}
layer {
  name: "L1_b4_brc3_bn"
  type: "BatchNorm"
  bottom: "L1_b4_brc2_conv_top"
  top: "L1_b4_brc3_bn_top"
  batch_norm_param {
    use_global_stats: false
    moving_average_fraction: 0.95
  }
}
layer {
  name: "L1_b4_brc3_relu"
  type: "ReLU"
  bottom: "L1_b4_brc3_bn_top"
  top: "L1_b4_brc3_bn_top"
}
layer {
  name: "L1_b4_brc3_conv"
  type: "Convolution"
  bottom: "L1_b4_brc3_bn_top"
  top: "L1_b4_brc3_conv_top"
  param {
    lr_mult: 1
    decay_mult: 1
  }
  param {
    lr_mult: 2
    decay_mult: 0
  }
  convolution_param {
    num_output: 64
    pad: 0
    kernel_size: 1
    stride: 1
    weight_filler {
      type: "msra"
    }
    bias_filler {
      type: "constant"
    }
  }
}
layer {
  name: "L1_b4_sum_eltwise"
  type: "Eltwise"
  bottom: "L1_b4_brc3_conv_top"
  bottom: "L1_b3_sum_eltwise_top"
  top: "L1_b4_sum_eltwise_top"
  eltwise_param {
    operation: SUM
  }
}
layer {
  name: "L1_b5_brc1_bn"
  type: "BatchNorm"
  bottom: "L1_b4_sum_eltwise_top"
  top: "L1_b5_brc1_bn_top"
  batch_norm_param {
    use_global_stats: false
    moving_average_fraction: 0.95
  }
}
layer {
  name: "L1_b5_brc1_relu"
  type: "ReLU"
  bottom: "L1_b5_brc1_bn_top"
  top: "L1_b5_brc1_bn_top"
}
layer {
  name: "L1_b5_brc1_conv"
  type: "Convolution"
  bottom: "L1_b5_brc1_bn_top"
  top: "L1_b5_brc1_conv_top"
  param {
    lr_mult: 1
    decay_mult: 1
  }
  param {
    lr_mult: 2
    decay_mult: 0
  }
  convolution_param {
    num_output: 32
    pad: 0
    kernel_size: 1
    stride: 1
    weight_filler {
      type: "msra"
    }
    bias_filler {
      type: "constant"
    }
  }
}
layer {
  name: "L1_b5_brc2_bn"
  type: "BatchNorm"
  bottom: "L1_b5_brc1_conv_top"
  top: "L1_b5_brc2_bn_top"
  batch_norm_param {
    use_global_stats: false
    moving_average_fraction: 0.95
  }
}
layer {
  name: "L1_b5_brc2_relu"
  type: "ReLU"
  bottom: "L1_b5_brc2_bn_top"
  top: "L1_b5_brc2_bn_top"
}
layer {
  name: "L1_b5_brc2_conv"
  type: "Convolution"
  bottom: "L1_b5_brc2_bn_top"
  top: "L1_b5_brc2_conv_top"
  param {
    lr_mult: 1
    decay_mult: 1
  }
  param {
    lr_mult: 2
    decay_mult: 0
  }
  convolution_param {
    num_output: 32
    pad: 1
    kernel_size: 3
    group: 32
    stride: 1
    weight_filler {
      type: "msra"
    }
    bias_filler {
      type: "constant"
    }
  }
}
layer {
  name: "L1_b5_brc3_bn"
  type: "BatchNorm"
  bottom: "L1_b5_brc2_conv_top"
  top: "L1_b5_brc3_bn_top"
  batch_norm_param {
    use_global_stats: false
    moving_average_fraction: 0.95
  }
}
layer {
  name: "L1_b5_brc3_relu"
  type: "ReLU"
  bottom: "L1_b5_brc3_bn_top"
  top: "L1_b5_brc3_bn_top"
}
layer {
  name: "L1_b5_brc3_conv"
  type: "Convolution"
  bottom: "L1_b5_brc3_bn_top"
  top: "L1_b5_brc3_conv_top"
  param {
    lr_mult: 1
    decay_mult: 1
  }
  param {
    lr_mult: 2
    decay_mult: 0
  }
  convolution_param {
    num_output: 64
    pad: 0
    kernel_size: 1
    stride: 1
    weight_filler {
      type: "msra"
    }
    bias_filler {
      type: "constant"
    }
  }
}
layer {
  name: "L1_b5_sum_eltwise"
  type: "Eltwise"
  bottom: "L1_b5_brc3_conv_top"
  bottom: "L1_b4_sum_eltwise_top"
  top: "L1_b5_sum_eltwise_top"
  eltwise_param {
    operation: SUM
  }
}
layer {
  name: "L1_b6_brc1_bn"
  type: "BatchNorm"
  bottom: "L1_b5_sum_eltwise_top"
  top: "L1_b6_brc1_bn_top"
  batch_norm_param {
    use_global_stats: false
    moving_average_fraction: 0.95
  }
}
layer {
  name: "L1_b6_brc1_relu"
  type: "ReLU"
  bottom: "L1_b6_brc1_bn_top"
  top: "L1_b6_brc1_bn_top"
}
layer {
  name: "L1_b6_brc1_conv"
  type: "Convolution"
  bottom: "L1_b6_brc1_bn_top"
  top: "L1_b6_brc1_conv_top"
  param {
    lr_mult: 1
    decay_mult: 1
  }
  param {
    lr_mult: 2
    decay_mult: 0
  }
  convolution_param {
    num_output: 32
    pad: 0
    kernel_size: 1
    stride: 1
    weight_filler {
      type: "msra"
    }
    bias_filler {
      type: "constant"
    }
  }
}
layer {
  name: "L1_b6_brc2_bn"
  type: "BatchNorm"
  bottom: "L1_b6_brc1_conv_top"
  top: "L1_b6_brc2_bn_top"
  batch_norm_param {
    use_global_stats: false
    moving_average_fraction: 0.95
  }
}
layer {
  name: "L1_b6_brc2_relu"
  type: "ReLU"
  bottom: "L1_b6_brc2_bn_top"
  top: "L1_b6_brc2_bn_top"
}
layer {
  name: "L1_b6_brc2_conv"
  type: "Convolution"
  bottom: "L1_b6_brc2_bn_top"
  top: "L1_b6_brc2_conv_top"
  param {
    lr_mult: 1
    decay_mult: 1
  }
  param {
    lr_mult: 2
    decay_mult: 0
  }
  convolution_param {
    num_output: 32
    pad: 1
    kernel_size: 3
    group: 32
    stride: 1
    weight_filler {
      type: "msra"
    }
    bias_filler {
      type: "constant"
    }
  }
}
layer {
  name: "L1_b6_brc3_bn"
  type: "BatchNorm"
  bottom: "L1_b6_brc2_conv_top"
  top: "L1_b6_brc3_bn_top"
  batch_norm_param {
    use_global_stats: false
    moving_average_fraction: 0.95
  }
}
layer {
  name: "L1_b6_brc3_relu"
  type: "ReLU"
  bottom: "L1_b6_brc3_bn_top"
  top: "L1_b6_brc3_bn_top"
}
layer {
  name: "L1_b6_brc3_conv"
  type: "Convolution"
  bottom: "L1_b6_brc3_bn_top"
  top: "L1_b6_brc3_conv_top"
  param {
    lr_mult: 1
    decay_mult: 1
  }
  param {
    lr_mult: 2
    decay_mult: 0
  }
  convolution_param {
    num_output: 64
    pad: 0
    kernel_size: 1
    stride: 1
    weight_filler {
      type: "msra"
    }
    bias_filler {
      type: "constant"
    }
  }
}
layer {
  name: "L1_b6_sum_eltwise"
  type: "Eltwise"
  bottom: "L1_b6_brc3_conv_top"
  bottom: "L1_b5_sum_eltwise_top"
  top: "L1_b6_sum_eltwise_top"
  eltwise_param {
    operation: SUM
  }
}
layer {
  name: "L2_b1_brc1_bn"
  type: "BatchNorm"
  bottom: "L1_b6_sum_eltwise_top"
  top: "L2_b1_brc1_bn_top"
  batch_norm_param {
    use_global_stats: false
    moving_average_fraction: 0.95
  }
}
layer {
  name: "L2_b1_brc1_relu"
  type: "ReLU"
  bottom: "L2_b1_brc1_bn_top"
  top: "L2_b1_brc1_bn_top"
}
layer {
  name: "L2_b1_brc1_conv"
  type: "Convolution"
  bottom: "L2_b1_brc1_bn_top"
  top: "L2_b1_brc1_conv_top"
  param {
    lr_mult: 1
    decay_mult: 1
  }
  param {
    lr_mult: 2
    decay_mult: 0
  }
  convolution_param {
    num_output: 64
    pad: 0
    kernel_size: 1
    stride: 2
    weight_filler {
      type: "msra"
    }
    bias_filler {
      type: "constant"
    }
  }
}
layer {
  name: "L2_b1_brc2_bn"
  type: "BatchNorm"
  bottom: "L2_b1_brc1_conv_top"
  top: "L2_b1_brc2_bn_top"
  batch_norm_param {
    use_global_stats: false
    moving_average_fraction: 0.95
  }
}
layer {
  name: "L2_b1_brc2_relu"
  type: "ReLU"
  bottom: "L2_b1_brc2_bn_top"
  top: "L2_b1_brc2_bn_top"
}
layer {
  name: "L2_b1_brc2_conv"
  type: "Convolution"
  bottom: "L2_b1_brc2_bn_top"
  top: "L2_b1_brc2_conv_top"
  param {
    lr_mult: 1
    decay_mult: 1
  }
  param {
    lr_mult: 2
    decay_mult: 0
  }
  convolution_param {
    num_output: 64
    pad: 1
    kernel_size: 3
    group: 32
    stride: 1
    weight_filler {
      type: "msra"
    }
    bias_filler {
      type: "constant"
    }
  }
}
layer {
  name: "L2_b1_brc3_bn"
  type: "BatchNorm"
  bottom: "L2_b1_brc2_conv_top"
  top: "L2_b1_brc3_bn_top"
  batch_norm_param {
    use_global_stats: false
    moving_average_fraction: 0.95
  }
}
layer {
  name: "L2_b1_brc3_relu"
  type: "ReLU"
  bottom: "L2_b1_brc3_bn_top"
  top: "L2_b1_brc3_bn_top"
}
layer {
  name: "L2_b1_brc3_conv"
  type: "Convolution"
  bottom: "L2_b1_brc3_bn_top"
  top: "L2_b1_brc3_conv_top"
  param {
    lr_mult: 1
    decay_mult: 1
  }
  param {
    lr_mult: 2
    decay_mult: 0
  }
  convolution_param {
    num_output: 128
    pad: 0
    kernel_size: 1
    stride: 1
    weight_filler {
      type: "msra"
    }
    bias_filler {
      type: "constant"
    }
  }
}
layer {
  name: "L2_b1_chanInc_conv"
  type: "Convolution"
  bottom: "L1_b6_sum_eltwise_top"
  top: "L2_b1_chanInc_conv_top"
  param {
    lr_mult: 1
    decay_mult: 1
  }
  param {
    lr_mult: 2
    decay_mult: 0
  }
  convolution_param {
    num_output: 128
    pad: 0
    kernel_size: 1
    stride: 2
    weight_filler {
      type: "msra"
    }
    bias_filler {
      type: "constant"
    }
  }
}
layer {
  name: "L2_b1_sum_eltwise"
  type: "Eltwise"
  bottom: "L2_b1_brc3_conv_top"
  bottom: "L2_b1_chanInc_conv_top"
  top: "L2_b1_sum_eltwise_top"
  eltwise_param {
    operation: SUM
  }
}
layer {
  name: "L2_b2_brc1_bn"
  type: "BatchNorm"
  bottom: "L2_b1_sum_eltwise_top"
  top: "L2_b2_brc1_bn_top"
  batch_norm_param {
    use_global_stats: false
    moving_average_fraction: 0.95
  }
}
layer {
  name: "L2_b2_brc1_relu"
  type: "ReLU"
  bottom: "L2_b2_brc1_bn_top"
  top: "L2_b2_brc1_bn_top"
}
layer {
  name: "L2_b2_brc1_conv"
  type: "Convolution"
  bottom: "L2_b2_brc1_bn_top"
  top: "L2_b2_brc1_conv_top"
  param {
    lr_mult: 1
    decay_mult: 1
  }
  param {
    lr_mult: 2
    decay_mult: 0
  }
  convolution_param {
    num_output: 64
    pad: 0
    kernel_size: 1
    stride: 1
    weight_filler {
      type: "msra"
    }
    bias_filler {
      type: "constant"
    }
  }
}
layer {
  name: "L2_b2_brc2_bn"
  type: "BatchNorm"
  bottom: "L2_b2_brc1_conv_top"
  top: "L2_b2_brc2_bn_top"
  batch_norm_param {
    use_global_stats: false
    moving_average_fraction: 0.95
  }
}
layer {
  name: "L2_b2_brc2_relu"
  type: "ReLU"
  bottom: "L2_b2_brc2_bn_top"
  top: "L2_b2_brc2_bn_top"
}
layer {
  name: "L2_b2_brc2_conv"
  type: "Convolution"
  bottom: "L2_b2_brc2_bn_top"
  top: "L2_b2_brc2_conv_top"
  param {
    lr_mult: 1
    decay_mult: 1
  }
  param {
    lr_mult: 2
    decay_mult: 0
  }
  convolution_param {
    num_output: 64
    pad: 1
    kernel_size: 3
    group: 32
    stride: 1
    weight_filler {
      type: "msra"
    }
    bias_filler {
      type: "constant"
    }
  }
}
layer {
  name: "L2_b2_brc3_bn"
  type: "BatchNorm"
  bottom: "L2_b2_brc2_conv_top"
  top: "L2_b2_brc3_bn_top"
  batch_norm_param {
    use_global_stats: false
    moving_average_fraction: 0.95
  }
}
layer {
  name: "L2_b2_brc3_relu"
  type: "ReLU"
  bottom: "L2_b2_brc3_bn_top"
  top: "L2_b2_brc3_bn_top"
}
layer {
  name: "L2_b2_brc3_conv"
  type: "Convolution"
  bottom: "L2_b2_brc3_bn_top"
  top: "L2_b2_brc3_conv_top"
  param {
    lr_mult: 1
    decay_mult: 1
  }
  param {
    lr_mult: 2
    decay_mult: 0
  }
  convolution_param {
    num_output: 128
    pad: 0
    kernel_size: 1
    stride: 1
    weight_filler {
      type: "msra"
    }
    bias_filler {
      type: "constant"
    }
  }
}
layer {
  name: "L2_b2_sum_eltwise"
  type: "Eltwise"
  bottom: "L2_b2_brc3_conv_top"
  bottom: "L2_b1_sum_eltwise_top"
  top: "L2_b2_sum_eltwise_top"
  eltwise_param {
    operation: SUM
  }
}
layer {
  name: "L2_b3_brc1_bn"
  type: "BatchNorm"
  bottom: "L2_b2_sum_eltwise_top"
  top: "L2_b3_brc1_bn_top"
  batch_norm_param {
    use_global_stats: false
    moving_average_fraction: 0.95
  }
}
layer {
  name: "L2_b3_brc1_relu"
  type: "ReLU"
  bottom: "L2_b3_brc1_bn_top"
  top: "L2_b3_brc1_bn_top"
}
layer {
  name: "L2_b3_brc1_conv"
  type: "Convolution"
  bottom: "L2_b3_brc1_bn_top"
  top: "L2_b3_brc1_conv_top"
  param {
    lr_mult: 1
    decay_mult: 1
  }
  param {
    lr_mult: 2
    decay_mult: 0
  }
  convolution_param {
    num_output: 64
    pad: 0
    kernel_size: 1
    stride: 1
    weight_filler {
      type: "msra"
    }
    bias_filler {
      type: "constant"
    }
  }
}
layer {
  name: "L2_b3_brc2_bn"
  type: "BatchNorm"
  bottom: "L2_b3_brc1_conv_top"
  top: "L2_b3_brc2_bn_top"
  batch_norm_param {
    use_global_stats: false
    moving_average_fraction: 0.95
  }
}
layer {
  name: "L2_b3_brc2_relu"
  type: "ReLU"
  bottom: "L2_b3_brc2_bn_top"
  top: "L2_b3_brc2_bn_top"
}
layer {
  name: "L2_b3_brc2_conv"
  type: "Convolution"
  bottom: "L2_b3_brc2_bn_top"
  top: "L2_b3_brc2_conv_top"
  param {
    lr_mult: 1
    decay_mult: 1
  }
  param {
    lr_mult: 2
    decay_mult: 0
  }
  convolution_param {
    num_output: 64
    pad: 1
    kernel_size: 3
    group: 32
    stride: 1
    weight_filler {
      type: "msra"
    }
    bias_filler {
      type: "constant"
    }
  }
}
layer {
  name: "L2_b3_brc3_bn"
  type: "BatchNorm"
  bottom: "L2_b3_brc2_conv_top"
  top: "L2_b3_brc3_bn_top"
  batch_norm_param {
    use_global_stats: false
    moving_average_fraction: 0.95
  }
}
layer {
  name: "L2_b3_brc3_relu"
  type: "ReLU"
  bottom: "L2_b3_brc3_bn_top"
  top: "L2_b3_brc3_bn_top"
}
layer {
  name: "L2_b3_brc3_conv"
  type: "Convolution"
  bottom: "L2_b3_brc3_bn_top"
  top: "L2_b3_brc3_conv_top"
  param {
    lr_mult: 1
    decay_mult: 1
  }
  param {
    lr_mult: 2
    decay_mult: 0
  }
  convolution_param {
    num_output: 128
    pad: 0
    kernel_size: 1
    stride: 1
    weight_filler {
      type: "msra"
    }
    bias_filler {
      type: "constant"
    }
  }
}
layer {
  name: "L2_b3_sum_eltwise"
  type: "Eltwise"
  bottom: "L2_b3_brc3_conv_top"
  bottom: "L2_b2_sum_eltwise_top"
  top: "L2_b3_sum_eltwise_top"
  eltwise_param {
    operation: SUM
  }
}
layer {
  name: "L2_b4_brc1_bn"
  type: "BatchNorm"
  bottom: "L2_b3_sum_eltwise_top"
  top: "L2_b4_brc1_bn_top"
  batch_norm_param {
    use_global_stats: false
    moving_average_fraction: 0.95
  }
}
layer {
  name: "L2_b4_brc1_relu"
  type: "ReLU"
  bottom: "L2_b4_brc1_bn_top"
  top: "L2_b4_brc1_bn_top"
}
layer {
  name: "L2_b4_brc1_conv"
  type: "Convolution"
  bottom: "L2_b4_brc1_bn_top"
  top: "L2_b4_brc1_conv_top"
  param {
    lr_mult: 1
    decay_mult: 1
  }
  param {
    lr_mult: 2
    decay_mult: 0
  }
  convolution_param {
    num_output: 64
    pad: 0
    kernel_size: 1
    stride: 1
    weight_filler {
      type: "msra"
    }
    bias_filler {
      type: "constant"
    }
  }
}
layer {
  name: "L2_b4_brc2_bn"
  type: "BatchNorm"
  bottom: "L2_b4_brc1_conv_top"
  top: "L2_b4_brc2_bn_top"
  batch_norm_param {
    use_global_stats: false
    moving_average_fraction: 0.95
  }
}
layer {
  name: "L2_b4_brc2_relu"
  type: "ReLU"
  bottom: "L2_b4_brc2_bn_top"
  top: "L2_b4_brc2_bn_top"
}
layer {
  name: "L2_b4_brc2_conv"
  type: "Convolution"
  bottom: "L2_b4_brc2_bn_top"
  top: "L2_b4_brc2_conv_top"
  param {
    lr_mult: 1
    decay_mult: 1
  }
  param {
    lr_mult: 2
    decay_mult: 0
  }
  convolution_param {
    num_output: 64
    pad: 1
    kernel_size: 3
    group: 32
    stride: 1
    weight_filler {
      type: "msra"
    }
    bias_filler {
      type: "constant"
    }
  }
}
layer {
  name: "L2_b4_brc3_bn"
  type: "BatchNorm"
  bottom: "L2_b4_brc2_conv_top"
  top: "L2_b4_brc3_bn_top"
  batch_norm_param {
    use_global_stats: false
    moving_average_fraction: 0.95
  }
}
layer {
  name: "L2_b4_brc3_relu"
  type: "ReLU"
  bottom: "L2_b4_brc3_bn_top"
  top: "L2_b4_brc3_bn_top"
}
layer {
  name: "L2_b4_brc3_conv"
  type: "Convolution"
  bottom: "L2_b4_brc3_bn_top"
  top: "L2_b4_brc3_conv_top"
  param {
    lr_mult: 1
    decay_mult: 1
  }
  param {
    lr_mult: 2
    decay_mult: 0
  }
  convolution_param {
    num_output: 128
    pad: 0
    kernel_size: 1
    stride: 1
    weight_filler {
      type: "msra"
    }
    bias_filler {
      type: "constant"
    }
  }
}
layer {
  name: "L2_b4_sum_eltwise"
  type: "Eltwise"
  bottom: "L2_b4_brc3_conv_top"
  bottom: "L2_b3_sum_eltwise_top"
  top: "L2_b4_sum_eltwise_top"
  eltwise_param {
    operation: SUM
  }
}
layer {
  name: "L2_b5_brc1_bn"
  type: "BatchNorm"
  bottom: "L2_b4_sum_eltwise_top"
  top: "L2_b5_brc1_bn_top"
  batch_norm_param {
    use_global_stats: false
    moving_average_fraction: 0.95
  }
}
layer {
  name: "L2_b5_brc1_relu"
  type: "ReLU"
  bottom: "L2_b5_brc1_bn_top"
  top: "L2_b5_brc1_bn_top"
}
layer {
  name: "L2_b5_brc1_conv"
  type: "Convolution"
  bottom: "L2_b5_brc1_bn_top"
  top: "L2_b5_brc1_conv_top"
  param {
    lr_mult: 1
    decay_mult: 1
  }
  param {
    lr_mult: 2
    decay_mult: 0
  }
  convolution_param {
    num_output: 64
    pad: 0
    kernel_size: 1
    stride: 1
    weight_filler {
      type: "msra"
    }
    bias_filler {
      type: "constant"
    }
  }
}
layer {
  name: "L2_b5_brc2_bn"
  type: "BatchNorm"
  bottom: "L2_b5_brc1_conv_top"
  top: "L2_b5_brc2_bn_top"
  batch_norm_param {
    use_global_stats: false
    moving_average_fraction: 0.95
  }
}
layer {
  name: "L2_b5_brc2_relu"
  type: "ReLU"
  bottom: "L2_b5_brc2_bn_top"
  top: "L2_b5_brc2_bn_top"
}
layer {
  name: "L2_b5_brc2_conv"
  type: "Convolution"
  bottom: "L2_b5_brc2_bn_top"
  top: "L2_b5_brc2_conv_top"
  param {
    lr_mult: 1
    decay_mult: 1
  }
  param {
    lr_mult: 2
    decay_mult: 0
  }
  convolution_param {
    num_output: 64
    pad: 1
    kernel_size: 3
    group: 32
    stride: 1
    weight_filler {
      type: "msra"
    }
    bias_filler {
      type: "constant"
    }
  }
}
layer {
  name: "L2_b5_brc3_bn"
  type: "BatchNorm"
  bottom: "L2_b5_brc2_conv_top"
  top: "L2_b5_brc3_bn_top"
  batch_norm_param {
    use_global_stats: false
    moving_average_fraction: 0.95
  }
}
layer {
  name: "L2_b5_brc3_relu"
  type: "ReLU"
  bottom: "L2_b5_brc3_bn_top"
  top: "L2_b5_brc3_bn_top"
}
layer {
  name: "L2_b5_brc3_conv"
  type: "Convolution"
  bottom: "L2_b5_brc3_bn_top"
  top: "L2_b5_brc3_conv_top"
  param {
    lr_mult: 1
    decay_mult: 1
  }
  param {
    lr_mult: 2
    decay_mult: 0
  }
  convolution_param {
    num_output: 128
    pad: 0
    kernel_size: 1
    stride: 1
    weight_filler {
      type: "msra"
    }
    bias_filler {
      type: "constant"
    }
  }
}
layer {
  name: "L2_b5_sum_eltwise"
  type: "Eltwise"
  bottom: "L2_b5_brc3_conv_top"
  bottom: "L2_b4_sum_eltwise_top"
  top: "L2_b5_sum_eltwise_top"
  eltwise_param {
    operation: SUM
  }
}
layer {
  name: "L2_b6_brc1_bn"
  type: "BatchNorm"
  bottom: "L2_b5_sum_eltwise_top"
  top: "L2_b6_brc1_bn_top"
  batch_norm_param {
    use_global_stats: false
    moving_average_fraction: 0.95
  }
}
layer {
  name: "L2_b6_brc1_relu"
  type: "ReLU"
  bottom: "L2_b6_brc1_bn_top"
  top: "L2_b6_brc1_bn_top"
}
layer {
  name: "L2_b6_brc1_conv"
  type: "Convolution"
  bottom: "L2_b6_brc1_bn_top"
  top: "L2_b6_brc1_conv_top"
  param {
    lr_mult: 1
    decay_mult: 1
  }
  param {
    lr_mult: 2
    decay_mult: 0
  }
  convolution_param {
    num_output: 64
    pad: 0
    kernel_size: 1
    stride: 1
    weight_filler {
      type: "msra"
    }
    bias_filler {
      type: "constant"
    }
  }
}
layer {
  name: "L2_b6_brc2_bn"
  type: "BatchNorm"
  bottom: "L2_b6_brc1_conv_top"
  top: "L2_b6_brc2_bn_top"
  batch_norm_param {
    use_global_stats: false
    moving_average_fraction: 0.95
  }
}
layer {
  name: "L2_b6_brc2_relu"
  type: "ReLU"
  bottom: "L2_b6_brc2_bn_top"
  top: "L2_b6_brc2_bn_top"
}
layer {
  name: "L2_b6_brc2_conv"
  type: "Convolution"
  bottom: "L2_b6_brc2_bn_top"
  top: "L2_b6_brc2_conv_top"
  param {
    lr_mult: 1
    decay_mult: 1
  }
  param {
    lr_mult: 2
    decay_mult: 0
  }
  convolution_param {
    num_output: 64
    pad: 1
    kernel_size: 3
    group: 32
    stride: 1
    weight_filler {
      type: "msra"
    }
    bias_filler {
      type: "constant"
    }
  }
}
layer {
  name: "L2_b6_brc3_bn"
  type: "BatchNorm"
  bottom: "L2_b6_brc2_conv_top"
  top: "L2_b6_brc3_bn_top"
  batch_norm_param {
    use_global_stats: false
    moving_average_fraction: 0.95
  }
}
layer {
  name: "L2_b6_brc3_relu"
  type: "ReLU"
  bottom: "L2_b6_brc3_bn_top"
  top: "L2_b6_brc3_bn_top"
}
layer {
  name: "L2_b6_brc3_conv"
  type: "Convolution"
  bottom: "L2_b6_brc3_bn_top"
  top: "L2_b6_brc3_conv_top"
  param {
    lr_mult: 1
    decay_mult: 1
  }
  param {
    lr_mult: 2
    decay_mult: 0
  }
  convolution_param {
    num_output: 128
    pad: 0
    kernel_size: 1
    stride: 1
    weight_filler {
      type: "msra"
    }
    bias_filler {
      type: "constant"
    }
  }
}
layer {
  name: "L2_b6_sum_eltwise"
  type: "Eltwise"
  bottom: "L2_b6_brc3_conv_top"
  bottom: "L2_b5_sum_eltwise_top"
  top: "L2_b6_sum_eltwise_top"
  eltwise_param {
    operation: SUM
  }
}
layer {
  name: "L3_b1_brc1_bn"
  type: "BatchNorm"
  bottom: "L2_b6_sum_eltwise_top"
  top: "L3_b1_brc1_bn_top"
  batch_norm_param {
    use_global_stats: false
    moving_average_fraction: 0.95
  }
}
layer {
  name: "L3_b1_brc1_relu"
  type: "ReLU"
  bottom: "L3_b1_brc1_bn_top"
  top: "L3_b1_brc1_bn_top"
}
layer {
  name: "L3_b1_brc1_conv"
  type: "Convolution"
  bottom: "L3_b1_brc1_bn_top"
  top: "L3_b1_brc1_conv_top"
  param {
    lr_mult: 1
    decay_mult: 1
  }
  param {
    lr_mult: 2
    decay_mult: 0
  }
  convolution_param {
    num_output: 128
    pad: 0
    kernel_size: 1
    stri
I1206 09:11:00.191654 23310 layer_factory.hpp:77] Creating layer dataLayer
I1206 09:11:00.195101 23310 net.cpp:100] Creating Layer dataLayer
I1206 09:11:00.195195 23310 net.cpp:408] dataLayer -> data_top
I1206 09:11:00.195439 23310 net.cpp:408] dataLayer -> label
I1206 09:11:00.195605 23310 data_transformer.cpp:25] Loading mean file from: examples/cifar10/mean.binaryproto
I1206 09:11:00.203526 23315 db_lmdb.cpp:35] Opened lmdb examples/cifar10/cifar10_train_lmdb
I1206 09:11:00.264348 23310 data_layer.cpp:41] output data size: 85,3,32,32
I1206 09:11:00.271190 23310 net.cpp:150] Setting up dataLayer
I1206 09:11:00.271265 23310 net.cpp:157] Top shape: 85 3 32 32 (261120)
I1206 09:11:00.271281 23310 net.cpp:157] Top shape: 85 (85)
I1206 09:11:00.271286 23310 net.cpp:165] Memory required for data: 1044820
I1206 09:11:00.271303 23310 layer_factory.hpp:77] Creating layer label_dataLayer_1_split
I1206 09:11:00.271322 23310 net.cpp:100] Creating Layer label_dataLayer_1_split
I1206 09:11:00.271332 23310 net.cpp:434] label_dataLayer_1_split <- label
I1206 09:11:00.271350 23310 net.cpp:408] label_dataLayer_1_split -> label_dataLayer_1_split_0
I1206 09:11:00.271365 23310 net.cpp:408] label_dataLayer_1_split -> label_dataLayer_1_split_1
I1206 09:11:00.271453 23310 net.cpp:150] Setting up label_dataLayer_1_split
I1206 09:11:00.271467 23310 net.cpp:157] Top shape: 85 (85)
I1206 09:11:00.271474 23310 net.cpp:157] Top shape: 85 (85)
I1206 09:11:00.271479 23310 net.cpp:165] Memory required for data: 1045500
I1206 09:11:00.271486 23310 layer_factory.hpp:77] Creating layer pre_conv
I1206 09:11:00.271566 23310 net.cpp:100] Creating Layer pre_conv
I1206 09:11:00.271579 23310 net.cpp:434] pre_conv <- data_top
I1206 09:11:00.271592 23310 net.cpp:408] pre_conv -> pre_conv_top
I1206 09:11:00.273730 23310 net.cpp:150] Setting up pre_conv
I1206 09:11:00.273751 23310 net.cpp:157] Top shape: 85 16 32 32 (1392640)
I1206 09:11:00.273757 23310 net.cpp:165] Memory required for data: 6616060
I1206 09:11:00.273820 23310 layer_factory.hpp:77] Creating layer pre_conv_top_pre_conv_0_split
I1206 09:11:00.273833 23310 net.cpp:100] Creating Layer pre_conv_top_pre_conv_0_split
I1206 09:11:00.273839 23310 net.cpp:434] pre_conv_top_pre_conv_0_split <- pre_conv_top
I1206 09:11:00.273852 23310 net.cpp:408] pre_conv_top_pre_conv_0_split -> pre_conv_top_pre_conv_0_split_0
I1206 09:11:00.273864 23310 net.cpp:408] pre_conv_top_pre_conv_0_split -> pre_conv_top_pre_conv_0_split_1
I1206 09:11:00.273916 23310 net.cpp:150] Setting up pre_conv_top_pre_conv_0_split
I1206 09:11:00.273918 23316 blocking_queue.cpp:50] Waiting for data
I1206 09:11:00.273936 23310 net.cpp:157] Top shape: 85 16 32 32 (1392640)
I1206 09:11:00.273944 23310 net.cpp:157] Top shape: 85 16 32 32 (1392640)
I1206 09:11:00.273949 23310 net.cpp:165] Memory required for data: 17757180
I1206 09:11:00.273955 23310 layer_factory.hpp:77] Creating layer L1_b1_brc1_bn
I1206 09:11:00.274055 23310 net.cpp:100] Creating Layer L1_b1_brc1_bn
I1206 09:11:00.274068 23310 net.cpp:434] L1_b1_brc1_bn <- pre_conv_top_pre_conv_0_split_0
I1206 09:11:00.274081 23310 net.cpp:408] L1_b1_brc1_bn -> L1_b1_brc1_bn_top
I1206 09:11:00.274570 23310 net.cpp:150] Setting up L1_b1_brc1_bn
I1206 09:11:00.274587 23310 net.cpp:157] Top shape: 85 16 32 32 (1392640)
I1206 09:11:00.274593 23310 net.cpp:165] Memory required for data: 23327740
I1206 09:11:00.274610 23310 layer_factory.hpp:77] Creating layer L1_b1_brc1_relu
I1206 09:11:00.274672 23310 net.cpp:100] Creating Layer L1_b1_brc1_relu
I1206 09:11:00.274682 23310 net.cpp:434] L1_b1_brc1_relu <- L1_b1_brc1_bn_top
I1206 09:11:00.274689 23310 net.cpp:395] L1_b1_brc1_relu -> L1_b1_brc1_bn_top (in-place)
I1206 09:11:00.274700 23310 net.cpp:150] Setting up L1_b1_brc1_relu
I1206 09:11:00.274708 23310 net.cpp:157] Top shape: 85 16 32 32 (1392640)
I1206 09:11:00.274721 23310 net.cpp:165] Memory required for data: 28898300
I1206 09:11:00.274727 23310 layer_factory.hpp:77] Creating layer L1_b1_brc1_conv
I1206 09:11:00.274741 23310 net.cpp:100] Creating Layer L1_b1_brc1_conv
I1206 09:11:00.274746 23310 net.cpp:434] L1_b1_brc1_conv <- L1_b1_brc1_bn_top
I1206 09:11:00.274760 23310 net.cpp:408] L1_b1_brc1_conv -> L1_b1_brc1_conv_top
I1206 09:11:00.275056 23310 net.cpp:150] Setting up L1_b1_brc1_conv
I1206 09:11:00.275072 23310 net.cpp:157] Top shape: 85 32 32 32 (2785280)
I1206 09:11:00.275077 23310 net.cpp:165] Memory required for data: 40039420
I1206 09:11:00.275087 23310 layer_factory.hpp:77] Creating layer L1_b1_brc2_bn
I1206 09:11:00.275097 23310 net.cpp:100] Creating Layer L1_b1_brc2_bn
I1206 09:11:00.275104 23310 net.cpp:434] L1_b1_brc2_bn <- L1_b1_brc1_conv_top
I1206 09:11:00.275115 23310 net.cpp:408] L1_b1_brc2_bn -> L1_b1_brc2_bn_top
I1206 09:11:00.275349 23310 net.cpp:150] Setting up L1_b1_brc2_bn
I1206 09:11:00.275363 23310 net.cpp:157] Top shape: 85 32 32 32 (2785280)
I1206 09:11:00.275368 23310 net.cpp:165] Memory required for data: 51180540
I1206 09:11:00.275387 23310 layer_factory.hpp:77] Creating layer L1_b1_brc2_relu
I1206 09:11:00.275398 23310 net.cpp:100] Creating Layer L1_b1_brc2_relu
I1206 09:11:00.275403 23310 net.cpp:434] L1_b1_brc2_relu <- L1_b1_brc2_bn_top
I1206 09:11:00.275410 23310 net.cpp:395] L1_b1_brc2_relu -> L1_b1_brc2_bn_top (in-place)
I1206 09:11:00.275420 23310 net.cpp:150] Setting up L1_b1_brc2_relu
I1206 09:11:00.275436 23310 net.cpp:157] Top shape: 85 32 32 32 (2785280)
I1206 09:11:00.275441 23310 net.cpp:165] Memory required for data: 62321660
I1206 09:11:00.275447 23310 layer_factory.hpp:77] Creating layer L1_b1_brc2_conv
I1206 09:11:00.275463 23310 net.cpp:100] Creating Layer L1_b1_brc2_conv
I1206 09:11:00.275470 23310 net.cpp:434] L1_b1_brc2_conv <- L1_b1_brc2_bn_top
I1206 09:11:00.275478 23310 net.cpp:408] L1_b1_brc2_conv -> L1_b1_brc2_conv_top
I1206 09:11:00.275761 23310 net.cpp:150] Setting up L1_b1_brc2_conv
I1206 09:11:00.275776 23310 net.cpp:157] Top shape: 85 32 32 32 (2785280)
I1206 09:11:00.275782 23310 net.cpp:165] Memory required for data: 73462780
I1206 09:11:00.275791 23310 layer_factory.hpp:77] Creating layer L1_b1_brc3_bn
I1206 09:11:00.275804 23310 net.cpp:100] Creating Layer L1_b1_brc3_bn
I1206 09:11:00.275811 23310 net.cpp:434] L1_b1_brc3_bn <- L1_b1_brc2_conv_top
I1206 09:11:00.275820 23310 net.cpp:408] L1_b1_brc3_bn -> L1_b1_brc3_bn_top
I1206 09:11:00.276055 23310 net.cpp:150] Setting up L1_b1_brc3_bn
I1206 09:11:00.276068 23310 net.cpp:157] Top shape: 85 32 32 32 (2785280)
I1206 09:11:00.276074 23310 net.cpp:165] Memory required for data: 84603900
I1206 09:11:00.276084 23310 layer_factory.hpp:77] Creating layer L1_b1_brc3_relu
I1206 09:11:00.276093 23310 net.cpp:100] Creating Layer L1_b1_brc3_relu
I1206 09:11:00.276099 23310 net.cpp:434] L1_b1_brc3_relu <- L1_b1_brc3_bn_top
I1206 09:11:00.276106 23310 net.cpp:395] L1_b1_brc3_relu -> L1_b1_brc3_bn_top (in-place)
I1206 09:11:00.276116 23310 net.cpp:150] Setting up L1_b1_brc3_relu
I1206 09:11:00.276124 23310 net.cpp:157] Top shape: 85 32 32 32 (2785280)
I1206 09:11:00.276129 23310 net.cpp:165] Memory required for data: 95745020
I1206 09:11:00.276134 23310 layer_factory.hpp:77] Creating layer L1_b1_brc3_conv
I1206 09:11:00.276147 23310 net.cpp:100] Creating Layer L1_b1_brc3_conv
I1206 09:11:00.276154 23310 net.cpp:434] L1_b1_brc3_conv <- L1_b1_brc3_bn_top
I1206 09:11:00.276162 23310 net.cpp:408] L1_b1_brc3_conv -> L1_b1_brc3_conv_top
I1206 09:11:00.276465 23310 net.cpp:150] Setting up L1_b1_brc3_conv
I1206 09:11:00.276479 23310 net.cpp:157] Top shape: 85 64 32 32 (5570560)
I1206 09:11:00.276484 23310 net.cpp:165] Memory required for data: 118027260
I1206 09:11:00.276497 23310 layer_factory.hpp:77] Creating layer L1_b1_chanInc_conv
I1206 09:11:00.276515 23310 net.cpp:100] Creating Layer L1_b1_chanInc_conv
I1206 09:11:00.276520 23310 net.cpp:434] L1_b1_chanInc_conv <- pre_conv_top_pre_conv_0_split_1
I1206 09:11:00.276536 23310 net.cpp:408] L1_b1_chanInc_conv -> L1_b1_chanInc_conv_top
I1206 09:11:00.276834 23310 net.cpp:150] Setting up L1_b1_chanInc_conv
I1206 09:11:00.276849 23310 net.cpp:157] Top shape: 85 64 32 32 (5570560)
I1206 09:11:00.276854 23310 net.cpp:165] Memory required for data: 140309500
I1206 09:11:00.276863 23310 layer_factory.hpp:77] Creating layer L1_b1_sum_eltwise
I1206 09:11:00.276932 23310 net.cpp:100] Creating Layer L1_b1_sum_eltwise
I1206 09:11:00.276943 23310 net.cpp:434] L1_b1_sum_eltwise <- L1_b1_brc3_conv_top
I1206 09:11:00.276950 23310 net.cpp:434] L1_b1_sum_eltwise <- L1_b1_chanInc_conv_top
I1206 09:11:00.276962 23310 net.cpp:408] L1_b1_sum_eltwise -> L1_b1_sum_eltwise_top
I1206 09:11:00.277043 23310 net.cpp:150] Setting up L1_b1_sum_eltwise
I1206 09:11:00.277060 23310 net.cpp:157] Top shape: 85 64 32 32 (5570560)
I1206 09:11:00.277065 23310 net.cpp:165] Memory required for data: 162591740
I1206 09:11:00.277070 23310 layer_factory.hpp:77] Creating layer L1_b1_sum_eltwise_top_L1_b1_sum_eltwise_0_split
I1206 09:11:00.277083 23310 net.cpp:100] Creating Layer L1_b1_sum_eltwise_top_L1_b1_sum_eltwise_0_split
I1206 09:11:00.277089 23310 net.cpp:434] L1_b1_sum_eltwise_top_L1_b1_sum_eltwise_0_split <- L1_b1_sum_eltwise_top
I1206 09:11:00.277097 23310 net.cpp:408] L1_b1_sum_eltwise_top_L1_b1_sum_eltwise_0_split -> L1_b1_sum_eltwise_top_L1_b1_sum_eltwise_0_split_0
I1206 09:11:00.277107 23310 net.cpp:408] L1_b1_sum_eltwise_top_L1_b1_sum_eltwise_0_split -> L1_b1_sum_eltwise_top_L1_b1_sum_eltwise_0_split_1
I1206 09:11:00.277165 23310 net.cpp:150] Setting up L1_b1_sum_eltwise_top_L1_b1_sum_eltwise_0_split
I1206 09:11:00.277176 23310 net.cpp:157] Top shape: 85 64 32 32 (5570560)
I1206 09:11:00.277186 23310 net.cpp:157] Top shape: 85 64 32 32 (5570560)
I1206 09:11:00.277191 23310 net.cpp:165] Memory required for data: 207156220
I1206 09:11:00.277197 23310 layer_factory.hpp:77] Creating layer L1_b2_brc1_bn
I1206 09:11:00.277209 23310 net.cpp:100] Creating Layer L1_b2_brc1_bn
I1206 09:11:00.277215 23310 net.cpp:434] L1_b2_brc1_bn <- L1_b1_sum_eltwise_top_L1_b1_sum_eltwise_0_split_0
I1206 09:11:00.277226 23310 net.cpp:408] L1_b2_brc1_bn -> L1_b2_brc1_bn_top
I1206 09:11:00.277451 23310 net.cpp:150] Setting up L1_b2_brc1_bn
I1206 09:11:00.277464 23310 net.cpp:157] Top shape: 85 64 32 32 (5570560)
I1206 09:11:00.277469 23310 net.cpp:165] Memory required for data: 229438460
I1206 09:11:00.277480 23310 layer_factory.hpp:77] Creating layer L1_b2_brc1_relu
I1206 09:11:00.277493 23310 net.cpp:100] Creating Layer L1_b2_brc1_relu
I1206 09:11:00.277498 23310 net.cpp:434] L1_b2_brc1_relu <- L1_b2_brc1_bn_top
I1206 09:11:00.277505 23310 net.cpp:395] L1_b2_brc1_relu -> L1_b2_brc1_bn_top (in-place)
I1206 09:11:00.277515 23310 net.cpp:150] Setting up L1_b2_brc1_relu
I1206 09:11:00.277523 23310 net.cpp:157] Top shape: 85 64 32 32 (5570560)
I1206 09:11:00.277528 23310 net.cpp:165] Memory required for data: 251720700
I1206 09:11:00.277532 23310 layer_factory.hpp:77] Creating layer L1_b2_brc1_conv
I1206 09:11:00.277544 23310 net.cpp:100] Creating Layer L1_b2_brc1_conv
I1206 09:11:00.277550 23310 net.cpp:434] L1_b2_brc1_conv <- L1_b2_brc1_bn_top
I1206 09:11:00.277562 23310 net.cpp:408] L1_b2_brc1_conv -> L1_b2_brc1_conv_top
I1206 09:11:00.277878 23310 net.cpp:150] Setting up L1_b2_brc1_conv
I1206 09:11:00.277892 23310 net.cpp:157] Top shape: 85 32 32 32 (2785280)
I1206 09:11:00.277899 23310 net.cpp:165] Memory required for data: 262861820
I1206 09:11:00.277906 23310 layer_factory.hpp:77] Creating layer L1_b2_brc2_bn
I1206 09:11:00.277915 23310 net.cpp:100] Creating Layer L1_b2_brc2_bn
I1206 09:11:00.277921 23310 net.cpp:434] L1_b2_brc2_bn <- L1_b2_brc1_conv_top
I1206 09:11:00.277930 23310 net.cpp:408] L1_b2_brc2_bn -> L1_b2_brc2_bn_top
I1206 09:11:00.278167 23310 net.cpp:150] Setting up L1_b2_brc2_bn
I1206 09:11:00.278180 23310 net.cpp:157] Top shape: 85 32 32 32 (2785280)
I1206 09:11:00.278185 23310 net.cpp:165] Memory required for data: 274002940
I1206 09:11:00.278197 23310 layer_factory.hpp:77] Creating layer L1_b2_brc2_relu
I1206 09:11:00.278208 23310 net.cpp:100] Creating Layer L1_b2_brc2_relu
I1206 09:11:00.278214 23310 net.cpp:434] L1_b2_brc2_relu <- L1_b2_brc2_bn_top
I1206 09:11:00.278221 23310 net.cpp:395] L1_b2_brc2_relu -> L1_b2_brc2_bn_top (in-place)
I1206 09:11:00.278231 23310 net.cpp:150] Setting up L1_b2_brc2_relu
I1206 09:11:00.278239 23310 net.cpp:157] Top shape: 85 32 32 32 (2785280)
I1206 09:11:00.278244 23310 net.cpp:165] Memory required for data: 285144060
I1206 09:11:00.278249 23310 layer_factory.hpp:77] Creating layer L1_b2_brc2_conv
I1206 09:11:00.278264 23310 net.cpp:100] Creating Layer L1_b2_brc2_conv
I1206 09:11:00.278270 23310 net.cpp:434] L1_b2_brc2_conv <- L1_b2_brc2_bn_top
I1206 09:11:00.278278 23310 net.cpp:408] L1_b2_brc2_conv -> L1_b2_brc2_conv_top
I1206 09:11:00.278553 23310 net.cpp:150] Setting up L1_b2_brc2_conv
I1206 09:11:00.278570 23310 net.cpp:157] Top shape: 85 32 32 32 (2785280)
I1206 09:11:00.278575 23310 net.cpp:165] Memory required for data: 296285180
I1206 09:11:00.278584 23310 layer_factory.hpp:77] Creating layer L1_b2_brc3_bn
I1206 09:11:00.278594 23310 net.cpp:100] Creating Layer L1_b2_brc3_bn
I1206 09:11:00.278599 23310 net.cpp:434] L1_b2_brc3_bn <- L1_b2_brc2_conv_top
I1206 09:11:00.278607 23310 net.cpp:408] L1_b2_brc3_bn -> L1_b2_brc3_bn_top
I1206 09:11:00.278852 23310 net.cpp:150] Setting up L1_b2_brc3_bn
I1206 09:11:00.278867 23310 net.cpp:157] Top shape: 85 32 32 32 (2785280)
I1206 09:11:00.278872 23310 net.cpp:165] Memory required for data: 307426300
I1206 09:11:00.278882 23310 layer_factory.hpp:77] Creating layer L1_b2_brc3_relu
I1206 09:11:00.278903 23310 net.cpp:100] Creating Layer L1_b2_brc3_relu
I1206 09:11:00.278908 23310 net.cpp:434] L1_b2_brc3_relu <- L1_b2_brc3_bn_top
I1206 09:11:00.278915 23310 net.cpp:395] L1_b2_brc3_relu -> L1_b2_brc3_bn_top (in-place)
I1206 09:11:00.278925 23310 net.cpp:150] Setting up L1_b2_brc3_relu
I1206 09:11:00.278934 23310 net.cpp:157] Top shape: 85 32 32 32 (2785280)
I1206 09:11:00.278937 23310 net.cpp:165] Memory required for data: 318567420
I1206 09:11:00.278944 23310 layer_factory.hpp:77] Creating layer L1_b2_brc3_conv
I1206 09:11:00.278959 23310 net.cpp:100] Creating Layer L1_b2_brc3_conv
I1206 09:11:00.278964 23310 net.cpp:434] L1_b2_brc3_conv <- L1_b2_brc3_bn_top
I1206 09:11:00.278976 23310 net.cpp:408] L1_b2_brc3_conv -> L1_b2_brc3_conv_top
I1206 09:11:00.279283 23310 net.cpp:150] Setting up L1_b2_brc3_conv
I1206 09:11:00.279296 23310 net.cpp:157] Top shape: 85 64 32 32 (5570560)
I1206 09:11:00.279302 23310 net.cpp:165] Memory required for data: 340849660
I1206 09:11:00.279316 23310 layer_factory.hpp:77] Creating layer L1_b2_sum_eltwise
I1206 09:11:00.279332 23310 net.cpp:100] Creating Layer L1_b2_sum_eltwise
I1206 09:11:00.279340 23310 net.cpp:434] L1_b2_sum_eltwise <- L1_b2_brc3_conv_top
I1206 09:11:00.279346 23310 net.cpp:434] L1_b2_sum_eltwise <- L1_b1_sum_eltwise_top_L1_b1_sum_eltwise_0_split_1
I1206 09:11:00.279355 23310 net.cpp:408] L1_b2_sum_eltwise -> L1_b2_sum_eltwise_top
I1206 09:11:00.279389 23310 net.cpp:150] Setting up L1_b2_sum_eltwise
I1206 09:11:00.279399 23310 net.cpp:157] Top shape: 85 64 32 32 (5570560)
I1206 09:11:00.279404 23310 net.cpp:165] Memory required for data: 363131900
I1206 09:11:00.279409 23310 layer_factory.hpp:77] Creating layer L1_b2_sum_eltwise_top_L1_b2_sum_eltwise_0_split
I1206 09:11:00.279417 23310 net.cpp:100] Creating Layer L1_b2_sum_eltwise_top_L1_b2_sum_eltwise_0_split
I1206 09:11:00.279423 23310 net.cpp:434] L1_b2_sum_eltwise_top_L1_b2_sum_eltwise_0_split <- L1_b2_sum_eltwise_top
I1206 09:11:00.279438 23310 net.cpp:408] L1_b2_sum_eltwise_top_L1_b2_sum_eltwise_0_split -> L1_b2_sum_eltwise_top_L1_b2_sum_eltwise_0_split_0
I1206 09:11:00.279448 23310 net.cpp:408] L1_b2_sum_eltwise_top_L1_b2_sum_eltwise_0_split -> L1_b2_sum_eltwise_top_L1_b2_sum_eltwise_0_split_1
I1206 09:11:00.279491 23310 net.cpp:150] Setting up L1_b2_sum_eltwise_top_L1_b2_sum_eltwise_0_split
I1206 09:11:00.279505 23310 net.cpp:157] Top shape: 85 64 32 32 (5570560)
I1206 09:11:00.279511 23310 net.cpp:157] Top shape: 85 64 32 32 (5570560)
I1206 09:11:00.279515 23310 net.cpp:165] Memory required for data: 407696380
I1206 09:11:00.279521 23310 layer_factory.hpp:77] Creating layer L1_b3_brc1_bn
I1206 09:11:00.279533 23310 net.cpp:100] Creating Layer L1_b3_brc1_bn
I1206 09:11:00.279539 23310 net.cpp:434] L1_b3_brc1_bn <- L1_b2_sum_eltwise_top_L1_b2_sum_eltwise_0_split_0
I1206 09:11:00.279551 23310 net.cpp:408] L1_b3_brc1_bn -> L1_b3_brc1_bn_top
I1206 09:11:00.279781 23310 net.cpp:150] Setting up L1_b3_brc1_bn
I1206 09:11:00.279795 23310 net.cpp:157] Top shape: 85 64 32 32 (5570560)
I1206 09:11:00.279800 23310 net.cpp:165] Memory required for data: 429978620
I1206 09:11:00.279811 23310 layer_factory.hpp:77] Creating layer L1_b3_brc1_relu
I1206 09:11:00.279820 23310 net.cpp:100] Creating Layer L1_b3_brc1_relu
I1206 09:11:00.279826 23310 net.cpp:434] L1_b3_brc1_relu <- L1_b3_brc1_bn_top
I1206 09:11:00.279834 23310 net.cpp:395] L1_b3_brc1_relu -> L1_b3_brc1_bn_top (in-place)
I1206 09:11:00.279844 23310 net.cpp:150] Setting up L1_b3_brc1_relu
I1206 09:11:00.279851 23310 net.cpp:157] Top shape: 85 64 32 32 (5570560)
I1206 09:11:00.279855 23310 net.cpp:165] Memory required for data: 452260860
I1206 09:11:00.279860 23310 layer_factory.hpp:77] Creating layer L1_b3_brc1_conv
I1206 09:11:00.279876 23310 net.cpp:100] Creating Layer L1_b3_brc1_conv
I1206 09:11:00.279882 23310 net.cpp:434] L1_b3_brc1_conv <- L1_b3_brc1_bn_top
I1206 09:11:00.279894 23310 net.cpp:408] L1_b3_brc1_conv -> L1_b3_brc1_conv_top
I1206 09:11:00.280202 23310 net.cpp:150] Setting up L1_b3_brc1_conv
I1206 09:11:00.280223 23310 net.cpp:157] Top shape: 85 32 32 32 (2785280)
I1206 09:11:00.280230 23310 net.cpp:165] Memory required for data: 463401980
I1206 09:11:00.280239 23310 layer_factory.hpp:77] Creating layer L1_b3_brc2_bn
I1206 09:11:00.280251 23310 net.cpp:100] Creating Layer L1_b3_brc2_bn
I1206 09:11:00.280258 23310 net.cpp:434] L1_b3_brc2_bn <- L1_b3_brc1_conv_top
I1206 09:11:00.280267 23310 net.cpp:408] L1_b3_brc2_bn -> L1_b3_brc2_bn_top
I1206 09:11:00.280503 23310 net.cpp:150] Setting up L1_b3_brc2_bn
I1206 09:11:00.280516 23310 net.cpp:157] Top shape: 85 32 32 32 (2785280)
I1206 09:11:00.280521 23310 net.cpp:165] Memory required for data: 474543100
I1206 09:11:00.280531 23310 layer_factory.hpp:77] Creating layer L1_b3_brc2_relu
I1206 09:11:00.280540 23310 net.cpp:100] Creating Layer L1_b3_brc2_relu
I1206 09:11:00.280545 23310 net.cpp:434] L1_b3_brc2_relu <- L1_b3_brc2_bn_top
I1206 09:11:00.280552 23310 net.cpp:395] L1_b3_brc2_relu -> L1_b3_brc2_bn_top (in-place)
I1206 09:11:00.280562 23310 net.cpp:150] Setting up L1_b3_brc2_relu
I1206 09:11:00.280570 23310 net.cpp:157] Top shape: 85 32 32 32 (2785280)
I1206 09:11:00.280573 23310 net.cpp:165] Memory required for data: 485684220
I1206 09:11:00.280578 23310 layer_factory.hpp:77] Creating layer L1_b3_brc2_conv
I1206 09:11:00.280596 23310 net.cpp:100] Creating Layer L1_b3_brc2_conv
I1206 09:11:00.280602 23310 net.cpp:434] L1_b3_brc2_conv <- L1_b3_brc2_bn_top
I1206 09:11:00.280614 23310 net.cpp:408] L1_b3_brc2_conv -> L1_b3_brc2_conv_top
I1206 09:11:00.280911 23310 net.cpp:150] Setting up L1_b3_brc2_conv
I1206 09:11:00.280926 23310 net.cpp:157] Top shape: 85 32 32 32 (2785280)
I1206 09:11:00.280932 23310 net.cpp:165] Memory required for data: 496825340
I1206 09:11:00.280941 23310 layer_factory.hpp:77] Creating layer L1_b3_brc3_bn
I1206 09:11:00.280951 23310 net.cpp:100] Creating Layer L1_b3_brc3_bn
I1206 09:11:00.280961 23310 net.cpp:434] L1_b3_brc3_bn <- L1_b3_brc2_conv_top
I1206 09:11:00.280968 23310 net.cpp:408] L1_b3_brc3_bn -> L1_b3_brc3_bn_top
I1206 09:11:00.281203 23310 net.cpp:150] Setting up L1_b3_brc3_bn
I1206 09:11:00.281216 23310 net.cpp:157] Top shape: 85 32 32 32 (2785280)
I1206 09:11:00.281221 23310 net.cpp:165] Memory required for data: 507966460
I1206 09:11:00.281231 23310 layer_factory.hpp:77] Creating layer L1_b3_brc3_relu
I1206 09:11:00.281240 23310 net.cpp:100] Creating Layer L1_b3_brc3_relu
I1206 09:11:00.281246 23310 net.cpp:434] L1_b3_brc3_relu <- L1_b3_brc3_bn_top
I1206 09:11:00.281253 23310 net.cpp:395] L1_b3_brc3_relu -> L1_b3_brc3_bn_top (in-place)
I1206 09:11:00.281262 23310 net.cpp:150] Setting up L1_b3_brc3_relu
I1206 09:11:00.281270 23310 net.cpp:157] Top shape: 85 32 32 32 (2785280)
I1206 09:11:00.281275 23310 net.cpp:165] Memory required for data: 519107580
I1206 09:11:00.281280 23310 layer_factory.hpp:77] Creating layer L1_b3_brc3_conv
I1206 09:11:00.281296 23310 net.cpp:100] Creating Layer L1_b3_brc3_conv
I1206 09:11:00.281301 23310 net.cpp:434] L1_b3_brc3_conv <- L1_b3_brc3_bn_top
I1206 09:11:00.281313 23310 net.cpp:408] L1_b3_brc3_conv -> L1_b3_brc3_conv_top
I1206 09:11:00.281625 23310 net.cpp:150] Setting up L1_b3_brc3_conv
I1206 09:11:00.281639 23310 net.cpp:157] Top shape: 85 64 32 32 (5570560)
I1206 09:11:00.281644 23310 net.cpp:165] Memory required for data: 541389820
I1206 09:11:00.281653 23310 layer_factory.hpp:77] Creating layer L1_b3_sum_eltwise
I1206 09:11:00.281666 23310 net.cpp:100] Creating Layer L1_b3_sum_eltwise
I1206 09:11:00.281673 23310 net.cpp:434] L1_b3_sum_eltwise <- L1_b3_brc3_conv_top
I1206 09:11:00.281680 23310 net.cpp:434] L1_b3_sum_eltwise <- L1_b2_sum_eltwise_top_L1_b2_sum_eltwise_0_split_1
I1206 09:11:00.281692 23310 net.cpp:408] L1_b3_sum_eltwise -> L1_b3_sum_eltwise_top
I1206 09:11:00.281733 23310 net.cpp:150] Setting up L1_b3_sum_eltwise
I1206 09:11:00.281751 23310 net.cpp:157] Top shape: 85 64 32 32 (5570560)
I1206 09:11:00.281757 23310 net.cpp:165] Memory required for data: 563672060
I1206 09:11:00.281762 23310 layer_factory.hpp:77] Creating layer L1_b3_sum_eltwise_top_L1_b3_sum_eltwise_0_split
I1206 09:11:00.281778 23310 net.cpp:100] Creating Layer L1_b3_sum_eltwise_top_L1_b3_sum_eltwise_0_split
I1206 09:11:00.281785 23310 net.cpp:434] L1_b3_sum_eltwise_top_L1_b3_sum_eltwise_0_split <- L1_b3_sum_eltwise_top
I1206 09:11:00.281795 23310 net.cpp:408] L1_b3_sum_eltwise_top_L1_b3_sum_eltwise_0_split -> L1_b3_sum_eltwise_top_L1_b3_sum_eltwise_0_split_0
I1206 09:11:00.281805 23310 net.cpp:408] L1_b3_sum_eltwise_top_L1_b3_sum_eltwise_0_split -> L1_b3_sum_eltwise_top_L1_b3_sum_eltwise_0_split_1
I1206 09:11:00.281852 23310 net.cpp:150] Setting up L1_b3_sum_eltwise_top_L1_b3_sum_eltwise_0_split
I1206 09:11:00.281865 23310 net.cpp:157] Top shape: 85 64 32 32 (5570560)
I1206 09:11:00.281872 23310 net.cpp:157] Top shape: 85 64 32 32 (5570560)
I1206 09:11:00.281877 23310 net.cpp:165] Memory required for data: 608236540
I1206 09:11:00.281883 23310 layer_factory.hpp:77] Creating layer L1_b4_brc1_bn
I1206 09:11:00.281890 23310 net.cpp:100] Creating Layer L1_b4_brc1_bn
I1206 09:11:00.281896 23310 net.cpp:434] L1_b4_brc1_bn <- L1_b3_sum_eltwise_top_L1_b3_sum_eltwise_0_split_0
I1206 09:11:00.281908 23310 net.cpp:408] L1_b4_brc1_bn -> L1_b4_brc1_bn_top
I1206 09:11:00.282136 23310 net.cpp:150] Setting up L1_b4_brc1_bn
I1206 09:11:00.282150 23310 net.cpp:157] Top shape: 85 64 32 32 (5570560)
I1206 09:11:00.282155 23310 net.cpp:165] Memory required for data: 630518780
I1206 09:11:00.282165 23310 layer_factory.hpp:77] Creating layer L1_b4_brc1_relu
I1206 09:11:00.282177 23310 net.cpp:100] Creating Layer L1_b4_brc1_relu
I1206 09:11:00.282183 23310 net.cpp:434] L1_b4_brc1_relu <- L1_b4_brc1_bn_top
I1206 09:11:00.282191 23310 net.cpp:395] L1_b4_brc1_relu -> L1_b4_brc1_bn_top (in-place)
I1206 09:11:00.282199 23310 net.cpp:150] Setting up L1_b4_brc1_relu
I1206 09:11:00.282207 23310 net.cpp:157] Top shape: 85 64 32 32 (5570560)
I1206 09:11:00.282212 23310 net.cpp:165] Memory required for data: 652801020
I1206 09:11:00.282217 23310 layer_factory.hpp:77] Creating layer L1_b4_brc1_conv
I1206 09:11:00.282228 23310 net.cpp:100] Creating Layer L1_b4_brc1_conv
I1206 09:11:00.282233 23310 net.cpp:434] L1_b4_brc1_conv <- L1_b4_brc1_bn_top
I1206 09:11:00.282249 23310 net.cpp:408] L1_b4_brc1_conv -> L1_b4_brc1_conv_top
I1206 09:11:00.282568 23310 net.cpp:150] Setting up L1_b4_brc1_conv
I1206 09:11:00.282582 23310 net.cpp:157] Top shape: 85 32 32 32 (2785280)
I1206 09:11:00.282588 23310 net.cpp:165] Memory required for data: 663942140
I1206 09:11:00.282596 23310 layer_factory.hpp:77] Creating layer L1_b4_brc2_bn
I1206 09:11:00.282605 23310 net.cpp:100] Creating Layer L1_b4_brc2_bn
I1206 09:11:00.282611 23310 net.cpp:434] L1_b4_brc2_bn <- L1_b4_brc1_conv_top
I1206 09:11:00.282619 23310 net.cpp:408] L1_b4_brc2_bn -> L1_b4_brc2_bn_top
I1206 09:11:00.282867 23310 net.cpp:150] Setting up L1_b4_brc2_bn
I1206 09:11:00.282881 23310 net.cpp:157] Top shape: 85 32 32 32 (2785280)
I1206 09:11:00.282887 23310 net.cpp:165] Memory required for data: 675083260
I1206 09:11:00.282897 23310 layer_factory.hpp:77] Creating layer L1_b4_brc2_relu
I1206 09:11:00.282910 23310 net.cpp:100] Creating Layer L1_b4_brc2_relu
I1206 09:11:00.282917 23310 net.cpp:434] L1_b4_brc2_relu <- L1_b4_brc2_bn_top
I1206 09:11:00.282923 23310 net.cpp:395] L1_b4_brc2_relu -> L1_b4_brc2_bn_top (in-place)
I1206 09:11:00.282932 23310 net.cpp:150] Setting up L1_b4_brc2_relu
I1206 09:11:00.282939 23310 net.cpp:157] Top shape: 85 32 32 32 (2785280)
I1206 09:11:00.282944 23310 net.cpp:165] Memory required for data: 686224380
I1206 09:11:00.282949 23310 layer_factory.hpp:77] Creating layer L1_b4_brc2_conv
I1206 09:11:00.282963 23310 net.cpp:100] Creating Layer L1_b4_brc2_conv
I1206 09:11:00.282969 23310 net.cpp:434] L1_b4_brc2_conv <- L1_b4_brc2_bn_top
I1206 09:11:00.282980 23310 net.cpp:408] L1_b4_brc2_conv -> L1_b4_brc2_conv_top
I1206 09:11:00.283257 23310 net.cpp:150] Setting up L1_b4_brc2_conv
I1206 09:11:00.283270 23310 net.cpp:157] Top shape: 85 32 32 32 (2785280)
I1206 09:11:00.283277 23310 net.cpp:165] Memory required for data: 697365500
I1206 09:11:00.283285 23310 layer_factory.hpp:77] Creating layer L1_b4_brc3_bn
I1206 09:11:00.283301 23310 net.cpp:100] Creating Layer L1_b4_brc3_bn
I1206 09:11:00.283308 23310 net.cpp:434] L1_b4_brc3_bn <- L1_b4_brc2_conv_top
I1206 09:11:00.283316 23310 net.cpp:408] L1_b4_brc3_bn -> L1_b4_brc3_bn_top
I1206 09:11:00.283556 23310 net.cpp:150] Setting up L1_b4_brc3_bn
I1206 09:11:00.283571 23310 net.cpp:157] Top shape: 85 32 32 32 (2785280)
I1206 09:11:00.283576 23310 net.cpp:165] Memory required for data: 708506620
I1206 09:11:00.283586 23310 layer_factory.hpp:77] Creating layer L1_b4_brc3_relu
I1206 09:11:00.283601 23310 net.cpp:100] Creating Layer L1_b4_brc3_relu
I1206 09:11:00.283607 23310 net.cpp:434] L1_b4_brc3_relu <- L1_b4_brc3_bn_top
I1206 09:11:00.283613 23310 net.cpp:395] L1_b4_brc3_relu -> L1_b4_brc3_bn_top (in-place)
I1206 09:11:00.283623 23310 net.cpp:150] Setting up L1_b4_brc3_relu
I1206 09:11:00.283630 23310 net.cpp:157] Top shape: 85 32 32 32 (2785280)
I1206 09:11:00.283635 23310 net.cpp:165] Memory required for data: 719647740
I1206 09:11:00.283639 23310 layer_factory.hpp:77] Creating layer L1_b4_brc3_conv
I1206 09:11:00.283654 23310 net.cpp:100] Creating Layer L1_b4_brc3_conv
I1206 09:11:00.283660 23310 net.cpp:434] L1_b4_brc3_conv <- L1_b4_brc3_bn_top
I1206 09:11:00.283673 23310 net.cpp:408] L1_b4_brc3_conv -> L1_b4_brc3_conv_top
I1206 09:11:00.283993 23310 net.cpp:150] Setting up L1_b4_brc3_conv
I1206 09:11:00.284008 23310 net.cpp:157] Top shape: 85 64 32 32 (5570560)
I1206 09:11:00.284013 23310 net.cpp:165] Memory required for data: 741929980
I1206 09:11:00.284023 23310 layer_factory.hpp:77] Creating layer L1_b4_sum_eltwise
I1206 09:11:00.284032 23310 net.cpp:100] Creating Layer L1_b4_sum_eltwise
I1206 09:11:00.284039 23310 net.cpp:434] L1_b4_sum_eltwise <- L1_b4_brc3_conv_top
I1206 09:11:00.284045 23310 net.cpp:434] L1_b4_sum_eltwise <- L1_b3_sum_eltwise_top_L1_b3_sum_eltwise_0_split_1
I1206 09:11:00.284054 23310 net.cpp:408] L1_b4_sum_eltwise -> L1_b4_sum_eltwise_top
I1206 09:11:00.284090 23310 net.cpp:150] Setting up L1_b4_sum_eltwise
I1206 09:11:00.284102 23310 net.cpp:157] Top shape: 85 64 32 32 (5570560)
I1206 09:11:00.284107 23310 net.cpp:165] Memory required for data: 764212220
I1206 09:11:00.284113 23310 layer_factory.hpp:77] Creating layer L1_b4_sum_eltwise_top_L1_b4_sum_eltwise_0_split
I1206 09:11:00.284121 23310 net.cpp:100] Creating Layer L1_b4_sum_eltwise_top_L1_b4_sum_eltwise_0_split
I1206 09:11:00.284126 23310 net.cpp:434] L1_b4_sum_eltwise_top_L1_b4_sum_eltwise_0_split <- L1_b4_sum_eltwise_top
I1206 09:11:00.284137 23310 net.cpp:408] L1_b4_sum_eltwise_top_L1_b4_sum_eltwise_0_split -> L1_b4_sum_eltwise_top_L1_b4_sum_eltwise_0_split_0
I1206 09:11:00.284147 23310 net.cpp:408] L1_b4_sum_eltwise_top_L1_b4_sum_eltwise_0_split -> L1_b4_sum_eltwise_top_L1_b4_sum_eltwise_0_split_1
I1206 09:11:00.284191 23310 net.cpp:150] Setting up L1_b4_sum_eltwise_top_L1_b4_sum_eltwise_0_split
I1206 09:11:00.284206 23310 net.cpp:157] Top shape: 85 64 32 32 (5570560)
I1206 09:11:00.284214 23310 net.cpp:157] Top shape: 85 64 32 32 (5570560)
I1206 09:11:00.284219 23310 net.cpp:165] Memory required for data: 808776700
I1206 09:11:00.284224 23310 layer_factory.hpp:77] Creating layer L1_b5_brc1_bn
I1206 09:11:00.284232 23310 net.cpp:100] Creating Layer L1_b5_brc1_bn
I1206 09:11:00.284238 23310 net.cpp:434] L1_b5_brc1_bn <- L1_b4_sum_eltwise_top_L1_b4_sum_eltwise_0_split_0
I1206 09:11:00.284250 23310 net.cpp:408] L1_b5_brc1_bn -> L1_b5_brc1_bn_top
I1206 09:11:00.284478 23310 net.cpp:150] Setting up L1_b5_brc1_bn
I1206 09:11:00.284492 23310 net.cpp:157] Top shape: 85 64 32 32 (5570560)
I1206 09:11:00.284497 23310 net.cpp:165] Memory required for data: 831058940
I1206 09:11:00.284518 23310 layer_factory.hpp:77] Creating layer L1_b5_brc1_relu
I1206 09:11:00.284533 23310 net.cpp:100] Creating Layer L1_b5_brc1_relu
I1206 09:11:00.284538 23310 net.cpp:434] L1_b5_brc1_relu <- L1_b5_brc1_bn_top
I1206 09:11:00.284545 23310 net.cpp:395] L1_b5_brc1_relu -> L1_b5_brc1_bn_top (in-place)
I1206 09:11:00.284555 23310 net.cpp:150] Setting up L1_b5_brc1_relu
I1206 09:11:00.284564 23310 net.cpp:157] Top shape: 85 64 32 32 (5570560)
I1206 09:11:00.284575 23310 net.cpp:165] Memory required for data: 853341180
I1206 09:11:00.284581 23310 layer_factory.hpp:77] Creating layer L1_b5_brc1_conv
I1206 09:11:00.284596 23310 net.cpp:100] Creating Layer L1_b5_brc1_conv
I1206 09:11:00.284602 23310 net.cpp:434] L1_b5_brc1_conv <- L1_b5_brc1_bn_top
I1206 09:11:00.284615 23310 net.cpp:408] L1_b5_brc1_conv -> L1_b5_brc1_conv_top
I1206 09:11:00.284946 23310 net.cpp:150] Setting up L1_b5_brc1_conv
I1206 09:11:00.284962 23310 net.cpp:157] Top shape: 85 32 32 32 (2785280)
I1206 09:11:00.284968 23310 net.cpp:165] Memory required for data: 864482300
I1206 09:11:00.284977 23310 layer_factory.hpp:77] Creating layer L1_b5_brc2_bn
I1206 09:11:00.284986 23310 net.cpp:100] Creating Layer L1_b5_brc2_bn
I1206 09:11:00.284992 23310 net.cpp:434] L1_b5_brc2_bn <- L1_b5_brc1_conv_top
I1206 09:11:00.285001 23310 net.cpp:408] L1_b5_brc2_bn -> L1_b5_brc2_bn_top
I1206 09:11:00.285245 23310 net.cpp:150] Setting up L1_b5_brc2_bn
I1206 09:11:00.285259 23310 net.cpp:157] Top shape: 85 32 32 32 (2785280)
I1206 09:11:00.285264 23310 net.cpp:165] Memory required for data: 875623420
I1206 09:11:00.285275 23310 layer_factory.hpp:77] Creating layer L1_b5_brc2_relu
I1206 09:11:00.285284 23310 net.cpp:100] Creating Layer L1_b5_brc2_relu
I1206 09:11:00.285290 23310 net.cpp:434] L1_b5_brc2_relu <- L1_b5_brc2_bn_top
I1206 09:11:00.285300 23310 net.cpp:395] L1_b5_brc2_relu -> L1_b5_brc2_bn_top (in-place)
I1206 09:11:00.285310 23310 net.cpp:150] Setting up L1_b5_brc2_relu
I1206 09:11:00.285318 23310 net.cpp:157] Top shape: 85 32 32 32 (2785280)
I1206 09:11:00.285322 23310 net.cpp:165] Memory required for data: 886764540
I1206 09:11:00.285327 23310 layer_factory.hpp:77] Creating layer L1_b5_brc2_conv
I1206 09:11:00.285343 23310 net.cpp:100] Creating Layer L1_b5_brc2_conv
I1206 09:11:00.285349 23310 net.cpp:434] L1_b5_brc2_conv <- L1_b5_brc2_bn_top
I1206 09:11:00.285357 23310 net.cpp:408] L1_b5_brc2_conv -> L1_b5_brc2_conv_top
I1206 09:11:00.285636 23310 net.cpp:150] Setting up L1_b5_brc2_conv
I1206 09:11:00.285651 23310 net.cpp:157] Top shape: 85 32 32 32 (2785280)
I1206 09:11:00.285656 23310 net.cpp:165] Memory required for data: 897905660
I1206 09:11:00.285665 23310 layer_factory.hpp:77] Creating layer L1_b5_brc3_bn
I1206 09:11:00.285678 23310 net.cpp:100] Creating Layer L1_b5_brc3_bn
I1206 09:11:00.285684 23310 net.cpp:434] L1_b5_brc3_bn <- L1_b5_brc2_conv_top
I1206 09:11:00.285692 23310 net.cpp:408] L1_b5_brc3_bn -> L1_b5_brc3_bn_top
I1206 09:11:00.285944 23310 net.cpp:150] Setting up L1_b5_brc3_bn
I1206 09:11:00.285959 23310 net.cpp:157] Top shape: 85 32 32 32 (2785280)
I1206 09:11:00.285964 23310 net.cpp:165] Memory required for data: 909046780
I1206 09:11:00.285974 23310 layer_factory.hpp:77] Creating layer L1_b5_brc3_relu
I1206 09:11:00.285987 23310 net.cpp:100] Creating Layer L1_b5_brc3_relu
I1206 09:11:00.285995 23310 net.cpp:434] L1_b5_brc3_relu <- L1_b5_brc3_bn_top
I1206 09:11:00.286001 23310 net.cpp:395] L1_b5_brc3_relu -> L1_b5_brc3_bn_top (in-place)
I1206 09:11:00.286011 23310 net.cpp:150] Setting up L1_b5_brc3_relu
I1206 09:11:00.286018 23310 net.cpp:157] Top shape: 85 32 32 32 (2785280)
I1206 09:11:00.286023 23310 net.cpp:165] Memory required for data: 920187900
I1206 09:11:00.286028 23310 layer_factory.hpp:77] Creating layer L1_b5_brc3_conv
I1206 09:11:00.286042 23310 net.cpp:100] Creating Layer L1_b5_brc3_conv
I1206 09:11:00.286048 23310 net.cpp:434] L1_b5_brc3_conv <- L1_b5_brc3_bn_top
I1206 09:11:00.286061 23310 net.cpp:408] L1_b5_brc3_conv -> L1_b5_brc3_conv_top
I1206 09:11:00.286375 23310 net.cpp:150] Setting up L1_b5_brc3_conv
I1206 09:11:00.286389 23310 net.cpp:157] Top shape: 85 64 32 32 (5570560)
I1206 09:11:00.286394 23310 net.cpp:165] Memory required for data: 942470140
I1206 09:11:00.286403 23310 layer_factory.hpp:77] Creating layer L1_b5_sum_eltwise
I1206 09:11:00.286413 23310 net.cpp:100] Creating Layer L1_b5_sum_eltwise
I1206 09:11:00.286419 23310 net.cpp:434] L1_b5_sum_eltwise <- L1_b5_brc3_conv_top
I1206 09:11:00.286427 23310 net.cpp:434] L1_b5_sum_eltwise <- L1_b4_sum_eltwise_top_L1_b4_sum_eltwise_0_split_1
I1206 09:11:00.286442 23310 net.cpp:408] L1_b5_sum_eltwise -> L1_b5_sum_eltwise_top
I1206 09:11:00.286483 23310 net.cpp:150] Setting up L1_b5_sum_eltwise
I1206 09:11:00.286492 23310 net.cpp:157] Top shape: 85 64 32 32 (5570560)
I1206 09:11:00.286497 23310 net.cpp:165] Memory required for data: 964752380
I1206 09:11:00.286502 23310 layer_factory.hpp:77] Creating layer L1_b5_sum_eltwise_top_L1_b5_sum_eltwise_0_split
I1206 09:11:00.286510 23310 net.cpp:100] Creating Layer L1_b5_sum_eltwise_top_L1_b5_sum_eltwise_0_split
I1206 09:11:00.286516 23310 net.cpp:434] L1_b5_sum_eltwise_top_L1_b5_sum_eltwise_0_split <- L1_b5_sum_eltwise_top
I1206 09:11:00.286527 23310 net.cpp:408] L1_b5_sum_eltwise_top_L1_b5_sum_eltwise_0_split -> L1_b5_sum_eltwise_top_L1_b5_sum_eltwise_0_split_0
I1206 09:11:00.286537 23310 net.cpp:408] L1_b5_sum_eltwise_top_L1_b5_sum_eltwise_0_split -> L1_b5_sum_eltwise_top_L1_b5_sum_eltwise_0_split_1
I1206 09:11:00.286583 23310 net.cpp:150] Setting up L1_b5_sum_eltwise_top_L1_b5_sum_eltwise_0_split
I1206 09:11:00.286599 23310 net.cpp:157] Top shape: 85 64 32 32 (5570560)
I1206 09:11:00.286607 23310 net.cpp:157] Top shape: 85 64 32 32 (5570560)
I1206 09:11:00.286610 23310 net.cpp:165] Memory required for data: 1009316860
I1206 09:11:00.286617 23310 layer_factory.hpp:77] Creating layer L1_b6_brc1_bn
I1206 09:11:00.286625 23310 net.cpp:100] Creating Layer L1_b6_brc1_bn
I1206 09:11:00.286631 23310 net.cpp:434] L1_b6_brc1_bn <- L1_b5_sum_eltwise_top_L1_b5_sum_eltwise_0_split_0
I1206 09:11:00.286643 23310 net.cpp:408] L1_b6_brc1_bn -> L1_b6_brc1_bn_top
I1206 09:11:00.286881 23310 net.cpp:150] Setting up L1_b6_brc1_bn
I1206 09:11:00.286896 23310 net.cpp:157] Top shape: 85 64 32 32 (5570560)
I1206 09:11:00.286901 23310 net.cpp:165] Memory required for data: 1031599100
I1206 09:11:00.286911 23310 layer_factory.hpp:77] Creating layer L1_b6_brc1_relu
I1206 09:11:00.286923 23310 net.cpp:100] Creating Layer L1_b6_brc1_relu
I1206 09:11:00.286931 23310 net.cpp:434] L1_b6_brc1_relu <- L1_b6_brc1_bn_top
I1206 09:11:00.286937 23310 net.cpp:395] L1_b6_brc1_relu -> L1_b6_brc1_bn_top (in-place)
I1206 09:11:00.286947 23310 net.cpp:150] Setting up L1_b6_brc1_relu
I1206 09:11:00.286954 23310 net.cpp:157] Top shape: 85 64 32 32 (5570560)
I1206 09:11:00.286959 23310 net.cpp:165] Memory required for data: 1053881340
I1206 09:11:00.286964 23310 layer_factory.hpp:77] Creating layer L1_b6_brc1_conv
I1206 09:11:00.286975 23310 net.cpp:100] Creating Layer L1_b6_brc1_conv
I1206 09:11:00.286980 23310 net.cpp:434] L1_b6_brc1_conv <- L1_b6_brc1_bn_top
I1206 09:11:00.286993 23310 net.cpp:408] L1_b6_brc1_conv -> L1_b6_brc1_conv_top
I1206 09:11:00.287308 23310 net.cpp:150] Setting up L1_b6_brc1_conv
I1206 09:11:00.287323 23310 net.cpp:157] Top shape: 85 32 32 32 (2785280)
I1206 09:11:00.287328 23310 net.cpp:165] Memory required for data: 1065022460
I1206 09:11:00.287336 23310 layer_factory.hpp:77] Creating layer L1_b6_brc2_bn
I1206 09:11:00.287345 23310 net.cpp:100] Creating Layer L1_b6_brc2_bn
I1206 09:11:00.287351 23310 net.cpp:434] L1_b6_brc2_bn <- L1_b6_brc1_conv_top
I1206 09:11:00.287359 23310 net.cpp:408] L1_b6_brc2_bn -> L1_b6_brc2_bn_top
I1206 09:11:00.287600 23310 net.cpp:150] Setting up L1_b6_brc2_bn
I1206 09:11:00.287612 23310 net.cpp:157] Top shape: 85 32 32 32 (2785280)
I1206 09:11:00.287618 23310 net.cpp:165] Memory required for data: 1076163580
I1206 09:11:00.287628 23310 layer_factory.hpp:77] Creating layer L1_b6_brc2_relu
I1206 09:11:00.287648 23310 net.cpp:100] Creating Layer L1_b6_brc2_relu
I1206 09:11:00.287654 23310 net.cpp:434] L1_b6_brc2_relu <- L1_b6_brc2_bn_top
I1206 09:11:00.287662 23310 net.cpp:395] L1_b6_brc2_relu -> L1_b6_brc2_bn_top (in-place)
I1206 09:11:00.287672 23310 net.cpp:150] Setting up L1_b6_brc2_relu
I1206 09:11:00.287679 23310 net.cpp:157] Top shape: 85 32 32 32 (2785280)
I1206 09:11:00.287684 23310 net.cpp:165] Memory required for data: 1087304700
I1206 09:11:00.287689 23310 layer_factory.hpp:77] Creating layer L1_b6_brc2_conv
I1206 09:11:00.287719 23310 net.cpp:100] Creating Layer L1_b6_brc2_conv
I1206 09:11:00.287726 23310 net.cpp:434] L1_b6_brc2_conv <- L1_b6_brc2_bn_top
I1206 09:11:00.287735 23310 net.cpp:408] L1_b6_brc2_conv -> L1_b6_brc2_conv_top
I1206 09:11:00.288023 23310 net.cpp:150] Setting up L1_b6_brc2_conv
I1206 09:11:00.288038 23310 net.cpp:157] Top shape: 85 32 32 32 (2785280)
I1206 09:11:00.288044 23310 net.cpp:165] Memory required for data: 1098445820
I1206 09:11:00.288053 23310 layer_factory.hpp:77] Creating layer L1_b6_brc3_bn
I1206 09:11:00.288065 23310 net.cpp:100] Creating Layer L1_b6_brc3_bn
I1206 09:11:00.288071 23310 net.cpp:434] L1_b6_brc3_bn <- L1_b6_brc2_conv_top
I1206 09:11:00.288080 23310 net.cpp:408] L1_b6_brc3_bn -> L1_b6_brc3_bn_top
I1206 09:11:00.288417 23310 net.cpp:150] Setting up L1_b6_brc3_bn
I1206 09:11:00.288432 23310 net.cpp:157] Top shape: 85 32 32 32 (2785280)
I1206 09:11:00.288437 23310 net.cpp:165] Memory required for data: 1109586940
I1206 09:11:00.288450 23310 layer_factory.hpp:77] Creating layer L1_b6_brc3_relu
I1206 09:11:00.288458 23310 net.cpp:100] Creating Layer L1_b6_brc3_relu
I1206 09:11:00.288465 23310 net.cpp:434] L1_b6_brc3_relu <- L1_b6_brc3_bn_top
I1206 09:11:00.288471 23310 net.cpp:395] L1_b6_brc3_relu -> L1_b6_brc3_bn_top (in-place)
I1206 09:11:00.288481 23310 net.cpp:150] Setting up L1_b6_brc3_relu
I1206 09:11:00.288488 23310 net.cpp:157] Top shape: 85 32 32 32 (2785280)
I1206 09:11:00.288493 23310 net.cpp:165] Memory required for data: 1120728060
I1206 09:11:00.288498 23310 layer_factory.hpp:77] Creating layer L1_b6_brc3_conv
I1206 09:11:00.288625 23310 net.cpp:100] Creating Layer L1_b6_brc3_conv
I1206 09:11:00.288632 23310 net.cpp:434] L1_b6_brc3_conv <- L1_b6_brc3_bn_top
I1206 09:11:00.288646 23310 net.cpp:408] L1_b6_brc3_conv -> L1_b6_brc3_conv_top
I1206 09:11:00.288971 23310 net.cpp:150] Setting up L1_b6_brc3_conv
I1206 09:11:00.288986 23310 net.cpp:157] Top shape: 85 64 32 32 (5570560)
I1206 09:11:00.288991 23310 net.cpp:165] Memory required for data: 1143010300
I1206 09:11:00.289000 23310 layer_factory.hpp:77] Creating layer L1_b6_sum_eltwise
I1206 09:11:00.289011 23310 net.cpp:100] Creating Layer L1_b6_sum_eltwise
I1206 09:11:00.289016 23310 net.cpp:434] L1_b6_sum_eltwise <- L1_b6_brc3_conv_top
I1206 09:11:00.289024 23310 net.cpp:434] L1_b6_sum_eltwise <- L1_b5_sum_eltwise_top_L1_b5_sum_eltwise_0_split_1
I1206 09:11:00.289037 23310 net.cpp:408] L1_b6_sum_eltwise -> L1_b6_sum_eltwise_top
I1206 09:11:00.289073 23310 net.cpp:150] Setting up L1_b6_sum_eltwise
I1206 09:11:00.289086 23310 net.cpp:157] Top shape: 85 64 32 32 (5570560)
I1206 09:11:00.289091 23310 net.cpp:165] Memory required for data: 1165292540
I1206 09:11:00.289096 23310 layer_factory.hpp:77] Creating layer L1_b6_sum_eltwise_top_L1_b6_sum_eltwise_0_split
I1206 09:11:00.289104 23310 net.cpp:100] Creating Layer L1_b6_sum_eltwise_top_L1_b6_sum_eltwise_0_split
I1206 09:11:00.289110 23310 net.cpp:434] L1_b6_sum_eltwise_top_L1_b6_sum_eltwise_0_split <- L1_b6_sum_eltwise_top
I1206 09:11:00.289120 23310 net.cpp:408] L1_b6_sum_eltwise_top_L1_b6_sum_eltwise_0_split -> L1_b6_sum_eltwise_top_L1_b6_sum_eltwise_0_split_0
I1206 09:11:00.289131 23310 net.cpp:408] L1_b6_sum_eltwise_top_L1_b6_sum_eltwise_0_split -> L1_b6_sum_eltwise_top_L1_b6_sum_eltwise_0_split_1
I1206 09:11:00.289176 23310 net.cpp:150] Setting up L1_b6_sum_eltwise_top_L1_b6_sum_eltwise_0_split
I1206 09:11:00.289188 23310 net.cpp:157] Top shape: 85 64 32 32 (5570560)
I1206 09:11:00.289196 23310 net.cpp:157] Top shape: 85 64 32 32 (5570560)
I1206 09:11:00.289201 23310 net.cpp:165] Memory required for data: 1209857020
I1206 09:11:00.289206 23310 layer_factory.hpp:77] Creating layer L2_b1_brc1_bn
I1206 09:11:00.289217 23310 net.cpp:100] Creating Layer L2_b1_brc1_bn
I1206 09:11:00.289223 23310 net.cpp:434] L2_b1_brc1_bn <- L1_b6_sum_eltwise_top_L1_b6_sum_eltwise_0_split_0
I1206 09:11:00.289234 23310 net.cpp:408] L2_b1_brc1_bn -> L2_b1_brc1_bn_top
I1206 09:11:00.289463 23310 net.cpp:150] Setting up L2_b1_brc1_bn
I1206 09:11:00.289476 23310 net.cpp:157] Top shape: 85 64 32 32 (5570560)
I1206 09:11:00.289490 23310 net.cpp:165] Memory required for data: 1232139260
I1206 09:11:00.289501 23310 layer_factory.hpp:77] Creating layer L2_b1_brc1_relu
I1206 09:11:00.289510 23310 net.cpp:100] Creating Layer L2_b1_brc1_relu
I1206 09:11:00.289516 23310 net.cpp:434] L2_b1_brc1_relu <- L2_b1_brc1_bn_top
I1206 09:11:00.289523 23310 net.cpp:395] L2_b1_brc1_relu -> L2_b1_brc1_bn_top (in-place)
I1206 09:11:00.289533 23310 net.cpp:150] Setting up L2_b1_brc1_relu
I1206 09:11:00.289541 23310 net.cpp:157] Top shape: 85 64 32 32 (5570560)
I1206 09:11:00.289546 23310 net.cpp:165] Memory required for data: 1254421500
I1206 09:11:00.289551 23310 layer_factory.hpp:77] Creating layer L2_b1_brc1_conv
I1206 09:11:00.289569 23310 net.cpp:100] Creating Layer L2_b1_brc1_conv
I1206 09:11:00.289575 23310 net.cpp:434] L2_b1_brc1_conv <- L2_b1_brc1_bn_top
I1206 09:11:00.289587 23310 net.cpp:408] L2_b1_brc1_conv -> L2_b1_brc1_conv_top
I1206 09:11:00.289954 23310 net.cpp:150] Setting up L2_b1_brc1_conv
I1206 09:11:00.289969 23310 net.cpp:157] Top shape: 85 64 16 16 (1392640)
I1206 09:11:00.289974 23310 net.cpp:165] Memory required for data: 1259992060
I1206 09:11:00.289984 23310 layer_factory.hpp:77] Creating layer L2_b1_brc2_bn
I1206 09:11:00.289997 23310 net.cpp:100] Creating Layer L2_b1_brc2_bn
I1206 09:11:00.290004 23310 net.cpp:434] L2_b1_brc2_bn <- L2_b1_brc1_conv_top
I1206 09:11:00.290015 23310 net.cpp:408] L2_b1_brc2_bn -> L2_b1_brc2_bn_top
I1206 09:11:00.290261 23310 net.cpp:150] Setting up L2_b1_brc2_bn
I1206 09:11:00.290274 23310 net.cpp:157] Top shape: 85 64 16 16 (1392640)
I1206 09:11:00.290279 23310 net.cpp:165] Memory required for data: 1265562620
I1206 09:11:00.290290 23310 layer_factory.hpp:77] Creating layer L2_b1_brc2_relu
I1206 09:11:00.290299 23310 net.cpp:100] Creating Layer L2_b1_brc2_relu
I1206 09:11:00.290305 23310 net.cpp:434] L2_b1_brc2_relu <- L2_b1_brc2_bn_top
I1206 09:11:00.290316 23310 net.cpp:395] L2_b1_brc2_relu -> L2_b1_brc2_bn_top (in-place)
I1206 09:11:00.290326 23310 net.cpp:150] Setting up L2_b1_brc2_relu
I1206 09:11:00.290333 23310 net.cpp:157] Top shape: 85 64 16 16 (1392640)
I1206 09:11:00.290338 23310 net.cpp:165] Memory required for data: 1271133180
I1206 09:11:00.290343 23310 layer_factory.hpp:77] Creating layer L2_b1_brc2_conv
I1206 09:11:00.290359 23310 net.cpp:100] Creating Layer L2_b1_brc2_conv
I1206 09:11:00.290365 23310 net.cpp:434] L2_b1_brc2_conv <- L2_b1_brc2_bn_top
I1206 09:11:00.290374 23310 net.cpp:408] L2_b1_brc2_conv -> L2_b1_brc2_conv_top
I1206 09:11:00.290678 23310 net.cpp:150] Setting up L2_b1_brc2_conv
I1206 09:11:00.290693 23310 net.cpp:157] Top shape: 85 64 16 16 (1392640)
I1206 09:11:00.290697 23310 net.cpp:165] Memory required for data: 1276703740
I1206 09:11:00.290706 23310 layer_factory.hpp:77] Creating layer L2_b1_brc3_bn
I1206 09:11:00.290724 23310 net.cpp:100] Creating Layer L2_b1_brc3_bn
I1206 09:11:00.290732 23310 net.cpp:434] L2_b1_brc3_bn <- L2_b1_brc2_conv_top
I1206 09:11:00.290741 23310 net.cpp:408] L2_b1_brc3_bn -> L2_b1_brc3_bn_top
I1206 09:11:00.290989 23310 net.cpp:150] Setting up L2_b1_brc3_bn
I1206 09:11:00.291002 23310 net.cpp:157] Top shape: 85 64 16 16 (1392640)
I1206 09:11:00.291007 23310 net.cpp:165] Memory required for data: 1282274300
I1206 09:11:00.291018 23310 layer_factory.hpp:77] Creating layer L2_b1_brc3_relu
I1206 09:11:00.291028 23310 net.cpp:100] Creating Layer L2_b1_brc3_relu
I1206 09:11:00.291033 23310 net.cpp:434] L2_b1_brc3_relu <- L2_b1_brc3_bn_top
I1206 09:11:00.291044 23310 net.cpp:395] L2_b1_brc3_relu -> L2_b1_brc3_bn_top (in-place)
I1206 09:11:00.291054 23310 net.cpp:150] Setting up L2_b1_brc3_relu
I1206 09:11:00.291062 23310 net.cpp:157] Top shape: 85 64 16 16 (1392640)
I1206 09:11:00.291066 23310 net.cpp:165] Memory required for data: 1287844860
I1206 09:11:00.291071 23310 layer_factory.hpp:77] Creating layer L2_b1_brc3_conv
I1206 09:11:00.291086 23310 net.cpp:100] Creating Layer L2_b1_brc3_conv
I1206 09:11:00.291092 23310 net.cpp:434] L2_b1_brc3_conv <- L2_b1_brc3_bn_top
I1206 09:11:00.291101 23310 net.cpp:408] L2_b1_brc3_conv -> L2_b1_brc3_conv_top
I1206 09:11:00.292860 23310 net.cpp:150] Setting up L2_b1_brc3_conv
I1206 09:11:00.292878 23310 net.cpp:157] Top shape: 85 128 16 16 (2785280)
I1206 09:11:00.292883 23310 net.cpp:165] Memory required for data: 1298985980
I1206 09:11:00.292893 23310 layer_factory.hpp:77] Creating layer L2_b1_chanInc_conv
I1206 09:11:00.292910 23310 net.cpp:100] Creating Layer L2_b1_chanInc_conv
I1206 09:11:00.292917 23310 net.cpp:434] L2_b1_chanInc_conv <- L1_b6_sum_eltwise_top_L1_b6_sum_eltwise_0_split_1
I1206 09:11:00.292930 23310 net.cpp:408] L2_b1_chanInc_conv -> L2_b1_chanInc_conv_top
I1206 09:11:00.293364 23310 net.cpp:150] Setting up L2_b1_chanInc_conv
I1206 09:11:00.293378 23310 net.cpp:157] Top shape: 85 128 16 16 (2785280)
I1206 09:11:00.293383 23310 net.cpp:165] Memory required for data: 1310127100
I1206 09:11:00.293392 23310 layer_factory.hpp:77] Creating layer L2_b1_sum_eltwise
I1206 09:11:00.293402 23310 net.cpp:100] Creating Layer L2_b1_sum_eltwise
I1206 09:11:00.293408 23310 net.cpp:434] L2_b1_sum_eltwise <- L2_b1_brc3_conv_top
I1206 09:11:00.293416 23310 net.cpp:434] L2_b1_sum_eltwise <- L2_b1_chanInc_conv_top
I1206 09:11:00.293427 23310 net.cpp:408] L2_b1_sum_eltwise -> L2_b1_sum_eltwise_top
I1206 09:11:00.293454 23310 net.cpp:150] Setting up L2_b1_sum_eltwise
I1206 09:11:00.293463 23310 net.cpp:157] Top shape: 85 128 16 16 (2785280)
I1206 09:11:00.293468 23310 net.cpp:165] Memory required for data: 1321268220
I1206 09:11:00.293474 23310 layer_factory.hpp:77] Creating layer L2_b1_sum_eltwise_top_L2_b1_sum_eltwise_0_split
I1206 09:11:00.293486 23310 net.cpp:100] Creating Layer L2_b1_sum_eltwise_top_L2_b1_sum_eltwise_0_split
I1206 09:11:00.293493 23310 net.cpp:434] L2_b1_sum_eltwise_top_L2_b1_sum_eltwise_0_split <- L2_b1_sum_eltwise_top
I1206 09:11:00.293500 23310 net.cpp:408] L2_b1_sum_eltwise_top_L2_b1_sum_eltwise_0_split -> L2_b1_sum_eltwise_top_L2_b1_sum_eltwise_0_split_0
I1206 09:11:00.293509 23310 net.cpp:408] L2_b1_sum_eltwise_top_L2_b1_sum_eltwise_0_split -> L2_b1_sum_eltwise_top_L2_b1_sum_eltwise_0_split_1
I1206 09:11:00.293560 23310 net.cpp:150] Setting up L2_b1_sum_eltwise_top_L2_b1_sum_eltwise_0_split
I1206 09:11:00.293572 23310 net.cpp:157] Top shape: 85 128 16 16 (2785280)
I1206 09:11:00.293579 23310 net.cpp:157] Top shape: 85 128 16 16 (2785280)
I1206 09:11:00.293584 23310 net.cpp:165] Memory required for data: 1343550460
I1206 09:11:00.293589 23310 layer_factory.hpp:77] Creating layer L2_b2_brc1_bn
I1206 09:11:00.293597 23310 net.cpp:100] Creating Layer L2_b2_brc1_bn
I1206 09:11:00.293603 23310 net.cpp:434] L2_b2_brc1_bn <- L2_b1_sum_eltwise_top_L2_b1_sum_eltwise_0_split_0
I1206 09:11:00.293617 23310 net.cpp:408] L2_b2_brc1_bn -> L2_b2_brc1_bn_top
I1206 09:11:00.293854 23310 net.cpp:150] Setting up L2_b2_brc1_bn
I1206 09:11:00.293869 23310 net.cpp:157] Top shape: 85 128 16 16 (2785280)
I1206 09:11:00.293874 23310 net.cpp:165] Memory required for data: 1354691580
I1206 09:11:00.293885 23310 layer_factory.hpp:77] Creating layer L2_b2_brc1_relu
I1206 09:11:00.293897 23310 net.cpp:100] Creating Layer L2_b2_brc1_relu
I1206 09:11:00.293905 23310 net.cpp:434] L2_b2_brc1_relu <- L2_b2_brc1_bn_top
I1206 09:11:00.293911 23310 net.cpp:395] L2_b2_brc1_relu -> L2_b2_brc1_bn_top (in-place)
I1206 09:11:00.293921 23310 net.cpp:150] Setting up L2_b2_brc1_relu
I1206 09:11:00.293928 23310 net.cpp:157] Top shape: 85 128 16 16 (2785280)
I1206 09:11:00.293933 23310 net.cpp:165] Memory required for data: 1365832700
I1206 09:11:00.293938 23310 layer_factory.hpp:77] Creating layer L2_b2_brc1_conv
I1206 09:11:00.293949 23310 net.cpp:100] Creating Layer L2_b2_brc1_conv
I1206 09:11:00.293956 23310 net.cpp:434] L2_b2_brc1_conv <- L2_b2_brc1_bn_top
I1206 09:11:00.293967 23310 net.cpp:408] L2_b2_brc1_conv -> L2_b2_brc1_conv_top
I1206 09:11:00.294414 23310 net.cpp:150] Setting up L2_b2_brc1_conv
I1206 09:11:00.294427 23310 net.cpp:157] Top shape: 85 64 16 16 (1392640)
I1206 09:11:00.294433 23310 net.cpp:165] Memory required for data: 1371403260
I1206 09:11:00.294442 23310 layer_factory.hpp:77] Creating layer L2_b2_brc2_bn
I1206 09:11:00.294459 23310 net.cpp:100] Creating Layer L2_b2_brc2_bn
I1206 09:11:00.294466 23310 net.cpp:434] L2_b2_brc2_bn <- L2_b2_brc1_conv_top
I1206 09:11:00.294477 23310 net.cpp:408] L2_b2_brc2_bn -> L2_b2_brc2_bn_top
I1206 09:11:00.294726 23310 net.cpp:150] Setting up L2_b2_brc2_bn
I1206 09:11:00.294740 23310 net.cpp:157] Top shape: 85 64 16 16 (1392640)
I1206 09:11:00.294745 23310 net.cpp:165] Memory required for data: 1376973820
I1206 09:11:00.294756 23310 layer_factory.hpp:77] Creating layer L2_b2_brc2_relu
I1206 09:11:00.294765 23310 net.cpp:100] Creating Layer L2_b2_brc2_relu
I1206 09:11:00.294771 23310 net.cpp:434] L2_b2_brc2_relu <- L2_b2_brc2_bn_top
I1206 09:11:00.294781 23310 net.cpp:395] L2_b2_brc2_relu -> L2_b2_brc2_bn_top (in-place)
I1206 09:11:00.294792 23310 net.cpp:150] Setting up L2_b2_brc2_relu
I1206 09:11:00.294800 23310 net.cpp:157] Top shape: 85 64 16 16 (1392640)
I1206 09:11:00.294805 23310 net.cpp:165] Memory required for data: 1382544380
I1206 09:11:00.294809 23310 layer_factory.hpp:77] Creating layer L2_b2_brc2_conv
I1206 09:11:00.294821 23310 net.cpp:100] Creating Layer L2_b2_brc2_conv
I1206 09:11:00.294827 23310 net.cpp:434] L2_b2_brc2_conv <- L2_b2_brc2_bn_top
I1206 09:11:00.294836 23310 net.cpp:408] L2_b2_brc2_conv -> L2_b2_brc2_conv_top
I1206 09:11:00.295148 23310 net.cpp:150] Setting up L2_b2_brc2_conv
I1206 09:11:00.295166 23310 net.cpp:157] Top shape: 85 64 16 16 (1392640)
I1206 09:11:00.295171 23310 net.cpp:165] Memory required for data: 1388114940
I1206 09:11:00.295181 23310 layer_factory.hpp:77] Creating layer L2_b2_brc3_bn
I1206 09:11:00.295191 23310 net.cpp:100] Creating Layer L2_b2_brc3_bn
I1206 09:11:00.295197 23310 net.cpp:434] L2_b2_brc3_bn <- L2_b2_brc2_conv_top
I1206 09:11:00.295204 23310 net.cpp:408] L2_b2_brc3_bn -> L2_b2_brc3_bn_top
I1206 09:11:00.295451 23310 net.cpp:150] Setting up L2_b2_brc3_bn
I1206 09:11:00.295464 23310 net.cpp:157] Top shape: 85 64 16 16 (1392640)
I1206 09:11:00.295470 23310 net.cpp:165] Memory required for data: 1393685500
I1206 09:11:00.295480 23310 layer_factory.hpp:77] Creating layer L2_b2_brc3_relu
I1206 09:11:00.295490 23310 net.cpp:100] Creating Layer L2_b2_brc3_relu
I1206 09:11:00.295495 23310 net.cpp:434] L2_b2_brc3_relu <- L2_b2_brc3_bn_top
I1206 09:11:00.295507 23310 net.cpp:395] L2_b2_brc3_relu -> L2_b2_brc3_bn_top (in-place)
I1206 09:11:00.295518 23310 net.cpp:150] Setting up L2_b2_brc3_relu
I1206 09:11:00.295526 23310 net.cpp:157] Top shape: 85 64 16 16 (1392640)
I1206 09:11:00.295531 23310 net.cpp:165] Memory required for data: 1399256060
I1206 09:11:00.295536 23310 layer_factory.hpp:77] Creating layer L2_b2_brc3_conv
I1206 09:11:00.295550 23310 net.cpp:100] Creating Layer L2_b2_brc3_conv
I1206 09:11:00.295557 23310 net.cpp:434] L2_b2_brc3_conv <- L2_b2_brc3_bn_top
I1206 09:11:00.295565 23310 net.cpp:408] L2_b2_brc3_conv -> L2_b2_brc3_conv_top
I1206 09:11:00.296010 23310 net.cpp:150] Setting up L2_b2_brc3_conv
I1206 09:11:00.296025 23310 net.cpp:157] Top shape: 85 128 16 16 (2785280)
I1206 09:11:00.296031 23310 net.cpp:165] Memory required for data: 1410397180
I1206 09:11:00.296041 23310 layer_factory.hpp:77] Creating layer L2_b2_sum_eltwise
I1206 09:11:00.296051 23310 net.cpp:100] Creating Layer L2_b2_sum_eltwise
I1206 09:11:00.296056 23310 net.cpp:434] L2_b2_sum_eltwise <- L2_b2_brc3_conv_top
I1206 09:11:00.296063 23310 net.cpp:434] L2_b2_sum_eltwise <- L2_b1_sum_eltwise_top_L2_b1_sum_eltwise_0_split_1
I1206 09:11:00.296075 23310 net.cpp:408] L2_b2_sum_eltwise -> L2_b2_sum_eltwise_top
I1206 09:11:00.296103 23310 net.cpp:150] Setting up L2_b2_sum_eltwise
I1206 09:11:00.296111 23310 net.cpp:157] Top shape: 85 128 16 16 (2785280)
I1206 09:11:00.296116 23310 net.cpp:165] Memory required for data: 1421538300
I1206 09:11:00.296121 23310 layer_factory.hpp:77] Creating layer L2_b2_sum_eltwise_top_L2_b2_sum_eltwise_0_split
I1206 09:11:00.296133 23310 net.cpp:100] Creating Layer L2_b2_sum_eltwise_top_L2_b2_sum_eltwise_0_split
I1206 09:11:00.296139 23310 net.cpp:434] L2_b2_sum_eltwise_top_L2_b2_sum_eltwise_0_split <- L2_b2_sum_eltwise_top
I1206 09:11:00.296154 23310 net.cpp:408] L2_b2_sum_eltwise_top_L2_b2_sum_eltwise_0_split -> L2_b2_sum_eltwise_top_L2_b2_sum_eltwise_0_split_0
I1206 09:11:00.296164 23310 net.cpp:408] L2_b2_sum_eltwise_top_L2_b2_sum_eltwise_0_split -> L2_b2_sum_eltwise_top_L2_b2_sum_eltwise_0_split_1
I1206 09:11:00.296214 23310 net.cpp:150] Setting up L2_b2_sum_eltwise_top_L2_b2_sum_eltwise_0_split
I1206 09:11:00.296223 23310 net.cpp:157] Top shape: 85 128 16 16 (2785280)
I1206 09:11:00.296231 23310 net.cpp:157] Top shape: 85 128 16 16 (2785280)
I1206 09:11:00.296236 23310 net.cpp:165] Memory required for data: 1443820540
I1206 09:11:00.296241 23310 layer_factory.hpp:77] Creating layer L2_b3_brc1_bn
I1206 09:11:00.296252 23310 net.cpp:100] Creating Layer L2_b3_brc1_bn
I1206 09:11:00.296258 23310 net.cpp:434] L2_b3_brc1_bn <- L2_b2_sum_eltwise_top_L2_b2_sum_eltwise_0_split_0
I1206 09:11:00.296267 23310 net.cpp:408] L2_b3_brc1_bn -> L2_b3_brc1_bn_top
I1206 09:11:00.296494 23310 net.cpp:150] Setting up L2_b3_brc1_bn
I1206 09:11:00.296506 23310 net.cpp:157] Top shape: 85 128 16 16 (2785280)
I1206 09:11:00.296511 23310 net.cpp:165] Memory required for data: 1454961660
I1206 09:11:00.296545 23310 layer_factory.hpp:77] Creating layer L2_b3_brc1_relu
I1206 09:11:00.296557 23310 net.cpp:100] Creating Layer L2_b3_brc1_relu
I1206 09:11:00.296563 23310 net.cpp:434] L2_b3_brc1_relu <- L2_b3_brc1_bn_top
I1206 09:11:00.296571 23310 net.cpp:395] L2_b3_brc1_relu -> L2_b3_brc1_bn_top (in-place)
I1206 09:11:00.296581 23310 net.cpp:150] Setting up L2_b3_brc1_relu
I1206 09:11:00.296589 23310 net.cpp:157] Top shape: 85 128 16 16 (2785280)
I1206 09:11:00.296593 23310 net.cpp:165] Memory required for data: 1466102780
I1206 09:11:00.296598 23310 layer_factory.hpp:77] Creating layer L2_b3_brc1_conv
I1206 09:11:00.296610 23310 net.cpp:100] Creating Layer L2_b3_brc1_conv
I1206 09:11:00.296617 23310 net.cpp:434] L2_b3_brc1_conv <- L2_b3_brc1_bn_top
I1206 09:11:00.296628 23310 net.cpp:408] L2_b3_brc1_conv -> L2_b3_brc1_conv_top
I1206 09:11:00.297085 23310 net.cpp:150] Setting up L2_b3_brc1_conv
I1206 09:11:00.297099 23310 net.cpp:157] Top shape: 85 64 16 16 (1392640)
I1206 09:11:00.297104 23310 net.cpp:165] Memory required for data: 1471673340
I1206 09:11:00.297114 23310 layer_factory.hpp:77] Creating layer L2_b3_brc2_bn
I1206 09:11:00.297127 23310 net.cpp:100] Creating Layer L2_b3_brc2_bn
I1206 09:11:00.297133 23310 net.cpp:434] L2_b3_brc2_bn <- L2_b3_brc1_conv_top
I1206 09:11:00.297142 23310 net.cpp:408] L2_b3_brc2_bn -> L2_b3_brc2_bn_top
I1206 09:11:00.297387 23310 net.cpp:150] Setting up L2_b3_brc2_bn
I1206 09:11:00.297405 23310 net.cpp:157] Top shape: 85 64 16 16 (1392640)
I1206 09:11:00.297410 23310 net.cpp:165] Memory required for data: 1477243900
I1206 09:11:00.297420 23310 layer_factory.hpp:77] Creating layer L2_b3_brc2_relu
I1206 09:11:00.297428 23310 net.cpp:100] Creating Layer L2_b3_brc2_relu
I1206 09:11:00.297435 23310 net.cpp:434] L2_b3_brc2_relu <- L2_b3_brc2_bn_top
I1206 09:11:00.297442 23310 net.cpp:395] L2_b3_brc2_relu -> L2_b3_brc2_bn_top (in-place)
I1206 09:11:00.297451 23310 net.cpp:150] Setting up L2_b3_brc2_relu
I1206 09:11:00.297459 23310 net.cpp:157] Top shape: 85 64 16 16 (1392640)
I1206 09:11:00.297463 23310 net.cpp:165] Memory required for data: 1482814460
I1206 09:11:00.297468 23310 layer_factory.hpp:77] Creating layer L2_b3_brc2_conv
I1206 09:11:00.297480 23310 net.cpp:100] Creating Layer L2_b3_brc2_conv
I1206 09:11:00.297487 23310 net.cpp:434] L2_b3_brc2_conv <- L2_b3_brc2_bn_top
I1206 09:11:00.297498 23310 net.cpp:408] L2_b3_brc2_conv -> L2_b3_brc2_conv_top
I1206 09:11:00.297818 23310 net.cpp:150] Setting up L2_b3_brc2_conv
I1206 09:11:00.297833 23310 net.cpp:157] Top shape: 85 64 16 16 (1392640)
I1206 09:11:00.297839 23310 net.cpp:165] Memory required for data: 1488385020
I1206 09:11:00.297848 23310 layer_factory.hpp:77] Creating layer L2_b3_brc3_bn
I1206 09:11:00.297857 23310 net.cpp:100] Creating Layer L2_b3_brc3_bn
I1206 09:11:00.297863 23310 net.cpp:434] L2_b3_brc3_bn <- L2_b3_brc2_conv_top
I1206 09:11:00.297874 23310 net.cpp:408] L2_b3_brc3_bn -> L2_b3_brc3_bn_top
I1206 09:11:00.298130 23310 net.cpp:150] Setting up L2_b3_brc3_bn
I1206 09:11:00.298144 23310 net.cpp:157] Top shape: 85 64 16 16 (1392640)
I1206 09:11:00.298149 23310 net.cpp:165] Memory required for data: 1493955580
I1206 09:11:00.298159 23310 layer_factory.hpp:77] Creating layer L2_b3_brc3_relu
I1206 09:11:00.298172 23310 net.cpp:100] Creating Layer L2_b3_brc3_relu
I1206 09:11:00.298178 23310 net.cpp:434] L2_b3_brc3_relu <- L2_b3_brc3_bn_top
I1206 09:11:00.298185 23310 net.cpp:395] L2_b3_brc3_relu -> L2_b3_brc3_bn_top (in-place)
I1206 09:11:00.298195 23310 net.cpp:150] Setting up L2_b3_brc3_relu
I1206 09:11:00.298202 23310 net.cpp:157] Top shape: 85 64 16 16 (1392640)
I1206 09:11:00.298207 23310 net.cpp:165] Memory required for data: 1499526140
I1206 09:11:00.298213 23310 layer_factory.hpp:77] Creating layer L2_b3_brc3_conv
I1206 09:11:00.298223 23310 net.cpp:100] Creating Layer L2_b3_brc3_conv
I1206 09:11:00.298228 23310 net.cpp:434] L2_b3_brc3_conv <- L2_b3_brc3_bn_top
I1206 09:11:00.298243 23310 net.cpp:408] L2_b3_brc3_conv -> L2_b3_brc3_conv_top
I1206 09:11:00.298686 23310 net.cpp:150] Setting up L2_b3_brc3_conv
I1206 09:11:00.298699 23310 net.cpp:157] Top shape: 85 128 16 16 (2785280)
I1206 09:11:00.298705 23310 net.cpp:165] Memory required for data: 1510667260
I1206 09:11:00.298720 23310 layer_factory.hpp:77] Creating layer L2_b3_sum_eltwise
I1206 09:11:00.298732 23310 net.cpp:100] Creating Layer L2_b3_sum_eltwise
I1206 09:11:00.298738 23310 net.cpp:434] L2_b3_sum_eltwise <- L2_b3_brc3_conv_top
I1206 09:11:00.298745 23310 net.cpp:434] L2_b3_sum_eltwise <- L2_b2_sum_eltwise_top_L2_b2_sum_eltwise_0_split_1
I1206 09:11:00.298753 23310 net.cpp:408] L2_b3_sum_eltwise -> L2_b3_sum_eltwise_top
I1206 09:11:00.298784 23310 net.cpp:150] Setting up L2_b3_sum_eltwise
I1206 09:11:00.298794 23310 net.cpp:157] Top shape: 85 128 16 16 (2785280)
I1206 09:11:00.298799 23310 net.cpp:165] Memory required for data: 1521808380
I1206 09:11:00.298804 23310 layer_factory.hpp:77] Creating layer L2_b3_sum_eltwise_top_L2_b3_sum_eltwise_0_split
I1206 09:11:00.298812 23310 net.cpp:100] Creating Layer L2_b3_sum_eltwise_top_L2_b3_sum_eltwise_0_split
I1206 09:11:00.298817 23310 net.cpp:434] L2_b3_sum_eltwise_top_L2_b3_sum_eltwise_0_split <- L2_b3_sum_eltwise_top
I1206 09:11:00.298830 23310 net.cpp:408] L2_b3_sum_eltwise_top_L2_b3_sum_eltwise_0_split -> L2_b3_sum_eltwise_top_L2_b3_sum_eltwise_0_split_0
I1206 09:11:00.298838 23310 net.cpp:408] L2_b3_sum_eltwise_top_L2_b3_sum_eltwise_0_split -> L2_b3_sum_eltwise_top_L2_b3_sum_eltwise_0_split_1
I1206 09:11:00.298884 23310 net.cpp:150] Setting up L2_b3_sum_eltwise_top_L2_b3_sum_eltwise_0_split
I1206 09:11:00.298900 23310 net.cpp:157] Top shape: 85 128 16 16 (2785280)
I1206 09:11:00.298907 23310 net.cpp:157] Top shape: 85 128 16 16 (2785280)
I1206 09:11:00.298913 23310 net.cpp:165] Memory required for data: 1544090620
I1206 09:11:00.298918 23310 layer_factory.hpp:77] Creating layer L2_b4_brc1_bn
I1206 09:11:00.298925 23310 net.cpp:100] Creating Layer L2_b4_brc1_bn
I1206 09:11:00.298931 23310 net.cpp:434] L2_b4_brc1_bn <- L2_b3_sum_eltwise_top_L2_b3_sum_eltwise_0_split_0
I1206 09:11:00.298943 23310 net.cpp:408] L2_b4_brc1_bn -> L2_b4_brc1_bn_top
I1206 09:11:00.299175 23310 net.cpp:150] Setting up L2_b4_brc1_bn
I1206 09:11:00.299190 23310 net.cpp:157] Top shape: 85 128 16 16 (2785280)
I1206 09:11:00.299194 23310 net.cpp:165] Memory required for data: 1555231740
I1206 09:11:00.299204 23310 layer_factory.hpp:77] Creating layer L2_b4_brc1_relu
I1206 09:11:00.299213 23310 net.cpp:100] Creating Layer L2_b4_brc1_relu
I1206 09:11:00.299219 23310 net.cpp:434] L2_b4_brc1_relu <- L2_b4_brc1_bn_top
I1206 09:11:00.299230 23310 net.cpp:395] L2_b4_brc1_relu -> L2_b4_brc1_bn_top (in-place)
I1206 09:11:00.299240 23310 net.cpp:150] Setting up L2_b4_brc1_relu
I1206 09:11:00.299247 23310 net.cpp:157] Top shape: 85 128 16 16 (2785280)
I1206 09:11:00.299252 23310 net.cpp:165] Memory required for data: 1566372860
I1206 09:11:00.299257 23310 layer_factory.hpp:77] Creating layer L2_b4_brc1_conv
I1206 09:11:00.299275 23310 net.cpp:100] Creating Layer L2_b4_brc1_conv
I1206 09:11:00.299283 23310 net.cpp:434] L2_b4_brc1_conv <- L2_b4_brc1_bn_top
I1206 09:11:00.299290 23310 net.cpp:408] L2_b4_brc1_conv -> L2_b4_brc1_conv_top
I1206 09:11:00.299743 23310 net.cpp:150] Setting up L2_b4_brc1_conv
I1206 09:11:00.299759 23310 net.cpp:157] Top shape: 85 64 16 16 (1392640)
I1206 09:11:00.299764 23310 net.cpp:165] Memory required for data: 1571943420
I1206 09:11:00.299773 23310 layer_factory.hpp:77] Creating layer L2_b4_brc2_bn
I1206 09:11:00.299785 23310 net.cpp:100] Creating Layer L2_b4_brc2_bn
I1206 09:11:00.299793 23310 net.cpp:434] L2_b4_brc2_bn <- L2_b4_brc1_conv_top
I1206 09:11:00.299800 23310 net.cpp:408] L2_b4_brc2_bn -> L2_b4_brc2_bn_top
I1206 09:11:00.300050 23310 net.cpp:150] Setting up L2_b4_brc2_bn
I1206 09:11:00.300062 23310 net.cpp:157] Top shape: 85 64 16 16 (1392640)
I1206 09:11:00.300068 23310 net.cpp:165] Memory required for data: 1577513980
I1206 09:11:00.300078 23310 layer_factory.hpp:77] Creating layer L2_b4_brc2_relu
I1206 09:11:00.300087 23310 net.cpp:100] Creating Layer L2_b4_brc2_relu
I1206 09:11:00.300093 23310 net.cpp:434] L2_b4_brc2_relu <- L2_b4_brc2_bn_top
I1206 09:11:00.300101 23310 net.cpp:395] L2_b4_brc2_relu -> L2_b4_brc2_bn_top (in-place)
I1206 09:11:00.300109 23310 net.cpp:150] Setting up L2_b4_brc2_relu
I1206 09:11:00.300117 23310 net.cpp:157] Top shape: 85 64 16 16 (1392640)
I1206 09:11:00.300122 23310 net.cpp:165] Memory required for data: 1583084540
I1206 09:11:00.300127 23310 layer_factory.hpp:77] Creating layer L2_b4_brc2_conv
I1206 09:11:00.300142 23310 net.cpp:100] Creating Layer L2_b4_brc2_conv
I1206 09:11:00.300148 23310 net.cpp:434] L2_b4_brc2_conv <- L2_b4_brc2_bn_top
I1206 09:11:00.300159 23310 net.cpp:408] L2_b4_brc2_conv -> L2_b4_brc2_conv_top
I1206 09:11:00.300472 23310 net.cpp:150] Setting up L2_b4_brc2_conv
I1206 09:11:00.300487 23310 net.cpp:157] Top shape: 85 64 16 16 (1392640)
I1206 09:11:00.300492 23310 net.cpp:165] Memory required for data: 1588655100
I1206 09:11:00.300500 23310 layer_factory.hpp:77] Creating layer L2_b4_brc3_bn
I1206 09:11:00.300513 23310 net.cpp:100] Creating Layer L2_b4_brc3_bn
I1206 09:11:00.300518 23310 net.cpp:434] L2_b4_brc3_bn <- L2_b4_brc2_conv_top
I1206 09:11:00.300526 23310 net.cpp:408] L2_b4_brc3_bn -> L2_b4_brc3_bn_top
I1206 09:11:00.300776 23310 net.cpp:150] Setting up L2_b4_brc3_bn
I1206 09:11:00.300791 23310 net.cpp:157] Top shape: 85 64 16 16 (1392640)
I1206 09:11:00.300796 23310 net.cpp:165] Memory required for data: 1594225660
I1206 09:11:00.300806 23310 layer_factory.hpp:77] Creating layer L2_b4_brc3_relu
I1206 09:11:00.300814 23310 net.cpp:100] Creating Layer L2_b4_brc3_relu
I1206 09:11:00.300820 23310 net.cpp:434] L2_b4_brc3_relu <- L2_b4_brc3_bn_top
I1206 09:11:00.300827 23310 net.cpp:395] L2_b4_brc3_relu -> L2_b4_brc3_bn_top (in-place)
I1206 09:11:00.300837 23310 net.cpp:150] Setting up L2_b4_brc3_relu
I1206 09:11:00.300844 23310 net.cpp:157] Top shape: 85 64 16 16 (1392640)
I1206 09:11:00.300848 23310 net.cpp:165] Memory required for data: 1599796220
I1206 09:11:00.300853 23310 layer_factory.hpp:77] Creating layer L2_b4_brc3_conv
I1206 09:11:00.300873 23310 net.cpp:100] Creating Layer L2_b4_brc3_conv
I1206 09:11:00.300879 23310 net.cpp:434] L2_b4_brc3_conv <- L2_b4_brc3_bn_top
I1206 09:11:00.300891 23310 net.cpp:408] L2_b4_brc3_conv -> L2_b4_brc3_conv_top
I1206 09:11:00.301331 23310 net.cpp:150] Setting up L2_b4_brc3_conv
I1206 09:11:00.301344 23310 net.cpp:157] Top shape: 85 128 16 16 (2785280)
I1206 09:11:00.301349 23310 net.cpp:165] Memory required for data: 1610937340
I1206 09:11:00.301358 23310 layer_factory.hpp:77] Creating layer L2_b4_sum_eltwise
I1206 09:11:00.301371 23310 net.cpp:100] Creating Layer L2_b4_sum_eltwise
I1206 09:11:00.301378 23310 net.cpp:434] L2_b4_sum_eltwise <- L2_b4_brc3_conv_top
I1206 09:11:00.301385 23310 net.cpp:434] L2_b4_sum_eltwise <- L2_b3_sum_eltwise_top_L2_b3_sum_eltwise_0_split_1
I1206 09:11:00.301393 23310 net.cpp:408] L2_b4_sum_eltwise -> L2_b4_sum_eltwise_top
I1206 09:11:00.301424 23310 net.cpp:150] Setting up L2_b4_sum_eltwise
I1206 09:11:00.301440 23310 net.cpp:157] Top shape: 85 128 16 16 (2785280)
I1206 09:11:00.301445 23310 net.cpp:165] Memory required for data: 1622078460
I1206 09:11:00.301451 23310 layer_factory.hpp:77] Creating layer L2_b4_sum_eltwise_top_L2_b4_sum_eltwise_0_split
I1206 09:11:00.301460 23310 net.cpp:100] Creating Layer L2_b4_sum_eltwise_top_L2_b4_sum_eltwise_0_split
I1206 09:11:00.301465 23310 net.cpp:434] L2_b4_sum_eltwise_top_L2_b4_sum_eltwise_0_split <- L2_b4_sum_eltwise_top
I1206 09:11:00.301476 23310 net.cpp:408] L2_b4_sum_eltwise_top_L2_b4_sum_eltwise_0_split -> L2_b4_sum_eltwise_top_L2_b4_sum_eltwise_0_split_0
I1206 09:11:00.301486 23310 net.cpp:408] L2_b4_sum_eltwise_top_L2_b4_sum_eltwise_0_split -> L2_b4_sum_eltwise_top_L2_b4_sum_eltwise_0_split_1
I1206 09:11:00.301533 23310 net.cpp:150] Setting up L2_b4_sum_eltwise_top_L2_b4_sum_eltwise_0_split
I1206 09:11:00.301553 23310 net.cpp:157] Top shape: 85 128 16 16 (2785280)
I1206 09:11:00.301560 23310 net.cpp:157] Top shape: 85 128 16 16 (2785280)
I1206 09:11:00.301565 23310 net.cpp:165] Memory required for data: 1644360700
I1206 09:11:00.301570 23310 layer_factory.hpp:77] Creating layer L2_b5_brc1_bn
I1206 09:11:00.301578 23310 net.cpp:100] Creating Layer L2_b5_brc1_bn
I1206 09:11:00.301584 23310 net.cpp:434] L2_b5_brc1_bn <- L2_b4_sum_eltwise_top_L2_b4_sum_eltwise_0_split_0
I1206 09:11:00.301596 23310 net.cpp:408] L2_b5_brc1_bn -> L2_b5_brc1_bn_top
I1206 09:11:00.301836 23310 net.cpp:150] Setting up L2_b5_brc1_bn
I1206 09:11:00.301853 23310 net.cpp:157] Top shape: 85 128 16 16 (2785280)
I1206 09:11:00.301858 23310 net.cpp:165] Memory required for data: 1655501820
I1206 09:11:00.301869 23310 layer_factory.hpp:77] Creating layer L2_b5_brc1_relu
I1206 09:11:00.301878 23310 net.cpp:100] Creating Layer L2_b5_brc1_relu
I1206 09:11:00.301884 23310 net.cpp:434] L2_b5_brc1_relu <- L2_b5_brc1_bn_top
I1206 09:11:00.301892 23310 net.cpp:395] L2_b5_brc1_relu -> L2_b5_brc1_bn_top (in-place)
I1206 09:11:00.301901 23310 net.cpp:150] Setting up L2_b5_brc1_relu
I1206 09:11:00.301908 23310 net.cpp:157] Top shape: 85 128 16 16 (2785280)
I1206 09:11:00.301913 23310 net.cpp:165] Memory required for data: 1666642940
I1206 09:11:00.301918 23310 layer_factory.hpp:77] Creating layer L2_b5_brc1_conv
I1206 09:11:00.301933 23310 net.cpp:100] Creating Layer L2_b5_brc1_conv
I1206 09:11:00.301939 23310 net.cpp:434] L2_b5_brc1_conv <- L2_b5_brc1_bn_top
I1206 09:11:00.301947 23310 net.cpp:408] L2_b5_brc1_conv -> L2_b5_brc1_conv_top
I1206 09:11:00.302397 23310 net.cpp:150] Setting up L2_b5_brc1_conv
I1206 09:11:00.302410 23310 net.cpp:157] Top shape: 85 64 16 16 (1392640)
I1206 09:11:00.302415 23310 net.cpp:165] Memory required for data: 1672213500
I1206 09:11:00.302424 23310 layer_factory.hpp:77] Creating layer L2_b5_brc2_bn
I1206 09:11:00.302436 23310 net.cpp:100] Creating Layer L2_b5_brc2_bn
I1206 09:11:00.302443 23310 net.cpp:434] L2_b5_brc2_bn <- L2_b5_brc1_conv_top
I1206 09:11:00.302451 23310 net.cpp:408] L2_b5_brc2_bn -> L2_b5_brc2_bn_top
I1206 09:11:00.302700 23310 net.cpp:150] Setting up L2_b5_brc2_bn
I1206 09:11:00.302724 23310 net.cpp:157] Top shape: 85 64 16 16 (1392640)
I1206 09:11:00.302731 23310 net.cpp:165] Memory required for data: 1677784060
I1206 09:11:00.302742 23310 layer_factory.hpp:77] Creating layer L2_b5_brc2_relu
I1206 09:11:00.302750 23310 net.cpp:100] Creating Layer L2_b5_brc2_relu
I1206 09:11:00.302757 23310 net.cpp:434] L2_b5_brc2_relu <- L2_b5_brc2_bn_top
I1206 09:11:00.302764 23310 net.cpp:395] L2_b5_brc2_relu -> L2_b5_brc2_bn_top (in-place)
I1206 09:11:00.302774 23310 net.cpp:150] Setting up L2_b5_brc2_relu
I1206 09:11:00.302781 23310 net.cpp:157] Top shape: 85 64 16 16 (1392640)
I1206 09:11:00.302786 23310 net.cpp:165] Memory required for data: 1683354620
I1206 09:11:00.302791 23310 layer_factory.hpp:77] Creating layer L2_b5_brc2_conv
I1206 09:11:00.302803 23310 net.cpp:100] Creating Layer L2_b5_brc2_conv
I1206 09:11:00.302809 23310 net.cpp:434] L2_b5_brc2_conv <- L2_b5_brc2_bn_top
I1206 09:11:00.302820 23310 net.cpp:408] L2_b5_brc2_conv -> L2_b5_brc2_conv_top
I1206 09:11:00.303143 23310 net.cpp:150] Setting up L2_b5_brc2_conv
I1206 09:11:00.303158 23310 net.cpp:157] Top shape: 85 64 16 16 (1392640)
I1206 09:11:00.303162 23310 net.cpp:165] Memory required for data: 1688925180
I1206 09:11:00.303171 23310 layer_factory.hpp:77] Creating layer L2_b5_brc3_bn
I1206 09:11:00.303187 23310 net.cpp:100] Creating Layer L2_b5_brc3_bn
I1206 09:11:00.303194 23310 net.cpp:434] L2_b5_brc3_bn <- L2_b5_brc2_conv_top
I1206 09:11:00.303202 23310 net.cpp:408] L2_b5_brc3_bn -> L2_b5_brc3_bn_top
I1206 09:11:00.303450 23310 net.cpp:150] Setting up L2_b5_brc3_bn
I1206 09:11:00.303463 23310 net.cpp:157] Top shape: 85 64 16 16 (1392640)
I1206 09:11:00.303469 23310 net.cpp:165] Memory required for data: 1694495740
I1206 09:11:00.303479 23310 layer_factory.hpp:77] Creating layer L2_b5_brc3_relu
I1206 09:11:00.303491 23310 net.cpp:100] Creating Layer L2_b5_brc3_relu
I1206 09:11:00.303498 23310 net.cpp:434] L2_b5_brc3_relu <- L2_b5_brc3_bn_top
I1206 09:11:00.303505 23310 net.cpp:395] L2_b5_brc3_relu -> L2_b5_brc3_bn_top (in-place)
I1206 09:11:00.303515 23310 net.cpp:150] Setting up L2_b5_brc3_relu
I1206 09:11:00.303522 23310 net.cpp:157] Top shape: 85 64 16 16 (1392640)
I1206 09:11:00.303527 23310 net.cpp:165] Memory required for data: 1700066300
I1206 09:11:00.303532 23310 layer_factory.hpp:77] Creating layer L2_b5_brc3_conv
I1206 09:11:00.303544 23310 net.cpp:100] Creating Layer L2_b5_brc3_conv
I1206 09:11:00.303548 23310 net.cpp:434] L2_b5_brc3_conv <- L2_b5_brc3_bn_top
I1206 09:11:00.303560 23310 net.cpp:408] L2_b5_brc3_conv -> L2_b5_brc3_conv_top
I1206 09:11:00.304011 23310 net.cpp:150] Setting up L2_b5_brc3_conv
I1206 09:11:00.304028 23310 net.cpp:157] Top shape: 85 128 16 16 (2785280)
I1206 09:11:00.304033 23310 net.cpp:165] Memory required for data: 1711207420
I1206 09:11:00.304041 23310 layer_factory.hpp:77] Creating layer L2_b5_sum_eltwise
I1206 09:11:00.304050 23310 net.cpp:100] Creating Layer L2_b5_sum_eltwise
I1206 09:11:00.304057 23310 net.cpp:434] L2_b5_sum_eltwise <- L2_b5_brc3_conv_top
I1206 09:11:00.304064 23310 net.cpp:434] L2_b5_sum_eltwise <- L2_b4_sum_eltwise_top_L2_b4_sum_eltwise_0_split_1
I1206 09:11:00.304072 23310 net.cpp:408] L2_b5_sum_eltwise -> L2_b5_sum_eltwise_top
I1206 09:11:00.304103 23310 net.cpp:150] Setting up L2_b5_sum_eltwise
I1206 09:11:00.304113 23310 net.cpp:157] Top shape: 85 128 16 16 (2785280)
I1206 09:11:00.304117 23310 net.cpp:165] Memory required for data: 1722348540
I1206 09:11:00.304123 23310 layer_factory.hpp:77] Creating layer L2_b5_sum_eltwise_top_L2_b5_sum_eltwise_0_split
I1206 09:11:00.304131 23310 net.cpp:100] Creating Layer L2_b5_sum_eltwise_top_L2_b5_sum_eltwise_0_split
I1206 09:11:00.304136 23310 net.cpp:434] L2_b5_sum_eltwise_top_L2_b5_sum_eltwise_0_split <- L2_b5_sum_eltwise_top
I1206 09:11:00.304147 23310 net.cpp:408] L2_b5_sum_eltwise_top_L2_b5_sum_eltwise_0_split -> L2_b5_sum_eltwise_top_L2_b5_sum_eltwise_0_split_0
I1206 09:11:00.304157 23310 net.cpp:408] L2_b5_sum_eltwise_top_L2_b5_sum_eltwise_0_split -> L2_b5_sum_eltwise_top_L2_b5_sum_eltwise_0_split_1
I1206 09:11:00.304204 23310 net.cpp:150] Setting up L2_b5_sum_eltwise_top_L2_b5_sum_eltwise_0_split
I1206 09:11:00.304219 23310 net.cpp:157] Top shape: 85 128 16 16 (2785280)
I1206 09:11:00.304226 23310 net.cpp:157] Top shape: 85 128 16 16 (2785280)
I1206 09:11:00.304231 23310 net.cpp:165] Memory required for data: 1744630780
I1206 09:11:00.304236 23310 layer_factory.hpp:77] Creating layer L2_b6_brc1_bn
I1206 09:11:00.304245 23310 net.cpp:100] Creating Layer L2_b6_brc1_bn
I1206 09:11:00.304251 23310 net.cpp:434] L2_b6_brc1_bn <- L2_b5_sum_eltwise_top_L2_b5_sum_eltwise_0_split_0
I1206 09:11:00.304262 23310 net.cpp:408] L2_b6_brc1_bn -> L2_b6_brc1_bn_top
I1206 09:11:00.304498 23310 net.cpp:150] Setting up L2_b6_brc1_bn
I1206 09:11:00.304512 23310 net.cpp:157] Top shape: 85 128 16 16 (2785280)
I1206 09:11:00.304517 23310 net.cpp:165] Memory required for data: 1755771900
I1206 09:11:00.304527 23310 layer_factory.hpp:77] Creating layer L2_b6_brc1_relu
I1206 09:11:00.304555 23310 net.cpp:100] Creating Layer L2_b6_brc1_relu
I1206 09:11:00.304563 23310 net.cpp:434] L2_b6_brc1_relu <- L2_b6_brc1_bn_top
I1206 09:11:00.304570 23310 net.cpp:395] L2_b6_brc1_relu -> L2_b6_brc1_bn_top (in-place)
I1206 09:11:00.304580 23310 net.cpp:150] Setting up L2_b6_brc1_relu
I1206 09:11:00.304589 23310 net.cpp:157] Top shape: 85 128 16 16 (2785280)
I1206 09:11:00.304592 23310 net.cpp:165] Memory required for data: 1766913020
I1206 09:11:00.304599 23310 layer_factory.hpp:77] Creating layer L2_b6_brc1_conv
I1206 09:11:00.304613 23310 net.cpp:100] Creating Layer L2_b6_brc1_conv
I1206 09:11:00.304620 23310 net.cpp:434] L2_b6_brc1_conv <- L2_b6_brc1_bn_top
I1206 09:11:00.304633 23310 net.cpp:408] L2_b6_brc1_conv -> L2_b6_brc1_conv_top
I1206 09:11:00.305088 23310 net.cpp:150] Setting up L2_b6_brc1_conv
I1206 09:11:00.305102 23310 net.cpp:157] Top shape: 85 64 16 16 (1392640)
I1206 09:11:00.305107 23310 net.cpp:165] Memory required for data: 1772483580
I1206 09:11:00.305117 23310 layer_factory.hpp:77] Creating layer L2_b6_brc2_bn
I1206 09:11:00.305130 23310 net.cpp:100] Creating Layer L2_b6_brc2_bn
I1206 09:11:00.305136 23310 net.cpp:434] L2_b6_brc2_bn <- L2_b6_brc1_conv_top
I1206 09:11:00.305147 23310 net.cpp:408] L2_b6_brc2_bn -> L2_b6_brc2_bn_top
I1206 09:11:00.305393 23310 net.cpp:150] Setting up L2_b6_brc2_bn
I1206 09:11:00.305407 23310 net.cpp:157] Top shape: 85 64 16 16 (1392640)
I1206 09:11:00.305411 23310 net.cpp:165] Memory required for data: 1778054140
I1206 09:11:00.305421 23310 layer_factory.hpp:77] Creating layer L2_b6_brc2_relu
I1206 09:11:00.305430 23310 net.cpp:100] Creating Layer L2_b6_brc2_relu
I1206 09:11:00.305436 23310 net.cpp:434] L2_b6_brc2_relu <- L2_b6_brc2_bn_top
I1206 09:11:00.305444 23310 net.cpp:395] L2_b6_brc2_relu -> L2_b6_brc2_bn_top (in-place)
I1206 09:11:00.305454 23310 net.cpp:150] Setting up L2_b6_brc2_relu
I1206 09:11:00.305460 23310 net.cpp:157] Top shape: 85 64 16 16 (1392640)
I1206 09:11:00.305464 23310 net.cpp:165] Memory required for data: 1783624700
I1206 09:11:00.305470 23310 layer_factory.hpp:77] Creating layer L2_b6_brc2_conv
I1206 09:11:00.305486 23310 net.cpp:100] Creating Layer L2_b6_brc2_conv
I1206 09:11:00.305493 23310 net.cpp:434] L2_b6_brc2_conv <- L2_b6_brc2_bn_top
I1206 09:11:00.305505 23310 net.cpp:408] L2_b6_brc2_conv -> L2_b6_brc2_conv_top
I1206 09:11:00.305824 23310 net.cpp:150] Setting up L2_b6_brc2_conv
I1206 09:11:00.305840 23310 net.cpp:157] Top shape: 85 64 16 16 (1392640)
I1206 09:11:00.305845 23310 net.cpp:165] Memory required for data: 1789195260
I1206 09:11:00.305853 23310 layer_factory.hpp:77] Creating layer L2_b6_brc3_bn
I1206 09:11:00.305866 23310 net.cpp:100] Creating Layer L2_b6_brc3_bn
I1206 09:11:00.305872 23310 net.cpp:434] L2_b6_brc3_bn <- L2_b6_brc2_conv_top
I1206 09:11:00.305884 23310 net.cpp:408] L2_b6_brc3_bn -> L2_b6_brc3_bn_top
I1206 09:11:00.306131 23310 net.cpp:150] Setting up L2_b6_brc3_bn
I1206 09:11:00.306144 23310 net.cpp:157] Top shape: 85 64 16 16 (1392640)
I1206 09:11:00.306149 23310 net.cpp:165] Memory required for data: 1794765820
I1206 09:11:00.306160 23310 layer_factory.hpp:77] Creating layer L2_b6_brc3_relu
I1206 09:11:00.306169 23310 net.cpp:100] Creating Layer L2_b6_brc3_relu
I1206 09:11:00.306175 23310 net.cpp:434] L2_b6_brc3_relu <- L2_b6_brc3_bn_top
I1206 09:11:00.306182 23310 net.cpp:395] L2_b6_brc3_relu -> L2_b6_brc3_bn_top (in-place)
I1206 09:11:00.306192 23310 net.cpp:150] Setting up L2_b6_brc3_relu
I1206 09:11:00.306200 23310 net.cpp:157] Top shape: 85 64 16 16 (1392640)
I1206 09:11:00.306203 23310 net.cpp:165] Memory required for data: 1800336380
I1206 09:11:00.306208 23310 layer_factory.hpp:77] Creating layer L2_b6_brc3_conv
I1206 09:11:00.306223 23310 net.cpp:100] Creating Layer L2_b6_brc3_conv
I1206 09:11:00.306229 23310 net.cpp:434] L2_b6_brc3_conv <- L2_b6_brc3_bn_top
I1206 09:11:00.306237 23310 net.cpp:408] L2_b6_brc3_conv -> L2_b6_brc3_conv_top
I1206 09:11:00.306679 23310 net.cpp:150] Setting up L2_b6_brc3_conv
I1206 09:11:00.306694 23310 net.cpp:157] Top shape: 85 128 16 16 (2785280)
I1206 09:11:00.306707 23310 net.cpp:165] Memory required for data: 1811477500
I1206 09:11:00.306722 23310 layer_factory.hpp:77] Creating layer L2_b6_sum_eltwise
I1206 09:11:00.306733 23310 net.cpp:100] Creating Layer L2_b6_sum_eltwise
I1206 09:11:00.306740 23310 net.cpp:434] L2_b6_sum_eltwise <- L2_b6_brc3_conv_top
I1206 09:11:00.306747 23310 net.cpp:434] L2_b6_sum_eltwise <- L2_b5_sum_eltwise_top_L2_b5_sum_eltwise_0_split_1
I1206 09:11:00.306759 23310 net.cpp:408] L2_b6_sum_eltwise -> L2_b6_sum_eltwise_top
I1206 09:11:00.306787 23310 net.cpp:150] Setting up L2_b6_sum_eltwise
I1206 09:11:00.306802 23310 net.cpp:157] Top shape: 85 128 16 16 (2785280)
I1206 09:11:00.306807 23310 net.cpp:165] Memory required for data: 1822618620
I1206 09:11:00.306813 23310 layer_factory.hpp:77] Creating layer L2_b6_sum_eltwise_top_L2_b6_sum_eltwise_0_split
I1206 09:11:00.306819 23310 net.cpp:100] Creating Layer L2_b6_sum_eltwise_top_L2_b6_sum_eltwise_0_split
I1206 09:11:00.306825 23310 net.cpp:434] L2_b6_sum_eltwise_top_L2_b6_sum_eltwise_0_split <- L2_b6_sum_eltwise_top
I1206 09:11:00.306833 23310 net.cpp:408] L2_b6_sum_eltwise_top_L2_b6_sum_eltwise_0_split -> L2_b6_sum_eltwise_top_L2_b6_sum_eltwise_0_split_0
I1206 09:11:00.306843 23310 net.cpp:408] L2_b6_sum_eltwise_top_L2_b6_sum_eltwise_0_split -> L2_b6_sum_eltwise_top_L2_b6_sum_eltwise_0_split_1
I1206 09:11:00.306892 23310 net.cpp:150] Setting up L2_b6_sum_eltwise_top_L2_b6_sum_eltwise_0_split
I1206 09:11:00.306905 23310 net.cpp:157] Top shape: 85 128 16 16 (2785280)
I1206 09:11:00.306911 23310 net.cpp:157] Top shape: 85 128 16 16 (2785280)
I1206 09:11:00.306916 23310 net.cpp:165] Memory required for data: 1844900860
I1206 09:11:00.306921 23310 layer_factory.hpp:77] Creating layer L3_b1_brc1_bn
I1206 09:11:00.306934 23310 net.cpp:100] Creating Layer L3_b1_brc1_bn
I1206 09:11:00.306941 23310 net.cpp:434] L3_b1_brc1_bn <- L2_b6_sum_eltwise_top_L2_b6_sum_eltwise_0_split_0
I1206 09:11:00.306949 23310 net.cpp:408] L3_b1_brc1_bn -> L3_b1_brc1_bn_top
I1206 09:11:00.307185 23310 net.cpp:150] Setting up L3_b1_brc1_bn
I1206 09:11:00.307199 23310 net.cpp:157] Top shape: 85 128 16 16 (2785280)
I1206 09:11:00.307204 23310 net.cpp:165] Memory required for data: 1856041980
I1206 09:11:00.307214 23310 layer_factory.hpp:77] Creating layer L3_b1_brc1_relu
I1206 09:11:00.307225 23310 net.cpp:100] Creating Layer L3_b1_brc1_relu
I1206 09:11:00.307232 23310 net.cpp:434] L3_b1_brc1_relu <- L3_b1_brc1_bn_top
I1206 09:11:00.307240 23310 net.cpp:395] L3_b1_brc1_relu -> L3_b1_brc1_bn_top (in-place)
I1206 09:11:00.307250 23310 net.cpp:150] Setting up L3_b1_brc1_relu
I1206 09:11:00.307256 23310 net.cpp:157] Top shape: 85 128 16 16 (2785280)
I1206 09:11:00.307261 23310 net.cpp:165] Memory required for data: 1867183100
I1206 09:11:00.307266 23310 layer_factory.hpp:77] Creating layer L3_b1_brc1_conv
I1206 09:11:00.307277 23310 net.cpp:100] Creating Layer L3_b1_brc1_conv
I1206 09:11:00.307283 23310 net.cpp:434] L3_b1_brc1_conv <- L3_b1_brc1_bn_top
I1206 09:11:00.307296 23310 net.cpp:408] L3_b1_brc1_conv -> L3_b1_brc1_conv_top
I1206 09:11:00.307914 23310 net.cpp:150] Setting up L3_b1_brc1_conv
I1206 09:11:00.307929 23310 net.cpp:157] Top shape: 85 128 8 8 (696320)
I1206 09:11:00.307934 23310 net.cpp:165] Memory required for data: 1869968380
I1206 09:11:00.307943 23310 layer_factory.hpp:77] Creating layer L3_b1_brc2_bn
I1206 09:11:00.307952 23310 net.cpp:100] Creating Layer L3_b1_brc2_bn
I1206 09:11:00.307958 23310 net.cpp:434] L3_b1_brc2_bn <- L3_b1_brc1_conv_top
I1206 09:11:00.307966 23310 net.cpp:408] L3_b1_brc2_bn -> L3_b1_brc2_bn_top
I1206 09:11:00.308219 23310 net.cpp:150] Setting up L3_b1_brc2_bn
I1206 09:11:00.308233 23310 net.cpp:157] Top shape: 85 128 8 8 (696320)
I1206 09:11:00.308238 23310 net.cpp:165] Memory required for data: 1872753660
I1206 09:11:00.308248 23310 layer_factory.hpp:77] Creating layer L3_b1_brc2_relu
I1206 09:11:00.308256 23310 net.cpp:100] Creating Layer L3_b1_brc2_relu
I1206 09:11:00.308262 23310 net.cpp:434] L3_b1_brc2_relu <- L3_b1_brc2_bn_top
I1206 09:11:00.308275 23310 net.cpp:395] L3_b1_brc2_relu -> L3_b1_brc2_bn_top (in-place)
I1206 09:11:00.308293 23310 net.cpp:150] Setting up L3_b1_brc2_relu
I1206 09:11:00.308301 23310 net.cpp:157] Top shape: 85 128 8 8 (696320)
I1206 09:11:00.308305 23310 net.cpp:165] Memory required for data: 1875538940
I1206 09:11:00.308310 23310 layer_factory.hpp:77] Creating layer L3_b1_brc2_conv
I1206 09:11:00.308326 23310 net.cpp:100] Creating Layer L3_b1_brc2_conv
I1206 09:11:00.308331 23310 net.cpp:434] L3_b1_brc2_conv <- L3_b1_brc2_bn_top
I1206 09:11:00.308339 23310 net.cpp:408] L3_b1_brc2_conv -> L3_b1_brc2_conv_top
I1206 09:11:00.308722 23310 net.cpp:150] Setting up L3_b1_brc2_conv
I1206 09:11:00.308737 23310 net.cpp:157] Top shape: 85 128 8 8 (696320)
I1206 09:11:00.308743 23310 net.cpp:165] Memory required for data: 1878324220
I1206 09:11:00.308751 23310 layer_factory.hpp:77] Creating layer L3_b1_brc3_bn
I1206 09:11:00.308764 23310 net.cpp:100] Creating Layer L3_b1_brc3_bn
I1206 09:11:00.308771 23310 net.cpp:434] L3_b1_brc3_bn <- L3_b1_brc2_conv_top
I1206 09:11:00.308779 23310 net.cpp:408] L3_b1_brc3_bn -> L3_b1_brc3_bn_top
I1206 09:11:00.309027 23310 net.cpp:150] Setting up L3_b1_brc3_bn
I1206 09:11:00.309041 23310 net.cpp:157] Top shape: 85 128 8 8 (696320)
I1206 09:11:00.309046 23310 net.cpp:165] Memory required for data: 1881109500
I1206 09:11:00.309056 23310 layer_factory.hpp:77] Creating layer L3_b1_brc3_relu
I1206 09:11:00.309064 23310 net.cpp:100] Creating Layer L3_b1_brc3_relu
I1206 09:11:00.309070 23310 net.cpp:434] L3_b1_brc3_relu <- L3_b1_brc3_bn_top
I1206 09:11:00.309077 23310 net.cpp:395] L3_b1_brc3_relu -> L3_b1_brc3_bn_top (in-place)
I1206 09:11:00.309087 23310 net.cpp:150] Setting up L3_b1_brc3_relu
I1206 09:11:00.309093 23310 net.cpp:157] Top shape: 85 128 8 8 (696320)
I1206 09:11:00.309098 23310 net.cpp:165] Memory required for data: 1883894780
I1206 09:11:00.309103 23310 layer_factory.hpp:77] Creating layer L3_b1_brc3_conv
I1206 09:11:00.309118 23310 net.cpp:100] Creating Layer L3_b1_brc3_conv
I1206 09:11:00.309124 23310 net.cpp:434] L3_b1_brc3_conv <- L3_b1_brc3_bn_top
I1206 09:11:00.309136 23310 net.cpp:408] L3_b1_brc3_conv -> L3_b1_brc3_conv_top
I1206 09:11:00.311367 23310 net.cpp:150] Setting up L3_b1_brc3_conv
I1206 09:11:00.311388 23310 net.cpp:157] Top shape: 85 256 8 8 (1392640)
I1206 09:11:00.311393 23310 net.cpp:165] Memory required for data: 1889465340
I1206 09:11:00.311403 23310 layer_factory.hpp:77] Creating layer L3_b1_chanInc_conv
I1206 09:11:00.311416 23310 net.cpp:100] Creating Layer L3_b1_chanInc_conv
I1206 09:11:00.311424 23310 net.cpp:434] L3_b1_chanInc_conv <- L2_b6_sum_eltwise_top_L2_b6_sum_eltwise_0_split_1
I1206 09:11:00.311436 23310 net.cpp:408] L3_b1_chanInc_conv -> L3_b1_chanInc_conv_top
I1206 09:11:00.312381 23310 net.cpp:150] Setting up L3_b1_chanInc_conv
I1206 09:11:00.312397 23310 net.cpp:157] Top shape: 85 256 8 8 (1392640)
I1206 09:11:00.312403 23310 net.cpp:165] Memory required for data: 1895035900
I1206 09:11:00.312412 23310 layer_factory.hpp:77] Creating layer L3_b1_sum_eltwise
I1206 09:11:00.312422 23310 net.cpp:100] Creating Layer L3_b1_sum_eltwise
I1206 09:11:00.312428 23310 net.cpp:434] L3_b1_sum_eltwise <- L3_b1_brc3_conv_top
I1206 09:11:00.312435 23310 net.cpp:434] L3_b1_sum_eltwise <- L3_b1_chanInc_conv_top
I1206 09:11:00.312448 23310 net.cpp:408] L3_b1_sum_eltwise -> L3_b1_sum_eltwise_top
I1206 09:11:00.312481 23310 net.cpp:150] Setting up L3_b1_sum_eltwise
I1206 09:11:00.312497 23310 net.cpp:157] Top shape: 85 256 8 8 (1392640)
I1206 09:11:00.312502 23310 net.cpp:165] Memory required for data: 1900606460
I1206 09:11:00.312508 23310 layer_factory.hpp:77] Creating layer L3_b1_sum_eltwise_top_L3_b1_sum_eltwise_0_split
I1206 09:11:00.312516 23310 net.cpp:100] Creating Layer L3_b1_sum_eltwise_top_L3_b1_sum_eltwise_0_split
I1206 09:11:00.312522 23310 net.cpp:434] L3_b1_sum_eltwise_top_L3_b1_sum_eltwise_0_split <- L3_b1_sum_eltwise_top
I1206 09:11:00.312530 23310 net.cpp:408] L3_b1_sum_eltwise_top_L3_b1_sum_eltwise_0_split -> L3_b1_sum_eltwise_top_L3_b1_sum_eltwise_0_split_0
I1206 09:11:00.312539 23310 net.cpp:408] L3_b1_sum_eltwise_top_L3_b1_sum_eltwise_0_split -> L3_b1_sum_eltwise_top_L3_b1_sum_eltwise_0_split_1
I1206 09:11:00.312602 23310 net.cpp:150] Setting up L3_b1_sum_eltwise_top_L3_b1_sum_eltwise_0_split
I1206 09:11:00.312614 23310 net.cpp:157] Top shape: 85 256 8 8 (1392640)
I1206 09:11:00.312621 23310 net.cpp:157] Top shape: 85 256 8 8 (1392640)
I1206 09:11:00.312625 23310 net.cpp:165] Memory required for data: 1911747580
I1206 09:11:00.312631 23310 layer_factory.hpp:77] Creating layer L3_b2_brc1_bn
I1206 09:11:00.312644 23310 net.cpp:100] Creating Layer L3_b2_brc1_bn
I1206 09:11:00.312649 23310 net.cpp:434] L3_b2_brc1_bn <- L3_b1_sum_eltwise_top_L3_b1_sum_eltwise_0_split_0
I1206 09:11:00.312657 23310 net.cpp:408] L3_b2_brc1_bn -> L3_b2_brc1_bn_top
I1206 09:11:00.312901 23310 net.cpp:150] Setting up L3_b2_brc1_bn
I1206 09:11:00.312918 23310 net.cpp:157] Top shape: 85 256 8 8 (1392640)
I1206 09:11:00.312924 23310 net.cpp:165] Memory required for data: 1917318140
I1206 09:11:00.312935 23310 layer_factory.hpp:77] Creating layer L3_b2_brc1_relu
I1206 09:11:00.312944 23310 net.cpp:100] Creating Layer L3_b2_brc1_relu
I1206 09:11:00.312950 23310 net.cpp:434] L3_b2_brc1_relu <- L3_b2_brc1_bn_top
I1206 09:11:00.312958 23310 net.cpp:395] L3_b2_brc1_relu -> L3_b2_brc1_bn_top (in-place)
I1206 09:11:00.312968 23310 net.cpp:150] Setting up L3_b2_brc1_relu
I1206 09:11:00.312974 23310 net.cpp:157] Top shape: 85 256 8 8 (1392640)
I1206 09:11:00.312979 23310 net.cpp:165] Memory required for data: 1922888700
I1206 09:11:00.312984 23310 layer_factory.hpp:77] Creating layer L3_b2_brc1_conv
I1206 09:11:00.312995 23310 net.cpp:100] Creating Layer L3_b2_brc1_conv
I1206 09:11:00.313001 23310 net.cpp:434] L3_b2_brc1_conv <- L3_b2_brc1_bn_top
I1206 09:11:00.313014 23310 net.cpp:408] L3_b2_brc1_conv -> L3_b2_brc1_conv_top
I1206 09:11:00.313963 23310 net.cpp:150] Setting up L3_b2_brc1_conv
I1206 09:11:00.313983 23310 net.cpp:157] Top shape: 85 128 8 8 (696320)
I1206 09:11:00.313989 23310 net.cpp:165] Memory required for data: 1925673980
I1206 09:11:00.313998 23310 layer_factory.hpp:77] Creating layer L3_b2_brc2_bn
I1206 09:11:00.314007 23310 net.cpp:100] Creating Layer L3_b2_brc2_bn
I1206 09:11:00.314014 23310 net.cpp:434] L3_b2_brc2_bn <- L3_b2_brc1_conv_top
I1206 09:11:00.314028 23310 net.cpp:408] L3_b2_brc2_bn -> L3_b2_brc2_bn_top
I1206 09:11:00.314278 23310 net.cpp:150] Setting up L3_b2_brc2_bn
I1206 09:11:00.314291 23310 net.cpp:157] Top shape: 85 128 8 8 (696320)
I1206 09:11:00.314296 23310 net.cpp:165] Memory required for data: 1928459260
I1206 09:11:00.314306 23310 layer_factory.hpp:77] Creating layer L3_b2_brc2_relu
I1206 09:11:00.314316 23310 net.cpp:100] Creating Layer L3_b2_brc2_relu
I1206 09:11:00.314321 23310 net.cpp:434] L3_b2_brc2_relu <- L3_b2_brc2_bn_top
I1206 09:11:00.314332 23310 net.cpp:395] L3_b2_brc2_relu -> L3_b2_brc2_bn_top (in-place)
I1206 09:11:00.314343 23310 net.cpp:150] Setting up L3_b2_brc2_relu
I1206 09:11:00.314350 23310 net.cpp:157] Top shape: 85 128 8 8 (696320)
I1206 09:11:00.314354 23310 net.cpp:165] Memory required for data: 1931244540
I1206 09:11:00.314360 23310 layer_factory.hpp:77] Creating layer L3_b2_brc2_conv
I1206 09:11:00.314371 23310 net.cpp:100] Creating Layer L3_b2_brc2_conv
I1206 09:11:00.314378 23310 net.cpp:434] L3_b2_brc2_conv <- L3_b2_brc2_bn_top
I1206 09:11:00.314385 23310 net.cpp:408] L3_b2_brc2_conv -> L3_b2_brc2_conv_top
I1206 09:11:00.314781 23310 net.cpp:150] Setting up L3_b2_brc2_conv
I1206 09:11:00.314796 23310 net.cpp:157] Top shape: 85 128 8 8 (696320)
I1206 09:11:00.314801 23310 net.cpp:165] Memory required for data: 1934029820
I1206 09:11:00.314811 23310 layer_factory.hpp:77] Creating layer L3_b2_brc3_bn
I1206 09:11:00.314824 23310 net.cpp:100] Creating Layer L3_b2_brc3_bn
I1206 09:11:00.314831 23310 net.cpp:434] L3_b2_brc3_bn <- L3_b2_brc2_conv_top
I1206 09:11:00.314839 23310 net.cpp:408] L3_b2_brc3_bn -> L3_b2_brc3_bn_top
I1206 09:11:00.315088 23310 net.cpp:150] Setting up L3_b2_brc3_bn
I1206 09:11:00.315100 23310 net.cpp:157] Top shape: 85 128 8 8 (696320)
I1206 09:11:00.315105 23310 net.cpp:165] Memory required for data: 1936815100
I1206 09:11:00.315124 23310 layer_factory.hpp:77] Creating layer L3_b2_brc3_relu
I1206 09:11:00.315134 23310 net.cpp:100] Creating Layer L3_b2_brc3_relu
I1206 09:11:00.315140 23310 net.cpp:434] L3_b2_brc3_relu <- L3_b2_brc3_bn_top
I1206 09:11:00.315146 23310 net.cpp:395] L3_b2_brc3_relu -> L3_b2_brc3_bn_top (in-place)
I1206 09:11:00.315156 23310 net.cpp:150] Setting up L3_b2_brc3_relu
I1206 09:11:00.315163 23310 net.cpp:157] Top shape: 85 128 8 8 (696320)
I1206 09:11:00.315168 23310 net.cpp:165] Memory required for data: 1939600380
I1206 09:11:00.315173 23310 layer_factory.hpp:77] Creating layer L3_b2_brc3_conv
I1206 09:11:00.315188 23310 net.cpp:100] Creating Layer L3_b2_brc3_conv
I1206 09:11:00.315194 23310 net.cpp:434] L3_b2_brc3_conv <- L3_b2_brc3_bn_top
I1206 09:11:00.315207 23310 net.cpp:408] L3_b2_brc3_conv -> L3_b2_brc3_conv_top
I1206 09:11:00.316154 23310 net.cpp:150] Setting up L3_b2_brc3_conv
I1206 09:11:00.316169 23310 net.cpp:157] Top shape: 85 256 8 8 (1392640)
I1206 09:11:00.316175 23310 net.cpp:165] Memory required for data: 1945170940
I1206 09:11:00.316184 23310 layer_factory.hpp:77] Creating layer L3_b2_sum_eltwise
I1206 09:11:00.316198 23310 net.cpp:100] Creating Layer L3_b2_sum_eltwise
I1206 09:11:00.316205 23310 net.cpp:434] L3_b2_sum_eltwise <- L3_b2_brc3_conv_top
I1206 09:11:00.316212 23310 net.cpp:434] L3_b2_sum_eltwise <- L3_b1_sum_eltwise_top_L3_b1_sum_eltwise_0_split_1
I1206 09:11:00.316224 23310 net.cpp:408] L3_b2_sum_eltwise -> L3_b2_sum_eltwise_top
I1206 09:11:00.316257 23310 net.cpp:150] Setting up L3_b2_sum_eltwise
I1206 09:11:00.316269 23310 net.cpp:157] Top shape: 85 256 8 8 (1392640)
I1206 09:11:00.316274 23310 net.cpp:165] Memory required for data: 1950741500
I1206 09:11:00.316279 23310 layer_factory.hpp:77] Creating layer L3_b2_sum_eltwise_top_L3_b2_sum_eltwise_0_split
I1206 09:11:00.316293 23310 net.cpp:100] Creating Layer L3_b2_sum_eltwise_top_L3_b2_sum_eltwise_0_split
I1206 09:11:00.316298 23310 net.cpp:434] L3_b2_sum_eltwise_top_L3_b2_sum_eltwise_0_split <- L3_b2_sum_eltwise_top
I1206 09:11:00.316306 23310 net.cpp:408] L3_b2_sum_eltwise_top_L3_b2_sum_eltwise_0_split -> L3_b2_sum_eltwise_top_L3_b2_sum_eltwise_0_split_0
I1206 09:11:00.316316 23310 net.cpp:408] L3_b2_sum_eltwise_top_L3_b2_sum_eltwise_0_split -> L3_b2_sum_eltwise_top_L3_b2_sum_eltwise_0_split_1
I1206 09:11:00.316366 23310 net.cpp:150] Setting up L3_b2_sum_eltwise_top_L3_b2_sum_eltwise_0_split
I1206 09:11:00.316378 23310 net.cpp:157] Top shape: 85 256 8 8 (1392640)
I1206 09:11:00.316385 23310 net.cpp:157] Top shape: 85 256 8 8 (1392640)
I1206 09:11:00.316390 23310 net.cpp:165] Memory required for data: 1961882620
I1206 09:11:00.316395 23310 layer_factory.hpp:77] Creating layer L3_b3_brc1_bn
I1206 09:11:00.316407 23310 net.cpp:100] Creating Layer L3_b3_brc1_bn
I1206 09:11:00.316413 23310 net.cpp:434] L3_b3_brc1_bn <- L3_b2_sum_eltwise_top_L3_b2_sum_eltwise_0_split_0
I1206 09:11:00.316421 23310 net.cpp:408] L3_b3_brc1_bn -> L3_b3_brc1_bn_top
I1206 09:11:00.316659 23310 net.cpp:150] Setting up L3_b3_brc1_bn
I1206 09:11:00.316673 23310 net.cpp:157] Top shape: 85 256 8 8 (1392640)
I1206 09:11:00.316679 23310 net.cpp:165] Memory required for data: 1967453180
I1206 09:11:00.316689 23310 layer_factory.hpp:77] Creating layer L3_b3_brc1_relu
I1206 09:11:00.316697 23310 net.cpp:100] Creating Layer L3_b3_brc1_relu
I1206 09:11:00.316704 23310 net.cpp:434] L3_b3_brc1_relu <- L3_b3_brc1_bn_top
I1206 09:11:00.316710 23310 net.cpp:395] L3_b3_brc1_relu -> L3_b3_brc1_bn_top (in-place)
I1206 09:11:00.316727 23310 net.cpp:150] Setting up L3_b3_brc1_relu
I1206 09:11:00.316735 23310 net.cpp:157] Top shape: 85 256 8 8 (1392640)
I1206 09:11:00.316740 23310 net.cpp:165] Memory required for data: 1973023740
I1206 09:11:00.316745 23310 layer_factory.hpp:77] Creating layer L3_b3_brc1_conv
I1206 09:11:00.316761 23310 net.cpp:100] Creating Layer L3_b3_brc1_conv
I1206 09:11:00.316766 23310 net.cpp:434] L3_b3_brc1_conv <- L3_b3_brc1_bn_top
I1206 09:11:00.316778 23310 net.cpp:408] L3_b3_brc1_conv -> L3_b3_brc1_conv_top
I1206 09:11:00.317756 23310 net.cpp:150] Setting up L3_b3_brc1_conv
I1206 09:11:00.317772 23310 net.cpp:157] Top shape: 85 128 8 8 (696320)
I1206 09:11:00.317777 23310 net.cpp:165] Memory required for data: 1975809020
I1206 09:11:00.317787 23310 layer_factory.hpp:77] Creating layer L3_b3_brc2_bn
I1206 09:11:00.317800 23310 net.cpp:100] Creating Layer L3_b3_brc2_bn
I1206 09:11:00.317806 23310 net.cpp:434] L3_b3_brc2_bn <- L3_b3_brc1_conv_top
I1206 09:11:00.317818 23310 net.cpp:408] L3_b3_brc2_bn -> L3_b3_brc2_bn_top
I1206 09:11:00.318064 23310 net.cpp:150] Setting up L3_b3_brc2_bn
I1206 09:11:00.318078 23310 net.cpp:157] Top shape: 85 128 8 8 (696320)
I1206 09:11:00.318084 23310 net.cpp:165] Memory required for data: 1978594300
I1206 09:11:00.318094 23310 layer_factory.hpp:77] Creating layer L3_b3_brc2_relu
I1206 09:11:00.318102 23310 net.cpp:100] Creating Layer L3_b3_brc2_relu
I1206 09:11:00.318109 23310 net.cpp:434] L3_b3_brc2_relu <- L3_b3_brc2_bn_top
I1206 09:11:00.318116 23310 net.cpp:395] L3_b3_brc2_relu -> L3_b3_brc2_bn_top (in-place)
I1206 09:11:00.318126 23310 net.cpp:150] Setting up L3_b3_brc2_relu
I1206 09:11:00.318133 23310 net.cpp:157] Top shape: 85 128 8 8 (696320)
I1206 09:11:00.318138 23310 net.cpp:165] Memory required for data: 1981379580
I1206 09:11:00.318143 23310 layer_factory.hpp:77] Creating layer L3_b3_brc2_conv
I1206 09:11:00.318158 23310 net.cpp:100] Creating Layer L3_b3_brc2_conv
I1206 09:11:00.318166 23310 net.cpp:434] L3_b3_brc2_conv <- L3_b3_brc2_bn_top
I1206 09:11:00.318177 23310 net.cpp:408] L3_b3_brc2_conv -> L3_b3_brc2_conv_top
I1206 09:11:00.318564 23310 net.cpp:150] Setting up L3_b3_brc2_conv
I1206 09:11:00.318579 23310 net.cpp:157] Top shape: 85 128 8 8 (696320)
I1206 09:11:00.318584 23310 net.cpp:165] Memory required for data: 1984164860
I1206 09:11:00.318593 23310 layer_factory.hpp:77] Creating layer L3_b3_brc3_bn
I1206 09:11:00.318606 23310 net.cpp:100] Creating Layer L3_b3_brc3_bn
I1206 09:11:00.318612 23310 net.cpp:434] L3_b3_brc3_bn <- L3_b3_brc2_conv_top
I1206 09:11:00.318620 23310 net.cpp:408] L3_b3_brc3_bn -> L3_b3_brc3_bn_top
I1206 09:11:00.318881 23310 net.cpp:150] Setting up L3_b3_brc3_bn
I1206 09:11:00.318898 23310 net.cpp:157] Top shape: 85 128 8 8 (696320)
I1206 09:11:00.318904 23310 net.cpp:165] Memory required for data: 1986950140
I1206 09:11:00.318914 23310 layer_factory.hpp:77] Creating layer L3_b3_brc3_relu
I1206 09:11:00.318923 23310 net.cpp:100] Creating Layer L3_b3_brc3_relu
I1206 09:11:00.318929 23310 net.cpp:434] L3_b3_brc3_relu <- L3_b3_brc3_bn_top
I1206 09:11:00.318936 23310 net.cpp:395] L3_b3_brc3_relu -> L3_b3_brc3_bn_top (in-place)
I1206 09:11:00.318946 23310 net.cpp:150] Setting up L3_b3_brc3_relu
I1206 09:11:00.318953 23310 net.cpp:157] Top shape: 85 128 8 8 (696320)
I1206 09:11:00.318958 23310 net.cpp:165] Memory required for data: 1989735420
I1206 09:11:00.318964 23310 layer_factory.hpp:77] Creating layer L3_b3_brc3_conv
I1206 09:11:00.318974 23310 net.cpp:100] Creating Layer L3_b3_brc3_conv
I1206 09:11:00.318980 23310 net.cpp:434] L3_b3_brc3_conv <- L3_b3_brc3_bn_top
I1206 09:11:00.318992 23310 net.cpp:408] L3_b3_brc3_conv -> L3_b3_brc3_conv_top
I1206 09:11:00.319929 23310 net.cpp:150] Setting up L3_b3_brc3_conv
I1206 09:11:00.319946 23310 net.cpp:157] Top shape: 85 256 8 8 (1392640)
I1206 09:11:00.319950 23310 net.cpp:165] Memory required for data: 1995305980
I1206 09:11:00.319959 23310 layer_factory.hpp:77] Creating layer L3_b3_sum_eltwise
I1206 09:11:00.319970 23310 net.cpp:100] Creating Layer L3_b3_sum_eltwise
I1206 09:11:00.319977 23310 net.cpp:434] L3_b3_sum_eltwise <- L3_b3_brc3_conv_top
I1206 09:11:00.319984 23310 net.cpp:434] L3_b3_sum_eltwise <- L3_b2_sum_eltwise_top_L3_b2_sum_eltwise_0_split_1
I1206 09:11:00.319999 23310 net.cpp:408] L3_b3_sum_eltwise -> L3_b3_sum_eltwise_top
I1206 09:11:00.320034 23310 net.cpp:150] Setting up L3_b3_sum_eltwise
I1206 09:11:00.320046 23310 net.cpp:157] Top shape: 85 256 8 8 (1392640)
I1206 09:11:00.320051 23310 net.cpp:165] Memory required for data: 2000876540
I1206 09:11:00.320056 23310 layer_factory.hpp:77] Creating layer L3_b3_sum_eltwise_top_L3_b3_sum_eltwise_0_split
I1206 09:11:00.320076 23310 net.cpp:100] Creating Layer L3_b3_sum_eltwise_top_L3_b3_sum_eltwise_0_split
I1206 09:11:00.320083 23310 net.cpp:434] L3_b3_sum_eltwise_top_L3_b3_sum_eltwise_0_split <- L3_b3_sum_eltwise_top
I1206 09:11:00.320091 23310 net.cpp:408] L3_b3_sum_eltwise_top_L3_b3_sum_eltwise_0_split -> L3_b3_sum_eltwise_top_L3_b3_sum_eltwise_0_split_0
I1206 09:11:00.320101 23310 net.cpp:408] L3_b3_sum_eltwise_top_L3_b3_sum_eltwise_0_split -> L3_b3_sum_eltwise_top_L3_b3_sum_eltwise_0_split_1
I1206 09:11:00.320153 23310 net.cpp:150] Setting up L3_b3_sum_eltwise_top_L3_b3_sum_eltwise_0_split
I1206 09:11:00.320166 23310 net.cpp:157] Top shape: 85 256 8 8 (1392640)
I1206 09:11:00.320173 23310 net.cpp:157] Top shape: 85 256 8 8 (1392640)
I1206 09:11:00.320178 23310 net.cpp:165] Memory required for data: 2012017660
I1206 09:11:00.320183 23310 layer_factory.hpp:77] Creating layer L3_b4_brc1_bn
I1206 09:11:00.320195 23310 net.cpp:100] Creating Layer L3_b4_brc1_bn
I1206 09:11:00.320201 23310 net.cpp:434] L3_b4_brc1_bn <- L3_b3_sum_eltwise_top_L3_b3_sum_eltwise_0_split_0
I1206 09:11:00.320209 23310 net.cpp:408] L3_b4_brc1_bn -> L3_b4_brc1_bn_top
I1206 09:11:00.320453 23310 net.cpp:150] Setting up L3_b4_brc1_bn
I1206 09:11:00.320471 23310 net.cpp:157] Top shape: 85 256 8 8 (1392640)
I1206 09:11:00.320475 23310 net.cpp:165] Memory required for data: 2017588220
I1206 09:11:00.320487 23310 layer_factory.hpp:77] Creating layer L3_b4_brc1_relu
I1206 09:11:00.320494 23310 net.cpp:100] Creating Layer L3_b4_brc1_relu
I1206 09:11:00.320500 23310 net.cpp:434] L3_b4_brc1_relu <- L3_b4_brc1_bn_top
I1206 09:11:00.320508 23310 net.cpp:395] L3_b4_brc1_relu -> L3_b4_brc1_bn_top (in-place)
I1206 09:11:00.320518 23310 net.cpp:150] Setting up L3_b4_brc1_relu
I1206 09:11:00.320525 23310 net.cpp:157] Top shape: 85 256 8 8 (1392640)
I1206 09:11:00.320530 23310 net.cpp:165] Memory required for data: 2023158780
I1206 09:11:00.320534 23310 layer_factory.hpp:77] Creating layer L3_b4_brc1_conv
I1206 09:11:00.320546 23310 net.cpp:100] Creating Layer L3_b4_brc1_conv
I1206 09:11:00.320551 23310 net.cpp:434] L3_b4_brc1_conv <- L3_b4_brc1_bn_top
I1206 09:11:00.320564 23310 net.cpp:408] L3_b4_brc1_conv -> L3_b4_brc1_conv_top
I1206 09:11:00.321501 23310 net.cpp:150] Setting up L3_b4_brc1_conv
I1206 09:11:00.321516 23310 net.cpp:157] Top shape: 85 128 8 8 (696320)
I1206 09:11:00.321521 23310 net.cpp:165] Memory required for data: 2025944060
I1206 09:11:00.321530 23310 layer_factory.hpp:77] Creating layer L3_b4_brc2_bn
I1206 09:11:00.321539 23310 net.cpp:100] Creating Layer L3_b4_brc2_bn
I1206 09:11:00.321547 23310 net.cpp:434] L3_b4_brc2_bn <- L3_b4_brc1_conv_top
I1206 09:11:00.321558 23310 net.cpp:408] L3_b4_brc2_bn -> L3_b4_brc2_bn_top
I1206 09:11:00.321815 23310 net.cpp:150] Setting up L3_b4_brc2_bn
I1206 09:11:00.321828 23310 net.cpp:157] Top shape: 85 128 8 8 (696320)
I1206 09:11:00.321835 23310 net.cpp:165] Memory required for data: 2028729340
I1206 09:11:00.321844 23310 layer_factory.hpp:77] Creating layer L3_b4_brc2_relu
I1206 09:11:00.321856 23310 net.cpp:100] Creating Layer L3_b4_brc2_relu
I1206 09:11:00.321863 23310 net.cpp:434] L3_b4_brc2_relu <- L3_b4_brc2_bn_top
I1206 09:11:00.321871 23310 net.cpp:395] L3_b4_brc2_relu -> L3_b4_brc2_bn_top (in-place)
I1206 09:11:00.321880 23310 net.cpp:150] Setting up L3_b4_brc2_relu
I1206 09:11:00.321887 23310 net.cpp:157] Top shape: 85 128 8 8 (696320)
I1206 09:11:00.321892 23310 net.cpp:165] Memory required for data: 2031514620
I1206 09:11:00.321897 23310 layer_factory.hpp:77] Creating layer L3_b4_brc2_conv
I1206 09:11:00.321908 23310 net.cpp:100] Creating Layer L3_b4_brc2_conv
I1206 09:11:00.321914 23310 net.cpp:434] L3_b4_brc2_conv <- L3_b4_brc2_bn_top
I1206 09:11:00.321926 23310 net.cpp:408] L3_b4_brc2_conv -> L3_b4_brc2_conv_top
I1206 09:11:00.322314 23310 net.cpp:150] Setting up L3_b4_brc2_conv
I1206 09:11:00.322327 23310 net.cpp:157] Top shape: 85 128 8 8 (696320)
I1206 09:11:00.322333 23310 net.cpp:165] Memory required for data: 2034299900
I1206 09:11:00.322350 23310 layer_factory.hpp:77] Creating layer L3_b4_brc3_bn
I1206 09:11:00.322360 23310 net.cpp:100] Creating Layer L3_b4_brc3_bn
I1206 09:11:00.322365 23310 net.cpp:434] L3_b4_brc3_bn <- L3_b4_brc2_conv_top
I1206 09:11:00.322373 23310 net.cpp:408] L3_b4_brc3_bn -> L3_b4_brc3_bn_top
I1206 09:11:00.322623 23310 net.cpp:150] Setting up L3_b4_brc3_bn
I1206 09:11:00.322636 23310 net.cpp:157] Top shape: 85 128 8 8 (696320)
I1206 09:11:00.322641 23310 net.cpp:165] Memory required for data: 2037085180
I1206 09:11:00.322652 23310 layer_factory.hpp:77] Creating layer L3_b4_brc3_relu
I1206 09:11:00.322660 23310 net.cpp:100] Creating Layer L3_b4_brc3_relu
I1206 09:11:00.322666 23310 net.cpp:434] L3_b4_brc3_relu <- L3_b4_brc3_bn_top
I1206 09:11:00.322677 23310 net.cpp:395] L3_b4_brc3_relu -> L3_b4_brc3_bn_top (in-place)
I1206 09:11:00.322688 23310 net.cpp:150] Setting up L3_b4_brc3_relu
I1206 09:11:00.322696 23310 net.cpp:157] Top shape: 85 128 8 8 (696320)
I1206 09:11:00.322700 23310 net.cpp:165] Memory required for data: 2039870460
I1206 09:11:00.322706 23310 layer_factory.hpp:77] Creating layer L3_b4_brc3_conv
I1206 09:11:00.322723 23310 net.cpp:100] Creating Layer L3_b4_brc3_conv
I1206 09:11:00.322736 23310 net.cpp:434] L3_b4_brc3_conv <- L3_b4_brc3_bn_top
I1206 09:11:00.322746 23310 net.cpp:408] L3_b4_brc3_conv -> L3_b4_brc3_conv_top
I1206 09:11:00.323678 23310 net.cpp:150] Setting up L3_b4_brc3_conv
I1206 09:11:00.323693 23310 net.cpp:157] Top shape: 85 256 8 8 (1392640)
I1206 09:11:00.323698 23310 net.cpp:165] Memory required for data: 2045441020
I1206 09:11:00.323707 23310 layer_factory.hpp:77] Creating layer L3_b4_sum_eltwise
I1206 09:11:00.323729 23310 net.cpp:100] Creating Layer L3_b4_sum_eltwise
I1206 09:11:00.323742 23310 net.cpp:434] L3_b4_sum_eltwise <- L3_b4_brc3_conv_top
I1206 09:11:00.323753 23310 net.cpp:434] L3_b4_sum_eltwise <- L3_b3_sum_eltwise_top_L3_b3_sum_eltwise_0_split_1
I1206 09:11:00.323766 23310 net.cpp:408] L3_b4_sum_eltwise -> L3_b4_sum_eltwise_top
I1206 09:11:00.323802 23310 net.cpp:150] Setting up L3_b4_sum_eltwise
I1206 09:11:00.323815 23310 net.cpp:157] Top shape: 85 256 8 8 (1392640)
I1206 09:11:00.323820 23310 net.cpp:165] Memory required for data: 2051011580
I1206 09:11:00.323827 23310 layer_factory.hpp:77] Creating layer L3_b4_sum_eltwise_top_L3_b4_sum_eltwise_0_split
I1206 09:11:00.323837 23310 net.cpp:100] Creating Layer L3_b4_sum_eltwise_top_L3_b4_sum_eltwise_0_split
I1206 09:11:00.323844 23310 net.cpp:434] L3_b4_sum_eltwise_top_L3_b4_sum_eltwise_0_split <- L3_b4_sum_eltwise_top
I1206 09:11:00.323853 23310 net.cpp:408] L3_b4_sum_eltwise_top_L3_b4_sum_eltwise_0_split -> L3_b4_sum_eltwise_top_L3_b4_sum_eltwise_0_split_0
I1206 09:11:00.323863 23310 net.cpp:408] L3_b4_sum_eltwise_top_L3_b4_sum_eltwise_0_split -> L3_b4_sum_eltwise_top_L3_b4_sum_eltwise_0_split_1
I1206 09:11:00.323912 23310 net.cpp:150] Setting up L3_b4_sum_eltwise_top_L3_b4_sum_eltwise_0_split
I1206 09:11:00.323925 23310 net.cpp:157] Top shape: 85 256 8 8 (1392640)
I1206 09:11:00.323931 23310 net.cpp:157] Top shape: 85 256 8 8 (1392640)
I1206 09:11:00.323936 23310 net.cpp:165] Memory required for data: 2062152700
I1206 09:11:00.323941 23310 layer_factory.hpp:77] Creating layer L3_b5_brc1_bn
I1206 09:11:00.323952 23310 net.cpp:100] Creating Layer L3_b5_brc1_bn
I1206 09:11:00.323959 23310 net.cpp:434] L3_b5_brc1_bn <- L3_b4_sum_eltwise_top_L3_b4_sum_eltwise_0_split_0
I1206 09:11:00.323967 23310 net.cpp:408] L3_b5_brc1_bn -> L3_b5_brc1_bn_top
I1206 09:11:00.324204 23310 net.cpp:150] Setting up L3_b5_brc1_bn
I1206 09:11:00.324218 23310 net.cpp:157] Top shape: 85 256 8 8 (1392640)
I1206 09:11:00.324223 23310 net.cpp:165] Memory required for data: 2067723260
I1206 09:11:00.324234 23310 layer_factory.hpp:77] Creating layer L3_b5_brc1_relu
I1206 09:11:00.324242 23310 net.cpp:100] Creating Layer L3_b5_brc1_relu
I1206 09:11:00.324249 23310 net.cpp:434] L3_b5_brc1_relu <- L3_b5_brc1_bn_top
I1206 09:11:00.324255 23310 net.cpp:395] L3_b5_brc1_relu -> L3_b5_brc1_bn_top (in-place)
I1206 09:11:00.324265 23310 net.cpp:150] Setting up L3_b5_brc1_relu
I1206 09:11:00.324280 23310 net.cpp:157] Top shape: 85 256 8 8 (1392640)
I1206 09:11:00.324285 23310 net.cpp:165] Memory required for data: 2073293820
I1206 09:11:00.324290 23310 layer_factory.hpp:77] Creating layer L3_b5_brc1_conv
I1206 09:11:00.324306 23310 net.cpp:100] Creating Layer L3_b5_brc1_conv
I1206 09:11:00.324312 23310 net.cpp:434] L3_b5_brc1_conv <- L3_b5_brc1_bn_top
I1206 09:11:00.324324 23310 net.cpp:408] L3_b5_brc1_conv -> L3_b5_brc1_conv_top
I1206 09:11:00.326545 23310 net.cpp:150] Setting up L3_b5_brc1_conv
I1206 09:11:00.326566 23310 net.cpp:157] Top shape: 85 128 8 8 (696320)
I1206 09:11:00.326572 23310 net.cpp:165] Memory required for data: 2076079100
I1206 09:11:00.326582 23310 layer_factory.hpp:77] Creating layer L3_b5_brc2_bn
I1206 09:11:00.326591 23310 net.cpp:100] Creating Layer L3_b5_brc2_bn
I1206 09:11:00.326598 23310 net.cpp:434] L3_b5_brc2_bn <- L3_b5_brc1_conv_top
I1206 09:11:00.326606 23310 net.cpp:408] L3_b5_brc2_bn -> L3_b5_brc2_bn_top
I1206 09:11:00.326865 23310 net.cpp:150] Setting up L3_b5_brc2_bn
I1206 09:11:00.326879 23310 net.cpp:157] Top shape: 85 128 8 8 (696320)
I1206 09:11:00.326885 23310 net.cpp:165] Memory required for data: 2078864380
I1206 09:11:00.326896 23310 layer_factory.hpp:77] Creating layer L3_b5_brc2_relu
I1206 09:11:00.326905 23310 net.cpp:100] Creating Layer L3_b5_brc2_relu
I1206 09:11:00.326911 23310 net.cpp:434] L3_b5_brc2_relu <- L3_b5_brc2_bn_top
I1206 09:11:00.326921 23310 net.cpp:395] L3_b5_brc2_relu -> L3_b5_brc2_bn_top (in-place)
I1206 09:11:00.326933 23310 net.cpp:150] Setting up L3_b5_brc2_relu
I1206 09:11:00.326941 23310 net.cpp:157] Top shape: 85 128 8 8 (696320)
I1206 09:11:00.326946 23310 net.cpp:165] Memory required for data: 2081649660
I1206 09:11:00.326951 23310 layer_factory.hpp:77] Creating layer L3_b5_brc2_conv
I1206 09:11:00.326967 23310 net.cpp:100] Creating Layer L3_b5_brc2_conv
I1206 09:11:00.326972 23310 net.cpp:434] L3_b5_brc2_conv <- L3_b5_brc2_bn_top
I1206 09:11:00.326982 23310 net.cpp:408] L3_b5_brc2_conv -> L3_b5_brc2_conv_top
I1206 09:11:00.327365 23310 net.cpp:150] Setting up L3_b5_brc2_conv
I1206 09:11:00.327380 23310 net.cpp:157] Top shape: 85 128 8 8 (696320)
I1206 09:11:00.327385 23310 net.cpp:165] Memory required for data: 2084434940
I1206 09:11:00.327432 23310 layer_factory.hpp:77] Creating layer L3_b5_brc3_bn
I1206 09:11:00.327448 23310 net.cpp:100] Creating Layer L3_b5_brc3_bn
I1206 09:11:00.327455 23310 net.cpp:434] L3_b5_brc3_bn <- L3_b5_brc2_conv_top
I1206 09:11:00.327463 23310 net.cpp:408] L3_b5_brc3_bn -> L3_b5_brc3_bn_top
I1206 09:11:00.327731 23310 net.cpp:150] Setting up L3_b5_brc3_bn
I1206 09:11:00.327745 23310 net.cpp:157] Top shape: 85 128 8 8 (696320)
I1206 09:11:00.327750 23310 net.cpp:165] Memory required for data: 2087220220
I1206 09:11:00.327761 23310 layer_factory.hpp:77] Creating layer L3_b5_brc3_relu
I1206 09:11:00.327774 23310 net.cpp:100] Creating Layer L3_b5_brc3_relu
I1206 09:11:00.327780 23310 net.cpp:434] L3_b5_brc3_relu <- L3_b5_brc3_bn_top
I1206 09:11:00.327787 23310 net.cpp:395] L3_b5_brc3_relu -> L3_b5_brc3_bn_top (in-place)
I1206 09:11:00.327798 23310 net.cpp:150] Setting up L3_b5_brc3_relu
I1206 09:11:00.327805 23310 net.cpp:157] Top shape: 85 128 8 8 (696320)
I1206 09:11:00.327811 23310 net.cpp:165] Memory required for data: 2090005500
I1206 09:11:00.327816 23310 layer_factory.hpp:77] Creating layer L3_b5_brc3_conv
I1206 09:11:00.327826 23310 net.cpp:100] Creating Layer L3_b5_brc3_conv
I1206 09:11:00.327832 23310 net.cpp:434] L3_b5_brc3_conv <- L3_b5_brc3_bn_top
I1206 09:11:00.327844 23310 net.cpp:408] L3_b5_brc3_conv -> L3_b5_brc3_conv_top
I1206 09:11:00.328795 23310 net.cpp:150] Setting up L3_b5_brc3_conv
I1206 09:11:00.328811 23310 net.cpp:157] Top shape: 85 256 8 8 (1392640)
I1206 09:11:00.328816 23310 net.cpp:165] Memory required for data: 2095576060
I1206 09:11:00.328825 23310 layer_factory.hpp:77] Creating layer L3_b5_sum_eltwise
I1206 09:11:00.328835 23310 net.cpp:100] Creating Layer L3_b5_sum_eltwise
I1206 09:11:00.328842 23310 net.cpp:434] L3_b5_sum_eltwise <- L3_b5_brc3_conv_top
I1206 09:11:00.328858 23310 net.cpp:434] L3_b5_sum_eltwise <- L3_b4_sum_eltwise_top_L3_b4_sum_eltwise_0_split_1
I1206 09:11:00.328867 23310 net.cpp:408] L3_b5_sum_eltwise -> L3_b5_sum_eltwise_top
I1206 09:11:00.328907 23310 net.cpp:150] Setting up L3_b5_sum_eltwise
I1206 09:11:00.328917 23310 net.cpp:157] Top shape: 85 256 8 8 (1392640)
I1206 09:11:00.328922 23310 net.cpp:165] Memory required for data: 2101146620
I1206 09:11:00.328927 23310 layer_factory.hpp:77] Creating layer L3_b5_sum_eltwise_top_L3_b5_sum_eltwise_0_split
I1206 09:11:00.328938 23310 net.cpp:100] Creating Layer L3_b5_sum_eltwise_top_L3_b5_sum_eltwise_0_split
I1206 09:11:00.328944 23310 net.cpp:434] L3_b5_sum_eltwise_top_L3_b5_sum_eltwise_0_split <- L3_b5_sum_eltwise_top
I1206 09:11:00.328953 23310 net.cpp:408] L3_b5_sum_eltwise_top_L3_b5_sum_eltwise_0_split -> L3_b5_sum_eltwise_top_L3_b5_sum_eltwise_0_split_0
I1206 09:11:00.328963 23310 net.cpp:408] L3_b5_sum_eltwise_top_L3_b5_sum_eltwise_0_split -> L3_b5_sum_eltwise_top_L3_b5_sum_eltwise_0_split_1
I1206 09:11:00.329015 23310 net.cpp:150] Setting up L3_b5_sum_eltwise_top_L3_b5_sum_eltwise_0_split
I1206 09:11:00.329027 23310 net.cpp:157] Top shape: 85 256 8 8 (1392640)
I1206 09:11:00.329035 23310 net.cpp:157] Top shape: 85 256 8 8 (1392640)
I1206 09:11:00.329040 23310 net.cpp:165] Memory required for data: 2112287740
I1206 09:11:00.329046 23310 layer_factory.hpp:77] Creating layer L3_b6_brc1_bn
I1206 09:11:00.329053 23310 net.cpp:100] Creating Layer L3_b6_brc1_bn
I1206 09:11:00.329059 23310 net.cpp:434] L3_b6_brc1_bn <- L3_b5_sum_eltwise_top_L3_b5_sum_eltwise_0_split_0
I1206 09:11:00.329071 23310 net.cpp:408] L3_b6_brc1_bn -> L3_b6_brc1_bn_top
I1206 09:11:00.329314 23310 net.cpp:150] Setting up L3_b6_brc1_bn
I1206 09:11:00.329327 23310 net.cpp:157] Top shape: 85 256 8 8 (1392640)
I1206 09:11:00.329332 23310 net.cpp:165] Memory required for data: 2117858300
I1206 09:11:00.329344 23310 layer_factory.hpp:77] Creating layer L3_b6_brc1_relu
I1206 09:11:00.329355 23310 net.cpp:100] Creating Layer L3_b6_brc1_relu
I1206 09:11:00.329362 23310 net.cpp:434] L3_b6_brc1_relu <- L3_b6_brc1_bn_top
I1206 09:11:00.329370 23310 net.cpp:395] L3_b6_brc1_relu -> L3_b6_brc1_bn_top (in-place)
I1206 09:11:00.329380 23310 net.cpp:150] Setting up L3_b6_brc1_relu
I1206 09:11:00.329386 23310 net.cpp:157] Top shape: 85 256 8 8 (1392640)
I1206 09:11:00.329391 23310 net.cpp:165] Memory required for data: 2123428860
I1206 09:11:00.329396 23310 layer_factory.hpp:77] Creating layer L3_b6_brc1_conv
I1206 09:11:00.329407 23310 net.cpp:100] Creating Layer L3_b6_brc1_conv
I1206 09:11:00.329413 23310 net.cpp:434] L3_b6_brc1_conv <- L3_b6_brc1_bn_top
I1206 09:11:00.329426 23310 net.cpp:408] L3_b6_brc1_conv -> L3_b6_brc1_conv_top
I1206 09:11:00.330368 23310 net.cpp:150] Setting up L3_b6_brc1_conv
I1206 09:11:00.330384 23310 net.cpp:157] Top shape: 85 128 8 8 (696320)
I1206 09:11:00.330389 23310 net.cpp:165] Memory required for data: 2126214140
I1206 09:11:00.330397 23310 layer_factory.hpp:77] Creating layer L3_b6_brc2_bn
I1206 09:11:00.330406 23310 net.cpp:100] Creating Layer L3_b6_brc2_bn
I1206 09:11:00.330413 23310 net.cpp:434] L3_b6_brc2_bn <- L3_b6_brc1_conv_top
I1206 09:11:00.330425 23310 net.cpp:408] L3_b6_brc2_bn -> L3_b6_brc2_bn_top
I1206 09:11:00.330679 23310 net.cpp:150] Setting up L3_b6_brc2_bn
I1206 09:11:00.330693 23310 net.cpp:157] Top shape: 85 128 8 8 (696320)
I1206 09:11:00.330698 23310 net.cpp:165] Memory required for data: 2128999420
I1206 09:11:00.330708 23310 layer_factory.hpp:77] Creating layer L3_b6_brc2_relu
I1206 09:11:00.330724 23310 net.cpp:100] Creating Layer L3_b6_brc2_relu
I1206 09:11:00.330730 23310 net.cpp:434] L3_b6_brc2_relu <- L3_b6_brc2_bn_top
I1206 09:11:00.330742 23310 net.cpp:395] L3_b6_brc2_relu -> L3_b6_brc2_bn_top (in-place)
I1206 09:11:00.330754 23310 net.cpp:150] Setting up L3_b6_brc2_relu
I1206 09:11:00.330760 23310 net.cpp:157] Top shape: 85 128 8 8 (696320)
I1206 09:11:00.330766 23310 net.cpp:165] Memory required for data: 2131784700
I1206 09:11:00.330771 23310 layer_factory.hpp:77] Creating layer L3_b6_brc2_conv
I1206 09:11:00.330790 23310 net.cpp:100] Creating Layer L3_b6_brc2_conv
I1206 09:11:00.330796 23310 net.cpp:434] L3_b6_brc2_conv <- L3_b6_brc2_bn_top
I1206 09:11:00.330806 23310 net.cpp:408] L3_b6_brc2_conv -> L3_b6_brc2_conv_top
I1206 09:11:00.331202 23310 net.cpp:150] Setting up L3_b6_brc2_conv
I1206 09:11:00.331218 23310 net.cpp:157] Top shape: 85 128 8 8 (696320)
I1206 09:11:00.331223 23310 net.cpp:165] Memory required for data: 2134569980
I1206 09:11:00.331231 23310 layer_factory.hpp:77] Creating layer L3_b6_brc3_bn
I1206 09:11:00.331244 23310 net.cpp:100] Creating Layer L3_b6_brc3_bn
I1206 09:11:00.331250 23310 net.cpp:434] L3_b6_brc3_bn <- L3_b6_brc2_conv_top
I1206 09:11:00.331259 23310 net.cpp:408] L3_b6_brc3_bn -> L3_b6_brc3_bn_top
I1206 09:11:00.331508 23310 net.cpp:150] Setting up L3_b6_brc3_bn
I1206 09:11:00.331521 23310 net.cpp:157] Top shape: 85 128 8 8 (696320)
I1206 09:11:00.331526 23310 net.cpp:165] Memory required for data: 2137355260
I1206 09:11:00.331537 23310 layer_factory.hpp:77] Creating layer L3_b6_brc3_relu
I1206 09:11:00.331545 23310 net.cpp:100] Creating Layer L3_b6_brc3_relu
I1206 09:11:00.331552 23310 net.cpp:434] L3_b6_brc3_relu <- L3_b6_brc3_bn_top
I1206 09:11:00.331559 23310 net.cpp:395] L3_b6_brc3_relu -> L3_b6_brc3_bn_top (in-place)
I1206 09:11:00.331569 23310 net.cpp:150] Setting up L3_b6_brc3_relu
I1206 09:11:00.331576 23310 net.cpp:157] Top shape: 85 128 8 8 (696320)
I1206 09:11:00.331580 23310 net.cpp:165] Memory required for data: 2140140540
I1206 09:11:00.331585 23310 layer_factory.hpp:77] Creating layer L3_b6_brc3_conv
I1206 09:11:00.331601 23310 net.cpp:100] Creating Layer L3_b6_brc3_conv
I1206 09:11:00.331607 23310 net.cpp:434] L3_b6_brc3_conv <- L3_b6_brc3_bn_top
I1206 09:11:00.331619 23310 net.cpp:408] L3_b6_brc3_conv -> L3_b6_brc3_conv_top
I1206 09:11:00.332564 23310 net.cpp:150] Setting up L3_b6_brc3_conv
I1206 09:11:00.332581 23310 net.cpp:157] Top shape: 85 256 8 8 (1392640)
I1206 09:11:00.332587 23310 net.cpp:165] Memory required for data: 2145711100
I1206 09:11:00.332595 23310 layer_factory.hpp:77] Creating layer L3_b6_sum_eltwise
I1206 09:11:00.332612 23310 net.cpp:100] Creating Layer L3_b6_sum_eltwise
I1206 09:11:00.332618 23310 net.cpp:434] L3_b6_sum_eltwise <- L3_b6_brc3_conv_top
I1206 09:11:00.332625 23310 net.cpp:434] L3_b6_sum_eltwise <- L3_b5_sum_eltwise_top_L3_b5_sum_eltwise_0_split_1
I1206 09:11:00.332638 23310 net.cpp:408] L3_b6_sum_eltwise -> L3_b6_sum_eltwise_top
I1206 09:11:00.332671 23310 net.cpp:150] Setting up L3_b6_sum_eltwise
I1206 09:11:00.332684 23310 net.cpp:157] Top shape: 85 256 8 8 (1392640)
I1206 09:11:00.332689 23310 net.cpp:165] Memory required for data: 2151281660
I1206 09:11:00.332695 23310 layer_factory.hpp:77] Creating layer post_bn
I1206 09:11:00.332706 23310 net.cpp:100] Creating Layer post_bn
I1206 09:11:00.332720 23310 net.cpp:434] post_bn <- L3_b6_sum_eltwise_top
I1206 09:11:00.332728 23310 net.cpp:408] post_bn -> post_bn_top
I1206 09:11:00.332978 23310 net.cpp:150] Setting up post_bn
I1206 09:11:00.332991 23310 net.cpp:157] Top shape: 85 256 8 8 (1392640)
I1206 09:11:00.332996 23310 net.cpp:165] Memory required for data: 2156852220
I1206 09:11:00.333007 23310 layer_factory.hpp:77] Creating layer post_relu
I1206 09:11:00.333015 23310 net.cpp:100] Creating Layer post_relu
I1206 09:11:00.333021 23310 net.cpp:434] post_relu <- post_bn_top
I1206 09:11:00.333029 23310 net.cpp:395] post_relu -> post_bn_top (in-place)
I1206 09:11:00.333039 23310 net.cpp:150] Setting up post_relu
I1206 09:11:00.333045 23310 net.cpp:157] Top shape: 85 256 8 8 (1392640)
I1206 09:11:00.333050 23310 net.cpp:165] Memory required for data: 2162422780
I1206 09:11:00.333055 23310 layer_factory.hpp:77] Creating layer post_pool
I1206 09:11:00.333066 23310 net.cpp:100] Creating Layer post_pool
I1206 09:11:00.333071 23310 net.cpp:434] post_pool <- post_bn_top
I1206 09:11:00.333084 23310 net.cpp:408] post_pool -> post_pool
I1206 09:11:00.333196 23310 net.cpp:150] Setting up post_pool
I1206 09:11:00.333212 23310 net.cpp:157] Top shape: 85 256 1 1 (21760)
I1206 09:11:00.333226 23310 net.cpp:165] Memory required for data: 2162509820
I1206 09:11:00.333232 23310 layer_factory.hpp:77] Creating layer post_FC
I1206 09:11:00.333333 23310 net.cpp:100] Creating Layer post_FC
I1206 09:11:00.333346 23310 net.cpp:434] post_FC <- post_pool
I1206 09:11:00.333360 23310 net.cpp:408] post_FC -> post_FC_top
I1206 09:11:00.333645 23310 net.cpp:150] Setting up post_FC
I1206 09:11:00.333662 23310 net.cpp:157] Top shape: 85 10 (850)
I1206 09:11:00.333667 23310 net.cpp:165] Memory required for data: 2162513220
I1206 09:11:00.333675 23310 layer_factory.hpp:77] Creating layer post_FC_top_post_FC_0_split
I1206 09:11:00.333688 23310 net.cpp:100] Creating Layer post_FC_top_post_FC_0_split
I1206 09:11:00.333695 23310 net.cpp:434] post_FC_top_post_FC_0_split <- post_FC_top
I1206 09:11:00.333703 23310 net.cpp:408] post_FC_top_post_FC_0_split -> post_FC_top_post_FC_0_split_0
I1206 09:11:00.333719 23310 net.cpp:408] post_FC_top_post_FC_0_split -> post_FC_top_post_FC_0_split_1
I1206 09:11:00.333777 23310 net.cpp:150] Setting up post_FC_top_post_FC_0_split
I1206 09:11:00.333791 23310 net.cpp:157] Top shape: 85 10 (850)
I1206 09:11:00.333797 23310 net.cpp:157] Top shape: 85 10 (850)
I1206 09:11:00.333801 23310 net.cpp:165] Memory required for data: 2162520020
I1206 09:11:00.333807 23310 layer_factory.hpp:77] Creating layer accuracy
I1206 09:11:00.333863 23310 net.cpp:100] Creating Layer accuracy
I1206 09:11:00.333874 23310 net.cpp:434] accuracy <- post_FC_top_post_FC_0_split_0
I1206 09:11:00.333883 23310 net.cpp:434] accuracy <- label_dataLayer_1_split_0
I1206 09:11:00.333890 23310 net.cpp:408] accuracy -> accuracy
…
