…
I1209 19:32:18.747598  1002 net.cpp:322] The NetState phase (0) differed from the phase (1) specified by a rule in layer L3_b9_cbr2_bn
I1209 19:32:18.749644  1002 net.cpp:58] Initializing net from parameters: 
name: "Cifar-Resnet"
state {
  phase: TRAIN
  level: 0
  stage: ""
}
layer {
  name: "dataLayer"
  type: "Data"
  top: "data_top"
  top: "label"
  include {
    phase: TRAIN
  }
  transform_param {
    mirror: true
    crop_size: 32
    mean_file: "examples/cifar10/mean.binaryproto"
  }
  data_param {
    source: "examples/cifar10/cifar10_train_lmdb"
    batch_size: 125
    backend: LMDB
  }
  image_data_param {
    shuffle: true
  }
}
layer {
  name: "pre_conv"
  type: "Convolution"
  bottom: "data_top"
  top: "pre_conv_top"
  param {
    lr_mult: 1
    decay_mult: 1
  }
  param {
    lr_mult: 2
    decay_mult: 0
  }
  convolution_param {
    num_output: 16
    pad: 1
    kernel_size: 3
    stride: 1
    weight_filler {
      type: "msra"
    }
    bias_filler {
      type: "constant"
    }
  }
}
layer {
  name: "pre_bn"
  type: "BatchNorm"
  bottom: "pre_conv_top"
  top: "pre_bn_top"
  include {
    phase: TRAIN
  }
  batch_norm_param {
    use_global_stats: false
    moving_average_fraction: 0.95
  }
}
layer {
  name: "pre_scale"
  type: "Scale"
  bottom: "pre_bn_top"
  top: "pre_bn_top"
  scale_param {
    bias_term: true
  }
}
layer {
  name: "pre_relu"
  type: "ReLU"
  bottom: "pre_bn_top"
  top: "pre_bn_top"
}
layer {
  name: "L1_b1_cbr1_conv"
  type: "Convolution"
  bottom: "pre_bn_top"
  top: "L1_b1_cbr1_conv_top"
  param {
    lr_mult: 1
    decay_mult: 1
  }
  param {
    lr_mult: 2
    decay_mult: 0
  }
  convolution_param {
    num_output: 16
    pad: 1
    kernel_size: 3
    stride: 1
    weight_filler {
      type: "msra"
    }
    bias_filler {
      type: "constant"
    }
  }
}
layer {
  name: "L1_b1_cbr1_bn"
  type: "BatchNorm"
  bottom: "L1_b1_cbr1_conv_top"
  top: "L1_b1_cbr1_bn_top"
  include {
    phase: TRAIN
  }
  batch_norm_param {
    use_global_stats: false
    moving_average_fraction: 0.95
  }
}
layer {
  name: "L1_b1_cbr1_scale"
  type: "Scale"
  bottom: "L1_b1_cbr1_bn_top"
  top: "L1_b1_cbr1_bn_top"
  scale_param {
    bias_term: true
  }
}
layer {
  name: "L1_b1_cbr1_dropout"
  type: "Dropout"
  bottom: "L1_b1_cbr1_bn_top"
  top: "L1_b1_cbr1_bn_top"
  dropout_param {
    dropout_ratio: 0.2
  }
}
layer {
  name: "L1_b1_cbr1_relu"
  type: "ReLU"
  bottom: "L1_b1_cbr1_bn_top"
  top: "L1_b1_cbr1_bn_top"
}
layer {
  name: "L1_b1_cbr2_conv"
  type: "Convolution"
  bottom: "L1_b1_cbr1_bn_top"
  top: "L1_b1_cbr2_conv_top"
  param {
    lr_mult: 1
    decay_mult: 1
  }
  param {
    lr_mult: 2
    decay_mult: 0
  }
  convolution_param {
    num_output: 16
    pad: 1
    kernel_size: 3
    stride: 1
    weight_filler {
      type: "msra"
    }
    bias_filler {
      type: "constant"
    }
  }
}
layer {
  name: "L1_b1_cbr2_bn"
  type: "BatchNorm"
  bottom: "L1_b1_cbr2_conv_top"
  top: "L1_b1_cbr2_bn_top"
  include {
    phase: TRAIN
  }
  batch_norm_param {
    use_global_stats: false
    moving_average_fraction: 0.95
  }
}
layer {
  name: "L1_b1_cbr2_scale"
  type: "Scale"
  bottom: "L1_b1_cbr2_bn_top"
  top: "L1_b1_cbr2_bn_top"
  scale_param {
    bias_term: true
  }
}
layer {
  name: "L1_b1_cbr2_dropout"
  type: "Dropout"
  bottom: "L1_b1_cbr2_bn_top"
  top: "L1_b1_cbr2_bn_top"
  dropout_param {
    dropout_ratio: 0.2
  }
}
layer {
  name: "L1_b1_sum_eltwise"
  type: "Eltwise"
  bottom: "L1_b1_cbr2_bn_top"
  bottom: "pre_bn_top"
  top: "L1_b1_sum_eltwise_top"
  eltwise_param {
    operation: SUM
  }
}
layer {
  name: "L1_b1_relu"
  type: "ReLU"
  bottom: "L1_b1_sum_eltwise_top"
  top: "L1_b1_sum_eltwise_top"
}
layer {
  name: "L1_b2_cbr1_conv"
  type: "Convolution"
  bottom: "L1_b1_sum_eltwise_top"
  top: "L1_b2_cbr1_conv_top"
  param {
    lr_mult: 1
    decay_mult: 1
  }
  param {
    lr_mult: 2
    decay_mult: 0
  }
  convolution_param {
    num_output: 16
    pad: 1
    kernel_size: 3
    stride: 1
    weight_filler {
      type: "msra"
    }
    bias_filler {
      type: "constant"
    }
  }
}
layer {
  name: "L1_b2_cbr1_bn"
  type: "BatchNorm"
  bottom: "L1_b2_cbr1_conv_top"
  top: "L1_b2_cbr1_bn_top"
  include {
    phase: TRAIN
  }
  batch_norm_param {
    use_global_stats: false
    moving_average_fraction: 0.95
  }
}
layer {
  name: "L1_b2_cbr1_scale"
  type: "Scale"
  bottom: "L1_b2_cbr1_bn_top"
  top: "L1_b2_cbr1_bn_top"
  scale_param {
    bias_term: true
  }
}
layer {
  name: "L1_b2_cbr1_dropout"
  type: "Dropout"
  bottom: "L1_b2_cbr1_bn_top"
  top: "L1_b2_cbr1_bn_top"
  dropout_param {
    dropout_ratio: 0.2
  }
}
layer {
  name: "L1_b2_cbr1_relu"
  type: "ReLU"
  bottom: "L1_b2_cbr1_bn_top"
  top: "L1_b2_cbr1_bn_top"
}
layer {
  name: "L1_b2_cbr2_conv"
  type: "Convolution"
  bottom: "L1_b2_cbr1_bn_top"
  top: "L1_b2_cbr2_conv_top"
  param {
    lr_mult: 1
    decay_mult: 1
  }
  param {
    lr_mult: 2
    decay_mult: 0
  }
  convolution_param {
    num_output: 16
    pad: 1
    kernel_size: 3
    stride: 1
    weight_filler {
      type: "msra"
    }
    bias_filler {
      type: "constant"
    }
  }
}
layer {
  name: "L1_b2_cbr2_bn"
  type: "BatchNorm"
  bottom: "L1_b2_cbr2_conv_top"
  top: "L1_b2_cbr2_bn_top"
  include {
    phase: TRAIN
  }
  batch_norm_param {
    use_global_stats: false
    moving_average_fraction: 0.95
  }
}
layer {
  name: "L1_b2_cbr2_scale"
  type: "Scale"
  bottom: "L1_b2_cbr2_bn_top"
  top: "L1_b2_cbr2_bn_top"
  scale_param {
    bias_term: true
  }
}
layer {
  name: "L1_b2_cbr2_dropout"
  type: "Dropout"
  bottom: "L1_b2_cbr2_bn_top"
  top: "L1_b2_cbr2_bn_top"
  dropout_param {
    dropout_ratio: 0.2
  }
}
layer {
  name: "L1_b2_sum_eltwise"
  type: "Eltwise"
  bottom: "L1_b2_cbr2_bn_top"
  bottom: "L1_b1_sum_eltwise_top"
  top: "L1_b2_sum_eltwise_top"
  eltwise_param {
    operation: SUM
  }
}
layer {
  name: "L1_b2_relu"
  type: "ReLU"
  bottom: "L1_b2_sum_eltwise_top"
  top: "L1_b2_sum_eltwise_top"
}
layer {
  name: "L1_b3_cbr1_conv"
  type: "Convolution"
  bottom: "L1_b2_sum_eltwise_top"
  top: "L1_b3_cbr1_conv_top"
  param {
    lr_mult: 1
    decay_mult: 1
  }
  param {
    lr_mult: 2
    decay_mult: 0
  }
  convolution_param {
    num_output: 16
    pad: 1
    kernel_size: 3
    stride: 1
    weight_filler {
      type: "msra"
    }
    bias_filler {
      type: "constant"
    }
  }
}
layer {
  name: "L1_b3_cbr1_bn"
  type: "BatchNorm"
  bottom: "L1_b3_cbr1_conv_top"
  top: "L1_b3_cbr1_bn_top"
  include {
    phase: TRAIN
  }
  batch_norm_param {
    use_global_stats: false
    moving_average_fraction: 0.95
  }
}
layer {
  name: "L1_b3_cbr1_scale"
  type: "Scale"
  bottom: "L1_b3_cbr1_bn_top"
  top: "L1_b3_cbr1_bn_top"
  scale_param {
    bias_term: true
  }
}
layer {
  name: "L1_b3_cbr1_dropout"
  type: "Dropout"
  bottom: "L1_b3_cbr1_bn_top"
  top: "L1_b3_cbr1_bn_top"
  dropout_param {
    dropout_ratio: 0.2
  }
}
layer {
  name: "L1_b3_cbr1_relu"
  type: "ReLU"
  bottom: "L1_b3_cbr1_bn_top"
  top: "L1_b3_cbr1_bn_top"
}
layer {
  name: "L1_b3_cbr2_conv"
  type: "Convolution"
  bottom: "L1_b3_cbr1_bn_top"
  top: "L1_b3_cbr2_conv_top"
  param {
    lr_mult: 1
    decay_mult: 1
  }
  param {
    lr_mult: 2
    decay_mult: 0
  }
  convolution_param {
    num_output: 16
    pad: 1
    kernel_size: 3
    stride: 1
    weight_filler {
      type: "msra"
    }
    bias_filler {
      type: "constant"
    }
  }
}
layer {
  name: "L1_b3_cbr2_bn"
  type: "BatchNorm"
  bottom: "L1_b3_cbr2_conv_top"
  top: "L1_b3_cbr2_bn_top"
  include {
    phase: TRAIN
  }
  batch_norm_param {
    use_global_stats: false
    moving_average_fraction: 0.95
  }
}
layer {
  name: "L1_b3_cbr2_scale"
  type: "Scale"
  bottom: "L1_b3_cbr2_bn_top"
  top: "L1_b3_cbr2_bn_top"
  scale_param {
    bias_term: true
  }
}
layer {
  name: "L1_b3_cbr2_dropout"
  type: "Dropout"
  bottom: "L1_b3_cbr2_bn_top"
  top: "L1_b3_cbr2_bn_top"
  dropout_param {
    dropout_ratio: 0.2
  }
}
layer {
  name: "L1_b3_sum_eltwise"
  type: "Eltwise"
  bottom: "L1_b3_cbr2_bn_top"
  bottom: "L1_b2_sum_eltwise_top"
  top: "L1_b3_sum_eltwise_top"
  eltwise_param {
    operation: SUM
  }
}
layer {
  name: "L1_b3_relu"
  type: "ReLU"
  bottom: "L1_b3_sum_eltwise_top"
  top: "L1_b3_sum_eltwise_top"
}
layer {
  name: "L1_b4_cbr1_conv"
  type: "Convolution"
  bottom: "L1_b3_sum_eltwise_top"
  top: "L1_b4_cbr1_conv_top"
  param {
    lr_mult: 1
    decay_mult: 1
  }
  param {
    lr_mult: 2
    decay_mult: 0
  }
  convolution_param {
    num_output: 16
    pad: 1
    kernel_size: 3
    stride: 1
    weight_filler {
      type: "msra"
    }
    bias_filler {
      type: "constant"
    }
  }
}
layer {
  name: "L1_b4_cbr1_bn"
  type: "BatchNorm"
  bottom: "L1_b4_cbr1_conv_top"
  top: "L1_b4_cbr1_bn_top"
  include {
    phase: TRAIN
  }
  batch_norm_param {
    use_global_stats: false
    moving_average_fraction: 0.95
  }
}
layer {
  name: "L1_b4_cbr1_scale"
  type: "Scale"
  bottom: "L1_b4_cbr1_bn_top"
  top: "L1_b4_cbr1_bn_top"
  scale_param {
    bias_term: true
  }
}
layer {
  name: "L1_b4_cbr1_dropout"
  type: "Dropout"
  bottom: "L1_b4_cbr1_bn_top"
  top: "L1_b4_cbr1_bn_top"
  dropout_param {
    dropout_ratio: 0.2
  }
}
layer {
  name: "L1_b4_cbr1_relu"
  type: "ReLU"
  bottom: "L1_b4_cbr1_bn_top"
  top: "L1_b4_cbr1_bn_top"
}
layer {
  name: "L1_b4_cbr2_conv"
  type: "Convolution"
  bottom: "L1_b4_cbr1_bn_top"
  top: "L1_b4_cbr2_conv_top"
  param {
    lr_mult: 1
    decay_mult: 1
  }
  param {
    lr_mult: 2
    decay_mult: 0
  }
  convolution_param {
    num_output: 16
    pad: 1
    kernel_size: 3
    stride: 1
    weight_filler {
      type: "msra"
    }
    bias_filler {
      type: "constant"
    }
  }
}
layer {
  name: "L1_b4_cbr2_bn"
  type: "BatchNorm"
  bottom: "L1_b4_cbr2_conv_top"
  top: "L1_b4_cbr2_bn_top"
  include {
    phase: TRAIN
  }
  batch_norm_param {
    use_global_stats: false
    moving_average_fraction: 0.95
  }
}
layer {
  name: "L1_b4_cbr2_scale"
  type: "Scale"
  bottom: "L1_b4_cbr2_bn_top"
  top: "L1_b4_cbr2_bn_top"
  scale_param {
    bias_term: true
  }
}
layer {
  name: "L1_b4_cbr2_dropout"
  type: "Dropout"
  bottom: "L1_b4_cbr2_bn_top"
  top: "L1_b4_cbr2_bn_top"
  dropout_param {
    dropout_ratio: 0.2
  }
}
layer {
  name: "L1_b4_sum_eltwise"
  type: "Eltwise"
  bottom: "L1_b4_cbr2_bn_top"
  bottom: "L1_b3_sum_eltwise_top"
  top: "L1_b4_sum_eltwise_top"
  eltwise_param {
    operation: SUM
  }
}
layer {
  name: "L1_b4_relu"
  type: "ReLU"
  bottom: "L1_b4_sum_eltwise_top"
  top: "L1_b4_sum_eltwise_top"
}
layer {
  name: "L1_b5_cbr1_conv"
  type: "Convolution"
  bottom: "L1_b4_sum_eltwise_top"
  top: "L1_b5_cbr1_conv_top"
  param {
    lr_mult: 1
    decay_mult: 1
  }
  param {
    lr_mult: 2
    decay_mult: 0
  }
  convolution_param {
    num_output: 16
    pad: 1
    kernel_size: 3
    stride: 1
    weight_filler {
      type: "msra"
    }
    bias_filler {
      type: "constant"
    }
  }
}
layer {
  name: "L1_b5_cbr1_bn"
  type: "BatchNorm"
  bottom: "L1_b5_cbr1_conv_top"
  top: "L1_b5_cbr1_bn_top"
  include {
    phase: TRAIN
  }
  batch_norm_param {
    use_global_stats: false
    moving_average_fraction: 0.95
  }
}
layer {
  name: "L1_b5_cbr1_scale"
  type: "Scale"
  bottom: "L1_b5_cbr1_bn_top"
  top: "L1_b5_cbr1_bn_top"
  scale_param {
    bias_term: true
  }
}
layer {
  name: "L1_b5_cbr1_dropout"
  type: "Dropout"
  bottom: "L1_b5_cbr1_bn_top"
  top: "L1_b5_cbr1_bn_top"
  dropout_param {
    dropout_ratio: 0.2
  }
}
layer {
  name: "L1_b5_cbr1_relu"
  type: "ReLU"
  bottom: "L1_b5_cbr1_bn_top"
  top: "L1_b5_cbr1_bn_top"
}
layer {
  name: "L1_b5_cbr2_conv"
  type: "Convolution"
  bottom: "L1_b5_cbr1_bn_top"
  top: "L1_b5_cbr2_conv_top"
  param {
    lr_mult: 1
    decay_mult: 1
  }
  param {
    lr_mult: 2
    decay_mult: 0
  }
  convolution_param {
    num_output: 16
    pad: 1
    kernel_size: 3
    stride: 1
    weight_filler {
      type: "msra"
    }
    bias_filler {
      type: "constant"
    }
  }
}
layer {
  name: "L1_b5_cbr2_bn"
  type: "BatchNorm"
  bottom: "L1_b5_cbr2_conv_top"
  top: "L1_b5_cbr2_bn_top"
  include {
    phase: TRAIN
  }
  batch_norm_param {
    use_global_stats: false
    moving_average_fraction: 0.95
  }
}
layer {
  name: "L1_b5_cbr2_scale"
  type: "Scale"
  bottom: "L1_b5_cbr2_bn_top"
  top: "L1_b5_cbr2_bn_top"
  scale_param {
    bias_term: true
  }
}
layer {
  name: "L1_b5_cbr2_dropout"
  type: "Dropout"
  bottom: "L1_b5_cbr2_bn_top"
  top: "L1_b5_cbr2_bn_top"
  dropout_param {
    dropout_ratio: 0.2
  }
}
layer {
  name: "L1_b5_sum_eltwise"
  type: "Eltwise"
  bottom: "L1_b5_cbr2_bn_top"
  bottom: "L1_b4_sum_eltwise_top"
  top: "L1_b5_sum_eltwise_top"
  eltwise_param {
    operation: SUM
  }
}
layer {
  name: "L1_b5_relu"
  type: "ReLU"
  bottom: "L1_b5_sum_eltwise_top"
  top: "L1_b5_sum_eltwise_top"
}
layer {
  name: "L1_b6_cbr1_conv"
  type: "Convolution"
  bottom: "L1_b5_sum_eltwise_top"
  top: "L1_b6_cbr1_conv_top"
  param {
    lr_mult: 1
    decay_mult: 1
  }
  param {
    lr_mult: 2
    decay_mult: 0
  }
  convolution_param {
    num_output: 16
    pad: 1
    kernel_size: 3
    stride: 1
    weight_filler {
      type: "msra"
    }
    bias_filler {
      type: "constant"
    }
  }
}
layer {
  name: "L1_b6_cbr1_bn"
  type: "BatchNorm"
  bottom: "L1_b6_cbr1_conv_top"
  top: "L1_b6_cbr1_bn_top"
  include {
    phase: TRAIN
  }
  batch_norm_param {
    use_global_stats: false
    moving_average_fraction: 0.95
  }
}
layer {
  name: "L1_b6_cbr1_scale"
  type: "Scale"
  bottom: "L1_b6_cbr1_bn_top"
  top: "L1_b6_cbr1_bn_top"
  scale_param {
    bias_term: true
  }
}
layer {
  name: "L1_b6_cbr1_dropout"
  type: "Dropout"
  bottom: "L1_b6_cbr1_bn_top"
  top: "L1_b6_cbr1_bn_top"
  dropout_param {
    dropout_ratio: 0.2
  }
}
layer {
  name: "L1_b6_cbr1_relu"
  type: "ReLU"
  bottom: "L1_b6_cbr1_bn_top"
  top: "L1_b6_cbr1_bn_top"
}
layer {
  name: "L1_b6_cbr2_conv"
  type: "Convolution"
  bottom: "L1_b6_cbr1_bn_top"
  top: "L1_b6_cbr2_conv_top"
  param {
    lr_mult: 1
    decay_mult: 1
  }
  param {
    lr_mult: 2
    decay_mult: 0
  }
  convolution_param {
    num_output: 16
    pad: 1
    kernel_size: 3
    stride: 1
    weight_filler {
      type: "msra"
    }
    bias_filler {
      type: "constant"
    }
  }
}
layer {
  name: "L1_b6_cbr2_bn"
  type: "BatchNorm"
  bottom: "L1_b6_cbr2_conv_top"
  top: "L1_b6_cbr2_bn_top"
  include {
    phase: TRAIN
  }
  batch_norm_param {
    use_global_stats: false
    moving_average_fraction: 0.95
  }
}
layer {
  name: "L1_b6_cbr2_scale"
  type: "Scale"
  bottom: "L1_b6_cbr2_bn_top"
  top: "L1_b6_cbr2_bn_top"
  scale_param {
    bias_term: true
  }
}
layer {
  name: "L1_b6_cbr2_dropout"
  type: "Dropout"
  bottom: "L1_b6_cbr2_bn_top"
  top: "L1_b6_cbr2_bn_top"
  dropout_param {
    dropout_ratio: 0.2
  }
}
layer {
  name: "L1_b6_sum_eltwise"
  type: "Eltwise"
  bottom: "L1_b6_cbr2_bn_top"
  bottom: "L1_b5_sum_eltwise_top"
  top: "L1_b6_sum_eltwise_top"
  eltwise_param {
    operation: SUM
  }
}
layer {
  name: "L1_b6_relu"
  type: "ReLU"
  bottom: "L1_b6_sum_eltwise_top"
  top: "L1_b6_sum_eltwise_top"
}
layer {
  name: "L1_b7_cbr1_conv"
  type: "Convolution"
  bottom: "L1_b6_sum_eltwise_top"
  top: "L1_b7_cbr1_conv_top"
  param {
    lr_mult: 1
    decay_mult: 1
  }
  param {
    lr_mult: 2
    decay_mult: 0
  }
  convolution_param {
    num_output: 16
    pad: 1
    kernel_size: 3
    stride: 1
    weight_filler {
      type: "msra"
    }
    bias_filler {
      type: "constant"
    }
  }
}
layer {
  name: "L1_b7_cbr1_bn"
  type: "BatchNorm"
  bottom: "L1_b7_cbr1_conv_top"
  top: "L1_b7_cbr1_bn_top"
  include {
    phase: TRAIN
  }
  batch_norm_param {
    use_global_stats: false
    moving_average_fraction: 0.95
  }
}
layer {
  name: "L1_b7_cbr1_scale"
  type: "Scale"
  bottom: "L1_b7_cbr1_bn_top"
  top: "L1_b7_cbr1_bn_top"
  scale_param {
    bias_term: true
  }
}
layer {
  name: "L1_b7_cbr1_dropout"
  type: "Dropout"
  bottom: "L1_b7_cbr1_bn_top"
  top: "L1_b7_cbr1_bn_top"
  dropout_param {
    dropout_ratio: 0.2
  }
}
layer {
  name: "L1_b7_cbr1_relu"
  type: "ReLU"
  bottom: "L1_b7_cbr1_bn_top"
  top: "L1_b7_cbr1_bn_top"
}
layer {
  name: "L1_b7_cbr2_conv"
  type: "Convolution"
  bottom: "L1_b7_cbr1_bn_top"
  top: "L1_b7_cbr2_conv_top"
  param {
    lr_mult: 1
    decay_mult: 1
  }
  param {
    lr_mult: 2
    decay_mult: 0
  }
  convolution_param {
    num_output: 16
    pad: 1
    kernel_size: 3
    stride: 1
    weight_filler {
      type: "msra"
    }
    bias_filler {
      type: "constant"
    }
  }
}
layer {
  name: "L1_b7_cbr2_bn"
  type: "BatchNorm"
  bottom: "L1_b7_cbr2_conv_top"
  top: "L1_b7_cbr2_bn_top"
  include {
    phase: TRAIN
  }
  batch_norm_param {
    use_global_stats: false
    moving_average_fraction: 0.95
  }
}
layer {
  name: "L1_b7_cbr2_scale"
  type: "Scale"
  bottom: "L1_b7_cbr2_bn_top"
  top: "L1_b7_cbr2_bn_top"
  scale_param {
    bias_term: true
  }
}
layer {
  name: "L1_b7_cbr2_dropout"
  type: "Dropout"
  bottom: "L1_b7_cbr2_bn_top"
  top: "L1_b7_cbr2_bn_top"
  dropout_param {
    dropout_ratio: 0.2
  }
}
layer {
  name: "L1_b7_sum_eltwise"
  type: "Eltwise"
  bottom: "L1_b7_cbr2_bn_top"
  bottom: "L1_b6_sum_eltwise_top"
  top: "L1_b7_sum_eltwise_top"
  eltwise_param {
    operation: SUM
  }
}
layer {
  name: "L1_b7_relu"
  type: "ReLU"
  bottom: "L1_b7_sum_eltwise_top"
  top: "L1_b7_sum_eltwise_top"
}
layer {
  name: "L1_b8_cbr1_conv"
  type: "Convolution"
  bottom: "L1_b7_sum_eltwise_top"
  top: "L1_b8_cbr1_conv_top"
  param {
    lr_mult: 1
    decay_mult: 1
  }
  param {
    lr_mult: 2
    decay_mult: 0
  }
  convolution_param {
    num_output: 16
    pad: 1
    kernel_size: 3
    stride: 1
    weight_filler {
      type: "msra"
    }
    bias_filler {
      type: "constant"
    }
  }
}
layer {
  name: "L1_b8_cbr1_bn"
  type: "BatchNorm"
  bottom: "L1_b8_cbr1_conv_top"
  top: "L1_b8_cbr1_bn_top"
  include {
    phase: TRAIN
  }
  batch_norm_param {
    use_global_stats: false
    moving_average_fraction: 0.95
  }
}
layer {
  name: "L1_b8_cbr1_scale"
  type: "Scale"
  bottom: "L1_b8_cbr1_bn_top"
  top: "L1_b8_cbr1_bn_top"
  scale_param {
    bias_term: true
  }
}
layer {
  name: "L1_b8_cbr1_dropout"
  type: "Dropout"
  bottom: "L1_b8_cbr1_bn_top"
  top: "L1_b8_cbr1_bn_top"
  dropout_param {
    dropout_ratio: 0.2
  }
}
layer {
  name: "L1_b8_cbr1_relu"
  type: "ReLU"
  bottom: "L1_b8_cbr1_bn_top"
  top: "L1_b8_cbr1_bn_top"
}
layer {
  name: "L1_b8_cbr2_conv"
  type: "Convolution"
  bottom: "L1_b8_cbr1_bn_top"
  top: "L1_b8_cbr2_conv_top"
  param {
    lr_mult: 1
    decay_mult: 1
  }
  param {
    lr_mult: 2
    decay_mult: 0
  }
  convolution_param {
    num_output: 16
    pad: 1
    kernel_size: 3
    stride: 1
    weight_filler {
      type: "msra"
    }
    bias_filler {
      type: "constant"
    }
  }
}
layer {
  name: "L1_b8_cbr2_bn"
  type: "BatchNorm"
  bottom: "L1_b8_cbr2_conv_top"
  top: "L1_b8_cbr2_bn_top"
  include {
    phase: TRAIN
  }
  batch_norm_param {
    use_global_stats: false
    moving_average_fraction: 0.95
  }
}
layer {
  name: "L1_b8_cbr2_scale"
  type: "Scale"
  bottom: "L1_b8_cbr2_bn_top"
  top: "L1_b8_cbr2_bn_top"
  scale_param {
    bias_term: true
  }
}
layer {
  name: "L1_b8_cbr2_dropout"
  type: "Dropout"
  bottom: "L1_b8_cbr2_bn_top"
  top: "L1_b8_cbr2_bn_top"
  dropout_param {
    dropout_ratio: 0.2
  }
}
layer {
  name: "L1_b8_sum_eltwise"
  type: "Eltwise"
  bottom: "L1_b8_cbr2_bn_top"
  bottom: "L1_b7_sum_eltwise_top"
  top: "L1_b8_sum_eltwise_top"
  eltwise_param {
    operation: SUM
  }
}
layer {
  name: "L1_b8_relu"
  type: "ReLU"
  bottom: "L1_b8_sum_eltwise_top"
  top: "L1_b8_sum_eltwise_top"
}
layer {
  name: "L1_b9_cbr1_conv"
  type: "Convolution"
  bottom: "L1_b8_sum_eltwise_top"
  top: "L1_b9_cbr1_conv_top"
  param {
    lr_mult: 1
    decay_mult: 1
  }
  param {
    lr_mult: 2
    decay_mult: 0
  }
  convolution_param {
    num_output: 16
    pad: 1
    kernel_size: 3
    stride: 1
    weight_filler {
      type: "msra"
    }
    bias_filler {
      type: "constant"
    }
  }
}
layer {
  name: "L1_b9_cbr1_bn"
  type: "BatchNorm"
  bottom: "L1_b9_cbr1_conv_top"
  top: "L1_b9_cbr1_bn_top"
  include {
    phase: TRAIN
  }
  batch_norm_param {
    use_global_stats: false
    moving_average_fraction: 0.95
  }
}
layer {
  name: "L1_b9_cbr1_scale"
  type: "Scale"
  bottom: "L1_b9_cbr1_bn_top"
  top: "L1_b9_cbr1_bn_top"
  scale_param {
    bias_term: true
  }
}
layer {
  name: "L1_b9_cbr1_dropout"
  type: "Dropout"
  bottom: "L1_b9_cbr1_bn_top"
  top: "L1_b9_cbr1_bn_top"
  dropout_param {
    dropout_ratio: 0.2
  }
}
layer {
  name: "L1_b9_cbr1_relu"
  type: "ReLU"
  bottom: "L1_b9_cbr1_bn_top"
  top: "L1_b9_cbr1_bn_top"
}
layer {
  name: "L1_b9_cbr2_conv"
  type: "Convolution"
  bottom: "L1_b9_cbr1_bn_top"
  top: "L1_b9_cbr2_conv_top"
  param {
    lr_mult: 1
    decay_mult: 1
  }
  param {
    lr_mult: 2
    decay_mult: 0
  }
  convolution_param {
    num_output: 16
    pad: 1
    kernel_size: 3
    stride: 1
    weight_filler {
      type: "msra"
    }
    bias_filler {
      type: "constant"
    }
  }
}
layer {
  name: "L1_b9_cbr2_bn"
  type: "BatchNorm"
  bottom: "L1_b9_cbr2_conv_top"
  top: "L1_b9_cbr2_bn_top"
  include {
    phase: TRAIN
  }
  batch_norm_param {
    use_global_stats: false
    moving_average_fraction: 0.95
  }
}
layer {
  name: "L1_b9_cbr2_scale"
  type: "Scale"
  bottom: "L1_b9_cbr2_bn_top"
  top: "L1_b9_cbr2_bn_top"
  scale_param {
    bias_term: true
  }
}
layer {
  name: "L1_b9_cbr2_dropout"
  type: "Dropout"
  bottom: "L1_b9_cbr2_bn_top"
  top: "L1_b9_cbr2_bn_top"
  dropout_param {
    dropout_ratio: 0.2
  }
}
layer {
  name: "L1_b9_sum_eltwise"
  type: "Eltwise"
  bottom: "L1_b9_cbr2_bn_top"
  bottom: "L1_b8_sum_eltwise_top"
  top: "L1_b9_sum_eltwise_top"
  eltwise_param {
    operation: SUM
  }
}
layer {
  name: "L1_b9_relu"
  type: "ReLU"
  bottom: "L1_b9_sum_eltwise_top"
  top: "L1_b9_sum_eltwise_top"
}
layer {
  name: "L2_b1_cbr1_conv"
  type: "Convolution"
  bottom: "L1_b9_sum_eltwise_top"
  top: "L2_b1_cbr1_conv_top"
  param {
    lr_mult: 1
    decay_mult: 1
  }
  param {
    lr_mult: 2
    decay_mult: 0
  }
  convolution_param {
    num_output: 16
    pad: 1
    kernel_size: 3
    stride: 2
    weight_filler {
      type: "msra"
    }
    bias_filler {
      type: "constant"
    }
  }
}
layer {
  name: "L2_b1_cbr1_bn"
  type: "BatchNorm"
  bottom: "L2_b1_cbr1_conv_top"
  top: "L2_b1_cbr1_bn_top"
  include {
    phase: TRAIN
  }
  batch_norm_param {
    use_global_stats: false
    moving_average_fraction: 0.95
  }
}
layer {
  name: "L2_b1_cbr1_scale"
  type: "Scale"
  bottom: "L2_b1_cbr1_bn_top"
  top: "L2_b1_cbr1_bn_top"
  scale_param {
    bias_term: true
  }
}
layer {
  name: "L2_b1_cbr1_dropout"
  type: "Dropout"
  bottom: "L2_b1_cbr1_bn_top"
  top: "L2_b1_cbr1_bn_top"
  dropout_param {
    dropout_ratio: 0.2
  }
}
layer {
  name: "L2_b1_cbr1_relu"
  type: "ReLU"
  bottom: "L2_b1_cbr1_bn_top"
  top: "L2_b1_cbr1_bn_top"
}
layer {
  name: "L2_b1_cbr2_conv"
  type: "Convolution"
  bottom: "L2_b1_cbr1_bn_top"
  top: "L2_b1_cbr2_conv_top"
  param {
    lr_mult: 1
    decay_mult: 1
  }
  param {
    lr_mult: 2
    decay_mult: 0
  }
  convolution_param {
    num_output: 16
    pad: 1
    kernel_size: 3
    stride: 1
    weight_filler {
      type: "msra"
    }
    bias_filler {
      type: "constant"
    }
  }
}
layer {
  name: "L2_b1_cbr2_bn"
  type: "BatchNorm"
  bottom: "L2_b1_cbr2_conv_top"
  top: "L2_b1_cbr2_bn_top"
  include {
    phase: TRAIN
  }
  batch_norm_param {
    use_global_stats: false
    moving_average_fraction: 0.95
  }
}
layer {
  name: "L2_b1_cbr2_scale"
  type: "Scale"
  bottom: "L2_b1_cbr2_bn_top"
  top: "L2_b1_cbr2_bn_top"
  scale_param {
    bias_term: true
  }
}
layer {
  name: "L2_b1_cbr2_dropout"
  type: "Dropout"
  bottom: "L2_b1_cbr2_bn_top"
  top: "L2_b1_cbr2_bn_top"
  dropout_param {
    dropout_ratio: 0.2
  }
}
layer {
  name: "L2_b1_pool"
  type: "Pooling"
  bottom: "L1_b9_sum_eltwise_top"
  top: "L2_b1_pool"
  pooling_param {
    pool: AVE
    kernel_size: 3
    stride: 2
  }
}
layer {
  name: "L2_b1_sum_eltwise"
  type: "Eltwise"
  bottom: "L2_b1_cbr2_bn_top"
  bottom: "L2_b1_pool"
  top: "L2_b1_sum_eltwise_top"
  eltwise_param {
    operation: SUM
  }
}
layer {
  name: "L2_b1_relu"
  type: "ReLU"
  bottom: "L2_b1_sum_eltwise_top"
  top: "L2_b1_sum_eltwise_top"
}
layer {
  name: "L2_b1_zeros"
  type: "DummyData"
  top: "L2_b1_zeros"
  dummy_data_param {
    data_filler {
      type: "constant"
      value: 0
    }
    shape {
      dim: 125
      dim: 16
      dim: 16
      dim: 16
    }
  }
}
layer {
  name: "L2_b1_concat0"
  type: "Concat"
  bottom: "L2_b1_sum_eltwise_top"
  bottom: "L2_b1_zeros"
  top: "L2_b1_concat0"
  concat_param {
    axis: 1
  }
}
layer {
  name: "L2_b2_cbr1_conv"
  type: "Convolution"
  bottom: "L2_b1_concat0"
  top: "L2_b2_cbr1_conv_top"
  param {
    lr_mult: 1
    decay_mult: 1
  }
  param {
    lr_mult: 2
    decay_mult: 0
  }
  convolution_param {
    num_output: 32
    pad: 1
    kernel_size: 3
    stride: 1
    weight_filler {
      type: "msra"
    }
    bias_filler {
      type: "constant"
    }
  }
}
layer {
  name: "L2_b2_cbr1_bn"
  type: "BatchNorm"
  bottom: "L2_b2_cbr1_conv_top"
  top: "L2_b2_cbr1_bn_top"
  include {
    phase: TRAIN
  }
  batch_norm_param {
    use_global_stats: false
    moving_average_fraction: 0.95
  }
}
layer {
  name: "L2_b2_cbr1_scale"
  type: "Scale"
  bottom: "L2_b2_cbr1_bn_top"
  top: "L2_b2_cbr1_bn_top"
  scale_param {
    bias_term: true
  }
}
layer {
  name: "L2_b2_cbr1_dropout"
  type: "Dropout"
  bottom: "L2_b2_cbr1_bn_top"
  top: "L2_b2_cbr1_bn_top"
  dropout_param {
    dropout_ratio: 0.2
  }
}
layer {
  name: "L2_b2_cbr1_relu"
  type: "ReLU"
  bottom: "L2_b2_cbr1_bn_top"
  top: "L2_b2_cbr1_bn_top"
}
layer {
  name: "L2_b2_cbr2_conv"
  type: "Convolution"
  bottom: "L2_b2_cbr1_bn_top"
  top: "L2_b2_cbr2_conv_top"
  param {
    lr_mult: 1
    decay_mult: 1
  }
  param {
    lr_mult: 2
    decay_mult: 0
  }
  convolution_param {
    num_output: 32
    pad: 1
    kernel_size: 3
    stride: 1
    weight_filler {
      type: "msra"
    }
    bias_filler {
      type: "constant"
    }
  }
}
layer {
  name: "L2_b2_cbr2_bn"
  type: "BatchNorm"
  bottom: "L2_b2_cbr2_conv_top"
  top: "L2_b2_cbr2_bn_top"
  include {
    phase: TRAIN
  }
  batch_norm_param {
    use_global_stats: false
    moving_average_fraction: 0.95
  }
}
layer {
  name: "L2_b2_cbr2_scale"
  type: "Scale"
  bottom: "L2_b2_cbr2_bn_top"
  top: "L2_b2_cbr2_bn_top"
  scale_param {
    bias_term: true
  }
}
layer {
  name: "L2_b2_cbr2_dropout"
  type: "Dropout"
  bottom: "L2_b2_cbr2_bn_top"
  top: "L2_b2_cbr2_bn_top"
  dropout_param {
    dropout_ratio: 0.2
  }
}
layer {
  name: "L2_b2_sum_eltwise"
  type: "Eltwise"
  bottom: "L2_b2_cbr2_bn_top"
  bottom: "L2_b1_concat0"
  top: "L2_b2_sum_eltwise_top"
  eltwise_param {
    operation: SUM
  }
}
layer {
  name: "L2_b2_relu"
  type: "ReLU"
  bottom: "L2_b2_sum_eltwise_top"
  top: "L2_b2_sum_eltwise_top"
}
layer {
  name: "L2_b3_cbr1_conv"
  type: "Convolution"
  bottom: "L2_b2_sum_eltwise_top"
  top: "L2_b3_cbr1_conv_top"
  param {
    lr_mult: 1
    decay_mult: 1
  }
  param {
    lr_mult: 2
    decay_mult: 0
  }
  convolution_param {
    num_output: 32
    pad: 1
    kernel_size: 3
    stride: 1
    weight_filler {
      type: "msra"
    }
    bias_filler {
      type: "constant"
    }
  }
}
layer {
  name: "L2_b3_cbr1_bn"
  type: "BatchNorm"
  bottom: "L2_b3_cbr1_conv_top"
  top: "L2_b3_cbr1_bn_top"
  include {
    phase: TRAIN
  }
  batch_norm_param {
    use_global_stats: false
    moving_average_fraction: 0.95
  }
}
layer {
  name: "L2_b3_cbr1_scale"
  type: "Scale"
  bottom: "L2_b3_cbr1_bn_top"
  top: "L2_b3_cbr1_bn_top"
  scale_param {
    bias_term: true
  }
}
layer {
  name: "L2_b3_cbr1_dropout"
  type: "Dropout"
  bottom: "L2_b3_cbr1_bn_top"
  top: "L2_b3_cbr1_bn_top"
  dropout_param {
    dropout_ratio: 0.2
  }
}
layer {
  name: "L2_b3_cbr1_relu"
  type: "ReLU"
  bottom: "L2_b3_cbr1_bn_top"
  top: "L2_b3_cbr1_bn_top"
}
layer {
  name: "L2_b3_cbr2_conv"
  type: "Convolution"
  bottom: "L2_b3_cbr1_bn_top"
  top: "L2_b3_cbr2_conv_top"
  param {
    lr_mult: 1
    decay_mult: 1
  }
  param {
    lr_mult: 2
    decay_mult: 0
  }
  convolution_param {
    num_output: 32
    pad: 1
    kernel_size: 3
    stride: 1
    weight_filler {
      type: "msra"
    }
    bias_filler {
      type: "constant"
    }
  }
}
layer {
  name: "L2_b3_cbr2_bn"
  type: "BatchNorm"
  bottom: "L2_b3_cbr2_conv_top"
  top: "L2_b3_cbr2_bn_top"
  include {
    phase: TRAIN
  }
  batch_norm_param {
    use_global_stats: false
    moving_average_fraction: 0.95
  }
}
layer {
  name: "L2_b3_cbr2_scale"
  type: "Scale"
  bottom: "L2_b3_cbr2_bn_top"
  top: "L2_b3_cbr2_bn_top"
  scale_param {
    bias_term: true
  }
}
layer {
  name: "L2_b3_cbr2_dropout"
  type: "Dropout"
  bottom: "L2_b3_cbr2_bn_top"
  top: "L2_b3_cbr2_bn_top"
  dropout_param {
    dropout_ratio: 0.2
  }
}
layer {
  name: "L2_b3_sum_eltwise"
  type: "Eltwise"
  bottom: "L2_b3_cbr2_bn_top"
  bottom: "L2_b2_sum_eltwise_top"
  top: "L2_b3_sum_eltwise_top"
  eltwise_param {
    operation: SUM
  }
}
layer {
  name: "L2_b3_relu"
  type: "ReLU"
  bottom: "L2_b3_sum_eltwise_top"
  top: "L2_b3_sum_eltwise_top"
}
layer {
  name: "L2_b4_cbr1_conv"
  type: "Convolution"
  bottom: "L2_b3_sum_eltwise_top"
  top: "L2_b4_cbr1_conv_top"
  param {
    lr_mult: 1
    decay_mult: 1
  }
  param {
    lr_mult: 2
    decay_mult: 0
  }
  convolution_param {
    num_output: 32
    pad: 1
    kernel_size: 3
    stride: 1
    weight_filler {
      type: "msra"
    }
    bias_filler {
      type: "constant"
    }
  }
}
layer {
  name: "L2_b4_cbr1_bn"
  type: "BatchNorm"
  bottom: "L2_b4_cbr1_conv_top"
  top: "L2_b4_cbr1_bn_top"
  include {
    phase: TRAIN
  }
  batch_norm_param {
    use_global_stats: false
    moving_average_fraction: 0.95
  }
}
layer {
  name: "L2_b4_cbr1_scale"
  type: "Scale"
  bottom: "L2_b4_cbr1_bn_top"
  top: "L2_b4_cbr1_bn_top"
  scale_param {
    bias_term:
I1209 19:32:18.752132  1002 layer_factory.hpp:77] Creating layer dataLayer
I1209 19:32:18.758045  1002 net.cpp:100] Creating Layer dataLayer
I1209 19:32:18.758129  1002 net.cpp:408] dataLayer -> data_top
I1209 19:32:18.758337  1002 net.cpp:408] dataLayer -> label
I1209 19:32:18.758467  1002 data_transformer.cpp:25] Loading mean file from: examples/cifar10/mean.binaryproto
I1209 19:32:18.820346  1008 db_lmdb.cpp:35] Opened lmdb examples/cifar10/cifar10_train_lmdb
I1209 19:32:18.996662  1002 data_layer.cpp:41] output data size: 125,3,32,32
I1209 19:32:19.006731  1002 net.cpp:150] Setting up dataLayer
I1209 19:32:19.006826  1002 net.cpp:157] Top shape: 125 3 32 32 (384000)
I1209 19:32:19.006847  1002 net.cpp:157] Top shape: 125 (125)
I1209 19:32:19.006858  1002 net.cpp:165] Memory required for data: 1536500
I1209 19:32:19.006883  1002 layer_factory.hpp:77] Creating layer label_dataLayer_1_split
I1209 19:32:19.006908  1002 net.cpp:100] Creating Layer label_dataLayer_1_split
I1209 19:32:19.006922  1002 net.cpp:434] label_dataLayer_1_split <- label
I1209 19:32:19.006953  1002 net.cpp:408] label_dataLayer_1_split -> label_dataLayer_1_split_0
I1209 19:32:19.006986  1002 net.cpp:408] label_dataLayer_1_split -> label_dataLayer_1_split_1
I1209 19:32:19.007091  1002 net.cpp:150] Setting up label_dataLayer_1_split
I1209 19:32:19.007115  1002 net.cpp:157] Top shape: 125 (125)
I1209 19:32:19.007129  1002 net.cpp:157] Top shape: 125 (125)
I1209 19:32:19.007139  1002 net.cpp:165] Memory required for data: 1537500
I1209 19:32:19.007150  1002 layer_factory.hpp:77] Creating layer pre_conv
I1209 19:32:19.007252  1002 net.cpp:100] Creating Layer pre_conv
I1209 19:32:19.007268  1002 net.cpp:434] pre_conv <- data_top
I1209 19:32:19.007284  1002 net.cpp:408] pre_conv -> pre_conv_top
I1209 19:32:19.009516  1002 net.cpp:150] Setting up pre_conv
I1209 19:32:19.009549  1002 net.cpp:157] Top shape: 125 16 32 32 (2048000)
I1209 19:32:19.009562  1002 net.cpp:165] Memory required for data: 9729500
I1209 19:32:19.009654  1002 layer_factory.hpp:77] Creating layer pre_bn
I1209 19:32:19.009760  1009 blocking_queue.cpp:50] Waiting for data
I1209 19:32:19.009819  1002 net.cpp:100] Creating Layer pre_bn
I1209 19:32:19.009836  1002 net.cpp:434] pre_bn <- pre_conv_top
I1209 19:32:19.009861  1002 net.cpp:408] pre_bn -> pre_bn_top
I1209 19:32:19.010391  1002 net.cpp:150] Setting up pre_bn
I1209 19:32:19.010417  1002 net.cpp:157] Top shape: 125 16 32 32 (2048000)
I1209 19:32:19.010429  1002 net.cpp:165] Memory required for data: 17921500
I1209 19:32:19.010458  1002 layer_factory.hpp:77] Creating layer pre_scale
I1209 19:32:19.010540  1002 net.cpp:100] Creating Layer pre_scale
I1209 19:32:19.010555  1002 net.cpp:434] pre_scale <- pre_bn_top
I1209 19:32:19.010571  1002 net.cpp:395] pre_scale -> pre_bn_top (in-place)
I1209 19:32:19.010828  1002 layer_factory.hpp:77] Creating layer pre_scale
I1209 19:32:19.023093  1002 net.cpp:150] Setting up pre_scale
I1209 19:32:19.023119  1002 net.cpp:157] Top shape: 125 16 32 32 (2048000)
I1209 19:32:19.023130  1002 net.cpp:165] Memory required for data: 26113500
I1209 19:32:19.023151  1002 layer_factory.hpp:77] Creating layer pre_relu
I1209 19:32:19.023241  1002 net.cpp:100] Creating Layer pre_relu
I1209 19:32:19.023260  1002 net.cpp:434] pre_relu <- pre_bn_top
I1209 19:32:19.023283  1002 net.cpp:395] pre_relu -> pre_bn_top (in-place)
I1209 19:32:19.023303  1002 net.cpp:150] Setting up pre_relu
I1209 19:32:19.023319  1002 net.cpp:157] Top shape: 125 16 32 32 (2048000)
I1209 19:32:19.023329  1002 net.cpp:165] Memory required for data: 34305500
I1209 19:32:19.023340  1002 layer_factory.hpp:77] Creating layer pre_bn_top_pre_relu_0_split
I1209 19:32:19.023356  1002 net.cpp:100] Creating Layer pre_bn_top_pre_relu_0_split
I1209 19:32:19.023367  1002 net.cpp:434] pre_bn_top_pre_relu_0_split <- pre_bn_top
I1209 19:32:19.023382  1002 net.cpp:408] pre_bn_top_pre_relu_0_split -> pre_bn_top_pre_relu_0_split_0
I1209 19:32:19.023401  1002 net.cpp:408] pre_bn_top_pre_relu_0_split -> pre_bn_top_pre_relu_0_split_1
I1209 19:32:19.023488  1002 net.cpp:150] Setting up pre_bn_top_pre_relu_0_split
I1209 19:32:19.023509  1002 net.cpp:157] Top shape: 125 16 32 32 (2048000)
I1209 19:32:19.023521  1002 net.cpp:157] Top shape: 125 16 32 32 (2048000)
I1209 19:32:19.023531  1002 net.cpp:165] Memory required for data: 50689500
I1209 19:32:19.023543  1002 layer_factory.hpp:77] Creating layer L1_b1_cbr1_conv
I1209 19:32:19.023571  1002 net.cpp:100] Creating Layer L1_b1_cbr1_conv
I1209 19:32:19.023583  1002 net.cpp:434] L1_b1_cbr1_conv <- pre_bn_top_pre_relu_0_split_0
I1209 19:32:19.023602  1002 net.cpp:408] L1_b1_cbr1_conv -> L1_b1_cbr1_conv_top
I1209 19:32:19.023972  1002 net.cpp:150] Setting up L1_b1_cbr1_conv
I1209 19:32:19.023993  1002 net.cpp:157] Top shape: 125 16 32 32 (2048000)
I1209 19:32:19.024004  1002 net.cpp:165] Memory required for data: 58881500
I1209 19:32:19.024034  1002 layer_factory.hpp:77] Creating layer L1_b1_cbr1_bn
I1209 19:32:19.024061  1002 net.cpp:100] Creating Layer L1_b1_cbr1_bn
I1209 19:32:19.024073  1002 net.cpp:434] L1_b1_cbr1_bn <- L1_b1_cbr1_conv_top
I1209 19:32:19.024091  1002 net.cpp:408] L1_b1_cbr1_bn -> L1_b1_cbr1_bn_top
I1209 19:32:19.024363  1002 net.cpp:150] Setting up L1_b1_cbr1_bn
I1209 19:32:19.024381  1002 net.cpp:157] Top shape: 125 16 32 32 (2048000)
I1209 19:32:19.024391  1002 net.cpp:165] Memory required for data: 67073500
I1209 19:32:19.024413  1002 layer_factory.hpp:77] Creating layer L1_b1_cbr1_scale
I1209 19:32:19.024432  1002 net.cpp:100] Creating Layer L1_b1_cbr1_scale
I1209 19:32:19.024444  1002 net.cpp:434] L1_b1_cbr1_scale <- L1_b1_cbr1_bn_top
I1209 19:32:19.024464  1002 net.cpp:395] L1_b1_cbr1_scale -> L1_b1_cbr1_bn_top (in-place)
I1209 19:32:19.024556  1002 layer_factory.hpp:77] Creating layer L1_b1_cbr1_scale
I1209 19:32:19.024746  1002 net.cpp:150] Setting up L1_b1_cbr1_scale
I1209 19:32:19.024780  1002 net.cpp:157] Top shape: 125 16 32 32 (2048000)
I1209 19:32:19.024791  1002 net.cpp:165] Memory required for data: 75265500
I1209 19:32:19.024808  1002 layer_factory.hpp:77] Creating layer L1_b1_cbr1_dropout
I1209 19:32:19.024909  1002 net.cpp:100] Creating Layer L1_b1_cbr1_dropout
I1209 19:32:19.024924  1002 net.cpp:434] L1_b1_cbr1_dropout <- L1_b1_cbr1_bn_top
I1209 19:32:19.024938  1002 net.cpp:395] L1_b1_cbr1_dropout -> L1_b1_cbr1_bn_top (in-place)
I1209 19:32:19.025009  1002 net.cpp:150] Setting up L1_b1_cbr1_dropout
I1209 19:32:19.025028  1002 net.cpp:157] Top shape: 125 16 32 32 (2048000)
I1209 19:32:19.025038  1002 net.cpp:165] Memory required for data: 83457500
I1209 19:32:19.025050  1002 layer_factory.hpp:77] Creating layer L1_b1_cbr1_relu
I1209 19:32:19.025064  1002 net.cpp:100] Creating Layer L1_b1_cbr1_relu
I1209 19:32:19.025075  1002 net.cpp:434] L1_b1_cbr1_relu <- L1_b1_cbr1_bn_top
I1209 19:32:19.025096  1002 net.cpp:395] L1_b1_cbr1_relu -> L1_b1_cbr1_bn_top (in-place)
I1209 19:32:19.025117  1002 net.cpp:150] Setting up L1_b1_cbr1_relu
I1209 19:32:19.025132  1002 net.cpp:157] Top shape: 125 16 32 32 (2048000)
I1209 19:32:19.025141  1002 net.cpp:165] Memory required for data: 91649500
I1209 19:32:19.025153  1002 layer_factory.hpp:77] Creating layer L1_b1_cbr2_conv
I1209 19:32:19.025182  1002 net.cpp:100] Creating Layer L1_b1_cbr2_conv
I1209 19:32:19.025194  1002 net.cpp:434] L1_b1_cbr2_conv <- L1_b1_cbr1_bn_top
I1209 19:32:19.025213  1002 net.cpp:408] L1_b1_cbr2_conv -> L1_b1_cbr2_conv_top
I1209 19:32:19.025571  1002 net.cpp:150] Setting up L1_b1_cbr2_conv
I1209 19:32:19.025591  1002 net.cpp:157] Top shape: 125 16 32 32 (2048000)
I1209 19:32:19.025601  1002 net.cpp:165] Memory required for data: 99841500
I1209 19:32:19.025619  1002 layer_factory.hpp:77] Creating layer L1_b1_cbr2_bn
I1209 19:32:19.025641  1002 net.cpp:100] Creating Layer L1_b1_cbr2_bn
I1209 19:32:19.025653  1002 net.cpp:434] L1_b1_cbr2_bn <- L1_b1_cbr2_conv_top
I1209 19:32:19.025669  1002 net.cpp:408] L1_b1_cbr2_bn -> L1_b1_cbr2_bn_top
I1209 19:32:19.025979  1002 net.cpp:150] Setting up L1_b1_cbr2_bn
I1209 19:32:19.026000  1002 net.cpp:157] Top shape: 125 16 32 32 (2048000)
I1209 19:32:19.026010  1002 net.cpp:165] Memory required for data: 108033500
I1209 19:32:19.026037  1002 layer_factory.hpp:77] Creating layer L1_b1_cbr2_scale
I1209 19:32:19.026057  1002 net.cpp:100] Creating Layer L1_b1_cbr2_scale
I1209 19:32:19.026069  1002 net.cpp:434] L1_b1_cbr2_scale <- L1_b1_cbr2_bn_top
I1209 19:32:19.026090  1002 net.cpp:395] L1_b1_cbr2_scale -> L1_b1_cbr2_bn_top (in-place)
I1209 19:32:19.026185  1002 layer_factory.hpp:77] Creating layer L1_b1_cbr2_scale
I1209 19:32:19.026367  1002 net.cpp:150] Setting up L1_b1_cbr2_scale
I1209 19:32:19.026386  1002 net.cpp:157] Top shape: 125 16 32 32 (2048000)
I1209 19:32:19.026396  1002 net.cpp:165] Memory required for data: 116225500
I1209 19:32:19.026414  1002 layer_factory.hpp:77] Creating layer L1_b1_cbr2_dropout
I1209 19:32:19.026437  1002 net.cpp:100] Creating Layer L1_b1_cbr2_dropout
I1209 19:32:19.026448  1002 net.cpp:434] L1_b1_cbr2_dropout <- L1_b1_cbr2_bn_top
I1209 19:32:19.026463  1002 net.cpp:395] L1_b1_cbr2_dropout -> L1_b1_cbr2_bn_top (in-place)
I1209 19:32:19.026520  1002 net.cpp:150] Setting up L1_b1_cbr2_dropout
I1209 19:32:19.026536  1002 net.cpp:157] Top shape: 125 16 32 32 (2048000)
I1209 19:32:19.026546  1002 net.cpp:165] Memory required for data: 124417500
I1209 19:32:19.026559  1002 layer_factory.hpp:77] Creating layer L1_b1_sum_eltwise
I1209 19:32:19.026641  1002 net.cpp:100] Creating Layer L1_b1_sum_eltwise
I1209 19:32:19.026657  1002 net.cpp:434] L1_b1_sum_eltwise <- L1_b1_cbr2_bn_top
I1209 19:32:19.026671  1002 net.cpp:434] L1_b1_sum_eltwise <- pre_bn_top_pre_relu_0_split_1
I1209 19:32:19.026687  1002 net.cpp:408] L1_b1_sum_eltwise -> L1_b1_sum_eltwise_top
I1209 19:32:19.026811  1002 net.cpp:150] Setting up L1_b1_sum_eltwise
I1209 19:32:19.026831  1002 net.cpp:157] Top shape: 125 16 32 32 (2048000)
I1209 19:32:19.026841  1002 net.cpp:165] Memory required for data: 132609500
I1209 19:32:19.026854  1002 layer_factory.hpp:77] Creating layer L1_b1_relu
I1209 19:32:19.026870  1002 net.cpp:100] Creating Layer L1_b1_relu
I1209 19:32:19.026880  1002 net.cpp:434] L1_b1_relu <- L1_b1_sum_eltwise_top
I1209 19:32:19.026906  1002 net.cpp:395] L1_b1_relu -> L1_b1_sum_eltwise_top (in-place)
I1209 19:32:19.026926  1002 net.cpp:150] Setting up L1_b1_relu
I1209 19:32:19.026943  1002 net.cpp:157] Top shape: 125 16 32 32 (2048000)
I1209 19:32:19.026952  1002 net.cpp:165] Memory required for data: 140801500
I1209 19:32:19.026970  1002 layer_factory.hpp:77] Creating layer L1_b1_sum_eltwise_top_L1_b1_relu_0_split
I1209 19:32:19.026985  1002 net.cpp:100] Creating Layer L1_b1_sum_eltwise_top_L1_b1_relu_0_split
I1209 19:32:19.026996  1002 net.cpp:434] L1_b1_sum_eltwise_top_L1_b1_relu_0_split <- L1_b1_sum_eltwise_top
I1209 19:32:19.027017  1002 net.cpp:408] L1_b1_sum_eltwise_top_L1_b1_relu_0_split -> L1_b1_sum_eltwise_top_L1_b1_relu_0_split_0
I1209 19:32:19.027037  1002 net.cpp:408] L1_b1_sum_eltwise_top_L1_b1_relu_0_split -> L1_b1_sum_eltwise_top_L1_b1_relu_0_split_1
I1209 19:32:19.027112  1002 net.cpp:150] Setting up L1_b1_sum_eltwise_top_L1_b1_relu_0_split
I1209 19:32:19.027132  1002 net.cpp:157] Top shape: 125 16 32 32 (2048000)
I1209 19:32:19.027144  1002 net.cpp:157] Top shape: 125 16 32 32 (2048000)
I1209 19:32:19.027153  1002 net.cpp:165] Memory required for data: 157185500
I1209 19:32:19.027164  1002 layer_factory.hpp:77] Creating layer L1_b2_cbr1_conv
I1209 19:32:19.027196  1002 net.cpp:100] Creating Layer L1_b2_cbr1_conv
I1209 19:32:19.027210  1002 net.cpp:434] L1_b2_cbr1_conv <- L1_b1_sum_eltwise_top_L1_b1_relu_0_split_0
I1209 19:32:19.027235  1002 net.cpp:408] L1_b2_cbr1_conv -> L1_b2_cbr1_conv_top
I1209 19:32:19.027608  1002 net.cpp:150] Setting up L1_b2_cbr1_conv
I1209 19:32:19.027628  1002 net.cpp:157] Top shape: 125 16 32 32 (2048000)
I1209 19:32:19.027638  1002 net.cpp:165] Memory required for data: 165377500
I1209 19:32:19.027655  1002 layer_factory.hpp:77] Creating layer L1_b2_cbr1_bn
I1209 19:32:19.027679  1002 net.cpp:100] Creating Layer L1_b2_cbr1_bn
I1209 19:32:19.027691  1002 net.cpp:434] L1_b2_cbr1_bn <- L1_b2_cbr1_conv_top
I1209 19:32:19.027712  1002 net.cpp:408] L1_b2_cbr1_bn -> L1_b2_cbr1_bn_top
I1209 19:32:19.028012  1002 net.cpp:150] Setting up L1_b2_cbr1_bn
I1209 19:32:19.028033  1002 net.cpp:157] Top shape: 125 16 32 32 (2048000)
I1209 19:32:19.028043  1002 net.cpp:165] Memory required for data: 173569500
I1209 19:32:19.028064  1002 layer_factory.hpp:77] Creating layer L1_b2_cbr1_scale
I1209 19:32:19.028082  1002 net.cpp:100] Creating Layer L1_b2_cbr1_scale
I1209 19:32:19.028093  1002 net.cpp:434] L1_b2_cbr1_scale <- L1_b2_cbr1_bn_top
I1209 19:32:19.028112  1002 net.cpp:395] L1_b2_cbr1_scale -> L1_b2_cbr1_bn_top (in-place)
I1209 19:32:19.028205  1002 layer_factory.hpp:77] Creating layer L1_b2_cbr1_scale
I1209 19:32:19.028388  1002 net.cpp:150] Setting up L1_b2_cbr1_scale
I1209 19:32:19.028411  1002 net.cpp:157] Top shape: 125 16 32 32 (2048000)
I1209 19:32:19.028422  1002 net.cpp:165] Memory required for data: 181761500
I1209 19:32:19.028440  1002 layer_factory.hpp:77] Creating layer L1_b2_cbr1_dropout
I1209 19:32:19.028457  1002 net.cpp:100] Creating Layer L1_b2_cbr1_dropout
I1209 19:32:19.028468  1002 net.cpp:434] L1_b2_cbr1_dropout <- L1_b2_cbr1_bn_top
I1209 19:32:19.028483  1002 net.cpp:395] L1_b2_cbr1_dropout -> L1_b2_cbr1_bn_top (in-place)
I1209 19:32:19.028538  1002 net.cpp:150] Setting up L1_b2_cbr1_dropout
I1209 19:32:19.028558  1002 net.cpp:157] Top shape: 125 16 32 32 (2048000)
I1209 19:32:19.028568  1002 net.cpp:165] Memory required for data: 189953500
I1209 19:32:19.028578  1002 layer_factory.hpp:77] Creating layer L1_b2_cbr1_relu
I1209 19:32:19.028591  1002 net.cpp:100] Creating Layer L1_b2_cbr1_relu
I1209 19:32:19.028602  1002 net.cpp:434] L1_b2_cbr1_relu <- L1_b2_cbr1_bn_top
I1209 19:32:19.028622  1002 net.cpp:395] L1_b2_cbr1_relu -> L1_b2_cbr1_bn_top (in-place)
I1209 19:32:19.028640  1002 net.cpp:150] Setting up L1_b2_cbr1_relu
I1209 19:32:19.028656  1002 net.cpp:157] Top shape: 125 16 32 32 (2048000)
I1209 19:32:19.028664  1002 net.cpp:165] Memory required for data: 198145500
I1209 19:32:19.028676  1002 layer_factory.hpp:77] Creating layer L1_b2_cbr2_conv
I1209 19:32:19.028710  1002 net.cpp:100] Creating Layer L1_b2_cbr2_conv
I1209 19:32:19.028723  1002 net.cpp:434] L1_b2_cbr2_conv <- L1_b2_cbr1_bn_top
I1209 19:32:19.028743  1002 net.cpp:408] L1_b2_cbr2_conv -> L1_b2_cbr2_conv_top
I1209 19:32:19.029114  1002 net.cpp:150] Setting up L1_b2_cbr2_conv
I1209 19:32:19.029134  1002 net.cpp:157] Top shape: 125 16 32 32 (2048000)
I1209 19:32:19.029145  1002 net.cpp:165] Memory required for data: 206337500
I1209 19:32:19.029163  1002 layer_factory.hpp:77] Creating layer L1_b2_cbr2_bn
I1209 19:32:19.029186  1002 net.cpp:100] Creating Layer L1_b2_cbr2_bn
I1209 19:32:19.029199  1002 net.cpp:434] L1_b2_cbr2_bn <- L1_b2_cbr2_conv_top
I1209 19:32:19.029215  1002 net.cpp:408] L1_b2_cbr2_bn -> L1_b2_cbr2_bn_top
I1209 19:32:19.029508  1002 net.cpp:150] Setting up L1_b2_cbr2_bn
I1209 19:32:19.029527  1002 net.cpp:157] Top shape: 125 16 32 32 (2048000)
I1209 19:32:19.029537  1002 net.cpp:165] Memory required for data: 214529500
I1209 19:32:19.029566  1002 layer_factory.hpp:77] Creating layer L1_b2_cbr2_scale
I1209 19:32:19.029590  1002 net.cpp:100] Creating Layer L1_b2_cbr2_scale
I1209 19:32:19.029603  1002 net.cpp:434] L1_b2_cbr2_scale <- L1_b2_cbr2_bn_top
I1209 19:32:19.029618  1002 net.cpp:395] L1_b2_cbr2_scale -> L1_b2_cbr2_bn_top (in-place)
I1209 19:32:19.029709  1002 layer_factory.hpp:77] Creating layer L1_b2_cbr2_scale
I1209 19:32:19.029896  1002 net.cpp:150] Setting up L1_b2_cbr2_scale
I1209 19:32:19.029914  1002 net.cpp:157] Top shape: 125 16 32 32 (2048000)
I1209 19:32:19.029924  1002 net.cpp:165] Memory required for data: 222721500
I1209 19:32:19.029942  1002 layer_factory.hpp:77] Creating layer L1_b2_cbr2_dropout
I1209 19:32:19.029966  1002 net.cpp:100] Creating Layer L1_b2_cbr2_dropout
I1209 19:32:19.029979  1002 net.cpp:434] L1_b2_cbr2_dropout <- L1_b2_cbr2_bn_top
I1209 19:32:19.029994  1002 net.cpp:395] L1_b2_cbr2_dropout -> L1_b2_cbr2_bn_top (in-place)
I1209 19:32:19.030052  1002 net.cpp:150] Setting up L1_b2_cbr2_dropout
I1209 19:32:19.030071  1002 net.cpp:157] Top shape: 125 16 32 32 (2048000)
I1209 19:32:19.030081  1002 net.cpp:165] Memory required for data: 230913500
I1209 19:32:19.030091  1002 layer_factory.hpp:77] Creating layer L1_b2_sum_eltwise
I1209 19:32:19.030107  1002 net.cpp:100] Creating Layer L1_b2_sum_eltwise
I1209 19:32:19.030117  1002 net.cpp:434] L1_b2_sum_eltwise <- L1_b2_cbr2_bn_top
I1209 19:32:19.030130  1002 net.cpp:434] L1_b2_sum_eltwise <- L1_b1_sum_eltwise_top_L1_b1_relu_0_split_1
I1209 19:32:19.030144  1002 net.cpp:408] L1_b2_sum_eltwise -> L1_b2_sum_eltwise_top
I1209 19:32:19.030200  1002 net.cpp:150] Setting up L1_b2_sum_eltwise
I1209 19:32:19.030220  1002 net.cpp:157] Top shape: 125 16 32 32 (2048000)
I1209 19:32:19.030228  1002 net.cpp:165] Memory required for data: 239105500
I1209 19:32:19.030239  1002 layer_factory.hpp:77] Creating layer L1_b2_relu
I1209 19:32:19.030254  1002 net.cpp:100] Creating Layer L1_b2_relu
I1209 19:32:19.030266  1002 net.cpp:434] L1_b2_relu <- L1_b2_sum_eltwise_top
I1209 19:32:19.030279  1002 net.cpp:395] L1_b2_relu -> L1_b2_sum_eltwise_top (in-place)
I1209 19:32:19.030297  1002 net.cpp:150] Setting up L1_b2_relu
I1209 19:32:19.030313  1002 net.cpp:157] Top shape: 125 16 32 32 (2048000)
I1209 19:32:19.030323  1002 net.cpp:165] Memory required for data: 247297500
I1209 19:32:19.030333  1002 layer_factory.hpp:77] Creating layer L1_b2_sum_eltwise_top_L1_b2_relu_0_split
I1209 19:32:19.030346  1002 net.cpp:100] Creating Layer L1_b2_sum_eltwise_top_L1_b2_relu_0_split
I1209 19:32:19.030356  1002 net.cpp:434] L1_b2_sum_eltwise_top_L1_b2_relu_0_split <- L1_b2_sum_eltwise_top
I1209 19:32:19.030380  1002 net.cpp:408] L1_b2_sum_eltwise_top_L1_b2_relu_0_split -> L1_b2_sum_eltwise_top_L1_b2_relu_0_split_0
I1209 19:32:19.030401  1002 net.cpp:408] L1_b2_sum_eltwise_top_L1_b2_relu_0_split -> L1_b2_sum_eltwise_top_L1_b2_relu_0_split_1
I1209 19:32:19.030473  1002 net.cpp:150] Setting up L1_b2_sum_eltwise_top_L1_b2_relu_0_split
I1209 19:32:19.030491  1002 net.cpp:157] Top shape: 125 16 32 32 (2048000)
I1209 19:32:19.030504  1002 net.cpp:157] Top shape: 125 16 32 32 (2048000)
I1209 19:32:19.030524  1002 net.cpp:165] Memory required for data: 263681500
I1209 19:32:19.030535  1002 layer_factory.hpp:77] Creating layer L1_b3_cbr1_conv
I1209 19:32:19.030561  1002 net.cpp:100] Creating Layer L1_b3_cbr1_conv
I1209 19:32:19.030575  1002 net.cpp:434] L1_b3_cbr1_conv <- L1_b2_sum_eltwise_top_L1_b2_relu_0_split_0
I1209 19:32:19.030596  1002 net.cpp:408] L1_b3_cbr1_conv -> L1_b3_cbr1_conv_top
I1209 19:32:19.030956  1002 net.cpp:150] Setting up L1_b3_cbr1_conv
I1209 19:32:19.030982  1002 net.cpp:157] Top shape: 125 16 32 32 (2048000)
I1209 19:32:19.030992  1002 net.cpp:165] Memory required for data: 271873500
I1209 19:32:19.031010  1002 layer_factory.hpp:77] Creating layer L1_b3_cbr1_bn
I1209 19:32:19.031041  1002 net.cpp:100] Creating Layer L1_b3_cbr1_bn
I1209 19:32:19.031054  1002 net.cpp:434] L1_b3_cbr1_bn <- L1_b3_cbr1_conv_top
I1209 19:32:19.031070  1002 net.cpp:408] L1_b3_cbr1_bn -> L1_b3_cbr1_bn_top
I1209 19:32:19.031354  1002 net.cpp:150] Setting up L1_b3_cbr1_bn
I1209 19:32:19.031373  1002 net.cpp:157] Top shape: 125 16 32 32 (2048000)
I1209 19:32:19.031383  1002 net.cpp:165] Memory required for data: 280065500
I1209 19:32:19.031404  1002 layer_factory.hpp:77] Creating layer L1_b3_cbr1_scale
I1209 19:32:19.031422  1002 net.cpp:100] Creating Layer L1_b3_cbr1_scale
I1209 19:32:19.031433  1002 net.cpp:434] L1_b3_cbr1_scale <- L1_b3_cbr1_bn_top
I1209 19:32:19.031455  1002 net.cpp:395] L1_b3_cbr1_scale -> L1_b3_cbr1_bn_top (in-place)
I1209 19:32:19.031549  1002 layer_factory.hpp:77] Creating layer L1_b3_cbr1_scale
I1209 19:32:19.031733  1002 net.cpp:150] Setting up L1_b3_cbr1_scale
I1209 19:32:19.031752  1002 net.cpp:157] Top shape: 125 16 32 32 (2048000)
I1209 19:32:19.031761  1002 net.cpp:165] Memory required for data: 288257500
I1209 19:32:19.031780  1002 layer_factory.hpp:77] Creating layer L1_b3_cbr1_dropout
I1209 19:32:19.031796  1002 net.cpp:100] Creating Layer L1_b3_cbr1_dropout
I1209 19:32:19.031807  1002 net.cpp:434] L1_b3_cbr1_dropout <- L1_b3_cbr1_bn_top
I1209 19:32:19.031827  1002 net.cpp:395] L1_b3_cbr1_dropout -> L1_b3_cbr1_bn_top (in-place)
I1209 19:32:19.031879  1002 net.cpp:150] Setting up L1_b3_cbr1_dropout
I1209 19:32:19.031903  1002 net.cpp:157] Top shape: 125 16 32 32 (2048000)
I1209 19:32:19.031915  1002 net.cpp:165] Memory required for data: 296449500
I1209 19:32:19.031925  1002 layer_factory.hpp:77] Creating layer L1_b3_cbr1_relu
I1209 19:32:19.031940  1002 net.cpp:100] Creating Layer L1_b3_cbr1_relu
I1209 19:32:19.031952  1002 net.cpp:434] L1_b3_cbr1_relu <- L1_b3_cbr1_bn_top
I1209 19:32:19.031975  1002 net.cpp:395] L1_b3_cbr1_relu -> L1_b3_cbr1_bn_top (in-place)
I1209 19:32:19.031994  1002 net.cpp:150] Setting up L1_b3_cbr1_relu
I1209 19:32:19.032009  1002 net.cpp:157] Top shape: 125 16 32 32 (2048000)
I1209 19:32:19.032019  1002 net.cpp:165] Memory required for data: 304641500
I1209 19:32:19.032029  1002 layer_factory.hpp:77] Creating layer L1_b3_cbr2_conv
I1209 19:32:19.032055  1002 net.cpp:100] Creating Layer L1_b3_cbr2_conv
I1209 19:32:19.032068  1002 net.cpp:434] L1_b3_cbr2_conv <- L1_b3_cbr1_bn_top
I1209 19:32:19.032086  1002 net.cpp:408] L1_b3_cbr2_conv -> L1_b3_cbr2_conv_top
I1209 19:32:19.032455  1002 net.cpp:150] Setting up L1_b3_cbr2_conv
I1209 19:32:19.032474  1002 net.cpp:157] Top shape: 125 16 32 32 (2048000)
I1209 19:32:19.032485  1002 net.cpp:165] Memory required for data: 312833500
I1209 19:32:19.032502  1002 layer_factory.hpp:77] Creating layer L1_b3_cbr2_bn
I1209 19:32:19.032528  1002 net.cpp:100] Creating Layer L1_b3_cbr2_bn
I1209 19:32:19.032541  1002 net.cpp:434] L1_b3_cbr2_bn <- L1_b3_cbr2_conv_top
I1209 19:32:19.032560  1002 net.cpp:408] L1_b3_cbr2_bn -> L1_b3_cbr2_bn_top
I1209 19:32:19.032852  1002 net.cpp:150] Setting up L1_b3_cbr2_bn
I1209 19:32:19.032876  1002 net.cpp:157] Top shape: 125 16 32 32 (2048000)
I1209 19:32:19.032886  1002 net.cpp:165] Memory required for data: 321025500
I1209 19:32:19.032907  1002 layer_factory.hpp:77] Creating layer L1_b3_cbr2_scale
I1209 19:32:19.032924  1002 net.cpp:100] Creating Layer L1_b3_cbr2_scale
I1209 19:32:19.032945  1002 net.cpp:434] L1_b3_cbr2_scale <- L1_b3_cbr2_bn_top
I1209 19:32:19.032969  1002 net.cpp:395] L1_b3_cbr2_scale -> L1_b3_cbr2_bn_top (in-place)
I1209 19:32:19.033069  1002 layer_factory.hpp:77] Creating layer L1_b3_cbr2_scale
I1209 19:32:19.033253  1002 net.cpp:150] Setting up L1_b3_cbr2_scale
I1209 19:32:19.033272  1002 net.cpp:157] Top shape: 125 16 32 32 (2048000)
I1209 19:32:19.033282  1002 net.cpp:165] Memory required for data: 329217500
I1209 19:32:19.033300  1002 layer_factory.hpp:77] Creating layer L1_b3_cbr2_dropout
I1209 19:32:19.033325  1002 net.cpp:100] Creating Layer L1_b3_cbr2_dropout
I1209 19:32:19.033337  1002 net.cpp:434] L1_b3_cbr2_dropout <- L1_b3_cbr2_bn_top
I1209 19:32:19.033352  1002 net.cpp:395] L1_b3_cbr2_dropout -> L1_b3_cbr2_bn_top (in-place)
I1209 19:32:19.033403  1002 net.cpp:150] Setting up L1_b3_cbr2_dropout
I1209 19:32:19.033427  1002 net.cpp:157] Top shape: 125 16 32 32 (2048000)
I1209 19:32:19.033437  1002 net.cpp:165] Memory required for data: 337409500
I1209 19:32:19.033448  1002 layer_factory.hpp:77] Creating layer L1_b3_sum_eltwise
I1209 19:32:19.033464  1002 net.cpp:100] Creating Layer L1_b3_sum_eltwise
I1209 19:32:19.033476  1002 net.cpp:434] L1_b3_sum_eltwise <- L1_b3_cbr2_bn_top
I1209 19:32:19.033489  1002 net.cpp:434] L1_b3_sum_eltwise <- L1_b2_sum_eltwise_top_L1_b2_relu_0_split_1
I1209 19:32:19.033509  1002 net.cpp:408] L1_b3_sum_eltwise -> L1_b3_sum_eltwise_top
I1209 19:32:19.033562  1002 net.cpp:150] Setting up L1_b3_sum_eltwise
I1209 19:32:19.033581  1002 net.cpp:157] Top shape: 125 16 32 32 (2048000)
I1209 19:32:19.033591  1002 net.cpp:165] Memory required for data: 345601500
I1209 19:32:19.033601  1002 layer_factory.hpp:77] Creating layer L1_b3_relu
I1209 19:32:19.033623  1002 net.cpp:100] Creating Layer L1_b3_relu
I1209 19:32:19.033637  1002 net.cpp:434] L1_b3_relu <- L1_b3_sum_eltwise_top
I1209 19:32:19.033650  1002 net.cpp:395] L1_b3_relu -> L1_b3_sum_eltwise_top (in-place)
I1209 19:32:19.033668  1002 net.cpp:150] Setting up L1_b3_relu
I1209 19:32:19.033682  1002 net.cpp:157] Top shape: 125 16 32 32 (2048000)
I1209 19:32:19.033691  1002 net.cpp:165] Memory required for data: 353793500
I1209 19:32:19.033701  1002 layer_factory.hpp:77] Creating layer L1_b3_sum_eltwise_top_L1_b3_relu_0_split
I1209 19:32:19.033715  1002 net.cpp:100] Creating Layer L1_b3_sum_eltwise_top_L1_b3_relu_0_split
I1209 19:32:19.033726  1002 net.cpp:434] L1_b3_sum_eltwise_top_L1_b3_relu_0_split <- L1_b3_sum_eltwise_top
I1209 19:32:19.033741  1002 net.cpp:408] L1_b3_sum_eltwise_top_L1_b3_relu_0_split -> L1_b3_sum_eltwise_top_L1_b3_relu_0_split_0
I1209 19:32:19.033761  1002 net.cpp:408] L1_b3_sum_eltwise_top_L1_b3_relu_0_split -> L1_b3_sum_eltwise_top_L1_b3_relu_0_split_1
I1209 19:32:19.033843  1002 net.cpp:150] Setting up L1_b3_sum_eltwise_top_L1_b3_relu_0_split
I1209 19:32:19.033861  1002 net.cpp:157] Top shape: 125 16 32 32 (2048000)
I1209 19:32:19.033874  1002 net.cpp:157] Top shape: 125 16 32 32 (2048000)
I1209 19:32:19.033884  1002 net.cpp:165] Memory required for data: 370177500
I1209 19:32:19.033893  1002 layer_factory.hpp:77] Creating layer L1_b4_cbr1_conv
I1209 19:32:19.033921  1002 net.cpp:100] Creating Layer L1_b4_cbr1_conv
I1209 19:32:19.033934  1002 net.cpp:434] L1_b4_cbr1_conv <- L1_b3_sum_eltwise_top_L1_b3_relu_0_split_0
I1209 19:32:19.033965  1002 net.cpp:408] L1_b4_cbr1_conv -> L1_b4_cbr1_conv_top
I1209 19:32:19.034338  1002 net.cpp:150] Setting up L1_b4_cbr1_conv
I1209 19:32:19.034358  1002 net.cpp:157] Top shape: 125 16 32 32 (2048000)
I1209 19:32:19.034366  1002 net.cpp:165] Memory required for data: 378369500
I1209 19:32:19.034385  1002 layer_factory.hpp:77] Creating layer L1_b4_cbr1_bn
I1209 19:32:19.034407  1002 net.cpp:100] Creating Layer L1_b4_cbr1_bn
I1209 19:32:19.034420  1002 net.cpp:434] L1_b4_cbr1_bn <- L1_b4_cbr1_conv_top
I1209 19:32:19.034436  1002 net.cpp:408] L1_b4_cbr1_bn -> L1_b4_cbr1_bn_top
I1209 19:32:19.034737  1002 net.cpp:150] Setting up L1_b4_cbr1_bn
I1209 19:32:19.034755  1002 net.cpp:157] Top shape: 125 16 32 32 (2048000)
I1209 19:32:19.034775  1002 net.cpp:165] Memory required for data: 386561500
I1209 19:32:19.034797  1002 layer_factory.hpp:77] Creating layer L1_b4_cbr1_scale
I1209 19:32:19.034816  1002 net.cpp:100] Creating Layer L1_b4_cbr1_scale
I1209 19:32:19.034826  1002 net.cpp:434] L1_b4_cbr1_scale <- L1_b4_cbr1_bn_top
I1209 19:32:19.034842  1002 net.cpp:395] L1_b4_cbr1_scale -> L1_b4_cbr1_bn_top (in-place)
I1209 19:32:19.034945  1002 layer_factory.hpp:77] Creating layer L1_b4_cbr1_scale
I1209 19:32:19.035131  1002 net.cpp:150] Setting up L1_b4_cbr1_scale
I1209 19:32:19.035151  1002 net.cpp:157] Top shape: 125 16 32 32 (2048000)
I1209 19:32:19.035161  1002 net.cpp:165] Memory required for data: 394753500
I1209 19:32:19.035178  1002 layer_factory.hpp:77] Creating layer L1_b4_cbr1_dropout
I1209 19:32:19.035195  1002 net.cpp:100] Creating Layer L1_b4_cbr1_dropout
I1209 19:32:19.035207  1002 net.cpp:434] L1_b4_cbr1_dropout <- L1_b4_cbr1_bn_top
I1209 19:32:19.035228  1002 net.cpp:395] L1_b4_cbr1_dropout -> L1_b4_cbr1_bn_top (in-place)
I1209 19:32:19.035279  1002 net.cpp:150] Setting up L1_b4_cbr1_dropout
I1209 19:32:19.035297  1002 net.cpp:157] Top shape: 125 16 32 32 (2048000)
I1209 19:32:19.035307  1002 net.cpp:165] Memory required for data: 402945500
I1209 19:32:19.035317  1002 layer_factory.hpp:77] Creating layer L1_b4_cbr1_relu
I1209 19:32:19.035337  1002 net.cpp:100] Creating Layer L1_b4_cbr1_relu
I1209 19:32:19.035349  1002 net.cpp:434] L1_b4_cbr1_relu <- L1_b4_cbr1_bn_top
I1209 19:32:19.035363  1002 net.cpp:395] L1_b4_cbr1_relu -> L1_b4_cbr1_bn_top (in-place)
I1209 19:32:19.035382  1002 net.cpp:150] Setting up L1_b4_cbr1_relu
I1209 19:32:19.035395  1002 net.cpp:157] Top shape: 125 16 32 32 (2048000)
I1209 19:32:19.035405  1002 net.cpp:165] Memory required for data: 411137500
I1209 19:32:19.035415  1002 layer_factory.hpp:77] Creating layer L1_b4_cbr2_conv
I1209 19:32:19.035436  1002 net.cpp:100] Creating Layer L1_b4_cbr2_conv
I1209 19:32:19.035449  1002 net.cpp:434] L1_b4_cbr2_conv <- L1_b4_cbr1_bn_top
I1209 19:32:19.035473  1002 net.cpp:408] L1_b4_cbr2_conv -> L1_b4_cbr2_conv_top
I1209 19:32:19.035837  1002 net.cpp:150] Setting up L1_b4_cbr2_conv
I1209 19:32:19.035857  1002 net.cpp:157] Top shape: 125 16 32 32 (2048000)
I1209 19:32:19.035867  1002 net.cpp:165] Memory required for data: 419329500
I1209 19:32:19.035886  1002 layer_factory.hpp:77] Creating layer L1_b4_cbr2_bn
I1209 19:32:19.035903  1002 net.cpp:100] Creating Layer L1_b4_cbr2_bn
I1209 19:32:19.035914  1002 net.cpp:434] L1_b4_cbr2_bn <- L1_b4_cbr2_conv_top
I1209 19:32:19.035935  1002 net.cpp:408] L1_b4_cbr2_bn -> L1_b4_cbr2_bn_top
I1209 19:32:19.036234  1002 net.cpp:150] Setting up L1_b4_cbr2_bn
I1209 19:32:19.036253  1002 net.cpp:157] Top shape: 125 16 32 32 (2048000)
I1209 19:32:19.036264  1002 net.cpp:165] Memory required for data: 427521500
I1209 19:32:19.036290  1002 layer_factory.hpp:77] Creating layer L1_b4_cbr2_scale
I1209 19:32:19.036309  1002 net.cpp:100] Creating Layer L1_b4_cbr2_scale
I1209 19:32:19.036319  1002 net.cpp:434] L1_b4_cbr2_scale <- L1_b4_cbr2_bn_top
I1209 19:32:19.036334  1002 net.cpp:395] L1_b4_cbr2_scale -> L1_b4_cbr2_bn_top (in-place)
I1209 19:32:19.036423  1002 layer_factory.hpp:77] Creating layer L1_b4_cbr2_scale
I1209 19:32:19.036609  1002 net.cpp:150] Setting up L1_b4_cbr2_scale
I1209 19:32:19.036628  1002 net.cpp:157] Top shape: 125 16 32 32 (2048000)
I1209 19:32:19.036638  1002 net.cpp:165] Memory required for data: 435713500
I1209 19:32:19.036656  1002 layer_factory.hpp:77] Creating layer L1_b4_cbr2_dropout
I1209 19:32:19.036679  1002 net.cpp:100] Creating Layer L1_b4_cbr2_dropout
I1209 19:32:19.036691  1002 net.cpp:434] L1_b4_cbr2_dropout <- L1_b4_cbr2_bn_top
I1209 19:32:19.036711  1002 net.cpp:395] L1_b4_cbr2_dropout -> L1_b4_cbr2_bn_top (in-place)
I1209 19:32:19.036764  1002 net.cpp:150] Setting up L1_b4_cbr2_dropout
I1209 19:32:19.036778  1002 net.cpp:157] Top shape: 125 16 32 32 (2048000)
I1209 19:32:19.036783  1002 net.cpp:165] Memory required for data: 443905500
I1209 19:32:19.036789  1002 layer_factory.hpp:77] Creating layer L1_b4_sum_eltwise
I1209 19:32:19.036810  1002 net.cpp:100] Creating Layer L1_b4_sum_eltwise
I1209 19:32:19.036818  1002 net.cpp:434] L1_b4_sum_eltwise <- L1_b4_cbr2_bn_top
I1209 19:32:19.036824  1002 net.cpp:434] L1_b4_sum_eltwise <- L1_b3_sum_eltwise_top_L1_b3_relu_0_split_1
I1209 19:32:19.036833  1002 net.cpp:408] L1_b4_sum_eltwise -> L1_b4_sum_eltwise_top
I1209 19:32:19.036865  1002 net.cpp:150] Setting up L1_b4_sum_eltwise
I1209 19:32:19.036875  1002 net.cpp:157] Top shape: 125 16 32 32 (2048000)
I1209 19:32:19.036880  1002 net.cpp:165] Memory required for data: 452097500
I1209 19:32:19.036885  1002 layer_factory.hpp:77] Creating layer L1_b4_relu
I1209 19:32:19.036893  1002 net.cpp:100] Creating Layer L1_b4_relu
I1209 19:32:19.036898  1002 net.cpp:434] L1_b4_relu <- L1_b4_sum_eltwise_top
I1209 19:32:19.036909  1002 net.cpp:395] L1_b4_relu -> L1_b4_sum_eltwise_top (in-place)
I1209 19:32:19.036919  1002 net.cpp:150] Setting up L1_b4_relu
I1209 19:32:19.036926  1002 net.cpp:157] Top shape: 125 16 32 32 (2048000)
I1209 19:32:19.036931  1002 net.cpp:165] Memory required for data: 460289500
I1209 19:32:19.036936  1002 layer_factory.hpp:77] Creating layer L1_b4_sum_eltwise_top_L1_b4_relu_0_split
I1209 19:32:19.036942  1002 net.cpp:100] Creating Layer L1_b4_sum_eltwise_top_L1_b4_relu_0_split
I1209 19:32:19.036947  1002 net.cpp:434] L1_b4_sum_eltwise_top_L1_b4_relu_0_split <- L1_b4_sum_eltwise_top
I1209 19:32:19.036954  1002 net.cpp:408] L1_b4_sum_eltwise_top_L1_b4_relu_0_split -> L1_b4_sum_eltwise_top_L1_b4_relu_0_split_0
I1209 19:32:19.036970  1002 net.cpp:408] L1_b4_sum_eltwise_top_L1_b4_relu_0_split -> L1_b4_sum_eltwise_top_L1_b4_relu_0_split_1
I1209 19:32:19.037017  1002 net.cpp:150] Setting up L1_b4_sum_eltwise_top_L1_b4_relu_0_split
I1209 19:32:19.037026  1002 net.cpp:157] Top shape: 125 16 32 32 (2048000)
I1209 19:32:19.037034  1002 net.cpp:157] Top shape: 125 16 32 32 (2048000)
I1209 19:32:19.037037  1002 net.cpp:165] Memory required for data: 476673500
I1209 19:32:19.037042  1002 layer_factory.hpp:77] Creating layer L1_b5_cbr1_conv
I1209 19:32:19.037055  1002 net.cpp:100] Creating Layer L1_b5_cbr1_conv
I1209 19:32:19.037061  1002 net.cpp:434] L1_b5_cbr1_conv <- L1_b4_sum_eltwise_top_L1_b4_relu_0_split_0
I1209 19:32:19.037073  1002 net.cpp:408] L1_b5_cbr1_conv -> L1_b5_cbr1_conv_top
I1209 19:32:19.037389  1002 net.cpp:150] Setting up L1_b5_cbr1_conv
I1209 19:32:19.037407  1002 net.cpp:157] Top shape: 125 16 32 32 (2048000)
I1209 19:32:19.037417  1002 net.cpp:165] Memory required for data: 484865500
I1209 19:32:19.037458  1002 layer_factory.hpp:77] Creating layer L1_b5_cbr1_bn
I1209 19:32:19.037482  1002 net.cpp:100] Creating Layer L1_b5_cbr1_bn
I1209 19:32:19.037494  1002 net.cpp:434] L1_b5_cbr1_bn <- L1_b5_cbr1_conv_top
I1209 19:32:19.037513  1002 net.cpp:408] L1_b5_cbr1_bn -> L1_b5_cbr1_bn_top
I1209 19:32:19.037796  1002 net.cpp:150] Setting up L1_b5_cbr1_bn
I1209 19:32:19.037813  1002 net.cpp:157] Top shape: 125 16 32 32 (2048000)
I1209 19:32:19.037823  1002 net.cpp:165] Memory required for data: 493057500
I1209 19:32:19.037845  1002 layer_factory.hpp:77] Creating layer L1_b5_cbr1_scale
I1209 19:32:19.037868  1002 net.cpp:100] Creating Layer L1_b5_cbr1_scale
I1209 19:32:19.037880  1002 net.cpp:434] L1_b5_cbr1_scale <- L1_b5_cbr1_bn_top
I1209 19:32:19.037895  1002 net.cpp:395] L1_b5_cbr1_scale -> L1_b5_cbr1_bn_top (in-place)
I1209 19:32:19.037994  1002 layer_factory.hpp:77] Creating layer L1_b5_cbr1_scale
I1209 19:32:19.038182  1002 net.cpp:150] Setting up L1_b5_cbr1_scale
I1209 19:32:19.038202  1002 net.cpp:157] Top shape: 125 16 32 32 (2048000)
I1209 19:32:19.038211  1002 net.cpp:165] Memory required for data: 501249500
I1209 19:32:19.038230  1002 layer_factory.hpp:77] Creating layer L1_b5_cbr1_dropout
I1209 19:32:19.038252  1002 net.cpp:100] Creating Layer L1_b5_cbr1_dropout
I1209 19:32:19.038265  1002 net.cpp:434] L1_b5_cbr1_dropout <- L1_b5_cbr1_bn_top
I1209 19:32:19.038280  1002 net.cpp:395] L1_b5_cbr1_dropout -> L1_b5_cbr1_bn_top (in-place)
I1209 19:32:19.038339  1002 net.cpp:150] Setting up L1_b5_cbr1_dropout
I1209 19:32:19.038367  1002 net.cpp:157] Top shape: 125 16 32 32 (2048000)
I1209 19:32:19.038378  1002 net.cpp:165] Memory required for data: 509441500
I1209 19:32:19.038389  1002 layer_factory.hpp:77] Creating layer L1_b5_cbr1_relu
I1209 19:32:19.038403  1002 net.cpp:100] Creating Layer L1_b5_cbr1_relu
I1209 19:32:19.038414  1002 net.cpp:434] L1_b5_cbr1_relu <- L1_b5_cbr1_bn_top
I1209 19:32:19.038434  1002 net.cpp:395] L1_b5_cbr1_relu -> L1_b5_cbr1_bn_top (in-place)
I1209 19:32:19.038455  1002 net.cpp:150] Setting up L1_b5_cbr1_relu
I1209 19:32:19.038470  1002 net.cpp:157] Top shape: 125 16 32 32 (2048000)
I1209 19:32:19.038478  1002 net.cpp:165] Memory required for data: 517633500
I1209 19:32:19.038488  1002 layer_factory.hpp:77] Creating layer L1_b5_cbr2_conv
I1209 19:32:19.038511  1002 net.cpp:100] Creating Layer L1_b5_cbr2_conv
I1209 19:32:19.038522  1002 net.cpp:434] L1_b5_cbr2_conv <- L1_b5_cbr1_bn_top
I1209 19:32:19.038539  1002 net.cpp:408] L1_b5_cbr2_conv -> L1_b5_cbr2_conv_top
I1209 19:32:19.038897  1002 net.cpp:150] Setting up L1_b5_cbr2_conv
I1209 19:32:19.038918  1002 net.cpp:157] Top shape: 125 16 32 32 (2048000)
I1209 19:32:19.038928  1002 net.cpp:165] Memory required for data: 525825500
I1209 19:32:19.038944  1002 layer_factory.hpp:77] Creating layer L1_b5_cbr2_bn
I1209 19:32:19.038975  1002 net.cpp:100] Creating Layer L1_b5_cbr2_bn
I1209 19:32:19.038988  1002 net.cpp:434] L1_b5_cbr2_bn <- L1_b5_cbr2_conv_top
I1209 19:32:19.039005  1002 net.cpp:408] L1_b5_cbr2_bn -> L1_b5_cbr2_bn_top
I1209 19:32:19.039291  1002 net.cpp:150] Setting up L1_b5_cbr2_bn
I1209 19:32:19.039311  1002 net.cpp:157] Top shape: 125 16 32 32 (2048000)
I1209 19:32:19.039321  1002 net.cpp:165] Memory required for data: 534017500
I1209 19:32:19.039341  1002 layer_factory.hpp:77] Creating layer L1_b5_cbr2_scale
I1209 19:32:19.039358  1002 net.cpp:100] Creating Layer L1_b5_cbr2_scale
I1209 19:32:19.039371  1002 net.cpp:434] L1_b5_cbr2_scale <- L1_b5_cbr2_bn_top
I1209 19:32:19.039391  1002 net.cpp:395] L1_b5_cbr2_scale -> L1_b5_cbr2_bn_top (in-place)
I1209 19:32:19.039482  1002 layer_factory.hpp:77] Creating layer L1_b5_cbr2_scale
I1209 19:32:19.039667  1002 net.cpp:150] Setting up L1_b5_cbr2_scale
I1209 19:32:19.039691  1002 net.cpp:157] Top shape: 125 16 32 32 (2048000)
I1209 19:32:19.039702  1002 net.cpp:165] Memory required for data: 542209500
I1209 19:32:19.039721  1002 layer_factory.hpp:77] Creating layer L1_b5_cbr2_dropout
I1209 19:32:19.039738  1002 net.cpp:100] Creating Layer L1_b5_cbr2_dropout
I1209 19:32:19.039750  1002 net.cpp:434] L1_b5_cbr2_dropout <- L1_b5_cbr2_bn_top
I1209 19:32:19.039764  1002 net.cpp:395] L1_b5_cbr2_dropout -> L1_b5_cbr2_bn_top (in-place)
I1209 19:32:19.039829  1002 net.cpp:150] Setting up L1_b5_cbr2_dropout
I1209 19:32:19.039847  1002 net.cpp:157] Top shape: 125 16 32 32 (2048000)
I1209 19:32:19.039857  1002 net.cpp:165] Memory required for data: 550401500
I1209 19:32:19.039867  1002 layer_factory.hpp:77] Creating layer L1_b5_sum_eltwise
I1209 19:32:19.039899  1002 net.cpp:100] Creating Layer L1_b5_sum_eltwise
I1209 19:32:19.039913  1002 net.cpp:434] L1_b5_sum_eltwise <- L1_b5_cbr2_bn_top
I1209 19:32:19.039927  1002 net.cpp:434] L1_b5_sum_eltwise <- L1_b4_sum_eltwise_top_L1_b4_relu_0_split_1
I1209 19:32:19.039942  1002 net.cpp:408] L1_b5_sum_eltwise -> L1_b5_sum_eltwise_top
I1209 19:32:19.040002  1002 net.cpp:150] Setting up L1_b5_sum_eltwise
I1209 19:32:19.040020  1002 net.cpp:157] Top shape: 125 16 32 32 (2048000)
I1209 19:32:19.040030  1002 net.cpp:165] Memory required for data: 558593500
I1209 19:32:19.040041  1002 layer_factory.hpp:77] Creating layer L1_b5_relu
I1209 19:32:19.040057  1002 net.cpp:100] Creating Layer L1_b5_relu
I1209 19:32:19.040068  1002 net.cpp:434] L1_b5_relu <- L1_b5_sum_eltwise_top
I1209 19:32:19.040082  1002 net.cpp:395] L1_b5_relu -> L1_b5_sum_eltwise_top (in-place)
I1209 19:32:19.040100  1002 net.cpp:150] Setting up L1_b5_relu
I1209 19:32:19.040114  1002 net.cpp:157] Top shape: 125 16 32 32 (2048000)
I1209 19:32:19.040124  1002 net.cpp:165] Memory required for data: 566785500
I1209 19:32:19.040146  1002 layer_factory.hpp:77] Creating layer L1_b5_sum_eltwise_top_L1_b5_relu_0_split
I1209 19:32:19.040166  1002 net.cpp:100] Creating Layer L1_b5_sum_eltwise_top_L1_b5_relu_0_split
I1209 19:32:19.040179  1002 net.cpp:434] L1_b5_sum_eltwise_top_L1_b5_relu_0_split <- L1_b5_sum_eltwise_top
I1209 19:32:19.040194  1002 net.cpp:408] L1_b5_sum_eltwise_top_L1_b5_relu_0_split -> L1_b5_sum_eltwise_top_L1_b5_relu_0_split_0
I1209 19:32:19.040213  1002 net.cpp:408] L1_b5_sum_eltwise_top_L1_b5_relu_0_split -> L1_b5_sum_eltwise_top_L1_b5_relu_0_split_1
I1209 19:32:19.040294  1002 net.cpp:150] Setting up L1_b5_sum_eltwise_top_L1_b5_relu_0_split
I1209 19:32:19.040313  1002 net.cpp:157] Top shape: 125 16 32 32 (2048000)
I1209 19:32:19.040328  1002 net.cpp:157] Top shape: 125 16 32 32 (2048000)
I1209 19:32:19.040338  1002 net.cpp:165] Memory required for data: 583169500
I1209 19:32:19.040347  1002 layer_factory.hpp:77] Creating layer L1_b6_cbr1_conv
I1209 19:32:19.040376  1002 net.cpp:100] Creating Layer L1_b6_cbr1_conv
I1209 19:32:19.040390  1002 net.cpp:434] L1_b6_cbr1_conv <- L1_b5_sum_eltwise_top_L1_b5_relu_0_split_0
I1209 19:32:19.040413  1002 net.cpp:408] L1_b6_cbr1_conv -> L1_b6_cbr1_conv_top
I1209 19:32:19.040774  1002 net.cpp:150] Setting up L1_b6_cbr1_conv
I1209 19:32:19.040793  1002 net.cpp:157] Top shape: 125 16 32 32 (2048000)
I1209 19:32:19.040803  1002 net.cpp:165] Memory required for data: 591361500
I1209 19:32:19.040822  1002 layer_factory.hpp:77] Creating layer L1_b6_cbr1_bn
I1209 19:32:19.040839  1002 net.cpp:100] Creating Layer L1_b6_cbr1_bn
I1209 19:32:19.040851  1002 net.cpp:434] L1_b6_cbr1_bn <- L1_b6_cbr1_conv_top
I1209 19:32:19.040868  1002 net.cpp:408] L1_b6_cbr1_bn -> L1_b6_cbr1_bn_top
I1209 19:32:19.041173  1002 net.cpp:150] Setting up L1_b6_cbr1_bn
I1209 19:32:19.041193  1002 net.cpp:157] Top shape: 125 16 32 32 (2048000)
I1209 19:32:19.041203  1002 net.cpp:165] Memory required for data: 599553500
I1209 19:32:19.041224  1002 layer_factory.hpp:77] Creating layer L1_b6_cbr1_scale
I1209 19:32:19.041246  1002 net.cpp:100] Creating Layer L1_b6_cbr1_scale
I1209 19:32:19.041259  1002 net.cpp:434] L1_b6_cbr1_scale <- L1_b6_cbr1_bn_top
I1209 19:32:19.041273  1002 net.cpp:395] L1_b6_cbr1_scale -> L1_b6_cbr1_bn_top (in-place)
I1209 19:32:19.041373  1002 layer_factory.hpp:77] Creating layer L1_b6_cbr1_scale
I1209 19:32:19.041556  1002 net.cpp:150] Setting up L1_b6_cbr1_scale
I1209 19:32:19.041575  1002 net.cpp:157] Top shape: 125 16 32 32 (2048000)
I1209 19:32:19.041585  1002 net.cpp:165] Memory required for data: 607745500
I1209 19:32:19.041604  1002 layer_factory.hpp:77] Creating layer L1_b6_cbr1_dropout
I1209 19:32:19.041620  1002 net.cpp:100] Creating Layer L1_b6_cbr1_dropout
I1209 19:32:19.041631  1002 net.cpp:434] L1_b6_cbr1_dropout <- L1_b6_cbr1_bn_top
I1209 19:32:19.041651  1002 net.cpp:395] L1_b6_cbr1_dropout -> L1_b6_cbr1_bn_top (in-place)
I1209 19:32:19.041704  1002 net.cpp:150] Setting up L1_b6_cbr1_dropout
I1209 19:32:19.041728  1002 net.cpp:157] Top shape: 125 16 32 32 (2048000)
I1209 19:32:19.041738  1002 net.cpp:165] Memory required for data: 615937500
I1209 19:32:19.041750  1002 layer_factory.hpp:77] Creating layer L1_b6_cbr1_relu
I1209 19:32:19.041765  1002 net.cpp:100] Creating Layer L1_b6_cbr1_relu
I1209 19:32:19.041774  1002 net.cpp:434] L1_b6_cbr1_relu <- L1_b6_cbr1_bn_top
I1209 19:32:19.041780  1002 net.cpp:395] L1_b6_cbr1_relu -> L1_b6_cbr1_bn_top (in-place)
I1209 19:32:19.041791  1002 net.cpp:150] Setting up L1_b6_cbr1_relu
I1209 19:32:19.041798  1002 net.cpp:157] Top shape: 125 16 32 32 (2048000)
I1209 19:32:19.041803  1002 net.cpp:165] Memory required for data: 624129500
I1209 19:32:19.041808  1002 layer_factory.hpp:77] Creating layer L1_b6_cbr2_conv
I1209 19:32:19.041826  1002 net.cpp:100] Creating Layer L1_b6_cbr2_conv
I1209 19:32:19.041831  1002 net.cpp:434] L1_b6_cbr2_conv <- L1_b6_cbr1_bn_top
I1209 19:32:19.041841  1002 net.cpp:408] L1_b6_cbr2_conv -> L1_b6_cbr2_conv_top
I1209 19:32:19.042171  1002 net.cpp:150] Setting up L1_b6_cbr2_conv
I1209 19:32:19.042191  1002 net.cpp:157] Top shape: 125 16 32 32 (2048000)
I1209 19:32:19.042210  1002 net.cpp:165] Memory required for data: 632321500
I1209 19:32:19.042229  1002 layer_factory.hpp:77] Creating layer L1_b6_cbr2_bn
I1209 19:32:19.042253  1002 net.cpp:100] Creating Layer L1_b6_cbr2_bn
I1209 19:32:19.042264  1002 net.cpp:434] L1_b6_cbr2_bn <- L1_b6_cbr2_conv_top
I1209 19:32:19.042285  1002 net.cpp:408] L1_b6_cbr2_bn -> L1_b6_cbr2_bn_top
I1209 19:32:19.042570  1002 net.cpp:150] Setting up L1_b6_cbr2_bn
I1209 19:32:19.042589  1002 net.cpp:157] Top shape: 125 16 32 32 (2048000)
I1209 19:32:19.042599  1002 net.cpp:165] Memory required for data: 640513500
I1209 19:32:19.042619  1002 layer_factory.hpp:77] Creating layer L1_b6_cbr2_scale
I1209 19:32:19.042636  1002 net.cpp:100] Creating Layer L1_b6_cbr2_scale
I1209 19:32:19.042647  1002 net.cpp:434] L1_b6_cbr2_scale <- L1_b6_cbr2_bn_top
I1209 19:32:19.042667  1002 net.cpp:395] L1_b6_cbr2_scale -> L1_b6_cbr2_bn_top (in-place)
I1209 19:32:19.042762  1002 layer_factory.hpp:77] Creating layer L1_b6_cbr2_scale
I1209 19:32:19.043115  1002 net.cpp:150] Setting up L1_b6_cbr2_scale
I1209 19:32:19.043141  1002 net.cpp:157] Top shape: 125 16 32 32 (2048000)
I1209 19:32:19.043153  1002 net.cpp:165] Memory required for data: 648705500
I1209 19:32:19.043171  1002 layer_factory.hpp:77] Creating layer L1_b6_cbr2_dropout
I1209 19:32:19.043189  1002 net.cpp:100] Creating Layer L1_b6_cbr2_dropout
I1209 19:32:19.043200  1002 net.cpp:434] L1_b6_cbr2_dropout <- L1_b6_cbr2_bn_top
I1209 19:32:19.043215  1002 net.cpp:395] L1_b6_cbr2_dropout -> L1_b6_cbr2_bn_top (in-place)
I1209 19:32:19.043272  1002 net.cpp:150] Setting up L1_b6_cbr2_dropout
I1209 19:32:19.043292  1002 net.cpp:157] Top shape: 125 16 32 32 (2048000)
I1209 19:32:19.043301  1002 net.cpp:165] Memory required for data: 656897500
I1209 19:32:19.043311  1002 layer_factory.hpp:77] Creating layer L1_b6_sum_eltwise
I1209 19:32:19.043328  1002 net.cpp:100] Creating Layer L1_b6_sum_eltwise
I1209 19:32:19.043347  1002 net.cpp:434] L1_b6_sum_eltwise <- L1_b6_cbr2_bn_top
I1209 19:32:19.043361  1002 net.cpp:434] L1_b6_sum_eltwise <- L1_b5_sum_eltwise_top_L1_b5_relu_0_split_1
I1209 19:32:19.043376  1002 net.cpp:408] L1_b6_sum_eltwise -> L1_b6_sum_eltwise_top
I1209 19:32:19.043431  1002 net.cpp:150] Setting up L1_b6_sum_eltwise
I1209 19:32:19.043450  1002 net.cpp:157] Top shape: 125 16 32 32 (2048000)
I1209 19:32:19.043459  1002 net.cpp:165] Memory required for data: 665089500
I1209 19:32:19.043469  1002 layer_factory.hpp:77] Creating layer L1_b6_relu
I1209 19:32:19.043489  1002 net.cpp:100] Creating Layer L1_b6_relu
I1209 19:32:19.043503  1002 net.cpp:434] L1_b6_relu <- L1_b6_sum_eltwise_top
I1209 19:32:19.043516  1002 net.cpp:395] L1_b6_relu -> L1_b6_sum_eltwise_top (in-place)
I1209 19:32:19.043535  1002 net.cpp:150] Setting up L1_b6_relu
I1209 19:32:19.043550  1002 net.cpp:157] Top shape: 125 16 32 32 (2048000)
I1209 19:32:19.043560  1002 net.cpp:165] Memory required for data: 673281500
I1209 19:32:19.043568  1002 layer_factory.hpp:77] Creating layer L1_b6_sum_eltwise_top_L1_b6_relu_0_split
I1209 19:32:19.043582  1002 net.cpp:100] Creating Layer L1_b6_sum_eltwise_top_L1_b6_relu_0_split
I1209 19:32:19.043593  1002 net.cpp:434] L1_b6_sum_eltwise_top_L1_b6_relu_0_split <- L1_b6_sum_eltwise_top
I1209 19:32:19.043608  1002 net.cpp:408] L1_b6_sum_eltwise_top_L1_b6_relu_0_split -> L1_b6_sum_eltwise_top_L1_b6_relu_0_split_0
I1209 19:32:19.043627  1002 net.cpp:408] L1_b6_sum_eltwise_top_L1_b6_relu_0_split -> L1_b6_sum_eltwise_top_L1_b6_relu_0_split_1
I1209 19:32:19.043707  1002 net.cpp:150] Setting up L1_b6_sum_eltwise_top_L1_b6_relu_0_split
I1209 19:32:19.043726  1002 net.cpp:157] Top shape: 125 16 32 32 (2048000)
I1209 19:32:19.043740  1002 net.cpp:157] Top shape: 125 16 32 32 (2048000)
I1209 19:32:19.043750  1002 net.cpp:165] Memory required for data: 689665500
I1209 19:32:19.043759  1002 layer_factory.hpp:77] Creating layer L1_b7_cbr1_conv
I1209 19:32:19.043786  1002 net.cpp:100] Creating Layer L1_b7_cbr1_conv
I1209 19:32:19.043797  1002 net.cpp:434] L1_b7_cbr1_conv <- L1_b6_sum_eltwise_top_L1_b6_relu_0_split_0
I1209 19:32:19.043831  1002 net.cpp:408] L1_b7_cbr1_conv -> L1_b7_cbr1_conv_top
I1209 19:32:19.044231  1002 net.cpp:150] Setting up L1_b7_cbr1_conv
I1209 19:32:19.044251  1002 net.cpp:157] Top shape: 125 16 32 32 (2048000)
I1209 19:32:19.044261  1002 net.cpp:165] Memory required for data: 697857500
I1209 19:32:19.044278  1002 layer_factory.hpp:77] Creating layer L1_b7_cbr1_bn
I1209 19:32:19.044302  1002 net.cpp:100] Creating Layer L1_b7_cbr1_bn
I1209 19:32:19.044314  1002 net.cpp:434] L1_b7_cbr1_bn <- L1_b7_cbr1_conv_top
I1209 19:32:19.044335  1002 net.cpp:408] L1_b7_cbr1_bn -> L1_b7_cbr1_bn_top
I1209 19:32:19.044630  1002 net.cpp:150] Setting up L1_b7_cbr1_bn
I1209 19:32:19.044648  1002 net.cpp:157] Top shape: 125 16 32 32 (2048000)
I1209 19:32:19.044657  1002 net.cpp:165] Memory required for data: 706049500
I1209 19:32:19.044678  1002 layer_factory.hpp:77] Creating layer L1_b7_cbr1_scale
I1209 19:32:19.044697  1002 net.cpp:100] Creating Layer L1_b7_cbr1_scale
I1209 19:32:19.044708  1002 net.cpp:434] L1_b7_cbr1_scale <- L1_b7_cbr1_bn_top
I1209 19:32:19.044723  1002 net.cpp:395] L1_b7_cbr1_scale -> L1_b7_cbr1_bn_top (in-place)
I1209 19:32:19.044824  1002 layer_factory.hpp:77] Creating layer L1_b7_cbr1_scale
I1209 19:32:19.045017  1002 net.cpp:150] Setting up L1_b7_cbr1_scale
I1209 19:32:19.045037  1002 net.cpp:157] Top shape: 125 16 32 32 (2048000)
I1209 19:32:19.045047  1002 net.cpp:165] Memory required for data: 714241500
I1209 19:32:19.045064  1002 layer_factory.hpp:77] Creating layer L1_b7_cbr1_dropout
I1209 19:32:19.045086  1002 net.cpp:100] Creating Layer L1_b7_cbr1_dropout
I1209 19:32:19.045099  1002 net.cpp:434] L1_b7_cbr1_dropout <- L1_b7_cbr1_bn_top
I1209 19:32:19.045112  1002 net.cpp:395] L1_b7_cbr1_dropout -> L1_b7_cbr1_bn_top (in-place)
I1209 19:32:19.045164  1002 net.cpp:150] Setting up L1_b7_cbr1_dropout
I1209 19:32:19.045188  1002 net.cpp:157] Top shape: 125 16 32 32 (2048000)
I1209 19:32:19.045199  1002 net.cpp:165] Memory required for data: 722433500
I1209 19:32:19.045209  1002 layer_factory.hpp:77] Creating layer L1_b7_cbr1_relu
I1209 19:32:19.045223  1002 net.cpp:100] Creating Layer L1_b7_cbr1_relu
I1209 19:32:19.045234  1002 net.cpp:434] L1_b7_cbr1_relu <- L1_b7_cbr1_bn_top
I1209 19:32:19.045254  1002 net.cpp:395] L1_b7_cbr1_relu -> L1_b7_cbr1_bn_top (in-place)
I1209 19:32:19.045274  1002 net.cpp:150] Setting up L1_b7_cbr1_relu
I1209 19:32:19.045289  1002 net.cpp:157] Top shape: 125 16 32 32 (2048000)
I1209 19:32:19.045297  1002 net.cpp:165] Memory required for data: 730625500
I1209 19:32:19.045307  1002 layer_factory.hpp:77] Creating layer L1_b7_cbr2_conv
I1209 19:32:19.045328  1002 net.cpp:100] Creating Layer L1_b7_cbr2_conv
I1209 19:32:19.045341  1002 net.cpp:434] L1_b7_cbr2_conv <- L1_b7_cbr1_bn_top
I1209 19:32:19.045363  1002 net.cpp:408] L1_b7_cbr2_conv -> L1_b7_cbr2_conv_top
I1209 19:32:19.045737  1002 net.cpp:150] Setting up L1_b7_cbr2_conv
I1209 19:32:19.045756  1002 net.cpp:157] Top shape: 125 16 32 32 (2048000)
I1209 19:32:19.045766  1002 net.cpp:165] Memory required for data: 738817500
I1209 19:32:19.045784  1002 layer_factory.hpp:77] Creating layer L1_b7_cbr2_bn
I1209 19:32:19.045804  1002 net.cpp:100] Creating Layer L1_b7_cbr2_bn
I1209 19:32:19.045815  1002 net.cpp:434] L1_b7_cbr2_bn <- L1_b7_cbr2_conv_top
I1209 19:32:19.045835  1002 net.cpp:408] L1_b7_cbr2_bn -> L1_b7_cbr2_bn_top
I1209 19:32:19.046136  1002 net.cpp:150] Setting up L1_b7_cbr2_bn
I1209 19:32:19.046159  1002 net.cpp:157] Top shape: 125 16 32 32 (2048000)
I1209 19:32:19.046170  1002 net.cpp:165] Memory required for data: 747009500
I1209 19:32:19.046191  1002 layer_factory.hpp:77] Creating layer L1_b7_cbr2_scale
I1209 19:32:19.046210  1002 net.cpp:100] Creating Layer L1_b7_cbr2_scale
I1209 19:32:19.046221  1002 net.cpp:434] L1_b7_cbr2_scale <- L1_b7_cbr2_bn_top
I1209 19:32:19.046236  1002 net.cpp:395] L1_b7_cbr2_scale -> L1_b7_cbr2_bn_top (in-place)
I1209 19:32:19.046327  1002 layer_factory.hpp:77] Creating layer L1_b7_cbr2_scale
I1209 19:32:19.046530  1002 net.cpp:150] Setting up L1_b7_cbr2_scale
I1209 19:32:19.046558  1002 net.cpp:157] Top shape: 125 16 32 32 (2048000)
I1209 19:32:19.046568  1002 net.cpp:165] Memory required for data: 755201500
I1209 19:32:19.046586  1002 layer_factory.hpp:77] Creating layer L1_b7_cbr2_dropout
I1209 19:32:19.046609  1002 net.cpp:100] Creating Layer L1_b7_cbr2_dropout
I1209 19:32:19.046622  1002 net.cpp:434] L1_b7_cbr2_dropout <- L1_b7_cbr2_bn_top
I1209 19:32:19.046636  1002 net.cpp:395] L1_b7_cbr2_dropout -> L1_b7_cbr2_bn_top (in-place)
I1209 19:32:19.046695  1002 net.cpp:150] Setting up L1_b7_cbr2_dropout
I1209 19:32:19.046715  1002 net.cpp:157] Top shape: 125 16 32 32 (2048000)
I1209 19:32:19.046725  1002 net.cpp:165] Memory required for data: 763393500
I1209 19:32:19.046736  1002 layer_factory.hpp:77] Creating layer L1_b7_sum_eltwise
I1209 19:32:19.046751  1002 net.cpp:100] Creating Layer L1_b7_sum_eltwise
I1209 19:32:19.046761  1002 net.cpp:434] L1_b7_sum_eltwise <- L1_b7_cbr2_bn_top
I1209 19:32:19.046780  1002 net.cpp:434] L1_b7_sum_eltwise <- L1_b6_sum_eltwise_top_L1_b6_relu_0_split_1
I1209 19:32:19.046797  1002 net.cpp:408] L1_b7_sum_eltwise -> L1_b7_sum_eltwise_top
I1209 19:32:19.046850  1002 net.cpp:150] Setting up L1_b7_sum_eltwise
I1209 19:32:19.046869  1002 net.cpp:157] Top shape: 125 16 32 32 (2048000)
I1209 19:32:19.046880  1002 net.cpp:165] Memory required for data: 771585500
I1209 19:32:19.046890  1002 layer_factory.hpp:77] Creating layer L1_b7_relu
I1209 19:32:19.046905  1002 net.cpp:100] Creating Layer L1_b7_relu
I1209 19:32:19.046916  1002 net.cpp:434] L1_b7_relu <- L1_b7_sum_eltwise_top
I1209 19:32:19.046936  1002 net.cpp:395] L1_b7_relu -> L1_b7_sum_eltwise_top (in-place)
I1209 19:32:19.046954  1002 net.cpp:150] Setting up L1_b7_relu
I1209 19:32:19.046979  1002 net.cpp:157] Top shape: 125 16 32 32 (2048000)
I1209 19:32:19.046989  1002 net.cpp:165] Memory required for data: 779777500
I1209 19:32:19.047000  1002 layer_factory.hpp:77] Creating layer L1_b7_sum_eltwise_top_L1_b7_relu_0_split
I1209 19:32:19.047014  1002 net.cpp:100] Creating Layer L1_b7_sum_eltwise_top_L1_b7_relu_0_split
I1209 19:32:19.047025  1002 net.cpp:434] L1_b7_sum_eltwise_top_L1_b7_relu_0_split <- L1_b7_sum_eltwise_top
I1209 19:32:19.047040  1002 net.cpp:408] L1_b7_sum_eltwise_top_L1_b7_relu_0_split -> L1_b7_sum_eltwise_top_L1_b7_relu_0_split_0
I1209 19:32:19.047060  1002 net.cpp:408] L1_b7_sum_eltwise_top_L1_b7_relu_0_split -> L1_b7_sum_eltwise_top_L1_b7_relu_0_split_1
I1209 19:32:19.047139  1002 net.cpp:150] Setting up L1_b7_sum_eltwise_top_L1_b7_relu_0_split
I1209 19:32:19.047158  1002 net.cpp:157] Top shape: 125 16 32 32 (2048000)
I1209 19:32:19.047171  1002 net.cpp:157] Top shape: 125 16 32 32 (2048000)
I1209 19:32:19.047181  1002 net.cpp:165] Memory required for data: 796161500
I1209 19:32:19.047193  1002 layer_factory.hpp:77] Creating layer L1_b8_cbr1_conv
I1209 19:32:19.047214  1002 net.cpp:100] Creating Layer L1_b8_cbr1_conv
I1209 19:32:19.047226  1002 net.cpp:434] L1_b8_cbr1_conv <- L1_b7_sum_eltwise_top_L1_b7_relu_0_split_0
I1209 19:32:19.047250  1002 net.cpp:408] L1_b8_cbr1_conv -> L1_b8_cbr1_conv_top
I1209 19:32:19.047632  1002 net.cpp:150] Setting up L1_b8_cbr1_conv
I1209 19:32:19.047653  1002 net.cpp:157] Top shape: 125 16 32 32 (2048000)
I1209 19:32:19.047662  1002 net.cpp:165] Memory required for data: 804353500
I1209 19:32:19.047682  1002 layer_factory.hpp:77] Creating layer L1_b8_cbr1_bn
I1209 19:32:19.047699  1002 net.cpp:100] Creating Layer L1_b8_cbr1_bn
I1209 19:32:19.047711  1002 net.cpp:434] L1_b8_cbr1_bn <- L1_b8_cbr1_conv_top
I1209 19:32:19.047734  1002 net.cpp:408] L1_b8_cbr1_bn -> L1_b8_cbr1_bn_top
I1209 19:32:19.048014  1002 net.cpp:150] Setting up L1_b8_cbr1_bn
I1209 19:32:19.048034  1002 net.cpp:157] Top shape: 125 16 32 32 (2048000)
I1209 19:32:19.048043  1002 net.cpp:165] Memory required for data: 812545500
I1209 19:32:19.048064  1002 layer_factory.hpp:77] Creating layer L1_b8_cbr1_scale
I1209 19:32:19.048086  1002 net.cpp:100] Creating Layer L1_b8_cbr1_scale
I1209 19:32:19.048099  1002 net.cpp:434] L1_b8_cbr1_scale <- L1_b8_cbr1_bn_top
I1209 19:32:19.048123  1002 net.cpp:395] L1_b8_cbr1_scale -> L1_b8_cbr1_bn_top (in-place)
I1209 19:32:19.048218  1002 layer_factory.hpp:77] Creating layer L1_b8_cbr1_scale
I1209 19:32:19.048413  1002 net.cpp:150] Setting up L1_b8_cbr1_scale
I1209 19:32:19.048432  1002 net.cpp:157] Top shape: 125 16 32 32 (2048000)
I1209 19:32:19.048442  1002 net.cpp:165] Memory required for data: 820737500
I1209 19:32:19.048461  1002 layer_factory.hpp:77] Creating layer L1_b8_cbr1_dropout
I1209 19:32:19.048482  1002 net.cpp:100] Creating Layer L1_b8_cbr1_dropout
I1209 19:32:19.048496  1002 net.cpp:434] L1_b8_cbr1_dropout <- L1_b8_cbr1_bn_top
I1209 19:32:19.048511  1002 net.cpp:395] L1_b8_cbr1_dropout -> L1_b8_cbr1_bn_top (in-place)
I1209 19:32:19.048570  1002 net.cpp:150] Setting up L1_b8_cbr1_dropout
I1209 19:32:19.048588  1002 net.cpp:157] Top shape: 125 16 32 32 (2048000)
I1209 19:32:19.048599  1002 net.cpp:165] Memory required for data: 828929500
I1209 19:32:19.048609  1002 layer_factory.hpp:77] Creating layer L1_b8_cbr1_relu
I1209 19:32:19.048624  1002 net.cpp:100] Creating Layer L1_b8_cbr1_relu
I1209 19:32:19.048635  1002 net.cpp:434] L1_b8_cbr1_relu <- L1_b8_cbr1_bn_top
I1209 19:32:19.048655  1002 net.cpp:395] L1_b8_cbr1_relu -> L1_b8_cbr1_bn_top (in-place)
I1209 19:32:19.048674  1002 net.cpp:150] Setting up L1_b8_cbr1_relu
I1209 19:32:19.048689  1002 net.cpp:157] Top shape: 125 16 32 32 (2048000)
I1209 19:32:19.048698  1002 net.cpp:165] Memory required for data: 837121500
I1209 19:32:19.048708  1002 layer_factory.hpp:77] Creating layer L1_b8_cbr2_conv
I1209 19:32:19.048730  1002 net.cpp:100] Creating Layer L1_b8_cbr2_conv
I1209 19:32:19.048743  1002 net.cpp:434] L1_b8_cbr2_conv <- L1_b8_cbr1_bn_top
I1209 19:32:19.048760  1002 net.cpp:408] L1_b8_cbr2_conv -> L1_b8_cbr2_conv_top
I1209 19:32:19.049151  1002 net.cpp:150] Setting up L1_b8_cbr2_conv
I1209 19:32:19.049172  1002 net.cpp:157] Top shape: 125 16 32 32 (2048000)
I1209 19:32:19.049182  1002 net.cpp:165] Memory required for data: 845313500
I1209 19:32:19.049199  1002 layer_factory.hpp:77] Creating layer L1_b8_cbr2_bn
I1209 19:32:19.049222  1002 net.cpp:100] Creating Layer L1_b8_cbr2_bn
I1209 19:32:19.049235  1002 net.cpp:434] L1_b8_cbr2_bn <- L1_b8_cbr2_conv_top
I1209 19:32:19.049252  1002 net.cpp:408] L1_b8_cbr2_bn -> L1_b8_cbr2_bn_top
I1209 19:32:19.049546  1002 net.cpp:150] Setting up L1_b8_cbr2_bn
I1209 19:32:19.049563  1002 net.cpp:157] Top shape: 125 16 32 32 (2048000)
I1209 19:32:19.049573  1002 net.cpp:165] Memory required for data: 853505500
I1209 19:32:19.049594  1002 layer_factory.hpp:77] Creating layer L1_b8_cbr2_scale
I1209 19:32:19.049612  1002 net.cpp:100] Creating Layer L1_b8_cbr2_scale
I1209 19:32:19.049624  1002 net.cpp:434] L1_b8_cbr2_scale <- L1_b8_cbr2_bn_top
I1209 19:32:19.049644  1002 net.cpp:395] L1_b8_cbr2_scale -> L1_b8_cbr2_bn_top (in-place)
I1209 19:32:19.049741  1002 layer_factory.hpp:77] Creating layer L1_b8_cbr2_scale
I1209 19:32:19.049929  1002 net.cpp:150] Setting up L1_b8_cbr2_scale
I1209 19:32:19.049953  1002 net.cpp:157] Top shape: 125 16 32 32 (2048000)
I1209 19:32:19.049970  1002 net.cpp:165] Memory required for data: 861697500
I1209 19:32:19.049989  1002 layer_factory.hpp:77] Creating layer L1_b8_cbr2_dropout
I1209 19:32:19.050006  1002 net.cpp:100] Creating Layer L1_b8_cbr2_dropout
I1209 19:32:19.050017  1002 net.cpp:434] L1_b8_cbr2_dropout <- L1_b8_cbr2_bn_top
I1209 19:32:19.050032  1002 net.cpp:395] L1_b8_cbr2_dropout -> L1_b8_cbr2_bn_top (in-place)
I1209 19:32:19.050091  1002 net.cpp:150] Setting up L1_b8_cbr2_dropout
I1209 19:32:19.050109  1002 net.cpp:157] Top shape: 125 16 32 32 (2048000)
I1209 19:32:19.050118  1002 net.cpp:165] Memory required for data: 869889500
I1209 19:32:19.050129  1002 layer_factory.hpp:77] Creating layer L1_b8_sum_eltwise
I1209 19:32:19.050149  1002 net.cpp:100] Creating Layer L1_b8_sum_eltwise
I1209 19:32:19.050163  1002 net.cpp:434] L1_b8_sum_eltwise <- L1_b8_cbr2_bn_top
I1209 19:32:19.050175  1002 net.cpp:434] L1_b8_sum_eltwise <- L1_b7_sum_eltwise_top_L1_b7_relu_0_split_1
I1209 19:32:19.050190  1002 net.cpp:408] L1_b8_sum_eltwise -> L1_b8_sum_eltwise_top
I1209 19:32:19.050261  1002 net.cpp:150] Setting up L1_b8_sum_eltwise
I1209 19:32:19.050281  1002 net.cpp:157] Top shape: 125 16 32 32 (2048000)
I1209 19:32:19.050292  1002 net.cpp:165] Memory required for data: 878081500
I1209 19:32:19.050302  1002 layer_factory.hpp:77] Creating layer L1_b8_relu
I1209 19:32:19.050315  1002 net.cpp:100] Creating Layer L1_b8_relu
I1209 19:32:19.050326  1002 net.cpp:434] L1_b8_relu <- L1_b8_sum_eltwise_top
I1209 19:32:19.050340  1002 net.cpp:395] L1_b8_relu -> L1_b8_sum_eltwise_top (in-place)
I1209 19:32:19.050359  1002 net.cpp:150] Setting up L1_b8_relu
I1209 19:32:19.050372  1002 net.cpp:157] Top shape: 125 16 32 32 (2048000)
I1209 19:32:19.050381  1002 net.cpp:165] Memory required for data: 886273500
I1209 19:32:19.050392  1002 layer_factory.hpp:77] Creating layer L1_b8_sum_eltwise_top_L1_b8_relu_0_split
I1209 19:32:19.050406  1002 net.cpp:100] Creating Layer L1_b8_sum_eltwise_top_L1_b8_relu_0_split
I1209 19:32:19.050416  1002 net.cpp:434] L1_b8_sum_eltwise_top_L1_b8_relu_0_split <- L1_b8_sum_eltwise_top
I1209 19:32:19.050437  1002 net.cpp:408] L1_b8_sum_eltwise_top_L1_b8_relu_0_split -> L1_b8_sum_eltwise_top_L1_b8_relu_0_split_0
I1209 19:32:19.050458  1002 net.cpp:408] L1_b8_sum_eltwise_top_L1_b8_relu_0_split -> L1_b8_sum_eltwise_top_L1_b8_relu_0_split_1
I1209 19:32:19.050535  1002 net.cpp:150] Setting up L1_b8_sum_eltwise_top_L1_b8_relu_0_split
I1209 19:32:19.050554  1002 net.cpp:157] Top shape: 125 16 32 32 (2048000)
I1209 19:32:19.050566  1002 net.cpp:157] Top shape: 125 16 32 32 (2048000)
I1209 19:32:19.050576  1002 net.cpp:165] Memory required for data: 902657500
I1209 19:32:19.050586  1002 layer_factory.hpp:77] Creating layer L1_b9_cbr1_conv
I1209 19:32:19.050613  1002 net.cpp:100] Creating Layer L1_b9_cbr1_conv
I1209 19:32:19.050626  1002 net.cpp:434] L1_b9_cbr1_conv <- L1_b8_sum_eltwise_top_L1_b8_relu_0_split_0
I1209 19:32:19.050648  1002 net.cpp:408] L1_b9_cbr1_conv -> L1_b9_cbr1_conv_top
I1209 19:32:19.051034  1002 net.cpp:150] Setting up L1_b9_cbr1_conv
I1209 19:32:19.051059  1002 net.cpp:157] Top shape: 125 16 32 32 (2048000)
I1209 19:32:19.051070  1002 net.cpp:165] Memory required for data: 910849500
I1209 19:32:19.051089  1002 layer_factory.hpp:77] Creating layer L1_b9_cbr1_bn
I1209 19:32:19.051106  1002 net.cpp:100] Creating Layer L1_b9_cbr1_bn
I1209 19:32:19.051117  1002 net.cpp:434] L1_b9_cbr1_bn <- L1_b9_cbr1_conv_top
I1209 19:32:19.051138  1002 net.cpp:408] L1_b9_cbr1_bn -> L1_b9_cbr1_bn_top
I1209 19:32:19.051443  1002 net.cpp:150] Setting up L1_b9_cbr1_bn
I1209 19:32:19.051462  1002 net.cpp:157] Top shape: 125 16 32 32 (2048000)
I1209 19:32:19.051472  1002 net.cpp:165] Memory required for data: 919041500
I1209 19:32:19.051494  1002 layer_factory.hpp:77] Creating layer L1_b9_cbr1_scale
I1209 19:32:19.051517  1002 net.cpp:100] Creating Layer L1_b9_cbr1_scale
I1209 19:32:19.051528  1002 net.cpp:434] L1_b9_cbr1_scale <- L1_b9_cbr1_bn_top
I1209 19:32:19.051543  1002 net.cpp:395] L1_b9_cbr1_scale -> L1_b9_cbr1_bn_top (in-place)
I1209 19:32:19.051636  1002 layer_factory.hpp:77] Creating layer L1_b9_cbr1_scale
I1209 19:32:19.051829  1002 net.cpp:150] Setting up L1_b9_cbr1_scale
I1209 19:32:19.051849  1002 net.cpp:157] Top shape: 125 16 32 32 (2048000)
I1209 19:32:19.051859  1002 net.cpp:165] Memory required for data: 927233500
I1209 19:32:19.051877  1002 layer_factory.hpp:77] Creating layer L1_b9_cbr1_dropout
I1209 19:32:19.051900  1002 net.cpp:100] Creating Layer L1_b9_cbr1_dropout
I1209 19:32:19.051913  1002 net.cpp:434] L1_b9_cbr1_dropout <- L1_b9_cbr1_bn_top
I1209 19:32:19.051928  1002 net.cpp:395] L1_b9_cbr1_dropout -> L1_b9_cbr1_bn_top (in-place)
I1209 19:32:19.051995  1002 net.cpp:150] Setting up L1_b9_cbr1_dropout
I1209 19:32:19.052013  1002 net.cpp:157] Top shape: 125 16 32 32 (2048000)
I1209 19:32:19.052022  1002 net.cpp:165] Memory required for data: 935425500
I1209 19:32:19.052033  1002 layer_factory.hpp:77] Creating layer L1_b9_cbr1_relu
I1209 19:32:19.052048  1002 net.cpp:100] Creating Layer L1_b9_cbr1_relu
I1209 19:32:19.052070  1002 net.cpp:434] L1_b9_cbr1_relu <- L1_b9_cbr1_bn_top
I1209 19:32:19.052090  1002 net.cpp:395] L1_b9_cbr1_relu -> L1_b9_cbr1_bn_top (in-place)
I1209 19:32:19.052109  1002 net.cpp:150] Setting up L1_b9_cbr1_relu
I1209 19:32:19.052126  1002 net.cpp:157] Top shape: 125 16 32 32 (2048000)
I1209 19:32:19.052135  1002 net.cpp:165] Memory required for data: 943617500
I1209 19:32:19.052146  1002 layer_factory.hpp:77] Creating layer L1_b9_cbr2_conv
I1209 19:32:19.052167  1002 net.cpp:100] Creating Layer L1_b9_cbr2_conv
I1209 19:32:19.052179  1002 net.cpp:434] L1_b9_cbr2_conv <- L1_b9_cbr1_bn_top
I1209 19:32:19.052196  1002 net.cpp:408] L1_b9_cbr2_conv -> L1_b9_cbr2_conv_top
I1209 19:32:19.052565  1002 net.cpp:150] Setting up L1_b9_cbr2_conv
I1209 19:32:19.052585  1002 net.cpp:157] Top shape: 125 16 32 32 (2048000)
I1209 19:32:19.052595  1002 net.cpp:165] Memory required for data: 951809500
I1209 19:32:19.052613  1002 layer_factory.hpp:77] Creating layer L1_b9_cbr2_bn
I1209 19:32:19.052635  1002 net.cpp:100] Creating Layer L1_b9_cbr2_bn
I1209 19:32:19.052649  1002 net.cpp:434] L1_b9_cbr2_bn <- L1_b9_cbr2_conv_top
I1209 19:32:19.052665  1002 net.cpp:408] L1_b9_cbr2_bn -> L1_b9_cbr2_bn_top
I1209 19:32:19.052970  1002 net.cpp:150] Setting up L1_b9_cbr2_bn
I1209 19:32:19.052990  1002 net.cpp:157] Top shape: 125 16 32 32 (2048000)
I1209 19:32:19.052999  1002 net.cpp:165] Memory required for data: 960001500
I1209 19:32:19.053055  1002 layer_factory.hpp:77] Creating layer L1_b9_cbr2_scale
I1209 19:32:19.053083  1002 net.cpp:100] Creating Layer L1_b9_cbr2_scale
I1209 19:32:19.053097  1002 net.cpp:434] L1_b9_cbr2_scale <- L1_b9_cbr2_bn_top
I1209 19:32:19.053112  1002 net.cpp:395] L1_b9_cbr2_scale -> L1_b9_cbr2_bn_top (in-place)
I1209 19:32:19.053207  1002 layer_factory.hpp:77] Creating layer L1_b9_cbr2_scale
I1209 19:32:19.053395  1002 net.cpp:150] Setting up L1_b9_cbr2_scale
I1209 19:32:19.053413  1002 net.cpp:157] Top shape: 125 16 32 32 (2048000)
I1209 19:32:19.053423  1002 net.cpp:165] Memory required for data: 968193500
I1209 19:32:19.053441  1002 layer_factory.hpp:77] Creating layer L1_b9_cbr2_dropout
I1209 19:32:19.053457  1002 net.cpp:100] Creating Layer L1_b9_cbr2_dropout
I1209 19:32:19.053469  1002 net.cpp:434] L1_b9_cbr2_dropout <- L1_b9_cbr2_bn_top
I1209 19:32:19.053483  1002 net.cpp:395] L1_b9_cbr2_dropout -> L1_b9_cbr2_bn_top (in-place)
I1209 19:32:19.053536  1002 net.cpp:150] Setting up L1_b9_cbr2_dropout
I1209 19:32:19.053560  1002 net.cpp:157] Top shape: 125 16 32 32 (2048000)
I1209 19:32:19.053570  1002 net.cpp:165] Memory required for data: 976385500
I1209 19:32:19.053581  1002 layer_factory.hpp:77] Creating layer L1_b9_sum_eltwise
I1209 19:32:19.053596  1002 net.cpp:100] Creating Layer L1_b9_sum_eltwise
I1209 19:32:19.053608  1002 net.cpp:434] L1_b9_sum_eltwise <- L1_b9_cbr2_bn_top
I1209 19:32:19.053622  1002 net.cpp:434] L1_b9_sum_eltwise <- L1_b8_sum_eltwise_top_L1_b8_relu_0_split_1
I1209 19:32:19.053642  1002 net.cpp:408] L1_b9_sum_eltwise -> L1_b9_sum_eltwise_top
I1209 19:32:19.053696  1002 net.cpp:150] Setting up L1_b9_sum_eltwise
I1209 19:32:19.053715  1002 net.cpp:157] Top shape: 125 16 32 32 (2048000)
I1209 19:32:19.053726  1002 net.cpp:165] Memory required for data: 984577500
I1209 19:32:19.053736  1002 layer_factory.hpp:77] Creating layer L1_b9_relu
I1209 19:32:19.053757  1002 net.cpp:100] Creating Layer L1_b9_relu
I1209 19:32:19.053769  1002 net.cpp:434] L1_b9_relu <- L1_b9_sum_eltwise_top
I1209 19:32:19.053784  1002 net.cpp:395] L1_b9_relu -> L1_b9_sum_eltwise_top (in-place)
I1209 19:32:19.053803  1002 net.cpp:150] Setting up L1_b9_relu
I1209 19:32:19.053817  1002 net.cpp:157] Top shape: 125 16 32 32 (2048000)
I1209 19:32:19.053827  1002 net.cpp:165] Memory required for data: 992769500
I1209 19:32:19.053838  1002 layer_factory.hpp:77] Creating layer L1_b9_sum_eltwise_top_L1_b9_relu_0_split
I1209 19:32:19.053853  1002 net.cpp:100] Creating Layer L1_b9_sum_eltwise_top_L1_b9_relu_0_split
I1209 19:32:19.053864  1002 net.cpp:434] L1_b9_sum_eltwise_top_L1_b9_relu_0_split <- L1_b9_sum_eltwise_top
I1209 19:32:19.053889  1002 net.cpp:408] L1_b9_sum_eltwise_top_L1_b9_relu_0_split -> L1_b9_sum_eltwise_top_L1_b9_relu_0_split_0
I1209 19:32:19.053910  1002 net.cpp:408] L1_b9_sum_eltwise_top_L1_b9_relu_0_split -> L1_b9_sum_eltwise_top_L1_b9_relu_0_split_1
I1209 19:32:19.054004  1002 net.cpp:150] Setting up L1_b9_sum_eltwise_top_L1_b9_relu_0_split
I1209 19:32:19.054024  1002 net.cpp:157] Top shape: 125 16 32 32 (2048000)
I1209 19:32:19.054039  1002 net.cpp:157] Top shape: 125 16 32 32 (2048000)
I1209 19:32:19.054049  1002 net.cpp:165] Memory required for data: 1009153500
I1209 19:32:19.054059  1002 layer_factory.hpp:77] Creating layer L2_b1_cbr1_conv
I1209 19:32:19.054085  1002 net.cpp:100] Creating Layer L2_b1_cbr1_conv
I1209 19:32:19.054098  1002 net.cpp:434] L2_b1_cbr1_conv <- L1_b9_sum_eltwise_top_L1_b9_relu_0_split_0
I1209 19:32:19.054121  1002 net.cpp:408] L2_b1_cbr1_conv -> L2_b1_cbr1_conv_top
I1209 19:32:19.054487  1002 net.cpp:150] Setting up L2_b1_cbr1_conv
I1209 19:32:19.054507  1002 net.cpp:157] Top shape: 125 16 16 16 (512000)
I1209 19:32:19.054517  1002 net.cpp:165] Memory required for data: 1011201500
I1209 19:32:19.054535  1002 layer_factory.hpp:77] Creating layer L2_b1_cbr1_bn
I1209 19:32:19.054558  1002 net.cpp:100] Creating Layer L2_b1_cbr1_bn
I1209 19:32:19.054571  1002 net.cpp:434] L2_b1_cbr1_bn <- L2_b1_cbr1_conv_top
I1209 19:32:19.054591  1002 net.cpp:408] L2_b1_cbr1_bn -> L2_b1_cbr1_bn_top
I1209 19:32:19.054888  1002 net.cpp:150] Setting up L2_b1_cbr1_bn
I1209 19:32:19.054906  1002 net.cpp:157] Top shape: 125 16 16 16 (512000)
I1209 19:32:19.054916  1002 net.cpp:165] Memory required for data: 1013249500
I1209 19:32:19.054937  1002 layer_factory.hpp:77] Creating layer L2_b1_cbr1_scale
I1209 19:32:19.054955  1002 net.cpp:100] Creating Layer L2_b1_cbr1_scale
I1209 19:32:19.054975  1002 net.cpp:434] L2_b1_cbr1_scale <- L2_b1_cbr1_bn_top
I1209 19:32:19.054991  1002 net.cpp:395] L2_b1_cbr1_scale -> L2_b1_cbr1_bn_top (in-place)
I1209 19:32:19.055088  1002 layer_factory.hpp:77] Creating layer L2_b1_cbr1_scale
I1209 19:32:19.055275  1002 net.cpp:150] Setting up L2_b1_cbr1_scale
I1209 19:32:19.055294  1002 net.cpp:157] Top shape: 125 16 16 16 (512000)
I1209 19:32:19.055304  1002 net.cpp:165] Memory required for data: 1015297500
I1209 19:32:19.055321  1002 layer_factory.hpp:77] Creating layer L2_b1_cbr1_dropout
I1209 19:32:19.055349  1002 net.cpp:100] Creating Layer L2_b1_cbr1_dropout
I1209 19:32:19.055363  1002 net.cpp:434] L2_b1_cbr1_dropout <- L2_b1_cbr1_bn_top
I1209 19:32:19.055378  1002 net.cpp:395] L2_b1_cbr1_dropout -> L2_b1_cbr1_bn_top (in-place)
I1209 19:32:19.055425  1002 net.cpp:150] Setting up L2_b1_cbr1_dropout
I1209 19:32:19.055444  1002 net.cpp:157] Top shape: 125 16 16 16 (512000)
I1209 19:32:19.055454  1002 net.cpp:165] Memory required for data: 1017345500
I1209 19:32:19.055462  1002 layer_factory.hpp:77] Creating layer L2_b1_cbr1_relu
I1209 19:32:19.055482  1002 net.cpp:100] Creating Layer L2_b1_cbr1_relu
I1209 19:32:19.055495  1002 net.cpp:434] L2_b1_cbr1_relu <- L2_b1_cbr1_bn_top
I1209 19:32:19.055510  1002 net.cpp:395] L2_b1_cbr1_relu -> L2_b1_cbr1_bn_top (in-place)
I1209 19:32:19.055527  1002 net.cpp:150] Setting up L2_b1_cbr1_relu
I1209 19:32:19.055541  1002 net.cpp:157] Top shape: 125 16 16 16 (512000)
I1209 19:32:19.055552  1002 net.cpp:165] Memory required for data: 1019393500
I1209 19:32:19.055562  1002 layer_factory.hpp:77] Creating layer L2_b1_cbr2_conv
I1209 19:32:19.055582  1002 net.cpp:100] Creating Layer L2_b1_cbr2_conv
I1209 19:32:19.055593  1002 net.cpp:434] L2_b1_cbr2_conv <- L2_b1_cbr1_bn_top
I1209 19:32:19.055618  1002 net.cpp:408] L2_b1_cbr2_conv -> L2_b1_cbr2_conv_top
I1209 19:32:19.056012  1002 net.cpp:150] Setting up L2_b1_cbr2_conv
I1209 19:32:19.056031  1002 net.cpp:157] Top shape: 125 16 16 16 (512000)
I1209 19:32:19.056041  1002 net.cpp:165] Memory required for data: 1021441500
I1209 19:32:19.056059  1002 layer_factory.hpp:77] Creating layer L2_b1_cbr2_bn
I1209 19:32:19.056077  1002 net.cpp:100] Creating Layer L2_b1_cbr2_bn
I1209 19:32:19.056089  1002 net.cpp:434] L2_b1_cbr2_bn <- L2_b1_cbr2_conv_top
I1209 19:32:19.056118  1002 net.cpp:408] L2_b1_cbr2_bn -> L2_b1_cbr2_bn_top
I1209 19:32:19.056429  1002 net.cpp:150] Setting up L2_b1_cbr2_bn
I1209 19:32:19.056448  1002 net.cpp:157] Top shape: 125 16 16 16 (512000)
I1209 19:32:19.056459  1002 net.cpp:165] Memory required for data: 1023489500
I1209 19:32:19.056479  1002 layer_factory.hpp:77] Creating layer L2_b1_cbr2_scale
I1209 19:32:19.056501  1002 net.cpp:100] Creating Layer L2_b1_cbr2_scale
I1209 19:32:19.056514  1002 net.cpp:434] L2_b1_cbr2_scale <- L2_b1_cbr2_bn_top
I1209 19:32:19.056529  1002 net.cpp:395] L2_b1_cbr2_scale -> L2_b1_cbr2_bn_top (in-place)
I1209 19:32:19.056622  1002 layer_factory.hpp:77] Creating layer L2_b1_cbr2_scale
I1209 19:32:19.056813  1002 net.cpp:150] Setting up L2_b1_cbr2_scale
I1209 19:32:19.056833  1002 net.cpp:157] Top shape: 125 16 16 16 (512000)
I1209 19:32:19.056843  1002 net.cpp:165] Memory required for data: 1025537500
I1209 19:32:19.056860  1002 layer_factory.hpp:77] Creating layer L2_b1_cbr2_dropout
I1209 19:32:19.056884  1002 net.cpp:100] Creating Layer L2_b1_cbr2_dropout
I1209 19:32:19.056896  1002 net.cpp:434] L2_b1_cbr2_dropout <- L2_b1_cbr2_bn_top
I1209 19:32:19.056911  1002 net.cpp:395] L2_b1_cbr2_dropout -> L2_b1_cbr2_bn_top (in-place)
I1209 19:32:19.056970  1002 net.cpp:150] Setting up L2_b1_cbr2_dropout
I1209 19:32:19.056989  1002 net.cpp:157] Top shape: 125 16 16 16 (512000)
I1209 19:32:19.056999  1002 net.cpp:165] Memory required for data: 1027585500
I1209 19:32:19.057009  1002 layer_factory.hpp:77] Creating layer L2_b1_pool
I1209 19:32:19.057027  1002 net.cpp:100] Creating Layer L2_b1_pool
I1209 19:32:19.057040  1002 net.cpp:434] L2_b1_pool <- L1_b9_sum_eltwise_top_L1_b9_relu_0_split_1
I1209 19:32:19.057060  1002 net.cpp:408] L2_b1_pool -> L2_b1_pool
I1209 19:32:19.057188  1002 net.cpp:150] Setting up L2_b1_pool
I1209 19:32:19.057209  1002 net.cpp:157] Top shape: 125 16 16 16 (512000)
I1209 19:32:19.057217  1002 net.cpp:165] Memory required for data: 1029633500
I1209 19:32:19.057229  1002 layer_factory.hpp:77] Creating layer L2_b1_sum_eltwise
I1209 19:32:19.057245  1002 net.cpp:100] Creating Layer L2_b1_sum_eltwise
I1209 19:32:19.057256  1002 net.cpp:434] L2_b1_sum_eltwise <- L2_b1_cbr2_bn_top
I1209 19:32:19.057270  1002 net.cpp:434] L2_b1_sum_eltwise <- L2_b1_pool
I1209 19:32:19.057291  1002 net.cpp:408] L2_b1_sum_eltwise -> L2_b1_sum_eltwise_top
I1209 19:32:19.057345  1002 net.cpp:150] Setting up L2_b1_sum_eltwise
I1209 19:32:19.057363  1002 net.cpp:157] Top shape: 125 16 16 16 (512000)
I1209 19:32:19.057374  1002 net.cpp:165] Memory required for data: 1031681500
I1209 19:32:19.057384  1002 layer_factory.hpp:77] Creating layer L2_b1_relu
I1209 19:32:19.057399  1002 net.cpp:100] Creating Layer L2_b1_relu
I1209 19:32:19.057410  1002 net.cpp:434] L2_b1_relu <- L2_b1_sum_eltwise_top
I1209 19:32:19.057425  1002 net.cpp:395] L2_b1_relu -> L2_b1_sum_eltwise_top (in-place)
I1209 19:32:19.057442  1002 net.cpp:150] Setting up L2_b1_relu
I1209 19:32:19.057456  1002 net.cpp:157] Top shape: 125 16 16 16 (512000)
I1209 19:32:19.057466  1002 net.cpp:165] Memory required for data: 1033729500
I1209 19:32:19.057476  1002 layer_factory.hpp:77] Creating layer L2_b1_zeros
I1209 19:32:19.057562  1002 net.cpp:100] Creating Layer L2_b1_zeros
I1209 19:32:19.057584  1002 net.cpp:408] L2_b1_zeros -> L2_b1_zeros
I1209 19:32:19.061003  1002 net.cpp:150] Setting up L2_b1_zeros
I1209 19:32:19.061031  1002 net.cpp:157] Top shape: 125 16 16 16 (512000)
I1209 19:32:19.061043  1002 net.cpp:165] Memory required for data: 1035777500
I1209 19:32:19.061053  1002 layer_factory.hpp:77] Creating layer L2_b1_concat0
I1209 19:32:19.061092  1002 net.cpp:100] Creating Layer L2_b1_concat0
I1209 19:32:19.061106  1002 net.cpp:434] L2_b1_concat0 <- L2_b1_sum_eltwise_top
I1209 19:32:19.061121  1002 net.cpp:434] L2_b1_concat0 <- L2_b1_zeros
I1209 19:32:19.061137  1002 net.cpp:408] L2_b1_concat0 -> L2_b1_concat0
I1209 19:32:19.061259  1002 net.cpp:150] Setting up L2_b1_concat0
I1209 19:32:19.061288  1002 net.cpp:157] Top shape: 125 32 16 16 (1024000)
I1209 19:32:19.061311  1002 net.cpp:165] Memory required for data: 1039873500
I1209 19:32:19.061324  1002 layer_factory.hpp:77] Creating layer L2_b1_concat0_L2_b1_concat0_0_split
I1209 19:32:19.061341  1002 net.cpp:100] Creating Layer L2_b1_concat0_L2_b1_concat0_0_split
I1209 19:32:19.061352  1002 net.cpp:434] L2_b1_concat0_L2_b1_concat0_0_split <- L2_b1_concat0
I1209 19:32:19.061367  1002 net.cpp:408] L2_b1_concat0_L2_b1_concat0_0_split -> L2_b1_concat0_L2_b1_concat0_0_split_0
I1209 19:32:19.061386  1002 net.cpp:408] L2_b1_concat0_L2_b1_concat0_0_split -> L2_b1_concat0_L2_b1_concat0_0_split_1
I1209 19:32:19.061475  1002 net.cpp:150] Setting up L2_b1_concat0_L2_b1_concat0_0_split
I1209 19:32:19.061494  1002 net.cpp:157] Top shape: 125 32 16 16 (1024000)
I1209 19:32:19.061507  1002 net.cpp:157] Top shape: 125 32 16 16 (1024000)
I1209 19:32:19.061517  1002 net.cpp:165] Memory required for data: 1048065500
I1209 19:32:19.061528  1002 layer_factory.hpp:77] Creating layer L2_b2_cbr1_conv
I1209 19:32:19.061549  1002 net.cpp:100] Creating Layer L2_b2_cbr1_conv
I1209 19:32:19.061561  1002 net.cpp:434] L2_b2_cbr1_conv <- L2_b1_concat0_L2_b1_concat0_0_split_0
I1209 19:32:19.061585  1002 net.cpp:408] L2_b2_cbr1_conv -> L2_b2_cbr1_conv_top
I1209 19:32:19.063380  1002 net.cpp:150] Setting up L2_b2_cbr1_conv
I1209 19:32:19.063401  1002 net.cpp:157] Top shape: 125 32 16 16 (1024000)
I1209 19:32:19.063411  1002 net.cpp:165] Memory required for data: 1052161500
I1209 19:32:19.063429  1002 layer_factory.hpp:77] Creating layer L2_b2_cbr1_bn
I1209 19:32:19.063452  1002 net.cpp:100] Creating Layer L2_b2_cbr1_bn
I1209 19:32:19.063467  1002 net.cpp:434] L2_b2_cbr1_bn <- L2_b2_cbr1_conv_top
I1209 19:32:19.063482  1002 net.cpp:408] L2_b2_cbr1_bn -> L2_b2_cbr1_bn_top
I1209 19:32:19.063783  1002 net.cpp:150] Setting up L2_b2_cbr1_bn
I1209 19:32:19.063802  1002 net.cpp:157] Top shape: 125 32 16 16 (1024000)
I1209 19:32:19.063812  1002 net.cpp:165] Memory required for data: 1056257500
I1209 19:32:19.063833  1002 layer_factory.hpp:77] Creating layer L2_b2_cbr1_scale
I1209 19:32:19.063851  1002 net.cpp:100] Creating Layer L2_b2_cbr1_scale
I1209 19:32:19.063863  1002 net.cpp:434] L2_b2_cbr1_scale <- L2_b2_cbr1_bn_top
I1209 19:32:19.063884  1002 net.cpp:395] L2_b2_cbr1_scale -> L2_b2_cbr1_bn_top (in-place)
I1209 19:32:19.063987  1002 layer_factory.hpp:77] Creating layer L2_b2_cbr1_scale
I1209 19:32:19.064184  1002 net.cpp:150] Setting up L2_b2_cbr1_scale
I1209 19:32:19.064203  1002 net.cpp:157] Top shape: 125 32 16 16 (1024000)
I1209 19:32:19.064214  1002 net.cpp:165] Memory required for data: 1060353500
I1209 19:32:19.064231  1002 layer_factory.hpp:77] Creating layer L2_b2_cbr1_dropout
I1209 19:32:19.064249  1002 net.cpp:100] Creating Layer L2_b2_cbr1_dropout
I1209 19:32:19.064260  1002 net.cpp:434] L2_b2_cbr1_dropout <- L2_b2_cbr1_bn_top
I1209 19:32:19.064280  1002 net.cpp:395] L2_b2_cbr1_dropout -> L2_b2_cbr1_bn_top (in-place)
I1209 19:32:19.064327  1002 net.cpp:150] Setting up L2_b2_cbr1_dropout
I1209 19:32:19.064343  1002 net.cpp:157] Top shape: 125 32 16 16 (1024000)
I1209 19:32:19.064353  1002 net.cpp:165] Memory required for data: 1064449500
I1209 19:32:19.064363  1002 layer_factory.hpp:77] Creating layer L2_b2_cbr1_relu
I1209 19:32:19.064383  1002 net.cpp:100] Creating Layer L2_b2_cbr1_relu
I1209 19:32:19.064395  1002 net.cpp:434] L2_b2_cbr1_relu <- L2_b2_cbr1_bn_top
I1209 19:32:19.064410  1002 net.cpp:395] L2_b2_cbr1_relu -> L2_b2_cbr1_bn_top (in-place)
I1209 19:32:19.064429  1002 net.cpp:150] Setting up L2_b2_cbr1_relu
I1209 19:32:19.064443  1002 net.cpp:157] Top shape: 125 32 16 16 (1024000)
I1209 19:32:19.064453  1002 net.cpp:165] Memory required for data: 1068545500
I1209 19:32:19.064463  1002 layer_factory.hpp:77] Creating layer L2_b2_cbr2_conv
I1209 19:32:19.064489  1002 net.cpp:100] Creating Layer L2_b2_cbr2_conv
I1209 19:32:19.064502  1002 net.cpp:434] L2_b2_cbr2_conv <- L2_b2_cbr1_bn_top
I1209 19:32:19.064519  1002 net.cpp:408] L2_b2_cbr2_conv -> L2_b2_cbr2_conv_top
I1209 19:32:19.065069  1002 net.cpp:150] Setting up L2_b2_cbr2_conv
I1209 19:32:19.065098  1002 net.cpp:157] Top shape: 125 32 16 16 (1024000)
I1209 19:32:19.065109  1002 net.cpp:165] Memory required for data: 1072641500
I1209 19:32:19.065126  1002 layer_factory.hpp:77] Creating layer L2_b2_cbr2_bn
I1209 19:32:19.065150  1002 net.cpp:100] Creating Layer L2_b2_cbr2_bn
I1209 19:32:19.065162  1002 net.cpp:434] L2_b2_cbr2_bn <- L2_b2_cbr2_conv_top
I1209 19:32:19.065183  1002 net.cpp:408] L2_b2_cbr2_bn -> L2_b2_cbr2_bn_top
I1209 19:32:19.065485  1002 net.cpp:150] Setting up L2_b2_cbr2_bn
I1209 19:32:19.065505  1002 net.cpp:157] Top shape: 125 32 16 16 (1024000)
I1209 19:32:19.065515  1002 net.cpp:165] Memory required for data: 1076737500
I1209 19:32:19.065536  1002 layer_factory.hpp:77] Creating layer L2_b2_cbr2_scale
I1209 19:32:19.065553  1002 net.cpp:100] Creating Layer L2_b2_cbr2_scale
I1209 19:32:19.065565  1002 net.cpp:434] L2_b2_cbr2_scale <- L2_b2_cbr2_bn_top
I1209 19:32:19.065579  1002 net.cpp:395] L2_b2_cbr2_scale -> L2_b2_cbr2_bn_top (in-place)
I1209 19:32:19.065680  1002 layer_factory.hpp:77] Creating layer L2_b2_cbr2_scale
I1209 19:32:19.065874  1002 net.cpp:150] Setting up L2_b2_cbr2_scale
I1209 19:32:19.065893  1002 net.cpp:157] Top shape: 125 32 16 16 (1024000)
I1209 19:32:19.065903  1002 net.cpp:165] Memory required for data: 1080833500
I1209 19:32:19.065922  1002 layer_factory.hpp:77] Creating layer L2_b2_cbr2_dropout
I1209 19:32:19.065944  1002 net.cpp:100] Creating Layer L2_b2_cbr2_dropout
I1209 19:32:19.065963  1002 net.cpp:434] L2_b2_cbr2_dropout <- L2_b2_cbr2_bn_top
I1209 19:32:19.065981  1002 net.cpp:395] L2_b2_cbr2_dropout -> L2_b2_cbr2_bn_top (in-place)
I1209 19:32:19.066027  1002 net.cpp:150] Setting up L2_b2_cbr2_dropout
I1209 19:32:19.066051  1002 net.cpp:157] Top shape: 125 32 16 16 (1024000)
I1209 19:32:19.066062  1002 net.cpp:165] Memory required for data: 1084929500
I1209 19:32:19.066072  1002 layer_factory.hpp:77] Creating layer L2_b2_sum_eltwise
I1209 19:32:19.066089  1002 net.cpp:100] Creating Layer L2_b2_sum_eltwise
I1209 19:32:19.066102  1002 net.cpp:434] L2_b2_sum_eltwise <- L2_b2_cbr2_bn_top
I1209 19:32:19.066115  1002 net.cpp:434] L2_b2_sum_eltwise <- L2_b1_concat0_L2_b1_concat0_0_split_1
I1209 19:32:19.066136  1002 net.cpp:408] L2_b2_sum_eltwise -> L2_b2_sum_eltwise_top
I1209 19:32:19.066192  1002 net.cpp:150] Setting up L2_b2_sum_eltwise
I1209 19:32:19.066210  1002 net.cpp:157] Top shape: 125 32 16 16 (1024000)
I1209 19:32:19.066218  1002 net.cpp:165] Memory required for data: 1089025500
I1209 19:32:19.066229  1002 layer_factory.hpp:77] Creating layer L2_b2_relu
I1209 19:32:19.066251  1002 net.cpp:100] Creating Layer L2_b2_relu
I1209 19:32:19.066262  1002 net.cpp:434] L2_b2_relu <- L2_b2_sum_eltwise_top
I1209 19:32:19.066277  1002 net.cpp:395] L2_b2_relu -> L2_b2_sum_eltwise_top (in-place)
I1209 19:32:19.066295  1002 net.cpp:150] Setting up L2_b2_relu
I1209 19:32:19.066310  1002 net.cpp:157] Top shape: 125 32 16 16 (1024000)
I1209 19:32:19.066320  1002 net.cpp:165] Memory required for data: 1093121500
I1209 19:32:19.066329  1002 layer_factory.hpp:77] Creating layer L2_b2_sum_eltwise_top_L2_b2_relu_0_split
I1209 19:32:19.066344  1002 net.cpp:100] Creating Layer L2_b2_sum_eltwise_top_L2_b2_relu_0_split
I1209 19:32:19.066355  1002 net.cpp:434] L2_b2_sum_eltwise_top_L2_b2_relu_0_split <- L2_b2_sum_eltwise_top
I1209 19:32:19.066370  1002 net.cpp:408] L2_b2_sum_eltwise_top_L2_b2_relu_0_split -> L2_b2_sum_eltwise_top_L2_b2_relu_0_split_0
I1209 19:32:19.066388  1002 net.cpp:408] L2_b2_sum_eltwise_top_L2_b2_relu_0_split -> L2_b2_sum_eltwise_top_L2_b2_relu_0_split_1
I1209 19:32:19.066473  1002 net.cpp:150] Setting up L2_b2_sum_eltwise_top_L2_b2_relu_0_split
I1209 19:32:19.066493  1002 net.cpp:157] Top shape: 125 32 16 16 (1024000)
I1209 19:32:19.066506  1002 net.cpp:157] Top shape: 125 32 16 16 (1024000)
I1209 19:32:19.066515  1002 net.cpp:165] Memory required for data: 1101313500
I1209 19:32:19.066526  1002 layer_factory.hpp:77] Creating layer L2_b3_cbr1_conv
I1209 19:32:19.066552  1002 net.cpp:100] Creating Layer L2_b3_cbr1_conv
I1209 19:32:19.066573  1002 net.cpp:434] L2_b3_cbr1_conv <- L2_b2_sum_eltwise_top_L2_b2_relu_0_split_0
I1209 19:32:19.066602  1002 net.cpp:408] L2_b3_cbr1_conv -> L2_b3_cbr1_conv_top
I1209 19:32:19.067126  1002 net.cpp:150] Setting up L2_b3_cbr1_conv
I1209 19:32:19.067147  1002 net.cpp:157] Top shape: 125 32 16 16 (1024000)
I1209 19:32:19.067157  1002 net.cpp:165] Memory required for data: 1105409500
I1209 19:32:19.067173  1002 layer_factory.hpp:77] Creating layer L2_b3_cbr1_bn
I1209 19:32:19.067196  1002 net.cpp:100] Creating Layer L2_b3_cbr1_bn
I1209 19:32:19.067209  1002 net.cpp:434] L2_b3_cbr1_bn <- L2_b3_cbr1_conv_top
I1209 19:32:19.067229  1002 net.cpp:408] L2_b3_cbr1_bn -> L2_b3_cbr1_bn_top
I1209 19:32:19.067528  1002 net.cpp:150] Setting up L2_b3_cbr1_bn
I1209 19:32:19.067548  1002 net.cpp:157] Top shape: 125 32 16 16 (1024000)
I1209 19:32:19.067559  1002 net.cpp:165] Memory required for data: 1109505500
I1209 19:32:19.067579  1002 layer_factory.hpp:77] Creating layer L2_b3_cbr1_scale
I1209 19:32:19.067596  1002 net.cpp:100] Creating Layer L2_b3_cbr1_scale
I1209 19:32:19.067608  1002 net.cpp:434] L2_b3_cbr1_scale <- L2_b3_cbr1_bn_top
I1209 19:32:19.067622  1002 net.cpp:395] L2_b3_cbr1_scale -> L2_b3_cbr1_bn_top (in-place)
I1209 19:32:19.067720  1002 layer_factory.hpp:77] Creating layer L2_b3_cbr1_scale
I1209 19:32:19.067911  1002 net.cpp:150] Setting up L2_b3_cbr1_scale
I1209 19:32:19.067930  1002 net.cpp:157] Top shape: 125 32 16 16 (1024000)
I1209 19:32:19.067940  1002 net.cpp:165] Memory required for data: 1113601500
I1209 19:32:19.067965  1002 layer_factory.hpp:77] Creating layer L2_b3_cbr1_dropout
I1209 19:32:19.067984  1002 net.cpp:100] Creating Layer L2_b3_cbr1_dropout
I1209 19:32:19.068002  1002 net.cpp:434] L2_b3_cbr1_dropout <- L2_b3_cbr1_bn_top
I1209 19:32:19.068017  1002 net.cpp:395] L2_b3_cbr1_dropout -> L2_b3_cbr1_bn_top (in-place)
I1209 19:32:19.068064  1002 net.cpp:150] Setting up L2_b3_cbr1_dropout
I1209 19:32:19.068083  1002 net.cpp:157] Top shape: 125 32 16 16 (1024000)
I1209 19:32:19.068092  1002 net.cpp:165] Memory required for data: 1117697500
I1209 19:32:19.068102  1002 layer_factory.hpp:77] Creating layer L2_b3_cbr1_relu
I1209 19:32:19.068122  1002 net.cpp:100] Creating Layer L2_b3_cbr1_relu
I1209 19:32:19.068135  1002 net.cpp:434] L2_b3_cbr1_relu <- L2_b3_cbr1_bn_top
I1209 19:32:19.068150  1002 net.cpp:395] L2_b3_cbr1_relu -> L2_b3_cbr1_bn_top (in-place)
I1209 19:32:19.068166  1002 net.cpp:150] Setting up L2_b3_cbr1_relu
I1209 19:32:19.068181  1002 net.cpp:157] Top shape: 125 32 16 16 (1024000)
I1209 19:32:19.068190  1002 net.cpp:165] Memory required for data: 1121793500
I1209 19:32:19.068200  1002 layer_factory.hpp:77] Creating layer L2_b3_cbr2_conv
I1209 19:32:19.068222  1002 net.cpp:100] Creating Layer L2_b3_cbr2_conv
I1209 19:32:19.068235  1002 net.cpp:434] L2_b3_cbr2_conv <- L2_b3_cbr1_bn_top
I1209 19:32:19.068259  1002 net.cpp:408] L2_b3_cbr2_conv -> L2_b3_cbr2_conv_top
I1209 19:32:19.068786  1002 net.cpp:150] Setting up L2_b3_cbr2_conv
I1209 19:32:19.068806  1002 net.cpp:157] Top shape: 125 32 16 16 (1024000)
I1209 19:32:19.068816  1002 net.cpp:165] Memory required for data: 1125889500
I1209 19:32:19.068832  1002 layer_factory.hpp:77] Creating layer L2_b3_cbr2_bn
I1209 19:32:19.068851  1002 net.cpp:100] Creating Layer L2_b3_cbr2_bn
I1209 19:32:19.068863  1002 net.cpp:434] L2_b3_cbr2_bn <- L2_b3_cbr2_conv_top
I1209 19:32:19.068886  1002 net.cpp:408] L2_b3_cbr2_bn -> L2_b3_cbr2_bn_top
I1209 19:32:19.069200  1002 net.cpp:150] Setting up L2_b3_cbr2_bn
I1209 19:32:19.069218  1002 net.cpp:157] Top shape: 125 32 16 16 (1024000)
I1209 19:32:19.069228  1002 net.cpp:165] Memory required for data: 1129985500
I1209 19:32:19.069249  1002 layer_factory.hpp:77] Creating layer L2_b3_cbr2_scale
I1209 19:32:19.069272  1002 net.cpp:100] Creating Layer L2_b3_cbr2_scale
I1209 19:32:19.069284  1002 net.cpp:434] L2_b3_cbr2_scale <- L2_b3_cbr2_bn_top
I1209 19:32:19.069299  1002 net.cpp:395] L2_b3_cbr2_scale -> L2_b3_cbr2_bn_top (in-place)
I1209 19:32:19.069396  1002 layer_factory.hpp:77] Creating layer L2_b3_cbr2_scale
I1209 19:32:19.069602  1002 net.cpp:150] Setting up L2_b3_cbr2_scale
I1209 19:32:19.069620  1002 net.cpp:157] Top shape: 125 32 16 16 (1024000)
I1209 19:32:19.069629  1002 net.cpp:165] Memory required for data: 1134081500
I1209 19:32:19.069648  1002 layer_factory.hpp:77] Creating layer L2_b3_cbr2_dropout
I1209 19:32:19.069669  1002 net.cpp:100] Creating Layer L2_b3_cbr2_dropout
I1209 19:32:19.069682  1002 net.cpp:434] L2_b3_cbr2_dropout <- L2_b3_cbr2_bn_top
I1209 19:32:19.069699  1002 net.cpp:395] L2_b3_cbr2_dropout -> L2_b3_cbr2_bn_top (in-place)
I1209 19:32:19.069751  1002 net.cpp:150] Setting up L2_b3_cbr2_dropout
I1209 19:32:19.069769  1002 net.cpp:157] Top shape: 125 32 16 16 (1024000)
I1209 19:32:19.069779  1002 net.cpp:165] Memory required for data: 1138177500
I1209 19:32:19.069790  1002 layer_factory.hpp:77] Creating layer L2_b3_sum_eltwise
I1209 19:32:19.069806  1002 net.cpp:100] Creating Layer L2_b3_sum_eltwise
I1209 19:32:19.069818  1002 net.cpp:434] L2_b3_sum_eltwise <- L2_b3_cbr2_bn_top
I1209 19:32:19.069831  1002 net.cpp:434] L2_b3_sum_eltwise <- L2_b2_sum_eltwise_top_L2_b2_relu_0_split_1
I1209 19:32:19.069852  1002 net.cpp:408] L2_b3_sum_eltwise -> L2_b3_sum_eltwise_top
I1209 19:32:19.069908  1002 net.cpp:150] Setting up L2_b3_sum_eltwise
I1209 19:32:19.069926  1002 net.cpp:157] Top shape: 125 32 16 16 (1024000)
I1209 19:32:19.069936  1002 net.cpp:165] Memory required for data: 1142273500
I1209 19:32:19.069947  1002 layer_factory.hpp:77] Creating layer L2_b3_relu
I1209 19:32:19.069969  1002 net.cpp:100] Creating Layer L2_b3_relu
I1209 19:32:19.069983  1002 net.cpp:434] L2_b3_relu <- L2_b3_sum_eltwise_top
I1209 19:32:19.069998  1002 net.cpp:395] L2_b3_relu -> L2_b3_sum_eltwise_top (in-place)
I1209 19:32:19.070016  1002 net.cpp:150] Setting up L2_b3_relu
I1209 19:32:19.070030  1002 net.cpp:157] Top shape: 125 32 16 16 (1024000)
I1209 19:32:19.070041  1002 net.cpp:165] Memory required for data: 1146369500
I1209 19:32:19.070051  1002 layer_factory.hpp:77] Creating layer L2_b3_sum_eltwise_top_L2_b3_relu_0_split
I1209 19:32:19.070070  1002 net.cpp:100] Creating Layer L2_b3_sum_eltwise_top_L2_b3_relu_0_split
I1209 19:32:19.070081  1002 net.cpp:434] L2_b3_sum_eltwise_top_L2_b3_relu_0_split <- L2_b3_sum_eltwise_top
I1209 19:32:19.070097  1002 net.cpp:408] L2_b3_sum_eltwise_top_L2_b3_relu_0_split -> L2_b3_sum_eltwise_top_L2_b3_relu_0_split_0
I1209 19:32:19.070117  1002 net.cpp:408] L2_b3_sum_eltwise_top_L2_b3_relu_0_split -> L2_b3_sum_eltwise_top_L2_b3_relu_0_split_1
I1209 19:32:19.070200  1002 net.cpp:150] Setting up L2_b3_sum_eltwise_top_L2_b3_relu_0_split
I1209 19:32:19.070219  1002 net.cpp:157] Top shape: 125 32 16 16 (1024000)
I1209 19:32:19.070232  1002 net.cpp:157] Top shape: 125 32 16 16 (1024000)
I1209 19:32:19.070241  1002 net.cpp:165] Memory required for data: 1154561500
I1209 19:32:19.070253  1002 layer_factory.hpp:77] Creating layer L2_b4_cbr1_conv
I1209 19:32:19.070274  1002 net.cpp:100] Creating Layer L2_b4_cbr1_conv
I1209 19:32:19.070286  1002 net.cpp:434] L2_b4_cbr1_conv <- L2_b3_sum_eltwise_top_L2_b3_relu_0_split_0
I1209 19:32:19.070310  1002 net.cpp:408] L2_b4_cbr1_conv -> L2_b4_cbr1_conv_top
I1209 19:32:19.070812  1002 net.cpp:150] Setting up L2_b4_cbr1_conv
I1209 19:32:19.070832  1002 net.cpp:157] Top shape: 125 32 16 16 (1024000)
I1209 19:32:19.070842  1002 net.cpp:165] Memory required for data: 1158657500
I1209 19:32:19.070858  1002 layer_factory.hpp:77] Creating layer L2_b4_cbr1_bn
I1209 19:32:19.070876  1002 net.cpp:100] Creating Layer L2_b4_cbr1_bn
I1209 19:32:19.070888  1002 net.cpp:434] L2_b4_cbr1_bn <- L2_b4_cbr1_conv_top
I1209 19:32:19.070909  1002 net.cpp:408] L2_b4_cbr1_bn -> L2_b4_cbr1_bn_top
I1209 19:32:19.071219  1002 net.cpp:150] Setting up L2_b4_cbr1_bn
I1209 19:32:19.071238  1002 net.cpp:157] Top shape: 125 32 16 16 (1024000)
I1209 19:32:19.071249  1002 net.cpp:165] Memory required for data: 1162753500
I1209 19:32:19.071269  1002 layer_factory.hpp:77] Creating layer L2_b4_cbr1_scale
I1209 19:32:19.071291  1002 net.cpp:100] Creating Layer L2_b4_cbr1_scale
I1209 19:32:19.071311  1002 net.cpp:434] L2_b4_cbr1_scale <- L2_b4_cbr1_bn_top
I1209 19:32:19.071327  1002 net.cpp:395] L2_b4_cbr1_scale -> L2_b4_cbr1_bn_top (in-place)
I1209 19:32:19.071427  1002 layer_factory.hpp:77] Creating layer L2_b4_cbr1_scale
I1209 19:32:19.071620  1002 net.cpp:150] Setting up L2_b4_cbr1_scale
I1209 19:32:19.071640  1002 net.cpp:157] Top shape: 125 32 16 16 (1024000)
I1209 19:32:19.071650  1002 net.cpp:165] Memory required for data: 1166849500
I1209 19:32:19.071666  1002 layer_factory.hpp:77] Creating layer L2_b4_cbr1_dropout
I1209 19:32:19.071684  1002 net.cpp:100] Creating Layer L2_b4_cbr1_dropout
I1209 19:32:19.071696  1002 net.cpp:434] L2_b4_cbr1_dropout <- L2_b4_cbr1_bn_top
I1209 19:32:19.071717  1002 net.cpp:395] L2_b4_cbr1_dropout -> L2_b4_cbr1_bn_top (in-place)
I1209 19:32:19.071764  1002 net.cpp:150] Setting up L2_b4_cbr1_dropout
I1209 19:32:19.071789  1002 net.cpp:157] Top shape: 125 32 16 16 (1024000)
I1209 19:32:19.071799  1002 net.cpp:165] Memory required for data: 1170945500
I1209 19:32:19.071810  1002 layer_factory.hpp:77] Creating layer L2_b4_cbr1_relu
I1209 19:32:19.071823  1002 net.cpp:100] Creating Layer L2_b4_cbr1_relu
I1209 19:32:19.071835  1002 net.cpp:434] L2_b4_cbr1_relu <- L2_b4_cbr1_bn_top
I1209 19:32:19.071849  1002 net.cpp:395] L2_b4_cbr1_relu -> L2_b4_cbr1_bn_top (in-place)
I1209 19:32:19.071867  1002 net.cpp:150] Setting up L2_b4_cbr1_relu
I1209 19:32:19.071882  1002 net.cpp:157] Top shape: 125 32 16 16 (1024000)
I1209 19:32:19.071892  1002 net.cpp:165] Memory required for data: 1175041500
I1209 19:32:19.071902  1002 layer_factory.hpp:77] Creating layer L2_b4_cbr2_conv
I1209 19:32:19.071929  1002 net.cpp:100] Creating Layer L2_b4_cbr2_conv
I1209 19:32:19.071941  1002 net.cpp:434] L2_b4_cbr2_conv <- L2_b4_cbr1_bn_top
I1209 19:32:19.071966  1002 net.cpp:408] L2_b4_cbr2_conv -> L2_b4_cbr2_conv_top
I1209 19:32:19.072495  1002 net.cpp:150] Setting up L2_b4_cbr2_conv
I1209 19:32:19.072515  1002 net.cpp:157] Top shape: 125 32 16 16 (1024000)
I1209 19:32:19.072525  1002 net.cpp:165] Memory required for data: 1179137500
I1209 19:32:19.072541  1002 layer_factory.hpp:77] Creating layer L2_b4_cbr2_bn
I1209 19:32:19.072559  1002 net.cpp:100] Creating Layer L2_b4_cbr2_bn
I1209 19:32:19.072578  1002 net.cpp:434] L2_b4_cbr2_bn <- L2_b4_cbr2_conv_top
I1209 19:32:19.072594  1002 net.cpp:408] L2_b4_cbr2_bn -> L2_b4_cbr2_bn_top
I1209 19:32:19.072890  1002 net.cpp:150] Setting up L2_b4_cbr2_bn
I1209 19:32:19.072908  1002 net.cpp:157] Top shape: 125 32 16 16 (1024000)
I1209 19:32:19.072918  1002 net.cpp:165] Memory required for data: 1183233500
I1209 19:32:19.072939  1002 layer_factory.hpp:77] Creating layer L2_b4_cbr2_scale
I1209 19:32:19.072964  1002 net.cpp:100] Creating Layer L2_b4_cbr2_scale
I1209 19:32:19.072978  1002 net.cpp:434] L2_b4_cbr2_scale <- L2_b4_cbr2_bn_top
I1209 19:32:19.072993  1002 net.cpp:395] L2_b4_cbr2_scale -> L2_b4_cbr2_bn_top (in-place)
I1209 19:32:19.073092  1002 layer_factory.hpp:77] Creating layer L2_b4_cbr2_scale
I1209 19:32:19.073282  1002 net.cpp:150] Setting up L2_b4_cbr2_scale
I1209 19:32:19.073305  1002 net.cpp:157] Top shape: 125 32 16 16 (1024000)
I1209 19:32:19.073316  1002 net.cpp:165] Memory required for data: 1187329500
I1209 19:32:19.073334  1002 layer_factory.hpp:77] Creating layer L2_b4_cbr2_dropout
I1209 19:32:19.073351  1002 net.cpp:100] Creating Layer L2_b4_cbr2_dropout
I1209 19:32:19.073362  1002 net.cpp:434] L2_b4_cbr2_dropout <- L2_b4_cbr2_bn_top
I1209 19:32:19.073376  1002 net.cpp:395] L2_b4_cbr2_dropout -> L2_b4_cbr2_bn_top (in-place)
I1209 19:32:19.073429  1002 net.cpp:150] Setting up L2_b4_cbr2_dropout
I1209 19:32:19.073448  1002 net.cpp:157] Top shape: 125 32 16 16 (1024000)
I1209 19:32:19.073457  1002 net.cpp:165] Memory required for data: 1191425500
I1209 19:32:19.073467  1002 layer_factory.hpp:77] Creating layer L2_b4_sum_eltwise
I1209 19:32:19.073484  1002 net.cpp:100] Creating Layer L2_b4_sum_eltwise
I1209 19:32:19.073495  1002 net.cpp:434] L2_b4_sum_eltwise <- L2_b4_cbr2_bn_top
I1209 19:32:19.073508  1002 net.cpp:434] L2_b4_sum_eltwise <- L2_b3_sum_eltwise_top_L2_b3_relu_0_split_1
I1209 19:32:19.073539  1002 net.cpp:408] L2_b4_sum_eltwise -> L2_b4_sum_eltwise_top
I1209 19:32:19.073596  1002 net.cpp:150] Setting up L2_b4_sum_eltwise
I1209 19:32:19.073614  1002 net.cpp:157] Top shape: 125 32 16 16 (1024000)
I1209 19:32:19.073624  1002 net.cpp:165] Memory required for data: 1195521500
I1209 19:32:19.073634  1002 layer_factory.hpp:77] Creating layer L2_b4_relu
I1209 19:32:19.073654  1002 net.cpp:100] Creating Layer L2_b4_relu
I1209 19:32:19.073667  1002 net.cpp:434] L2_b4_relu <- L2_b4_sum_eltwise_top
I1209 19:32:19.073681  1002 net.cpp:395] L2_b4_relu -> L2_b4_sum_eltwise_top (in-place)
I1209 19:32:19.073700  1002 net.cpp:150] Setting up L2_b4_relu
I1209 19:32:19.073715  1002 net.cpp:157] Top shape: 125 32 16 16 (1024000)
I1209 19:32:19.073724  1002 net.cpp:165] Memory required for data: 1199617500
I1209 19:32:19.073734  1002 layer_factory.hpp:77] Creating layer L2_b4_sum_eltwise_top_L2_b4_relu_0_split
I1209 19:32:19.073748  1002 net.cpp:100] Creating Layer L2_b4_sum_eltwise_top_L2_b4_relu_0_split
I1209 19:32:19.073760  1002 net.cpp:434] L2_b4_sum_eltwise_top_L2_b4_relu_0_split <- L2_b4_sum_eltwise_top
I1209 19:32:19.073768  1002 net.cpp:408] L2_b4_sum_eltwise_top_L2_b4_relu_0_split -> L2_b4_sum_eltwise_top_L2_b4_relu_0_split_0
I1209 19:32:19.073778  1002 net.cpp:408] L2_b4_sum_eltwise_top_L2_b4_relu_0_split -> L2_b4_sum_eltwise_top_L2_b4_relu_0_split_1
I1209 19:32:19.073833  1002 net.cpp:150] Setting up L2_b4_sum_eltwise_top_L2_b4_relu_0_split
I1209 19:32:19.073843  1002 net.cpp:157] Top shape: 125 32 16 16 (1024000)
I1209 19:32:19.073849  1002 net.cpp:157] Top shape: 125 32 16 16 (1024000)
I1209 19:32:19.073854  1002 net.cpp:165] Memory required for data: 1207809500
I1209 19:32:19.073859  1002 layer_factory.hpp:77] Creating layer L2_b5_cbr1_conv
I1209 19:32:19.073878  1002 net.cpp:100] Creating Layer L2_b5_cbr1_conv
I1209 19:32:19.073884  1002 net.cpp:434] L2_b5_cbr1_conv <- L2_b4_sum_eltwise_top_L2_b4_relu_0_split_0
I1209 19:32:19.073896  1002 net.cpp:408] L2_b5_cbr1_conv -> L2_b5_cbr1_conv_top
I1209 19:32:19.074376  1002 net.cpp:150] Setting up L2_b5_cbr1_conv
I1209 19:32:19.074395  1002 net.cpp:157] Top shape: 125 32 16 16 (1024000)
I1209 19:32:19.074405  1002 net.cpp:165] Memory required for data: 1211905500
I1209 19:32:19.074422  1002 layer_factory.hpp:77] Creating layer L2_b5_cbr1_bn
I1209 19:32:19.074445  1002 net.cpp:100] Creating Layer L2_b5_cbr1_bn
I1209 19:32:19.074457  1002 net.cpp:434] L2_b5_cbr1_bn <- L2_b5_cbr1_conv_top
I1209 19:32:19.074481  1002 net.cpp:408] L2_b5_cbr1_bn -> L2_b5_cbr1_bn_top
I1209 19:32:19.074784  1002 net.cpp:150] Setting up L2_b5_cbr1_bn
I1209 19:32:19.074802  1002 net.cpp:157] Top shape: 125 32 16 16 (1024000)
I1209 19:32:19.074812  1002 net.cpp:165] Memory required for data: 1216001500
I1209 19:32:19.074832  1002 layer_factory.hpp:77] Creating layer L2_b5_cbr1_scale
I1209 19:32:19.074851  1002 net.cpp:100] Creating Layer L2_b5_cbr1_scale
I1209 19:32:19.074862  1002 net.cpp:434] L2_b5_cbr1_scale <- L2_b5_cbr1_bn_top
I1209 19:32:19.074877  1002 net.cpp:395] L2_b5_cbr1_scale -> L2_b5_cbr1_bn_top (in-place)
I1209 19:32:19.074985  1002 layer_factory.hpp:77] Creating layer L2_b5_cbr1_scale
I1209 19:32:19.075176  1002 net.cpp:150] Setting up L2_b5_cbr1_scale
I1209 19:32:19.075196  1002 net.cpp:157] Top shape: 125 32 16 16 (1024000)
I1209 19:32:19.075206  1002 net.cpp:165] Memory required for data: 1220097500
I1209 19:32:19.075223  1002 layer_factory.hpp:77] Creating layer L2_b5_cbr1_dropout
I1209 19:32:19.075245  1002 net.cpp:100] Creating Layer L2_b5_cbr1_dropout
I1209 19:32:19.075258  1002 net.cpp:434] L2_b5_cbr1_dropout <- L2_b5_cbr1_bn_top
I1209 19:32:19.075273  1002 net.cpp:395] L2_b5_cbr1_dropout -> L2_b5_cbr1_bn_top (in-place)
I1209 19:32:19.075318  1002 net.cpp:150] Setting up L2_b5_cbr1_dropout
I1209 19:32:19.075345  1002 net.cpp:157] Top shape: 125 32 16 16 (1024000)
I1209 19:32:19.075356  1002 net.cpp:165] Memory required for data: 1224193500
I1209 19:32:19.075366  1002 layer_factory.hpp:77] Creating layer L2_b5_cbr1_relu
I1209 19:32:19.075389  1002 net.cpp:100] Creating Layer L2_b5_cbr1_relu
I1209 19:32:19.075402  1002 net.cpp:434] L2_b5_cbr1_relu <- L2_b5_cbr1_bn_top
I1209 19:32:19.075417  1002 net.cpp:395] L2_b5_cbr1_relu -> L2_b5_cbr1_bn_top (in-place)
I1209 19:32:19.075441  1002 net.cpp:150] Setting up L2_b5_cbr1_relu
I1209 19:32:19.075456  1002 net.cpp:157] Top shape: 125 32 16 16 (1024000)
I1209 19:32:19.075467  1002 net.cpp:165] Memory required for data: 1228289500
I1209 19:32:19.075477  1002 layer_factory.hpp:77] Creating layer L2_b5_cbr2_conv
I1209 19:32:19.075500  1002 net.cpp:100] Creating Layer L2_b5_cbr2_conv
I1209 19:32:19.075512  1002 net.cpp:434] L2_b5_cbr2_conv <- L2_b5_cbr1_bn_top
I1209 19:32:19.075536  1002 net.cpp:408] L2_b5_cbr2_conv -> L2_b5_cbr2_conv_top
I1209 19:32:19.076052  1002 net.cpp:150] Setting up L2_b5_cbr2_conv
I1209 19:32:19.076073  1002 net.cpp:157] Top shape: 125 32 16 16 (1024000)
I1209 19:32:19.076083  1002 net.cpp:165] Memory required for data: 1232385500
I1209 19:32:19.076100  1002 layer_factory.hpp:77] Creating layer L2_b5_cbr2_bn
I1209 19:32:19.076118  1002 net.cpp:100] Creating Layer L2_b5_cbr2_bn
I1209 19:32:19.076131  1002 net.cpp:434] L2_b5_cbr2_bn <- L2_b5_cbr2_conv_top
I1209 19:32:19.076151  1002 net.cpp:408] L2_b5_cbr2_bn -> L2_b5_cbr2_bn_top
I1209 19:32:19.076462  1002 net.cpp:150] Setting up L2_b5_cbr2_bn
I1209 19:32:19.076480  1002 net.cpp:157] Top shape: 125 32 16 16 (1024000)
I1209 19:32:19.076490  1002 net.cpp:165] Memory required for data: 1236481500
I1209 19:32:19.076511  1002 layer_factory.hpp:77] Creating layer L2_b5_cbr2_scale
I1209 19:32:19.076534  1002 net.cpp:100] Creating Layer L2_b5_cbr2_scale
I1209 19:32:19.076547  1002 net.cpp:434] L2_b5_cbr2_scale <- L2_b5_cbr2_bn_top
I1209 19:32:19.076562  1002 net.cpp:395] L2_b5_cbr2_scale -> L2_b5_cbr2_bn_top (in-place)
I1209 19:32:19.076658  1002 layer_factory.hpp:77] Creating layer L2_b5_cbr2_scale
I1209 19:32:19.076858  1002 net.cpp:150] Setting up L2_b5_cbr2_scale
I1209 19:32:19.076876  1002 net.cpp:157] Top shape: 125 32 16 16 (1024000)
I1209 19:32:19.076886  1002 net.cpp:165] Memory required for data: 1240577500
I1209 19:32:19.076905  1002 layer_factory.hpp:77] Creating layer L2_b5_cbr2_dropout
I1209 19:32:19.076927  1002 net.cpp:100] Creating Layer L2_b5_cbr2_dropout
I1209 19:32:19.076941  1002 net.cpp:434] L2_b5_cbr2_dropout <- L2_b5_cbr2_bn_top
I1209 19:32:19.076967  1002 net.cpp:395] L2_b5_cbr2_dropout -> L2_b5_cbr2_bn_top (in-place)
I1209 19:32:19.077015  1002 net.cpp:150] Setting up L2_b5_cbr2_dropout
I1209 19:32:19.077033  1002 net.cpp:157] Top shape: 125 32 16 16 (1024000)
I1209 19:32:19.077042  1002 net.cpp:165] Memory required for data: 1244673500
I1209 19:32:19.077054  1002 layer_factory.hpp:77] Creating layer L2_b5_sum_eltwise
I1209 19:32:19.077069  1002 net.cpp:100] Creating Layer L2_b5_sum_eltwise
I1209 19:32:19.077081  1002 net.cpp:434] L2_b5_sum_eltwise <- L2_b5_cbr2_bn_top
I1209 19:32:19.077095  1002 net.cpp:434] L2_b5_sum_eltwise <- L2_b4_sum_eltwise_top_L2_b4_relu_0_split_1
I1209 19:32:19.077114  1002 net.cpp:408] L2_b5_sum_eltwise -> L2_b5_sum_eltwise_top
I1209 19:32:19.077170  1002 net.cpp:150] Setting up L2_b5_sum_eltwise
I1209 19:32:19.077189  1002 net.cpp:157] Top shape: 125 32 16 16 (1024000)
I1209 19:32:19.077199  1002 net.cpp:165] Memory required for data: 1248769500
I1209 19:32:19.077209  1002 layer_factory.hpp:77] Creating layer L2_b5_relu
I1209 19:32:19.077224  1002 net.cpp:100] Creating Layer L2_b5_relu
I1209 19:32:19.077236  1002 net.cpp:434] L2_b5_relu <- L2_b5_sum_eltwise_top
I1209 19:32:19.077251  1002 net.cpp:395] L2_b5_relu -> L2_b5_sum_eltwise_top (in-place)
I1209 19:32:19.077275  1002 net.cpp:150] Setting up L2_b5_relu
I1209 19:32:19.077291  1002 net.cpp:157] Top shape: 125 32 16 16 (1024000)
I1209 19:32:19.077299  1002 net.cpp:165] Memory required for data: 1252865500
I1209 19:32:19.077309  1002 layer_factory.hpp:77] Creating layer L2_b5_sum_eltwise_top_L2_b5_relu_0_split
I1209 19:32:19.077323  1002 net.cpp:100] Creating Layer L2_b5_sum_eltwise_top_L2_b5_relu_0_split
I1209 19:32:19.077344  1002 net.cpp:434] L2_b5_sum_eltwise_top_L2_b5_relu_0_split <- L2_b5_sum_eltwise_top
I1209 19:32:19.077361  1002 net.cpp:408] L2_b5_sum_eltwise_top_L2_b5_relu_0_split -> L2_b5_sum_eltwise_top_L2_b5_relu_0_split_0
I1209 19:32:19.077381  1002 net.cpp:408] L2_b5_sum_eltwise_top_L2_b5_relu_0_split -> L2_b5_sum_eltwise_top_L2_b5_relu_0_split_1
I1209 19:32:19.077466  1002 net.cpp:150] Setting up L2_b5_sum_eltwise_top_L2_b5_relu_0_split
I1209 19:32:19.077486  1002 net.cpp:157] Top shape: 125 32 16 16 (1024000)
I1209 19:32:19.077499  1002 net.cpp:157] Top shape: 125 32 16 16 (1024000)
I1209 19:32:19.077508  1002 net.cpp:165] Memory required for data: 1261057500
I1209 19:32:19.077519  1002 layer_factory.hpp:77] Creating layer L2_b6_cbr1_conv
I1209 19:32:19.077540  1002 net.cpp:100] Creating Layer L2_b6_cbr1_conv
I1209 19:32:19.077553  1002 net.cpp:434] L2_b6_cbr1_conv <- L2_b5_sum_eltwise_top_L2_b5_relu_0_split_0
I1209 19:32:19.077574  1002 net.cpp:408] L2_b6_cbr1_conv -> L2_b6_cbr1_conv_top
I1209 19:32:19.078099  1002 net.cpp:150] Setting up L2_b6_cbr1_conv
I1209 19:32:19.078119  1002 net.cpp:157] Top shape: 125 32 16 16 (1024000)
I1209 19:32:19.078130  1002 net.cpp:165] Memory required for data: 1265153500
I1209 19:32:19.078147  1002 layer_factory.hpp:77] Creating layer L2_b6_cbr1_bn
I1209 19:32:19.078164  1002 net.cpp:100] Creating Layer L2_b6_cbr1_bn
I1209 19:32:19.078176  1002 net.cpp:434] L2_b6_cbr1_bn <- L2_b6_cbr1_conv_top
I1209 19:32:19.078197  1002 net.cpp:408] L2_b6_cbr1_bn -> L2_b6_cbr1_bn_top
I1209 19:32:19.078503  1002 net.cpp:150] Setting up L2_b6_cbr1_bn
I1209 19:32:19.078522  1002 net.cpp:157] Top shape: 125 32 16 16 (1024000)
I1209 19:32:19.078531  1002 net.cpp:165] Memory required for data: 1269249500
I1209 19:32:19.078553  1002 layer_factory.hpp:77] Creating layer L2_b6_cbr1_scale
I1209 19:32:19.078577  1002 net.cpp:100] Creating Layer L2_b6_cbr1_scale
I1209 19:32:19.078588  1002 net.cpp:434] L2_b6_cbr1_scale <- L2_b6_cbr1_bn_top
I1209 19:32:19.078603  1002 net.cpp:395] L2_b6_cbr1_scale -> L2_b6_cbr1_bn_top (in-place)
I1209 19:32:19.078701  1002 layer_factory.hpp:77] Creating layer L2_b6_cbr1_scale
I1209 19:32:19.078897  1002 net.cpp:150] Setting up L2_b6_cbr1_scale
I1209 19:32:19.078917  1002 net.cpp:157] Top shape: 125 32 16 16 (1024000)
I1209 19:32:19.078927  1002 net.cpp:165] Memory required for data: 1273345500
I1209 19:32:19.078943  1002 layer_factory.hpp:77] Creating layer L2_b6_cbr1_dropout
I1209 19:32:19.078971  1002 net.cpp:100] Creating Layer L2_b6_cbr1_dropout
I1209 19:32:19.078985  1002 net.cpp:434] L2_b6_cbr1_dropout <- L2_b6_cbr1_bn_top
I1209 19:32:19.079000  1002 net.cpp:395] L2_b6_cbr1_dropout -> L2_b6_cbr1_bn_top (in-place)
I1209 19:32:19.079046  1002 net.cpp:150] Setting up L2_b6_cbr1_dropout
I1209 19:32:19.079071  1002 net.cpp:157] Top shape: 125 32 16 16 (1024000)
I1209 19:32:19.079080  1002 net.cpp:165] Memory required for data: 1277441500
I1209 19:32:19.079090  1002 layer_factory.hpp:77] Creating layer L2_b6_cbr1_relu
I1209 19:32:19.079105  1002 net.cpp:100] Creating Layer L2_b6_cbr1_relu
I1209 19:32:19.079116  1002 net.cpp:434] L2_b6_cbr1_relu <- L2_b6_cbr1_bn_top
I1209 19:32:19.079131  1002 net.cpp:395] L2_b6_cbr1_relu -> L2_b6_cbr1_bn_top (in-place)
I1209 19:32:19.079154  1002 net.cpp:150] Setting up L2_b6_cbr1_relu
I1209 19:32:19.079170  1002 net.cpp:157] Top shape: 125 32 16 16 (1024000)
I1209 19:32:19.079180  1002 net.cpp:165] Memory required for data: 1281537500
I1209 19:32:19.079190  1002 layer_factory.hpp:77] Creating layer L2_b6_cbr2_conv
I1209 19:32:19.079211  1002 net.cpp:100] Creating Layer L2_b6_cbr2_conv
I1209 19:32:19.079224  1002 net.cpp:434] L2_b6_cbr2_conv <- L2_b6_cbr1_bn_top
I1209 19:32:19.079241  1002 net.cpp:408] L2_b6_cbr2_conv -> L2_b6_cbr2_conv_top
I1209 19:32:19.079769  1002 net.cpp:150] Setting up L2_b6_cbr2_conv
I1209 19:32:19.079789  1002 net.cpp:157] Top shape: 125 32 16 16 (1024000)
I1209 19:32:19.079799  1002 net.cpp:165] Memory required for data: 1285633500
I1209 19:32:19.079816  1002 layer_factory.hpp:77] Creating layer L2_b6_cbr2_bn
I1209 19:32:19.079849  1002 net.cpp:100] Creating Layer L2_b6_cbr2_bn
I1209 19:32:19.079862  1002 net.cpp:434] L2_b6_cbr2_bn <- L2_b6_cbr2_conv_top
I1209 19:32:19.079879  1002 net.cpp:408] L2_b6_cbr2_bn -> L2_b6_cbr2_bn_top
I1209 19:32:19.080199  1002 net.cpp:150] Setting up L2_b6_cbr2_bn
I1209 19:32:19.080217  1002 net.cpp:157] Top shape: 125 32 16 16 (1024000)
I1209 19:32:19.080229  1002 net.cpp:165] Memory required for data: 1289729500
I1209 19:32:19.080250  1002 layer_factory.hpp:77] Creating layer L2_b6_cbr2_scale
I1209 19:32:19.080266  1002 net.cpp:100] Creating Layer L2_b6_cbr2_scale
I1209 19:32:19.080278  1002 net.cpp:434] L2_b6_cbr2_scale <- L2_b6_cbr2_bn_top
I1209 19:32:19.080299  1002 net.cpp:395] L2_b6_cbr2_scale -> L2_b6_cbr2_bn_top (in-place)
I1209 19:32:19.080397  1002 layer_factory.hpp:77] Creating layer L2_b6_cbr2_scale
I1209 19:32:19.080592  1002 net.cpp:150] Setting up L2_b6_cbr2_scale
I1209 19:32:19.080610  1002 net.cpp:157] Top shape: 125 32 16 16 (1024000)
I1209 19:32:19.080621  1002 net.cpp:165] Memory required for data: 1293825500
I1209 19:32:19.080637  1002 layer_factory.hpp:77] Creating layer L2_b6_cbr2_dropout
I1209 19:32:19.080654  1002 net.cpp:100] Creating Layer L2_b6_cbr2_dropout
I1209 19:32:19.080667  1002 net.cpp:434] L2_b6_cbr2_dropout <- L2_b6_cbr2_bn_top
I1209 19:32:19.080687  1002 net.cpp:395] L2_b6_cbr2_dropout -> L2_b6_cbr2_bn_top (in-place)
I1209 19:32:19.080734  1002 net.cpp:150] Setting up L2_b6_cbr2_dropout
I1209 19:32:19.080752  1002 net.cpp:157] Top shape: 125 32 16 16 (1024000)
I1209 19:32:19.080762  1002 net.cpp:165] Memory required for data: 1297921500
I1209 19:32:19.080772  1002 layer_factory.hpp:77] Creating layer L2_b6_sum_eltwise
I1209 19:32:19.080788  1002 net.cpp:100] Creating Layer L2_b6_sum_eltwise
I1209 19:32:19.080806  1002 net.cpp:434] L2_b6_sum_eltwise <- L2_b6_cbr2_bn_top
I1209 19:32:19.080821  1002 net.cpp:434] L2_b6_sum_eltwise <- L2_b5_sum_eltwise_top_L2_b5_relu_0_split_1
I1209 19:32:19.080837  1002 net.cpp:408] L2_b6_sum_eltwise -> L2_b6_sum_eltwise_top
I1209 19:32:19.080898  1002 net.cpp:150] Setting up L2_b6_sum_eltwise
I1209 19:32:19.080914  1002 net.cpp:157] Top shape: 125 32 16 16 (1024000)
I1209 19:32:19.080925  1002 net.cpp:165] Memory required for data: 1302017500
I1209 19:32:19.080936  1002 layer_factory.hpp:77] Creating layer L2_b6_relu
I1209 19:32:19.080950  1002 net.cpp:100] Creating Layer L2_b6_relu
I1209 19:32:19.080971  1002 net.cpp:434] L2_b6_relu <- L2_b6_sum_eltwise_top
I1209 19:32:19.080986  1002 net.cpp:395] L2_b6_relu -> L2_b6_sum_eltwise_top (in-place)
I1209 19:32:19.081004  1002 net.cpp:150] Setting up L2_b6_relu
I1209 19:32:19.081018  1002 net.cpp:157] Top shape: 125 32 16 16 (1024000)
I1209 19:32:19.081027  1002 net.cpp:165] Memory required for data: 1306113500
I1209 19:32:19.081037  1002 layer_factory.hpp:77] Creating layer L2_b6_sum_eltwise_top_L2_b6_relu_0_split
I1209 19:32:19.081053  1002 net.cpp:100] Creating Layer L2_b6_sum_eltwise_top_L2_b6_relu_0_split
I1209 19:32:19.081063  1002 net.cpp:434] L2_b6_sum_eltwise_top_L2_b6_relu_0_split <- L2_b6_sum_eltwise_top
I1209 19:32:19.081079  1002 net.cpp:408] L2_b6_sum_eltwise_top_L2_b6_relu_0_split -> L2_b6_sum_eltwise_top_L2_b6_relu_0_split_0
I1209 19:32:19.081097  1002 net.cpp:408] L2_b6_sum_eltwise_top_L2_b6_relu_0_split -> L2_b6_sum_eltwise_top_L2_b6_relu_0_split_1
I1209 19:32:19.081187  1002 net.cpp:150] Setting up L2_b6_sum_eltwise_top_L2_b6_relu_0_split
I1209 19:32:19.081208  1002 net.cpp:157] Top shape: 125 32 16 16 (1024000)
I1209 19:32:19.081221  1002 net.cpp:157] Top shape: 125 32 16 16 (1024000)
I1209 19:32:19.081231  1002 net.cpp:165] Memory required for data: 1314305500
I1209 19:32:19.081243  1002 layer_factory.hpp:77] Creating layer L2_b7_cbr1_conv
I1209 19:32:19.081269  1002 net.cpp:100] Creating Layer L2_b7_cbr1_conv
I1209 19:32:19.081282  1002 net.cpp:434] L2_b7_cbr1_conv <- L2_b6_sum_eltwise_top_L2_b6_relu_0_split_0
I1209 19:32:19.081306  1002 net.cpp:408] L2_b7_cbr1_conv -> L2_b7_cbr1_conv_top
I1209 19:32:19.081854  1002 net.cpp:150] Setting up L2_b7_cbr1_conv
I1209 19:32:19.081882  1002 net.cpp:157] Top shape: 125 32 16 16 (1024000)
I1209 19:32:19.081892  1002 net.cpp:165] Memory required for data: 1318401500
I1209 19:32:19.081910  1002 layer_factory.hpp:77] Creating layer L2_b7_cbr1_bn
I1209 19:32:19.081928  1002 net.cpp:100] Creating Layer L2_b7_cbr1_bn
I1209 19:32:19.081940  1002 net.cpp:434] L2_b7_cbr1_bn <- L2_b7_cbr1_conv_top
I1209 19:32:19.081967  1002 net.cpp:408] L2_b7_cbr1_bn -> L2_b7_cbr1_bn_top
I1209 19:32:19.082274  1002 net.cpp:150] Setting up L2_b7_cbr1_bn
I1209 19:32:19.082293  1002 net.cpp:157] Top shape: 125 32 16 16 (1024000)
I1209 19:32:19.082304  1002 net.cpp:165] Memory required for data: 1322497500
I1209 19:32:19.082324  1002 layer_factory.hpp:77] Creating layer L2_b7_cbr1_scale
I1209 19:32:19.082342  1002 net.cpp:100] Creating Layer L2_b7_cbr1_scale
I1209 19:32:19.082355  1002 net.cpp:434] L2_b7_cbr1_scale <- L2_b7_cbr1_bn_top
I1209 19:32:19.082370  1002 net.cpp:395] L2_b7_cbr1_scale -> L2_b7_cbr1_bn_top (in-place)
I1209 19:32:19.082473  1002 layer_factory.hpp:77] Creating layer L2_b7_cbr1_scale
I1209 19:32:19.082665  1002 net.cpp:150] Setting up L2_b7_cbr1_scale
I1209 19:32:19.082690  1002 net.cpp:157] Top shape: 125 32 16 16 (1024000)
I1209 19:32:19.082700  1002 net.cpp:165] Memory required for data: 1326593500
I1209 19:32:19.082720  1002 layer_factory.hpp:77] Creating layer L2_b7_cbr1_dropout
I1209 19:32:19.082736  1002 net.cpp:100] Creating Layer L2_b7_cbr1_dropout
I1209 19:32:19.082748  1002 net.cpp:434] L2_b7_cbr1_dropout <- L2_b7_cbr1_bn_top
I1209 19:32:19.082762  1002 net.cpp:395] L2_b7_cbr1_dropout -> L2_b7_cbr1_bn_top (in-place)
I1209 19:32:19.082809  1002 net.cpp:150] Setting up L2_b7_cbr1_dropout
I1209 19:32:19.082832  1002 net.cpp:157] Top shape: 125 32 16 16 (1024000)
I1209 19:32:19.082844  1002 net.cpp:165] Memory required for data: 1330689500
I1209 19:32:19.082854  1002 layer_factory.hpp:77] Creating layer L2_b7_cbr1_relu
I1209 19:32:19.082870  1002 net.cpp:100] Creating Layer L2_b7_cbr1_relu
I1209 19:32:19.082880  1002 net.cpp:434] L2_b7_cbr1_relu <- L2_b7_cbr1_bn_top
I1209 19:32:19.082901  1002 net.cpp:395] L2_b7_cbr1_relu -> L2_b7_cbr1_bn_top (in-place)
I1209 19:32:19.082921  1002 net.cpp:150] Setting up L2_b7_cbr1_relu
I1209 19:32:19.082934  1002 net.cpp:157] Top shape: 125 32 16 16 (1024000)
I1209 19:32:19.082944  1002 net.cpp:165] Memory required for data: 1334785500
I1209 19:32:19.082954  1002 layer_factory.hpp:77] Creating layer L2_b7_cbr2_conv
I1209 19:32:19.082983  1002 net.cpp:100] Creating Layer L2_b7_cbr2_conv
I1209 19:32:19.082996  1002 net.cpp:434] L2_b7_cbr2_conv <- L2_b7_cbr1_bn_top
I1209 19:32:19.083019  1002 net.cpp:408] L2_b7_cbr2_conv -> L2_b7_cbr2_conv_top
I1209 19:32:19.083546  1002 net.cpp:150] Setting up L2_b7_cbr2_conv
I1209 19:32:19.083566  1002 net.cpp:157] Top shape: 125 32 16 16 (1024000)
I1209 19:32:19.083577  1002 net.cpp:165] Memory required for data: 1338881500
I1209 19:32:19.083595  1002 layer_factory.hpp:77] Creating layer L2_b7_cbr2_bn
I1209 19:32:19.083621  1002 net.cpp:100] Creating Layer L2_b7_cbr2_bn
I1209 19:32:19.083632  1002 net.cpp:434] L2_b7_cbr2_bn <- L2_b7_cbr2_conv_top
I1209 19:32:19.083648  1002 net.cpp:408] L2_b7_cbr2_bn -> L2_b7_cbr2_bn_top
I1209 19:32:19.083964  1002 net.cpp:150] Setting up L2_b7_cbr2_bn
I1209 19:32:19.083989  1002 net.cpp:157] Top shape: 125 32 16 16 (1024000)
I1209 19:32:19.084000  1002 net.cpp:165] Memory required for data: 1342977500
I1209 19:32:19.084022  1002 layer_factory.hpp:77] Creating layer L2_b7_cbr2_scale
I1209 19:32:19.084039  1002 net.cpp:100] Creating Layer L2_b7_cbr2_scale
I1209 19:32:19.084051  1002 net.cpp:434] L2_b7_cbr2_scale <- L2_b7_cbr2_bn_top
I1209 19:32:19.084066  1002 net.cpp:395] L2_b7_cbr2_scale -> L2_b7_cbr2_bn_top (in-place)
I1209 19:32:19.084162  1002 layer_factory.hpp:77] Creating layer L2_b7_cbr2_scale
I1209 19:32:19.084360  1002 net.cpp:150] Setting up L2_b7_cbr2_scale
I1209 19:32:19.084379  1002 net.cpp:157] Top shape: 125 32 16 16 (1024000)
I1209 19:32:19.084389  1002 net.cpp:165] Memory required for data: 1347073500
I1209 19:32:19.084406  1002 layer_factory.hpp:77] Creating layer L2_b7_cbr2_dropout
I1209 19:32:19.084436  1002 net.cpp:100] Creating Layer L2_b7_cbr2_dropout
I1209 19:32:19.084450  1002 net.cpp:434] L2_b7_cbr2_dropout <- L2_b7_cbr2_bn_top
I1209 19:32:19.084470  1002 net.cpp:395] L2_b7_cbr2_dropout -> L2_b7_cbr2_bn_top (in-place)
I1209 19:32:19.084517  1002 net.cpp:150] Setting up L2_b7_cbr2_dropout
I1209 19:32:19.084535  1002 net.cpp:157] Top shape: 125 32 16 16 (1024000)
I1209 19:32:19.084545  1002 net.cpp:165] Memory required for data: 1351169500
I1209 19:32:19.084555  1002 layer_factory.hpp:77] Creating layer L2_b7_sum_eltwise
I1209 19:32:19.084571  1002 net.cpp:100] Creating Layer L2_b7_sum_eltwise
I1209 19:32:19.084583  1002 net.cpp:434] L2_b7_sum_eltwise <- L2_b7_cbr2_bn_top
I1209 19:32:19.084601  1002 net.cpp:434] L2_b7_sum_eltwise <- L2_b6_sum_eltwise_top_L2_b6_relu_0_split_1
I1209 19:32:19.084619  1002 net.cpp:408] L2_b7_sum_eltwise -> L2_b7_sum_eltwise_top
I1209 19:32:19.084674  1002 net.cpp:150] Setting up L2_b7_sum_eltwise
I1209 19:32:19.084694  1002 net.cpp:157] Top shape: 125 32 16 16 (1024000)
I1209 19:32:19.084704  1002 net.cpp:165] Memory required for data: 1355265500
I1209 19:32:19.084715  1002 layer_factory.hpp:77] Creating layer L2_b7_relu
I1209 19:32:19.084731  1002 net.cpp:100] Creating Layer L2_b7_relu
I1209 19:32:19.084743  1002 net.cpp:434] L2_b7_relu <- L2_b7_sum_eltwise_top
I1209 19:32:19.084763  1002 net.cpp:395] L2_b7_relu -> L2_b7_sum_eltwise_top (in-place)
I1209 19:32:19.084782  1002 net.cpp:150] Setting up L2_b7_relu
I1209 19:32:19.084797  1002 net.cpp:157] Top shape: 125 32 16 16 (1024000)
I1209 19:32:19.084807  1002 net.cpp:165] Memory required for data: 1359361500
I1209 19:32:19.084817  1002 layer_factory.hpp:77] Creating layer L2_b7_sum_eltwise_top_L2_b7_relu_0_split
I1209 19:32:19.084831  1002 net.cpp:100] Creating Layer L2_b7_sum_eltwise_top_L2_b7_relu_0_split
I1209 19:32:19.084843  1002 net.cpp:434] L2_b7_sum_eltwise_top_L2_b7_relu_0_split <- L2_b7_sum_eltwise_top
I1209 19:32:19.084857  1002 net.cpp:408] L2_b7_sum_eltwise_top_L2_b7_relu_0_split -> L2_b7_sum_eltwise_top_L2_b7_relu_0_split_0
I1209 19:32:19.084877  1002 net.cpp:408] L2_b7_sum_eltwise_top_L2_b7_relu_0_split -> L2_b7_sum_eltwise_top_L2_b7_relu_0_split_1
I1209 19:32:19.084969  1002 net.cpp:150] Setting up L2_b7_sum_eltwise_top_L2_b7_relu_0_split
I1209 19:32:19.084987  1002 net.cpp:157] Top shape: 125 32 16 16 (1024000)
I1209 19:32:19.085000  1002 net.cpp:157] Top shape: 125 32 16 16 (1024000)
I1209 19:32:19.085011  1002 net.cpp:165] Memory required for data: 1367553500
I1209 19:32:19.085021  1002 layer_factory.hpp:77] Creating layer L2_b8_cbr1_conv
I1209 19:32:19.085042  1002 net.cpp:100] Creating Layer L2_b8_cbr1_conv
I1209 19:32:19.085055  1002 net.cpp:434] L2_b8_cbr1_conv <- L2_b7_sum_eltwise_top_L2_b7_relu_0_split_0
I1209 19:32:19.085078  1002 net.cpp:408] L2_b8_cbr1_conv -> L2_b8_cbr1_conv_top
I1209 19:32:19.085597  1002 net.cpp:150] Setting up L2_b8_cbr1_conv
I1209 19:32:19.085615  1002 net.cpp:157] Top shape: 125 32 16 16 (1024000)
I1209 19:32:19.085625  1002 net.cpp:165] Memory required for data: 1371649500
…
I1209 19:32:19.105955  1002 net.cpp:100] Creating Layer L3_b3_cbr1_bn
I1209 19:32:19.105975  1002 net.cpp:434] L3_b3_cbr1_bn <- L3_b3_cbr1_conv_top
I1209 19:32:19.105998  1002 net.cpp:408] L3_b3_cbr1_bn -> L3_b3_cbr1_bn_top
I1209 19:32:19.106330  1002 net.cpp:150] Setting up L3_b3_cbr1_bn
I1209 19:32:19.106357  1002 net.cpp:157] Top shape: 125 64 8 8 (512000)
I1209 19:32:19.106369  1002 net.cpp:165] Memory required for data: 1524225500
I1209 19:32:19.106390  1002 layer_factory.hpp:77] Creating layer L3_b3_cbr1_scale
I1209 19:32:19.106407  1002 net.cpp:100] Creating Layer L3_b3_cbr1_scale
I1209 19:32:19.106418  1002 net.cpp:434] L3_b3_cbr1_scale <- L3_b3_cbr1_bn_top
I1209 19:32:19.106432  1002 net.cpp:395] L3_b3_cbr1_scale -> L3_b3_cbr1_bn_top (in-place)
I1209 19:32:19.106534  1002 layer_factory.hpp:77] Creating layer L3_b3_cbr1_scale
I1209 19:32:19.106741  1002 net.cpp:150] Setting up L3_b3_cbr1_scale
I1209 19:32:19.106760  1002 net.cpp:157] Top shape: 125 64 8 8 (512000)
I1209 19:32:19.106770  1002 net.cpp:165] Memory required for data: 1526273500
I1209 19:32:19.106788  1002 layer_factory.hpp:77] Creating layer L3_b3_cbr1_dropout
I1209 19:32:19.106838  1002 net.cpp:100] Creating Layer L3_b3_cbr1_dropout
I1209 19:32:19.106854  1002 net.cpp:434] L3_b3_cbr1_dropout <- L3_b3_cbr1_bn_top
I1209 19:32:19.106870  1002 net.cpp:395] L3_b3_cbr1_dropout -> L3_b3_cbr1_bn_top (in-place)
I1209 19:32:19.106928  1002 net.cpp:150] Setting up L3_b3_cbr1_dropout
I1209 19:32:19.106946  1002 net.cpp:157] Top shape: 125 64 8 8 (512000)
I1209 19:32:19.106956  1002 net.cpp:165] Memory required for data: 1528321500
I1209 19:32:19.106974  1002 layer_factory.hpp:77] Creating layer L3_b3_cbr1_relu
I1209 19:32:19.106989  1002 net.cpp:100] Creating Layer L3_b3_cbr1_relu
I1209 19:32:19.107002  1002 net.cpp:434] L3_b3_cbr1_relu <- L3_b3_cbr1_bn_top
I1209 19:32:19.107020  1002 net.cpp:395] L3_b3_cbr1_relu -> L3_b3_cbr1_bn_top (in-place)
I1209 19:32:19.107040  1002 net.cpp:150] Setting up L3_b3_cbr1_relu
I1209 19:32:19.107055  1002 net.cpp:157] Top shape: 125 64 8 8 (512000)
I1209 19:32:19.107064  1002 net.cpp:165] Memory required for data: 1530369500
I1209 19:32:19.107074  1002 layer_factory.hpp:77] Creating layer L3_b3_cbr2_conv
I1209 19:32:19.107095  1002 net.cpp:100] Creating Layer L3_b3_cbr2_conv
I1209 19:32:19.107110  1002 net.cpp:434] L3_b3_cbr2_conv <- L3_b3_cbr1_bn_top
I1209 19:32:19.107126  1002 net.cpp:408] L3_b3_cbr2_conv -> L3_b3_cbr2_conv_top
I1209 19:32:19.108213  1002 net.cpp:150] Setting up L3_b3_cbr2_conv
I1209 19:32:19.108233  1002 net.cpp:157] Top shape: 125 64 8 8 (512000)
I1209 19:32:19.108244  1002 net.cpp:165] Memory required for data: 1532417500
I1209 19:32:19.108261  1002 layer_factory.hpp:77] Creating layer L3_b3_cbr2_bn
I1209 19:32:19.108283  1002 net.cpp:100] Creating Layer L3_b3_cbr2_bn
I1209 19:32:19.108296  1002 net.cpp:434] L3_b3_cbr2_bn <- L3_b3_cbr2_conv_top
I1209 19:32:19.108314  1002 net.cpp:408] L3_b3_cbr2_bn -> L3_b3_cbr2_bn_top
I1209 19:32:19.108644  1002 net.cpp:150] Setting up L3_b3_cbr2_bn
I1209 19:32:19.108664  1002 net.cpp:157] Top shape: 125 64 8 8 (512000)
I1209 19:32:19.108674  1002 net.cpp:165] Memory required for data: 1534465500
I1209 19:32:19.108695  1002 layer_factory.hpp:77] Creating layer L3_b3_cbr2_scale
I1209 19:32:19.108716  1002 net.cpp:100] Creating Layer L3_b3_cbr2_scale
I1209 19:32:19.108731  1002 net.cpp:434] L3_b3_cbr2_scale <- L3_b3_cbr2_bn_top
I1209 19:32:19.108745  1002 net.cpp:395] L3_b3_cbr2_scale -> L3_b3_cbr2_bn_top (in-place)
I1209 19:32:19.108850  1002 layer_factory.hpp:77] Creating layer L3_b3_cbr2_scale
I1209 19:32:19.109073  1002 net.cpp:150] Setting up L3_b3_cbr2_scale
I1209 19:32:19.109092  1002 net.cpp:157] Top shape: 125 64 8 8 (512000)
I1209 19:32:19.109102  1002 net.cpp:165] Memory required for data: 1536513500
I1209 19:32:19.109120  1002 layer_factory.hpp:77] Creating layer L3_b3_cbr2_dropout
I1209 19:32:19.109148  1002 net.cpp:100] Creating Layer L3_b3_cbr2_dropout
I1209 19:32:19.109160  1002 net.cpp:434] L3_b3_cbr2_dropout <- L3_b3_cbr2_bn_top
I1209 19:32:19.109179  1002 net.cpp:395] L3_b3_cbr2_dropout -> L3_b3_cbr2_bn_top (in-place)
I1209 19:32:19.109237  1002 net.cpp:150] Setting up L3_b3_cbr2_dropout
I1209 19:32:19.109256  1002 net.cpp:157] Top shape: 125 64 8 8 (512000)
I1209 19:32:19.109266  1002 net.cpp:165] Memory required for data: 1538561500
I1209 19:32:19.109275  1002 layer_factory.hpp:77] Creating layer L3_b3_sum_eltwise
I1209 19:32:19.109297  1002 net.cpp:100] Creating Layer L3_b3_sum_eltwise
I1209 19:32:19.109309  1002 net.cpp:434] L3_b3_sum_eltwise <- L3_b3_cbr2_bn_top
I1209 19:32:19.109323  1002 net.cpp:434] L3_b3_sum_eltwise <- L3_b2_sum_eltwise_top_L3_b2_relu_0_split_1
I1209 19:32:19.109338  1002 net.cpp:408] L3_b3_sum_eltwise -> L3_b3_sum_eltwise_top
I1209 19:32:19.109395  1002 net.cpp:150] Setting up L3_b3_sum_eltwise
I1209 19:32:19.109414  1002 net.cpp:157] Top shape: 125 64 8 8 (512000)
I1209 19:32:19.109423  1002 net.cpp:165] Memory required for data: 1540609500
I1209 19:32:19.109433  1002 layer_factory.hpp:77] Creating layer L3_b3_relu
I1209 19:32:19.109448  1002 net.cpp:100] Creating Layer L3_b3_relu
I1209 19:32:19.109460  1002 net.cpp:434] L3_b3_relu <- L3_b3_sum_eltwise_top
I1209 19:32:19.109479  1002 net.cpp:395] L3_b3_relu -> L3_b3_sum_eltwise_top (in-place)
I1209 19:32:19.109499  1002 net.cpp:150] Setting up L3_b3_relu
I1209 19:32:19.109513  1002 net.cpp:157] Top shape: 125 64 8 8 (512000)
I1209 19:32:19.109524  1002 net.cpp:165] Memory required for data: 1542657500
I1209 19:32:19.109534  1002 layer_factory.hpp:77] Creating layer L3_b3_sum_eltwise_top_L3_b3_relu_0_split
I1209 19:32:19.109547  1002 net.cpp:100] Creating Layer L3_b3_sum_eltwise_top_L3_b3_relu_0_split
I1209 19:32:19.109558  1002 net.cpp:434] L3_b3_sum_eltwise_top_L3_b3_relu_0_split <- L3_b3_sum_eltwise_top
I1209 19:32:19.109575  1002 net.cpp:408] L3_b3_sum_eltwise_top_L3_b3_relu_0_split -> L3_b3_sum_eltwise_top_L3_b3_relu_0_split_0
I1209 19:32:19.109593  1002 net.cpp:408] L3_b3_sum_eltwise_top_L3_b3_relu_0_split -> L3_b3_sum_eltwise_top_L3_b3_relu_0_split_1
I1209 19:32:19.109679  1002 net.cpp:150] Setting up L3_b3_sum_eltwise_top_L3_b3_relu_0_split
I1209 19:32:19.109699  1002 net.cpp:157] Top shape: 125 64 8 8 (512000)
I1209 19:32:19.109712  1002 net.cpp:157] Top shape: 125 64 8 8 (512000)
I1209 19:32:19.109721  1002 net.cpp:165] Memory required for data: 1546753500
I1209 19:32:19.109731  1002 layer_factory.hpp:77] Creating layer L3_b4_cbr1_conv
I1209 19:32:19.109752  1002 net.cpp:100] Creating Layer L3_b4_cbr1_conv
I1209 19:32:19.109766  1002 net.cpp:434] L3_b4_cbr1_conv <- L3_b3_sum_eltwise_top_L3_b3_relu_0_split_0
I1209 19:32:19.109788  1002 net.cpp:408] L3_b4_cbr1_conv -> L3_b4_cbr1_conv_top
I1209 19:32:19.110882  1002 net.cpp:150] Setting up L3_b4_cbr1_conv
I1209 19:32:19.110901  1002 net.cpp:157] Top shape: 125 64 8 8 (512000)
I1209 19:32:19.110913  1002 net.cpp:165] Memory required for data: 1548801500
I1209 19:32:19.110930  1002 layer_factory.hpp:77] Creating layer L3_b4_cbr1_bn
I1209 19:32:19.110955  1002 net.cpp:100] Creating Layer L3_b4_cbr1_bn
I1209 19:32:19.110975  1002 net.cpp:434] L3_b4_cbr1_bn <- L3_b4_cbr1_conv_top
I1209 19:32:19.110992  1002 net.cpp:408] L3_b4_cbr1_bn -> L3_b4_cbr1_bn_top
I1209 19:32:19.111321  1002 net.cpp:150] Setting up L3_b4_cbr1_bn
I1209 19:32:19.111340  1002 net.cpp:157] Top shape: 125 64 8 8 (512000)
I1209 19:32:19.111351  1002 net.cpp:165] Memory required for data: 1550849500
I1209 19:32:19.111371  1002 layer_factory.hpp:77] Creating layer L3_b4_cbr1_scale
I1209 19:32:19.111388  1002 net.cpp:100] Creating Layer L3_b4_cbr1_scale
I1209 19:32:19.111402  1002 net.cpp:434] L3_b4_cbr1_scale <- L3_b4_cbr1_bn_top
I1209 19:32:19.111415  1002 net.cpp:395] L3_b4_cbr1_scale -> L3_b4_cbr1_bn_top (in-place)
I1209 19:32:19.111521  1002 layer_factory.hpp:77] Creating layer L3_b4_cbr1_scale
I1209 19:32:19.111745  1002 net.cpp:150] Setting up L3_b4_cbr1_scale
I1209 19:32:19.111773  1002 net.cpp:157] Top shape: 125 64 8 8 (512000)
I1209 19:32:19.111783  1002 net.cpp:165] Memory required for data: 1552897500
I1209 19:32:19.111801  1002 layer_factory.hpp:77] Creating layer L3_b4_cbr1_dropout
I1209 19:32:19.111819  1002 net.cpp:100] Creating Layer L3_b4_cbr1_dropout
I1209 19:32:19.111830  1002 net.cpp:434] L3_b4_cbr1_dropout <- L3_b4_cbr1_bn_top
I1209 19:32:19.111845  1002 net.cpp:395] L3_b4_cbr1_dropout -> L3_b4_cbr1_bn_top (in-place)
I1209 19:32:19.111907  1002 net.cpp:150] Setting up L3_b4_cbr1_dropout
I1209 19:32:19.111924  1002 net.cpp:157] Top shape: 125 64 8 8 (512000)
I1209 19:32:19.111934  1002 net.cpp:165] Memory required for data: 1554945500
I1209 19:32:19.111945  1002 layer_factory.hpp:77] Creating layer L3_b4_cbr1_relu
I1209 19:32:19.111973  1002 net.cpp:100] Creating Layer L3_b4_cbr1_relu
I1209 19:32:19.111986  1002 net.cpp:434] L3_b4_cbr1_relu <- L3_b4_cbr1_bn_top
I1209 19:32:19.112001  1002 net.cpp:395] L3_b4_cbr1_relu -> L3_b4_cbr1_bn_top (in-place)
I1209 19:32:19.112020  1002 net.cpp:150] Setting up L3_b4_cbr1_relu
I1209 19:32:19.112035  1002 net.cpp:157] Top shape: 125 64 8 8 (512000)
I1209 19:32:19.112043  1002 net.cpp:165] Memory required for data: 1556993500
I1209 19:32:19.112054  1002 layer_factory.hpp:77] Creating layer L3_b4_cbr2_conv
I1209 19:32:19.112082  1002 net.cpp:100] Creating Layer L3_b4_cbr2_conv
I1209 19:32:19.112094  1002 net.cpp:434] L3_b4_cbr2_conv <- L3_b4_cbr1_bn_top
I1209 19:32:19.112112  1002 net.cpp:408] L3_b4_cbr2_conv -> L3_b4_cbr2_conv_top
I1209 19:32:19.113199  1002 net.cpp:150] Setting up L3_b4_cbr2_conv
I1209 19:32:19.113219  1002 net.cpp:157] Top shape: 125 64 8 8 (512000)
I1209 19:32:19.113229  1002 net.cpp:165] Memory required for data: 1559041500
I1209 19:32:19.113245  1002 layer_factory.hpp:77] Creating layer L3_b4_cbr2_bn
I1209 19:32:19.113268  1002 net.cpp:100] Creating Layer L3_b4_cbr2_bn
I1209 19:32:19.113281  1002 net.cpp:434] L3_b4_cbr2_bn <- L3_b4_cbr2_conv_top
I1209 19:32:19.113302  1002 net.cpp:408] L3_b4_cbr2_bn -> L3_b4_cbr2_bn_top
I1209 19:32:19.114907  1002 net.cpp:150] Setting up L3_b4_cbr2_bn
I1209 19:32:19.114929  1002 net.cpp:157] Top shape: 125 64 8 8 (512000)
I1209 19:32:19.114938  1002 net.cpp:165] Memory required for data: 1561089500
I1209 19:32:19.114969  1002 layer_factory.hpp:77] Creating layer L3_b4_cbr2_scale
I1209 19:32:19.114994  1002 net.cpp:100] Creating Layer L3_b4_cbr2_scale
I1209 19:32:19.115006  1002 net.cpp:434] L3_b4_cbr2_scale <- L3_b4_cbr2_bn_top
I1209 19:32:19.115027  1002 net.cpp:395] L3_b4_cbr2_scale -> L3_b4_cbr2_bn_top (in-place)
I1209 19:32:19.115129  1002 layer_factory.hpp:77] Creating layer L3_b4_cbr2_scale
I1209 19:32:19.115339  1002 net.cpp:150] Setting up L3_b4_cbr2_scale
I1209 19:32:19.115358  1002 net.cpp:157] Top shape: 125 64 8 8 (512000)
I1209 19:32:19.115368  1002 net.cpp:165] Memory required for data: 1563137500
I1209 19:32:19.115387  1002 layer_factory.hpp:77] Creating layer L3_b4_cbr2_dropout
I1209 19:32:19.115404  1002 net.cpp:100] Creating Layer L3_b4_cbr2_dropout
I1209 19:32:19.115417  1002 net.cpp:434] L3_b4_cbr2_dropout <- L3_b4_cbr2_bn_top
I1209 19:32:19.115438  1002 net.cpp:395] L3_b4_cbr2_dropout -> L3_b4_cbr2_bn_top (in-place)
I1209 19:32:19.115494  1002 net.cpp:150] Setting up L3_b4_cbr2_dropout
I1209 19:32:19.115514  1002 net.cpp:157] Top shape: 125 64 8 8 (512000)
I1209 19:32:19.115522  1002 net.cpp:165] Memory required for data: 1565185500
I1209 19:32:19.115533  1002 layer_factory.hpp:77] Creating layer L3_b4_sum_eltwise
I1209 19:32:19.115555  1002 net.cpp:100] Creating Layer L3_b4_sum_eltwise
I1209 19:32:19.115566  1002 net.cpp:434] L3_b4_sum_eltwise <- L3_b4_cbr2_bn_top
I1209 19:32:19.115581  1002 net.cpp:434] L3_b4_sum_eltwise <- L3_b3_sum_eltwise_top_L3_b3_relu_0_split_1
I1209 19:32:19.115597  1002 net.cpp:408] L3_b4_sum_eltwise -> L3_b4_sum_eltwise_top
I1209 19:32:19.115653  1002 net.cpp:150] Setting up L3_b4_sum_eltwise
I1209 19:32:19.115671  1002 net.cpp:157] Top shape: 125 64 8 8 (512000)
I1209 19:32:19.115681  1002 net.cpp:165] Memory required for data: 1567233500
I1209 19:32:19.115702  1002 layer_factory.hpp:77] Creating layer L3_b4_relu
I1209 19:32:19.115720  1002 net.cpp:100] Creating Layer L3_b4_relu
I1209 19:32:19.115732  1002 net.cpp:434] L3_b4_relu <- L3_b4_sum_eltwise_top
I1209 19:32:19.115751  1002 net.cpp:395] L3_b4_relu -> L3_b4_sum_eltwise_top (in-place)
I1209 19:32:19.115770  1002 net.cpp:150] Setting up L3_b4_relu
I1209 19:32:19.115779  1002 net.cpp:157] Top shape: 125 64 8 8 (512000)
I1209 19:32:19.115784  1002 net.cpp:165] Memory required for data: 1569281500
I1209 19:32:19.115789  1002 layer_factory.hpp:77] Creating layer L3_b4_sum_eltwise_top_L3_b4_relu_0_split
I1209 19:32:19.115797  1002 net.cpp:100] Creating Layer L3_b4_sum_eltwise_top_L3_b4_relu_0_split
I1209 19:32:19.115803  1002 net.cpp:434] L3_b4_sum_eltwise_top_L3_b4_relu_0_split <- L3_b4_sum_eltwise_top
I1209 19:32:19.115809  1002 net.cpp:408] L3_b4_sum_eltwise_top_L3_b4_relu_0_split -> L3_b4_sum_eltwise_top_L3_b4_relu_0_split_0
I1209 19:32:19.115819  1002 net.cpp:408] L3_b4_sum_eltwise_top_L3_b4_relu_0_split -> L3_b4_sum_eltwise_top_L3_b4_relu_0_split_1
I1209 19:32:19.115878  1002 net.cpp:150] Setting up L3_b4_sum_eltwise_top_L3_b4_relu_0_split
I1209 19:32:19.115895  1002 net.cpp:157] Top shape: 125 64 8 8 (512000)
I1209 19:32:19.115907  1002 net.cpp:157] Top shape: 125 64 8 8 (512000)
I1209 19:32:19.115916  1002 net.cpp:165] Memory required for data: 1573377500
I1209 19:32:19.115926  1002 layer_factory.hpp:77] Creating layer L3_b5_cbr1_conv
I1209 19:32:19.115952  1002 net.cpp:100] Creating Layer L3_b5_cbr1_conv
I1209 19:32:19.116027  1002 net.cpp:434] L3_b5_cbr1_conv <- L3_b4_sum_eltwise_top_L3_b4_relu_0_split_0
I1209 19:32:19.116048  1002 net.cpp:408] L3_b5_cbr1_conv -> L3_b5_cbr1_conv_top
I1209 19:32:19.117122  1002 net.cpp:150] Setting up L3_b5_cbr1_conv
I1209 19:32:19.117142  1002 net.cpp:157] Top shape: 125 64 8 8 (512000)
I1209 19:32:19.117152  1002 net.cpp:165] Memory required for data: 1575425500
I1209 19:32:19.117171  1002 layer_factory.hpp:77] Creating layer L3_b5_cbr1_bn
I1209 19:32:19.117193  1002 net.cpp:100] Creating Layer L3_b5_cbr1_bn
I1209 19:32:19.117207  1002 net.cpp:434] L3_b5_cbr1_bn <- L3_b5_cbr1_conv_top
I1209 19:32:19.117223  1002 net.cpp:408] L3_b5_cbr1_bn -> L3_b5_cbr1_bn_top
I1209 19:32:19.117537  1002 net.cpp:150] Setting up L3_b5_cbr1_bn
I1209 19:32:19.117555  1002 net.cpp:157] Top shape: 125 64 8 8 (512000)
I1209 19:32:19.117565  1002 net.cpp:165] Memory required for data: 1577473500
I1209 19:32:19.117588  1002 layer_factory.hpp:77] Creating layer L3_b5_cbr1_scale
I1209 19:32:19.117604  1002 net.cpp:100] Creating Layer L3_b5_cbr1_scale
I1209 19:32:19.117616  1002 net.cpp:434] L3_b5_cbr1_scale <- L3_b5_cbr1_bn_top
I1209 19:32:19.117630  1002 net.cpp:395] L3_b5_cbr1_scale -> L3_b5_cbr1_bn_top (in-place)
I1209 19:32:19.117734  1002 layer_factory.hpp:77] Creating layer L3_b5_cbr1_scale
I1209 19:32:19.117933  1002 net.cpp:150] Setting up L3_b5_cbr1_scale
I1209 19:32:19.117952  1002 net.cpp:157] Top shape: 125 64 8 8 (512000)
I1209 19:32:19.117969  1002 net.cpp:165] Memory required for data: 1579521500
I1209 19:32:19.117990  1002 layer_factory.hpp:77] Creating layer L3_b5_cbr1_dropout
I1209 19:32:19.118006  1002 net.cpp:100] Creating Layer L3_b5_cbr1_dropout
I1209 19:32:19.118018  1002 net.cpp:434] L3_b5_cbr1_dropout <- L3_b5_cbr1_bn_top
I1209 19:32:19.118038  1002 net.cpp:395] L3_b5_cbr1_dropout -> L3_b5_cbr1_bn_top (in-place)
I1209 19:32:19.118093  1002 net.cpp:150] Setting up L3_b5_cbr1_dropout
I1209 19:32:19.118110  1002 net.cpp:157] Top shape: 125 64 8 8 (512000)
I1209 19:32:19.118120  1002 net.cpp:165] Memory required for data: 1581569500
I1209 19:32:19.118130  1002 layer_factory.hpp:77] Creating layer L3_b5_cbr1_relu
I1209 19:32:19.118150  1002 net.cpp:100] Creating Layer L3_b5_cbr1_relu
I1209 19:32:19.118162  1002 net.cpp:434] L3_b5_cbr1_relu <- L3_b5_cbr1_bn_top
I1209 19:32:19.118177  1002 net.cpp:395] L3_b5_cbr1_relu -> L3_b5_cbr1_bn_top (in-place)
I1209 19:32:19.118196  1002 net.cpp:150] Setting up L3_b5_cbr1_relu
I1209 19:32:19.118209  1002 net.cpp:157] Top shape: 125 64 8 8 (512000)
I1209 19:32:19.118228  1002 net.cpp:165] Memory required for data: 1583617500
I1209 19:32:19.118239  1002 layer_factory.hpp:77] Creating layer L3_b5_cbr2_conv
I1209 19:32:19.118266  1002 net.cpp:100] Creating Layer L3_b5_cbr2_conv
I1209 19:32:19.118279  1002 net.cpp:434] L3_b5_cbr2_conv <- L3_b5_cbr1_bn_top
I1209 19:32:19.118299  1002 net.cpp:408] L3_b5_cbr2_conv -> L3_b5_cbr2_conv_top
I1209 19:32:19.120666  1002 net.cpp:150] Setting up L3_b5_cbr2_conv
I1209 19:32:19.120687  1002 net.cpp:157] Top shape: 125 64 8 8 (512000)
I1209 19:32:19.120697  1002 net.cpp:165] Memory required for data: 1585665500
I1209 19:32:19.120715  1002 layer_factory.hpp:77] Creating layer L3_b5_cbr2_bn
I1209 19:32:19.120733  1002 net.cpp:100] Creating Layer L3_b5_cbr2_bn
I1209 19:32:19.120746  1002 net.cpp:434] L3_b5_cbr2_bn <- L3_b5_cbr2_conv_top
I1209 19:32:19.120769  1002 net.cpp:408] L3_b5_cbr2_bn -> L3_b5_cbr2_bn_top
I1209 19:32:19.121098  1002 net.cpp:150] Setting up L3_b5_cbr2_bn
I1209 19:32:19.121124  1002 net.cpp:157] Top shape: 125 64 8 8 (512000)
I1209 19:32:19.121134  1002 net.cpp:165] Memory required for data: 1587713500
I1209 19:32:19.121156  1002 layer_factory.hpp:77] Creating layer L3_b5_cbr2_scale
I1209 19:32:19.121175  1002 net.cpp:100] Creating Layer L3_b5_cbr2_scale
I1209 19:32:19.121186  1002 net.cpp:434] L3_b5_cbr2_scale <- L3_b5_cbr2_bn_top
I1209 19:32:19.121202  1002 net.cpp:395] L3_b5_cbr2_scale -> L3_b5_cbr2_bn_top (in-place)
I1209 19:32:19.121296  1002 layer_factory.hpp:77] Creating layer L3_b5_cbr2_scale
I1209 19:32:19.121500  1002 net.cpp:150] Setting up L3_b5_cbr2_scale
I1209 19:32:19.121518  1002 net.cpp:157] Top shape: 125 64 8 8 (512000)
I1209 19:32:19.121528  1002 net.cpp:165] Memory required for data: 1589761500
I1209 19:32:19.121547  1002 layer_factory.hpp:77] Creating layer L3_b5_cbr2_dropout
I1209 19:32:19.121569  1002 net.cpp:100] Creating Layer L3_b5_cbr2_dropout
I1209 19:32:19.121582  1002 net.cpp:434] L3_b5_cbr2_dropout <- L3_b5_cbr2_bn_top
I1209 19:32:19.121598  1002 net.cpp:395] L3_b5_cbr2_dropout -> L3_b5_cbr2_bn_top (in-place)
I1209 19:32:19.121659  1002 net.cpp:150] Setting up L3_b5_cbr2_dropout
I1209 19:32:19.121676  1002 net.cpp:157] Top shape: 125 64 8 8 (512000)
I1209 19:32:19.121685  1002 net.cpp:165] Memory required for data: 1591809500
I1209 19:32:19.121696  1002 layer_factory.hpp:77] Creating layer L3_b5_sum_eltwise
I1209 19:32:19.121713  1002 net.cpp:100] Creating Layer L3_b5_sum_eltwise
I1209 19:32:19.121726  1002 net.cpp:434] L3_b5_sum_eltwise <- L3_b5_cbr2_bn_top
I1209 19:32:19.121737  1002 net.cpp:434] L3_b5_sum_eltwise <- L3_b4_sum_eltwise_top_L3_b4_relu_0_split_1
I1209 19:32:19.121753  1002 net.cpp:408] L3_b5_sum_eltwise -> L3_b5_sum_eltwise_top
I1209 19:32:19.121809  1002 net.cpp:150] Setting up L3_b5_sum_eltwise
I1209 19:32:19.121829  1002 net.cpp:157] Top shape: 125 64 8 8 (512000)
I1209 19:32:19.121839  1002 net.cpp:165] Memory required for data: 1593857500
I1209 19:32:19.121850  1002 layer_factory.hpp:77] Creating layer L3_b5_relu
I1209 19:32:19.121870  1002 net.cpp:100] Creating Layer L3_b5_relu
I1209 19:32:19.121882  1002 net.cpp:434] L3_b5_relu <- L3_b5_sum_eltwise_top
I1209 19:32:19.121896  1002 net.cpp:395] L3_b5_relu -> L3_b5_sum_eltwise_top (in-place)
I1209 19:32:19.121914  1002 net.cpp:150] Setting up L3_b5_relu
I1209 19:32:19.121928  1002 net.cpp:157] Top shape: 125 64 8 8 (512000)
I1209 19:32:19.121937  1002 net.cpp:165] Memory required for data: 1595905500
I1209 19:32:19.121948  1002 layer_factory.hpp:77] Creating layer L3_b5_sum_eltwise_top_L3_b5_relu_0_split
I1209 19:32:19.121970  1002 net.cpp:100] Creating Layer L3_b5_sum_eltwise_top_L3_b5_relu_0_split
I1209 19:32:19.121984  1002 net.cpp:434] L3_b5_sum_eltwise_top_L3_b5_relu_0_split <- L3_b5_sum_eltwise_top
I1209 19:32:19.121999  1002 net.cpp:408] L3_b5_sum_eltwise_top_L3_b5_relu_0_split -> L3_b5_sum_eltwise_top_L3_b5_relu_0_split_0
I1209 19:32:19.122020  1002 net.cpp:408] L3_b5_sum_eltwise_top_L3_b5_relu_0_split -> L3_b5_sum_eltwise_top_L3_b5_relu_0_split_1
I1209 19:32:19.122117  1002 net.cpp:150] Setting up L3_b5_sum_eltwise_top_L3_b5_relu_0_split
I1209 19:32:19.122138  1002 net.cpp:157] Top shape: 125 64 8 8 (512000)
I1209 19:32:19.122150  1002 net.cpp:157] Top shape: 125 64 8 8 (512000)
I1209 19:32:19.122159  1002 net.cpp:165] Memory required for data: 1600001500
I1209 19:32:19.122169  1002 layer_factory.hpp:77] Creating layer L3_b6_cbr1_conv
I1209 19:32:19.122197  1002 net.cpp:100] Creating Layer L3_b6_cbr1_conv
I1209 19:32:19.122210  1002 net.cpp:434] L3_b6_cbr1_conv <- L3_b5_sum_eltwise_top_L3_b5_relu_0_split_0
I1209 19:32:19.122236  1002 net.cpp:408] L3_b6_cbr1_conv -> L3_b6_cbr1_conv_top
I1209 19:32:19.123318  1002 net.cpp:150] Setting up L3_b6_cbr1_conv
I1209 19:32:19.123339  1002 net.cpp:157] Top shape: 125 64 8 8 (512000)
I1209 19:32:19.123349  1002 net.cpp:165] Memory required for data: 1602049500
I1209 19:32:19.123368  1002 layer_factory.hpp:77] Creating layer L3_b6_cbr1_bn
I1209 19:32:19.123395  1002 net.cpp:100] Creating Layer L3_b6_cbr1_bn
I1209 19:32:19.123409  1002 net.cpp:434] L3_b6_cbr1_bn <- L3_b6_cbr1_conv_top
I1209 19:32:19.123435  1002 net.cpp:408] L3_b6_cbr1_bn -> L3_b6_cbr1_bn_top
I1209 19:32:19.123738  1002 net.cpp:150] Setting up L3_b6_cbr1_bn
I1209 19:32:19.123756  1002 net.cpp:157] Top shape: 125 64 8 8 (512000)
I1209 19:32:19.123766  1002 net.cpp:165] Memory required for data: 1604097500
I1209 19:32:19.123787  1002 layer_factory.hpp:77] Creating layer L3_b6_cbr1_scale
I1209 19:32:19.123805  1002 net.cpp:100] Creating Layer L3_b6_cbr1_scale
I1209 19:32:19.123817  1002 net.cpp:434] L3_b6_cbr1_scale <- L3_b6_cbr1_bn_top
I1209 19:32:19.123842  1002 net.cpp:395] L3_b6_cbr1_scale -> L3_b6_cbr1_bn_top (in-place)
I1209 19:32:19.123940  1002 layer_factory.hpp:77] Creating layer L3_b6_cbr1_scale
I1209 19:32:19.124145  1002 net.cpp:150] Setting up L3_b6_cbr1_scale
I1209 19:32:19.124164  1002 net.cpp:157] Top shape: 125 64 8 8 (512000)
I1209 19:32:19.124174  1002 net.cpp:165] Memory required for data: 1606145500
I1209 19:32:19.124192  1002 layer_factory.hpp:77] Creating layer L3_b6_cbr1_dropout
I1209 19:32:19.124210  1002 net.cpp:100] Creating Layer L3_b6_cbr1_dropout
I1209 19:32:19.124222  1002 net.cpp:434] L3_b6_cbr1_dropout <- L3_b6_cbr1_bn_top
I1209 19:32:19.124245  1002 net.cpp:395] L3_b6_cbr1_dropout -> L3_b6_cbr1_bn_top (in-place)
I1209 19:32:19.124308  1002 net.cpp:150] Setting up L3_b6_cbr1_dropout
I1209 19:32:19.124325  1002 net.cpp:157] Top shape: 125 64 8 8 (512000)
I1209 19:32:19.124336  1002 net.cpp:165] Memory required for data: 1608193500
I1209 19:32:19.124346  1002 layer_factory.hpp:77] Creating layer L3_b6_cbr1_relu
I1209 19:32:19.124361  1002 net.cpp:100] Creating Layer L3_b6_cbr1_relu
I1209 19:32:19.124372  1002 net.cpp:434] L3_b6_cbr1_relu <- L3_b6_cbr1_bn_top
I1209 19:32:19.124392  1002 net.cpp:395] L3_b6_cbr1_relu -> L3_b6_cbr1_bn_top (in-place)
I1209 19:32:19.124413  1002 net.cpp:150] Setting up L3_b6_cbr1_relu
I1209 19:32:19.124426  1002 net.cpp:157] Top shape: 125 64 8 8 (512000)
I1209 19:32:19.124435  1002 net.cpp:165] Memory required for data: 1610241500
I1209 19:32:19.124445  1002 layer_factory.hpp:77] Creating layer L3_b6_cbr2_conv
I1209 19:32:19.124467  1002 net.cpp:100] Creating Layer L3_b6_cbr2_conv
I1209 19:32:19.124480  1002 net.cpp:434] L3_b6_cbr2_conv <- L3_b6_cbr1_bn_top
I1209 19:32:19.124497  1002 net.cpp:408] L3_b6_cbr2_conv -> L3_b6_cbr2_conv_top
I1209 19:32:19.125613  1002 net.cpp:150] Setting up L3_b6_cbr2_conv
I1209 19:32:19.125633  1002 net.cpp:157] Top shape: 125 64 8 8 (512000)
I1209 19:32:19.125643  1002 net.cpp:165] Memory required for data: 1612289500
I1209 19:32:19.125663  1002 layer_factory.hpp:77] Creating layer L3_b6_cbr2_bn
I1209 19:32:19.125687  1002 net.cpp:100] Creating Layer L3_b6_cbr2_bn
I1209 19:32:19.125700  1002 net.cpp:434] L3_b6_cbr2_bn <- L3_b6_cbr2_conv_top
I1209 19:32:19.125715  1002 net.cpp:408] L3_b6_cbr2_bn -> L3_b6_cbr2_bn_top
I1209 19:32:19.126047  1002 net.cpp:150] Setting up L3_b6_cbr2_bn
I1209 19:32:19.126067  1002 net.cpp:157] Top shape: 125 64 8 8 (512000)
I1209 19:32:19.126077  1002 net.cpp:165] Memory required for data: 1614337500
I1209 19:32:19.126111  1002 layer_factory.hpp:77] Creating layer L3_b6_cbr2_scale
I1209 19:32:19.126137  1002 net.cpp:100] Creating Layer L3_b6_cbr2_scale
I1209 19:32:19.126152  1002 net.cpp:434] L3_b6_cbr2_scale <- L3_b6_cbr2_bn_top
I1209 19:32:19.126168  1002 net.cpp:395] L3_b6_cbr2_scale -> L3_b6_cbr2_bn_top (in-place)
I1209 19:32:19.126272  1002 layer_factory.hpp:77] Creating layer L3_b6_cbr2_scale
I1209 19:32:19.126474  1002 net.cpp:150] Setting up L3_b6_cbr2_scale
I1209 19:32:19.126493  1002 net.cpp:157] Top shape: 125 64 8 8 (512000)
I1209 19:32:19.126502  1002 net.cpp:165] Memory required for data: 1616385500
I1209 19:32:19.126521  1002 layer_factory.hpp:77] Creating layer L3_b6_cbr2_dropout
I1209 19:32:19.126543  1002 net.cpp:100] Creating Layer L3_b6_cbr2_dropout
I1209 19:32:19.126555  1002 net.cpp:434] L3_b6_cbr2_dropout <- L3_b6_cbr2_bn_top
I1209 19:32:19.126574  1002 net.cpp:395] L3_b6_cbr2_dropout -> L3_b6_cbr2_bn_top (in-place)
I1209 19:32:19.126631  1002 net.cpp:150] Setting up L3_b6_cbr2_dropout
I1209 19:32:19.126648  1002 net.cpp:157] Top shape: 125 64 8 8 (512000)
I1209 19:32:19.126657  1002 net.cpp:165] Memory required for data: 1618433500
I1209 19:32:19.126669  1002 layer_factory.hpp:77] Creating layer L3_b6_sum_eltwise
I1209 19:32:19.126690  1002 net.cpp:100] Creating Layer L3_b6_sum_eltwise
I1209 19:32:19.126703  1002 net.cpp:434] L3_b6_sum_eltwise <- L3_b6_cbr2_bn_top
I1209 19:32:19.126716  1002 net.cpp:434] L3_b6_sum_eltwise <- L3_b5_sum_eltwise_top_L3_b5_relu_0_split_1
I1209 19:32:19.126732  1002 net.cpp:408] L3_b6_sum_eltwise -> L3_b6_sum_eltwise_top
I1209 19:32:19.126787  1002 net.cpp:150] Setting up L3_b6_sum_eltwise
I1209 19:32:19.126806  1002 net.cpp:157] Top shape: 125 64 8 8 (512000)
I1209 19:32:19.126816  1002 net.cpp:165] Memory required for data: 1620481500
I1209 19:32:19.126826  1002 layer_factory.hpp:77] Creating layer L3_b6_relu
I1209 19:32:19.126840  1002 net.cpp:100] Creating Layer L3_b6_relu
I1209 19:32:19.126852  1002 net.cpp:434] L3_b6_relu <- L3_b6_sum_eltwise_top
I1209 19:32:19.126873  1002 net.cpp:395] L3_b6_relu -> L3_b6_sum_eltwise_top (in-place)
I1209 19:32:19.126893  1002 net.cpp:150] Setting up L3_b6_relu
I1209 19:32:19.126907  1002 net.cpp:157] Top shape: 125 64 8 8 (512000)
I1209 19:32:19.126916  1002 net.cpp:165] Memory required for data: 1622529500
I1209 19:32:19.126926  1002 layer_factory.hpp:77] Creating layer L3_b6_sum_eltwise_top_L3_b6_relu_0_split
I1209 19:32:19.126940  1002 net.cpp:100] Creating Layer L3_b6_sum_eltwise_top_L3_b6_relu_0_split
I1209 19:32:19.126951  1002 net.cpp:434] L3_b6_sum_eltwise_top_L3_b6_relu_0_split <- L3_b6_sum_eltwise_top
I1209 19:32:19.126976  1002 net.cpp:408] L3_b6_sum_eltwise_top_L3_b6_relu_0_split -> L3_b6_sum_eltwise_top_L3_b6_relu_0_split_0
I1209 19:32:19.126996  1002 net.cpp:408] L3_b6_sum_eltwise_top_L3_b6_relu_0_split -> L3_b6_sum_eltwise_top_L3_b6_relu_0_split_1
I1209 19:32:19.127082  1002 net.cpp:150] Setting up L3_b6_sum_eltwise_top_L3_b6_relu_0_split
I1209 19:32:19.127102  1002 net.cpp:157] Top shape: 125 64 8 8 (512000)
I1209 19:32:19.127116  1002 net.cpp:157] Top shape: 125 64 8 8 (512000)
I1209 19:32:19.127125  1002 net.cpp:165] Memory required for data: 1626625500
I1209 19:32:19.127135  1002 layer_factory.hpp:77] Creating layer L3_b7_cbr1_conv
I1209 19:32:19.127157  1002 net.cpp:100] Creating Layer L3_b7_cbr1_conv
I1209 19:32:19.127171  1002 net.cpp:434] L3_b7_cbr1_conv <- L3_b6_sum_eltwise_top_L3_b6_relu_0_split_0
I1209 19:32:19.127197  1002 net.cpp:408] L3_b7_cbr1_conv -> L3_b7_cbr1_conv_top
I1209 19:32:19.128284  1002 net.cpp:150] Setting up L3_b7_cbr1_conv
I1209 19:32:19.128304  1002 net.cpp:157] Top shape: 125 64 8 8 (512000)
I1209 19:32:19.128315  1002 net.cpp:165] Memory required for data: 1628673500
I1209 19:32:19.128334  1002 layer_factory.hpp:77] Creating layer L3_b7_cbr1_bn
I1209 19:32:19.128356  1002 net.cpp:100] Creating Layer L3_b7_cbr1_bn
I1209 19:32:19.128371  1002 net.cpp:434] L3_b7_cbr1_bn <- L3_b7_cbr1_conv_top
I1209 19:32:19.128387  1002 net.cpp:408] L3_b7_cbr1_bn -> L3_b7_cbr1_bn_top
I1209 19:32:19.128723  1002 net.cpp:150] Setting up L3_b7_cbr1_bn
I1209 19:32:19.128743  1002 net.cpp:157] Top shape: 125 64 8 8 (512000)
I1209 19:32:19.128753  1002 net.cpp:165] Memory required for data: 1630721500
I1209 19:32:19.128774  1002 layer_factory.hpp:77] Creating layer L3_b7_cbr1_scale
I1209 19:32:19.128793  1002 net.cpp:100] Creating Layer L3_b7_cbr1_scale
I1209 19:32:19.128803  1002 net.cpp:434] L3_b7_cbr1_scale <- L3_b7_cbr1_bn_top
I1209 19:32:19.128818  1002 net.cpp:395] L3_b7_cbr1_scale -> L3_b7_cbr1_bn_top (in-place)
I1209 19:32:19.128921  1002 layer_factory.hpp:77] Creating layer L3_b7_cbr1_scale
I1209 19:32:19.129128  1002 net.cpp:150] Setting up L3_b7_cbr1_scale
I1209 19:32:19.129153  1002 net.cpp:157] Top shape: 125 64 8 8 (512000)
I1209 19:32:19.129163  1002 net.cpp:165] Memory required for data: 1632769500
I1209 19:32:19.129182  1002 layer_factory.hpp:77] Creating layer L3_b7_cbr1_dropout
I1209 19:32:19.129199  1002 net.cpp:100] Creating Layer L3_b7_cbr1_dropout
I1209 19:32:19.129210  1002 net.cpp:434] L3_b7_cbr1_dropout <- L3_b7_cbr1_bn_top
I1209 19:32:19.129225  1002 net.cpp:395] L3_b7_cbr1_dropout -> L3_b7_cbr1_bn_top (in-place)
I1209 19:32:19.129287  1002 net.cpp:150] Setting up L3_b7_cbr1_dropout
I1209 19:32:19.129304  1002 net.cpp:157] Top shape: 125 64 8 8 (512000)
I1209 19:32:19.129314  1002 net.cpp:165] Memory required for data: 1634817500
I1209 19:32:19.129324  1002 layer_factory.hpp:77] Creating layer L3_b7_cbr1_relu
I1209 19:32:19.129340  1002 net.cpp:100] Creating Layer L3_b7_cbr1_relu
I1209 19:32:19.129351  1002 net.cpp:434] L3_b7_cbr1_relu <- L3_b7_cbr1_bn_top
I1209 19:32:19.129365  1002 net.cpp:395] L3_b7_cbr1_relu -> L3_b7_cbr1_bn_top (in-place)
I1209 19:32:19.129384  1002 net.cpp:150] Setting up L3_b7_cbr1_relu
I1209 19:32:19.129400  1002 net.cpp:157] Top shape: 125 64 8 8 (512000)
I1209 19:32:19.129407  1002 net.cpp:165] Memory required for data: 1636865500
I1209 19:32:19.129418  1002 layer_factory.hpp:77] Creating layer L3_b7_cbr2_conv
I1209 19:32:19.129446  1002 net.cpp:100] Creating Layer L3_b7_cbr2_conv
I1209 19:32:19.129459  1002 net.cpp:434] L3_b7_cbr2_conv <- L3_b7_cbr1_bn_top
I1209 19:32:19.129477  1002 net.cpp:408] L3_b7_cbr2_conv -> L3_b7_cbr2_conv_top
I1209 19:32:19.130538  1002 net.cpp:150] Setting up L3_b7_cbr2_conv
I1209 19:32:19.130559  1002 net.cpp:157] Top shape: 125 64 8 8 (512000)
I1209 19:32:19.130569  1002 net.cpp:165] Memory required for data: 1638913500
I1209 19:32:19.130586  1002 layer_factory.hpp:77] Creating layer L3_b7_cbr2_bn
I1209 19:32:19.130610  1002 net.cpp:100] Creating Layer L3_b7_cbr2_bn
I1209 19:32:19.130622  1002 net.cpp:434] L3_b7_cbr2_bn <- L3_b7_cbr2_conv_top
I1209 19:32:19.130645  1002 net.cpp:408] L3_b7_cbr2_bn -> L3_b7_cbr2_bn_top
I1209 19:32:19.130965  1002 net.cpp:150] Setting up L3_b7_cbr2_bn
I1209 19:32:19.130985  1002 net.cpp:157] Top shape: 125 64 8 8 (512000)
I1209 19:32:19.130995  1002 net.cpp:165] Memory required for data: 1640961500
I1209 19:32:19.131016  1002 layer_factory.hpp:77] Creating layer L3_b7_cbr2_scale
I1209 19:32:19.131034  1002 net.cpp:100] Creating Layer L3_b7_cbr2_scale
I1209 19:32:19.131047  1002 net.cpp:434] L3_b7_cbr2_scale <- L3_b7_cbr2_bn_top
I1209 19:32:19.131067  1002 net.cpp:395] L3_b7_cbr2_scale -> L3_b7_cbr2_bn_top (in-place)
I1209 19:32:19.131165  1002 layer_factory.hpp:77] Creating layer L3_b7_cbr2_scale
I1209 19:32:19.131371  1002 net.cpp:150] Setting up L3_b7_cbr2_scale
I1209 19:32:19.131389  1002 net.cpp:157] Top shape: 125 64 8 8 (512000)
I1209 19:32:19.131399  1002 net.cpp:165] Memory required for data: 1643009500
I1209 19:32:19.131417  1002 layer_factory.hpp:77] Creating layer L3_b7_cbr2_dropout
I1209 19:32:19.131435  1002 net.cpp:100] Creating Layer L3_b7_cbr2_dropout
I1209 19:32:19.131448  1002 net.cpp:434] L3_b7_cbr2_dropout <- L3_b7_cbr2_bn_top
I1209 19:32:19.131469  1002 net.cpp:395] L3_b7_cbr2_dropout -> L3_b7_cbr2_bn_top (in-place)
I1209 19:32:19.131525  1002 net.cpp:150] Setting up L3_b7_cbr2_dropout
I1209 19:32:19.131552  1002 net.cpp:157] Top shape: 125 64 8 8 (512000)
I1209 19:32:19.131572  1002 net.cpp:165] Memory required for data: 1645057500
I1209 19:32:19.131584  1002 layer_factory.hpp:77] Creating layer L3_b7_sum_eltwise
I1209 19:32:19.131602  1002 net.cpp:100] Creating Layer L3_b7_sum_eltwise
I1209 19:32:19.131613  1002 net.cpp:434] L3_b7_sum_eltwise <- L3_b7_cbr2_bn_top
I1209 19:32:19.131626  1002 net.cpp:434] L3_b7_sum_eltwise <- L3_b6_sum_eltwise_top_L3_b6_relu_0_split_1
I1209 19:32:19.131642  1002 net.cpp:408] L3_b7_sum_eltwise -> L3_b7_sum_eltwise_top
I1209 19:32:19.131705  1002 net.cpp:150] Setting up L3_b7_sum_eltwise
I1209 19:32:19.131724  1002 net.cpp:157] Top shape: 125 64 8 8 (512000)
I1209 19:32:19.131734  1002 net.cpp:165] Memory required for data: 1647105500
I1209 19:32:19.131745  1002 layer_factory.hpp:77] Creating layer L3_b7_relu
I1209 19:32:19.131759  1002 net.cpp:100] Creating Layer L3_b7_relu
I1209 19:32:19.131772  1002 net.cpp:434] L3_b7_relu <- L3_b7_sum_eltwise_top
I1209 19:32:19.131786  1002 net.cpp:395] L3_b7_relu -> L3_b7_sum_eltwise_top (in-place)
I1209 19:32:19.131805  1002 net.cpp:150] Setting up L3_b7_relu
I1209 19:32:19.131819  1002 net.cpp:157] Top shape: 125 64 8 8 (512000)
I1209 19:32:19.131829  1002 net.cpp:165] Memory required for data: 1649153500
I1209 19:32:19.131839  1002 layer_factory.hpp:77] Creating layer L3_b7_sum_eltwise_top_L3_b7_relu_0_split
I1209 19:32:19.131857  1002 net.cpp:100] Creating Layer L3_b7_sum_eltwise_top_L3_b7_relu_0_split
I1209 19:32:19.131870  1002 net.cpp:434] L3_b7_sum_eltwise_top_L3_b7_relu_0_split <- L3_b7_sum_eltwise_top
I1209 19:32:19.131886  1002 net.cpp:408] L3_b7_sum_eltwise_top_L3_b7_relu_0_split -> L3_b7_sum_eltwise_top_L3_b7_relu_0_split_0
I1209 19:32:19.131906  1002 net.cpp:408] L3_b7_sum_eltwise_top_L3_b7_relu_0_split -> L3_b7_sum_eltwise_top_L3_b7_relu_0_split_1
I1209 19:32:19.131992  1002 net.cpp:150] Setting up L3_b7_sum_eltwise_top_L3_b7_relu_0_split
I1209 19:32:19.132017  1002 net.cpp:157] Top shape: 125 64 8 8 (512000)
I1209 19:32:19.132032  1002 net.cpp:157] Top shape: 125 64 8 8 (512000)
I1209 19:32:19.132041  1002 net.cpp:165] Memory required for data: 1653249500
I1209 19:32:19.132052  1002 layer_factory.hpp:77] Creating layer L3_b8_cbr1_conv
I1209 19:32:19.132079  1002 net.cpp:100] Creating Layer L3_b8_cbr1_conv
I1209 19:32:19.132093  1002 net.cpp:434] L3_b8_cbr1_conv <- L3_b7_sum_eltwise_top_L3_b7_relu_0_split_0
I1209 19:32:19.132112  1002 net.cpp:408] L3_b8_cbr1_conv -> L3_b8_cbr1_conv_top
I1209 19:32:19.133206  1002 net.cpp:150] Setting up L3_b8_cbr1_conv
I1209 19:32:19.133226  1002 net.cpp:157] Top shape: 125 64 8 8 (512000)
I1209 19:32:19.133235  1002 net.cpp:165] Memory required for data: 1655297500
I1209 19:32:19.133253  1002 layer_factory.hpp:77] Creating layer L3_b8_cbr1_bn
I1209 19:32:19.133277  1002 net.cpp:100] Creating Layer L3_b8_cbr1_bn
I1209 19:32:19.133289  1002 net.cpp:434] L3_b8_cbr1_bn <- L3_b8_cbr1_conv_top
I1209 19:32:19.133306  1002 net.cpp:408] L3_b8_cbr1_bn -> L3_b8_cbr1_bn_top
I1209 19:32:19.133630  1002 net.cpp:150] Setting up L3_b8_cbr1_bn
I1209 19:32:19.133649  1002 net.cpp:157] Top shape: 125 64 8 8 (512000)
I1209 19:32:19.133658  1002 net.cpp:165] Memory required for data: 1657345500
I1209 19:32:19.133680  1002 layer_factory.hpp:77] Creating layer L3_b8_cbr1_scale
I1209 19:32:19.133703  1002 net.cpp:100] Creating Layer L3_b8_cbr1_scale
I1209 19:32:19.133716  1002 net.cpp:434] L3_b8_cbr1_scale <- L3_b8_cbr1_bn_top
I1209 19:32:19.133738  1002 net.cpp:395] L3_b8_cbr1_scale -> L3_b8_cbr1_bn_top (in-place)
I1209 19:32:19.133834  1002 layer_factory.hpp:77] Creating layer L3_b8_cbr1_scale
I1209 19:32:19.134049  1002 net.cpp:150] Setting up L3_b8_cbr1_scale
I1209 19:32:19.134068  1002 net.cpp:157] Top shape: 125 64 8 8 (512000)
I1209 19:32:19.134078  1002 net.cpp:165] Memory required for data: 1659393500
I1209 19:32:19.134095  1002 layer_factory.hpp:77] Creating layer L3_b8_cbr1_dropout
I1209 19:32:19.134112  1002 net.cpp:100] Creating Layer L3_b8_cbr1_dropout
I1209 19:32:19.134124  1002 net.cpp:434] L3_b8_cbr1_dropout <- L3_b8_cbr1_bn_top
I1209 19:32:19.134145  1002 net.cpp:395] L3_b8_cbr1_dropout -> L3_b8_cbr1_bn_top (in-place)
I1209 19:32:19.134212  1002 net.cpp:150] Setting up L3_b8_cbr1_dropout
I1209 19:32:19.134232  1002 net.cpp:157] Top shape: 125 64 8 8 (512000)
I1209 19:32:19.134241  1002 net.cpp:165] Memory required for data: 1661441500
I1209 19:32:19.134251  1002 layer_factory.hpp:77] Creating layer L3_b8_cbr1_relu
I1209 19:32:19.134271  1002 net.cpp:100] Creating Layer L3_b8_cbr1_relu
I1209 19:32:19.134284  1002 net.cpp:434] L3_b8_cbr1_relu <- L3_b8_cbr1_bn_top
I1209 19:32:19.134300  1002 net.cpp:395] L3_b8_cbr1_relu -> L3_b8_cbr1_bn_top (in-place)
I1209 19:32:19.134320  1002 net.cpp:150] Setting up L3_b8_cbr1_relu
I1209 19:32:19.134335  1002 net.cpp:157] Top shape: 125 64 8 8 (512000)
I1209 19:32:19.134344  1002 net.cpp:165] Memory required for data: 1663489500
I1209 19:32:19.134354  1002 layer_factory.hpp:77] Creating layer L3_b8_cbr2_conv
I1209 19:32:19.134376  1002 net.cpp:100] Creating Layer L3_b8_cbr2_conv
I1209 19:32:19.134388  1002 net.cpp:434] L3_b8_cbr2_conv <- L3_b8_cbr1_bn_top
I1209 19:32:19.134412  1002 net.cpp:408] L3_b8_cbr2_conv -> L3_b8_cbr2_conv_top
I1209 19:32:19.135488  1002 net.cpp:150] Setting up L3_b8_cbr2_conv
I1209 19:32:19.135509  1002 net.cpp:157] Top shape: 125 64 8 8 (512000)
I1209 19:32:19.135519  1002 net.cpp:165] Memory required for data: 1665537500
I1209 19:32:19.135537  1002 layer_factory.hpp:77] Creating layer L3_b8_cbr2_bn
I1209 19:32:19.135555  1002 net.cpp:100] Creating Layer L3_b8_cbr2_bn
I1209 19:32:19.135567  1002 net.cpp:434] L3_b8_cbr2_bn <- L3_b8_cbr2_conv_top
I1209 19:32:19.135591  1002 net.cpp:408] L3_b8_cbr2_bn -> L3_b8_cbr2_bn_top
I1209 19:32:19.135918  1002 net.cpp:150] Setting up L3_b8_cbr2_bn
I1209 19:32:19.135942  1002 net.cpp:157] Top shape: 125 64 8 8 (512000)
I1209 19:32:19.135953  1002 net.cpp:165] Memory required for data: 1667585500
I1209 19:32:19.135983  1002 layer_factory.hpp:77] Creating layer L3_b8_cbr2_scale
I1209 19:32:19.136000  1002 net.cpp:100] Creating Layer L3_b8_cbr2_scale
I1209 19:32:19.136013  1002 net.cpp:434] L3_b8_cbr2_scale <- L3_b8_cbr2_bn_top
I1209 19:32:19.136029  1002 net.cpp:395] L3_b8_cbr2_scale -> L3_b8_cbr2_bn_top (in-place)
I1209 19:32:19.136127  1002 layer_factory.hpp:77] Creating layer L3_b8_cbr2_scale
I1209 19:32:19.136332  1002 net.cpp:150] Setting up L3_b8_cbr2_scale
I1209 19:32:19.136350  1002 net.cpp:157] Top shape: 125 64 8 8 (512000)
I1209 19:32:19.136359  1002 net.cpp:165] Memory required for data: 1669633500
I1209 19:32:19.136379  1002 layer_factory.hpp:77] Creating layer L3_b8_cbr2_dropout
I1209 19:32:19.136402  1002 net.cpp:100] Creating Layer L3_b8_cbr2_dropout
I1209 19:32:19.136415  1002 net.cpp:434] L3_b8_cbr2_dropout <- L3_b8_cbr2_bn_top
I1209 19:32:19.136430  1002 net.cpp:395] L3_b8_cbr2_dropout -> L3_b8_cbr2_bn_top (in-place)
I1209 19:32:19.136490  1002 net.cpp:150] Setting up L3_b8_cbr2_dropout
I1209 19:32:19.136508  1002 net.cpp:157] Top shape: 125 64 8 8 (512000)
I1209 19:32:19.136518  1002 net.cpp:165] Memory required for data: 1671681500
I1209 19:32:19.136531  1002 layer_factory.hpp:77] Creating layer L3_b8_sum_eltwise
I1209 19:32:19.136548  1002 net.cpp:100] Creating Layer L3_b8_sum_eltwise
I1209 19:32:19.136559  1002 net.cpp:434] L3_b8_sum_eltwise <- L3_b8_cbr2_bn_top
I1209 19:32:19.136571  1002 net.cpp:434] L3_b8_sum_eltwise <- L3_b7_sum_eltwise_top_L3_b7_relu_0_split_1
I1209 19:32:19.136587  1002 net.cpp:408] L3_b8_sum_eltwise -> L3_b8_sum_eltwise_top
I1209 19:32:19.136644  1002 net.cpp:150] Setting up L3_b8_sum_eltwise
I1209 19:32:19.136665  1002 net.cpp:157] Top shape: 125 64 8 8 (512000)
I1209 19:32:19.136677  1002 net.cpp:165] Memory required for data: 1673729500
I1209 19:32:19.136687  1002 layer_factory.hpp:77] Creating layer L3_b8_relu
I1209 19:32:19.136708  1002 net.cpp:100] Creating Layer L3_b8_relu
I1209 19:32:19.136720  1002 net.cpp:434] L3_b8_relu <- L3_b8_sum_eltwise_top
I1209 19:32:19.136734  1002 net.cpp:395] L3_b8_relu -> L3_b8_sum_eltwise_top (in-place)
I1209 19:32:19.136754  1002 net.cpp:150] Setting up L3_b8_relu
I1209 19:32:19.136770  1002 net.cpp:157] Top shape: 125 64 8 8 (512000)
I1209 19:32:19.136788  1002 net.cpp:165] Memory required for data: 1675777500
I1209 19:32:19.136798  1002 layer_factory.hpp:77] Creating layer L3_b8_sum_eltwise_top_L3_b8_relu_0_split
I1209 19:32:19.136813  1002 net.cpp:100] Creating Layer L3_b8_sum_eltwise_top_L3_b8_relu_0_split
I1209 19:32:19.136826  1002 net.cpp:434] L3_b8_sum_eltwise_top_L3_b8_relu_0_split <- L3_b8_sum_eltwise_top
I1209 19:32:19.136842  1002 net.cpp:408] L3_b8_sum_eltwise_top_L3_b8_relu_0_split -> L3_b8_sum_eltwise_top_L3_b8_relu_0_split_0
I1209 19:32:19.136862  1002 net.cpp:408] L3_b8_sum_eltwise_top_L3_b8_relu_0_split -> L3_b8_sum_eltwise_top_L3_b8_relu_0_split_1
I1209 19:32:19.136951  1002 net.cpp:150] Setting up L3_b8_sum_eltwise_top_L3_b8_relu_0_split
I1209 19:32:19.136981  1002 net.cpp:157] Top shape: 125 64 8 8 (512000)
I1209 19:32:19.136996  1002 net.cpp:157] Top shape: 125 64 8 8 (512000)
I1209 19:32:19.137006  1002 net.cpp:165] Memory required for data: 1679873500
I1209 19:32:19.137017  1002 layer_factory.hpp:77] Creating layer L3_b9_cbr1_conv
I1209 19:32:19.137043  1002 net.cpp:100] Creating Layer L3_b9_cbr1_conv
I1209 19:32:19.137058  1002 net.cpp:434] L3_b9_cbr1_conv <- L3_b8_sum_eltwise_top_L3_b8_relu_0_split_0
I1209 19:32:19.137082  1002 net.cpp:408] L3_b9_cbr1_conv -> L3_b9_cbr1_conv_top
I1209 19:32:19.139601  1002 net.cpp:150] Setting up L3_b9_cbr1_conv
I1209 19:32:19.139623  1002 net.cpp:157] Top shape: 125 64 8 8 (512000)
I1209 19:32:19.139633  1002 net.cpp:165] Memory required for data: 1681921500
I1209 19:32:19.139654  1002 layer_factory.hpp:77] Creating layer L3_b9_cbr1_bn
I1209 19:32:19.139673  1002 net.cpp:100] Creating Layer L3_b9_cbr1_bn
I1209 19:32:19.139686  1002 net.cpp:434] L3_b9_cbr1_bn <- L3_b9_cbr1_conv_top
I1209 19:32:19.139709  1002 net.cpp:408] L3_b9_cbr1_bn -> L3_b9_cbr1_bn_top
I1209 19:32:19.140061  1002 net.cpp:150] Setting up L3_b9_cbr1_bn
I1209 19:32:19.140089  1002 net.cpp:157] Top shape: 125 64 8 8 (512000)
I1209 19:32:19.140100  1002 net.cpp:165] Memory required for data: 1683969500
I1209 19:32:19.140125  1002 layer_factory.hpp:77] Creating layer L3_b9_cbr1_scale
I1209 19:32:19.140142  1002 net.cpp:100] Creating Layer L3_b9_cbr1_scale
I1209 19:32:19.140156  1002 net.cpp:434] L3_b9_cbr1_scale <- L3_b9_cbr1_bn_top
I1209 19:32:19.140172  1002 net.cpp:395] L3_b9_cbr1_scale -> L3_b9_cbr1_bn_top (in-place)
I1209 19:32:19.140267  1002 layer_factory.hpp:77] Creating layer L3_b9_cbr1_scale
I1209 19:32:19.140476  1002 net.cpp:150] Setting up L3_b9_cbr1_scale
I1209 19:32:19.140496  1002 net.cpp:157] Top shape: 125 64 8 8 (512000)
I1209 19:32:19.140504  1002 net.cpp:165] Memory required for data: 1686017500
I1209 19:32:19.140525  1002 layer_factory.hpp:77] Creating layer L3_b9_cbr1_dropout
I1209 19:32:19.140547  1002 net.cpp:100] Creating Layer L3_b9_cbr1_dropout
I1209 19:32:19.140560  1002 net.cpp:434] L3_b9_cbr1_dropout <- L3_b9_cbr1_bn_top
I1209 19:32:19.140575  1002 net.cpp:395] L3_b9_cbr1_dropout -> L3_b9_cbr1_bn_top (in-place)
I1209 19:32:19.140640  1002 net.cpp:150] Setting up L3_b9_cbr1_dropout
I1209 19:32:19.140660  1002 net.cpp:157] Top shape: 125 64 8 8 (512000)
I1209 19:32:19.140669  1002 net.cpp:165] Memory required for data: 1688065500
I1209 19:32:19.140681  1002 layer_factory.hpp:77] Creating layer L3_b9_cbr1_relu
I1209 19:32:19.140698  1002 net.cpp:100] Creating Layer L3_b9_cbr1_relu
I1209 19:32:19.140710  1002 net.cpp:434] L3_b9_cbr1_relu <- L3_b9_cbr1_bn_top
I1209 19:32:19.140724  1002 net.cpp:395] L3_b9_cbr1_relu -> L3_b9_cbr1_bn_top (in-place)
I1209 19:32:19.140744  1002 net.cpp:150] Setting up L3_b9_cbr1_relu
I1209 19:32:19.140759  1002 net.cpp:157] Top shape: 125 64 8 8 (512000)
I1209 19:32:19.140769  1002 net.cpp:165] Memory required for data: 1690113500
I1209 19:32:19.140781  1002 layer_factory.hpp:77] Creating layer L3_b9_cbr2_conv
I1209 19:32:19.140810  1002 net.cpp:100] Creating Layer L3_b9_cbr2_conv
I1209 19:32:19.140825  1002 net.cpp:434] L3_b9_cbr2_conv <- L3_b9_cbr1_bn_top
I1209 19:32:19.140842  1002 net.cpp:408] L3_b9_cbr2_conv -> L3_b9_cbr2_conv_top
I1209 19:32:19.141947  1002 net.cpp:150] Setting up L3_b9_cbr2_conv
I1209 19:32:19.141973  1002 net.cpp:157] Top shape: 125 64 8 8 (512000)
I1209 19:32:19.141983  1002 net.cpp:165] Memory required for data: 1692161500
I1209 19:32:19.142004  1002 layer_factory.hpp:77] Creating layer L3_b9_cbr2_bn
I1209 19:32:19.142027  1002 net.cpp:100] Creating Layer L3_b9_cbr2_bn
I1209 19:32:19.142041  1002 net.cpp:434] L3_b9_cbr2_bn <- L3_b9_cbr2_conv_top
I1209 19:32:19.142058  1002 net.cpp:408] L3_b9_cbr2_bn -> L3_b9_cbr2_bn_top
I1209 19:32:19.142372  1002 net.cpp:150] Setting up L3_b9_cbr2_bn
I1209 19:32:19.142391  1002 net.cpp:157] Top shape: 125 64 8 8 (512000)
I1209 19:32:19.142401  1002 net.cpp:165] Memory required for data: 1694209500
I1209 19:32:19.142423  1002 layer_factory.hpp:77] Creating layer L3_b9_cbr2_scale
I1209 19:32:19.142443  1002 net.cpp:100] Creating Layer L3_b9_cbr2_scale
I1209 19:32:19.142455  1002 net.cpp:434] L3_b9_cbr2_scale <- L3_b9_cbr2_bn_top
I1209 19:32:19.142470  1002 net.cpp:395] L3_b9_cbr2_scale -> L3_b9_cbr2_bn_top (in-place)
I1209 19:32:19.142573  1002 layer_factory.hpp:77] Creating layer L3_b9_cbr2_scale
I1209 19:32:19.142774  1002 net.cpp:150] Setting up L3_b9_cbr2_scale
I1209 19:32:19.142792  1002 net.cpp:157] Top shape: 125 64 8 8 (512000)
I1209 19:32:19.142990  1002 net.cpp:165] Memory required for data: 1696257500
I1209 19:32:19.143015  1002 layer_factory.hpp:77] Creating layer L3_b9_cbr2_dropout
I1209 19:32:19.143034  1002 net.cpp:100] Creating Layer L3_b9_cbr2_dropout
I1209 19:32:19.143046  1002 net.cpp:434] L3_b9_cbr2_dropout <- L3_b9_cbr2_bn_top
I1209 19:32:19.143067  1002 net.cpp:395] L3_b9_cbr2_dropout -> L3_b9_cbr2_bn_top (in-place)
I1209 19:32:19.143126  1002 net.cpp:150] Setting up L3_b9_cbr2_dropout
I1209 19:32:19.143144  1002 net.cpp:157] Top shape: 125 64 8 8 (512000)
I1209 19:32:19.143153  1002 net.cpp:165] Memory required for data: 1698305500
I1209 19:32:19.143165  1002 layer_factory.hpp:77] Creating layer L3_b9_sum_eltwise
I1209 19:32:19.143188  1002 net.cpp:100] Creating Layer L3_b9_sum_eltwise
I1209 19:32:19.143200  1002 net.cpp:434] L3_b9_sum_eltwise <- L3_b9_cbr2_bn_top
I1209 19:32:19.143214  1002 net.cpp:434] L3_b9_sum_eltwise <- L3_b8_sum_eltwise_top_L3_b8_relu_0_split_1
I1209 19:32:19.143230  1002 net.cpp:408] L3_b9_sum_eltwise -> L3_b9_sum_eltwise_top
I1209 19:32:19.143296  1002 net.cpp:150] Setting up L3_b9_sum_eltwise
I1209 19:32:19.143316  1002 net.cpp:157] Top shape: 125 64 8 8 (512000)
I1209 19:32:19.143326  1002 net.cpp:165] Memory required for data: 1700353500
I1209 19:32:19.143337  1002 layer_factory.hpp:77] Creating layer L3_b9_relu
I1209 19:32:19.143352  1002 net.cpp:100] Creating Layer L3_b9_relu
I1209 19:32:19.143364  1002 net.cpp:434] L3_b9_relu <- L3_b9_sum_eltwise_top
I1209 19:32:19.143379  1002 net.cpp:395] L3_b9_relu -> L3_b9_sum_eltwise_top (in-place)
I1209 19:32:19.143398  1002 net.cpp:150] Setting up L3_b9_relu
I1209 19:32:19.143412  1002 net.cpp:157] Top shape: 125 64 8 8 (512000)
I1209 19:32:19.143422  1002 net.cpp:165] Memory required for data: 1702401500
I1209 19:32:19.143434  1002 layer_factory.hpp:77] Creating layer post_pool
I1209 19:32:19.143458  1002 net.cpp:100] Creating Layer post_pool
I1209 19:32:19.143471  1002 net.cpp:434] post_pool <- L3_b9_sum_eltwise_top
I1209 19:32:19.143487  1002 net.cpp:408] post_pool -> post_pool
I1209 19:32:19.143545  1002 net.cpp:150] Setting up post_pool
I1209 19:32:19.143563  1002 net.cpp:157] Top shape: 125 64 1 1 (8000)
I1209 19:32:19.143573  1002 net.cpp:165] Memory required for data: 1702433500
I1209 19:32:19.143585  1002 layer_factory.hpp:77] Creating layer post_FC
I1209 19:32:19.143718  1002 net.cpp:100] Creating Layer post_FC
I1209 19:32:19.143734  1002 net.cpp:434] post_FC <- post_pool
I1209 19:32:19.143759  1002 net.cpp:408] post_FC -> post_FC_top
I1209 19:32:19.144114  1002 net.cpp:150] Setting up post_FC
I1209 19:32:19.144134  1002 net.cpp:157] Top shape: 125 10 (1250)
I1209 19:32:19.144145  1002 net.cpp:165] Memory required for data: 1702438500
I1209 19:32:19.144163  1002 layer_factory.hpp:77] Creating layer post_FC_top_post_FC_0_split
I1209 19:32:19.144196  1002 net.cpp:100] Creating Layer post_FC_top_post_FC_0_split
I1209 19:32:19.144207  1002 net.cpp:434] post_FC_top_post_FC_0_split <- post_FC_top
I1209 19:32:19.144223  1002 net.cpp:408] post_FC_top_post_FC_0_split -> post_FC_top_post_FC_0_split_0
I1209 19:32:19.144244  1002 net.cpp:408] post_FC_top_post_FC_0_split -> post_FC_top_post_FC_0_split_1
I1209 19:32:19.144331  1002 net.cpp:150] Setting up post_FC_top_post_FC_0_split
I1209 19:32:19.144352  1002 net.cpp:157] Top shape: 125 10 (1250)
I1209 19:32:19.144366  1002 net.cpp:157] Top shape: 125 10 (1250)
I1209 19:32:19.144376  1002 net.cpp:165] Memory required for data: 1702448500
I1209 19:32:19.144388  1002 layer_factory.hpp:77] Creating layer accuracy
I1209 19:32:19.144465  1002 net.cpp:100] Creating Layer accuracy
I1209 19:32:19.144482  1002 net.cpp:434] accuracy <- post_FC_top_post_FC_0_split_0
I1209 19:32:19.144495  1002 net.cpp:434] accuracy <- label_dataLayer_1_split_0
I1209 19:32:19.144511  1002 net.cpp:408] accuracy -> accuracy
…
