…
I0818 14:09:06.062487 21603 net.cpp:322] The NetState phase (0) differed from the phase (1) specified by a rule in layer L3_b3_cbr2_bn
I0818 14:09:06.063251 21603 net.cpp:58] Initializing net from parameters: 
name: "Cifar-Resnet"
state {
  phase: TRAIN
  level: 0
  stage: ""
}
layer {
  name: "dataLayer"
  type: "Data"
  top: "data_top"
  top: "label"
  include {
    phase: TRAIN
  }
  transform_param {
    mirror: true
    crop_size: 32
    mean_file: "examples/cifar10/mean.binaryproto"
  }
  data_param {
    source: "examples/cifar10/cifar10_train_lmdb"
    batch_size: 125
    backend: LMDB
  }
  image_data_param {
    shuffle: true
  }
}
layer {
  name: "pre_conv"
  type: "Convolution"
  bottom: "data_top"
  top: "pre_conv_top"
  param {
    lr_mult: 1
    decay_mult: 1
  }
  param {
    lr_mult: 2
    decay_mult: 0
  }
  convolution_param {
    num_output: 16
    pad: 1
    kernel_size: 3
    stride: 1
    weight_filler {
      type: "msra"
    }
    bias_filler {
      type: "constant"
    }
  }
}
layer {
  name: "pre_bn"
  type: "BatchNorm"
  bottom: "pre_conv_top"
  top: "pre_bn_top"
  include {
    phase: TRAIN
  }
  batch_norm_param {
    use_global_stats: false
    moving_average_fraction: 0.95
  }
}
layer {
  name: "pre_scale"
  type: "Scale"
  bottom: "pre_bn_top"
  top: "pre_bn_top"
  scale_param {
    bias_term: true
  }
}
layer {
  name: "pre_relu"
  type: "ReLU"
  bottom: "pre_bn_top"
  top: "pre_bn_top"
}
layer {
  name: "L1_b1_cbr1_conv"
  type: "Convolution"
  bottom: "pre_bn_top"
  top: "L1_b1_cbr1_conv_top"
  param {
    lr_mult: 1
    decay_mult: 1
  }
  param {
    lr_mult: 2
    decay_mult: 0
  }
  convolution_param {
    num_output: 16
    pad: 1
    kernel_size: 3
    stride: 1
    weight_filler {
      type: "msra"
    }
    bias_filler {
      type: "constant"
    }
  }
}
layer {
  name: "L1_b1_cbr1_bn"
  type: "BatchNorm"
  bottom: "L1_b1_cbr1_conv_top"
  top: "L1_b1_cbr1_bn_top"
  include {
    phase: TRAIN
  }
  batch_norm_param {
    use_global_stats: false
    moving_average_fraction: 0.95
  }
}
layer {
  name: "L1_b1_cbr1_scale"
  type: "Scale"
  bottom: "L1_b1_cbr1_bn_top"
  top: "L1_b1_cbr1_bn_top"
  scale_param {
    bias_term: true
  }
}
layer {
  name: "L1_b1_cbr1_relu"
  type: "ReLU"
  bottom: "L1_b1_cbr1_bn_top"
  top: "L1_b1_cbr1_bn_top"
}
layer {
  name: "L1_b1_cbr2_conv"
  type: "Convolution"
  bottom: "L1_b1_cbr1_bn_top"
  top: "L1_b1_cbr2_conv_top"
  param {
    lr_mult: 1
    decay_mult: 1
  }
  param {
    lr_mult: 2
    decay_mult: 0
  }
  convolution_param {
    num_output: 16
    pad: 1
    kernel_size: 3
    stride: 1
    weight_filler {
      type: "msra"
    }
    bias_filler {
      type: "constant"
    }
  }
}
layer {
  name: "L1_b1_cbr2_bn"
  type: "BatchNorm"
  bottom: "L1_b1_cbr2_conv_top"
  top: "L1_b1_cbr2_bn_top"
  include {
    phase: TRAIN
  }
  batch_norm_param {
    use_global_stats: false
    moving_average_fraction: 0.95
  }
}
layer {
  name: "L1_b1_cbr2_scale"
  type: "Scale"
  bottom: "L1_b1_cbr2_bn_top"
  top: "L1_b1_cbr2_bn_top"
  scale_param {
    bias_term: true
  }
}
layer {
  name: "L1_b1_sum_eltwise"
  type: "Eltwise"
  bottom: "L1_b1_cbr2_bn_top"
  bottom: "pre_bn_top"
  top: "L1_b1_sum_eltwise_top"
  eltwise_param {
    operation: SUM
  }
}
layer {
  name: "L1_b1_relu"
  type: "ReLU"
  bottom: "L1_b1_sum_eltwise_top"
  top: "L1_b1_sum_eltwise_top"
}
layer {
  name: "L1_b2_cbr1_conv"
  type: "Convolution"
  bottom: "L1_b1_sum_eltwise_top"
  top: "L1_b2_cbr1_conv_top"
  param {
    lr_mult: 1
    decay_mult: 1
  }
  param {
    lr_mult: 2
    decay_mult: 0
  }
  convolution_param {
    num_output: 16
    pad: 1
    kernel_size: 3
    stride: 1
    weight_filler {
      type: "msra"
    }
    bias_filler {
      type: "constant"
    }
  }
}
layer {
  name: "L1_b2_cbr1_bn"
  type: "BatchNorm"
  bottom: "L1_b2_cbr1_conv_top"
  top: "L1_b2_cbr1_bn_top"
  include {
    phase: TRAIN
  }
  batch_norm_param {
    use_global_stats: false
    moving_average_fraction: 0.95
  }
}
layer {
  name: "L1_b2_cbr1_scale"
  type: "Scale"
  bottom: "L1_b2_cbr1_bn_top"
  top: "L1_b2_cbr1_bn_top"
  scale_param {
    bias_term: true
  }
}
layer {
  name: "L1_b2_cbr1_relu"
  type: "ReLU"
  bottom: "L1_b2_cbr1_bn_top"
  top: "L1_b2_cbr1_bn_top"
}
layer {
  name: "L1_b2_cbr2_conv"
  type: "Convolution"
  bottom: "L1_b2_cbr1_bn_top"
  top: "L1_b2_cbr2_conv_top"
  param {
    lr_mult: 1
    decay_mult: 1
  }
  param {
    lr_mult: 2
    decay_mult: 0
  }
  convolution_param {
    num_output: 16
    pad: 1
    kernel_size: 3
    stride: 1
    weight_filler {
      type: "msra"
    }
    bias_filler {
      type: "constant"
    }
  }
}
layer {
  name: "L1_b2_cbr2_bn"
  type: "BatchNorm"
  bottom: "L1_b2_cbr2_conv_top"
  top: "L1_b2_cbr2_bn_top"
  include {
    phase: TRAIN
  }
  batch_norm_param {
    use_global_stats: false
    moving_average_fraction: 0.95
  }
}
layer {
  name: "L1_b2_cbr2_scale"
  type: "Scale"
  bottom: "L1_b2_cbr2_bn_top"
  top: "L1_b2_cbr2_bn_top"
  scale_param {
    bias_term: true
  }
}
layer {
  name: "L1_b2_sum_eltwise"
  type: "Eltwise"
  bottom: "L1_b2_cbr2_bn_top"
  bottom: "L1_b1_sum_eltwise_top"
  top: "L1_b2_sum_eltwise_top"
  eltwise_param {
    operation: SUM
  }
}
layer {
  name: "L1_b2_relu"
  type: "ReLU"
  bottom: "L1_b2_sum_eltwise_top"
  top: "L1_b2_sum_eltwise_top"
}
layer {
  name: "L1_b3_cbr1_conv"
  type: "Convolution"
  bottom: "L1_b2_sum_eltwise_top"
  top: "L1_b3_cbr1_conv_top"
  param {
    lr_mult: 1
    decay_mult: 1
  }
  param {
    lr_mult: 2
    decay_mult: 0
  }
  convolution_param {
    num_output: 16
    pad: 1
    kernel_size: 3
    stride: 1
    weight_filler {
      type: "msra"
    }
    bias_filler {
      type: "constant"
    }
  }
}
layer {
  name: "L1_b3_cbr1_bn"
  type: "BatchNorm"
  bottom: "L1_b3_cbr1_conv_top"
  top: "L1_b3_cbr1_bn_top"
  include {
    phase: TRAIN
  }
  batch_norm_param {
    use_global_stats: false
    moving_average_fraction: 0.95
  }
}
layer {
  name: "L1_b3_cbr1_scale"
  type: "Scale"
  bottom: "L1_b3_cbr1_bn_top"
  top: "L1_b3_cbr1_bn_top"
  scale_param {
    bias_term: true
  }
}
layer {
  name: "L1_b3_cbr1_relu"
  type: "ReLU"
  bottom: "L1_b3_cbr1_bn_top"
  top: "L1_b3_cbr1_bn_top"
}
layer {
  name: "L1_b3_cbr2_conv"
  type: "Convolution"
  bottom: "L1_b3_cbr1_bn_top"
  top: "L1_b3_cbr2_conv_top"
  param {
    lr_mult: 1
    decay_mult: 1
  }
  param {
    lr_mult: 2
    decay_mult: 0
  }
  convolution_param {
    num_output: 16
    pad: 1
    kernel_size: 3
    stride: 1
    weight_filler {
      type: "msra"
    }
    bias_filler {
      type: "constant"
    }
  }
}
layer {
  name: "L1_b3_cbr2_bn"
  type: "BatchNorm"
  bottom: "L1_b3_cbr2_conv_top"
  top: "L1_b3_cbr2_bn_top"
  include {
    phase: TRAIN
  }
  batch_norm_param {
    use_global_stats: false
    moving_average_fraction: 0.95
  }
}
layer {
  name: "L1_b3_cbr2_scale"
  type: "Scale"
  bottom: "L1_b3_cbr2_bn_top"
  top: "L1_b3_cbr2_bn_top"
  scale_param {
    bias_term: true
  }
}
layer {
  name: "L1_b3_sum_eltwise"
  type: "Eltwise"
  bottom: "L1_b3_cbr2_bn_top"
  bottom: "L1_b2_sum_eltwise_top"
  top: "L1_b3_sum_eltwise_top"
  eltwise_param {
    operation: SUM
  }
}
layer {
  name: "L1_b3_relu"
  type: "ReLU"
  bottom: "L1_b3_sum_eltwise_top"
  top: "L1_b3_sum_eltwise_top"
}
layer {
  name: "L2_b1_cbr1_conv"
  type: "Convolution"
  bottom: "L1_b3_sum_eltwise_top"
  top: "L2_b1_cbr1_conv_top"
  param {
    lr_mult: 1
    decay_mult: 1
  }
  param {
    lr_mult: 2
    decay_mult: 0
  }
  convolution_param {
    num_output: 16
    pad: 1
    kernel_size: 3
    stride: 2
    weight_filler {
      type: "msra"
    }
    bias_filler {
      type: "constant"
    }
  }
}
layer {
  name: "L2_b1_cbr1_bn"
  type: "BatchNorm"
  bottom: "L2_b1_cbr1_conv_top"
  top: "L2_b1_cbr1_bn_top"
  include {
    phase: TRAIN
  }
  batch_norm_param {
    use_global_stats: false
    moving_average_fraction: 0.95
  }
}
layer {
  name: "L2_b1_cbr1_scale"
  type: "Scale"
  bottom: "L2_b1_cbr1_bn_top"
  top: "L2_b1_cbr1_bn_top"
  scale_param {
    bias_term: true
  }
}
layer {
  name: "L2_b1_cbr1_relu"
  type: "ReLU"
  bottom: "L2_b1_cbr1_bn_top"
  top: "L2_b1_cbr1_bn_top"
}
layer {
  name: "L2_b1_cbr2_conv"
  type: "Convolution"
  bottom: "L2_b1_cbr1_bn_top"
  top: "L2_b1_cbr2_conv_top"
  param {
    lr_mult: 1
    decay_mult: 1
  }
  param {
    lr_mult: 2
    decay_mult: 0
  }
  convolution_param {
    num_output: 16
    pad: 1
    kernel_size: 3
    stride: 1
    weight_filler {
      type: "msra"
    }
    bias_filler {
      type: "constant"
    }
  }
}
layer {
  name: "L2_b1_cbr2_bn"
  type: "BatchNorm"
  bottom: "L2_b1_cbr2_conv_top"
  top: "L2_b1_cbr2_bn_top"
  include {
    phase: TRAIN
  }
  batch_norm_param {
    use_global_stats: false
    moving_average_fraction: 0.95
  }
}
layer {
  name: "L2_b1_cbr2_scale"
  type: "Scale"
  bottom: "L2_b1_cbr2_bn_top"
  top: "L2_b1_cbr2_bn_top"
  scale_param {
    bias_term: true
  }
}
layer {
  name: "L2_b1_pool"
  type: "Pooling"
  bottom: "L1_b3_sum_eltwise_top"
  top: "L2_b1_pool"
  pooling_param {
    pool: AVE
    kernel_size: 3
    stride: 2
  }
}
layer {
  name: "L2_b1_sum_eltwise"
  type: "Eltwise"
  bottom: "L2_b1_cbr2_bn_top"
  bottom: "L2_b1_pool"
  top: "L2_b1_sum_eltwise_top"
  eltwise_param {
    operation: SUM
  }
}
layer {
  name: "L2_b1_relu"
  type: "ReLU"
  bottom: "L2_b1_sum_eltwise_top"
  top: "L2_b1_sum_eltwise_top"
}
layer {
  name: "L2_b1_zeros"
  type: "DummyData"
  top: "L2_b1_zeros"
  dummy_data_param {
    data_filler {
      type: "constant"
      value: 0
    }
    shape {
      dim: 125
      dim: 16
      dim: 16
      dim: 16
    }
  }
}
layer {
  name: "L2_b1_concat0"
  type: "Concat"
  bottom: "L2_b1_sum_eltwise_top"
  bottom: "L2_b1_zeros"
  top: "L2_b1_concat0"
  concat_param {
    axis: 1
  }
}
layer {
  name: "L2_b2_cbr1_conv"
  type: "Convolution"
  bottom: "L2_b1_concat0"
  top: "L2_b2_cbr1_conv_top"
  param {
    lr_mult: 1
    decay_mult: 1
  }
  param {
    lr_mult: 2
    decay_mult: 0
  }
  convolution_param {
    num_output: 32
    pad: 1
    kernel_size: 3
    stride: 1
    weight_filler {
      type: "msra"
    }
    bias_filler {
      type: "constant"
    }
  }
}
layer {
  name: "L2_b2_cbr1_bn"
  type: "BatchNorm"
  bottom: "L2_b2_cbr1_conv_top"
  top: "L2_b2_cbr1_bn_top"
  include {
    phase: TRAIN
  }
  batch_norm_param {
    use_global_stats: false
    moving_average_fraction: 0.95
  }
}
layer {
  name: "L2_b2_cbr1_scale"
  type: "Scale"
  bottom: "L2_b2_cbr1_bn_top"
  top: "L2_b2_cbr1_bn_top"
  scale_param {
    bias_term: true
  }
}
layer {
  name: "L2_b2_cbr1_relu"
  type: "ReLU"
  bottom: "L2_b2_cbr1_bn_top"
  top: "L2_b2_cbr1_bn_top"
}
layer {
  name: "L2_b2_cbr2_conv"
  type: "Convolution"
  bottom: "L2_b2_cbr1_bn_top"
  top: "L2_b2_cbr2_conv_top"
  param {
    lr_mult: 1
    decay_mult: 1
  }
  param {
    lr_mult: 2
    decay_mult: 0
  }
  convolution_param {
    num_output: 32
    pad: 1
    kernel_size: 3
    stride: 1
    weight_filler {
      type: "msra"
    }
    bias_filler {
      type: "constant"
    }
  }
}
layer {
  name: "L2_b2_cbr2_bn"
  type: "BatchNorm"
  bottom: "L2_b2_cbr2_conv_top"
  top: "L2_b2_cbr2_bn_top"
  include {
    phase: TRAIN
  }
  batch_norm_param {
    use_global_stats: false
    moving_average_fraction: 0.95
  }
}
layer {
  name: "L2_b2_cbr2_scale"
  type: "Scale"
  bottom: "L2_b2_cbr2_bn_top"
  top: "L2_b2_cbr2_bn_top"
  scale_param {
    bias_term: true
  }
}
layer {
  name: "L2_b2_sum_eltwise"
  type: "Eltwise"
  bottom: "L2_b2_cbr2_bn_top"
  bottom: "L2_b1_concat0"
  top: "L2_b2_sum_eltwise_top"
  eltwise_param {
    operation: SUM
  }
}
layer {
  name: "L2_b2_relu"
  type: "ReLU"
  bottom: "L2_b2_sum_eltwise_top"
  top: "L2_b2_sum_eltwise_top"
}
layer {
  name: "L2_b3_cbr1_conv"
  type: "Convolution"
  bottom: "L2_b2_sum_eltwise_top"
  top: "L2_b3_cbr1_conv_top"
  param {
    lr_mult: 1
    decay_mult: 1
  }
  param {
    lr_mult: 2
    decay_mult: 0
  }
  convolution_param {
    num_output: 32
    pad: 1
    kernel_size: 3
    stride: 1
    weight_filler {
      type: "msra"
    }
    bias_filler {
      type: "constant"
    }
  }
}
layer {
  name: "L2_b3_cbr1_bn"
  type: "BatchNorm"
  bottom: "L2_b3_cbr1_conv_top"
  top: "L2_b3_cbr1_bn_top"
  include {
    phase: TRAIN
  }
  batch_norm_param {
    use_global_stats: false
    moving_average_fraction: 0.95
  }
}
layer {
  name: "L2_b3_cbr1_scale"
  type: "Scale"
  bottom: "L2_b3_cbr1_bn_top"
  top: "L2_b3_cbr1_bn_top"
  scale_param {
    bias_term: true
  }
}
layer {
  name: "L2_b3_cbr1_relu"
  type: "ReLU"
  bottom: "L2_b3_cbr1_bn_top"
  top: "L2_b3_cbr1_bn_top"
}
layer {
  name: "L2_b3_cbr2_conv"
  type: "Convolution"
  bottom: "L2_b3_cbr1_bn_top"
  top: "L2_b3_cbr2_conv_top"
  param {
    lr_mult: 1
    decay_mult: 1
  }
  param {
    lr_mult: 2
    decay_mult: 0
  }
  convolution_param {
    num_output: 32
    pad: 1
    kernel_size: 3
    stride: 1
    weight_filler {
      type: "msra"
    }
    bias_filler {
      type: "constant"
    }
  }
}
layer {
  name: "L2_b3_cbr2_bn"
  type: "BatchNorm"
  bottom: "L2_b3_cbr2_conv_top"
  top: "L2_b3_cbr2_bn_top"
  include {
    phase: TRAIN
  }
  batch_norm_param {
    use_global_stats: false
    moving_average_fraction: 0.95
  }
}
layer {
  name: "L2_b3_cbr2_scale"
  type: "Scale"
  bottom: "L2_b3_cbr2_bn_top"
  top: "L2_b3_cbr2_bn_top"
  scale_param {
    bias_term: true
  }
}
layer {
  name: "L2_b3_sum_eltwise"
  type: "Eltwise"
  bottom: "L2_b3_cbr2_bn_top"
  bottom: "L2_b2_sum_eltwise_top"
  top: "L2_b3_sum_eltwise_top"
  eltwise_param {
    operation: SUM
  }
}
layer {
  name: "L2_b3_relu"
  type: "ReLU"
  bottom: "L2_b3_sum_eltwise_top"
  top: "L2_b3_sum_eltwise_top"
}
layer {
  name: "L3_b1_cbr1_conv"
  type: "Convolution"
  bottom: "L2_b3_sum_eltwise_top"
  top: "L3_b1_cbr1_conv_top"
  param {
    lr_mult: 1
    decay_mult: 1
  }
  param {
    lr_mult: 2
    decay_mult: 0
  }
  convolution_param {
    num_output: 32
    pad: 1
    kernel_size: 3
    stride: 2
    weight_filler {
      type: "msra"
    }
    bias_filler {
      type: "constant"
    }
  }
}
layer {
  name: "L3_b1_cbr1_bn"
  type: "BatchNorm"
  bottom: "L3_b1_cbr1_conv_top"
  top: "L3_b1_cbr1_bn_top"
  include {
    phase: TRAIN
  }
  batch_norm_param {
    use_global_stats: false
    moving_average_fraction: 0.95
  }
}
layer {
  name: "L3_b1_cbr1_scale"
  type: "Scale"
  bottom: "L3_b1_cbr1_bn_top"
  top: "L3_b1_cbr1_bn_top"
  scale_param {
    bias_term: true
  }
}
layer {
  name: "L3_b1_cbr1_relu"
  type: "ReLU"
  bottom: "L3_b1_cbr1_bn_top"
  top: "L3_b1_cbr1_bn_top"
}
layer {
  name: "L3_b1_cbr2_conv"
  type: "Convolution"
  bottom: "L3_b1_cbr1_bn_top"
  top: "L3_b1_cbr2_conv_top"
  param {
    lr_mult: 1
    decay_mult: 1
  }
  param {
    lr_mult: 2
    decay_mult: 0
  }
  convolution_param {
    num_output: 32
    pad: 1
    kernel_size: 3
    stride: 1
    weight_filler {
      type: "msra"
    }
    bias_filler {
      type: "constant"
    }
  }
}
layer {
  name: "L3_b1_cbr2_bn"
  type: "BatchNorm"
  bottom: "L3_b1_cbr2_conv_top"
  top: "L3_b1_cbr2_bn_top"
  include {
    phase: TRAIN
  }
  batch_norm_param {
    use_global_stats: false
    moving_average_fraction: 0.95
  }
}
layer {
  name: "L3_b1_cbr2_scale"
  type: "Scale"
  bottom: "L3_b1_cbr2_bn_top"
  top: "L3_b1_cbr2_bn_top"
  scale_param {
    bias_term: true
  }
}
layer {
  name: "L3_b1_pool"
  type: "Pooling"
  bottom: "L2_b3_sum_eltwise_top"
  top: "L3_b1_pool"
  pooling_param {
    pool: AVE
    kernel_size: 3
    stride: 2
  }
}
layer {
  name: "L3_b1_sum_eltwise"
  type: "Eltwise"
  bottom: "L3_b1_cbr2_bn_top"
  bottom: "L3_b1_pool"
  top: "L3_b1_sum_eltwise_top"
  eltwise_param {
    operation: SUM
  }
}
layer {
  name: "L3_b1_relu"
  type: "ReLU"
  bottom: "L3_b1_sum_eltwise_top"
  top: "L3_b1_sum_eltwise_top"
}
layer {
  name: "L3_b1_zeros"
  type: "DummyData"
  top: "L3_b1_zeros"
  dummy_data_param {
    data_filler {
      type: "constant"
      value: 0
    }
    shape {
      dim: 125
      dim: 32
      dim: 8
      dim: 8
    }
  }
}
layer {
  name: "L3_b1_concat0"
  type: "Concat"
  bottom: "L3_b1_sum_eltwise_top"
  bottom: "L3_b1_zeros"
  top: "L3_b1_concat0"
  concat_param {
    axis: 1
  }
}
layer {
  name: "L3_b2_cbr1_conv"
  type: "Convolution"
  bottom: "L3_b1_concat0"
  top: "L3_b2_cbr1_conv_top"
  param {
    lr_mult: 1
    decay_mult: 1
  }
  param {
    lr_mult: 2
    decay_mult: 0
  }
  convolution_param {
    num_output: 64
    pad: 1
    kernel_size: 3
    stride: 1
    weight_filler {
      type: "msra"
    }
    bias_filler {
      type: "constant"
    }
  }
}
layer {
  name: "L3_b2_cbr1_bn"
  type: "BatchNorm"
  bottom: "L3_b2_cbr1_conv_top"
  top: "L3_b2_cbr1_bn_top"
  include {
    phase: TRAIN
  }
  batch_norm_param {
    use_global_stats: false
    moving_average_fraction: 0.95
  }
}
layer {
  name: "L3_b2_cbr1_scale"
  type: "Scale"
  bottom: "L3_b2_cbr1_bn_top"
  top: "L3_b2_cbr1_bn_top"
  scale_param {
    bias_term: true
  }
}
layer {
  name: "L3_b2_cbr1_relu"
  type: "ReLU"
  bottom: "L3_b2_cbr1_bn_top"
  top: "L3_b2_cbr1_bn_top"
}
layer {
  name: "L3_b2_cbr2_conv"
  type: "Convolution"
  bottom: "L3_b2_cbr1_bn_top"
  top: "L3_b2_cbr2_conv_top"
  param {
    lr_mult: 1
    decay_mult: 1
  }
  param {
    lr_mult: 2
    decay_mult: 0
  }
  convolution_param {
    num_output: 64
    pad: 1
    kernel_size: 3
    stride: 1
    weight_filler {
      type: "msra"
    }
    bias_filler {
      type: "constant"
    }
  }
}
layer {
  name: "L3_b2_cbr2_bn"
  type: "BatchNorm"
  bottom: "L3_b2_cbr2_conv_top"
  top: "L3_b2_cbr2_bn_top"
  include {
    phase: TRAIN
  }
  batch_norm_param {
    use_global_stats: false
    moving_average_fraction: 0.95
  }
}
layer {
  name: "L3_b2_cbr2_scale"
  type: "Scale"
  bottom: "L3_b2_cbr2_bn_top"
  top: "L3_b2_cbr2_bn_top"
  scale_param {
    bias_term: true
  }
}
layer {
  name: "L3_b2_sum_eltwise"
  type: "Eltwise"
  bottom: "L3_b2_cbr2_bn_top"
  bottom: "L3_b1_concat0"
  top: "L3_b2_sum_eltwise_top"
  eltwise_param {
    operation: SUM
  }
}
layer {
  name: "L3_b2_relu"
  type: "ReLU"
  bottom: "L3_b2_sum_eltwise_top"
  top: "L3_b2_sum_eltwise_top"
}
layer {
  name: "L3_b3_cbr1_conv"
  type: "Convolution"
  bottom: "L3_b2_sum_eltwise_top"
  top: "L3_b3_cbr1_conv_top"
  param {
    lr_mult: 1
    decay_mult: 1
  }
  param {
    lr_mult: 2
    decay_mult: 0
  }
  convolution_param {
    num_output: 64
    pad: 1
    kernel_size: 3
    stride: 1
    weight_filler {
      type: "msra"
    }
    bias_filler {
      type: "constant"
    }
  }
}
layer {
  name: "L3_b3_cbr1_bn"
  type: "BatchNorm"
  bottom: "L3_b3_cbr1_conv_top"
  top: "L3_b3_cbr1_bn_top"
  include {
    phase: TRAIN
  }
  batch_norm_param {
    use_global_stats: false
    moving_average_fraction: 0.95
  }
}
layer {
  name: "L3_b3_cbr1_scale"
  type: "Scale"
  bottom: "L3_b3_cbr1_bn_top"
  top: "L3_b3_cbr1_bn_top"
  scale_param {
    bias_term: true
  }
}
layer {
  name: "L3_b3_cbr1_relu"
  type: "ReLU"
  bottom: "L3_b3_cbr1_bn_top"
  top: "L3_b3_cbr1_bn_top"
}
layer {
  name: "L3_b3_cbr2_conv"
  type: "Convolution"
  bottom: "L3_b3_cbr1_bn_top"
  top: "L3_b3_cbr2_conv_top"
  param {
    lr_mult: 1
    decay_mult: 1
  }
  param {
    lr_mult: 2
    decay_mult: 0
  }
  convolution_param {
    num_output: 64
    pad: 1
    kernel_size: 3
    stride: 1
    weight_filler {
      type: "msra"
    }
    bias_filler {
      type: "constant"
    }
  }
}
layer {
  name: "L3_b3_cbr2_bn"
  type: "BatchNorm"
  bottom: "L3_b3_cbr2_conv_top"
  top: "L3_b3_cbr2_bn_top"
  include {
    phase: TRAIN
  }
  batch_norm_param {
    use_global_stats: false
    moving_average_fraction: 0.95
  }
}
layer {
  name: "L3_b3_cbr2_scale"
  type: "Scale"
  bottom: "L3_b3_cbr2_bn_top"
  top: "L3_b3_cbr2_bn_top"
  scale_param {
    bias_term: true
  }
}
layer {
  name: "L3_b3_sum_eltwise"
  type: "Eltwise"
  bottom: "L3_b3_cbr2_bn_top"
  bottom: "L3_b2_sum_eltwise_top"
  top: "L3_b3_sum_eltwise_top"
  eltwise_param {
    operation: SUM
  }
}
layer {
  name: "L3_b3_relu"
  type: "ReLU"
  bottom: "L3_b3_sum_eltwise_top"
  top: "L3_b3_sum_eltwise_top"
}
layer {
  name: "post_pool"
  type: "Pooling"
  bottom: "L3_b3_sum_eltwise_top"
  top: "post_pool"
  pooling_param {
    pool: AVE
    kernel_size: 8
    stride: 1
  }
}
layer {
  name: "post_FC"
  type: "InnerProduct"
  bottom: "post_pool"
  top: "post_FC_top"
  param {
    lr_mult: 1
  }
  param {
    lr_mult: 2
  }
  inner_product_param {
    num_output: 10
    weight_filler {
      type: "xavier"
    }
    bias_filler {
      type: "constant"
    }
  }
}
layer {
  name: "accuracy"
  type: "Accuracy"
  bottom: "post_FC_top"
  bottom: "label"
  top: "accuracy"
}
layer {
  name: "loss"
  type: "SoftmaxWithLoss"
  bottom: "post_FC_top"
  bottom: "label"
  top: "loss"
}
I0818 14:09:06.064198 21603 layer_factory.hpp:77] Creating layer dataLayer
I0818 14:09:06.065397 21603 net.cpp:100] Creating Layer dataLayer
I0818 14:09:06.065474 21603 net.cpp:408] dataLayer -> data_top
I0818 14:09:06.065701 21603 net.cpp:408] dataLayer -> label
I0818 14:09:06.065819 21603 data_transformer.cpp:25] Loading mean file from: examples/cifar10/mean.binaryproto
I0818 14:09:06.076412 21608 db_lmdb.cpp:35] Opened lmdb examples/cifar10/cifar10_train_lmdb
I0818 14:09:06.098423 21603 data_layer.cpp:41] output data size: 125,3,32,32
I0818 14:09:06.105553 21603 net.cpp:150] Setting up dataLayer
I0818 14:09:06.105614 21603 net.cpp:157] Top shape: 125 3 32 32 (384000)
I0818 14:09:06.105628 21603 net.cpp:157] Top shape: 125 (125)
I0818 14:09:06.105633 21603 net.cpp:165] Memory required for data: 1536500
I0818 14:09:06.105648 21603 layer_factory.hpp:77] Creating layer label_dataLayer_1_split
I0818 14:09:06.105661 21603 net.cpp:100] Creating Layer label_dataLayer_1_split
I0818 14:09:06.105669 21603 net.cpp:434] label_dataLayer_1_split <- label
I0818 14:09:06.105686 21603 net.cpp:408] label_dataLayer_1_split -> label_dataLayer_1_split_0
I0818 14:09:06.105701 21603 net.cpp:408] label_dataLayer_1_split -> label_dataLayer_1_split_1
I0818 14:09:06.105782 21603 net.cpp:150] Setting up label_dataLayer_1_split
I0818 14:09:06.105796 21603 net.cpp:157] Top shape: 125 (125)
I0818 14:09:06.105803 21603 net.cpp:157] Top shape: 125 (125)
I0818 14:09:06.105808 21603 net.cpp:165] Memory required for data: 1537500
I0818 14:09:06.105813 21603 layer_factory.hpp:77] Creating layer pre_conv
I0818 14:09:06.105873 21603 net.cpp:100] Creating Layer pre_conv
I0818 14:09:06.105885 21603 net.cpp:434] pre_conv <- data_top
I0818 14:09:06.105901 21603 net.cpp:408] pre_conv -> pre_conv_top
I0818 14:09:06.107622 21603 net.cpp:150] Setting up pre_conv
I0818 14:09:06.107641 21603 net.cpp:157] Top shape: 125 16 32 32 (2048000)
I0818 14:09:06.107648 21603 net.cpp:165] Memory required for data: 9729500
I0818 14:09:06.107697 21603 layer_factory.hpp:77] Creating layer pre_bn
I0818 14:09:06.107774 21603 net.cpp:100] Creating Layer pre_bn
I0818 14:09:06.107786 21603 net.cpp:434] pre_bn <- pre_conv_top
I0818 14:09:06.107795 21603 net.cpp:408] pre_bn -> pre_bn_top
I0818 14:09:06.108125 21609 blocking_queue.cpp:50] Waiting for data
I0818 14:09:06.108268 21603 net.cpp:150] Setting up pre_bn
I0818 14:09:06.108288 21603 net.cpp:157] Top shape: 125 16 32 32 (2048000)
I0818 14:09:06.108294 21603 net.cpp:165] Memory required for data: 17921500
I0818 14:09:06.108311 21603 layer_factory.hpp:77] Creating layer pre_scale
I0818 14:09:06.108369 21603 net.cpp:100] Creating Layer pre_scale
I0818 14:09:06.108379 21603 net.cpp:434] pre_scale <- pre_bn_top
I0818 14:09:06.108388 21603 net.cpp:395] pre_scale -> pre_bn_top (in-place)
I0818 14:09:06.108561 21603 layer_factory.hpp:77] Creating layer pre_scale
I0818 14:09:06.108824 21603 net.cpp:150] Setting up pre_scale
I0818 14:09:06.108839 21603 net.cpp:157] Top shape: 125 16 32 32 (2048000)
I0818 14:09:06.108845 21603 net.cpp:165] Memory required for data: 26113500
I0818 14:09:06.108855 21603 layer_factory.hpp:77] Creating layer pre_relu
I0818 14:09:06.108897 21603 net.cpp:100] Creating Layer pre_relu
I0818 14:09:06.108906 21603 net.cpp:434] pre_relu <- pre_bn_top
I0818 14:09:06.108917 21603 net.cpp:395] pre_relu -> pre_bn_top (in-place)
I0818 14:09:06.108929 21603 net.cpp:150] Setting up pre_relu
I0818 14:09:06.108937 21603 net.cpp:157] Top shape: 125 16 32 32 (2048000)
I0818 14:09:06.108942 21603 net.cpp:165] Memory required for data: 34305500
I0818 14:09:06.108947 21603 layer_factory.hpp:77] Creating layer pre_bn_top_pre_relu_0_split
I0818 14:09:06.108958 21603 net.cpp:100] Creating Layer pre_bn_top_pre_relu_0_split
I0818 14:09:06.108963 21603 net.cpp:434] pre_bn_top_pre_relu_0_split <- pre_bn_top
I0818 14:09:06.108981 21603 net.cpp:408] pre_bn_top_pre_relu_0_split -> pre_bn_top_pre_relu_0_split_0
I0818 14:09:06.108991 21603 net.cpp:408] pre_bn_top_pre_relu_0_split -> pre_bn_top_pre_relu_0_split_1
I0818 14:09:06.109040 21603 net.cpp:150] Setting up pre_bn_top_pre_relu_0_split
I0818 14:09:06.109050 21603 net.cpp:157] Top shape: 125 16 32 32 (2048000)
I0818 14:09:06.109057 21603 net.cpp:157] Top shape: 125 16 32 32 (2048000)
I0818 14:09:06.109062 21603 net.cpp:165] Memory required for data: 50689500
I0818 14:09:06.109067 21603 layer_factory.hpp:77] Creating layer L1_b1_cbr1_conv
I0818 14:09:06.109079 21603 net.cpp:100] Creating Layer L1_b1_cbr1_conv
I0818 14:09:06.109086 21603 net.cpp:434] L1_b1_cbr1_conv <- pre_bn_top_pre_relu_0_split_0
I0818 14:09:06.109097 21603 net.cpp:408] L1_b1_cbr1_conv -> L1_b1_cbr1_conv_top
I0818 14:09:06.109424 21603 net.cpp:150] Setting up L1_b1_cbr1_conv
I0818 14:09:06.109441 21603 net.cpp:157] Top shape: 125 16 32 32 (2048000)
I0818 14:09:06.109447 21603 net.cpp:165] Memory required for data: 58881500
I0818 14:09:06.109459 21603 layer_factory.hpp:77] Creating layer L1_b1_cbr1_bn
I0818 14:09:06.109473 21603 net.cpp:100] Creating Layer L1_b1_cbr1_bn
I0818 14:09:06.109479 21603 net.cpp:434] L1_b1_cbr1_bn <- L1_b1_cbr1_conv_top
I0818 14:09:06.109493 21603 net.cpp:408] L1_b1_cbr1_bn -> L1_b1_cbr1_bn_top
I0818 14:09:06.109745 21603 net.cpp:150] Setting up L1_b1_cbr1_bn
I0818 14:09:06.109760 21603 net.cpp:157] Top shape: 125 16 32 32 (2048000)
I0818 14:09:06.109764 21603 net.cpp:165] Memory required for data: 67073500
I0818 14:09:06.109776 21603 layer_factory.hpp:77] Creating layer L1_b1_cbr1_scale
I0818 14:09:06.109783 21603 net.cpp:100] Creating Layer L1_b1_cbr1_scale
I0818 14:09:06.109789 21603 net.cpp:434] L1_b1_cbr1_scale <- L1_b1_cbr1_bn_top
I0818 14:09:06.109797 21603 net.cpp:395] L1_b1_cbr1_scale -> L1_b1_cbr1_bn_top (in-place)
I0818 14:09:06.109851 21603 layer_factory.hpp:77] Creating layer L1_b1_cbr1_scale
I0818 14:09:06.109987 21603 net.cpp:150] Setting up L1_b1_cbr1_scale
I0818 14:09:06.109999 21603 net.cpp:157] Top shape: 125 16 32 32 (2048000)
I0818 14:09:06.110004 21603 net.cpp:165] Memory required for data: 75265500
I0818 14:09:06.110015 21603 layer_factory.hpp:77] Creating layer L1_b1_cbr1_relu
I0818 14:09:06.110023 21603 net.cpp:100] Creating Layer L1_b1_cbr1_relu
I0818 14:09:06.110028 21603 net.cpp:434] L1_b1_cbr1_relu <- L1_b1_cbr1_bn_top
I0818 14:09:06.110040 21603 net.cpp:395] L1_b1_cbr1_relu -> L1_b1_cbr1_bn_top (in-place)
I0818 14:09:06.110050 21603 net.cpp:150] Setting up L1_b1_cbr1_relu
I0818 14:09:06.110057 21603 net.cpp:157] Top shape: 125 16 32 32 (2048000)
I0818 14:09:06.110062 21603 net.cpp:165] Memory required for data: 83457500
I0818 14:09:06.110067 21603 layer_factory.hpp:77] Creating layer L1_b1_cbr2_conv
I0818 14:09:06.110081 21603 net.cpp:100] Creating Layer L1_b1_cbr2_conv
I0818 14:09:06.110087 21603 net.cpp:434] L1_b1_cbr2_conv <- L1_b1_cbr1_bn_top
I0818 14:09:06.110095 21603 net.cpp:408] L1_b1_cbr2_conv -> L1_b1_cbr2_conv_top
I0818 14:09:06.110402 21603 net.cpp:150] Setting up L1_b1_cbr2_conv
I0818 14:09:06.110416 21603 net.cpp:157] Top shape: 125 16 32 32 (2048000)
I0818 14:09:06.110422 21603 net.cpp:165] Memory required for data: 91649500
I0818 14:09:06.110431 21603 layer_factory.hpp:77] Creating layer L1_b1_cbr2_bn
I0818 14:09:06.110443 21603 net.cpp:100] Creating Layer L1_b1_cbr2_bn
I0818 14:09:06.110450 21603 net.cpp:434] L1_b1_cbr2_bn <- L1_b1_cbr2_conv_top
I0818 14:09:06.110458 21603 net.cpp:408] L1_b1_cbr2_bn -> L1_b1_cbr2_bn_top
I0818 14:09:06.110698 21603 net.cpp:150] Setting up L1_b1_cbr2_bn
I0818 14:09:06.110713 21603 net.cpp:157] Top shape: 125 16 32 32 (2048000)
I0818 14:09:06.110718 21603 net.cpp:165] Memory required for data: 99841500
I0818 14:09:06.110733 21603 layer_factory.hpp:77] Creating layer L1_b1_cbr2_scale
I0818 14:09:06.110743 21603 net.cpp:100] Creating Layer L1_b1_cbr2_scale
I0818 14:09:06.110749 21603 net.cpp:434] L1_b1_cbr2_scale <- L1_b1_cbr2_bn_top
I0818 14:09:06.110755 21603 net.cpp:395] L1_b1_cbr2_scale -> L1_b1_cbr2_bn_top (in-place)
I0818 14:09:06.110824 21603 layer_factory.hpp:77] Creating layer L1_b1_cbr2_scale
I0818 14:09:06.110960 21603 net.cpp:150] Setting up L1_b1_cbr2_scale
I0818 14:09:06.110972 21603 net.cpp:157] Top shape: 125 16 32 32 (2048000)
I0818 14:09:06.110977 21603 net.cpp:165] Memory required for data: 108033500
I0818 14:09:06.110986 21603 layer_factory.hpp:77] Creating layer L1_b1_sum_eltwise
I0818 14:09:06.111039 21603 net.cpp:100] Creating Layer L1_b1_sum_eltwise
I0818 14:09:06.111052 21603 net.cpp:434] L1_b1_sum_eltwise <- L1_b1_cbr2_bn_top
I0818 14:09:06.111058 21603 net.cpp:434] L1_b1_sum_eltwise <- pre_bn_top_pre_relu_0_split_1
I0818 14:09:06.111066 21603 net.cpp:408] L1_b1_sum_eltwise -> L1_b1_sum_eltwise_top
I0818 14:09:06.111150 21603 net.cpp:150] Setting up L1_b1_sum_eltwise
I0818 14:09:06.111166 21603 net.cpp:157] Top shape: 125 16 32 32 (2048000)
I0818 14:09:06.111171 21603 net.cpp:165] Memory required for data: 116225500
I0818 14:09:06.111176 21603 layer_factory.hpp:77] Creating layer L1_b1_relu
I0818 14:09:06.111184 21603 net.cpp:100] Creating Layer L1_b1_relu
I0818 14:09:06.111191 21603 net.cpp:434] L1_b1_relu <- L1_b1_sum_eltwise_top
I0818 14:09:06.111197 21603 net.cpp:395] L1_b1_relu -> L1_b1_sum_eltwise_top (in-place)
I0818 14:09:06.111207 21603 net.cpp:150] Setting up L1_b1_relu
I0818 14:09:06.111214 21603 net.cpp:157] Top shape: 125 16 32 32 (2048000)
I0818 14:09:06.111219 21603 net.cpp:165] Memory required for data: 124417500
I0818 14:09:06.111223 21603 layer_factory.hpp:77] Creating layer L1_b1_sum_eltwise_top_L1_b1_relu_0_split
I0818 14:09:06.111232 21603 net.cpp:100] Creating Layer L1_b1_sum_eltwise_top_L1_b1_relu_0_split
I0818 14:09:06.111238 21603 net.cpp:434] L1_b1_sum_eltwise_top_L1_b1_relu_0_split <- L1_b1_sum_eltwise_top
I0818 14:09:06.111248 21603 net.cpp:408] L1_b1_sum_eltwise_top_L1_b1_relu_0_split -> L1_b1_sum_eltwise_top_L1_b1_relu_0_split_0
I0818 14:09:06.111258 21603 net.cpp:408] L1_b1_sum_eltwise_top_L1_b1_relu_0_split -> L1_b1_sum_eltwise_top_L1_b1_relu_0_split_1
I0818 14:09:06.111299 21603 net.cpp:150] Setting up L1_b1_sum_eltwise_top_L1_b1_relu_0_split
I0818 14:09:06.111311 21603 net.cpp:157] Top shape: 125 16 32 32 (2048000)
I0818 14:09:06.111318 21603 net.cpp:157] Top shape: 125 16 32 32 (2048000)
I0818 14:09:06.111323 21603 net.cpp:165] Memory required for data: 140801500
I0818 14:09:06.111328 21603 layer_factory.hpp:77] Creating layer L1_b2_cbr1_conv
I0818 14:09:06.111342 21603 net.cpp:100] Creating Layer L1_b2_cbr1_conv
I0818 14:09:06.111348 21603 net.cpp:434] L1_b2_cbr1_conv <- L1_b1_sum_eltwise_top_L1_b1_relu_0_split_0
I0818 14:09:06.111357 21603 net.cpp:408] L1_b2_cbr1_conv -> L1_b2_cbr1_conv_top
I0818 14:09:06.111667 21603 net.cpp:150] Setting up L1_b2_cbr1_conv
I0818 14:09:06.111682 21603 net.cpp:157] Top shape: 125 16 32 32 (2048000)
I0818 14:09:06.111687 21603 net.cpp:165] Memory required for data: 148993500
I0818 14:09:06.111696 21603 layer_factory.hpp:77] Creating layer L1_b2_cbr1_bn
I0818 14:09:06.111706 21603 net.cpp:100] Creating Layer L1_b2_cbr1_bn
I0818 14:09:06.111714 21603 net.cpp:434] L1_b2_cbr1_bn <- L1_b2_cbr1_conv_top
I0818 14:09:06.111723 21603 net.cpp:408] L1_b2_cbr1_bn -> L1_b2_cbr1_bn_top
I0818 14:09:06.111959 21603 net.cpp:150] Setting up L1_b2_cbr1_bn
I0818 14:09:06.111973 21603 net.cpp:157] Top shape: 125 16 32 32 (2048000)
I0818 14:09:06.111977 21603 net.cpp:165] Memory required for data: 157185500
I0818 14:09:06.111989 21603 layer_factory.hpp:77] Creating layer L1_b2_cbr1_scale
I0818 14:09:06.111997 21603 net.cpp:100] Creating Layer L1_b2_cbr1_scale
I0818 14:09:06.112004 21603 net.cpp:434] L1_b2_cbr1_scale <- L1_b2_cbr1_bn_top
I0818 14:09:06.112013 21603 net.cpp:395] L1_b2_cbr1_scale -> L1_b2_cbr1_bn_top (in-place)
I0818 14:09:06.112066 21603 layer_factory.hpp:77] Creating layer L1_b2_cbr1_scale
I0818 14:09:06.112211 21603 net.cpp:150] Setting up L1_b2_cbr1_scale
I0818 14:09:06.112226 21603 net.cpp:157] Top shape: 125 16 32 32 (2048000)
I0818 14:09:06.112231 21603 net.cpp:165] Memory required for data: 165377500
I0818 14:09:06.112239 21603 layer_factory.hpp:77] Creating layer L1_b2_cbr1_relu
I0818 14:09:06.112256 21603 net.cpp:100] Creating Layer L1_b2_cbr1_relu
I0818 14:09:06.112262 21603 net.cpp:434] L1_b2_cbr1_relu <- L1_b2_cbr1_bn_top
I0818 14:09:06.112269 21603 net.cpp:395] L1_b2_cbr1_relu -> L1_b2_cbr1_bn_top (in-place)
I0818 14:09:06.112282 21603 net.cpp:150] Setting up L1_b2_cbr1_relu
I0818 14:09:06.112289 21603 net.cpp:157] Top shape: 125 16 32 32 (2048000)
I0818 14:09:06.112293 21603 net.cpp:165] Memory required for data: 173569500
I0818 14:09:06.112298 21603 layer_factory.hpp:77] Creating layer L1_b2_cbr2_conv
I0818 14:09:06.112309 21603 net.cpp:100] Creating Layer L1_b2_cbr2_conv
I0818 14:09:06.112318 21603 net.cpp:434] L1_b2_cbr2_conv <- L1_b2_cbr1_bn_top
I0818 14:09:06.112326 21603 net.cpp:408] L1_b2_cbr2_conv -> L1_b2_cbr2_conv_top
I0818 14:09:06.112633 21603 net.cpp:150] Setting up L1_b2_cbr2_conv
I0818 14:09:06.112648 21603 net.cpp:157] Top shape: 125 16 32 32 (2048000)
I0818 14:09:06.112653 21603 net.cpp:165] Memory required for data: 181761500
I0818 14:09:06.112660 21603 layer_factory.hpp:77] Creating layer L1_b2_cbr2_bn
I0818 14:09:06.112673 21603 net.cpp:100] Creating Layer L1_b2_cbr2_bn
I0818 14:09:06.112679 21603 net.cpp:434] L1_b2_cbr2_bn <- L1_b2_cbr2_conv_top
I0818 14:09:06.112689 21603 net.cpp:408] L1_b2_cbr2_bn -> L1_b2_cbr2_bn_top
I0818 14:09:06.112920 21603 net.cpp:150] Setting up L1_b2_cbr2_bn
I0818 14:09:06.112933 21603 net.cpp:157] Top shape: 125 16 32 32 (2048000)
I0818 14:09:06.112939 21603 net.cpp:165] Memory required for data: 189953500
I0818 14:09:06.112957 21603 layer_factory.hpp:77] Creating layer L1_b2_cbr2_scale
I0818 14:09:06.112967 21603 net.cpp:100] Creating Layer L1_b2_cbr2_scale
I0818 14:09:06.112972 21603 net.cpp:434] L1_b2_cbr2_scale <- L1_b2_cbr2_bn_top
I0818 14:09:06.112983 21603 net.cpp:395] L1_b2_cbr2_scale -> L1_b2_cbr2_bn_top (in-place)
I0818 14:09:06.113034 21603 layer_factory.hpp:77] Creating layer L1_b2_cbr2_scale
I0818 14:09:06.113183 21603 net.cpp:150] Setting up L1_b2_cbr2_scale
I0818 14:09:06.113196 21603 net.cpp:157] Top shape: 125 16 32 32 (2048000)
I0818 14:09:06.113201 21603 net.cpp:165] Memory required for data: 198145500
I0818 14:09:06.113211 21603 layer_factory.hpp:77] Creating layer L1_b2_sum_eltwise
I0818 14:09:06.113224 21603 net.cpp:100] Creating Layer L1_b2_sum_eltwise
I0818 14:09:06.113229 21603 net.cpp:434] L1_b2_sum_eltwise <- L1_b2_cbr2_bn_top
I0818 14:09:06.113236 21603 net.cpp:434] L1_b2_sum_eltwise <- L1_b1_sum_eltwise_top_L1_b1_relu_0_split_1
I0818 14:09:06.113245 21603 net.cpp:408] L1_b2_sum_eltwise -> L1_b2_sum_eltwise_top
I0818 14:09:06.113278 21603 net.cpp:150] Setting up L1_b2_sum_eltwise
I0818 14:09:06.113287 21603 net.cpp:157] Top shape: 125 16 32 32 (2048000)
I0818 14:09:06.113292 21603 net.cpp:165] Memory required for data: 206337500
I0818 14:09:06.113297 21603 layer_factory.hpp:77] Creating layer L1_b2_relu
I0818 14:09:06.113306 21603 net.cpp:100] Creating Layer L1_b2_relu
I0818 14:09:06.113310 21603 net.cpp:434] L1_b2_relu <- L1_b2_sum_eltwise_top
I0818 14:09:06.113320 21603 net.cpp:395] L1_b2_relu -> L1_b2_sum_eltwise_top (in-place)
I0818 14:09:06.113330 21603 net.cpp:150] Setting up L1_b2_relu
I0818 14:09:06.113337 21603 net.cpp:157] Top shape: 125 16 32 32 (2048000)
I0818 14:09:06.113342 21603 net.cpp:165] Memory required for data: 214529500
I0818 14:09:06.113346 21603 layer_factory.hpp:77] Creating layer L1_b2_sum_eltwise_top_L1_b2_relu_0_split
I0818 14:09:06.113353 21603 net.cpp:100] Creating Layer L1_b2_sum_eltwise_top_L1_b2_relu_0_split
I0818 14:09:06.113359 21603 net.cpp:434] L1_b2_sum_eltwise_top_L1_b2_relu_0_split <- L1_b2_sum_eltwise_top
I0818 14:09:06.113366 21603 net.cpp:408] L1_b2_sum_eltwise_top_L1_b2_relu_0_split -> L1_b2_sum_eltwise_top_L1_b2_relu_0_split_0
I0818 14:09:06.113375 21603 net.cpp:408] L1_b2_sum_eltwise_top_L1_b2_relu_0_split -> L1_b2_sum_eltwise_top_L1_b2_relu_0_split_1
I0818 14:09:06.113418 21603 net.cpp:150] Setting up L1_b2_sum_eltwise_top_L1_b2_relu_0_split
I0818 14:09:06.113430 21603 net.cpp:157] Top shape: 125 16 32 32 (2048000)
I0818 14:09:06.113445 21603 net.cpp:157] Top shape: 125 16 32 32 (2048000)
I0818 14:09:06.113450 21603 net.cpp:165] Memory required for data: 230913500
I0818 14:09:06.113454 21603 layer_factory.hpp:77] Creating layer L1_b3_cbr1_conv
I0818 14:09:06.113466 21603 net.cpp:100] Creating Layer L1_b3_cbr1_conv
I0818 14:09:06.113471 21603 net.cpp:434] L1_b3_cbr1_conv <- L1_b2_sum_eltwise_top_L1_b2_relu_0_split_0
I0818 14:09:06.113483 21603 net.cpp:408] L1_b3_cbr1_conv -> L1_b3_cbr1_conv_top
I0818 14:09:06.113781 21603 net.cpp:150] Setting up L1_b3_cbr1_conv
I0818 14:09:06.113795 21603 net.cpp:157] Top shape: 125 16 32 32 (2048000)
I0818 14:09:06.113801 21603 net.cpp:165] Memory required for data: 239105500
I0818 14:09:06.113809 21603 layer_factory.hpp:77] Creating layer L1_b3_cbr1_bn
I0818 14:09:06.113818 21603 net.cpp:100] Creating Layer L1_b3_cbr1_bn
I0818 14:09:06.113824 21603 net.cpp:434] L1_b3_cbr1_bn <- L1_b3_cbr1_conv_top
I0818 14:09:06.113836 21603 net.cpp:408] L1_b3_cbr1_bn -> L1_b3_cbr1_bn_top
I0818 14:09:06.114071 21603 net.cpp:150] Setting up L1_b3_cbr1_bn
I0818 14:09:06.114084 21603 net.cpp:157] Top shape: 125 16 32 32 (2048000)
I0818 14:09:06.114089 21603 net.cpp:165] Memory required for data: 247297500
I0818 14:09:06.114099 21603 layer_factory.hpp:77] Creating layer L1_b3_cbr1_scale
I0818 14:09:06.114111 21603 net.cpp:100] Creating Layer L1_b3_cbr1_scale
I0818 14:09:06.114122 21603 net.cpp:434] L1_b3_cbr1_scale <- L1_b3_cbr1_bn_top
I0818 14:09:06.114131 21603 net.cpp:395] L1_b3_cbr1_scale -> L1_b3_cbr1_bn_top (in-place)
I0818 14:09:06.114183 21603 layer_factory.hpp:77] Creating layer L1_b3_cbr1_scale
I0818 14:09:06.114323 21603 net.cpp:150] Setting up L1_b3_cbr1_scale
I0818 14:09:06.114336 21603 net.cpp:157] Top shape: 125 16 32 32 (2048000)
I0818 14:09:06.114341 21603 net.cpp:165] Memory required for data: 255489500
I0818 14:09:06.114349 21603 layer_factory.hpp:77] Creating layer L1_b3_cbr1_relu
I0818 14:09:06.114362 21603 net.cpp:100] Creating Layer L1_b3_cbr1_relu
I0818 14:09:06.114367 21603 net.cpp:434] L1_b3_cbr1_relu <- L1_b3_cbr1_bn_top
I0818 14:09:06.114374 21603 net.cpp:395] L1_b3_cbr1_relu -> L1_b3_cbr1_bn_top (in-place)
I0818 14:09:06.114383 21603 net.cpp:150] Setting up L1_b3_cbr1_relu
I0818 14:09:06.114392 21603 net.cpp:157] Top shape: 125 16 32 32 (2048000)
I0818 14:09:06.114395 21603 net.cpp:165] Memory required for data: 263681500
I0818 14:09:06.114400 21603 layer_factory.hpp:77] Creating layer L1_b3_cbr2_conv
I0818 14:09:06.114414 21603 net.cpp:100] Creating Layer L1_b3_cbr2_conv
I0818 14:09:06.114420 21603 net.cpp:434] L1_b3_cbr2_conv <- L1_b3_cbr1_bn_top
I0818 14:09:06.114430 21603 net.cpp:408] L1_b3_cbr2_conv -> L1_b3_cbr2_conv_top
I0818 14:09:06.114735 21603 net.cpp:150] Setting up L1_b3_cbr2_conv
I0818 14:09:06.114749 21603 net.cpp:157] Top shape: 125 16 32 32 (2048000)
I0818 14:09:06.114754 21603 net.cpp:165] Memory required for data: 271873500
I0818 14:09:06.114763 21603 layer_factory.hpp:77] Creating layer L1_b3_cbr2_bn
I0818 14:09:06.114780 21603 net.cpp:100] Creating Layer L1_b3_cbr2_bn
I0818 14:09:06.114787 21603 net.cpp:434] L1_b3_cbr2_bn <- L1_b3_cbr2_conv_top
I0818 14:09:06.114796 21603 net.cpp:408] L1_b3_cbr2_bn -> L1_b3_cbr2_bn_top
I0818 14:09:06.115031 21603 net.cpp:150] Setting up L1_b3_cbr2_bn
I0818 14:09:06.115046 21603 net.cpp:157] Top shape: 125 16 32 32 (2048000)
I0818 14:09:06.115051 21603 net.cpp:165] Memory required for data: 280065500
I0818 14:09:06.115062 21603 layer_factory.hpp:77] Creating layer L1_b3_cbr2_scale
I0818 14:09:06.115072 21603 net.cpp:100] Creating Layer L1_b3_cbr2_scale
I0818 14:09:06.115077 21603 net.cpp:434] L1_b3_cbr2_scale <- L1_b3_cbr2_bn_top
I0818 14:09:06.115084 21603 net.cpp:395] L1_b3_cbr2_scale -> L1_b3_cbr2_bn_top (in-place)
I0818 14:09:06.115150 21603 layer_factory.hpp:77] Creating layer L1_b3_cbr2_scale
I0818 14:09:06.115293 21603 net.cpp:150] Setting up L1_b3_cbr2_scale
I0818 14:09:06.115305 21603 net.cpp:157] Top shape: 125 16 32 32 (2048000)
I0818 14:09:06.115310 21603 net.cpp:165] Memory required for data: 288257500
I0818 14:09:06.115327 21603 layer_factory.hpp:77] Creating layer L1_b3_sum_eltwise
I0818 14:09:06.115339 21603 net.cpp:100] Creating Layer L1_b3_sum_eltwise
I0818 14:09:06.115346 21603 net.cpp:434] L1_b3_sum_eltwise <- L1_b3_cbr2_bn_top
I0818 14:09:06.115352 21603 net.cpp:434] L1_b3_sum_eltwise <- L1_b2_sum_eltwise_top_L1_b2_relu_0_split_1
I0818 14:09:06.115363 21603 net.cpp:408] L1_b3_sum_eltwise -> L1_b3_sum_eltwise_top
I0818 14:09:06.115394 21603 net.cpp:150] Setting up L1_b3_sum_eltwise
I0818 14:09:06.115406 21603 net.cpp:157] Top shape: 125 16 32 32 (2048000)
I0818 14:09:06.115411 21603 net.cpp:165] Memory required for data: 296449500
I0818 14:09:06.115417 21603 layer_factory.hpp:77] Creating layer L1_b3_relu
I0818 14:09:06.115427 21603 net.cpp:100] Creating Layer L1_b3_relu
I0818 14:09:06.115433 21603 net.cpp:434] L1_b3_relu <- L1_b3_sum_eltwise_top
I0818 14:09:06.115440 21603 net.cpp:395] L1_b3_relu -> L1_b3_sum_eltwise_top (in-place)
I0818 14:09:06.115450 21603 net.cpp:150] Setting up L1_b3_relu
I0818 14:09:06.115458 21603 net.cpp:157] Top shape: 125 16 32 32 (2048000)
I0818 14:09:06.115461 21603 net.cpp:165] Memory required for data: 304641500
I0818 14:09:06.115466 21603 layer_factory.hpp:77] Creating layer L1_b3_sum_eltwise_top_L1_b3_relu_0_split
I0818 14:09:06.115473 21603 net.cpp:100] Creating Layer L1_b3_sum_eltwise_top_L1_b3_relu_0_split
I0818 14:09:06.115479 21603 net.cpp:434] L1_b3_sum_eltwise_top_L1_b3_relu_0_split <- L1_b3_sum_eltwise_top
I0818 14:09:06.115486 21603 net.cpp:408] L1_b3_sum_eltwise_top_L1_b3_relu_0_split -> L1_b3_sum_eltwise_top_L1_b3_relu_0_split_0
I0818 14:09:06.115495 21603 net.cpp:408] L1_b3_sum_eltwise_top_L1_b3_relu_0_split -> L1_b3_sum_eltwise_top_L1_b3_relu_0_split_1
I0818 14:09:06.115541 21603 net.cpp:150] Setting up L1_b3_sum_eltwise_top_L1_b3_relu_0_split
I0818 14:09:06.115553 21603 net.cpp:157] Top shape: 125 16 32 32 (2048000)
I0818 14:09:06.115561 21603 net.cpp:157] Top shape: 125 16 32 32 (2048000)
I0818 14:09:06.115564 21603 net.cpp:165] Memory required for data: 321025500
I0818 14:09:06.115569 21603 layer_factory.hpp:77] Creating layer L2_b1_cbr1_conv
I0818 14:09:06.115583 21603 net.cpp:100] Creating Layer L2_b1_cbr1_conv
I0818 14:09:06.115589 21603 net.cpp:434] L2_b1_cbr1_conv <- L1_b3_sum_eltwise_top_L1_b3_relu_0_split_0
I0818 14:09:06.115598 21603 net.cpp:408] L2_b1_cbr1_conv -> L2_b1_cbr1_conv_top
I0818 14:09:06.115906 21603 net.cpp:150] Setting up L2_b1_cbr1_conv
I0818 14:09:06.115919 21603 net.cpp:157] Top shape: 125 16 16 16 (512000)
I0818 14:09:06.115924 21603 net.cpp:165] Memory required for data: 323073500
I0818 14:09:06.115932 21603 layer_factory.hpp:77] Creating layer L2_b1_cbr1_bn
I0818 14:09:06.115944 21603 net.cpp:100] Creating Layer L2_b1_cbr1_bn
I0818 14:09:06.115950 21603 net.cpp:434] L2_b1_cbr1_bn <- L2_b1_cbr1_conv_top
I0818 14:09:06.115959 21603 net.cpp:408] L2_b1_cbr1_bn -> L2_b1_cbr1_bn_top
I0818 14:09:06.116199 21603 net.cpp:150] Setting up L2_b1_cbr1_bn
I0818 14:09:06.116214 21603 net.cpp:157] Top shape: 125 16 16 16 (512000)
I0818 14:09:06.116220 21603 net.cpp:165] Memory required for data: 325121500
I0818 14:09:06.116230 21603 layer_factory.hpp:77] Creating layer L2_b1_cbr1_scale
I0818 14:09:06.116240 21603 net.cpp:100] Creating Layer L2_b1_cbr1_scale
I0818 14:09:06.116245 21603 net.cpp:434] L2_b1_cbr1_scale <- L2_b1_cbr1_bn_top
I0818 14:09:06.116253 21603 net.cpp:395] L2_b1_cbr1_scale -> L2_b1_cbr1_bn_top (in-place)
I0818 14:09:06.116307 21603 layer_factory.hpp:77] Creating layer L2_b1_cbr1_scale
I0818 14:09:06.116451 21603 net.cpp:150] Setting up L2_b1_cbr1_scale
I0818 14:09:06.116464 21603 net.cpp:157] Top shape: 125 16 16 16 (512000)
I0818 14:09:06.116469 21603 net.cpp:165] Memory required for data: 327169500
I0818 14:09:06.116478 21603 layer_factory.hpp:77] Creating layer L2_b1_cbr1_relu
I0818 14:09:06.116487 21603 net.cpp:100] Creating Layer L2_b1_cbr1_relu
I0818 14:09:06.116492 21603 net.cpp:434] L2_b1_cbr1_relu <- L2_b1_cbr1_bn_top
I0818 14:09:06.116503 21603 net.cpp:395] L2_b1_cbr1_relu -> L2_b1_cbr1_bn_top (in-place)
I0818 14:09:06.116513 21603 net.cpp:150] Setting up L2_b1_cbr1_relu
I0818 14:09:06.116526 21603 net.cpp:157] Top shape: 125 16 16 16 (512000)
I0818 14:09:06.116531 21603 net.cpp:165] Memory required for data: 329217500
I0818 14:09:06.116536 21603 layer_factory.hpp:77] Creating layer L2_b1_cbr2_conv
I0818 14:09:06.116550 21603 net.cpp:100] Creating Layer L2_b1_cbr2_conv
I0818 14:09:06.116556 21603 net.cpp:434] L2_b1_cbr2_conv <- L2_b1_cbr1_bn_top
I0818 14:09:06.116564 21603 net.cpp:408] L2_b1_cbr2_conv -> L2_b1_cbr2_conv_top
I0818 14:09:06.116874 21603 net.cpp:150] Setting up L2_b1_cbr2_conv
I0818 14:09:06.116888 21603 net.cpp:157] Top shape: 125 16 16 16 (512000)
I0818 14:09:06.116894 21603 net.cpp:165] Memory required for data: 331265500
I0818 14:09:06.116902 21603 layer_factory.hpp:77] Creating layer L2_b1_cbr2_bn
I0818 14:09:06.116914 21603 net.cpp:100] Creating Layer L2_b1_cbr2_bn
I0818 14:09:06.116920 21603 net.cpp:434] L2_b1_cbr2_bn <- L2_b1_cbr2_conv_top
I0818 14:09:06.116928 21603 net.cpp:408] L2_b1_cbr2_bn -> L2_b1_cbr2_bn_top
I0818 14:09:06.117174 21603 net.cpp:150] Setting up L2_b1_cbr2_bn
I0818 14:09:06.117188 21603 net.cpp:157] Top shape: 125 16 16 16 (512000)
I0818 14:09:06.117193 21603 net.cpp:165] Memory required for data: 333313500
I0818 14:09:06.117204 21603 layer_factory.hpp:77] Creating layer L2_b1_cbr2_scale
I0818 14:09:06.117213 21603 net.cpp:100] Creating Layer L2_b1_cbr2_scale
I0818 14:09:06.117218 21603 net.cpp:434] L2_b1_cbr2_scale <- L2_b1_cbr2_bn_top
I0818 14:09:06.117226 21603 net.cpp:395] L2_b1_cbr2_scale -> L2_b1_cbr2_bn_top (in-place)
I0818 14:09:06.117281 21603 layer_factory.hpp:77] Creating layer L2_b1_cbr2_scale
I0818 14:09:06.117419 21603 net.cpp:150] Setting up L2_b1_cbr2_scale
I0818 14:09:06.117431 21603 net.cpp:157] Top shape: 125 16 16 16 (512000)
I0818 14:09:06.117436 21603 net.cpp:165] Memory required for data: 335361500
I0818 14:09:06.117445 21603 layer_factory.hpp:77] Creating layer L2_b1_pool
I0818 14:09:06.117458 21603 net.cpp:100] Creating Layer L2_b1_pool
I0818 14:09:06.117465 21603 net.cpp:434] L2_b1_pool <- L1_b3_sum_eltwise_top_L1_b3_relu_0_split_1
I0818 14:09:06.117473 21603 net.cpp:408] L2_b1_pool -> L2_b1_pool
I0818 14:09:06.117555 21603 net.cpp:150] Setting up L2_b1_pool
I0818 14:09:06.117570 21603 net.cpp:157] Top shape: 125 16 16 16 (512000)
I0818 14:09:06.117575 21603 net.cpp:165] Memory required for data: 337409500
I0818 14:09:06.117581 21603 layer_factory.hpp:77] Creating layer L2_b1_sum_eltwise
I0818 14:09:06.117595 21603 net.cpp:100] Creating Layer L2_b1_sum_eltwise
I0818 14:09:06.117601 21603 net.cpp:434] L2_b1_sum_eltwise <- L2_b1_cbr2_bn_top
I0818 14:09:06.117609 21603 net.cpp:434] L2_b1_sum_eltwise <- L2_b1_pool
I0818 14:09:06.117616 21603 net.cpp:408] L2_b1_sum_eltwise -> L2_b1_sum_eltwise_top
I0818 14:09:06.117647 21603 net.cpp:150] Setting up L2_b1_sum_eltwise
I0818 14:09:06.117656 21603 net.cpp:157] Top shape: 125 16 16 16 (512000)
I0818 14:09:06.117661 21603 net.cpp:165] Memory required for data: 339457500
I0818 14:09:06.117666 21603 layer_factory.hpp:77] Creating layer L2_b1_relu
I0818 14:09:06.117677 21603 net.cpp:100] Creating Layer L2_b1_relu
I0818 14:09:06.117683 21603 net.cpp:434] L2_b1_relu <- L2_b1_sum_eltwise_top
I0818 14:09:06.117691 21603 net.cpp:395] L2_b1_relu -> L2_b1_sum_eltwise_top (in-place)
I0818 14:09:06.117699 21603 net.cpp:150] Setting up L2_b1_relu
I0818 14:09:06.117707 21603 net.cpp:157] Top shape: 125 16 16 16 (512000)
I0818 14:09:06.117712 21603 net.cpp:165] Memory required for data: 341505500
I0818 14:09:06.117717 21603 layer_factory.hpp:77] Creating layer L2_b1_zeros
I0818 14:09:06.117763 21603 net.cpp:100] Creating Layer L2_b1_zeros
I0818 14:09:06.117775 21603 net.cpp:408] L2_b1_zeros -> L2_b1_zeros
I0818 14:09:06.120136 21603 net.cpp:150] Setting up L2_b1_zeros
I0818 14:09:06.120157 21603 net.cpp:157] Top shape: 125 16 16 16 (512000)
I0818 14:09:06.120163 21603 net.cpp:165] Memory required for data: 343553500
I0818 14:09:06.120169 21603 layer_factory.hpp:77] Creating layer L2_b1_concat0
I0818 14:09:06.120179 21603 net.cpp:100] Creating Layer L2_b1_concat0
I0818 14:09:06.120193 21603 net.cpp:434] L2_b1_concat0 <- L2_b1_sum_eltwise_top
I0818 14:09:06.120201 21603 net.cpp:434] L2_b1_concat0 <- L2_b1_zeros
I0818 14:09:06.120213 21603 net.cpp:408] L2_b1_concat0 -> L2_b1_concat0
I0818 14:09:06.120288 21603 net.cpp:150] Setting up L2_b1_concat0
I0818 14:09:06.120303 21603 net.cpp:157] Top shape: 125 32 16 16 (1024000)
I0818 14:09:06.120308 21603 net.cpp:165] Memory required for data: 347649500
I0818 14:09:06.120314 21603 layer_factory.hpp:77] Creating layer L2_b1_concat0_L2_b1_concat0_0_split
I0818 14:09:06.120326 21603 net.cpp:100] Creating Layer L2_b1_concat0_L2_b1_concat0_0_split
I0818 14:09:06.120333 21603 net.cpp:434] L2_b1_concat0_L2_b1_concat0_0_split <- L2_b1_concat0
I0818 14:09:06.120342 21603 net.cpp:408] L2_b1_concat0_L2_b1_concat0_0_split -> L2_b1_concat0_L2_b1_concat0_0_split_0
I0818 14:09:06.120352 21603 net.cpp:408] L2_b1_concat0_L2_b1_concat0_0_split -> L2_b1_concat0_L2_b1_concat0_0_split_1
I0818 14:09:06.120402 21603 net.cpp:150] Setting up L2_b1_concat0_L2_b1_concat0_0_split
I0818 14:09:06.120414 21603 net.cpp:157] Top shape: 125 32 16 16 (1024000)
I0818 14:09:06.120421 21603 net.cpp:157] Top shape: 125 32 16 16 (1024000)
I0818 14:09:06.120426 21603 net.cpp:165] Memory required for data: 355841500
I0818 14:09:06.120431 21603 layer_factory.hpp:77] Creating layer L2_b2_cbr1_conv
I0818 14:09:06.120445 21603 net.cpp:100] Creating Layer L2_b2_cbr1_conv
I0818 14:09:06.120452 21603 net.cpp:434] L2_b2_cbr1_conv <- L2_b1_concat0_L2_b1_concat0_0_split_0
I0818 14:09:06.120463 21603 net.cpp:408] L2_b2_cbr1_conv -> L2_b2_cbr1_conv_top
I0818 14:09:06.122267 21603 net.cpp:150] Setting up L2_b2_cbr1_conv
I0818 14:09:06.122289 21603 net.cpp:157] Top shape: 125 32 16 16 (1024000)
I0818 14:09:06.122300 21603 net.cpp:165] Memory required for data: 359937500
I0818 14:09:06.122339 21603 layer_factory.hpp:77] Creating layer L2_b2_cbr1_bn
I0818 14:09:06.122361 21603 net.cpp:100] Creating Layer L2_b2_cbr1_bn
I0818 14:09:06.122383 21603 net.cpp:434] L2_b2_cbr1_bn <- L2_b2_cbr1_conv_top
I0818 14:09:06.122401 21603 net.cpp:408] L2_b2_cbr1_bn -> L2_b2_cbr1_bn_top
I0818 14:09:06.122680 21603 net.cpp:150] Setting up L2_b2_cbr1_bn
I0818 14:09:06.122700 21603 net.cpp:157] Top shape: 125 32 16 16 (1024000)
I0818 14:09:06.122709 21603 net.cpp:165] Memory required for data: 364033500
I0818 14:09:06.122732 21603 layer_factory.hpp:77] Creating layer L2_b2_cbr1_scale
I0818 14:09:06.122750 21603 net.cpp:100] Creating Layer L2_b2_cbr1_scale
I0818 14:09:06.122761 21603 net.cpp:434] L2_b2_cbr1_scale <- L2_b2_cbr1_bn_top
I0818 14:09:06.122777 21603 net.cpp:395] L2_b2_cbr1_scale -> L2_b2_cbr1_bn_top (in-place)
I0818 14:09:06.122865 21603 layer_factory.hpp:77] Creating layer L2_b2_cbr1_scale
I0818 14:09:06.123042 21603 net.cpp:150] Setting up L2_b2_cbr1_scale
I0818 14:09:06.123061 21603 net.cpp:157] Top shape: 125 32 16 16 (1024000)
I0818 14:09:06.123070 21603 net.cpp:165] Memory required for data: 368129500
I0818 14:09:06.123090 21603 layer_factory.hpp:77] Creating layer L2_b2_cbr1_relu
I0818 14:09:06.123111 21603 net.cpp:100] Creating Layer L2_b2_cbr1_relu
I0818 14:09:06.123122 21603 net.cpp:434] L2_b2_cbr1_relu <- L2_b2_cbr1_bn_top
I0818 14:09:06.123137 21603 net.cpp:395] L2_b2_cbr1_relu -> L2_b2_cbr1_bn_top (in-place)
I0818 14:09:06.123157 21603 net.cpp:150] Setting up L2_b2_cbr1_relu
I0818 14:09:06.123172 21603 net.cpp:157] Top shape: 125 32 16 16 (1024000)
I0818 14:09:06.123183 21603 net.cpp:165] Memory required for data: 372225500
I0818 14:09:06.123193 21603 layer_factory.hpp:77] Creating layer L2_b2_cbr2_conv
I0818 14:09:06.123217 21603 net.cpp:100] Creating Layer L2_b2_cbr2_conv
I0818 14:09:06.123231 21603 net.cpp:434] L2_b2_cbr2_conv <- L2_b2_cbr1_bn_top
I0818 14:09:06.123253 21603 net.cpp:408] L2_b2_cbr2_conv -> L2_b2_cbr2_conv_top
I0818 14:09:06.123750 21603 net.cpp:150] Setting up L2_b2_cbr2_conv
I0818 14:09:06.123770 21603 net.cpp:157] Top shape: 125 32 16 16 (1024000)
I0818 14:09:06.123780 21603 net.cpp:165] Memory required for data: 376321500
I0818 14:09:06.123797 21603 layer_factory.hpp:77] Creating layer L2_b2_cbr2_bn
I0818 14:09:06.123831 21603 net.cpp:100] Creating Layer L2_b2_cbr2_bn
I0818 14:09:06.123843 21603 net.cpp:434] L2_b2_cbr2_bn <- L2_b2_cbr2_conv_top
I0818 14:09:06.123865 21603 net.cpp:408] L2_b2_cbr2_bn -> L2_b2_cbr2_bn_top
I0818 14:09:06.124145 21603 net.cpp:150] Setting up L2_b2_cbr2_bn
I0818 14:09:06.124168 21603 net.cpp:157] Top shape: 125 32 16 16 (1024000)
I0818 14:09:06.124179 21603 net.cpp:165] Memory required for data: 380417500
I0818 14:09:06.124202 21603 layer_factory.hpp:77] Creating layer L2_b2_cbr2_scale
I0818 14:09:06.124217 21603 net.cpp:100] Creating Layer L2_b2_cbr2_scale
I0818 14:09:06.124229 21603 net.cpp:434] L2_b2_cbr2_scale <- L2_b2_cbr2_bn_top
I0818 14:09:06.124244 21603 net.cpp:395] L2_b2_cbr2_scale -> L2_b2_cbr2_bn_top (in-place)
I0818 14:09:06.124328 21603 layer_factory.hpp:77] Creating layer L2_b2_cbr2_scale
I0818 14:09:06.124511 21603 net.cpp:150] Setting up L2_b2_cbr2_scale
I0818 14:09:06.124531 21603 net.cpp:157] Top shape: 125 32 16 16 (1024000)
I0818 14:09:06.124541 21603 net.cpp:165] Memory required for data: 384513500
I0818 14:09:06.124558 21603 layer_factory.hpp:77] Creating layer L2_b2_sum_eltwise
I0818 14:09:06.124577 21603 net.cpp:100] Creating Layer L2_b2_sum_eltwise
I0818 14:09:06.124588 21603 net.cpp:434] L2_b2_sum_eltwise <- L2_b2_cbr2_bn_top
I0818 14:09:06.124606 21603 net.cpp:434] L2_b2_sum_eltwise <- L2_b1_concat0_L2_b1_concat0_0_split_1
I0818 14:09:06.124624 21603 net.cpp:408] L2_b2_sum_eltwise -> L2_b2_sum_eltwise_top
I0818 14:09:06.124668 21603 net.cpp:150] Setting up L2_b2_sum_eltwise
I0818 14:09:06.124686 21603 net.cpp:157] Top shape: 125 32 16 16 (1024000)
I0818 14:09:06.124696 21603 net.cpp:165] Memory required for data: 388609500
I0818 14:09:06.124706 21603 layer_factory.hpp:77] Creating layer L2_b2_relu
I0818 14:09:06.124724 21603 net.cpp:100] Creating Layer L2_b2_relu
I0818 14:09:06.124737 21603 net.cpp:434] L2_b2_relu <- L2_b2_sum_eltwise_top
I0818 14:09:06.124752 21603 net.cpp:395] L2_b2_relu -> L2_b2_sum_eltwise_top (in-place)
I0818 14:09:06.124769 21603 net.cpp:150] Setting up L2_b2_relu
I0818 14:09:06.124784 21603 net.cpp:157] Top shape: 125 32 16 16 (1024000)
I0818 14:09:06.124794 21603 net.cpp:165] Memory required for data: 392705500
I0818 14:09:06.124804 21603 layer_factory.hpp:77] Creating layer L2_b2_sum_eltwise_top_L2_b2_relu_0_split
I0818 14:09:06.124819 21603 net.cpp:100] Creating Layer L2_b2_sum_eltwise_top_L2_b2_relu_0_split
I0818 14:09:06.124830 21603 net.cpp:434] L2_b2_sum_eltwise_top_L2_b2_relu_0_split <- L2_b2_sum_eltwise_top
I0818 14:09:06.124845 21603 net.cpp:408] L2_b2_sum_eltwise_top_L2_b2_relu_0_split -> L2_b2_sum_eltwise_top_L2_b2_relu_0_split_0
I0818 14:09:06.124863 21603 net.cpp:408] L2_b2_sum_eltwise_top_L2_b2_relu_0_split -> L2_b2_sum_eltwise_top_L2_b2_relu_0_split_1
I0818 14:09:06.124938 21603 net.cpp:150] Setting up L2_b2_sum_eltwise_top_L2_b2_relu_0_split
I0818 14:09:06.124958 21603 net.cpp:157] Top shape: 125 32 16 16 (1024000)
I0818 14:09:06.124970 21603 net.cpp:157] Top shape: 125 32 16 16 (1024000)
I0818 14:09:06.124979 21603 net.cpp:165] Memory required for data: 400897500
I0818 14:09:06.124990 21603 layer_factory.hpp:77] Creating layer L2_b3_cbr1_conv
I0818 14:09:06.125017 21603 net.cpp:100] Creating Layer L2_b3_cbr1_conv
I0818 14:09:06.125031 21603 net.cpp:434] L2_b3_cbr1_conv <- L2_b2_sum_eltwise_top_L2_b2_relu_0_split_0
I0818 14:09:06.125049 21603 net.cpp:408] L2_b3_cbr1_conv -> L2_b3_cbr1_conv_top
I0818 14:09:06.125551 21603 net.cpp:150] Setting up L2_b3_cbr1_conv
I0818 14:09:06.125571 21603 net.cpp:157] Top shape: 125 32 16 16 (1024000)
I0818 14:09:06.125581 21603 net.cpp:165] Memory required for data: 404993500
I0818 14:09:06.125598 21603 layer_factory.hpp:77] Creating layer L2_b3_cbr1_bn
I0818 14:09:06.125620 21603 net.cpp:100] Creating Layer L2_b3_cbr1_bn
I0818 14:09:06.125633 21603 net.cpp:434] L2_b3_cbr1_bn <- L2_b3_cbr1_conv_top
I0818 14:09:06.125654 21603 net.cpp:408] L2_b3_cbr1_bn -> L2_b3_cbr1_bn_top
I0818 14:09:06.125939 21603 net.cpp:150] Setting up L2_b3_cbr1_bn
I0818 14:09:06.125965 21603 net.cpp:157] Top shape: 125 32 16 16 (1024000)
I0818 14:09:06.125977 21603 net.cpp:165] Memory required for data: 409089500
I0818 14:09:06.125998 21603 layer_factory.hpp:77] Creating layer L2_b3_cbr1_scale
I0818 14:09:06.126015 21603 net.cpp:100] Creating Layer L2_b3_cbr1_scale
I0818 14:09:06.126027 21603 net.cpp:434] L2_b3_cbr1_scale <- L2_b3_cbr1_bn_top
I0818 14:09:06.126044 21603 net.cpp:395] L2_b3_cbr1_scale -> L2_b3_cbr1_bn_top (in-place)
I0818 14:09:06.126132 21603 layer_factory.hpp:77] Creating layer L2_b3_cbr1_scale
I0818 14:09:06.126313 21603 net.cpp:150] Setting up L2_b3_cbr1_scale
I0818 14:09:06.126333 21603 net.cpp:157] Top shape: 125 32 16 16 (1024000)
I0818 14:09:06.126343 21603 net.cpp:165] Memory required for data: 413185500
I0818 14:09:06.126361 21603 layer_factory.hpp:77] Creating layer L2_b3_cbr1_relu
I0818 14:09:06.126389 21603 net.cpp:100] Creating Layer L2_b3_cbr1_relu
I0818 14:09:06.126402 21603 net.cpp:434] L2_b3_cbr1_relu <- L2_b3_cbr1_bn_top
I0818 14:09:06.126417 21603 net.cpp:395] L2_b3_cbr1_relu -> L2_b3_cbr1_bn_top (in-place)
I0818 14:09:06.126435 21603 net.cpp:150] Setting up L2_b3_cbr1_relu
I0818 14:09:06.126451 21603 net.cpp:157] Top shape: 125 32 16 16 (1024000)
I0818 14:09:06.126461 21603 net.cpp:165] Memory required for data: 417281500
I0818 14:09:06.126471 21603 layer_factory.hpp:77] Creating layer L2_b3_cbr2_conv
I0818 14:09:06.126502 21603 net.cpp:100] Creating Layer L2_b3_cbr2_conv
I0818 14:09:06.126514 21603 net.cpp:434] L2_b3_cbr2_conv <- L2_b3_cbr1_bn_top
I0818 14:09:06.126533 21603 net.cpp:408] L2_b3_cbr2_conv -> L2_b3_cbr2_conv_top
I0818 14:09:06.127014 21603 net.cpp:150] Setting up L2_b3_cbr2_conv
I0818 14:09:06.127033 21603 net.cpp:157] Top shape: 125 32 16 16 (1024000)
I0818 14:09:06.127043 21603 net.cpp:165] Memory required for data: 421377500
I0818 14:09:06.127063 21603 layer_factory.hpp:77] Creating layer L2_b3_cbr2_bn
I0818 14:09:06.127082 21603 net.cpp:100] Creating Layer L2_b3_cbr2_bn
I0818 14:09:06.127095 21603 net.cpp:434] L2_b3_cbr2_bn <- L2_b3_cbr2_conv_top
I0818 14:09:06.127112 21603 net.cpp:408] L2_b3_cbr2_bn -> L2_b3_cbr2_bn_top
I0818 14:09:06.127389 21603 net.cpp:150] Setting up L2_b3_cbr2_bn
I0818 14:09:06.127408 21603 net.cpp:157] Top shape: 125 32 16 16 (1024000)
I0818 14:09:06.127418 21603 net.cpp:165] Memory required for data: 425473500
I0818 14:09:06.127440 21603 layer_factory.hpp:77] Creating layer L2_b3_cbr2_scale
I0818 14:09:06.127456 21603 net.cpp:100] Creating Layer L2_b3_cbr2_scale
I0818 14:09:06.127467 21603 net.cpp:434] L2_b3_cbr2_scale <- L2_b3_cbr2_bn_top
I0818 14:09:06.127480 21603 net.cpp:395] L2_b3_cbr2_scale -> L2_b3_cbr2_bn_top (in-place)
I0818 14:09:06.127571 21603 layer_factory.hpp:77] Creating layer L2_b3_cbr2_scale
I0818 14:09:06.127784 21603 net.cpp:150] Setting up L2_b3_cbr2_scale
I0818 14:09:06.127806 21603 net.cpp:157] Top shape: 125 32 16 16 (1024000)
I0818 14:09:06.127816 21603 net.cpp:165] Memory required for data: 429569500
I0818 14:09:06.127835 21603 layer_factory.hpp:77] Creating layer L2_b3_sum_eltwise
I0818 14:09:06.127852 21603 net.cpp:100] Creating Layer L2_b3_sum_eltwise
I0818 14:09:06.127864 21603 net.cpp:434] L2_b3_sum_eltwise <- L2_b3_cbr2_bn_top
I0818 14:09:06.127878 21603 net.cpp:434] L2_b3_sum_eltwise <- L2_b2_sum_eltwise_top_L2_b2_relu_0_split_1
I0818 14:09:06.127898 21603 net.cpp:408] L2_b3_sum_eltwise -> L2_b3_sum_eltwise_top
I0818 14:09:06.127944 21603 net.cpp:150] Setting up L2_b3_sum_eltwise
I0818 14:09:06.127964 21603 net.cpp:157] Top shape: 125 32 16 16 (1024000)
I0818 14:09:06.127972 21603 net.cpp:165] Memory required for data: 433665500
I0818 14:09:06.127984 21603 layer_factory.hpp:77] Creating layer L2_b3_relu
I0818 14:09:06.127998 21603 net.cpp:100] Creating Layer L2_b3_relu
I0818 14:09:06.128010 21603 net.cpp:434] L2_b3_relu <- L2_b3_sum_eltwise_top
I0818 14:09:06.128029 21603 net.cpp:395] L2_b3_relu -> L2_b3_sum_eltwise_top (in-place)
I0818 14:09:06.128049 21603 net.cpp:150] Setting up L2_b3_relu
I0818 14:09:06.128064 21603 net.cpp:157] Top shape: 125 32 16 16 (1024000)
I0818 14:09:06.128074 21603 net.cpp:165] Memory required for data: 437761500
I0818 14:09:06.128093 21603 layer_factory.hpp:77] Creating layer L2_b3_sum_eltwise_top_L2_b3_relu_0_split
I0818 14:09:06.128108 21603 net.cpp:100] Creating Layer L2_b3_sum_eltwise_top_L2_b3_relu_0_split
I0818 14:09:06.128119 21603 net.cpp:434] L2_b3_sum_eltwise_top_L2_b3_relu_0_split <- L2_b3_sum_eltwise_top
I0818 14:09:06.128139 21603 net.cpp:408] L2_b3_sum_eltwise_top_L2_b3_relu_0_split -> L2_b3_sum_eltwise_top_L2_b3_relu_0_split_0
I0818 14:09:06.128159 21603 net.cpp:408] L2_b3_sum_eltwise_top_L2_b3_relu_0_split -> L2_b3_sum_eltwise_top_L2_b3_relu_0_split_1
I0818 14:09:06.128237 21603 net.cpp:150] Setting up L2_b3_sum_eltwise_top_L2_b3_relu_0_split
I0818 14:09:06.128257 21603 net.cpp:157] Top shape: 125 32 16 16 (1024000)
I0818 14:09:06.128270 21603 net.cpp:157] Top shape: 125 32 16 16 (1024000)
I0818 14:09:06.128280 21603 net.cpp:165] Memory required for data: 445953500
I0818 14:09:06.128290 21603 layer_factory.hpp:77] Creating layer L3_b1_cbr1_conv
I0818 14:09:06.128314 21603 net.cpp:100] Creating Layer L3_b1_cbr1_conv
I0818 14:09:06.128329 21603 net.cpp:434] L3_b1_cbr1_conv <- L2_b3_sum_eltwise_top_L2_b3_relu_0_split_0
I0818 14:09:06.128348 21603 net.cpp:408] L3_b1_cbr1_conv -> L3_b1_cbr1_conv_top
I0818 14:09:06.128854 21603 net.cpp:150] Setting up L3_b1_cbr1_conv
I0818 14:09:06.128873 21603 net.cpp:157] Top shape: 125 32 8 8 (256000)
I0818 14:09:06.128883 21603 net.cpp:165] Memory required for data: 446977500
I0818 14:09:06.128901 21603 layer_factory.hpp:77] Creating layer L3_b1_cbr1_bn
I0818 14:09:06.128922 21603 net.cpp:100] Creating Layer L3_b1_cbr1_bn
I0818 14:09:06.128935 21603 net.cpp:434] L3_b1_cbr1_bn <- L3_b1_cbr1_conv_top
I0818 14:09:06.128952 21603 net.cpp:408] L3_b1_cbr1_bn -> L3_b1_cbr1_bn_top
I0818 14:09:06.129231 21603 net.cpp:150] Setting up L3_b1_cbr1_bn
I0818 14:09:06.129251 21603 net.cpp:157] Top shape: 125 32 8 8 (256000)
I0818 14:09:06.129261 21603 net.cpp:165] Memory required for data: 448001500
I0818 14:09:06.129283 21603 layer_factory.hpp:77] Creating layer L3_b1_cbr1_scale
I0818 14:09:06.129305 21603 net.cpp:100] Creating Layer L3_b1_cbr1_scale
I0818 14:09:06.129317 21603 net.cpp:434] L3_b1_cbr1_scale <- L3_b1_cbr1_bn_top
I0818 14:09:06.129333 21603 net.cpp:395] L3_b1_cbr1_scale -> L3_b1_cbr1_bn_top (in-place)
I0818 14:09:06.129426 21603 layer_factory.hpp:77] Creating layer L3_b1_cbr1_scale
I0818 14:09:06.129606 21603 net.cpp:150] Setting up L3_b1_cbr1_scale
I0818 14:09:06.129626 21603 net.cpp:157] Top shape: 125 32 8 8 (256000)
I0818 14:09:06.129637 21603 net.cpp:165] Memory required for data: 449025500
I0818 14:09:06.129655 21603 layer_factory.hpp:77] Creating layer L3_b1_cbr1_relu
I0818 14:09:06.129674 21603 net.cpp:100] Creating Layer L3_b1_cbr1_relu
I0818 14:09:06.129686 21603 net.cpp:434] L3_b1_cbr1_relu <- L3_b1_cbr1_bn_top
I0818 14:09:06.129701 21603 net.cpp:395] L3_b1_cbr1_relu -> L3_b1_cbr1_bn_top (in-place)
I0818 14:09:06.129725 21603 net.cpp:150] Setting up L3_b1_cbr1_relu
I0818 14:09:06.129740 21603 net.cpp:157] Top shape: 125 32 8 8 (256000)
I0818 14:09:06.129750 21603 net.cpp:165] Memory required for data: 450049500
I0818 14:09:06.129760 21603 layer_factory.hpp:77] Creating layer L3_b1_cbr2_conv
I0818 14:09:06.129781 21603 net.cpp:100] Creating Layer L3_b1_cbr2_conv
I0818 14:09:06.129793 21603 net.cpp:434] L3_b1_cbr2_conv <- L3_b1_cbr1_bn_top
I0818 14:09:06.129814 21603 net.cpp:408] L3_b1_cbr2_conv -> L3_b1_cbr2_conv_top
I0818 14:09:06.130306 21603 net.cpp:150] Setting up L3_b1_cbr2_conv
I0818 14:09:06.130326 21603 net.cpp:157] Top shape: 125 32 8 8 (256000)
I0818 14:09:06.130336 21603 net.cpp:165] Memory required for data: 451073500
I0818 14:09:06.130354 21603 layer_factory.hpp:77] Creating layer L3_b1_cbr2_bn
I0818 14:09:06.130378 21603 net.cpp:100] Creating Layer L3_b1_cbr2_bn
I0818 14:09:06.130391 21603 net.cpp:434] L3_b1_cbr2_bn <- L3_b1_cbr2_conv_top
I0818 14:09:06.130414 21603 net.cpp:408] L3_b1_cbr2_bn -> L3_b1_cbr2_bn_top
I0818 14:09:06.130725 21603 net.cpp:150] Setting up L3_b1_cbr2_bn
I0818 14:09:06.130745 21603 net.cpp:157] Top shape: 125 32 8 8 (256000)
I0818 14:09:06.130764 21603 net.cpp:165] Memory required for data: 452097500
I0818 14:09:06.130787 21603 layer_factory.hpp:77] Creating layer L3_b1_cbr2_scale
I0818 14:09:06.130805 21603 net.cpp:100] Creating Layer L3_b1_cbr2_scale
I0818 14:09:06.130815 21603 net.cpp:434] L3_b1_cbr2_scale <- L3_b1_cbr2_bn_top
I0818 14:09:06.130831 21603 net.cpp:395] L3_b1_cbr2_scale -> L3_b1_cbr2_bn_top (in-place)
I0818 14:09:06.130925 21603 layer_factory.hpp:77] Creating layer L3_b1_cbr2_scale
I0818 14:09:06.131108 21603 net.cpp:150] Setting up L3_b1_cbr2_scale
I0818 14:09:06.131130 21603 net.cpp:157] Top shape: 125 32 8 8 (256000)
I0818 14:09:06.131141 21603 net.cpp:165] Memory required for data: 453121500
I0818 14:09:06.131160 21603 layer_factory.hpp:77] Creating layer L3_b1_pool
I0818 14:09:06.131177 21603 net.cpp:100] Creating Layer L3_b1_pool
I0818 14:09:06.131188 21603 net.cpp:434] L3_b1_pool <- L2_b3_sum_eltwise_top_L2_b3_relu_0_split_1
I0818 14:09:06.131206 21603 net.cpp:408] L3_b1_pool -> L3_b1_pool
I0818 14:09:06.131264 21603 net.cpp:150] Setting up L3_b1_pool
I0818 14:09:06.131284 21603 net.cpp:157] Top shape: 125 32 8 8 (256000)
I0818 14:09:06.131294 21603 net.cpp:165] Memory required for data: 454145500
I0818 14:09:06.131304 21603 layer_factory.hpp:77] Creating layer L3_b1_sum_eltwise
I0818 14:09:06.131320 21603 net.cpp:100] Creating Layer L3_b1_sum_eltwise
I0818 14:09:06.131331 21603 net.cpp:434] L3_b1_sum_eltwise <- L3_b1_cbr2_bn_top
I0818 14:09:06.131345 21603 net.cpp:434] L3_b1_sum_eltwise <- L3_b1_pool
I0818 14:09:06.131359 21603 net.cpp:408] L3_b1_sum_eltwise -> L3_b1_sum_eltwise_top
I0818 14:09:06.131425 21603 net.cpp:150] Setting up L3_b1_sum_eltwise
I0818 14:09:06.131444 21603 net.cpp:157] Top shape: 125 32 8 8 (256000)
I0818 14:09:06.131453 21603 net.cpp:165] Memory required for data: 455169500
I0818 14:09:06.131464 21603 layer_factory.hpp:77] Creating layer L3_b1_relu
I0818 14:09:06.131479 21603 net.cpp:100] Creating Layer L3_b1_relu
I0818 14:09:06.131490 21603 net.cpp:434] L3_b1_relu <- L3_b1_sum_eltwise_top
I0818 14:09:06.131503 21603 net.cpp:395] L3_b1_relu -> L3_b1_sum_eltwise_top (in-place)
I0818 14:09:06.131521 21603 net.cpp:150] Setting up L3_b1_relu
I0818 14:09:06.131536 21603 net.cpp:157] Top shape: 125 32 8 8 (256000)
I0818 14:09:06.131546 21603 net.cpp:165] Memory required for data: 456193500
I0818 14:09:06.131556 21603 layer_factory.hpp:77] Creating layer L3_b1_zeros
I0818 14:09:06.131573 21603 net.cpp:100] Creating Layer L3_b1_zeros
I0818 14:09:06.131593 21603 net.cpp:408] L3_b1_zeros -> L3_b1_zeros
I0818 14:09:06.132867 21603 net.cpp:150] Setting up L3_b1_zeros
I0818 14:09:06.132889 21603 net.cpp:157] Top shape: 125 32 8 8 (256000)
I0818 14:09:06.132899 21603 net.cpp:165] Memory required for data: 457217500
I0818 14:09:06.132910 21603 layer_factory.hpp:77] Creating layer L3_b1_concat0
I0818 14:09:06.132930 21603 net.cpp:100] Creating Layer L3_b1_concat0
I0818 14:09:06.132943 21603 net.cpp:434] L3_b1_concat0 <- L3_b1_sum_eltwise_top
I0818 14:09:06.132956 21603 net.cpp:434] L3_b1_concat0 <- L3_b1_zeros
I0818 14:09:06.132972 21603 net.cpp:408] L3_b1_concat0 -> L3_b1_concat0
I0818 14:09:06.133034 21603 net.cpp:150] Setting up L3_b1_concat0
I0818 14:09:06.133054 21603 net.cpp:157] Top shape: 125 64 8 8 (512000)
I0818 14:09:06.133062 21603 net.cpp:165] Memory required for data: 459265500
I0818 14:09:06.133074 21603 layer_factory.hpp:77] Creating layer L3_b1_concat0_L3_b1_concat0_0_split
I0818 14:09:06.133088 21603 net.cpp:100] Creating Layer L3_b1_concat0_L3_b1_concat0_0_split
I0818 14:09:06.133100 21603 net.cpp:434] L3_b1_concat0_L3_b1_concat0_0_split <- L3_b1_concat0
I0818 14:09:06.133119 21603 net.cpp:408] L3_b1_concat0_L3_b1_concat0_0_split -> L3_b1_concat0_L3_b1_concat0_0_split_0
I0818 14:09:06.133141 21603 net.cpp:408] L3_b1_concat0_L3_b1_concat0_0_split -> L3_b1_concat0_L3_b1_concat0_0_split_1
I0818 14:09:06.133219 21603 net.cpp:150] Setting up L3_b1_concat0_L3_b1_concat0_0_split
I0818 14:09:06.133242 21603 net.cpp:157] Top shape: 125 64 8 8 (512000)
I0818 14:09:06.133266 21603 net.cpp:157] Top shape: 125 64 8 8 (512000)
I0818 14:09:06.133277 21603 net.cpp:165] Memory required for data: 463361500
I0818 14:09:06.133288 21603 layer_factory.hpp:77] Creating layer L3_b2_cbr1_conv
I0818 14:09:06.133313 21603 net.cpp:100] Creating Layer L3_b2_cbr1_conv
I0818 14:09:06.133327 21603 net.cpp:434] L3_b2_cbr1_conv <- L3_b1_concat0_L3_b1_concat0_0_split_0
I0818 14:09:06.133345 21603 net.cpp:408] L3_b2_cbr1_conv -> L3_b2_cbr1_conv_top
I0818 14:09:06.135375 21603 net.cpp:150] Setting up L3_b2_cbr1_conv
I0818 14:09:06.135397 21603 net.cpp:157] Top shape: 125 64 8 8 (512000)
I0818 14:09:06.135407 21603 net.cpp:165] Memory required for data: 465409500
I0818 14:09:06.135426 21603 layer_factory.hpp:77] Creating layer L3_b2_cbr1_bn
I0818 14:09:06.135449 21603 net.cpp:100] Creating Layer L3_b2_cbr1_bn
I0818 14:09:06.135462 21603 net.cpp:434] L3_b2_cbr1_bn <- L3_b2_cbr1_conv_top
I0818 14:09:06.135479 21603 net.cpp:408] L3_b2_cbr1_bn -> L3_b2_cbr1_bn_top
I0818 14:09:06.135771 21603 net.cpp:150] Setting up L3_b2_cbr1_bn
I0818 14:09:06.135790 21603 net.cpp:157] Top shape: 125 64 8 8 (512000)
I0818 14:09:06.135800 21603 net.cpp:165] Memory required for data: 467457500
I0818 14:09:06.135823 21603 layer_factory.hpp:77] Creating layer L3_b2_cbr1_scale
I0818 14:09:06.135843 21603 net.cpp:100] Creating Layer L3_b2_cbr1_scale
I0818 14:09:06.135856 21603 net.cpp:434] L3_b2_cbr1_scale <- L3_b2_cbr1_bn_top
I0818 14:09:06.135872 21603 net.cpp:395] L3_b2_cbr1_scale -> L3_b2_cbr1_bn_top (in-place)
I0818 14:09:06.135962 21603 layer_factory.hpp:77] Creating layer L3_b2_cbr1_scale
I0818 14:09:06.136150 21603 net.cpp:150] Setting up L3_b2_cbr1_scale
I0818 14:09:06.136169 21603 net.cpp:157] Top shape: 125 64 8 8 (512000)
I0818 14:09:06.136179 21603 net.cpp:165] Memory required for data: 469505500
I0818 14:09:06.136198 21603 layer_factory.hpp:77] Creating layer L3_b2_cbr1_relu
I0818 14:09:06.136214 21603 net.cpp:100] Creating Layer L3_b2_cbr1_relu
I0818 14:09:06.136226 21603 net.cpp:434] L3_b2_cbr1_relu <- L3_b2_cbr1_bn_top
I0818 14:09:06.136246 21603 net.cpp:395] L3_b2_cbr1_relu -> L3_b2_cbr1_bn_top (in-place)
I0818 14:09:06.136266 21603 net.cpp:150] Setting up L3_b2_cbr1_relu
I0818 14:09:06.136281 21603 net.cpp:157] Top shape: 125 64 8 8 (512000)
I0818 14:09:06.136291 21603 net.cpp:165] Memory required for data: 471553500
I0818 14:09:06.136301 21603 layer_factory.hpp:77] Creating layer L3_b2_cbr2_conv
I0818 14:09:06.136325 21603 net.cpp:100] Creating Layer L3_b2_cbr2_conv
I0818 14:09:06.136339 21603 net.cpp:434] L3_b2_cbr2_conv <- L3_b2_cbr1_bn_top
I0818 14:09:06.136356 21603 net.cpp:408] L3_b2_cbr2_conv -> L3_b2_cbr2_conv_top
I0818 14:09:06.137435 21603 net.cpp:150] Setting up L3_b2_cbr2_conv
I0818 14:09:06.137456 21603 net.cpp:157] Top shape: 125 64 8 8 (512000)
I0818 14:09:06.137465 21603 net.cpp:165] Memory required for data: 473601500
I0818 14:09:06.137485 21603 layer_factory.hpp:77] Creating layer L3_b2_cbr2_bn
I0818 14:09:06.137506 21603 net.cpp:100] Creating Layer L3_b2_cbr2_bn
I0818 14:09:06.137518 21603 net.cpp:434] L3_b2_cbr2_bn <- L3_b2_cbr2_conv_top
I0818 14:09:06.137536 21603 net.cpp:408] L3_b2_cbr2_bn -> L3_b2_cbr2_bn_top
I0818 14:09:06.137820 21603 net.cpp:150] Setting up L3_b2_cbr2_bn
I0818 14:09:06.137838 21603 net.cpp:157] Top shape: 125 64 8 8 (512000)
I0818 14:09:06.137848 21603 net.cpp:165] Memory required for data: 475649500
I0818 14:09:06.137869 21603 layer_factory.hpp:77] Creating layer L3_b2_cbr2_scale
I0818 14:09:06.137892 21603 net.cpp:100] Creating Layer L3_b2_cbr2_scale
I0818 14:09:06.137904 21603 net.cpp:434] L3_b2_cbr2_scale <- L3_b2_cbr2_bn_top
I0818 14:09:06.137920 21603 net.cpp:395] L3_b2_cbr2_scale -> L3_b2_cbr2_bn_top (in-place)
I0818 14:09:06.138008 21603 layer_factory.hpp:77] Creating layer L3_b2_cbr2_scale
I0818 14:09:06.138190 21603 net.cpp:150] Setting up L3_b2_cbr2_scale
I0818 14:09:06.138209 21603 net.cpp:157] Top shape: 125 64 8 8 (512000)
I0818 14:09:06.138219 21603 net.cpp:165] Memory required for data: 477697500
I0818 14:09:06.138237 21603 layer_factory.hpp:77] Creating layer L3_b2_sum_eltwise
I0818 14:09:06.138268 21603 net.cpp:100] Creating Layer L3_b2_sum_eltwise
I0818 14:09:06.138283 21603 net.cpp:434] L3_b2_sum_eltwise <- L3_b2_cbr2_bn_top
I0818 14:09:06.138296 21603 net.cpp:434] L3_b2_sum_eltwise <- L3_b1_concat0_L3_b1_concat0_0_split_1
I0818 14:09:06.138315 21603 net.cpp:408] L3_b2_sum_eltwise -> L3_b2_sum_eltwise_top
I0818 14:09:06.138376 21603 net.cpp:150] Setting up L3_b2_sum_eltwise
I0818 14:09:06.138396 21603 net.cpp:157] Top shape: 125 64 8 8 (512000)
I0818 14:09:06.138406 21603 net.cpp:165] Memory required for data: 479745500
I0818 14:09:06.138417 21603 layer_factory.hpp:77] Creating layer L3_b2_relu
I0818 14:09:06.138437 21603 net.cpp:100] Creating Layer L3_b2_relu
I0818 14:09:06.138449 21603 net.cpp:434] L3_b2_relu <- L3_b2_sum_eltwise_top
I0818 14:09:06.138464 21603 net.cpp:395] L3_b2_relu -> L3_b2_sum_eltwise_top (in-place)
I0818 14:09:06.138484 21603 net.cpp:150] Setting up L3_b2_relu
I0818 14:09:06.138499 21603 net.cpp:157] Top shape: 125 64 8 8 (512000)
I0818 14:09:06.138509 21603 net.cpp:165] Memory required for data: 481793500
I0818 14:09:06.138520 21603 layer_factory.hpp:77] Creating layer L3_b2_sum_eltwise_top_L3_b2_relu_0_split
I0818 14:09:06.138532 21603 net.cpp:100] Creating Layer L3_b2_sum_eltwise_top_L3_b2_relu_0_split
I0818 14:09:06.138543 21603 net.cpp:434] L3_b2_sum_eltwise_top_L3_b2_relu_0_split <- L3_b2_sum_eltwise_top
I0818 14:09:06.138558 21603 net.cpp:408] L3_b2_sum_eltwise_top_L3_b2_relu_0_split -> L3_b2_sum_eltwise_top_L3_b2_relu_0_split_0
I0818 14:09:06.138576 21603 net.cpp:408] L3_b2_sum_eltwise_top_L3_b2_relu_0_split -> L3_b2_sum_eltwise_top_L3_b2_relu_0_split_1
I0818 14:09:06.138658 21603 net.cpp:150] Setting up L3_b2_sum_eltwise_top_L3_b2_relu_0_split
I0818 14:09:06.138675 21603 net.cpp:157] Top shape: 125 64 8 8 (512000)
I0818 14:09:06.138689 21603 net.cpp:157] Top shape: 125 64 8 8 (512000)
I0818 14:09:06.138698 21603 net.cpp:165] Memory required for data: 485889500
I0818 14:09:06.138708 21603 layer_factory.hpp:77] Creating layer L3_b3_cbr1_conv
I0818 14:09:06.138733 21603 net.cpp:100] Creating Layer L3_b3_cbr1_conv
I0818 14:09:06.138746 21603 net.cpp:434] L3_b3_cbr1_conv <- L3_b2_sum_eltwise_top_L3_b2_relu_0_split_0
I0818 14:09:06.138766 21603 net.cpp:408] L3_b3_cbr1_conv -> L3_b3_cbr1_conv_top
I0818 14:09:06.139816 21603 net.cpp:150] Setting up L3_b3_cbr1_conv
I0818 14:09:06.139835 21603 net.cpp:157] Top shape: 125 64 8 8 (512000)
I0818 14:09:06.139845 21603 net.cpp:165] Memory required for data: 487937500
I0818 14:09:06.139864 21603 layer_factory.hpp:77] Creating layer L3_b3_cbr1_bn
I0818 14:09:06.139885 21603 net.cpp:100] Creating Layer L3_b3_cbr1_bn
I0818 14:09:06.139897 21603 net.cpp:434] L3_b3_cbr1_bn <- L3_b3_cbr1_conv_top
I0818 14:09:06.139919 21603 net.cpp:408] L3_b3_cbr1_bn -> L3_b3_cbr1_bn_top
I0818 14:09:06.140202 21603 net.cpp:150] Setting up L3_b3_cbr1_bn
I0818 14:09:06.140221 21603 net.cpp:157] Top shape: 125 64 8 8 (512000)
I0818 14:09:06.140231 21603 net.cpp:165] Memory required for data: 489985500
I0818 14:09:06.140252 21603 layer_factory.hpp:77] Creating layer L3_b3_cbr1_scale
I0818 14:09:06.140269 21603 net.cpp:100] Creating Layer L3_b3_cbr1_scale
I0818 14:09:06.140281 21603 net.cpp:434] L3_b3_cbr1_scale <- L3_b3_cbr1_bn_top
I0818 14:09:06.140297 21603 net.cpp:395] L3_b3_cbr1_scale -> L3_b3_cbr1_bn_top (in-place)
I0818 14:09:06.140398 21603 layer_factory.hpp:77] Creating layer L3_b3_cbr1_scale
I0818 14:09:06.140583 21603 net.cpp:150] Setting up L3_b3_cbr1_scale
I0818 14:09:06.140602 21603 net.cpp:157] Top shape: 125 64 8 8 (512000)
I0818 14:09:06.140611 21603 net.cpp:165] Memory required for data: 492033500
I0818 14:09:06.140630 21603 layer_factory.hpp:77] Creating layer L3_b3_cbr1_relu
I0818 14:09:06.140646 21603 net.cpp:100] Creating Layer L3_b3_cbr1_relu
I0818 14:09:06.140657 21603 net.cpp:434] L3_b3_cbr1_relu <- L3_b3_cbr1_bn_top
I0818 14:09:06.140676 21603 net.cpp:395] L3_b3_cbr1_relu -> L3_b3_cbr1_bn_top (in-place)
I0818 14:09:06.140697 21603 net.cpp:150] Setting up L3_b3_cbr1_relu
I0818 14:09:06.140712 21603 net.cpp:157] Top shape: 125 64 8 8 (512000)
I0818 14:09:06.140730 21603 net.cpp:165] Memory required for data: 494081500
I0818 14:09:06.140741 21603 layer_factory.hpp:77] Creating layer L3_b3_cbr2_conv
I0818 14:09:06.140766 21603 net.cpp:100] Creating Layer L3_b3_cbr2_conv
I0818 14:09:06.140779 21603 net.cpp:434] L3_b3_cbr2_conv <- L3_b3_cbr1_bn_top
I0818 14:09:06.140797 21603 net.cpp:408] L3_b3_cbr2_conv -> L3_b3_cbr2_conv_top
I0818 14:09:06.141840 21603 net.cpp:150] Setting up L3_b3_cbr2_conv
I0818 14:09:06.141860 21603 net.cpp:157] Top shape: 125 64 8 8 (512000)
I0818 14:09:06.141871 21603 net.cpp:165] Memory required for data: 496129500
I0818 14:09:06.141890 21603 layer_factory.hpp:77] Creating layer L3_b3_cbr2_bn
I0818 14:09:06.141911 21603 net.cpp:100] Creating Layer L3_b3_cbr2_bn
I0818 14:09:06.141922 21603 net.cpp:434] L3_b3_cbr2_bn <- L3_b3_cbr2_conv_top
I0818 14:09:06.141939 21603 net.cpp:408] L3_b3_cbr2_bn -> L3_b3_cbr2_bn_top
I0818 14:09:06.142220 21603 net.cpp:150] Setting up L3_b3_cbr2_bn
I0818 14:09:06.142238 21603 net.cpp:157] Top shape: 125 64 8 8 (512000)
I0818 14:09:06.142248 21603 net.cpp:165] Memory required for data: 498177500
I0818 14:09:06.142302 21603 layer_factory.hpp:77] Creating layer L3_b3_cbr2_scale
I0818 14:09:06.142321 21603 net.cpp:100] Creating Layer L3_b3_cbr2_scale
I0818 14:09:06.142338 21603 net.cpp:434] L3_b3_cbr2_scale <- L3_b3_cbr2_bn_top
I0818 14:09:06.142354 21603 net.cpp:395] L3_b3_cbr2_scale -> L3_b3_cbr2_bn_top (in-place)
I0818 14:09:06.142444 21603 layer_factory.hpp:77] Creating layer L3_b3_cbr2_scale
I0818 14:09:06.142629 21603 net.cpp:150] Setting up L3_b3_cbr2_scale
I0818 14:09:06.142648 21603 net.cpp:157] Top shape: 125 64 8 8 (512000)
I0818 14:09:06.142658 21603 net.cpp:165] Memory required for data: 500225500
I0818 14:09:06.142678 21603 layer_factory.hpp:77] Creating layer L3_b3_sum_eltwise
I0818 14:09:06.142699 21603 net.cpp:100] Creating Layer L3_b3_sum_eltwise
I0818 14:09:06.142712 21603 net.cpp:434] L3_b3_sum_eltwise <- L3_b3_cbr2_bn_top
I0818 14:09:06.142725 21603 net.cpp:434] L3_b3_sum_eltwise <- L3_b2_sum_eltwise_top_L3_b2_relu_0_split_1
I0818 14:09:06.142741 21603 net.cpp:408] L3_b3_sum_eltwise -> L3_b3_sum_eltwise_top
I0818 14:09:06.142802 21603 net.cpp:150] Setting up L3_b3_sum_eltwise
I0818 14:09:06.142822 21603 net.cpp:157] Top shape: 125 64 8 8 (512000)
I0818 14:09:06.142830 21603 net.cpp:165] Memory required for data: 502273500
I0818 14:09:06.142841 21603 layer_factory.hpp:77] Creating layer L3_b3_relu
I0818 14:09:06.142856 21603 net.cpp:100] Creating Layer L3_b3_relu
I0818 14:09:06.142868 21603 net.cpp:434] L3_b3_relu <- L3_b3_sum_eltwise_top
I0818 14:09:06.142885 21603 net.cpp:395] L3_b3_relu -> L3_b3_sum_eltwise_top (in-place)
I0818 14:09:06.142905 21603 net.cpp:150] Setting up L3_b3_relu
I0818 14:09:06.142920 21603 net.cpp:157] Top shape: 125 64 8 8 (512000)
I0818 14:09:06.142930 21603 net.cpp:165] Memory required for data: 504321500
I0818 14:09:06.142940 21603 layer_factory.hpp:77] Creating layer post_pool
I0818 14:09:06.142954 21603 net.cpp:100] Creating Layer post_pool
I0818 14:09:06.142966 21603 net.cpp:434] post_pool <- L3_b3_sum_eltwise_top
I0818 14:09:06.142982 21603 net.cpp:408] post_pool -> post_pool
I0818 14:09:06.143035 21603 net.cpp:150] Setting up post_pool
I0818 14:09:06.143055 21603 net.cpp:157] Top shape: 125 64 1 1 (8000)
I0818 14:09:06.143065 21603 net.cpp:165] Memory required for data: 504353500
I0818 14:09:06.143075 21603 layer_factory.hpp:77] Creating layer post_FC
I0818 14:09:06.143180 21603 net.cpp:100] Creating Layer post_FC
I0818 14:09:06.143196 21603 net.cpp:434] post_FC <- post_pool
I0818 14:09:06.143213 21603 net.cpp:408] post_FC -> post_FC_top
I0818 14:09:06.143482 21603 net.cpp:150] Setting up post_FC
I0818 14:09:06.143507 21603 net.cpp:157] Top shape: 125 10 (1250)
I0818 14:09:06.143517 21603 net.cpp:165] Memory required for data: 504358500
I0818 14:09:06.143535 21603 layer_factory.hpp:77] Creating layer post_FC_top_post_FC_0_split
I0818 14:09:06.143550 21603 net.cpp:100] Creating Layer post_FC_top_post_FC_0_split
I0818 14:09:06.143569 21603 net.cpp:434] post_FC_top_post_FC_0_split <- post_FC_top
I0818 14:09:06.143585 21603 net.cpp:408] post_FC_top_post_FC_0_split -> post_FC_top_post_FC_0_split_0
I0818 14:09:06.143605 21603 net.cpp:408] post_FC_top_post_FC_0_split -> post_FC_top_post_FC_0_split_1
I0818 14:09:06.143688 21603 net.cpp:150] Setting up post_FC_top_post_FC_0_split
I0818 14:09:06.143707 21603 net.cpp:157] Top shape: 125 10 (1250)
I0818 14:09:06.143718 21603 net.cpp:157] Top shape: 125 10 (1250)
I0818 14:09:06.143728 21603 net.cpp:165] Memory required for data: 504368500
I0818 14:09:06.143738 21603 layer_factory.hpp:77] Creating layer accuracy
I0818 14:09:06.143797 21603 net.cpp:100] Creating Layer accuracy
I0818 14:09:06.143813 21603 net.cpp:434] accuracy <- post_FC_top_post_FC_0_split_0
I0818 14:09:06.143826 21603 net.cpp:434] accuracy <- label_dataLayer_1_split_0
I0818 14:09:06.143846 21603 net.cpp:408] accuracy -> accuracy
…
