…
I0817 16:13:05.243894 17318 net.cpp:322] The NetState phase (0) differed from the phase (1) specified by a rule in layer L3_b9_cbr2_bn
I0817 16:13:05.245606 17318 net.cpp:58] Initializing net from parameters: 
name: "Cifar-Resnet"
state {
  phase: TRAIN
  level: 0
  stage: ""
}
layer {
  name: "dataLayer"
  type: "Data"
  top: "data_top"
  top: "label"
  include {
    phase: TRAIN
  }
  transform_param {
    mirror: true
    crop_size: 32
    mean_file: "examples/cifar100/mean.binaryproto"
  }
  data_param {
    source: "examples/cifar100/cifar100_train_lmdb"
    batch_size: 125
    backend: LMDB
  }
  image_data_param {
    shuffle: true
  }
}
layer {
  name: "pre_conv"
  type: "Convolution"
  bottom: "data_top"
  top: "pre_conv_top"
  param {
    lr_mult: 1
    decay_mult: 1
  }
  param {
    lr_mult: 2
    decay_mult: 0
  }
  convolution_param {
    num_output: 16
    pad: 1
    kernel_size: 3
    stride: 1
    weight_filler {
      type: "msra"
    }
    bias_filler {
      type: "constant"
    }
  }
}
layer {
  name: "pre_bn"
  type: "BatchNorm"
  bottom: "pre_conv_top"
  top: "pre_bn_top"
  include {
    phase: TRAIN
  }
  batch_norm_param {
    use_global_stats: false
    moving_average_fraction: 0.95
  }
}
layer {
  name: "pre_scale"
  type: "Scale"
  bottom: "pre_bn_top"
  top: "pre_bn_top"
  scale_param {
    bias_term: true
  }
}
layer {
  name: "pre_relu"
  type: "ReLU"
  bottom: "pre_bn_top"
  top: "pre_bn_top"
}
layer {
  name: "L1_b1_cbr1_conv"
  type: "Convolution"
  bottom: "pre_bn_top"
  top: "L1_b1_cbr1_conv_top"
  param {
    lr_mult: 1
    decay_mult: 1
  }
  param {
    lr_mult: 2
    decay_mult: 0
  }
  convolution_param {
    num_output: 16
    pad: 1
    kernel_size: 3
    stride: 1
    weight_filler {
      type: "msra"
    }
    bias_filler {
      type: "constant"
    }
  }
}
layer {
  name: "L1_b1_cbr1_bn"
  type: "BatchNorm"
  bottom: "L1_b1_cbr1_conv_top"
  top: "L1_b1_cbr1_bn_top"
  include {
    phase: TRAIN
  }
  batch_norm_param {
    use_global_stats: false
    moving_average_fraction: 0.95
  }
}
layer {
  name: "L1_b1_cbr1_scale"
  type: "Scale"
  bottom: "L1_b1_cbr1_bn_top"
  top: "L1_b1_cbr1_bn_top"
  scale_param {
    bias_term: true
  }
}
layer {
  name: "L1_b1_cbr1_relu"
  type: "ReLU"
  bottom: "L1_b1_cbr1_bn_top"
  top: "L1_b1_cbr1_bn_top"
}
layer {
  name: "L1_b1_cbr2_conv"
  type: "Convolution"
  bottom: "L1_b1_cbr1_bn_top"
  top: "L1_b1_cbr2_conv_top"
  param {
    lr_mult: 1
    decay_mult: 1
  }
  param {
    lr_mult: 2
    decay_mult: 0
  }
  convolution_param {
    num_output: 16
    pad: 1
    kernel_size: 3
    stride: 1
    weight_filler {
      type: "msra"
    }
    bias_filler {
      type: "constant"
    }
  }
}
layer {
  name: "L1_b1_cbr2_bn"
  type: "BatchNorm"
  bottom: "L1_b1_cbr2_conv_top"
  top: "L1_b1_cbr2_bn_top"
  include {
    phase: TRAIN
  }
  batch_norm_param {
    use_global_stats: false
    moving_average_fraction: 0.95
  }
}
layer {
  name: "L1_b1_cbr2_scale"
  type: "Scale"
  bottom: "L1_b1_cbr2_bn_top"
  top: "L1_b1_cbr2_bn_top"
  scale_param {
    bias_term: true
  }
}
layer {
  name: "L1_b1_sum_eltwise"
  type: "Eltwise"
  bottom: "L1_b1_cbr2_bn_top"
  bottom: "pre_bn_top"
  top: "L1_b1_sum_eltwise_top"
  eltwise_param {
    operation: SUM
  }
}
layer {
  name: "L1_b1_relu"
  type: "ReLU"
  bottom: "L1_b1_sum_eltwise_top"
  top: "L1_b1_sum_eltwise_top"
}
layer {
  name: "L1_b2_cbr1_conv"
  type: "Convolution"
  bottom: "L1_b1_sum_eltwise_top"
  top: "L1_b2_cbr1_conv_top"
  param {
    lr_mult: 1
    decay_mult: 1
  }
  param {
    lr_mult: 2
    decay_mult: 0
  }
  convolution_param {
    num_output: 16
    pad: 1
    kernel_size: 3
    stride: 1
    weight_filler {
      type: "msra"
    }
    bias_filler {
      type: "constant"
    }
  }
}
layer {
  name: "L1_b2_cbr1_bn"
  type: "BatchNorm"
  bottom: "L1_b2_cbr1_conv_top"
  top: "L1_b2_cbr1_bn_top"
  include {
    phase: TRAIN
  }
  batch_norm_param {
    use_global_stats: false
    moving_average_fraction: 0.95
  }
}
layer {
  name: "L1_b2_cbr1_scale"
  type: "Scale"
  bottom: "L1_b2_cbr1_bn_top"
  top: "L1_b2_cbr1_bn_top"
  scale_param {
    bias_term: true
  }
}
layer {
  name: "L1_b2_cbr1_relu"
  type: "ReLU"
  bottom: "L1_b2_cbr1_bn_top"
  top: "L1_b2_cbr1_bn_top"
}
layer {
  name: "L1_b2_cbr2_conv"
  type: "Convolution"
  bottom: "L1_b2_cbr1_bn_top"
  top: "L1_b2_cbr2_conv_top"
  param {
    lr_mult: 1
    decay_mult: 1
  }
  param {
    lr_mult: 2
    decay_mult: 0
  }
  convolution_param {
    num_output: 16
    pad: 1
    kernel_size: 3
    stride: 1
    weight_filler {
      type: "msra"
    }
    bias_filler {
      type: "constant"
    }
  }
}
layer {
  name: "L1_b2_cbr2_bn"
  type: "BatchNorm"
  bottom: "L1_b2_cbr2_conv_top"
  top: "L1_b2_cbr2_bn_top"
  include {
    phase: TRAIN
  }
  batch_norm_param {
    use_global_stats: false
    moving_average_fraction: 0.95
  }
}
layer {
  name: "L1_b2_cbr2_scale"
  type: "Scale"
  bottom: "L1_b2_cbr2_bn_top"
  top: "L1_b2_cbr2_bn_top"
  scale_param {
    bias_term: true
  }
}
layer {
  name: "L1_b2_sum_eltwise"
  type: "Eltwise"
  bottom: "L1_b2_cbr2_bn_top"
  bottom: "L1_b1_sum_eltwise_top"
  top: "L1_b2_sum_eltwise_top"
  eltwise_param {
    operation: SUM
  }
}
layer {
  name: "L1_b2_relu"
  type: "ReLU"
  bottom: "L1_b2_sum_eltwise_top"
  top: "L1_b2_sum_eltwise_top"
}
layer {
  name: "L1_b3_cbr1_conv"
  type: "Convolution"
  bottom: "L1_b2_sum_eltwise_top"
  top: "L1_b3_cbr1_conv_top"
  param {
    lr_mult: 1
    decay_mult: 1
  }
  param {
    lr_mult: 2
    decay_mult: 0
  }
  convolution_param {
    num_output: 16
    pad: 1
    kernel_size: 3
    stride: 1
    weight_filler {
      type: "msra"
    }
    bias_filler {
      type: "constant"
    }
  }
}
layer {
  name: "L1_b3_cbr1_bn"
  type: "BatchNorm"
  bottom: "L1_b3_cbr1_conv_top"
  top: "L1_b3_cbr1_bn_top"
  include {
    phase: TRAIN
  }
  batch_norm_param {
    use_global_stats: false
    moving_average_fraction: 0.95
  }
}
layer {
  name: "L1_b3_cbr1_scale"
  type: "Scale"
  bottom: "L1_b3_cbr1_bn_top"
  top: "L1_b3_cbr1_bn_top"
  scale_param {
    bias_term: true
  }
}
layer {
  name: "L1_b3_cbr1_relu"
  type: "ReLU"
  bottom: "L1_b3_cbr1_bn_top"
  top: "L1_b3_cbr1_bn_top"
}
layer {
  name: "L1_b3_cbr2_conv"
  type: "Convolution"
  bottom: "L1_b3_cbr1_bn_top"
  top: "L1_b3_cbr2_conv_top"
  param {
    lr_mult: 1
    decay_mult: 1
  }
  param {
    lr_mult: 2
    decay_mult: 0
  }
  convolution_param {
    num_output: 16
    pad: 1
    kernel_size: 3
    stride: 1
    weight_filler {
      type: "msra"
    }
    bias_filler {
      type: "constant"
    }
  }
}
layer {
  name: "L1_b3_cbr2_bn"
  type: "BatchNorm"
  bottom: "L1_b3_cbr2_conv_top"
  top: "L1_b3_cbr2_bn_top"
  include {
    phase: TRAIN
  }
  batch_norm_param {
    use_global_stats: false
    moving_average_fraction: 0.95
  }
}
layer {
  name: "L1_b3_cbr2_scale"
  type: "Scale"
  bottom: "L1_b3_cbr2_bn_top"
  top: "L1_b3_cbr2_bn_top"
  scale_param {
    bias_term: true
  }
}
layer {
  name: "L1_b3_sum_eltwise"
  type: "Eltwise"
  bottom: "L1_b3_cbr2_bn_top"
  bottom: "L1_b2_sum_eltwise_top"
  top: "L1_b3_sum_eltwise_top"
  eltwise_param {
    operation: SUM
  }
}
layer {
  name: "L1_b3_relu"
  type: "ReLU"
  bottom: "L1_b3_sum_eltwise_top"
  top: "L1_b3_sum_eltwise_top"
}
layer {
  name: "L1_b4_cbr1_conv"
  type: "Convolution"
  bottom: "L1_b3_sum_eltwise_top"
  top: "L1_b4_cbr1_conv_top"
  param {
    lr_mult: 1
    decay_mult: 1
  }
  param {
    lr_mult: 2
    decay_mult: 0
  }
  convolution_param {
    num_output: 16
    pad: 1
    kernel_size: 3
    stride: 1
    weight_filler {
      type: "msra"
    }
    bias_filler {
      type: "constant"
    }
  }
}
layer {
  name: "L1_b4_cbr1_bn"
  type: "BatchNorm"
  bottom: "L1_b4_cbr1_conv_top"
  top: "L1_b4_cbr1_bn_top"
  include {
    phase: TRAIN
  }
  batch_norm_param {
    use_global_stats: false
    moving_average_fraction: 0.95
  }
}
layer {
  name: "L1_b4_cbr1_scale"
  type: "Scale"
  bottom: "L1_b4_cbr1_bn_top"
  top: "L1_b4_cbr1_bn_top"
  scale_param {
    bias_term: true
  }
}
layer {
  name: "L1_b4_cbr1_relu"
  type: "ReLU"
  bottom: "L1_b4_cbr1_bn_top"
  top: "L1_b4_cbr1_bn_top"
}
layer {
  name: "L1_b4_cbr2_conv"
  type: "Convolution"
  bottom: "L1_b4_cbr1_bn_top"
  top: "L1_b4_cbr2_conv_top"
  param {
    lr_mult: 1
    decay_mult: 1
  }
  param {
    lr_mult: 2
    decay_mult: 0
  }
  convolution_param {
    num_output: 16
    pad: 1
    kernel_size: 3
    stride: 1
    weight_filler {
      type: "msra"
    }
    bias_filler {
      type: "constant"
    }
  }
}
layer {
  name: "L1_b4_cbr2_bn"
  type: "BatchNorm"
  bottom: "L1_b4_cbr2_conv_top"
  top: "L1_b4_cbr2_bn_top"
  include {
    phase: TRAIN
  }
  batch_norm_param {
    use_global_stats: false
    moving_average_fraction: 0.95
  }
}
layer {
  name: "L1_b4_cbr2_scale"
  type: "Scale"
  bottom: "L1_b4_cbr2_bn_top"
  top: "L1_b4_cbr2_bn_top"
  scale_param {
    bias_term: true
  }
}
layer {
  name: "L1_b4_sum_eltwise"
  type: "Eltwise"
  bottom: "L1_b4_cbr2_bn_top"
  bottom: "L1_b3_sum_eltwise_top"
  top: "L1_b4_sum_eltwise_top"
  eltwise_param {
    operation: SUM
  }
}
layer {
  name: "L1_b4_relu"
  type: "ReLU"
  bottom: "L1_b4_sum_eltwise_top"
  top: "L1_b4_sum_eltwise_top"
}
layer {
  name: "L1_b5_cbr1_conv"
  type: "Convolution"
  bottom: "L1_b4_sum_eltwise_top"
  top: "L1_b5_cbr1_conv_top"
  param {
    lr_mult: 1
    decay_mult: 1
  }
  param {
    lr_mult: 2
    decay_mult: 0
  }
  convolution_param {
    num_output: 16
    pad: 1
    kernel_size: 3
    stride: 1
    weight_filler {
      type: "msra"
    }
    bias_filler {
      type: "constant"
    }
  }
}
layer {
  name: "L1_b5_cbr1_bn"
  type: "BatchNorm"
  bottom: "L1_b5_cbr1_conv_top"
  top: "L1_b5_cbr1_bn_top"
  include {
    phase: TRAIN
  }
  batch_norm_param {
    use_global_stats: false
    moving_average_fraction: 0.95
  }
}
layer {
  name: "L1_b5_cbr1_scale"
  type: "Scale"
  bottom: "L1_b5_cbr1_bn_top"
  top: "L1_b5_cbr1_bn_top"
  scale_param {
    bias_term: true
  }
}
layer {
  name: "L1_b5_cbr1_relu"
  type: "ReLU"
  bottom: "L1_b5_cbr1_bn_top"
  top: "L1_b5_cbr1_bn_top"
}
layer {
  name: "L1_b5_cbr2_conv"
  type: "Convolution"
  bottom: "L1_b5_cbr1_bn_top"
  top: "L1_b5_cbr2_conv_top"
  param {
    lr_mult: 1
    decay_mult: 1
  }
  param {
    lr_mult: 2
    decay_mult: 0
  }
  convolution_param {
    num_output: 16
    pad: 1
    kernel_size: 3
    stride: 1
    weight_filler {
      type: "msra"
    }
    bias_filler {
      type: "constant"
    }
  }
}
layer {
  name: "L1_b5_cbr2_bn"
  type: "BatchNorm"
  bottom: "L1_b5_cbr2_conv_top"
  top: "L1_b5_cbr2_bn_top"
  include {
    phase: TRAIN
  }
  batch_norm_param {
    use_global_stats: false
    moving_average_fraction: 0.95
  }
}
layer {
  name: "L1_b5_cbr2_scale"
  type: "Scale"
  bottom: "L1_b5_cbr2_bn_top"
  top: "L1_b5_cbr2_bn_top"
  scale_param {
    bias_term: true
  }
}
layer {
  name: "L1_b5_sum_eltwise"
  type: "Eltwise"
  bottom: "L1_b5_cbr2_bn_top"
  bottom: "L1_b4_sum_eltwise_top"
  top: "L1_b5_sum_eltwise_top"
  eltwise_param {
    operation: SUM
  }
}
layer {
  name: "L1_b5_relu"
  type: "ReLU"
  bottom: "L1_b5_sum_eltwise_top"
  top: "L1_b5_sum_eltwise_top"
}
layer {
  name: "L1_b6_cbr1_conv"
  type: "Convolution"
  bottom: "L1_b5_sum_eltwise_top"
  top: "L1_b6_cbr1_conv_top"
  param {
    lr_mult: 1
    decay_mult: 1
  }
  param {
    lr_mult: 2
    decay_mult: 0
  }
  convolution_param {
    num_output: 16
    pad: 1
    kernel_size: 3
    stride: 1
    weight_filler {
      type: "msra"
    }
    bias_filler {
      type: "constant"
    }
  }
}
layer {
  name: "L1_b6_cbr1_bn"
  type: "BatchNorm"
  bottom: "L1_b6_cbr1_conv_top"
  top: "L1_b6_cbr1_bn_top"
  include {
    phase: TRAIN
  }
  batch_norm_param {
    use_global_stats: false
    moving_average_fraction: 0.95
  }
}
layer {
  name: "L1_b6_cbr1_scale"
  type: "Scale"
  bottom: "L1_b6_cbr1_bn_top"
  top: "L1_b6_cbr1_bn_top"
  scale_param {
    bias_term: true
  }
}
layer {
  name: "L1_b6_cbr1_relu"
  type: "ReLU"
  bottom: "L1_b6_cbr1_bn_top"
  top: "L1_b6_cbr1_bn_top"
}
layer {
  name: "L1_b6_cbr2_conv"
  type: "Convolution"
  bottom: "L1_b6_cbr1_bn_top"
  top: "L1_b6_cbr2_conv_top"
  param {
    lr_mult: 1
    decay_mult: 1
  }
  param {
    lr_mult: 2
    decay_mult: 0
  }
  convolution_param {
    num_output: 16
    pad: 1
    kernel_size: 3
    stride: 1
    weight_filler {
      type: "msra"
    }
    bias_filler {
      type: "constant"
    }
  }
}
layer {
  name: "L1_b6_cbr2_bn"
  type: "BatchNorm"
  bottom: "L1_b6_cbr2_conv_top"
  top: "L1_b6_cbr2_bn_top"
  include {
    phase: TRAIN
  }
  batch_norm_param {
    use_global_stats: false
    moving_average_fraction: 0.95
  }
}
layer {
  name: "L1_b6_cbr2_scale"
  type: "Scale"
  bottom: "L1_b6_cbr2_bn_top"
  top: "L1_b6_cbr2_bn_top"
  scale_param {
    bias_term: true
  }
}
layer {
  name: "L1_b6_sum_eltwise"
  type: "Eltwise"
  bottom: "L1_b6_cbr2_bn_top"
  bottom: "L1_b5_sum_eltwise_top"
  top: "L1_b6_sum_eltwise_top"
  eltwise_param {
    operation: SUM
  }
}
layer {
  name: "L1_b6_relu"
  type: "ReLU"
  bottom: "L1_b6_sum_eltwise_top"
  top: "L1_b6_sum_eltwise_top"
}
layer {
  name: "L1_b7_cbr1_conv"
  type: "Convolution"
  bottom: "L1_b6_sum_eltwise_top"
  top: "L1_b7_cbr1_conv_top"
  param {
    lr_mult: 1
    decay_mult: 1
  }
  param {
    lr_mult: 2
    decay_mult: 0
  }
  convolution_param {
    num_output: 16
    pad: 1
    kernel_size: 3
    stride: 1
    weight_filler {
      type: "msra"
    }
    bias_filler {
      type: "constant"
    }
  }
}
layer {
  name: "L1_b7_cbr1_bn"
  type: "BatchNorm"
  bottom: "L1_b7_cbr1_conv_top"
  top: "L1_b7_cbr1_bn_top"
  include {
    phase: TRAIN
  }
  batch_norm_param {
    use_global_stats: false
    moving_average_fraction: 0.95
  }
}
layer {
  name: "L1_b7_cbr1_scale"
  type: "Scale"
  bottom: "L1_b7_cbr1_bn_top"
  top: "L1_b7_cbr1_bn_top"
  scale_param {
    bias_term: true
  }
}
layer {
  name: "L1_b7_cbr1_relu"
  type: "ReLU"
  bottom: "L1_b7_cbr1_bn_top"
  top: "L1_b7_cbr1_bn_top"
}
layer {
  name: "L1_b7_cbr2_conv"
  type: "Convolution"
  bottom: "L1_b7_cbr1_bn_top"
  top: "L1_b7_cbr2_conv_top"
  param {
    lr_mult: 1
    decay_mult: 1
  }
  param {
    lr_mult: 2
    decay_mult: 0
  }
  convolution_param {
    num_output: 16
    pad: 1
    kernel_size: 3
    stride: 1
    weight_filler {
      type: "msra"
    }
    bias_filler {
      type: "constant"
    }
  }
}
layer {
  name: "L1_b7_cbr2_bn"
  type: "BatchNorm"
  bottom: "L1_b7_cbr2_conv_top"
  top: "L1_b7_cbr2_bn_top"
  include {
    phase: TRAIN
  }
  batch_norm_param {
    use_global_stats: false
    moving_average_fraction: 0.95
  }
}
layer {
  name: "L1_b7_cbr2_scale"
  type: "Scale"
  bottom: "L1_b7_cbr2_bn_top"
  top: "L1_b7_cbr2_bn_top"
  scale_param {
    bias_term: true
  }
}
layer {
  name: "L1_b7_sum_eltwise"
  type: "Eltwise"
  bottom: "L1_b7_cbr2_bn_top"
  bottom: "L1_b6_sum_eltwise_top"
  top: "L1_b7_sum_eltwise_top"
  eltwise_param {
    operation: SUM
  }
}
layer {
  name: "L1_b7_relu"
  type: "ReLU"
  bottom: "L1_b7_sum_eltwise_top"
  top: "L1_b7_sum_eltwise_top"
}
layer {
  name: "L1_b8_cbr1_conv"
  type: "Convolution"
  bottom: "L1_b7_sum_eltwise_top"
  top: "L1_b8_cbr1_conv_top"
  param {
    lr_mult: 1
    decay_mult: 1
  }
  param {
    lr_mult: 2
    decay_mult: 0
  }
  convolution_param {
    num_output: 16
    pad: 1
    kernel_size: 3
    stride: 1
    weight_filler {
      type: "msra"
    }
    bias_filler {
      type: "constant"
    }
  }
}
layer {
  name: "L1_b8_cbr1_bn"
  type: "BatchNorm"
  bottom: "L1_b8_cbr1_conv_top"
  top: "L1_b8_cbr1_bn_top"
  include {
    phase: TRAIN
  }
  batch_norm_param {
    use_global_stats: false
    moving_average_fraction: 0.95
  }
}
layer {
  name: "L1_b8_cbr1_scale"
  type: "Scale"
  bottom: "L1_b8_cbr1_bn_top"
  top: "L1_b8_cbr1_bn_top"
  scale_param {
    bias_term: true
  }
}
layer {
  name: "L1_b8_cbr1_relu"
  type: "ReLU"
  bottom: "L1_b8_cbr1_bn_top"
  top: "L1_b8_cbr1_bn_top"
}
layer {
  name: "L1_b8_cbr2_conv"
  type: "Convolution"
  bottom: "L1_b8_cbr1_bn_top"
  top: "L1_b8_cbr2_conv_top"
  param {
    lr_mult: 1
    decay_mult: 1
  }
  param {
    lr_mult: 2
    decay_mult: 0
  }
  convolution_param {
    num_output: 16
    pad: 1
    kernel_size: 3
    stride: 1
    weight_filler {
      type: "msra"
    }
    bias_filler {
      type: "constant"
    }
  }
}
layer {
  name: "L1_b8_cbr2_bn"
  type: "BatchNorm"
  bottom: "L1_b8_cbr2_conv_top"
  top: "L1_b8_cbr2_bn_top"
  include {
    phase: TRAIN
  }
  batch_norm_param {
    use_global_stats: false
    moving_average_fraction: 0.95
  }
}
layer {
  name: "L1_b8_cbr2_scale"
  type: "Scale"
  bottom: "L1_b8_cbr2_bn_top"
  top: "L1_b8_cbr2_bn_top"
  scale_param {
    bias_term: true
  }
}
layer {
  name: "L1_b8_sum_eltwise"
  type: "Eltwise"
  bottom: "L1_b8_cbr2_bn_top"
  bottom: "L1_b7_sum_eltwise_top"
  top: "L1_b8_sum_eltwise_top"
  eltwise_param {
    operation: SUM
  }
}
layer {
  name: "L1_b8_relu"
  type: "ReLU"
  bottom: "L1_b8_sum_eltwise_top"
  top: "L1_b8_sum_eltwise_top"
}
layer {
  name: "L1_b9_cbr1_conv"
  type: "Convolution"
  bottom: "L1_b8_sum_eltwise_top"
  top: "L1_b9_cbr1_conv_top"
  param {
    lr_mult: 1
    decay_mult: 1
  }
  param {
    lr_mult: 2
    decay_mult: 0
  }
  convolution_param {
    num_output: 16
    pad: 1
    kernel_size: 3
    stride: 1
    weight_filler {
      type: "msra"
    }
    bias_filler {
      type: "constant"
    }
  }
}
layer {
  name: "L1_b9_cbr1_bn"
  type: "BatchNorm"
  bottom: "L1_b9_cbr1_conv_top"
  top: "L1_b9_cbr1_bn_top"
  include {
    phase: TRAIN
  }
  batch_norm_param {
    use_global_stats: false
    moving_average_fraction: 0.95
  }
}
layer {
  name: "L1_b9_cbr1_scale"
  type: "Scale"
  bottom: "L1_b9_cbr1_bn_top"
  top: "L1_b9_cbr1_bn_top"
  scale_param {
    bias_term: true
  }
}
layer {
  name: "L1_b9_cbr1_relu"
  type: "ReLU"
  bottom: "L1_b9_cbr1_bn_top"
  top: "L1_b9_cbr1_bn_top"
}
layer {
  name: "L1_b9_cbr2_conv"
  type: "Convolution"
  bottom: "L1_b9_cbr1_bn_top"
  top: "L1_b9_cbr2_conv_top"
  param {
    lr_mult: 1
    decay_mult: 1
  }
  param {
    lr_mult: 2
    decay_mult: 0
  }
  convolution_param {
    num_output: 16
    pad: 1
    kernel_size: 3
    stride: 1
    weight_filler {
      type: "msra"
    }
    bias_filler {
      type: "constant"
    }
  }
}
layer {
  name: "L1_b9_cbr2_bn"
  type: "BatchNorm"
  bottom: "L1_b9_cbr2_conv_top"
  top: "L1_b9_cbr2_bn_top"
  include {
    phase: TRAIN
  }
  batch_norm_param {
    use_global_stats: false
    moving_average_fraction: 0.95
  }
}
layer {
  name: "L1_b9_cbr2_scale"
  type: "Scale"
  bottom: "L1_b9_cbr2_bn_top"
  top: "L1_b9_cbr2_bn_top"
  scale_param {
    bias_term: true
  }
}
layer {
  name: "L1_b9_sum_eltwise"
  type: "Eltwise"
  bottom: "L1_b9_cbr2_bn_top"
  bottom: "L1_b8_sum_eltwise_top"
  top: "L1_b9_sum_eltwise_top"
  eltwise_param {
    operation: SUM
  }
}
layer {
  name: "L1_b9_relu"
  type: "ReLU"
  bottom: "L1_b9_sum_eltwise_top"
  top: "L1_b9_sum_eltwise_top"
}
layer {
  name: "L2_b1_cbr1_conv"
  type: "Convolution"
  bottom: "L1_b9_sum_eltwise_top"
  top: "L2_b1_cbr1_conv_top"
  param {
    lr_mult: 1
    decay_mult: 1
  }
  param {
    lr_mult: 2
    decay_mult: 0
  }
  convolution_param {
    num_output: 16
    pad: 1
    kernel_size: 3
    stride: 2
    weight_filler {
      type: "msra"
    }
    bias_filler {
      type: "constant"
    }
  }
}
layer {
  name: "L2_b1_cbr1_bn"
  type: "BatchNorm"
  bottom: "L2_b1_cbr1_conv_top"
  top: "L2_b1_cbr1_bn_top"
  include {
    phase: TRAIN
  }
  batch_norm_param {
    use_global_stats: false
    moving_average_fraction: 0.95
  }
}
layer {
  name: "L2_b1_cbr1_scale"
  type: "Scale"
  bottom: "L2_b1_cbr1_bn_top"
  top: "L2_b1_cbr1_bn_top"
  scale_param {
    bias_term: true
  }
}
layer {
  name: "L2_b1_cbr1_relu"
  type: "ReLU"
  bottom: "L2_b1_cbr1_bn_top"
  top: "L2_b1_cbr1_bn_top"
}
layer {
  name: "L2_b1_cbr2_conv"
  type: "Convolution"
  bottom: "L2_b1_cbr1_bn_top"
  top: "L2_b1_cbr2_conv_top"
  param {
    lr_mult: 1
    decay_mult: 1
  }
  param {
    lr_mult: 2
    decay_mult: 0
  }
  convolution_param {
    num_output: 16
    pad: 1
    kernel_size: 3
    stride: 1
    weight_filler {
      type: "msra"
    }
    bias_filler {
      type: "constant"
    }
  }
}
layer {
  name: "L2_b1_cbr2_bn"
  type: "BatchNorm"
  bottom: "L2_b1_cbr2_conv_top"
  top: "L2_b1_cbr2_bn_top"
  include {
    phase: TRAIN
  }
  batch_norm_param {
    use_global_stats: false
    moving_average_fraction: 0.95
  }
}
layer {
  name: "L2_b1_cbr2_scale"
  type: "Scale"
  bottom: "L2_b1_cbr2_bn_top"
  top: "L2_b1_cbr2_bn_top"
  scale_param {
    bias_term: true
  }
}
layer {
  name: "L2_b1_pool"
  type: "Pooling"
  bottom: "L1_b9_sum_eltwise_top"
  top: "L2_b1_pool"
  pooling_param {
    pool: AVE
    kernel_size: 3
    stride: 2
  }
}
layer {
  name: "L2_b1_sum_eltwise"
  type: "Eltwise"
  bottom: "L2_b1_cbr2_bn_top"
  bottom: "L2_b1_pool"
  top: "L2_b1_sum_eltwise_top"
  eltwise_param {
    operation: SUM
  }
}
layer {
  name: "L2_b1_relu"
  type: "ReLU"
  bottom: "L2_b1_sum_eltwise_top"
  top: "L2_b1_sum_eltwise_top"
}
layer {
  name: "L2_b1_zeros"
  type: "DummyData"
  top: "L2_b1_zeros"
  dummy_data_param {
    data_filler {
      type: "constant"
      value: 0
    }
    shape {
      dim: 125
      dim: 16
      dim: 16
      dim: 16
    }
  }
}
layer {
  name: "L2_b1_concat0"
  type: "Concat"
  bottom: "L2_b1_sum_eltwise_top"
  bottom: "L2_b1_zeros"
  top: "L2_b1_concat0"
  concat_param {
    axis: 1
  }
}
layer {
  name: "L2_b2_cbr1_conv"
  type: "Convolution"
  bottom: "L2_b1_concat0"
  top: "L2_b2_cbr1_conv_top"
  param {
    lr_mult: 1
    decay_mult: 1
  }
  param {
    lr_mult: 2
    decay_mult: 0
  }
  convolution_param {
    num_output: 32
    pad: 1
    kernel_size: 3
    stride: 1
    weight_filler {
      type: "msra"
    }
    bias_filler {
      type: "constant"
    }
  }
}
layer {
  name: "L2_b2_cbr1_bn"
  type: "BatchNorm"
  bottom: "L2_b2_cbr1_conv_top"
  top: "L2_b2_cbr1_bn_top"
  include {
    phase: TRAIN
  }
  batch_norm_param {
    use_global_stats: false
    moving_average_fraction: 0.95
  }
}
layer {
  name: "L2_b2_cbr1_scale"
  type: "Scale"
  bottom: "L2_b2_cbr1_bn_top"
  top: "L2_b2_cbr1_bn_top"
  scale_param {
    bias_term: true
  }
}
layer {
  name: "L2_b2_cbr1_relu"
  type: "ReLU"
  bottom: "L2_b2_cbr1_bn_top"
  top: "L2_b2_cbr1_bn_top"
}
layer {
  name: "L2_b2_cbr2_conv"
  type: "Convolution"
  bottom: "L2_b2_cbr1_bn_top"
  top: "L2_b2_cbr2_conv_top"
  param {
    lr_mult: 1
    decay_mult: 1
  }
  param {
    lr_mult: 2
    decay_mult: 0
  }
  convolution_param {
    num_output: 32
    pad: 1
    kernel_size: 3
    stride: 1
    weight_filler {
      type: "msra"
    }
    bias_filler {
      type: "constant"
    }
  }
}
layer {
  name: "L2_b2_cbr2_bn"
  type: "BatchNorm"
  bottom: "L2_b2_cbr2_conv_top"
  top: "L2_b2_cbr2_bn_top"
  include {
    phase: TRAIN
  }
  batch_norm_param {
    use_global_stats: false
    moving_average_fraction: 0.95
  }
}
layer {
  name: "L2_b2_cbr2_scale"
  type: "Scale"
  bottom: "L2_b2_cbr2_bn_top"
  top: "L2_b2_cbr2_bn_top"
  scale_param {
    bias_term: true
  }
}
layer {
  name: "L2_b2_sum_eltwise"
  type: "Eltwise"
  bottom: "L2_b2_cbr2_bn_top"
  bottom: "L2_b1_concat0"
  top: "L2_b2_sum_eltwise_top"
  eltwise_param {
    operation: SUM
  }
}
layer {
  name: "L2_b2_relu"
  type: "ReLU"
  bottom: "L2_b2_sum_eltwise_top"
  top: "L2_b2_sum_eltwise_top"
}
layer {
  name: "L2_b3_cbr1_conv"
  type: "Convolution"
  bottom: "L2_b2_sum_eltwise_top"
  top: "L2_b3_cbr1_conv_top"
  param {
    lr_mult: 1
    decay_mult: 1
  }
  param {
    lr_mult: 2
    decay_mult: 0
  }
  convolution_param {
    num_output: 32
    pad: 1
    kernel_size: 3
    stride: 1
    weight_filler {
      type: "msra"
    }
    bias_filler {
      type: "constant"
    }
  }
}
layer {
  name: "L2_b3_cbr1_bn"
  type: "BatchNorm"
  bottom: "L2_b3_cbr1_conv_top"
  top: "L2_b3_cbr1_bn_top"
  include {
    phase: TRAIN
  }
  batch_norm_param {
    use_global_stats: false
    moving_average_fraction: 0.95
  }
}
layer {
  name: "L2_b3_cbr1_scale"
  type: "Scale"
  bottom: "L2_b3_cbr1_bn_top"
  top: "L2_b3_cbr1_bn_top"
  scale_param {
    bias_term: true
  }
}
layer {
  name: "L2_b3_cbr1_relu"
  type: "ReLU"
  bottom: "L2_b3_cbr1_bn_top"
  top: "L2_b3_cbr1_bn_top"
}
layer {
  name: "L2_b3_cbr2_conv"
  type: "Convolution"
  bottom: "L2_b3_cbr1_bn_top"
  top: "L2_b3_cbr2_conv_top"
  param {
    lr_mult: 1
    decay_mult: 1
  }
  param {
    lr_mult: 2
    decay_mult: 0
  }
  convolution_param {
    num_output: 32
    pad: 1
    kernel_size: 3
    stride: 1
    weight_filler {
      type: "msra"
    }
    bias_filler {
      type: "constant"
    }
  }
}
layer {
  name: "L2_b3_cbr2_bn"
  type: "BatchNorm"
  bottom: "L2_b3_cbr2_conv_top"
  top: "L2_b3_cbr2_bn_top"
  include {
    phase: TRAIN
  }
  batch_norm_param {
    use_global_stats: false
    moving_average_fraction: 0.95
  }
}
layer {
  name: "L2_b3_cbr2_scale"
  type: "Scale"
  bottom: "L2_b3_cbr2_bn_top"
  top: "L2_b3_cbr2_bn_top"
  scale_param {
    bias_term: true
  }
}
layer {
  name: "L2_b3_sum_eltwise"
  type: "Eltwise"
  bottom: "L2_b3_cbr2_bn_top"
  bottom: "L2_b2_sum_eltwise_top"
  top: "L2_b3_sum_eltwise_top"
  eltwise_param {
    operation: SUM
  }
}
layer {
  name: "L2_b3_relu"
  type: "ReLU"
  bottom: "L2_b3_sum_eltwise_top"
  top: "L2_b3_sum_eltwise_top"
}
layer {
  name: "L2_b4_cbr1_conv"
  type: "Convolution"
  bottom: "L2_b3_sum_eltwise_top"
  top: "L2_b4_cbr1_conv_top"
  param {
    lr_mult: 1
    decay_mult: 1
  }
  param {
    lr_mult: 2
    decay_mult: 0
  }
  convolution_param {
    num_output: 32
    pad: 1
    kernel_size: 3
    stride: 1
    weight_filler {
      type: "msra"
    }
    bias_filler {
      type: "constant"
    }
  }
}
layer {
  name: "L2_b4_cbr1_bn"
  type: "BatchNorm"
  bottom: "L2_b4_cbr1_conv_top"
  top: "L2_b4_cbr1_bn_top"
  include {
    phase: TRAIN
  }
  batch_norm_param {
    use_global_stats: false
    moving_average_fraction: 0.95
  }
}
layer {
  name: "L2_b4_cbr1_scale"
  type: "Scale"
  bottom: "L2_b4_cbr1_bn_top"
  top: "L2_b4_cbr1_bn_top"
  scale_param {
    bias_term: true
  }
}
layer {
  name: "L2_b4_cbr1_relu"
  type: "ReLU"
  bottom: "L2_b4_cbr1_bn_top"
  top: "L2_b4_cbr1_bn_top"
}
layer {
  name: "L2_b4_cbr2_conv"
  type: "Convolution"
  bottom: "L2_b4_cbr1_bn_top"
  top: "L2_b4_cbr2_conv_top"
  param {
    lr_mult: 1
    decay_mult: 1
  }
  param {
    lr_mult: 2
    decay_mult: 0
  }
  convolution_param {
    num_output: 32
    pad: 1
    kernel_size: 3
    stride: 1
    weight_filler {
      type: "msra"
    }
    bias_filler {
      type: "constant"
    }
  }
}
layer {
  name: "L2_b4_cbr2_bn"
  type: "BatchNorm"
  bottom: "L2_b4_cbr2_conv_top"
  top: "L2_b4_cbr2_bn_top"
  include {
    phase: TRAIN
  }
  batch_norm_param {
    use_global_stats: false
    moving_average_fraction: 0.95
  }
}
layer {
  name: "L2_b4_cbr2_scale"
  type: "Scale"
  bottom: "L2_b4_cbr2_bn_top"
  top: "L2_b4_cbr2_bn_top"
  scale_param {
    bias_term: true
  }
}
layer {
  name: "L2_b4_sum_eltwise"
  type: "Eltwise"
  bottom: "L2_b4_cbr2_bn_top"
  bottom: "L2_b3_sum_eltwise_top"
  top: "L2_b4_sum_eltwise_top"
  eltwise_param {
    operation: SUM
  }
}
layer {
  name: "L2_b4_relu"
  type: "ReLU"
  bottom: "L2_b4_sum_eltwise_top"
  top: "L2_b4_sum_eltwise_top"
}
layer {
  name: "L2_b5_cbr1_conv"
  type: "Convolution"
  bottom: "L2_b4_sum_eltwise_top"
  top: "L2_b5_cbr1_conv_top"
  param {
    lr_mult: 1
    decay_mult: 1
  }
  param {
    lr_mult: 2
    decay_mult: 0
  }
  convolution_param {
    num_output: 32
    pad: 1
    kernel_size: 3
    stride: 1
    weight_filler {
      type: "msra"
    }
    bias_filler {
      type: "constant"
    }
  }
}
layer {
  name: "L2_b5_cbr1_bn"
  type: "BatchNorm"
  bottom: "L2_b5_cbr1_conv_top"
  top: "L2_b5_cbr1_bn_top"
  include {
    phase: TRAIN
  }
  batch_norm_param {
    use_global_stats: false
    moving_average_fraction: 0.95
  }
}
layer {
  name: "L2_b5_cbr1_scale"
  type: "Scale"
  bottom: "L2_b5_cbr1_bn_top"
  top: "L2_b5_cbr1_bn_top"
  scale_param {
    bias_term: true
  }
}
layer {
  name: "L2_b5_cbr1_relu"
  type: "ReLU"
  bottom: "L2_b5_cbr1_bn_top"
  top: "L2_b5_cbr1_bn_top"
}
layer {
  name: "L2_b5_cbr2_conv"
  type: "Convolution"
  bottom: "L2_b5_cbr1_bn_top"
  top: "L2_b5_cbr2_conv_top"
  param {
    lr_mult: 1
    decay_mult: 1
  }
  param {
    lr_mult: 2
    decay_mult: 0
  }
  convolution_param {
    num_output: 32
    pad: 1
    kernel_size: 3
    stride: 1
    weight_filler {
      type: "msra"
    }
    bias_filler {
      type: "constant"
    }
  }
}
layer {
  name: "L2_b5_cbr2_bn"
  type: "BatchNorm"
  bottom: "L2_b5_cbr2_conv_top"
  top: "L2_b5_cbr2_bn_top"
  include {
    phase: TRAIN
  }
  batch_norm_param {
    use_global_stats: false
    moving_average_fraction: 0.95
  }
}
layer {
  name: "L2_b5_cbr2_scale"
  type: "Scale"
  bottom: "L2_b5_cbr2_bn_top"
  top: "L2_b5_cbr2_bn_top"
  scale_param {
    bias_term: true
  }
}
layer {
  name: "L2_b5_sum_eltwise"
  type: "Eltwise"
  bottom: "L2_b5_cbr2_bn_top"
  bottom: "L2_b4_sum_eltwise_top"
  top: "L2_b5_sum_eltwise_top"
  eltwise_param {
    operation: SUM
  }
}
layer {
  name: "L2_b5_relu"
  type: "ReLU"
  bottom: "L2_b5_sum_eltwise_top"
  top: "L2_b5_sum_eltwise_top"
}
layer {
  name: "L2_b6_cbr1_conv"
  type: "Convolution"
  bottom: "L2_b5_sum_eltwise_top"
  top: "L2_b6_cbr1_conv_top"
  param {
    lr_mult: 1
    decay_mult: 1
  }
  param {
    lr_mult: 2
    decay_mult: 0
  }
  convolution_param {
    num_output: 32
    pad: 1
    kernel_size: 3
    stride: 1
    weight_filler {
      type: "msra"
    }
    bias_filler {
      type: "constant"
    }
  }
}
layer {
  name: "L2_b6_cbr1_bn"
  type: "BatchNorm"
  bottom: "L2_b6_cbr1_conv_top"
  top: "L2_b6_cbr1_bn_top"
  include {
    phase: TRAIN
  }
  batch_norm_param {
    use_global_stats: false
    moving_average_fraction: 0.95
  }
}
layer {
  name: "L2_b
I0817 16:13:05.247547 17318 layer_factory.hpp:77] Creating layer dataLayer
I0817 16:13:05.248682 17318 net.cpp:100] Creating Layer dataLayer
I0817 16:13:05.248739 17318 net.cpp:408] dataLayer -> data_top
I0817 16:13:05.248913 17318 net.cpp:408] dataLayer -> label
I0817 16:13:05.249001 17318 data_transformer.cpp:25] Loading mean file from: examples/cifar100/mean.binaryproto
I0817 16:13:05.262596 17323 db_lmdb.cpp:35] Opened lmdb examples/cifar100/cifar100_train_lmdb
I0817 16:13:05.282021 17318 data_layer.cpp:41] output data size: 125,3,32,32
I0817 16:13:05.289261 17318 net.cpp:150] Setting up dataLayer
I0817 16:13:05.289324 17318 net.cpp:157] Top shape: 125 3 32 32 (384000)
I0817 16:13:05.289336 17318 net.cpp:157] Top shape: 125 (125)
I0817 16:13:05.289342 17318 net.cpp:165] Memory required for data: 1536500
I0817 16:13:05.289357 17318 layer_factory.hpp:77] Creating layer label_dataLayer_1_split
I0817 16:13:05.289376 17318 net.cpp:100] Creating Layer label_dataLayer_1_split
I0817 16:13:05.289384 17318 net.cpp:434] label_dataLayer_1_split <- label
I0817 16:13:05.289402 17318 net.cpp:408] label_dataLayer_1_split -> label_dataLayer_1_split_0
I0817 16:13:05.289418 17318 net.cpp:408] label_dataLayer_1_split -> label_dataLayer_1_split_1
I0817 16:13:05.289503 17318 net.cpp:150] Setting up label_dataLayer_1_split
I0817 16:13:05.289516 17318 net.cpp:157] Top shape: 125 (125)
I0817 16:13:05.289523 17318 net.cpp:157] Top shape: 125 (125)
I0817 16:13:05.289528 17318 net.cpp:165] Memory required for data: 1537500
I0817 16:13:05.289535 17318 layer_factory.hpp:77] Creating layer pre_conv
I0817 16:13:05.289595 17318 net.cpp:100] Creating Layer pre_conv
I0817 16:13:05.289608 17318 net.cpp:434] pre_conv <- data_top
I0817 16:13:05.289620 17318 net.cpp:408] pre_conv -> pre_conv_top
I0817 16:13:05.291853 17318 net.cpp:150] Setting up pre_conv
I0817 16:13:05.291873 17318 net.cpp:157] Top shape: 125 16 32 32 (2048000)
I0817 16:13:05.291879 17318 net.cpp:165] Memory required for data: 9729500
I0817 16:13:05.291939 17318 layer_factory.hpp:77] Creating layer pre_bn
I0817 16:13:05.292007 17318 net.cpp:100] Creating Layer pre_bn
I0817 16:13:05.292019 17318 net.cpp:434] pre_bn <- pre_conv_top
I0817 16:13:05.292032 17318 net.cpp:408] pre_bn -> pre_bn_top
I0817 16:13:05.292688 17324 blocking_queue.cpp:50] Waiting for data
I0817 16:13:05.292724 17318 net.cpp:150] Setting up pre_bn
I0817 16:13:05.292742 17318 net.cpp:157] Top shape: 125 16 32 32 (2048000)
I0817 16:13:05.292748 17318 net.cpp:165] Memory required for data: 17921500
I0817 16:13:05.292765 17318 layer_factory.hpp:77] Creating layer pre_scale
I0817 16:13:05.292821 17318 net.cpp:100] Creating Layer pre_scale
I0817 16:13:05.292834 17318 net.cpp:434] pre_scale <- pre_bn_top
I0817 16:13:05.292850 17318 net.cpp:395] pre_scale -> pre_bn_top (in-place)
I0817 16:13:05.293015 17318 layer_factory.hpp:77] Creating layer pre_scale
I0817 16:13:05.293267 17318 net.cpp:150] Setting up pre_scale
I0817 16:13:05.293282 17318 net.cpp:157] Top shape: 125 16 32 32 (2048000)
I0817 16:13:05.293288 17318 net.cpp:165] Memory required for data: 26113500
I0817 16:13:05.293299 17318 layer_factory.hpp:77] Creating layer pre_relu
I0817 16:13:05.293344 17318 net.cpp:100] Creating Layer pre_relu
I0817 16:13:05.293355 17318 net.cpp:434] pre_relu <- pre_bn_top
I0817 16:13:05.293365 17318 net.cpp:395] pre_relu -> pre_bn_top (in-place)
I0817 16:13:05.293375 17318 net.cpp:150] Setting up pre_relu
I0817 16:13:05.293382 17318 net.cpp:157] Top shape: 125 16 32 32 (2048000)
I0817 16:13:05.293387 17318 net.cpp:165] Memory required for data: 34305500
I0817 16:13:05.293392 17318 layer_factory.hpp:77] Creating layer pre_bn_top_pre_relu_0_split
I0817 16:13:05.293400 17318 net.cpp:100] Creating Layer pre_bn_top_pre_relu_0_split
I0817 16:13:05.293404 17318 net.cpp:434] pre_bn_top_pre_relu_0_split <- pre_bn_top
I0817 16:13:05.293414 17318 net.cpp:408] pre_bn_top_pre_relu_0_split -> pre_bn_top_pre_relu_0_split_0
I0817 16:13:05.293426 17318 net.cpp:408] pre_bn_top_pre_relu_0_split -> pre_bn_top_pre_relu_0_split_1
I0817 16:13:05.293473 17318 net.cpp:150] Setting up pre_bn_top_pre_relu_0_split
I0817 16:13:05.293488 17318 net.cpp:157] Top shape: 125 16 32 32 (2048000)
I0817 16:13:05.293495 17318 net.cpp:157] Top shape: 125 16 32 32 (2048000)
I0817 16:13:05.293500 17318 net.cpp:165] Memory required for data: 50689500
I0817 16:13:05.293505 17318 layer_factory.hpp:77] Creating layer L1_b1_cbr1_conv
I0817 16:13:05.293517 17318 net.cpp:100] Creating Layer L1_b1_cbr1_conv
I0817 16:13:05.293524 17318 net.cpp:434] L1_b1_cbr1_conv <- pre_bn_top_pre_relu_0_split_0
I0817 16:13:05.293532 17318 net.cpp:408] L1_b1_cbr1_conv -> L1_b1_cbr1_conv_top
I0817 16:13:05.293846 17318 net.cpp:150] Setting up L1_b1_cbr1_conv
I0817 16:13:05.293861 17318 net.cpp:157] Top shape: 125 16 32 32 (2048000)
I0817 16:13:05.293867 17318 net.cpp:165] Memory required for data: 58881500
I0817 16:13:05.293879 17318 layer_factory.hpp:77] Creating layer L1_b1_cbr1_bn
I0817 16:13:05.293895 17318 net.cpp:100] Creating Layer L1_b1_cbr1_bn
I0817 16:13:05.293900 17318 net.cpp:434] L1_b1_cbr1_bn <- L1_b1_cbr1_conv_top
I0817 16:13:05.293911 17318 net.cpp:408] L1_b1_cbr1_bn -> L1_b1_cbr1_bn_top
I0817 16:13:05.294140 17318 net.cpp:150] Setting up L1_b1_cbr1_bn
I0817 16:13:05.294154 17318 net.cpp:157] Top shape: 125 16 32 32 (2048000)
I0817 16:13:05.294159 17318 net.cpp:165] Memory required for data: 67073500
I0817 16:13:05.294170 17318 layer_factory.hpp:77] Creating layer L1_b1_cbr1_scale
I0817 16:13:05.294185 17318 net.cpp:100] Creating Layer L1_b1_cbr1_scale
I0817 16:13:05.294191 17318 net.cpp:434] L1_b1_cbr1_scale <- L1_b1_cbr1_bn_top
I0817 16:13:05.294199 17318 net.cpp:395] L1_b1_cbr1_scale -> L1_b1_cbr1_bn_top (in-place)
I0817 16:13:05.294248 17318 layer_factory.hpp:77] Creating layer L1_b1_cbr1_scale
I0817 16:13:05.294387 17318 net.cpp:150] Setting up L1_b1_cbr1_scale
I0817 16:13:05.294399 17318 net.cpp:157] Top shape: 125 16 32 32 (2048000)
I0817 16:13:05.294405 17318 net.cpp:165] Memory required for data: 75265500
I0817 16:13:05.294414 17318 layer_factory.hpp:77] Creating layer L1_b1_cbr1_relu
I0817 16:13:05.294430 17318 net.cpp:100] Creating Layer L1_b1_cbr1_relu
I0817 16:13:05.294436 17318 net.cpp:434] L1_b1_cbr1_relu <- L1_b1_cbr1_bn_top
I0817 16:13:05.294445 17318 net.cpp:395] L1_b1_cbr1_relu -> L1_b1_cbr1_bn_top (in-place)
I0817 16:13:05.294456 17318 net.cpp:150] Setting up L1_b1_cbr1_relu
I0817 16:13:05.294462 17318 net.cpp:157] Top shape: 125 16 32 32 (2048000)
I0817 16:13:05.294467 17318 net.cpp:165] Memory required for data: 83457500
I0817 16:13:05.294472 17318 layer_factory.hpp:77] Creating layer L1_b1_cbr2_conv
I0817 16:13:05.294487 17318 net.cpp:100] Creating Layer L1_b1_cbr2_conv
I0817 16:13:05.294493 17318 net.cpp:434] L1_b1_cbr2_conv <- L1_b1_cbr1_bn_top
I0817 16:13:05.294502 17318 net.cpp:408] L1_b1_cbr2_conv -> L1_b1_cbr2_conv_top
I0817 16:13:05.294821 17318 net.cpp:150] Setting up L1_b1_cbr2_conv
I0817 16:13:05.294836 17318 net.cpp:157] Top shape: 125 16 32 32 (2048000)
I0817 16:13:05.294847 17318 net.cpp:165] Memory required for data: 91649500
I0817 16:13:05.294857 17318 layer_factory.hpp:77] Creating layer L1_b1_cbr2_bn
I0817 16:13:05.294870 17318 net.cpp:100] Creating Layer L1_b1_cbr2_bn
I0817 16:13:05.294876 17318 net.cpp:434] L1_b1_cbr2_bn <- L1_b1_cbr2_conv_top
I0817 16:13:05.294884 17318 net.cpp:408] L1_b1_cbr2_bn -> L1_b1_cbr2_bn_top
I0817 16:13:05.295120 17318 net.cpp:150] Setting up L1_b1_cbr2_bn
I0817 16:13:05.295132 17318 net.cpp:157] Top shape: 125 16 32 32 (2048000)
I0817 16:13:05.295137 17318 net.cpp:165] Memory required for data: 99841500
I0817 16:13:05.295151 17318 layer_factory.hpp:77] Creating layer L1_b1_cbr2_scale
I0817 16:13:05.295164 17318 net.cpp:100] Creating Layer L1_b1_cbr2_scale
I0817 16:13:05.295171 17318 net.cpp:434] L1_b1_cbr2_scale <- L1_b1_cbr2_bn_top
I0817 16:13:05.295181 17318 net.cpp:395] L1_b1_cbr2_scale -> L1_b1_cbr2_bn_top (in-place)
I0817 16:13:05.295235 17318 layer_factory.hpp:77] Creating layer L1_b1_cbr2_scale
I0817 16:13:05.295390 17318 net.cpp:150] Setting up L1_b1_cbr2_scale
I0817 16:13:05.295403 17318 net.cpp:157] Top shape: 125 16 32 32 (2048000)
I0817 16:13:05.295409 17318 net.cpp:165] Memory required for data: 108033500
I0817 16:13:05.295418 17318 layer_factory.hpp:77] Creating layer L1_b1_sum_eltwise
I0817 16:13:05.295470 17318 net.cpp:100] Creating Layer L1_b1_sum_eltwise
I0817 16:13:05.295482 17318 net.cpp:434] L1_b1_sum_eltwise <- L1_b1_cbr2_bn_top
I0817 16:13:05.295490 17318 net.cpp:434] L1_b1_sum_eltwise <- pre_bn_top_pre_relu_0_split_1
I0817 16:13:05.295498 17318 net.cpp:408] L1_b1_sum_eltwise -> L1_b1_sum_eltwise_top
I0817 16:13:05.295572 17318 net.cpp:150] Setting up L1_b1_sum_eltwise
I0817 16:13:05.295585 17318 net.cpp:157] Top shape: 125 16 32 32 (2048000)
I0817 16:13:05.295591 17318 net.cpp:165] Memory required for data: 116225500
I0817 16:13:05.295598 17318 layer_factory.hpp:77] Creating layer L1_b1_relu
I0817 16:13:05.295605 17318 net.cpp:100] Creating Layer L1_b1_relu
I0817 16:13:05.295611 17318 net.cpp:434] L1_b1_relu <- L1_b1_sum_eltwise_top
I0817 16:13:05.295624 17318 net.cpp:395] L1_b1_relu -> L1_b1_sum_eltwise_top (in-place)
I0817 16:13:05.295634 17318 net.cpp:150] Setting up L1_b1_relu
I0817 16:13:05.295642 17318 net.cpp:157] Top shape: 125 16 32 32 (2048000)
I0817 16:13:05.295647 17318 net.cpp:165] Memory required for data: 124417500
I0817 16:13:05.295652 17318 layer_factory.hpp:77] Creating layer L1_b1_sum_eltwise_top_L1_b1_relu_0_split
I0817 16:13:05.295661 17318 net.cpp:100] Creating Layer L1_b1_sum_eltwise_top_L1_b1_relu_0_split
I0817 16:13:05.295666 17318 net.cpp:434] L1_b1_sum_eltwise_top_L1_b1_relu_0_split <- L1_b1_sum_eltwise_top
I0817 16:13:05.295675 17318 net.cpp:408] L1_b1_sum_eltwise_top_L1_b1_relu_0_split -> L1_b1_sum_eltwise_top_L1_b1_relu_0_split_0
I0817 16:13:05.295682 17318 net.cpp:408] L1_b1_sum_eltwise_top_L1_b1_relu_0_split -> L1_b1_sum_eltwise_top_L1_b1_relu_0_split_1
I0817 16:13:05.295727 17318 net.cpp:150] Setting up L1_b1_sum_eltwise_top_L1_b1_relu_0_split
I0817 16:13:05.295739 17318 net.cpp:157] Top shape: 125 16 32 32 (2048000)
I0817 16:13:05.295747 17318 net.cpp:157] Top shape: 125 16 32 32 (2048000)
I0817 16:13:05.295758 17318 net.cpp:165] Memory required for data: 140801500
I0817 16:13:05.295763 17318 layer_factory.hpp:77] Creating layer L1_b2_cbr1_conv
I0817 16:13:05.295778 17318 net.cpp:100] Creating Layer L1_b2_cbr1_conv
I0817 16:13:05.295784 17318 net.cpp:434] L1_b2_cbr1_conv <- L1_b1_sum_eltwise_top_L1_b1_relu_0_split_0
I0817 16:13:05.295794 17318 net.cpp:408] L1_b2_cbr1_conv -> L1_b2_cbr1_conv_top
I0817 16:13:05.296104 17318 net.cpp:150] Setting up L1_b2_cbr1_conv
I0817 16:13:05.296118 17318 net.cpp:157] Top shape: 125 16 32 32 (2048000)
I0817 16:13:05.296124 17318 net.cpp:165] Memory required for data: 148993500
I0817 16:13:05.296134 17318 layer_factory.hpp:77] Creating layer L1_b2_cbr1_bn
I0817 16:13:05.296144 17318 net.cpp:100] Creating Layer L1_b2_cbr1_bn
I0817 16:13:05.296149 17318 net.cpp:434] L1_b2_cbr1_bn <- L1_b2_cbr1_conv_top
I0817 16:13:05.296161 17318 net.cpp:408] L1_b2_cbr1_bn -> L1_b2_cbr1_bn_top
I0817 16:13:05.296404 17318 net.cpp:150] Setting up L1_b2_cbr1_bn
I0817 16:13:05.296418 17318 net.cpp:157] Top shape: 125 16 32 32 (2048000)
I0817 16:13:05.296423 17318 net.cpp:165] Memory required for data: 157185500
I0817 16:13:05.296433 17318 layer_factory.hpp:77] Creating layer L1_b2_cbr1_scale
I0817 16:13:05.296442 17318 net.cpp:100] Creating Layer L1_b2_cbr1_scale
I0817 16:13:05.296448 17318 net.cpp:434] L1_b2_cbr1_scale <- L1_b2_cbr1_bn_top
I0817 16:13:05.296455 17318 net.cpp:395] L1_b2_cbr1_scale -> L1_b2_cbr1_bn_top (in-place)
I0817 16:13:05.296509 17318 layer_factory.hpp:77] Creating layer L1_b2_cbr1_scale
I0817 16:13:05.296648 17318 net.cpp:150] Setting up L1_b2_cbr1_scale
I0817 16:13:05.296661 17318 net.cpp:157] Top shape: 125 16 32 32 (2048000)
I0817 16:13:05.296666 17318 net.cpp:165] Memory required for data: 165377500
I0817 16:13:05.296675 17318 layer_factory.hpp:77] Creating layer L1_b2_cbr1_relu
I0817 16:13:05.296684 17318 net.cpp:100] Creating Layer L1_b2_cbr1_relu
I0817 16:13:05.296689 17318 net.cpp:434] L1_b2_cbr1_relu <- L1_b2_cbr1_bn_top
I0817 16:13:05.296700 17318 net.cpp:395] L1_b2_cbr1_relu -> L1_b2_cbr1_bn_top (in-place)
I0817 16:13:05.296710 17318 net.cpp:150] Setting up L1_b2_cbr1_relu
I0817 16:13:05.296716 17318 net.cpp:157] Top shape: 125 16 32 32 (2048000)
I0817 16:13:05.296721 17318 net.cpp:165] Memory required for data: 173569500
I0817 16:13:05.296726 17318 layer_factory.hpp:77] Creating layer L1_b2_cbr2_conv
I0817 16:13:05.296737 17318 net.cpp:100] Creating Layer L1_b2_cbr2_conv
I0817 16:13:05.296742 17318 net.cpp:434] L1_b2_cbr2_conv <- L1_b2_cbr1_bn_top
I0817 16:13:05.296753 17318 net.cpp:408] L1_b2_cbr2_conv -> L1_b2_cbr2_conv_top
I0817 16:13:05.297062 17318 net.cpp:150] Setting up L1_b2_cbr2_conv
I0817 16:13:05.297077 17318 net.cpp:157] Top shape: 125 16 32 32 (2048000)
I0817 16:13:05.297082 17318 net.cpp:165] Memory required for data: 181761500
I0817 16:13:05.297091 17318 layer_factory.hpp:77] Creating layer L1_b2_cbr2_bn
I0817 16:13:05.297101 17318 net.cpp:100] Creating Layer L1_b2_cbr2_bn
I0817 16:13:05.297106 17318 net.cpp:434] L1_b2_cbr2_bn <- L1_b2_cbr2_conv_top
I0817 16:13:05.297117 17318 net.cpp:408] L1_b2_cbr2_bn -> L1_b2_cbr2_bn_top
I0817 16:13:05.297358 17318 net.cpp:150] Setting up L1_b2_cbr2_bn
I0817 16:13:05.297374 17318 net.cpp:157] Top shape: 125 16 32 32 (2048000)
I0817 16:13:05.297379 17318 net.cpp:165] Memory required for data: 189953500
I0817 16:13:05.297394 17318 layer_factory.hpp:77] Creating layer L1_b2_cbr2_scale
I0817 16:13:05.297404 17318 net.cpp:100] Creating Layer L1_b2_cbr2_scale
I0817 16:13:05.297408 17318 net.cpp:434] L1_b2_cbr2_scale <- L1_b2_cbr2_bn_top
I0817 16:13:05.297420 17318 net.cpp:395] L1_b2_cbr2_scale -> L1_b2_cbr2_bn_top (in-place)
I0817 16:13:05.297472 17318 layer_factory.hpp:77] Creating layer L1_b2_cbr2_scale
I0817 16:13:05.297607 17318 net.cpp:150] Setting up L1_b2_cbr2_scale
I0817 16:13:05.297623 17318 net.cpp:157] Top shape: 125 16 32 32 (2048000)
I0817 16:13:05.297628 17318 net.cpp:165] Memory required for data: 198145500
I0817 16:13:05.297637 17318 layer_factory.hpp:77] Creating layer L1_b2_sum_eltwise
I0817 16:13:05.297652 17318 net.cpp:100] Creating Layer L1_b2_sum_eltwise
I0817 16:13:05.297659 17318 net.cpp:434] L1_b2_sum_eltwise <- L1_b2_cbr2_bn_top
I0817 16:13:05.297665 17318 net.cpp:434] L1_b2_sum_eltwise <- L1_b1_sum_eltwise_top_L1_b1_relu_0_split_1
I0817 16:13:05.297673 17318 net.cpp:408] L1_b2_sum_eltwise -> L1_b2_sum_eltwise_top
I0817 16:13:05.297708 17318 net.cpp:150] Setting up L1_b2_sum_eltwise
I0817 16:13:05.297719 17318 net.cpp:157] Top shape: 125 16 32 32 (2048000)
I0817 16:13:05.297724 17318 net.cpp:165] Memory required for data: 206337500
I0817 16:13:05.297729 17318 layer_factory.hpp:77] Creating layer L1_b2_relu
I0817 16:13:05.297737 17318 net.cpp:100] Creating Layer L1_b2_relu
I0817 16:13:05.297742 17318 net.cpp:434] L1_b2_relu <- L1_b2_sum_eltwise_top
I0817 16:13:05.297749 17318 net.cpp:395] L1_b2_relu -> L1_b2_sum_eltwise_top (in-place)
I0817 16:13:05.297758 17318 net.cpp:150] Setting up L1_b2_relu
I0817 16:13:05.297765 17318 net.cpp:157] Top shape: 125 16 32 32 (2048000)
I0817 16:13:05.297770 17318 net.cpp:165] Memory required for data: 214529500
I0817 16:13:05.297775 17318 layer_factory.hpp:77] Creating layer L1_b2_sum_eltwise_top_L1_b2_relu_0_split
I0817 16:13:05.297782 17318 net.cpp:100] Creating Layer L1_b2_sum_eltwise_top_L1_b2_relu_0_split
I0817 16:13:05.297787 17318 net.cpp:434] L1_b2_sum_eltwise_top_L1_b2_relu_0_split <- L1_b2_sum_eltwise_top
I0817 16:13:05.297797 17318 net.cpp:408] L1_b2_sum_eltwise_top_L1_b2_relu_0_split -> L1_b2_sum_eltwise_top_L1_b2_relu_0_split_0
I0817 16:13:05.297807 17318 net.cpp:408] L1_b2_sum_eltwise_top_L1_b2_relu_0_split -> L1_b2_sum_eltwise_top_L1_b2_relu_0_split_1
I0817 16:13:05.297855 17318 net.cpp:150] Setting up L1_b2_sum_eltwise_top_L1_b2_relu_0_split
I0817 16:13:05.297868 17318 net.cpp:157] Top shape: 125 16 32 32 (2048000)
I0817 16:13:05.297874 17318 net.cpp:157] Top shape: 125 16 32 32 (2048000)
I0817 16:13:05.297879 17318 net.cpp:165] Memory required for data: 230913500
I0817 16:13:05.297884 17318 layer_factory.hpp:77] Creating layer L1_b3_cbr1_conv
I0817 16:13:05.297899 17318 net.cpp:100] Creating Layer L1_b3_cbr1_conv
I0817 16:13:05.297905 17318 net.cpp:434] L1_b3_cbr1_conv <- L1_b2_sum_eltwise_top_L1_b2_relu_0_split_0
I0817 16:13:05.297914 17318 net.cpp:408] L1_b3_cbr1_conv -> L1_b3_cbr1_conv_top
I0817 16:13:05.298219 17318 net.cpp:150] Setting up L1_b3_cbr1_conv
I0817 16:13:05.298233 17318 net.cpp:157] Top shape: 125 16 32 32 (2048000)
I0817 16:13:05.298238 17318 net.cpp:165] Memory required for data: 239105500
I0817 16:13:05.298247 17318 layer_factory.hpp:77] Creating layer L1_b3_cbr1_bn
I0817 16:13:05.298259 17318 net.cpp:100] Creating Layer L1_b3_cbr1_bn
I0817 16:13:05.298265 17318 net.cpp:434] L1_b3_cbr1_bn <- L1_b3_cbr1_conv_top
I0817 16:13:05.298274 17318 net.cpp:408] L1_b3_cbr1_bn -> L1_b3_cbr1_bn_top
I0817 16:13:05.298509 17318 net.cpp:150] Setting up L1_b3_cbr1_bn
I0817 16:13:05.298522 17318 net.cpp:157] Top shape: 125 16 32 32 (2048000)
I0817 16:13:05.298528 17318 net.cpp:165] Memory required for data: 247297500
I0817 16:13:05.298539 17318 layer_factory.hpp:77] Creating layer L1_b3_cbr1_scale
I0817 16:13:05.298547 17318 net.cpp:100] Creating Layer L1_b3_cbr1_scale
I0817 16:13:05.298553 17318 net.cpp:434] L1_b3_cbr1_scale <- L1_b3_cbr1_bn_top
I0817 16:13:05.298563 17318 net.cpp:395] L1_b3_cbr1_scale -> L1_b3_cbr1_bn_top (in-place)
I0817 16:13:05.298615 17318 layer_factory.hpp:77] Creating layer L1_b3_cbr1_scale
I0817 16:13:05.298756 17318 net.cpp:150] Setting up L1_b3_cbr1_scale
I0817 16:13:05.298773 17318 net.cpp:157] Top shape: 125 16 32 32 (2048000)
I0817 16:13:05.298779 17318 net.cpp:165] Memory required for data: 255489500
I0817 16:13:05.298786 17318 layer_factory.hpp:77] Creating layer L1_b3_cbr1_relu
I0817 16:13:05.298795 17318 net.cpp:100] Creating Layer L1_b3_cbr1_relu
I0817 16:13:05.298800 17318 net.cpp:434] L1_b3_cbr1_relu <- L1_b3_cbr1_bn_top
I0817 16:13:05.298807 17318 net.cpp:395] L1_b3_cbr1_relu -> L1_b3_cbr1_bn_top (in-place)
I0817 16:13:05.298817 17318 net.cpp:150] Setting up L1_b3_cbr1_relu
I0817 16:13:05.298831 17318 net.cpp:157] Top shape: 125 16 32 32 (2048000)
I0817 16:13:05.298836 17318 net.cpp:165] Memory required for data: 263681500
I0817 16:13:05.298846 17318 layer_factory.hpp:77] Creating layer L1_b3_cbr2_conv
I0817 16:13:05.298862 17318 net.cpp:100] Creating Layer L1_b3_cbr2_conv
I0817 16:13:05.298868 17318 net.cpp:434] L1_b3_cbr2_conv <- L1_b3_cbr1_bn_top
I0817 16:13:05.298879 17318 net.cpp:408] L1_b3_cbr2_conv -> L1_b3_cbr2_conv_top
I0817 16:13:05.299186 17318 net.cpp:150] Setting up L1_b3_cbr2_conv
I0817 16:13:05.299201 17318 net.cpp:157] Top shape: 125 16 32 32 (2048000)
I0817 16:13:05.299206 17318 net.cpp:165] Memory required for data: 271873500
I0817 16:13:05.299214 17318 layer_factory.hpp:77] Creating layer L1_b3_cbr2_bn
I0817 16:13:05.299232 17318 net.cpp:100] Creating Layer L1_b3_cbr2_bn
I0817 16:13:05.299238 17318 net.cpp:434] L1_b3_cbr2_bn <- L1_b3_cbr2_conv_top
I0817 16:13:05.299247 17318 net.cpp:408] L1_b3_cbr2_bn -> L1_b3_cbr2_bn_top
I0817 16:13:05.299479 17318 net.cpp:150] Setting up L1_b3_cbr2_bn
I0817 16:13:05.299492 17318 net.cpp:157] Top shape: 125 16 32 32 (2048000)
I0817 16:13:05.299497 17318 net.cpp:165] Memory required for data: 280065500
I0817 16:13:05.299507 17318 layer_factory.hpp:77] Creating layer L1_b3_cbr2_scale
I0817 16:13:05.299516 17318 net.cpp:100] Creating Layer L1_b3_cbr2_scale
I0817 16:13:05.299522 17318 net.cpp:434] L1_b3_cbr2_scale <- L1_b3_cbr2_bn_top
I0817 16:13:05.299532 17318 net.cpp:395] L1_b3_cbr2_scale -> L1_b3_cbr2_bn_top (in-place)
I0817 16:13:05.299583 17318 layer_factory.hpp:77] Creating layer L1_b3_cbr2_scale
I0817 16:13:05.299716 17318 net.cpp:150] Setting up L1_b3_cbr2_scale
I0817 16:13:05.299732 17318 net.cpp:157] Top shape: 125 16 32 32 (2048000)
I0817 16:13:05.299737 17318 net.cpp:165] Memory required for data: 288257500
I0817 16:13:05.299746 17318 layer_factory.hpp:77] Creating layer L1_b3_sum_eltwise
I0817 16:13:05.299756 17318 net.cpp:100] Creating Layer L1_b3_sum_eltwise
I0817 16:13:05.299760 17318 net.cpp:434] L1_b3_sum_eltwise <- L1_b3_cbr2_bn_top
I0817 16:13:05.299767 17318 net.cpp:434] L1_b3_sum_eltwise <- L1_b2_sum_eltwise_top_L1_b2_relu_0_split_1
I0817 16:13:05.299778 17318 net.cpp:408] L1_b3_sum_eltwise -> L1_b3_sum_eltwise_top
I0817 16:13:05.299808 17318 net.cpp:150] Setting up L1_b3_sum_eltwise
I0817 16:13:05.299818 17318 net.cpp:157] Top shape: 125 16 32 32 (2048000)
I0817 16:13:05.299823 17318 net.cpp:165] Memory required for data: 296449500
I0817 16:13:05.299827 17318 layer_factory.hpp:77] Creating layer L1_b3_relu
I0817 16:13:05.299839 17318 net.cpp:100] Creating Layer L1_b3_relu
I0817 16:13:05.299862 17318 net.cpp:434] L1_b3_relu <- L1_b3_sum_eltwise_top
I0817 16:13:05.299870 17318 net.cpp:395] L1_b3_relu -> L1_b3_sum_eltwise_top (in-place)
I0817 16:13:05.299880 17318 net.cpp:150] Setting up L1_b3_relu
I0817 16:13:05.299887 17318 net.cpp:157] Top shape: 125 16 32 32 (2048000)
I0817 16:13:05.299892 17318 net.cpp:165] Memory required for data: 304641500
I0817 16:13:05.299897 17318 layer_factory.hpp:77] Creating layer L1_b3_sum_eltwise_top_L1_b3_relu_0_split
I0817 16:13:05.299907 17318 net.cpp:100] Creating Layer L1_b3_sum_eltwise_top_L1_b3_relu_0_split
I0817 16:13:05.299913 17318 net.cpp:434] L1_b3_sum_eltwise_top_L1_b3_relu_0_split <- L1_b3_sum_eltwise_top
I0817 16:13:05.299921 17318 net.cpp:408] L1_b3_sum_eltwise_top_L1_b3_relu_0_split -> L1_b3_sum_eltwise_top_L1_b3_relu_0_split_0
I0817 16:13:05.299929 17318 net.cpp:408] L1_b3_sum_eltwise_top_L1_b3_relu_0_split -> L1_b3_sum_eltwise_top_L1_b3_relu_0_split_1
I0817 16:13:05.299971 17318 net.cpp:150] Setting up L1_b3_sum_eltwise_top_L1_b3_relu_0_split
I0817 16:13:05.299986 17318 net.cpp:157] Top shape: 125 16 32 32 (2048000)
I0817 16:13:05.299993 17318 net.cpp:157] Top shape: 125 16 32 32 (2048000)
I0817 16:13:05.299998 17318 net.cpp:165] Memory required for data: 321025500
I0817 16:13:05.300004 17318 layer_factory.hpp:77] Creating layer L1_b4_cbr1_conv
I0817 16:13:05.300014 17318 net.cpp:100] Creating Layer L1_b4_cbr1_conv
I0817 16:13:05.300020 17318 net.cpp:434] L1_b4_cbr1_conv <- L1_b3_sum_eltwise_top_L1_b3_relu_0_split_0
I0817 16:13:05.300038 17318 net.cpp:408] L1_b4_cbr1_conv -> L1_b4_cbr1_conv_top
I0817 16:13:05.300353 17318 net.cpp:150] Setting up L1_b4_cbr1_conv
I0817 16:13:05.300367 17318 net.cpp:157] Top shape: 125 16 32 32 (2048000)
I0817 16:13:05.300372 17318 net.cpp:165] Memory required for data: 329217500
I0817 16:13:05.300381 17318 layer_factory.hpp:77] Creating layer L1_b4_cbr1_bn
I0817 16:13:05.300393 17318 net.cpp:100] Creating Layer L1_b4_cbr1_bn
I0817 16:13:05.300400 17318 net.cpp:434] L1_b4_cbr1_bn <- L1_b4_cbr1_conv_top
I0817 16:13:05.300407 17318 net.cpp:408] L1_b4_cbr1_bn -> L1_b4_cbr1_bn_top
I0817 16:13:05.300644 17318 net.cpp:150] Setting up L1_b4_cbr1_bn
I0817 16:13:05.300658 17318 net.cpp:157] Top shape: 125 16 32 32 (2048000)
I0817 16:13:05.300663 17318 net.cpp:165] Memory required for data: 337409500
I0817 16:13:05.300673 17318 layer_factory.hpp:77] Creating layer L1_b4_cbr1_scale
I0817 16:13:05.300683 17318 net.cpp:100] Creating Layer L1_b4_cbr1_scale
I0817 16:13:05.300688 17318 net.cpp:434] L1_b4_cbr1_scale <- L1_b4_cbr1_bn_top
I0817 16:13:05.300698 17318 net.cpp:395] L1_b4_cbr1_scale -> L1_b4_cbr1_bn_top (in-place)
I0817 16:13:05.300750 17318 layer_factory.hpp:77] Creating layer L1_b4_cbr1_scale
I0817 16:13:05.300899 17318 net.cpp:150] Setting up L1_b4_cbr1_scale
I0817 16:13:05.300914 17318 net.cpp:157] Top shape: 125 16 32 32 (2048000)
I0817 16:13:05.300918 17318 net.cpp:165] Memory required for data: 345601500
I0817 16:13:05.300928 17318 layer_factory.hpp:77] Creating layer L1_b4_cbr1_relu
I0817 16:13:05.300936 17318 net.cpp:100] Creating Layer L1_b4_cbr1_relu
I0817 16:13:05.300941 17318 net.cpp:434] L1_b4_cbr1_relu <- L1_b4_cbr1_bn_top
I0817 16:13:05.300951 17318 net.cpp:395] L1_b4_cbr1_relu -> L1_b4_cbr1_bn_top (in-place)
I0817 16:13:05.300962 17318 net.cpp:150] Setting up L1_b4_cbr1_relu
I0817 16:13:05.300969 17318 net.cpp:157] Top shape: 125 16 32 32 (2048000)
I0817 16:13:05.300974 17318 net.cpp:165] Memory required for data: 353793500
I0817 16:13:05.300979 17318 layer_factory.hpp:77] Creating layer L1_b4_cbr2_conv
I0817 16:13:05.300992 17318 net.cpp:100] Creating Layer L1_b4_cbr2_conv
I0817 16:13:05.300999 17318 net.cpp:434] L1_b4_cbr2_conv <- L1_b4_cbr1_bn_top
I0817 16:13:05.301007 17318 net.cpp:408] L1_b4_cbr2_conv -> L1_b4_cbr2_conv_top
I0817 16:13:05.301316 17318 net.cpp:150] Setting up L1_b4_cbr2_conv
I0817 16:13:05.301329 17318 net.cpp:157] Top shape: 125 16 32 32 (2048000)
I0817 16:13:05.301336 17318 net.cpp:165] Memory required for data: 361985500
I0817 16:13:05.301343 17318 layer_factory.hpp:77] Creating layer L1_b4_cbr2_bn
I0817 16:13:05.301353 17318 net.cpp:100] Creating Layer L1_b4_cbr2_bn
I0817 16:13:05.301358 17318 net.cpp:434] L1_b4_cbr2_bn <- L1_b4_cbr2_conv_top
I0817 16:13:05.301370 17318 net.cpp:408] L1_b4_cbr2_bn -> L1_b4_cbr2_bn_top
I0817 16:13:05.301609 17318 net.cpp:150] Setting up L1_b4_cbr2_bn
I0817 16:13:05.301622 17318 net.cpp:157] Top shape: 125 16 32 32 (2048000)
I0817 16:13:05.301627 17318 net.cpp:165] Memory required for data: 370177500
I0817 16:13:05.301637 17318 layer_factory.hpp:77] Creating layer L1_b4_cbr2_scale
I0817 16:13:05.301650 17318 net.cpp:100] Creating Layer L1_b4_cbr2_scale
I0817 16:13:05.301656 17318 net.cpp:434] L1_b4_cbr2_scale <- L1_b4_cbr2_bn_top
I0817 16:13:05.301662 17318 net.cpp:395] L1_b4_cbr2_scale -> L1_b4_cbr2_bn_top (in-place)
I0817 16:13:05.301717 17318 layer_factory.hpp:77] Creating layer L1_b4_cbr2_scale
I0817 16:13:05.301864 17318 net.cpp:150] Setting up L1_b4_cbr2_scale
I0817 16:13:05.301878 17318 net.cpp:157] Top shape: 125 16 32 32 (2048000)
I0817 16:13:05.301884 17318 net.cpp:165] Memory required for data: 378369500
I0817 16:13:05.301893 17318 layer_factory.hpp:77] Creating layer L1_b4_sum_eltwise
I0817 16:13:05.301903 17318 net.cpp:100] Creating Layer L1_b4_sum_eltwise
I0817 16:13:05.301908 17318 net.cpp:434] L1_b4_sum_eltwise <- L1_b4_cbr2_bn_top
I0817 16:13:05.301914 17318 net.cpp:434] L1_b4_sum_eltwise <- L1_b3_sum_eltwise_top_L1_b3_relu_0_split_1
I0817 16:13:05.301925 17318 net.cpp:408] L1_b4_sum_eltwise -> L1_b4_sum_eltwise_top
I0817 16:13:05.301968 17318 net.cpp:150] Setting up L1_b4_sum_eltwise
I0817 16:13:05.301978 17318 net.cpp:157] Top shape: 125 16 32 32 (2048000)
I0817 16:13:05.301983 17318 net.cpp:165] Memory required for data: 386561500
I0817 16:13:05.301988 17318 layer_factory.hpp:77] Creating layer L1_b4_relu
I0817 16:13:05.301996 17318 net.cpp:100] Creating Layer L1_b4_relu
I0817 16:13:05.302001 17318 net.cpp:434] L1_b4_relu <- L1_b4_sum_eltwise_top
I0817 16:13:05.302008 17318 net.cpp:395] L1_b4_relu -> L1_b4_sum_eltwise_top (in-place)
I0817 16:13:05.302021 17318 net.cpp:150] Setting up L1_b4_relu
I0817 16:13:05.302028 17318 net.cpp:157] Top shape: 125 16 32 32 (2048000)
I0817 16:13:05.302033 17318 net.cpp:165] Memory required for data: 394753500
I0817 16:13:05.302037 17318 layer_factory.hpp:77] Creating layer L1_b4_sum_eltwise_top_L1_b4_relu_0_split
I0817 16:13:05.302044 17318 net.cpp:100] Creating Layer L1_b4_sum_eltwise_top_L1_b4_relu_0_split
I0817 16:13:05.302050 17318 net.cpp:434] L1_b4_sum_eltwise_top_L1_b4_relu_0_split <- L1_b4_sum_eltwise_top
I0817 16:13:05.302057 17318 net.cpp:408] L1_b4_sum_eltwise_top_L1_b4_relu_0_split -> L1_b4_sum_eltwise_top_L1_b4_relu_0_split_0
I0817 16:13:05.302067 17318 net.cpp:408] L1_b4_sum_eltwise_top_L1_b4_relu_0_split -> L1_b4_sum_eltwise_top_L1_b4_relu_0_split_1
I0817 16:13:05.302111 17318 net.cpp:150] Setting up L1_b4_sum_eltwise_top_L1_b4_relu_0_split
I0817 16:13:05.302124 17318 net.cpp:157] Top shape: 125 16 32 32 (2048000)
I0817 16:13:05.302130 17318 net.cpp:157] Top shape: 125 16 32 32 (2048000)
I0817 16:13:05.302135 17318 net.cpp:165] Memory required for data: 411137500
I0817 16:13:05.302140 17318 layer_factory.hpp:77] Creating layer L1_b5_cbr1_conv
I0817 16:13:05.302151 17318 net.cpp:100] Creating Layer L1_b5_cbr1_conv
I0817 16:13:05.302157 17318 net.cpp:434] L1_b5_cbr1_conv <- L1_b4_sum_eltwise_top_L1_b4_relu_0_split_0
I0817 16:13:05.302168 17318 net.cpp:408] L1_b5_cbr1_conv -> L1_b5_cbr1_conv_top
I0817 16:13:05.302475 17318 net.cpp:150] Setting up L1_b5_cbr1_conv
I0817 16:13:05.302489 17318 net.cpp:157] Top shape: 125 16 32 32 (2048000)
I0817 16:13:05.302495 17318 net.cpp:165] Memory required for data: 419329500
I0817 16:13:05.302516 17318 layer_factory.hpp:77] Creating layer L1_b5_cbr1_bn
I0817 16:13:05.302526 17318 net.cpp:100] Creating Layer L1_b5_cbr1_bn
I0817 16:13:05.302532 17318 net.cpp:434] L1_b5_cbr1_bn <- L1_b5_cbr1_conv_top
I0817 16:13:05.302543 17318 net.cpp:408] L1_b5_cbr1_bn -> L1_b5_cbr1_bn_top
I0817 16:13:05.302783 17318 net.cpp:150] Setting up L1_b5_cbr1_bn
I0817 16:13:05.302795 17318 net.cpp:157] Top shape: 125 16 32 32 (2048000)
I0817 16:13:05.302800 17318 net.cpp:165] Memory required for data: 427521500
I0817 16:13:05.302811 17318 layer_factory.hpp:77] Creating layer L1_b5_cbr1_scale
I0817 16:13:05.302822 17318 net.cpp:100] Creating Layer L1_b5_cbr1_scale
I0817 16:13:05.302829 17318 net.cpp:434] L1_b5_cbr1_scale <- L1_b5_cbr1_bn_top
I0817 16:13:05.302836 17318 net.cpp:395] L1_b5_cbr1_scale -> L1_b5_cbr1_bn_top (in-place)
I0817 16:13:05.302896 17318 layer_factory.hpp:77] Creating layer L1_b5_cbr1_scale
I0817 16:13:05.303036 17318 net.cpp:150] Setting up L1_b5_cbr1_scale
I0817 16:13:05.303050 17318 net.cpp:157] Top shape: 125 16 32 32 (2048000)
I0817 16:13:05.303055 17318 net.cpp:165] Memory required for data: 435713500
I0817 16:13:05.303063 17318 layer_factory.hpp:77] Creating layer L1_b5_cbr1_relu
I0817 16:13:05.303072 17318 net.cpp:100] Creating Layer L1_b5_cbr1_relu
I0817 16:13:05.303078 17318 net.cpp:434] L1_b5_cbr1_relu <- L1_b5_cbr1_bn_top
I0817 16:13:05.303088 17318 net.cpp:395] L1_b5_cbr1_relu -> L1_b5_cbr1_bn_top (in-place)
I0817 16:13:05.303098 17318 net.cpp:150] Setting up L1_b5_cbr1_relu
I0817 16:13:05.303105 17318 net.cpp:157] Top shape: 125 16 32 32 (2048000)
I0817 16:13:05.303110 17318 net.cpp:165] Memory required for data: 443905500
I0817 16:13:05.303114 17318 layer_factory.hpp:77] Creating layer L1_b5_cbr2_conv
I0817 16:13:05.303128 17318 net.cpp:100] Creating Layer L1_b5_cbr2_conv
I0817 16:13:05.303135 17318 net.cpp:434] L1_b5_cbr2_conv <- L1_b5_cbr1_bn_top
I0817 16:13:05.303150 17318 net.cpp:408] L1_b5_cbr2_conv -> L1_b5_cbr2_conv_top
I0817 16:13:05.303462 17318 net.cpp:150] Setting up L1_b5_cbr2_conv
I0817 16:13:05.303477 17318 net.cpp:157] Top shape: 125 16 32 32 (2048000)
I0817 16:13:05.303481 17318 net.cpp:165] Memory required for data: 452097500
I0817 16:13:05.303490 17318 layer_factory.hpp:77] Creating layer L1_b5_cbr2_bn
I0817 16:13:05.303503 17318 net.cpp:100] Creating Layer L1_b5_cbr2_bn
I0817 16:13:05.303508 17318 net.cpp:434] L1_b5_cbr2_bn <- L1_b5_cbr2_conv_top
I0817 16:13:05.303516 17318 net.cpp:408] L1_b5_cbr2_bn -> L1_b5_cbr2_bn_top
I0817 16:13:05.303753 17318 net.cpp:150] Setting up L1_b5_cbr2_bn
I0817 16:13:05.303766 17318 net.cpp:157] Top shape: 125 16 32 32 (2048000)
I0817 16:13:05.303771 17318 net.cpp:165] Memory required for data: 460289500
I0817 16:13:05.303781 17318 layer_factory.hpp:77] Creating layer L1_b5_cbr2_scale
I0817 16:13:05.303791 17318 net.cpp:100] Creating Layer L1_b5_cbr2_scale
I0817 16:13:05.303795 17318 net.cpp:434] L1_b5_cbr2_scale <- L1_b5_cbr2_bn_top
I0817 16:13:05.303807 17318 net.cpp:395] L1_b5_cbr2_scale -> L1_b5_cbr2_bn_top (in-place)
I0817 16:13:05.303864 17318 layer_factory.hpp:77] Creating layer L1_b5_cbr2_scale
I0817 16:13:05.304002 17318 net.cpp:150] Setting up L1_b5_cbr2_scale
I0817 16:13:05.304018 17318 net.cpp:157] Top shape: 125 16 32 32 (2048000)
I0817 16:13:05.304024 17318 net.cpp:165] Memory required for data: 468481500
I0817 16:13:05.304033 17318 layer_factory.hpp:77] Creating layer L1_b5_sum_eltwise
I0817 16:13:05.304042 17318 net.cpp:100] Creating Layer L1_b5_sum_eltwise
I0817 16:13:05.304049 17318 net.cpp:434] L1_b5_sum_eltwise <- L1_b5_cbr2_bn_top
I0817 16:13:05.304055 17318 net.cpp:434] L1_b5_sum_eltwise <- L1_b4_sum_eltwise_top_L1_b4_relu_0_split_1
I0817 16:13:05.304062 17318 net.cpp:408] L1_b5_sum_eltwise -> L1_b5_sum_eltwise_top
I0817 16:13:05.304095 17318 net.cpp:150] Setting up L1_b5_sum_eltwise
I0817 16:13:05.304107 17318 net.cpp:157] Top shape: 125 16 32 32 (2048000)
I0817 16:13:05.304112 17318 net.cpp:165] Memory required for data: 476673500
I0817 16:13:05.304117 17318 layer_factory.hpp:77] Creating layer L1_b5_relu
I0817 16:13:05.304127 17318 net.cpp:100] Creating Layer L1_b5_relu
I0817 16:13:05.304133 17318 net.cpp:434] L1_b5_relu <- L1_b5_sum_eltwise_top
I0817 16:13:05.304141 17318 net.cpp:395] L1_b5_relu -> L1_b5_sum_eltwise_top (in-place)
I0817 16:13:05.304149 17318 net.cpp:150] Setting up L1_b5_relu
I0817 16:13:05.304157 17318 net.cpp:157] Top shape: 125 16 32 32 (2048000)
I0817 16:13:05.304162 17318 net.cpp:165] Memory required for data: 484865500
I0817 16:13:05.304167 17318 layer_factory.hpp:77] Creating layer L1_b5_sum_eltwise_top_L1_b5_relu_0_split
I0817 16:13:05.304175 17318 net.cpp:100] Creating Layer L1_b5_sum_eltwise_top_L1_b5_relu_0_split
I0817 16:13:05.304181 17318 net.cpp:434] L1_b5_sum_eltwise_top_L1_b5_relu_0_split <- L1_b5_sum_eltwise_top
I0817 16:13:05.304188 17318 net.cpp:408] L1_b5_sum_eltwise_top_L1_b5_relu_0_split -> L1_b5_sum_eltwise_top_L1_b5_relu_0_split_0
I0817 16:13:05.304198 17318 net.cpp:408] L1_b5_sum_eltwise_top_L1_b5_relu_0_split -> L1_b5_sum_eltwise_top_L1_b5_relu_0_split_1
I0817 16:13:05.304239 17318 net.cpp:150] Setting up L1_b5_sum_eltwise_top_L1_b5_relu_0_split
I0817 16:13:05.304255 17318 net.cpp:157] Top shape: 125 16 32 32 (2048000)
I0817 16:13:05.304261 17318 net.cpp:157] Top shape: 125 16 32 32 (2048000)
I0817 16:13:05.304266 17318 net.cpp:165] Memory required for data: 501249500
I0817 16:13:05.304271 17318 layer_factory.hpp:77] Creating layer L1_b6_cbr1_conv
I0817 16:13:05.304282 17318 net.cpp:100] Creating Layer L1_b6_cbr1_conv
I0817 16:13:05.304288 17318 net.cpp:434] L1_b6_cbr1_conv <- L1_b5_sum_eltwise_top_L1_b5_relu_0_split_0
I0817 16:13:05.304297 17318 net.cpp:408] L1_b6_cbr1_conv -> L1_b6_cbr1_conv_top
I0817 16:13:05.304610 17318 net.cpp:150] Setting up L1_b6_cbr1_conv
I0817 16:13:05.304623 17318 net.cpp:157] Top shape: 125 16 32 32 (2048000)
I0817 16:13:05.304628 17318 net.cpp:165] Memory required for data: 509441500
I0817 16:13:05.304643 17318 layer_factory.hpp:77] Creating layer L1_b6_cbr1_bn
I0817 16:13:05.304656 17318 net.cpp:100] Creating Layer L1_b6_cbr1_bn
I0817 16:13:05.304662 17318 net.cpp:434] L1_b6_cbr1_bn <- L1_b6_cbr1_conv_top
I0817 16:13:05.304671 17318 net.cpp:408] L1_b6_cbr1_bn -> L1_b6_cbr1_bn_top
I0817 16:13:05.304918 17318 net.cpp:150] Setting up L1_b6_cbr1_bn
I0817 16:13:05.304931 17318 net.cpp:157] Top shape: 125 16 32 32 (2048000)
I0817 16:13:05.304936 17318 net.cpp:165] Memory required for data: 517633500
I0817 16:13:05.304947 17318 layer_factory.hpp:77] Creating layer L1_b6_cbr1_scale
I0817 16:13:05.304955 17318 net.cpp:100] Creating Layer L1_b6_cbr1_scale
I0817 16:13:05.304961 17318 net.cpp:434] L1_b6_cbr1_scale <- L1_b6_cbr1_bn_top
I0817 16:13:05.304971 17318 net.cpp:395] L1_b6_cbr1_scale -> L1_b6_cbr1_bn_top (in-place)
I0817 16:13:05.305023 17318 layer_factory.hpp:77] Creating layer L1_b6_cbr1_scale
I0817 16:13:05.305166 17318 net.cpp:150] Setting up L1_b6_cbr1_scale
I0817 16:13:05.305179 17318 net.cpp:157] Top shape: 125 16 32 32 (2048000)
I0817 16:13:05.305184 17318 net.cpp:165] Memory required for data: 525825500
I0817 16:13:05.305193 17318 layer_factory.hpp:77] Creating layer L1_b6_cbr1_relu
I0817 16:13:05.305202 17318 net.cpp:100] Creating Layer L1_b6_cbr1_relu
I0817 16:13:05.305207 17318 net.cpp:434] L1_b6_cbr1_relu <- L1_b6_cbr1_bn_top
I0817 16:13:05.305215 17318 net.cpp:395] L1_b6_cbr1_relu -> L1_b6_cbr1_bn_top (in-place)
I0817 16:13:05.305227 17318 net.cpp:150] Setting up L1_b6_cbr1_relu
I0817 16:13:05.305235 17318 net.cpp:157] Top shape: 125 16 32 32 (2048000)
I0817 16:13:05.305239 17318 net.cpp:165] Memory required for data: 534017500
I0817 16:13:05.305244 17318 layer_factory.hpp:77] Creating layer L1_b6_cbr2_conv
I0817 16:13:05.305255 17318 net.cpp:100] Creating Layer L1_b6_cbr2_conv
I0817 16:13:05.305263 17318 net.cpp:434] L1_b6_cbr2_conv <- L1_b6_cbr1_bn_top
I0817 16:13:05.305272 17318 net.cpp:408] L1_b6_cbr2_conv -> L1_b6_cbr2_conv_top
I0817 16:13:05.305586 17318 net.cpp:150] Setting up L1_b6_cbr2_conv
I0817 16:13:05.305600 17318 net.cpp:157] Top shape: 125 16 32 32 (2048000)
I0817 16:13:05.305605 17318 net.cpp:165] Memory required for data: 542209500
I0817 16:13:05.305614 17318 layer_factory.hpp:77] Creating layer L1_b6_cbr2_bn
I0817 16:13:05.305625 17318 net.cpp:100] Creating Layer L1_b6_cbr2_bn
I0817 16:13:05.305632 17318 net.cpp:434] L1_b6_cbr2_bn <- L1_b6_cbr2_conv_top
I0817 16:13:05.305642 17318 net.cpp:408] L1_b6_cbr2_bn -> L1_b6_cbr2_bn_top
I0817 16:13:05.305888 17318 net.cpp:150] Setting up L1_b6_cbr2_bn
I0817 16:13:05.305902 17318 net.cpp:157] Top shape: 125 16 32 32 (2048000)
I0817 16:13:05.305907 17318 net.cpp:165] Memory required for data: 550401500
I0817 16:13:05.305918 17318 layer_factory.hpp:77] Creating layer L1_b6_cbr2_scale
I0817 16:13:05.305927 17318 net.cpp:100] Creating Layer L1_b6_cbr2_scale
I0817 16:13:05.305932 17318 net.cpp:434] L1_b6_cbr2_scale <- L1_b6_cbr2_bn_top
I0817 16:13:05.305943 17318 net.cpp:395] L1_b6_cbr2_scale -> L1_b6_cbr2_bn_top (in-place)
I0817 16:13:05.305995 17318 layer_factory.hpp:77] Creating layer L1_b6_cbr2_scale
I0817 16:13:05.306133 17318 net.cpp:150] Setting up L1_b6_cbr2_scale
I0817 16:13:05.306149 17318 net.cpp:157] Top shape: 125 16 32 32 (2048000)
I0817 16:13:05.306154 17318 net.cpp:165] Memory required for data: 558593500
I0817 16:13:05.306164 17318 layer_factory.hpp:77] Creating layer L1_b6_sum_eltwise
I0817 16:13:05.306180 17318 net.cpp:100] Creating Layer L1_b6_sum_eltwise
I0817 16:13:05.306186 17318 net.cpp:434] L1_b6_sum_eltwise <- L1_b6_cbr2_bn_top
I0817 16:13:05.306195 17318 net.cpp:434] L1_b6_sum_eltwise <- L1_b5_sum_eltwise_top_L1_b5_relu_0_split_1
I0817 16:13:05.306202 17318 net.cpp:408] L1_b6_sum_eltwise -> L1_b6_sum_eltwise_top
I0817 16:13:05.306236 17318 net.cpp:150] Setting up L1_b6_sum_eltwise
I0817 16:13:05.306247 17318 net.cpp:157] Top shape: 125 16 32 32 (2048000)
I0817 16:13:05.306252 17318 net.cpp:165] Memory required for data: 566785500
I0817 16:13:05.306258 17318 layer_factory.hpp:77] Creating layer L1_b6_relu
I0817 16:13:05.306275 17318 net.cpp:100] Creating Layer L1_b6_relu
I0817 16:13:05.306282 17318 net.cpp:434] L1_b6_relu <- L1_b6_sum_eltwise_top
I0817 16:13:05.306290 17318 net.cpp:395] L1_b6_relu -> L1_b6_sum_eltwise_top (in-place)
I0817 16:13:05.306300 17318 net.cpp:150] Setting up L1_b6_relu
I0817 16:13:05.306308 17318 net.cpp:157] Top shape: 125 16 32 32 (2048000)
I0817 16:13:05.306311 17318 net.cpp:165] Memory required for data: 574977500
I0817 16:13:05.306316 17318 layer_factory.hpp:77] Creating layer L1_b6_sum_eltwise_top_L1_b6_relu_0_split
I0817 16:13:05.306324 17318 net.cpp:100] Creating Layer L1_b6_sum_eltwise_top_L1_b6_relu_0_split
I0817 16:13:05.306329 17318 net.cpp:434] L1_b6_sum_eltwise_top_L1_b6_relu_0_split <- L1_b6_sum_eltwise_top
I0817 16:13:05.306335 17318 net.cpp:408] L1_b6_sum_eltwise_top_L1_b6_relu_0_split -> L1_b6_sum_eltwise_top_L1_b6_relu_0_split_0
I0817 16:13:05.306345 17318 net.cpp:408] L1_b6_sum_eltwise_top_L1_b6_relu_0_split -> L1_b6_sum_eltwise_top_L1_b6_relu_0_split_1
I0817 16:13:05.306391 17318 net.cpp:150] Setting up L1_b6_sum_eltwise_top_L1_b6_relu_0_split
I0817 16:13:05.306402 17318 net.cpp:157] Top shape: 125 16 32 32 (2048000)
I0817 16:13:05.306409 17318 net.cpp:157] Top shape: 125 16 32 32 (2048000)
I0817 16:13:05.306413 17318 net.cpp:165] Memory required for data: 591361500
I0817 16:13:05.306418 17318 layer_factory.hpp:77] Creating layer L1_b7_cbr1_conv
I0817 16:13:05.306429 17318 net.cpp:100] Creating Layer L1_b7_cbr1_conv
I0817 16:13:05.306435 17318 net.cpp:434] L1_b7_cbr1_conv <- L1_b6_sum_eltwise_top_L1_b6_relu_0_split_0
I0817 16:13:05.306447 17318 net.cpp:408] L1_b7_cbr1_conv -> L1_b7_cbr1_conv_top
I0817 16:13:05.306792 17318 net.cpp:150] Setting up L1_b7_cbr1_conv
I0817 16:13:05.306807 17318 net.cpp:157] Top shape: 125 16 32 32 (2048000)
I0817 16:13:05.306813 17318 net.cpp:165] Memory required for data: 599553500
I0817 16:13:05.306821 17318 layer_factory.hpp:77] Creating layer L1_b7_cbr1_bn
I0817 16:13:05.306830 17318 net.cpp:100] Creating Layer L1_b7_cbr1_bn
I0817 16:13:05.306836 17318 net.cpp:434] L1_b7_cbr1_bn <- L1_b7_cbr1_conv_top
I0817 16:13:05.306857 17318 net.cpp:408] L1_b7_cbr1_bn -> L1_b7_cbr1_bn_top
I0817 16:13:05.307101 17318 net.cpp:150] Setting up L1_b7_cbr1_bn
I0817 16:13:05.307116 17318 net.cpp:157] Top shape: 125 16 32 32 (2048000)
I0817 16:13:05.307121 17318 net.cpp:165] Memory required for data: 607745500
I0817 16:13:05.307130 17318 layer_factory.hpp:77] Creating layer L1_b7_cbr1_scale
I0817 16:13:05.307142 17318 net.cpp:100] Creating Layer L1_b7_cbr1_scale
I0817 16:13:05.307148 17318 net.cpp:434] L1_b7_cbr1_scale <- L1_b7_cbr1_bn_top
I0817 16:13:05.307157 17318 net.cpp:395] L1_b7_cbr1_scale -> L1_b7_cbr1_bn_top (in-place)
I0817 16:13:05.307207 17318 layer_factory.hpp:77] Creating layer L1_b7_cbr1_scale
I0817 16:13:05.307350 17318 net.cpp:150] Setting up L1_b7_cbr1_scale
I0817 16:13:05.307363 17318 net.cpp:157] Top shape: 125 16 32 32 (2048000)
I0817 16:13:05.307369 17318 net.cpp:165] Memory required for data: 615937500
I0817 16:13:05.307379 17318 layer_factory.hpp:77] Creating layer L1_b7_cbr1_relu
I0817 16:13:05.307389 17318 net.cpp:100] Creating Layer L1_b7_cbr1_relu
I0817 16:13:05.307395 17318 net.cpp:434] L1_b7_cbr1_relu <- L1_b7_cbr1_bn_top
I0817 16:13:05.307402 17318 net.cpp:395] L1_b7_cbr1_relu -> L1_b7_cbr1_bn_top (in-place)
I0817 16:13:05.307412 17318 net.cpp:150] Setting up L1_b7_cbr1_relu
I0817 16:13:05.307420 17318 net.cpp:157] Top shape: 125 16 32 32 (2048000)
I0817 16:13:05.307425 17318 net.cpp:165] Memory required for data: 624129500
I0817 16:13:05.307430 17318 layer_factory.hpp:77] Creating layer L1_b7_cbr2_conv
I0817 16:13:05.307445 17318 net.cpp:100] Creating Layer L1_b7_cbr2_conv
I0817 16:13:05.307451 17318 net.cpp:434] L1_b7_cbr2_conv <- L1_b7_cbr1_bn_top
I0817 16:13:05.307461 17318 net.cpp:408] L1_b7_cbr2_conv -> L1_b7_cbr2_conv_top
I0817 16:13:05.307770 17318 net.cpp:150] Setting up L1_b7_cbr2_conv
I0817 16:13:05.307783 17318 net.cpp:157] Top shape: 125 16 32 32 (2048000)
I0817 16:13:05.307788 17318 net.cpp:165] Memory required for data: 632321500
I0817 16:13:05.307806 17318 layer_factory.hpp:77] Creating layer L1_b7_cbr2_bn
I0817 16:13:05.307814 17318 net.cpp:100] Creating Layer L1_b7_cbr2_bn
I0817 16:13:05.307821 17318 net.cpp:434] L1_b7_cbr2_bn <- L1_b7_cbr2_conv_top
I0817 16:13:05.307828 17318 net.cpp:408] L1_b7_cbr2_bn -> L1_b7_cbr2_bn_top
I0817 16:13:05.308076 17318 net.cpp:150] Setting up L1_b7_cbr2_bn
I0817 16:13:05.308090 17318 net.cpp:157] Top shape: 125 16 32 32 (2048000)
I0817 16:13:05.308096 17318 net.cpp:165] Memory required for data: 640513500
I0817 16:13:05.308106 17318 layer_factory.hpp:77] Creating layer L1_b7_cbr2_scale
I0817 16:13:05.308117 17318 net.cpp:100] Creating Layer L1_b7_cbr2_scale
I0817 16:13:05.308125 17318 net.cpp:434] L1_b7_cbr2_scale <- L1_b7_cbr2_bn_top
I0817 16:13:05.308131 17318 net.cpp:395] L1_b7_cbr2_scale -> L1_b7_cbr2_bn_top (in-place)
I0817 16:13:05.308187 17318 layer_factory.hpp:77] Creating layer L1_b7_cbr2_scale
I0817 16:13:05.308327 17318 net.cpp:150] Setting up L1_b7_cbr2_scale
I0817 16:13:05.308341 17318 net.cpp:157] Top shape: 125 16 32 32 (2048000)
I0817 16:13:05.308346 17318 net.cpp:165] Memory required for data: 648705500
I0817 16:13:05.308354 17318 layer_factory.hpp:77] Creating layer L1_b7_sum_eltwise
I0817 16:13:05.308363 17318 net.cpp:100] Creating Layer L1_b7_sum_eltwise
I0817 16:13:05.308369 17318 net.cpp:434] L1_b7_sum_eltwise <- L1_b7_cbr2_bn_top
I0817 16:13:05.308375 17318 net.cpp:434] L1_b7_sum_eltwise <- L1_b6_sum_eltwise_top_L1_b6_relu_0_split_1
I0817 16:13:05.308388 17318 net.cpp:408] L1_b7_sum_eltwise -> L1_b7_sum_eltwise_top
I0817 16:13:05.308423 17318 net.cpp:150] Setting up L1_b7_sum_eltwise
I0817 16:13:05.308435 17318 net.cpp:157] Top shape: 125 16 32 32 (2048000)
I0817 16:13:05.308440 17318 net.cpp:165] Memory required for data: 656897500
I0817 16:13:05.308445 17318 layer_factory.hpp:77] Creating layer L1_b7_relu
I0817 16:13:05.308454 17318 net.cpp:100] Creating Layer L1_b7_relu
I0817 16:13:05.308459 17318 net.cpp:434] L1_b7_relu <- L1_b7_sum_eltwise_top
I0817 16:13:05.308468 17318 net.cpp:395] L1_b7_relu -> L1_b7_sum_eltwise_top (in-place)
I0817 16:13:05.308478 17318 net.cpp:150] Setting up L1_b7_relu
I0817 16:13:05.308485 17318 net.cpp:157] Top shape: 125 16 32 32 (2048000)
I0817 16:13:05.308490 17318 net.cpp:165] Memory required for data: 665089500
I0817 16:13:05.308495 17318 layer_factory.hpp:77] Creating layer L1_b7_sum_eltwise_top_L1_b7_relu_0_split
I0817 16:13:05.308501 17318 net.cpp:100] Creating Layer L1_b7_sum_eltwise_top_L1_b7_relu_0_split
I0817 16:13:05.308507 17318 net.cpp:434] L1_b7_sum_eltwise_top_L1_b7_relu_0_split <- L1_b7_sum_eltwise_top
I0817 16:13:05.308513 17318 net.cpp:408] L1_b7_sum_eltwise_top_L1_b7_relu_0_split -> L1_b7_sum_eltwise_top_L1_b7_relu_0_split_0
I0817 16:13:05.308523 17318 net.cpp:408] L1_b7_sum_eltwise_top_L1_b7_relu_0_split -> L1_b7_sum_eltwise_top_L1_b7_relu_0_split_1
I0817 16:13:05.308568 17318 net.cpp:150] Setting up L1_b7_sum_eltwise_top_L1_b7_relu_0_split
I0817 16:13:05.308580 17318 net.cpp:157] Top shape: 125 16 32 32 (2048000)
I0817 16:13:05.308588 17318 net.cpp:157] Top shape: 125 16 32 32 (2048000)
I0817 16:13:05.308593 17318 net.cpp:165] Memory required for data: 681473500
I0817 16:13:05.308598 17318 layer_factory.hpp:77] Creating layer L1_b8_cbr1_conv
I0817 16:13:05.308607 17318 net.cpp:100] Creating Layer L1_b8_cbr1_conv
I0817 16:13:05.308614 17318 net.cpp:434] L1_b8_cbr1_conv <- L1_b7_sum_eltwise_top_L1_b7_relu_0_split_0
I0817 16:13:05.308625 17318 net.cpp:408] L1_b8_cbr1_conv -> L1_b8_cbr1_conv_top
I0817 16:13:05.308951 17318 net.cpp:150] Setting up L1_b8_cbr1_conv
I0817 16:13:05.308965 17318 net.cpp:157] Top shape: 125 16 32 32 (2048000)
I0817 16:13:05.308970 17318 net.cpp:165] Memory required for data: 689665500
I0817 16:13:05.308979 17318 layer_factory.hpp:77] Creating layer L1_b8_cbr1_bn
I0817 16:13:05.308989 17318 net.cpp:100] Creating Layer L1_b8_cbr1_bn
I0817 16:13:05.308995 17318 net.cpp:434] L1_b8_cbr1_bn <- L1_b8_cbr1_conv_top
I0817 16:13:05.309006 17318 net.cpp:408] L1_b8_cbr1_bn -> L1_b8_cbr1_bn_top
I0817 16:13:05.309260 17318 net.cpp:150] Setting up L1_b8_cbr1_bn
I0817 16:13:05.309274 17318 net.cpp:157] Top shape: 125 16 32 32 (2048000)
I0817 16:13:05.309279 17318 net.cpp:165] Memory required for data: 697857500
I0817 16:13:05.309289 17318 layer_factory.hpp:77] Creating layer L1_b8_cbr1_scale
I0817 16:13:05.309301 17318 net.cpp:100] Creating Layer L1_b8_cbr1_scale
I0817 16:13:05.309307 17318 net.cpp:434] L1_b8_cbr1_scale <- L1_b8_cbr1_bn_top
I0817 16:13:05.309314 17318 net.cpp:395] L1_b8_cbr1_scale -> L1_b8_cbr1_bn_top (in-place)
I0817 16:13:05.309366 17318 layer_factory.hpp:77] Creating layer L1_b8_cbr1_scale
I0817 16:13:05.309509 17318 net.cpp:150] Setting up L1_b8_cbr1_scale
I0817 16:13:05.309522 17318 net.cpp:157] Top shape: 125 16 32 32 (2048000)
I0817 16:13:05.309527 17318 net.cpp:165] Memory required for data: 706049500
I0817 16:13:05.309536 17318 layer_factory.hpp:77] Creating layer L1_b8_cbr1_relu
I0817 16:13:05.309545 17318 net.cpp:100] Creating Layer L1_b8_cbr1_relu
I0817 16:13:05.309551 17318 net.cpp:434] L1_b8_cbr1_relu <- L1_b8_cbr1_bn_top
I0817 16:13:05.309561 17318 net.cpp:395] L1_b8_cbr1_relu -> L1_b8_cbr1_bn_top (in-place)
I0817 16:13:05.309571 17318 net.cpp:150] Setting up L1_b8_cbr1_relu
I0817 16:13:05.309577 17318 net.cpp:157] Top shape: 125 16 32 32 (2048000)
I0817 16:13:05.309581 17318 net.cpp:165] Memory required for data: 714241500
I0817 16:13:05.309587 17318 layer_factory.hpp:77] Creating layer L1_b8_cbr2_conv
I0817 16:13:05.309600 17318 net.cpp:100] Creating Layer L1_b8_cbr2_conv
I0817 16:13:05.309607 17318 net.cpp:434] L1_b8_cbr2_conv <- L1_b8_cbr1_bn_top
I0817 16:13:05.309617 17318 net.cpp:408] L1_b8_cbr2_conv -> L1_b8_cbr2_conv_top
I0817 16:13:05.309938 17318 net.cpp:150] Setting up L1_b8_cbr2_conv
I0817 16:13:05.309952 17318 net.cpp:157] Top shape: 125 16 32 32 (2048000)
I0817 16:13:05.309958 17318 net.cpp:165] Memory required for data: 722433500
I0817 16:13:05.309967 17318 layer_factory.hpp:77] Creating layer L1_b8_cbr2_bn
I0817 16:13:05.309976 17318 net.cpp:100] Creating Layer L1_b8_cbr2_bn
I0817 16:13:05.309983 17318 net.cpp:434] L1_b8_cbr2_bn <- L1_b8_cbr2_conv_top
I0817 16:13:05.309990 17318 net.cpp:408] L1_b8_cbr2_bn -> L1_b8_cbr2_bn_top
I0817 16:13:05.310238 17318 net.cpp:150] Setting up L1_b8_cbr2_bn
I0817 16:13:05.310251 17318 net.cpp:157] Top shape: 125 16 32 32 (2048000)
I0817 16:13:05.310256 17318 net.cpp:165] Memory required for data: 730625500
I0817 16:13:05.310266 17318 layer_factory.hpp:77] Creating layer L1_b8_cbr2_scale
I0817 16:13:05.310281 17318 net.cpp:100] Creating Layer L1_b8_cbr2_scale
I0817 16:13:05.310287 17318 net.cpp:434] L1_b8_cbr2_scale <- L1_b8_cbr2_bn_top
I0817 16:13:05.310295 17318 net.cpp:395] L1_b8_cbr2_scale -> L1_b8_cbr2_bn_top (in-place)
I0817 16:13:05.310350 17318 layer_factory.hpp:77] Creating layer L1_b8_cbr2_scale
I0817 16:13:05.310492 17318 net.cpp:150] Setting up L1_b8_cbr2_scale
I0817 16:13:05.310505 17318 net.cpp:157] Top shape: 125 16 32 32 (2048000)
I0817 16:13:05.310510 17318 net.cpp:165] Memory required for data: 738817500
I0817 16:13:05.310519 17318 layer_factory.hpp:77] Creating layer L1_b8_sum_eltwise
I0817 16:13:05.310528 17318 net.cpp:100] Creating Layer L1_b8_sum_eltwise
I0817 16:13:05.310534 17318 net.cpp:434] L1_b8_sum_eltwise <- L1_b8_cbr2_bn_top
I0817 16:13:05.310540 17318 net.cpp:434] L1_b8_sum_eltwise <- L1_b7_sum_eltwise_top_L1_b7_relu_0_split_1
I0817 16:13:05.310551 17318 net.cpp:408] L1_b8_sum_eltwise -> L1_b8_sum_eltwise_top
I0817 16:13:05.310585 17318 net.cpp:150] Setting up L1_b8_sum_eltwise
I0817 16:13:05.310596 17318 net.cpp:157] Top shape: 125 16 32 32 (2048000)
I0817 16:13:05.310601 17318 net.cpp:165] Memory required for data: 747009500
I0817 16:13:05.310607 17318 layer_factory.hpp:77] Creating layer L1_b8_relu
I0817 16:13:05.310614 17318 net.cpp:100] Creating Layer L1_b8_relu
I0817 16:13:05.310621 17318 net.cpp:434] L1_b8_relu <- L1_b8_sum_eltwise_top
I0817 16:13:05.310627 17318 net.cpp:395] L1_b8_relu -> L1_b8_sum_eltwise_top (in-place)
I0817 16:13:05.310636 17318 net.cpp:150] Setting up L1_b8_relu
I0817 16:13:05.310643 17318 net.cpp:157] Top shape: 125 16 32 32 (2048000)
I0817 16:13:05.310654 17318 net.cpp:165] Memory required for data: 755201500
I0817 16:13:05.310659 17318 layer_factory.hpp:77] Creating layer L1_b8_sum_eltwise_top_L1_b8_relu_0_split
I0817 16:13:05.310669 17318 net.cpp:100] Creating Layer L1_b8_sum_eltwise_top_L1_b8_relu_0_split
I0817 16:13:05.310675 17318 net.cpp:434] L1_b8_sum_eltwise_top_L1_b8_relu_0_split <- L1_b8_sum_eltwise_top
I0817 16:13:05.310683 17318 net.cpp:408] L1_b8_sum_eltwise_top_L1_b8_relu_0_split -> L1_b8_sum_eltwise_top_L1_b8_relu_0_split_0
I0817 16:13:05.310693 17318 net.cpp:408] L1_b8_sum_eltwise_top_L1_b8_relu_0_split -> L1_b8_sum_eltwise_top_L1_b8_relu_0_split_1
I0817 16:13:05.310739 17318 net.cpp:150] Setting up L1_b8_sum_eltwise_top_L1_b8_relu_0_split
I0817 16:13:05.310750 17318 net.cpp:157] Top shape: 125 16 32 32 (2048000)
I0817 16:13:05.310756 17318 net.cpp:157] Top shape: 125 16 32 32 (2048000)
I0817 16:13:05.310761 17318 net.cpp:165] Memory required for data: 771585500
I0817 16:13:05.310766 17318 layer_factory.hpp:77] Creating layer L1_b9_cbr1_conv
I0817 16:13:05.310778 17318 net.cpp:100] Creating Layer L1_b9_cbr1_conv
I0817 16:13:05.310784 17318 net.cpp:434] L1_b9_cbr1_conv <- L1_b8_sum_eltwise_top_L1_b8_relu_0_split_0
I0817 16:13:05.310796 17318 net.cpp:408] L1_b9_cbr1_conv -> L1_b9_cbr1_conv_top
I0817 16:13:05.311125 17318 net.cpp:150] Setting up L1_b9_cbr1_conv
I0817 16:13:05.311139 17318 net.cpp:157] Top shape: 125 16 32 32 (2048000)
I0817 16:13:05.311144 17318 net.cpp:165] Memory required for data: 779777500
I0817 16:13:05.311153 17318 layer_factory.hpp:77] Creating layer L1_b9_cbr1_bn
I0817 16:13:05.311166 17318 net.cpp:100] Creating Layer L1_b9_cbr1_bn
I0817 16:13:05.311172 17318 net.cpp:434] L1_b9_cbr1_bn <- L1_b9_cbr1_conv_top
I0817 16:13:05.311180 17318 net.cpp:408] L1_b9_cbr1_bn -> L1_b9_cbr1_bn_top
I0817 16:13:05.311427 17318 net.cpp:150] Setting up L1_b9_cbr1_bn
I0817 16:13:05.311441 17318 net.cpp:157] Top shape: 125 16 32 32 (2048000)
I0817 16:13:05.311446 17318 net.cpp:165] Memory required for data: 787969500
I0817 16:13:05.311456 17318 layer_factory.hpp:77] Creating layer L1_b9_cbr1_scale
I0817 16:13:05.311465 17318 net.cpp:100] Creating Layer L1_b9_cbr1_scale
I0817 16:13:05.311471 17318 net.cpp:434] L1_b9_cbr1_scale <- L1_b9_cbr1_bn_top
I0817 16:13:05.311478 17318 net.cpp:395] L1_b9_cbr1_scale -> L1_b9_cbr1_bn_top (in-place)
I0817 16:13:05.311533 17318 layer_factory.hpp:77] Creating layer L1_b9_cbr1_scale
I0817 16:13:05.311681 17318 net.cpp:150] Setting up L1_b9_cbr1_scale
I0817 16:13:05.311694 17318 net.cpp:157] Top shape: 125 16 32 32 (2048000)
I0817 16:13:05.311699 17318 net.cpp:165] Memory required for data: 796161500
I0817 16:13:05.311708 17318 layer_factory.hpp:77] Creating layer L1_b9_cbr1_relu
I0817 16:13:05.311717 17318 net.cpp:100] Creating Layer L1_b9_cbr1_relu
I0817 16:13:05.311722 17318 net.cpp:434] L1_b9_cbr1_relu <- L1_b9_cbr1_bn_top
I0817 16:13:05.311733 17318 net.cpp:395] L1_b9_cbr1_relu -> L1_b9_cbr1_bn_top (in-place)
I0817 16:13:05.311743 17318 net.cpp:150] Setting up L1_b9_cbr1_relu
I0817 16:13:05.311749 17318 net.cpp:157] Top shape: 125 16 32 32 (2048000)
I0817 16:13:05.311753 17318 net.cpp:165] Memory required for data: 804353500
I0817 16:13:05.311758 17318 layer_factory.hpp:77] Creating layer L1_b9_cbr2_conv
I0817 16:13:05.311772 17318 net.cpp:100] Creating Layer L1_b9_cbr2_conv
I0817 16:13:05.311779 17318 net.cpp:434] L1_b9_cbr2_conv <- L1_b9_cbr1_bn_top
I0817 16:13:05.311786 17318 net.cpp:408] L1_b9_cbr2_conv -> L1_b9_cbr2_conv_top
I0817 16:13:05.312110 17318 net.cpp:150] Setting up L1_b9_cbr2_conv
I0817 16:13:05.312125 17318 net.cpp:157] Top shape: 125 16 32 32 (2048000)
I0817 16:13:05.312130 17318 net.cpp:165] Memory required for data: 812545500
I0817 16:13:05.312139 17318 layer_factory.hpp:77] Creating layer L1_b9_cbr2_bn
I0817 16:13:05.312151 17318 net.cpp:100] Creating Layer L1_b9_cbr2_bn
I0817 16:13:05.312157 17318 net.cpp:434] L1_b9_cbr2_bn <- L1_b9_cbr2_conv_top
I0817 16:13:05.312166 17318 net.cpp:408] L1_b9_cbr2_bn -> L1_b9_cbr2_bn_top
I0817 16:13:05.312413 17318 net.cpp:150] Setting up L1_b9_cbr2_bn
I0817 16:13:05.312428 17318 net.cpp:157] Top shape: 125 16 32 32 (2048000)
I0817 16:13:05.312434 17318 net.cpp:165] Memory required for data: 820737500
I0817 16:13:05.312465 17318 layer_factory.hpp:77] Creating layer L1_b9_cbr2_scale
I0817 16:13:05.312476 17318 net.cpp:100] Creating Layer L1_b9_cbr2_scale
I0817 16:13:05.312484 17318 net.cpp:434] L1_b9_cbr2_scale <- L1_b9_cbr2_bn_top
I0817 16:13:05.312490 17318 net.cpp:395] L1_b9_cbr2_scale -> L1_b9_cbr2_bn_top (in-place)
I0817 16:13:05.312544 17318 layer_factory.hpp:77] Creating layer L1_b9_cbr2_scale
I0817 16:13:05.312682 17318 net.cpp:150] Setting up L1_b9_cbr2_scale
I0817 16:13:05.312695 17318 net.cpp:157] Top shape: 125 16 32 32 (2048000)
I0817 16:13:05.312700 17318 net.cpp:165] Memory required for data: 828929500
I0817 16:13:05.312710 17318 layer_factory.hpp:77] Creating layer L1_b9_sum_eltwise
I0817 16:13:05.312721 17318 net.cpp:100] Creating Layer L1_b9_sum_eltwise
I0817 16:13:05.312727 17318 net.cpp:434] L1_b9_sum_eltwise <- L1_b9_cbr2_bn_top
I0817 16:13:05.312734 17318 net.cpp:434] L1_b9_sum_eltwise <- L1_b8_sum_eltwise_top_L1_b8_relu_0_split_1
I0817 16:13:05.312741 17318 net.cpp:408] L1_b9_sum_eltwise -> L1_b9_sum_eltwise_top
I0817 16:13:05.312772 17318 net.cpp:150] Setting up L1_b9_sum_eltwise
I0817 16:13:05.312782 17318 net.cpp:157] Top shape: 125 16 32 32 (2048000)
I0817 16:13:05.312786 17318 net.cpp:165] Memory required for data: 837121500
I0817 16:13:05.312791 17318 layer_factory.hpp:77] Creating layer L1_b9_relu
I0817 16:13:05.312799 17318 net.cpp:100] Creating Layer L1_b9_relu
I0817 16:13:05.312805 17318 net.cpp:434] L1_b9_relu <- L1_b9_sum_eltwise_top
I0817 16:13:05.312815 17318 net.cpp:395] L1_b9_relu -> L1_b9_sum_eltwise_top (in-place)
I0817 16:13:05.312825 17318 net.cpp:150] Setting up L1_b9_relu
I0817 16:13:05.312832 17318 net.cpp:157] Top shape: 125 16 32 32 (2048000)
I0817 16:13:05.312837 17318 net.cpp:165] Memory required for data: 845313500
I0817 16:13:05.312847 17318 layer_factory.hpp:77] Creating layer L1_b9_sum_eltwise_top_L1_b9_relu_0_split
I0817 16:13:05.312856 17318 net.cpp:100] Creating Layer L1_b9_sum_eltwise_top_L1_b9_relu_0_split
I0817 16:13:05.312862 17318 net.cpp:434] L1_b9_sum_eltwise_top_L1_b9_relu_0_split <- L1_b9_sum_eltwise_top
I0817 16:13:05.312873 17318 net.cpp:408] L1_b9_sum_eltwise_top_L1_b9_relu_0_split -> L1_b9_sum_eltwise_top_L1_b9_relu_0_split_0
I0817 16:13:05.312885 17318 net.cpp:408] L1_b9_sum_eltwise_top_L1_b9_relu_0_split -> L1_b9_sum_eltwise_top_L1_b9_relu_0_split_1
I0817 16:13:05.312930 17318 net.cpp:150] Setting up L1_b9_sum_eltwise_top_L1_b9_relu_0_split
I0817 16:13:05.312942 17318 net.cpp:157] Top shape: 125 16 32 32 (2048000)
I0817 16:13:05.312949 17318 net.cpp:157] Top shape: 125 16 32 32 (2048000)
I0817 16:13:05.312954 17318 net.cpp:165] Memory required for data: 861697500
I0817 16:13:05.312959 17318 layer_factory.hpp:77] Creating layer L2_b1_cbr1_conv
I0817 16:13:05.312969 17318 net.cpp:100] Creating Layer L2_b1_cbr1_conv
I0817 16:13:05.312975 17318 net.cpp:434] L2_b1_cbr1_conv <- L1_b9_sum_eltwise_top_L1_b9_relu_0_split_0
I0817 16:13:05.312988 17318 net.cpp:408] L2_b1_cbr1_conv -> L2_b1_cbr1_conv_top
I0817 16:13:05.313303 17318 net.cpp:150] Setting up L2_b1_cbr1_conv
I0817 16:13:05.313318 17318 net.cpp:157] Top shape: 125 16 16 16 (512000)
I0817 16:13:05.313323 17318 net.cpp:165] Memory required for data: 863745500
I0817 16:13:05.313331 17318 layer_factory.hpp:77] Creating layer L2_b1_cbr1_bn
I0817 16:13:05.313343 17318 net.cpp:100] Creating Layer L2_b1_cbr1_bn
I0817 16:13:05.313349 17318 net.cpp:434] L2_b1_cbr1_bn <- L2_b1_cbr1_conv_top
I0817 16:13:05.313357 17318 net.cpp:408] L2_b1_cbr1_bn -> L2_b1_cbr1_bn_top
I0817 16:13:05.313594 17318 net.cpp:150] Setting up L2_b1_cbr1_bn
I0817 16:13:05.313606 17318 net.cpp:157] Top shape: 125 16 16 16 (512000)
I0817 16:13:05.313612 17318 net.cpp:165] Memory required for data: 865793500
I0817 16:13:05.313622 17318 layer_factory.hpp:77] Creating layer L2_b1_cbr1_scale
I0817 16:13:05.313637 17318 net.cpp:100] Creating Layer L2_b1_cbr1_scale
I0817 16:13:05.313649 17318 net.cpp:434] L2_b1_cbr1_scale <- L2_b1_cbr1_bn_top
I0817 16:13:05.313658 17318 net.cpp:395] L2_b1_cbr1_scale -> L2_b1_cbr1_bn_top (in-place)
I0817 16:13:05.313710 17318 layer_factory.hpp:77] Creating layer L2_b1_cbr1_scale
I0817 16:13:05.313858 17318 net.cpp:150] Setting up L2_b1_cbr1_scale
I0817 16:13:05.313871 17318 net.cpp:157] Top shape: 125 16 16 16 (512000)
I0817 16:13:05.313876 17318 net.cpp:165] Memory required for data: 867841500
I0817 16:13:05.313885 17318 layer_factory.hpp:77] Creating layer L2_b1_cbr1_relu
I0817 16:13:05.313896 17318 net.cpp:100] Creating Layer L2_b1_cbr1_relu
I0817 16:13:05.313902 17318 net.cpp:434] L2_b1_cbr1_relu <- L2_b1_cbr1_bn_top
I0817 16:13:05.313912 17318 net.cpp:395] L2_b1_cbr1_relu -> L2_b1_cbr1_bn_top (in-place)
I0817 16:13:05.313922 17318 net.cpp:150] Setting up L2_b1_cbr1_relu
I0817 16:13:05.313930 17318 net.cpp:157] Top shape: 125 16 16 16 (512000)
I0817 16:13:05.313933 17318 net.cpp:165] Memory required for data: 869889500
I0817 16:13:05.313938 17318 layer_factory.hpp:77] Creating layer L2_b1_cbr2_conv
I0817 16:13:05.313949 17318 net.cpp:100] Creating Layer L2_b1_cbr2_conv
I0817 16:13:05.313954 17318 net.cpp:434] L2_b1_cbr2_conv <- L2_b1_cbr1_bn_top
I0817 16:13:05.313966 17318 net.cpp:408] L2_b1_cbr2_conv -> L2_b1_cbr2_conv_top
I0817 16:13:05.314277 17318 net.cpp:150] Setting up L2_b1_cbr2_conv
I0817 16:13:05.314291 17318 net.cpp:157] Top shape: 125 16 16 16 (512000)
I0817 16:13:05.314296 17318 net.cpp:165] Memory required for data: 871937500
I0817 16:13:05.314304 17318 layer_factory.hpp:77] Creating layer L2_b1_cbr2_bn
I0817 16:13:05.314313 17318 net.cpp:100] Creating Layer L2_b1_cbr2_bn
I0817 16:13:05.314319 17318 net.cpp:434] L2_b1_cbr2_bn <- L2_b1_cbr2_conv_top
I0817 16:13:05.314330 17318 net.cpp:408] L2_b1_cbr2_bn -> L2_b1_cbr2_bn_top
I0817 16:13:05.314575 17318 net.cpp:150] Setting up L2_b1_cbr2_bn
I0817 16:13:05.314589 17318 net.cpp:157] Top shape: 125 16 16 16 (512000)
I0817 16:13:05.314594 17318 net.cpp:165] Memory required for data: 873985500
I0817 16:13:05.314604 17318 layer_factory.hpp:77] Creating layer L2_b1_cbr2_scale
I0817 16:13:05.314616 17318 net.cpp:100] Creating Layer L2_b1_cbr2_scale
I0817 16:13:05.314622 17318 net.cpp:434] L2_b1_cbr2_scale <- L2_b1_cbr2_bn_top
I0817 16:13:05.314630 17318 net.cpp:395] L2_b1_cbr2_scale -> L2_b1_cbr2_bn_top (in-place)
I0817 16:13:05.314683 17318 layer_factory.hpp:77] Creating layer L2_b1_cbr2_scale
I0817 16:13:05.314826 17318 net.cpp:150] Setting up L2_b1_cbr2_scale
I0817 16:13:05.314839 17318 net.cpp:157] Top shape: 125 16 16 16 (512000)
I0817 16:13:05.314851 17318 net.cpp:165] Memory required for data: 876033500
I0817 16:13:05.314860 17318 layer_factory.hpp:77] Creating layer L2_b1_pool
I0817 16:13:05.314874 17318 net.cpp:100] Creating Layer L2_b1_pool
I0817 16:13:05.314882 17318 net.cpp:434] L2_b1_pool <- L1_b9_sum_eltwise_top_L1_b9_relu_0_split_1
I0817 16:13:05.314890 17318 net.cpp:408] L2_b1_pool -> L2_b1_pool
I0817 16:13:05.314975 17318 net.cpp:150] Setting up L2_b1_pool
I0817 16:13:05.314990 17318 net.cpp:157] Top shape: 125 16 16 16 (512000)
I0817 16:13:05.314996 17318 net.cpp:165] Memory required for data: 878081500
I0817 16:13:05.315001 17318 layer_factory.hpp:77] Creating layer L2_b1_sum_eltwise
I0817 16:13:05.315011 17318 net.cpp:100] Creating Layer L2_b1_sum_eltwise
I0817 16:13:05.315017 17318 net.cpp:434] L2_b1_sum_eltwise <- L2_b1_cbr2_bn_top
I0817 16:13:05.315024 17318 net.cpp:434] L2_b1_sum_eltwise <- L2_b1_pool
I0817 16:13:05.315035 17318 net.cpp:408] L2_b1_sum_eltwise -> L2_b1_sum_eltwise_top
I0817 16:13:05.315068 17318 net.cpp:150] Setting up L2_b1_sum_eltwise
I0817 16:13:05.315079 17318 net.cpp:157] Top shape: 125 16 16 16 (512000)
I0817 16:13:05.315084 17318 net.cpp:165] Memory required for data: 880129500
I0817 16:13:05.315090 17318 layer_factory.hpp:77] Creating layer L2_b1_relu
I0817 16:13:05.315098 17318 net.cpp:100] Creating Layer L2_b1_relu
I0817 16:13:05.315104 17318 net.cpp:434] L2_b1_relu <- L2_b1_sum_eltwise_top
I0817 16:13:05.315110 17318 net.cpp:395] L2_b1_relu -> L2_b1_sum_eltwise_top (in-place)
I0817 16:13:05.315127 17318 net.cpp:150] Setting up L2_b1_relu
I0817 16:13:05.315135 17318 net.cpp:157] Top shape: 125 16 16 16 (512000)
I0817 16:13:05.315140 17318 net.cpp:165] Memory required for data: 882177500
I0817 16:13:05.315145 17318 layer_factory.hpp:77] Creating layer L2_b1_zeros
I0817 16:13:05.315193 17318 net.cpp:100] Creating Layer L2_b1_zeros
I0817 16:13:05.315207 17318 net.cpp:408] L2_b1_zeros -> L2_b1_zeros
I0817 16:13:05.317520 17318 net.cpp:150] Setting up L2_b1_zeros
I0817 16:13:05.317539 17318 net.cpp:157] Top shape: 125 16 16 16 (512000)
I0817 16:13:05.317545 17318 net.cpp:165] Memory required for data: 884225500
I0817 16:13:05.317551 17318 layer_factory.hpp:77] Creating layer L2_b1_concat0
I0817 16:13:05.317561 17318 net.cpp:100] Creating Layer L2_b1_concat0
I0817 16:13:05.317569 17318 net.cpp:434] L2_b1_concat0 <- L2_b1_sum_eltwise_top
I0817 16:13:05.317575 17318 net.cpp:434] L2_b1_concat0 <- L2_b1_zeros
I0817 16:13:05.317586 17318 net.cpp:408] L2_b1_concat0 -> L2_b1_concat0
I0817 16:13:05.317662 17318 net.cpp:150] Setting up L2_b1_concat0
I0817 16:13:05.317680 17318 net.cpp:157] Top shape: 125 32 16 16 (1024000)
I0817 16:13:05.317687 17318 net.cpp:165] Memory required for data: 888321500
I0817 16:13:05.317692 17318 layer_factory.hpp:77] Creating layer L2_b1_concat0_L2_b1_concat0_0_split
I0817 16:13:05.317700 17318 net.cpp:100] Creating Layer L2_b1_concat0_L2_b1_concat0_0_split
I0817 16:13:05.317706 17318 net.cpp:434] L2_b1_concat0_L2_b1_concat0_0_split <- L2_b1_concat0
I0817 16:13:05.317714 17318 net.cpp:408] L2_b1_concat0_L2_b1_concat0_0_split -> L2_b1_concat0_L2_b1_concat0_0_split_0
I0817 16:13:05.317725 17318 net.cpp:408] L2_b1_concat0_L2_b1_concat0_0_split -> L2_b1_concat0_L2_b1_concat0_0_split_1
I0817 16:13:05.317775 17318 net.cpp:150] Setting up L2_b1_concat0_L2_b1_concat0_0_split
I0817 16:13:05.317787 17318 net.cpp:157] Top shape: 125 32 16 16 (1024000)
I0817 16:13:05.317795 17318 net.cpp:157] Top shape: 125 32 16 16 (1024000)
I0817 16:13:05.317800 17318 net.cpp:165] Memory required for data: 896513500
I0817 16:13:05.317804 17318 layer_factory.hpp:77] Creating layer L2_b2_cbr1_conv
I0817 16:13:05.317818 17318 net.cpp:100] Creating Layer L2_b2_cbr1_conv
I0817 16:13:05.317826 17318 net.cpp:434] L2_b2_cbr1_conv <- L2_b1_concat0_L2_b1_concat0_0_split_0
I0817 16:13:05.317834 17318 net.cpp:408] L2_b2_cbr1_conv -> L2_b2_cbr1_conv_top
I0817 16:13:05.319295 17318 net.cpp:150] Setting up L2_b2_cbr1_conv
I0817 16:13:05.319314 17318 net.cpp:157] Top shape: 125 32 16 16 (1024000)
I0817 16:13:05.319319 17318 net.cpp:165] Memory required for data: 900609500
I0817 16:13:05.319329 17318 layer_factory.hpp:77] Creating layer L2_b2_cbr1_bn
I0817 16:13:05.319342 17318 net.cpp:100] Creating Layer L2_b2_cbr1_bn
I0817 16:13:05.319350 17318 net.cpp:434] L2_b2_cbr1_bn <- L2_b2_cbr1_conv_top
I0817 16:13:05.319358 17318 net.cpp:408] L2_b2_cbr1_bn -> L2_b2_cbr1_bn_top
I0817 16:13:05.319604 17318 net.cpp:150] Setting up L2_b2_cbr1_bn
I0817 16:13:05.319618 17318 net.cpp:157] Top shape: 125 32 16 16 (1024000)
I0817 16:13:05.319623 17318 net.cpp:165] Memory required for data: 904705500
I0817 16:13:05.319634 17318 layer_factory.hpp:77] Creating layer L2_b2_cbr1_scale
I0817 16:13:05.319646 17318 net.cpp:100] Creating Layer L2_b2_cbr1_scale
I0817 16:13:05.319653 17318 net.cpp:434] L2_b2_cbr1_scale <- L2_b2_cbr1_bn_top
I0817 16:13:05.319660 17318 net.cpp:395] L2_b2_cbr1_scale -> L2_b2_cbr1_bn_top (in-place)
I0817 16:13:05.319715 17318 layer_factory.hpp:77] Creating layer L2_b2_cbr1_scale
I0817 16:13:05.319867 17318 net.cpp:150] Setting up L2_b2_cbr1_scale
I0817 16:13:05.319881 17318 net.cpp:157] Top shape: 125 32 16 16 (1024000)
I0817 16:13:05.319886 17318 net.cpp:165] Memory required for data: 908801500
I0817 16:13:05.319896 17318 layer_factory.hpp:77] Creating layer L2_b2_cbr1_relu
I0817 16:13:05.319907 17318 net.cpp:100] Creating Layer L2_b2_cbr1_relu
I0817 16:13:05.319914 17318 net.cpp:434] L2_b2_cbr1_relu <- L2_b2_cbr1_bn_top
I0817 16:13:05.319923 17318 net.cpp:395] L2_b2_cbr1_relu -> L2_b2_cbr1_bn_top (in-place)
I0817 16:13:05.319941 17318 net.cpp:150] Setting up L2_b2_cbr1_relu
I0817 16:13:05.319949 17318 net.cpp:157] Top shape: 125 32 16 16 (1024000)
I0817 16:13:05.319954 17318 net.cpp:165] Memory required for data: 912897500
I0817 16:13:05.319959 17318 layer_factory.hpp:77] Creating layer L2_b2_cbr2_conv
I0817 16:13:05.319970 17318 net.cpp:100] Creating Layer L2_b2_cbr2_conv
I0817 16:13:05.319977 17318 net.cpp:434] L2_b2_cbr2_conv <- L2_b2_cbr1_bn_top
I0817 16:13:05.319988 17318 net.cpp:408] L2_b2_cbr2_conv -> L2_b2_cbr2_conv_top
I0817 16:13:05.320442 17318 net.cpp:150] Setting up L2_b2_cbr2_conv
I0817 16:13:05.320456 17318 net.cpp:157] Top shape: 125 32 16 16 (1024000)
I0817 16:13:05.320461 17318 net.cpp:165] Memory required for data: 916993500
I0817 16:13:05.320471 17318 layer_factory.hpp:77] Creating layer L2_b2_cbr2_bn
I0817 16:13:05.320479 17318 net.cpp:100] Creating Layer L2_b2_cbr2_bn
I0817 16:13:05.320487 17318 net.cpp:434] L2_b2_cbr2_bn <- L2_b2_cbr2_conv_top
I0817 16:13:05.320497 17318 net.cpp:408] L2_b2_cbr2_bn -> L2_b2_cbr2_bn_top
I0817 16:13:05.320747 17318 net.cpp:150] Setting up L2_b2_cbr2_bn
I0817 16:13:05.320761 17318 net.cpp:157] Top shape: 125 32 16 16 (1024000)
I0817 16:13:05.320766 17318 net.cpp:165] Memory required for data: 921089500
I0817 16:13:05.320777 17318 layer_factory.hpp:77] Creating layer L2_b2_cbr2_scale
I0817 16:13:05.320789 17318 net.cpp:100] Creating Layer L2_b2_cbr2_scale
I0817 16:13:05.320796 17318 net.cpp:434] L2_b2_cbr2_scale <- L2_b2_cbr2_bn_top
I0817 16:13:05.320803 17318 net.cpp:395] L2_b2_cbr2_scale -> L2_b2_cbr2_bn_top (in-place)
I0817 16:13:05.320865 17318 layer_factory.hpp:77] Creating layer L2_b2_cbr2_scale
I0817 16:13:05.321010 17318 net.cpp:150] Setting up L2_b2_cbr2_scale
I0817 16:13:05.321023 17318 net.cpp:157] Top shape: 125 32 16 16 (1024000)
I0817 16:13:05.321028 17318 net.cpp:165] Memory required for data: 925185500
I0817 16:13:05.321038 17318 layer_factory.hpp:77] Creating layer L2_b2_sum_eltwise
I0817 16:13:05.321050 17318 net.cpp:100] Creating Layer L2_b2_sum_eltwise
I0817 16:13:05.321056 17318 net.cpp:434] L2_b2_sum_eltwise <- L2_b2_cbr2_bn_top
I0817 16:13:05.321064 17318 net.cpp:434] L2_b2_sum_eltwise <- L2_b1_concat0_L2_b1_concat0_0_split_1
I0817 16:13:05.321071 17318 net.cpp:408] L2_b2_sum_eltwise -> L2_b2_sum_eltwise_top
I0817 16:13:05.321101 17318 net.cpp:150] Setting up L2_b2_sum_eltwise
I0817 16:13:05.321110 17318 net.cpp:157] Top shape: 125 32 16 16 (1024000)
I0817 16:13:05.321115 17318 net.cpp:165] Memory required for data: 929281500
I0817 16:13:05.321121 17318 layer_factory.hpp:77] Creating layer L2_b2_relu
I0817 16:13:05.321128 17318 net.cpp:100] Creating Layer L2_b2_relu
I0817 16:13:05.321135 17318 net.cpp:434] L2_b2_relu <- L2_b2_sum_eltwise_top
I0817 16:13:05.321144 17318 net.cpp:395] L2_b2_relu -> L2_b2_sum_eltwise_top (in-place)
I0817 16:13:05.321153 17318 net.cpp:150] Setting up L2_b2_relu
I0817 16:13:05.321161 17318 net.cpp:157] Top shape: 125 32 16 16 (1024000)
I0817 16:13:05.321166 17318 net.cpp:165] Memory required for data: 933377500
I0817 16:13:05.321171 17318 layer_factory.hpp:77] Creating layer L2_b2_sum_eltwise_top_L2_b2_relu_0_split
I0817 16:13:05.321177 17318 net.cpp:100] Creating Layer L2_b2_sum_eltwise_top_L2_b2_relu_0_split
I0817 16:13:05.321182 17318 net.cpp:434] L2_b2_sum_eltwise_top_L2_b2_relu_0_split <- L2_b2_sum_eltwise_top
I0817 16:13:05.321190 17318 net.cpp:408] L2_b2_sum_eltwise_top_L2_b2_relu_0_split -> L2_b2_sum_eltwise_top_L2_b2_relu_0_split_0
I0817 16:13:05.321200 17318 net.cpp:408] L2_b2_sum_eltwise_top_L2_b2_relu_0_split -> L2_b2_sum_eltwise_top_L2_b2_relu_0_split_1
I0817 16:13:05.321247 17318 net.cpp:150] Setting up L2_b2_sum_eltwise_top_L2_b2_relu_0_split
I0817 16:13:05.321259 17318 net.cpp:157] Top shape: 125 32 16 16 (1024000)
I0817 16:13:05.321266 17318 net.cpp:157] Top shape: 125 32 16 16 (1024000)
I0817 16:13:05.321271 17318 net.cpp:165] Memory required for data: 941569500
I0817 16:13:05.321276 17318 layer_factory.hpp:77] Creating layer L2_b3_cbr1_conv
I0817 16:13:05.321295 17318 net.cpp:100] Creating Layer L2_b3_cbr1_conv
I0817 16:13:05.321301 17318 net.cpp:434] L2_b3_cbr1_conv <- L2_b2_sum_eltwise_top_L2_b2_relu_0_split_0
I0817 16:13:05.321313 17318 net.cpp:408] L2_b3_cbr1_conv -> L2_b3_cbr1_conv_top
I0817 16:13:05.321769 17318 net.cpp:150] Setting up L2_b3_cbr1_conv
I0817 16:13:05.321784 17318 net.cpp:157] Top shape: 125 32 16 16 (1024000)
I0817 16:13:05.321789 17318 net.cpp:165] Memory required for data: 945665500
I0817 16:13:05.321797 17318 layer_factory.hpp:77] Creating layer L2_b3_cbr1_bn
I0817 16:13:05.321806 17318 net.cpp:100] Creating Layer L2_b3_cbr1_bn
I0817 16:13:05.321812 17318 net.cpp:434] L2_b3_cbr1_bn <- L2_b3_cbr1_conv_top
I0817 16:13:05.321823 17318 net.cpp:408] L2_b3_cbr1_bn -> L2_b3_cbr1_bn_top
I0817 16:13:05.322072 17318 net.cpp:150] Setting up L2_b3_cbr1_bn
I0817 16:13:05.322085 17318 net.cpp:157] Top shape: 125 32 16 16 (1024000)
I0817 16:13:05.322090 17318 net.cpp:165] Memory required for data: 949761500
I0817 16:13:05.322101 17318 layer_factory.hpp:77] Creating layer L2_b3_cbr1_scale
I0817 16:13:05.322113 17318 net.cpp:100] Creating Layer L2_b3_cbr1_scale
I0817 16:13:05.322119 17318 net.cpp:434] L2_b3_cbr1_scale <- L2_b3_cbr1_bn_top
I0817 16:13:05.322127 17318 net.cpp:395] L2_b3_cbr1_scale -> L2_b3_cbr1_bn_top (in-place)
I0817 16:13:05.322181 17318 layer_factory.hpp:77] Creating layer L2_b3_cbr1_scale
I0817 16:13:05.322327 17318 net.cpp:150] Setting up L2_b3_cbr1_scale
I0817 16:13:05.322340 17318 net.cpp:157] Top shape: 125 32 16 16 (1024000)
I0817 16:13:05.322345 17318 net.cpp:165] Memory required for data: 953857500
I0817 16:13:05.322355 17318 layer_factory.hpp:77] Creating layer L2_b3_cbr1_relu
I0817 16:13:05.322365 17318 net.cpp:100] Creating Layer L2_b3_cbr1_relu
I0817 16:13:05.322371 17318 net.cpp:434] L2_b3_cbr1_relu <- L2_b3_cbr1_bn_top
I0817 16:13:05.322378 17318 net.cpp:395] L2_b3_cbr1_relu -> L2_b3_cbr1_bn_top (in-place)
I0817 16:13:05.322388 17318 net.cpp:150] Setting up L2_b3_cbr1_relu
I0817 16:13:05.322398 17318 net.cpp:157] Top shape: 125 32 16 16 (1024000)
I0817 16:13:05.322403 17318 net.cpp:165] Memory required for data: 957953500
I0817 16:13:05.322408 17318 layer_factory.hpp:77] Creating layer L2_b3_cbr2_conv
I0817 16:13:05.322419 17318 net.cpp:100] Creating Layer L2_b3_cbr2_conv
I0817 16:13:05.322424 17318 net.cpp:434] L2_b3_cbr2_conv <- L2_b3_cbr1_bn_top
I0817 16:13:05.322435 17318 net.cpp:408] L2_b3_cbr2_conv -> L2_b3_cbr2_conv_top
I0817 16:13:05.322898 17318 net.cpp:150] Setting up L2_b3_cbr2_conv
I0817 16:13:05.322912 17318 net.cpp:157] Top shape: 125 32 16 16 (1024000)
I0817 16:13:05.322918 17318 net.cpp:165] Memory required for data: 962049500
I0817 16:13:05.322927 17318 layer_factory.hpp:77] Creating layer L2_b3_cbr2_bn
I0817 16:13:05.322937 17318 net.cpp:100] Creating Layer L2_b3_cbr2_bn
I0817 16:13:05.322942 17318 net.cpp:434] L2_b3_cbr2_bn <- L2_b3_cbr2_conv_top
I0817 16:13:05.322953 17318 net.cpp:408] L2_b3_cbr2_bn -> L2_b3_cbr2_bn_top
I0817 16:13:05.323201 17318 net.cpp:150] Setting up L2_b3_cbr2_bn
I0817 16:13:05.323213 17318 net.cpp:157] Top shape: 125 32 16 16 (1024000)
I0817 16:13:05.323220 17318 net.cpp:165] Memory required for data: 966145500
I0817 16:13:05.323230 17318 layer_factory.hpp:77] Creating layer L2_b3_cbr2_scale
I0817 16:13:05.323241 17318 net.cpp:100] Creating Layer L2_b3_cbr2_scale
I0817 16:13:05.323247 17318 net.cpp:434] L2_b3_cbr2_scale <- L2_b3_cbr2_bn_top
I0817 16:13:05.323254 17318 net.cpp:395] L2_b3_cbr2_scale -> L2_b3_cbr2_bn_top (in-place)
I0817 16:13:05.323308 17318 layer_factory.hpp:77] Creating layer L2_b3_cbr2_scale
I0817 16:13:05.323453 17318 net.cpp:150] Setting up L2_b3_cbr2_scale
I0817 16:13:05.323467 17318 net.cpp:157] Top shape: 125 32 16 16 (1024000)
I0817 16:13:05.323472 17318 net.cpp:165] Memory required for data: 970241500
I0817 16:13:05.323479 17318 layer_factory.hpp:77] Creating layer L2_b3_sum_eltwise
I0817 16:13:05.323492 17318 net.cpp:100] Creating Layer L2_b3_sum_eltwise
I0817 16:13:05.323498 17318 net.cpp:434] L2_b3_sum_eltwise <- L2_b3_cbr2_bn_top
I0817 16:13:05.323505 17318 net.cpp:434] L2_b3_sum_eltwise <- L2_b2_sum_eltwise_top_L2_b2_relu_0_split_1
I0817 16:13:05.323519 17318 net.cpp:408] L2_b3_sum_eltwise -> L2_b3_sum_eltwise_top
I0817 16:13:05.323551 17318 net.cpp:150] Setting up L2_b3_sum_eltwise
I0817 16:13:05.323561 17318 net.cpp:157] Top shape: 125 32 16 16 (1024000)
I0817 16:13:05.323566 17318 net.cpp:165] Memory required for data: 974337500
I0817 16:13:05.323571 17318 layer_factory.hpp:77] Creating layer L2_b3_relu
I0817 16:13:05.323592 17318 net.cpp:100] Creating Layer L2_b3_relu
I0817 16:13:05.323598 17318 net.cpp:434] L2_b3_relu <- L2_b3_sum_eltwise_top
I0817 16:13:05.323606 17318 net.cpp:395] L2_b3_relu -> L2_b3_sum_eltwise_top (in-place)
I0817 16:13:05.323616 17318 net.cpp:150] Setting up L2_b3_relu
I0817 16:13:05.323622 17318 net.cpp:157] Top shape: 125 32 16 16 (1024000)
I0817 16:13:05.323627 17318 net.cpp:165] Memory required for data: 978433500
I0817 16:13:05.323632 17318 layer_factory.hpp:77] Creating layer L2_b3_sum_eltwise_top_L2_b3_relu_0_split
I0817 16:13:05.323642 17318 net.cpp:100] Creating Layer L2_b3_sum_eltwise_top_L2_b3_relu_0_split
I0817 16:13:05.323648 17318 net.cpp:434] L2_b3_sum_eltwise_top_L2_b3_relu_0_split <- L2_b3_sum_eltwise_top
I0817 16:13:05.323655 17318 net.cpp:408] L2_b3_sum_eltwise_top_L2_b3_relu_0_split -> L2_b3_sum_eltwise_top_L2_b3_relu_0_split_0
I0817 16:13:05.323665 17318 net.cpp:408] L2_b3_sum_eltwise_top_L2_b3_relu_0_split -> L2_b3_sum_eltwise_top_L2_b3_relu_0_split_1
I0817 16:13:05.323709 17318 net.cpp:150] Setting up L2_b3_sum_eltwise_top_L2_b3_relu_0_split
I0817 16:13:05.323724 17318 net.cpp:157] Top shape: 125 32 16 16 (1024000)
I0817 16:13:05.323732 17318 net.cpp:157] Top shape: 125 32 16 16 (1024000)
I0817 16:13:05.323736 17318 net.cpp:165] Memory required for data: 986625500
I0817 16:13:05.323741 17318 layer_factory.hpp:77] Creating layer L2_b4_cbr1_conv
I0817 16:13:05.323752 17318 net.cpp:100] Creating Layer L2_b4_cbr1_conv
I0817 16:13:05.323758 17318 net.cpp:434] L2_b4_cbr1_conv <- L2_b3_sum_eltwise_top_L2_b3_relu_0_split_0
I0817 16:13:05.323767 17318 net.cpp:408] L2_b4_cbr1_conv -> L2_b4_cbr1_conv_top
I0817 16:13:05.324232 17318 net.cpp:150] Setting up L2_b4_cbr1_conv
I0817 16:13:05.324246 17318 net.cpp:157] Top shape: 125 32 16 16 (1024000)
I0817 16:13:05.324252 17318 net.cpp:165] Memory required for data: 990721500
I0817 16:13:05.324260 17318 layer_factory.hpp:77] Creating layer L2_b4_cbr1_bn
I0817 16:13:05.324275 17318 net.cpp:100] Creating Layer L2_b4_cbr1_bn
I0817 16:13:05.324281 17318 net.cpp:434] L2_b4_cbr1_bn <- L2_b4_cbr1_conv_top
I0817 16:13:05.324290 17318 net.cpp:408] L2_b4_cbr1_bn -> L2_b4_cbr1_bn_top
I0817 16:13:05.324537 17318 net.cpp:150] Setting up L2_b4_cbr1_bn
I0817 16:13:05.324548 17318 net.cpp:157] Top shape: 125 32 16 16 (1024000)
I0817 16:13:05.324554 17318 net.cpp:165] Memory required for data: 994817500
I0817 16:13:05.324564 17318 layer_factory.hpp:77] Creating layer L2_b4_cbr1_scale
I0817 16:13:05.324573 17318 net.cpp:100] Creating Layer L2_b4_cbr1_scale
I0817 16:13:05.324579 17318 net.cpp:434] L2_b4_cbr1_scale <- L2_b4_cbr1_bn_top
I0817 16:13:05.324589 17318 net.cpp:395] L2_b4_cbr1_scale -> L2_b4_cbr1_bn_top (in-place)
I0817 16:13:05.324645 17318 layer_factory.hpp:77] Creating layer L2_b4_cbr1_scale
I0817 16:13:05.324792 17318 net.cpp:150] Setting up L2_b4_cbr1_scale
I0817 16:13:05.324805 17318 net.cpp:157] Top shape: 125 32 16 16 (1024000)
I0817 16:13:05.324810 17318 net.cpp:165] Memory required for data: 998913500
I0817 16:13:05.324820 17318 layer_factory.hpp:77] Creating layer L2_b4_cbr1_relu
I0817 16:13:05.324827 17318 net.cpp:100] Creating Layer L2_b4_cbr1_relu
I0817 16:13:05.324833 17318 net.cpp:434] L2_b4_cbr1_relu <- L2_b4_cbr1_bn_top
I0817 16:13:05.324848 17318 net.cpp:395] L2_b4_cbr1_relu -> L2_b4_cbr1_bn_top (in-place)
I0817 16:13:05.324861 17318 net.cpp:150] Setting up L2_b4_cbr1_relu
I0817 16:13:05.324867 17318 net.cpp:157] Top shape: 125 32 16 16 (1024000)
I0817 16:13:05.324872 17318 net.cpp:165] Memory required for data: 1003009500
I0817 16:13:05.324877 17318 layer_factory.hpp:77] Creating layer L2_b4_cbr2_conv
I0817 16:13:05.324898 17318 net.cpp:100] Creating Layer L2_b4_cbr2_conv
I0817 16:13:05.324904 17318 net.cpp:434] L2_b4_cbr2_conv <- L2_b4_cbr1_bn_top
I0817 16:13:05.324913 17318 net.cpp:408] L2_b4_cbr2_conv -> L2_b4_cbr2_conv_top
I0817 16:13:05.325374 17318 net.cpp:150] Setting up L2_b4_cbr2_conv
I0817 16:13:05.325388 17318 net.cpp:157] Top shape: 125 32 16 16 (1024000)
I0817 16:13:05.325394 17318 net.cpp:165] Memory required for data: 1007105500
I0817 16:13:05.325403 17318 layer_factory.hpp:77] Creating layer L2_b4_cbr2_bn
I0817 16:13:05.325417 17318 net.cpp:100] Creating Layer L2_b4_cbr2_bn
I0817 16:13:05.325423 17318 net.cpp:434] L2_b4_cbr2_bn <- L2_b4_cbr2_conv_top
I0817 16:13:05.325431 17318 net.cpp:408] L2_b4_cbr2_bn -> L2_b4_cbr2_bn_top
I0817 16:13:05.325672 17318 net.cpp:150] Setting up L2_b4_cbr2_bn
I0817 16:13:05.325685 17318 net.cpp:157] Top shape: 125 32 16 16 (1024000)
I0817 16:13:05.325690 17318 net.cpp:165] Memory required for data: 1011201500
I0817 16:13:05.325700 17318 layer_factory.hpp:77] Creating layer L2_b4_cbr2_scale
I0817 16:13:05.325708 17318 net.cpp:100] Creating Layer L2_b4_cbr2_scale
I0817 16:13:05.325714 17318 net.cpp:434] L2_b4_cbr2_scale <- L2_b4_cbr2_bn_top
I0817 16:13:05.325726 17318 net.cpp:395] L2_b4_cbr2_scale -> L2_b4_cbr2_bn_top (in-place)
I0817 16:13:05.325783 17318 layer_factory.hpp:77] Creating layer L2_b4_cbr2_scale
I0817 16:13:05.325935 17318 net.cpp:150] Setting up L2_b4_cbr2_scale
I0817 16:13:05.325949 17318 net.cpp:157] Top shape: 125 32 16 16 (1024000)
I0817 16:13:05.325954 17318 net.cpp:165] Memory required for data: 1015297500
I0817 16:13:05.325963 17318 layer_factory.hpp:77] Creating layer L2_b4_sum_eltwise
I0817 16:13:05.325971 17318 net.cpp:100] Creating Layer L2_b4_sum_eltwise
I0817 16:13:05.325978 17318 net.cpp:434] L2_b4_sum_eltwise <- L2_b4_cbr2_bn_top
I0817 16:13:05.325984 17318 net.cpp:434] L2_b4_sum_eltwise <- L2_b3_sum_eltwise_top_L2_b3_relu_0_split_1
I0817 16:13:05.325995 17318 net.cpp:408] L2_b4_sum_eltwise -> L2_b4_sum_eltwise_top
I0817 16:13:05.326021 17318 net.cpp:150] Setting up L2_b4_sum_eltwise
I0817 16:13:05.326031 17318 net.cpp:157] Top shape: 125 32 16 16 (1024000)
I0817 16:13:05.326036 17318 net.cpp:165] Memory required for data: 1019393500
I0817 16:13:05.326041 17318 layer_factory.hpp:77] Creating layer L2_b4_relu
I0817 16:13:05.326048 17318 net.cpp:100] Creating Layer L2_b4_relu
I0817 16:13:05.326057 17318 net.cpp:434] L2_b4_relu <- L2_b4_sum_eltwise_top
I0817 16:13:05.326064 17318 net.cpp:395] L2_b4_relu -> L2_b4_sum_eltwise_top (in-place)
I0817 16:13:05.326074 17318 net.cpp:150] Setting up L2_b4_relu
I0817 16:13:05.326081 17318 net.cpp:157] Top shape: 125 32 16 16 (1024000)
I0817 16:13:05.326086 17318 net.cpp:165] Memory required for data: 1023489500
I0817 16:13:05.326091 17318 layer_factory.hpp:77] Creating layer L2_b4_sum_eltwise_top_L2_b4_relu_0_split
I0817 16:13:05.326097 17318 net.cpp:100] Creating Layer L2_b4_sum_eltwise_top_L2_b4_relu_0_split
I0817 16:13:05.326102 17318 net.cpp:434] L2_b4_sum_eltwise_top_L2_b4_relu_0_split <- L2_b4_sum_eltwise_top
I0817 16:13:05.326112 17318 net.cpp:408] L2_b4_sum_eltwise_top_L2_b4_relu_0_split -> L2_b4_sum_eltwise_top_L2_b4_relu_0_split_0
I0817 16:13:05.326122 17318 net.cpp:408] L2_b4_sum_eltwise_top_L2_b4_relu_0_split -> L2_b4_sum_eltwise_top_L2_b4_relu_0_split_1
I0817 16:13:05.326166 17318 net.cpp:150] Setting up L2_b4_sum_eltwise_top_L2_b4_relu_0_split
I0817 16:13:05.326177 17318 net.cpp:157] Top shape: 125 32 16 16 (1024000)
I0817 16:13:05.326184 17318 net.cpp:157] Top shape: 125 32 16 16 (1024000)
I0817 16:13:05.326189 17318 net.cpp:165] Memory required for data: 1031681500
I0817 16:13:05.326195 17318 layer_factory.hpp:77] Creating layer L2_b5_cbr1_conv
I0817 16:13:05.326208 17318 net.cpp:100] Creating Layer L2_b5_cbr1_conv
I0817 16:13:05.326215 17318 net.cpp:434] L2_b5_cbr1_conv <- L2_b4_sum_eltwise_top_L2_b4_relu_0_split_0
I0817 16:13:05.326223 17318 net.cpp:408] L2_b5_cbr1_conv -> L2_b5_cbr1_conv_top
I0817 16:13:05.326681 17318 net.cpp:150] Setting up L2_b5_cbr1_conv
I0817 16:13:05.326701 17318 net.cpp:157] Top shape: 125 32 16 16 (1024000)
I0817 16:13:05.326707 17318 net.cpp:165] Memory required for data: 1035777500
I0817 16:13:05.326716 17318 layer_factory.hpp:77] Creating layer L2_b5_cbr1_bn
I0817 16:13:05.326728 17318 net.cpp:100] Creating Layer L2_b5_cbr1_bn
I0817 16:13:05.326735 17318 net.cpp:434] L2_b5_cbr1_bn <- L2_b5_cbr1_conv_top
I0817 16:13:05.326742 17318 net.cpp:408] L2_b5_cbr1_bn -> L2_b5_cbr1_bn_top
I0817 16:13:05.327000 17318 net.cpp:150] Setting up L2_b5_cbr1_bn
I0817 16:13:05.327014 17318 net.cpp:157] Top shape: 125 32 16 16 (1024000)
I0817 16:13:05.327019 17318 net.cpp:165] Memory required for data: 1039873500
I0817 16:13:05.327030 17318 layer_factory.hpp:77] Creating layer L2_b5_cbr1_scale
I0817 16:13:05.327039 17318 net.cpp:100] Creating Layer L2_b5_cbr1_scale
I0817 16:13:05.327045 17318 net.cpp:434] L2_b5_cbr1_scale <- L2_b5_cbr1_bn_top
I0817 16:13:05.327055 17318 net.cpp:395] L2_b5_cbr1_scale -> L2_b5_cbr1_bn_top (in-place)
I0817 16:13:05.327111 17318 layer_factory.hpp:77] Creating layer L2_b5_cbr1_scale
I0817 16:13:05.327256 17318 net.cpp:150] Setting up L2_b5_cbr1_scale
I0817 16:13:05.327270 17318 net.cpp:157] Top shape: 125 32 16 16 (1024000)
I0817 16:13:05.327275 17318 net.cpp:165] Memory required for data: 1043969500
I0817 16:13:05.327283 17318 layer_factory.hpp:77] Creating layer L2_b5_cbr1_relu
I0817 16:13:05.327291 17318 net.cpp:100] Creating Layer L2_b5_cbr1_relu
I0817 16:13:05.327297 17318 net.cpp:434] L2_b5_cbr1_relu <- L2_b5_cbr1_bn_top
I0817 16:13:05.327307 17318 net.cpp:395] L2_b5_cbr1_relu -> L2_b5_cbr1_bn_top (in-place)
I0817 16:13:05.327317 17318 net.cpp:150] Setting up L2_b5_cbr1_relu
I0817 16:13:05.327324 17318 net.cpp:157] Top shape: 125 32 16 16 (1024000)
I0817 16:13:05.327329 17318 net.cpp:165] Memory required for data: 1048065500
I0817 16:13:05.327334 17318 layer_factory.hpp:77] Creating layer L2_b5_cbr2_conv
I0817 16:13:05.327350 17318 net.cpp:100] Creating Layer L2_b5_cbr2_conv
I0817 16:13:05.327358 17318 net.cpp:434] L2_b5_cbr2_conv <- L2_b5_cbr1_bn_top
I0817 16:13:05.327365 17318 net.cpp:408] L2_b5_cbr2_conv -> L2_b5_cbr2_conv_top
I0817 16:13:05.327826 17318 net.cpp:150] Setting up L2_b5_cbr2_conv
I0817 16:13:05.327846 17318 net.cpp:157] Top shape: 125 32 16 16 (1024000)
I0817 16:13:05.327852 17318 net.cpp:165] Memory required for data: 1052161500
I0817 16:13:05.327862 17318 layer_factory.hpp:77] Creating layer L2_b5_cbr2_bn
I0817 16:13:05.327873 17318 net.cpp:100] Creating Layer L2_b5_cbr2_bn
I0817 16:13:05.327880 17318 net.cpp:434] L2_b5_cbr2_bn <- L2_b5_cbr2_conv_top
I0817 16:13:05.327888 17318 net.cpp:408] L2_b5_cbr2_bn -> L2_b5_cbr2_bn_top
I0817 16:13:05.328131 17318 net.cpp:150] Setting up L2_b5_cbr2_bn
I0817 16:13:05.328143 17318 net.cpp:157] Top shape: 125 32 16 16 (1024000)
I0817 16:13:05.328150 17318 net.cpp:165] Memory required for data: 1056257500
I0817 16:13:05.328160 17318 layer_factory.hpp:77] Creating layer L2_b5_cbr2_scale
I0817 16:13:05.328168 17318 net.cpp:100] Creating Layer L2_b5_cbr2_scale
I0817 16:13:05.328174 17318 net.cpp:434] L2_b5_cbr2_scale <- L2_b5_cbr2_bn_top
I0817 16:13:05.328181 17318 net.cpp:395] L2_b5_cbr2_scale -> L2_b5_cbr2_bn_top (in-place)
I0817 16:13:05.328238 17318 layer_factory.hpp:77] Creating layer L2_b5_cbr2_scale
I0817 16:13:05.328382 17318 net.cpp:150] Setting up L2_b5_cbr2_scale
I0817 16:13:05.328397 17318 net.cpp:157] Top shape: 125 32 16 16 (1024000)
I0817 16:13:05.328403 17318 net.cpp:165] Memory required for data: 1060353500
I0817 16:13:05.328413 17318 layer_factory.hpp:77] Creating layer L2_b5_sum_eltwise
I0817 16:13:05.328421 17318 net.cpp:100] Creating Layer L2_b5_sum_eltwise
I0817 16:13:05.328428 17318 net.cpp:434] L2_b5_sum_eltwise <- L2_b5_cbr2_bn_top
I0817 16:13:05.328434 17318 net.cpp:434] L2_b5_sum_eltwise <- L2_b4_sum_eltwise_top_L2_b4_relu_0_split_1
I0817 16:13:05.328443 17318 net.cpp:408] L2_b5_sum_eltwise -> L2_b5_sum_eltwise_top
I0817 16:13:05.328471 17318 net.cpp:150] Setting up L2_b5_sum_eltwise
I0817 16:13:05.328481 17318 net.cpp:157] Top shape: 125 32 16 16 (1024000)
I0817 16:13:05.328492 17318 net.cpp:165] Memory required for data: 1064449500
I0817 16:13:05.328497 17318 layer_factory.hpp:77] Creating layer L2_b5_relu
I0817 16:13:05.328505 17318 net.cpp:100] Creating Layer L2_b5_relu
I0817 16:13:05.328511 17318 net.cpp:434] L2_b5_relu <- L2_b5_sum_eltwise_top
I0817 16:13:05.328521 17318 net.cpp:395] L2_b5_relu -> L2_b5_sum_eltwise_top (in-place)
I0817 16:13:05.328531 17318 net.cpp:150] Setting up L2_b5_relu
I0817 16:13:05.328537 17318 net.cpp:157] Top shape: 125 32 16 16 (1024000)
I0817 16:13:05.328542 17318 net.cpp:165] Memory required for data: 1068545500
I0817 16:13:05.328547 17318 layer_factory.hpp:77] Creating layer L2_b5_sum_eltwise_top_L2_b5_relu_0_split
I0817 16:13:05.328554 17318 net.cpp:100] Creating Layer L2_b5_sum_eltwise_top_L2_b5_relu_0_split
I0817 16:13:05.328559 17318 net.cpp:434] L2_b5_sum_eltwise_top_L2_b5_relu_0_split <- L2_b5_sum_eltwise_top
I0817 16:13:05.328569 17318 net.cpp:408] L2_b5_sum_eltwise_top_L2_b5_relu_0_split -> L2_b5_sum_eltwise_top_L2_b5_relu_0_split_0
I0817 16:13:05.328579 17318 net.cpp:408] L2_b5_sum_eltwise_top_L2_b5_relu_0_split -> L2_b5_sum_eltwise_top_L2_b5_relu_0_split_1
I0817 16:13:05.328622 17318 net.cpp:150] Setting up L2_b5_sum_eltwise_top_L2_b5_relu_0_split
I0817 16:13:05.328634 17318 net.cpp:157] Top shape: 125 32 16 16 (1024000)
I0817 16:13:05.328641 17318 net.cpp:157] Top shape: 125 32 16 16 (1024000)
I0817 16:13:05.328645 17318 net.cpp:165] Memory required for data: 1076737500
I0817 16:13:05.328651 17318 layer_factory.hpp:77] Creating layer L2_b6_cbr1_conv
I0817 16:13:05.328665 17318 net.cpp:100] Creating Layer L2_b6_cbr1_conv
I0817 16:13:05.328671 17318 net.cpp:434] L2_b6_cbr1_conv <- L2_b5_sum_eltwise_top_L2_b5_relu_0_split_0
I0817 16:13:05.328681 17318 net.cpp:408] L2_b6_cbr1_conv -> L2_b6_cbr1_conv_top
I0817 16:13:05.329156 17318 net.cpp:150] Setting up L2_b6_cbr1_conv
I0817 16:13:05.329170 17318 net.cpp:157] Top shape: 125 32 16 16 (1024000)
I0817 16:13:05.329176 17318 net.cpp:165] Memory required for data: 1080833500
I0817 16:13:05.329185 17318 layer_factory.hpp:77] Creating layer L2_b6_cbr1_bn
I0817 16:13:05.329197 17318 net.cpp:100] Creating Layer L2_b6_cbr1_bn
I0817 16:13:05.329203 17318 net.cpp:434] L2_b6_cbr1_bn <- L2_b6_cbr1_conv_top
I0817 16:13:05.329211 17318 net.cpp:408] L2_b6_cbr1_bn -> L2_b6_cbr1_bn_top
I0817 16:13:05.329461 17318 net.cpp:150] Setting up L2_b6_cbr1_bn
I0817 16:13:05.329474 17318 net.cpp:157] Top shape: 125 32 16 16 (1024000)
I0817 16:13:05.329480 17318 net.cpp:165] Memory required for data: 1084929500
I0817 16:13:05.329490 17318 layer_factory.hpp:77] Creating layer L2_b6_cbr1_scale
I0817 16:13:05.329499 17318 net.cpp:100] Creating Layer L2_b6_cbr1_scale
I0817 16:13:05.329505 17318 net.cpp:434] L2_b6_cbr1_scale <- L2_b6_cbr1_bn_top
I0817 16:13:05.329515 17318 net.cpp:395] L2_b6_cbr1_scale -> L2_b6_cbr1_bn_top (in-place)
I0817 16:13:05.329571 17318 layer_factory.hpp:77] Creating layer L2_b6_cbr1_scale
I0817 16:13:05.329715 17318 net.cpp:150] Setting up L2_b6_cbr1_scale
I0817 16:13:05.329727 17318 net.cpp:157] Top shape: 125 32 16 16 (1024000)
I0817 16:13:05.329732 17318 net.cpp:165] Memory required for data: 1089025500
I0817 16:13:05.329741 17318 layer_factory.hpp:77] Creating layer L2_b6_cbr1_relu
I0817 16:13:05.329749 17318 net.cpp:100] Creating Layer L2_b6_cbr1_relu
I0817 16:13:05.329756 17318 net.cpp:434] L2_b6_cbr1_relu <- L2_b6_cbr1_bn_top
I0817 16:13:05.329762 17318 net.cpp:395] L2_b6_cbr1_relu -> L2_b6_cbr1_bn_top (in-place)
I0817 16:13:05.329771 17318 net.cpp:150] Setting up L2_b6_cbr1_relu
I0817 16:13:05.329778 17318 net.cpp:157] Top shape: 125 32 16 16 (1024000)
I0817 16:13:05.329783 17318 net.cpp:165] Memory required for data: 1093121500
I0817 16:13:05.329788 17318 layer_factory.hpp:77] Creating layer L2_b6_cbr2_conv
I0817 16:13:05.329802 17318 net.cpp:100] Creating Layer L2_b6_cbr2_conv
I0817 16:13:05.329808 17318 net.cpp:434] L2_b6_cbr2_conv <- L2_b6_cbr1_bn_top
I0817 16:13:05.329819 17318 net.cpp:408] L2_b6_cbr2_conv -> L2_b6_cbr2_conv_top
I0817 16:13:05.330283 17318 net.cpp:150] Setting up L2_b6_cbr2_conv
I0817 16:13:05.330304 17318 net.cpp:157] Top shape: 125 32 16 16 (1024000)
I0817 16:13:05.330309 17318 net.cpp:165] Memory required for data: 1097217500
I0817 16:13:05.330318 17318 layer_factory.hpp:77] Creating layer L2_b6_cbr2_bn
I0817 16:13:05.330332 17318 net.cpp:100] Creating Layer L2_b6_cbr2_bn
I0817 16:13:05.330338 17318 net.cpp:434] L2_b6_cbr2_bn <- L2_b6_cbr2_conv_top
I0817 16:13:05.330348 17318 net.cpp:408] L2_b6_cbr2_bn -> L2_b6_cbr2_bn_top
I0817 16:13:05.330590 17318 net.cpp:150] Setting up L2_b6_cbr2_bn
I0817 16:13:05.330602 17318 net.cpp:157] Top shape: 125 32 16 16 (1024000)
I0817 16:13:05.330607 17318 net.cpp:165] Memory required for data: 1101313500
I0817 16:13:05.330617 17318 layer_factory.hpp:77] Creating layer L2_b6_cbr2_scale
I0817 16:13:05.330626 17318 net.cpp:100] Creating Layer L2_b6_cbr2_scale
I0817 16:13:05.330631 17318 net.cpp:434] L2_b6_cbr2_scale <- L2_b6_cbr2_bn_top
I0817 16:13:05.330638 17318 net.cpp:395] L2_b6_cbr2_scale -> L2_b6_cbr2_bn_top (in-place)
I0817 16:13:05.330694 17318 layer_factory.hpp:77] Creating layer L2_b6_cbr2_scale
I0817 16:13:05.330849 17318 net.cpp:150] Setting up L2_b6_cbr2_scale
I0817 16:13:05.330866 17318 net.cpp:157] Top shape: 125 32 16 16 (1024000)
I0817 16:13:05.330871 17318 net.cpp:165] Memory required for data: 1105409500
I0817 16:13:05.330881 17318 layer_factory.hpp:77] Creating layer L2_b6_sum_eltwise
I0817 16:13:05.330890 17318 net.cpp:100] Creating Layer L2_b6_sum_eltwise
I0817 16:13:05.330896 17318 net.cpp:434] L2_b6_sum_eltwise <- L2_b6_cbr2_bn_top
I0817 16:13:05.330904 17318 net.cpp:434] L2_b6_sum_eltwise <- L2_b5_sum_eltwise_top_L2_b5_relu_0_split_1
I0817 16:13:05.330910 17318 net.cpp:408] L2_b6_sum_eltwise -> L2_b6_sum_eltwise_top
I0817 16:13:05.330941 17318 net.cpp:150] Setting up L2_b6_sum_eltwise
I0817 16:13:05.330951 17318 net.cpp:157] Top shape: 125 32 16 16 (1024000)
I0817 16:13:05.330956 17318 net.cpp:165] Memory required for data: 1109505500
I0817 16:13:05.330961 17318 layer_factory.hpp:77] Creating layer L2_b6_relu
I0817 16:13:05.330970 17318 net.cpp:100] Creating Layer L2_b6_relu
I0817 16:13:05.330974 17318 net.cpp:434] L2_b6_relu <- L2_b6_sum_eltwise_top
I0817 16:13:05.330984 17318 net.cpp:395] L2_b6_relu -> L2_b6_sum_eltwise_top (in-place)
I0817 16:13:05.330994 17318 net.cpp:150] Setting up L2_b6_relu
I0817 16:13:05.331001 17318 net.cpp:157] Top shape: 125 32 16 16 (1024000)
I0817 16:13:05.331006 17318 net.cpp:165] Memory required for data: 1113601500
I0817 16:13:05.331010 17318 layer_factory.hpp:77] Creating layer L2_b6_sum_eltwise_top_L2_b6_relu_0_split
I0817 16:13:05.331017 17318 net.cpp:100] Creating Layer L2_b6_sum_eltwise_top_L2_b6_relu_0_split
I0817 16:13:05.331023 17318 net.cpp:434] L2_b6_sum_eltwise_top_L2_b6_relu_0_split <- L2_b6_sum_eltwise_top
I0817 16:13:05.331033 17318 net.cpp:408] L2_b6_sum_eltwise_top_L2_b6_relu_0_split -> L2_b6_sum_eltwise_top_L2_b6_relu_0_split_0
I0817 16:13:05.331043 17318 net.cpp:408] L2_b6_sum_eltwise_top_L2_b6_relu_0_split -> L2_b6_sum_eltwise_top_L2_b6_relu_0_split_1
I0817 16:13:05.331086 17318 net.cpp:150] Setting up L2_b6_sum_eltwise_top_L2_b6_relu_0_split
I0817 16:13:05.331097 17318 net.cpp:157] Top shape: 125 32 16 16 (1024000)
I0817 16:13:05.331104 17318 net.cpp:157] Top shape: 125 32 16 16 (1024000)
I0817 16:13:05.331110 17318 net.cpp:165] Memory required for data: 1121793500
I0817 16:13:05.331115 17318 layer_factory.hpp:77] Creating layer L2_b7_cbr1_conv
I0817 16:13:05.331130 17318 net.cpp:100] Creating Layer L2_b7_cbr1_conv
I0817 16:13:05.331135 17318 net.cpp:434] L2_b7_cbr1_conv <- L2_b6_sum_eltwise_top_L2_b6_relu_0_split_0
I0817 16:13:05.331145 17318 net.cpp:408] L2_b7_cbr1_conv -> L2_b7_cbr1_conv_top
I0817 16:13:05.331606 17318 net.cpp:150] Setting up L2_b7_cbr1_conv
I0817 16:13:05.331620 17318 net.cpp:157] Top shape: 125 32 16 16 (1024000)
I0817 16:13:05.331625 17318 net.cpp:165] Memory required for data: 1125889500
I0817 16:13:05.331635 17318 layer_factory.hpp:77] Creating layer L2_b7_cbr1_bn
I0817 16:13:05.331648 17318 net.cpp:100] Creating Layer L2_b7_cbr1_bn
I0817 16:13:05.331661 17318 net.cpp:434] L2_b7_cbr1_bn <- L2_b7_cbr1_conv_top
I0817 16:13:05.331670 17318 net.cpp:408] L2_b7_cbr1_bn -> L2_b7_cbr1_bn_top
I0817 16:13:05.331925 17318 net.cpp:150] Setting up L2_b7_cbr1_bn
I0817 16:13:05.331939 17318 net.cpp:157] Top shape: 125 32 16 16 (1024000)
I0817 16:13:05.331944 17318 net.cpp:165] Memory required for data: 1129985500
I0817 16:13:05.331954 17318 layer_factory.hpp:77] Creating layer L2_b7_cbr1_scale
I0817 16:13:05.331964 17318 net.cpp:100] Creating Layer L2_b7_cbr1_scale
I0817 16:13:05.331969 17318 net.cpp:434] L2_b7_cbr1_scale <- L2_b7_cbr1_bn_top
I0817 16:13:05.331977 17318 net.cpp:395] L2_b7_cbr1_scale -> L2_b7_cbr1_bn_top (in-place)
I0817 16:13:05.332034 17318 layer_factory.hpp:77] Creating layer L2_b7_cbr1_scale
I0817 16:13:05.332178 17318 net.cpp:150] Setting up L2_b7_cbr1_scale
I0817 16:13:05.332193 17318 net.cpp:157] Top shape: 125 32 16 16 (1024000)
I0817 16:13:05.332200 17318 net.cpp:165] Memory required for data: 1134081500
I0817 16:13:05.332208 17318 layer_factory.hpp:77] Creating layer L2_b7_cbr1_relu
I0817 16:13:05.332216 17318 net.cpp:100] Creating Layer L2_b7_cbr1_relu
I0817 16:13:05.332221 17318 net.cpp:434] L2_b7_cbr1_relu <- L2_b7_cbr1_bn_top
I0817 16:13:05.332228 17318 net.cpp:395] L2_b7_cbr1_relu -> L2_b7_cbr1_bn_top (in-place)
I0817 16:13:05.332238 17318 net.cpp:150] Setting up L2_b7_cbr1_relu
I0817 16:13:05.332245 17318 net.cpp:157] Top shape: 125 32 16 16 (1024000)
I0817 16:13:05.332250 17318 net.cpp:165] Memory required for data: 1138177500
I0817 16:13:05.332255 17318 layer_factory.hpp:77] Creating layer L2_b7_cbr2_conv
I0817 16:13:05.332269 17318 net.cpp:100] Creating Layer L2_b7_cbr2_conv
I0817 16:13:05.332276 17318 net.cpp:434] L2_b7_cbr2_conv <- L2_b7_cbr1_bn_top
I0817 16:13:05.332288 17318 net.cpp:408] L2_b7_cbr2_conv -> L2_b7_cbr2_conv_top
I0817 16:13:05.332751 17318 net.cpp:150] Setting up L2_b7_cbr2_conv
I0817 16:13:05.332765 17318 net.cpp:157] Top shape: 125 32 16 16 (1024000)
I0817 16:13:05.332772 17318 net.cpp:165] Memory required for data: 1142273500
I0817 16:13:05.332779 17318 layer_factory.hpp:77] Creating layer L2_b7_cbr2_bn
I0817 16:13:05.332792 17318 net.cpp:100] Creating Layer L2_b7_cbr2_bn
I0817 16:13:05.332798 17318 net.cpp:434] L2_b7_cbr2_bn <- L2_b7_cbr2_conv_top
I0817 16:13:05.332809 17318 net.cpp:408] L2_b7_cbr2_bn -> L2_b7_cbr2_bn_top
I0817 16:13:05.333067 17318 net.cpp:150] Setting up L2_b7_cbr2_bn
I0817 16:13:05.333081 17318 net.cpp:157] Top shape: 125 32 16 16 (1024000)
I0817 16:13:05.333086 17318 net.cpp:165] Memory required for data: 1146369500
I0817 16:13:05.333097 17318 layer_factory.hpp:77] Creating layer L2_b7_cbr2_scale
I0817 16:13:05.333106 17318 net.cpp:100] Creating Layer L2_b7_cbr2_scale
I0817 16:13:05.333112 17318 net.cpp:434] L2_b7_cbr2_scale <- L2_b7_cbr2_bn_top
I0817 16:13:05.333119 17318 net.cpp:395] L2_b7_cbr2_scale -> L2_b7_cbr2_bn_top (in-place)
I0817 16:13:05.333176 17318 layer_factory.hpp:77] Creating layer L2_b7_cbr2_scale
I0817 16:13:05.333323 17318 net.cpp:150] Setting up L2_b7_cbr2_scale
I0817 16:13:05.333335 17318 net.cpp:157] Top shape: 125 32 16 16 (1024000)
I0817 16:13:05.333340 17318 net.cpp:165] Memory required for data: 1150465500
I0817 16:13:05.333349 17318 layer_factory.hpp:77] Creating layer L2_b7_sum_eltwise
I0817 16:13:05.333361 17318 net.cpp:100] Creating Layer L2_b7_sum_eltwise
I0817 16:13:05.333367 17318 net.cpp:434] L2_b7_sum_eltwise <- L2_b7_cbr2_bn_top
I0817 16:13:05.333374 17318 net.cpp:434] L2_b7_sum_eltwise <- L2_b6_sum_eltwise_top_L2_b6_relu_0_split_1
I0817 16:13:05.333382 17318 net.cpp:408] L2_b7_sum_eltwise -> L2_b7_sum_eltwise_top
I0817 16:13:05.333410 17318 net.cpp:150] Setting up L2_b7_sum_eltwise
I0817 16:13:05.333418 17318 net.cpp:157] Top shape: 125 32 16 16 (1024000)
I0817 16:13:05.333423 17318 net.cpp:165] Memory required for data: 1154561500
I0817 16:13:05.333428 17318 layer_factory.hpp:77] Creating layer L2_b7_relu
I0817 16:13:05.333439 17318 net.cpp:100] Creating Layer L2_b7_relu
I0817 16:13:05.333446 17318 net.cpp:434] L2_b7_relu <- L2_b7_sum_eltwise_top
I0817 16:13:05.333458 17318 net.cpp:395] L2_b7_relu -> L2_b7_sum_eltwise_top (in-place)
I0817 16:13:05.333468 17318 net.cpp:150] Setting up L2_b7_relu
I0817 16:13:05.333475 17318 net.cpp:157] Top shape: 125 32 16 16 (1024000)
I0817 16:13:05.333480 17318 net.cpp:165] Memory required for data: 1158657500
I0817 16:13:05.333485 17318 layer_factory.hpp:77] Creating layer L2_b7_sum_eltwise_top_L2_b7_relu_0_split
I0817 16:13:05.333492 17318 net.cpp:100] Creating Layer L2_b7_sum_eltwise_top_L2_b7_relu_0_split
I0817 16:13:05.333498 17318 net.cpp:434] L2_b7_sum_eltwise_top_L2_b7_relu_0_split <- L2_b7_sum_eltwise_top
I0817 16:13:05.333504 17318 net.cpp:408] L2_b7_sum_eltwise_top_L2_b7_relu_0_split -> L2_b7_sum_eltwise_top_L2_b7_relu_0_split_0
I0817 16:13:05.333514 17318 net.cpp:408] L2_b7_sum_eltwise_top_L2_b7_relu_0_split -> L2_b7_sum_eltwise_top_L2_b7_relu_0_split_1
I0817 16:13:05.333561 17318 net.cpp:150] Setting up L2_b7_sum_eltwise_top_L2_b7_relu_0_split
I0817 16:13:05.333573 17318 net.cpp:157] Top shape: 125 32 16 16 (1024000)
I0817 16:13:05.333580 17318 net.cpp:157] Top shape: 125 32 16 16 (1024000)
I0817 16:13:05.333585 17318 net.cpp:165] Memory required for data: 1166849500
I0817 16:13:05.333590 17318 layer_factory.hpp:77] Creating layer L2_b8_cbr1_conv
I0817 16:13:05.333603 17318 net.cpp:100] Creating Layer L2_b8_cbr1_conv
I0817 16:13:05.333611 17318 net.cpp:434] L2_b8_cbr1_conv <- L2_b7_sum_eltwise_top_L2_b7_relu_0_split_0
I0817 16:13:05.333619 17318 net.cpp:408] L2_b8_cbr1_conv -> L2_b8_cbr1_conv_top
I0817 16:13:05.334098 17318 net.cpp:150] Setting up L2_b8_cbr1_conv
I0817 16:13:05.334112 17318 net.cpp:157] Top shape: 125 32 16 16 (1024000)
I0817 16:13:05.334118 17318 net.cpp:165] Memory required for data: 1170945500
I0817 16:13:05.334127 17318 layer_factory.hpp:77] Creating layer L2_b8_cbr1_bn
I0817 16:13:05.334139 17318 net.cpp:100] Creating Layer L2_b8_cbr1_bn
I0817 16:13:05.334146 17318 net.cpp:434] L2_b8_cbr1_bn <- L2_b8_cbr1_conv_top
I0817 16:13:05.334156 17318 net.cpp:408] L2_b8_cbr1_bn -> L2_b8_cbr1_bn_top
I0817 16:13:05.334409 17318 net.cpp:150] Setting up L2_b8_cbr1_bn
I0817 16:13:05.334422 17318 net.cpp:157] Top shape: 125 32 16 16 (1024000)
I0817 16:13:05.334429 17318 net.cpp:165] Memory required for data: 1175041500
I0817 16:13:05.334439 17318 layer_factory.hpp:77] Creating layer L2_b8_cbr1_scale
I0817 16:13:05.334446 17318 net.cpp:100] Creating Layer L2_b8_cbr1_scale
I0817 16:13:05.334452 17318 net.cpp:434] L2_b8_cbr1_scale <- L2_b8_cbr1_bn_top
I0817 16:13:05.334460 17318 net.cpp:395] L2_b8_cbr1_scale -> L2_b8_cbr1_bn_top (in-place)
I0817 16:13:05.334517 17318 layer_factory.hpp:77] Creating layer L2_b8_cbr1_scale
I0817 16:13:05.334666 17318 net.cpp:150] Setting up L2_b8_cbr1_scale
I0817 16:13:05.334681 17318 net.cpp:157] Top shape: 125 32 16 16 (1024000)
I0817 16:13:05.334687 17318 net.cpp:165] Memory required for data: 1179137500
I0817 16:13:05.334697 17318 layer_factory.hpp:77] Creating layer L2_b8_cbr1_relu
I0817 16:13:05.334704 17318 net.cpp:100] Creating Layer L2_b8_cbr1_relu
I0817 16:13:05.334710 17318 net.cpp:434] L2_b8_cbr1_relu <- L2_b8_cbr1_bn_top
I0817 16:13:05.334717 17318 net.cpp:395] L2_b8_cbr1_relu -> L2_b8_cbr1_bn_top (in-place)
I0817 16:13:05.334727 17318 net.cpp:150] Setting up L2_b8_cbr1_relu
I0817 16:13:05.334733 17318 net.cpp:157] Top shape: 125 32 16 16 (1024000)
I0817 16:13:05.334738 17318 net.cpp:165] Memory required for data: 1183233500
I0817 16:13:05.334743 17318 layer_factory.hpp:77] Creating layer L2_b8_cbr2_conv
I0817 16:13:05.334756 17318 net.cpp:100] Creating Layer L2_b8_cbr2_conv
I0817 16:13:05.334764 17318 net.cpp:434] L2_b8_cbr2_conv <- L2_b8_cbr1_bn_top
I0817 16:13:05.334774 17318 net.cpp:408] L2_b8_cbr2_conv -> L2_b8_cbr2_conv_top
I0817 16:13:05.335247 17318 net.cpp:150] Setting up L2_b8_cbr2_conv
I0817 16:13:05.335261 17318 net.cpp:157] Top shape: 125 32 16 16 (1024000)
I0817 16:13:05.335266 17318 net.cpp:165] Memory required for data: 1187329500
I0817 16:13:05.335275 17318 layer_factory.hpp:77] Creating layer L2_b8_cbr2_bn
I0817 16:13:05.335288 17318 net.cpp:100] Creating Layer L2_b8_cbr2_bn
I0817 16:13:05.335302 17318 net.cpp:434] L2_b8_cbr2_bn <- L2_b8_cbr2_conv_top
I0817 16:13:05.335314 17318 net.cpp:408] L2_b8_cbr2_bn -> L2_b8_cbr2_bn_top
I0817 16:13:05.335568 17318 net.cpp:150] Setting up L2_b8_cbr2_bn
I0817 16:13:05.335582 17318 net.cpp:157] Top shape: 125 32 16 16 (1024000)
I0817 16:13:05.335587 17318 net.cpp:165] Memory required for data: 1191425500
I0817 16:13:05.335597 17318 layer_factory.hpp:77] Creating layer L2_b8_cbr2_scale
I0817 16:13:05.335605 17318 net.cpp:100] Creating Layer L2_b8_cbr2_scale
I0817 16:13:05.335613 17318 net.cpp:434] L2_b8_cbr2_scale <- L2_b8_cbr2_bn_top
I0817 16:13:05.335619 17318 net.cpp:395] L2_b8_cbr2_scale -> L2_b8_cbr2_bn_top (in-place)
I0817 16:13:05.335677 17318 layer_factory.hpp:77] Creating layer L2_b8_cbr2_scale
I0817 16:13:05.335826 17318 net.cpp:150] Setting up L2_b8_cbr2_scale
I0817 16:13:05.335839 17318 net.cpp:157] Top shape: 125 32 16 16 (1024000)
I0817 16:13:05.335851 17318 net.cpp:165] Memory required for data: 1195521500
I0817 16:13:05.335860 17318 layer_factory.hpp:77] Creating layer L2_b8_sum_eltwise
I0817 16:13:05.335873 17318 net.cpp:100] Creating Layer L2_b8_sum_eltwise
I0817 16:13:05.335880 17318 net.cpp:434] L2_b8_sum_eltwise <- L2_b8_cbr2_bn_top
I0817 16:13:05.335887 17318 net.cpp:434] L2_b8_sum_eltwise <- L2_b7_sum_eltwise_top_L2_b7_relu_0_split_1
I0817 16:13:05.335894 17318 net.cpp:408] L2_b8_sum_eltwise -> L2_b8_sum_eltwise_top
I0817 16:13:05.335922 17318 net.cpp:150] Setting up L2_b8_sum_eltwise
I0817 16:13:05.335932 17318 net.cpp:157] Top shape: 125 32 16 16 (1024000)
I0817 16:13:05.335937 17318 net.cpp:165] Memory required for data: 1199617500
I0817 16:13:05.335942 17318 layer_factory.hpp:77] Creating layer L2_b8_relu
I0817 16:13:05.335952 17318 net.cpp:100] Creating Layer L2_b8_relu
I0817 16:13:05.335958 17318 net.cpp:434] L2_b8_relu <- L2_b8_sum_eltwise_top
I0817 16:13:05.335965 17318 net.cpp:395] L2_b8_relu -> L2_b8_sum_eltwise_top (in-place)
I0817 16:13:05.335975 17318 net.cpp:150] Setting up L2_b8_relu
I0817 16:13:05.335983 17318 net.cpp:157] Top shape: 125 32 16 16 (1024000)
I0817 16:13:05.335986 17318 net.cpp:165] Memory required for data: 1203713500
I0817 16:13:05.335991 17318 layer_factory.hpp:77] Creating layer L2_b8_sum_eltwise_top_L2_b8_relu_0_split
I0817 16:13:05.335999 17318 net.cpp:100] Creating Layer L2_b8_sum_eltwise_top_L2_b8_relu_0_split
I0817 16:13:05.336004 17318 net.cpp:434] L2_b8_sum_eltwise_top_L2_b8_relu_0_split <- L2_b8_sum_eltwise_top
I0817 16:13:05.336010 17318 net.cpp:408] L2_b8_sum_eltwise_top_L2_b8_relu_0_split -> L2_b8_sum_eltwise_top_L2_b8_relu_0_split_0
I0817 16:13:05.336032 17318 net.cpp:408] L2_b8_sum_eltwise_top_L2_b8_relu_0_split -> L2_b8_sum_eltwise_top_L2_b8_relu_0_split_1
I0817 16:13:05.336082 17318 net.cpp:150] Setting up L2_b8_sum_eltwise_top_L2_b8_relu_0_split
I0817 16:13:05.336096 17318 net.cpp:157] Top shape: 125 32 16 16 (1024000)
I0817 16:13:05.336102 17318 net.cpp:157] Top shape: 125 32 16 16 (1024000)
I0817 16:13:05.336107 17318 net.cpp:165] Memory required for data: 1211905500
I0817 16:13:05.336112 17318 layer_factory.hpp:77] Creating layer L2_b9_cbr1_conv
I0817 16:13:05.336127 17318 net.cpp:100] Creating Layer L2_b9_cbr1_conv
I0817 16:13:05.336133 17318 net.cpp:434] L2_b9_cbr1_conv <- L2_b8_sum_eltwise_top_L2_b8_relu_0_split_0
I0817 16:13:05.336146 17318 net.cpp:408] L2_b9_cbr1_conv -> L2_b9_cbr1_conv_top
I0817 16:13:05.336618 17318 net.cpp:150] Setting up L2_b9_cbr1_conv
I0817 16:13:05.336632 17318 net.cpp:157] Top shape: 125 32 16 16 (1024000)
I0817 16:13:05.336637 17318 net.cpp:165] Memory required for data: 1216001500
I0817 16:13:05.336647 17318 layer_factory.hpp:77] Creating layer L2_b9_cbr1_bn
I0817 16:13:05.336658 17318 net.cpp:100] Creating Layer L2_b9_cbr1_bn
I0817 16:13:05.336665 17318 net.cpp:434] L2_b9_cbr1_bn <- L2_b9_cbr1_conv_top
I0817 16:13:05.336676 17318 net.cpp:408] L2_b9_cbr1_bn -> L2_b9_cbr1_bn_top
I0817 16:13:05.336930 17318 net.cpp:150] Setting up L2_b9_cbr1_bn
I0817 16:13:05.336947 17318 net.cpp:157] Top shape: 125 32 16 16 (1024000)
I0817 16:13:05.336952 17318 net.cpp:165] Memory required for data: 1220097500
I0817 16:13:05.336971 17318 layer_factory.hpp:77] Creating layer L2_b9_cbr1_scale
I0817 16:13:05.336979 17318 net.cpp:100] Creating Layer L2_b9_cbr1_scale
I0817 16:13:05.336985 17318 net.cpp:434] L2_b9_cbr1_scale <- L2_b9_cbr1_bn_top
I0817 16:13:05.336993 17318 net.cpp:395] L2_b9_cbr1_scale -> L2_b9_cbr1_bn_top (in-place)
I0817 16:13:05.337054 17318 layer_factory.hpp:77] Creating layer L2_b9_cbr1_scale
I0817 16:13:05.337203 17318 net.cpp:150] Setting up L2_b9_cbr1_scale
I0817 16:13:05.337215 17318 net.cpp:157] Top shape: 125 32 16 16 (1024000)
I0817 16:13:05.337220 17318 net.cpp:165] Memory required for data: 1224193500
I0817 16:13:05.337229 17318 layer_factory.hpp:77] Creating layer L2_b9_cbr1_relu
I0817 16:13:05.337237 17318 net.cpp:100] Creating Layer L2_b9_cbr1_relu
I0817 16:13:05.337244 17318 net.cpp:434] L2_b9_cbr1_relu <- L2_b9_cbr1_bn_top
I0817 16:13:05.337254 17318 net.cpp:395] L2_b9_cbr1_relu -> L2_b9_cbr1_bn_top (in-place)
I0817 16:13:05.337263 17318 net.cpp:150] Setting up L2_b9_cbr1_relu
I0817 16:13:05.337271 17318 net.cpp:157] Top shape: 125 32 16 16 (1024000)
I0817 16:13:05.337275 17318 net.cpp:165] Memory required for data: 1228289500
I0817 16:13:05.337280 17318 layer_factory.hpp:77] Creating layer L2_b9_cbr2_conv
I0817 16:13:05.337294 17318 net.cpp:100] Creating Layer L2_b9_cbr2_conv
I0817 16:13:05.337301 17318 net.cpp:434] L2_b9_cbr2_conv <- L2_b9_cbr1_bn_top
I0817 16:13:05.337309 17318 net.cpp:408] L2_b9_cbr2_conv -> L2_b9_cbr2_conv_top
I0817 16:13:05.337772 17318 net.cpp:150] Setting up L2_b9_cbr2_conv
I0817 16:13:05.337786 17318 net.cpp:157] Top shape: 125 32 16 16 (1024000)
I0817 16:13:05.337791 17318 net.cpp:165] Memory required for data: 1232385500
I0817 16:13:05.337800 17318 layer_factory.hpp:77] Creating layer L2_b9_cbr2_bn
I0817 16:13:05.337812 17318 net.cpp:100] Creating Layer L2_b9_cbr2_bn
I0817 16:13:05.337819 17318 net.cpp:434] L2_b9_cbr2_bn <- L2_b9_cbr2_conv_top
I0817 16:13:05.337827 17318 net.cpp:408] L2_b9_cbr2_bn -> L2_b9_cbr2_bn_top
I0817 16:13:05.338085 17318 net.cpp:150] Setting up L2_b9_cbr2_bn
I0817 16:13:05.338102 17318 net.cpp:157] Top shape: 125 32 16 16 (1024000)
I0817 16:13:05.338107 17318 net.cpp:165] Memory required for data: 1236481500
I0817 16:13:05.338150 17318 layer_factory.hpp:77] Creating layer L2_b9_cbr2_scale
I0817 16:13:05.338165 17318 net.cpp:100] Creating Layer L2_b9_cbr2_scale
I0817 16:13:05.338171 17318 net.cpp:434] L2_b9_cbr2_scale <- L2_b9_cbr2_bn_top
I0817 16:13:05.338178 17318 net.cpp:395] L2_b9_cbr2_scale -> L2_b9_cbr2_bn_top (in-place)
I0817 16:13:05.338233 17318 layer_factory.hpp:77] Creating layer L2_b9_cbr2_scale
I0817 16:13:05.338378 17318 net.cpp:150] Setting up L2_b9_cbr2_scale
I0817 16:13:05.338392 17318 net.cpp:157] Top shape: 125 32 16 16 (1024000)
I0817 16:13:05.338397 17318 net.cpp:165] Memory required for data: 1240577500
I0817 16:13:05.338404 17318 layer_factory.hpp:77] Creating layer L2_b9_sum_eltwise
I0817 16:13:05.338414 17318 net.cpp:100] Creating Layer L2_b9_sum_eltwise
I0817 16:13:05.338420 17318 net.cpp:434] L2_b9_sum_eltwise <- L2_b9_cbr2_bn_top
I0817 16:13:05.338428 17318 net.cpp:434] L2_b9_sum_eltwise <- L2_b8_sum_eltwise_top_L2_b8_relu_0_split_1
I0817 16:13:05.338439 17318 net.cpp:408] L2_b9_sum_eltwise -> L2_b9_sum_eltwise_top
I0817 16:13:05.338466 17318 net.cpp:150] Setting up L2_b9_sum_eltwise
I0817 16:13:05.338475 17318 net.cpp:157] Top shape: 125 32 16 16 (1024000)
I0817 16:13:05.338480 17318 net.cpp:165] Memory required for data: 1244673500
I0817 16:13:05.338485 17318 layer_factory.hpp:77] Creating layer L2_b9_relu
I0817 16:13:05.338496 17318 net.cpp:100] Creating Layer L2_b9_relu
I0817 16:13:05.338502 17318 net.cpp:434] L2_b9_relu <- L2_b9_sum_eltwise_top
I0817 16:13:05.338510 17318 net.cpp:395] L2_b9_relu -> L2_b9_sum_eltwise_top (in-place)
I0817 16:13:05.338520 17318 net.cpp:150] Setting up L2_b9_relu
I0817 16:13:05.338526 17318 net.cpp:157] Top shape: 125 32 16 16 (1024000)
I0817 16:13:05.338531 17318 net.cpp:165] Memory required for data: 1248769500
I0817 16:13:05.338542 17318 layer_factory.hpp:77] Creating layer L2_b9_sum_eltwise_top_L2_b9_relu_0_split
I0817 16:13:05.338552 17318 net.cpp:100] Creating Layer L2_b9_sum_eltwise_top_L2_b9_relu_0_split
I0817 16:13:05.338558 17318 net.cpp:434] L2_b9_sum_eltwise_top_L2_b9_relu_0_split <- L2_b9_sum_eltwise_top
I0817 16:13:05.338567 17318 net.cpp:408] L2_b9_sum_eltwise_top_L2_b9_relu_0_split -> L2_b9_sum_eltwise_top_L2_b9_relu_0_split_0
I0817 16:13:05.338575 17318 net.cpp:408] L2_b9_sum_eltwise_top_L2_b9_relu_0_split -> L2_b9_sum_eltwise_top_L2_b9_relu_0_split_1
I0817 16:13:05.338624 17318 net.cpp:150] Setting up L2_b9_sum_eltwise_top_L2_b9_relu_0_split
I0817 16:13:05.338639 17318 net.cpp:157] Top shape: 125 32 16 16 (1024000)
I0817 16:13:05.338645 17318 net.cpp:157] Top shape: 125 32 16 16 (1024000)
I0817 16:13:05.338650 17318 net.cpp:165] Memory required for data: 1256961500
I0817 16:13:05.338655 17318 layer_factory.hpp:77] Creating layer L3_b1_cbr1_conv
I0817 16:13:05.338667 17318 net.cpp:100] Creating Layer L3_b1_cbr1_conv
I0817 16:13:05.338673 17318 net.cpp:434] L3_b1_cbr1_conv <- L2_b9_sum_eltwise_top_L2_b9_relu_0_split_0
I0817 16:13:05.338682 17318 net.cpp:408] L3_b1_cbr1_conv -> L3_b1_cbr1_conv_top
I0817 16:13:05.339160 17318 net.cpp:150] Setting up L3_b1_cbr1_conv
I0817 16:13:05.339175 17318 net.cpp:157] Top shape: 125 32 8 8 (256000)
I0817 16:13:05.339180 17318 net.cpp:165] Memory required for data: 1257985500
I0817 16:13:05.339190 17318 layer_factory.hpp:77] Creating layer L3_b1_cbr1_bn
I0817 16:13:05.339201 17318 net.cpp:100] Creating Layer L3_b1_cbr1_bn
I0817 16:13:05.339208 17318 net.cpp:434] L3_b1_cbr1_bn <- L3_b1_cbr1_conv_top
I0817 16:13:05.339216 17318 net.cpp:408] L3_b1_cbr1_bn -> L3_b1_cbr1_bn_top
I0817 16:13:05.339478 17318 net.cpp:150] Setting up L3_b1_cbr1_bn
I0817 16:13:05.339491 17318 net.cpp:157] Top shape: 125 32 8 8 (256000)
I0817 16:13:05.339496 17318 net.cpp:165] Memory required for data: 1259009500
I0817 16:13:05.339506 17318 layer_factory.hpp:77] Creating layer L3_b1_cbr1_scale
I0817 16:13:05.339519 17318 net.cpp:100] Creating Layer L3_b1_cbr1_scale
I0817 16:13:05.339525 17318 net.cpp:434] L3_b1_cbr1_scale <- L3_b1_cbr1_bn_top
I0817 16:13:05.339534 17318 net.cpp:395] L3_b1_cbr1_scale -> L3_b1_cbr1_bn_top (in-place)
I0817 16:13:05.339591 17318 layer_factory.hpp:77] Creating layer L3_b1_cbr1_scale
I0817 16:13:05.339745 17318 net.cpp:150] Setting up L3_b1_cbr1_scale
I0817 16:13:05.339757 17318 net.cpp:157] Top shape: 125 32 8 8 (256000)
I0817 16:13:05.339762 17318 net.cpp:165] Memory required for data: 1260033500
I0817 16:13:05.339771 17318 layer_factory.hpp:77] Creating layer L3_b1_cbr1_relu
I0817 16:13:05.339779 17318 net.cpp:100] Creating Layer L3_b1_cbr1_relu
I0817 16:13:05.339787 17318 net.cpp:434] L3_b1_cbr1_relu <- L3_b1_cbr1_bn_top
I0817 16:13:05.339797 17318 net.cpp:395] L3_b1_cbr1_relu -> L3_b1_cbr1_bn_top (in-place)
I0817 16:13:05.339807 17318 net.cpp:150] Setting up L3_b1_cbr1_relu
I0817 16:13:05.339813 17318 net.cpp:157] Top shape: 125 32 8 8 (256000)
I0817 16:13:05.339818 17318 net.cpp:165] Memory required for data: 1261057500
I0817 16:13:05.339823 17318 layer_factory.hpp:77] Creating layer L3_b1_cbr2_conv
I0817 16:13:05.339833 17318 net.cpp:100] Creating Layer L3_b1_cbr2_conv
I0817 16:13:05.339839 17318 net.cpp:434] L3_b1_cbr2_conv <- L3_b1_cbr1_bn_top
I0817 16:13:05.339857 17318 net.cpp:408] L3_b1_cbr2_conv -> L3_b1_cbr2_conv_top
I0817 16:13:05.340328 17318 net.cpp:150] Setting up L3_b1_cbr2_conv
I0817 16:13:05.340342 17318 net.cpp:157] Top shape: 125 32 8 8 (256000)
I0817 16:13:05.340348 17318 net.cpp:165] Memory required for data: 1262081500
I0817 16:13:05.340356 17318 layer_factory.hpp:77] Creating layer L3_b1_cbr2_bn
I0817 16:13:05.340368 17318 net.cpp:100] Creating Layer L3_b1_cbr2_bn
I0817 16:13:05.340375 17318 net.cpp:434] L3_b1_cbr2_bn <- L3_b1_cbr2_conv_top
I0817 16:13:05.340384 17318 net.cpp:408] L3_b1_cbr2_bn -> L3_b1_cbr2_bn_top
I0817 16:13:05.340643 17318 net.cpp:150] Setting up L3_b1_cbr2_bn
I0817 16:13:05.340656 17318 net.cpp:157] Top shape: 125 32 8 8 (256000)
I0817 16:13:05.340662 17318 net.cpp:165] Memory required for data: 1263105500
I0817 16:13:05.340678 17318 layer_factory.hpp:77] Creating layer L3_b1_cbr2_scale
I0817 16:13:05.340687 17318 net.cpp:100] Creating Layer L3_b1_cbr2_scale
I0817 16:13:05.340693 17318 net.cpp:434] L3_b1_cbr2_scale <- L3_b1_cbr2_bn_top
I0817 16:13:05.340701 17318 net.cpp:395] L3_b1_cbr2_scale -> L3_b1_cbr2_bn_top (in-place)
I0817 16:13:05.340759 17318 layer_factory.hpp:77] Creating layer L3_b1_cbr2_scale
I0817 16:13:05.340925 17318 net.cpp:150] Setting up L3_b1_cbr2_scale
I0817 16:13:05.340941 17318 net.cpp:157] Top shape: 125 32 8 8 (256000)
I0817 16:13:05.340946 17318 net.cpp:165] Memory required for data: 1264129500
I0817 16:13:05.340956 17318 layer_factory.hpp:77] Creating layer L3_b1_pool
I0817 16:13:05.340965 17318 net.cpp:100] Creating Layer L3_b1_pool
I0817 16:13:05.340972 17318 net.cpp:434] L3_b1_pool <- L2_b9_sum_eltwise_top_L2_b9_relu_0_split_1
I0817 16:13:05.340983 17318 net.cpp:408] L3_b1_pool -> L3_b1_pool
I0817 16:13:05.341018 17318 net.cpp:150] Setting up L3_b1_pool
I0817 16:13:05.341032 17318 net.cpp:157] Top shape: 125 32 8 8 (256000)
I0817 16:13:05.341037 17318 net.cpp:165] Memory required for data: 1265153500
I0817 16:13:05.341042 17318 layer_factory.hpp:77] Creating layer L3_b1_sum_eltwise
I0817 16:13:05.341050 17318 net.cpp:100] Creating Layer L3_b1_sum_eltwise
I0817 16:13:05.341056 17318 net.cpp:434] L3_b1_sum_eltwise <- L3_b1_cbr2_bn_top
I0817 16:13:05.341063 17318 net.cpp:434] L3_b1_sum_eltwise <- L3_b1_pool
I0817 16:13:05.341070 17318 net.cpp:408] L3_b1_sum_eltwise -> L3_b1_sum_eltwise_top
I0817 16:13:05.341105 17318 net.cpp:150] Setting up L3_b1_sum_eltwise
I0817 16:13:05.341117 17318 net.cpp:157] Top shape: 125 32 8 8 (256000)
I0817 16:13:05.341122 17318 net.cpp:165] Memory required for data: 1266177500
I0817 16:13:05.341127 17318 layer_factory.hpp:77] Creating layer L3_b1_relu
I0817 16:13:05.341135 17318 net.cpp:100] Creating Layer L3_b1_relu
I0817 16:13:05.341141 17318 net.cpp:434] L3_b1_relu <- L3_b1_sum_eltwise_top
I0817 16:13:05.341148 17318 net.cpp:395] L3_b1_relu -> L3_b1_sum_eltwise_top (in-place)
I0817 16:13:05.341157 17318 net.cpp:150] Setting up L3_b1_relu
I0817 16:13:05.341164 17318 net.cpp:157] Top shape: 125 32 8 8 (256000)
I0817 16:13:05.341168 17318 net.cpp:165] Memory required for data: 1267201500
I0817 16:13:05.341173 17318 layer_factory.hpp:77] Creating layer L3_b1_zeros
I0817 16:13:05.341182 17318 net.cpp:100] Creating Layer L3_b1_zeros
I0817 16:13:05.341193 17318 net.cpp:408] L3_b1_zeros -> L3_b1_zeros
I0817 16:13:05.342419 17318 net.cpp:150] Setting up L3_b1_zeros
I0817 16:13:05.342442 17318 net.cpp:157] Top shape: 125 32 8 8 (256000)
I0817 16:13:05.342447 17318 net.cpp:165] Memory required for data: 1268225500
I0817 16:13:05.342453 17318 layer_factory.hpp:77] Creating layer L3_b1_concat0
I0817 16:13:05.342463 17318 net.cpp:100] Creating Layer L3_b1_concat0
I0817 16:13:05.342469 17318 net.cpp:434] L3_b1_concat0 <- L3_b1_sum_eltwise_top
I0817 16:13:05.342476 17318 net.cpp:434] L3_b1_concat0 <- L3_b1_zeros
I0817 16:13:05.342484 17318 net.cpp:408] L3_b1_concat0 -> L3_b1_concat0
I0817 16:13:05.342526 17318 net.cpp:150] Setting up L3_b1_concat0
I0817 16:13:05.342538 17318 net.cpp:157] Top shape: 125 64 8 8 (512000)
I0817 16:13:05.342543 17318 net.cpp:165] Memory required for data: 1270273500
I0817 16:13:05.342550 17318 layer_factory.hpp:77] Creating layer L3_b1_concat0_L3_b1_concat0_0_split
I0817 16:13:05.342556 17318 net.cpp:100] Creating Layer L3_b1_concat0_L3_b1_concat0_0_split
I0817 16:13:05.342566 17318 net.cpp:434] L3_b1_concat0_L3_b1_concat0_0_split <- L3_b1_concat0
I0817 16:13:05.342573 17318 net.cpp:408] L3_b1_concat0_L3_b1_concat0_0_split -> L3_b1_concat0_L3_b1_concat0_0_split_0
I0817 16:13:05.342583 17318 net.cpp:408] L3_b1_concat0_L3_b1_concat0_0_split -> L3_b1_concat0_L3_b1_concat0_0_split_1
I0817 16:13:05.342633 17318 net.cpp:150] Setting up L3_b1_concat0_L3_b1_concat0_0_split
I0817 16:13:05.342644 17318 net.cpp:157] Top shape: 125 64 8 8 (512000)
I0817 16:13:05.342651 17318 net.cpp:157] Top shape: 125 64 8 8 (512000)
I0817 16:13:05.342664 17318 net.cpp:165] Memory required for data: 1274369500
I0817 16:13:05.342669 17318 layer_factory.hpp:77] Creating layer L3_b2_cbr1_conv
I0817 16:13:05.342684 17318 net.cpp:100] Creating Layer L3_b2_cbr1_conv
I0817 16:13:05.342690 17318 net.cpp:434] L3_b2_cbr1_conv <- L3_b1_concat0_L3_b1_concat0_0_split_0
I0817 16:13:05.342700 17318 net.cpp:408] L3_b2_cbr1_conv -> L3_b2_cbr1_conv_top
I0817 16:13:05.344681 17318 net.cpp:150] Setting up L3_b2_cbr1_conv
I0817 16:13:05.344702 17318 net.cpp:157] Top shape: 125 64 8 8 (512000)
I0817 16:13:05.344708 17318 net.cpp:165] Memory required for data: 1276417500
I0817 16:13:05.344717 17318 layer_factory.hpp:77] Creating layer L3_b2_cbr1_bn
I0817 16:13:05.344727 17318 net.cpp:100] Creating Layer L3_b2_cbr1_bn
I0817 16:13:05.344734 17318 net.cpp:434] L3_b2_cbr1_bn <- L3_b2_cbr1_conv_top
I0817 16:13:05.344745 17318 net.cpp:408] L3_b2_cbr1_bn -> L3_b2_cbr1_bn_top
I0817 16:13:05.345016 17318 net.cpp:150] Setting up L3_b2_cbr1_bn
I0817 16:13:05.345033 17318 net.cpp:157] Top shape: 125 64 8 8 (512000)
I0817 16:13:05.345038 17318 net.cpp:165] Memory required for data: 1278465500
I0817 16:13:05.345049 17318 layer_factory.hpp:77] Creating layer L3_b2_cbr1_scale
I0817 16:13:05.345058 17318 net.cpp:100] Creating Layer L3_b2_cbr1_scale
I0817 16:13:05.345064 17318 net.cpp:434] L3_b2_cbr1_scale <- L3_b2_cbr1_bn_top
I0817 16:13:05.345072 17318 net.cpp:395] L3_b2_cbr1_scale -> L3_b2_cbr1_bn_top (in-place)
I0817 16:13:05.345129 17318 layer_factory.hpp:77] Creating layer L3_b2_cbr1_scale
I0817 16:13:05.345281 17318 net.cpp:150] Setting up L3_b2_cbr1_scale
I0817 16:13:05.345294 17318 net.cpp:157] Top shape: 125 64 8 8 (512000)
I0817 16:13:05.345299 17318 net.cpp:165] Memory required for data: 1280513500
I0817 16:13:05.345309 17318 layer_factory.hpp:77] Creating layer L3_b2_cbr1_relu
I0817 16:13:05.345316 17318 net.cpp:100] Creating Layer L3_b2_cbr1_relu
I0817 16:13:05.345322 17318 net.cpp:434] L3_b2_cbr1_relu <- L3_b2_cbr1_bn_top
I0817 16:13:05.345332 17318 net.cpp:395] L3_b2_cbr1_relu -> L3_b2_cbr1_bn_top (in-place)
I0817 16:13:05.345343 17318 net.cpp:150] Setting up L3_b2_cbr1_relu
I0817 16:13:05.345350 17318 net.cpp:157] Top shape: 125 64 8 8 (512000)
I0817 16:13:05.345355 17318 net.cpp:165] Memory required for data: 1282561500
I0817 16:13:05.345360 17318 layer_factory.hpp:77] Creating layer L3_b2_cbr2_conv
I0817 16:13:05.345373 17318 net.cpp:100] Creating Layer L3_b2_cbr2_conv
I0817 16:13:05.345379 17318 net.cpp:434] L3_b2_cbr2_conv <- L3_b2_cbr1_bn_top
I0817 16:13:05.345388 17318 net.cpp:408] L3_b2_cbr2_conv -> L3_b2_cbr2_conv_top
I0817 16:13:05.346408 17318 net.cpp:150] Setting up L3_b2_cbr2_conv
I0817 16:13:05.346423 17318 net.cpp:157] Top shape: 125 64 8 8 (512000)
I0817 16:13:05.346428 17318 net.cpp:165] Memory required for data: 1284609500
I0817 16:13:05.346438 17318 layer_factory.hpp:77] Creating layer L3_b2_cbr2_bn
I0817 16:13:05.346451 17318 net.cpp:100] Creating Layer L3_b2_cbr2_bn
I0817 16:13:05.346457 17318 net.cpp:434] L3_b2_cbr2_bn <- L3_b2_cbr2_conv_top
I0817 16:13:05.346468 17318 net.cpp:408] L3_b2_cbr2_bn -> L3_b2_cbr2_bn_top
I0817 16:13:05.346735 17318 net.cpp:150] Setting up L3_b2_cbr2_bn
I0817 16:13:05.346748 17318 net.cpp:157] Top shape: 125 64 8 8 (512000)
I0817 16:13:05.346753 17318 net.cpp:165] Memory required for data: 1286657500
I0817 16:13:05.346763 17318 layer_factory.hpp:77] Creating layer L3_b2_cbr2_scale
I0817 16:13:05.346772 17318 net.cpp:100] Creating Layer L3_b2_cbr2_scale
I0817 16:13:05.346778 17318 net.cpp:434] L3_b2_cbr2_scale <- L3_b2_cbr2_bn_top
I0817 16:13:05.346786 17318 net.cpp:395] L3_b2_cbr2_scale -> L3_b2_cbr2_bn_top (in-place)
I0817 16:13:05.346851 17318 layer_factory.hpp:77] Creating layer L3_b2_cbr2_scale
I0817 16:13:05.347008 17318 net.cpp:150] Setting up L3_b2_cbr2_scale
I0817 16:13:05.347021 17318 net.cpp:157] Top shape: 125 64 8 8 (512000)
I0817 16:13:05.347028 17318 net.cpp:165] Memory required for data: 1288705500
I0817 16:13:05.347036 17318 layer_factory.hpp:77] Creating layer L3_b2_sum_eltwise
I0817 16:13:05.347045 17318 net.cpp:100] Creating Layer L3_b2_sum_eltwise
I0817 16:13:05.347059 17318 net.cpp:434] L3_b2_sum_eltwise <- L3_b2_cbr2_bn_top
I0817 16:13:05.347066 17318 net.cpp:434] L3_b2_sum_eltwise <- L3_b1_concat0_L3_b1_concat0_0_split_1
I0817 16:13:05.347077 17318 net.cpp:408] L3_b2_sum_eltwise -> L3_b2_sum_eltwise_top
I0817 16:13:05.347111 17318 net.cpp:150] Setting up L3_b2_sum_eltwise
I0817 16:13:05.347124 17318 net.cpp:157] Top shape: 125 64 8 8 (512000)
I0817 16:13:05.347129 17318 net.cpp:165] Memory required for data: 1290753500
I0817 16:13:05.347134 17318 layer_factory.hpp:77] Creating layer L3_b2_relu
I0817 16:13:05.347142 17318 net.cpp:100] Creating Layer L3_b2_relu
I0817 16:13:05.347148 17318 net.cpp:434] L3_b2_relu <- L3_b2_sum_eltwise_top
I0817 16:13:05.347156 17318 net.cpp:395] L3_b2_relu -> L3_b2_sum_eltwise_top (in-place)
I0817 16:13:05.347164 17318 net.cpp:150] Setting up L3_b2_relu
I0817 16:13:05.347172 17318 net.cpp:157] Top shape: 125 64 8 8 (512000)
I0817 16:13:05.347175 17318 net.cpp:165] Memory required for data: 1292801500
I0817 16:13:05.347180 17318 layer_factory.hpp:77] Creating layer L3_b2_sum_eltwise_top_L3_b2_relu_0_split
I0817 16:13:05.347190 17318 net.cpp:100] Creating Layer L3_b2_sum_eltwise_top_L3_b2_relu_0_split
I0817 16:13:05.347196 17318 net.cpp:434] L3_b2_sum_eltwise_top_L3_b2_relu_0_split <- L3_b2_sum_eltwise_top
I0817 16:13:05.347203 17318 net.cpp:408] L3_b2_sum_eltwise_top_L3_b2_relu_0_split -> L3_b2_sum_eltwise_top_L3_b2_relu_0_split_0
I0817 16:13:05.347214 17318 net.cpp:408] L3_b2_sum_eltwise_top_L3_b2_relu_0_split -> L3_b2_sum_eltwise_top_L3_b2_relu_0_split_1
I0817 16:13:05.347265 17318 net.cpp:150] Setting up L3_b2_sum_eltwise_top_L3_b2_relu_0_split
I0817 16:13:05.347275 17318 net.cpp:157] Top shape: 125 64 8 8 (512000)
I0817 16:13:05.347282 17318 net.cpp:157] Top shape: 125 64 8 8 (512000)
I0817 16:13:05.347287 17318 net.cpp:165] Memory required for data: 1296897500
I0817 16:13:05.347292 17318 layer_factory.hpp:77] Creating layer L3_b3_cbr1_conv
I0817 16:13:05.347304 17318 net.cpp:100] Creating Layer L3_b3_cbr1_conv
I0817 16:13:05.347311 17318 net.cpp:434] L3_b3_cbr1_conv <- L3_b2_sum_eltwise_top_L3_b2_relu_0_split_0
I0817 16:13:05.347321 17318 net.cpp:408] L3_b3_cbr1_conv -> L3_b3_cbr1_conv_top
I0817 16:13:05.348345 17318 net.cpp:150] Setting up L3_b3_cbr1_conv
I0817 16:13:05.348359 17318 net.cpp:157] Top shape: 125 64 8 8 (512000)
I0817 16:13:05.348364 17318 net.cpp:165] Memory required for data: 1298945500
I0817 16:13:05.348373 17318 layer_factory.hpp:77] Creating layer L3_b3_cbr1_bn
I0817 16:13:05.348383 17318 net.cpp:100] Creating Layer L3_b3_cbr1_bn
I0817 16:13:05.348389 17318 net.cpp:434] L3_b3_cbr1_bn <- L3_b3_cbr1_conv_top
I0817 16:13:05.348400 17318 net.cpp:408] L3_b3_cbr1_bn -> L3_b3_cbr1_bn_top
I0817 16:13:05.348664 17318 net.cpp:150] Setting up L3_b3_cbr1_bn
I0817 16:13:05.348680 17318 net.cpp:157] Top shape: 125 64 8 8 (512000)
I0817 16:13:05.348686 17318 net.cpp:165] Memory required for data: 1300993500
I0817 16:13:05.348696 17318 layer_factory.hpp:77] Creating layer L3_b3_cbr1_scale
I0817 16:13:05.348706 17318 net.cpp:100] Creating Layer L3_b3_cbr1_scale
I0817 16:13:05.348711 17318 net.cpp:434] L3_b3_cbr1_scale <- L3_b3_cbr1_bn_top
I0817 16:13:05.348718 17318 net.cpp:395] L3_b3_cbr1_scale -> L3_b3_cbr1_bn_top (in-place)
I0817 16:13:05.348776 17318 layer_factory.hpp:77] Creating layer L3_b3_cbr1_scale
I0817 16:13:05.348942 17318 net.cpp:150] Setting up L3_b3_cbr1_scale
I0817 16:13:05.348956 17318 net.cpp:157] Top shape: 125 64 8 8 (512000)
I0817 16:13:05.348963 17318 net.cpp:165] Memory required for data: 1303041500
I0817 16:13:05.348971 17318 layer_factory.hpp:77] Creating layer L3_b3_cbr1_relu
I0817 16:13:05.348983 17318 net.cpp:100] Creating Layer L3_b3_cbr1_relu
I0817 16:13:05.348989 17318 net.cpp:434] L3_b3_cbr1_relu <- L3_b3_cbr1_bn_top
I0817 16:13:05.348996 17318 net.cpp:395] L3_b3_cbr1_relu -> L3_b3_cbr1_bn_top (in-place)
I0817 16:13:05.349005 17318 net.cpp:150] Setting up L3_b3_cbr1_relu
I0817 16:13:05.349012 17318 net.cpp:157] Top shape: 125 64 8 8 (512000)
I0817 16:13:05.349025 17318 net.cpp:165] Memory required for data: 1305089500
I0817 16:13:05.349030 17318 layer_factory.hpp:77] Creating layer L3_b3_cbr2_conv
I0817 16:13:05.349043 17318 net.cpp:100] Creating Layer L3_b3_cbr2_conv
I0817 16:13:05.349050 17318 net.cpp:434] L3_b3_cbr2_conv <- L3_b3_cbr1_bn_top
I0817 16:13:05.349058 17318 net.cpp:408] L3_b3_cbr2_conv -> L3_b3_cbr2_conv_top
I0817 16:13:05.350075 17318 net.cpp:150] Setting up L3_b3_cbr2_conv
I0817 16:13:05.350090 17318 net.cpp:157] Top shape: 125 64 8 8 (512000)
I0817 16:13:05.350095 17318 net.cpp:165] Memory required for data: 1307137500
I0817 16:13:05.350105 17318 layer_factory.hpp:77] Creating layer L3_b3_cbr2_bn
I0817 16:13:05.350117 17318 net.cpp:100] Creating Layer L3_b3_cbr2_bn
I0817 16:13:05.350123 17318 net.cpp:434] L3_b3_cbr2_bn <- L3_b3_cbr2_conv_top
I0817 16:13:05.350136 17318 net.cpp:408] L3_b3_cbr2_bn -> L3_b3_cbr2_bn_top
I0817 16:13:05.350404 17318 net.cpp:150] Setting up L3_b3_cbr2_bn
I0817 16:13:05.350416 17318 net.cpp:157] Top shape: 125 64 8 8 (512000)
I0817 16:13:05.350421 17318 net.cpp:165] Memory required for data: 1309185500
I0817 16:13:05.350431 17318 layer_factory.hpp:77] Creating layer L3_b3_cbr2_scale
I0817 16:13:05.350440 17318 net.cpp:100] Creating Layer L3_b3_cbr2_scale
I0817 16:13:05.350446 17318 net.cpp:434] L3_b3_cbr2_scale <- L3_b3_cbr2_bn_top
I0817 16:13:05.350456 17318 net.cpp:395] L3_b3_cbr2_scale -> L3_b3_cbr2_bn_top (in-place)
I0817 16:13:05.350513 17318 layer_factory.hpp:77] Creating layer L3_b3_cbr2_scale
I0817 16:13:05.350672 17318 net.cpp:150] Setting up L3_b3_cbr2_scale
I0817 16:13:05.350684 17318 net.cpp:157] Top shape: 125 64 8 8 (512000)
I0817 16:13:05.350689 17318 net.cpp:165] Memory required for data: 1311233500
I0817 16:13:05.350698 17318 layer_factory.hpp:77] Creating layer L3_b3_sum_eltwise
I0817 16:13:05.350708 17318 net.cpp:100] Creating Layer L3_b3_sum_eltwise
I0817 16:13:05.350713 17318 net.cpp:434] L3_b3_sum_eltwise <- L3_b3_cbr2_bn_top
I0817 16:13:05.350720 17318 net.cpp:434] L3_b3_sum_eltwise <- L3_b2_sum_eltwise_top_L3_b2_relu_0_split_1
I0817 16:13:05.350733 17318 net.cpp:408] L3_b3_sum_eltwise -> L3_b3_sum_eltwise_top
I0817 16:13:05.350769 17318 net.cpp:150] Setting up L3_b3_sum_eltwise
I0817 16:13:05.350780 17318 net.cpp:157] Top shape: 125 64 8 8 (512000)
I0817 16:13:05.350785 17318 net.cpp:165] Memory required for data: 1313281500
I0817 16:13:05.350790 17318 layer_factory.hpp:77] Creating layer L3_b3_relu
I0817 16:13:05.350798 17318 net.cpp:100] Creating Layer L3_b3_relu
I0817 16:13:05.350805 17318 net.cpp:434] L3_b3_relu <- L3_b3_sum_eltwise_top
I0817 16:13:05.350813 17318 net.cpp:395] L3_b3_relu -> L3_b3_sum_eltwise_top (in-place)
I0817 16:13:05.350823 17318 net.cpp:150] Setting up L3_b3_relu
I0817 16:13:05.350831 17318 net.cpp:157] Top shape: 125 64 8 8 (512000)
I0817 16:13:05.350836 17318 net.cpp:165] Memory required for data: 1315329500
I0817 16:13:05.350839 17318 layer_factory.hpp:77] Creating layer L3_b3_sum_eltwise_top_L3_b3_relu_0_split
I0817 16:13:05.350853 17318 net.cpp:100] Creating Layer L3_b3_sum_eltwise_top_L3_b3_relu_0_split
I0817 16:13:05.350859 17318 net.cpp:434] L3_b3_sum_eltwise_top_L3_b3_relu_0_split <- L3_b3_sum_eltwise_top
I0817 16:13:05.350867 17318 net.cpp:408] L3_b3_sum_eltwise_top_L3_b3_relu_0_split -> L3_b3_sum_eltwise_top_L3_b3_relu_0_split_0
I0817 16:13:05.350877 17318 net.cpp:408] L3_b3_sum_eltwise_top_L3_b3_relu_0_split -> L3_b3_sum_eltwise_top_L3_b3_relu_0_split_1
I0817 16:13:05.350926 17318 net.cpp:150] Setting up L3_b3_sum_eltwise_top_L3_b3_relu_0_split
I0817 16:13:05.350939 17318 net.cpp:157] Top shape: 125 64 8 8 (512000)
I0817 16:13:05.350944 17318 net.cpp:157] Top shape: 125 64 8 8 (512000)
I0817 16:13:05.350950 17318 net.cpp:165] Memory required for data: 1319425500
I0817 16:13:05.350955 17318 layer_factory.hpp:77] Creating layer L3_b4_cbr1_conv
I0817 16:13:05.350965 17318 net.cpp:100] Creating Layer L3_b4_cbr1_conv
I0817 16:13:05.350971 17318 net.cpp:434] L3_b4_cbr1_conv <- L3_b3_sum_eltwise_top_L3_b3_relu_0_split_0
I0817 16:13:05.350983 17318 net.cpp:408] L3_b4_cbr1_conv -> L3_b4_cbr1_conv_top
I0817 16:13:05.352020 17318 net.cpp:150] Setting up L3_b4_cbr1_conv
I0817 16:13:05.352035 17318 net.cpp:157] Top shape: 125 64 8 8 (512000)
I0817 16:13:05.352041 17318 net.cpp:165] Memory required for data: 1321473500
I0817 16:13:05.352051 17318 layer_factory.hpp:77] Creating layer L3_b4_cbr1_bn
I0817 16:13:05.352059 17318 net.cpp:100] Creating Layer L3_b4_cbr1_bn
I0817 16:13:05.352066 17318 net.cpp:434] L3_b4_cbr1_bn <- L3_b4_cbr1_conv_top
I0817 16:13:05.352077 17318 net.cpp:408] L3_b4_cbr1_bn -> L3_b4_cbr1_bn_top
I0817 16:13:05.352349 17318 net.cpp:150] Setting up L3_b4_cbr1_bn
I0817 16:13:05.352365 17318 net.cpp:157] Top shape: 125 64 8 8 (512000)
I0817 16:13:05.352370 17318 net.cpp:165] Memory required for data: 1323521500
I0817 16:13:05.352380 17318 layer_factory.hpp:77] Creating layer L3_b4_cbr1_scale
I0817 16:13:05.352390 17318 net.cpp:100] Creating Layer L3_b4_cbr1_scale
I0817 16:13:05.352396 17318 net.cpp:434] L3_b4_cbr1_scale <- L3_b4_cbr1_bn_top
I0817 16:13:05.352402 17318 net.cpp:395] L3_b4_cbr1_scale -> L3_b4_cbr1_bn_top (in-place)
I0817 16:13:05.352459 17318 layer_factory.hpp:77] Creating layer L3_b4_cbr1_scale
I0817 16:13:05.352617 17318 net.cpp:150] Setting up L3_b4_cbr1_scale
I0817 16:13:05.352629 17318 net.cpp:157] Top shape: 125 64 8 8 (512000)
I0817 16:13:05.352634 17318 net.cpp:165] Memory required for data: 1325569500
I0817 16:13:05.352643 17318 layer_factory.hpp:77] Creating layer L3_b4_cbr1_relu
I0817 16:13:05.352654 17318 net.cpp:100] Creating Layer L3_b4_cbr1_relu
I0817 16:13:05.352660 17318 net.cpp:434] L3_b4_cbr1_relu <- L3_b4_cbr1_bn_top
I0817 16:13:05.352668 17318 net.cpp:395] L3_b4_cbr1_relu -> L3_b4_cbr1_bn_top (in-place)
I0817 16:13:05.352677 17318 net.cpp:150] Setting up L3_b4_cbr1_relu
I0817 16:13:05.352684 17318 net.cpp:157] Top shape: 125 64 8 8 (512000)
I0817 16:13:05.352689 17318 net.cpp:165] Memory required for data: 1327617500
I0817 16:13:05.352694 17318 layer_factory.hpp:77] Creating layer L3_b4_cbr2_conv
I0817 16:13:05.352708 17318 net.cpp:100] Creating Layer L3_b4_cbr2_conv
I0817 16:13:05.352715 17318 net.cpp:434] L3_b4_cbr2_conv <- L3_b4_cbr1_bn_top
I0817 16:13:05.352722 17318 net.cpp:408] L3_b4_cbr2_conv -> L3_b4_cbr2_conv_top
I0817 16:13:05.353762 17318 net.cpp:150] Setting up L3_b4_cbr2_conv
I0817 16:13:05.353777 17318 net.cpp:157] Top shape: 125 64 8 8 (512000)
I0817 16:13:05.353782 17318 net.cpp:165] Memory required for data: 1329665500
I0817 16:13:05.353791 17318 layer_factory.hpp:77] Creating layer L3_b4_cbr2_bn
I0817 16:13:05.353803 17318 net.cpp:100] Creating Layer L3_b4_cbr2_bn
I0817 16:13:05.353811 17318 net.cpp:434] L3_b4_cbr2_bn <- L3_b4_cbr2_conv_top
I0817 16:13:05.353821 17318 net.cpp:408] L3_b4_cbr2_bn -> L3_b4_cbr2_bn_top
I0817 16:13:05.354100 17318 net.cpp:150] Setting up L3_b4_cbr2_bn
I0817 16:13:05.354115 17318 net.cpp:157] Top shape: 125 64 8 8 (512000)
I0817 16:13:05.354120 17318 net.cpp:165] Memory required for data: 1331713500
I0817 16:13:05.354130 17318 layer_factory.hpp:77] Creating layer L3_b4_cbr2_scale
I0817 16:13:05.354138 17318 net.cpp:100] Creating Layer L3_b4_cbr2_scale
I0817 16:13:05.354145 17318 net.cpp:434] L3_b4_cbr2_scale <- L3_b4_cbr2_bn_top
I0817 16:13:05.354154 17318 net.cpp:395] L3_b4_cbr2_scale -> L3_b4_cbr2_bn_top (in-place)
I0817 16:13:05.354214 17318 layer_factory.hpp:77] Creating layer L3_b4_cbr2_scale
I0817 16:13:05.354379 17318 net.cpp:150] Setting up L3_b4_cbr2_scale
I0817 16:13:05.354393 17318 net.cpp:157] Top shape: 125 64 8 8 (512000)
I0817 16:13:05.354398 17318 net.cpp:165] Memory required for data: 1333761500
I0817 16:13:05.354408 17318 layer_factory.hpp:77] Creating layer L3_b4_sum_eltwise
I0817 16:13:05.354415 17318 net.cpp:100] Creating Layer L3_b4_sum_eltwise
I0817 16:13:05.354423 17318 net.cpp:434] L3_b4_sum_eltwise <- L3_b4_cbr2_bn_top
I0817 16:13:05.354429 17318 net.cpp:434] L3_b4_sum_eltwise <- L3_b3_sum_eltwise_top_L3_b3_relu_0_split_1
I0817 16:13:05.354439 17318 net.cpp:408] L3_b4_sum_eltwise -> L3_b4_sum_eltwise_top
I0817 16:13:05.354476 17318 net.cpp:150] Setting up L3_b4_sum_eltwise
I0817 16:13:05.354492 17318 net.cpp:157] Top shape: 125 64 8 8 (512000)
I0817 16:13:05.354497 17318 net.cpp:165] Memory required for data: 1335809500
I0817 16:13:05.354503 17318 layer_factory.hpp:77] Creating layer L3_b4_relu
I0817 16:13:05.354511 17318 net.cpp:100] Creating Layer L3_b4_relu
I0817 16:13:05.354516 17318 net.cpp:434] L3_b4_relu <- L3_b4_sum_eltwise_top
I0817 16:13:05.354526 17318 net.cpp:395] L3_b4_relu -> L3_b4_sum_eltwise_top (in-place)
I0817 16:13:05.354537 17318 net.cpp:150] Setting up L3_b4_relu
I0817 16:13:05.354543 17318 net.cpp:157] Top shape: 125 64 8 8 (512000)
I0817 16:13:05.354548 17318 net.cpp:165] Memory required for data: 1337857500
I0817 16:13:05.354553 17318 layer_factory.hpp:77] Creating layer L3_b4_sum_eltwise_top_L3_b4_relu_0_split
I0817 16:13:05.354560 17318 net.cpp:100] Creating Layer L3_b4_sum_eltwise_top_L3_b4_relu_0_split
I0817 16:13:05.354565 17318 net.cpp:434] L3_b4_sum_eltwise_top_L3_b4_relu_0_split <- L3_b4_sum_eltwise_top
I0817 16:13:05.354573 17318 net.cpp:408] L3_b4_sum_eltwise_top_L3_b4_relu_0_split -> L3_b4_sum_eltwise_top_L3_b4_relu_0_split_0
I0817 16:13:05.354583 17318 net.cpp:408] L3_b4_sum_eltwise_top_L3_b4_relu_0_split -> L3_b4_sum_eltwise_top_L3_b4_relu_0_split_1
I0817 16:13:05.354632 17318 net.cpp:150] Setting up L3_b4_sum_eltwise_top_L3_b4_relu_0_split
I0817 16:13:05.354645 17318 net.cpp:157] Top shape: 125 64 8 8 (512000)
I0817 16:13:05.354651 17318 net.cpp:157] Top shape: 125 64 8 8 (512000)
I0817 16:13:05.354656 17318 net.cpp:165] Memory required for data: 1341953500
I0817 16:13:05.354660 17318 layer_factory.hpp:77] Creating layer L3_b5_cbr1_conv
I0817 16:13:05.354672 17318 net.cpp:100] Creating Layer L3_b5_cbr1_conv
I0817 16:13:05.354678 17318 net.cpp:434] L3_b5_cbr1_conv <- L3_b4_sum_eltwise_top_L3_b4_relu_0_split_0
I0817 16:13:05.354691 17318 net.cpp:408] L3_b5_cbr1_conv -> L3_b5_cbr1_conv_top
I0817 16:13:05.355720 17318 net.cpp:150] Setting up L3_b5_cbr1_conv
I0817 16:13:05.355734 17318 net.cpp:157] Top shape: 125 64 8 8 (512000)
I0817 16:13:05.355741 17318 net.cpp:165] Memory required for data: 1344001500
I0817 16:13:05.355748 17318 layer_factory.hpp:77] Creating layer L3_b5_cbr1_bn
I0817 16:13:05.355758 17318 net.cpp:100] Creating Layer L3_b5_cbr1_bn
I0817 16:13:05.355764 17318 net.cpp:434] L3_b5_cbr1_bn <- L3_b5_cbr1_conv_top
I0817 16:13:05.355775 17318 net.cpp:408] L3_b5_cbr1_bn -> L3_b5_cbr1_bn_top
I0817 16:13:05.357035 17318 net.cpp:150] Setting up L3_b5_cbr1_bn
I0817 16:13:05.357053 17318 net.cpp:157] Top shape: 125 64 8 8 (512000)
I0817 16:13:05.357059 17318 net.cpp:165] Memory required for data: 1346049500
I0817 16:13:05.357070 17318 layer_factory.hpp:77] Creating layer L3_b5_cbr1_scale
I0817 16:13:05.357080 17318 net.cpp:100] Creating Layer L3_b5_cbr1_scale
I0817 16:13:05.357086 17318 net.cpp:434] L3_b5_cbr1_scale <- L3_b5_cbr1_bn_top
I0817 16:13:05.357097 17318 net.cpp:395] L3_b5_cbr1_scale -> L3_b5_cbr1_bn_top (in-place)
I0817 16:13:05.357157 17318 layer_factory.hpp:77] Creating layer L3_b5_cbr1_scale
I0817 16:13:05.357316 17318 net.cpp:150] Setting up L3_b5_cbr1_scale
I0817 16:13:05.357327 17318 net.cpp:157] Top shape: 125 64 8 8 (512000)
I0817 16:13:05.357333 17318 net.cpp:165] Memory required for data: 1348097500
I0817 16:13:05.357342 17318 layer_factory.hpp:77] Creating layer L3_b5_cbr1_relu
I0817 16:13:05.357350 17318 net.cpp:100] Creating Layer L3_b5_cbr1_relu
I0817 16:13:05.357357 17318 net.cpp:434] L3_b5_cbr1_relu <- L3_b5_cbr1_bn_top
I0817 16:13:05.357367 17318 net.cpp:395] L3_b5_cbr1_relu -> L3_b5_cbr1_bn_top (in-place)
I0817 16:13:05.357376 17318 net.cpp:150] Setting up L3_b5_cbr1_relu
I0817 16:13:05.357383 17318 net.cpp:157] Top shape: 125 64 8 8 (512000)
I0817 16:13:05.357388 17318 net.cpp:165] Memory required for data: 1350145500
I0817 16:13:05.357393 17318 layer_factory.hpp:77] Creating layer L3_b5_cbr2_conv
I0817 16:13:05.357408 17318 net.cpp:100] Creating Layer L3_b5_cbr2_conv
I0817 16:13:05.357414 17318 net.cpp:434] L3_b5_cbr2_conv <- L3_b5_cbr1_bn_top
I0817 16:13:05.357421 17318 net.cpp:408] L3_b5_cbr2_conv -> L3_b5_cbr2_conv_top
I0817 16:13:05.359426 17318 net.cpp:150] Setting up L3_b5_cbr2_conv
I0817 16:13:05.359443 17318 net.cpp:157] Top shape: 125 64 8 8 (512000)
I0817 16:13:05.359448 17318 net.cpp:165] Memory required for data: 1352193500
I0817 16:13:05.359458 17318 layer_factory.hpp:77] Creating layer L3_b5_cbr2_bn
I0817 16:13:05.359472 17318 net.cpp:100] Creating Layer L3_b5_cbr2_bn
I0817 16:13:05.359478 17318 net.cpp:434] L3_b5_cbr2_bn <- L3_b5_cbr2_conv_top
I0817 16:13:05.359490 17318 net.cpp:408] L3_b5_cbr2_bn -> L3_b5_cbr2_bn_top
I0817 16:13:05.359748 17318 net.cpp:150] Setting up L3_b5_cbr2_bn
I0817 16:13:05.359761 17318 net.cpp:157] Top shape: 125 64 8 8 (512000)
I0817 16:13:05.359766 17318 net.cpp:165] Memory required for data: 1354241500
I0817 16:13:05.359777 17318 layer_factory.hpp:77] Creating layer L3_b5_cbr2_scale
I0817 16:13:05.359786 17318 net.cpp:100] Creating Layer L3_b5_cbr2_scale
I0817 16:13:05.359792 17318 net.cpp:434] L3_b5_cbr2_scale <- L3_b5_cbr2_bn_top
I0817 16:13:05.359803 17318 net.cpp:395] L3_b5_cbr2_scale -> L3_b5_cbr2_bn_top (in-place)
I0817 16:13:05.359865 17318 layer_factory.hpp:77] Creating layer L3_b5_cbr2_scale
I0817 16:13:05.360018 17318 net.cpp:150] Setting up L3_b5_cbr2_scale
I0817 16:13:05.360031 17318 net.cpp:157] Top shape: 125 64 8 8 (512000)
I0817 16:13:05.360036 17318 net.cpp:165] Memory required for data: 1356289500
I0817 16:13:05.360046 17318 layer_factory.hpp:77] Creating layer L3_b5_sum_eltwise
I0817 16:13:05.360055 17318 net.cpp:100] Creating Layer L3_b5_sum_eltwise
I0817 16:13:05.360061 17318 net.cpp:434] L3_b5_sum_eltwise <- L3_b5_cbr2_bn_top
I0817 16:13:05.360069 17318 net.cpp:434] L3_b5_sum_eltwise <- L3_b4_sum_eltwise_top_L3_b4_relu_0_split_1
I0817 16:13:05.360080 17318 net.cpp:408] L3_b5_sum_eltwise -> L3_b5_sum_eltwise_top
I0817 16:13:05.360114 17318 net.cpp:150] Setting up L3_b5_sum_eltwise
I0817 16:13:05.360126 17318 net.cpp:157] Top shape: 125 64 8 8 (512000)
I0817 16:13:05.360131 17318 net.cpp:165] Memory required for data: 1358337500
I0817 16:13:05.360136 17318 layer_factory.hpp:77] Creating layer L3_b5_relu
I0817 16:13:05.360146 17318 net.cpp:100] Creating Layer L3_b5_relu
I0817 16:13:05.360152 17318 net.cpp:434] L3_b5_relu <- L3_b5_sum_eltwise_top
I0817 16:13:05.360162 17318 net.cpp:395] L3_b5_relu -> L3_b5_sum_eltwise_top (in-place)
I0817 16:13:05.360172 17318 net.cpp:150] Setting up L3_b5_relu
I0817 16:13:05.360178 17318 net.cpp:157] Top shape: 125 64 8 8 (512000)
I0817 16:13:05.360183 17318 net.cpp:165] Memory required for data: 1360385500
I0817 16:13:05.360188 17318 layer_factory.hpp:77] Creating layer L3_b5_sum_eltwise_top_L3_b5_relu_0_split
I0817 16:13:05.360194 17318 net.cpp:100] Creating Layer L3_b5_sum_eltwise_top_L3_b5_relu_0_split
I0817 16:13:05.360200 17318 net.cpp:434] L3_b5_sum_eltwise_top_L3_b5_relu_0_split <- L3_b5_sum_eltwise_top
I0817 16:13:05.360208 17318 net.cpp:408] L3_b5_sum_eltwise_top_L3_b5_relu_0_split -> L3_b5_sum_eltwise_top_L3_b5_relu_0_split_0
I0817 16:13:05.360218 17318 net.cpp:408] L3_b5_sum_eltwise_top_L3_b5_relu_0_split -> L3_b5_sum_eltwise_top_L3_b5_relu_0_split_1
I0817 16:13:05.360265 17318 net.cpp:150] Setting up L3_b5_sum_eltwise_top_L3_b5_relu_0_split
I0817 16:13:05.360276 17318 net.cpp:157] Top shape: 125 64 8 8 (512000)
I0817 16:13:05.360283 17318 net.cpp:157] Top shape: 125 64 8 8 (512000)
I0817 16:13:05.360288 17318 net.cpp:165] Memory required for data: 1364481500
I0817 16:13:05.360293 17318 layer_factory.hpp:77] Creating layer L3_b6_cbr1_conv
I0817 16:13:05.360306 17318 net.cpp:100] Creating Layer L3_b6_cbr1_conv
I0817 16:13:05.360311 17318 net.cpp:434] L3_b6_cbr1_conv <- L3_b5_sum_eltwise_top_L3_b5_relu_0_split_0
I0817 16:13:05.360323 17318 net.cpp:408] L3_b6_cbr1_conv -> L3_b6_cbr1_conv_top
I0817 16:13:05.361335 17318 net.cpp:150] Setting up L3_b6_cbr1_conv
I0817 16:13:05.361351 17318 net.cpp:157] Top shape: 125 64 8 8 (512000)
I0817 16:13:05.361356 17318 net.cpp:165] Memory required for data: 1366529500
I0817 16:13:05.361364 17318 layer_factory.hpp:77] Creating layer L3_b6_cbr1_bn
I0817 16:13:05.361373 17318 net.cpp:100] Creating Layer L3_b6_cbr1_bn
I0817 16:13:05.361387 17318 net.cpp:434] L3_b6_cbr1_bn <- L3_b6_cbr1_conv_top
I0817 16:13:05.361400 17318 net.cpp:408] L3_b6_cbr1_bn -> L3_b6_cbr1_bn_top
I0817 16:13:05.361659 17318 net.cpp:150] Setting up L3_b6_cbr1_bn
I0817 16:13:05.361671 17318 net.cpp:157] Top shape: 125 64 8 8 (512000)
I0817 16:13:05.361677 17318 net.cpp:165] Memory required for data: 1368577500
I0817 16:13:05.361687 17318 layer_factory.hpp:77] Creating layer L3_b6_cbr1_scale
I0817 16:13:05.361696 17318 net.cpp:100] Creating Layer L3_b6_cbr1_scale
I0817 16:13:05.361702 17318 net.cpp:434] L3_b6_cbr1_scale <- L3_b6_cbr1_bn_top
I0817 16:13:05.361711 17318 net.cpp:395] L3_b6_cbr1_scale -> L3_b6_cbr1_bn_top (in-place)
I0817 16:13:05.361771 17318 layer_factory.hpp:77] Creating layer L3_b6_cbr1_scale
I0817 16:13:05.361932 17318 net.cpp:150] Setting up L3_b6_cbr1_scale
I0817 16:13:05.361945 17318 net.cpp:157] Top shape: 125 64 8 8 (512000)
I0817 16:13:05.361951 17318 net.cpp:165] Memory required for data: 1370625500
I0817 16:13:05.361960 17318 layer_factory.hpp:77] Creating layer L3_b6_cbr1_relu
I0817 16:13:05.361971 17318 net.cpp:100] Creating Layer L3_b6_cbr1_relu
I0817 16:13:05.361979 17318 net.cpp:434] L3_b6_cbr1_relu <- L3_b6_cbr1_bn_top
I0817 16:13:05.361985 17318 net.cpp:395] L3_b6_cbr1_relu -> L3_b6_cbr1_bn_top (in-place)
I0817 16:13:05.361995 17318 net.cpp:150] Setting up L3_b6_cbr1_relu
I0817 16:13:05.362004 17318 net.cpp:157] Top shape: 125 64 8 8 (512000)
I0817 16:13:05.362007 17318 net.cpp:165] Memory required for data: 1372673500
I0817 16:13:05.362012 17318 layer_factory.hpp:77] Creating layer L3_b6_cbr2_conv
I0817 16:13:05.362026 17318 net.cpp:100] Creating Layer L3_b6_cbr2_conv
I0817 16:13:05.362033 17318 net.cpp:434] L3_b6_cbr2_conv <- L3_b6_cbr1_bn_top
I0817 16:13:05.362041 17318 net.cpp:408] L3_b6_cbr2_conv -> L3_b6_cbr2_conv_top
I0817 16:13:05.363051 17318 net.cpp:150] Setting up L3_b6_cbr2_conv
I0817 16:13:05.363066 17318 net.cpp:157] Top shape: 125 64 8 8 (512000)
I0817 16:13:05.363072 17318 net.cpp:165] Memory required for data: 1374721500
I0817 16:13:05.363081 17318 layer_factory.hpp:77] Creating layer L3_b6_cbr2_bn
I0817 16:13:05.363093 17318 net.cpp:100] Creating Layer L3_b6_cbr2_bn
I0817 16:13:05.363101 17318 net.cpp:434] L3_b6_cbr2_bn <- L3_b6_cbr2_conv_top
I0817 16:13:05.363111 17318 net.cpp:408] L3_b6_cbr2_bn -> L3_b6_cbr2_bn_top
I0817 16:13:05.363368 17318 net.cpp:150] Setting up L3_b6_cbr2_bn
I0817 16:13:05.363380 17318 net.cpp:157] Top shape: 125 64 8 8 (512000)
I0817 16:13:05.363385 17318 net.cpp:165] Memory required for data: 1376769500
I0817 16:13:05.363395 17318 layer_factory.hpp:77] Creating layer L3_b6_cbr2_scale
I0817 16:13:05.363404 17318 net.cpp:100] Creating Layer L3_b6_cbr2_scale
I0817 16:13:05.363410 17318 net.cpp:434] L3_b6_cbr2_scale <- L3_b6_cbr2_bn_top
I0817 16:13:05.363421 17318 net.cpp:395] L3_b6_cbr2_scale -> L3_b6_cbr2_bn_top (in-place)
I0817 16:13:05.363477 17318 layer_factory.hpp:77] Creating layer L3_b6_cbr2_scale
I0817 16:13:05.363628 17318 net.cpp:150] Setting up L3_b6_cbr2_scale
I0817 16:13:05.363641 17318 net.cpp:157] Top shape: 125 64 8 8 (512000)
I0817 16:13:05.363646 17318 net.cpp:165] Memory required for data: 1378817500
I0817 16:13:05.363656 17318 layer_factory.hpp:77] Creating layer L3_b6_sum_eltwise
I0817 16:13:05.363667 17318 net.cpp:100] Creating Layer L3_b6_sum_eltwise
I0817 16:13:05.363673 17318 net.cpp:434] L3_b6_sum_eltwise <- L3_b6_cbr2_bn_top
I0817 16:13:05.363680 17318 net.cpp:434] L3_b6_sum_eltwise <- L3_b5_sum_eltwise_top_L3_b5_relu_0_split_1
I0817 16:13:05.363688 17318 net.cpp:408] L3_b6_sum_eltwise -> L3_b6_sum_eltwise_top
I0817 16:13:05.363724 17318 net.cpp:150] Setting up L3_b6_sum_eltwise
I0817 16:13:05.363735 17318 net.cpp:157] Top shape: 125 64 8 8 (512000)
I0817 16:13:05.363740 17318 net.cpp:165] Memory required for data: 1380865500
I0817 16:13:05.363746 17318 layer_factory.hpp:77] Creating layer L3_b6_relu
I0817 16:13:05.363754 17318 net.cpp:100] Creating Layer L3_b6_relu
I0817 16:13:05.363760 17318 net.cpp:434] L3_b6_relu <- L3_b6_sum_eltwise_top
I0817 16:13:05.363776 17318 net.cpp:395] L3_b6_relu -> L3_b6_sum_eltwise_top (in-place)
I0817 16:13:05.363787 17318 net.cpp:150] Setting up L3_b6_relu
I0817 16:13:05.363795 17318 net.cpp:157] Top shape: 125 64 8 8 (512000)
I0817 16:13:05.363800 17318 net.cpp:165] Memory required for data: 1382913500
I0817 16:13:05.363804 17318 layer_factory.hpp:77] Creating layer L3_b6_sum_eltwise_top_L3_b6_relu_0_split
I0817 16:13:05.363811 17318 net.cpp:100] Creating Layer L3_b6_sum_eltwise_top_L3_b6_relu_0_split
I0817 16:13:05.363817 17318 net.cpp:434] L3_b6_sum_eltwise_top_L3_b6_relu_0_split <- L3_b6_sum_eltwise_top
I0817 16:13:05.363824 17318 net.cpp:408] L3_b6_sum_eltwise_top_L3_b6_relu_0_split -> L3_b6_sum_eltwise_top_L3_b6_relu_0_split_0
I0817 16:13:05.363833 17318 net.cpp:408] L3_b6_sum_eltwise_top_L3_b6_relu_0_split -> L3_b6_sum_eltwise_top_L3_b6_relu_0_split_1
I0817 16:13:05.363888 17318 net.cpp:150] Setting up L3_b6_sum_eltwise_top_L3_b6_relu_0_split
I0817 16:13:05.363901 17318 net.cpp:157] Top shape: 125 64 8 8 (512000)
I0817 16:13:05.363909 17318 net.cpp:157] Top shape: 125 64 8 8 (512000)
I0817 16:13:05.363912 17318 net.cpp:165] Memory required for data: 1387009500
I0817 16:13:05.363917 17318 layer_factory.hpp:77] Creating layer L3_b7_cbr1_conv
I0817 16:13:05.363929 17318 net.cpp:100] Creating Layer L3_b7_cbr1_conv
I0817 16:13:05.363936 17318 net.cpp:434] L3_b7_cbr1_conv <- L3_b6_sum_eltwise_top_L3_b6_relu_0_split_0
I0817 16:13:05.363950 17318 net.cpp:408] L3_b7_cbr1_conv -> L3_b7_cbr1_conv_top
I0817 16:13:05.364995 17318 net.cpp:150] Setting up L3_b7_cbr1_conv
I0817 16:13:05.365012 17318 net.cpp:157] Top shape: 125 64 8 8 (512000)
I0817 16:13:05.365017 17318 net.cpp:165] Memory required for data: 1389057500
I0817 16:13:05.365026 17318 layer_factory.hpp:77] Creating layer L3_b7_cbr1_bn
I0817 16:13:05.365036 17318 net.cpp:100] Creating Layer L3_b7_cbr1_bn
I0817 16:13:05.365042 17318 net.cpp:434] L3_b7_cbr1_bn <- L3_b7_cbr1_conv_top
I0817 16:13:05.365054 17318 net.cpp:408] L3_b7_cbr1_bn -> L3_b7_cbr1_bn_top
I0817 16:13:05.365314 17318 net.cpp:150] Setting up L3_b7_cbr1_bn
I0817 16:13:05.365329 17318 net.cpp:157] Top shape: 125 64 8 8 (512000)
I0817 16:13:05.365334 17318 net.cpp:165] Memory required for data: 1391105500
I0817 16:13:05.365344 17318 layer_factory.hpp:77] Creating layer L3_b7_cbr1_scale
I0817 16:13:05.365352 17318 net.cpp:100] Creating Layer L3_b7_cbr1_scale
I0817 16:13:05.365358 17318 net.cpp:434] L3_b7_cbr1_scale <- L3_b7_cbr1_bn_top
I0817 16:13:05.365366 17318 net.cpp:395] L3_b7_cbr1_scale -> L3_b7_cbr1_bn_top (in-place)
I0817 16:13:05.365425 17318 layer_factory.hpp:77] Creating layer L3_b7_cbr1_scale
I0817 16:13:05.365577 17318 net.cpp:150] Setting up L3_b7_cbr1_scale
I0817 16:13:05.365592 17318 net.cpp:157] Top shape: 125 64 8 8 (512000)
I0817 16:13:05.365598 17318 net.cpp:165] Memory required for data: 1393153500
I0817 16:13:05.365607 17318 layer_factory.hpp:77] Creating layer L3_b7_cbr1_relu
I0817 16:13:05.365638 17318 net.cpp:100] Creating Layer L3_b7_cbr1_relu
I0817 16:13:05.365648 17318 net.cpp:434] L3_b7_cbr1_relu <- L3_b7_cbr1_bn_top
I0817 16:13:05.365655 17318 net.cpp:395] L3_b7_cbr1_relu -> L3_b7_cbr1_bn_top (in-place)
I0817 16:13:05.365665 17318 net.cpp:150] Setting up L3_b7_cbr1_relu
I0817 16:13:05.365672 17318 net.cpp:157] Top shape: 125 64 8 8 (512000)
I0817 16:13:05.365677 17318 net.cpp:165] Memory required for data: 1395201500
I0817 16:13:05.365684 17318 layer_factory.hpp:77] Creating layer L3_b7_cbr2_conv
I0817 16:13:05.365697 17318 net.cpp:100] Creating Layer L3_b7_cbr2_conv
I0817 16:13:05.365703 17318 net.cpp:434] L3_b7_cbr2_conv <- L3_b7_cbr1_bn_top
I0817 16:13:05.365712 17318 net.cpp:408] L3_b7_cbr2_conv -> L3_b7_cbr2_conv_top
I0817 16:13:05.366736 17318 net.cpp:150] Setting up L3_b7_cbr2_conv
I0817 16:13:05.366751 17318 net.cpp:157] Top shape: 125 64 8 8 (512000)
I0817 16:13:05.366757 17318 net.cpp:165] Memory required for data: 1397249500
I0817 16:13:05.366766 17318 layer_factory.hpp:77] Creating layer L3_b7_cbr2_bn
I0817 16:13:05.366775 17318 net.cpp:100] Creating Layer L3_b7_cbr2_bn
I0817 16:13:05.366788 17318 net.cpp:434] L3_b7_cbr2_bn <- L3_b7_cbr2_conv_top
I0817 16:13:05.366801 17318 net.cpp:408] L3_b7_cbr2_bn -> L3_b7_cbr2_bn_top
I0817 16:13:05.367079 17318 net.cpp:150] Setting up L3_b7_cbr2_bn
I0817 16:13:05.367094 17318 net.cpp:157] Top shape: 125 64 8 8 (512000)
I0817 16:13:05.367100 17318 net.cpp:165] Memory required for data: 1399297500
I0817 16:13:05.367110 17318 layer_factory.hpp:77] Creating layer L3_b7_cbr2_scale
I0817 16:13:05.367120 17318 net.cpp:100] Creating Layer L3_b7_cbr2_scale
I0817 16:13:05.367125 17318 net.cpp:434] L3_b7_cbr2_scale <- L3_b7_cbr2_bn_top
I0817 16:13:05.367133 17318 net.cpp:395] L3_b7_cbr2_scale -> L3_b7_cbr2_bn_top (in-place)
I0817 16:13:05.367189 17318 layer_factory.hpp:77] Creating layer L3_b7_cbr2_scale
I0817 16:13:05.367346 17318 net.cpp:150] Setting up L3_b7_cbr2_scale
I0817 16:13:05.367358 17318 net.cpp:157] Top shape: 125 64 8 8 (512000)
I0817 16:13:05.367364 17318 net.cpp:165] Memory required for data: 1401345500
I0817 16:13:05.367372 17318 layer_factory.hpp:77] Creating layer L3_b7_sum_eltwise
I0817 16:13:05.367384 17318 net.cpp:100] Creating Layer L3_b7_sum_eltwise
I0817 16:13:05.367391 17318 net.cpp:434] L3_b7_sum_eltwise <- L3_b7_cbr2_bn_top
I0817 16:13:05.367398 17318 net.cpp:434] L3_b7_sum_eltwise <- L3_b6_sum_eltwise_top_L3_b6_relu_0_split_1
I0817 16:13:05.367406 17318 net.cpp:408] L3_b7_sum_eltwise -> L3_b7_sum_eltwise_top
I0817 16:13:05.367444 17318 net.cpp:150] Setting up L3_b7_sum_eltwise
I0817 16:13:05.367455 17318 net.cpp:157] Top shape: 125 64 8 8 (512000)
I0817 16:13:05.367460 17318 net.cpp:165] Memory required for data: 1403393500
I0817 16:13:05.367465 17318 layer_factory.hpp:77] Creating layer L3_b7_relu
I0817 16:13:05.367472 17318 net.cpp:100] Creating Layer L3_b7_relu
I0817 16:13:05.367478 17318 net.cpp:434] L3_b7_relu <- L3_b7_sum_eltwise_top
I0817 16:13:05.367486 17318 net.cpp:395] L3_b7_relu -> L3_b7_sum_eltwise_top (in-place)
I0817 16:13:05.367496 17318 net.cpp:150] Setting up L3_b7_relu
I0817 16:13:05.367502 17318 net.cpp:157] Top shape: 125 64 8 8 (512000)
I0817 16:13:05.367506 17318 net.cpp:165] Memory required for data: 1405441500
I0817 16:13:05.367511 17318 layer_factory.hpp:77] Creating layer L3_b7_sum_eltwise_top_L3_b7_relu_0_split
I0817 16:13:05.367518 17318 net.cpp:100] Creating Layer L3_b7_sum_eltwise_top_L3_b7_relu_0_split
I0817 16:13:05.367524 17318 net.cpp:434] L3_b7_sum_eltwise_top_L3_b7_relu_0_split <- L3_b7_sum_eltwise_top
I0817 16:13:05.367534 17318 net.cpp:408] L3_b7_sum_eltwise_top_L3_b7_relu_0_split -> L3_b7_sum_eltwise_top_L3_b7_relu_0_split_0
I0817 16:13:05.367545 17318 net.cpp:408] L3_b7_sum_eltwise_top_L3_b7_relu_0_split -> L3_b7_sum_eltwise_top_L3_b7_relu_0_split_1
I0817 16:13:05.367589 17318 net.cpp:150] Setting up L3_b7_sum_eltwise_top_L3_b7_relu_0_split
I0817 16:13:05.367601 17318 net.cpp:157] Top shape: 125 64 8 8 (512000)
I0817 16:13:05.367609 17318 net.cpp:157] Top shape: 125 64 8 8 (512000)
I0817 16:13:05.367612 17318 net.cpp:165] Memory required for data: 1409537500
I0817 16:13:05.367619 17318 layer_factory.hpp:77] Creating layer L3_b8_cbr1_conv
I0817 16:13:05.367632 17318 net.cpp:100] Creating Layer L3_b8_cbr1_conv
I0817 16:13:05.367640 17318 net.cpp:434] L3_b8_cbr1_conv <- L3_b7_sum_eltwise_top_L3_b7_relu_0_split_0
I0817 16:13:05.367650 17318 net.cpp:408] L3_b8_cbr1_conv -> L3_b8_cbr1_conv_top
I0817 16:13:05.368661 17318 net.cpp:150] Setting up L3_b8_cbr1_conv
I0817 16:13:05.368676 17318 net.cpp:157] Top shape: 125 64 8 8 (512000)
I0817 16:13:05.368682 17318 net.cpp:165] Memory required for data: 1411585500
I0817 16:13:05.368691 17318 layer_factory.hpp:77] Creating layer L3_b8_cbr1_bn
I0817 16:13:05.368703 17318 net.cpp:100] Creating Layer L3_b8_cbr1_bn
I0817 16:13:05.368710 17318 net.cpp:434] L3_b8_cbr1_bn <- L3_b8_cbr1_conv_top
I0817 16:13:05.368718 17318 net.cpp:408] L3_b8_cbr1_bn -> L3_b8_cbr1_bn_top
I0817 16:13:05.368989 17318 net.cpp:150] Setting up L3_b8_cbr1_bn
I0817 16:13:05.369004 17318 net.cpp:157] Top shape: 125 64 8 8 (512000)
I0817 16:13:05.369009 17318 net.cpp:165] Memory required for data: 1413633500
I0817 16:13:05.369025 17318 layer_factory.hpp:77] Creating layer L3_b8_cbr1_scale
I0817 16:13:05.369037 17318 net.cpp:100] Creating Layer L3_b8_cbr1_scale
I0817 16:13:05.369045 17318 net.cpp:434] L3_b8_cbr1_scale <- L3_b8_cbr1_bn_top
I0817 16:13:05.369052 17318 net.cpp:395] L3_b8_cbr1_scale -> L3_b8_cbr1_bn_top (in-place)
I0817 16:13:05.369115 17318 layer_factory.hpp:77] Creating layer L3_b8_cbr1_scale
I0817 16:13:05.369269 17318 net.cpp:150] Setting up L3_b8_cbr1_scale
I0817 16:13:05.369282 17318 net.cpp:157] Top shape: 125 64 8 8 (512000)
I0817 16:13:05.369287 17318 net.cpp:165] Memory required for data: 1415681500
I0817 16:13:05.369297 17318 layer_factory.hpp:77] Creating layer L3_b8_cbr1_relu
I0817 16:13:05.369307 17318 net.cpp:100] Creating Layer L3_b8_cbr1_relu
I0817 16:13:05.369314 17318 net.cpp:434] L3_b8_cbr1_relu <- L3_b8_cbr1_bn_top
I0817 16:13:05.369321 17318 net.cpp:395] L3_b8_cbr1_relu -> L3_b8_cbr1_bn_top (in-place)
I0817 16:13:05.369331 17318 net.cpp:150] Setting up L3_b8_cbr1_relu
I0817 16:13:05.369341 17318 net.cpp:157] Top shape: 125 64 8 8 (512000)
I0817 16:13:05.369346 17318 net.cpp:165] Memory required for data: 1417729500
I0817 16:13:05.369350 17318 layer_factory.hpp:77] Creating layer L3_b8_cbr2_conv
I0817 16:13:05.369362 17318 net.cpp:100] Creating Layer L3_b8_cbr2_conv
I0817 16:13:05.369367 17318 net.cpp:434] L3_b8_cbr2_conv <- L3_b8_cbr1_bn_top
I0817 16:13:05.369379 17318 net.cpp:408] L3_b8_cbr2_conv -> L3_b8_cbr2_conv_top
I0817 16:13:05.370389 17318 net.cpp:150] Setting up L3_b8_cbr2_conv
I0817 16:13:05.370404 17318 net.cpp:157] Top shape: 125 64 8 8 (512000)
I0817 16:13:05.370409 17318 net.cpp:165] Memory required for data: 1419777500
I0817 16:13:05.370419 17318 layer_factory.hpp:77] Creating layer L3_b8_cbr2_bn
I0817 16:13:05.370427 17318 net.cpp:100] Creating Layer L3_b8_cbr2_bn
I0817 16:13:05.370434 17318 net.cpp:434] L3_b8_cbr2_bn <- L3_b8_cbr2_conv_top
I0817 16:13:05.370447 17318 net.cpp:408] L3_b8_cbr2_bn -> L3_b8_cbr2_bn_top
I0817 16:13:05.370710 17318 net.cpp:150] Setting up L3_b8_cbr2_bn
I0817 16:13:05.370723 17318 net.cpp:157] Top shape: 125 64 8 8 (512000)
I0817 16:13:05.370729 17318 net.cpp:165] Memory required for data: 1421825500
I0817 16:13:05.370739 17318 layer_factory.hpp:77] Creating layer L3_b8_cbr2_scale
I0817 16:13:05.370748 17318 net.cpp:100] Creating Layer L3_b8_cbr2_scale
I0817 16:13:05.370754 17318 net.cpp:434] L3_b8_cbr2_scale <- L3_b8_cbr2_bn_top
I0817 16:13:05.370762 17318 net.cpp:395] L3_b8_cbr2_scale -> L3_b8_cbr2_bn_top (in-place)
I0817 16:13:05.370821 17318 layer_factory.hpp:77] Creating layer L3_b8_cbr2_scale
I0817 16:13:05.370980 17318 net.cpp:150] Setting up L3_b8_cbr2_scale
I0817 16:13:05.370997 17318 net.cpp:157] Top shape: 125 64 8 8 (512000)
I0817 16:13:05.371002 17318 net.cpp:165] Memory required for data: 1423873500
I0817 16:13:05.371011 17318 layer_factory.hpp:77] Creating layer L3_b8_sum_eltwise
I0817 16:13:05.371021 17318 net.cpp:100] Creating Layer L3_b8_sum_eltwise
I0817 16:13:05.371027 17318 net.cpp:434] L3_b8_sum_eltwise <- L3_b8_cbr2_bn_top
I0817 16:13:05.371034 17318 net.cpp:434] L3_b8_sum_eltwise <- L3_b7_sum_eltwise_top_L3_b7_relu_0_split_1
I0817 16:13:05.371042 17318 net.cpp:408] L3_b8_sum_eltwise -> L3_b8_sum_eltwise_top
I0817 16:13:05.371103 17318 net.cpp:150] Setting up L3_b8_sum_eltwise
I0817 16:13:05.371115 17318 net.cpp:157] Top shape: 125 64 8 8 (512000)
I0817 16:13:05.371121 17318 net.cpp:165] Memory required for data: 1425921500
I0817 16:13:05.371126 17318 layer_factory.hpp:77] Creating layer L3_b8_relu
I0817 16:13:05.371134 17318 net.cpp:100] Creating Layer L3_b8_relu
I0817 16:13:05.371140 17318 net.cpp:434] L3_b8_relu <- L3_b8_sum_eltwise_top
I0817 16:13:05.371147 17318 net.cpp:395] L3_b8_relu -> L3_b8_sum_eltwise_top (in-place)
I0817 16:13:05.371157 17318 net.cpp:150] Setting up L3_b8_relu
I0817 16:13:05.371165 17318 net.cpp:157] Top shape: 125 64 8 8 (512000)
I0817 16:13:05.371170 17318 net.cpp:165] Memory required for data: 1427969500
I0817 16:13:05.371173 17318 layer_factory.hpp:77] Creating layer L3_b8_sum_eltwise_top_L3_b8_relu_0_split
I0817 16:13:05.371188 17318 net.cpp:100] Creating Layer L3_b8_sum_eltwise_top_L3_b8_relu_0_split
I0817 16:13:05.371194 17318 net.cpp:434] L3_b8_sum_eltwise_top_L3_b8_relu_0_split <- L3_b8_sum_eltwise_top
I0817 16:13:05.371206 17318 net.cpp:408] L3_b8_sum_eltwise_top_L3_b8_relu_0_split -> L3_b8_sum_eltwise_top_L3_b8_relu_0_split_0
I0817 16:13:05.371217 17318 net.cpp:408] L3_b8_sum_eltwise_top_L3_b8_relu_0_split -> L3_b8_sum_eltwise_top_L3_b8_relu_0_split_1
I0817 16:13:05.371263 17318 net.cpp:150] Setting up L3_b8_sum_eltwise_top_L3_b8_relu_0_split
I0817 16:13:05.371279 17318 net.cpp:157] Top shape: 125 64 8 8 (512000)
I0817 16:13:05.371285 17318 net.cpp:157] Top shape: 125 64 8 8 (512000)
I0817 16:13:05.371290 17318 net.cpp:165] Memory required for data: 1432065500
I0817 16:13:05.371296 17318 layer_factory.hpp:77] Creating layer L3_b9_cbr1_conv
I0817 16:13:05.371307 17318 net.cpp:100] Creating Layer L3_b9_cbr1_conv
I0817 16:13:05.371315 17318 net.cpp:434] L3_b9_cbr1_conv <- L3_b8_sum_eltwise_top_L3_b8_relu_0_split_0
I0817 16:13:05.371322 17318 net.cpp:408] L3_b9_cbr1_conv -> L3_b9_cbr1_conv_top
I0817 16:13:05.373320 17318 net.cpp:150] Setting up L3_b9_cbr1_conv
I0817 16:13:05.373337 17318 net.cpp:157] Top shape: 125 64 8 8 (512000)
I0817 16:13:05.373343 17318 net.cpp:165] Memory required for data: 1434113500
I0817 16:13:05.373353 17318 layer_factory.hpp:77] Creating layer L3_b9_cbr1_bn
I0817 16:13:05.373368 17318 net.cpp:100] Creating Layer L3_b9_cbr1_bn
I0817 16:13:05.373374 17318 net.cpp:434] L3_b9_cbr1_bn <- L3_b9_cbr1_conv_top
I0817 16:13:05.373383 17318 net.cpp:408] L3_b9_cbr1_bn -> L3_b9_cbr1_bn_top
I0817 16:13:05.373647 17318 net.cpp:150] Setting up L3_b9_cbr1_bn
I0817 16:13:05.373661 17318 net.cpp:157] Top shape: 125 64 8 8 (512000)
I0817 16:13:05.373667 17318 net.cpp:165] Memory required for data: 1436161500
I0817 16:13:05.373677 17318 layer_factory.hpp:77] Creating layer L3_b9_cbr1_scale
I0817 16:13:05.373685 17318 net.cpp:100] Creating Layer L3_b9_cbr1_scale
I0817 16:13:05.373692 17318 net.cpp:434] L3_b9_cbr1_scale <- L3_b9_cbr1_bn_top
I0817 16:13:05.373699 17318 net.cpp:395] L3_b9_cbr1_scale -> L3_b9_cbr1_bn_top (in-place)
I0817 16:13:05.373759 17318 layer_factory.hpp:77] Creating layer L3_b9_cbr1_scale
I0817 16:13:05.373926 17318 net.cpp:150] Setting up L3_b9_cbr1_scale
I0817 16:13:05.373940 17318 net.cpp:157] Top shape: 125 64 8 8 (512000)
I0817 16:13:05.373945 17318 net.cpp:165] Memory required for data: 1438209500
I0817 16:13:05.373955 17318 layer_factory.hpp:77] Creating layer L3_b9_cbr1_relu
I0817 16:13:05.373963 17318 net.cpp:100] Creating Layer L3_b9_cbr1_relu
I0817 16:13:05.373970 17318 net.cpp:434] L3_b9_cbr1_relu <- L3_b9_cbr1_bn_top
I0817 16:13:05.373980 17318 net.cpp:395] L3_b9_cbr1_relu -> L3_b9_cbr1_bn_top (in-place)
I0817 16:13:05.373989 17318 net.cpp:150] Setting up L3_b9_cbr1_relu
I0817 16:13:05.373996 17318 net.cpp:157] Top shape: 125 64 8 8 (512000)
I0817 16:13:05.374001 17318 net.cpp:165] Memory required for data: 1440257500
I0817 16:13:05.374006 17318 layer_factory.hpp:77] Creating layer L3_b9_cbr2_conv
I0817 16:13:05.374022 17318 net.cpp:100] Creating Layer L3_b9_cbr2_conv
I0817 16:13:05.374029 17318 net.cpp:434] L3_b9_cbr2_conv <- L3_b9_cbr1_bn_top
I0817 16:13:05.374038 17318 net.cpp:408] L3_b9_cbr2_conv -> L3_b9_cbr2_conv_top
I0817 16:13:05.375061 17318 net.cpp:150] Setting up L3_b9_cbr2_conv
I0817 16:13:05.375075 17318 net.cpp:157] Top shape: 125 64 8 8 (512000)
I0817 16:13:05.375080 17318 net.cpp:165] Memory required for data: 1442305500
I0817 16:13:05.375089 17318 layer_factory.hpp:77] Creating layer L3_b9_cbr2_bn
I0817 16:13:05.375102 17318 net.cpp:100] Creating Layer L3_b9_cbr2_bn
I0817 16:13:05.375108 17318 net.cpp:434] L3_b9_cbr2_bn <- L3_b9_cbr2_conv_top
I0817 16:13:05.375116 17318 net.cpp:408] L3_b9_cbr2_bn -> L3_b9_cbr2_bn_top
I0817 16:13:05.375383 17318 net.cpp:150] Setting up L3_b9_cbr2_bn
I0817 16:13:05.375396 17318 net.cpp:157] Top shape: 125 64 8 8 (512000)
I0817 16:13:05.375401 17318 net.cpp:165] Memory required for data: 1444353500
I0817 16:13:05.375419 17318 layer_factory.hpp:77] Creating layer L3_b9_cbr2_scale
I0817 16:13:05.375432 17318 net.cpp:100] Creating Layer L3_b9_cbr2_scale
I0817 16:13:05.375437 17318 net.cpp:434] L3_b9_cbr2_scale <- L3_b9_cbr2_bn_top
I0817 16:13:05.375445 17318 net.cpp:395] L3_b9_cbr2_scale -> L3_b9_cbr2_bn_top (in-place)
I0817 16:13:05.375506 17318 layer_factory.hpp:77] Creating layer L3_b9_cbr2_scale
I0817 16:13:05.375660 17318 net.cpp:150] Setting up L3_b9_cbr2_scale
I0817 16:13:05.375674 17318 net.cpp:157] Top shape: 125 64 8 8 (512000)
I0817 16:13:05.375679 17318 net.cpp:165] Memory required for data: 1446401500
I0817 16:13:05.375687 17318 layer_factory.hpp:77] Creating layer L3_b9_sum_eltwise
I0817 16:13:05.375700 17318 net.cpp:100] Creating Layer L3_b9_sum_eltwise
I0817 16:13:05.375707 17318 net.cpp:434] L3_b9_sum_eltwise <- L3_b9_cbr2_bn_top
I0817 16:13:05.375715 17318 net.cpp:434] L3_b9_sum_eltwise <- L3_b8_sum_eltwise_top_L3_b8_relu_0_split_1
I0817 16:13:05.375725 17318 net.cpp:408] L3_b9_sum_eltwise -> L3_b9_sum_eltwise_top
I0817 16:13:05.375757 17318 net.cpp:150] Setting up L3_b9_sum_eltwise
I0817 16:13:05.375768 17318 net.cpp:157] Top shape: 125 64 8 8 (512000)
I0817 16:13:05.375773 17318 net.cpp:165] Memory required for data: 1448449500
I0817 16:13:05.375778 17318 layer_factory.hpp:77] Creating layer L3_b9_relu
I0817 16:13:05.375792 17318 net.cpp:100] Creating Layer L3_b9_relu
I0817 16:13:05.375797 17318 net.cpp:434] L3_b9_relu <- L3_b9_sum_eltwise_top
I0817 16:13:05.375805 17318 net.cpp:395] L3_b9_relu -> L3_b9_sum_eltwise_top (in-place)
I0817 16:13:05.375814 17318 net.cpp:150] Setting up L3_b9_relu
I0817 16:13:05.375821 17318 net.cpp:157] Top shape: 125 64 8 8 (512000)
I0817 16:13:05.375826 17318 net.cpp:165] Memory required for data: 1450497500
I0817 16:13:05.375830 17318 layer_factory.hpp:77] Creating layer post_pool
I0817 16:13:05.375838 17318 net.cpp:100] Creating Layer post_pool
I0817 16:13:05.375851 17318 net.cpp:434] post_pool <- L3_b9_sum_eltwise_top
I0817 16:13:05.375859 17318 net.cpp:408] post_pool -> post_pool
I0817 16:13:05.375897 17318 net.cpp:150] Setting up post_pool
I0817 16:13:05.375910 17318 net.cpp:157] Top shape: 125 64 1 1 (8000)
I0817 16:13:05.375915 17318 net.cpp:165] Memory required for data: 1450529500
I0817 16:13:05.375921 17318 layer_factory.hpp:77] Creating layer post_FC
I0817 16:13:05.376004 17318 net.cpp:100] Creating Layer post_FC
I0817 16:13:05.376018 17318 net.cpp:434] post_FC <- post_pool
I0817 16:13:05.376027 17318 net.cpp:408] post_FC -> post_FC_top
I0817 16:13:05.376325 17318 net.cpp:150] Setting up post_FC
I0817 16:13:05.376341 17318 net.cpp:157] Top shape: 125 100 (12500)
I0817 16:13:05.376346 17318 net.cpp:165] Memory required for data: 1450579500
I0817 16:13:05.376356 17318 layer_factory.hpp:77] Creating layer post_FC_top_post_FC_0_split
I0817 16:13:05.376365 17318 net.cpp:100] Creating Layer post_FC_top_post_FC_0_split
I0817 16:13:05.376371 17318 net.cpp:434] post_FC_top_post_FC_0_split <- post_FC_top
I0817 16:13:05.376379 17318 net.cpp:408] post_FC_top_post_FC_0_split -> post_FC_top_post_FC_0_split_0
I0817 16:13:05.376394 17318 net.cpp:408] post_FC_top_post_FC_0_split -> post_FC_top_post_FC_0_split_1
I0817 16:13:05.376441 17318 net.cpp:150] Setting up post_FC_top_post_FC_0_split
I0817 16:13:05.376452 17318 net.cpp:157] Top shape: 125 100 (12500)
I0817 16:13:05.376459 17318 net.cpp:157] Top shape: 125 100 (12500)
I0817 16:13:05.376464 17318 net.cpp:165] Memory required for data: 1450679500
I0817 16:13:05.376469 17318 layer_factory.hpp:77] Creating layer accuracy
I0817 16:13:05.376515 17318 net.cpp:100] Creating Layer accuracy
I0817 16:13:05.376528 17318 net.cpp:434] accuracy <- post_FC_top_post_FC_0_split_0
I0817 16:13:05.376535 17318 net.cpp:434] accuracy <- label_dataLayer_1_split_0
I0817 16:13:05.376543 17318 net.cpp:408] accuracy -> accuracy
…
