…
I1212 06:17:18.545914 20613 net.cpp:322] The NetState phase (0) differed from the phase (1) specified by a rule in layer L3_b9_cbr2_bn
I1212 06:17:18.547739 20613 net.cpp:58] Initializing net from parameters: 
name: "Cifar-Resnet"
state {
  phase: TRAIN
  level: 0
  stage: ""
}
layer {
  name: "dataLayer"
  type: "Data"
  top: "data_top"
  top: "label"
  include {
    phase: TRAIN
  }
  transform_param {
    mirror: true
    crop_size: 32
    mean_file: "examples/cifar10/mean.binaryproto"
  }
  data_param {
    source: "examples/cifar10/cifar10_train_lmdb"
    batch_size: 125
    backend: LMDB
  }
  image_data_param {
    shuffle: true
  }
}
layer {
  name: "pre_conv"
  type: "Convolution"
  bottom: "data_top"
  top: "pre_conv_top"
  param {
    lr_mult: 1
    decay_mult: 1
  }
  param {
    lr_mult: 2
    decay_mult: 0
  }
  convolution_param {
    num_output: 16
    pad: 1
    kernel_size: 3
    stride: 1
    weight_filler {
      type: "msra"
    }
    bias_filler {
      type: "constant"
    }
  }
}
layer {
  name: "pre_bn"
  type: "BatchNorm"
  bottom: "pre_conv_top"
  top: "pre_bn_top"
  include {
    phase: TRAIN
  }
  batch_norm_param {
    use_global_stats: false
    moving_average_fraction: 0.95
  }
}
layer {
  name: "pre_scale"
  type: "Scale"
  bottom: "pre_bn_top"
  top: "pre_bn_top"
  scale_param {
    bias_term: true
  }
}
layer {
  name: "pre_relu"
  type: "ReLU"
  bottom: "pre_bn_top"
  top: "pre_bn_top"
}
layer {
  name: "L1_b1_cbr1_conv"
  type: "Convolution"
  bottom: "pre_bn_top"
  top: "L1_b1_cbr1_conv_top"
  param {
    lr_mult: 1
    decay_mult: 1
  }
  param {
    lr_mult: 2
    decay_mult: 0
  }
  convolution_param {
    num_output: 16
    pad: 1
    kernel_size: 3
    stride: 1
    weight_filler {
      type: "msra"
    }
    bias_filler {
      type: "constant"
    }
  }
}
layer {
  name: "L1_b1_cbr1_bn"
  type: "BatchNorm"
  bottom: "L1_b1_cbr1_conv_top"
  top: "L1_b1_cbr1_bn_top"
  include {
    phase: TRAIN
  }
  batch_norm_param {
    use_global_stats: false
    moving_average_fraction: 0.95
  }
}
layer {
  name: "L1_b1_cbr1_scale"
  type: "Scale"
  bottom: "L1_b1_cbr1_bn_top"
  top: "L1_b1_cbr1_bn_top"
  scale_param {
    bias_term: true
  }
}
layer {
  name: "L1_b1_cbr1_relu"
  type: "ReLU"
  bottom: "L1_b1_cbr1_bn_top"
  top: "L1_b1_cbr1_bn_top"
}
layer {
  name: "L1_b1_cbr2_conv"
  type: "Convolution"
  bottom: "L1_b1_cbr1_bn_top"
  top: "L1_b1_cbr2_conv_top"
  param {
    lr_mult: 1
    decay_mult: 1
  }
  param {
    lr_mult: 2
    decay_mult: 0
  }
  convolution_param {
    num_output: 16
    pad: 1
    kernel_size: 3
    stride: 1
    weight_filler {
      type: "msra"
    }
    bias_filler {
      type: "constant"
    }
  }
}
layer {
  name: "L1_b1_cbr2_bn"
  type: "BatchNorm"
  bottom: "L1_b1_cbr2_conv_top"
  top: "L1_b1_cbr2_bn_top"
  include {
    phase: TRAIN
  }
  batch_norm_param {
    use_global_stats: false
    moving_average_fraction: 0.95
  }
}
layer {
  name: "L1_b1_cbr2_scale"
  type: "Scale"
  bottom: "L1_b1_cbr2_bn_top"
  top: "L1_b1_cbr2_bn_top"
  scale_param {
    bias_term: true
  }
}
layer {
  name: "L1_b1_sum_eltwise"
  type: "Eltwise"
  bottom: "L1_b1_cbr2_bn_top"
  bottom: "pre_bn_top"
  top: "L1_b1_sum_eltwise_top"
  eltwise_param {
    operation: SUM
  }
}
layer {
  name: "L1_b1_relu"
  type: "ReLU"
  bottom: "L1_b1_sum_eltwise_top"
  top: "L1_b1_sum_eltwise_top"
}
layer {
  name: "L1_b2_cbr1_conv"
  type: "Convolution"
  bottom: "L1_b1_sum_eltwise_top"
  top: "L1_b2_cbr1_conv_top"
  param {
    lr_mult: 1
    decay_mult: 1
  }
  param {
    lr_mult: 2
    decay_mult: 0
  }
  convolution_param {
    num_output: 16
    pad: 1
    kernel_size: 3
    stride: 1
    weight_filler {
      type: "msra"
    }
    bias_filler {
      type: "constant"
    }
  }
}
layer {
  name: "L1_b2_cbr1_bn"
  type: "BatchNorm"
  bottom: "L1_b2_cbr1_conv_top"
  top: "L1_b2_cbr1_bn_top"
  include {
    phase: TRAIN
  }
  batch_norm_param {
    use_global_stats: false
    moving_average_fraction: 0.95
  }
}
layer {
  name: "L1_b2_cbr1_scale"
  type: "Scale"
  bottom: "L1_b2_cbr1_bn_top"
  top: "L1_b2_cbr1_bn_top"
  scale_param {
    bias_term: true
  }
}
layer {
  name: "L1_b2_cbr1_relu"
  type: "ReLU"
  bottom: "L1_b2_cbr1_bn_top"
  top: "L1_b2_cbr1_bn_top"
}
layer {
  name: "L1_b2_cbr2_conv"
  type: "Convolution"
  bottom: "L1_b2_cbr1_bn_top"
  top: "L1_b2_cbr2_conv_top"
  param {
    lr_mult: 1
    decay_mult: 1
  }
  param {
    lr_mult: 2
    decay_mult: 0
  }
  convolution_param {
    num_output: 16
    pad: 1
    kernel_size: 3
    stride: 1
    weight_filler {
      type: "msra"
    }
    bias_filler {
      type: "constant"
    }
  }
}
layer {
  name: "L1_b2_cbr2_bn"
  type: "BatchNorm"
  bottom: "L1_b2_cbr2_conv_top"
  top: "L1_b2_cbr2_bn_top"
  include {
    phase: TRAIN
  }
  batch_norm_param {
    use_global_stats: false
    moving_average_fraction: 0.95
  }
}
layer {
  name: "L1_b2_cbr2_scale"
  type: "Scale"
  bottom: "L1_b2_cbr2_bn_top"
  top: "L1_b2_cbr2_bn_top"
  scale_param {
    bias_term: true
  }
}
layer {
  name: "L1_b2_sum_eltwise"
  type: "Eltwise"
  bottom: "L1_b2_cbr2_bn_top"
  bottom: "L1_b1_sum_eltwise_top"
  top: "L1_b2_sum_eltwise_top"
  eltwise_param {
    operation: SUM
  }
}
layer {
  name: "L1_b2_relu"
  type: "ReLU"
  bottom: "L1_b2_sum_eltwise_top"
  top: "L1_b2_sum_eltwise_top"
}
layer {
  name: "L1_b3_cbr1_conv"
  type: "Convolution"
  bottom: "L1_b2_sum_eltwise_top"
  top: "L1_b3_cbr1_conv_top"
  param {
    lr_mult: 1
    decay_mult: 1
  }
  param {
    lr_mult: 2
    decay_mult: 0
  }
  convolution_param {
    num_output: 16
    pad: 1
    kernel_size: 3
    stride: 1
    weight_filler {
      type: "msra"
    }
    bias_filler {
      type: "constant"
    }
  }
}
layer {
  name: "L1_b3_cbr1_bn"
  type: "BatchNorm"
  bottom: "L1_b3_cbr1_conv_top"
  top: "L1_b3_cbr1_bn_top"
  include {
    phase: TRAIN
  }
  batch_norm_param {
    use_global_stats: false
    moving_average_fraction: 0.95
  }
}
layer {
  name: "L1_b3_cbr1_scale"
  type: "Scale"
  bottom: "L1_b3_cbr1_bn_top"
  top: "L1_b3_cbr1_bn_top"
  scale_param {
    bias_term: true
  }
}
layer {
  name: "L1_b3_cbr1_relu"
  type: "ReLU"
  bottom: "L1_b3_cbr1_bn_top"
  top: "L1_b3_cbr1_bn_top"
}
layer {
  name: "L1_b3_cbr2_conv"
  type: "Convolution"
  bottom: "L1_b3_cbr1_bn_top"
  top: "L1_b3_cbr2_conv_top"
  param {
    lr_mult: 1
    decay_mult: 1
  }
  param {
    lr_mult: 2
    decay_mult: 0
  }
  convolution_param {
    num_output: 16
    pad: 1
    kernel_size: 3
    stride: 1
    weight_filler {
      type: "msra"
    }
    bias_filler {
      type: "constant"
    }
  }
}
layer {
  name: "L1_b3_cbr2_bn"
  type: "BatchNorm"
  bottom: "L1_b3_cbr2_conv_top"
  top: "L1_b3_cbr2_bn_top"
  include {
    phase: TRAIN
  }
  batch_norm_param {
    use_global_stats: false
    moving_average_fraction: 0.95
  }
}
layer {
  name: "L1_b3_cbr2_scale"
  type: "Scale"
  bottom: "L1_b3_cbr2_bn_top"
  top: "L1_b3_cbr2_bn_top"
  scale_param {
    bias_term: true
  }
}
layer {
  name: "L1_b3_sum_eltwise"
  type: "Eltwise"
  bottom: "L1_b3_cbr2_bn_top"
  bottom: "L1_b2_sum_eltwise_top"
  top: "L1_b3_sum_eltwise_top"
  eltwise_param {
    operation: SUM
  }
}
layer {
  name: "L1_b3_relu"
  type: "ReLU"
  bottom: "L1_b3_sum_eltwise_top"
  top: "L1_b3_sum_eltwise_top"
}
layer {
  name: "L1_b4_cbr1_conv"
  type: "Convolution"
  bottom: "L1_b3_sum_eltwise_top"
  top: "L1_b4_cbr1_conv_top"
  param {
    lr_mult: 1
    decay_mult: 1
  }
  param {
    lr_mult: 2
    decay_mult: 0
  }
  convolution_param {
    num_output: 16
    pad: 1
    kernel_size: 3
    stride: 1
    weight_filler {
      type: "msra"
    }
    bias_filler {
      type: "constant"
    }
  }
}
layer {
  name: "L1_b4_cbr1_bn"
  type: "BatchNorm"
  bottom: "L1_b4_cbr1_conv_top"
  top: "L1_b4_cbr1_bn_top"
  include {
    phase: TRAIN
  }
  batch_norm_param {
    use_global_stats: false
    moving_average_fraction: 0.95
  }
}
layer {
  name: "L1_b4_cbr1_scale"
  type: "Scale"
  bottom: "L1_b4_cbr1_bn_top"
  top: "L1_b4_cbr1_bn_top"
  scale_param {
    bias_term: true
  }
}
layer {
  name: "L1_b4_cbr1_relu"
  type: "ReLU"
  bottom: "L1_b4_cbr1_bn_top"
  top: "L1_b4_cbr1_bn_top"
}
layer {
  name: "L1_b4_cbr2_conv"
  type: "Convolution"
  bottom: "L1_b4_cbr1_bn_top"
  top: "L1_b4_cbr2_conv_top"
  param {
    lr_mult: 1
    decay_mult: 1
  }
  param {
    lr_mult: 2
    decay_mult: 0
  }
  convolution_param {
    num_output: 16
    pad: 1
    kernel_size: 3
    stride: 1
    weight_filler {
      type: "msra"
    }
    bias_filler {
      type: "constant"
    }
  }
}
layer {
  name: "L1_b4_cbr2_bn"
  type: "BatchNorm"
  bottom: "L1_b4_cbr2_conv_top"
  top: "L1_b4_cbr2_bn_top"
  include {
    phase: TRAIN
  }
  batch_norm_param {
    use_global_stats: false
    moving_average_fraction: 0.95
  }
}
layer {
  name: "L1_b4_cbr2_scale"
  type: "Scale"
  bottom: "L1_b4_cbr2_bn_top"
  top: "L1_b4_cbr2_bn_top"
  scale_param {
    bias_term: true
  }
}
layer {
  name: "L1_b4_sum_eltwise"
  type: "Eltwise"
  bottom: "L1_b4_cbr2_bn_top"
  bottom: "L1_b3_sum_eltwise_top"
  top: "L1_b4_sum_eltwise_top"
  eltwise_param {
    operation: SUM
  }
}
layer {
  name: "L1_b4_relu"
  type: "ReLU"
  bottom: "L1_b4_sum_eltwise_top"
  top: "L1_b4_sum_eltwise_top"
}
layer {
  name: "L1_b5_cbr1_conv"
  type: "Convolution"
  bottom: "L1_b4_sum_eltwise_top"
  top: "L1_b5_cbr1_conv_top"
  param {
    lr_mult: 1
    decay_mult: 1
  }
  param {
    lr_mult: 2
    decay_mult: 0
  }
  convolution_param {
    num_output: 16
    pad: 1
    kernel_size: 3
    stride: 1
    weight_filler {
      type: "msra"
    }
    bias_filler {
      type: "constant"
    }
  }
}
layer {
  name: "L1_b5_cbr1_bn"
  type: "BatchNorm"
  bottom: "L1_b5_cbr1_conv_top"
  top: "L1_b5_cbr1_bn_top"
  include {
    phase: TRAIN
  }
  batch_norm_param {
    use_global_stats: false
    moving_average_fraction: 0.95
  }
}
layer {
  name: "L1_b5_cbr1_scale"
  type: "Scale"
  bottom: "L1_b5_cbr1_bn_top"
  top: "L1_b5_cbr1_bn_top"
  scale_param {
    bias_term: true
  }
}
layer {
  name: "L1_b5_cbr1_relu"
  type: "ReLU"
  bottom: "L1_b5_cbr1_bn_top"
  top: "L1_b5_cbr1_bn_top"
}
layer {
  name: "L1_b5_cbr2_conv"
  type: "Convolution"
  bottom: "L1_b5_cbr1_bn_top"
  top: "L1_b5_cbr2_conv_top"
  param {
    lr_mult: 1
    decay_mult: 1
  }
  param {
    lr_mult: 2
    decay_mult: 0
  }
  convolution_param {
    num_output: 16
    pad: 1
    kernel_size: 3
    stride: 1
    weight_filler {
      type: "msra"
    }
    bias_filler {
      type: "constant"
    }
  }
}
layer {
  name: "L1_b5_cbr2_bn"
  type: "BatchNorm"
  bottom: "L1_b5_cbr2_conv_top"
  top: "L1_b5_cbr2_bn_top"
  include {
    phase: TRAIN
  }
  batch_norm_param {
    use_global_stats: false
    moving_average_fraction: 0.95
  }
}
layer {
  name: "L1_b5_cbr2_scale"
  type: "Scale"
  bottom: "L1_b5_cbr2_bn_top"
  top: "L1_b5_cbr2_bn_top"
  scale_param {
    bias_term: true
  }
}
layer {
  name: "L1_b5_sum_eltwise"
  type: "Eltwise"
  bottom: "L1_b5_cbr2_bn_top"
  bottom: "L1_b4_sum_eltwise_top"
  top: "L1_b5_sum_eltwise_top"
  eltwise_param {
    operation: SUM
  }
}
layer {
  name: "L1_b5_relu"
  type: "ReLU"
  bottom: "L1_b5_sum_eltwise_top"
  top: "L1_b5_sum_eltwise_top"
}
layer {
  name: "L1_b6_cbr1_conv"
  type: "Convolution"
  bottom: "L1_b5_sum_eltwise_top"
  top: "L1_b6_cbr1_conv_top"
  param {
    lr_mult: 1
    decay_mult: 1
  }
  param {
    lr_mult: 2
    decay_mult: 0
  }
  convolution_param {
    num_output: 16
    pad: 1
    kernel_size: 3
    stride: 1
    weight_filler {
      type: "msra"
    }
    bias_filler {
      type: "constant"
    }
  }
}
layer {
  name: "L1_b6_cbr1_bn"
  type: "BatchNorm"
  bottom: "L1_b6_cbr1_conv_top"
  top: "L1_b6_cbr1_bn_top"
  include {
    phase: TRAIN
  }
  batch_norm_param {
    use_global_stats: false
    moving_average_fraction: 0.95
  }
}
layer {
  name: "L1_b6_cbr1_scale"
  type: "Scale"
  bottom: "L1_b6_cbr1_bn_top"
  top: "L1_b6_cbr1_bn_top"
  scale_param {
    bias_term: true
  }
}
layer {
  name: "L1_b6_cbr1_relu"
  type: "ReLU"
  bottom: "L1_b6_cbr1_bn_top"
  top: "L1_b6_cbr1_bn_top"
}
layer {
  name: "L1_b6_cbr2_conv"
  type: "Convolution"
  bottom: "L1_b6_cbr1_bn_top"
  top: "L1_b6_cbr2_conv_top"
  param {
    lr_mult: 1
    decay_mult: 1
  }
  param {
    lr_mult: 2
    decay_mult: 0
  }
  convolution_param {
    num_output: 16
    pad: 1
    kernel_size: 3
    stride: 1
    weight_filler {
      type: "msra"
    }
    bias_filler {
      type: "constant"
    }
  }
}
layer {
  name: "L1_b6_cbr2_bn"
  type: "BatchNorm"
  bottom: "L1_b6_cbr2_conv_top"
  top: "L1_b6_cbr2_bn_top"
  include {
    phase: TRAIN
  }
  batch_norm_param {
    use_global_stats: false
    moving_average_fraction: 0.95
  }
}
layer {
  name: "L1_b6_cbr2_scale"
  type: "Scale"
  bottom: "L1_b6_cbr2_bn_top"
  top: "L1_b6_cbr2_bn_top"
  scale_param {
    bias_term: true
  }
}
layer {
  name: "L1_b6_sum_eltwise"
  type: "Eltwise"
  bottom: "L1_b6_cbr2_bn_top"
  bottom: "L1_b5_sum_eltwise_top"
  top: "L1_b6_sum_eltwise_top"
  eltwise_param {
    operation: SUM
  }
}
layer {
  name: "L1_b6_relu"
  type: "ReLU"
  bottom: "L1_b6_sum_eltwise_top"
  top: "L1_b6_sum_eltwise_top"
}
layer {
  name: "L1_b7_cbr1_conv"
  type: "Convolution"
  bottom: "L1_b6_sum_eltwise_top"
  top: "L1_b7_cbr1_conv_top"
  param {
    lr_mult: 1
    decay_mult: 1
  }
  param {
    lr_mult: 2
    decay_mult: 0
  }
  convolution_param {
    num_output: 16
    pad: 1
    kernel_size: 3
    stride: 1
    weight_filler {
      type: "msra"
    }
    bias_filler {
      type: "constant"
    }
  }
}
layer {
  name: "L1_b7_cbr1_bn"
  type: "BatchNorm"
  bottom: "L1_b7_cbr1_conv_top"
  top: "L1_b7_cbr1_bn_top"
  include {
    phase: TRAIN
  }
  batch_norm_param {
    use_global_stats: false
    moving_average_fraction: 0.95
  }
}
layer {
  name: "L1_b7_cbr1_scale"
  type: "Scale"
  bottom: "L1_b7_cbr1_bn_top"
  top: "L1_b7_cbr1_bn_top"
  scale_param {
    bias_term: true
  }
}
layer {
  name: "L1_b7_cbr1_relu"
  type: "ReLU"
  bottom: "L1_b7_cbr1_bn_top"
  top: "L1_b7_cbr1_bn_top"
}
layer {
  name: "L1_b7_cbr2_conv"
  type: "Convolution"
  bottom: "L1_b7_cbr1_bn_top"
  top: "L1_b7_cbr2_conv_top"
  param {
    lr_mult: 1
    decay_mult: 1
  }
  param {
    lr_mult: 2
    decay_mult: 0
  }
  convolution_param {
    num_output: 16
    pad: 1
    kernel_size: 3
    stride: 1
    weight_filler {
      type: "msra"
    }
    bias_filler {
      type: "constant"
    }
  }
}
layer {
  name: "L1_b7_cbr2_bn"
  type: "BatchNorm"
  bottom: "L1_b7_cbr2_conv_top"
  top: "L1_b7_cbr2_bn_top"
  include {
    phase: TRAIN
  }
  batch_norm_param {
    use_global_stats: false
    moving_average_fraction: 0.95
  }
}
layer {
  name: "L1_b7_cbr2_scale"
  type: "Scale"
  bottom: "L1_b7_cbr2_bn_top"
  top: "L1_b7_cbr2_bn_top"
  scale_param {
    bias_term: true
  }
}
layer {
  name: "L1_b7_sum_eltwise"
  type: "Eltwise"
  bottom: "L1_b7_cbr2_bn_top"
  bottom: "L1_b6_sum_eltwise_top"
  top: "L1_b7_sum_eltwise_top"
  eltwise_param {
    operation: SUM
  }
}
layer {
  name: "L1_b7_relu"
  type: "ReLU"
  bottom: "L1_b7_sum_eltwise_top"
  top: "L1_b7_sum_eltwise_top"
}
layer {
  name: "L1_b8_cbr1_conv"
  type: "Convolution"
  bottom: "L1_b7_sum_eltwise_top"
  top: "L1_b8_cbr1_conv_top"
  param {
    lr_mult: 1
    decay_mult: 1
  }
  param {
    lr_mult: 2
    decay_mult: 0
  }
  convolution_param {
    num_output: 16
    pad: 1
    kernel_size: 3
    stride: 1
    weight_filler {
      type: "msra"
    }
    bias_filler {
      type: "constant"
    }
  }
}
layer {
  name: "L1_b8_cbr1_bn"
  type: "BatchNorm"
  bottom: "L1_b8_cbr1_conv_top"
  top: "L1_b8_cbr1_bn_top"
  include {
    phase: TRAIN
  }
  batch_norm_param {
    use_global_stats: false
    moving_average_fraction: 0.95
  }
}
layer {
  name: "L1_b8_cbr1_scale"
  type: "Scale"
  bottom: "L1_b8_cbr1_bn_top"
  top: "L1_b8_cbr1_bn_top"
  scale_param {
    bias_term: true
  }
}
layer {
  name: "L1_b8_cbr1_relu"
  type: "ReLU"
  bottom: "L1_b8_cbr1_bn_top"
  top: "L1_b8_cbr1_bn_top"
}
layer {
  name: "L1_b8_cbr2_conv"
  type: "Convolution"
  bottom: "L1_b8_cbr1_bn_top"
  top: "L1_b8_cbr2_conv_top"
  param {
    lr_mult: 1
    decay_mult: 1
  }
  param {
    lr_mult: 2
    decay_mult: 0
  }
  convolution_param {
    num_output: 16
    pad: 1
    kernel_size: 3
    stride: 1
    weight_filler {
      type: "msra"
    }
    bias_filler {
      type: "constant"
    }
  }
}
layer {
  name: "L1_b8_cbr2_bn"
  type: "BatchNorm"
  bottom: "L1_b8_cbr2_conv_top"
  top: "L1_b8_cbr2_bn_top"
  include {
    phase: TRAIN
  }
  batch_norm_param {
    use_global_stats: false
    moving_average_fraction: 0.95
  }
}
layer {
  name: "L1_b8_cbr2_scale"
  type: "Scale"
  bottom: "L1_b8_cbr2_bn_top"
  top: "L1_b8_cbr2_bn_top"
  scale_param {
    bias_term: true
  }
}
layer {
  name: "L1_b8_sum_eltwise"
  type: "Eltwise"
  bottom: "L1_b8_cbr2_bn_top"
  bottom: "L1_b7_sum_eltwise_top"
  top: "L1_b8_sum_eltwise_top"
  eltwise_param {
    operation: SUM
  }
}
layer {
  name: "L1_b8_relu"
  type: "ReLU"
  bottom: "L1_b8_sum_eltwise_top"
  top: "L1_b8_sum_eltwise_top"
}
layer {
  name: "L1_b9_cbr1_conv"
  type: "Convolution"
  bottom: "L1_b8_sum_eltwise_top"
  top: "L1_b9_cbr1_conv_top"
  param {
    lr_mult: 1
    decay_mult: 1
  }
  param {
    lr_mult: 2
    decay_mult: 0
  }
  convolution_param {
    num_output: 16
    pad: 1
    kernel_size: 3
    stride: 1
    weight_filler {
      type: "msra"
    }
    bias_filler {
      type: "constant"
    }
  }
}
layer {
  name: "L1_b9_cbr1_bn"
  type: "BatchNorm"
  bottom: "L1_b9_cbr1_conv_top"
  top: "L1_b9_cbr1_bn_top"
  include {
    phase: TRAIN
  }
  batch_norm_param {
    use_global_stats: false
    moving_average_fraction: 0.95
  }
}
layer {
  name: "L1_b9_cbr1_scale"
  type: "Scale"
  bottom: "L1_b9_cbr1_bn_top"
  top: "L1_b9_cbr1_bn_top"
  scale_param {
    bias_term: true
  }
}
layer {
  name: "L1_b9_cbr1_relu"
  type: "ReLU"
  bottom: "L1_b9_cbr1_bn_top"
  top: "L1_b9_cbr1_bn_top"
}
layer {
  name: "L1_b9_cbr2_conv"
  type: "Convolution"
  bottom: "L1_b9_cbr1_bn_top"
  top: "L1_b9_cbr2_conv_top"
  param {
    lr_mult: 1
    decay_mult: 1
  }
  param {
    lr_mult: 2
    decay_mult: 0
  }
  convolution_param {
    num_output: 16
    pad: 1
    kernel_size: 3
    stride: 1
    weight_filler {
      type: "msra"
    }
    bias_filler {
      type: "constant"
    }
  }
}
layer {
  name: "L1_b9_cbr2_bn"
  type: "BatchNorm"
  bottom: "L1_b9_cbr2_conv_top"
  top: "L1_b9_cbr2_bn_top"
  include {
    phase: TRAIN
  }
  batch_norm_param {
    use_global_stats: false
    moving_average_fraction: 0.95
  }
}
layer {
  name: "L1_b9_cbr2_scale"
  type: "Scale"
  bottom: "L1_b9_cbr2_bn_top"
  top: "L1_b9_cbr2_bn_top"
  scale_param {
    bias_term: true
  }
}
layer {
  name: "L1_b9_sum_eltwise"
  type: "Eltwise"
  bottom: "L1_b9_cbr2_bn_top"
  bottom: "L1_b8_sum_eltwise_top"
  top: "L1_b9_sum_eltwise_top"
  eltwise_param {
    operation: SUM
  }
}
layer {
  name: "L1_b9_relu"
  type: "ReLU"
  bottom: "L1_b9_sum_eltwise_top"
  top: "L1_b9_sum_eltwise_top"
}
layer {
  name: "L2_b1_cbr1_conv"
  type: "Convolution"
  bottom: "L1_b9_sum_eltwise_top"
  top: "L2_b1_cbr1_conv_top"
  param {
    lr_mult: 1
    decay_mult: 1
  }
  param {
    lr_mult: 2
    decay_mult: 0
  }
  convolution_param {
    num_output: 16
    pad: 1
    kernel_size: 3
    stride: 2
    weight_filler {
      type: "msra"
    }
    bias_filler {
      type: "constant"
    }
  }
}
layer {
  name: "L2_b1_cbr1_bn"
  type: "BatchNorm"
  bottom: "L2_b1_cbr1_conv_top"
  top: "L2_b1_cbr1_bn_top"
  include {
    phase: TRAIN
  }
  batch_norm_param {
    use_global_stats: false
    moving_average_fraction: 0.95
  }
}
layer {
  name: "L2_b1_cbr1_scale"
  type: "Scale"
  bottom: "L2_b1_cbr1_bn_top"
  top: "L2_b1_cbr1_bn_top"
  scale_param {
    bias_term: true
  }
}
layer {
  name: "L2_b1_cbr1_relu"
  type: "ReLU"
  bottom: "L2_b1_cbr1_bn_top"
  top: "L2_b1_cbr1_bn_top"
}
layer {
  name: "L2_b1_cbr2_conv"
  type: "Convolution"
  bottom: "L2_b1_cbr1_bn_top"
  top: "L2_b1_cbr2_conv_top"
  param {
    lr_mult: 1
    decay_mult: 1
  }
  param {
    lr_mult: 2
    decay_mult: 0
  }
  convolution_param {
    num_output: 16
    pad: 1
    kernel_size: 3
    stride: 1
    weight_filler {
      type: "msra"
    }
    bias_filler {
      type: "constant"
    }
  }
}
layer {
  name: "L2_b1_cbr2_bn"
  type: "BatchNorm"
  bottom: "L2_b1_cbr2_conv_top"
  top: "L2_b1_cbr2_bn_top"
  include {
    phase: TRAIN
  }
  batch_norm_param {
    use_global_stats: false
    moving_average_fraction: 0.95
  }
}
layer {
  name: "L2_b1_cbr2_scale"
  type: "Scale"
  bottom: "L2_b1_cbr2_bn_top"
  top: "L2_b1_cbr2_bn_top"
  scale_param {
    bias_term: true
  }
}
layer {
  name: "L2_b1_pool"
  type: "Pooling"
  bottom: "L1_b9_sum_eltwise_top"
  top: "L2_b1_pool"
  pooling_param {
    pool: AVE
    kernel_size: 3
    stride: 2
  }
}
layer {
  name: "L2_b1_sum_eltwise"
  type: "Eltwise"
  bottom: "L2_b1_cbr2_bn_top"
  bottom: "L2_b1_pool"
  top: "L2_b1_sum_eltwise_top"
  eltwise_param {
    operation: SUM
  }
}
layer {
  name: "L2_b1_relu"
  type: "ReLU"
  bottom: "L2_b1_sum_eltwise_top"
  top: "L2_b1_sum_eltwise_top"
}
layer {
  name: "L2_b1_zeros"
  type: "DummyData"
  top: "L2_b1_zeros"
  dummy_data_param {
    data_filler {
      type: "constant"
      value: 0
    }
    shape {
      dim: 125
      dim: 16
      dim: 16
      dim: 16
    }
  }
}
layer {
  name: "L2_b1_concat0"
  type: "Concat"
  bottom: "L2_b1_sum_eltwise_top"
  bottom: "L2_b1_zeros"
  top: "L2_b1_concat0"
  concat_param {
    axis: 1
  }
}
layer {
  name: "L2_b2_cbr1_conv"
  type: "Convolution"
  bottom: "L2_b1_concat0"
  top: "L2_b2_cbr1_conv_top"
  param {
    lr_mult: 1
    decay_mult: 1
  }
  param {
    lr_mult: 2
    decay_mult: 0
  }
  convolution_param {
    num_output: 32
    pad: 1
    kernel_size: 3
    stride: 1
    weight_filler {
      type: "msra"
    }
    bias_filler {
      type: "constant"
    }
  }
}
layer {
  name: "L2_b2_cbr1_bn"
  type: "BatchNorm"
  bottom: "L2_b2_cbr1_conv_top"
  top: "L2_b2_cbr1_bn_top"
  include {
    phase: TRAIN
  }
  batch_norm_param {
    use_global_stats: false
    moving_average_fraction: 0.95
  }
}
layer {
  name: "L2_b2_cbr1_scale"
  type: "Scale"
  bottom: "L2_b2_cbr1_bn_top"
  top: "L2_b2_cbr1_bn_top"
  scale_param {
    bias_term: true
  }
}
layer {
  name: "L2_b2_cbr1_relu"
  type: "ReLU"
  bottom: "L2_b2_cbr1_bn_top"
  top: "L2_b2_cbr1_bn_top"
}
layer {
  name: "L2_b2_cbr2_conv"
  type: "Convolution"
  bottom: "L2_b2_cbr1_bn_top"
  top: "L2_b2_cbr2_conv_top"
  param {
    lr_mult: 1
    decay_mult: 1
  }
  param {
    lr_mult: 2
    decay_mult: 0
  }
  convolution_param {
    num_output: 32
    pad: 1
    kernel_size: 3
    stride: 1
    weight_filler {
      type: "msra"
    }
    bias_filler {
      type: "constant"
    }
  }
}
layer {
  name: "L2_b2_cbr2_bn"
  type: "BatchNorm"
  bottom: "L2_b2_cbr2_conv_top"
  top: "L2_b2_cbr2_bn_top"
  include {
    phase: TRAIN
  }
  batch_norm_param {
    use_global_stats: false
    moving_average_fraction: 0.95
  }
}
layer {
  name: "L2_b2_cbr2_scale"
  type: "Scale"
  bottom: "L2_b2_cbr2_bn_top"
  top: "L2_b2_cbr2_bn_top"
  scale_param {
    bias_term: true
  }
}
layer {
  name: "L2_b2_sum_eltwise"
  type: "Eltwise"
  bottom: "L2_b2_cbr2_bn_top"
  bottom: "L2_b1_concat0"
  top: "L2_b2_sum_eltwise_top"
  eltwise_param {
    operation: SUM
  }
}
layer {
  name: "L2_b2_relu"
  type: "ReLU"
  bottom: "L2_b2_sum_eltwise_top"
  top: "L2_b2_sum_eltwise_top"
}
layer {
  name: "L2_b3_cbr1_conv"
  type: "Convolution"
  bottom: "L2_b2_sum_eltwise_top"
  top: "L2_b3_cbr1_conv_top"
  param {
    lr_mult: 1
    decay_mult: 1
  }
  param {
    lr_mult: 2
    decay_mult: 0
  }
  convolution_param {
    num_output: 32
    pad: 1
    kernel_size: 3
    stride: 1
    weight_filler {
      type: "msra"
    }
    bias_filler {
      type: "constant"
    }
  }
}
layer {
  name: "L2_b3_cbr1_bn"
  type: "BatchNorm"
  bottom: "L2_b3_cbr1_conv_top"
  top: "L2_b3_cbr1_bn_top"
  include {
    phase: TRAIN
  }
  batch_norm_param {
    use_global_stats: false
    moving_average_fraction: 0.95
  }
}
layer {
  name: "L2_b3_cbr1_scale"
  type: "Scale"
  bottom: "L2_b3_cbr1_bn_top"
  top: "L2_b3_cbr1_bn_top"
  scale_param {
    bias_term: true
  }
}
layer {
  name: "L2_b3_cbr1_relu"
  type: "ReLU"
  bottom: "L2_b3_cbr1_bn_top"
  top: "L2_b3_cbr1_bn_top"
}
layer {
  name: "L2_b3_cbr2_conv"
  type: "Convolution"
  bottom: "L2_b3_cbr1_bn_top"
  top: "L2_b3_cbr2_conv_top"
  param {
    lr_mult: 1
    decay_mult: 1
  }
  param {
    lr_mult: 2
    decay_mult: 0
  }
  convolution_param {
    num_output: 32
    pad: 1
    kernel_size: 3
    stride: 1
    weight_filler {
      type: "msra"
    }
    bias_filler {
      type: "constant"
    }
  }
}
layer {
  name: "L2_b3_cbr2_bn"
  type: "BatchNorm"
  bottom: "L2_b3_cbr2_conv_top"
  top: "L2_b3_cbr2_bn_top"
  include {
    phase: TRAIN
  }
  batch_norm_param {
    use_global_stats: false
    moving_average_fraction: 0.95
  }
}
layer {
  name: "L2_b3_cbr2_scale"
  type: "Scale"
  bottom: "L2_b3_cbr2_bn_top"
  top: "L2_b3_cbr2_bn_top"
  scale_param {
    bias_term: true
  }
}
layer {
  name: "L2_b3_sum_eltwise"
  type: "Eltwise"
  bottom: "L2_b3_cbr2_bn_top"
  bottom: "L2_b2_sum_eltwise_top"
  top: "L2_b3_sum_eltwise_top"
  eltwise_param {
    operation: SUM
  }
}
layer {
  name: "L2_b3_relu"
  type: "ReLU"
  bottom: "L2_b3_sum_eltwise_top"
  top: "L2_b3_sum_eltwise_top"
}
layer {
  name: "L2_b4_cbr1_conv"
  type: "Convolution"
  bottom: "L2_b3_sum_eltwise_top"
  top: "L2_b4_cbr1_conv_top"
  param {
    lr_mult: 1
    decay_mult: 1
  }
  param {
    lr_mult: 2
    decay_mult: 0
  }
  convolution_param {
    num_output: 32
    pad: 1
    kernel_size: 3
    stride: 1
    weight_filler {
      type: "msra"
    }
    bias_filler {
      type: "constant"
    }
  }
}
layer {
  name: "L2_b4_cbr1_bn"
  type: "BatchNorm"
  bottom: "L2_b4_cbr1_conv_top"
  top: "L2_b4_cbr1_bn_top"
  include {
    phase: TRAIN
  }
  batch_norm_param {
    use_global_stats: false
    moving_average_fraction: 0.95
  }
}
layer {
  name: "L2_b4_cbr1_scale"
  type: "Scale"
  bottom: "L2_b4_cbr1_bn_top"
  top: "L2_b4_cbr1_bn_top"
  scale_param {
    bias_term: true
  }
}
layer {
  name: "L2_b4_cbr1_relu"
  type: "ReLU"
  bottom: "L2_b4_cbr1_bn_top"
  top: "L2_b4_cbr1_bn_top"
}
layer {
  name: "L2_b4_cbr2_conv"
  type: "Convolution"
  bottom: "L2_b4_cbr1_bn_top"
  top: "L2_b4_cbr2_conv_top"
  param {
    lr_mult: 1
    decay_mult: 1
  }
  param {
    lr_mult: 2
    decay_mult: 0
  }
  convolution_param {
    num_output: 32
    pad: 1
    kernel_size: 3
    stride: 1
    weight_filler {
      type: "msra"
    }
    bias_filler {
      type: "constant"
    }
  }
}
layer {
  name: "L2_b4_cbr2_bn"
  type: "BatchNorm"
  bottom: "L2_b4_cbr2_conv_top"
  top: "L2_b4_cbr2_bn_top"
  include {
    phase: TRAIN
  }
  batch_norm_param {
    use_global_stats: false
    moving_average_fraction: 0.95
  }
}
layer {
  name: "L2_b4_cbr2_scale"
  type: "Scale"
  bottom: "L2_b4_cbr2_bn_top"
  top: "L2_b4_cbr2_bn_top"
  scale_param {
    bias_term: true
  }
}
layer {
  name: "L2_b4_sum_eltwise"
  type: "Eltwise"
  bottom: "L2_b4_cbr2_bn_top"
  bottom: "L2_b3_sum_eltwise_top"
  top: "L2_b4_sum_eltwise_top"
  eltwise_param {
    operation: SUM
  }
}
layer {
  name: "L2_b4_relu"
  type: "ReLU"
  bottom: "L2_b4_sum_eltwise_top"
  top: "L2_b4_sum_eltwise_top"
}
layer {
  name: "L2_b5_cbr1_conv"
  type: "Convolution"
  bottom: "L2_b4_sum_eltwise_top"
  top: "L2_b5_cbr1_conv_top"
  param {
    lr_mult: 1
    decay_mult: 1
  }
  param {
    lr_mult: 2
    decay_mult: 0
  }
  convolution_param {
    num_output: 32
    pad: 1
    kernel_size: 3
    stride: 1
    weight_filler {
      type: "msra"
    }
    bias_filler {
      type: "constant"
    }
  }
}
layer {
  name: "L2_b5_cbr1_bn"
  type: "BatchNorm"
  bottom: "L2_b5_cbr1_conv_top"
  top: "L2_b5_cbr1_bn_top"
  include {
    phase: TRAIN
  }
  batch_norm_param {
    use_global_stats: false
    moving_average_fraction: 0.95
  }
}
layer {
  name: "L2_b5_cbr1_scale"
  type: "Scale"
  bottom: "L2_b5_cbr1_bn_top"
  top: "L2_b5_cbr1_bn_top"
  scale_param {
    bias_term: true
  }
}
layer {
  name: "L2_b5_cbr1_relu"
  type: "ReLU"
  bottom: "L2_b5_cbr1_bn_top"
  top: "L2_b5_cbr1_bn_top"
}
layer {
  name: "L2_b5_cbr2_conv"
  type: "Convolution"
  bottom: "L2_b5_cbr1_bn_top"
  top: "L2_b5_cbr2_conv_top"
  param {
    lr_mult: 1
    decay_mult: 1
  }
  param {
    lr_mult: 2
    decay_mult: 0
  }
  convolution_param {
    num_output: 32
    pad: 1
    kernel_size: 3
    stride: 1
    weight_filler {
      type: "msra"
    }
    bias_filler {
      type: "constant"
    }
  }
}
layer {
  name: "L2_b5_cbr2_bn"
  type: "BatchNorm"
  bottom: "L2_b5_cbr2_conv_top"
  top: "L2_b5_cbr2_bn_top"
  include {
    phase: TRAIN
  }
  batch_norm_param {
    use_global_stats: false
    moving_average_fraction: 0.95
  }
}
layer {
  name: "L2_b5_cbr2_scale"
  type: "Scale"
  bottom: "L2_b5_cbr2_bn_top"
  top: "L2_b5_cbr2_bn_top"
  scale_param {
    bias_term: true
  }
}
layer {
  name: "L2_b5_sum_eltwise"
  type: "Eltwise"
  bottom: "L2_b5_cbr2_bn_top"
  bottom: "L2_b4_sum_eltwise_top"
  top: "L2_b5_sum_eltwise_top"
  eltwise_param {
    operation: SUM
  }
}
layer {
  name: "L2_b5_relu"
  type: "ReLU"
  bottom: "L2_b5_sum_eltwise_top"
  top: "L2_b5_sum_eltwise_top"
}
layer {
  name: "L2_b6_cbr1_conv"
  type: "Convolution"
  bottom: "L2_b5_sum_eltwise_top"
  top: "L2_b6_cbr1_conv_top"
  param {
    lr_mult: 1
    decay_mult: 1
  }
  param {
    lr_mult: 2
    decay_mult: 0
  }
  convolution_param {
    num_output: 32
    pad: 1
    kernel_size: 3
    stride: 1
    weight_filler {
      type: "msra"
    }
    bias_filler {
      type: "constant"
    }
  }
}
layer {
  name: "L2_b6_cbr1_bn"
  type: "BatchNorm"
  bottom: "L2_b6_cbr1_conv_top"
  top: "L2_b6_cbr1_bn_top"
  include {
    phase: TRAIN
  }
  batch_norm_param {
    use_global_stats: false
    moving_average_fraction: 0.95
  }
}
layer {
  name: "L2_b6_c
I1212 06:17:18.549897 20613 layer_factory.hpp:77] Creating layer dataLayer
I1212 06:17:18.551095 20613 net.cpp:100] Creating Layer dataLayer
I1212 06:17:18.551131 20613 net.cpp:408] dataLayer -> data_top
I1212 06:17:18.551373 20613 net.cpp:408] dataLayer -> label
I1212 06:17:18.551482 20613 data_transformer.cpp:25] Loading mean file from: examples/cifar10/mean.binaryproto
I1212 06:17:18.753057 20619 db_lmdb.cpp:35] Opened lmdb examples/cifar10/cifar10_train_lmdb
I1212 06:17:18.849059 20613 data_layer.cpp:41] output data size: 125,3,32,32
I1212 06:17:18.856119 20613 net.cpp:150] Setting up dataLayer
I1212 06:17:18.856189 20613 net.cpp:157] Top shape: 125 3 32 32 (384000)
I1212 06:17:18.856201 20613 net.cpp:157] Top shape: 125 (125)
I1212 06:17:18.856207 20613 net.cpp:165] Memory required for data: 1536500
I1212 06:17:18.856225 20613 layer_factory.hpp:77] Creating layer label_dataLayer_1_split
I1212 06:17:18.856240 20613 net.cpp:100] Creating Layer label_dataLayer_1_split
I1212 06:17:18.856248 20613 net.cpp:434] label_dataLayer_1_split <- label
I1212 06:17:18.856271 20613 net.cpp:408] label_dataLayer_1_split -> label_dataLayer_1_split_0
I1212 06:17:18.856287 20613 net.cpp:408] label_dataLayer_1_split -> label_dataLayer_1_split_1
I1212 06:17:18.856361 20613 net.cpp:150] Setting up label_dataLayer_1_split
I1212 06:17:18.856377 20613 net.cpp:157] Top shape: 125 (125)
I1212 06:17:18.856384 20613 net.cpp:157] Top shape: 125 (125)
I1212 06:17:18.856389 20613 net.cpp:165] Memory required for data: 1537500
I1212 06:17:18.856395 20613 layer_factory.hpp:77] Creating layer pre_conv
I1212 06:17:18.856423 20613 net.cpp:100] Creating Layer pre_conv
I1212 06:17:18.856431 20613 net.cpp:434] pre_conv <- data_top
I1212 06:17:18.856441 20613 net.cpp:408] pre_conv -> pre_conv_top
I1212 06:17:18.858188 20613 net.cpp:150] Setting up pre_conv
I1212 06:17:18.858209 20613 net.cpp:157] Top shape: 125 16 32 32 (2048000)
I1212 06:17:18.858216 20613 net.cpp:165] Memory required for data: 9729500
I1212 06:17:18.858336 20613 layer_factory.hpp:77] Creating layer pre_bn
I1212 06:17:18.858394 20613 net.cpp:100] Creating Layer pre_bn
I1212 06:17:18.858410 20613 net.cpp:434] pre_bn <- pre_conv_top
I1212 06:17:18.858420 20613 net.cpp:408] pre_bn -> pre_bn_top
I1212 06:17:18.858994 20613 net.cpp:150] Setting up pre_bn
I1212 06:17:18.859011 20613 net.cpp:157] Top shape: 125 16 32 32 (2048000)
I1212 06:17:18.859017 20613 net.cpp:165] Memory required for data: 17921500
I1212 06:17:18.859035 20613 layer_factory.hpp:77] Creating layer pre_scale
I1212 06:17:18.859094 20613 net.cpp:100] Creating Layer pre_scale
I1212 06:17:18.859105 20613 net.cpp:434] pre_scale <- pre_bn_top
I1212 06:17:18.859117 20613 net.cpp:395] pre_scale -> pre_bn_top (in-place)
I1212 06:17:18.859432 20613 layer_factory.hpp:77] Creating layer pre_scale
I1212 06:17:18.867813 20613 net.cpp:150] Setting up pre_scale
I1212 06:17:18.867836 20613 net.cpp:157] Top shape: 125 16 32 32 (2048000)
I1212 06:17:18.867842 20613 net.cpp:165] Memory required for data: 26113500
I1212 06:17:18.867854 20613 layer_factory.hpp:77] Creating layer pre_relu
I1212 06:17:18.867908 20613 net.cpp:100] Creating Layer pre_relu
I1212 06:17:18.867919 20613 net.cpp:434] pre_relu <- pre_bn_top
I1212 06:17:18.867928 20613 net.cpp:395] pre_relu -> pre_bn_top (in-place)
I1212 06:17:18.867940 20613 net.cpp:150] Setting up pre_relu
I1212 06:17:18.867949 20613 net.cpp:157] Top shape: 125 16 32 32 (2048000)
I1212 06:17:18.867954 20613 net.cpp:165] Memory required for data: 34305500
I1212 06:17:18.867959 20613 layer_factory.hpp:77] Creating layer pre_bn_top_pre_relu_0_split
I1212 06:17:18.867969 20613 net.cpp:100] Creating Layer pre_bn_top_pre_relu_0_split
I1212 06:17:18.867975 20613 net.cpp:434] pre_bn_top_pre_relu_0_split <- pre_bn_top
I1212 06:17:18.867983 20613 net.cpp:408] pre_bn_top_pre_relu_0_split -> pre_bn_top_pre_relu_0_split_0
I1212 06:17:18.867997 20613 net.cpp:408] pre_bn_top_pre_relu_0_split -> pre_bn_top_pre_relu_0_split_1
I1212 06:17:18.868047 20613 net.cpp:150] Setting up pre_bn_top_pre_relu_0_split
I1212 06:17:18.868060 20613 net.cpp:157] Top shape: 125 16 32 32 (2048000)
I1212 06:17:18.868067 20613 net.cpp:157] Top shape: 125 16 32 32 (2048000)
I1212 06:17:18.868072 20613 net.cpp:165] Memory required for data: 50689500
I1212 06:17:18.868077 20613 layer_factory.hpp:77] Creating layer L1_b1_cbr1_conv
I1212 06:17:18.868089 20613 net.cpp:100] Creating Layer L1_b1_cbr1_conv
I1212 06:17:18.868095 20613 net.cpp:434] L1_b1_cbr1_conv <- pre_bn_top_pre_relu_0_split_0
I1212 06:17:18.868108 20613 net.cpp:408] L1_b1_cbr1_conv -> L1_b1_cbr1_conv_top
I1212 06:17:18.868420 20613 net.cpp:150] Setting up L1_b1_cbr1_conv
I1212 06:17:18.868434 20613 net.cpp:157] Top shape: 125 16 32 32 (2048000)
I1212 06:17:18.868439 20613 net.cpp:165] Memory required for data: 58881500
I1212 06:17:18.868453 20613 layer_factory.hpp:77] Creating layer L1_b1_cbr1_bn
I1212 06:17:18.868468 20613 net.cpp:100] Creating Layer L1_b1_cbr1_bn
I1212 06:17:18.868474 20613 net.cpp:434] L1_b1_cbr1_bn <- L1_b1_cbr1_conv_top
I1212 06:17:18.868484 20613 net.cpp:408] L1_b1_cbr1_bn -> L1_b1_cbr1_bn_top
I1212 06:17:18.868722 20613 net.cpp:150] Setting up L1_b1_cbr1_bn
I1212 06:17:18.868743 20613 net.cpp:157] Top shape: 125 16 32 32 (2048000)
I1212 06:17:18.868749 20613 net.cpp:165] Memory required for data: 67073500
I1212 06:17:18.868760 20613 layer_factory.hpp:77] Creating layer L1_b1_cbr1_scale
I1212 06:17:18.868769 20613 net.cpp:100] Creating Layer L1_b1_cbr1_scale
I1212 06:17:18.868775 20613 net.cpp:434] L1_b1_cbr1_scale <- L1_b1_cbr1_bn_top
I1212 06:17:18.868782 20613 net.cpp:395] L1_b1_cbr1_scale -> L1_b1_cbr1_bn_top (in-place)
I1212 06:17:18.868834 20613 layer_factory.hpp:77] Creating layer L1_b1_cbr1_scale
I1212 06:17:18.868978 20613 net.cpp:150] Setting up L1_b1_cbr1_scale
I1212 06:17:18.868990 20613 net.cpp:157] Top shape: 125 16 32 32 (2048000)
I1212 06:17:18.868995 20613 net.cpp:165] Memory required for data: 75265500
I1212 06:17:18.869004 20613 layer_factory.hpp:77] Creating layer L1_b1_cbr1_relu
I1212 06:17:18.869015 20613 net.cpp:100] Creating Layer L1_b1_cbr1_relu
I1212 06:17:18.869029 20613 net.cpp:434] L1_b1_cbr1_relu <- L1_b1_cbr1_bn_top
I1212 06:17:18.869037 20613 net.cpp:395] L1_b1_cbr1_relu -> L1_b1_cbr1_bn_top (in-place)
I1212 06:17:18.869047 20613 net.cpp:150] Setting up L1_b1_cbr1_relu
I1212 06:17:18.869055 20613 net.cpp:157] Top shape: 125 16 32 32 (2048000)
I1212 06:17:18.869060 20613 net.cpp:165] Memory required for data: 83457500
I1212 06:17:18.869065 20613 layer_factory.hpp:77] Creating layer L1_b1_cbr2_conv
I1212 06:17:18.869081 20613 net.cpp:100] Creating Layer L1_b1_cbr2_conv
I1212 06:17:18.869087 20613 net.cpp:434] L1_b1_cbr2_conv <- L1_b1_cbr1_bn_top
I1212 06:17:18.869098 20613 net.cpp:408] L1_b1_cbr2_conv -> L1_b1_cbr2_conv_top
I1212 06:17:18.869424 20613 net.cpp:150] Setting up L1_b1_cbr2_conv
I1212 06:17:18.869439 20613 net.cpp:157] Top shape: 125 16 32 32 (2048000)
I1212 06:17:18.869444 20613 net.cpp:165] Memory required for data: 91649500
I1212 06:17:18.869453 20613 layer_factory.hpp:77] Creating layer L1_b1_cbr2_bn
I1212 06:17:18.869462 20613 net.cpp:100] Creating Layer L1_b1_cbr2_bn
I1212 06:17:18.869468 20613 net.cpp:434] L1_b1_cbr2_bn <- L1_b1_cbr2_conv_top
I1212 06:17:18.869479 20613 net.cpp:408] L1_b1_cbr2_bn -> L1_b1_cbr2_bn_top
I1212 06:17:18.869731 20613 net.cpp:150] Setting up L1_b1_cbr2_bn
I1212 06:17:18.869745 20613 net.cpp:157] Top shape: 125 16 32 32 (2048000)
I1212 06:17:18.869750 20613 net.cpp:165] Memory required for data: 99841500
I1212 06:17:18.869768 20613 layer_factory.hpp:77] Creating layer L1_b1_cbr2_scale
I1212 06:17:18.869778 20613 net.cpp:100] Creating Layer L1_b1_cbr2_scale
I1212 06:17:18.869784 20613 net.cpp:434] L1_b1_cbr2_scale <- L1_b1_cbr2_bn_top
I1212 06:17:18.869792 20613 net.cpp:395] L1_b1_cbr2_scale -> L1_b1_cbr2_bn_top (in-place)
I1212 06:17:18.869848 20613 layer_factory.hpp:77] Creating layer L1_b1_cbr2_scale
I1212 06:17:18.869987 20613 net.cpp:150] Setting up L1_b1_cbr2_scale
I1212 06:17:18.870000 20613 net.cpp:157] Top shape: 125 16 32 32 (2048000)
I1212 06:17:18.870005 20613 net.cpp:165] Memory required for data: 108033500
I1212 06:17:18.870014 20613 layer_factory.hpp:77] Creating layer L1_b1_sum_eltwise
I1212 06:17:18.870028 20613 net.cpp:100] Creating Layer L1_b1_sum_eltwise
I1212 06:17:18.870033 20613 net.cpp:434] L1_b1_sum_eltwise <- L1_b1_cbr2_bn_top
I1212 06:17:18.870040 20613 net.cpp:434] L1_b1_sum_eltwise <- pre_bn_top_pre_relu_0_split_1
I1212 06:17:18.870050 20613 net.cpp:408] L1_b1_sum_eltwise -> L1_b1_sum_eltwise_top
I1212 06:17:18.870138 20613 net.cpp:150] Setting up L1_b1_sum_eltwise
I1212 06:17:18.870154 20613 net.cpp:157] Top shape: 125 16 32 32 (2048000)
I1212 06:17:18.870160 20613 net.cpp:165] Memory required for data: 116225500
I1212 06:17:18.870167 20613 layer_factory.hpp:77] Creating layer L1_b1_relu
I1212 06:17:18.870182 20613 net.cpp:100] Creating Layer L1_b1_relu
I1212 06:17:18.870189 20613 net.cpp:434] L1_b1_relu <- L1_b1_sum_eltwise_top
I1212 06:17:18.870198 20613 net.cpp:395] L1_b1_relu -> L1_b1_sum_eltwise_top (in-place)
I1212 06:17:18.870208 20613 net.cpp:150] Setting up L1_b1_relu
I1212 06:17:18.870214 20613 net.cpp:157] Top shape: 125 16 32 32 (2048000)
I1212 06:17:18.870219 20613 net.cpp:165] Memory required for data: 124417500
I1212 06:17:18.870224 20613 layer_factory.hpp:77] Creating layer L1_b1_sum_eltwise_top_L1_b1_relu_0_split
I1212 06:17:18.870417 20613 net.cpp:100] Creating Layer L1_b1_sum_eltwise_top_L1_b1_relu_0_split
I1212 06:17:18.870429 20613 net.cpp:434] L1_b1_sum_eltwise_top_L1_b1_relu_0_split <- L1_b1_sum_eltwise_top
I1212 06:17:18.870440 20613 net.cpp:408] L1_b1_sum_eltwise_top_L1_b1_relu_0_split -> L1_b1_sum_eltwise_top_L1_b1_relu_0_split_0
I1212 06:17:18.870450 20613 net.cpp:408] L1_b1_sum_eltwise_top_L1_b1_relu_0_split -> L1_b1_sum_eltwise_top_L1_b1_relu_0_split_1
I1212 06:17:18.870499 20613 net.cpp:150] Setting up L1_b1_sum_eltwise_top_L1_b1_relu_0_split
I1212 06:17:18.870512 20613 net.cpp:157] Top shape: 125 16 32 32 (2048000)
I1212 06:17:18.870518 20613 net.cpp:157] Top shape: 125 16 32 32 (2048000)
I1212 06:17:18.870523 20613 net.cpp:165] Memory required for data: 140801500
I1212 06:17:18.870537 20613 layer_factory.hpp:77] Creating layer L1_b2_cbr1_conv
I1212 06:17:18.870551 20613 net.cpp:100] Creating Layer L1_b2_cbr1_conv
I1212 06:17:18.870558 20613 net.cpp:434] L1_b2_cbr1_conv <- L1_b1_sum_eltwise_top_L1_b1_relu_0_split_0
I1212 06:17:18.870568 20613 net.cpp:408] L1_b2_cbr1_conv -> L1_b2_cbr1_conv_top
I1212 06:17:18.870888 20613 net.cpp:150] Setting up L1_b2_cbr1_conv
I1212 06:17:18.870903 20613 net.cpp:157] Top shape: 125 16 32 32 (2048000)
I1212 06:17:18.870908 20613 net.cpp:165] Memory required for data: 148993500
I1212 06:17:18.870918 20613 layer_factory.hpp:77] Creating layer L1_b2_cbr1_bn
I1212 06:17:18.870934 20613 net.cpp:100] Creating Layer L1_b2_cbr1_bn
I1212 06:17:18.870941 20613 net.cpp:434] L1_b2_cbr1_bn <- L1_b2_cbr1_conv_top
I1212 06:17:18.870952 20613 net.cpp:408] L1_b2_cbr1_bn -> L1_b2_cbr1_bn_top
I1212 06:17:18.871192 20613 net.cpp:150] Setting up L1_b2_cbr1_bn
I1212 06:17:18.871206 20613 net.cpp:157] Top shape: 125 16 32 32 (2048000)
I1212 06:17:18.871212 20613 net.cpp:165] Memory required for data: 157185500
I1212 06:17:18.871222 20613 layer_factory.hpp:77] Creating layer L1_b2_cbr1_scale
I1212 06:17:18.871232 20613 net.cpp:100] Creating Layer L1_b2_cbr1_scale
I1212 06:17:18.871237 20613 net.cpp:434] L1_b2_cbr1_scale <- L1_b2_cbr1_bn_top
I1212 06:17:18.871245 20613 net.cpp:395] L1_b2_cbr1_scale -> L1_b2_cbr1_bn_top (in-place)
I1212 06:17:18.871299 20613 layer_factory.hpp:77] Creating layer L1_b2_cbr1_scale
I1212 06:17:18.871435 20613 net.cpp:150] Setting up L1_b2_cbr1_scale
I1212 06:17:18.871448 20613 net.cpp:157] Top shape: 125 16 32 32 (2048000)
I1212 06:17:18.871453 20613 net.cpp:165] Memory required for data: 165377500
I1212 06:17:18.871461 20613 layer_factory.hpp:77] Creating layer L1_b2_cbr1_relu
I1212 06:17:18.871474 20613 net.cpp:100] Creating Layer L1_b2_cbr1_relu
I1212 06:17:18.871480 20613 net.cpp:434] L1_b2_cbr1_relu <- L1_b2_cbr1_bn_top
I1212 06:17:18.871489 20613 net.cpp:395] L1_b2_cbr1_relu -> L1_b2_cbr1_bn_top (in-place)
I1212 06:17:18.871497 20613 net.cpp:150] Setting up L1_b2_cbr1_relu
I1212 06:17:18.871505 20613 net.cpp:157] Top shape: 125 16 32 32 (2048000)
I1212 06:17:18.871510 20613 net.cpp:165] Memory required for data: 173569500
I1212 06:17:18.871513 20613 layer_factory.hpp:77] Creating layer L1_b2_cbr2_conv
I1212 06:17:18.871528 20613 net.cpp:100] Creating Layer L1_b2_cbr2_conv
I1212 06:17:18.871534 20613 net.cpp:434] L1_b2_cbr2_conv <- L1_b2_cbr1_bn_top
I1212 06:17:18.871546 20613 net.cpp:408] L1_b2_cbr2_conv -> L1_b2_cbr2_conv_top
I1212 06:17:18.871861 20613 net.cpp:150] Setting up L1_b2_cbr2_conv
I1212 06:17:18.871876 20613 net.cpp:157] Top shape: 125 16 32 32 (2048000)
I1212 06:17:18.871881 20613 net.cpp:165] Memory required for data: 181761500
I1212 06:17:18.871889 20613 layer_factory.hpp:77] Creating layer L1_b2_cbr2_bn
I1212 06:17:18.871902 20613 net.cpp:100] Creating Layer L1_b2_cbr2_bn
I1212 06:17:18.871908 20613 net.cpp:434] L1_b2_cbr2_bn <- L1_b2_cbr2_conv_top
I1212 06:17:18.871917 20613 net.cpp:408] L1_b2_cbr2_bn -> L1_b2_cbr2_bn_top
I1212 06:17:18.872160 20613 net.cpp:150] Setting up L1_b2_cbr2_bn
I1212 06:17:18.872174 20613 net.cpp:157] Top shape: 125 16 32 32 (2048000)
I1212 06:17:18.872179 20613 net.cpp:165] Memory required for data: 189953500
I1212 06:17:18.872195 20613 layer_factory.hpp:77] Creating layer L1_b2_cbr2_scale
I1212 06:17:18.872207 20613 net.cpp:100] Creating Layer L1_b2_cbr2_scale
I1212 06:17:18.872215 20613 net.cpp:434] L1_b2_cbr2_scale <- L1_b2_cbr2_bn_top
I1212 06:17:18.872221 20613 net.cpp:395] L1_b2_cbr2_scale -> L1_b2_cbr2_bn_top (in-place)
I1212 06:17:18.872274 20613 layer_factory.hpp:77] Creating layer L1_b2_cbr2_scale
I1212 06:17:18.872416 20613 net.cpp:150] Setting up L1_b2_cbr2_scale
I1212 06:17:18.872429 20613 net.cpp:157] Top shape: 125 16 32 32 (2048000)
I1212 06:17:18.872434 20613 net.cpp:165] Memory required for data: 198145500
I1212 06:17:18.872443 20613 layer_factory.hpp:77] Creating layer L1_b2_sum_eltwise
I1212 06:17:18.872452 20613 net.cpp:100] Creating Layer L1_b2_sum_eltwise
I1212 06:17:18.872467 20613 net.cpp:434] L1_b2_sum_eltwise <- L1_b2_cbr2_bn_top
I1212 06:17:18.872473 20613 net.cpp:434] L1_b2_sum_eltwise <- L1_b1_sum_eltwise_top_L1_b1_relu_0_split_1
I1212 06:17:18.872484 20613 net.cpp:408] L1_b2_sum_eltwise -> L1_b2_sum_eltwise_top
I1212 06:17:18.872516 20613 net.cpp:150] Setting up L1_b2_sum_eltwise
I1212 06:17:18.872525 20613 net.cpp:157] Top shape: 125 16 32 32 (2048000)
I1212 06:17:18.872530 20613 net.cpp:165] Memory required for data: 206337500
I1212 06:17:18.872535 20613 layer_factory.hpp:77] Creating layer L1_b2_relu
I1212 06:17:18.872544 20613 net.cpp:100] Creating Layer L1_b2_relu
I1212 06:17:18.872550 20613 net.cpp:434] L1_b2_relu <- L1_b2_sum_eltwise_top
I1212 06:17:18.872556 20613 net.cpp:395] L1_b2_relu -> L1_b2_sum_eltwise_top (in-place)
I1212 06:17:18.872565 20613 net.cpp:150] Setting up L1_b2_relu
I1212 06:17:18.872571 20613 net.cpp:157] Top shape: 125 16 32 32 (2048000)
I1212 06:17:18.872576 20613 net.cpp:165] Memory required for data: 214529500
I1212 06:17:18.872581 20613 layer_factory.hpp:77] Creating layer L1_b2_sum_eltwise_top_L1_b2_relu_0_split
I1212 06:17:18.872591 20613 net.cpp:100] Creating Layer L1_b2_sum_eltwise_top_L1_b2_relu_0_split
I1212 06:17:18.872597 20613 net.cpp:434] L1_b2_sum_eltwise_top_L1_b2_relu_0_split <- L1_b2_sum_eltwise_top
I1212 06:17:18.872604 20613 net.cpp:408] L1_b2_sum_eltwise_top_L1_b2_relu_0_split -> L1_b2_sum_eltwise_top_L1_b2_relu_0_split_0
I1212 06:17:18.872614 20613 net.cpp:408] L1_b2_sum_eltwise_top_L1_b2_relu_0_split -> L1_b2_sum_eltwise_top_L1_b2_relu_0_split_1
I1212 06:17:18.872665 20613 net.cpp:150] Setting up L1_b2_sum_eltwise_top_L1_b2_relu_0_split
I1212 06:17:18.872675 20613 net.cpp:157] Top shape: 125 16 32 32 (2048000)
I1212 06:17:18.872681 20613 net.cpp:157] Top shape: 125 16 32 32 (2048000)
I1212 06:17:18.872686 20613 net.cpp:165] Memory required for data: 230913500
I1212 06:17:18.872691 20613 layer_factory.hpp:77] Creating layer L1_b3_cbr1_conv
I1212 06:17:18.872704 20613 net.cpp:100] Creating Layer L1_b3_cbr1_conv
I1212 06:17:18.872709 20613 net.cpp:434] L1_b3_cbr1_conv <- L1_b2_sum_eltwise_top_L1_b2_relu_0_split_0
I1212 06:17:18.872721 20613 net.cpp:408] L1_b3_cbr1_conv -> L1_b3_cbr1_conv_top
I1212 06:17:18.873026 20613 net.cpp:150] Setting up L1_b3_cbr1_conv
I1212 06:17:18.873040 20613 net.cpp:157] Top shape: 125 16 32 32 (2048000)
I1212 06:17:18.873045 20613 net.cpp:165] Memory required for data: 239105500
I1212 06:17:18.873054 20613 layer_factory.hpp:77] Creating layer L1_b3_cbr1_bn
I1212 06:17:18.873064 20613 net.cpp:100] Creating Layer L1_b3_cbr1_bn
I1212 06:17:18.873070 20613 net.cpp:434] L1_b3_cbr1_bn <- L1_b3_cbr1_conv_top
I1212 06:17:18.873078 20613 net.cpp:408] L1_b3_cbr1_bn -> L1_b3_cbr1_bn_top
I1212 06:17:18.873314 20613 net.cpp:150] Setting up L1_b3_cbr1_bn
I1212 06:17:18.873327 20613 net.cpp:157] Top shape: 125 16 32 32 (2048000)
I1212 06:17:18.873332 20613 net.cpp:165] Memory required for data: 247297500
I1212 06:17:18.873343 20613 layer_factory.hpp:77] Creating layer L1_b3_cbr1_scale
I1212 06:17:18.873355 20613 net.cpp:100] Creating Layer L1_b3_cbr1_scale
I1212 06:17:18.873361 20613 net.cpp:434] L1_b3_cbr1_scale <- L1_b3_cbr1_bn_top
I1212 06:17:18.873369 20613 net.cpp:395] L1_b3_cbr1_scale -> L1_b3_cbr1_bn_top (in-place)
I1212 06:17:18.873428 20613 layer_factory.hpp:77] Creating layer L1_b3_cbr1_scale
I1212 06:17:18.873574 20613 net.cpp:150] Setting up L1_b3_cbr1_scale
I1212 06:17:18.873587 20613 net.cpp:157] Top shape: 125 16 32 32 (2048000)
I1212 06:17:18.873592 20613 net.cpp:165] Memory required for data: 255489500
I1212 06:17:18.873601 20613 layer_factory.hpp:77] Creating layer L1_b3_cbr1_relu
I1212 06:17:18.873610 20613 net.cpp:100] Creating Layer L1_b3_cbr1_relu
I1212 06:17:18.873615 20613 net.cpp:434] L1_b3_cbr1_relu <- L1_b3_cbr1_bn_top
I1212 06:17:18.873632 20613 net.cpp:395] L1_b3_cbr1_relu -> L1_b3_cbr1_bn_top (in-place)
I1212 06:17:18.873642 20613 net.cpp:150] Setting up L1_b3_cbr1_relu
I1212 06:17:18.873651 20613 net.cpp:157] Top shape: 125 16 32 32 (2048000)
I1212 06:17:18.873661 20613 net.cpp:165] Memory required for data: 263681500
I1212 06:17:18.873667 20613 layer_factory.hpp:77] Creating layer L1_b3_cbr2_conv
I1212 06:17:18.873682 20613 net.cpp:100] Creating Layer L1_b3_cbr2_conv
I1212 06:17:18.873687 20613 net.cpp:434] L1_b3_cbr2_conv <- L1_b3_cbr1_bn_top
I1212 06:17:18.873697 20613 net.cpp:408] L1_b3_cbr2_conv -> L1_b3_cbr2_conv_top
I1212 06:17:18.874003 20613 net.cpp:150] Setting up L1_b3_cbr2_conv
I1212 06:17:18.874017 20613 net.cpp:157] Top shape: 125 16 32 32 (2048000)
I1212 06:17:18.874022 20613 net.cpp:165] Memory required for data: 271873500
I1212 06:17:18.874032 20613 layer_factory.hpp:77] Creating layer L1_b3_cbr2_bn
I1212 06:17:18.874047 20613 net.cpp:100] Creating Layer L1_b3_cbr2_bn
I1212 06:17:18.874053 20613 net.cpp:434] L1_b3_cbr2_bn <- L1_b3_cbr2_conv_top
I1212 06:17:18.874063 20613 net.cpp:408] L1_b3_cbr2_bn -> L1_b3_cbr2_bn_top
I1212 06:17:18.874299 20613 net.cpp:150] Setting up L1_b3_cbr2_bn
I1212 06:17:18.874311 20613 net.cpp:157] Top shape: 125 16 32 32 (2048000)
I1212 06:17:18.874316 20613 net.cpp:165] Memory required for data: 280065500
I1212 06:17:18.874327 20613 layer_factory.hpp:77] Creating layer L1_b3_cbr2_scale
I1212 06:17:18.874339 20613 net.cpp:100] Creating Layer L1_b3_cbr2_scale
I1212 06:17:18.874346 20613 net.cpp:434] L1_b3_cbr2_scale <- L1_b3_cbr2_bn_top
I1212 06:17:18.874353 20613 net.cpp:395] L1_b3_cbr2_scale -> L1_b3_cbr2_bn_top (in-place)
I1212 06:17:18.874408 20613 layer_factory.hpp:77] Creating layer L1_b3_cbr2_scale
I1212 06:17:18.874543 20613 net.cpp:150] Setting up L1_b3_cbr2_scale
I1212 06:17:18.874557 20613 net.cpp:157] Top shape: 125 16 32 32 (2048000)
I1212 06:17:18.874562 20613 net.cpp:165] Memory required for data: 288257500
I1212 06:17:18.874570 20613 layer_factory.hpp:77] Creating layer L1_b3_sum_eltwise
I1212 06:17:18.874578 20613 net.cpp:100] Creating Layer L1_b3_sum_eltwise
I1212 06:17:18.874584 20613 net.cpp:434] L1_b3_sum_eltwise <- L1_b3_cbr2_bn_top
I1212 06:17:18.874591 20613 net.cpp:434] L1_b3_sum_eltwise <- L1_b2_sum_eltwise_top_L1_b2_relu_0_split_1
I1212 06:17:18.874603 20613 net.cpp:408] L1_b3_sum_eltwise -> L1_b3_sum_eltwise_top
I1212 06:17:18.874644 20613 net.cpp:150] Setting up L1_b3_sum_eltwise
I1212 06:17:18.874653 20613 net.cpp:157] Top shape: 125 16 32 32 (2048000)
I1212 06:17:18.874658 20613 net.cpp:165] Memory required for data: 296449500
I1212 06:17:18.874665 20613 layer_factory.hpp:77] Creating layer L1_b3_relu
I1212 06:17:18.874672 20613 net.cpp:100] Creating Layer L1_b3_relu
I1212 06:17:18.874677 20613 net.cpp:434] L1_b3_relu <- L1_b3_sum_eltwise_top
I1212 06:17:18.874687 20613 net.cpp:395] L1_b3_relu -> L1_b3_sum_eltwise_top (in-place)
I1212 06:17:18.874697 20613 net.cpp:150] Setting up L1_b3_relu
I1212 06:17:18.874704 20613 net.cpp:157] Top shape: 125 16 32 32 (2048000)
I1212 06:17:18.874708 20613 net.cpp:165] Memory required for data: 304641500
I1212 06:17:18.874713 20613 layer_factory.hpp:77] Creating layer L1_b3_sum_eltwise_top_L1_b3_relu_0_split
I1212 06:17:18.874722 20613 net.cpp:100] Creating Layer L1_b3_sum_eltwise_top_L1_b3_relu_0_split
I1212 06:17:18.874727 20613 net.cpp:434] L1_b3_sum_eltwise_top_L1_b3_relu_0_split <- L1_b3_sum_eltwise_top
I1212 06:17:18.874734 20613 net.cpp:408] L1_b3_sum_eltwise_top_L1_b3_relu_0_split -> L1_b3_sum_eltwise_top_L1_b3_relu_0_split_0
I1212 06:17:18.874743 20613 net.cpp:408] L1_b3_sum_eltwise_top_L1_b3_relu_0_split -> L1_b3_sum_eltwise_top_L1_b3_relu_0_split_1
I1212 06:17:18.874794 20613 net.cpp:150] Setting up L1_b3_sum_eltwise_top_L1_b3_relu_0_split
I1212 06:17:18.874806 20613 net.cpp:157] Top shape: 125 16 32 32 (2048000)
I1212 06:17:18.874812 20613 net.cpp:157] Top shape: 125 16 32 32 (2048000)
I1212 06:17:18.874817 20613 net.cpp:165] Memory required for data: 321025500
I1212 06:17:18.874822 20613 layer_factory.hpp:77] Creating layer L1_b4_cbr1_conv
I1212 06:17:18.874835 20613 net.cpp:100] Creating Layer L1_b4_cbr1_conv
I1212 06:17:18.874840 20613 net.cpp:434] L1_b4_cbr1_conv <- L1_b3_sum_eltwise_top_L1_b3_relu_0_split_0
I1212 06:17:18.874852 20613 net.cpp:408] L1_b4_cbr1_conv -> L1_b4_cbr1_conv_top
I1212 06:17:18.875169 20613 net.cpp:150] Setting up L1_b4_cbr1_conv
I1212 06:17:18.875182 20613 net.cpp:157] Top shape: 125 16 32 32 (2048000)
I1212 06:17:18.875187 20613 net.cpp:165] Memory required for data: 329217500
I1212 06:17:18.875196 20613 layer_factory.hpp:77] Creating layer L1_b4_cbr1_bn
I1212 06:17:18.875206 20613 net.cpp:100] Creating Layer L1_b4_cbr1_bn
I1212 06:17:18.875212 20613 net.cpp:434] L1_b4_cbr1_bn <- L1_b4_cbr1_conv_top
I1212 06:17:18.875223 20613 net.cpp:408] L1_b4_cbr1_bn -> L1_b4_cbr1_bn_top
I1212 06:17:18.875461 20613 net.cpp:150] Setting up L1_b4_cbr1_bn
I1212 06:17:18.875474 20613 net.cpp:157] Top shape: 125 16 32 32 (2048000)
I1212 06:17:18.875479 20613 net.cpp:165] Memory required for data: 337409500
I1212 06:17:18.875490 20613 layer_factory.hpp:77] Creating layer L1_b4_cbr1_scale
I1212 06:17:18.875502 20613 net.cpp:100] Creating Layer L1_b4_cbr1_scale
I1212 06:17:18.875509 20613 net.cpp:434] L1_b4_cbr1_scale <- L1_b4_cbr1_bn_top
I1212 06:17:18.875516 20613 net.cpp:395] L1_b4_cbr1_scale -> L1_b4_cbr1_bn_top (in-place)
I1212 06:17:18.875569 20613 layer_factory.hpp:77] Creating layer L1_b4_cbr1_scale
I1212 06:17:18.875718 20613 net.cpp:150] Setting up L1_b4_cbr1_scale
I1212 06:17:18.875732 20613 net.cpp:157] Top shape: 125 16 32 32 (2048000)
I1212 06:17:18.875737 20613 net.cpp:165] Memory required for data: 345601500
I1212 06:17:18.875747 20613 layer_factory.hpp:77] Creating layer L1_b4_cbr1_relu
I1212 06:17:18.875756 20613 net.cpp:100] Creating Layer L1_b4_cbr1_relu
I1212 06:17:18.875761 20613 net.cpp:434] L1_b4_cbr1_relu <- L1_b4_cbr1_bn_top
I1212 06:17:18.875771 20613 net.cpp:395] L1_b4_cbr1_relu -> L1_b4_cbr1_bn_top (in-place)
I1212 06:17:18.875782 20613 net.cpp:150] Setting up L1_b4_cbr1_relu
I1212 06:17:18.875788 20613 net.cpp:157] Top shape: 125 16 32 32 (2048000)
I1212 06:17:18.875792 20613 net.cpp:165] Memory required for data: 353793500
I1212 06:17:18.875797 20613 layer_factory.hpp:77] Creating layer L1_b4_cbr2_conv
I1212 06:17:18.875813 20613 net.cpp:100] Creating Layer L1_b4_cbr2_conv
I1212 06:17:18.875818 20613 net.cpp:434] L1_b4_cbr2_conv <- L1_b4_cbr1_bn_top
I1212 06:17:18.875830 20613 net.cpp:408] L1_b4_cbr2_conv -> L1_b4_cbr2_conv_top
I1212 06:17:18.876137 20613 net.cpp:150] Setting up L1_b4_cbr2_conv
I1212 06:17:18.876152 20613 net.cpp:157] Top shape: 125 16 32 32 (2048000)
I1212 06:17:18.876157 20613 net.cpp:165] Memory required for data: 361985500
I1212 06:17:18.876165 20613 layer_factory.hpp:77] Creating layer L1_b4_cbr2_bn
I1212 06:17:18.876175 20613 net.cpp:100] Creating Layer L1_b4_cbr2_bn
I1212 06:17:18.876181 20613 net.cpp:434] L1_b4_cbr2_bn <- L1_b4_cbr2_conv_top
I1212 06:17:18.876189 20613 net.cpp:408] L1_b4_cbr2_bn -> L1_b4_cbr2_bn_top
I1212 06:17:18.876438 20613 net.cpp:150] Setting up L1_b4_cbr2_bn
I1212 06:17:18.876452 20613 net.cpp:157] Top shape: 125 16 32 32 (2048000)
I1212 06:17:18.876457 20613 net.cpp:165] Memory required for data: 370177500
I1212 06:17:18.876471 20613 layer_factory.hpp:77] Creating layer L1_b4_cbr2_scale
I1212 06:17:18.876479 20613 net.cpp:100] Creating Layer L1_b4_cbr2_scale
I1212 06:17:18.876485 20613 net.cpp:434] L1_b4_cbr2_scale <- L1_b4_cbr2_bn_top
I1212 06:17:18.876495 20613 net.cpp:395] L1_b4_cbr2_scale -> L1_b4_cbr2_bn_top (in-place)
I1212 06:17:18.876550 20613 layer_factory.hpp:77] Creating layer L1_b4_cbr2_scale
I1212 06:17:18.876699 20613 net.cpp:150] Setting up L1_b4_cbr2_scale
I1212 06:17:18.876713 20613 net.cpp:157] Top shape: 125 16 32 32 (2048000)
I1212 06:17:18.876718 20613 net.cpp:165] Memory required for data: 378369500
I1212 06:17:18.876726 20613 layer_factory.hpp:77] Creating layer L1_b4_sum_eltwise
I1212 06:17:18.876739 20613 net.cpp:100] Creating Layer L1_b4_sum_eltwise
I1212 06:17:18.876744 20613 net.cpp:434] L1_b4_sum_eltwise <- L1_b4_cbr2_bn_top
I1212 06:17:18.876751 20613 net.cpp:434] L1_b4_sum_eltwise <- L1_b3_sum_eltwise_top_L1_b3_relu_0_split_1
I1212 06:17:18.876760 20613 net.cpp:408] L1_b4_sum_eltwise -> L1_b4_sum_eltwise_top
I1212 06:17:18.876794 20613 net.cpp:150] Setting up L1_b4_sum_eltwise
I1212 06:17:18.876811 20613 net.cpp:157] Top shape: 125 16 32 32 (2048000)
I1212 06:17:18.876816 20613 net.cpp:165] Memory required for data: 386561500
I1212 06:17:18.876822 20613 layer_factory.hpp:77] Creating layer L1_b4_relu
I1212 06:17:18.876830 20613 net.cpp:100] Creating Layer L1_b4_relu
I1212 06:17:18.876835 20613 net.cpp:434] L1_b4_relu <- L1_b4_sum_eltwise_top
I1212 06:17:18.876845 20613 net.cpp:395] L1_b4_relu -> L1_b4_sum_eltwise_top (in-place)
I1212 06:17:18.876855 20613 net.cpp:150] Setting up L1_b4_relu
I1212 06:17:18.876863 20613 net.cpp:157] Top shape: 125 16 32 32 (2048000)
I1212 06:17:18.876866 20613 net.cpp:165] Memory required for data: 394753500
I1212 06:17:18.876871 20613 layer_factory.hpp:77] Creating layer L1_b4_sum_eltwise_top_L1_b4_relu_0_split
I1212 06:17:18.876879 20613 net.cpp:100] Creating Layer L1_b4_sum_eltwise_top_L1_b4_relu_0_split
I1212 06:17:18.876885 20613 net.cpp:434] L1_b4_sum_eltwise_top_L1_b4_relu_0_split <- L1_b4_sum_eltwise_top
I1212 06:17:18.876893 20613 net.cpp:408] L1_b4_sum_eltwise_top_L1_b4_relu_0_split -> L1_b4_sum_eltwise_top_L1_b4_relu_0_split_0
I1212 06:17:18.876902 20613 net.cpp:408] L1_b4_sum_eltwise_top_L1_b4_relu_0_split -> L1_b4_sum_eltwise_top_L1_b4_relu_0_split_1
I1212 06:17:18.876947 20613 net.cpp:150] Setting up L1_b4_sum_eltwise_top_L1_b4_relu_0_split
I1212 06:17:18.876960 20613 net.cpp:157] Top shape: 125 16 32 32 (2048000)
I1212 06:17:18.876966 20613 net.cpp:157] Top shape: 125 16 32 32 (2048000)
I1212 06:17:18.876971 20613 net.cpp:165] Memory required for data: 411137500
I1212 06:17:18.876976 20613 layer_factory.hpp:77] Creating layer L1_b5_cbr1_conv
I1212 06:17:18.876987 20613 net.cpp:100] Creating Layer L1_b5_cbr1_conv
I1212 06:17:18.876993 20613 net.cpp:434] L1_b5_cbr1_conv <- L1_b4_sum_eltwise_top_L1_b4_relu_0_split_0
I1212 06:17:18.877005 20613 net.cpp:408] L1_b5_cbr1_conv -> L1_b5_cbr1_conv_top
I1212 06:17:18.877316 20613 net.cpp:150] Setting up L1_b5_cbr1_conv
I1212 06:17:18.877331 20613 net.cpp:157] Top shape: 125 16 32 32 (2048000)
I1212 06:17:18.877336 20613 net.cpp:165] Memory required for data: 419329500
I1212 06:17:18.877359 20613 layer_factory.hpp:77] Creating layer L1_b5_cbr1_bn
I1212 06:17:18.877373 20613 net.cpp:100] Creating Layer L1_b5_cbr1_bn
I1212 06:17:18.877379 20613 net.cpp:434] L1_b5_cbr1_bn <- L1_b5_cbr1_conv_top
I1212 06:17:18.877388 20613 net.cpp:408] L1_b5_cbr1_bn -> L1_b5_cbr1_bn_top
I1212 06:17:18.877637 20613 net.cpp:150] Setting up L1_b5_cbr1_bn
I1212 06:17:18.877651 20613 net.cpp:157] Top shape: 125 16 32 32 (2048000)
I1212 06:17:18.877656 20613 net.cpp:165] Memory required for data: 427521500
I1212 06:17:18.877666 20613 layer_factory.hpp:77] Creating layer L1_b5_cbr1_scale
I1212 06:17:18.877678 20613 net.cpp:100] Creating Layer L1_b5_cbr1_scale
I1212 06:17:18.877684 20613 net.cpp:434] L1_b5_cbr1_scale <- L1_b5_cbr1_bn_top
I1212 06:17:18.877692 20613 net.cpp:395] L1_b5_cbr1_scale -> L1_b5_cbr1_bn_top (in-place)
I1212 06:17:18.877745 20613 layer_factory.hpp:77] Creating layer L1_b5_cbr1_scale
I1212 06:17:18.877893 20613 net.cpp:150] Setting up L1_b5_cbr1_scale
I1212 06:17:18.877907 20613 net.cpp:157] Top shape: 125 16 32 32 (2048000)
I1212 06:17:18.877912 20613 net.cpp:165] Memory required for data: 435713500
I1212 06:17:18.877920 20613 layer_factory.hpp:77] Creating layer L1_b5_cbr1_relu
I1212 06:17:18.877931 20613 net.cpp:100] Creating Layer L1_b5_cbr1_relu
I1212 06:17:18.877938 20613 net.cpp:434] L1_b5_cbr1_relu <- L1_b5_cbr1_bn_top
I1212 06:17:18.877945 20613 net.cpp:395] L1_b5_cbr1_relu -> L1_b5_cbr1_bn_top (in-place)
I1212 06:17:18.877954 20613 net.cpp:150] Setting up L1_b5_cbr1_relu
I1212 06:17:18.877961 20613 net.cpp:157] Top shape: 125 16 32 32 (2048000)
I1212 06:17:18.877965 20613 net.cpp:165] Memory required for data: 443905500
I1212 06:17:18.877970 20613 layer_factory.hpp:77] Creating layer L1_b5_cbr2_conv
I1212 06:17:18.877985 20613 net.cpp:100] Creating Layer L1_b5_cbr2_conv
I1212 06:17:18.877990 20613 net.cpp:434] L1_b5_cbr2_conv <- L1_b5_cbr1_bn_top
I1212 06:17:18.878001 20613 net.cpp:408] L1_b5_cbr2_conv -> L1_b5_cbr2_conv_top
I1212 06:17:18.878322 20613 net.cpp:150] Setting up L1_b5_cbr2_conv
I1212 06:17:18.878336 20613 net.cpp:157] Top shape: 125 16 32 32 (2048000)
I1212 06:17:18.878341 20613 net.cpp:165] Memory required for data: 452097500
I1212 06:17:18.878350 20613 layer_factory.hpp:77] Creating layer L1_b5_cbr2_bn
I1212 06:17:18.878360 20613 net.cpp:100] Creating Layer L1_b5_cbr2_bn
I1212 06:17:18.878366 20613 net.cpp:434] L1_b5_cbr2_bn <- L1_b5_cbr2_conv_top
I1212 06:17:18.878374 20613 net.cpp:408] L1_b5_cbr2_bn -> L1_b5_cbr2_bn_top
I1212 06:17:18.878612 20613 net.cpp:150] Setting up L1_b5_cbr2_bn
I1212 06:17:18.878631 20613 net.cpp:157] Top shape: 125 16 32 32 (2048000)
I1212 06:17:18.878636 20613 net.cpp:165] Memory required for data: 460289500
I1212 06:17:18.878648 20613 layer_factory.hpp:77] Creating layer L1_b5_cbr2_scale
I1212 06:17:18.878659 20613 net.cpp:100] Creating Layer L1_b5_cbr2_scale
I1212 06:17:18.878665 20613 net.cpp:434] L1_b5_cbr2_scale <- L1_b5_cbr2_bn_top
I1212 06:17:18.878674 20613 net.cpp:395] L1_b5_cbr2_scale -> L1_b5_cbr2_bn_top (in-place)
I1212 06:17:18.878729 20613 layer_factory.hpp:77] Creating layer L1_b5_cbr2_scale
I1212 06:17:18.878872 20613 net.cpp:150] Setting up L1_b5_cbr2_scale
I1212 06:17:18.878885 20613 net.cpp:157] Top shape: 125 16 32 32 (2048000)
I1212 06:17:18.878890 20613 net.cpp:165] Memory required for data: 468481500
I1212 06:17:18.878899 20613 layer_factory.hpp:77] Creating layer L1_b5_sum_eltwise
I1212 06:17:18.878908 20613 net.cpp:100] Creating Layer L1_b5_sum_eltwise
I1212 06:17:18.878914 20613 net.cpp:434] L1_b5_sum_eltwise <- L1_b5_cbr2_bn_top
I1212 06:17:18.878921 20613 net.cpp:434] L1_b5_sum_eltwise <- L1_b4_sum_eltwise_top_L1_b4_relu_0_split_1
I1212 06:17:18.878931 20613 net.cpp:408] L1_b5_sum_eltwise -> L1_b5_sum_eltwise_top
I1212 06:17:18.878965 20613 net.cpp:150] Setting up L1_b5_sum_eltwise
I1212 06:17:18.878976 20613 net.cpp:157] Top shape: 125 16 32 32 (2048000)
I1212 06:17:18.878981 20613 net.cpp:165] Memory required for data: 476673500
I1212 06:17:18.878986 20613 layer_factory.hpp:77] Creating layer L1_b5_relu
I1212 06:17:18.878995 20613 net.cpp:100] Creating Layer L1_b5_relu
I1212 06:17:18.879000 20613 net.cpp:434] L1_b5_relu <- L1_b5_sum_eltwise_top
I1212 06:17:18.879010 20613 net.cpp:395] L1_b5_relu -> L1_b5_sum_eltwise_top (in-place)
I1212 06:17:18.879020 20613 net.cpp:150] Setting up L1_b5_relu
I1212 06:17:18.879027 20613 net.cpp:157] Top shape: 125 16 32 32 (2048000)
I1212 06:17:18.879031 20613 net.cpp:165] Memory required for data: 484865500
I1212 06:17:18.879036 20613 layer_factory.hpp:77] Creating layer L1_b5_sum_eltwise_top_L1_b5_relu_0_split
I1212 06:17:18.879043 20613 net.cpp:100] Creating Layer L1_b5_sum_eltwise_top_L1_b5_relu_0_split
I1212 06:17:18.879048 20613 net.cpp:434] L1_b5_sum_eltwise_top_L1_b5_relu_0_split <- L1_b5_sum_eltwise_top
I1212 06:17:18.879056 20613 net.cpp:408] L1_b5_sum_eltwise_top_L1_b5_relu_0_split -> L1_b5_sum_eltwise_top_L1_b5_relu_0_split_0
I1212 06:17:18.879066 20613 net.cpp:408] L1_b5_sum_eltwise_top_L1_b5_relu_0_split -> L1_b5_sum_eltwise_top_L1_b5_relu_0_split_1
I1212 06:17:18.879112 20613 net.cpp:150] Setting up L1_b5_sum_eltwise_top_L1_b5_relu_0_split
I1212 06:17:18.879123 20613 net.cpp:157] Top shape: 125 16 32 32 (2048000)
I1212 06:17:18.879130 20613 net.cpp:157] Top shape: 125 16 32 32 (2048000)
I1212 06:17:18.879134 20613 net.cpp:165] Memory required for data: 501249500
I1212 06:17:18.879139 20613 layer_factory.hpp:77] Creating layer L1_b6_cbr1_conv
I1212 06:17:18.879151 20613 net.cpp:100] Creating Layer L1_b6_cbr1_conv
I1212 06:17:18.879158 20613 net.cpp:434] L1_b6_cbr1_conv <- L1_b5_sum_eltwise_top_L1_b5_relu_0_split_0
I1212 06:17:18.879173 20613 net.cpp:408] L1_b6_cbr1_conv -> L1_b6_cbr1_conv_top
I1212 06:17:18.879484 20613 net.cpp:150] Setting up L1_b6_cbr1_conv
I1212 06:17:18.879498 20613 net.cpp:157] Top shape: 125 16 32 32 (2048000)
I1212 06:17:18.879503 20613 net.cpp:165] Memory required for data: 509441500
I1212 06:17:18.879513 20613 layer_factory.hpp:77] Creating layer L1_b6_cbr1_bn
I1212 06:17:18.879528 20613 net.cpp:100] Creating Layer L1_b6_cbr1_bn
I1212 06:17:18.879534 20613 net.cpp:434] L1_b6_cbr1_bn <- L1_b6_cbr1_conv_top
I1212 06:17:18.879546 20613 net.cpp:408] L1_b6_cbr1_bn -> L1_b6_cbr1_bn_top
I1212 06:17:18.879796 20613 net.cpp:150] Setting up L1_b6_cbr1_bn
I1212 06:17:18.879809 20613 net.cpp:157] Top shape: 125 16 32 32 (2048000)
I1212 06:17:18.879814 20613 net.cpp:165] Memory required for data: 517633500
I1212 06:17:18.879825 20613 layer_factory.hpp:77] Creating layer L1_b6_cbr1_scale
I1212 06:17:18.879837 20613 net.cpp:100] Creating Layer L1_b6_cbr1_scale
I1212 06:17:18.879844 20613 net.cpp:434] L1_b6_cbr1_scale <- L1_b6_cbr1_bn_top
I1212 06:17:18.879853 20613 net.cpp:395] L1_b6_cbr1_scale -> L1_b6_cbr1_bn_top (in-place)
I1212 06:17:18.879904 20613 layer_factory.hpp:77] Creating layer L1_b6_cbr1_scale
I1212 06:17:18.880048 20613 net.cpp:150] Setting up L1_b6_cbr1_scale
I1212 06:17:18.880060 20613 net.cpp:157] Top shape: 125 16 32 32 (2048000)
I1212 06:17:18.880065 20613 net.cpp:165] Memory required for data: 525825500
I1212 06:17:18.880074 20613 layer_factory.hpp:77] Creating layer L1_b6_cbr1_relu
I1212 06:17:18.880082 20613 net.cpp:100] Creating Layer L1_b6_cbr1_relu
I1212 06:17:18.880089 20613 net.cpp:434] L1_b6_cbr1_relu <- L1_b6_cbr1_bn_top
I1212 06:17:18.880100 20613 net.cpp:395] L1_b6_cbr1_relu -> L1_b6_cbr1_bn_top (in-place)
I1212 06:17:18.880108 20613 net.cpp:150] Setting up L1_b6_cbr1_relu
I1212 06:17:18.880115 20613 net.cpp:157] Top shape: 125 16 32 32 (2048000)
I1212 06:17:18.880120 20613 net.cpp:165] Memory required for data: 534017500
I1212 06:17:18.880125 20613 layer_factory.hpp:77] Creating layer L1_b6_cbr2_conv
I1212 06:17:18.880139 20613 net.cpp:100] Creating Layer L1_b6_cbr2_conv
I1212 06:17:18.880146 20613 net.cpp:434] L1_b6_cbr2_conv <- L1_b6_cbr1_bn_top
I1212 06:17:18.880157 20613 net.cpp:408] L1_b6_cbr2_conv -> L1_b6_cbr2_conv_top
I1212 06:17:18.880470 20613 net.cpp:150] Setting up L1_b6_cbr2_conv
I1212 06:17:18.880483 20613 net.cpp:157] Top shape: 125 16 32 32 (2048000)
I1212 06:17:18.880488 20613 net.cpp:165] Memory required for data: 542209500
I1212 06:17:18.880497 20613 layer_factory.hpp:77] Creating layer L1_b6_cbr2_bn
I1212 06:17:18.880506 20613 net.cpp:100] Creating Layer L1_b6_cbr2_bn
I1212 06:17:18.880512 20613 net.cpp:434] L1_b6_cbr2_bn <- L1_b6_cbr2_conv_top
I1212 06:17:18.880520 20613 net.cpp:408] L1_b6_cbr2_bn -> L1_b6_cbr2_bn_top
I1212 06:17:18.880774 20613 net.cpp:150] Setting up L1_b6_cbr2_bn
I1212 06:17:18.880787 20613 net.cpp:157] Top shape: 125 16 32 32 (2048000)
I1212 06:17:18.880792 20613 net.cpp:165] Memory required for data: 550401500
I1212 06:17:18.880803 20613 layer_factory.hpp:77] Creating layer L1_b6_cbr2_scale
I1212 06:17:18.880815 20613 net.cpp:100] Creating Layer L1_b6_cbr2_scale
I1212 06:17:18.880821 20613 net.cpp:434] L1_b6_cbr2_scale <- L1_b6_cbr2_bn_top
I1212 06:17:18.880830 20613 net.cpp:395] L1_b6_cbr2_scale -> L1_b6_cbr2_bn_top (in-place)
I1212 06:17:18.880885 20613 layer_factory.hpp:77] Creating layer L1_b6_cbr2_scale
I1212 06:17:18.881027 20613 net.cpp:150] Setting up L1_b6_cbr2_scale
I1212 06:17:18.881041 20613 net.cpp:157] Top shape: 125 16 32 32 (2048000)
I1212 06:17:18.881045 20613 net.cpp:165] Memory required for data: 558593500
I1212 06:17:18.881054 20613 layer_factory.hpp:77] Creating layer L1_b6_sum_eltwise
I1212 06:17:18.881070 20613 net.cpp:100] Creating Layer L1_b6_sum_eltwise
I1212 06:17:18.881078 20613 net.cpp:434] L1_b6_sum_eltwise <- L1_b6_cbr2_bn_top
I1212 06:17:18.881084 20613 net.cpp:434] L1_b6_sum_eltwise <- L1_b5_sum_eltwise_top_L1_b5_relu_0_split_1
I1212 06:17:18.881094 20613 net.cpp:408] L1_b6_sum_eltwise -> L1_b6_sum_eltwise_top
I1212 06:17:18.881126 20613 net.cpp:150] Setting up L1_b6_sum_eltwise
I1212 06:17:18.881139 20613 net.cpp:157] Top shape: 125 16 32 32 (2048000)
I1212 06:17:18.881144 20613 net.cpp:165] Memory required for data: 566785500
I1212 06:17:18.881148 20613 layer_factory.hpp:77] Creating layer L1_b6_relu
I1212 06:17:18.881160 20613 net.cpp:100] Creating Layer L1_b6_relu
I1212 06:17:18.881175 20613 net.cpp:434] L1_b6_relu <- L1_b6_sum_eltwise_top
I1212 06:17:18.881182 20613 net.cpp:395] L1_b6_relu -> L1_b6_sum_eltwise_top (in-place)
I1212 06:17:18.881192 20613 net.cpp:150] Setting up L1_b6_relu
I1212 06:17:18.881199 20613 net.cpp:157] Top shape: 125 16 32 32 (2048000)
I1212 06:17:18.881203 20613 net.cpp:165] Memory required for data: 574977500
I1212 06:17:18.881208 20613 layer_factory.hpp:77] Creating layer L1_b6_sum_eltwise_top_L1_b6_relu_0_split
I1212 06:17:18.881217 20613 net.cpp:100] Creating Layer L1_b6_sum_eltwise_top_L1_b6_relu_0_split
I1212 06:17:18.881222 20613 net.cpp:434] L1_b6_sum_eltwise_top_L1_b6_relu_0_split <- L1_b6_sum_eltwise_top
I1212 06:17:18.881228 20613 net.cpp:408] L1_b6_sum_eltwise_top_L1_b6_relu_0_split -> L1_b6_sum_eltwise_top_L1_b6_relu_0_split_0
I1212 06:17:18.881238 20613 net.cpp:408] L1_b6_sum_eltwise_top_L1_b6_relu_0_split -> L1_b6_sum_eltwise_top_L1_b6_relu_0_split_1
I1212 06:17:18.881284 20613 net.cpp:150] Setting up L1_b6_sum_eltwise_top_L1_b6_relu_0_split
I1212 06:17:18.881296 20613 net.cpp:157] Top shape: 125 16 32 32 (2048000)
I1212 06:17:18.881304 20613 net.cpp:157] Top shape: 125 16 32 32 (2048000)
I1212 06:17:18.881307 20613 net.cpp:165] Memory required for data: 591361500
I1212 06:17:18.881314 20613 layer_factory.hpp:77] Creating layer L1_b7_cbr1_conv
I1212 06:17:18.881327 20613 net.cpp:100] Creating Layer L1_b7_cbr1_conv
I1212 06:17:18.881333 20613 net.cpp:434] L1_b7_cbr1_conv <- L1_b6_sum_eltwise_top_L1_b6_relu_0_split_0
I1212 06:17:18.881343 20613 net.cpp:408] L1_b7_cbr1_conv -> L1_b7_cbr1_conv_top
I1212 06:17:18.881664 20613 net.cpp:150] Setting up L1_b7_cbr1_conv
I1212 06:17:18.881678 20613 net.cpp:157] Top shape: 125 16 32 32 (2048000)
I1212 06:17:18.881683 20613 net.cpp:165] Memory required for data: 599553500
I1212 06:17:18.881692 20613 layer_factory.hpp:77] Creating layer L1_b7_cbr1_bn
I1212 06:17:18.881705 20613 net.cpp:100] Creating Layer L1_b7_cbr1_bn
I1212 06:17:18.881711 20613 net.cpp:434] L1_b7_cbr1_bn <- L1_b7_cbr1_conv_top
I1212 06:17:18.881719 20613 net.cpp:408] L1_b7_cbr1_bn -> L1_b7_cbr1_bn_top
I1212 06:17:18.881963 20613 net.cpp:150] Setting up L1_b7_cbr1_bn
I1212 06:17:18.881976 20613 net.cpp:157] Top shape: 125 16 32 32 (2048000)
I1212 06:17:18.881981 20613 net.cpp:165] Memory required for data: 607745500
I1212 06:17:18.881992 20613 layer_factory.hpp:77] Creating layer L1_b7_cbr1_scale
I1212 06:17:18.882000 20613 net.cpp:100] Creating Layer L1_b7_cbr1_scale
I1212 06:17:18.882006 20613 net.cpp:434] L1_b7_cbr1_scale <- L1_b7_cbr1_bn_top
I1212 06:17:18.882014 20613 net.cpp:395] L1_b7_cbr1_scale -> L1_b7_cbr1_bn_top (in-place)
I1212 06:17:18.882069 20613 layer_factory.hpp:77] Creating layer L1_b7_cbr1_scale
I1212 06:17:18.882213 20613 net.cpp:150] Setting up L1_b7_cbr1_scale
I1212 06:17:18.882226 20613 net.cpp:157] Top shape: 125 16 32 32 (2048000)
I1212 06:17:18.882231 20613 net.cpp:165] Memory required for data: 615937500
I1212 06:17:18.882241 20613 layer_factory.hpp:77] Creating layer L1_b7_cbr1_relu
I1212 06:17:18.882248 20613 net.cpp:100] Creating Layer L1_b7_cbr1_relu
I1212 06:17:18.882254 20613 net.cpp:434] L1_b7_cbr1_relu <- L1_b7_cbr1_bn_top
I1212 06:17:18.882266 20613 net.cpp:395] L1_b7_cbr1_relu -> L1_b7_cbr1_bn_top (in-place)
I1212 06:17:18.882277 20613 net.cpp:150] Setting up L1_b7_cbr1_relu
I1212 06:17:18.882283 20613 net.cpp:157] Top shape: 125 16 32 32 (2048000)
I1212 06:17:18.882288 20613 net.cpp:165] Memory required for data: 624129500
I1212 06:17:18.882292 20613 layer_factory.hpp:77] Creating layer L1_b7_cbr2_conv
I1212 06:17:18.882304 20613 net.cpp:100] Creating Layer L1_b7_cbr2_conv
I1212 06:17:18.882310 20613 net.cpp:434] L1_b7_cbr2_conv <- L1_b7_cbr1_bn_top
I1212 06:17:18.882323 20613 net.cpp:408] L1_b7_cbr2_conv -> L1_b7_cbr2_conv_top
I1212 06:17:18.882638 20613 net.cpp:150] Setting up L1_b7_cbr2_conv
I1212 06:17:18.882652 20613 net.cpp:157] Top shape: 125 16 32 32 (2048000)
I1212 06:17:18.882658 20613 net.cpp:165] Memory required for data: 632321500
I1212 06:17:18.882666 20613 layer_factory.hpp:77] Creating layer L1_b7_cbr2_bn
I1212 06:17:18.882683 20613 net.cpp:100] Creating Layer L1_b7_cbr2_bn
I1212 06:17:18.882690 20613 net.cpp:434] L1_b7_cbr2_bn <- L1_b7_cbr2_conv_top
I1212 06:17:18.882701 20613 net.cpp:408] L1_b7_cbr2_bn -> L1_b7_cbr2_bn_top
I1212 06:17:18.882943 20613 net.cpp:150] Setting up L1_b7_cbr2_bn
I1212 06:17:18.882959 20613 net.cpp:157] Top shape: 125 16 32 32 (2048000)
I1212 06:17:18.882964 20613 net.cpp:165] Memory required for data: 640513500
I1212 06:17:18.882975 20613 layer_factory.hpp:77] Creating layer L1_b7_cbr2_scale
I1212 06:17:18.882984 20613 net.cpp:100] Creating Layer L1_b7_cbr2_scale
I1212 06:17:18.882990 20613 net.cpp:434] L1_b7_cbr2_scale <- L1_b7_cbr2_bn_top
I1212 06:17:18.882997 20613 net.cpp:395] L1_b7_cbr2_scale -> L1_b7_cbr2_bn_top (in-place)
I1212 06:17:18.883051 20613 layer_factory.hpp:77] Creating layer L1_b7_cbr2_scale
I1212 06:17:18.883193 20613 net.cpp:150] Setting up L1_b7_cbr2_scale
I1212 06:17:18.883205 20613 net.cpp:157] Top shape: 125 16 32 32 (2048000)
I1212 06:17:18.883210 20613 net.cpp:165] Memory required for data: 648705500
I1212 06:17:18.883219 20613 layer_factory.hpp:77] Creating layer L1_b7_sum_eltwise
I1212 06:17:18.883230 20613 net.cpp:100] Creating Layer L1_b7_sum_eltwise
I1212 06:17:18.883236 20613 net.cpp:434] L1_b7_sum_eltwise <- L1_b7_cbr2_bn_top
I1212 06:17:18.883244 20613 net.cpp:434] L1_b7_sum_eltwise <- L1_b6_sum_eltwise_top_L1_b6_relu_0_split_1
I1212 06:17:18.883253 20613 net.cpp:408] L1_b7_sum_eltwise -> L1_b7_sum_eltwise_top
I1212 06:17:18.883285 20613 net.cpp:150] Setting up L1_b7_sum_eltwise
I1212 06:17:18.883294 20613 net.cpp:157] Top shape: 125 16 32 32 (2048000)
I1212 06:17:18.883298 20613 net.cpp:165] Memory required for data: 656897500
I1212 06:17:18.883304 20613 layer_factory.hpp:77] Creating layer L1_b7_relu
I1212 06:17:18.883314 20613 net.cpp:100] Creating Layer L1_b7_relu
I1212 06:17:18.883321 20613 net.cpp:434] L1_b7_relu <- L1_b7_sum_eltwise_top
I1212 06:17:18.883328 20613 net.cpp:395] L1_b7_relu -> L1_b7_sum_eltwise_top (in-place)
I1212 06:17:18.883337 20613 net.cpp:150] Setting up L1_b7_relu
I1212 06:17:18.883344 20613 net.cpp:157] Top shape: 125 16 32 32 (2048000)
I1212 06:17:18.883348 20613 net.cpp:165] Memory required for data: 665089500
I1212 06:17:18.883353 20613 layer_factory.hpp:77] Creating layer L1_b7_sum_eltwise_top_L1_b7_relu_0_split
I1212 06:17:18.883360 20613 net.cpp:100] Creating Layer L1_b7_sum_eltwise_top_L1_b7_relu_0_split
I1212 06:17:18.883366 20613 net.cpp:434] L1_b7_sum_eltwise_top_L1_b7_relu_0_split <- L1_b7_sum_eltwise_top
I1212 06:17:18.883373 20613 net.cpp:408] L1_b7_sum_eltwise_top_L1_b7_relu_0_split -> L1_b7_sum_eltwise_top_L1_b7_relu_0_split_0
I1212 06:17:18.883383 20613 net.cpp:408] L1_b7_sum_eltwise_top_L1_b7_relu_0_split -> L1_b7_sum_eltwise_top_L1_b7_relu_0_split_1
I1212 06:17:18.883429 20613 net.cpp:150] Setting up L1_b7_sum_eltwise_top_L1_b7_relu_0_split
I1212 06:17:18.883440 20613 net.cpp:157] Top shape: 125 16 32 32 (2048000)
I1212 06:17:18.883446 20613 net.cpp:157] Top shape: 125 16 32 32 (2048000)
I1212 06:17:18.883451 20613 net.cpp:165] Memory required for data: 681473500
I1212 06:17:18.883456 20613 layer_factory.hpp:77] Creating layer L1_b8_cbr1_conv
I1212 06:17:18.883471 20613 net.cpp:100] Creating Layer L1_b8_cbr1_conv
I1212 06:17:18.883477 20613 net.cpp:434] L1_b8_cbr1_conv <- L1_b7_sum_eltwise_top_L1_b7_relu_0_split_0
I1212 06:17:18.883486 20613 net.cpp:408] L1_b8_cbr1_conv -> L1_b8_cbr1_conv_top
I1212 06:17:18.883813 20613 net.cpp:150] Setting up L1_b8_cbr1_conv
I1212 06:17:18.883828 20613 net.cpp:157] Top shape: 125 16 32 32 (2048000)
I1212 06:17:18.883833 20613 net.cpp:165] Memory required for data: 689665500
I1212 06:17:18.883842 20613 layer_factory.hpp:77] Creating layer L1_b8_cbr1_bn
I1212 06:17:18.883855 20613 net.cpp:100] Creating Layer L1_b8_cbr1_bn
I1212 06:17:18.883862 20613 net.cpp:434] L1_b8_cbr1_bn <- L1_b8_cbr1_conv_top
I1212 06:17:18.883870 20613 net.cpp:408] L1_b8_cbr1_bn -> L1_b8_cbr1_bn_top
I1212 06:17:18.884119 20613 net.cpp:150] Setting up L1_b8_cbr1_bn
I1212 06:17:18.884141 20613 net.cpp:157] Top shape: 125 16 32 32 (2048000)
I1212 06:17:18.884147 20613 net.cpp:165] Memory required for data: 697857500
I1212 06:17:18.884157 20613 layer_factory.hpp:77] Creating layer L1_b8_cbr1_scale
I1212 06:17:18.884166 20613 net.cpp:100] Creating Layer L1_b8_cbr1_scale
I1212 06:17:18.884172 20613 net.cpp:434] L1_b8_cbr1_scale <- L1_b8_cbr1_bn_top
I1212 06:17:18.884181 20613 net.cpp:395] L1_b8_cbr1_scale -> L1_b8_cbr1_bn_top (in-place)
I1212 06:17:18.884234 20613 layer_factory.hpp:77] Creating layer L1_b8_cbr1_scale
I1212 06:17:18.884382 20613 net.cpp:150] Setting up L1_b8_cbr1_scale
I1212 06:17:18.884394 20613 net.cpp:157] Top shape: 125 16 32 32 (2048000)
I1212 06:17:18.884399 20613 net.cpp:165] Memory required for data: 706049500
I1212 06:17:18.884408 20613 layer_factory.hpp:77] Creating layer L1_b8_cbr1_relu
I1212 06:17:18.884420 20613 net.cpp:100] Creating Layer L1_b8_cbr1_relu
I1212 06:17:18.884426 20613 net.cpp:434] L1_b8_cbr1_relu <- L1_b8_cbr1_bn_top
I1212 06:17:18.884436 20613 net.cpp:395] L1_b8_cbr1_relu -> L1_b8_cbr1_bn_top (in-place)
I1212 06:17:18.884446 20613 net.cpp:150] Setting up L1_b8_cbr1_relu
I1212 06:17:18.884454 20613 net.cpp:157] Top shape: 125 16 32 32 (2048000)
I1212 06:17:18.884459 20613 net.cpp:165] Memory required for data: 714241500
I1212 06:17:18.884462 20613 layer_factory.hpp:77] Creating layer L1_b8_cbr2_conv
I1212 06:17:18.884474 20613 net.cpp:100] Creating Layer L1_b8_cbr2_conv
I1212 06:17:18.884480 20613 net.cpp:434] L1_b8_cbr2_conv <- L1_b8_cbr1_bn_top
I1212 06:17:18.884492 20613 net.cpp:408] L1_b8_cbr2_conv -> L1_b8_cbr2_conv_top
I1212 06:17:18.884815 20613 net.cpp:150] Setting up L1_b8_cbr2_conv
I1212 06:17:18.884829 20613 net.cpp:157] Top shape: 125 16 32 32 (2048000)
I1212 06:17:18.884835 20613 net.cpp:165] Memory required for data: 722433500
I1212 06:17:18.884843 20613 layer_factory.hpp:77] Creating layer L1_b8_cbr2_bn
I1212 06:17:18.884852 20613 net.cpp:100] Creating Layer L1_b8_cbr2_bn
I1212 06:17:18.884860 20613 net.cpp:434] L1_b8_cbr2_bn <- L1_b8_cbr2_conv_top
I1212 06:17:18.884871 20613 net.cpp:408] L1_b8_cbr2_bn -> L1_b8_cbr2_bn_top
I1212 06:17:18.885123 20613 net.cpp:150] Setting up L1_b8_cbr2_bn
I1212 06:17:18.885136 20613 net.cpp:157] Top shape: 125 16 32 32 (2048000)
I1212 06:17:18.885141 20613 net.cpp:165] Memory required for data: 730625500
I1212 06:17:18.885151 20613 layer_factory.hpp:77] Creating layer L1_b8_cbr2_scale
I1212 06:17:18.885164 20613 net.cpp:100] Creating Layer L1_b8_cbr2_scale
I1212 06:17:18.885170 20613 net.cpp:434] L1_b8_cbr2_scale <- L1_b8_cbr2_bn_top
I1212 06:17:18.885179 20613 net.cpp:395] L1_b8_cbr2_scale -> L1_b8_cbr2_bn_top (in-place)
I1212 06:17:18.885231 20613 layer_factory.hpp:77] Creating layer L1_b8_cbr2_scale
I1212 06:17:18.885373 20613 net.cpp:150] Setting up L1_b8_cbr2_scale
I1212 06:17:18.885385 20613 net.cpp:157] Top shape: 125 16 32 32 (2048000)
I1212 06:17:18.885390 20613 net.cpp:165] Memory required for data: 738817500
I1212 06:17:18.885399 20613 layer_factory.hpp:77] Creating layer L1_b8_sum_eltwise
I1212 06:17:18.885411 20613 net.cpp:100] Creating Layer L1_b8_sum_eltwise
I1212 06:17:18.885417 20613 net.cpp:434] L1_b8_sum_eltwise <- L1_b8_cbr2_bn_top
I1212 06:17:18.885424 20613 net.cpp:434] L1_b8_sum_eltwise <- L1_b7_sum_eltwise_top_L1_b7_relu_0_split_1
I1212 06:17:18.885432 20613 net.cpp:408] L1_b8_sum_eltwise -> L1_b8_sum_eltwise_top
I1212 06:17:18.885466 20613 net.cpp:150] Setting up L1_b8_sum_eltwise
I1212 06:17:18.885475 20613 net.cpp:157] Top shape: 125 16 32 32 (2048000)
I1212 06:17:18.885480 20613 net.cpp:165] Memory required for data: 747009500
I1212 06:17:18.885485 20613 layer_factory.hpp:77] Creating layer L1_b8_relu
I1212 06:17:18.885493 20613 net.cpp:100] Creating Layer L1_b8_relu
I1212 06:17:18.885499 20613 net.cpp:434] L1_b8_relu <- L1_b8_sum_eltwise_top
I1212 06:17:18.885509 20613 net.cpp:395] L1_b8_relu -> L1_b8_sum_eltwise_top (in-place)
I1212 06:17:18.885519 20613 net.cpp:150] Setting up L1_b8_relu
I1212 06:17:18.885526 20613 net.cpp:157] Top shape: 125 16 32 32 (2048000)
I1212 06:17:18.885530 20613 net.cpp:165] Memory required for data: 755201500
I1212 06:17:18.885542 20613 layer_factory.hpp:77] Creating layer L1_b8_sum_eltwise_top_L1_b8_relu_0_split
I1212 06:17:18.885550 20613 net.cpp:100] Creating Layer L1_b8_sum_eltwise_top_L1_b8_relu_0_split
I1212 06:17:18.885555 20613 net.cpp:434] L1_b8_sum_eltwise_top_L1_b8_relu_0_split <- L1_b8_sum_eltwise_top
I1212 06:17:18.885563 20613 net.cpp:408] L1_b8_sum_eltwise_top_L1_b8_relu_0_split -> L1_b8_sum_eltwise_top_L1_b8_relu_0_split_0
I1212 06:17:18.885573 20613 net.cpp:408] L1_b8_sum_eltwise_top_L1_b8_relu_0_split -> L1_b8_sum_eltwise_top_L1_b8_relu_0_split_1
I1212 06:17:18.885625 20613 net.cpp:150] Setting up L1_b8_sum_eltwise_top_L1_b8_relu_0_split
I1212 06:17:18.885637 20613 net.cpp:157] Top shape: 125 16 32 32 (2048000)
I1212 06:17:18.885644 20613 net.cpp:157] Top shape: 125 16 32 32 (2048000)
I1212 06:17:18.885649 20613 net.cpp:165] Memory required for data: 771585500
I1212 06:17:18.885654 20613 layer_factory.hpp:77] Creating layer L1_b9_cbr1_conv
I1212 06:17:18.885666 20613 net.cpp:100] Creating Layer L1_b9_cbr1_conv
I1212 06:17:18.885673 20613 net.cpp:434] L1_b9_cbr1_conv <- L1_b8_sum_eltwise_top_L1_b8_relu_0_split_0
I1212 06:17:18.885684 20613 net.cpp:408] L1_b9_cbr1_conv -> L1_b9_cbr1_conv_top
I1212 06:17:18.886008 20613 net.cpp:150] Setting up L1_b9_cbr1_conv
I1212 06:17:18.886029 20613 net.cpp:157] Top shape: 125 16 32 32 (2048000)
I1212 06:17:18.886034 20613 net.cpp:165] Memory required for data: 779777500
I1212 06:17:18.886044 20613 layer_factory.hpp:77] Creating layer L1_b9_cbr1_bn
I1212 06:17:18.886052 20613 net.cpp:100] Creating Layer L1_b9_cbr1_bn
I1212 06:17:18.886059 20613 net.cpp:434] L1_b9_cbr1_bn <- L1_b9_cbr1_conv_top
I1212 06:17:18.886070 20613 net.cpp:408] L1_b9_cbr1_bn -> L1_b9_cbr1_bn_top
I1212 06:17:18.886317 20613 net.cpp:150] Setting up L1_b9_cbr1_bn
I1212 06:17:18.886330 20613 net.cpp:157] Top shape: 125 16 32 32 (2048000)
I1212 06:17:18.886335 20613 net.cpp:165] Memory required for data: 787969500
I1212 06:17:18.886345 20613 layer_factory.hpp:77] Creating layer L1_b9_cbr1_scale
I1212 06:17:18.886354 20613 net.cpp:100] Creating Layer L1_b9_cbr1_scale
I1212 06:17:18.886360 20613 net.cpp:434] L1_b9_cbr1_scale <- L1_b9_cbr1_bn_top
I1212 06:17:18.886371 20613 net.cpp:395] L1_b9_cbr1_scale -> L1_b9_cbr1_bn_top (in-place)
I1212 06:17:18.886425 20613 layer_factory.hpp:77] Creating layer L1_b9_cbr1_scale
I1212 06:17:18.886570 20613 net.cpp:150] Setting up L1_b9_cbr1_scale
I1212 06:17:18.886590 20613 net.cpp:157] Top shape: 125 16 32 32 (2048000)
I1212 06:17:18.886595 20613 net.cpp:165] Memory required for data: 796161500
I1212 06:17:18.886605 20613 layer_factory.hpp:77] Creating layer L1_b9_cbr1_relu
I1212 06:17:18.886613 20613 net.cpp:100] Creating Layer L1_b9_cbr1_relu
I1212 06:17:18.886626 20613 net.cpp:434] L1_b9_cbr1_relu <- L1_b9_cbr1_bn_top
I1212 06:17:18.886633 20613 net.cpp:395] L1_b9_cbr1_relu -> L1_b9_cbr1_bn_top (in-place)
I1212 06:17:18.886643 20613 net.cpp:150] Setting up L1_b9_cbr1_relu
I1212 06:17:18.886651 20613 net.cpp:157] Top shape: 125 16 32 32 (2048000)
I1212 06:17:18.886654 20613 net.cpp:165] Memory required for data: 804353500
I1212 06:17:18.886659 20613 layer_factory.hpp:77] Creating layer L1_b9_cbr2_conv
I1212 06:17:18.886674 20613 net.cpp:100] Creating Layer L1_b9_cbr2_conv
I1212 06:17:18.886680 20613 net.cpp:434] L1_b9_cbr2_conv <- L1_b9_cbr1_bn_top
I1212 06:17:18.886692 20613 net.cpp:408] L1_b9_cbr2_conv -> L1_b9_cbr2_conv_top
I1212 06:17:18.887015 20613 net.cpp:150] Setting up L1_b9_cbr2_conv
I1212 06:17:18.887029 20613 net.cpp:157] Top shape: 125 16 32 32 (2048000)
I1212 06:17:18.887034 20613 net.cpp:165] Memory required for data: 812545500
I1212 06:17:18.887043 20613 layer_factory.hpp:77] Creating layer L1_b9_cbr2_bn
I1212 06:17:18.887055 20613 net.cpp:100] Creating Layer L1_b9_cbr2_bn
I1212 06:17:18.887061 20613 net.cpp:434] L1_b9_cbr2_bn <- L1_b9_cbr2_conv_top
I1212 06:17:18.887073 20613 net.cpp:408] L1_b9_cbr2_bn -> L1_b9_cbr2_bn_top
I1212 06:17:18.887315 20613 net.cpp:150] Setting up L1_b9_cbr2_bn
I1212 06:17:18.887336 20613 net.cpp:157] Top shape: 125 16 32 32 (2048000)
I1212 06:17:18.887341 20613 net.cpp:165] Memory required for data: 820737500
I1212 06:17:18.887372 20613 layer_factory.hpp:77] Creating layer L1_b9_cbr2_scale
I1212 06:17:18.887382 20613 net.cpp:100] Creating Layer L1_b9_cbr2_scale
I1212 06:17:18.887388 20613 net.cpp:434] L1_b9_cbr2_scale <- L1_b9_cbr2_bn_top
I1212 06:17:18.887398 20613 net.cpp:395] L1_b9_cbr2_scale -> L1_b9_cbr2_bn_top (in-place)
I1212 06:17:18.887450 20613 layer_factory.hpp:77] Creating layer L1_b9_cbr2_scale
I1212 06:17:18.887596 20613 net.cpp:150] Setting up L1_b9_cbr2_scale
I1212 06:17:18.887609 20613 net.cpp:157] Top shape: 125 16 32 32 (2048000)
I1212 06:17:18.887614 20613 net.cpp:165] Memory required for data: 828929500
I1212 06:17:18.887629 20613 layer_factory.hpp:77] Creating layer L1_b9_sum_eltwise
I1212 06:17:18.887642 20613 net.cpp:100] Creating Layer L1_b9_sum_eltwise
I1212 06:17:18.887650 20613 net.cpp:434] L1_b9_sum_eltwise <- L1_b9_cbr2_bn_top
I1212 06:17:18.887656 20613 net.cpp:434] L1_b9_sum_eltwise <- L1_b8_sum_eltwise_top_L1_b8_relu_0_split_1
I1212 06:17:18.887663 20613 net.cpp:408] L1_b9_sum_eltwise -> L1_b9_sum_eltwise_top
I1212 06:17:18.887696 20613 net.cpp:150] Setting up L1_b9_sum_eltwise
I1212 06:17:18.887704 20613 net.cpp:157] Top shape: 125 16 32 32 (2048000)
I1212 06:17:18.887709 20613 net.cpp:165] Memory required for data: 837121500
I1212 06:17:18.887715 20613 layer_factory.hpp:77] Creating layer L1_b9_relu
I1212 06:17:18.887727 20613 net.cpp:100] Creating Layer L1_b9_relu
I1212 06:17:18.887732 20613 net.cpp:434] L1_b9_relu <- L1_b9_sum_eltwise_top
I1212 06:17:18.887739 20613 net.cpp:395] L1_b9_relu -> L1_b9_sum_eltwise_top (in-place)
I1212 06:17:18.887748 20613 net.cpp:150] Setting up L1_b9_relu
I1212 06:17:18.887755 20613 net.cpp:157] Top shape: 125 16 32 32 (2048000)
I1212 06:17:18.887759 20613 net.cpp:165] Memory required for data: 845313500
I1212 06:17:18.887764 20613 layer_factory.hpp:77] Creating layer L1_b9_sum_eltwise_top_L1_b9_relu_0_split
I1212 06:17:18.887776 20613 net.cpp:100] Creating Layer L1_b9_sum_eltwise_top_L1_b9_relu_0_split
I1212 06:17:18.887783 20613 net.cpp:434] L1_b9_sum_eltwise_top_L1_b9_relu_0_split <- L1_b9_sum_eltwise_top
I1212 06:17:18.887789 20613 net.cpp:408] L1_b9_sum_eltwise_top_L1_b9_relu_0_split -> L1_b9_sum_eltwise_top_L1_b9_relu_0_split_0
I1212 06:17:18.887799 20613 net.cpp:408] L1_b9_sum_eltwise_top_L1_b9_relu_0_split -> L1_b9_sum_eltwise_top_L1_b9_relu_0_split_1
I1212 06:17:18.887845 20613 net.cpp:150] Setting up L1_b9_sum_eltwise_top_L1_b9_relu_0_split
I1212 06:17:18.887856 20613 net.cpp:157] Top shape: 125 16 32 32 (2048000)
I1212 06:17:18.887863 20613 net.cpp:157] Top shape: 125 16 32 32 (2048000)
I1212 06:17:18.887868 20613 net.cpp:165] Memory required for data: 861697500
I1212 06:17:18.887873 20613 layer_factory.hpp:77] Creating layer L2_b1_cbr1_conv
I1212 06:17:18.887887 20613 net.cpp:100] Creating Layer L2_b1_cbr1_conv
I1212 06:17:18.887893 20613 net.cpp:434] L2_b1_cbr1_conv <- L1_b9_sum_eltwise_top_L1_b9_relu_0_split_0
I1212 06:17:18.887903 20613 net.cpp:408] L2_b1_cbr1_conv -> L2_b1_cbr1_conv_top
I1212 06:17:18.888226 20613 net.cpp:150] Setting up L2_b1_cbr1_conv
I1212 06:17:18.888239 20613 net.cpp:157] Top shape: 125 16 16 16 (512000)
I1212 06:17:18.888244 20613 net.cpp:165] Memory required for data: 863745500
I1212 06:17:18.888254 20613 layer_factory.hpp:77] Creating layer L2_b1_cbr1_bn
I1212 06:17:18.888267 20613 net.cpp:100] Creating Layer L2_b1_cbr1_bn
I1212 06:17:18.888273 20613 net.cpp:434] L2_b1_cbr1_bn <- L2_b1_cbr1_conv_top
I1212 06:17:18.888283 20613 net.cpp:408] L2_b1_cbr1_bn -> L2_b1_cbr1_bn_top
I1212 06:17:18.888523 20613 net.cpp:150] Setting up L2_b1_cbr1_bn
I1212 06:17:18.888536 20613 net.cpp:157] Top shape: 125 16 16 16 (512000)
I1212 06:17:18.888541 20613 net.cpp:165] Memory required for data: 865793500
I1212 06:17:18.888552 20613 layer_factory.hpp:77] Creating layer L2_b1_cbr1_scale
I1212 06:17:18.888561 20613 net.cpp:100] Creating Layer L2_b1_cbr1_scale
I1212 06:17:18.888567 20613 net.cpp:434] L2_b1_cbr1_scale <- L2_b1_cbr1_bn_top
I1212 06:17:18.888582 20613 net.cpp:395] L2_b1_cbr1_scale -> L2_b1_cbr1_bn_top (in-place)
I1212 06:17:18.888645 20613 layer_factory.hpp:77] Creating layer L2_b1_cbr1_scale
I1212 06:17:18.888787 20613 net.cpp:150] Setting up L2_b1_cbr1_scale
I1212 06:17:18.888800 20613 net.cpp:157] Top shape: 125 16 16 16 (512000)
I1212 06:17:18.888805 20613 net.cpp:165] Memory required for data: 867841500
I1212 06:17:18.888814 20613 layer_factory.hpp:77] Creating layer L2_b1_cbr1_relu
I1212 06:17:18.888823 20613 net.cpp:100] Creating Layer L2_b1_cbr1_relu
I1212 06:17:18.888829 20613 net.cpp:434] L2_b1_cbr1_relu <- L2_b1_cbr1_bn_top
I1212 06:17:18.888839 20613 net.cpp:395] L2_b1_cbr1_relu -> L2_b1_cbr1_bn_top (in-place)
I1212 06:17:18.888849 20613 net.cpp:150] Setting up L2_b1_cbr1_relu
I1212 06:17:18.888856 20613 net.cpp:157] Top shape: 125 16 16 16 (512000)
I1212 06:17:18.888861 20613 net.cpp:165] Memory required for data: 869889500
I1212 06:17:18.888865 20613 layer_factory.hpp:77] Creating layer L2_b1_cbr2_conv
I1212 06:17:18.888880 20613 net.cpp:100] Creating Layer L2_b1_cbr2_conv
I1212 06:17:18.888887 20613 net.cpp:434] L2_b1_cbr2_conv <- L2_b1_cbr1_bn_top
I1212 06:17:18.888896 20613 net.cpp:408] L2_b1_cbr2_conv -> L2_b1_cbr2_conv_top
I1212 06:17:18.889217 20613 net.cpp:150] Setting up L2_b1_cbr2_conv
I1212 06:17:18.889231 20613 net.cpp:157] Top shape: 125 16 16 16 (512000)
I1212 06:17:18.889236 20613 net.cpp:165] Memory required for data: 871937500
I1212 06:17:18.889245 20613 layer_factory.hpp:77] Creating layer L2_b1_cbr2_bn
I1212 06:17:18.889259 20613 net.cpp:100] Creating Layer L2_b1_cbr2_bn
I1212 06:17:18.889266 20613 net.cpp:434] L2_b1_cbr2_bn <- L2_b1_cbr2_conv_top
I1212 06:17:18.889276 20613 net.cpp:408] L2_b1_cbr2_bn -> L2_b1_cbr2_bn_top
I1212 06:17:18.889525 20613 net.cpp:150] Setting up L2_b1_cbr2_bn
I1212 06:17:18.889541 20613 net.cpp:157] Top shape: 125 16 16 16 (512000)
I1212 06:17:18.889546 20613 net.cpp:165] Memory required for data: 873985500
I1212 06:17:18.889557 20613 layer_factory.hpp:77] Creating layer L2_b1_cbr2_scale
I1212 06:17:18.889566 20613 net.cpp:100] Creating Layer L2_b1_cbr2_scale
I1212 06:17:18.889571 20613 net.cpp:434] L2_b1_cbr2_scale <- L2_b1_cbr2_bn_top
I1212 06:17:18.889580 20613 net.cpp:395] L2_b1_cbr2_scale -> L2_b1_cbr2_bn_top (in-place)
I1212 06:17:18.889642 20613 layer_factory.hpp:77] Creating layer L2_b1_cbr2_scale
I1212 06:17:18.889792 20613 net.cpp:150] Setting up L2_b1_cbr2_scale
I1212 06:17:18.889806 20613 net.cpp:157] Top shape: 125 16 16 16 (512000)
I1212 06:17:18.889811 20613 net.cpp:165] Memory required for data: 876033500
I1212 06:17:18.889819 20613 layer_factory.hpp:77] Creating layer L2_b1_pool
I1212 06:17:18.889830 20613 net.cpp:100] Creating Layer L2_b1_pool
I1212 06:17:18.889837 20613 net.cpp:434] L2_b1_pool <- L1_b9_sum_eltwise_top_L1_b9_relu_0_split_1
I1212 06:17:18.889848 20613 net.cpp:408] L2_b1_pool -> L2_b1_pool
I1212 06:17:18.889968 20613 net.cpp:150] Setting up L2_b1_pool
I1212 06:17:18.889986 20613 net.cpp:157] Top shape: 125 16 16 16 (512000)
I1212 06:17:18.889991 20613 net.cpp:165] Memory required for data: 878081500
I1212 06:17:18.889997 20613 layer_factory.hpp:77] Creating layer L2_b1_sum_eltwise
I1212 06:17:18.890012 20613 net.cpp:100] Creating Layer L2_b1_sum_eltwise
I1212 06:17:18.890017 20613 net.cpp:434] L2_b1_sum_eltwise <- L2_b1_cbr2_bn_top
I1212 06:17:18.890025 20613 net.cpp:434] L2_b1_sum_eltwise <- L2_b1_pool
I1212 06:17:18.890033 20613 net.cpp:408] L2_b1_sum_eltwise -> L2_b1_sum_eltwise_top
I1212 06:17:18.890067 20613 net.cpp:150] Setting up L2_b1_sum_eltwise
I1212 06:17:18.890076 20613 net.cpp:157] Top shape: 125 16 16 16 (512000)
I1212 06:17:18.890081 20613 net.cpp:165] Memory required for data: 880129500
I1212 06:17:18.890087 20613 layer_factory.hpp:77] Creating layer L2_b1_relu
I1212 06:17:18.890094 20613 net.cpp:100] Creating Layer L2_b1_relu
I1212 06:17:18.890100 20613 net.cpp:434] L2_b1_relu <- L2_b1_sum_eltwise_top
I1212 06:17:18.890111 20613 net.cpp:395] L2_b1_relu -> L2_b1_sum_eltwise_top (in-place)
I1212 06:17:18.890128 20613 net.cpp:150] Setting up L2_b1_relu
I1212 06:17:18.890136 20613 net.cpp:157] Top shape: 125 16 16 16 (512000)
I1212 06:17:18.890141 20613 net.cpp:165] Memory required for data: 882177500
I1212 06:17:18.890146 20613 layer_factory.hpp:77] Creating layer L2_b1_zeros
I1212 06:17:18.890198 20613 net.cpp:100] Creating Layer L2_b1_zeros
I1212 06:17:18.890213 20613 net.cpp:408] L2_b1_zeros -> L2_b1_zeros
I1212 06:17:18.892598 20613 net.cpp:150] Setting up L2_b1_zeros
I1212 06:17:18.892623 20613 net.cpp:157] Top shape: 125 16 16 16 (512000)
I1212 06:17:18.892629 20613 net.cpp:165] Memory required for data: 884225500
I1212 06:17:18.892635 20613 layer_factory.hpp:77] Creating layer L2_b1_concat0
I1212 06:17:18.892650 20613 net.cpp:100] Creating Layer L2_b1_concat0
I1212 06:17:18.892657 20613 net.cpp:434] L2_b1_concat0 <- L2_b1_sum_eltwise_top
I1212 06:17:18.892665 20613 net.cpp:434] L2_b1_concat0 <- L2_b1_zeros
I1212 06:17:18.892673 20613 net.cpp:408] L2_b1_concat0 -> L2_b1_concat0
I1212 06:17:18.892724 20613 net.cpp:150] Setting up L2_b1_concat0
I1212 06:17:18.892736 20613 net.cpp:157] Top shape: 125 32 16 16 (1024000)
I1212 06:17:18.892741 20613 net.cpp:165] Memory required for data: 888321500
I1212 06:17:18.892746 20613 layer_factory.hpp:77] Creating layer L2_b1_concat0_L2_b1_concat0_0_split
I1212 06:17:18.892755 20613 net.cpp:100] Creating Layer L2_b1_concat0_L2_b1_concat0_0_split
I1212 06:17:18.892760 20613 net.cpp:434] L2_b1_concat0_L2_b1_concat0_0_split <- L2_b1_concat0
I1212 06:17:18.892771 20613 net.cpp:408] L2_b1_concat0_L2_b1_concat0_0_split -> L2_b1_concat0_L2_b1_concat0_0_split_0
I1212 06:17:18.892782 20613 net.cpp:408] L2_b1_concat0_L2_b1_concat0_0_split -> L2_b1_concat0_L2_b1_concat0_0_split_1
I1212 06:17:18.892832 20613 net.cpp:150] Setting up L2_b1_concat0_L2_b1_concat0_0_split
I1212 06:17:18.892846 20613 net.cpp:157] Top shape: 125 32 16 16 (1024000)
I1212 06:17:18.892853 20613 net.cpp:157] Top shape: 125 32 16 16 (1024000)
I1212 06:17:18.892858 20613 net.cpp:165] Memory required for data: 896513500
I1212 06:17:18.892863 20613 layer_factory.hpp:77] Creating layer L2_b2_cbr1_conv
I1212 06:17:18.892876 20613 net.cpp:100] Creating Layer L2_b2_cbr1_conv
I1212 06:17:18.892884 20613 net.cpp:434] L2_b2_cbr1_conv <- L2_b1_concat0_L2_b1_concat0_0_split_0
I1212 06:17:18.892894 20613 net.cpp:408] L2_b2_cbr1_conv -> L2_b2_cbr1_conv_top
I1212 06:17:18.894387 20613 net.cpp:150] Setting up L2_b2_cbr1_conv
I1212 06:17:18.894403 20613 net.cpp:157] Top shape: 125 32 16 16 (1024000)
I1212 06:17:18.894409 20613 net.cpp:165] Memory required for data: 900609500
I1212 06:17:18.894419 20613 layer_factory.hpp:77] Creating layer L2_b2_cbr1_bn
I1212 06:17:18.894433 20613 net.cpp:100] Creating Layer L2_b2_cbr1_bn
I1212 06:17:18.894439 20613 net.cpp:434] L2_b2_cbr1_bn <- L2_b2_cbr1_conv_top
I1212 06:17:18.894451 20613 net.cpp:408] L2_b2_cbr1_bn -> L2_b2_cbr1_bn_top
I1212 06:17:18.894709 20613 net.cpp:150] Setting up L2_b2_cbr1_bn
I1212 06:17:18.894723 20613 net.cpp:157] Top shape: 125 32 16 16 (1024000)
I1212 06:17:18.894728 20613 net.cpp:165] Memory required for data: 904705500
I1212 06:17:18.894740 20613 layer_factory.hpp:77] Creating layer L2_b2_cbr1_scale
I1212 06:17:18.894749 20613 net.cpp:100] Creating Layer L2_b2_cbr1_scale
I1212 06:17:18.894757 20613 net.cpp:434] L2_b2_cbr1_scale <- L2_b2_cbr1_bn_top
I1212 06:17:18.894764 20613 net.cpp:395] L2_b2_cbr1_scale -> L2_b2_cbr1_bn_top (in-place)
I1212 06:17:18.894824 20613 layer_factory.hpp:77] Creating layer L2_b2_cbr1_scale
I1212 06:17:18.894969 20613 net.cpp:150] Setting up L2_b2_cbr1_scale
I1212 06:17:18.894982 20613 net.cpp:157] Top shape: 125 32 16 16 (1024000)
I1212 06:17:18.894987 20613 net.cpp:165] Memory required for data: 908801500
I1212 06:17:18.894996 20613 layer_factory.hpp:77] Creating layer L2_b2_cbr1_relu
I1212 06:17:18.895009 20613 net.cpp:100] Creating Layer L2_b2_cbr1_relu
I1212 06:17:18.895015 20613 net.cpp:434] L2_b2_cbr1_relu <- L2_b2_cbr1_bn_top
I1212 06:17:18.895022 20613 net.cpp:395] L2_b2_cbr1_relu -> L2_b2_cbr1_bn_top (in-place)
I1212 06:17:18.895040 20613 net.cpp:150] Setting up L2_b2_cbr1_relu
I1212 06:17:18.895047 20613 net.cpp:157] Top shape: 125 32 16 16 (1024000)
I1212 06:17:18.895052 20613 net.cpp:165] Memory required for data: 912897500
I1212 06:17:18.895057 20613 layer_factory.hpp:77] Creating layer L2_b2_cbr2_conv
I1212 06:17:18.895072 20613 net.cpp:100] Creating Layer L2_b2_cbr2_conv
I1212 06:17:18.895079 20613 net.cpp:434] L2_b2_cbr2_conv <- L2_b2_cbr1_bn_top
I1212 06:17:18.895088 20613 net.cpp:408] L2_b2_cbr2_conv -> L2_b2_cbr2_conv_top
I1212 06:17:18.895550 20613 net.cpp:150] Setting up L2_b2_cbr2_conv
I1212 06:17:18.895565 20613 net.cpp:157] Top shape: 125 32 16 16 (1024000)
I1212 06:17:18.895570 20613 net.cpp:165] Memory required for data: 916993500
I1212 06:17:18.895579 20613 layer_factory.hpp:77] Creating layer L2_b2_cbr2_bn
I1212 06:17:18.895592 20613 net.cpp:100] Creating Layer L2_b2_cbr2_bn
I1212 06:17:18.895599 20613 net.cpp:434] L2_b2_cbr2_bn <- L2_b2_cbr2_conv_top
I1212 06:17:18.895608 20613 net.cpp:408] L2_b2_cbr2_bn -> L2_b2_cbr2_bn_top
I1212 06:17:18.895866 20613 net.cpp:150] Setting up L2_b2_cbr2_bn
I1212 06:17:18.895884 20613 net.cpp:157] Top shape: 125 32 16 16 (1024000)
I1212 06:17:18.895889 20613 net.cpp:165] Memory required for data: 921089500
I1212 06:17:18.895900 20613 layer_factory.hpp:77] Creating layer L2_b2_cbr2_scale
I1212 06:17:18.895908 20613 net.cpp:100] Creating Layer L2_b2_cbr2_scale
I1212 06:17:18.895915 20613 net.cpp:434] L2_b2_cbr2_scale <- L2_b2_cbr2_bn_top
I1212 06:17:18.895922 20613 net.cpp:395] L2_b2_cbr2_scale -> L2_b2_cbr2_bn_top (in-place)
I1212 06:17:18.895978 20613 layer_factory.hpp:77] Creating layer L2_b2_cbr2_scale
I1212 06:17:18.896126 20613 net.cpp:150] Setting up L2_b2_cbr2_scale
I1212 06:17:18.896139 20613 net.cpp:157] Top shape: 125 32 16 16 (1024000)
I1212 06:17:18.896144 20613 net.cpp:165] Memory required for data: 925185500
I1212 06:17:18.896153 20613 layer_factory.hpp:77] Creating layer L2_b2_sum_eltwise
I1212 06:17:18.896163 20613 net.cpp:100] Creating Layer L2_b2_sum_eltwise
I1212 06:17:18.896169 20613 net.cpp:434] L2_b2_sum_eltwise <- L2_b2_cbr2_bn_top
I1212 06:17:18.896176 20613 net.cpp:434] L2_b2_sum_eltwise <- L2_b1_concat0_L2_b1_concat0_0_split_1
I1212 06:17:18.896188 20613 net.cpp:408] L2_b2_sum_eltwise -> L2_b2_sum_eltwise_top
I1212 06:17:18.896214 20613 net.cpp:150] Setting up L2_b2_sum_eltwise
I1212 06:17:18.896224 20613 net.cpp:157] Top shape: 125 32 16 16 (1024000)
I1212 06:17:18.896229 20613 net.cpp:165] Memory required for data: 929281500
I1212 06:17:18.896234 20613 layer_factory.hpp:77] Creating layer L2_b2_relu
I1212 06:17:18.896245 20613 net.cpp:100] Creating Layer L2_b2_relu
I1212 06:17:18.896251 20613 net.cpp:434] L2_b2_relu <- L2_b2_sum_eltwise_top
I1212 06:17:18.896258 20613 net.cpp:395] L2_b2_relu -> L2_b2_sum_eltwise_top (in-place)
I1212 06:17:18.896268 20613 net.cpp:150] Setting up L2_b2_relu
I1212 06:17:18.896275 20613 net.cpp:157] Top shape: 125 32 16 16 (1024000)
I1212 06:17:18.896280 20613 net.cpp:165] Memory required for data: 933377500
I1212 06:17:18.896284 20613 layer_factory.hpp:77] Creating layer L2_b2_sum_eltwise_top_L2_b2_relu_0_split
I1212 06:17:18.896292 20613 net.cpp:100] Creating Layer L2_b2_sum_eltwise_top_L2_b2_relu_0_split
I1212 06:17:18.896297 20613 net.cpp:434] L2_b2_sum_eltwise_top_L2_b2_relu_0_split <- L2_b2_sum_eltwise_top
I1212 06:17:18.896306 20613 net.cpp:408] L2_b2_sum_eltwise_top_L2_b2_relu_0_split -> L2_b2_sum_eltwise_top_L2_b2_relu_0_split_0
I1212 06:17:18.896314 20613 net.cpp:408] L2_b2_sum_eltwise_top_L2_b2_relu_0_split -> L2_b2_sum_eltwise_top_L2_b2_relu_0_split_1
I1212 06:17:18.896363 20613 net.cpp:150] Setting up L2_b2_sum_eltwise_top_L2_b2_relu_0_split
I1212 06:17:18.896375 20613 net.cpp:157] Top shape: 125 32 16 16 (1024000)
I1212 06:17:18.896381 20613 net.cpp:157] Top shape: 125 32 16 16 (1024000)
I1212 06:17:18.896386 20613 net.cpp:165] Memory required for data: 941569500
I1212 06:17:18.896391 20613 layer_factory.hpp:77] Creating layer L2_b3_cbr1_conv
I1212 06:17:18.896406 20613 net.cpp:100] Creating Layer L2_b3_cbr1_conv
I1212 06:17:18.896420 20613 net.cpp:434] L2_b3_cbr1_conv <- L2_b2_sum_eltwise_top_L2_b2_relu_0_split_0
I1212 06:17:18.896430 20613 net.cpp:408] L2_b3_cbr1_conv -> L2_b3_cbr1_conv_top
I1212 06:17:18.896903 20613 net.cpp:150] Setting up L2_b3_cbr1_conv
I1212 06:17:18.896919 20613 net.cpp:157] Top shape: 125 32 16 16 (1024000)
I1212 06:17:18.896924 20613 net.cpp:165] Memory required for data: 945665500
I1212 06:17:18.896934 20613 layer_factory.hpp:77] Creating layer L2_b3_cbr1_bn
I1212 06:17:18.896945 20613 net.cpp:100] Creating Layer L2_b3_cbr1_bn
I1212 06:17:18.896952 20613 net.cpp:434] L2_b3_cbr1_bn <- L2_b3_cbr1_conv_top
I1212 06:17:18.896963 20613 net.cpp:408] L2_b3_cbr1_bn -> L2_b3_cbr1_bn_top
I1212 06:17:18.897209 20613 net.cpp:150] Setting up L2_b3_cbr1_bn
I1212 06:17:18.897225 20613 net.cpp:157] Top shape: 125 32 16 16 (1024000)
I1212 06:17:18.897230 20613 net.cpp:165] Memory required for data: 949761500
I1212 06:17:18.897241 20613 layer_factory.hpp:77] Creating layer L2_b3_cbr1_scale
I1212 06:17:18.897250 20613 net.cpp:100] Creating Layer L2_b3_cbr1_scale
I1212 06:17:18.897256 20613 net.cpp:434] L2_b3_cbr1_scale <- L2_b3_cbr1_bn_top
I1212 06:17:18.897264 20613 net.cpp:395] L2_b3_cbr1_scale -> L2_b3_cbr1_bn_top (in-place)
I1212 06:17:18.897321 20613 layer_factory.hpp:77] Creating layer L2_b3_cbr1_scale
I1212 06:17:18.897470 20613 net.cpp:150] Setting up L2_b3_cbr1_scale
I1212 06:17:18.897483 20613 net.cpp:157] Top shape: 125 32 16 16 (1024000)
I1212 06:17:18.897488 20613 net.cpp:165] Memory required for data: 953857500
I1212 06:17:18.897497 20613 layer_factory.hpp:77] Creating layer L2_b3_cbr1_relu
I1212 06:17:18.897505 20613 net.cpp:100] Creating Layer L2_b3_cbr1_relu
I1212 06:17:18.897511 20613 net.cpp:434] L2_b3_cbr1_relu <- L2_b3_cbr1_bn_top
I1212 06:17:18.897522 20613 net.cpp:395] L2_b3_cbr1_relu -> L2_b3_cbr1_bn_top (in-place)
I1212 06:17:18.897532 20613 net.cpp:150] Setting up L2_b3_cbr1_relu
I1212 06:17:18.897539 20613 net.cpp:157] Top shape: 125 32 16 16 (1024000)
I1212 06:17:18.897543 20613 net.cpp:165] Memory required for data: 957953500
I1212 06:17:18.897548 20613 layer_factory.hpp:77] Creating layer L2_b3_cbr2_conv
I1212 06:17:18.897563 20613 net.cpp:100] Creating Layer L2_b3_cbr2_conv
I1212 06:17:18.897569 20613 net.cpp:434] L2_b3_cbr2_conv <- L2_b3_cbr1_bn_top
I1212 06:17:18.897578 20613 net.cpp:408] L2_b3_cbr2_conv -> L2_b3_cbr2_conv_top
I1212 06:17:18.898051 20613 net.cpp:150] Setting up L2_b3_cbr2_conv
I1212 06:17:18.898066 20613 net.cpp:157] Top shape: 125 32 16 16 (1024000)
I1212 06:17:18.898071 20613 net.cpp:165] Memory required for data: 962049500
I1212 06:17:18.898079 20613 layer_factory.hpp:77] Creating layer L2_b3_cbr2_bn
I1212 06:17:18.898092 20613 net.cpp:100] Creating Layer L2_b3_cbr2_bn
I1212 06:17:18.898098 20613 net.cpp:434] L2_b3_cbr2_bn <- L2_b3_cbr2_conv_top
I1212 06:17:18.898108 20613 net.cpp:408] L2_b3_cbr2_bn -> L2_b3_cbr2_bn_top
I1212 06:17:18.898358 20613 net.cpp:150] Setting up L2_b3_cbr2_bn
I1212 06:17:18.898375 20613 net.cpp:157] Top shape: 125 32 16 16 (1024000)
I1212 06:17:18.898380 20613 net.cpp:165] Memory required for data: 966145500
I1212 06:17:18.898391 20613 layer_factory.hpp:77] Creating layer L2_b3_cbr2_scale
I1212 06:17:18.898399 20613 net.cpp:100] Creating Layer L2_b3_cbr2_scale
I1212 06:17:18.898406 20613 net.cpp:434] L2_b3_cbr2_scale <- L2_b3_cbr2_bn_top
I1212 06:17:18.898413 20613 net.cpp:395] L2_b3_cbr2_scale -> L2_b3_cbr2_bn_top (in-place)
I1212 06:17:18.898468 20613 layer_factory.hpp:77] Creating layer L2_b3_cbr2_scale
I1212 06:17:18.898625 20613 net.cpp:150] Setting up L2_b3_cbr2_scale
I1212 06:17:18.898639 20613 net.cpp:157] Top shape: 125 32 16 16 (1024000)
I1212 06:17:18.898644 20613 net.cpp:165] Memory required for data: 970241500
I1212 06:17:18.898653 20613 layer_factory.hpp:77] Creating layer L2_b3_sum_eltwise
I1212 06:17:18.898663 20613 net.cpp:100] Creating Layer L2_b3_sum_eltwise
I1212 06:17:18.898669 20613 net.cpp:434] L2_b3_sum_eltwise <- L2_b3_cbr2_bn_top
I1212 06:17:18.898676 20613 net.cpp:434] L2_b3_sum_eltwise <- L2_b2_sum_eltwise_top_L2_b2_relu_0_split_1
I1212 06:17:18.898696 20613 net.cpp:408] L2_b3_sum_eltwise -> L2_b3_sum_eltwise_top
I1212 06:17:18.898725 20613 net.cpp:150] Setting up L2_b3_sum_eltwise
I1212 06:17:18.898736 20613 net.cpp:157] Top shape: 125 32 16 16 (1024000)
I1212 06:17:18.898741 20613 net.cpp:165] Memory required for data: 974337500
I1212 06:17:18.898746 20613 layer_factory.hpp:77] Creating layer L2_b3_relu
I1212 06:17:18.898766 20613 net.cpp:100] Creating Layer L2_b3_relu
I1212 06:17:18.898772 20613 net.cpp:434] L2_b3_relu <- L2_b3_sum_eltwise_top
I1212 06:17:18.898780 20613 net.cpp:395] L2_b3_relu -> L2_b3_sum_eltwise_top (in-place)
I1212 06:17:18.898792 20613 net.cpp:150] Setting up L2_b3_relu
I1212 06:17:18.898800 20613 net.cpp:157] Top shape: 125 32 16 16 (1024000)
I1212 06:17:18.898805 20613 net.cpp:165] Memory required for data: 978433500
I1212 06:17:18.898810 20613 layer_factory.hpp:77] Creating layer L2_b3_sum_eltwise_top_L2_b3_relu_0_split
I1212 06:17:18.898818 20613 net.cpp:100] Creating Layer L2_b3_sum_eltwise_top_L2_b3_relu_0_split
I1212 06:17:18.898823 20613 net.cpp:434] L2_b3_sum_eltwise_top_L2_b3_relu_0_split <- L2_b3_sum_eltwise_top
I1212 06:17:18.898831 20613 net.cpp:408] L2_b3_sum_eltwise_top_L2_b3_relu_0_split -> L2_b3_sum_eltwise_top_L2_b3_relu_0_split_0
I1212 06:17:18.898841 20613 net.cpp:408] L2_b3_sum_eltwise_top_L2_b3_relu_0_split -> L2_b3_sum_eltwise_top_L2_b3_relu_0_split_1
I1212 06:17:18.898890 20613 net.cpp:150] Setting up L2_b3_sum_eltwise_top_L2_b3_relu_0_split
I1212 06:17:18.898901 20613 net.cpp:157] Top shape: 125 32 16 16 (1024000)
I1212 06:17:18.898908 20613 net.cpp:157] Top shape: 125 32 16 16 (1024000)
I1212 06:17:18.898913 20613 net.cpp:165] Memory required for data: 986625500
I1212 06:17:18.898918 20613 layer_factory.hpp:77] Creating layer L2_b4_cbr1_conv
I1212 06:17:18.898931 20613 net.cpp:100] Creating Layer L2_b4_cbr1_conv
I1212 06:17:18.898936 20613 net.cpp:434] L2_b4_cbr1_conv <- L2_b3_sum_eltwise_top_L2_b3_relu_0_split_0
I1212 06:17:18.898949 20613 net.cpp:408] L2_b4_cbr1_conv -> L2_b4_cbr1_conv_top
I1212 06:17:18.899416 20613 net.cpp:150] Setting up L2_b4_cbr1_conv
I1212 06:17:18.899431 20613 net.cpp:157] Top shape: 125 32 16 16 (1024000)
I1212 06:17:18.899436 20613 net.cpp:165] Memory required for data: 990721500
I1212 06:17:18.899446 20613 layer_factory.hpp:77] Creating layer L2_b4_cbr1_bn
I1212 06:17:18.899454 20613 net.cpp:100] Creating Layer L2_b4_cbr1_bn
I1212 06:17:18.899461 20613 net.cpp:434] L2_b4_cbr1_bn <- L2_b4_cbr1_conv_top
I1212 06:17:18.899472 20613 net.cpp:408] L2_b4_cbr1_bn -> L2_b4_cbr1_bn_top
I1212 06:17:18.899730 20613 net.cpp:150] Setting up L2_b4_cbr1_bn
I1212 06:17:18.899744 20613 net.cpp:157] Top shape: 125 32 16 16 (1024000)
I1212 06:17:18.899749 20613 net.cpp:165] Memory required for data: 994817500
I1212 06:17:18.899760 20613 layer_factory.hpp:77] Creating layer L2_b4_cbr1_scale
I1212 06:17:18.899771 20613 net.cpp:100] Creating Layer L2_b4_cbr1_scale
I1212 06:17:18.899778 20613 net.cpp:434] L2_b4_cbr1_scale <- L2_b4_cbr1_bn_top
I1212 06:17:18.899786 20613 net.cpp:395] L2_b4_cbr1_scale -> L2_b4_cbr1_bn_top (in-place)
I1212 06:17:18.899840 20613 layer_factory.hpp:77] Creating layer L2_b4_cbr1_scale
I1212 06:17:18.899988 20613 net.cpp:150] Setting up L2_b4_cbr1_scale
I1212 06:17:18.900002 20613 net.cpp:157] Top shape: 125 32 16 16 (1024000)
I1212 06:17:18.900007 20613 net.cpp:165] Memory required for data: 998913500
I1212 06:17:18.900015 20613 layer_factory.hpp:77] Creating layer L2_b4_cbr1_relu
I1212 06:17:18.900027 20613 net.cpp:100] Creating Layer L2_b4_cbr1_relu
I1212 06:17:18.900033 20613 net.cpp:434] L2_b4_cbr1_relu <- L2_b4_cbr1_bn_top
I1212 06:17:18.900040 20613 net.cpp:395] L2_b4_cbr1_relu -> L2_b4_cbr1_bn_top (in-place)
I1212 06:17:18.900050 20613 net.cpp:150] Setting up L2_b4_cbr1_relu
I1212 06:17:18.900058 20613 net.cpp:157] Top shape: 125 32 16 16 (1024000)
I1212 06:17:18.900061 20613 net.cpp:165] Memory required for data: 1003009500
I1212 06:17:18.900066 20613 layer_factory.hpp:77] Creating layer L2_b4_cbr2_conv
I1212 06:17:18.900080 20613 net.cpp:100] Creating Layer L2_b4_cbr2_conv
I1212 06:17:18.900094 20613 net.cpp:434] L2_b4_cbr2_conv <- L2_b4_cbr1_bn_top
I1212 06:17:18.900105 20613 net.cpp:408] L2_b4_cbr2_conv -> L2_b4_cbr2_conv_top
I1212 06:17:18.900565 20613 net.cpp:150] Setting up L2_b4_cbr2_conv
I1212 06:17:18.900580 20613 net.cpp:157] Top shape: 125 32 16 16 (1024000)
I1212 06:17:18.900585 20613 net.cpp:165] Memory required for data: 1007105500
I1212 06:17:18.900593 20613 layer_factory.hpp:77] Creating layer L2_b4_cbr2_bn
I1212 06:17:18.900604 20613 net.cpp:100] Creating Layer L2_b4_cbr2_bn
I1212 06:17:18.900609 20613 net.cpp:434] L2_b4_cbr2_bn <- L2_b4_cbr2_conv_top
I1212 06:17:18.900629 20613 net.cpp:408] L2_b4_cbr2_bn -> L2_b4_cbr2_bn_top
I1212 06:17:18.900879 20613 net.cpp:150] Setting up L2_b4_cbr2_bn
I1212 06:17:18.900892 20613 net.cpp:157] Top shape: 125 32 16 16 (1024000)
I1212 06:17:18.900897 20613 net.cpp:165] Memory required for data: 1011201500
I1212 06:17:18.900908 20613 layer_factory.hpp:77] Creating layer L2_b4_cbr2_scale
I1212 06:17:18.900924 20613 net.cpp:100] Creating Layer L2_b4_cbr2_scale
I1212 06:17:18.900931 20613 net.cpp:434] L2_b4_cbr2_scale <- L2_b4_cbr2_bn_top
I1212 06:17:18.900939 20613 net.cpp:395] L2_b4_cbr2_scale -> L2_b4_cbr2_bn_top (in-place)
I1212 06:17:18.900990 20613 layer_factory.hpp:77] Creating layer L2_b4_cbr2_scale
I1212 06:17:18.901137 20613 net.cpp:150] Setting up L2_b4_cbr2_scale
I1212 06:17:18.901150 20613 net.cpp:157] Top shape: 125 32 16 16 (1024000)
I1212 06:17:18.901155 20613 net.cpp:165] Memory required for data: 1015297500
I1212 06:17:18.901165 20613 layer_factory.hpp:77] Creating layer L2_b4_sum_eltwise
I1212 06:17:18.901173 20613 net.cpp:100] Creating Layer L2_b4_sum_eltwise
I1212 06:17:18.901180 20613 net.cpp:434] L2_b4_sum_eltwise <- L2_b4_cbr2_bn_top
I1212 06:17:18.901190 20613 net.cpp:434] L2_b4_sum_eltwise <- L2_b3_sum_eltwise_top_L2_b3_relu_0_split_1
I1212 06:17:18.901197 20613 net.cpp:408] L2_b4_sum_eltwise -> L2_b4_sum_eltwise_top
I1212 06:17:18.901224 20613 net.cpp:150] Setting up L2_b4_sum_eltwise
I1212 06:17:18.901237 20613 net.cpp:157] Top shape: 125 32 16 16 (1024000)
I1212 06:17:18.901242 20613 net.cpp:165] Memory required for data: 1019393500
I1212 06:17:18.901247 20613 layer_factory.hpp:77] Creating layer L2_b4_relu
I1212 06:17:18.901255 20613 net.cpp:100] Creating Layer L2_b4_relu
I1212 06:17:18.901260 20613 net.cpp:434] L2_b4_relu <- L2_b4_sum_eltwise_top
I1212 06:17:18.901268 20613 net.cpp:395] L2_b4_relu -> L2_b4_sum_eltwise_top (in-place)
I1212 06:17:18.901278 20613 net.cpp:150] Setting up L2_b4_relu
I1212 06:17:18.901283 20613 net.cpp:157] Top shape: 125 32 16 16 (1024000)
I1212 06:17:18.901288 20613 net.cpp:165] Memory required for data: 1023489500
I1212 06:17:18.901293 20613 layer_factory.hpp:77] Creating layer L2_b4_sum_eltwise_top_L2_b4_relu_0_split
I1212 06:17:18.901304 20613 net.cpp:100] Creating Layer L2_b4_sum_eltwise_top_L2_b4_relu_0_split
I1212 06:17:18.901309 20613 net.cpp:434] L2_b4_sum_eltwise_top_L2_b4_relu_0_split <- L2_b4_sum_eltwise_top
I1212 06:17:18.901316 20613 net.cpp:408] L2_b4_sum_eltwise_top_L2_b4_relu_0_split -> L2_b4_sum_eltwise_top_L2_b4_relu_0_split_0
I1212 06:17:18.901326 20613 net.cpp:408] L2_b4_sum_eltwise_top_L2_b4_relu_0_split -> L2_b4_sum_eltwise_top_L2_b4_relu_0_split_1
I1212 06:17:18.901373 20613 net.cpp:150] Setting up L2_b4_sum_eltwise_top_L2_b4_relu_0_split
I1212 06:17:18.901386 20613 net.cpp:157] Top shape: 125 32 16 16 (1024000)
I1212 06:17:18.901391 20613 net.cpp:157] Top shape: 125 32 16 16 (1024000)
I1212 06:17:18.901396 20613 net.cpp:165] Memory required for data: 1031681500
I1212 06:17:18.901401 20613 layer_factory.hpp:77] Creating layer L2_b5_cbr1_conv
I1212 06:17:18.901413 20613 net.cpp:100] Creating Layer L2_b5_cbr1_conv
I1212 06:17:18.901419 20613 net.cpp:434] L2_b5_cbr1_conv <- L2_b4_sum_eltwise_top_L2_b4_relu_0_split_0
I1212 06:17:18.901432 20613 net.cpp:408] L2_b5_cbr1_conv -> L2_b5_cbr1_conv_top
I1212 06:17:18.901904 20613 net.cpp:150] Setting up L2_b5_cbr1_conv
I1212 06:17:18.901919 20613 net.cpp:157] Top shape: 125 32 16 16 (1024000)
I1212 06:17:18.901932 20613 net.cpp:165] Memory required for data: 1035777500
I1212 06:17:18.901940 20613 layer_factory.hpp:77] Creating layer L2_b5_cbr1_bn
I1212 06:17:18.901950 20613 net.cpp:100] Creating Layer L2_b5_cbr1_bn
I1212 06:17:18.901957 20613 net.cpp:434] L2_b5_cbr1_bn <- L2_b5_cbr1_conv_top
I1212 06:17:18.901968 20613 net.cpp:408] L2_b5_cbr1_bn -> L2_b5_cbr1_bn_top
I1212 06:17:18.902221 20613 net.cpp:150] Setting up L2_b5_cbr1_bn
I1212 06:17:18.902235 20613 net.cpp:157] Top shape: 125 32 16 16 (1024000)
I1212 06:17:18.902240 20613 net.cpp:165] Memory required for data: 1039873500
I1212 06:17:18.902251 20613 layer_factory.hpp:77] Creating layer L2_b5_cbr1_scale
I1212 06:17:18.902262 20613 net.cpp:100] Creating Layer L2_b5_cbr1_scale
I1212 06:17:18.902268 20613 net.cpp:434] L2_b5_cbr1_scale <- L2_b5_cbr1_bn_top
I1212 06:17:18.902276 20613 net.cpp:395] L2_b5_cbr1_scale -> L2_b5_cbr1_bn_top (in-place)
I1212 06:17:18.902331 20613 layer_factory.hpp:77] Creating layer L2_b5_cbr1_scale
I1212 06:17:18.902482 20613 net.cpp:150] Setting up L2_b5_cbr1_scale
I1212 06:17:18.902495 20613 net.cpp:157] Top shape: 125 32 16 16 (1024000)
I1212 06:17:18.902500 20613 net.cpp:165] Memory required for data: 1043969500
I1212 06:17:18.902509 20613 layer_factory.hpp:77] Creating layer L2_b5_cbr1_relu
I1212 06:17:18.902525 20613 net.cpp:100] Creating Layer L2_b5_cbr1_relu
I1212 06:17:18.902531 20613 net.cpp:434] L2_b5_cbr1_relu <- L2_b5_cbr1_bn_top
I1212 06:17:18.902539 20613 net.cpp:395] L2_b5_cbr1_relu -> L2_b5_cbr1_bn_top (in-place)
I1212 06:17:18.902549 20613 net.cpp:150] Setting up L2_b5_cbr1_relu
I1212 06:17:18.902555 20613 net.cpp:157] Top shape: 125 32 16 16 (1024000)
I1212 06:17:18.902559 20613 net.cpp:165] Memory required for data: 1048065500
I1212 06:17:18.902565 20613 layer_factory.hpp:77] Creating layer L2_b5_cbr2_conv
I1212 06:17:18.902580 20613 net.cpp:100] Creating Layer L2_b5_cbr2_conv
I1212 06:17:18.902586 20613 net.cpp:434] L2_b5_cbr2_conv <- L2_b5_cbr1_bn_top
I1212 06:17:18.902597 20613 net.cpp:408] L2_b5_cbr2_conv -> L2_b5_cbr2_conv_top
I1212 06:17:18.903062 20613 net.cpp:150] Setting up L2_b5_cbr2_conv
I1212 06:17:18.903077 20613 net.cpp:157] Top shape: 125 32 16 16 (1024000)
I1212 06:17:18.903082 20613 net.cpp:165] Memory required for data: 1052161500
I1212 06:17:18.903091 20613 layer_factory.hpp:77] Creating layer L2_b5_cbr2_bn
I1212 06:17:18.903101 20613 net.cpp:100] Creating Layer L2_b5_cbr2_bn
I1212 06:17:18.903107 20613 net.cpp:434] L2_b5_cbr2_bn <- L2_b5_cbr2_conv_top
I1212 06:17:18.903115 20613 net.cpp:408] L2_b5_cbr2_bn -> L2_b5_cbr2_bn_top
I1212 06:17:18.903362 20613 net.cpp:150] Setting up L2_b5_cbr2_bn
I1212 06:17:18.903375 20613 net.cpp:157] Top shape: 125 32 16 16 (1024000)
I1212 06:17:18.903380 20613 net.cpp:165] Memory required for data: 1056257500
I1212 06:17:18.903391 20613 layer_factory.hpp:77] Creating layer L2_b5_cbr2_scale
I1212 06:17:18.903400 20613 net.cpp:100] Creating Layer L2_b5_cbr2_scale
I1212 06:17:18.903405 20613 net.cpp:434] L2_b5_cbr2_scale <- L2_b5_cbr2_bn_top
I1212 06:17:18.903416 20613 net.cpp:395] L2_b5_cbr2_scale -> L2_b5_cbr2_bn_top (in-place)
I1212 06:17:18.903472 20613 layer_factory.hpp:77] Creating layer L2_b5_cbr2_scale
I1212 06:17:18.903625 20613 net.cpp:150] Setting up L2_b5_cbr2_scale
I1212 06:17:18.903638 20613 net.cpp:157] Top shape: 125 32 16 16 (1024000)
I1212 06:17:18.903645 20613 net.cpp:165] Memory required for data: 1060353500
I1212 06:17:18.903653 20613 layer_factory.hpp:77] Creating layer L2_b5_sum_eltwise
I1212 06:17:18.903662 20613 net.cpp:100] Creating Layer L2_b5_sum_eltwise
I1212 06:17:18.903668 20613 net.cpp:434] L2_b5_sum_eltwise <- L2_b5_cbr2_bn_top
I1212 06:17:18.903676 20613 net.cpp:434] L2_b5_sum_eltwise <- L2_b4_sum_eltwise_top_L2_b4_relu_0_split_1
I1212 06:17:18.903687 20613 net.cpp:408] L2_b5_sum_eltwise -> L2_b5_sum_eltwise_top
I1212 06:17:18.903714 20613 net.cpp:150] Setting up L2_b5_sum_eltwise
I1212 06:17:18.903726 20613 net.cpp:157] Top shape: 125 32 16 16 (1024000)
I1212 06:17:18.903731 20613 net.cpp:165] Memory required for data: 1064449500
I1212 06:17:18.903743 20613 layer_factory.hpp:77] Creating layer L2_b5_relu
I1212 06:17:18.903753 20613 net.cpp:100] Creating Layer L2_b5_relu
I1212 06:17:18.903758 20613 net.cpp:434] L2_b5_relu <- L2_b5_sum_eltwise_top
I1212 06:17:18.903765 20613 net.cpp:395] L2_b5_relu -> L2_b5_sum_eltwise_top (in-place)
I1212 06:17:18.903774 20613 net.cpp:150] Setting up L2_b5_relu
I1212 06:17:18.903781 20613 net.cpp:157] Top shape: 125 32 16 16 (1024000)
I1212 06:17:18.903785 20613 net.cpp:165] Memory required for data: 1068545500
I1212 06:17:18.903790 20613 layer_factory.hpp:77] Creating layer L2_b5_sum_eltwise_top_L2_b5_relu_0_split
I1212 06:17:18.903800 20613 net.cpp:100] Creating Layer L2_b5_sum_eltwise_top_L2_b5_relu_0_split
I1212 06:17:18.903806 20613 net.cpp:434] L2_b5_sum_eltwise_top_L2_b5_relu_0_split <- L2_b5_sum_eltwise_top
I1212 06:17:18.903813 20613 net.cpp:408] L2_b5_sum_eltwise_top_L2_b5_relu_0_split -> L2_b5_sum_eltwise_top_L2_b5_relu_0_split_0
I1212 06:17:18.903823 20613 net.cpp:408] L2_b5_sum_eltwise_top_L2_b5_relu_0_split -> L2_b5_sum_eltwise_top_L2_b5_relu_0_split_1
I1212 06:17:18.903868 20613 net.cpp:150] Setting up L2_b5_sum_eltwise_top_L2_b5_relu_0_split
I1212 06:17:18.903883 20613 net.cpp:157] Top shape: 125 32 16 16 (1024000)
I1212 06:17:18.903890 20613 net.cpp:157] Top shape: 125 32 16 16 (1024000)
I1212 06:17:18.903894 20613 net.cpp:165] Memory required for data: 1076737500
I1212 06:17:18.903900 20613 layer_factory.hpp:77] Creating layer L2_b6_cbr1_conv
I1212 06:17:18.903911 20613 net.cpp:100] Creating Layer L2_b6_cbr1_conv
I1212 06:17:18.903918 20613 net.cpp:434] L2_b6_cbr1_conv <- L2_b5_sum_eltwise_top_L2_b5_relu_0_split_0
I1212 06:17:18.903928 20613 net.cpp:408] L2_b6_cbr1_conv -> L2_b6_cbr1_conv_top
I1212 06:17:18.904394 20613 net.cpp:150] Setting up L2_b6_cbr1_conv
I1212 06:17:18.904412 20613 net.cpp:157] Top shape: 125 32 16 16 (1024000)
I1212 06:17:18.904417 20613 net.cpp:165] Memory required for data: 1080833500
I1212 06:17:18.904426 20613 layer_factory.hpp:77] Creating layer L2_b6_cbr1_bn
I1212 06:17:18.904436 20613 net.cpp:100] Creating Layer L2_b6_cbr1_bn
I1212 06:17:18.904443 20613 net.cpp:434] L2_b6_cbr1_bn <- L2_b6_cbr1_conv_top
I1212 06:17:18.904455 20613 net.cpp:408] L2_b6_cbr1_bn -> L2_b6_cbr1_bn_top
I1212 06:17:18.904722 20613 net.cpp:150] Setting up L2_b6_cbr1_bn
I1212 06:17:18.904736 20613 net.cpp:157] Top shape: 125 32 16 16 (1024000)
I1212 06:17:18.904742 20613 net.cpp:165] Memory required for data: 1084929500
I1212 06:17:18.904752 20613 layer_factory.hpp:77] Creating layer L2_b6_cbr1_scale
I1212 06:17:18.904764 20613 net.cpp:100] Creating Layer L2_b6_cbr1_scale
I1212 06:17:18.904770 20613 net.cpp:434] L2_b6_cbr1_scale <- L2_b6_cbr1_bn_top
I1212 06:17:18.904778 20613 net.cpp:395] L2_b6_cbr1_scale -> L2_b6_cbr1_bn_top (in-place)
I1212 06:17:18.904830 20613 layer_factory.hpp:77] Creating layer L2_b6_cbr1_scale
I1212 06:17:18.904978 20613 net.cpp:150] Setting up L2_b6_cbr1_scale
I1212 06:17:18.904990 20613 net.cpp:157] Top shape: 125 32 16 16 (1024000)
I1212 06:17:18.904995 20613 net.cpp:165] Memory required for data: 1089025500
I1212 06:17:18.905004 20613 layer_factory.hpp:77] Creating layer L2_b6_cbr1_relu
I1212 06:17:18.905012 20613 net.cpp:100] Creating Layer L2_b6_cbr1_relu
I1212 06:17:18.905019 20613 net.cpp:434] L2_b6_cbr1_relu <- L2_b6_cbr1_bn_top
I1212 06:17:18.905028 20613 net.cpp:395] L2_b6_cbr1_relu -> L2_b6_cbr1_bn_top (in-place)
I1212 06:17:18.905038 20613 net.cpp:150] Setting up L2_b6_cbr1_relu
I1212 06:17:18.905045 20613 net.cpp:157] Top shape: 125 32 16 16 (1024000)
I1212 06:17:18.905050 20613 net.cpp:165] Memory required for data: 1093121500
I1212 06:17:18.905055 20613 layer_factory.hpp:77] Creating layer L2_b6_cbr2_conv
I1212 06:17:18.905069 20613 net.cpp:100] Creating Layer L2_b6_cbr2_conv
I1212 06:17:18.905076 20613 net.cpp:434] L2_b6_cbr2_conv <- L2_b6_cbr1_bn_top
I1212 06:17:18.905084 20613 net.cpp:408] L2_b6_cbr2_conv -> L2_b6_cbr2_conv_top
I1212 06:17:18.905550 20613 net.cpp:150] Setting up L2_b6_cbr2_conv
I1212 06:17:18.905565 20613 net.cpp:157] Top shape: 125 32 16 16 (1024000)
I1212 06:17:18.905575 20613 net.cpp:165] Memory required for data: 1097217500
I1212 06:17:18.905586 20613 layer_factory.hpp:77] Creating layer L2_b6_cbr2_bn
I1212 06:17:18.905598 20613 net.cpp:100] Creating Layer L2_b6_cbr2_bn
I1212 06:17:18.905606 20613 net.cpp:434] L2_b6_cbr2_bn <- L2_b6_cbr2_conv_top
I1212 06:17:18.905613 20613 net.cpp:408] L2_b6_cbr2_bn -> L2_b6_cbr2_bn_top
I1212 06:17:18.905869 20613 net.cpp:150] Setting up L2_b6_cbr2_bn
I1212 06:17:18.905882 20613 net.cpp:157] Top shape: 125 32 16 16 (1024000)
I1212 06:17:18.905887 20613 net.cpp:165] Memory required for data: 1101313500
I1212 06:17:18.905897 20613 layer_factory.hpp:77] Creating layer L2_b6_cbr2_scale
I1212 06:17:18.905906 20613 net.cpp:100] Creating Layer L2_b6_cbr2_scale
I1212 06:17:18.905912 20613 net.cpp:434] L2_b6_cbr2_scale <- L2_b6_cbr2_bn_top
I1212 06:17:18.905923 20613 net.cpp:395] L2_b6_cbr2_scale -> L2_b6_cbr2_bn_top (in-place)
I1212 06:17:18.905979 20613 layer_factory.hpp:77] Creating layer L2_b6_cbr2_scale
I1212 06:17:18.906132 20613 net.cpp:150] Setting up L2_b6_cbr2_scale
I1212 06:17:18.906146 20613 net.cpp:157] Top shape: 125 32 16 16 (1024000)
I1212 06:17:18.906150 20613 net.cpp:165] Memory required for data: 1105409500
I1212 06:17:18.906159 20613 layer_factory.hpp:77] Creating layer L2_b6_sum_eltwise
I1212 06:17:18.906168 20613 net.cpp:100] Creating Layer L2_b6_sum_eltwise
I1212 06:17:18.906174 20613 net.cpp:434] L2_b6_sum_eltwise <- L2_b6_cbr2_bn_top
I1212 06:17:18.906182 20613 net.cpp:434] L2_b6_sum_eltwise <- L2_b5_sum_eltwise_top_L2_b5_relu_0_split_1
I1212 06:17:18.906194 20613 net.cpp:408] L2_b6_sum_eltwise -> L2_b6_sum_eltwise_top
I1212 06:17:18.906222 20613 net.cpp:150] Setting up L2_b6_sum_eltwise
I1212 06:17:18.906231 20613 net.cpp:157] Top shape: 125 32 16 16 (1024000)
I1212 06:17:18.906236 20613 net.cpp:165] Memory required for data: 1109505500
I1212 06:17:18.906241 20613 layer_factory.hpp:77] Creating layer L2_b6_relu
I1212 06:17:18.906252 20613 net.cpp:100] Creating Layer L2_b6_relu
I1212 06:17:18.906258 20613 net.cpp:434] L2_b6_relu <- L2_b6_sum_eltwise_top
I1212 06:17:18.906265 20613 net.cpp:395] L2_b6_relu -> L2_b6_sum_eltwise_top (in-place)
I1212 06:17:18.906275 20613 net.cpp:150] Setting up L2_b6_relu
I1212 06:17:18.906281 20613 net.cpp:157] Top shape: 125 32 16 16 (1024000)
I1212 06:17:18.906286 20613 net.cpp:165] Memory required for data: 1113601500
I1212 06:17:18.906291 20613 layer_factory.hpp:77] Creating layer L2_b6_sum_eltwise_top_L2_b6_relu_0_split
I1212 06:17:18.906301 20613 net.cpp:100] Creating Layer L2_b6_sum_eltwise_top_L2_b6_relu_0_split
I1212 06:17:18.906306 20613 net.cpp:434] L2_b6_sum_eltwise_top_L2_b6_relu_0_split <- L2_b6_sum_eltwise_top
I1212 06:17:18.906314 20613 net.cpp:408] L2_b6_sum_eltwise_top_L2_b6_relu_0_split -> L2_b6_sum_eltwise_top_L2_b6_relu_0_split_0
I1212 06:17:18.906324 20613 net.cpp:408] L2_b6_sum_eltwise_top_L2_b6_relu_0_split -> L2_b6_sum_eltwise_top_L2_b6_relu_0_split_1
I1212 06:17:18.906368 20613 net.cpp:150] Setting up L2_b6_sum_eltwise_top_L2_b6_relu_0_split
I1212 06:17:18.906383 20613 net.cpp:157] Top shape: 125 32 16 16 (1024000)
I1212 06:17:18.906389 20613 net.cpp:157] Top shape: 125 32 16 16 (1024000)
I1212 06:17:18.906394 20613 net.cpp:165] Memory required for data: 1121793500
I1212 06:17:18.906399 20613 layer_factory.hpp:77] Creating layer L2_b7_cbr1_conv
I1212 06:17:18.906411 20613 net.cpp:100] Creating Layer L2_b7_cbr1_conv
I1212 06:17:18.906417 20613 net.cpp:434] L2_b7_cbr1_conv <- L2_b6_sum_eltwise_top_L2_b6_relu_0_split_0
I1212 06:17:18.906427 20613 net.cpp:408] L2_b7_cbr1_conv -> L2_b7_cbr1_conv_top
I1212 06:17:18.906903 20613 net.cpp:150] Setting up L2_b7_cbr1_conv
I1212 06:17:18.906916 20613 net.cpp:157] Top shape: 125 32 16 16 (1024000)
I1212 06:17:18.906921 20613 net.cpp:165] Memory required for data: 1125889500
I1212 06:17:18.906930 20613 layer_factory.hpp:77] Creating layer L2_b7_cbr1_bn
I1212 06:17:18.906944 20613 net.cpp:100] Creating Layer L2_b7_cbr1_bn
I1212 06:17:18.906950 20613 net.cpp:434] L2_b7_cbr1_bn <- L2_b7_cbr1_conv_top
I1212 06:17:18.906965 20613 net.cpp:408] L2_b7_cbr1_bn -> L2_b7_cbr1_bn_top
I1212 06:17:18.907222 20613 net.cpp:150] Setting up L2_b7_cbr1_bn
I1212 06:17:18.907234 20613 net.cpp:157] Top shape: 125 32 16 16 (1024000)
I1212 06:17:18.907239 20613 net.cpp:165] Memory required for data: 1129985500
I1212 06:17:18.907250 20613 layer_factory.hpp:77] Creating layer L2_b7_cbr1_scale
I1212 06:17:18.907259 20613 net.cpp:100] Creating Layer L2_b7_cbr1_scale
I1212 06:17:18.907265 20613 net.cpp:434] L2_b7_cbr1_scale <- L2_b7_cbr1_bn_top
I1212 06:17:18.907276 20613 net.cpp:395] L2_b7_cbr1_scale -> L2_b7_cbr1_bn_top (in-place)
I1212 06:17:18.907332 20613 layer_factory.hpp:77] Creating layer L2_b7_cbr1_scale
I1212 06:17:18.907482 20613 net.cpp:150] Setting up L2_b7_cbr1_scale
I1212 06:17:18.907495 20613 net.cpp:157] Top shape: 125 32 16 16 (1024000)
I1212 06:17:18.907500 20613 net.cpp:165] Memory required for data: 1134081500
I1212 06:17:18.907510 20613 layer_factory.hpp:77] Creating layer L2_b7_cbr1_relu
I1212 06:17:18.907517 20613 net.cpp:100] Creating Layer L2_b7_cbr1_relu
I1212 06:17:18.907523 20613 net.cpp:434] L2_b7_cbr1_relu <- L2_b7_cbr1_bn_top
I1212 06:17:18.907534 20613 net.cpp:395] L2_b7_cbr1_relu -> L2_b7_cbr1_bn_top (in-place)
I1212 06:17:18.907546 20613 net.cpp:150] Setting up L2_b7_cbr1_relu
I1212 06:17:18.907552 20613 net.cpp:157] Top shape: 125 32 16 16 (1024000)
I1212 06:17:18.907557 20613 net.cpp:165] Memory required for data: 1138177500
I1212 06:17:18.907562 20613 layer_factory.hpp:77] Creating layer L2_b7_cbr2_conv
I1212 06:17:18.907577 20613 net.cpp:100] Creating Layer L2_b7_cbr2_conv
I1212 06:17:18.907582 20613 net.cpp:434] L2_b7_cbr2_conv <- L2_b7_cbr1_bn_top
I1212 06:17:18.907591 20613 net.cpp:408] L2_b7_cbr2_conv -> L2_b7_cbr2_conv_top
I1212 06:17:18.908071 20613 net.cpp:150] Setting up L2_b7_cbr2_conv
I1212 06:17:18.908087 20613 net.cpp:157] Top shape: 125 32 16 16 (1024000)
I1212 06:17:18.908092 20613 net.cpp:165] Memory required for data: 1142273500
I1212 06:17:18.908100 20613 layer_factory.hpp:77] Creating layer L2_b7_cbr2_bn
I1212 06:17:18.908113 20613 net.cpp:100] Creating Layer L2_b7_cbr2_bn
I1212 06:17:18.908119 20613 net.cpp:434] L2_b7_cbr2_bn <- L2_b7_cbr2_conv_top
I1212 06:17:18.908128 20613 net.cpp:408] L2_b7_cbr2_bn -> L2_b7_cbr2_bn_top
I1212 06:17:18.908382 20613 net.cpp:150] Setting up L2_b7_cbr2_bn
I1212 06:17:18.908396 20613 net.cpp:157] Top shape: 125 32 16 16 (1024000)
I1212 06:17:18.908401 20613 net.cpp:165] Memory required for data: 1146369500
I1212 06:17:18.908411 20613 layer_factory.hpp:77] Creating layer L2_b7_cbr2_scale
I1212 06:17:18.908421 20613 net.cpp:100] Creating Layer L2_b7_cbr2_scale
I1212 06:17:18.908427 20613 net.cpp:434] L2_b7_cbr2_scale <- L2_b7_cbr2_bn_top
I1212 06:17:18.908438 20613 net.cpp:395] L2_b7_cbr2_scale -> L2_b7_cbr2_bn_top (in-place)
I1212 06:17:18.908496 20613 layer_factory.hpp:77] Creating layer L2_b7_cbr2_scale
I1212 06:17:18.908682 20613 net.cpp:150] Setting up L2_b7_cbr2_scale
I1212 06:17:18.908696 20613 net.cpp:157] Top shape: 125 32 16 16 (1024000)
I1212 06:17:18.908701 20613 net.cpp:165] Memory required for data: 1150465500
I1212 06:17:18.908711 20613 layer_factory.hpp:77] Creating layer L2_b7_sum_eltwise
I1212 06:17:18.908720 20613 net.cpp:100] Creating Layer L2_b7_sum_eltwise
I1212 06:17:18.908726 20613 net.cpp:434] L2_b7_sum_eltwise <- L2_b7_cbr2_bn_top
I1212 06:17:18.908733 20613 net.cpp:434] L2_b7_sum_eltwise <- L2_b6_sum_eltwise_top_L2_b6_relu_0_split_1
I1212 06:17:18.908745 20613 net.cpp:408] L2_b7_sum_eltwise -> L2_b7_sum_eltwise_top
I1212 06:17:18.908772 20613 net.cpp:150] Setting up L2_b7_sum_eltwise
I1212 06:17:18.908782 20613 net.cpp:157] Top shape: 125 32 16 16 (1024000)
I1212 06:17:18.908787 20613 net.cpp:165] Memory required for data: 1154561500
I1212 06:17:18.908792 20613 layer_factory.hpp:77] Creating layer L2_b7_relu
I1212 06:17:18.908803 20613 net.cpp:100] Creating Layer L2_b7_relu
I1212 06:17:18.908809 20613 net.cpp:434] L2_b7_relu <- L2_b7_sum_eltwise_top
I1212 06:17:18.908816 20613 net.cpp:395] L2_b7_relu -> L2_b7_sum_eltwise_top (in-place)
I1212 06:17:18.908833 20613 net.cpp:150] Setting up L2_b7_relu
I1212 06:17:18.908840 20613 net.cpp:157] Top shape: 125 32 16 16 (1024000)
I1212 06:17:18.908845 20613 net.cpp:165] Memory required for data: 1158657500
I1212 06:17:18.908850 20613 layer_factory.hpp:77] Creating layer L2_b7_sum_eltwise_top_L2_b7_relu_0_split
I1212 06:17:18.908857 20613 net.cpp:100] Creating Layer L2_b7_sum_eltwise_top_L2_b7_relu_0_split
I1212 06:17:18.908862 20613 net.cpp:434] L2_b7_sum_eltwise_top_L2_b7_relu_0_split <- L2_b7_sum_eltwise_top
I1212 06:17:18.908872 20613 net.cpp:408] L2_b7_sum_eltwise_top_L2_b7_relu_0_split -> L2_b7_sum_eltwise_top_L2_b7_relu_0_split_0
I1212 06:17:18.908884 20613 net.cpp:408] L2_b7_sum_eltwise_top_L2_b7_relu_0_split -> L2_b7_sum_eltwise_top_L2_b7_relu_0_split_1
I1212 06:17:18.908929 20613 net.cpp:150] Setting up L2_b7_sum_eltwise_top_L2_b7_relu_0_split
I1212 06:17:18.908944 20613 net.cpp:157] Top shape: 125 32 16 16 (1024000)
I1212 06:17:18.908951 20613 net.cpp:157] Top shape: 125 32 16 16 (1024000)
I1212 06:17:18.908955 20613 net.cpp:165] Memory required for data: 1166849500
I1212 06:17:18.908960 20613 layer_factory.hpp:77] Creating layer L2_b8_cbr1_conv
I1212 06:17:18.908972 20613 net.cpp:100] Creating Layer L2_b8_cbr1_conv
I1212 06:17:18.908979 20613 net.cpp:434] L2_b8_cbr1_conv <- L2_b7_sum_eltwise_top_L2_b7_relu_0_split_0
I1212 06:17:18.908988 20613 net.cpp:408] L2_b8_cbr1_conv -> L2_b8_cbr1_conv_top
I1212 06:17:18.909462 20613 net.cpp:150] Setting up L2_b8_cbr1_conv
I1212 06:17:18.909477 20613 net.cpp:157] Top shape: 125 32 16 16 (1024000)
I1212 06:17:18.909482 20613 net.cpp:165] Memory required for data: 1170945500
I1212 06:17:18.909492 20613 layer_factory.hpp:77] Creating layer L2_b8_cbr1_bn
I1212 06:17:18.909503 20613 net.cpp:100] Creating Layer L2_b8_cbr1_bn
I1212 06:17:18.909510 20613 net.cpp:434] L2_b8_cbr1_bn <- L2_b8_cbr1_conv_top
I1212 06:17:18.909518 20613 net.cpp:408] L2_b8_cbr1_bn -> L2_b8_cbr1_bn_top
I1212 06:17:18.909785 20613 net.cpp:150] Setting up L2_b8_cbr1_bn
I1212 06:17:18.909821 20613 net.cpp:157] Top shape: 125 32 16 16 (1024000)
I1212 06:17:18.909826 20613 net.cpp:165] Memory required for data: 1175041500
I1212 06:17:18.909837 20613 layer_factory.hpp:77] Creating layer L2_b8_cbr1_scale
I1212 06:17:18.909847 20613 net.cpp:100] Creating Layer L2_b8_cbr1_scale
I1212 06:17:18.909853 20613 net.cpp:434] L2_b8_cbr1_scale <- L2_b8_cbr1_bn_top
I1212 06:17:18.909864 20613 net.cpp:395] L2_b8_cbr1_scale -> L2_b8_cbr1_bn_top (in-place)
I1212 06:17:18.909924 20613 layer_factory.hpp:77] Creating layer L2_b8_cbr1_scale
I1212 06:17:18.910079 20613 net.cpp:150] Setting up L2_b8_cbr1_scale
I1212 06:17:18.910091 20613 net.cpp:157] Top shape: 125 32 16 16 (1024000)
I1212 06:17:18.910097 20613 net.cpp:165] Memory required for data: 1179137500
I1212 06:17:18.910106 20613 layer_factory.hpp:77] Creating layer L2_b8_cbr1_relu
I1212 06:17:18.910115 20613 net.cpp:100] Creating Layer L2_b8_cbr1_relu
I1212 06:17:18.910120 20613 net.cpp:434] L2_b8_cbr1_relu <- L2_b8_cbr1_bn_top
I1212 06:17:18.910131 20613 net.cpp:395] L2_b8_cbr1_relu -> L2_b8_cbr1_bn_top (in-place)
I1212 06:17:18.910141 20613 net.cpp:150] Setting up L2_b8_cbr1_relu
I1212 06:17:18.910148 20613 net.cpp:157] Top shape: 125 32 16 16 (1024000)
I1212 06:17:18.910153 20613 net.cpp:165] Memory required for data: 1183233500
I1212 06:17:18.910157 20613 layer_factory.hpp:77] Creating layer L2_b8_cbr2_conv
I1212 06:17:18.910172 20613 net.cpp:100] Creating Layer L2_b8_cbr2_conv
I1212 06:17:18.910179 20613 net.cpp:434] L2_b8_cbr2_conv <- L2_b8_cbr1_bn_top
I1212 06:17:18.910188 20613 net.cpp:408] L2_b8_cbr2_conv -> L2_b8_cbr2_conv_top
I1212 06:17:18.910670 20613 net.cpp:150] Setting up L2_b8_cbr2_conv
I1212 06:17:18.910683 20613 net.cpp:157] Top shape: 125 32 16 16 (1024000)
I1212 06:17:18.910689 20613 net.cpp:165] Memory required for data: 1187329500
I1212 06:17:18.910698 20613 layer_factory.hpp:77] Creating layer L2_b8_cbr2_bn
I1212 06:17:18.910711 20613 net.cpp:100] Creating Layer L2_b8_cbr2_bn
I1212 06:17:18.910717 20613 net.cpp:434] L2_b8_cbr2_bn <- L2_b8_cbr2_conv_top
I1212 06:17:18.910734 20613 net.cpp:408] L2_b8_cbr2_bn -> L2_b8_cbr2_bn_top
I1212 06:17:18.911157 20613 net.cpp:150] Setting up L2_b8_cbr2_bn
I1212 06:17:18.911283 20613 net.cpp:157] Top shape: 125 32 16 16 (1024000)
I1212 06:17:18.911291 20613 net.cpp:165] Memory required for data: 1191425500
I1212 06:17:18.911303 20613 layer_factory.hpp:77] Creating layer L2_b8_cbr2_scale
I1212 06:17:18.911314 20613 net.cpp:100] Creating Layer L2_b8_cbr2_scale
I1212 06:17:18.911319 20613 net.cpp:434] L2_b8_cbr2_scale <- L2_b8_cbr2_bn_top
I1212 06:17:18.911329 20613 net.cpp:395] L2_b8_cbr2_scale -> L2_b8_cbr2_bn_top (in-place)
I1212 06:17:18.911391 20613 layer_factory.hpp:77] Creating layer L2_b8_cbr2_scale
I1212 06:17:18.911651 20613 net.cpp:150] Setting up L2_b8_cbr2_scale
I1212 06:17:18.911670 20613 net.cpp:157] Top shape: 125 32 16 16 (1024000)
I1212 06:17:18.911676 20613 net.cpp:165] Memory required for data: 1195521500
I1212 06:17:18.911685 20613 layer_factory.hpp:77] Creating layer L2_b8_sum_eltwise
I1212 06:17:18.911695 20613 net.cpp:100] Creating Layer L2_b8_sum_eltwise
I1212 06:17:18.911701 20613 net.cpp:434] L2_b8_sum_eltwise <- L2_b8_cbr2_bn_top
I1212 06:17:18.911708 20613 net.cpp:434] L2_b8_sum_eltwise <- L2_b7_sum_eltwise_top_L2_b7_relu_0_split_1
I1212 06:17:18.911715 20613 net.cpp:408] L2_b8_sum_eltwise -> L2_b8_sum_eltwise_top
I1212 06:17:18.911749 20613 net.cpp:150] Setting up L2_b8_sum_eltwise
I1212 06:17:18.911761 20613 net.cpp:157] Top shape: 125 32 16 16 (1024000)
I1212 06:17:18.911767 20613 net.cpp:165] Memory required for data: 1199617500
I1212 06:17:18.911772 20613 layer_factory.hpp:77] Creating layer L2_b8_relu
I1212 06:17:18.911780 20613 net.cpp:100] Creating Layer L2_b8_relu
I1212 06:17:18.911785 20613 net.cpp:434] L2_b8_relu <- L2_b8_sum_eltwise_top
I1212 06:17:18.911797 20613 net.cpp:395] L2_b8_relu -> L2_b8_sum_eltwise_top (in-place)
I1212 06:17:18.911806 20613 net.cpp:150] Setting up L2_b8_relu
I1212 06:17:18.911813 20613 net.cpp:157] Top shape: 125 32 16 16 (1024000)
I1212 06:17:18.911818 20613 net.cpp:165] Memory required for data: 1203713500
I1212 06:17:18.911823 20613 layer_factory.hpp:77] Creating layer L2_b8_sum_eltwise_top_L2_b8_relu_0_split
I1212 06:17:18.911829 20613 net.cpp:100] Creating Layer L2_b8_sum_eltwise_top_L2_b8_relu_0_split
I1212 06:17:18.911835 20613 net.cpp:434] L2_b8_sum_eltwise_top_L2_b8_relu_0_split <- L2_b8_sum_eltwise_top
I1212 06:17:18.911845 20613 net.cpp:408] L2_b8_sum_eltwise_top_L2_b8_relu_0_split -> L2_b8_sum_eltwise_top_L2_b8_relu_0_split_0
I1212 06:17:18.911870 20613 net.cpp:408] L2_b8_sum_eltwise_top_L2_b8_relu_0_split -> L2_b8_sum_eltwise_top_L2_b8_relu_0_split_1
I1212 06:17:18.911917 20613 net.cpp:150] Setting up L2_b8_sum_eltwise_top_L2_b8_relu_0_split
I1212 06:17:18.911929 20613 net.cpp:157] Top shape: 125 32 16 16 (1024000)
I1212 06:17:18.911936 20613 net.cpp:157] Top shape: 125 32 16 16 (1024000)
I1212 06:17:18.911940 20613 net.cpp:165] Memory required for data: 1211905500
I1212 06:17:18.911945 20613 layer_factory.hpp:77] Creating layer L2_b9_cbr1_conv
I1212 06:17:18.911962 20613 net.cpp:100] Creating Layer L2_b9_cbr1_conv
I1212 06:17:18.911968 20613 net.cpp:434] L2_b9_cbr1_conv <- L2_b8_sum_eltwise_top_L2_b8_relu_0_split_0
I1212 06:17:18.911981 20613 net.cpp:408] L2_b9_cbr1_conv -> L2_b9_cbr1_conv_top
I1212 06:17:18.912448 20613 net.cpp:150] Setting up L2_b9_cbr1_conv
I1212 06:17:18.912463 20613 net.cpp:157] Top shape: 125 32 16 16 (1024000)
I1212 06:17:18.912468 20613 net.cpp:165] Memory required for data: 1216001500
I1212 06:17:18.912477 20613 layer_factory.hpp:77] Creating layer L2_b9_cbr1_bn
I1212 06:17:18.912487 20613 net.cpp:100] Creating Layer L2_b9_cbr1_bn
I1212 06:17:18.912493 20613 net.cpp:434] L2_b9_cbr1_bn <- L2_b9_cbr1_conv_top
I1212 06:17:18.912505 20613 net.cpp:408] L2_b9_cbr1_bn -> L2_b9_cbr1_bn_top
I1212 06:17:18.912760 20613 net.cpp:150] Setting up L2_b9_cbr1_bn
I1212 06:17:18.912775 20613 net.cpp:157] Top shape: 125 32 16 16 (1024000)
I1212 06:17:18.912780 20613 net.cpp:165] Memory required for data: 1220097500
I1212 06:17:18.912798 20613 layer_factory.hpp:77] Creating layer L2_b9_cbr1_scale
I1212 06:17:18.912807 20613 net.cpp:100] Creating Layer L2_b9_cbr1_scale
I1212 06:17:18.912813 20613 net.cpp:434] L2_b9_cbr1_scale <- L2_b9_cbr1_bn_top
I1212 06:17:18.912822 20613 net.cpp:395] L2_b9_cbr1_scale -> L2_b9_cbr1_bn_top (in-place)
I1212 06:17:18.912881 20613 layer_factory.hpp:77] Creating layer L2_b9_cbr1_scale
I1212 06:17:18.913034 20613 net.cpp:150] Setting up L2_b9_cbr1_scale
I1212 06:17:18.913049 20613 net.cpp:157] Top shape: 125 32 16 16 (1024000)
I1212 06:17:18.913055 20613 net.cpp:165] Memory required for data: 1224193500
I1212 06:17:18.913064 20613 layer_factory.hpp:77] Creating layer L2_b9_cbr1_relu
I1212 06:17:18.913072 20613 net.cpp:100] Creating Layer L2_b9_cbr1_relu
I1212 06:17:18.913079 20613 net.cpp:434] L2_b9_cbr1_relu <- L2_b9_cbr1_bn_top
I1212 06:17:18.913085 20613 net.cpp:395] L2_b9_cbr1_relu -> L2_b9_cbr1_bn_top (in-place)
I1212 06:17:18.913095 20613 net.cpp:150] Setting up L2_b9_cbr1_relu
I1212 06:17:18.913102 20613 net.cpp:157] Top shape: 125 32 16 16 (1024000)
I1212 06:17:18.913106 20613 net.cpp:165] Memory required for data: 1228289500
I1212 06:17:18.913111 20613 layer_factory.hpp:77] Creating layer L2_b9_cbr2_conv
I1212 06:17:18.913125 20613 net.cpp:100] Creating Layer L2_b9_cbr2_conv
I1212 06:17:18.913132 20613 net.cpp:434] L2_b9_cbr2_conv <- L2_b9_cbr1_bn_top
I1212 06:17:18.913143 20613 net.cpp:408] L2_b9_cbr2_conv -> L2_b9_cbr2_conv_top
I1212 06:17:18.913622 20613 net.cpp:150] Setting up L2_b9_cbr2_conv
I1212 06:17:18.913636 20613 net.cpp:157] Top shape: 125 32 16 16 (1024000)
I1212 06:17:18.913642 20613 net.cpp:165] Memory required for data: 1232385500
I1212 06:17:18.913651 20613 layer_factory.hpp:77] Creating layer L2_b9_cbr2_bn
I1212 06:17:18.913663 20613 net.cpp:100] Creating Layer L2_b9_cbr2_bn
I1212 06:17:18.913671 20613 net.cpp:434] L2_b9_cbr2_bn <- L2_b9_cbr2_conv_top
I1212 06:17:18.913681 20613 net.cpp:408] L2_b9_cbr2_bn -> L2_b9_cbr2_bn_top
I1212 06:17:18.913938 20613 net.cpp:150] Setting up L2_b9_cbr2_bn
I1212 06:17:18.913950 20613 net.cpp:157] Top shape: 125 32 16 16 (1024000)
I1212 06:17:18.913955 20613 net.cpp:165] Memory required for data: 1236481500
I1212 06:17:18.913998 20613 layer_factory.hpp:77] Creating layer L2_b9_cbr2_scale
I1212 06:17:18.914013 20613 net.cpp:100] Creating Layer L2_b9_cbr2_scale
I1212 06:17:18.914021 20613 net.cpp:434] L2_b9_cbr2_scale <- L2_b9_cbr2_bn_top
I1212 06:17:18.914028 20613 net.cpp:395] L2_b9_cbr2_scale -> L2_b9_cbr2_bn_top (in-place)
I1212 06:17:18.914113 20613 layer_factory.hpp:77] Creating layer L2_b9_cbr2_scale
I1212 06:17:18.914269 20613 net.cpp:150] Setting up L2_b9_cbr2_scale
I1212 06:17:18.914283 20613 net.cpp:157] Top shape: 125 32 16 16 (1024000)
I1212 06:17:18.914288 20613 net.cpp:165] Memory required for data: 1240577500
I1212 06:17:18.914296 20613 layer_factory.hpp:77] Creating layer L2_b9_sum_eltwise
I1212 06:17:18.914309 20613 net.cpp:100] Creating Layer L2_b9_sum_eltwise
I1212 06:17:18.914316 20613 net.cpp:434] L2_b9_sum_eltwise <- L2_b9_cbr2_bn_top
I1212 06:17:18.914324 20613 net.cpp:434] L2_b9_sum_eltwise <- L2_b8_sum_eltwise_top_L2_b8_relu_0_split_1
I1212 06:17:18.914331 20613 net.cpp:408] L2_b9_sum_eltwise -> L2_b9_sum_eltwise_top
I1212 06:17:18.914362 20613 net.cpp:150] Setting up L2_b9_sum_eltwise
I1212 06:17:18.914371 20613 net.cpp:157] Top shape: 125 32 16 16 (1024000)
I1212 06:17:18.914376 20613 net.cpp:165] Memory required for data: 1244673500
I1212 06:17:18.914381 20613 layer_factory.hpp:77] Creating layer L2_b9_relu
I1212 06:17:18.914389 20613 net.cpp:100] Creating Layer L2_b9_relu
I1212 06:17:18.914396 20613 net.cpp:434] L2_b9_relu <- L2_b9_sum_eltwise_top
I1212 06:17:18.914402 20613 net.cpp:395] L2_b9_relu -> L2_b9_sum_eltwise_top (in-place)
I1212 06:17:18.914414 20613 net.cpp:150] Setting up L2_b9_relu
I1212 06:17:18.914422 20613 net.cpp:157] Top shape: 125 32 16 16 (1024000)
I1212 06:17:18.914427 20613 net.cpp:165] Memory required for data: 1248769500
I1212 06:17:18.914432 20613 layer_factory.hpp:77] Creating layer L2_b9_sum_eltwise_top_L2_b9_relu_0_split
I1212 06:17:18.914445 20613 net.cpp:100] Creating Layer L2_b9_sum_eltwise_top_L2_b9_relu_0_split
I1212 06:17:18.914451 20613 net.cpp:434] L2_b9_sum_eltwise_top_L2_b9_relu_0_split <- L2_b9_sum_eltwise_top
I1212 06:17:18.914463 20613 net.cpp:408] L2_b9_sum_eltwise_top_L2_b9_relu_0_split -> L2_b9_sum_eltwise_top_L2_b9_relu_0_split_0
I1212 06:17:18.914472 20613 net.cpp:408] L2_b9_sum_eltwise_top_L2_b9_relu_0_split -> L2_b9_sum_eltwise_top_L2_b9_relu_0_split_1
I1212 06:17:18.914521 20613 net.cpp:150] Setting up L2_b9_sum_eltwise_top_L2_b9_relu_0_split
I1212 06:17:18.914532 20613 net.cpp:157] Top shape: 125 32 16 16 (1024000)
I1212 06:17:18.914539 20613 net.cpp:157] Top shape: 125 32 16 16 (1024000)
I1212 06:17:18.914544 20613 net.cpp:165] Memory required for data: 1256961500
I1212 06:17:18.914549 20613 layer_factory.hpp:77] Creating layer L3_b1_cbr1_conv
I1212 06:17:18.914561 20613 net.cpp:100] Creating Layer L3_b1_cbr1_conv
I1212 06:17:18.914567 20613 net.cpp:434] L3_b1_cbr1_conv <- L2_b9_sum_eltwise_top_L2_b9_relu_0_split_0
I1212 06:17:18.914579 20613 net.cpp:408] L3_b1_cbr1_conv -> L3_b1_cbr1_conv_top
I1212 06:17:18.915061 20613 net.cpp:150] Setting up L3_b1_cbr1_conv
I1212 06:17:18.915076 20613 net.cpp:157] Top shape: 125 32 8 8 (256000)
I1212 06:17:18.915081 20613 net.cpp:165] Memory required for data: 1257985500
I1212 06:17:18.915089 20613 layer_factory.hpp:77] Creating layer L3_b1_cbr1_bn
I1212 06:17:18.915099 20613 net.cpp:100] Creating Layer L3_b1_cbr1_bn
I1212 06:17:18.915105 20613 net.cpp:434] L3_b1_cbr1_bn <- L3_b1_cbr1_conv_top
I1212 06:17:18.915117 20613 net.cpp:408] L3_b1_cbr1_bn -> L3_b1_cbr1_bn_top
I1212 06:17:18.915385 20613 net.cpp:150] Setting up L3_b1_cbr1_bn
I1212 06:17:18.915402 20613 net.cpp:157] Top shape: 125 32 8 8 (256000)
I1212 06:17:18.915407 20613 net.cpp:165] Memory required for data: 1259009500
I1212 06:17:18.915418 20613 layer_factory.hpp:77] Creating layer L3_b1_cbr1_scale
I1212 06:17:18.915427 20613 net.cpp:100] Creating Layer L3_b1_cbr1_scale
I1212 06:17:18.915433 20613 net.cpp:434] L3_b1_cbr1_scale <- L3_b1_cbr1_bn_top
I1212 06:17:18.915441 20613 net.cpp:395] L3_b1_cbr1_scale -> L3_b1_cbr1_bn_top (in-place)
I1212 06:17:18.915496 20613 layer_factory.hpp:77] Creating layer L3_b1_cbr1_scale
I1212 06:17:18.915657 20613 net.cpp:150] Setting up L3_b1_cbr1_scale
I1212 06:17:18.915671 20613 net.cpp:157] Top shape: 125 32 8 8 (256000)
I1212 06:17:18.915676 20613 net.cpp:165] Memory required for data: 1260033500
I1212 06:17:18.915685 20613 layer_factory.hpp:77] Creating layer L3_b1_cbr1_relu
I1212 06:17:18.915697 20613 net.cpp:100] Creating Layer L3_b1_cbr1_relu
I1212 06:17:18.915704 20613 net.cpp:434] L3_b1_cbr1_relu <- L3_b1_cbr1_bn_top
I1212 06:17:18.915710 20613 net.cpp:395] L3_b1_cbr1_relu -> L3_b1_cbr1_bn_top (in-place)
I1212 06:17:18.915720 20613 net.cpp:150] Setting up L3_b1_cbr1_relu
I1212 06:17:18.915727 20613 net.cpp:157] Top shape: 125 32 8 8 (256000)
I1212 06:17:18.915731 20613 net.cpp:165] Memory required for data: 1261057500
I1212 06:17:18.915736 20613 layer_factory.hpp:77] Creating layer L3_b1_cbr2_conv
I1212 06:17:18.915750 20613 net.cpp:100] Creating Layer L3_b1_cbr2_conv
I1212 06:17:18.915757 20613 net.cpp:434] L3_b1_cbr2_conv <- L3_b1_cbr1_bn_top
I1212 06:17:18.915766 20613 net.cpp:408] L3_b1_cbr2_conv -> L3_b1_cbr2_conv_top
I1212 06:17:18.916237 20613 net.cpp:150] Setting up L3_b1_cbr2_conv
I1212 06:17:18.916252 20613 net.cpp:157] Top shape: 125 32 8 8 (256000)
I1212 06:17:18.916257 20613 net.cpp:165] Memory required for data: 1262081500
I1212 06:17:18.916265 20613 layer_factory.hpp:77] Creating layer L3_b1_cbr2_bn
I1212 06:17:18.916278 20613 net.cpp:100] Creating Layer L3_b1_cbr2_bn
I1212 06:17:18.916285 20613 net.cpp:434] L3_b1_cbr2_bn <- L3_b1_cbr2_conv_top
I1212 06:17:18.916296 20613 net.cpp:408] L3_b1_cbr2_bn -> L3_b1_cbr2_bn_top
I1212 06:17:18.916553 20613 net.cpp:150] Setting up L3_b1_cbr2_bn
I1212 06:17:18.916565 20613 net.cpp:157] Top shape: 125 32 8 8 (256000)
I1212 06:17:18.916570 20613 net.cpp:165] Memory required for data: 1263105500
I1212 06:17:18.916589 20613 layer_factory.hpp:77] Creating layer L3_b1_cbr2_scale
I1212 06:17:18.916597 20613 net.cpp:100] Creating Layer L3_b1_cbr2_scale
I1212 06:17:18.916604 20613 net.cpp:434] L3_b1_cbr2_scale <- L3_b1_cbr2_bn_top
I1212 06:17:18.916615 20613 net.cpp:395] L3_b1_cbr2_scale -> L3_b1_cbr2_bn_top (in-place)
I1212 06:17:18.916677 20613 layer_factory.hpp:77] Creating layer L3_b1_cbr2_scale
I1212 06:17:18.916852 20613 net.cpp:150] Setting up L3_b1_cbr2_scale
I1212 06:17:18.916867 20613 net.cpp:157] Top shape: 125 32 8 8 (256000)
I1212 06:17:18.916872 20613 net.cpp:165] Memory required for data: 1264129500
I1212 06:17:18.916880 20613 layer_factory.hpp:77] Creating layer L3_b1_pool
I1212 06:17:18.916889 20613 net.cpp:100] Creating Layer L3_b1_pool
I1212 06:17:18.916896 20613 net.cpp:434] L3_b1_pool <- L2_b9_sum_eltwise_top_L2_b9_relu_0_split_1
I1212 06:17:18.916908 20613 net.cpp:408] L3_b1_pool -> L3_b1_pool
I1212 06:17:18.916945 20613 net.cpp:150] Setting up L3_b1_pool
I1212 06:17:18.916957 20613 net.cpp:157] Top shape: 125 32 8 8 (256000)
I1212 06:17:18.916961 20613 net.cpp:165] Memory required for data: 1265153500
I1212 06:17:18.916967 20613 layer_factory.hpp:77] Creating layer L3_b1_sum_eltwise
I1212 06:17:18.916975 20613 net.cpp:100] Creating Layer L3_b1_sum_eltwise
I1212 06:17:18.916981 20613 net.cpp:434] L3_b1_sum_eltwise <- L3_b1_cbr2_bn_top
I1212 06:17:18.916988 20613 net.cpp:434] L3_b1_sum_eltwise <- L3_b1_pool
I1212 06:17:18.916998 20613 net.cpp:408] L3_b1_sum_eltwise -> L3_b1_sum_eltwise_top
I1212 06:17:18.917032 20613 net.cpp:150] Setting up L3_b1_sum_eltwise
I1212 06:17:18.917042 20613 net.cpp:157] Top shape: 125 32 8 8 (256000)
I1212 06:17:18.917047 20613 net.cpp:165] Memory required for data: 1266177500
I1212 06:17:18.917052 20613 layer_factory.hpp:77] Creating layer L3_b1_relu
I1212 06:17:18.917060 20613 net.cpp:100] Creating Layer L3_b1_relu
I1212 06:17:18.917066 20613 net.cpp:434] L3_b1_relu <- L3_b1_sum_eltwise_top
I1212 06:17:18.917073 20613 net.cpp:395] L3_b1_relu -> L3_b1_sum_eltwise_top (in-place)
I1212 06:17:18.917083 20613 net.cpp:150] Setting up L3_b1_relu
I1212 06:17:18.917089 20613 net.cpp:157] Top shape: 125 32 8 8 (256000)
I1212 06:17:18.917094 20613 net.cpp:165] Memory required for data: 1267201500
I1212 06:17:18.917098 20613 layer_factory.hpp:77] Creating layer L3_b1_zeros
I1212 06:17:18.917111 20613 net.cpp:100] Creating Layer L3_b1_zeros
I1212 06:17:18.917119 20613 net.cpp:408] L3_b1_zeros -> L3_b1_zeros
I1212 06:17:18.918378 20613 net.cpp:150] Setting up L3_b1_zeros
I1212 06:17:18.918397 20613 net.cpp:157] Top shape: 125 32 8 8 (256000)
I1212 06:17:18.918402 20613 net.cpp:165] Memory required for data: 1268225500
I1212 06:17:18.918408 20613 layer_factory.hpp:77] Creating layer L3_b1_concat0
I1212 06:17:18.918419 20613 net.cpp:100] Creating Layer L3_b1_concat0
I1212 06:17:18.918426 20613 net.cpp:434] L3_b1_concat0 <- L3_b1_sum_eltwise_top
I1212 06:17:18.918433 20613 net.cpp:434] L3_b1_concat0 <- L3_b1_zeros
I1212 06:17:18.918444 20613 net.cpp:408] L3_b1_concat0 -> L3_b1_concat0
I1212 06:17:18.918484 20613 net.cpp:150] Setting up L3_b1_concat0
I1212 06:17:18.918500 20613 net.cpp:157] Top shape: 125 64 8 8 (512000)
I1212 06:17:18.918505 20613 net.cpp:165] Memory required for data: 1270273500
I1212 06:17:18.918510 20613 layer_factory.hpp:77] Creating layer L3_b1_concat0_L3_b1_concat0_0_split
I1212 06:17:18.918519 20613 net.cpp:100] Creating Layer L3_b1_concat0_L3_b1_concat0_0_split
I1212 06:17:18.918524 20613 net.cpp:434] L3_b1_concat0_L3_b1_concat0_0_split <- L3_b1_concat0
I1212 06:17:18.918532 20613 net.cpp:408] L3_b1_concat0_L3_b1_concat0_0_split -> L3_b1_concat0_L3_b1_concat0_0_split_0
I1212 06:17:18.918542 20613 net.cpp:408] L3_b1_concat0_L3_b1_concat0_0_split -> L3_b1_concat0_L3_b1_concat0_0_split_1
I1212 06:17:18.918592 20613 net.cpp:150] Setting up L3_b1_concat0_L3_b1_concat0_0_split
I1212 06:17:18.918604 20613 net.cpp:157] Top shape: 125 64 8 8 (512000)
I1212 06:17:18.918611 20613 net.cpp:157] Top shape: 125 64 8 8 (512000)
I1212 06:17:18.918615 20613 net.cpp:165] Memory required for data: 1274369500
I1212 06:17:18.918635 20613 layer_factory.hpp:77] Creating layer L3_b2_cbr1_conv
I1212 06:17:18.918651 20613 net.cpp:100] Creating Layer L3_b2_cbr1_conv
I1212 06:17:18.918658 20613 net.cpp:434] L3_b2_cbr1_conv <- L3_b1_concat0_L3_b1_concat0_0_split_0
I1212 06:17:18.918668 20613 net.cpp:408] L3_b2_cbr1_conv -> L3_b2_cbr1_conv_top
I1212 06:17:18.920696 20613 net.cpp:150] Setting up L3_b2_cbr1_conv
I1212 06:17:18.920712 20613 net.cpp:157] Top shape: 125 64 8 8 (512000)
I1212 06:17:18.920718 20613 net.cpp:165] Memory required for data: 1276417500
I1212 06:17:18.920728 20613 layer_factory.hpp:77] Creating layer L3_b2_cbr1_bn
I1212 06:17:18.920742 20613 net.cpp:100] Creating Layer L3_b2_cbr1_bn
I1212 06:17:18.920748 20613 net.cpp:434] L3_b2_cbr1_bn <- L3_b2_cbr1_conv_top
I1212 06:17:18.920758 20613 net.cpp:408] L3_b2_cbr1_bn -> L3_b2_cbr1_bn_top
I1212 06:17:18.921022 20613 net.cpp:150] Setting up L3_b2_cbr1_bn
I1212 06:17:18.921036 20613 net.cpp:157] Top shape: 125 64 8 8 (512000)
I1212 06:17:18.921041 20613 net.cpp:165] Memory required for data: 1278465500
I1212 06:17:18.921052 20613 layer_factory.hpp:77] Creating layer L3_b2_cbr1_scale
I1212 06:17:18.921061 20613 net.cpp:100] Creating Layer L3_b2_cbr1_scale
I1212 06:17:18.921068 20613 net.cpp:434] L3_b2_cbr1_scale <- L3_b2_cbr1_bn_top
I1212 06:17:18.921077 20613 net.cpp:395] L3_b2_cbr1_scale -> L3_b2_cbr1_bn_top (in-place)
I1212 06:17:18.921135 20613 layer_factory.hpp:77] Creating layer L3_b2_cbr1_scale
I1212 06:17:18.921290 20613 net.cpp:150] Setting up L3_b2_cbr1_scale
I1212 06:17:18.921306 20613 net.cpp:157] Top shape: 125 64 8 8 (512000)
I1212 06:17:18.921311 20613 net.cpp:165] Memory required for data: 1280513500
I1212 06:17:18.921321 20613 layer_factory.hpp:77] Creating layer L3_b2_cbr1_relu
I1212 06:17:18.921329 20613 net.cpp:100] Creating Layer L3_b2_cbr1_relu
I1212 06:17:18.921336 20613 net.cpp:434] L3_b2_cbr1_relu <- L3_b2_cbr1_bn_top
I1212 06:17:18.921344 20613 net.cpp:395] L3_b2_cbr1_relu -> L3_b2_cbr1_bn_top (in-place)
I1212 06:17:18.921353 20613 net.cpp:150] Setting up L3_b2_cbr1_relu
I1212 06:17:18.921360 20613 net.cpp:157] Top shape: 125 64 8 8 (512000)
I1212 06:17:18.921365 20613 net.cpp:165] Memory required for data: 1282561500
I1212 06:17:18.921370 20613 layer_factory.hpp:77] Creating layer L3_b2_cbr2_conv
I1212 06:17:18.921385 20613 net.cpp:100] Creating Layer L3_b2_cbr2_conv
I1212 06:17:18.921391 20613 net.cpp:434] L3_b2_cbr2_conv <- L3_b2_cbr1_bn_top
I1212 06:17:18.921401 20613 net.cpp:408] L3_b2_cbr2_conv -> L3_b2_cbr2_conv_top
I1212 06:17:18.922425 20613 net.cpp:150] Setting up L3_b2_cbr2_conv
I1212 06:17:18.922441 20613 net.cpp:157] Top shape: 125 64 8 8 (512000)
I1212 06:17:18.922446 20613 net.cpp:165] Memory required for data: 1284609500
I1212 06:17:18.922456 20613 layer_factory.hpp:77] Creating layer L3_b2_cbr2_bn
I1212 06:17:18.922464 20613 net.cpp:100] Creating Layer L3_b2_cbr2_bn
I1212 06:17:18.922474 20613 net.cpp:434] L3_b2_cbr2_bn <- L3_b2_cbr2_conv_top
I1212 06:17:18.922483 20613 net.cpp:408] L3_b2_cbr2_bn -> L3_b2_cbr2_bn_top
I1212 06:17:18.922758 20613 net.cpp:150] Setting up L3_b2_cbr2_bn
I1212 06:17:18.922772 20613 net.cpp:157] Top shape: 125 64 8 8 (512000)
I1212 06:17:18.922777 20613 net.cpp:165] Memory required for data: 1286657500
I1212 06:17:18.922787 20613 layer_factory.hpp:77] Creating layer L3_b2_cbr2_scale
I1212 06:17:18.922797 20613 net.cpp:100] Creating Layer L3_b2_cbr2_scale
I1212 06:17:18.922803 20613 net.cpp:434] L3_b2_cbr2_scale <- L3_b2_cbr2_bn_top
I1212 06:17:18.922814 20613 net.cpp:395] L3_b2_cbr2_scale -> L3_b2_cbr2_bn_top (in-place)
I1212 06:17:18.922873 20613 layer_factory.hpp:77] Creating layer L3_b2_cbr2_scale
I1212 06:17:18.923027 20613 net.cpp:150] Setting up L3_b2_cbr2_scale
I1212 06:17:18.923040 20613 net.cpp:157] Top shape: 125 64 8 8 (512000)
I1212 06:17:18.923045 20613 net.cpp:165] Memory required for data: 1288705500
I1212 06:17:18.923055 20613 layer_factory.hpp:77] Creating layer L3_b2_sum_eltwise
I1212 06:17:18.923068 20613 net.cpp:100] Creating Layer L3_b2_sum_eltwise
I1212 06:17:18.923081 20613 net.cpp:434] L3_b2_sum_eltwise <- L3_b2_cbr2_bn_top
I1212 06:17:18.923089 20613 net.cpp:434] L3_b2_sum_eltwise <- L3_b1_concat0_L3_b1_concat0_0_split_1
I1212 06:17:18.923097 20613 net.cpp:408] L3_b2_sum_eltwise -> L3_b2_sum_eltwise_top
I1212 06:17:18.923135 20613 net.cpp:150] Setting up L3_b2_sum_eltwise
I1212 06:17:18.923147 20613 net.cpp:157] Top shape: 125 64 8 8 (512000)
I1212 06:17:18.923152 20613 net.cpp:165] Memory required for data: 1290753500
I1212 06:17:18.923158 20613 layer_factory.hpp:77] Creating layer L3_b2_relu
I1212 06:17:18.923166 20613 net.cpp:100] Creating Layer L3_b2_relu
I1212 06:17:18.923172 20613 net.cpp:434] L3_b2_relu <- L3_b2_sum_eltwise_top
I1212 06:17:18.923182 20613 net.cpp:395] L3_b2_relu -> L3_b2_sum_eltwise_top (in-place)
I1212 06:17:18.923192 20613 net.cpp:150] Setting up L3_b2_relu
I1212 06:17:18.923199 20613 net.cpp:157] Top shape: 125 64 8 8 (512000)
I1212 06:17:18.923204 20613 net.cpp:165] Memory required for data: 1292801500
I1212 06:17:18.923209 20613 layer_factory.hpp:77] Creating layer L3_b2_sum_eltwise_top_L3_b2_relu_0_split
I1212 06:17:18.923216 20613 net.cpp:100] Creating Layer L3_b2_sum_eltwise_top_L3_b2_relu_0_split
I1212 06:17:18.923221 20613 net.cpp:434] L3_b2_sum_eltwise_top_L3_b2_relu_0_split <- L3_b2_sum_eltwise_top
I1212 06:17:18.923229 20613 net.cpp:408] L3_b2_sum_eltwise_top_L3_b2_relu_0_split -> L3_b2_sum_eltwise_top_L3_b2_relu_0_split_0
I1212 06:17:18.923239 20613 net.cpp:408] L3_b2_sum_eltwise_top_L3_b2_relu_0_split -> L3_b2_sum_eltwise_top_L3_b2_relu_0_split_1
I1212 06:17:18.923290 20613 net.cpp:150] Setting up L3_b2_sum_eltwise_top_L3_b2_relu_0_split
I1212 06:17:18.923302 20613 net.cpp:157] Top shape: 125 64 8 8 (512000)
I1212 06:17:18.923308 20613 net.cpp:157] Top shape: 125 64 8 8 (512000)
I1212 06:17:18.923313 20613 net.cpp:165] Memory required for data: 1296897500
I1212 06:17:18.923318 20613 layer_factory.hpp:77] Creating layer L3_b3_cbr1_conv
I1212 06:17:18.923331 20613 net.cpp:100] Creating Layer L3_b3_cbr1_conv
I1212 06:17:18.923336 20613 net.cpp:434] L3_b3_cbr1_conv <- L3_b2_sum_eltwise_top_L3_b2_relu_0_split_0
I1212 06:17:18.923349 20613 net.cpp:408] L3_b3_cbr1_conv -> L3_b3_cbr1_conv_top
I1212 06:17:18.924374 20613 net.cpp:150] Setting up L3_b3_cbr1_conv
I1212 06:17:18.924389 20613 net.cpp:157] Top shape: 125 64 8 8 (512000)
I1212 06:17:18.924394 20613 net.cpp:165] Memory required for data: 1298945500
I1212 06:17:18.924403 20613 layer_factory.hpp:77] Creating layer L3_b3_cbr1_bn
I1212 06:17:18.924415 20613 net.cpp:100] Creating Layer L3_b3_cbr1_bn
I1212 06:17:18.924422 20613 net.cpp:434] L3_b3_cbr1_bn <- L3_b3_cbr1_conv_top
I1212 06:17:18.924432 20613 net.cpp:408] L3_b3_cbr1_bn -> L3_b3_cbr1_bn_top
I1212 06:17:18.924698 20613 net.cpp:150] Setting up L3_b3_cbr1_bn
I1212 06:17:18.924712 20613 net.cpp:157] Top shape: 125 64 8 8 (512000)
I1212 06:17:18.924717 20613 net.cpp:165] Memory required for data: 1300993500
I1212 06:17:18.924728 20613 layer_factory.hpp:77] Creating layer L3_b3_cbr1_scale
I1212 06:17:18.924736 20613 net.cpp:100] Creating Layer L3_b3_cbr1_scale
I1212 06:17:18.924743 20613 net.cpp:434] L3_b3_cbr1_scale <- L3_b3_cbr1_bn_top
I1212 06:17:18.924751 20613 net.cpp:395] L3_b3_cbr1_scale -> L3_b3_cbr1_bn_top (in-place)
I1212 06:17:18.924813 20613 layer_factory.hpp:77] Creating layer L3_b3_cbr1_scale
I1212 06:17:18.924971 20613 net.cpp:150] Setting up L3_b3_cbr1_scale
I1212 06:17:18.924988 20613 net.cpp:157] Top shape: 125 64 8 8 (512000)
I1212 06:17:18.924993 20613 net.cpp:165] Memory required for data: 1303041500
I1212 06:17:18.925001 20613 layer_factory.hpp:77] Creating layer L3_b3_cbr1_relu
I1212 06:17:18.925009 20613 net.cpp:100] Creating Layer L3_b3_cbr1_relu
I1212 06:17:18.925016 20613 net.cpp:434] L3_b3_cbr1_relu <- L3_b3_cbr1_bn_top
I1212 06:17:18.925024 20613 net.cpp:395] L3_b3_cbr1_relu -> L3_b3_cbr1_bn_top (in-place)
I1212 06:17:18.925034 20613 net.cpp:150] Setting up L3_b3_cbr1_relu
I1212 06:17:18.925040 20613 net.cpp:157] Top shape: 125 64 8 8 (512000)
I1212 06:17:18.925045 20613 net.cpp:165] Memory required for data: 1305089500
I1212 06:17:18.925056 20613 layer_factory.hpp:77] Creating layer L3_b3_cbr2_conv
I1212 06:17:18.925071 20613 net.cpp:100] Creating Layer L3_b3_cbr2_conv
I1212 06:17:18.925078 20613 net.cpp:434] L3_b3_cbr2_conv <- L3_b3_cbr1_bn_top
I1212 06:17:18.925091 20613 net.cpp:408] L3_b3_cbr2_conv -> L3_b3_cbr2_conv_top
I1212 06:17:18.926110 20613 net.cpp:150] Setting up L3_b3_cbr2_conv
I1212 06:17:18.926126 20613 net.cpp:157] Top shape: 125 64 8 8 (512000)
I1212 06:17:18.926131 20613 net.cpp:165] Memory required for data: 1307137500
I1212 06:17:18.926139 20613 layer_factory.hpp:77] Creating layer L3_b3_cbr2_bn
I1212 06:17:18.926153 20613 net.cpp:100] Creating Layer L3_b3_cbr2_bn
I1212 06:17:18.926160 20613 net.cpp:434] L3_b3_cbr2_bn <- L3_b3_cbr2_conv_top
I1212 06:17:18.926169 20613 net.cpp:408] L3_b3_cbr2_bn -> L3_b3_cbr2_bn_top
I1212 06:17:18.926432 20613 net.cpp:150] Setting up L3_b3_cbr2_bn
I1212 06:17:18.926445 20613 net.cpp:157] Top shape: 125 64 8 8 (512000)
I1212 06:17:18.926450 20613 net.cpp:165] Memory required for data: 1309185500
I1212 06:17:18.926461 20613 layer_factory.hpp:77] Creating layer L3_b3_cbr2_scale
I1212 06:17:18.926472 20613 net.cpp:100] Creating Layer L3_b3_cbr2_scale
I1212 06:17:18.926479 20613 net.cpp:434] L3_b3_cbr2_scale <- L3_b3_cbr2_bn_top
I1212 06:17:18.926487 20613 net.cpp:395] L3_b3_cbr2_scale -> L3_b3_cbr2_bn_top (in-place)
I1212 06:17:18.926548 20613 layer_factory.hpp:77] Creating layer L3_b3_cbr2_scale
I1212 06:17:18.926712 20613 net.cpp:150] Setting up L3_b3_cbr2_scale
I1212 06:17:18.926725 20613 net.cpp:157] Top shape: 125 64 8 8 (512000)
I1212 06:17:18.926730 20613 net.cpp:165] Memory required for data: 1311233500
I1212 06:17:18.926740 20613 layer_factory.hpp:77] Creating layer L3_b3_sum_eltwise
I1212 06:17:18.926751 20613 net.cpp:100] Creating Layer L3_b3_sum_eltwise
I1212 06:17:18.926759 20613 net.cpp:434] L3_b3_sum_eltwise <- L3_b3_cbr2_bn_top
I1212 06:17:18.926765 20613 net.cpp:434] L3_b3_sum_eltwise <- L3_b2_sum_eltwise_top_L3_b2_relu_0_split_1
I1212 06:17:18.926774 20613 net.cpp:408] L3_b3_sum_eltwise -> L3_b3_sum_eltwise_top
I1212 06:17:18.926810 20613 net.cpp:150] Setting up L3_b3_sum_eltwise
I1212 06:17:18.926820 20613 net.cpp:157] Top shape: 125 64 8 8 (512000)
I1212 06:17:18.926825 20613 net.cpp:165] Memory required for data: 1313281500
I1212 06:17:18.926829 20613 layer_factory.hpp:77] Creating layer L3_b3_relu
I1212 06:17:18.926837 20613 net.cpp:100] Creating Layer L3_b3_relu
I1212 06:17:18.926843 20613 net.cpp:434] L3_b3_relu <- L3_b3_sum_eltwise_top
I1212 06:17:18.926854 20613 net.cpp:395] L3_b3_relu -> L3_b3_sum_eltwise_top (in-place)
I1212 06:17:18.926864 20613 net.cpp:150] Setting up L3_b3_relu
I1212 06:17:18.926872 20613 net.cpp:157] Top shape: 125 64 8 8 (512000)
I1212 06:17:18.926877 20613 net.cpp:165] Memory required for data: 1315329500
I1212 06:17:18.926880 20613 layer_factory.hpp:77] Creating layer L3_b3_sum_eltwise_top_L3_b3_relu_0_split
I1212 06:17:18.926888 20613 net.cpp:100] Creating Layer L3_b3_sum_eltwise_top_L3_b3_relu_0_split
I1212 06:17:18.926893 20613 net.cpp:434] L3_b3_sum_eltwise_top_L3_b3_relu_0_split <- L3_b3_sum_eltwise_top
I1212 06:17:18.926901 20613 net.cpp:408] L3_b3_sum_eltwise_top_L3_b3_relu_0_split -> L3_b3_sum_eltwise_top_L3_b3_relu_0_split_0
I1212 06:17:18.926911 20613 net.cpp:408] L3_b3_sum_eltwise_top_L3_b3_relu_0_split -> L3_b3_sum_eltwise_top_L3_b3_relu_0_split_1
I1212 06:17:18.926959 20613 net.cpp:150] Setting up L3_b3_sum_eltwise_top_L3_b3_relu_0_split
I1212 06:17:18.926970 20613 net.cpp:157] Top shape: 125 64 8 8 (512000)
I1212 06:17:18.926977 20613 net.cpp:157] Top shape: 125 64 8 8 (512000)
I1212 06:17:18.926982 20613 net.cpp:165] Memory required for data: 1319425500
I1212 06:17:18.926987 20613 layer_factory.hpp:77] Creating layer L3_b4_cbr1_conv
I1212 06:17:18.927002 20613 net.cpp:100] Creating Layer L3_b4_cbr1_conv
I1212 06:17:18.927009 20613 net.cpp:434] L3_b4_cbr1_conv <- L3_b3_sum_eltwise_top_L3_b3_relu_0_split_0
I1212 06:17:18.927019 20613 net.cpp:408] L3_b4_cbr1_conv -> L3_b4_cbr1_conv_top
I1212 06:17:18.928042 20613 net.cpp:150] Setting up L3_b4_cbr1_conv
I1212 06:17:18.928064 20613 net.cpp:157] Top shape: 125 64 8 8 (512000)
I1212 06:17:18.928069 20613 net.cpp:165] Memory required for data: 1321473500
I1212 06:17:18.928078 20613 layer_factory.hpp:77] Creating layer L3_b4_cbr1_bn
I1212 06:17:18.928093 20613 net.cpp:100] Creating Layer L3_b4_cbr1_bn
I1212 06:17:18.928100 20613 net.cpp:434] L3_b4_cbr1_bn <- L3_b4_cbr1_conv_top
I1212 06:17:18.928110 20613 net.cpp:408] L3_b4_cbr1_bn -> L3_b4_cbr1_bn_top
I1212 06:17:18.928378 20613 net.cpp:150] Setting up L3_b4_cbr1_bn
I1212 06:17:18.928391 20613 net.cpp:157] Top shape: 125 64 8 8 (512000)
I1212 06:17:18.928396 20613 net.cpp:165] Memory required for data: 1323521500
I1212 06:17:18.928407 20613 layer_factory.hpp:77] Creating layer L3_b4_cbr1_scale
I1212 06:17:18.928416 20613 net.cpp:100] Creating Layer L3_b4_cbr1_scale
I1212 06:17:18.928422 20613 net.cpp:434] L3_b4_cbr1_scale <- L3_b4_cbr1_bn_top
I1212 06:17:18.928431 20613 net.cpp:395] L3_b4_cbr1_scale -> L3_b4_cbr1_bn_top (in-place)
I1212 06:17:18.928490 20613 layer_factory.hpp:77] Creating layer L3_b4_cbr1_scale
I1212 06:17:18.928655 20613 net.cpp:150] Setting up L3_b4_cbr1_scale
I1212 06:17:18.928669 20613 net.cpp:157] Top shape: 125 64 8 8 (512000)
I1212 06:17:18.928674 20613 net.cpp:165] Memory required for data: 1325569500
I1212 06:17:18.928683 20613 layer_factory.hpp:77] Creating layer L3_b4_cbr1_relu
I1212 06:17:18.928692 20613 net.cpp:100] Creating Layer L3_b4_cbr1_relu
I1212 06:17:18.928699 20613 net.cpp:434] L3_b4_cbr1_relu <- L3_b4_cbr1_bn_top
I1212 06:17:18.928705 20613 net.cpp:395] L3_b4_cbr1_relu -> L3_b4_cbr1_bn_top (in-place)
I1212 06:17:18.928719 20613 net.cpp:150] Setting up L3_b4_cbr1_relu
I1212 06:17:18.928726 20613 net.cpp:157] Top shape: 125 64 8 8 (512000)
I1212 06:17:18.928730 20613 net.cpp:165] Memory required for data: 1327617500
I1212 06:17:18.928735 20613 layer_factory.hpp:77] Creating layer L3_b4_cbr2_conv
I1212 06:17:18.928746 20613 net.cpp:100] Creating Layer L3_b4_cbr2_conv
I1212 06:17:18.928755 20613 net.cpp:434] L3_b4_cbr2_conv <- L3_b4_cbr1_bn_top
I1212 06:17:18.928764 20613 net.cpp:408] L3_b4_cbr2_conv -> L3_b4_cbr2_conv_top
I1212 06:17:18.929793 20613 net.cpp:150] Setting up L3_b4_cbr2_conv
I1212 06:17:18.929810 20613 net.cpp:157] Top shape: 125 64 8 8 (512000)
I1212 06:17:18.929814 20613 net.cpp:165] Memory required for data: 1329665500
I1212 06:17:18.929822 20613 layer_factory.hpp:77] Creating layer L3_b4_cbr2_bn
I1212 06:17:18.929836 20613 net.cpp:100] Creating Layer L3_b4_cbr2_bn
I1212 06:17:18.929842 20613 net.cpp:434] L3_b4_cbr2_bn <- L3_b4_cbr2_conv_top
I1212 06:17:18.929850 20613 net.cpp:408] L3_b4_cbr2_bn -> L3_b4_cbr2_bn_top
I1212 06:17:18.930125 20613 net.cpp:150] Setting up L3_b4_cbr2_bn
I1212 06:17:18.930140 20613 net.cpp:157] Top shape: 125 64 8 8 (512000)
I1212 06:17:18.930145 20613 net.cpp:165] Memory required for data: 1331713500
I1212 06:17:18.930155 20613 layer_factory.hpp:77] Creating layer L3_b4_cbr2_scale
I1212 06:17:18.930166 20613 net.cpp:100] Creating Layer L3_b4_cbr2_scale
I1212 06:17:18.930173 20613 net.cpp:434] L3_b4_cbr2_scale <- L3_b4_cbr2_bn_top
I1212 06:17:18.930181 20613 net.cpp:395] L3_b4_cbr2_scale -> L3_b4_cbr2_bn_top (in-place)
I1212 06:17:18.930243 20613 layer_factory.hpp:77] Creating layer L3_b4_cbr2_scale
I1212 06:17:18.930408 20613 net.cpp:150] Setting up L3_b4_cbr2_scale
I1212 06:17:18.930420 20613 net.cpp:157] Top shape: 125 64 8 8 (512000)
I1212 06:17:18.930425 20613 net.cpp:165] Memory required for data: 1333761500
I1212 06:17:18.930434 20613 layer_factory.hpp:77] Creating layer L3_b4_sum_eltwise
I1212 06:17:18.930446 20613 net.cpp:100] Creating Layer L3_b4_sum_eltwise
I1212 06:17:18.930454 20613 net.cpp:434] L3_b4_sum_eltwise <- L3_b4_cbr2_bn_top
I1212 06:17:18.930460 20613 net.cpp:434] L3_b4_sum_eltwise <- L3_b3_sum_eltwise_top_L3_b3_relu_0_split_1
I1212 06:17:18.930471 20613 net.cpp:408] L3_b4_sum_eltwise -> L3_b4_sum_eltwise_top
I1212 06:17:18.930505 20613 net.cpp:150] Setting up L3_b4_sum_eltwise
I1212 06:17:18.930514 20613 net.cpp:157] Top shape: 125 64 8 8 (512000)
I1212 06:17:18.930526 20613 net.cpp:165] Memory required for data: 1335809500
I1212 06:17:18.930531 20613 layer_factory.hpp:77] Creating layer L3_b4_relu
I1212 06:17:18.930542 20613 net.cpp:100] Creating Layer L3_b4_relu
I1212 06:17:18.930548 20613 net.cpp:434] L3_b4_relu <- L3_b4_sum_eltwise_top
I1212 06:17:18.930557 20613 net.cpp:395] L3_b4_relu -> L3_b4_sum_eltwise_top (in-place)
I1212 06:17:18.930565 20613 net.cpp:150] Setting up L3_b4_relu
I1212 06:17:18.930572 20613 net.cpp:157] Top shape: 125 64 8 8 (512000)
I1212 06:17:18.930577 20613 net.cpp:165] Memory required for data: 1337857500
I1212 06:17:18.930583 20613 layer_factory.hpp:77] Creating layer L3_b4_sum_eltwise_top_L3_b4_relu_0_split
I1212 06:17:18.930589 20613 net.cpp:100] Creating Layer L3_b4_sum_eltwise_top_L3_b4_relu_0_split
I1212 06:17:18.930595 20613 net.cpp:434] L3_b4_sum_eltwise_top_L3_b4_relu_0_split <- L3_b4_sum_eltwise_top
I1212 06:17:18.930603 20613 net.cpp:408] L3_b4_sum_eltwise_top_L3_b4_relu_0_split -> L3_b4_sum_eltwise_top_L3_b4_relu_0_split_0
I1212 06:17:18.930613 20613 net.cpp:408] L3_b4_sum_eltwise_top_L3_b4_relu_0_split -> L3_b4_sum_eltwise_top_L3_b4_relu_0_split_1
I1212 06:17:18.930670 20613 net.cpp:150] Setting up L3_b4_sum_eltwise_top_L3_b4_relu_0_split
I1212 06:17:18.930682 20613 net.cpp:157] Top shape: 125 64 8 8 (512000)
I1212 06:17:18.930690 20613 net.cpp:157] Top shape: 125 64 8 8 (512000)
I1212 06:17:18.930694 20613 net.cpp:165] Memory required for data: 1341953500
I1212 06:17:18.930707 20613 layer_factory.hpp:77] Creating layer L3_b5_cbr1_conv
I1212 06:17:18.930722 20613 net.cpp:100] Creating Layer L3_b5_cbr1_conv
I1212 06:17:18.930729 20613 net.cpp:434] L3_b5_cbr1_conv <- L3_b4_sum_eltwise_top_L3_b4_relu_0_split_0
I1212 06:17:18.930739 20613 net.cpp:408] L3_b5_cbr1_conv -> L3_b5_cbr1_conv_top
I1212 06:17:18.931769 20613 net.cpp:150] Setting up L3_b5_cbr1_conv
I1212 06:17:18.931784 20613 net.cpp:157] Top shape: 125 64 8 8 (512000)
I1212 06:17:18.931789 20613 net.cpp:165] Memory required for data: 1344001500
I1212 06:17:18.931798 20613 layer_factory.hpp:77] Creating layer L3_b5_cbr1_bn
I1212 06:17:18.931812 20613 net.cpp:100] Creating Layer L3_b5_cbr1_bn
I1212 06:17:18.931818 20613 net.cpp:434] L3_b5_cbr1_bn <- L3_b5_cbr1_conv_top
I1212 06:17:18.931826 20613 net.cpp:408] L3_b5_cbr1_bn -> L3_b5_cbr1_bn_top
I1212 06:17:18.933113 20613 net.cpp:150] Setting up L3_b5_cbr1_bn
I1212 06:17:18.933130 20613 net.cpp:157] Top shape: 125 64 8 8 (512000)
I1212 06:17:18.933135 20613 net.cpp:165] Memory required for data: 1346049500
I1212 06:17:18.933147 20613 layer_factory.hpp:77] Creating layer L3_b5_cbr1_scale
I1212 06:17:18.933161 20613 net.cpp:100] Creating Layer L3_b5_cbr1_scale
I1212 06:17:18.933167 20613 net.cpp:434] L3_b5_cbr1_scale <- L3_b5_cbr1_bn_top
I1212 06:17:18.933176 20613 net.cpp:395] L3_b5_cbr1_scale -> L3_b5_cbr1_bn_top (in-place)
I1212 06:17:18.933239 20613 layer_factory.hpp:77] Creating layer L3_b5_cbr1_scale
I1212 06:17:18.933399 20613 net.cpp:150] Setting up L3_b5_cbr1_scale
I1212 06:17:18.933411 20613 net.cpp:157] Top shape: 125 64 8 8 (512000)
I1212 06:17:18.933416 20613 net.cpp:165] Memory required for data: 1348097500
I1212 06:17:18.933426 20613 layer_factory.hpp:77] Creating layer L3_b5_cbr1_relu
I1212 06:17:18.933437 20613 net.cpp:100] Creating Layer L3_b5_cbr1_relu
I1212 06:17:18.933444 20613 net.cpp:434] L3_b5_cbr1_relu <- L3_b5_cbr1_bn_top
I1212 06:17:18.933451 20613 net.cpp:395] L3_b5_cbr1_relu -> L3_b5_cbr1_bn_top (in-place)
I1212 06:17:18.933461 20613 net.cpp:150] Setting up L3_b5_cbr1_relu
I1212 06:17:18.933471 20613 net.cpp:157] Top shape: 125 64 8 8 (512000)
I1212 06:17:18.933476 20613 net.cpp:165] Memory required for data: 1350145500
I1212 06:17:18.933481 20613 layer_factory.hpp:77] Creating layer L3_b5_cbr2_conv
I1212 06:17:18.933493 20613 net.cpp:100] Creating Layer L3_b5_cbr2_conv
I1212 06:17:18.933499 20613 net.cpp:434] L3_b5_cbr2_conv <- L3_b5_cbr1_bn_top
I1212 06:17:18.933511 20613 net.cpp:408] L3_b5_cbr2_conv -> L3_b5_cbr2_conv_top
I1212 06:17:18.935542 20613 net.cpp:150] Setting up L3_b5_cbr2_conv
I1212 06:17:18.935567 20613 net.cpp:157] Top shape: 125 64 8 8 (512000)
I1212 06:17:18.935573 20613 net.cpp:165] Memory required for data: 1352193500
I1212 06:17:18.935583 20613 layer_factory.hpp:77] Creating layer L3_b5_cbr2_bn
I1212 06:17:18.935596 20613 net.cpp:100] Creating Layer L3_b5_cbr2_bn
I1212 06:17:18.935603 20613 net.cpp:434] L3_b5_cbr2_bn <- L3_b5_cbr2_conv_top
I1212 06:17:18.935612 20613 net.cpp:408] L3_b5_cbr2_bn -> L3_b5_cbr2_bn_top
I1212 06:17:18.935884 20613 net.cpp:150] Setting up L3_b5_cbr2_bn
I1212 06:17:18.935899 20613 net.cpp:157] Top shape: 125 64 8 8 (512000)
I1212 06:17:18.935904 20613 net.cpp:165] Memory required for data: 1354241500
I1212 06:17:18.935914 20613 layer_factory.hpp:77] Creating layer L3_b5_cbr2_scale
I1212 06:17:18.935926 20613 net.cpp:100] Creating Layer L3_b5_cbr2_scale
I1212 06:17:18.935933 20613 net.cpp:434] L3_b5_cbr2_scale <- L3_b5_cbr2_bn_top
I1212 06:17:18.935941 20613 net.cpp:395] L3_b5_cbr2_scale -> L3_b5_cbr2_bn_top (in-place)
I1212 06:17:18.936002 20613 layer_factory.hpp:77] Creating layer L3_b5_cbr2_scale
I1212 06:17:18.936156 20613 net.cpp:150] Setting up L3_b5_cbr2_scale
I1212 06:17:18.936168 20613 net.cpp:157] Top shape: 125 64 8 8 (512000)
I1212 06:17:18.936173 20613 net.cpp:165] Memory required for data: 1356289500
I1212 06:17:18.936182 20613 layer_factory.hpp:77] Creating layer L3_b5_sum_eltwise
I1212 06:17:18.936194 20613 net.cpp:100] Creating Layer L3_b5_sum_eltwise
I1212 06:17:18.936202 20613 net.cpp:434] L3_b5_sum_eltwise <- L3_b5_cbr2_bn_top
I1212 06:17:18.936209 20613 net.cpp:434] L3_b5_sum_eltwise <- L3_b4_sum_eltwise_top_L3_b4_relu_0_split_1
I1212 06:17:18.936219 20613 net.cpp:408] L3_b5_sum_eltwise -> L3_b5_sum_eltwise_top
I1212 06:17:18.936252 20613 net.cpp:150] Setting up L3_b5_sum_eltwise
I1212 06:17:18.936261 20613 net.cpp:157] Top shape: 125 64 8 8 (512000)
I1212 06:17:18.936266 20613 net.cpp:165] Memory required for data: 1358337500
I1212 06:17:18.936271 20613 layer_factory.hpp:77] Creating layer L3_b5_relu
I1212 06:17:18.936280 20613 net.cpp:100] Creating Layer L3_b5_relu
I1212 06:17:18.936285 20613 net.cpp:434] L3_b5_relu <- L3_b5_sum_eltwise_top
I1212 06:17:18.936296 20613 net.cpp:395] L3_b5_relu -> L3_b5_sum_eltwise_top (in-place)
I1212 06:17:18.936306 20613 net.cpp:150] Setting up L3_b5_relu
I1212 06:17:18.936313 20613 net.cpp:157] Top shape: 125 64 8 8 (512000)
I1212 06:17:18.936318 20613 net.cpp:165] Memory required for data: 1360385500
I1212 06:17:18.936323 20613 layer_factory.hpp:77] Creating layer L3_b5_sum_eltwise_top_L3_b5_relu_0_split
I1212 06:17:18.936331 20613 net.cpp:100] Creating Layer L3_b5_sum_eltwise_top_L3_b5_relu_0_split
I1212 06:17:18.936336 20613 net.cpp:434] L3_b5_sum_eltwise_top_L3_b5_relu_0_split <- L3_b5_sum_eltwise_top
I1212 06:17:18.936343 20613 net.cpp:408] L3_b5_sum_eltwise_top_L3_b5_relu_0_split -> L3_b5_sum_eltwise_top_L3_b5_relu_0_split_0
I1212 06:17:18.936353 20613 net.cpp:408] L3_b5_sum_eltwise_top_L3_b5_relu_0_split -> L3_b5_sum_eltwise_top_L3_b5_relu_0_split_1
I1212 06:17:18.936401 20613 net.cpp:150] Setting up L3_b5_sum_eltwise_top_L3_b5_relu_0_split
I1212 06:17:18.936414 20613 net.cpp:157] Top shape: 125 64 8 8 (512000)
I1212 06:17:18.936419 20613 net.cpp:157] Top shape: 125 64 8 8 (512000)
I1212 06:17:18.936424 20613 net.cpp:165] Memory required for data: 1364481500
I1212 06:17:18.936429 20613 layer_factory.hpp:77] Creating layer L3_b6_cbr1_conv
I1212 06:17:18.936444 20613 net.cpp:100] Creating Layer L3_b6_cbr1_conv
I1212 06:17:18.936451 20613 net.cpp:434] L3_b6_cbr1_conv <- L3_b5_sum_eltwise_top_L3_b5_relu_0_split_0
I1212 06:17:18.936461 20613 net.cpp:408] L3_b6_cbr1_conv -> L3_b6_cbr1_conv_top
I1212 06:17:18.937477 20613 net.cpp:150] Setting up L3_b6_cbr1_conv
I1212 06:17:18.937494 20613 net.cpp:157] Top shape: 125 64 8 8 (512000)
I1212 06:17:18.937499 20613 net.cpp:165] Memory required for data: 1366529500
I1212 06:17:18.937507 20613 layer_factory.hpp:77] Creating layer L3_b6_cbr1_bn
I1212 06:17:18.937520 20613 net.cpp:100] Creating Layer L3_b6_cbr1_bn
I1212 06:17:18.937526 20613 net.cpp:434] L3_b6_cbr1_bn <- L3_b6_cbr1_conv_top
I1212 06:17:18.937542 20613 net.cpp:408] L3_b6_cbr1_bn -> L3_b6_cbr1_bn_top
I1212 06:17:18.937808 20613 net.cpp:150] Setting up L3_b6_cbr1_bn
I1212 06:17:18.937822 20613 net.cpp:157] Top shape: 125 64 8 8 (512000)
I1212 06:17:18.937827 20613 net.cpp:165] Memory required for data: 1368577500
I1212 06:17:18.937837 20613 layer_factory.hpp:77] Creating layer L3_b6_cbr1_scale
I1212 06:17:18.937846 20613 net.cpp:100] Creating Layer L3_b6_cbr1_scale
I1212 06:17:18.937853 20613 net.cpp:434] L3_b6_cbr1_scale <- L3_b6_cbr1_bn_top
I1212 06:17:18.937861 20613 net.cpp:395] L3_b6_cbr1_scale -> L3_b6_cbr1_bn_top (in-place)
I1212 06:17:18.937921 20613 layer_factory.hpp:77] Creating layer L3_b6_cbr1_scale
I1212 06:17:18.938079 20613 net.cpp:150] Setting up L3_b6_cbr1_scale
I1212 06:17:18.938092 20613 net.cpp:157] Top shape: 125 64 8 8 (512000)
I1212 06:17:18.938097 20613 net.cpp:165] Memory required for data: 1370625500
I1212 06:17:18.938107 20613 layer_factory.hpp:77] Creating layer L3_b6_cbr1_relu
I1212 06:17:18.938114 20613 net.cpp:100] Creating Layer L3_b6_cbr1_relu
I1212 06:17:18.938122 20613 net.cpp:434] L3_b6_cbr1_relu <- L3_b6_cbr1_bn_top
I1212 06:17:18.938134 20613 net.cpp:395] L3_b6_cbr1_relu -> L3_b6_cbr1_bn_top (in-place)
I1212 06:17:18.938145 20613 net.cpp:150] Setting up L3_b6_cbr1_relu
I1212 06:17:18.938153 20613 net.cpp:157] Top shape: 125 64 8 8 (512000)
I1212 06:17:18.938158 20613 net.cpp:165] Memory required for data: 1372673500
I1212 06:17:18.938163 20613 layer_factory.hpp:77] Creating layer L3_b6_cbr2_conv
I1212 06:17:18.938176 20613 net.cpp:100] Creating Layer L3_b6_cbr2_conv
I1212 06:17:18.938184 20613 net.cpp:434] L3_b6_cbr2_conv <- L3_b6_cbr1_bn_top
I1212 06:17:18.938192 20613 net.cpp:408] L3_b6_cbr2_conv -> L3_b6_cbr2_conv_top
I1212 06:17:18.939200 20613 net.cpp:150] Setting up L3_b6_cbr2_conv
I1212 06:17:18.939215 20613 net.cpp:157] Top shape: 125 64 8 8 (512000)
I1212 06:17:18.939220 20613 net.cpp:165] Memory required for data: 1374721500
I1212 06:17:18.939229 20613 layer_factory.hpp:77] Creating layer L3_b6_cbr2_bn
I1212 06:17:18.939241 20613 net.cpp:100] Creating Layer L3_b6_cbr2_bn
I1212 06:17:18.939249 20613 net.cpp:434] L3_b6_cbr2_bn <- L3_b6_cbr2_conv_top
I1212 06:17:18.939257 20613 net.cpp:408] L3_b6_cbr2_bn -> L3_b6_cbr2_bn_top
I1212 06:17:18.939517 20613 net.cpp:150] Setting up L3_b6_cbr2_bn
I1212 06:17:18.939530 20613 net.cpp:157] Top shape: 125 64 8 8 (512000)
I1212 06:17:18.939535 20613 net.cpp:165] Memory required for data: 1376769500
I1212 06:17:18.939546 20613 layer_factory.hpp:77] Creating layer L3_b6_cbr2_scale
I1212 06:17:18.939559 20613 net.cpp:100] Creating Layer L3_b6_cbr2_scale
I1212 06:17:18.939566 20613 net.cpp:434] L3_b6_cbr2_scale <- L3_b6_cbr2_bn_top
I1212 06:17:18.939574 20613 net.cpp:395] L3_b6_cbr2_scale -> L3_b6_cbr2_bn_top (in-place)
I1212 06:17:18.939640 20613 layer_factory.hpp:77] Creating layer L3_b6_cbr2_scale
I1212 06:17:18.939797 20613 net.cpp:150] Setting up L3_b6_cbr2_scale
I1212 06:17:18.939810 20613 net.cpp:157] Top shape: 125 64 8 8 (512000)
I1212 06:17:18.939815 20613 net.cpp:165] Memory required for data: 1378817500
I1212 06:17:18.939826 20613 layer_factory.hpp:77] Creating layer L3_b6_sum_eltwise
I1212 06:17:18.939837 20613 net.cpp:100] Creating Layer L3_b6_sum_eltwise
I1212 06:17:18.939844 20613 net.cpp:434] L3_b6_sum_eltwise <- L3_b6_cbr2_bn_top
I1212 06:17:18.939851 20613 net.cpp:434] L3_b6_sum_eltwise <- L3_b5_sum_eltwise_top_L3_b5_relu_0_split_1
I1212 06:17:18.939862 20613 net.cpp:408] L3_b6_sum_eltwise -> L3_b6_sum_eltwise_top
I1212 06:17:18.939894 20613 net.cpp:150] Setting up L3_b6_sum_eltwise
I1212 06:17:18.939903 20613 net.cpp:157] Top shape: 125 64 8 8 (512000)
I1212 06:17:18.939908 20613 net.cpp:165] Memory required for data: 1380865500
I1212 06:17:18.939913 20613 layer_factory.hpp:77] Creating layer L3_b6_relu
I1212 06:17:18.939924 20613 net.cpp:100] Creating Layer L3_b6_relu
I1212 06:17:18.939930 20613 net.cpp:434] L3_b6_relu <- L3_b6_sum_eltwise_top
I1212 06:17:18.939939 20613 net.cpp:395] L3_b6_relu -> L3_b6_sum_eltwise_top (in-place)
I1212 06:17:18.939954 20613 net.cpp:150] Setting up L3_b6_relu
I1212 06:17:18.939961 20613 net.cpp:157] Top shape: 125 64 8 8 (512000)
I1212 06:17:18.939966 20613 net.cpp:165] Memory required for data: 1382913500
I1212 06:17:18.939971 20613 layer_factory.hpp:77] Creating layer L3_b6_sum_eltwise_top_L3_b6_relu_0_split
I1212 06:17:18.939978 20613 net.cpp:100] Creating Layer L3_b6_sum_eltwise_top_L3_b6_relu_0_split
I1212 06:17:18.939985 20613 net.cpp:434] L3_b6_sum_eltwise_top_L3_b6_relu_0_split <- L3_b6_sum_eltwise_top
I1212 06:17:18.939991 20613 net.cpp:408] L3_b6_sum_eltwise_top_L3_b6_relu_0_split -> L3_b6_sum_eltwise_top_L3_b6_relu_0_split_0
I1212 06:17:18.940002 20613 net.cpp:408] L3_b6_sum_eltwise_top_L3_b6_relu_0_split -> L3_b6_sum_eltwise_top_L3_b6_relu_0_split_1
I1212 06:17:18.940055 20613 net.cpp:150] Setting up L3_b6_sum_eltwise_top_L3_b6_relu_0_split
I1212 06:17:18.940068 20613 net.cpp:157] Top shape: 125 64 8 8 (512000)
I1212 06:17:18.940074 20613 net.cpp:157] Top shape: 125 64 8 8 (512000)
I1212 06:17:18.940079 20613 net.cpp:165] Memory required for data: 1387009500
I1212 06:17:18.940084 20613 layer_factory.hpp:77] Creating layer L3_b7_cbr1_conv
I1212 06:17:18.940099 20613 net.cpp:100] Creating Layer L3_b7_cbr1_conv
I1212 06:17:18.940106 20613 net.cpp:434] L3_b7_cbr1_conv <- L3_b6_sum_eltwise_top_L3_b6_relu_0_split_0
I1212 06:17:18.940116 20613 net.cpp:408] L3_b7_cbr1_conv -> L3_b7_cbr1_conv_top
I1212 06:17:18.941138 20613 net.cpp:150] Setting up L3_b7_cbr1_conv
I1212 06:17:18.941153 20613 net.cpp:157] Top shape: 125 64 8 8 (512000)
I1212 06:17:18.941157 20613 net.cpp:165] Memory required for data: 1389057500
I1212 06:17:18.941166 20613 layer_factory.hpp:77] Creating layer L3_b7_cbr1_bn
I1212 06:17:18.941181 20613 net.cpp:100] Creating Layer L3_b7_cbr1_bn
I1212 06:17:18.941189 20613 net.cpp:434] L3_b7_cbr1_bn <- L3_b7_cbr1_conv_top
I1212 06:17:18.941200 20613 net.cpp:408] L3_b7_cbr1_bn -> L3_b7_cbr1_bn_top
I1212 06:17:18.941462 20613 net.cpp:150] Setting up L3_b7_cbr1_bn
I1212 06:17:18.941474 20613 net.cpp:157] Top shape: 125 64 8 8 (512000)
I1212 06:17:18.941479 20613 net.cpp:165] Memory required for data: 1391105500
I1212 06:17:18.941489 20613 layer_factory.hpp:77] Creating layer L3_b7_cbr1_scale
I1212 06:17:18.941498 20613 net.cpp:100] Creating Layer L3_b7_cbr1_scale
I1212 06:17:18.941505 20613 net.cpp:434] L3_b7_cbr1_scale <- L3_b7_cbr1_bn_top
I1212 06:17:18.941514 20613 net.cpp:395] L3_b7_cbr1_scale -> L3_b7_cbr1_bn_top (in-place)
I1212 06:17:18.941573 20613 layer_factory.hpp:77] Creating layer L3_b7_cbr1_scale
I1212 06:17:18.941736 20613 net.cpp:150] Setting up L3_b7_cbr1_scale
I1212 06:17:18.941751 20613 net.cpp:157] Top shape: 125 64 8 8 (512000)
I1212 06:17:18.941756 20613 net.cpp:165] Memory required for data: 1393153500
I1212 06:17:18.941764 20613 layer_factory.hpp:77] Creating layer L3_b7_cbr1_relu
I1212 06:17:18.941800 20613 net.cpp:100] Creating Layer L3_b7_cbr1_relu
I1212 06:17:18.941810 20613 net.cpp:434] L3_b7_cbr1_relu <- L3_b7_cbr1_bn_top
I1212 06:17:18.941818 20613 net.cpp:395] L3_b7_cbr1_relu -> L3_b7_cbr1_bn_top (in-place)
I1212 06:17:18.941828 20613 net.cpp:150] Setting up L3_b7_cbr1_relu
I1212 06:17:18.941835 20613 net.cpp:157] Top shape: 125 64 8 8 (512000)
I1212 06:17:18.941840 20613 net.cpp:165] Memory required for data: 1395201500
I1212 06:17:18.941846 20613 layer_factory.hpp:77] Creating layer L3_b7_cbr2_conv
I1212 06:17:18.941860 20613 net.cpp:100] Creating Layer L3_b7_cbr2_conv
I1212 06:17:18.941867 20613 net.cpp:434] L3_b7_cbr2_conv <- L3_b7_cbr1_bn_top
I1212 06:17:18.941876 20613 net.cpp:408] L3_b7_cbr2_conv -> L3_b7_cbr2_conv_top
I1212 06:17:18.942901 20613 net.cpp:150] Setting up L3_b7_cbr2_conv
I1212 06:17:18.942916 20613 net.cpp:157] Top shape: 125 64 8 8 (512000)
I1212 06:17:18.942921 20613 net.cpp:165] Memory required for data: 1397249500
I1212 06:17:18.942931 20613 layer_factory.hpp:77] Creating layer L3_b7_cbr2_bn
I1212 06:17:18.942944 20613 net.cpp:100] Creating Layer L3_b7_cbr2_bn
I1212 06:17:18.942950 20613 net.cpp:434] L3_b7_cbr2_bn <- L3_b7_cbr2_conv_top
I1212 06:17:18.942965 20613 net.cpp:408] L3_b7_cbr2_bn -> L3_b7_cbr2_bn_top
I1212 06:17:18.943239 20613 net.cpp:150] Setting up L3_b7_cbr2_bn
I1212 06:17:18.943253 20613 net.cpp:157] Top shape: 125 64 8 8 (512000)
I1212 06:17:18.943258 20613 net.cpp:165] Memory required for data: 1399297500
I1212 06:17:18.943269 20613 layer_factory.hpp:77] Creating layer L3_b7_cbr2_scale
I1212 06:17:18.943276 20613 net.cpp:100] Creating Layer L3_b7_cbr2_scale
I1212 06:17:18.943284 20613 net.cpp:434] L3_b7_cbr2_scale <- L3_b7_cbr2_bn_top
I1212 06:17:18.943291 20613 net.cpp:395] L3_b7_cbr2_scale -> L3_b7_cbr2_bn_top (in-place)
I1212 06:17:18.943351 20613 layer_factory.hpp:77] Creating layer L3_b7_cbr2_scale
I1212 06:17:18.943509 20613 net.cpp:150] Setting up L3_b7_cbr2_scale
I1212 06:17:18.943522 20613 net.cpp:157] Top shape: 125 64 8 8 (512000)
I1212 06:17:18.943527 20613 net.cpp:165] Memory required for data: 1401345500
I1212 06:17:18.943536 20613 layer_factory.hpp:77] Creating layer L3_b7_sum_eltwise
I1212 06:17:18.943545 20613 net.cpp:100] Creating Layer L3_b7_sum_eltwise
I1212 06:17:18.943552 20613 net.cpp:434] L3_b7_sum_eltwise <- L3_b7_cbr2_bn_top
I1212 06:17:18.943558 20613 net.cpp:434] L3_b7_sum_eltwise <- L3_b6_sum_eltwise_top_L3_b6_relu_0_split_1
I1212 06:17:18.943569 20613 net.cpp:408] L3_b7_sum_eltwise -> L3_b7_sum_eltwise_top
I1212 06:17:18.943603 20613 net.cpp:150] Setting up L3_b7_sum_eltwise
I1212 06:17:18.943614 20613 net.cpp:157] Top shape: 125 64 8 8 (512000)
I1212 06:17:18.943627 20613 net.cpp:165] Memory required for data: 1403393500
I1212 06:17:18.943634 20613 layer_factory.hpp:77] Creating layer L3_b7_relu
I1212 06:17:18.943641 20613 net.cpp:100] Creating Layer L3_b7_relu
I1212 06:17:18.943647 20613 net.cpp:434] L3_b7_relu <- L3_b7_sum_eltwise_top
I1212 06:17:18.943655 20613 net.cpp:395] L3_b7_relu -> L3_b7_sum_eltwise_top (in-place)
I1212 06:17:18.943665 20613 net.cpp:150] Setting up L3_b7_relu
I1212 06:17:18.943671 20613 net.cpp:157] Top shape: 125 64 8 8 (512000)
I1212 06:17:18.943675 20613 net.cpp:165] Memory required for data: 1405441500
I1212 06:17:18.943681 20613 layer_factory.hpp:77] Creating layer L3_b7_sum_eltwise_top_L3_b7_relu_0_split
I1212 06:17:18.943692 20613 net.cpp:100] Creating Layer L3_b7_sum_eltwise_top_L3_b7_relu_0_split
I1212 06:17:18.943698 20613 net.cpp:434] L3_b7_sum_eltwise_top_L3_b7_relu_0_split <- L3_b7_sum_eltwise_top
I1212 06:17:18.943706 20613 net.cpp:408] L3_b7_sum_eltwise_top_L3_b7_relu_0_split -> L3_b7_sum_eltwise_top_L3_b7_relu_0_split_0
I1212 06:17:18.943717 20613 net.cpp:408] L3_b7_sum_eltwise_top_L3_b7_relu_0_split -> L3_b7_sum_eltwise_top_L3_b7_relu_0_split_1
I1212 06:17:18.943764 20613 net.cpp:150] Setting up L3_b7_sum_eltwise_top_L3_b7_relu_0_split
I1212 06:17:18.943776 20613 net.cpp:157] Top shape: 125 64 8 8 (512000)
I1212 06:17:18.943783 20613 net.cpp:157] Top shape: 125 64 8 8 (512000)
I1212 06:17:18.943789 20613 net.cpp:165] Memory required for data: 1409537500
I1212 06:17:18.943794 20613 layer_factory.hpp:77] Creating layer L3_b8_cbr1_conv
I1212 06:17:18.943804 20613 net.cpp:100] Creating Layer L3_b8_cbr1_conv
I1212 06:17:18.943811 20613 net.cpp:434] L3_b8_cbr1_conv <- L3_b7_sum_eltwise_top_L3_b7_relu_0_split_0
I1212 06:17:18.943823 20613 net.cpp:408] L3_b8_cbr1_conv -> L3_b8_cbr1_conv_top
I1212 06:17:18.944844 20613 net.cpp:150] Setting up L3_b8_cbr1_conv
I1212 06:17:18.944859 20613 net.cpp:157] Top shape: 125 64 8 8 (512000)
I1212 06:17:18.944864 20613 net.cpp:165] Memory required for data: 1411585500
I1212 06:17:18.944874 20613 layer_factory.hpp:77] Creating layer L3_b8_cbr1_bn
I1212 06:17:18.944883 20613 net.cpp:100] Creating Layer L3_b8_cbr1_bn
I1212 06:17:18.944890 20613 net.cpp:434] L3_b8_cbr1_bn <- L3_b8_cbr1_conv_top
I1212 06:17:18.944901 20613 net.cpp:408] L3_b8_cbr1_bn -> L3_b8_cbr1_bn_top
I1212 06:17:18.945173 20613 net.cpp:150] Setting up L3_b8_cbr1_bn
I1212 06:17:18.945188 20613 net.cpp:157] Top shape: 125 64 8 8 (512000)
I1212 06:17:18.945194 20613 net.cpp:165] Memory required for data: 1413633500
I1212 06:17:18.945205 20613 layer_factory.hpp:77] Creating layer L3_b8_cbr1_scale
I1212 06:17:18.945225 20613 net.cpp:100] Creating Layer L3_b8_cbr1_scale
I1212 06:17:18.945231 20613 net.cpp:434] L3_b8_cbr1_scale <- L3_b8_cbr1_bn_top
I1212 06:17:18.945240 20613 net.cpp:395] L3_b8_cbr1_scale -> L3_b8_cbr1_bn_top (in-place)
I1212 06:17:18.945298 20613 layer_factory.hpp:77] Creating layer L3_b8_cbr1_scale
I1212 06:17:18.945458 20613 net.cpp:150] Setting up L3_b8_cbr1_scale
I1212 06:17:18.945471 20613 net.cpp:157] Top shape: 125 64 8 8 (512000)
I1212 06:17:18.945475 20613 net.cpp:165] Memory required for data: 1415681500
I1212 06:17:18.945484 20613 layer_factory.hpp:77] Creating layer L3_b8_cbr1_relu
I1212 06:17:18.945493 20613 net.cpp:100] Creating Layer L3_b8_cbr1_relu
I1212 06:17:18.945499 20613 net.cpp:434] L3_b8_cbr1_relu <- L3_b8_cbr1_bn_top
I1212 06:17:18.945509 20613 net.cpp:395] L3_b8_cbr1_relu -> L3_b8_cbr1_bn_top (in-place)
I1212 06:17:18.945519 20613 net.cpp:150] Setting up L3_b8_cbr1_relu
I1212 06:17:18.945526 20613 net.cpp:157] Top shape: 125 64 8 8 (512000)
I1212 06:17:18.945531 20613 net.cpp:165] Memory required for data: 1417729500
I1212 06:17:18.945536 20613 layer_factory.hpp:77] Creating layer L3_b8_cbr2_conv
I1212 06:17:18.945550 20613 net.cpp:100] Creating Layer L3_b8_cbr2_conv
I1212 06:17:18.945557 20613 net.cpp:434] L3_b8_cbr2_conv <- L3_b8_cbr1_bn_top
I1212 06:17:18.945566 20613 net.cpp:408] L3_b8_cbr2_conv -> L3_b8_cbr2_conv_top
I1212 06:17:18.946590 20613 net.cpp:150] Setting up L3_b8_cbr2_conv
I1212 06:17:18.946605 20613 net.cpp:157] Top shape: 125 64 8 8 (512000)
I1212 06:17:18.946610 20613 net.cpp:165] Memory required for data: 1419777500
I1212 06:17:18.946624 20613 layer_factory.hpp:77] Creating layer L3_b8_cbr2_bn
I1212 06:17:18.946642 20613 net.cpp:100] Creating Layer L3_b8_cbr2_bn
I1212 06:17:18.946650 20613 net.cpp:434] L3_b8_cbr2_bn <- L3_b8_cbr2_conv_top
I1212 06:17:18.946661 20613 net.cpp:408] L3_b8_cbr2_bn -> L3_b8_cbr2_bn_top
I1212 06:17:18.946925 20613 net.cpp:150] Setting up L3_b8_cbr2_bn
I1212 06:17:18.946938 20613 net.cpp:157] Top shape: 125 64 8 8 (512000)
I1212 06:17:18.946943 20613 net.cpp:165] Memory required for data: 1421825500
I1212 06:17:18.946959 20613 layer_factory.hpp:77] Creating layer L3_b8_cbr2_scale
I1212 06:17:18.946966 20613 net.cpp:100] Creating Layer L3_b8_cbr2_scale
I1212 06:17:18.946974 20613 net.cpp:434] L3_b8_cbr2_scale <- L3_b8_cbr2_bn_top
I1212 06:17:18.946981 20613 net.cpp:395] L3_b8_cbr2_scale -> L3_b8_cbr2_bn_top (in-place)
I1212 06:17:18.947041 20613 layer_factory.hpp:77] Creating layer L3_b8_cbr2_scale
I1212 06:17:18.947197 20613 net.cpp:150] Setting up L3_b8_cbr2_scale
I1212 06:17:18.947211 20613 net.cpp:157] Top shape: 125 64 8 8 (512000)
I1212 06:17:18.947216 20613 net.cpp:165] Memory required for data: 1423873500
I1212 06:17:18.947224 20613 layer_factory.hpp:77] Creating layer L3_b8_sum_eltwise
I1212 06:17:18.947233 20613 net.cpp:100] Creating Layer L3_b8_sum_eltwise
I1212 06:17:18.947239 20613 net.cpp:434] L3_b8_sum_eltwise <- L3_b8_cbr2_bn_top
I1212 06:17:18.947247 20613 net.cpp:434] L3_b8_sum_eltwise <- L3_b7_sum_eltwise_top_L3_b7_relu_0_split_1
I1212 06:17:18.947257 20613 net.cpp:408] L3_b8_sum_eltwise -> L3_b8_sum_eltwise_top
I1212 06:17:18.947290 20613 net.cpp:150] Setting up L3_b8_sum_eltwise
I1212 06:17:18.947302 20613 net.cpp:157] Top shape: 125 64 8 8 (512000)
I1212 06:17:18.947307 20613 net.cpp:165] Memory required for data: 1425921500
I1212 06:17:18.947314 20613 layer_factory.hpp:77] Creating layer L3_b8_relu
I1212 06:17:18.947320 20613 net.cpp:100] Creating Layer L3_b8_relu
I1212 06:17:18.947326 20613 net.cpp:434] L3_b8_relu <- L3_b8_sum_eltwise_top
I1212 06:17:18.947335 20613 net.cpp:395] L3_b8_relu -> L3_b8_sum_eltwise_top (in-place)
I1212 06:17:18.947343 20613 net.cpp:150] Setting up L3_b8_relu
I1212 06:17:18.947350 20613 net.cpp:157] Top shape: 125 64 8 8 (512000)
I1212 06:17:18.947355 20613 net.cpp:165] Memory required for data: 1427969500
I1212 06:17:18.947360 20613 layer_factory.hpp:77] Creating layer L3_b8_sum_eltwise_top_L3_b8_relu_0_split
I1212 06:17:18.947369 20613 net.cpp:100] Creating Layer L3_b8_sum_eltwise_top_L3_b8_relu_0_split
I1212 06:17:18.947386 20613 net.cpp:434] L3_b8_sum_eltwise_top_L3_b8_relu_0_split <- L3_b8_sum_eltwise_top
I1212 06:17:18.947394 20613 net.cpp:408] L3_b8_sum_eltwise_top_L3_b8_relu_0_split -> L3_b8_sum_eltwise_top_L3_b8_relu_0_split_0
I1212 06:17:18.947404 20613 net.cpp:408] L3_b8_sum_eltwise_top_L3_b8_relu_0_split -> L3_b8_sum_eltwise_top_L3_b8_relu_0_split_1
I1212 06:17:18.947453 20613 net.cpp:150] Setting up L3_b8_sum_eltwise_top_L3_b8_relu_0_split
I1212 06:17:18.947465 20613 net.cpp:157] Top shape: 125 64 8 8 (512000)
I1212 06:17:18.947473 20613 net.cpp:157] Top shape: 125 64 8 8 (512000)
I1212 06:17:18.947477 20613 net.cpp:165] Memory required for data: 1432065500
I1212 06:17:18.947482 20613 layer_factory.hpp:77] Creating layer L3_b9_cbr1_conv
I1212 06:17:18.947494 20613 net.cpp:100] Creating Layer L3_b9_cbr1_conv
I1212 06:17:18.947500 20613 net.cpp:434] L3_b9_cbr1_conv <- L3_b8_sum_eltwise_top_L3_b8_relu_0_split_0
I1212 06:17:18.947512 20613 net.cpp:408] L3_b9_cbr1_conv -> L3_b9_cbr1_conv_top
I1212 06:17:18.949539 20613 net.cpp:150] Setting up L3_b9_cbr1_conv
I1212 06:17:18.949558 20613 net.cpp:157] Top shape: 125 64 8 8 (512000)
I1212 06:17:18.949563 20613 net.cpp:165] Memory required for data: 1434113500
I1212 06:17:18.949573 20613 layer_factory.hpp:77] Creating layer L3_b9_cbr1_bn
I1212 06:17:18.949585 20613 net.cpp:100] Creating Layer L3_b9_cbr1_bn
I1212 06:17:18.949592 20613 net.cpp:434] L3_b9_cbr1_bn <- L3_b9_cbr1_conv_top
I1212 06:17:18.949604 20613 net.cpp:408] L3_b9_cbr1_bn -> L3_b9_cbr1_bn_top
I1212 06:17:18.949877 20613 net.cpp:150] Setting up L3_b9_cbr1_bn
I1212 06:17:18.949892 20613 net.cpp:157] Top shape: 125 64 8 8 (512000)
I1212 06:17:18.949898 20613 net.cpp:165] Memory required for data: 1436161500
I1212 06:17:18.949908 20613 layer_factory.hpp:77] Creating layer L3_b9_cbr1_scale
I1212 06:17:18.949918 20613 net.cpp:100] Creating Layer L3_b9_cbr1_scale
I1212 06:17:18.949923 20613 net.cpp:434] L3_b9_cbr1_scale <- L3_b9_cbr1_bn_top
I1212 06:17:18.949935 20613 net.cpp:395] L3_b9_cbr1_scale -> L3_b9_cbr1_bn_top (in-place)
I1212 06:17:18.949993 20613 layer_factory.hpp:77] Creating layer L3_b9_cbr1_scale
I1212 06:17:18.950155 20613 net.cpp:150] Setting up L3_b9_cbr1_scale
I1212 06:17:18.950167 20613 net.cpp:157] Top shape: 125 64 8 8 (512000)
I1212 06:17:18.950173 20613 net.cpp:165] Memory required for data: 1438209500
I1212 06:17:18.950182 20613 layer_factory.hpp:77] Creating layer L3_b9_cbr1_relu
I1212 06:17:18.950191 20613 net.cpp:100] Creating Layer L3_b9_cbr1_relu
I1212 06:17:18.950196 20613 net.cpp:434] L3_b9_cbr1_relu <- L3_b9_cbr1_bn_top
I1212 06:17:18.950206 20613 net.cpp:395] L3_b9_cbr1_relu -> L3_b9_cbr1_bn_top (in-place)
I1212 06:17:18.950217 20613 net.cpp:150] Setting up L3_b9_cbr1_relu
I1212 06:17:18.950224 20613 net.cpp:157] Top shape: 125 64 8 8 (512000)
I1212 06:17:18.950229 20613 net.cpp:165] Memory required for data: 1440257500
I1212 06:17:18.950234 20613 layer_factory.hpp:77] Creating layer L3_b9_cbr2_conv
I1212 06:17:18.950253 20613 net.cpp:100] Creating Layer L3_b9_cbr2_conv
I1212 06:17:18.950258 20613 net.cpp:434] L3_b9_cbr2_conv <- L3_b9_cbr1_bn_top
I1212 06:17:18.950270 20613 net.cpp:408] L3_b9_cbr2_conv -> L3_b9_cbr2_conv_top
I1212 06:17:18.951292 20613 net.cpp:150] Setting up L3_b9_cbr2_conv
I1212 06:17:18.951308 20613 net.cpp:157] Top shape: 125 64 8 8 (512000)
I1212 06:17:18.951313 20613 net.cpp:165] Memory required for data: 1442305500
I1212 06:17:18.951321 20613 layer_factory.hpp:77] Creating layer L3_b9_cbr2_bn
I1212 06:17:18.951331 20613 net.cpp:100] Creating Layer L3_b9_cbr2_bn
I1212 06:17:18.951339 20613 net.cpp:434] L3_b9_cbr2_bn <- L3_b9_cbr2_conv_top
I1212 06:17:18.951349 20613 net.cpp:408] L3_b9_cbr2_bn -> L3_b9_cbr2_bn_top
I1212 06:17:18.951622 20613 net.cpp:150] Setting up L3_b9_cbr2_bn
I1212 06:17:18.951639 20613 net.cpp:157] Top shape: 125 64 8 8 (512000)
I1212 06:17:18.951645 20613 net.cpp:165] Memory required for data: 1444353500
I1212 06:17:18.951655 20613 layer_factory.hpp:77] Creating layer L3_b9_cbr2_scale
I1212 06:17:18.951673 20613 net.cpp:100] Creating Layer L3_b9_cbr2_scale
I1212 06:17:18.951679 20613 net.cpp:434] L3_b9_cbr2_scale <- L3_b9_cbr2_bn_top
I1212 06:17:18.951687 20613 net.cpp:395] L3_b9_cbr2_scale -> L3_b9_cbr2_bn_top (in-place)
I1212 06:17:18.951746 20613 layer_factory.hpp:77] Creating layer L3_b9_cbr2_scale
I1212 06:17:18.951901 20613 net.cpp:150] Setting up L3_b9_cbr2_scale
I1212 06:17:18.951915 20613 net.cpp:157] Top shape: 125 64 8 8 (512000)
I1212 06:17:18.951920 20613 net.cpp:165] Memory required for data: 1446401500
I1212 06:17:18.951928 20613 layer_factory.hpp:77] Creating layer L3_b9_sum_eltwise
I1212 06:17:18.951941 20613 net.cpp:100] Creating Layer L3_b9_sum_eltwise
I1212 06:17:18.951947 20613 net.cpp:434] L3_b9_sum_eltwise <- L3_b9_cbr2_bn_top
I1212 06:17:18.951956 20613 net.cpp:434] L3_b9_sum_eltwise <- L3_b8_sum_eltwise_top_L3_b8_relu_0_split_1
I1212 06:17:18.951963 20613 net.cpp:408] L3_b9_sum_eltwise -> L3_b9_sum_eltwise_top
I1212 06:17:18.951999 20613 net.cpp:150] Setting up L3_b9_sum_eltwise
I1212 06:17:18.952013 20613 net.cpp:157] Top shape: 125 64 8 8 (512000)
I1212 06:17:18.952018 20613 net.cpp:165] Memory required for data: 1448449500
I1212 06:17:18.952023 20613 layer_factory.hpp:77] Creating layer L3_b9_relu
I1212 06:17:18.952030 20613 net.cpp:100] Creating Layer L3_b9_relu
I1212 06:17:18.952036 20613 net.cpp:434] L3_b9_relu <- L3_b9_sum_eltwise_top
I1212 06:17:18.952044 20613 net.cpp:395] L3_b9_relu -> L3_b9_sum_eltwise_top (in-place)
I1212 06:17:18.952054 20613 net.cpp:150] Setting up L3_b9_relu
I1212 06:17:18.952060 20613 net.cpp:157] Top shape: 125 64 8 8 (512000)
I1212 06:17:18.952064 20613 net.cpp:165] Memory required for data: 1450497500
I1212 06:17:18.952069 20613 layer_factory.hpp:77] Creating layer post_pool
I1212 06:17:18.952078 20613 net.cpp:100] Creating Layer post_pool
I1212 06:17:18.952085 20613 net.cpp:434] post_pool <- L3_b9_sum_eltwise_top
I1212 06:17:18.952095 20613 net.cpp:408] post_pool -> post_pool
I1212 06:17:18.952129 20613 net.cpp:150] Setting up post_pool
I1212 06:17:18.952142 20613 net.cpp:157] Top shape: 125 64 1 1 (8000)
I1212 06:17:18.952147 20613 net.cpp:165] Memory required for data: 1450529500
I1212 06:17:18.952152 20613 layer_factory.hpp:77] Creating layer post_FC
I1212 06:17:18.952229 20613 net.cpp:100] Creating Layer post_FC
I1212 06:17:18.952244 20613 net.cpp:434] post_FC <- post_pool
I1212 06:17:18.952258 20613 net.cpp:408] post_FC -> post_FC_top
I1212 06:17:18.952484 20613 net.cpp:150] Setting up post_FC
I1212 06:17:18.952502 20613 net.cpp:157] Top shape: 125 10 (1250)
I1212 06:17:18.952507 20613 net.cpp:165] Memory required for data: 1450534500
I1212 06:17:18.952515 20613 layer_factory.hpp:77] Creating layer post_FC_top_post_FC_0_split
I1212 06:17:18.952524 20613 net.cpp:100] Creating Layer post_FC_top_post_FC_0_split
I1212 06:17:18.952530 20613 net.cpp:434] post_FC_top_post_FC_0_split <- post_FC_top
I1212 06:17:18.952543 20613 net.cpp:408] post_FC_top_post_FC_0_split -> post_FC_top_post_FC_0_split_0
I1212 06:17:18.952554 20613 net.cpp:408] post_FC_top_post_FC_0_split -> post_FC_top_post_FC_0_split_1
I1212 06:17:18.952613 20613 net.cpp:150] Setting up post_FC_top_post_FC_0_split
I1212 06:17:18.952632 20613 net.cpp:157] Top shape: 125 10 (1250)
I1212 06:17:18.952639 20613 net.cpp:157] Top shape: 125 10 (1250)
I1212 06:17:18.952644 20613 net.cpp:165] Memory required for data: 1450544500
I1212 06:17:18.952649 20613 layer_factory.hpp:77] Creating layer accuracy
I1212 06:17:18.952658 20613 net.cpp:100] Creating Layer accuracy
I1212 06:17:18.952664 20613 net.cpp:434] accuracy <- post_FC_top_post_FC_0_split_0
I1212 06:17:18.952672 20613 net.cpp:434] accuracy <- label_dataLayer_1_split_0
I1212 06:17:18.952679 20613 net.cpp:408] accuracy -> accuracy
…
