…
I0818 13:44:37.116821 22726 net.cpp:322] The NetState phase (0) differed from the phase (1) specified by a rule in layer dataLayer
I0818 13:44:37.118732 22726 net.cpp:58] Initializing net from parameters: 
name: "Cifar-Resnet"
state {
  phase: TRAIN
  level: 0
  stage: ""
}
layer {
  name: "dataLayer"
  type: "Data"
  top: "data"
  top: "label"
  include {
    phase: TRAIN
  }
  transform_param {
    mirror: true
    crop_size: 32
    mean_file: "examples/cifar10/mean.binaryproto"
  }
  data_param {
    source: "examples/cifar10/cifar10_train_lmdb"
    batch_size: 125
    backend: LMDB
  }
  image_data_param {
    shuffle: true
  }
}
layer {
  name: "conv"
  type: "Convolution"
  bottom: "data"
  top: "conv"
  param {
    lr_mult: 1
    decay_mult: 1
  }
  param {
    lr_mult: 2
    decay_mult: 0
  }
  convolution_param {
    num_output: 16
    pad: 1
    kernel_size: 3
    stride: 1
    weight_filler {
      type: "msra"
    }
    bias_filler {
      type: "constant"
    }
  }
}
layer {
  name: "batchNorm_conv"
  type: "BatchNorm"
  bottom: "conv"
  top: "bn_conv"
  batch_norm_param {
    use_global_stats: false
    moving_average_fraction: 0.95
  }
}
layer {
  name: "scale_conv"
  type: "Scale"
  bottom: "bn_conv"
  top: "bn_conv"
  scale_param {
    bias_term: true
  }
}
layer {
  name: "relu_bn_conv"
  type: "ReLU"
  bottom: "bn_conv"
  top: "bn_conv"
}
layer {
  name: "Conv16_1"
  type: "Convolution"
  bottom: "bn_conv"
  top: "Conv16_1"
  param {
    lr_mult: 1
    decay_mult: 1
  }
  param {
    lr_mult: 2
    decay_mult: 0
  }
  convolution_param {
    num_output: 16
    pad: 1
    kernel_size: 3
    stride: 1
    weight_filler {
      type: "msra"
    }
    bias_filler {
      type: "constant"
    }
  }
}
layer {
  name: "batchNorm_Conv16_1"
  type: "BatchNorm"
  bottom: "Conv16_1"
  top: "bn_Conv16_1"
  batch_norm_param {
    use_global_stats: false
    moving_average_fraction: 0.95
  }
}
layer {
  name: "scale_Conv16_1"
  type: "Scale"
  bottom: "bn_Conv16_1"
  top: "bn_Conv16_1"
  scale_param {
    bias_term: true
  }
}
layer {
  name: "relu_bn_Conv16_1"
  type: "ReLU"
  bottom: "bn_Conv16_1"
  top: "bn_Conv16_1"
}
layer {
  name: "Conv16_1_b"
  type: "Convolution"
  bottom: "bn_Conv16_1"
  top: "Conv16_1_b"
  param {
    lr_mult: 1
    decay_mult: 1
  }
  param {
    lr_mult: 2
    decay_mult: 0
  }
  convolution_param {
    num_output: 16
    pad: 1
    kernel_size: 3
    stride: 1
    weight_filler {
      type: "msra"
    }
    bias_filler {
      type: "constant"
    }
  }
}
layer {
  name: "batchNorm_Conv16_1_b"
  type: "BatchNorm"
  bottom: "Conv16_1_b"
  top: "bn_Conv16_1_b"
  batch_norm_param {
    use_global_stats: false
    moving_average_fraction: 0.95
  }
}
layer {
  name: "scale_Conv16_1_b"
  type: "Scale"
  bottom: "bn_Conv16_1_b"
  top: "bn_Conv16_1_b"
  scale_param {
    bias_term: true
  }
}
layer {
  name: "sum_bn_conv"
  type: "Eltwise"
  bottom: "bn_conv"
  bottom: "bn_Conv16_1_b"
  top: "sum_bn_Conv16_1_b"
  eltwise_param {
    operation: SUM
  }
}
layer {
  name: "relu_sum_bn_Conv16_1_b"
  type: "ReLU"
  bottom: "sum_bn_Conv16_1_b"
  top: "sum_bn_Conv16_1_b"
}
layer {
  name: "Conv16_2"
  type: "Convolution"
  bottom: "sum_bn_Conv16_1_b"
  top: "Conv16_2"
  param {
    lr_mult: 1
    decay_mult: 1
  }
  param {
    lr_mult: 2
    decay_mult: 0
  }
  convolution_param {
    num_output: 16
    pad: 1
    kernel_size: 3
    stride: 1
    weight_filler {
      type: "msra"
    }
    bias_filler {
      type: "constant"
    }
  }
}
layer {
  name: "batchNorm_Conv16_2"
  type: "BatchNorm"
  bottom: "Conv16_2"
  top: "bn_Conv16_2"
  batch_norm_param {
    use_global_stats: false
    moving_average_fraction: 0.95
  }
}
layer {
  name: "scale_Conv16_2"
  type: "Scale"
  bottom: "bn_Conv16_2"
  top: "bn_Conv16_2"
  scale_param {
    bias_term: true
  }
}
layer {
  name: "relu_bn_Conv16_2"
  type: "ReLU"
  bottom: "bn_Conv16_2"
  top: "bn_Conv16_2"
}
layer {
  name: "Conv16_2_b"
  type: "Convolution"
  bottom: "bn_Conv16_2"
  top: "Conv16_2_b"
  param {
    lr_mult: 1
    decay_mult: 1
  }
  param {
    lr_mult: 2
    decay_mult: 0
  }
  convolution_param {
    num_output: 16
    pad: 1
    kernel_size: 3
    stride: 1
    weight_filler {
      type: "msra"
    }
    bias_filler {
      type: "constant"
    }
  }
}
layer {
  name: "batchNorm_Conv16_2_b"
  type: "BatchNorm"
  bottom: "Conv16_2_b"
  top: "bn_Conv16_2_b"
  batch_norm_param {
    use_global_stats: false
    moving_average_fraction: 0.95
  }
}
layer {
  name: "scale_Conv16_2_b"
  type: "Scale"
  bottom: "bn_Conv16_2_b"
  top: "bn_Conv16_2_b"
  scale_param {
    bias_term: true
  }
}
layer {
  name: "sum_sum_bn_Conv16_1_b"
  type: "Eltwise"
  bottom: "sum_bn_Conv16_1_b"
  bottom: "bn_Conv16_2_b"
  top: "sum_bn_Conv16_2_b"
  eltwise_param {
    operation: SUM
  }
}
layer {
  name: "relu_sum_bn_Conv16_2_b"
  type: "ReLU"
  bottom: "sum_bn_Conv16_2_b"
  top: "sum_bn_Conv16_2_b"
}
layer {
  name: "Conv16_3"
  type: "Convolution"
  bottom: "sum_bn_Conv16_2_b"
  top: "Conv16_3"
  param {
    lr_mult: 1
    decay_mult: 1
  }
  param {
    lr_mult: 2
    decay_mult: 0
  }
  convolution_param {
    num_output: 16
    pad: 1
    kernel_size: 3
    stride: 1
    weight_filler {
      type: "msra"
    }
    bias_filler {
      type: "constant"
    }
  }
}
layer {
  name: "batchNorm_Conv16_3"
  type: "BatchNorm"
  bottom: "Conv16_3"
  top: "bn_Conv16_3"
  batch_norm_param {
    use_global_stats: false
    moving_average_fraction: 0.95
  }
}
layer {
  name: "scale_Conv16_3"
  type: "Scale"
  bottom: "bn_Conv16_3"
  top: "bn_Conv16_3"
  scale_param {
    bias_term: true
  }
}
layer {
  name: "relu_bn_Conv16_3"
  type: "ReLU"
  bottom: "bn_Conv16_3"
  top: "bn_Conv16_3"
}
layer {
  name: "Conv16_3_b"
  type: "Convolution"
  bottom: "bn_Conv16_3"
  top: "Conv16_3_b"
  param {
    lr_mult: 1
    decay_mult: 1
  }
  param {
    lr_mult: 2
    decay_mult: 0
  }
  convolution_param {
    num_output: 16
    pad: 1
    kernel_size: 3
    stride: 1
    weight_filler {
      type: "msra"
    }
    bias_filler {
      type: "constant"
    }
  }
}
layer {
  name: "batchNorm_Conv16_3_b"
  type: "BatchNorm"
  bottom: "Conv16_3_b"
  top: "bn_Conv16_3_b"
  batch_norm_param {
    use_global_stats: false
    moving_average_fraction: 0.95
  }
}
layer {
  name: "scale_Conv16_3_b"
  type: "Scale"
  bottom: "bn_Conv16_3_b"
  top: "bn_Conv16_3_b"
  scale_param {
    bias_term: true
  }
}
layer {
  name: "sum_sum_bn_Conv16_2_b"
  type: "Eltwise"
  bottom: "sum_bn_Conv16_2_b"
  bottom: "bn_Conv16_3_b"
  top: "sum_bn_Conv16_3_b"
  eltwise_param {
    operation: SUM
  }
}
layer {
  name: "relu_sum_bn_Conv16_3_b"
  type: "ReLU"
  bottom: "sum_bn_Conv16_3_b"
  top: "sum_bn_Conv16_3_b"
}
layer {
  name: "Conv16_4"
  type: "Convolution"
  bottom: "sum_bn_Conv16_3_b"
  top: "Conv16_4"
  param {
    lr_mult: 1
    decay_mult: 1
  }
  param {
    lr_mult: 2
    decay_mult: 0
  }
  convolution_param {
    num_output: 16
    pad: 1
    kernel_size: 3
    stride: 1
    weight_filler {
      type: "msra"
    }
    bias_filler {
      type: "constant"
    }
  }
}
layer {
  name: "batchNorm_Conv16_4"
  type: "BatchNorm"
  bottom: "Conv16_4"
  top: "bn_Conv16_4"
  batch_norm_param {
    use_global_stats: false
    moving_average_fraction: 0.95
  }
}
layer {
  name: "scale_Conv16_4"
  type: "Scale"
  bottom: "bn_Conv16_4"
  top: "bn_Conv16_4"
  scale_param {
    bias_term: true
  }
}
layer {
  name: "relu_bn_Conv16_4"
  type: "ReLU"
  bottom: "bn_Conv16_4"
  top: "bn_Conv16_4"
}
layer {
  name: "Conv16_4_b"
  type: "Convolution"
  bottom: "bn_Conv16_4"
  top: "Conv16_4_b"
  param {
    lr_mult: 1
    decay_mult: 1
  }
  param {
    lr_mult: 2
    decay_mult: 0
  }
  convolution_param {
    num_output: 16
    pad: 1
    kernel_size: 3
    stride: 1
    weight_filler {
      type: "msra"
    }
    bias_filler {
      type: "constant"
    }
  }
}
layer {
  name: "batchNorm_Conv16_4_b"
  type: "BatchNorm"
  bottom: "Conv16_4_b"
  top: "bn_Conv16_4_b"
  batch_norm_param {
    use_global_stats: false
    moving_average_fraction: 0.95
  }
}
layer {
  name: "scale_Conv16_4_b"
  type: "Scale"
  bottom: "bn_Conv16_4_b"
  top: "bn_Conv16_4_b"
  scale_param {
    bias_term: true
  }
}
layer {
  name: "sum_sum_bn_Conv16_3_b"
  type: "Eltwise"
  bottom: "sum_bn_Conv16_3_b"
  bottom: "bn_Conv16_4_b"
  top: "sum_bn_Conv16_4_b"
  eltwise_param {
    operation: SUM
  }
}
layer {
  name: "relu_sum_bn_Conv16_4_b"
  type: "ReLU"
  bottom: "sum_bn_Conv16_4_b"
  top: "sum_bn_Conv16_4_b"
}
layer {
  name: "Conv16_5"
  type: "Convolution"
  bottom: "sum_bn_Conv16_4_b"
  top: "Conv16_5"
  param {
    lr_mult: 1
    decay_mult: 1
  }
  param {
    lr_mult: 2
    decay_mult: 0
  }
  convolution_param {
    num_output: 16
    pad: 1
    kernel_size: 3
    stride: 1
    weight_filler {
      type: "msra"
    }
    bias_filler {
      type: "constant"
    }
  }
}
layer {
  name: "batchNorm_Conv16_5"
  type: "BatchNorm"
  bottom: "Conv16_5"
  top: "bn_Conv16_5"
  batch_norm_param {
    use_global_stats: false
    moving_average_fraction: 0.95
  }
}
layer {
  name: "scale_Conv16_5"
  type: "Scale"
  bottom: "bn_Conv16_5"
  top: "bn_Conv16_5"
  scale_param {
    bias_term: true
  }
}
layer {
  name: "relu_bn_Conv16_5"
  type: "ReLU"
  bottom: "bn_Conv16_5"
  top: "bn_Conv16_5"
}
layer {
  name: "Conv16_5_b"
  type: "Convolution"
  bottom: "bn_Conv16_5"
  top: "Conv16_5_b"
  param {
    lr_mult: 1
    decay_mult: 1
  }
  param {
    lr_mult: 2
    decay_mult: 0
  }
  convolution_param {
    num_output: 16
    pad: 1
    kernel_size: 3
    stride: 1
    weight_filler {
      type: "msra"
    }
    bias_filler {
      type: "constant"
    }
  }
}
layer {
  name: "batchNorm_Conv16_5_b"
  type: "BatchNorm"
  bottom: "Conv16_5_b"
  top: "bn_Conv16_5_b"
  batch_norm_param {
    use_global_stats: false
    moving_average_fraction: 0.95
  }
}
layer {
  name: "scale_Conv16_5_b"
  type: "Scale"
  bottom: "bn_Conv16_5_b"
  top: "bn_Conv16_5_b"
  scale_param {
    bias_term: true
  }
}
layer {
  name: "sum_sum_bn_Conv16_4_b"
  type: "Eltwise"
  bottom: "sum_bn_Conv16_4_b"
  bottom: "bn_Conv16_5_b"
  top: "sum_bn_Conv16_5_b"
  eltwise_param {
    operation: SUM
  }
}
layer {
  name: "relu_sum_bn_Conv16_5_b"
  type: "ReLU"
  bottom: "sum_bn_Conv16_5_b"
  top: "sum_bn_Conv16_5_b"
}
layer {
  name: "Conv16_6"
  type: "Convolution"
  bottom: "sum_bn_Conv16_5_b"
  top: "Conv16_6"
  param {
    lr_mult: 1
    decay_mult: 1
  }
  param {
    lr_mult: 2
    decay_mult: 0
  }
  convolution_param {
    num_output: 16
    pad: 1
    kernel_size: 3
    stride: 1
    weight_filler {
      type: "msra"
    }
    bias_filler {
      type: "constant"
    }
  }
}
layer {
  name: "batchNorm_Conv16_6"
  type: "BatchNorm"
  bottom: "Conv16_6"
  top: "bn_Conv16_6"
  batch_norm_param {
    use_global_stats: false
    moving_average_fraction: 0.95
  }
}
layer {
  name: "scale_Conv16_6"
  type: "Scale"
  bottom: "bn_Conv16_6"
  top: "bn_Conv16_6"
  scale_param {
    bias_term: true
  }
}
layer {
  name: "relu_bn_Conv16_6"
  type: "ReLU"
  bottom: "bn_Conv16_6"
  top: "bn_Conv16_6"
}
layer {
  name: "Conv16_6_b"
  type: "Convolution"
  bottom: "bn_Conv16_6"
  top: "Conv16_6_b"
  param {
    lr_mult: 1
    decay_mult: 1
  }
  param {
    lr_mult: 2
    decay_mult: 0
  }
  convolution_param {
    num_output: 16
    pad: 1
    kernel_size: 3
    stride: 1
    weight_filler {
      type: "msra"
    }
    bias_filler {
      type: "constant"
    }
  }
}
layer {
  name: "batchNorm_Conv16_6_b"
  type: "BatchNorm"
  bottom: "Conv16_6_b"
  top: "bn_Conv16_6_b"
  batch_norm_param {
    use_global_stats: false
    moving_average_fraction: 0.95
  }
}
layer {
  name: "scale_Conv16_6_b"
  type: "Scale"
  bottom: "bn_Conv16_6_b"
  top: "bn_Conv16_6_b"
  scale_param {
    bias_term: true
  }
}
layer {
  name: "sum_sum_bn_Conv16_5_b"
  type: "Eltwise"
  bottom: "sum_bn_Conv16_5_b"
  bottom: "bn_Conv16_6_b"
  top: "sum_bn_Conv16_6_b"
  eltwise_param {
    operation: SUM
  }
}
layer {
  name: "relu_sum_bn_Conv16_6_b"
  type: "ReLU"
  bottom: "sum_bn_Conv16_6_b"
  top: "sum_bn_Conv16_6_b"
}
layer {
  name: "Conv16_7"
  type: "Convolution"
  bottom: "sum_bn_Conv16_6_b"
  top: "Conv16_7"
  param {
    lr_mult: 1
    decay_mult: 1
  }
  param {
    lr_mult: 2
    decay_mult: 0
  }
  convolution_param {
    num_output: 16
    pad: 1
    kernel_size: 3
    stride: 1
    weight_filler {
      type: "msra"
    }
    bias_filler {
      type: "constant"
    }
  }
}
layer {
  name: "batchNorm_Conv16_7"
  type: "BatchNorm"
  bottom: "Conv16_7"
  top: "bn_Conv16_7"
  batch_norm_param {
    use_global_stats: false
    moving_average_fraction: 0.95
  }
}
layer {
  name: "scale_Conv16_7"
  type: "Scale"
  bottom: "bn_Conv16_7"
  top: "bn_Conv16_7"
  scale_param {
    bias_term: true
  }
}
layer {
  name: "relu_bn_Conv16_7"
  type: "ReLU"
  bottom: "bn_Conv16_7"
  top: "bn_Conv16_7"
}
layer {
  name: "Conv16_7_b"
  type: "Convolution"
  bottom: "bn_Conv16_7"
  top: "Conv16_7_b"
  param {
    lr_mult: 1
    decay_mult: 1
  }
  param {
    lr_mult: 2
    decay_mult: 0
  }
  convolution_param {
    num_output: 16
    pad: 1
    kernel_size: 3
    stride: 1
    weight_filler {
      type: "msra"
    }
    bias_filler {
      type: "constant"
    }
  }
}
layer {
  name: "batchNorm_Conv16_7_b"
  type: "BatchNorm"
  bottom: "Conv16_7_b"
  top: "bn_Conv16_7_b"
  batch_norm_param {
    use_global_stats: false
    moving_average_fraction: 0.95
  }
}
layer {
  name: "scale_Conv16_7_b"
  type: "Scale"
  bottom: "bn_Conv16_7_b"
  top: "bn_Conv16_7_b"
  scale_param {
    bias_term: true
  }
}
layer {
  name: "sum_sum_bn_Conv16_6_b"
  type: "Eltwise"
  bottom: "sum_bn_Conv16_6_b"
  bottom: "bn_Conv16_7_b"
  top: "sum_bn_Conv16_7_b"
  eltwise_param {
    operation: SUM
  }
}
layer {
  name: "relu_sum_bn_Conv16_7_b"
  type: "ReLU"
  bottom: "sum_bn_Conv16_7_b"
  top: "sum_bn_Conv16_7_b"
}
layer {
  name: "Conv16_8"
  type: "Convolution"
  bottom: "sum_bn_Conv16_7_b"
  top: "Conv16_8"
  param {
    lr_mult: 1
    decay_mult: 1
  }
  param {
    lr_mult: 2
    decay_mult: 0
  }
  convolution_param {
    num_output: 16
    pad: 1
    kernel_size: 3
    stride: 1
    weight_filler {
      type: "msra"
    }
    bias_filler {
      type: "constant"
    }
  }
}
layer {
  name: "batchNorm_Conv16_8"
  type: "BatchNorm"
  bottom: "Conv16_8"
  top: "bn_Conv16_8"
  batch_norm_param {
    use_global_stats: false
    moving_average_fraction: 0.95
  }
}
layer {
  name: "scale_Conv16_8"
  type: "Scale"
  bottom: "bn_Conv16_8"
  top: "bn_Conv16_8"
  scale_param {
    bias_term: true
  }
}
layer {
  name: "relu_bn_Conv16_8"
  type: "ReLU"
  bottom: "bn_Conv16_8"
  top: "bn_Conv16_8"
}
layer {
  name: "Conv16_8_b"
  type: "Convolution"
  bottom: "bn_Conv16_8"
  top: "Conv16_8_b"
  param {
    lr_mult: 1
    decay_mult: 1
  }
  param {
    lr_mult: 2
    decay_mult: 0
  }
  convolution_param {
    num_output: 16
    pad: 1
    kernel_size: 3
    stride: 1
    weight_filler {
      type: "msra"
    }
    bias_filler {
      type: "constant"
    }
  }
}
layer {
  name: "batchNorm_Conv16_8_b"
  type: "BatchNorm"
  bottom: "Conv16_8_b"
  top: "bn_Conv16_8_b"
  batch_norm_param {
    use_global_stats: false
    moving_average_fraction: 0.95
  }
}
layer {
  name: "scale_Conv16_8_b"
  type: "Scale"
  bottom: "bn_Conv16_8_b"
  top: "bn_Conv16_8_b"
  scale_param {
    bias_term: true
  }
}
layer {
  name: "sum_sum_bn_Conv16_7_b"
  type: "Eltwise"
  bottom: "sum_bn_Conv16_7_b"
  bottom: "bn_Conv16_8_b"
  top: "sum_bn_Conv16_8_b"
  eltwise_param {
    operation: SUM
  }
}
layer {
  name: "relu_sum_bn_Conv16_8_b"
  type: "ReLU"
  bottom: "sum_bn_Conv16_8_b"
  top: "sum_bn_Conv16_8_b"
}
layer {
  name: "Conv16_9"
  type: "Convolution"
  bottom: "sum_bn_Conv16_8_b"
  top: "Conv16_9"
  param {
    lr_mult: 1
    decay_mult: 1
  }
  param {
    lr_mult: 2
    decay_mult: 0
  }
  convolution_param {
    num_output: 16
    pad: 1
    kernel_size: 3
    stride: 1
    weight_filler {
      type: "msra"
    }
    bias_filler {
      type: "constant"
    }
  }
}
layer {
  name: "batchNorm_Conv16_9"
  type: "BatchNorm"
  bottom: "Conv16_9"
  top: "bn_Conv16_9"
  batch_norm_param {
    use_global_stats: false
    moving_average_fraction: 0.95
  }
}
layer {
  name: "scale_Conv16_9"
  type: "Scale"
  bottom: "bn_Conv16_9"
  top: "bn_Conv16_9"
  scale_param {
    bias_term: true
  }
}
layer {
  name: "relu_bn_Conv16_9"
  type: "ReLU"
  bottom: "bn_Conv16_9"
  top: "bn_Conv16_9"
}
layer {
  name: "Conv16_9_b"
  type: "Convolution"
  bottom: "bn_Conv16_9"
  top: "Conv16_9_b"
  param {
    lr_mult: 1
    decay_mult: 1
  }
  param {
    lr_mult: 2
    decay_mult: 0
  }
  convolution_param {
    num_output: 16
    pad: 1
    kernel_size: 3
    stride: 1
    weight_filler {
      type: "msra"
    }
    bias_filler {
      type: "constant"
    }
  }
}
layer {
  name: "batchNorm_Conv16_9_b"
  type: "BatchNorm"
  bottom: "Conv16_9_b"
  top: "bn_Conv16_9_b"
  batch_norm_param {
    use_global_stats: false
    moving_average_fraction: 0.95
  }
}
layer {
  name: "scale_Conv16_9_b"
  type: "Scale"
  bottom: "bn_Conv16_9_b"
  top: "bn_Conv16_9_b"
  scale_param {
    bias_term: true
  }
}
layer {
  name: "sum_sum_bn_Conv16_8_b"
  type: "Eltwise"
  bottom: "sum_bn_Conv16_8_b"
  bottom: "bn_Conv16_9_b"
  top: "sum_bn_Conv16_9_b"
  eltwise_param {
    operation: SUM
  }
}
layer {
  name: "relu_sum_bn_Conv16_9_b"
  type: "ReLU"
  bottom: "sum_bn_Conv16_9_b"
  top: "sum_bn_Conv16_9_b"
}
layer {
  name: "resblk32"
  type: "Convolution"
  bottom: "sum_bn_Conv16_9_b"
  top: "resblk32"
  param {
    lr_mult: 1
    decay_mult: 1
  }
  param {
    lr_mult: 2
    decay_mult: 0
  }
  convolution_param {
    num_output: 16
    pad: 1
    kernel_size: 3
    stride: 2
    weight_filler {
      type: "msra"
    }
    bias_filler {
      type: "constant"
    }
  }
}
layer {
  name: "batchNorm_resblk32"
  type: "BatchNorm"
  bottom: "resblk32"
  top: "bn_resblk32"
  batch_norm_param {
    use_global_stats: false
    moving_average_fraction: 0.95
  }
}
layer {
  name: "scale_resblk32"
  type: "Scale"
  bottom: "bn_resblk32"
  top: "bn_resblk32"
  scale_param {
    bias_term: true
  }
}
layer {
  name: "relu_bn_resblk32"
  type: "ReLU"
  bottom: "bn_resblk32"
  top: "bn_resblk32"
}
layer {
  name: "resblk32_b"
  type: "Convolution"
  bottom: "bn_resblk32"
  top: "resblk32_b"
  param {
    lr_mult: 1
    decay_mult: 1
  }
  param {
    lr_mult: 2
    decay_mult: 0
  }
  convolution_param {
    num_output: 16
    pad: 1
    kernel_size: 3
    stride: 1
    weight_filler {
      type: "msra"
    }
    bias_filler {
      type: "constant"
    }
  }
}
layer {
  name: "batchNorm_resblk32_b"
  type: "BatchNorm"
  bottom: "resblk32_b"
  top: "bn_resblk32_b"
  batch_norm_param {
    use_global_stats: false
    moving_average_fraction: 0.95
  }
}
layer {
  name: "scale_resblk32_b"
  type: "Scale"
  bottom: "bn_resblk32_b"
  top: "bn_resblk32_b"
  scale_param {
    bias_term: true
  }
}
layer {
  name: "avePooling_resblk32"
  type: "Pooling"
  bottom: "sum_bn_Conv16_9_b"
  top: "avgPool_resblk32"
  pooling_param {
    pool: AVE
    kernel_size: 3
    stride: 2
  }
}
layer {
  name: "sum_avgPool_resblk32"
  type: "Eltwise"
  bottom: "avgPool_resblk32"
  bottom: "bn_resblk32_b"
  top: "sum_bn_resblk32_b"
  eltwise_param {
    operation: SUM
  }
}
layer {
  name: "relu_sum_bn_resblk32_b"
  type: "ReLU"
  bottom: "sum_bn_resblk32_b"
  top: "sum_bn_resblk32_b"
}
layer {
  name: "zeros_sum_bn_resblk32_b"
  type: "DummyData"
  top: "zeros_sum_bn_resblk32_b"
  dummy_data_param {
    data_filler {
      type: "constant"
      value: 0
    }
    shape {
      dim: 125
      dim: 16
      dim: 16
      dim: 16
    }
  }
}
layer {
  name: "CC_sum_bn_resblk32_b"
  type: "Concat"
  bottom: "sum_bn_resblk32_b"
  bottom: "zeros_sum_bn_resblk32_b"
  top: "CC_sum_bn_resblk32_b"
  concat_param {
    axis: 1
  }
}
layer {
  name: "resblk32_1"
  type: "Convolution"
  bottom: "CC_sum_bn_resblk32_b"
  top: "resblk32_1"
  param {
    lr_mult: 1
    decay_mult: 1
  }
  param {
    lr_mult: 2
    decay_mult: 0
  }
  convolution_param {
    num_output: 32
    pad: 1
    kernel_size: 3
    stride: 1
    weight_filler {
      type: "msra"
    }
    bias_filler {
      type: "constant"
    }
  }
}
layer {
  name: "batchNorm_resblk32_1"
  type: "BatchNorm"
  bottom: "resblk32_1"
  top: "bn_resblk32_1"
  batch_norm_param {
    use_global_stats: false
    moving_average_fraction: 0.95
  }
}
layer {
  name: "scale_resblk32_1"
  type: "Scale"
  bottom: "bn_resblk32_1"
  top: "bn_resblk32_1"
  scale_param {
    bias_term: true
  }
}
layer {
  name: "relu_bn_resblk32_1"
  type: "ReLU"
  bottom: "bn_resblk32_1"
  top: "bn_resblk32_1"
}
layer {
  name: "resblk32_1_b"
  type: "Convolution"
  bottom: "bn_resblk32_1"
  top: "resblk32_1_b"
  param {
    lr_mult: 1
    decay_mult: 1
  }
  param {
    lr_mult: 2
    decay_mult: 0
  }
  convolution_param {
    num_output: 32
    pad: 1
    kernel_size: 3
    stride: 1
    weight_filler {
      type: "msra"
    }
    bias_filler {
      type: "constant"
    }
  }
}
layer {
  name: "batchNorm_resblk32_1_b"
  type: "BatchNorm"
  bottom: "resblk32_1_b"
  top: "bn_resblk32_1_b"
  batch_norm_param {
    use_global_stats: false
    moving_average_fraction: 0.95
  }
}
layer {
  name: "scale_resblk32_1_b"
  type: "Scale"
  bottom: "bn_resblk32_1_b"
  top: "bn_resblk32_1_b"
  scale_param {
    bias_term: true
  }
}
layer {
  name: "sum_CC_sum_bn_resblk32_b"
  type: "Eltwise"
  bottom: "CC_sum_bn_resblk32_b"
  bottom: "bn_resblk32_1_b"
  top: "sum_bn_resblk32_1_b"
  eltwise_param {
    operation: SUM
  }
}
layer {
  name: "relu_sum_bn_resblk32_1_b"
  type: "ReLU"
  bottom: "sum_bn_resblk32_1_b"
  top: "sum_bn_resblk32_1_b"
}
layer {
  name: "resblk32_2"
  type: "Convolution"
  bottom: "sum_bn_resblk32_1_b"
  top: "resblk32_2"
  param {
    lr_mult: 1
    decay_mult: 1
  }
  param {
    lr_mult: 2
    decay_mult: 0
  }
  convolution_param {
    num_output: 32
    pad: 1
    kernel_size: 3
    stride: 1
    weight_filler {
      type: "msra"
    }
    bias_filler {
      type: "constant"
    }
  }
}
layer {
  name: "batchNorm_resblk32_2"
  type: "BatchNorm"
  bottom: "resblk32_2"
  top: "bn_resblk32_2"
  batch_norm_param {
    use_global_stats: false
    moving_average_fraction: 0.95
  }
}
layer {
  name: "scale_resblk32_2"
  type: "Scale"
  bottom: "bn_resblk32_2"
  top: "bn_resblk32_2"
  scale_param {
    bias_term: true
  }
}
layer {
  name: "relu_bn_resblk32_2"
  type: "ReLU"
  bottom: "bn_resblk32_2"
  top: "bn_resblk32_2"
}
layer {
  name: "resblk32_2_b"
  type: "Convolution"
  bottom: "bn_resblk32_2"
  top: "resblk32_2_b"
  param {
    lr_mult: 1
    decay_mult: 1
  }
  param {
    lr_mult: 2
    decay_mult: 0
  }
  convolution_param {
    num_output: 32
    pad: 1
    kernel_size: 3
    stride: 1
    weight_filler {
      type: "msra"
    }
    bias_filler {
      type: "constant"
    }
  }
}
layer {
  name: "batchNorm_resblk32_2_b"
  type: "BatchNorm"
  bottom: "resblk32_2_b"
  top: "bn_resblk32_2_b"
  batch_norm_param {
    use_global_stats: false
    moving_average_fraction: 0.95
  }
}
layer {
  name: "scale_resblk32_2_b"
  type: "Scale"
  bottom: "bn_resblk32_2_b"
  top: "bn_resblk32_2_b"
  scale_param {
    bias_term: true
  }
}
layer {
  name: "sum_sum_bn_resblk32_1_b"
  type: "Eltwise"
  bottom: "sum_bn_resblk32_1_b"
  bottom: "bn_resblk32_2_b"
  top: "sum_bn_resblk32_2_b"
  eltwise_param {
    operation: SUM
  }
}
layer {
  name: "relu_sum_bn_resblk32_2_b"
  type: "ReLU"
  bottom: "sum_bn_resblk32_2_b"
  top: "sum_bn_resblk32_2_b"
}
layer {
  name: "resblk32_3"
  type: "Convolution"
  bottom: "sum_bn_resblk32_2_b"
  top: "resblk32_3"
  param {
    lr_mult: 1
    decay_mult: 1
  }
  param {
    lr_mult: 2
    decay_mult: 0
  }
  convolution_param {
    num_output: 32
    pad: 1
    kernel_size: 3
    stride: 1
    weight_filler {
      type: "msra"
    }
    bias_filler {
      type: "constant"
    }
  }
}
layer {
  name: "batchNorm_resblk32_3"
  type: "BatchNorm"
  bottom: "resblk32_3"
  top: "bn_resblk32_3"
  batch_norm_param {
    use_global_stats: false
    moving_average_fraction: 0.95
  }
}
layer {
  name: "scale_resblk32_3"
  type: "Scale"
  bottom: "bn_resblk32_3"
  top: "bn_resblk32_3"
  scale_param {
    bias_term: true
  }
}
layer {
  name: "relu_bn_resblk32_3"
  type: "ReLU"
  bottom: "bn_resblk32_3"
  top: "bn_resblk32_3"
}
layer {
  name: "resblk32_3_b"
  type: "Convolution"
  bottom: "bn_resblk32_3"
  top: "resblk32_3_b"
  param {
    lr_mult: 1
    decay_mult: 1
  }
  param {
    lr_mult: 2
    decay_mult: 0
  }
  convolution_param {
    num_output: 32
    pad: 1
    kernel_size: 3
    stride: 1
    weight_filler {
      type: "msra"
    }
    bias_filler {
      type: "constant"
    }
  }
}
layer {
  name: "batchNorm_resblk32_3_b"
  type: "BatchNorm"
  bottom: "resblk32_3_b"
  top: "bn_resblk32_3_b"
  batch_norm_param {
    use_global_stats: false
    moving_average_fraction: 0.95
  }
}
layer {
  name: "scale_resblk32_3_b"
  type: "Scale"
  bottom: "bn_resblk32_3_b"
  top: "bn_resblk32_3_b"
  scale_param {
    bias_term: true
  }
}
layer {
  name: "sum_sum_bn_resblk32_2_b"
  type: "Eltwise"
  bottom: "sum_bn_resblk32_2_b"
  bottom: "bn_resblk32_3_b"
  top: "sum_bn_resblk32_3_b"
  eltwise_param {
    operation: SUM
  }
}
layer {
  name: "relu_sum_bn_resblk32_3_b"
  type: "ReLU"
  bottom: "sum_bn_resblk32_3_b"
  top: "sum_bn_resblk32_3_b"
}
layer {
  name: "resblk32_4"
  type: "Convolution"
  bottom: "sum_bn_resblk32_3_b"
  top: "resblk32_4"
  param {
    lr_mult: 1
    decay_mult: 1
  }
  param {
    lr_mult: 2
    decay_mult: 0
  }
  convolution_param {
    num_output: 32
    pad: 1
    kernel_size: 3
    stride: 1
    weight_filler {
      type: "msra"
    }
    bias_filler {
      type: "constant"
    }
  }
}
layer {
  name: "batchNorm_resblk32_4"
  type: "BatchNorm"
  bottom: "resblk32_4"
  top: "bn_resblk32_4"
  batch_norm_param {
    use_global_stats: false
    moving_average_fraction: 0.95
  }
}
layer {
  name: "scale_resblk32_4"
  type: "Scale"
  bottom: "bn_resblk32_4"
  top: "bn_resblk32_4"
  scale_param {
    bias_term: true
  }
}
layer {
  name: "relu_bn_resblk32_4"
  type: "ReLU"
  bottom: "bn_resblk32_4"
  top: "bn_resblk32_4"
}
layer {
  name: "resblk32_4_b"
  type: "Convolution"
  bottom: "bn_resblk32_4"
  top: "resblk32_4_b"
  param {
    lr_mult: 1
    decay_mult: 1
  }
  param {
    lr_mult: 2
    decay_mult: 0
  }
  convolution_param {
    num_output: 32
    pad: 1
    kernel_size: 3
    stride: 1
    weight_filler {
      type: "msra"
    }
    bias_filler {
      type: "constant"
    }
  }
}
layer {
  name: "batchNorm_resblk32_4_b"
  type: "BatchNorm"
  bottom: "resblk32_4_b"
  top: "bn_resblk32_4_b"
  batch_norm_param {
    use_global_stats: false
    moving_average_fraction: 0.95
  }
}
layer {
  name: "scale_resblk32_4_b"
  type: "Scale"
  bottom: "bn_resblk32_4_b"
  top: "bn_resblk32_4_b"
  scale_param {
    bias_term: true
  }
}
layer {
  name: "sum_sum_bn_resblk32_3_b"
  type: "Eltwise"
  bottom: "sum_bn_resblk32_3_b"
  bottom: "bn_resblk32_4_b"
  top: "sum_bn_resblk32_4_b"
  eltwise_param {
    operation: SUM
  }
}
layer {
  name: "relu_sum_bn_resblk32_4_b"
  type: "ReLU"
  bottom: "sum_bn_resblk32_4_b"
  top: "sum_bn_resblk32_4_b"
}
layer {
  name: "resblk32_5"
  type: "Convolution"
  bottom: "sum_bn_resblk32_4_b"
  top: "resblk32_5"
  param {
    lr_mult: 1
    decay_mult: 1
  }
  param {
    lr_mult: 2
    decay_mult: 0
  }
  convolution_param {
    num_output: 32
    pad: 1
    kernel_size: 3
    stride: 1
    weight_filler {
      type: "msra"
    }
    bias_filler {
      type: "constant"
    }
  }
}
layer {
  name: "batchNorm_resblk32_5"
  type: "BatchNorm"
  bottom: "resblk32_5"
  top: "bn_resblk32_5"
  batch_norm_param {
    use_global_stats: false
    moving_average_fraction: 0.95
  }
}
layer {
  name: "scale_resblk32_5"
  type: "Scale"
  bottom: "bn_resblk32_5"
  top: "bn_resblk32_5"
  scale_param {
    bias_term: true
  }
}
layer {
  name: "relu_bn_resblk32_5"
  type: "ReLU"
  bottom: "bn_resblk32_5"
  top: "bn_resblk32_5"
}
layer {
  name: "resblk32_5_b"
  type: "Convolution"
  bottom: "bn_resblk32_5"
  top: "resblk32_5_b"
  param {
    lr_mult: 1
    decay_mult: 1
  }
  param {
    lr_mult: 2
    decay_mult: 0
  }
  convolution_param {
    num_output: 32
    pad: 1
    kernel_size: 3
    stride: 1
    weight_filler {
      type: "msra"
    }
    bias_filler {
      type: "constant"
    }
  }
}
layer {
  name: "batchNorm_resblk32_5_b"
  type: "BatchNorm"
  bottom: "resblk32_5_b"
  top: "bn_resblk32_5_b"
  batch_norm_param {
    use_global_stats: false
    moving_average_fraction: 0.95
  }
}
layer {
  name: "scale_resblk32_5_b"
  type: "Scale"
  bottom: "bn_resblk32_5_b"
  top: "bn_resblk32_5_b"
  scale_param {
    bias_term: true
  }
}
layer {
  name: "sum_sum_bn_resblk32_4_b"
  type: "Eltwise"
  bottom: "sum_bn_resblk32_4_b"
  bottom: "bn_resblk32_5_b"
  top: "sum_bn_resblk32_5_b"
  eltwise_param {
    operation: SUM
  }
}
layer {
  name: "relu_sum_bn_resblk32_5_b"
  type: "ReLU"
  bottom: "sum_bn_resblk32_5_b"
  top: "sum_bn_resblk32_5_b"
}
layer {
  name: "resblk32_6"
  type: "Convolution"
  bottom: "sum_bn_resblk32_5_b"
  top: "resblk32_6"
  param {
    lr_mult: 1
    decay_mult: 1
  }
  param {
    lr_mult: 2
    decay_mult: 0
  }
  convolution_param {
    num_output: 32
    pad: 1
    kernel_size: 3
    stride: 1
    weight_filler {
      type: "msra"
    }
    bias_filler {
      type: "constant"
    }
  }
}
layer {
  name: "batchNorm_resblk32_6"
  type: "BatchNorm"
  bottom: "resblk32_6"
  top: "bn_resblk32_6"
  batch_norm_param {
    use_global_stats: false
    moving_average_fraction: 0.95
  }
}
layer {
  name: "scale_resblk32_6"
  type: "Scale"
  bottom: "bn_resblk32_6"
  top: "bn_resblk32_6"
  scale_param {
    bias_term: true
  }
}
layer {
  name: "relu_bn_resblk32_6"
  type: "ReLU"
  bottom: "bn_resblk32_6"
  top: "bn_resblk32_6"
}
layer {
  name: "res
I0818 13:44:37.120782 22726 layer_factory.hpp:77] Creating layer dataLayer
I0818 13:44:37.121978 22726 net.cpp:100] Creating Layer dataLayer
I0818 13:44:37.122062 22726 net.cpp:408] dataLayer -> data
I0818 13:44:37.122258 22726 net.cpp:408] dataLayer -> label
I0818 13:44:37.122375 22726 data_transformer.cpp:25] Loading mean file from: examples/cifar10/mean.binaryproto
I0818 13:44:37.132936 22731 db_lmdb.cpp:35] Opened lmdb examples/cifar10/cifar10_train_lmdb
I0818 13:44:37.154294 22726 data_layer.cpp:41] output data size: 125,3,32,32
I0818 13:44:37.161983 22726 net.cpp:150] Setting up dataLayer
I0818 13:44:37.162046 22726 net.cpp:157] Top shape: 125 3 32 32 (384000)
I0818 13:44:37.162060 22726 net.cpp:157] Top shape: 125 (125)
I0818 13:44:37.162065 22726 net.cpp:165] Memory required for data: 1536500
I0818 13:44:37.162081 22726 layer_factory.hpp:77] Creating layer label_dataLayer_1_split
I0818 13:44:37.162094 22726 net.cpp:100] Creating Layer label_dataLayer_1_split
I0818 13:44:37.162102 22726 net.cpp:434] label_dataLayer_1_split <- label
I0818 13:44:37.162125 22726 net.cpp:408] label_dataLayer_1_split -> label_dataLayer_1_split_0
I0818 13:44:37.162140 22726 net.cpp:408] label_dataLayer_1_split -> label_dataLayer_1_split_1
I0818 13:44:37.162221 22726 net.cpp:150] Setting up label_dataLayer_1_split
I0818 13:44:37.162237 22726 net.cpp:157] Top shape: 125 (125)
I0818 13:44:37.162245 22726 net.cpp:157] Top shape: 125 (125)
I0818 13:44:37.162250 22726 net.cpp:165] Memory required for data: 1537500
I0818 13:44:37.162255 22726 layer_factory.hpp:77] Creating layer conv
I0818 13:44:37.162317 22726 net.cpp:100] Creating Layer conv
I0818 13:44:37.162329 22726 net.cpp:434] conv <- data
I0818 13:44:37.162339 22726 net.cpp:408] conv -> conv
I0818 13:44:37.164067 22726 net.cpp:150] Setting up conv
I0818 13:44:37.164088 22726 net.cpp:157] Top shape: 125 16 32 32 (2048000)
I0818 13:44:37.164093 22726 net.cpp:165] Memory required for data: 9729500
I0818 13:44:37.164146 22726 layer_factory.hpp:77] Creating layer batchNorm_conv
I0818 13:44:37.164224 22726 net.cpp:100] Creating Layer batchNorm_conv
I0818 13:44:37.164235 22726 net.cpp:434] batchNorm_conv <- conv
I0818 13:44:37.164248 22726 net.cpp:408] batchNorm_conv -> bn_conv
I0818 13:44:37.164582 22732 blocking_queue.cpp:50] Waiting for data
I0818 13:44:37.164721 22726 net.cpp:150] Setting up batchNorm_conv
I0818 13:44:37.164741 22726 net.cpp:157] Top shape: 125 16 32 32 (2048000)
I0818 13:44:37.164746 22726 net.cpp:165] Memory required for data: 17921500
I0818 13:44:37.164763 22726 layer_factory.hpp:77] Creating layer scale_conv
I0818 13:44:37.164815 22726 net.cpp:100] Creating Layer scale_conv
I0818 13:44:37.164825 22726 net.cpp:434] scale_conv <- bn_conv
I0818 13:44:37.164839 22726 net.cpp:395] scale_conv -> bn_conv (in-place)
I0818 13:44:37.165011 22726 layer_factory.hpp:77] Creating layer scale_conv
I0818 13:44:37.165266 22726 net.cpp:150] Setting up scale_conv
I0818 13:44:37.165284 22726 net.cpp:157] Top shape: 125 16 32 32 (2048000)
I0818 13:44:37.165290 22726 net.cpp:165] Memory required for data: 26113500
I0818 13:44:37.165300 22726 layer_factory.hpp:77] Creating layer relu_bn_conv
I0818 13:44:37.165343 22726 net.cpp:100] Creating Layer relu_bn_conv
I0818 13:44:37.165351 22726 net.cpp:434] relu_bn_conv <- bn_conv
I0818 13:44:37.165359 22726 net.cpp:395] relu_bn_conv -> bn_conv (in-place)
I0818 13:44:37.165369 22726 net.cpp:150] Setting up relu_bn_conv
I0818 13:44:37.165376 22726 net.cpp:157] Top shape: 125 16 32 32 (2048000)
I0818 13:44:37.165381 22726 net.cpp:165] Memory required for data: 34305500
I0818 13:44:37.165386 22726 layer_factory.hpp:77] Creating layer bn_conv_relu_bn_conv_0_split
I0818 13:44:37.165397 22726 net.cpp:100] Creating Layer bn_conv_relu_bn_conv_0_split
I0818 13:44:37.165402 22726 net.cpp:434] bn_conv_relu_bn_conv_0_split <- bn_conv
I0818 13:44:37.165410 22726 net.cpp:408] bn_conv_relu_bn_conv_0_split -> bn_conv_relu_bn_conv_0_split_0
I0818 13:44:37.165419 22726 net.cpp:408] bn_conv_relu_bn_conv_0_split -> bn_conv_relu_bn_conv_0_split_1
I0818 13:44:37.165478 22726 net.cpp:150] Setting up bn_conv_relu_bn_conv_0_split
I0818 13:44:37.165490 22726 net.cpp:157] Top shape: 125 16 32 32 (2048000)
I0818 13:44:37.165498 22726 net.cpp:157] Top shape: 125 16 32 32 (2048000)
I0818 13:44:37.165501 22726 net.cpp:165] Memory required for data: 50689500
I0818 13:44:37.165506 22726 layer_factory.hpp:77] Creating layer Conv16_1
I0818 13:44:37.165518 22726 net.cpp:100] Creating Layer Conv16_1
I0818 13:44:37.165524 22726 net.cpp:434] Conv16_1 <- bn_conv_relu_bn_conv_0_split_0
I0818 13:44:37.165536 22726 net.cpp:408] Conv16_1 -> Conv16_1
I0818 13:44:37.165866 22726 net.cpp:150] Setting up Conv16_1
I0818 13:44:37.165881 22726 net.cpp:157] Top shape: 125 16 32 32 (2048000)
I0818 13:44:37.165886 22726 net.cpp:165] Memory required for data: 58881500
I0818 13:44:37.165899 22726 layer_factory.hpp:77] Creating layer batchNorm_Conv16_1
I0818 13:44:37.165910 22726 net.cpp:100] Creating Layer batchNorm_Conv16_1
I0818 13:44:37.165915 22726 net.cpp:434] batchNorm_Conv16_1 <- Conv16_1
I0818 13:44:37.165926 22726 net.cpp:408] batchNorm_Conv16_1 -> bn_Conv16_1
I0818 13:44:37.166162 22726 net.cpp:150] Setting up batchNorm_Conv16_1
I0818 13:44:37.166174 22726 net.cpp:157] Top shape: 125 16 32 32 (2048000)
I0818 13:44:37.166188 22726 net.cpp:165] Memory required for data: 67073500
I0818 13:44:37.166198 22726 layer_factory.hpp:77] Creating layer scale_Conv16_1
I0818 13:44:37.166210 22726 net.cpp:100] Creating Layer scale_Conv16_1
I0818 13:44:37.166216 22726 net.cpp:434] scale_Conv16_1 <- bn_Conv16_1
I0818 13:44:37.166224 22726 net.cpp:395] scale_Conv16_1 -> bn_Conv16_1 (in-place)
I0818 13:44:37.166281 22726 layer_factory.hpp:77] Creating layer scale_Conv16_1
I0818 13:44:37.166420 22726 net.cpp:150] Setting up scale_Conv16_1
I0818 13:44:37.166434 22726 net.cpp:157] Top shape: 125 16 32 32 (2048000)
I0818 13:44:37.166438 22726 net.cpp:165] Memory required for data: 75265500
I0818 13:44:37.166446 22726 layer_factory.hpp:77] Creating layer relu_bn_Conv16_1
I0818 13:44:37.166457 22726 net.cpp:100] Creating Layer relu_bn_Conv16_1
I0818 13:44:37.166463 22726 net.cpp:434] relu_bn_Conv16_1 <- bn_Conv16_1
I0818 13:44:37.166471 22726 net.cpp:395] relu_bn_Conv16_1 -> bn_Conv16_1 (in-place)
I0818 13:44:37.166479 22726 net.cpp:150] Setting up relu_bn_Conv16_1
I0818 13:44:37.166486 22726 net.cpp:157] Top shape: 125 16 32 32 (2048000)
I0818 13:44:37.166491 22726 net.cpp:165] Memory required for data: 83457500
I0818 13:44:37.166496 22726 layer_factory.hpp:77] Creating layer Conv16_1_b
I0818 13:44:37.166512 22726 net.cpp:100] Creating Layer Conv16_1_b
I0818 13:44:37.166517 22726 net.cpp:434] Conv16_1_b <- bn_Conv16_1
I0818 13:44:37.166528 22726 net.cpp:408] Conv16_1_b -> Conv16_1_b
I0818 13:44:37.166843 22726 net.cpp:150] Setting up Conv16_1_b
I0818 13:44:37.166858 22726 net.cpp:157] Top shape: 125 16 32 32 (2048000)
I0818 13:44:37.166863 22726 net.cpp:165] Memory required for data: 91649500
I0818 13:44:37.166872 22726 layer_factory.hpp:77] Creating layer batchNorm_Conv16_1_b
I0818 13:44:37.166885 22726 net.cpp:100] Creating Layer batchNorm_Conv16_1_b
I0818 13:44:37.166891 22726 net.cpp:434] batchNorm_Conv16_1_b <- Conv16_1_b
I0818 13:44:37.166899 22726 net.cpp:408] batchNorm_Conv16_1_b -> bn_Conv16_1_b
I0818 13:44:37.167134 22726 net.cpp:150] Setting up batchNorm_Conv16_1_b
I0818 13:44:37.167146 22726 net.cpp:157] Top shape: 125 16 32 32 (2048000)
I0818 13:44:37.167151 22726 net.cpp:165] Memory required for data: 99841500
I0818 13:44:37.167170 22726 layer_factory.hpp:77] Creating layer scale_Conv16_1_b
I0818 13:44:37.167178 22726 net.cpp:100] Creating Layer scale_Conv16_1_b
I0818 13:44:37.167184 22726 net.cpp:434] scale_Conv16_1_b <- bn_Conv16_1_b
I0818 13:44:37.167194 22726 net.cpp:395] scale_Conv16_1_b -> bn_Conv16_1_b (in-place)
I0818 13:44:37.167258 22726 layer_factory.hpp:77] Creating layer scale_Conv16_1_b
I0818 13:44:37.167397 22726 net.cpp:150] Setting up scale_Conv16_1_b
I0818 13:44:37.167409 22726 net.cpp:157] Top shape: 125 16 32 32 (2048000)
I0818 13:44:37.167414 22726 net.cpp:165] Memory required for data: 108033500
I0818 13:44:37.167423 22726 layer_factory.hpp:77] Creating layer sum_bn_conv
I0818 13:44:37.167477 22726 net.cpp:100] Creating Layer sum_bn_conv
I0818 13:44:37.167487 22726 net.cpp:434] sum_bn_conv <- bn_conv_relu_bn_conv_0_split_1
I0818 13:44:37.167495 22726 net.cpp:434] sum_bn_conv <- bn_Conv16_1_b
I0818 13:44:37.167502 22726 net.cpp:408] sum_bn_conv -> sum_bn_Conv16_1_b
I0818 13:44:37.167575 22726 net.cpp:150] Setting up sum_bn_conv
I0818 13:44:37.167590 22726 net.cpp:157] Top shape: 125 16 32 32 (2048000)
I0818 13:44:37.167595 22726 net.cpp:165] Memory required for data: 116225500
I0818 13:44:37.167601 22726 layer_factory.hpp:77] Creating layer relu_sum_bn_Conv16_1_b
I0818 13:44:37.167609 22726 net.cpp:100] Creating Layer relu_sum_bn_Conv16_1_b
I0818 13:44:37.167614 22726 net.cpp:434] relu_sum_bn_Conv16_1_b <- sum_bn_Conv16_1_b
I0818 13:44:37.167625 22726 net.cpp:395] relu_sum_bn_Conv16_1_b -> sum_bn_Conv16_1_b (in-place)
I0818 13:44:37.167635 22726 net.cpp:150] Setting up relu_sum_bn_Conv16_1_b
I0818 13:44:37.167642 22726 net.cpp:157] Top shape: 125 16 32 32 (2048000)
I0818 13:44:37.167647 22726 net.cpp:165] Memory required for data: 124417500
I0818 13:44:37.167651 22726 layer_factory.hpp:77] Creating layer sum_bn_Conv16_1_b_relu_sum_bn_Conv16_1_b_0_split
I0818 13:44:37.167668 22726 net.cpp:100] Creating Layer sum_bn_Conv16_1_b_relu_sum_bn_Conv16_1_b_0_split
I0818 13:44:37.167675 22726 net.cpp:434] sum_bn_Conv16_1_b_relu_sum_bn_Conv16_1_b_0_split <- sum_bn_Conv16_1_b
I0818 13:44:37.167681 22726 net.cpp:408] sum_bn_Conv16_1_b_relu_sum_bn_Conv16_1_b_0_split -> sum_bn_Conv16_1_b_relu_sum_bn_Conv16_1_b_0_split_0
I0818 13:44:37.167690 22726 net.cpp:408] sum_bn_Conv16_1_b_relu_sum_bn_Conv16_1_b_0_split -> sum_bn_Conv16_1_b_relu_sum_bn_Conv16_1_b_0_split_1
I0818 13:44:37.167737 22726 net.cpp:150] Setting up sum_bn_Conv16_1_b_relu_sum_bn_Conv16_1_b_0_split
I0818 13:44:37.167748 22726 net.cpp:157] Top shape: 125 16 32 32 (2048000)
I0818 13:44:37.167755 22726 net.cpp:157] Top shape: 125 16 32 32 (2048000)
I0818 13:44:37.167759 22726 net.cpp:165] Memory required for data: 140801500
I0818 13:44:37.167764 22726 layer_factory.hpp:77] Creating layer Conv16_2
I0818 13:44:37.167778 22726 net.cpp:100] Creating Layer Conv16_2
I0818 13:44:37.167784 22726 net.cpp:434] Conv16_2 <- sum_bn_Conv16_1_b_relu_sum_bn_Conv16_1_b_0_split_0
I0818 13:44:37.167793 22726 net.cpp:408] Conv16_2 -> Conv16_2
I0818 13:44:37.168107 22726 net.cpp:150] Setting up Conv16_2
I0818 13:44:37.168120 22726 net.cpp:157] Top shape: 125 16 32 32 (2048000)
I0818 13:44:37.168125 22726 net.cpp:165] Memory required for data: 148993500
I0818 13:44:37.168134 22726 layer_factory.hpp:77] Creating layer batchNorm_Conv16_2
I0818 13:44:37.168148 22726 net.cpp:100] Creating Layer batchNorm_Conv16_2
I0818 13:44:37.168154 22726 net.cpp:434] batchNorm_Conv16_2 <- Conv16_2
I0818 13:44:37.168162 22726 net.cpp:408] batchNorm_Conv16_2 -> bn_Conv16_2
I0818 13:44:37.168403 22726 net.cpp:150] Setting up batchNorm_Conv16_2
I0818 13:44:37.168417 22726 net.cpp:157] Top shape: 125 16 32 32 (2048000)
I0818 13:44:37.168421 22726 net.cpp:165] Memory required for data: 157185500
I0818 13:44:37.168432 22726 layer_factory.hpp:77] Creating layer scale_Conv16_2
I0818 13:44:37.168442 22726 net.cpp:100] Creating Layer scale_Conv16_2
I0818 13:44:37.168447 22726 net.cpp:434] scale_Conv16_2 <- bn_Conv16_2
I0818 13:44:37.168454 22726 net.cpp:395] scale_Conv16_2 -> bn_Conv16_2 (in-place)
I0818 13:44:37.168509 22726 layer_factory.hpp:77] Creating layer scale_Conv16_2
I0818 13:44:37.168649 22726 net.cpp:150] Setting up scale_Conv16_2
I0818 13:44:37.168663 22726 net.cpp:157] Top shape: 125 16 32 32 (2048000)
I0818 13:44:37.168668 22726 net.cpp:165] Memory required for data: 165377500
I0818 13:44:37.168675 22726 layer_factory.hpp:77] Creating layer relu_bn_Conv16_2
I0818 13:44:37.168684 22726 net.cpp:100] Creating Layer relu_bn_Conv16_2
I0818 13:44:37.168689 22726 net.cpp:434] relu_bn_Conv16_2 <- bn_Conv16_2
I0818 13:44:37.168699 22726 net.cpp:395] relu_bn_Conv16_2 -> bn_Conv16_2 (in-place)
I0818 13:44:37.168709 22726 net.cpp:150] Setting up relu_bn_Conv16_2
I0818 13:44:37.168715 22726 net.cpp:157] Top shape: 125 16 32 32 (2048000)
I0818 13:44:37.168720 22726 net.cpp:165] Memory required for data: 173569500
I0818 13:44:37.168725 22726 layer_factory.hpp:77] Creating layer Conv16_2_b
I0818 13:44:37.168741 22726 net.cpp:100] Creating Layer Conv16_2_b
I0818 13:44:37.168747 22726 net.cpp:434] Conv16_2_b <- bn_Conv16_2
I0818 13:44:37.168756 22726 net.cpp:408] Conv16_2_b -> Conv16_2_b
I0818 13:44:37.169068 22726 net.cpp:150] Setting up Conv16_2_b
I0818 13:44:37.169082 22726 net.cpp:157] Top shape: 125 16 32 32 (2048000)
I0818 13:44:37.169087 22726 net.cpp:165] Memory required for data: 181761500
I0818 13:44:37.169096 22726 layer_factory.hpp:77] Creating layer batchNorm_Conv16_2_b
I0818 13:44:37.169104 22726 net.cpp:100] Creating Layer batchNorm_Conv16_2_b
I0818 13:44:37.169111 22726 net.cpp:434] batchNorm_Conv16_2_b <- Conv16_2_b
I0818 13:44:37.169121 22726 net.cpp:408] batchNorm_Conv16_2_b -> bn_Conv16_2_b
I0818 13:44:37.169358 22726 net.cpp:150] Setting up batchNorm_Conv16_2_b
I0818 13:44:37.169373 22726 net.cpp:157] Top shape: 125 16 32 32 (2048000)
I0818 13:44:37.169378 22726 net.cpp:165] Memory required for data: 189953500
I0818 13:44:37.169400 22726 layer_factory.hpp:77] Creating layer scale_Conv16_2_b
I0818 13:44:37.169409 22726 net.cpp:100] Creating Layer scale_Conv16_2_b
I0818 13:44:37.169415 22726 net.cpp:434] scale_Conv16_2_b <- bn_Conv16_2_b
I0818 13:44:37.169425 22726 net.cpp:395] scale_Conv16_2_b -> bn_Conv16_2_b (in-place)
I0818 13:44:37.169479 22726 layer_factory.hpp:77] Creating layer scale_Conv16_2_b
I0818 13:44:37.169618 22726 net.cpp:150] Setting up scale_Conv16_2_b
I0818 13:44:37.169633 22726 net.cpp:157] Top shape: 125 16 32 32 (2048000)
I0818 13:44:37.169638 22726 net.cpp:165] Memory required for data: 198145500
I0818 13:44:37.169647 22726 layer_factory.hpp:77] Creating layer sum_sum_bn_Conv16_1_b
I0818 13:44:37.169656 22726 net.cpp:100] Creating Layer sum_sum_bn_Conv16_1_b
I0818 13:44:37.169661 22726 net.cpp:434] sum_sum_bn_Conv16_1_b <- sum_bn_Conv16_1_b_relu_sum_bn_Conv16_1_b_0_split_1
I0818 13:44:37.169669 22726 net.cpp:434] sum_sum_bn_Conv16_1_b <- bn_Conv16_2_b
I0818 13:44:37.169677 22726 net.cpp:408] sum_sum_bn_Conv16_1_b -> sum_bn_Conv16_2_b
I0818 13:44:37.169710 22726 net.cpp:150] Setting up sum_sum_bn_Conv16_1_b
I0818 13:44:37.169719 22726 net.cpp:157] Top shape: 125 16 32 32 (2048000)
I0818 13:44:37.169724 22726 net.cpp:165] Memory required for data: 206337500
I0818 13:44:37.169729 22726 layer_factory.hpp:77] Creating layer relu_sum_bn_Conv16_2_b
I0818 13:44:37.169737 22726 net.cpp:100] Creating Layer relu_sum_bn_Conv16_2_b
I0818 13:44:37.169742 22726 net.cpp:434] relu_sum_bn_Conv16_2_b <- sum_bn_Conv16_2_b
I0818 13:44:37.169749 22726 net.cpp:395] relu_sum_bn_Conv16_2_b -> sum_bn_Conv16_2_b (in-place)
I0818 13:44:37.169757 22726 net.cpp:150] Setting up relu_sum_bn_Conv16_2_b
I0818 13:44:37.169764 22726 net.cpp:157] Top shape: 125 16 32 32 (2048000)
I0818 13:44:37.169770 22726 net.cpp:165] Memory required for data: 214529500
I0818 13:44:37.169773 22726 layer_factory.hpp:77] Creating layer sum_bn_Conv16_2_b_relu_sum_bn_Conv16_2_b_0_split
I0818 13:44:37.169780 22726 net.cpp:100] Creating Layer sum_bn_Conv16_2_b_relu_sum_bn_Conv16_2_b_0_split
I0818 13:44:37.169785 22726 net.cpp:434] sum_bn_Conv16_2_b_relu_sum_bn_Conv16_2_b_0_split <- sum_bn_Conv16_2_b
I0818 13:44:37.169795 22726 net.cpp:408] sum_bn_Conv16_2_b_relu_sum_bn_Conv16_2_b_0_split -> sum_bn_Conv16_2_b_relu_sum_bn_Conv16_2_b_0_split_0
I0818 13:44:37.169806 22726 net.cpp:408] sum_bn_Conv16_2_b_relu_sum_bn_Conv16_2_b_0_split -> sum_bn_Conv16_2_b_relu_sum_bn_Conv16_2_b_0_split_1
I0818 13:44:37.169853 22726 net.cpp:150] Setting up sum_bn_Conv16_2_b_relu_sum_bn_Conv16_2_b_0_split
I0818 13:44:37.169868 22726 net.cpp:157] Top shape: 125 16 32 32 (2048000)
I0818 13:44:37.169875 22726 net.cpp:157] Top shape: 125 16 32 32 (2048000)
I0818 13:44:37.169880 22726 net.cpp:165] Memory required for data: 230913500
I0818 13:44:37.169885 22726 layer_factory.hpp:77] Creating layer Conv16_3
I0818 13:44:37.169896 22726 net.cpp:100] Creating Layer Conv16_3
I0818 13:44:37.169903 22726 net.cpp:434] Conv16_3 <- sum_bn_Conv16_2_b_relu_sum_bn_Conv16_2_b_0_split_0
I0818 13:44:37.169911 22726 net.cpp:408] Conv16_3 -> Conv16_3
I0818 13:44:37.170218 22726 net.cpp:150] Setting up Conv16_3
I0818 13:44:37.170231 22726 net.cpp:157] Top shape: 125 16 32 32 (2048000)
I0818 13:44:37.170236 22726 net.cpp:165] Memory required for data: 239105500
I0818 13:44:37.170245 22726 layer_factory.hpp:77] Creating layer batchNorm_Conv16_3
I0818 13:44:37.170253 22726 net.cpp:100] Creating Layer batchNorm_Conv16_3
I0818 13:44:37.170262 22726 net.cpp:434] batchNorm_Conv16_3 <- Conv16_3
I0818 13:44:37.170271 22726 net.cpp:408] batchNorm_Conv16_3 -> bn_Conv16_3
I0818 13:44:37.170509 22726 net.cpp:150] Setting up batchNorm_Conv16_3
I0818 13:44:37.170521 22726 net.cpp:157] Top shape: 125 16 32 32 (2048000)
I0818 13:44:37.170526 22726 net.cpp:165] Memory required for data: 247297500
I0818 13:44:37.170537 22726 layer_factory.hpp:77] Creating layer scale_Conv16_3
I0818 13:44:37.170545 22726 net.cpp:100] Creating Layer scale_Conv16_3
I0818 13:44:37.170552 22726 net.cpp:434] scale_Conv16_3 <- bn_Conv16_3
I0818 13:44:37.170562 22726 net.cpp:395] scale_Conv16_3 -> bn_Conv16_3 (in-place)
I0818 13:44:37.170621 22726 layer_factory.hpp:77] Creating layer scale_Conv16_3
I0818 13:44:37.170759 22726 net.cpp:150] Setting up scale_Conv16_3
I0818 13:44:37.170774 22726 net.cpp:157] Top shape: 125 16 32 32 (2048000)
I0818 13:44:37.170779 22726 net.cpp:165] Memory required for data: 255489500
I0818 13:44:37.170789 22726 layer_factory.hpp:77] Creating layer relu_bn_Conv16_3
I0818 13:44:37.170796 22726 net.cpp:100] Creating Layer relu_bn_Conv16_3
I0818 13:44:37.170801 22726 net.cpp:434] relu_bn_Conv16_3 <- bn_Conv16_3
I0818 13:44:37.170815 22726 net.cpp:395] relu_bn_Conv16_3 -> bn_Conv16_3 (in-place)
I0818 13:44:37.170825 22726 net.cpp:150] Setting up relu_bn_Conv16_3
I0818 13:44:37.170832 22726 net.cpp:157] Top shape: 125 16 32 32 (2048000)
I0818 13:44:37.170837 22726 net.cpp:165] Memory required for data: 263681500
I0818 13:44:37.170841 22726 layer_factory.hpp:77] Creating layer Conv16_3_b
I0818 13:44:37.170855 22726 net.cpp:100] Creating Layer Conv16_3_b
I0818 13:44:37.170861 22726 net.cpp:434] Conv16_3_b <- bn_Conv16_3
I0818 13:44:37.170872 22726 net.cpp:408] Conv16_3_b -> Conv16_3_b
I0818 13:44:37.171180 22726 net.cpp:150] Setting up Conv16_3_b
I0818 13:44:37.171193 22726 net.cpp:157] Top shape: 125 16 32 32 (2048000)
I0818 13:44:37.171198 22726 net.cpp:165] Memory required for data: 271873500
I0818 13:44:37.171207 22726 layer_factory.hpp:77] Creating layer batchNorm_Conv16_3_b
I0818 13:44:37.171223 22726 net.cpp:100] Creating Layer batchNorm_Conv16_3_b
I0818 13:44:37.171229 22726 net.cpp:434] batchNorm_Conv16_3_b <- Conv16_3_b
I0818 13:44:37.171238 22726 net.cpp:408] batchNorm_Conv16_3_b -> bn_Conv16_3_b
I0818 13:44:37.171471 22726 net.cpp:150] Setting up batchNorm_Conv16_3_b
I0818 13:44:37.171483 22726 net.cpp:157] Top shape: 125 16 32 32 (2048000)
I0818 13:44:37.171489 22726 net.cpp:165] Memory required for data: 280065500
I0818 13:44:37.171499 22726 layer_factory.hpp:77] Creating layer scale_Conv16_3_b
I0818 13:44:37.171507 22726 net.cpp:100] Creating Layer scale_Conv16_3_b
I0818 13:44:37.171514 22726 net.cpp:434] scale_Conv16_3_b <- bn_Conv16_3_b
I0818 13:44:37.171524 22726 net.cpp:395] scale_Conv16_3_b -> bn_Conv16_3_b (in-place)
I0818 13:44:37.171576 22726 layer_factory.hpp:77] Creating layer scale_Conv16_3_b
I0818 13:44:37.171715 22726 net.cpp:150] Setting up scale_Conv16_3_b
I0818 13:44:37.171730 22726 net.cpp:157] Top shape: 125 16 32 32 (2048000)
I0818 13:44:37.171735 22726 net.cpp:165] Memory required for data: 288257500
I0818 13:44:37.171742 22726 layer_factory.hpp:77] Creating layer sum_sum_bn_Conv16_2_b
I0818 13:44:37.171751 22726 net.cpp:100] Creating Layer sum_sum_bn_Conv16_2_b
I0818 13:44:37.171757 22726 net.cpp:434] sum_sum_bn_Conv16_2_b <- sum_bn_Conv16_2_b_relu_sum_bn_Conv16_2_b_0_split_1
I0818 13:44:37.171764 22726 net.cpp:434] sum_sum_bn_Conv16_2_b <- bn_Conv16_3_b
I0818 13:44:37.171772 22726 net.cpp:408] sum_sum_bn_Conv16_2_b -> sum_bn_Conv16_3_b
I0818 13:44:37.171805 22726 net.cpp:150] Setting up sum_sum_bn_Conv16_2_b
I0818 13:44:37.171828 22726 net.cpp:157] Top shape: 125 16 32 32 (2048000)
I0818 13:44:37.171833 22726 net.cpp:165] Memory required for data: 296449500
I0818 13:44:37.171838 22726 layer_factory.hpp:77] Creating layer relu_sum_bn_Conv16_3_b
I0818 13:44:37.171849 22726 net.cpp:100] Creating Layer relu_sum_bn_Conv16_3_b
I0818 13:44:37.171855 22726 net.cpp:434] relu_sum_bn_Conv16_3_b <- sum_bn_Conv16_3_b
I0818 13:44:37.171862 22726 net.cpp:395] relu_sum_bn_Conv16_3_b -> sum_bn_Conv16_3_b (in-place)
I0818 13:44:37.171871 22726 net.cpp:150] Setting up relu_sum_bn_Conv16_3_b
I0818 13:44:37.171878 22726 net.cpp:157] Top shape: 125 16 32 32 (2048000)
I0818 13:44:37.171882 22726 net.cpp:165] Memory required for data: 304641500
I0818 13:44:37.171887 22726 layer_factory.hpp:77] Creating layer sum_bn_Conv16_3_b_relu_sum_bn_Conv16_3_b_0_split
I0818 13:44:37.171905 22726 net.cpp:100] Creating Layer sum_bn_Conv16_3_b_relu_sum_bn_Conv16_3_b_0_split
I0818 13:44:37.171911 22726 net.cpp:434] sum_bn_Conv16_3_b_relu_sum_bn_Conv16_3_b_0_split <- sum_bn_Conv16_3_b
I0818 13:44:37.171924 22726 net.cpp:408] sum_bn_Conv16_3_b_relu_sum_bn_Conv16_3_b_0_split -> sum_bn_Conv16_3_b_relu_sum_bn_Conv16_3_b_0_split_0
I0818 13:44:37.171933 22726 net.cpp:408] sum_bn_Conv16_3_b_relu_sum_bn_Conv16_3_b_0_split -> sum_bn_Conv16_3_b_relu_sum_bn_Conv16_3_b_0_split_1
I0818 13:44:37.171977 22726 net.cpp:150] Setting up sum_bn_Conv16_3_b_relu_sum_bn_Conv16_3_b_0_split
I0818 13:44:37.171995 22726 net.cpp:157] Top shape: 125 16 32 32 (2048000)
I0818 13:44:37.172003 22726 net.cpp:157] Top shape: 125 16 32 32 (2048000)
I0818 13:44:37.172008 22726 net.cpp:165] Memory required for data: 321025500
I0818 13:44:37.172013 22726 layer_factory.hpp:77] Creating layer Conv16_4
I0818 13:44:37.172022 22726 net.cpp:100] Creating Layer Conv16_4
I0818 13:44:37.172029 22726 net.cpp:434] Conv16_4 <- sum_bn_Conv16_3_b_relu_sum_bn_Conv16_3_b_0_split_0
I0818 13:44:37.172037 22726 net.cpp:408] Conv16_4 -> Conv16_4
I0818 13:44:37.172354 22726 net.cpp:150] Setting up Conv16_4
I0818 13:44:37.172369 22726 net.cpp:157] Top shape: 125 16 32 32 (2048000)
I0818 13:44:37.172374 22726 net.cpp:165] Memory required for data: 329217500
I0818 13:44:37.172382 22726 layer_factory.hpp:77] Creating layer batchNorm_Conv16_4
I0818 13:44:37.172394 22726 net.cpp:100] Creating Layer batchNorm_Conv16_4
I0818 13:44:37.172399 22726 net.cpp:434] batchNorm_Conv16_4 <- Conv16_4
I0818 13:44:37.172407 22726 net.cpp:408] batchNorm_Conv16_4 -> bn_Conv16_4
I0818 13:44:37.172643 22726 net.cpp:150] Setting up batchNorm_Conv16_4
I0818 13:44:37.172657 22726 net.cpp:157] Top shape: 125 16 32 32 (2048000)
I0818 13:44:37.172662 22726 net.cpp:165] Memory required for data: 337409500
I0818 13:44:37.172672 22726 layer_factory.hpp:77] Creating layer scale_Conv16_4
I0818 13:44:37.172679 22726 net.cpp:100] Creating Layer scale_Conv16_4
I0818 13:44:37.172685 22726 net.cpp:434] scale_Conv16_4 <- bn_Conv16_4
I0818 13:44:37.172696 22726 net.cpp:395] scale_Conv16_4 -> bn_Conv16_4 (in-place)
I0818 13:44:37.172749 22726 layer_factory.hpp:77] Creating layer scale_Conv16_4
I0818 13:44:37.172897 22726 net.cpp:150] Setting up scale_Conv16_4
I0818 13:44:37.172912 22726 net.cpp:157] Top shape: 125 16 32 32 (2048000)
I0818 13:44:37.172917 22726 net.cpp:165] Memory required for data: 345601500
I0818 13:44:37.172926 22726 layer_factory.hpp:77] Creating layer relu_bn_Conv16_4
I0818 13:44:37.172935 22726 net.cpp:100] Creating Layer relu_bn_Conv16_4
I0818 13:44:37.172940 22726 net.cpp:434] relu_bn_Conv16_4 <- bn_Conv16_4
I0818 13:44:37.172947 22726 net.cpp:395] relu_bn_Conv16_4 -> bn_Conv16_4 (in-place)
I0818 13:44:37.172956 22726 net.cpp:150] Setting up relu_bn_Conv16_4
I0818 13:44:37.172963 22726 net.cpp:157] Top shape: 125 16 32 32 (2048000)
I0818 13:44:37.172967 22726 net.cpp:165] Memory required for data: 353793500
I0818 13:44:37.172972 22726 layer_factory.hpp:77] Creating layer Conv16_4_b
I0818 13:44:37.172986 22726 net.cpp:100] Creating Layer Conv16_4_b
I0818 13:44:37.172991 22726 net.cpp:434] Conv16_4_b <- bn_Conv16_4
I0818 13:44:37.173003 22726 net.cpp:408] Conv16_4_b -> Conv16_4_b
I0818 13:44:37.173317 22726 net.cpp:150] Setting up Conv16_4_b
I0818 13:44:37.173331 22726 net.cpp:157] Top shape: 125 16 32 32 (2048000)
I0818 13:44:37.173336 22726 net.cpp:165] Memory required for data: 361985500
I0818 13:44:37.173344 22726 layer_factory.hpp:77] Creating layer batchNorm_Conv16_4_b
I0818 13:44:37.173355 22726 net.cpp:100] Creating Layer batchNorm_Conv16_4_b
I0818 13:44:37.173362 22726 net.cpp:434] batchNorm_Conv16_4_b <- Conv16_4_b
I0818 13:44:37.173372 22726 net.cpp:408] batchNorm_Conv16_4_b -> bn_Conv16_4_b
I0818 13:44:37.173610 22726 net.cpp:150] Setting up batchNorm_Conv16_4_b
I0818 13:44:37.173624 22726 net.cpp:157] Top shape: 125 16 32 32 (2048000)
I0818 13:44:37.173629 22726 net.cpp:165] Memory required for data: 370177500
I0818 13:44:37.173640 22726 layer_factory.hpp:77] Creating layer scale_Conv16_4_b
I0818 13:44:37.173647 22726 net.cpp:100] Creating Layer scale_Conv16_4_b
I0818 13:44:37.173653 22726 net.cpp:434] scale_Conv16_4_b <- bn_Conv16_4_b
I0818 13:44:37.173671 22726 net.cpp:395] scale_Conv16_4_b -> bn_Conv16_4_b (in-place)
I0818 13:44:37.173724 22726 layer_factory.hpp:77] Creating layer scale_Conv16_4_b
I0818 13:44:37.173872 22726 net.cpp:150] Setting up scale_Conv16_4_b
I0818 13:44:37.173887 22726 net.cpp:157] Top shape: 125 16 32 32 (2048000)
I0818 13:44:37.173892 22726 net.cpp:165] Memory required for data: 378369500
I0818 13:44:37.173900 22726 layer_factory.hpp:77] Creating layer sum_sum_bn_Conv16_3_b
I0818 13:44:37.173909 22726 net.cpp:100] Creating Layer sum_sum_bn_Conv16_3_b
I0818 13:44:37.173914 22726 net.cpp:434] sum_sum_bn_Conv16_3_b <- sum_bn_Conv16_3_b_relu_sum_bn_Conv16_3_b_0_split_1
I0818 13:44:37.173921 22726 net.cpp:434] sum_sum_bn_Conv16_3_b <- bn_Conv16_4_b
I0818 13:44:37.173933 22726 net.cpp:408] sum_sum_bn_Conv16_3_b -> sum_bn_Conv16_4_b
I0818 13:44:37.173964 22726 net.cpp:150] Setting up sum_sum_bn_Conv16_3_b
I0818 13:44:37.173976 22726 net.cpp:157] Top shape: 125 16 32 32 (2048000)
I0818 13:44:37.173981 22726 net.cpp:165] Memory required for data: 386561500
I0818 13:44:37.173986 22726 layer_factory.hpp:77] Creating layer relu_sum_bn_Conv16_4_b
I0818 13:44:37.173993 22726 net.cpp:100] Creating Layer relu_sum_bn_Conv16_4_b
I0818 13:44:37.174000 22726 net.cpp:434] relu_sum_bn_Conv16_4_b <- sum_bn_Conv16_4_b
I0818 13:44:37.174006 22726 net.cpp:395] relu_sum_bn_Conv16_4_b -> sum_bn_Conv16_4_b (in-place)
I0818 13:44:37.174015 22726 net.cpp:150] Setting up relu_sum_bn_Conv16_4_b
I0818 13:44:37.174021 22726 net.cpp:157] Top shape: 125 16 32 32 (2048000)
I0818 13:44:37.174026 22726 net.cpp:165] Memory required for data: 394753500
I0818 13:44:37.174031 22726 layer_factory.hpp:77] Creating layer sum_bn_Conv16_4_b_relu_sum_bn_Conv16_4_b_0_split
I0818 13:44:37.174042 22726 net.cpp:100] Creating Layer sum_bn_Conv16_4_b_relu_sum_bn_Conv16_4_b_0_split
I0818 13:44:37.174047 22726 net.cpp:434] sum_bn_Conv16_4_b_relu_sum_bn_Conv16_4_b_0_split <- sum_bn_Conv16_4_b
I0818 13:44:37.174054 22726 net.cpp:408] sum_bn_Conv16_4_b_relu_sum_bn_Conv16_4_b_0_split -> sum_bn_Conv16_4_b_relu_sum_bn_Conv16_4_b_0_split_0
I0818 13:44:37.174064 22726 net.cpp:408] sum_bn_Conv16_4_b_relu_sum_bn_Conv16_4_b_0_split -> sum_bn_Conv16_4_b_relu_sum_bn_Conv16_4_b_0_split_1
I0818 13:44:37.174105 22726 net.cpp:150] Setting up sum_bn_Conv16_4_b_relu_sum_bn_Conv16_4_b_0_split
I0818 13:44:37.174120 22726 net.cpp:157] Top shape: 125 16 32 32 (2048000)
I0818 13:44:37.174126 22726 net.cpp:157] Top shape: 125 16 32 32 (2048000)
I0818 13:44:37.174131 22726 net.cpp:165] Memory required for data: 411137500
I0818 13:44:37.174136 22726 layer_factory.hpp:77] Creating layer Conv16_5
I0818 13:44:37.174147 22726 net.cpp:100] Creating Layer Conv16_5
I0818 13:44:37.174152 22726 net.cpp:434] Conv16_5 <- sum_bn_Conv16_4_b_relu_sum_bn_Conv16_4_b_0_split_0
I0818 13:44:37.174161 22726 net.cpp:408] Conv16_5 -> Conv16_5
I0818 13:44:37.174474 22726 net.cpp:150] Setting up Conv16_5
I0818 13:44:37.174487 22726 net.cpp:157] Top shape: 125 16 32 32 (2048000)
I0818 13:44:37.174492 22726 net.cpp:165] Memory required for data: 419329500
I0818 13:44:37.174515 22726 layer_factory.hpp:77] Creating layer batchNorm_Conv16_5
I0818 13:44:37.174525 22726 net.cpp:100] Creating Layer batchNorm_Conv16_5
I0818 13:44:37.174531 22726 net.cpp:434] batchNorm_Conv16_5 <- Conv16_5
I0818 13:44:37.174540 22726 net.cpp:408] batchNorm_Conv16_5 -> bn_Conv16_5
I0818 13:44:37.174787 22726 net.cpp:150] Setting up batchNorm_Conv16_5
I0818 13:44:37.174799 22726 net.cpp:157] Top shape: 125 16 32 32 (2048000)
I0818 13:44:37.174804 22726 net.cpp:165] Memory required for data: 427521500
I0818 13:44:37.174821 22726 layer_factory.hpp:77] Creating layer scale_Conv16_5
I0818 13:44:37.174830 22726 net.cpp:100] Creating Layer scale_Conv16_5
I0818 13:44:37.174835 22726 net.cpp:434] scale_Conv16_5 <- bn_Conv16_5
I0818 13:44:37.174846 22726 net.cpp:395] scale_Conv16_5 -> bn_Conv16_5 (in-place)
I0818 13:44:37.174901 22726 layer_factory.hpp:77] Creating layer scale_Conv16_5
I0818 13:44:37.175040 22726 net.cpp:150] Setting up scale_Conv16_5
I0818 13:44:37.175055 22726 net.cpp:157] Top shape: 125 16 32 32 (2048000)
I0818 13:44:37.175066 22726 net.cpp:165] Memory required for data: 435713500
I0818 13:44:37.175076 22726 layer_factory.hpp:77] Creating layer relu_bn_Conv16_5
I0818 13:44:37.175083 22726 net.cpp:100] Creating Layer relu_bn_Conv16_5
I0818 13:44:37.175089 22726 net.cpp:434] relu_bn_Conv16_5 <- bn_Conv16_5
I0818 13:44:37.175096 22726 net.cpp:395] relu_bn_Conv16_5 -> bn_Conv16_5 (in-place)
I0818 13:44:37.175106 22726 net.cpp:150] Setting up relu_bn_Conv16_5
I0818 13:44:37.175112 22726 net.cpp:157] Top shape: 125 16 32 32 (2048000)
I0818 13:44:37.175117 22726 net.cpp:165] Memory required for data: 443905500
I0818 13:44:37.175122 22726 layer_factory.hpp:77] Creating layer Conv16_5_b
I0818 13:44:37.175135 22726 net.cpp:100] Creating Layer Conv16_5_b
I0818 13:44:37.175142 22726 net.cpp:434] Conv16_5_b <- bn_Conv16_5
I0818 13:44:37.175153 22726 net.cpp:408] Conv16_5_b -> Conv16_5_b
I0818 13:44:37.175465 22726 net.cpp:150] Setting up Conv16_5_b
I0818 13:44:37.175479 22726 net.cpp:157] Top shape: 125 16 32 32 (2048000)
I0818 13:44:37.175484 22726 net.cpp:165] Memory required for data: 452097500
I0818 13:44:37.175493 22726 layer_factory.hpp:77] Creating layer batchNorm_Conv16_5_b
I0818 13:44:37.175508 22726 net.cpp:100] Creating Layer batchNorm_Conv16_5_b
I0818 13:44:37.175514 22726 net.cpp:434] batchNorm_Conv16_5_b <- Conv16_5_b
I0818 13:44:37.175524 22726 net.cpp:408] batchNorm_Conv16_5_b -> bn_Conv16_5_b
I0818 13:44:37.175760 22726 net.cpp:150] Setting up batchNorm_Conv16_5_b
I0818 13:44:37.175772 22726 net.cpp:157] Top shape: 125 16 32 32 (2048000)
I0818 13:44:37.175777 22726 net.cpp:165] Memory required for data: 460289500
I0818 13:44:37.175788 22726 layer_factory.hpp:77] Creating layer scale_Conv16_5_b
I0818 13:44:37.175796 22726 net.cpp:100] Creating Layer scale_Conv16_5_b
I0818 13:44:37.175802 22726 net.cpp:434] scale_Conv16_5_b <- bn_Conv16_5_b
I0818 13:44:37.175815 22726 net.cpp:395] scale_Conv16_5_b -> bn_Conv16_5_b (in-place)
I0818 13:44:37.175873 22726 layer_factory.hpp:77] Creating layer scale_Conv16_5_b
I0818 13:44:37.176013 22726 net.cpp:150] Setting up scale_Conv16_5_b
I0818 13:44:37.176026 22726 net.cpp:157] Top shape: 125 16 32 32 (2048000)
I0818 13:44:37.176031 22726 net.cpp:165] Memory required for data: 468481500
I0818 13:44:37.176040 22726 layer_factory.hpp:77] Creating layer sum_sum_bn_Conv16_4_b
I0818 13:44:37.176054 22726 net.cpp:100] Creating Layer sum_sum_bn_Conv16_4_b
I0818 13:44:37.176060 22726 net.cpp:434] sum_sum_bn_Conv16_4_b <- sum_bn_Conv16_4_b_relu_sum_bn_Conv16_4_b_0_split_1
I0818 13:44:37.176067 22726 net.cpp:434] sum_sum_bn_Conv16_4_b <- bn_Conv16_5_b
I0818 13:44:37.176075 22726 net.cpp:408] sum_sum_bn_Conv16_4_b -> sum_bn_Conv16_5_b
I0818 13:44:37.176110 22726 net.cpp:150] Setting up sum_sum_bn_Conv16_4_b
I0818 13:44:37.176120 22726 net.cpp:157] Top shape: 125 16 32 32 (2048000)
I0818 13:44:37.176126 22726 net.cpp:165] Memory required for data: 476673500
I0818 13:44:37.176131 22726 layer_factory.hpp:77] Creating layer relu_sum_bn_Conv16_5_b
I0818 13:44:37.176138 22726 net.cpp:100] Creating Layer relu_sum_bn_Conv16_5_b
I0818 13:44:37.176143 22726 net.cpp:434] relu_sum_bn_Conv16_5_b <- sum_bn_Conv16_5_b
I0818 13:44:37.176153 22726 net.cpp:395] relu_sum_bn_Conv16_5_b -> sum_bn_Conv16_5_b (in-place)
I0818 13:44:37.176162 22726 net.cpp:150] Setting up relu_sum_bn_Conv16_5_b
I0818 13:44:37.176169 22726 net.cpp:157] Top shape: 125 16 32 32 (2048000)
I0818 13:44:37.176173 22726 net.cpp:165] Memory required for data: 484865500
I0818 13:44:37.176178 22726 layer_factory.hpp:77] Creating layer sum_bn_Conv16_5_b_relu_sum_bn_Conv16_5_b_0_split
I0818 13:44:37.176184 22726 net.cpp:100] Creating Layer sum_bn_Conv16_5_b_relu_sum_bn_Conv16_5_b_0_split
I0818 13:44:37.176190 22726 net.cpp:434] sum_bn_Conv16_5_b_relu_sum_bn_Conv16_5_b_0_split <- sum_bn_Conv16_5_b
I0818 13:44:37.176199 22726 net.cpp:408] sum_bn_Conv16_5_b_relu_sum_bn_Conv16_5_b_0_split -> sum_bn_Conv16_5_b_relu_sum_bn_Conv16_5_b_0_split_0
I0818 13:44:37.176209 22726 net.cpp:408] sum_bn_Conv16_5_b_relu_sum_bn_Conv16_5_b_0_split -> sum_bn_Conv16_5_b_relu_sum_bn_Conv16_5_b_0_split_1
I0818 13:44:37.176259 22726 net.cpp:150] Setting up sum_bn_Conv16_5_b_relu_sum_bn_Conv16_5_b_0_split
I0818 13:44:37.176270 22726 net.cpp:157] Top shape: 125 16 32 32 (2048000)
I0818 13:44:37.176275 22726 net.cpp:157] Top shape: 125 16 32 32 (2048000)
I0818 13:44:37.176280 22726 net.cpp:165] Memory required for data: 501249500
I0818 13:44:37.176285 22726 layer_factory.hpp:77] Creating layer Conv16_6
I0818 13:44:37.176300 22726 net.cpp:100] Creating Layer Conv16_6
I0818 13:44:37.176306 22726 net.cpp:434] Conv16_6 <- sum_bn_Conv16_5_b_relu_sum_bn_Conv16_5_b_0_split_0
I0818 13:44:37.176316 22726 net.cpp:408] Conv16_6 -> Conv16_6
I0818 13:44:37.176626 22726 net.cpp:150] Setting up Conv16_6
I0818 13:44:37.176640 22726 net.cpp:157] Top shape: 125 16 32 32 (2048000)
I0818 13:44:37.176645 22726 net.cpp:165] Memory required for data: 509441500
I0818 13:44:37.176653 22726 layer_factory.hpp:77] Creating layer batchNorm_Conv16_6
I0818 13:44:37.176664 22726 net.cpp:100] Creating Layer batchNorm_Conv16_6
I0818 13:44:37.176671 22726 net.cpp:434] batchNorm_Conv16_6 <- Conv16_6
I0818 13:44:37.176681 22726 net.cpp:408] batchNorm_Conv16_6 -> bn_Conv16_6
I0818 13:44:37.176928 22726 net.cpp:150] Setting up batchNorm_Conv16_6
I0818 13:44:37.176940 22726 net.cpp:157] Top shape: 125 16 32 32 (2048000)
I0818 13:44:37.176945 22726 net.cpp:165] Memory required for data: 517633500
I0818 13:44:37.176955 22726 layer_factory.hpp:77] Creating layer scale_Conv16_6
I0818 13:44:37.176964 22726 net.cpp:100] Creating Layer scale_Conv16_6
I0818 13:44:37.176970 22726 net.cpp:434] scale_Conv16_6 <- bn_Conv16_6
I0818 13:44:37.176977 22726 net.cpp:395] scale_Conv16_6 -> bn_Conv16_6 (in-place)
I0818 13:44:37.177032 22726 layer_factory.hpp:77] Creating layer scale_Conv16_6
I0818 13:44:37.177175 22726 net.cpp:150] Setting up scale_Conv16_6
I0818 13:44:37.177187 22726 net.cpp:157] Top shape: 125 16 32 32 (2048000)
I0818 13:44:37.177192 22726 net.cpp:165] Memory required for data: 525825500
I0818 13:44:37.177201 22726 layer_factory.hpp:77] Creating layer relu_bn_Conv16_6
I0818 13:44:37.177211 22726 net.cpp:100] Creating Layer relu_bn_Conv16_6
I0818 13:44:37.177217 22726 net.cpp:434] relu_bn_Conv16_6 <- bn_Conv16_6
I0818 13:44:37.177225 22726 net.cpp:395] relu_bn_Conv16_6 -> bn_Conv16_6 (in-place)
I0818 13:44:37.177234 22726 net.cpp:150] Setting up relu_bn_Conv16_6
I0818 13:44:37.177240 22726 net.cpp:157] Top shape: 125 16 32 32 (2048000)
I0818 13:44:37.177245 22726 net.cpp:165] Memory required for data: 534017500
I0818 13:44:37.177249 22726 layer_factory.hpp:77] Creating layer Conv16_6_b
I0818 13:44:37.177263 22726 net.cpp:100] Creating Layer Conv16_6_b
I0818 13:44:37.177269 22726 net.cpp:434] Conv16_6_b <- bn_Conv16_6
I0818 13:44:37.177280 22726 net.cpp:408] Conv16_6_b -> Conv16_6_b
I0818 13:44:37.177601 22726 net.cpp:150] Setting up Conv16_6_b
I0818 13:44:37.177614 22726 net.cpp:157] Top shape: 125 16 32 32 (2048000)
I0818 13:44:37.177619 22726 net.cpp:165] Memory required for data: 542209500
I0818 13:44:37.177628 22726 layer_factory.hpp:77] Creating layer batchNorm_Conv16_6_b
I0818 13:44:37.177639 22726 net.cpp:100] Creating Layer batchNorm_Conv16_6_b
I0818 13:44:37.177645 22726 net.cpp:434] batchNorm_Conv16_6_b <- Conv16_6_b
I0818 13:44:37.177654 22726 net.cpp:408] batchNorm_Conv16_6_b -> bn_Conv16_6_b
I0818 13:44:37.177902 22726 net.cpp:150] Setting up batchNorm_Conv16_6_b
I0818 13:44:37.177916 22726 net.cpp:157] Top shape: 125 16 32 32 (2048000)
I0818 13:44:37.177920 22726 net.cpp:165] Memory required for data: 550401500
I0818 13:44:37.177930 22726 layer_factory.hpp:77] Creating layer scale_Conv16_6_b
I0818 13:44:37.177939 22726 net.cpp:100] Creating Layer scale_Conv16_6_b
I0818 13:44:37.177945 22726 net.cpp:434] scale_Conv16_6_b <- bn_Conv16_6_b
I0818 13:44:37.177953 22726 net.cpp:395] scale_Conv16_6_b -> bn_Conv16_6_b (in-place)
I0818 13:44:37.178007 22726 layer_factory.hpp:77] Creating layer scale_Conv16_6_b
I0818 13:44:37.178149 22726 net.cpp:150] Setting up scale_Conv16_6_b
I0818 13:44:37.178169 22726 net.cpp:157] Top shape: 125 16 32 32 (2048000)
I0818 13:44:37.178174 22726 net.cpp:165] Memory required for data: 558593500
I0818 13:44:37.178182 22726 layer_factory.hpp:77] Creating layer sum_sum_bn_Conv16_5_b
I0818 13:44:37.178200 22726 net.cpp:100] Creating Layer sum_sum_bn_Conv16_5_b
I0818 13:44:37.178206 22726 net.cpp:434] sum_sum_bn_Conv16_5_b <- sum_bn_Conv16_5_b_relu_sum_bn_Conv16_5_b_0_split_1
I0818 13:44:37.178213 22726 net.cpp:434] sum_sum_bn_Conv16_5_b <- bn_Conv16_6_b
I0818 13:44:37.178223 22726 net.cpp:408] sum_sum_bn_Conv16_5_b -> sum_bn_Conv16_6_b
I0818 13:44:37.178256 22726 net.cpp:150] Setting up sum_sum_bn_Conv16_5_b
I0818 13:44:37.178267 22726 net.cpp:157] Top shape: 125 16 32 32 (2048000)
I0818 13:44:37.178272 22726 net.cpp:165] Memory required for data: 566785500
I0818 13:44:37.178277 22726 layer_factory.hpp:77] Creating layer relu_sum_bn_Conv16_6_b
I0818 13:44:37.178285 22726 net.cpp:100] Creating Layer relu_sum_bn_Conv16_6_b
I0818 13:44:37.178290 22726 net.cpp:434] relu_sum_bn_Conv16_6_b <- sum_bn_Conv16_6_b
I0818 13:44:37.178297 22726 net.cpp:395] relu_sum_bn_Conv16_6_b -> sum_bn_Conv16_6_b (in-place)
I0818 13:44:37.178306 22726 net.cpp:150] Setting up relu_sum_bn_Conv16_6_b
I0818 13:44:37.178313 22726 net.cpp:157] Top shape: 125 16 32 32 (2048000)
I0818 13:44:37.178318 22726 net.cpp:165] Memory required for data: 574977500
I0818 13:44:37.178323 22726 layer_factory.hpp:77] Creating layer sum_bn_Conv16_6_b_relu_sum_bn_Conv16_6_b_0_split
I0818 13:44:37.178333 22726 net.cpp:100] Creating Layer sum_bn_Conv16_6_b_relu_sum_bn_Conv16_6_b_0_split
I0818 13:44:37.178339 22726 net.cpp:434] sum_bn_Conv16_6_b_relu_sum_bn_Conv16_6_b_0_split <- sum_bn_Conv16_6_b
I0818 13:44:37.178345 22726 net.cpp:408] sum_bn_Conv16_6_b_relu_sum_bn_Conv16_6_b_0_split -> sum_bn_Conv16_6_b_relu_sum_bn_Conv16_6_b_0_split_0
I0818 13:44:37.178354 22726 net.cpp:408] sum_bn_Conv16_6_b_relu_sum_bn_Conv16_6_b_0_split -> sum_bn_Conv16_6_b_relu_sum_bn_Conv16_6_b_0_split_1
I0818 13:44:37.178397 22726 net.cpp:150] Setting up sum_bn_Conv16_6_b_relu_sum_bn_Conv16_6_b_0_split
I0818 13:44:37.178411 22726 net.cpp:157] Top shape: 125 16 32 32 (2048000)
I0818 13:44:37.178418 22726 net.cpp:157] Top shape: 125 16 32 32 (2048000)
I0818 13:44:37.178423 22726 net.cpp:165] Memory required for data: 591361500
I0818 13:44:37.178428 22726 layer_factory.hpp:77] Creating layer Conv16_7
I0818 13:44:37.178439 22726 net.cpp:100] Creating Layer Conv16_7
I0818 13:44:37.178445 22726 net.cpp:434] Conv16_7 <- sum_bn_Conv16_6_b_relu_sum_bn_Conv16_6_b_0_split_0
I0818 13:44:37.178454 22726 net.cpp:408] Conv16_7 -> Conv16_7
I0818 13:44:37.178768 22726 net.cpp:150] Setting up Conv16_7
I0818 13:44:37.178781 22726 net.cpp:157] Top shape: 125 16 32 32 (2048000)
I0818 13:44:37.178786 22726 net.cpp:165] Memory required for data: 599553500
I0818 13:44:37.178795 22726 layer_factory.hpp:77] Creating layer batchNorm_Conv16_7
I0818 13:44:37.178807 22726 net.cpp:100] Creating Layer batchNorm_Conv16_7
I0818 13:44:37.178818 22726 net.cpp:434] batchNorm_Conv16_7 <- Conv16_7
I0818 13:44:37.178828 22726 net.cpp:408] batchNorm_Conv16_7 -> bn_Conv16_7
I0818 13:44:37.179083 22726 net.cpp:150] Setting up batchNorm_Conv16_7
I0818 13:44:37.179096 22726 net.cpp:157] Top shape: 125 16 32 32 (2048000)
I0818 13:44:37.179101 22726 net.cpp:165] Memory required for data: 607745500
I0818 13:44:37.179111 22726 layer_factory.hpp:77] Creating layer scale_Conv16_7
I0818 13:44:37.179121 22726 net.cpp:100] Creating Layer scale_Conv16_7
I0818 13:44:37.179126 22726 net.cpp:434] scale_Conv16_7 <- bn_Conv16_7
I0818 13:44:37.179136 22726 net.cpp:395] scale_Conv16_7 -> bn_Conv16_7 (in-place)
I0818 13:44:37.179190 22726 layer_factory.hpp:77] Creating layer scale_Conv16_7
I0818 13:44:37.179332 22726 net.cpp:150] Setting up scale_Conv16_7
I0818 13:44:37.179345 22726 net.cpp:157] Top shape: 125 16 32 32 (2048000)
I0818 13:44:37.179349 22726 net.cpp:165] Memory required for data: 615937500
I0818 13:44:37.179358 22726 layer_factory.hpp:77] Creating layer relu_bn_Conv16_7
I0818 13:44:37.179368 22726 net.cpp:100] Creating Layer relu_bn_Conv16_7
I0818 13:44:37.179381 22726 net.cpp:434] relu_bn_Conv16_7 <- bn_Conv16_7
I0818 13:44:37.179389 22726 net.cpp:395] relu_bn_Conv16_7 -> bn_Conv16_7 (in-place)
I0818 13:44:37.179399 22726 net.cpp:150] Setting up relu_bn_Conv16_7
I0818 13:44:37.179405 22726 net.cpp:157] Top shape: 125 16 32 32 (2048000)
I0818 13:44:37.179409 22726 net.cpp:165] Memory required for data: 624129500
I0818 13:44:37.179414 22726 layer_factory.hpp:77] Creating layer Conv16_7_b
I0818 13:44:37.179428 22726 net.cpp:100] Creating Layer Conv16_7_b
I0818 13:44:37.179435 22726 net.cpp:434] Conv16_7_b <- bn_Conv16_7
I0818 13:44:37.179445 22726 net.cpp:408] Conv16_7_b -> Conv16_7_b
I0818 13:44:37.179761 22726 net.cpp:150] Setting up Conv16_7_b
I0818 13:44:37.179775 22726 net.cpp:157] Top shape: 125 16 32 32 (2048000)
I0818 13:44:37.179780 22726 net.cpp:165] Memory required for data: 632321500
I0818 13:44:37.179788 22726 layer_factory.hpp:77] Creating layer batchNorm_Conv16_7_b
I0818 13:44:37.179800 22726 net.cpp:100] Creating Layer batchNorm_Conv16_7_b
I0818 13:44:37.179806 22726 net.cpp:434] batchNorm_Conv16_7_b <- Conv16_7_b
I0818 13:44:37.179824 22726 net.cpp:408] batchNorm_Conv16_7_b -> bn_Conv16_7_b
I0818 13:44:37.180066 22726 net.cpp:150] Setting up batchNorm_Conv16_7_b
I0818 13:44:37.180079 22726 net.cpp:157] Top shape: 125 16 32 32 (2048000)
I0818 13:44:37.180083 22726 net.cpp:165] Memory required for data: 640513500
I0818 13:44:37.180094 22726 layer_factory.hpp:77] Creating layer scale_Conv16_7_b
I0818 13:44:37.180102 22726 net.cpp:100] Creating Layer scale_Conv16_7_b
I0818 13:44:37.180109 22726 net.cpp:434] scale_Conv16_7_b <- bn_Conv16_7_b
I0818 13:44:37.180116 22726 net.cpp:395] scale_Conv16_7_b -> bn_Conv16_7_b (in-place)
I0818 13:44:37.180171 22726 layer_factory.hpp:77] Creating layer scale_Conv16_7_b
I0818 13:44:37.180311 22726 net.cpp:150] Setting up scale_Conv16_7_b
I0818 13:44:37.180323 22726 net.cpp:157] Top shape: 125 16 32 32 (2048000)
I0818 13:44:37.180328 22726 net.cpp:165] Memory required for data: 648705500
I0818 13:44:37.180337 22726 layer_factory.hpp:77] Creating layer sum_sum_bn_Conv16_6_b
I0818 13:44:37.180349 22726 net.cpp:100] Creating Layer sum_sum_bn_Conv16_6_b
I0818 13:44:37.180356 22726 net.cpp:434] sum_sum_bn_Conv16_6_b <- sum_bn_Conv16_6_b_relu_sum_bn_Conv16_6_b_0_split_1
I0818 13:44:37.180363 22726 net.cpp:434] sum_sum_bn_Conv16_6_b <- bn_Conv16_7_b
I0818 13:44:37.180371 22726 net.cpp:408] sum_sum_bn_Conv16_6_b -> sum_bn_Conv16_7_b
I0818 13:44:37.180408 22726 net.cpp:150] Setting up sum_sum_bn_Conv16_6_b
I0818 13:44:37.180419 22726 net.cpp:157] Top shape: 125 16 32 32 (2048000)
I0818 13:44:37.180424 22726 net.cpp:165] Memory required for data: 656897500
I0818 13:44:37.180429 22726 layer_factory.hpp:77] Creating layer relu_sum_bn_Conv16_7_b
I0818 13:44:37.180438 22726 net.cpp:100] Creating Layer relu_sum_bn_Conv16_7_b
I0818 13:44:37.180443 22726 net.cpp:434] relu_sum_bn_Conv16_7_b <- sum_bn_Conv16_7_b
I0818 13:44:37.180452 22726 net.cpp:395] relu_sum_bn_Conv16_7_b -> sum_bn_Conv16_7_b (in-place)
I0818 13:44:37.180462 22726 net.cpp:150] Setting up relu_sum_bn_Conv16_7_b
I0818 13:44:37.180469 22726 net.cpp:157] Top shape: 125 16 32 32 (2048000)
I0818 13:44:37.180474 22726 net.cpp:165] Memory required for data: 665089500
I0818 13:44:37.180477 22726 layer_factory.hpp:77] Creating layer sum_bn_Conv16_7_b_relu_sum_bn_Conv16_7_b_0_split
I0818 13:44:37.180485 22726 net.cpp:100] Creating Layer sum_bn_Conv16_7_b_relu_sum_bn_Conv16_7_b_0_split
I0818 13:44:37.180490 22726 net.cpp:434] sum_bn_Conv16_7_b_relu_sum_bn_Conv16_7_b_0_split <- sum_bn_Conv16_7_b
I0818 13:44:37.180500 22726 net.cpp:408] sum_bn_Conv16_7_b_relu_sum_bn_Conv16_7_b_0_split -> sum_bn_Conv16_7_b_relu_sum_bn_Conv16_7_b_0_split_0
I0818 13:44:37.180510 22726 net.cpp:408] sum_bn_Conv16_7_b_relu_sum_bn_Conv16_7_b_0_split -> sum_bn_Conv16_7_b_relu_sum_bn_Conv16_7_b_0_split_1
I0818 13:44:37.180552 22726 net.cpp:150] Setting up sum_bn_Conv16_7_b_relu_sum_bn_Conv16_7_b_0_split
I0818 13:44:37.180563 22726 net.cpp:157] Top shape: 125 16 32 32 (2048000)
I0818 13:44:37.180577 22726 net.cpp:157] Top shape: 125 16 32 32 (2048000)
I0818 13:44:37.180582 22726 net.cpp:165] Memory required for data: 681473500
I0818 13:44:37.180586 22726 layer_factory.hpp:77] Creating layer Conv16_8
I0818 13:44:37.180600 22726 net.cpp:100] Creating Layer Conv16_8
I0818 13:44:37.180606 22726 net.cpp:434] Conv16_8 <- sum_bn_Conv16_7_b_relu_sum_bn_Conv16_7_b_0_split_0
I0818 13:44:37.180616 22726 net.cpp:408] Conv16_8 -> Conv16_8
I0818 13:44:37.180948 22726 net.cpp:150] Setting up Conv16_8
I0818 13:44:37.180963 22726 net.cpp:157] Top shape: 125 16 32 32 (2048000)
I0818 13:44:37.180968 22726 net.cpp:165] Memory required for data: 689665500
I0818 13:44:37.180976 22726 layer_factory.hpp:77] Creating layer batchNorm_Conv16_8
I0818 13:44:37.180985 22726 net.cpp:100] Creating Layer batchNorm_Conv16_8
I0818 13:44:37.180991 22726 net.cpp:434] batchNorm_Conv16_8 <- Conv16_8
I0818 13:44:37.181005 22726 net.cpp:408] batchNorm_Conv16_8 -> bn_Conv16_8
I0818 13:44:37.181249 22726 net.cpp:150] Setting up batchNorm_Conv16_8
I0818 13:44:37.181262 22726 net.cpp:157] Top shape: 125 16 32 32 (2048000)
I0818 13:44:37.181267 22726 net.cpp:165] Memory required for data: 697857500
I0818 13:44:37.181277 22726 layer_factory.hpp:77] Creating layer scale_Conv16_8
I0818 13:44:37.181287 22726 net.cpp:100] Creating Layer scale_Conv16_8
I0818 13:44:37.181291 22726 net.cpp:434] scale_Conv16_8 <- bn_Conv16_8
I0818 13:44:37.181303 22726 net.cpp:395] scale_Conv16_8 -> bn_Conv16_8 (in-place)
I0818 13:44:37.181355 22726 layer_factory.hpp:77] Creating layer scale_Conv16_8
I0818 13:44:37.181494 22726 net.cpp:150] Setting up scale_Conv16_8
I0818 13:44:37.181509 22726 net.cpp:157] Top shape: 125 16 32 32 (2048000)
I0818 13:44:37.181514 22726 net.cpp:165] Memory required for data: 706049500
I0818 13:44:37.181524 22726 layer_factory.hpp:77] Creating layer relu_bn_Conv16_8
I0818 13:44:37.181531 22726 net.cpp:100] Creating Layer relu_bn_Conv16_8
I0818 13:44:37.181537 22726 net.cpp:434] relu_bn_Conv16_8 <- bn_Conv16_8
I0818 13:44:37.181545 22726 net.cpp:395] relu_bn_Conv16_8 -> bn_Conv16_8 (in-place)
I0818 13:44:37.181553 22726 net.cpp:150] Setting up relu_bn_Conv16_8
I0818 13:44:37.181560 22726 net.cpp:157] Top shape: 125 16 32 32 (2048000)
I0818 13:44:37.181565 22726 net.cpp:165] Memory required for data: 714241500
I0818 13:44:37.181569 22726 layer_factory.hpp:77] Creating layer Conv16_8_b
I0818 13:44:37.181584 22726 net.cpp:100] Creating Layer Conv16_8_b
I0818 13:44:37.181591 22726 net.cpp:434] Conv16_8_b <- bn_Conv16_8
I0818 13:44:37.181602 22726 net.cpp:408] Conv16_8_b -> Conv16_8_b
I0818 13:44:37.181929 22726 net.cpp:150] Setting up Conv16_8_b
I0818 13:44:37.181943 22726 net.cpp:157] Top shape: 125 16 32 32 (2048000)
I0818 13:44:37.181948 22726 net.cpp:165] Memory required for data: 722433500
I0818 13:44:37.181957 22726 layer_factory.hpp:77] Creating layer batchNorm_Conv16_8_b
I0818 13:44:37.181968 22726 net.cpp:100] Creating Layer batchNorm_Conv16_8_b
I0818 13:44:37.181974 22726 net.cpp:434] batchNorm_Conv16_8_b <- Conv16_8_b
I0818 13:44:37.181983 22726 net.cpp:408] batchNorm_Conv16_8_b -> bn_Conv16_8_b
I0818 13:44:37.182268 22726 net.cpp:150] Setting up batchNorm_Conv16_8_b
I0818 13:44:37.182282 22726 net.cpp:157] Top shape: 125 16 32 32 (2048000)
I0818 13:44:37.182287 22726 net.cpp:165] Memory required for data: 730625500
I0818 13:44:37.182297 22726 layer_factory.hpp:77] Creating layer scale_Conv16_8_b
I0818 13:44:37.182307 22726 net.cpp:100] Creating Layer scale_Conv16_8_b
I0818 13:44:37.182312 22726 net.cpp:434] scale_Conv16_8_b <- bn_Conv16_8_b
I0818 13:44:37.182319 22726 net.cpp:395] scale_Conv16_8_b -> bn_Conv16_8_b (in-place)
I0818 13:44:37.182382 22726 layer_factory.hpp:77] Creating layer scale_Conv16_8_b
I0818 13:44:37.182524 22726 net.cpp:150] Setting up scale_Conv16_8_b
I0818 13:44:37.182538 22726 net.cpp:157] Top shape: 125 16 32 32 (2048000)
I0818 13:44:37.182543 22726 net.cpp:165] Memory required for data: 738817500
I0818 13:44:37.182551 22726 layer_factory.hpp:77] Creating layer sum_sum_bn_Conv16_7_b
I0818 13:44:37.182567 22726 net.cpp:100] Creating Layer sum_sum_bn_Conv16_7_b
I0818 13:44:37.182576 22726 net.cpp:434] sum_sum_bn_Conv16_7_b <- sum_bn_Conv16_7_b_relu_sum_bn_Conv16_7_b_0_split_1
I0818 13:44:37.182585 22726 net.cpp:434] sum_sum_bn_Conv16_7_b <- bn_Conv16_8_b
I0818 13:44:37.182591 22726 net.cpp:408] sum_sum_bn_Conv16_7_b -> sum_bn_Conv16_8_b
I0818 13:44:37.182624 22726 net.cpp:150] Setting up sum_sum_bn_Conv16_7_b
I0818 13:44:37.182636 22726 net.cpp:157] Top shape: 125 16 32 32 (2048000)
I0818 13:44:37.182641 22726 net.cpp:165] Memory required for data: 747009500
I0818 13:44:37.182646 22726 layer_factory.hpp:77] Creating layer relu_sum_bn_Conv16_8_b
I0818 13:44:37.182657 22726 net.cpp:100] Creating Layer relu_sum_bn_Conv16_8_b
I0818 13:44:37.182662 22726 net.cpp:434] relu_sum_bn_Conv16_8_b <- sum_bn_Conv16_8_b
I0818 13:44:37.182672 22726 net.cpp:395] relu_sum_bn_Conv16_8_b -> sum_bn_Conv16_8_b (in-place)
I0818 13:44:37.182682 22726 net.cpp:150] Setting up relu_sum_bn_Conv16_8_b
I0818 13:44:37.182688 22726 net.cpp:157] Top shape: 125 16 32 32 (2048000)
I0818 13:44:37.182693 22726 net.cpp:165] Memory required for data: 755201500
I0818 13:44:37.182698 22726 layer_factory.hpp:77] Creating layer sum_bn_Conv16_8_b_relu_sum_bn_Conv16_8_b_0_split
I0818 13:44:37.182704 22726 net.cpp:100] Creating Layer sum_bn_Conv16_8_b_relu_sum_bn_Conv16_8_b_0_split
I0818 13:44:37.182709 22726 net.cpp:434] sum_bn_Conv16_8_b_relu_sum_bn_Conv16_8_b_0_split <- sum_bn_Conv16_8_b
I0818 13:44:37.182716 22726 net.cpp:408] sum_bn_Conv16_8_b_relu_sum_bn_Conv16_8_b_0_split -> sum_bn_Conv16_8_b_relu_sum_bn_Conv16_8_b_0_split_0
I0818 13:44:37.182725 22726 net.cpp:408] sum_bn_Conv16_8_b_relu_sum_bn_Conv16_8_b_0_split -> sum_bn_Conv16_8_b_relu_sum_bn_Conv16_8_b_0_split_1
I0818 13:44:37.182773 22726 net.cpp:150] Setting up sum_bn_Conv16_8_b_relu_sum_bn_Conv16_8_b_0_split
I0818 13:44:37.182785 22726 net.cpp:157] Top shape: 125 16 32 32 (2048000)
I0818 13:44:37.182790 22726 net.cpp:157] Top shape: 125 16 32 32 (2048000)
I0818 13:44:37.182796 22726 net.cpp:165] Memory required for data: 771585500
I0818 13:44:37.182801 22726 layer_factory.hpp:77] Creating layer Conv16_9
I0818 13:44:37.182821 22726 net.cpp:100] Creating Layer Conv16_9
I0818 13:44:37.182827 22726 net.cpp:434] Conv16_9 <- sum_bn_Conv16_8_b_relu_sum_bn_Conv16_8_b_0_split_0
I0818 13:44:37.182837 22726 net.cpp:408] Conv16_9 -> Conv16_9
I0818 13:44:37.183164 22726 net.cpp:150] Setting up Conv16_9
I0818 13:44:37.183182 22726 net.cpp:157] Top shape: 125 16 32 32 (2048000)
I0818 13:44:37.183187 22726 net.cpp:165] Memory required for data: 779777500
I0818 13:44:37.183195 22726 layer_factory.hpp:77] Creating layer batchNorm_Conv16_9
I0818 13:44:37.183205 22726 net.cpp:100] Creating Layer batchNorm_Conv16_9
I0818 13:44:37.183210 22726 net.cpp:434] batchNorm_Conv16_9 <- Conv16_9
I0818 13:44:37.183219 22726 net.cpp:408] batchNorm_Conv16_9 -> bn_Conv16_9
I0818 13:44:37.183465 22726 net.cpp:150] Setting up batchNorm_Conv16_9
I0818 13:44:37.183478 22726 net.cpp:157] Top shape: 125 16 32 32 (2048000)
I0818 13:44:37.183482 22726 net.cpp:165] Memory required for data: 787969500
I0818 13:44:37.183493 22726 layer_factory.hpp:77] Creating layer scale_Conv16_9
I0818 13:44:37.183507 22726 net.cpp:100] Creating Layer scale_Conv16_9
I0818 13:44:37.183513 22726 net.cpp:434] scale_Conv16_9 <- bn_Conv16_9
I0818 13:44:37.183521 22726 net.cpp:395] scale_Conv16_9 -> bn_Conv16_9 (in-place)
I0818 13:44:37.183576 22726 layer_factory.hpp:77] Creating layer scale_Conv16_9
I0818 13:44:37.183722 22726 net.cpp:150] Setting up scale_Conv16_9
I0818 13:44:37.183734 22726 net.cpp:157] Top shape: 125 16 32 32 (2048000)
I0818 13:44:37.183739 22726 net.cpp:165] Memory required for data: 796161500
I0818 13:44:37.183748 22726 layer_factory.hpp:77] Creating layer relu_bn_Conv16_9
I0818 13:44:37.183756 22726 net.cpp:100] Creating Layer relu_bn_Conv16_9
I0818 13:44:37.183761 22726 net.cpp:434] relu_bn_Conv16_9 <- bn_Conv16_9
I0818 13:44:37.183773 22726 net.cpp:395] relu_bn_Conv16_9 -> bn_Conv16_9 (in-place)
I0818 13:44:37.183781 22726 net.cpp:150] Setting up relu_bn_Conv16_9
I0818 13:44:37.183794 22726 net.cpp:157] Top shape: 125 16 32 32 (2048000)
I0818 13:44:37.183799 22726 net.cpp:165] Memory required for data: 804353500
I0818 13:44:37.183804 22726 layer_factory.hpp:77] Creating layer Conv16_9_b
I0818 13:44:37.183825 22726 net.cpp:100] Creating Layer Conv16_9_b
I0818 13:44:37.183831 22726 net.cpp:434] Conv16_9_b <- bn_Conv16_9
I0818 13:44:37.183840 22726 net.cpp:408] Conv16_9_b -> Conv16_9_b
I0818 13:44:37.184165 22726 net.cpp:150] Setting up Conv16_9_b
I0818 13:44:37.184178 22726 net.cpp:157] Top shape: 125 16 32 32 (2048000)
I0818 13:44:37.184182 22726 net.cpp:165] Memory required for data: 812545500
I0818 13:44:37.184191 22726 layer_factory.hpp:77] Creating layer batchNorm_Conv16_9_b
I0818 13:44:37.184202 22726 net.cpp:100] Creating Layer batchNorm_Conv16_9_b
I0818 13:44:37.184208 22726 net.cpp:434] batchNorm_Conv16_9_b <- Conv16_9_b
I0818 13:44:37.184217 22726 net.cpp:408] batchNorm_Conv16_9_b -> bn_Conv16_9_b
I0818 13:44:37.184460 22726 net.cpp:150] Setting up batchNorm_Conv16_9_b
I0818 13:44:37.184473 22726 net.cpp:157] Top shape: 125 16 32 32 (2048000)
I0818 13:44:37.184478 22726 net.cpp:165] Memory required for data: 820737500
I0818 13:44:37.184509 22726 layer_factory.hpp:77] Creating layer scale_Conv16_9_b
I0818 13:44:37.184521 22726 net.cpp:100] Creating Layer scale_Conv16_9_b
I0818 13:44:37.184527 22726 net.cpp:434] scale_Conv16_9_b <- bn_Conv16_9_b
I0818 13:44:37.184535 22726 net.cpp:395] scale_Conv16_9_b -> bn_Conv16_9_b (in-place)
I0818 13:44:37.184592 22726 layer_factory.hpp:77] Creating layer scale_Conv16_9_b
I0818 13:44:37.184732 22726 net.cpp:150] Setting up scale_Conv16_9_b
I0818 13:44:37.184746 22726 net.cpp:157] Top shape: 125 16 32 32 (2048000)
I0818 13:44:37.184751 22726 net.cpp:165] Memory required for data: 828929500
I0818 13:44:37.184758 22726 layer_factory.hpp:77] Creating layer sum_sum_bn_Conv16_8_b
I0818 13:44:37.184767 22726 net.cpp:100] Creating Layer sum_sum_bn_Conv16_8_b
I0818 13:44:37.184774 22726 net.cpp:434] sum_sum_bn_Conv16_8_b <- sum_bn_Conv16_8_b_relu_sum_bn_Conv16_8_b_0_split_1
I0818 13:44:37.184782 22726 net.cpp:434] sum_sum_bn_Conv16_8_b <- bn_Conv16_9_b
I0818 13:44:37.184788 22726 net.cpp:408] sum_sum_bn_Conv16_8_b -> sum_bn_Conv16_9_b
I0818 13:44:37.184834 22726 net.cpp:150] Setting up sum_sum_bn_Conv16_8_b
I0818 13:44:37.184845 22726 net.cpp:157] Top shape: 125 16 32 32 (2048000)
I0818 13:44:37.184850 22726 net.cpp:165] Memory required for data: 837121500
I0818 13:44:37.184855 22726 layer_factory.hpp:77] Creating layer relu_sum_bn_Conv16_9_b
I0818 13:44:37.184864 22726 net.cpp:100] Creating Layer relu_sum_bn_Conv16_9_b
I0818 13:44:37.184869 22726 net.cpp:434] relu_sum_bn_Conv16_9_b <- sum_bn_Conv16_9_b
I0818 13:44:37.184878 22726 net.cpp:395] relu_sum_bn_Conv16_9_b -> sum_bn_Conv16_9_b (in-place)
I0818 13:44:37.184888 22726 net.cpp:150] Setting up relu_sum_bn_Conv16_9_b
I0818 13:44:37.184895 22726 net.cpp:157] Top shape: 125 16 32 32 (2048000)
I0818 13:44:37.184900 22726 net.cpp:165] Memory required for data: 845313500
I0818 13:44:37.184906 22726 layer_factory.hpp:77] Creating layer sum_bn_Conv16_9_b_relu_sum_bn_Conv16_9_b_0_split
I0818 13:44:37.184911 22726 net.cpp:100] Creating Layer sum_bn_Conv16_9_b_relu_sum_bn_Conv16_9_b_0_split
I0818 13:44:37.184916 22726 net.cpp:434] sum_bn_Conv16_9_b_relu_sum_bn_Conv16_9_b_0_split <- sum_bn_Conv16_9_b
I0818 13:44:37.184926 22726 net.cpp:408] sum_bn_Conv16_9_b_relu_sum_bn_Conv16_9_b_0_split -> sum_bn_Conv16_9_b_relu_sum_bn_Conv16_9_b_0_split_0
I0818 13:44:37.184937 22726 net.cpp:408] sum_bn_Conv16_9_b_relu_sum_bn_Conv16_9_b_0_split -> sum_bn_Conv16_9_b_relu_sum_bn_Conv16_9_b_0_split_1
I0818 13:44:37.184980 22726 net.cpp:150] Setting up sum_bn_Conv16_9_b_relu_sum_bn_Conv16_9_b_0_split
I0818 13:44:37.184991 22726 net.cpp:157] Top shape: 125 16 32 32 (2048000)
I0818 13:44:37.184998 22726 net.cpp:157] Top shape: 125 16 32 32 (2048000)
I0818 13:44:37.185003 22726 net.cpp:165] Memory required for data: 861697500
I0818 13:44:37.185008 22726 layer_factory.hpp:77] Creating layer resblk32
I0818 13:44:37.185029 22726 net.cpp:100] Creating Layer resblk32
I0818 13:44:37.185036 22726 net.cpp:434] resblk32 <- sum_bn_Conv16_9_b_relu_sum_bn_Conv16_9_b_0_split_0
I0818 13:44:37.185045 22726 net.cpp:408] resblk32 -> resblk32
I0818 13:44:37.185369 22726 net.cpp:150] Setting up resblk32
I0818 13:44:37.185382 22726 net.cpp:157] Top shape: 125 16 16 16 (512000)
I0818 13:44:37.185387 22726 net.cpp:165] Memory required for data: 863745500
I0818 13:44:37.185395 22726 layer_factory.hpp:77] Creating layer batchNorm_resblk32
I0818 13:44:37.185405 22726 net.cpp:100] Creating Layer batchNorm_resblk32
I0818 13:44:37.185413 22726 net.cpp:434] batchNorm_resblk32 <- resblk32
I0818 13:44:37.185421 22726 net.cpp:408] batchNorm_resblk32 -> bn_resblk32
I0818 13:44:37.185657 22726 net.cpp:150] Setting up batchNorm_resblk32
I0818 13:44:37.185669 22726 net.cpp:157] Top shape: 125 16 16 16 (512000)
I0818 13:44:37.185674 22726 net.cpp:165] Memory required for data: 865793500
I0818 13:44:37.185684 22726 layer_factory.hpp:77] Creating layer scale_resblk32
I0818 13:44:37.185693 22726 net.cpp:100] Creating Layer scale_resblk32
I0818 13:44:37.185698 22726 net.cpp:434] scale_resblk32 <- bn_resblk32
I0818 13:44:37.185706 22726 net.cpp:395] scale_resblk32 -> bn_resblk32 (in-place)
I0818 13:44:37.185763 22726 layer_factory.hpp:77] Creating layer scale_resblk32
I0818 13:44:37.185912 22726 net.cpp:150] Setting up scale_resblk32
I0818 13:44:37.185928 22726 net.cpp:157] Top shape: 125 16 16 16 (512000)
I0818 13:44:37.185933 22726 net.cpp:165] Memory required for data: 867841500
I0818 13:44:37.185942 22726 layer_factory.hpp:77] Creating layer relu_bn_resblk32
I0818 13:44:37.185950 22726 net.cpp:100] Creating Layer relu_bn_resblk32
I0818 13:44:37.185956 22726 net.cpp:434] relu_bn_resblk32 <- bn_resblk32
I0818 13:44:37.185963 22726 net.cpp:395] relu_bn_resblk32 -> bn_resblk32 (in-place)
I0818 13:44:37.185972 22726 net.cpp:150] Setting up relu_bn_resblk32
I0818 13:44:37.185978 22726 net.cpp:157] Top shape: 125 16 16 16 (512000)
I0818 13:44:37.185983 22726 net.cpp:165] Memory required for data: 869889500
I0818 13:44:37.185987 22726 layer_factory.hpp:77] Creating layer resblk32_b
I0818 13:44:37.186002 22726 net.cpp:100] Creating Layer resblk32_b
I0818 13:44:37.186007 22726 net.cpp:434] resblk32_b <- bn_resblk32
I0818 13:44:37.186017 22726 net.cpp:408] resblk32_b -> resblk32_b
I0818 13:44:37.186341 22726 net.cpp:150] Setting up resblk32_b
I0818 13:44:37.186354 22726 net.cpp:157] Top shape: 125 16 16 16 (512000)
I0818 13:44:37.186358 22726 net.cpp:165] Memory required for data: 871937500
I0818 13:44:37.186367 22726 layer_factory.hpp:77] Creating layer batchNorm_resblk32_b
I0818 13:44:37.186379 22726 net.cpp:100] Creating Layer batchNorm_resblk32_b
I0818 13:44:37.186385 22726 net.cpp:434] batchNorm_resblk32_b <- resblk32_b
I0818 13:44:37.186399 22726 net.cpp:408] batchNorm_resblk32_b -> bn_resblk32_b
I0818 13:44:37.186643 22726 net.cpp:150] Setting up batchNorm_resblk32_b
I0818 13:44:37.186656 22726 net.cpp:157] Top shape: 125 16 16 16 (512000)
I0818 13:44:37.186661 22726 net.cpp:165] Memory required for data: 873985500
I0818 13:44:37.186671 22726 layer_factory.hpp:77] Creating layer scale_resblk32_b
I0818 13:44:37.186679 22726 net.cpp:100] Creating Layer scale_resblk32_b
I0818 13:44:37.186686 22726 net.cpp:434] scale_resblk32_b <- bn_resblk32_b
I0818 13:44:37.186693 22726 net.cpp:395] scale_resblk32_b -> bn_resblk32_b (in-place)
I0818 13:44:37.186750 22726 layer_factory.hpp:77] Creating layer scale_resblk32_b
I0818 13:44:37.186900 22726 net.cpp:150] Setting up scale_resblk32_b
I0818 13:44:37.186913 22726 net.cpp:157] Top shape: 125 16 16 16 (512000)
I0818 13:44:37.186918 22726 net.cpp:165] Memory required for data: 876033500
I0818 13:44:37.186928 22726 layer_factory.hpp:77] Creating layer avePooling_resblk32
I0818 13:44:37.186940 22726 net.cpp:100] Creating Layer avePooling_resblk32
I0818 13:44:37.186947 22726 net.cpp:434] avePooling_resblk32 <- sum_bn_Conv16_9_b_relu_sum_bn_Conv16_9_b_0_split_1
I0818 13:44:37.186955 22726 net.cpp:408] avePooling_resblk32 -> avgPool_resblk32
I0818 13:44:37.187046 22726 net.cpp:150] Setting up avePooling_resblk32
I0818 13:44:37.187062 22726 net.cpp:157] Top shape: 125 16 16 16 (512000)
I0818 13:44:37.187067 22726 net.cpp:165] Memory required for data: 878081500
I0818 13:44:37.187072 22726 layer_factory.hpp:77] Creating layer sum_avgPool_resblk32
I0818 13:44:37.187086 22726 net.cpp:100] Creating Layer sum_avgPool_resblk32
I0818 13:44:37.187093 22726 net.cpp:434] sum_avgPool_resblk32 <- avgPool_resblk32
I0818 13:44:37.187099 22726 net.cpp:434] sum_avgPool_resblk32 <- bn_resblk32_b
I0818 13:44:37.187108 22726 net.cpp:408] sum_avgPool_resblk32 -> sum_bn_resblk32_b
I0818 13:44:37.187141 22726 net.cpp:150] Setting up sum_avgPool_resblk32
I0818 13:44:37.187153 22726 net.cpp:157] Top shape: 125 16 16 16 (512000)
I0818 13:44:37.187158 22726 net.cpp:165] Memory required for data: 880129500
I0818 13:44:37.187163 22726 layer_factory.hpp:77] Creating layer relu_sum_bn_resblk32_b
I0818 13:44:37.187173 22726 net.cpp:100] Creating Layer relu_sum_bn_resblk32_b
I0818 13:44:37.187180 22726 net.cpp:434] relu_sum_bn_resblk32_b <- sum_bn_resblk32_b
I0818 13:44:37.187186 22726 net.cpp:395] relu_sum_bn_resblk32_b -> sum_bn_resblk32_b (in-place)
I0818 13:44:37.187196 22726 net.cpp:150] Setting up relu_sum_bn_resblk32_b
I0818 13:44:37.187202 22726 net.cpp:157] Top shape: 125 16 16 16 (512000)
I0818 13:44:37.187207 22726 net.cpp:165] Memory required for data: 882177500
I0818 13:44:37.187211 22726 layer_factory.hpp:77] Creating layer zeros_sum_bn_resblk32_b
I0818 13:44:37.187258 22726 net.cpp:100] Creating Layer zeros_sum_bn_resblk32_b
I0818 13:44:37.187273 22726 net.cpp:408] zeros_sum_bn_resblk32_b -> zeros_sum_bn_resblk32_b
I0818 13:44:37.189713 22726 net.cpp:150] Setting up zeros_sum_bn_resblk32_b
I0818 13:44:37.189735 22726 net.cpp:157] Top shape: 125 16 16 16 (512000)
I0818 13:44:37.189740 22726 net.cpp:165] Memory required for data: 884225500
I0818 13:44:37.189746 22726 layer_factory.hpp:77] Creating layer CC_sum_bn_resblk32_b
I0818 13:44:37.189759 22726 net.cpp:100] Creating Layer CC_sum_bn_resblk32_b
I0818 13:44:37.189764 22726 net.cpp:434] CC_sum_bn_resblk32_b <- sum_bn_resblk32_b
I0818 13:44:37.189771 22726 net.cpp:434] CC_sum_bn_resblk32_b <- zeros_sum_bn_resblk32_b
I0818 13:44:37.189782 22726 net.cpp:408] CC_sum_bn_resblk32_b -> CC_sum_bn_resblk32_b
I0818 13:44:37.189864 22726 net.cpp:150] Setting up CC_sum_bn_resblk32_b
I0818 13:44:37.189879 22726 net.cpp:157] Top shape: 125 32 16 16 (1024000)
I0818 13:44:37.189884 22726 net.cpp:165] Memory required for data: 888321500
I0818 13:44:37.189890 22726 layer_factory.hpp:77] Creating layer CC_sum_bn_resblk32_b_CC_sum_bn_resblk32_b_0_split
I0818 13:44:37.189903 22726 net.cpp:100] Creating Layer CC_sum_bn_resblk32_b_CC_sum_bn_resblk32_b_0_split
I0818 13:44:37.189908 22726 net.cpp:434] CC_sum_bn_resblk32_b_CC_sum_bn_resblk32_b_0_split <- CC_sum_bn_resblk32_b
I0818 13:44:37.189916 22726 net.cpp:408] CC_sum_bn_resblk32_b_CC_sum_bn_resblk32_b_0_split -> CC_sum_bn_resblk32_b_CC_sum_bn_resblk32_b_0_split_0
I0818 13:44:37.189926 22726 net.cpp:408] CC_sum_bn_resblk32_b_CC_sum_bn_resblk32_b_0_split -> CC_sum_bn_resblk32_b_CC_sum_bn_resblk32_b_0_split_1
I0818 13:44:37.189977 22726 net.cpp:150] Setting up CC_sum_bn_resblk32_b_CC_sum_bn_resblk32_b_0_split
I0818 13:44:37.189990 22726 net.cpp:157] Top shape: 125 32 16 16 (1024000)
I0818 13:44:37.189996 22726 net.cpp:157] Top shape: 125 32 16 16 (1024000)
I0818 13:44:37.190001 22726 net.cpp:165] Memory required for data: 896513500
I0818 13:44:37.190006 22726 layer_factory.hpp:77] Creating layer resblk32_1
I0818 13:44:37.190019 22726 net.cpp:100] Creating Layer resblk32_1
I0818 13:44:37.190026 22726 net.cpp:434] resblk32_1 <- CC_sum_bn_resblk32_b_CC_sum_bn_resblk32_b_0_split_0
I0818 13:44:37.190037 22726 net.cpp:408] resblk32_1 -> resblk32_1
I0818 13:44:37.191506 22726 net.cpp:150] Setting up resblk32_1
I0818 13:44:37.191524 22726 net.cpp:157] Top shape: 125 32 16 16 (1024000)
I0818 13:44:37.191529 22726 net.cpp:165] Memory required for data: 900609500
I0818 13:44:37.191546 22726 layer_factory.hpp:77] Creating layer batchNorm_resblk32_1
I0818 13:44:37.191556 22726 net.cpp:100] Creating Layer batchNorm_resblk32_1
I0818 13:44:37.191562 22726 net.cpp:434] batchNorm_resblk32_1 <- resblk32_1
I0818 13:44:37.191575 22726 net.cpp:408] batchNorm_resblk32_1 -> bn_resblk32_1
I0818 13:44:37.191833 22726 net.cpp:150] Setting up batchNorm_resblk32_1
I0818 13:44:37.191845 22726 net.cpp:157] Top shape: 125 32 16 16 (1024000)
I0818 13:44:37.191850 22726 net.cpp:165] Memory required for data: 904705500
I0818 13:44:37.191861 22726 layer_factory.hpp:77] Creating layer scale_resblk32_1
I0818 13:44:37.191870 22726 net.cpp:100] Creating Layer scale_resblk32_1
I0818 13:44:37.191876 22726 net.cpp:434] scale_resblk32_1 <- bn_resblk32_1
I0818 13:44:37.191884 22726 net.cpp:395] scale_resblk32_1 -> bn_resblk32_1 (in-place)
I0818 13:44:37.191943 22726 layer_factory.hpp:77] Creating layer scale_resblk32_1
I0818 13:44:37.192090 22726 net.cpp:150] Setting up scale_resblk32_1
I0818 13:44:37.192106 22726 net.cpp:157] Top shape: 125 32 16 16 (1024000)
I0818 13:44:37.192111 22726 net.cpp:165] Memory required for data: 908801500
I0818 13:44:37.192121 22726 layer_factory.hpp:77] Creating layer relu_bn_resblk32_1
I0818 13:44:37.192129 22726 net.cpp:100] Creating Layer relu_bn_resblk32_1
I0818 13:44:37.192136 22726 net.cpp:434] relu_bn_resblk32_1 <- bn_resblk32_1
I0818 13:44:37.192142 22726 net.cpp:395] relu_bn_resblk32_1 -> bn_resblk32_1 (in-place)
I0818 13:44:37.192152 22726 net.cpp:150] Setting up relu_bn_resblk32_1
I0818 13:44:37.192159 22726 net.cpp:157] Top shape: 125 32 16 16 (1024000)
I0818 13:44:37.192163 22726 net.cpp:165] Memory required for data: 912897500
I0818 13:44:37.192168 22726 layer_factory.hpp:77] Creating layer resblk32_1_b
I0818 13:44:37.192183 22726 net.cpp:100] Creating Layer resblk32_1_b
I0818 13:44:37.192189 22726 net.cpp:434] resblk32_1_b <- bn_resblk32_1
I0818 13:44:37.192200 22726 net.cpp:408] resblk32_1_b -> resblk32_1_b
I0818 13:44:37.192662 22726 net.cpp:150] Setting up resblk32_1_b
I0818 13:44:37.192677 22726 net.cpp:157] Top shape: 125 32 16 16 (1024000)
I0818 13:44:37.192680 22726 net.cpp:165] Memory required for data: 916993500
I0818 13:44:37.192689 22726 layer_factory.hpp:77] Creating layer batchNorm_resblk32_1_b
I0818 13:44:37.192701 22726 net.cpp:100] Creating Layer batchNorm_resblk32_1_b
I0818 13:44:37.192708 22726 net.cpp:434] batchNorm_resblk32_1_b <- resblk32_1_b
I0818 13:44:37.192715 22726 net.cpp:408] batchNorm_resblk32_1_b -> bn_resblk32_1_b
I0818 13:44:37.192973 22726 net.cpp:150] Setting up batchNorm_resblk32_1_b
I0818 13:44:37.192987 22726 net.cpp:157] Top shape: 125 32 16 16 (1024000)
I0818 13:44:37.192992 22726 net.cpp:165] Memory required for data: 921089500
I0818 13:44:37.193002 22726 layer_factory.hpp:77] Creating layer scale_resblk32_1_b
I0818 13:44:37.193011 22726 net.cpp:100] Creating Layer scale_resblk32_1_b
I0818 13:44:37.193017 22726 net.cpp:434] scale_resblk32_1_b <- bn_resblk32_1_b
I0818 13:44:37.193024 22726 net.cpp:395] scale_resblk32_1_b -> bn_resblk32_1_b (in-place)
I0818 13:44:37.193081 22726 layer_factory.hpp:77] Creating layer scale_resblk32_1_b
I0818 13:44:37.193224 22726 net.cpp:150] Setting up scale_resblk32_1_b
I0818 13:44:37.193236 22726 net.cpp:157] Top shape: 125 32 16 16 (1024000)
I0818 13:44:37.193241 22726 net.cpp:165] Memory required for data: 925185500
I0818 13:44:37.193250 22726 layer_factory.hpp:77] Creating layer sum_CC_sum_bn_resblk32_b
I0818 13:44:37.193262 22726 net.cpp:100] Creating Layer sum_CC_sum_bn_resblk32_b
I0818 13:44:37.193269 22726 net.cpp:434] sum_CC_sum_bn_resblk32_b <- CC_sum_bn_resblk32_b_CC_sum_bn_resblk32_b_0_split_1
I0818 13:44:37.193275 22726 net.cpp:434] sum_CC_sum_bn_resblk32_b <- bn_resblk32_1_b
I0818 13:44:37.193284 22726 net.cpp:408] sum_CC_sum_bn_resblk32_b -> sum_bn_resblk32_1_b
I0818 13:44:37.193310 22726 net.cpp:150] Setting up sum_CC_sum_bn_resblk32_b
I0818 13:44:37.193320 22726 net.cpp:157] Top shape: 125 32 16 16 (1024000)
I0818 13:44:37.193325 22726 net.cpp:165] Memory required for data: 929281500
I0818 13:44:37.193336 22726 layer_factory.hpp:77] Creating layer relu_sum_bn_resblk32_1_b
I0818 13:44:37.193347 22726 net.cpp:100] Creating Layer relu_sum_bn_resblk32_1_b
I0818 13:44:37.193353 22726 net.cpp:434] relu_sum_bn_resblk32_1_b <- sum_bn_resblk32_1_b
I0818 13:44:37.193361 22726 net.cpp:395] relu_sum_bn_resblk32_1_b -> sum_bn_resblk32_1_b (in-place)
I0818 13:44:37.193370 22726 net.cpp:150] Setting up relu_sum_bn_resblk32_1_b
I0818 13:44:37.193377 22726 net.cpp:157] Top shape: 125 32 16 16 (1024000)
I0818 13:44:37.193382 22726 net.cpp:165] Memory required for data: 933377500
I0818 13:44:37.193387 22726 layer_factory.hpp:77] Creating layer sum_bn_resblk32_1_b_relu_sum_bn_resblk32_1_b_0_split
I0818 13:44:37.193393 22726 net.cpp:100] Creating Layer sum_bn_resblk32_1_b_relu_sum_bn_resblk32_1_b_0_split
I0818 13:44:37.193398 22726 net.cpp:434] sum_bn_resblk32_1_b_relu_sum_bn_resblk32_1_b_0_split <- sum_bn_resblk32_1_b
I0818 13:44:37.193405 22726 net.cpp:408] sum_bn_resblk32_1_b_relu_sum_bn_resblk32_1_b_0_split -> sum_bn_resblk32_1_b_relu_sum_bn_resblk32_1_b_0_split_0
I0818 13:44:37.193414 22726 net.cpp:408] sum_bn_resblk32_1_b_relu_sum_bn_resblk32_1_b_0_split -> sum_bn_resblk32_1_b_relu_sum_bn_resblk32_1_b_0_split_1
I0818 13:44:37.193461 22726 net.cpp:150] Setting up sum_bn_resblk32_1_b_relu_sum_bn_resblk32_1_b_0_split
I0818 13:44:37.193473 22726 net.cpp:157] Top shape: 125 32 16 16 (1024000)
I0818 13:44:37.193480 22726 net.cpp:157] Top shape: 125 32 16 16 (1024000)
I0818 13:44:37.193483 22726 net.cpp:165] Memory required for data: 941569500
I0818 13:44:37.193488 22726 layer_factory.hpp:77] Creating layer resblk32_2
I0818 13:44:37.193502 22726 net.cpp:100] Creating Layer resblk32_2
I0818 13:44:37.193508 22726 net.cpp:434] resblk32_2 <- sum_bn_resblk32_1_b_relu_sum_bn_resblk32_1_b_0_split_0
I0818 13:44:37.193517 22726 net.cpp:408] resblk32_2 -> resblk32_2
I0818 13:44:37.193991 22726 net.cpp:150] Setting up resblk32_2
I0818 13:44:37.194005 22726 net.cpp:157] Top shape: 125 32 16 16 (1024000)
I0818 13:44:37.194010 22726 net.cpp:165] Memory required for data: 945665500
I0818 13:44:37.194020 22726 layer_factory.hpp:77] Creating layer batchNorm_resblk32_2
I0818 13:44:37.194031 22726 net.cpp:100] Creating Layer batchNorm_resblk32_2
I0818 13:44:37.194037 22726 net.cpp:434] batchNorm_resblk32_2 <- resblk32_2
I0818 13:44:37.194048 22726 net.cpp:408] batchNorm_resblk32_2 -> bn_resblk32_2
I0818 13:44:37.194293 22726 net.cpp:150] Setting up batchNorm_resblk32_2
I0818 13:44:37.194306 22726 net.cpp:157] Top shape: 125 32 16 16 (1024000)
I0818 13:44:37.194311 22726 net.cpp:165] Memory required for data: 949761500
I0818 13:44:37.194321 22726 layer_factory.hpp:77] Creating layer scale_resblk32_2
I0818 13:44:37.194330 22726 net.cpp:100] Creating Layer scale_resblk32_2
I0818 13:44:37.194336 22726 net.cpp:434] scale_resblk32_2 <- bn_resblk32_2
I0818 13:44:37.194344 22726 net.cpp:395] scale_resblk32_2 -> bn_resblk32_2 (in-place)
I0818 13:44:37.194401 22726 layer_factory.hpp:77] Creating layer scale_resblk32_2
I0818 13:44:37.194546 22726 net.cpp:150] Setting up scale_resblk32_2
I0818 13:44:37.194558 22726 net.cpp:157] Top shape: 125 32 16 16 (1024000)
I0818 13:44:37.194563 22726 net.cpp:165] Memory required for data: 953857500
I0818 13:44:37.194572 22726 layer_factory.hpp:77] Creating layer relu_bn_resblk32_2
I0818 13:44:37.194581 22726 net.cpp:100] Creating Layer relu_bn_resblk32_2
I0818 13:44:37.194589 22726 net.cpp:434] relu_bn_resblk32_2 <- bn_resblk32_2
I0818 13:44:37.194597 22726 net.cpp:395] relu_bn_resblk32_2 -> bn_resblk32_2 (in-place)
I0818 13:44:37.194607 22726 net.cpp:150] Setting up relu_bn_resblk32_2
I0818 13:44:37.194612 22726 net.cpp:157] Top shape: 125 32 16 16 (1024000)
I0818 13:44:37.194617 22726 net.cpp:165] Memory required for data: 957953500
I0818 13:44:37.194622 22726 layer_factory.hpp:77] Creating layer resblk32_2_b
I0818 13:44:37.194636 22726 net.cpp:100] Creating Layer resblk32_2_b
I0818 13:44:37.194643 22726 net.cpp:434] resblk32_2_b <- bn_resblk32_2
I0818 13:44:37.194650 22726 net.cpp:408] resblk32_2_b -> resblk32_2_b
I0818 13:44:37.195124 22726 net.cpp:150] Setting up resblk32_2_b
I0818 13:44:37.195138 22726 net.cpp:157] Top shape: 125 32 16 16 (1024000)
I0818 13:44:37.195143 22726 net.cpp:165] Memory required for data: 962049500
I0818 13:44:37.195152 22726 layer_factory.hpp:77] Creating layer batchNorm_resblk32_2_b
I0818 13:44:37.195164 22726 net.cpp:100] Creating Layer batchNorm_resblk32_2_b
I0818 13:44:37.195170 22726 net.cpp:434] batchNorm_resblk32_2_b <- resblk32_2_b
I0818 13:44:37.195179 22726 net.cpp:408] batchNorm_resblk32_2_b -> bn_resblk32_2_b
I0818 13:44:37.195430 22726 net.cpp:150] Setting up batchNorm_resblk32_2_b
I0818 13:44:37.195444 22726 net.cpp:157] Top shape: 125 32 16 16 (1024000)
I0818 13:44:37.195449 22726 net.cpp:165] Memory required for data: 966145500
I0818 13:44:37.195459 22726 layer_factory.hpp:77] Creating layer scale_resblk32_2_b
I0818 13:44:37.195468 22726 net.cpp:100] Creating Layer scale_resblk32_2_b
I0818 13:44:37.195474 22726 net.cpp:434] scale_resblk32_2_b <- bn_resblk32_2_b
I0818 13:44:37.195482 22726 net.cpp:395] scale_resblk32_2_b -> bn_resblk32_2_b (in-place)
I0818 13:44:37.195536 22726 layer_factory.hpp:77] Creating layer scale_resblk32_2_b
I0818 13:44:37.195688 22726 net.cpp:150] Setting up scale_resblk32_2_b
I0818 13:44:37.195700 22726 net.cpp:157] Top shape: 125 32 16 16 (1024000)
I0818 13:44:37.195705 22726 net.cpp:165] Memory required for data: 970241500
I0818 13:44:37.195713 22726 layer_factory.hpp:77] Creating layer sum_sum_bn_resblk32_1_b
I0818 13:44:37.195722 22726 net.cpp:100] Creating Layer sum_sum_bn_resblk32_1_b
I0818 13:44:37.195729 22726 net.cpp:434] sum_sum_bn_resblk32_1_b <- sum_bn_resblk32_1_b_relu_sum_bn_resblk32_1_b_0_split_1
I0818 13:44:37.195736 22726 net.cpp:434] sum_sum_bn_resblk32_1_b <- bn_resblk32_2_b
I0818 13:44:37.195746 22726 net.cpp:408] sum_sum_bn_resblk32_1_b -> sum_bn_resblk32_2_b
I0818 13:44:37.195775 22726 net.cpp:150] Setting up sum_sum_bn_resblk32_1_b
I0818 13:44:37.195783 22726 net.cpp:157] Top shape: 125 32 16 16 (1024000)
I0818 13:44:37.195787 22726 net.cpp:165] Memory required for data: 974337500
I0818 13:44:37.195792 22726 layer_factory.hpp:77] Creating layer relu_sum_bn_resblk32_2_b
I0818 13:44:37.195823 22726 net.cpp:100] Creating Layer relu_sum_bn_resblk32_2_b
I0818 13:44:37.195832 22726 net.cpp:434] relu_sum_bn_resblk32_2_b <- sum_bn_resblk32_2_b
I0818 13:44:37.195842 22726 net.cpp:395] relu_sum_bn_resblk32_2_b -> sum_bn_resblk32_2_b (in-place)
I0818 13:44:37.195852 22726 net.cpp:150] Setting up relu_sum_bn_resblk32_2_b
I0818 13:44:37.195859 22726 net.cpp:157] Top shape: 125 32 16 16 (1024000)
I0818 13:44:37.195864 22726 net.cpp:165] Memory required for data: 978433500
I0818 13:44:37.195869 22726 layer_factory.hpp:77] Creating layer sum_bn_resblk32_2_b_relu_sum_bn_resblk32_2_b_0_split
I0818 13:44:37.195876 22726 net.cpp:100] Creating Layer sum_bn_resblk32_2_b_relu_sum_bn_resblk32_2_b_0_split
I0818 13:44:37.195881 22726 net.cpp:434] sum_bn_resblk32_2_b_relu_sum_bn_resblk32_2_b_0_split <- sum_bn_resblk32_2_b
I0818 13:44:37.195889 22726 net.cpp:408] sum_bn_resblk32_2_b_relu_sum_bn_resblk32_2_b_0_split -> sum_bn_resblk32_2_b_relu_sum_bn_resblk32_2_b_0_split_0
I0818 13:44:37.195899 22726 net.cpp:408] sum_bn_resblk32_2_b_relu_sum_bn_resblk32_2_b_0_split -> sum_bn_resblk32_2_b_relu_sum_bn_resblk32_2_b_0_split_1
I0818 13:44:37.195948 22726 net.cpp:150] Setting up sum_bn_resblk32_2_b_relu_sum_bn_resblk32_2_b_0_split
I0818 13:44:37.195960 22726 net.cpp:157] Top shape: 125 32 16 16 (1024000)
I0818 13:44:37.195966 22726 net.cpp:157] Top shape: 125 32 16 16 (1024000)
I0818 13:44:37.195971 22726 net.cpp:165] Memory required for data: 986625500
I0818 13:44:37.195976 22726 layer_factory.hpp:77] Creating layer resblk32_3
I0818 13:44:37.195987 22726 net.cpp:100] Creating Layer resblk32_3
I0818 13:44:37.195993 22726 net.cpp:434] resblk32_3 <- sum_bn_resblk32_2_b_relu_sum_bn_resblk32_2_b_0_split_0
I0818 13:44:37.196005 22726 net.cpp:408] resblk32_3 -> resblk32_3
I0818 13:44:37.196466 22726 net.cpp:150] Setting up resblk32_3
I0818 13:44:37.196480 22726 net.cpp:157] Top shape: 125 32 16 16 (1024000)
I0818 13:44:37.196491 22726 net.cpp:165] Memory required for data: 990721500
I0818 13:44:37.196501 22726 layer_factory.hpp:77] Creating layer batchNorm_resblk32_3
I0818 13:44:37.196509 22726 net.cpp:100] Creating Layer batchNorm_resblk32_3
I0818 13:44:37.196516 22726 net.cpp:434] batchNorm_resblk32_3 <- resblk32_3
I0818 13:44:37.196527 22726 net.cpp:408] batchNorm_resblk32_3 -> bn_resblk32_3
I0818 13:44:37.196775 22726 net.cpp:150] Setting up batchNorm_resblk32_3
I0818 13:44:37.196789 22726 net.cpp:157] Top shape: 125 32 16 16 (1024000)
I0818 13:44:37.196794 22726 net.cpp:165] Memory required for data: 994817500
I0818 13:44:37.196805 22726 layer_factory.hpp:77] Creating layer scale_resblk32_3
I0818 13:44:37.196823 22726 net.cpp:100] Creating Layer scale_resblk32_3
I0818 13:44:37.196830 22726 net.cpp:434] scale_resblk32_3 <- bn_resblk32_3
I0818 13:44:37.196838 22726 net.cpp:395] scale_resblk32_3 -> bn_resblk32_3 (in-place)
I0818 13:44:37.196893 22726 layer_factory.hpp:77] Creating layer scale_resblk32_3
I0818 13:44:37.197041 22726 net.cpp:150] Setting up scale_resblk32_3
I0818 13:44:37.197053 22726 net.cpp:157] Top shape: 125 32 16 16 (1024000)
I0818 13:44:37.197057 22726 net.cpp:165] Memory required for data: 998913500
I0818 13:44:37.197067 22726 layer_factory.hpp:77] Creating layer relu_bn_resblk32_3
I0818 13:44:37.197077 22726 net.cpp:100] Creating Layer relu_bn_resblk32_3
I0818 13:44:37.197084 22726 net.cpp:434] relu_bn_resblk32_3 <- bn_resblk32_3
I0818 13:44:37.197091 22726 net.cpp:395] relu_bn_resblk32_3 -> bn_resblk32_3 (in-place)
I0818 13:44:37.197101 22726 net.cpp:150] Setting up relu_bn_resblk32_3
I0818 13:44:37.197108 22726 net.cpp:157] Top shape: 125 32 16 16 (1024000)
I0818 13:44:37.197113 22726 net.cpp:165] Memory required for data: 1003009500
I0818 13:44:37.197118 22726 layer_factory.hpp:77] Creating layer resblk32_3_b
I0818 13:44:37.197131 22726 net.cpp:100] Creating Layer resblk32_3_b
I0818 13:44:37.197137 22726 net.cpp:434] resblk32_3_b <- bn_resblk32_3
I0818 13:44:37.197149 22726 net.cpp:408] resblk32_3_b -> resblk32_3_b
I0818 13:44:37.197607 22726 net.cpp:150] Setting up resblk32_3_b
I0818 13:44:37.197620 22726 net.cpp:157] Top shape: 125 32 16 16 (1024000)
I0818 13:44:37.197625 22726 net.cpp:165] Memory required for data: 1007105500
I0818 13:44:37.197633 22726 layer_factory.hpp:77] Creating layer batchNorm_resblk32_3_b
I0818 13:44:37.197643 22726 net.cpp:100] Creating Layer batchNorm_resblk32_3_b
I0818 13:44:37.197649 22726 net.cpp:434] batchNorm_resblk32_3_b <- resblk32_3_b
I0818 13:44:37.197657 22726 net.cpp:408] batchNorm_resblk32_3_b -> bn_resblk32_3_b
I0818 13:44:37.197918 22726 net.cpp:150] Setting up batchNorm_resblk32_3_b
I0818 13:44:37.197932 22726 net.cpp:157] Top shape: 125 32 16 16 (1024000)
I0818 13:44:37.197937 22726 net.cpp:165] Memory required for data: 1011201500
I0818 13:44:37.197948 22726 layer_factory.hpp:77] Creating layer scale_resblk32_3_b
I0818 13:44:37.197957 22726 net.cpp:100] Creating Layer scale_resblk32_3_b
I0818 13:44:37.197963 22726 net.cpp:434] scale_resblk32_3_b <- bn_resblk32_3_b
I0818 13:44:37.197973 22726 net.cpp:395] scale_resblk32_3_b -> bn_resblk32_3_b (in-place)
I0818 13:44:37.198029 22726 layer_factory.hpp:77] Creating layer scale_resblk32_3_b
I0818 13:44:37.198177 22726 net.cpp:150] Setting up scale_resblk32_3_b
I0818 13:44:37.198189 22726 net.cpp:157] Top shape: 125 32 16 16 (1024000)
I0818 13:44:37.198194 22726 net.cpp:165] Memory required for data: 1015297500
I0818 13:44:37.198204 22726 layer_factory.hpp:77] Creating layer sum_sum_bn_resblk32_2_b
I0818 13:44:37.198212 22726 net.cpp:100] Creating Layer sum_sum_bn_resblk32_2_b
I0818 13:44:37.198218 22726 net.cpp:434] sum_sum_bn_resblk32_2_b <- sum_bn_resblk32_2_b_relu_sum_bn_resblk32_2_b_0_split_1
I0818 13:44:37.198225 22726 net.cpp:434] sum_sum_bn_resblk32_2_b <- bn_resblk32_3_b
I0818 13:44:37.198237 22726 net.cpp:408] sum_sum_bn_resblk32_2_b -> sum_bn_resblk32_3_b
I0818 13:44:37.198266 22726 net.cpp:150] Setting up sum_sum_bn_resblk32_2_b
I0818 13:44:37.198277 22726 net.cpp:157] Top shape: 125 32 16 16 (1024000)
I0818 13:44:37.198288 22726 net.cpp:165] Memory required for data: 1019393500
I0818 13:44:37.198294 22726 layer_factory.hpp:77] Creating layer relu_sum_bn_resblk32_3_b
I0818 13:44:37.198302 22726 net.cpp:100] Creating Layer relu_sum_bn_resblk32_3_b
I0818 13:44:37.198307 22726 net.cpp:434] relu_sum_bn_resblk32_3_b <- sum_bn_resblk32_3_b
I0818 13:44:37.198314 22726 net.cpp:395] relu_sum_bn_resblk32_3_b -> sum_bn_resblk32_3_b (in-place)
I0818 13:44:37.198323 22726 net.cpp:150] Setting up relu_sum_bn_resblk32_3_b
I0818 13:44:37.198330 22726 net.cpp:157] Top shape: 125 32 16 16 (1024000)
I0818 13:44:37.198334 22726 net.cpp:165] Memory required for data: 1023489500
I0818 13:44:37.198338 22726 layer_factory.hpp:77] Creating layer sum_bn_resblk32_3_b_relu_sum_bn_resblk32_3_b_0_split
I0818 13:44:37.198348 22726 net.cpp:100] Creating Layer sum_bn_resblk32_3_b_relu_sum_bn_resblk32_3_b_0_split
I0818 13:44:37.198354 22726 net.cpp:434] sum_bn_resblk32_3_b_relu_sum_bn_resblk32_3_b_0_split <- sum_bn_resblk32_3_b
I0818 13:44:37.198361 22726 net.cpp:408] sum_bn_resblk32_3_b_relu_sum_bn_resblk32_3_b_0_split -> sum_bn_resblk32_3_b_relu_sum_bn_resblk32_3_b_0_split_0
I0818 13:44:37.198371 22726 net.cpp:408] sum_bn_resblk32_3_b_relu_sum_bn_resblk32_3_b_0_split -> sum_bn_resblk32_3_b_relu_sum_bn_resblk32_3_b_0_split_1
I0818 13:44:37.198415 22726 net.cpp:150] Setting up sum_bn_resblk32_3_b_relu_sum_bn_resblk32_3_b_0_split
I0818 13:44:37.198431 22726 net.cpp:157] Top shape: 125 32 16 16 (1024000)
I0818 13:44:37.198437 22726 net.cpp:157] Top shape: 125 32 16 16 (1024000)
I0818 13:44:37.198441 22726 net.cpp:165] Memory required for data: 1031681500
I0818 13:44:37.198446 22726 layer_factory.hpp:77] Creating layer resblk32_4
I0818 13:44:37.198457 22726 net.cpp:100] Creating Layer resblk32_4
I0818 13:44:37.198463 22726 net.cpp:434] resblk32_4 <- sum_bn_resblk32_3_b_relu_sum_bn_resblk32_3_b_0_split_0
I0818 13:44:37.198472 22726 net.cpp:408] resblk32_4 -> resblk32_4
I0818 13:44:37.198946 22726 net.cpp:150] Setting up resblk32_4
I0818 13:44:37.198963 22726 net.cpp:157] Top shape: 125 32 16 16 (1024000)
I0818 13:44:37.198968 22726 net.cpp:165] Memory required for data: 1035777500
I0818 13:44:37.198977 22726 layer_factory.hpp:77] Creating layer batchNorm_resblk32_4
I0818 13:44:37.198987 22726 net.cpp:100] Creating Layer batchNorm_resblk32_4
I0818 13:44:37.198992 22726 net.cpp:434] batchNorm_resblk32_4 <- resblk32_4
I0818 13:44:37.199000 22726 net.cpp:408] batchNorm_resblk32_4 -> bn_resblk32_4
I0818 13:44:37.199250 22726 net.cpp:150] Setting up batchNorm_resblk32_4
I0818 13:44:37.199262 22726 net.cpp:157] Top shape: 125 32 16 16 (1024000)
I0818 13:44:37.199267 22726 net.cpp:165] Memory required for data: 1039873500
I0818 13:44:37.199277 22726 layer_factory.hpp:77] Creating layer scale_resblk32_4
I0818 13:44:37.199286 22726 net.cpp:100] Creating Layer scale_resblk32_4
I0818 13:44:37.199292 22726 net.cpp:434] scale_resblk32_4 <- bn_resblk32_4
I0818 13:44:37.199303 22726 net.cpp:395] scale_resblk32_4 -> bn_resblk32_4 (in-place)
I0818 13:44:37.199358 22726 layer_factory.hpp:77] Creating layer scale_resblk32_4
I0818 13:44:37.199512 22726 net.cpp:150] Setting up scale_resblk32_4
I0818 13:44:37.199523 22726 net.cpp:157] Top shape: 125 32 16 16 (1024000)
I0818 13:44:37.199528 22726 net.cpp:165] Memory required for data: 1043969500
I0818 13:44:37.199537 22726 layer_factory.hpp:77] Creating layer relu_bn_resblk32_4
I0818 13:44:37.199545 22726 net.cpp:100] Creating Layer relu_bn_resblk32_4
I0818 13:44:37.199551 22726 net.cpp:434] relu_bn_resblk32_4 <- bn_resblk32_4
I0818 13:44:37.199561 22726 net.cpp:395] relu_bn_resblk32_4 -> bn_resblk32_4 (in-place)
I0818 13:44:37.199571 22726 net.cpp:150] Setting up relu_bn_resblk32_4
I0818 13:44:37.199578 22726 net.cpp:157] Top shape: 125 32 16 16 (1024000)
I0818 13:44:37.199582 22726 net.cpp:165] Memory required for data: 1048065500
I0818 13:44:37.199586 22726 layer_factory.hpp:77] Creating layer resblk32_4_b
I0818 13:44:37.199600 22726 net.cpp:100] Creating Layer resblk32_4_b
I0818 13:44:37.199612 22726 net.cpp:434] resblk32_4_b <- bn_resblk32_4
I0818 13:44:37.199622 22726 net.cpp:408] resblk32_4_b -> resblk32_4_b
I0818 13:44:37.200103 22726 net.cpp:150] Setting up resblk32_4_b
I0818 13:44:37.200117 22726 net.cpp:157] Top shape: 125 32 16 16 (1024000)
I0818 13:44:37.200122 22726 net.cpp:165] Memory required for data: 1052161500
I0818 13:44:37.200131 22726 layer_factory.hpp:77] Creating layer batchNorm_resblk32_4_b
I0818 13:44:37.200143 22726 net.cpp:100] Creating Layer batchNorm_resblk32_4_b
I0818 13:44:37.200150 22726 net.cpp:434] batchNorm_resblk32_4_b <- resblk32_4_b
I0818 13:44:37.200158 22726 net.cpp:408] batchNorm_resblk32_4_b -> bn_resblk32_4_b
I0818 13:44:37.200407 22726 net.cpp:150] Setting up batchNorm_resblk32_4_b
I0818 13:44:37.200418 22726 net.cpp:157] Top shape: 125 32 16 16 (1024000)
I0818 13:44:37.200423 22726 net.cpp:165] Memory required for data: 1056257500
I0818 13:44:37.200433 22726 layer_factory.hpp:77] Creating layer scale_resblk32_4_b
I0818 13:44:37.200443 22726 net.cpp:100] Creating Layer scale_resblk32_4_b
I0818 13:44:37.200448 22726 net.cpp:434] scale_resblk32_4_b <- bn_resblk32_4_b
I0818 13:44:37.200459 22726 net.cpp:395] scale_resblk32_4_b -> bn_resblk32_4_b (in-place)
I0818 13:44:37.200515 22726 layer_factory.hpp:77] Creating layer scale_resblk32_4_b
I0818 13:44:37.200661 22726 net.cpp:150] Setting up scale_resblk32_4_b
I0818 13:44:37.200675 22726 net.cpp:157] Top shape: 125 32 16 16 (1024000)
I0818 13:44:37.200678 22726 net.cpp:165] Memory required for data: 1060353500
I0818 13:44:37.200687 22726 layer_factory.hpp:77] Creating layer sum_sum_bn_resblk32_3_b
I0818 13:44:37.200696 22726 net.cpp:100] Creating Layer sum_sum_bn_resblk32_3_b
I0818 13:44:37.200702 22726 net.cpp:434] sum_sum_bn_resblk32_3_b <- sum_bn_resblk32_3_b_relu_sum_bn_resblk32_3_b_0_split_1
I0818 13:44:37.200711 22726 net.cpp:434] sum_sum_bn_resblk32_3_b <- bn_resblk32_4_b
I0818 13:44:37.200721 22726 net.cpp:408] sum_sum_bn_resblk32_3_b -> sum_bn_resblk32_4_b
I0818 13:44:37.200748 22726 net.cpp:150] Setting up sum_sum_bn_resblk32_3_b
I0818 13:44:37.200757 22726 net.cpp:157] Top shape: 125 32 16 16 (1024000)
I0818 13:44:37.200762 22726 net.cpp:165] Memory required for data: 1064449500
I0818 13:44:37.200767 22726 layer_factory.hpp:77] Creating layer relu_sum_bn_resblk32_4_b
I0818 13:44:37.200778 22726 net.cpp:100] Creating Layer relu_sum_bn_resblk32_4_b
I0818 13:44:37.200783 22726 net.cpp:434] relu_sum_bn_resblk32_4_b <- sum_bn_resblk32_4_b
I0818 13:44:37.200790 22726 net.cpp:395] relu_sum_bn_resblk32_4_b -> sum_bn_resblk32_4_b (in-place)
I0818 13:44:37.200799 22726 net.cpp:150] Setting up relu_sum_bn_resblk32_4_b
I0818 13:44:37.200806 22726 net.cpp:157] Top shape: 125 32 16 16 (1024000)
I0818 13:44:37.200817 22726 net.cpp:165] Memory required for data: 1068545500
I0818 13:44:37.200822 22726 layer_factory.hpp:77] Creating layer sum_bn_resblk32_4_b_relu_sum_bn_resblk32_4_b_0_split
I0818 13:44:37.200829 22726 net.cpp:100] Creating Layer sum_bn_resblk32_4_b_relu_sum_bn_resblk32_4_b_0_split
I0818 13:44:37.200835 22726 net.cpp:434] sum_bn_resblk32_4_b_relu_sum_bn_resblk32_4_b_0_split <- sum_bn_resblk32_4_b
I0818 13:44:37.200845 22726 net.cpp:408] sum_bn_resblk32_4_b_relu_sum_bn_resblk32_4_b_0_split -> sum_bn_resblk32_4_b_relu_sum_bn_resblk32_4_b_0_split_0
I0818 13:44:37.200855 22726 net.cpp:408] sum_bn_resblk32_4_b_relu_sum_bn_resblk32_4_b_0_split -> sum_bn_resblk32_4_b_relu_sum_bn_resblk32_4_b_0_split_1
I0818 13:44:37.200901 22726 net.cpp:150] Setting up sum_bn_resblk32_4_b_relu_sum_bn_resblk32_4_b_0_split
I0818 13:44:37.200915 22726 net.cpp:157] Top shape: 125 32 16 16 (1024000)
I0818 13:44:37.200922 22726 net.cpp:157] Top shape: 125 32 16 16 (1024000)
I0818 13:44:37.200927 22726 net.cpp:165] Memory required for data: 1076737500
I0818 13:44:37.200932 22726 layer_factory.hpp:77] Creating layer resblk32_5
I0818 13:44:37.200942 22726 net.cpp:100] Creating Layer resblk32_5
I0818 13:44:37.200948 22726 net.cpp:434] resblk32_5 <- sum_bn_resblk32_4_b_relu_sum_bn_resblk32_4_b_0_split_0
I0818 13:44:37.200958 22726 net.cpp:408] resblk32_5 -> resblk32_5
I0818 13:44:37.201437 22726 net.cpp:150] Setting up resblk32_5
I0818 13:44:37.201452 22726 net.cpp:157] Top shape: 125 32 16 16 (1024000)
I0818 13:44:37.201457 22726 net.cpp:165] Memory required for data: 1080833500
I0818 13:44:37.201465 22726 layer_factory.hpp:77] Creating layer batchNorm_resblk32_5
I0818 13:44:37.201477 22726 net.cpp:100] Creating Layer batchNorm_resblk32_5
I0818 13:44:37.201483 22726 net.cpp:434] batchNorm_resblk32_5 <- resblk32_5
I0818 13:44:37.201491 22726 net.cpp:408] batchNorm_resblk32_5 -> bn_resblk32_5
I0818 13:44:37.201742 22726 net.cpp:150] Setting up batchNorm_resblk32_5
I0818 13:44:37.201756 22726 net.cpp:157] Top shape: 125 32 16 16 (1024000)
I0818 13:44:37.201759 22726 net.cpp:165] Memory required for data: 1084929500
I0818 13:44:37.201769 22726 layer_factory.hpp:77] Creating layer scale_resblk32_5
I0818 13:44:37.201778 22726 net.cpp:100] Creating Layer scale_resblk32_5
I0818 13:44:37.201784 22726 net.cpp:434] scale_resblk32_5 <- bn_resblk32_5
I0818 13:44:37.201794 22726 net.cpp:395] scale_resblk32_5 -> bn_resblk32_5 (in-place)
I0818 13:44:37.201858 22726 layer_factory.hpp:77] Creating layer scale_resblk32_5
I0818 13:44:37.202016 22726 net.cpp:150] Setting up scale_resblk32_5
I0818 13:44:37.202029 22726 net.cpp:157] Top shape: 125 32 16 16 (1024000)
I0818 13:44:37.202034 22726 net.cpp:165] Memory required for data: 1089025500
I0818 13:44:37.202044 22726 layer_factory.hpp:77] Creating layer relu_bn_resblk32_5
I0818 13:44:37.202050 22726 net.cpp:100] Creating Layer relu_bn_resblk32_5
I0818 13:44:37.202056 22726 net.cpp:434] relu_bn_resblk32_5 <- bn_resblk32_5
I0818 13:44:37.202067 22726 net.cpp:395] relu_bn_resblk32_5 -> bn_resblk32_5 (in-place)
I0818 13:44:37.202076 22726 net.cpp:150] Setting up relu_bn_resblk32_5
I0818 13:44:37.202083 22726 net.cpp:157] Top shape: 125 32 16 16 (1024000)
I0818 13:44:37.202088 22726 net.cpp:165] Memory required for data: 1093121500
I0818 13:44:37.202092 22726 layer_factory.hpp:77] Creating layer resblk32_5_b
I0818 13:44:37.202106 22726 net.cpp:100] Creating Layer resblk32_5_b
I0818 13:44:37.202112 22726 net.cpp:434] resblk32_5_b <- bn_resblk32_5
I0818 13:44:37.202121 22726 net.cpp:408] resblk32_5_b -> resblk32_5_b
I0818 13:44:37.202585 22726 net.cpp:150] Setting up resblk32_5_b
I0818 13:44:37.202600 22726 net.cpp:157] Top shape: 125 32 16 16 (1024000)
I0818 13:44:37.202603 22726 net.cpp:165] Memory required for data: 1097217500
I0818 13:44:37.202612 22726 layer_factory.hpp:77] Creating layer batchNorm_resblk32_5_b
I0818 13:44:37.202620 22726 net.cpp:100] Creating Layer batchNorm_resblk32_5_b
I0818 13:44:37.202626 22726 net.cpp:434] batchNorm_resblk32_5_b <- resblk32_5_b
I0818 13:44:37.202638 22726 net.cpp:408] batchNorm_resblk32_5_b -> bn_resblk32_5_b
I0818 13:44:37.202893 22726 net.cpp:150] Setting up batchNorm_resblk32_5_b
I0818 13:44:37.202905 22726 net.cpp:157] Top shape: 125 32 16 16 (1024000)
I0818 13:44:37.202910 22726 net.cpp:165] Memory required for data: 1101313500
I0818 13:44:37.202920 22726 layer_factory.hpp:77] Creating layer scale_resblk32_5_b
I0818 13:44:37.202929 22726 net.cpp:100] Creating Layer scale_resblk32_5_b
I0818 13:44:37.202935 22726 net.cpp:434] scale_resblk32_5_b <- bn_resblk32_5_b
I0818 13:44:37.202942 22726 net.cpp:395] scale_resblk32_5_b -> bn_resblk32_5_b (in-place)
I0818 13:44:37.202999 22726 layer_factory.hpp:77] Creating layer scale_resblk32_5_b
I0818 13:44:37.203147 22726 net.cpp:150] Setting up scale_resblk32_5_b
I0818 13:44:37.203163 22726 net.cpp:157] Top shape: 125 32 16 16 (1024000)
I0818 13:44:37.203168 22726 net.cpp:165] Memory required for data: 1105409500
I0818 13:44:37.203184 22726 layer_factory.hpp:77] Creating layer sum_sum_bn_resblk32_4_b
I0818 13:44:37.203193 22726 net.cpp:100] Creating Layer sum_sum_bn_resblk32_4_b
I0818 13:44:37.203200 22726 net.cpp:434] sum_sum_bn_resblk32_4_b <- sum_bn_resblk32_4_b_relu_sum_bn_resblk32_4_b_0_split_1
I0818 13:44:37.203207 22726 net.cpp:434] sum_sum_bn_resblk32_4_b <- bn_resblk32_5_b
I0818 13:44:37.203215 22726 net.cpp:408] sum_sum_bn_resblk32_4_b -> sum_bn_resblk32_5_b
I0818 13:44:37.203253 22726 net.cpp:150] Setting up sum_sum_bn_resblk32_4_b
I0818 13:44:37.203263 22726 net.cpp:157] Top shape: 125 32 16 16 (1024000)
I0818 13:44:37.203266 22726 net.cpp:165] Memory required for data: 1109505500
I0818 13:44:37.203271 22726 layer_factory.hpp:77] Creating layer relu_sum_bn_resblk32_5_b
I0818 13:44:37.203279 22726 net.cpp:100] Creating Layer relu_sum_bn_resblk32_5_b
I0818 13:44:37.203284 22726 net.cpp:434] relu_sum_bn_resblk32_5_b <- sum_bn_resblk32_5_b
I0818 13:44:37.203294 22726 net.cpp:395] relu_sum_bn_resblk32_5_b -> sum_bn_resblk32_5_b (in-place)
I0818 13:44:37.203305 22726 net.cpp:150] Setting up relu_sum_bn_resblk32_5_b
I0818 13:44:37.203311 22726 net.cpp:157] Top shape: 125 32 16 16 (1024000)
I0818 13:44:37.203315 22726 net.cpp:165] Memory required for data: 1113601500
I0818 13:44:37.203320 22726 layer_factory.hpp:77] Creating layer sum_bn_resblk32_5_b_relu_sum_bn_resblk32_5_b_0_split
I0818 13:44:37.203326 22726 net.cpp:100] Creating Layer sum_bn_resblk32_5_b_relu_sum_bn_resblk32_5_b_0_split
I0818 13:44:37.203332 22726 net.cpp:434] sum_bn_resblk32_5_b_relu_sum_bn_resblk32_5_b_0_split <- sum_bn_resblk32_5_b
I0818 13:44:37.203342 22726 net.cpp:408] sum_bn_resblk32_5_b_relu_sum_bn_resblk32_5_b_0_split -> sum_bn_resblk32_5_b_relu_sum_bn_resblk32_5_b_0_split_0
I0818 13:44:37.203352 22726 net.cpp:408] sum_bn_resblk32_5_b_relu_sum_bn_resblk32_5_b_0_split -> sum_bn_resblk32_5_b_relu_sum_bn_resblk32_5_b_0_split_1
I0818 13:44:37.203397 22726 net.cpp:150] Setting up sum_bn_resblk32_5_b_relu_sum_bn_resblk32_5_b_0_split
I0818 13:44:37.203408 22726 net.cpp:157] Top shape: 125 32 16 16 (1024000)
I0818 13:44:37.203414 22726 net.cpp:157] Top shape: 125 32 16 16 (1024000)
I0818 13:44:37.203419 22726 net.cpp:165] Memory required for data: 1121793500
I0818 13:44:37.203424 22726 layer_factory.hpp:77] Creating layer resblk32_6
I0818 13:44:37.203438 22726 net.cpp:100] Creating Layer resblk32_6
I0818 13:44:37.203445 22726 net.cpp:434] resblk32_6 <- sum_bn_resblk32_5_b_relu_sum_bn_resblk32_5_b_0_split_0
I0818 13:44:37.203454 22726 net.cpp:408] resblk32_6 -> resblk32_6
I0818 13:44:37.203930 22726 net.cpp:150] Setting up resblk32_6
I0818 13:44:37.203944 22726 net.cpp:157] Top shape: 125 32 16 16 (1024000)
I0818 13:44:37.203949 22726 net.cpp:165] Memory required for data: 1125889500
I0818 13:44:37.203958 22726 layer_factory.hpp:77] Creating layer batchNorm_resblk32_6
I0818 13:44:37.203966 22726 net.cpp:100] Creating Layer batchNorm_resblk32_6
I0818 13:44:37.203972 22726 net.cpp:434] batchNorm_resblk32_6 <- resblk32_6
I0818 13:44:37.203984 22726 net.cpp:408] batchNorm_resblk32_6 -> bn_resblk32_6
I0818 13:44:37.204236 22726 net.cpp:150] Setting up batchNorm_resblk32_6
I0818 13:44:37.204249 22726 net.cpp:157] Top shape: 125 32 16 16 (1024000)
I0818 13:44:37.204254 22726 net.cpp:165] Memory required for data: 1129985500
I0818 13:44:37.204264 22726 layer_factory.hpp:77] Creating layer scale_resblk32_6
I0818 13:44:37.204272 22726 net.cpp:100] Creating Layer scale_resblk32_6
I0818 13:44:37.204278 22726 net.cpp:434] scale_resblk32_6 <- bn_resblk32_6
I0818 13:44:37.204286 22726 net.cpp:395] scale_resblk32_6 -> bn_resblk32_6 (in-place)
I0818 13:44:37.204345 22726 layer_factory.hpp:77] Creating layer scale_resblk32_6
I0818 13:44:37.204495 22726 net.cpp:150] Setting up scale_resblk32_6
I0818 13:44:37.204510 22726 net.cpp:157] Top shape: 125 32 16 16 (1024000)
I0818 13:44:37.204515 22726 net.cpp:165] Memory required for data: 1134081500
I0818 13:44:37.204524 22726 layer_factory.hpp:77] Creating layer relu_bn_resblk32_6
I0818 13:44:37.204532 22726 net.cpp:100] Creating Layer relu_bn_resblk32_6
I0818 13:44:37.204538 22726 net.cpp:434] relu_bn_resblk32_6 <- bn_resblk32_6
I0818 13:44:37.204545 22726 net.cpp:395] relu_bn_resblk32_6 -> bn_resblk32_6 (in-place)
I0818 13:44:37.204555 22726 net.cpp:150] Setting up relu_bn_resblk32_6
I0818 13:44:37.204561 22726 net.cpp:157] Top shape: 125 32 16 16 (1024000)
I0818 13:44:37.204566 22726 net.cpp:165] Memory required for data: 1138177500
I0818 13:44:37.204571 22726 layer_factory.hpp:77] Creating layer resblk32_6_b
I0818 13:44:37.204591 22726 net.cpp:100] Creating Layer resblk32_6_b
I0818 13:44:37.204596 22726 net.cpp:434] resblk32_6_b <- bn_resblk32_6
I0818 13:44:37.204609 22726 net.cpp:408] resblk32_6_b -> resblk32_6_b
I0818 13:44:37.205083 22726 net.cpp:150] Setting up resblk32_6_b
I0818 13:44:37.205097 22726 net.cpp:157] Top shape: 125 32 16 16 (1024000)
I0818 13:44:37.205102 22726 net.cpp:165] Memory required for data: 1142273500
I0818 13:44:37.205111 22726 layer_factory.hpp:77] Creating layer batchNorm_resblk32_6_b
I0818 13:44:37.205122 22726 net.cpp:100] Creating Layer batchNorm_resblk32_6_b
I0818 13:44:37.205129 22726 net.cpp:434] batchNorm_resblk32_6_b <- resblk32_6_b
I0818 13:44:37.205140 22726 net.cpp:408] batchNorm_resblk32_6_b -> bn_resblk32_6_b
I0818 13:44:37.205390 22726 net.cpp:150] Setting up batchNorm_resblk32_6_b
I0818 13:44:37.205402 22726 net.cpp:157] Top shape: 125 32 16 16 (1024000)
I0818 13:44:37.205407 22726 net.cpp:165] Memory required for data: 1146369500
I0818 13:44:37.205417 22726 layer_factory.hpp:77] Creating layer scale_resblk32_6_b
I0818 13:44:37.205425 22726 net.cpp:100] Creating Layer scale_resblk32_6_b
I0818 13:44:37.205431 22726 net.cpp:434] scale_resblk32_6_b <- bn_resblk32_6_b
I0818 13:44:37.205440 22726 net.cpp:395] scale_resblk32_6_b -> bn_resblk32_6_b (in-place)
I0818 13:44:37.205498 22726 layer_factory.hpp:77] Creating layer scale_resblk32_6_b
I0818 13:44:37.205646 22726 net.cpp:150] Setting up scale_resblk32_6_b
I0818 13:44:37.205658 22726 net.cpp:157] Top shape: 125 32 16 16 (1024000)
I0818 13:44:37.205663 22726 net.cpp:165] Memory required for data: 1150465500
I0818 13:44:37.205672 22726 layer_factory.hpp:77] Creating layer sum_sum_bn_resblk32_5_b
I0818 13:44:37.205683 22726 net.cpp:100] Creating Layer sum_sum_bn_resblk32_5_b
I0818 13:44:37.205690 22726 net.cpp:434] sum_sum_bn_resblk32_5_b <- sum_bn_resblk32_5_b_relu_sum_bn_resblk32_5_b_0_split_1
I0818 13:44:37.205698 22726 net.cpp:434] sum_sum_bn_resblk32_5_b <- bn_resblk32_6_b
I0818 13:44:37.205705 22726 net.cpp:408] sum_sum_bn_resblk32_5_b -> sum_bn_resblk32_6_b
I0818 13:44:37.205732 22726 net.cpp:150] Setting up sum_sum_bn_resblk32_5_b
I0818 13:44:37.205742 22726 net.cpp:157] Top shape: 125 32 16 16 (1024000)
I0818 13:44:37.205746 22726 net.cpp:165] Memory required for data: 1154561500
I0818 13:44:37.205751 22726 layer_factory.hpp:77] Creating layer relu_sum_bn_resblk32_6_b
I0818 13:44:37.205762 22726 net.cpp:100] Creating Layer relu_sum_bn_resblk32_6_b
I0818 13:44:37.205768 22726 net.cpp:434] relu_sum_bn_resblk32_6_b <- sum_bn_resblk32_6_b
I0818 13:44:37.205775 22726 net.cpp:395] relu_sum_bn_resblk32_6_b -> sum_bn_resblk32_6_b (in-place)
I0818 13:44:37.205785 22726 net.cpp:150] Setting up relu_sum_bn_resblk32_6_b
I0818 13:44:37.205791 22726 net.cpp:157] Top shape: 125 32 16 16 (1024000)
I0818 13:44:37.205796 22726 net.cpp:165] Memory required for data: 1158657500
I0818 13:44:37.205801 22726 layer_factory.hpp:77] Creating layer sum_bn_resblk32_6_b_relu_sum_bn_resblk32_6_b_0_split
I0818 13:44:37.205813 22726 net.cpp:100] Creating Layer sum_bn_resblk32_6_b_relu_sum_bn_resblk32_6_b_0_split
I0818 13:44:37.205819 22726 net.cpp:434] sum_bn_resblk32_6_b_relu_sum_bn_resblk32_6_b_0_split <- sum_bn_resblk32_6_b
I0818 13:44:37.205827 22726 net.cpp:408] sum_bn_resblk32_6_b_relu_sum_bn_resblk32_6_b_0_split -> sum_bn_resblk32_6_b_relu_sum_bn_resblk32_6_b_0_split_0
I0818 13:44:37.205837 22726 net.cpp:408] sum_bn_resblk32_6_b_relu_sum_bn_resblk32_6_b_0_split -> sum_bn_resblk32_6_b_relu_sum_bn_resblk32_6_b_0_split_1
I0818 13:44:37.205891 22726 net.cpp:150] Setting up sum_bn_resblk32_6_b_relu_sum_bn_resblk32_6_b_0_split
I0818 13:44:37.205904 22726 net.cpp:157] Top shape: 125 32 16 16 (1024000)
I0818 13:44:37.205910 22726 net.cpp:157] Top shape: 125 32 16 16 (1024000)
I0818 13:44:37.205914 22726 net.cpp:165] Memory required for data: 1166849500
I0818 13:44:37.205919 22726 layer_factory.hpp:77] Creating layer resblk32_7
I0818 13:44:37.205934 22726 net.cpp:100] Creating Layer resblk32_7
I0818 13:44:37.205947 22726 net.cpp:434] resblk32_7 <- sum_bn_resblk32_6_b_relu_sum_bn_resblk32_6_b_0_split_0
I0818 13:44:37.205957 22726 net.cpp:408] resblk32_7 -> resblk32_7
I0818 13:44:37.206440 22726 net.cpp:150] Setting up resblk32_7
I0818 13:44:37.206455 22726 net.cpp:157] Top shape: 125 32 16 16 (1024000)
I0818 13:44:37.206460 22726 net.cpp:165] Memory required for data: 1170945500
I0818 13:44:37.206468 22726 layer_factory.hpp:77] Creating layer batchNorm_resblk32_7
I0818 13:44:37.206481 22726 net.cpp:100] Creating Layer batchNorm_resblk32_7
I0818 13:44:37.206488 22726 net.cpp:434] batchNorm_resblk32_7 <- resblk32_7
I0818 13:44:37.206499 22726 net.cpp:408] batchNorm_resblk32_7 -> bn_resblk32_7
I0818 13:44:37.206750 22726 net.cpp:150] Setting up batchNorm_resblk32_7
I0818 13:44:37.206763 22726 net.cpp:157] Top shape: 125 32 16 16 (1024000)
I0818 13:44:37.206768 22726 net.cpp:165] Memory required for data: 1175041500
I0818 13:44:37.206779 22726 layer_factory.hpp:77] Creating layer scale_resblk32_7
I0818 13:44:37.206786 22726 net.cpp:100] Creating Layer scale_resblk32_7
I0818 13:44:37.206792 22726 net.cpp:434] scale_resblk32_7 <- bn_resblk32_7
I0818 13:44:37.206800 22726 net.cpp:395] scale_resblk32_7 -> bn_resblk32_7 (in-place)
I0818 13:44:37.206866 22726 layer_factory.hpp:77] Creating layer scale_resblk32_7
I0818 13:44:37.207018 22726 net.cpp:150] Setting up scale_resblk32_7
I0818 13:44:37.207031 22726 net.cpp:157] Top shape: 125 32 16 16 (1024000)
I0818 13:44:37.207036 22726 net.cpp:165] Memory required for data: 1179137500
I0818 13:44:37.207044 22726 layer_factory.hpp:77] Creating layer relu_bn_resblk32_7
I0818 13:44:37.207054 22726 net.cpp:100] Creating Layer relu_bn_resblk32_7
I0818 13:44:37.207062 22726 net.cpp:434] relu_bn_resblk32_7 <- bn_resblk32_7
I0818 13:44:37.207068 22726 net.cpp:395] relu_bn_resblk32_7 -> bn_resblk32_7 (in-place)
I0818 13:44:37.207077 22726 net.cpp:150] Setting up relu_bn_resblk32_7
I0818 13:44:37.207084 22726 net.cpp:157] Top shape: 125 32 16 16 (1024000)
I0818 13:44:37.207089 22726 net.cpp:165] Memory required for data: 1183233500
I0818 13:44:37.207094 22726 layer_factory.hpp:77] Creating layer resblk32_7_b
I0818 13:44:37.207108 22726 net.cpp:100] Creating Layer resblk32_7_b
I0818 13:44:37.207113 22726 net.cpp:434] resblk32_7_b <- bn_resblk32_7
I0818 13:44:37.207123 22726 net.cpp:408] resblk32_7_b -> resblk32_7_b
I0818 13:44:37.207592 22726 net.cpp:150] Setting up resblk32_7_b
I0818 13:44:37.207605 22726 net.cpp:157] Top shape: 125 32 16 16 (1024000)
I0818 13:44:37.207610 22726 net.cpp:165] Memory required for data: 1187329500
I0818 13:44:37.207618 22726 layer_factory.hpp:77] Creating layer batchNorm_resblk32_7_b
I0818 13:44:37.207630 22726 net.cpp:100] Creating Layer batchNorm_resblk32_7_b
I0818 13:44:37.207636 22726 net.cpp:434] batchNorm_resblk32_7_b <- resblk32_7_b
I0818 13:44:37.207645 22726 net.cpp:408] batchNorm_resblk32_7_b -> bn_resblk32_7_b
I0818 13:44:37.207909 22726 net.cpp:150] Setting up batchNorm_resblk32_7_b
I0818 13:44:37.207926 22726 net.cpp:157] Top shape: 125 32 16 16 (1024000)
I0818 13:44:37.207931 22726 net.cpp:165] Memory required for data: 1191425500
I0818 13:44:37.207942 22726 layer_factory.hpp:77] Creating layer scale_resblk32_7_b
I0818 13:44:37.207950 22726 net.cpp:100] Creating Layer scale_resblk32_7_b
I0818 13:44:37.207957 22726 net.cpp:434] scale_resblk32_7_b <- bn_resblk32_7_b
I0818 13:44:37.207964 22726 net.cpp:395] scale_resblk32_7_b -> bn_resblk32_7_b (in-place)
I0818 13:44:37.208020 22726 layer_factory.hpp:77] Creating layer scale_resblk32_7_b
I0818 13:44:37.208173 22726 net.cpp:150] Setting up scale_resblk32_7_b
I0818 13:44:37.208185 22726 net.cpp:157] Top shape: 125 32 16 16 (1024000)
I0818 13:44:37.208190 22726 net.cpp:165] Memory required for data: 1195521500
I0818 13:44:37.208199 22726 layer_factory.hpp:77] Creating layer sum_sum_bn_resblk32_6_b
I0818 13:44:37.208209 22726 net.cpp:100] Creating Layer sum_sum_bn_resblk32_6_b
I0818 13:44:37.208214 22726 net.cpp:434] sum_sum_bn_resblk32_6_b <- sum_bn_resblk32_6_b_relu_sum_bn_resblk32_6_b_0_split_1
I0818 13:44:37.208228 22726 net.cpp:434] sum_sum_bn_resblk32_6_b <- bn_resblk32_7_b
I0818 13:44:37.208240 22726 net.cpp:408] sum_sum_bn_resblk32_6_b -> sum_bn_resblk32_7_b
I0818 13:44:37.208268 22726 net.cpp:150] Setting up sum_sum_bn_resblk32_6_b
I0818 13:44:37.208277 22726 net.cpp:157] Top shape: 125 32 16 16 (1024000)
I0818 13:44:37.208282 22726 net.cpp:165] Memory required for data: 1199617500
I0818 13:44:37.208287 22726 layer_factory.hpp:77] Creating layer relu_sum_bn_resblk32_7_b
I0818 13:44:37.208297 22726 net.cpp:100] Creating Layer relu_sum_bn_resblk32_7_b
I0818 13:44:37.208303 22726 net.cpp:434] relu_sum_bn_resblk32_7_b <- sum_bn_resblk32_7_b
I0818 13:44:37.208310 22726 net.cpp:395] relu_sum_bn_resblk32_7_b -> sum_bn_resblk32_7_b (in-place)
I0818 13:44:37.208319 22726 net.cpp:150] Setting up relu_sum_bn_resblk32_7_b
I0818 13:44:37.208326 22726 net.cpp:157] Top shape: 125 32 16 16 (1024000)
I0818 13:44:37.208330 22726 net.cpp:165] Memory required for data: 1203713500
I0818 13:44:37.208335 22726 layer_factory.hpp:77] Creating layer sum_bn_resblk32_7_b_relu_sum_bn_resblk32_7_b_0_split
I0818 13:44:37.208343 22726 net.cpp:100] Creating Layer sum_bn_resblk32_7_b_relu_sum_bn_resblk32_7_b_0_split
I0818 13:44:37.208348 22726 net.cpp:434] sum_bn_resblk32_7_b_relu_sum_bn_resblk32_7_b_0_split <- sum_bn_resblk32_7_b
I0818 13:44:37.208354 22726 net.cpp:408] sum_bn_resblk32_7_b_relu_sum_bn_resblk32_7_b_0_split -> sum_bn_resblk32_7_b_relu_sum_bn_resblk32_7_b_0_split_0
I0818 13:44:37.208377 22726 net.cpp:408] sum_bn_resblk32_7_b_relu_sum_bn_resblk32_7_b_0_split -> sum_bn_resblk32_7_b_relu_sum_bn_resblk32_7_b_0_split_1
I0818 13:44:37.208428 22726 net.cpp:150] Setting up sum_bn_resblk32_7_b_relu_sum_bn_resblk32_7_b_0_split
I0818 13:44:37.208441 22726 net.cpp:157] Top shape: 125 32 16 16 (1024000)
I0818 13:44:37.208447 22726 net.cpp:157] Top shape: 125 32 16 16 (1024000)
I0818 13:44:37.208451 22726 net.cpp:165] Memory required for data: 1211905500
I0818 13:44:37.208456 22726 layer_factory.hpp:77] Creating layer resblk32_8
I0818 13:44:37.208467 22726 net.cpp:100] Creating Layer resblk32_8
I0818 13:44:37.208474 22726 net.cpp:434] resblk32_8 <- sum_bn_resblk32_7_b_relu_sum_bn_resblk32_7_b_0_split_0
I0818 13:44:37.208487 22726 net.cpp:408] resblk32_8 -> resblk32_8
I0818 13:44:37.208964 22726 net.cpp:150] Setting up resblk32_8
I0818 13:44:37.208979 22726 net.cpp:157] Top shape: 125 32 16 16 (1024000)
I0818 13:44:37.208984 22726 net.cpp:165] Memory required for data: 1216001500
I0818 13:44:37.208992 22726 layer_factory.hpp:77] Creating layer batchNorm_resblk32_8
I0818 13:44:37.209004 22726 net.cpp:100] Creating Layer batchNorm_resblk32_8
I0818 13:44:37.209010 22726 net.cpp:434] batchNorm_resblk32_8 <- resblk32_8
I0818 13:44:37.209019 22726 net.cpp:408] batchNorm_resblk32_8 -> bn_resblk32_8
I0818 13:44:37.209269 22726 net.cpp:150] Setting up batchNorm_resblk32_8
I0818 13:44:37.209281 22726 net.cpp:157] Top shape: 125 32 16 16 (1024000)
I0818 13:44:37.209285 22726 net.cpp:165] Memory required for data: 1220097500
I0818 13:44:37.209296 22726 layer_factory.hpp:77] Creating layer scale_resblk32_8
I0818 13:44:37.209308 22726 net.cpp:100] Creating Layer scale_resblk32_8
I0818 13:44:37.209314 22726 net.cpp:434] scale_resblk32_8 <- bn_resblk32_8
I0818 13:44:37.209321 22726 net.cpp:395] scale_resblk32_8 -> bn_resblk32_8 (in-place)
I0818 13:44:37.209378 22726 layer_factory.hpp:77] Creating layer scale_resblk32_8
I0818 13:44:37.209532 22726 net.cpp:150] Setting up scale_resblk32_8
I0818 13:44:37.209544 22726 net.cpp:157] Top shape: 125 32 16 16 (1024000)
I0818 13:44:37.209548 22726 net.cpp:165] Memory required for data: 1224193500
I0818 13:44:37.209558 22726 layer_factory.hpp:77] Creating layer relu_bn_resblk32_8
I0818 13:44:37.209568 22726 net.cpp:100] Creating Layer relu_bn_resblk32_8
I0818 13:44:37.209574 22726 net.cpp:434] relu_bn_resblk32_8 <- bn_resblk32_8
I0818 13:44:37.209584 22726 net.cpp:395] relu_bn_resblk32_8 -> bn_resblk32_8 (in-place)
I0818 13:44:37.209594 22726 net.cpp:150] Setting up relu_bn_resblk32_8
I0818 13:44:37.209601 22726 net.cpp:157] Top shape: 125 32 16 16 (1024000)
I0818 13:44:37.209612 22726 net.cpp:165] Memory required for data: 1228289500
I0818 13:44:37.209617 22726 layer_factory.hpp:77] Creating layer resblk32_8_b
I0818 13:44:37.209628 22726 net.cpp:100] Creating Layer resblk32_8_b
I0818 13:44:37.209635 22726 net.cpp:434] resblk32_8_b <- bn_resblk32_8
I0818 13:44:37.209646 22726 net.cpp:408] resblk32_8_b -> resblk32_8_b
I0818 13:44:37.210121 22726 net.cpp:150] Setting up resblk32_8_b
I0818 13:44:37.210135 22726 net.cpp:157] Top shape: 125 32 16 16 (1024000)
I0818 13:44:37.210140 22726 net.cpp:165] Memory required for data: 1232385500
I0818 13:44:37.210150 22726 layer_factory.hpp:77] Creating layer batchNorm_resblk32_8_b
I0818 13:44:37.210157 22726 net.cpp:100] Creating Layer batchNorm_resblk32_8_b
I0818 13:44:37.210165 22726 net.cpp:434] batchNorm_resblk32_8_b <- resblk32_8_b
I0818 13:44:37.210177 22726 net.cpp:408] batchNorm_resblk32_8_b -> bn_resblk32_8_b
I0818 13:44:37.210431 22726 net.cpp:150] Setting up batchNorm_resblk32_8_b
I0818 13:44:37.210444 22726 net.cpp:157] Top shape: 125 32 16 16 (1024000)
I0818 13:44:37.210449 22726 net.cpp:165] Memory required for data: 1236481500
I0818 13:44:37.210490 22726 layer_factory.hpp:77] Creating layer scale_resblk32_8_b
I0818 13:44:37.210505 22726 net.cpp:100] Creating Layer scale_resblk32_8_b
I0818 13:44:37.210512 22726 net.cpp:434] scale_resblk32_8_b <- bn_resblk32_8_b
I0818 13:44:37.210520 22726 net.cpp:395] scale_resblk32_8_b -> bn_resblk32_8_b (in-place)
I0818 13:44:37.210579 22726 layer_factory.hpp:77] Creating layer scale_resblk32_8_b
I0818 13:44:37.210727 22726 net.cpp:150] Setting up scale_resblk32_8_b
I0818 13:44:37.210739 22726 net.cpp:157] Top shape: 125 32 16 16 (1024000)
I0818 13:44:37.210744 22726 net.cpp:165] Memory required for data: 1240577500
I0818 13:44:37.210753 22726 layer_factory.hpp:77] Creating layer sum_sum_bn_resblk32_7_b
I0818 13:44:37.210764 22726 net.cpp:100] Creating Layer sum_sum_bn_resblk32_7_b
I0818 13:44:37.210772 22726 net.cpp:434] sum_sum_bn_resblk32_7_b <- sum_bn_resblk32_7_b_relu_sum_bn_resblk32_7_b_0_split_1
I0818 13:44:37.210778 22726 net.cpp:434] sum_sum_bn_resblk32_7_b <- bn_resblk32_8_b
I0818 13:44:37.210786 22726 net.cpp:408] sum_sum_bn_resblk32_7_b -> sum_bn_resblk32_8_b
I0818 13:44:37.210824 22726 net.cpp:150] Setting up sum_sum_bn_resblk32_7_b
I0818 13:44:37.210837 22726 net.cpp:157] Top shape: 125 32 16 16 (1024000)
I0818 13:44:37.210841 22726 net.cpp:165] Memory required for data: 1244673500
I0818 13:44:37.210847 22726 layer_factory.hpp:77] Creating layer relu_sum_bn_resblk32_8_b
I0818 13:44:37.210855 22726 net.cpp:100] Creating Layer relu_sum_bn_resblk32_8_b
I0818 13:44:37.210860 22726 net.cpp:434] relu_sum_bn_resblk32_8_b <- sum_bn_resblk32_8_b
I0818 13:44:37.210870 22726 net.cpp:395] relu_sum_bn_resblk32_8_b -> sum_bn_resblk32_8_b (in-place)
I0818 13:44:37.210880 22726 net.cpp:150] Setting up relu_sum_bn_resblk32_8_b
I0818 13:44:37.210887 22726 net.cpp:157] Top shape: 125 32 16 16 (1024000)
I0818 13:44:37.210891 22726 net.cpp:165] Memory required for data: 1248769500
I0818 13:44:37.210896 22726 layer_factory.hpp:77] Creating layer sum_bn_resblk32_8_b_relu_sum_bn_resblk32_8_b_0_split
I0818 13:44:37.210903 22726 net.cpp:100] Creating Layer sum_bn_resblk32_8_b_relu_sum_bn_resblk32_8_b_0_split
I0818 13:44:37.210908 22726 net.cpp:434] sum_bn_resblk32_8_b_relu_sum_bn_resblk32_8_b_0_split <- sum_bn_resblk32_8_b
I0818 13:44:37.210918 22726 net.cpp:408] sum_bn_resblk32_8_b_relu_sum_bn_resblk32_8_b_0_split -> sum_bn_resblk32_8_b_relu_sum_bn_resblk32_8_b_0_split_0
I0818 13:44:37.210928 22726 net.cpp:408] sum_bn_resblk32_8_b_relu_sum_bn_resblk32_8_b_0_split -> sum_bn_resblk32_8_b_relu_sum_bn_resblk32_8_b_0_split_1
I0818 13:44:37.210974 22726 net.cpp:150] Setting up sum_bn_resblk32_8_b_relu_sum_bn_resblk32_8_b_0_split
I0818 13:44:37.210985 22726 net.cpp:157] Top shape: 125 32 16 16 (1024000)
I0818 13:44:37.210992 22726 net.cpp:157] Top shape: 125 32 16 16 (1024000)
I0818 13:44:37.210996 22726 net.cpp:165] Memory required for data: 1256961500
I0818 13:44:37.211002 22726 layer_factory.hpp:77] Creating layer resblk64
I0818 13:44:37.211025 22726 net.cpp:100] Creating Layer resblk64
I0818 13:44:37.211033 22726 net.cpp:434] resblk64 <- sum_bn_resblk32_8_b_relu_sum_bn_resblk32_8_b_0_split_0
I0818 13:44:37.211042 22726 net.cpp:408] resblk64 -> resblk64
I0818 13:44:37.211519 22726 net.cpp:150] Setting up resblk64
I0818 13:44:37.211532 22726 net.cpp:157] Top shape: 125 32 8 8 (256000)
I0818 13:44:37.211537 22726 net.cpp:165] Memory required for data: 1257985500
I0818 13:44:37.211546 22726 layer_factory.hpp:77] Creating layer batchNorm_resblk64
I0818 13:44:37.211555 22726 net.cpp:100] Creating Layer batchNorm_resblk64
I0818 13:44:37.211560 22726 net.cpp:434] batchNorm_resblk64 <- resblk64
I0818 13:44:37.211572 22726 net.cpp:408] batchNorm_resblk64 -> bn_resblk64
I0818 13:44:37.211840 22726 net.cpp:150] Setting up batchNorm_resblk64
I0818 13:44:37.211854 22726 net.cpp:157] Top shape: 125 32 8 8 (256000)
I0818 13:44:37.211859 22726 net.cpp:165] Memory required for data: 1259009500
I0818 13:44:37.211869 22726 layer_factory.hpp:77] Creating layer scale_resblk64
I0818 13:44:37.211879 22726 net.cpp:100] Creating Layer scale_resblk64
I0818 13:44:37.211884 22726 net.cpp:434] scale_resblk64 <- bn_resblk64
I0818 13:44:37.211895 22726 net.cpp:395] scale_resblk64 -> bn_resblk64 (in-place)
I0818 13:44:37.211952 22726 layer_factory.hpp:77] Creating layer scale_resblk64
I0818 13:44:37.212174 22726 net.cpp:150] Setting up scale_resblk64
I0818 13:44:37.212195 22726 net.cpp:157] Top shape: 125 32 8 8 (256000)
I0818 13:44:37.212201 22726 net.cpp:165] Memory required for data: 1260033500
I0818 13:44:37.212211 22726 layer_factory.hpp:77] Creating layer relu_bn_resblk64
I0818 13:44:37.212219 22726 net.cpp:100] Creating Layer relu_bn_resblk64
I0818 13:44:37.212226 22726 net.cpp:434] relu_bn_resblk64 <- bn_resblk64
I0818 13:44:37.212236 22726 net.cpp:395] relu_bn_resblk64 -> bn_resblk64 (in-place)
I0818 13:44:37.212247 22726 net.cpp:150] Setting up relu_bn_resblk64
I0818 13:44:37.212255 22726 net.cpp:157] Top shape: 125 32 8 8 (256000)
I0818 13:44:37.212260 22726 net.cpp:165] Memory required for data: 1261057500
I0818 13:44:37.212263 22726 layer_factory.hpp:77] Creating layer resblk64_b
I0818 13:44:37.212277 22726 net.cpp:100] Creating Layer resblk64_b
I0818 13:44:37.212283 22726 net.cpp:434] resblk64_b <- bn_resblk64
I0818 13:44:37.212296 22726 net.cpp:408] resblk64_b -> resblk64_b
I0818 13:44:37.212774 22726 net.cpp:150] Setting up resblk64_b
I0818 13:44:37.212787 22726 net.cpp:157] Top shape: 125 32 8 8 (256000)
I0818 13:44:37.212792 22726 net.cpp:165] Memory required for data: 1262081500
I0818 13:44:37.212801 22726 layer_factory.hpp:77] Creating layer batchNorm_resblk64_b
I0818 13:44:37.212816 22726 net.cpp:100] Creating Layer batchNorm_resblk64_b
I0818 13:44:37.212823 22726 net.cpp:434] batchNorm_resblk64_b <- resblk64_b
I0818 13:44:37.212832 22726 net.cpp:408] batchNorm_resblk64_b -> bn_resblk64_b
I0818 13:44:37.213104 22726 net.cpp:150] Setting up batchNorm_resblk64_b
I0818 13:44:37.213116 22726 net.cpp:157] Top shape: 125 32 8 8 (256000)
I0818 13:44:37.213121 22726 net.cpp:165] Memory required for data: 1263105500
I0818 13:44:37.213131 22726 layer_factory.hpp:77] Creating layer scale_resblk64_b
I0818 13:44:37.213143 22726 net.cpp:100] Creating Layer scale_resblk64_b
I0818 13:44:37.213150 22726 net.cpp:434] scale_resblk64_b <- bn_resblk64_b
I0818 13:44:37.213160 22726 net.cpp:395] scale_resblk64_b -> bn_resblk64_b (in-place)
I0818 13:44:37.213215 22726 layer_factory.hpp:77] Creating layer scale_resblk64_b
I0818 13:44:37.213372 22726 net.cpp:150] Setting up scale_resblk64_b
I0818 13:44:37.213385 22726 net.cpp:157] Top shape: 125 32 8 8 (256000)
I0818 13:44:37.213390 22726 net.cpp:165] Memory required for data: 1264129500
I0818 13:44:37.213399 22726 layer_factory.hpp:77] Creating layer avePooling_resblk64
…
I0818 13:44:37.217206 22726 layer_factory.hpp:77] Creating layer batchNorm_resblk64_1
I0818 13:44:37.217216 22726 net.cpp:100] Creating Layer batchNorm_resblk64_1
I0818 13:44:37.217226 22726 net.cpp:434] batchNorm_resblk64_1 <- resblk64_1
I0818 13:44:37.217236 22726 net.cpp:408] batchNorm_resblk64_1 -> bn_resblk64_1
I0818 13:44:37.217496 22726 net.cpp:150] Setting up batchNorm_resblk64_1
I0818 13:44:37.217509 22726 net.cpp:157] Top shape: 125 64 8 8 (512000)
I0818 13:44:37.217514 22726 net.cpp:165] Memory required for data: 1278465500
I0818 13:44:37.217525 22726 layer_factory.hpp:77] Creating layer scale_resblk64_1
I0818 13:44:37.217535 22726 net.cpp:100] Creating Layer scale_resblk64_1
I0818 13:44:37.217540 22726 net.cpp:434] scale_resblk64_1 <- bn_resblk64_1
I0818 13:44:37.217551 22726 net.cpp:395] scale_resblk64_1 -> bn_resblk64_1 (in-place)
I0818 13:44:37.217609 22726 layer_factory.hpp:77] Creating layer scale_resblk64_1
I0818 13:44:37.217767 22726 net.cpp:150] Setting up scale_resblk64_1
I0818 13:44:37.217779 22726 net.cpp:157] Top shape: 125 64 8 8 (512000)
I0818 13:44:37.217783 22726 net.cpp:165] Memory required for data: 1280513500
I0818 13:44:37.217793 22726 layer_factory.hpp:77] Creating layer relu_bn_resblk64_1
I0818 13:44:37.217804 22726 net.cpp:100] Creating Layer relu_bn_resblk64_1
I0818 13:44:37.217816 22726 net.cpp:434] relu_bn_resblk64_1 <- bn_resblk64_1
I0818 13:44:37.217825 22726 net.cpp:395] relu_bn_resblk64_1 -> bn_resblk64_1 (in-place)
I0818 13:44:37.217835 22726 net.cpp:150] Setting up relu_bn_resblk64_1
I0818 13:44:37.217842 22726 net.cpp:157] Top shape: 125 64 8 8 (512000)
I0818 13:44:37.217846 22726 net.cpp:165] Memory required for data: 1282561500
I0818 13:44:37.217851 22726 layer_factory.hpp:77] Creating layer resblk64_1_b
I0818 13:44:37.217865 22726 net.cpp:100] Creating Layer resblk64_1_b
I0818 13:44:37.217871 22726 net.cpp:434] resblk64_1_b <- bn_resblk64_1
I0818 13:44:37.217883 22726 net.cpp:408] resblk64_1_b -> resblk64_1_b
I0818 13:44:37.218909 22726 net.cpp:150] Setting up resblk64_1_b
I0818 13:44:37.218924 22726 net.cpp:157] Top shape: 125 64 8 8 (512000)
I0818 13:44:37.218928 22726 net.cpp:165] Memory required for data: 1284609500
I0818 13:44:37.218937 22726 layer_factory.hpp:77] Creating layer batchNorm_resblk64_1_b
I0818 13:44:37.218945 22726 net.cpp:100] Creating Layer batchNorm_resblk64_1_b
I0818 13:44:37.218952 22726 net.cpp:434] batchNorm_resblk64_1_b <- resblk64_1_b
I0818 13:44:37.218963 22726 net.cpp:408] batchNorm_resblk64_1_b -> bn_resblk64_1_b
I0818 13:44:37.219230 22726 net.cpp:150] Setting up batchNorm_resblk64_1_b
I0818 13:44:37.219246 22726 net.cpp:157] Top shape: 125 64 8 8 (512000)
I0818 13:44:37.219251 22726 net.cpp:165] Memory required for data: 1286657500
I0818 13:44:37.219261 22726 layer_factory.hpp:77] Creating layer scale_resblk64_1_b
I0818 13:44:37.219270 22726 net.cpp:100] Creating Layer scale_resblk64_1_b
I0818 13:44:37.219276 22726 net.cpp:434] scale_resblk64_1_b <- bn_resblk64_1_b
I0818 13:44:37.219285 22726 net.cpp:395] scale_resblk64_1_b -> bn_resblk64_1_b (in-place)
I0818 13:44:37.219341 22726 layer_factory.hpp:77] Creating layer scale_resblk64_1_b
I0818 13:44:37.219496 22726 net.cpp:150] Setting up scale_resblk64_1_b
I0818 13:44:37.219507 22726 net.cpp:157] Top shape: 125 64 8 8 (512000)
I0818 13:44:37.219512 22726 net.cpp:165] Memory required for data: 1288705500
I0818 13:44:37.219521 22726 layer_factory.hpp:77] Creating layer sum_CC_sum_bn_resblk64_b
I0818 13:44:37.219533 22726 net.cpp:100] Creating Layer sum_CC_sum_bn_resblk64_b
I0818 13:44:37.219539 22726 net.cpp:434] sum_CC_sum_bn_resblk64_b <- CC_sum_bn_resblk64_b_CC_sum_bn_resblk64_b_0_split_1
I0818 13:44:37.219547 22726 net.cpp:434] sum_CC_sum_bn_resblk64_b <- bn_resblk64_1_b
I0818 13:44:37.219555 22726 net.cpp:408] sum_CC_sum_bn_resblk64_b -> sum_bn_resblk64_1_b
I0818 13:44:37.219593 22726 net.cpp:150] Setting up sum_CC_sum_bn_resblk64_b
I0818 13:44:37.219604 22726 net.cpp:157] Top shape: 125 64 8 8 (512000)
I0818 13:44:37.219609 22726 net.cpp:165] Memory required for data: 1290753500
I0818 13:44:37.219620 22726 layer_factory.hpp:77] Creating layer relu_sum_bn_resblk64_1_b
I0818 13:44:37.219629 22726 net.cpp:100] Creating Layer relu_sum_bn_resblk64_1_b
I0818 13:44:37.219635 22726 net.cpp:434] relu_sum_bn_resblk64_1_b <- sum_bn_resblk64_1_b
I0818 13:44:37.219641 22726 net.cpp:395] relu_sum_bn_resblk64_1_b -> sum_bn_resblk64_1_b (in-place)
I0818 13:44:37.219650 22726 net.cpp:150] Setting up relu_sum_bn_resblk64_1_b
I0818 13:44:37.219657 22726 net.cpp:157] Top shape: 125 64 8 8 (512000)
I0818 13:44:37.219661 22726 net.cpp:165] Memory required for data: 1292801500
I0818 13:44:37.219666 22726 layer_factory.hpp:77] Creating layer sum_bn_resblk64_1_b_relu_sum_bn_resblk64_1_b_0_split
I0818 13:44:37.219673 22726 net.cpp:100] Creating Layer sum_bn_resblk64_1_b_relu_sum_bn_resblk64_1_b_0_split
I0818 13:44:37.219678 22726 net.cpp:434] sum_bn_resblk64_1_b_relu_sum_bn_resblk64_1_b_0_split <- sum_bn_resblk64_1_b
I0818 13:44:37.219688 22726 net.cpp:408] sum_bn_resblk64_1_b_relu_sum_bn_resblk64_1_b_0_split -> sum_bn_resblk64_1_b_relu_sum_bn_resblk64_1_b_0_split_0
I0818 13:44:37.219698 22726 net.cpp:408] sum_bn_resblk64_1_b_relu_sum_bn_resblk64_1_b_0_split -> sum_bn_resblk64_1_b_relu_sum_bn_resblk64_1_b_0_split_1
I0818 13:44:37.219745 22726 net.cpp:150] Setting up sum_bn_resblk64_1_b_relu_sum_bn_resblk64_1_b_0_split
I0818 13:44:37.219756 22726 net.cpp:157] Top shape: 125 64 8 8 (512000)
I0818 13:44:37.219763 22726 net.cpp:157] Top shape: 125 64 8 8 (512000)
I0818 13:44:37.219768 22726 net.cpp:165] Memory required for data: 1296897500
I0818 13:44:37.219772 22726 layer_factory.hpp:77] Creating layer resblk64_2
I0818 13:44:37.219789 22726 net.cpp:100] Creating Layer resblk64_2
I0818 13:44:37.219795 22726 net.cpp:434] resblk64_2 <- sum_bn_resblk64_1_b_relu_sum_bn_resblk64_1_b_0_split_0
I0818 13:44:37.219805 22726 net.cpp:408] resblk64_2 -> resblk64_2
I0818 13:44:37.220841 22726 net.cpp:150] Setting up resblk64_2
I0818 13:44:37.220856 22726 net.cpp:157] Top shape: 125 64 8 8 (512000)
I0818 13:44:37.220861 22726 net.cpp:165] Memory required for data: 1298945500
I0818 13:44:37.220870 22726 layer_factory.hpp:77] Creating layer batchNorm_resblk64_2
I0818 13:44:37.220878 22726 net.cpp:100] Creating Layer batchNorm_resblk64_2
I0818 13:44:37.220885 22726 net.cpp:434] batchNorm_resblk64_2 <- resblk64_2
I0818 13:44:37.220896 22726 net.cpp:408] batchNorm_resblk64_2 -> bn_resblk64_2
I0818 13:44:37.221158 22726 net.cpp:150] Setting up batchNorm_resblk64_2
I0818 13:44:37.221171 22726 net.cpp:157] Top shape: 125 64 8 8 (512000)
I0818 13:44:37.221176 22726 net.cpp:165] Memory required for data: 1300993500
I0818 13:44:37.221186 22726 layer_factory.hpp:77] Creating layer scale_resblk64_2
I0818 13:44:37.221194 22726 net.cpp:100] Creating Layer scale_resblk64_2
I0818 13:44:37.221201 22726 net.cpp:434] scale_resblk64_2 <- bn_resblk64_2
I0818 13:44:37.221211 22726 net.cpp:395] scale_resblk64_2 -> bn_resblk64_2 (in-place)
I0818 13:44:37.221271 22726 layer_factory.hpp:77] Creating layer scale_resblk64_2
I0818 13:44:37.221426 22726 net.cpp:150] Setting up scale_resblk64_2
I0818 13:44:37.221439 22726 net.cpp:157] Top shape: 125 64 8 8 (512000)
I0818 13:44:37.221443 22726 net.cpp:165] Memory required for data: 1303041500
I0818 13:44:37.221452 22726 layer_factory.hpp:77] Creating layer relu_bn_resblk64_2
I0818 13:44:37.221463 22726 net.cpp:100] Creating Layer relu_bn_resblk64_2
I0818 13:44:37.221470 22726 net.cpp:434] relu_bn_resblk64_2 <- bn_resblk64_2
I0818 13:44:37.221477 22726 net.cpp:395] relu_bn_resblk64_2 -> bn_resblk64_2 (in-place)
I0818 13:44:37.221487 22726 net.cpp:150] Setting up relu_bn_resblk64_2
I0818 13:44:37.221493 22726 net.cpp:157] Top shape: 125 64 8 8 (512000)
I0818 13:44:37.221498 22726 net.cpp:165] Memory required for data: 1305089500
I0818 13:44:37.221503 22726 layer_factory.hpp:77] Creating layer resblk64_2_b
I0818 13:44:37.221516 22726 net.cpp:100] Creating Layer resblk64_2_b
I0818 13:44:37.221523 22726 net.cpp:434] resblk64_2_b <- bn_resblk64_2
I0818 13:44:37.221534 22726 net.cpp:408] resblk64_2_b -> resblk64_2_b
I0818 13:44:37.222563 22726 net.cpp:150] Setting up resblk64_2_b
I0818 13:44:37.222578 22726 net.cpp:157] Top shape: 125 64 8 8 (512000)
I0818 13:44:37.222582 22726 net.cpp:165] Memory required for data: 1307137500
I0818 13:44:37.222590 22726 layer_factory.hpp:77] Creating layer batchNorm_resblk64_2_b
I0818 13:44:37.222599 22726 net.cpp:100] Creating Layer batchNorm_resblk64_2_b
I0818 13:44:37.222605 22726 net.cpp:434] batchNorm_resblk64_2_b <- resblk64_2_b
I0818 13:44:37.222617 22726 net.cpp:408] batchNorm_resblk64_2_b -> bn_resblk64_2_b
I0818 13:44:37.222892 22726 net.cpp:150] Setting up batchNorm_resblk64_2_b
I0818 13:44:37.222908 22726 net.cpp:157] Top shape: 125 64 8 8 (512000)
I0818 13:44:37.222913 22726 net.cpp:165] Memory required for data: 1309185500
I0818 13:44:37.222924 22726 layer_factory.hpp:77] Creating layer scale_resblk64_2_b
I0818 13:44:37.222934 22726 net.cpp:100] Creating Layer scale_resblk64_2_b
I0818 13:44:37.222939 22726 net.cpp:434] scale_resblk64_2_b <- bn_resblk64_2_b
I0818 13:44:37.222947 22726 net.cpp:395] scale_resblk64_2_b -> bn_resblk64_2_b (in-place)
I0818 13:44:37.223004 22726 layer_factory.hpp:77] Creating layer scale_resblk64_2_b
I0818 13:44:37.223165 22726 net.cpp:150] Setting up scale_resblk64_2_b
I0818 13:44:37.223177 22726 net.cpp:157] Top shape: 125 64 8 8 (512000)
I0818 13:44:37.223181 22726 net.cpp:165] Memory required for data: 1311233500
I0818 13:44:37.223191 22726 layer_factory.hpp:77] Creating layer sum_sum_bn_resblk64_1_b
I0818 13:44:37.223203 22726 net.cpp:100] Creating Layer sum_sum_bn_resblk64_1_b
I0818 13:44:37.223211 22726 net.cpp:434] sum_sum_bn_resblk64_1_b <- sum_bn_resblk64_1_b_relu_sum_bn_resblk64_1_b_0_split_1
I0818 13:44:37.223218 22726 net.cpp:434] sum_sum_bn_resblk64_1_b <- bn_resblk64_2_b
I0818 13:44:37.223227 22726 net.cpp:408] sum_sum_bn_resblk64_1_b -> sum_bn_resblk64_2_b
I0818 13:44:37.223263 22726 net.cpp:150] Setting up sum_sum_bn_resblk64_1_b
I0818 13:44:37.223274 22726 net.cpp:157] Top shape: 125 64 8 8 (512000)
I0818 13:44:37.223278 22726 net.cpp:165] Memory required for data: 1313281500
I0818 13:44:37.223284 22726 layer_factory.hpp:77] Creating layer relu_sum_bn_resblk64_2_b
I0818 13:44:37.223291 22726 net.cpp:100] Creating Layer relu_sum_bn_resblk64_2_b
I0818 13:44:37.223297 22726 net.cpp:434] relu_sum_bn_resblk64_2_b <- sum_bn_resblk64_2_b
I0818 13:44:37.223304 22726 net.cpp:395] relu_sum_bn_resblk64_2_b -> sum_bn_resblk64_2_b (in-place)
I0818 13:44:37.223314 22726 net.cpp:150] Setting up relu_sum_bn_resblk64_2_b
I0818 13:44:37.223320 22726 net.cpp:157] Top shape: 125 64 8 8 (512000)
I0818 13:44:37.223325 22726 net.cpp:165] Memory required for data: 1315329500
I0818 13:44:37.223330 22726 layer_factory.hpp:77] Creating layer sum_bn_resblk64_2_b_relu_sum_bn_resblk64_2_b_0_split
I0818 13:44:37.223335 22726 net.cpp:100] Creating Layer sum_bn_resblk64_2_b_relu_sum_bn_resblk64_2_b_0_split
I0818 13:44:37.223341 22726 net.cpp:434] sum_bn_resblk64_2_b_relu_sum_bn_resblk64_2_b_0_split <- sum_bn_resblk64_2_b
I0818 13:44:37.223351 22726 net.cpp:408] sum_bn_resblk64_2_b_relu_sum_bn_resblk64_2_b_0_split -> sum_bn_resblk64_2_b_relu_sum_bn_resblk64_2_b_0_split_0
I0818 13:44:37.223361 22726 net.cpp:408] sum_bn_resblk64_2_b_relu_sum_bn_resblk64_2_b_0_split -> sum_bn_resblk64_2_b_relu_sum_bn_resblk64_2_b_0_split_1
I0818 13:44:37.223407 22726 net.cpp:150] Setting up sum_bn_resblk64_2_b_relu_sum_bn_resblk64_2_b_0_split
I0818 13:44:37.223418 22726 net.cpp:157] Top shape: 125 64 8 8 (512000)
I0818 13:44:37.223425 22726 net.cpp:157] Top shape: 125 64 8 8 (512000)
I0818 13:44:37.223429 22726 net.cpp:165] Memory required for data: 1319425500
I0818 13:44:37.223434 22726 layer_factory.hpp:77] Creating layer resblk64_3
I0818 13:44:37.223448 22726 net.cpp:100] Creating Layer resblk64_3
I0818 13:44:37.223455 22726 net.cpp:434] resblk64_3 <- sum_bn_resblk64_2_b_relu_sum_bn_resblk64_2_b_0_split_0
I0818 13:44:37.223464 22726 net.cpp:408] resblk64_3 -> resblk64_3
I0818 13:44:37.224485 22726 net.cpp:150] Setting up resblk64_3
I0818 13:44:37.224500 22726 net.cpp:157] Top shape: 125 64 8 8 (512000)
I0818 13:44:37.224511 22726 net.cpp:165] Memory required for data: 1321473500
I0818 13:44:37.224521 22726 layer_factory.hpp:77] Creating layer batchNorm_resblk64_3
I0818 13:44:37.224529 22726 net.cpp:100] Creating Layer batchNorm_resblk64_3
I0818 13:44:37.224536 22726 net.cpp:434] batchNorm_resblk64_3 <- resblk64_3
I0818 13:44:37.224547 22726 net.cpp:408] batchNorm_resblk64_3 -> bn_resblk64_3
I0818 13:44:37.224824 22726 net.cpp:150] Setting up batchNorm_resblk64_3
I0818 13:44:37.224838 22726 net.cpp:157] Top shape: 125 64 8 8 (512000)
I0818 13:44:37.224843 22726 net.cpp:165] Memory required for data: 1323521500
I0818 13:44:37.224853 22726 layer_factory.hpp:77] Creating layer scale_resblk64_3
I0818 13:44:37.224861 22726 net.cpp:100] Creating Layer scale_resblk64_3
I0818 13:44:37.224867 22726 net.cpp:434] scale_resblk64_3 <- bn_resblk64_3
I0818 13:44:37.224879 22726 net.cpp:395] scale_resblk64_3 -> bn_resblk64_3 (in-place)
I0818 13:44:37.224936 22726 layer_factory.hpp:77] Creating layer scale_resblk64_3
I0818 13:44:37.225097 22726 net.cpp:150] Setting up scale_resblk64_3
I0818 13:44:37.225111 22726 net.cpp:157] Top shape: 125 64 8 8 (512000)
I0818 13:44:37.225114 22726 net.cpp:165] Memory required for data: 1325569500
I0818 13:44:37.225123 22726 layer_factory.hpp:77] Creating layer relu_bn_resblk64_3
I0818 13:44:37.225136 22726 net.cpp:100] Creating Layer relu_bn_resblk64_3
I0818 13:44:37.225142 22726 net.cpp:434] relu_bn_resblk64_3 <- bn_resblk64_3
I0818 13:44:37.225148 22726 net.cpp:395] relu_bn_resblk64_3 -> bn_resblk64_3 (in-place)
I0818 13:44:37.225158 22726 net.cpp:150] Setting up relu_bn_resblk64_3
I0818 13:44:37.225165 22726 net.cpp:157] Top shape: 125 64 8 8 (512000)
I0818 13:44:37.225169 22726 net.cpp:165] Memory required for data: 1327617500
I0818 13:44:37.225174 22726 layer_factory.hpp:77] Creating layer resblk64_3_b
I0818 13:44:37.225188 22726 net.cpp:100] Creating Layer resblk64_3_b
I0818 13:44:37.225194 22726 net.cpp:434] resblk64_3_b <- bn_resblk64_3
I0818 13:44:37.225205 22726 net.cpp:408] resblk64_3_b -> resblk64_3_b
I0818 13:44:37.226239 22726 net.cpp:150] Setting up resblk64_3_b
I0818 13:44:37.226254 22726 net.cpp:157] Top shape: 125 64 8 8 (512000)
I0818 13:44:37.226259 22726 net.cpp:165] Memory required for data: 1329665500
I0818 13:44:37.226269 22726 layer_factory.hpp:77] Creating layer batchNorm_resblk64_3_b
I0818 13:44:37.226277 22726 net.cpp:100] Creating Layer batchNorm_resblk64_3_b
I0818 13:44:37.226284 22726 net.cpp:434] batchNorm_resblk64_3_b <- resblk64_3_b
I0818 13:44:37.226292 22726 net.cpp:408] batchNorm_resblk64_3_b -> bn_resblk64_3_b
I0818 13:44:37.226564 22726 net.cpp:150] Setting up batchNorm_resblk64_3_b
I0818 13:44:37.226577 22726 net.cpp:157] Top shape: 125 64 8 8 (512000)
I0818 13:44:37.226583 22726 net.cpp:165] Memory required for data: 1331713500
I0818 13:44:37.226593 22726 layer_factory.hpp:77] Creating layer scale_resblk64_3_b
I0818 13:44:37.226604 22726 net.cpp:100] Creating Layer scale_resblk64_3_b
I0818 13:44:37.226611 22726 net.cpp:434] scale_resblk64_3_b <- bn_resblk64_3_b
I0818 13:44:37.226621 22726 net.cpp:395] scale_resblk64_3_b -> bn_resblk64_3_b (in-place)
I0818 13:44:37.226680 22726 layer_factory.hpp:77] Creating layer scale_resblk64_3_b
I0818 13:44:37.226850 22726 net.cpp:150] Setting up scale_resblk64_3_b
I0818 13:44:37.226863 22726 net.cpp:157] Top shape: 125 64 8 8 (512000)
I0818 13:44:37.226868 22726 net.cpp:165] Memory required for data: 1333761500
I0818 13:44:37.226878 22726 layer_factory.hpp:77] Creating layer sum_sum_bn_resblk64_2_b
I0818 13:44:37.226887 22726 net.cpp:100] Creating Layer sum_sum_bn_resblk64_2_b
I0818 13:44:37.226897 22726 net.cpp:434] sum_sum_bn_resblk64_2_b <- sum_bn_resblk64_2_b_relu_sum_bn_resblk64_2_b_0_split_1
I0818 13:44:37.226904 22726 net.cpp:434] sum_sum_bn_resblk64_2_b <- bn_resblk64_3_b
I0818 13:44:37.226912 22726 net.cpp:408] sum_sum_bn_resblk64_2_b -> sum_bn_resblk64_3_b
I0818 13:44:37.226948 22726 net.cpp:150] Setting up sum_sum_bn_resblk64_2_b
I0818 13:44:37.226956 22726 net.cpp:157] Top shape: 125 64 8 8 (512000)
I0818 13:44:37.226968 22726 net.cpp:165] Memory required for data: 1335809500
I0818 13:44:37.226974 22726 layer_factory.hpp:77] Creating layer relu_sum_bn_resblk64_3_b
I0818 13:44:37.226984 22726 net.cpp:100] Creating Layer relu_sum_bn_resblk64_3_b
I0818 13:44:37.226989 22726 net.cpp:434] relu_sum_bn_resblk64_3_b <- sum_bn_resblk64_3_b
I0818 13:44:37.226997 22726 net.cpp:395] relu_sum_bn_resblk64_3_b -> sum_bn_resblk64_3_b (in-place)
I0818 13:44:37.227006 22726 net.cpp:150] Setting up relu_sum_bn_resblk64_3_b
I0818 13:44:37.227013 22726 net.cpp:157] Top shape: 125 64 8 8 (512000)
I0818 13:44:37.227018 22726 net.cpp:165] Memory required for data: 1337857500
I0818 13:44:37.227023 22726 layer_factory.hpp:77] Creating layer sum_bn_resblk64_3_b_relu_sum_bn_resblk64_3_b_0_split
I0818 13:44:37.227030 22726 net.cpp:100] Creating Layer sum_bn_resblk64_3_b_relu_sum_bn_resblk64_3_b_0_split
I0818 13:44:37.227035 22726 net.cpp:434] sum_bn_resblk64_3_b_relu_sum_bn_resblk64_3_b_0_split <- sum_bn_resblk64_3_b
I0818 13:44:37.227042 22726 net.cpp:408] sum_bn_resblk64_3_b_relu_sum_bn_resblk64_3_b_0_split -> sum_bn_resblk64_3_b_relu_sum_bn_resblk64_3_b_0_split_0
I0818 13:44:37.227051 22726 net.cpp:408] sum_bn_resblk64_3_b_relu_sum_bn_resblk64_3_b_0_split -> sum_bn_resblk64_3_b_relu_sum_bn_resblk64_3_b_0_split_1
I0818 13:44:37.227102 22726 net.cpp:150] Setting up sum_bn_resblk64_3_b_relu_sum_bn_resblk64_3_b_0_split
I0818 13:44:37.227114 22726 net.cpp:157] Top shape: 125 64 8 8 (512000)
I0818 13:44:37.227120 22726 net.cpp:157] Top shape: 125 64 8 8 (512000)
I0818 13:44:37.227125 22726 net.cpp:165] Memory required for data: 1341953500
I0818 13:44:37.227130 22726 layer_factory.hpp:77] Creating layer resblk64_4
I0818 13:44:37.227144 22726 net.cpp:100] Creating Layer resblk64_4
I0818 13:44:37.227150 22726 net.cpp:434] resblk64_4 <- sum_bn_resblk64_3_b_relu_sum_bn_resblk64_3_b_0_split_0
I0818 13:44:37.227160 22726 net.cpp:408] resblk64_4 -> resblk64_4
I0818 13:44:37.228193 22726 net.cpp:150] Setting up resblk64_4
I0818 13:44:37.228207 22726 net.cpp:157] Top shape: 125 64 8 8 (512000)
I0818 13:44:37.228211 22726 net.cpp:165] Memory required for data: 1344001500
I0818 13:44:37.228220 22726 layer_factory.hpp:77] Creating layer batchNorm_resblk64_4
I0818 13:44:37.228235 22726 net.cpp:100] Creating Layer batchNorm_resblk64_4
I0818 13:44:37.228241 22726 net.cpp:434] batchNorm_resblk64_4 <- resblk64_4
I0818 13:44:37.228252 22726 net.cpp:408] batchNorm_resblk64_4 -> bn_resblk64_4
I0818 13:44:37.229522 22726 net.cpp:150] Setting up batchNorm_resblk64_4
I0818 13:44:37.229539 22726 net.cpp:157] Top shape: 125 64 8 8 (512000)
I0818 13:44:37.229544 22726 net.cpp:165] Memory required for data: 1346049500
I0818 13:44:37.229557 22726 layer_factory.hpp:77] Creating layer scale_resblk64_4
I0818 13:44:37.229569 22726 net.cpp:100] Creating Layer scale_resblk64_4
I0818 13:44:37.229575 22726 net.cpp:434] scale_resblk64_4 <- bn_resblk64_4
I0818 13:44:37.229586 22726 net.cpp:395] scale_resblk64_4 -> bn_resblk64_4 (in-place)
I0818 13:44:37.229647 22726 layer_factory.hpp:77] Creating layer scale_resblk64_4
I0818 13:44:37.229816 22726 net.cpp:150] Setting up scale_resblk64_4
I0818 13:44:37.229830 22726 net.cpp:157] Top shape: 125 64 8 8 (512000)
I0818 13:44:37.229835 22726 net.cpp:165] Memory required for data: 1348097500
I0818 13:44:37.229845 22726 layer_factory.hpp:77] Creating layer relu_bn_resblk64_4
I0818 13:44:37.229852 22726 net.cpp:100] Creating Layer relu_bn_resblk64_4
I0818 13:44:37.229858 22726 net.cpp:434] relu_bn_resblk64_4 <- bn_resblk64_4
I0818 13:44:37.229869 22726 net.cpp:395] relu_bn_resblk64_4 -> bn_resblk64_4 (in-place)
I0818 13:44:37.229879 22726 net.cpp:150] Setting up relu_bn_resblk64_4
I0818 13:44:37.229887 22726 net.cpp:157] Top shape: 125 64 8 8 (512000)
I0818 13:44:37.229890 22726 net.cpp:165] Memory required for data: 1350145500
I0818 13:44:37.229895 22726 layer_factory.hpp:77] Creating layer resblk64_4_b
I0818 13:44:37.229909 22726 net.cpp:100] Creating Layer resblk64_4_b
I0818 13:44:37.229915 22726 net.cpp:434] resblk64_4_b <- bn_resblk64_4
I0818 13:44:37.229933 22726 net.cpp:408] resblk64_4_b -> resblk64_4_b
I0818 13:44:37.231948 22726 net.cpp:150] Setting up resblk64_4_b
I0818 13:44:37.231966 22726 net.cpp:157] Top shape: 125 64 8 8 (512000)
I0818 13:44:37.231971 22726 net.cpp:165] Memory required for data: 1352193500
I0818 13:44:37.231981 22726 layer_factory.hpp:77] Creating layer batchNorm_resblk64_4_b
I0818 13:44:37.231993 22726 net.cpp:100] Creating Layer batchNorm_resblk64_4_b
I0818 13:44:37.232000 22726 net.cpp:434] batchNorm_resblk64_4_b <- resblk64_4_b
I0818 13:44:37.232009 22726 net.cpp:408] batchNorm_resblk64_4_b -> bn_resblk64_4_b
I0818 13:44:37.232271 22726 net.cpp:150] Setting up batchNorm_resblk64_4_b
I0818 13:44:37.232285 22726 net.cpp:157] Top shape: 125 64 8 8 (512000)
I0818 13:44:37.232290 22726 net.cpp:165] Memory required for data: 1354241500
I0818 13:44:37.232300 22726 layer_factory.hpp:77] Creating layer scale_resblk64_4_b
I0818 13:44:37.232311 22726 net.cpp:100] Creating Layer scale_resblk64_4_b
I0818 13:44:37.232317 22726 net.cpp:434] scale_resblk64_4_b <- bn_resblk64_4_b
I0818 13:44:37.232328 22726 net.cpp:395] scale_resblk64_4_b -> bn_resblk64_4_b (in-place)
I0818 13:44:37.232403 22726 layer_factory.hpp:77] Creating layer scale_resblk64_4_b
I0818 13:44:37.232568 22726 net.cpp:150] Setting up scale_resblk64_4_b
I0818 13:44:37.232581 22726 net.cpp:157] Top shape: 125 64 8 8 (512000)
I0818 13:44:37.232586 22726 net.cpp:165] Memory required for data: 1356289500
I0818 13:44:37.232595 22726 layer_factory.hpp:77] Creating layer sum_sum_bn_resblk64_3_b
I0818 13:44:37.232605 22726 net.cpp:100] Creating Layer sum_sum_bn_resblk64_3_b
I0818 13:44:37.232611 22726 net.cpp:434] sum_sum_bn_resblk64_3_b <- sum_bn_resblk64_3_b_relu_sum_bn_resblk64_3_b_0_split_1
I0818 13:44:37.232620 22726 net.cpp:434] sum_sum_bn_resblk64_3_b <- bn_resblk64_4_b
I0818 13:44:37.232630 22726 net.cpp:408] sum_sum_bn_resblk64_3_b -> sum_bn_resblk64_4_b
I0818 13:44:37.232666 22726 net.cpp:150] Setting up sum_sum_bn_resblk64_3_b
I0818 13:44:37.232676 22726 net.cpp:157] Top shape: 125 64 8 8 (512000)
I0818 13:44:37.232681 22726 net.cpp:165] Memory required for data: 1358337500
I0818 13:44:37.232686 22726 layer_factory.hpp:77] Creating layer relu_sum_bn_resblk64_4_b
I0818 13:44:37.232697 22726 net.cpp:100] Creating Layer relu_sum_bn_resblk64_4_b
I0818 13:44:37.232703 22726 net.cpp:434] relu_sum_bn_resblk64_4_b <- sum_bn_resblk64_4_b
I0818 13:44:37.232710 22726 net.cpp:395] relu_sum_bn_resblk64_4_b -> sum_bn_resblk64_4_b (in-place)
I0818 13:44:37.232720 22726 net.cpp:150] Setting up relu_sum_bn_resblk64_4_b
I0818 13:44:37.232728 22726 net.cpp:157] Top shape: 125 64 8 8 (512000)
I0818 13:44:37.232731 22726 net.cpp:165] Memory required for data: 1360385500
I0818 13:44:37.232736 22726 layer_factory.hpp:77] Creating layer sum_bn_resblk64_4_b_relu_sum_bn_resblk64_4_b_0_split
I0818 13:44:37.232743 22726 net.cpp:100] Creating Layer sum_bn_resblk64_4_b_relu_sum_bn_resblk64_4_b_0_split
I0818 13:44:37.232748 22726 net.cpp:434] sum_bn_resblk64_4_b_relu_sum_bn_resblk64_4_b_0_split <- sum_bn_resblk64_4_b
I0818 13:44:37.232755 22726 net.cpp:408] sum_bn_resblk64_4_b_relu_sum_bn_resblk64_4_b_0_split -> sum_bn_resblk64_4_b_relu_sum_bn_resblk64_4_b_0_split_0
I0818 13:44:37.232765 22726 net.cpp:408] sum_bn_resblk64_4_b_relu_sum_bn_resblk64_4_b_0_split -> sum_bn_resblk64_4_b_relu_sum_bn_resblk64_4_b_0_split_1
I0818 13:44:37.232820 22726 net.cpp:150] Setting up sum_bn_resblk64_4_b_relu_sum_bn_resblk64_4_b_0_split
I0818 13:44:37.232833 22726 net.cpp:157] Top shape: 125 64 8 8 (512000)
I0818 13:44:37.232839 22726 net.cpp:157] Top shape: 125 64 8 8 (512000)
I0818 13:44:37.232844 22726 net.cpp:165] Memory required for data: 1364481500
I0818 13:44:37.232849 22726 layer_factory.hpp:77] Creating layer resblk64_5
I0818 13:44:37.232863 22726 net.cpp:100] Creating Layer resblk64_5
I0818 13:44:37.232869 22726 net.cpp:434] resblk64_5 <- sum_bn_resblk64_4_b_relu_sum_bn_resblk64_4_b_0_split_0
I0818 13:44:37.232879 22726 net.cpp:408] resblk64_5 -> resblk64_5
I0818 13:44:37.233894 22726 net.cpp:150] Setting up resblk64_5
I0818 13:44:37.233916 22726 net.cpp:157] Top shape: 125 64 8 8 (512000)
I0818 13:44:37.233922 22726 net.cpp:165] Memory required for data: 1366529500
I0818 13:44:37.233932 22726 layer_factory.hpp:77] Creating layer batchNorm_resblk64_5
I0818 13:44:37.233943 22726 net.cpp:100] Creating Layer batchNorm_resblk64_5
I0818 13:44:37.233949 22726 net.cpp:434] batchNorm_resblk64_5 <- resblk64_5
I0818 13:44:37.233963 22726 net.cpp:408] batchNorm_resblk64_5 -> bn_resblk64_5
I0818 13:44:37.234225 22726 net.cpp:150] Setting up batchNorm_resblk64_5
I0818 13:44:37.234237 22726 net.cpp:157] Top shape: 125 64 8 8 (512000)
I0818 13:44:37.234242 22726 net.cpp:165] Memory required for data: 1368577500
I0818 13:44:37.234252 22726 layer_factory.hpp:77] Creating layer scale_resblk64_5
I0818 13:44:37.234261 22726 net.cpp:100] Creating Layer scale_resblk64_5
I0818 13:44:37.234267 22726 net.cpp:434] scale_resblk64_5 <- bn_resblk64_5
I0818 13:44:37.234278 22726 net.cpp:395] scale_resblk64_5 -> bn_resblk64_5 (in-place)
I0818 13:44:37.234336 22726 layer_factory.hpp:77] Creating layer scale_resblk64_5
I0818 13:44:37.234493 22726 net.cpp:150] Setting up scale_resblk64_5
I0818 13:44:37.234505 22726 net.cpp:157] Top shape: 125 64 8 8 (512000)
I0818 13:44:37.234509 22726 net.cpp:165] Memory required for data: 1370625500
I0818 13:44:37.234519 22726 layer_factory.hpp:77] Creating layer relu_bn_resblk64_5
I0818 13:44:37.234526 22726 net.cpp:100] Creating Layer relu_bn_resblk64_5
I0818 13:44:37.234534 22726 net.cpp:434] relu_bn_resblk64_5 <- bn_resblk64_5
I0818 13:44:37.234544 22726 net.cpp:395] relu_bn_resblk64_5 -> bn_resblk64_5 (in-place)
I0818 13:44:37.234555 22726 net.cpp:150] Setting up relu_bn_resblk64_5
I0818 13:44:37.234562 22726 net.cpp:157] Top shape: 125 64 8 8 (512000)
I0818 13:44:37.234566 22726 net.cpp:165] Memory required for data: 1372673500
I0818 13:44:37.234571 22726 layer_factory.hpp:77] Creating layer resblk64_5_b
I0818 13:44:37.234586 22726 net.cpp:100] Creating Layer resblk64_5_b
I0818 13:44:37.234591 22726 net.cpp:434] resblk64_5_b <- bn_resblk64_5
I0818 13:44:37.234601 22726 net.cpp:408] resblk64_5_b -> resblk64_5_b
I0818 13:44:37.235616 22726 net.cpp:150] Setting up resblk64_5_b
I0818 13:44:37.235631 22726 net.cpp:157] Top shape: 125 64 8 8 (512000)
I0818 13:44:37.235636 22726 net.cpp:165] Memory required for data: 1374721500
I0818 13:44:37.235646 22726 layer_factory.hpp:77] Creating layer batchNorm_resblk64_5_b
I0818 13:44:37.235656 22726 net.cpp:100] Creating Layer batchNorm_resblk64_5_b
I0818 13:44:37.235663 22726 net.cpp:434] batchNorm_resblk64_5_b <- resblk64_5_b
I0818 13:44:37.235671 22726 net.cpp:408] batchNorm_resblk64_5_b -> bn_resblk64_5_b
I0818 13:44:37.235942 22726 net.cpp:150] Setting up batchNorm_resblk64_5_b
I0818 13:44:37.235956 22726 net.cpp:157] Top shape: 125 64 8 8 (512000)
I0818 13:44:37.235961 22726 net.cpp:165] Memory required for data: 1376769500
I0818 13:44:37.235971 22726 layer_factory.hpp:77] Creating layer scale_resblk64_5_b
I0818 13:44:37.235985 22726 net.cpp:100] Creating Layer scale_resblk64_5_b
I0818 13:44:37.235992 22726 net.cpp:434] scale_resblk64_5_b <- bn_resblk64_5_b
I0818 13:44:37.235999 22726 net.cpp:395] scale_resblk64_5_b -> bn_resblk64_5_b (in-place)
I0818 13:44:37.236060 22726 layer_factory.hpp:77] Creating layer scale_resblk64_5_b
I0818 13:44:37.236219 22726 net.cpp:150] Setting up scale_resblk64_5_b
I0818 13:44:37.236232 22726 net.cpp:157] Top shape: 125 64 8 8 (512000)
I0818 13:44:37.236238 22726 net.cpp:165] Memory required for data: 1378817500
I0818 13:44:37.236245 22726 layer_factory.hpp:77] Creating layer sum_sum_bn_resblk64_4_b
I0818 13:44:37.236254 22726 net.cpp:100] Creating Layer sum_sum_bn_resblk64_4_b
I0818 13:44:37.236261 22726 net.cpp:434] sum_sum_bn_resblk64_4_b <- sum_bn_resblk64_4_b_relu_sum_bn_resblk64_4_b_0_split_1
I0818 13:44:37.236268 22726 net.cpp:434] sum_sum_bn_resblk64_4_b <- bn_resblk64_5_b
I0818 13:44:37.236279 22726 net.cpp:408] sum_sum_bn_resblk64_4_b -> sum_bn_resblk64_5_b
I0818 13:44:37.236313 22726 net.cpp:150] Setting up sum_sum_bn_resblk64_4_b
I0818 13:44:37.236330 22726 net.cpp:157] Top shape: 125 64 8 8 (512000)
I0818 13:44:37.236333 22726 net.cpp:165] Memory required for data: 1380865500
I0818 13:44:37.236340 22726 layer_factory.hpp:77] Creating layer relu_sum_bn_resblk64_5_b
I0818 13:44:37.236351 22726 net.cpp:100] Creating Layer relu_sum_bn_resblk64_5_b
I0818 13:44:37.236356 22726 net.cpp:434] relu_sum_bn_resblk64_5_b <- sum_bn_resblk64_5_b
I0818 13:44:37.236363 22726 net.cpp:395] relu_sum_bn_resblk64_5_b -> sum_bn_resblk64_5_b (in-place)
I0818 13:44:37.236373 22726 net.cpp:150] Setting up relu_sum_bn_resblk64_5_b
I0818 13:44:37.236380 22726 net.cpp:157] Top shape: 125 64 8 8 (512000)
I0818 13:44:37.236384 22726 net.cpp:165] Memory required for data: 1382913500
I0818 13:44:37.236389 22726 layer_factory.hpp:77] Creating layer sum_bn_resblk64_5_b_relu_sum_bn_resblk64_5_b_0_split
I0818 13:44:37.236397 22726 net.cpp:100] Creating Layer sum_bn_resblk64_5_b_relu_sum_bn_resblk64_5_b_0_split
I0818 13:44:37.236402 22726 net.cpp:434] sum_bn_resblk64_5_b_relu_sum_bn_resblk64_5_b_0_split <- sum_bn_resblk64_5_b
I0818 13:44:37.236409 22726 net.cpp:408] sum_bn_resblk64_5_b_relu_sum_bn_resblk64_5_b_0_split -> sum_bn_resblk64_5_b_relu_sum_bn_resblk64_5_b_0_split_0
I0818 13:44:37.236419 22726 net.cpp:408] sum_bn_resblk64_5_b_relu_sum_bn_resblk64_5_b_0_split -> sum_bn_resblk64_5_b_relu_sum_bn_resblk64_5_b_0_split_1
I0818 13:44:37.236469 22726 net.cpp:150] Setting up sum_bn_resblk64_5_b_relu_sum_bn_resblk64_5_b_0_split
I0818 13:44:37.236479 22726 net.cpp:157] Top shape: 125 64 8 8 (512000)
I0818 13:44:37.236486 22726 net.cpp:157] Top shape: 125 64 8 8 (512000)
I0818 13:44:37.236490 22726 net.cpp:165] Memory required for data: 1387009500
I0818 13:44:37.236495 22726 layer_factory.hpp:77] Creating layer resblk64_6
I0818 13:44:37.236510 22726 net.cpp:100] Creating Layer resblk64_6
I0818 13:44:37.236516 22726 net.cpp:434] resblk64_6 <- sum_bn_resblk64_5_b_relu_sum_bn_resblk64_5_b_0_split_0
I0818 13:44:37.236526 22726 net.cpp:408] resblk64_6 -> resblk64_6
I0818 13:44:37.237540 22726 net.cpp:150] Setting up resblk64_6
I0818 13:44:37.237553 22726 net.cpp:157] Top shape: 125 64 8 8 (512000)
I0818 13:44:37.237558 22726 net.cpp:165] Memory required for data: 1389057500
I0818 13:44:37.237567 22726 layer_factory.hpp:77] Creating layer batchNorm_resblk64_6
I0818 13:44:37.237578 22726 net.cpp:100] Creating Layer batchNorm_resblk64_6
I0818 13:44:37.237586 22726 net.cpp:434] batchNorm_resblk64_6 <- resblk64_6
I0818 13:44:37.237596 22726 net.cpp:408] batchNorm_resblk64_6 -> bn_resblk64_6
I0818 13:44:37.237866 22726 net.cpp:150] Setting up batchNorm_resblk64_6
I0818 13:44:37.237879 22726 net.cpp:157] Top shape: 125 64 8 8 (512000)
I0818 13:44:37.237884 22726 net.cpp:165] Memory required for data: 1391105500
I0818 13:44:37.237895 22726 layer_factory.hpp:77] Creating layer scale_resblk64_6
I0818 13:44:37.237903 22726 net.cpp:100] Creating Layer scale_resblk64_6
I0818 13:44:37.237910 22726 net.cpp:434] scale_resblk64_6 <- bn_resblk64_6
I0818 13:44:37.237920 22726 net.cpp:395] scale_resblk64_6 -> bn_resblk64_6 (in-place)
I0818 13:44:37.237978 22726 layer_factory.hpp:77] Creating layer scale_resblk64_6
I0818 13:44:37.238134 22726 net.cpp:150] Setting up scale_resblk64_6
I0818 13:44:37.238147 22726 net.cpp:157] Top shape: 125 64 8 8 (512000)
I0818 13:44:37.238152 22726 net.cpp:165] Memory required for data: 1393153500
I0818 13:44:37.238160 22726 layer_factory.hpp:77] Creating layer relu_bn_resblk64_6
I0818 13:44:37.238194 22726 net.cpp:100] Creating Layer relu_bn_resblk64_6
I0818 13:44:37.238204 22726 net.cpp:434] relu_bn_resblk64_6 <- bn_resblk64_6
I0818 13:44:37.238211 22726 net.cpp:395] relu_bn_resblk64_6 -> bn_resblk64_6 (in-place)
I0818 13:44:37.238221 22726 net.cpp:150] Setting up relu_bn_resblk64_6
I0818 13:44:37.238229 22726 net.cpp:157] Top shape: 125 64 8 8 (512000)
I0818 13:44:37.238232 22726 net.cpp:165] Memory required for data: 1395201500
I0818 13:44:37.238239 22726 layer_factory.hpp:77] Creating layer resblk64_6_b
I0818 13:44:37.238253 22726 net.cpp:100] Creating Layer resblk64_6_b
I0818 13:44:37.238265 22726 net.cpp:434] resblk64_6_b <- bn_resblk64_6
I0818 13:44:37.238276 22726 net.cpp:408] resblk64_6_b -> resblk64_6_b
I0818 13:44:37.239306 22726 net.cpp:150] Setting up resblk64_6_b
I0818 13:44:37.239321 22726 net.cpp:157] Top shape: 125 64 8 8 (512000)
I0818 13:44:37.239326 22726 net.cpp:165] Memory required for data: 1397249500
I0818 13:44:37.239336 22726 layer_factory.hpp:77] Creating layer batchNorm_resblk64_6_b
I0818 13:44:37.239346 22726 net.cpp:100] Creating Layer batchNorm_resblk64_6_b
I0818 13:44:37.239353 22726 net.cpp:434] batchNorm_resblk64_6_b <- resblk64_6_b
I0818 13:44:37.239362 22726 net.cpp:408] batchNorm_resblk64_6_b -> bn_resblk64_6_b
I0818 13:44:37.239629 22726 net.cpp:150] Setting up batchNorm_resblk64_6_b
I0818 13:44:37.239641 22726 net.cpp:157] Top shape: 125 64 8 8 (512000)
I0818 13:44:37.239645 22726 net.cpp:165] Memory required for data: 1399297500
I0818 13:44:37.239656 22726 layer_factory.hpp:77] Creating layer scale_resblk64_6_b
I0818 13:44:37.239665 22726 net.cpp:100] Creating Layer scale_resblk64_6_b
I0818 13:44:37.239671 22726 net.cpp:434] scale_resblk64_6_b <- bn_resblk64_6_b
I0818 13:44:37.239678 22726 net.cpp:395] scale_resblk64_6_b -> bn_resblk64_6_b (in-place)
I0818 13:44:37.239738 22726 layer_factory.hpp:77] Creating layer scale_resblk64_6_b
I0818 13:44:37.239903 22726 net.cpp:150] Setting up scale_resblk64_6_b
I0818 13:44:37.239917 22726 net.cpp:157] Top shape: 125 64 8 8 (512000)
I0818 13:44:37.239922 22726 net.cpp:165] Memory required for data: 1401345500
I0818 13:44:37.239930 22726 layer_factory.hpp:77] Creating layer sum_sum_bn_resblk64_5_b
I0818 13:44:37.239939 22726 net.cpp:100] Creating Layer sum_sum_bn_resblk64_5_b
I0818 13:44:37.239945 22726 net.cpp:434] sum_sum_bn_resblk64_5_b <- sum_bn_resblk64_5_b_relu_sum_bn_resblk64_5_b_0_split_1
I0818 13:44:37.239953 22726 net.cpp:434] sum_sum_bn_resblk64_5_b <- bn_resblk64_6_b
I0818 13:44:37.239964 22726 net.cpp:408] sum_sum_bn_resblk64_5_b -> sum_bn_resblk64_6_b
I0818 13:44:37.239997 22726 net.cpp:150] Setting up sum_sum_bn_resblk64_5_b
I0818 13:44:37.240010 22726 net.cpp:157] Top shape: 125 64 8 8 (512000)
I0818 13:44:37.240015 22726 net.cpp:165] Memory required for data: 1403393500
I0818 13:44:37.240020 22726 layer_factory.hpp:77] Creating layer relu_sum_bn_resblk64_6_b
I0818 13:44:37.240027 22726 net.cpp:100] Creating Layer relu_sum_bn_resblk64_6_b
I0818 13:44:37.240033 22726 net.cpp:434] relu_sum_bn_resblk64_6_b <- sum_bn_resblk64_6_b
I0818 13:44:37.240039 22726 net.cpp:395] relu_sum_bn_resblk64_6_b -> sum_bn_resblk64_6_b (in-place)
I0818 13:44:37.240049 22726 net.cpp:150] Setting up relu_sum_bn_resblk64_6_b
I0818 13:44:37.240056 22726 net.cpp:157] Top shape: 125 64 8 8 (512000)
I0818 13:44:37.240061 22726 net.cpp:165] Memory required for data: 1405441500
I0818 13:44:37.240065 22726 layer_factory.hpp:77] Creating layer sum_bn_resblk64_6_b_relu_sum_bn_resblk64_6_b_0_split
I0818 13:44:37.240077 22726 net.cpp:100] Creating Layer sum_bn_resblk64_6_b_relu_sum_bn_resblk64_6_b_0_split
I0818 13:44:37.240082 22726 net.cpp:434] sum_bn_resblk64_6_b_relu_sum_bn_resblk64_6_b_0_split <- sum_bn_resblk64_6_b
I0818 13:44:37.240089 22726 net.cpp:408] sum_bn_resblk64_6_b_relu_sum_bn_resblk64_6_b_0_split -> sum_bn_resblk64_6_b_relu_sum_bn_resblk64_6_b_0_split_0
I0818 13:44:37.240099 22726 net.cpp:408] sum_bn_resblk64_6_b_relu_sum_bn_resblk64_6_b_0_split -> sum_bn_resblk64_6_b_relu_sum_bn_resblk64_6_b_0_split_1
I0818 13:44:37.240149 22726 net.cpp:150] Setting up sum_bn_resblk64_6_b_relu_sum_bn_resblk64_6_b_0_split
I0818 13:44:37.240159 22726 net.cpp:157] Top shape: 125 64 8 8 (512000)
I0818 13:44:37.240165 22726 net.cpp:157] Top shape: 125 64 8 8 (512000)
I0818 13:44:37.240170 22726 net.cpp:165] Memory required for data: 1409537500
I0818 13:44:37.240175 22726 layer_factory.hpp:77] Creating layer resblk64_7
I0818 13:44:37.240185 22726 net.cpp:100] Creating Layer resblk64_7
I0818 13:44:37.240192 22726 net.cpp:434] resblk64_7 <- sum_bn_resblk64_6_b_relu_sum_bn_resblk64_6_b_0_split_0
I0818 13:44:37.240205 22726 net.cpp:408] resblk64_7 -> resblk64_7
I0818 13:44:37.241235 22726 net.cpp:150] Setting up resblk64_7
I0818 13:44:37.241250 22726 net.cpp:157] Top shape: 125 64 8 8 (512000)
I0818 13:44:37.241255 22726 net.cpp:165] Memory required for data: 1411585500
I0818 13:44:37.241263 22726 layer_factory.hpp:77] Creating layer batchNorm_resblk64_7
I0818 13:44:37.241272 22726 net.cpp:100] Creating Layer batchNorm_resblk64_7
I0818 13:44:37.241278 22726 net.cpp:434] batchNorm_resblk64_7 <- resblk64_7
I0818 13:44:37.241287 22726 net.cpp:408] batchNorm_resblk64_7 -> bn_resblk64_7
I0818 13:44:37.241556 22726 net.cpp:150] Setting up batchNorm_resblk64_7
I0818 13:44:37.241569 22726 net.cpp:157] Top shape: 125 64 8 8 (512000)
I0818 13:44:37.241574 22726 net.cpp:165] Memory required for data: 1413633500
I0818 13:44:37.241583 22726 layer_factory.hpp:77] Creating layer scale_resblk64_7
I0818 13:44:37.241596 22726 net.cpp:100] Creating Layer scale_resblk64_7
I0818 13:44:37.241603 22726 net.cpp:434] scale_resblk64_7 <- bn_resblk64_7
I0818 13:44:37.241613 22726 net.cpp:395] scale_resblk64_7 -> bn_resblk64_7 (in-place)
I0818 13:44:37.241674 22726 layer_factory.hpp:77] Creating layer scale_resblk64_7
I0818 13:44:37.241844 22726 net.cpp:150] Setting up scale_resblk64_7
I0818 13:44:37.241858 22726 net.cpp:157] Top shape: 125 64 8 8 (512000)
I0818 13:44:37.241863 22726 net.cpp:165] Memory required for data: 1415681500
I0818 13:44:37.241873 22726 layer_factory.hpp:77] Creating layer relu_bn_resblk64_7
I0818 13:44:37.241880 22726 net.cpp:100] Creating Layer relu_bn_resblk64_7
I0818 13:44:37.241886 22726 net.cpp:434] relu_bn_resblk64_7 <- bn_resblk64_7
I0818 13:44:37.241896 22726 net.cpp:395] relu_bn_resblk64_7 -> bn_resblk64_7 (in-place)
I0818 13:44:37.241906 22726 net.cpp:150] Setting up relu_bn_resblk64_7
I0818 13:44:37.241914 22726 net.cpp:157] Top shape: 125 64 8 8 (512000)
I0818 13:44:37.241917 22726 net.cpp:165] Memory required for data: 1417729500
I0818 13:44:37.241922 22726 layer_factory.hpp:77] Creating layer resblk64_7_b
I0818 13:44:37.241935 22726 net.cpp:100] Creating Layer resblk64_7_b
I0818 13:44:37.241942 22726 net.cpp:434] resblk64_7_b <- bn_resblk64_7
I0818 13:44:37.241951 22726 net.cpp:408] resblk64_7_b -> resblk64_7_b
I0818 13:44:37.242965 22726 net.cpp:150] Setting up resblk64_7_b
I0818 13:44:37.242980 22726 net.cpp:157] Top shape: 125 64 8 8 (512000)
I0818 13:44:37.242985 22726 net.cpp:165] Memory required for data: 1419777500
I0818 13:44:37.242995 22726 layer_factory.hpp:77] Creating layer batchNorm_resblk64_7_b
I0818 13:44:37.243006 22726 net.cpp:100] Creating Layer batchNorm_resblk64_7_b
I0818 13:44:37.243013 22726 net.cpp:434] batchNorm_resblk64_7_b <- resblk64_7_b
I0818 13:44:37.243022 22726 net.cpp:408] batchNorm_resblk64_7_b -> bn_resblk64_7_b
I0818 13:44:37.243286 22726 net.cpp:150] Setting up batchNorm_resblk64_7_b
I0818 13:44:37.243299 22726 net.cpp:157] Top shape: 125 64 8 8 (512000)
I0818 13:44:37.243304 22726 net.cpp:165] Memory required for data: 1421825500
I0818 13:44:37.243314 22726 layer_factory.hpp:77] Creating layer scale_resblk64_7_b
I0818 13:44:37.243322 22726 net.cpp:100] Creating Layer scale_resblk64_7_b
I0818 13:44:37.243330 22726 net.cpp:434] scale_resblk64_7_b <- bn_resblk64_7_b
I0818 13:44:37.243336 22726 net.cpp:395] scale_resblk64_7_b -> bn_resblk64_7_b (in-place)
I0818 13:44:37.243396 22726 layer_factory.hpp:77] Creating layer scale_resblk64_7_b
I0818 13:44:37.243556 22726 net.cpp:150] Setting up scale_resblk64_7_b
I0818 13:44:37.243567 22726 net.cpp:157] Top shape: 125 64 8 8 (512000)
I0818 13:44:37.243572 22726 net.cpp:165] Memory required for data: 1423873500
I0818 13:44:37.243582 22726 layer_factory.hpp:77] Creating layer sum_sum_bn_resblk64_6_b
I0818 13:44:37.243590 22726 net.cpp:100] Creating Layer sum_sum_bn_resblk64_6_b
I0818 13:44:37.243597 22726 net.cpp:434] sum_sum_bn_resblk64_6_b <- sum_bn_resblk64_6_b_relu_sum_bn_resblk64_6_b_0_split_1
I0818 13:44:37.243604 22726 net.cpp:434] sum_sum_bn_resblk64_6_b <- bn_resblk64_7_b
I0818 13:44:37.243615 22726 net.cpp:408] sum_sum_bn_resblk64_6_b -> sum_bn_resblk64_7_b
I0818 13:44:37.243649 22726 net.cpp:150] Setting up sum_sum_bn_resblk64_6_b
I0818 13:44:37.243667 22726 net.cpp:157] Top shape: 125 64 8 8 (512000)
I0818 13:44:37.243672 22726 net.cpp:165] Memory required for data: 1425921500
I0818 13:44:37.243677 22726 layer_factory.hpp:77] Creating layer relu_sum_bn_resblk64_7_b
I0818 13:44:37.243685 22726 net.cpp:100] Creating Layer relu_sum_bn_resblk64_7_b
I0818 13:44:37.243691 22726 net.cpp:434] relu_sum_bn_resblk64_7_b <- sum_bn_resblk64_7_b
I0818 13:44:37.243698 22726 net.cpp:395] relu_sum_bn_resblk64_7_b -> sum_bn_resblk64_7_b (in-place)
I0818 13:44:37.243707 22726 net.cpp:150] Setting up relu_sum_bn_resblk64_7_b
I0818 13:44:37.243715 22726 net.cpp:157] Top shape: 125 64 8 8 (512000)
I0818 13:44:37.243718 22726 net.cpp:165] Memory required for data: 1427969500
I0818 13:44:37.243722 22726 layer_factory.hpp:77] Creating layer sum_bn_resblk64_7_b_relu_sum_bn_resblk64_7_b_0_split
I0818 13:44:37.243732 22726 net.cpp:100] Creating Layer sum_bn_resblk64_7_b_relu_sum_bn_resblk64_7_b_0_split
I0818 13:44:37.243738 22726 net.cpp:434] sum_bn_resblk64_7_b_relu_sum_bn_resblk64_7_b_0_split <- sum_bn_resblk64_7_b
I0818 13:44:37.243746 22726 net.cpp:408] sum_bn_resblk64_7_b_relu_sum_bn_resblk64_7_b_0_split -> sum_bn_resblk64_7_b_relu_sum_bn_resblk64_7_b_0_split_0
I0818 13:44:37.243755 22726 net.cpp:408] sum_bn_resblk64_7_b_relu_sum_bn_resblk64_7_b_0_split -> sum_bn_resblk64_7_b_relu_sum_bn_resblk64_7_b_0_split_1
I0818 13:44:37.243801 22726 net.cpp:150] Setting up sum_bn_resblk64_7_b_relu_sum_bn_resblk64_7_b_0_split
I0818 13:44:37.243822 22726 net.cpp:157] Top shape: 125 64 8 8 (512000)
I0818 13:44:37.243829 22726 net.cpp:157] Top shape: 125 64 8 8 (512000)
I0818 13:44:37.243834 22726 net.cpp:165] Memory required for data: 1432065500
I0818 13:44:37.243839 22726 layer_factory.hpp:77] Creating layer resblk64_8
I0818 13:44:37.243849 22726 net.cpp:100] Creating Layer resblk64_8
I0818 13:44:37.243855 22726 net.cpp:434] resblk64_8 <- sum_bn_resblk64_7_b_relu_sum_bn_resblk64_7_b_0_split_0
I0818 13:44:37.243865 22726 net.cpp:408] resblk64_8 -> resblk64_8
I0818 13:44:37.245904 22726 net.cpp:150] Setting up resblk64_8
I0818 13:44:37.245923 22726 net.cpp:157] Top shape: 125 64 8 8 (512000)
I0818 13:44:37.245928 22726 net.cpp:165] Memory required for data: 1434113500
I0818 13:44:37.245936 22726 layer_factory.hpp:77] Creating layer batchNorm_resblk64_8
I0818 13:44:37.245949 22726 net.cpp:100] Creating Layer batchNorm_resblk64_8
I0818 13:44:37.245955 22726 net.cpp:434] batchNorm_resblk64_8 <- resblk64_8
I0818 13:44:37.245967 22726 net.cpp:408] batchNorm_resblk64_8 -> bn_resblk64_8
I0818 13:44:37.246234 22726 net.cpp:150] Setting up batchNorm_resblk64_8
I0818 13:44:37.246248 22726 net.cpp:157] Top shape: 125 64 8 8 (512000)
I0818 13:44:37.246251 22726 net.cpp:165] Memory required for data: 1436161500
I0818 13:44:37.246263 22726 layer_factory.hpp:77] Creating layer scale_resblk64_8
I0818 13:44:37.246271 22726 net.cpp:100] Creating Layer scale_resblk64_8
I0818 13:44:37.246278 22726 net.cpp:434] scale_resblk64_8 <- bn_resblk64_8
I0818 13:44:37.246289 22726 net.cpp:395] scale_resblk64_8 -> bn_resblk64_8 (in-place)
I0818 13:44:37.246348 22726 layer_factory.hpp:77] Creating layer scale_resblk64_8
I0818 13:44:37.246512 22726 net.cpp:150] Setting up scale_resblk64_8
I0818 13:44:37.246526 22726 net.cpp:157] Top shape: 125 64 8 8 (512000)
I0818 13:44:37.246531 22726 net.cpp:165] Memory required for data: 1438209500
I0818 13:44:37.246539 22726 layer_factory.hpp:77] Creating layer relu_bn_resblk64_8
I0818 13:44:37.246547 22726 net.cpp:100] Creating Layer relu_bn_resblk64_8
I0818 13:44:37.246553 22726 net.cpp:434] relu_bn_resblk64_8 <- bn_resblk64_8
I0818 13:44:37.246563 22726 net.cpp:395] relu_bn_resblk64_8 -> bn_resblk64_8 (in-place)
I0818 13:44:37.246573 22726 net.cpp:150] Setting up relu_bn_resblk64_8
I0818 13:44:37.246580 22726 net.cpp:157] Top shape: 125 64 8 8 (512000)
I0818 13:44:37.246584 22726 net.cpp:165] Memory required for data: 1440257500
I0818 13:44:37.246589 22726 layer_factory.hpp:77] Creating layer resblk64_8_b
I0818 13:44:37.246611 22726 net.cpp:100] Creating Layer resblk64_8_b
I0818 13:44:37.246618 22726 net.cpp:434] resblk64_8_b <- bn_resblk64_8
I0818 13:44:37.246628 22726 net.cpp:408] resblk64_8_b -> resblk64_8_b
I0818 13:44:37.247656 22726 net.cpp:150] Setting up resblk64_8_b
I0818 13:44:37.247671 22726 net.cpp:157] Top shape: 125 64 8 8 (512000)
I0818 13:44:37.247676 22726 net.cpp:165] Memory required for data: 1442305500
I0818 13:44:37.247685 22726 layer_factory.hpp:77] Creating layer batchNorm_resblk64_8_b
I0818 13:44:37.247696 22726 net.cpp:100] Creating Layer batchNorm_resblk64_8_b
I0818 13:44:37.247704 22726 net.cpp:434] batchNorm_resblk64_8_b <- resblk64_8_b
I0818 13:44:37.247712 22726 net.cpp:408] batchNorm_resblk64_8_b -> bn_resblk64_8_b
I0818 13:44:37.247992 22726 net.cpp:150] Setting up batchNorm_resblk64_8_b
I0818 13:44:37.248006 22726 net.cpp:157] Top shape: 125 64 8 8 (512000)
I0818 13:44:37.248010 22726 net.cpp:165] Memory required for data: 1444353500
I0818 13:44:37.248021 22726 layer_factory.hpp:77] Creating layer scale_resblk64_8_b
I0818 13:44:37.248033 22726 net.cpp:100] Creating Layer scale_resblk64_8_b
I0818 13:44:37.248039 22726 net.cpp:434] scale_resblk64_8_b <- bn_resblk64_8_b
I0818 13:44:37.248047 22726 net.cpp:395] scale_resblk64_8_b -> bn_resblk64_8_b (in-place)
I0818 13:44:37.248108 22726 layer_factory.hpp:77] Creating layer scale_resblk64_8_b
I0818 13:44:37.248266 22726 net.cpp:150] Setting up scale_resblk64_8_b
I0818 13:44:37.248280 22726 net.cpp:157] Top shape: 125 64 8 8 (512000)
I0818 13:44:37.248284 22726 net.cpp:165] Memory required for data: 1446401500
I0818 13:44:37.248293 22726 layer_factory.hpp:77] Creating layer sum_sum_bn_resblk64_7_b
I0818 13:44:37.248304 22726 net.cpp:100] Creating Layer sum_sum_bn_resblk64_7_b
I0818 13:44:37.248311 22726 net.cpp:434] sum_sum_bn_resblk64_7_b <- sum_bn_resblk64_7_b_relu_sum_bn_resblk64_7_b_0_split_1
I0818 13:44:37.248319 22726 net.cpp:434] sum_sum_bn_resblk64_7_b <- bn_resblk64_8_b
I0818 13:44:37.248330 22726 net.cpp:408] sum_sum_bn_resblk64_7_b -> sum_bn_resblk64_8_b
I0818 13:44:37.248364 22726 net.cpp:150] Setting up sum_sum_bn_resblk64_7_b
I0818 13:44:37.248376 22726 net.cpp:157] Top shape: 125 64 8 8 (512000)
I0818 13:44:37.248380 22726 net.cpp:165] Memory required for data: 1448449500
I0818 13:44:37.248386 22726 layer_factory.hpp:77] Creating layer relu_sum_bn_resblk64_8_b
I0818 13:44:37.248399 22726 net.cpp:100] Creating Layer relu_sum_bn_resblk64_8_b
I0818 13:44:37.248404 22726 net.cpp:434] relu_sum_bn_resblk64_8_b <- sum_bn_resblk64_8_b
I0818 13:44:37.248411 22726 net.cpp:395] relu_sum_bn_resblk64_8_b -> sum_bn_resblk64_8_b (in-place)
I0818 13:44:37.248421 22726 net.cpp:150] Setting up relu_sum_bn_resblk64_8_b
I0818 13:44:37.248428 22726 net.cpp:157] Top shape: 125 64 8 8 (512000)
I0818 13:44:37.248432 22726 net.cpp:165] Memory required for data: 1450497500
I0818 13:44:37.248437 22726 layer_factory.hpp:77] Creating layer avePooling_resblk64_8
I0818 13:44:37.248445 22726 net.cpp:100] Creating Layer avePooling_resblk64_8
I0818 13:44:37.248451 22726 net.cpp:434] avePooling_resblk64_8 <- sum_bn_resblk64_8_b
I0818 13:44:37.248459 22726 net.cpp:408] avePooling_resblk64_8 -> avgPool_resblk64_8
I0818 13:44:37.248502 22726 net.cpp:150] Setting up avePooling_resblk64_8
I0818 13:44:37.248513 22726 net.cpp:157] Top shape: 125 64 1 1 (8000)
I0818 13:44:37.248517 22726 net.cpp:165] Memory required for data: 1450529500
I0818 13:44:37.248522 22726 layer_factory.hpp:77] Creating layer FC_final
I0818 13:44:37.248605 22726 net.cpp:100] Creating Layer FC_final
I0818 13:44:37.248618 22726 net.cpp:434] FC_final <- avgPool_resblk64_8
I0818 13:44:37.248627 22726 net.cpp:408] FC_final -> FC_final
I0818 13:44:37.248884 22726 net.cpp:150] Setting up FC_final
I0818 13:44:37.248900 22726 net.cpp:157] Top shape: 125 10 (1250)
I0818 13:44:37.248905 22726 net.cpp:165] Memory required for data: 1450534500
I0818 13:44:37.248914 22726 layer_factory.hpp:77] Creating layer FC_final_FC_final_0_split
I0818 13:44:37.248924 22726 net.cpp:100] Creating Layer FC_final_FC_final_0_split
I0818 13:44:37.248936 22726 net.cpp:434] FC_final_FC_final_0_split <- FC_final
I0818 13:44:37.248947 22726 net.cpp:408] FC_final_FC_final_0_split -> FC_final_FC_final_0_split_0
I0818 13:44:37.248958 22726 net.cpp:408] FC_final_FC_final_0_split -> FC_final_FC_final_0_split_1
I0818 13:44:37.249007 22726 net.cpp:150] Setting up FC_final_FC_final_0_split
I0818 13:44:37.249019 22726 net.cpp:157] Top shape: 125 10 (1250)
I0818 13:44:37.249025 22726 net.cpp:157] Top shape: 125 10 (1250)
I0818 13:44:37.249030 22726 net.cpp:165] Memory required for data: 1450544500
I0818 13:44:37.249035 22726 layer_factory.hpp:77] Creating layer accuracy
I0818 13:44:37.249081 22726 net.cpp:100] Creating Layer accuracy
I0818 13:44:37.249094 22726 net.cpp:434] accuracy <- FC_final_FC_final_0_split_0
I0818 13:44:37.249101 22726 net.cpp:434] accuracy <- label_dataLayer_1_split_0
I0818 13:44:37.249109 22726 net.cpp:408] accuracy -> accuracy
…
