…
I0818 15:07:02.813288 21584 net.cpp:322] The NetState phase (0) differed from the phase (1) specified by a rule in layer L3_b9_cbr2_bn
I0818 15:07:02.815042 21584 net.cpp:58] Initializing net from parameters: 
name: "Cifar-Resnet"
state {
  phase: TRAIN
  level: 0
  stage: ""
}
layer {
  name: "dataLayer"
  type: "Data"
  top: "data_top"
  top: "label"
  include {
    phase: TRAIN
  }
  transform_param {
    mirror: true
    crop_size: 32
    mean_file: "examples/cifar10/mean.binaryproto"
  }
  data_param {
    source: "examples/cifar10/cifar10_train_lmdb"
    batch_size: 125
    backend: LMDB
  }
  image_data_param {
    shuffle: true
  }
}
layer {
  name: "pre_conv"
  type: "Convolution"
  bottom: "data_top"
  top: "pre_conv_top"
  param {
    lr_mult: 1
    decay_mult: 1
  }
  param {
    lr_mult: 2
    decay_mult: 1
  }
  convolution_param {
    num_output: 16
    pad: 1
    kernel_size: 3
    stride: 1
    weight_filler {
      type: "msra"
    }
    bias_filler {
      type: "constant"
    }
  }
}
layer {
  name: "pre_bn"
  type: "BatchNorm"
  bottom: "pre_conv_top"
  top: "pre_bn_top"
  include {
    phase: TRAIN
  }
  batch_norm_param {
    use_global_stats: false
    moving_average_fraction: 0.95
  }
}
layer {
  name: "pre_scale"
  type: "Scale"
  bottom: "pre_bn_top"
  top: "pre_bn_top"
  scale_param {
    bias_term: true
  }
}
layer {
  name: "pre_relu"
  type: "ReLU"
  bottom: "pre_bn_top"
  top: "pre_bn_top"
}
layer {
  name: "L1_b1_cbr1_conv"
  type: "Convolution"
  bottom: "pre_bn_top"
  top: "L1_b1_cbr1_conv_top"
  param {
    lr_mult: 1
    decay_mult: 1
  }
  param {
    lr_mult: 2
    decay_mult: 1
  }
  convolution_param {
    num_output: 16
    pad: 1
    kernel_size: 3
    stride: 1
    weight_filler {
      type: "msra"
    }
    bias_filler {
      type: "constant"
    }
  }
}
layer {
  name: "L1_b1_cbr1_bn"
  type: "BatchNorm"
  bottom: "L1_b1_cbr1_conv_top"
  top: "L1_b1_cbr1_bn_top"
  include {
    phase: TRAIN
  }
  batch_norm_param {
    use_global_stats: false
    moving_average_fraction: 0.95
  }
}
layer {
  name: "L1_b1_cbr1_scale"
  type: "Scale"
  bottom: "L1_b1_cbr1_bn_top"
  top: "L1_b1_cbr1_bn_top"
  scale_param {
    bias_term: true
  }
}
layer {
  name: "L1_b1_cbr1_relu"
  type: "ReLU"
  bottom: "L1_b1_cbr1_bn_top"
  top: "L1_b1_cbr1_bn_top"
}
layer {
  name: "L1_b1_cbr2_conv"
  type: "Convolution"
  bottom: "L1_b1_cbr1_bn_top"
  top: "L1_b1_cbr2_conv_top"
  param {
    lr_mult: 1
    decay_mult: 1
  }
  param {
    lr_mult: 2
    decay_mult: 1
  }
  convolution_param {
    num_output: 16
    pad: 1
    kernel_size: 3
    stride: 1
    weight_filler {
      type: "msra"
    }
    bias_filler {
      type: "constant"
    }
  }
}
layer {
  name: "L1_b1_cbr2_bn"
  type: "BatchNorm"
  bottom: "L1_b1_cbr2_conv_top"
  top: "L1_b1_cbr2_bn_top"
  include {
    phase: TRAIN
  }
  batch_norm_param {
    use_global_stats: false
    moving_average_fraction: 0.95
  }
}
layer {
  name: "L1_b1_cbr2_scale"
  type: "Scale"
  bottom: "L1_b1_cbr2_bn_top"
  top: "L1_b1_cbr2_bn_top"
  scale_param {
    bias_term: true
  }
}
layer {
  name: "L1_b1_sum_eltwise"
  type: "Eltwise"
  bottom: "L1_b1_cbr2_bn_top"
  bottom: "pre_bn_top"
  top: "L1_b1_sum_eltwise_top"
  eltwise_param {
    operation: SUM
  }
}
layer {
  name: "L1_b1_relu"
  type: "ReLU"
  bottom: "L1_b1_sum_eltwise_top"
  top: "L1_b1_sum_eltwise_top"
}
layer {
  name: "L1_b2_cbr1_conv"
  type: "Convolution"
  bottom: "L1_b1_sum_eltwise_top"
  top: "L1_b2_cbr1_conv_top"
  param {
    lr_mult: 1
    decay_mult: 1
  }
  param {
    lr_mult: 2
    decay_mult: 1
  }
  convolution_param {
    num_output: 16
    pad: 1
    kernel_size: 3
    stride: 1
    weight_filler {
      type: "msra"
    }
    bias_filler {
      type: "constant"
    }
  }
}
layer {
  name: "L1_b2_cbr1_bn"
  type: "BatchNorm"
  bottom: "L1_b2_cbr1_conv_top"
  top: "L1_b2_cbr1_bn_top"
  include {
    phase: TRAIN
  }
  batch_norm_param {
    use_global_stats: false
    moving_average_fraction: 0.95
  }
}
layer {
  name: "L1_b2_cbr1_scale"
  type: "Scale"
  bottom: "L1_b2_cbr1_bn_top"
  top: "L1_b2_cbr1_bn_top"
  scale_param {
    bias_term: true
  }
}
layer {
  name: "L1_b2_cbr1_relu"
  type: "ReLU"
  bottom: "L1_b2_cbr1_bn_top"
  top: "L1_b2_cbr1_bn_top"
}
layer {
  name: "L1_b2_cbr2_conv"
  type: "Convolution"
  bottom: "L1_b2_cbr1_bn_top"
  top: "L1_b2_cbr2_conv_top"
  param {
    lr_mult: 1
    decay_mult: 1
  }
  param {
    lr_mult: 2
    decay_mult: 1
  }
  convolution_param {
    num_output: 16
    pad: 1
    kernel_size: 3
    stride: 1
    weight_filler {
      type: "msra"
    }
    bias_filler {
      type: "constant"
    }
  }
}
layer {
  name: "L1_b2_cbr2_bn"
  type: "BatchNorm"
  bottom: "L1_b2_cbr2_conv_top"
  top: "L1_b2_cbr2_bn_top"
  include {
    phase: TRAIN
  }
  batch_norm_param {
    use_global_stats: false
    moving_average_fraction: 0.95
  }
}
layer {
  name: "L1_b2_cbr2_scale"
  type: "Scale"
  bottom: "L1_b2_cbr2_bn_top"
  top: "L1_b2_cbr2_bn_top"
  scale_param {
    bias_term: true
  }
}
layer {
  name: "L1_b2_sum_eltwise"
  type: "Eltwise"
  bottom: "L1_b2_cbr2_bn_top"
  bottom: "L1_b1_sum_eltwise_top"
  top: "L1_b2_sum_eltwise_top"
  eltwise_param {
    operation: SUM
  }
}
layer {
  name: "L1_b2_relu"
  type: "ReLU"
  bottom: "L1_b2_sum_eltwise_top"
  top: "L1_b2_sum_eltwise_top"
}
layer {
  name: "L1_b3_cbr1_conv"
  type: "Convolution"
  bottom: "L1_b2_sum_eltwise_top"
  top: "L1_b3_cbr1_conv_top"
  param {
    lr_mult: 1
    decay_mult: 1
  }
  param {
    lr_mult: 2
    decay_mult: 1
  }
  convolution_param {
    num_output: 16
    pad: 1
    kernel_size: 3
    stride: 1
    weight_filler {
      type: "msra"
    }
    bias_filler {
      type: "constant"
    }
  }
}
layer {
  name: "L1_b3_cbr1_bn"
  type: "BatchNorm"
  bottom: "L1_b3_cbr1_conv_top"
  top: "L1_b3_cbr1_bn_top"
  include {
    phase: TRAIN
  }
  batch_norm_param {
    use_global_stats: false
    moving_average_fraction: 0.95
  }
}
layer {
  name: "L1_b3_cbr1_scale"
  type: "Scale"
  bottom: "L1_b3_cbr1_bn_top"
  top: "L1_b3_cbr1_bn_top"
  scale_param {
    bias_term: true
  }
}
layer {
  name: "L1_b3_cbr1_relu"
  type: "ReLU"
  bottom: "L1_b3_cbr1_bn_top"
  top: "L1_b3_cbr1_bn_top"
}
layer {
  name: "L1_b3_cbr2_conv"
  type: "Convolution"
  bottom: "L1_b3_cbr1_bn_top"
  top: "L1_b3_cbr2_conv_top"
  param {
    lr_mult: 1
    decay_mult: 1
  }
  param {
    lr_mult: 2
    decay_mult: 1
  }
  convolution_param {
    num_output: 16
    pad: 1
    kernel_size: 3
    stride: 1
    weight_filler {
      type: "msra"
    }
    bias_filler {
      type: "constant"
    }
  }
}
layer {
  name: "L1_b3_cbr2_bn"
  type: "BatchNorm"
  bottom: "L1_b3_cbr2_conv_top"
  top: "L1_b3_cbr2_bn_top"
  include {
    phase: TRAIN
  }
  batch_norm_param {
    use_global_stats: false
    moving_average_fraction: 0.95
  }
}
layer {
  name: "L1_b3_cbr2_scale"
  type: "Scale"
  bottom: "L1_b3_cbr2_bn_top"
  top: "L1_b3_cbr2_bn_top"
  scale_param {
    bias_term: true
  }
}
layer {
  name: "L1_b3_sum_eltwise"
  type: "Eltwise"
  bottom: "L1_b3_cbr2_bn_top"
  bottom: "L1_b2_sum_eltwise_top"
  top: "L1_b3_sum_eltwise_top"
  eltwise_param {
    operation: SUM
  }
}
layer {
  name: "L1_b3_relu"
  type: "ReLU"
  bottom: "L1_b3_sum_eltwise_top"
  top: "L1_b3_sum_eltwise_top"
}
layer {
  name: "L1_b4_cbr1_conv"
  type: "Convolution"
  bottom: "L1_b3_sum_eltwise_top"
  top: "L1_b4_cbr1_conv_top"
  param {
    lr_mult: 1
    decay_mult: 1
  }
  param {
    lr_mult: 2
    decay_mult: 1
  }
  convolution_param {
    num_output: 16
    pad: 1
    kernel_size: 3
    stride: 1
    weight_filler {
      type: "msra"
    }
    bias_filler {
      type: "constant"
    }
  }
}
layer {
  name: "L1_b4_cbr1_bn"
  type: "BatchNorm"
  bottom: "L1_b4_cbr1_conv_top"
  top: "L1_b4_cbr1_bn_top"
  include {
    phase: TRAIN
  }
  batch_norm_param {
    use_global_stats: false
    moving_average_fraction: 0.95
  }
}
layer {
  name: "L1_b4_cbr1_scale"
  type: "Scale"
  bottom: "L1_b4_cbr1_bn_top"
  top: "L1_b4_cbr1_bn_top"
  scale_param {
    bias_term: true
  }
}
layer {
  name: "L1_b4_cbr1_relu"
  type: "ReLU"
  bottom: "L1_b4_cbr1_bn_top"
  top: "L1_b4_cbr1_bn_top"
}
layer {
  name: "L1_b4_cbr2_conv"
  type: "Convolution"
  bottom: "L1_b4_cbr1_bn_top"
  top: "L1_b4_cbr2_conv_top"
  param {
    lr_mult: 1
    decay_mult: 1
  }
  param {
    lr_mult: 2
    decay_mult: 1
  }
  convolution_param {
    num_output: 16
    pad: 1
    kernel_size: 3
    stride: 1
    weight_filler {
      type: "msra"
    }
    bias_filler {
      type: "constant"
    }
  }
}
layer {
  name: "L1_b4_cbr2_bn"
  type: "BatchNorm"
  bottom: "L1_b4_cbr2_conv_top"
  top: "L1_b4_cbr2_bn_top"
  include {
    phase: TRAIN
  }
  batch_norm_param {
    use_global_stats: false
    moving_average_fraction: 0.95
  }
}
layer {
  name: "L1_b4_cbr2_scale"
  type: "Scale"
  bottom: "L1_b4_cbr2_bn_top"
  top: "L1_b4_cbr2_bn_top"
  scale_param {
    bias_term: true
  }
}
layer {
  name: "L1_b4_sum_eltwise"
  type: "Eltwise"
  bottom: "L1_b4_cbr2_bn_top"
  bottom: "L1_b3_sum_eltwise_top"
  top: "L1_b4_sum_eltwise_top"
  eltwise_param {
    operation: SUM
  }
}
layer {
  name: "L1_b4_relu"
  type: "ReLU"
  bottom: "L1_b4_sum_eltwise_top"
  top: "L1_b4_sum_eltwise_top"
}
layer {
  name: "L1_b5_cbr1_conv"
  type: "Convolution"
  bottom: "L1_b4_sum_eltwise_top"
  top: "L1_b5_cbr1_conv_top"
  param {
    lr_mult: 1
    decay_mult: 1
  }
  param {
    lr_mult: 2
    decay_mult: 1
  }
  convolution_param {
    num_output: 16
    pad: 1
    kernel_size: 3
    stride: 1
    weight_filler {
      type: "msra"
    }
    bias_filler {
      type: "constant"
    }
  }
}
layer {
  name: "L1_b5_cbr1_bn"
  type: "BatchNorm"
  bottom: "L1_b5_cbr1_conv_top"
  top: "L1_b5_cbr1_bn_top"
  include {
    phase: TRAIN
  }
  batch_norm_param {
    use_global_stats: false
    moving_average_fraction: 0.95
  }
}
layer {
  name: "L1_b5_cbr1_scale"
  type: "Scale"
  bottom: "L1_b5_cbr1_bn_top"
  top: "L1_b5_cbr1_bn_top"
  scale_param {
    bias_term: true
  }
}
layer {
  name: "L1_b5_cbr1_relu"
  type: "ReLU"
  bottom: "L1_b5_cbr1_bn_top"
  top: "L1_b5_cbr1_bn_top"
}
layer {
  name: "L1_b5_cbr2_conv"
  type: "Convolution"
  bottom: "L1_b5_cbr1_bn_top"
  top: "L1_b5_cbr2_conv_top"
  param {
    lr_mult: 1
    decay_mult: 1
  }
  param {
    lr_mult: 2
    decay_mult: 1
  }
  convolution_param {
    num_output: 16
    pad: 1
    kernel_size: 3
    stride: 1
    weight_filler {
      type: "msra"
    }
    bias_filler {
      type: "constant"
    }
  }
}
layer {
  name: "L1_b5_cbr2_bn"
  type: "BatchNorm"
  bottom: "L1_b5_cbr2_conv_top"
  top: "L1_b5_cbr2_bn_top"
  include {
    phase: TRAIN
  }
  batch_norm_param {
    use_global_stats: false
    moving_average_fraction: 0.95
  }
}
layer {
  name: "L1_b5_cbr2_scale"
  type: "Scale"
  bottom: "L1_b5_cbr2_bn_top"
  top: "L1_b5_cbr2_bn_top"
  scale_param {
    bias_term: true
  }
}
layer {
  name: "L1_b5_sum_eltwise"
  type: "Eltwise"
  bottom: "L1_b5_cbr2_bn_top"
  bottom: "L1_b4_sum_eltwise_top"
  top: "L1_b5_sum_eltwise_top"
  eltwise_param {
    operation: SUM
  }
}
layer {
  name: "L1_b5_relu"
  type: "ReLU"
  bottom: "L1_b5_sum_eltwise_top"
  top: "L1_b5_sum_eltwise_top"
}
layer {
  name: "L1_b6_cbr1_conv"
  type: "Convolution"
  bottom: "L1_b5_sum_eltwise_top"
  top: "L1_b6_cbr1_conv_top"
  param {
    lr_mult: 1
    decay_mult: 1
  }
  param {
    lr_mult: 2
    decay_mult: 1
  }
  convolution_param {
    num_output: 16
    pad: 1
    kernel_size: 3
    stride: 1
    weight_filler {
      type: "msra"
    }
    bias_filler {
      type: "constant"
    }
  }
}
layer {
  name: "L1_b6_cbr1_bn"
  type: "BatchNorm"
  bottom: "L1_b6_cbr1_conv_top"
  top: "L1_b6_cbr1_bn_top"
  include {
    phase: TRAIN
  }
  batch_norm_param {
    use_global_stats: false
    moving_average_fraction: 0.95
  }
}
layer {
  name: "L1_b6_cbr1_scale"
  type: "Scale"
  bottom: "L1_b6_cbr1_bn_top"
  top: "L1_b6_cbr1_bn_top"
  scale_param {
    bias_term: true
  }
}
layer {
  name: "L1_b6_cbr1_relu"
  type: "ReLU"
  bottom: "L1_b6_cbr1_bn_top"
  top: "L1_b6_cbr1_bn_top"
}
layer {
  name: "L1_b6_cbr2_conv"
  type: "Convolution"
  bottom: "L1_b6_cbr1_bn_top"
  top: "L1_b6_cbr2_conv_top"
  param {
    lr_mult: 1
    decay_mult: 1
  }
  param {
    lr_mult: 2
    decay_mult: 1
  }
  convolution_param {
    num_output: 16
    pad: 1
    kernel_size: 3
    stride: 1
    weight_filler {
      type: "msra"
    }
    bias_filler {
      type: "constant"
    }
  }
}
layer {
  name: "L1_b6_cbr2_bn"
  type: "BatchNorm"
  bottom: "L1_b6_cbr2_conv_top"
  top: "L1_b6_cbr2_bn_top"
  include {
    phase: TRAIN
  }
  batch_norm_param {
    use_global_stats: false
    moving_average_fraction: 0.95
  }
}
layer {
  name: "L1_b6_cbr2_scale"
  type: "Scale"
  bottom: "L1_b6_cbr2_bn_top"
  top: "L1_b6_cbr2_bn_top"
  scale_param {
    bias_term: true
  }
}
layer {
  name: "L1_b6_sum_eltwise"
  type: "Eltwise"
  bottom: "L1_b6_cbr2_bn_top"
  bottom: "L1_b5_sum_eltwise_top"
  top: "L1_b6_sum_eltwise_top"
  eltwise_param {
    operation: SUM
  }
}
layer {
  name: "L1_b6_relu"
  type: "ReLU"
  bottom: "L1_b6_sum_eltwise_top"
  top: "L1_b6_sum_eltwise_top"
}
layer {
  name: "L1_b7_cbr1_conv"
  type: "Convolution"
  bottom: "L1_b6_sum_eltwise_top"
  top: "L1_b7_cbr1_conv_top"
  param {
    lr_mult: 1
    decay_mult: 1
  }
  param {
    lr_mult: 2
    decay_mult: 1
  }
  convolution_param {
    num_output: 16
    pad: 1
    kernel_size: 3
    stride: 1
    weight_filler {
      type: "msra"
    }
    bias_filler {
      type: "constant"
    }
  }
}
layer {
  name: "L1_b7_cbr1_bn"
  type: "BatchNorm"
  bottom: "L1_b7_cbr1_conv_top"
  top: "L1_b7_cbr1_bn_top"
  include {
    phase: TRAIN
  }
  batch_norm_param {
    use_global_stats: false
    moving_average_fraction: 0.95
  }
}
layer {
  name: "L1_b7_cbr1_scale"
  type: "Scale"
  bottom: "L1_b7_cbr1_bn_top"
  top: "L1_b7_cbr1_bn_top"
  scale_param {
    bias_term: true
  }
}
layer {
  name: "L1_b7_cbr1_relu"
  type: "ReLU"
  bottom: "L1_b7_cbr1_bn_top"
  top: "L1_b7_cbr1_bn_top"
}
layer {
  name: "L1_b7_cbr2_conv"
  type: "Convolution"
  bottom: "L1_b7_cbr1_bn_top"
  top: "L1_b7_cbr2_conv_top"
  param {
    lr_mult: 1
    decay_mult: 1
  }
  param {
    lr_mult: 2
    decay_mult: 1
  }
  convolution_param {
    num_output: 16
    pad: 1
    kernel_size: 3
    stride: 1
    weight_filler {
      type: "msra"
    }
    bias_filler {
      type: "constant"
    }
  }
}
layer {
  name: "L1_b7_cbr2_bn"
  type: "BatchNorm"
  bottom: "L1_b7_cbr2_conv_top"
  top: "L1_b7_cbr2_bn_top"
  include {
    phase: TRAIN
  }
  batch_norm_param {
    use_global_stats: false
    moving_average_fraction: 0.95
  }
}
layer {
  name: "L1_b7_cbr2_scale"
  type: "Scale"
  bottom: "L1_b7_cbr2_bn_top"
  top: "L1_b7_cbr2_bn_top"
  scale_param {
    bias_term: true
  }
}
layer {
  name: "L1_b7_sum_eltwise"
  type: "Eltwise"
  bottom: "L1_b7_cbr2_bn_top"
  bottom: "L1_b6_sum_eltwise_top"
  top: "L1_b7_sum_eltwise_top"
  eltwise_param {
    operation: SUM
  }
}
layer {
  name: "L1_b7_relu"
  type: "ReLU"
  bottom: "L1_b7_sum_eltwise_top"
  top: "L1_b7_sum_eltwise_top"
}
layer {
  name: "L1_b8_cbr1_conv"
  type: "Convolution"
  bottom: "L1_b7_sum_eltwise_top"
  top: "L1_b8_cbr1_conv_top"
  param {
    lr_mult: 1
    decay_mult: 1
  }
  param {
    lr_mult: 2
    decay_mult: 1
  }
  convolution_param {
    num_output: 16
    pad: 1
    kernel_size: 3
    stride: 1
    weight_filler {
      type: "msra"
    }
    bias_filler {
      type: "constant"
    }
  }
}
layer {
  name: "L1_b8_cbr1_bn"
  type: "BatchNorm"
  bottom: "L1_b8_cbr1_conv_top"
  top: "L1_b8_cbr1_bn_top"
  include {
    phase: TRAIN
  }
  batch_norm_param {
    use_global_stats: false
    moving_average_fraction: 0.95
  }
}
layer {
  name: "L1_b8_cbr1_scale"
  type: "Scale"
  bottom: "L1_b8_cbr1_bn_top"
  top: "L1_b8_cbr1_bn_top"
  scale_param {
    bias_term: true
  }
}
layer {
  name: "L1_b8_cbr1_relu"
  type: "ReLU"
  bottom: "L1_b8_cbr1_bn_top"
  top: "L1_b8_cbr1_bn_top"
}
layer {
  name: "L1_b8_cbr2_conv"
  type: "Convolution"
  bottom: "L1_b8_cbr1_bn_top"
  top: "L1_b8_cbr2_conv_top"
  param {
    lr_mult: 1
    decay_mult: 1
  }
  param {
    lr_mult: 2
    decay_mult: 1
  }
  convolution_param {
    num_output: 16
    pad: 1
    kernel_size: 3
    stride: 1
    weight_filler {
      type: "msra"
    }
    bias_filler {
      type: "constant"
    }
  }
}
layer {
  name: "L1_b8_cbr2_bn"
  type: "BatchNorm"
  bottom: "L1_b8_cbr2_conv_top"
  top: "L1_b8_cbr2_bn_top"
  include {
    phase: TRAIN
  }
  batch_norm_param {
    use_global_stats: false
    moving_average_fraction: 0.95
  }
}
layer {
  name: "L1_b8_cbr2_scale"
  type: "Scale"
  bottom: "L1_b8_cbr2_bn_top"
  top: "L1_b8_cbr2_bn_top"
  scale_param {
    bias_term: true
  }
}
layer {
  name: "L1_b8_sum_eltwise"
  type: "Eltwise"
  bottom: "L1_b8_cbr2_bn_top"
  bottom: "L1_b7_sum_eltwise_top"
  top: "L1_b8_sum_eltwise_top"
  eltwise_param {
    operation: SUM
  }
}
layer {
  name: "L1_b8_relu"
  type: "ReLU"
  bottom: "L1_b8_sum_eltwise_top"
  top: "L1_b8_sum_eltwise_top"
}
layer {
  name: "L1_b9_cbr1_conv"
  type: "Convolution"
  bottom: "L1_b8_sum_eltwise_top"
  top: "L1_b9_cbr1_conv_top"
  param {
    lr_mult: 1
    decay_mult: 1
  }
  param {
    lr_mult: 2
    decay_mult: 1
  }
  convolution_param {
    num_output: 16
    pad: 1
    kernel_size: 3
    stride: 1
    weight_filler {
      type: "msra"
    }
    bias_filler {
      type: "constant"
    }
  }
}
layer {
  name: "L1_b9_cbr1_bn"
  type: "BatchNorm"
  bottom: "L1_b9_cbr1_conv_top"
  top: "L1_b9_cbr1_bn_top"
  include {
    phase: TRAIN
  }
  batch_norm_param {
    use_global_stats: false
    moving_average_fraction: 0.95
  }
}
layer {
  name: "L1_b9_cbr1_scale"
  type: "Scale"
  bottom: "L1_b9_cbr1_bn_top"
  top: "L1_b9_cbr1_bn_top"
  scale_param {
    bias_term: true
  }
}
layer {
  name: "L1_b9_cbr1_relu"
  type: "ReLU"
  bottom: "L1_b9_cbr1_bn_top"
  top: "L1_b9_cbr1_bn_top"
}
layer {
  name: "L1_b9_cbr2_conv"
  type: "Convolution"
  bottom: "L1_b9_cbr1_bn_top"
  top: "L1_b9_cbr2_conv_top"
  param {
    lr_mult: 1
    decay_mult: 1
  }
  param {
    lr_mult: 2
    decay_mult: 1
  }
  convolution_param {
    num_output: 16
    pad: 1
    kernel_size: 3
    stride: 1
    weight_filler {
      type: "msra"
    }
    bias_filler {
      type: "constant"
    }
  }
}
layer {
  name: "L1_b9_cbr2_bn"
  type: "BatchNorm"
  bottom: "L1_b9_cbr2_conv_top"
  top: "L1_b9_cbr2_bn_top"
  include {
    phase: TRAIN
  }
  batch_norm_param {
    use_global_stats: false
    moving_average_fraction: 0.95
  }
}
layer {
  name: "L1_b9_cbr2_scale"
  type: "Scale"
  bottom: "L1_b9_cbr2_bn_top"
  top: "L1_b9_cbr2_bn_top"
  scale_param {
    bias_term: true
  }
}
layer {
  name: "L1_b9_sum_eltwise"
  type: "Eltwise"
  bottom: "L1_b9_cbr2_bn_top"
  bottom: "L1_b8_sum_eltwise_top"
  top: "L1_b9_sum_eltwise_top"
  eltwise_param {
    operation: SUM
  }
}
layer {
  name: "L1_b9_relu"
  type: "ReLU"
  bottom: "L1_b9_sum_eltwise_top"
  top: "L1_b9_sum_eltwise_top"
}
layer {
  name: "L2_b1_cbr1_conv"
  type: "Convolution"
  bottom: "L1_b9_sum_eltwise_top"
  top: "L2_b1_cbr1_conv_top"
  param {
    lr_mult: 1
    decay_mult: 1
  }
  param {
    lr_mult: 2
    decay_mult: 1
  }
  convolution_param {
    num_output: 16
    pad: 1
    kernel_size: 3
    stride: 2
    weight_filler {
      type: "msra"
    }
    bias_filler {
      type: "constant"
    }
  }
}
layer {
  name: "L2_b1_cbr1_bn"
  type: "BatchNorm"
  bottom: "L2_b1_cbr1_conv_top"
  top: "L2_b1_cbr1_bn_top"
  include {
    phase: TRAIN
  }
  batch_norm_param {
    use_global_stats: false
    moving_average_fraction: 0.95
  }
}
layer {
  name: "L2_b1_cbr1_scale"
  type: "Scale"
  bottom: "L2_b1_cbr1_bn_top"
  top: "L2_b1_cbr1_bn_top"
  scale_param {
    bias_term: true
  }
}
layer {
  name: "L2_b1_cbr1_relu"
  type: "ReLU"
  bottom: "L2_b1_cbr1_bn_top"
  top: "L2_b1_cbr1_bn_top"
}
layer {
  name: "L2_b1_cbr2_conv"
  type: "Convolution"
  bottom: "L2_b1_cbr1_bn_top"
  top: "L2_b1_cbr2_conv_top"
  param {
    lr_mult: 1
    decay_mult: 1
  }
  param {
    lr_mult: 2
    decay_mult: 1
  }
  convolution_param {
    num_output: 16
    pad: 1
    kernel_size: 3
    stride: 1
    weight_filler {
      type: "msra"
    }
    bias_filler {
      type: "constant"
    }
  }
}
layer {
  name: "L2_b1_cbr2_bn"
  type: "BatchNorm"
  bottom: "L2_b1_cbr2_conv_top"
  top: "L2_b1_cbr2_bn_top"
  include {
    phase: TRAIN
  }
  batch_norm_param {
    use_global_stats: false
    moving_average_fraction: 0.95
  }
}
layer {
  name: "L2_b1_cbr2_scale"
  type: "Scale"
  bottom: "L2_b1_cbr2_bn_top"
  top: "L2_b1_cbr2_bn_top"
  scale_param {
    bias_term: true
  }
}
layer {
  name: "L2_b1_pool"
  type: "Pooling"
  bottom: "L1_b9_sum_eltwise_top"
  top: "L2_b1_pool"
  pooling_param {
    pool: AVE
    kernel_size: 3
    stride: 2
  }
}
layer {
  name: "L2_b1_sum_eltwise"
  type: "Eltwise"
  bottom: "L2_b1_cbr2_bn_top"
  bottom: "L2_b1_pool"
  top: "L2_b1_sum_eltwise_top"
  eltwise_param {
    operation: SUM
  }
}
layer {
  name: "L2_b1_relu"
  type: "ReLU"
  bottom: "L2_b1_sum_eltwise_top"
  top: "L2_b1_sum_eltwise_top"
}
layer {
  name: "L2_b1_zeros"
  type: "DummyData"
  top: "L2_b1_zeros"
  dummy_data_param {
    data_filler {
      type: "constant"
      value: 0
    }
    shape {
      dim: 125
      dim: 16
      dim: 16
      dim: 16
    }
  }
}
layer {
  name: "L2_b1_concat0"
  type: "Concat"
  bottom: "L2_b1_sum_eltwise_top"
  bottom: "L2_b1_zeros"
  top: "L2_b1_concat0"
  concat_param {
    axis: 1
  }
}
layer {
  name: "L2_b2_cbr1_conv"
  type: "Convolution"
  bottom: "L2_b1_concat0"
  top: "L2_b2_cbr1_conv_top"
  param {
    lr_mult: 1
    decay_mult: 1
  }
  param {
    lr_mult: 2
    decay_mult: 1
  }
  convolution_param {
    num_output: 32
    pad: 1
    kernel_size: 3
    stride: 1
    weight_filler {
      type: "msra"
    }
    bias_filler {
      type: "constant"
    }
  }
}
layer {
  name: "L2_b2_cbr1_bn"
  type: "BatchNorm"
  bottom: "L2_b2_cbr1_conv_top"
  top: "L2_b2_cbr1_bn_top"
  include {
    phase: TRAIN
  }
  batch_norm_param {
    use_global_stats: false
    moving_average_fraction: 0.95
  }
}
layer {
  name: "L2_b2_cbr1_scale"
  type: "Scale"
  bottom: "L2_b2_cbr1_bn_top"
  top: "L2_b2_cbr1_bn_top"
  scale_param {
    bias_term: true
  }
}
layer {
  name: "L2_b2_cbr1_relu"
  type: "ReLU"
  bottom: "L2_b2_cbr1_bn_top"
  top: "L2_b2_cbr1_bn_top"
}
layer {
  name: "L2_b2_cbr2_conv"
  type: "Convolution"
  bottom: "L2_b2_cbr1_bn_top"
  top: "L2_b2_cbr2_conv_top"
  param {
    lr_mult: 1
    decay_mult: 1
  }
  param {
    lr_mult: 2
    decay_mult: 1
  }
  convolution_param {
    num_output: 32
    pad: 1
    kernel_size: 3
    stride: 1
    weight_filler {
      type: "msra"
    }
    bias_filler {
      type: "constant"
    }
  }
}
layer {
  name: "L2_b2_cbr2_bn"
  type: "BatchNorm"
  bottom: "L2_b2_cbr2_conv_top"
  top: "L2_b2_cbr2_bn_top"
  include {
    phase: TRAIN
  }
  batch_norm_param {
    use_global_stats: false
    moving_average_fraction: 0.95
  }
}
layer {
  name: "L2_b2_cbr2_scale"
  type: "Scale"
  bottom: "L2_b2_cbr2_bn_top"
  top: "L2_b2_cbr2_bn_top"
  scale_param {
    bias_term: true
  }
}
layer {
  name: "L2_b2_sum_eltwise"
  type: "Eltwise"
  bottom: "L2_b2_cbr2_bn_top"
  bottom: "L2_b1_concat0"
  top: "L2_b2_sum_eltwise_top"
  eltwise_param {
    operation: SUM
  }
}
layer {
  name: "L2_b2_relu"
  type: "ReLU"
  bottom: "L2_b2_sum_eltwise_top"
  top: "L2_b2_sum_eltwise_top"
}
layer {
  name: "L2_b3_cbr1_conv"
  type: "Convolution"
  bottom: "L2_b2_sum_eltwise_top"
  top: "L2_b3_cbr1_conv_top"
  param {
    lr_mult: 1
    decay_mult: 1
  }
  param {
    lr_mult: 2
    decay_mult: 1
  }
  convolution_param {
    num_output: 32
    pad: 1
    kernel_size: 3
    stride: 1
    weight_filler {
      type: "msra"
    }
    bias_filler {
      type: "constant"
    }
  }
}
layer {
  name: "L2_b3_cbr1_bn"
  type: "BatchNorm"
  bottom: "L2_b3_cbr1_conv_top"
  top: "L2_b3_cbr1_bn_top"
  include {
    phase: TRAIN
  }
  batch_norm_param {
    use_global_stats: false
    moving_average_fraction: 0.95
  }
}
layer {
  name: "L2_b3_cbr1_scale"
  type: "Scale"
  bottom: "L2_b3_cbr1_bn_top"
  top: "L2_b3_cbr1_bn_top"
  scale_param {
    bias_term: true
  }
}
layer {
  name: "L2_b3_cbr1_relu"
  type: "ReLU"
  bottom: "L2_b3_cbr1_bn_top"
  top: "L2_b3_cbr1_bn_top"
}
layer {
  name: "L2_b3_cbr2_conv"
  type: "Convolution"
  bottom: "L2_b3_cbr1_bn_top"
  top: "L2_b3_cbr2_conv_top"
  param {
    lr_mult: 1
    decay_mult: 1
  }
  param {
    lr_mult: 2
    decay_mult: 1
  }
  convolution_param {
    num_output: 32
    pad: 1
    kernel_size: 3
    stride: 1
    weight_filler {
      type: "msra"
    }
    bias_filler {
      type: "constant"
    }
  }
}
layer {
  name: "L2_b3_cbr2_bn"
  type: "BatchNorm"
  bottom: "L2_b3_cbr2_conv_top"
  top: "L2_b3_cbr2_bn_top"
  include {
    phase: TRAIN
  }
  batch_norm_param {
    use_global_stats: false
    moving_average_fraction: 0.95
  }
}
layer {
  name: "L2_b3_cbr2_scale"
  type: "Scale"
  bottom: "L2_b3_cbr2_bn_top"
  top: "L2_b3_cbr2_bn_top"
  scale_param {
    bias_term: true
  }
}
layer {
  name: "L2_b3_sum_eltwise"
  type: "Eltwise"
  bottom: "L2_b3_cbr2_bn_top"
  bottom: "L2_b2_sum_eltwise_top"
  top: "L2_b3_sum_eltwise_top"
  eltwise_param {
    operation: SUM
  }
}
layer {
  name: "L2_b3_relu"
  type: "ReLU"
  bottom: "L2_b3_sum_eltwise_top"
  top: "L2_b3_sum_eltwise_top"
}
layer {
  name: "L2_b4_cbr1_conv"
  type: "Convolution"
  bottom: "L2_b3_sum_eltwise_top"
  top: "L2_b4_cbr1_conv_top"
  param {
    lr_mult: 1
    decay_mult: 1
  }
  param {
    lr_mult: 2
    decay_mult: 1
  }
  convolution_param {
    num_output: 32
    pad: 1
    kernel_size: 3
    stride: 1
    weight_filler {
      type: "msra"
    }
    bias_filler {
      type: "constant"
    }
  }
}
layer {
  name: "L2_b4_cbr1_bn"
  type: "BatchNorm"
  bottom: "L2_b4_cbr1_conv_top"
  top: "L2_b4_cbr1_bn_top"
  include {
    phase: TRAIN
  }
  batch_norm_param {
    use_global_stats: false
    moving_average_fraction: 0.95
  }
}
layer {
  name: "L2_b4_cbr1_scale"
  type: "Scale"
  bottom: "L2_b4_cbr1_bn_top"
  top: "L2_b4_cbr1_bn_top"
  scale_param {
    bias_term: true
  }
}
layer {
  name: "L2_b4_cbr1_relu"
  type: "ReLU"
  bottom: "L2_b4_cbr1_bn_top"
  top: "L2_b4_cbr1_bn_top"
}
layer {
  name: "L2_b4_cbr2_conv"
  type: "Convolution"
  bottom: "L2_b4_cbr1_bn_top"
  top: "L2_b4_cbr2_conv_top"
  param {
    lr_mult: 1
    decay_mult: 1
  }
  param {
    lr_mult: 2
    decay_mult: 1
  }
  convolution_param {
    num_output: 32
    pad: 1
    kernel_size: 3
    stride: 1
    weight_filler {
      type: "msra"
    }
    bias_filler {
      type: "constant"
    }
  }
}
layer {
  name: "L2_b4_cbr2_bn"
  type: "BatchNorm"
  bottom: "L2_b4_cbr2_conv_top"
  top: "L2_b4_cbr2_bn_top"
  include {
    phase: TRAIN
  }
  batch_norm_param {
    use_global_stats: false
    moving_average_fraction: 0.95
  }
}
layer {
  name: "L2_b4_cbr2_scale"
  type: "Scale"
  bottom: "L2_b4_cbr2_bn_top"
  top: "L2_b4_cbr2_bn_top"
  scale_param {
    bias_term: true
  }
}
layer {
  name: "L2_b4_sum_eltwise"
  type: "Eltwise"
  bottom: "L2_b4_cbr2_bn_top"
  bottom: "L2_b3_sum_eltwise_top"
  top: "L2_b4_sum_eltwise_top"
  eltwise_param {
    operation: SUM
  }
}
layer {
  name: "L2_b4_relu"
  type: "ReLU"
  bottom: "L2_b4_sum_eltwise_top"
  top: "L2_b4_sum_eltwise_top"
}
layer {
  name: "L2_b5_cbr1_conv"
  type: "Convolution"
  bottom: "L2_b4_sum_eltwise_top"
  top: "L2_b5_cbr1_conv_top"
  param {
    lr_mult: 1
    decay_mult: 1
  }
  param {
    lr_mult: 2
    decay_mult: 1
  }
  convolution_param {
    num_output: 32
    pad: 1
    kernel_size: 3
    stride: 1
    weight_filler {
      type: "msra"
    }
    bias_filler {
      type: "constant"
    }
  }
}
layer {
  name: "L2_b5_cbr1_bn"
  type: "BatchNorm"
  bottom: "L2_b5_cbr1_conv_top"
  top: "L2_b5_cbr1_bn_top"
  include {
    phase: TRAIN
  }
  batch_norm_param {
    use_global_stats: false
    moving_average_fraction: 0.95
  }
}
layer {
  name: "L2_b5_cbr1_scale"
  type: "Scale"
  bottom: "L2_b5_cbr1_bn_top"
  top: "L2_b5_cbr1_bn_top"
  scale_param {
    bias_term: true
  }
}
layer {
  name: "L2_b5_cbr1_relu"
  type: "ReLU"
  bottom: "L2_b5_cbr1_bn_top"
  top: "L2_b5_cbr1_bn_top"
}
layer {
  name: "L2_b5_cbr2_conv"
  type: "Convolution"
  bottom: "L2_b5_cbr1_bn_top"
  top: "L2_b5_cbr2_conv_top"
  param {
    lr_mult: 1
    decay_mult: 1
  }
  param {
    lr_mult: 2
    decay_mult: 1
  }
  convolution_param {
    num_output: 32
    pad: 1
    kernel_size: 3
    stride: 1
    weight_filler {
      type: "msra"
    }
    bias_filler {
      type: "constant"
    }
  }
}
layer {
  name: "L2_b5_cbr2_bn"
  type: "BatchNorm"
  bottom: "L2_b5_cbr2_conv_top"
  top: "L2_b5_cbr2_bn_top"
  include {
    phase: TRAIN
  }
  batch_norm_param {
    use_global_stats: false
    moving_average_fraction: 0.95
  }
}
layer {
  name: "L2_b5_cbr2_scale"
  type: "Scale"
  bottom: "L2_b5_cbr2_bn_top"
  top: "L2_b5_cbr2_bn_top"
  scale_param {
    bias_term: true
  }
}
layer {
  name: "L2_b5_sum_eltwise"
  type: "Eltwise"
  bottom: "L2_b5_cbr2_bn_top"
  bottom: "L2_b4_sum_eltwise_top"
  top: "L2_b5_sum_eltwise_top"
  eltwise_param {
    operation: SUM
  }
}
layer {
  name: "L2_b5_relu"
  type: "ReLU"
  bottom: "L2_b5_sum_eltwise_top"
  top: "L2_b5_sum_eltwise_top"
}
layer {
  name: "L2_b6_cbr1_conv"
  type: "Convolution"
  bottom: "L2_b5_sum_eltwise_top"
  top: "L2_b6_cbr1_conv_top"
  param {
    lr_mult: 1
    decay_mult: 1
  }
  param {
    lr_mult: 2
    decay_mult: 1
  }
  convolution_param {
    num_output: 32
    pad: 1
    kernel_size: 3
    stride: 1
    weight_filler {
      type: "msra"
    }
    bias_filler {
      type: "constant"
    }
  }
}
layer {
  name: "L2_b6_cbr1_bn"
  type: "BatchNorm"
  bottom: "L2_b6_cbr1_conv_top"
  top: "L2_b6_cbr1_bn_top"
  include {
    phase: TRAIN
  }
  batch_norm_param {
    use_global_stats: false
    moving_average_fraction: 0.95
  }
}
layer {
  name: "L2_b6_c
I0818 15:07:02.817127 21584 layer_factory.hpp:77] Creating layer dataLayer
I0818 15:07:02.819499 21584 net.cpp:100] Creating Layer dataLayer
I0818 15:07:02.819581 21584 net.cpp:408] dataLayer -> data_top
I0818 15:07:02.819793 21584 net.cpp:408] dataLayer -> label
I0818 15:07:02.819923 21584 data_transformer.cpp:25] Loading mean file from: examples/cifar10/mean.binaryproto
I0818 15:07:02.926396 21589 db_lmdb.cpp:35] Opened lmdb examples/cifar10/cifar10_train_lmdb
I0818 15:07:03.231662 21584 data_layer.cpp:41] output data size: 125,3,32,32
I0818 15:07:03.239459 21584 net.cpp:150] Setting up dataLayer
I0818 15:07:03.239527 21584 net.cpp:157] Top shape: 125 3 32 32 (384000)
I0818 15:07:03.239542 21584 net.cpp:157] Top shape: 125 (125)
I0818 15:07:03.239547 21584 net.cpp:165] Memory required for data: 1536500
I0818 15:07:03.239563 21584 layer_factory.hpp:77] Creating layer label_dataLayer_1_split
I0818 15:07:03.239579 21584 net.cpp:100] Creating Layer label_dataLayer_1_split
I0818 15:07:03.239588 21584 net.cpp:434] label_dataLayer_1_split <- label
I0818 15:07:03.239610 21584 net.cpp:408] label_dataLayer_1_split -> label_dataLayer_1_split_0
I0818 15:07:03.239629 21584 net.cpp:408] label_dataLayer_1_split -> label_dataLayer_1_split_1
I0818 15:07:03.239711 21584 net.cpp:150] Setting up label_dataLayer_1_split
I0818 15:07:03.239727 21584 net.cpp:157] Top shape: 125 (125)
I0818 15:07:03.239733 21584 net.cpp:157] Top shape: 125 (125)
I0818 15:07:03.239738 21584 net.cpp:165] Memory required for data: 1537500
I0818 15:07:03.239744 21584 layer_factory.hpp:77] Creating layer pre_conv
I0818 15:07:03.239815 21584 net.cpp:100] Creating Layer pre_conv
I0818 15:07:03.239828 21584 net.cpp:434] pre_conv <- data_top
I0818 15:07:03.239840 21584 net.cpp:408] pre_conv -> pre_conv_top
I0818 15:07:03.241569 21584 net.cpp:150] Setting up pre_conv
I0818 15:07:03.241598 21584 net.cpp:157] Top shape: 125 16 32 32 (2048000)
I0818 15:07:03.241605 21584 net.cpp:165] Memory required for data: 9729500
I0818 15:07:03.241679 21584 layer_factory.hpp:77] Creating layer pre_bn
I0818 15:07:03.241765 21584 net.cpp:100] Creating Layer pre_bn
I0818 15:07:03.241778 21584 net.cpp:434] pre_bn <- pre_conv_top
I0818 15:07:03.241791 21584 net.cpp:408] pre_bn -> pre_bn_top
I0818 15:07:03.242126 21590 blocking_queue.cpp:50] Waiting for data
I0818 15:07:03.242244 21584 net.cpp:150] Setting up pre_bn
I0818 15:07:03.242264 21584 net.cpp:157] Top shape: 125 16 32 32 (2048000)
I0818 15:07:03.242269 21584 net.cpp:165] Memory required for data: 17921500
I0818 15:07:03.242286 21584 layer_factory.hpp:77] Creating layer pre_scale
I0818 15:07:03.242341 21584 net.cpp:100] Creating Layer pre_scale
I0818 15:07:03.242350 21584 net.cpp:434] pre_scale <- pre_bn_top
I0818 15:07:03.242363 21584 net.cpp:395] pre_scale -> pre_bn_top (in-place)
I0818 15:07:03.242547 21584 layer_factory.hpp:77] Creating layer pre_scale
I0818 15:07:03.251374 21584 net.cpp:150] Setting up pre_scale
I0818 15:07:03.251400 21584 net.cpp:157] Top shape: 125 16 32 32 (2048000)
I0818 15:07:03.251407 21584 net.cpp:165] Memory required for data: 26113500
I0818 15:07:03.251418 21584 layer_factory.hpp:77] Creating layer pre_relu
I0818 15:07:03.251476 21584 net.cpp:100] Creating Layer pre_relu
I0818 15:07:03.251485 21584 net.cpp:434] pre_relu <- pre_bn_top
I0818 15:07:03.251494 21584 net.cpp:395] pre_relu -> pre_bn_top (in-place)
I0818 15:07:03.251507 21584 net.cpp:150] Setting up pre_relu
I0818 15:07:03.251515 21584 net.cpp:157] Top shape: 125 16 32 32 (2048000)
I0818 15:07:03.251519 21584 net.cpp:165] Memory required for data: 34305500
I0818 15:07:03.251525 21584 layer_factory.hpp:77] Creating layer pre_bn_top_pre_relu_0_split
I0818 15:07:03.251536 21584 net.cpp:100] Creating Layer pre_bn_top_pre_relu_0_split
I0818 15:07:03.251543 21584 net.cpp:434] pre_bn_top_pre_relu_0_split <- pre_bn_top
I0818 15:07:03.251550 21584 net.cpp:408] pre_bn_top_pre_relu_0_split -> pre_bn_top_pre_relu_0_split_0
I0818 15:07:03.251560 21584 net.cpp:408] pre_bn_top_pre_relu_0_split -> pre_bn_top_pre_relu_0_split_1
I0818 15:07:03.251610 21584 net.cpp:150] Setting up pre_bn_top_pre_relu_0_split
I0818 15:07:03.251626 21584 net.cpp:157] Top shape: 125 16 32 32 (2048000)
I0818 15:07:03.251633 21584 net.cpp:157] Top shape: 125 16 32 32 (2048000)
I0818 15:07:03.251637 21584 net.cpp:165] Memory required for data: 50689500
I0818 15:07:03.251642 21584 layer_factory.hpp:77] Creating layer L1_b1_cbr1_conv
I0818 15:07:03.251674 21584 net.cpp:100] Creating Layer L1_b1_cbr1_conv
I0818 15:07:03.251683 21584 net.cpp:434] L1_b1_cbr1_conv <- pre_bn_top_pre_relu_0_split_0
I0818 15:07:03.251693 21584 net.cpp:408] L1_b1_cbr1_conv -> L1_b1_cbr1_conv_top
I0818 15:07:03.252019 21584 net.cpp:150] Setting up L1_b1_cbr1_conv
I0818 15:07:03.252035 21584 net.cpp:157] Top shape: 125 16 32 32 (2048000)
I0818 15:07:03.252040 21584 net.cpp:165] Memory required for data: 58881500
I0818 15:07:03.252053 21584 layer_factory.hpp:77] Creating layer L1_b1_cbr1_bn
I0818 15:07:03.252069 21584 net.cpp:100] Creating Layer L1_b1_cbr1_bn
I0818 15:07:03.252075 21584 net.cpp:434] L1_b1_cbr1_bn <- L1_b1_cbr1_conv_top
I0818 15:07:03.252086 21584 net.cpp:408] L1_b1_cbr1_bn -> L1_b1_cbr1_bn_top
I0818 15:07:03.252317 21584 net.cpp:150] Setting up L1_b1_cbr1_bn
I0818 15:07:03.252331 21584 net.cpp:157] Top shape: 125 16 32 32 (2048000)
I0818 15:07:03.252336 21584 net.cpp:165] Memory required for data: 67073500
I0818 15:07:03.252347 21584 layer_factory.hpp:77] Creating layer L1_b1_cbr1_scale
I0818 15:07:03.252360 21584 net.cpp:100] Creating Layer L1_b1_cbr1_scale
I0818 15:07:03.252367 21584 net.cpp:434] L1_b1_cbr1_scale <- L1_b1_cbr1_bn_top
I0818 15:07:03.252375 21584 net.cpp:395] L1_b1_cbr1_scale -> L1_b1_cbr1_bn_top (in-place)
I0818 15:07:03.252425 21584 layer_factory.hpp:77] Creating layer L1_b1_cbr1_scale
I0818 15:07:03.252562 21584 net.cpp:150] Setting up L1_b1_cbr1_scale
I0818 15:07:03.252574 21584 net.cpp:157] Top shape: 125 16 32 32 (2048000)
I0818 15:07:03.252580 21584 net.cpp:165] Memory required for data: 75265500
I0818 15:07:03.252589 21584 layer_factory.hpp:77] Creating layer L1_b1_cbr1_relu
I0818 15:07:03.252609 21584 net.cpp:100] Creating Layer L1_b1_cbr1_relu
I0818 15:07:03.252615 21584 net.cpp:434] L1_b1_cbr1_relu <- L1_b1_cbr1_bn_top
I0818 15:07:03.252624 21584 net.cpp:395] L1_b1_cbr1_relu -> L1_b1_cbr1_bn_top (in-place)
I0818 15:07:03.252634 21584 net.cpp:150] Setting up L1_b1_cbr1_relu
I0818 15:07:03.252640 21584 net.cpp:157] Top shape: 125 16 32 32 (2048000)
I0818 15:07:03.252645 21584 net.cpp:165] Memory required for data: 83457500
I0818 15:07:03.252656 21584 layer_factory.hpp:77] Creating layer L1_b1_cbr2_conv
I0818 15:07:03.252673 21584 net.cpp:100] Creating Layer L1_b1_cbr2_conv
I0818 15:07:03.252681 21584 net.cpp:434] L1_b1_cbr2_conv <- L1_b1_cbr1_bn_top
I0818 15:07:03.252694 21584 net.cpp:408] L1_b1_cbr2_conv -> L1_b1_cbr2_conv_top
I0818 15:07:03.252995 21584 net.cpp:150] Setting up L1_b1_cbr2_conv
I0818 15:07:03.253008 21584 net.cpp:157] Top shape: 125 16 32 32 (2048000)
I0818 15:07:03.253013 21584 net.cpp:165] Memory required for data: 91649500
I0818 15:07:03.253022 21584 layer_factory.hpp:77] Creating layer L1_b1_cbr2_bn
I0818 15:07:03.253032 21584 net.cpp:100] Creating Layer L1_b1_cbr2_bn
I0818 15:07:03.253038 21584 net.cpp:434] L1_b1_cbr2_bn <- L1_b1_cbr2_conv_top
I0818 15:07:03.253046 21584 net.cpp:408] L1_b1_cbr2_bn -> L1_b1_cbr2_bn_top
I0818 15:07:03.253274 21584 net.cpp:150] Setting up L1_b1_cbr2_bn
I0818 15:07:03.253288 21584 net.cpp:157] Top shape: 125 16 32 32 (2048000)
I0818 15:07:03.253293 21584 net.cpp:165] Memory required for data: 99841500
I0818 15:07:03.253310 21584 layer_factory.hpp:77] Creating layer L1_b1_cbr2_scale
I0818 15:07:03.253320 21584 net.cpp:100] Creating Layer L1_b1_cbr2_scale
I0818 15:07:03.253326 21584 net.cpp:434] L1_b1_cbr2_scale <- L1_b1_cbr2_bn_top
I0818 15:07:03.253337 21584 net.cpp:395] L1_b1_cbr2_scale -> L1_b1_cbr2_bn_top (in-place)
I0818 15:07:03.253392 21584 layer_factory.hpp:77] Creating layer L1_b1_cbr2_scale
I0818 15:07:03.253532 21584 net.cpp:150] Setting up L1_b1_cbr2_scale
I0818 15:07:03.253546 21584 net.cpp:157] Top shape: 125 16 32 32 (2048000)
I0818 15:07:03.253551 21584 net.cpp:165] Memory required for data: 108033500
I0818 15:07:03.253561 21584 layer_factory.hpp:77] Creating layer L1_b1_sum_eltwise
I0818 15:07:03.253620 21584 net.cpp:100] Creating Layer L1_b1_sum_eltwise
I0818 15:07:03.253633 21584 net.cpp:434] L1_b1_sum_eltwise <- L1_b1_cbr2_bn_top
I0818 15:07:03.253641 21584 net.cpp:434] L1_b1_sum_eltwise <- pre_bn_top_pre_relu_0_split_1
I0818 15:07:03.253656 21584 net.cpp:408] L1_b1_sum_eltwise -> L1_b1_sum_eltwise_top
I0818 15:07:03.253739 21584 net.cpp:150] Setting up L1_b1_sum_eltwise
I0818 15:07:03.253754 21584 net.cpp:157] Top shape: 125 16 32 32 (2048000)
I0818 15:07:03.253760 21584 net.cpp:165] Memory required for data: 116225500
I0818 15:07:03.253767 21584 layer_factory.hpp:77] Creating layer L1_b1_relu
I0818 15:07:03.253775 21584 net.cpp:100] Creating Layer L1_b1_relu
I0818 15:07:03.253780 21584 net.cpp:434] L1_b1_relu <- L1_b1_sum_eltwise_top
I0818 15:07:03.253793 21584 net.cpp:395] L1_b1_relu -> L1_b1_sum_eltwise_top (in-place)
I0818 15:07:03.253803 21584 net.cpp:150] Setting up L1_b1_relu
I0818 15:07:03.253810 21584 net.cpp:157] Top shape: 125 16 32 32 (2048000)
I0818 15:07:03.253815 21584 net.cpp:165] Memory required for data: 124417500
I0818 15:07:03.253819 21584 layer_factory.hpp:77] Creating layer L1_b1_sum_eltwise_top_L1_b1_relu_0_split
I0818 15:07:03.253829 21584 net.cpp:100] Creating Layer L1_b1_sum_eltwise_top_L1_b1_relu_0_split
I0818 15:07:03.253834 21584 net.cpp:434] L1_b1_sum_eltwise_top_L1_b1_relu_0_split <- L1_b1_sum_eltwise_top
I0818 15:07:03.253842 21584 net.cpp:408] L1_b1_sum_eltwise_top_L1_b1_relu_0_split -> L1_b1_sum_eltwise_top_L1_b1_relu_0_split_0
I0818 15:07:03.253852 21584 net.cpp:408] L1_b1_sum_eltwise_top_L1_b1_relu_0_split -> L1_b1_sum_eltwise_top_L1_b1_relu_0_split_1
I0818 15:07:03.253897 21584 net.cpp:150] Setting up L1_b1_sum_eltwise_top_L1_b1_relu_0_split
I0818 15:07:03.253909 21584 net.cpp:157] Top shape: 125 16 32 32 (2048000)
I0818 15:07:03.253916 21584 net.cpp:157] Top shape: 125 16 32 32 (2048000)
I0818 15:07:03.253928 21584 net.cpp:165] Memory required for data: 140801500
I0818 15:07:03.253933 21584 layer_factory.hpp:77] Creating layer L1_b2_cbr1_conv
I0818 15:07:03.253948 21584 net.cpp:100] Creating Layer L1_b2_cbr1_conv
I0818 15:07:03.253955 21584 net.cpp:434] L1_b2_cbr1_conv <- L1_b1_sum_eltwise_top_L1_b1_relu_0_split_0
I0818 15:07:03.253964 21584 net.cpp:408] L1_b2_cbr1_conv -> L1_b2_cbr1_conv_top
I0818 15:07:03.254271 21584 net.cpp:150] Setting up L1_b2_cbr1_conv
I0818 15:07:03.254286 21584 net.cpp:157] Top shape: 125 16 32 32 (2048000)
I0818 15:07:03.254290 21584 net.cpp:165] Memory required for data: 148993500
I0818 15:07:03.254300 21584 layer_factory.hpp:77] Creating layer L1_b2_cbr1_bn
I0818 15:07:03.254314 21584 net.cpp:100] Creating Layer L1_b2_cbr1_bn
I0818 15:07:03.254320 21584 net.cpp:434] L1_b2_cbr1_bn <- L1_b2_cbr1_conv_top
I0818 15:07:03.254329 21584 net.cpp:408] L1_b2_cbr1_bn -> L1_b2_cbr1_bn_top
I0818 15:07:03.254570 21584 net.cpp:150] Setting up L1_b2_cbr1_bn
I0818 15:07:03.254583 21584 net.cpp:157] Top shape: 125 16 32 32 (2048000)
I0818 15:07:03.254588 21584 net.cpp:165] Memory required for data: 157185500
I0818 15:07:03.254598 21584 layer_factory.hpp:77] Creating layer L1_b2_cbr1_scale
I0818 15:07:03.254607 21584 net.cpp:100] Creating Layer L1_b2_cbr1_scale
I0818 15:07:03.254613 21584 net.cpp:434] L1_b2_cbr1_scale <- L1_b2_cbr1_bn_top
I0818 15:07:03.254621 21584 net.cpp:395] L1_b2_cbr1_scale -> L1_b2_cbr1_bn_top (in-place)
I0818 15:07:03.254683 21584 layer_factory.hpp:77] Creating layer L1_b2_cbr1_scale
I0818 15:07:03.254820 21584 net.cpp:150] Setting up L1_b2_cbr1_scale
I0818 15:07:03.254833 21584 net.cpp:157] Top shape: 125 16 32 32 (2048000)
I0818 15:07:03.254839 21584 net.cpp:165] Memory required for data: 165377500
I0818 15:07:03.254848 21584 layer_factory.hpp:77] Creating layer L1_b2_cbr1_relu
I0818 15:07:03.254856 21584 net.cpp:100] Creating Layer L1_b2_cbr1_relu
I0818 15:07:03.254863 21584 net.cpp:434] L1_b2_cbr1_relu <- L1_b2_cbr1_bn_top
I0818 15:07:03.254874 21584 net.cpp:395] L1_b2_cbr1_relu -> L1_b2_cbr1_bn_top (in-place)
I0818 15:07:03.254884 21584 net.cpp:150] Setting up L1_b2_cbr1_relu
I0818 15:07:03.254891 21584 net.cpp:157] Top shape: 125 16 32 32 (2048000)
I0818 15:07:03.254896 21584 net.cpp:165] Memory required for data: 173569500
I0818 15:07:03.254901 21584 layer_factory.hpp:77] Creating layer L1_b2_cbr2_conv
I0818 15:07:03.254914 21584 net.cpp:100] Creating Layer L1_b2_cbr2_conv
I0818 15:07:03.254920 21584 net.cpp:434] L1_b2_cbr2_conv <- L1_b2_cbr1_bn_top
I0818 15:07:03.254930 21584 net.cpp:408] L1_b2_cbr2_conv -> L1_b2_cbr2_conv_top
I0818 15:07:03.255234 21584 net.cpp:150] Setting up L1_b2_cbr2_conv
I0818 15:07:03.255247 21584 net.cpp:157] Top shape: 125 16 32 32 (2048000)
I0818 15:07:03.255252 21584 net.cpp:165] Memory required for data: 181761500
I0818 15:07:03.255261 21584 layer_factory.hpp:77] Creating layer L1_b2_cbr2_bn
I0818 15:07:03.255275 21584 net.cpp:100] Creating Layer L1_b2_cbr2_bn
I0818 15:07:03.255282 21584 net.cpp:434] L1_b2_cbr2_bn <- L1_b2_cbr2_conv_top
I0818 15:07:03.255291 21584 net.cpp:408] L1_b2_cbr2_bn -> L1_b2_cbr2_bn_top
I0818 15:07:03.255527 21584 net.cpp:150] Setting up L1_b2_cbr2_bn
I0818 15:07:03.255543 21584 net.cpp:157] Top shape: 125 16 32 32 (2048000)
I0818 15:07:03.255548 21584 net.cpp:165] Memory required for data: 189953500
I0818 15:07:03.255564 21584 layer_factory.hpp:77] Creating layer L1_b2_cbr2_scale
I0818 15:07:03.255574 21584 net.cpp:100] Creating Layer L1_b2_cbr2_scale
I0818 15:07:03.255580 21584 net.cpp:434] L1_b2_cbr2_scale <- L1_b2_cbr2_bn_top
I0818 15:07:03.255591 21584 net.cpp:395] L1_b2_cbr2_scale -> L1_b2_cbr2_bn_top (in-place)
I0818 15:07:03.255643 21584 layer_factory.hpp:77] Creating layer L1_b2_cbr2_scale
I0818 15:07:03.255795 21584 net.cpp:150] Setting up L1_b2_cbr2_scale
I0818 15:07:03.255810 21584 net.cpp:157] Top shape: 125 16 32 32 (2048000)
I0818 15:07:03.255815 21584 net.cpp:165] Memory required for data: 198145500
I0818 15:07:03.255825 21584 layer_factory.hpp:77] Creating layer L1_b2_sum_eltwise
I0818 15:07:03.255841 21584 net.cpp:100] Creating Layer L1_b2_sum_eltwise
I0818 15:07:03.255847 21584 net.cpp:434] L1_b2_sum_eltwise <- L1_b2_cbr2_bn_top
I0818 15:07:03.255854 21584 net.cpp:434] L1_b2_sum_eltwise <- L1_b1_sum_eltwise_top_L1_b1_relu_0_split_1
I0818 15:07:03.255864 21584 net.cpp:408] L1_b2_sum_eltwise -> L1_b2_sum_eltwise_top
I0818 15:07:03.255897 21584 net.cpp:150] Setting up L1_b2_sum_eltwise
I0818 15:07:03.255908 21584 net.cpp:157] Top shape: 125 16 32 32 (2048000)
I0818 15:07:03.255913 21584 net.cpp:165] Memory required for data: 206337500
I0818 15:07:03.255918 21584 layer_factory.hpp:77] Creating layer L1_b2_relu
I0818 15:07:03.255925 21584 net.cpp:100] Creating Layer L1_b2_relu
I0818 15:07:03.255931 21584 net.cpp:434] L1_b2_relu <- L1_b2_sum_eltwise_top
I0818 15:07:03.255939 21584 net.cpp:395] L1_b2_relu -> L1_b2_sum_eltwise_top (in-place)
I0818 15:07:03.255947 21584 net.cpp:150] Setting up L1_b2_relu
I0818 15:07:03.255954 21584 net.cpp:157] Top shape: 125 16 32 32 (2048000)
I0818 15:07:03.255959 21584 net.cpp:165] Memory required for data: 214529500
I0818 15:07:03.255964 21584 layer_factory.hpp:77] Creating layer L1_b2_sum_eltwise_top_L1_b2_relu_0_split
I0818 15:07:03.255975 21584 net.cpp:100] Creating Layer L1_b2_sum_eltwise_top_L1_b2_relu_0_split
I0818 15:07:03.255980 21584 net.cpp:434] L1_b2_sum_eltwise_top_L1_b2_relu_0_split <- L1_b2_sum_eltwise_top
I0818 15:07:03.255987 21584 net.cpp:408] L1_b2_sum_eltwise_top_L1_b2_relu_0_split -> L1_b2_sum_eltwise_top_L1_b2_relu_0_split_0
I0818 15:07:03.255996 21584 net.cpp:408] L1_b2_sum_eltwise_top_L1_b2_relu_0_split -> L1_b2_sum_eltwise_top_L1_b2_relu_0_split_1
I0818 15:07:03.256037 21584 net.cpp:150] Setting up L1_b2_sum_eltwise_top_L1_b2_relu_0_split
I0818 15:07:03.256052 21584 net.cpp:157] Top shape: 125 16 32 32 (2048000)
I0818 15:07:03.256058 21584 net.cpp:157] Top shape: 125 16 32 32 (2048000)
I0818 15:07:03.256063 21584 net.cpp:165] Memory required for data: 230913500
I0818 15:07:03.256068 21584 layer_factory.hpp:77] Creating layer L1_b3_cbr1_conv
I0818 15:07:03.256079 21584 net.cpp:100] Creating Layer L1_b3_cbr1_conv
I0818 15:07:03.256085 21584 net.cpp:434] L1_b3_cbr1_conv <- L1_b2_sum_eltwise_top_L1_b2_relu_0_split_0
I0818 15:07:03.256094 21584 net.cpp:408] L1_b3_cbr1_conv -> L1_b3_cbr1_conv_top
I0818 15:07:03.256397 21584 net.cpp:150] Setting up L1_b3_cbr1_conv
I0818 15:07:03.256412 21584 net.cpp:157] Top shape: 125 16 32 32 (2048000)
I0818 15:07:03.256417 21584 net.cpp:165] Memory required for data: 239105500
I0818 15:07:03.256425 21584 layer_factory.hpp:77] Creating layer L1_b3_cbr1_bn
I0818 15:07:03.256438 21584 net.cpp:100] Creating Layer L1_b3_cbr1_bn
I0818 15:07:03.256443 21584 net.cpp:434] L1_b3_cbr1_bn <- L1_b3_cbr1_conv_top
I0818 15:07:03.256451 21584 net.cpp:408] L1_b3_cbr1_bn -> L1_b3_cbr1_bn_top
I0818 15:07:03.256691 21584 net.cpp:150] Setting up L1_b3_cbr1_bn
I0818 15:07:03.256705 21584 net.cpp:157] Top shape: 125 16 32 32 (2048000)
I0818 15:07:03.256711 21584 net.cpp:165] Memory required for data: 247297500
I0818 15:07:03.256721 21584 layer_factory.hpp:77] Creating layer L1_b3_cbr1_scale
I0818 15:07:03.256731 21584 net.cpp:100] Creating Layer L1_b3_cbr1_scale
I0818 15:07:03.256736 21584 net.cpp:434] L1_b3_cbr1_scale <- L1_b3_cbr1_bn_top
I0818 15:07:03.256747 21584 net.cpp:395] L1_b3_cbr1_scale -> L1_b3_cbr1_bn_top (in-place)
I0818 15:07:03.256798 21584 layer_factory.hpp:77] Creating layer L1_b3_cbr1_scale
I0818 15:07:03.256940 21584 net.cpp:150] Setting up L1_b3_cbr1_scale
I0818 15:07:03.256954 21584 net.cpp:157] Top shape: 125 16 32 32 (2048000)
I0818 15:07:03.256959 21584 net.cpp:165] Memory required for data: 255489500
I0818 15:07:03.256968 21584 layer_factory.hpp:77] Creating layer L1_b3_cbr1_relu
I0818 15:07:03.256976 21584 net.cpp:100] Creating Layer L1_b3_cbr1_relu
I0818 15:07:03.256983 21584 net.cpp:434] L1_b3_cbr1_relu <- L1_b3_cbr1_bn_top
I0818 15:07:03.256992 21584 net.cpp:395] L1_b3_cbr1_relu -> L1_b3_cbr1_bn_top (in-place)
I0818 15:07:03.257002 21584 net.cpp:150] Setting up L1_b3_cbr1_relu
I0818 15:07:03.257016 21584 net.cpp:157] Top shape: 125 16 32 32 (2048000)
I0818 15:07:03.257021 21584 net.cpp:165] Memory required for data: 263681500
I0818 15:07:03.257026 21584 layer_factory.hpp:77] Creating layer L1_b3_cbr2_conv
I0818 15:07:03.257041 21584 net.cpp:100] Creating Layer L1_b3_cbr2_conv
I0818 15:07:03.257047 21584 net.cpp:434] L1_b3_cbr2_conv <- L1_b3_cbr1_bn_top
I0818 15:07:03.257056 21584 net.cpp:408] L1_b3_cbr2_conv -> L1_b3_cbr2_conv_top
I0818 15:07:03.257367 21584 net.cpp:150] Setting up L1_b3_cbr2_conv
I0818 15:07:03.257381 21584 net.cpp:157] Top shape: 125 16 32 32 (2048000)
I0818 15:07:03.257386 21584 net.cpp:165] Memory required for data: 271873500
I0818 15:07:03.257395 21584 layer_factory.hpp:77] Creating layer L1_b3_cbr2_bn
I0818 15:07:03.257411 21584 net.cpp:100] Creating Layer L1_b3_cbr2_bn
I0818 15:07:03.257417 21584 net.cpp:434] L1_b3_cbr2_bn <- L1_b3_cbr2_conv_top
I0818 15:07:03.257426 21584 net.cpp:408] L1_b3_cbr2_bn -> L1_b3_cbr2_bn_top
I0818 15:07:03.257664 21584 net.cpp:150] Setting up L1_b3_cbr2_bn
I0818 15:07:03.257678 21584 net.cpp:157] Top shape: 125 16 32 32 (2048000)
I0818 15:07:03.257684 21584 net.cpp:165] Memory required for data: 280065500
I0818 15:07:03.257694 21584 layer_factory.hpp:77] Creating layer L1_b3_cbr2_scale
I0818 15:07:03.257706 21584 net.cpp:100] Creating Layer L1_b3_cbr2_scale
I0818 15:07:03.257712 21584 net.cpp:434] L1_b3_cbr2_scale <- L1_b3_cbr2_bn_top
I0818 15:07:03.257721 21584 net.cpp:395] L1_b3_cbr2_scale -> L1_b3_cbr2_bn_top (in-place)
I0818 15:07:03.257776 21584 layer_factory.hpp:77] Creating layer L1_b3_cbr2_scale
I0818 15:07:03.257913 21584 net.cpp:150] Setting up L1_b3_cbr2_scale
I0818 15:07:03.257926 21584 net.cpp:157] Top shape: 125 16 32 32 (2048000)
I0818 15:07:03.257931 21584 net.cpp:165] Memory required for data: 288257500
I0818 15:07:03.257941 21584 layer_factory.hpp:77] Creating layer L1_b3_sum_eltwise
I0818 15:07:03.257949 21584 net.cpp:100] Creating Layer L1_b3_sum_eltwise
I0818 15:07:03.257956 21584 net.cpp:434] L1_b3_sum_eltwise <- L1_b3_cbr2_bn_top
I0818 15:07:03.257961 21584 net.cpp:434] L1_b3_sum_eltwise <- L1_b2_sum_eltwise_top_L1_b2_relu_0_split_1
I0818 15:07:03.257972 21584 net.cpp:408] L1_b3_sum_eltwise -> L1_b3_sum_eltwise_top
I0818 15:07:03.258003 21584 net.cpp:150] Setting up L1_b3_sum_eltwise
I0818 15:07:03.258015 21584 net.cpp:157] Top shape: 125 16 32 32 (2048000)
I0818 15:07:03.258021 21584 net.cpp:165] Memory required for data: 296449500
I0818 15:07:03.258026 21584 layer_factory.hpp:77] Creating layer L1_b3_relu
I0818 15:07:03.258033 21584 net.cpp:100] Creating Layer L1_b3_relu
I0818 15:07:03.258039 21584 net.cpp:434] L1_b3_relu <- L1_b3_sum_eltwise_top
I0818 15:07:03.258046 21584 net.cpp:395] L1_b3_relu -> L1_b3_sum_eltwise_top (in-place)
I0818 15:07:03.258055 21584 net.cpp:150] Setting up L1_b3_relu
I0818 15:07:03.258062 21584 net.cpp:157] Top shape: 125 16 32 32 (2048000)
I0818 15:07:03.258067 21584 net.cpp:165] Memory required for data: 304641500
I0818 15:07:03.258072 21584 layer_factory.hpp:77] Creating layer L1_b3_sum_eltwise_top_L1_b3_relu_0_split
I0818 15:07:03.258082 21584 net.cpp:100] Creating Layer L1_b3_sum_eltwise_top_L1_b3_relu_0_split
I0818 15:07:03.258087 21584 net.cpp:434] L1_b3_sum_eltwise_top_L1_b3_relu_0_split <- L1_b3_sum_eltwise_top
I0818 15:07:03.258095 21584 net.cpp:408] L1_b3_sum_eltwise_top_L1_b3_relu_0_split -> L1_b3_sum_eltwise_top_L1_b3_relu_0_split_0
I0818 15:07:03.258105 21584 net.cpp:408] L1_b3_sum_eltwise_top_L1_b3_relu_0_split -> L1_b3_sum_eltwise_top_L1_b3_relu_0_split_1
I0818 15:07:03.258149 21584 net.cpp:150] Setting up L1_b3_sum_eltwise_top_L1_b3_relu_0_split
I0818 15:07:03.258162 21584 net.cpp:157] Top shape: 125 16 32 32 (2048000)
I0818 15:07:03.258167 21584 net.cpp:157] Top shape: 125 16 32 32 (2048000)
I0818 15:07:03.258172 21584 net.cpp:165] Memory required for data: 321025500
I0818 15:07:03.258177 21584 layer_factory.hpp:77] Creating layer L1_b4_cbr1_conv
I0818 15:07:03.258188 21584 net.cpp:100] Creating Layer L1_b4_cbr1_conv
I0818 15:07:03.258194 21584 net.cpp:434] L1_b4_cbr1_conv <- L1_b3_sum_eltwise_top_L1_b3_relu_0_split_0
I0818 15:07:03.258214 21584 net.cpp:408] L1_b4_cbr1_conv -> L1_b4_cbr1_conv_top
I0818 15:07:03.258522 21584 net.cpp:150] Setting up L1_b4_cbr1_conv
I0818 15:07:03.258535 21584 net.cpp:157] Top shape: 125 16 32 32 (2048000)
I0818 15:07:03.258541 21584 net.cpp:165] Memory required for data: 329217500
I0818 15:07:03.258549 21584 layer_factory.hpp:77] Creating layer L1_b4_cbr1_bn
I0818 15:07:03.258559 21584 net.cpp:100] Creating Layer L1_b4_cbr1_bn
I0818 15:07:03.258565 21584 net.cpp:434] L1_b4_cbr1_bn <- L1_b4_cbr1_conv_top
I0818 15:07:03.258574 21584 net.cpp:408] L1_b4_cbr1_bn -> L1_b4_cbr1_bn_top
I0818 15:07:03.258826 21584 net.cpp:150] Setting up L1_b4_cbr1_bn
I0818 15:07:03.258841 21584 net.cpp:157] Top shape: 125 16 32 32 (2048000)
I0818 15:07:03.258846 21584 net.cpp:165] Memory required for data: 337409500
I0818 15:07:03.258857 21584 layer_factory.hpp:77] Creating layer L1_b4_cbr1_scale
I0818 15:07:03.258868 21584 net.cpp:100] Creating Layer L1_b4_cbr1_scale
I0818 15:07:03.258874 21584 net.cpp:434] L1_b4_cbr1_scale <- L1_b4_cbr1_bn_top
I0818 15:07:03.258882 21584 net.cpp:395] L1_b4_cbr1_scale -> L1_b4_cbr1_bn_top (in-place)
I0818 15:07:03.258939 21584 layer_factory.hpp:77] Creating layer L1_b4_cbr1_scale
I0818 15:07:03.259079 21584 net.cpp:150] Setting up L1_b4_cbr1_scale
I0818 15:07:03.259093 21584 net.cpp:157] Top shape: 125 16 32 32 (2048000)
I0818 15:07:03.259097 21584 net.cpp:165] Memory required for data: 345601500
I0818 15:07:03.259106 21584 layer_factory.hpp:77] Creating layer L1_b4_cbr1_relu
I0818 15:07:03.259115 21584 net.cpp:100] Creating Layer L1_b4_cbr1_relu
I0818 15:07:03.259120 21584 net.cpp:434] L1_b4_cbr1_relu <- L1_b4_cbr1_bn_top
I0818 15:07:03.259131 21584 net.cpp:395] L1_b4_cbr1_relu -> L1_b4_cbr1_bn_top (in-place)
I0818 15:07:03.259141 21584 net.cpp:150] Setting up L1_b4_cbr1_relu
I0818 15:07:03.259148 21584 net.cpp:157] Top shape: 125 16 32 32 (2048000)
I0818 15:07:03.259152 21584 net.cpp:165] Memory required for data: 353793500
I0818 15:07:03.259157 21584 layer_factory.hpp:77] Creating layer L1_b4_cbr2_conv
I0818 15:07:03.259171 21584 net.cpp:100] Creating Layer L1_b4_cbr2_conv
I0818 15:07:03.259176 21584 net.cpp:434] L1_b4_cbr2_conv <- L1_b4_cbr1_bn_top
I0818 15:07:03.259186 21584 net.cpp:408] L1_b4_cbr2_conv -> L1_b4_cbr2_conv_top
I0818 15:07:03.259492 21584 net.cpp:150] Setting up L1_b4_cbr2_conv
I0818 15:07:03.259506 21584 net.cpp:157] Top shape: 125 16 32 32 (2048000)
I0818 15:07:03.259511 21584 net.cpp:165] Memory required for data: 361985500
I0818 15:07:03.259521 21584 layer_factory.hpp:77] Creating layer L1_b4_cbr2_bn
I0818 15:07:03.259532 21584 net.cpp:100] Creating Layer L1_b4_cbr2_bn
I0818 15:07:03.259539 21584 net.cpp:434] L1_b4_cbr2_bn <- L1_b4_cbr2_conv_top
I0818 15:07:03.259547 21584 net.cpp:408] L1_b4_cbr2_bn -> L1_b4_cbr2_bn_top
I0818 15:07:03.259793 21584 net.cpp:150] Setting up L1_b4_cbr2_bn
I0818 15:07:03.259809 21584 net.cpp:157] Top shape: 125 16 32 32 (2048000)
I0818 15:07:03.259814 21584 net.cpp:165] Memory required for data: 370177500
I0818 15:07:03.259824 21584 layer_factory.hpp:77] Creating layer L1_b4_cbr2_scale
I0818 15:07:03.259835 21584 net.cpp:100] Creating Layer L1_b4_cbr2_scale
I0818 15:07:03.259841 21584 net.cpp:434] L1_b4_cbr2_scale <- L1_b4_cbr2_bn_top
I0818 15:07:03.259850 21584 net.cpp:395] L1_b4_cbr2_scale -> L1_b4_cbr2_bn_top (in-place)
I0818 15:07:03.259904 21584 layer_factory.hpp:77] Creating layer L1_b4_cbr2_scale
I0818 15:07:03.260044 21584 net.cpp:150] Setting up L1_b4_cbr2_scale
I0818 15:07:03.260057 21584 net.cpp:157] Top shape: 125 16 32 32 (2048000)
I0818 15:07:03.260062 21584 net.cpp:165] Memory required for data: 378369500
I0818 15:07:03.260071 21584 layer_factory.hpp:77] Creating layer L1_b4_sum_eltwise
I0818 15:07:03.260083 21584 net.cpp:100] Creating Layer L1_b4_sum_eltwise
I0818 15:07:03.260090 21584 net.cpp:434] L1_b4_sum_eltwise <- L1_b4_cbr2_bn_top
I0818 15:07:03.260097 21584 net.cpp:434] L1_b4_sum_eltwise <- L1_b3_sum_eltwise_top_L1_b3_relu_0_split_1
I0818 15:07:03.260105 21584 net.cpp:408] L1_b4_sum_eltwise -> L1_b4_sum_eltwise_top
I0818 15:07:03.260149 21584 net.cpp:150] Setting up L1_b4_sum_eltwise
I0818 15:07:03.260159 21584 net.cpp:157] Top shape: 125 16 32 32 (2048000)
I0818 15:07:03.260164 21584 net.cpp:165] Memory required for data: 386561500
I0818 15:07:03.260169 21584 layer_factory.hpp:77] Creating layer L1_b4_relu
I0818 15:07:03.260176 21584 net.cpp:100] Creating Layer L1_b4_relu
I0818 15:07:03.260182 21584 net.cpp:434] L1_b4_relu <- L1_b4_sum_eltwise_top
I0818 15:07:03.260192 21584 net.cpp:395] L1_b4_relu -> L1_b4_sum_eltwise_top (in-place)
I0818 15:07:03.260202 21584 net.cpp:150] Setting up L1_b4_relu
I0818 15:07:03.260210 21584 net.cpp:157] Top shape: 125 16 32 32 (2048000)
I0818 15:07:03.260213 21584 net.cpp:165] Memory required for data: 394753500
I0818 15:07:03.260218 21584 layer_factory.hpp:77] Creating layer L1_b4_sum_eltwise_top_L1_b4_relu_0_split
I0818 15:07:03.260226 21584 net.cpp:100] Creating Layer L1_b4_sum_eltwise_top_L1_b4_relu_0_split
I0818 15:07:03.260231 21584 net.cpp:434] L1_b4_sum_eltwise_top_L1_b4_relu_0_split <- L1_b4_sum_eltwise_top
I0818 15:07:03.260238 21584 net.cpp:408] L1_b4_sum_eltwise_top_L1_b4_relu_0_split -> L1_b4_sum_eltwise_top_L1_b4_relu_0_split_0
I0818 15:07:03.260247 21584 net.cpp:408] L1_b4_sum_eltwise_top_L1_b4_relu_0_split -> L1_b4_sum_eltwise_top_L1_b4_relu_0_split_1
I0818 15:07:03.260293 21584 net.cpp:150] Setting up L1_b4_sum_eltwise_top_L1_b4_relu_0_split
I0818 15:07:03.260304 21584 net.cpp:157] Top shape: 125 16 32 32 (2048000)
I0818 15:07:03.260310 21584 net.cpp:157] Top shape: 125 16 32 32 (2048000)
I0818 15:07:03.260315 21584 net.cpp:165] Memory required for data: 411137500
I0818 15:07:03.260320 21584 layer_factory.hpp:77] Creating layer L1_b5_cbr1_conv
I0818 15:07:03.260331 21584 net.cpp:100] Creating Layer L1_b5_cbr1_conv
I0818 15:07:03.260337 21584 net.cpp:434] L1_b5_cbr1_conv <- L1_b4_sum_eltwise_top_L1_b4_relu_0_split_0
I0818 15:07:03.260349 21584 net.cpp:408] L1_b5_cbr1_conv -> L1_b5_cbr1_conv_top
I0818 15:07:03.260661 21584 net.cpp:150] Setting up L1_b5_cbr1_conv
I0818 15:07:03.260676 21584 net.cpp:157] Top shape: 125 16 32 32 (2048000)
I0818 15:07:03.260681 21584 net.cpp:165] Memory required for data: 419329500
I0818 15:07:03.260704 21584 layer_factory.hpp:77] Creating layer L1_b5_cbr1_bn
I0818 15:07:03.260715 21584 net.cpp:100] Creating Layer L1_b5_cbr1_bn
I0818 15:07:03.260722 21584 net.cpp:434] L1_b5_cbr1_bn <- L1_b5_cbr1_conv_top
I0818 15:07:03.260733 21584 net.cpp:408] L1_b5_cbr1_bn -> L1_b5_cbr1_bn_top
I0818 15:07:03.260972 21584 net.cpp:150] Setting up L1_b5_cbr1_bn
I0818 15:07:03.260985 21584 net.cpp:157] Top shape: 125 16 32 32 (2048000)
I0818 15:07:03.260992 21584 net.cpp:165] Memory required for data: 427521500
I0818 15:07:03.261001 21584 layer_factory.hpp:77] Creating layer L1_b5_cbr1_scale
I0818 15:07:03.261013 21584 net.cpp:100] Creating Layer L1_b5_cbr1_scale
I0818 15:07:03.261020 21584 net.cpp:434] L1_b5_cbr1_scale <- L1_b5_cbr1_bn_top
I0818 15:07:03.261029 21584 net.cpp:395] L1_b5_cbr1_scale -> L1_b5_cbr1_bn_top (in-place)
I0818 15:07:03.261080 21584 layer_factory.hpp:77] Creating layer L1_b5_cbr1_scale
I0818 15:07:03.261221 21584 net.cpp:150] Setting up L1_b5_cbr1_scale
I0818 15:07:03.261234 21584 net.cpp:157] Top shape: 125 16 32 32 (2048000)
I0818 15:07:03.261240 21584 net.cpp:165] Memory required for data: 435713500
I0818 15:07:03.261248 21584 layer_factory.hpp:77] Creating layer L1_b5_cbr1_relu
I0818 15:07:03.261257 21584 net.cpp:100] Creating Layer L1_b5_cbr1_relu
I0818 15:07:03.261263 21584 net.cpp:434] L1_b5_cbr1_relu <- L1_b5_cbr1_bn_top
I0818 15:07:03.261273 21584 net.cpp:395] L1_b5_cbr1_relu -> L1_b5_cbr1_bn_top (in-place)
I0818 15:07:03.261283 21584 net.cpp:150] Setting up L1_b5_cbr1_relu
I0818 15:07:03.261291 21584 net.cpp:157] Top shape: 125 16 32 32 (2048000)
I0818 15:07:03.261296 21584 net.cpp:165] Memory required for data: 443905500
I0818 15:07:03.261301 21584 layer_factory.hpp:77] Creating layer L1_b5_cbr2_conv
I0818 15:07:03.261315 21584 net.cpp:100] Creating Layer L1_b5_cbr2_conv
I0818 15:07:03.261322 21584 net.cpp:434] L1_b5_cbr2_conv <- L1_b5_cbr1_bn_top
I0818 15:07:03.261337 21584 net.cpp:408] L1_b5_cbr2_conv -> L1_b5_cbr2_conv_top
I0818 15:07:03.261648 21584 net.cpp:150] Setting up L1_b5_cbr2_conv
I0818 15:07:03.261668 21584 net.cpp:157] Top shape: 125 16 32 32 (2048000)
I0818 15:07:03.261673 21584 net.cpp:165] Memory required for data: 452097500
I0818 15:07:03.261682 21584 layer_factory.hpp:77] Creating layer L1_b5_cbr2_bn
I0818 15:07:03.261698 21584 net.cpp:100] Creating Layer L1_b5_cbr2_bn
I0818 15:07:03.261703 21584 net.cpp:434] L1_b5_cbr2_bn <- L1_b5_cbr2_conv_top
I0818 15:07:03.261713 21584 net.cpp:408] L1_b5_cbr2_bn -> L1_b5_cbr2_bn_top
I0818 15:07:03.261950 21584 net.cpp:150] Setting up L1_b5_cbr2_bn
I0818 15:07:03.261963 21584 net.cpp:157] Top shape: 125 16 32 32 (2048000)
I0818 15:07:03.261968 21584 net.cpp:165] Memory required for data: 460289500
I0818 15:07:03.261978 21584 layer_factory.hpp:77] Creating layer L1_b5_cbr2_scale
I0818 15:07:03.261991 21584 net.cpp:100] Creating Layer L1_b5_cbr2_scale
I0818 15:07:03.261997 21584 net.cpp:434] L1_b5_cbr2_scale <- L1_b5_cbr2_bn_top
I0818 15:07:03.262004 21584 net.cpp:395] L1_b5_cbr2_scale -> L1_b5_cbr2_bn_top (in-place)
I0818 15:07:03.262056 21584 layer_factory.hpp:77] Creating layer L1_b5_cbr2_scale
I0818 15:07:03.262197 21584 net.cpp:150] Setting up L1_b5_cbr2_scale
I0818 15:07:03.262209 21584 net.cpp:157] Top shape: 125 16 32 32 (2048000)
I0818 15:07:03.262214 21584 net.cpp:165] Memory required for data: 468481500
I0818 15:07:03.262223 21584 layer_factory.hpp:77] Creating layer L1_b5_sum_eltwise
I0818 15:07:03.262233 21584 net.cpp:100] Creating Layer L1_b5_sum_eltwise
I0818 15:07:03.262238 21584 net.cpp:434] L1_b5_sum_eltwise <- L1_b5_cbr2_bn_top
I0818 15:07:03.262245 21584 net.cpp:434] L1_b5_sum_eltwise <- L1_b4_sum_eltwise_top_L1_b4_relu_0_split_1
I0818 15:07:03.262256 21584 net.cpp:408] L1_b5_sum_eltwise -> L1_b5_sum_eltwise_top
I0818 15:07:03.262287 21584 net.cpp:150] Setting up L1_b5_sum_eltwise
I0818 15:07:03.262300 21584 net.cpp:157] Top shape: 125 16 32 32 (2048000)
I0818 15:07:03.262305 21584 net.cpp:165] Memory required for data: 476673500
I0818 15:07:03.262310 21584 layer_factory.hpp:77] Creating layer L1_b5_relu
I0818 15:07:03.262317 21584 net.cpp:100] Creating Layer L1_b5_relu
I0818 15:07:03.262323 21584 net.cpp:434] L1_b5_relu <- L1_b5_sum_eltwise_top
I0818 15:07:03.262331 21584 net.cpp:395] L1_b5_relu -> L1_b5_sum_eltwise_top (in-place)
I0818 15:07:03.262339 21584 net.cpp:150] Setting up L1_b5_relu
I0818 15:07:03.262346 21584 net.cpp:157] Top shape: 125 16 32 32 (2048000)
I0818 15:07:03.262351 21584 net.cpp:165] Memory required for data: 484865500
I0818 15:07:03.262356 21584 layer_factory.hpp:77] Creating layer L1_b5_sum_eltwise_top_L1_b5_relu_0_split
I0818 15:07:03.262365 21584 net.cpp:100] Creating Layer L1_b5_sum_eltwise_top_L1_b5_relu_0_split
I0818 15:07:03.262372 21584 net.cpp:434] L1_b5_sum_eltwise_top_L1_b5_relu_0_split <- L1_b5_sum_eltwise_top
I0818 15:07:03.262379 21584 net.cpp:408] L1_b5_sum_eltwise_top_L1_b5_relu_0_split -> L1_b5_sum_eltwise_top_L1_b5_relu_0_split_0
I0818 15:07:03.262388 21584 net.cpp:408] L1_b5_sum_eltwise_top_L1_b5_relu_0_split -> L1_b5_sum_eltwise_top_L1_b5_relu_0_split_1
I0818 15:07:03.262434 21584 net.cpp:150] Setting up L1_b5_sum_eltwise_top_L1_b5_relu_0_split
I0818 15:07:03.262444 21584 net.cpp:157] Top shape: 125 16 32 32 (2048000)
I0818 15:07:03.262451 21584 net.cpp:157] Top shape: 125 16 32 32 (2048000)
I0818 15:07:03.262456 21584 net.cpp:165] Memory required for data: 501249500
I0818 15:07:03.262461 21584 layer_factory.hpp:77] Creating layer L1_b6_cbr1_conv
I0818 15:07:03.262472 21584 net.cpp:100] Creating Layer L1_b6_cbr1_conv
I0818 15:07:03.262478 21584 net.cpp:434] L1_b6_cbr1_conv <- L1_b5_sum_eltwise_top_L1_b5_relu_0_split_0
I0818 15:07:03.262490 21584 net.cpp:408] L1_b6_cbr1_conv -> L1_b6_cbr1_conv_top
I0818 15:07:03.262809 21584 net.cpp:150] Setting up L1_b6_cbr1_conv
I0818 15:07:03.262822 21584 net.cpp:157] Top shape: 125 16 32 32 (2048000)
I0818 15:07:03.262828 21584 net.cpp:165] Memory required for data: 509441500
I0818 15:07:03.262845 21584 layer_factory.hpp:77] Creating layer L1_b6_cbr1_bn
I0818 15:07:03.262854 21584 net.cpp:100] Creating Layer L1_b6_cbr1_bn
I0818 15:07:03.262861 21584 net.cpp:434] L1_b6_cbr1_bn <- L1_b6_cbr1_conv_top
I0818 15:07:03.262868 21584 net.cpp:408] L1_b6_cbr1_bn -> L1_b6_cbr1_bn_top
I0818 15:07:03.263110 21584 net.cpp:150] Setting up L1_b6_cbr1_bn
I0818 15:07:03.263123 21584 net.cpp:157] Top shape: 125 16 32 32 (2048000)
I0818 15:07:03.263128 21584 net.cpp:165] Memory required for data: 517633500
I0818 15:07:03.263139 21584 layer_factory.hpp:77] Creating layer L1_b6_cbr1_scale
I0818 15:07:03.263151 21584 net.cpp:100] Creating Layer L1_b6_cbr1_scale
I0818 15:07:03.263157 21584 net.cpp:434] L1_b6_cbr1_scale <- L1_b6_cbr1_bn_top
I0818 15:07:03.263165 21584 net.cpp:395] L1_b6_cbr1_scale -> L1_b6_cbr1_bn_top (in-place)
I0818 15:07:03.263221 21584 layer_factory.hpp:77] Creating layer L1_b6_cbr1_scale
I0818 15:07:03.263361 21584 net.cpp:150] Setting up L1_b6_cbr1_scale
I0818 15:07:03.263375 21584 net.cpp:157] Top shape: 125 16 32 32 (2048000)
I0818 15:07:03.263380 21584 net.cpp:165] Memory required for data: 525825500
I0818 15:07:03.263388 21584 layer_factory.hpp:77] Creating layer L1_b6_cbr1_relu
I0818 15:07:03.263396 21584 net.cpp:100] Creating Layer L1_b6_cbr1_relu
I0818 15:07:03.263402 21584 net.cpp:434] L1_b6_cbr1_relu <- L1_b6_cbr1_bn_top
I0818 15:07:03.263412 21584 net.cpp:395] L1_b6_cbr1_relu -> L1_b6_cbr1_bn_top (in-place)
I0818 15:07:03.263423 21584 net.cpp:150] Setting up L1_b6_cbr1_relu
I0818 15:07:03.263430 21584 net.cpp:157] Top shape: 125 16 32 32 (2048000)
I0818 15:07:03.263435 21584 net.cpp:165] Memory required for data: 534017500
I0818 15:07:03.263440 21584 layer_factory.hpp:77] Creating layer L1_b6_cbr2_conv
I0818 15:07:03.263453 21584 net.cpp:100] Creating Layer L1_b6_cbr2_conv
I0818 15:07:03.263459 21584 net.cpp:434] L1_b6_cbr2_conv <- L1_b6_cbr1_bn_top
I0818 15:07:03.263468 21584 net.cpp:408] L1_b6_cbr2_conv -> L1_b6_cbr2_conv_top
I0818 15:07:03.263790 21584 net.cpp:150] Setting up L1_b6_cbr2_conv
I0818 15:07:03.263805 21584 net.cpp:157] Top shape: 125 16 32 32 (2048000)
I0818 15:07:03.263810 21584 net.cpp:165] Memory required for data: 542209500
I0818 15:07:03.263819 21584 layer_factory.hpp:77] Creating layer L1_b6_cbr2_bn
I0818 15:07:03.263831 21584 net.cpp:100] Creating Layer L1_b6_cbr2_bn
I0818 15:07:03.263837 21584 net.cpp:434] L1_b6_cbr2_bn <- L1_b6_cbr2_conv_top
I0818 15:07:03.263846 21584 net.cpp:408] L1_b6_cbr2_bn -> L1_b6_cbr2_bn_top
I0818 15:07:03.264083 21584 net.cpp:150] Setting up L1_b6_cbr2_bn
I0818 15:07:03.264096 21584 net.cpp:157] Top shape: 125 16 32 32 (2048000)
I0818 15:07:03.264102 21584 net.cpp:165] Memory required for data: 550401500
I0818 15:07:03.264112 21584 layer_factory.hpp:77] Creating layer L1_b6_cbr2_scale
I0818 15:07:03.264122 21584 net.cpp:100] Creating Layer L1_b6_cbr2_scale
I0818 15:07:03.264128 21584 net.cpp:434] L1_b6_cbr2_scale <- L1_b6_cbr2_bn_top
I0818 15:07:03.264139 21584 net.cpp:395] L1_b6_cbr2_scale -> L1_b6_cbr2_bn_top (in-place)
I0818 15:07:03.264192 21584 layer_factory.hpp:77] Creating layer L1_b6_cbr2_scale
I0818 15:07:03.264333 21584 net.cpp:150] Setting up L1_b6_cbr2_scale
I0818 15:07:03.264345 21584 net.cpp:157] Top shape: 125 16 32 32 (2048000)
I0818 15:07:03.264350 21584 net.cpp:165] Memory required for data: 558593500
I0818 15:07:03.264359 21584 layer_factory.hpp:77] Creating layer L1_b6_sum_eltwise
I0818 15:07:03.264376 21584 net.cpp:100] Creating Layer L1_b6_sum_eltwise
I0818 15:07:03.264384 21584 net.cpp:434] L1_b6_sum_eltwise <- L1_b6_cbr2_bn_top
I0818 15:07:03.264390 21584 net.cpp:434] L1_b6_sum_eltwise <- L1_b5_sum_eltwise_top_L1_b5_relu_0_split_1
I0818 15:07:03.264405 21584 net.cpp:408] L1_b6_sum_eltwise -> L1_b6_sum_eltwise_top
I0818 15:07:03.264436 21584 net.cpp:150] Setting up L1_b6_sum_eltwise
I0818 15:07:03.264447 21584 net.cpp:157] Top shape: 125 16 32 32 (2048000)
I0818 15:07:03.264452 21584 net.cpp:165] Memory required for data: 566785500
I0818 15:07:03.264458 21584 layer_factory.hpp:77] Creating layer L1_b6_relu
I0818 15:07:03.264475 21584 net.cpp:100] Creating Layer L1_b6_relu
I0818 15:07:03.264482 21584 net.cpp:434] L1_b6_relu <- L1_b6_sum_eltwise_top
I0818 15:07:03.264492 21584 net.cpp:395] L1_b6_relu -> L1_b6_sum_eltwise_top (in-place)
I0818 15:07:03.264502 21584 net.cpp:150] Setting up L1_b6_relu
I0818 15:07:03.264508 21584 net.cpp:157] Top shape: 125 16 32 32 (2048000)
I0818 15:07:03.264513 21584 net.cpp:165] Memory required for data: 574977500
I0818 15:07:03.264518 21584 layer_factory.hpp:77] Creating layer L1_b6_sum_eltwise_top_L1_b6_relu_0_split
I0818 15:07:03.264524 21584 net.cpp:100] Creating Layer L1_b6_sum_eltwise_top_L1_b6_relu_0_split
I0818 15:07:03.264530 21584 net.cpp:434] L1_b6_sum_eltwise_top_L1_b6_relu_0_split <- L1_b6_sum_eltwise_top
I0818 15:07:03.264538 21584 net.cpp:408] L1_b6_sum_eltwise_top_L1_b6_relu_0_split -> L1_b6_sum_eltwise_top_L1_b6_relu_0_split_0
I0818 15:07:03.264547 21584 net.cpp:408] L1_b6_sum_eltwise_top_L1_b6_relu_0_split -> L1_b6_sum_eltwise_top_L1_b6_relu_0_split_1
I0818 15:07:03.264592 21584 net.cpp:150] Setting up L1_b6_sum_eltwise_top_L1_b6_relu_0_split
I0818 15:07:03.264603 21584 net.cpp:157] Top shape: 125 16 32 32 (2048000)
I0818 15:07:03.264611 21584 net.cpp:157] Top shape: 125 16 32 32 (2048000)
I0818 15:07:03.264616 21584 net.cpp:165] Memory required for data: 591361500
I0818 15:07:03.264621 21584 layer_factory.hpp:77] Creating layer L1_b7_cbr1_conv
I0818 15:07:03.264634 21584 net.cpp:100] Creating Layer L1_b7_cbr1_conv
I0818 15:07:03.264641 21584 net.cpp:434] L1_b7_cbr1_conv <- L1_b6_sum_eltwise_top_L1_b6_relu_0_split_0
I0818 15:07:03.264655 21584 net.cpp:408] L1_b7_cbr1_conv -> L1_b7_cbr1_conv_top
I0818 15:07:03.264972 21584 net.cpp:150] Setting up L1_b7_cbr1_conv
I0818 15:07:03.264986 21584 net.cpp:157] Top shape: 125 16 32 32 (2048000)
I0818 15:07:03.264991 21584 net.cpp:165] Memory required for data: 599553500
I0818 15:07:03.265000 21584 layer_factory.hpp:77] Creating layer L1_b7_cbr1_bn
I0818 15:07:03.265010 21584 net.cpp:100] Creating Layer L1_b7_cbr1_bn
I0818 15:07:03.265017 21584 net.cpp:434] L1_b7_cbr1_bn <- L1_b7_cbr1_conv_top
I0818 15:07:03.265027 21584 net.cpp:408] L1_b7_cbr1_bn -> L1_b7_cbr1_bn_top
I0818 15:07:03.265269 21584 net.cpp:150] Setting up L1_b7_cbr1_bn
I0818 15:07:03.265285 21584 net.cpp:157] Top shape: 125 16 32 32 (2048000)
I0818 15:07:03.265291 21584 net.cpp:165] Memory required for data: 607745500
I0818 15:07:03.265301 21584 layer_factory.hpp:77] Creating layer L1_b7_cbr1_scale
I0818 15:07:03.265311 21584 net.cpp:100] Creating Layer L1_b7_cbr1_scale
I0818 15:07:03.265317 21584 net.cpp:434] L1_b7_cbr1_scale <- L1_b7_cbr1_bn_top
I0818 15:07:03.265326 21584 net.cpp:395] L1_b7_cbr1_scale -> L1_b7_cbr1_bn_top (in-place)
I0818 15:07:03.265377 21584 layer_factory.hpp:77] Creating layer L1_b7_cbr1_scale
I0818 15:07:03.265516 21584 net.cpp:150] Setting up L1_b7_cbr1_scale
I0818 15:07:03.265529 21584 net.cpp:157] Top shape: 125 16 32 32 (2048000)
I0818 15:07:03.265534 21584 net.cpp:165] Memory required for data: 615937500
I0818 15:07:03.265543 21584 layer_factory.hpp:77] Creating layer L1_b7_cbr1_relu
I0818 15:07:03.265554 21584 net.cpp:100] Creating Layer L1_b7_cbr1_relu
I0818 15:07:03.265560 21584 net.cpp:434] L1_b7_cbr1_relu <- L1_b7_cbr1_bn_top
I0818 15:07:03.265568 21584 net.cpp:395] L1_b7_cbr1_relu -> L1_b7_cbr1_bn_top (in-place)
I0818 15:07:03.265583 21584 net.cpp:150] Setting up L1_b7_cbr1_relu
I0818 15:07:03.265590 21584 net.cpp:157] Top shape: 125 16 32 32 (2048000)
I0818 15:07:03.265594 21584 net.cpp:165] Memory required for data: 624129500
I0818 15:07:03.265599 21584 layer_factory.hpp:77] Creating layer L1_b7_cbr2_conv
I0818 15:07:03.265610 21584 net.cpp:100] Creating Layer L1_b7_cbr2_conv
I0818 15:07:03.265616 21584 net.cpp:434] L1_b7_cbr2_conv <- L1_b7_cbr1_bn_top
I0818 15:07:03.265627 21584 net.cpp:408] L1_b7_cbr2_conv -> L1_b7_cbr2_conv_top
I0818 15:07:03.265944 21584 net.cpp:150] Setting up L1_b7_cbr2_conv
I0818 15:07:03.265959 21584 net.cpp:157] Top shape: 125 16 32 32 (2048000)
I0818 15:07:03.265964 21584 net.cpp:165] Memory required for data: 632321500
I0818 15:07:03.265980 21584 layer_factory.hpp:77] Creating layer L1_b7_cbr2_bn
I0818 15:07:03.265990 21584 net.cpp:100] Creating Layer L1_b7_cbr2_bn
I0818 15:07:03.265996 21584 net.cpp:434] L1_b7_cbr2_bn <- L1_b7_cbr2_conv_top
I0818 15:07:03.266010 21584 net.cpp:408] L1_b7_cbr2_bn -> L1_b7_cbr2_bn_top
I0818 15:07:03.266249 21584 net.cpp:150] Setting up L1_b7_cbr2_bn
I0818 15:07:03.266263 21584 net.cpp:157] Top shape: 125 16 32 32 (2048000)
I0818 15:07:03.266268 21584 net.cpp:165] Memory required for data: 640513500
I0818 15:07:03.266278 21584 layer_factory.hpp:77] Creating layer L1_b7_cbr2_scale
I0818 15:07:03.266290 21584 net.cpp:100] Creating Layer L1_b7_cbr2_scale
I0818 15:07:03.266296 21584 net.cpp:434] L1_b7_cbr2_scale <- L1_b7_cbr2_bn_top
I0818 15:07:03.266304 21584 net.cpp:395] L1_b7_cbr2_scale -> L1_b7_cbr2_bn_top (in-place)
I0818 15:07:03.266358 21584 layer_factory.hpp:77] Creating layer L1_b7_cbr2_scale
I0818 15:07:03.266497 21584 net.cpp:150] Setting up L1_b7_cbr2_scale
I0818 15:07:03.266510 21584 net.cpp:157] Top shape: 125 16 32 32 (2048000)
I0818 15:07:03.266515 21584 net.cpp:165] Memory required for data: 648705500
I0818 15:07:03.266525 21584 layer_factory.hpp:77] Creating layer L1_b7_sum_eltwise
I0818 15:07:03.266536 21584 net.cpp:100] Creating Layer L1_b7_sum_eltwise
I0818 15:07:03.266543 21584 net.cpp:434] L1_b7_sum_eltwise <- L1_b7_cbr2_bn_top
I0818 15:07:03.266551 21584 net.cpp:434] L1_b7_sum_eltwise <- L1_b6_sum_eltwise_top_L1_b6_relu_0_split_1
I0818 15:07:03.266558 21584 net.cpp:408] L1_b7_sum_eltwise -> L1_b7_sum_eltwise_top
I0818 15:07:03.266592 21584 net.cpp:150] Setting up L1_b7_sum_eltwise
I0818 15:07:03.266603 21584 net.cpp:157] Top shape: 125 16 32 32 (2048000)
I0818 15:07:03.266608 21584 net.cpp:165] Memory required for data: 656897500
I0818 15:07:03.266613 21584 layer_factory.hpp:77] Creating layer L1_b7_relu
I0818 15:07:03.266621 21584 net.cpp:100] Creating Layer L1_b7_relu
I0818 15:07:03.266628 21584 net.cpp:434] L1_b7_relu <- L1_b7_sum_eltwise_top
I0818 15:07:03.266638 21584 net.cpp:395] L1_b7_relu -> L1_b7_sum_eltwise_top (in-place)
I0818 15:07:03.266647 21584 net.cpp:150] Setting up L1_b7_relu
I0818 15:07:03.266661 21584 net.cpp:157] Top shape: 125 16 32 32 (2048000)
I0818 15:07:03.266666 21584 net.cpp:165] Memory required for data: 665089500
I0818 15:07:03.266671 21584 layer_factory.hpp:77] Creating layer L1_b7_sum_eltwise_top_L1_b7_relu_0_split
I0818 15:07:03.266679 21584 net.cpp:100] Creating Layer L1_b7_sum_eltwise_top_L1_b7_relu_0_split
I0818 15:07:03.266685 21584 net.cpp:434] L1_b7_sum_eltwise_top_L1_b7_relu_0_split <- L1_b7_sum_eltwise_top
I0818 15:07:03.266691 21584 net.cpp:408] L1_b7_sum_eltwise_top_L1_b7_relu_0_split -> L1_b7_sum_eltwise_top_L1_b7_relu_0_split_0
I0818 15:07:03.266701 21584 net.cpp:408] L1_b7_sum_eltwise_top_L1_b7_relu_0_split -> L1_b7_sum_eltwise_top_L1_b7_relu_0_split_1
I0818 15:07:03.266747 21584 net.cpp:150] Setting up L1_b7_sum_eltwise_top_L1_b7_relu_0_split
I0818 15:07:03.266759 21584 net.cpp:157] Top shape: 125 16 32 32 (2048000)
I0818 15:07:03.266765 21584 net.cpp:157] Top shape: 125 16 32 32 (2048000)
I0818 15:07:03.266770 21584 net.cpp:165] Memory required for data: 681473500
I0818 15:07:03.266775 21584 layer_factory.hpp:77] Creating layer L1_b8_cbr1_conv
I0818 15:07:03.266788 21584 net.cpp:100] Creating Layer L1_b8_cbr1_conv
I0818 15:07:03.266793 21584 net.cpp:434] L1_b8_cbr1_conv <- L1_b7_sum_eltwise_top_L1_b7_relu_0_split_0
I0818 15:07:03.266805 21584 net.cpp:408] L1_b8_cbr1_conv -> L1_b8_cbr1_conv_top
I0818 15:07:03.267119 21584 net.cpp:150] Setting up L1_b8_cbr1_conv
I0818 15:07:03.267133 21584 net.cpp:157] Top shape: 125 16 32 32 (2048000)
I0818 15:07:03.267138 21584 net.cpp:165] Memory required for data: 689665500
I0818 15:07:03.267148 21584 layer_factory.hpp:77] Creating layer L1_b8_cbr1_bn
I0818 15:07:03.267156 21584 net.cpp:100] Creating Layer L1_b8_cbr1_bn
I0818 15:07:03.267163 21584 net.cpp:434] L1_b8_cbr1_bn <- L1_b8_cbr1_conv_top
I0818 15:07:03.267175 21584 net.cpp:408] L1_b8_cbr1_bn -> L1_b8_cbr1_bn_top
I0818 15:07:03.267455 21584 net.cpp:150] Setting up L1_b8_cbr1_bn
I0818 15:07:03.267472 21584 net.cpp:157] Top shape: 125 16 32 32 (2048000)
I0818 15:07:03.267478 21584 net.cpp:165] Memory required for data: 697857500
I0818 15:07:03.267488 21584 layer_factory.hpp:77] Creating layer L1_b8_cbr1_scale
I0818 15:07:03.267498 21584 net.cpp:100] Creating Layer L1_b8_cbr1_scale
I0818 15:07:03.267504 21584 net.cpp:434] L1_b8_cbr1_scale <- L1_b8_cbr1_bn_top
I0818 15:07:03.267513 21584 net.cpp:395] L1_b8_cbr1_scale -> L1_b8_cbr1_bn_top (in-place)
I0818 15:07:03.267565 21584 layer_factory.hpp:77] Creating layer L1_b8_cbr1_scale
I0818 15:07:03.267719 21584 net.cpp:150] Setting up L1_b8_cbr1_scale
I0818 15:07:03.267734 21584 net.cpp:157] Top shape: 125 16 32 32 (2048000)
I0818 15:07:03.267738 21584 net.cpp:165] Memory required for data: 706049500
I0818 15:07:03.267747 21584 layer_factory.hpp:77] Creating layer L1_b8_cbr1_relu
I0818 15:07:03.267760 21584 net.cpp:100] Creating Layer L1_b8_cbr1_relu
I0818 15:07:03.267765 21584 net.cpp:434] L1_b8_cbr1_relu <- L1_b8_cbr1_bn_top
I0818 15:07:03.267773 21584 net.cpp:395] L1_b8_cbr1_relu -> L1_b8_cbr1_bn_top (in-place)
I0818 15:07:03.267783 21584 net.cpp:150] Setting up L1_b8_cbr1_relu
I0818 15:07:03.267791 21584 net.cpp:157] Top shape: 125 16 32 32 (2048000)
I0818 15:07:03.267794 21584 net.cpp:165] Memory required for data: 714241500
I0818 15:07:03.267799 21584 layer_factory.hpp:77] Creating layer L1_b8_cbr2_conv
I0818 15:07:03.267813 21584 net.cpp:100] Creating Layer L1_b8_cbr2_conv
I0818 15:07:03.267819 21584 net.cpp:434] L1_b8_cbr2_conv <- L1_b8_cbr1_bn_top
I0818 15:07:03.267830 21584 net.cpp:408] L1_b8_cbr2_conv -> L1_b8_cbr2_conv_top
I0818 15:07:03.268147 21584 net.cpp:150] Setting up L1_b8_cbr2_conv
I0818 15:07:03.268162 21584 net.cpp:157] Top shape: 125 16 32 32 (2048000)
I0818 15:07:03.268167 21584 net.cpp:165] Memory required for data: 722433500
I0818 15:07:03.268175 21584 layer_factory.hpp:77] Creating layer L1_b8_cbr2_bn
I0818 15:07:03.268184 21584 net.cpp:100] Creating Layer L1_b8_cbr2_bn
I0818 15:07:03.268190 21584 net.cpp:434] L1_b8_cbr2_bn <- L1_b8_cbr2_conv_top
I0818 15:07:03.268203 21584 net.cpp:408] L1_b8_cbr2_bn -> L1_b8_cbr2_bn_top
I0818 15:07:03.268451 21584 net.cpp:150] Setting up L1_b8_cbr2_bn
I0818 15:07:03.268465 21584 net.cpp:157] Top shape: 125 16 32 32 (2048000)
I0818 15:07:03.268470 21584 net.cpp:165] Memory required for data: 730625500
I0818 15:07:03.268479 21584 layer_factory.hpp:77] Creating layer L1_b8_cbr2_scale
I0818 15:07:03.268492 21584 net.cpp:100] Creating Layer L1_b8_cbr2_scale
I0818 15:07:03.268498 21584 net.cpp:434] L1_b8_cbr2_scale <- L1_b8_cbr2_bn_top
I0818 15:07:03.268507 21584 net.cpp:395] L1_b8_cbr2_scale -> L1_b8_cbr2_bn_top (in-place)
I0818 15:07:03.268559 21584 layer_factory.hpp:77] Creating layer L1_b8_cbr2_scale
I0818 15:07:03.268708 21584 net.cpp:150] Setting up L1_b8_cbr2_scale
I0818 15:07:03.268721 21584 net.cpp:157] Top shape: 125 16 32 32 (2048000)
I0818 15:07:03.268728 21584 net.cpp:165] Memory required for data: 738817500
I0818 15:07:03.268736 21584 layer_factory.hpp:77] Creating layer L1_b8_sum_eltwise
I0818 15:07:03.268748 21584 net.cpp:100] Creating Layer L1_b8_sum_eltwise
I0818 15:07:03.268754 21584 net.cpp:434] L1_b8_sum_eltwise <- L1_b8_cbr2_bn_top
I0818 15:07:03.268761 21584 net.cpp:434] L1_b8_sum_eltwise <- L1_b7_sum_eltwise_top_L1_b7_relu_0_split_1
I0818 15:07:03.268770 21584 net.cpp:408] L1_b8_sum_eltwise -> L1_b8_sum_eltwise_top
I0818 15:07:03.268805 21584 net.cpp:150] Setting up L1_b8_sum_eltwise
I0818 15:07:03.268816 21584 net.cpp:157] Top shape: 125 16 32 32 (2048000)
I0818 15:07:03.268821 21584 net.cpp:165] Memory required for data: 747009500
I0818 15:07:03.268827 21584 layer_factory.hpp:77] Creating layer L1_b8_relu
I0818 15:07:03.268836 21584 net.cpp:100] Creating Layer L1_b8_relu
I0818 15:07:03.268841 21584 net.cpp:434] L1_b8_relu <- L1_b8_sum_eltwise_top
I0818 15:07:03.268854 21584 net.cpp:395] L1_b8_relu -> L1_b8_sum_eltwise_top (in-place)
I0818 15:07:03.268864 21584 net.cpp:150] Setting up L1_b8_relu
I0818 15:07:03.268872 21584 net.cpp:157] Top shape: 125 16 32 32 (2048000)
I0818 15:07:03.268883 21584 net.cpp:165] Memory required for data: 755201500
I0818 15:07:03.268888 21584 layer_factory.hpp:77] Creating layer L1_b8_sum_eltwise_top_L1_b8_relu_0_split
I0818 15:07:03.268896 21584 net.cpp:100] Creating Layer L1_b8_sum_eltwise_top_L1_b8_relu_0_split
I0818 15:07:03.268901 21584 net.cpp:434] L1_b8_sum_eltwise_top_L1_b8_relu_0_split <- L1_b8_sum_eltwise_top
I0818 15:07:03.268909 21584 net.cpp:408] L1_b8_sum_eltwise_top_L1_b8_relu_0_split -> L1_b8_sum_eltwise_top_L1_b8_relu_0_split_0
I0818 15:07:03.268919 21584 net.cpp:408] L1_b8_sum_eltwise_top_L1_b8_relu_0_split -> L1_b8_sum_eltwise_top_L1_b8_relu_0_split_1
I0818 15:07:03.268965 21584 net.cpp:150] Setting up L1_b8_sum_eltwise_top_L1_b8_relu_0_split
I0818 15:07:03.268977 21584 net.cpp:157] Top shape: 125 16 32 32 (2048000)
I0818 15:07:03.268985 21584 net.cpp:157] Top shape: 125 16 32 32 (2048000)
I0818 15:07:03.268988 21584 net.cpp:165] Memory required for data: 771585500
I0818 15:07:03.268993 21584 layer_factory.hpp:77] Creating layer L1_b9_cbr1_conv
I0818 15:07:03.269004 21584 net.cpp:100] Creating Layer L1_b9_cbr1_conv
I0818 15:07:03.269011 21584 net.cpp:434] L1_b9_cbr1_conv <- L1_b8_sum_eltwise_top_L1_b8_relu_0_split_0
I0818 15:07:03.269023 21584 net.cpp:408] L1_b9_cbr1_conv -> L1_b9_cbr1_conv_top
I0818 15:07:03.269345 21584 net.cpp:150] Setting up L1_b9_cbr1_conv
I0818 15:07:03.269359 21584 net.cpp:157] Top shape: 125 16 32 32 (2048000)
I0818 15:07:03.269364 21584 net.cpp:165] Memory required for data: 779777500
I0818 15:07:03.269373 21584 layer_factory.hpp:77] Creating layer L1_b9_cbr1_bn
I0818 15:07:03.269388 21584 net.cpp:100] Creating Layer L1_b9_cbr1_bn
I0818 15:07:03.269395 21584 net.cpp:434] L1_b9_cbr1_bn <- L1_b9_cbr1_conv_top
I0818 15:07:03.269407 21584 net.cpp:408] L1_b9_cbr1_bn -> L1_b9_cbr1_bn_top
I0818 15:07:03.269654 21584 net.cpp:150] Setting up L1_b9_cbr1_bn
I0818 15:07:03.269668 21584 net.cpp:157] Top shape: 125 16 32 32 (2048000)
I0818 15:07:03.269673 21584 net.cpp:165] Memory required for data: 787969500
I0818 15:07:03.269683 21584 layer_factory.hpp:77] Creating layer L1_b9_cbr1_scale
I0818 15:07:03.269693 21584 net.cpp:100] Creating Layer L1_b9_cbr1_scale
I0818 15:07:03.269700 21584 net.cpp:434] L1_b9_cbr1_scale <- L1_b9_cbr1_bn_top
I0818 15:07:03.269707 21584 net.cpp:395] L1_b9_cbr1_scale -> L1_b9_cbr1_bn_top (in-place)
I0818 15:07:03.269764 21584 layer_factory.hpp:77] Creating layer L1_b9_cbr1_scale
I0818 15:07:03.269908 21584 net.cpp:150] Setting up L1_b9_cbr1_scale
I0818 15:07:03.269920 21584 net.cpp:157] Top shape: 125 16 32 32 (2048000)
I0818 15:07:03.269927 21584 net.cpp:165] Memory required for data: 796161500
I0818 15:07:03.269935 21584 layer_factory.hpp:77] Creating layer L1_b9_cbr1_relu
I0818 15:07:03.269946 21584 net.cpp:100] Creating Layer L1_b9_cbr1_relu
I0818 15:07:03.269953 21584 net.cpp:434] L1_b9_cbr1_relu <- L1_b9_cbr1_bn_top
I0818 15:07:03.269960 21584 net.cpp:395] L1_b9_cbr1_relu -> L1_b9_cbr1_bn_top (in-place)
I0818 15:07:03.269970 21584 net.cpp:150] Setting up L1_b9_cbr1_relu
I0818 15:07:03.269978 21584 net.cpp:157] Top shape: 125 16 32 32 (2048000)
I0818 15:07:03.269982 21584 net.cpp:165] Memory required for data: 804353500
I0818 15:07:03.269987 21584 layer_factory.hpp:77] Creating layer L1_b9_cbr2_conv
I0818 15:07:03.270000 21584 net.cpp:100] Creating Layer L1_b9_cbr2_conv
I0818 15:07:03.270006 21584 net.cpp:434] L1_b9_cbr2_conv <- L1_b9_cbr1_bn_top
I0818 15:07:03.270018 21584 net.cpp:408] L1_b9_cbr2_conv -> L1_b9_cbr2_conv_top
I0818 15:07:03.270336 21584 net.cpp:150] Setting up L1_b9_cbr2_conv
I0818 15:07:03.270350 21584 net.cpp:157] Top shape: 125 16 32 32 (2048000)
I0818 15:07:03.270355 21584 net.cpp:165] Memory required for data: 812545500
I0818 15:07:03.270364 21584 layer_factory.hpp:77] Creating layer L1_b9_cbr2_bn
I0818 15:07:03.270376 21584 net.cpp:100] Creating Layer L1_b9_cbr2_bn
I0818 15:07:03.270382 21584 net.cpp:434] L1_b9_cbr2_bn <- L1_b9_cbr2_conv_top
I0818 15:07:03.270391 21584 net.cpp:408] L1_b9_cbr2_bn -> L1_b9_cbr2_bn_top
I0818 15:07:03.270648 21584 net.cpp:150] Setting up L1_b9_cbr2_bn
I0818 15:07:03.270668 21584 net.cpp:157] Top shape: 125 16 32 32 (2048000)
I0818 15:07:03.270673 21584 net.cpp:165] Memory required for data: 820737500
I0818 15:07:03.270704 21584 layer_factory.hpp:77] Creating layer L1_b9_cbr2_scale
I0818 15:07:03.270715 21584 net.cpp:100] Creating Layer L1_b9_cbr2_scale
I0818 15:07:03.270721 21584 net.cpp:434] L1_b9_cbr2_scale <- L1_b9_cbr2_bn_top
I0818 15:07:03.270732 21584 net.cpp:395] L1_b9_cbr2_scale -> L1_b9_cbr2_bn_top (in-place)
I0818 15:07:03.270786 21584 layer_factory.hpp:77] Creating layer L1_b9_cbr2_scale
I0818 15:07:03.270931 21584 net.cpp:150] Setting up L1_b9_cbr2_scale
I0818 15:07:03.270943 21584 net.cpp:157] Top shape: 125 16 32 32 (2048000)
I0818 15:07:03.270948 21584 net.cpp:165] Memory required for data: 828929500
I0818 15:07:03.270958 21584 layer_factory.hpp:77] Creating layer L1_b9_sum_eltwise
I0818 15:07:03.270970 21584 net.cpp:100] Creating Layer L1_b9_sum_eltwise
I0818 15:07:03.270977 21584 net.cpp:434] L1_b9_sum_eltwise <- L1_b9_cbr2_bn_top
I0818 15:07:03.270984 21584 net.cpp:434] L1_b9_sum_eltwise <- L1_b8_sum_eltwise_top_L1_b8_relu_0_split_1
I0818 15:07:03.270992 21584 net.cpp:408] L1_b9_sum_eltwise -> L1_b9_sum_eltwise_top
I0818 15:07:03.271023 21584 net.cpp:150] Setting up L1_b9_sum_eltwise
I0818 15:07:03.271034 21584 net.cpp:157] Top shape: 125 16 32 32 (2048000)
I0818 15:07:03.271040 21584 net.cpp:165] Memory required for data: 837121500
I0818 15:07:03.271045 21584 layer_factory.hpp:77] Creating layer L1_b9_relu
I0818 15:07:03.271054 21584 net.cpp:100] Creating Layer L1_b9_relu
I0818 15:07:03.271059 21584 net.cpp:434] L1_b9_relu <- L1_b9_sum_eltwise_top
I0818 15:07:03.271070 21584 net.cpp:395] L1_b9_relu -> L1_b9_sum_eltwise_top (in-place)
I0818 15:07:03.271080 21584 net.cpp:150] Setting up L1_b9_relu
I0818 15:07:03.271087 21584 net.cpp:157] Top shape: 125 16 32 32 (2048000)
I0818 15:07:03.271091 21584 net.cpp:165] Memory required for data: 845313500
I0818 15:07:03.271096 21584 layer_factory.hpp:77] Creating layer L1_b9_sum_eltwise_top_L1_b9_relu_0_split
I0818 15:07:03.271108 21584 net.cpp:100] Creating Layer L1_b9_sum_eltwise_top_L1_b9_relu_0_split
I0818 15:07:03.271113 21584 net.cpp:434] L1_b9_sum_eltwise_top_L1_b9_relu_0_split <- L1_b9_sum_eltwise_top
I0818 15:07:03.271121 21584 net.cpp:408] L1_b9_sum_eltwise_top_L1_b9_relu_0_split -> L1_b9_sum_eltwise_top_L1_b9_relu_0_split_0
I0818 15:07:03.271131 21584 net.cpp:408] L1_b9_sum_eltwise_top_L1_b9_relu_0_split -> L1_b9_sum_eltwise_top_L1_b9_relu_0_split_1
I0818 15:07:03.271178 21584 net.cpp:150] Setting up L1_b9_sum_eltwise_top_L1_b9_relu_0_split
I0818 15:07:03.271188 21584 net.cpp:157] Top shape: 125 16 32 32 (2048000)
I0818 15:07:03.271195 21584 net.cpp:157] Top shape: 125 16 32 32 (2048000)
I0818 15:07:03.271199 21584 net.cpp:165] Memory required for data: 861697500
I0818 15:07:03.271204 21584 layer_factory.hpp:77] Creating layer L2_b1_cbr1_conv
I0818 15:07:03.271219 21584 net.cpp:100] Creating Layer L2_b1_cbr1_conv
I0818 15:07:03.271225 21584 net.cpp:434] L2_b1_cbr1_conv <- L1_b9_sum_eltwise_top_L1_b9_relu_0_split_0
I0818 15:07:03.271234 21584 net.cpp:408] L2_b1_cbr1_conv -> L2_b1_cbr1_conv_top
I0818 15:07:03.271553 21584 net.cpp:150] Setting up L2_b1_cbr1_conv
I0818 15:07:03.271567 21584 net.cpp:157] Top shape: 125 16 16 16 (512000)
I0818 15:07:03.271572 21584 net.cpp:165] Memory required for data: 863745500
I0818 15:07:03.271581 21584 layer_factory.hpp:77] Creating layer L2_b1_cbr1_bn
I0818 15:07:03.271594 21584 net.cpp:100] Creating Layer L2_b1_cbr1_bn
I0818 15:07:03.271600 21584 net.cpp:434] L2_b1_cbr1_bn <- L2_b1_cbr1_conv_top
I0818 15:07:03.271608 21584 net.cpp:408] L2_b1_cbr1_bn -> L2_b1_cbr1_bn_top
I0818 15:07:03.271855 21584 net.cpp:150] Setting up L2_b1_cbr1_bn
I0818 15:07:03.271877 21584 net.cpp:157] Top shape: 125 16 16 16 (512000)
I0818 15:07:03.271883 21584 net.cpp:165] Memory required for data: 865793500
I0818 15:07:03.271893 21584 layer_factory.hpp:77] Creating layer L2_b1_cbr1_scale
I0818 15:07:03.271903 21584 net.cpp:100] Creating Layer L2_b1_cbr1_scale
I0818 15:07:03.271915 21584 net.cpp:434] L2_b1_cbr1_scale <- L2_b1_cbr1_bn_top
I0818 15:07:03.271924 21584 net.cpp:395] L2_b1_cbr1_scale -> L2_b1_cbr1_bn_top (in-place)
I0818 15:07:03.271977 21584 layer_factory.hpp:77] Creating layer L2_b1_cbr1_scale
I0818 15:07:03.272122 21584 net.cpp:150] Setting up L2_b1_cbr1_scale
I0818 15:07:03.272135 21584 net.cpp:157] Top shape: 125 16 16 16 (512000)
I0818 15:07:03.272140 21584 net.cpp:165] Memory required for data: 867841500
I0818 15:07:03.272150 21584 layer_factory.hpp:77] Creating layer L2_b1_cbr1_relu
I0818 15:07:03.272158 21584 net.cpp:100] Creating Layer L2_b1_cbr1_relu
I0818 15:07:03.272164 21584 net.cpp:434] L2_b1_cbr1_relu <- L2_b1_cbr1_bn_top
I0818 15:07:03.272176 21584 net.cpp:395] L2_b1_cbr1_relu -> L2_b1_cbr1_bn_top (in-place)
I0818 15:07:03.272186 21584 net.cpp:150] Setting up L2_b1_cbr1_relu
I0818 15:07:03.272192 21584 net.cpp:157] Top shape: 125 16 16 16 (512000)
I0818 15:07:03.272197 21584 net.cpp:165] Memory required for data: 869889500
I0818 15:07:03.272202 21584 layer_factory.hpp:77] Creating layer L2_b1_cbr2_conv
I0818 15:07:03.272215 21584 net.cpp:100] Creating Layer L2_b1_cbr2_conv
I0818 15:07:03.272222 21584 net.cpp:434] L2_b1_cbr2_conv <- L2_b1_cbr1_bn_top
I0818 15:07:03.272230 21584 net.cpp:408] L2_b1_cbr2_conv -> L2_b1_cbr2_conv_top
I0818 15:07:03.272543 21584 net.cpp:150] Setting up L2_b1_cbr2_conv
I0818 15:07:03.272557 21584 net.cpp:157] Top shape: 125 16 16 16 (512000)
I0818 15:07:03.272562 21584 net.cpp:165] Memory required for data: 871937500
I0818 15:07:03.272570 21584 layer_factory.hpp:77] Creating layer L2_b1_cbr2_bn
I0818 15:07:03.272580 21584 net.cpp:100] Creating Layer L2_b1_cbr2_bn
I0818 15:07:03.272586 21584 net.cpp:434] L2_b1_cbr2_bn <- L2_b1_cbr2_conv_top
I0818 15:07:03.272600 21584 net.cpp:408] L2_b1_cbr2_bn -> L2_b1_cbr2_bn_top
I0818 15:07:03.272850 21584 net.cpp:150] Setting up L2_b1_cbr2_bn
I0818 15:07:03.272863 21584 net.cpp:157] Top shape: 125 16 16 16 (512000)
I0818 15:07:03.272868 21584 net.cpp:165] Memory required for data: 873985500
I0818 15:07:03.272878 21584 layer_factory.hpp:77] Creating layer L2_b1_cbr2_scale
I0818 15:07:03.272891 21584 net.cpp:100] Creating Layer L2_b1_cbr2_scale
I0818 15:07:03.272897 21584 net.cpp:434] L2_b1_cbr2_scale <- L2_b1_cbr2_bn_top
I0818 15:07:03.272905 21584 net.cpp:395] L2_b1_cbr2_scale -> L2_b1_cbr2_bn_top (in-place)
I0818 15:07:03.272960 21584 layer_factory.hpp:77] Creating layer L2_b1_cbr2_scale
I0818 15:07:03.273104 21584 net.cpp:150] Setting up L2_b1_cbr2_scale
I0818 15:07:03.273118 21584 net.cpp:157] Top shape: 125 16 16 16 (512000)
I0818 15:07:03.273123 21584 net.cpp:165] Memory required for data: 876033500
I0818 15:07:03.273131 21584 layer_factory.hpp:77] Creating layer L2_b1_pool
I0818 15:07:03.273146 21584 net.cpp:100] Creating Layer L2_b1_pool
I0818 15:07:03.273154 21584 net.cpp:434] L2_b1_pool <- L1_b9_sum_eltwise_top_L1_b9_relu_0_split_1
I0818 15:07:03.273164 21584 net.cpp:408] L2_b1_pool -> L2_b1_pool
I0818 15:07:03.273255 21584 net.cpp:150] Setting up L2_b1_pool
I0818 15:07:03.273272 21584 net.cpp:157] Top shape: 125 16 16 16 (512000)
I0818 15:07:03.273277 21584 net.cpp:165] Memory required for data: 878081500
I0818 15:07:03.273283 21584 layer_factory.hpp:77] Creating layer L2_b1_sum_eltwise
I0818 15:07:03.273293 21584 net.cpp:100] Creating Layer L2_b1_sum_eltwise
I0818 15:07:03.273298 21584 net.cpp:434] L2_b1_sum_eltwise <- L2_b1_cbr2_bn_top
I0818 15:07:03.273305 21584 net.cpp:434] L2_b1_sum_eltwise <- L2_b1_pool
I0818 15:07:03.273321 21584 net.cpp:408] L2_b1_sum_eltwise -> L2_b1_sum_eltwise_top
I0818 15:07:03.273355 21584 net.cpp:150] Setting up L2_b1_sum_eltwise
I0818 15:07:03.273366 21584 net.cpp:157] Top shape: 125 16 16 16 (512000)
I0818 15:07:03.273372 21584 net.cpp:165] Memory required for data: 880129500
I0818 15:07:03.273377 21584 layer_factory.hpp:77] Creating layer L2_b1_relu
I0818 15:07:03.273386 21584 net.cpp:100] Creating Layer L2_b1_relu
I0818 15:07:03.273391 21584 net.cpp:434] L2_b1_relu <- L2_b1_sum_eltwise_top
I0818 15:07:03.273402 21584 net.cpp:395] L2_b1_relu -> L2_b1_sum_eltwise_top (in-place)
I0818 15:07:03.273419 21584 net.cpp:150] Setting up L2_b1_relu
I0818 15:07:03.273427 21584 net.cpp:157] Top shape: 125 16 16 16 (512000)
I0818 15:07:03.273432 21584 net.cpp:165] Memory required for data: 882177500
I0818 15:07:03.273437 21584 layer_factory.hpp:77] Creating layer L2_b1_zeros
I0818 15:07:03.273489 21584 net.cpp:100] Creating Layer L2_b1_zeros
I0818 15:07:03.273504 21584 net.cpp:408] L2_b1_zeros -> L2_b1_zeros
I0818 15:07:03.275907 21584 net.cpp:150] Setting up L2_b1_zeros
I0818 15:07:03.275925 21584 net.cpp:157] Top shape: 125 16 16 16 (512000)
I0818 15:07:03.275931 21584 net.cpp:165] Memory required for data: 884225500
I0818 15:07:03.275938 21584 layer_factory.hpp:77] Creating layer L2_b1_concat0
I0818 15:07:03.275948 21584 net.cpp:100] Creating Layer L2_b1_concat0
I0818 15:07:03.275954 21584 net.cpp:434] L2_b1_concat0 <- L2_b1_sum_eltwise_top
I0818 15:07:03.275961 21584 net.cpp:434] L2_b1_concat0 <- L2_b1_zeros
I0818 15:07:03.275974 21584 net.cpp:408] L2_b1_concat0 -> L2_b1_concat0
I0818 15:07:03.276060 21584 net.cpp:150] Setting up L2_b1_concat0
I0818 15:07:03.276077 21584 net.cpp:157] Top shape: 125 32 16 16 (1024000)
I0818 15:07:03.276082 21584 net.cpp:165] Memory required for data: 888321500
I0818 15:07:03.276087 21584 layer_factory.hpp:77] Creating layer L2_b1_concat0_L2_b1_concat0_0_split
I0818 15:07:03.276096 21584 net.cpp:100] Creating Layer L2_b1_concat0_L2_b1_concat0_0_split
I0818 15:07:03.276101 21584 net.cpp:434] L2_b1_concat0_L2_b1_concat0_0_split <- L2_b1_concat0
I0818 15:07:03.276113 21584 net.cpp:408] L2_b1_concat0_L2_b1_concat0_0_split -> L2_b1_concat0_L2_b1_concat0_0_split_0
I0818 15:07:03.276124 21584 net.cpp:408] L2_b1_concat0_L2_b1_concat0_0_split -> L2_b1_concat0_L2_b1_concat0_0_split_1
I0818 15:07:03.276173 21584 net.cpp:150] Setting up L2_b1_concat0_L2_b1_concat0_0_split
I0818 15:07:03.276185 21584 net.cpp:157] Top shape: 125 32 16 16 (1024000)
I0818 15:07:03.276191 21584 net.cpp:157] Top shape: 125 32 16 16 (1024000)
I0818 15:07:03.276196 21584 net.cpp:165] Memory required for data: 896513500
I0818 15:07:03.276202 21584 layer_factory.hpp:77] Creating layer L2_b2_cbr1_conv
I0818 15:07:03.276217 21584 net.cpp:100] Creating Layer L2_b2_cbr1_conv
I0818 15:07:03.276224 21584 net.cpp:434] L2_b2_cbr1_conv <- L2_b1_concat0_L2_b1_concat0_0_split_0
I0818 15:07:03.276233 21584 net.cpp:408] L2_b2_cbr1_conv -> L2_b2_cbr1_conv_top
I0818 15:07:03.277734 21584 net.cpp:150] Setting up L2_b2_cbr1_conv
I0818 15:07:03.277752 21584 net.cpp:157] Top shape: 125 32 16 16 (1024000)
I0818 15:07:03.277757 21584 net.cpp:165] Memory required for data: 900609500
I0818 15:07:03.277768 21584 layer_factory.hpp:77] Creating layer L2_b2_cbr1_bn
I0818 15:07:03.277781 21584 net.cpp:100] Creating Layer L2_b2_cbr1_bn
I0818 15:07:03.277788 21584 net.cpp:434] L2_b2_cbr1_bn <- L2_b2_cbr1_conv_top
I0818 15:07:03.277797 21584 net.cpp:408] L2_b2_cbr1_bn -> L2_b2_cbr1_bn_top
I0818 15:07:03.278048 21584 net.cpp:150] Setting up L2_b2_cbr1_bn
I0818 15:07:03.278069 21584 net.cpp:157] Top shape: 125 32 16 16 (1024000)
I0818 15:07:03.278074 21584 net.cpp:165] Memory required for data: 904705500
I0818 15:07:03.278085 21584 layer_factory.hpp:77] Creating layer L2_b2_cbr1_scale
I0818 15:07:03.278095 21584 net.cpp:100] Creating Layer L2_b2_cbr1_scale
I0818 15:07:03.278101 21584 net.cpp:434] L2_b2_cbr1_scale <- L2_b2_cbr1_bn_top
I0818 15:07:03.278110 21584 net.cpp:395] L2_b2_cbr1_scale -> L2_b2_cbr1_bn_top (in-place)
I0818 15:07:03.278165 21584 layer_factory.hpp:77] Creating layer L2_b2_cbr1_scale
I0818 15:07:03.278317 21584 net.cpp:150] Setting up L2_b2_cbr1_scale
I0818 15:07:03.278331 21584 net.cpp:157] Top shape: 125 32 16 16 (1024000)
I0818 15:07:03.278337 21584 net.cpp:165] Memory required for data: 908801500
I0818 15:07:03.278345 21584 layer_factory.hpp:77] Creating layer L2_b2_cbr1_relu
I0818 15:07:03.278354 21584 net.cpp:100] Creating Layer L2_b2_cbr1_relu
I0818 15:07:03.278362 21584 net.cpp:434] L2_b2_cbr1_relu <- L2_b2_cbr1_bn_top
I0818 15:07:03.278372 21584 net.cpp:395] L2_b2_cbr1_relu -> L2_b2_cbr1_bn_top (in-place)
I0818 15:07:03.278390 21584 net.cpp:150] Setting up L2_b2_cbr1_relu
I0818 15:07:03.278398 21584 net.cpp:157] Top shape: 125 32 16 16 (1024000)
I0818 15:07:03.278403 21584 net.cpp:165] Memory required for data: 912897500
I0818 15:07:03.278408 21584 layer_factory.hpp:77] Creating layer L2_b2_cbr2_conv
I0818 15:07:03.278422 21584 net.cpp:100] Creating Layer L2_b2_cbr2_conv
I0818 15:07:03.278429 21584 net.cpp:434] L2_b2_cbr2_conv <- L2_b2_cbr1_bn_top
I0818 15:07:03.278437 21584 net.cpp:408] L2_b2_cbr2_conv -> L2_b2_cbr2_conv_top
I0818 15:07:03.278901 21584 net.cpp:150] Setting up L2_b2_cbr2_conv
I0818 15:07:03.278916 21584 net.cpp:157] Top shape: 125 32 16 16 (1024000)
I0818 15:07:03.278921 21584 net.cpp:165] Memory required for data: 916993500
I0818 15:07:03.278930 21584 layer_factory.hpp:77] Creating layer L2_b2_cbr2_bn
I0818 15:07:03.278944 21584 net.cpp:100] Creating Layer L2_b2_cbr2_bn
I0818 15:07:03.278950 21584 net.cpp:434] L2_b2_cbr2_bn <- L2_b2_cbr2_conv_top
I0818 15:07:03.278959 21584 net.cpp:408] L2_b2_cbr2_bn -> L2_b2_cbr2_bn_top
I0818 15:07:03.279233 21584 net.cpp:150] Setting up L2_b2_cbr2_bn
I0818 15:07:03.279247 21584 net.cpp:157] Top shape: 125 32 16 16 (1024000)
I0818 15:07:03.279253 21584 net.cpp:165] Memory required for data: 921089500
I0818 15:07:03.279263 21584 layer_factory.hpp:77] Creating layer L2_b2_cbr2_scale
I0818 15:07:03.279276 21584 net.cpp:100] Creating Layer L2_b2_cbr2_scale
I0818 15:07:03.279284 21584 net.cpp:434] L2_b2_cbr2_scale <- L2_b2_cbr2_bn_top
I0818 15:07:03.279290 21584 net.cpp:395] L2_b2_cbr2_scale -> L2_b2_cbr2_bn_top (in-place)
I0818 15:07:03.279345 21584 layer_factory.hpp:77] Creating layer L2_b2_cbr2_scale
I0818 15:07:03.279496 21584 net.cpp:150] Setting up L2_b2_cbr2_scale
I0818 15:07:03.279510 21584 net.cpp:157] Top shape: 125 32 16 16 (1024000)
I0818 15:07:03.279515 21584 net.cpp:165] Memory required for data: 925185500
I0818 15:07:03.279525 21584 layer_factory.hpp:77] Creating layer L2_b2_sum_eltwise
I0818 15:07:03.279537 21584 net.cpp:100] Creating Layer L2_b2_sum_eltwise
I0818 15:07:03.279544 21584 net.cpp:434] L2_b2_sum_eltwise <- L2_b2_cbr2_bn_top
I0818 15:07:03.279551 21584 net.cpp:434] L2_b2_sum_eltwise <- L2_b1_concat0_L2_b1_concat0_0_split_1
I0818 15:07:03.279562 21584 net.cpp:408] L2_b2_sum_eltwise -> L2_b2_sum_eltwise_top
I0818 15:07:03.279589 21584 net.cpp:150] Setting up L2_b2_sum_eltwise
I0818 15:07:03.279602 21584 net.cpp:157] Top shape: 125 32 16 16 (1024000)
I0818 15:07:03.279606 21584 net.cpp:165] Memory required for data: 929281500
I0818 15:07:03.279633 21584 layer_factory.hpp:77] Creating layer L2_b2_relu
I0818 15:07:03.279641 21584 net.cpp:100] Creating Layer L2_b2_relu
I0818 15:07:03.279649 21584 net.cpp:434] L2_b2_relu <- L2_b2_sum_eltwise_top
I0818 15:07:03.279675 21584 net.cpp:395] L2_b2_relu -> L2_b2_sum_eltwise_top (in-place)
I0818 15:07:03.279686 21584 net.cpp:150] Setting up L2_b2_relu
I0818 15:07:03.279693 21584 net.cpp:157] Top shape: 125 32 16 16 (1024000)
I0818 15:07:03.279698 21584 net.cpp:165] Memory required for data: 933377500
I0818 15:07:03.279703 21584 layer_factory.hpp:77] Creating layer L2_b2_sum_eltwise_top_L2_b2_relu_0_split
I0818 15:07:03.279711 21584 net.cpp:100] Creating Layer L2_b2_sum_eltwise_top_L2_b2_relu_0_split
I0818 15:07:03.279716 21584 net.cpp:434] L2_b2_sum_eltwise_top_L2_b2_relu_0_split <- L2_b2_sum_eltwise_top
I0818 15:07:03.279723 21584 net.cpp:408] L2_b2_sum_eltwise_top_L2_b2_relu_0_split -> L2_b2_sum_eltwise_top_L2_b2_relu_0_split_0
I0818 15:07:03.279733 21584 net.cpp:408] L2_b2_sum_eltwise_top_L2_b2_relu_0_split -> L2_b2_sum_eltwise_top_L2_b2_relu_0_split_1
I0818 15:07:03.279783 21584 net.cpp:150] Setting up L2_b2_sum_eltwise_top_L2_b2_relu_0_split
I0818 15:07:03.279795 21584 net.cpp:157] Top shape: 125 32 16 16 (1024000)
I0818 15:07:03.279803 21584 net.cpp:157] Top shape: 125 32 16 16 (1024000)
I0818 15:07:03.279806 21584 net.cpp:165] Memory required for data: 941569500
I0818 15:07:03.279811 21584 layer_factory.hpp:77] Creating layer L2_b3_cbr1_conv
I0818 15:07:03.279830 21584 net.cpp:100] Creating Layer L2_b3_cbr1_conv
I0818 15:07:03.279837 21584 net.cpp:434] L2_b3_cbr1_conv <- L2_b2_sum_eltwise_top_L2_b2_relu_0_split_0
I0818 15:07:03.279850 21584 net.cpp:408] L2_b3_cbr1_conv -> L2_b3_cbr1_conv_top
I0818 15:07:03.280311 21584 net.cpp:150] Setting up L2_b3_cbr1_conv
I0818 15:07:03.280326 21584 net.cpp:157] Top shape: 125 32 16 16 (1024000)
I0818 15:07:03.280331 21584 net.cpp:165] Memory required for data: 945665500
I0818 15:07:03.280340 21584 layer_factory.hpp:77] Creating layer L2_b3_cbr1_bn
I0818 15:07:03.280354 21584 net.cpp:100] Creating Layer L2_b3_cbr1_bn
I0818 15:07:03.280360 21584 net.cpp:434] L2_b3_cbr1_bn <- L2_b3_cbr1_conv_top
I0818 15:07:03.280369 21584 net.cpp:408] L2_b3_cbr1_bn -> L2_b3_cbr1_bn_top
I0818 15:07:03.280611 21584 net.cpp:150] Setting up L2_b3_cbr1_bn
I0818 15:07:03.280627 21584 net.cpp:157] Top shape: 125 32 16 16 (1024000)
I0818 15:07:03.280632 21584 net.cpp:165] Memory required for data: 949761500
I0818 15:07:03.280643 21584 layer_factory.hpp:77] Creating layer L2_b3_cbr1_scale
I0818 15:07:03.280658 21584 net.cpp:100] Creating Layer L2_b3_cbr1_scale
I0818 15:07:03.280666 21584 net.cpp:434] L2_b3_cbr1_scale <- L2_b3_cbr1_bn_top
I0818 15:07:03.280674 21584 net.cpp:395] L2_b3_cbr1_scale -> L2_b3_cbr1_bn_top (in-place)
I0818 15:07:03.280731 21584 layer_factory.hpp:77] Creating layer L2_b3_cbr1_scale
I0818 15:07:03.280879 21584 net.cpp:150] Setting up L2_b3_cbr1_scale
I0818 15:07:03.280891 21584 net.cpp:157] Top shape: 125 32 16 16 (1024000)
I0818 15:07:03.280897 21584 net.cpp:165] Memory required for data: 953857500
I0818 15:07:03.280906 21584 layer_factory.hpp:77] Creating layer L2_b3_cbr1_relu
I0818 15:07:03.280915 21584 net.cpp:100] Creating Layer L2_b3_cbr1_relu
I0818 15:07:03.280920 21584 net.cpp:434] L2_b3_cbr1_relu <- L2_b3_cbr1_bn_top
I0818 15:07:03.280931 21584 net.cpp:395] L2_b3_cbr1_relu -> L2_b3_cbr1_bn_top (in-place)
I0818 15:07:03.280942 21584 net.cpp:150] Setting up L2_b3_cbr1_relu
I0818 15:07:03.280949 21584 net.cpp:157] Top shape: 125 32 16 16 (1024000)
I0818 15:07:03.280954 21584 net.cpp:165] Memory required for data: 957953500
I0818 15:07:03.280958 21584 layer_factory.hpp:77] Creating layer L2_b3_cbr2_conv
I0818 15:07:03.280971 21584 net.cpp:100] Creating Layer L2_b3_cbr2_conv
I0818 15:07:03.280975 21584 net.cpp:434] L2_b3_cbr2_conv <- L2_b3_cbr1_bn_top
I0818 15:07:03.280987 21584 net.cpp:408] L2_b3_cbr2_conv -> L2_b3_cbr2_conv_top
I0818 15:07:03.281442 21584 net.cpp:150] Setting up L2_b3_cbr2_conv
I0818 15:07:03.281456 21584 net.cpp:157] Top shape: 125 32 16 16 (1024000)
I0818 15:07:03.281461 21584 net.cpp:165] Memory required for data: 962049500
I0818 15:07:03.281471 21584 layer_factory.hpp:77] Creating layer L2_b3_cbr2_bn
I0818 15:07:03.281479 21584 net.cpp:100] Creating Layer L2_b3_cbr2_bn
I0818 15:07:03.281486 21584 net.cpp:434] L2_b3_cbr2_bn <- L2_b3_cbr2_conv_top
I0818 15:07:03.281497 21584 net.cpp:408] L2_b3_cbr2_bn -> L2_b3_cbr2_bn_top
I0818 15:07:03.281754 21584 net.cpp:150] Setting up L2_b3_cbr2_bn
I0818 15:07:03.281767 21584 net.cpp:157] Top shape: 125 32 16 16 (1024000)
I0818 15:07:03.281774 21584 net.cpp:165] Memory required for data: 966145500
I0818 15:07:03.281783 21584 layer_factory.hpp:77] Creating layer L2_b3_cbr2_scale
I0818 15:07:03.281795 21584 net.cpp:100] Creating Layer L2_b3_cbr2_scale
I0818 15:07:03.281802 21584 net.cpp:434] L2_b3_cbr2_scale <- L2_b3_cbr2_bn_top
I0818 15:07:03.281810 21584 net.cpp:395] L2_b3_cbr2_scale -> L2_b3_cbr2_bn_top (in-place)
I0818 15:07:03.281865 21584 layer_factory.hpp:77] Creating layer L2_b3_cbr2_scale
I0818 15:07:03.282016 21584 net.cpp:150] Setting up L2_b3_cbr2_scale
I0818 15:07:03.282028 21584 net.cpp:157] Top shape: 125 32 16 16 (1024000)
I0818 15:07:03.282033 21584 net.cpp:165] Memory required for data: 970241500
I0818 15:07:03.282042 21584 layer_factory.hpp:77] Creating layer L2_b3_sum_eltwise
I0818 15:07:03.282055 21584 net.cpp:100] Creating Layer L2_b3_sum_eltwise
I0818 15:07:03.282061 21584 net.cpp:434] L2_b3_sum_eltwise <- L2_b3_cbr2_bn_top
I0818 15:07:03.282068 21584 net.cpp:434] L2_b3_sum_eltwise <- L2_b2_sum_eltwise_top_L2_b2_relu_0_split_1
I0818 15:07:03.282088 21584 net.cpp:408] L2_b3_sum_eltwise -> L2_b3_sum_eltwise_top
I0818 15:07:03.282116 21584 net.cpp:150] Setting up L2_b3_sum_eltwise
I0818 15:07:03.282126 21584 net.cpp:157] Top shape: 125 32 16 16 (1024000)
I0818 15:07:03.282131 21584 net.cpp:165] Memory required for data: 974337500
I0818 15:07:03.282136 21584 layer_factory.hpp:77] Creating layer L2_b3_relu
I0818 15:07:03.282157 21584 net.cpp:100] Creating Layer L2_b3_relu
I0818 15:07:03.282165 21584 net.cpp:434] L2_b3_relu <- L2_b3_sum_eltwise_top
I0818 15:07:03.282171 21584 net.cpp:395] L2_b3_relu -> L2_b3_sum_eltwise_top (in-place)
I0818 15:07:03.282181 21584 net.cpp:150] Setting up L2_b3_relu
I0818 15:07:03.282188 21584 net.cpp:157] Top shape: 125 32 16 16 (1024000)
I0818 15:07:03.282193 21584 net.cpp:165] Memory required for data: 978433500
I0818 15:07:03.282199 21584 layer_factory.hpp:77] Creating layer L2_b3_sum_eltwise_top_L2_b3_relu_0_split
I0818 15:07:03.282209 21584 net.cpp:100] Creating Layer L2_b3_sum_eltwise_top_L2_b3_relu_0_split
I0818 15:07:03.282215 21584 net.cpp:434] L2_b3_sum_eltwise_top_L2_b3_relu_0_split <- L2_b3_sum_eltwise_top
I0818 15:07:03.282222 21584 net.cpp:408] L2_b3_sum_eltwise_top_L2_b3_relu_0_split -> L2_b3_sum_eltwise_top_L2_b3_relu_0_split_0
I0818 15:07:03.282232 21584 net.cpp:408] L2_b3_sum_eltwise_top_L2_b3_relu_0_split -> L2_b3_sum_eltwise_top_L2_b3_relu_0_split_1
I0818 15:07:03.282281 21584 net.cpp:150] Setting up L2_b3_sum_eltwise_top_L2_b3_relu_0_split
I0818 15:07:03.282294 21584 net.cpp:157] Top shape: 125 32 16 16 (1024000)
I0818 15:07:03.282300 21584 net.cpp:157] Top shape: 125 32 16 16 (1024000)
I0818 15:07:03.282305 21584 net.cpp:165] Memory required for data: 986625500
I0818 15:07:03.282310 21584 layer_factory.hpp:77] Creating layer L2_b4_cbr1_conv
I0818 15:07:03.282322 21584 net.cpp:100] Creating Layer L2_b4_cbr1_conv
I0818 15:07:03.282328 21584 net.cpp:434] L2_b4_cbr1_conv <- L2_b3_sum_eltwise_top_L2_b3_relu_0_split_0
I0818 15:07:03.282341 21584 net.cpp:408] L2_b4_cbr1_conv -> L2_b4_cbr1_conv_top
I0818 15:07:03.282806 21584 net.cpp:150] Setting up L2_b4_cbr1_conv
I0818 15:07:03.282821 21584 net.cpp:157] Top shape: 125 32 16 16 (1024000)
I0818 15:07:03.282826 21584 net.cpp:165] Memory required for data: 990721500
I0818 15:07:03.282835 21584 layer_factory.hpp:77] Creating layer L2_b4_cbr1_bn
I0818 15:07:03.282845 21584 net.cpp:100] Creating Layer L2_b4_cbr1_bn
I0818 15:07:03.282851 21584 net.cpp:434] L2_b4_cbr1_bn <- L2_b4_cbr1_conv_top
I0818 15:07:03.282863 21584 net.cpp:408] L2_b4_cbr1_bn -> L2_b4_cbr1_bn_top
I0818 15:07:03.283109 21584 net.cpp:150] Setting up L2_b4_cbr1_bn
I0818 15:07:03.283123 21584 net.cpp:157] Top shape: 125 32 16 16 (1024000)
I0818 15:07:03.283128 21584 net.cpp:165] Memory required for data: 994817500
I0818 15:07:03.283138 21584 layer_factory.hpp:77] Creating layer L2_b4_cbr1_scale
I0818 15:07:03.283149 21584 net.cpp:100] Creating Layer L2_b4_cbr1_scale
I0818 15:07:03.283155 21584 net.cpp:434] L2_b4_cbr1_scale <- L2_b4_cbr1_bn_top
I0818 15:07:03.283164 21584 net.cpp:395] L2_b4_cbr1_scale -> L2_b4_cbr1_bn_top (in-place)
I0818 15:07:03.283221 21584 layer_factory.hpp:77] Creating layer L2_b4_cbr1_scale
I0818 15:07:03.283367 21584 net.cpp:150] Setting up L2_b4_cbr1_scale
I0818 15:07:03.283380 21584 net.cpp:157] Top shape: 125 32 16 16 (1024000)
I0818 15:07:03.283385 21584 net.cpp:165] Memory required for data: 998913500
I0818 15:07:03.283394 21584 layer_factory.hpp:77] Creating layer L2_b4_cbr1_relu
I0818 15:07:03.283402 21584 net.cpp:100] Creating Layer L2_b4_cbr1_relu
I0818 15:07:03.283409 21584 net.cpp:434] L2_b4_cbr1_relu <- L2_b4_cbr1_bn_top
I0818 15:07:03.283419 21584 net.cpp:395] L2_b4_cbr1_relu -> L2_b4_cbr1_bn_top (in-place)
I0818 15:07:03.283429 21584 net.cpp:150] Setting up L2_b4_cbr1_relu
I0818 15:07:03.283437 21584 net.cpp:157] Top shape: 125 32 16 16 (1024000)
I0818 15:07:03.283442 21584 net.cpp:165] Memory required for data: 1003009500
I0818 15:07:03.283447 21584 layer_factory.hpp:77] Creating layer L2_b4_cbr2_conv
I0818 15:07:03.283468 21584 net.cpp:100] Creating Layer L2_b4_cbr2_conv
I0818 15:07:03.283474 21584 net.cpp:434] L2_b4_cbr2_conv <- L2_b4_cbr1_bn_top
I0818 15:07:03.283485 21584 net.cpp:408] L2_b4_cbr2_conv -> L2_b4_cbr2_conv_top
I0818 15:07:03.283949 21584 net.cpp:150] Setting up L2_b4_cbr2_conv
I0818 15:07:03.283964 21584 net.cpp:157] Top shape: 125 32 16 16 (1024000)
I0818 15:07:03.283969 21584 net.cpp:165] Memory required for data: 1007105500
I0818 15:07:03.283978 21584 layer_factory.hpp:77] Creating layer L2_b4_cbr2_bn
I0818 15:07:03.283988 21584 net.cpp:100] Creating Layer L2_b4_cbr2_bn
I0818 15:07:03.283995 21584 net.cpp:434] L2_b4_cbr2_bn <- L2_b4_cbr2_conv_top
I0818 15:07:03.284003 21584 net.cpp:408] L2_b4_cbr2_bn -> L2_b4_cbr2_bn_top
I0818 15:07:03.284250 21584 net.cpp:150] Setting up L2_b4_cbr2_bn
I0818 15:07:03.284263 21584 net.cpp:157] Top shape: 125 32 16 16 (1024000)
I0818 15:07:03.284268 21584 net.cpp:165] Memory required for data: 1011201500
I0818 15:07:03.284278 21584 layer_factory.hpp:77] Creating layer L2_b4_cbr2_scale
I0818 15:07:03.284287 21584 net.cpp:100] Creating Layer L2_b4_cbr2_scale
I0818 15:07:03.284294 21584 net.cpp:434] L2_b4_cbr2_scale <- L2_b4_cbr2_bn_top
I0818 15:07:03.284306 21584 net.cpp:395] L2_b4_cbr2_scale -> L2_b4_cbr2_bn_top (in-place)
I0818 15:07:03.284360 21584 layer_factory.hpp:77] Creating layer L2_b4_cbr2_scale
I0818 15:07:03.284507 21584 net.cpp:150] Setting up L2_b4_cbr2_scale
I0818 15:07:03.284519 21584 net.cpp:157] Top shape: 125 32 16 16 (1024000)
I0818 15:07:03.284524 21584 net.cpp:165] Memory required for data: 1015297500
I0818 15:07:03.284533 21584 layer_factory.hpp:77] Creating layer L2_b4_sum_eltwise
I0818 15:07:03.284543 21584 net.cpp:100] Creating Layer L2_b4_sum_eltwise
I0818 15:07:03.284549 21584 net.cpp:434] L2_b4_sum_eltwise <- L2_b4_cbr2_bn_top
I0818 15:07:03.284556 21584 net.cpp:434] L2_b4_sum_eltwise <- L2_b3_sum_eltwise_top_L2_b3_relu_0_split_1
I0818 15:07:03.284567 21584 net.cpp:408] L2_b4_sum_eltwise -> L2_b4_sum_eltwise_top
I0818 15:07:03.284595 21584 net.cpp:150] Setting up L2_b4_sum_eltwise
I0818 15:07:03.284605 21584 net.cpp:157] Top shape: 125 32 16 16 (1024000)
I0818 15:07:03.284608 21584 net.cpp:165] Memory required for data: 1019393500
I0818 15:07:03.284615 21584 layer_factory.hpp:77] Creating layer L2_b4_relu
I0818 15:07:03.284624 21584 net.cpp:100] Creating Layer L2_b4_relu
I0818 15:07:03.284631 21584 net.cpp:434] L2_b4_relu <- L2_b4_sum_eltwise_top
I0818 15:07:03.284638 21584 net.cpp:395] L2_b4_relu -> L2_b4_sum_eltwise_top (in-place)
I0818 15:07:03.284647 21584 net.cpp:150] Setting up L2_b4_relu
I0818 15:07:03.284662 21584 net.cpp:157] Top shape: 125 32 16 16 (1024000)
I0818 15:07:03.284667 21584 net.cpp:165] Memory required for data: 1023489500
I0818 15:07:03.284672 21584 layer_factory.hpp:77] Creating layer L2_b4_sum_eltwise_top_L2_b4_relu_0_split
I0818 15:07:03.284682 21584 net.cpp:100] Creating Layer L2_b4_sum_eltwise_top_L2_b4_relu_0_split
I0818 15:07:03.284688 21584 net.cpp:434] L2_b4_sum_eltwise_top_L2_b4_relu_0_split <- L2_b4_sum_eltwise_top
I0818 15:07:03.284698 21584 net.cpp:408] L2_b4_sum_eltwise_top_L2_b4_relu_0_split -> L2_b4_sum_eltwise_top_L2_b4_relu_0_split_0
I0818 15:07:03.284708 21584 net.cpp:408] L2_b4_sum_eltwise_top_L2_b4_relu_0_split -> L2_b4_sum_eltwise_top_L2_b4_relu_0_split_1
I0818 15:07:03.284751 21584 net.cpp:150] Setting up L2_b4_sum_eltwise_top_L2_b4_relu_0_split
I0818 15:07:03.284766 21584 net.cpp:157] Top shape: 125 32 16 16 (1024000)
I0818 15:07:03.284775 21584 net.cpp:157] Top shape: 125 32 16 16 (1024000)
I0818 15:07:03.284778 21584 net.cpp:165] Memory required for data: 1031681500
I0818 15:07:03.284785 21584 layer_factory.hpp:77] Creating layer L2_b5_cbr1_conv
I0818 15:07:03.284795 21584 net.cpp:100] Creating Layer L2_b5_cbr1_conv
I0818 15:07:03.284801 21584 net.cpp:434] L2_b5_cbr1_conv <- L2_b4_sum_eltwise_top_L2_b4_relu_0_split_0
I0818 15:07:03.284811 21584 net.cpp:408] L2_b5_cbr1_conv -> L2_b5_cbr1_conv_top
I0818 15:07:03.285272 21584 net.cpp:150] Setting up L2_b5_cbr1_conv
I0818 15:07:03.285292 21584 net.cpp:157] Top shape: 125 32 16 16 (1024000)
I0818 15:07:03.285298 21584 net.cpp:165] Memory required for data: 1035777500
I0818 15:07:03.285307 21584 layer_factory.hpp:77] Creating layer L2_b5_cbr1_bn
I0818 15:07:03.285320 21584 net.cpp:100] Creating Layer L2_b5_cbr1_bn
I0818 15:07:03.285326 21584 net.cpp:434] L2_b5_cbr1_bn <- L2_b5_cbr1_conv_top
I0818 15:07:03.285334 21584 net.cpp:408] L2_b5_cbr1_bn -> L2_b5_cbr1_bn_top
I0818 15:07:03.285581 21584 net.cpp:150] Setting up L2_b5_cbr1_bn
I0818 15:07:03.285594 21584 net.cpp:157] Top shape: 125 32 16 16 (1024000)
I0818 15:07:03.285600 21584 net.cpp:165] Memory required for data: 1039873500
I0818 15:07:03.285610 21584 layer_factory.hpp:77] Creating layer L2_b5_cbr1_scale
I0818 15:07:03.285619 21584 net.cpp:100] Creating Layer L2_b5_cbr1_scale
I0818 15:07:03.285626 21584 net.cpp:434] L2_b5_cbr1_scale <- L2_b5_cbr1_bn_top
I0818 15:07:03.285636 21584 net.cpp:395] L2_b5_cbr1_scale -> L2_b5_cbr1_bn_top (in-place)
I0818 15:07:03.285698 21584 layer_factory.hpp:77] Creating layer L2_b5_cbr1_scale
I0818 15:07:03.285850 21584 net.cpp:150] Setting up L2_b5_cbr1_scale
I0818 15:07:03.285862 21584 net.cpp:157] Top shape: 125 32 16 16 (1024000)
I0818 15:07:03.285867 21584 net.cpp:165] Memory required for data: 1043969500
I0818 15:07:03.285876 21584 layer_factory.hpp:77] Creating layer L2_b5_cbr1_relu
I0818 15:07:03.285886 21584 net.cpp:100] Creating Layer L2_b5_cbr1_relu
I0818 15:07:03.285892 21584 net.cpp:434] L2_b5_cbr1_relu <- L2_b5_cbr1_bn_top
I0818 15:07:03.285902 21584 net.cpp:395] L2_b5_cbr1_relu -> L2_b5_cbr1_bn_top (in-place)
I0818 15:07:03.285912 21584 net.cpp:150] Setting up L2_b5_cbr1_relu
I0818 15:07:03.285919 21584 net.cpp:157] Top shape: 125 32 16 16 (1024000)
I0818 15:07:03.285924 21584 net.cpp:165] Memory required for data: 1048065500
I0818 15:07:03.285929 21584 layer_factory.hpp:77] Creating layer L2_b5_cbr2_conv
I0818 15:07:03.285943 21584 net.cpp:100] Creating Layer L2_b5_cbr2_conv
I0818 15:07:03.285949 21584 net.cpp:434] L2_b5_cbr2_conv <- L2_b5_cbr1_bn_top
I0818 15:07:03.285959 21584 net.cpp:408] L2_b5_cbr2_conv -> L2_b5_cbr2_conv_top
I0818 15:07:03.286415 21584 net.cpp:150] Setting up L2_b5_cbr2_conv
I0818 15:07:03.286429 21584 net.cpp:157] Top shape: 125 32 16 16 (1024000)
I0818 15:07:03.286434 21584 net.cpp:165] Memory required for data: 1052161500
I0818 15:07:03.286443 21584 layer_factory.hpp:77] Creating layer L2_b5_cbr2_bn
I0818 15:07:03.286455 21584 net.cpp:100] Creating Layer L2_b5_cbr2_bn
I0818 15:07:03.286463 21584 net.cpp:434] L2_b5_cbr2_bn <- L2_b5_cbr2_conv_top
I0818 15:07:03.286470 21584 net.cpp:408] L2_b5_cbr2_bn -> L2_b5_cbr2_bn_top
I0818 15:07:03.286725 21584 net.cpp:150] Setting up L2_b5_cbr2_bn
I0818 15:07:03.286738 21584 net.cpp:157] Top shape: 125 32 16 16 (1024000)
I0818 15:07:03.286744 21584 net.cpp:165] Memory required for data: 1056257500
I0818 15:07:03.286756 21584 layer_factory.hpp:77] Creating layer L2_b5_cbr2_scale
I0818 15:07:03.286764 21584 net.cpp:100] Creating Layer L2_b5_cbr2_scale
I0818 15:07:03.286770 21584 net.cpp:434] L2_b5_cbr2_scale <- L2_b5_cbr2_bn_top
I0818 15:07:03.286782 21584 net.cpp:395] L2_b5_cbr2_scale -> L2_b5_cbr2_bn_top (in-place)
I0818 15:07:03.286836 21584 layer_factory.hpp:77] Creating layer L2_b5_cbr2_scale
I0818 15:07:03.286983 21584 net.cpp:150] Setting up L2_b5_cbr2_scale
I0818 15:07:03.286996 21584 net.cpp:157] Top shape: 125 32 16 16 (1024000)
I0818 15:07:03.287001 21584 net.cpp:165] Memory required for data: 1060353500
I0818 15:07:03.287010 21584 layer_factory.hpp:77] Creating layer L2_b5_sum_eltwise
I0818 15:07:03.287019 21584 net.cpp:100] Creating Layer L2_b5_sum_eltwise
I0818 15:07:03.287026 21584 net.cpp:434] L2_b5_sum_eltwise <- L2_b5_cbr2_bn_top
I0818 15:07:03.287034 21584 net.cpp:434] L2_b5_sum_eltwise <- L2_b4_sum_eltwise_top_L2_b4_relu_0_split_1
I0818 15:07:03.287045 21584 net.cpp:408] L2_b5_sum_eltwise -> L2_b5_sum_eltwise_top
I0818 15:07:03.287071 21584 net.cpp:150] Setting up L2_b5_sum_eltwise
I0818 15:07:03.287081 21584 net.cpp:157] Top shape: 125 32 16 16 (1024000)
I0818 15:07:03.287092 21584 net.cpp:165] Memory required for data: 1064449500
I0818 15:07:03.287098 21584 layer_factory.hpp:77] Creating layer L2_b5_relu
I0818 15:07:03.287109 21584 net.cpp:100] Creating Layer L2_b5_relu
I0818 15:07:03.287116 21584 net.cpp:434] L2_b5_relu <- L2_b5_sum_eltwise_top
I0818 15:07:03.287122 21584 net.cpp:395] L2_b5_relu -> L2_b5_sum_eltwise_top (in-place)
I0818 15:07:03.287132 21584 net.cpp:150] Setting up L2_b5_relu
I0818 15:07:03.287139 21584 net.cpp:157] Top shape: 125 32 16 16 (1024000)
I0818 15:07:03.287143 21584 net.cpp:165] Memory required for data: 1068545500
I0818 15:07:03.287148 21584 layer_factory.hpp:77] Creating layer L2_b5_sum_eltwise_top_L2_b5_relu_0_split
I0818 15:07:03.287158 21584 net.cpp:100] Creating Layer L2_b5_sum_eltwise_top_L2_b5_relu_0_split
I0818 15:07:03.287164 21584 net.cpp:434] L2_b5_sum_eltwise_top_L2_b5_relu_0_split <- L2_b5_sum_eltwise_top
I0818 15:07:03.287171 21584 net.cpp:408] L2_b5_sum_eltwise_top_L2_b5_relu_0_split -> L2_b5_sum_eltwise_top_L2_b5_relu_0_split_0
I0818 15:07:03.287181 21584 net.cpp:408] L2_b5_sum_eltwise_top_L2_b5_relu_0_split -> L2_b5_sum_eltwise_top_L2_b5_relu_0_split_1
I0818 15:07:03.287225 21584 net.cpp:150] Setting up L2_b5_sum_eltwise_top_L2_b5_relu_0_split
I0818 15:07:03.287240 21584 net.cpp:157] Top shape: 125 32 16 16 (1024000)
I0818 15:07:03.287247 21584 net.cpp:157] Top shape: 125 32 16 16 (1024000)
I0818 15:07:03.287251 21584 net.cpp:165] Memory required for data: 1076737500
I0818 15:07:03.287256 21584 layer_factory.hpp:77] Creating layer L2_b6_cbr1_conv
I0818 15:07:03.287268 21584 net.cpp:100] Creating Layer L2_b6_cbr1_conv
I0818 15:07:03.287274 21584 net.cpp:434] L2_b6_cbr1_conv <- L2_b5_sum_eltwise_top_L2_b5_relu_0_split_0
I0818 15:07:03.287284 21584 net.cpp:408] L2_b6_cbr1_conv -> L2_b6_cbr1_conv_top
I0818 15:07:03.287752 21584 net.cpp:150] Setting up L2_b6_cbr1_conv
I0818 15:07:03.287767 21584 net.cpp:157] Top shape: 125 32 16 16 (1024000)
I0818 15:07:03.287772 21584 net.cpp:165] Memory required for data: 1080833500
I0818 15:07:03.287781 21584 layer_factory.hpp:77] Creating layer L2_b6_cbr1_bn
I0818 15:07:03.287794 21584 net.cpp:100] Creating Layer L2_b6_cbr1_bn
I0818 15:07:03.287801 21584 net.cpp:434] L2_b6_cbr1_bn <- L2_b6_cbr1_conv_top
I0818 15:07:03.287809 21584 net.cpp:408] L2_b6_cbr1_bn -> L2_b6_cbr1_bn_top
I0818 15:07:03.288058 21584 net.cpp:150] Setting up L2_b6_cbr1_bn
I0818 15:07:03.288070 21584 net.cpp:157] Top shape: 125 32 16 16 (1024000)
I0818 15:07:03.288075 21584 net.cpp:165] Memory required for data: 1084929500
I0818 15:07:03.288085 21584 layer_factory.hpp:77] Creating layer L2_b6_cbr1_scale
I0818 15:07:03.288095 21584 net.cpp:100] Creating Layer L2_b6_cbr1_scale
I0818 15:07:03.288101 21584 net.cpp:434] L2_b6_cbr1_scale <- L2_b6_cbr1_bn_top
I0818 15:07:03.288112 21584 net.cpp:395] L2_b6_cbr1_scale -> L2_b6_cbr1_bn_top (in-place)
I0818 15:07:03.288167 21584 layer_factory.hpp:77] Creating layer L2_b6_cbr1_scale
I0818 15:07:03.288316 21584 net.cpp:150] Setting up L2_b6_cbr1_scale
I0818 15:07:03.288328 21584 net.cpp:157] Top shape: 125 32 16 16 (1024000)
I0818 15:07:03.288333 21584 net.cpp:165] Memory required for data: 1089025500
I0818 15:07:03.288342 21584 layer_factory.hpp:77] Creating layer L2_b6_cbr1_relu
I0818 15:07:03.288350 21584 net.cpp:100] Creating Layer L2_b6_cbr1_relu
I0818 15:07:03.288357 21584 net.cpp:434] L2_b6_cbr1_relu <- L2_b6_cbr1_bn_top
I0818 15:07:03.288367 21584 net.cpp:395] L2_b6_cbr1_relu -> L2_b6_cbr1_bn_top (in-place)
I0818 15:07:03.288378 21584 net.cpp:150] Setting up L2_b6_cbr1_relu
I0818 15:07:03.288385 21584 net.cpp:157] Top shape: 125 32 16 16 (1024000)
I0818 15:07:03.288390 21584 net.cpp:165] Memory required for data: 1093121500
I0818 15:07:03.288395 21584 layer_factory.hpp:77] Creating layer L2_b6_cbr2_conv
I0818 15:07:03.288409 21584 net.cpp:100] Creating Layer L2_b6_cbr2_conv
I0818 15:07:03.288415 21584 net.cpp:434] L2_b6_cbr2_conv <- L2_b6_cbr1_bn_top
I0818 15:07:03.288424 21584 net.cpp:408] L2_b6_cbr2_conv -> L2_b6_cbr2_conv_top
I0818 15:07:03.288893 21584 net.cpp:150] Setting up L2_b6_cbr2_conv
I0818 15:07:03.288914 21584 net.cpp:157] Top shape: 125 32 16 16 (1024000)
I0818 15:07:03.288920 21584 net.cpp:165] Memory required for data: 1097217500
I0818 15:07:03.288929 21584 layer_factory.hpp:77] Creating layer L2_b6_cbr2_bn
I0818 15:07:03.288941 21584 net.cpp:100] Creating Layer L2_b6_cbr2_bn
I0818 15:07:03.288949 21584 net.cpp:434] L2_b6_cbr2_bn <- L2_b6_cbr2_conv_top
I0818 15:07:03.288957 21584 net.cpp:408] L2_b6_cbr2_bn -> L2_b6_cbr2_bn_top
I0818 15:07:03.289196 21584 net.cpp:150] Setting up L2_b6_cbr2_bn
I0818 15:07:03.289208 21584 net.cpp:157] Top shape: 125 32 16 16 (1024000)
I0818 15:07:03.289213 21584 net.cpp:165] Memory required for data: 1101313500
I0818 15:07:03.289224 21584 layer_factory.hpp:77] Creating layer L2_b6_cbr2_scale
I0818 15:07:03.289233 21584 net.cpp:100] Creating Layer L2_b6_cbr2_scale
I0818 15:07:03.289239 21584 net.cpp:434] L2_b6_cbr2_scale <- L2_b6_cbr2_bn_top
I0818 15:07:03.289247 21584 net.cpp:395] L2_b6_cbr2_scale -> L2_b6_cbr2_bn_top (in-place)
I0818 15:07:03.289304 21584 layer_factory.hpp:77] Creating layer L2_b6_cbr2_scale
I0818 15:07:03.289448 21584 net.cpp:150] Setting up L2_b6_cbr2_scale
I0818 15:07:03.289463 21584 net.cpp:157] Top shape: 125 32 16 16 (1024000)
I0818 15:07:03.289469 21584 net.cpp:165] Memory required for data: 1105409500
I0818 15:07:03.289477 21584 layer_factory.hpp:77] Creating layer L2_b6_sum_eltwise
I0818 15:07:03.289486 21584 net.cpp:100] Creating Layer L2_b6_sum_eltwise
I0818 15:07:03.289492 21584 net.cpp:434] L2_b6_sum_eltwise <- L2_b6_cbr2_bn_top
I0818 15:07:03.289499 21584 net.cpp:434] L2_b6_sum_eltwise <- L2_b5_sum_eltwise_top_L2_b5_relu_0_split_1
I0818 15:07:03.289510 21584 net.cpp:408] L2_b6_sum_eltwise -> L2_b6_sum_eltwise_top
I0818 15:07:03.289536 21584 net.cpp:150] Setting up L2_b6_sum_eltwise
I0818 15:07:03.289546 21584 net.cpp:157] Top shape: 125 32 16 16 (1024000)
I0818 15:07:03.289551 21584 net.cpp:165] Memory required for data: 1109505500
I0818 15:07:03.289556 21584 layer_factory.hpp:77] Creating layer L2_b6_relu
I0818 15:07:03.289563 21584 net.cpp:100] Creating Layer L2_b6_relu
I0818 15:07:03.289569 21584 net.cpp:434] L2_b6_relu <- L2_b6_sum_eltwise_top
I0818 15:07:03.289579 21584 net.cpp:395] L2_b6_relu -> L2_b6_sum_eltwise_top (in-place)
I0818 15:07:03.289589 21584 net.cpp:150] Setting up L2_b6_relu
I0818 15:07:03.289597 21584 net.cpp:157] Top shape: 125 32 16 16 (1024000)
I0818 15:07:03.289602 21584 net.cpp:165] Memory required for data: 1113601500
I0818 15:07:03.289605 21584 layer_factory.hpp:77] Creating layer L2_b6_sum_eltwise_top_L2_b6_relu_0_split
I0818 15:07:03.289613 21584 net.cpp:100] Creating Layer L2_b6_sum_eltwise_top_L2_b6_relu_0_split
I0818 15:07:03.289618 21584 net.cpp:434] L2_b6_sum_eltwise_top_L2_b6_relu_0_split <- L2_b6_sum_eltwise_top
I0818 15:07:03.289628 21584 net.cpp:408] L2_b6_sum_eltwise_top_L2_b6_relu_0_split -> L2_b6_sum_eltwise_top_L2_b6_relu_0_split_0
I0818 15:07:03.289638 21584 net.cpp:408] L2_b6_sum_eltwise_top_L2_b6_relu_0_split -> L2_b6_sum_eltwise_top_L2_b6_relu_0_split_1
I0818 15:07:03.289687 21584 net.cpp:150] Setting up L2_b6_sum_eltwise_top_L2_b6_relu_0_split
I0818 15:07:03.289700 21584 net.cpp:157] Top shape: 125 32 16 16 (1024000)
I0818 15:07:03.289707 21584 net.cpp:157] Top shape: 125 32 16 16 (1024000)
I0818 15:07:03.289711 21584 net.cpp:165] Memory required for data: 1121793500
I0818 15:07:03.289716 21584 layer_factory.hpp:77] Creating layer L2_b7_cbr1_conv
I0818 15:07:03.289731 21584 net.cpp:100] Creating Layer L2_b7_cbr1_conv
I0818 15:07:03.289738 21584 net.cpp:434] L2_b7_cbr1_conv <- L2_b6_sum_eltwise_top_L2_b6_relu_0_split_0
I0818 15:07:03.289748 21584 net.cpp:408] L2_b7_cbr1_conv -> L2_b7_cbr1_conv_top
I0818 15:07:03.290215 21584 net.cpp:150] Setting up L2_b7_cbr1_conv
I0818 15:07:03.290228 21584 net.cpp:157] Top shape: 125 32 16 16 (1024000)
I0818 15:07:03.290233 21584 net.cpp:165] Memory required for data: 1125889500
I0818 15:07:03.290242 21584 layer_factory.hpp:77] Creating layer L2_b7_cbr1_bn
I0818 15:07:03.290256 21584 net.cpp:100] Creating Layer L2_b7_cbr1_bn
I0818 15:07:03.290268 21584 net.cpp:434] L2_b7_cbr1_bn <- L2_b7_cbr1_conv_top
I0818 15:07:03.290277 21584 net.cpp:408] L2_b7_cbr1_bn -> L2_b7_cbr1_bn_top
I0818 15:07:03.290525 21584 net.cpp:150] Setting up L2_b7_cbr1_bn
I0818 15:07:03.290539 21584 net.cpp:157] Top shape: 125 32 16 16 (1024000)
I0818 15:07:03.290544 21584 net.cpp:165] Memory required for data: 1129985500
I0818 15:07:03.290555 21584 layer_factory.hpp:77] Creating layer L2_b7_cbr1_scale
I0818 15:07:03.290563 21584 net.cpp:100] Creating Layer L2_b7_cbr1_scale
I0818 15:07:03.290570 21584 net.cpp:434] L2_b7_cbr1_scale <- L2_b7_cbr1_bn_top
I0818 15:07:03.290580 21584 net.cpp:395] L2_b7_cbr1_scale -> L2_b7_cbr1_bn_top (in-place)
I0818 15:07:03.290637 21584 layer_factory.hpp:77] Creating layer L2_b7_cbr1_scale
I0818 15:07:03.290791 21584 net.cpp:150] Setting up L2_b7_cbr1_scale
I0818 15:07:03.290805 21584 net.cpp:157] Top shape: 125 32 16 16 (1024000)
I0818 15:07:03.290810 21584 net.cpp:165] Memory required for data: 1134081500
I0818 15:07:03.290819 21584 layer_factory.hpp:77] Creating layer L2_b7_cbr1_relu
I0818 15:07:03.290828 21584 net.cpp:100] Creating Layer L2_b7_cbr1_relu
I0818 15:07:03.290834 21584 net.cpp:434] L2_b7_cbr1_relu <- L2_b7_cbr1_bn_top
I0818 15:07:03.290846 21584 net.cpp:395] L2_b7_cbr1_relu -> L2_b7_cbr1_bn_top (in-place)
I0818 15:07:03.290858 21584 net.cpp:150] Setting up L2_b7_cbr1_relu
I0818 15:07:03.290864 21584 net.cpp:157] Top shape: 125 32 16 16 (1024000)
I0818 15:07:03.290868 21584 net.cpp:165] Memory required for data: 1138177500
I0818 15:07:03.290874 21584 layer_factory.hpp:77] Creating layer L2_b7_cbr2_conv
I0818 15:07:03.290887 21584 net.cpp:100] Creating Layer L2_b7_cbr2_conv
I0818 15:07:03.290894 21584 net.cpp:434] L2_b7_cbr2_conv <- L2_b7_cbr1_bn_top
I0818 15:07:03.290902 21584 net.cpp:408] L2_b7_cbr2_conv -> L2_b7_cbr2_conv_top
I0818 15:07:03.291364 21584 net.cpp:150] Setting up L2_b7_cbr2_conv
I0818 15:07:03.291378 21584 net.cpp:157] Top shape: 125 32 16 16 (1024000)
I0818 15:07:03.291384 21584 net.cpp:165] Memory required for data: 1142273500
I0818 15:07:03.291393 21584 layer_factory.hpp:77] Creating layer L2_b7_cbr2_bn
I0818 15:07:03.291402 21584 net.cpp:100] Creating Layer L2_b7_cbr2_bn
I0818 15:07:03.291409 21584 net.cpp:434] L2_b7_cbr2_bn <- L2_b7_cbr2_conv_top
I0818 15:07:03.291420 21584 net.cpp:408] L2_b7_cbr2_bn -> L2_b7_cbr2_bn_top
I0818 15:07:03.291676 21584 net.cpp:150] Setting up L2_b7_cbr2_bn
I0818 15:07:03.291688 21584 net.cpp:157] Top shape: 125 32 16 16 (1024000)
I0818 15:07:03.291693 21584 net.cpp:165] Memory required for data: 1146369500
I0818 15:07:03.291704 21584 layer_factory.hpp:77] Creating layer L2_b7_cbr2_scale
I0818 15:07:03.291713 21584 net.cpp:100] Creating Layer L2_b7_cbr2_scale
I0818 15:07:03.291720 21584 net.cpp:434] L2_b7_cbr2_scale <- L2_b7_cbr2_bn_top
I0818 15:07:03.291728 21584 net.cpp:395] L2_b7_cbr2_scale -> L2_b7_cbr2_bn_top (in-place)
I0818 15:07:03.291787 21584 layer_factory.hpp:77] Creating layer L2_b7_cbr2_scale
I0818 15:07:03.291935 21584 net.cpp:150] Setting up L2_b7_cbr2_scale
I0818 15:07:03.291951 21584 net.cpp:157] Top shape: 125 32 16 16 (1024000)
I0818 15:07:03.291957 21584 net.cpp:165] Memory required for data: 1150465500
I0818 15:07:03.291965 21584 layer_factory.hpp:77] Creating layer L2_b7_sum_eltwise
I0818 15:07:03.291975 21584 net.cpp:100] Creating Layer L2_b7_sum_eltwise
I0818 15:07:03.291981 21584 net.cpp:434] L2_b7_sum_eltwise <- L2_b7_cbr2_bn_top
I0818 15:07:03.291988 21584 net.cpp:434] L2_b7_sum_eltwise <- L2_b6_sum_eltwise_top_L2_b6_relu_0_split_1
I0818 15:07:03.291996 21584 net.cpp:408] L2_b7_sum_eltwise -> L2_b7_sum_eltwise_top
I0818 15:07:03.292026 21584 net.cpp:150] Setting up L2_b7_sum_eltwise
I0818 15:07:03.292037 21584 net.cpp:157] Top shape: 125 32 16 16 (1024000)
I0818 15:07:03.292042 21584 net.cpp:165] Memory required for data: 1154561500
I0818 15:07:03.292047 21584 layer_factory.hpp:77] Creating layer L2_b7_relu
I0818 15:07:03.292054 21584 net.cpp:100] Creating Layer L2_b7_relu
I0818 15:07:03.292060 21584 net.cpp:434] L2_b7_relu <- L2_b7_sum_eltwise_top
I0818 15:07:03.292076 21584 net.cpp:395] L2_b7_relu -> L2_b7_sum_eltwise_top (in-place)
I0818 15:07:03.292088 21584 net.cpp:150] Setting up L2_b7_relu
I0818 15:07:03.292094 21584 net.cpp:157] Top shape: 125 32 16 16 (1024000)
I0818 15:07:03.292098 21584 net.cpp:165] Memory required for data: 1158657500
I0818 15:07:03.292104 21584 layer_factory.hpp:77] Creating layer L2_b7_sum_eltwise_top_L2_b7_relu_0_split
I0818 15:07:03.292110 21584 net.cpp:100] Creating Layer L2_b7_sum_eltwise_top_L2_b7_relu_0_split
I0818 15:07:03.292115 21584 net.cpp:434] L2_b7_sum_eltwise_top_L2_b7_relu_0_split <- L2_b7_sum_eltwise_top
I0818 15:07:03.292125 21584 net.cpp:408] L2_b7_sum_eltwise_top_L2_b7_relu_0_split -> L2_b7_sum_eltwise_top_L2_b7_relu_0_split_0
I0818 15:07:03.292136 21584 net.cpp:408] L2_b7_sum_eltwise_top_L2_b7_relu_0_split -> L2_b7_sum_eltwise_top_L2_b7_relu_0_split_1
I0818 15:07:03.292181 21584 net.cpp:150] Setting up L2_b7_sum_eltwise_top_L2_b7_relu_0_split
I0818 15:07:03.292192 21584 net.cpp:157] Top shape: 125 32 16 16 (1024000)
I0818 15:07:03.292199 21584 net.cpp:157] Top shape: 125 32 16 16 (1024000)
I0818 15:07:03.292203 21584 net.cpp:165] Memory required for data: 1166849500
I0818 15:07:03.292208 21584 layer_factory.hpp:77] Creating layer L2_b8_cbr1_conv
I0818 15:07:03.292223 21584 net.cpp:100] Creating Layer L2_b8_cbr1_conv
I0818 15:07:03.292230 21584 net.cpp:434] L2_b8_cbr1_conv <- L2_b7_sum_eltwise_top_L2_b7_relu_0_split_0
I0818 15:07:03.292239 21584 net.cpp:408] L2_b8_cbr1_conv -> L2_b8_cbr1_conv_top
I0818 15:07:03.292718 21584 net.cpp:150] Setting up L2_b8_cbr1_conv
I0818 15:07:03.292733 21584 net.cpp:157] Top shape: 125 32 16 16 (1024000)
I0818 15:07:03.292738 21584 net.cpp:165] Memory required for data: 1170945500
I0818 15:07:03.292747 21584 layer_factory.hpp:77] Creating layer L2_b8_cbr1_bn
I0818 15:07:03.292759 21584 net.cpp:100] Creating Layer L2_b8_cbr1_bn
I0818 15:07:03.292767 21584 net.cpp:434] L2_b8_cbr1_bn <- L2_b8_cbr1_conv_top
I0818 15:07:03.292775 21584 net.cpp:408] L2_b8_cbr1_bn -> L2_b8_cbr1_bn_top
I0818 15:07:03.293021 21584 net.cpp:150] Setting up L2_b8_cbr1_bn
I0818 15:07:03.293033 21584 net.cpp:157] Top shape: 125 32 16 16 (1024000)
I0818 15:07:03.293040 21584 net.cpp:165] Memory required for data: 1175041500
I0818 15:07:03.293050 21584 layer_factory.hpp:77] Creating layer L2_b8_cbr1_scale
I0818 15:07:03.293058 21584 net.cpp:100] Creating Layer L2_b8_cbr1_scale
I0818 15:07:03.293064 21584 net.cpp:434] L2_b8_cbr1_scale <- L2_b8_cbr1_bn_top
I0818 15:07:03.293076 21584 net.cpp:395] L2_b8_cbr1_scale -> L2_b8_cbr1_bn_top (in-place)
I0818 15:07:03.293131 21584 layer_factory.hpp:77] Creating layer L2_b8_cbr1_scale
I0818 15:07:03.293285 21584 net.cpp:150] Setting up L2_b8_cbr1_scale
I0818 15:07:03.293298 21584 net.cpp:157] Top shape: 125 32 16 16 (1024000)
I0818 15:07:03.293303 21584 net.cpp:165] Memory required for data: 1179137500
I0818 15:07:03.293313 21584 layer_factory.hpp:77] Creating layer L2_b8_cbr1_relu
I0818 15:07:03.293321 21584 net.cpp:100] Creating Layer L2_b8_cbr1_relu
I0818 15:07:03.293328 21584 net.cpp:434] L2_b8_cbr1_relu <- L2_b8_cbr1_bn_top
I0818 15:07:03.293334 21584 net.cpp:395] L2_b8_cbr1_relu -> L2_b8_cbr1_bn_top (in-place)
I0818 15:07:03.293344 21584 net.cpp:150] Setting up L2_b8_cbr1_relu
I0818 15:07:03.293351 21584 net.cpp:157] Top shape: 125 32 16 16 (1024000)
I0818 15:07:03.293356 21584 net.cpp:165] Memory required for data: 1183233500
I0818 15:07:03.293361 21584 layer_factory.hpp:77] Creating layer L2_b8_cbr2_conv
I0818 15:07:03.293375 21584 net.cpp:100] Creating Layer L2_b8_cbr2_conv
I0818 15:07:03.293381 21584 net.cpp:434] L2_b8_cbr2_conv <- L2_b8_cbr1_bn_top
I0818 15:07:03.293392 21584 net.cpp:408] L2_b8_cbr2_conv -> L2_b8_cbr2_conv_top
I0818 15:07:03.293864 21584 net.cpp:150] Setting up L2_b8_cbr2_conv
I0818 15:07:03.293879 21584 net.cpp:157] Top shape: 125 32 16 16 (1024000)
I0818 15:07:03.293884 21584 net.cpp:165] Memory required for data: 1187329500
I0818 15:07:03.293892 21584 layer_factory.hpp:77] Creating layer L2_b8_cbr2_bn
I0818 15:07:03.293905 21584 net.cpp:100] Creating Layer L2_b8_cbr2_bn
I0818 15:07:03.293920 21584 net.cpp:434] L2_b8_cbr2_bn <- L2_b8_cbr2_conv_top
I0818 15:07:03.293932 21584 net.cpp:408] L2_b8_cbr2_bn -> L2_b8_cbr2_bn_top
I0818 15:07:03.294183 21584 net.cpp:150] Setting up L2_b8_cbr2_bn
I0818 15:07:03.294196 21584 net.cpp:157] Top shape: 125 32 16 16 (1024000)
I0818 15:07:03.294203 21584 net.cpp:165] Memory required for data: 1191425500
I0818 15:07:03.294212 21584 layer_factory.hpp:77] Creating layer L2_b8_cbr2_scale
I0818 15:07:03.294221 21584 net.cpp:100] Creating Layer L2_b8_cbr2_scale
I0818 15:07:03.294229 21584 net.cpp:434] L2_b8_cbr2_scale <- L2_b8_cbr2_bn_top
I0818 15:07:03.294236 21584 net.cpp:395] L2_b8_cbr2_scale -> L2_b8_cbr2_bn_top (in-place)
I0818 15:07:03.294296 21584 layer_factory.hpp:77] Creating layer L2_b8_cbr2_scale
I0818 15:07:03.294443 21584 net.cpp:150] Setting up L2_b8_cbr2_scale
I0818 15:07:03.294456 21584 net.cpp:157] Top shape: 125 32 16 16 (1024000)
I0818 15:07:03.294461 21584 net.cpp:165] Memory required for data: 1195521500
I0818 15:07:03.294469 21584 layer_factory.hpp:77] Creating layer L2_b8_sum_eltwise
I0818 15:07:03.294481 21584 net.cpp:100] Creating Layer L2_b8_sum_eltwise
I0818 15:07:03.294488 21584 net.cpp:434] L2_b8_sum_eltwise <- L2_b8_cbr2_bn_top
I0818 15:07:03.294495 21584 net.cpp:434] L2_b8_sum_eltwise <- L2_b7_sum_eltwise_top_L2_b7_relu_0_split_1
I0818 15:07:03.294503 21584 net.cpp:408] L2_b8_sum_eltwise -> L2_b8_sum_eltwise_top
I0818 15:07:03.294533 21584 net.cpp:150] Setting up L2_b8_sum_eltwise
I0818 15:07:03.294543 21584 net.cpp:157] Top shape: 125 32 16 16 (1024000)
I0818 15:07:03.294548 21584 net.cpp:165] Memory required for data: 1199617500
I0818 15:07:03.294553 21584 layer_factory.hpp:77] Creating layer L2_b8_relu
I0818 15:07:03.294560 21584 net.cpp:100] Creating Layer L2_b8_relu
I0818 15:07:03.294566 21584 net.cpp:434] L2_b8_relu <- L2_b8_sum_eltwise_top
I0818 15:07:03.294576 21584 net.cpp:395] L2_b8_relu -> L2_b8_sum_eltwise_top (in-place)
I0818 15:07:03.294586 21584 net.cpp:150] Setting up L2_b8_relu
I0818 15:07:03.294594 21584 net.cpp:157] Top shape: 125 32 16 16 (1024000)
I0818 15:07:03.294598 21584 net.cpp:165] Memory required for data: 1203713500
I0818 15:07:03.294603 21584 layer_factory.hpp:77] Creating layer L2_b8_sum_eltwise_top_L2_b8_relu_0_split
I0818 15:07:03.294610 21584 net.cpp:100] Creating Layer L2_b8_sum_eltwise_top_L2_b8_relu_0_split
I0818 15:07:03.294615 21584 net.cpp:434] L2_b8_sum_eltwise_top_L2_b8_relu_0_split <- L2_b8_sum_eltwise_top
I0818 15:07:03.294626 21584 net.cpp:408] L2_b8_sum_eltwise_top_L2_b8_relu_0_split -> L2_b8_sum_eltwise_top_L2_b8_relu_0_split_0
I0818 15:07:03.294656 21584 net.cpp:408] L2_b8_sum_eltwise_top_L2_b8_relu_0_split -> L2_b8_sum_eltwise_top_L2_b8_relu_0_split_1
I0818 15:07:03.294706 21584 net.cpp:150] Setting up L2_b8_sum_eltwise_top_L2_b8_relu_0_split
I0818 15:07:03.294719 21584 net.cpp:157] Top shape: 125 32 16 16 (1024000)
I0818 15:07:03.294726 21584 net.cpp:157] Top shape: 125 32 16 16 (1024000)
I0818 15:07:03.294730 21584 net.cpp:165] Memory required for data: 1211905500
I0818 15:07:03.294736 21584 layer_factory.hpp:77] Creating layer L2_b9_cbr1_conv
I0818 15:07:03.294751 21584 net.cpp:100] Creating Layer L2_b9_cbr1_conv
I0818 15:07:03.294759 21584 net.cpp:434] L2_b9_cbr1_conv <- L2_b8_sum_eltwise_top_L2_b8_relu_0_split_0
I0818 15:07:03.294772 21584 net.cpp:408] L2_b9_cbr1_conv -> L2_b9_cbr1_conv_top
I0818 15:07:03.295243 21584 net.cpp:150] Setting up L2_b9_cbr1_conv
I0818 15:07:03.295256 21584 net.cpp:157] Top shape: 125 32 16 16 (1024000)
I0818 15:07:03.295261 21584 net.cpp:165] Memory required for data: 1216001500
I0818 15:07:03.295270 21584 layer_factory.hpp:77] Creating layer L2_b9_cbr1_bn
I0818 15:07:03.295284 21584 net.cpp:100] Creating Layer L2_b9_cbr1_bn
I0818 15:07:03.295290 21584 net.cpp:434] L2_b9_cbr1_bn <- L2_b9_cbr1_conv_top
I0818 15:07:03.295301 21584 net.cpp:408] L2_b9_cbr1_bn -> L2_b9_cbr1_bn_top
I0818 15:07:03.295552 21584 net.cpp:150] Setting up L2_b9_cbr1_bn
I0818 15:07:03.295564 21584 net.cpp:157] Top shape: 125 32 16 16 (1024000)
I0818 15:07:03.295569 21584 net.cpp:165] Memory required for data: 1220097500
I0818 15:07:03.295588 21584 layer_factory.hpp:77] Creating layer L2_b9_cbr1_scale
I0818 15:07:03.295598 21584 net.cpp:100] Creating Layer L2_b9_cbr1_scale
I0818 15:07:03.295604 21584 net.cpp:434] L2_b9_cbr1_scale <- L2_b9_cbr1_bn_top
I0818 15:07:03.295613 21584 net.cpp:395] L2_b9_cbr1_scale -> L2_b9_cbr1_bn_top (in-place)
I0818 15:07:03.295678 21584 layer_factory.hpp:77] Creating layer L2_b9_cbr1_scale
I0818 15:07:03.295827 21584 net.cpp:150] Setting up L2_b9_cbr1_scale
I0818 15:07:03.295840 21584 net.cpp:157] Top shape: 125 32 16 16 (1024000)
I0818 15:07:03.295845 21584 net.cpp:165] Memory required for data: 1224193500
I0818 15:07:03.295855 21584 layer_factory.hpp:77] Creating layer L2_b9_cbr1_relu
I0818 15:07:03.295866 21584 net.cpp:100] Creating Layer L2_b9_cbr1_relu
I0818 15:07:03.295872 21584 net.cpp:434] L2_b9_cbr1_relu <- L2_b9_cbr1_bn_top
I0818 15:07:03.295881 21584 net.cpp:395] L2_b9_cbr1_relu -> L2_b9_cbr1_bn_top (in-place)
I0818 15:07:03.295891 21584 net.cpp:150] Setting up L2_b9_cbr1_relu
I0818 15:07:03.295897 21584 net.cpp:157] Top shape: 125 32 16 16 (1024000)
I0818 15:07:03.295902 21584 net.cpp:165] Memory required for data: 1228289500
I0818 15:07:03.295907 21584 layer_factory.hpp:77] Creating layer L2_b9_cbr2_conv
I0818 15:07:03.295922 21584 net.cpp:100] Creating Layer L2_b9_cbr2_conv
I0818 15:07:03.295928 21584 net.cpp:434] L2_b9_cbr2_conv <- L2_b9_cbr1_bn_top
I0818 15:07:03.295936 21584 net.cpp:408] L2_b9_cbr2_conv -> L2_b9_cbr2_conv_top
I0818 15:07:03.296399 21584 net.cpp:150] Setting up L2_b9_cbr2_conv
I0818 15:07:03.296413 21584 net.cpp:157] Top shape: 125 32 16 16 (1024000)
I0818 15:07:03.296419 21584 net.cpp:165] Memory required for data: 1232385500
I0818 15:07:03.296428 21584 layer_factory.hpp:77] Creating layer L2_b9_cbr2_bn
I0818 15:07:03.296440 21584 net.cpp:100] Creating Layer L2_b9_cbr2_bn
I0818 15:07:03.296447 21584 net.cpp:434] L2_b9_cbr2_bn <- L2_b9_cbr2_conv_top
I0818 15:07:03.296455 21584 net.cpp:408] L2_b9_cbr2_bn -> L2_b9_cbr2_bn_top
I0818 15:07:03.296718 21584 net.cpp:150] Setting up L2_b9_cbr2_bn
I0818 15:07:03.296737 21584 net.cpp:157] Top shape: 125 32 16 16 (1024000)
I0818 15:07:03.296743 21584 net.cpp:165] Memory required for data: 1236481500
I0818 15:07:03.296785 21584 layer_factory.hpp:77] Creating layer L2_b9_cbr2_scale
I0818 15:07:03.296799 21584 net.cpp:100] Creating Layer L2_b9_cbr2_scale
I0818 15:07:03.296807 21584 net.cpp:434] L2_b9_cbr2_scale <- L2_b9_cbr2_bn_top
I0818 15:07:03.296814 21584 net.cpp:395] L2_b9_cbr2_scale -> L2_b9_cbr2_bn_top (in-place)
I0818 15:07:03.296871 21584 layer_factory.hpp:77] Creating layer L2_b9_cbr2_scale
I0818 15:07:03.297019 21584 net.cpp:150] Setting up L2_b9_cbr2_scale
I0818 15:07:03.297031 21584 net.cpp:157] Top shape: 125 32 16 16 (1024000)
I0818 15:07:03.297036 21584 net.cpp:165] Memory required for data: 1240577500
I0818 15:07:03.297045 21584 layer_factory.hpp:77] Creating layer L2_b9_sum_eltwise
I0818 15:07:03.297055 21584 net.cpp:100] Creating Layer L2_b9_sum_eltwise
I0818 15:07:03.297062 21584 net.cpp:434] L2_b9_sum_eltwise <- L2_b9_cbr2_bn_top
I0818 15:07:03.297070 21584 net.cpp:434] L2_b9_sum_eltwise <- L2_b8_sum_eltwise_top_L2_b8_relu_0_split_1
I0818 15:07:03.297082 21584 net.cpp:408] L2_b9_sum_eltwise -> L2_b9_sum_eltwise_top
I0818 15:07:03.297111 21584 net.cpp:150] Setting up L2_b9_sum_eltwise
I0818 15:07:03.297122 21584 net.cpp:157] Top shape: 125 32 16 16 (1024000)
I0818 15:07:03.297127 21584 net.cpp:165] Memory required for data: 1244673500
I0818 15:07:03.297133 21584 layer_factory.hpp:77] Creating layer L2_b9_relu
I0818 15:07:03.297142 21584 net.cpp:100] Creating Layer L2_b9_relu
I0818 15:07:03.297147 21584 net.cpp:434] L2_b9_relu <- L2_b9_sum_eltwise_top
I0818 15:07:03.297154 21584 net.cpp:395] L2_b9_relu -> L2_b9_sum_eltwise_top (in-place)
I0818 15:07:03.297163 21584 net.cpp:150] Setting up L2_b9_relu
I0818 15:07:03.297170 21584 net.cpp:157] Top shape: 125 32 16 16 (1024000)
I0818 15:07:03.297175 21584 net.cpp:165] Memory required for data: 1248769500
I0818 15:07:03.297180 21584 layer_factory.hpp:77] Creating layer L2_b9_sum_eltwise_top_L2_b9_relu_0_split
I0818 15:07:03.297197 21584 net.cpp:100] Creating Layer L2_b9_sum_eltwise_top_L2_b9_relu_0_split
I0818 15:07:03.297204 21584 net.cpp:434] L2_b9_sum_eltwise_top_L2_b9_relu_0_split <- L2_b9_sum_eltwise_top
I0818 15:07:03.297211 21584 net.cpp:408] L2_b9_sum_eltwise_top_L2_b9_relu_0_split -> L2_b9_sum_eltwise_top_L2_b9_relu_0_split_0
I0818 15:07:03.297221 21584 net.cpp:408] L2_b9_sum_eltwise_top_L2_b9_relu_0_split -> L2_b9_sum_eltwise_top_L2_b9_relu_0_split_1
I0818 15:07:03.297273 21584 net.cpp:150] Setting up L2_b9_sum_eltwise_top_L2_b9_relu_0_split
I0818 15:07:03.297286 21584 net.cpp:157] Top shape: 125 32 16 16 (1024000)
I0818 15:07:03.297292 21584 net.cpp:157] Top shape: 125 32 16 16 (1024000)
I0818 15:07:03.297297 21584 net.cpp:165] Memory required for data: 1256961500
I0818 15:07:03.297302 21584 layer_factory.hpp:77] Creating layer L3_b1_cbr1_conv
I0818 15:07:03.297313 21584 net.cpp:100] Creating Layer L3_b1_cbr1_conv
I0818 15:07:03.297320 21584 net.cpp:434] L3_b1_cbr1_conv <- L2_b9_sum_eltwise_top_L2_b9_relu_0_split_0
I0818 15:07:03.297333 21584 net.cpp:408] L3_b1_cbr1_conv -> L3_b1_cbr1_conv_top
I0818 15:07:03.297816 21584 net.cpp:150] Setting up L3_b1_cbr1_conv
I0818 15:07:03.297830 21584 net.cpp:157] Top shape: 125 32 8 8 (256000)
I0818 15:07:03.297835 21584 net.cpp:165] Memory required for data: 1257985500
I0818 15:07:03.297844 21584 layer_factory.hpp:77] Creating layer L3_b1_cbr1_bn
I0818 15:07:03.297854 21584 net.cpp:100] Creating Layer L3_b1_cbr1_bn
I0818 15:07:03.297860 21584 net.cpp:434] L3_b1_cbr1_bn <- L3_b1_cbr1_conv_top
I0818 15:07:03.297873 21584 net.cpp:408] L3_b1_cbr1_bn -> L3_b1_cbr1_bn_top
I0818 15:07:03.298137 21584 net.cpp:150] Setting up L3_b1_cbr1_bn
I0818 15:07:03.298154 21584 net.cpp:157] Top shape: 125 32 8 8 (256000)
I0818 15:07:03.298159 21584 net.cpp:165] Memory required for data: 1259009500
I0818 15:07:03.298171 21584 layer_factory.hpp:77] Creating layer L3_b1_cbr1_scale
I0818 15:07:03.298179 21584 net.cpp:100] Creating Layer L3_b1_cbr1_scale
I0818 15:07:03.298185 21584 net.cpp:434] L3_b1_cbr1_scale <- L3_b1_cbr1_bn_top
I0818 15:07:03.298193 21584 net.cpp:395] L3_b1_cbr1_scale -> L3_b1_cbr1_bn_top (in-place)
I0818 15:07:03.298249 21584 layer_factory.hpp:77] Creating layer L3_b1_cbr1_scale
I0818 15:07:03.298409 21584 net.cpp:150] Setting up L3_b1_cbr1_scale
I0818 15:07:03.298422 21584 net.cpp:157] Top shape: 125 32 8 8 (256000)
I0818 15:07:03.298427 21584 net.cpp:165] Memory required for data: 1260033500
I0818 15:07:03.298436 21584 layer_factory.hpp:77] Creating layer L3_b1_cbr1_relu
I0818 15:07:03.298445 21584 net.cpp:100] Creating Layer L3_b1_cbr1_relu
I0818 15:07:03.298451 21584 net.cpp:434] L3_b1_cbr1_relu <- L3_b1_cbr1_bn_top
I0818 15:07:03.298462 21584 net.cpp:395] L3_b1_cbr1_relu -> L3_b1_cbr1_bn_top (in-place)
I0818 15:07:03.298472 21584 net.cpp:150] Setting up L3_b1_cbr1_relu
I0818 15:07:03.298480 21584 net.cpp:157] Top shape: 125 32 8 8 (256000)
I0818 15:07:03.298485 21584 net.cpp:165] Memory required for data: 1261057500
I0818 15:07:03.298490 21584 layer_factory.hpp:77] Creating layer L3_b1_cbr2_conv
I0818 15:07:03.298502 21584 net.cpp:100] Creating Layer L3_b1_cbr2_conv
I0818 15:07:03.298509 21584 net.cpp:434] L3_b1_cbr2_conv <- L3_b1_cbr1_bn_top
I0818 15:07:03.298518 21584 net.cpp:408] L3_b1_cbr2_conv -> L3_b1_cbr2_conv_top
I0818 15:07:03.298997 21584 net.cpp:150] Setting up L3_b1_cbr2_conv
I0818 15:07:03.299012 21584 net.cpp:157] Top shape: 125 32 8 8 (256000)
I0818 15:07:03.299017 21584 net.cpp:165] Memory required for data: 1262081500
I0818 15:07:03.299026 21584 layer_factory.hpp:77] Creating layer L3_b1_cbr2_bn
I0818 15:07:03.299039 21584 net.cpp:100] Creating Layer L3_b1_cbr2_bn
I0818 15:07:03.299046 21584 net.cpp:434] L3_b1_cbr2_bn <- L3_b1_cbr2_conv_top
I0818 15:07:03.299057 21584 net.cpp:408] L3_b1_cbr2_bn -> L3_b1_cbr2_bn_top
I0818 15:07:03.299315 21584 net.cpp:150] Setting up L3_b1_cbr2_bn
I0818 15:07:03.299329 21584 net.cpp:157] Top shape: 125 32 8 8 (256000)
I0818 15:07:03.299334 21584 net.cpp:165] Memory required for data: 1263105500
I0818 15:07:03.299351 21584 layer_factory.hpp:77] Creating layer L3_b1_cbr2_scale
I0818 15:07:03.299360 21584 net.cpp:100] Creating Layer L3_b1_cbr2_scale
I0818 15:07:03.299367 21584 net.cpp:434] L3_b1_cbr2_scale <- L3_b1_cbr2_bn_top
I0818 15:07:03.299376 21584 net.cpp:395] L3_b1_cbr2_scale -> L3_b1_cbr2_bn_top (in-place)
I0818 15:07:03.299434 21584 layer_factory.hpp:77] Creating layer L3_b1_cbr2_scale
I0818 15:07:03.299590 21584 net.cpp:150] Setting up L3_b1_cbr2_scale
I0818 15:07:03.299603 21584 net.cpp:157] Top shape: 125 32 8 8 (256000)
I0818 15:07:03.299609 21584 net.cpp:165] Memory required for data: 1264129500
I0818 15:07:03.299618 21584 layer_factory.hpp:77] Creating layer L3_b1_pool
I0818 15:07:03.299628 21584 net.cpp:100] Creating Layer L3_b1_pool
I0818 15:07:03.299633 21584 net.cpp:434] L3_b1_pool <- L2_b9_sum_eltwise_top_L2_b9_relu_0_split_1
I0818 15:07:03.299645 21584 net.cpp:408] L3_b1_pool -> L3_b1_pool
I0818 15:07:03.299687 21584 net.cpp:150] Setting up L3_b1_pool
I0818 15:07:03.299701 21584 net.cpp:157] Top shape: 125 32 8 8 (256000)
I0818 15:07:03.299706 21584 net.cpp:165] Memory required for data: 1265153500
I0818 15:07:03.299711 21584 layer_factory.hpp:77] Creating layer L3_b1_sum_eltwise
I0818 15:07:03.299721 21584 net.cpp:100] Creating Layer L3_b1_sum_eltwise
I0818 15:07:03.299726 21584 net.cpp:434] L3_b1_sum_eltwise <- L3_b1_cbr2_bn_top
I0818 15:07:03.299733 21584 net.cpp:434] L3_b1_sum_eltwise <- L3_b1_pool
I0818 15:07:03.299743 21584 net.cpp:408] L3_b1_sum_eltwise -> L3_b1_sum_eltwise_top
I0818 15:07:03.299775 21584 net.cpp:150] Setting up L3_b1_sum_eltwise
I0818 15:07:03.299785 21584 net.cpp:157] Top shape: 125 32 8 8 (256000)
I0818 15:07:03.299789 21584 net.cpp:165] Memory required for data: 1266177500
I0818 15:07:03.299794 21584 layer_factory.hpp:77] Creating layer L3_b1_relu
I0818 15:07:03.299803 21584 net.cpp:100] Creating Layer L3_b1_relu
I0818 15:07:03.299808 21584 net.cpp:434] L3_b1_relu <- L3_b1_sum_eltwise_top
I0818 15:07:03.299815 21584 net.cpp:395] L3_b1_relu -> L3_b1_sum_eltwise_top (in-place)
I0818 15:07:03.299824 21584 net.cpp:150] Setting up L3_b1_relu
I0818 15:07:03.299831 21584 net.cpp:157] Top shape: 125 32 8 8 (256000)
I0818 15:07:03.299835 21584 net.cpp:165] Memory required for data: 1267201500
I0818 15:07:03.299840 21584 layer_factory.hpp:77] Creating layer L3_b1_zeros
I0818 15:07:03.299852 21584 net.cpp:100] Creating Layer L3_b1_zeros
I0818 15:07:03.299860 21584 net.cpp:408] L3_b1_zeros -> L3_b1_zeros
I0818 15:07:03.301108 21584 net.cpp:150] Setting up L3_b1_zeros
I0818 15:07:03.301129 21584 net.cpp:157] Top shape: 125 32 8 8 (256000)
I0818 15:07:03.301136 21584 net.cpp:165] Memory required for data: 1268225500
I0818 15:07:03.301141 21584 layer_factory.hpp:77] Creating layer L3_b1_concat0
I0818 15:07:03.301151 21584 net.cpp:100] Creating Layer L3_b1_concat0
I0818 15:07:03.301157 21584 net.cpp:434] L3_b1_concat0 <- L3_b1_sum_eltwise_top
I0818 15:07:03.301164 21584 net.cpp:434] L3_b1_concat0 <- L3_b1_zeros
I0818 15:07:03.301172 21584 net.cpp:408] L3_b1_concat0 -> L3_b1_concat0
I0818 15:07:03.301215 21584 net.cpp:150] Setting up L3_b1_concat0
I0818 15:07:03.301229 21584 net.cpp:157] Top shape: 125 64 8 8 (512000)
I0818 15:07:03.301234 21584 net.cpp:165] Memory required for data: 1270273500
I0818 15:07:03.301239 21584 layer_factory.hpp:77] Creating layer L3_b1_concat0_L3_b1_concat0_0_split
I0818 15:07:03.301249 21584 net.cpp:100] Creating Layer L3_b1_concat0_L3_b1_concat0_0_split
I0818 15:07:03.301255 21584 net.cpp:434] L3_b1_concat0_L3_b1_concat0_0_split <- L3_b1_concat0
I0818 15:07:03.301264 21584 net.cpp:408] L3_b1_concat0_L3_b1_concat0_0_split -> L3_b1_concat0_L3_b1_concat0_0_split_0
I0818 15:07:03.301273 21584 net.cpp:408] L3_b1_concat0_L3_b1_concat0_0_split -> L3_b1_concat0_L3_b1_concat0_0_split_1
I0818 15:07:03.301326 21584 net.cpp:150] Setting up L3_b1_concat0_L3_b1_concat0_0_split
I0818 15:07:03.301338 21584 net.cpp:157] Top shape: 125 64 8 8 (512000)
I0818 15:07:03.301345 21584 net.cpp:157] Top shape: 125 64 8 8 (512000)
I0818 15:07:03.301376 21584 net.cpp:165] Memory required for data: 1274369500
I0818 15:07:03.301383 21584 layer_factory.hpp:77] Creating layer L3_b2_cbr1_conv
I0818 15:07:03.301398 21584 net.cpp:100] Creating Layer L3_b2_cbr1_conv
I0818 15:07:03.301405 21584 net.cpp:434] L3_b2_cbr1_conv <- L3_b1_concat0_L3_b1_concat0_0_split_0
I0818 15:07:03.301414 21584 net.cpp:408] L3_b2_cbr1_conv -> L3_b2_cbr1_conv_top
I0818 15:07:03.303423 21584 net.cpp:150] Setting up L3_b2_cbr1_conv
I0818 15:07:03.303442 21584 net.cpp:157] Top shape: 125 64 8 8 (512000)
I0818 15:07:03.303447 21584 net.cpp:165] Memory required for data: 1276417500
I0818 15:07:03.303457 21584 layer_factory.hpp:77] Creating layer L3_b2_cbr1_bn
I0818 15:07:03.303467 21584 net.cpp:100] Creating Layer L3_b2_cbr1_bn
I0818 15:07:03.303473 21584 net.cpp:434] L3_b2_cbr1_bn <- L3_b2_cbr1_conv_top
I0818 15:07:03.303485 21584 net.cpp:408] L3_b2_cbr1_bn -> L3_b2_cbr1_bn_top
I0818 15:07:03.303763 21584 net.cpp:150] Setting up L3_b2_cbr1_bn
I0818 15:07:03.303781 21584 net.cpp:157] Top shape: 125 64 8 8 (512000)
I0818 15:07:03.303786 21584 net.cpp:165] Memory required for data: 1278465500
I0818 15:07:03.303797 21584 layer_factory.hpp:77] Creating layer L3_b2_cbr1_scale
I0818 15:07:03.303807 21584 net.cpp:100] Creating Layer L3_b2_cbr1_scale
I0818 15:07:03.303813 21584 net.cpp:434] L3_b2_cbr1_scale <- L3_b2_cbr1_bn_top
I0818 15:07:03.303822 21584 net.cpp:395] L3_b2_cbr1_scale -> L3_b2_cbr1_bn_top (in-place)
I0818 15:07:03.303879 21584 layer_factory.hpp:77] Creating layer L3_b2_cbr1_scale
I0818 15:07:03.304036 21584 net.cpp:150] Setting up L3_b2_cbr1_scale
I0818 15:07:03.304050 21584 net.cpp:157] Top shape: 125 64 8 8 (512000)
I0818 15:07:03.304055 21584 net.cpp:165] Memory required for data: 1280513500
I0818 15:07:03.304064 21584 layer_factory.hpp:77] Creating layer L3_b2_cbr1_relu
I0818 15:07:03.304076 21584 net.cpp:100] Creating Layer L3_b2_cbr1_relu
I0818 15:07:03.304082 21584 net.cpp:434] L3_b2_cbr1_relu <- L3_b2_cbr1_bn_top
I0818 15:07:03.304090 21584 net.cpp:395] L3_b2_cbr1_relu -> L3_b2_cbr1_bn_top (in-place)
I0818 15:07:03.304100 21584 net.cpp:150] Setting up L3_b2_cbr1_relu
I0818 15:07:03.304107 21584 net.cpp:157] Top shape: 125 64 8 8 (512000)
I0818 15:07:03.304112 21584 net.cpp:165] Memory required for data: 1282561500
I0818 15:07:03.304116 21584 layer_factory.hpp:77] Creating layer L3_b2_cbr2_conv
I0818 15:07:03.304131 21584 net.cpp:100] Creating Layer L3_b2_cbr2_conv
I0818 15:07:03.304137 21584 net.cpp:434] L3_b2_cbr2_conv <- L3_b2_cbr1_bn_top
I0818 15:07:03.304147 21584 net.cpp:408] L3_b2_cbr2_conv -> L3_b2_cbr2_conv_top
I0818 15:07:03.305171 21584 net.cpp:150] Setting up L3_b2_cbr2_conv
I0818 15:07:03.305187 21584 net.cpp:157] Top shape: 125 64 8 8 (512000)
I0818 15:07:03.305192 21584 net.cpp:165] Memory required for data: 1284609500
I0818 15:07:03.305202 21584 layer_factory.hpp:77] Creating layer L3_b2_cbr2_bn
I0818 15:07:03.305214 21584 net.cpp:100] Creating Layer L3_b2_cbr2_bn
I0818 15:07:03.305222 21584 net.cpp:434] L3_b2_cbr2_bn <- L3_b2_cbr2_conv_top
I0818 15:07:03.305233 21584 net.cpp:408] L3_b2_cbr2_bn -> L3_b2_cbr2_bn_top
I0818 15:07:03.305495 21584 net.cpp:150] Setting up L3_b2_cbr2_bn
I0818 15:07:03.305507 21584 net.cpp:157] Top shape: 125 64 8 8 (512000)
I0818 15:07:03.305513 21584 net.cpp:165] Memory required for data: 1286657500
I0818 15:07:03.305523 21584 layer_factory.hpp:77] Creating layer L3_b2_cbr2_scale
I0818 15:07:03.305533 21584 net.cpp:100] Creating Layer L3_b2_cbr2_scale
I0818 15:07:03.305539 21584 net.cpp:434] L3_b2_cbr2_scale <- L3_b2_cbr2_bn_top
I0818 15:07:03.305550 21584 net.cpp:395] L3_b2_cbr2_scale -> L3_b2_cbr2_bn_top (in-place)
I0818 15:07:03.305608 21584 layer_factory.hpp:77] Creating layer L3_b2_cbr2_scale
I0818 15:07:03.305773 21584 net.cpp:150] Setting up L3_b2_cbr2_scale
I0818 15:07:03.305786 21584 net.cpp:157] Top shape: 125 64 8 8 (512000)
I0818 15:07:03.305793 21584 net.cpp:165] Memory required for data: 1288705500
I0818 15:07:03.305801 21584 layer_factory.hpp:77] Creating layer L3_b2_sum_eltwise
I0818 15:07:03.305811 21584 net.cpp:100] Creating Layer L3_b2_sum_eltwise
I0818 15:07:03.305825 21584 net.cpp:434] L3_b2_sum_eltwise <- L3_b2_cbr2_bn_top
I0818 15:07:03.305840 21584 net.cpp:434] L3_b2_sum_eltwise <- L3_b1_concat0_L3_b1_concat0_0_split_1
I0818 15:07:03.305848 21584 net.cpp:408] L3_b2_sum_eltwise -> L3_b2_sum_eltwise_top
I0818 15:07:03.305886 21584 net.cpp:150] Setting up L3_b2_sum_eltwise
I0818 15:07:03.305897 21584 net.cpp:157] Top shape: 125 64 8 8 (512000)
I0818 15:07:03.305903 21584 net.cpp:165] Memory required for data: 1290753500
I0818 15:07:03.305908 21584 layer_factory.hpp:77] Creating layer L3_b2_relu
I0818 15:07:03.305917 21584 net.cpp:100] Creating Layer L3_b2_relu
I0818 15:07:03.305922 21584 net.cpp:434] L3_b2_relu <- L3_b2_sum_eltwise_top
I0818 15:07:03.305932 21584 net.cpp:395] L3_b2_relu -> L3_b2_sum_eltwise_top (in-place)
I0818 15:07:03.305943 21584 net.cpp:150] Setting up L3_b2_relu
I0818 15:07:03.305950 21584 net.cpp:157] Top shape: 125 64 8 8 (512000)
I0818 15:07:03.305954 21584 net.cpp:165] Memory required for data: 1292801500
I0818 15:07:03.305959 21584 layer_factory.hpp:77] Creating layer L3_b2_sum_eltwise_top_L3_b2_relu_0_split
I0818 15:07:03.305966 21584 net.cpp:100] Creating Layer L3_b2_sum_eltwise_top_L3_b2_relu_0_split
I0818 15:07:03.305972 21584 net.cpp:434] L3_b2_sum_eltwise_top_L3_b2_relu_0_split <- L3_b2_sum_eltwise_top
I0818 15:07:03.305979 21584 net.cpp:408] L3_b2_sum_eltwise_top_L3_b2_relu_0_split -> L3_b2_sum_eltwise_top_L3_b2_relu_0_split_0
I0818 15:07:03.305989 21584 net.cpp:408] L3_b2_sum_eltwise_top_L3_b2_relu_0_split -> L3_b2_sum_eltwise_top_L3_b2_relu_0_split_1
I0818 15:07:03.306040 21584 net.cpp:150] Setting up L3_b2_sum_eltwise_top_L3_b2_relu_0_split
I0818 15:07:03.306051 21584 net.cpp:157] Top shape: 125 64 8 8 (512000)
I0818 15:07:03.306058 21584 net.cpp:157] Top shape: 125 64 8 8 (512000)
I0818 15:07:03.306063 21584 net.cpp:165] Memory required for data: 1296897500
I0818 15:07:03.306068 21584 layer_factory.hpp:77] Creating layer L3_b3_cbr1_conv
I0818 15:07:03.306079 21584 net.cpp:100] Creating Layer L3_b3_cbr1_conv
I0818 15:07:03.306087 21584 net.cpp:434] L3_b3_cbr1_conv <- L3_b2_sum_eltwise_top_L3_b2_relu_0_split_0
I0818 15:07:03.306098 21584 net.cpp:408] L3_b3_cbr1_conv -> L3_b3_cbr1_conv_top
I0818 15:07:03.307116 21584 net.cpp:150] Setting up L3_b3_cbr1_conv
I0818 15:07:03.307132 21584 net.cpp:157] Top shape: 125 64 8 8 (512000)
I0818 15:07:03.307137 21584 net.cpp:165] Memory required for data: 1298945500
I0818 15:07:03.307147 21584 layer_factory.hpp:77] Creating layer L3_b3_cbr1_bn
I0818 15:07:03.307155 21584 net.cpp:100] Creating Layer L3_b3_cbr1_bn
I0818 15:07:03.307163 21584 net.cpp:434] L3_b3_cbr1_bn <- L3_b3_cbr1_conv_top
I0818 15:07:03.307173 21584 net.cpp:408] L3_b3_cbr1_bn -> L3_b3_cbr1_bn_top
I0818 15:07:03.307440 21584 net.cpp:150] Setting up L3_b3_cbr1_bn
I0818 15:07:03.307453 21584 net.cpp:157] Top shape: 125 64 8 8 (512000)
I0818 15:07:03.307458 21584 net.cpp:165] Memory required for data: 1300993500
I0818 15:07:03.307468 21584 layer_factory.hpp:77] Creating layer L3_b3_cbr1_scale
I0818 15:07:03.307477 21584 net.cpp:100] Creating Layer L3_b3_cbr1_scale
I0818 15:07:03.307484 21584 net.cpp:434] L3_b3_cbr1_scale <- L3_b3_cbr1_bn_top
I0818 15:07:03.307492 21584 net.cpp:395] L3_b3_cbr1_scale -> L3_b3_cbr1_bn_top (in-place)
I0818 15:07:03.307552 21584 layer_factory.hpp:77] Creating layer L3_b3_cbr1_scale
I0818 15:07:03.307713 21584 net.cpp:150] Setting up L3_b3_cbr1_scale
I0818 15:07:03.307736 21584 net.cpp:157] Top shape: 125 64 8 8 (512000)
I0818 15:07:03.307742 21584 net.cpp:165] Memory required for data: 1303041500
I0818 15:07:03.307751 21584 layer_factory.hpp:77] Creating layer L3_b3_cbr1_relu
I0818 15:07:03.307760 21584 net.cpp:100] Creating Layer L3_b3_cbr1_relu
I0818 15:07:03.307766 21584 net.cpp:434] L3_b3_cbr1_relu <- L3_b3_cbr1_bn_top
I0818 15:07:03.307773 21584 net.cpp:395] L3_b3_cbr1_relu -> L3_b3_cbr1_bn_top (in-place)
I0818 15:07:03.307783 21584 net.cpp:150] Setting up L3_b3_cbr1_relu
I0818 15:07:03.307790 21584 net.cpp:157] Top shape: 125 64 8 8 (512000)
I0818 15:07:03.307801 21584 net.cpp:165] Memory required for data: 1305089500
I0818 15:07:03.307807 21584 layer_factory.hpp:77] Creating layer L3_b3_cbr2_conv
I0818 15:07:03.307821 21584 net.cpp:100] Creating Layer L3_b3_cbr2_conv
I0818 15:07:03.307827 21584 net.cpp:434] L3_b3_cbr2_conv <- L3_b3_cbr1_bn_top
I0818 15:07:03.307837 21584 net.cpp:408] L3_b3_cbr2_conv -> L3_b3_cbr2_conv_top
I0818 15:07:03.308858 21584 net.cpp:150] Setting up L3_b3_cbr2_conv
I0818 15:07:03.308873 21584 net.cpp:157] Top shape: 125 64 8 8 (512000)
I0818 15:07:03.308878 21584 net.cpp:165] Memory required for data: 1307137500
I0818 15:07:03.308887 21584 layer_factory.hpp:77] Creating layer L3_b3_cbr2_bn
I0818 15:07:03.308903 21584 net.cpp:100] Creating Layer L3_b3_cbr2_bn
I0818 15:07:03.308910 21584 net.cpp:434] L3_b3_cbr2_bn <- L3_b3_cbr2_conv_top
I0818 15:07:03.308923 21584 net.cpp:408] L3_b3_cbr2_bn -> L3_b3_cbr2_bn_top
I0818 15:07:03.309185 21584 net.cpp:150] Setting up L3_b3_cbr2_bn
I0818 15:07:03.309198 21584 net.cpp:157] Top shape: 125 64 8 8 (512000)
I0818 15:07:03.309203 21584 net.cpp:165] Memory required for data: 1309185500
I0818 15:07:03.309214 21584 layer_factory.hpp:77] Creating layer L3_b3_cbr2_scale
I0818 15:07:03.309223 21584 net.cpp:100] Creating Layer L3_b3_cbr2_scale
I0818 15:07:03.309229 21584 net.cpp:434] L3_b3_cbr2_scale <- L3_b3_cbr2_bn_top
I0818 15:07:03.309242 21584 net.cpp:395] L3_b3_cbr2_scale -> L3_b3_cbr2_bn_top (in-place)
I0818 15:07:03.309299 21584 layer_factory.hpp:77] Creating layer L3_b3_cbr2_scale
I0818 15:07:03.309454 21584 net.cpp:150] Setting up L3_b3_cbr2_scale
I0818 15:07:03.309468 21584 net.cpp:157] Top shape: 125 64 8 8 (512000)
I0818 15:07:03.309473 21584 net.cpp:165] Memory required for data: 1311233500
I0818 15:07:03.309481 21584 layer_factory.hpp:77] Creating layer L3_b3_sum_eltwise
I0818 15:07:03.309495 21584 net.cpp:100] Creating Layer L3_b3_sum_eltwise
I0818 15:07:03.309502 21584 net.cpp:434] L3_b3_sum_eltwise <- L3_b3_cbr2_bn_top
I0818 15:07:03.309509 21584 net.cpp:434] L3_b3_sum_eltwise <- L3_b2_sum_eltwise_top_L3_b2_relu_0_split_1
I0818 15:07:03.309517 21584 net.cpp:408] L3_b3_sum_eltwise -> L3_b3_sum_eltwise_top
I0818 15:07:03.309554 21584 net.cpp:150] Setting up L3_b3_sum_eltwise
I0818 15:07:03.309566 21584 net.cpp:157] Top shape: 125 64 8 8 (512000)
I0818 15:07:03.309571 21584 net.cpp:165] Memory required for data: 1313281500
I0818 15:07:03.309576 21584 layer_factory.hpp:77] Creating layer L3_b3_relu
I0818 15:07:03.309584 21584 net.cpp:100] Creating Layer L3_b3_relu
I0818 15:07:03.309590 21584 net.cpp:434] L3_b3_relu <- L3_b3_sum_eltwise_top
I0818 15:07:03.309600 21584 net.cpp:395] L3_b3_relu -> L3_b3_sum_eltwise_top (in-place)
I0818 15:07:03.309610 21584 net.cpp:150] Setting up L3_b3_relu
I0818 15:07:03.309617 21584 net.cpp:157] Top shape: 125 64 8 8 (512000)
I0818 15:07:03.309623 21584 net.cpp:165] Memory required for data: 1315329500
I0818 15:07:03.309628 21584 layer_factory.hpp:77] Creating layer L3_b3_sum_eltwise_top_L3_b3_relu_0_split
I0818 15:07:03.309634 21584 net.cpp:100] Creating Layer L3_b3_sum_eltwise_top_L3_b3_relu_0_split
I0818 15:07:03.309639 21584 net.cpp:434] L3_b3_sum_eltwise_top_L3_b3_relu_0_split <- L3_b3_sum_eltwise_top
I0818 15:07:03.309648 21584 net.cpp:408] L3_b3_sum_eltwise_top_L3_b3_relu_0_split -> L3_b3_sum_eltwise_top_L3_b3_relu_0_split_0
I0818 15:07:03.309664 21584 net.cpp:408] L3_b3_sum_eltwise_top_L3_b3_relu_0_split -> L3_b3_sum_eltwise_top_L3_b3_relu_0_split_1
I0818 15:07:03.309713 21584 net.cpp:150] Setting up L3_b3_sum_eltwise_top_L3_b3_relu_0_split
I0818 15:07:03.309725 21584 net.cpp:157] Top shape: 125 64 8 8 (512000)
I0818 15:07:03.309731 21584 net.cpp:157] Top shape: 125 64 8 8 (512000)
I0818 15:07:03.309736 21584 net.cpp:165] Memory required for data: 1319425500
I0818 15:07:03.309741 21584 layer_factory.hpp:77] Creating layer L3_b4_cbr1_conv
I0818 15:07:03.309753 21584 net.cpp:100] Creating Layer L3_b4_cbr1_conv
I0818 15:07:03.309759 21584 net.cpp:434] L3_b4_cbr1_conv <- L3_b3_sum_eltwise_top_L3_b3_relu_0_split_0
I0818 15:07:03.309772 21584 net.cpp:408] L3_b4_cbr1_conv -> L3_b4_cbr1_conv_top
I0818 15:07:03.310798 21584 net.cpp:150] Setting up L3_b4_cbr1_conv
I0818 15:07:03.310814 21584 net.cpp:157] Top shape: 125 64 8 8 (512000)
I0818 15:07:03.310819 21584 net.cpp:165] Memory required for data: 1321473500
I0818 15:07:03.310828 21584 layer_factory.hpp:77] Creating layer L3_b4_cbr1_bn
I0818 15:07:03.310840 21584 net.cpp:100] Creating Layer L3_b4_cbr1_bn
I0818 15:07:03.310847 21584 net.cpp:434] L3_b4_cbr1_bn <- L3_b4_cbr1_conv_top
I0818 15:07:03.310856 21584 net.cpp:408] L3_b4_cbr1_bn -> L3_b4_cbr1_bn_top
I0818 15:07:03.311131 21584 net.cpp:150] Setting up L3_b4_cbr1_bn
I0818 15:07:03.311144 21584 net.cpp:157] Top shape: 125 64 8 8 (512000)
I0818 15:07:03.311149 21584 net.cpp:165] Memory required for data: 1323521500
I0818 15:07:03.311161 21584 layer_factory.hpp:77] Creating layer L3_b4_cbr1_scale
I0818 15:07:03.311169 21584 net.cpp:100] Creating Layer L3_b4_cbr1_scale
I0818 15:07:03.311175 21584 net.cpp:434] L3_b4_cbr1_scale <- L3_b4_cbr1_bn_top
I0818 15:07:03.311183 21584 net.cpp:395] L3_b4_cbr1_scale -> L3_b4_cbr1_bn_top (in-place)
I0818 15:07:03.311245 21584 layer_factory.hpp:77] Creating layer L3_b4_cbr1_scale
I0818 15:07:03.311401 21584 net.cpp:150] Setting up L3_b4_cbr1_scale
I0818 15:07:03.311417 21584 net.cpp:157] Top shape: 125 64 8 8 (512000)
I0818 15:07:03.311422 21584 net.cpp:165] Memory required for data: 1325569500
I0818 15:07:03.311431 21584 layer_factory.hpp:77] Creating layer L3_b4_cbr1_relu
I0818 15:07:03.311440 21584 net.cpp:100] Creating Layer L3_b4_cbr1_relu
I0818 15:07:03.311446 21584 net.cpp:434] L3_b4_cbr1_relu <- L3_b4_cbr1_bn_top
I0818 15:07:03.311453 21584 net.cpp:395] L3_b4_cbr1_relu -> L3_b4_cbr1_bn_top (in-place)
I0818 15:07:03.311465 21584 net.cpp:150] Setting up L3_b4_cbr1_relu
I0818 15:07:03.311471 21584 net.cpp:157] Top shape: 125 64 8 8 (512000)
I0818 15:07:03.311475 21584 net.cpp:165] Memory required for data: 1327617500
I0818 15:07:03.311480 21584 layer_factory.hpp:77] Creating layer L3_b4_cbr2_conv
I0818 15:07:03.311496 21584 net.cpp:100] Creating Layer L3_b4_cbr2_conv
I0818 15:07:03.311501 21584 net.cpp:434] L3_b4_cbr2_conv <- L3_b4_cbr1_bn_top
I0818 15:07:03.311511 21584 net.cpp:408] L3_b4_cbr2_conv -> L3_b4_cbr2_conv_top
I0818 15:07:03.312544 21584 net.cpp:150] Setting up L3_b4_cbr2_conv
I0818 15:07:03.312559 21584 net.cpp:157] Top shape: 125 64 8 8 (512000)
I0818 15:07:03.312564 21584 net.cpp:165] Memory required for data: 1329665500
I0818 15:07:03.312573 21584 layer_factory.hpp:77] Creating layer L3_b4_cbr2_bn
I0818 15:07:03.312583 21584 net.cpp:100] Creating Layer L3_b4_cbr2_bn
I0818 15:07:03.312593 21584 net.cpp:434] L3_b4_cbr2_bn <- L3_b4_cbr2_conv_top
I0818 15:07:03.312602 21584 net.cpp:408] L3_b4_cbr2_bn -> L3_b4_cbr2_bn_top
I0818 15:07:03.312876 21584 net.cpp:150] Setting up L3_b4_cbr2_bn
I0818 15:07:03.312891 21584 net.cpp:157] Top shape: 125 64 8 8 (512000)
I0818 15:07:03.312896 21584 net.cpp:165] Memory required for data: 1331713500
I0818 15:07:03.312906 21584 layer_factory.hpp:77] Creating layer L3_b4_cbr2_scale
I0818 15:07:03.312916 21584 net.cpp:100] Creating Layer L3_b4_cbr2_scale
I0818 15:07:03.312922 21584 net.cpp:434] L3_b4_cbr2_scale <- L3_b4_cbr2_bn_top
I0818 15:07:03.312933 21584 net.cpp:395] L3_b4_cbr2_scale -> L3_b4_cbr2_bn_top (in-place)
I0818 15:07:03.312993 21584 layer_factory.hpp:77] Creating layer L3_b4_cbr2_scale
I0818 15:07:03.313154 21584 net.cpp:150] Setting up L3_b4_cbr2_scale
I0818 15:07:03.313168 21584 net.cpp:157] Top shape: 125 64 8 8 (512000)
I0818 15:07:03.313172 21584 net.cpp:165] Memory required for data: 1333761500
I0818 15:07:03.313181 21584 layer_factory.hpp:77] Creating layer L3_b4_sum_eltwise
I0818 15:07:03.313194 21584 net.cpp:100] Creating Layer L3_b4_sum_eltwise
I0818 15:07:03.313201 21584 net.cpp:434] L3_b4_sum_eltwise <- L3_b4_cbr2_bn_top
I0818 15:07:03.313208 21584 net.cpp:434] L3_b4_sum_eltwise <- L3_b3_sum_eltwise_top_L3_b3_relu_0_split_1
I0818 15:07:03.313216 21584 net.cpp:408] L3_b4_sum_eltwise -> L3_b4_sum_eltwise_top
I0818 15:07:03.313257 21584 net.cpp:150] Setting up L3_b4_sum_eltwise
I0818 15:07:03.313273 21584 net.cpp:157] Top shape: 125 64 8 8 (512000)
I0818 15:07:03.313278 21584 net.cpp:165] Memory required for data: 1335809500
I0818 15:07:03.313283 21584 layer_factory.hpp:77] Creating layer L3_b4_relu
I0818 15:07:03.313292 21584 net.cpp:100] Creating Layer L3_b4_relu
I0818 15:07:03.313298 21584 net.cpp:434] L3_b4_relu <- L3_b4_sum_eltwise_top
I0818 15:07:03.313308 21584 net.cpp:395] L3_b4_relu -> L3_b4_sum_eltwise_top (in-place)
I0818 15:07:03.313318 21584 net.cpp:150] Setting up L3_b4_relu
I0818 15:07:03.313325 21584 net.cpp:157] Top shape: 125 64 8 8 (512000)
I0818 15:07:03.313330 21584 net.cpp:165] Memory required for data: 1337857500
I0818 15:07:03.313335 21584 layer_factory.hpp:77] Creating layer L3_b4_sum_eltwise_top_L3_b4_relu_0_split
I0818 15:07:03.313343 21584 net.cpp:100] Creating Layer L3_b4_sum_eltwise_top_L3_b4_relu_0_split
I0818 15:07:03.313347 21584 net.cpp:434] L3_b4_sum_eltwise_top_L3_b4_relu_0_split <- L3_b4_sum_eltwise_top
I0818 15:07:03.313355 21584 net.cpp:408] L3_b4_sum_eltwise_top_L3_b4_relu_0_split -> L3_b4_sum_eltwise_top_L3_b4_relu_0_split_0
I0818 15:07:03.313365 21584 net.cpp:408] L3_b4_sum_eltwise_top_L3_b4_relu_0_split -> L3_b4_sum_eltwise_top_L3_b4_relu_0_split_1
I0818 15:07:03.313415 21584 net.cpp:150] Setting up L3_b4_sum_eltwise_top_L3_b4_relu_0_split
I0818 15:07:03.313426 21584 net.cpp:157] Top shape: 125 64 8 8 (512000)
I0818 15:07:03.313432 21584 net.cpp:157] Top shape: 125 64 8 8 (512000)
I0818 15:07:03.313437 21584 net.cpp:165] Memory required for data: 1341953500
I0818 15:07:03.313442 21584 layer_factory.hpp:77] Creating layer L3_b5_cbr1_conv
I0818 15:07:03.313454 21584 net.cpp:100] Creating Layer L3_b5_cbr1_conv
I0818 15:07:03.313460 21584 net.cpp:434] L3_b5_cbr1_conv <- L3_b4_sum_eltwise_top_L3_b4_relu_0_split_0
I0818 15:07:03.313472 21584 net.cpp:408] L3_b5_cbr1_conv -> L3_b5_cbr1_conv_top
I0818 15:07:03.314504 21584 net.cpp:150] Setting up L3_b5_cbr1_conv
I0818 15:07:03.314519 21584 net.cpp:157] Top shape: 125 64 8 8 (512000)
I0818 15:07:03.314524 21584 net.cpp:165] Memory required for data: 1344001500
I0818 15:07:03.314533 21584 layer_factory.hpp:77] Creating layer L3_b5_cbr1_bn
I0818 15:07:03.314546 21584 net.cpp:100] Creating Layer L3_b5_cbr1_bn
I0818 15:07:03.314553 21584 net.cpp:434] L3_b5_cbr1_bn <- L3_b5_cbr1_conv_top
I0818 15:07:03.314561 21584 net.cpp:408] L3_b5_cbr1_bn -> L3_b5_cbr1_bn_top
I0818 15:07:03.315846 21584 net.cpp:150] Setting up L3_b5_cbr1_bn
I0818 15:07:03.315863 21584 net.cpp:157] Top shape: 125 64 8 8 (512000)
I0818 15:07:03.315870 21584 net.cpp:165] Memory required for data: 1346049500
I0818 15:07:03.315881 21584 layer_factory.hpp:77] Creating layer L3_b5_cbr1_scale
I0818 15:07:03.315891 21584 net.cpp:100] Creating Layer L3_b5_cbr1_scale
I0818 15:07:03.315897 21584 net.cpp:434] L3_b5_cbr1_scale <- L3_b5_cbr1_bn_top
I0818 15:07:03.315908 21584 net.cpp:395] L3_b5_cbr1_scale -> L3_b5_cbr1_bn_top (in-place)
I0818 15:07:03.315971 21584 layer_factory.hpp:77] Creating layer L3_b5_cbr1_scale
I0818 15:07:03.316135 21584 net.cpp:150] Setting up L3_b5_cbr1_scale
I0818 15:07:03.316148 21584 net.cpp:157] Top shape: 125 64 8 8 (512000)
I0818 15:07:03.316154 21584 net.cpp:165] Memory required for data: 1348097500
I0818 15:07:03.316164 21584 layer_factory.hpp:77] Creating layer L3_b5_cbr1_relu
I0818 15:07:03.316176 21584 net.cpp:100] Creating Layer L3_b5_cbr1_relu
I0818 15:07:03.316182 21584 net.cpp:434] L3_b5_cbr1_relu <- L3_b5_cbr1_bn_top
I0818 15:07:03.316190 21584 net.cpp:395] L3_b5_cbr1_relu -> L3_b5_cbr1_bn_top (in-place)
I0818 15:07:03.316200 21584 net.cpp:150] Setting up L3_b5_cbr1_relu
I0818 15:07:03.316207 21584 net.cpp:157] Top shape: 125 64 8 8 (512000)
I0818 15:07:03.316212 21584 net.cpp:165] Memory required for data: 1350145500
I0818 15:07:03.316216 21584 layer_factory.hpp:77] Creating layer L3_b5_cbr2_conv
I0818 15:07:03.316231 21584 net.cpp:100] Creating Layer L3_b5_cbr2_conv
I0818 15:07:03.316237 21584 net.cpp:434] L3_b5_cbr2_conv <- L3_b5_cbr1_bn_top
I0818 15:07:03.316256 21584 net.cpp:408] L3_b5_cbr2_conv -> L3_b5_cbr2_conv_top
I0818 15:07:03.318291 21584 net.cpp:150] Setting up L3_b5_cbr2_conv
I0818 15:07:03.318308 21584 net.cpp:157] Top shape: 125 64 8 8 (512000)
I0818 15:07:03.318315 21584 net.cpp:165] Memory required for data: 1352193500
I0818 15:07:03.318323 21584 layer_factory.hpp:77] Creating layer L3_b5_cbr2_bn
I0818 15:07:03.318336 21584 net.cpp:100] Creating Layer L3_b5_cbr2_bn
I0818 15:07:03.318343 21584 net.cpp:434] L3_b5_cbr2_bn <- L3_b5_cbr2_conv_top
I0818 15:07:03.318356 21584 net.cpp:408] L3_b5_cbr2_bn -> L3_b5_cbr2_bn_top
I0818 15:07:03.318619 21584 net.cpp:150] Setting up L3_b5_cbr2_bn
I0818 15:07:03.318631 21584 net.cpp:157] Top shape: 125 64 8 8 (512000)
I0818 15:07:03.318637 21584 net.cpp:165] Memory required for data: 1354241500
I0818 15:07:03.318647 21584 layer_factory.hpp:77] Creating layer L3_b5_cbr2_scale
I0818 15:07:03.318663 21584 net.cpp:100] Creating Layer L3_b5_cbr2_scale
I0818 15:07:03.318670 21584 net.cpp:434] L3_b5_cbr2_scale <- L3_b5_cbr2_bn_top
I0818 15:07:03.318681 21584 net.cpp:395] L3_b5_cbr2_scale -> L3_b5_cbr2_bn_top (in-place)
I0818 15:07:03.318742 21584 layer_factory.hpp:77] Creating layer L3_b5_cbr2_scale
I0818 15:07:03.318903 21584 net.cpp:150] Setting up L3_b5_cbr2_scale
I0818 15:07:03.318917 21584 net.cpp:157] Top shape: 125 64 8 8 (512000)
I0818 15:07:03.318922 21584 net.cpp:165] Memory required for data: 1356289500
I0818 15:07:03.318933 21584 layer_factory.hpp:77] Creating layer L3_b5_sum_eltwise
I0818 15:07:03.318944 21584 net.cpp:100] Creating Layer L3_b5_sum_eltwise
I0818 15:07:03.318953 21584 net.cpp:434] L3_b5_sum_eltwise <- L3_b5_cbr2_bn_top
I0818 15:07:03.318959 21584 net.cpp:434] L3_b5_sum_eltwise <- L3_b4_sum_eltwise_top_L3_b4_relu_0_split_1
I0818 15:07:03.318967 21584 net.cpp:408] L3_b5_sum_eltwise -> L3_b5_sum_eltwise_top
I0818 15:07:03.319005 21584 net.cpp:150] Setting up L3_b5_sum_eltwise
I0818 15:07:03.319015 21584 net.cpp:157] Top shape: 125 64 8 8 (512000)
I0818 15:07:03.319020 21584 net.cpp:165] Memory required for data: 1358337500
I0818 15:07:03.319026 21584 layer_factory.hpp:77] Creating layer L3_b5_relu
I0818 15:07:03.319034 21584 net.cpp:100] Creating Layer L3_b5_relu
I0818 15:07:03.319041 21584 net.cpp:434] L3_b5_relu <- L3_b5_sum_eltwise_top
I0818 15:07:03.319051 21584 net.cpp:395] L3_b5_relu -> L3_b5_sum_eltwise_top (in-place)
I0818 15:07:03.319061 21584 net.cpp:150] Setting up L3_b5_relu
I0818 15:07:03.319068 21584 net.cpp:157] Top shape: 125 64 8 8 (512000)
I0818 15:07:03.319073 21584 net.cpp:165] Memory required for data: 1360385500
I0818 15:07:03.319077 21584 layer_factory.hpp:77] Creating layer L3_b5_sum_eltwise_top_L3_b5_relu_0_split
I0818 15:07:03.319085 21584 net.cpp:100] Creating Layer L3_b5_sum_eltwise_top_L3_b5_relu_0_split
I0818 15:07:03.319090 21584 net.cpp:434] L3_b5_sum_eltwise_top_L3_b5_relu_0_split <- L3_b5_sum_eltwise_top
I0818 15:07:03.319098 21584 net.cpp:408] L3_b5_sum_eltwise_top_L3_b5_relu_0_split -> L3_b5_sum_eltwise_top_L3_b5_relu_0_split_0
I0818 15:07:03.319108 21584 net.cpp:408] L3_b5_sum_eltwise_top_L3_b5_relu_0_split -> L3_b5_sum_eltwise_top_L3_b5_relu_0_split_1
I0818 15:07:03.319156 21584 net.cpp:150] Setting up L3_b5_sum_eltwise_top_L3_b5_relu_0_split
I0818 15:07:03.319167 21584 net.cpp:157] Top shape: 125 64 8 8 (512000)
I0818 15:07:03.319175 21584 net.cpp:157] Top shape: 125 64 8 8 (512000)
I0818 15:07:03.319180 21584 net.cpp:165] Memory required for data: 1364481500
I0818 15:07:03.319185 21584 layer_factory.hpp:77] Creating layer L3_b6_cbr1_conv
I0818 15:07:03.319196 21584 net.cpp:100] Creating Layer L3_b6_cbr1_conv
I0818 15:07:03.319202 21584 net.cpp:434] L3_b6_cbr1_conv <- L3_b5_sum_eltwise_top_L3_b5_relu_0_split_0
I0818 15:07:03.319216 21584 net.cpp:408] L3_b6_cbr1_conv -> L3_b6_cbr1_conv_top
I0818 15:07:03.320261 21584 net.cpp:150] Setting up L3_b6_cbr1_conv
I0818 15:07:03.320276 21584 net.cpp:157] Top shape: 125 64 8 8 (512000)
I0818 15:07:03.320281 21584 net.cpp:165] Memory required for data: 1366529500
I0818 15:07:03.320291 21584 layer_factory.hpp:77] Creating layer L3_b6_cbr1_bn
I0818 15:07:03.320303 21584 net.cpp:100] Creating Layer L3_b6_cbr1_bn
I0818 15:07:03.320318 21584 net.cpp:434] L3_b6_cbr1_bn <- L3_b6_cbr1_conv_top
I0818 15:07:03.320327 21584 net.cpp:408] L3_b6_cbr1_bn -> L3_b6_cbr1_bn_top
I0818 15:07:03.320590 21584 net.cpp:150] Setting up L3_b6_cbr1_bn
I0818 15:07:03.320602 21584 net.cpp:157] Top shape: 125 64 8 8 (512000)
I0818 15:07:03.320608 21584 net.cpp:165] Memory required for data: 1368577500
I0818 15:07:03.320618 21584 layer_factory.hpp:77] Creating layer L3_b6_cbr1_scale
I0818 15:07:03.320627 21584 net.cpp:100] Creating Layer L3_b6_cbr1_scale
I0818 15:07:03.320634 21584 net.cpp:434] L3_b6_cbr1_scale <- L3_b6_cbr1_bn_top
I0818 15:07:03.320642 21584 net.cpp:395] L3_b6_cbr1_scale -> L3_b6_cbr1_bn_top (in-place)
I0818 15:07:03.320710 21584 layer_factory.hpp:77] Creating layer L3_b6_cbr1_scale
I0818 15:07:03.320865 21584 net.cpp:150] Setting up L3_b6_cbr1_scale
I0818 15:07:03.320881 21584 net.cpp:157] Top shape: 125 64 8 8 (512000)
I0818 15:07:03.320886 21584 net.cpp:165] Memory required for data: 1370625500
I0818 15:07:03.320895 21584 layer_factory.hpp:77] Creating layer L3_b6_cbr1_relu
I0818 15:07:03.320904 21584 net.cpp:100] Creating Layer L3_b6_cbr1_relu
I0818 15:07:03.320910 21584 net.cpp:434] L3_b6_cbr1_relu <- L3_b6_cbr1_bn_top
I0818 15:07:03.320919 21584 net.cpp:395] L3_b6_cbr1_relu -> L3_b6_cbr1_bn_top (in-place)
I0818 15:07:03.320929 21584 net.cpp:150] Setting up L3_b6_cbr1_relu
I0818 15:07:03.320935 21584 net.cpp:157] Top shape: 125 64 8 8 (512000)
I0818 15:07:03.320940 21584 net.cpp:165] Memory required for data: 1372673500
I0818 15:07:03.320945 21584 layer_factory.hpp:77] Creating layer L3_b6_cbr2_conv
I0818 15:07:03.320960 21584 net.cpp:100] Creating Layer L3_b6_cbr2_conv
I0818 15:07:03.320967 21584 net.cpp:434] L3_b6_cbr2_conv <- L3_b6_cbr1_bn_top
I0818 15:07:03.320978 21584 net.cpp:408] L3_b6_cbr2_conv -> L3_b6_cbr2_conv_top
I0818 15:07:03.322001 21584 net.cpp:150] Setting up L3_b6_cbr2_conv
I0818 15:07:03.322016 21584 net.cpp:157] Top shape: 125 64 8 8 (512000)
I0818 15:07:03.322021 21584 net.cpp:165] Memory required for data: 1374721500
I0818 15:07:03.322031 21584 layer_factory.hpp:77] Creating layer L3_b6_cbr2_bn
I0818 15:07:03.322051 21584 net.cpp:100] Creating Layer L3_b6_cbr2_bn
I0818 15:07:03.322057 21584 net.cpp:434] L3_b6_cbr2_bn <- L3_b6_cbr2_conv_top
I0818 15:07:03.322065 21584 net.cpp:408] L3_b6_cbr2_bn -> L3_b6_cbr2_bn_top
I0818 15:07:03.322326 21584 net.cpp:150] Setting up L3_b6_cbr2_bn
I0818 15:07:03.322340 21584 net.cpp:157] Top shape: 125 64 8 8 (512000)
I0818 15:07:03.322345 21584 net.cpp:165] Memory required for data: 1376769500
I0818 15:07:03.322355 21584 layer_factory.hpp:77] Creating layer L3_b6_cbr2_scale
I0818 15:07:03.322368 21584 net.cpp:100] Creating Layer L3_b6_cbr2_scale
I0818 15:07:03.322376 21584 net.cpp:434] L3_b6_cbr2_scale <- L3_b6_cbr2_bn_top
I0818 15:07:03.322383 21584 net.cpp:395] L3_b6_cbr2_scale -> L3_b6_cbr2_bn_top (in-place)
I0818 15:07:03.322441 21584 layer_factory.hpp:77] Creating layer L3_b6_cbr2_scale
I0818 15:07:03.322597 21584 net.cpp:150] Setting up L3_b6_cbr2_scale
I0818 15:07:03.322610 21584 net.cpp:157] Top shape: 125 64 8 8 (512000)
I0818 15:07:03.322615 21584 net.cpp:165] Memory required for data: 1378817500
I0818 15:07:03.322624 21584 layer_factory.hpp:77] Creating layer L3_b6_sum_eltwise
I0818 15:07:03.322638 21584 net.cpp:100] Creating Layer L3_b6_sum_eltwise
I0818 15:07:03.322644 21584 net.cpp:434] L3_b6_sum_eltwise <- L3_b6_cbr2_bn_top
I0818 15:07:03.322657 21584 net.cpp:434] L3_b6_sum_eltwise <- L3_b5_sum_eltwise_top_L3_b5_relu_0_split_1
I0818 15:07:03.322667 21584 net.cpp:408] L3_b6_sum_eltwise -> L3_b6_sum_eltwise_top
I0818 15:07:03.322705 21584 net.cpp:150] Setting up L3_b6_sum_eltwise
I0818 15:07:03.322716 21584 net.cpp:157] Top shape: 125 64 8 8 (512000)
I0818 15:07:03.322721 21584 net.cpp:165] Memory required for data: 1380865500
I0818 15:07:03.322726 21584 layer_factory.hpp:77] Creating layer L3_b6_relu
I0818 15:07:03.322734 21584 net.cpp:100] Creating Layer L3_b6_relu
I0818 15:07:03.322741 21584 net.cpp:434] L3_b6_relu <- L3_b6_sum_eltwise_top
I0818 15:07:03.322758 21584 net.cpp:395] L3_b6_relu -> L3_b6_sum_eltwise_top (in-place)
I0818 15:07:03.322769 21584 net.cpp:150] Setting up L3_b6_relu
I0818 15:07:03.322777 21584 net.cpp:157] Top shape: 125 64 8 8 (512000)
I0818 15:07:03.322782 21584 net.cpp:165] Memory required for data: 1382913500
I0818 15:07:03.322787 21584 layer_factory.hpp:77] Creating layer L3_b6_sum_eltwise_top_L3_b6_relu_0_split
I0818 15:07:03.322793 21584 net.cpp:100] Creating Layer L3_b6_sum_eltwise_top_L3_b6_relu_0_split
I0818 15:07:03.322798 21584 net.cpp:434] L3_b6_sum_eltwise_top_L3_b6_relu_0_split <- L3_b6_sum_eltwise_top
I0818 15:07:03.322806 21584 net.cpp:408] L3_b6_sum_eltwise_top_L3_b6_relu_0_split -> L3_b6_sum_eltwise_top_L3_b6_relu_0_split_0
I0818 15:07:03.322816 21584 net.cpp:408] L3_b6_sum_eltwise_top_L3_b6_relu_0_split -> L3_b6_sum_eltwise_top_L3_b6_relu_0_split_1
I0818 15:07:03.322865 21584 net.cpp:150] Setting up L3_b6_sum_eltwise_top_L3_b6_relu_0_split
I0818 15:07:03.322876 21584 net.cpp:157] Top shape: 125 64 8 8 (512000)
I0818 15:07:03.322883 21584 net.cpp:157] Top shape: 125 64 8 8 (512000)
I0818 15:07:03.322888 21584 net.cpp:165] Memory required for data: 1387009500
I0818 15:07:03.322893 21584 layer_factory.hpp:77] Creating layer L3_b7_cbr1_conv
I0818 15:07:03.322906 21584 net.cpp:100] Creating Layer L3_b7_cbr1_conv
I0818 15:07:03.322911 21584 net.cpp:434] L3_b7_cbr1_conv <- L3_b6_sum_eltwise_top_L3_b6_relu_0_split_0
I0818 15:07:03.322923 21584 net.cpp:408] L3_b7_cbr1_conv -> L3_b7_cbr1_conv_top
I0818 15:07:03.323942 21584 net.cpp:150] Setting up L3_b7_cbr1_conv
I0818 15:07:03.323958 21584 net.cpp:157] Top shape: 125 64 8 8 (512000)
I0818 15:07:03.323963 21584 net.cpp:165] Memory required for data: 1389057500
I0818 15:07:03.323972 21584 layer_factory.hpp:77] Creating layer L3_b7_cbr1_bn
I0818 15:07:03.323984 21584 net.cpp:100] Creating Layer L3_b7_cbr1_bn
I0818 15:07:03.323992 21584 net.cpp:434] L3_b7_cbr1_bn <- L3_b7_cbr1_conv_top
I0818 15:07:03.324000 21584 net.cpp:408] L3_b7_cbr1_bn -> L3_b7_cbr1_bn_top
I0818 15:07:03.324270 21584 net.cpp:150] Setting up L3_b7_cbr1_bn
I0818 15:07:03.324282 21584 net.cpp:157] Top shape: 125 64 8 8 (512000)
I0818 15:07:03.324287 21584 net.cpp:165] Memory required for data: 1391105500
I0818 15:07:03.324298 21584 layer_factory.hpp:77] Creating layer L3_b7_cbr1_scale
I0818 15:07:03.324307 21584 net.cpp:100] Creating Layer L3_b7_cbr1_scale
I0818 15:07:03.324313 21584 net.cpp:434] L3_b7_cbr1_scale <- L3_b7_cbr1_bn_top
I0818 15:07:03.324321 21584 net.cpp:395] L3_b7_cbr1_scale -> L3_b7_cbr1_bn_top (in-place)
I0818 15:07:03.324383 21584 layer_factory.hpp:77] Creating layer L3_b7_cbr1_scale
I0818 15:07:03.324590 21584 net.cpp:150] Setting up L3_b7_cbr1_scale
I0818 15:07:03.324612 21584 net.cpp:157] Top shape: 125 64 8 8 (512000)
I0818 15:07:03.324621 21584 net.cpp:165] Memory required for data: 1393153500
I0818 15:07:03.324638 21584 layer_factory.hpp:77] Creating layer L3_b7_cbr1_relu
I0818 15:07:03.324689 21584 net.cpp:100] Creating Layer L3_b7_cbr1_relu
I0818 15:07:03.324702 21584 net.cpp:434] L3_b7_cbr1_relu <- L3_b7_cbr1_bn_top
I0818 15:07:03.324712 21584 net.cpp:395] L3_b7_cbr1_relu -> L3_b7_cbr1_bn_top (in-place)
I0818 15:07:03.324723 21584 net.cpp:150] Setting up L3_b7_cbr1_relu
I0818 15:07:03.324731 21584 net.cpp:157] Top shape: 125 64 8 8 (512000)
I0818 15:07:03.324736 21584 net.cpp:165] Memory required for data: 1395201500
I0818 15:07:03.324741 21584 layer_factory.hpp:77] Creating layer L3_b7_cbr2_conv
I0818 15:07:03.324756 21584 net.cpp:100] Creating Layer L3_b7_cbr2_conv
I0818 15:07:03.324764 21584 net.cpp:434] L3_b7_cbr2_conv <- L3_b7_cbr1_bn_top
I0818 15:07:03.324772 21584 net.cpp:408] L3_b7_cbr2_conv -> L3_b7_cbr2_conv_top
I0818 15:07:03.325799 21584 net.cpp:150] Setting up L3_b7_cbr2_conv
I0818 15:07:03.325814 21584 net.cpp:157] Top shape: 125 64 8 8 (512000)
I0818 15:07:03.325819 21584 net.cpp:165] Memory required for data: 1397249500
I0818 15:07:03.325829 21584 layer_factory.hpp:77] Creating layer L3_b7_cbr2_bn
I0818 15:07:03.325839 21584 net.cpp:100] Creating Layer L3_b7_cbr2_bn
I0818 15:07:03.325852 21584 net.cpp:434] L3_b7_cbr2_bn <- L3_b7_cbr2_conv_top
I0818 15:07:03.325865 21584 net.cpp:408] L3_b7_cbr2_bn -> L3_b7_cbr2_bn_top
I0818 15:07:03.326131 21584 net.cpp:150] Setting up L3_b7_cbr2_bn
I0818 15:07:03.326144 21584 net.cpp:157] Top shape: 125 64 8 8 (512000)
I0818 15:07:03.326149 21584 net.cpp:165] Memory required for data: 1399297500
I0818 15:07:03.326159 21584 layer_factory.hpp:77] Creating layer L3_b7_cbr2_scale
I0818 15:07:03.326169 21584 net.cpp:100] Creating Layer L3_b7_cbr2_scale
I0818 15:07:03.326175 21584 net.cpp:434] L3_b7_cbr2_scale <- L3_b7_cbr2_bn_top
I0818 15:07:03.326184 21584 net.cpp:395] L3_b7_cbr2_scale -> L3_b7_cbr2_bn_top (in-place)
I0818 15:07:03.326244 21584 layer_factory.hpp:77] Creating layer L3_b7_cbr2_scale
I0818 15:07:03.326402 21584 net.cpp:150] Setting up L3_b7_cbr2_scale
I0818 15:07:03.326418 21584 net.cpp:157] Top shape: 125 64 8 8 (512000)
I0818 15:07:03.326423 21584 net.cpp:165] Memory required for data: 1401345500
I0818 15:07:03.326432 21584 layer_factory.hpp:77] Creating layer L3_b7_sum_eltwise
I0818 15:07:03.326442 21584 net.cpp:100] Creating Layer L3_b7_sum_eltwise
I0818 15:07:03.326448 21584 net.cpp:434] L3_b7_sum_eltwise <- L3_b7_cbr2_bn_top
I0818 15:07:03.326455 21584 net.cpp:434] L3_b7_sum_eltwise <- L3_b6_sum_eltwise_top_L3_b6_relu_0_split_1
I0818 15:07:03.326463 21584 net.cpp:408] L3_b7_sum_eltwise -> L3_b7_sum_eltwise_top
I0818 15:07:03.326500 21584 net.cpp:150] Setting up L3_b7_sum_eltwise
I0818 15:07:03.326512 21584 net.cpp:157] Top shape: 125 64 8 8 (512000)
I0818 15:07:03.326517 21584 net.cpp:165] Memory required for data: 1403393500
I0818 15:07:03.326522 21584 layer_factory.hpp:77] Creating layer L3_b7_relu
I0818 15:07:03.326530 21584 net.cpp:100] Creating Layer L3_b7_relu
I0818 15:07:03.326536 21584 net.cpp:434] L3_b7_relu <- L3_b7_sum_eltwise_top
I0818 15:07:03.326544 21584 net.cpp:395] L3_b7_relu -> L3_b7_sum_eltwise_top (in-place)
I0818 15:07:03.326553 21584 net.cpp:150] Setting up L3_b7_relu
I0818 15:07:03.326560 21584 net.cpp:157] Top shape: 125 64 8 8 (512000)
I0818 15:07:03.326565 21584 net.cpp:165] Memory required for data: 1405441500
I0818 15:07:03.326570 21584 layer_factory.hpp:77] Creating layer L3_b7_sum_eltwise_top_L3_b7_relu_0_split
I0818 15:07:03.326581 21584 net.cpp:100] Creating Layer L3_b7_sum_eltwise_top_L3_b7_relu_0_split
I0818 15:07:03.326587 21584 net.cpp:434] L3_b7_sum_eltwise_top_L3_b7_relu_0_split <- L3_b7_sum_eltwise_top
I0818 15:07:03.326594 21584 net.cpp:408] L3_b7_sum_eltwise_top_L3_b7_relu_0_split -> L3_b7_sum_eltwise_top_L3_b7_relu_0_split_0
I0818 15:07:03.326604 21584 net.cpp:408] L3_b7_sum_eltwise_top_L3_b7_relu_0_split -> L3_b7_sum_eltwise_top_L3_b7_relu_0_split_1
I0818 15:07:03.326655 21584 net.cpp:150] Setting up L3_b7_sum_eltwise_top_L3_b7_relu_0_split
I0818 15:07:03.326671 21584 net.cpp:157] Top shape: 125 64 8 8 (512000)
I0818 15:07:03.326679 21584 net.cpp:157] Top shape: 125 64 8 8 (512000)
I0818 15:07:03.326683 21584 net.cpp:165] Memory required for data: 1409537500
I0818 15:07:03.326689 21584 layer_factory.hpp:77] Creating layer L3_b8_cbr1_conv
I0818 15:07:03.326700 21584 net.cpp:100] Creating Layer L3_b8_cbr1_conv
I0818 15:07:03.326707 21584 net.cpp:434] L3_b8_cbr1_conv <- L3_b7_sum_eltwise_top_L3_b7_relu_0_split_0
I0818 15:07:03.326716 21584 net.cpp:408] L3_b8_cbr1_conv -> L3_b8_cbr1_conv_top
I0818 15:07:03.327741 21584 net.cpp:150] Setting up L3_b8_cbr1_conv
I0818 15:07:03.327756 21584 net.cpp:157] Top shape: 125 64 8 8 (512000)
I0818 15:07:03.327761 21584 net.cpp:165] Memory required for data: 1411585500
I0818 15:07:03.327771 21584 layer_factory.hpp:77] Creating layer L3_b8_cbr1_bn
I0818 15:07:03.327783 21584 net.cpp:100] Creating Layer L3_b8_cbr1_bn
I0818 15:07:03.327790 21584 net.cpp:434] L3_b8_cbr1_bn <- L3_b8_cbr1_conv_top
I0818 15:07:03.327800 21584 net.cpp:408] L3_b8_cbr1_bn -> L3_b8_cbr1_bn_top
I0818 15:07:03.328064 21584 net.cpp:150] Setting up L3_b8_cbr1_bn
I0818 15:07:03.328078 21584 net.cpp:157] Top shape: 125 64 8 8 (512000)
I0818 15:07:03.328083 21584 net.cpp:165] Memory required for data: 1413633500
I0818 15:07:03.328099 21584 layer_factory.hpp:77] Creating layer L3_b8_cbr1_scale
I0818 15:07:03.328114 21584 net.cpp:100] Creating Layer L3_b8_cbr1_scale
I0818 15:07:03.328120 21584 net.cpp:434] L3_b8_cbr1_scale <- L3_b8_cbr1_bn_top
I0818 15:07:03.328130 21584 net.cpp:395] L3_b8_cbr1_scale -> L3_b8_cbr1_bn_top (in-place)
I0818 15:07:03.328189 21584 layer_factory.hpp:77] Creating layer L3_b8_cbr1_scale
I0818 15:07:03.328351 21584 net.cpp:150] Setting up L3_b8_cbr1_scale
I0818 15:07:03.328364 21584 net.cpp:157] Top shape: 125 64 8 8 (512000)
I0818 15:07:03.328369 21584 net.cpp:165] Memory required for data: 1415681500
I0818 15:07:03.328378 21584 layer_factory.hpp:77] Creating layer L3_b8_cbr1_relu
I0818 15:07:03.328387 21584 net.cpp:100] Creating Layer L3_b8_cbr1_relu
I0818 15:07:03.328392 21584 net.cpp:434] L3_b8_cbr1_relu <- L3_b8_cbr1_bn_top
I0818 15:07:03.328403 21584 net.cpp:395] L3_b8_cbr1_relu -> L3_b8_cbr1_bn_top (in-place)
I0818 15:07:03.328414 21584 net.cpp:150] Setting up L3_b8_cbr1_relu
I0818 15:07:03.328421 21584 net.cpp:157] Top shape: 125 64 8 8 (512000)
I0818 15:07:03.328426 21584 net.cpp:165] Memory required for data: 1417729500
I0818 15:07:03.328430 21584 layer_factory.hpp:77] Creating layer L3_b8_cbr2_conv
I0818 15:07:03.328443 21584 net.cpp:100] Creating Layer L3_b8_cbr2_conv
I0818 15:07:03.328447 21584 net.cpp:434] L3_b8_cbr2_conv <- L3_b8_cbr1_bn_top
I0818 15:07:03.328459 21584 net.cpp:408] L3_b8_cbr2_conv -> L3_b8_cbr2_conv_top
I0818 15:07:03.329474 21584 net.cpp:150] Setting up L3_b8_cbr2_conv
I0818 15:07:03.329489 21584 net.cpp:157] Top shape: 125 64 8 8 (512000)
I0818 15:07:03.329494 21584 net.cpp:165] Memory required for data: 1419777500
I0818 15:07:03.329504 21584 layer_factory.hpp:77] Creating layer L3_b8_cbr2_bn
I0818 15:07:03.329519 21584 net.cpp:100] Creating Layer L3_b8_cbr2_bn
I0818 15:07:03.329525 21584 net.cpp:434] L3_b8_cbr2_bn <- L3_b8_cbr2_conv_top
I0818 15:07:03.329533 21584 net.cpp:408] L3_b8_cbr2_bn -> L3_b8_cbr2_bn_top
I0818 15:07:03.329804 21584 net.cpp:150] Setting up L3_b8_cbr2_bn
I0818 15:07:03.329818 21584 net.cpp:157] Top shape: 125 64 8 8 (512000)
I0818 15:07:03.329823 21584 net.cpp:165] Memory required for data: 1421825500
I0818 15:07:03.329834 21584 layer_factory.hpp:77] Creating layer L3_b8_cbr2_scale
I0818 15:07:03.329864 21584 net.cpp:100] Creating Layer L3_b8_cbr2_scale
I0818 15:07:03.329874 21584 net.cpp:434] L3_b8_cbr2_scale <- L3_b8_cbr2_bn_top
I0818 15:07:03.329883 21584 net.cpp:395] L3_b8_cbr2_scale -> L3_b8_cbr2_bn_top (in-place)
I0818 15:07:03.329946 21584 layer_factory.hpp:77] Creating layer L3_b8_cbr2_scale
I0818 15:07:03.330108 21584 net.cpp:150] Setting up L3_b8_cbr2_scale
I0818 15:07:03.330122 21584 net.cpp:157] Top shape: 125 64 8 8 (512000)
I0818 15:07:03.330127 21584 net.cpp:165] Memory required for data: 1423873500
I0818 15:07:03.330137 21584 layer_factory.hpp:77] Creating layer L3_b8_sum_eltwise
I0818 15:07:03.330145 21584 net.cpp:100] Creating Layer L3_b8_sum_eltwise
I0818 15:07:03.330152 21584 net.cpp:434] L3_b8_sum_eltwise <- L3_b8_cbr2_bn_top
I0818 15:07:03.330159 21584 net.cpp:434] L3_b8_sum_eltwise <- L3_b7_sum_eltwise_top_L3_b7_relu_0_split_1
I0818 15:07:03.330170 21584 net.cpp:408] L3_b8_sum_eltwise -> L3_b8_sum_eltwise_top
I0818 15:07:03.330204 21584 net.cpp:150] Setting up L3_b8_sum_eltwise
I0818 15:07:03.330216 21584 net.cpp:157] Top shape: 125 64 8 8 (512000)
I0818 15:07:03.330221 21584 net.cpp:165] Memory required for data: 1425921500
I0818 15:07:03.330226 21584 layer_factory.hpp:77] Creating layer L3_b8_relu
I0818 15:07:03.330237 21584 net.cpp:100] Creating Layer L3_b8_relu
I0818 15:07:03.330245 21584 net.cpp:434] L3_b8_relu <- L3_b8_sum_eltwise_top
I0818 15:07:03.330251 21584 net.cpp:395] L3_b8_relu -> L3_b8_sum_eltwise_top (in-place)
I0818 15:07:03.330261 21584 net.cpp:150] Setting up L3_b8_relu
I0818 15:07:03.330268 21584 net.cpp:157] Top shape: 125 64 8 8 (512000)
I0818 15:07:03.330273 21584 net.cpp:165] Memory required for data: 1427969500
I0818 15:07:03.330278 21584 layer_factory.hpp:77] Creating layer L3_b8_sum_eltwise_top_L3_b8_relu_0_split
I0818 15:07:03.330294 21584 net.cpp:100] Creating Layer L3_b8_sum_eltwise_top_L3_b8_relu_0_split
I0818 15:07:03.330302 21584 net.cpp:434] L3_b8_sum_eltwise_top_L3_b8_relu_0_split <- L3_b8_sum_eltwise_top
I0818 15:07:03.330309 21584 net.cpp:408] L3_b8_sum_eltwise_top_L3_b8_relu_0_split -> L3_b8_sum_eltwise_top_L3_b8_relu_0_split_0
I0818 15:07:03.330319 21584 net.cpp:408] L3_b8_sum_eltwise_top_L3_b8_relu_0_split -> L3_b8_sum_eltwise_top_L3_b8_relu_0_split_1
I0818 15:07:03.330365 21584 net.cpp:150] Setting up L3_b8_sum_eltwise_top_L3_b8_relu_0_split
I0818 15:07:03.330380 21584 net.cpp:157] Top shape: 125 64 8 8 (512000)
I0818 15:07:03.330387 21584 net.cpp:157] Top shape: 125 64 8 8 (512000)
I0818 15:07:03.330392 21584 net.cpp:165] Memory required for data: 1432065500
I0818 15:07:03.330397 21584 layer_factory.hpp:77] Creating layer L3_b9_cbr1_conv
I0818 15:07:03.330410 21584 net.cpp:100] Creating Layer L3_b9_cbr1_conv
I0818 15:07:03.330415 21584 net.cpp:434] L3_b9_cbr1_conv <- L3_b8_sum_eltwise_top_L3_b8_relu_0_split_0
I0818 15:07:03.330425 21584 net.cpp:408] L3_b9_cbr1_conv -> L3_b9_cbr1_conv_top
I0818 15:07:03.332445 21584 net.cpp:150] Setting up L3_b9_cbr1_conv
I0818 15:07:03.332463 21584 net.cpp:157] Top shape: 125 64 8 8 (512000)
I0818 15:07:03.332468 21584 net.cpp:165] Memory required for data: 1434113500
I0818 15:07:03.332479 21584 layer_factory.hpp:77] Creating layer L3_b9_cbr1_bn
I0818 15:07:03.332492 21584 net.cpp:100] Creating Layer L3_b9_cbr1_bn
I0818 15:07:03.332499 21584 net.cpp:434] L3_b9_cbr1_bn <- L3_b9_cbr1_conv_top
I0818 15:07:03.332510 21584 net.cpp:408] L3_b9_cbr1_bn -> L3_b9_cbr1_bn_top
I0818 15:07:03.332784 21584 net.cpp:150] Setting up L3_b9_cbr1_bn
I0818 15:07:03.332798 21584 net.cpp:157] Top shape: 125 64 8 8 (512000)
I0818 15:07:03.332804 21584 net.cpp:165] Memory required for data: 1436161500
I0818 15:07:03.332814 21584 layer_factory.hpp:77] Creating layer L3_b9_cbr1_scale
I0818 15:07:03.332824 21584 net.cpp:100] Creating Layer L3_b9_cbr1_scale
I0818 15:07:03.332830 21584 net.cpp:434] L3_b9_cbr1_scale <- L3_b9_cbr1_bn_top
I0818 15:07:03.332841 21584 net.cpp:395] L3_b9_cbr1_scale -> L3_b9_cbr1_bn_top (in-place)
I0818 15:07:03.332901 21584 layer_factory.hpp:77] Creating layer L3_b9_cbr1_scale
I0818 15:07:03.333062 21584 net.cpp:150] Setting up L3_b9_cbr1_scale
I0818 15:07:03.333076 21584 net.cpp:157] Top shape: 125 64 8 8 (512000)
I0818 15:07:03.333081 21584 net.cpp:165] Memory required for data: 1438209500
I0818 15:07:03.333089 21584 layer_factory.hpp:77] Creating layer L3_b9_cbr1_relu
I0818 15:07:03.333098 21584 net.cpp:100] Creating Layer L3_b9_cbr1_relu
I0818 15:07:03.333106 21584 net.cpp:434] L3_b9_cbr1_relu <- L3_b9_cbr1_bn_top
I0818 15:07:03.333115 21584 net.cpp:395] L3_b9_cbr1_relu -> L3_b9_cbr1_bn_top (in-place)
I0818 15:07:03.333127 21584 net.cpp:150] Setting up L3_b9_cbr1_relu
I0818 15:07:03.333133 21584 net.cpp:157] Top shape: 125 64 8 8 (512000)
I0818 15:07:03.333138 21584 net.cpp:165] Memory required for data: 1440257500
I0818 15:07:03.333143 21584 layer_factory.hpp:77] Creating layer L3_b9_cbr2_conv
I0818 15:07:03.333158 21584 net.cpp:100] Creating Layer L3_b9_cbr2_conv
I0818 15:07:03.333164 21584 net.cpp:434] L3_b9_cbr2_conv <- L3_b9_cbr1_bn_top
I0818 15:07:03.333173 21584 net.cpp:408] L3_b9_cbr2_conv -> L3_b9_cbr2_conv_top
I0818 15:07:03.334192 21584 net.cpp:150] Setting up L3_b9_cbr2_conv
I0818 15:07:03.334206 21584 net.cpp:157] Top shape: 125 64 8 8 (512000)
I0818 15:07:03.334211 21584 net.cpp:165] Memory required for data: 1442305500
I0818 15:07:03.334220 21584 layer_factory.hpp:77] Creating layer L3_b9_cbr2_bn
I0818 15:07:03.334233 21584 net.cpp:100] Creating Layer L3_b9_cbr2_bn
I0818 15:07:03.334240 21584 net.cpp:434] L3_b9_cbr2_bn <- L3_b9_cbr2_conv_top
I0818 15:07:03.334249 21584 net.cpp:408] L3_b9_cbr2_bn -> L3_b9_cbr2_bn_top
I0818 15:07:03.334519 21584 net.cpp:150] Setting up L3_b9_cbr2_bn
I0818 15:07:03.334532 21584 net.cpp:157] Top shape: 125 64 8 8 (512000)
I0818 15:07:03.334537 21584 net.cpp:165] Memory required for data: 1444353500
I0818 15:07:03.334556 21584 layer_factory.hpp:77] Creating layer L3_b9_cbr2_scale
I0818 15:07:03.334568 21584 net.cpp:100] Creating Layer L3_b9_cbr2_scale
I0818 15:07:03.334575 21584 net.cpp:434] L3_b9_cbr2_scale <- L3_b9_cbr2_bn_top
I0818 15:07:03.334586 21584 net.cpp:395] L3_b9_cbr2_scale -> L3_b9_cbr2_bn_top (in-place)
I0818 15:07:03.334645 21584 layer_factory.hpp:77] Creating layer L3_b9_cbr2_scale
I0818 15:07:03.334810 21584 net.cpp:150] Setting up L3_b9_cbr2_scale
I0818 15:07:03.334823 21584 net.cpp:157] Top shape: 125 64 8 8 (512000)
I0818 15:07:03.334828 21584 net.cpp:165] Memory required for data: 1446401500
I0818 15:07:03.334837 21584 layer_factory.hpp:77] Creating layer L3_b9_sum_eltwise
I0818 15:07:03.334847 21584 net.cpp:100] Creating Layer L3_b9_sum_eltwise
I0818 15:07:03.334853 21584 net.cpp:434] L3_b9_sum_eltwise <- L3_b9_cbr2_bn_top
I0818 15:07:03.334861 21584 net.cpp:434] L3_b9_sum_eltwise <- L3_b8_sum_eltwise_top_L3_b8_relu_0_split_1
I0818 15:07:03.334872 21584 net.cpp:408] L3_b9_sum_eltwise -> L3_b9_sum_eltwise_top
I0818 15:07:03.334906 21584 net.cpp:150] Setting up L3_b9_sum_eltwise
I0818 15:07:03.334918 21584 net.cpp:157] Top shape: 125 64 8 8 (512000)
I0818 15:07:03.334923 21584 net.cpp:165] Memory required for data: 1448449500
I0818 15:07:03.334928 21584 layer_factory.hpp:77] Creating layer L3_b9_relu
I0818 15:07:03.334941 21584 net.cpp:100] Creating Layer L3_b9_relu
I0818 15:07:03.334947 21584 net.cpp:434] L3_b9_relu <- L3_b9_sum_eltwise_top
I0818 15:07:03.334955 21584 net.cpp:395] L3_b9_relu -> L3_b9_sum_eltwise_top (in-place)
I0818 15:07:03.334964 21584 net.cpp:150] Setting up L3_b9_relu
I0818 15:07:03.334971 21584 net.cpp:157] Top shape: 125 64 8 8 (512000)
I0818 15:07:03.334976 21584 net.cpp:165] Memory required for data: 1450497500
I0818 15:07:03.334981 21584 layer_factory.hpp:77] Creating layer post_pool
I0818 15:07:03.334990 21584 net.cpp:100] Creating Layer post_pool
I0818 15:07:03.334995 21584 net.cpp:434] post_pool <- L3_b9_sum_eltwise_top
I0818 15:07:03.335002 21584 net.cpp:408] post_pool -> post_pool
I0818 15:07:03.335041 21584 net.cpp:150] Setting up post_pool
I0818 15:07:03.335052 21584 net.cpp:157] Top shape: 125 64 1 1 (8000)
I0818 15:07:03.335057 21584 net.cpp:165] Memory required for data: 1450529500
I0818 15:07:03.335062 21584 layer_factory.hpp:77] Creating layer post_FC
I0818 15:07:03.335160 21584 net.cpp:100] Creating Layer post_FC
I0818 15:07:03.335172 21584 net.cpp:434] post_FC <- post_pool
I0818 15:07:03.335183 21584 net.cpp:408] post_FC -> post_FC_top
I0818 15:07:03.335454 21584 net.cpp:150] Setting up post_FC
I0818 15:07:03.335470 21584 net.cpp:157] Top shape: 125 10 (1250)
I0818 15:07:03.335476 21584 net.cpp:165] Memory required for data: 1450534500
I0818 15:07:03.335485 21584 layer_factory.hpp:77] Creating layer post_FC_top_post_FC_0_split
I0818 15:07:03.335494 21584 net.cpp:100] Creating Layer post_FC_top_post_FC_0_split
I0818 15:07:03.335500 21584 net.cpp:434] post_FC_top_post_FC_0_split <- post_FC_top
I0818 15:07:03.335512 21584 net.cpp:408] post_FC_top_post_FC_0_split -> post_FC_top_post_FC_0_split_0
I0818 15:07:03.335523 21584 net.cpp:408] post_FC_top_post_FC_0_split -> post_FC_top_post_FC_0_split_1
I0818 15:07:03.335571 21584 net.cpp:150] Setting up post_FC_top_post_FC_0_split
I0818 15:07:03.335585 21584 net.cpp:157] Top shape: 125 10 (1250)
I0818 15:07:03.335592 21584 net.cpp:157] Top shape: 125 10 (1250)
I0818 15:07:03.335597 21584 net.cpp:165] Memory required for data: 1450544500
I0818 15:07:03.335602 21584 layer_factory.hpp:77] Creating layer accuracy
I0818 15:07:03.335655 21584 net.cpp:100] Creating Layer accuracy
I0818 15:07:03.335669 21584 net.cpp:434] accuracy <- post_FC_top_post_FC_0_split_0
I0818 15:07:03.335677 21584 net.cpp:434] accuracy <- label_dataLayer_1_split_0
I0818 15:07:03.335686 21584 net.cpp:408] accuracy -> accuracy
…
