…
I1212 06:17:46.347033 18921 net.cpp:322] The NetState phase (0) differed from the phase (1) specified by a rule in layer L3_b9_cbr2_bn
I1212 06:17:46.348886 18921 net.cpp:58] Initializing net from parameters: 
name: "Cifar-Resnet"
state {
  phase: TRAIN
  level: 0
  stage: ""
}
layer {
  name: "dataLayer"
  type: "Data"
  top: "data_top"
  top: "label"
  include {
    phase: TRAIN
  }
  transform_param {
    mirror: true
    crop_size: 32
    mean_file: "examples/cifar10/mean.binaryproto"
  }
  data_param {
    source: "examples/cifar10/cifar10_train_lmdb"
    batch_size: 125
    backend: LMDB
  }
  image_data_param {
    shuffle: true
  }
}
layer {
  name: "pre_conv"
  type: "Convolution"
  bottom: "data_top"
  top: "pre_conv_top"
  param {
    lr_mult: 1
    decay_mult: 1
  }
  param {
    lr_mult: 2
    decay_mult: 0
  }
  convolution_param {
    num_output: 16
    pad: 1
    kernel_size: 3
    stride: 1
    weight_filler {
      type: "msra"
    }
    bias_filler {
      type: "constant"
    }
  }
}
layer {
  name: "pre_bn"
  type: "BatchNorm"
  bottom: "pre_conv_top"
  top: "pre_bn_top"
  include {
    phase: TRAIN
  }
  batch_norm_param {
    use_global_stats: false
    moving_average_fraction: 0.95
  }
}
layer {
  name: "pre_scale"
  type: "Scale"
  bottom: "pre_bn_top"
  top: "pre_bn_top"
  scale_param {
    bias_term: true
  }
}
layer {
  name: "pre_relu"
  type: "ReLU"
  bottom: "pre_bn_top"
  top: "pre_bn_top"
}
layer {
  name: "L1_b1_cbr1_conv"
  type: "Convolution"
  bottom: "pre_bn_top"
  top: "L1_b1_cbr1_conv_top"
  param {
    lr_mult: 1
    decay_mult: 1
  }
  param {
    lr_mult: 2
    decay_mult: 0
  }
  convolution_param {
    num_output: 16
    pad: 1
    kernel_size: 3
    stride: 1
    weight_filler {
      type: "msra"
    }
    bias_filler {
      type: "constant"
    }
  }
}
layer {
  name: "L1_b1_cbr1_bn"
  type: "BatchNorm"
  bottom: "L1_b1_cbr1_conv_top"
  top: "L1_b1_cbr1_bn_top"
  include {
    phase: TRAIN
  }
  batch_norm_param {
    use_global_stats: false
    moving_average_fraction: 0.95
  }
}
layer {
  name: "L1_b1_cbr1_scale"
  type: "Scale"
  bottom: "L1_b1_cbr1_bn_top"
  top: "L1_b1_cbr1_bn_top"
  scale_param {
    bias_term: true
  }
}
layer {
  name: "L1_b1_cbr1_relu"
  type: "ReLU"
  bottom: "L1_b1_cbr1_bn_top"
  top: "L1_b1_cbr1_bn_top"
}
layer {
  name: "L1_b1_cbr2_conv"
  type: "Convolution"
  bottom: "L1_b1_cbr1_bn_top"
  top: "L1_b1_cbr2_conv_top"
  param {
    lr_mult: 1
    decay_mult: 1
  }
  param {
    lr_mult: 2
    decay_mult: 0
  }
  convolution_param {
    num_output: 16
    pad: 1
    kernel_size: 3
    stride: 1
    weight_filler {
      type: "msra"
    }
    bias_filler {
      type: "constant"
    }
  }
}
layer {
  name: "L1_b1_cbr2_bn"
  type: "BatchNorm"
  bottom: "L1_b1_cbr2_conv_top"
  top: "L1_b1_cbr2_bn_top"
  include {
    phase: TRAIN
  }
  batch_norm_param {
    use_global_stats: false
    moving_average_fraction: 0.95
  }
}
layer {
  name: "L1_b1_cbr2_scale"
  type: "Scale"
  bottom: "L1_b1_cbr2_bn_top"
  top: "L1_b1_cbr2_bn_top"
  scale_param {
    bias_term: true
  }
}
layer {
  name: "L1_b1_sum_eltwise"
  type: "Eltwise"
  bottom: "L1_b1_cbr2_bn_top"
  bottom: "pre_bn_top"
  top: "L1_b1_sum_eltwise_top"
  eltwise_param {
    operation: SUM
  }
}
layer {
  name: "L1_b1_relu"
  type: "ReLU"
  bottom: "L1_b1_sum_eltwise_top"
  top: "L1_b1_sum_eltwise_top"
}
layer {
  name: "L1_b2_cbr1_conv"
  type: "Convolution"
  bottom: "L1_b1_sum_eltwise_top"
  top: "L1_b2_cbr1_conv_top"
  param {
    lr_mult: 1
    decay_mult: 1
  }
  param {
    lr_mult: 2
    decay_mult: 0
  }
  convolution_param {
    num_output: 16
    pad: 1
    kernel_size: 3
    stride: 1
    weight_filler {
      type: "msra"
    }
    bias_filler {
      type: "constant"
    }
  }
}
layer {
  name: "L1_b2_cbr1_bn"
  type: "BatchNorm"
  bottom: "L1_b2_cbr1_conv_top"
  top: "L1_b2_cbr1_bn_top"
  include {
    phase: TRAIN
  }
  batch_norm_param {
    use_global_stats: false
    moving_average_fraction: 0.95
  }
}
layer {
  name: "L1_b2_cbr1_scale"
  type: "Scale"
  bottom: "L1_b2_cbr1_bn_top"
  top: "L1_b2_cbr1_bn_top"
  scale_param {
    bias_term: true
  }
}
layer {
  name: "L1_b2_cbr1_relu"
  type: "ReLU"
  bottom: "L1_b2_cbr1_bn_top"
  top: "L1_b2_cbr1_bn_top"
}
layer {
  name: "L1_b2_cbr2_conv"
  type: "Convolution"
  bottom: "L1_b2_cbr1_bn_top"
  top: "L1_b2_cbr2_conv_top"
  param {
    lr_mult: 1
    decay_mult: 1
  }
  param {
    lr_mult: 2
    decay_mult: 0
  }
  convolution_param {
    num_output: 16
    pad: 1
    kernel_size: 3
    stride: 1
    weight_filler {
      type: "msra"
    }
    bias_filler {
      type: "constant"
    }
  }
}
layer {
  name: "L1_b2_cbr2_bn"
  type: "BatchNorm"
  bottom: "L1_b2_cbr2_conv_top"
  top: "L1_b2_cbr2_bn_top"
  include {
    phase: TRAIN
  }
  batch_norm_param {
    use_global_stats: false
    moving_average_fraction: 0.95
  }
}
layer {
  name: "L1_b2_cbr2_scale"
  type: "Scale"
  bottom: "L1_b2_cbr2_bn_top"
  top: "L1_b2_cbr2_bn_top"
  scale_param {
    bias_term: true
  }
}
layer {
  name: "L1_b2_sum_eltwise"
  type: "Eltwise"
  bottom: "L1_b2_cbr2_bn_top"
  bottom: "L1_b1_sum_eltwise_top"
  top: "L1_b2_sum_eltwise_top"
  eltwise_param {
    operation: SUM
  }
}
layer {
  name: "L1_b2_relu"
  type: "ReLU"
  bottom: "L1_b2_sum_eltwise_top"
  top: "L1_b2_sum_eltwise_top"
}
layer {
  name: "L1_b3_cbr1_conv"
  type: "Convolution"
  bottom: "L1_b2_sum_eltwise_top"
  top: "L1_b3_cbr1_conv_top"
  param {
    lr_mult: 1
    decay_mult: 1
  }
  param {
    lr_mult: 2
    decay_mult: 0
  }
  convolution_param {
    num_output: 16
    pad: 1
    kernel_size: 3
    stride: 1
    weight_filler {
      type: "msra"
    }
    bias_filler {
      type: "constant"
    }
  }
}
layer {
  name: "L1_b3_cbr1_bn"
  type: "BatchNorm"
  bottom: "L1_b3_cbr1_conv_top"
  top: "L1_b3_cbr1_bn_top"
  include {
    phase: TRAIN
  }
  batch_norm_param {
    use_global_stats: false
    moving_average_fraction: 0.95
  }
}
layer {
  name: "L1_b3_cbr1_scale"
  type: "Scale"
  bottom: "L1_b3_cbr1_bn_top"
  top: "L1_b3_cbr1_bn_top"
  scale_param {
    bias_term: true
  }
}
layer {
  name: "L1_b3_cbr1_relu"
  type: "ReLU"
  bottom: "L1_b3_cbr1_bn_top"
  top: "L1_b3_cbr1_bn_top"
}
layer {
  name: "L1_b3_cbr2_conv"
  type: "Convolution"
  bottom: "L1_b3_cbr1_bn_top"
  top: "L1_b3_cbr2_conv_top"
  param {
    lr_mult: 1
    decay_mult: 1
  }
  param {
    lr_mult: 2
    decay_mult: 0
  }
  convolution_param {
    num_output: 16
    pad: 1
    kernel_size: 3
    stride: 1
    weight_filler {
      type: "msra"
    }
    bias_filler {
      type: "constant"
    }
  }
}
layer {
  name: "L1_b3_cbr2_bn"
  type: "BatchNorm"
  bottom: "L1_b3_cbr2_conv_top"
  top: "L1_b3_cbr2_bn_top"
  include {
    phase: TRAIN
  }
  batch_norm_param {
    use_global_stats: false
    moving_average_fraction: 0.95
  }
}
layer {
  name: "L1_b3_cbr2_scale"
  type: "Scale"
  bottom: "L1_b3_cbr2_bn_top"
  top: "L1_b3_cbr2_bn_top"
  scale_param {
    bias_term: true
  }
}
layer {
  name: "L1_b3_sum_eltwise"
  type: "Eltwise"
  bottom: "L1_b3_cbr2_bn_top"
  bottom: "L1_b2_sum_eltwise_top"
  top: "L1_b3_sum_eltwise_top"
  eltwise_param {
    operation: SUM
  }
}
layer {
  name: "L1_b3_relu"
  type: "ReLU"
  bottom: "L1_b3_sum_eltwise_top"
  top: "L1_b3_sum_eltwise_top"
}
layer {
  name: "L1_b4_cbr1_conv"
  type: "Convolution"
  bottom: "L1_b3_sum_eltwise_top"
  top: "L1_b4_cbr1_conv_top"
  param {
    lr_mult: 1
    decay_mult: 1
  }
  param {
    lr_mult: 2
    decay_mult: 0
  }
  convolution_param {
    num_output: 16
    pad: 1
    kernel_size: 3
    stride: 1
    weight_filler {
      type: "msra"
    }
    bias_filler {
      type: "constant"
    }
  }
}
layer {
  name: "L1_b4_cbr1_bn"
  type: "BatchNorm"
  bottom: "L1_b4_cbr1_conv_top"
  top: "L1_b4_cbr1_bn_top"
  include {
    phase: TRAIN
  }
  batch_norm_param {
    use_global_stats: false
    moving_average_fraction: 0.95
  }
}
layer {
  name: "L1_b4_cbr1_scale"
  type: "Scale"
  bottom: "L1_b4_cbr1_bn_top"
  top: "L1_b4_cbr1_bn_top"
  scale_param {
    bias_term: true
  }
}
layer {
  name: "L1_b4_cbr1_relu"
  type: "ReLU"
  bottom: "L1_b4_cbr1_bn_top"
  top: "L1_b4_cbr1_bn_top"
}
layer {
  name: "L1_b4_cbr2_conv"
  type: "Convolution"
  bottom: "L1_b4_cbr1_bn_top"
  top: "L1_b4_cbr2_conv_top"
  param {
    lr_mult: 1
    decay_mult: 1
  }
  param {
    lr_mult: 2
    decay_mult: 0
  }
  convolution_param {
    num_output: 16
    pad: 1
    kernel_size: 3
    stride: 1
    weight_filler {
      type: "msra"
    }
    bias_filler {
      type: "constant"
    }
  }
}
layer {
  name: "L1_b4_cbr2_bn"
  type: "BatchNorm"
  bottom: "L1_b4_cbr2_conv_top"
  top: "L1_b4_cbr2_bn_top"
  include {
    phase: TRAIN
  }
  batch_norm_param {
    use_global_stats: false
    moving_average_fraction: 0.95
  }
}
layer {
  name: "L1_b4_cbr2_scale"
  type: "Scale"
  bottom: "L1_b4_cbr2_bn_top"
  top: "L1_b4_cbr2_bn_top"
  scale_param {
    bias_term: true
  }
}
layer {
  name: "L1_b4_sum_eltwise"
  type: "Eltwise"
  bottom: "L1_b4_cbr2_bn_top"
  bottom: "L1_b3_sum_eltwise_top"
  top: "L1_b4_sum_eltwise_top"
  eltwise_param {
    operation: SUM
  }
}
layer {
  name: "L1_b4_relu"
  type: "ReLU"
  bottom: "L1_b4_sum_eltwise_top"
  top: "L1_b4_sum_eltwise_top"
}
layer {
  name: "L1_b5_cbr1_conv"
  type: "Convolution"
  bottom: "L1_b4_sum_eltwise_top"
  top: "L1_b5_cbr1_conv_top"
  param {
    lr_mult: 1
    decay_mult: 1
  }
  param {
    lr_mult: 2
    decay_mult: 0
  }
  convolution_param {
    num_output: 16
    pad: 1
    kernel_size: 3
    stride: 1
    weight_filler {
      type: "msra"
    }
    bias_filler {
      type: "constant"
    }
  }
}
layer {
  name: "L1_b5_cbr1_bn"
  type: "BatchNorm"
  bottom: "L1_b5_cbr1_conv_top"
  top: "L1_b5_cbr1_bn_top"
  include {
    phase: TRAIN
  }
  batch_norm_param {
    use_global_stats: false
    moving_average_fraction: 0.95
  }
}
layer {
  name: "L1_b5_cbr1_scale"
  type: "Scale"
  bottom: "L1_b5_cbr1_bn_top"
  top: "L1_b5_cbr1_bn_top"
  scale_param {
    bias_term: true
  }
}
layer {
  name: "L1_b5_cbr1_relu"
  type: "ReLU"
  bottom: "L1_b5_cbr1_bn_top"
  top: "L1_b5_cbr1_bn_top"
}
layer {
  name: "L1_b5_cbr2_conv"
  type: "Convolution"
  bottom: "L1_b5_cbr1_bn_top"
  top: "L1_b5_cbr2_conv_top"
  param {
    lr_mult: 1
    decay_mult: 1
  }
  param {
    lr_mult: 2
    decay_mult: 0
  }
  convolution_param {
    num_output: 16
    pad: 1
    kernel_size: 3
    stride: 1
    weight_filler {
      type: "msra"
    }
    bias_filler {
      type: "constant"
    }
  }
}
layer {
  name: "L1_b5_cbr2_bn"
  type: "BatchNorm"
  bottom: "L1_b5_cbr2_conv_top"
  top: "L1_b5_cbr2_bn_top"
  include {
    phase: TRAIN
  }
  batch_norm_param {
    use_global_stats: false
    moving_average_fraction: 0.95
  }
}
layer {
  name: "L1_b5_cbr2_scale"
  type: "Scale"
  bottom: "L1_b5_cbr2_bn_top"
  top: "L1_b5_cbr2_bn_top"
  scale_param {
    bias_term: true
  }
}
layer {
  name: "L1_b5_sum_eltwise"
  type: "Eltwise"
  bottom: "L1_b5_cbr2_bn_top"
  bottom: "L1_b4_sum_eltwise_top"
  top: "L1_b5_sum_eltwise_top"
  eltwise_param {
    operation: SUM
  }
}
layer {
  name: "L1_b5_relu"
  type: "ReLU"
  bottom: "L1_b5_sum_eltwise_top"
  top: "L1_b5_sum_eltwise_top"
}
layer {
  name: "L1_b6_cbr1_conv"
  type: "Convolution"
  bottom: "L1_b5_sum_eltwise_top"
  top: "L1_b6_cbr1_conv_top"
  param {
    lr_mult: 1
    decay_mult: 1
  }
  param {
    lr_mult: 2
    decay_mult: 0
  }
  convolution_param {
    num_output: 16
    pad: 1
    kernel_size: 3
    stride: 1
    weight_filler {
      type: "msra"
    }
    bias_filler {
      type: "constant"
    }
  }
}
layer {
  name: "L1_b6_cbr1_bn"
  type: "BatchNorm"
  bottom: "L1_b6_cbr1_conv_top"
  top: "L1_b6_cbr1_bn_top"
  include {
    phase: TRAIN
  }
  batch_norm_param {
    use_global_stats: false
    moving_average_fraction: 0.95
  }
}
layer {
  name: "L1_b6_cbr1_scale"
  type: "Scale"
  bottom: "L1_b6_cbr1_bn_top"
  top: "L1_b6_cbr1_bn_top"
  scale_param {
    bias_term: true
  }
}
layer {
  name: "L1_b6_cbr1_relu"
  type: "ReLU"
  bottom: "L1_b6_cbr1_bn_top"
  top: "L1_b6_cbr1_bn_top"
}
layer {
  name: "L1_b6_cbr2_conv"
  type: "Convolution"
  bottom: "L1_b6_cbr1_bn_top"
  top: "L1_b6_cbr2_conv_top"
  param {
    lr_mult: 1
    decay_mult: 1
  }
  param {
    lr_mult: 2
    decay_mult: 0
  }
  convolution_param {
    num_output: 16
    pad: 1
    kernel_size: 3
    stride: 1
    weight_filler {
      type: "msra"
    }
    bias_filler {
      type: "constant"
    }
  }
}
layer {
  name: "L1_b6_cbr2_bn"
  type: "BatchNorm"
  bottom: "L1_b6_cbr2_conv_top"
  top: "L1_b6_cbr2_bn_top"
  include {
    phase: TRAIN
  }
  batch_norm_param {
    use_global_stats: false
    moving_average_fraction: 0.95
  }
}
layer {
  name: "L1_b6_cbr2_scale"
  type: "Scale"
  bottom: "L1_b6_cbr2_bn_top"
  top: "L1_b6_cbr2_bn_top"
  scale_param {
    bias_term: true
  }
}
layer {
  name: "L1_b6_sum_eltwise"
  type: "Eltwise"
  bottom: "L1_b6_cbr2_bn_top"
  bottom: "L1_b5_sum_eltwise_top"
  top: "L1_b6_sum_eltwise_top"
  eltwise_param {
    operation: SUM
  }
}
layer {
  name: "L1_b6_relu"
  type: "ReLU"
  bottom: "L1_b6_sum_eltwise_top"
  top: "L1_b6_sum_eltwise_top"
}
layer {
  name: "L1_b7_cbr1_conv"
  type: "Convolution"
  bottom: "L1_b6_sum_eltwise_top"
  top: "L1_b7_cbr1_conv_top"
  param {
    lr_mult: 1
    decay_mult: 1
  }
  param {
    lr_mult: 2
    decay_mult: 0
  }
  convolution_param {
    num_output: 16
    pad: 1
    kernel_size: 3
    stride: 1
    weight_filler {
      type: "msra"
    }
    bias_filler {
      type: "constant"
    }
  }
}
layer {
  name: "L1_b7_cbr1_bn"
  type: "BatchNorm"
  bottom: "L1_b7_cbr1_conv_top"
  top: "L1_b7_cbr1_bn_top"
  include {
    phase: TRAIN
  }
  batch_norm_param {
    use_global_stats: false
    moving_average_fraction: 0.95
  }
}
layer {
  name: "L1_b7_cbr1_scale"
  type: "Scale"
  bottom: "L1_b7_cbr1_bn_top"
  top: "L1_b7_cbr1_bn_top"
  scale_param {
    bias_term: true
  }
}
layer {
  name: "L1_b7_cbr1_relu"
  type: "ReLU"
  bottom: "L1_b7_cbr1_bn_top"
  top: "L1_b7_cbr1_bn_top"
}
layer {
  name: "L1_b7_cbr2_conv"
  type: "Convolution"
  bottom: "L1_b7_cbr1_bn_top"
  top: "L1_b7_cbr2_conv_top"
  param {
    lr_mult: 1
    decay_mult: 1
  }
  param {
    lr_mult: 2
    decay_mult: 0
  }
  convolution_param {
    num_output: 16
    pad: 1
    kernel_size: 3
    stride: 1
    weight_filler {
      type: "msra"
    }
    bias_filler {
      type: "constant"
    }
  }
}
layer {
  name: "L1_b7_cbr2_bn"
  type: "BatchNorm"
  bottom: "L1_b7_cbr2_conv_top"
  top: "L1_b7_cbr2_bn_top"
  include {
    phase: TRAIN
  }
  batch_norm_param {
    use_global_stats: false
    moving_average_fraction: 0.95
  }
}
layer {
  name: "L1_b7_cbr2_scale"
  type: "Scale"
  bottom: "L1_b7_cbr2_bn_top"
  top: "L1_b7_cbr2_bn_top"
  scale_param {
    bias_term: true
  }
}
layer {
  name: "L1_b7_sum_eltwise"
  type: "Eltwise"
  bottom: "L1_b7_cbr2_bn_top"
  bottom: "L1_b6_sum_eltwise_top"
  top: "L1_b7_sum_eltwise_top"
  eltwise_param {
    operation: SUM
  }
}
layer {
  name: "L1_b7_relu"
  type: "ReLU"
  bottom: "L1_b7_sum_eltwise_top"
  top: "L1_b7_sum_eltwise_top"
}
layer {
  name: "L1_b8_cbr1_conv"
  type: "Convolution"
  bottom: "L1_b7_sum_eltwise_top"
  top: "L1_b8_cbr1_conv_top"
  param {
    lr_mult: 1
    decay_mult: 1
  }
  param {
    lr_mult: 2
    decay_mult: 0
  }
  convolution_param {
    num_output: 16
    pad: 1
    kernel_size: 3
    stride: 1
    weight_filler {
      type: "msra"
    }
    bias_filler {
      type: "constant"
    }
  }
}
layer {
  name: "L1_b8_cbr1_bn"
  type: "BatchNorm"
  bottom: "L1_b8_cbr1_conv_top"
  top: "L1_b8_cbr1_bn_top"
  include {
    phase: TRAIN
  }
  batch_norm_param {
    use_global_stats: false
    moving_average_fraction: 0.95
  }
}
layer {
  name: "L1_b8_cbr1_scale"
  type: "Scale"
  bottom: "L1_b8_cbr1_bn_top"
  top: "L1_b8_cbr1_bn_top"
  scale_param {
    bias_term: true
  }
}
layer {
  name: "L1_b8_cbr1_relu"
  type: "ReLU"
  bottom: "L1_b8_cbr1_bn_top"
  top: "L1_b8_cbr1_bn_top"
}
layer {
  name: "L1_b8_cbr2_conv"
  type: "Convolution"
  bottom: "L1_b8_cbr1_bn_top"
  top: "L1_b8_cbr2_conv_top"
  param {
    lr_mult: 1
    decay_mult: 1
  }
  param {
    lr_mult: 2
    decay_mult: 0
  }
  convolution_param {
    num_output: 16
    pad: 1
    kernel_size: 3
    stride: 1
    weight_filler {
      type: "msra"
    }
    bias_filler {
      type: "constant"
    }
  }
}
layer {
  name: "L1_b8_cbr2_bn"
  type: "BatchNorm"
  bottom: "L1_b8_cbr2_conv_top"
  top: "L1_b8_cbr2_bn_top"
  include {
    phase: TRAIN
  }
  batch_norm_param {
    use_global_stats: false
    moving_average_fraction: 0.95
  }
}
layer {
  name: "L1_b8_cbr2_scale"
  type: "Scale"
  bottom: "L1_b8_cbr2_bn_top"
  top: "L1_b8_cbr2_bn_top"
  scale_param {
    bias_term: true
  }
}
layer {
  name: "L1_b8_sum_eltwise"
  type: "Eltwise"
  bottom: "L1_b8_cbr2_bn_top"
  bottom: "L1_b7_sum_eltwise_top"
  top: "L1_b8_sum_eltwise_top"
  eltwise_param {
    operation: SUM
  }
}
layer {
  name: "L1_b8_relu"
  type: "ReLU"
  bottom: "L1_b8_sum_eltwise_top"
  top: "L1_b8_sum_eltwise_top"
}
layer {
  name: "L1_b9_cbr1_conv"
  type: "Convolution"
  bottom: "L1_b8_sum_eltwise_top"
  top: "L1_b9_cbr1_conv_top"
  param {
    lr_mult: 1
    decay_mult: 1
  }
  param {
    lr_mult: 2
    decay_mult: 0
  }
  convolution_param {
    num_output: 16
    pad: 1
    kernel_size: 3
    stride: 1
    weight_filler {
      type: "msra"
    }
    bias_filler {
      type: "constant"
    }
  }
}
layer {
  name: "L1_b9_cbr1_bn"
  type: "BatchNorm"
  bottom: "L1_b9_cbr1_conv_top"
  top: "L1_b9_cbr1_bn_top"
  include {
    phase: TRAIN
  }
  batch_norm_param {
    use_global_stats: false
    moving_average_fraction: 0.95
  }
}
layer {
  name: "L1_b9_cbr1_scale"
  type: "Scale"
  bottom: "L1_b9_cbr1_bn_top"
  top: "L1_b9_cbr1_bn_top"
  scale_param {
    bias_term: true
  }
}
layer {
  name: "L1_b9_cbr1_relu"
  type: "ReLU"
  bottom: "L1_b9_cbr1_bn_top"
  top: "L1_b9_cbr1_bn_top"
}
layer {
  name: "L1_b9_cbr2_conv"
  type: "Convolution"
  bottom: "L1_b9_cbr1_bn_top"
  top: "L1_b9_cbr2_conv_top"
  param {
    lr_mult: 1
    decay_mult: 1
  }
  param {
    lr_mult: 2
    decay_mult: 0
  }
  convolution_param {
    num_output: 16
    pad: 1
    kernel_size: 3
    stride: 1
    weight_filler {
      type: "msra"
    }
    bias_filler {
      type: "constant"
    }
  }
}
layer {
  name: "L1_b9_cbr2_bn"
  type: "BatchNorm"
  bottom: "L1_b9_cbr2_conv_top"
  top: "L1_b9_cbr2_bn_top"
  include {
    phase: TRAIN
  }
  batch_norm_param {
    use_global_stats: false
    moving_average_fraction: 0.95
  }
}
layer {
  name: "L1_b9_cbr2_scale"
  type: "Scale"
  bottom: "L1_b9_cbr2_bn_top"
  top: "L1_b9_cbr2_bn_top"
  scale_param {
    bias_term: true
  }
}
layer {
  name: "L1_b9_sum_eltwise"
  type: "Eltwise"
  bottom: "L1_b9_cbr2_bn_top"
  bottom: "L1_b8_sum_eltwise_top"
  top: "L1_b9_sum_eltwise_top"
  eltwise_param {
    operation: SUM
  }
}
layer {
  name: "L1_b9_relu"
  type: "ReLU"
  bottom: "L1_b9_sum_eltwise_top"
  top: "L1_b9_sum_eltwise_top"
}
layer {
  name: "L2_b1_cbr1_conv"
  type: "Convolution"
  bottom: "L1_b9_sum_eltwise_top"
  top: "L2_b1_cbr1_conv_top"
  param {
    lr_mult: 1
    decay_mult: 1
  }
  param {
    lr_mult: 2
    decay_mult: 0
  }
  convolution_param {
    num_output: 16
    pad: 1
    kernel_size: 3
    stride: 2
    weight_filler {
      type: "msra"
    }
    bias_filler {
      type: "constant"
    }
  }
}
layer {
  name: "L2_b1_cbr1_bn"
  type: "BatchNorm"
  bottom: "L2_b1_cbr1_conv_top"
  top: "L2_b1_cbr1_bn_top"
  include {
    phase: TRAIN
  }
  batch_norm_param {
    use_global_stats: false
    moving_average_fraction: 0.95
  }
}
layer {
  name: "L2_b1_cbr1_scale"
  type: "Scale"
  bottom: "L2_b1_cbr1_bn_top"
  top: "L2_b1_cbr1_bn_top"
  scale_param {
    bias_term: true
  }
}
layer {
  name: "L2_b1_cbr1_relu"
  type: "ReLU"
  bottom: "L2_b1_cbr1_bn_top"
  top: "L2_b1_cbr1_bn_top"
}
layer {
  name: "L2_b1_cbr2_conv"
  type: "Convolution"
  bottom: "L2_b1_cbr1_bn_top"
  top: "L2_b1_cbr2_conv_top"
  param {
    lr_mult: 1
    decay_mult: 1
  }
  param {
    lr_mult: 2
    decay_mult: 0
  }
  convolution_param {
    num_output: 16
    pad: 1
    kernel_size: 3
    stride: 1
    weight_filler {
      type: "msra"
    }
    bias_filler {
      type: "constant"
    }
  }
}
layer {
  name: "L2_b1_cbr2_bn"
  type: "BatchNorm"
  bottom: "L2_b1_cbr2_conv_top"
  top: "L2_b1_cbr2_bn_top"
  include {
    phase: TRAIN
  }
  batch_norm_param {
    use_global_stats: false
    moving_average_fraction: 0.95
  }
}
layer {
  name: "L2_b1_cbr2_scale"
  type: "Scale"
  bottom: "L2_b1_cbr2_bn_top"
  top: "L2_b1_cbr2_bn_top"
  scale_param {
    bias_term: true
  }
}
layer {
  name: "L2_b1_pool"
  type: "Pooling"
  bottom: "L1_b9_sum_eltwise_top"
  top: "L2_b1_pool"
  pooling_param {
    pool: AVE
    kernel_size: 3
    stride: 2
  }
}
layer {
  name: "L2_b1_sum_eltwise"
  type: "Eltwise"
  bottom: "L2_b1_cbr2_bn_top"
  bottom: "L2_b1_pool"
  top: "L2_b1_sum_eltwise_top"
  eltwise_param {
    operation: SUM
  }
}
layer {
  name: "L2_b1_relu"
  type: "ReLU"
  bottom: "L2_b1_sum_eltwise_top"
  top: "L2_b1_sum_eltwise_top"
}
layer {
  name: "L2_b1_zeros"
  type: "DummyData"
  top: "L2_b1_zeros"
  dummy_data_param {
    data_filler {
      type: "constant"
      value: 0
    }
    shape {
      dim: 125
      dim: 16
      dim: 16
      dim: 16
    }
  }
}
layer {
  name: "L2_b1_concat0"
  type: "Concat"
  bottom: "L2_b1_sum_eltwise_top"
  bottom: "L2_b1_zeros"
  top: "L2_b1_concat0"
  concat_param {
    axis: 1
  }
}
layer {
  name: "L2_b2_cbr1_conv"
  type: "Convolution"
  bottom: "L2_b1_concat0"
  top: "L2_b2_cbr1_conv_top"
  param {
    lr_mult: 1
    decay_mult: 1
  }
  param {
    lr_mult: 2
    decay_mult: 0
  }
  convolution_param {
    num_output: 32
    pad: 1
    kernel_size: 3
    stride: 1
    weight_filler {
      type: "msra"
    }
    bias_filler {
      type: "constant"
    }
  }
}
layer {
  name: "L2_b2_cbr1_bn"
  type: "BatchNorm"
  bottom: "L2_b2_cbr1_conv_top"
  top: "L2_b2_cbr1_bn_top"
  include {
    phase: TRAIN
  }
  batch_norm_param {
    use_global_stats: false
    moving_average_fraction: 0.95
  }
}
layer {
  name: "L2_b2_cbr1_scale"
  type: "Scale"
  bottom: "L2_b2_cbr1_bn_top"
  top: "L2_b2_cbr1_bn_top"
  scale_param {
    bias_term: true
  }
}
layer {
  name: "L2_b2_cbr1_relu"
  type: "ReLU"
  bottom: "L2_b2_cbr1_bn_top"
  top: "L2_b2_cbr1_bn_top"
}
layer {
  name: "L2_b2_cbr2_conv"
  type: "Convolution"
  bottom: "L2_b2_cbr1_bn_top"
  top: "L2_b2_cbr2_conv_top"
  param {
    lr_mult: 1
    decay_mult: 1
  }
  param {
    lr_mult: 2
    decay_mult: 0
  }
  convolution_param {
    num_output: 32
    pad: 1
    kernel_size: 3
    stride: 1
    weight_filler {
      type: "msra"
    }
    bias_filler {
      type: "constant"
    }
  }
}
layer {
  name: "L2_b2_cbr2_bn"
  type: "BatchNorm"
  bottom: "L2_b2_cbr2_conv_top"
  top: "L2_b2_cbr2_bn_top"
  include {
    phase: TRAIN
  }
  batch_norm_param {
    use_global_stats: false
    moving_average_fraction: 0.95
  }
}
layer {
  name: "L2_b2_cbr2_scale"
  type: "Scale"
  bottom: "L2_b2_cbr2_bn_top"
  top: "L2_b2_cbr2_bn_top"
  scale_param {
    bias_term: true
  }
}
layer {
  name: "L2_b2_sum_eltwise"
  type: "Eltwise"
  bottom: "L2_b2_cbr2_bn_top"
  bottom: "L2_b1_concat0"
  top: "L2_b2_sum_eltwise_top"
  eltwise_param {
    operation: SUM
  }
}
layer {
  name: "L2_b2_relu"
  type: "ReLU"
  bottom: "L2_b2_sum_eltwise_top"
  top: "L2_b2_sum_eltwise_top"
}
layer {
  name: "L2_b3_cbr1_conv"
  type: "Convolution"
  bottom: "L2_b2_sum_eltwise_top"
  top: "L2_b3_cbr1_conv_top"
  param {
    lr_mult: 1
    decay_mult: 1
  }
  param {
    lr_mult: 2
    decay_mult: 0
  }
  convolution_param {
    num_output: 32
    pad: 1
    kernel_size: 3
    stride: 1
    weight_filler {
      type: "msra"
    }
    bias_filler {
      type: "constant"
    }
  }
}
layer {
  name: "L2_b3_cbr1_bn"
  type: "BatchNorm"
  bottom: "L2_b3_cbr1_conv_top"
  top: "L2_b3_cbr1_bn_top"
  include {
    phase: TRAIN
  }
  batch_norm_param {
    use_global_stats: false
    moving_average_fraction: 0.95
  }
}
layer {
  name: "L2_b3_cbr1_scale"
  type: "Scale"
  bottom: "L2_b3_cbr1_bn_top"
  top: "L2_b3_cbr1_bn_top"
  scale_param {
    bias_term: true
  }
}
layer {
  name: "L2_b3_cbr1_relu"
  type: "ReLU"
  bottom: "L2_b3_cbr1_bn_top"
  top: "L2_b3_cbr1_bn_top"
}
layer {
  name: "L2_b3_cbr2_conv"
  type: "Convolution"
  bottom: "L2_b3_cbr1_bn_top"
  top: "L2_b3_cbr2_conv_top"
  param {
    lr_mult: 1
    decay_mult: 1
  }
  param {
    lr_mult: 2
    decay_mult: 0
  }
  convolution_param {
    num_output: 32
    pad: 1
    kernel_size: 3
    stride: 1
    weight_filler {
      type: "msra"
    }
    bias_filler {
      type: "constant"
    }
  }
}
layer {
  name: "L2_b3_cbr2_bn"
  type: "BatchNorm"
  bottom: "L2_b3_cbr2_conv_top"
  top: "L2_b3_cbr2_bn_top"
  include {
    phase: TRAIN
  }
  batch_norm_param {
    use_global_stats: false
    moving_average_fraction: 0.95
  }
}
layer {
  name: "L2_b3_cbr2_scale"
  type: "Scale"
  bottom: "L2_b3_cbr2_bn_top"
  top: "L2_b3_cbr2_bn_top"
  scale_param {
    bias_term: true
  }
}
layer {
  name: "L2_b3_sum_eltwise"
  type: "Eltwise"
  bottom: "L2_b3_cbr2_bn_top"
  bottom: "L2_b2_sum_eltwise_top"
  top: "L2_b3_sum_eltwise_top"
  eltwise_param {
    operation: SUM
  }
}
layer {
  name: "L2_b3_relu"
  type: "ReLU"
  bottom: "L2_b3_sum_eltwise_top"
  top: "L2_b3_sum_eltwise_top"
}
layer {
  name: "L2_b4_cbr1_conv"
  type: "Convolution"
  bottom: "L2_b3_sum_eltwise_top"
  top: "L2_b4_cbr1_conv_top"
  param {
    lr_mult: 1
    decay_mult: 1
  }
  param {
    lr_mult: 2
    decay_mult: 0
  }
  convolution_param {
    num_output: 32
    pad: 1
    kernel_size: 3
    stride: 1
    weight_filler {
      type: "msra"
    }
    bias_filler {
      type: "constant"
    }
  }
}
layer {
  name: "L2_b4_cbr1_bn"
  type: "BatchNorm"
  bottom: "L2_b4_cbr1_conv_top"
  top: "L2_b4_cbr1_bn_top"
  include {
    phase: TRAIN
  }
  batch_norm_param {
    use_global_stats: false
    moving_average_fraction: 0.95
  }
}
layer {
  name: "L2_b4_cbr1_scale"
  type: "Scale"
  bottom: "L2_b4_cbr1_bn_top"
  top: "L2_b4_cbr1_bn_top"
  scale_param {
    bias_term: true
  }
}
layer {
  name: "L2_b4_cbr1_relu"
  type: "ReLU"
  bottom: "L2_b4_cbr1_bn_top"
  top: "L2_b4_cbr1_bn_top"
}
layer {
  name: "L2_b4_cbr2_conv"
  type: "Convolution"
  bottom: "L2_b4_cbr1_bn_top"
  top: "L2_b4_cbr2_conv_top"
  param {
    lr_mult: 1
    decay_mult: 1
  }
  param {
    lr_mult: 2
    decay_mult: 0
  }
  convolution_param {
    num_output: 32
    pad: 1
    kernel_size: 3
    stride: 1
    weight_filler {
      type: "msra"
    }
    bias_filler {
      type: "constant"
    }
  }
}
layer {
  name: "L2_b4_cbr2_bn"
  type: "BatchNorm"
  bottom: "L2_b4_cbr2_conv_top"
  top: "L2_b4_cbr2_bn_top"
  include {
    phase: TRAIN
  }
  batch_norm_param {
    use_global_stats: false
    moving_average_fraction: 0.95
  }
}
layer {
  name: "L2_b4_cbr2_scale"
  type: "Scale"
  bottom: "L2_b4_cbr2_bn_top"
  top: "L2_b4_cbr2_bn_top"
  scale_param {
    bias_term: true
  }
}
layer {
  name: "L2_b4_sum_eltwise"
  type: "Eltwise"
  bottom: "L2_b4_cbr2_bn_top"
  bottom: "L2_b3_sum_eltwise_top"
  top: "L2_b4_sum_eltwise_top"
  eltwise_param {
    operation: SUM
  }
}
layer {
  name: "L2_b4_relu"
  type: "ReLU"
  bottom: "L2_b4_sum_eltwise_top"
  top: "L2_b4_sum_eltwise_top"
}
layer {
  name: "L2_b5_cbr1_conv"
  type: "Convolution"
  bottom: "L2_b4_sum_eltwise_top"
  top: "L2_b5_cbr1_conv_top"
  param {
    lr_mult: 1
    decay_mult: 1
  }
  param {
    lr_mult: 2
    decay_mult: 0
  }
  convolution_param {
    num_output: 32
    pad: 1
    kernel_size: 3
    stride: 1
    weight_filler {
      type: "msra"
    }
    bias_filler {
      type: "constant"
    }
  }
}
layer {
  name: "L2_b5_cbr1_bn"
  type: "BatchNorm"
  bottom: "L2_b5_cbr1_conv_top"
  top: "L2_b5_cbr1_bn_top"
  include {
    phase: TRAIN
  }
  batch_norm_param {
    use_global_stats: false
    moving_average_fraction: 0.95
  }
}
layer {
  name: "L2_b5_cbr1_scale"
  type: "Scale"
  bottom: "L2_b5_cbr1_bn_top"
  top: "L2_b5_cbr1_bn_top"
  scale_param {
    bias_term: true
  }
}
layer {
  name: "L2_b5_cbr1_relu"
  type: "ReLU"
  bottom: "L2_b5_cbr1_bn_top"
  top: "L2_b5_cbr1_bn_top"
}
layer {
  name: "L2_b5_cbr2_conv"
  type: "Convolution"
  bottom: "L2_b5_cbr1_bn_top"
  top: "L2_b5_cbr2_conv_top"
  param {
    lr_mult: 1
    decay_mult: 1
  }
  param {
    lr_mult: 2
    decay_mult: 0
  }
  convolution_param {
    num_output: 32
    pad: 1
    kernel_size: 3
    stride: 1
    weight_filler {
      type: "msra"
    }
    bias_filler {
      type: "constant"
    }
  }
}
layer {
  name: "L2_b5_cbr2_bn"
  type: "BatchNorm"
  bottom: "L2_b5_cbr2_conv_top"
  top: "L2_b5_cbr2_bn_top"
  include {
    phase: TRAIN
  }
  batch_norm_param {
    use_global_stats: false
    moving_average_fraction: 0.95
  }
}
layer {
  name: "L2_b5_cbr2_scale"
  type: "Scale"
  bottom: "L2_b5_cbr2_bn_top"
  top: "L2_b5_cbr2_bn_top"
  scale_param {
    bias_term: true
  }
}
layer {
  name: "L2_b5_sum_eltwise"
  type: "Eltwise"
  bottom: "L2_b5_cbr2_bn_top"
  bottom: "L2_b4_sum_eltwise_top"
  top: "L2_b5_sum_eltwise_top"
  eltwise_param {
    operation: SUM
  }
}
layer {
  name: "L2_b5_relu"
  type: "ReLU"
  bottom: "L2_b5_sum_eltwise_top"
  top: "L2_b5_sum_eltwise_top"
}
layer {
  name: "L2_b6_cbr1_conv"
  type: "Convolution"
  bottom: "L2_b5_sum_eltwise_top"
  top: "L2_b6_cbr1_conv_top"
  param {
    lr_mult: 1
    decay_mult: 1
  }
  param {
    lr_mult: 2
    decay_mult: 0
  }
  convolution_param {
    num_output: 32
    pad: 1
    kernel_size: 3
    stride: 1
    weight_filler {
      type: "msra"
    }
    bias_filler {
      type: "constant"
    }
  }
}
layer {
  name: "L2_b6_cbr1_bn"
  type: "BatchNorm"
  bottom: "L2_b6_cbr1_conv_top"
  top: "L2_b6_cbr1_bn_top"
  include {
    phase: TRAIN
  }
  batch_norm_param {
    use_global_stats: false
    moving_average_fraction: 0.95
  }
}
layer {
  name: "L2_b6_c
I1212 06:17:46.351063 18921 layer_factory.hpp:77] Creating layer dataLayer
I1212 06:17:46.352265 18921 net.cpp:100] Creating Layer dataLayer
I1212 06:17:46.352303 18921 net.cpp:408] dataLayer -> data_top
I1212 06:17:46.352545 18921 net.cpp:408] dataLayer -> label
I1212 06:17:46.352660 18921 data_transformer.cpp:25] Loading mean file from: examples/cifar10/mean.binaryproto
I1212 06:17:46.400148 18927 db_lmdb.cpp:35] Opened lmdb examples/cifar10/cifar10_train_lmdb
I1212 06:17:46.452164 18921 data_layer.cpp:41] output data size: 125,3,32,32
I1212 06:17:46.459944 18921 net.cpp:150] Setting up dataLayer
I1212 06:17:46.460032 18921 net.cpp:157] Top shape: 125 3 32 32 (384000)
I1212 06:17:46.460053 18921 net.cpp:157] Top shape: 125 (125)
I1212 06:17:46.460063 18921 net.cpp:165] Memory required for data: 1536500
I1212 06:17:46.460088 18921 layer_factory.hpp:77] Creating layer label_dataLayer_1_split
I1212 06:17:46.460114 18921 net.cpp:100] Creating Layer label_dataLayer_1_split
I1212 06:17:46.460129 18921 net.cpp:434] label_dataLayer_1_split <- label
I1212 06:17:46.460161 18921 net.cpp:408] label_dataLayer_1_split -> label_dataLayer_1_split_0
I1212 06:17:46.460191 18921 net.cpp:408] label_dataLayer_1_split -> label_dataLayer_1_split_1
I1212 06:17:46.460302 18921 net.cpp:150] Setting up label_dataLayer_1_split
I1212 06:17:46.460322 18921 net.cpp:157] Top shape: 125 (125)
I1212 06:17:46.460335 18921 net.cpp:157] Top shape: 125 (125)
I1212 06:17:46.460345 18921 net.cpp:165] Memory required for data: 1537500
I1212 06:17:46.460355 18921 layer_factory.hpp:77] Creating layer pre_conv
I1212 06:17:46.460405 18921 net.cpp:100] Creating Layer pre_conv
I1212 06:17:46.460419 18921 net.cpp:434] pre_conv <- data_top
I1212 06:17:46.460441 18921 net.cpp:408] pre_conv -> pre_conv_top
I1212 06:17:46.462131 18921 net.cpp:150] Setting up pre_conv
I1212 06:17:46.462154 18921 net.cpp:157] Top shape: 125 16 32 32 (2048000)
I1212 06:17:46.462165 18921 net.cpp:165] Memory required for data: 9729500
I1212 06:17:46.462328 18921 layer_factory.hpp:77] Creating layer pre_bn
I1212 06:17:46.462419 18921 net.cpp:100] Creating Layer pre_bn
I1212 06:17:46.462436 18921 net.cpp:434] pre_bn <- pre_conv_top
I1212 06:17:46.462453 18921 net.cpp:408] pre_bn -> pre_bn_top
I1212 06:17:46.462824 18921 net.cpp:150] Setting up pre_bn
I1212 06:17:46.462846 18921 net.cpp:157] Top shape: 125 16 32 32 (2048000)
I1212 06:17:46.462857 18921 net.cpp:165] Memory required for data: 17921500
I1212 06:17:46.462887 18921 layer_factory.hpp:77] Creating layer pre_scale
I1212 06:17:46.462963 18921 net.cpp:100] Creating Layer pre_scale
I1212 06:17:46.462980 18921 net.cpp:434] pre_scale <- pre_bn_top
I1212 06:17:46.462994 18921 net.cpp:395] pre_scale -> pre_bn_top (in-place)
I1212 06:17:46.463372 18921 layer_factory.hpp:77] Creating layer pre_scale
I1212 06:17:46.465302 18921 net.cpp:150] Setting up pre_scale
I1212 06:17:46.465324 18921 net.cpp:157] Top shape: 125 16 32 32 (2048000)
I1212 06:17:46.465334 18921 net.cpp:165] Memory required for data: 26113500
I1212 06:17:46.465354 18921 layer_factory.hpp:77] Creating layer pre_relu
I1212 06:17:46.465438 18921 net.cpp:100] Creating Layer pre_relu
I1212 06:17:46.465453 18921 net.cpp:434] pre_relu <- pre_bn_top
I1212 06:17:46.465474 18921 net.cpp:395] pre_relu -> pre_bn_top (in-place)
I1212 06:17:46.465495 18921 net.cpp:150] Setting up pre_relu
I1212 06:17:46.465510 18921 net.cpp:157] Top shape: 125 16 32 32 (2048000)
I1212 06:17:46.465519 18921 net.cpp:165] Memory required for data: 34305500
I1212 06:17:46.465530 18921 layer_factory.hpp:77] Creating layer pre_bn_top_pre_relu_0_split
I1212 06:17:46.465545 18921 net.cpp:100] Creating Layer pre_bn_top_pre_relu_0_split
I1212 06:17:46.465555 18921 net.cpp:434] pre_bn_top_pre_relu_0_split <- pre_bn_top
I1212 06:17:46.465574 18921 net.cpp:408] pre_bn_top_pre_relu_0_split -> pre_bn_top_pre_relu_0_split_0
I1212 06:17:46.465595 18921 net.cpp:408] pre_bn_top_pre_relu_0_split -> pre_bn_top_pre_relu_0_split_1
I1212 06:17:46.465675 18921 net.cpp:150] Setting up pre_bn_top_pre_relu_0_split
I1212 06:17:46.465697 18921 net.cpp:157] Top shape: 125 16 32 32 (2048000)
I1212 06:17:46.465710 18921 net.cpp:157] Top shape: 125 16 32 32 (2048000)
I1212 06:17:46.465719 18921 net.cpp:165] Memory required for data: 50689500
I1212 06:17:46.465730 18921 layer_factory.hpp:77] Creating layer L1_b1_cbr1_conv
I1212 06:17:46.465751 18921 net.cpp:100] Creating Layer L1_b1_cbr1_conv
I1212 06:17:46.465764 18921 net.cpp:434] L1_b1_cbr1_conv <- pre_bn_top_pre_relu_0_split_0
I1212 06:17:46.465790 18921 net.cpp:408] L1_b1_cbr1_conv -> L1_b1_cbr1_conv_top
I1212 06:17:46.466166 18921 net.cpp:150] Setting up L1_b1_cbr1_conv
I1212 06:17:46.466187 18921 net.cpp:157] Top shape: 125 16 32 32 (2048000)
I1212 06:17:46.466195 18921 net.cpp:165] Memory required for data: 58881500
I1212 06:17:46.466217 18921 layer_factory.hpp:77] Creating layer L1_b1_cbr1_bn
I1212 06:17:46.466243 18921 net.cpp:100] Creating Layer L1_b1_cbr1_bn
I1212 06:17:46.466255 18921 net.cpp:434] L1_b1_cbr1_bn <- L1_b1_cbr1_conv_top
I1212 06:17:46.466271 18921 net.cpp:408] L1_b1_cbr1_bn -> L1_b1_cbr1_bn_top
I1212 06:17:46.466550 18921 net.cpp:150] Setting up L1_b1_cbr1_bn
I1212 06:17:46.466573 18921 net.cpp:157] Top shape: 125 16 32 32 (2048000)
I1212 06:17:46.466584 18921 net.cpp:165] Memory required for data: 67073500
I1212 06:17:46.466605 18921 layer_factory.hpp:77] Creating layer L1_b1_cbr1_scale
I1212 06:17:46.466622 18921 net.cpp:100] Creating Layer L1_b1_cbr1_scale
I1212 06:17:46.466634 18921 net.cpp:434] L1_b1_cbr1_scale <- L1_b1_cbr1_bn_top
I1212 06:17:46.466650 18921 net.cpp:395] L1_b1_cbr1_scale -> L1_b1_cbr1_bn_top (in-place)
I1212 06:17:46.466737 18921 layer_factory.hpp:77] Creating layer L1_b1_cbr1_scale
I1212 06:17:46.466913 18921 net.cpp:150] Setting up L1_b1_cbr1_scale
I1212 06:17:46.466933 18921 net.cpp:157] Top shape: 125 16 32 32 (2048000)
I1212 06:17:46.466943 18921 net.cpp:165] Memory required for data: 75265500
I1212 06:17:46.466960 18921 layer_factory.hpp:77] Creating layer L1_b1_cbr1_relu
I1212 06:17:46.466976 18921 net.cpp:100] Creating Layer L1_b1_cbr1_relu
I1212 06:17:46.466996 18921 net.cpp:434] L1_b1_cbr1_relu <- L1_b1_cbr1_bn_top
I1212 06:17:46.467017 18921 net.cpp:395] L1_b1_cbr1_relu -> L1_b1_cbr1_bn_top (in-place)
I1212 06:17:46.467037 18921 net.cpp:150] Setting up L1_b1_cbr1_relu
I1212 06:17:46.467241 18921 net.cpp:157] Top shape: 125 16 32 32 (2048000)
I1212 06:17:46.467250 18921 net.cpp:165] Memory required for data: 83457500
I1212 06:17:46.467262 18921 layer_factory.hpp:77] Creating layer L1_b1_cbr2_conv
I1212 06:17:46.467283 18921 net.cpp:100] Creating Layer L1_b1_cbr2_conv
I1212 06:17:46.467294 18921 net.cpp:434] L1_b1_cbr2_conv <- L1_b1_cbr1_bn_top
I1212 06:17:46.467320 18921 net.cpp:408] L1_b1_cbr2_conv -> L1_b1_cbr2_conv_top
I1212 06:17:46.467734 18921 net.cpp:150] Setting up L1_b1_cbr2_conv
I1212 06:17:46.467754 18921 net.cpp:157] Top shape: 125 16 32 32 (2048000)
I1212 06:17:46.467763 18921 net.cpp:165] Memory required for data: 91649500
I1212 06:17:46.467782 18921 layer_factory.hpp:77] Creating layer L1_b1_cbr2_bn
I1212 06:17:46.467799 18921 net.cpp:100] Creating Layer L1_b1_cbr2_bn
I1212 06:17:46.467810 18921 net.cpp:434] L1_b1_cbr2_bn <- L1_b1_cbr2_conv_top
I1212 06:17:46.467831 18921 net.cpp:408] L1_b1_cbr2_bn -> L1_b1_cbr2_bn_top
I1212 06:17:46.468113 18921 net.cpp:150] Setting up L1_b1_cbr2_bn
I1212 06:17:46.468137 18921 net.cpp:157] Top shape: 125 16 32 32 (2048000)
I1212 06:17:46.468147 18921 net.cpp:165] Memory required for data: 99841500
I1212 06:17:46.468175 18921 layer_factory.hpp:77] Creating layer L1_b1_cbr2_scale
I1212 06:17:46.468194 18921 net.cpp:100] Creating Layer L1_b1_cbr2_scale
I1212 06:17:46.468204 18921 net.cpp:434] L1_b1_cbr2_scale <- L1_b1_cbr2_bn_top
I1212 06:17:46.468220 18921 net.cpp:395] L1_b1_cbr2_scale -> L1_b1_cbr2_bn_top (in-place)
I1212 06:17:46.468310 18921 layer_factory.hpp:77] Creating layer L1_b1_cbr2_scale
I1212 06:17:46.468492 18921 net.cpp:150] Setting up L1_b1_cbr2_scale
I1212 06:17:46.468511 18921 net.cpp:157] Top shape: 125 16 32 32 (2048000)
I1212 06:17:46.468520 18921 net.cpp:165] Memory required for data: 108033500
I1212 06:17:46.468539 18921 layer_factory.hpp:77] Creating layer L1_b1_sum_eltwise
I1212 06:17:46.468564 18921 net.cpp:100] Creating Layer L1_b1_sum_eltwise
I1212 06:17:46.468575 18921 net.cpp:434] L1_b1_sum_eltwise <- L1_b1_cbr2_bn_top
I1212 06:17:46.468587 18921 net.cpp:434] L1_b1_sum_eltwise <- pre_bn_top_pre_relu_0_split_1
I1212 06:17:46.468608 18921 net.cpp:408] L1_b1_sum_eltwise -> L1_b1_sum_eltwise_top
I1212 06:17:46.468720 18921 net.cpp:150] Setting up L1_b1_sum_eltwise
I1212 06:17:46.468740 18921 net.cpp:157] Top shape: 125 16 32 32 (2048000)
I1212 06:17:46.468750 18921 net.cpp:165] Memory required for data: 116225500
I1212 06:17:46.468767 18921 layer_factory.hpp:77] Creating layer L1_b1_relu
I1212 06:17:46.468788 18921 net.cpp:100] Creating Layer L1_b1_relu
I1212 06:17:46.468799 18921 net.cpp:434] L1_b1_relu <- L1_b1_sum_eltwise_top
I1212 06:17:46.468816 18921 net.cpp:395] L1_b1_relu -> L1_b1_sum_eltwise_top (in-place)
I1212 06:17:46.468833 18921 net.cpp:150] Setting up L1_b1_relu
I1212 06:17:46.468847 18921 net.cpp:157] Top shape: 125 16 32 32 (2048000)
I1212 06:17:46.468857 18921 net.cpp:165] Memory required for data: 124417500
I1212 06:17:46.468868 18921 layer_factory.hpp:77] Creating layer L1_b1_sum_eltwise_top_L1_b1_relu_0_split
I1212 06:17:46.468885 18921 net.cpp:100] Creating Layer L1_b1_sum_eltwise_top_L1_b1_relu_0_split
I1212 06:17:46.468895 18921 net.cpp:434] L1_b1_sum_eltwise_top_L1_b1_relu_0_split <- L1_b1_sum_eltwise_top
I1212 06:17:46.468911 18921 net.cpp:408] L1_b1_sum_eltwise_top_L1_b1_relu_0_split -> L1_b1_sum_eltwise_top_L1_b1_relu_0_split_0
I1212 06:17:46.468930 18921 net.cpp:408] L1_b1_sum_eltwise_top_L1_b1_relu_0_split -> L1_b1_sum_eltwise_top_L1_b1_relu_0_split_1
I1212 06:17:46.469008 18921 net.cpp:150] Setting up L1_b1_sum_eltwise_top_L1_b1_relu_0_split
I1212 06:17:46.469032 18921 net.cpp:157] Top shape: 125 16 32 32 (2048000)
I1212 06:17:46.469043 18921 net.cpp:157] Top shape: 125 16 32 32 (2048000)
I1212 06:17:46.469053 18921 net.cpp:165] Memory required for data: 140801500
I1212 06:17:46.469074 18921 layer_factory.hpp:77] Creating layer L1_b2_cbr1_conv
I1212 06:17:46.469099 18921 net.cpp:100] Creating Layer L1_b2_cbr1_conv
I1212 06:17:46.469113 18921 net.cpp:434] L1_b2_cbr1_conv <- L1_b1_sum_eltwise_top_L1_b1_relu_0_split_0
I1212 06:17:46.469132 18921 net.cpp:408] L1_b2_cbr1_conv -> L1_b2_cbr1_conv_top
I1212 06:17:46.469491 18921 net.cpp:150] Setting up L1_b2_cbr1_conv
I1212 06:17:46.469511 18921 net.cpp:157] Top shape: 125 16 32 32 (2048000)
I1212 06:17:46.469521 18921 net.cpp:165] Memory required for data: 148993500
I1212 06:17:46.469538 18921 layer_factory.hpp:77] Creating layer L1_b2_cbr1_bn
I1212 06:17:46.469560 18921 net.cpp:100] Creating Layer L1_b2_cbr1_bn
I1212 06:17:46.469573 18921 net.cpp:434] L1_b2_cbr1_bn <- L1_b2_cbr1_conv_top
I1212 06:17:46.469595 18921 net.cpp:408] L1_b2_cbr1_bn -> L1_b2_cbr1_bn_top
I1212 06:17:46.469872 18921 net.cpp:150] Setting up L1_b2_cbr1_bn
I1212 06:17:46.469892 18921 net.cpp:157] Top shape: 125 16 32 32 (2048000)
I1212 06:17:46.469902 18921 net.cpp:165] Memory required for data: 157185500
I1212 06:17:46.469923 18921 layer_factory.hpp:77] Creating layer L1_b2_cbr1_scale
I1212 06:17:46.469939 18921 net.cpp:100] Creating Layer L1_b2_cbr1_scale
I1212 06:17:46.469950 18921 net.cpp:434] L1_b2_cbr1_scale <- L1_b2_cbr1_bn_top
I1212 06:17:46.469969 18921 net.cpp:395] L1_b2_cbr1_scale -> L1_b2_cbr1_bn_top (in-place)
I1212 06:17:46.470057 18921 layer_factory.hpp:77] Creating layer L1_b2_cbr1_scale
I1212 06:17:46.470237 18921 net.cpp:150] Setting up L1_b2_cbr1_scale
I1212 06:17:46.470268 18921 net.cpp:157] Top shape: 125 16 32 32 (2048000)
I1212 06:17:46.470278 18921 net.cpp:165] Memory required for data: 165377500
I1212 06:17:46.470299 18921 layer_factory.hpp:77] Creating layer L1_b2_cbr1_relu
I1212 06:17:46.470314 18921 net.cpp:100] Creating Layer L1_b2_cbr1_relu
I1212 06:17:46.470324 18921 net.cpp:434] L1_b2_cbr1_relu <- L1_b2_cbr1_bn_top
I1212 06:17:46.470337 18921 net.cpp:395] L1_b2_cbr1_relu -> L1_b2_cbr1_bn_top (in-place)
I1212 06:17:46.470355 18921 net.cpp:150] Setting up L1_b2_cbr1_relu
I1212 06:17:46.470378 18921 net.cpp:157] Top shape: 125 16 32 32 (2048000)
I1212 06:17:46.470388 18921 net.cpp:165] Memory required for data: 173569500
I1212 06:17:46.470398 18921 layer_factory.hpp:77] Creating layer L1_b2_cbr2_conv
I1212 06:17:46.470427 18921 net.cpp:100] Creating Layer L1_b2_cbr2_conv
I1212 06:17:46.470440 18921 net.cpp:434] L1_b2_cbr2_conv <- L1_b2_cbr1_bn_top
I1212 06:17:46.470463 18921 net.cpp:408] L1_b2_cbr2_conv -> L1_b2_cbr2_conv_top
I1212 06:17:46.470818 18921 net.cpp:150] Setting up L1_b2_cbr2_conv
I1212 06:17:46.470836 18921 net.cpp:157] Top shape: 125 16 32 32 (2048000)
I1212 06:17:46.470845 18921 net.cpp:165] Memory required for data: 181761500
I1212 06:17:46.470863 18921 layer_factory.hpp:77] Creating layer L1_b2_cbr2_bn
I1212 06:17:46.470885 18921 net.cpp:100] Creating Layer L1_b2_cbr2_bn
I1212 06:17:46.470897 18921 net.cpp:434] L1_b2_cbr2_bn <- L1_b2_cbr2_conv_top
I1212 06:17:46.470917 18921 net.cpp:408] L1_b2_cbr2_bn -> L1_b2_cbr2_bn_top
I1212 06:17:46.471189 18921 net.cpp:150] Setting up L1_b2_cbr2_bn
I1212 06:17:46.471207 18921 net.cpp:157] Top shape: 125 16 32 32 (2048000)
I1212 06:17:46.471216 18921 net.cpp:165] Memory required for data: 189953500
I1212 06:17:46.471246 18921 layer_factory.hpp:77] Creating layer L1_b2_cbr2_scale
I1212 06:17:46.471271 18921 net.cpp:100] Creating Layer L1_b2_cbr2_scale
I1212 06:17:46.471283 18921 net.cpp:434] L1_b2_cbr2_scale <- L1_b2_cbr2_bn_top
I1212 06:17:46.471299 18921 net.cpp:395] L1_b2_cbr2_scale -> L1_b2_cbr2_bn_top (in-place)
I1212 06:17:46.471403 18921 layer_factory.hpp:77] Creating layer L1_b2_cbr2_scale
I1212 06:17:46.471582 18921 net.cpp:150] Setting up L1_b2_cbr2_scale
I1212 06:17:46.471601 18921 net.cpp:157] Top shape: 125 16 32 32 (2048000)
I1212 06:17:46.471611 18921 net.cpp:165] Memory required for data: 198145500
I1212 06:17:46.471629 18921 layer_factory.hpp:77] Creating layer L1_b2_sum_eltwise
I1212 06:17:46.471645 18921 net.cpp:100] Creating Layer L1_b2_sum_eltwise
I1212 06:17:46.471668 18921 net.cpp:434] L1_b2_sum_eltwise <- L1_b2_cbr2_bn_top
I1212 06:17:46.471680 18921 net.cpp:434] L1_b2_sum_eltwise <- L1_b1_sum_eltwise_top_L1_b1_relu_0_split_1
I1212 06:17:46.471700 18921 net.cpp:408] L1_b2_sum_eltwise -> L1_b2_sum_eltwise_top
I1212 06:17:46.471760 18921 net.cpp:150] Setting up L1_b2_sum_eltwise
I1212 06:17:46.471778 18921 net.cpp:157] Top shape: 125 16 32 32 (2048000)
I1212 06:17:46.471788 18921 net.cpp:165] Memory required for data: 206337500
I1212 06:17:46.471799 18921 layer_factory.hpp:77] Creating layer L1_b2_relu
I1212 06:17:46.471813 18921 net.cpp:100] Creating Layer L1_b2_relu
I1212 06:17:46.471823 18921 net.cpp:434] L1_b2_relu <- L1_b2_sum_eltwise_top
I1212 06:17:46.471843 18921 net.cpp:395] L1_b2_relu -> L1_b2_sum_eltwise_top (in-place)
I1212 06:17:46.471861 18921 net.cpp:150] Setting up L1_b2_relu
I1212 06:17:46.471876 18921 net.cpp:157] Top shape: 125 16 32 32 (2048000)
I1212 06:17:46.471886 18921 net.cpp:165] Memory required for data: 214529500
I1212 06:17:46.471896 18921 layer_factory.hpp:77] Creating layer L1_b2_sum_eltwise_top_L1_b2_relu_0_split
I1212 06:17:46.471910 18921 net.cpp:100] Creating Layer L1_b2_sum_eltwise_top_L1_b2_relu_0_split
I1212 06:17:46.471921 18921 net.cpp:434] L1_b2_sum_eltwise_top_L1_b2_relu_0_split <- L1_b2_sum_eltwise_top
I1212 06:17:46.471935 18921 net.cpp:408] L1_b2_sum_eltwise_top_L1_b2_relu_0_split -> L1_b2_sum_eltwise_top_L1_b2_relu_0_split_0
I1212 06:17:46.471954 18921 net.cpp:408] L1_b2_sum_eltwise_top_L1_b2_relu_0_split -> L1_b2_sum_eltwise_top_L1_b2_relu_0_split_1
I1212 06:17:46.472034 18921 net.cpp:150] Setting up L1_b2_sum_eltwise_top_L1_b2_relu_0_split
I1212 06:17:46.472054 18921 net.cpp:157] Top shape: 125 16 32 32 (2048000)
I1212 06:17:46.472067 18921 net.cpp:157] Top shape: 125 16 32 32 (2048000)
I1212 06:17:46.472076 18921 net.cpp:165] Memory required for data: 230913500
I1212 06:17:46.472086 18921 layer_factory.hpp:77] Creating layer L1_b3_cbr1_conv
I1212 06:17:46.472108 18921 net.cpp:100] Creating Layer L1_b3_cbr1_conv
I1212 06:17:46.472120 18921 net.cpp:434] L1_b3_cbr1_conv <- L1_b2_sum_eltwise_top_L1_b2_relu_0_split_0
I1212 06:17:46.472144 18921 net.cpp:408] L1_b3_cbr1_conv -> L1_b3_cbr1_conv_top
I1212 06:17:46.472499 18921 net.cpp:150] Setting up L1_b3_cbr1_conv
I1212 06:17:46.472519 18921 net.cpp:157] Top shape: 125 16 32 32 (2048000)
I1212 06:17:46.472528 18921 net.cpp:165] Memory required for data: 239105500
I1212 06:17:46.472546 18921 layer_factory.hpp:77] Creating layer L1_b3_cbr1_bn
I1212 06:17:46.472564 18921 net.cpp:100] Creating Layer L1_b3_cbr1_bn
I1212 06:17:46.472576 18921 net.cpp:434] L1_b3_cbr1_bn <- L1_b3_cbr1_conv_top
I1212 06:17:46.472596 18921 net.cpp:408] L1_b3_cbr1_bn -> L1_b3_cbr1_bn_top
I1212 06:17:46.472875 18921 net.cpp:150] Setting up L1_b3_cbr1_bn
I1212 06:17:46.472895 18921 net.cpp:157] Top shape: 125 16 32 32 (2048000)
I1212 06:17:46.472904 18921 net.cpp:165] Memory required for data: 247297500
I1212 06:17:46.472925 18921 layer_factory.hpp:77] Creating layer L1_b3_cbr1_scale
I1212 06:17:46.472945 18921 net.cpp:100] Creating Layer L1_b3_cbr1_scale
I1212 06:17:46.472957 18921 net.cpp:434] L1_b3_cbr1_scale <- L1_b3_cbr1_bn_top
I1212 06:17:46.472972 18921 net.cpp:395] L1_b3_cbr1_scale -> L1_b3_cbr1_bn_top (in-place)
I1212 06:17:46.473062 18921 layer_factory.hpp:77] Creating layer L1_b3_cbr1_scale
I1212 06:17:46.473244 18921 net.cpp:150] Setting up L1_b3_cbr1_scale
I1212 06:17:46.473264 18921 net.cpp:157] Top shape: 125 16 32 32 (2048000)
I1212 06:17:46.473273 18921 net.cpp:165] Memory required for data: 255489500
I1212 06:17:46.473292 18921 layer_factory.hpp:77] Creating layer L1_b3_cbr1_relu
I1212 06:17:46.473307 18921 net.cpp:100] Creating Layer L1_b3_cbr1_relu
I1212 06:17:46.473318 18921 net.cpp:434] L1_b3_cbr1_relu <- L1_b3_cbr1_bn_top
I1212 06:17:46.473337 18921 net.cpp:395] L1_b3_cbr1_relu -> L1_b3_cbr1_bn_top (in-place)
I1212 06:17:46.473357 18921 net.cpp:150] Setting up L1_b3_cbr1_relu
I1212 06:17:46.473383 18921 net.cpp:157] Top shape: 125 16 32 32 (2048000)
I1212 06:17:46.473403 18921 net.cpp:165] Memory required for data: 263681500
I1212 06:17:46.473414 18921 layer_factory.hpp:77] Creating layer L1_b3_cbr2_conv
I1212 06:17:46.473440 18921 net.cpp:100] Creating Layer L1_b3_cbr2_conv
I1212 06:17:46.473453 18921 net.cpp:434] L1_b3_cbr2_conv <- L1_b3_cbr1_bn_top
I1212 06:17:46.473475 18921 net.cpp:408] L1_b3_cbr2_conv -> L1_b3_cbr2_conv_top
I1212 06:17:46.473824 18921 net.cpp:150] Setting up L1_b3_cbr2_conv
I1212 06:17:46.473845 18921 net.cpp:157] Top shape: 125 16 32 32 (2048000)
I1212 06:17:46.473853 18921 net.cpp:165] Memory required for data: 271873500
I1212 06:17:46.473871 18921 layer_factory.hpp:77] Creating layer L1_b3_cbr2_bn
I1212 06:17:46.473892 18921 net.cpp:100] Creating Layer L1_b3_cbr2_bn
I1212 06:17:46.473903 18921 net.cpp:434] L1_b3_cbr2_bn <- L1_b3_cbr2_conv_top
I1212 06:17:46.473924 18921 net.cpp:408] L1_b3_cbr2_bn -> L1_b3_cbr2_bn_top
I1212 06:17:46.474200 18921 net.cpp:150] Setting up L1_b3_cbr2_bn
I1212 06:17:46.474218 18921 net.cpp:157] Top shape: 125 16 32 32 (2048000)
I1212 06:17:46.474228 18921 net.cpp:165] Memory required for data: 280065500
I1212 06:17:46.474249 18921 layer_factory.hpp:77] Creating layer L1_b3_cbr2_scale
I1212 06:17:46.474277 18921 net.cpp:100] Creating Layer L1_b3_cbr2_scale
I1212 06:17:46.474290 18921 net.cpp:434] L1_b3_cbr2_scale <- L1_b3_cbr2_bn_top
I1212 06:17:46.474306 18921 net.cpp:395] L1_b3_cbr2_scale -> L1_b3_cbr2_bn_top (in-place)
I1212 06:17:46.474396 18921 layer_factory.hpp:77] Creating layer L1_b3_cbr2_scale
I1212 06:17:46.474575 18921 net.cpp:150] Setting up L1_b3_cbr2_scale
I1212 06:17:46.474594 18921 net.cpp:157] Top shape: 125 16 32 32 (2048000)
I1212 06:17:46.474603 18921 net.cpp:165] Memory required for data: 288257500
I1212 06:17:46.474622 18921 layer_factory.hpp:77] Creating layer L1_b3_sum_eltwise
I1212 06:17:46.474643 18921 net.cpp:100] Creating Layer L1_b3_sum_eltwise
I1212 06:17:46.474655 18921 net.cpp:434] L1_b3_sum_eltwise <- L1_b3_cbr2_bn_top
I1212 06:17:46.474668 18921 net.cpp:434] L1_b3_sum_eltwise <- L1_b2_sum_eltwise_top_L1_b2_relu_0_split_1
I1212 06:17:46.474684 18921 net.cpp:408] L1_b3_sum_eltwise -> L1_b3_sum_eltwise_top
I1212 06:17:46.474742 18921 net.cpp:150] Setting up L1_b3_sum_eltwise
I1212 06:17:46.474762 18921 net.cpp:157] Top shape: 125 16 32 32 (2048000)
I1212 06:17:46.474771 18921 net.cpp:165] Memory required for data: 296449500
I1212 06:17:46.474781 18921 layer_factory.hpp:77] Creating layer L1_b3_relu
I1212 06:17:46.474795 18921 net.cpp:100] Creating Layer L1_b3_relu
I1212 06:17:46.474805 18921 net.cpp:434] L1_b3_relu <- L1_b3_sum_eltwise_top
I1212 06:17:46.474824 18921 net.cpp:395] L1_b3_relu -> L1_b3_sum_eltwise_top (in-place)
I1212 06:17:46.474843 18921 net.cpp:150] Setting up L1_b3_relu
I1212 06:17:46.474858 18921 net.cpp:157] Top shape: 125 16 32 32 (2048000)
I1212 06:17:46.474866 18921 net.cpp:165] Memory required for data: 304641500
I1212 06:17:46.474876 18921 layer_factory.hpp:77] Creating layer L1_b3_sum_eltwise_top_L1_b3_relu_0_split
I1212 06:17:46.474890 18921 net.cpp:100] Creating Layer L1_b3_sum_eltwise_top_L1_b3_relu_0_split
I1212 06:17:46.474900 18921 net.cpp:434] L1_b3_sum_eltwise_top_L1_b3_relu_0_split <- L1_b3_sum_eltwise_top
I1212 06:17:46.474915 18921 net.cpp:408] L1_b3_sum_eltwise_top_L1_b3_relu_0_split -> L1_b3_sum_eltwise_top_L1_b3_relu_0_split_0
I1212 06:17:46.474933 18921 net.cpp:408] L1_b3_sum_eltwise_top_L1_b3_relu_0_split -> L1_b3_sum_eltwise_top_L1_b3_relu_0_split_1
I1212 06:17:46.475013 18921 net.cpp:150] Setting up L1_b3_sum_eltwise_top_L1_b3_relu_0_split
I1212 06:17:46.475030 18921 net.cpp:157] Top shape: 125 16 32 32 (2048000)
I1212 06:17:46.475044 18921 net.cpp:157] Top shape: 125 16 32 32 (2048000)
I1212 06:17:46.475054 18921 net.cpp:165] Memory required for data: 321025500
I1212 06:17:46.475064 18921 layer_factory.hpp:77] Creating layer L1_b4_cbr1_conv
I1212 06:17:46.475083 18921 net.cpp:100] Creating Layer L1_b4_cbr1_conv
I1212 06:17:46.475095 18921 net.cpp:434] L1_b4_cbr1_conv <- L1_b3_sum_eltwise_top_L1_b3_relu_0_split_0
I1212 06:17:46.475121 18921 net.cpp:408] L1_b4_cbr1_conv -> L1_b4_cbr1_conv_top
I1212 06:17:46.475515 18921 net.cpp:150] Setting up L1_b4_cbr1_conv
I1212 06:17:46.475535 18921 net.cpp:157] Top shape: 125 16 32 32 (2048000)
I1212 06:17:46.475544 18921 net.cpp:165] Memory required for data: 329217500
I1212 06:17:46.475563 18921 layer_factory.hpp:77] Creating layer L1_b4_cbr1_bn
I1212 06:17:46.475579 18921 net.cpp:100] Creating Layer L1_b4_cbr1_bn
I1212 06:17:46.475590 18921 net.cpp:434] L1_b4_cbr1_bn <- L1_b4_cbr1_conv_top
I1212 06:17:46.475610 18921 net.cpp:408] L1_b4_cbr1_bn -> L1_b4_cbr1_bn_top
I1212 06:17:46.475891 18921 net.cpp:150] Setting up L1_b4_cbr1_bn
I1212 06:17:46.475914 18921 net.cpp:157] Top shape: 125 16 32 32 (2048000)
I1212 06:17:46.475924 18921 net.cpp:165] Memory required for data: 337409500
I1212 06:17:46.475945 18921 layer_factory.hpp:77] Creating layer L1_b4_cbr1_scale
I1212 06:17:46.475961 18921 net.cpp:100] Creating Layer L1_b4_cbr1_scale
I1212 06:17:46.475972 18921 net.cpp:434] L1_b4_cbr1_scale <- L1_b4_cbr1_bn_top
I1212 06:17:46.475987 18921 net.cpp:395] L1_b4_cbr1_scale -> L1_b4_cbr1_bn_top (in-place)
I1212 06:17:46.476074 18921 layer_factory.hpp:77] Creating layer L1_b4_cbr1_scale
I1212 06:17:46.476260 18921 net.cpp:150] Setting up L1_b4_cbr1_scale
I1212 06:17:46.476279 18921 net.cpp:157] Top shape: 125 16 32 32 (2048000)
I1212 06:17:46.476289 18921 net.cpp:165] Memory required for data: 345601500
I1212 06:17:46.476306 18921 layer_factory.hpp:77] Creating layer L1_b4_cbr1_relu
I1212 06:17:46.476332 18921 net.cpp:100] Creating Layer L1_b4_cbr1_relu
I1212 06:17:46.476346 18921 net.cpp:434] L1_b4_cbr1_relu <- L1_b4_cbr1_bn_top
I1212 06:17:46.476366 18921 net.cpp:395] L1_b4_cbr1_relu -> L1_b4_cbr1_bn_top (in-place)
I1212 06:17:46.476387 18921 net.cpp:150] Setting up L1_b4_cbr1_relu
I1212 06:17:46.476402 18921 net.cpp:157] Top shape: 125 16 32 32 (2048000)
I1212 06:17:46.476411 18921 net.cpp:165] Memory required for data: 353793500
I1212 06:17:46.476421 18921 layer_factory.hpp:77] Creating layer L1_b4_cbr2_conv
I1212 06:17:46.476447 18921 net.cpp:100] Creating Layer L1_b4_cbr2_conv
I1212 06:17:46.476460 18921 net.cpp:434] L1_b4_cbr2_conv <- L1_b4_cbr1_bn_top
I1212 06:17:46.476481 18921 net.cpp:408] L1_b4_cbr2_conv -> L1_b4_cbr2_conv_top
I1212 06:17:46.476837 18921 net.cpp:150] Setting up L1_b4_cbr2_conv
I1212 06:17:46.476856 18921 net.cpp:157] Top shape: 125 16 32 32 (2048000)
I1212 06:17:46.476866 18921 net.cpp:165] Memory required for data: 361985500
I1212 06:17:46.476882 18921 layer_factory.hpp:77] Creating layer L1_b4_cbr2_bn
I1212 06:17:46.476899 18921 net.cpp:100] Creating Layer L1_b4_cbr2_bn
I1212 06:17:46.476910 18921 net.cpp:434] L1_b4_cbr2_bn <- L1_b4_cbr2_conv_top
I1212 06:17:46.476930 18921 net.cpp:408] L1_b4_cbr2_bn -> L1_b4_cbr2_bn_top
I1212 06:17:46.477216 18921 net.cpp:150] Setting up L1_b4_cbr2_bn
I1212 06:17:46.477236 18921 net.cpp:157] Top shape: 125 16 32 32 (2048000)
I1212 06:17:46.477244 18921 net.cpp:165] Memory required for data: 370177500
I1212 06:17:46.477270 18921 layer_factory.hpp:77] Creating layer L1_b4_cbr2_scale
I1212 06:17:46.477288 18921 net.cpp:100] Creating Layer L1_b4_cbr2_scale
I1212 06:17:46.477300 18921 net.cpp:434] L1_b4_cbr2_scale <- L1_b4_cbr2_bn_top
I1212 06:17:46.477315 18921 net.cpp:395] L1_b4_cbr2_scale -> L1_b4_cbr2_bn_top (in-place)
I1212 06:17:46.477407 18921 layer_factory.hpp:77] Creating layer L1_b4_cbr2_scale
I1212 06:17:46.477600 18921 net.cpp:150] Setting up L1_b4_cbr2_scale
I1212 06:17:46.477622 18921 net.cpp:157] Top shape: 125 16 32 32 (2048000)
I1212 06:17:46.477630 18921 net.cpp:165] Memory required for data: 378369500
I1212 06:17:46.477649 18921 layer_factory.hpp:77] Creating layer L1_b4_sum_eltwise
I1212 06:17:46.477671 18921 net.cpp:100] Creating Layer L1_b4_sum_eltwise
I1212 06:17:46.477682 18921 net.cpp:434] L1_b4_sum_eltwise <- L1_b4_cbr2_bn_top
I1212 06:17:46.477696 18921 net.cpp:434] L1_b4_sum_eltwise <- L1_b3_sum_eltwise_top_L1_b3_relu_0_split_1
I1212 06:17:46.477716 18921 net.cpp:408] L1_b4_sum_eltwise -> L1_b4_sum_eltwise_top
I1212 06:17:46.477769 18921 net.cpp:150] Setting up L1_b4_sum_eltwise
I1212 06:17:46.477797 18921 net.cpp:157] Top shape: 125 16 32 32 (2048000)
I1212 06:17:46.477809 18921 net.cpp:165] Memory required for data: 386561500
I1212 06:17:46.477820 18921 layer_factory.hpp:77] Creating layer L1_b4_relu
I1212 06:17:46.477843 18921 net.cpp:100] Creating Layer L1_b4_relu
I1212 06:17:46.477855 18921 net.cpp:434] L1_b4_relu <- L1_b4_sum_eltwise_top
I1212 06:17:46.477869 18921 net.cpp:395] L1_b4_relu -> L1_b4_sum_eltwise_top (in-place)
I1212 06:17:46.477888 18921 net.cpp:150] Setting up L1_b4_relu
I1212 06:17:46.477902 18921 net.cpp:157] Top shape: 125 16 32 32 (2048000)
I1212 06:17:46.477912 18921 net.cpp:165] Memory required for data: 394753500
I1212 06:17:46.477922 18921 layer_factory.hpp:77] Creating layer L1_b4_sum_eltwise_top_L1_b4_relu_0_split
I1212 06:17:46.477936 18921 net.cpp:100] Creating Layer L1_b4_sum_eltwise_top_L1_b4_relu_0_split
I1212 06:17:46.477946 18921 net.cpp:434] L1_b4_sum_eltwise_top_L1_b4_relu_0_split <- L1_b4_sum_eltwise_top
I1212 06:17:46.477962 18921 net.cpp:408] L1_b4_sum_eltwise_top_L1_b4_relu_0_split -> L1_b4_sum_eltwise_top_L1_b4_relu_0_split_0
I1212 06:17:46.477982 18921 net.cpp:408] L1_b4_sum_eltwise_top_L1_b4_relu_0_split -> L1_b4_sum_eltwise_top_L1_b4_relu_0_split_1
I1212 06:17:46.478062 18921 net.cpp:150] Setting up L1_b4_sum_eltwise_top_L1_b4_relu_0_split
I1212 06:17:46.478083 18921 net.cpp:157] Top shape: 125 16 32 32 (2048000)
I1212 06:17:46.478096 18921 net.cpp:157] Top shape: 125 16 32 32 (2048000)
I1212 06:17:46.478106 18921 net.cpp:165] Memory required for data: 411137500
I1212 06:17:46.478116 18921 layer_factory.hpp:77] Creating layer L1_b5_cbr1_conv
I1212 06:17:46.478142 18921 net.cpp:100] Creating Layer L1_b5_cbr1_conv
I1212 06:17:46.478153 18921 net.cpp:434] L1_b5_cbr1_conv <- L1_b4_sum_eltwise_top_L1_b4_relu_0_split_0
I1212 06:17:46.478173 18921 net.cpp:408] L1_b5_cbr1_conv -> L1_b5_cbr1_conv_top
I1212 06:17:46.478530 18921 net.cpp:150] Setting up L1_b5_cbr1_conv
I1212 06:17:46.478550 18921 net.cpp:157] Top shape: 125 16 32 32 (2048000)
I1212 06:17:46.478559 18921 net.cpp:165] Memory required for data: 419329500
I1212 06:17:46.478605 18921 layer_factory.hpp:77] Creating layer L1_b5_cbr1_bn
I1212 06:17:46.478629 18921 net.cpp:100] Creating Layer L1_b5_cbr1_bn
I1212 06:17:46.478642 18921 net.cpp:434] L1_b5_cbr1_bn <- L1_b5_cbr1_conv_top
I1212 06:17:46.478659 18921 net.cpp:408] L1_b5_cbr1_bn -> L1_b5_cbr1_bn_top
I1212 06:17:46.478945 18921 net.cpp:150] Setting up L1_b5_cbr1_bn
I1212 06:17:46.478968 18921 net.cpp:157] Top shape: 125 16 32 32 (2048000)
I1212 06:17:46.478978 18921 net.cpp:165] Memory required for data: 427521500
I1212 06:17:46.479001 18921 layer_factory.hpp:77] Creating layer L1_b5_cbr1_scale
I1212 06:17:46.479017 18921 net.cpp:100] Creating Layer L1_b5_cbr1_scale
I1212 06:17:46.479028 18921 net.cpp:434] L1_b5_cbr1_scale <- L1_b5_cbr1_bn_top
I1212 06:17:46.479043 18921 net.cpp:395] L1_b5_cbr1_scale -> L1_b5_cbr1_bn_top (in-place)
I1212 06:17:46.479131 18921 layer_factory.hpp:77] Creating layer L1_b5_cbr1_scale
I1212 06:17:46.479311 18921 net.cpp:150] Setting up L1_b5_cbr1_scale
I1212 06:17:46.479331 18921 net.cpp:157] Top shape: 125 16 32 32 (2048000)
I1212 06:17:46.479339 18921 net.cpp:165] Memory required for data: 435713500
I1212 06:17:46.479358 18921 layer_factory.hpp:77] Creating layer L1_b5_cbr1_relu
I1212 06:17:46.479385 18921 net.cpp:100] Creating Layer L1_b5_cbr1_relu
I1212 06:17:46.479398 18921 net.cpp:434] L1_b5_cbr1_relu <- L1_b5_cbr1_bn_top
I1212 06:17:46.479413 18921 net.cpp:395] L1_b5_cbr1_relu -> L1_b5_cbr1_bn_top (in-place)
I1212 06:17:46.479431 18921 net.cpp:150] Setting up L1_b5_cbr1_relu
I1212 06:17:46.479451 18921 net.cpp:157] Top shape: 125 16 32 32 (2048000)
I1212 06:17:46.479460 18921 net.cpp:165] Memory required for data: 443905500
I1212 06:17:46.479470 18921 layer_factory.hpp:77] Creating layer L1_b5_cbr2_conv
I1212 06:17:46.479491 18921 net.cpp:100] Creating Layer L1_b5_cbr2_conv
I1212 06:17:46.479503 18921 net.cpp:434] L1_b5_cbr2_conv <- L1_b5_cbr1_bn_top
I1212 06:17:46.479526 18921 net.cpp:408] L1_b5_cbr2_conv -> L1_b5_cbr2_conv_top
I1212 06:17:46.479907 18921 net.cpp:150] Setting up L1_b5_cbr2_conv
I1212 06:17:46.479928 18921 net.cpp:157] Top shape: 125 16 32 32 (2048000)
I1212 06:17:46.479938 18921 net.cpp:165] Memory required for data: 452097500
I1212 06:17:46.479954 18921 layer_factory.hpp:77] Creating layer L1_b5_cbr2_bn
I1212 06:17:46.479971 18921 net.cpp:100] Creating Layer L1_b5_cbr2_bn
I1212 06:17:46.479982 18921 net.cpp:434] L1_b5_cbr2_bn <- L1_b5_cbr2_conv_top
I1212 06:17:46.480006 18921 net.cpp:408] L1_b5_cbr2_bn -> L1_b5_cbr2_bn_top
I1212 06:17:46.480284 18921 net.cpp:150] Setting up L1_b5_cbr2_bn
I1212 06:17:46.480304 18921 net.cpp:157] Top shape: 125 16 32 32 (2048000)
I1212 06:17:46.480314 18921 net.cpp:165] Memory required for data: 460289500
I1212 06:17:46.480334 18921 layer_factory.hpp:77] Creating layer L1_b5_cbr2_scale
I1212 06:17:46.480355 18921 net.cpp:100] Creating Layer L1_b5_cbr2_scale
I1212 06:17:46.480374 18921 net.cpp:434] L1_b5_cbr2_scale <- L1_b5_cbr2_bn_top
I1212 06:17:46.480391 18921 net.cpp:395] L1_b5_cbr2_scale -> L1_b5_cbr2_bn_top (in-place)
I1212 06:17:46.480489 18921 layer_factory.hpp:77] Creating layer L1_b5_cbr2_scale
I1212 06:17:46.480666 18921 net.cpp:150] Setting up L1_b5_cbr2_scale
I1212 06:17:46.480685 18921 net.cpp:157] Top shape: 125 16 32 32 (2048000)
I1212 06:17:46.480695 18921 net.cpp:165] Memory required for data: 468481500
I1212 06:17:46.480712 18921 layer_factory.hpp:77] Creating layer L1_b5_sum_eltwise
I1212 06:17:46.480734 18921 net.cpp:100] Creating Layer L1_b5_sum_eltwise
I1212 06:17:46.480746 18921 net.cpp:434] L1_b5_sum_eltwise <- L1_b5_cbr2_bn_top
I1212 06:17:46.480760 18921 net.cpp:434] L1_b5_sum_eltwise <- L1_b4_sum_eltwise_top_L1_b4_relu_0_split_1
I1212 06:17:46.480777 18921 net.cpp:408] L1_b5_sum_eltwise -> L1_b5_sum_eltwise_top
I1212 06:17:46.480831 18921 net.cpp:150] Setting up L1_b5_sum_eltwise
I1212 06:17:46.480849 18921 net.cpp:157] Top shape: 125 16 32 32 (2048000)
I1212 06:17:46.480859 18921 net.cpp:165] Memory required for data: 476673500
I1212 06:17:46.480870 18921 layer_factory.hpp:77] Creating layer L1_b5_relu
I1212 06:17:46.480885 18921 net.cpp:100] Creating Layer L1_b5_relu
I1212 06:17:46.480895 18921 net.cpp:434] L1_b5_relu <- L1_b5_sum_eltwise_top
I1212 06:17:46.480914 18921 net.cpp:395] L1_b5_relu -> L1_b5_sum_eltwise_top (in-place)
I1212 06:17:46.480933 18921 net.cpp:150] Setting up L1_b5_relu
I1212 06:17:46.480948 18921 net.cpp:157] Top shape: 125 16 32 32 (2048000)
I1212 06:17:46.480957 18921 net.cpp:165] Memory required for data: 484865500
I1212 06:17:46.480967 18921 layer_factory.hpp:77] Creating layer L1_b5_sum_eltwise_top_L1_b5_relu_0_split
I1212 06:17:46.480981 18921 net.cpp:100] Creating Layer L1_b5_sum_eltwise_top_L1_b5_relu_0_split
I1212 06:17:46.480993 18921 net.cpp:434] L1_b5_sum_eltwise_top_L1_b5_relu_0_split <- L1_b5_sum_eltwise_top
I1212 06:17:46.481006 18921 net.cpp:408] L1_b5_sum_eltwise_top_L1_b5_relu_0_split -> L1_b5_sum_eltwise_top_L1_b5_relu_0_split_0
I1212 06:17:46.481026 18921 net.cpp:408] L1_b5_sum_eltwise_top_L1_b5_relu_0_split -> L1_b5_sum_eltwise_top_L1_b5_relu_0_split_1
I1212 06:17:46.481106 18921 net.cpp:150] Setting up L1_b5_sum_eltwise_top_L1_b5_relu_0_split
I1212 06:17:46.481124 18921 net.cpp:157] Top shape: 125 16 32 32 (2048000)
I1212 06:17:46.481137 18921 net.cpp:157] Top shape: 125 16 32 32 (2048000)
I1212 06:17:46.481145 18921 net.cpp:165] Memory required for data: 501249500
I1212 06:17:46.481155 18921 layer_factory.hpp:77] Creating layer L1_b6_cbr1_conv
I1212 06:17:46.481176 18921 net.cpp:100] Creating Layer L1_b6_cbr1_conv
I1212 06:17:46.481187 18921 net.cpp:434] L1_b6_cbr1_conv <- L1_b5_sum_eltwise_top_L1_b5_relu_0_split_0
I1212 06:17:46.481210 18921 net.cpp:408] L1_b6_cbr1_conv -> L1_b6_cbr1_conv_top
I1212 06:17:46.481565 18921 net.cpp:150] Setting up L1_b6_cbr1_conv
I1212 06:17:46.481585 18921 net.cpp:157] Top shape: 125 16 32 32 (2048000)
I1212 06:17:46.481593 18921 net.cpp:165] Memory required for data: 509441500
I1212 06:17:46.481611 18921 layer_factory.hpp:77] Creating layer L1_b6_cbr1_bn
I1212 06:17:46.481639 18921 net.cpp:100] Creating Layer L1_b6_cbr1_bn
I1212 06:17:46.481650 18921 net.cpp:434] L1_b6_cbr1_bn <- L1_b6_cbr1_conv_top
I1212 06:17:46.481672 18921 net.cpp:408] L1_b6_cbr1_bn -> L1_b6_cbr1_bn_top
I1212 06:17:46.481966 18921 net.cpp:150] Setting up L1_b6_cbr1_bn
I1212 06:17:46.481990 18921 net.cpp:157] Top shape: 125 16 32 32 (2048000)
I1212 06:17:46.482000 18921 net.cpp:165] Memory required for data: 517633500
I1212 06:17:46.482023 18921 layer_factory.hpp:77] Creating layer L1_b6_cbr1_scale
I1212 06:17:46.482039 18921 net.cpp:100] Creating Layer L1_b6_cbr1_scale
I1212 06:17:46.482049 18921 net.cpp:434] L1_b6_cbr1_scale <- L1_b6_cbr1_bn_top
I1212 06:17:46.482065 18921 net.cpp:395] L1_b6_cbr1_scale -> L1_b6_cbr1_bn_top (in-place)
I1212 06:17:46.482154 18921 layer_factory.hpp:77] Creating layer L1_b6_cbr1_scale
I1212 06:17:46.482339 18921 net.cpp:150] Setting up L1_b6_cbr1_scale
I1212 06:17:46.482358 18921 net.cpp:157] Top shape: 125 16 32 32 (2048000)
I1212 06:17:46.482375 18921 net.cpp:165] Memory required for data: 525825500
I1212 06:17:46.482394 18921 layer_factory.hpp:77] Creating layer L1_b6_cbr1_relu
I1212 06:17:46.482415 18921 net.cpp:100] Creating Layer L1_b6_cbr1_relu
I1212 06:17:46.482426 18921 net.cpp:434] L1_b6_cbr1_relu <- L1_b6_cbr1_bn_top
I1212 06:17:46.482441 18921 net.cpp:395] L1_b6_cbr1_relu -> L1_b6_cbr1_bn_top (in-place)
I1212 06:17:46.482460 18921 net.cpp:150] Setting up L1_b6_cbr1_relu
I1212 06:17:46.482475 18921 net.cpp:157] Top shape: 125 16 32 32 (2048000)
I1212 06:17:46.482484 18921 net.cpp:165] Memory required for data: 534017500
I1212 06:17:46.482494 18921 layer_factory.hpp:77] Creating layer L1_b6_cbr2_conv
I1212 06:17:46.482527 18921 net.cpp:100] Creating Layer L1_b6_cbr2_conv
I1212 06:17:46.482542 18921 net.cpp:434] L1_b6_cbr2_conv <- L1_b6_cbr1_bn_top
I1212 06:17:46.482563 18921 net.cpp:408] L1_b6_cbr2_conv -> L1_b6_cbr2_conv_top
I1212 06:17:46.482931 18921 net.cpp:150] Setting up L1_b6_cbr2_conv
I1212 06:17:46.482950 18921 net.cpp:157] Top shape: 125 16 32 32 (2048000)
I1212 06:17:46.482959 18921 net.cpp:165] Memory required for data: 542209500
I1212 06:17:46.482977 18921 layer_factory.hpp:77] Creating layer L1_b6_cbr2_bn
I1212 06:17:46.482995 18921 net.cpp:100] Creating Layer L1_b6_cbr2_bn
I1212 06:17:46.483006 18921 net.cpp:434] L1_b6_cbr2_bn <- L1_b6_cbr2_conv_top
I1212 06:17:46.483033 18921 net.cpp:408] L1_b6_cbr2_bn -> L1_b6_cbr2_bn_top
I1212 06:17:46.483392 18921 net.cpp:150] Setting up L1_b6_cbr2_bn
I1212 06:17:46.483412 18921 net.cpp:157] Top shape: 125 16 32 32 (2048000)
I1212 06:17:46.483420 18921 net.cpp:165] Memory required for data: 550401500
I1212 06:17:46.483443 18921 layer_factory.hpp:77] Creating layer L1_b6_cbr2_scale
I1212 06:17:46.483464 18921 net.cpp:100] Creating Layer L1_b6_cbr2_scale
I1212 06:17:46.483477 18921 net.cpp:434] L1_b6_cbr2_scale <- L1_b6_cbr2_bn_top
I1212 06:17:46.483490 18921 net.cpp:395] L1_b6_cbr2_scale -> L1_b6_cbr2_bn_top (in-place)
I1212 06:17:46.483582 18921 layer_factory.hpp:77] Creating layer L1_b6_cbr2_scale
I1212 06:17:46.483767 18921 net.cpp:150] Setting up L1_b6_cbr2_scale
I1212 06:17:46.483786 18921 net.cpp:157] Top shape: 125 16 32 32 (2048000)
I1212 06:17:46.483795 18921 net.cpp:165] Memory required for data: 558593500
I1212 06:17:46.483815 18921 layer_factory.hpp:77] Creating layer L1_b6_sum_eltwise
I1212 06:17:46.483845 18921 net.cpp:100] Creating Layer L1_b6_sum_eltwise
I1212 06:17:46.483860 18921 net.cpp:434] L1_b6_sum_eltwise <- L1_b6_cbr2_bn_top
I1212 06:17:46.483873 18921 net.cpp:434] L1_b6_sum_eltwise <- L1_b5_sum_eltwise_top_L1_b5_relu_0_split_1
I1212 06:17:46.483889 18921 net.cpp:408] L1_b6_sum_eltwise -> L1_b6_sum_eltwise_top
I1212 06:17:46.483943 18921 net.cpp:150] Setting up L1_b6_sum_eltwise
I1212 06:17:46.483963 18921 net.cpp:157] Top shape: 125 16 32 32 (2048000)
I1212 06:17:46.483971 18921 net.cpp:165] Memory required for data: 566785500
I1212 06:17:46.483983 18921 layer_factory.hpp:77] Creating layer L1_b6_relu
I1212 06:17:46.484001 18921 net.cpp:100] Creating Layer L1_b6_relu
I1212 06:17:46.484026 18921 net.cpp:434] L1_b6_relu <- L1_b6_sum_eltwise_top
I1212 06:17:46.484041 18921 net.cpp:395] L1_b6_relu -> L1_b6_sum_eltwise_top (in-place)
I1212 06:17:46.484061 18921 net.cpp:150] Setting up L1_b6_relu
I1212 06:17:46.484076 18921 net.cpp:157] Top shape: 125 16 32 32 (2048000)
I1212 06:17:46.484084 18921 net.cpp:165] Memory required for data: 574977500
I1212 06:17:46.484094 18921 layer_factory.hpp:77] Creating layer L1_b6_sum_eltwise_top_L1_b6_relu_0_split
I1212 06:17:46.484108 18921 net.cpp:100] Creating Layer L1_b6_sum_eltwise_top_L1_b6_relu_0_split
I1212 06:17:46.484119 18921 net.cpp:434] L1_b6_sum_eltwise_top_L1_b6_relu_0_split <- L1_b6_sum_eltwise_top
I1212 06:17:46.484135 18921 net.cpp:408] L1_b6_sum_eltwise_top_L1_b6_relu_0_split -> L1_b6_sum_eltwise_top_L1_b6_relu_0_split_0
I1212 06:17:46.484154 18921 net.cpp:408] L1_b6_sum_eltwise_top_L1_b6_relu_0_split -> L1_b6_sum_eltwise_top_L1_b6_relu_0_split_1
I1212 06:17:46.484236 18921 net.cpp:150] Setting up L1_b6_sum_eltwise_top_L1_b6_relu_0_split
I1212 06:17:46.484258 18921 net.cpp:157] Top shape: 125 16 32 32 (2048000)
I1212 06:17:46.484272 18921 net.cpp:157] Top shape: 125 16 32 32 (2048000)
I1212 06:17:46.484280 18921 net.cpp:165] Memory required for data: 591361500
I1212 06:17:46.484292 18921 layer_factory.hpp:77] Creating layer L1_b7_cbr1_conv
I1212 06:17:46.484318 18921 net.cpp:100] Creating Layer L1_b7_cbr1_conv
I1212 06:17:46.484331 18921 net.cpp:434] L1_b7_cbr1_conv <- L1_b6_sum_eltwise_top_L1_b6_relu_0_split_0
I1212 06:17:46.484350 18921 net.cpp:408] L1_b7_cbr1_conv -> L1_b7_cbr1_conv_top
I1212 06:17:46.484726 18921 net.cpp:150] Setting up L1_b7_cbr1_conv
I1212 06:17:46.484746 18921 net.cpp:157] Top shape: 125 16 32 32 (2048000)
I1212 06:17:46.484755 18921 net.cpp:165] Memory required for data: 599553500
I1212 06:17:46.484772 18921 layer_factory.hpp:77] Creating layer L1_b7_cbr1_bn
I1212 06:17:46.484797 18921 net.cpp:100] Creating Layer L1_b7_cbr1_bn
I1212 06:17:46.484810 18921 net.cpp:434] L1_b7_cbr1_bn <- L1_b7_cbr1_conv_top
I1212 06:17:46.484833 18921 net.cpp:408] L1_b7_cbr1_bn -> L1_b7_cbr1_bn_top
I1212 06:17:46.485114 18921 net.cpp:150] Setting up L1_b7_cbr1_bn
I1212 06:17:46.485133 18921 net.cpp:157] Top shape: 125 16 32 32 (2048000)
I1212 06:17:46.485142 18921 net.cpp:165] Memory required for data: 607745500
I1212 06:17:46.485164 18921 layer_factory.hpp:77] Creating layer L1_b7_cbr1_scale
I1212 06:17:46.485182 18921 net.cpp:100] Creating Layer L1_b7_cbr1_scale
I1212 06:17:46.485193 18921 net.cpp:434] L1_b7_cbr1_scale <- L1_b7_cbr1_bn_top
I1212 06:17:46.485208 18921 net.cpp:395] L1_b7_cbr1_scale -> L1_b7_cbr1_bn_top (in-place)
I1212 06:17:46.485301 18921 layer_factory.hpp:77] Creating layer L1_b7_cbr1_scale
I1212 06:17:46.485486 18921 net.cpp:150] Setting up L1_b7_cbr1_scale
I1212 06:17:46.485505 18921 net.cpp:157] Top shape: 125 16 32 32 (2048000)
I1212 06:17:46.485514 18921 net.cpp:165] Memory required for data: 615937500
I1212 06:17:46.485533 18921 layer_factory.hpp:77] Creating layer L1_b7_cbr1_relu
I1212 06:17:46.485548 18921 net.cpp:100] Creating Layer L1_b7_cbr1_relu
I1212 06:17:46.485559 18921 net.cpp:434] L1_b7_cbr1_relu <- L1_b7_cbr1_bn_top
I1212 06:17:46.485579 18921 net.cpp:395] L1_b7_cbr1_relu -> L1_b7_cbr1_bn_top (in-place)
I1212 06:17:46.485599 18921 net.cpp:150] Setting up L1_b7_cbr1_relu
I1212 06:17:46.485612 18921 net.cpp:157] Top shape: 125 16 32 32 (2048000)
I1212 06:17:46.485622 18921 net.cpp:165] Memory required for data: 624129500
I1212 06:17:46.485632 18921 layer_factory.hpp:77] Creating layer L1_b7_cbr2_conv
I1212 06:17:46.485657 18921 net.cpp:100] Creating Layer L1_b7_cbr2_conv
I1212 06:17:46.485671 18921 net.cpp:434] L1_b7_cbr2_conv <- L1_b7_cbr1_bn_top
I1212 06:17:46.485693 18921 net.cpp:408] L1_b7_cbr2_conv -> L1_b7_cbr2_conv_top
I1212 06:17:46.486063 18921 net.cpp:150] Setting up L1_b7_cbr2_conv
I1212 06:17:46.486083 18921 net.cpp:157] Top shape: 125 16 32 32 (2048000)
I1212 06:17:46.486093 18921 net.cpp:165] Memory required for data: 632321500
I1212 06:17:46.486110 18921 layer_factory.hpp:77] Creating layer L1_b7_cbr2_bn
I1212 06:17:46.486141 18921 net.cpp:100] Creating Layer L1_b7_cbr2_bn
I1212 06:17:46.486155 18921 net.cpp:434] L1_b7_cbr2_bn <- L1_b7_cbr2_conv_top
I1212 06:17:46.486172 18921 net.cpp:408] L1_b7_cbr2_bn -> L1_b7_cbr2_bn_top
I1212 06:17:46.486476 18921 net.cpp:150] Setting up L1_b7_cbr2_bn
I1212 06:17:46.486496 18921 net.cpp:157] Top shape: 125 16 32 32 (2048000)
I1212 06:17:46.486505 18921 net.cpp:165] Memory required for data: 640513500
I1212 06:17:46.486527 18921 layer_factory.hpp:77] Creating layer L1_b7_cbr2_scale
I1212 06:17:46.486544 18921 net.cpp:100] Creating Layer L1_b7_cbr2_scale
I1212 06:17:46.486555 18921 net.cpp:434] L1_b7_cbr2_scale <- L1_b7_cbr2_bn_top
I1212 06:17:46.486570 18921 net.cpp:395] L1_b7_cbr2_scale -> L1_b7_cbr2_bn_top (in-place)
I1212 06:17:46.486661 18921 layer_factory.hpp:77] Creating layer L1_b7_cbr2_scale
I1212 06:17:46.486851 18921 net.cpp:150] Setting up L1_b7_cbr2_scale
I1212 06:17:46.486871 18921 net.cpp:157] Top shape: 125 16 32 32 (2048000)
I1212 06:17:46.486879 18921 net.cpp:165] Memory required for data: 648705500
I1212 06:17:46.486897 18921 layer_factory.hpp:77] Creating layer L1_b7_sum_eltwise
I1212 06:17:46.486914 18921 net.cpp:100] Creating Layer L1_b7_sum_eltwise
I1212 06:17:46.486925 18921 net.cpp:434] L1_b7_sum_eltwise <- L1_b7_cbr2_bn_top
I1212 06:17:46.486938 18921 net.cpp:434] L1_b7_sum_eltwise <- L1_b6_sum_eltwise_top_L1_b6_relu_0_split_1
I1212 06:17:46.486959 18921 net.cpp:408] L1_b7_sum_eltwise -> L1_b7_sum_eltwise_top
I1212 06:17:46.487013 18921 net.cpp:150] Setting up L1_b7_sum_eltwise
I1212 06:17:46.487031 18921 net.cpp:157] Top shape: 125 16 32 32 (2048000)
I1212 06:17:46.487041 18921 net.cpp:165] Memory required for data: 656897500
I1212 06:17:46.487051 18921 layer_factory.hpp:77] Creating layer L1_b7_relu
I1212 06:17:46.487071 18921 net.cpp:100] Creating Layer L1_b7_relu
I1212 06:17:46.487082 18921 net.cpp:434] L1_b7_relu <- L1_b7_sum_eltwise_top
I1212 06:17:46.487097 18921 net.cpp:395] L1_b7_relu -> L1_b7_sum_eltwise_top (in-place)
I1212 06:17:46.487115 18921 net.cpp:150] Setting up L1_b7_relu
I1212 06:17:46.487129 18921 net.cpp:157] Top shape: 125 16 32 32 (2048000)
I1212 06:17:46.487139 18921 net.cpp:165] Memory required for data: 665089500
I1212 06:17:46.487149 18921 layer_factory.hpp:77] Creating layer L1_b7_sum_eltwise_top_L1_b7_relu_0_split
I1212 06:17:46.487162 18921 net.cpp:100] Creating Layer L1_b7_sum_eltwise_top_L1_b7_relu_0_split
I1212 06:17:46.487174 18921 net.cpp:434] L1_b7_sum_eltwise_top_L1_b7_relu_0_split <- L1_b7_sum_eltwise_top
I1212 06:17:46.487188 18921 net.cpp:408] L1_b7_sum_eltwise_top_L1_b7_relu_0_split -> L1_b7_sum_eltwise_top_L1_b7_relu_0_split_0
I1212 06:17:46.487208 18921 net.cpp:408] L1_b7_sum_eltwise_top_L1_b7_relu_0_split -> L1_b7_sum_eltwise_top_L1_b7_relu_0_split_1
I1212 06:17:46.487288 18921 net.cpp:150] Setting up L1_b7_sum_eltwise_top_L1_b7_relu_0_split
I1212 06:17:46.487308 18921 net.cpp:157] Top shape: 125 16 32 32 (2048000)
I1212 06:17:46.487321 18921 net.cpp:157] Top shape: 125 16 32 32 (2048000)
I1212 06:17:46.487331 18921 net.cpp:165] Memory required for data: 681473500
I1212 06:17:46.487341 18921 layer_factory.hpp:77] Creating layer L1_b8_cbr1_conv
I1212 06:17:46.487373 18921 net.cpp:100] Creating Layer L1_b8_cbr1_conv
I1212 06:17:46.487387 18921 net.cpp:434] L1_b8_cbr1_conv <- L1_b7_sum_eltwise_top_L1_b7_relu_0_split_0
I1212 06:17:46.487406 18921 net.cpp:408] L1_b8_cbr1_conv -> L1_b8_cbr1_conv_top
I1212 06:17:46.487774 18921 net.cpp:150] Setting up L1_b8_cbr1_conv
I1212 06:17:46.487794 18921 net.cpp:157] Top shape: 125 16 32 32 (2048000)
I1212 06:17:46.487803 18921 net.cpp:165] Memory required for data: 689665500
I1212 06:17:46.487820 18921 layer_factory.hpp:77] Creating layer L1_b8_cbr1_bn
I1212 06:17:46.487843 18921 net.cpp:100] Creating Layer L1_b8_cbr1_bn
I1212 06:17:46.487854 18921 net.cpp:434] L1_b8_cbr1_bn <- L1_b8_cbr1_conv_top
I1212 06:17:46.487871 18921 net.cpp:408] L1_b8_cbr1_bn -> L1_b8_cbr1_bn_top
I1212 06:17:46.488176 18921 net.cpp:150] Setting up L1_b8_cbr1_bn
I1212 06:17:46.488203 18921 net.cpp:157] Top shape: 125 16 32 32 (2048000)
I1212 06:17:46.488214 18921 net.cpp:165] Memory required for data: 697857500
I1212 06:17:46.488235 18921 layer_factory.hpp:77] Creating layer L1_b8_cbr1_scale
I1212 06:17:46.488251 18921 net.cpp:100] Creating Layer L1_b8_cbr1_scale
I1212 06:17:46.488262 18921 net.cpp:434] L1_b8_cbr1_scale <- L1_b8_cbr1_bn_top
I1212 06:17:46.488276 18921 net.cpp:395] L1_b8_cbr1_scale -> L1_b8_cbr1_bn_top (in-place)
I1212 06:17:46.488373 18921 layer_factory.hpp:77] Creating layer L1_b8_cbr1_scale
I1212 06:17:46.488559 18921 net.cpp:150] Setting up L1_b8_cbr1_scale
I1212 06:17:46.488579 18921 net.cpp:157] Top shape: 125 16 32 32 (2048000)
I1212 06:17:46.488589 18921 net.cpp:165] Memory required for data: 706049500
I1212 06:17:46.488607 18921 layer_factory.hpp:77] Creating layer L1_b8_cbr1_relu
I1212 06:17:46.488625 18921 net.cpp:100] Creating Layer L1_b8_cbr1_relu
I1212 06:17:46.488636 18921 net.cpp:434] L1_b8_cbr1_relu <- L1_b8_cbr1_bn_top
I1212 06:17:46.488656 18921 net.cpp:395] L1_b8_cbr1_relu -> L1_b8_cbr1_bn_top (in-place)
I1212 06:17:46.488675 18921 net.cpp:150] Setting up L1_b8_cbr1_relu
I1212 06:17:46.488689 18921 net.cpp:157] Top shape: 125 16 32 32 (2048000)
I1212 06:17:46.488698 18921 net.cpp:165] Memory required for data: 714241500
I1212 06:17:46.488708 18921 layer_factory.hpp:77] Creating layer L1_b8_cbr2_conv
I1212 06:17:46.488734 18921 net.cpp:100] Creating Layer L1_b8_cbr2_conv
I1212 06:17:46.488747 18921 net.cpp:434] L1_b8_cbr2_conv <- L1_b8_cbr1_bn_top
I1212 06:17:46.488765 18921 net.cpp:408] L1_b8_cbr2_conv -> L1_b8_cbr2_conv_top
I1212 06:17:46.489140 18921 net.cpp:150] Setting up L1_b8_cbr2_conv
I1212 06:17:46.489159 18921 net.cpp:157] Top shape: 125 16 32 32 (2048000)
I1212 06:17:46.489169 18921 net.cpp:165] Memory required for data: 722433500
I1212 06:17:46.489187 18921 layer_factory.hpp:77] Creating layer L1_b8_cbr2_bn
I1212 06:17:46.489209 18921 net.cpp:100] Creating Layer L1_b8_cbr2_bn
I1212 06:17:46.489222 18921 net.cpp:434] L1_b8_cbr2_bn <- L1_b8_cbr2_conv_top
I1212 06:17:46.489238 18921 net.cpp:408] L1_b8_cbr2_bn -> L1_b8_cbr2_bn_top
I1212 06:17:46.489534 18921 net.cpp:150] Setting up L1_b8_cbr2_bn
I1212 06:17:46.489560 18921 net.cpp:157] Top shape: 125 16 32 32 (2048000)
I1212 06:17:46.489572 18921 net.cpp:165] Memory required for data: 730625500
I1212 06:17:46.489593 18921 layer_factory.hpp:77] Creating layer L1_b8_cbr2_scale
I1212 06:17:46.489610 18921 net.cpp:100] Creating Layer L1_b8_cbr2_scale
I1212 06:17:46.489622 18921 net.cpp:434] L1_b8_cbr2_scale <- L1_b8_cbr2_bn_top
I1212 06:17:46.489639 18921 net.cpp:395] L1_b8_cbr2_scale -> L1_b8_cbr2_bn_top (in-place)
I1212 06:17:46.489723 18921 layer_factory.hpp:77] Creating layer L1_b8_cbr2_scale
I1212 06:17:46.489904 18921 net.cpp:150] Setting up L1_b8_cbr2_scale
I1212 06:17:46.489923 18921 net.cpp:157] Top shape: 125 16 32 32 (2048000)
I1212 06:17:46.489933 18921 net.cpp:165] Memory required for data: 738817500
I1212 06:17:46.489951 18921 layer_factory.hpp:77] Creating layer L1_b8_sum_eltwise
I1212 06:17:46.489972 18921 net.cpp:100] Creating Layer L1_b8_sum_eltwise
I1212 06:17:46.489984 18921 net.cpp:434] L1_b8_sum_eltwise <- L1_b8_cbr2_bn_top
I1212 06:17:46.489997 18921 net.cpp:434] L1_b8_sum_eltwise <- L1_b7_sum_eltwise_top_L1_b7_relu_0_split_1
I1212 06:17:46.490018 18921 net.cpp:408] L1_b8_sum_eltwise -> L1_b8_sum_eltwise_top
I1212 06:17:46.490070 18921 net.cpp:150] Setting up L1_b8_sum_eltwise
I1212 06:17:46.490089 18921 net.cpp:157] Top shape: 125 16 32 32 (2048000)
I1212 06:17:46.490099 18921 net.cpp:165] Memory required for data: 747009500
I1212 06:17:46.490109 18921 layer_factory.hpp:77] Creating layer L1_b8_relu
I1212 06:17:46.490130 18921 net.cpp:100] Creating Layer L1_b8_relu
I1212 06:17:46.490144 18921 net.cpp:434] L1_b8_relu <- L1_b8_sum_eltwise_top
I1212 06:17:46.490159 18921 net.cpp:395] L1_b8_relu -> L1_b8_sum_eltwise_top (in-place)
I1212 06:17:46.490176 18921 net.cpp:150] Setting up L1_b8_relu
I1212 06:17:46.490191 18921 net.cpp:157] Top shape: 125 16 32 32 (2048000)
I1212 06:17:46.490200 18921 net.cpp:165] Memory required for data: 755201500
I1212 06:17:46.490221 18921 layer_factory.hpp:77] Creating layer L1_b8_sum_eltwise_top_L1_b8_relu_0_split
I1212 06:17:46.490236 18921 net.cpp:100] Creating Layer L1_b8_sum_eltwise_top_L1_b8_relu_0_split
I1212 06:17:46.490247 18921 net.cpp:434] L1_b8_sum_eltwise_top_L1_b8_relu_0_split <- L1_b8_sum_eltwise_top
I1212 06:17:46.490262 18921 net.cpp:408] L1_b8_sum_eltwise_top_L1_b8_relu_0_split -> L1_b8_sum_eltwise_top_L1_b8_relu_0_split_0
I1212 06:17:46.490283 18921 net.cpp:408] L1_b8_sum_eltwise_top_L1_b8_relu_0_split -> L1_b8_sum_eltwise_top_L1_b8_relu_0_split_1
I1212 06:17:46.490371 18921 net.cpp:150] Setting up L1_b8_sum_eltwise_top_L1_b8_relu_0_split
I1212 06:17:46.490392 18921 net.cpp:157] Top shape: 125 16 32 32 (2048000)
I1212 06:17:46.490406 18921 net.cpp:157] Top shape: 125 16 32 32 (2048000)
I1212 06:17:46.490416 18921 net.cpp:165] Memory required for data: 771585500
I1212 06:17:46.490425 18921 layer_factory.hpp:77] Creating layer L1_b9_cbr1_conv
I1212 06:17:46.490451 18921 net.cpp:100] Creating Layer L1_b9_cbr1_conv
I1212 06:17:46.490464 18921 net.cpp:434] L1_b9_cbr1_conv <- L1_b8_sum_eltwise_top_L1_b8_relu_0_split_0
I1212 06:17:46.490483 18921 net.cpp:408] L1_b9_cbr1_conv -> L1_b9_cbr1_conv_top
I1212 06:17:46.490867 18921 net.cpp:150] Setting up L1_b9_cbr1_conv
I1212 06:17:46.490887 18921 net.cpp:157] Top shape: 125 16 32 32 (2048000)
I1212 06:17:46.490896 18921 net.cpp:165] Memory required for data: 779777500
I1212 06:17:46.490914 18921 layer_factory.hpp:77] Creating layer L1_b9_cbr1_bn
I1212 06:17:46.490936 18921 net.cpp:100] Creating Layer L1_b9_cbr1_bn
I1212 06:17:46.490948 18921 net.cpp:434] L1_b9_cbr1_bn <- L1_b9_cbr1_conv_top
I1212 06:17:46.490965 18921 net.cpp:408] L1_b9_cbr1_bn -> L1_b9_cbr1_bn_top
I1212 06:17:46.491255 18921 net.cpp:150] Setting up L1_b9_cbr1_bn
I1212 06:17:46.491276 18921 net.cpp:157] Top shape: 125 16 32 32 (2048000)
I1212 06:17:46.491284 18921 net.cpp:165] Memory required for data: 787969500
I1212 06:17:46.491305 18921 layer_factory.hpp:77] Creating layer L1_b9_cbr1_scale
I1212 06:17:46.491322 18921 net.cpp:100] Creating Layer L1_b9_cbr1_scale
I1212 06:17:46.491333 18921 net.cpp:434] L1_b9_cbr1_scale <- L1_b9_cbr1_bn_top
I1212 06:17:46.491353 18921 net.cpp:395] L1_b9_cbr1_scale -> L1_b9_cbr1_bn_top (in-place)
I1212 06:17:46.491448 18921 layer_factory.hpp:77] Creating layer L1_b9_cbr1_scale
I1212 06:17:46.491633 18921 net.cpp:150] Setting up L1_b9_cbr1_scale
I1212 06:17:46.491652 18921 net.cpp:157] Top shape: 125 16 32 32 (2048000)
I1212 06:17:46.491662 18921 net.cpp:165] Memory required for data: 796161500
I1212 06:17:46.491679 18921 layer_factory.hpp:77] Creating layer L1_b9_cbr1_relu
I1212 06:17:46.491695 18921 net.cpp:100] Creating Layer L1_b9_cbr1_relu
I1212 06:17:46.491706 18921 net.cpp:434] L1_b9_cbr1_relu <- L1_b9_cbr1_bn_top
I1212 06:17:46.491721 18921 net.cpp:395] L1_b9_cbr1_relu -> L1_b9_cbr1_bn_top (in-place)
I1212 06:17:46.491740 18921 net.cpp:150] Setting up L1_b9_cbr1_relu
I1212 06:17:46.491755 18921 net.cpp:157] Top shape: 125 16 32 32 (2048000)
I1212 06:17:46.491763 18921 net.cpp:165] Memory required for data: 804353500
I1212 06:17:46.491773 18921 layer_factory.hpp:77] Creating layer L1_b9_cbr2_conv
I1212 06:17:46.491801 18921 net.cpp:100] Creating Layer L1_b9_cbr2_conv
I1212 06:17:46.491813 18921 net.cpp:434] L1_b9_cbr2_conv <- L1_b9_cbr1_bn_top
I1212 06:17:46.491835 18921 net.cpp:408] L1_b9_cbr2_conv -> L1_b9_cbr2_conv_top
I1212 06:17:46.492213 18921 net.cpp:150] Setting up L1_b9_cbr2_conv
I1212 06:17:46.492233 18921 net.cpp:157] Top shape: 125 16 32 32 (2048000)
I1212 06:17:46.492242 18921 net.cpp:165] Memory required for data: 812545500
I1212 06:17:46.492261 18921 layer_factory.hpp:77] Creating layer L1_b9_cbr2_bn
I1212 06:17:46.492282 18921 net.cpp:100] Creating Layer L1_b9_cbr2_bn
I1212 06:17:46.492295 18921 net.cpp:434] L1_b9_cbr2_bn <- L1_b9_cbr2_conv_top
I1212 06:17:46.492316 18921 net.cpp:408] L1_b9_cbr2_bn -> L1_b9_cbr2_bn_top
I1212 06:17:46.492616 18921 net.cpp:150] Setting up L1_b9_cbr2_bn
I1212 06:17:46.492643 18921 net.cpp:157] Top shape: 125 16 32 32 (2048000)
I1212 06:17:46.492652 18921 net.cpp:165] Memory required for data: 820737500
I1212 06:17:46.492704 18921 layer_factory.hpp:77] Creating layer L1_b9_cbr2_scale
I1212 06:17:46.492728 18921 net.cpp:100] Creating Layer L1_b9_cbr2_scale
I1212 06:17:46.492741 18921 net.cpp:434] L1_b9_cbr2_scale <- L1_b9_cbr2_bn_top
I1212 06:17:46.492758 18921 net.cpp:395] L1_b9_cbr2_scale -> L1_b9_cbr2_bn_top (in-place)
I1212 06:17:46.492851 18921 layer_factory.hpp:77] Creating layer L1_b9_cbr2_scale
I1212 06:17:46.493039 18921 net.cpp:150] Setting up L1_b9_cbr2_scale
I1212 06:17:46.493058 18921 net.cpp:157] Top shape: 125 16 32 32 (2048000)
I1212 06:17:46.493067 18921 net.cpp:165] Memory required for data: 828929500
I1212 06:17:46.493085 18921 layer_factory.hpp:77] Creating layer L1_b9_sum_eltwise
I1212 06:17:46.493103 18921 net.cpp:100] Creating Layer L1_b9_sum_eltwise
I1212 06:17:46.493114 18921 net.cpp:434] L1_b9_sum_eltwise <- L1_b9_cbr2_bn_top
I1212 06:17:46.493127 18921 net.cpp:434] L1_b9_sum_eltwise <- L1_b8_sum_eltwise_top_L1_b8_relu_0_split_1
I1212 06:17:46.493142 18921 net.cpp:408] L1_b9_sum_eltwise -> L1_b9_sum_eltwise_top
I1212 06:17:46.493196 18921 net.cpp:150] Setting up L1_b9_sum_eltwise
I1212 06:17:46.493214 18921 net.cpp:157] Top shape: 125 16 32 32 (2048000)
I1212 06:17:46.493224 18921 net.cpp:165] Memory required for data: 837121500
I1212 06:17:46.493234 18921 layer_factory.hpp:77] Creating layer L1_b9_relu
I1212 06:17:46.493254 18921 net.cpp:100] Creating Layer L1_b9_relu
I1212 06:17:46.493266 18921 net.cpp:434] L1_b9_relu <- L1_b9_sum_eltwise_top
I1212 06:17:46.493285 18921 net.cpp:395] L1_b9_relu -> L1_b9_sum_eltwise_top (in-place)
I1212 06:17:46.493304 18921 net.cpp:150] Setting up L1_b9_relu
I1212 06:17:46.493319 18921 net.cpp:157] Top shape: 125 16 32 32 (2048000)
I1212 06:17:46.493329 18921 net.cpp:165] Memory required for data: 845313500
I1212 06:17:46.493337 18921 layer_factory.hpp:77] Creating layer L1_b9_sum_eltwise_top_L1_b9_relu_0_split
I1212 06:17:46.493351 18921 net.cpp:100] Creating Layer L1_b9_sum_eltwise_top_L1_b9_relu_0_split
I1212 06:17:46.493371 18921 net.cpp:434] L1_b9_sum_eltwise_top_L1_b9_relu_0_split <- L1_b9_sum_eltwise_top
I1212 06:17:46.493387 18921 net.cpp:408] L1_b9_sum_eltwise_top_L1_b9_relu_0_split -> L1_b9_sum_eltwise_top_L1_b9_relu_0_split_0
I1212 06:17:46.493407 18921 net.cpp:408] L1_b9_sum_eltwise_top_L1_b9_relu_0_split -> L1_b9_sum_eltwise_top_L1_b9_relu_0_split_1
I1212 06:17:46.493489 18921 net.cpp:150] Setting up L1_b9_sum_eltwise_top_L1_b9_relu_0_split
I1212 06:17:46.493507 18921 net.cpp:157] Top shape: 125 16 32 32 (2048000)
I1212 06:17:46.493520 18921 net.cpp:157] Top shape: 125 16 32 32 (2048000)
I1212 06:17:46.493530 18921 net.cpp:165] Memory required for data: 861697500
I1212 06:17:46.493540 18921 layer_factory.hpp:77] Creating layer L2_b1_cbr1_conv
I1212 06:17:46.493564 18921 net.cpp:100] Creating Layer L2_b1_cbr1_conv
I1212 06:17:46.493578 18921 net.cpp:434] L2_b1_cbr1_conv <- L1_b9_sum_eltwise_top_L1_b9_relu_0_split_0
I1212 06:17:46.493597 18921 net.cpp:408] L2_b1_cbr1_conv -> L2_b1_cbr1_conv_top
I1212 06:17:46.493978 18921 net.cpp:150] Setting up L2_b1_cbr1_conv
I1212 06:17:46.493998 18921 net.cpp:157] Top shape: 125 16 16 16 (512000)
I1212 06:17:46.494006 18921 net.cpp:165] Memory required for data: 863745500
I1212 06:17:46.494024 18921 layer_factory.hpp:77] Creating layer L2_b1_cbr1_bn
I1212 06:17:46.494046 18921 net.cpp:100] Creating Layer L2_b1_cbr1_bn
I1212 06:17:46.494058 18921 net.cpp:434] L2_b1_cbr1_bn <- L2_b1_cbr1_conv_top
I1212 06:17:46.494079 18921 net.cpp:408] L2_b1_cbr1_bn -> L2_b1_cbr1_bn_top
I1212 06:17:46.494366 18921 net.cpp:150] Setting up L2_b1_cbr1_bn
I1212 06:17:46.494386 18921 net.cpp:157] Top shape: 125 16 16 16 (512000)
I1212 06:17:46.494395 18921 net.cpp:165] Memory required for data: 865793500
I1212 06:17:46.494417 18921 layer_factory.hpp:77] Creating layer L2_b1_cbr1_scale
I1212 06:17:46.494433 18921 net.cpp:100] Creating Layer L2_b1_cbr1_scale
I1212 06:17:46.494446 18921 net.cpp:434] L2_b1_cbr1_scale <- L2_b1_cbr1_bn_top
I1212 06:17:46.494469 18921 net.cpp:395] L2_b1_cbr1_scale -> L2_b1_cbr1_bn_top (in-place)
I1212 06:17:46.494568 18921 layer_factory.hpp:77] Creating layer L2_b1_cbr1_scale
I1212 06:17:46.494751 18921 net.cpp:150] Setting up L2_b1_cbr1_scale
I1212 06:17:46.494771 18921 net.cpp:157] Top shape: 125 16 16 16 (512000)
I1212 06:17:46.494779 18921 net.cpp:165] Memory required for data: 867841500
I1212 06:17:46.494798 18921 layer_factory.hpp:77] Creating layer L2_b1_cbr1_relu
I1212 06:17:46.494818 18921 net.cpp:100] Creating Layer L2_b1_cbr1_relu
I1212 06:17:46.494830 18921 net.cpp:434] L2_b1_cbr1_relu <- L2_b1_cbr1_bn_top
I1212 06:17:46.494844 18921 net.cpp:395] L2_b1_cbr1_relu -> L2_b1_cbr1_bn_top (in-place)
I1212 06:17:46.494863 18921 net.cpp:150] Setting up L2_b1_cbr1_relu
I1212 06:17:46.494876 18921 net.cpp:157] Top shape: 125 16 16 16 (512000)
I1212 06:17:46.494886 18921 net.cpp:165] Memory required for data: 869889500
I1212 06:17:46.494896 18921 layer_factory.hpp:77] Creating layer L2_b1_cbr2_conv
I1212 06:17:46.494922 18921 net.cpp:100] Creating Layer L2_b1_cbr2_conv
I1212 06:17:46.494935 18921 net.cpp:434] L2_b1_cbr2_conv <- L2_b1_cbr1_bn_top
I1212 06:17:46.494958 18921 net.cpp:408] L2_b1_cbr2_conv -> L2_b1_cbr2_conv_top
I1212 06:17:46.495337 18921 net.cpp:150] Setting up L2_b1_cbr2_conv
I1212 06:17:46.495357 18921 net.cpp:157] Top shape: 125 16 16 16 (512000)
I1212 06:17:46.495373 18921 net.cpp:165] Memory required for data: 871937500
I1212 06:17:46.495391 18921 layer_factory.hpp:77] Creating layer L2_b1_cbr2_bn
I1212 06:17:46.495414 18921 net.cpp:100] Creating Layer L2_b1_cbr2_bn
I1212 06:17:46.495425 18921 net.cpp:434] L2_b1_cbr2_bn <- L2_b1_cbr2_conv_top
I1212 06:17:46.495447 18921 net.cpp:408] L2_b1_cbr2_bn -> L2_b1_cbr2_bn_top
I1212 06:17:46.495726 18921 net.cpp:150] Setting up L2_b1_cbr2_bn
I1212 06:17:46.495745 18921 net.cpp:157] Top shape: 125 16 16 16 (512000)
I1212 06:17:46.495755 18921 net.cpp:165] Memory required for data: 873985500
I1212 06:17:46.495776 18921 layer_factory.hpp:77] Creating layer L2_b1_cbr2_scale
I1212 06:17:46.495793 18921 net.cpp:100] Creating Layer L2_b1_cbr2_scale
I1212 06:17:46.495805 18921 net.cpp:434] L2_b1_cbr2_scale <- L2_b1_cbr2_bn_top
I1212 06:17:46.495820 18921 net.cpp:395] L2_b1_cbr2_scale -> L2_b1_cbr2_bn_top (in-place)
I1212 06:17:46.495911 18921 layer_factory.hpp:77] Creating layer L2_b1_cbr2_scale
I1212 06:17:46.496094 18921 net.cpp:150] Setting up L2_b1_cbr2_scale
I1212 06:17:46.496114 18921 net.cpp:157] Top shape: 125 16 16 16 (512000)
I1212 06:17:46.496122 18921 net.cpp:165] Memory required for data: 876033500
I1212 06:17:46.496140 18921 layer_factory.hpp:77] Creating layer L2_b1_pool
I1212 06:17:46.496163 18921 net.cpp:100] Creating Layer L2_b1_pool
I1212 06:17:46.496176 18921 net.cpp:434] L2_b1_pool <- L1_b9_sum_eltwise_top_L1_b9_relu_0_split_1
I1212 06:17:46.496192 18921 net.cpp:408] L2_b1_pool -> L2_b1_pool
I1212 06:17:46.496330 18921 net.cpp:150] Setting up L2_b1_pool
I1212 06:17:46.496350 18921 net.cpp:157] Top shape: 125 16 16 16 (512000)
I1212 06:17:46.496359 18921 net.cpp:165] Memory required for data: 878081500
I1212 06:17:46.496376 18921 layer_factory.hpp:77] Creating layer L2_b1_sum_eltwise
I1212 06:17:46.496400 18921 net.cpp:100] Creating Layer L2_b1_sum_eltwise
I1212 06:17:46.496412 18921 net.cpp:434] L2_b1_sum_eltwise <- L2_b1_cbr2_bn_top
I1212 06:17:46.496426 18921 net.cpp:434] L2_b1_sum_eltwise <- L2_b1_pool
I1212 06:17:46.496441 18921 net.cpp:408] L2_b1_sum_eltwise -> L2_b1_sum_eltwise_top
I1212 06:17:46.496496 18921 net.cpp:150] Setting up L2_b1_sum_eltwise
I1212 06:17:46.496516 18921 net.cpp:157] Top shape: 125 16 16 16 (512000)
I1212 06:17:46.496526 18921 net.cpp:165] Memory required for data: 880129500
I1212 06:17:46.496537 18921 layer_factory.hpp:77] Creating layer L2_b1_relu
I1212 06:17:46.496556 18921 net.cpp:100] Creating Layer L2_b1_relu
I1212 06:17:46.496568 18921 net.cpp:434] L2_b1_relu <- L2_b1_sum_eltwise_top
I1212 06:17:46.496584 18921 net.cpp:395] L2_b1_relu -> L2_b1_sum_eltwise_top (in-place)
I1212 06:17:46.496613 18921 net.cpp:150] Setting up L2_b1_relu
I1212 06:17:46.496629 18921 net.cpp:157] Top shape: 125 16 16 16 (512000)
I1212 06:17:46.496639 18921 net.cpp:165] Memory required for data: 882177500
I1212 06:17:46.496649 18921 layer_factory.hpp:77] Creating layer L2_b1_zeros
I1212 06:17:46.496726 18921 net.cpp:100] Creating Layer L2_b1_zeros
I1212 06:17:46.496747 18921 net.cpp:408] L2_b1_zeros -> L2_b1_zeros
I1212 06:17:46.499282 18921 net.cpp:150] Setting up L2_b1_zeros
I1212 06:17:46.499310 18921 net.cpp:157] Top shape: 125 16 16 16 (512000)
I1212 06:17:46.499320 18921 net.cpp:165] Memory required for data: 884225500
I1212 06:17:46.499331 18921 layer_factory.hpp:77] Creating layer L2_b1_concat0
I1212 06:17:46.499348 18921 net.cpp:100] Creating Layer L2_b1_concat0
I1212 06:17:46.499367 18921 net.cpp:434] L2_b1_concat0 <- L2_b1_sum_eltwise_top
I1212 06:17:46.499382 18921 net.cpp:434] L2_b1_concat0 <- L2_b1_zeros
I1212 06:17:46.499398 18921 net.cpp:408] L2_b1_concat0 -> L2_b1_concat0
I1212 06:17:46.499470 18921 net.cpp:150] Setting up L2_b1_concat0
I1212 06:17:46.499490 18921 net.cpp:157] Top shape: 125 32 16 16 (1024000)
I1212 06:17:46.499498 18921 net.cpp:165] Memory required for data: 888321500
I1212 06:17:46.499510 18921 layer_factory.hpp:77] Creating layer L2_b1_concat0_L2_b1_concat0_0_split
I1212 06:17:46.499524 18921 net.cpp:100] Creating Layer L2_b1_concat0_L2_b1_concat0_0_split
I1212 06:17:46.499536 18921 net.cpp:434] L2_b1_concat0_L2_b1_concat0_0_split <- L2_b1_concat0
I1212 06:17:46.499554 18921 net.cpp:408] L2_b1_concat0_L2_b1_concat0_0_split -> L2_b1_concat0_L2_b1_concat0_0_split_0
I1212 06:17:46.499577 18921 net.cpp:408] L2_b1_concat0_L2_b1_concat0_0_split -> L2_b1_concat0_L2_b1_concat0_0_split_1
I1212 06:17:46.499672 18921 net.cpp:150] Setting up L2_b1_concat0_L2_b1_concat0_0_split
I1212 06:17:46.499693 18921 net.cpp:157] Top shape: 125 32 16 16 (1024000)
I1212 06:17:46.499706 18921 net.cpp:157] Top shape: 125 32 16 16 (1024000)
I1212 06:17:46.499716 18921 net.cpp:165] Memory required for data: 896513500
I1212 06:17:46.499725 18921 layer_factory.hpp:77] Creating layer L2_b2_cbr1_conv
I1212 06:17:46.499750 18921 net.cpp:100] Creating Layer L2_b2_cbr1_conv
I1212 06:17:46.499764 18921 net.cpp:434] L2_b2_cbr1_conv <- L2_b1_concat0_L2_b1_concat0_0_split_0
I1212 06:17:46.499791 18921 net.cpp:408] L2_b2_cbr1_conv -> L2_b2_cbr1_conv_top
I1212 06:17:46.501386 18921 net.cpp:150] Setting up L2_b2_cbr1_conv
I1212 06:17:46.501408 18921 net.cpp:157] Top shape: 125 32 16 16 (1024000)
I1212 06:17:46.501418 18921 net.cpp:165] Memory required for data: 900609500
I1212 06:17:46.501437 18921 layer_factory.hpp:77] Creating layer L2_b2_cbr1_bn
I1212 06:17:46.501459 18921 net.cpp:100] Creating Layer L2_b2_cbr1_bn
I1212 06:17:46.501472 18921 net.cpp:434] L2_b2_cbr1_bn <- L2_b2_cbr1_conv_top
I1212 06:17:46.501494 18921 net.cpp:408] L2_b2_cbr1_bn -> L2_b2_cbr1_bn_top
I1212 06:17:46.501775 18921 net.cpp:150] Setting up L2_b2_cbr1_bn
I1212 06:17:46.501793 18921 net.cpp:157] Top shape: 125 32 16 16 (1024000)
I1212 06:17:46.501802 18921 net.cpp:165] Memory required for data: 904705500
I1212 06:17:46.501824 18921 layer_factory.hpp:77] Creating layer L2_b2_cbr1_scale
I1212 06:17:46.501842 18921 net.cpp:100] Creating Layer L2_b2_cbr1_scale
I1212 06:17:46.501854 18921 net.cpp:434] L2_b2_cbr1_scale <- L2_b2_cbr1_bn_top
I1212 06:17:46.501870 18921 net.cpp:395] L2_b2_cbr1_scale -> L2_b2_cbr1_bn_top (in-place)
I1212 06:17:46.501963 18921 layer_factory.hpp:77] Creating layer L2_b2_cbr1_scale
I1212 06:17:46.502151 18921 net.cpp:150] Setting up L2_b2_cbr1_scale
I1212 06:17:46.502173 18921 net.cpp:157] Top shape: 125 32 16 16 (1024000)
I1212 06:17:46.502184 18921 net.cpp:165] Memory required for data: 908801500
I1212 06:17:46.502203 18921 layer_factory.hpp:77] Creating layer L2_b2_cbr1_relu
I1212 06:17:46.502218 18921 net.cpp:100] Creating Layer L2_b2_cbr1_relu
I1212 06:17:46.502229 18921 net.cpp:434] L2_b2_cbr1_relu <- L2_b2_cbr1_bn_top
I1212 06:17:46.502243 18921 net.cpp:395] L2_b2_cbr1_relu -> L2_b2_cbr1_bn_top (in-place)
I1212 06:17:46.502274 18921 net.cpp:150] Setting up L2_b2_cbr1_relu
I1212 06:17:46.502290 18921 net.cpp:157] Top shape: 125 32 16 16 (1024000)
I1212 06:17:46.502300 18921 net.cpp:165] Memory required for data: 912897500
I1212 06:17:46.502310 18921 layer_factory.hpp:77] Creating layer L2_b2_cbr2_conv
I1212 06:17:46.502336 18921 net.cpp:100] Creating Layer L2_b2_cbr2_conv
I1212 06:17:46.502349 18921 net.cpp:434] L2_b2_cbr2_conv <- L2_b2_cbr1_bn_top
I1212 06:17:46.502379 18921 net.cpp:408] L2_b2_cbr2_conv -> L2_b2_cbr2_conv_top
I1212 06:17:46.502899 18921 net.cpp:150] Setting up L2_b2_cbr2_conv
I1212 06:17:46.502919 18921 net.cpp:157] Top shape: 125 32 16 16 (1024000)
I1212 06:17:46.502928 18921 net.cpp:165] Memory required for data: 916993500
I1212 06:17:46.502946 18921 layer_factory.hpp:77] Creating layer L2_b2_cbr2_bn
I1212 06:17:46.502969 18921 net.cpp:100] Creating Layer L2_b2_cbr2_bn
I1212 06:17:46.502980 18921 net.cpp:434] L2_b2_cbr2_bn <- L2_b2_cbr2_conv_top
I1212 06:17:46.503001 18921 net.cpp:408] L2_b2_cbr2_bn -> L2_b2_cbr2_bn_top
I1212 06:17:46.503289 18921 net.cpp:150] Setting up L2_b2_cbr2_bn
I1212 06:17:46.503309 18921 net.cpp:157] Top shape: 125 32 16 16 (1024000)
I1212 06:17:46.503319 18921 net.cpp:165] Memory required for data: 921089500
I1212 06:17:46.503340 18921 layer_factory.hpp:77] Creating layer L2_b2_cbr2_scale
I1212 06:17:46.503357 18921 net.cpp:100] Creating Layer L2_b2_cbr2_scale
I1212 06:17:46.503376 18921 net.cpp:434] L2_b2_cbr2_scale <- L2_b2_cbr2_bn_top
I1212 06:17:46.503392 18921 net.cpp:395] L2_b2_cbr2_scale -> L2_b2_cbr2_bn_top (in-place)
I1212 06:17:46.503486 18921 layer_factory.hpp:77] Creating layer L2_b2_cbr2_scale
I1212 06:17:46.503669 18921 net.cpp:150] Setting up L2_b2_cbr2_scale
I1212 06:17:46.503687 18921 net.cpp:157] Top shape: 125 32 16 16 (1024000)
I1212 06:17:46.503696 18921 net.cpp:165] Memory required for data: 925185500
I1212 06:17:46.503715 18921 layer_factory.hpp:77] Creating layer L2_b2_sum_eltwise
I1212 06:17:46.503736 18921 net.cpp:100] Creating Layer L2_b2_sum_eltwise
I1212 06:17:46.503748 18921 net.cpp:434] L2_b2_sum_eltwise <- L2_b2_cbr2_bn_top
I1212 06:17:46.503762 18921 net.cpp:434] L2_b2_sum_eltwise <- L2_b1_concat0_L2_b1_concat0_0_split_1
I1212 06:17:46.503778 18921 net.cpp:408] L2_b2_sum_eltwise -> L2_b2_sum_eltwise_top
I1212 06:17:46.503823 18921 net.cpp:150] Setting up L2_b2_sum_eltwise
I1212 06:17:46.503841 18921 net.cpp:157] Top shape: 125 32 16 16 (1024000)
I1212 06:17:46.503851 18921 net.cpp:165] Memory required for data: 929281500
I1212 06:17:46.503861 18921 layer_factory.hpp:77] Creating layer L2_b2_relu
I1212 06:17:46.503880 18921 net.cpp:100] Creating Layer L2_b2_relu
I1212 06:17:46.503892 18921 net.cpp:434] L2_b2_relu <- L2_b2_sum_eltwise_top
I1212 06:17:46.503907 18921 net.cpp:395] L2_b2_relu -> L2_b2_sum_eltwise_top (in-place)
I1212 06:17:46.503926 18921 net.cpp:150] Setting up L2_b2_relu
I1212 06:17:46.503942 18921 net.cpp:157] Top shape: 125 32 16 16 (1024000)
I1212 06:17:46.503952 18921 net.cpp:165] Memory required for data: 933377500
I1212 06:17:46.503962 18921 layer_factory.hpp:77] Creating layer L2_b2_sum_eltwise_top_L2_b2_relu_0_split
I1212 06:17:46.503975 18921 net.cpp:100] Creating Layer L2_b2_sum_eltwise_top_L2_b2_relu_0_split
I1212 06:17:46.503985 18921 net.cpp:434] L2_b2_sum_eltwise_top_L2_b2_relu_0_split <- L2_b2_sum_eltwise_top
I1212 06:17:46.504001 18921 net.cpp:408] L2_b2_sum_eltwise_top_L2_b2_relu_0_split -> L2_b2_sum_eltwise_top_L2_b2_relu_0_split_0
I1212 06:17:46.504020 18921 net.cpp:408] L2_b2_sum_eltwise_top_L2_b2_relu_0_split -> L2_b2_sum_eltwise_top_L2_b2_relu_0_split_1
I1212 06:17:46.504104 18921 net.cpp:150] Setting up L2_b2_sum_eltwise_top_L2_b2_relu_0_split
I1212 06:17:46.504123 18921 net.cpp:157] Top shape: 125 32 16 16 (1024000)
I1212 06:17:46.504137 18921 net.cpp:157] Top shape: 125 32 16 16 (1024000)
I1212 06:17:46.504145 18921 net.cpp:165] Memory required for data: 941569500
I1212 06:17:46.504156 18921 layer_factory.hpp:77] Creating layer L2_b3_cbr1_conv
I1212 06:17:46.504181 18921 net.cpp:100] Creating Layer L2_b3_cbr1_conv
I1212 06:17:46.504204 18921 net.cpp:434] L2_b3_cbr1_conv <- L2_b2_sum_eltwise_top_L2_b2_relu_0_split_0
I1212 06:17:46.504225 18921 net.cpp:408] L2_b3_cbr1_conv -> L2_b3_cbr1_conv_top
I1212 06:17:46.504739 18921 net.cpp:150] Setting up L2_b3_cbr1_conv
I1212 06:17:46.504758 18921 net.cpp:157] Top shape: 125 32 16 16 (1024000)
I1212 06:17:46.504767 18921 net.cpp:165] Memory required for data: 945665500
I1212 06:17:46.504786 18921 layer_factory.hpp:77] Creating layer L2_b3_cbr1_bn
I1212 06:17:46.504807 18921 net.cpp:100] Creating Layer L2_b3_cbr1_bn
I1212 06:17:46.504819 18921 net.cpp:434] L2_b3_cbr1_bn <- L2_b3_cbr1_conv_top
I1212 06:17:46.504842 18921 net.cpp:408] L2_b3_cbr1_bn -> L2_b3_cbr1_bn_top
I1212 06:17:46.505126 18921 net.cpp:150] Setting up L2_b3_cbr1_bn
I1212 06:17:46.505146 18921 net.cpp:157] Top shape: 125 32 16 16 (1024000)
I1212 06:17:46.505156 18921 net.cpp:165] Memory required for data: 949761500
I1212 06:17:46.505177 18921 layer_factory.hpp:77] Creating layer L2_b3_cbr1_scale
I1212 06:17:46.505193 18921 net.cpp:100] Creating Layer L2_b3_cbr1_scale
I1212 06:17:46.505204 18921 net.cpp:434] L2_b3_cbr1_scale <- L2_b3_cbr1_bn_top
I1212 06:17:46.505219 18921 net.cpp:395] L2_b3_cbr1_scale -> L2_b3_cbr1_bn_top (in-place)
I1212 06:17:46.505314 18921 layer_factory.hpp:77] Creating layer L2_b3_cbr1_scale
I1212 06:17:46.505506 18921 net.cpp:150] Setting up L2_b3_cbr1_scale
I1212 06:17:46.505524 18921 net.cpp:157] Top shape: 125 32 16 16 (1024000)
I1212 06:17:46.505533 18921 net.cpp:165] Memory required for data: 953857500
I1212 06:17:46.505553 18921 layer_factory.hpp:77] Creating layer L2_b3_cbr1_relu
I1212 06:17:46.505573 18921 net.cpp:100] Creating Layer L2_b3_cbr1_relu
I1212 06:17:46.505584 18921 net.cpp:434] L2_b3_cbr1_relu <- L2_b3_cbr1_bn_top
I1212 06:17:46.505599 18921 net.cpp:395] L2_b3_cbr1_relu -> L2_b3_cbr1_bn_top (in-place)
I1212 06:17:46.505619 18921 net.cpp:150] Setting up L2_b3_cbr1_relu
I1212 06:17:46.505631 18921 net.cpp:157] Top shape: 125 32 16 16 (1024000)
I1212 06:17:46.505640 18921 net.cpp:165] Memory required for data: 957953500
I1212 06:17:46.505651 18921 layer_factory.hpp:77] Creating layer L2_b3_cbr2_conv
I1212 06:17:46.505677 18921 net.cpp:100] Creating Layer L2_b3_cbr2_conv
I1212 06:17:46.505690 18921 net.cpp:434] L2_b3_cbr2_conv <- L2_b3_cbr1_bn_top
I1212 06:17:46.505713 18921 net.cpp:408] L2_b3_cbr2_conv -> L2_b3_cbr2_conv_top
I1212 06:17:46.506232 18921 net.cpp:150] Setting up L2_b3_cbr2_conv
I1212 06:17:46.506252 18921 net.cpp:157] Top shape: 125 32 16 16 (1024000)
I1212 06:17:46.506260 18921 net.cpp:165] Memory required for data: 962049500
I1212 06:17:46.506278 18921 layer_factory.hpp:77] Creating layer L2_b3_cbr2_bn
I1212 06:17:46.506301 18921 net.cpp:100] Creating Layer L2_b3_cbr2_bn
I1212 06:17:46.506314 18921 net.cpp:434] L2_b3_cbr2_bn <- L2_b3_cbr2_conv_top
I1212 06:17:46.506335 18921 net.cpp:408] L2_b3_cbr2_bn -> L2_b3_cbr2_bn_top
I1212 06:17:46.506624 18921 net.cpp:150] Setting up L2_b3_cbr2_bn
I1212 06:17:46.506647 18921 net.cpp:157] Top shape: 125 32 16 16 (1024000)
I1212 06:17:46.506657 18921 net.cpp:165] Memory required for data: 966145500
I1212 06:17:46.506680 18921 layer_factory.hpp:77] Creating layer L2_b3_cbr2_scale
I1212 06:17:46.506696 18921 net.cpp:100] Creating Layer L2_b3_cbr2_scale
I1212 06:17:46.506707 18921 net.cpp:434] L2_b3_cbr2_scale <- L2_b3_cbr2_bn_top
I1212 06:17:46.506722 18921 net.cpp:395] L2_b3_cbr2_scale -> L2_b3_cbr2_bn_top (in-place)
I1212 06:17:46.506813 18921 layer_factory.hpp:77] Creating layer L2_b3_cbr2_scale
I1212 06:17:46.507006 18921 net.cpp:150] Setting up L2_b3_cbr2_scale
I1212 06:17:46.507025 18921 net.cpp:157] Top shape: 125 32 16 16 (1024000)
I1212 06:17:46.507035 18921 net.cpp:165] Memory required for data: 970241500
I1212 06:17:46.507052 18921 layer_factory.hpp:77] Creating layer L2_b3_sum_eltwise
I1212 06:17:46.507069 18921 net.cpp:100] Creating Layer L2_b3_sum_eltwise
I1212 06:17:46.507081 18921 net.cpp:434] L2_b3_sum_eltwise <- L2_b3_cbr2_bn_top
I1212 06:17:46.507098 18921 net.cpp:434] L2_b3_sum_eltwise <- L2_b2_sum_eltwise_top_L2_b2_relu_0_split_1
I1212 06:17:46.507125 18921 net.cpp:408] L2_b3_sum_eltwise -> L2_b3_sum_eltwise_top
I1212 06:17:46.507174 18921 net.cpp:150] Setting up L2_b3_sum_eltwise
I1212 06:17:46.507194 18921 net.cpp:157] Top shape: 125 32 16 16 (1024000)
I1212 06:17:46.507205 18921 net.cpp:165] Memory required for data: 974337500
I1212 06:17:46.507213 18921 layer_factory.hpp:77] Creating layer L2_b3_relu
I1212 06:17:46.507251 18921 net.cpp:100] Creating Layer L2_b3_relu
I1212 06:17:46.507266 18921 net.cpp:434] L2_b3_relu <- L2_b3_sum_eltwise_top
I1212 06:17:46.507282 18921 net.cpp:395] L2_b3_relu -> L2_b3_sum_eltwise_top (in-place)
I1212 06:17:46.507300 18921 net.cpp:150] Setting up L2_b3_relu
I1212 06:17:46.507314 18921 net.cpp:157] Top shape: 125 32 16 16 (1024000)
I1212 06:17:46.507324 18921 net.cpp:165] Memory required for data: 978433500
I1212 06:17:46.507335 18921 layer_factory.hpp:77] Creating layer L2_b3_sum_eltwise_top_L2_b3_relu_0_split
I1212 06:17:46.507349 18921 net.cpp:100] Creating Layer L2_b3_sum_eltwise_top_L2_b3_relu_0_split
I1212 06:17:46.507359 18921 net.cpp:434] L2_b3_sum_eltwise_top_L2_b3_relu_0_split <- L2_b3_sum_eltwise_top
I1212 06:17:46.507385 18921 net.cpp:408] L2_b3_sum_eltwise_top_L2_b3_relu_0_split -> L2_b3_sum_eltwise_top_L2_b3_relu_0_split_0
I1212 06:17:46.507405 18921 net.cpp:408] L2_b3_sum_eltwise_top_L2_b3_relu_0_split -> L2_b3_sum_eltwise_top_L2_b3_relu_0_split_1
I1212 06:17:46.507493 18921 net.cpp:150] Setting up L2_b3_sum_eltwise_top_L2_b3_relu_0_split
I1212 06:17:46.507513 18921 net.cpp:157] Top shape: 125 32 16 16 (1024000)
I1212 06:17:46.507524 18921 net.cpp:157] Top shape: 125 32 16 16 (1024000)
I1212 06:17:46.507534 18921 net.cpp:165] Memory required for data: 986625500
I1212 06:17:46.507544 18921 layer_factory.hpp:77] Creating layer L2_b4_cbr1_conv
I1212 06:17:46.507565 18921 net.cpp:100] Creating Layer L2_b4_cbr1_conv
I1212 06:17:46.507577 18921 net.cpp:434] L2_b4_cbr1_conv <- L2_b3_sum_eltwise_top_L2_b3_relu_0_split_0
I1212 06:17:46.507601 18921 net.cpp:408] L2_b4_cbr1_conv -> L2_b4_cbr1_conv_top
I1212 06:17:46.508117 18921 net.cpp:150] Setting up L2_b4_cbr1_conv
I1212 06:17:46.508137 18921 net.cpp:157] Top shape: 125 32 16 16 (1024000)
I1212 06:17:46.508147 18921 net.cpp:165] Memory required for data: 990721500
I1212 06:17:46.508165 18921 layer_factory.hpp:77] Creating layer L2_b4_cbr1_bn
I1212 06:17:46.508186 18921 net.cpp:100] Creating Layer L2_b4_cbr1_bn
I1212 06:17:46.508198 18921 net.cpp:434] L2_b4_cbr1_bn <- L2_b4_cbr1_conv_top
I1212 06:17:46.508215 18921 net.cpp:408] L2_b4_cbr1_bn -> L2_b4_cbr1_bn_top
I1212 06:17:46.508512 18921 net.cpp:150] Setting up L2_b4_cbr1_bn
I1212 06:17:46.508532 18921 net.cpp:157] Top shape: 125 32 16 16 (1024000)
I1212 06:17:46.508540 18921 net.cpp:165] Memory required for data: 994817500
I1212 06:17:46.508561 18921 layer_factory.hpp:77] Creating layer L2_b4_cbr1_scale
I1212 06:17:46.508582 18921 net.cpp:100] Creating Layer L2_b4_cbr1_scale
I1212 06:17:46.508594 18921 net.cpp:434] L2_b4_cbr1_scale <- L2_b4_cbr1_bn_top
I1212 06:17:46.508610 18921 net.cpp:395] L2_b4_cbr1_scale -> L2_b4_cbr1_bn_top (in-place)
I1212 06:17:46.508703 18921 layer_factory.hpp:77] Creating layer L2_b4_cbr1_scale
I1212 06:17:46.508890 18921 net.cpp:150] Setting up L2_b4_cbr1_scale
I1212 06:17:46.508909 18921 net.cpp:157] Top shape: 125 32 16 16 (1024000)
I1212 06:17:46.508919 18921 net.cpp:165] Memory required for data: 998913500
I1212 06:17:46.508937 18921 layer_factory.hpp:77] Creating layer L2_b4_cbr1_relu
I1212 06:17:46.508956 18921 net.cpp:100] Creating Layer L2_b4_cbr1_relu
I1212 06:17:46.508968 18921 net.cpp:434] L2_b4_cbr1_relu <- L2_b4_cbr1_bn_top
I1212 06:17:46.508986 18921 net.cpp:395] L2_b4_cbr1_relu -> L2_b4_cbr1_bn_top (in-place)
I1212 06:17:46.509006 18921 net.cpp:150] Setting up L2_b4_cbr1_relu
I1212 06:17:46.509021 18921 net.cpp:157] Top shape: 125 32 16 16 (1024000)
I1212 06:17:46.509029 18921 net.cpp:165] Memory required for data: 1003009500
I1212 06:17:46.509039 18921 layer_factory.hpp:77] Creating layer L2_b4_cbr2_conv
I1212 06:17:46.509061 18921 net.cpp:100] Creating Layer L2_b4_cbr2_conv
I1212 06:17:46.509081 18921 net.cpp:434] L2_b4_cbr2_conv <- L2_b4_cbr1_bn_top
I1212 06:17:46.509105 18921 net.cpp:408] L2_b4_cbr2_conv -> L2_b4_cbr2_conv_top
I1212 06:17:46.509625 18921 net.cpp:150] Setting up L2_b4_cbr2_conv
I1212 06:17:46.509646 18921 net.cpp:157] Top shape: 125 32 16 16 (1024000)
I1212 06:17:46.509655 18921 net.cpp:165] Memory required for data: 1007105500
I1212 06:17:46.509673 18921 layer_factory.hpp:77] Creating layer L2_b4_cbr2_bn
I1212 06:17:46.509690 18921 net.cpp:100] Creating Layer L2_b4_cbr2_bn
I1212 06:17:46.509701 18921 net.cpp:434] L2_b4_cbr2_bn <- L2_b4_cbr2_conv_top
I1212 06:17:46.509726 18921 net.cpp:408] L2_b4_cbr2_bn -> L2_b4_cbr2_bn_top
I1212 06:17:46.510015 18921 net.cpp:150] Setting up L2_b4_cbr2_bn
I1212 06:17:46.510033 18921 net.cpp:157] Top shape: 125 32 16 16 (1024000)
I1212 06:17:46.510042 18921 net.cpp:165] Memory required for data: 1011201500
I1212 06:17:46.510063 18921 layer_factory.hpp:77] Creating layer L2_b4_cbr2_scale
I1212 06:17:46.510085 18921 net.cpp:100] Creating Layer L2_b4_cbr2_scale
I1212 06:17:46.510097 18921 net.cpp:434] L2_b4_cbr2_scale <- L2_b4_cbr2_bn_top
I1212 06:17:46.510113 18921 net.cpp:395] L2_b4_cbr2_scale -> L2_b4_cbr2_bn_top (in-place)
I1212 06:17:46.510205 18921 layer_factory.hpp:77] Creating layer L2_b4_cbr2_scale
I1212 06:17:46.510399 18921 net.cpp:150] Setting up L2_b4_cbr2_scale
I1212 06:17:46.510419 18921 net.cpp:157] Top shape: 125 32 16 16 (1024000)
I1212 06:17:46.510428 18921 net.cpp:165] Memory required for data: 1015297500
I1212 06:17:46.510447 18921 layer_factory.hpp:77] Creating layer L2_b4_sum_eltwise
I1212 06:17:46.510468 18921 net.cpp:100] Creating Layer L2_b4_sum_eltwise
I1212 06:17:46.510480 18921 net.cpp:434] L2_b4_sum_eltwise <- L2_b4_cbr2_bn_top
I1212 06:17:46.510493 18921 net.cpp:434] L2_b4_sum_eltwise <- L2_b3_sum_eltwise_top_L2_b3_relu_0_split_1
I1212 06:17:46.510509 18921 net.cpp:408] L2_b4_sum_eltwise -> L2_b4_sum_eltwise_top
I1212 06:17:46.510560 18921 net.cpp:150] Setting up L2_b4_sum_eltwise
I1212 06:17:46.510581 18921 net.cpp:157] Top shape: 125 32 16 16 (1024000)
I1212 06:17:46.510591 18921 net.cpp:165] Memory required for data: 1019393500
I1212 06:17:46.510601 18921 layer_factory.hpp:77] Creating layer L2_b4_relu
I1212 06:17:46.510615 18921 net.cpp:100] Creating Layer L2_b4_relu
I1212 06:17:46.510625 18921 net.cpp:434] L2_b4_relu <- L2_b4_sum_eltwise_top
I1212 06:17:46.510644 18921 net.cpp:395] L2_b4_relu -> L2_b4_sum_eltwise_top (in-place)
I1212 06:17:46.510664 18921 net.cpp:150] Setting up L2_b4_relu
I1212 06:17:46.510679 18921 net.cpp:157] Top shape: 125 32 16 16 (1024000)
I1212 06:17:46.510689 18921 net.cpp:165] Memory required for data: 1023489500
I1212 06:17:46.510699 18921 layer_factory.hpp:77] Creating layer L2_b4_sum_eltwise_top_L2_b4_relu_0_split
I1212 06:17:46.510712 18921 net.cpp:100] Creating Layer L2_b4_sum_eltwise_top_L2_b4_relu_0_split
I1212 06:17:46.510723 18921 net.cpp:434] L2_b4_sum_eltwise_top_L2_b4_relu_0_split <- L2_b4_sum_eltwise_top
I1212 06:17:46.510738 18921 net.cpp:408] L2_b4_sum_eltwise_top_L2_b4_relu_0_split -> L2_b4_sum_eltwise_top_L2_b4_relu_0_split_0
I1212 06:17:46.510757 18921 net.cpp:408] L2_b4_sum_eltwise_top_L2_b4_relu_0_split -> L2_b4_sum_eltwise_top_L2_b4_relu_0_split_1
I1212 06:17:46.510841 18921 net.cpp:150] Setting up L2_b4_sum_eltwise_top_L2_b4_relu_0_split
I1212 06:17:46.510864 18921 net.cpp:157] Top shape: 125 32 16 16 (1024000)
I1212 06:17:46.510876 18921 net.cpp:157] Top shape: 125 32 16 16 (1024000)
I1212 06:17:46.510885 18921 net.cpp:165] Memory required for data: 1031681500
I1212 06:17:46.510896 18921 layer_factory.hpp:77] Creating layer L2_b5_cbr1_conv
I1212 06:17:46.510916 18921 net.cpp:100] Creating Layer L2_b5_cbr1_conv
I1212 06:17:46.510929 18921 net.cpp:434] L2_b5_cbr1_conv <- L2_b4_sum_eltwise_top_L2_b4_relu_0_split_0
I1212 06:17:46.510952 18921 net.cpp:408] L2_b5_cbr1_conv -> L2_b5_cbr1_conv_top
I1212 06:17:46.511482 18921 net.cpp:150] Setting up L2_b5_cbr1_conv
I1212 06:17:46.511502 18921 net.cpp:157] Top shape: 125 32 16 16 (1024000)
I1212 06:17:46.511520 18921 net.cpp:165] Memory required for data: 1035777500
I1212 06:17:46.511538 18921 layer_factory.hpp:77] Creating layer L2_b5_cbr1_bn
I1212 06:17:46.511556 18921 net.cpp:100] Creating Layer L2_b5_cbr1_bn
I1212 06:17:46.511569 18921 net.cpp:434] L2_b5_cbr1_bn <- L2_b5_cbr1_conv_top
I1212 06:17:46.511590 18921 net.cpp:408] L2_b5_cbr1_bn -> L2_b5_cbr1_bn_top
I1212 06:17:46.511893 18921 net.cpp:150] Setting up L2_b5_cbr1_bn
I1212 06:17:46.511912 18921 net.cpp:157] Top shape: 125 32 16 16 (1024000)
I1212 06:17:46.511921 18921 net.cpp:165] Memory required for data: 1039873500
I1212 06:17:46.511943 18921 layer_factory.hpp:77] Creating layer L2_b5_cbr1_scale
I1212 06:17:46.511965 18921 net.cpp:100] Creating Layer L2_b5_cbr1_scale
I1212 06:17:46.511977 18921 net.cpp:434] L2_b5_cbr1_scale <- L2_b5_cbr1_bn_top
I1212 06:17:46.511992 18921 net.cpp:395] L2_b5_cbr1_scale -> L2_b5_cbr1_bn_top (in-place)
I1212 06:17:46.512082 18921 layer_factory.hpp:77] Creating layer L2_b5_cbr1_scale
I1212 06:17:46.512275 18921 net.cpp:150] Setting up L2_b5_cbr1_scale
I1212 06:17:46.512295 18921 net.cpp:157] Top shape: 125 32 16 16 (1024000)
I1212 06:17:46.512305 18921 net.cpp:165] Memory required for data: 1043969500
I1212 06:17:46.512322 18921 layer_factory.hpp:77] Creating layer L2_b5_cbr1_relu
I1212 06:17:46.512343 18921 net.cpp:100] Creating Layer L2_b5_cbr1_relu
I1212 06:17:46.512356 18921 net.cpp:434] L2_b5_cbr1_relu <- L2_b5_cbr1_bn_top
I1212 06:17:46.512378 18921 net.cpp:395] L2_b5_cbr1_relu -> L2_b5_cbr1_bn_top (in-place)
I1212 06:17:46.512398 18921 net.cpp:150] Setting up L2_b5_cbr1_relu
I1212 06:17:46.512413 18921 net.cpp:157] Top shape: 125 32 16 16 (1024000)
I1212 06:17:46.512423 18921 net.cpp:165] Memory required for data: 1048065500
I1212 06:17:46.512432 18921 layer_factory.hpp:77] Creating layer L2_b5_cbr2_conv
I1212 06:17:46.512459 18921 net.cpp:100] Creating Layer L2_b5_cbr2_conv
I1212 06:17:46.512472 18921 net.cpp:434] L2_b5_cbr2_conv <- L2_b5_cbr1_bn_top
I1212 06:17:46.512495 18921 net.cpp:408] L2_b5_cbr2_conv -> L2_b5_cbr2_conv_top
I1212 06:17:46.513003 18921 net.cpp:150] Setting up L2_b5_cbr2_conv
I1212 06:17:46.513023 18921 net.cpp:157] Top shape: 125 32 16 16 (1024000)
I1212 06:17:46.513032 18921 net.cpp:165] Memory required for data: 1052161500
I1212 06:17:46.513049 18921 layer_factory.hpp:77] Creating layer L2_b5_cbr2_bn
I1212 06:17:46.513067 18921 net.cpp:100] Creating Layer L2_b5_cbr2_bn
I1212 06:17:46.513078 18921 net.cpp:434] L2_b5_cbr2_bn <- L2_b5_cbr2_conv_top
I1212 06:17:46.513099 18921 net.cpp:408] L2_b5_cbr2_bn -> L2_b5_cbr2_bn_top
I1212 06:17:46.513401 18921 net.cpp:150] Setting up L2_b5_cbr2_bn
I1212 06:17:46.513422 18921 net.cpp:157] Top shape: 125 32 16 16 (1024000)
I1212 06:17:46.513432 18921 net.cpp:165] Memory required for data: 1056257500
I1212 06:17:46.513453 18921 layer_factory.hpp:77] Creating layer L2_b5_cbr2_scale
I1212 06:17:46.513474 18921 net.cpp:100] Creating Layer L2_b5_cbr2_scale
I1212 06:17:46.513487 18921 net.cpp:434] L2_b5_cbr2_scale <- L2_b5_cbr2_bn_top
I1212 06:17:46.513502 18921 net.cpp:395] L2_b5_cbr2_scale -> L2_b5_cbr2_bn_top (in-place)
I1212 06:17:46.513592 18921 layer_factory.hpp:77] Creating layer L2_b5_cbr2_scale
I1212 06:17:46.513782 18921 net.cpp:150] Setting up L2_b5_cbr2_scale
I1212 06:17:46.513801 18921 net.cpp:157] Top shape: 125 32 16 16 (1024000)
I1212 06:17:46.513810 18921 net.cpp:165] Memory required for data: 1060353500
I1212 06:17:46.513828 18921 layer_factory.hpp:77] Creating layer L2_b5_sum_eltwise
I1212 06:17:46.513856 18921 net.cpp:100] Creating Layer L2_b5_sum_eltwise
I1212 06:17:46.513870 18921 net.cpp:434] L2_b5_sum_eltwise <- L2_b5_cbr2_bn_top
I1212 06:17:46.513883 18921 net.cpp:434] L2_b5_sum_eltwise <- L2_b4_sum_eltwise_top_L2_b4_relu_0_split_1
I1212 06:17:46.513900 18921 net.cpp:408] L2_b5_sum_eltwise -> L2_b5_sum_eltwise_top
I1212 06:17:46.513952 18921 net.cpp:150] Setting up L2_b5_sum_eltwise
I1212 06:17:46.513970 18921 net.cpp:157] Top shape: 125 32 16 16 (1024000)
I1212 06:17:46.513980 18921 net.cpp:165] Memory required for data: 1064449500
I1212 06:17:46.514001 18921 layer_factory.hpp:77] Creating layer L2_b5_relu
I1212 06:17:46.514016 18921 net.cpp:100] Creating Layer L2_b5_relu
I1212 06:17:46.514027 18921 net.cpp:434] L2_b5_relu <- L2_b5_sum_eltwise_top
I1212 06:17:46.514042 18921 net.cpp:395] L2_b5_relu -> L2_b5_sum_eltwise_top (in-place)
I1212 06:17:46.514065 18921 net.cpp:150] Setting up L2_b5_relu
I1212 06:17:46.514081 18921 net.cpp:157] Top shape: 125 32 16 16 (1024000)
I1212 06:17:46.514091 18921 net.cpp:165] Memory required for data: 1068545500
I1212 06:17:46.514101 18921 layer_factory.hpp:77] Creating layer L2_b5_sum_eltwise_top_L2_b5_relu_0_split
I1212 06:17:46.514116 18921 net.cpp:100] Creating Layer L2_b5_sum_eltwise_top_L2_b5_relu_0_split
I1212 06:17:46.514127 18921 net.cpp:434] L2_b5_sum_eltwise_top_L2_b5_relu_0_split <- L2_b5_sum_eltwise_top
I1212 06:17:46.514142 18921 net.cpp:408] L2_b5_sum_eltwise_top_L2_b5_relu_0_split -> L2_b5_sum_eltwise_top_L2_b5_relu_0_split_0
I1212 06:17:46.514163 18921 net.cpp:408] L2_b5_sum_eltwise_top_L2_b5_relu_0_split -> L2_b5_sum_eltwise_top_L2_b5_relu_0_split_1
I1212 06:17:46.514246 18921 net.cpp:150] Setting up L2_b5_sum_eltwise_top_L2_b5_relu_0_split
I1212 06:17:46.514269 18921 net.cpp:157] Top shape: 125 32 16 16 (1024000)
I1212 06:17:46.514283 18921 net.cpp:157] Top shape: 125 32 16 16 (1024000)
I1212 06:17:46.514293 18921 net.cpp:165] Memory required for data: 1076737500
I1212 06:17:46.514304 18921 layer_factory.hpp:77] Creating layer L2_b6_cbr1_conv
I1212 06:17:46.514324 18921 net.cpp:100] Creating Layer L2_b6_cbr1_conv
I1212 06:17:46.514338 18921 net.cpp:434] L2_b6_cbr1_conv <- L2_b5_sum_eltwise_top_L2_b5_relu_0_split_0
I1212 06:17:46.514367 18921 net.cpp:408] L2_b6_cbr1_conv -> L2_b6_cbr1_conv_top
I1212 06:17:46.514886 18921 net.cpp:150] Setting up L2_b6_cbr1_conv
I1212 06:17:46.514905 18921 net.cpp:157] Top shape: 125 32 16 16 (1024000)
I1212 06:17:46.514915 18921 net.cpp:165] Memory required for data: 1080833500
I1212 06:17:46.514932 18921 layer_factory.hpp:77] Creating layer L2_b6_cbr1_bn
I1212 06:17:46.514950 18921 net.cpp:100] Creating Layer L2_b6_cbr1_bn
I1212 06:17:46.514961 18921 net.cpp:434] L2_b6_cbr1_bn <- L2_b6_cbr1_conv_top
I1212 06:17:46.514982 18921 net.cpp:408] L2_b6_cbr1_bn -> L2_b6_cbr1_bn_top
I1212 06:17:46.515276 18921 net.cpp:150] Setting up L2_b6_cbr1_bn
I1212 06:17:46.515295 18921 net.cpp:157] Top shape: 125 32 16 16 (1024000)
I1212 06:17:46.515305 18921 net.cpp:165] Memory required for data: 1084929500
I1212 06:17:46.515326 18921 layer_factory.hpp:77] Creating layer L2_b6_cbr1_scale
I1212 06:17:46.515347 18921 net.cpp:100] Creating Layer L2_b6_cbr1_scale
I1212 06:17:46.515359 18921 net.cpp:434] L2_b6_cbr1_scale <- L2_b6_cbr1_bn_top
I1212 06:17:46.515383 18921 net.cpp:395] L2_b6_cbr1_scale -> L2_b6_cbr1_bn_top (in-place)
I1212 06:17:46.515470 18921 layer_factory.hpp:77] Creating layer L2_b6_cbr1_scale
I1212 06:17:46.515656 18921 net.cpp:150] Setting up L2_b6_cbr1_scale
I1212 06:17:46.515676 18921 net.cpp:157] Top shape: 125 32 16 16 (1024000)
I1212 06:17:46.515684 18921 net.cpp:165] Memory required for data: 1089025500
I1212 06:17:46.515702 18921 layer_factory.hpp:77] Creating layer L2_b6_cbr1_relu
I1212 06:17:46.515722 18921 net.cpp:100] Creating Layer L2_b6_cbr1_relu
I1212 06:17:46.515733 18921 net.cpp:434] L2_b6_cbr1_relu <- L2_b6_cbr1_bn_top
I1212 06:17:46.515748 18921 net.cpp:395] L2_b6_cbr1_relu -> L2_b6_cbr1_bn_top (in-place)
I1212 06:17:46.515766 18921 net.cpp:150] Setting up L2_b6_cbr1_relu
I1212 06:17:46.515780 18921 net.cpp:157] Top shape: 125 32 16 16 (1024000)
I1212 06:17:46.515790 18921 net.cpp:165] Memory required for data: 1093121500
I1212 06:17:46.515800 18921 layer_factory.hpp:77] Creating layer L2_b6_cbr2_conv
I1212 06:17:46.515826 18921 net.cpp:100] Creating Layer L2_b6_cbr2_conv
I1212 06:17:46.515839 18921 net.cpp:434] L2_b6_cbr2_conv <- L2_b6_cbr1_bn_top
I1212 06:17:46.515864 18921 net.cpp:408] L2_b6_cbr2_conv -> L2_b6_cbr2_conv_top
I1212 06:17:46.516388 18921 net.cpp:150] Setting up L2_b6_cbr2_conv
I1212 06:17:46.516408 18921 net.cpp:157] Top shape: 125 32 16 16 (1024000)
I1212 06:17:46.516427 18921 net.cpp:165] Memory required for data: 1097217500
I1212 06:17:46.516444 18921 layer_factory.hpp:77] Creating layer L2_b6_cbr2_bn
I1212 06:17:46.516463 18921 net.cpp:100] Creating Layer L2_b6_cbr2_bn
I1212 06:17:46.516474 18921 net.cpp:434] L2_b6_cbr2_bn <- L2_b6_cbr2_conv_top
I1212 06:17:46.516492 18921 net.cpp:408] L2_b6_cbr2_bn -> L2_b6_cbr2_bn_top
I1212 06:17:46.516793 18921 net.cpp:150] Setting up L2_b6_cbr2_bn
I1212 06:17:46.516813 18921 net.cpp:157] Top shape: 125 32 16 16 (1024000)
I1212 06:17:46.516821 18921 net.cpp:165] Memory required for data: 1101313500
I1212 06:17:46.516844 18921 layer_factory.hpp:77] Creating layer L2_b6_cbr2_scale
I1212 06:17:46.516865 18921 net.cpp:100] Creating Layer L2_b6_cbr2_scale
I1212 06:17:46.516878 18921 net.cpp:434] L2_b6_cbr2_scale <- L2_b6_cbr2_bn_top
I1212 06:17:46.516894 18921 net.cpp:395] L2_b6_cbr2_scale -> L2_b6_cbr2_bn_top (in-place)
I1212 06:17:46.516983 18921 layer_factory.hpp:77] Creating layer L2_b6_cbr2_scale
I1212 06:17:46.517174 18921 net.cpp:150] Setting up L2_b6_cbr2_scale
I1212 06:17:46.517191 18921 net.cpp:157] Top shape: 125 32 16 16 (1024000)
I1212 06:17:46.517201 18921 net.cpp:165] Memory required for data: 1105409500
I1212 06:17:46.517220 18921 layer_factory.hpp:77] Creating layer L2_b6_sum_eltwise
I1212 06:17:46.517236 18921 net.cpp:100] Creating Layer L2_b6_sum_eltwise
I1212 06:17:46.517248 18921 net.cpp:434] L2_b6_sum_eltwise <- L2_b6_cbr2_bn_top
I1212 06:17:46.517261 18921 net.cpp:434] L2_b6_sum_eltwise <- L2_b5_sum_eltwise_top_L2_b5_relu_0_split_1
I1212 06:17:46.517282 18921 net.cpp:408] L2_b6_sum_eltwise -> L2_b6_sum_eltwise_top
I1212 06:17:46.517329 18921 net.cpp:150] Setting up L2_b6_sum_eltwise
I1212 06:17:46.517357 18921 net.cpp:157] Top shape: 125 32 16 16 (1024000)
I1212 06:17:46.517375 18921 net.cpp:165] Memory required for data: 1109505500
I1212 06:17:46.517386 18921 layer_factory.hpp:77] Creating layer L2_b6_relu
I1212 06:17:46.517400 18921 net.cpp:100] Creating Layer L2_b6_relu
I1212 06:17:46.517412 18921 net.cpp:434] L2_b6_relu <- L2_b6_sum_eltwise_top
I1212 06:17:46.517426 18921 net.cpp:395] L2_b6_relu -> L2_b6_sum_eltwise_top (in-place)
I1212 06:17:46.517446 18921 net.cpp:150] Setting up L2_b6_relu
I1212 06:17:46.517460 18921 net.cpp:157] Top shape: 125 32 16 16 (1024000)
I1212 06:17:46.517469 18921 net.cpp:165] Memory required for data: 1113601500
I1212 06:17:46.517480 18921 layer_factory.hpp:77] Creating layer L2_b6_sum_eltwise_top_L2_b6_relu_0_split
I1212 06:17:46.517498 18921 net.cpp:100] Creating Layer L2_b6_sum_eltwise_top_L2_b6_relu_0_split
I1212 06:17:46.517510 18921 net.cpp:434] L2_b6_sum_eltwise_top_L2_b6_relu_0_split <- L2_b6_sum_eltwise_top
I1212 06:17:46.517525 18921 net.cpp:408] L2_b6_sum_eltwise_top_L2_b6_relu_0_split -> L2_b6_sum_eltwise_top_L2_b6_relu_0_split_0
I1212 06:17:46.517545 18921 net.cpp:408] L2_b6_sum_eltwise_top_L2_b6_relu_0_split -> L2_b6_sum_eltwise_top_L2_b6_relu_0_split_1
I1212 06:17:46.517630 18921 net.cpp:150] Setting up L2_b6_sum_eltwise_top_L2_b6_relu_0_split
I1212 06:17:46.517648 18921 net.cpp:157] Top shape: 125 32 16 16 (1024000)
I1212 06:17:46.517662 18921 net.cpp:157] Top shape: 125 32 16 16 (1024000)
I1212 06:17:46.517670 18921 net.cpp:165] Memory required for data: 1121793500
I1212 06:17:46.517680 18921 layer_factory.hpp:77] Creating layer L2_b7_cbr1_conv
I1212 06:17:46.517701 18921 net.cpp:100] Creating Layer L2_b7_cbr1_conv
I1212 06:17:46.517714 18921 net.cpp:434] L2_b7_cbr1_conv <- L2_b6_sum_eltwise_top_L2_b6_relu_0_split_0
I1212 06:17:46.517736 18921 net.cpp:408] L2_b7_cbr1_conv -> L2_b7_cbr1_conv_top
I1212 06:17:46.518260 18921 net.cpp:150] Setting up L2_b7_cbr1_conv
I1212 06:17:46.518280 18921 net.cpp:157] Top shape: 125 32 16 16 (1024000)
I1212 06:17:46.518290 18921 net.cpp:165] Memory required for data: 1125889500
I1212 06:17:46.518307 18921 layer_factory.hpp:77] Creating layer L2_b7_cbr1_bn
I1212 06:17:46.518324 18921 net.cpp:100] Creating Layer L2_b7_cbr1_bn
I1212 06:17:46.518337 18921 net.cpp:434] L2_b7_cbr1_bn <- L2_b7_cbr1_conv_top
I1212 06:17:46.518373 18921 net.cpp:408] L2_b7_cbr1_bn -> L2_b7_cbr1_bn_top
I1212 06:17:46.518688 18921 net.cpp:150] Setting up L2_b7_cbr1_bn
I1212 06:17:46.518708 18921 net.cpp:157] Top shape: 125 32 16 16 (1024000)
I1212 06:17:46.518718 18921 net.cpp:165] Memory required for data: 1129985500
I1212 06:17:46.518739 18921 layer_factory.hpp:77] Creating layer L2_b7_cbr1_scale
I1212 06:17:46.518760 18921 net.cpp:100] Creating Layer L2_b7_cbr1_scale
I1212 06:17:46.518771 18921 net.cpp:434] L2_b7_cbr1_scale <- L2_b7_cbr1_bn_top
I1212 06:17:46.518788 18921 net.cpp:395] L2_b7_cbr1_scale -> L2_b7_cbr1_bn_top (in-place)
I1212 06:17:46.518879 18921 layer_factory.hpp:77] Creating layer L2_b7_cbr1_scale
I1212 06:17:46.519070 18921 net.cpp:150] Setting up L2_b7_cbr1_scale
I1212 06:17:46.519089 18921 net.cpp:157] Top shape: 125 32 16 16 (1024000)
I1212 06:17:46.519098 18921 net.cpp:165] Memory required for data: 1134081500
I1212 06:17:46.519117 18921 layer_factory.hpp:77] Creating layer L2_b7_cbr1_relu
I1212 06:17:46.519134 18921 net.cpp:100] Creating Layer L2_b7_cbr1_relu
I1212 06:17:46.519145 18921 net.cpp:434] L2_b7_cbr1_relu <- L2_b7_cbr1_bn_top
I1212 06:17:46.519166 18921 net.cpp:395] L2_b7_cbr1_relu -> L2_b7_cbr1_bn_top (in-place)
I1212 06:17:46.519187 18921 net.cpp:150] Setting up L2_b7_cbr1_relu
I1212 06:17:46.519201 18921 net.cpp:157] Top shape: 125 32 16 16 (1024000)
I1212 06:17:46.519210 18921 net.cpp:165] Memory required for data: 1138177500
I1212 06:17:46.519220 18921 layer_factory.hpp:77] Creating layer L2_b7_cbr2_conv
I1212 06:17:46.519246 18921 net.cpp:100] Creating Layer L2_b7_cbr2_conv
I1212 06:17:46.519259 18921 net.cpp:434] L2_b7_cbr2_conv <- L2_b7_cbr1_bn_top
I1212 06:17:46.519281 18921 net.cpp:408] L2_b7_cbr2_conv -> L2_b7_cbr2_conv_top
I1212 06:17:46.519809 18921 net.cpp:150] Setting up L2_b7_cbr2_conv
I1212 06:17:46.519829 18921 net.cpp:157] Top shape: 125 32 16 16 (1024000)
I1212 06:17:46.519839 18921 net.cpp:165] Memory required for data: 1142273500
I1212 06:17:46.519856 18921 layer_factory.hpp:77] Creating layer L2_b7_cbr2_bn
I1212 06:17:46.519873 18921 net.cpp:100] Creating Layer L2_b7_cbr2_bn
I1212 06:17:46.519884 18921 net.cpp:434] L2_b7_cbr2_bn <- L2_b7_cbr2_conv_top
I1212 06:17:46.519901 18921 net.cpp:408] L2_b7_cbr2_bn -> L2_b7_cbr2_bn_top
I1212 06:17:46.520200 18921 net.cpp:150] Setting up L2_b7_cbr2_bn
I1212 06:17:46.520218 18921 net.cpp:157] Top shape: 125 32 16 16 (1024000)
I1212 06:17:46.520228 18921 net.cpp:165] Memory required for data: 1146369500
I1212 06:17:46.520249 18921 layer_factory.hpp:77] Creating layer L2_b7_cbr2_scale
I1212 06:17:46.520267 18921 net.cpp:100] Creating Layer L2_b7_cbr2_scale
I1212 06:17:46.520277 18921 net.cpp:434] L2_b7_cbr2_scale <- L2_b7_cbr2_bn_top
I1212 06:17:46.520298 18921 net.cpp:395] L2_b7_cbr2_scale -> L2_b7_cbr2_bn_top (in-place)
I1212 06:17:46.520397 18921 layer_factory.hpp:77] Creating layer L2_b7_cbr2_scale
I1212 06:17:46.520588 18921 net.cpp:150] Setting up L2_b7_cbr2_scale
I1212 06:17:46.520606 18921 net.cpp:157] Top shape: 125 32 16 16 (1024000)
I1212 06:17:46.520615 18921 net.cpp:165] Memory required for data: 1150465500
I1212 06:17:46.520633 18921 layer_factory.hpp:77] Creating layer L2_b7_sum_eltwise
I1212 06:17:46.520650 18921 net.cpp:100] Creating Layer L2_b7_sum_eltwise
I1212 06:17:46.520663 18921 net.cpp:434] L2_b7_sum_eltwise <- L2_b7_cbr2_bn_top
I1212 06:17:46.520674 18921 net.cpp:434] L2_b7_sum_eltwise <- L2_b6_sum_eltwise_top_L2_b6_relu_0_split_1
I1212 06:17:46.520695 18921 net.cpp:408] L2_b7_sum_eltwise -> L2_b7_sum_eltwise_top
I1212 06:17:46.520745 18921 net.cpp:150] Setting up L2_b7_sum_eltwise
I1212 06:17:46.520767 18921 net.cpp:157] Top shape: 125 32 16 16 (1024000)
I1212 06:17:46.520778 18921 net.cpp:165] Memory required for data: 1154561500
I1212 06:17:46.520788 18921 layer_factory.hpp:77] Creating layer L2_b7_relu
I1212 06:17:46.520803 18921 net.cpp:100] Creating Layer L2_b7_relu
I1212 06:17:46.520814 18921 net.cpp:434] L2_b7_relu <- L2_b7_sum_eltwise_top
I1212 06:17:46.520829 18921 net.cpp:395] L2_b7_relu -> L2_b7_sum_eltwise_top (in-place)
I1212 06:17:46.520858 18921 net.cpp:150] Setting up L2_b7_relu
I1212 06:17:46.520872 18921 net.cpp:157] Top shape: 125 32 16 16 (1024000)
I1212 06:17:46.520882 18921 net.cpp:165] Memory required for data: 1158657500
I1212 06:17:46.520892 18921 layer_factory.hpp:77] Creating layer L2_b7_sum_eltwise_top_L2_b7_relu_0_split
I1212 06:17:46.520917 18921 net.cpp:100] Creating Layer L2_b7_sum_eltwise_top_L2_b7_relu_0_split
I1212 06:17:46.520931 18921 net.cpp:434] L2_b7_sum_eltwise_top_L2_b7_relu_0_split <- L2_b7_sum_eltwise_top
I1212 06:17:46.520947 18921 net.cpp:408] L2_b7_sum_eltwise_top_L2_b7_relu_0_split -> L2_b7_sum_eltwise_top_L2_b7_relu_0_split_0
I1212 06:17:46.520967 18921 net.cpp:408] L2_b7_sum_eltwise_top_L2_b7_relu_0_split -> L2_b7_sum_eltwise_top_L2_b7_relu_0_split_1
I1212 06:17:46.521049 18921 net.cpp:150] Setting up L2_b7_sum_eltwise_top_L2_b7_relu_0_split
I1212 06:17:46.521073 18921 net.cpp:157] Top shape: 125 32 16 16 (1024000)
I1212 06:17:46.521088 18921 net.cpp:157] Top shape: 125 32 16 16 (1024000)
I1212 06:17:46.521097 18921 net.cpp:165] Memory required for data: 1166849500
I1212 06:17:46.521108 18921 layer_factory.hpp:77] Creating layer L2_b8_cbr1_conv
I1212 06:17:46.521131 18921 net.cpp:100] Creating Layer L2_b8_cbr1_conv
I1212 06:17:46.521145 18921 net.cpp:434] L2_b8_cbr1_conv <- L2_b7_sum_eltwise_top_L2_b7_relu_0_split_0
I1212 06:17:46.521164 18921 net.cpp:408] L2_b8_cbr1_conv -> L2_b8_cbr1_conv_top
I1212 06:17:46.521698 18921 net.cpp:150] Setting up L2_b8_cbr1_conv
I1212 06:17:46.521724 18921 net.cpp:157] Top shape: 125 32 16 16 (1024000)
I1212 06:17:46.521734 18921 net.cpp:165] Memory required for data: 1170945500
I1212 06:17:46.521752 18921 layer_factory.hpp:77] Creating layer L2_b8_cbr1_bn
I1212 06:17:46.521770 18921 net.cpp:100] Creating Layer L2_b8_cbr1_bn
I1212 06:17:46.521782 18921 net.cpp:434] L2_b8_cbr1_bn <- L2_b8_cbr1_conv_top
I1212 06:17:46.521806 18921 net.cpp:408] L2_b8_cbr1_bn -> L2_b8_cbr1_bn_top
I1212 06:17:46.522097 18921 net.cpp:150] Setting up L2_b8_cbr1_bn
I1212 06:17:46.522117 18921 net.cpp:157] Top shape: 125 32 16 16 (1024000)
I1212 06:17:46.522126 18921 net.cpp:165] Memory required for data: 1175041500
I1212 06:17:46.522147 18921 layer_factory.hpp:77] Creating layer L2_b8_cbr1_scale
I1212 06:17:46.522169 18921 net.cpp:100] Creating Layer L2_b8_cbr1_scale
I1212 06:17:46.522181 18921 net.cpp:434] L2_b8_cbr1_scale <- L2_b8_cbr1_bn_top
I1212 06:17:46.522197 18921 net.cpp:395] L2_b8_cbr1_scale -> L2_b8_cbr1_bn_top (in-place)
I1212 06:17:46.522286 18921 layer_factory.hpp:77] Creating layer L2_b8_cbr1_scale
I1212 06:17:46.522487 18921 net.cpp:150] Setting up L2_b8_cbr1_scale
I1212 06:17:46.522506 18921 net.cpp:157] Top shape: 125 32 16 16 (1024000)
I1212 06:17:46.522516 18921 net.cpp:165] Memory required for data: 1179137500
I1212 06:17:46.522534 18921 layer_factory.hpp:77] Creating layer L2_b8_cbr1_relu
I1212 06:17:46.522550 18921 net.cpp:100] Creating Layer L2_b8_cbr1_relu
I1212 06:17:46.522562 18921 net.cpp:434] L2_b8_cbr1_relu <- L2_b8_cbr1_bn_top
I1212 06:17:46.522581 18921 net.cpp:395] L2_b8_cbr1_relu -> L2_b8_cbr1_bn_top (in-place)
I1212 06:17:46.522601 18921 net.cpp:150] Setting up L2_b8_cbr1_relu
I1212 06:17:46.522615 18921 net.cpp:157] Top shape: 125 32 16 16 (1024000)
I1212 06:17:46.522625 18921 net.cpp:165] Memory required for data: 1183233500
I1212 06:17:46.522635 18921 layer_factory.hpp:77] Creating layer L2_b8_cbr2_conv
I1212 06:17:46.522660 18921 net.cpp:100] Creating Layer L2_b8_cbr2_conv
I1212 06:17:46.522673 18921 net.cpp:434] L2_b8_cbr2_conv <- L2_b8_cbr1_bn_top
I1212 06:17:46.522691 18921 net.cpp:408] L2_b8_cbr2_conv -> L2_b8_cbr2_conv_top
I1212 06:17:46.523214 18921 net.cpp:150] Setting up L2_b8_cbr2_conv
I1212 06:17:46.523233 18921 net.cpp:157] Top shape: 125 32 16 16 (1024000)
I1212 06:17:46.523243 18921 net.cpp:165] Memory required for data: 1187329500
I1212 06:17:46.523260 18921 layer_factory.hpp:77] Creating layer L2_b8_cbr2_bn
I1212 06:17:46.523283 18921 net.cpp:100] Creating Layer L2_b8_cbr2_bn
I1212 06:17:46.523295 18921 net.cpp:434] L2_b8_cbr2_bn <- L2_b8_cbr2_conv_top
I1212 06:17:46.523324 18921 net.cpp:408] L2_b8_cbr2_bn -> L2_b8_cbr2_bn_top
I1212 06:17:46.523639 18921 net.cpp:150] Setting up L2_b8_cbr2_bn
I1212 06:17:46.523659 18921 net.cpp:157] Top shape: 125 32 16 16 (1024000)
I1212 06:17:46.523669 18921 net.cpp:165] Memory required for data: 1191425500
I1212 06:17:46.523689 18921 layer_factory.hpp:77] Creating layer L2_b8_cbr2_scale
I1212 06:17:46.523706 18921 net.cpp:100] Creating Layer L2_b8_cbr2_scale
I1212 06:17:46.523717 18921 net.cpp:434] L2_b8_cbr2_scale <- L2_b8_cbr2_bn_top
I1212 06:17:46.523737 18921 net.cpp:395] L2_b8_cbr2_scale -> L2_b8_cbr2_bn_top (in-place)
I1212 06:17:46.523829 18921 layer_factory.hpp:77] Creating layer L2_b8_cbr2_scale
I1212 06:17:46.524020 18921 net.cpp:150] Setting up L2_b8_cbr2_scale
I1212 06:17:46.524039 18921 net.cpp:157] Top shape: 125 32 16 16 (1024000)
I1212 06:17:46.524049 18921 net.cpp:165] Memory required for data: 1195521500
I1212 06:17:46.524066 18921 layer_factory.hpp:77] Creating layer L2_b8_sum_eltwise
I1212 06:17:46.524083 18921 net.cpp:100] Creating Layer L2_b8_sum_eltwise
I1212 06:17:46.524094 18921 net.cpp:434] L2_b8_sum_eltwise <- L2_b8_cbr2_bn_top
I1212 06:17:46.524107 18921 net.cpp:434] L2_b8_sum_eltwise <- L2_b7_sum_eltwise_top_L2_b7_relu_0_split_1
I1212 06:17:46.524132 18921 net.cpp:408] L2_b8_sum_eltwise -> L2_b8_sum_eltwise_top
I1212 06:17:46.524181 18921 net.cpp:150] Setting up L2_b8_sum_eltwise
I1212 06:17:46.524202 18921 net.cpp:157] Top shape: 125 32 16 16 (1024000)
I1212 06:17:46.524211 18921 net.cpp:165] Memory required for data: 1199617500
I1212 06:17:46.524222 18921 layer_factory.hpp:77] Creating layer L2_b8_relu
I1212 06:17:46.524241 18921 net.cpp:100] Creating Layer L2_b8_relu
I1212 06:17:46.524253 18921 net.cpp:434] L2_b8_relu <- L2_b8_sum_eltwise_top
I1212 06:17:46.524269 18921 net.cpp:395] L2_b8_relu -> L2_b8_sum_eltwise_top (in-place)
I1212 06:17:46.524288 18921 net.cpp:150] Setting up L2_b8_relu
I1212 06:17:46.524302 18921 net.cpp:157] Top shape: 125 32 16 16 (1024000)
I1212 06:17:46.524312 18921 net.cpp:165] Memory required for data: 1203713500
I1212 06:17:46.524322 18921 layer_factory.hpp:77] Creating layer L2_b8_sum_eltwise_top_L2_b8_relu_0_split
I1212 06:17:46.524340 18921 net.cpp:100] Creating Layer L2_b8_sum_eltwise_top_L2_b8_relu_0_split
I1212 06:17:46.524353 18921 net.cpp:434] L2_b8_sum_eltwise_top_L2_b8_relu_0_split <- L2_b8_sum_eltwise_top
I1212 06:17:46.524376 18921 net.cpp:408] L2_b8_sum_eltwise_top_L2_b8_relu_0_split -> L2_b8_sum_eltwise_top_L2_b8_relu_0_split_0
I1212 06:17:46.524416 18921 net.cpp:408] L2_b8_sum_eltwise_top_L2_b8_relu_0_split -> L2_b8_sum_eltwise_top_L2_b8_relu_0_split_1
I1212 06:17:46.524502 18921 net.cpp:150] Setting up L2_b8_sum_eltwise_top_L2_b8_relu_0_split
I1212 06:17:46.524520 18921 net.cpp:157] Top shape: 125 32 16 16 (1024000)
I1212 06:17:46.524533 18921 net.cpp:157] Top shape: 125 32 16 16 (1024000)
I1212 06:17:46.524544 18921 net.cpp:165] Memory required for data: 1211905500
I1212 06:17:46.524554 18921 layer_factory.hpp:77] Creating layer L2_b9_cbr1_conv
I1212 06:17:46.524582 18921 net.cpp:100] Creating Layer L2_b9_cbr1_conv
I1212 06:17:46.524596 18921 net.cpp:434] L2_b9_cbr1_conv <- L2_b8_sum_eltwise_top_L2_b8_relu_0_split_0
I1212 06:17:46.524615 18921 net.cpp:408] L2_b9_cbr1_conv -> L2_b9_cbr1_conv_top
I1212 06:17:46.525135 18921 net.cpp:150] Setting up L2_b9_cbr1_conv
I1212 06:17:46.525154 18921 net.cpp:157] Top shape: 125 32 16 16 (1024000)
I1212 06:17:46.525163 18921 net.cpp:165] Memory required for data: 1216001500
I1212 06:17:46.525182 18921 layer_factory.hpp:77] Creating layer L2_b9_cbr1_bn
I1212 06:17:46.525202 18921 net.cpp:100] Creating Layer L2_b9_cbr1_bn
I1212 06:17:46.525215 18921 net.cpp:434] L2_b9_cbr1_bn <- L2_b9_cbr1_conv_top
I1212 06:17:46.525233 18921 net.cpp:408] L2_b9_cbr1_bn -> L2_b9_cbr1_bn_top
I1212 06:17:46.525532 18921 net.cpp:150] Setting up L2_b9_cbr1_bn
I1212 06:17:46.525552 18921 net.cpp:157] Top shape: 125 32 16 16 (1024000)
I1212 06:17:46.525562 18921 net.cpp:165] Memory required for data: 1220097500
I1212 06:17:46.525591 18921 layer_factory.hpp:77] Creating layer L2_b9_cbr1_scale
I1212 06:17:46.525609 18921 net.cpp:100] Creating Layer L2_b9_cbr1_scale
I1212 06:17:46.525621 18921 net.cpp:434] L2_b9_cbr1_scale <- L2_b9_cbr1_bn_top
I1212 06:17:46.525641 18921 net.cpp:395] L2_b9_cbr1_scale -> L2_b9_cbr1_bn_top (in-place)
I1212 06:17:46.525744 18921 layer_factory.hpp:77] Creating layer L2_b9_cbr1_scale
I1212 06:17:46.525938 18921 net.cpp:150] Setting up L2_b9_cbr1_scale
I1212 06:17:46.525957 18921 net.cpp:157] Top shape: 125 32 16 16 (1024000)
I1212 06:17:46.525966 18921 net.cpp:165] Memory required for data: 1224193500
I1212 06:17:46.525985 18921 layer_factory.hpp:77] Creating layer L2_b9_cbr1_relu
I1212 06:17:46.526001 18921 net.cpp:100] Creating Layer L2_b9_cbr1_relu
I1212 06:17:46.526012 18921 net.cpp:434] L2_b9_cbr1_relu <- L2_b9_cbr1_bn_top
I1212 06:17:46.526026 18921 net.cpp:395] L2_b9_cbr1_relu -> L2_b9_cbr1_bn_top (in-place)
I1212 06:17:46.526051 18921 net.cpp:150] Setting up L2_b9_cbr1_relu
I1212 06:17:46.526065 18921 net.cpp:157] Top shape: 125 32 16 16 (1024000)
I1212 06:17:46.526075 18921 net.cpp:165] Memory required for data: 1228289500
I1212 06:17:46.526085 18921 layer_factory.hpp:77] Creating layer L2_b9_cbr2_conv
I1212 06:17:46.526106 18921 net.cpp:100] Creating Layer L2_b9_cbr2_conv
I1212 06:17:46.526124 18921 net.cpp:434] L2_b9_cbr2_conv <- L2_b9_cbr1_bn_top
I1212 06:17:46.526144 18921 net.cpp:408] L2_b9_cbr2_conv -> L2_b9_cbr2_conv_top
I1212 06:17:46.526657 18921 net.cpp:150] Setting up L2_b9_cbr2_conv
I1212 06:17:46.526677 18921 net.cpp:157] Top shape: 125 32 16 16 (1024000)
I1212 06:17:46.526687 18921 net.cpp:165] Memory required for data: 1232385500
I1212 06:17:46.526705 18921 layer_factory.hpp:77] Creating layer L2_b9_cbr2_bn
I1212 06:17:46.526727 18921 net.cpp:100] Creating Layer L2_b9_cbr2_bn
I1212 06:17:46.526739 18921 net.cpp:434] L2_b9_cbr2_bn <- L2_b9_cbr2_conv_top
I1212 06:17:46.526762 18921 net.cpp:408] L2_b9_cbr2_bn -> L2_b9_cbr2_bn_top
I1212 06:17:46.527055 18921 net.cpp:150] Setting up L2_b9_cbr2_bn
I1212 06:17:46.527076 18921 net.cpp:157] Top shape: 125 32 16 16 (1024000)
I1212 06:17:46.527084 18921 net.cpp:165] Memory required for data: 1236481500
I1212 06:17:46.527155 18921 layer_factory.hpp:77] Creating layer L2_b9_cbr2_scale
I1212 06:17:46.527178 18921 net.cpp:100] Creating Layer L2_b9_cbr2_scale
I1212 06:17:46.527189 18921 net.cpp:434] L2_b9_cbr2_scale <- L2_b9_cbr2_bn_top
I1212 06:17:46.527205 18921 net.cpp:395] L2_b9_cbr2_scale -> L2_b9_cbr2_bn_top (in-place)
I1212 06:17:46.527300 18921 layer_factory.hpp:77] Creating layer L2_b9_cbr2_scale
I1212 06:17:46.527496 18921 net.cpp:150] Setting up L2_b9_cbr2_scale
I1212 06:17:46.527515 18921 net.cpp:157] Top shape: 125 32 16 16 (1024000)
I1212 06:17:46.527525 18921 net.cpp:165] Memory required for data: 1240577500
I1212 06:17:46.527544 18921 layer_factory.hpp:77] Creating layer L2_b9_sum_eltwise
I1212 06:17:46.527567 18921 net.cpp:100] Creating Layer L2_b9_sum_eltwise
I1212 06:17:46.527580 18921 net.cpp:434] L2_b9_sum_eltwise <- L2_b9_cbr2_bn_top
I1212 06:17:46.527595 18921 net.cpp:434] L2_b9_sum_eltwise <- L2_b8_sum_eltwise_top_L2_b8_relu_0_split_1
I1212 06:17:46.527621 18921 net.cpp:408] L2_b9_sum_eltwise -> L2_b9_sum_eltwise_top
I1212 06:17:46.527670 18921 net.cpp:150] Setting up L2_b9_sum_eltwise
I1212 06:17:46.527688 18921 net.cpp:157] Top shape: 125 32 16 16 (1024000)
I1212 06:17:46.527698 18921 net.cpp:165] Memory required for data: 1244673500
I1212 06:17:46.527709 18921 layer_factory.hpp:77] Creating layer L2_b9_relu
I1212 06:17:46.527722 18921 net.cpp:100] Creating Layer L2_b9_relu
I1212 06:17:46.527734 18921 net.cpp:434] L2_b9_relu <- L2_b9_sum_eltwise_top
I1212 06:17:46.527752 18921 net.cpp:395] L2_b9_relu -> L2_b9_sum_eltwise_top (in-place)
I1212 06:17:46.527772 18921 net.cpp:150] Setting up L2_b9_relu
I1212 06:17:46.527787 18921 net.cpp:157] Top shape: 125 32 16 16 (1024000)
I1212 06:17:46.527796 18921 net.cpp:165] Memory required for data: 1248769500
I1212 06:17:46.527806 18921 layer_factory.hpp:77] Creating layer L2_b9_sum_eltwise_top_L2_b9_relu_0_split
I1212 06:17:46.527830 18921 net.cpp:100] Creating Layer L2_b9_sum_eltwise_top_L2_b9_relu_0_split
I1212 06:17:46.527842 18921 net.cpp:434] L2_b9_sum_eltwise_top_L2_b9_relu_0_split <- L2_b9_sum_eltwise_top
I1212 06:17:46.527863 18921 net.cpp:408] L2_b9_sum_eltwise_top_L2_b9_relu_0_split -> L2_b9_sum_eltwise_top_L2_b9_relu_0_split_0
I1212 06:17:46.527884 18921 net.cpp:408] L2_b9_sum_eltwise_top_L2_b9_relu_0_split -> L2_b9_sum_eltwise_top_L2_b9_relu_0_split_1
I1212 06:17:46.527971 18921 net.cpp:150] Setting up L2_b9_sum_eltwise_top_L2_b9_relu_0_split
I1212 06:17:46.527989 18921 net.cpp:157] Top shape: 125 32 16 16 (1024000)
I1212 06:17:46.528002 18921 net.cpp:157] Top shape: 125 32 16 16 (1024000)
I1212 06:17:46.528010 18921 net.cpp:165] Memory required for data: 1256961500
I1212 06:17:46.528020 18921 layer_factory.hpp:77] Creating layer L3_b1_cbr1_conv
I1212 06:17:46.528041 18921 net.cpp:100] Creating Layer L3_b1_cbr1_conv
I1212 06:17:46.528053 18921 net.cpp:434] L3_b1_cbr1_conv <- L2_b9_sum_eltwise_top_L2_b9_relu_0_split_0
I1212 06:17:46.528077 18921 net.cpp:408] L3_b1_cbr1_conv -> L3_b1_cbr1_conv_top
I1212 06:17:46.528615 18921 net.cpp:150] Setting up L3_b1_cbr1_conv
I1212 06:17:46.528635 18921 net.cpp:157] Top shape: 125 32 8 8 (256000)
I1212 06:17:46.528645 18921 net.cpp:165] Memory required for data: 1257985500
I1212 06:17:46.528662 18921 layer_factory.hpp:77] Creating layer L3_b1_cbr1_bn
I1212 06:17:46.528684 18921 net.cpp:100] Creating Layer L3_b1_cbr1_bn
I1212 06:17:46.528697 18921 net.cpp:434] L3_b1_cbr1_bn <- L3_b1_cbr1_conv_top
I1212 06:17:46.528713 18921 net.cpp:408] L3_b1_cbr1_bn -> L3_b1_cbr1_bn_top
I1212 06:17:46.529017 18921 net.cpp:150] Setting up L3_b1_cbr1_bn
I1212 06:17:46.529036 18921 net.cpp:157] Top shape: 125 32 8 8 (256000)
I1212 06:17:46.529045 18921 net.cpp:165] Memory required for data: 1259009500
I1212 06:17:46.529067 18921 layer_factory.hpp:77] Creating layer L3_b1_cbr1_scale
I1212 06:17:46.529083 18921 net.cpp:100] Creating Layer L3_b1_cbr1_scale
I1212 06:17:46.529095 18921 net.cpp:434] L3_b1_cbr1_scale <- L3_b1_cbr1_bn_top
I1212 06:17:46.529110 18921 net.cpp:395] L3_b1_cbr1_scale -> L3_b1_cbr1_bn_top (in-place)
I1212 06:17:46.529211 18921 layer_factory.hpp:77] Creating layer L3_b1_cbr1_scale
I1212 06:17:46.529409 18921 net.cpp:150] Setting up L3_b1_cbr1_scale
I1212 06:17:46.529433 18921 net.cpp:157] Top shape: 125 32 8 8 (256000)
I1212 06:17:46.529444 18921 net.cpp:165] Memory required for data: 1260033500
I1212 06:17:46.529462 18921 layer_factory.hpp:77] Creating layer L3_b1_cbr1_relu
I1212 06:17:46.529477 18921 net.cpp:100] Creating Layer L3_b1_cbr1_relu
I1212 06:17:46.529489 18921 net.cpp:434] L3_b1_cbr1_relu <- L3_b1_cbr1_bn_top
I1212 06:17:46.529503 18921 net.cpp:395] L3_b1_cbr1_relu -> L3_b1_cbr1_bn_top (in-place)
I1212 06:17:46.529521 18921 net.cpp:150] Setting up L3_b1_cbr1_relu
I1212 06:17:46.529536 18921 net.cpp:157] Top shape: 125 32 8 8 (256000)
I1212 06:17:46.529546 18921 net.cpp:165] Memory required for data: 1261057500
I1212 06:17:46.529556 18921 layer_factory.hpp:77] Creating layer L3_b1_cbr2_conv
I1212 06:17:46.529584 18921 net.cpp:100] Creating Layer L3_b1_cbr2_conv
I1212 06:17:46.529598 18921 net.cpp:434] L3_b1_cbr2_conv <- L3_b1_cbr1_bn_top
I1212 06:17:46.529616 18921 net.cpp:408] L3_b1_cbr2_conv -> L3_b1_cbr2_conv_top
I1212 06:17:46.530143 18921 net.cpp:150] Setting up L3_b1_cbr2_conv
I1212 06:17:46.530164 18921 net.cpp:157] Top shape: 125 32 8 8 (256000)
I1212 06:17:46.530172 18921 net.cpp:165] Memory required for data: 1262081500
I1212 06:17:46.530190 18921 layer_factory.hpp:77] Creating layer L3_b1_cbr2_bn
I1212 06:17:46.530208 18921 net.cpp:100] Creating Layer L3_b1_cbr2_bn
I1212 06:17:46.530232 18921 net.cpp:434] L3_b1_cbr2_bn <- L3_b1_cbr2_conv_top
I1212 06:17:46.530249 18921 net.cpp:408] L3_b1_cbr2_bn -> L3_b1_cbr2_bn_top
I1212 06:17:46.530550 18921 net.cpp:150] Setting up L3_b1_cbr2_bn
I1212 06:17:46.530570 18921 net.cpp:157] Top shape: 125 32 8 8 (256000)
I1212 06:17:46.530578 18921 net.cpp:165] Memory required for data: 1263105500
I1212 06:17:46.530609 18921 layer_factory.hpp:77] Creating layer L3_b1_cbr2_scale
I1212 06:17:46.530627 18921 net.cpp:100] Creating Layer L3_b1_cbr2_scale
I1212 06:17:46.530639 18921 net.cpp:434] L3_b1_cbr2_scale <- L3_b1_cbr2_bn_top
I1212 06:17:46.530659 18921 net.cpp:395] L3_b1_cbr2_scale -> L3_b1_cbr2_bn_top (in-place)
I1212 06:17:46.530756 18921 layer_factory.hpp:77] Creating layer L3_b1_cbr2_scale
I1212 06:17:46.530953 18921 net.cpp:150] Setting up L3_b1_cbr2_scale
I1212 06:17:46.530972 18921 net.cpp:157] Top shape: 125 32 8 8 (256000)
I1212 06:17:46.530982 18921 net.cpp:165] Memory required for data: 1264129500
I1212 06:17:46.531000 18921 layer_factory.hpp:77] Creating layer L3_b1_pool
I1212 06:17:46.531021 18921 net.cpp:100] Creating Layer L3_b1_pool
I1212 06:17:46.531033 18921 net.cpp:434] L3_b1_pool <- L2_b9_sum_eltwise_top_L2_b9_relu_0_split_1
I1212 06:17:46.531049 18921 net.cpp:408] L3_b1_pool -> L3_b1_pool
I1212 06:17:46.531111 18921 net.cpp:150] Setting up L3_b1_pool
I1212 06:17:46.531131 18921 net.cpp:157] Top shape: 125 32 8 8 (256000)
I1212 06:17:46.531139 18921 net.cpp:165] Memory required for data: 1265153500
I1212 06:17:46.531149 18921 layer_factory.hpp:77] Creating layer L3_b1_sum_eltwise
I1212 06:17:46.531165 18921 net.cpp:100] Creating Layer L3_b1_sum_eltwise
I1212 06:17:46.531177 18921 net.cpp:434] L3_b1_sum_eltwise <- L3_b1_cbr2_bn_top
I1212 06:17:46.531194 18921 net.cpp:434] L3_b1_sum_eltwise <- L3_b1_pool
I1212 06:17:46.531211 18921 net.cpp:408] L3_b1_sum_eltwise -> L3_b1_sum_eltwise_top
I1212 06:17:46.531265 18921 net.cpp:150] Setting up L3_b1_sum_eltwise
I1212 06:17:46.531285 18921 net.cpp:157] Top shape: 125 32 8 8 (256000)
I1212 06:17:46.531294 18921 net.cpp:165] Memory required for data: 1266177500
I1212 06:17:46.531304 18921 layer_factory.hpp:77] Creating layer L3_b1_relu
I1212 06:17:46.531318 18921 net.cpp:100] Creating Layer L3_b1_relu
I1212 06:17:46.531330 18921 net.cpp:434] L3_b1_relu <- L3_b1_sum_eltwise_top
I1212 06:17:46.531349 18921 net.cpp:395] L3_b1_relu -> L3_b1_sum_eltwise_top (in-place)
I1212 06:17:46.531376 18921 net.cpp:150] Setting up L3_b1_relu
I1212 06:17:46.531394 18921 net.cpp:157] Top shape: 125 32 8 8 (256000)
I1212 06:17:46.531404 18921 net.cpp:165] Memory required for data: 1267201500
I1212 06:17:46.531414 18921 layer_factory.hpp:77] Creating layer L3_b1_zeros
I1212 06:17:46.531430 18921 net.cpp:100] Creating Layer L3_b1_zeros
I1212 06:17:46.531445 18921 net.cpp:408] L3_b1_zeros -> L3_b1_zeros
I1212 06:17:46.532789 18921 net.cpp:150] Setting up L3_b1_zeros
I1212 06:17:46.532812 18921 net.cpp:157] Top shape: 125 32 8 8 (256000)
I1212 06:17:46.532821 18921 net.cpp:165] Memory required for data: 1268225500
I1212 06:17:46.532832 18921 layer_factory.hpp:77] Creating layer L3_b1_concat0
I1212 06:17:46.532850 18921 net.cpp:100] Creating Layer L3_b1_concat0
I1212 06:17:46.532861 18921 net.cpp:434] L3_b1_concat0 <- L3_b1_sum_eltwise_top
I1212 06:17:46.532874 18921 net.cpp:434] L3_b1_concat0 <- L3_b1_zeros
I1212 06:17:46.532896 18921 net.cpp:408] L3_b1_concat0 -> L3_b1_concat0
I1212 06:17:46.532961 18921 net.cpp:150] Setting up L3_b1_concat0
I1212 06:17:46.532982 18921 net.cpp:157] Top shape: 125 64 8 8 (512000)
I1212 06:17:46.532991 18921 net.cpp:165] Memory required for data: 1270273500
I1212 06:17:46.533002 18921 layer_factory.hpp:77] Creating layer L3_b1_concat0_L3_b1_concat0_0_split
I1212 06:17:46.533017 18921 net.cpp:100] Creating Layer L3_b1_concat0_L3_b1_concat0_0_split
I1212 06:17:46.533028 18921 net.cpp:434] L3_b1_concat0_L3_b1_concat0_0_split <- L3_b1_concat0
I1212 06:17:46.533054 18921 net.cpp:408] L3_b1_concat0_L3_b1_concat0_0_split -> L3_b1_concat0_L3_b1_concat0_0_split_0
I1212 06:17:46.533077 18921 net.cpp:408] L3_b1_concat0_L3_b1_concat0_0_split -> L3_b1_concat0_L3_b1_concat0_0_split_1
I1212 06:17:46.533164 18921 net.cpp:150] Setting up L3_b1_concat0_L3_b1_concat0_0_split
I1212 06:17:46.533185 18921 net.cpp:157] Top shape: 125 64 8 8 (512000)
I1212 06:17:46.533200 18921 net.cpp:157] Top shape: 125 64 8 8 (512000)
I1212 06:17:46.533210 18921 net.cpp:165] Memory required for data: 1274369500
I1212 06:17:46.533231 18921 layer_factory.hpp:77] Creating layer L3_b2_cbr1_conv
I1212 06:17:46.533257 18921 net.cpp:100] Creating Layer L3_b2_cbr1_conv
I1212 06:17:46.533272 18921 net.cpp:434] L3_b2_cbr1_conv <- L3_b1_concat0_L3_b1_concat0_0_split_0
I1212 06:17:46.533290 18921 net.cpp:408] L3_b2_cbr1_conv -> L3_b2_cbr1_conv_top
I1212 06:17:46.535400 18921 net.cpp:150] Setting up L3_b2_cbr1_conv
I1212 06:17:46.535423 18921 net.cpp:157] Top shape: 125 64 8 8 (512000)
I1212 06:17:46.535432 18921 net.cpp:165] Memory required for data: 1276417500
I1212 06:17:46.535450 18921 layer_factory.hpp:77] Creating layer L3_b2_cbr1_bn
I1212 06:17:46.535475 18921 net.cpp:100] Creating Layer L3_b2_cbr1_bn
I1212 06:17:46.535486 18921 net.cpp:434] L3_b2_cbr1_bn <- L3_b2_cbr1_conv_top
I1212 06:17:46.535503 18921 net.cpp:408] L3_b2_cbr1_bn -> L3_b2_cbr1_bn_top
I1212 06:17:46.535810 18921 net.cpp:150] Setting up L3_b2_cbr1_bn
I1212 06:17:46.535830 18921 net.cpp:157] Top shape: 125 64 8 8 (512000)
I1212 06:17:46.535838 18921 net.cpp:165] Memory required for data: 1278465500
I1212 06:17:46.535861 18921 layer_factory.hpp:77] Creating layer L3_b2_cbr1_scale
I1212 06:17:46.535877 18921 net.cpp:100] Creating Layer L3_b2_cbr1_scale
I1212 06:17:46.535888 18921 net.cpp:434] L3_b2_cbr1_scale <- L3_b2_cbr1_bn_top
I1212 06:17:46.535905 18921 net.cpp:395] L3_b2_cbr1_scale -> L3_b2_cbr1_bn_top (in-place)
I1212 06:17:46.536002 18921 layer_factory.hpp:77] Creating layer L3_b2_cbr1_scale
I1212 06:17:46.536201 18921 net.cpp:150] Setting up L3_b2_cbr1_scale
I1212 06:17:46.536219 18921 net.cpp:157] Top shape: 125 64 8 8 (512000)
I1212 06:17:46.536228 18921 net.cpp:165] Memory required for data: 1280513500
I1212 06:17:46.536247 18921 layer_factory.hpp:77] Creating layer L3_b2_cbr1_relu
I1212 06:17:46.536262 18921 net.cpp:100] Creating Layer L3_b2_cbr1_relu
I1212 06:17:46.536274 18921 net.cpp:434] L3_b2_cbr1_relu <- L3_b2_cbr1_bn_top
I1212 06:17:46.536293 18921 net.cpp:395] L3_b2_cbr1_relu -> L3_b2_cbr1_bn_top (in-place)
I1212 06:17:46.536314 18921 net.cpp:150] Setting up L3_b2_cbr1_relu
I1212 06:17:46.536327 18921 net.cpp:157] Top shape: 125 64 8 8 (512000)
I1212 06:17:46.536336 18921 net.cpp:165] Memory required for data: 1282561500
I1212 06:17:46.536347 18921 layer_factory.hpp:77] Creating layer L3_b2_cbr2_conv
I1212 06:17:46.536382 18921 net.cpp:100] Creating Layer L3_b2_cbr2_conv
I1212 06:17:46.536396 18921 net.cpp:434] L3_b2_cbr2_conv <- L3_b2_cbr1_bn_top
I1212 06:17:46.536414 18921 net.cpp:408] L3_b2_cbr2_conv -> L3_b2_cbr2_conv_top
I1212 06:17:46.537489 18921 net.cpp:150] Setting up L3_b2_cbr2_conv
I1212 06:17:46.537510 18921 net.cpp:157] Top shape: 125 64 8 8 (512000)
I1212 06:17:46.537519 18921 net.cpp:165] Memory required for data: 1284609500
I1212 06:17:46.537537 18921 layer_factory.hpp:77] Creating layer L3_b2_cbr2_bn
I1212 06:17:46.537560 18921 net.cpp:100] Creating Layer L3_b2_cbr2_bn
I1212 06:17:46.537572 18921 net.cpp:434] L3_b2_cbr2_bn <- L3_b2_cbr2_conv_top
I1212 06:17:46.537590 18921 net.cpp:408] L3_b2_cbr2_bn -> L3_b2_cbr2_bn_top
I1212 06:17:46.537895 18921 net.cpp:150] Setting up L3_b2_cbr2_bn
I1212 06:17:46.537914 18921 net.cpp:157] Top shape: 125 64 8 8 (512000)
I1212 06:17:46.537925 18921 net.cpp:165] Memory required for data: 1286657500
I1212 06:17:46.537945 18921 layer_factory.hpp:77] Creating layer L3_b2_cbr2_scale
I1212 06:17:46.537966 18921 net.cpp:100] Creating Layer L3_b2_cbr2_scale
I1212 06:17:46.537978 18921 net.cpp:434] L3_b2_cbr2_scale <- L3_b2_cbr2_bn_top
I1212 06:17:46.537995 18921 net.cpp:395] L3_b2_cbr2_scale -> L3_b2_cbr2_bn_top (in-place)
I1212 06:17:46.538091 18921 layer_factory.hpp:77] Creating layer L3_b2_cbr2_scale
I1212 06:17:46.538295 18921 net.cpp:150] Setting up L3_b2_cbr2_scale
I1212 06:17:46.538314 18921 net.cpp:157] Top shape: 125 64 8 8 (512000)
I1212 06:17:46.538323 18921 net.cpp:165] Memory required for data: 1288705500
I1212 06:17:46.538341 18921 layer_factory.hpp:77] Creating layer L3_b2_sum_eltwise
I1212 06:17:46.538370 18921 net.cpp:100] Creating Layer L3_b2_sum_eltwise
I1212 06:17:46.538384 18921 net.cpp:434] L3_b2_sum_eltwise <- L3_b2_cbr2_bn_top
I1212 06:17:46.538409 18921 net.cpp:434] L3_b2_sum_eltwise <- L3_b1_concat0_L3_b1_concat0_0_split_1
I1212 06:17:46.538432 18921 net.cpp:408] L3_b2_sum_eltwise -> L3_b2_sum_eltwise_top
I1212 06:17:46.538491 18921 net.cpp:150] Setting up L3_b2_sum_eltwise
I1212 06:17:46.538511 18921 net.cpp:157] Top shape: 125 64 8 8 (512000)
I1212 06:17:46.538520 18921 net.cpp:165] Memory required for data: 1290753500
I1212 06:17:46.538532 18921 layer_factory.hpp:77] Creating layer L3_b2_relu
I1212 06:17:46.538554 18921 net.cpp:100] Creating Layer L3_b2_relu
I1212 06:17:46.538565 18921 net.cpp:434] L3_b2_relu <- L3_b2_sum_eltwise_top
I1212 06:17:46.538580 18921 net.cpp:395] L3_b2_relu -> L3_b2_sum_eltwise_top (in-place)
I1212 06:17:46.538599 18921 net.cpp:150] Setting up L3_b2_relu
I1212 06:17:46.538614 18921 net.cpp:157] Top shape: 125 64 8 8 (512000)
I1212 06:17:46.538622 18921 net.cpp:165] Memory required for data: 1292801500
I1212 06:17:46.538632 18921 layer_factory.hpp:77] Creating layer L3_b2_sum_eltwise_top_L3_b2_relu_0_split
I1212 06:17:46.538646 18921 net.cpp:100] Creating Layer L3_b2_sum_eltwise_top_L3_b2_relu_0_split
I1212 06:17:46.538657 18921 net.cpp:434] L3_b2_sum_eltwise_top_L3_b2_relu_0_split <- L3_b2_sum_eltwise_top
I1212 06:17:46.538673 18921 net.cpp:408] L3_b2_sum_eltwise_top_L3_b2_relu_0_split -> L3_b2_sum_eltwise_top_L3_b2_relu_0_split_0
I1212 06:17:46.538693 18921 net.cpp:408] L3_b2_sum_eltwise_top_L3_b2_relu_0_split -> L3_b2_sum_eltwise_top_L3_b2_relu_0_split_1
I1212 06:17:46.538779 18921 net.cpp:150] Setting up L3_b2_sum_eltwise_top_L3_b2_relu_0_split
I1212 06:17:46.538800 18921 net.cpp:157] Top shape: 125 64 8 8 (512000)
I1212 06:17:46.538812 18921 net.cpp:157] Top shape: 125 64 8 8 (512000)
I1212 06:17:46.538821 18921 net.cpp:165] Memory required for data: 1296897500
I1212 06:17:46.538832 18921 layer_factory.hpp:77] Creating layer L3_b3_cbr1_conv
I1212 06:17:46.538857 18921 net.cpp:100] Creating Layer L3_b3_cbr1_conv
I1212 06:17:46.538872 18921 net.cpp:434] L3_b3_cbr1_conv <- L3_b2_sum_eltwise_top_L3_b2_relu_0_split_0
I1212 06:17:46.538890 18921 net.cpp:408] L3_b3_cbr1_conv -> L3_b3_cbr1_conv_top
I1212 06:17:46.539963 18921 net.cpp:150] Setting up L3_b3_cbr1_conv
I1212 06:17:46.539983 18921 net.cpp:157] Top shape: 125 64 8 8 (512000)
I1212 06:17:46.539993 18921 net.cpp:165] Memory required for data: 1298945500
I1212 06:17:46.540011 18921 layer_factory.hpp:77] Creating layer L3_b3_cbr1_bn
I1212 06:17:46.540033 18921 net.cpp:100] Creating Layer L3_b3_cbr1_bn
I1212 06:17:46.540045 18921 net.cpp:434] L3_b3_cbr1_bn <- L3_b3_cbr1_conv_top
I1212 06:17:46.540067 18921 net.cpp:408] L3_b3_cbr1_bn -> L3_b3_cbr1_bn_top
I1212 06:17:46.540383 18921 net.cpp:150] Setting up L3_b3_cbr1_bn
I1212 06:17:46.540402 18921 net.cpp:157] Top shape: 125 64 8 8 (512000)
I1212 06:17:46.540411 18921 net.cpp:165] Memory required for data: 1300993500
I1212 06:17:46.540433 18921 layer_factory.hpp:77] Creating layer L3_b3_cbr1_scale
I1212 06:17:46.540451 18921 net.cpp:100] Creating Layer L3_b3_cbr1_scale
I1212 06:17:46.540462 18921 net.cpp:434] L3_b3_cbr1_scale <- L3_b3_cbr1_bn_top
I1212 06:17:46.540477 18921 net.cpp:395] L3_b3_cbr1_scale -> L3_b3_cbr1_bn_top (in-place)
I1212 06:17:46.540577 18921 layer_factory.hpp:77] Creating layer L3_b3_cbr1_scale
I1212 06:17:46.540774 18921 net.cpp:150] Setting up L3_b3_cbr1_scale
I1212 06:17:46.540793 18921 net.cpp:157] Top shape: 125 64 8 8 (512000)
I1212 06:17:46.540802 18921 net.cpp:165] Memory required for data: 1303041500
I1212 06:17:46.540820 18921 layer_factory.hpp:77] Creating layer L3_b3_cbr1_relu
I1212 06:17:46.540835 18921 net.cpp:100] Creating Layer L3_b3_cbr1_relu
I1212 06:17:46.540848 18921 net.cpp:434] L3_b3_cbr1_relu <- L3_b3_cbr1_bn_top
I1212 06:17:46.540866 18921 net.cpp:395] L3_b3_cbr1_relu -> L3_b3_cbr1_bn_top (in-place)
I1212 06:17:46.540886 18921 net.cpp:150] Setting up L3_b3_cbr1_relu
I1212 06:17:46.540900 18921 net.cpp:157] Top shape: 125 64 8 8 (512000)
I1212 06:17:46.540910 18921 net.cpp:165] Memory required for data: 1305089500
I1212 06:17:46.540930 18921 layer_factory.hpp:77] Creating layer L3_b3_cbr2_conv
I1212 06:17:46.540956 18921 net.cpp:100] Creating Layer L3_b3_cbr2_conv
I1212 06:17:46.540969 18921 net.cpp:434] L3_b3_cbr2_conv <- L3_b3_cbr1_bn_top
I1212 06:17:46.540987 18921 net.cpp:408] L3_b3_cbr2_conv -> L3_b3_cbr2_conv_top
I1212 06:17:46.542058 18921 net.cpp:150] Setting up L3_b3_cbr2_conv
I1212 06:17:46.542078 18921 net.cpp:157] Top shape: 125 64 8 8 (512000)
I1212 06:17:46.542088 18921 net.cpp:165] Memory required for data: 1307137500
I1212 06:17:46.542105 18921 layer_factory.hpp:77] Creating layer L3_b3_cbr2_bn
I1212 06:17:46.542127 18921 net.cpp:100] Creating Layer L3_b3_cbr2_bn
I1212 06:17:46.542140 18921 net.cpp:434] L3_b3_cbr2_bn <- L3_b3_cbr2_conv_top
I1212 06:17:46.542157 18921 net.cpp:408] L3_b3_cbr2_bn -> L3_b3_cbr2_bn_top
I1212 06:17:46.542480 18921 net.cpp:150] Setting up L3_b3_cbr2_bn
I1212 06:17:46.542500 18921 net.cpp:157] Top shape: 125 64 8 8 (512000)
I1212 06:17:46.542508 18921 net.cpp:165] Memory required for data: 1309185500
I1212 06:17:46.542531 18921 layer_factory.hpp:77] Creating layer L3_b3_cbr2_scale
I1212 06:17:46.542551 18921 net.cpp:100] Creating Layer L3_b3_cbr2_scale
I1212 06:17:46.542563 18921 net.cpp:434] L3_b3_cbr2_scale <- L3_b3_cbr2_bn_top
I1212 06:17:46.542579 18921 net.cpp:395] L3_b3_cbr2_scale -> L3_b3_cbr2_bn_top (in-place)
I1212 06:17:46.542677 18921 layer_factory.hpp:77] Creating layer L3_b3_cbr2_scale
I1212 06:17:46.542882 18921 net.cpp:150] Setting up L3_b3_cbr2_scale
I1212 06:17:46.542901 18921 net.cpp:157] Top shape: 125 64 8 8 (512000)
I1212 06:17:46.542910 18921 net.cpp:165] Memory required for data: 1311233500
I1212 06:17:46.542929 18921 layer_factory.hpp:77] Creating layer L3_b3_sum_eltwise
I1212 06:17:46.542950 18921 net.cpp:100] Creating Layer L3_b3_sum_eltwise
I1212 06:17:46.542963 18921 net.cpp:434] L3_b3_sum_eltwise <- L3_b3_cbr2_bn_top
I1212 06:17:46.542976 18921 net.cpp:434] L3_b3_sum_eltwise <- L3_b2_sum_eltwise_top_L3_b2_relu_0_split_1
I1212 06:17:46.542997 18921 net.cpp:408] L3_b3_sum_eltwise -> L3_b3_sum_eltwise_top
I1212 06:17:46.543053 18921 net.cpp:150] Setting up L3_b3_sum_eltwise
I1212 06:17:46.543072 18921 net.cpp:157] Top shape: 125 64 8 8 (512000)
I1212 06:17:46.543081 18921 net.cpp:165] Memory required for data: 1313281500
I1212 06:17:46.543092 18921 layer_factory.hpp:77] Creating layer L3_b3_relu
I1212 06:17:46.543110 18921 net.cpp:100] Creating Layer L3_b3_relu
I1212 06:17:46.543124 18921 net.cpp:434] L3_b3_relu <- L3_b3_sum_eltwise_top
I1212 06:17:46.543139 18921 net.cpp:395] L3_b3_relu -> L3_b3_sum_eltwise_top (in-place)
I1212 06:17:46.543157 18921 net.cpp:150] Setting up L3_b3_relu
I1212 06:17:46.543171 18921 net.cpp:157] Top shape: 125 64 8 8 (512000)
I1212 06:17:46.543180 18921 net.cpp:165] Memory required for data: 1315329500
I1212 06:17:46.543191 18921 layer_factory.hpp:77] Creating layer L3_b3_sum_eltwise_top_L3_b3_relu_0_split
I1212 06:17:46.543205 18921 net.cpp:100] Creating Layer L3_b3_sum_eltwise_top_L3_b3_relu_0_split
I1212 06:17:46.543216 18921 net.cpp:434] L3_b3_sum_eltwise_top_L3_b3_relu_0_split <- L3_b3_sum_eltwise_top
I1212 06:17:46.543231 18921 net.cpp:408] L3_b3_sum_eltwise_top_L3_b3_relu_0_split -> L3_b3_sum_eltwise_top_L3_b3_relu_0_split_0
I1212 06:17:46.543251 18921 net.cpp:408] L3_b3_sum_eltwise_top_L3_b3_relu_0_split -> L3_b3_sum_eltwise_top_L3_b3_relu_0_split_1
I1212 06:17:46.543337 18921 net.cpp:150] Setting up L3_b3_sum_eltwise_top_L3_b3_relu_0_split
I1212 06:17:46.543354 18921 net.cpp:157] Top shape: 125 64 8 8 (512000)
I1212 06:17:46.543375 18921 net.cpp:157] Top shape: 125 64 8 8 (512000)
I1212 06:17:46.543385 18921 net.cpp:165] Memory required for data: 1319425500
I1212 06:17:46.543395 18921 layer_factory.hpp:77] Creating layer L3_b4_cbr1_conv
I1212 06:17:46.543421 18921 net.cpp:100] Creating Layer L3_b4_cbr1_conv
I1212 06:17:46.543434 18921 net.cpp:434] L3_b4_cbr1_conv <- L3_b3_sum_eltwise_top_L3_b3_relu_0_split_0
I1212 06:17:46.543453 18921 net.cpp:408] L3_b4_cbr1_conv -> L3_b4_cbr1_conv_top
I1212 06:17:46.544543 18921 net.cpp:150] Setting up L3_b4_cbr1_conv
I1212 06:17:46.544570 18921 net.cpp:157] Top shape: 125 64 8 8 (512000)
I1212 06:17:46.544580 18921 net.cpp:165] Memory required for data: 1321473500
I1212 06:17:46.544598 18921 layer_factory.hpp:77] Creating layer L3_b4_cbr1_bn
I1212 06:17:46.544620 18921 net.cpp:100] Creating Layer L3_b4_cbr1_bn
I1212 06:17:46.544633 18921 net.cpp:434] L3_b4_cbr1_bn <- L3_b4_cbr1_conv_top
I1212 06:17:46.544654 18921 net.cpp:408] L3_b4_cbr1_bn -> L3_b4_cbr1_bn_top
I1212 06:17:46.544965 18921 net.cpp:150] Setting up L3_b4_cbr1_bn
I1212 06:17:46.544986 18921 net.cpp:157] Top shape: 125 64 8 8 (512000)
I1212 06:17:46.544994 18921 net.cpp:165] Memory required for data: 1323521500
I1212 06:17:46.545016 18921 layer_factory.hpp:77] Creating layer L3_b4_cbr1_scale
I1212 06:17:46.545032 18921 net.cpp:100] Creating Layer L3_b4_cbr1_scale
I1212 06:17:46.545043 18921 net.cpp:434] L3_b4_cbr1_scale <- L3_b4_cbr1_bn_top
I1212 06:17:46.545063 18921 net.cpp:395] L3_b4_cbr1_scale -> L3_b4_cbr1_bn_top (in-place)
I1212 06:17:46.545168 18921 layer_factory.hpp:77] Creating layer L3_b4_cbr1_scale
I1212 06:17:46.545382 18921 net.cpp:150] Setting up L3_b4_cbr1_scale
I1212 06:17:46.545400 18921 net.cpp:157] Top shape: 125 64 8 8 (512000)
I1212 06:17:46.545410 18921 net.cpp:165] Memory required for data: 1325569500
I1212 06:17:46.545428 18921 layer_factory.hpp:77] Creating layer L3_b4_cbr1_relu
I1212 06:17:46.545444 18921 net.cpp:100] Creating Layer L3_b4_cbr1_relu
I1212 06:17:46.545456 18921 net.cpp:434] L3_b4_cbr1_relu <- L3_b4_cbr1_bn_top
I1212 06:17:46.545475 18921 net.cpp:395] L3_b4_cbr1_relu -> L3_b4_cbr1_bn_top (in-place)
I1212 06:17:46.545495 18921 net.cpp:150] Setting up L3_b4_cbr1_relu
I1212 06:17:46.545509 18921 net.cpp:157] Top shape: 125 64 8 8 (512000)
I1212 06:17:46.545519 18921 net.cpp:165] Memory required for data: 1327617500
I1212 06:17:46.545529 18921 layer_factory.hpp:77] Creating layer L3_b4_cbr2_conv
I1212 06:17:46.545557 18921 net.cpp:100] Creating Layer L3_b4_cbr2_conv
I1212 06:17:46.545569 18921 net.cpp:434] L3_b4_cbr2_conv <- L3_b4_cbr1_bn_top
I1212 06:17:46.545588 18921 net.cpp:408] L3_b4_cbr2_conv -> L3_b4_cbr2_conv_top
I1212 06:17:46.546680 18921 net.cpp:150] Setting up L3_b4_cbr2_conv
I1212 06:17:46.546701 18921 net.cpp:157] Top shape: 125 64 8 8 (512000)
I1212 06:17:46.546710 18921 net.cpp:165] Memory required for data: 1329665500
I1212 06:17:46.546728 18921 layer_factory.hpp:77] Creating layer L3_b4_cbr2_bn
I1212 06:17:46.546749 18921 net.cpp:100] Creating Layer L3_b4_cbr2_bn
I1212 06:17:46.546762 18921 net.cpp:434] L3_b4_cbr2_bn <- L3_b4_cbr2_conv_top
I1212 06:17:46.546779 18921 net.cpp:408] L3_b4_cbr2_bn -> L3_b4_cbr2_bn_top
I1212 06:17:46.547091 18921 net.cpp:150] Setting up L3_b4_cbr2_bn
I1212 06:17:46.547111 18921 net.cpp:157] Top shape: 125 64 8 8 (512000)
I1212 06:17:46.547121 18921 net.cpp:165] Memory required for data: 1331713500
I1212 06:17:46.547142 18921 layer_factory.hpp:77] Creating layer L3_b4_cbr2_scale
I1212 06:17:46.547163 18921 net.cpp:100] Creating Layer L3_b4_cbr2_scale
I1212 06:17:46.547176 18921 net.cpp:434] L3_b4_cbr2_scale <- L3_b4_cbr2_bn_top
I1212 06:17:46.547196 18921 net.cpp:395] L3_b4_cbr2_scale -> L3_b4_cbr2_bn_top (in-place)
I1212 06:17:46.547291 18921 layer_factory.hpp:77] Creating layer L3_b4_cbr2_scale
I1212 06:17:46.547505 18921 net.cpp:150] Setting up L3_b4_cbr2_scale
I1212 06:17:46.547525 18921 net.cpp:157] Top shape: 125 64 8 8 (512000)
I1212 06:17:46.547534 18921 net.cpp:165] Memory required for data: 1333761500
I1212 06:17:46.547552 18921 layer_factory.hpp:77] Creating layer L3_b4_sum_eltwise
I1212 06:17:46.547569 18921 net.cpp:100] Creating Layer L3_b4_sum_eltwise
I1212 06:17:46.547580 18921 net.cpp:434] L3_b4_sum_eltwise <- L3_b4_cbr2_bn_top
I1212 06:17:46.547593 18921 net.cpp:434] L3_b4_sum_eltwise <- L3_b3_sum_eltwise_top_L3_b3_relu_0_split_1
I1212 06:17:46.547616 18921 net.cpp:408] L3_b4_sum_eltwise -> L3_b4_sum_eltwise_top
I1212 06:17:46.547674 18921 net.cpp:150] Setting up L3_b4_sum_eltwise
I1212 06:17:46.547693 18921 net.cpp:157] Top shape: 125 64 8 8 (512000)
I1212 06:17:46.547713 18921 net.cpp:165] Memory required for data: 1335809500
I1212 06:17:46.547724 18921 layer_factory.hpp:77] Creating layer L3_b4_relu
I1212 06:17:46.547742 18921 net.cpp:100] Creating Layer L3_b4_relu
I1212 06:17:46.547755 18921 net.cpp:434] L3_b4_relu <- L3_b4_sum_eltwise_top
I1212 06:17:46.547770 18921 net.cpp:395] L3_b4_relu -> L3_b4_sum_eltwise_top (in-place)
I1212 06:17:46.547791 18921 net.cpp:150] Setting up L3_b4_relu
I1212 06:17:46.547804 18921 net.cpp:157] Top shape: 125 64 8 8 (512000)
I1212 06:17:46.547813 18921 net.cpp:165] Memory required for data: 1337857500
I1212 06:17:46.547823 18921 layer_factory.hpp:77] Creating layer L3_b4_sum_eltwise_top_L3_b4_relu_0_split
I1212 06:17:46.547837 18921 net.cpp:100] Creating Layer L3_b4_sum_eltwise_top_L3_b4_relu_0_split
I1212 06:17:46.547849 18921 net.cpp:434] L3_b4_sum_eltwise_top_L3_b4_relu_0_split <- L3_b4_sum_eltwise_top
I1212 06:17:46.547865 18921 net.cpp:408] L3_b4_sum_eltwise_top_L3_b4_relu_0_split -> L3_b4_sum_eltwise_top_L3_b4_relu_0_split_0
I1212 06:17:46.547885 18921 net.cpp:408] L3_b4_sum_eltwise_top_L3_b4_relu_0_split -> L3_b4_sum_eltwise_top_L3_b4_relu_0_split_1
I1212 06:17:46.547976 18921 net.cpp:150] Setting up L3_b4_sum_eltwise_top_L3_b4_relu_0_split
I1212 06:17:46.547996 18921 net.cpp:157] Top shape: 125 64 8 8 (512000)
I1212 06:17:46.548007 18921 net.cpp:157] Top shape: 125 64 8 8 (512000)
I1212 06:17:46.548017 18921 net.cpp:165] Memory required for data: 1341953500
I1212 06:17:46.548027 18921 layer_factory.hpp:77] Creating layer L3_b5_cbr1_conv
I1212 06:17:46.548053 18921 net.cpp:100] Creating Layer L3_b5_cbr1_conv
I1212 06:17:46.548066 18921 net.cpp:434] L3_b5_cbr1_conv <- L3_b4_sum_eltwise_top_L3_b4_relu_0_split_0
I1212 06:17:46.548084 18921 net.cpp:408] L3_b5_cbr1_conv -> L3_b5_cbr1_conv_top
I1212 06:17:46.549167 18921 net.cpp:150] Setting up L3_b5_cbr1_conv
I1212 06:17:46.549187 18921 net.cpp:157] Top shape: 125 64 8 8 (512000)
I1212 06:17:46.549197 18921 net.cpp:165] Memory required for data: 1344001500
I1212 06:17:46.549214 18921 layer_factory.hpp:77] Creating layer L3_b5_cbr1_bn
I1212 06:17:46.549240 18921 net.cpp:100] Creating Layer L3_b5_cbr1_bn
I1212 06:17:46.549253 18921 net.cpp:434] L3_b5_cbr1_bn <- L3_b5_cbr1_conv_top
I1212 06:17:46.549275 18921 net.cpp:408] L3_b5_cbr1_bn -> L3_b5_cbr1_bn_top
I1212 06:17:46.550668 18921 net.cpp:150] Setting up L3_b5_cbr1_bn
I1212 06:17:46.550690 18921 net.cpp:157] Top shape: 125 64 8 8 (512000)
I1212 06:17:46.550700 18921 net.cpp:165] Memory required for data: 1346049500
I1212 06:17:46.550724 18921 layer_factory.hpp:77] Creating layer L3_b5_cbr1_scale
I1212 06:17:46.550745 18921 net.cpp:100] Creating Layer L3_b5_cbr1_scale
I1212 06:17:46.550758 18921 net.cpp:434] L3_b5_cbr1_scale <- L3_b5_cbr1_bn_top
I1212 06:17:46.550779 18921 net.cpp:395] L3_b5_cbr1_scale -> L3_b5_cbr1_bn_top (in-place)
I1212 06:17:46.550873 18921 layer_factory.hpp:77] Creating layer L3_b5_cbr1_scale
I1212 06:17:46.551075 18921 net.cpp:150] Setting up L3_b5_cbr1_scale
I1212 06:17:46.551095 18921 net.cpp:157] Top shape: 125 64 8 8 (512000)
I1212 06:17:46.551103 18921 net.cpp:165] Memory required for data: 1348097500
I1212 06:17:46.551122 18921 layer_factory.hpp:77] Creating layer L3_b5_cbr1_relu
I1212 06:17:46.551138 18921 net.cpp:100] Creating Layer L3_b5_cbr1_relu
I1212 06:17:46.551149 18921 net.cpp:434] L3_b5_cbr1_relu <- L3_b5_cbr1_bn_top
I1212 06:17:46.551168 18921 net.cpp:395] L3_b5_cbr1_relu -> L3_b5_cbr1_bn_top (in-place)
I1212 06:17:46.551189 18921 net.cpp:150] Setting up L3_b5_cbr1_relu
I1212 06:17:46.551204 18921 net.cpp:157] Top shape: 125 64 8 8 (512000)
I1212 06:17:46.551213 18921 net.cpp:165] Memory required for data: 1350145500
I1212 06:17:46.551225 18921 layer_factory.hpp:77] Creating layer L3_b5_cbr2_conv
I1212 06:17:46.551245 18921 net.cpp:100] Creating Layer L3_b5_cbr2_conv
I1212 06:17:46.551259 18921 net.cpp:434] L3_b5_cbr2_conv <- L3_b5_cbr1_bn_top
I1212 06:17:46.551282 18921 net.cpp:408] L3_b5_cbr2_conv -> L3_b5_cbr2_conv_top
I1212 06:17:46.553436 18921 net.cpp:150] Setting up L3_b5_cbr2_conv
I1212 06:17:46.553465 18921 net.cpp:157] Top shape: 125 64 8 8 (512000)
I1212 06:17:46.553475 18921 net.cpp:165] Memory required for data: 1352193500
I1212 06:17:46.553494 18921 layer_factory.hpp:77] Creating layer L3_b5_cbr2_bn
I1212 06:17:46.553516 18921 net.cpp:100] Creating Layer L3_b5_cbr2_bn
I1212 06:17:46.553529 18921 net.cpp:434] L3_b5_cbr2_bn <- L3_b5_cbr2_conv_top
I1212 06:17:46.553546 18921 net.cpp:408] L3_b5_cbr2_bn -> L3_b5_cbr2_bn_top
I1212 06:17:46.553848 18921 net.cpp:150] Setting up L3_b5_cbr2_bn
I1212 06:17:46.553867 18921 net.cpp:157] Top shape: 125 64 8 8 (512000)
I1212 06:17:46.553876 18921 net.cpp:165] Memory required for data: 1354241500
I1212 06:17:46.553899 18921 layer_factory.hpp:77] Creating layer L3_b5_cbr2_scale
I1212 06:17:46.553920 18921 net.cpp:100] Creating Layer L3_b5_cbr2_scale
I1212 06:17:46.553932 18921 net.cpp:434] L3_b5_cbr2_scale <- L3_b5_cbr2_bn_top
I1212 06:17:46.553947 18921 net.cpp:395] L3_b5_cbr2_scale -> L3_b5_cbr2_bn_top (in-place)
I1212 06:17:46.554041 18921 layer_factory.hpp:77] Creating layer L3_b5_cbr2_scale
I1212 06:17:46.554242 18921 net.cpp:150] Setting up L3_b5_cbr2_scale
I1212 06:17:46.554261 18921 net.cpp:157] Top shape: 125 64 8 8 (512000)
I1212 06:17:46.554271 18921 net.cpp:165] Memory required for data: 1356289500
I1212 06:17:46.554289 18921 layer_factory.hpp:77] Creating layer L3_b5_sum_eltwise
I1212 06:17:46.554307 18921 net.cpp:100] Creating Layer L3_b5_sum_eltwise
I1212 06:17:46.554318 18921 net.cpp:434] L3_b5_sum_eltwise <- L3_b5_cbr2_bn_top
I1212 06:17:46.554332 18921 net.cpp:434] L3_b5_sum_eltwise <- L3_b4_sum_eltwise_top_L3_b4_relu_0_split_1
I1212 06:17:46.554354 18921 net.cpp:408] L3_b5_sum_eltwise -> L3_b5_sum_eltwise_top
I1212 06:17:46.554416 18921 net.cpp:150] Setting up L3_b5_sum_eltwise
I1212 06:17:46.554435 18921 net.cpp:157] Top shape: 125 64 8 8 (512000)
I1212 06:17:46.554445 18921 net.cpp:165] Memory required for data: 1358337500
I1212 06:17:46.554456 18921 layer_factory.hpp:77] Creating layer L3_b5_relu
I1212 06:17:46.554474 18921 net.cpp:100] Creating Layer L3_b5_relu
I1212 06:17:46.554487 18921 net.cpp:434] L3_b5_relu <- L3_b5_sum_eltwise_top
I1212 06:17:46.554502 18921 net.cpp:395] L3_b5_relu -> L3_b5_sum_eltwise_top (in-place)
I1212 06:17:46.554520 18921 net.cpp:150] Setting up L3_b5_relu
I1212 06:17:46.554535 18921 net.cpp:157] Top shape: 125 64 8 8 (512000)
I1212 06:17:46.554544 18921 net.cpp:165] Memory required for data: 1360385500
I1212 06:17:46.554555 18921 layer_factory.hpp:77] Creating layer L3_b5_sum_eltwise_top_L3_b5_relu_0_split
I1212 06:17:46.554569 18921 net.cpp:100] Creating Layer L3_b5_sum_eltwise_top_L3_b5_relu_0_split
I1212 06:17:46.554581 18921 net.cpp:434] L3_b5_sum_eltwise_top_L3_b5_relu_0_split <- L3_b5_sum_eltwise_top
I1212 06:17:46.554595 18921 net.cpp:408] L3_b5_sum_eltwise_top_L3_b5_relu_0_split -> L3_b5_sum_eltwise_top_L3_b5_relu_0_split_0
I1212 06:17:46.554615 18921 net.cpp:408] L3_b5_sum_eltwise_top_L3_b5_relu_0_split -> L3_b5_sum_eltwise_top_L3_b5_relu_0_split_1
I1212 06:17:46.554697 18921 net.cpp:150] Setting up L3_b5_sum_eltwise_top_L3_b5_relu_0_split
I1212 06:17:46.554716 18921 net.cpp:157] Top shape: 125 64 8 8 (512000)
I1212 06:17:46.554728 18921 net.cpp:157] Top shape: 125 64 8 8 (512000)
I1212 06:17:46.554738 18921 net.cpp:165] Memory required for data: 1364481500
I1212 06:17:46.554747 18921 layer_factory.hpp:77] Creating layer L3_b6_cbr1_conv
I1212 06:17:46.554772 18921 net.cpp:100] Creating Layer L3_b6_cbr1_conv
I1212 06:17:46.554786 18921 net.cpp:434] L3_b6_cbr1_conv <- L3_b5_sum_eltwise_top_L3_b5_relu_0_split_0
I1212 06:17:46.554806 18921 net.cpp:408] L3_b6_cbr1_conv -> L3_b6_cbr1_conv_top
I1212 06:17:46.555872 18921 net.cpp:150] Setting up L3_b6_cbr1_conv
I1212 06:17:46.555893 18921 net.cpp:157] Top shape: 125 64 8 8 (512000)
I1212 06:17:46.555902 18921 net.cpp:165] Memory required for data: 1366529500
I1212 06:17:46.555920 18921 layer_factory.hpp:77] Creating layer L3_b6_cbr1_bn
I1212 06:17:46.555943 18921 net.cpp:100] Creating Layer L3_b6_cbr1_bn
I1212 06:17:46.555955 18921 net.cpp:434] L3_b6_cbr1_bn <- L3_b6_cbr1_conv_top
I1212 06:17:46.555994 18921 net.cpp:408] L3_b6_cbr1_bn -> L3_b6_cbr1_bn_top
I1212 06:17:46.556318 18921 net.cpp:150] Setting up L3_b6_cbr1_bn
I1212 06:17:46.556337 18921 net.cpp:157] Top shape: 125 64 8 8 (512000)
I1212 06:17:46.556346 18921 net.cpp:165] Memory required for data: 1368577500
I1212 06:17:46.556376 18921 layer_factory.hpp:77] Creating layer L3_b6_cbr1_scale
I1212 06:17:46.556396 18921 net.cpp:100] Creating Layer L3_b6_cbr1_scale
I1212 06:17:46.556407 18921 net.cpp:434] L3_b6_cbr1_scale <- L3_b6_cbr1_bn_top
I1212 06:17:46.556428 18921 net.cpp:395] L3_b6_cbr1_scale -> L3_b6_cbr1_bn_top (in-place)
I1212 06:17:46.556526 18921 layer_factory.hpp:77] Creating layer L3_b6_cbr1_scale
I1212 06:17:46.556720 18921 net.cpp:150] Setting up L3_b6_cbr1_scale
I1212 06:17:46.556740 18921 net.cpp:157] Top shape: 125 64 8 8 (512000)
I1212 06:17:46.556749 18921 net.cpp:165] Memory required for data: 1370625500
I1212 06:17:46.556768 18921 layer_factory.hpp:77] Creating layer L3_b6_cbr1_relu
I1212 06:17:46.556783 18921 net.cpp:100] Creating Layer L3_b6_cbr1_relu
I1212 06:17:46.556795 18921 net.cpp:434] L3_b6_cbr1_relu <- L3_b6_cbr1_bn_top
I1212 06:17:46.556818 18921 net.cpp:395] L3_b6_cbr1_relu -> L3_b6_cbr1_bn_top (in-place)
I1212 06:17:46.556838 18921 net.cpp:150] Setting up L3_b6_cbr1_relu
I1212 06:17:46.556852 18921 net.cpp:157] Top shape: 125 64 8 8 (512000)
I1212 06:17:46.556861 18921 net.cpp:165] Memory required for data: 1372673500
I1212 06:17:46.556872 18921 layer_factory.hpp:77] Creating layer L3_b6_cbr2_conv
I1212 06:17:46.556897 18921 net.cpp:100] Creating Layer L3_b6_cbr2_conv
I1212 06:17:46.556911 18921 net.cpp:434] L3_b6_cbr2_conv <- L3_b6_cbr1_bn_top
I1212 06:17:46.556928 18921 net.cpp:408] L3_b6_cbr2_conv -> L3_b6_cbr2_conv_top
I1212 06:17:46.557999 18921 net.cpp:150] Setting up L3_b6_cbr2_conv
I1212 06:17:46.558020 18921 net.cpp:157] Top shape: 125 64 8 8 (512000)
I1212 06:17:46.558029 18921 net.cpp:165] Memory required for data: 1374721500
I1212 06:17:46.558048 18921 layer_factory.hpp:77] Creating layer L3_b6_cbr2_bn
I1212 06:17:46.558070 18921 net.cpp:100] Creating Layer L3_b6_cbr2_bn
I1212 06:17:46.558082 18921 net.cpp:434] L3_b6_cbr2_bn <- L3_b6_cbr2_conv_top
I1212 06:17:46.558099 18921 net.cpp:408] L3_b6_cbr2_bn -> L3_b6_cbr2_bn_top
I1212 06:17:46.558414 18921 net.cpp:150] Setting up L3_b6_cbr2_bn
I1212 06:17:46.558435 18921 net.cpp:157] Top shape: 125 64 8 8 (512000)
I1212 06:17:46.558444 18921 net.cpp:165] Memory required for data: 1376769500
I1212 06:17:46.558466 18921 layer_factory.hpp:77] Creating layer L3_b6_cbr2_scale
I1212 06:17:46.558491 18921 net.cpp:100] Creating Layer L3_b6_cbr2_scale
I1212 06:17:46.558504 18921 net.cpp:434] L3_b6_cbr2_scale <- L3_b6_cbr2_bn_top
I1212 06:17:46.558526 18921 net.cpp:395] L3_b6_cbr2_scale -> L3_b6_cbr2_bn_top (in-place)
I1212 06:17:46.558629 18921 layer_factory.hpp:77] Creating layer L3_b6_cbr2_scale
I1212 06:17:46.558826 18921 net.cpp:150] Setting up L3_b6_cbr2_scale
I1212 06:17:46.558845 18921 net.cpp:157] Top shape: 125 64 8 8 (512000)
I1212 06:17:46.558854 18921 net.cpp:165] Memory required for data: 1378817500
I1212 06:17:46.558873 18921 layer_factory.hpp:77] Creating layer L3_b6_sum_eltwise
I1212 06:17:46.558889 18921 net.cpp:100] Creating Layer L3_b6_sum_eltwise
I1212 06:17:46.558902 18921 net.cpp:434] L3_b6_sum_eltwise <- L3_b6_cbr2_bn_top
I1212 06:17:46.558913 18921 net.cpp:434] L3_b6_sum_eltwise <- L3_b5_sum_eltwise_top_L3_b5_relu_0_split_1
I1212 06:17:46.558935 18921 net.cpp:408] L3_b6_sum_eltwise -> L3_b6_sum_eltwise_top
I1212 06:17:46.558990 18921 net.cpp:150] Setting up L3_b6_sum_eltwise
I1212 06:17:46.559010 18921 net.cpp:157] Top shape: 125 64 8 8 (512000)
I1212 06:17:46.559020 18921 net.cpp:165] Memory required for data: 1380865500
I1212 06:17:46.559029 18921 layer_factory.hpp:77] Creating layer L3_b6_relu
I1212 06:17:46.559048 18921 net.cpp:100] Creating Layer L3_b6_relu
I1212 06:17:46.559061 18921 net.cpp:434] L3_b6_relu <- L3_b6_sum_eltwise_top
I1212 06:17:46.559075 18921 net.cpp:395] L3_b6_relu -> L3_b6_sum_eltwise_top (in-place)
I1212 06:17:46.559103 18921 net.cpp:150] Setting up L3_b6_relu
I1212 06:17:46.559118 18921 net.cpp:157] Top shape: 125 64 8 8 (512000)
I1212 06:17:46.559128 18921 net.cpp:165] Memory required for data: 1382913500
I1212 06:17:46.559137 18921 layer_factory.hpp:77] Creating layer L3_b6_sum_eltwise_top_L3_b6_relu_0_split
I1212 06:17:46.559151 18921 net.cpp:100] Creating Layer L3_b6_sum_eltwise_top_L3_b6_relu_0_split
I1212 06:17:46.559162 18921 net.cpp:434] L3_b6_sum_eltwise_top_L3_b6_relu_0_split <- L3_b6_sum_eltwise_top
I1212 06:17:46.559177 18921 net.cpp:408] L3_b6_sum_eltwise_top_L3_b6_relu_0_split -> L3_b6_sum_eltwise_top_L3_b6_relu_0_split_0
I1212 06:17:46.559197 18921 net.cpp:408] L3_b6_sum_eltwise_top_L3_b6_relu_0_split -> L3_b6_sum_eltwise_top_L3_b6_relu_0_split_1
I1212 06:17:46.559278 18921 net.cpp:150] Setting up L3_b6_sum_eltwise_top_L3_b6_relu_0_split
I1212 06:17:46.559295 18921 net.cpp:157] Top shape: 125 64 8 8 (512000)
I1212 06:17:46.559307 18921 net.cpp:157] Top shape: 125 64 8 8 (512000)
I1212 06:17:46.559316 18921 net.cpp:165] Memory required for data: 1387009500
I1212 06:17:46.559326 18921 layer_factory.hpp:77] Creating layer L3_b7_cbr1_conv
I1212 06:17:46.559352 18921 net.cpp:100] Creating Layer L3_b7_cbr1_conv
I1212 06:17:46.559373 18921 net.cpp:434] L3_b7_cbr1_conv <- L3_b6_sum_eltwise_top_L3_b6_relu_0_split_0
I1212 06:17:46.559393 18921 net.cpp:408] L3_b7_cbr1_conv -> L3_b7_cbr1_conv_top
I1212 06:17:46.560458 18921 net.cpp:150] Setting up L3_b7_cbr1_conv
I1212 06:17:46.560478 18921 net.cpp:157] Top shape: 125 64 8 8 (512000)
I1212 06:17:46.560488 18921 net.cpp:165] Memory required for data: 1389057500
I1212 06:17:46.560506 18921 layer_factory.hpp:77] Creating layer L3_b7_cbr1_bn
I1212 06:17:46.560528 18921 net.cpp:100] Creating Layer L3_b7_cbr1_bn
I1212 06:17:46.560540 18921 net.cpp:434] L3_b7_cbr1_bn <- L3_b7_cbr1_conv_top
I1212 06:17:46.560561 18921 net.cpp:408] L3_b7_cbr1_bn -> L3_b7_cbr1_bn_top
I1212 06:17:46.560858 18921 net.cpp:150] Setting up L3_b7_cbr1_bn
I1212 06:17:46.560878 18921 net.cpp:157] Top shape: 125 64 8 8 (512000)
I1212 06:17:46.560887 18921 net.cpp:165] Memory required for data: 1391105500
I1212 06:17:46.560909 18921 layer_factory.hpp:77] Creating layer L3_b7_cbr1_scale
I1212 06:17:46.560925 18921 net.cpp:100] Creating Layer L3_b7_cbr1_scale
I1212 06:17:46.560936 18921 net.cpp:434] L3_b7_cbr1_scale <- L3_b7_cbr1_bn_top
I1212 06:17:46.560956 18921 net.cpp:395] L3_b7_cbr1_scale -> L3_b7_cbr1_bn_top (in-place)
I1212 06:17:46.561048 18921 layer_factory.hpp:77] Creating layer L3_b7_cbr1_scale
I1212 06:17:46.561246 18921 net.cpp:150] Setting up L3_b7_cbr1_scale
I1212 06:17:46.561266 18921 net.cpp:157] Top shape: 125 64 8 8 (512000)
I1212 06:17:46.561275 18921 net.cpp:165] Memory required for data: 1393153500
I1212 06:17:46.561295 18921 layer_factory.hpp:77] Creating layer L3_b7_cbr1_relu
I1212 06:17:46.561353 18921 net.cpp:100] Creating Layer L3_b7_cbr1_relu
I1212 06:17:46.561378 18921 net.cpp:434] L3_b7_cbr1_relu <- L3_b7_cbr1_bn_top
I1212 06:17:46.561394 18921 net.cpp:395] L3_b7_cbr1_relu -> L3_b7_cbr1_bn_top (in-place)
I1212 06:17:46.561414 18921 net.cpp:150] Setting up L3_b7_cbr1_relu
I1212 06:17:46.561429 18921 net.cpp:157] Top shape: 125 64 8 8 (512000)
I1212 06:17:46.561439 18921 net.cpp:165] Memory required for data: 1395201500
I1212 06:17:46.561450 18921 layer_factory.hpp:77] Creating layer L3_b7_cbr2_conv
I1212 06:17:46.561476 18921 net.cpp:100] Creating Layer L3_b7_cbr2_conv
I1212 06:17:46.561489 18921 net.cpp:434] L3_b7_cbr2_conv <- L3_b7_cbr1_bn_top
I1212 06:17:46.561508 18921 net.cpp:408] L3_b7_cbr2_conv -> L3_b7_cbr2_conv_top
I1212 06:17:46.562592 18921 net.cpp:150] Setting up L3_b7_cbr2_conv
I1212 06:17:46.562613 18921 net.cpp:157] Top shape: 125 64 8 8 (512000)
I1212 06:17:46.562623 18921 net.cpp:165] Memory required for data: 1397249500
I1212 06:17:46.562640 18921 layer_factory.hpp:77] Creating layer L3_b7_cbr2_bn
I1212 06:17:46.562662 18921 net.cpp:100] Creating Layer L3_b7_cbr2_bn
I1212 06:17:46.562675 18921 net.cpp:434] L3_b7_cbr2_bn <- L3_b7_cbr2_conv_top
I1212 06:17:46.562705 18921 net.cpp:408] L3_b7_cbr2_bn -> L3_b7_cbr2_bn_top
I1212 06:17:46.563021 18921 net.cpp:150] Setting up L3_b7_cbr2_bn
I1212 06:17:46.563041 18921 net.cpp:157] Top shape: 125 64 8 8 (512000)
I1212 06:17:46.563050 18921 net.cpp:165] Memory required for data: 1399297500
I1212 06:17:46.563072 18921 layer_factory.hpp:77] Creating layer L3_b7_cbr2_scale
I1212 06:17:46.563089 18921 net.cpp:100] Creating Layer L3_b7_cbr2_scale
I1212 06:17:46.563102 18921 net.cpp:434] L3_b7_cbr2_scale <- L3_b7_cbr2_bn_top
I1212 06:17:46.563122 18921 net.cpp:395] L3_b7_cbr2_scale -> L3_b7_cbr2_bn_top (in-place)
I1212 06:17:46.563220 18921 layer_factory.hpp:77] Creating layer L3_b7_cbr2_scale
I1212 06:17:46.563422 18921 net.cpp:150] Setting up L3_b7_cbr2_scale
I1212 06:17:46.563442 18921 net.cpp:157] Top shape: 125 64 8 8 (512000)
I1212 06:17:46.563452 18921 net.cpp:165] Memory required for data: 1401345500
I1212 06:17:46.563470 18921 layer_factory.hpp:77] Creating layer L3_b7_sum_eltwise
I1212 06:17:46.563488 18921 net.cpp:100] Creating Layer L3_b7_sum_eltwise
I1212 06:17:46.563499 18921 net.cpp:434] L3_b7_sum_eltwise <- L3_b7_cbr2_bn_top
I1212 06:17:46.563513 18921 net.cpp:434] L3_b7_sum_eltwise <- L3_b6_sum_eltwise_top_L3_b6_relu_0_split_1
I1212 06:17:46.563534 18921 net.cpp:408] L3_b7_sum_eltwise -> L3_b7_sum_eltwise_top
I1212 06:17:46.563594 18921 net.cpp:150] Setting up L3_b7_sum_eltwise
I1212 06:17:46.563613 18921 net.cpp:157] Top shape: 125 64 8 8 (512000)
I1212 06:17:46.563623 18921 net.cpp:165] Memory required for data: 1403393500
I1212 06:17:46.563632 18921 layer_factory.hpp:77] Creating layer L3_b7_relu
I1212 06:17:46.563647 18921 net.cpp:100] Creating Layer L3_b7_relu
I1212 06:17:46.563659 18921 net.cpp:434] L3_b7_relu <- L3_b7_sum_eltwise_top
I1212 06:17:46.563681 18921 net.cpp:395] L3_b7_relu -> L3_b7_sum_eltwise_top (in-place)
I1212 06:17:46.563701 18921 net.cpp:150] Setting up L3_b7_relu
I1212 06:17:46.563716 18921 net.cpp:157] Top shape: 125 64 8 8 (512000)
I1212 06:17:46.563724 18921 net.cpp:165] Memory required for data: 1405441500
I1212 06:17:46.563735 18921 layer_factory.hpp:77] Creating layer L3_b7_sum_eltwise_top_L3_b7_relu_0_split
I1212 06:17:46.563750 18921 net.cpp:100] Creating Layer L3_b7_sum_eltwise_top_L3_b7_relu_0_split
I1212 06:17:46.563760 18921 net.cpp:434] L3_b7_sum_eltwise_top_L3_b7_relu_0_split <- L3_b7_sum_eltwise_top
I1212 06:17:46.563776 18921 net.cpp:408] L3_b7_sum_eltwise_top_L3_b7_relu_0_split -> L3_b7_sum_eltwise_top_L3_b7_relu_0_split_0
I1212 06:17:46.563796 18921 net.cpp:408] L3_b7_sum_eltwise_top_L3_b7_relu_0_split -> L3_b7_sum_eltwise_top_L3_b7_relu_0_split_1
I1212 06:17:46.563876 18921 net.cpp:150] Setting up L3_b7_sum_eltwise_top_L3_b7_relu_0_split
I1212 06:17:46.563894 18921 net.cpp:157] Top shape: 125 64 8 8 (512000)
I1212 06:17:46.563907 18921 net.cpp:157] Top shape: 125 64 8 8 (512000)
I1212 06:17:46.563916 18921 net.cpp:165] Memory required for data: 1409537500
I1212 06:17:46.563926 18921 layer_factory.hpp:77] Creating layer L3_b8_cbr1_conv
I1212 06:17:46.563947 18921 net.cpp:100] Creating Layer L3_b8_cbr1_conv
I1212 06:17:46.563959 18921 net.cpp:434] L3_b8_cbr1_conv <- L3_b7_sum_eltwise_top_L3_b7_relu_0_split_0
I1212 06:17:46.563982 18921 net.cpp:408] L3_b8_cbr1_conv -> L3_b8_cbr1_conv_top
I1212 06:17:46.565071 18921 net.cpp:150] Setting up L3_b8_cbr1_conv
I1212 06:17:46.565093 18921 net.cpp:157] Top shape: 125 64 8 8 (512000)
I1212 06:17:46.565101 18921 net.cpp:165] Memory required for data: 1411585500
I1212 06:17:46.565119 18921 layer_factory.hpp:77] Creating layer L3_b8_cbr1_bn
I1212 06:17:46.565136 18921 net.cpp:100] Creating Layer L3_b8_cbr1_bn
I1212 06:17:46.565148 18921 net.cpp:434] L3_b8_cbr1_bn <- L3_b8_cbr1_conv_top
I1212 06:17:46.565170 18921 net.cpp:408] L3_b8_cbr1_bn -> L3_b8_cbr1_bn_top
I1212 06:17:46.565488 18921 net.cpp:150] Setting up L3_b8_cbr1_bn
I1212 06:17:46.565511 18921 net.cpp:157] Top shape: 125 64 8 8 (512000)
I1212 06:17:46.565521 18921 net.cpp:165] Memory required for data: 1413633500
I1212 06:17:46.565544 18921 layer_factory.hpp:77] Creating layer L3_b8_cbr1_scale
I1212 06:17:46.565570 18921 net.cpp:100] Creating Layer L3_b8_cbr1_scale
I1212 06:17:46.565583 18921 net.cpp:434] L3_b8_cbr1_scale <- L3_b8_cbr1_bn_top
I1212 06:17:46.565599 18921 net.cpp:395] L3_b8_cbr1_scale -> L3_b8_cbr1_bn_top (in-place)
I1212 06:17:46.565701 18921 layer_factory.hpp:77] Creating layer L3_b8_cbr1_scale
I1212 06:17:46.565899 18921 net.cpp:150] Setting up L3_b8_cbr1_scale
I1212 06:17:46.565918 18921 net.cpp:157] Top shape: 125 64 8 8 (512000)
I1212 06:17:46.565927 18921 net.cpp:165] Memory required for data: 1415681500
I1212 06:17:46.565946 18921 layer_factory.hpp:77] Creating layer L3_b8_cbr1_relu
I1212 06:17:46.565966 18921 net.cpp:100] Creating Layer L3_b8_cbr1_relu
I1212 06:17:46.565979 18921 net.cpp:434] L3_b8_cbr1_relu <- L3_b8_cbr1_bn_top
I1212 06:17:46.565992 18921 net.cpp:395] L3_b8_cbr1_relu -> L3_b8_cbr1_bn_top (in-place)
I1212 06:17:46.566011 18921 net.cpp:150] Setting up L3_b8_cbr1_relu
I1212 06:17:46.566025 18921 net.cpp:157] Top shape: 125 64 8 8 (512000)
I1212 06:17:46.566035 18921 net.cpp:165] Memory required for data: 1417729500
I1212 06:17:46.566045 18921 layer_factory.hpp:77] Creating layer L3_b8_cbr2_conv
I1212 06:17:46.566071 18921 net.cpp:100] Creating Layer L3_b8_cbr2_conv
I1212 06:17:46.566084 18921 net.cpp:434] L3_b8_cbr2_conv <- L3_b8_cbr1_bn_top
I1212 06:17:46.566103 18921 net.cpp:408] L3_b8_cbr2_conv -> L3_b8_cbr2_conv_top
I1212 06:17:46.567376 18921 net.cpp:150] Setting up L3_b8_cbr2_conv
I1212 06:17:46.567397 18921 net.cpp:157] Top shape: 125 64 8 8 (512000)
I1212 06:17:46.567406 18921 net.cpp:165] Memory required for data: 1419777500
I1212 06:17:46.567423 18921 layer_factory.hpp:77] Creating layer L3_b8_cbr2_bn
I1212 06:17:46.567445 18921 net.cpp:100] Creating Layer L3_b8_cbr2_bn
I1212 06:17:46.567456 18921 net.cpp:434] L3_b8_cbr2_bn <- L3_b8_cbr2_conv_top
I1212 06:17:46.567476 18921 net.cpp:408] L3_b8_cbr2_bn -> L3_b8_cbr2_bn_top
I1212 06:17:46.567821 18921 net.cpp:150] Setting up L3_b8_cbr2_bn
I1212 06:17:46.567842 18921 net.cpp:157] Top shape: 125 64 8 8 (512000)
I1212 06:17:46.567850 18921 net.cpp:165] Memory required for data: 1421825500
I1212 06:17:46.567873 18921 layer_factory.hpp:77] Creating layer L3_b8_cbr2_scale
I1212 06:17:46.567889 18921 net.cpp:100] Creating Layer L3_b8_cbr2_scale
I1212 06:17:46.567901 18921 net.cpp:434] L3_b8_cbr2_scale <- L3_b8_cbr2_bn_top
I1212 06:17:46.567929 18921 net.cpp:395] L3_b8_cbr2_scale -> L3_b8_cbr2_bn_top (in-place)
I1212 06:17:46.568022 18921 layer_factory.hpp:77] Creating layer L3_b8_cbr2_scale
I1212 06:17:46.568218 18921 net.cpp:150] Setting up L3_b8_cbr2_scale
I1212 06:17:46.568238 18921 net.cpp:157] Top shape: 125 64 8 8 (512000)
I1212 06:17:46.568246 18921 net.cpp:165] Memory required for data: 1423873500
I1212 06:17:46.568265 18921 layer_factory.hpp:77] Creating layer L3_b8_sum_eltwise
I1212 06:17:46.568281 18921 net.cpp:100] Creating Layer L3_b8_sum_eltwise
I1212 06:17:46.568294 18921 net.cpp:434] L3_b8_sum_eltwise <- L3_b8_cbr2_bn_top
I1212 06:17:46.568311 18921 net.cpp:434] L3_b8_sum_eltwise <- L3_b7_sum_eltwise_top_L3_b7_relu_0_split_1
I1212 06:17:46.568330 18921 net.cpp:408] L3_b8_sum_eltwise -> L3_b8_sum_eltwise_top
I1212 06:17:46.568398 18921 net.cpp:150] Setting up L3_b8_sum_eltwise
I1212 06:17:46.568418 18921 net.cpp:157] Top shape: 125 64 8 8 (512000)
I1212 06:17:46.568428 18921 net.cpp:165] Memory required for data: 1425921500
I1212 06:17:46.568437 18921 layer_factory.hpp:77] Creating layer L3_b8_relu
I1212 06:17:46.568452 18921 net.cpp:100] Creating Layer L3_b8_relu
I1212 06:17:46.568464 18921 net.cpp:434] L3_b8_relu <- L3_b8_sum_eltwise_top
I1212 06:17:46.568482 18921 net.cpp:395] L3_b8_relu -> L3_b8_sum_eltwise_top (in-place)
I1212 06:17:46.568502 18921 net.cpp:150] Setting up L3_b8_relu
I1212 06:17:46.568517 18921 net.cpp:157] Top shape: 125 64 8 8 (512000)
I1212 06:17:46.568526 18921 net.cpp:165] Memory required for data: 1427969500
I1212 06:17:46.568536 18921 layer_factory.hpp:77] Creating layer L3_b8_sum_eltwise_top_L3_b8_relu_0_split
I1212 06:17:46.568552 18921 net.cpp:100] Creating Layer L3_b8_sum_eltwise_top_L3_b8_relu_0_split
I1212 06:17:46.568572 18921 net.cpp:434] L3_b8_sum_eltwise_top_L3_b8_relu_0_split <- L3_b8_sum_eltwise_top
I1212 06:17:46.568588 18921 net.cpp:408] L3_b8_sum_eltwise_top_L3_b8_relu_0_split -> L3_b8_sum_eltwise_top_L3_b8_relu_0_split_0
I1212 06:17:46.568608 18921 net.cpp:408] L3_b8_sum_eltwise_top_L3_b8_relu_0_split -> L3_b8_sum_eltwise_top_L3_b8_relu_0_split_1
I1212 06:17:46.568694 18921 net.cpp:150] Setting up L3_b8_sum_eltwise_top_L3_b8_relu_0_split
I1212 06:17:46.568714 18921 net.cpp:157] Top shape: 125 64 8 8 (512000)
I1212 06:17:46.568727 18921 net.cpp:157] Top shape: 125 64 8 8 (512000)
I1212 06:17:46.568737 18921 net.cpp:165] Memory required for data: 1432065500
I1212 06:17:46.568747 18921 layer_factory.hpp:77] Creating layer L3_b9_cbr1_conv
I1212 06:17:46.568769 18921 net.cpp:100] Creating Layer L3_b9_cbr1_conv
I1212 06:17:46.568783 18921 net.cpp:434] L3_b9_cbr1_conv <- L3_b8_sum_eltwise_top_L3_b8_relu_0_split_0
I1212 06:17:46.568806 18921 net.cpp:408] L3_b9_cbr1_conv -> L3_b9_cbr1_conv_top
I1212 06:17:46.570950 18921 net.cpp:150] Setting up L3_b9_cbr1_conv
I1212 06:17:46.570972 18921 net.cpp:157] Top shape: 125 64 8 8 (512000)
I1212 06:17:46.570982 18921 net.cpp:165] Memory required for data: 1434113500
I1212 06:17:46.571002 18921 layer_factory.hpp:77] Creating layer L3_b9_cbr1_bn
I1212 06:17:46.571023 18921 net.cpp:100] Creating Layer L3_b9_cbr1_bn
I1212 06:17:46.571036 18921 net.cpp:434] L3_b9_cbr1_bn <- L3_b9_cbr1_conv_top
I1212 06:17:46.571054 18921 net.cpp:408] L3_b9_cbr1_bn -> L3_b9_cbr1_bn_top
I1212 06:17:46.571375 18921 net.cpp:150] Setting up L3_b9_cbr1_bn
I1212 06:17:46.571395 18921 net.cpp:157] Top shape: 125 64 8 8 (512000)
I1212 06:17:46.571405 18921 net.cpp:165] Memory required for data: 1436161500
I1212 06:17:46.571427 18921 layer_factory.hpp:77] Creating layer L3_b9_cbr1_scale
I1212 06:17:46.571449 18921 net.cpp:100] Creating Layer L3_b9_cbr1_scale
I1212 06:17:46.571461 18921 net.cpp:434] L3_b9_cbr1_scale <- L3_b9_cbr1_bn_top
I1212 06:17:46.571476 18921 net.cpp:395] L3_b9_cbr1_scale -> L3_b9_cbr1_bn_top (in-place)
I1212 06:17:46.571573 18921 layer_factory.hpp:77] Creating layer L3_b9_cbr1_scale
I1212 06:17:46.571779 18921 net.cpp:150] Setting up L3_b9_cbr1_scale
I1212 06:17:46.571801 18921 net.cpp:157] Top shape: 125 64 8 8 (512000)
I1212 06:17:46.571808 18921 net.cpp:165] Memory required for data: 1438209500
I1212 06:17:46.571818 18921 layer_factory.hpp:77] Creating layer L3_b9_cbr1_relu
I1212 06:17:46.571831 18921 net.cpp:100] Creating Layer L3_b9_cbr1_relu
I1212 06:17:46.571838 18921 net.cpp:434] L3_b9_cbr1_relu <- L3_b9_cbr1_bn_top
I1212 06:17:46.571846 18921 net.cpp:395] L3_b9_cbr1_relu -> L3_b9_cbr1_bn_top (in-place)
I1212 06:17:46.571856 18921 net.cpp:150] Setting up L3_b9_cbr1_relu
I1212 06:17:46.571863 18921 net.cpp:157] Top shape: 125 64 8 8 (512000)
I1212 06:17:46.571868 18921 net.cpp:165] Memory required for data: 1440257500
I1212 06:17:46.571872 18921 layer_factory.hpp:77] Creating layer L3_b9_cbr2_conv
I1212 06:17:46.571888 18921 net.cpp:100] Creating Layer L3_b9_cbr2_conv
I1212 06:17:46.571894 18921 net.cpp:434] L3_b9_cbr2_conv <- L3_b9_cbr1_bn_top
I1212 06:17:46.571907 18921 net.cpp:408] L3_b9_cbr2_conv -> L3_b9_cbr2_conv_top
I1212 06:17:46.572964 18921 net.cpp:150] Setting up L3_b9_cbr2_conv
I1212 06:17:46.572984 18921 net.cpp:157] Top shape: 125 64 8 8 (512000)
I1212 06:17:46.572993 18921 net.cpp:165] Memory required for data: 1442305500
I1212 06:17:46.573011 18921 layer_factory.hpp:77] Creating layer L3_b9_cbr2_bn
I1212 06:17:46.573029 18921 net.cpp:100] Creating Layer L3_b9_cbr2_bn
I1212 06:17:46.573040 18921 net.cpp:434] L3_b9_cbr2_bn <- L3_b9_cbr2_conv_top
I1212 06:17:46.573062 18921 net.cpp:408] L3_b9_cbr2_bn -> L3_b9_cbr2_bn_top
I1212 06:17:46.573380 18921 net.cpp:150] Setting up L3_b9_cbr2_bn
I1212 06:17:46.573405 18921 net.cpp:157] Top shape: 125 64 8 8 (512000)
I1212 06:17:46.573415 18921 net.cpp:165] Memory required for data: 1444353500
I1212 06:17:46.573436 18921 layer_factory.hpp:77] Creating layer L3_b9_cbr2_scale
I1212 06:17:46.573462 18921 net.cpp:100] Creating Layer L3_b9_cbr2_scale
I1212 06:17:46.573477 18921 net.cpp:434] L3_b9_cbr2_scale <- L3_b9_cbr2_bn_top
I1212 06:17:46.573493 18921 net.cpp:395] L3_b9_cbr2_scale -> L3_b9_cbr2_bn_top (in-place)
I1212 06:17:46.573591 18921 layer_factory.hpp:77] Creating layer L3_b9_cbr2_scale
I1212 06:17:46.573792 18921 net.cpp:150] Setting up L3_b9_cbr2_scale
I1212 06:17:46.573812 18921 net.cpp:157] Top shape: 125 64 8 8 (512000)
I1212 06:17:46.573822 18921 net.cpp:165] Memory required for data: 1446401500
I1212 06:17:46.573840 18921 layer_factory.hpp:77] Creating layer L3_b9_sum_eltwise
I1212 06:17:46.573863 18921 net.cpp:100] Creating Layer L3_b9_sum_eltwise
I1212 06:17:46.573874 18921 net.cpp:434] L3_b9_sum_eltwise <- L3_b9_cbr2_bn_top
I1212 06:17:46.573889 18921 net.cpp:434] L3_b9_sum_eltwise <- L3_b8_sum_eltwise_top_L3_b8_relu_0_split_1
I1212 06:17:46.573904 18921 net.cpp:408] L3_b9_sum_eltwise -> L3_b9_sum_eltwise_top
I1212 06:17:46.573964 18921 net.cpp:150] Setting up L3_b9_sum_eltwise
I1212 06:17:46.573983 18921 net.cpp:157] Top shape: 125 64 8 8 (512000)
I1212 06:17:46.573993 18921 net.cpp:165] Memory required for data: 1448449500
I1212 06:17:46.574004 18921 layer_factory.hpp:77] Creating layer L3_b9_relu
I1212 06:17:46.574018 18921 net.cpp:100] Creating Layer L3_b9_relu
I1212 06:17:46.574030 18921 net.cpp:434] L3_b9_relu <- L3_b9_sum_eltwise_top
I1212 06:17:46.574044 18921 net.cpp:395] L3_b9_relu -> L3_b9_sum_eltwise_top (in-place)
I1212 06:17:46.574064 18921 net.cpp:150] Setting up L3_b9_relu
I1212 06:17:46.574079 18921 net.cpp:157] Top shape: 125 64 8 8 (512000)
I1212 06:17:46.574087 18921 net.cpp:165] Memory required for data: 1450497500
I1212 06:17:46.574097 18921 layer_factory.hpp:77] Creating layer post_pool
I1212 06:17:46.574115 18921 net.cpp:100] Creating Layer post_pool
I1212 06:17:46.574126 18921 net.cpp:434] post_pool <- L3_b9_sum_eltwise_top
I1212 06:17:46.574148 18921 net.cpp:408] post_pool -> post_pool
I1212 06:17:46.574208 18921 net.cpp:150] Setting up post_pool
I1212 06:17:46.574226 18921 net.cpp:157] Top shape: 125 64 1 1 (8000)
I1212 06:17:46.574235 18921 net.cpp:165] Memory required for data: 1450529500
I1212 06:17:46.574245 18921 layer_factory.hpp:77] Creating layer post_FC
I1212 06:17:46.574342 18921 net.cpp:100] Creating Layer post_FC
I1212 06:17:46.574358 18921 net.cpp:434] post_FC <- post_pool
I1212 06:17:46.574391 18921 net.cpp:408] post_FC -> post_FC_top
I1212 06:17:46.574657 18921 net.cpp:150] Setting up post_FC
I1212 06:17:46.574677 18921 net.cpp:157] Top shape: 125 10 (1250)
I1212 06:17:46.574687 18921 net.cpp:165] Memory required for data: 1450534500
I1212 06:17:46.574704 18921 layer_factory.hpp:77] Creating layer post_FC_top_post_FC_0_split
I1212 06:17:46.574725 18921 net.cpp:100] Creating Layer post_FC_top_post_FC_0_split
I1212 06:17:46.574738 18921 net.cpp:434] post_FC_top_post_FC_0_split <- post_FC_top
I1212 06:17:46.574753 18921 net.cpp:408] post_FC_top_post_FC_0_split -> post_FC_top_post_FC_0_split_0
I1212 06:17:46.574774 18921 net.cpp:408] post_FC_top_post_FC_0_split -> post_FC_top_post_FC_0_split_1
I1212 06:17:46.574863 18921 net.cpp:150] Setting up post_FC_top_post_FC_0_split
I1212 06:17:46.574885 18921 net.cpp:157] Top shape: 125 10 (1250)
I1212 06:17:46.574899 18921 net.cpp:157] Top shape: 125 10 (1250)
I1212 06:17:46.574908 18921 net.cpp:165] Memory required for data: 1450544500
I1212 06:17:46.574919 18921 layer_factory.hpp:77] Creating layer accuracy
I1212 06:17:46.574935 18921 net.cpp:100] Creating Layer accuracy
I1212 06:17:46.574946 18921 net.cpp:434] accuracy <- post_FC_top_post_FC_0_split_0
I1212 06:17:46.574960 18921 net.cpp:434] accuracy <- label_dataLayer_1_split_0
I1212 06:17:46.574976 18921 net.cpp:408] accuracy -> accuracy
…
