…
I1212 06:18:16.540493 12086 net.cpp:322] The NetState phase (0) differed from the phase (1) specified by a rule in layer L3_b9_cbr2_bn
I1212 06:18:16.542306 12086 net.cpp:58] Initializing net from parameters: 
name: "Cifar-Resnet"
state {
  phase: TRAIN
  level: 0
  stage: ""
}
layer {
  name: "dataLayer"
  type: "Data"
  top: "data_top"
  top: "label"
  include {
    phase: TRAIN
  }
  transform_param {
    mirror: true
    crop_size: 32
    mean_file: "examples/cifar10/mean.binaryproto"
  }
  data_param {
    source: "examples/cifar10/cifar10_train_lmdb"
    batch_size: 125
    backend: LMDB
  }
  image_data_param {
    shuffle: true
  }
}
layer {
  name: "pre_conv"
  type: "Convolution"
  bottom: "data_top"
  top: "pre_conv_top"
  param {
    lr_mult: 1
    decay_mult: 1
  }
  param {
    lr_mult: 2
    decay_mult: 0
  }
  convolution_param {
    num_output: 16
    pad: 1
    kernel_size: 3
    stride: 1
    weight_filler {
      type: "msra"
    }
    bias_filler {
      type: "constant"
    }
  }
}
layer {
  name: "pre_bn"
  type: "BatchNorm"
  bottom: "pre_conv_top"
  top: "pre_bn_top"
  include {
    phase: TRAIN
  }
  batch_norm_param {
    use_global_stats: false
    moving_average_fraction: 0.95
  }
}
layer {
  name: "pre_scale"
  type: "Scale"
  bottom: "pre_bn_top"
  top: "pre_bn_top"
  scale_param {
    bias_term: true
  }
}
layer {
  name: "pre_relu"
  type: "ReLU"
  bottom: "pre_bn_top"
  top: "pre_bn_top"
}
layer {
  name: "L1_b1_cbr1_conv"
  type: "Convolution"
  bottom: "pre_bn_top"
  top: "L1_b1_cbr1_conv_top"
  param {
    lr_mult: 1
    decay_mult: 1
  }
  param {
    lr_mult: 2
    decay_mult: 0
  }
  convolution_param {
    num_output: 16
    pad: 1
    kernel_size: 3
    stride: 1
    weight_filler {
      type: "msra"
    }
    bias_filler {
      type: "constant"
    }
  }
}
layer {
  name: "L1_b1_cbr1_bn"
  type: "BatchNorm"
  bottom: "L1_b1_cbr1_conv_top"
  top: "L1_b1_cbr1_bn_top"
  include {
    phase: TRAIN
  }
  batch_norm_param {
    use_global_stats: false
    moving_average_fraction: 0.95
  }
}
layer {
  name: "L1_b1_cbr1_scale"
  type: "Scale"
  bottom: "L1_b1_cbr1_bn_top"
  top: "L1_b1_cbr1_bn_top"
  scale_param {
    bias_term: true
  }
}
layer {
  name: "L1_b1_cbr1_relu"
  type: "ReLU"
  bottom: "L1_b1_cbr1_bn_top"
  top: "L1_b1_cbr1_bn_top"
}
layer {
  name: "L1_b1_cbr2_conv"
  type: "Convolution"
  bottom: "L1_b1_cbr1_bn_top"
  top: "L1_b1_cbr2_conv_top"
  param {
    lr_mult: 1
    decay_mult: 1
  }
  param {
    lr_mult: 2
    decay_mult: 0
  }
  convolution_param {
    num_output: 16
    pad: 1
    kernel_size: 3
    stride: 1
    weight_filler {
      type: "msra"
    }
    bias_filler {
      type: "constant"
    }
  }
}
layer {
  name: "L1_b1_cbr2_bn"
  type: "BatchNorm"
  bottom: "L1_b1_cbr2_conv_top"
  top: "L1_b1_cbr2_bn_top"
  include {
    phase: TRAIN
  }
  batch_norm_param {
    use_global_stats: false
    moving_average_fraction: 0.95
  }
}
layer {
  name: "L1_b1_cbr2_scale"
  type: "Scale"
  bottom: "L1_b1_cbr2_bn_top"
  top: "L1_b1_cbr2_bn_top"
  scale_param {
    bias_term: true
  }
}
layer {
  name: "L1_b1_sum_eltwise"
  type: "Eltwise"
  bottom: "L1_b1_cbr2_bn_top"
  bottom: "pre_bn_top"
  top: "L1_b1_sum_eltwise_top"
  eltwise_param {
    operation: SUM
  }
}
layer {
  name: "L1_b1_relu"
  type: "ReLU"
  bottom: "L1_b1_sum_eltwise_top"
  top: "L1_b1_sum_eltwise_top"
}
layer {
  name: "L1_b2_cbr1_conv"
  type: "Convolution"
  bottom: "L1_b1_sum_eltwise_top"
  top: "L1_b2_cbr1_conv_top"
  param {
    lr_mult: 1
    decay_mult: 1
  }
  param {
    lr_mult: 2
    decay_mult: 0
  }
  convolution_param {
    num_output: 16
    pad: 1
    kernel_size: 3
    stride: 1
    weight_filler {
      type: "msra"
    }
    bias_filler {
      type: "constant"
    }
  }
}
layer {
  name: "L1_b2_cbr1_bn"
  type: "BatchNorm"
  bottom: "L1_b2_cbr1_conv_top"
  top: "L1_b2_cbr1_bn_top"
  include {
    phase: TRAIN
  }
  batch_norm_param {
    use_global_stats: false
    moving_average_fraction: 0.95
  }
}
layer {
  name: "L1_b2_cbr1_scale"
  type: "Scale"
  bottom: "L1_b2_cbr1_bn_top"
  top: "L1_b2_cbr1_bn_top"
  scale_param {
    bias_term: true
  }
}
layer {
  name: "L1_b2_cbr1_relu"
  type: "ReLU"
  bottom: "L1_b2_cbr1_bn_top"
  top: "L1_b2_cbr1_bn_top"
}
layer {
  name: "L1_b2_cbr2_conv"
  type: "Convolution"
  bottom: "L1_b2_cbr1_bn_top"
  top: "L1_b2_cbr2_conv_top"
  param {
    lr_mult: 1
    decay_mult: 1
  }
  param {
    lr_mult: 2
    decay_mult: 0
  }
  convolution_param {
    num_output: 16
    pad: 1
    kernel_size: 3
    stride: 1
    weight_filler {
      type: "msra"
    }
    bias_filler {
      type: "constant"
    }
  }
}
layer {
  name: "L1_b2_cbr2_bn"
  type: "BatchNorm"
  bottom: "L1_b2_cbr2_conv_top"
  top: "L1_b2_cbr2_bn_top"
  include {
    phase: TRAIN
  }
  batch_norm_param {
    use_global_stats: false
    moving_average_fraction: 0.95
  }
}
layer {
  name: "L1_b2_cbr2_scale"
  type: "Scale"
  bottom: "L1_b2_cbr2_bn_top"
  top: "L1_b2_cbr2_bn_top"
  scale_param {
    bias_term: true
  }
}
layer {
  name: "L1_b2_sum_eltwise"
  type: "Eltwise"
  bottom: "L1_b2_cbr2_bn_top"
  bottom: "L1_b1_sum_eltwise_top"
  top: "L1_b2_sum_eltwise_top"
  eltwise_param {
    operation: SUM
  }
}
layer {
  name: "L1_b2_relu"
  type: "ReLU"
  bottom: "L1_b2_sum_eltwise_top"
  top: "L1_b2_sum_eltwise_top"
}
layer {
  name: "L1_b3_cbr1_conv"
  type: "Convolution"
  bottom: "L1_b2_sum_eltwise_top"
  top: "L1_b3_cbr1_conv_top"
  param {
    lr_mult: 1
    decay_mult: 1
  }
  param {
    lr_mult: 2
    decay_mult: 0
  }
  convolution_param {
    num_output: 16
    pad: 1
    kernel_size: 3
    stride: 1
    weight_filler {
      type: "msra"
    }
    bias_filler {
      type: "constant"
    }
  }
}
layer {
  name: "L1_b3_cbr1_bn"
  type: "BatchNorm"
  bottom: "L1_b3_cbr1_conv_top"
  top: "L1_b3_cbr1_bn_top"
  include {
    phase: TRAIN
  }
  batch_norm_param {
    use_global_stats: false
    moving_average_fraction: 0.95
  }
}
layer {
  name: "L1_b3_cbr1_scale"
  type: "Scale"
  bottom: "L1_b3_cbr1_bn_top"
  top: "L1_b3_cbr1_bn_top"
  scale_param {
    bias_term: true
  }
}
layer {
  name: "L1_b3_cbr1_relu"
  type: "ReLU"
  bottom: "L1_b3_cbr1_bn_top"
  top: "L1_b3_cbr1_bn_top"
}
layer {
  name: "L1_b3_cbr2_conv"
  type: "Convolution"
  bottom: "L1_b3_cbr1_bn_top"
  top: "L1_b3_cbr2_conv_top"
  param {
    lr_mult: 1
    decay_mult: 1
  }
  param {
    lr_mult: 2
    decay_mult: 0
  }
  convolution_param {
    num_output: 16
    pad: 1
    kernel_size: 3
    stride: 1
    weight_filler {
      type: "msra"
    }
    bias_filler {
      type: "constant"
    }
  }
}
layer {
  name: "L1_b3_cbr2_bn"
  type: "BatchNorm"
  bottom: "L1_b3_cbr2_conv_top"
  top: "L1_b3_cbr2_bn_top"
  include {
    phase: TRAIN
  }
  batch_norm_param {
    use_global_stats: false
    moving_average_fraction: 0.95
  }
}
layer {
  name: "L1_b3_cbr2_scale"
  type: "Scale"
  bottom: "L1_b3_cbr2_bn_top"
  top: "L1_b3_cbr2_bn_top"
  scale_param {
    bias_term: true
  }
}
layer {
  name: "L1_b3_sum_eltwise"
  type: "Eltwise"
  bottom: "L1_b3_cbr2_bn_top"
  bottom: "L1_b2_sum_eltwise_top"
  top: "L1_b3_sum_eltwise_top"
  eltwise_param {
    operation: SUM
  }
}
layer {
  name: "L1_b3_relu"
  type: "ReLU"
  bottom: "L1_b3_sum_eltwise_top"
  top: "L1_b3_sum_eltwise_top"
}
layer {
  name: "L1_b4_cbr1_conv"
  type: "Convolution"
  bottom: "L1_b3_sum_eltwise_top"
  top: "L1_b4_cbr1_conv_top"
  param {
    lr_mult: 1
    decay_mult: 1
  }
  param {
    lr_mult: 2
    decay_mult: 0
  }
  convolution_param {
    num_output: 16
    pad: 1
    kernel_size: 3
    stride: 1
    weight_filler {
      type: "msra"
    }
    bias_filler {
      type: "constant"
    }
  }
}
layer {
  name: "L1_b4_cbr1_bn"
  type: "BatchNorm"
  bottom: "L1_b4_cbr1_conv_top"
  top: "L1_b4_cbr1_bn_top"
  include {
    phase: TRAIN
  }
  batch_norm_param {
    use_global_stats: false
    moving_average_fraction: 0.95
  }
}
layer {
  name: "L1_b4_cbr1_scale"
  type: "Scale"
  bottom: "L1_b4_cbr1_bn_top"
  top: "L1_b4_cbr1_bn_top"
  scale_param {
    bias_term: true
  }
}
layer {
  name: "L1_b4_cbr1_relu"
  type: "ReLU"
  bottom: "L1_b4_cbr1_bn_top"
  top: "L1_b4_cbr1_bn_top"
}
layer {
  name: "L1_b4_cbr2_conv"
  type: "Convolution"
  bottom: "L1_b4_cbr1_bn_top"
  top: "L1_b4_cbr2_conv_top"
  param {
    lr_mult: 1
    decay_mult: 1
  }
  param {
    lr_mult: 2
    decay_mult: 0
  }
  convolution_param {
    num_output: 16
    pad: 1
    kernel_size: 3
    stride: 1
    weight_filler {
      type: "msra"
    }
    bias_filler {
      type: "constant"
    }
  }
}
layer {
  name: "L1_b4_cbr2_bn"
  type: "BatchNorm"
  bottom: "L1_b4_cbr2_conv_top"
  top: "L1_b4_cbr2_bn_top"
  include {
    phase: TRAIN
  }
  batch_norm_param {
    use_global_stats: false
    moving_average_fraction: 0.95
  }
}
layer {
  name: "L1_b4_cbr2_scale"
  type: "Scale"
  bottom: "L1_b4_cbr2_bn_top"
  top: "L1_b4_cbr2_bn_top"
  scale_param {
    bias_term: true
  }
}
layer {
  name: "L1_b4_sum_eltwise"
  type: "Eltwise"
  bottom: "L1_b4_cbr2_bn_top"
  bottom: "L1_b3_sum_eltwise_top"
  top: "L1_b4_sum_eltwise_top"
  eltwise_param {
    operation: SUM
  }
}
layer {
  name: "L1_b4_relu"
  type: "ReLU"
  bottom: "L1_b4_sum_eltwise_top"
  top: "L1_b4_sum_eltwise_top"
}
layer {
  name: "L1_b5_cbr1_conv"
  type: "Convolution"
  bottom: "L1_b4_sum_eltwise_top"
  top: "L1_b5_cbr1_conv_top"
  param {
    lr_mult: 1
    decay_mult: 1
  }
  param {
    lr_mult: 2
    decay_mult: 0
  }
  convolution_param {
    num_output: 16
    pad: 1
    kernel_size: 3
    stride: 1
    weight_filler {
      type: "msra"
    }
    bias_filler {
      type: "constant"
    }
  }
}
layer {
  name: "L1_b5_cbr1_bn"
  type: "BatchNorm"
  bottom: "L1_b5_cbr1_conv_top"
  top: "L1_b5_cbr1_bn_top"
  include {
    phase: TRAIN
  }
  batch_norm_param {
    use_global_stats: false
    moving_average_fraction: 0.95
  }
}
layer {
  name: "L1_b5_cbr1_scale"
  type: "Scale"
  bottom: "L1_b5_cbr1_bn_top"
  top: "L1_b5_cbr1_bn_top"
  scale_param {
    bias_term: true
  }
}
layer {
  name: "L1_b5_cbr1_relu"
  type: "ReLU"
  bottom: "L1_b5_cbr1_bn_top"
  top: "L1_b5_cbr1_bn_top"
}
layer {
  name: "L1_b5_cbr2_conv"
  type: "Convolution"
  bottom: "L1_b5_cbr1_bn_top"
  top: "L1_b5_cbr2_conv_top"
  param {
    lr_mult: 1
    decay_mult: 1
  }
  param {
    lr_mult: 2
    decay_mult: 0
  }
  convolution_param {
    num_output: 16
    pad: 1
    kernel_size: 3
    stride: 1
    weight_filler {
      type: "msra"
    }
    bias_filler {
      type: "constant"
    }
  }
}
layer {
  name: "L1_b5_cbr2_bn"
  type: "BatchNorm"
  bottom: "L1_b5_cbr2_conv_top"
  top: "L1_b5_cbr2_bn_top"
  include {
    phase: TRAIN
  }
  batch_norm_param {
    use_global_stats: false
    moving_average_fraction: 0.95
  }
}
layer {
  name: "L1_b5_cbr2_scale"
  type: "Scale"
  bottom: "L1_b5_cbr2_bn_top"
  top: "L1_b5_cbr2_bn_top"
  scale_param {
    bias_term: true
  }
}
layer {
  name: "L1_b5_sum_eltwise"
  type: "Eltwise"
  bottom: "L1_b5_cbr2_bn_top"
  bottom: "L1_b4_sum_eltwise_top"
  top: "L1_b5_sum_eltwise_top"
  eltwise_param {
    operation: SUM
  }
}
layer {
  name: "L1_b5_relu"
  type: "ReLU"
  bottom: "L1_b5_sum_eltwise_top"
  top: "L1_b5_sum_eltwise_top"
}
layer {
  name: "L1_b6_cbr1_conv"
  type: "Convolution"
  bottom: "L1_b5_sum_eltwise_top"
  top: "L1_b6_cbr1_conv_top"
  param {
    lr_mult: 1
    decay_mult: 1
  }
  param {
    lr_mult: 2
    decay_mult: 0
  }
  convolution_param {
    num_output: 16
    pad: 1
    kernel_size: 3
    stride: 1
    weight_filler {
      type: "msra"
    }
    bias_filler {
      type: "constant"
    }
  }
}
layer {
  name: "L1_b6_cbr1_bn"
  type: "BatchNorm"
  bottom: "L1_b6_cbr1_conv_top"
  top: "L1_b6_cbr1_bn_top"
  include {
    phase: TRAIN
  }
  batch_norm_param {
    use_global_stats: false
    moving_average_fraction: 0.95
  }
}
layer {
  name: "L1_b6_cbr1_scale"
  type: "Scale"
  bottom: "L1_b6_cbr1_bn_top"
  top: "L1_b6_cbr1_bn_top"
  scale_param {
    bias_term: true
  }
}
layer {
  name: "L1_b6_cbr1_relu"
  type: "ReLU"
  bottom: "L1_b6_cbr1_bn_top"
  top: "L1_b6_cbr1_bn_top"
}
layer {
  name: "L1_b6_cbr2_conv"
  type: "Convolution"
  bottom: "L1_b6_cbr1_bn_top"
  top: "L1_b6_cbr2_conv_top"
  param {
    lr_mult: 1
    decay_mult: 1
  }
  param {
    lr_mult: 2
    decay_mult: 0
  }
  convolution_param {
    num_output: 16
    pad: 1
    kernel_size: 3
    stride: 1
    weight_filler {
      type: "msra"
    }
    bias_filler {
      type: "constant"
    }
  }
}
layer {
  name: "L1_b6_cbr2_bn"
  type: "BatchNorm"
  bottom: "L1_b6_cbr2_conv_top"
  top: "L1_b6_cbr2_bn_top"
  include {
    phase: TRAIN
  }
  batch_norm_param {
    use_global_stats: false
    moving_average_fraction: 0.95
  }
}
layer {
  name: "L1_b6_cbr2_scale"
  type: "Scale"
  bottom: "L1_b6_cbr2_bn_top"
  top: "L1_b6_cbr2_bn_top"
  scale_param {
    bias_term: true
  }
}
layer {
  name: "L1_b6_sum_eltwise"
  type: "Eltwise"
  bottom: "L1_b6_cbr2_bn_top"
  bottom: "L1_b5_sum_eltwise_top"
  top: "L1_b6_sum_eltwise_top"
  eltwise_param {
    operation: SUM
  }
}
layer {
  name: "L1_b6_relu"
  type: "ReLU"
  bottom: "L1_b6_sum_eltwise_top"
  top: "L1_b6_sum_eltwise_top"
}
layer {
  name: "L1_b7_cbr1_conv"
  type: "Convolution"
  bottom: "L1_b6_sum_eltwise_top"
  top: "L1_b7_cbr1_conv_top"
  param {
    lr_mult: 1
    decay_mult: 1
  }
  param {
    lr_mult: 2
    decay_mult: 0
  }
  convolution_param {
    num_output: 16
    pad: 1
    kernel_size: 3
    stride: 1
    weight_filler {
      type: "msra"
    }
    bias_filler {
      type: "constant"
    }
  }
}
layer {
  name: "L1_b7_cbr1_bn"
  type: "BatchNorm"
  bottom: "L1_b7_cbr1_conv_top"
  top: "L1_b7_cbr1_bn_top"
  include {
    phase: TRAIN
  }
  batch_norm_param {
    use_global_stats: false
    moving_average_fraction: 0.95
  }
}
layer {
  name: "L1_b7_cbr1_scale"
  type: "Scale"
  bottom: "L1_b7_cbr1_bn_top"
  top: "L1_b7_cbr1_bn_top"
  scale_param {
    bias_term: true
  }
}
layer {
  name: "L1_b7_cbr1_relu"
  type: "ReLU"
  bottom: "L1_b7_cbr1_bn_top"
  top: "L1_b7_cbr1_bn_top"
}
layer {
  name: "L1_b7_cbr2_conv"
  type: "Convolution"
  bottom: "L1_b7_cbr1_bn_top"
  top: "L1_b7_cbr2_conv_top"
  param {
    lr_mult: 1
    decay_mult: 1
  }
  param {
    lr_mult: 2
    decay_mult: 0
  }
  convolution_param {
    num_output: 16
    pad: 1
    kernel_size: 3
    stride: 1
    weight_filler {
      type: "msra"
    }
    bias_filler {
      type: "constant"
    }
  }
}
layer {
  name: "L1_b7_cbr2_bn"
  type: "BatchNorm"
  bottom: "L1_b7_cbr2_conv_top"
  top: "L1_b7_cbr2_bn_top"
  include {
    phase: TRAIN
  }
  batch_norm_param {
    use_global_stats: false
    moving_average_fraction: 0.95
  }
}
layer {
  name: "L1_b7_cbr2_scale"
  type: "Scale"
  bottom: "L1_b7_cbr2_bn_top"
  top: "L1_b7_cbr2_bn_top"
  scale_param {
    bias_term: true
  }
}
layer {
  name: "L1_b7_sum_eltwise"
  type: "Eltwise"
  bottom: "L1_b7_cbr2_bn_top"
  bottom: "L1_b6_sum_eltwise_top"
  top: "L1_b7_sum_eltwise_top"
  eltwise_param {
    operation: SUM
  }
}
layer {
  name: "L1_b7_relu"
  type: "ReLU"
  bottom: "L1_b7_sum_eltwise_top"
  top: "L1_b7_sum_eltwise_top"
}
layer {
  name: "L1_b8_cbr1_conv"
  type: "Convolution"
  bottom: "L1_b7_sum_eltwise_top"
  top: "L1_b8_cbr1_conv_top"
  param {
    lr_mult: 1
    decay_mult: 1
  }
  param {
    lr_mult: 2
    decay_mult: 0
  }
  convolution_param {
    num_output: 16
    pad: 1
    kernel_size: 3
    stride: 1
    weight_filler {
      type: "msra"
    }
    bias_filler {
      type: "constant"
    }
  }
}
layer {
  name: "L1_b8_cbr1_bn"
  type: "BatchNorm"
  bottom: "L1_b8_cbr1_conv_top"
  top: "L1_b8_cbr1_bn_top"
  include {
    phase: TRAIN
  }
  batch_norm_param {
    use_global_stats: false
    moving_average_fraction: 0.95
  }
}
layer {
  name: "L1_b8_cbr1_scale"
  type: "Scale"
  bottom: "L1_b8_cbr1_bn_top"
  top: "L1_b8_cbr1_bn_top"
  scale_param {
    bias_term: true
  }
}
layer {
  name: "L1_b8_cbr1_relu"
  type: "ReLU"
  bottom: "L1_b8_cbr1_bn_top"
  top: "L1_b8_cbr1_bn_top"
}
layer {
  name: "L1_b8_cbr2_conv"
  type: "Convolution"
  bottom: "L1_b8_cbr1_bn_top"
  top: "L1_b8_cbr2_conv_top"
  param {
    lr_mult: 1
    decay_mult: 1
  }
  param {
    lr_mult: 2
    decay_mult: 0
  }
  convolution_param {
    num_output: 16
    pad: 1
    kernel_size: 3
    stride: 1
    weight_filler {
      type: "msra"
    }
    bias_filler {
      type: "constant"
    }
  }
}
layer {
  name: "L1_b8_cbr2_bn"
  type: "BatchNorm"
  bottom: "L1_b8_cbr2_conv_top"
  top: "L1_b8_cbr2_bn_top"
  include {
    phase: TRAIN
  }
  batch_norm_param {
    use_global_stats: false
    moving_average_fraction: 0.95
  }
}
layer {
  name: "L1_b8_cbr2_scale"
  type: "Scale"
  bottom: "L1_b8_cbr2_bn_top"
  top: "L1_b8_cbr2_bn_top"
  scale_param {
    bias_term: true
  }
}
layer {
  name: "L1_b8_sum_eltwise"
  type: "Eltwise"
  bottom: "L1_b8_cbr2_bn_top"
  bottom: "L1_b7_sum_eltwise_top"
  top: "L1_b8_sum_eltwise_top"
  eltwise_param {
    operation: SUM
  }
}
layer {
  name: "L1_b8_relu"
  type: "ReLU"
  bottom: "L1_b8_sum_eltwise_top"
  top: "L1_b8_sum_eltwise_top"
}
layer {
  name: "L1_b9_cbr1_conv"
  type: "Convolution"
  bottom: "L1_b8_sum_eltwise_top"
  top: "L1_b9_cbr1_conv_top"
  param {
    lr_mult: 1
    decay_mult: 1
  }
  param {
    lr_mult: 2
    decay_mult: 0
  }
  convolution_param {
    num_output: 16
    pad: 1
    kernel_size: 3
    stride: 1
    weight_filler {
      type: "msra"
    }
    bias_filler {
      type: "constant"
    }
  }
}
layer {
  name: "L1_b9_cbr1_bn"
  type: "BatchNorm"
  bottom: "L1_b9_cbr1_conv_top"
  top: "L1_b9_cbr1_bn_top"
  include {
    phase: TRAIN
  }
  batch_norm_param {
    use_global_stats: false
    moving_average_fraction: 0.95
  }
}
layer {
  name: "L1_b9_cbr1_scale"
  type: "Scale"
  bottom: "L1_b9_cbr1_bn_top"
  top: "L1_b9_cbr1_bn_top"
  scale_param {
    bias_term: true
  }
}
layer {
  name: "L1_b9_cbr1_relu"
  type: "ReLU"
  bottom: "L1_b9_cbr1_bn_top"
  top: "L1_b9_cbr1_bn_top"
}
layer {
  name: "L1_b9_cbr2_conv"
  type: "Convolution"
  bottom: "L1_b9_cbr1_bn_top"
  top: "L1_b9_cbr2_conv_top"
  param {
    lr_mult: 1
    decay_mult: 1
  }
  param {
    lr_mult: 2
    decay_mult: 0
  }
  convolution_param {
    num_output: 16
    pad: 1
    kernel_size: 3
    stride: 1
    weight_filler {
      type: "msra"
    }
    bias_filler {
      type: "constant"
    }
  }
}
layer {
  name: "L1_b9_cbr2_bn"
  type: "BatchNorm"
  bottom: "L1_b9_cbr2_conv_top"
  top: "L1_b9_cbr2_bn_top"
  include {
    phase: TRAIN
  }
  batch_norm_param {
    use_global_stats: false
    moving_average_fraction: 0.95
  }
}
layer {
  name: "L1_b9_cbr2_scale"
  type: "Scale"
  bottom: "L1_b9_cbr2_bn_top"
  top: "L1_b9_cbr2_bn_top"
  scale_param {
    bias_term: true
  }
}
layer {
  name: "L1_b9_sum_eltwise"
  type: "Eltwise"
  bottom: "L1_b9_cbr2_bn_top"
  bottom: "L1_b8_sum_eltwise_top"
  top: "L1_b9_sum_eltwise_top"
  eltwise_param {
    operation: SUM
  }
}
layer {
  name: "L1_b9_relu"
  type: "ReLU"
  bottom: "L1_b9_sum_eltwise_top"
  top: "L1_b9_sum_eltwise_top"
}
layer {
  name: "L2_b1_cbr1_conv"
  type: "Convolution"
  bottom: "L1_b9_sum_eltwise_top"
  top: "L2_b1_cbr1_conv_top"
  param {
    lr_mult: 1
    decay_mult: 1
  }
  param {
    lr_mult: 2
    decay_mult: 0
  }
  convolution_param {
    num_output: 16
    pad: 1
    kernel_size: 3
    stride: 2
    weight_filler {
      type: "msra"
    }
    bias_filler {
      type: "constant"
    }
  }
}
layer {
  name: "L2_b1_cbr1_bn"
  type: "BatchNorm"
  bottom: "L2_b1_cbr1_conv_top"
  top: "L2_b1_cbr1_bn_top"
  include {
    phase: TRAIN
  }
  batch_norm_param {
    use_global_stats: false
    moving_average_fraction: 0.95
  }
}
layer {
  name: "L2_b1_cbr1_scale"
  type: "Scale"
  bottom: "L2_b1_cbr1_bn_top"
  top: "L2_b1_cbr1_bn_top"
  scale_param {
    bias_term: true
  }
}
layer {
  name: "L2_b1_cbr1_relu"
  type: "ReLU"
  bottom: "L2_b1_cbr1_bn_top"
  top: "L2_b1_cbr1_bn_top"
}
layer {
  name: "L2_b1_cbr2_conv"
  type: "Convolution"
  bottom: "L2_b1_cbr1_bn_top"
  top: "L2_b1_cbr2_conv_top"
  param {
    lr_mult: 1
    decay_mult: 1
  }
  param {
    lr_mult: 2
    decay_mult: 0
  }
  convolution_param {
    num_output: 16
    pad: 1
    kernel_size: 3
    stride: 1
    weight_filler {
      type: "msra"
    }
    bias_filler {
      type: "constant"
    }
  }
}
layer {
  name: "L2_b1_cbr2_bn"
  type: "BatchNorm"
  bottom: "L2_b1_cbr2_conv_top"
  top: "L2_b1_cbr2_bn_top"
  include {
    phase: TRAIN
  }
  batch_norm_param {
    use_global_stats: false
    moving_average_fraction: 0.95
  }
}
layer {
  name: "L2_b1_cbr2_scale"
  type: "Scale"
  bottom: "L2_b1_cbr2_bn_top"
  top: "L2_b1_cbr2_bn_top"
  scale_param {
    bias_term: true
  }
}
layer {
  name: "L2_b1_pool"
  type: "Pooling"
  bottom: "L1_b9_sum_eltwise_top"
  top: "L2_b1_pool"
  pooling_param {
    pool: AVE
    kernel_size: 3
    stride: 2
  }
}
layer {
  name: "L2_b1_sum_eltwise"
  type: "Eltwise"
  bottom: "L2_b1_cbr2_bn_top"
  bottom: "L2_b1_pool"
  top: "L2_b1_sum_eltwise_top"
  eltwise_param {
    operation: SUM
  }
}
layer {
  name: "L2_b1_relu"
  type: "ReLU"
  bottom: "L2_b1_sum_eltwise_top"
  top: "L2_b1_sum_eltwise_top"
}
layer {
  name: "L2_b1_zeros"
  type: "DummyData"
  top: "L2_b1_zeros"
  dummy_data_param {
    data_filler {
      type: "constant"
      value: 0
    }
    shape {
      dim: 125
      dim: 16
      dim: 16
      dim: 16
    }
  }
}
layer {
  name: "L2_b1_concat0"
  type: "Concat"
  bottom: "L2_b1_sum_eltwise_top"
  bottom: "L2_b1_zeros"
  top: "L2_b1_concat0"
  concat_param {
    axis: 1
  }
}
layer {
  name: "L2_b2_cbr1_conv"
  type: "Convolution"
  bottom: "L2_b1_concat0"
  top: "L2_b2_cbr1_conv_top"
  param {
    lr_mult: 1
    decay_mult: 1
  }
  param {
    lr_mult: 2
    decay_mult: 0
  }
  convolution_param {
    num_output: 32
    pad: 1
    kernel_size: 3
    stride: 1
    weight_filler {
      type: "msra"
    }
    bias_filler {
      type: "constant"
    }
  }
}
layer {
  name: "L2_b2_cbr1_bn"
  type: "BatchNorm"
  bottom: "L2_b2_cbr1_conv_top"
  top: "L2_b2_cbr1_bn_top"
  include {
    phase: TRAIN
  }
  batch_norm_param {
    use_global_stats: false
    moving_average_fraction: 0.95
  }
}
layer {
  name: "L2_b2_cbr1_scale"
  type: "Scale"
  bottom: "L2_b2_cbr1_bn_top"
  top: "L2_b2_cbr1_bn_top"
  scale_param {
    bias_term: true
  }
}
layer {
  name: "L2_b2_cbr1_relu"
  type: "ReLU"
  bottom: "L2_b2_cbr1_bn_top"
  top: "L2_b2_cbr1_bn_top"
}
layer {
  name: "L2_b2_cbr2_conv"
  type: "Convolution"
  bottom: "L2_b2_cbr1_bn_top"
  top: "L2_b2_cbr2_conv_top"
  param {
    lr_mult: 1
    decay_mult: 1
  }
  param {
    lr_mult: 2
    decay_mult: 0
  }
  convolution_param {
    num_output: 32
    pad: 1
    kernel_size: 3
    stride: 1
    weight_filler {
      type: "msra"
    }
    bias_filler {
      type: "constant"
    }
  }
}
layer {
  name: "L2_b2_cbr2_bn"
  type: "BatchNorm"
  bottom: "L2_b2_cbr2_conv_top"
  top: "L2_b2_cbr2_bn_top"
  include {
    phase: TRAIN
  }
  batch_norm_param {
    use_global_stats: false
    moving_average_fraction: 0.95
  }
}
layer {
  name: "L2_b2_cbr2_scale"
  type: "Scale"
  bottom: "L2_b2_cbr2_bn_top"
  top: "L2_b2_cbr2_bn_top"
  scale_param {
    bias_term: true
  }
}
layer {
  name: "L2_b2_sum_eltwise"
  type: "Eltwise"
  bottom: "L2_b2_cbr2_bn_top"
  bottom: "L2_b1_concat0"
  top: "L2_b2_sum_eltwise_top"
  eltwise_param {
    operation: SUM
  }
}
layer {
  name: "L2_b2_relu"
  type: "ReLU"
  bottom: "L2_b2_sum_eltwise_top"
  top: "L2_b2_sum_eltwise_top"
}
layer {
  name: "L2_b3_cbr1_conv"
  type: "Convolution"
  bottom: "L2_b2_sum_eltwise_top"
  top: "L2_b3_cbr1_conv_top"
  param {
    lr_mult: 1
    decay_mult: 1
  }
  param {
    lr_mult: 2
    decay_mult: 0
  }
  convolution_param {
    num_output: 32
    pad: 1
    kernel_size: 3
    stride: 1
    weight_filler {
      type: "msra"
    }
    bias_filler {
      type: "constant"
    }
  }
}
layer {
  name: "L2_b3_cbr1_bn"
  type: "BatchNorm"
  bottom: "L2_b3_cbr1_conv_top"
  top: "L2_b3_cbr1_bn_top"
  include {
    phase: TRAIN
  }
  batch_norm_param {
    use_global_stats: false
    moving_average_fraction: 0.95
  }
}
layer {
  name: "L2_b3_cbr1_scale"
  type: "Scale"
  bottom: "L2_b3_cbr1_bn_top"
  top: "L2_b3_cbr1_bn_top"
  scale_param {
    bias_term: true
  }
}
layer {
  name: "L2_b3_cbr1_relu"
  type: "ReLU"
  bottom: "L2_b3_cbr1_bn_top"
  top: "L2_b3_cbr1_bn_top"
}
layer {
  name: "L2_b3_cbr2_conv"
  type: "Convolution"
  bottom: "L2_b3_cbr1_bn_top"
  top: "L2_b3_cbr2_conv_top"
  param {
    lr_mult: 1
    decay_mult: 1
  }
  param {
    lr_mult: 2
    decay_mult: 0
  }
  convolution_param {
    num_output: 32
    pad: 1
    kernel_size: 3
    stride: 1
    weight_filler {
      type: "msra"
    }
    bias_filler {
      type: "constant"
    }
  }
}
layer {
  name: "L2_b3_cbr2_bn"
  type: "BatchNorm"
  bottom: "L2_b3_cbr2_conv_top"
  top: "L2_b3_cbr2_bn_top"
  include {
    phase: TRAIN
  }
  batch_norm_param {
    use_global_stats: false
    moving_average_fraction: 0.95
  }
}
layer {
  name: "L2_b3_cbr2_scale"
  type: "Scale"
  bottom: "L2_b3_cbr2_bn_top"
  top: "L2_b3_cbr2_bn_top"
  scale_param {
    bias_term: true
  }
}
layer {
  name: "L2_b3_sum_eltwise"
  type: "Eltwise"
  bottom: "L2_b3_cbr2_bn_top"
  bottom: "L2_b2_sum_eltwise_top"
  top: "L2_b3_sum_eltwise_top"
  eltwise_param {
    operation: SUM
  }
}
layer {
  name: "L2_b3_relu"
  type: "ReLU"
  bottom: "L2_b3_sum_eltwise_top"
  top: "L2_b3_sum_eltwise_top"
}
layer {
  name: "L2_b4_cbr1_conv"
  type: "Convolution"
  bottom: "L2_b3_sum_eltwise_top"
  top: "L2_b4_cbr1_conv_top"
  param {
    lr_mult: 1
    decay_mult: 1
  }
  param {
    lr_mult: 2
    decay_mult: 0
  }
  convolution_param {
    num_output: 32
    pad: 1
    kernel_size: 3
    stride: 1
    weight_filler {
      type: "msra"
    }
    bias_filler {
      type: "constant"
    }
  }
}
layer {
  name: "L2_b4_cbr1_bn"
  type: "BatchNorm"
  bottom: "L2_b4_cbr1_conv_top"
  top: "L2_b4_cbr1_bn_top"
  include {
    phase: TRAIN
  }
  batch_norm_param {
    use_global_stats: false
    moving_average_fraction: 0.95
  }
}
layer {
  name: "L2_b4_cbr1_scale"
  type: "Scale"
  bottom: "L2_b4_cbr1_bn_top"
  top: "L2_b4_cbr1_bn_top"
  scale_param {
    bias_term: true
  }
}
layer {
  name: "L2_b4_cbr1_relu"
  type: "ReLU"
  bottom: "L2_b4_cbr1_bn_top"
  top: "L2_b4_cbr1_bn_top"
}
layer {
  name: "L2_b4_cbr2_conv"
  type: "Convolution"
  bottom: "L2_b4_cbr1_bn_top"
  top: "L2_b4_cbr2_conv_top"
  param {
    lr_mult: 1
    decay_mult: 1
  }
  param {
    lr_mult: 2
    decay_mult: 0
  }
  convolution_param {
    num_output: 32
    pad: 1
    kernel_size: 3
    stride: 1
    weight_filler {
      type: "msra"
    }
    bias_filler {
      type: "constant"
    }
  }
}
layer {
  name: "L2_b4_cbr2_bn"
  type: "BatchNorm"
  bottom: "L2_b4_cbr2_conv_top"
  top: "L2_b4_cbr2_bn_top"
  include {
    phase: TRAIN
  }
  batch_norm_param {
    use_global_stats: false
    moving_average_fraction: 0.95
  }
}
layer {
  name: "L2_b4_cbr2_scale"
  type: "Scale"
  bottom: "L2_b4_cbr2_bn_top"
  top: "L2_b4_cbr2_bn_top"
  scale_param {
    bias_term: true
  }
}
layer {
  name: "L2_b4_sum_eltwise"
  type: "Eltwise"
  bottom: "L2_b4_cbr2_bn_top"
  bottom: "L2_b3_sum_eltwise_top"
  top: "L2_b4_sum_eltwise_top"
  eltwise_param {
    operation: SUM
  }
}
layer {
  name: "L2_b4_relu"
  type: "ReLU"
  bottom: "L2_b4_sum_eltwise_top"
  top: "L2_b4_sum_eltwise_top"
}
layer {
  name: "L2_b5_cbr1_conv"
  type: "Convolution"
  bottom: "L2_b4_sum_eltwise_top"
  top: "L2_b5_cbr1_conv_top"
  param {
    lr_mult: 1
    decay_mult: 1
  }
  param {
    lr_mult: 2
    decay_mult: 0
  }
  convolution_param {
    num_output: 32
    pad: 1
    kernel_size: 3
    stride: 1
    weight_filler {
      type: "msra"
    }
    bias_filler {
      type: "constant"
    }
  }
}
layer {
  name: "L2_b5_cbr1_bn"
  type: "BatchNorm"
  bottom: "L2_b5_cbr1_conv_top"
  top: "L2_b5_cbr1_bn_top"
  include {
    phase: TRAIN
  }
  batch_norm_param {
    use_global_stats: false
    moving_average_fraction: 0.95
  }
}
layer {
  name: "L2_b5_cbr1_scale"
  type: "Scale"
  bottom: "L2_b5_cbr1_bn_top"
  top: "L2_b5_cbr1_bn_top"
  scale_param {
    bias_term: true
  }
}
layer {
  name: "L2_b5_cbr1_relu"
  type: "ReLU"
  bottom: "L2_b5_cbr1_bn_top"
  top: "L2_b5_cbr1_bn_top"
}
layer {
  name: "L2_b5_cbr2_conv"
  type: "Convolution"
  bottom: "L2_b5_cbr1_bn_top"
  top: "L2_b5_cbr2_conv_top"
  param {
    lr_mult: 1
    decay_mult: 1
  }
  param {
    lr_mult: 2
    decay_mult: 0
  }
  convolution_param {
    num_output: 32
    pad: 1
    kernel_size: 3
    stride: 1
    weight_filler {
      type: "msra"
    }
    bias_filler {
      type: "constant"
    }
  }
}
layer {
  name: "L2_b5_cbr2_bn"
  type: "BatchNorm"
  bottom: "L2_b5_cbr2_conv_top"
  top: "L2_b5_cbr2_bn_top"
  include {
    phase: TRAIN
  }
  batch_norm_param {
    use_global_stats: false
    moving_average_fraction: 0.95
  }
}
layer {
  name: "L2_b5_cbr2_scale"
  type: "Scale"
  bottom: "L2_b5_cbr2_bn_top"
  top: "L2_b5_cbr2_bn_top"
  scale_param {
    bias_term: true
  }
}
layer {
  name: "L2_b5_sum_eltwise"
  type: "Eltwise"
  bottom: "L2_b5_cbr2_bn_top"
  bottom: "L2_b4_sum_eltwise_top"
  top: "L2_b5_sum_eltwise_top"
  eltwise_param {
    operation: SUM
  }
}
layer {
  name: "L2_b5_relu"
  type: "ReLU"
  bottom: "L2_b5_sum_eltwise_top"
  top: "L2_b5_sum_eltwise_top"
}
layer {
  name: "L2_b6_cbr1_conv"
  type: "Convolution"
  bottom: "L2_b5_sum_eltwise_top"
  top: "L2_b6_cbr1_conv_top"
  param {
    lr_mult: 1
    decay_mult: 1
  }
  param {
    lr_mult: 2
    decay_mult: 0
  }
  convolution_param {
    num_output: 32
    pad: 1
    kernel_size: 3
    stride: 1
    weight_filler {
      type: "msra"
    }
    bias_filler {
      type: "constant"
    }
  }
}
layer {
  name: "L2_b6_cbr1_bn"
  type: "BatchNorm"
  bottom: "L2_b6_cbr1_conv_top"
  top: "L2_b6_cbr1_bn_top"
  include {
    phase: TRAIN
  }
  batch_norm_param {
    use_global_stats: false
    moving_average_fraction: 0.95
  }
}
layer {
  name: "L2_b6_c
I1212 06:18:16.544476 12086 layer_factory.hpp:77] Creating layer dataLayer
I1212 06:18:16.545667 12086 net.cpp:100] Creating Layer dataLayer
I1212 06:18:16.545703 12086 net.cpp:408] dataLayer -> data_top
I1212 06:18:16.545948 12086 net.cpp:408] dataLayer -> label
I1212 06:18:16.546059 12086 data_transformer.cpp:25] Loading mean file from: examples/cifar10/mean.binaryproto
I1212 06:18:16.590628 12092 db_lmdb.cpp:35] Opened lmdb examples/cifar10/cifar10_train_lmdb
I1212 06:18:16.641525 12086 data_layer.cpp:41] output data size: 125,3,32,32
I1212 06:18:16.648874 12086 net.cpp:150] Setting up dataLayer
I1212 06:18:16.648959 12086 net.cpp:157] Top shape: 125 3 32 32 (384000)
I1212 06:18:16.648982 12086 net.cpp:157] Top shape: 125 (125)
I1212 06:18:16.648993 12086 net.cpp:165] Memory required for data: 1536500
I1212 06:18:16.649019 12086 layer_factory.hpp:77] Creating layer label_dataLayer_1_split
I1212 06:18:16.649044 12086 net.cpp:100] Creating Layer label_dataLayer_1_split
I1212 06:18:16.649060 12086 net.cpp:434] label_dataLayer_1_split <- label
I1212 06:18:16.649106 12086 net.cpp:408] label_dataLayer_1_split -> label_dataLayer_1_split_0
I1212 06:18:16.649135 12086 net.cpp:408] label_dataLayer_1_split -> label_dataLayer_1_split_1
I1212 06:18:16.649236 12086 net.cpp:150] Setting up label_dataLayer_1_split
I1212 06:18:16.649263 12086 net.cpp:157] Top shape: 125 (125)
I1212 06:18:16.649278 12086 net.cpp:157] Top shape: 125 (125)
I1212 06:18:16.649288 12086 net.cpp:165] Memory required for data: 1537500
I1212 06:18:16.649299 12086 layer_factory.hpp:77] Creating layer pre_conv
I1212 06:18:16.649339 12086 net.cpp:100] Creating Layer pre_conv
I1212 06:18:16.649353 12086 net.cpp:434] pre_conv <- data_top
I1212 06:18:16.649372 12086 net.cpp:408] pre_conv -> pre_conv_top
I1212 06:18:16.651046 12086 net.cpp:150] Setting up pre_conv
I1212 06:18:16.651077 12086 net.cpp:157] Top shape: 125 16 32 32 (2048000)
I1212 06:18:16.651088 12086 net.cpp:165] Memory required for data: 9729500
I1212 06:18:16.651245 12086 layer_factory.hpp:77] Creating layer pre_bn
I1212 06:18:16.651345 12086 net.cpp:100] Creating Layer pre_bn
I1212 06:18:16.651360 12086 net.cpp:434] pre_bn <- pre_conv_top
I1212 06:18:16.651377 12086 net.cpp:408] pre_bn -> pre_bn_top
I1212 06:18:16.651742 12086 net.cpp:150] Setting up pre_bn
I1212 06:18:16.651762 12086 net.cpp:157] Top shape: 125 16 32 32 (2048000)
I1212 06:18:16.651772 12086 net.cpp:165] Memory required for data: 17921500
I1212 06:18:16.651803 12086 layer_factory.hpp:77] Creating layer pre_scale
I1212 06:18:16.651882 12086 net.cpp:100] Creating Layer pre_scale
I1212 06:18:16.651898 12086 net.cpp:434] pre_scale <- pre_bn_top
I1212 06:18:16.651918 12086 net.cpp:395] pre_scale -> pre_bn_top (in-place)
I1212 06:18:16.652289 12086 layer_factory.hpp:77] Creating layer pre_scale
I1212 06:18:16.654081 12086 net.cpp:150] Setting up pre_scale
I1212 06:18:16.654103 12086 net.cpp:157] Top shape: 125 16 32 32 (2048000)
I1212 06:18:16.654114 12086 net.cpp:165] Memory required for data: 26113500
I1212 06:18:16.654134 12086 layer_factory.hpp:77] Creating layer pre_relu
I1212 06:18:16.654204 12086 net.cpp:100] Creating Layer pre_relu
I1212 06:18:16.654220 12086 net.cpp:434] pre_relu <- pre_bn_top
I1212 06:18:16.654235 12086 net.cpp:395] pre_relu -> pre_bn_top (in-place)
I1212 06:18:16.654255 12086 net.cpp:150] Setting up pre_relu
I1212 06:18:16.654271 12086 net.cpp:157] Top shape: 125 16 32 32 (2048000)
I1212 06:18:16.654281 12086 net.cpp:165] Memory required for data: 34305500
I1212 06:18:16.654291 12086 layer_factory.hpp:77] Creating layer pre_bn_top_pre_relu_0_split
I1212 06:18:16.654311 12086 net.cpp:100] Creating Layer pre_bn_top_pre_relu_0_split
I1212 06:18:16.654322 12086 net.cpp:434] pre_bn_top_pre_relu_0_split <- pre_bn_top
I1212 06:18:16.654341 12086 net.cpp:408] pre_bn_top_pre_relu_0_split -> pre_bn_top_pre_relu_0_split_0
I1212 06:18:16.654363 12086 net.cpp:408] pre_bn_top_pre_relu_0_split -> pre_bn_top_pre_relu_0_split_1
I1212 06:18:16.654444 12086 net.cpp:150] Setting up pre_bn_top_pre_relu_0_split
I1212 06:18:16.654466 12086 net.cpp:157] Top shape: 125 16 32 32 (2048000)
I1212 06:18:16.654479 12086 net.cpp:157] Top shape: 125 16 32 32 (2048000)
I1212 06:18:16.654490 12086 net.cpp:165] Memory required for data: 50689500
I1212 06:18:16.654501 12086 layer_factory.hpp:77] Creating layer L1_b1_cbr1_conv
I1212 06:18:16.654521 12086 net.cpp:100] Creating Layer L1_b1_cbr1_conv
I1212 06:18:16.654534 12086 net.cpp:434] L1_b1_cbr1_conv <- pre_bn_top_pre_relu_0_split_0
I1212 06:18:16.654556 12086 net.cpp:408] L1_b1_cbr1_conv -> L1_b1_cbr1_conv_top
I1212 06:18:16.654914 12086 net.cpp:150] Setting up L1_b1_cbr1_conv
I1212 06:18:16.654934 12086 net.cpp:157] Top shape: 125 16 32 32 (2048000)
I1212 06:18:16.654944 12086 net.cpp:165] Memory required for data: 58881500
I1212 06:18:16.654968 12086 layer_factory.hpp:77] Creating layer L1_b1_cbr1_bn
I1212 06:18:16.654994 12086 net.cpp:100] Creating Layer L1_b1_cbr1_bn
I1212 06:18:16.655006 12086 net.cpp:434] L1_b1_cbr1_bn <- L1_b1_cbr1_conv_top
I1212 06:18:16.655022 12086 net.cpp:408] L1_b1_cbr1_bn -> L1_b1_cbr1_bn_top
I1212 06:18:16.655300 12086 net.cpp:150] Setting up L1_b1_cbr1_bn
I1212 06:18:16.655330 12086 net.cpp:157] Top shape: 125 16 32 32 (2048000)
I1212 06:18:16.655340 12086 net.cpp:165] Memory required for data: 67073500
I1212 06:18:16.655362 12086 layer_factory.hpp:77] Creating layer L1_b1_cbr1_scale
I1212 06:18:16.655380 12086 net.cpp:100] Creating Layer L1_b1_cbr1_scale
I1212 06:18:16.655391 12086 net.cpp:434] L1_b1_cbr1_scale <- L1_b1_cbr1_bn_top
I1212 06:18:16.655407 12086 net.cpp:395] L1_b1_cbr1_scale -> L1_b1_cbr1_bn_top (in-place)
I1212 06:18:16.655493 12086 layer_factory.hpp:77] Creating layer L1_b1_cbr1_scale
I1212 06:18:16.655666 12086 net.cpp:150] Setting up L1_b1_cbr1_scale
I1212 06:18:16.655685 12086 net.cpp:157] Top shape: 125 16 32 32 (2048000)
I1212 06:18:16.655695 12086 net.cpp:165] Memory required for data: 75265500
I1212 06:18:16.655714 12086 layer_factory.hpp:77] Creating layer L1_b1_cbr1_relu
I1212 06:18:16.655735 12086 net.cpp:100] Creating Layer L1_b1_cbr1_relu
I1212 06:18:16.655752 12086 net.cpp:434] L1_b1_cbr1_relu <- L1_b1_cbr1_bn_top
I1212 06:18:16.655768 12086 net.cpp:395] L1_b1_cbr1_relu -> L1_b1_cbr1_bn_top (in-place)
I1212 06:18:16.655787 12086 net.cpp:150] Setting up L1_b1_cbr1_relu
I1212 06:18:16.655802 12086 net.cpp:157] Top shape: 125 16 32 32 (2048000)
I1212 06:18:16.655812 12086 net.cpp:165] Memory required for data: 83457500
I1212 06:18:16.655822 12086 layer_factory.hpp:77] Creating layer L1_b1_cbr2_conv
I1212 06:18:16.655851 12086 net.cpp:100] Creating Layer L1_b1_cbr2_conv
I1212 06:18:16.655864 12086 net.cpp:434] L1_b1_cbr2_conv <- L1_b1_cbr1_bn_top
I1212 06:18:16.655886 12086 net.cpp:408] L1_b1_cbr2_conv -> L1_b1_cbr2_conv_top
I1212 06:18:16.656239 12086 net.cpp:150] Setting up L1_b1_cbr2_conv
I1212 06:18:16.656265 12086 net.cpp:157] Top shape: 125 16 32 32 (2048000)
I1212 06:18:16.656275 12086 net.cpp:165] Memory required for data: 91649500
I1212 06:18:16.656292 12086 layer_factory.hpp:77] Creating layer L1_b1_cbr2_bn
I1212 06:18:16.656311 12086 net.cpp:100] Creating Layer L1_b1_cbr2_bn
I1212 06:18:16.656322 12086 net.cpp:434] L1_b1_cbr2_bn <- L1_b1_cbr2_conv_top
I1212 06:18:16.656342 12086 net.cpp:408] L1_b1_cbr2_bn -> L1_b1_cbr2_bn_top
I1212 06:18:16.656616 12086 net.cpp:150] Setting up L1_b1_cbr2_bn
I1212 06:18:16.656635 12086 net.cpp:157] Top shape: 125 16 32 32 (2048000)
I1212 06:18:16.656644 12086 net.cpp:165] Memory required for data: 99841500
I1212 06:18:16.656677 12086 layer_factory.hpp:77] Creating layer L1_b1_cbr2_scale
I1212 06:18:16.656694 12086 net.cpp:100] Creating Layer L1_b1_cbr2_scale
I1212 06:18:16.656707 12086 net.cpp:434] L1_b1_cbr2_scale <- L1_b1_cbr2_bn_top
I1212 06:18:16.656723 12086 net.cpp:395] L1_b1_cbr2_scale -> L1_b1_cbr2_bn_top (in-place)
I1212 06:18:16.656808 12086 layer_factory.hpp:77] Creating layer L1_b1_cbr2_scale
I1212 06:18:16.656987 12086 net.cpp:150] Setting up L1_b1_cbr2_scale
I1212 06:18:16.657006 12086 net.cpp:157] Top shape: 125 16 32 32 (2048000)
I1212 06:18:16.657016 12086 net.cpp:165] Memory required for data: 108033500
I1212 06:18:16.657035 12086 layer_factory.hpp:77] Creating layer L1_b1_sum_eltwise
I1212 06:18:16.657060 12086 net.cpp:100] Creating Layer L1_b1_sum_eltwise
I1212 06:18:16.657079 12086 net.cpp:434] L1_b1_sum_eltwise <- L1_b1_cbr2_bn_top
I1212 06:18:16.657094 12086 net.cpp:434] L1_b1_sum_eltwise <- pre_bn_top_pre_relu_0_split_1
I1212 06:18:16.657122 12086 net.cpp:408] L1_b1_sum_eltwise -> L1_b1_sum_eltwise_top
I1212 06:18:16.657225 12086 net.cpp:150] Setting up L1_b1_sum_eltwise
I1212 06:18:16.657245 12086 net.cpp:157] Top shape: 125 16 32 32 (2048000)
I1212 06:18:16.657255 12086 net.cpp:165] Memory required for data: 116225500
I1212 06:18:16.657266 12086 layer_factory.hpp:77] Creating layer L1_b1_relu
I1212 06:18:16.657287 12086 net.cpp:100] Creating Layer L1_b1_relu
I1212 06:18:16.657299 12086 net.cpp:434] L1_b1_relu <- L1_b1_sum_eltwise_top
I1212 06:18:16.657313 12086 net.cpp:395] L1_b1_relu -> L1_b1_sum_eltwise_top (in-place)
I1212 06:18:16.657333 12086 net.cpp:150] Setting up L1_b1_relu
I1212 06:18:16.657348 12086 net.cpp:157] Top shape: 125 16 32 32 (2048000)
I1212 06:18:16.657358 12086 net.cpp:165] Memory required for data: 124417500
I1212 06:18:16.657368 12086 layer_factory.hpp:77] Creating layer L1_b1_sum_eltwise_top_L1_b1_relu_0_split
I1212 06:18:16.657385 12086 net.cpp:100] Creating Layer L1_b1_sum_eltwise_top_L1_b1_relu_0_split
I1212 06:18:16.657397 12086 net.cpp:434] L1_b1_sum_eltwise_top_L1_b1_relu_0_split <- L1_b1_sum_eltwise_top
I1212 06:18:16.657411 12086 net.cpp:408] L1_b1_sum_eltwise_top_L1_b1_relu_0_split -> L1_b1_sum_eltwise_top_L1_b1_relu_0_split_0
I1212 06:18:16.657430 12086 net.cpp:408] L1_b1_sum_eltwise_top_L1_b1_relu_0_split -> L1_b1_sum_eltwise_top_L1_b1_relu_0_split_1
I1212 06:18:16.657508 12086 net.cpp:150] Setting up L1_b1_sum_eltwise_top_L1_b1_relu_0_split
I1212 06:18:16.657529 12086 net.cpp:157] Top shape: 125 16 32 32 (2048000)
I1212 06:18:16.657542 12086 net.cpp:157] Top shape: 125 16 32 32 (2048000)
I1212 06:18:16.657552 12086 net.cpp:165] Memory required for data: 140801500
I1212 06:18:16.657572 12086 layer_factory.hpp:77] Creating layer L1_b2_cbr1_conv
I1212 06:18:16.657598 12086 net.cpp:100] Creating Layer L1_b2_cbr1_conv
I1212 06:18:16.657613 12086 net.cpp:434] L1_b2_cbr1_conv <- L1_b1_sum_eltwise_top_L1_b1_relu_0_split_0
I1212 06:18:16.657631 12086 net.cpp:408] L1_b2_cbr1_conv -> L1_b2_cbr1_conv_top
I1212 06:18:16.657979 12086 net.cpp:150] Setting up L1_b2_cbr1_conv
I1212 06:18:16.657997 12086 net.cpp:157] Top shape: 125 16 32 32 (2048000)
I1212 06:18:16.658007 12086 net.cpp:165] Memory required for data: 148993500
I1212 06:18:16.658025 12086 layer_factory.hpp:77] Creating layer L1_b2_cbr1_bn
I1212 06:18:16.658051 12086 net.cpp:100] Creating Layer L1_b2_cbr1_bn
I1212 06:18:16.658062 12086 net.cpp:434] L1_b2_cbr1_bn <- L1_b2_cbr1_conv_top
I1212 06:18:16.658094 12086 net.cpp:408] L1_b2_cbr1_bn -> L1_b2_cbr1_bn_top
I1212 06:18:16.658392 12086 net.cpp:150] Setting up L1_b2_cbr1_bn
I1212 06:18:16.658413 12086 net.cpp:157] Top shape: 125 16 32 32 (2048000)
I1212 06:18:16.658423 12086 net.cpp:165] Memory required for data: 157185500
I1212 06:18:16.658445 12086 layer_factory.hpp:77] Creating layer L1_b2_cbr1_scale
I1212 06:18:16.658463 12086 net.cpp:100] Creating Layer L1_b2_cbr1_scale
I1212 06:18:16.658473 12086 net.cpp:434] L1_b2_cbr1_scale <- L1_b2_cbr1_bn_top
I1212 06:18:16.658488 12086 net.cpp:395] L1_b2_cbr1_scale -> L1_b2_cbr1_bn_top (in-place)
I1212 06:18:16.658579 12086 layer_factory.hpp:77] Creating layer L1_b2_cbr1_scale
I1212 06:18:16.658751 12086 net.cpp:150] Setting up L1_b2_cbr1_scale
I1212 06:18:16.658769 12086 net.cpp:157] Top shape: 125 16 32 32 (2048000)
I1212 06:18:16.658779 12086 net.cpp:165] Memory required for data: 165377500
I1212 06:18:16.658797 12086 layer_factory.hpp:77] Creating layer L1_b2_cbr1_relu
I1212 06:18:16.658819 12086 net.cpp:100] Creating Layer L1_b2_cbr1_relu
I1212 06:18:16.658834 12086 net.cpp:434] L1_b2_cbr1_relu <- L1_b2_cbr1_bn_top
I1212 06:18:16.658849 12086 net.cpp:395] L1_b2_cbr1_relu -> L1_b2_cbr1_bn_top (in-place)
I1212 06:18:16.658869 12086 net.cpp:150] Setting up L1_b2_cbr1_relu
I1212 06:18:16.658884 12086 net.cpp:157] Top shape: 125 16 32 32 (2048000)
I1212 06:18:16.658893 12086 net.cpp:165] Memory required for data: 173569500
I1212 06:18:16.658903 12086 layer_factory.hpp:77] Creating layer L1_b2_cbr2_conv
I1212 06:18:16.658929 12086 net.cpp:100] Creating Layer L1_b2_cbr2_conv
I1212 06:18:16.658941 12086 net.cpp:434] L1_b2_cbr2_conv <- L1_b2_cbr1_bn_top
I1212 06:18:16.658963 12086 net.cpp:408] L1_b2_cbr2_conv -> L1_b2_cbr2_conv_top
I1212 06:18:16.659324 12086 net.cpp:150] Setting up L1_b2_cbr2_conv
I1212 06:18:16.659344 12086 net.cpp:157] Top shape: 125 16 32 32 (2048000)
I1212 06:18:16.659353 12086 net.cpp:165] Memory required for data: 181761500
I1212 06:18:16.659371 12086 layer_factory.hpp:77] Creating layer L1_b2_cbr2_bn
I1212 06:18:16.659394 12086 net.cpp:100] Creating Layer L1_b2_cbr2_bn
I1212 06:18:16.659405 12086 net.cpp:434] L1_b2_cbr2_bn <- L1_b2_cbr2_conv_top
I1212 06:18:16.659426 12086 net.cpp:408] L1_b2_cbr2_bn -> L1_b2_cbr2_bn_top
I1212 06:18:16.659708 12086 net.cpp:150] Setting up L1_b2_cbr2_bn
I1212 06:18:16.659726 12086 net.cpp:157] Top shape: 125 16 32 32 (2048000)
I1212 06:18:16.659736 12086 net.cpp:165] Memory required for data: 189953500
I1212 06:18:16.659765 12086 layer_factory.hpp:77] Creating layer L1_b2_cbr2_scale
I1212 06:18:16.659787 12086 net.cpp:100] Creating Layer L1_b2_cbr2_scale
I1212 06:18:16.659799 12086 net.cpp:434] L1_b2_cbr2_scale <- L1_b2_cbr2_bn_top
I1212 06:18:16.659816 12086 net.cpp:395] L1_b2_cbr2_scale -> L1_b2_cbr2_bn_top (in-place)
I1212 06:18:16.659904 12086 layer_factory.hpp:77] Creating layer L1_b2_cbr2_scale
I1212 06:18:16.660089 12086 net.cpp:150] Setting up L1_b2_cbr2_scale
I1212 06:18:16.660109 12086 net.cpp:157] Top shape: 125 16 32 32 (2048000)
I1212 06:18:16.660120 12086 net.cpp:165] Memory required for data: 198145500
I1212 06:18:16.660138 12086 layer_factory.hpp:77] Creating layer L1_b2_sum_eltwise
I1212 06:18:16.660156 12086 net.cpp:100] Creating Layer L1_b2_sum_eltwise
I1212 06:18:16.660174 12086 net.cpp:434] L1_b2_sum_eltwise <- L1_b2_cbr2_bn_top
I1212 06:18:16.660188 12086 net.cpp:434] L1_b2_sum_eltwise <- L1_b1_sum_eltwise_top_L1_b1_relu_0_split_1
I1212 06:18:16.660209 12086 net.cpp:408] L1_b2_sum_eltwise -> L1_b2_sum_eltwise_top
I1212 06:18:16.660264 12086 net.cpp:150] Setting up L1_b2_sum_eltwise
I1212 06:18:16.660282 12086 net.cpp:157] Top shape: 125 16 32 32 (2048000)
I1212 06:18:16.660291 12086 net.cpp:165] Memory required for data: 206337500
I1212 06:18:16.660301 12086 layer_factory.hpp:77] Creating layer L1_b2_relu
I1212 06:18:16.660316 12086 net.cpp:100] Creating Layer L1_b2_relu
I1212 06:18:16.660327 12086 net.cpp:434] L1_b2_relu <- L1_b2_sum_eltwise_top
I1212 06:18:16.660341 12086 net.cpp:395] L1_b2_relu -> L1_b2_sum_eltwise_top (in-place)
I1212 06:18:16.660360 12086 net.cpp:150] Setting up L1_b2_relu
I1212 06:18:16.660375 12086 net.cpp:157] Top shape: 125 16 32 32 (2048000)
I1212 06:18:16.660384 12086 net.cpp:165] Memory required for data: 214529500
I1212 06:18:16.660395 12086 layer_factory.hpp:77] Creating layer L1_b2_sum_eltwise_top_L1_b2_relu_0_split
I1212 06:18:16.660414 12086 net.cpp:100] Creating Layer L1_b2_sum_eltwise_top_L1_b2_relu_0_split
I1212 06:18:16.660425 12086 net.cpp:434] L1_b2_sum_eltwise_top_L1_b2_relu_0_split <- L1_b2_sum_eltwise_top
I1212 06:18:16.660440 12086 net.cpp:408] L1_b2_sum_eltwise_top_L1_b2_relu_0_split -> L1_b2_sum_eltwise_top_L1_b2_relu_0_split_0
I1212 06:18:16.660460 12086 net.cpp:408] L1_b2_sum_eltwise_top_L1_b2_relu_0_split -> L1_b2_sum_eltwise_top_L1_b2_relu_0_split_1
I1212 06:18:16.660537 12086 net.cpp:150] Setting up L1_b2_sum_eltwise_top_L1_b2_relu_0_split
I1212 06:18:16.660557 12086 net.cpp:157] Top shape: 125 16 32 32 (2048000)
I1212 06:18:16.660571 12086 net.cpp:157] Top shape: 125 16 32 32 (2048000)
I1212 06:18:16.660581 12086 net.cpp:165] Memory required for data: 230913500
I1212 06:18:16.660593 12086 layer_factory.hpp:77] Creating layer L1_b3_cbr1_conv
I1212 06:18:16.660611 12086 net.cpp:100] Creating Layer L1_b3_cbr1_conv
I1212 06:18:16.660624 12086 net.cpp:434] L1_b3_cbr1_conv <- L1_b2_sum_eltwise_top_L1_b2_relu_0_split_0
I1212 06:18:16.660647 12086 net.cpp:408] L1_b3_cbr1_conv -> L1_b3_cbr1_conv_top
I1212 06:18:16.661000 12086 net.cpp:150] Setting up L1_b3_cbr1_conv
I1212 06:18:16.661020 12086 net.cpp:157] Top shape: 125 16 32 32 (2048000)
I1212 06:18:16.661029 12086 net.cpp:165] Memory required for data: 239105500
I1212 06:18:16.661047 12086 layer_factory.hpp:77] Creating layer L1_b3_cbr1_bn
I1212 06:18:16.661065 12086 net.cpp:100] Creating Layer L1_b3_cbr1_bn
I1212 06:18:16.661083 12086 net.cpp:434] L1_b3_cbr1_bn <- L1_b3_cbr1_conv_top
I1212 06:18:16.661101 12086 net.cpp:408] L1_b3_cbr1_bn -> L1_b3_cbr1_bn_top
I1212 06:18:16.661375 12086 net.cpp:150] Setting up L1_b3_cbr1_bn
I1212 06:18:16.661394 12086 net.cpp:157] Top shape: 125 16 32 32 (2048000)
I1212 06:18:16.661403 12086 net.cpp:165] Memory required for data: 247297500
I1212 06:18:16.661424 12086 layer_factory.hpp:77] Creating layer L1_b3_cbr1_scale
I1212 06:18:16.661445 12086 net.cpp:100] Creating Layer L1_b3_cbr1_scale
I1212 06:18:16.661458 12086 net.cpp:434] L1_b3_cbr1_scale <- L1_b3_cbr1_bn_top
I1212 06:18:16.661473 12086 net.cpp:395] L1_b3_cbr1_scale -> L1_b3_cbr1_bn_top (in-place)
I1212 06:18:16.661567 12086 layer_factory.hpp:77] Creating layer L1_b3_cbr1_scale
I1212 06:18:16.661744 12086 net.cpp:150] Setting up L1_b3_cbr1_scale
I1212 06:18:16.661763 12086 net.cpp:157] Top shape: 125 16 32 32 (2048000)
I1212 06:18:16.661772 12086 net.cpp:165] Memory required for data: 255489500
I1212 06:18:16.661792 12086 layer_factory.hpp:77] Creating layer L1_b3_cbr1_relu
I1212 06:18:16.661808 12086 net.cpp:100] Creating Layer L1_b3_cbr1_relu
I1212 06:18:16.661818 12086 net.cpp:434] L1_b3_cbr1_relu <- L1_b3_cbr1_bn_top
I1212 06:18:16.661837 12086 net.cpp:395] L1_b3_cbr1_relu -> L1_b3_cbr1_bn_top (in-place)
I1212 06:18:16.661857 12086 net.cpp:150] Setting up L1_b3_cbr1_relu
I1212 06:18:16.661871 12086 net.cpp:157] Top shape: 125 16 32 32 (2048000)
I1212 06:18:16.661890 12086 net.cpp:165] Memory required for data: 263681500
I1212 06:18:16.661900 12086 layer_factory.hpp:77] Creating layer L1_b3_cbr2_conv
I1212 06:18:16.661927 12086 net.cpp:100] Creating Layer L1_b3_cbr2_conv
I1212 06:18:16.661939 12086 net.cpp:434] L1_b3_cbr2_conv <- L1_b3_cbr1_bn_top
I1212 06:18:16.661957 12086 net.cpp:408] L1_b3_cbr2_conv -> L1_b3_cbr2_conv_top
I1212 06:18:16.662319 12086 net.cpp:150] Setting up L1_b3_cbr2_conv
I1212 06:18:16.662339 12086 net.cpp:157] Top shape: 125 16 32 32 (2048000)
I1212 06:18:16.662349 12086 net.cpp:165] Memory required for data: 271873500
I1212 06:18:16.662367 12086 layer_factory.hpp:77] Creating layer L1_b3_cbr2_bn
I1212 06:18:16.662394 12086 net.cpp:100] Creating Layer L1_b3_cbr2_bn
I1212 06:18:16.662405 12086 net.cpp:434] L1_b3_cbr2_bn <- L1_b3_cbr2_conv_top
I1212 06:18:16.662430 12086 net.cpp:408] L1_b3_cbr2_bn -> L1_b3_cbr2_bn_top
I1212 06:18:16.662721 12086 net.cpp:150] Setting up L1_b3_cbr2_bn
I1212 06:18:16.662740 12086 net.cpp:157] Top shape: 125 16 32 32 (2048000)
I1212 06:18:16.662750 12086 net.cpp:165] Memory required for data: 280065500
I1212 06:18:16.662772 12086 layer_factory.hpp:77] Creating layer L1_b3_cbr2_scale
I1212 06:18:16.662793 12086 net.cpp:100] Creating Layer L1_b3_cbr2_scale
I1212 06:18:16.662806 12086 net.cpp:434] L1_b3_cbr2_scale <- L1_b3_cbr2_bn_top
I1212 06:18:16.662822 12086 net.cpp:395] L1_b3_cbr2_scale -> L1_b3_cbr2_bn_top (in-place)
I1212 06:18:16.662909 12086 layer_factory.hpp:77] Creating layer L1_b3_cbr2_scale
I1212 06:18:16.663094 12086 net.cpp:150] Setting up L1_b3_cbr2_scale
I1212 06:18:16.663112 12086 net.cpp:157] Top shape: 125 16 32 32 (2048000)
I1212 06:18:16.663121 12086 net.cpp:165] Memory required for data: 288257500
I1212 06:18:16.663141 12086 layer_factory.hpp:77] Creating layer L1_b3_sum_eltwise
I1212 06:18:16.663157 12086 net.cpp:100] Creating Layer L1_b3_sum_eltwise
I1212 06:18:16.663168 12086 net.cpp:434] L1_b3_sum_eltwise <- L1_b3_cbr2_bn_top
I1212 06:18:16.663182 12086 net.cpp:434] L1_b3_sum_eltwise <- L1_b2_sum_eltwise_top_L1_b2_relu_0_split_1
I1212 06:18:16.663202 12086 net.cpp:408] L1_b3_sum_eltwise -> L1_b3_sum_eltwise_top
I1212 06:18:16.663259 12086 net.cpp:150] Setting up L1_b3_sum_eltwise
I1212 06:18:16.663277 12086 net.cpp:157] Top shape: 125 16 32 32 (2048000)
I1212 06:18:16.663287 12086 net.cpp:165] Memory required for data: 296449500
I1212 06:18:16.663297 12086 layer_factory.hpp:77] Creating layer L1_b3_relu
I1212 06:18:16.663312 12086 net.cpp:100] Creating Layer L1_b3_relu
I1212 06:18:16.663323 12086 net.cpp:434] L1_b3_relu <- L1_b3_sum_eltwise_top
I1212 06:18:16.663348 12086 net.cpp:395] L1_b3_relu -> L1_b3_sum_eltwise_top (in-place)
I1212 06:18:16.663367 12086 net.cpp:150] Setting up L1_b3_relu
I1212 06:18:16.663383 12086 net.cpp:157] Top shape: 125 16 32 32 (2048000)
I1212 06:18:16.663393 12086 net.cpp:165] Memory required for data: 304641500
I1212 06:18:16.663403 12086 layer_factory.hpp:77] Creating layer L1_b3_sum_eltwise_top_L1_b3_relu_0_split
I1212 06:18:16.663419 12086 net.cpp:100] Creating Layer L1_b3_sum_eltwise_top_L1_b3_relu_0_split
I1212 06:18:16.663429 12086 net.cpp:434] L1_b3_sum_eltwise_top_L1_b3_relu_0_split <- L1_b3_sum_eltwise_top
I1212 06:18:16.663444 12086 net.cpp:408] L1_b3_sum_eltwise_top_L1_b3_relu_0_split -> L1_b3_sum_eltwise_top_L1_b3_relu_0_split_0
I1212 06:18:16.663465 12086 net.cpp:408] L1_b3_sum_eltwise_top_L1_b3_relu_0_split -> L1_b3_sum_eltwise_top_L1_b3_relu_0_split_1
I1212 06:18:16.663543 12086 net.cpp:150] Setting up L1_b3_sum_eltwise_top_L1_b3_relu_0_split
I1212 06:18:16.663561 12086 net.cpp:157] Top shape: 125 16 32 32 (2048000)
I1212 06:18:16.663575 12086 net.cpp:157] Top shape: 125 16 32 32 (2048000)
I1212 06:18:16.663585 12086 net.cpp:165] Memory required for data: 321025500
I1212 06:18:16.663595 12086 layer_factory.hpp:77] Creating layer L1_b4_cbr1_conv
I1212 06:18:16.663616 12086 net.cpp:100] Creating Layer L1_b4_cbr1_conv
I1212 06:18:16.663628 12086 net.cpp:434] L1_b4_cbr1_conv <- L1_b3_sum_eltwise_top_L1_b3_relu_0_split_0
I1212 06:18:16.663651 12086 net.cpp:408] L1_b4_cbr1_conv -> L1_b4_cbr1_conv_top
I1212 06:18:16.664024 12086 net.cpp:150] Setting up L1_b4_cbr1_conv
I1212 06:18:16.664043 12086 net.cpp:157] Top shape: 125 16 32 32 (2048000)
I1212 06:18:16.664053 12086 net.cpp:165] Memory required for data: 329217500
I1212 06:18:16.664078 12086 layer_factory.hpp:77] Creating layer L1_b4_cbr1_bn
I1212 06:18:16.664098 12086 net.cpp:100] Creating Layer L1_b4_cbr1_bn
I1212 06:18:16.664108 12086 net.cpp:434] L1_b4_cbr1_bn <- L1_b4_cbr1_conv_top
I1212 06:18:16.664130 12086 net.cpp:408] L1_b4_cbr1_bn -> L1_b4_cbr1_bn_top
I1212 06:18:16.664408 12086 net.cpp:150] Setting up L1_b4_cbr1_bn
I1212 06:18:16.664427 12086 net.cpp:157] Top shape: 125 16 32 32 (2048000)
I1212 06:18:16.664438 12086 net.cpp:165] Memory required for data: 337409500
I1212 06:18:16.664459 12086 layer_factory.hpp:77] Creating layer L1_b4_cbr1_scale
I1212 06:18:16.664480 12086 net.cpp:100] Creating Layer L1_b4_cbr1_scale
I1212 06:18:16.664492 12086 net.cpp:434] L1_b4_cbr1_scale <- L1_b4_cbr1_bn_top
I1212 06:18:16.664510 12086 net.cpp:395] L1_b4_cbr1_scale -> L1_b4_cbr1_bn_top (in-place)
I1212 06:18:16.664597 12086 layer_factory.hpp:77] Creating layer L1_b4_cbr1_scale
I1212 06:18:16.664777 12086 net.cpp:150] Setting up L1_b4_cbr1_scale
I1212 06:18:16.664796 12086 net.cpp:157] Top shape: 125 16 32 32 (2048000)
I1212 06:18:16.664806 12086 net.cpp:165] Memory required for data: 345601500
I1212 06:18:16.664824 12086 layer_factory.hpp:77] Creating layer L1_b4_cbr1_relu
I1212 06:18:16.664845 12086 net.cpp:100] Creating Layer L1_b4_cbr1_relu
I1212 06:18:16.664857 12086 net.cpp:434] L1_b4_cbr1_relu <- L1_b4_cbr1_bn_top
I1212 06:18:16.664872 12086 net.cpp:395] L1_b4_cbr1_relu -> L1_b4_cbr1_bn_top (in-place)
I1212 06:18:16.664891 12086 net.cpp:150] Setting up L1_b4_cbr1_relu
I1212 06:18:16.664906 12086 net.cpp:157] Top shape: 125 16 32 32 (2048000)
I1212 06:18:16.664916 12086 net.cpp:165] Memory required for data: 353793500
I1212 06:18:16.664925 12086 layer_factory.hpp:77] Creating layer L1_b4_cbr2_conv
I1212 06:18:16.664952 12086 net.cpp:100] Creating Layer L1_b4_cbr2_conv
I1212 06:18:16.664964 12086 net.cpp:434] L1_b4_cbr2_conv <- L1_b4_cbr1_bn_top
I1212 06:18:16.664986 12086 net.cpp:408] L1_b4_cbr2_conv -> L1_b4_cbr2_conv_top
I1212 06:18:16.665555 12086 net.cpp:150] Setting up L1_b4_cbr2_conv
I1212 06:18:16.665576 12086 net.cpp:157] Top shape: 125 16 32 32 (2048000)
I1212 06:18:16.665586 12086 net.cpp:165] Memory required for data: 361985500
I1212 06:18:16.665604 12086 layer_factory.hpp:77] Creating layer L1_b4_cbr2_bn
I1212 06:18:16.665622 12086 net.cpp:100] Creating Layer L1_b4_cbr2_bn
I1212 06:18:16.665634 12086 net.cpp:434] L1_b4_cbr2_bn <- L1_b4_cbr2_conv_top
I1212 06:18:16.665650 12086 net.cpp:408] L1_b4_cbr2_bn -> L1_b4_cbr2_bn_top
I1212 06:18:16.665961 12086 net.cpp:150] Setting up L1_b4_cbr2_bn
I1212 06:18:16.665982 12086 net.cpp:157] Top shape: 125 16 32 32 (2048000)
I1212 06:18:16.665990 12086 net.cpp:165] Memory required for data: 370177500
I1212 06:18:16.666015 12086 layer_factory.hpp:77] Creating layer L1_b4_cbr2_scale
I1212 06:18:16.666033 12086 net.cpp:100] Creating Layer L1_b4_cbr2_scale
I1212 06:18:16.666044 12086 net.cpp:434] L1_b4_cbr2_scale <- L1_b4_cbr2_bn_top
I1212 06:18:16.666065 12086 net.cpp:395] L1_b4_cbr2_scale -> L1_b4_cbr2_bn_top (in-place)
I1212 06:18:16.666159 12086 layer_factory.hpp:77] Creating layer L1_b4_cbr2_scale
I1212 06:18:16.666335 12086 net.cpp:150] Setting up L1_b4_cbr2_scale
I1212 06:18:16.666355 12086 net.cpp:157] Top shape: 125 16 32 32 (2048000)
I1212 06:18:16.666365 12086 net.cpp:165] Memory required for data: 378369500
I1212 06:18:16.666383 12086 layer_factory.hpp:77] Creating layer L1_b4_sum_eltwise
I1212 06:18:16.666406 12086 net.cpp:100] Creating Layer L1_b4_sum_eltwise
I1212 06:18:16.666419 12086 net.cpp:434] L1_b4_sum_eltwise <- L1_b4_cbr2_bn_top
I1212 06:18:16.666431 12086 net.cpp:434] L1_b4_sum_eltwise <- L1_b3_sum_eltwise_top_L1_b3_relu_0_split_1
I1212 06:18:16.666448 12086 net.cpp:408] L1_b4_sum_eltwise -> L1_b4_sum_eltwise_top
I1212 06:18:16.666508 12086 net.cpp:150] Setting up L1_b4_sum_eltwise
I1212 06:18:16.666538 12086 net.cpp:157] Top shape: 125 16 32 32 (2048000)
I1212 06:18:16.666549 12086 net.cpp:165] Memory required for data: 386561500
I1212 06:18:16.666560 12086 layer_factory.hpp:77] Creating layer L1_b4_relu
I1212 06:18:16.666574 12086 net.cpp:100] Creating Layer L1_b4_relu
I1212 06:18:16.666586 12086 net.cpp:434] L1_b4_relu <- L1_b4_sum_eltwise_top
I1212 06:18:16.666605 12086 net.cpp:395] L1_b4_relu -> L1_b4_sum_eltwise_top (in-place)
I1212 06:18:16.666625 12086 net.cpp:150] Setting up L1_b4_relu
I1212 06:18:16.666641 12086 net.cpp:157] Top shape: 125 16 32 32 (2048000)
I1212 06:18:16.666651 12086 net.cpp:165] Memory required for data: 394753500
I1212 06:18:16.666661 12086 layer_factory.hpp:77] Creating layer L1_b4_sum_eltwise_top_L1_b4_relu_0_split
I1212 06:18:16.666676 12086 net.cpp:100] Creating Layer L1_b4_sum_eltwise_top_L1_b4_relu_0_split
I1212 06:18:16.666687 12086 net.cpp:434] L1_b4_sum_eltwise_top_L1_b4_relu_0_split <- L1_b4_sum_eltwise_top
I1212 06:18:16.666700 12086 net.cpp:408] L1_b4_sum_eltwise_top_L1_b4_relu_0_split -> L1_b4_sum_eltwise_top_L1_b4_relu_0_split_0
I1212 06:18:16.666720 12086 net.cpp:408] L1_b4_sum_eltwise_top_L1_b4_relu_0_split -> L1_b4_sum_eltwise_top_L1_b4_relu_0_split_1
I1212 06:18:16.666802 12086 net.cpp:150] Setting up L1_b4_sum_eltwise_top_L1_b4_relu_0_split
I1212 06:18:16.666821 12086 net.cpp:157] Top shape: 125 16 32 32 (2048000)
I1212 06:18:16.666834 12086 net.cpp:157] Top shape: 125 16 32 32 (2048000)
I1212 06:18:16.666843 12086 net.cpp:165] Memory required for data: 411137500
I1212 06:18:16.666853 12086 layer_factory.hpp:77] Creating layer L1_b5_cbr1_conv
I1212 06:18:16.666878 12086 net.cpp:100] Creating Layer L1_b5_cbr1_conv
I1212 06:18:16.666891 12086 net.cpp:434] L1_b5_cbr1_conv <- L1_b4_sum_eltwise_top_L1_b4_relu_0_split_0
I1212 06:18:16.666910 12086 net.cpp:408] L1_b5_cbr1_conv -> L1_b5_cbr1_conv_top
I1212 06:18:16.667266 12086 net.cpp:150] Setting up L1_b5_cbr1_conv
I1212 06:18:16.667286 12086 net.cpp:157] Top shape: 125 16 32 32 (2048000)
I1212 06:18:16.667294 12086 net.cpp:165] Memory required for data: 419329500
I1212 06:18:16.667335 12086 layer_factory.hpp:77] Creating layer L1_b5_cbr1_bn
I1212 06:18:16.667358 12086 net.cpp:100] Creating Layer L1_b5_cbr1_bn
I1212 06:18:16.667371 12086 net.cpp:434] L1_b5_cbr1_bn <- L1_b5_cbr1_conv_top
I1212 06:18:16.667388 12086 net.cpp:408] L1_b5_cbr1_bn -> L1_b5_cbr1_bn_top
I1212 06:18:16.667677 12086 net.cpp:150] Setting up L1_b5_cbr1_bn
I1212 06:18:16.667696 12086 net.cpp:157] Top shape: 125 16 32 32 (2048000)
I1212 06:18:16.667706 12086 net.cpp:165] Memory required for data: 427521500
I1212 06:18:16.667728 12086 layer_factory.hpp:77] Creating layer L1_b5_cbr1_scale
I1212 06:18:16.667749 12086 net.cpp:100] Creating Layer L1_b5_cbr1_scale
I1212 06:18:16.667760 12086 net.cpp:434] L1_b5_cbr1_scale <- L1_b5_cbr1_bn_top
I1212 06:18:16.667778 12086 net.cpp:395] L1_b5_cbr1_scale -> L1_b5_cbr1_bn_top (in-place)
I1212 06:18:16.667870 12086 layer_factory.hpp:77] Creating layer L1_b5_cbr1_scale
I1212 06:18:16.668051 12086 net.cpp:150] Setting up L1_b5_cbr1_scale
I1212 06:18:16.668076 12086 net.cpp:157] Top shape: 125 16 32 32 (2048000)
I1212 06:18:16.668087 12086 net.cpp:165] Memory required for data: 435713500
I1212 06:18:16.668105 12086 layer_factory.hpp:77] Creating layer L1_b5_cbr1_relu
I1212 06:18:16.668125 12086 net.cpp:100] Creating Layer L1_b5_cbr1_relu
I1212 06:18:16.668138 12086 net.cpp:434] L1_b5_cbr1_relu <- L1_b5_cbr1_bn_top
I1212 06:18:16.668153 12086 net.cpp:395] L1_b5_cbr1_relu -> L1_b5_cbr1_bn_top (in-place)
I1212 06:18:16.668171 12086 net.cpp:150] Setting up L1_b5_cbr1_relu
I1212 06:18:16.668185 12086 net.cpp:157] Top shape: 125 16 32 32 (2048000)
I1212 06:18:16.668195 12086 net.cpp:165] Memory required for data: 443905500
I1212 06:18:16.668205 12086 layer_factory.hpp:77] Creating layer L1_b5_cbr2_conv
I1212 06:18:16.668231 12086 net.cpp:100] Creating Layer L1_b5_cbr2_conv
I1212 06:18:16.668244 12086 net.cpp:434] L1_b5_cbr2_conv <- L1_b5_cbr1_bn_top
I1212 06:18:16.668267 12086 net.cpp:408] L1_b5_cbr2_conv -> L1_b5_cbr2_conv_top
I1212 06:18:16.668643 12086 net.cpp:150] Setting up L1_b5_cbr2_conv
I1212 06:18:16.668663 12086 net.cpp:157] Top shape: 125 16 32 32 (2048000)
I1212 06:18:16.668673 12086 net.cpp:165] Memory required for data: 452097500
I1212 06:18:16.668690 12086 layer_factory.hpp:77] Creating layer L1_b5_cbr2_bn
I1212 06:18:16.668709 12086 net.cpp:100] Creating Layer L1_b5_cbr2_bn
I1212 06:18:16.668720 12086 net.cpp:434] L1_b5_cbr2_bn <- L1_b5_cbr2_conv_top
I1212 06:18:16.668736 12086 net.cpp:408] L1_b5_cbr2_bn -> L1_b5_cbr2_bn_top
I1212 06:18:16.669015 12086 net.cpp:150] Setting up L1_b5_cbr2_bn
I1212 06:18:16.669034 12086 net.cpp:157] Top shape: 125 16 32 32 (2048000)
I1212 06:18:16.669044 12086 net.cpp:165] Memory required for data: 460289500
I1212 06:18:16.669065 12086 layer_factory.hpp:77] Creating layer L1_b5_cbr2_scale
I1212 06:18:16.669095 12086 net.cpp:100] Creating Layer L1_b5_cbr2_scale
I1212 06:18:16.669108 12086 net.cpp:434] L1_b5_cbr2_scale <- L1_b5_cbr2_bn_top
I1212 06:18:16.669126 12086 net.cpp:395] L1_b5_cbr2_scale -> L1_b5_cbr2_bn_top (in-place)
I1212 06:18:16.669212 12086 layer_factory.hpp:77] Creating layer L1_b5_cbr2_scale
I1212 06:18:16.669392 12086 net.cpp:150] Setting up L1_b5_cbr2_scale
I1212 06:18:16.669412 12086 net.cpp:157] Top shape: 125 16 32 32 (2048000)
I1212 06:18:16.669421 12086 net.cpp:165] Memory required for data: 468481500
I1212 06:18:16.669440 12086 layer_factory.hpp:77] Creating layer L1_b5_sum_eltwise
I1212 06:18:16.669456 12086 net.cpp:100] Creating Layer L1_b5_sum_eltwise
I1212 06:18:16.669468 12086 net.cpp:434] L1_b5_sum_eltwise <- L1_b5_cbr2_bn_top
I1212 06:18:16.669481 12086 net.cpp:434] L1_b5_sum_eltwise <- L1_b4_sum_eltwise_top_L1_b4_relu_0_split_1
I1212 06:18:16.669502 12086 net.cpp:408] L1_b5_sum_eltwise -> L1_b5_sum_eltwise_top
I1212 06:18:16.669560 12086 net.cpp:150] Setting up L1_b5_sum_eltwise
I1212 06:18:16.669580 12086 net.cpp:157] Top shape: 125 16 32 32 (2048000)
I1212 06:18:16.669590 12086 net.cpp:165] Memory required for data: 476673500
I1212 06:18:16.669600 12086 layer_factory.hpp:77] Creating layer L1_b5_relu
I1212 06:18:16.669615 12086 net.cpp:100] Creating Layer L1_b5_relu
I1212 06:18:16.669627 12086 net.cpp:434] L1_b5_relu <- L1_b5_sum_eltwise_top
I1212 06:18:16.669646 12086 net.cpp:395] L1_b5_relu -> L1_b5_sum_eltwise_top (in-place)
I1212 06:18:16.669665 12086 net.cpp:150] Setting up L1_b5_relu
I1212 06:18:16.669680 12086 net.cpp:157] Top shape: 125 16 32 32 (2048000)
I1212 06:18:16.669690 12086 net.cpp:165] Memory required for data: 484865500
I1212 06:18:16.669700 12086 layer_factory.hpp:77] Creating layer L1_b5_sum_eltwise_top_L1_b5_relu_0_split
I1212 06:18:16.669714 12086 net.cpp:100] Creating Layer L1_b5_sum_eltwise_top_L1_b5_relu_0_split
I1212 06:18:16.669725 12086 net.cpp:434] L1_b5_sum_eltwise_top_L1_b5_relu_0_split <- L1_b5_sum_eltwise_top
I1212 06:18:16.669740 12086 net.cpp:408] L1_b5_sum_eltwise_top_L1_b5_relu_0_split -> L1_b5_sum_eltwise_top_L1_b5_relu_0_split_0
I1212 06:18:16.669760 12086 net.cpp:408] L1_b5_sum_eltwise_top_L1_b5_relu_0_split -> L1_b5_sum_eltwise_top_L1_b5_relu_0_split_1
I1212 06:18:16.669842 12086 net.cpp:150] Setting up L1_b5_sum_eltwise_top_L1_b5_relu_0_split
I1212 06:18:16.669862 12086 net.cpp:157] Top shape: 125 16 32 32 (2048000)
I1212 06:18:16.669874 12086 net.cpp:157] Top shape: 125 16 32 32 (2048000)
I1212 06:18:16.669884 12086 net.cpp:165] Memory required for data: 501249500
I1212 06:18:16.669894 12086 layer_factory.hpp:77] Creating layer L1_b6_cbr1_conv
I1212 06:18:16.669915 12086 net.cpp:100] Creating Layer L1_b6_cbr1_conv
I1212 06:18:16.669926 12086 net.cpp:434] L1_b6_cbr1_conv <- L1_b5_sum_eltwise_top_L1_b5_relu_0_split_0
I1212 06:18:16.669951 12086 net.cpp:408] L1_b6_cbr1_conv -> L1_b6_cbr1_conv_top
I1212 06:18:16.670320 12086 net.cpp:150] Setting up L1_b6_cbr1_conv
I1212 06:18:16.670339 12086 net.cpp:157] Top shape: 125 16 32 32 (2048000)
I1212 06:18:16.670348 12086 net.cpp:165] Memory required for data: 509441500
I1212 06:18:16.670367 12086 layer_factory.hpp:77] Creating layer L1_b6_cbr1_bn
I1212 06:18:16.670392 12086 net.cpp:100] Creating Layer L1_b6_cbr1_bn
I1212 06:18:16.670405 12086 net.cpp:434] L1_b6_cbr1_bn <- L1_b6_cbr1_conv_top
I1212 06:18:16.670428 12086 net.cpp:408] L1_b6_cbr1_bn -> L1_b6_cbr1_bn_top
I1212 06:18:16.670716 12086 net.cpp:150] Setting up L1_b6_cbr1_bn
I1212 06:18:16.670734 12086 net.cpp:157] Top shape: 125 16 32 32 (2048000)
I1212 06:18:16.670744 12086 net.cpp:165] Memory required for data: 517633500
I1212 06:18:16.670765 12086 layer_factory.hpp:77] Creating layer L1_b6_cbr1_scale
I1212 06:18:16.670786 12086 net.cpp:100] Creating Layer L1_b6_cbr1_scale
I1212 06:18:16.670799 12086 net.cpp:434] L1_b6_cbr1_scale <- L1_b6_cbr1_bn_top
I1212 06:18:16.670814 12086 net.cpp:395] L1_b6_cbr1_scale -> L1_b6_cbr1_bn_top (in-place)
I1212 06:18:16.670903 12086 layer_factory.hpp:77] Creating layer L1_b6_cbr1_scale
I1212 06:18:16.671088 12086 net.cpp:150] Setting up L1_b6_cbr1_scale
I1212 06:18:16.671108 12086 net.cpp:157] Top shape: 125 16 32 32 (2048000)
I1212 06:18:16.671118 12086 net.cpp:165] Memory required for data: 525825500
I1212 06:18:16.671136 12086 layer_factory.hpp:77] Creating layer L1_b6_cbr1_relu
I1212 06:18:16.671151 12086 net.cpp:100] Creating Layer L1_b6_cbr1_relu
I1212 06:18:16.671162 12086 net.cpp:434] L1_b6_cbr1_relu <- L1_b6_cbr1_bn_top
I1212 06:18:16.671181 12086 net.cpp:395] L1_b6_cbr1_relu -> L1_b6_cbr1_bn_top (in-place)
I1212 06:18:16.671201 12086 net.cpp:150] Setting up L1_b6_cbr1_relu
I1212 06:18:16.671216 12086 net.cpp:157] Top shape: 125 16 32 32 (2048000)
I1212 06:18:16.671224 12086 net.cpp:165] Memory required for data: 534017500
I1212 06:18:16.671236 12086 layer_factory.hpp:77] Creating layer L1_b6_cbr2_conv
I1212 06:18:16.671260 12086 net.cpp:100] Creating Layer L1_b6_cbr2_conv
I1212 06:18:16.671274 12086 net.cpp:434] L1_b6_cbr2_conv <- L1_b6_cbr1_bn_top
I1212 06:18:16.671296 12086 net.cpp:408] L1_b6_cbr2_conv -> L1_b6_cbr2_conv_top
I1212 06:18:16.671658 12086 net.cpp:150] Setting up L1_b6_cbr2_conv
I1212 06:18:16.671677 12086 net.cpp:157] Top shape: 125 16 32 32 (2048000)
I1212 06:18:16.671687 12086 net.cpp:165] Memory required for data: 542209500
I1212 06:18:16.671705 12086 layer_factory.hpp:77] Creating layer L1_b6_cbr2_bn
I1212 06:18:16.671722 12086 net.cpp:100] Creating Layer L1_b6_cbr2_bn
I1212 06:18:16.671733 12086 net.cpp:434] L1_b6_cbr2_bn <- L1_b6_cbr2_conv_top
I1212 06:18:16.671751 12086 net.cpp:408] L1_b6_cbr2_bn -> L1_b6_cbr2_bn_top
I1212 06:18:16.672039 12086 net.cpp:150] Setting up L1_b6_cbr2_bn
I1212 06:18:16.672060 12086 net.cpp:157] Top shape: 125 16 32 32 (2048000)
I1212 06:18:16.672068 12086 net.cpp:165] Memory required for data: 550401500
I1212 06:18:16.672097 12086 layer_factory.hpp:77] Creating layer L1_b6_cbr2_scale
I1212 06:18:16.672121 12086 net.cpp:100] Creating Layer L1_b6_cbr2_scale
I1212 06:18:16.672133 12086 net.cpp:434] L1_b6_cbr2_scale <- L1_b6_cbr2_bn_top
I1212 06:18:16.672149 12086 net.cpp:395] L1_b6_cbr2_scale -> L1_b6_cbr2_bn_top (in-place)
I1212 06:18:16.672236 12086 layer_factory.hpp:77] Creating layer L1_b6_cbr2_scale
I1212 06:18:16.672416 12086 net.cpp:150] Setting up L1_b6_cbr2_scale
I1212 06:18:16.672435 12086 net.cpp:157] Top shape: 125 16 32 32 (2048000)
I1212 06:18:16.672446 12086 net.cpp:165] Memory required for data: 558593500
I1212 06:18:16.672463 12086 layer_factory.hpp:77] Creating layer L1_b6_sum_eltwise
I1212 06:18:16.672490 12086 net.cpp:100] Creating Layer L1_b6_sum_eltwise
I1212 06:18:16.672503 12086 net.cpp:434] L1_b6_sum_eltwise <- L1_b6_cbr2_bn_top
I1212 06:18:16.672518 12086 net.cpp:434] L1_b6_sum_eltwise <- L1_b5_sum_eltwise_top_L1_b5_relu_0_split_1
I1212 06:18:16.672538 12086 net.cpp:408] L1_b6_sum_eltwise -> L1_b6_sum_eltwise_top
I1212 06:18:16.672591 12086 net.cpp:150] Setting up L1_b6_sum_eltwise
I1212 06:18:16.672610 12086 net.cpp:157] Top shape: 125 16 32 32 (2048000)
I1212 06:18:16.672621 12086 net.cpp:165] Memory required for data: 566785500
I1212 06:18:16.672631 12086 layer_factory.hpp:77] Creating layer L1_b6_relu
I1212 06:18:16.672650 12086 net.cpp:100] Creating Layer L1_b6_relu
I1212 06:18:16.672673 12086 net.cpp:434] L1_b6_relu <- L1_b6_sum_eltwise_top
I1212 06:18:16.672689 12086 net.cpp:395] L1_b6_relu -> L1_b6_sum_eltwise_top (in-place)
I1212 06:18:16.672709 12086 net.cpp:150] Setting up L1_b6_relu
I1212 06:18:16.672724 12086 net.cpp:157] Top shape: 125 16 32 32 (2048000)
I1212 06:18:16.672734 12086 net.cpp:165] Memory required for data: 574977500
I1212 06:18:16.672744 12086 layer_factory.hpp:77] Creating layer L1_b6_sum_eltwise_top_L1_b6_relu_0_split
I1212 06:18:16.672757 12086 net.cpp:100] Creating Layer L1_b6_sum_eltwise_top_L1_b6_relu_0_split
I1212 06:18:16.672770 12086 net.cpp:434] L1_b6_sum_eltwise_top_L1_b6_relu_0_split <- L1_b6_sum_eltwise_top
I1212 06:18:16.672785 12086 net.cpp:408] L1_b6_sum_eltwise_top_L1_b6_relu_0_split -> L1_b6_sum_eltwise_top_L1_b6_relu_0_split_0
I1212 06:18:16.672803 12086 net.cpp:408] L1_b6_sum_eltwise_top_L1_b6_relu_0_split -> L1_b6_sum_eltwise_top_L1_b6_relu_0_split_1
I1212 06:18:16.672886 12086 net.cpp:150] Setting up L1_b6_sum_eltwise_top_L1_b6_relu_0_split
I1212 06:18:16.672904 12086 net.cpp:157] Top shape: 125 16 32 32 (2048000)
I1212 06:18:16.672919 12086 net.cpp:157] Top shape: 125 16 32 32 (2048000)
I1212 06:18:16.672927 12086 net.cpp:165] Memory required for data: 591361500
I1212 06:18:16.672937 12086 layer_factory.hpp:77] Creating layer L1_b7_cbr1_conv
I1212 06:18:16.672965 12086 net.cpp:100] Creating Layer L1_b7_cbr1_conv
I1212 06:18:16.672977 12086 net.cpp:434] L1_b7_cbr1_conv <- L1_b6_sum_eltwise_top_L1_b6_relu_0_split_0
I1212 06:18:16.672996 12086 net.cpp:408] L1_b7_cbr1_conv -> L1_b7_cbr1_conv_top
I1212 06:18:16.673368 12086 net.cpp:150] Setting up L1_b7_cbr1_conv
I1212 06:18:16.673388 12086 net.cpp:157] Top shape: 125 16 32 32 (2048000)
I1212 06:18:16.673398 12086 net.cpp:165] Memory required for data: 599553500
I1212 06:18:16.673416 12086 layer_factory.hpp:77] Creating layer L1_b7_cbr1_bn
I1212 06:18:16.673439 12086 net.cpp:100] Creating Layer L1_b7_cbr1_bn
I1212 06:18:16.673450 12086 net.cpp:434] L1_b7_cbr1_bn <- L1_b7_cbr1_conv_top
I1212 06:18:16.673467 12086 net.cpp:408] L1_b7_cbr1_bn -> L1_b7_cbr1_bn_top
I1212 06:18:16.673748 12086 net.cpp:150] Setting up L1_b7_cbr1_bn
I1212 06:18:16.673768 12086 net.cpp:157] Top shape: 125 16 32 32 (2048000)
I1212 06:18:16.673777 12086 net.cpp:165] Memory required for data: 607745500
I1212 06:18:16.673799 12086 layer_factory.hpp:77] Creating layer L1_b7_cbr1_scale
I1212 06:18:16.673815 12086 net.cpp:100] Creating Layer L1_b7_cbr1_scale
I1212 06:18:16.673827 12086 net.cpp:434] L1_b7_cbr1_scale <- L1_b7_cbr1_bn_top
I1212 06:18:16.673843 12086 net.cpp:395] L1_b7_cbr1_scale -> L1_b7_cbr1_bn_top (in-place)
I1212 06:18:16.673938 12086 layer_factory.hpp:77] Creating layer L1_b7_cbr1_scale
I1212 06:18:16.674129 12086 net.cpp:150] Setting up L1_b7_cbr1_scale
I1212 06:18:16.674149 12086 net.cpp:157] Top shape: 125 16 32 32 (2048000)
I1212 06:18:16.674159 12086 net.cpp:165] Memory required for data: 615937500
I1212 06:18:16.674177 12086 layer_factory.hpp:77] Creating layer L1_b7_cbr1_relu
I1212 06:18:16.674192 12086 net.cpp:100] Creating Layer L1_b7_cbr1_relu
I1212 06:18:16.674204 12086 net.cpp:434] L1_b7_cbr1_relu <- L1_b7_cbr1_bn_top
I1212 06:18:16.674226 12086 net.cpp:395] L1_b7_cbr1_relu -> L1_b7_cbr1_bn_top (in-place)
I1212 06:18:16.674247 12086 net.cpp:150] Setting up L1_b7_cbr1_relu
I1212 06:18:16.674262 12086 net.cpp:157] Top shape: 125 16 32 32 (2048000)
I1212 06:18:16.674271 12086 net.cpp:165] Memory required for data: 624129500
I1212 06:18:16.674283 12086 layer_factory.hpp:77] Creating layer L1_b7_cbr2_conv
I1212 06:18:16.674302 12086 net.cpp:100] Creating Layer L1_b7_cbr2_conv
I1212 06:18:16.674315 12086 net.cpp:434] L1_b7_cbr2_conv <- L1_b7_cbr1_bn_top
I1212 06:18:16.674337 12086 net.cpp:408] L1_b7_cbr2_conv -> L1_b7_cbr2_conv_top
I1212 06:18:16.674700 12086 net.cpp:150] Setting up L1_b7_cbr2_conv
I1212 06:18:16.674720 12086 net.cpp:157] Top shape: 125 16 32 32 (2048000)
I1212 06:18:16.674728 12086 net.cpp:165] Memory required for data: 632321500
I1212 06:18:16.674746 12086 layer_factory.hpp:77] Creating layer L1_b7_cbr2_bn
I1212 06:18:16.674773 12086 net.cpp:100] Creating Layer L1_b7_cbr2_bn
I1212 06:18:16.674787 12086 net.cpp:434] L1_b7_cbr2_bn <- L1_b7_cbr2_conv_top
I1212 06:18:16.674808 12086 net.cpp:408] L1_b7_cbr2_bn -> L1_b7_cbr2_bn_top
I1212 06:18:16.675108 12086 net.cpp:150] Setting up L1_b7_cbr2_bn
I1212 06:18:16.675132 12086 net.cpp:157] Top shape: 125 16 32 32 (2048000)
I1212 06:18:16.675143 12086 net.cpp:165] Memory required for data: 640513500
I1212 06:18:16.675164 12086 layer_factory.hpp:77] Creating layer L1_b7_cbr2_scale
I1212 06:18:16.675180 12086 net.cpp:100] Creating Layer L1_b7_cbr2_scale
I1212 06:18:16.675192 12086 net.cpp:434] L1_b7_cbr2_scale <- L1_b7_cbr2_bn_top
I1212 06:18:16.675207 12086 net.cpp:395] L1_b7_cbr2_scale -> L1_b7_cbr2_bn_top (in-place)
I1212 06:18:16.675297 12086 layer_factory.hpp:77] Creating layer L1_b7_cbr2_scale
I1212 06:18:16.675475 12086 net.cpp:150] Setting up L1_b7_cbr2_scale
I1212 06:18:16.675494 12086 net.cpp:157] Top shape: 125 16 32 32 (2048000)
I1212 06:18:16.675504 12086 net.cpp:165] Memory required for data: 648705500
I1212 06:18:16.675523 12086 layer_factory.hpp:77] Creating layer L1_b7_sum_eltwise
I1212 06:18:16.675544 12086 net.cpp:100] Creating Layer L1_b7_sum_eltwise
I1212 06:18:16.675556 12086 net.cpp:434] L1_b7_sum_eltwise <- L1_b7_cbr2_bn_top
I1212 06:18:16.675570 12086 net.cpp:434] L1_b7_sum_eltwise <- L1_b6_sum_eltwise_top_L1_b6_relu_0_split_1
I1212 06:18:16.675590 12086 net.cpp:408] L1_b7_sum_eltwise -> L1_b7_sum_eltwise_top
I1212 06:18:16.675642 12086 net.cpp:150] Setting up L1_b7_sum_eltwise
I1212 06:18:16.675662 12086 net.cpp:157] Top shape: 125 16 32 32 (2048000)
I1212 06:18:16.675671 12086 net.cpp:165] Memory required for data: 656897500
I1212 06:18:16.675681 12086 layer_factory.hpp:77] Creating layer L1_b7_relu
I1212 06:18:16.675700 12086 net.cpp:100] Creating Layer L1_b7_relu
I1212 06:18:16.675714 12086 net.cpp:434] L1_b7_relu <- L1_b7_sum_eltwise_top
I1212 06:18:16.675729 12086 net.cpp:395] L1_b7_relu -> L1_b7_sum_eltwise_top (in-place)
I1212 06:18:16.675746 12086 net.cpp:150] Setting up L1_b7_relu
I1212 06:18:16.675761 12086 net.cpp:157] Top shape: 125 16 32 32 (2048000)
I1212 06:18:16.675770 12086 net.cpp:165] Memory required for data: 665089500
I1212 06:18:16.675781 12086 layer_factory.hpp:77] Creating layer L1_b7_sum_eltwise_top_L1_b7_relu_0_split
I1212 06:18:16.675796 12086 net.cpp:100] Creating Layer L1_b7_sum_eltwise_top_L1_b7_relu_0_split
I1212 06:18:16.675807 12086 net.cpp:434] L1_b7_sum_eltwise_top_L1_b7_relu_0_split <- L1_b7_sum_eltwise_top
I1212 06:18:16.675822 12086 net.cpp:408] L1_b7_sum_eltwise_top_L1_b7_relu_0_split -> L1_b7_sum_eltwise_top_L1_b7_relu_0_split_0
I1212 06:18:16.675843 12086 net.cpp:408] L1_b7_sum_eltwise_top_L1_b7_relu_0_split -> L1_b7_sum_eltwise_top_L1_b7_relu_0_split_1
I1212 06:18:16.675923 12086 net.cpp:150] Setting up L1_b7_sum_eltwise_top_L1_b7_relu_0_split
I1212 06:18:16.675941 12086 net.cpp:157] Top shape: 125 16 32 32 (2048000)
I1212 06:18:16.675956 12086 net.cpp:157] Top shape: 125 16 32 32 (2048000)
I1212 06:18:16.675964 12086 net.cpp:165] Memory required for data: 681473500
I1212 06:18:16.675974 12086 layer_factory.hpp:77] Creating layer L1_b8_cbr1_conv
I1212 06:18:16.676000 12086 net.cpp:100] Creating Layer L1_b8_cbr1_conv
I1212 06:18:16.676014 12086 net.cpp:434] L1_b8_cbr1_conv <- L1_b7_sum_eltwise_top_L1_b7_relu_0_split_0
I1212 06:18:16.676033 12086 net.cpp:408] L1_b8_cbr1_conv -> L1_b8_cbr1_conv_top
I1212 06:18:16.676409 12086 net.cpp:150] Setting up L1_b8_cbr1_conv
I1212 06:18:16.676429 12086 net.cpp:157] Top shape: 125 16 32 32 (2048000)
I1212 06:18:16.676437 12086 net.cpp:165] Memory required for data: 689665500
I1212 06:18:16.676455 12086 layer_factory.hpp:77] Creating layer L1_b8_cbr1_bn
I1212 06:18:16.676479 12086 net.cpp:100] Creating Layer L1_b8_cbr1_bn
I1212 06:18:16.676492 12086 net.cpp:434] L1_b8_cbr1_bn <- L1_b8_cbr1_conv_top
I1212 06:18:16.676509 12086 net.cpp:408] L1_b8_cbr1_bn -> L1_b8_cbr1_bn_top
I1212 06:18:16.676802 12086 net.cpp:150] Setting up L1_b8_cbr1_bn
I1212 06:18:16.676826 12086 net.cpp:157] Top shape: 125 16 32 32 (2048000)
I1212 06:18:16.676844 12086 net.cpp:165] Memory required for data: 697857500
I1212 06:18:16.676867 12086 layer_factory.hpp:77] Creating layer L1_b8_cbr1_scale
I1212 06:18:16.676884 12086 net.cpp:100] Creating Layer L1_b8_cbr1_scale
I1212 06:18:16.676895 12086 net.cpp:434] L1_b8_cbr1_scale <- L1_b8_cbr1_bn_top
I1212 06:18:16.676913 12086 net.cpp:395] L1_b8_cbr1_scale -> L1_b8_cbr1_bn_top (in-place)
I1212 06:18:16.676997 12086 layer_factory.hpp:77] Creating layer L1_b8_cbr1_scale
I1212 06:18:16.677188 12086 net.cpp:150] Setting up L1_b8_cbr1_scale
I1212 06:18:16.677207 12086 net.cpp:157] Top shape: 125 16 32 32 (2048000)
I1212 06:18:16.677217 12086 net.cpp:165] Memory required for data: 706049500
I1212 06:18:16.677237 12086 layer_factory.hpp:77] Creating layer L1_b8_cbr1_relu
I1212 06:18:16.677256 12086 net.cpp:100] Creating Layer L1_b8_cbr1_relu
I1212 06:18:16.677268 12086 net.cpp:434] L1_b8_cbr1_relu <- L1_b8_cbr1_bn_top
I1212 06:18:16.677289 12086 net.cpp:395] L1_b8_cbr1_relu -> L1_b8_cbr1_bn_top (in-place)
I1212 06:18:16.677309 12086 net.cpp:150] Setting up L1_b8_cbr1_relu
I1212 06:18:16.677323 12086 net.cpp:157] Top shape: 125 16 32 32 (2048000)
I1212 06:18:16.677332 12086 net.cpp:165] Memory required for data: 714241500
I1212 06:18:16.677343 12086 layer_factory.hpp:77] Creating layer L1_b8_cbr2_conv
I1212 06:18:16.677363 12086 net.cpp:100] Creating Layer L1_b8_cbr2_conv
I1212 06:18:16.677376 12086 net.cpp:434] L1_b8_cbr2_conv <- L1_b8_cbr1_bn_top
I1212 06:18:16.677398 12086 net.cpp:408] L1_b8_cbr2_conv -> L1_b8_cbr2_conv_top
I1212 06:18:16.677763 12086 net.cpp:150] Setting up L1_b8_cbr2_conv
I1212 06:18:16.677783 12086 net.cpp:157] Top shape: 125 16 32 32 (2048000)
I1212 06:18:16.677793 12086 net.cpp:165] Memory required for data: 722433500
I1212 06:18:16.677809 12086 layer_factory.hpp:77] Creating layer L1_b8_cbr2_bn
I1212 06:18:16.677826 12086 net.cpp:100] Creating Layer L1_b8_cbr2_bn
I1212 06:18:16.677839 12086 net.cpp:434] L1_b8_cbr2_bn <- L1_b8_cbr2_conv_top
I1212 06:18:16.677858 12086 net.cpp:408] L1_b8_cbr2_bn -> L1_b8_cbr2_bn_top
I1212 06:18:16.678164 12086 net.cpp:150] Setting up L1_b8_cbr2_bn
I1212 06:18:16.678184 12086 net.cpp:157] Top shape: 125 16 32 32 (2048000)
I1212 06:18:16.678192 12086 net.cpp:165] Memory required for data: 730625500
I1212 06:18:16.678215 12086 layer_factory.hpp:77] Creating layer L1_b8_cbr2_scale
I1212 06:18:16.678236 12086 net.cpp:100] Creating Layer L1_b8_cbr2_scale
I1212 06:18:16.678247 12086 net.cpp:434] L1_b8_cbr2_scale <- L1_b8_cbr2_bn_top
I1212 06:18:16.678263 12086 net.cpp:395] L1_b8_cbr2_scale -> L1_b8_cbr2_bn_top (in-place)
I1212 06:18:16.678352 12086 layer_factory.hpp:77] Creating layer L1_b8_cbr2_scale
I1212 06:18:16.678534 12086 net.cpp:150] Setting up L1_b8_cbr2_scale
I1212 06:18:16.678552 12086 net.cpp:157] Top shape: 125 16 32 32 (2048000)
I1212 06:18:16.678561 12086 net.cpp:165] Memory required for data: 738817500
I1212 06:18:16.678580 12086 layer_factory.hpp:77] Creating layer L1_b8_sum_eltwise
I1212 06:18:16.678601 12086 net.cpp:100] Creating Layer L1_b8_sum_eltwise
I1212 06:18:16.678613 12086 net.cpp:434] L1_b8_sum_eltwise <- L1_b8_cbr2_bn_top
I1212 06:18:16.678627 12086 net.cpp:434] L1_b8_sum_eltwise <- L1_b7_sum_eltwise_top_L1_b7_relu_0_split_1
I1212 06:18:16.678642 12086 net.cpp:408] L1_b8_sum_eltwise -> L1_b8_sum_eltwise_top
I1212 06:18:16.678699 12086 net.cpp:150] Setting up L1_b8_sum_eltwise
I1212 06:18:16.678719 12086 net.cpp:157] Top shape: 125 16 32 32 (2048000)
I1212 06:18:16.678728 12086 net.cpp:165] Memory required for data: 747009500
I1212 06:18:16.678738 12086 layer_factory.hpp:77] Creating layer L1_b8_relu
I1212 06:18:16.678752 12086 net.cpp:100] Creating Layer L1_b8_relu
I1212 06:18:16.678764 12086 net.cpp:434] L1_b8_relu <- L1_b8_sum_eltwise_top
I1212 06:18:16.678784 12086 net.cpp:395] L1_b8_relu -> L1_b8_sum_eltwise_top (in-place)
I1212 06:18:16.678804 12086 net.cpp:150] Setting up L1_b8_relu
I1212 06:18:16.678819 12086 net.cpp:157] Top shape: 125 16 32 32 (2048000)
I1212 06:18:16.678828 12086 net.cpp:165] Memory required for data: 755201500
I1212 06:18:16.678848 12086 layer_factory.hpp:77] Creating layer L1_b8_sum_eltwise_top_L1_b8_relu_0_split
I1212 06:18:16.678864 12086 net.cpp:100] Creating Layer L1_b8_sum_eltwise_top_L1_b8_relu_0_split
I1212 06:18:16.678874 12086 net.cpp:434] L1_b8_sum_eltwise_top_L1_b8_relu_0_split <- L1_b8_sum_eltwise_top
I1212 06:18:16.678890 12086 net.cpp:408] L1_b8_sum_eltwise_top_L1_b8_relu_0_split -> L1_b8_sum_eltwise_top_L1_b8_relu_0_split_0
I1212 06:18:16.678910 12086 net.cpp:408] L1_b8_sum_eltwise_top_L1_b8_relu_0_split -> L1_b8_sum_eltwise_top_L1_b8_relu_0_split_1
I1212 06:18:16.678992 12086 net.cpp:150] Setting up L1_b8_sum_eltwise_top_L1_b8_relu_0_split
I1212 06:18:16.679013 12086 net.cpp:157] Top shape: 125 16 32 32 (2048000)
I1212 06:18:16.679028 12086 net.cpp:157] Top shape: 125 16 32 32 (2048000)
I1212 06:18:16.679038 12086 net.cpp:165] Memory required for data: 771585500
I1212 06:18:16.679049 12086 layer_factory.hpp:77] Creating layer L1_b9_cbr1_conv
I1212 06:18:16.679069 12086 net.cpp:100] Creating Layer L1_b9_cbr1_conv
I1212 06:18:16.679090 12086 net.cpp:434] L1_b9_cbr1_conv <- L1_b8_sum_eltwise_top_L1_b8_relu_0_split_0
I1212 06:18:16.679113 12086 net.cpp:408] L1_b9_cbr1_conv -> L1_b9_cbr1_conv_top
I1212 06:18:16.679481 12086 net.cpp:150] Setting up L1_b9_cbr1_conv
I1212 06:18:16.679508 12086 net.cpp:157] Top shape: 125 16 32 32 (2048000)
I1212 06:18:16.679519 12086 net.cpp:165] Memory required for data: 779777500
I1212 06:18:16.679538 12086 layer_factory.hpp:77] Creating layer L1_b9_cbr1_bn
I1212 06:18:16.679554 12086 net.cpp:100] Creating Layer L1_b9_cbr1_bn
I1212 06:18:16.679571 12086 net.cpp:434] L1_b9_cbr1_bn <- L1_b9_cbr1_conv_top
I1212 06:18:16.679589 12086 net.cpp:408] L1_b9_cbr1_bn -> L1_b9_cbr1_bn_top
I1212 06:18:16.679865 12086 net.cpp:150] Setting up L1_b9_cbr1_bn
I1212 06:18:16.679884 12086 net.cpp:157] Top shape: 125 16 32 32 (2048000)
I1212 06:18:16.679894 12086 net.cpp:165] Memory required for data: 787969500
I1212 06:18:16.679915 12086 layer_factory.hpp:77] Creating layer L1_b9_cbr1_scale
I1212 06:18:16.679932 12086 net.cpp:100] Creating Layer L1_b9_cbr1_scale
I1212 06:18:16.679944 12086 net.cpp:434] L1_b9_cbr1_scale <- L1_b9_cbr1_bn_top
I1212 06:18:16.679965 12086 net.cpp:395] L1_b9_cbr1_scale -> L1_b9_cbr1_bn_top (in-place)
I1212 06:18:16.680054 12086 layer_factory.hpp:77] Creating layer L1_b9_cbr1_scale
I1212 06:18:16.680244 12086 net.cpp:150] Setting up L1_b9_cbr1_scale
I1212 06:18:16.680269 12086 net.cpp:157] Top shape: 125 16 32 32 (2048000)
I1212 06:18:16.680279 12086 net.cpp:165] Memory required for data: 796161500
I1212 06:18:16.680297 12086 layer_factory.hpp:77] Creating layer L1_b9_cbr1_relu
I1212 06:18:16.680313 12086 net.cpp:100] Creating Layer L1_b9_cbr1_relu
I1212 06:18:16.680325 12086 net.cpp:434] L1_b9_cbr1_relu <- L1_b9_cbr1_bn_top
I1212 06:18:16.680338 12086 net.cpp:395] L1_b9_cbr1_relu -> L1_b9_cbr1_bn_top (in-place)
I1212 06:18:16.680357 12086 net.cpp:150] Setting up L1_b9_cbr1_relu
I1212 06:18:16.680371 12086 net.cpp:157] Top shape: 125 16 32 32 (2048000)
I1212 06:18:16.680382 12086 net.cpp:165] Memory required for data: 804353500
I1212 06:18:16.680392 12086 layer_factory.hpp:77] Creating layer L1_b9_cbr2_conv
I1212 06:18:16.680416 12086 net.cpp:100] Creating Layer L1_b9_cbr2_conv
I1212 06:18:16.680430 12086 net.cpp:434] L1_b9_cbr2_conv <- L1_b9_cbr1_bn_top
I1212 06:18:16.680452 12086 net.cpp:408] L1_b9_cbr2_conv -> L1_b9_cbr2_conv_top
I1212 06:18:16.680824 12086 net.cpp:150] Setting up L1_b9_cbr2_conv
I1212 06:18:16.680842 12086 net.cpp:157] Top shape: 125 16 32 32 (2048000)
I1212 06:18:16.680852 12086 net.cpp:165] Memory required for data: 812545500
I1212 06:18:16.680871 12086 layer_factory.hpp:77] Creating layer L1_b9_cbr2_bn
I1212 06:18:16.680893 12086 net.cpp:100] Creating Layer L1_b9_cbr2_bn
I1212 06:18:16.680905 12086 net.cpp:434] L1_b9_cbr2_bn <- L1_b9_cbr2_conv_top
I1212 06:18:16.680927 12086 net.cpp:408] L1_b9_cbr2_bn -> L1_b9_cbr2_bn_top
I1212 06:18:16.681227 12086 net.cpp:150] Setting up L1_b9_cbr2_bn
I1212 06:18:16.681253 12086 net.cpp:157] Top shape: 125 16 32 32 (2048000)
I1212 06:18:16.681263 12086 net.cpp:165] Memory required for data: 820737500
I1212 06:18:16.681315 12086 layer_factory.hpp:77] Creating layer L1_b9_cbr2_scale
I1212 06:18:16.681335 12086 net.cpp:100] Creating Layer L1_b9_cbr2_scale
I1212 06:18:16.681347 12086 net.cpp:434] L1_b9_cbr2_scale <- L1_b9_cbr2_bn_top
I1212 06:18:16.681366 12086 net.cpp:395] L1_b9_cbr2_scale -> L1_b9_cbr2_bn_top (in-place)
I1212 06:18:16.681457 12086 layer_factory.hpp:77] Creating layer L1_b9_cbr2_scale
I1212 06:18:16.681643 12086 net.cpp:150] Setting up L1_b9_cbr2_scale
I1212 06:18:16.681661 12086 net.cpp:157] Top shape: 125 16 32 32 (2048000)
I1212 06:18:16.681671 12086 net.cpp:165] Memory required for data: 828929500
I1212 06:18:16.681689 12086 layer_factory.hpp:77] Creating layer L1_b9_sum_eltwise
I1212 06:18:16.681711 12086 net.cpp:100] Creating Layer L1_b9_sum_eltwise
I1212 06:18:16.681723 12086 net.cpp:434] L1_b9_sum_eltwise <- L1_b9_cbr2_bn_top
I1212 06:18:16.681737 12086 net.cpp:434] L1_b9_sum_eltwise <- L1_b8_sum_eltwise_top_L1_b8_relu_0_split_1
I1212 06:18:16.681753 12086 net.cpp:408] L1_b9_sum_eltwise -> L1_b9_sum_eltwise_top
I1212 06:18:16.681807 12086 net.cpp:150] Setting up L1_b9_sum_eltwise
I1212 06:18:16.681824 12086 net.cpp:157] Top shape: 125 16 32 32 (2048000)
I1212 06:18:16.681834 12086 net.cpp:165] Memory required for data: 837121500
I1212 06:18:16.681845 12086 layer_factory.hpp:77] Creating layer L1_b9_relu
I1212 06:18:16.681864 12086 net.cpp:100] Creating Layer L1_b9_relu
I1212 06:18:16.681876 12086 net.cpp:434] L1_b9_relu <- L1_b9_sum_eltwise_top
I1212 06:18:16.681891 12086 net.cpp:395] L1_b9_relu -> L1_b9_sum_eltwise_top (in-place)
I1212 06:18:16.681910 12086 net.cpp:150] Setting up L1_b9_relu
I1212 06:18:16.681924 12086 net.cpp:157] Top shape: 125 16 32 32 (2048000)
I1212 06:18:16.681934 12086 net.cpp:165] Memory required for data: 845313500
I1212 06:18:16.681944 12086 layer_factory.hpp:77] Creating layer L1_b9_sum_eltwise_top_L1_b9_relu_0_split
I1212 06:18:16.681965 12086 net.cpp:100] Creating Layer L1_b9_sum_eltwise_top_L1_b9_relu_0_split
I1212 06:18:16.681977 12086 net.cpp:434] L1_b9_sum_eltwise_top_L1_b9_relu_0_split <- L1_b9_sum_eltwise_top
I1212 06:18:16.681993 12086 net.cpp:408] L1_b9_sum_eltwise_top_L1_b9_relu_0_split -> L1_b9_sum_eltwise_top_L1_b9_relu_0_split_0
I1212 06:18:16.682013 12086 net.cpp:408] L1_b9_sum_eltwise_top_L1_b9_relu_0_split -> L1_b9_sum_eltwise_top_L1_b9_relu_0_split_1
I1212 06:18:16.682103 12086 net.cpp:150] Setting up L1_b9_sum_eltwise_top_L1_b9_relu_0_split
I1212 06:18:16.682122 12086 net.cpp:157] Top shape: 125 16 32 32 (2048000)
I1212 06:18:16.682135 12086 net.cpp:157] Top shape: 125 16 32 32 (2048000)
I1212 06:18:16.682144 12086 net.cpp:165] Memory required for data: 861697500
I1212 06:18:16.682154 12086 layer_factory.hpp:77] Creating layer L2_b1_cbr1_conv
I1212 06:18:16.682179 12086 net.cpp:100] Creating Layer L2_b1_cbr1_conv
I1212 06:18:16.682193 12086 net.cpp:434] L2_b1_cbr1_conv <- L1_b9_sum_eltwise_top_L1_b9_relu_0_split_0
I1212 06:18:16.682211 12086 net.cpp:408] L2_b1_cbr1_conv -> L2_b1_cbr1_conv_top
I1212 06:18:16.682590 12086 net.cpp:150] Setting up L2_b1_cbr1_conv
I1212 06:18:16.682610 12086 net.cpp:157] Top shape: 125 16 16 16 (512000)
I1212 06:18:16.682620 12086 net.cpp:165] Memory required for data: 863745500
I1212 06:18:16.682637 12086 layer_factory.hpp:77] Creating layer L2_b1_cbr1_bn
I1212 06:18:16.682659 12086 net.cpp:100] Creating Layer L2_b1_cbr1_bn
I1212 06:18:16.682672 12086 net.cpp:434] L2_b1_cbr1_bn <- L2_b1_cbr1_conv_top
I1212 06:18:16.682693 12086 net.cpp:408] L2_b1_cbr1_bn -> L2_b1_cbr1_bn_top
I1212 06:18:16.682972 12086 net.cpp:150] Setting up L2_b1_cbr1_bn
I1212 06:18:16.682991 12086 net.cpp:157] Top shape: 125 16 16 16 (512000)
I1212 06:18:16.683001 12086 net.cpp:165] Memory required for data: 865793500
I1212 06:18:16.683022 12086 layer_factory.hpp:77] Creating layer L2_b1_cbr1_scale
I1212 06:18:16.683039 12086 net.cpp:100] Creating Layer L2_b1_cbr1_scale
I1212 06:18:16.683051 12086 net.cpp:434] L2_b1_cbr1_scale <- L2_b1_cbr1_bn_top
I1212 06:18:16.683082 12086 net.cpp:395] L2_b1_cbr1_scale -> L2_b1_cbr1_bn_top (in-place)
I1212 06:18:16.683182 12086 layer_factory.hpp:77] Creating layer L2_b1_cbr1_scale
I1212 06:18:16.683363 12086 net.cpp:150] Setting up L2_b1_cbr1_scale
I1212 06:18:16.683382 12086 net.cpp:157] Top shape: 125 16 16 16 (512000)
I1212 06:18:16.683392 12086 net.cpp:165] Memory required for data: 867841500
I1212 06:18:16.683411 12086 layer_factory.hpp:77] Creating layer L2_b1_cbr1_relu
I1212 06:18:16.683426 12086 net.cpp:100] Creating Layer L2_b1_cbr1_relu
I1212 06:18:16.683437 12086 net.cpp:434] L2_b1_cbr1_relu <- L2_b1_cbr1_bn_top
I1212 06:18:16.683457 12086 net.cpp:395] L2_b1_cbr1_relu -> L2_b1_cbr1_bn_top (in-place)
I1212 06:18:16.683477 12086 net.cpp:150] Setting up L2_b1_cbr1_relu
I1212 06:18:16.683491 12086 net.cpp:157] Top shape: 125 16 16 16 (512000)
I1212 06:18:16.683501 12086 net.cpp:165] Memory required for data: 869889500
I1212 06:18:16.683512 12086 layer_factory.hpp:77] Creating layer L2_b1_cbr2_conv
I1212 06:18:16.683537 12086 net.cpp:100] Creating Layer L2_b1_cbr2_conv
I1212 06:18:16.683550 12086 net.cpp:434] L2_b1_cbr2_conv <- L2_b1_cbr1_bn_top
I1212 06:18:16.683569 12086 net.cpp:408] L2_b1_cbr2_conv -> L2_b1_cbr2_conv_top
I1212 06:18:16.683938 12086 net.cpp:150] Setting up L2_b1_cbr2_conv
I1212 06:18:16.683956 12086 net.cpp:157] Top shape: 125 16 16 16 (512000)
I1212 06:18:16.683966 12086 net.cpp:165] Memory required for data: 871937500
I1212 06:18:16.683984 12086 layer_factory.hpp:77] Creating layer L2_b1_cbr2_bn
I1212 06:18:16.684010 12086 net.cpp:100] Creating Layer L2_b1_cbr2_bn
I1212 06:18:16.684022 12086 net.cpp:434] L2_b1_cbr2_bn <- L2_b1_cbr2_conv_top
I1212 06:18:16.684041 12086 net.cpp:408] L2_b1_cbr2_bn -> L2_b1_cbr2_bn_top
I1212 06:18:16.684335 12086 net.cpp:150] Setting up L2_b1_cbr2_bn
I1212 06:18:16.684357 12086 net.cpp:157] Top shape: 125 16 16 16 (512000)
I1212 06:18:16.684367 12086 net.cpp:165] Memory required for data: 873985500
I1212 06:18:16.684389 12086 layer_factory.hpp:77] Creating layer L2_b1_cbr2_scale
I1212 06:18:16.684406 12086 net.cpp:100] Creating Layer L2_b1_cbr2_scale
I1212 06:18:16.684418 12086 net.cpp:434] L2_b1_cbr2_scale <- L2_b1_cbr2_bn_top
I1212 06:18:16.684434 12086 net.cpp:395] L2_b1_cbr2_scale -> L2_b1_cbr2_bn_top (in-place)
I1212 06:18:16.684521 12086 layer_factory.hpp:77] Creating layer L2_b1_cbr2_scale
I1212 06:18:16.684708 12086 net.cpp:150] Setting up L2_b1_cbr2_scale
I1212 06:18:16.684726 12086 net.cpp:157] Top shape: 125 16 16 16 (512000)
I1212 06:18:16.684736 12086 net.cpp:165] Memory required for data: 876033500
I1212 06:18:16.684756 12086 layer_factory.hpp:77] Creating layer L2_b1_pool
I1212 06:18:16.684775 12086 net.cpp:100] Creating Layer L2_b1_pool
I1212 06:18:16.684787 12086 net.cpp:434] L2_b1_pool <- L1_b9_sum_eltwise_top_L1_b9_relu_0_split_1
I1212 06:18:16.684809 12086 net.cpp:408] L2_b1_pool -> L2_b1_pool
I1212 06:18:16.684945 12086 net.cpp:150] Setting up L2_b1_pool
I1212 06:18:16.684965 12086 net.cpp:157] Top shape: 125 16 16 16 (512000)
I1212 06:18:16.684975 12086 net.cpp:165] Memory required for data: 878081500
I1212 06:18:16.684985 12086 layer_factory.hpp:77] Creating layer L2_b1_sum_eltwise
I1212 06:18:16.685008 12086 net.cpp:100] Creating Layer L2_b1_sum_eltwise
I1212 06:18:16.685019 12086 net.cpp:434] L2_b1_sum_eltwise <- L2_b1_cbr2_bn_top
I1212 06:18:16.685034 12086 net.cpp:434] L2_b1_sum_eltwise <- L2_b1_pool
I1212 06:18:16.685050 12086 net.cpp:408] L2_b1_sum_eltwise -> L2_b1_sum_eltwise_top
I1212 06:18:16.685111 12086 net.cpp:150] Setting up L2_b1_sum_eltwise
I1212 06:18:16.685132 12086 net.cpp:157] Top shape: 125 16 16 16 (512000)
I1212 06:18:16.685142 12086 net.cpp:165] Memory required for data: 880129500
I1212 06:18:16.685153 12086 layer_factory.hpp:77] Creating layer L2_b1_relu
I1212 06:18:16.685168 12086 net.cpp:100] Creating Layer L2_b1_relu
I1212 06:18:16.685179 12086 net.cpp:434] L2_b1_relu <- L2_b1_sum_eltwise_top
I1212 06:18:16.685199 12086 net.cpp:395] L2_b1_relu -> L2_b1_sum_eltwise_top (in-place)
I1212 06:18:16.685227 12086 net.cpp:150] Setting up L2_b1_relu
I1212 06:18:16.685243 12086 net.cpp:157] Top shape: 125 16 16 16 (512000)
I1212 06:18:16.685253 12086 net.cpp:165] Memory required for data: 882177500
I1212 06:18:16.685263 12086 layer_factory.hpp:77] Creating layer L2_b1_zeros
I1212 06:18:16.685338 12086 net.cpp:100] Creating Layer L2_b1_zeros
I1212 06:18:16.685361 12086 net.cpp:408] L2_b1_zeros -> L2_b1_zeros
I1212 06:18:16.687777 12086 net.cpp:150] Setting up L2_b1_zeros
I1212 06:18:16.687800 12086 net.cpp:157] Top shape: 125 16 16 16 (512000)
I1212 06:18:16.687810 12086 net.cpp:165] Memory required for data: 884225500
I1212 06:18:16.687821 12086 layer_factory.hpp:77] Creating layer L2_b1_concat0
I1212 06:18:16.687844 12086 net.cpp:100] Creating Layer L2_b1_concat0
I1212 06:18:16.687857 12086 net.cpp:434] L2_b1_concat0 <- L2_b1_sum_eltwise_top
I1212 06:18:16.687871 12086 net.cpp:434] L2_b1_concat0 <- L2_b1_zeros
I1212 06:18:16.687887 12086 net.cpp:408] L2_b1_concat0 -> L2_b1_concat0
I1212 06:18:16.687958 12086 net.cpp:150] Setting up L2_b1_concat0
I1212 06:18:16.687978 12086 net.cpp:157] Top shape: 125 32 16 16 (1024000)
I1212 06:18:16.687988 12086 net.cpp:165] Memory required for data: 888321500
I1212 06:18:16.687999 12086 layer_factory.hpp:77] Creating layer L2_b1_concat0_L2_b1_concat0_0_split
I1212 06:18:16.688014 12086 net.cpp:100] Creating Layer L2_b1_concat0_L2_b1_concat0_0_split
I1212 06:18:16.688026 12086 net.cpp:434] L2_b1_concat0_L2_b1_concat0_0_split <- L2_b1_concat0
I1212 06:18:16.688047 12086 net.cpp:408] L2_b1_concat0_L2_b1_concat0_0_split -> L2_b1_concat0_L2_b1_concat0_0_split_0
I1212 06:18:16.688069 12086 net.cpp:408] L2_b1_concat0_L2_b1_concat0_0_split -> L2_b1_concat0_L2_b1_concat0_0_split_1
I1212 06:18:16.688163 12086 net.cpp:150] Setting up L2_b1_concat0_L2_b1_concat0_0_split
I1212 06:18:16.688189 12086 net.cpp:157] Top shape: 125 32 16 16 (1024000)
I1212 06:18:16.688204 12086 net.cpp:157] Top shape: 125 32 16 16 (1024000)
I1212 06:18:16.688212 12086 net.cpp:165] Memory required for data: 896513500
I1212 06:18:16.688223 12086 layer_factory.hpp:77] Creating layer L2_b2_cbr1_conv
I1212 06:18:16.688243 12086 net.cpp:100] Creating Layer L2_b2_cbr1_conv
I1212 06:18:16.688257 12086 net.cpp:434] L2_b2_cbr1_conv <- L2_b1_concat0_L2_b1_concat0_0_split_0
I1212 06:18:16.688277 12086 net.cpp:408] L2_b2_cbr1_conv -> L2_b2_cbr1_conv_top
I1212 06:18:16.689798 12086 net.cpp:150] Setting up L2_b2_cbr1_conv
I1212 06:18:16.689821 12086 net.cpp:157] Top shape: 125 32 16 16 (1024000)
I1212 06:18:16.689831 12086 net.cpp:165] Memory required for data: 900609500
I1212 06:18:16.689848 12086 layer_factory.hpp:77] Creating layer L2_b2_cbr1_bn
I1212 06:18:16.689870 12086 net.cpp:100] Creating Layer L2_b2_cbr1_bn
I1212 06:18:16.689883 12086 net.cpp:434] L2_b2_cbr1_bn <- L2_b2_cbr1_conv_top
I1212 06:18:16.689904 12086 net.cpp:408] L2_b2_cbr1_bn -> L2_b2_cbr1_bn_top
I1212 06:18:16.690202 12086 net.cpp:150] Setting up L2_b2_cbr1_bn
I1212 06:18:16.690222 12086 net.cpp:157] Top shape: 125 32 16 16 (1024000)
I1212 06:18:16.690232 12086 net.cpp:165] Memory required for data: 904705500
I1212 06:18:16.690253 12086 layer_factory.hpp:77] Creating layer L2_b2_cbr1_scale
I1212 06:18:16.690269 12086 net.cpp:100] Creating Layer L2_b2_cbr1_scale
I1212 06:18:16.690281 12086 net.cpp:434] L2_b2_cbr1_scale <- L2_b2_cbr1_bn_top
I1212 06:18:16.690297 12086 net.cpp:395] L2_b2_cbr1_scale -> L2_b2_cbr1_bn_top (in-place)
I1212 06:18:16.690392 12086 layer_factory.hpp:77] Creating layer L2_b2_cbr1_scale
I1212 06:18:16.690580 12086 net.cpp:150] Setting up L2_b2_cbr1_scale
I1212 06:18:16.690599 12086 net.cpp:157] Top shape: 125 32 16 16 (1024000)
I1212 06:18:16.690609 12086 net.cpp:165] Memory required for data: 908801500
I1212 06:18:16.690629 12086 layer_factory.hpp:77] Creating layer L2_b2_cbr1_relu
I1212 06:18:16.690649 12086 net.cpp:100] Creating Layer L2_b2_cbr1_relu
I1212 06:18:16.690661 12086 net.cpp:434] L2_b2_cbr1_relu <- L2_b2_cbr1_bn_top
I1212 06:18:16.690676 12086 net.cpp:395] L2_b2_cbr1_relu -> L2_b2_cbr1_bn_top (in-place)
I1212 06:18:16.690707 12086 net.cpp:150] Setting up L2_b2_cbr1_relu
I1212 06:18:16.690723 12086 net.cpp:157] Top shape: 125 32 16 16 (1024000)
I1212 06:18:16.690733 12086 net.cpp:165] Memory required for data: 912897500
I1212 06:18:16.690744 12086 layer_factory.hpp:77] Creating layer L2_b2_cbr2_conv
I1212 06:18:16.690769 12086 net.cpp:100] Creating Layer L2_b2_cbr2_conv
I1212 06:18:16.690783 12086 net.cpp:434] L2_b2_cbr2_conv <- L2_b2_cbr1_bn_top
I1212 06:18:16.690801 12086 net.cpp:408] L2_b2_cbr2_conv -> L2_b2_cbr2_conv_top
I1212 06:18:16.691313 12086 net.cpp:150] Setting up L2_b2_cbr2_conv
I1212 06:18:16.691334 12086 net.cpp:157] Top shape: 125 32 16 16 (1024000)
I1212 06:18:16.691344 12086 net.cpp:165] Memory required for data: 916993500
I1212 06:18:16.691360 12086 layer_factory.hpp:77] Creating layer L2_b2_cbr2_bn
I1212 06:18:16.691382 12086 net.cpp:100] Creating Layer L2_b2_cbr2_bn
I1212 06:18:16.691395 12086 net.cpp:434] L2_b2_cbr2_bn <- L2_b2_cbr2_conv_top
I1212 06:18:16.691412 12086 net.cpp:408] L2_b2_cbr2_bn -> L2_b2_cbr2_bn_top
I1212 06:18:16.691704 12086 net.cpp:150] Setting up L2_b2_cbr2_bn
I1212 06:18:16.691725 12086 net.cpp:157] Top shape: 125 32 16 16 (1024000)
I1212 06:18:16.691736 12086 net.cpp:165] Memory required for data: 921089500
I1212 06:18:16.691758 12086 layer_factory.hpp:77] Creating layer L2_b2_cbr2_scale
I1212 06:18:16.691776 12086 net.cpp:100] Creating Layer L2_b2_cbr2_scale
I1212 06:18:16.691787 12086 net.cpp:434] L2_b2_cbr2_scale <- L2_b2_cbr2_bn_top
I1212 06:18:16.691803 12086 net.cpp:395] L2_b2_cbr2_scale -> L2_b2_cbr2_bn_top (in-place)
I1212 06:18:16.691896 12086 layer_factory.hpp:77] Creating layer L2_b2_cbr2_scale
I1212 06:18:16.692088 12086 net.cpp:150] Setting up L2_b2_cbr2_scale
I1212 06:18:16.692107 12086 net.cpp:157] Top shape: 125 32 16 16 (1024000)
I1212 06:18:16.692117 12086 net.cpp:165] Memory required for data: 925185500
I1212 06:18:16.692137 12086 layer_factory.hpp:77] Creating layer L2_b2_sum_eltwise
I1212 06:18:16.692153 12086 net.cpp:100] Creating Layer L2_b2_sum_eltwise
I1212 06:18:16.692165 12086 net.cpp:434] L2_b2_sum_eltwise <- L2_b2_cbr2_bn_top
I1212 06:18:16.692178 12086 net.cpp:434] L2_b2_sum_eltwise <- L2_b1_concat0_L2_b1_concat0_0_split_1
I1212 06:18:16.692200 12086 net.cpp:408] L2_b2_sum_eltwise -> L2_b2_sum_eltwise_top
I1212 06:18:16.692247 12086 net.cpp:150] Setting up L2_b2_sum_eltwise
I1212 06:18:16.692265 12086 net.cpp:157] Top shape: 125 32 16 16 (1024000)
I1212 06:18:16.692275 12086 net.cpp:165] Memory required for data: 929281500
I1212 06:18:16.692286 12086 layer_factory.hpp:77] Creating layer L2_b2_relu
I1212 06:18:16.692306 12086 net.cpp:100] Creating Layer L2_b2_relu
I1212 06:18:16.692317 12086 net.cpp:434] L2_b2_relu <- L2_b2_sum_eltwise_top
I1212 06:18:16.692332 12086 net.cpp:395] L2_b2_relu -> L2_b2_sum_eltwise_top (in-place)
I1212 06:18:16.692350 12086 net.cpp:150] Setting up L2_b2_relu
I1212 06:18:16.692366 12086 net.cpp:157] Top shape: 125 32 16 16 (1024000)
I1212 06:18:16.692375 12086 net.cpp:165] Memory required for data: 933377500
I1212 06:18:16.692385 12086 layer_factory.hpp:77] Creating layer L2_b2_sum_eltwise_top_L2_b2_relu_0_split
I1212 06:18:16.692399 12086 net.cpp:100] Creating Layer L2_b2_sum_eltwise_top_L2_b2_relu_0_split
I1212 06:18:16.692410 12086 net.cpp:434] L2_b2_sum_eltwise_top_L2_b2_relu_0_split <- L2_b2_sum_eltwise_top
I1212 06:18:16.692425 12086 net.cpp:408] L2_b2_sum_eltwise_top_L2_b2_relu_0_split -> L2_b2_sum_eltwise_top_L2_b2_relu_0_split_0
I1212 06:18:16.692445 12086 net.cpp:408] L2_b2_sum_eltwise_top_L2_b2_relu_0_split -> L2_b2_sum_eltwise_top_L2_b2_relu_0_split_1
I1212 06:18:16.692529 12086 net.cpp:150] Setting up L2_b2_sum_eltwise_top_L2_b2_relu_0_split
I1212 06:18:16.692548 12086 net.cpp:157] Top shape: 125 32 16 16 (1024000)
I1212 06:18:16.692561 12086 net.cpp:157] Top shape: 125 32 16 16 (1024000)
I1212 06:18:16.692570 12086 net.cpp:165] Memory required for data: 941569500
I1212 06:18:16.692580 12086 layer_factory.hpp:77] Creating layer L2_b3_cbr1_conv
I1212 06:18:16.692605 12086 net.cpp:100] Creating Layer L2_b3_cbr1_conv
I1212 06:18:16.692627 12086 net.cpp:434] L2_b3_cbr1_conv <- L2_b2_sum_eltwise_top_L2_b2_relu_0_split_0
I1212 06:18:16.692648 12086 net.cpp:408] L2_b3_cbr1_conv -> L2_b3_cbr1_conv_top
I1212 06:18:16.693166 12086 net.cpp:150] Setting up L2_b3_cbr1_conv
I1212 06:18:16.693186 12086 net.cpp:157] Top shape: 125 32 16 16 (1024000)
I1212 06:18:16.693197 12086 net.cpp:165] Memory required for data: 945665500
I1212 06:18:16.693215 12086 layer_factory.hpp:77] Creating layer L2_b3_cbr1_bn
I1212 06:18:16.693238 12086 net.cpp:100] Creating Layer L2_b3_cbr1_bn
I1212 06:18:16.693249 12086 net.cpp:434] L2_b3_cbr1_bn <- L2_b3_cbr1_conv_top
I1212 06:18:16.693271 12086 net.cpp:408] L2_b3_cbr1_bn -> L2_b3_cbr1_bn_top
I1212 06:18:16.693550 12086 net.cpp:150] Setting up L2_b3_cbr1_bn
I1212 06:18:16.693569 12086 net.cpp:157] Top shape: 125 32 16 16 (1024000)
I1212 06:18:16.693578 12086 net.cpp:165] Memory required for data: 949761500
I1212 06:18:16.693599 12086 layer_factory.hpp:77] Creating layer L2_b3_cbr1_scale
I1212 06:18:16.693616 12086 net.cpp:100] Creating Layer L2_b3_cbr1_scale
I1212 06:18:16.693627 12086 net.cpp:434] L2_b3_cbr1_scale <- L2_b3_cbr1_bn_top
I1212 06:18:16.693642 12086 net.cpp:395] L2_b3_cbr1_scale -> L2_b3_cbr1_bn_top (in-place)
I1212 06:18:16.693737 12086 layer_factory.hpp:77] Creating layer L2_b3_cbr1_scale
I1212 06:18:16.693923 12086 net.cpp:150] Setting up L2_b3_cbr1_scale
I1212 06:18:16.693943 12086 net.cpp:157] Top shape: 125 32 16 16 (1024000)
I1212 06:18:16.693951 12086 net.cpp:165] Memory required for data: 953857500
I1212 06:18:16.693970 12086 layer_factory.hpp:77] Creating layer L2_b3_cbr1_relu
I1212 06:18:16.693986 12086 net.cpp:100] Creating Layer L2_b3_cbr1_relu
I1212 06:18:16.693997 12086 net.cpp:434] L2_b3_cbr1_relu <- L2_b3_cbr1_bn_top
I1212 06:18:16.694017 12086 net.cpp:395] L2_b3_cbr1_relu -> L2_b3_cbr1_bn_top (in-place)
I1212 06:18:16.694036 12086 net.cpp:150] Setting up L2_b3_cbr1_relu
I1212 06:18:16.694051 12086 net.cpp:157] Top shape: 125 32 16 16 (1024000)
I1212 06:18:16.694061 12086 net.cpp:165] Memory required for data: 957953500
I1212 06:18:16.694078 12086 layer_factory.hpp:77] Creating layer L2_b3_cbr2_conv
I1212 06:18:16.694104 12086 net.cpp:100] Creating Layer L2_b3_cbr2_conv
I1212 06:18:16.694118 12086 net.cpp:434] L2_b3_cbr2_conv <- L2_b3_cbr1_bn_top
I1212 06:18:16.694135 12086 net.cpp:408] L2_b3_cbr2_conv -> L2_b3_cbr2_conv_top
I1212 06:18:16.694645 12086 net.cpp:150] Setting up L2_b3_cbr2_conv
I1212 06:18:16.694665 12086 net.cpp:157] Top shape: 125 32 16 16 (1024000)
I1212 06:18:16.694675 12086 net.cpp:165] Memory required for data: 962049500
I1212 06:18:16.694694 12086 layer_factory.hpp:77] Creating layer L2_b3_cbr2_bn
I1212 06:18:16.694715 12086 net.cpp:100] Creating Layer L2_b3_cbr2_bn
I1212 06:18:16.694727 12086 net.cpp:434] L2_b3_cbr2_bn <- L2_b3_cbr2_conv_top
I1212 06:18:16.694743 12086 net.cpp:408] L2_b3_cbr2_bn -> L2_b3_cbr2_bn_top
I1212 06:18:16.695034 12086 net.cpp:150] Setting up L2_b3_cbr2_bn
I1212 06:18:16.695056 12086 net.cpp:157] Top shape: 125 32 16 16 (1024000)
I1212 06:18:16.695067 12086 net.cpp:165] Memory required for data: 966145500
I1212 06:18:16.695097 12086 layer_factory.hpp:77] Creating layer L2_b3_cbr2_scale
I1212 06:18:16.695114 12086 net.cpp:100] Creating Layer L2_b3_cbr2_scale
I1212 06:18:16.695127 12086 net.cpp:434] L2_b3_cbr2_scale <- L2_b3_cbr2_bn_top
I1212 06:18:16.695142 12086 net.cpp:395] L2_b3_cbr2_scale -> L2_b3_cbr2_bn_top (in-place)
I1212 06:18:16.695230 12086 layer_factory.hpp:77] Creating layer L2_b3_cbr2_scale
I1212 06:18:16.695420 12086 net.cpp:150] Setting up L2_b3_cbr2_scale
I1212 06:18:16.695438 12086 net.cpp:157] Top shape: 125 32 16 16 (1024000)
I1212 06:18:16.695447 12086 net.cpp:165] Memory required for data: 970241500
I1212 06:18:16.695466 12086 layer_factory.hpp:77] Creating layer L2_b3_sum_eltwise
I1212 06:18:16.695483 12086 net.cpp:100] Creating Layer L2_b3_sum_eltwise
I1212 06:18:16.695494 12086 net.cpp:434] L2_b3_sum_eltwise <- L2_b3_cbr2_bn_top
I1212 06:18:16.695508 12086 net.cpp:434] L2_b3_sum_eltwise <- L2_b2_sum_eltwise_top_L2_b2_relu_0_split_1
I1212 06:18:16.695539 12086 net.cpp:408] L2_b3_sum_eltwise -> L2_b3_sum_eltwise_top
I1212 06:18:16.695590 12086 net.cpp:150] Setting up L2_b3_sum_eltwise
I1212 06:18:16.695608 12086 net.cpp:157] Top shape: 125 32 16 16 (1024000)
I1212 06:18:16.695617 12086 net.cpp:165] Memory required for data: 974337500
I1212 06:18:16.695628 12086 layer_factory.hpp:77] Creating layer L2_b3_relu
I1212 06:18:16.695662 12086 net.cpp:100] Creating Layer L2_b3_relu
I1212 06:18:16.695675 12086 net.cpp:434] L2_b3_relu <- L2_b3_sum_eltwise_top
I1212 06:18:16.695696 12086 net.cpp:395] L2_b3_relu -> L2_b3_sum_eltwise_top (in-place)
I1212 06:18:16.695716 12086 net.cpp:150] Setting up L2_b3_relu
I1212 06:18:16.695731 12086 net.cpp:157] Top shape: 125 32 16 16 (1024000)
I1212 06:18:16.695741 12086 net.cpp:165] Memory required for data: 978433500
I1212 06:18:16.695752 12086 layer_factory.hpp:77] Creating layer L2_b3_sum_eltwise_top_L2_b3_relu_0_split
I1212 06:18:16.695766 12086 net.cpp:100] Creating Layer L2_b3_sum_eltwise_top_L2_b3_relu_0_split
I1212 06:18:16.695777 12086 net.cpp:434] L2_b3_sum_eltwise_top_L2_b3_relu_0_split <- L2_b3_sum_eltwise_top
I1212 06:18:16.695793 12086 net.cpp:408] L2_b3_sum_eltwise_top_L2_b3_relu_0_split -> L2_b3_sum_eltwise_top_L2_b3_relu_0_split_0
I1212 06:18:16.695814 12086 net.cpp:408] L2_b3_sum_eltwise_top_L2_b3_relu_0_split -> L2_b3_sum_eltwise_top_L2_b3_relu_0_split_1
I1212 06:18:16.695900 12086 net.cpp:150] Setting up L2_b3_sum_eltwise_top_L2_b3_relu_0_split
I1212 06:18:16.695919 12086 net.cpp:157] Top shape: 125 32 16 16 (1024000)
I1212 06:18:16.695933 12086 net.cpp:157] Top shape: 125 32 16 16 (1024000)
I1212 06:18:16.695942 12086 net.cpp:165] Memory required for data: 986625500
I1212 06:18:16.695953 12086 layer_factory.hpp:77] Creating layer L2_b4_cbr1_conv
I1212 06:18:16.695974 12086 net.cpp:100] Creating Layer L2_b4_cbr1_conv
I1212 06:18:16.695986 12086 net.cpp:434] L2_b4_cbr1_conv <- L2_b3_sum_eltwise_top_L2_b3_relu_0_split_0
I1212 06:18:16.696009 12086 net.cpp:408] L2_b4_cbr1_conv -> L2_b4_cbr1_conv_top
I1212 06:18:16.696537 12086 net.cpp:150] Setting up L2_b4_cbr1_conv
I1212 06:18:16.696557 12086 net.cpp:157] Top shape: 125 32 16 16 (1024000)
I1212 06:18:16.696568 12086 net.cpp:165] Memory required for data: 990721500
I1212 06:18:16.696585 12086 layer_factory.hpp:77] Creating layer L2_b4_cbr1_bn
I1212 06:18:16.696602 12086 net.cpp:100] Creating Layer L2_b4_cbr1_bn
I1212 06:18:16.696614 12086 net.cpp:434] L2_b4_cbr1_bn <- L2_b4_cbr1_conv_top
I1212 06:18:16.696635 12086 net.cpp:408] L2_b4_cbr1_bn -> L2_b4_cbr1_bn_top
I1212 06:18:16.696923 12086 net.cpp:150] Setting up L2_b4_cbr1_bn
I1212 06:18:16.696941 12086 net.cpp:157] Top shape: 125 32 16 16 (1024000)
I1212 06:18:16.696951 12086 net.cpp:165] Memory required for data: 994817500
I1212 06:18:16.696974 12086 layer_factory.hpp:77] Creating layer L2_b4_cbr1_scale
I1212 06:18:16.696995 12086 net.cpp:100] Creating Layer L2_b4_cbr1_scale
I1212 06:18:16.697007 12086 net.cpp:434] L2_b4_cbr1_scale <- L2_b4_cbr1_bn_top
I1212 06:18:16.697023 12086 net.cpp:395] L2_b4_cbr1_scale -> L2_b4_cbr1_bn_top (in-place)
I1212 06:18:16.697119 12086 layer_factory.hpp:77] Creating layer L2_b4_cbr1_scale
I1212 06:18:16.697304 12086 net.cpp:150] Setting up L2_b4_cbr1_scale
I1212 06:18:16.697322 12086 net.cpp:157] Top shape: 125 32 16 16 (1024000)
I1212 06:18:16.697332 12086 net.cpp:165] Memory required for data: 998913500
I1212 06:18:16.697350 12086 layer_factory.hpp:77] Creating layer L2_b4_cbr1_relu
I1212 06:18:16.697369 12086 net.cpp:100] Creating Layer L2_b4_cbr1_relu
I1212 06:18:16.697381 12086 net.cpp:434] L2_b4_cbr1_relu <- L2_b4_cbr1_bn_top
I1212 06:18:16.697396 12086 net.cpp:395] L2_b4_cbr1_relu -> L2_b4_cbr1_bn_top (in-place)
I1212 06:18:16.697414 12086 net.cpp:150] Setting up L2_b4_cbr1_relu
I1212 06:18:16.697429 12086 net.cpp:157] Top shape: 125 32 16 16 (1024000)
I1212 06:18:16.697439 12086 net.cpp:165] Memory required for data: 1003009500
I1212 06:18:16.697449 12086 layer_factory.hpp:77] Creating layer L2_b4_cbr2_conv
I1212 06:18:16.697475 12086 net.cpp:100] Creating Layer L2_b4_cbr2_conv
I1212 06:18:16.697497 12086 net.cpp:434] L2_b4_cbr2_conv <- L2_b4_cbr1_bn_top
I1212 06:18:16.697522 12086 net.cpp:408] L2_b4_cbr2_conv -> L2_b4_cbr2_conv_top
I1212 06:18:16.698036 12086 net.cpp:150] Setting up L2_b4_cbr2_conv
I1212 06:18:16.698056 12086 net.cpp:157] Top shape: 125 32 16 16 (1024000)
I1212 06:18:16.698066 12086 net.cpp:165] Memory required for data: 1007105500
I1212 06:18:16.698092 12086 layer_factory.hpp:77] Creating layer L2_b4_cbr2_bn
I1212 06:18:16.698109 12086 net.cpp:100] Creating Layer L2_b4_cbr2_bn
I1212 06:18:16.698120 12086 net.cpp:434] L2_b4_cbr2_bn <- L2_b4_cbr2_conv_top
I1212 06:18:16.698144 12086 net.cpp:408] L2_b4_cbr2_bn -> L2_b4_cbr2_bn_top
I1212 06:18:16.698448 12086 net.cpp:150] Setting up L2_b4_cbr2_bn
I1212 06:18:16.698468 12086 net.cpp:157] Top shape: 125 32 16 16 (1024000)
I1212 06:18:16.698477 12086 net.cpp:165] Memory required for data: 1011201500
I1212 06:18:16.698499 12086 layer_factory.hpp:77] Creating layer L2_b4_cbr2_scale
I1212 06:18:16.698521 12086 net.cpp:100] Creating Layer L2_b4_cbr2_scale
I1212 06:18:16.698534 12086 net.cpp:434] L2_b4_cbr2_scale <- L2_b4_cbr2_bn_top
I1212 06:18:16.698549 12086 net.cpp:395] L2_b4_cbr2_scale -> L2_b4_cbr2_bn_top (in-place)
I1212 06:18:16.698639 12086 layer_factory.hpp:77] Creating layer L2_b4_cbr2_scale
I1212 06:18:16.698827 12086 net.cpp:150] Setting up L2_b4_cbr2_scale
I1212 06:18:16.698846 12086 net.cpp:157] Top shape: 125 32 16 16 (1024000)
I1212 06:18:16.698856 12086 net.cpp:165] Memory required for data: 1015297500
I1212 06:18:16.698874 12086 layer_factory.hpp:77] Creating layer L2_b4_sum_eltwise
I1212 06:18:16.698892 12086 net.cpp:100] Creating Layer L2_b4_sum_eltwise
I1212 06:18:16.698904 12086 net.cpp:434] L2_b4_sum_eltwise <- L2_b4_cbr2_bn_top
I1212 06:18:16.698921 12086 net.cpp:434] L2_b4_sum_eltwise <- L2_b3_sum_eltwise_top_L2_b3_relu_0_split_1
I1212 06:18:16.698940 12086 net.cpp:408] L2_b4_sum_eltwise -> L2_b4_sum_eltwise_top
I1212 06:18:16.698985 12086 net.cpp:150] Setting up L2_b4_sum_eltwise
I1212 06:18:16.699008 12086 net.cpp:157] Top shape: 125 32 16 16 (1024000)
I1212 06:18:16.699019 12086 net.cpp:165] Memory required for data: 1019393500
I1212 06:18:16.699029 12086 layer_factory.hpp:77] Creating layer L2_b4_relu
I1212 06:18:16.699044 12086 net.cpp:100] Creating Layer L2_b4_relu
I1212 06:18:16.699055 12086 net.cpp:434] L2_b4_relu <- L2_b4_sum_eltwise_top
I1212 06:18:16.699076 12086 net.cpp:395] L2_b4_relu -> L2_b4_sum_eltwise_top (in-place)
I1212 06:18:16.699097 12086 net.cpp:150] Setting up L2_b4_relu
I1212 06:18:16.699112 12086 net.cpp:157] Top shape: 125 32 16 16 (1024000)
I1212 06:18:16.699122 12086 net.cpp:165] Memory required for data: 1023489500
I1212 06:18:16.699131 12086 layer_factory.hpp:77] Creating layer L2_b4_sum_eltwise_top_L2_b4_relu_0_split
I1212 06:18:16.699151 12086 net.cpp:100] Creating Layer L2_b4_sum_eltwise_top_L2_b4_relu_0_split
I1212 06:18:16.699163 12086 net.cpp:434] L2_b4_sum_eltwise_top_L2_b4_relu_0_split <- L2_b4_sum_eltwise_top
I1212 06:18:16.699178 12086 net.cpp:408] L2_b4_sum_eltwise_top_L2_b4_relu_0_split -> L2_b4_sum_eltwise_top_L2_b4_relu_0_split_0
I1212 06:18:16.699199 12086 net.cpp:408] L2_b4_sum_eltwise_top_L2_b4_relu_0_split -> L2_b4_sum_eltwise_top_L2_b4_relu_0_split_1
I1212 06:18:16.699280 12086 net.cpp:150] Setting up L2_b4_sum_eltwise_top_L2_b4_relu_0_split
I1212 06:18:16.699298 12086 net.cpp:157] Top shape: 125 32 16 16 (1024000)
I1212 06:18:16.699311 12086 net.cpp:157] Top shape: 125 32 16 16 (1024000)
I1212 06:18:16.699319 12086 net.cpp:165] Memory required for data: 1031681500
I1212 06:18:16.699329 12086 layer_factory.hpp:77] Creating layer L2_b5_cbr1_conv
I1212 06:18:16.699349 12086 net.cpp:100] Creating Layer L2_b5_cbr1_conv
I1212 06:18:16.699362 12086 net.cpp:434] L2_b5_cbr1_conv <- L2_b4_sum_eltwise_top_L2_b4_relu_0_split_0
I1212 06:18:16.699385 12086 net.cpp:408] L2_b5_cbr1_conv -> L2_b5_cbr1_conv_top
I1212 06:18:16.699903 12086 net.cpp:150] Setting up L2_b5_cbr1_conv
I1212 06:18:16.699923 12086 net.cpp:157] Top shape: 125 32 16 16 (1024000)
I1212 06:18:16.699941 12086 net.cpp:165] Memory required for data: 1035777500
I1212 06:18:16.699960 12086 layer_factory.hpp:77] Creating layer L2_b5_cbr1_bn
I1212 06:18:16.699977 12086 net.cpp:100] Creating Layer L2_b5_cbr1_bn
I1212 06:18:16.699990 12086 net.cpp:434] L2_b5_cbr1_bn <- L2_b5_cbr1_conv_top
I1212 06:18:16.700011 12086 net.cpp:408] L2_b5_cbr1_bn -> L2_b5_cbr1_bn_top
I1212 06:18:16.700316 12086 net.cpp:150] Setting up L2_b5_cbr1_bn
I1212 06:18:16.700336 12086 net.cpp:157] Top shape: 125 32 16 16 (1024000)
I1212 06:18:16.700345 12086 net.cpp:165] Memory required for data: 1039873500
I1212 06:18:16.700366 12086 layer_factory.hpp:77] Creating layer L2_b5_cbr1_scale
I1212 06:18:16.700387 12086 net.cpp:100] Creating Layer L2_b5_cbr1_scale
I1212 06:18:16.700400 12086 net.cpp:434] L2_b5_cbr1_scale <- L2_b5_cbr1_bn_top
I1212 06:18:16.700415 12086 net.cpp:395] L2_b5_cbr1_scale -> L2_b5_cbr1_bn_top (in-place)
I1212 06:18:16.700505 12086 layer_factory.hpp:77] Creating layer L2_b5_cbr1_scale
I1212 06:18:16.700700 12086 net.cpp:150] Setting up L2_b5_cbr1_scale
I1212 06:18:16.700719 12086 net.cpp:157] Top shape: 125 32 16 16 (1024000)
I1212 06:18:16.700729 12086 net.cpp:165] Memory required for data: 1043969500
I1212 06:18:16.700748 12086 layer_factory.hpp:77] Creating layer L2_b5_cbr1_relu
I1212 06:18:16.700767 12086 net.cpp:100] Creating Layer L2_b5_cbr1_relu
I1212 06:18:16.700779 12086 net.cpp:434] L2_b5_cbr1_relu <- L2_b5_cbr1_bn_top
I1212 06:18:16.700794 12086 net.cpp:395] L2_b5_cbr1_relu -> L2_b5_cbr1_bn_top (in-place)
I1212 06:18:16.700814 12086 net.cpp:150] Setting up L2_b5_cbr1_relu
I1212 06:18:16.700827 12086 net.cpp:157] Top shape: 125 32 16 16 (1024000)
I1212 06:18:16.700837 12086 net.cpp:165] Memory required for data: 1048065500
I1212 06:18:16.700847 12086 layer_factory.hpp:77] Creating layer L2_b5_cbr2_conv
I1212 06:18:16.700873 12086 net.cpp:100] Creating Layer L2_b5_cbr2_conv
I1212 06:18:16.700886 12086 net.cpp:434] L2_b5_cbr2_conv <- L2_b5_cbr1_bn_top
I1212 06:18:16.700908 12086 net.cpp:408] L2_b5_cbr2_conv -> L2_b5_cbr2_conv_top
I1212 06:18:16.701412 12086 net.cpp:150] Setting up L2_b5_cbr2_conv
I1212 06:18:16.701433 12086 net.cpp:157] Top shape: 125 32 16 16 (1024000)
I1212 06:18:16.701443 12086 net.cpp:165] Memory required for data: 1052161500
I1212 06:18:16.701462 12086 layer_factory.hpp:77] Creating layer L2_b5_cbr2_bn
I1212 06:18:16.701478 12086 net.cpp:100] Creating Layer L2_b5_cbr2_bn
I1212 06:18:16.701490 12086 net.cpp:434] L2_b5_cbr2_bn <- L2_b5_cbr2_conv_top
I1212 06:18:16.701506 12086 net.cpp:408] L2_b5_cbr2_bn -> L2_b5_cbr2_bn_top
I1212 06:18:16.701795 12086 net.cpp:150] Setting up L2_b5_cbr2_bn
I1212 06:18:16.701814 12086 net.cpp:157] Top shape: 125 32 16 16 (1024000)
I1212 06:18:16.701824 12086 net.cpp:165] Memory required for data: 1056257500
I1212 06:18:16.701845 12086 layer_factory.hpp:77] Creating layer L2_b5_cbr2_scale
I1212 06:18:16.701864 12086 net.cpp:100] Creating Layer L2_b5_cbr2_scale
I1212 06:18:16.701874 12086 net.cpp:434] L2_b5_cbr2_scale <- L2_b5_cbr2_bn_top
I1212 06:18:16.701894 12086 net.cpp:395] L2_b5_cbr2_scale -> L2_b5_cbr2_bn_top (in-place)
I1212 06:18:16.701987 12086 layer_factory.hpp:77] Creating layer L2_b5_cbr2_scale
I1212 06:18:16.702180 12086 net.cpp:150] Setting up L2_b5_cbr2_scale
I1212 06:18:16.702200 12086 net.cpp:157] Top shape: 125 32 16 16 (1024000)
I1212 06:18:16.702210 12086 net.cpp:165] Memory required for data: 1060353500
I1212 06:18:16.702229 12086 layer_factory.hpp:77] Creating layer L2_b5_sum_eltwise
I1212 06:18:16.702245 12086 net.cpp:100] Creating Layer L2_b5_sum_eltwise
I1212 06:18:16.702257 12086 net.cpp:434] L2_b5_sum_eltwise <- L2_b5_cbr2_bn_top
I1212 06:18:16.702271 12086 net.cpp:434] L2_b5_sum_eltwise <- L2_b4_sum_eltwise_top_L2_b4_relu_0_split_1
I1212 06:18:16.702292 12086 net.cpp:408] L2_b5_sum_eltwise -> L2_b5_sum_eltwise_top
I1212 06:18:16.702339 12086 net.cpp:150] Setting up L2_b5_sum_eltwise
I1212 06:18:16.702363 12086 net.cpp:157] Top shape: 125 32 16 16 (1024000)
I1212 06:18:16.702373 12086 net.cpp:165] Memory required for data: 1064449500
I1212 06:18:16.702392 12086 layer_factory.hpp:77] Creating layer L2_b5_relu
I1212 06:18:16.702407 12086 net.cpp:100] Creating Layer L2_b5_relu
I1212 06:18:16.702419 12086 net.cpp:434] L2_b5_relu <- L2_b5_sum_eltwise_top
I1212 06:18:16.702433 12086 net.cpp:395] L2_b5_relu -> L2_b5_sum_eltwise_top (in-place)
I1212 06:18:16.702452 12086 net.cpp:150] Setting up L2_b5_relu
I1212 06:18:16.702466 12086 net.cpp:157] Top shape: 125 32 16 16 (1024000)
I1212 06:18:16.702476 12086 net.cpp:165] Memory required for data: 1068545500
I1212 06:18:16.702486 12086 layer_factory.hpp:77] Creating layer L2_b5_sum_eltwise_top_L2_b5_relu_0_split
I1212 06:18:16.702509 12086 net.cpp:100] Creating Layer L2_b5_sum_eltwise_top_L2_b5_relu_0_split
I1212 06:18:16.702522 12086 net.cpp:434] L2_b5_sum_eltwise_top_L2_b5_relu_0_split <- L2_b5_sum_eltwise_top
I1212 06:18:16.702538 12086 net.cpp:408] L2_b5_sum_eltwise_top_L2_b5_relu_0_split -> L2_b5_sum_eltwise_top_L2_b5_relu_0_split_0
I1212 06:18:16.702558 12086 net.cpp:408] L2_b5_sum_eltwise_top_L2_b5_relu_0_split -> L2_b5_sum_eltwise_top_L2_b5_relu_0_split_1
I1212 06:18:16.702642 12086 net.cpp:150] Setting up L2_b5_sum_eltwise_top_L2_b5_relu_0_split
I1212 06:18:16.702663 12086 net.cpp:157] Top shape: 125 32 16 16 (1024000)
I1212 06:18:16.702677 12086 net.cpp:157] Top shape: 125 32 16 16 (1024000)
I1212 06:18:16.702687 12086 net.cpp:165] Memory required for data: 1076737500
I1212 06:18:16.702698 12086 layer_factory.hpp:77] Creating layer L2_b6_cbr1_conv
I1212 06:18:16.702718 12086 net.cpp:100] Creating Layer L2_b6_cbr1_conv
I1212 06:18:16.702731 12086 net.cpp:434] L2_b6_cbr1_conv <- L2_b5_sum_eltwise_top_L2_b5_relu_0_split_0
I1212 06:18:16.702754 12086 net.cpp:408] L2_b6_cbr1_conv -> L2_b6_cbr1_conv_top
I1212 06:18:16.703289 12086 net.cpp:150] Setting up L2_b6_cbr1_conv
I1212 06:18:16.703310 12086 net.cpp:157] Top shape: 125 32 16 16 (1024000)
I1212 06:18:16.703320 12086 net.cpp:165] Memory required for data: 1080833500
I1212 06:18:16.703337 12086 layer_factory.hpp:77] Creating layer L2_b6_cbr1_bn
I1212 06:18:16.703354 12086 net.cpp:100] Creating Layer L2_b6_cbr1_bn
I1212 06:18:16.703367 12086 net.cpp:434] L2_b6_cbr1_bn <- L2_b6_cbr1_conv_top
I1212 06:18:16.703397 12086 net.cpp:408] L2_b6_cbr1_bn -> L2_b6_cbr1_bn_top
I1212 06:18:16.703685 12086 net.cpp:150] Setting up L2_b6_cbr1_bn
I1212 06:18:16.703703 12086 net.cpp:157] Top shape: 125 32 16 16 (1024000)
I1212 06:18:16.703713 12086 net.cpp:165] Memory required for data: 1084929500
I1212 06:18:16.703734 12086 layer_factory.hpp:77] Creating layer L2_b6_cbr1_scale
I1212 06:18:16.703757 12086 net.cpp:100] Creating Layer L2_b6_cbr1_scale
I1212 06:18:16.703769 12086 net.cpp:434] L2_b6_cbr1_scale <- L2_b6_cbr1_bn_top
I1212 06:18:16.703784 12086 net.cpp:395] L2_b6_cbr1_scale -> L2_b6_cbr1_bn_top (in-place)
I1212 06:18:16.703876 12086 layer_factory.hpp:77] Creating layer L2_b6_cbr1_scale
I1212 06:18:16.704061 12086 net.cpp:150] Setting up L2_b6_cbr1_scale
I1212 06:18:16.704087 12086 net.cpp:157] Top shape: 125 32 16 16 (1024000)
I1212 06:18:16.704097 12086 net.cpp:165] Memory required for data: 1089025500
I1212 06:18:16.704114 12086 layer_factory.hpp:77] Creating layer L2_b6_cbr1_relu
I1212 06:18:16.704130 12086 net.cpp:100] Creating Layer L2_b6_cbr1_relu
I1212 06:18:16.704141 12086 net.cpp:434] L2_b6_cbr1_relu <- L2_b6_cbr1_bn_top
I1212 06:18:16.704161 12086 net.cpp:395] L2_b6_cbr1_relu -> L2_b6_cbr1_bn_top (in-place)
I1212 06:18:16.704182 12086 net.cpp:150] Setting up L2_b6_cbr1_relu
I1212 06:18:16.704197 12086 net.cpp:157] Top shape: 125 32 16 16 (1024000)
I1212 06:18:16.704208 12086 net.cpp:165] Memory required for data: 1093121500
I1212 06:18:16.704218 12086 layer_factory.hpp:77] Creating layer L2_b6_cbr2_conv
I1212 06:18:16.704246 12086 net.cpp:100] Creating Layer L2_b6_cbr2_conv
I1212 06:18:16.704260 12086 net.cpp:434] L2_b6_cbr2_conv <- L2_b6_cbr1_bn_top
I1212 06:18:16.704277 12086 net.cpp:408] L2_b6_cbr2_conv -> L2_b6_cbr2_conv_top
I1212 06:18:16.704788 12086 net.cpp:150] Setting up L2_b6_cbr2_conv
I1212 06:18:16.704809 12086 net.cpp:157] Top shape: 125 32 16 16 (1024000)
I1212 06:18:16.704828 12086 net.cpp:165] Memory required for data: 1097217500
I1212 06:18:16.704849 12086 layer_factory.hpp:77] Creating layer L2_b6_cbr2_bn
I1212 06:18:16.704870 12086 net.cpp:100] Creating Layer L2_b6_cbr2_bn
I1212 06:18:16.704883 12086 net.cpp:434] L2_b6_cbr2_bn <- L2_b6_cbr2_conv_top
I1212 06:18:16.704900 12086 net.cpp:408] L2_b6_cbr2_bn -> L2_b6_cbr2_bn_top
I1212 06:18:16.705205 12086 net.cpp:150] Setting up L2_b6_cbr2_bn
I1212 06:18:16.705225 12086 net.cpp:157] Top shape: 125 32 16 16 (1024000)
I1212 06:18:16.705235 12086 net.cpp:165] Memory required for data: 1101313500
I1212 06:18:16.705256 12086 layer_factory.hpp:77] Creating layer L2_b6_cbr2_scale
I1212 06:18:16.705273 12086 net.cpp:100] Creating Layer L2_b6_cbr2_scale
I1212 06:18:16.705284 12086 net.cpp:434] L2_b6_cbr2_scale <- L2_b6_cbr2_bn_top
I1212 06:18:16.705305 12086 net.cpp:395] L2_b6_cbr2_scale -> L2_b6_cbr2_bn_top (in-place)
I1212 06:18:16.705396 12086 layer_factory.hpp:77] Creating layer L2_b6_cbr2_scale
I1212 06:18:16.705588 12086 net.cpp:150] Setting up L2_b6_cbr2_scale
I1212 06:18:16.705607 12086 net.cpp:157] Top shape: 125 32 16 16 (1024000)
I1212 06:18:16.705616 12086 net.cpp:165] Memory required for data: 1105409500
I1212 06:18:16.705636 12086 layer_factory.hpp:77] Creating layer L2_b6_sum_eltwise
I1212 06:18:16.705651 12086 net.cpp:100] Creating Layer L2_b6_sum_eltwise
I1212 06:18:16.705663 12086 net.cpp:434] L2_b6_sum_eltwise <- L2_b6_cbr2_bn_top
I1212 06:18:16.705677 12086 net.cpp:434] L2_b6_sum_eltwise <- L2_b5_sum_eltwise_top_L2_b5_relu_0_split_1
I1212 06:18:16.705700 12086 net.cpp:408] L2_b6_sum_eltwise -> L2_b6_sum_eltwise_top
I1212 06:18:16.705749 12086 net.cpp:150] Setting up L2_b6_sum_eltwise
I1212 06:18:16.705766 12086 net.cpp:157] Top shape: 125 32 16 16 (1024000)
I1212 06:18:16.705776 12086 net.cpp:165] Memory required for data: 1109505500
I1212 06:18:16.705787 12086 layer_factory.hpp:77] Creating layer L2_b6_relu
I1212 06:18:16.705806 12086 net.cpp:100] Creating Layer L2_b6_relu
I1212 06:18:16.705818 12086 net.cpp:434] L2_b6_relu <- L2_b6_sum_eltwise_top
I1212 06:18:16.705833 12086 net.cpp:395] L2_b6_relu -> L2_b6_sum_eltwise_top (in-place)
I1212 06:18:16.705852 12086 net.cpp:150] Setting up L2_b6_relu
I1212 06:18:16.705868 12086 net.cpp:157] Top shape: 125 32 16 16 (1024000)
I1212 06:18:16.705878 12086 net.cpp:165] Memory required for data: 1113601500
I1212 06:18:16.705888 12086 layer_factory.hpp:77] Creating layer L2_b6_sum_eltwise_top_L2_b6_relu_0_split
I1212 06:18:16.705906 12086 net.cpp:100] Creating Layer L2_b6_sum_eltwise_top_L2_b6_relu_0_split
I1212 06:18:16.705919 12086 net.cpp:434] L2_b6_sum_eltwise_top_L2_b6_relu_0_split <- L2_b6_sum_eltwise_top
I1212 06:18:16.705934 12086 net.cpp:408] L2_b6_sum_eltwise_top_L2_b6_relu_0_split -> L2_b6_sum_eltwise_top_L2_b6_relu_0_split_0
I1212 06:18:16.705953 12086 net.cpp:408] L2_b6_sum_eltwise_top_L2_b6_relu_0_split -> L2_b6_sum_eltwise_top_L2_b6_relu_0_split_1
I1212 06:18:16.706034 12086 net.cpp:150] Setting up L2_b6_sum_eltwise_top_L2_b6_relu_0_split
I1212 06:18:16.706058 12086 net.cpp:157] Top shape: 125 32 16 16 (1024000)
I1212 06:18:16.706079 12086 net.cpp:157] Top shape: 125 32 16 16 (1024000)
I1212 06:18:16.706089 12086 net.cpp:165] Memory required for data: 1121793500
I1212 06:18:16.706100 12086 layer_factory.hpp:77] Creating layer L2_b7_cbr1_conv
I1212 06:18:16.706121 12086 net.cpp:100] Creating Layer L2_b7_cbr1_conv
I1212 06:18:16.706135 12086 net.cpp:434] L2_b7_cbr1_conv <- L2_b6_sum_eltwise_top_L2_b6_relu_0_split_0
I1212 06:18:16.706153 12086 net.cpp:408] L2_b7_cbr1_conv -> L2_b7_cbr1_conv_top
I1212 06:18:16.706674 12086 net.cpp:150] Setting up L2_b7_cbr1_conv
I1212 06:18:16.706694 12086 net.cpp:157] Top shape: 125 32 16 16 (1024000)
I1212 06:18:16.706703 12086 net.cpp:165] Memory required for data: 1125889500
I1212 06:18:16.706722 12086 layer_factory.hpp:77] Creating layer L2_b7_cbr1_bn
I1212 06:18:16.706743 12086 net.cpp:100] Creating Layer L2_b7_cbr1_bn
I1212 06:18:16.706755 12086 net.cpp:434] L2_b7_cbr1_bn <- L2_b7_cbr1_conv_top
I1212 06:18:16.706780 12086 net.cpp:408] L2_b7_cbr1_bn -> L2_b7_cbr1_bn_top
I1212 06:18:16.707096 12086 net.cpp:150] Setting up L2_b7_cbr1_bn
I1212 06:18:16.707116 12086 net.cpp:157] Top shape: 125 32 16 16 (1024000)
I1212 06:18:16.707126 12086 net.cpp:165] Memory required for data: 1129985500
I1212 06:18:16.707147 12086 layer_factory.hpp:77] Creating layer L2_b7_cbr1_scale
I1212 06:18:16.707165 12086 net.cpp:100] Creating Layer L2_b7_cbr1_scale
I1212 06:18:16.707175 12086 net.cpp:434] L2_b7_cbr1_scale <- L2_b7_cbr1_bn_top
I1212 06:18:16.707196 12086 net.cpp:395] L2_b7_cbr1_scale -> L2_b7_cbr1_bn_top (in-place)
I1212 06:18:16.707289 12086 layer_factory.hpp:77] Creating layer L2_b7_cbr1_scale
I1212 06:18:16.707479 12086 net.cpp:150] Setting up L2_b7_cbr1_scale
I1212 06:18:16.707499 12086 net.cpp:157] Top shape: 125 32 16 16 (1024000)
I1212 06:18:16.707509 12086 net.cpp:165] Memory required for data: 1134081500
I1212 06:18:16.707527 12086 layer_factory.hpp:77] Creating layer L2_b7_cbr1_relu
I1212 06:18:16.707543 12086 net.cpp:100] Creating Layer L2_b7_cbr1_relu
I1212 06:18:16.707556 12086 net.cpp:434] L2_b7_cbr1_relu <- L2_b7_cbr1_bn_top
I1212 06:18:16.707577 12086 net.cpp:395] L2_b7_cbr1_relu -> L2_b7_cbr1_bn_top (in-place)
I1212 06:18:16.707597 12086 net.cpp:150] Setting up L2_b7_cbr1_relu
I1212 06:18:16.707612 12086 net.cpp:157] Top shape: 125 32 16 16 (1024000)
I1212 06:18:16.707623 12086 net.cpp:165] Memory required for data: 1138177500
I1212 06:18:16.707633 12086 layer_factory.hpp:77] Creating layer L2_b7_cbr2_conv
I1212 06:18:16.707657 12086 net.cpp:100] Creating Layer L2_b7_cbr2_conv
I1212 06:18:16.707670 12086 net.cpp:434] L2_b7_cbr2_conv <- L2_b7_cbr1_bn_top
I1212 06:18:16.707689 12086 net.cpp:408] L2_b7_cbr2_conv -> L2_b7_cbr2_conv_top
I1212 06:18:16.708217 12086 net.cpp:150] Setting up L2_b7_cbr2_conv
I1212 06:18:16.708237 12086 net.cpp:157] Top shape: 125 32 16 16 (1024000)
I1212 06:18:16.708247 12086 net.cpp:165] Memory required for data: 1142273500
I1212 06:18:16.708266 12086 layer_factory.hpp:77] Creating layer L2_b7_cbr2_bn
I1212 06:18:16.708287 12086 net.cpp:100] Creating Layer L2_b7_cbr2_bn
I1212 06:18:16.708299 12086 net.cpp:434] L2_b7_cbr2_bn <- L2_b7_cbr2_conv_top
I1212 06:18:16.708317 12086 net.cpp:408] L2_b7_cbr2_bn -> L2_b7_cbr2_bn_top
I1212 06:18:16.708614 12086 net.cpp:150] Setting up L2_b7_cbr2_bn
I1212 06:18:16.708633 12086 net.cpp:157] Top shape: 125 32 16 16 (1024000)
I1212 06:18:16.708643 12086 net.cpp:165] Memory required for data: 1146369500
I1212 06:18:16.708665 12086 layer_factory.hpp:77] Creating layer L2_b7_cbr2_scale
I1212 06:18:16.708683 12086 net.cpp:100] Creating Layer L2_b7_cbr2_scale
I1212 06:18:16.708694 12086 net.cpp:434] L2_b7_cbr2_scale <- L2_b7_cbr2_bn_top
I1212 06:18:16.708717 12086 net.cpp:395] L2_b7_cbr2_scale -> L2_b7_cbr2_bn_top (in-place)
I1212 06:18:16.708809 12086 layer_factory.hpp:77] Creating layer L2_b7_cbr2_scale
I1212 06:18:16.708998 12086 net.cpp:150] Setting up L2_b7_cbr2_scale
I1212 06:18:16.709017 12086 net.cpp:157] Top shape: 125 32 16 16 (1024000)
I1212 06:18:16.709028 12086 net.cpp:165] Memory required for data: 1150465500
I1212 06:18:16.709048 12086 layer_factory.hpp:77] Creating layer L2_b7_sum_eltwise
I1212 06:18:16.709064 12086 net.cpp:100] Creating Layer L2_b7_sum_eltwise
I1212 06:18:16.709082 12086 net.cpp:434] L2_b7_sum_eltwise <- L2_b7_cbr2_bn_top
I1212 06:18:16.709098 12086 net.cpp:434] L2_b7_sum_eltwise <- L2_b6_sum_eltwise_top_L2_b6_relu_0_split_1
I1212 06:18:16.709120 12086 net.cpp:408] L2_b7_sum_eltwise -> L2_b7_sum_eltwise_top
I1212 06:18:16.709167 12086 net.cpp:150] Setting up L2_b7_sum_eltwise
I1212 06:18:16.709187 12086 net.cpp:157] Top shape: 125 32 16 16 (1024000)
I1212 06:18:16.709197 12086 net.cpp:165] Memory required for data: 1154561500
I1212 06:18:16.709206 12086 layer_factory.hpp:77] Creating layer L2_b7_relu
I1212 06:18:16.709226 12086 net.cpp:100] Creating Layer L2_b7_relu
I1212 06:18:16.709239 12086 net.cpp:434] L2_b7_relu <- L2_b7_sum_eltwise_top
I1212 06:18:16.709254 12086 net.cpp:395] L2_b7_relu -> L2_b7_sum_eltwise_top (in-place)
I1212 06:18:16.709282 12086 net.cpp:150] Setting up L2_b7_relu
I1212 06:18:16.709297 12086 net.cpp:157] Top shape: 125 32 16 16 (1024000)
I1212 06:18:16.709307 12086 net.cpp:165] Memory required for data: 1158657500
I1212 06:18:16.709318 12086 layer_factory.hpp:77] Creating layer L2_b7_sum_eltwise_top_L2_b7_relu_0_split
I1212 06:18:16.709331 12086 net.cpp:100] Creating Layer L2_b7_sum_eltwise_top_L2_b7_relu_0_split
I1212 06:18:16.709343 12086 net.cpp:434] L2_b7_sum_eltwise_top_L2_b7_relu_0_split <- L2_b7_sum_eltwise_top
I1212 06:18:16.709362 12086 net.cpp:408] L2_b7_sum_eltwise_top_L2_b7_relu_0_split -> L2_b7_sum_eltwise_top_L2_b7_relu_0_split_0
I1212 06:18:16.709563 12086 net.cpp:408] L2_b7_sum_eltwise_top_L2_b7_relu_0_split -> L2_b7_sum_eltwise_top_L2_b7_relu_0_split_1
I1212 06:18:16.709650 12086 net.cpp:150] Setting up L2_b7_sum_eltwise_top_L2_b7_relu_0_split
I1212 06:18:16.709676 12086 net.cpp:157] Top shape: 125 32 16 16 (1024000)
I1212 06:18:16.709689 12086 net.cpp:157] Top shape: 125 32 16 16 (1024000)
I1212 06:18:16.709699 12086 net.cpp:165] Memory required for data: 1166849500
I1212 06:18:16.709710 12086 layer_factory.hpp:77] Creating layer L2_b8_cbr1_conv
I1212 06:18:16.709731 12086 net.cpp:100] Creating Layer L2_b8_cbr1_conv
I1212 06:18:16.709744 12086 net.cpp:434] L2_b8_cbr1_conv <- L2_b7_sum_eltwise_top_L2_b7_relu_0_split_0
I1212 06:18:16.709763 12086 net.cpp:408] L2_b8_cbr1_conv -> L2_b8_cbr1_conv_top
I1212 06:18:16.710302 12086 net.cpp:150] Setting up L2_b8_cbr1_conv
I1212 06:18:16.710324 12086 net.cpp:157] Top shape: 125 32 16 16 (1024000)
I1212 06:18:16.710333 12086 net.cpp:165] Memory required for data: 1170945500
I1212 06:18:16.710351 12086 layer_factory.hpp:77] Creating layer L2_b8_cbr1_bn
I1212 06:18:16.710373 12086 net.cpp:100] Creating Layer L2_b8_cbr1_bn
I1212 06:18:16.710386 12086 net.cpp:434] L2_b8_cbr1_bn <- L2_b8_cbr1_conv_top
I1212 06:18:16.710402 12086 net.cpp:408] L2_b8_cbr1_bn -> L2_b8_cbr1_bn_top
I1212 06:18:16.710703 12086 net.cpp:150] Setting up L2_b8_cbr1_bn
I1212 06:18:16.710722 12086 net.cpp:157] Top shape: 125 32 16 16 (1024000)
I1212 06:18:16.710732 12086 net.cpp:165] Memory required for data: 1175041500
I1212 06:18:16.710753 12086 layer_factory.hpp:77] Creating layer L2_b8_cbr1_scale
I1212 06:18:16.710770 12086 net.cpp:100] Creating Layer L2_b8_cbr1_scale
I1212 06:18:16.710781 12086 net.cpp:434] L2_b8_cbr1_scale <- L2_b8_cbr1_bn_top
I1212 06:18:16.710801 12086 net.cpp:395] L2_b8_cbr1_scale -> L2_b8_cbr1_bn_top (in-place)
I1212 06:18:16.710896 12086 layer_factory.hpp:77] Creating layer L2_b8_cbr1_scale
I1212 06:18:16.711097 12086 net.cpp:150] Setting up L2_b8_cbr1_scale
I1212 06:18:16.711115 12086 net.cpp:157] Top shape: 125 32 16 16 (1024000)
I1212 06:18:16.711125 12086 net.cpp:165] Memory required for data: 1179137500
I1212 06:18:16.711143 12086 layer_factory.hpp:77] Creating layer L2_b8_cbr1_relu
I1212 06:18:16.711159 12086 net.cpp:100] Creating Layer L2_b8_cbr1_relu
I1212 06:18:16.711171 12086 net.cpp:434] L2_b8_cbr1_relu <- L2_b8_cbr1_bn_top
I1212 06:18:16.711191 12086 net.cpp:395] L2_b8_cbr1_relu -> L2_b8_cbr1_bn_top (in-place)
I1212 06:18:16.711212 12086 net.cpp:150] Setting up L2_b8_cbr1_relu
I1212 06:18:16.711226 12086 net.cpp:157] Top shape: 125 32 16 16 (1024000)
I1212 06:18:16.711236 12086 net.cpp:165] Memory required for data: 1183233500
I1212 06:18:16.711247 12086 layer_factory.hpp:77] Creating layer L2_b8_cbr2_conv
I1212 06:18:16.711273 12086 net.cpp:100] Creating Layer L2_b8_cbr2_conv
I1212 06:18:16.711287 12086 net.cpp:434] L2_b8_cbr2_conv <- L2_b8_cbr1_bn_top
I1212 06:18:16.711305 12086 net.cpp:408] L2_b8_cbr2_conv -> L2_b8_cbr2_conv_top
I1212 06:18:16.711833 12086 net.cpp:150] Setting up L2_b8_cbr2_conv
I1212 06:18:16.711853 12086 net.cpp:157] Top shape: 125 32 16 16 (1024000)
I1212 06:18:16.711861 12086 net.cpp:165] Memory required for data: 1187329500
I1212 06:18:16.711880 12086 layer_factory.hpp:77] Creating layer L2_b8_cbr2_bn
I1212 06:18:16.711902 12086 net.cpp:100] Creating Layer L2_b8_cbr2_bn
I1212 06:18:16.711915 12086 net.cpp:434] L2_b8_cbr2_bn <- L2_b8_cbr2_conv_top
I1212 06:18:16.711943 12086 net.cpp:408] L2_b8_cbr2_bn -> L2_b8_cbr2_bn_top
I1212 06:18:16.712254 12086 net.cpp:150] Setting up L2_b8_cbr2_bn
I1212 06:18:16.712273 12086 net.cpp:157] Top shape: 125 32 16 16 (1024000)
I1212 06:18:16.712282 12086 net.cpp:165] Memory required for data: 1191425500
I1212 06:18:16.712306 12086 layer_factory.hpp:77] Creating layer L2_b8_cbr2_scale
I1212 06:18:16.712322 12086 net.cpp:100] Creating Layer L2_b8_cbr2_scale
I1212 06:18:16.712333 12086 net.cpp:434] L2_b8_cbr2_scale <- L2_b8_cbr2_bn_top
I1212 06:18:16.712349 12086 net.cpp:395] L2_b8_cbr2_scale -> L2_b8_cbr2_bn_top (in-place)
I1212 06:18:16.712445 12086 layer_factory.hpp:77] Creating layer L2_b8_cbr2_scale
I1212 06:18:16.712637 12086 net.cpp:150] Setting up L2_b8_cbr2_scale
I1212 06:18:16.712659 12086 net.cpp:157] Top shape: 125 32 16 16 (1024000)
I1212 06:18:16.712671 12086 net.cpp:165] Memory required for data: 1195521500
I1212 06:18:16.712688 12086 layer_factory.hpp:77] Creating layer L2_b8_sum_eltwise
I1212 06:18:16.712704 12086 net.cpp:100] Creating Layer L2_b8_sum_eltwise
I1212 06:18:16.712716 12086 net.cpp:434] L2_b8_sum_eltwise <- L2_b8_cbr2_bn_top
I1212 06:18:16.712729 12086 net.cpp:434] L2_b8_sum_eltwise <- L2_b7_sum_eltwise_top_L2_b7_relu_0_split_1
I1212 06:18:16.712746 12086 net.cpp:408] L2_b8_sum_eltwise -> L2_b8_sum_eltwise_top
I1212 06:18:16.712798 12086 net.cpp:150] Setting up L2_b8_sum_eltwise
I1212 06:18:16.712816 12086 net.cpp:157] Top shape: 125 32 16 16 (1024000)
I1212 06:18:16.712827 12086 net.cpp:165] Memory required for data: 1199617500
I1212 06:18:16.712837 12086 layer_factory.hpp:77] Creating layer L2_b8_relu
I1212 06:18:16.712852 12086 net.cpp:100] Creating Layer L2_b8_relu
I1212 06:18:16.712863 12086 net.cpp:434] L2_b8_relu <- L2_b8_sum_eltwise_top
I1212 06:18:16.712882 12086 net.cpp:395] L2_b8_relu -> L2_b8_sum_eltwise_top (in-place)
I1212 06:18:16.712903 12086 net.cpp:150] Setting up L2_b8_relu
I1212 06:18:16.712918 12086 net.cpp:157] Top shape: 125 32 16 16 (1024000)
I1212 06:18:16.712927 12086 net.cpp:165] Memory required for data: 1203713500
I1212 06:18:16.712939 12086 layer_factory.hpp:77] Creating layer L2_b8_sum_eltwise_top_L2_b8_relu_0_split
I1212 06:18:16.712951 12086 net.cpp:100] Creating Layer L2_b8_sum_eltwise_top_L2_b8_relu_0_split
I1212 06:18:16.712962 12086 net.cpp:434] L2_b8_sum_eltwise_top_L2_b8_relu_0_split <- L2_b8_sum_eltwise_top
I1212 06:18:16.712981 12086 net.cpp:408] L2_b8_sum_eltwise_top_L2_b8_relu_0_split -> L2_b8_sum_eltwise_top_L2_b8_relu_0_split_0
I1212 06:18:16.713021 12086 net.cpp:408] L2_b8_sum_eltwise_top_L2_b8_relu_0_split -> L2_b8_sum_eltwise_top_L2_b8_relu_0_split_1
I1212 06:18:16.713115 12086 net.cpp:150] Setting up L2_b8_sum_eltwise_top_L2_b8_relu_0_split
I1212 06:18:16.713138 12086 net.cpp:157] Top shape: 125 32 16 16 (1024000)
I1212 06:18:16.713151 12086 net.cpp:157] Top shape: 125 32 16 16 (1024000)
I1212 06:18:16.713161 12086 net.cpp:165] Memory required for data: 1211905500
I1212 06:18:16.713171 12086 layer_factory.hpp:77] Creating layer L2_b9_cbr1_conv
I1212 06:18:16.713197 12086 net.cpp:100] Creating Layer L2_b9_cbr1_conv
I1212 06:18:16.713210 12086 net.cpp:434] L2_b9_cbr1_conv <- L2_b8_sum_eltwise_top_L2_b8_relu_0_split_0
I1212 06:18:16.713237 12086 net.cpp:408] L2_b9_cbr1_conv -> L2_b9_cbr1_conv_top
I1212 06:18:16.713758 12086 net.cpp:150] Setting up L2_b9_cbr1_conv
I1212 06:18:16.713778 12086 net.cpp:157] Top shape: 125 32 16 16 (1024000)
I1212 06:18:16.713788 12086 net.cpp:165] Memory required for data: 1216001500
I1212 06:18:16.713804 12086 layer_factory.hpp:77] Creating layer L2_b9_cbr1_bn
I1212 06:18:16.713821 12086 net.cpp:100] Creating Layer L2_b9_cbr1_bn
I1212 06:18:16.713840 12086 net.cpp:434] L2_b9_cbr1_bn <- L2_b9_cbr1_conv_top
I1212 06:18:16.713857 12086 net.cpp:408] L2_b9_cbr1_bn -> L2_b9_cbr1_bn_top
I1212 06:18:16.714159 12086 net.cpp:150] Setting up L2_b9_cbr1_bn
I1212 06:18:16.714179 12086 net.cpp:157] Top shape: 125 32 16 16 (1024000)
I1212 06:18:16.714188 12086 net.cpp:165] Memory required for data: 1220097500
I1212 06:18:16.714210 12086 layer_factory.hpp:77] Creating layer L2_b9_cbr1_scale
I1212 06:18:16.714236 12086 net.cpp:100] Creating Layer L2_b9_cbr1_scale
I1212 06:18:16.714248 12086 net.cpp:434] L2_b9_cbr1_scale <- L2_b9_cbr1_bn_top
I1212 06:18:16.714265 12086 net.cpp:395] L2_b9_cbr1_scale -> L2_b9_cbr1_bn_top (in-place)
I1212 06:18:16.714365 12086 layer_factory.hpp:77] Creating layer L2_b9_cbr1_scale
I1212 06:18:16.714557 12086 net.cpp:150] Setting up L2_b9_cbr1_scale
I1212 06:18:16.714581 12086 net.cpp:157] Top shape: 125 32 16 16 (1024000)
I1212 06:18:16.714591 12086 net.cpp:165] Memory required for data: 1224193500
I1212 06:18:16.714610 12086 layer_factory.hpp:77] Creating layer L2_b9_cbr1_relu
I1212 06:18:16.714625 12086 net.cpp:100] Creating Layer L2_b9_cbr1_relu
I1212 06:18:16.714637 12086 net.cpp:434] L2_b9_cbr1_relu <- L2_b9_cbr1_bn_top
I1212 06:18:16.714651 12086 net.cpp:395] L2_b9_cbr1_relu -> L2_b9_cbr1_bn_top (in-place)
I1212 06:18:16.714671 12086 net.cpp:150] Setting up L2_b9_cbr1_relu
I1212 06:18:16.714685 12086 net.cpp:157] Top shape: 125 32 16 16 (1024000)
I1212 06:18:16.714694 12086 net.cpp:165] Memory required for data: 1228289500
I1212 06:18:16.714705 12086 layer_factory.hpp:77] Creating layer L2_b9_cbr2_conv
I1212 06:18:16.714733 12086 net.cpp:100] Creating Layer L2_b9_cbr2_conv
I1212 06:18:16.714747 12086 net.cpp:434] L2_b9_cbr2_conv <- L2_b9_cbr1_bn_top
I1212 06:18:16.714769 12086 net.cpp:408] L2_b9_cbr2_conv -> L2_b9_cbr2_conv_top
I1212 06:18:16.715301 12086 net.cpp:150] Setting up L2_b9_cbr2_conv
I1212 06:18:16.715322 12086 net.cpp:157] Top shape: 125 32 16 16 (1024000)
I1212 06:18:16.715332 12086 net.cpp:165] Memory required for data: 1232385500
I1212 06:18:16.715349 12086 layer_factory.hpp:77] Creating layer L2_b9_cbr2_bn
I1212 06:18:16.715370 12086 net.cpp:100] Creating Layer L2_b9_cbr2_bn
I1212 06:18:16.715384 12086 net.cpp:434] L2_b9_cbr2_bn <- L2_b9_cbr2_conv_top
I1212 06:18:16.715405 12086 net.cpp:408] L2_b9_cbr2_bn -> L2_b9_cbr2_bn_top
I1212 06:18:16.715700 12086 net.cpp:150] Setting up L2_b9_cbr2_bn
I1212 06:18:16.715719 12086 net.cpp:157] Top shape: 125 32 16 16 (1024000)
I1212 06:18:16.715729 12086 net.cpp:165] Memory required for data: 1236481500
I1212 06:18:16.715797 12086 layer_factory.hpp:77] Creating layer L2_b9_cbr2_scale
I1212 06:18:16.715821 12086 net.cpp:100] Creating Layer L2_b9_cbr2_scale
I1212 06:18:16.715834 12086 net.cpp:434] L2_b9_cbr2_scale <- L2_b9_cbr2_bn_top
I1212 06:18:16.715852 12086 net.cpp:395] L2_b9_cbr2_scale -> L2_b9_cbr2_bn_top (in-place)
I1212 06:18:16.715946 12086 layer_factory.hpp:77] Creating layer L2_b9_cbr2_scale
I1212 06:18:16.716140 12086 net.cpp:150] Setting up L2_b9_cbr2_scale
I1212 06:18:16.716161 12086 net.cpp:157] Top shape: 125 32 16 16 (1024000)
I1212 06:18:16.716169 12086 net.cpp:165] Memory required for data: 1240577500
I1212 06:18:16.716188 12086 layer_factory.hpp:77] Creating layer L2_b9_sum_eltwise
I1212 06:18:16.716210 12086 net.cpp:100] Creating Layer L2_b9_sum_eltwise
I1212 06:18:16.716223 12086 net.cpp:434] L2_b9_sum_eltwise <- L2_b9_cbr2_bn_top
I1212 06:18:16.716238 12086 net.cpp:434] L2_b9_sum_eltwise <- L2_b8_sum_eltwise_top_L2_b8_relu_0_split_1
I1212 06:18:16.716253 12086 net.cpp:408] L2_b9_sum_eltwise -> L2_b9_sum_eltwise_top
I1212 06:18:16.716307 12086 net.cpp:150] Setting up L2_b9_sum_eltwise
I1212 06:18:16.716325 12086 net.cpp:157] Top shape: 125 32 16 16 (1024000)
I1212 06:18:16.716334 12086 net.cpp:165] Memory required for data: 1244673500
I1212 06:18:16.716346 12086 layer_factory.hpp:77] Creating layer L2_b9_relu
I1212 06:18:16.716359 12086 net.cpp:100] Creating Layer L2_b9_relu
I1212 06:18:16.716372 12086 net.cpp:434] L2_b9_relu <- L2_b9_sum_eltwise_top
I1212 06:18:16.716385 12086 net.cpp:395] L2_b9_relu -> L2_b9_sum_eltwise_top (in-place)
I1212 06:18:16.716408 12086 net.cpp:150] Setting up L2_b9_relu
I1212 06:18:16.716424 12086 net.cpp:157] Top shape: 125 32 16 16 (1024000)
I1212 06:18:16.716434 12086 net.cpp:165] Memory required for data: 1248769500
I1212 06:18:16.716444 12086 layer_factory.hpp:77] Creating layer L2_b9_sum_eltwise_top_L2_b9_relu_0_split
I1212 06:18:16.716467 12086 net.cpp:100] Creating Layer L2_b9_sum_eltwise_top_L2_b9_relu_0_split
I1212 06:18:16.716480 12086 net.cpp:434] L2_b9_sum_eltwise_top_L2_b9_relu_0_split <- L2_b9_sum_eltwise_top
I1212 06:18:16.716500 12086 net.cpp:408] L2_b9_sum_eltwise_top_L2_b9_relu_0_split -> L2_b9_sum_eltwise_top_L2_b9_relu_0_split_0
I1212 06:18:16.716522 12086 net.cpp:408] L2_b9_sum_eltwise_top_L2_b9_relu_0_split -> L2_b9_sum_eltwise_top_L2_b9_relu_0_split_1
I1212 06:18:16.716611 12086 net.cpp:150] Setting up L2_b9_sum_eltwise_top_L2_b9_relu_0_split
I1212 06:18:16.716630 12086 net.cpp:157] Top shape: 125 32 16 16 (1024000)
I1212 06:18:16.716642 12086 net.cpp:157] Top shape: 125 32 16 16 (1024000)
I1212 06:18:16.716651 12086 net.cpp:165] Memory required for data: 1256961500
I1212 06:18:16.716662 12086 layer_factory.hpp:77] Creating layer L3_b1_cbr1_conv
I1212 06:18:16.716683 12086 net.cpp:100] Creating Layer L3_b1_cbr1_conv
I1212 06:18:16.716697 12086 net.cpp:434] L3_b1_cbr1_conv <- L2_b9_sum_eltwise_top_L2_b9_relu_0_split_0
I1212 06:18:16.716720 12086 net.cpp:408] L3_b1_cbr1_conv -> L3_b1_cbr1_conv_top
I1212 06:18:16.717260 12086 net.cpp:150] Setting up L3_b1_cbr1_conv
I1212 06:18:16.717280 12086 net.cpp:157] Top shape: 125 32 8 8 (256000)
I1212 06:18:16.717290 12086 net.cpp:165] Memory required for data: 1257985500
I1212 06:18:16.717308 12086 layer_factory.hpp:77] Creating layer L3_b1_cbr1_bn
I1212 06:18:16.717325 12086 net.cpp:100] Creating Layer L3_b1_cbr1_bn
I1212 06:18:16.717337 12086 net.cpp:434] L3_b1_cbr1_bn <- L3_b1_cbr1_conv_top
I1212 06:18:16.717365 12086 net.cpp:408] L3_b1_cbr1_bn -> L3_b1_cbr1_bn_top
I1212 06:18:16.717669 12086 net.cpp:150] Setting up L3_b1_cbr1_bn
I1212 06:18:16.717691 12086 net.cpp:157] Top shape: 125 32 8 8 (256000)
I1212 06:18:16.717701 12086 net.cpp:165] Memory required for data: 1259009500
I1212 06:18:16.717725 12086 layer_factory.hpp:77] Creating layer L3_b1_cbr1_scale
I1212 06:18:16.717741 12086 net.cpp:100] Creating Layer L3_b1_cbr1_scale
I1212 06:18:16.717753 12086 net.cpp:434] L3_b1_cbr1_scale <- L3_b1_cbr1_bn_top
I1212 06:18:16.717769 12086 net.cpp:395] L3_b1_cbr1_scale -> L3_b1_cbr1_bn_top (in-place)
I1212 06:18:16.717862 12086 layer_factory.hpp:77] Creating layer L3_b1_cbr1_scale
I1212 06:18:16.718060 12086 net.cpp:150] Setting up L3_b1_cbr1_scale
I1212 06:18:16.718085 12086 net.cpp:157] Top shape: 125 32 8 8 (256000)
I1212 06:18:16.718096 12086 net.cpp:165] Memory required for data: 1260033500
I1212 06:18:16.718114 12086 layer_factory.hpp:77] Creating layer L3_b1_cbr1_relu
I1212 06:18:16.718135 12086 net.cpp:100] Creating Layer L3_b1_cbr1_relu
I1212 06:18:16.718147 12086 net.cpp:434] L3_b1_cbr1_relu <- L3_b1_cbr1_bn_top
I1212 06:18:16.718163 12086 net.cpp:395] L3_b1_cbr1_relu -> L3_b1_cbr1_bn_top (in-place)
I1212 06:18:16.718181 12086 net.cpp:150] Setting up L3_b1_cbr1_relu
I1212 06:18:16.718196 12086 net.cpp:157] Top shape: 125 32 8 8 (256000)
I1212 06:18:16.718206 12086 net.cpp:165] Memory required for data: 1261057500
I1212 06:18:16.718216 12086 layer_factory.hpp:77] Creating layer L3_b1_cbr2_conv
I1212 06:18:16.718241 12086 net.cpp:100] Creating Layer L3_b1_cbr2_conv
I1212 06:18:16.718255 12086 net.cpp:434] L3_b1_cbr2_conv <- L3_b1_cbr1_bn_top
I1212 06:18:16.718273 12086 net.cpp:408] L3_b1_cbr2_conv -> L3_b1_cbr2_conv_top
I1212 06:18:16.718799 12086 net.cpp:150] Setting up L3_b1_cbr2_conv
I1212 06:18:16.718819 12086 net.cpp:157] Top shape: 125 32 8 8 (256000)
I1212 06:18:16.718829 12086 net.cpp:165] Memory required for data: 1262081500
I1212 06:18:16.718847 12086 layer_factory.hpp:77] Creating layer L3_b1_cbr2_bn
I1212 06:18:16.718869 12086 net.cpp:100] Creating Layer L3_b1_cbr2_bn
I1212 06:18:16.718883 12086 net.cpp:434] L3_b1_cbr2_bn <- L3_b1_cbr2_conv_top
I1212 06:18:16.718904 12086 net.cpp:408] L3_b1_cbr2_bn -> L3_b1_cbr2_bn_top
I1212 06:18:16.719213 12086 net.cpp:150] Setting up L3_b1_cbr2_bn
I1212 06:18:16.719233 12086 net.cpp:157] Top shape: 125 32 8 8 (256000)
I1212 06:18:16.719244 12086 net.cpp:165] Memory required for data: 1263105500
I1212 06:18:16.719274 12086 layer_factory.hpp:77] Creating layer L3_b1_cbr2_scale
I1212 06:18:16.719291 12086 net.cpp:100] Creating Layer L3_b1_cbr2_scale
I1212 06:18:16.719303 12086 net.cpp:434] L3_b1_cbr2_scale <- L3_b1_cbr2_bn_top
I1212 06:18:16.719323 12086 net.cpp:395] L3_b1_cbr2_scale -> L3_b1_cbr2_bn_top (in-place)
I1212 06:18:16.719427 12086 layer_factory.hpp:77] Creating layer L3_b1_cbr2_scale
I1212 06:18:16.719630 12086 net.cpp:150] Setting up L3_b1_cbr2_scale
I1212 06:18:16.719650 12086 net.cpp:157] Top shape: 125 32 8 8 (256000)
I1212 06:18:16.719660 12086 net.cpp:165] Memory required for data: 1264129500
I1212 06:18:16.719678 12086 layer_factory.hpp:77] Creating layer L3_b1_pool
I1212 06:18:16.719696 12086 net.cpp:100] Creating Layer L3_b1_pool
I1212 06:18:16.719707 12086 net.cpp:434] L3_b1_pool <- L2_b9_sum_eltwise_top_L2_b9_relu_0_split_1
I1212 06:18:16.719729 12086 net.cpp:408] L3_b1_pool -> L3_b1_pool
I1212 06:18:16.719794 12086 net.cpp:150] Setting up L3_b1_pool
I1212 06:18:16.719815 12086 net.cpp:157] Top shape: 125 32 8 8 (256000)
I1212 06:18:16.719823 12086 net.cpp:165] Memory required for data: 1265153500
I1212 06:18:16.719835 12086 layer_factory.hpp:77] Creating layer L3_b1_sum_eltwise
I1212 06:18:16.719851 12086 net.cpp:100] Creating Layer L3_b1_sum_eltwise
I1212 06:18:16.719862 12086 net.cpp:434] L3_b1_sum_eltwise <- L3_b1_cbr2_bn_top
I1212 06:18:16.719875 12086 net.cpp:434] L3_b1_sum_eltwise <- L3_b1_pool
I1212 06:18:16.719897 12086 net.cpp:408] L3_b1_sum_eltwise -> L3_b1_sum_eltwise_top
I1212 06:18:16.719954 12086 net.cpp:150] Setting up L3_b1_sum_eltwise
I1212 06:18:16.719976 12086 net.cpp:157] Top shape: 125 32 8 8 (256000)
I1212 06:18:16.719985 12086 net.cpp:165] Memory required for data: 1266177500
I1212 06:18:16.719996 12086 layer_factory.hpp:77] Creating layer L3_b1_relu
I1212 06:18:16.720010 12086 net.cpp:100] Creating Layer L3_b1_relu
I1212 06:18:16.720021 12086 net.cpp:434] L3_b1_relu <- L3_b1_sum_eltwise_top
I1212 06:18:16.720036 12086 net.cpp:395] L3_b1_relu -> L3_b1_sum_eltwise_top (in-place)
I1212 06:18:16.720055 12086 net.cpp:150] Setting up L3_b1_relu
I1212 06:18:16.720077 12086 net.cpp:157] Top shape: 125 32 8 8 (256000)
I1212 06:18:16.720088 12086 net.cpp:165] Memory required for data: 1267201500
I1212 06:18:16.720098 12086 layer_factory.hpp:77] Creating layer L3_b1_zeros
I1212 06:18:16.720119 12086 net.cpp:100] Creating Layer L3_b1_zeros
I1212 06:18:16.720135 12086 net.cpp:408] L3_b1_zeros -> L3_b1_zeros
I1212 06:18:16.721448 12086 net.cpp:150] Setting up L3_b1_zeros
I1212 06:18:16.721470 12086 net.cpp:157] Top shape: 125 32 8 8 (256000)
I1212 06:18:16.721480 12086 net.cpp:165] Memory required for data: 1268225500
I1212 06:18:16.721491 12086 layer_factory.hpp:77] Creating layer L3_b1_concat0
I1212 06:18:16.721508 12086 net.cpp:100] Creating Layer L3_b1_concat0
I1212 06:18:16.721520 12086 net.cpp:434] L3_b1_concat0 <- L3_b1_sum_eltwise_top
I1212 06:18:16.721534 12086 net.cpp:434] L3_b1_concat0 <- L3_b1_zeros
I1212 06:18:16.721555 12086 net.cpp:408] L3_b1_concat0 -> L3_b1_concat0
I1212 06:18:16.721616 12086 net.cpp:150] Setting up L3_b1_concat0
I1212 06:18:16.721643 12086 net.cpp:157] Top shape: 125 64 8 8 (512000)
I1212 06:18:16.721654 12086 net.cpp:165] Memory required for data: 1270273500
I1212 06:18:16.721665 12086 layer_factory.hpp:77] Creating layer L3_b1_concat0_L3_b1_concat0_0_split
I1212 06:18:16.721680 12086 net.cpp:100] Creating Layer L3_b1_concat0_L3_b1_concat0_0_split
I1212 06:18:16.721691 12086 net.cpp:434] L3_b1_concat0_L3_b1_concat0_0_split <- L3_b1_concat0
I1212 06:18:16.721707 12086 net.cpp:408] L3_b1_concat0_L3_b1_concat0_0_split -> L3_b1_concat0_L3_b1_concat0_0_split_0
I1212 06:18:16.721727 12086 net.cpp:408] L3_b1_concat0_L3_b1_concat0_0_split -> L3_b1_concat0_L3_b1_concat0_0_split_1
I1212 06:18:16.721819 12086 net.cpp:150] Setting up L3_b1_concat0_L3_b1_concat0_0_split
I1212 06:18:16.721839 12086 net.cpp:157] Top shape: 125 64 8 8 (512000)
I1212 06:18:16.721853 12086 net.cpp:157] Top shape: 125 64 8 8 (512000)
I1212 06:18:16.721861 12086 net.cpp:165] Memory required for data: 1274369500
I1212 06:18:16.721881 12086 layer_factory.hpp:77] Creating layer L3_b2_cbr1_conv
I1212 06:18:16.721907 12086 net.cpp:100] Creating Layer L3_b2_cbr1_conv
I1212 06:18:16.721921 12086 net.cpp:434] L3_b2_cbr1_conv <- L3_b1_concat0_L3_b1_concat0_0_split_0
I1212 06:18:16.721942 12086 net.cpp:408] L3_b2_cbr1_conv -> L3_b2_cbr1_conv_top
I1212 06:18:16.724059 12086 net.cpp:150] Setting up L3_b2_cbr1_conv
I1212 06:18:16.724088 12086 net.cpp:157] Top shape: 125 64 8 8 (512000)
I1212 06:18:16.724099 12086 net.cpp:165] Memory required for data: 1276417500
I1212 06:18:16.724118 12086 layer_factory.hpp:77] Creating layer L3_b2_cbr1_bn
I1212 06:18:16.724140 12086 net.cpp:100] Creating Layer L3_b2_cbr1_bn
I1212 06:18:16.724153 12086 net.cpp:434] L3_b2_cbr1_bn <- L3_b2_cbr1_conv_top
I1212 06:18:16.724171 12086 net.cpp:408] L3_b2_cbr1_bn -> L3_b2_cbr1_bn_top
I1212 06:18:16.724480 12086 net.cpp:150] Setting up L3_b2_cbr1_bn
I1212 06:18:16.724499 12086 net.cpp:157] Top shape: 125 64 8 8 (512000)
I1212 06:18:16.724509 12086 net.cpp:165] Memory required for data: 1278465500
I1212 06:18:16.724531 12086 layer_factory.hpp:77] Creating layer L3_b2_cbr1_scale
I1212 06:18:16.724548 12086 net.cpp:100] Creating Layer L3_b2_cbr1_scale
I1212 06:18:16.724560 12086 net.cpp:434] L3_b2_cbr1_scale <- L3_b2_cbr1_bn_top
I1212 06:18:16.724576 12086 net.cpp:395] L3_b2_cbr1_scale -> L3_b2_cbr1_bn_top (in-place)
I1212 06:18:16.724675 12086 layer_factory.hpp:77] Creating layer L3_b2_cbr1_scale
I1212 06:18:16.724870 12086 net.cpp:150] Setting up L3_b2_cbr1_scale
I1212 06:18:16.724894 12086 net.cpp:157] Top shape: 125 64 8 8 (512000)
I1212 06:18:16.724905 12086 net.cpp:165] Memory required for data: 1280513500
I1212 06:18:16.724922 12086 layer_factory.hpp:77] Creating layer L3_b2_cbr1_relu
I1212 06:18:16.724938 12086 net.cpp:100] Creating Layer L3_b2_cbr1_relu
I1212 06:18:16.724951 12086 net.cpp:434] L3_b2_cbr1_relu <- L3_b2_cbr1_bn_top
I1212 06:18:16.724966 12086 net.cpp:395] L3_b2_cbr1_relu -> L3_b2_cbr1_bn_top (in-place)
I1212 06:18:16.724985 12086 net.cpp:150] Setting up L3_b2_cbr1_relu
I1212 06:18:16.724999 12086 net.cpp:157] Top shape: 125 64 8 8 (512000)
I1212 06:18:16.725008 12086 net.cpp:165] Memory required for data: 1282561500
I1212 06:18:16.725019 12086 layer_factory.hpp:77] Creating layer L3_b2_cbr2_conv
I1212 06:18:16.725045 12086 net.cpp:100] Creating Layer L3_b2_cbr2_conv
I1212 06:18:16.725059 12086 net.cpp:434] L3_b2_cbr2_conv <- L3_b2_cbr1_bn_top
I1212 06:18:16.725083 12086 net.cpp:408] L3_b2_cbr2_conv -> L3_b2_cbr2_conv_top
I1212 06:18:16.726166 12086 net.cpp:150] Setting up L3_b2_cbr2_conv
I1212 06:18:16.726186 12086 net.cpp:157] Top shape: 125 64 8 8 (512000)
I1212 06:18:16.726197 12086 net.cpp:165] Memory required for data: 1284609500
I1212 06:18:16.726213 12086 layer_factory.hpp:77] Creating layer L3_b2_cbr2_bn
I1212 06:18:16.726231 12086 net.cpp:100] Creating Layer L3_b2_cbr2_bn
I1212 06:18:16.726248 12086 net.cpp:434] L3_b2_cbr2_bn <- L3_b2_cbr2_conv_top
I1212 06:18:16.726266 12086 net.cpp:408] L3_b2_cbr2_bn -> L3_b2_cbr2_bn_top
I1212 06:18:16.726579 12086 net.cpp:150] Setting up L3_b2_cbr2_bn
I1212 06:18:16.726598 12086 net.cpp:157] Top shape: 125 64 8 8 (512000)
I1212 06:18:16.726608 12086 net.cpp:165] Memory required for data: 1286657500
I1212 06:18:16.726629 12086 layer_factory.hpp:77] Creating layer L3_b2_cbr2_scale
I1212 06:18:16.726646 12086 net.cpp:100] Creating Layer L3_b2_cbr2_scale
I1212 06:18:16.726657 12086 net.cpp:434] L3_b2_cbr2_scale <- L3_b2_cbr2_bn_top
I1212 06:18:16.726677 12086 net.cpp:395] L3_b2_cbr2_scale -> L3_b2_cbr2_bn_top (in-place)
I1212 06:18:16.726771 12086 layer_factory.hpp:77] Creating layer L3_b2_cbr2_scale
I1212 06:18:16.726972 12086 net.cpp:150] Setting up L3_b2_cbr2_scale
I1212 06:18:16.726991 12086 net.cpp:157] Top shape: 125 64 8 8 (512000)
I1212 06:18:16.727001 12086 net.cpp:165] Memory required for data: 1288705500
I1212 06:18:16.727020 12086 layer_factory.hpp:77] Creating layer L3_b2_sum_eltwise
I1212 06:18:16.727041 12086 net.cpp:100] Creating Layer L3_b2_sum_eltwise
I1212 06:18:16.727054 12086 net.cpp:434] L3_b2_sum_eltwise <- L3_b2_cbr2_bn_top
I1212 06:18:16.727085 12086 net.cpp:434] L3_b2_sum_eltwise <- L3_b1_concat0_L3_b1_concat0_0_split_1
I1212 06:18:16.727104 12086 net.cpp:408] L3_b2_sum_eltwise -> L3_b2_sum_eltwise_top
I1212 06:18:16.727167 12086 net.cpp:150] Setting up L3_b2_sum_eltwise
I1212 06:18:16.727187 12086 net.cpp:157] Top shape: 125 64 8 8 (512000)
I1212 06:18:16.727197 12086 net.cpp:165] Memory required for data: 1290753500
I1212 06:18:16.727208 12086 layer_factory.hpp:77] Creating layer L3_b2_relu
I1212 06:18:16.727223 12086 net.cpp:100] Creating Layer L3_b2_relu
I1212 06:18:16.727236 12086 net.cpp:434] L3_b2_relu <- L3_b2_sum_eltwise_top
I1212 06:18:16.727254 12086 net.cpp:395] L3_b2_relu -> L3_b2_sum_eltwise_top (in-place)
I1212 06:18:16.727274 12086 net.cpp:150] Setting up L3_b2_relu
I1212 06:18:16.727290 12086 net.cpp:157] Top shape: 125 64 8 8 (512000)
I1212 06:18:16.727300 12086 net.cpp:165] Memory required for data: 1292801500
I1212 06:18:16.727310 12086 layer_factory.hpp:77] Creating layer L3_b2_sum_eltwise_top_L3_b2_relu_0_split
I1212 06:18:16.727325 12086 net.cpp:100] Creating Layer L3_b2_sum_eltwise_top_L3_b2_relu_0_split
I1212 06:18:16.727337 12086 net.cpp:434] L3_b2_sum_eltwise_top_L3_b2_relu_0_split <- L3_b2_sum_eltwise_top
I1212 06:18:16.727352 12086 net.cpp:408] L3_b2_sum_eltwise_top_L3_b2_relu_0_split -> L3_b2_sum_eltwise_top_L3_b2_relu_0_split_0
I1212 06:18:16.727373 12086 net.cpp:408] L3_b2_sum_eltwise_top_L3_b2_relu_0_split -> L3_b2_sum_eltwise_top_L3_b2_relu_0_split_1
I1212 06:18:16.727455 12086 net.cpp:150] Setting up L3_b2_sum_eltwise_top_L3_b2_relu_0_split
I1212 06:18:16.727474 12086 net.cpp:157] Top shape: 125 64 8 8 (512000)
I1212 06:18:16.727488 12086 net.cpp:157] Top shape: 125 64 8 8 (512000)
I1212 06:18:16.727496 12086 net.cpp:165] Memory required for data: 1296897500
I1212 06:18:16.727506 12086 layer_factory.hpp:77] Creating layer L3_b3_cbr1_conv
I1212 06:18:16.727527 12086 net.cpp:100] Creating Layer L3_b3_cbr1_conv
I1212 06:18:16.727540 12086 net.cpp:434] L3_b3_cbr1_conv <- L3_b2_sum_eltwise_top_L3_b2_relu_0_split_0
I1212 06:18:16.727565 12086 net.cpp:408] L3_b3_cbr1_conv -> L3_b3_cbr1_conv_top
I1212 06:18:16.728634 12086 net.cpp:150] Setting up L3_b3_cbr1_conv
I1212 06:18:16.728654 12086 net.cpp:157] Top shape: 125 64 8 8 (512000)
I1212 06:18:16.728664 12086 net.cpp:165] Memory required for data: 1298945500
I1212 06:18:16.728682 12086 layer_factory.hpp:77] Creating layer L3_b3_cbr1_bn
I1212 06:18:16.728705 12086 net.cpp:100] Creating Layer L3_b3_cbr1_bn
I1212 06:18:16.728718 12086 net.cpp:434] L3_b3_cbr1_bn <- L3_b3_cbr1_conv_top
I1212 06:18:16.728735 12086 net.cpp:408] L3_b3_cbr1_bn -> L3_b3_cbr1_bn_top
I1212 06:18:16.729038 12086 net.cpp:150] Setting up L3_b3_cbr1_bn
I1212 06:18:16.729056 12086 net.cpp:157] Top shape: 125 64 8 8 (512000)
I1212 06:18:16.729066 12086 net.cpp:165] Memory required for data: 1300993500
I1212 06:18:16.729094 12086 layer_factory.hpp:77] Creating layer L3_b3_cbr1_scale
I1212 06:18:16.729111 12086 net.cpp:100] Creating Layer L3_b3_cbr1_scale
I1212 06:18:16.729123 12086 net.cpp:434] L3_b3_cbr1_scale <- L3_b3_cbr1_bn_top
I1212 06:18:16.729140 12086 net.cpp:395] L3_b3_cbr1_scale -> L3_b3_cbr1_bn_top (in-place)
I1212 06:18:16.729235 12086 layer_factory.hpp:77] Creating layer L3_b3_cbr1_scale
I1212 06:18:16.729439 12086 net.cpp:150] Setting up L3_b3_cbr1_scale
I1212 06:18:16.729459 12086 net.cpp:157] Top shape: 125 64 8 8 (512000)
I1212 06:18:16.729468 12086 net.cpp:165] Memory required for data: 1303041500
I1212 06:18:16.729487 12086 layer_factory.hpp:77] Creating layer L3_b3_cbr1_relu
I1212 06:18:16.729502 12086 net.cpp:100] Creating Layer L3_b3_cbr1_relu
I1212 06:18:16.729516 12086 net.cpp:434] L3_b3_cbr1_relu <- L3_b3_cbr1_bn_top
I1212 06:18:16.729529 12086 net.cpp:395] L3_b3_cbr1_relu -> L3_b3_cbr1_bn_top (in-place)
I1212 06:18:16.729548 12086 net.cpp:150] Setting up L3_b3_cbr1_relu
I1212 06:18:16.729563 12086 net.cpp:157] Top shape: 125 64 8 8 (512000)
I1212 06:18:16.729573 12086 net.cpp:165] Memory required for data: 1305089500
I1212 06:18:16.729593 12086 layer_factory.hpp:77] Creating layer L3_b3_cbr2_conv
I1212 06:18:16.729619 12086 net.cpp:100] Creating Layer L3_b3_cbr2_conv
I1212 06:18:16.729634 12086 net.cpp:434] L3_b3_cbr2_conv <- L3_b3_cbr1_bn_top
I1212 06:18:16.729656 12086 net.cpp:408] L3_b3_cbr2_conv -> L3_b3_cbr2_conv_top
I1212 06:18:16.730736 12086 net.cpp:150] Setting up L3_b3_cbr2_conv
I1212 06:18:16.730757 12086 net.cpp:157] Top shape: 125 64 8 8 (512000)
I1212 06:18:16.730767 12086 net.cpp:165] Memory required for data: 1307137500
I1212 06:18:16.730784 12086 layer_factory.hpp:77] Creating layer L3_b3_cbr2_bn
I1212 06:18:16.730808 12086 net.cpp:100] Creating Layer L3_b3_cbr2_bn
I1212 06:18:16.730821 12086 net.cpp:434] L3_b3_cbr2_bn <- L3_b3_cbr2_conv_top
I1212 06:18:16.730839 12086 net.cpp:408] L3_b3_cbr2_bn -> L3_b3_cbr2_bn_top
I1212 06:18:16.731154 12086 net.cpp:150] Setting up L3_b3_cbr2_bn
I1212 06:18:16.731174 12086 net.cpp:157] Top shape: 125 64 8 8 (512000)
I1212 06:18:16.731184 12086 net.cpp:165] Memory required for data: 1309185500
I1212 06:18:16.731205 12086 layer_factory.hpp:77] Creating layer L3_b3_cbr2_scale
I1212 06:18:16.731226 12086 net.cpp:100] Creating Layer L3_b3_cbr2_scale
I1212 06:18:16.731238 12086 net.cpp:434] L3_b3_cbr2_scale <- L3_b3_cbr2_bn_top
I1212 06:18:16.731254 12086 net.cpp:395] L3_b3_cbr2_scale -> L3_b3_cbr2_bn_top (in-place)
I1212 06:18:16.731351 12086 layer_factory.hpp:77] Creating layer L3_b3_cbr2_scale
I1212 06:18:16.731550 12086 net.cpp:150] Setting up L3_b3_cbr2_scale
I1212 06:18:16.731570 12086 net.cpp:157] Top shape: 125 64 8 8 (512000)
I1212 06:18:16.731578 12086 net.cpp:165] Memory required for data: 1311233500
I1212 06:18:16.731597 12086 layer_factory.hpp:77] Creating layer L3_b3_sum_eltwise
I1212 06:18:16.731618 12086 net.cpp:100] Creating Layer L3_b3_sum_eltwise
I1212 06:18:16.731631 12086 net.cpp:434] L3_b3_sum_eltwise <- L3_b3_cbr2_bn_top
I1212 06:18:16.731645 12086 net.cpp:434] L3_b3_sum_eltwise <- L3_b2_sum_eltwise_top_L3_b2_relu_0_split_1
I1212 06:18:16.731662 12086 net.cpp:408] L3_b3_sum_eltwise -> L3_b3_sum_eltwise_top
I1212 06:18:16.731724 12086 net.cpp:150] Setting up L3_b3_sum_eltwise
I1212 06:18:16.731743 12086 net.cpp:157] Top shape: 125 64 8 8 (512000)
I1212 06:18:16.731755 12086 net.cpp:165] Memory required for data: 1313281500
I1212 06:18:16.731763 12086 layer_factory.hpp:77] Creating layer L3_b3_relu
I1212 06:18:16.731779 12086 net.cpp:100] Creating Layer L3_b3_relu
I1212 06:18:16.731791 12086 net.cpp:434] L3_b3_relu <- L3_b3_sum_eltwise_top
I1212 06:18:16.731811 12086 net.cpp:395] L3_b3_relu -> L3_b3_sum_eltwise_top (in-place)
I1212 06:18:16.731830 12086 net.cpp:150] Setting up L3_b3_relu
I1212 06:18:16.731847 12086 net.cpp:157] Top shape: 125 64 8 8 (512000)
I1212 06:18:16.731855 12086 net.cpp:165] Memory required for data: 1315329500
I1212 06:18:16.731865 12086 layer_factory.hpp:77] Creating layer L3_b3_sum_eltwise_top_L3_b3_relu_0_split
I1212 06:18:16.731879 12086 net.cpp:100] Creating Layer L3_b3_sum_eltwise_top_L3_b3_relu_0_split
I1212 06:18:16.731891 12086 net.cpp:434] L3_b3_sum_eltwise_top_L3_b3_relu_0_split <- L3_b3_sum_eltwise_top
I1212 06:18:16.731907 12086 net.cpp:408] L3_b3_sum_eltwise_top_L3_b3_relu_0_split -> L3_b3_sum_eltwise_top_L3_b3_relu_0_split_0
I1212 06:18:16.731927 12086 net.cpp:408] L3_b3_sum_eltwise_top_L3_b3_relu_0_split -> L3_b3_sum_eltwise_top_L3_b3_relu_0_split_1
I1212 06:18:16.732009 12086 net.cpp:150] Setting up L3_b3_sum_eltwise_top_L3_b3_relu_0_split
I1212 06:18:16.732028 12086 net.cpp:157] Top shape: 125 64 8 8 (512000)
I1212 06:18:16.732040 12086 net.cpp:157] Top shape: 125 64 8 8 (512000)
I1212 06:18:16.732049 12086 net.cpp:165] Memory required for data: 1319425500
I1212 06:18:16.732060 12086 layer_factory.hpp:77] Creating layer L3_b4_cbr1_conv
I1212 06:18:16.732100 12086 net.cpp:100] Creating Layer L3_b4_cbr1_conv
I1212 06:18:16.732115 12086 net.cpp:434] L3_b4_cbr1_conv <- L3_b3_sum_eltwise_top_L3_b3_relu_0_split_0
I1212 06:18:16.732133 12086 net.cpp:408] L3_b4_cbr1_conv -> L3_b4_cbr1_conv_top
I1212 06:18:16.733214 12086 net.cpp:150] Setting up L3_b4_cbr1_conv
I1212 06:18:16.733242 12086 net.cpp:157] Top shape: 125 64 8 8 (512000)
I1212 06:18:16.733252 12086 net.cpp:165] Memory required for data: 1321473500
I1212 06:18:16.733269 12086 layer_factory.hpp:77] Creating layer L3_b4_cbr1_bn
I1212 06:18:16.733295 12086 net.cpp:100] Creating Layer L3_b4_cbr1_bn
I1212 06:18:16.733309 12086 net.cpp:434] L3_b4_cbr1_bn <- L3_b4_cbr1_conv_top
I1212 06:18:16.733326 12086 net.cpp:408] L3_b4_cbr1_bn -> L3_b4_cbr1_bn_top
I1212 06:18:16.733635 12086 net.cpp:150] Setting up L3_b4_cbr1_bn
I1212 06:18:16.733654 12086 net.cpp:157] Top shape: 125 64 8 8 (512000)
I1212 06:18:16.733664 12086 net.cpp:165] Memory required for data: 1323521500
I1212 06:18:16.733685 12086 layer_factory.hpp:77] Creating layer L3_b4_cbr1_scale
I1212 06:18:16.733702 12086 net.cpp:100] Creating Layer L3_b4_cbr1_scale
I1212 06:18:16.733714 12086 net.cpp:434] L3_b4_cbr1_scale <- L3_b4_cbr1_bn_top
I1212 06:18:16.733729 12086 net.cpp:395] L3_b4_cbr1_scale -> L3_b4_cbr1_bn_top (in-place)
I1212 06:18:16.733829 12086 layer_factory.hpp:77] Creating layer L3_b4_cbr1_scale
I1212 06:18:16.734026 12086 net.cpp:150] Setting up L3_b4_cbr1_scale
I1212 06:18:16.734046 12086 net.cpp:157] Top shape: 125 64 8 8 (512000)
I1212 06:18:16.734056 12086 net.cpp:165] Memory required for data: 1325569500
I1212 06:18:16.734081 12086 layer_factory.hpp:77] Creating layer L3_b4_cbr1_relu
I1212 06:18:16.734098 12086 net.cpp:100] Creating Layer L3_b4_cbr1_relu
I1212 06:18:16.734110 12086 net.cpp:434] L3_b4_cbr1_relu <- L3_b4_cbr1_bn_top
I1212 06:18:16.734125 12086 net.cpp:395] L3_b4_cbr1_relu -> L3_b4_cbr1_bn_top (in-place)
I1212 06:18:16.734149 12086 net.cpp:150] Setting up L3_b4_cbr1_relu
I1212 06:18:16.734165 12086 net.cpp:157] Top shape: 125 64 8 8 (512000)
I1212 06:18:16.734176 12086 net.cpp:165] Memory required for data: 1327617500
I1212 06:18:16.734186 12086 layer_factory.hpp:77] Creating layer L3_b4_cbr2_conv
I1212 06:18:16.734207 12086 net.cpp:100] Creating Layer L3_b4_cbr2_conv
I1212 06:18:16.734226 12086 net.cpp:434] L3_b4_cbr2_conv <- L3_b4_cbr1_bn_top
I1212 06:18:16.734243 12086 net.cpp:408] L3_b4_cbr2_conv -> L3_b4_cbr2_conv_top
I1212 06:18:16.735318 12086 net.cpp:150] Setting up L3_b4_cbr2_conv
I1212 06:18:16.735337 12086 net.cpp:157] Top shape: 125 64 8 8 (512000)
I1212 06:18:16.735347 12086 net.cpp:165] Memory required for data: 1329665500
I1212 06:18:16.735365 12086 layer_factory.hpp:77] Creating layer L3_b4_cbr2_bn
I1212 06:18:16.735386 12086 net.cpp:100] Creating Layer L3_b4_cbr2_bn
I1212 06:18:16.735399 12086 net.cpp:434] L3_b4_cbr2_bn <- L3_b4_cbr2_conv_top
I1212 06:18:16.735417 12086 net.cpp:408] L3_b4_cbr2_bn -> L3_b4_cbr2_bn_top
I1212 06:18:16.735734 12086 net.cpp:150] Setting up L3_b4_cbr2_bn
I1212 06:18:16.735754 12086 net.cpp:157] Top shape: 125 64 8 8 (512000)
I1212 06:18:16.735764 12086 net.cpp:165] Memory required for data: 1331713500
I1212 06:18:16.735785 12086 layer_factory.hpp:77] Creating layer L3_b4_cbr2_scale
I1212 06:18:16.735806 12086 net.cpp:100] Creating Layer L3_b4_cbr2_scale
I1212 06:18:16.735819 12086 net.cpp:434] L3_b4_cbr2_scale <- L3_b4_cbr2_bn_top
I1212 06:18:16.735836 12086 net.cpp:395] L3_b4_cbr2_scale -> L3_b4_cbr2_bn_top (in-place)
I1212 06:18:16.735934 12086 layer_factory.hpp:77] Creating layer L3_b4_cbr2_scale
I1212 06:18:16.736145 12086 net.cpp:150] Setting up L3_b4_cbr2_scale
I1212 06:18:16.736166 12086 net.cpp:157] Top shape: 125 64 8 8 (512000)
I1212 06:18:16.736174 12086 net.cpp:165] Memory required for data: 1333761500
I1212 06:18:16.736193 12086 layer_factory.hpp:77] Creating layer L3_b4_sum_eltwise
I1212 06:18:16.736214 12086 net.cpp:100] Creating Layer L3_b4_sum_eltwise
I1212 06:18:16.736227 12086 net.cpp:434] L3_b4_sum_eltwise <- L3_b4_cbr2_bn_top
I1212 06:18:16.736241 12086 net.cpp:434] L3_b4_sum_eltwise <- L3_b3_sum_eltwise_top_L3_b3_relu_0_split_1
I1212 06:18:16.736263 12086 net.cpp:408] L3_b4_sum_eltwise -> L3_b4_sum_eltwise_top
I1212 06:18:16.736320 12086 net.cpp:150] Setting up L3_b4_sum_eltwise
I1212 06:18:16.736340 12086 net.cpp:157] Top shape: 125 64 8 8 (512000)
I1212 06:18:16.736358 12086 net.cpp:165] Memory required for data: 1335809500
I1212 06:18:16.736371 12086 layer_factory.hpp:77] Creating layer L3_b4_relu
I1212 06:18:16.736389 12086 net.cpp:100] Creating Layer L3_b4_relu
I1212 06:18:16.736402 12086 net.cpp:434] L3_b4_relu <- L3_b4_sum_eltwise_top
I1212 06:18:16.736418 12086 net.cpp:395] L3_b4_relu -> L3_b4_sum_eltwise_top (in-place)
I1212 06:18:16.736438 12086 net.cpp:150] Setting up L3_b4_relu
I1212 06:18:16.736452 12086 net.cpp:157] Top shape: 125 64 8 8 (512000)
I1212 06:18:16.736464 12086 net.cpp:165] Memory required for data: 1337857500
I1212 06:18:16.736474 12086 layer_factory.hpp:77] Creating layer L3_b4_sum_eltwise_top_L3_b4_relu_0_split
I1212 06:18:16.736487 12086 net.cpp:100] Creating Layer L3_b4_sum_eltwise_top_L3_b4_relu_0_split
I1212 06:18:16.736498 12086 net.cpp:434] L3_b4_sum_eltwise_top_L3_b4_relu_0_split <- L3_b4_sum_eltwise_top
I1212 06:18:16.736515 12086 net.cpp:408] L3_b4_sum_eltwise_top_L3_b4_relu_0_split -> L3_b4_sum_eltwise_top_L3_b4_relu_0_split_0
I1212 06:18:16.736536 12086 net.cpp:408] L3_b4_sum_eltwise_top_L3_b4_relu_0_split -> L3_b4_sum_eltwise_top_L3_b4_relu_0_split_1
I1212 06:18:16.736624 12086 net.cpp:150] Setting up L3_b4_sum_eltwise_top_L3_b4_relu_0_split
I1212 06:18:16.736641 12086 net.cpp:157] Top shape: 125 64 8 8 (512000)
I1212 06:18:16.736654 12086 net.cpp:157] Top shape: 125 64 8 8 (512000)
I1212 06:18:16.736663 12086 net.cpp:165] Memory required for data: 1341953500
I1212 06:18:16.736673 12086 layer_factory.hpp:77] Creating layer L3_b5_cbr1_conv
I1212 06:18:16.736699 12086 net.cpp:100] Creating Layer L3_b5_cbr1_conv
I1212 06:18:16.736712 12086 net.cpp:434] L3_b5_cbr1_conv <- L3_b4_sum_eltwise_top_L3_b4_relu_0_split_0
I1212 06:18:16.736732 12086 net.cpp:408] L3_b5_cbr1_conv -> L3_b5_cbr1_conv_top
I1212 06:18:16.737813 12086 net.cpp:150] Setting up L3_b5_cbr1_conv
I1212 06:18:16.737834 12086 net.cpp:157] Top shape: 125 64 8 8 (512000)
I1212 06:18:16.737844 12086 net.cpp:165] Memory required for data: 1344001500
I1212 06:18:16.737862 12086 layer_factory.hpp:77] Creating layer L3_b5_cbr1_bn
I1212 06:18:16.737884 12086 net.cpp:100] Creating Layer L3_b5_cbr1_bn
I1212 06:18:16.737897 12086 net.cpp:434] L3_b5_cbr1_bn <- L3_b5_cbr1_conv_top
I1212 06:18:16.737920 12086 net.cpp:408] L3_b5_cbr1_bn -> L3_b5_cbr1_bn_top
I1212 06:18:16.739282 12086 net.cpp:150] Setting up L3_b5_cbr1_bn
I1212 06:18:16.739305 12086 net.cpp:157] Top shape: 125 64 8 8 (512000)
I1212 06:18:16.739315 12086 net.cpp:165] Memory required for data: 1346049500
I1212 06:18:16.739336 12086 layer_factory.hpp:77] Creating layer L3_b5_cbr1_scale
I1212 06:18:16.739358 12086 net.cpp:100] Creating Layer L3_b5_cbr1_scale
I1212 06:18:16.739372 12086 net.cpp:434] L3_b5_cbr1_scale <- L3_b5_cbr1_bn_top
I1212 06:18:16.739387 12086 net.cpp:395] L3_b5_cbr1_scale -> L3_b5_cbr1_bn_top (in-place)
I1212 06:18:16.739486 12086 layer_factory.hpp:77] Creating layer L3_b5_cbr1_scale
I1212 06:18:16.739683 12086 net.cpp:150] Setting up L3_b5_cbr1_scale
I1212 06:18:16.739702 12086 net.cpp:157] Top shape: 125 64 8 8 (512000)
I1212 06:18:16.739712 12086 net.cpp:165] Memory required for data: 1348097500
I1212 06:18:16.739732 12086 layer_factory.hpp:77] Creating layer L3_b5_cbr1_relu
I1212 06:18:16.739753 12086 net.cpp:100] Creating Layer L3_b5_cbr1_relu
I1212 06:18:16.739765 12086 net.cpp:434] L3_b5_cbr1_relu <- L3_b5_cbr1_bn_top
I1212 06:18:16.739780 12086 net.cpp:395] L3_b5_cbr1_relu -> L3_b5_cbr1_bn_top (in-place)
I1212 06:18:16.739800 12086 net.cpp:150] Setting up L3_b5_cbr1_relu
I1212 06:18:16.739820 12086 net.cpp:157] Top shape: 125 64 8 8 (512000)
I1212 06:18:16.739830 12086 net.cpp:165] Memory required for data: 1350145500
I1212 06:18:16.739841 12086 layer_factory.hpp:77] Creating layer L3_b5_cbr2_conv
I1212 06:18:16.739862 12086 net.cpp:100] Creating Layer L3_b5_cbr2_conv
I1212 06:18:16.739876 12086 net.cpp:434] L3_b5_cbr2_conv <- L3_b5_cbr1_bn_top
I1212 06:18:16.739898 12086 net.cpp:408] L3_b5_cbr2_conv -> L3_b5_cbr2_conv_top
I1212 06:18:16.742012 12086 net.cpp:150] Setting up L3_b5_cbr2_conv
I1212 06:18:16.742040 12086 net.cpp:157] Top shape: 125 64 8 8 (512000)
I1212 06:18:16.742050 12086 net.cpp:165] Memory required for data: 1352193500
I1212 06:18:16.742069 12086 layer_factory.hpp:77] Creating layer L3_b5_cbr2_bn
I1212 06:18:16.742100 12086 net.cpp:100] Creating Layer L3_b5_cbr2_bn
I1212 06:18:16.742112 12086 net.cpp:434] L3_b5_cbr2_bn <- L3_b5_cbr2_conv_top
I1212 06:18:16.742130 12086 net.cpp:408] L3_b5_cbr2_bn -> L3_b5_cbr2_bn_top
I1212 06:18:16.742431 12086 net.cpp:150] Setting up L3_b5_cbr2_bn
I1212 06:18:16.742450 12086 net.cpp:157] Top shape: 125 64 8 8 (512000)
I1212 06:18:16.742460 12086 net.cpp:165] Memory required for data: 1354241500
I1212 06:18:16.742482 12086 layer_factory.hpp:77] Creating layer L3_b5_cbr2_scale
I1212 06:18:16.742504 12086 net.cpp:100] Creating Layer L3_b5_cbr2_scale
I1212 06:18:16.742517 12086 net.cpp:434] L3_b5_cbr2_scale <- L3_b5_cbr2_bn_top
I1212 06:18:16.742533 12086 net.cpp:395] L3_b5_cbr2_scale -> L3_b5_cbr2_bn_top (in-place)
I1212 06:18:16.742627 12086 layer_factory.hpp:77] Creating layer L3_b5_cbr2_scale
I1212 06:18:16.742820 12086 net.cpp:150] Setting up L3_b5_cbr2_scale
I1212 06:18:16.742839 12086 net.cpp:157] Top shape: 125 64 8 8 (512000)
I1212 06:18:16.742849 12086 net.cpp:165] Memory required for data: 1356289500
I1212 06:18:16.742867 12086 layer_factory.hpp:77] Creating layer L3_b5_sum_eltwise
I1212 06:18:16.742888 12086 net.cpp:100] Creating Layer L3_b5_sum_eltwise
I1212 06:18:16.742902 12086 net.cpp:434] L3_b5_sum_eltwise <- L3_b5_cbr2_bn_top
I1212 06:18:16.742915 12086 net.cpp:434] L3_b5_sum_eltwise <- L3_b4_sum_eltwise_top_L3_b4_relu_0_split_1
I1212 06:18:16.742936 12086 net.cpp:408] L3_b5_sum_eltwise -> L3_b5_sum_eltwise_top
I1212 06:18:16.742992 12086 net.cpp:150] Setting up L3_b5_sum_eltwise
I1212 06:18:16.743011 12086 net.cpp:157] Top shape: 125 64 8 8 (512000)
I1212 06:18:16.743021 12086 net.cpp:165] Memory required for data: 1358337500
I1212 06:18:16.743033 12086 layer_factory.hpp:77] Creating layer L3_b5_relu
I1212 06:18:16.743053 12086 net.cpp:100] Creating Layer L3_b5_relu
I1212 06:18:16.743065 12086 net.cpp:434] L3_b5_relu <- L3_b5_sum_eltwise_top
I1212 06:18:16.743088 12086 net.cpp:395] L3_b5_relu -> L3_b5_sum_eltwise_top (in-place)
I1212 06:18:16.743108 12086 net.cpp:150] Setting up L3_b5_relu
I1212 06:18:16.743124 12086 net.cpp:157] Top shape: 125 64 8 8 (512000)
I1212 06:18:16.743134 12086 net.cpp:165] Memory required for data: 1360385500
I1212 06:18:16.743144 12086 layer_factory.hpp:77] Creating layer L3_b5_sum_eltwise_top_L3_b5_relu_0_split
I1212 06:18:16.743157 12086 net.cpp:100] Creating Layer L3_b5_sum_eltwise_top_L3_b5_relu_0_split
I1212 06:18:16.743170 12086 net.cpp:434] L3_b5_sum_eltwise_top_L3_b5_relu_0_split <- L3_b5_sum_eltwise_top
I1212 06:18:16.743185 12086 net.cpp:408] L3_b5_sum_eltwise_top_L3_b5_relu_0_split -> L3_b5_sum_eltwise_top_L3_b5_relu_0_split_0
I1212 06:18:16.743206 12086 net.cpp:408] L3_b5_sum_eltwise_top_L3_b5_relu_0_split -> L3_b5_sum_eltwise_top_L3_b5_relu_0_split_1
I1212 06:18:16.743290 12086 net.cpp:150] Setting up L3_b5_sum_eltwise_top_L3_b5_relu_0_split
I1212 06:18:16.743310 12086 net.cpp:157] Top shape: 125 64 8 8 (512000)
I1212 06:18:16.743324 12086 net.cpp:157] Top shape: 125 64 8 8 (512000)
I1212 06:18:16.743333 12086 net.cpp:165] Memory required for data: 1364481500
I1212 06:18:16.743343 12086 layer_factory.hpp:77] Creating layer L3_b6_cbr1_conv
I1212 06:18:16.743369 12086 net.cpp:100] Creating Layer L3_b6_cbr1_conv
I1212 06:18:16.743382 12086 net.cpp:434] L3_b6_cbr1_conv <- L3_b5_sum_eltwise_top_L3_b5_relu_0_split_0
I1212 06:18:16.743403 12086 net.cpp:408] L3_b6_cbr1_conv -> L3_b6_cbr1_conv_top
I1212 06:18:16.744472 12086 net.cpp:150] Setting up L3_b6_cbr1_conv
I1212 06:18:16.744493 12086 net.cpp:157] Top shape: 125 64 8 8 (512000)
I1212 06:18:16.744501 12086 net.cpp:165] Memory required for data: 1366529500
I1212 06:18:16.744519 12086 layer_factory.hpp:77] Creating layer L3_b6_cbr1_bn
I1212 06:18:16.744542 12086 net.cpp:100] Creating Layer L3_b6_cbr1_bn
I1212 06:18:16.744555 12086 net.cpp:434] L3_b6_cbr1_bn <- L3_b6_cbr1_conv_top
I1212 06:18:16.744581 12086 net.cpp:408] L3_b6_cbr1_bn -> L3_b6_cbr1_bn_top
I1212 06:18:16.744890 12086 net.cpp:150] Setting up L3_b6_cbr1_bn
I1212 06:18:16.744910 12086 net.cpp:157] Top shape: 125 64 8 8 (512000)
I1212 06:18:16.744920 12086 net.cpp:165] Memory required for data: 1368577500
I1212 06:18:16.744941 12086 layer_factory.hpp:77] Creating layer L3_b6_cbr1_scale
I1212 06:18:16.744958 12086 net.cpp:100] Creating Layer L3_b6_cbr1_scale
I1212 06:18:16.744971 12086 net.cpp:434] L3_b6_cbr1_scale <- L3_b6_cbr1_bn_top
I1212 06:18:16.744987 12086 net.cpp:395] L3_b6_cbr1_scale -> L3_b6_cbr1_bn_top (in-place)
I1212 06:18:16.745095 12086 layer_factory.hpp:77] Creating layer L3_b6_cbr1_scale
I1212 06:18:16.745292 12086 net.cpp:150] Setting up L3_b6_cbr1_scale
I1212 06:18:16.745311 12086 net.cpp:157] Top shape: 125 64 8 8 (512000)
I1212 06:18:16.745321 12086 net.cpp:165] Memory required for data: 1370625500
I1212 06:18:16.745339 12086 layer_factory.hpp:77] Creating layer L3_b6_cbr1_relu
I1212 06:18:16.745355 12086 net.cpp:100] Creating Layer L3_b6_cbr1_relu
I1212 06:18:16.745368 12086 net.cpp:434] L3_b6_cbr1_relu <- L3_b6_cbr1_bn_top
I1212 06:18:16.745389 12086 net.cpp:395] L3_b6_cbr1_relu -> L3_b6_cbr1_bn_top (in-place)
I1212 06:18:16.745411 12086 net.cpp:150] Setting up L3_b6_cbr1_relu
I1212 06:18:16.745426 12086 net.cpp:157] Top shape: 125 64 8 8 (512000)
I1212 06:18:16.745435 12086 net.cpp:165] Memory required for data: 1372673500
I1212 06:18:16.745446 12086 layer_factory.hpp:77] Creating layer L3_b6_cbr2_conv
I1212 06:18:16.745471 12086 net.cpp:100] Creating Layer L3_b6_cbr2_conv
I1212 06:18:16.745486 12086 net.cpp:434] L3_b6_cbr2_conv <- L3_b6_cbr1_bn_top
I1212 06:18:16.745503 12086 net.cpp:408] L3_b6_cbr2_conv -> L3_b6_cbr2_conv_top
I1212 06:18:16.746568 12086 net.cpp:150] Setting up L3_b6_cbr2_conv
I1212 06:18:16.746588 12086 net.cpp:157] Top shape: 125 64 8 8 (512000)
I1212 06:18:16.746598 12086 net.cpp:165] Memory required for data: 1374721500
I1212 06:18:16.746616 12086 layer_factory.hpp:77] Creating layer L3_b6_cbr2_bn
I1212 06:18:16.746639 12086 net.cpp:100] Creating Layer L3_b6_cbr2_bn
I1212 06:18:16.746651 12086 net.cpp:434] L3_b6_cbr2_bn <- L3_b6_cbr2_conv_top
I1212 06:18:16.746668 12086 net.cpp:408] L3_b6_cbr2_bn -> L3_b6_cbr2_bn_top
I1212 06:18:16.746968 12086 net.cpp:150] Setting up L3_b6_cbr2_bn
I1212 06:18:16.746986 12086 net.cpp:157] Top shape: 125 64 8 8 (512000)
I1212 06:18:16.746996 12086 net.cpp:165] Memory required for data: 1376769500
I1212 06:18:16.747018 12086 layer_factory.hpp:77] Creating layer L3_b6_cbr2_scale
I1212 06:18:16.747042 12086 net.cpp:100] Creating Layer L3_b6_cbr2_scale
I1212 06:18:16.747056 12086 net.cpp:434] L3_b6_cbr2_scale <- L3_b6_cbr2_bn_top
I1212 06:18:16.747078 12086 net.cpp:395] L3_b6_cbr2_scale -> L3_b6_cbr2_bn_top (in-place)
I1212 06:18:16.747184 12086 layer_factory.hpp:77] Creating layer L3_b6_cbr2_scale
I1212 06:18:16.747377 12086 net.cpp:150] Setting up L3_b6_cbr2_scale
I1212 06:18:16.747397 12086 net.cpp:157] Top shape: 125 64 8 8 (512000)
I1212 06:18:16.747406 12086 net.cpp:165] Memory required for data: 1378817500
I1212 06:18:16.747426 12086 layer_factory.hpp:77] Creating layer L3_b6_sum_eltwise
I1212 06:18:16.747445 12086 net.cpp:100] Creating Layer L3_b6_sum_eltwise
I1212 06:18:16.747458 12086 net.cpp:434] L3_b6_sum_eltwise <- L3_b6_cbr2_bn_top
I1212 06:18:16.747472 12086 net.cpp:434] L3_b6_sum_eltwise <- L3_b5_sum_eltwise_top_L3_b5_relu_0_split_1
I1212 06:18:16.747493 12086 net.cpp:408] L3_b6_sum_eltwise -> L3_b6_sum_eltwise_top
I1212 06:18:16.747548 12086 net.cpp:150] Setting up L3_b6_sum_eltwise
I1212 06:18:16.747567 12086 net.cpp:157] Top shape: 125 64 8 8 (512000)
I1212 06:18:16.747577 12086 net.cpp:165] Memory required for data: 1380865500
I1212 06:18:16.747587 12086 layer_factory.hpp:77] Creating layer L3_b6_relu
I1212 06:18:16.747606 12086 net.cpp:100] Creating Layer L3_b6_relu
I1212 06:18:16.747620 12086 net.cpp:434] L3_b6_relu <- L3_b6_sum_eltwise_top
I1212 06:18:16.747634 12086 net.cpp:395] L3_b6_relu -> L3_b6_sum_eltwise_top (in-place)
I1212 06:18:16.747669 12086 net.cpp:150] Setting up L3_b6_relu
I1212 06:18:16.747686 12086 net.cpp:157] Top shape: 125 64 8 8 (512000)
I1212 06:18:16.747696 12086 net.cpp:165] Memory required for data: 1382913500
I1212 06:18:16.747705 12086 layer_factory.hpp:77] Creating layer L3_b6_sum_eltwise_top_L3_b6_relu_0_split
I1212 06:18:16.747720 12086 net.cpp:100] Creating Layer L3_b6_sum_eltwise_top_L3_b6_relu_0_split
I1212 06:18:16.747732 12086 net.cpp:434] L3_b6_sum_eltwise_top_L3_b6_relu_0_split <- L3_b6_sum_eltwise_top
I1212 06:18:16.747747 12086 net.cpp:408] L3_b6_sum_eltwise_top_L3_b6_relu_0_split -> L3_b6_sum_eltwise_top_L3_b6_relu_0_split_0
I1212 06:18:16.747768 12086 net.cpp:408] L3_b6_sum_eltwise_top_L3_b6_relu_0_split -> L3_b6_sum_eltwise_top_L3_b6_relu_0_split_1
I1212 06:18:16.747855 12086 net.cpp:150] Setting up L3_b6_sum_eltwise_top_L3_b6_relu_0_split
I1212 06:18:16.747874 12086 net.cpp:157] Top shape: 125 64 8 8 (512000)
I1212 06:18:16.747887 12086 net.cpp:157] Top shape: 125 64 8 8 (512000)
I1212 06:18:16.747897 12086 net.cpp:165] Memory required for data: 1387009500
I1212 06:18:16.747907 12086 layer_factory.hpp:77] Creating layer L3_b7_cbr1_conv
I1212 06:18:16.747932 12086 net.cpp:100] Creating Layer L3_b7_cbr1_conv
I1212 06:18:16.747946 12086 net.cpp:434] L3_b7_cbr1_conv <- L3_b6_sum_eltwise_top_L3_b6_relu_0_split_0
I1212 06:18:16.747965 12086 net.cpp:408] L3_b7_cbr1_conv -> L3_b7_cbr1_conv_top
I1212 06:18:16.749032 12086 net.cpp:150] Setting up L3_b7_cbr1_conv
I1212 06:18:16.749053 12086 net.cpp:157] Top shape: 125 64 8 8 (512000)
I1212 06:18:16.749061 12086 net.cpp:165] Memory required for data: 1389057500
I1212 06:18:16.749086 12086 layer_factory.hpp:77] Creating layer L3_b7_cbr1_bn
I1212 06:18:16.749112 12086 net.cpp:100] Creating Layer L3_b7_cbr1_bn
I1212 06:18:16.749126 12086 net.cpp:434] L3_b7_cbr1_bn <- L3_b7_cbr1_conv_top
I1212 06:18:16.749148 12086 net.cpp:408] L3_b7_cbr1_bn -> L3_b7_cbr1_bn_top
I1212 06:18:16.749460 12086 net.cpp:150] Setting up L3_b7_cbr1_bn
I1212 06:18:16.749480 12086 net.cpp:157] Top shape: 125 64 8 8 (512000)
I1212 06:18:16.749490 12086 net.cpp:165] Memory required for data: 1391105500
I1212 06:18:16.749511 12086 layer_factory.hpp:77] Creating layer L3_b7_cbr1_scale
I1212 06:18:16.749528 12086 net.cpp:100] Creating Layer L3_b7_cbr1_scale
I1212 06:18:16.749541 12086 net.cpp:434] L3_b7_cbr1_scale <- L3_b7_cbr1_bn_top
I1212 06:18:16.749557 12086 net.cpp:395] L3_b7_cbr1_scale -> L3_b7_cbr1_bn_top (in-place)
I1212 06:18:16.749652 12086 layer_factory.hpp:77] Creating layer L3_b7_cbr1_scale
I1212 06:18:16.749848 12086 net.cpp:150] Setting up L3_b7_cbr1_scale
I1212 06:18:16.749867 12086 net.cpp:157] Top shape: 125 64 8 8 (512000)
I1212 06:18:16.749876 12086 net.cpp:165] Memory required for data: 1393153500
I1212 06:18:16.749896 12086 layer_factory.hpp:77] Creating layer L3_b7_cbr1_relu
I1212 06:18:16.749948 12086 net.cpp:100] Creating Layer L3_b7_cbr1_relu
I1212 06:18:16.749963 12086 net.cpp:434] L3_b7_cbr1_relu <- L3_b7_cbr1_bn_top
I1212 06:18:16.749979 12086 net.cpp:395] L3_b7_cbr1_relu -> L3_b7_cbr1_bn_top (in-place)
I1212 06:18:16.749999 12086 net.cpp:150] Setting up L3_b7_cbr1_relu
I1212 06:18:16.750013 12086 net.cpp:157] Top shape: 125 64 8 8 (512000)
I1212 06:18:16.750022 12086 net.cpp:165] Memory required for data: 1395201500
I1212 06:18:16.750035 12086 layer_factory.hpp:77] Creating layer L3_b7_cbr2_conv
I1212 06:18:16.750061 12086 net.cpp:100] Creating Layer L3_b7_cbr2_conv
I1212 06:18:16.750082 12086 net.cpp:434] L3_b7_cbr2_conv <- L3_b7_cbr1_bn_top
I1212 06:18:16.750103 12086 net.cpp:408] L3_b7_cbr2_conv -> L3_b7_cbr2_conv_top
I1212 06:18:16.751190 12086 net.cpp:150] Setting up L3_b7_cbr2_conv
I1212 06:18:16.751211 12086 net.cpp:157] Top shape: 125 64 8 8 (512000)
I1212 06:18:16.751221 12086 net.cpp:165] Memory required for data: 1397249500
I1212 06:18:16.751242 12086 layer_factory.hpp:77] Creating layer L3_b7_cbr2_bn
I1212 06:18:16.751265 12086 net.cpp:100] Creating Layer L3_b7_cbr2_bn
I1212 06:18:16.751277 12086 net.cpp:434] L3_b7_cbr2_bn <- L3_b7_cbr2_conv_top
I1212 06:18:16.751302 12086 net.cpp:408] L3_b7_cbr2_bn -> L3_b7_cbr2_bn_top
I1212 06:18:16.751621 12086 net.cpp:150] Setting up L3_b7_cbr2_bn
I1212 06:18:16.751641 12086 net.cpp:157] Top shape: 125 64 8 8 (512000)
I1212 06:18:16.751652 12086 net.cpp:165] Memory required for data: 1399297500
I1212 06:18:16.751672 12086 layer_factory.hpp:77] Creating layer L3_b7_cbr2_scale
I1212 06:18:16.751689 12086 net.cpp:100] Creating Layer L3_b7_cbr2_scale
I1212 06:18:16.751701 12086 net.cpp:434] L3_b7_cbr2_scale <- L3_b7_cbr2_bn_top
I1212 06:18:16.751718 12086 net.cpp:395] L3_b7_cbr2_scale -> L3_b7_cbr2_bn_top (in-place)
I1212 06:18:16.751814 12086 layer_factory.hpp:77] Creating layer L3_b7_cbr2_scale
I1212 06:18:16.752013 12086 net.cpp:150] Setting up L3_b7_cbr2_scale
I1212 06:18:16.752033 12086 net.cpp:157] Top shape: 125 64 8 8 (512000)
I1212 06:18:16.752043 12086 net.cpp:165] Memory required for data: 1401345500
I1212 06:18:16.752061 12086 layer_factory.hpp:77] Creating layer L3_b7_sum_eltwise
I1212 06:18:16.752085 12086 net.cpp:100] Creating Layer L3_b7_sum_eltwise
I1212 06:18:16.752099 12086 net.cpp:434] L3_b7_sum_eltwise <- L3_b7_cbr2_bn_top
I1212 06:18:16.752112 12086 net.cpp:434] L3_b7_sum_eltwise <- L3_b6_sum_eltwise_top_L3_b6_relu_0_split_1
I1212 06:18:16.752137 12086 net.cpp:408] L3_b7_sum_eltwise -> L3_b7_sum_eltwise_top
I1212 06:18:16.752195 12086 net.cpp:150] Setting up L3_b7_sum_eltwise
I1212 06:18:16.752219 12086 net.cpp:157] Top shape: 125 64 8 8 (512000)
I1212 06:18:16.752229 12086 net.cpp:165] Memory required for data: 1403393500
I1212 06:18:16.752240 12086 layer_factory.hpp:77] Creating layer L3_b7_relu
I1212 06:18:16.752255 12086 net.cpp:100] Creating Layer L3_b7_relu
I1212 06:18:16.752267 12086 net.cpp:434] L3_b7_relu <- L3_b7_sum_eltwise_top
I1212 06:18:16.752282 12086 net.cpp:395] L3_b7_relu -> L3_b7_sum_eltwise_top (in-place)
I1212 06:18:16.752301 12086 net.cpp:150] Setting up L3_b7_relu
I1212 06:18:16.752315 12086 net.cpp:157] Top shape: 125 64 8 8 (512000)
I1212 06:18:16.752326 12086 net.cpp:165] Memory required for data: 1405441500
I1212 06:18:16.752336 12086 layer_factory.hpp:77] Creating layer L3_b7_sum_eltwise_top_L3_b7_relu_0_split
I1212 06:18:16.752357 12086 net.cpp:100] Creating Layer L3_b7_sum_eltwise_top_L3_b7_relu_0_split
I1212 06:18:16.752368 12086 net.cpp:434] L3_b7_sum_eltwise_top_L3_b7_relu_0_split <- L3_b7_sum_eltwise_top
I1212 06:18:16.752384 12086 net.cpp:408] L3_b7_sum_eltwise_top_L3_b7_relu_0_split -> L3_b7_sum_eltwise_top_L3_b7_relu_0_split_0
I1212 06:18:16.752405 12086 net.cpp:408] L3_b7_sum_eltwise_top_L3_b7_relu_0_split -> L3_b7_sum_eltwise_top_L3_b7_relu_0_split_1
I1212 06:18:16.752492 12086 net.cpp:150] Setting up L3_b7_sum_eltwise_top_L3_b7_relu_0_split
I1212 06:18:16.752511 12086 net.cpp:157] Top shape: 125 64 8 8 (512000)
I1212 06:18:16.752524 12086 net.cpp:157] Top shape: 125 64 8 8 (512000)
I1212 06:18:16.752534 12086 net.cpp:165] Memory required for data: 1409537500
I1212 06:18:16.752544 12086 layer_factory.hpp:77] Creating layer L3_b8_cbr1_conv
I1212 06:18:16.752565 12086 net.cpp:100] Creating Layer L3_b8_cbr1_conv
I1212 06:18:16.752578 12086 net.cpp:434] L3_b8_cbr1_conv <- L3_b7_sum_eltwise_top_L3_b7_relu_0_split_0
I1212 06:18:16.752602 12086 net.cpp:408] L3_b8_cbr1_conv -> L3_b8_cbr1_conv_top
I1212 06:18:16.753679 12086 net.cpp:150] Setting up L3_b8_cbr1_conv
I1212 06:18:16.753698 12086 net.cpp:157] Top shape: 125 64 8 8 (512000)
I1212 06:18:16.753708 12086 net.cpp:165] Memory required for data: 1411585500
I1212 06:18:16.753726 12086 layer_factory.hpp:77] Creating layer L3_b8_cbr1_bn
I1212 06:18:16.753743 12086 net.cpp:100] Creating Layer L3_b8_cbr1_bn
I1212 06:18:16.753756 12086 net.cpp:434] L3_b8_cbr1_bn <- L3_b8_cbr1_conv_top
I1212 06:18:16.753779 12086 net.cpp:408] L3_b8_cbr1_bn -> L3_b8_cbr1_bn_top
I1212 06:18:16.754099 12086 net.cpp:150] Setting up L3_b8_cbr1_bn
I1212 06:18:16.754130 12086 net.cpp:157] Top shape: 125 64 8 8 (512000)
I1212 06:18:16.754142 12086 net.cpp:165] Memory required for data: 1413633500
I1212 06:18:16.754163 12086 layer_factory.hpp:77] Creating layer L3_b8_cbr1_scale
I1212 06:18:16.754190 12086 net.cpp:100] Creating Layer L3_b8_cbr1_scale
I1212 06:18:16.754204 12086 net.cpp:434] L3_b8_cbr1_scale <- L3_b8_cbr1_bn_top
I1212 06:18:16.754220 12086 net.cpp:395] L3_b8_cbr1_scale -> L3_b8_cbr1_bn_top (in-place)
I1212 06:18:16.754317 12086 layer_factory.hpp:77] Creating layer L3_b8_cbr1_scale
I1212 06:18:16.754513 12086 net.cpp:150] Setting up L3_b8_cbr1_scale
I1212 06:18:16.754534 12086 net.cpp:157] Top shape: 125 64 8 8 (512000)
I1212 06:18:16.754542 12086 net.cpp:165] Memory required for data: 1415681500
I1212 06:18:16.754561 12086 layer_factory.hpp:77] Creating layer L3_b8_cbr1_relu
I1212 06:18:16.754577 12086 net.cpp:100] Creating Layer L3_b8_cbr1_relu
I1212 06:18:16.754590 12086 net.cpp:434] L3_b8_cbr1_relu <- L3_b8_cbr1_bn_top
I1212 06:18:16.754609 12086 net.cpp:395] L3_b8_cbr1_relu -> L3_b8_cbr1_bn_top (in-place)
I1212 06:18:16.754629 12086 net.cpp:150] Setting up L3_b8_cbr1_relu
I1212 06:18:16.754644 12086 net.cpp:157] Top shape: 125 64 8 8 (512000)
I1212 06:18:16.754654 12086 net.cpp:165] Memory required for data: 1417729500
I1212 06:18:16.754664 12086 layer_factory.hpp:77] Creating layer L3_b8_cbr2_conv
I1212 06:18:16.754690 12086 net.cpp:100] Creating Layer L3_b8_cbr2_conv
I1212 06:18:16.754703 12086 net.cpp:434] L3_b8_cbr2_conv <- L3_b8_cbr1_bn_top
I1212 06:18:16.754722 12086 net.cpp:408] L3_b8_cbr2_conv -> L3_b8_cbr2_conv_top
I1212 06:18:16.755792 12086 net.cpp:150] Setting up L3_b8_cbr2_conv
I1212 06:18:16.755813 12086 net.cpp:157] Top shape: 125 64 8 8 (512000)
I1212 06:18:16.755822 12086 net.cpp:165] Memory required for data: 1419777500
I1212 06:18:16.755841 12086 layer_factory.hpp:77] Creating layer L3_b8_cbr2_bn
I1212 06:18:16.755867 12086 net.cpp:100] Creating Layer L3_b8_cbr2_bn
I1212 06:18:16.755880 12086 net.cpp:434] L3_b8_cbr2_bn <- L3_b8_cbr2_conv_top
I1212 06:18:16.755903 12086 net.cpp:408] L3_b8_cbr2_bn -> L3_b8_cbr2_bn_top
I1212 06:18:16.756217 12086 net.cpp:150] Setting up L3_b8_cbr2_bn
I1212 06:18:16.756237 12086 net.cpp:157] Top shape: 125 64 8 8 (512000)
I1212 06:18:16.756247 12086 net.cpp:165] Memory required for data: 1421825500
I1212 06:18:16.756268 12086 layer_factory.hpp:77] Creating layer L3_b8_cbr2_scale
I1212 06:18:16.756285 12086 net.cpp:100] Creating Layer L3_b8_cbr2_scale
I1212 06:18:16.756296 12086 net.cpp:434] L3_b8_cbr2_scale <- L3_b8_cbr2_bn_top
I1212 06:18:16.756312 12086 net.cpp:395] L3_b8_cbr2_scale -> L3_b8_cbr2_bn_top (in-place)
I1212 06:18:16.756412 12086 layer_factory.hpp:77] Creating layer L3_b8_cbr2_scale
I1212 06:18:16.756609 12086 net.cpp:150] Setting up L3_b8_cbr2_scale
I1212 06:18:16.756629 12086 net.cpp:157] Top shape: 125 64 8 8 (512000)
I1212 06:18:16.756639 12086 net.cpp:165] Memory required for data: 1423873500
I1212 06:18:16.756657 12086 layer_factory.hpp:77] Creating layer L3_b8_sum_eltwise
I1212 06:18:16.756673 12086 net.cpp:100] Creating Layer L3_b8_sum_eltwise
I1212 06:18:16.756685 12086 net.cpp:434] L3_b8_sum_eltwise <- L3_b8_cbr2_bn_top
I1212 06:18:16.756698 12086 net.cpp:434] L3_b8_sum_eltwise <- L3_b7_sum_eltwise_top_L3_b7_relu_0_split_1
I1212 06:18:16.756721 12086 net.cpp:408] L3_b8_sum_eltwise -> L3_b8_sum_eltwise_top
I1212 06:18:16.756777 12086 net.cpp:150] Setting up L3_b8_sum_eltwise
I1212 06:18:16.756800 12086 net.cpp:157] Top shape: 125 64 8 8 (512000)
I1212 06:18:16.756811 12086 net.cpp:165] Memory required for data: 1425921500
I1212 06:18:16.756821 12086 layer_factory.hpp:77] Creating layer L3_b8_relu
I1212 06:18:16.756836 12086 net.cpp:100] Creating Layer L3_b8_relu
I1212 06:18:16.756849 12086 net.cpp:434] L3_b8_relu <- L3_b8_sum_eltwise_top
I1212 06:18:16.756863 12086 net.cpp:395] L3_b8_relu -> L3_b8_sum_eltwise_top (in-place)
I1212 06:18:16.756881 12086 net.cpp:150] Setting up L3_b8_relu
I1212 06:18:16.756896 12086 net.cpp:157] Top shape: 125 64 8 8 (512000)
I1212 06:18:16.756906 12086 net.cpp:165] Memory required for data: 1427969500
I1212 06:18:16.756916 12086 layer_factory.hpp:77] Creating layer L3_b8_sum_eltwise_top_L3_b8_relu_0_split
I1212 06:18:16.756940 12086 net.cpp:100] Creating Layer L3_b8_sum_eltwise_top_L3_b8_relu_0_split
I1212 06:18:16.756961 12086 net.cpp:434] L3_b8_sum_eltwise_top_L3_b8_relu_0_split <- L3_b8_sum_eltwise_top
I1212 06:18:16.756978 12086 net.cpp:408] L3_b8_sum_eltwise_top_L3_b8_relu_0_split -> L3_b8_sum_eltwise_top_L3_b8_relu_0_split_0
I1212 06:18:16.757001 12086 net.cpp:408] L3_b8_sum_eltwise_top_L3_b8_relu_0_split -> L3_b8_sum_eltwise_top_L3_b8_relu_0_split_1
I1212 06:18:16.757095 12086 net.cpp:150] Setting up L3_b8_sum_eltwise_top_L3_b8_relu_0_split
I1212 06:18:16.757114 12086 net.cpp:157] Top shape: 125 64 8 8 (512000)
I1212 06:18:16.757128 12086 net.cpp:157] Top shape: 125 64 8 8 (512000)
I1212 06:18:16.757136 12086 net.cpp:165] Memory required for data: 1432065500
I1212 06:18:16.757146 12086 layer_factory.hpp:77] Creating layer L3_b9_cbr1_conv
I1212 06:18:16.757169 12086 net.cpp:100] Creating Layer L3_b9_cbr1_conv
I1212 06:18:16.757181 12086 net.cpp:434] L3_b9_cbr1_conv <- L3_b8_sum_eltwise_top_L3_b8_relu_0_split_0
I1212 06:18:16.757205 12086 net.cpp:408] L3_b9_cbr1_conv -> L3_b9_cbr1_conv_top
I1212 06:18:16.759315 12086 net.cpp:150] Setting up L3_b9_cbr1_conv
I1212 06:18:16.759336 12086 net.cpp:157] Top shape: 125 64 8 8 (512000)
I1212 06:18:16.759347 12086 net.cpp:165] Memory required for data: 1434113500
I1212 06:18:16.759366 12086 layer_factory.hpp:77] Creating layer L3_b9_cbr1_bn
I1212 06:18:16.759388 12086 net.cpp:100] Creating Layer L3_b9_cbr1_bn
I1212 06:18:16.759402 12086 net.cpp:434] L3_b9_cbr1_bn <- L3_b9_cbr1_conv_top
I1212 06:18:16.759423 12086 net.cpp:408] L3_b9_cbr1_bn -> L3_b9_cbr1_bn_top
I1212 06:18:16.759728 12086 net.cpp:150] Setting up L3_b9_cbr1_bn
I1212 06:18:16.759747 12086 net.cpp:157] Top shape: 125 64 8 8 (512000)
I1212 06:18:16.759757 12086 net.cpp:165] Memory required for data: 1436161500
I1212 06:18:16.759779 12086 layer_factory.hpp:77] Creating layer L3_b9_cbr1_scale
I1212 06:18:16.759796 12086 net.cpp:100] Creating Layer L3_b9_cbr1_scale
I1212 06:18:16.759809 12086 net.cpp:434] L3_b9_cbr1_scale <- L3_b9_cbr1_bn_top
I1212 06:18:16.759829 12086 net.cpp:395] L3_b9_cbr1_scale -> L3_b9_cbr1_bn_top (in-place)
I1212 06:18:16.759927 12086 layer_factory.hpp:77] Creating layer L3_b9_cbr1_scale
I1212 06:18:16.760138 12086 net.cpp:150] Setting up L3_b9_cbr1_scale
I1212 06:18:16.760156 12086 net.cpp:157] Top shape: 125 64 8 8 (512000)
I1212 06:18:16.760166 12086 net.cpp:165] Memory required for data: 1438209500
I1212 06:18:16.760185 12086 layer_factory.hpp:77] Creating layer L3_b9_cbr1_relu
I1212 06:18:16.760201 12086 net.cpp:100] Creating Layer L3_b9_cbr1_relu
I1212 06:18:16.760213 12086 net.cpp:434] L3_b9_cbr1_relu <- L3_b9_cbr1_bn_top
I1212 06:18:16.760239 12086 net.cpp:395] L3_b9_cbr1_relu -> L3_b9_cbr1_bn_top (in-place)
I1212 06:18:16.760262 12086 net.cpp:150] Setting up L3_b9_cbr1_relu
I1212 06:18:16.760277 12086 net.cpp:157] Top shape: 125 64 8 8 (512000)
I1212 06:18:16.760288 12086 net.cpp:165] Memory required for data: 1440257500
I1212 06:18:16.760298 12086 layer_factory.hpp:77] Creating layer L3_b9_cbr2_conv
I1212 06:18:16.760324 12086 net.cpp:100] Creating Layer L3_b9_cbr2_conv
I1212 06:18:16.760339 12086 net.cpp:434] L3_b9_cbr2_conv <- L3_b9_cbr1_bn_top
I1212 06:18:16.760360 12086 net.cpp:408] L3_b9_cbr2_conv -> L3_b9_cbr2_conv_top
I1212 06:18:16.761430 12086 net.cpp:150] Setting up L3_b9_cbr2_conv
I1212 06:18:16.761451 12086 net.cpp:157] Top shape: 125 64 8 8 (512000)
I1212 06:18:16.761459 12086 net.cpp:165] Memory required for data: 1442305500
I1212 06:18:16.761477 12086 layer_factory.hpp:77] Creating layer L3_b9_cbr2_bn
I1212 06:18:16.761494 12086 net.cpp:100] Creating Layer L3_b9_cbr2_bn
I1212 06:18:16.761507 12086 net.cpp:434] L3_b9_cbr2_bn <- L3_b9_cbr2_conv_top
I1212 06:18:16.761528 12086 net.cpp:408] L3_b9_cbr2_bn -> L3_b9_cbr2_bn_top
I1212 06:18:16.761837 12086 net.cpp:150] Setting up L3_b9_cbr2_bn
I1212 06:18:16.761859 12086 net.cpp:157] Top shape: 125 64 8 8 (512000)
I1212 06:18:16.761870 12086 net.cpp:165] Memory required for data: 1444353500
I1212 06:18:16.761893 12086 layer_factory.hpp:77] Creating layer L3_b9_cbr2_scale
I1212 06:18:16.761920 12086 net.cpp:100] Creating Layer L3_b9_cbr2_scale
I1212 06:18:16.761934 12086 net.cpp:434] L3_b9_cbr2_scale <- L3_b9_cbr2_bn_top
I1212 06:18:16.761950 12086 net.cpp:395] L3_b9_cbr2_scale -> L3_b9_cbr2_bn_top (in-place)
I1212 06:18:16.762048 12086 layer_factory.hpp:77] Creating layer L3_b9_cbr2_scale
I1212 06:18:16.762246 12086 net.cpp:150] Setting up L3_b9_cbr2_scale
I1212 06:18:16.762265 12086 net.cpp:157] Top shape: 125 64 8 8 (512000)
I1212 06:18:16.762274 12086 net.cpp:165] Memory required for data: 1446401500
I1212 06:18:16.762293 12086 layer_factory.hpp:77] Creating layer L3_b9_sum_eltwise
I1212 06:18:16.762315 12086 net.cpp:100] Creating Layer L3_b9_sum_eltwise
I1212 06:18:16.762327 12086 net.cpp:434] L3_b9_sum_eltwise <- L3_b9_cbr2_bn_top
I1212 06:18:16.762341 12086 net.cpp:434] L3_b9_sum_eltwise <- L3_b8_sum_eltwise_top_L3_b8_relu_0_split_1
I1212 06:18:16.762357 12086 net.cpp:408] L3_b9_sum_eltwise -> L3_b9_sum_eltwise_top
I1212 06:18:16.762418 12086 net.cpp:150] Setting up L3_b9_sum_eltwise
I1212 06:18:16.762436 12086 net.cpp:157] Top shape: 125 64 8 8 (512000)
I1212 06:18:16.762447 12086 net.cpp:165] Memory required for data: 1448449500
I1212 06:18:16.762456 12086 layer_factory.hpp:77] Creating layer L3_b9_relu
I1212 06:18:16.762471 12086 net.cpp:100] Creating Layer L3_b9_relu
I1212 06:18:16.762483 12086 net.cpp:434] L3_b9_relu <- L3_b9_sum_eltwise_top
I1212 06:18:16.762498 12086 net.cpp:395] L3_b9_relu -> L3_b9_sum_eltwise_top (in-place)
I1212 06:18:16.762517 12086 net.cpp:150] Setting up L3_b9_relu
I1212 06:18:16.762532 12086 net.cpp:157] Top shape: 125 64 8 8 (512000)
I1212 06:18:16.762542 12086 net.cpp:165] Memory required for data: 1450497500
I1212 06:18:16.762552 12086 layer_factory.hpp:77] Creating layer post_pool
I1212 06:18:16.762567 12086 net.cpp:100] Creating Layer post_pool
I1212 06:18:16.762580 12086 net.cpp:434] post_pool <- L3_b9_sum_eltwise_top
I1212 06:18:16.762599 12086 net.cpp:408] post_pool -> post_pool
I1212 06:18:16.762660 12086 net.cpp:150] Setting up post_pool
I1212 06:18:16.762677 12086 net.cpp:157] Top shape: 125 64 1 1 (8000)
I1212 06:18:16.762688 12086 net.cpp:165] Memory required for data: 1450529500
I1212 06:18:16.762698 12086 layer_factory.hpp:77] Creating layer post_FC
I1212 06:18:16.762789 12086 net.cpp:100] Creating Layer post_FC
I1212 06:18:16.762805 12086 net.cpp:434] post_FC <- post_pool
I1212 06:18:16.762830 12086 net.cpp:408] post_FC -> post_FC_top
I1212 06:18:16.763098 12086 net.cpp:150] Setting up post_FC
I1212 06:18:16.763118 12086 net.cpp:157] Top shape: 125 10 (1250)
I1212 06:18:16.763128 12086 net.cpp:165] Memory required for data: 1450534500
I1212 06:18:16.763145 12086 layer_factory.hpp:77] Creating layer post_FC_top_post_FC_0_split
I1212 06:18:16.763162 12086 net.cpp:100] Creating Layer post_FC_top_post_FC_0_split
I1212 06:18:16.763175 12086 net.cpp:434] post_FC_top_post_FC_0_split <- post_FC_top
I1212 06:18:16.763196 12086 net.cpp:408] post_FC_top_post_FC_0_split -> post_FC_top_post_FC_0_split_0
I1212 06:18:16.763218 12086 net.cpp:408] post_FC_top_post_FC_0_split -> post_FC_top_post_FC_0_split_1
I1212 06:18:16.763316 12086 net.cpp:150] Setting up post_FC_top_post_FC_0_split
I1212 06:18:16.763335 12086 net.cpp:157] Top shape: 125 10 (1250)
I1212 06:18:16.763347 12086 net.cpp:157] Top shape: 125 10 (1250)
I1212 06:18:16.763357 12086 net.cpp:165] Memory required for data: 1450544500
I1212 06:18:16.763367 12086 layer_factory.hpp:77] Creating layer accuracy
I1212 06:18:16.763382 12086 net.cpp:100] Creating Layer accuracy
I1212 06:18:16.763394 12086 net.cpp:434] accuracy <- post_FC_top_post_FC_0_split_0
I1212 06:18:16.763408 12086 net.cpp:434] accuracy <- label_dataLayer_1_split_0
I1212 06:18:16.763424 12086 net.cpp:408] accuracy -> accuracy
…
