…
I0818 13:44:11.469240 20842 net.cpp:322] The NetState phase (0) differed from the phase (1) specified by a rule in layer L3_b9_cbr2_bn
I0818 13:44:11.471002 20842 net.cpp:58] Initializing net from parameters: 
name: "Cifar-Resnet"
state {
  phase: TRAIN
  level: 0
  stage: ""
}
layer {
  name: "dataLayer"
  type: "Data"
  top: "data_top"
  top: "label"
  include {
    phase: TRAIN
  }
  transform_param {
    mirror: true
    crop_size: 32
    mean_file: "examples/cifar10/mean.binaryproto"
  }
  data_param {
    source: "examples/cifar10/cifar10_train_lmdb"
    batch_size: 125
    backend: LMDB
  }
  image_data_param {
    shuffle: true
  }
}
layer {
  name: "pre_conv"
  type: "Convolution"
  bottom: "data_top"
  top: "pre_conv_top"
  param {
    lr_mult: 1
    decay_mult: 1
  }
  param {
    lr_mult: 2
    decay_mult: 0
  }
  convolution_param {
    num_output: 16
    pad: 1
    kernel_size: 3
    stride: 1
    weight_filler {
      type: "msra"
    }
    bias_filler {
      type: "constant"
    }
  }
}
layer {
  name: "pre_bn"
  type: "BatchNorm"
  bottom: "pre_conv_top"
  top: "pre_bn_top"
  include {
    phase: TRAIN
  }
  batch_norm_param {
    use_global_stats: false
    moving_average_fraction: 0.95
  }
}
layer {
  name: "pre_scale"
  type: "Scale"
  bottom: "pre_bn_top"
  top: "pre_bn_top"
  scale_param {
    bias_term: true
  }
}
layer {
  name: "pre_relu"
  type: "ReLU"
  bottom: "pre_bn_top"
  top: "pre_bn_top"
}
layer {
  name: "L1_b1_cbr1_conv"
  type: "Convolution"
  bottom: "pre_bn_top"
  top: "L1_b1_cbr1_conv_top"
  param {
    lr_mult: 1
    decay_mult: 1
  }
  param {
    lr_mult: 2
    decay_mult: 0
  }
  convolution_param {
    num_output: 16
    pad: 1
    kernel_size: 3
    stride: 1
    weight_filler {
      type: "msra"
    }
    bias_filler {
      type: "constant"
    }
  }
}
layer {
  name: "L1_b1_cbr1_bn"
  type: "BatchNorm"
  bottom: "L1_b1_cbr1_conv_top"
  top: "L1_b1_cbr1_bn_top"
  include {
    phase: TRAIN
  }
  batch_norm_param {
    use_global_stats: false
    moving_average_fraction: 0.95
  }
}
layer {
  name: "L1_b1_cbr1_scale"
  type: "Scale"
  bottom: "L1_b1_cbr1_bn_top"
  top: "L1_b1_cbr1_bn_top"
  scale_param {
    bias_term: true
  }
}
layer {
  name: "L1_b1_cbr1_relu"
  type: "ReLU"
  bottom: "L1_b1_cbr1_bn_top"
  top: "L1_b1_cbr1_bn_top"
}
layer {
  name: "L1_b1_cbr2_conv"
  type: "Convolution"
  bottom: "L1_b1_cbr1_bn_top"
  top: "L1_b1_cbr2_conv_top"
  param {
    lr_mult: 1
    decay_mult: 1
  }
  param {
    lr_mult: 2
    decay_mult: 0
  }
  convolution_param {
    num_output: 16
    pad: 1
    kernel_size: 3
    stride: 1
    weight_filler {
      type: "msra"
    }
    bias_filler {
      type: "constant"
    }
  }
}
layer {
  name: "L1_b1_cbr2_bn"
  type: "BatchNorm"
  bottom: "L1_b1_cbr2_conv_top"
  top: "L1_b1_cbr2_bn_top"
  include {
    phase: TRAIN
  }
  batch_norm_param {
    use_global_stats: false
    moving_average_fraction: 0.95
  }
}
layer {
  name: "L1_b1_cbr2_scale"
  type: "Scale"
  bottom: "L1_b1_cbr2_bn_top"
  top: "L1_b1_cbr2_bn_top"
  scale_param {
    bias_term: true
  }
}
layer {
  name: "L1_b1_sum_eltwise"
  type: "Eltwise"
  bottom: "L1_b1_cbr2_bn_top"
  bottom: "pre_bn_top"
  top: "L1_b1_sum_eltwise_top"
  eltwise_param {
    operation: SUM
  }
}
layer {
  name: "L1_b1_relu"
  type: "ReLU"
  bottom: "L1_b1_sum_eltwise_top"
  top: "L1_b1_sum_eltwise_top"
}
layer {
  name: "L1_b2_cbr1_conv"
  type: "Convolution"
  bottom: "L1_b1_sum_eltwise_top"
  top: "L1_b2_cbr1_conv_top"
  param {
    lr_mult: 1
    decay_mult: 1
  }
  param {
    lr_mult: 2
    decay_mult: 0
  }
  convolution_param {
    num_output: 16
    pad: 1
    kernel_size: 3
    stride: 1
    weight_filler {
      type: "msra"
    }
    bias_filler {
      type: "constant"
    }
  }
}
layer {
  name: "L1_b2_cbr1_bn"
  type: "BatchNorm"
  bottom: "L1_b2_cbr1_conv_top"
  top: "L1_b2_cbr1_bn_top"
  include {
    phase: TRAIN
  }
  batch_norm_param {
    use_global_stats: false
    moving_average_fraction: 0.95
  }
}
layer {
  name: "L1_b2_cbr1_scale"
  type: "Scale"
  bottom: "L1_b2_cbr1_bn_top"
  top: "L1_b2_cbr1_bn_top"
  scale_param {
    bias_term: true
  }
}
layer {
  name: "L1_b2_cbr1_relu"
  type: "ReLU"
  bottom: "L1_b2_cbr1_bn_top"
  top: "L1_b2_cbr1_bn_top"
}
layer {
  name: "L1_b2_cbr2_conv"
  type: "Convolution"
  bottom: "L1_b2_cbr1_bn_top"
  top: "L1_b2_cbr2_conv_top"
  param {
    lr_mult: 1
    decay_mult: 1
  }
  param {
    lr_mult: 2
    decay_mult: 0
  }
  convolution_param {
    num_output: 16
    pad: 1
    kernel_size: 3
    stride: 1
    weight_filler {
      type: "msra"
    }
    bias_filler {
      type: "constant"
    }
  }
}
layer {
  name: "L1_b2_cbr2_bn"
  type: "BatchNorm"
  bottom: "L1_b2_cbr2_conv_top"
  top: "L1_b2_cbr2_bn_top"
  include {
    phase: TRAIN
  }
  batch_norm_param {
    use_global_stats: false
    moving_average_fraction: 0.95
  }
}
layer {
  name: "L1_b2_cbr2_scale"
  type: "Scale"
  bottom: "L1_b2_cbr2_bn_top"
  top: "L1_b2_cbr2_bn_top"
  scale_param {
    bias_term: true
  }
}
layer {
  name: "L1_b2_sum_eltwise"
  type: "Eltwise"
  bottom: "L1_b2_cbr2_bn_top"
  bottom: "L1_b1_sum_eltwise_top"
  top: "L1_b2_sum_eltwise_top"
  eltwise_param {
    operation: SUM
  }
}
layer {
  name: "L1_b2_relu"
  type: "ReLU"
  bottom: "L1_b2_sum_eltwise_top"
  top: "L1_b2_sum_eltwise_top"
}
layer {
  name: "L1_b3_cbr1_conv"
  type: "Convolution"
  bottom: "L1_b2_sum_eltwise_top"
  top: "L1_b3_cbr1_conv_top"
  param {
    lr_mult: 1
    decay_mult: 1
  }
  param {
    lr_mult: 2
    decay_mult: 0
  }
  convolution_param {
    num_output: 16
    pad: 1
    kernel_size: 3
    stride: 1
    weight_filler {
      type: "msra"
    }
    bias_filler {
      type: "constant"
    }
  }
}
layer {
  name: "L1_b3_cbr1_bn"
  type: "BatchNorm"
  bottom: "L1_b3_cbr1_conv_top"
  top: "L1_b3_cbr1_bn_top"
  include {
    phase: TRAIN
  }
  batch_norm_param {
    use_global_stats: false
    moving_average_fraction: 0.95
  }
}
layer {
  name: "L1_b3_cbr1_scale"
  type: "Scale"
  bottom: "L1_b3_cbr1_bn_top"
  top: "L1_b3_cbr1_bn_top"
  scale_param {
    bias_term: true
  }
}
layer {
  name: "L1_b3_cbr1_relu"
  type: "ReLU"
  bottom: "L1_b3_cbr1_bn_top"
  top: "L1_b3_cbr1_bn_top"
}
layer {
  name: "L1_b3_cbr2_conv"
  type: "Convolution"
  bottom: "L1_b3_cbr1_bn_top"
  top: "L1_b3_cbr2_conv_top"
  param {
    lr_mult: 1
    decay_mult: 1
  }
  param {
    lr_mult: 2
    decay_mult: 0
  }
  convolution_param {
    num_output: 16
    pad: 1
    kernel_size: 3
    stride: 1
    weight_filler {
      type: "msra"
    }
    bias_filler {
      type: "constant"
    }
  }
}
layer {
  name: "L1_b3_cbr2_bn"
  type: "BatchNorm"
  bottom: "L1_b3_cbr2_conv_top"
  top: "L1_b3_cbr2_bn_top"
  include {
    phase: TRAIN
  }
  batch_norm_param {
    use_global_stats: false
    moving_average_fraction: 0.95
  }
}
layer {
  name: "L1_b3_cbr2_scale"
  type: "Scale"
  bottom: "L1_b3_cbr2_bn_top"
  top: "L1_b3_cbr2_bn_top"
  scale_param {
    bias_term: true
  }
}
layer {
  name: "L1_b3_sum_eltwise"
  type: "Eltwise"
  bottom: "L1_b3_cbr2_bn_top"
  bottom: "L1_b2_sum_eltwise_top"
  top: "L1_b3_sum_eltwise_top"
  eltwise_param {
    operation: SUM
  }
}
layer {
  name: "L1_b3_relu"
  type: "ReLU"
  bottom: "L1_b3_sum_eltwise_top"
  top: "L1_b3_sum_eltwise_top"
}
layer {
  name: "L1_b4_cbr1_conv"
  type: "Convolution"
  bottom: "L1_b3_sum_eltwise_top"
  top: "L1_b4_cbr1_conv_top"
  param {
    lr_mult: 1
    decay_mult: 1
  }
  param {
    lr_mult: 2
    decay_mult: 0
  }
  convolution_param {
    num_output: 16
    pad: 1
    kernel_size: 3
    stride: 1
    weight_filler {
      type: "msra"
    }
    bias_filler {
      type: "constant"
    }
  }
}
layer {
  name: "L1_b4_cbr1_bn"
  type: "BatchNorm"
  bottom: "L1_b4_cbr1_conv_top"
  top: "L1_b4_cbr1_bn_top"
  include {
    phase: TRAIN
  }
  batch_norm_param {
    use_global_stats: false
    moving_average_fraction: 0.95
  }
}
layer {
  name: "L1_b4_cbr1_scale"
  type: "Scale"
  bottom: "L1_b4_cbr1_bn_top"
  top: "L1_b4_cbr1_bn_top"
  scale_param {
    bias_term: true
  }
}
layer {
  name: "L1_b4_cbr1_relu"
  type: "ReLU"
  bottom: "L1_b4_cbr1_bn_top"
  top: "L1_b4_cbr1_bn_top"
}
layer {
  name: "L1_b4_cbr2_conv"
  type: "Convolution"
  bottom: "L1_b4_cbr1_bn_top"
  top: "L1_b4_cbr2_conv_top"
  param {
    lr_mult: 1
    decay_mult: 1
  }
  param {
    lr_mult: 2
    decay_mult: 0
  }
  convolution_param {
    num_output: 16
    pad: 1
    kernel_size: 3
    stride: 1
    weight_filler {
      type: "msra"
    }
    bias_filler {
      type: "constant"
    }
  }
}
layer {
  name: "L1_b4_cbr2_bn"
  type: "BatchNorm"
  bottom: "L1_b4_cbr2_conv_top"
  top: "L1_b4_cbr2_bn_top"
  include {
    phase: TRAIN
  }
  batch_norm_param {
    use_global_stats: false
    moving_average_fraction: 0.95
  }
}
layer {
  name: "L1_b4_cbr2_scale"
  type: "Scale"
  bottom: "L1_b4_cbr2_bn_top"
  top: "L1_b4_cbr2_bn_top"
  scale_param {
    bias_term: true
  }
}
layer {
  name: "L1_b4_sum_eltwise"
  type: "Eltwise"
  bottom: "L1_b4_cbr2_bn_top"
  bottom: "L1_b3_sum_eltwise_top"
  top: "L1_b4_sum_eltwise_top"
  eltwise_param {
    operation: SUM
  }
}
layer {
  name: "L1_b4_relu"
  type: "ReLU"
  bottom: "L1_b4_sum_eltwise_top"
  top: "L1_b4_sum_eltwise_top"
}
layer {
  name: "L1_b5_cbr1_conv"
  type: "Convolution"
  bottom: "L1_b4_sum_eltwise_top"
  top: "L1_b5_cbr1_conv_top"
  param {
    lr_mult: 1
    decay_mult: 1
  }
  param {
    lr_mult: 2
    decay_mult: 0
  }
  convolution_param {
    num_output: 16
    pad: 1
    kernel_size: 3
    stride: 1
    weight_filler {
      type: "msra"
    }
    bias_filler {
      type: "constant"
    }
  }
}
layer {
  name: "L1_b5_cbr1_bn"
  type: "BatchNorm"
  bottom: "L1_b5_cbr1_conv_top"
  top: "L1_b5_cbr1_bn_top"
  include {
    phase: TRAIN
  }
  batch_norm_param {
    use_global_stats: false
    moving_average_fraction: 0.95
  }
}
layer {
  name: "L1_b5_cbr1_scale"
  type: "Scale"
  bottom: "L1_b5_cbr1_bn_top"
  top: "L1_b5_cbr1_bn_top"
  scale_param {
    bias_term: true
  }
}
layer {
  name: "L1_b5_cbr1_relu"
  type: "ReLU"
  bottom: "L1_b5_cbr1_bn_top"
  top: "L1_b5_cbr1_bn_top"
}
layer {
  name: "L1_b5_cbr2_conv"
  type: "Convolution"
  bottom: "L1_b5_cbr1_bn_top"
  top: "L1_b5_cbr2_conv_top"
  param {
    lr_mult: 1
    decay_mult: 1
  }
  param {
    lr_mult: 2
    decay_mult: 0
  }
  convolution_param {
    num_output: 16
    pad: 1
    kernel_size: 3
    stride: 1
    weight_filler {
      type: "msra"
    }
    bias_filler {
      type: "constant"
    }
  }
}
layer {
  name: "L1_b5_cbr2_bn"
  type: "BatchNorm"
  bottom: "L1_b5_cbr2_conv_top"
  top: "L1_b5_cbr2_bn_top"
  include {
    phase: TRAIN
  }
  batch_norm_param {
    use_global_stats: false
    moving_average_fraction: 0.95
  }
}
layer {
  name: "L1_b5_cbr2_scale"
  type: "Scale"
  bottom: "L1_b5_cbr2_bn_top"
  top: "L1_b5_cbr2_bn_top"
  scale_param {
    bias_term: true
  }
}
layer {
  name: "L1_b5_sum_eltwise"
  type: "Eltwise"
  bottom: "L1_b5_cbr2_bn_top"
  bottom: "L1_b4_sum_eltwise_top"
  top: "L1_b5_sum_eltwise_top"
  eltwise_param {
    operation: SUM
  }
}
layer {
  name: "L1_b5_relu"
  type: "ReLU"
  bottom: "L1_b5_sum_eltwise_top"
  top: "L1_b5_sum_eltwise_top"
}
layer {
  name: "L1_b6_cbr1_conv"
  type: "Convolution"
  bottom: "L1_b5_sum_eltwise_top"
  top: "L1_b6_cbr1_conv_top"
  param {
    lr_mult: 1
    decay_mult: 1
  }
  param {
    lr_mult: 2
    decay_mult: 0
  }
  convolution_param {
    num_output: 16
    pad: 1
    kernel_size: 3
    stride: 1
    weight_filler {
      type: "msra"
    }
    bias_filler {
      type: "constant"
    }
  }
}
layer {
  name: "L1_b6_cbr1_bn"
  type: "BatchNorm"
  bottom: "L1_b6_cbr1_conv_top"
  top: "L1_b6_cbr1_bn_top"
  include {
    phase: TRAIN
  }
  batch_norm_param {
    use_global_stats: false
    moving_average_fraction: 0.95
  }
}
layer {
  name: "L1_b6_cbr1_scale"
  type: "Scale"
  bottom: "L1_b6_cbr1_bn_top"
  top: "L1_b6_cbr1_bn_top"
  scale_param {
    bias_term: true
  }
}
layer {
  name: "L1_b6_cbr1_relu"
  type: "ReLU"
  bottom: "L1_b6_cbr1_bn_top"
  top: "L1_b6_cbr1_bn_top"
}
layer {
  name: "L1_b6_cbr2_conv"
  type: "Convolution"
  bottom: "L1_b6_cbr1_bn_top"
  top: "L1_b6_cbr2_conv_top"
  param {
    lr_mult: 1
    decay_mult: 1
  }
  param {
    lr_mult: 2
    decay_mult: 0
  }
  convolution_param {
    num_output: 16
    pad: 1
    kernel_size: 3
    stride: 1
    weight_filler {
      type: "msra"
    }
    bias_filler {
      type: "constant"
    }
  }
}
layer {
  name: "L1_b6_cbr2_bn"
  type: "BatchNorm"
  bottom: "L1_b6_cbr2_conv_top"
  top: "L1_b6_cbr2_bn_top"
  include {
    phase: TRAIN
  }
  batch_norm_param {
    use_global_stats: false
    moving_average_fraction: 0.95
  }
}
layer {
  name: "L1_b6_cbr2_scale"
  type: "Scale"
  bottom: "L1_b6_cbr2_bn_top"
  top: "L1_b6_cbr2_bn_top"
  scale_param {
    bias_term: true
  }
}
layer {
  name: "L1_b6_sum_eltwise"
  type: "Eltwise"
  bottom: "L1_b6_cbr2_bn_top"
  bottom: "L1_b5_sum_eltwise_top"
  top: "L1_b6_sum_eltwise_top"
  eltwise_param {
    operation: SUM
  }
}
layer {
  name: "L1_b6_relu"
  type: "ReLU"
  bottom: "L1_b6_sum_eltwise_top"
  top: "L1_b6_sum_eltwise_top"
}
layer {
  name: "L1_b7_cbr1_conv"
  type: "Convolution"
  bottom: "L1_b6_sum_eltwise_top"
  top: "L1_b7_cbr1_conv_top"
  param {
    lr_mult: 1
    decay_mult: 1
  }
  param {
    lr_mult: 2
    decay_mult: 0
  }
  convolution_param {
    num_output: 16
    pad: 1
    kernel_size: 3
    stride: 1
    weight_filler {
      type: "msra"
    }
    bias_filler {
      type: "constant"
    }
  }
}
layer {
  name: "L1_b7_cbr1_bn"
  type: "BatchNorm"
  bottom: "L1_b7_cbr1_conv_top"
  top: "L1_b7_cbr1_bn_top"
  include {
    phase: TRAIN
  }
  batch_norm_param {
    use_global_stats: false
    moving_average_fraction: 0.95
  }
}
layer {
  name: "L1_b7_cbr1_scale"
  type: "Scale"
  bottom: "L1_b7_cbr1_bn_top"
  top: "L1_b7_cbr1_bn_top"
  scale_param {
    bias_term: true
  }
}
layer {
  name: "L1_b7_cbr1_relu"
  type: "ReLU"
  bottom: "L1_b7_cbr1_bn_top"
  top: "L1_b7_cbr1_bn_top"
}
layer {
  name: "L1_b7_cbr2_conv"
  type: "Convolution"
  bottom: "L1_b7_cbr1_bn_top"
  top: "L1_b7_cbr2_conv_top"
  param {
    lr_mult: 1
    decay_mult: 1
  }
  param {
    lr_mult: 2
    decay_mult: 0
  }
  convolution_param {
    num_output: 16
    pad: 1
    kernel_size: 3
    stride: 1
    weight_filler {
      type: "msra"
    }
    bias_filler {
      type: "constant"
    }
  }
}
layer {
  name: "L1_b7_cbr2_bn"
  type: "BatchNorm"
  bottom: "L1_b7_cbr2_conv_top"
  top: "L1_b7_cbr2_bn_top"
  include {
    phase: TRAIN
  }
  batch_norm_param {
    use_global_stats: false
    moving_average_fraction: 0.95
  }
}
layer {
  name: "L1_b7_cbr2_scale"
  type: "Scale"
  bottom: "L1_b7_cbr2_bn_top"
  top: "L1_b7_cbr2_bn_top"
  scale_param {
    bias_term: true
  }
}
layer {
  name: "L1_b7_sum_eltwise"
  type: "Eltwise"
  bottom: "L1_b7_cbr2_bn_top"
  bottom: "L1_b6_sum_eltwise_top"
  top: "L1_b7_sum_eltwise_top"
  eltwise_param {
    operation: SUM
  }
}
layer {
  name: "L1_b7_relu"
  type: "ReLU"
  bottom: "L1_b7_sum_eltwise_top"
  top: "L1_b7_sum_eltwise_top"
}
layer {
  name: "L1_b8_cbr1_conv"
  type: "Convolution"
  bottom: "L1_b7_sum_eltwise_top"
  top: "L1_b8_cbr1_conv_top"
  param {
    lr_mult: 1
    decay_mult: 1
  }
  param {
    lr_mult: 2
    decay_mult: 0
  }
  convolution_param {
    num_output: 16
    pad: 1
    kernel_size: 3
    stride: 1
    weight_filler {
      type: "msra"
    }
    bias_filler {
      type: "constant"
    }
  }
}
layer {
  name: "L1_b8_cbr1_bn"
  type: "BatchNorm"
  bottom: "L1_b8_cbr1_conv_top"
  top: "L1_b8_cbr1_bn_top"
  include {
    phase: TRAIN
  }
  batch_norm_param {
    use_global_stats: false
    moving_average_fraction: 0.95
  }
}
layer {
  name: "L1_b8_cbr1_scale"
  type: "Scale"
  bottom: "L1_b8_cbr1_bn_top"
  top: "L1_b8_cbr1_bn_top"
  scale_param {
    bias_term: true
  }
}
layer {
  name: "L1_b8_cbr1_relu"
  type: "ReLU"
  bottom: "L1_b8_cbr1_bn_top"
  top: "L1_b8_cbr1_bn_top"
}
layer {
  name: "L1_b8_cbr2_conv"
  type: "Convolution"
  bottom: "L1_b8_cbr1_bn_top"
  top: "L1_b8_cbr2_conv_top"
  param {
    lr_mult: 1
    decay_mult: 1
  }
  param {
    lr_mult: 2
    decay_mult: 0
  }
  convolution_param {
    num_output: 16
    pad: 1
    kernel_size: 3
    stride: 1
    weight_filler {
      type: "msra"
    }
    bias_filler {
      type: "constant"
    }
  }
}
layer {
  name: "L1_b8_cbr2_bn"
  type: "BatchNorm"
  bottom: "L1_b8_cbr2_conv_top"
  top: "L1_b8_cbr2_bn_top"
  include {
    phase: TRAIN
  }
  batch_norm_param {
    use_global_stats: false
    moving_average_fraction: 0.95
  }
}
layer {
  name: "L1_b8_cbr2_scale"
  type: "Scale"
  bottom: "L1_b8_cbr2_bn_top"
  top: "L1_b8_cbr2_bn_top"
  scale_param {
    bias_term: true
  }
}
layer {
  name: "L1_b8_sum_eltwise"
  type: "Eltwise"
  bottom: "L1_b8_cbr2_bn_top"
  bottom: "L1_b7_sum_eltwise_top"
  top: "L1_b8_sum_eltwise_top"
  eltwise_param {
    operation: SUM
  }
}
layer {
  name: "L1_b8_relu"
  type: "ReLU"
  bottom: "L1_b8_sum_eltwise_top"
  top: "L1_b8_sum_eltwise_top"
}
layer {
  name: "L1_b9_cbr1_conv"
  type: "Convolution"
  bottom: "L1_b8_sum_eltwise_top"
  top: "L1_b9_cbr1_conv_top"
  param {
    lr_mult: 1
    decay_mult: 1
  }
  param {
    lr_mult: 2
    decay_mult: 0
  }
  convolution_param {
    num_output: 16
    pad: 1
    kernel_size: 3
    stride: 1
    weight_filler {
      type: "msra"
    }
    bias_filler {
      type: "constant"
    }
  }
}
layer {
  name: "L1_b9_cbr1_bn"
  type: "BatchNorm"
  bottom: "L1_b9_cbr1_conv_top"
  top: "L1_b9_cbr1_bn_top"
  include {
    phase: TRAIN
  }
  batch_norm_param {
    use_global_stats: false
    moving_average_fraction: 0.95
  }
}
layer {
  name: "L1_b9_cbr1_scale"
  type: "Scale"
  bottom: "L1_b9_cbr1_bn_top"
  top: "L1_b9_cbr1_bn_top"
  scale_param {
    bias_term: true
  }
}
layer {
  name: "L1_b9_cbr1_relu"
  type: "ReLU"
  bottom: "L1_b9_cbr1_bn_top"
  top: "L1_b9_cbr1_bn_top"
}
layer {
  name: "L1_b9_cbr2_conv"
  type: "Convolution"
  bottom: "L1_b9_cbr1_bn_top"
  top: "L1_b9_cbr2_conv_top"
  param {
    lr_mult: 1
    decay_mult: 1
  }
  param {
    lr_mult: 2
    decay_mult: 0
  }
  convolution_param {
    num_output: 16
    pad: 1
    kernel_size: 3
    stride: 1
    weight_filler {
      type: "msra"
    }
    bias_filler {
      type: "constant"
    }
  }
}
layer {
  name: "L1_b9_cbr2_bn"
  type: "BatchNorm"
  bottom: "L1_b9_cbr2_conv_top"
  top: "L1_b9_cbr2_bn_top"
  include {
    phase: TRAIN
  }
  batch_norm_param {
    use_global_stats: false
    moving_average_fraction: 0.95
  }
}
layer {
  name: "L1_b9_cbr2_scale"
  type: "Scale"
  bottom: "L1_b9_cbr2_bn_top"
  top: "L1_b9_cbr2_bn_top"
  scale_param {
    bias_term: true
  }
}
layer {
  name: "L1_b9_sum_eltwise"
  type: "Eltwise"
  bottom: "L1_b9_cbr2_bn_top"
  bottom: "L1_b8_sum_eltwise_top"
  top: "L1_b9_sum_eltwise_top"
  eltwise_param {
    operation: SUM
  }
}
layer {
  name: "L1_b9_relu"
  type: "ReLU"
  bottom: "L1_b9_sum_eltwise_top"
  top: "L1_b9_sum_eltwise_top"
}
layer {
  name: "L2_b1_cbr1_conv"
  type: "Convolution"
  bottom: "L1_b9_sum_eltwise_top"
  top: "L2_b1_cbr1_conv_top"
  param {
    lr_mult: 1
    decay_mult: 1
  }
  param {
    lr_mult: 2
    decay_mult: 0
  }
  convolution_param {
    num_output: 16
    pad: 1
    kernel_size: 3
    stride: 2
    weight_filler {
      type: "msra"
    }
    bias_filler {
      type: "constant"
    }
  }
}
layer {
  name: "L2_b1_cbr1_bn"
  type: "BatchNorm"
  bottom: "L2_b1_cbr1_conv_top"
  top: "L2_b1_cbr1_bn_top"
  include {
    phase: TRAIN
  }
  batch_norm_param {
    use_global_stats: false
    moving_average_fraction: 0.95
  }
}
layer {
  name: "L2_b1_cbr1_scale"
  type: "Scale"
  bottom: "L2_b1_cbr1_bn_top"
  top: "L2_b1_cbr1_bn_top"
  scale_param {
    bias_term: true
  }
}
layer {
  name: "L2_b1_cbr1_relu"
  type: "ReLU"
  bottom: "L2_b1_cbr1_bn_top"
  top: "L2_b1_cbr1_bn_top"
}
layer {
  name: "L2_b1_cbr2_conv"
  type: "Convolution"
  bottom: "L2_b1_cbr1_bn_top"
  top: "L2_b1_cbr2_conv_top"
  param {
    lr_mult: 1
    decay_mult: 1
  }
  param {
    lr_mult: 2
    decay_mult: 0
  }
  convolution_param {
    num_output: 16
    pad: 1
    kernel_size: 3
    stride: 1
    weight_filler {
      type: "msra"
    }
    bias_filler {
      type: "constant"
    }
  }
}
layer {
  name: "L2_b1_cbr2_bn"
  type: "BatchNorm"
  bottom: "L2_b1_cbr2_conv_top"
  top: "L2_b1_cbr2_bn_top"
  include {
    phase: TRAIN
  }
  batch_norm_param {
    use_global_stats: false
    moving_average_fraction: 0.95
  }
}
layer {
  name: "L2_b1_cbr2_scale"
  type: "Scale"
  bottom: "L2_b1_cbr2_bn_top"
  top: "L2_b1_cbr2_bn_top"
  scale_param {
    bias_term: true
  }
}
layer {
  name: "L2_b1_pool"
  type: "Pooling"
  bottom: "L1_b9_sum_eltwise_top"
  top: "L2_b1_pool"
  pooling_param {
    pool: AVE
    kernel_size: 3
    stride: 2
  }
}
layer {
  name: "L2_b1_sum_eltwise"
  type: "Eltwise"
  bottom: "L2_b1_cbr2_bn_top"
  bottom: "L2_b1_pool"
  top: "L2_b1_sum_eltwise_top"
  eltwise_param {
    operation: SUM
  }
}
layer {
  name: "L2_b1_relu"
  type: "ReLU"
  bottom: "L2_b1_sum_eltwise_top"
  top: "L2_b1_sum_eltwise_top"
}
layer {
  name: "L2_b1_zeros"
  type: "DummyData"
  top: "L2_b1_zeros"
  dummy_data_param {
    data_filler {
      type: "constant"
      value: 0
    }
    shape {
      dim: 125
      dim: 16
      dim: 16
      dim: 16
    }
  }
}
layer {
  name: "L2_b1_concat0"
  type: "Concat"
  bottom: "L2_b1_sum_eltwise_top"
  bottom: "L2_b1_zeros"
  top: "L2_b1_concat0"
  concat_param {
    axis: 1
  }
}
layer {
  name: "L2_b2_cbr1_conv"
  type: "Convolution"
  bottom: "L2_b1_concat0"
  top: "L2_b2_cbr1_conv_top"
  param {
    lr_mult: 1
    decay_mult: 1
  }
  param {
    lr_mult: 2
    decay_mult: 0
  }
  convolution_param {
    num_output: 32
    pad: 1
    kernel_size: 3
    stride: 1
    weight_filler {
      type: "msra"
    }
    bias_filler {
      type: "constant"
    }
  }
}
layer {
  name: "L2_b2_cbr1_bn"
  type: "BatchNorm"
  bottom: "L2_b2_cbr1_conv_top"
  top: "L2_b2_cbr1_bn_top"
  include {
    phase: TRAIN
  }
  batch_norm_param {
    use_global_stats: false
    moving_average_fraction: 0.95
  }
}
layer {
  name: "L2_b2_cbr1_scale"
  type: "Scale"
  bottom: "L2_b2_cbr1_bn_top"
  top: "L2_b2_cbr1_bn_top"
  scale_param {
    bias_term: true
  }
}
layer {
  name: "L2_b2_cbr1_relu"
  type: "ReLU"
  bottom: "L2_b2_cbr1_bn_top"
  top: "L2_b2_cbr1_bn_top"
}
layer {
  name: "L2_b2_cbr2_conv"
  type: "Convolution"
  bottom: "L2_b2_cbr1_bn_top"
  top: "L2_b2_cbr2_conv_top"
  param {
    lr_mult: 1
    decay_mult: 1
  }
  param {
    lr_mult: 2
    decay_mult: 0
  }
  convolution_param {
    num_output: 32
    pad: 1
    kernel_size: 3
    stride: 1
    weight_filler {
      type: "msra"
    }
    bias_filler {
      type: "constant"
    }
  }
}
layer {
  name: "L2_b2_cbr2_bn"
  type: "BatchNorm"
  bottom: "L2_b2_cbr2_conv_top"
  top: "L2_b2_cbr2_bn_top"
  include {
    phase: TRAIN
  }
  batch_norm_param {
    use_global_stats: false
    moving_average_fraction: 0.95
  }
}
layer {
  name: "L2_b2_cbr2_scale"
  type: "Scale"
  bottom: "L2_b2_cbr2_bn_top"
  top: "L2_b2_cbr2_bn_top"
  scale_param {
    bias_term: true
  }
}
layer {
  name: "L2_b2_sum_eltwise"
  type: "Eltwise"
  bottom: "L2_b2_cbr2_bn_top"
  bottom: "L2_b1_concat0"
  top: "L2_b2_sum_eltwise_top"
  eltwise_param {
    operation: SUM
  }
}
layer {
  name: "L2_b2_relu"
  type: "ReLU"
  bottom: "L2_b2_sum_eltwise_top"
  top: "L2_b2_sum_eltwise_top"
}
layer {
  name: "L2_b3_cbr1_conv"
  type: "Convolution"
  bottom: "L2_b2_sum_eltwise_top"
  top: "L2_b3_cbr1_conv_top"
  param {
    lr_mult: 1
    decay_mult: 1
  }
  param {
    lr_mult: 2
    decay_mult: 0
  }
  convolution_param {
    num_output: 32
    pad: 1
    kernel_size: 3
    stride: 1
    weight_filler {
      type: "msra"
    }
    bias_filler {
      type: "constant"
    }
  }
}
layer {
  name: "L2_b3_cbr1_bn"
  type: "BatchNorm"
  bottom: "L2_b3_cbr1_conv_top"
  top: "L2_b3_cbr1_bn_top"
  include {
    phase: TRAIN
  }
  batch_norm_param {
    use_global_stats: false
    moving_average_fraction: 0.95
  }
}
layer {
  name: "L2_b3_cbr1_scale"
  type: "Scale"
  bottom: "L2_b3_cbr1_bn_top"
  top: "L2_b3_cbr1_bn_top"
  scale_param {
    bias_term: true
  }
}
layer {
  name: "L2_b3_cbr1_relu"
  type: "ReLU"
  bottom: "L2_b3_cbr1_bn_top"
  top: "L2_b3_cbr1_bn_top"
}
layer {
  name: "L2_b3_cbr2_conv"
  type: "Convolution"
  bottom: "L2_b3_cbr1_bn_top"
  top: "L2_b3_cbr2_conv_top"
  param {
    lr_mult: 1
    decay_mult: 1
  }
  param {
    lr_mult: 2
    decay_mult: 0
  }
  convolution_param {
    num_output: 32
    pad: 1
    kernel_size: 3
    stride: 1
    weight_filler {
      type: "msra"
    }
    bias_filler {
      type: "constant"
    }
  }
}
layer {
  name: "L2_b3_cbr2_bn"
  type: "BatchNorm"
  bottom: "L2_b3_cbr2_conv_top"
  top: "L2_b3_cbr2_bn_top"
  include {
    phase: TRAIN
  }
  batch_norm_param {
    use_global_stats: false
    moving_average_fraction: 0.95
  }
}
layer {
  name: "L2_b3_cbr2_scale"
  type: "Scale"
  bottom: "L2_b3_cbr2_bn_top"
  top: "L2_b3_cbr2_bn_top"
  scale_param {
    bias_term: true
  }
}
layer {
  name: "L2_b3_sum_eltwise"
  type: "Eltwise"
  bottom: "L2_b3_cbr2_bn_top"
  bottom: "L2_b2_sum_eltwise_top"
  top: "L2_b3_sum_eltwise_top"
  eltwise_param {
    operation: SUM
  }
}
layer {
  name: "L2_b3_relu"
  type: "ReLU"
  bottom: "L2_b3_sum_eltwise_top"
  top: "L2_b3_sum_eltwise_top"
}
layer {
  name: "L2_b4_cbr1_conv"
  type: "Convolution"
  bottom: "L2_b3_sum_eltwise_top"
  top: "L2_b4_cbr1_conv_top"
  param {
    lr_mult: 1
    decay_mult: 1
  }
  param {
    lr_mult: 2
    decay_mult: 0
  }
  convolution_param {
    num_output: 32
    pad: 1
    kernel_size: 3
    stride: 1
    weight_filler {
      type: "msra"
    }
    bias_filler {
      type: "constant"
    }
  }
}
layer {
  name: "L2_b4_cbr1_bn"
  type: "BatchNorm"
  bottom: "L2_b4_cbr1_conv_top"
  top: "L2_b4_cbr1_bn_top"
  include {
    phase: TRAIN
  }
  batch_norm_param {
    use_global_stats: false
    moving_average_fraction: 0.95
  }
}
layer {
  name: "L2_b4_cbr1_scale"
  type: "Scale"
  bottom: "L2_b4_cbr1_bn_top"
  top: "L2_b4_cbr1_bn_top"
  scale_param {
    bias_term: true
  }
}
layer {
  name: "L2_b4_cbr1_relu"
  type: "ReLU"
  bottom: "L2_b4_cbr1_bn_top"
  top: "L2_b4_cbr1_bn_top"
}
layer {
  name: "L2_b4_cbr2_conv"
  type: "Convolution"
  bottom: "L2_b4_cbr1_bn_top"
  top: "L2_b4_cbr2_conv_top"
  param {
    lr_mult: 1
    decay_mult: 1
  }
  param {
    lr_mult: 2
    decay_mult: 0
  }
  convolution_param {
    num_output: 32
    pad: 1
    kernel_size: 3
    stride: 1
    weight_filler {
      type: "msra"
    }
    bias_filler {
      type: "constant"
    }
  }
}
layer {
  name: "L2_b4_cbr2_bn"
  type: "BatchNorm"
  bottom: "L2_b4_cbr2_conv_top"
  top: "L2_b4_cbr2_bn_top"
  include {
    phase: TRAIN
  }
  batch_norm_param {
    use_global_stats: false
    moving_average_fraction: 0.95
  }
}
layer {
  name: "L2_b4_cbr2_scale"
  type: "Scale"
  bottom: "L2_b4_cbr2_bn_top"
  top: "L2_b4_cbr2_bn_top"
  scale_param {
    bias_term: true
  }
}
layer {
  name: "L2_b4_sum_eltwise"
  type: "Eltwise"
  bottom: "L2_b4_cbr2_bn_top"
  bottom: "L2_b3_sum_eltwise_top"
  top: "L2_b4_sum_eltwise_top"
  eltwise_param {
    operation: SUM
  }
}
layer {
  name: "L2_b4_relu"
  type: "ReLU"
  bottom: "L2_b4_sum_eltwise_top"
  top: "L2_b4_sum_eltwise_top"
}
layer {
  name: "L2_b5_cbr1_conv"
  type: "Convolution"
  bottom: "L2_b4_sum_eltwise_top"
  top: "L2_b5_cbr1_conv_top"
  param {
    lr_mult: 1
    decay_mult: 1
  }
  param {
    lr_mult: 2
    decay_mult: 0
  }
  convolution_param {
    num_output: 32
    pad: 1
    kernel_size: 3
    stride: 1
    weight_filler {
      type: "msra"
    }
    bias_filler {
      type: "constant"
    }
  }
}
layer {
  name: "L2_b5_cbr1_bn"
  type: "BatchNorm"
  bottom: "L2_b5_cbr1_conv_top"
  top: "L2_b5_cbr1_bn_top"
  include {
    phase: TRAIN
  }
  batch_norm_param {
    use_global_stats: false
    moving_average_fraction: 0.95
  }
}
layer {
  name: "L2_b5_cbr1_scale"
  type: "Scale"
  bottom: "L2_b5_cbr1_bn_top"
  top: "L2_b5_cbr1_bn_top"
  scale_param {
    bias_term: true
  }
}
layer {
  name: "L2_b5_cbr1_relu"
  type: "ReLU"
  bottom: "L2_b5_cbr1_bn_top"
  top: "L2_b5_cbr1_bn_top"
}
layer {
  name: "L2_b5_cbr2_conv"
  type: "Convolution"
  bottom: "L2_b5_cbr1_bn_top"
  top: "L2_b5_cbr2_conv_top"
  param {
    lr_mult: 1
    decay_mult: 1
  }
  param {
    lr_mult: 2
    decay_mult: 0
  }
  convolution_param {
    num_output: 32
    pad: 1
    kernel_size: 3
    stride: 1
    weight_filler {
      type: "msra"
    }
    bias_filler {
      type: "constant"
    }
  }
}
layer {
  name: "L2_b5_cbr2_bn"
  type: "BatchNorm"
  bottom: "L2_b5_cbr2_conv_top"
  top: "L2_b5_cbr2_bn_top"
  include {
    phase: TRAIN
  }
  batch_norm_param {
    use_global_stats: false
    moving_average_fraction: 0.95
  }
}
layer {
  name: "L2_b5_cbr2_scale"
  type: "Scale"
  bottom: "L2_b5_cbr2_bn_top"
  top: "L2_b5_cbr2_bn_top"
  scale_param {
    bias_term: true
  }
}
layer {
  name: "L2_b5_sum_eltwise"
  type: "Eltwise"
  bottom: "L2_b5_cbr2_bn_top"
  bottom: "L2_b4_sum_eltwise_top"
  top: "L2_b5_sum_eltwise_top"
  eltwise_param {
    operation: SUM
  }
}
layer {
  name: "L2_b5_relu"
  type: "ReLU"
  bottom: "L2_b5_sum_eltwise_top"
  top: "L2_b5_sum_eltwise_top"
}
layer {
  name: "L2_b6_cbr1_conv"
  type: "Convolution"
  bottom: "L2_b5_sum_eltwise_top"
  top: "L2_b6_cbr1_conv_top"
  param {
    lr_mult: 1
    decay_mult: 1
  }
  param {
    lr_mult: 2
    decay_mult: 0
  }
  convolution_param {
    num_output: 32
    pad: 1
    kernel_size: 3
    stride: 1
    weight_filler {
      type: "msra"
    }
    bias_filler {
      type: "constant"
    }
  }
}
layer {
  name: "L2_b6_cbr1_bn"
  type: "BatchNorm"
  bottom: "L2_b6_cbr1_conv_top"
  top: "L2_b6_cbr1_bn_top"
  include {
    phase: TRAIN
  }
  batch_norm_param {
    use_global_stats: false
    moving_average_fraction: 0.95
  }
}
layer {
  name: "L2_b6_c
I0818 13:44:11.473104 20842 layer_factory.hpp:77] Creating layer dataLayer
I0818 13:44:11.478813 20842 net.cpp:100] Creating Layer dataLayer
I0818 13:44:11.478893 20842 net.cpp:408] dataLayer -> data_top
I0818 13:44:11.479126 20842 net.cpp:408] dataLayer -> label
I0818 13:44:11.479256 20842 data_transformer.cpp:25] Loading mean file from: examples/cifar10/mean.binaryproto
I0818 13:44:11.859120 20853 db_lmdb.cpp:35] Opened lmdb examples/cifar10/cifar10_train_lmdb
I0818 13:44:11.997714 20842 data_layer.cpp:41] output data size: 125,3,32,32
I0818 13:44:12.004843 20842 net.cpp:150] Setting up dataLayer
I0818 13:44:12.004930 20842 net.cpp:157] Top shape: 125 3 32 32 (384000)
I0818 13:44:12.004951 20842 net.cpp:157] Top shape: 125 (125)
I0818 13:44:12.004961 20842 net.cpp:165] Memory required for data: 1536500
I0818 13:44:12.004987 20842 layer_factory.hpp:77] Creating layer label_dataLayer_1_split
I0818 13:44:12.005013 20842 net.cpp:100] Creating Layer label_dataLayer_1_split
I0818 13:44:12.005029 20842 net.cpp:434] label_dataLayer_1_split <- label
I0818 13:44:12.005061 20842 net.cpp:408] label_dataLayer_1_split -> label_dataLayer_1_split_0
I0818 13:44:12.005091 20842 net.cpp:408] label_dataLayer_1_split -> label_dataLayer_1_split_1
I0818 13:44:12.005199 20842 net.cpp:150] Setting up label_dataLayer_1_split
I0818 13:44:12.005218 20842 net.cpp:157] Top shape: 125 (125)
I0818 13:44:12.005230 20842 net.cpp:157] Top shape: 125 (125)
I0818 13:44:12.005240 20842 net.cpp:165] Memory required for data: 1537500
I0818 13:44:12.005250 20842 layer_factory.hpp:77] Creating layer pre_conv
I0818 13:44:12.005336 20842 net.cpp:100] Creating Layer pre_conv
I0818 13:44:12.005352 20842 net.cpp:434] pre_conv <- data_top
I0818 13:44:12.005373 20842 net.cpp:408] pre_conv -> pre_conv_top
I0818 13:44:12.007189 20842 net.cpp:150] Setting up pre_conv
I0818 13:44:12.007212 20842 net.cpp:157] Top shape: 125 16 32 32 (2048000)
I0818 13:44:12.007223 20842 net.cpp:165] Memory required for data: 9729500
I0818 13:44:12.007319 20842 layer_factory.hpp:77] Creating layer pre_bn
I0818 13:44:12.007436 20842 net.cpp:100] Creating Layer pre_bn
I0818 13:44:12.007452 20842 net.cpp:434] pre_bn <- pre_conv_top
I0818 13:44:12.007468 20842 net.cpp:408] pre_bn -> pre_bn_top
I0818 13:44:12.007570 20854 blocking_queue.cpp:50] Waiting for data
I0818 13:44:12.007849 20842 net.cpp:150] Setting up pre_bn
I0818 13:44:12.007876 20842 net.cpp:157] Top shape: 125 16 32 32 (2048000)
I0818 13:44:12.007887 20842 net.cpp:165] Memory required for data: 17921500
I0818 13:44:12.007917 20842 layer_factory.hpp:77] Creating layer pre_scale
I0818 13:44:12.007984 20842 net.cpp:100] Creating Layer pre_scale
I0818 13:44:12.007999 20842 net.cpp:434] pre_scale <- pre_bn_top
I0818 13:44:12.008014 20842 net.cpp:395] pre_scale -> pre_bn_top (in-place)
I0818 13:44:12.008234 20842 layer_factory.hpp:77] Creating layer pre_scale
I0818 13:44:12.020615 20842 net.cpp:150] Setting up pre_scale
I0818 13:44:12.020642 20842 net.cpp:157] Top shape: 125 16 32 32 (2048000)
I0818 13:44:12.020653 20842 net.cpp:165] Memory required for data: 26113500
I0818 13:44:12.020681 20842 layer_factory.hpp:77] Creating layer pre_relu
I0818 13:44:12.020753 20842 net.cpp:100] Creating Layer pre_relu
I0818 13:44:12.020769 20842 net.cpp:434] pre_relu <- pre_bn_top
I0818 13:44:12.020789 20842 net.cpp:395] pre_relu -> pre_bn_top (in-place)
I0818 13:44:12.020810 20842 net.cpp:150] Setting up pre_relu
I0818 13:44:12.020828 20842 net.cpp:157] Top shape: 125 16 32 32 (2048000)
I0818 13:44:12.020836 20842 net.cpp:165] Memory required for data: 34305500
I0818 13:44:12.020848 20842 layer_factory.hpp:77] Creating layer pre_bn_top_pre_relu_0_split
I0818 13:44:12.020862 20842 net.cpp:100] Creating Layer pre_bn_top_pre_relu_0_split
I0818 13:44:12.020872 20842 net.cpp:434] pre_bn_top_pre_relu_0_split <- pre_bn_top
I0818 13:44:12.020892 20842 net.cpp:408] pre_bn_top_pre_relu_0_split -> pre_bn_top_pre_relu_0_split_0
I0818 13:44:12.020913 20842 net.cpp:408] pre_bn_top_pre_relu_0_split -> pre_bn_top_pre_relu_0_split_1
I0818 13:44:12.020989 20842 net.cpp:150] Setting up pre_bn_top_pre_relu_0_split
I0818 13:44:12.021010 20842 net.cpp:157] Top shape: 125 16 32 32 (2048000)
I0818 13:44:12.021024 20842 net.cpp:157] Top shape: 125 16 32 32 (2048000)
I0818 13:44:12.021034 20842 net.cpp:165] Memory required for data: 50689500
I0818 13:44:12.021044 20842 layer_factory.hpp:77] Creating layer L1_b1_cbr1_conv
I0818 13:44:12.021070 20842 net.cpp:100] Creating Layer L1_b1_cbr1_conv
I0818 13:44:12.021081 20842 net.cpp:434] L1_b1_cbr1_conv <- pre_bn_top_pre_relu_0_split_0
I0818 13:44:12.021100 20842 net.cpp:408] L1_b1_cbr1_conv -> L1_b1_cbr1_conv_top
I0818 13:44:12.021461 20842 net.cpp:150] Setting up L1_b1_cbr1_conv
I0818 13:44:12.021482 20842 net.cpp:157] Top shape: 125 16 32 32 (2048000)
I0818 13:44:12.021492 20842 net.cpp:165] Memory required for data: 58881500
I0818 13:44:12.021524 20842 layer_factory.hpp:77] Creating layer L1_b1_cbr1_bn
I0818 13:44:12.021550 20842 net.cpp:100] Creating Layer L1_b1_cbr1_bn
I0818 13:44:12.021564 20842 net.cpp:434] L1_b1_cbr1_bn <- L1_b1_cbr1_conv_top
I0818 13:44:12.021580 20842 net.cpp:408] L1_b1_cbr1_bn -> L1_b1_cbr1_bn_top
I0818 13:44:12.021859 20842 net.cpp:150] Setting up L1_b1_cbr1_bn
I0818 13:44:12.021878 20842 net.cpp:157] Top shape: 125 16 32 32 (2048000)
I0818 13:44:12.021888 20842 net.cpp:165] Memory required for data: 67073500
I0818 13:44:12.021910 20842 layer_factory.hpp:77] Creating layer L1_b1_cbr1_scale
I0818 13:44:12.021929 20842 net.cpp:100] Creating Layer L1_b1_cbr1_scale
I0818 13:44:12.021939 20842 net.cpp:434] L1_b1_cbr1_scale <- L1_b1_cbr1_bn_top
I0818 13:44:12.021960 20842 net.cpp:395] L1_b1_cbr1_scale -> L1_b1_cbr1_bn_top (in-place)
I0818 13:44:12.022042 20842 layer_factory.hpp:77] Creating layer L1_b1_cbr1_scale
I0818 13:44:12.022215 20842 net.cpp:150] Setting up L1_b1_cbr1_scale
I0818 13:44:12.022234 20842 net.cpp:157] Top shape: 125 16 32 32 (2048000)
I0818 13:44:12.022244 20842 net.cpp:165] Memory required for data: 75265500
I0818 13:44:12.022264 20842 layer_factory.hpp:77] Creating layer L1_b1_cbr1_relu
I0818 13:44:12.022289 20842 net.cpp:100] Creating Layer L1_b1_cbr1_relu
I0818 13:44:12.022300 20842 net.cpp:434] L1_b1_cbr1_relu <- L1_b1_cbr1_bn_top
I0818 13:44:12.022320 20842 net.cpp:395] L1_b1_cbr1_relu -> L1_b1_cbr1_bn_top (in-place)
I0818 13:44:12.022341 20842 net.cpp:150] Setting up L1_b1_cbr1_relu
I0818 13:44:12.022356 20842 net.cpp:157] Top shape: 125 16 32 32 (2048000)
I0818 13:44:12.022366 20842 net.cpp:165] Memory required for data: 83457500
I0818 13:44:12.022375 20842 layer_factory.hpp:77] Creating layer L1_b1_cbr2_conv
I0818 13:44:12.022402 20842 net.cpp:100] Creating Layer L1_b1_cbr2_conv
I0818 13:44:12.022413 20842 net.cpp:434] L1_b1_cbr2_conv <- L1_b1_cbr1_bn_top
I0818 13:44:12.022430 20842 net.cpp:408] L1_b1_cbr2_conv -> L1_b1_cbr2_conv_top
I0818 13:44:12.022791 20842 net.cpp:150] Setting up L1_b1_cbr2_conv
I0818 13:44:12.022811 20842 net.cpp:157] Top shape: 125 16 32 32 (2048000)
I0818 13:44:12.022821 20842 net.cpp:165] Memory required for data: 91649500
I0818 13:44:12.022840 20842 layer_factory.hpp:77] Creating layer L1_b1_cbr2_bn
I0818 13:44:12.022856 20842 net.cpp:100] Creating Layer L1_b1_cbr2_bn
I0818 13:44:12.022872 20842 net.cpp:434] L1_b1_cbr2_bn <- L1_b1_cbr2_conv_top
I0818 13:44:12.022889 20842 net.cpp:408] L1_b1_cbr2_bn -> L1_b1_cbr2_bn_top
I0818 13:44:12.023155 20842 net.cpp:150] Setting up L1_b1_cbr2_bn
I0818 13:44:12.023175 20842 net.cpp:157] Top shape: 125 16 32 32 (2048000)
I0818 13:44:12.023185 20842 net.cpp:165] Memory required for data: 99841500
I0818 13:44:12.023211 20842 layer_factory.hpp:77] Creating layer L1_b1_cbr2_scale
I0818 13:44:12.023233 20842 net.cpp:100] Creating Layer L1_b1_cbr2_scale
I0818 13:44:12.023246 20842 net.cpp:434] L1_b1_cbr2_scale <- L1_b1_cbr2_bn_top
I0818 13:44:12.023262 20842 net.cpp:395] L1_b1_cbr2_scale -> L1_b1_cbr2_bn_top (in-place)
I0818 13:44:12.023358 20842 layer_factory.hpp:77] Creating layer L1_b1_cbr2_scale
I0818 13:44:12.023538 20842 net.cpp:150] Setting up L1_b1_cbr2_scale
I0818 13:44:12.023557 20842 net.cpp:157] Top shape: 125 16 32 32 (2048000)
I0818 13:44:12.023567 20842 net.cpp:165] Memory required for data: 108033500
I0818 13:44:12.023586 20842 layer_factory.hpp:77] Creating layer L1_b1_sum_eltwise
I0818 13:44:12.023659 20842 net.cpp:100] Creating Layer L1_b1_sum_eltwise
I0818 13:44:12.023681 20842 net.cpp:434] L1_b1_sum_eltwise <- L1_b1_cbr2_bn_top
I0818 13:44:12.023695 20842 net.cpp:434] L1_b1_sum_eltwise <- pre_bn_top_pre_relu_0_split_1
I0818 13:44:12.023717 20842 net.cpp:408] L1_b1_sum_eltwise -> L1_b1_sum_eltwise_top
I0818 13:44:12.023828 20842 net.cpp:150] Setting up L1_b1_sum_eltwise
I0818 13:44:12.023849 20842 net.cpp:157] Top shape: 125 16 32 32 (2048000)
I0818 13:44:12.023859 20842 net.cpp:165] Memory required for data: 116225500
I0818 13:44:12.023869 20842 layer_factory.hpp:77] Creating layer L1_b1_relu
I0818 13:44:12.023883 20842 net.cpp:100] Creating Layer L1_b1_relu
I0818 13:44:12.023895 20842 net.cpp:434] L1_b1_relu <- L1_b1_sum_eltwise_top
I0818 13:44:12.023910 20842 net.cpp:395] L1_b1_relu -> L1_b1_sum_eltwise_top (in-place)
I0818 13:44:12.023932 20842 net.cpp:150] Setting up L1_b1_relu
I0818 13:44:12.023948 20842 net.cpp:157] Top shape: 125 16 32 32 (2048000)
I0818 13:44:12.023958 20842 net.cpp:165] Memory required for data: 124417500
I0818 13:44:12.023970 20842 layer_factory.hpp:77] Creating layer L1_b1_sum_eltwise_top_L1_b1_relu_0_split
I0818 13:44:12.023986 20842 net.cpp:100] Creating Layer L1_b1_sum_eltwise_top_L1_b1_relu_0_split
I0818 13:44:12.023998 20842 net.cpp:434] L1_b1_sum_eltwise_top_L1_b1_relu_0_split <- L1_b1_sum_eltwise_top
I0818 13:44:12.024013 20842 net.cpp:408] L1_b1_sum_eltwise_top_L1_b1_relu_0_split -> L1_b1_sum_eltwise_top_L1_b1_relu_0_split_0
I0818 13:44:12.024031 20842 net.cpp:408] L1_b1_sum_eltwise_top_L1_b1_relu_0_split -> L1_b1_sum_eltwise_top_L1_b1_relu_0_split_1
I0818 13:44:12.024109 20842 net.cpp:150] Setting up L1_b1_sum_eltwise_top_L1_b1_relu_0_split
I0818 13:44:12.024129 20842 net.cpp:157] Top shape: 125 16 32 32 (2048000)
I0818 13:44:12.024142 20842 net.cpp:157] Top shape: 125 16 32 32 (2048000)
I0818 13:44:12.024160 20842 net.cpp:165] Memory required for data: 140801500
I0818 13:44:12.024173 20842 layer_factory.hpp:77] Creating layer L1_b2_cbr1_conv
I0818 13:44:12.024191 20842 net.cpp:100] Creating Layer L1_b2_cbr1_conv
I0818 13:44:12.024204 20842 net.cpp:434] L1_b2_cbr1_conv <- L1_b1_sum_eltwise_top_L1_b1_relu_0_split_0
I0818 13:44:12.024226 20842 net.cpp:408] L1_b2_cbr1_conv -> L1_b2_cbr1_conv_top
I0818 13:44:12.024580 20842 net.cpp:150] Setting up L1_b2_cbr1_conv
I0818 13:44:12.024667 20842 net.cpp:157] Top shape: 125 16 32 32 (2048000)
I0818 13:44:12.024751 20842 net.cpp:165] Memory required for data: 148993500
I0818 13:44:12.024821 20842 layer_factory.hpp:77] Creating layer L1_b2_cbr1_bn
I0818 13:44:12.024839 20842 net.cpp:100] Creating Layer L1_b2_cbr1_bn
I0818 13:44:12.024852 20842 net.cpp:434] L1_b2_cbr1_bn <- L1_b2_cbr1_conv_top
I0818 13:44:12.024875 20842 net.cpp:408] L1_b2_cbr1_bn -> L1_b2_cbr1_bn_top
I0818 13:44:12.025156 20842 net.cpp:150] Setting up L1_b2_cbr1_bn
I0818 13:44:12.025179 20842 net.cpp:157] Top shape: 125 16 32 32 (2048000)
I0818 13:44:12.025190 20842 net.cpp:165] Memory required for data: 157185500
I0818 13:44:12.025213 20842 layer_factory.hpp:77] Creating layer L1_b2_cbr1_scale
I0818 13:44:12.025229 20842 net.cpp:100] Creating Layer L1_b2_cbr1_scale
I0818 13:44:12.025240 20842 net.cpp:434] L1_b2_cbr1_scale <- L1_b2_cbr1_bn_top
I0818 13:44:12.025256 20842 net.cpp:395] L1_b2_cbr1_scale -> L1_b2_cbr1_bn_top (in-place)
I0818 13:44:12.025338 20842 layer_factory.hpp:77] Creating layer L1_b2_cbr1_scale
I0818 13:44:12.025513 20842 net.cpp:150] Setting up L1_b2_cbr1_scale
I0818 13:44:12.025532 20842 net.cpp:157] Top shape: 125 16 32 32 (2048000)
I0818 13:44:12.025542 20842 net.cpp:165] Memory required for data: 165377500
I0818 13:44:12.025560 20842 layer_factory.hpp:77] Creating layer L1_b2_cbr1_relu
I0818 13:44:12.025580 20842 net.cpp:100] Creating Layer L1_b2_cbr1_relu
I0818 13:44:12.025593 20842 net.cpp:434] L1_b2_cbr1_relu <- L1_b2_cbr1_bn_top
I0818 13:44:12.025606 20842 net.cpp:395] L1_b2_cbr1_relu -> L1_b2_cbr1_bn_top (in-place)
I0818 13:44:12.025625 20842 net.cpp:150] Setting up L1_b2_cbr1_relu
I0818 13:44:12.025640 20842 net.cpp:157] Top shape: 125 16 32 32 (2048000)
I0818 13:44:12.025650 20842 net.cpp:165] Memory required for data: 173569500
I0818 13:44:12.025660 20842 layer_factory.hpp:77] Creating layer L1_b2_cbr2_conv
I0818 13:44:12.025693 20842 net.cpp:100] Creating Layer L1_b2_cbr2_conv
I0818 13:44:12.025707 20842 net.cpp:434] L1_b2_cbr2_conv <- L1_b2_cbr1_bn_top
I0818 13:44:12.025728 20842 net.cpp:408] L1_b2_cbr2_conv -> L1_b2_cbr2_conv_top
I0818 13:44:12.026070 20842 net.cpp:150] Setting up L1_b2_cbr2_conv
I0818 13:44:12.026089 20842 net.cpp:157] Top shape: 125 16 32 32 (2048000)
I0818 13:44:12.026099 20842 net.cpp:165] Memory required for data: 181761500
I0818 13:44:12.026118 20842 layer_factory.hpp:77] Creating layer L1_b2_cbr2_bn
I0818 13:44:12.026134 20842 net.cpp:100] Creating Layer L1_b2_cbr2_bn
I0818 13:44:12.026145 20842 net.cpp:434] L1_b2_cbr2_bn <- L1_b2_cbr2_conv_top
I0818 13:44:12.026170 20842 net.cpp:408] L1_b2_cbr2_bn -> L1_b2_cbr2_bn_top
I0818 13:44:12.026439 20842 net.cpp:150] Setting up L1_b2_cbr2_bn
I0818 13:44:12.026458 20842 net.cpp:157] Top shape: 125 16 32 32 (2048000)
I0818 13:44:12.026468 20842 net.cpp:165] Memory required for data: 189953500
I0818 13:44:12.026501 20842 layer_factory.hpp:77] Creating layer L1_b2_cbr2_scale
I0818 13:44:12.026520 20842 net.cpp:100] Creating Layer L1_b2_cbr2_scale
I0818 13:44:12.026531 20842 net.cpp:434] L1_b2_cbr2_scale <- L1_b2_cbr2_bn_top
I0818 13:44:12.026547 20842 net.cpp:395] L1_b2_cbr2_scale -> L1_b2_cbr2_bn_top (in-place)
I0818 13:44:12.026641 20842 layer_factory.hpp:77] Creating layer L1_b2_cbr2_scale
I0818 13:44:12.026819 20842 net.cpp:150] Setting up L1_b2_cbr2_scale
I0818 13:44:12.026839 20842 net.cpp:157] Top shape: 125 16 32 32 (2048000)
I0818 13:44:12.026849 20842 net.cpp:165] Memory required for data: 198145500
I0818 13:44:12.026866 20842 layer_factory.hpp:77] Creating layer L1_b2_sum_eltwise
I0818 13:44:12.026897 20842 net.cpp:100] Creating Layer L1_b2_sum_eltwise
I0818 13:44:12.026909 20842 net.cpp:434] L1_b2_sum_eltwise <- L1_b2_cbr2_bn_top
I0818 13:44:12.026924 20842 net.cpp:434] L1_b2_sum_eltwise <- L1_b1_sum_eltwise_top_L1_b1_relu_0_split_1
I0818 13:44:12.026942 20842 net.cpp:408] L1_b2_sum_eltwise -> L1_b2_sum_eltwise_top
I0818 13:44:12.026999 20842 net.cpp:150] Setting up L1_b2_sum_eltwise
I0818 13:44:12.027021 20842 net.cpp:157] Top shape: 125 16 32 32 (2048000)
I0818 13:44:12.027030 20842 net.cpp:165] Memory required for data: 206337500
I0818 13:44:12.027041 20842 layer_factory.hpp:77] Creating layer L1_b2_relu
I0818 13:44:12.027055 20842 net.cpp:100] Creating Layer L1_b2_relu
I0818 13:44:12.027066 20842 net.cpp:434] L1_b2_relu <- L1_b2_sum_eltwise_top
I0818 13:44:12.027079 20842 net.cpp:395] L1_b2_relu -> L1_b2_sum_eltwise_top (in-place)
I0818 13:44:12.027098 20842 net.cpp:150] Setting up L1_b2_relu
I0818 13:44:12.027112 20842 net.cpp:157] Top shape: 125 16 32 32 (2048000)
I0818 13:44:12.027122 20842 net.cpp:165] Memory required for data: 214529500
I0818 13:44:12.027132 20842 layer_factory.hpp:77] Creating layer L1_b2_sum_eltwise_top_L1_b2_relu_0_split
I0818 13:44:12.027146 20842 net.cpp:100] Creating Layer L1_b2_sum_eltwise_top_L1_b2_relu_0_split
I0818 13:44:12.027156 20842 net.cpp:434] L1_b2_sum_eltwise_top_L1_b2_relu_0_split <- L1_b2_sum_eltwise_top
I0818 13:44:12.027176 20842 net.cpp:408] L1_b2_sum_eltwise_top_L1_b2_relu_0_split -> L1_b2_sum_eltwise_top_L1_b2_relu_0_split_0
I0818 13:44:12.027196 20842 net.cpp:408] L1_b2_sum_eltwise_top_L1_b2_relu_0_split -> L1_b2_sum_eltwise_top_L1_b2_relu_0_split_1
I0818 13:44:12.027269 20842 net.cpp:150] Setting up L1_b2_sum_eltwise_top_L1_b2_relu_0_split
I0818 13:44:12.027290 20842 net.cpp:157] Top shape: 125 16 32 32 (2048000)
I0818 13:44:12.027304 20842 net.cpp:157] Top shape: 125 16 32 32 (2048000)
I0818 13:44:12.027314 20842 net.cpp:165] Memory required for data: 230913500
I0818 13:44:12.027325 20842 layer_factory.hpp:77] Creating layer L1_b3_cbr1_conv
I0818 13:44:12.027349 20842 net.cpp:100] Creating Layer L1_b3_cbr1_conv
I0818 13:44:12.027364 20842 net.cpp:434] L1_b3_cbr1_conv <- L1_b2_sum_eltwise_top_L1_b2_relu_0_split_0
I0818 13:44:12.027380 20842 net.cpp:408] L1_b3_cbr1_conv -> L1_b3_cbr1_conv_top
I0818 13:44:12.027742 20842 net.cpp:150] Setting up L1_b3_cbr1_conv
I0818 13:44:12.027762 20842 net.cpp:157] Top shape: 125 16 32 32 (2048000)
I0818 13:44:12.027771 20842 net.cpp:165] Memory required for data: 239105500
I0818 13:44:12.027789 20842 layer_factory.hpp:77] Creating layer L1_b3_cbr1_bn
I0818 13:44:12.027812 20842 net.cpp:100] Creating Layer L1_b3_cbr1_bn
I0818 13:44:12.027824 20842 net.cpp:434] L1_b3_cbr1_bn <- L1_b3_cbr1_conv_top
I0818 13:44:12.027845 20842 net.cpp:408] L1_b3_cbr1_bn -> L1_b3_cbr1_bn_top
I0818 13:44:12.028110 20842 net.cpp:150] Setting up L1_b3_cbr1_bn
I0818 13:44:12.028128 20842 net.cpp:157] Top shape: 125 16 32 32 (2048000)
I0818 13:44:12.028138 20842 net.cpp:165] Memory required for data: 247297500
I0818 13:44:12.028159 20842 layer_factory.hpp:77] Creating layer L1_b3_cbr1_scale
I0818 13:44:12.028175 20842 net.cpp:100] Creating Layer L1_b3_cbr1_scale
I0818 13:44:12.028187 20842 net.cpp:434] L1_b3_cbr1_scale <- L1_b3_cbr1_bn_top
I0818 13:44:12.028201 20842 net.cpp:395] L1_b3_cbr1_scale -> L1_b3_cbr1_bn_top (in-place)
I0818 13:44:12.028288 20842 layer_factory.hpp:77] Creating layer L1_b3_cbr1_scale
I0818 13:44:12.028463 20842 net.cpp:150] Setting up L1_b3_cbr1_scale
I0818 13:44:12.028482 20842 net.cpp:157] Top shape: 125 16 32 32 (2048000)
I0818 13:44:12.028492 20842 net.cpp:165] Memory required for data: 255489500
I0818 13:44:12.028509 20842 layer_factory.hpp:77] Creating layer L1_b3_cbr1_relu
I0818 13:44:12.028530 20842 net.cpp:100] Creating Layer L1_b3_cbr1_relu
I0818 13:44:12.028542 20842 net.cpp:434] L1_b3_cbr1_relu <- L1_b3_cbr1_bn_top
I0818 13:44:12.028556 20842 net.cpp:395] L1_b3_cbr1_relu -> L1_b3_cbr1_bn_top (in-place)
I0818 13:44:12.028575 20842 net.cpp:150] Setting up L1_b3_cbr1_relu
I0818 13:44:12.028596 20842 net.cpp:157] Top shape: 125 16 32 32 (2048000)
I0818 13:44:12.028607 20842 net.cpp:165] Memory required for data: 263681500
I0818 13:44:12.028617 20842 layer_factory.hpp:77] Creating layer L1_b3_cbr2_conv
I0818 13:44:12.028642 20842 net.cpp:100] Creating Layer L1_b3_cbr2_conv
I0818 13:44:12.028656 20842 net.cpp:434] L1_b3_cbr2_conv <- L1_b3_cbr1_bn_top
I0818 13:44:12.028686 20842 net.cpp:408] L1_b3_cbr2_conv -> L1_b3_cbr2_conv_top
I0818 13:44:12.029033 20842 net.cpp:150] Setting up L1_b3_cbr2_conv
I0818 13:44:12.029053 20842 net.cpp:157] Top shape: 125 16 32 32 (2048000)
I0818 13:44:12.029062 20842 net.cpp:165] Memory required for data: 271873500
I0818 13:44:12.029080 20842 layer_factory.hpp:77] Creating layer L1_b3_cbr2_bn
I0818 13:44:12.029108 20842 net.cpp:100] Creating Layer L1_b3_cbr2_bn
I0818 13:44:12.029124 20842 net.cpp:434] L1_b3_cbr2_bn <- L1_b3_cbr2_conv_top
I0818 13:44:12.029141 20842 net.cpp:408] L1_b3_cbr2_bn -> L1_b3_cbr2_bn_top
I0818 13:44:12.029420 20842 net.cpp:150] Setting up L1_b3_cbr2_bn
I0818 13:44:12.029439 20842 net.cpp:157] Top shape: 125 16 32 32 (2048000)
I0818 13:44:12.029449 20842 net.cpp:165] Memory required for data: 280065500
I0818 13:44:12.029470 20842 layer_factory.hpp:77] Creating layer L1_b3_cbr2_scale
I0818 13:44:12.029487 20842 net.cpp:100] Creating Layer L1_b3_cbr2_scale
I0818 13:44:12.029498 20842 net.cpp:434] L1_b3_cbr2_scale <- L1_b3_cbr2_bn_top
I0818 13:44:12.029518 20842 net.cpp:395] L1_b3_cbr2_scale -> L1_b3_cbr2_bn_top (in-place)
I0818 13:44:12.029603 20842 layer_factory.hpp:77] Creating layer L1_b3_cbr2_scale
I0818 13:44:12.029779 20842 net.cpp:150] Setting up L1_b3_cbr2_scale
I0818 13:44:12.029803 20842 net.cpp:157] Top shape: 125 16 32 32 (2048000)
I0818 13:44:12.029812 20842 net.cpp:165] Memory required for data: 288257500
I0818 13:44:12.029830 20842 layer_factory.hpp:77] Creating layer L1_b3_sum_eltwise
I0818 13:44:12.029847 20842 net.cpp:100] Creating Layer L1_b3_sum_eltwise
I0818 13:44:12.029860 20842 net.cpp:434] L1_b3_sum_eltwise <- L1_b3_cbr2_bn_top
I0818 13:44:12.029872 20842 net.cpp:434] L1_b3_sum_eltwise <- L1_b2_sum_eltwise_top_L1_b2_relu_0_split_1
I0818 13:44:12.029888 20842 net.cpp:408] L1_b3_sum_eltwise -> L1_b3_sum_eltwise_top
I0818 13:44:12.029943 20842 net.cpp:150] Setting up L1_b3_sum_eltwise
I0818 13:44:12.029961 20842 net.cpp:157] Top shape: 125 16 32 32 (2048000)
I0818 13:44:12.029971 20842 net.cpp:165] Memory required for data: 296449500
I0818 13:44:12.029981 20842 layer_factory.hpp:77] Creating layer L1_b3_relu
I0818 13:44:12.029995 20842 net.cpp:100] Creating Layer L1_b3_relu
I0818 13:44:12.030012 20842 net.cpp:434] L1_b3_relu <- L1_b3_sum_eltwise_top
I0818 13:44:12.030027 20842 net.cpp:395] L1_b3_relu -> L1_b3_sum_eltwise_top (in-place)
I0818 13:44:12.030045 20842 net.cpp:150] Setting up L1_b3_relu
I0818 13:44:12.030059 20842 net.cpp:157] Top shape: 125 16 32 32 (2048000)
I0818 13:44:12.030069 20842 net.cpp:165] Memory required for data: 304641500
I0818 13:44:12.030079 20842 layer_factory.hpp:77] Creating layer L1_b3_sum_eltwise_top_L1_b3_relu_0_split
I0818 13:44:12.030093 20842 net.cpp:100] Creating Layer L1_b3_sum_eltwise_top_L1_b3_relu_0_split
I0818 13:44:12.030103 20842 net.cpp:434] L1_b3_sum_eltwise_top_L1_b3_relu_0_split <- L1_b3_sum_eltwise_top
I0818 13:44:12.030123 20842 net.cpp:408] L1_b3_sum_eltwise_top_L1_b3_relu_0_split -> L1_b3_sum_eltwise_top_L1_b3_relu_0_split_0
I0818 13:44:12.030144 20842 net.cpp:408] L1_b3_sum_eltwise_top_L1_b3_relu_0_split -> L1_b3_sum_eltwise_top_L1_b3_relu_0_split_1
I0818 13:44:12.030218 20842 net.cpp:150] Setting up L1_b3_sum_eltwise_top_L1_b3_relu_0_split
I0818 13:44:12.030239 20842 net.cpp:157] Top shape: 125 16 32 32 (2048000)
I0818 13:44:12.030253 20842 net.cpp:157] Top shape: 125 16 32 32 (2048000)
I0818 13:44:12.030262 20842 net.cpp:165] Memory required for data: 321025500
I0818 13:44:12.030273 20842 layer_factory.hpp:77] Creating layer L1_b4_cbr1_conv
I0818 13:44:12.030297 20842 net.cpp:100] Creating Layer L1_b4_cbr1_conv
I0818 13:44:12.030309 20842 net.cpp:434] L1_b4_cbr1_conv <- L1_b3_sum_eltwise_top_L1_b3_relu_0_split_0
I0818 13:44:12.030336 20842 net.cpp:408] L1_b4_cbr1_conv -> L1_b4_cbr1_conv_top
I0818 13:44:12.030721 20842 net.cpp:150] Setting up L1_b4_cbr1_conv
I0818 13:44:12.030742 20842 net.cpp:157] Top shape: 125 16 32 32 (2048000)
I0818 13:44:12.030752 20842 net.cpp:165] Memory required for data: 329217500
I0818 13:44:12.030771 20842 layer_factory.hpp:77] Creating layer L1_b4_cbr1_bn
I0818 13:44:12.030792 20842 net.cpp:100] Creating Layer L1_b4_cbr1_bn
I0818 13:44:12.030805 20842 net.cpp:434] L1_b4_cbr1_bn <- L1_b4_cbr1_conv_top
I0818 13:44:12.030822 20842 net.cpp:408] L1_b4_cbr1_bn -> L1_b4_cbr1_bn_top
I0818 13:44:12.031095 20842 net.cpp:150] Setting up L1_b4_cbr1_bn
I0818 13:44:12.031114 20842 net.cpp:157] Top shape: 125 16 32 32 (2048000)
I0818 13:44:12.031123 20842 net.cpp:165] Memory required for data: 337409500
I0818 13:44:12.031146 20842 layer_factory.hpp:77] Creating layer L1_b4_cbr1_scale
I0818 13:44:12.031162 20842 net.cpp:100] Creating Layer L1_b4_cbr1_scale
I0818 13:44:12.031173 20842 net.cpp:434] L1_b4_cbr1_scale <- L1_b4_cbr1_bn_top
I0818 13:44:12.031193 20842 net.cpp:395] L1_b4_cbr1_scale -> L1_b4_cbr1_bn_top (in-place)
I0818 13:44:12.031277 20842 layer_factory.hpp:77] Creating layer L1_b4_cbr1_scale
I0818 13:44:12.031462 20842 net.cpp:150] Setting up L1_b4_cbr1_scale
I0818 13:44:12.031484 20842 net.cpp:157] Top shape: 125 16 32 32 (2048000)
I0818 13:44:12.031496 20842 net.cpp:165] Memory required for data: 345601500
I0818 13:44:12.031513 20842 layer_factory.hpp:77] Creating layer L1_b4_cbr1_relu
I0818 13:44:12.031528 20842 net.cpp:100] Creating Layer L1_b4_cbr1_relu
I0818 13:44:12.031540 20842 net.cpp:434] L1_b4_cbr1_relu <- L1_b4_cbr1_bn_top
I0818 13:44:12.031554 20842 net.cpp:395] L1_b4_cbr1_relu -> L1_b4_cbr1_bn_top (in-place)
I0818 13:44:12.031574 20842 net.cpp:150] Setting up L1_b4_cbr1_relu
I0818 13:44:12.031587 20842 net.cpp:157] Top shape: 125 16 32 32 (2048000)
I0818 13:44:12.031597 20842 net.cpp:165] Memory required for data: 353793500
I0818 13:44:12.031607 20842 layer_factory.hpp:77] Creating layer L1_b4_cbr2_conv
I0818 13:44:12.031632 20842 net.cpp:100] Creating Layer L1_b4_cbr2_conv
I0818 13:44:12.031646 20842 net.cpp:434] L1_b4_cbr2_conv <- L1_b4_cbr1_bn_top
I0818 13:44:12.031666 20842 net.cpp:408] L1_b4_cbr2_conv -> L1_b4_cbr2_conv_top
I0818 13:44:12.032028 20842 net.cpp:150] Setting up L1_b4_cbr2_conv
I0818 13:44:12.032048 20842 net.cpp:157] Top shape: 125 16 32 32 (2048000)
I0818 13:44:12.032058 20842 net.cpp:165] Memory required for data: 361985500
I0818 13:44:12.032075 20842 layer_factory.hpp:77] Creating layer L1_b4_cbr2_bn
I0818 13:44:12.032099 20842 net.cpp:100] Creating Layer L1_b4_cbr2_bn
I0818 13:44:12.032110 20842 net.cpp:434] L1_b4_cbr2_bn <- L1_b4_cbr2_conv_top
I0818 13:44:12.032131 20842 net.cpp:408] L1_b4_cbr2_bn -> L1_b4_cbr2_bn_top
I0818 13:44:12.032400 20842 net.cpp:150] Setting up L1_b4_cbr2_bn
I0818 13:44:12.032420 20842 net.cpp:157] Top shape: 125 16 32 32 (2048000)
I0818 13:44:12.032430 20842 net.cpp:165] Memory required for data: 370177500
I0818 13:44:12.032451 20842 layer_factory.hpp:77] Creating layer L1_b4_cbr2_scale
I0818 13:44:12.032469 20842 net.cpp:100] Creating Layer L1_b4_cbr2_scale
I0818 13:44:12.032480 20842 net.cpp:434] L1_b4_cbr2_scale <- L1_b4_cbr2_bn_top
I0818 13:44:12.032498 20842 net.cpp:395] L1_b4_cbr2_scale -> L1_b4_cbr2_bn_top (in-place)
I0818 13:44:12.032586 20842 layer_factory.hpp:77] Creating layer L1_b4_cbr2_scale
I0818 13:44:12.032768 20842 net.cpp:150] Setting up L1_b4_cbr2_scale
I0818 13:44:12.032786 20842 net.cpp:157] Top shape: 125 16 32 32 (2048000)
I0818 13:44:12.032795 20842 net.cpp:165] Memory required for data: 378369500
I0818 13:44:12.032814 20842 layer_factory.hpp:77] Creating layer L1_b4_sum_eltwise
I0818 13:44:12.032831 20842 net.cpp:100] Creating Layer L1_b4_sum_eltwise
I0818 13:44:12.032842 20842 net.cpp:434] L1_b4_sum_eltwise <- L1_b4_cbr2_bn_top
I0818 13:44:12.032856 20842 net.cpp:434] L1_b4_sum_eltwise <- L1_b3_sum_eltwise_top_L1_b3_relu_0_split_1
I0818 13:44:12.032876 20842 net.cpp:408] L1_b4_sum_eltwise -> L1_b4_sum_eltwise_top
I0818 13:44:12.032943 20842 net.cpp:150] Setting up L1_b4_sum_eltwise
I0818 13:44:12.032965 20842 net.cpp:157] Top shape: 125 16 32 32 (2048000)
I0818 13:44:12.032977 20842 net.cpp:165] Memory required for data: 386561500
I0818 13:44:12.032989 20842 layer_factory.hpp:77] Creating layer L1_b4_relu
I0818 13:44:12.033001 20842 net.cpp:100] Creating Layer L1_b4_relu
I0818 13:44:12.033013 20842 net.cpp:434] L1_b4_relu <- L1_b4_sum_eltwise_top
I0818 13:44:12.033027 20842 net.cpp:395] L1_b4_relu -> L1_b4_sum_eltwise_top (in-place)
I0818 13:44:12.033046 20842 net.cpp:150] Setting up L1_b4_relu
I0818 13:44:12.033059 20842 net.cpp:157] Top shape: 125 16 32 32 (2048000)
I0818 13:44:12.033069 20842 net.cpp:165] Memory required for data: 394753500
I0818 13:44:12.033079 20842 layer_factory.hpp:77] Creating layer L1_b4_sum_eltwise_top_L1_b4_relu_0_split
I0818 13:44:12.033100 20842 net.cpp:100] Creating Layer L1_b4_sum_eltwise_top_L1_b4_relu_0_split
I0818 13:44:12.033113 20842 net.cpp:434] L1_b4_sum_eltwise_top_L1_b4_relu_0_split <- L1_b4_sum_eltwise_top
I0818 13:44:12.033128 20842 net.cpp:408] L1_b4_sum_eltwise_top_L1_b4_relu_0_split -> L1_b4_sum_eltwise_top_L1_b4_relu_0_split_0
I0818 13:44:12.033146 20842 net.cpp:408] L1_b4_sum_eltwise_top_L1_b4_relu_0_split -> L1_b4_sum_eltwise_top_L1_b4_relu_0_split_1
I0818 13:44:12.033217 20842 net.cpp:150] Setting up L1_b4_sum_eltwise_top_L1_b4_relu_0_split
I0818 13:44:12.033241 20842 net.cpp:157] Top shape: 125 16 32 32 (2048000)
I0818 13:44:12.033254 20842 net.cpp:157] Top shape: 125 16 32 32 (2048000)
I0818 13:44:12.033264 20842 net.cpp:165] Memory required for data: 411137500
I0818 13:44:12.033274 20842 layer_factory.hpp:77] Creating layer L1_b5_cbr1_conv
I0818 13:44:12.033294 20842 net.cpp:100] Creating Layer L1_b5_cbr1_conv
I0818 13:44:12.033306 20842 net.cpp:434] L1_b5_cbr1_conv <- L1_b4_sum_eltwise_top_L1_b4_relu_0_split_0
I0818 13:44:12.033324 20842 net.cpp:408] L1_b5_cbr1_conv -> L1_b5_cbr1_conv_top
I0818 13:44:12.033690 20842 net.cpp:150] Setting up L1_b5_cbr1_conv
I0818 13:44:12.033710 20842 net.cpp:157] Top shape: 125 16 32 32 (2048000)
I0818 13:44:12.033718 20842 net.cpp:165] Memory required for data: 419329500
I0818 13:44:12.033756 20842 layer_factory.hpp:77] Creating layer L1_b5_cbr1_bn
I0818 13:44:12.033779 20842 net.cpp:100] Creating Layer L1_b5_cbr1_bn
I0818 13:44:12.033792 20842 net.cpp:434] L1_b5_cbr1_bn <- L1_b5_cbr1_conv_top
I0818 13:44:12.033808 20842 net.cpp:408] L1_b5_cbr1_bn -> L1_b5_cbr1_bn_top
I0818 13:44:12.034090 20842 net.cpp:150] Setting up L1_b5_cbr1_bn
I0818 13:44:12.034108 20842 net.cpp:157] Top shape: 125 16 32 32 (2048000)
I0818 13:44:12.034117 20842 net.cpp:165] Memory required for data: 427521500
I0818 13:44:12.034139 20842 layer_factory.hpp:77] Creating layer L1_b5_cbr1_scale
I0818 13:44:12.034157 20842 net.cpp:100] Creating Layer L1_b5_cbr1_scale
I0818 13:44:12.034168 20842 net.cpp:434] L1_b5_cbr1_scale <- L1_b5_cbr1_bn_top
I0818 13:44:12.034188 20842 net.cpp:395] L1_b5_cbr1_scale -> L1_b5_cbr1_bn_top (in-place)
I0818 13:44:12.034271 20842 layer_factory.hpp:77] Creating layer L1_b5_cbr1_scale
I0818 13:44:12.034445 20842 net.cpp:150] Setting up L1_b5_cbr1_scale
I0818 13:44:12.034463 20842 net.cpp:157] Top shape: 125 16 32 32 (2048000)
I0818 13:44:12.034472 20842 net.cpp:165] Memory required for data: 435713500
I0818 13:44:12.034492 20842 layer_factory.hpp:77] Creating layer L1_b5_cbr1_relu
I0818 13:44:12.034508 20842 net.cpp:100] Creating Layer L1_b5_cbr1_relu
I0818 13:44:12.034519 20842 net.cpp:434] L1_b5_cbr1_relu <- L1_b5_cbr1_bn_top
I0818 13:44:12.034533 20842 net.cpp:395] L1_b5_cbr1_relu -> L1_b5_cbr1_bn_top (in-place)
I0818 13:44:12.034553 20842 net.cpp:150] Setting up L1_b5_cbr1_relu
I0818 13:44:12.034566 20842 net.cpp:157] Top shape: 125 16 32 32 (2048000)
I0818 13:44:12.034575 20842 net.cpp:165] Memory required for data: 443905500
I0818 13:44:12.034586 20842 layer_factory.hpp:77] Creating layer L1_b5_cbr2_conv
I0818 13:44:12.034610 20842 net.cpp:100] Creating Layer L1_b5_cbr2_conv
I0818 13:44:12.034623 20842 net.cpp:434] L1_b5_cbr2_conv <- L1_b5_cbr1_bn_top
I0818 13:44:12.034653 20842 net.cpp:408] L1_b5_cbr2_conv -> L1_b5_cbr2_conv_top
I0818 13:44:12.035022 20842 net.cpp:150] Setting up L1_b5_cbr2_conv
I0818 13:44:12.035043 20842 net.cpp:157] Top shape: 125 16 32 32 (2048000)
I0818 13:44:12.035053 20842 net.cpp:165] Memory required for data: 452097500
I0818 13:44:12.035070 20842 layer_factory.hpp:77] Creating layer L1_b5_cbr2_bn
I0818 13:44:12.035099 20842 net.cpp:100] Creating Layer L1_b5_cbr2_bn
I0818 13:44:12.035112 20842 net.cpp:434] L1_b5_cbr2_bn <- L1_b5_cbr2_conv_top
I0818 13:44:12.035133 20842 net.cpp:408] L1_b5_cbr2_bn -> L1_b5_cbr2_bn_top
I0818 13:44:12.035410 20842 net.cpp:150] Setting up L1_b5_cbr2_bn
I0818 13:44:12.035429 20842 net.cpp:157] Top shape: 125 16 32 32 (2048000)
I0818 13:44:12.035439 20842 net.cpp:165] Memory required for data: 460289500
I0818 13:44:12.035459 20842 layer_factory.hpp:77] Creating layer L1_b5_cbr2_scale
I0818 13:44:12.035475 20842 net.cpp:100] Creating Layer L1_b5_cbr2_scale
I0818 13:44:12.035487 20842 net.cpp:434] L1_b5_cbr2_scale <- L1_b5_cbr2_bn_top
I0818 13:44:12.035506 20842 net.cpp:395] L1_b5_cbr2_scale -> L1_b5_cbr2_bn_top (in-place)
I0818 13:44:12.035593 20842 layer_factory.hpp:77] Creating layer L1_b5_cbr2_scale
I0818 13:44:12.035770 20842 net.cpp:150] Setting up L1_b5_cbr2_scale
I0818 13:44:12.035789 20842 net.cpp:157] Top shape: 125 16 32 32 (2048000)
I0818 13:44:12.035799 20842 net.cpp:165] Memory required for data: 468481500
I0818 13:44:12.035818 20842 layer_factory.hpp:77] Creating layer L1_b5_sum_eltwise
I0818 13:44:12.035842 20842 net.cpp:100] Creating Layer L1_b5_sum_eltwise
I0818 13:44:12.035854 20842 net.cpp:434] L1_b5_sum_eltwise <- L1_b5_cbr2_bn_top
I0818 13:44:12.035868 20842 net.cpp:434] L1_b5_sum_eltwise <- L1_b4_sum_eltwise_top_L1_b4_relu_0_split_1
I0818 13:44:12.035884 20842 net.cpp:408] L1_b5_sum_eltwise -> L1_b5_sum_eltwise_top
I0818 13:44:12.035941 20842 net.cpp:150] Setting up L1_b5_sum_eltwise
I0818 13:44:12.035959 20842 net.cpp:157] Top shape: 125 16 32 32 (2048000)
I0818 13:44:12.035969 20842 net.cpp:165] Memory required for data: 476673500
I0818 13:44:12.035979 20842 layer_factory.hpp:77] Creating layer L1_b5_relu
I0818 13:44:12.035992 20842 net.cpp:100] Creating Layer L1_b5_relu
I0818 13:44:12.036005 20842 net.cpp:434] L1_b5_relu <- L1_b5_sum_eltwise_top
I0818 13:44:12.036023 20842 net.cpp:395] L1_b5_relu -> L1_b5_sum_eltwise_top (in-place)
I0818 13:44:12.036042 20842 net.cpp:150] Setting up L1_b5_relu
I0818 13:44:12.036056 20842 net.cpp:157] Top shape: 125 16 32 32 (2048000)
I0818 13:44:12.036065 20842 net.cpp:165] Memory required for data: 484865500
I0818 13:44:12.036075 20842 layer_factory.hpp:77] Creating layer L1_b5_sum_eltwise_top_L1_b5_relu_0_split
I0818 13:44:12.036089 20842 net.cpp:100] Creating Layer L1_b5_sum_eltwise_top_L1_b5_relu_0_split
I0818 13:44:12.036099 20842 net.cpp:434] L1_b5_sum_eltwise_top_L1_b5_relu_0_split <- L1_b5_sum_eltwise_top
I0818 13:44:12.036119 20842 net.cpp:408] L1_b5_sum_eltwise_top_L1_b5_relu_0_split -> L1_b5_sum_eltwise_top_L1_b5_relu_0_split_0
I0818 13:44:12.036139 20842 net.cpp:408] L1_b5_sum_eltwise_top_L1_b5_relu_0_split -> L1_b5_sum_eltwise_top_L1_b5_relu_0_split_1
I0818 13:44:12.036214 20842 net.cpp:150] Setting up L1_b5_sum_eltwise_top_L1_b5_relu_0_split
I0818 13:44:12.036233 20842 net.cpp:157] Top shape: 125 16 32 32 (2048000)
I0818 13:44:12.036245 20842 net.cpp:157] Top shape: 125 16 32 32 (2048000)
I0818 13:44:12.036250 20842 net.cpp:165] Memory required for data: 501249500
I0818 13:44:12.036257 20842 layer_factory.hpp:77] Creating layer L1_b6_cbr1_conv
I0818 13:44:12.036273 20842 net.cpp:100] Creating Layer L1_b6_cbr1_conv
I0818 13:44:12.036279 20842 net.cpp:434] L1_b6_cbr1_conv <- L1_b5_sum_eltwise_top_L1_b5_relu_0_split_0
I0818 13:44:12.036288 20842 net.cpp:408] L1_b6_cbr1_conv -> L1_b6_cbr1_conv_top
I0818 13:44:12.036604 20842 net.cpp:150] Setting up L1_b6_cbr1_conv
I0818 13:44:12.036617 20842 net.cpp:157] Top shape: 125 16 32 32 (2048000)
I0818 13:44:12.036622 20842 net.cpp:165] Memory required for data: 509441500
I0818 13:44:12.036638 20842 layer_factory.hpp:77] Creating layer L1_b6_cbr1_bn
I0818 13:44:12.036648 20842 net.cpp:100] Creating Layer L1_b6_cbr1_bn
I0818 13:44:12.036658 20842 net.cpp:434] L1_b6_cbr1_bn <- L1_b6_cbr1_conv_top
I0818 13:44:12.036665 20842 net.cpp:408] L1_b6_cbr1_bn -> L1_b6_cbr1_bn_top
I0818 13:44:12.037006 20842 net.cpp:150] Setting up L1_b6_cbr1_bn
I0818 13:44:12.037027 20842 net.cpp:157] Top shape: 125 16 32 32 (2048000)
I0818 13:44:12.037036 20842 net.cpp:165] Memory required for data: 517633500
I0818 13:44:12.037057 20842 layer_factory.hpp:77] Creating layer L1_b6_cbr1_scale
I0818 13:44:12.037075 20842 net.cpp:100] Creating Layer L1_b6_cbr1_scale
I0818 13:44:12.037086 20842 net.cpp:434] L1_b6_cbr1_scale <- L1_b6_cbr1_bn_top
I0818 13:44:12.037106 20842 net.cpp:395] L1_b6_cbr1_scale -> L1_b6_cbr1_bn_top (in-place)
I0818 13:44:12.037194 20842 layer_factory.hpp:77] Creating layer L1_b6_cbr1_scale
I0818 13:44:12.037369 20842 net.cpp:150] Setting up L1_b6_cbr1_scale
I0818 13:44:12.037391 20842 net.cpp:157] Top shape: 125 16 32 32 (2048000)
I0818 13:44:12.037402 20842 net.cpp:165] Memory required for data: 525825500
I0818 13:44:12.037421 20842 layer_factory.hpp:77] Creating layer L1_b6_cbr1_relu
I0818 13:44:12.037437 20842 net.cpp:100] Creating Layer L1_b6_cbr1_relu
I0818 13:44:12.037448 20842 net.cpp:434] L1_b6_cbr1_relu <- L1_b6_cbr1_bn_top
I0818 13:44:12.037462 20842 net.cpp:395] L1_b6_cbr1_relu -> L1_b6_cbr1_bn_top (in-place)
I0818 13:44:12.037480 20842 net.cpp:150] Setting up L1_b6_cbr1_relu
I0818 13:44:12.037494 20842 net.cpp:157] Top shape: 125 16 32 32 (2048000)
I0818 13:44:12.037503 20842 net.cpp:165] Memory required for data: 534017500
I0818 13:44:12.037513 20842 layer_factory.hpp:77] Creating layer L1_b6_cbr2_conv
I0818 13:44:12.037539 20842 net.cpp:100] Creating Layer L1_b6_cbr2_conv
I0818 13:44:12.037552 20842 net.cpp:434] L1_b6_cbr2_conv <- L1_b6_cbr1_bn_top
I0818 13:44:12.037573 20842 net.cpp:408] L1_b6_cbr2_conv -> L1_b6_cbr2_conv_top
I0818 13:44:12.037941 20842 net.cpp:150] Setting up L1_b6_cbr2_conv
I0818 13:44:12.037961 20842 net.cpp:157] Top shape: 125 16 32 32 (2048000)
I0818 13:44:12.037971 20842 net.cpp:165] Memory required for data: 542209500
I0818 13:44:12.037988 20842 layer_factory.hpp:77] Creating layer L1_b6_cbr2_bn
I0818 13:44:12.038010 20842 net.cpp:100] Creating Layer L1_b6_cbr2_bn
I0818 13:44:12.038022 20842 net.cpp:434] L1_b6_cbr2_bn <- L1_b6_cbr2_conv_top
I0818 13:44:12.038043 20842 net.cpp:408] L1_b6_cbr2_bn -> L1_b6_cbr2_bn_top
I0818 13:44:12.038316 20842 net.cpp:150] Setting up L1_b6_cbr2_bn
I0818 13:44:12.038336 20842 net.cpp:157] Top shape: 125 16 32 32 (2048000)
I0818 13:44:12.038344 20842 net.cpp:165] Memory required for data: 550401500
I0818 13:44:12.038365 20842 layer_factory.hpp:77] Creating layer L1_b6_cbr2_scale
I0818 13:44:12.038383 20842 net.cpp:100] Creating Layer L1_b6_cbr2_scale
I0818 13:44:12.038394 20842 net.cpp:434] L1_b6_cbr2_scale <- L1_b6_cbr2_bn_top
I0818 13:44:12.038409 20842 net.cpp:395] L1_b6_cbr2_scale -> L1_b6_cbr2_bn_top (in-place)
I0818 13:44:12.038501 20842 layer_factory.hpp:77] Creating layer L1_b6_cbr2_scale
I0818 13:44:12.038682 20842 net.cpp:150] Setting up L1_b6_cbr2_scale
I0818 13:44:12.038702 20842 net.cpp:157] Top shape: 125 16 32 32 (2048000)
I0818 13:44:12.038712 20842 net.cpp:165] Memory required for data: 558593500
I0818 13:44:12.038729 20842 layer_factory.hpp:77] Creating layer L1_b6_sum_eltwise
I0818 13:44:12.038766 20842 net.cpp:100] Creating Layer L1_b6_sum_eltwise
I0818 13:44:12.038780 20842 net.cpp:434] L1_b6_sum_eltwise <- L1_b6_cbr2_bn_top
I0818 13:44:12.038794 20842 net.cpp:434] L1_b6_sum_eltwise <- L1_b5_sum_eltwise_top_L1_b5_relu_0_split_1
I0818 13:44:12.038810 20842 net.cpp:408] L1_b6_sum_eltwise -> L1_b6_sum_eltwise_top
I0818 13:44:12.038871 20842 net.cpp:150] Setting up L1_b6_sum_eltwise
I0818 13:44:12.038892 20842 net.cpp:157] Top shape: 125 16 32 32 (2048000)
I0818 13:44:12.038902 20842 net.cpp:165] Memory required for data: 566785500
I0818 13:44:12.038913 20842 layer_factory.hpp:77] Creating layer L1_b6_relu
I0818 13:44:12.038938 20842 net.cpp:100] Creating Layer L1_b6_relu
I0818 13:44:12.038950 20842 net.cpp:434] L1_b6_relu <- L1_b6_sum_eltwise_top
I0818 13:44:12.038964 20842 net.cpp:395] L1_b6_relu -> L1_b6_sum_eltwise_top (in-place)
I0818 13:44:12.038988 20842 net.cpp:150] Setting up L1_b6_relu
I0818 13:44:12.039005 20842 net.cpp:157] Top shape: 125 16 32 32 (2048000)
I0818 13:44:12.039014 20842 net.cpp:165] Memory required for data: 574977500
I0818 13:44:12.039024 20842 layer_factory.hpp:77] Creating layer L1_b6_sum_eltwise_top_L1_b6_relu_0_split
I0818 13:44:12.039039 20842 net.cpp:100] Creating Layer L1_b6_sum_eltwise_top_L1_b6_relu_0_split
I0818 13:44:12.039052 20842 net.cpp:434] L1_b6_sum_eltwise_top_L1_b6_relu_0_split <- L1_b6_sum_eltwise_top
I0818 13:44:12.039067 20842 net.cpp:408] L1_b6_sum_eltwise_top_L1_b6_relu_0_split -> L1_b6_sum_eltwise_top_L1_b6_relu_0_split_0
I0818 13:44:12.039086 20842 net.cpp:408] L1_b6_sum_eltwise_top_L1_b6_relu_0_split -> L1_b6_sum_eltwise_top_L1_b6_relu_0_split_1
I0818 13:44:12.039167 20842 net.cpp:150] Setting up L1_b6_sum_eltwise_top_L1_b6_relu_0_split
I0818 13:44:12.039189 20842 net.cpp:157] Top shape: 125 16 32 32 (2048000)
I0818 13:44:12.039202 20842 net.cpp:157] Top shape: 125 16 32 32 (2048000)
I0818 13:44:12.039211 20842 net.cpp:165] Memory required for data: 591361500
I0818 13:44:12.039222 20842 layer_factory.hpp:77] Creating layer L1_b7_cbr1_conv
I0818 13:44:12.039242 20842 net.cpp:100] Creating Layer L1_b7_cbr1_conv
I0818 13:44:12.039253 20842 net.cpp:434] L1_b7_cbr1_conv <- L1_b6_sum_eltwise_top_L1_b6_relu_0_split_0
I0818 13:44:12.039275 20842 net.cpp:408] L1_b7_cbr1_conv -> L1_b7_cbr1_conv_top
I0818 13:44:12.039638 20842 net.cpp:150] Setting up L1_b7_cbr1_conv
I0818 13:44:12.039659 20842 net.cpp:157] Top shape: 125 16 32 32 (2048000)
I0818 13:44:12.039667 20842 net.cpp:165] Memory required for data: 599553500
I0818 13:44:12.039693 20842 layer_factory.hpp:77] Creating layer L1_b7_cbr1_bn
I0818 13:44:12.039710 20842 net.cpp:100] Creating Layer L1_b7_cbr1_bn
I0818 13:44:12.039722 20842 net.cpp:434] L1_b7_cbr1_bn <- L1_b7_cbr1_conv_top
I0818 13:44:12.039743 20842 net.cpp:408] L1_b7_cbr1_bn -> L1_b7_cbr1_bn_top
I0818 13:44:12.040033 20842 net.cpp:150] Setting up L1_b7_cbr1_bn
I0818 13:44:12.040052 20842 net.cpp:157] Top shape: 125 16 32 32 (2048000)
I0818 13:44:12.040062 20842 net.cpp:165] Memory required for data: 607745500
I0818 13:44:12.040083 20842 layer_factory.hpp:77] Creating layer L1_b7_cbr1_scale
I0818 13:44:12.040104 20842 net.cpp:100] Creating Layer L1_b7_cbr1_scale
I0818 13:44:12.040117 20842 net.cpp:434] L1_b7_cbr1_scale <- L1_b7_cbr1_bn_top
I0818 13:44:12.040132 20842 net.cpp:395] L1_b7_cbr1_scale -> L1_b7_cbr1_bn_top (in-place)
I0818 13:44:12.040215 20842 layer_factory.hpp:77] Creating layer L1_b7_cbr1_scale
I0818 13:44:12.040390 20842 net.cpp:150] Setting up L1_b7_cbr1_scale
I0818 13:44:12.040410 20842 net.cpp:157] Top shape: 125 16 32 32 (2048000)
I0818 13:44:12.040419 20842 net.cpp:165] Memory required for data: 615937500
I0818 13:44:12.040436 20842 layer_factory.hpp:77] Creating layer L1_b7_cbr1_relu
I0818 13:44:12.040451 20842 net.cpp:100] Creating Layer L1_b7_cbr1_relu
I0818 13:44:12.040462 20842 net.cpp:434] L1_b7_cbr1_relu <- L1_b7_cbr1_bn_top
I0818 13:44:12.040484 20842 net.cpp:395] L1_b7_cbr1_relu -> L1_b7_cbr1_bn_top (in-place)
I0818 13:44:12.040504 20842 net.cpp:150] Setting up L1_b7_cbr1_relu
I0818 13:44:12.040521 20842 net.cpp:157] Top shape: 125 16 32 32 (2048000)
I0818 13:44:12.040530 20842 net.cpp:165] Memory required for data: 624129500
I0818 13:44:12.040541 20842 layer_factory.hpp:77] Creating layer L1_b7_cbr2_conv
I0818 13:44:12.040570 20842 net.cpp:100] Creating Layer L1_b7_cbr2_conv
I0818 13:44:12.040582 20842 net.cpp:434] L1_b7_cbr2_conv <- L1_b7_cbr1_bn_top
I0818 13:44:12.040599 20842 net.cpp:408] L1_b7_cbr2_conv -> L1_b7_cbr2_conv_top
I0818 13:44:12.040956 20842 net.cpp:150] Setting up L1_b7_cbr2_conv
I0818 13:44:12.040977 20842 net.cpp:157] Top shape: 125 16 32 32 (2048000)
I0818 13:44:12.040987 20842 net.cpp:165] Memory required for data: 632321500
I0818 13:44:12.041013 20842 layer_factory.hpp:77] Creating layer L1_b7_cbr2_bn
I0818 13:44:12.041038 20842 net.cpp:100] Creating Layer L1_b7_cbr2_bn
I0818 13:44:12.041052 20842 net.cpp:434] L1_b7_cbr2_bn <- L1_b7_cbr2_conv_top
I0818 13:44:12.041070 20842 net.cpp:408] L1_b7_cbr2_bn -> L1_b7_cbr2_bn_top
I0818 13:44:12.041349 20842 net.cpp:150] Setting up L1_b7_cbr2_bn
I0818 13:44:12.041368 20842 net.cpp:157] Top shape: 125 16 32 32 (2048000)
I0818 13:44:12.041378 20842 net.cpp:165] Memory required for data: 640513500
I0818 13:44:12.041399 20842 layer_factory.hpp:77] Creating layer L1_b7_cbr2_scale
I0818 13:44:12.041421 20842 net.cpp:100] Creating Layer L1_b7_cbr2_scale
I0818 13:44:12.041435 20842 net.cpp:434] L1_b7_cbr2_scale <- L1_b7_cbr2_bn_top
I0818 13:44:12.041450 20842 net.cpp:395] L1_b7_cbr2_scale -> L1_b7_cbr2_bn_top (in-place)
I0818 13:44:12.041535 20842 layer_factory.hpp:77] Creating layer L1_b7_cbr2_scale
I0818 13:44:12.041721 20842 net.cpp:150] Setting up L1_b7_cbr2_scale
I0818 13:44:12.041740 20842 net.cpp:157] Top shape: 125 16 32 32 (2048000)
I0818 13:44:12.041749 20842 net.cpp:165] Memory required for data: 648705500
I0818 13:44:12.041767 20842 layer_factory.hpp:77] Creating layer L1_b7_sum_eltwise
I0818 13:44:12.041785 20842 net.cpp:100] Creating Layer L1_b7_sum_eltwise
I0818 13:44:12.041795 20842 net.cpp:434] L1_b7_sum_eltwise <- L1_b7_cbr2_bn_top
I0818 13:44:12.041808 20842 net.cpp:434] L1_b7_sum_eltwise <- L1_b6_sum_eltwise_top_L1_b6_relu_0_split_1
I0818 13:44:12.041829 20842 net.cpp:408] L1_b7_sum_eltwise -> L1_b7_sum_eltwise_top
I0818 13:44:12.041882 20842 net.cpp:150] Setting up L1_b7_sum_eltwise
I0818 13:44:12.041905 20842 net.cpp:157] Top shape: 125 16 32 32 (2048000)
I0818 13:44:12.041916 20842 net.cpp:165] Memory required for data: 656897500
I0818 13:44:12.041926 20842 layer_factory.hpp:77] Creating layer L1_b7_relu
I0818 13:44:12.041941 20842 net.cpp:100] Creating Layer L1_b7_relu
I0818 13:44:12.041954 20842 net.cpp:434] L1_b7_relu <- L1_b7_sum_eltwise_top
I0818 13:44:12.041966 20842 net.cpp:395] L1_b7_relu -> L1_b7_sum_eltwise_top (in-place)
I0818 13:44:12.041985 20842 net.cpp:150] Setting up L1_b7_relu
I0818 13:44:12.042001 20842 net.cpp:157] Top shape: 125 16 32 32 (2048000)
I0818 13:44:12.042011 20842 net.cpp:165] Memory required for data: 665089500
I0818 13:44:12.042021 20842 layer_factory.hpp:77] Creating layer L1_b7_sum_eltwise_top_L1_b7_relu_0_split
I0818 13:44:12.042038 20842 net.cpp:100] Creating Layer L1_b7_sum_eltwise_top_L1_b7_relu_0_split
I0818 13:44:12.042049 20842 net.cpp:434] L1_b7_sum_eltwise_top_L1_b7_relu_0_split <- L1_b7_sum_eltwise_top
I0818 13:44:12.042065 20842 net.cpp:408] L1_b7_sum_eltwise_top_L1_b7_relu_0_split -> L1_b7_sum_eltwise_top_L1_b7_relu_0_split_0
I0818 13:44:12.042084 20842 net.cpp:408] L1_b7_sum_eltwise_top_L1_b7_relu_0_split -> L1_b7_sum_eltwise_top_L1_b7_relu_0_split_1
I0818 13:44:12.042165 20842 net.cpp:150] Setting up L1_b7_sum_eltwise_top_L1_b7_relu_0_split
I0818 13:44:12.042184 20842 net.cpp:157] Top shape: 125 16 32 32 (2048000)
I0818 13:44:12.042197 20842 net.cpp:157] Top shape: 125 16 32 32 (2048000)
I0818 13:44:12.042207 20842 net.cpp:165] Memory required for data: 681473500
I0818 13:44:12.042217 20842 layer_factory.hpp:77] Creating layer L1_b8_cbr1_conv
I0818 13:44:12.042237 20842 net.cpp:100] Creating Layer L1_b8_cbr1_conv
I0818 13:44:12.042249 20842 net.cpp:434] L1_b8_cbr1_conv <- L1_b7_sum_eltwise_top_L1_b7_relu_0_split_0
I0818 13:44:12.042273 20842 net.cpp:408] L1_b8_cbr1_conv -> L1_b8_cbr1_conv_top
I0818 13:44:12.042634 20842 net.cpp:150] Setting up L1_b8_cbr1_conv
I0818 13:44:12.042654 20842 net.cpp:157] Top shape: 125 16 32 32 (2048000)
I0818 13:44:12.042664 20842 net.cpp:165] Memory required for data: 689665500
I0818 13:44:12.042688 20842 layer_factory.hpp:77] Creating layer L1_b8_cbr1_bn
I0818 13:44:12.042706 20842 net.cpp:100] Creating Layer L1_b8_cbr1_bn
I0818 13:44:12.042718 20842 net.cpp:434] L1_b8_cbr1_bn <- L1_b8_cbr1_conv_top
I0818 13:44:12.042734 20842 net.cpp:408] L1_b8_cbr1_bn -> L1_b8_cbr1_bn_top
I0818 13:44:12.043054 20842 net.cpp:150] Setting up L1_b8_cbr1_bn
I0818 13:44:12.043074 20842 net.cpp:157] Top shape: 125 16 32 32 (2048000)
I0818 13:44:12.043083 20842 net.cpp:165] Memory required for data: 697857500
I0818 13:44:12.043105 20842 layer_factory.hpp:77] Creating layer L1_b8_cbr1_scale
I0818 13:44:12.043128 20842 net.cpp:100] Creating Layer L1_b8_cbr1_scale
I0818 13:44:12.043139 20842 net.cpp:434] L1_b8_cbr1_scale <- L1_b8_cbr1_bn_top
I0818 13:44:12.043156 20842 net.cpp:395] L1_b8_cbr1_scale -> L1_b8_cbr1_bn_top (in-place)
I0818 13:44:12.043252 20842 layer_factory.hpp:77] Creating layer L1_b8_cbr1_scale
I0818 13:44:12.043433 20842 net.cpp:150] Setting up L1_b8_cbr1_scale
I0818 13:44:12.043452 20842 net.cpp:157] Top shape: 125 16 32 32 (2048000)
I0818 13:44:12.043462 20842 net.cpp:165] Memory required for data: 706049500
I0818 13:44:12.043480 20842 layer_factory.hpp:77] Creating layer L1_b8_cbr1_relu
I0818 13:44:12.043496 20842 net.cpp:100] Creating Layer L1_b8_cbr1_relu
I0818 13:44:12.043507 20842 net.cpp:434] L1_b8_cbr1_relu <- L1_b8_cbr1_bn_top
I0818 13:44:12.043526 20842 net.cpp:395] L1_b8_cbr1_relu -> L1_b8_cbr1_bn_top (in-place)
I0818 13:44:12.043546 20842 net.cpp:150] Setting up L1_b8_cbr1_relu
I0818 13:44:12.043560 20842 net.cpp:157] Top shape: 125 16 32 32 (2048000)
I0818 13:44:12.043570 20842 net.cpp:165] Memory required for data: 714241500
I0818 13:44:12.043581 20842 layer_factory.hpp:77] Creating layer L1_b8_cbr2_conv
I0818 13:44:12.043604 20842 net.cpp:100] Creating Layer L1_b8_cbr2_conv
I0818 13:44:12.043618 20842 net.cpp:434] L1_b8_cbr2_conv <- L1_b8_cbr1_bn_top
I0818 13:44:12.043635 20842 net.cpp:408] L1_b8_cbr2_conv -> L1_b8_cbr2_conv_top
I0818 13:44:12.044001 20842 net.cpp:150] Setting up L1_b8_cbr2_conv
I0818 13:44:12.044020 20842 net.cpp:157] Top shape: 125 16 32 32 (2048000)
I0818 13:44:12.044030 20842 net.cpp:165] Memory required for data: 722433500
I0818 13:44:12.044049 20842 layer_factory.hpp:77] Creating layer L1_b8_cbr2_bn
I0818 13:44:12.044070 20842 net.cpp:100] Creating Layer L1_b8_cbr2_bn
I0818 13:44:12.044082 20842 net.cpp:434] L1_b8_cbr2_bn <- L1_b8_cbr2_conv_top
I0818 13:44:12.044100 20842 net.cpp:408] L1_b8_cbr2_bn -> L1_b8_cbr2_bn_top
I0818 13:44:12.044376 20842 net.cpp:150] Setting up L1_b8_cbr2_bn
I0818 13:44:12.044395 20842 net.cpp:157] Top shape: 125 16 32 32 (2048000)
I0818 13:44:12.044404 20842 net.cpp:165] Memory required for data: 730625500
I0818 13:44:12.044425 20842 layer_factory.hpp:77] Creating layer L1_b8_cbr2_scale
I0818 13:44:12.044442 20842 net.cpp:100] Creating Layer L1_b8_cbr2_scale
I0818 13:44:12.044454 20842 net.cpp:434] L1_b8_cbr2_scale <- L1_b8_cbr2_bn_top
I0818 13:44:12.044476 20842 net.cpp:395] L1_b8_cbr2_scale -> L1_b8_cbr2_bn_top (in-place)
I0818 13:44:12.044564 20842 layer_factory.hpp:77] Creating layer L1_b8_cbr2_scale
I0818 13:44:12.044747 20842 net.cpp:150] Setting up L1_b8_cbr2_scale
I0818 13:44:12.044766 20842 net.cpp:157] Top shape: 125 16 32 32 (2048000)
I0818 13:44:12.044776 20842 net.cpp:165] Memory required for data: 738817500
I0818 13:44:12.044795 20842 layer_factory.hpp:77] Creating layer L1_b8_sum_eltwise
I0818 13:44:12.044812 20842 net.cpp:100] Creating Layer L1_b8_sum_eltwise
I0818 13:44:12.044824 20842 net.cpp:434] L1_b8_sum_eltwise <- L1_b8_cbr2_bn_top
I0818 13:44:12.044837 20842 net.cpp:434] L1_b8_sum_eltwise <- L1_b7_sum_eltwise_top_L1_b7_relu_0_split_1
I0818 13:44:12.044858 20842 net.cpp:408] L1_b8_sum_eltwise -> L1_b8_sum_eltwise_top
I0818 13:44:12.044911 20842 net.cpp:150] Setting up L1_b8_sum_eltwise
I0818 13:44:12.044934 20842 net.cpp:157] Top shape: 125 16 32 32 (2048000)
I0818 13:44:12.044945 20842 net.cpp:165] Memory required for data: 747009500
I0818 13:44:12.044955 20842 layer_factory.hpp:77] Creating layer L1_b8_relu
I0818 13:44:12.044968 20842 net.cpp:100] Creating Layer L1_b8_relu
I0818 13:44:12.044980 20842 net.cpp:434] L1_b8_relu <- L1_b8_sum_eltwise_top
I0818 13:44:12.044993 20842 net.cpp:395] L1_b8_relu -> L1_b8_sum_eltwise_top (in-place)
I0818 13:44:12.045012 20842 net.cpp:150] Setting up L1_b8_relu
I0818 13:44:12.045027 20842 net.cpp:157] Top shape: 125 16 32 32 (2048000)
I0818 13:44:12.045049 20842 net.cpp:165] Memory required for data: 755201500
I0818 13:44:12.045060 20842 layer_factory.hpp:77] Creating layer L1_b8_sum_eltwise_top_L1_b8_relu_0_split
I0818 13:44:12.045079 20842 net.cpp:100] Creating Layer L1_b8_sum_eltwise_top_L1_b8_relu_0_split
I0818 13:44:12.045091 20842 net.cpp:434] L1_b8_sum_eltwise_top_L1_b8_relu_0_split <- L1_b8_sum_eltwise_top
I0818 13:44:12.045106 20842 net.cpp:408] L1_b8_sum_eltwise_top_L1_b8_relu_0_split -> L1_b8_sum_eltwise_top_L1_b8_relu_0_split_0
I0818 13:44:12.045126 20842 net.cpp:408] L1_b8_sum_eltwise_top_L1_b8_relu_0_split -> L1_b8_sum_eltwise_top_L1_b8_relu_0_split_1
I0818 13:44:12.045204 20842 net.cpp:150] Setting up L1_b8_sum_eltwise_top_L1_b8_relu_0_split
I0818 13:44:12.045228 20842 net.cpp:157] Top shape: 125 16 32 32 (2048000)
I0818 13:44:12.045241 20842 net.cpp:157] Top shape: 125 16 32 32 (2048000)
I0818 13:44:12.045251 20842 net.cpp:165] Memory required for data: 771585500
I0818 13:44:12.045262 20842 layer_factory.hpp:77] Creating layer L1_b9_cbr1_conv
I0818 13:44:12.045282 20842 net.cpp:100] Creating Layer L1_b9_cbr1_conv
I0818 13:44:12.045295 20842 net.cpp:434] L1_b9_cbr1_conv <- L1_b8_sum_eltwise_top_L1_b8_relu_0_split_0
I0818 13:44:12.045312 20842 net.cpp:408] L1_b9_cbr1_conv -> L1_b9_cbr1_conv_top
I0818 13:44:12.045684 20842 net.cpp:150] Setting up L1_b9_cbr1_conv
I0818 13:44:12.045706 20842 net.cpp:157] Top shape: 125 16 32 32 (2048000)
I0818 13:44:12.045716 20842 net.cpp:165] Memory required for data: 779777500
I0818 13:44:12.045733 20842 layer_factory.hpp:77] Creating layer L1_b9_cbr1_bn
I0818 13:44:12.045759 20842 net.cpp:100] Creating Layer L1_b9_cbr1_bn
I0818 13:44:12.045773 20842 net.cpp:434] L1_b9_cbr1_bn <- L1_b9_cbr1_conv_top
I0818 13:44:12.045789 20842 net.cpp:408] L1_b9_cbr1_bn -> L1_b9_cbr1_bn_top
I0818 13:44:12.046067 20842 net.cpp:150] Setting up L1_b9_cbr1_bn
I0818 13:44:12.046090 20842 net.cpp:157] Top shape: 125 16 32 32 (2048000)
I0818 13:44:12.046099 20842 net.cpp:165] Memory required for data: 787969500
I0818 13:44:12.046121 20842 layer_factory.hpp:77] Creating layer L1_b9_cbr1_scale
I0818 13:44:12.046139 20842 net.cpp:100] Creating Layer L1_b9_cbr1_scale
I0818 13:44:12.046150 20842 net.cpp:434] L1_b9_cbr1_scale <- L1_b9_cbr1_bn_top
I0818 13:44:12.046165 20842 net.cpp:395] L1_b9_cbr1_scale -> L1_b9_cbr1_bn_top (in-place)
I0818 13:44:12.046250 20842 layer_factory.hpp:77] Creating layer L1_b9_cbr1_scale
I0818 13:44:12.046432 20842 net.cpp:150] Setting up L1_b9_cbr1_scale
I0818 13:44:12.046450 20842 net.cpp:157] Top shape: 125 16 32 32 (2048000)
I0818 13:44:12.046460 20842 net.cpp:165] Memory required for data: 796161500
I0818 13:44:12.046478 20842 layer_factory.hpp:77] Creating layer L1_b9_cbr1_relu
I0818 13:44:12.046499 20842 net.cpp:100] Creating Layer L1_b9_cbr1_relu
I0818 13:44:12.046510 20842 net.cpp:434] L1_b9_cbr1_relu <- L1_b9_cbr1_bn_top
I0818 13:44:12.046530 20842 net.cpp:395] L1_b9_cbr1_relu -> L1_b9_cbr1_bn_top (in-place)
I0818 13:44:12.046550 20842 net.cpp:150] Setting up L1_b9_cbr1_relu
I0818 13:44:12.046564 20842 net.cpp:157] Top shape: 125 16 32 32 (2048000)
I0818 13:44:12.046574 20842 net.cpp:165] Memory required for data: 804353500
I0818 13:44:12.046586 20842 layer_factory.hpp:77] Creating layer L1_b9_cbr2_conv
I0818 13:44:12.046605 20842 net.cpp:100] Creating Layer L1_b9_cbr2_conv
I0818 13:44:12.046618 20842 net.cpp:434] L1_b9_cbr2_conv <- L1_b9_cbr1_bn_top
I0818 13:44:12.046639 20842 net.cpp:408] L1_b9_cbr2_conv -> L1_b9_cbr2_conv_top
I0818 13:44:12.047003 20842 net.cpp:150] Setting up L1_b9_cbr2_conv
I0818 13:44:12.047021 20842 net.cpp:157] Top shape: 125 16 32 32 (2048000)
I0818 13:44:12.047030 20842 net.cpp:165] Memory required for data: 812545500
I0818 13:44:12.047049 20842 layer_factory.hpp:77] Creating layer L1_b9_cbr2_bn
I0818 13:44:12.047065 20842 net.cpp:100] Creating Layer L1_b9_cbr2_bn
I0818 13:44:12.047077 20842 net.cpp:434] L1_b9_cbr2_bn <- L1_b9_cbr2_conv_top
I0818 13:44:12.047098 20842 net.cpp:408] L1_b9_cbr2_bn -> L1_b9_cbr2_bn_top
I0818 13:44:12.047415 20842 net.cpp:150] Setting up L1_b9_cbr2_bn
I0818 13:44:12.047435 20842 net.cpp:157] Top shape: 125 16 32 32 (2048000)
I0818 13:44:12.047444 20842 net.cpp:165] Memory required for data: 820737500
I0818 13:44:12.047492 20842 layer_factory.hpp:77] Creating layer L1_b9_cbr2_scale
I0818 13:44:12.047515 20842 net.cpp:100] Creating Layer L1_b9_cbr2_scale
I0818 13:44:12.047528 20842 net.cpp:434] L1_b9_cbr2_scale <- L1_b9_cbr2_bn_top
I0818 13:44:12.047544 20842 net.cpp:395] L1_b9_cbr2_scale -> L1_b9_cbr2_bn_top (in-place)
I0818 13:44:12.047634 20842 layer_factory.hpp:77] Creating layer L1_b9_cbr2_scale
I0818 13:44:12.047817 20842 net.cpp:150] Setting up L1_b9_cbr2_scale
I0818 13:44:12.047837 20842 net.cpp:157] Top shape: 125 16 32 32 (2048000)
I0818 13:44:12.047845 20842 net.cpp:165] Memory required for data: 828929500
I0818 13:44:12.047863 20842 layer_factory.hpp:77] Creating layer L1_b9_sum_eltwise
I0818 13:44:12.047880 20842 net.cpp:100] Creating Layer L1_b9_sum_eltwise
I0818 13:44:12.047891 20842 net.cpp:434] L1_b9_sum_eltwise <- L1_b9_cbr2_bn_top
I0818 13:44:12.047904 20842 net.cpp:434] L1_b9_sum_eltwise <- L1_b8_sum_eltwise_top_L1_b8_relu_0_split_1
I0818 13:44:12.047925 20842 net.cpp:408] L1_b9_sum_eltwise -> L1_b9_sum_eltwise_top
I0818 13:44:12.047984 20842 net.cpp:150] Setting up L1_b9_sum_eltwise
I0818 13:44:12.048002 20842 net.cpp:157] Top shape: 125 16 32 32 (2048000)
I0818 13:44:12.048012 20842 net.cpp:165] Memory required for data: 837121500
I0818 13:44:12.048022 20842 layer_factory.hpp:77] Creating layer L1_b9_relu
I0818 13:44:12.048036 20842 net.cpp:100] Creating Layer L1_b9_relu
I0818 13:44:12.048048 20842 net.cpp:434] L1_b9_relu <- L1_b9_sum_eltwise_top
I0818 13:44:12.048061 20842 net.cpp:395] L1_b9_relu -> L1_b9_sum_eltwise_top (in-place)
I0818 13:44:12.048084 20842 net.cpp:150] Setting up L1_b9_relu
I0818 13:44:12.048100 20842 net.cpp:157] Top shape: 125 16 32 32 (2048000)
I0818 13:44:12.048110 20842 net.cpp:165] Memory required for data: 845313500
I0818 13:44:12.048120 20842 layer_factory.hpp:77] Creating layer L1_b9_sum_eltwise_top_L1_b9_relu_0_split
I0818 13:44:12.048133 20842 net.cpp:100] Creating Layer L1_b9_sum_eltwise_top_L1_b9_relu_0_split
I0818 13:44:12.048144 20842 net.cpp:434] L1_b9_sum_eltwise_top_L1_b9_relu_0_split <- L1_b9_sum_eltwise_top
I0818 13:44:12.048166 20842 net.cpp:408] L1_b9_sum_eltwise_top_L1_b9_relu_0_split -> L1_b9_sum_eltwise_top_L1_b9_relu_0_split_0
I0818 13:44:12.048187 20842 net.cpp:408] L1_b9_sum_eltwise_top_L1_b9_relu_0_split -> L1_b9_sum_eltwise_top_L1_b9_relu_0_split_1
I0818 13:44:12.048267 20842 net.cpp:150] Setting up L1_b9_sum_eltwise_top_L1_b9_relu_0_split
I0818 13:44:12.048287 20842 net.cpp:157] Top shape: 125 16 32 32 (2048000)
I0818 13:44:12.048301 20842 net.cpp:157] Top shape: 125 16 32 32 (2048000)
I0818 13:44:12.048310 20842 net.cpp:165] Memory required for data: 861697500
I0818 13:44:12.048321 20842 layer_factory.hpp:77] Creating layer L2_b1_cbr1_conv
I0818 13:44:12.048341 20842 net.cpp:100] Creating Layer L2_b1_cbr1_conv
I0818 13:44:12.048354 20842 net.cpp:434] L2_b1_cbr1_conv <- L1_b9_sum_eltwise_top_L1_b9_relu_0_split_0
I0818 13:44:12.048377 20842 net.cpp:408] L2_b1_cbr1_conv -> L2_b1_cbr1_conv_top
I0818 13:44:12.048753 20842 net.cpp:150] Setting up L2_b1_cbr1_conv
I0818 13:44:12.048774 20842 net.cpp:157] Top shape: 125 16 16 16 (512000)
I0818 13:44:12.048782 20842 net.cpp:165] Memory required for data: 863745500
I0818 13:44:12.048800 20842 layer_factory.hpp:77] Creating layer L2_b1_cbr1_bn
I0818 13:44:12.048817 20842 net.cpp:100] Creating Layer L2_b1_cbr1_bn
I0818 13:44:12.048830 20842 net.cpp:434] L2_b1_cbr1_bn <- L2_b1_cbr1_conv_top
I0818 13:44:12.048851 20842 net.cpp:408] L2_b1_cbr1_bn -> L2_b1_cbr1_bn_top
I0818 13:44:12.049126 20842 net.cpp:150] Setting up L2_b1_cbr1_bn
I0818 13:44:12.049145 20842 net.cpp:157] Top shape: 125 16 16 16 (512000)
I0818 13:44:12.049155 20842 net.cpp:165] Memory required for data: 865793500
I0818 13:44:12.049176 20842 layer_factory.hpp:77] Creating layer L2_b1_cbr1_scale
I0818 13:44:12.049201 20842 net.cpp:100] Creating Layer L2_b1_cbr1_scale
I0818 13:44:12.049221 20842 net.cpp:434] L2_b1_cbr1_scale <- L2_b1_cbr1_bn_top
I0818 13:44:12.049239 20842 net.cpp:395] L2_b1_cbr1_scale -> L2_b1_cbr1_bn_top (in-place)
I0818 13:44:12.049329 20842 layer_factory.hpp:77] Creating layer L2_b1_cbr1_scale
I0818 13:44:12.049507 20842 net.cpp:150] Setting up L2_b1_cbr1_scale
I0818 13:44:12.049526 20842 net.cpp:157] Top shape: 125 16 16 16 (512000)
I0818 13:44:12.049536 20842 net.cpp:165] Memory required for data: 867841500
I0818 13:44:12.049556 20842 layer_factory.hpp:77] Creating layer L2_b1_cbr1_relu
I0818 13:44:12.049576 20842 net.cpp:100] Creating Layer L2_b1_cbr1_relu
I0818 13:44:12.049587 20842 net.cpp:434] L2_b1_cbr1_relu <- L2_b1_cbr1_bn_top
I0818 13:44:12.049602 20842 net.cpp:395] L2_b1_cbr1_relu -> L2_b1_cbr1_bn_top (in-place)
I0818 13:44:12.049623 20842 net.cpp:150] Setting up L2_b1_cbr1_relu
I0818 13:44:12.049636 20842 net.cpp:157] Top shape: 125 16 16 16 (512000)
I0818 13:44:12.049645 20842 net.cpp:165] Memory required for data: 869889500
I0818 13:44:12.049655 20842 layer_factory.hpp:77] Creating layer L2_b1_cbr2_conv
I0818 13:44:12.049687 20842 net.cpp:100] Creating Layer L2_b1_cbr2_conv
I0818 13:44:12.049701 20842 net.cpp:434] L2_b1_cbr2_conv <- L2_b1_cbr1_bn_top
I0818 13:44:12.049721 20842 net.cpp:408] L2_b1_cbr2_conv -> L2_b1_cbr2_conv_top
I0818 13:44:12.050078 20842 net.cpp:150] Setting up L2_b1_cbr2_conv
I0818 13:44:12.050097 20842 net.cpp:157] Top shape: 125 16 16 16 (512000)
I0818 13:44:12.050107 20842 net.cpp:165] Memory required for data: 871937500
I0818 13:44:12.050124 20842 layer_factory.hpp:77] Creating layer L2_b1_cbr2_bn
I0818 13:44:12.050140 20842 net.cpp:100] Creating Layer L2_b1_cbr2_bn
I0818 13:44:12.050153 20842 net.cpp:434] L2_b1_cbr2_bn <- L2_b1_cbr2_conv_top
I0818 13:44:12.050169 20842 net.cpp:408] L2_b1_cbr2_bn -> L2_b1_cbr2_bn_top
I0818 13:44:12.050454 20842 net.cpp:150] Setting up L2_b1_cbr2_bn
I0818 13:44:12.050474 20842 net.cpp:157] Top shape: 125 16 16 16 (512000)
I0818 13:44:12.050484 20842 net.cpp:165] Memory required for data: 873985500
I0818 13:44:12.050506 20842 layer_factory.hpp:77] Creating layer L2_b1_cbr2_scale
I0818 13:44:12.050523 20842 net.cpp:100] Creating Layer L2_b1_cbr2_scale
I0818 13:44:12.050534 20842 net.cpp:434] L2_b1_cbr2_scale <- L2_b1_cbr2_bn_top
I0818 13:44:12.050554 20842 net.cpp:395] L2_b1_cbr2_scale -> L2_b1_cbr2_bn_top (in-place)
I0818 13:44:12.050642 20842 layer_factory.hpp:77] Creating layer L2_b1_cbr2_scale
I0818 13:44:12.050827 20842 net.cpp:150] Setting up L2_b1_cbr2_scale
I0818 13:44:12.050845 20842 net.cpp:157] Top shape: 125 16 16 16 (512000)
I0818 13:44:12.050855 20842 net.cpp:165] Memory required for data: 876033500
I0818 13:44:12.050873 20842 layer_factory.hpp:77] Creating layer L2_b1_pool
I0818 13:44:12.050892 20842 net.cpp:100] Creating Layer L2_b1_pool
I0818 13:44:12.050904 20842 net.cpp:434] L2_b1_pool <- L1_b9_sum_eltwise_top_L1_b9_relu_0_split_1
I0818 13:44:12.050925 20842 net.cpp:408] L2_b1_pool -> L2_b1_pool
I0818 13:44:12.051028 20842 net.cpp:150] Setting up L2_b1_pool
I0818 13:44:12.051056 20842 net.cpp:157] Top shape: 125 16 16 16 (512000)
I0818 13:44:12.051067 20842 net.cpp:165] Memory required for data: 878081500
I0818 13:44:12.051079 20842 layer_factory.hpp:77] Creating layer L2_b1_sum_eltwise
I0818 13:44:12.051095 20842 net.cpp:100] Creating Layer L2_b1_sum_eltwise
I0818 13:44:12.051106 20842 net.cpp:434] L2_b1_sum_eltwise <- L2_b1_cbr2_bn_top
I0818 13:44:12.051120 20842 net.cpp:434] L2_b1_sum_eltwise <- L2_b1_pool
I0818 13:44:12.051144 20842 net.cpp:408] L2_b1_sum_eltwise -> L2_b1_sum_eltwise_top
I0818 13:44:12.051201 20842 net.cpp:150] Setting up L2_b1_sum_eltwise
I0818 13:44:12.051219 20842 net.cpp:157] Top shape: 125 16 16 16 (512000)
I0818 13:44:12.051229 20842 net.cpp:165] Memory required for data: 880129500
I0818 13:44:12.051239 20842 layer_factory.hpp:77] Creating layer L2_b1_relu
I0818 13:44:12.051254 20842 net.cpp:100] Creating Layer L2_b1_relu
I0818 13:44:12.051265 20842 net.cpp:434] L2_b1_relu <- L2_b1_sum_eltwise_top
I0818 13:44:12.051280 20842 net.cpp:395] L2_b1_relu -> L2_b1_sum_eltwise_top (in-place)
I0818 13:44:12.051308 20842 net.cpp:150] Setting up L2_b1_relu
I0818 13:44:12.051323 20842 net.cpp:157] Top shape: 125 16 16 16 (512000)
I0818 13:44:12.051332 20842 net.cpp:165] Memory required for data: 882177500
I0818 13:44:12.051343 20842 layer_factory.hpp:77] Creating layer L2_b1_zeros
I0818 13:44:12.051419 20842 net.cpp:100] Creating Layer L2_b1_zeros
I0818 13:44:12.051440 20842 net.cpp:408] L2_b1_zeros -> L2_b1_zeros
I0818 13:44:12.053843 20842 net.cpp:150] Setting up L2_b1_zeros
I0818 13:44:12.053870 20842 net.cpp:157] Top shape: 125 16 16 16 (512000)
I0818 13:44:12.053881 20842 net.cpp:165] Memory required for data: 884225500
I0818 13:44:12.053892 20842 layer_factory.hpp:77] Creating layer L2_b1_concat0
I0818 13:44:12.053910 20842 net.cpp:100] Creating Layer L2_b1_concat0
I0818 13:44:12.053922 20842 net.cpp:434] L2_b1_concat0 <- L2_b1_sum_eltwise_top
I0818 13:44:12.053936 20842 net.cpp:434] L2_b1_concat0 <- L2_b1_zeros
I0818 13:44:12.053952 20842 net.cpp:408] L2_b1_concat0 -> L2_b1_concat0
I0818 13:44:12.054057 20842 net.cpp:150] Setting up L2_b1_concat0
I0818 13:44:12.054077 20842 net.cpp:157] Top shape: 125 32 16 16 (1024000)
I0818 13:44:12.054087 20842 net.cpp:165] Memory required for data: 888321500
I0818 13:44:12.054098 20842 layer_factory.hpp:77] Creating layer L2_b1_concat0_L2_b1_concat0_0_split
I0818 13:44:12.054117 20842 net.cpp:100] Creating Layer L2_b1_concat0_L2_b1_concat0_0_split
I0818 13:44:12.054129 20842 net.cpp:434] L2_b1_concat0_L2_b1_concat0_0_split <- L2_b1_concat0
I0818 13:44:12.054144 20842 net.cpp:408] L2_b1_concat0_L2_b1_concat0_0_split -> L2_b1_concat0_L2_b1_concat0_0_split_0
I0818 13:44:12.054164 20842 net.cpp:408] L2_b1_concat0_L2_b1_concat0_0_split -> L2_b1_concat0_L2_b1_concat0_0_split_1
I0818 13:44:12.054250 20842 net.cpp:150] Setting up L2_b1_concat0_L2_b1_concat0_0_split
I0818 13:44:12.054272 20842 net.cpp:157] Top shape: 125 32 16 16 (1024000)
I0818 13:44:12.054286 20842 net.cpp:157] Top shape: 125 32 16 16 (1024000)
I0818 13:44:12.054296 20842 net.cpp:165] Memory required for data: 896513500
I0818 13:44:12.054306 20842 layer_factory.hpp:77] Creating layer L2_b2_cbr1_conv
I0818 13:44:12.054332 20842 net.cpp:100] Creating Layer L2_b2_cbr1_conv
I0818 13:44:12.054347 20842 net.cpp:434] L2_b2_cbr1_conv <- L2_b1_concat0_L2_b1_concat0_0_split_0
I0818 13:44:12.054364 20842 net.cpp:408] L2_b2_cbr1_conv -> L2_b2_cbr1_conv_top
I0818 13:44:12.055898 20842 net.cpp:150] Setting up L2_b2_cbr1_conv
I0818 13:44:12.055922 20842 net.cpp:157] Top shape: 125 32 16 16 (1024000)
I0818 13:44:12.055932 20842 net.cpp:165] Memory required for data: 900609500
I0818 13:44:12.055950 20842 layer_factory.hpp:77] Creating layer L2_b2_cbr1_bn
I0818 13:44:12.055968 20842 net.cpp:100] Creating Layer L2_b2_cbr1_bn
I0818 13:44:12.055980 20842 net.cpp:434] L2_b2_cbr1_bn <- L2_b2_cbr1_conv_top
I0818 13:44:12.056001 20842 net.cpp:408] L2_b2_cbr1_bn -> L2_b2_cbr1_bn_top
I0818 13:44:12.056285 20842 net.cpp:150] Setting up L2_b2_cbr1_bn
I0818 13:44:12.056305 20842 net.cpp:157] Top shape: 125 32 16 16 (1024000)
I0818 13:44:12.056314 20842 net.cpp:165] Memory required for data: 904705500
I0818 13:44:12.056337 20842 layer_factory.hpp:77] Creating layer L2_b2_cbr1_scale
I0818 13:44:12.056360 20842 net.cpp:100] Creating Layer L2_b2_cbr1_scale
I0818 13:44:12.056372 20842 net.cpp:434] L2_b2_cbr1_scale <- L2_b2_cbr1_bn_top
I0818 13:44:12.056390 20842 net.cpp:395] L2_b2_cbr1_scale -> L2_b2_cbr1_bn_top (in-place)
I0818 13:44:12.056483 20842 layer_factory.hpp:77] Creating layer L2_b2_cbr1_scale
I0818 13:44:12.056670 20842 net.cpp:150] Setting up L2_b2_cbr1_scale
I0818 13:44:12.056695 20842 net.cpp:157] Top shape: 125 32 16 16 (1024000)
I0818 13:44:12.056705 20842 net.cpp:165] Memory required for data: 908801500
I0818 13:44:12.056723 20842 layer_factory.hpp:77] Creating layer L2_b2_cbr1_relu
I0818 13:44:12.056747 20842 net.cpp:100] Creating Layer L2_b2_cbr1_relu
I0818 13:44:12.056759 20842 net.cpp:434] L2_b2_cbr1_relu <- L2_b2_cbr1_bn_top
I0818 13:44:12.056776 20842 net.cpp:395] L2_b2_cbr1_relu -> L2_b2_cbr1_bn_top (in-place)
I0818 13:44:12.056805 20842 net.cpp:150] Setting up L2_b2_cbr1_relu
I0818 13:44:12.056821 20842 net.cpp:157] Top shape: 125 32 16 16 (1024000)
I0818 13:44:12.056831 20842 net.cpp:165] Memory required for data: 912897500
I0818 13:44:12.056843 20842 layer_factory.hpp:77] Creating layer L2_b2_cbr2_conv
I0818 13:44:12.056867 20842 net.cpp:100] Creating Layer L2_b2_cbr2_conv
I0818 13:44:12.056881 20842 net.cpp:434] L2_b2_cbr2_conv <- L2_b2_cbr1_bn_top
I0818 13:44:12.056905 20842 net.cpp:408] L2_b2_cbr2_conv -> L2_b2_cbr2_conv_top
I0818 13:44:12.057406 20842 net.cpp:150] Setting up L2_b2_cbr2_conv
I0818 13:44:12.057425 20842 net.cpp:157] Top shape: 125 32 16 16 (1024000)
I0818 13:44:12.057435 20842 net.cpp:165] Memory required for data: 916993500
I0818 13:44:12.057452 20842 layer_factory.hpp:77] Creating layer L2_b2_cbr2_bn
I0818 13:44:12.057471 20842 net.cpp:100] Creating Layer L2_b2_cbr2_bn
I0818 13:44:12.057482 20842 net.cpp:434] L2_b2_cbr2_bn <- L2_b2_cbr2_conv_top
I0818 13:44:12.057503 20842 net.cpp:408] L2_b2_cbr2_bn -> L2_b2_cbr2_bn_top
I0818 13:44:12.057796 20842 net.cpp:150] Setting up L2_b2_cbr2_bn
I0818 13:44:12.057816 20842 net.cpp:157] Top shape: 125 32 16 16 (1024000)
I0818 13:44:12.057824 20842 net.cpp:165] Memory required for data: 921089500
I0818 13:44:12.057845 20842 layer_factory.hpp:77] Creating layer L2_b2_cbr2_scale
I0818 13:44:12.057868 20842 net.cpp:100] Creating Layer L2_b2_cbr2_scale
I0818 13:44:12.057880 20842 net.cpp:434] L2_b2_cbr2_scale <- L2_b2_cbr2_bn_top
I0818 13:44:12.057896 20842 net.cpp:395] L2_b2_cbr2_scale -> L2_b2_cbr2_bn_top (in-place)
I0818 13:44:12.057982 20842 layer_factory.hpp:77] Creating layer L2_b2_cbr2_scale
I0818 13:44:12.058163 20842 net.cpp:150] Setting up L2_b2_cbr2_scale
I0818 13:44:12.058182 20842 net.cpp:157] Top shape: 125 32 16 16 (1024000)
I0818 13:44:12.058192 20842 net.cpp:165] Memory required for data: 925185500
I0818 13:44:12.058209 20842 layer_factory.hpp:77] Creating layer L2_b2_sum_eltwise
I0818 13:44:12.058233 20842 net.cpp:100] Creating Layer L2_b2_sum_eltwise
I0818 13:44:12.058245 20842 net.cpp:434] L2_b2_sum_eltwise <- L2_b2_cbr2_bn_top
I0818 13:44:12.058259 20842 net.cpp:434] L2_b2_sum_eltwise <- L2_b1_concat0_L2_b1_concat0_0_split_1
I0818 13:44:12.058274 20842 net.cpp:408] L2_b2_sum_eltwise -> L2_b2_sum_eltwise_top
I0818 13:44:12.058320 20842 net.cpp:150] Setting up L2_b2_sum_eltwise
I0818 13:44:12.058348 20842 net.cpp:157] Top shape: 125 32 16 16 (1024000)
I0818 13:44:12.058358 20842 net.cpp:165] Memory required for data: 929281500
I0818 13:44:12.058369 20842 layer_factory.hpp:77] Creating layer L2_b2_relu
I0818 13:44:12.058383 20842 net.cpp:100] Creating Layer L2_b2_relu
I0818 13:44:12.058395 20842 net.cpp:434] L2_b2_relu <- L2_b2_sum_eltwise_top
I0818 13:44:12.058409 20842 net.cpp:395] L2_b2_relu -> L2_b2_sum_eltwise_top (in-place)
I0818 13:44:12.058429 20842 net.cpp:150] Setting up L2_b2_relu
I0818 13:44:12.058444 20842 net.cpp:157] Top shape: 125 32 16 16 (1024000)
I0818 13:44:12.058451 20842 net.cpp:165] Memory required for data: 933377500
I0818 13:44:12.058462 20842 layer_factory.hpp:77] Creating layer L2_b2_sum_eltwise_top_L2_b2_relu_0_split
I0818 13:44:12.058481 20842 net.cpp:100] Creating Layer L2_b2_sum_eltwise_top_L2_b2_relu_0_split
I0818 13:44:12.058493 20842 net.cpp:434] L2_b2_sum_eltwise_top_L2_b2_relu_0_split <- L2_b2_sum_eltwise_top
I0818 13:44:12.058508 20842 net.cpp:408] L2_b2_sum_eltwise_top_L2_b2_relu_0_split -> L2_b2_sum_eltwise_top_L2_b2_relu_0_split_0
I0818 13:44:12.058528 20842 net.cpp:408] L2_b2_sum_eltwise_top_L2_b2_relu_0_split -> L2_b2_sum_eltwise_top_L2_b2_relu_0_split_1
I0818 13:44:12.058614 20842 net.cpp:150] Setting up L2_b2_sum_eltwise_top_L2_b2_relu_0_split
I0818 13:44:12.058635 20842 net.cpp:157] Top shape: 125 32 16 16 (1024000)
I0818 13:44:12.058650 20842 net.cpp:157] Top shape: 125 32 16 16 (1024000)
I0818 13:44:12.058660 20842 net.cpp:165] Memory required for data: 941569500
I0818 13:44:12.058670 20842 layer_factory.hpp:77] Creating layer L2_b3_cbr1_conv
I0818 13:44:12.058704 20842 net.cpp:100] Creating Layer L2_b3_cbr1_conv
I0818 13:44:12.058718 20842 net.cpp:434] L2_b3_cbr1_conv <- L2_b2_sum_eltwise_top_L2_b2_relu_0_split_0
I0818 13:44:12.058743 20842 net.cpp:408] L2_b3_cbr1_conv -> L2_b3_cbr1_conv_top
I0818 13:44:12.059239 20842 net.cpp:150] Setting up L2_b3_cbr1_conv
I0818 13:44:12.059259 20842 net.cpp:157] Top shape: 125 32 16 16 (1024000)
I0818 13:44:12.059268 20842 net.cpp:165] Memory required for data: 945665500
I0818 13:44:12.059286 20842 layer_factory.hpp:77] Creating layer L2_b3_cbr1_bn
I0818 13:44:12.059304 20842 net.cpp:100] Creating Layer L2_b3_cbr1_bn
I0818 13:44:12.059315 20842 net.cpp:434] L2_b3_cbr1_bn <- L2_b3_cbr1_conv_top
I0818 13:44:12.059336 20842 net.cpp:408] L2_b3_cbr1_bn -> L2_b3_cbr1_bn_top
I0818 13:44:12.059626 20842 net.cpp:150] Setting up L2_b3_cbr1_bn
I0818 13:44:12.059645 20842 net.cpp:157] Top shape: 125 32 16 16 (1024000)
I0818 13:44:12.059655 20842 net.cpp:165] Memory required for data: 949761500
I0818 13:44:12.059684 20842 layer_factory.hpp:77] Creating layer L2_b3_cbr1_scale
I0818 13:44:12.059706 20842 net.cpp:100] Creating Layer L2_b3_cbr1_scale
I0818 13:44:12.059720 20842 net.cpp:434] L2_b3_cbr1_scale <- L2_b3_cbr1_bn_top
I0818 13:44:12.059736 20842 net.cpp:395] L2_b3_cbr1_scale -> L2_b3_cbr1_bn_top (in-place)
I0818 13:44:12.059829 20842 layer_factory.hpp:77] Creating layer L2_b3_cbr1_scale
I0818 13:44:12.060010 20842 net.cpp:150] Setting up L2_b3_cbr1_scale
I0818 13:44:12.060029 20842 net.cpp:157] Top shape: 125 32 16 16 (1024000)
I0818 13:44:12.060039 20842 net.cpp:165] Memory required for data: 953857500
I0818 13:44:12.060057 20842 layer_factory.hpp:77] Creating layer L2_b3_cbr1_relu
I0818 13:44:12.060077 20842 net.cpp:100] Creating Layer L2_b3_cbr1_relu
I0818 13:44:12.060091 20842 net.cpp:434] L2_b3_cbr1_relu <- L2_b3_cbr1_bn_top
I0818 13:44:12.060106 20842 net.cpp:395] L2_b3_cbr1_relu -> L2_b3_cbr1_bn_top (in-place)
I0818 13:44:12.060124 20842 net.cpp:150] Setting up L2_b3_cbr1_relu
I0818 13:44:12.060138 20842 net.cpp:157] Top shape: 125 32 16 16 (1024000)
I0818 13:44:12.060148 20842 net.cpp:165] Memory required for data: 957953500
I0818 13:44:12.060158 20842 layer_factory.hpp:77] Creating layer L2_b3_cbr2_conv
I0818 13:44:12.060183 20842 net.cpp:100] Creating Layer L2_b3_cbr2_conv
I0818 13:44:12.060195 20842 net.cpp:434] L2_b3_cbr2_conv <- L2_b3_cbr1_bn_top
I0818 13:44:12.060217 20842 net.cpp:408] L2_b3_cbr2_conv -> L2_b3_cbr2_conv_top
I0818 13:44:12.060724 20842 net.cpp:150] Setting up L2_b3_cbr2_conv
I0818 13:44:12.060745 20842 net.cpp:157] Top shape: 125 32 16 16 (1024000)
I0818 13:44:12.060753 20842 net.cpp:165] Memory required for data: 962049500
I0818 13:44:12.060771 20842 layer_factory.hpp:77] Creating layer L2_b3_cbr2_bn
I0818 13:44:12.060788 20842 net.cpp:100] Creating Layer L2_b3_cbr2_bn
I0818 13:44:12.060801 20842 net.cpp:434] L2_b3_cbr2_bn <- L2_b3_cbr2_conv_top
I0818 13:44:12.060817 20842 net.cpp:408] L2_b3_cbr2_bn -> L2_b3_cbr2_bn_top
I0818 13:44:12.061105 20842 net.cpp:150] Setting up L2_b3_cbr2_bn
I0818 13:44:12.061123 20842 net.cpp:157] Top shape: 125 32 16 16 (1024000)
I0818 13:44:12.061132 20842 net.cpp:165] Memory required for data: 966145500
I0818 13:44:12.061154 20842 layer_factory.hpp:77] Creating layer L2_b3_cbr2_scale
I0818 13:44:12.061170 20842 net.cpp:100] Creating Layer L2_b3_cbr2_scale
I0818 13:44:12.061182 20842 net.cpp:434] L2_b3_cbr2_scale <- L2_b3_cbr2_bn_top
I0818 13:44:12.061203 20842 net.cpp:395] L2_b3_cbr2_scale -> L2_b3_cbr2_bn_top (in-place)
I0818 13:44:12.061288 20842 layer_factory.hpp:77] Creating layer L2_b3_cbr2_scale
I0818 13:44:12.061472 20842 net.cpp:150] Setting up L2_b3_cbr2_scale
I0818 13:44:12.061491 20842 net.cpp:157] Top shape: 125 32 16 16 (1024000)
I0818 13:44:12.061501 20842 net.cpp:165] Memory required for data: 970241500
I0818 13:44:12.061520 20842 layer_factory.hpp:77] Creating layer L2_b3_sum_eltwise
I0818 13:44:12.061537 20842 net.cpp:100] Creating Layer L2_b3_sum_eltwise
I0818 13:44:12.061549 20842 net.cpp:434] L2_b3_sum_eltwise <- L2_b3_cbr2_bn_top
I0818 13:44:12.061563 20842 net.cpp:434] L2_b3_sum_eltwise <- L2_b2_sum_eltwise_top_L2_b2_relu_0_split_1
I0818 13:44:12.061590 20842 net.cpp:408] L2_b3_sum_eltwise -> L2_b3_sum_eltwise_top
I0818 13:44:12.061640 20842 net.cpp:150] Setting up L2_b3_sum_eltwise
I0818 13:44:12.061663 20842 net.cpp:157] Top shape: 125 32 16 16 (1024000)
I0818 13:44:12.061681 20842 net.cpp:165] Memory required for data: 974337500
I0818 13:44:12.061693 20842 layer_factory.hpp:77] Creating layer L2_b3_relu
I0818 13:44:12.061725 20842 net.cpp:100] Creating Layer L2_b3_relu
I0818 13:44:12.061739 20842 net.cpp:434] L2_b3_relu <- L2_b3_sum_eltwise_top
I0818 13:44:12.061754 20842 net.cpp:395] L2_b3_relu -> L2_b3_sum_eltwise_top (in-place)
I0818 13:44:12.061774 20842 net.cpp:150] Setting up L2_b3_relu
I0818 13:44:12.061789 20842 net.cpp:157] Top shape: 125 32 16 16 (1024000)
I0818 13:44:12.061797 20842 net.cpp:165] Memory required for data: 978433500
I0818 13:44:12.061810 20842 layer_factory.hpp:77] Creating layer L2_b3_sum_eltwise_top_L2_b3_relu_0_split
I0818 13:44:12.061825 20842 net.cpp:100] Creating Layer L2_b3_sum_eltwise_top_L2_b3_relu_0_split
I0818 13:44:12.061836 20842 net.cpp:434] L2_b3_sum_eltwise_top_L2_b3_relu_0_split <- L2_b3_sum_eltwise_top
I0818 13:44:12.061854 20842 net.cpp:408] L2_b3_sum_eltwise_top_L2_b3_relu_0_split -> L2_b3_sum_eltwise_top_L2_b3_relu_0_split_0
I0818 13:44:12.061873 20842 net.cpp:408] L2_b3_sum_eltwise_top_L2_b3_relu_0_split -> L2_b3_sum_eltwise_top_L2_b3_relu_0_split_1
I0818 13:44:12.061954 20842 net.cpp:150] Setting up L2_b3_sum_eltwise_top_L2_b3_relu_0_split
I0818 13:44:12.061972 20842 net.cpp:157] Top shape: 125 32 16 16 (1024000)
I0818 13:44:12.061986 20842 net.cpp:157] Top shape: 125 32 16 16 (1024000)
I0818 13:44:12.061995 20842 net.cpp:165] Memory required for data: 986625500
I0818 13:44:12.062006 20842 layer_factory.hpp:77] Creating layer L2_b4_cbr1_conv
I0818 13:44:12.062031 20842 net.cpp:100] Creating Layer L2_b4_cbr1_conv
I0818 13:44:12.062048 20842 net.cpp:434] L2_b4_cbr1_conv <- L2_b3_sum_eltwise_top_L2_b3_relu_0_split_0
I0818 13:44:12.062068 20842 net.cpp:408] L2_b4_cbr1_conv -> L2_b4_cbr1_conv_top
I0818 13:44:12.062572 20842 net.cpp:150] Setting up L2_b4_cbr1_conv
I0818 13:44:12.062592 20842 net.cpp:157] Top shape: 125 32 16 16 (1024000)
I0818 13:44:12.062600 20842 net.cpp:165] Memory required for data: 990721500
I0818 13:44:12.062618 20842 layer_factory.hpp:77] Creating layer L2_b4_cbr1_bn
I0818 13:44:12.062639 20842 net.cpp:100] Creating Layer L2_b4_cbr1_bn
I0818 13:44:12.062652 20842 net.cpp:434] L2_b4_cbr1_bn <- L2_b4_cbr1_conv_top
I0818 13:44:12.062669 20842 net.cpp:408] L2_b4_cbr1_bn -> L2_b4_cbr1_bn_top
I0818 13:44:12.062973 20842 net.cpp:150] Setting up L2_b4_cbr1_bn
I0818 13:44:12.062990 20842 net.cpp:157] Top shape: 125 32 16 16 (1024000)
I0818 13:44:12.063000 20842 net.cpp:165] Memory required for data: 994817500
I0818 13:44:12.063022 20842 layer_factory.hpp:77] Creating layer L2_b4_cbr1_scale
I0818 13:44:12.063038 20842 net.cpp:100] Creating Layer L2_b4_cbr1_scale
I0818 13:44:12.063050 20842 net.cpp:434] L2_b4_cbr1_scale <- L2_b4_cbr1_bn_top
I0818 13:44:12.063071 20842 net.cpp:395] L2_b4_cbr1_scale -> L2_b4_cbr1_bn_top (in-place)
I0818 13:44:12.063159 20842 layer_factory.hpp:77] Creating layer L2_b4_cbr1_scale
I0818 13:44:12.063343 20842 net.cpp:150] Setting up L2_b4_cbr1_scale
I0818 13:44:12.063360 20842 net.cpp:157] Top shape: 125 32 16 16 (1024000)
I0818 13:44:12.063370 20842 net.cpp:165] Memory required for data: 998913500
I0818 13:44:12.063388 20842 layer_factory.hpp:77] Creating layer L2_b4_cbr1_relu
I0818 13:44:12.063405 20842 net.cpp:100] Creating Layer L2_b4_cbr1_relu
I0818 13:44:12.063416 20842 net.cpp:434] L2_b4_cbr1_relu <- L2_b4_cbr1_bn_top
I0818 13:44:12.063429 20842 net.cpp:395] L2_b4_cbr1_relu -> L2_b4_cbr1_bn_top (in-place)
I0818 13:44:12.063449 20842 net.cpp:150] Setting up L2_b4_cbr1_relu
I0818 13:44:12.063463 20842 net.cpp:157] Top shape: 125 32 16 16 (1024000)
I0818 13:44:12.063473 20842 net.cpp:165] Memory required for data: 1003009500
I0818 13:44:12.063483 20842 layer_factory.hpp:77] Creating layer L2_b4_cbr2_conv
I0818 13:44:12.063518 20842 net.cpp:100] Creating Layer L2_b4_cbr2_conv
I0818 13:44:12.063531 20842 net.cpp:434] L2_b4_cbr2_conv <- L2_b4_cbr1_bn_top
I0818 13:44:12.063554 20842 net.cpp:408] L2_b4_cbr2_conv -> L2_b4_cbr2_conv_top
I0818 13:44:12.064060 20842 net.cpp:150] Setting up L2_b4_cbr2_conv
I0818 13:44:12.064081 20842 net.cpp:157] Top shape: 125 32 16 16 (1024000)
I0818 13:44:12.064090 20842 net.cpp:165] Memory required for data: 1007105500
I0818 13:44:12.064108 20842 layer_factory.hpp:77] Creating layer L2_b4_cbr2_bn
I0818 13:44:12.064133 20842 net.cpp:100] Creating Layer L2_b4_cbr2_bn
I0818 13:44:12.064146 20842 net.cpp:434] L2_b4_cbr2_bn <- L2_b4_cbr2_conv_top
I0818 13:44:12.064168 20842 net.cpp:408] L2_b4_cbr2_bn -> L2_b4_cbr2_bn_top
I0818 13:44:12.064460 20842 net.cpp:150] Setting up L2_b4_cbr2_bn
I0818 13:44:12.064478 20842 net.cpp:157] Top shape: 125 32 16 16 (1024000)
I0818 13:44:12.064488 20842 net.cpp:165] Memory required for data: 1011201500
I0818 13:44:12.064509 20842 layer_factory.hpp:77] Creating layer L2_b4_cbr2_scale
I0818 13:44:12.064527 20842 net.cpp:100] Creating Layer L2_b4_cbr2_scale
I0818 13:44:12.064538 20842 net.cpp:434] L2_b4_cbr2_scale <- L2_b4_cbr2_bn_top
I0818 13:44:12.064553 20842 net.cpp:395] L2_b4_cbr2_scale -> L2_b4_cbr2_bn_top (in-place)
I0818 13:44:12.064644 20842 layer_factory.hpp:77] Creating layer L2_b4_cbr2_scale
I0818 13:44:12.064831 20842 net.cpp:150] Setting up L2_b4_cbr2_scale
I0818 13:44:12.064857 20842 net.cpp:157] Top shape: 125 32 16 16 (1024000)
I0818 13:44:12.064867 20842 net.cpp:165] Memory required for data: 1015297500
I0818 13:44:12.064887 20842 layer_factory.hpp:77] Creating layer L2_b4_sum_eltwise
I0818 13:44:12.064903 20842 net.cpp:100] Creating Layer L2_b4_sum_eltwise
I0818 13:44:12.064914 20842 net.cpp:434] L2_b4_sum_eltwise <- L2_b4_cbr2_bn_top
I0818 13:44:12.064929 20842 net.cpp:434] L2_b4_sum_eltwise <- L2_b3_sum_eltwise_top_L2_b3_relu_0_split_1
I0818 13:44:12.064944 20842 net.cpp:408] L2_b4_sum_eltwise -> L2_b4_sum_eltwise_top
I0818 13:44:12.064996 20842 net.cpp:150] Setting up L2_b4_sum_eltwise
I0818 13:44:12.065013 20842 net.cpp:157] Top shape: 125 32 16 16 (1024000)
I0818 13:44:12.065024 20842 net.cpp:165] Memory required for data: 1019393500
I0818 13:44:12.065034 20842 layer_factory.hpp:77] Creating layer L2_b4_relu
I0818 13:44:12.065049 20842 net.cpp:100] Creating Layer L2_b4_relu
I0818 13:44:12.065062 20842 net.cpp:434] L2_b4_relu <- L2_b4_sum_eltwise_top
I0818 13:44:12.065079 20842 net.cpp:395] L2_b4_relu -> L2_b4_sum_eltwise_top (in-place)
I0818 13:44:12.065100 20842 net.cpp:150] Setting up L2_b4_relu
I0818 13:44:12.065114 20842 net.cpp:157] Top shape: 125 32 16 16 (1024000)
I0818 13:44:12.065124 20842 net.cpp:165] Memory required for data: 1023489500
I0818 13:44:12.065135 20842 layer_factory.hpp:77] Creating layer L2_b4_sum_eltwise_top_L2_b4_relu_0_split
I0818 13:44:12.065150 20842 net.cpp:100] Creating Layer L2_b4_sum_eltwise_top_L2_b4_relu_0_split
I0818 13:44:12.065160 20842 net.cpp:434] L2_b4_sum_eltwise_top_L2_b4_relu_0_split <- L2_b4_sum_eltwise_top
I0818 13:44:12.065179 20842 net.cpp:408] L2_b4_sum_eltwise_top_L2_b4_relu_0_split -> L2_b4_sum_eltwise_top_L2_b4_relu_0_split_0
I0818 13:44:12.065199 20842 net.cpp:408] L2_b4_sum_eltwise_top_L2_b4_relu_0_split -> L2_b4_sum_eltwise_top_L2_b4_relu_0_split_1
I0818 13:44:12.065279 20842 net.cpp:150] Setting up L2_b4_sum_eltwise_top_L2_b4_relu_0_split
I0818 13:44:12.065297 20842 net.cpp:157] Top shape: 125 32 16 16 (1024000)
I0818 13:44:12.065311 20842 net.cpp:157] Top shape: 125 32 16 16 (1024000)
I0818 13:44:12.065320 20842 net.cpp:165] Memory required for data: 1031681500
I0818 13:44:12.065330 20842 layer_factory.hpp:77] Creating layer L2_b5_cbr1_conv
I0818 13:44:12.065359 20842 net.cpp:100] Creating Layer L2_b5_cbr1_conv
I0818 13:44:12.065373 20842 net.cpp:434] L2_b5_cbr1_conv <- L2_b4_sum_eltwise_top_L2_b4_relu_0_split_0
I0818 13:44:12.065392 20842 net.cpp:408] L2_b5_cbr1_conv -> L2_b5_cbr1_conv_top
I0818 13:44:12.065937 20842 net.cpp:150] Setting up L2_b5_cbr1_conv
I0818 13:44:12.065964 20842 net.cpp:157] Top shape: 125 32 16 16 (1024000)
I0818 13:44:12.065974 20842 net.cpp:165] Memory required for data: 1035777500
I0818 13:44:12.065992 20842 layer_factory.hpp:77] Creating layer L2_b5_cbr1_bn
I0818 13:44:12.066015 20842 net.cpp:100] Creating Layer L2_b5_cbr1_bn
I0818 13:44:12.066026 20842 net.cpp:434] L2_b5_cbr1_bn <- L2_b5_cbr1_conv_top
I0818 13:44:12.066043 20842 net.cpp:408] L2_b5_cbr1_bn -> L2_b5_cbr1_bn_top
I0818 13:44:12.066326 20842 net.cpp:150] Setting up L2_b5_cbr1_bn
I0818 13:44:12.066345 20842 net.cpp:157] Top shape: 125 32 16 16 (1024000)
I0818 13:44:12.066355 20842 net.cpp:165] Memory required for data: 1039873500
I0818 13:44:12.066377 20842 layer_factory.hpp:77] Creating layer L2_b5_cbr1_scale
I0818 13:44:12.066395 20842 net.cpp:100] Creating Layer L2_b5_cbr1_scale
I0818 13:44:12.066406 20842 net.cpp:434] L2_b5_cbr1_scale <- L2_b5_cbr1_bn_top
I0818 13:44:12.066421 20842 net.cpp:395] L2_b5_cbr1_scale -> L2_b5_cbr1_bn_top (in-place)
I0818 13:44:12.066515 20842 layer_factory.hpp:77] Creating layer L2_b5_cbr1_scale
I0818 13:44:12.066706 20842 net.cpp:150] Setting up L2_b5_cbr1_scale
I0818 13:44:12.066730 20842 net.cpp:157] Top shape: 125 32 16 16 (1024000)
I0818 13:44:12.066740 20842 net.cpp:165] Memory required for data: 1043969500
I0818 13:44:12.066758 20842 layer_factory.hpp:77] Creating layer L2_b5_cbr1_relu
I0818 13:44:12.066773 20842 net.cpp:100] Creating Layer L2_b5_cbr1_relu
I0818 13:44:12.066786 20842 net.cpp:434] L2_b5_cbr1_relu <- L2_b5_cbr1_bn_top
I0818 13:44:12.066799 20842 net.cpp:395] L2_b5_cbr1_relu -> L2_b5_cbr1_bn_top (in-place)
I0818 13:44:12.066818 20842 net.cpp:150] Setting up L2_b5_cbr1_relu
I0818 13:44:12.066833 20842 net.cpp:157] Top shape: 125 32 16 16 (1024000)
I0818 13:44:12.066843 20842 net.cpp:165] Memory required for data: 1048065500
I0818 13:44:12.066854 20842 layer_factory.hpp:77] Creating layer L2_b5_cbr2_conv
I0818 13:44:12.066879 20842 net.cpp:100] Creating Layer L2_b5_cbr2_conv
I0818 13:44:12.066891 20842 net.cpp:434] L2_b5_cbr2_conv <- L2_b5_cbr1_bn_top
I0818 13:44:12.066913 20842 net.cpp:408] L2_b5_cbr2_conv -> L2_b5_cbr2_conv_top
I0818 13:44:12.067420 20842 net.cpp:150] Setting up L2_b5_cbr2_conv
I0818 13:44:12.067440 20842 net.cpp:157] Top shape: 125 32 16 16 (1024000)
I0818 13:44:12.067450 20842 net.cpp:165] Memory required for data: 1052161500
I0818 13:44:12.067467 20842 layer_factory.hpp:77] Creating layer L2_b5_cbr2_bn
I0818 13:44:12.067489 20842 net.cpp:100] Creating Layer L2_b5_cbr2_bn
I0818 13:44:12.067502 20842 net.cpp:434] L2_b5_cbr2_bn <- L2_b5_cbr2_conv_top
I0818 13:44:12.067523 20842 net.cpp:408] L2_b5_cbr2_bn -> L2_b5_cbr2_bn_top
I0818 13:44:12.067826 20842 net.cpp:150] Setting up L2_b5_cbr2_bn
I0818 13:44:12.067845 20842 net.cpp:157] Top shape: 125 32 16 16 (1024000)
I0818 13:44:12.067855 20842 net.cpp:165] Memory required for data: 1056257500
I0818 13:44:12.067878 20842 layer_factory.hpp:77] Creating layer L2_b5_cbr2_scale
I0818 13:44:12.067895 20842 net.cpp:100] Creating Layer L2_b5_cbr2_scale
I0818 13:44:12.067908 20842 net.cpp:434] L2_b5_cbr2_scale <- L2_b5_cbr2_bn_top
I0818 13:44:12.067922 20842 net.cpp:395] L2_b5_cbr2_scale -> L2_b5_cbr2_bn_top (in-place)
I0818 13:44:12.068014 20842 layer_factory.hpp:77] Creating layer L2_b5_cbr2_scale
I0818 13:44:12.068197 20842 net.cpp:150] Setting up L2_b5_cbr2_scale
I0818 13:44:12.068215 20842 net.cpp:157] Top shape: 125 32 16 16 (1024000)
I0818 13:44:12.068225 20842 net.cpp:165] Memory required for data: 1060353500
I0818 13:44:12.068243 20842 layer_factory.hpp:77] Creating layer L2_b5_sum_eltwise
I0818 13:44:12.068264 20842 net.cpp:100] Creating Layer L2_b5_sum_eltwise
I0818 13:44:12.068276 20842 net.cpp:434] L2_b5_sum_eltwise <- L2_b5_cbr2_bn_top
I0818 13:44:12.068290 20842 net.cpp:434] L2_b5_sum_eltwise <- L2_b4_sum_eltwise_top_L2_b4_relu_0_split_1
I0818 13:44:12.068306 20842 net.cpp:408] L2_b5_sum_eltwise -> L2_b5_sum_eltwise_top
I0818 13:44:12.068352 20842 net.cpp:150] Setting up L2_b5_sum_eltwise
I0818 13:44:12.068370 20842 net.cpp:157] Top shape: 125 32 16 16 (1024000)
I0818 13:44:12.068388 20842 net.cpp:165] Memory required for data: 1064449500
I0818 13:44:12.068400 20842 layer_factory.hpp:77] Creating layer L2_b5_relu
I0818 13:44:12.068419 20842 net.cpp:100] Creating Layer L2_b5_relu
I0818 13:44:12.068431 20842 net.cpp:434] L2_b5_relu <- L2_b5_sum_eltwise_top
I0818 13:44:12.068446 20842 net.cpp:395] L2_b5_relu -> L2_b5_sum_eltwise_top (in-place)
I0818 13:44:12.068465 20842 net.cpp:150] Setting up L2_b5_relu
I0818 13:44:12.068480 20842 net.cpp:157] Top shape: 125 32 16 16 (1024000)
I0818 13:44:12.068490 20842 net.cpp:165] Memory required for data: 1068545500
I0818 13:44:12.068500 20842 layer_factory.hpp:77] Creating layer L2_b5_sum_eltwise_top_L2_b5_relu_0_split
I0818 13:44:12.068513 20842 net.cpp:100] Creating Layer L2_b5_sum_eltwise_top_L2_b5_relu_0_split
I0818 13:44:12.068523 20842 net.cpp:434] L2_b5_sum_eltwise_top_L2_b5_relu_0_split <- L2_b5_sum_eltwise_top
I0818 13:44:12.068538 20842 net.cpp:408] L2_b5_sum_eltwise_top_L2_b5_relu_0_split -> L2_b5_sum_eltwise_top_L2_b5_relu_0_split_0
I0818 13:44:12.068557 20842 net.cpp:408] L2_b5_sum_eltwise_top_L2_b5_relu_0_split -> L2_b5_sum_eltwise_top_L2_b5_relu_0_split_1
I0818 13:44:12.068641 20842 net.cpp:150] Setting up L2_b5_sum_eltwise_top_L2_b5_relu_0_split
I0818 13:44:12.068662 20842 net.cpp:157] Top shape: 125 32 16 16 (1024000)
I0818 13:44:12.068682 20842 net.cpp:157] Top shape: 125 32 16 16 (1024000)
I0818 13:44:12.068693 20842 net.cpp:165] Memory required for data: 1076737500
I0818 13:44:12.068704 20842 layer_factory.hpp:77] Creating layer L2_b6_cbr1_conv
I0818 13:44:12.068727 20842 net.cpp:100] Creating Layer L2_b6_cbr1_conv
I0818 13:44:12.068742 20842 net.cpp:434] L2_b6_cbr1_conv <- L2_b5_sum_eltwise_top_L2_b5_relu_0_split_0
I0818 13:44:12.068759 20842 net.cpp:408] L2_b6_cbr1_conv -> L2_b6_cbr1_conv_top
I0818 13:44:12.069272 20842 net.cpp:150] Setting up L2_b6_cbr1_conv
I0818 13:44:12.069291 20842 net.cpp:157] Top shape: 125 32 16 16 (1024000)
I0818 13:44:12.069300 20842 net.cpp:165] Memory required for data: 1080833500
I0818 13:44:12.069319 20842 layer_factory.hpp:77] Creating layer L2_b6_cbr1_bn
I0818 13:44:12.069339 20842 net.cpp:100] Creating Layer L2_b6_cbr1_bn
I0818 13:44:12.069352 20842 net.cpp:434] L2_b6_cbr1_bn <- L2_b6_cbr1_conv_top
I0818 13:44:12.069371 20842 net.cpp:408] L2_b6_cbr1_bn -> L2_b6_cbr1_bn_top
I0818 13:44:12.069656 20842 net.cpp:150] Setting up L2_b6_cbr1_bn
I0818 13:44:12.069681 20842 net.cpp:157] Top shape: 125 32 16 16 (1024000)
I0818 13:44:12.069692 20842 net.cpp:165] Memory required for data: 1084929500
I0818 13:44:12.069715 20842 layer_factory.hpp:77] Creating layer L2_b6_cbr1_scale
I0818 13:44:12.069732 20842 net.cpp:100] Creating Layer L2_b6_cbr1_scale
I0818 13:44:12.069744 20842 net.cpp:434] L2_b6_cbr1_scale <- L2_b6_cbr1_bn_top
I0818 13:44:12.069761 20842 net.cpp:395] L2_b6_cbr1_scale -> L2_b6_cbr1_bn_top (in-place)
I0818 13:44:12.069860 20842 layer_factory.hpp:77] Creating layer L2_b6_cbr1_scale
I0818 13:44:12.070042 20842 net.cpp:150] Setting up L2_b6_cbr1_scale
I0818 13:44:12.070065 20842 net.cpp:157] Top shape: 125 32 16 16 (1024000)
I0818 13:44:12.070075 20842 net.cpp:165] Memory required for data: 1089025500
I0818 13:44:12.070093 20842 layer_factory.hpp:77] Creating layer L2_b6_cbr1_relu
I0818 13:44:12.070108 20842 net.cpp:100] Creating Layer L2_b6_cbr1_relu
I0818 13:44:12.070121 20842 net.cpp:434] L2_b6_cbr1_relu <- L2_b6_cbr1_bn_top
I0818 13:44:12.070135 20842 net.cpp:395] L2_b6_cbr1_relu -> L2_b6_cbr1_bn_top (in-place)
I0818 13:44:12.070154 20842 net.cpp:150] Setting up L2_b6_cbr1_relu
I0818 13:44:12.070168 20842 net.cpp:157] Top shape: 125 32 16 16 (1024000)
I0818 13:44:12.070178 20842 net.cpp:165] Memory required for data: 1093121500
I0818 13:44:12.070188 20842 layer_factory.hpp:77] Creating layer L2_b6_cbr2_conv
I0818 13:44:12.070212 20842 net.cpp:100] Creating Layer L2_b6_cbr2_conv
I0818 13:44:12.070227 20842 net.cpp:434] L2_b6_cbr2_conv <- L2_b6_cbr1_bn_top
I0818 13:44:12.070247 20842 net.cpp:408] L2_b6_cbr2_conv -> L2_b6_cbr2_conv_top
I0818 13:44:12.070780 20842 net.cpp:150] Setting up L2_b6_cbr2_conv
I0818 13:44:12.070807 20842 net.cpp:157] Top shape: 125 32 16 16 (1024000)
I0818 13:44:12.070817 20842 net.cpp:165] Memory required for data: 1097217500
I0818 13:44:12.070835 20842 layer_factory.hpp:77] Creating layer L2_b6_cbr2_bn
I0818 13:44:12.070857 20842 net.cpp:100] Creating Layer L2_b6_cbr2_bn
I0818 13:44:12.070869 20842 net.cpp:434] L2_b6_cbr2_bn <- L2_b6_cbr2_conv_top
I0818 13:44:12.070891 20842 net.cpp:408] L2_b6_cbr2_bn -> L2_b6_cbr2_bn_top
I0818 13:44:12.071188 20842 net.cpp:150] Setting up L2_b6_cbr2_bn
I0818 13:44:12.071208 20842 net.cpp:157] Top shape: 125 32 16 16 (1024000)
I0818 13:44:12.071218 20842 net.cpp:165] Memory required for data: 1101313500
I0818 13:44:12.071239 20842 layer_factory.hpp:77] Creating layer L2_b6_cbr2_scale
I0818 13:44:12.071255 20842 net.cpp:100] Creating Layer L2_b6_cbr2_scale
I0818 13:44:12.071267 20842 net.cpp:434] L2_b6_cbr2_scale <- L2_b6_cbr2_bn_top
I0818 13:44:12.071282 20842 net.cpp:395] L2_b6_cbr2_scale -> L2_b6_cbr2_bn_top (in-place)
I0818 13:44:12.071374 20842 layer_factory.hpp:77] Creating layer L2_b6_cbr2_scale
I0818 13:44:12.071559 20842 net.cpp:150] Setting up L2_b6_cbr2_scale
I0818 13:44:12.071578 20842 net.cpp:157] Top shape: 125 32 16 16 (1024000)
I0818 13:44:12.071588 20842 net.cpp:165] Memory required for data: 1105409500
I0818 13:44:12.071607 20842 layer_factory.hpp:77] Creating layer L2_b6_sum_eltwise
I0818 13:44:12.071629 20842 net.cpp:100] Creating Layer L2_b6_sum_eltwise
I0818 13:44:12.071641 20842 net.cpp:434] L2_b6_sum_eltwise <- L2_b6_cbr2_bn_top
I0818 13:44:12.071655 20842 net.cpp:434] L2_b6_sum_eltwise <- L2_b5_sum_eltwise_top_L2_b5_relu_0_split_1
I0818 13:44:12.071671 20842 net.cpp:408] L2_b6_sum_eltwise -> L2_b6_sum_eltwise_top
I0818 13:44:12.071725 20842 net.cpp:150] Setting up L2_b6_sum_eltwise
I0818 13:44:12.071743 20842 net.cpp:157] Top shape: 125 32 16 16 (1024000)
I0818 13:44:12.071753 20842 net.cpp:165] Memory required for data: 1109505500
I0818 13:44:12.071763 20842 layer_factory.hpp:77] Creating layer L2_b6_relu
I0818 13:44:12.071782 20842 net.cpp:100] Creating Layer L2_b6_relu
I0818 13:44:12.071794 20842 net.cpp:434] L2_b6_relu <- L2_b6_sum_eltwise_top
I0818 13:44:12.071808 20842 net.cpp:395] L2_b6_relu -> L2_b6_sum_eltwise_top (in-place)
I0818 13:44:12.071827 20842 net.cpp:150] Setting up L2_b6_relu
I0818 13:44:12.071841 20842 net.cpp:157] Top shape: 125 32 16 16 (1024000)
I0818 13:44:12.071851 20842 net.cpp:165] Memory required for data: 1113601500
I0818 13:44:12.071861 20842 layer_factory.hpp:77] Creating layer L2_b6_sum_eltwise_top_L2_b6_relu_0_split
I0818 13:44:12.071876 20842 net.cpp:100] Creating Layer L2_b6_sum_eltwise_top_L2_b6_relu_0_split
I0818 13:44:12.071885 20842 net.cpp:434] L2_b6_sum_eltwise_top_L2_b6_relu_0_split <- L2_b6_sum_eltwise_top
I0818 13:44:12.071900 20842 net.cpp:408] L2_b6_sum_eltwise_top_L2_b6_relu_0_split -> L2_b6_sum_eltwise_top_L2_b6_relu_0_split_0
I0818 13:44:12.071920 20842 net.cpp:408] L2_b6_sum_eltwise_top_L2_b6_relu_0_split -> L2_b6_sum_eltwise_top_L2_b6_relu_0_split_1
I0818 13:44:12.072002 20842 net.cpp:150] Setting up L2_b6_sum_eltwise_top_L2_b6_relu_0_split
I0818 13:44:12.072023 20842 net.cpp:157] Top shape: 125 32 16 16 (1024000)
I0818 13:44:12.072036 20842 net.cpp:157] Top shape: 125 32 16 16 (1024000)
I0818 13:44:12.072046 20842 net.cpp:165] Memory required for data: 1121793500
I0818 13:44:12.072057 20842 layer_factory.hpp:77] Creating layer L2_b7_cbr1_conv
I0818 13:44:12.072082 20842 net.cpp:100] Creating Layer L2_b7_cbr1_conv
I0818 13:44:12.072095 20842 net.cpp:434] L2_b7_cbr1_conv <- L2_b6_sum_eltwise_top_L2_b6_relu_0_split_0
I0818 13:44:12.072113 20842 net.cpp:408] L2_b7_cbr1_conv -> L2_b7_cbr1_conv_top
I0818 13:44:12.072628 20842 net.cpp:150] Setting up L2_b7_cbr1_conv
I0818 13:44:12.072646 20842 net.cpp:157] Top shape: 125 32 16 16 (1024000)
I0818 13:44:12.072655 20842 net.cpp:165] Memory required for data: 1125889500
I0818 13:44:12.072679 20842 layer_factory.hpp:77] Creating layer L2_b7_cbr1_bn
I0818 13:44:12.072702 20842 net.cpp:100] Creating Layer L2_b7_cbr1_bn
I0818 13:44:12.072722 20842 net.cpp:434] L2_b7_cbr1_bn <- L2_b7_cbr1_conv_top
I0818 13:44:12.072747 20842 net.cpp:408] L2_b7_cbr1_bn -> L2_b7_cbr1_bn_top
I0818 13:44:12.073036 20842 net.cpp:150] Setting up L2_b7_cbr1_bn
I0818 13:44:12.073055 20842 net.cpp:157] Top shape: 125 32 16 16 (1024000)
I0818 13:44:12.073065 20842 net.cpp:165] Memory required for data: 1129985500
I0818 13:44:12.073086 20842 layer_factory.hpp:77] Creating layer L2_b7_cbr1_scale
I0818 13:44:12.073103 20842 net.cpp:100] Creating Layer L2_b7_cbr1_scale
I0818 13:44:12.073115 20842 net.cpp:434] L2_b7_cbr1_scale <- L2_b7_cbr1_bn_top
I0818 13:44:12.073132 20842 net.cpp:395] L2_b7_cbr1_scale -> L2_b7_cbr1_bn_top (in-place)
I0818 13:44:12.073221 20842 layer_factory.hpp:77] Creating layer L2_b7_cbr1_scale
I0818 13:44:12.073405 20842 net.cpp:150] Setting up L2_b7_cbr1_scale
I0818 13:44:12.073424 20842 net.cpp:157] Top shape: 125 32 16 16 (1024000)
I0818 13:44:12.073434 20842 net.cpp:165] Memory required for data: 1134081500
I0818 13:44:12.073452 20842 layer_factory.hpp:77] Creating layer L2_b7_cbr1_relu
I0818 13:44:12.073473 20842 net.cpp:100] Creating Layer L2_b7_cbr1_relu
I0818 13:44:12.073485 20842 net.cpp:434] L2_b7_cbr1_relu <- L2_b7_cbr1_bn_top
I0818 13:44:12.073499 20842 net.cpp:395] L2_b7_cbr1_relu -> L2_b7_cbr1_bn_top (in-place)
I0818 13:44:12.073518 20842 net.cpp:150] Setting up L2_b7_cbr1_relu
I0818 13:44:12.073531 20842 net.cpp:157] Top shape: 125 32 16 16 (1024000)
I0818 13:44:12.073541 20842 net.cpp:165] Memory required for data: 1138177500
I0818 13:44:12.073551 20842 layer_factory.hpp:77] Creating layer L2_b7_cbr2_conv
I0818 13:44:12.073580 20842 net.cpp:100] Creating Layer L2_b7_cbr2_conv
I0818 13:44:12.073592 20842 net.cpp:434] L2_b7_cbr2_conv <- L2_b7_cbr1_bn_top
I0818 13:44:12.073616 20842 net.cpp:408] L2_b7_cbr2_conv -> L2_b7_cbr2_conv_top
I0818 13:44:12.074129 20842 net.cpp:150] Setting up L2_b7_cbr2_conv
I0818 13:44:12.074149 20842 net.cpp:157] Top shape: 125 32 16 16 (1024000)
I0818 13:44:12.074158 20842 net.cpp:165] Memory required for data: 1142273500
I0818 13:44:12.074177 20842 layer_factory.hpp:77] Creating layer L2_b7_cbr2_bn
I0818 13:44:12.074198 20842 net.cpp:100] Creating Layer L2_b7_cbr2_bn
I0818 13:44:12.074211 20842 net.cpp:434] L2_b7_cbr2_bn <- L2_b7_cbr2_conv_top
I0818 13:44:12.074229 20842 net.cpp:408] L2_b7_cbr2_bn -> L2_b7_cbr2_bn_top
I0818 13:44:12.074517 20842 net.cpp:150] Setting up L2_b7_cbr2_bn
I0818 13:44:12.074542 20842 net.cpp:157] Top shape: 125 32 16 16 (1024000)
I0818 13:44:12.074553 20842 net.cpp:165] Memory required for data: 1146369500
I0818 13:44:12.074575 20842 layer_factory.hpp:77] Creating layer L2_b7_cbr2_scale
I0818 13:44:12.074591 20842 net.cpp:100] Creating Layer L2_b7_cbr2_scale
I0818 13:44:12.074604 20842 net.cpp:434] L2_b7_cbr2_scale <- L2_b7_cbr2_bn_top
I0818 13:44:12.074620 20842 net.cpp:395] L2_b7_cbr2_scale -> L2_b7_cbr2_bn_top (in-place)
I0818 13:44:12.074720 20842 layer_factory.hpp:77] Creating layer L2_b7_cbr2_scale
I0818 13:44:12.074906 20842 net.cpp:150] Setting up L2_b7_cbr2_scale
I0818 13:44:12.074925 20842 net.cpp:157] Top shape: 125 32 16 16 (1024000)
I0818 13:44:12.074935 20842 net.cpp:165] Memory required for data: 1150465500
I0818 13:44:12.074954 20842 layer_factory.hpp:77] Creating layer L2_b7_sum_eltwise
I0818 13:44:12.074972 20842 net.cpp:100] Creating Layer L2_b7_sum_eltwise
I0818 13:44:12.074983 20842 net.cpp:434] L2_b7_sum_eltwise <- L2_b7_cbr2_bn_top
I0818 13:44:12.074997 20842 net.cpp:434] L2_b7_sum_eltwise <- L2_b6_sum_eltwise_top_L2_b6_relu_0_split_1
I0818 13:44:12.075019 20842 net.cpp:408] L2_b7_sum_eltwise -> L2_b7_sum_eltwise_top
I0818 13:44:12.075065 20842 net.cpp:150] Setting up L2_b7_sum_eltwise
I0818 13:44:12.075083 20842 net.cpp:157] Top shape: 125 32 16 16 (1024000)
I0818 13:44:12.075093 20842 net.cpp:165] Memory required for data: 1154561500
I0818 13:44:12.075104 20842 layer_factory.hpp:77] Creating layer L2_b7_relu
I0818 13:44:12.075122 20842 net.cpp:100] Creating Layer L2_b7_relu
I0818 13:44:12.075136 20842 net.cpp:434] L2_b7_relu <- L2_b7_sum_eltwise_top
I0818 13:44:12.075158 20842 net.cpp:395] L2_b7_relu -> L2_b7_sum_eltwise_top (in-place)
I0818 13:44:12.075178 20842 net.cpp:150] Setting up L2_b7_relu
I0818 13:44:12.075194 20842 net.cpp:157] Top shape: 125 32 16 16 (1024000)
I0818 13:44:12.075204 20842 net.cpp:165] Memory required for data: 1158657500
I0818 13:44:12.075214 20842 layer_factory.hpp:77] Creating layer L2_b7_sum_eltwise_top_L2_b7_relu_0_split
I0818 13:44:12.075227 20842 net.cpp:100] Creating Layer L2_b7_sum_eltwise_top_L2_b7_relu_0_split
I0818 13:44:12.075239 20842 net.cpp:434] L2_b7_sum_eltwise_top_L2_b7_relu_0_split <- L2_b7_sum_eltwise_top
I0818 13:44:12.075254 20842 net.cpp:408] L2_b7_sum_eltwise_top_L2_b7_relu_0_split -> L2_b7_sum_eltwise_top_L2_b7_relu_0_split_0
I0818 13:44:12.075273 20842 net.cpp:408] L2_b7_sum_eltwise_top_L2_b7_relu_0_split -> L2_b7_sum_eltwise_top_L2_b7_relu_0_split_1
I0818 13:44:12.075356 20842 net.cpp:150] Setting up L2_b7_sum_eltwise_top_L2_b7_relu_0_split
I0818 13:44:12.075376 20842 net.cpp:157] Top shape: 125 32 16 16 (1024000)
I0818 13:44:12.075388 20842 net.cpp:157] Top shape: 125 32 16 16 (1024000)
I0818 13:44:12.075397 20842 net.cpp:165] Memory required for data: 1166849500
I0818 13:44:12.075408 20842 layer_factory.hpp:77] Creating layer L2_b8_cbr1_conv
I0818 13:44:12.075433 20842 net.cpp:100] Creating Layer L2_b8_cbr1_conv
I0818 13:44:12.075446 20842 net.cpp:434] L2_b8_cbr1_conv <- L2_b7_sum_eltwise_top_L2_b7_relu_0_split_0
I0818 13:44:12.075465 20842 net.cpp:408] L2_b8_cbr1_conv -> L2_b8_cbr1_conv_top
I0818 13:44:12.075996 20842 net.cpp:150] Setting up L2_b8_cbr1_conv
I0818 13:44:12.076016 20842 net.cpp:157] Top shape: 125 32 16 16 (1024000)
I0818 13:44:12.076025 20842 net.cpp:165] Memory required for data: 1170945500
I0818 13:44:12.076043 20842 layer_factory.hpp:77] Creating layer L2_b8_cbr1_bn
I0818 13:44:12.076066 20842 net.cpp:100] Creating Layer L2_b8_cbr1_bn
I0818 13:44:12.076077 20842 net.cpp:434] L2_b8_cbr1_bn <- L2_b8_cbr1_conv_top
I0818 13:44:12.076098 20842 net.cpp:408] L2_b8_cbr1_bn -> L2_b8_cbr1_bn_top
I0818 13:44:12.076386 20842 net.cpp:150] Setting up L2_b8_cbr1_bn
I0818 13:44:12.076406 20842 net.cpp:157] Top shape: 125 32 16 16 (1024000)
I0818 13:44:12.076414 20842 net.cpp:165] Memory required for data: 1175041500
I0818 13:44:12.076436 20842 layer_factory.hpp:77] Creating layer L2_b8_cbr1_scale
I0818 13:44:12.076453 20842 net.cpp:100] Creating Layer L2_b8_cbr1_scale
I0818 13:44:12.076465 20842 net.cpp:434] L2_b8_cbr1_scale <- L2_b8_cbr1_bn_top
I0818 13:44:12.076480 20842 net.cpp:395] L2_b8_cbr1_scale -> L2_b8_cbr1_bn_top (in-place)
I0818 13:44:12.076573 20842 layer_factory.hpp:77] Creating layer L2_b8_cbr1_scale
I0818 13:44:12.076769 20842 net.cpp:150] Setting up L2_b8_cbr1_scale
I0818 13:44:12.076788 20842 net.cpp:157] Top shape: 125 32 16 16 (1024000)
I0818 13:44:12.076797 20842 net.cpp:165] Memory required for data: 1179137500
I0818 13:44:12.076817 20842 layer_factory.hpp:77] Creating layer L2_b8_cbr1_relu
I0818 13:44:12.076831 20842 net.cpp:100] Creating Layer L2_b8_cbr1_relu
I0818 13:44:12.076848 20842 net.cpp:434] L2_b8_cbr1_relu <- L2_b8_cbr1_bn_top
I0818 13:44:12.076863 20842 net.cpp:395] L2_b8_cbr1_relu -> L2_b8_cbr1_bn_top (in-place)
I0818 13:44:12.076882 20842 net.cpp:150] Setting up L2_b8_cbr1_relu
I0818 13:44:12.076896 20842 net.cpp:157] Top shape: 125 32 16 16 (1024000)
I0818 13:44:12.076906 20842 net.cpp:165] Memory required for data: 1183233500
I0818 13:44:12.076916 20842 layer_factory.hpp:77] Creating layer L2_b8_cbr2_conv
I0818 13:44:12.076942 20842 net.cpp:100] Creating Layer L2_b8_cbr2_conv
I0818 13:44:12.076956 20842 net.cpp:434] L2_b8_cbr2_conv <- L2_b8_cbr1_bn_top
I0818 13:44:12.076972 20842 net.cpp:408] L2_b8_cbr2_conv -> L2_b8_cbr2_conv_top
I0818 13:44:12.077482 20842 net.cpp:150] Setting up L2_b8_cbr2_conv
I0818 13:44:12.077502 20842 net.cpp:157] Top shape: 125 32 16 16 (1024000)
I0818 13:44:12.077510 20842 net.cpp:165] Memory required for data: 1187329500
I0818 13:44:12.077528 20842 layer_factory.hpp:77] Creating layer L2_b8_cbr2_bn
I0818 13:44:12.077551 20842 net.cpp:100] Creating Layer L2_b8_cbr2_bn
I0818 13:44:12.077574 20842 net.cpp:434] L2_b8_cbr2_bn <- L2_b8_cbr2_conv_top
I0818 13:44:12.077592 20842 net.cpp:408] L2_b8_cbr2_bn -> L2_b8_cbr2_bn_top
I0818 13:44:12.077895 20842 net.cpp:150] Setting up L2_b8_cbr2_bn
I0818 13:44:12.077919 20842 net.cpp:157] Top shape: 125 32 16 16 (1024000)
I0818 13:44:12.077929 20842 net.cpp:165] Memory required for data: 1191425500
I0818 13:44:12.077950 20842 layer_factory.hpp:77] Creating layer L2_b8_cbr2_scale
I0818 13:44:12.077966 20842 net.cpp:100] Creating Layer L2_b8_cbr2_scale
I0818 13:44:12.077980 20842 net.cpp:434] L2_b8_cbr2_scale <- L2_b8_cbr2_bn_top
I0818 13:44:12.077996 20842 net.cpp:395] L2_b8_cbr2_scale -> L2_b8_cbr2_bn_top (in-place)
I0818 13:44:12.078083 20842 layer_factory.hpp:77] Creating layer L2_b8_cbr2_scale
I0818 13:44:12.078270 20842 net.cpp:150] Setting up L2_b8_cbr2_scale
I0818 13:44:12.078289 20842 net.cpp:157] Top shape: 125 32 16 16 (1024000)
I0818 13:44:12.078299 20842 net.cpp:165] Memory required for data: 1195521500
I0818 13:44:12.078316 20842 layer_factory.hpp:77] Creating layer L2_b8_sum_eltwise
I0818 13:44:12.078333 20842 net.cpp:100] Creating Layer L2_b8_sum_eltwise
I0818 13:44:12.078346 20842 net.cpp:434] L2_b8_sum_eltwise <- L2_b8_cbr2_bn_top
I0818 13:44:12.078358 20842 net.cpp:434] L2_b8_sum_eltwise <- L2_b7_sum_eltwise_top_L2_b7_relu_0_split_1
I0818 13:44:12.078379 20842 net.cpp:408] L2_b8_sum_eltwise -> L2_b8_sum_eltwise_top
I0818 13:44:12.078428 20842 net.cpp:150] Setting up L2_b8_sum_eltwise
I0818 13:44:12.078444 20842 net.cpp:157] Top shape: 125 32 16 16 (1024000)
I0818 13:44:12.078454 20842 net.cpp:165] Memory required for data: 1199617500
I0818 13:44:12.078465 20842 layer_factory.hpp:77] Creating layer L2_b8_relu
I0818 13:44:12.078483 20842 net.cpp:100] Creating Layer L2_b8_relu
I0818 13:44:12.078495 20842 net.cpp:434] L2_b8_relu <- L2_b8_sum_eltwise_top
I0818 13:44:12.078510 20842 net.cpp:395] L2_b8_relu -> L2_b8_sum_eltwise_top (in-place)
I0818 13:44:12.078528 20842 net.cpp:150] Setting up L2_b8_relu
I0818 13:44:12.078542 20842 net.cpp:157] Top shape: 125 32 16 16 (1024000)
I0818 13:44:12.078552 20842 net.cpp:165] Memory required for data: 1203713500
I0818 13:44:12.078562 20842 layer_factory.hpp:77] Creating layer L2_b8_sum_eltwise_top_L2_b8_relu_0_split
I0818 13:44:12.078577 20842 net.cpp:100] Creating Layer L2_b8_sum_eltwise_top_L2_b8_relu_0_split
I0818 13:44:12.078588 20842 net.cpp:434] L2_b8_sum_eltwise_top_L2_b8_relu_0_split <- L2_b8_sum_eltwise_top
I0818 13:44:12.078603 20842 net.cpp:408] L2_b8_sum_eltwise_top_L2_b8_relu_0_split -> L2_b8_sum_eltwise_top_L2_b8_relu_0_split_0
I0818 13:44:12.078639 20842 net.cpp:408] L2_b8_sum_eltwise_top_L2_b8_relu_0_split -> L2_b8_sum_eltwise_top_L2_b8_relu_0_split_1
I0818 13:44:12.078735 20842 net.cpp:150] Setting up L2_b8_sum_eltwise_top_L2_b8_relu_0_split
I0818 13:44:12.078755 20842 net.cpp:157] Top shape: 125 32 16 16 (1024000)
I0818 13:44:12.078769 20842 net.cpp:157] Top shape: 125 32 16 16 (1024000)
I0818 13:44:12.078779 20842 net.cpp:165] Memory required for data: 1211905500
I0818 13:44:12.078790 20842 layer_factory.hpp:77] Creating layer L2_b9_cbr1_conv
I0818 13:44:12.078811 20842 net.cpp:100] Creating Layer L2_b9_cbr1_conv
I0818 13:44:12.078824 20842 net.cpp:434] L2_b9_cbr1_conv <- L2_b8_sum_eltwise_top_L2_b8_relu_0_split_0
I0818 13:44:12.078848 20842 net.cpp:408] L2_b9_cbr1_conv -> L2_b9_cbr1_conv_top
I0818 13:44:12.079366 20842 net.cpp:150] Setting up L2_b9_cbr1_conv
I0818 13:44:12.079385 20842 net.cpp:157] Top shape: 125 32 16 16 (1024000)
I0818 13:44:12.079394 20842 net.cpp:165] Memory required for data: 1216001500
I0818 13:44:12.079412 20842 layer_factory.hpp:77] Creating layer L2_b9_cbr1_bn
I0818 13:44:12.079435 20842 net.cpp:100] Creating Layer L2_b9_cbr1_bn
I0818 13:44:12.079447 20842 net.cpp:434] L2_b9_cbr1_bn <- L2_b9_cbr1_conv_top
I0818 13:44:12.079463 20842 net.cpp:408] L2_b9_cbr1_bn -> L2_b9_cbr1_bn_top
I0818 13:44:12.079761 20842 net.cpp:150] Setting up L2_b9_cbr1_bn
I0818 13:44:12.079785 20842 net.cpp:157] Top shape: 125 32 16 16 (1024000)
I0818 13:44:12.079795 20842 net.cpp:165] Memory required for data: 1220097500
I0818 13:44:12.079826 20842 layer_factory.hpp:77] Creating layer L2_b9_cbr1_scale
I0818 13:44:12.079843 20842 net.cpp:100] Creating Layer L2_b9_cbr1_scale
I0818 13:44:12.079855 20842 net.cpp:434] L2_b9_cbr1_scale <- L2_b9_cbr1_bn_top
I0818 13:44:12.079871 20842 net.cpp:395] L2_b9_cbr1_scale -> L2_b9_cbr1_bn_top (in-place)
I0818 13:44:12.079964 20842 layer_factory.hpp:77] Creating layer L2_b9_cbr1_scale
I0818 13:44:12.080154 20842 net.cpp:150] Setting up L2_b9_cbr1_scale
I0818 13:44:12.080173 20842 net.cpp:157] Top shape: 125 32 16 16 (1024000)
I0818 13:44:12.080183 20842 net.cpp:165] Memory required for data: 1224193500
I0818 13:44:12.080201 20842 layer_factory.hpp:77] Creating layer L2_b9_cbr1_relu
I0818 13:44:12.080217 20842 net.cpp:100] Creating Layer L2_b9_cbr1_relu
I0818 13:44:12.080229 20842 net.cpp:434] L2_b9_cbr1_relu <- L2_b9_cbr1_bn_top
I0818 13:44:12.080248 20842 net.cpp:395] L2_b9_cbr1_relu -> L2_b9_cbr1_bn_top (in-place)
I0818 13:44:12.080268 20842 net.cpp:150] Setting up L2_b9_cbr1_relu
I0818 13:44:12.080282 20842 net.cpp:157] Top shape: 125 32 16 16 (1024000)
I0818 13:44:12.080292 20842 net.cpp:165] Memory required for data: 1228289500
I0818 13:44:12.080302 20842 layer_factory.hpp:77] Creating layer L2_b9_cbr2_conv
I0818 13:44:12.080322 20842 net.cpp:100] Creating Layer L2_b9_cbr2_conv
I0818 13:44:12.080334 20842 net.cpp:434] L2_b9_cbr2_conv <- L2_b9_cbr1_bn_top
I0818 13:44:12.080356 20842 net.cpp:408] L2_b9_cbr2_conv -> L2_b9_cbr2_conv_top
I0818 13:44:12.080865 20842 net.cpp:150] Setting up L2_b9_cbr2_conv
I0818 13:44:12.080885 20842 net.cpp:157] Top shape: 125 32 16 16 (1024000)
I0818 13:44:12.080895 20842 net.cpp:165] Memory required for data: 1232385500
I0818 13:44:12.080912 20842 layer_factory.hpp:77] Creating layer L2_b9_cbr2_bn
I0818 13:44:12.080930 20842 net.cpp:100] Creating Layer L2_b9_cbr2_bn
I0818 13:44:12.080942 20842 net.cpp:434] L2_b9_cbr2_bn <- L2_b9_cbr2_conv_top
I0818 13:44:12.080963 20842 net.cpp:408] L2_b9_cbr2_bn -> L2_b9_cbr2_bn_top
I0818 13:44:12.081254 20842 net.cpp:150] Setting up L2_b9_cbr2_bn
I0818 13:44:12.081272 20842 net.cpp:157] Top shape: 125 32 16 16 (1024000)
I0818 13:44:12.081282 20842 net.cpp:165] Memory required for data: 1236481500
I0818 13:44:12.081356 20842 layer_factory.hpp:77] Creating layer L2_b9_cbr2_scale
I0818 13:44:12.081378 20842 net.cpp:100] Creating Layer L2_b9_cbr2_scale
I0818 13:44:12.081392 20842 net.cpp:434] L2_b9_cbr2_scale <- L2_b9_cbr2_bn_top
I0818 13:44:12.081408 20842 net.cpp:395] L2_b9_cbr2_scale -> L2_b9_cbr2_bn_top (in-place)
I0818 13:44:12.081506 20842 layer_factory.hpp:77] Creating layer L2_b9_cbr2_scale
I0818 13:44:12.081701 20842 net.cpp:150] Setting up L2_b9_cbr2_scale
I0818 13:44:12.081727 20842 net.cpp:157] Top shape: 125 32 16 16 (1024000)
I0818 13:44:12.081737 20842 net.cpp:165] Memory required for data: 1240577500
I0818 13:44:12.081755 20842 layer_factory.hpp:77] Creating layer L2_b9_sum_eltwise
I0818 13:44:12.081773 20842 net.cpp:100] Creating Layer L2_b9_sum_eltwise
I0818 13:44:12.081784 20842 net.cpp:434] L2_b9_sum_eltwise <- L2_b9_cbr2_bn_top
I0818 13:44:12.081799 20842 net.cpp:434] L2_b9_sum_eltwise <- L2_b8_sum_eltwise_top_L2_b8_relu_0_split_1
I0818 13:44:12.081815 20842 net.cpp:408] L2_b9_sum_eltwise -> L2_b9_sum_eltwise_top
I0818 13:44:12.081866 20842 net.cpp:150] Setting up L2_b9_sum_eltwise
I0818 13:44:12.081884 20842 net.cpp:157] Top shape: 125 32 16 16 (1024000)
I0818 13:44:12.081894 20842 net.cpp:165] Memory required for data: 1244673500
I0818 13:44:12.081904 20842 layer_factory.hpp:77] Creating layer L2_b9_relu
I0818 13:44:12.081918 20842 net.cpp:100] Creating Layer L2_b9_relu
I0818 13:44:12.081929 20842 net.cpp:434] L2_b9_relu <- L2_b9_sum_eltwise_top
I0818 13:44:12.081949 20842 net.cpp:395] L2_b9_relu -> L2_b9_sum_eltwise_top (in-place)
I0818 13:44:12.081969 20842 net.cpp:150] Setting up L2_b9_relu
I0818 13:44:12.081982 20842 net.cpp:157] Top shape: 125 32 16 16 (1024000)
I0818 13:44:12.081992 20842 net.cpp:165] Memory required for data: 1248769500
I0818 13:44:12.082001 20842 layer_factory.hpp:77] Creating layer L2_b9_sum_eltwise_top_L2_b9_relu_0_split
I0818 13:44:12.082025 20842 net.cpp:100] Creating Layer L2_b9_sum_eltwise_top_L2_b9_relu_0_split
I0818 13:44:12.082036 20842 net.cpp:434] L2_b9_sum_eltwise_top_L2_b9_relu_0_split <- L2_b9_sum_eltwise_top
I0818 13:44:12.082056 20842 net.cpp:408] L2_b9_sum_eltwise_top_L2_b9_relu_0_split -> L2_b9_sum_eltwise_top_L2_b9_relu_0_split_0
I0818 13:44:12.082079 20842 net.cpp:408] L2_b9_sum_eltwise_top_L2_b9_relu_0_split -> L2_b9_sum_eltwise_top_L2_b9_relu_0_split_1
I0818 13:44:12.082155 20842 net.cpp:150] Setting up L2_b9_sum_eltwise_top_L2_b9_relu_0_split
I0818 13:44:12.082175 20842 net.cpp:157] Top shape: 125 32 16 16 (1024000)
I0818 13:44:12.082187 20842 net.cpp:157] Top shape: 125 32 16 16 (1024000)
I0818 13:44:12.082197 20842 net.cpp:165] Memory required for data: 1256961500
I0818 13:44:12.082208 20842 layer_factory.hpp:77] Creating layer L3_b1_cbr1_conv
I0818 13:44:12.082234 20842 net.cpp:100] Creating Layer L3_b1_cbr1_conv
I0818 13:44:12.082248 20842 net.cpp:434] L3_b1_cbr1_conv <- L2_b9_sum_eltwise_top_L2_b9_relu_0_split_0
I0818 13:44:12.082267 20842 net.cpp:408] L3_b1_cbr1_conv -> L3_b1_cbr1_conv_top
I0818 13:44:12.082798 20842 net.cpp:150] Setting up L3_b1_cbr1_conv
I0818 13:44:12.082819 20842 net.cpp:157] Top shape: 125 32 8 8 (256000)
I0818 13:44:12.082829 20842 net.cpp:165] Memory required for data: 1257985500
I0818 13:44:12.082847 20842 layer_factory.hpp:77] Creating layer L3_b1_cbr1_bn
I0818 13:44:12.082870 20842 net.cpp:100] Creating Layer L3_b1_cbr1_bn
I0818 13:44:12.082881 20842 net.cpp:434] L3_b1_cbr1_bn <- L3_b1_cbr1_conv_top
I0818 13:44:12.082897 20842 net.cpp:408] L3_b1_cbr1_bn -> L3_b1_cbr1_bn_top
I0818 13:44:12.083189 20842 net.cpp:150] Setting up L3_b1_cbr1_bn
I0818 13:44:12.083209 20842 net.cpp:157] Top shape: 125 32 8 8 (256000)
I0818 13:44:12.083218 20842 net.cpp:165] Memory required for data: 1259009500
I0818 13:44:12.083241 20842 layer_factory.hpp:77] Creating layer L3_b1_cbr1_scale
I0818 13:44:12.083262 20842 net.cpp:100] Creating Layer L3_b1_cbr1_scale
I0818 13:44:12.083274 20842 net.cpp:434] L3_b1_cbr1_scale <- L3_b1_cbr1_bn_top
I0818 13:44:12.083290 20842 net.cpp:395] L3_b1_cbr1_scale -> L3_b1_cbr1_bn_top (in-place)
I0818 13:44:12.083379 20842 layer_factory.hpp:77] Creating layer L3_b1_cbr1_scale
I0818 13:44:12.083575 20842 net.cpp:150] Setting up L3_b1_cbr1_scale
I0818 13:44:12.083595 20842 net.cpp:157] Top shape: 125 32 8 8 (256000)
I0818 13:44:12.083603 20842 net.cpp:165] Memory required for data: 1260033500
I0818 13:44:12.083621 20842 layer_factory.hpp:77] Creating layer L3_b1_cbr1_relu
I0818 13:44:12.083642 20842 net.cpp:100] Creating Layer L3_b1_cbr1_relu
I0818 13:44:12.083654 20842 net.cpp:434] L3_b1_cbr1_relu <- L3_b1_cbr1_bn_top
I0818 13:44:12.083669 20842 net.cpp:395] L3_b1_cbr1_relu -> L3_b1_cbr1_bn_top (in-place)
I0818 13:44:12.083696 20842 net.cpp:150] Setting up L3_b1_cbr1_relu
I0818 13:44:12.083711 20842 net.cpp:157] Top shape: 125 32 8 8 (256000)
I0818 13:44:12.083721 20842 net.cpp:165] Memory required for data: 1261057500
I0818 13:44:12.083731 20842 layer_factory.hpp:77] Creating layer L3_b1_cbr2_conv
I0818 13:44:12.083756 20842 net.cpp:100] Creating Layer L3_b1_cbr2_conv
I0818 13:44:12.083770 20842 net.cpp:434] L3_b1_cbr2_conv <- L3_b1_cbr1_bn_top
I0818 13:44:12.083791 20842 net.cpp:408] L3_b1_cbr2_conv -> L3_b1_cbr2_conv_top
I0818 13:44:12.084305 20842 net.cpp:150] Setting up L3_b1_cbr2_conv
I0818 13:44:12.084324 20842 net.cpp:157] Top shape: 125 32 8 8 (256000)
I0818 13:44:12.084333 20842 net.cpp:165] Memory required for data: 1262081500
I0818 13:44:12.084352 20842 layer_factory.hpp:77] Creating layer L3_b1_cbr2_bn
I0818 13:44:12.084369 20842 net.cpp:100] Creating Layer L3_b1_cbr2_bn
I0818 13:44:12.084381 20842 net.cpp:434] L3_b1_cbr2_bn <- L3_b1_cbr2_conv_top
I0818 13:44:12.084401 20842 net.cpp:408] L3_b1_cbr2_bn -> L3_b1_cbr2_bn_top
I0818 13:44:12.084712 20842 net.cpp:150] Setting up L3_b1_cbr2_bn
I0818 13:44:12.084731 20842 net.cpp:157] Top shape: 125 32 8 8 (256000)
I0818 13:44:12.084741 20842 net.cpp:165] Memory required for data: 1263105500
I0818 13:44:12.084772 20842 layer_factory.hpp:77] Creating layer L3_b1_cbr2_scale
I0818 13:44:12.084789 20842 net.cpp:100] Creating Layer L3_b1_cbr2_scale
I0818 13:44:12.084800 20842 net.cpp:434] L3_b1_cbr2_scale <- L3_b1_cbr2_bn_top
I0818 13:44:12.084816 20842 net.cpp:395] L3_b1_cbr2_scale -> L3_b1_cbr2_bn_top (in-place)
I0818 13:44:12.084911 20842 layer_factory.hpp:77] Creating layer L3_b1_cbr2_scale
I0818 13:44:12.085103 20842 net.cpp:150] Setting up L3_b1_cbr2_scale
I0818 13:44:12.085125 20842 net.cpp:157] Top shape: 125 32 8 8 (256000)
I0818 13:44:12.085135 20842 net.cpp:165] Memory required for data: 1264129500
I0818 13:44:12.085155 20842 layer_factory.hpp:77] Creating layer L3_b1_pool
I0818 13:44:12.085171 20842 net.cpp:100] Creating Layer L3_b1_pool
I0818 13:44:12.085183 20842 net.cpp:434] L3_b1_pool <- L2_b9_sum_eltwise_top_L2_b9_relu_0_split_1
I0818 13:44:12.085201 20842 net.cpp:408] L3_b1_pool -> L3_b1_pool
I0818 13:44:12.085261 20842 net.cpp:150] Setting up L3_b1_pool
I0818 13:44:12.085279 20842 net.cpp:157] Top shape: 125 32 8 8 (256000)
I0818 13:44:12.085289 20842 net.cpp:165] Memory required for data: 1265153500
I0818 13:44:12.085300 20842 layer_factory.hpp:77] Creating layer L3_b1_sum_eltwise
I0818 13:44:12.085316 20842 net.cpp:100] Creating Layer L3_b1_sum_eltwise
I0818 13:44:12.085328 20842 net.cpp:434] L3_b1_sum_eltwise <- L3_b1_cbr2_bn_top
I0818 13:44:12.085341 20842 net.cpp:434] L3_b1_sum_eltwise <- L3_b1_pool
I0818 13:44:12.085357 20842 net.cpp:408] L3_b1_sum_eltwise -> L3_b1_sum_eltwise_top
I0818 13:44:12.085418 20842 net.cpp:150] Setting up L3_b1_sum_eltwise
I0818 13:44:12.085436 20842 net.cpp:157] Top shape: 125 32 8 8 (256000)
I0818 13:44:12.085448 20842 net.cpp:165] Memory required for data: 1266177500
I0818 13:44:12.085458 20842 layer_factory.hpp:77] Creating layer L3_b1_relu
I0818 13:44:12.085470 20842 net.cpp:100] Creating Layer L3_b1_relu
I0818 13:44:12.085482 20842 net.cpp:434] L3_b1_relu <- L3_b1_sum_eltwise_top
I0818 13:44:12.085496 20842 net.cpp:395] L3_b1_relu -> L3_b1_sum_eltwise_top (in-place)
I0818 13:44:12.085515 20842 net.cpp:150] Setting up L3_b1_relu
I0818 13:44:12.085530 20842 net.cpp:157] Top shape: 125 32 8 8 (256000)
I0818 13:44:12.085539 20842 net.cpp:165] Memory required for data: 1267201500
I0818 13:44:12.085549 20842 layer_factory.hpp:77] Creating layer L3_b1_zeros
I0818 13:44:12.085566 20842 net.cpp:100] Creating Layer L3_b1_zeros
I0818 13:44:12.085587 20842 net.cpp:408] L3_b1_zeros -> L3_b1_zeros
I0818 13:44:12.086858 20842 net.cpp:150] Setting up L3_b1_zeros
I0818 13:44:12.086880 20842 net.cpp:157] Top shape: 125 32 8 8 (256000)
I0818 13:44:12.086890 20842 net.cpp:165] Memory required for data: 1268225500
I0818 13:44:12.086901 20842 layer_factory.hpp:77] Creating layer L3_b1_concat0
I0818 13:44:12.086922 20842 net.cpp:100] Creating Layer L3_b1_concat0
I0818 13:44:12.086935 20842 net.cpp:434] L3_b1_concat0 <- L3_b1_sum_eltwise_top
I0818 13:44:12.086948 20842 net.cpp:434] L3_b1_concat0 <- L3_b1_zeros
I0818 13:44:12.086966 20842 net.cpp:408] L3_b1_concat0 -> L3_b1_concat0
I0818 13:44:12.087029 20842 net.cpp:150] Setting up L3_b1_concat0
I0818 13:44:12.087049 20842 net.cpp:157] Top shape: 125 64 8 8 (512000)
I0818 13:44:12.087059 20842 net.cpp:165] Memory required for data: 1270273500
I0818 13:44:12.087069 20842 layer_factory.hpp:77] Creating layer L3_b1_concat0_L3_b1_concat0_0_split
I0818 13:44:12.087082 20842 net.cpp:100] Creating Layer L3_b1_concat0_L3_b1_concat0_0_split
I0818 13:44:12.087095 20842 net.cpp:434] L3_b1_concat0_L3_b1_concat0_0_split <- L3_b1_concat0
I0818 13:44:12.087115 20842 net.cpp:408] L3_b1_concat0_L3_b1_concat0_0_split -> L3_b1_concat0_L3_b1_concat0_0_split_0
I0818 13:44:12.087136 20842 net.cpp:408] L3_b1_concat0_L3_b1_concat0_0_split -> L3_b1_concat0_L3_b1_concat0_0_split_1
I0818 13:44:12.087219 20842 net.cpp:150] Setting up L3_b1_concat0_L3_b1_concat0_0_split
I0818 13:44:12.087244 20842 net.cpp:157] Top shape: 125 64 8 8 (512000)
I0818 13:44:12.087258 20842 net.cpp:157] Top shape: 125 64 8 8 (512000)
I0818 13:44:12.087277 20842 net.cpp:165] Memory required for data: 1274369500
I0818 13:44:12.087290 20842 layer_factory.hpp:77] Creating layer L3_b2_cbr1_conv
I0818 13:44:12.087316 20842 net.cpp:100] Creating Layer L3_b2_cbr1_conv
I0818 13:44:12.087330 20842 net.cpp:434] L3_b2_cbr1_conv <- L3_b1_concat0_L3_b1_concat0_0_split_0
I0818 13:44:12.087349 20842 net.cpp:408] L3_b2_cbr1_conv -> L3_b2_cbr1_conv_top
I0818 13:44:12.089391 20842 net.cpp:150] Setting up L3_b2_cbr1_conv
I0818 13:44:12.089413 20842 net.cpp:157] Top shape: 125 64 8 8 (512000)
I0818 13:44:12.089423 20842 net.cpp:165] Memory required for data: 1276417500
I0818 13:44:12.089442 20842 layer_factory.hpp:77] Creating layer L3_b2_cbr1_bn
I0818 13:44:12.089464 20842 net.cpp:100] Creating Layer L3_b2_cbr1_bn
I0818 13:44:12.089479 20842 net.cpp:434] L3_b2_cbr1_bn <- L3_b2_cbr1_conv_top
I0818 13:44:12.089495 20842 net.cpp:408] L3_b2_cbr1_bn -> L3_b2_cbr1_bn_top
I0818 13:44:12.089812 20842 net.cpp:150] Setting up L3_b2_cbr1_bn
I0818 13:44:12.089833 20842 net.cpp:157] Top shape: 125 64 8 8 (512000)
I0818 13:44:12.089843 20842 net.cpp:165] Memory required for data: 1278465500
I0818 13:44:12.089864 20842 layer_factory.hpp:77] Creating layer L3_b2_cbr1_scale
I0818 13:44:12.089885 20842 net.cpp:100] Creating Layer L3_b2_cbr1_scale
I0818 13:44:12.089898 20842 net.cpp:434] L3_b2_cbr1_scale <- L3_b2_cbr1_bn_top
I0818 13:44:12.089918 20842 net.cpp:395] L3_b2_cbr1_scale -> L3_b2_cbr1_bn_top (in-place)
I0818 13:44:12.090016 20842 layer_factory.hpp:77] Creating layer L3_b2_cbr1_scale
I0818 13:44:12.090210 20842 net.cpp:150] Setting up L3_b2_cbr1_scale
I0818 13:44:12.090229 20842 net.cpp:157] Top shape: 125 64 8 8 (512000)
I0818 13:44:12.090240 20842 net.cpp:165] Memory required for data: 1280513500
I0818 13:44:12.090257 20842 layer_factory.hpp:77] Creating layer L3_b2_cbr1_relu
I0818 13:44:12.090273 20842 net.cpp:100] Creating Layer L3_b2_cbr1_relu
I0818 13:44:12.090284 20842 net.cpp:434] L3_b2_cbr1_relu <- L3_b2_cbr1_bn_top
I0818 13:44:12.090303 20842 net.cpp:395] L3_b2_cbr1_relu -> L3_b2_cbr1_bn_top (in-place)
I0818 13:44:12.090324 20842 net.cpp:150] Setting up L3_b2_cbr1_relu
I0818 13:44:12.090339 20842 net.cpp:157] Top shape: 125 64 8 8 (512000)
I0818 13:44:12.090349 20842 net.cpp:165] Memory required for data: 1282561500
I0818 13:44:12.090359 20842 layer_factory.hpp:77] Creating layer L3_b2_cbr2_conv
I0818 13:44:12.090379 20842 net.cpp:100] Creating Layer L3_b2_cbr2_conv
I0818 13:44:12.090392 20842 net.cpp:434] L3_b2_cbr2_conv <- L3_b2_cbr1_bn_top
I0818 13:44:12.090415 20842 net.cpp:408] L3_b2_cbr2_conv -> L3_b2_cbr2_conv_top
I0818 13:44:12.091486 20842 net.cpp:150] Setting up L3_b2_cbr2_conv
I0818 13:44:12.091507 20842 net.cpp:157] Top shape: 125 64 8 8 (512000)
I0818 13:44:12.091517 20842 net.cpp:165] Memory required for data: 1284609500
I0818 13:44:12.091536 20842 layer_factory.hpp:77] Creating layer L3_b2_cbr2_bn
I0818 13:44:12.091558 20842 net.cpp:100] Creating Layer L3_b2_cbr2_bn
I0818 13:44:12.091572 20842 net.cpp:434] L3_b2_cbr2_bn <- L3_b2_cbr2_conv_top
I0818 13:44:12.091588 20842 net.cpp:408] L3_b2_cbr2_bn -> L3_b2_cbr2_bn_top
I0818 13:44:12.091892 20842 net.cpp:150] Setting up L3_b2_cbr2_bn
I0818 13:44:12.091912 20842 net.cpp:157] Top shape: 125 64 8 8 (512000)
I0818 13:44:12.091922 20842 net.cpp:165] Memory required for data: 1286657500
I0818 13:44:12.091943 20842 layer_factory.hpp:77] Creating layer L3_b2_cbr2_scale
I0818 13:44:12.091959 20842 net.cpp:100] Creating Layer L3_b2_cbr2_scale
I0818 13:44:12.091970 20842 net.cpp:434] L3_b2_cbr2_scale <- L3_b2_cbr2_bn_top
I0818 13:44:12.091985 20842 net.cpp:395] L3_b2_cbr2_scale -> L3_b2_cbr2_bn_top (in-place)
I0818 13:44:12.092078 20842 layer_factory.hpp:77] Creating layer L3_b2_cbr2_scale
I0818 13:44:12.092270 20842 net.cpp:150] Setting up L3_b2_cbr2_scale
I0818 13:44:12.092289 20842 net.cpp:157] Top shape: 125 64 8 8 (512000)
I0818 13:44:12.092299 20842 net.cpp:165] Memory required for data: 1288705500
I0818 13:44:12.092319 20842 layer_factory.hpp:77] Creating layer L3_b2_sum_eltwise
I0818 13:44:12.092335 20842 net.cpp:100] Creating Layer L3_b2_sum_eltwise
I0818 13:44:12.092358 20842 net.cpp:434] L3_b2_sum_eltwise <- L3_b2_cbr2_bn_top
I0818 13:44:12.092372 20842 net.cpp:434] L3_b2_sum_eltwise <- L3_b1_concat0_L3_b1_concat0_0_split_1
I0818 13:44:12.092393 20842 net.cpp:408] L3_b2_sum_eltwise -> L3_b2_sum_eltwise_top
I0818 13:44:12.092453 20842 net.cpp:150] Setting up L3_b2_sum_eltwise
I0818 13:44:12.092471 20842 net.cpp:157] Top shape: 125 64 8 8 (512000)
I0818 13:44:12.092481 20842 net.cpp:165] Memory required for data: 1290753500
I0818 13:44:12.092492 20842 layer_factory.hpp:77] Creating layer L3_b2_relu
I0818 13:44:12.092511 20842 net.cpp:100] Creating Layer L3_b2_relu
I0818 13:44:12.092523 20842 net.cpp:434] L3_b2_relu <- L3_b2_sum_eltwise_top
I0818 13:44:12.092538 20842 net.cpp:395] L3_b2_relu -> L3_b2_sum_eltwise_top (in-place)
I0818 13:44:12.092557 20842 net.cpp:150] Setting up L3_b2_relu
I0818 13:44:12.092571 20842 net.cpp:157] Top shape: 125 64 8 8 (512000)
I0818 13:44:12.092581 20842 net.cpp:165] Memory required for data: 1292801500
I0818 13:44:12.092592 20842 layer_factory.hpp:77] Creating layer L3_b2_sum_eltwise_top_L3_b2_relu_0_split
I0818 13:44:12.092608 20842 net.cpp:100] Creating Layer L3_b2_sum_eltwise_top_L3_b2_relu_0_split
I0818 13:44:12.092620 20842 net.cpp:434] L3_b2_sum_eltwise_top_L3_b2_relu_0_split <- L3_b2_sum_eltwise_top
I0818 13:44:12.092636 20842 net.cpp:408] L3_b2_sum_eltwise_top_L3_b2_relu_0_split -> L3_b2_sum_eltwise_top_L3_b2_relu_0_split_0
I0818 13:44:12.092655 20842 net.cpp:408] L3_b2_sum_eltwise_top_L3_b2_relu_0_split -> L3_b2_sum_eltwise_top_L3_b2_relu_0_split_1
I0818 13:44:12.092741 20842 net.cpp:150] Setting up L3_b2_sum_eltwise_top_L3_b2_relu_0_split
I0818 13:44:12.092767 20842 net.cpp:157] Top shape: 125 64 8 8 (512000)
I0818 13:44:12.092782 20842 net.cpp:157] Top shape: 125 64 8 8 (512000)
I0818 13:44:12.092792 20842 net.cpp:165] Memory required for data: 1296897500
I0818 13:44:12.092803 20842 layer_factory.hpp:77] Creating layer L3_b3_cbr1_conv
I0818 13:44:12.092823 20842 net.cpp:100] Creating Layer L3_b3_cbr1_conv
I0818 13:44:12.092835 20842 net.cpp:434] L3_b3_cbr1_conv <- L3_b2_sum_eltwise_top_L3_b2_relu_0_split_0
I0818 13:44:12.092854 20842 net.cpp:408] L3_b3_cbr1_conv -> L3_b3_cbr1_conv_top
I0818 13:44:12.093922 20842 net.cpp:150] Setting up L3_b3_cbr1_conv
I0818 13:44:12.093942 20842 net.cpp:157] Top shape: 125 64 8 8 (512000)
I0818 13:44:12.093952 20842 net.cpp:165] Memory required for data: 1298945500
I0818 13:44:12.093971 20842 layer_factory.hpp:77] Creating layer L3_b3_cbr1_bn
I0818 13:44:12.093992 20842 net.cpp:100] Creating Layer L3_b3_cbr1_bn
I0818 13:44:12.094005 20842 net.cpp:434] L3_b3_cbr1_bn <- L3_b3_cbr1_conv_top
I0818 13:44:12.094022 20842 net.cpp:408] L3_b3_cbr1_bn -> L3_b3_cbr1_bn_top
I0818 13:44:12.094319 20842 net.cpp:150] Setting up L3_b3_cbr1_bn
I0818 13:44:12.094338 20842 net.cpp:157] Top shape: 125 64 8 8 (512000)
I0818 13:44:12.094348 20842 net.cpp:165] Memory required for data: 1300993500
I0818 13:44:12.094369 20842 layer_factory.hpp:77] Creating layer L3_b3_cbr1_scale
I0818 13:44:12.094391 20842 net.cpp:100] Creating Layer L3_b3_cbr1_scale
I0818 13:44:12.094404 20842 net.cpp:434] L3_b3_cbr1_scale <- L3_b3_cbr1_bn_top
I0818 13:44:12.094427 20842 net.cpp:395] L3_b3_cbr1_scale -> L3_b3_cbr1_bn_top (in-place)
I0818 13:44:12.094517 20842 layer_factory.hpp:77] Creating layer L3_b3_cbr1_scale
I0818 13:44:12.094717 20842 net.cpp:150] Setting up L3_b3_cbr1_scale
I0818 13:44:12.094736 20842 net.cpp:157] Top shape: 125 64 8 8 (512000)
I0818 13:44:12.094745 20842 net.cpp:165] Memory required for data: 1303041500
I0818 13:44:12.094764 20842 layer_factory.hpp:77] Creating layer L3_b3_cbr1_relu
I0818 13:44:12.094779 20842 net.cpp:100] Creating Layer L3_b3_cbr1_relu
I0818 13:44:12.094791 20842 net.cpp:434] L3_b3_cbr1_relu <- L3_b3_cbr1_bn_top
I0818 13:44:12.094810 20842 net.cpp:395] L3_b3_cbr1_relu -> L3_b3_cbr1_bn_top (in-place)
I0818 13:44:12.094831 20842 net.cpp:150] Setting up L3_b3_cbr1_relu
I0818 13:44:12.094846 20842 net.cpp:157] Top shape: 125 64 8 8 (512000)
I0818 13:44:12.094864 20842 net.cpp:165] Memory required for data: 1305089500
I0818 13:44:12.094877 20842 layer_factory.hpp:77] Creating layer L3_b3_cbr2_conv
I0818 13:44:12.094902 20842 net.cpp:100] Creating Layer L3_b3_cbr2_conv
I0818 13:44:12.094915 20842 net.cpp:434] L3_b3_cbr2_conv <- L3_b3_cbr1_bn_top
I0818 13:44:12.094934 20842 net.cpp:408] L3_b3_cbr2_conv -> L3_b3_cbr2_conv_top
I0818 13:44:12.096006 20842 net.cpp:150] Setting up L3_b3_cbr2_conv
I0818 13:44:12.096026 20842 net.cpp:157] Top shape: 125 64 8 8 (512000)
I0818 13:44:12.096035 20842 net.cpp:165] Memory required for data: 1307137500
I0818 13:44:12.096053 20842 layer_factory.hpp:77] Creating layer L3_b3_cbr2_bn
I0818 13:44:12.096076 20842 net.cpp:100] Creating Layer L3_b3_cbr2_bn
I0818 13:44:12.096088 20842 net.cpp:434] L3_b3_cbr2_bn <- L3_b3_cbr2_conv_top
I0818 13:44:12.096104 20842 net.cpp:408] L3_b3_cbr2_bn -> L3_b3_cbr2_bn_top
I0818 13:44:12.096406 20842 net.cpp:150] Setting up L3_b3_cbr2_bn
I0818 13:44:12.096426 20842 net.cpp:157] Top shape: 125 64 8 8 (512000)
I0818 13:44:12.096434 20842 net.cpp:165] Memory required for data: 1309185500
I0818 13:44:12.096456 20842 layer_factory.hpp:77] Creating layer L3_b3_cbr2_scale
I0818 13:44:12.096473 20842 net.cpp:100] Creating Layer L3_b3_cbr2_scale
I0818 13:44:12.096484 20842 net.cpp:434] L3_b3_cbr2_scale <- L3_b3_cbr2_bn_top
I0818 13:44:12.096499 20842 net.cpp:395] L3_b3_cbr2_scale -> L3_b3_cbr2_bn_top (in-place)
I0818 13:44:12.096596 20842 layer_factory.hpp:77] Creating layer L3_b3_cbr2_scale
I0818 13:44:12.096797 20842 net.cpp:150] Setting up L3_b3_cbr2_scale
I0818 13:44:12.096817 20842 net.cpp:157] Top shape: 125 64 8 8 (512000)
I0818 13:44:12.096827 20842 net.cpp:165] Memory required for data: 1311233500
I0818 13:44:12.096844 20842 layer_factory.hpp:77] Creating layer L3_b3_sum_eltwise
I0818 13:44:12.096863 20842 net.cpp:100] Creating Layer L3_b3_sum_eltwise
I0818 13:44:12.096875 20842 net.cpp:434] L3_b3_sum_eltwise <- L3_b3_cbr2_bn_top
I0818 13:44:12.096889 20842 net.cpp:434] L3_b3_sum_eltwise <- L3_b2_sum_eltwise_top_L3_b2_relu_0_split_1
I0818 13:44:12.096911 20842 net.cpp:408] L3_b3_sum_eltwise -> L3_b3_sum_eltwise_top
I0818 13:44:12.096967 20842 net.cpp:150] Setting up L3_b3_sum_eltwise
I0818 13:44:12.096992 20842 net.cpp:157] Top shape: 125 64 8 8 (512000)
I0818 13:44:12.097002 20842 net.cpp:165] Memory required for data: 1313281500
I0818 13:44:12.097012 20842 layer_factory.hpp:77] Creating layer L3_b3_relu
I0818 13:44:12.097025 20842 net.cpp:100] Creating Layer L3_b3_relu
I0818 13:44:12.097038 20842 net.cpp:434] L3_b3_relu <- L3_b3_sum_eltwise_top
I0818 13:44:12.097051 20842 net.cpp:395] L3_b3_relu -> L3_b3_sum_eltwise_top (in-place)
I0818 13:44:12.097070 20842 net.cpp:150] Setting up L3_b3_relu
I0818 13:44:12.097084 20842 net.cpp:157] Top shape: 125 64 8 8 (512000)
I0818 13:44:12.097092 20842 net.cpp:165] Memory required for data: 1315329500
I0818 13:44:12.097103 20842 layer_factory.hpp:77] Creating layer L3_b3_sum_eltwise_top_L3_b3_relu_0_split
I0818 13:44:12.097121 20842 net.cpp:100] Creating Layer L3_b3_sum_eltwise_top_L3_b3_relu_0_split
I0818 13:44:12.097133 20842 net.cpp:434] L3_b3_sum_eltwise_top_L3_b3_relu_0_split <- L3_b3_sum_eltwise_top
I0818 13:44:12.097149 20842 net.cpp:408] L3_b3_sum_eltwise_top_L3_b3_relu_0_split -> L3_b3_sum_eltwise_top_L3_b3_relu_0_split_0
I0818 13:44:12.097169 20842 net.cpp:408] L3_b3_sum_eltwise_top_L3_b3_relu_0_split -> L3_b3_sum_eltwise_top_L3_b3_relu_0_split_1
I0818 13:44:12.097254 20842 net.cpp:150] Setting up L3_b3_sum_eltwise_top_L3_b3_relu_0_split
I0818 13:44:12.097272 20842 net.cpp:157] Top shape: 125 64 8 8 (512000)
I0818 13:44:12.097285 20842 net.cpp:157] Top shape: 125 64 8 8 (512000)
I0818 13:44:12.097295 20842 net.cpp:165] Memory required for data: 1319425500
I0818 13:44:12.097306 20842 layer_factory.hpp:77] Creating layer L3_b4_cbr1_conv
I0818 13:44:12.097326 20842 net.cpp:100] Creating Layer L3_b4_cbr1_conv
I0818 13:44:12.097339 20842 net.cpp:434] L3_b4_cbr1_conv <- L3_b3_sum_eltwise_top_L3_b3_relu_0_split_0
I0818 13:44:12.097363 20842 net.cpp:408] L3_b4_cbr1_conv -> L3_b4_cbr1_conv_top
I0818 13:44:12.100890 20842 net.cpp:150] Setting up L3_b4_cbr1_conv
I0818 13:44:12.101023 20842 net.cpp:157] Top shape: 125 64 8 8 (512000)
I0818 13:44:12.101107 20842 net.cpp:165] Memory required for data: 1321473500
I0818 13:44:12.101200 20842 layer_factory.hpp:77] Creating layer L3_b4_cbr1_bn
I0818 13:44:12.101294 20842 net.cpp:100] Creating Layer L3_b4_cbr1_bn
I0818 13:44:12.101378 20842 net.cpp:434] L3_b4_cbr1_bn <- L3_b4_cbr1_conv_top
I0818 13:44:12.101985 20842 net.cpp:408] L3_b4_cbr1_bn -> L3_b4_cbr1_bn_top
I0818 13:44:12.103242 20842 net.cpp:150] Setting up L3_b4_cbr1_bn
I0818 13:44:12.103266 20842 net.cpp:157] Top shape: 125 64 8 8 (512000)
I0818 13:44:12.103277 20842 net.cpp:165] Memory required for data: 1323521500
I0818 13:44:12.103299 20842 layer_factory.hpp:77] Creating layer L3_b4_cbr1_scale
I0818 13:44:12.103319 20842 net.cpp:100] Creating Layer L3_b4_cbr1_scale
I0818 13:44:12.103332 20842 net.cpp:434] L3_b4_cbr1_scale <- L3_b4_cbr1_bn_top
I0818 13:44:12.103348 20842 net.cpp:395] L3_b4_cbr1_scale -> L3_b4_cbr1_bn_top (in-place)
I0818 13:44:12.103448 20842 layer_factory.hpp:77] Creating layer L3_b4_cbr1_scale
I0818 13:44:12.103647 20842 net.cpp:150] Setting up L3_b4_cbr1_scale
I0818 13:44:12.103667 20842 net.cpp:157] Top shape: 125 64 8 8 (512000)
I0818 13:44:12.103685 20842 net.cpp:165] Memory required for data: 1325569500
I0818 13:44:12.103705 20842 layer_factory.hpp:77] Creating layer L3_b4_cbr1_relu
I0818 13:44:12.103723 20842 net.cpp:100] Creating Layer L3_b4_cbr1_relu
I0818 13:44:12.103734 20842 net.cpp:434] L3_b4_cbr1_relu <- L3_b4_cbr1_bn_top
I0818 13:44:12.103754 20842 net.cpp:395] L3_b4_cbr1_relu -> L3_b4_cbr1_bn_top (in-place)
I0818 13:44:12.103775 20842 net.cpp:150] Setting up L3_b4_cbr1_relu
I0818 13:44:12.103790 20842 net.cpp:157] Top shape: 125 64 8 8 (512000)
I0818 13:44:12.103799 20842 net.cpp:165] Memory required for data: 1327617500
I0818 13:44:12.103809 20842 layer_factory.hpp:77] Creating layer L3_b4_cbr2_conv
I0818 13:44:12.103834 20842 net.cpp:100] Creating Layer L3_b4_cbr2_conv
I0818 13:44:12.103847 20842 net.cpp:434] L3_b4_cbr2_conv <- L3_b4_cbr1_bn_top
I0818 13:44:12.103865 20842 net.cpp:408] L3_b4_cbr2_conv -> L3_b4_cbr2_conv_top
I0818 13:44:12.104961 20842 net.cpp:150] Setting up L3_b4_cbr2_conv
I0818 13:44:12.104982 20842 net.cpp:157] Top shape: 125 64 8 8 (512000)
I0818 13:44:12.104991 20842 net.cpp:165] Memory required for data: 1329665500
I0818 13:44:12.105010 20842 layer_factory.hpp:77] Creating layer L3_b4_cbr2_bn
I0818 13:44:12.105039 20842 net.cpp:100] Creating Layer L3_b4_cbr2_bn
I0818 13:44:12.105054 20842 net.cpp:434] L3_b4_cbr2_bn <- L3_b4_cbr2_conv_top
I0818 13:44:12.105077 20842 net.cpp:408] L3_b4_cbr2_bn -> L3_b4_cbr2_bn_top
I0818 13:44:12.105388 20842 net.cpp:150] Setting up L3_b4_cbr2_bn
I0818 13:44:12.105408 20842 net.cpp:157] Top shape: 125 64 8 8 (512000)
I0818 13:44:12.105417 20842 net.cpp:165] Memory required for data: 1331713500
I0818 13:44:12.105438 20842 layer_factory.hpp:77] Creating layer L3_b4_cbr2_scale
I0818 13:44:12.105455 20842 net.cpp:100] Creating Layer L3_b4_cbr2_scale
I0818 13:44:12.105468 20842 net.cpp:434] L3_b4_cbr2_scale <- L3_b4_cbr2_bn_top
I0818 13:44:12.105484 20842 net.cpp:395] L3_b4_cbr2_scale -> L3_b4_cbr2_bn_top (in-place)
I0818 13:44:12.105581 20842 layer_factory.hpp:77] Creating layer L3_b4_cbr2_scale
I0818 13:44:12.105787 20842 net.cpp:150] Setting up L3_b4_cbr2_scale
I0818 13:44:12.105806 20842 net.cpp:157] Top shape: 125 64 8 8 (512000)
I0818 13:44:12.105816 20842 net.cpp:165] Memory required for data: 1333761500
I0818 13:44:12.105834 20842 layer_factory.hpp:77] Creating layer L3_b4_sum_eltwise
I0818 13:44:12.105852 20842 net.cpp:100] Creating Layer L3_b4_sum_eltwise
I0818 13:44:12.105865 20842 net.cpp:434] L3_b4_sum_eltwise <- L3_b4_cbr2_bn_top
I0818 13:44:12.105880 20842 net.cpp:434] L3_b4_sum_eltwise <- L3_b3_sum_eltwise_top_L3_b3_relu_0_split_1
I0818 13:44:12.105904 20842 net.cpp:408] L3_b4_sum_eltwise -> L3_b4_sum_eltwise_top
I0818 13:44:12.105963 20842 net.cpp:150] Setting up L3_b4_sum_eltwise
I0818 13:44:12.105995 20842 net.cpp:157] Top shape: 125 64 8 8 (512000)
I0818 13:44:12.106006 20842 net.cpp:165] Memory required for data: 1335809500
I0818 13:44:12.106016 20842 layer_factory.hpp:77] Creating layer L3_b4_relu
I0818 13:44:12.106030 20842 net.cpp:100] Creating Layer L3_b4_relu
I0818 13:44:12.106042 20842 net.cpp:434] L3_b4_relu <- L3_b4_sum_eltwise_top
I0818 13:44:12.106056 20842 net.cpp:395] L3_b4_relu -> L3_b4_sum_eltwise_top (in-place)
I0818 13:44:12.106076 20842 net.cpp:150] Setting up L3_b4_relu
I0818 13:44:12.106091 20842 net.cpp:157] Top shape: 125 64 8 8 (512000)
I0818 13:44:12.106101 20842 net.cpp:165] Memory required for data: 1337857500
I0818 13:44:12.106112 20842 layer_factory.hpp:77] Creating layer L3_b4_sum_eltwise_top_L3_b4_relu_0_split
I0818 13:44:12.106129 20842 net.cpp:100] Creating Layer L3_b4_sum_eltwise_top_L3_b4_relu_0_split
I0818 13:44:12.106142 20842 net.cpp:434] L3_b4_sum_eltwise_top_L3_b4_relu_0_split <- L3_b4_sum_eltwise_top
I0818 13:44:12.106158 20842 net.cpp:408] L3_b4_sum_eltwise_top_L3_b4_relu_0_split -> L3_b4_sum_eltwise_top_L3_b4_relu_0_split_0
I0818 13:44:12.106178 20842 net.cpp:408] L3_b4_sum_eltwise_top_L3_b4_relu_0_split -> L3_b4_sum_eltwise_top_L3_b4_relu_0_split_1
I0818 13:44:12.106263 20842 net.cpp:150] Setting up L3_b4_sum_eltwise_top_L3_b4_relu_0_split
I0818 13:44:12.106282 20842 net.cpp:157] Top shape: 125 64 8 8 (512000)
I0818 13:44:12.106295 20842 net.cpp:157] Top shape: 125 64 8 8 (512000)
I0818 13:44:12.106304 20842 net.cpp:165] Memory required for data: 1341953500
I0818 13:44:12.106314 20842 layer_factory.hpp:77] Creating layer L3_b5_cbr1_conv
I0818 13:44:12.106335 20842 net.cpp:100] Creating Layer L3_b5_cbr1_conv
I0818 13:44:12.106348 20842 net.cpp:434] L3_b5_cbr1_conv <- L3_b4_sum_eltwise_top_L3_b4_relu_0_split_0
I0818 13:44:12.106371 20842 net.cpp:408] L3_b5_cbr1_conv -> L3_b5_cbr1_conv_top
I0818 13:44:12.107463 20842 net.cpp:150] Setting up L3_b5_cbr1_conv
I0818 13:44:12.107483 20842 net.cpp:157] Top shape: 125 64 8 8 (512000)
I0818 13:44:12.107494 20842 net.cpp:165] Memory required for data: 1344001500
I0818 13:44:12.107512 20842 layer_factory.hpp:77] Creating layer L3_b5_cbr1_bn
I0818 13:44:12.107530 20842 net.cpp:100] Creating Layer L3_b5_cbr1_bn
I0818 13:44:12.107542 20842 net.cpp:434] L3_b5_cbr1_bn <- L3_b5_cbr1_conv_top
I0818 13:44:12.107563 20842 net.cpp:408] L3_b5_cbr1_bn -> L3_b5_cbr1_bn_top
I0818 13:44:12.108841 20842 net.cpp:150] Setting up L3_b5_cbr1_bn
I0818 13:44:12.108863 20842 net.cpp:157] Top shape: 125 64 8 8 (512000)
I0818 13:44:12.108873 20842 net.cpp:165] Memory required for data: 1346049500
I0818 13:44:12.108896 20842 layer_factory.hpp:77] Creating layer L3_b5_cbr1_scale
I0818 13:44:12.108914 20842 net.cpp:100] Creating Layer L3_b5_cbr1_scale
I0818 13:44:12.108927 20842 net.cpp:434] L3_b5_cbr1_scale <- L3_b5_cbr1_bn_top
I0818 13:44:12.108942 20842 net.cpp:395] L3_b5_cbr1_scale -> L3_b5_cbr1_bn_top (in-place)
I0818 13:44:12.109036 20842 layer_factory.hpp:77] Creating layer L3_b5_cbr1_scale
I0818 13:44:12.109230 20842 net.cpp:150] Setting up L3_b5_cbr1_scale
I0818 13:44:12.109248 20842 net.cpp:157] Top shape: 125 64 8 8 (512000)
I0818 13:44:12.109257 20842 net.cpp:165] Memory required for data: 1348097500
I0818 13:44:12.109277 20842 layer_factory.hpp:77] Creating layer L3_b5_cbr1_relu
I0818 13:44:12.109292 20842 net.cpp:100] Creating Layer L3_b5_cbr1_relu
I0818 13:44:12.109304 20842 net.cpp:434] L3_b5_cbr1_relu <- L3_b5_cbr1_bn_top
I0818 13:44:12.109323 20842 net.cpp:395] L3_b5_cbr1_relu -> L3_b5_cbr1_bn_top (in-place)
I0818 13:44:12.109344 20842 net.cpp:150] Setting up L3_b5_cbr1_relu
I0818 13:44:12.109359 20842 net.cpp:157] Top shape: 125 64 8 8 (512000)
I0818 13:44:12.109369 20842 net.cpp:165] Memory required for data: 1350145500
I0818 13:44:12.109378 20842 layer_factory.hpp:77] Creating layer L3_b5_cbr2_conv
I0818 13:44:12.109403 20842 net.cpp:100] Creating Layer L3_b5_cbr2_conv
I0818 13:44:12.109416 20842 net.cpp:434] L3_b5_cbr2_conv <- L3_b5_cbr1_bn_top
I0818 13:44:12.109434 20842 net.cpp:408] L3_b5_cbr2_conv -> L3_b5_cbr2_conv_top
I0818 13:44:12.111393 20842 net.cpp:150] Setting up L3_b5_cbr2_conv
I0818 13:44:12.111415 20842 net.cpp:157] Top shape: 125 64 8 8 (512000)
I0818 13:44:12.111426 20842 net.cpp:165] Memory required for data: 1352193500
I0818 13:44:12.111444 20842 layer_factory.hpp:77] Creating layer L3_b5_cbr2_bn
I0818 13:44:12.111467 20842 net.cpp:100] Creating Layer L3_b5_cbr2_bn
I0818 13:44:12.111481 20842 net.cpp:434] L3_b5_cbr2_bn <- L3_b5_cbr2_conv_top
I0818 13:44:12.111503 20842 net.cpp:408] L3_b5_cbr2_bn -> L3_b5_cbr2_bn_top
I0818 13:44:12.111801 20842 net.cpp:150] Setting up L3_b5_cbr2_bn
I0818 13:44:12.111820 20842 net.cpp:157] Top shape: 125 64 8 8 (512000)
I0818 13:44:12.111830 20842 net.cpp:165] Memory required for data: 1354241500
I0818 13:44:12.111853 20842 layer_factory.hpp:77] Creating layer L3_b5_cbr2_scale
I0818 13:44:12.111871 20842 net.cpp:100] Creating Layer L3_b5_cbr2_scale
I0818 13:44:12.111882 20842 net.cpp:434] L3_b5_cbr2_scale <- L3_b5_cbr2_bn_top
I0818 13:44:12.111898 20842 net.cpp:395] L3_b5_cbr2_scale -> L3_b5_cbr2_bn_top (in-place)
I0818 13:44:12.111989 20842 layer_factory.hpp:77] Creating layer L3_b5_cbr2_scale
I0818 13:44:12.112175 20842 net.cpp:150] Setting up L3_b5_cbr2_scale
I0818 13:44:12.112195 20842 net.cpp:157] Top shape: 125 64 8 8 (512000)
I0818 13:44:12.112203 20842 net.cpp:165] Memory required for data: 1356289500
I0818 13:44:12.112221 20842 layer_factory.hpp:77] Creating layer L3_b5_sum_eltwise
I0818 13:44:12.112238 20842 net.cpp:100] Creating Layer L3_b5_sum_eltwise
I0818 13:44:12.112251 20842 net.cpp:434] L3_b5_sum_eltwise <- L3_b5_cbr2_bn_top
I0818 13:44:12.112263 20842 net.cpp:434] L3_b5_sum_eltwise <- L3_b4_sum_eltwise_top_L3_b4_relu_0_split_1
I0818 13:44:12.112283 20842 net.cpp:408] L3_b5_sum_eltwise -> L3_b5_sum_eltwise_top
I0818 13:44:12.112337 20842 net.cpp:150] Setting up L3_b5_sum_eltwise
I0818 13:44:12.112360 20842 net.cpp:157] Top shape: 125 64 8 8 (512000)
I0818 13:44:12.112371 20842 net.cpp:165] Memory required for data: 1358337500
I0818 13:44:12.112380 20842 layer_factory.hpp:77] Creating layer L3_b5_relu
I0818 13:44:12.112396 20842 net.cpp:100] Creating Layer L3_b5_relu
I0818 13:44:12.112408 20842 net.cpp:434] L3_b5_relu <- L3_b5_sum_eltwise_top
I0818 13:44:12.112421 20842 net.cpp:395] L3_b5_relu -> L3_b5_sum_eltwise_top (in-place)
I0818 13:44:12.112440 20842 net.cpp:150] Setting up L3_b5_relu
I0818 13:44:12.112457 20842 net.cpp:157] Top shape: 125 64 8 8 (512000)
I0818 13:44:12.112464 20842 net.cpp:165] Memory required for data: 1360385500
I0818 13:44:12.112474 20842 layer_factory.hpp:77] Creating layer L3_b5_sum_eltwise_top_L3_b5_relu_0_split
I0818 13:44:12.112493 20842 net.cpp:100] Creating Layer L3_b5_sum_eltwise_top_L3_b5_relu_0_split
I0818 13:44:12.112505 20842 net.cpp:434] L3_b5_sum_eltwise_top_L3_b5_relu_0_split <- L3_b5_sum_eltwise_top
I0818 13:44:12.112521 20842 net.cpp:408] L3_b5_sum_eltwise_top_L3_b5_relu_0_split -> L3_b5_sum_eltwise_top_L3_b5_relu_0_split_0
I0818 13:44:12.112541 20842 net.cpp:408] L3_b5_sum_eltwise_top_L3_b5_relu_0_split -> L3_b5_sum_eltwise_top_L3_b5_relu_0_split_1
I0818 13:44:12.112624 20842 net.cpp:150] Setting up L3_b5_sum_eltwise_top_L3_b5_relu_0_split
I0818 13:44:12.112645 20842 net.cpp:157] Top shape: 125 64 8 8 (512000)
I0818 13:44:12.112659 20842 net.cpp:157] Top shape: 125 64 8 8 (512000)
I0818 13:44:12.112669 20842 net.cpp:165] Memory required for data: 1364481500
I0818 13:44:12.112687 20842 layer_factory.hpp:77] Creating layer L3_b6_cbr1_conv
I0818 13:44:12.112707 20842 net.cpp:100] Creating Layer L3_b6_cbr1_conv
I0818 13:44:12.112721 20842 net.cpp:434] L3_b6_cbr1_conv <- L3_b5_sum_eltwise_top_L3_b5_relu_0_split_0
I0818 13:44:12.112743 20842 net.cpp:408] L3_b6_cbr1_conv -> L3_b6_cbr1_conv_top
I0818 13:44:12.113796 20842 net.cpp:150] Setting up L3_b6_cbr1_conv
I0818 13:44:12.113816 20842 net.cpp:157] Top shape: 125 64 8 8 (512000)
I0818 13:44:12.113826 20842 net.cpp:165] Memory required for data: 1366529500
I0818 13:44:12.113844 20842 layer_factory.hpp:77] Creating layer L3_b6_cbr1_bn
I0818 13:44:12.113862 20842 net.cpp:100] Creating Layer L3_b6_cbr1_bn
I0818 13:44:12.113881 20842 net.cpp:434] L3_b6_cbr1_bn <- L3_b6_cbr1_conv_top
I0818 13:44:12.113905 20842 net.cpp:408] L3_b6_cbr1_bn -> L3_b6_cbr1_bn_top
I0818 13:44:12.114197 20842 net.cpp:150] Setting up L3_b6_cbr1_bn
I0818 13:44:12.114219 20842 net.cpp:157] Top shape: 125 64 8 8 (512000)
I0818 13:44:12.114229 20842 net.cpp:165] Memory required for data: 1368577500
I0818 13:44:12.114251 20842 layer_factory.hpp:77] Creating layer L3_b6_cbr1_scale
I0818 13:44:12.114269 20842 net.cpp:100] Creating Layer L3_b6_cbr1_scale
I0818 13:44:12.114280 20842 net.cpp:434] L3_b6_cbr1_scale <- L3_b6_cbr1_bn_top
I0818 13:44:12.114296 20842 net.cpp:395] L3_b6_cbr1_scale -> L3_b6_cbr1_bn_top (in-place)
I0818 13:44:12.114384 20842 layer_factory.hpp:77] Creating layer L3_b6_cbr1_scale
I0818 13:44:12.114573 20842 net.cpp:150] Setting up L3_b6_cbr1_scale
I0818 13:44:12.114593 20842 net.cpp:157] Top shape: 125 64 8 8 (512000)
I0818 13:44:12.114603 20842 net.cpp:165] Memory required for data: 1370625500
I0818 13:44:12.114621 20842 layer_factory.hpp:77] Creating layer L3_b6_cbr1_relu
I0818 13:44:12.114636 20842 net.cpp:100] Creating Layer L3_b6_cbr1_relu
I0818 13:44:12.114648 20842 net.cpp:434] L3_b6_cbr1_relu <- L3_b6_cbr1_bn_top
I0818 13:44:12.114666 20842 net.cpp:395] L3_b6_cbr1_relu -> L3_b6_cbr1_bn_top (in-place)
I0818 13:44:12.114694 20842 net.cpp:150] Setting up L3_b6_cbr1_relu
I0818 13:44:12.114711 20842 net.cpp:157] Top shape: 125 64 8 8 (512000)
I0818 13:44:12.114720 20842 net.cpp:165] Memory required for data: 1372673500
I0818 13:44:12.114730 20842 layer_factory.hpp:77] Creating layer L3_b6_cbr2_conv
I0818 13:44:12.114755 20842 net.cpp:100] Creating Layer L3_b6_cbr2_conv
I0818 13:44:12.114769 20842 net.cpp:434] L3_b6_cbr2_conv <- L3_b6_cbr1_bn_top
I0818 13:44:12.114786 20842 net.cpp:408] L3_b6_cbr2_conv -> L3_b6_cbr2_conv_top
I0818 13:44:12.115838 20842 net.cpp:150] Setting up L3_b6_cbr2_conv
I0818 13:44:12.115856 20842 net.cpp:157] Top shape: 125 64 8 8 (512000)
I0818 13:44:12.115866 20842 net.cpp:165] Memory required for data: 1374721500
I0818 13:44:12.115885 20842 layer_factory.hpp:77] Creating layer L3_b6_cbr2_bn
I0818 13:44:12.115906 20842 net.cpp:100] Creating Layer L3_b6_cbr2_bn
I0818 13:44:12.115919 20842 net.cpp:434] L3_b6_cbr2_bn <- L3_b6_cbr2_conv_top
I0818 13:44:12.115939 20842 net.cpp:408] L3_b6_cbr2_bn -> L3_b6_cbr2_bn_top
I0818 13:44:12.116225 20842 net.cpp:150] Setting up L3_b6_cbr2_bn
I0818 13:44:12.116243 20842 net.cpp:157] Top shape: 125 64 8 8 (512000)
I0818 13:44:12.116252 20842 net.cpp:165] Memory required for data: 1376769500
I0818 13:44:12.116273 20842 layer_factory.hpp:77] Creating layer L3_b6_cbr2_scale
I0818 13:44:12.116291 20842 net.cpp:100] Creating Layer L3_b6_cbr2_scale
I0818 13:44:12.116302 20842 net.cpp:434] L3_b6_cbr2_scale <- L3_b6_cbr2_bn_top
I0818 13:44:12.116317 20842 net.cpp:395] L3_b6_cbr2_scale -> L3_b6_cbr2_bn_top (in-place)
I0818 13:44:12.116408 20842 layer_factory.hpp:77] Creating layer L3_b6_cbr2_scale
I0818 13:44:12.116600 20842 net.cpp:150] Setting up L3_b6_cbr2_scale
I0818 13:44:12.116618 20842 net.cpp:157] Top shape: 125 64 8 8 (512000)
I0818 13:44:12.116628 20842 net.cpp:165] Memory required for data: 1378817500
I0818 13:44:12.116647 20842 layer_factory.hpp:77] Creating layer L3_b6_sum_eltwise
I0818 13:44:12.116663 20842 net.cpp:100] Creating Layer L3_b6_sum_eltwise
I0818 13:44:12.116683 20842 net.cpp:434] L3_b6_sum_eltwise <- L3_b6_cbr2_bn_top
I0818 13:44:12.116698 20842 net.cpp:434] L3_b6_sum_eltwise <- L3_b5_sum_eltwise_top_L3_b5_relu_0_split_1
I0818 13:44:12.116719 20842 net.cpp:408] L3_b6_sum_eltwise -> L3_b6_sum_eltwise_top
I0818 13:44:12.116773 20842 net.cpp:150] Setting up L3_b6_sum_eltwise
I0818 13:44:12.116796 20842 net.cpp:157] Top shape: 125 64 8 8 (512000)
I0818 13:44:12.116806 20842 net.cpp:165] Memory required for data: 1380865500
I0818 13:44:12.116816 20842 layer_factory.hpp:77] Creating layer L3_b6_relu
I0818 13:44:12.116830 20842 net.cpp:100] Creating Layer L3_b6_relu
I0818 13:44:12.116842 20842 net.cpp:434] L3_b6_relu <- L3_b6_sum_eltwise_top
I0818 13:44:12.116864 20842 net.cpp:395] L3_b6_relu -> L3_b6_sum_eltwise_top (in-place)
I0818 13:44:12.116884 20842 net.cpp:150] Setting up L3_b6_relu
I0818 13:44:12.116899 20842 net.cpp:157] Top shape: 125 64 8 8 (512000)
I0818 13:44:12.116907 20842 net.cpp:165] Memory required for data: 1382913500
I0818 13:44:12.116917 20842 layer_factory.hpp:77] Creating layer L3_b6_sum_eltwise_top_L3_b6_relu_0_split
I0818 13:44:12.116936 20842 net.cpp:100] Creating Layer L3_b6_sum_eltwise_top_L3_b6_relu_0_split
I0818 13:44:12.116948 20842 net.cpp:434] L3_b6_sum_eltwise_top_L3_b6_relu_0_split <- L3_b6_sum_eltwise_top
I0818 13:44:12.116963 20842 net.cpp:408] L3_b6_sum_eltwise_top_L3_b6_relu_0_split -> L3_b6_sum_eltwise_top_L3_b6_relu_0_split_0
I0818 13:44:12.116984 20842 net.cpp:408] L3_b6_sum_eltwise_top_L3_b6_relu_0_split -> L3_b6_sum_eltwise_top_L3_b6_relu_0_split_1
I0818 13:44:12.117065 20842 net.cpp:150] Setting up L3_b6_sum_eltwise_top_L3_b6_relu_0_split
I0818 13:44:12.117086 20842 net.cpp:157] Top shape: 125 64 8 8 (512000)
I0818 13:44:12.117100 20842 net.cpp:157] Top shape: 125 64 8 8 (512000)
I0818 13:44:12.117110 20842 net.cpp:165] Memory required for data: 1387009500
I0818 13:44:12.117120 20842 layer_factory.hpp:77] Creating layer L3_b7_cbr1_conv
I0818 13:44:12.117139 20842 net.cpp:100] Creating Layer L3_b7_cbr1_conv
I0818 13:44:12.117152 20842 net.cpp:434] L3_b7_cbr1_conv <- L3_b6_sum_eltwise_top_L3_b6_relu_0_split_0
I0818 13:44:12.117174 20842 net.cpp:408] L3_b7_cbr1_conv -> L3_b7_cbr1_conv_top
I0818 13:44:12.118230 20842 net.cpp:150] Setting up L3_b7_cbr1_conv
I0818 13:44:12.118252 20842 net.cpp:157] Top shape: 125 64 8 8 (512000)
I0818 13:44:12.118260 20842 net.cpp:165] Memory required for data: 1389057500
I0818 13:44:12.118279 20842 layer_factory.hpp:77] Creating layer L3_b7_cbr1_bn
I0818 13:44:12.118296 20842 net.cpp:100] Creating Layer L3_b7_cbr1_bn
I0818 13:44:12.118309 20842 net.cpp:434] L3_b7_cbr1_bn <- L3_b7_cbr1_conv_top
I0818 13:44:12.118329 20842 net.cpp:408] L3_b7_cbr1_bn -> L3_b7_cbr1_bn_top
I0818 13:44:12.118618 20842 net.cpp:150] Setting up L3_b7_cbr1_bn
I0818 13:44:12.118640 20842 net.cpp:157] Top shape: 125 64 8 8 (512000)
I0818 13:44:12.118651 20842 net.cpp:165] Memory required for data: 1391105500
I0818 13:44:12.118680 20842 layer_factory.hpp:77] Creating layer L3_b7_cbr1_scale
I0818 13:44:12.118696 20842 net.cpp:100] Creating Layer L3_b7_cbr1_scale
I0818 13:44:12.118708 20842 net.cpp:434] L3_b7_cbr1_scale <- L3_b7_cbr1_bn_top
I0818 13:44:12.118726 20842 net.cpp:395] L3_b7_cbr1_scale -> L3_b7_cbr1_bn_top (in-place)
I0818 13:44:12.118819 20842 layer_factory.hpp:77] Creating layer L3_b7_cbr1_scale
I0818 13:44:12.119009 20842 net.cpp:150] Setting up L3_b7_cbr1_scale
I0818 13:44:12.119027 20842 net.cpp:157] Top shape: 125 64 8 8 (512000)
I0818 13:44:12.119036 20842 net.cpp:165] Memory required for data: 1393153500
I0818 13:44:12.119055 20842 layer_factory.hpp:77] Creating layer L3_b7_cbr1_relu
I0818 13:44:12.119127 20842 net.cpp:100] Creating Layer L3_b7_cbr1_relu
I0818 13:44:12.119141 20842 net.cpp:434] L3_b7_cbr1_relu <- L3_b7_cbr1_bn_top
I0818 13:44:12.119155 20842 net.cpp:395] L3_b7_cbr1_relu -> L3_b7_cbr1_bn_top (in-place)
I0818 13:44:12.119175 20842 net.cpp:150] Setting up L3_b7_cbr1_relu
I0818 13:44:12.119190 20842 net.cpp:157] Top shape: 125 64 8 8 (512000)
I0818 13:44:12.119199 20842 net.cpp:165] Memory required for data: 1395201500
I0818 13:44:12.119211 20842 layer_factory.hpp:77] Creating layer L3_b7_cbr2_conv
I0818 13:44:12.119232 20842 net.cpp:100] Creating Layer L3_b7_cbr2_conv
I0818 13:44:12.119244 20842 net.cpp:434] L3_b7_cbr2_conv <- L3_b7_cbr1_bn_top
I0818 13:44:12.119266 20842 net.cpp:408] L3_b7_cbr2_conv -> L3_b7_cbr2_conv_top
I0818 13:44:12.120335 20842 net.cpp:150] Setting up L3_b7_cbr2_conv
I0818 13:44:12.120355 20842 net.cpp:157] Top shape: 125 64 8 8 (512000)
I0818 13:44:12.120365 20842 net.cpp:165] Memory required for data: 1397249500
I0818 13:44:12.120383 20842 layer_factory.hpp:77] Creating layer L3_b7_cbr2_bn
I0818 13:44:12.120400 20842 net.cpp:100] Creating Layer L3_b7_cbr2_bn
I0818 13:44:12.120419 20842 net.cpp:434] L3_b7_cbr2_bn <- L3_b7_cbr2_conv_top
I0818 13:44:12.120440 20842 net.cpp:408] L3_b7_cbr2_bn -> L3_b7_cbr2_bn_top
I0818 13:44:12.120759 20842 net.cpp:150] Setting up L3_b7_cbr2_bn
I0818 13:44:12.120781 20842 net.cpp:157] Top shape: 125 64 8 8 (512000)
I0818 13:44:12.120791 20842 net.cpp:165] Memory required for data: 1399297500
I0818 13:44:12.120815 20842 layer_factory.hpp:77] Creating layer L3_b7_cbr2_scale
I0818 13:44:12.120831 20842 net.cpp:100] Creating Layer L3_b7_cbr2_scale
I0818 13:44:12.120844 20842 net.cpp:434] L3_b7_cbr2_scale <- L3_b7_cbr2_bn_top
I0818 13:44:12.120859 20842 net.cpp:395] L3_b7_cbr2_scale -> L3_b7_cbr2_bn_top (in-place)
I0818 13:44:12.120956 20842 layer_factory.hpp:77] Creating layer L3_b7_cbr2_scale
I0818 13:44:12.121145 20842 net.cpp:150] Setting up L3_b7_cbr2_scale
I0818 13:44:12.121165 20842 net.cpp:157] Top shape: 125 64 8 8 (512000)
I0818 13:44:12.121173 20842 net.cpp:165] Memory required for data: 1401345500
I0818 13:44:12.121192 20842 layer_factory.hpp:77] Creating layer L3_b7_sum_eltwise
I0818 13:44:12.121209 20842 net.cpp:100] Creating Layer L3_b7_sum_eltwise
I0818 13:44:12.121227 20842 net.cpp:434] L3_b7_sum_eltwise <- L3_b7_cbr2_bn_top
I0818 13:44:12.121240 20842 net.cpp:434] L3_b7_sum_eltwise <- L3_b6_sum_eltwise_top_L3_b6_relu_0_split_1
I0818 13:44:12.121258 20842 net.cpp:408] L3_b7_sum_eltwise -> L3_b7_sum_eltwise_top
I0818 13:44:12.121318 20842 net.cpp:150] Setting up L3_b7_sum_eltwise
I0818 13:44:12.121336 20842 net.cpp:157] Top shape: 125 64 8 8 (512000)
I0818 13:44:12.121345 20842 net.cpp:165] Memory required for data: 1403393500
I0818 13:44:12.121356 20842 layer_factory.hpp:77] Creating layer L3_b7_relu
I0818 13:44:12.121371 20842 net.cpp:100] Creating Layer L3_b7_relu
I0818 13:44:12.121383 20842 net.cpp:434] L3_b7_relu <- L3_b7_sum_eltwise_top
I0818 13:44:12.121397 20842 net.cpp:395] L3_b7_relu -> L3_b7_sum_eltwise_top (in-place)
I0818 13:44:12.121415 20842 net.cpp:150] Setting up L3_b7_relu
I0818 13:44:12.121429 20842 net.cpp:157] Top shape: 125 64 8 8 (512000)
I0818 13:44:12.121438 20842 net.cpp:165] Memory required for data: 1405441500
I0818 13:44:12.121449 20842 layer_factory.hpp:77] Creating layer L3_b7_sum_eltwise_top_L3_b7_relu_0_split
I0818 13:44:12.121464 20842 net.cpp:100] Creating Layer L3_b7_sum_eltwise_top_L3_b7_relu_0_split
I0818 13:44:12.121475 20842 net.cpp:434] L3_b7_sum_eltwise_top_L3_b7_relu_0_split <- L3_b7_sum_eltwise_top
I0818 13:44:12.121490 20842 net.cpp:408] L3_b7_sum_eltwise_top_L3_b7_relu_0_split -> L3_b7_sum_eltwise_top_L3_b7_relu_0_split_0
I0818 13:44:12.121511 20842 net.cpp:408] L3_b7_sum_eltwise_top_L3_b7_relu_0_split -> L3_b7_sum_eltwise_top_L3_b7_relu_0_split_1
I0818 13:44:12.121594 20842 net.cpp:150] Setting up L3_b7_sum_eltwise_top_L3_b7_relu_0_split
I0818 13:44:12.121615 20842 net.cpp:157] Top shape: 125 64 8 8 (512000)
I0818 13:44:12.121629 20842 net.cpp:157] Top shape: 125 64 8 8 (512000)
I0818 13:44:12.121639 20842 net.cpp:165] Memory required for data: 1409537500
I0818 13:44:12.121649 20842 layer_factory.hpp:77] Creating layer L3_b8_cbr1_conv
I0818 13:44:12.121680 20842 net.cpp:100] Creating Layer L3_b8_cbr1_conv
I0818 13:44:12.121695 20842 net.cpp:434] L3_b8_cbr1_conv <- L3_b7_sum_eltwise_top_L3_b7_relu_0_split_0
I0818 13:44:12.121713 20842 net.cpp:408] L3_b8_cbr1_conv -> L3_b8_cbr1_conv_top
I0818 13:44:12.122776 20842 net.cpp:150] Setting up L3_b8_cbr1_conv
I0818 13:44:12.122797 20842 net.cpp:157] Top shape: 125 64 8 8 (512000)
I0818 13:44:12.122805 20842 net.cpp:165] Memory required for data: 1411585500
I0818 13:44:12.122824 20842 layer_factory.hpp:77] Creating layer L3_b8_cbr1_bn
I0818 13:44:12.122841 20842 net.cpp:100] Creating Layer L3_b8_cbr1_bn
I0818 13:44:12.122853 20842 net.cpp:434] L3_b8_cbr1_bn <- L3_b8_cbr1_conv_top
I0818 13:44:12.122874 20842 net.cpp:408] L3_b8_cbr1_bn -> L3_b8_cbr1_bn_top
I0818 13:44:12.123164 20842 net.cpp:150] Setting up L3_b8_cbr1_bn
I0818 13:44:12.123183 20842 net.cpp:157] Top shape: 125 64 8 8 (512000)
I0818 13:44:12.123193 20842 net.cpp:165] Memory required for data: 1413633500
I0818 13:44:12.123222 20842 layer_factory.hpp:77] Creating layer L3_b8_cbr1_scale
I0818 13:44:12.123239 20842 net.cpp:100] Creating Layer L3_b8_cbr1_scale
I0818 13:44:12.123251 20842 net.cpp:434] L3_b8_cbr1_scale <- L3_b8_cbr1_bn_top
I0818 13:44:12.123271 20842 net.cpp:395] L3_b8_cbr1_scale -> L3_b8_cbr1_bn_top (in-place)
I0818 13:44:12.123366 20842 layer_factory.hpp:77] Creating layer L3_b8_cbr1_scale
I0818 13:44:12.123560 20842 net.cpp:150] Setting up L3_b8_cbr1_scale
I0818 13:44:12.123579 20842 net.cpp:157] Top shape: 125 64 8 8 (512000)
I0818 13:44:12.123589 20842 net.cpp:165] Memory required for data: 1415681500
I0818 13:44:12.123608 20842 layer_factory.hpp:77] Creating layer L3_b8_cbr1_relu
I0818 13:44:12.123627 20842 net.cpp:100] Creating Layer L3_b8_cbr1_relu
I0818 13:44:12.123639 20842 net.cpp:434] L3_b8_cbr1_relu <- L3_b8_cbr1_bn_top
I0818 13:44:12.123654 20842 net.cpp:395] L3_b8_cbr1_relu -> L3_b8_cbr1_bn_top (in-place)
I0818 13:44:12.123679 20842 net.cpp:150] Setting up L3_b8_cbr1_relu
I0818 13:44:12.123695 20842 net.cpp:157] Top shape: 125 64 8 8 (512000)
I0818 13:44:12.123705 20842 net.cpp:165] Memory required for data: 1417729500
I0818 13:44:12.123715 20842 layer_factory.hpp:77] Creating layer L3_b8_cbr2_conv
I0818 13:44:12.123740 20842 net.cpp:100] Creating Layer L3_b8_cbr2_conv
I0818 13:44:12.123754 20842 net.cpp:434] L3_b8_cbr2_conv <- L3_b8_cbr1_bn_top
I0818 13:44:12.123775 20842 net.cpp:408] L3_b8_cbr2_conv -> L3_b8_cbr2_conv_top
I0818 13:44:12.124888 20842 net.cpp:150] Setting up L3_b8_cbr2_conv
I0818 13:44:12.124909 20842 net.cpp:157] Top shape: 125 64 8 8 (512000)
I0818 13:44:12.124919 20842 net.cpp:165] Memory required for data: 1419777500
I0818 13:44:12.124938 20842 layer_factory.hpp:77] Creating layer L3_b8_cbr2_bn
I0818 13:44:12.124955 20842 net.cpp:100] Creating Layer L3_b8_cbr2_bn
I0818 13:44:12.124966 20842 net.cpp:434] L3_b8_cbr2_bn <- L3_b8_cbr2_conv_top
I0818 13:44:12.124987 20842 net.cpp:408] L3_b8_cbr2_bn -> L3_b8_cbr2_bn_top
I0818 13:44:12.125282 20842 net.cpp:150] Setting up L3_b8_cbr2_bn
I0818 13:44:12.125304 20842 net.cpp:157] Top shape: 125 64 8 8 (512000)
I0818 13:44:12.125314 20842 net.cpp:165] Memory required for data: 1421825500
I0818 13:44:12.125336 20842 layer_factory.hpp:77] Creating layer L3_b8_cbr2_scale
I0818 13:44:12.125352 20842 net.cpp:100] Creating Layer L3_b8_cbr2_scale
I0818 13:44:12.125365 20842 net.cpp:434] L3_b8_cbr2_scale <- L3_b8_cbr2_bn_top
I0818 13:44:12.125381 20842 net.cpp:395] L3_b8_cbr2_scale -> L3_b8_cbr2_bn_top (in-place)
I0818 13:44:12.125470 20842 layer_factory.hpp:77] Creating layer L3_b8_cbr2_scale
I0818 13:44:12.125660 20842 net.cpp:150] Setting up L3_b8_cbr2_scale
I0818 13:44:12.125689 20842 net.cpp:157] Top shape: 125 64 8 8 (512000)
I0818 13:44:12.125699 20842 net.cpp:165] Memory required for data: 1423873500
I0818 13:44:12.125718 20842 layer_factory.hpp:77] Creating layer L3_b8_sum_eltwise
I0818 13:44:12.125738 20842 net.cpp:100] Creating Layer L3_b8_sum_eltwise
I0818 13:44:12.125751 20842 net.cpp:434] L3_b8_sum_eltwise <- L3_b8_cbr2_bn_top
I0818 13:44:12.125766 20842 net.cpp:434] L3_b8_sum_eltwise <- L3_b7_sum_eltwise_top_L3_b7_relu_0_split_1
I0818 13:44:12.125780 20842 net.cpp:408] L3_b8_sum_eltwise -> L3_b8_sum_eltwise_top
I0818 13:44:12.125838 20842 net.cpp:150] Setting up L3_b8_sum_eltwise
I0818 13:44:12.125856 20842 net.cpp:157] Top shape: 125 64 8 8 (512000)
I0818 13:44:12.125866 20842 net.cpp:165] Memory required for data: 1425921500
I0818 13:44:12.125877 20842 layer_factory.hpp:77] Creating layer L3_b8_relu
I0818 13:44:12.125891 20842 net.cpp:100] Creating Layer L3_b8_relu
I0818 13:44:12.125902 20842 net.cpp:434] L3_b8_relu <- L3_b8_sum_eltwise_top
I0818 13:44:12.125916 20842 net.cpp:395] L3_b8_relu -> L3_b8_sum_eltwise_top (in-place)
I0818 13:44:12.125936 20842 net.cpp:150] Setting up L3_b8_relu
I0818 13:44:12.125952 20842 net.cpp:157] Top shape: 125 64 8 8 (512000)
I0818 13:44:12.125960 20842 net.cpp:165] Memory required for data: 1427969500
I0818 13:44:12.125970 20842 layer_factory.hpp:77] Creating layer L3_b8_sum_eltwise_top_L3_b8_relu_0_split
I0818 13:44:12.125991 20842 net.cpp:100] Creating Layer L3_b8_sum_eltwise_top_L3_b8_relu_0_split
I0818 13:44:12.126003 20842 net.cpp:434] L3_b8_sum_eltwise_top_L3_b8_relu_0_split <- L3_b8_sum_eltwise_top
I0818 13:44:12.126024 20842 net.cpp:408] L3_b8_sum_eltwise_top_L3_b8_relu_0_split -> L3_b8_sum_eltwise_top_L3_b8_relu_0_split_0
I0818 13:44:12.126044 20842 net.cpp:408] L3_b8_sum_eltwise_top_L3_b8_relu_0_split -> L3_b8_sum_eltwise_top_L3_b8_relu_0_split_1
I0818 13:44:12.126121 20842 net.cpp:150] Setting up L3_b8_sum_eltwise_top_L3_b8_relu_0_split
I0818 13:44:12.126139 20842 net.cpp:157] Top shape: 125 64 8 8 (512000)
I0818 13:44:12.126153 20842 net.cpp:157] Top shape: 125 64 8 8 (512000)
I0818 13:44:12.126163 20842 net.cpp:165] Memory required for data: 1432065500
I0818 13:44:12.126173 20842 layer_factory.hpp:77] Creating layer L3_b9_cbr1_conv
I0818 13:44:12.126197 20842 net.cpp:100] Creating Layer L3_b9_cbr1_conv
I0818 13:44:12.126211 20842 net.cpp:434] L3_b9_cbr1_conv <- L3_b8_sum_eltwise_top_L3_b8_relu_0_split_0
I0818 13:44:12.126230 20842 net.cpp:408] L3_b9_cbr1_conv -> L3_b9_cbr1_conv_top
I0818 13:44:12.128196 20842 net.cpp:150] Setting up L3_b9_cbr1_conv
I0818 13:44:12.128218 20842 net.cpp:157] Top shape: 125 64 8 8 (512000)
I0818 13:44:12.128228 20842 net.cpp:165] Memory required for data: 1434113500
I0818 13:44:12.128247 20842 layer_factory.hpp:77] Creating layer L3_b9_cbr1_bn
I0818 13:44:12.128268 20842 net.cpp:100] Creating Layer L3_b9_cbr1_bn
I0818 13:44:12.128281 20842 net.cpp:434] L3_b9_cbr1_bn <- L3_b9_cbr1_conv_top
I0818 13:44:12.128299 20842 net.cpp:408] L3_b9_cbr1_bn -> L3_b9_cbr1_bn_top
I0818 13:44:12.128600 20842 net.cpp:150] Setting up L3_b9_cbr1_bn
I0818 13:44:12.128620 20842 net.cpp:157] Top shape: 125 64 8 8 (512000)
I0818 13:44:12.128630 20842 net.cpp:165] Memory required for data: 1436161500
I0818 13:44:12.128651 20842 layer_factory.hpp:77] Creating layer L3_b9_cbr1_scale
I0818 13:44:12.128669 20842 net.cpp:100] Creating Layer L3_b9_cbr1_scale
I0818 13:44:12.128689 20842 net.cpp:434] L3_b9_cbr1_scale <- L3_b9_cbr1_bn_top
I0818 13:44:12.128705 20842 net.cpp:395] L3_b9_cbr1_scale -> L3_b9_cbr1_bn_top (in-place)
I0818 13:44:12.128795 20842 layer_factory.hpp:77] Creating layer L3_b9_cbr1_scale
I0818 13:44:12.128984 20842 net.cpp:150] Setting up L3_b9_cbr1_scale
I0818 13:44:12.129007 20842 net.cpp:157] Top shape: 125 64 8 8 (512000)
I0818 13:44:12.129017 20842 net.cpp:165] Memory required for data: 1438209500
I0818 13:44:12.129036 20842 layer_factory.hpp:77] Creating layer L3_b9_cbr1_relu
I0818 13:44:12.129052 20842 net.cpp:100] Creating Layer L3_b9_cbr1_relu
I0818 13:44:12.129063 20842 net.cpp:434] L3_b9_cbr1_relu <- L3_b9_cbr1_bn_top
I0818 13:44:12.129078 20842 net.cpp:395] L3_b9_cbr1_relu -> L3_b9_cbr1_bn_top (in-place)
I0818 13:44:12.129097 20842 net.cpp:150] Setting up L3_b9_cbr1_relu
I0818 13:44:12.129112 20842 net.cpp:157] Top shape: 125 64 8 8 (512000)
I0818 13:44:12.129122 20842 net.cpp:165] Memory required for data: 1440257500
I0818 13:44:12.129132 20842 layer_factory.hpp:77] Creating layer L3_b9_cbr2_conv
I0818 13:44:12.129155 20842 net.cpp:100] Creating Layer L3_b9_cbr2_conv
I0818 13:44:12.129169 20842 net.cpp:434] L3_b9_cbr2_conv <- L3_b9_cbr1_bn_top
I0818 13:44:12.129187 20842 net.cpp:408] L3_b9_cbr2_conv -> L3_b9_cbr2_conv_top
I0818 13:44:12.130249 20842 net.cpp:150] Setting up L3_b9_cbr2_conv
I0818 13:44:12.130270 20842 net.cpp:157] Top shape: 125 64 8 8 (512000)
I0818 13:44:12.130278 20842 net.cpp:165] Memory required for data: 1442305500
I0818 13:44:12.130296 20842 layer_factory.hpp:77] Creating layer L3_b9_cbr2_bn
I0818 13:44:12.130314 20842 net.cpp:100] Creating Layer L3_b9_cbr2_bn
I0818 13:44:12.130331 20842 net.cpp:434] L3_b9_cbr2_bn <- L3_b9_cbr2_conv_top
I0818 13:44:12.130348 20842 net.cpp:408] L3_b9_cbr2_bn -> L3_b9_cbr2_bn_top
I0818 13:44:12.130640 20842 net.cpp:150] Setting up L3_b9_cbr2_bn
I0818 13:44:12.130661 20842 net.cpp:157] Top shape: 125 64 8 8 (512000)
I0818 13:44:12.130671 20842 net.cpp:165] Memory required for data: 1444353500
I0818 13:44:12.130708 20842 layer_factory.hpp:77] Creating layer L3_b9_cbr2_scale
I0818 13:44:12.130725 20842 net.cpp:100] Creating Layer L3_b9_cbr2_scale
I0818 13:44:12.130738 20842 net.cpp:434] L3_b9_cbr2_scale <- L3_b9_cbr2_bn_top
I0818 13:44:12.130758 20842 net.cpp:395] L3_b9_cbr2_scale -> L3_b9_cbr2_bn_top (in-place)
I0818 13:44:12.130851 20842 layer_factory.hpp:77] Creating layer L3_b9_cbr2_scale
I0818 13:44:12.131041 20842 net.cpp:150] Setting up L3_b9_cbr2_scale
I0818 13:44:12.131058 20842 net.cpp:157] Top shape: 125 64 8 8 (512000)
I0818 13:44:12.131068 20842 net.cpp:165] Memory required for data: 1446401500
I0818 13:44:12.131088 20842 layer_factory.hpp:77] Creating layer L3_b9_sum_eltwise
I0818 13:44:12.131109 20842 net.cpp:100] Creating Layer L3_b9_sum_eltwise
I0818 13:44:12.131122 20842 net.cpp:434] L3_b9_sum_eltwise <- L3_b9_cbr2_bn_top
I0818 13:44:12.131135 20842 net.cpp:434] L3_b9_sum_eltwise <- L3_b8_sum_eltwise_top_L3_b8_relu_0_split_1
I0818 13:44:12.131152 20842 net.cpp:408] L3_b9_sum_eltwise -> L3_b9_sum_eltwise_top
I0818 13:44:12.131211 20842 net.cpp:150] Setting up L3_b9_sum_eltwise
I0818 13:44:12.131229 20842 net.cpp:157] Top shape: 125 64 8 8 (512000)
I0818 13:44:12.131238 20842 net.cpp:165] Memory required for data: 1448449500
I0818 13:44:12.131247 20842 layer_factory.hpp:77] Creating layer L3_b9_relu
I0818 13:44:12.131263 20842 net.cpp:100] Creating Layer L3_b9_relu
I0818 13:44:12.131275 20842 net.cpp:434] L3_b9_relu <- L3_b9_sum_eltwise_top
I0818 13:44:12.131292 20842 net.cpp:395] L3_b9_relu -> L3_b9_sum_eltwise_top (in-place)
I0818 13:44:12.131311 20842 net.cpp:150] Setting up L3_b9_relu
I0818 13:44:12.131326 20842 net.cpp:157] Top shape: 125 64 8 8 (512000)
I0818 13:44:12.131335 20842 net.cpp:165] Memory required for data: 1450497500
I0818 13:44:12.131346 20842 layer_factory.hpp:77] Creating layer post_pool
I0818 13:44:12.131363 20842 net.cpp:100] Creating Layer post_pool
I0818 13:44:12.131374 20842 net.cpp:434] post_pool <- L3_b9_sum_eltwise_top
I0818 13:44:12.131391 20842 net.cpp:408] post_pool -> post_pool
I0818 13:44:12.131448 20842 net.cpp:150] Setting up post_pool
I0818 13:44:12.131474 20842 net.cpp:157] Top shape: 125 64 1 1 (8000)
I0818 13:44:12.131484 20842 net.cpp:165] Memory required for data: 1450529500
I0818 13:44:12.131494 20842 layer_factory.hpp:77] Creating layer post_FC
I0818 13:44:12.131613 20842 net.cpp:100] Creating Layer post_FC
I0818 13:44:12.131630 20842 net.cpp:434] post_FC <- post_pool
I0818 13:44:12.131649 20842 net.cpp:408] post_FC -> post_FC_top
I0818 13:44:12.131959 20842 net.cpp:150] Setting up post_FC
I0818 13:44:12.131983 20842 net.cpp:157] Top shape: 125 10 (1250)
I0818 13:44:12.131994 20842 net.cpp:165] Memory required for data: 1450534500
I0818 13:44:12.132012 20842 layer_factory.hpp:77] Creating layer post_FC_top_post_FC_0_split
I0818 13:44:12.132028 20842 net.cpp:100] Creating Layer post_FC_top_post_FC_0_split
I0818 13:44:12.132040 20842 net.cpp:434] post_FC_top_post_FC_0_split <- post_FC_top
I0818 13:44:12.132055 20842 net.cpp:408] post_FC_top_post_FC_0_split -> post_FC_top_post_FC_0_split_0
I0818 13:44:12.132076 20842 net.cpp:408] post_FC_top_post_FC_0_split -> post_FC_top_post_FC_0_split_1
I0818 13:44:12.132159 20842 net.cpp:150] Setting up post_FC_top_post_FC_0_split
I0818 13:44:12.132180 20842 net.cpp:157] Top shape: 125 10 (1250)
I0818 13:44:12.132192 20842 net.cpp:157] Top shape: 125 10 (1250)
I0818 13:44:12.132202 20842 net.cpp:165] Memory required for data: 1450544500
I0818 13:44:12.132213 20842 layer_factory.hpp:77] Creating layer accuracy
I0818 13:44:12.132280 20842 net.cpp:100] Creating Layer accuracy
I0818 13:44:12.132297 20842 net.cpp:434] accuracy <- post_FC_top_post_FC_0_split_0
I0818 13:44:12.132311 20842 net.cpp:434] accuracy <- label_dataLayer_1_split_0
I0818 13:44:12.132333 20842 net.cpp:408] accuracy -> accuracy
…
