…
I0818 15:07:31.753367 21769 net.cpp:322] The NetState phase (0) differed from the phase (1) specified by a rule in layer L3_b18_cbr2_bn
I0818 15:07:31.756638 21769 net.cpp:58] Initializing net from parameters: 
name: "Cifar-Resnet"
state {
  phase: TRAIN
  level: 0
  stage: ""
}
layer {
  name: "dataLayer"
  type: "Data"
  top: "data_top"
  top: "label"
  include {
    phase: TRAIN
  }
  transform_param {
    mirror: true
    crop_size: 32
    mean_file: "examples/cifar10/mean.binaryproto"
  }
  data_param {
    source: "examples/cifar10/cifar10_train_lmdb"
    batch_size: 100
    backend: LMDB
  }
  image_data_param {
    shuffle: true
  }
}
layer {
  name: "pre_conv"
  type: "Convolution"
  bottom: "data_top"
  top: "pre_conv_top"
  param {
    lr_mult: 1
    decay_mult: 1
  }
  param {
    lr_mult: 2
    decay_mult: 0
  }
  convolution_param {
    num_output: 16
    pad: 1
    kernel_size: 3
    stride: 1
    weight_filler {
      type: "msra"
    }
    bias_filler {
      type: "constant"
    }
  }
}
layer {
  name: "pre_bn"
  type: "BatchNorm"
  bottom: "pre_conv_top"
  top: "pre_bn_top"
  include {
    phase: TRAIN
  }
  batch_norm_param {
    use_global_stats: false
    moving_average_fraction: 0.95
  }
}
layer {
  name: "pre_scale"
  type: "Scale"
  bottom: "pre_bn_top"
  top: "pre_bn_top"
  scale_param {
    bias_term: true
  }
}
layer {
  name: "pre_relu"
  type: "ReLU"
  bottom: "pre_bn_top"
  top: "pre_bn_top"
}
layer {
  name: "L1_b1_cbr1_conv"
  type: "Convolution"
  bottom: "pre_bn_top"
  top: "L1_b1_cbr1_conv_top"
  param {
    lr_mult: 1
    decay_mult: 1
  }
  param {
    lr_mult: 2
    decay_mult: 0
  }
  convolution_param {
    num_output: 16
    pad: 1
    kernel_size: 3
    stride: 1
    weight_filler {
      type: "msra"
    }
    bias_filler {
      type: "constant"
    }
  }
}
layer {
  name: "L1_b1_cbr1_bn"
  type: "BatchNorm"
  bottom: "L1_b1_cbr1_conv_top"
  top: "L1_b1_cbr1_bn_top"
  include {
    phase: TRAIN
  }
  batch_norm_param {
    use_global_stats: false
    moving_average_fraction: 0.95
  }
}
layer {
  name: "L1_b1_cbr1_scale"
  type: "Scale"
  bottom: "L1_b1_cbr1_bn_top"
  top: "L1_b1_cbr1_bn_top"
  scale_param {
    bias_term: true
  }
}
layer {
  name: "L1_b1_cbr1_relu"
  type: "ReLU"
  bottom: "L1_b1_cbr1_bn_top"
  top: "L1_b1_cbr1_bn_top"
}
layer {
  name: "L1_b1_cbr2_conv"
  type: "Convolution"
  bottom: "L1_b1_cbr1_bn_top"
  top: "L1_b1_cbr2_conv_top"
  param {
    lr_mult: 1
    decay_mult: 1
  }
  param {
    lr_mult: 2
    decay_mult: 0
  }
  convolution_param {
    num_output: 16
    pad: 1
    kernel_size: 3
    stride: 1
    weight_filler {
      type: "msra"
    }
    bias_filler {
      type: "constant"
    }
  }
}
layer {
  name: "L1_b1_cbr2_bn"
  type: "BatchNorm"
  bottom: "L1_b1_cbr2_conv_top"
  top: "L1_b1_cbr2_bn_top"
  include {
    phase: TRAIN
  }
  batch_norm_param {
    use_global_stats: false
    moving_average_fraction: 0.95
  }
}
layer {
  name: "L1_b1_cbr2_scale"
  type: "Scale"
  bottom: "L1_b1_cbr2_bn_top"
  top: "L1_b1_cbr2_bn_top"
  scale_param {
    bias_term: true
  }
}
layer {
  name: "L1_b1_sum_eltwise"
  type: "Eltwise"
  bottom: "L1_b1_cbr2_bn_top"
  bottom: "pre_bn_top"
  top: "L1_b1_sum_eltwise_top"
  eltwise_param {
    operation: SUM
  }
}
layer {
  name: "L1_b1_relu"
  type: "ReLU"
  bottom: "L1_b1_sum_eltwise_top"
  top: "L1_b1_sum_eltwise_top"
}
layer {
  name: "L1_b2_cbr1_conv"
  type: "Convolution"
  bottom: "L1_b1_sum_eltwise_top"
  top: "L1_b2_cbr1_conv_top"
  param {
    lr_mult: 1
    decay_mult: 1
  }
  param {
    lr_mult: 2
    decay_mult: 0
  }
  convolution_param {
    num_output: 16
    pad: 1
    kernel_size: 3
    stride: 1
    weight_filler {
      type: "msra"
    }
    bias_filler {
      type: "constant"
    }
  }
}
layer {
  name: "L1_b2_cbr1_bn"
  type: "BatchNorm"
  bottom: "L1_b2_cbr1_conv_top"
  top: "L1_b2_cbr1_bn_top"
  include {
    phase: TRAIN
  }
  batch_norm_param {
    use_global_stats: false
    moving_average_fraction: 0.95
  }
}
layer {
  name: "L1_b2_cbr1_scale"
  type: "Scale"
  bottom: "L1_b2_cbr1_bn_top"
  top: "L1_b2_cbr1_bn_top"
  scale_param {
    bias_term: true
  }
}
layer {
  name: "L1_b2_cbr1_relu"
  type: "ReLU"
  bottom: "L1_b2_cbr1_bn_top"
  top: "L1_b2_cbr1_bn_top"
}
layer {
  name: "L1_b2_cbr2_conv"
  type: "Convolution"
  bottom: "L1_b2_cbr1_bn_top"
  top: "L1_b2_cbr2_conv_top"
  param {
    lr_mult: 1
    decay_mult: 1
  }
  param {
    lr_mult: 2
    decay_mult: 0
  }
  convolution_param {
    num_output: 16
    pad: 1
    kernel_size: 3
    stride: 1
    weight_filler {
      type: "msra"
    }
    bias_filler {
      type: "constant"
    }
  }
}
layer {
  name: "L1_b2_cbr2_bn"
  type: "BatchNorm"
  bottom: "L1_b2_cbr2_conv_top"
  top: "L1_b2_cbr2_bn_top"
  include {
    phase: TRAIN
  }
  batch_norm_param {
    use_global_stats: false
    moving_average_fraction: 0.95
  }
}
layer {
  name: "L1_b2_cbr2_scale"
  type: "Scale"
  bottom: "L1_b2_cbr2_bn_top"
  top: "L1_b2_cbr2_bn_top"
  scale_param {
    bias_term: true
  }
}
layer {
  name: "L1_b2_sum_eltwise"
  type: "Eltwise"
  bottom: "L1_b2_cbr2_bn_top"
  bottom: "L1_b1_sum_eltwise_top"
  top: "L1_b2_sum_eltwise_top"
  eltwise_param {
    operation: SUM
  }
}
layer {
  name: "L1_b2_relu"
  type: "ReLU"
  bottom: "L1_b2_sum_eltwise_top"
  top: "L1_b2_sum_eltwise_top"
}
layer {
  name: "L1_b3_cbr1_conv"
  type: "Convolution"
  bottom: "L1_b2_sum_eltwise_top"
  top: "L1_b3_cbr1_conv_top"
  param {
    lr_mult: 1
    decay_mult: 1
  }
  param {
    lr_mult: 2
    decay_mult: 0
  }
  convolution_param {
    num_output: 16
    pad: 1
    kernel_size: 3
    stride: 1
    weight_filler {
      type: "msra"
    }
    bias_filler {
      type: "constant"
    }
  }
}
layer {
  name: "L1_b3_cbr1_bn"
  type: "BatchNorm"
  bottom: "L1_b3_cbr1_conv_top"
  top: "L1_b3_cbr1_bn_top"
  include {
    phase: TRAIN
  }
  batch_norm_param {
    use_global_stats: false
    moving_average_fraction: 0.95
  }
}
layer {
  name: "L1_b3_cbr1_scale"
  type: "Scale"
  bottom: "L1_b3_cbr1_bn_top"
  top: "L1_b3_cbr1_bn_top"
  scale_param {
    bias_term: true
  }
}
layer {
  name: "L1_b3_cbr1_relu"
  type: "ReLU"
  bottom: "L1_b3_cbr1_bn_top"
  top: "L1_b3_cbr1_bn_top"
}
layer {
  name: "L1_b3_cbr2_conv"
  type: "Convolution"
  bottom: "L1_b3_cbr1_bn_top"
  top: "L1_b3_cbr2_conv_top"
  param {
    lr_mult: 1
    decay_mult: 1
  }
  param {
    lr_mult: 2
    decay_mult: 0
  }
  convolution_param {
    num_output: 16
    pad: 1
    kernel_size: 3
    stride: 1
    weight_filler {
      type: "msra"
    }
    bias_filler {
      type: "constant"
    }
  }
}
layer {
  name: "L1_b3_cbr2_bn"
  type: "BatchNorm"
  bottom: "L1_b3_cbr2_conv_top"
  top: "L1_b3_cbr2_bn_top"
  include {
    phase: TRAIN
  }
  batch_norm_param {
    use_global_stats: false
    moving_average_fraction: 0.95
  }
}
layer {
  name: "L1_b3_cbr2_scale"
  type: "Scale"
  bottom: "L1_b3_cbr2_bn_top"
  top: "L1_b3_cbr2_bn_top"
  scale_param {
    bias_term: true
  }
}
layer {
  name: "L1_b3_sum_eltwise"
  type: "Eltwise"
  bottom: "L1_b3_cbr2_bn_top"
  bottom: "L1_b2_sum_eltwise_top"
  top: "L1_b3_sum_eltwise_top"
  eltwise_param {
    operation: SUM
  }
}
layer {
  name: "L1_b3_relu"
  type: "ReLU"
  bottom: "L1_b3_sum_eltwise_top"
  top: "L1_b3_sum_eltwise_top"
}
layer {
  name: "L1_b4_cbr1_conv"
  type: "Convolution"
  bottom: "L1_b3_sum_eltwise_top"
  top: "L1_b4_cbr1_conv_top"
  param {
    lr_mult: 1
    decay_mult: 1
  }
  param {
    lr_mult: 2
    decay_mult: 0
  }
  convolution_param {
    num_output: 16
    pad: 1
    kernel_size: 3
    stride: 1
    weight_filler {
      type: "msra"
    }
    bias_filler {
      type: "constant"
    }
  }
}
layer {
  name: "L1_b4_cbr1_bn"
  type: "BatchNorm"
  bottom: "L1_b4_cbr1_conv_top"
  top: "L1_b4_cbr1_bn_top"
  include {
    phase: TRAIN
  }
  batch_norm_param {
    use_global_stats: false
    moving_average_fraction: 0.95
  }
}
layer {
  name: "L1_b4_cbr1_scale"
  type: "Scale"
  bottom: "L1_b4_cbr1_bn_top"
  top: "L1_b4_cbr1_bn_top"
  scale_param {
    bias_term: true
  }
}
layer {
  name: "L1_b4_cbr1_relu"
  type: "ReLU"
  bottom: "L1_b4_cbr1_bn_top"
  top: "L1_b4_cbr1_bn_top"
}
layer {
  name: "L1_b4_cbr2_conv"
  type: "Convolution"
  bottom: "L1_b4_cbr1_bn_top"
  top: "L1_b4_cbr2_conv_top"
  param {
    lr_mult: 1
    decay_mult: 1
  }
  param {
    lr_mult: 2
    decay_mult: 0
  }
  convolution_param {
    num_output: 16
    pad: 1
    kernel_size: 3
    stride: 1
    weight_filler {
      type: "msra"
    }
    bias_filler {
      type: "constant"
    }
  }
}
layer {
  name: "L1_b4_cbr2_bn"
  type: "BatchNorm"
  bottom: "L1_b4_cbr2_conv_top"
  top: "L1_b4_cbr2_bn_top"
  include {
    phase: TRAIN
  }
  batch_norm_param {
    use_global_stats: false
    moving_average_fraction: 0.95
  }
}
layer {
  name: "L1_b4_cbr2_scale"
  type: "Scale"
  bottom: "L1_b4_cbr2_bn_top"
  top: "L1_b4_cbr2_bn_top"
  scale_param {
    bias_term: true
  }
}
layer {
  name: "L1_b4_sum_eltwise"
  type: "Eltwise"
  bottom: "L1_b4_cbr2_bn_top"
  bottom: "L1_b3_sum_eltwise_top"
  top: "L1_b4_sum_eltwise_top"
  eltwise_param {
    operation: SUM
  }
}
layer {
  name: "L1_b4_relu"
  type: "ReLU"
  bottom: "L1_b4_sum_eltwise_top"
  top: "L1_b4_sum_eltwise_top"
}
layer {
  name: "L1_b5_cbr1_conv"
  type: "Convolution"
  bottom: "L1_b4_sum_eltwise_top"
  top: "L1_b5_cbr1_conv_top"
  param {
    lr_mult: 1
    decay_mult: 1
  }
  param {
    lr_mult: 2
    decay_mult: 0
  }
  convolution_param {
    num_output: 16
    pad: 1
    kernel_size: 3
    stride: 1
    weight_filler {
      type: "msra"
    }
    bias_filler {
      type: "constant"
    }
  }
}
layer {
  name: "L1_b5_cbr1_bn"
  type: "BatchNorm"
  bottom: "L1_b5_cbr1_conv_top"
  top: "L1_b5_cbr1_bn_top"
  include {
    phase: TRAIN
  }
  batch_norm_param {
    use_global_stats: false
    moving_average_fraction: 0.95
  }
}
layer {
  name: "L1_b5_cbr1_scale"
  type: "Scale"
  bottom: "L1_b5_cbr1_bn_top"
  top: "L1_b5_cbr1_bn_top"
  scale_param {
    bias_term: true
  }
}
layer {
  name: "L1_b5_cbr1_relu"
  type: "ReLU"
  bottom: "L1_b5_cbr1_bn_top"
  top: "L1_b5_cbr1_bn_top"
}
layer {
  name: "L1_b5_cbr2_conv"
  type: "Convolution"
  bottom: "L1_b5_cbr1_bn_top"
  top: "L1_b5_cbr2_conv_top"
  param {
    lr_mult: 1
    decay_mult: 1
  }
  param {
    lr_mult: 2
    decay_mult: 0
  }
  convolution_param {
    num_output: 16
    pad: 1
    kernel_size: 3
    stride: 1
    weight_filler {
      type: "msra"
    }
    bias_filler {
      type: "constant"
    }
  }
}
layer {
  name: "L1_b5_cbr2_bn"
  type: "BatchNorm"
  bottom: "L1_b5_cbr2_conv_top"
  top: "L1_b5_cbr2_bn_top"
  include {
    phase: TRAIN
  }
  batch_norm_param {
    use_global_stats: false
    moving_average_fraction: 0.95
  }
}
layer {
  name: "L1_b5_cbr2_scale"
  type: "Scale"
  bottom: "L1_b5_cbr2_bn_top"
  top: "L1_b5_cbr2_bn_top"
  scale_param {
    bias_term: true
  }
}
layer {
  name: "L1_b5_sum_eltwise"
  type: "Eltwise"
  bottom: "L1_b5_cbr2_bn_top"
  bottom: "L1_b4_sum_eltwise_top"
  top: "L1_b5_sum_eltwise_top"
  eltwise_param {
    operation: SUM
  }
}
layer {
  name: "L1_b5_relu"
  type: "ReLU"
  bottom: "L1_b5_sum_eltwise_top"
  top: "L1_b5_sum_eltwise_top"
}
layer {
  name: "L1_b6_cbr1_conv"
  type: "Convolution"
  bottom: "L1_b5_sum_eltwise_top"
  top: "L1_b6_cbr1_conv_top"
  param {
    lr_mult: 1
    decay_mult: 1
  }
  param {
    lr_mult: 2
    decay_mult: 0
  }
  convolution_param {
    num_output: 16
    pad: 1
    kernel_size: 3
    stride: 1
    weight_filler {
      type: "msra"
    }
    bias_filler {
      type: "constant"
    }
  }
}
layer {
  name: "L1_b6_cbr1_bn"
  type: "BatchNorm"
  bottom: "L1_b6_cbr1_conv_top"
  top: "L1_b6_cbr1_bn_top"
  include {
    phase: TRAIN
  }
  batch_norm_param {
    use_global_stats: false
    moving_average_fraction: 0.95
  }
}
layer {
  name: "L1_b6_cbr1_scale"
  type: "Scale"
  bottom: "L1_b6_cbr1_bn_top"
  top: "L1_b6_cbr1_bn_top"
  scale_param {
    bias_term: true
  }
}
layer {
  name: "L1_b6_cbr1_relu"
  type: "ReLU"
  bottom: "L1_b6_cbr1_bn_top"
  top: "L1_b6_cbr1_bn_top"
}
layer {
  name: "L1_b6_cbr2_conv"
  type: "Convolution"
  bottom: "L1_b6_cbr1_bn_top"
  top: "L1_b6_cbr2_conv_top"
  param {
    lr_mult: 1
    decay_mult: 1
  }
  param {
    lr_mult: 2
    decay_mult: 0
  }
  convolution_param {
    num_output: 16
    pad: 1
    kernel_size: 3
    stride: 1
    weight_filler {
      type: "msra"
    }
    bias_filler {
      type: "constant"
    }
  }
}
layer {
  name: "L1_b6_cbr2_bn"
  type: "BatchNorm"
  bottom: "L1_b6_cbr2_conv_top"
  top: "L1_b6_cbr2_bn_top"
  include {
    phase: TRAIN
  }
  batch_norm_param {
    use_global_stats: false
    moving_average_fraction: 0.95
  }
}
layer {
  name: "L1_b6_cbr2_scale"
  type: "Scale"
  bottom: "L1_b6_cbr2_bn_top"
  top: "L1_b6_cbr2_bn_top"
  scale_param {
    bias_term: true
  }
}
layer {
  name: "L1_b6_sum_eltwise"
  type: "Eltwise"
  bottom: "L1_b6_cbr2_bn_top"
  bottom: "L1_b5_sum_eltwise_top"
  top: "L1_b6_sum_eltwise_top"
  eltwise_param {
    operation: SUM
  }
}
layer {
  name: "L1_b6_relu"
  type: "ReLU"
  bottom: "L1_b6_sum_eltwise_top"
  top: "L1_b6_sum_eltwise_top"
}
layer {
  name: "L1_b7_cbr1_conv"
  type: "Convolution"
  bottom: "L1_b6_sum_eltwise_top"
  top: "L1_b7_cbr1_conv_top"
  param {
    lr_mult: 1
    decay_mult: 1
  }
  param {
    lr_mult: 2
    decay_mult: 0
  }
  convolution_param {
    num_output: 16
    pad: 1
    kernel_size: 3
    stride: 1
    weight_filler {
      type: "msra"
    }
    bias_filler {
      type: "constant"
    }
  }
}
layer {
  name: "L1_b7_cbr1_bn"
  type: "BatchNorm"
  bottom: "L1_b7_cbr1_conv_top"
  top: "L1_b7_cbr1_bn_top"
  include {
    phase: TRAIN
  }
  batch_norm_param {
    use_global_stats: false
    moving_average_fraction: 0.95
  }
}
layer {
  name: "L1_b7_cbr1_scale"
  type: "Scale"
  bottom: "L1_b7_cbr1_bn_top"
  top: "L1_b7_cbr1_bn_top"
  scale_param {
    bias_term: true
  }
}
layer {
  name: "L1_b7_cbr1_relu"
  type: "ReLU"
  bottom: "L1_b7_cbr1_bn_top"
  top: "L1_b7_cbr1_bn_top"
}
layer {
  name: "L1_b7_cbr2_conv"
  type: "Convolution"
  bottom: "L1_b7_cbr1_bn_top"
  top: "L1_b7_cbr2_conv_top"
  param {
    lr_mult: 1
    decay_mult: 1
  }
  param {
    lr_mult: 2
    decay_mult: 0
  }
  convolution_param {
    num_output: 16
    pad: 1
    kernel_size: 3
    stride: 1
    weight_filler {
      type: "msra"
    }
    bias_filler {
      type: "constant"
    }
  }
}
layer {
  name: "L1_b7_cbr2_bn"
  type: "BatchNorm"
  bottom: "L1_b7_cbr2_conv_top"
  top: "L1_b7_cbr2_bn_top"
  include {
    phase: TRAIN
  }
  batch_norm_param {
    use_global_stats: false
    moving_average_fraction: 0.95
  }
}
layer {
  name: "L1_b7_cbr2_scale"
  type: "Scale"
  bottom: "L1_b7_cbr2_bn_top"
  top: "L1_b7_cbr2_bn_top"
  scale_param {
    bias_term: true
  }
}
layer {
  name: "L1_b7_sum_eltwise"
  type: "Eltwise"
  bottom: "L1_b7_cbr2_bn_top"
  bottom: "L1_b6_sum_eltwise_top"
  top: "L1_b7_sum_eltwise_top"
  eltwise_param {
    operation: SUM
  }
}
layer {
  name: "L1_b7_relu"
  type: "ReLU"
  bottom: "L1_b7_sum_eltwise_top"
  top: "L1_b7_sum_eltwise_top"
}
layer {
  name: "L1_b8_cbr1_conv"
  type: "Convolution"
  bottom: "L1_b7_sum_eltwise_top"
  top: "L1_b8_cbr1_conv_top"
  param {
    lr_mult: 1
    decay_mult: 1
  }
  param {
    lr_mult: 2
    decay_mult: 0
  }
  convolution_param {
    num_output: 16
    pad: 1
    kernel_size: 3
    stride: 1
    weight_filler {
      type: "msra"
    }
    bias_filler {
      type: "constant"
    }
  }
}
layer {
  name: "L1_b8_cbr1_bn"
  type: "BatchNorm"
  bottom: "L1_b8_cbr1_conv_top"
  top: "L1_b8_cbr1_bn_top"
  include {
    phase: TRAIN
  }
  batch_norm_param {
    use_global_stats: false
    moving_average_fraction: 0.95
  }
}
layer {
  name: "L1_b8_cbr1_scale"
  type: "Scale"
  bottom: "L1_b8_cbr1_bn_top"
  top: "L1_b8_cbr1_bn_top"
  scale_param {
    bias_term: true
  }
}
layer {
  name: "L1_b8_cbr1_relu"
  type: "ReLU"
  bottom: "L1_b8_cbr1_bn_top"
  top: "L1_b8_cbr1_bn_top"
}
layer {
  name: "L1_b8_cbr2_conv"
  type: "Convolution"
  bottom: "L1_b8_cbr1_bn_top"
  top: "L1_b8_cbr2_conv_top"
  param {
    lr_mult: 1
    decay_mult: 1
  }
  param {
    lr_mult: 2
    decay_mult: 0
  }
  convolution_param {
    num_output: 16
    pad: 1
    kernel_size: 3
    stride: 1
    weight_filler {
      type: "msra"
    }
    bias_filler {
      type: "constant"
    }
  }
}
layer {
  name: "L1_b8_cbr2_bn"
  type: "BatchNorm"
  bottom: "L1_b8_cbr2_conv_top"
  top: "L1_b8_cbr2_bn_top"
  include {
    phase: TRAIN
  }
  batch_norm_param {
    use_global_stats: false
    moving_average_fraction: 0.95
  }
}
layer {
  name: "L1_b8_cbr2_scale"
  type: "Scale"
  bottom: "L1_b8_cbr2_bn_top"
  top: "L1_b8_cbr2_bn_top"
  scale_param {
    bias_term: true
  }
}
layer {
  name: "L1_b8_sum_eltwise"
  type: "Eltwise"
  bottom: "L1_b8_cbr2_bn_top"
  bottom: "L1_b7_sum_eltwise_top"
  top: "L1_b8_sum_eltwise_top"
  eltwise_param {
    operation: SUM
  }
}
layer {
  name: "L1_b8_relu"
  type: "ReLU"
  bottom: "L1_b8_sum_eltwise_top"
  top: "L1_b8_sum_eltwise_top"
}
layer {
  name: "L1_b9_cbr1_conv"
  type: "Convolution"
  bottom: "L1_b8_sum_eltwise_top"
  top: "L1_b9_cbr1_conv_top"
  param {
    lr_mult: 1
    decay_mult: 1
  }
  param {
    lr_mult: 2
    decay_mult: 0
  }
  convolution_param {
    num_output: 16
    pad: 1
    kernel_size: 3
    stride: 1
    weight_filler {
      type: "msra"
    }
    bias_filler {
      type: "constant"
    }
  }
}
layer {
  name: "L1_b9_cbr1_bn"
  type: "BatchNorm"
  bottom: "L1_b9_cbr1_conv_top"
  top: "L1_b9_cbr1_bn_top"
  include {
    phase: TRAIN
  }
  batch_norm_param {
    use_global_stats: false
    moving_average_fraction: 0.95
  }
}
layer {
  name: "L1_b9_cbr1_scale"
  type: "Scale"
  bottom: "L1_b9_cbr1_bn_top"
  top: "L1_b9_cbr1_bn_top"
  scale_param {
    bias_term: true
  }
}
layer {
  name: "L1_b9_cbr1_relu"
  type: "ReLU"
  bottom: "L1_b9_cbr1_bn_top"
  top: "L1_b9_cbr1_bn_top"
}
layer {
  name: "L1_b9_cbr2_conv"
  type: "Convolution"
  bottom: "L1_b9_cbr1_bn_top"
  top: "L1_b9_cbr2_conv_top"
  param {
    lr_mult: 1
    decay_mult: 1
  }
  param {
    lr_mult: 2
    decay_mult: 0
  }
  convolution_param {
    num_output: 16
    pad: 1
    kernel_size: 3
    stride: 1
    weight_filler {
      type: "msra"
    }
    bias_filler {
      type: "constant"
    }
  }
}
layer {
  name: "L1_b9_cbr2_bn"
  type: "BatchNorm"
  bottom: "L1_b9_cbr2_conv_top"
  top: "L1_b9_cbr2_bn_top"
  include {
    phase: TRAIN
  }
  batch_norm_param {
    use_global_stats: false
    moving_average_fraction: 0.95
  }
}
layer {
  name: "L1_b9_cbr2_scale"
  type: "Scale"
  bottom: "L1_b9_cbr2_bn_top"
  top: "L1_b9_cbr2_bn_top"
  scale_param {
    bias_term: true
  }
}
layer {
  name: "L1_b9_sum_eltwise"
  type: "Eltwise"
  bottom: "L1_b9_cbr2_bn_top"
  bottom: "L1_b8_sum_eltwise_top"
  top: "L1_b9_sum_eltwise_top"
  eltwise_param {
    operation: SUM
  }
}
layer {
  name: "L1_b9_relu"
  type: "ReLU"
  bottom: "L1_b9_sum_eltwise_top"
  top: "L1_b9_sum_eltwise_top"
}
layer {
  name: "L1_b10_cbr1_conv"
  type: "Convolution"
  bottom: "L1_b9_sum_eltwise_top"
  top: "L1_b10_cbr1_conv_top"
  param {
    lr_mult: 1
    decay_mult: 1
  }
  param {
    lr_mult: 2
    decay_mult: 0
  }
  convolution_param {
    num_output: 16
    pad: 1
    kernel_size: 3
    stride: 1
    weight_filler {
      type: "msra"
    }
    bias_filler {
      type: "constant"
    }
  }
}
layer {
  name: "L1_b10_cbr1_bn"
  type: "BatchNorm"
  bottom: "L1_b10_cbr1_conv_top"
  top: "L1_b10_cbr1_bn_top"
  include {
    phase: TRAIN
  }
  batch_norm_param {
    use_global_stats: false
    moving_average_fraction: 0.95
  }
}
layer {
  name: "L1_b10_cbr1_scale"
  type: "Scale"
  bottom: "L1_b10_cbr1_bn_top"
  top: "L1_b10_cbr1_bn_top"
  scale_param {
    bias_term: true
  }
}
layer {
  name: "L1_b10_cbr1_relu"
  type: "ReLU"
  bottom: "L1_b10_cbr1_bn_top"
  top: "L1_b10_cbr1_bn_top"
}
layer {
  name: "L1_b10_cbr2_conv"
  type: "Convolution"
  bottom: "L1_b10_cbr1_bn_top"
  top: "L1_b10_cbr2_conv_top"
  param {
    lr_mult: 1
    decay_mult: 1
  }
  param {
    lr_mult: 2
    decay_mult: 0
  }
  convolution_param {
    num_output: 16
    pad: 1
    kernel_size: 3
    stride: 1
    weight_filler {
      type: "msra"
    }
    bias_filler {
      type: "constant"
    }
  }
}
layer {
  name: "L1_b10_cbr2_bn"
  type: "BatchNorm"
  bottom: "L1_b10_cbr2_conv_top"
  top: "L1_b10_cbr2_bn_top"
  include {
    phase: TRAIN
  }
  batch_norm_param {
    use_global_stats: false
    moving_average_fraction: 0.95
  }
}
layer {
  name: "L1_b10_cbr2_scale"
  type: "Scale"
  bottom: "L1_b10_cbr2_bn_top"
  top: "L1_b10_cbr2_bn_top"
  scale_param {
    bias_term: true
  }
}
layer {
  name: "L1_b10_sum_eltwise"
  type: "Eltwise"
  bottom: "L1_b10_cbr2_bn_top"
  bottom: "L1_b9_sum_eltwise_top"
  top: "L1_b10_sum_eltwise_top"
  eltwise_param {
    operation: SUM
  }
}
layer {
  name: "L1_b10_relu"
  type: "ReLU"
  bottom: "L1_b10_sum_eltwise_top"
  top: "L1_b10_sum_eltwise_top"
}
layer {
  name: "L1_b11_cbr1_conv"
  type: "Convolution"
  bottom: "L1_b10_sum_eltwise_top"
  top: "L1_b11_cbr1_conv_top"
  param {
    lr_mult: 1
    decay_mult: 1
  }
  param {
    lr_mult: 2
    decay_mult: 0
  }
  convolution_param {
    num_output: 16
    pad: 1
    kernel_size: 3
    stride: 1
    weight_filler {
      type: "msra"
    }
    bias_filler {
      type: "constant"
    }
  }
}
layer {
  name: "L1_b11_cbr1_bn"
  type: "BatchNorm"
  bottom: "L1_b11_cbr1_conv_top"
  top: "L1_b11_cbr1_bn_top"
  include {
    phase: TRAIN
  }
  batch_norm_param {
    use_global_stats: false
    moving_average_fraction: 0.95
  }
}
layer {
  name: "L1_b11_cbr1_scale"
  type: "Scale"
  bottom: "L1_b11_cbr1_bn_top"
  top: "L1_b11_cbr1_bn_top"
  scale_param {
    bias_term: true
  }
}
layer {
  name: "L1_b11_cbr1_relu"
  type: "ReLU"
  bottom: "L1_b11_cbr1_bn_top"
  top: "L1_b11_cbr1_bn_top"
}
layer {
  name: "L1_b11_cbr2_conv"
  type: "Convolution"
  bottom: "L1_b11_cbr1_bn_top"
  top: "L1_b11_cbr2_conv_top"
  param {
    lr_mult: 1
    decay_mult: 1
  }
  param {
    lr_mult: 2
    decay_mult: 0
  }
  convolution_param {
    num_output: 16
    pad: 1
    kernel_size: 3
    stride: 1
    weight_filler {
      type: "msra"
    }
    bias_filler {
      type: "constant"
    }
  }
}
layer {
  name: "L1_b11_cbr2_bn"
  type: "BatchNorm"
  bottom: "L1_b11_cbr2_conv_top"
  top: "L1_b11_cbr2_bn_top"
  include {
    phase: TRAIN
  }
  batch_norm_param {
    use_global_stats: false
    moving_average_fraction: 0.95
  }
}
layer {
  name: "L1_b11_cbr2_scale"
  type: "Scale"
  bottom: "L1_b11_cbr2_bn_top"
  top: "L1_b11_cbr2_bn_top"
  scale_param {
    bias_term: true
  }
}
layer {
  name: "L1_b11_sum_eltwise"
  type: "Eltwise"
  bottom: "L1_b11_cbr2_bn_top"
  bottom: "L1_b10_sum_eltwise_top"
  top: "L1_b11_sum_eltwise_top"
  eltwise_param {
    operation: SUM
  }
}
layer {
  name: "L1_b11_relu"
  type: "ReLU"
  bottom: "L1_b11_sum_eltwise_top"
  top: "L1_b11_sum_eltwise_top"
}
layer {
  name: "L1_b12_cbr1_conv"
  type: "Convolution"
  bottom: "L1_b11_sum_eltwise_top"
  top: "L1_b12_cbr1_conv_top"
  param {
    lr_mult: 1
    decay_mult: 1
  }
  param {
    lr_mult: 2
    decay_mult: 0
  }
  convolution_param {
    num_output: 16
    pad: 1
    kernel_size: 3
    stride: 1
    weight_filler {
      type: "msra"
    }
    bias_filler {
      type: "constant"
    }
  }
}
layer {
  name: "L1_b12_cbr1_bn"
  type: "BatchNorm"
  bottom: "L1_b12_cbr1_conv_top"
  top: "L1_b12_cbr1_bn_top"
  include {
    phase: TRAIN
  }
  batch_norm_param {
    use_global_stats: false
    moving_average_fraction: 0.95
  }
}
layer {
  name: "L1_b12_cbr1_scale"
  type: "Scale"
  bottom: "L1_b12_cbr1_bn_top"
  top: "L1_b12_cbr1_bn_top"
  scale_param {
    bias_term: true
  }
}
layer {
  name: "L1_b12_cbr1_relu"
  type: "ReLU"
  bottom: "L1_b12_cbr1_bn_top"
  top: "L1_b12_cbr1_bn_top"
}
layer {
  name: "L1_b12_cbr2_conv"
  type: "Convolution"
  bottom: "L1_b12_cbr1_bn_top"
  top: "L1_b12_cbr2_conv_top"
  param {
    lr_mult: 1
    decay_mult: 1
  }
  param {
    lr_mult: 2
    decay_mult: 0
  }
  convolution_param {
    num_output: 16
    pad: 1
    kernel_size: 3
    stride: 1
    weight_filler {
      type: "msra"
    }
    bias_filler {
      type: "constant"
    }
  }
}
layer {
  name: "L1_b12_cbr2_bn"
  type: "BatchNorm"
  bottom: "L1_b12_cbr2_conv_top"
  top: "L1_b12_cbr2_bn_top"
  include {
    phase: TRAIN
  }
  batch_norm_param {
    use_global_stats: false
    moving_average_fraction: 0.95
  }
}
layer {
  name: "L1_b12_cbr2_scale"
  type: "Scale"
  bottom: "L1_b12_cbr2_bn_top"
  top: "L1_b12_cbr2_bn_top"
  scale_param {
    bias_term: true
  }
}
layer {
  name: "L1_b12_sum_eltwise"
  type: "Eltwise"
  bottom: "L1_b12_cbr2_bn_top"
  bottom: "L1_b11_sum_eltwise_top"
  top: "L1_b12_sum_eltwise_top"
  eltwise_param {
    operation: SUM
  }
}
layer {
  name: "L1_b12_relu"
  type: "ReLU"
  bottom: "L1_b12_sum_eltwise_top"
  top: "L1_b12_sum_eltwise_top"
}
layer {
  name: "L1_b13_cbr1_conv"
  type: "Convolution"
  bottom: "L1_b12_sum_eltwise_top"
  top: "L1_b13_cbr1_conv_top"
  param {
    lr_mult: 1
    decay_mult: 1
  }
  param {
    lr_mult: 2
    decay_mult: 0
  }
  convolution_param {
    num_output: 16
    pad: 1
    kernel_size: 3
    stride: 1
    weight_filler {
      type: "msra"
    }
    bias_filler {
      type: "constant"
    }
  }
}
layer {
  name: "L1_b13_cbr1_bn"
  type: "BatchNorm"
  bottom: "L1_b13_cbr1_conv_top"
  top: "L1_b13_cbr1_bn_top"
  include {
    phase: TRAIN
  }
  batch_norm_param {
    use_global_stats: false
    moving_average_fraction: 0.95
  }
}
layer {
  name: "L1_b13_cbr1_scale"
  type: "Scale"
  bottom: "L1_b13_cbr1_bn_top"
  top: "L1_b13_cbr1_bn_top"
  scale_param {
    bias_term: true
  }
}
layer {
  name: "L1_b13_cbr1_relu"
  type: "ReLU"
  bottom: "L1_b13_cbr1_bn_top"
  top: "L1_b13_cbr1_bn_top"
}
layer {
  name: "L1_b13_cbr2_conv"
  type: "Convolution"
  bottom: "L1_b13_cbr1_bn_top"
  top: "L1_b13_cbr2_conv_top"
  param {
    lr_mult: 1
    decay_mult: 1
  }
  param {
    lr_mult: 2
    decay_mult: 0
  }
  convolution_param {
    num_output: 16
    pad: 1
    kernel_size: 3
    stride: 1
    weight_filler {
      type: "msra"
    }
    bias_filler {
      type: "constant"
    }
  }
}
layer {
  name: "L1_b13_cbr2_bn"
  type: "BatchNorm"
  bottom: "L1_b13_cbr2_conv_top"
  top: "L1_b13_cbr2_bn_top"
  include {
    phase: TRAIN
  }
  batch_norm_param {
    use_global_stats: false
    moving_average_fraction: 0.95
  }
}
layer {
  name: "L1_b13_cbr2_scale"
  type: "Scale"
  bottom: "L1_b13_cbr2_bn_top"
  top: "L1_b13_cbr2_bn_top"
  scale_param {
    bias_term: true
  }
}
layer {
  name: "L1_b13_sum_eltwise"
  type: "Eltwise"
  bottom: "L1_b13_cbr2_bn_top"
  bottom: "L1_b12_sum_eltwise_top"
  top: "L1_b13_sum_eltwise_top"
  eltwise_param {
    operation: SUM
  }
}
layer {
  name: "L1_b13_relu"
  type: "ReLU"
  bottom: "L1_b13_sum_eltwise_top"
  top: "L1_b13_sum_eltwise_top"
}
layer {
  name: "L1_b14_cbr1_conv"
  type: "Convolution"
  bottom: "L1_b13_sum_eltwise_top"
  top: "L1_b14_cbr1_conv_top"
  param {
    lr_mult: 1
    decay_mult: 1
  }
  param {
    lr_mult: 2
    decay_mult: 0
  }
  convolution_param {
    num_output: 16
    pad: 1
    kernel_size: 3
    stride: 1
    weight_filler {
      type: "msra"
    }
    bias_filler {
      type: "constant"
    }
  }
}
layer {
  name: "L1_b14_cbr1_bn"
  type: "BatchNorm"
  bottom: "L1_b14_cbr1_conv_top"
  top: "L1_b14_cbr1_bn_top"
  include {
    phase: TRAIN
  }
  batch_norm_param {
    use_global_stats: false
    moving_average_fraction: 0.95
  }
}
layer {
  name: "L1_b14_cbr1_scale"
  type: "Scale"
  bottom: "L1_b14_cbr1_bn_top"
  top: "L1_b14_cbr1_bn_top"
  scale_param {
    bias_term: true
  }
}
layer {
  name: "L1_b14_cbr1_relu"
  type: "ReLU"
  bottom: "L1_b14_cbr1_bn_top"
  top: "L1_b14_cbr1_bn_top"
}
layer {
  name: "L1_b14_cbr2_conv"
  type: "Convolution"
  bottom: "L1_b14_cbr1_bn_top"
  top: "L1_b14_cbr2_conv_top"
  param {
    lr_mult: 1
    decay_mult: 1
  }
  param {
    lr_mult: 2
    decay_mult: 0
  }
  convolution_param {
    num_output: 16
    pad: 1
    kernel_size: 3
    stride: 1
    weight_filler {
      type: "msra"
    }
    bias_filler {
      type: "constant"
    }
  }
}
layer {
  name: "L1_b14_cbr2_bn"
  type: "BatchNorm"
  bottom: "L1_b14_cbr2_conv_top"
  top: "L1_b14_cbr2_bn_top"
  include {
    phase: TRAIN
  }
  batch_norm_param {
    use_global_stats: false
    moving_average_fraction: 0.95
  }
}
layer {
  name: "L1_b14_cbr2_scale"
  type: "Scale"
  bottom: "L1_b14_cbr2_bn_top"
  top: "L1_b14_cbr2_bn_top"
  scale_param {
    bias_term: true
  }
}
layer {
  name: "L1_b14_sum_eltwise"
  type: "Eltwise"
  bottom: "L1_b14_cbr2_bn_top"
  bottom: "L1_b13_sum_eltwise_top"
  top: "L1_b14_sum_eltwise_top"
  eltwise_param {
    operation: SUM
  }
}
layer {
  name: "L1_b14_relu"
  type: "ReLU"
  bottom: "L1_b14_sum_eltwise_top"
  top: "L1_b14_sum_eltwise_top"
}
layer {
  name: "L1_b15_cbr1_conv"
  type: "Convolution"
  bottom: "L1_b14_sum_eltwise_top"
  top: "L1_b15_cbr1_conv_top"
  param {
    lr_mult: 1
    decay_mult: 1
  }
  param {
    lr_mult: 2
    decay_mult: 0
  }
  convolution_param {
    num_output: 16
    pad: 1
    kernel_size: 3
    stride: 1
    weight_filler {
      type: "msra"
    }
    bias_filler {
      type: "constant"
    }
  }
}
layer {
  name: "L1_b15_cbr1_bn"
  type: "BatchNorm"
  bottom: "L1_b15_cbr1_conv_top"
  top: "L1_b15_cbr1_bn_top"
  include {
    phase: TRAIN
  }
  batch_norm_param {
    use_global_stats: false
    moving_average_fraction: 0.95
  }
}
layer {
  name: "L1_b15_cbr1_scale"
  type: "Scale"
  bottom: "L1_b15_cbr1_bn_top"
  top: "L1_b15_cbr1_bn_top"
  scale_param {
    bias_term: true
  }
}
layer {
  name: "L1_b15_cbr1_relu"
  type: "ReLU"
  bottom: "L1_b15_cbr1_bn_top"
  top: "L1_b15_cbr1_bn_top"
}
layer {
  name: "L1_b15_cbr2_conv"
  type: "Convolution"
  bottom: "L1_b15_cbr1_bn_top"
  top: "L1_b15_cbr2_conv_top"
  param {
    lr_mult: 1
    decay_mult: 1
I0818 15:07:31.760318 21769 layer_factory.hpp:77] Creating layer dataLayer
I0818 15:07:31.762596 21769 net.cpp:100] Creating Layer dataLayer
I0818 15:07:31.762657 21769 net.cpp:408] dataLayer -> data_top
I0818 15:07:31.762866 21769 net.cpp:408] dataLayer -> label
I0818 15:07:31.762966 21769 data_transformer.cpp:25] Loading mean file from: examples/cifar10/mean.binaryproto
I0818 15:07:31.792853 21774 db_lmdb.cpp:35] Opened lmdb examples/cifar10/cifar10_train_lmdb
I0818 15:07:31.834955 21769 data_layer.cpp:41] output data size: 100,3,32,32
I0818 15:07:31.840919 21769 net.cpp:150] Setting up dataLayer
I0818 15:07:31.840986 21769 net.cpp:157] Top shape: 100 3 32 32 (307200)
I0818 15:07:31.840999 21769 net.cpp:157] Top shape: 100 (100)
I0818 15:07:31.841006 21769 net.cpp:165] Memory required for data: 1229200
I0818 15:07:31.841022 21769 layer_factory.hpp:77] Creating layer label_dataLayer_1_split
I0818 15:07:31.841037 21769 net.cpp:100] Creating Layer label_dataLayer_1_split
I0818 15:07:31.841045 21769 net.cpp:434] label_dataLayer_1_split <- label
I0818 15:07:31.841063 21769 net.cpp:408] label_dataLayer_1_split -> label_dataLayer_1_split_0
I0818 15:07:31.841085 21769 net.cpp:408] label_dataLayer_1_split -> label_dataLayer_1_split_1
I0818 15:07:31.841156 21769 net.cpp:150] Setting up label_dataLayer_1_split
I0818 15:07:31.841169 21769 net.cpp:157] Top shape: 100 (100)
I0818 15:07:31.841176 21769 net.cpp:157] Top shape: 100 (100)
I0818 15:07:31.841181 21769 net.cpp:165] Memory required for data: 1230000
I0818 15:07:31.841187 21769 layer_factory.hpp:77] Creating layer pre_conv
I0818 15:07:31.841254 21769 net.cpp:100] Creating Layer pre_conv
I0818 15:07:31.841267 21769 net.cpp:434] pre_conv <- data_top
I0818 15:07:31.841280 21769 net.cpp:408] pre_conv -> pre_conv_top
I0818 15:07:31.843139 21769 net.cpp:150] Setting up pre_conv
I0818 15:07:31.843160 21769 net.cpp:157] Top shape: 100 16 32 32 (1638400)
I0818 15:07:31.843166 21769 net.cpp:165] Memory required for data: 7783600
I0818 15:07:31.843225 21769 layer_factory.hpp:77] Creating layer pre_bn
I0818 15:07:31.843300 21769 net.cpp:100] Creating Layer pre_bn
I0818 15:07:31.843313 21769 net.cpp:434] pre_bn <- pre_conv_top
I0818 15:07:31.843322 21769 net.cpp:408] pre_bn -> pre_bn_top
I0818 15:07:31.843447 21775 blocking_queue.cpp:50] Waiting for data
I0818 15:07:31.843674 21769 net.cpp:150] Setting up pre_bn
I0818 15:07:31.843698 21769 net.cpp:157] Top shape: 100 16 32 32 (1638400)
I0818 15:07:31.843704 21769 net.cpp:165] Memory required for data: 14337200
I0818 15:07:31.843721 21769 layer_factory.hpp:77] Creating layer pre_scale
I0818 15:07:31.843777 21769 net.cpp:100] Creating Layer pre_scale
I0818 15:07:31.843788 21769 net.cpp:434] pre_scale <- pre_bn_top
I0818 15:07:31.843797 21769 net.cpp:395] pre_scale -> pre_bn_top (in-place)
I0818 15:07:31.843981 21769 layer_factory.hpp:77] Creating layer pre_scale
I0818 15:07:31.846307 21769 net.cpp:150] Setting up pre_scale
I0818 15:07:31.846324 21769 net.cpp:157] Top shape: 100 16 32 32 (1638400)
I0818 15:07:31.846330 21769 net.cpp:165] Memory required for data: 20890800
I0818 15:07:31.846343 21769 layer_factory.hpp:77] Creating layer pre_relu
I0818 15:07:31.846391 21769 net.cpp:100] Creating Layer pre_relu
I0818 15:07:31.846401 21769 net.cpp:434] pre_relu <- pre_bn_top
I0818 15:07:31.846413 21769 net.cpp:395] pre_relu -> pre_bn_top (in-place)
I0818 15:07:31.846424 21769 net.cpp:150] Setting up pre_relu
I0818 15:07:31.846432 21769 net.cpp:157] Top shape: 100 16 32 32 (1638400)
I0818 15:07:31.846437 21769 net.cpp:165] Memory required for data: 27444400
I0818 15:07:31.846442 21769 layer_factory.hpp:77] Creating layer pre_bn_top_pre_relu_0_split
I0818 15:07:31.846453 21769 net.cpp:100] Creating Layer pre_bn_top_pre_relu_0_split
I0818 15:07:31.846458 21769 net.cpp:434] pre_bn_top_pre_relu_0_split <- pre_bn_top
I0818 15:07:31.846467 21769 net.cpp:408] pre_bn_top_pre_relu_0_split -> pre_bn_top_pre_relu_0_split_0
I0818 15:07:31.846475 21769 net.cpp:408] pre_bn_top_pre_relu_0_split -> pre_bn_top_pre_relu_0_split_1
I0818 15:07:31.846524 21769 net.cpp:150] Setting up pre_bn_top_pre_relu_0_split
I0818 15:07:31.846536 21769 net.cpp:157] Top shape: 100 16 32 32 (1638400)
I0818 15:07:31.846544 21769 net.cpp:157] Top shape: 100 16 32 32 (1638400)
I0818 15:07:31.846547 21769 net.cpp:165] Memory required for data: 40551600
I0818 15:07:31.846552 21769 layer_factory.hpp:77] Creating layer L1_b1_cbr1_conv
I0818 15:07:31.846567 21769 net.cpp:100] Creating Layer L1_b1_cbr1_conv
I0818 15:07:31.846573 21769 net.cpp:434] L1_b1_cbr1_conv <- pre_bn_top_pre_relu_0_split_0
I0818 15:07:31.846582 21769 net.cpp:408] L1_b1_cbr1_conv -> L1_b1_cbr1_conv_top
I0818 15:07:31.846887 21769 net.cpp:150] Setting up L1_b1_cbr1_conv
I0818 15:07:31.846904 21769 net.cpp:157] Top shape: 100 16 32 32 (1638400)
I0818 15:07:31.846909 21769 net.cpp:165] Memory required for data: 47105200
I0818 15:07:31.846921 21769 layer_factory.hpp:77] Creating layer L1_b1_cbr1_bn
I0818 15:07:31.846935 21769 net.cpp:100] Creating Layer L1_b1_cbr1_bn
I0818 15:07:31.846942 21769 net.cpp:434] L1_b1_cbr1_bn <- L1_b1_cbr1_conv_top
I0818 15:07:31.846953 21769 net.cpp:408] L1_b1_cbr1_bn -> L1_b1_cbr1_bn_top
I0818 15:07:31.847183 21769 net.cpp:150] Setting up L1_b1_cbr1_bn
I0818 15:07:31.847196 21769 net.cpp:157] Top shape: 100 16 32 32 (1638400)
I0818 15:07:31.847201 21769 net.cpp:165] Memory required for data: 53658800
I0818 15:07:31.847213 21769 layer_factory.hpp:77] Creating layer L1_b1_cbr1_scale
I0818 15:07:31.847221 21769 net.cpp:100] Creating Layer L1_b1_cbr1_scale
I0818 15:07:31.847228 21769 net.cpp:434] L1_b1_cbr1_scale <- L1_b1_cbr1_bn_top
I0818 15:07:31.847235 21769 net.cpp:395] L1_b1_cbr1_scale -> L1_b1_cbr1_bn_top (in-place)
I0818 15:07:31.847290 21769 layer_factory.hpp:77] Creating layer L1_b1_cbr1_scale
I0818 15:07:31.847424 21769 net.cpp:150] Setting up L1_b1_cbr1_scale
I0818 15:07:31.847437 21769 net.cpp:157] Top shape: 100 16 32 32 (1638400)
I0818 15:07:31.847442 21769 net.cpp:165] Memory required for data: 60212400
I0818 15:07:31.847451 21769 layer_factory.hpp:77] Creating layer L1_b1_cbr1_relu
I0818 15:07:31.847460 21769 net.cpp:100] Creating Layer L1_b1_cbr1_relu
I0818 15:07:31.847465 21769 net.cpp:434] L1_b1_cbr1_relu <- L1_b1_cbr1_bn_top
I0818 15:07:31.847476 21769 net.cpp:395] L1_b1_cbr1_relu -> L1_b1_cbr1_bn_top (in-place)
I0818 15:07:31.847486 21769 net.cpp:150] Setting up L1_b1_cbr1_relu
I0818 15:07:31.847492 21769 net.cpp:157] Top shape: 100 16 32 32 (1638400)
I0818 15:07:31.847497 21769 net.cpp:165] Memory required for data: 66766000
I0818 15:07:31.847502 21769 layer_factory.hpp:77] Creating layer L1_b1_cbr2_conv
I0818 15:07:31.847515 21769 net.cpp:100] Creating Layer L1_b1_cbr2_conv
I0818 15:07:31.847522 21769 net.cpp:434] L1_b1_cbr2_conv <- L1_b1_cbr1_bn_top
I0818 15:07:31.847530 21769 net.cpp:408] L1_b1_cbr2_conv -> L1_b1_cbr2_conv_top
I0818 15:07:31.847843 21769 net.cpp:150] Setting up L1_b1_cbr2_conv
I0818 15:07:31.847867 21769 net.cpp:157] Top shape: 100 16 32 32 (1638400)
I0818 15:07:31.847873 21769 net.cpp:165] Memory required for data: 73319600
I0818 15:07:31.847882 21769 layer_factory.hpp:77] Creating layer L1_b1_cbr2_bn
I0818 15:07:31.847895 21769 net.cpp:100] Creating Layer L1_b1_cbr2_bn
I0818 15:07:31.847901 21769 net.cpp:434] L1_b1_cbr2_bn <- L1_b1_cbr2_conv_top
I0818 15:07:31.847909 21769 net.cpp:408] L1_b1_cbr2_bn -> L1_b1_cbr2_bn_top
I0818 15:07:31.848140 21769 net.cpp:150] Setting up L1_b1_cbr2_bn
I0818 15:07:31.848155 21769 net.cpp:157] Top shape: 100 16 32 32 (1638400)
I0818 15:07:31.848160 21769 net.cpp:165] Memory required for data: 79873200
I0818 15:07:31.848176 21769 layer_factory.hpp:77] Creating layer L1_b1_cbr2_scale
I0818 15:07:31.848184 21769 net.cpp:100] Creating Layer L1_b1_cbr2_scale
I0818 15:07:31.848191 21769 net.cpp:434] L1_b1_cbr2_scale <- L1_b1_cbr2_bn_top
I0818 15:07:31.848198 21769 net.cpp:395] L1_b1_cbr2_scale -> L1_b1_cbr2_bn_top (in-place)
I0818 15:07:31.848255 21769 layer_factory.hpp:77] Creating layer L1_b1_cbr2_scale
I0818 15:07:31.848392 21769 net.cpp:150] Setting up L1_b1_cbr2_scale
I0818 15:07:31.848404 21769 net.cpp:157] Top shape: 100 16 32 32 (1638400)
I0818 15:07:31.848409 21769 net.cpp:165] Memory required for data: 86426800
I0818 15:07:31.848419 21769 layer_factory.hpp:77] Creating layer L1_b1_sum_eltwise
I0818 15:07:31.848479 21769 net.cpp:100] Creating Layer L1_b1_sum_eltwise
I0818 15:07:31.848490 21769 net.cpp:434] L1_b1_sum_eltwise <- L1_b1_cbr2_bn_top
I0818 15:07:31.848498 21769 net.cpp:434] L1_b1_sum_eltwise <- pre_bn_top_pre_relu_0_split_1
I0818 15:07:31.848506 21769 net.cpp:408] L1_b1_sum_eltwise -> L1_b1_sum_eltwise_top
I0818 15:07:31.848585 21769 net.cpp:150] Setting up L1_b1_sum_eltwise
I0818 15:07:31.848600 21769 net.cpp:157] Top shape: 100 16 32 32 (1638400)
I0818 15:07:31.848605 21769 net.cpp:165] Memory required for data: 92980400
I0818 15:07:31.848611 21769 layer_factory.hpp:77] Creating layer L1_b1_relu
I0818 15:07:31.848619 21769 net.cpp:100] Creating Layer L1_b1_relu
I0818 15:07:31.848625 21769 net.cpp:434] L1_b1_relu <- L1_b1_sum_eltwise_top
I0818 15:07:31.848633 21769 net.cpp:395] L1_b1_relu -> L1_b1_sum_eltwise_top (in-place)
I0818 15:07:31.848641 21769 net.cpp:150] Setting up L1_b1_relu
I0818 15:07:31.848649 21769 net.cpp:157] Top shape: 100 16 32 32 (1638400)
I0818 15:07:31.848654 21769 net.cpp:165] Memory required for data: 99534000
I0818 15:07:31.848659 21769 layer_factory.hpp:77] Creating layer L1_b1_sum_eltwise_top_L1_b1_relu_0_split
I0818 15:07:31.848667 21769 net.cpp:100] Creating Layer L1_b1_sum_eltwise_top_L1_b1_relu_0_split
I0818 15:07:31.848672 21769 net.cpp:434] L1_b1_sum_eltwise_top_L1_b1_relu_0_split <- L1_b1_sum_eltwise_top
I0818 15:07:31.848688 21769 net.cpp:408] L1_b1_sum_eltwise_top_L1_b1_relu_0_split -> L1_b1_sum_eltwise_top_L1_b1_relu_0_split_0
I0818 15:07:31.848700 21769 net.cpp:408] L1_b1_sum_eltwise_top_L1_b1_relu_0_split -> L1_b1_sum_eltwise_top_L1_b1_relu_0_split_1
I0818 15:07:31.848742 21769 net.cpp:150] Setting up L1_b1_sum_eltwise_top_L1_b1_relu_0_split
I0818 15:07:31.848753 21769 net.cpp:157] Top shape: 100 16 32 32 (1638400)
I0818 15:07:31.848759 21769 net.cpp:157] Top shape: 100 16 32 32 (1638400)
I0818 15:07:31.848764 21769 net.cpp:165] Memory required for data: 112641200
I0818 15:07:31.848769 21769 layer_factory.hpp:77] Creating layer L1_b2_cbr1_conv
I0818 15:07:31.848784 21769 net.cpp:100] Creating Layer L1_b2_cbr1_conv
I0818 15:07:31.848791 21769 net.cpp:434] L1_b2_cbr1_conv <- L1_b1_sum_eltwise_top_L1_b1_relu_0_split_0
I0818 15:07:31.848800 21769 net.cpp:408] L1_b2_cbr1_conv -> L1_b2_cbr1_conv_top
I0818 15:07:31.849108 21769 net.cpp:150] Setting up L1_b2_cbr1_conv
I0818 15:07:31.849123 21769 net.cpp:157] Top shape: 100 16 32 32 (1638400)
I0818 15:07:31.849128 21769 net.cpp:165] Memory required for data: 119194800
I0818 15:07:31.849138 21769 layer_factory.hpp:77] Creating layer L1_b2_cbr1_bn
I0818 15:07:31.849149 21769 net.cpp:100] Creating Layer L1_b2_cbr1_bn
I0818 15:07:31.849155 21769 net.cpp:434] L1_b2_cbr1_bn <- L1_b2_cbr1_conv_top
I0818 15:07:31.849171 21769 net.cpp:408] L1_b2_cbr1_bn -> L1_b2_cbr1_bn_top
I0818 15:07:31.849407 21769 net.cpp:150] Setting up L1_b2_cbr1_bn
I0818 15:07:31.849421 21769 net.cpp:157] Top shape: 100 16 32 32 (1638400)
I0818 15:07:31.849426 21769 net.cpp:165] Memory required for data: 125748400
I0818 15:07:31.849437 21769 layer_factory.hpp:77] Creating layer L1_b2_cbr1_scale
I0818 15:07:31.849447 21769 net.cpp:100] Creating Layer L1_b2_cbr1_scale
I0818 15:07:31.849452 21769 net.cpp:434] L1_b2_cbr1_scale <- L1_b2_cbr1_bn_top
I0818 15:07:31.849462 21769 net.cpp:395] L1_b2_cbr1_scale -> L1_b2_cbr1_bn_top (in-place)
I0818 15:07:31.849516 21769 layer_factory.hpp:77] Creating layer L1_b2_cbr1_scale
I0818 15:07:31.849656 21769 net.cpp:150] Setting up L1_b2_cbr1_scale
I0818 15:07:31.849670 21769 net.cpp:157] Top shape: 100 16 32 32 (1638400)
I0818 15:07:31.849675 21769 net.cpp:165] Memory required for data: 132302000
I0818 15:07:31.849691 21769 layer_factory.hpp:77] Creating layer L1_b2_cbr1_relu
I0818 15:07:31.849700 21769 net.cpp:100] Creating Layer L1_b2_cbr1_relu
I0818 15:07:31.849705 21769 net.cpp:434] L1_b2_cbr1_relu <- L1_b2_cbr1_bn_top
I0818 15:07:31.849716 21769 net.cpp:395] L1_b2_cbr1_relu -> L1_b2_cbr1_bn_top (in-place)
I0818 15:07:31.849726 21769 net.cpp:150] Setting up L1_b2_cbr1_relu
I0818 15:07:31.849733 21769 net.cpp:157] Top shape: 100 16 32 32 (1638400)
I0818 15:07:31.849738 21769 net.cpp:165] Memory required for data: 138855600
I0818 15:07:31.849743 21769 layer_factory.hpp:77] Creating layer L1_b2_cbr2_conv
I0818 15:07:31.849757 21769 net.cpp:100] Creating Layer L1_b2_cbr2_conv
I0818 15:07:31.849763 21769 net.cpp:434] L1_b2_cbr2_conv <- L1_b2_cbr1_bn_top
I0818 15:07:31.849771 21769 net.cpp:408] L1_b2_cbr2_conv -> L1_b2_cbr2_conv_top
I0818 15:07:31.850076 21769 net.cpp:150] Setting up L1_b2_cbr2_conv
I0818 15:07:31.850091 21769 net.cpp:157] Top shape: 100 16 32 32 (1638400)
I0818 15:07:31.850096 21769 net.cpp:165] Memory required for data: 145409200
I0818 15:07:31.850105 21769 layer_factory.hpp:77] Creating layer L1_b2_cbr2_bn
I0818 15:07:31.850113 21769 net.cpp:100] Creating Layer L1_b2_cbr2_bn
I0818 15:07:31.850119 21769 net.cpp:434] L1_b2_cbr2_bn <- L1_b2_cbr2_conv_top
I0818 15:07:31.850131 21769 net.cpp:408] L1_b2_cbr2_bn -> L1_b2_cbr2_bn_top
I0818 15:07:31.850359 21769 net.cpp:150] Setting up L1_b2_cbr2_bn
I0818 15:07:31.850373 21769 net.cpp:157] Top shape: 100 16 32 32 (1638400)
I0818 15:07:31.850378 21769 net.cpp:165] Memory required for data: 151962800
I0818 15:07:31.850396 21769 layer_factory.hpp:77] Creating layer L1_b2_cbr2_scale
I0818 15:07:31.850406 21769 net.cpp:100] Creating Layer L1_b2_cbr2_scale
I0818 15:07:31.850412 21769 net.cpp:434] L1_b2_cbr2_scale <- L1_b2_cbr2_bn_top
I0818 15:07:31.850422 21769 net.cpp:395] L1_b2_cbr2_scale -> L1_b2_cbr2_bn_top (in-place)
I0818 15:07:31.850476 21769 layer_factory.hpp:77] Creating layer L1_b2_cbr2_scale
I0818 15:07:31.850610 21769 net.cpp:150] Setting up L1_b2_cbr2_scale
I0818 15:07:31.850623 21769 net.cpp:157] Top shape: 100 16 32 32 (1638400)
I0818 15:07:31.850628 21769 net.cpp:165] Memory required for data: 158516400
I0818 15:07:31.850636 21769 layer_factory.hpp:77] Creating layer L1_b2_sum_eltwise
I0818 15:07:31.850649 21769 net.cpp:100] Creating Layer L1_b2_sum_eltwise
I0818 15:07:31.850656 21769 net.cpp:434] L1_b2_sum_eltwise <- L1_b2_cbr2_bn_top
I0818 15:07:31.850662 21769 net.cpp:434] L1_b2_sum_eltwise <- L1_b1_sum_eltwise_top_L1_b1_relu_0_split_1
I0818 15:07:31.850669 21769 net.cpp:408] L1_b2_sum_eltwise -> L1_b2_sum_eltwise_top
I0818 15:07:31.850715 21769 net.cpp:150] Setting up L1_b2_sum_eltwise
I0818 15:07:31.850728 21769 net.cpp:157] Top shape: 100 16 32 32 (1638400)
I0818 15:07:31.850733 21769 net.cpp:165] Memory required for data: 165070000
I0818 15:07:31.850739 21769 layer_factory.hpp:77] Creating layer L1_b2_relu
I0818 15:07:31.850745 21769 net.cpp:100] Creating Layer L1_b2_relu
I0818 15:07:31.850751 21769 net.cpp:434] L1_b2_relu <- L1_b2_sum_eltwise_top
I0818 15:07:31.850761 21769 net.cpp:395] L1_b2_relu -> L1_b2_sum_eltwise_top (in-place)
I0818 15:07:31.850778 21769 net.cpp:150] Setting up L1_b2_relu
I0818 15:07:31.850786 21769 net.cpp:157] Top shape: 100 16 32 32 (1638400)
I0818 15:07:31.850790 21769 net.cpp:165] Memory required for data: 171623600
I0818 15:07:31.850795 21769 layer_factory.hpp:77] Creating layer L1_b2_sum_eltwise_top_L1_b2_relu_0_split
I0818 15:07:31.850802 21769 net.cpp:100] Creating Layer L1_b2_sum_eltwise_top_L1_b2_relu_0_split
I0818 15:07:31.850807 21769 net.cpp:434] L1_b2_sum_eltwise_top_L1_b2_relu_0_split <- L1_b2_sum_eltwise_top
I0818 15:07:31.850814 21769 net.cpp:408] L1_b2_sum_eltwise_top_L1_b2_relu_0_split -> L1_b2_sum_eltwise_top_L1_b2_relu_0_split_0
I0818 15:07:31.850824 21769 net.cpp:408] L1_b2_sum_eltwise_top_L1_b2_relu_0_split -> L1_b2_sum_eltwise_top_L1_b2_relu_0_split_1
I0818 15:07:31.850867 21769 net.cpp:150] Setting up L1_b2_sum_eltwise_top_L1_b2_relu_0_split
I0818 15:07:31.850879 21769 net.cpp:157] Top shape: 100 16 32 32 (1638400)
I0818 15:07:31.850886 21769 net.cpp:157] Top shape: 100 16 32 32 (1638400)
I0818 15:07:31.850890 21769 net.cpp:165] Memory required for data: 184730800
I0818 15:07:31.850896 21769 layer_factory.hpp:77] Creating layer L1_b3_cbr1_conv
I0818 15:07:31.850908 21769 net.cpp:100] Creating Layer L1_b3_cbr1_conv
I0818 15:07:31.850913 21769 net.cpp:434] L1_b3_cbr1_conv <- L1_b2_sum_eltwise_top_L1_b2_relu_0_split_0
I0818 15:07:31.850924 21769 net.cpp:408] L1_b3_cbr1_conv -> L1_b3_cbr1_conv_top
I0818 15:07:31.851217 21769 net.cpp:150] Setting up L1_b3_cbr1_conv
I0818 15:07:31.851233 21769 net.cpp:157] Top shape: 100 16 32 32 (1638400)
I0818 15:07:31.851238 21769 net.cpp:165] Memory required for data: 191284400
I0818 15:07:31.851246 21769 layer_factory.hpp:77] Creating layer L1_b3_cbr1_bn
I0818 15:07:31.851255 21769 net.cpp:100] Creating Layer L1_b3_cbr1_bn
I0818 15:07:31.851261 21769 net.cpp:434] L1_b3_cbr1_bn <- L1_b3_cbr1_conv_top
I0818 15:07:31.851274 21769 net.cpp:408] L1_b3_cbr1_bn -> L1_b3_cbr1_bn_top
I0818 15:07:31.851508 21769 net.cpp:150] Setting up L1_b3_cbr1_bn
I0818 15:07:31.851524 21769 net.cpp:157] Top shape: 100 16 32 32 (1638400)
I0818 15:07:31.851531 21769 net.cpp:165] Memory required for data: 197838000
I0818 15:07:31.851541 21769 layer_factory.hpp:77] Creating layer L1_b3_cbr1_scale
I0818 15:07:31.851549 21769 net.cpp:100] Creating Layer L1_b3_cbr1_scale
I0818 15:07:31.851555 21769 net.cpp:434] L1_b3_cbr1_scale <- L1_b3_cbr1_bn_top
I0818 15:07:31.851562 21769 net.cpp:395] L1_b3_cbr1_scale -> L1_b3_cbr1_bn_top (in-place)
I0818 15:07:31.851613 21769 layer_factory.hpp:77] Creating layer L1_b3_cbr1_scale
I0818 15:07:31.851758 21769 net.cpp:150] Setting up L1_b3_cbr1_scale
I0818 15:07:31.851773 21769 net.cpp:157] Top shape: 100 16 32 32 (1638400)
I0818 15:07:31.851778 21769 net.cpp:165] Memory required for data: 204391600
I0818 15:07:31.851786 21769 layer_factory.hpp:77] Creating layer L1_b3_cbr1_relu
I0818 15:07:31.851797 21769 net.cpp:100] Creating Layer L1_b3_cbr1_relu
I0818 15:07:31.851804 21769 net.cpp:434] L1_b3_cbr1_relu <- L1_b3_cbr1_bn_top
I0818 15:07:31.851811 21769 net.cpp:395] L1_b3_cbr1_relu -> L1_b3_cbr1_bn_top (in-place)
I0818 15:07:31.851820 21769 net.cpp:150] Setting up L1_b3_cbr1_relu
I0818 15:07:31.851827 21769 net.cpp:157] Top shape: 100 16 32 32 (1638400)
I0818 15:07:31.851832 21769 net.cpp:165] Memory required for data: 210945200
I0818 15:07:31.851837 21769 layer_factory.hpp:77] Creating layer L1_b3_cbr2_conv
I0818 15:07:31.851851 21769 net.cpp:100] Creating Layer L1_b3_cbr2_conv
I0818 15:07:31.851857 21769 net.cpp:434] L1_b3_cbr2_conv <- L1_b3_cbr1_bn_top
I0818 15:07:31.851868 21769 net.cpp:408] L1_b3_cbr2_conv -> L1_b3_cbr2_conv_top
I0818 15:07:31.852166 21769 net.cpp:150] Setting up L1_b3_cbr2_conv
I0818 15:07:31.852180 21769 net.cpp:157] Top shape: 100 16 32 32 (1638400)
I0818 15:07:31.852185 21769 net.cpp:165] Memory required for data: 217498800
I0818 15:07:31.852195 21769 layer_factory.hpp:77] Creating layer L1_b3_cbr2_bn
I0818 15:07:31.852208 21769 net.cpp:100] Creating Layer L1_b3_cbr2_bn
I0818 15:07:31.852214 21769 net.cpp:434] L1_b3_cbr2_bn <- L1_b3_cbr2_conv_top
I0818 15:07:31.852231 21769 net.cpp:408] L1_b3_cbr2_bn -> L1_b3_cbr2_bn_top
I0818 15:07:31.852461 21769 net.cpp:150] Setting up L1_b3_cbr2_bn
I0818 15:07:31.852478 21769 net.cpp:157] Top shape: 100 16 32 32 (1638400)
I0818 15:07:31.852483 21769 net.cpp:165] Memory required for data: 224052400
I0818 15:07:31.852494 21769 layer_factory.hpp:77] Creating layer L1_b3_cbr2_scale
I0818 15:07:31.852504 21769 net.cpp:100] Creating Layer L1_b3_cbr2_scale
I0818 15:07:31.852509 21769 net.cpp:434] L1_b3_cbr2_scale <- L1_b3_cbr2_bn_top
I0818 15:07:31.852517 21769 net.cpp:395] L1_b3_cbr2_scale -> L1_b3_cbr2_bn_top (in-place)
I0818 15:07:31.852568 21769 layer_factory.hpp:77] Creating layer L1_b3_cbr2_scale
I0818 15:07:31.852710 21769 net.cpp:150] Setting up L1_b3_cbr2_scale
I0818 15:07:31.852723 21769 net.cpp:157] Top shape: 100 16 32 32 (1638400)
I0818 15:07:31.852728 21769 net.cpp:165] Memory required for data: 230606000
I0818 15:07:31.852737 21769 layer_factory.hpp:77] Creating layer L1_b3_sum_eltwise
I0818 15:07:31.852754 21769 net.cpp:100] Creating Layer L1_b3_sum_eltwise
I0818 15:07:31.852761 21769 net.cpp:434] L1_b3_sum_eltwise <- L1_b3_cbr2_bn_top
I0818 15:07:31.852769 21769 net.cpp:434] L1_b3_sum_eltwise <- L1_b2_sum_eltwise_top_L1_b2_relu_0_split_1
I0818 15:07:31.852779 21769 net.cpp:408] L1_b3_sum_eltwise -> L1_b3_sum_eltwise_top
I0818 15:07:31.852810 21769 net.cpp:150] Setting up L1_b3_sum_eltwise
I0818 15:07:31.852821 21769 net.cpp:157] Top shape: 100 16 32 32 (1638400)
I0818 15:07:31.852826 21769 net.cpp:165] Memory required for data: 237159600
I0818 15:07:31.852831 21769 layer_factory.hpp:77] Creating layer L1_b3_relu
I0818 15:07:31.852843 21769 net.cpp:100] Creating Layer L1_b3_relu
I0818 15:07:31.852849 21769 net.cpp:434] L1_b3_relu <- L1_b3_sum_eltwise_top
I0818 15:07:31.852855 21769 net.cpp:395] L1_b3_relu -> L1_b3_sum_eltwise_top (in-place)
I0818 15:07:31.852864 21769 net.cpp:150] Setting up L1_b3_relu
I0818 15:07:31.852871 21769 net.cpp:157] Top shape: 100 16 32 32 (1638400)
I0818 15:07:31.852875 21769 net.cpp:165] Memory required for data: 243713200
I0818 15:07:31.852880 21769 layer_factory.hpp:77] Creating layer L1_b3_sum_eltwise_top_L1_b3_relu_0_split
I0818 15:07:31.852887 21769 net.cpp:100] Creating Layer L1_b3_sum_eltwise_top_L1_b3_relu_0_split
I0818 15:07:31.852893 21769 net.cpp:434] L1_b3_sum_eltwise_top_L1_b3_relu_0_split <- L1_b3_sum_eltwise_top
I0818 15:07:31.852900 21769 net.cpp:408] L1_b3_sum_eltwise_top_L1_b3_relu_0_split -> L1_b3_sum_eltwise_top_L1_b3_relu_0_split_0
I0818 15:07:31.852910 21769 net.cpp:408] L1_b3_sum_eltwise_top_L1_b3_relu_0_split -> L1_b3_sum_eltwise_top_L1_b3_relu_0_split_1
I0818 15:07:31.852954 21769 net.cpp:150] Setting up L1_b3_sum_eltwise_top_L1_b3_relu_0_split
I0818 15:07:31.852967 21769 net.cpp:157] Top shape: 100 16 32 32 (1638400)
I0818 15:07:31.852972 21769 net.cpp:157] Top shape: 100 16 32 32 (1638400)
I0818 15:07:31.852977 21769 net.cpp:165] Memory required for data: 256820400
I0818 15:07:31.852982 21769 layer_factory.hpp:77] Creating layer L1_b4_cbr1_conv
I0818 15:07:31.852996 21769 net.cpp:100] Creating Layer L1_b4_cbr1_conv
I0818 15:07:31.853003 21769 net.cpp:434] L1_b4_cbr1_conv <- L1_b3_sum_eltwise_top_L1_b3_relu_0_split_0
I0818 15:07:31.853011 21769 net.cpp:408] L1_b4_cbr1_conv -> L1_b4_cbr1_conv_top
I0818 15:07:31.853310 21769 net.cpp:150] Setting up L1_b4_cbr1_conv
I0818 15:07:31.853323 21769 net.cpp:157] Top shape: 100 16 32 32 (1638400)
I0818 15:07:31.853328 21769 net.cpp:165] Memory required for data: 263374000
I0818 15:07:31.853338 21769 layer_factory.hpp:77] Creating layer L1_b4_cbr1_bn
I0818 15:07:31.853349 21769 net.cpp:100] Creating Layer L1_b4_cbr1_bn
I0818 15:07:31.853356 21769 net.cpp:434] L1_b4_cbr1_bn <- L1_b4_cbr1_conv_top
I0818 15:07:31.853364 21769 net.cpp:408] L1_b4_cbr1_bn -> L1_b4_cbr1_bn_top
I0818 15:07:31.853595 21769 net.cpp:150] Setting up L1_b4_cbr1_bn
I0818 15:07:31.853611 21769 net.cpp:157] Top shape: 100 16 32 32 (1638400)
I0818 15:07:31.853617 21769 net.cpp:165] Memory required for data: 269927600
I0818 15:07:31.853636 21769 layer_factory.hpp:77] Creating layer L1_b4_cbr1_scale
I0818 15:07:31.853644 21769 net.cpp:100] Creating Layer L1_b4_cbr1_scale
I0818 15:07:31.853651 21769 net.cpp:434] L1_b4_cbr1_scale <- L1_b4_cbr1_bn_top
I0818 15:07:31.853658 21769 net.cpp:395] L1_b4_cbr1_scale -> L1_b4_cbr1_bn_top (in-place)
I0818 15:07:31.853721 21769 layer_factory.hpp:77] Creating layer L1_b4_cbr1_scale
I0818 15:07:31.853860 21769 net.cpp:150] Setting up L1_b4_cbr1_scale
I0818 15:07:31.853874 21769 net.cpp:157] Top shape: 100 16 32 32 (1638400)
I0818 15:07:31.853879 21769 net.cpp:165] Memory required for data: 276481200
I0818 15:07:31.853888 21769 layer_factory.hpp:77] Creating layer L1_b4_cbr1_relu
I0818 15:07:31.853895 21769 net.cpp:100] Creating Layer L1_b4_cbr1_relu
I0818 15:07:31.853901 21769 net.cpp:434] L1_b4_cbr1_relu <- L1_b4_cbr1_bn_top
I0818 15:07:31.853911 21769 net.cpp:395] L1_b4_cbr1_relu -> L1_b4_cbr1_bn_top (in-place)
I0818 15:07:31.853921 21769 net.cpp:150] Setting up L1_b4_cbr1_relu
I0818 15:07:31.853929 21769 net.cpp:157] Top shape: 100 16 32 32 (1638400)
I0818 15:07:31.853934 21769 net.cpp:165] Memory required for data: 283034800
I0818 15:07:31.853938 21769 layer_factory.hpp:77] Creating layer L1_b4_cbr2_conv
I0818 15:07:31.853950 21769 net.cpp:100] Creating Layer L1_b4_cbr2_conv
I0818 15:07:31.853955 21769 net.cpp:434] L1_b4_cbr2_conv <- L1_b4_cbr1_bn_top
I0818 15:07:31.853965 21769 net.cpp:408] L1_b4_cbr2_conv -> L1_b4_cbr2_conv_top
I0818 15:07:31.854266 21769 net.cpp:150] Setting up L1_b4_cbr2_conv
I0818 15:07:31.854280 21769 net.cpp:157] Top shape: 100 16 32 32 (1638400)
I0818 15:07:31.854285 21769 net.cpp:165] Memory required for data: 289588400
I0818 15:07:31.854295 21769 layer_factory.hpp:77] Creating layer L1_b4_cbr2_bn
I0818 15:07:31.854303 21769 net.cpp:100] Creating Layer L1_b4_cbr2_bn
I0818 15:07:31.854310 21769 net.cpp:434] L1_b4_cbr2_bn <- L1_b4_cbr2_conv_top
I0818 15:07:31.854321 21769 net.cpp:408] L1_b4_cbr2_bn -> L1_b4_cbr2_bn_top
I0818 15:07:31.854562 21769 net.cpp:150] Setting up L1_b4_cbr2_bn
I0818 15:07:31.854576 21769 net.cpp:157] Top shape: 100 16 32 32 (1638400)
I0818 15:07:31.854583 21769 net.cpp:165] Memory required for data: 296142000
I0818 15:07:31.854593 21769 layer_factory.hpp:77] Creating layer L1_b4_cbr2_scale
I0818 15:07:31.854601 21769 net.cpp:100] Creating Layer L1_b4_cbr2_scale
I0818 15:07:31.854606 21769 net.cpp:434] L1_b4_cbr2_scale <- L1_b4_cbr2_bn_top
I0818 15:07:31.854614 21769 net.cpp:395] L1_b4_cbr2_scale -> L1_b4_cbr2_bn_top (in-place)
I0818 15:07:31.854668 21769 layer_factory.hpp:77] Creating layer L1_b4_cbr2_scale
I0818 15:07:31.854809 21769 net.cpp:150] Setting up L1_b4_cbr2_scale
I0818 15:07:31.854825 21769 net.cpp:157] Top shape: 100 16 32 32 (1638400)
I0818 15:07:31.854830 21769 net.cpp:165] Memory required for data: 302695600
I0818 15:07:31.854838 21769 layer_factory.hpp:77] Creating layer L1_b4_sum_eltwise
I0818 15:07:31.854847 21769 net.cpp:100] Creating Layer L1_b4_sum_eltwise
I0818 15:07:31.854853 21769 net.cpp:434] L1_b4_sum_eltwise <- L1_b4_cbr2_bn_top
I0818 15:07:31.854861 21769 net.cpp:434] L1_b4_sum_eltwise <- L1_b3_sum_eltwise_top_L1_b3_relu_0_split_1
I0818 15:07:31.854871 21769 net.cpp:408] L1_b4_sum_eltwise -> L1_b4_sum_eltwise_top
I0818 15:07:31.854902 21769 net.cpp:150] Setting up L1_b4_sum_eltwise
I0818 15:07:31.854912 21769 net.cpp:157] Top shape: 100 16 32 32 (1638400)
I0818 15:07:31.854917 21769 net.cpp:165] Memory required for data: 309249200
I0818 15:07:31.854921 21769 layer_factory.hpp:77] Creating layer L1_b4_relu
I0818 15:07:31.854933 21769 net.cpp:100] Creating Layer L1_b4_relu
I0818 15:07:31.854938 21769 net.cpp:434] L1_b4_relu <- L1_b4_sum_eltwise_top
I0818 15:07:31.854945 21769 net.cpp:395] L1_b4_relu -> L1_b4_sum_eltwise_top (in-place)
I0818 15:07:31.854954 21769 net.cpp:150] Setting up L1_b4_relu
I0818 15:07:31.854961 21769 net.cpp:157] Top shape: 100 16 32 32 (1638400)
I0818 15:07:31.854965 21769 net.cpp:165] Memory required for data: 315802800
I0818 15:07:31.854970 21769 layer_factory.hpp:77] Creating layer L1_b4_sum_eltwise_top_L1_b4_relu_0_split
I0818 15:07:31.854984 21769 net.cpp:100] Creating Layer L1_b4_sum_eltwise_top_L1_b4_relu_0_split
I0818 15:07:31.854990 21769 net.cpp:434] L1_b4_sum_eltwise_top_L1_b4_relu_0_split <- L1_b4_sum_eltwise_top
I0818 15:07:31.854998 21769 net.cpp:408] L1_b4_sum_eltwise_top_L1_b4_relu_0_split -> L1_b4_sum_eltwise_top_L1_b4_relu_0_split_0
I0818 15:07:31.855007 21769 net.cpp:408] L1_b4_sum_eltwise_top_L1_b4_relu_0_split -> L1_b4_sum_eltwise_top_L1_b4_relu_0_split_1
I0818 15:07:31.855051 21769 net.cpp:150] Setting up L1_b4_sum_eltwise_top_L1_b4_relu_0_split
I0818 15:07:31.855063 21769 net.cpp:157] Top shape: 100 16 32 32 (1638400)
I0818 15:07:31.855070 21769 net.cpp:157] Top shape: 100 16 32 32 (1638400)
I0818 15:07:31.855074 21769 net.cpp:165] Memory required for data: 328910000
I0818 15:07:31.855079 21769 layer_factory.hpp:77] Creating layer L1_b5_cbr1_conv
I0818 15:07:31.855093 21769 net.cpp:100] Creating Layer L1_b5_cbr1_conv
I0818 15:07:31.855100 21769 net.cpp:434] L1_b5_cbr1_conv <- L1_b4_sum_eltwise_top_L1_b4_relu_0_split_0
I0818 15:07:31.855109 21769 net.cpp:408] L1_b5_cbr1_conv -> L1_b5_cbr1_conv_top
I0818 15:07:31.855412 21769 net.cpp:150] Setting up L1_b5_cbr1_conv
I0818 15:07:31.855425 21769 net.cpp:157] Top shape: 100 16 32 32 (1638400)
I0818 15:07:31.855430 21769 net.cpp:165] Memory required for data: 335463600
I0818 15:07:31.855453 21769 layer_factory.hpp:77] Creating layer L1_b5_cbr1_bn
I0818 15:07:31.855464 21769 net.cpp:100] Creating Layer L1_b5_cbr1_bn
I0818 15:07:31.855471 21769 net.cpp:434] L1_b5_cbr1_bn <- L1_b5_cbr1_conv_top
I0818 15:07:31.855482 21769 net.cpp:408] L1_b5_cbr1_bn -> L1_b5_cbr1_bn_top
I0818 15:07:31.855727 21769 net.cpp:150] Setting up L1_b5_cbr1_bn
I0818 15:07:31.855741 21769 net.cpp:157] Top shape: 100 16 32 32 (1638400)
I0818 15:07:31.855746 21769 net.cpp:165] Memory required for data: 342017200
I0818 15:07:31.855757 21769 layer_factory.hpp:77] Creating layer L1_b5_cbr1_scale
I0818 15:07:31.855767 21769 net.cpp:100] Creating Layer L1_b5_cbr1_scale
I0818 15:07:31.855772 21769 net.cpp:434] L1_b5_cbr1_scale <- L1_b5_cbr1_bn_top
I0818 15:07:31.855779 21769 net.cpp:395] L1_b5_cbr1_scale -> L1_b5_cbr1_bn_top (in-place)
I0818 15:07:31.855834 21769 layer_factory.hpp:77] Creating layer L1_b5_cbr1_scale
I0818 15:07:31.855973 21769 net.cpp:150] Setting up L1_b5_cbr1_scale
I0818 15:07:31.855985 21769 net.cpp:157] Top shape: 100 16 32 32 (1638400)
I0818 15:07:31.855990 21769 net.cpp:165] Memory required for data: 348570800
I0818 15:07:31.855999 21769 layer_factory.hpp:77] Creating layer L1_b5_cbr1_relu
I0818 15:07:31.856007 21769 net.cpp:100] Creating Layer L1_b5_cbr1_relu
I0818 15:07:31.856014 21769 net.cpp:434] L1_b5_cbr1_relu <- L1_b5_cbr1_bn_top
I0818 15:07:31.856024 21769 net.cpp:395] L1_b5_cbr1_relu -> L1_b5_cbr1_bn_top (in-place)
I0818 15:07:31.856034 21769 net.cpp:150] Setting up L1_b5_cbr1_relu
I0818 15:07:31.856040 21769 net.cpp:157] Top shape: 100 16 32 32 (1638400)
I0818 15:07:31.856045 21769 net.cpp:165] Memory required for data: 355124400
I0818 15:07:31.856050 21769 layer_factory.hpp:77] Creating layer L1_b5_cbr2_conv
I0818 15:07:31.856063 21769 net.cpp:100] Creating Layer L1_b5_cbr2_conv
I0818 15:07:31.856070 21769 net.cpp:434] L1_b5_cbr2_conv <- L1_b5_cbr1_bn_top
I0818 15:07:31.856078 21769 net.cpp:408] L1_b5_cbr2_conv -> L1_b5_cbr2_conv_top
I0818 15:07:31.856385 21769 net.cpp:150] Setting up L1_b5_cbr2_conv
I0818 15:07:31.856400 21769 net.cpp:157] Top shape: 100 16 32 32 (1638400)
I0818 15:07:31.856405 21769 net.cpp:165] Memory required for data: 361678000
I0818 15:07:31.856413 21769 layer_factory.hpp:77] Creating layer L1_b5_cbr2_bn
I0818 15:07:31.856422 21769 net.cpp:100] Creating Layer L1_b5_cbr2_bn
I0818 15:07:31.856428 21769 net.cpp:434] L1_b5_cbr2_bn <- L1_b5_cbr2_conv_top
I0818 15:07:31.856439 21769 net.cpp:408] L1_b5_cbr2_bn -> L1_b5_cbr2_bn_top
I0818 15:07:31.856673 21769 net.cpp:150] Setting up L1_b5_cbr2_bn
I0818 15:07:31.856693 21769 net.cpp:157] Top shape: 100 16 32 32 (1638400)
I0818 15:07:31.856699 21769 net.cpp:165] Memory required for data: 368231600
I0818 15:07:31.856717 21769 layer_factory.hpp:77] Creating layer L1_b5_cbr2_scale
I0818 15:07:31.856727 21769 net.cpp:100] Creating Layer L1_b5_cbr2_scale
I0818 15:07:31.856732 21769 net.cpp:434] L1_b5_cbr2_scale <- L1_b5_cbr2_bn_top
I0818 15:07:31.856740 21769 net.cpp:395] L1_b5_cbr2_scale -> L1_b5_cbr2_bn_top (in-place)
I0818 15:07:31.856794 21769 layer_factory.hpp:77] Creating layer L1_b5_cbr2_scale
I0818 15:07:31.856932 21769 net.cpp:150] Setting up L1_b5_cbr2_scale
I0818 15:07:31.856945 21769 net.cpp:157] Top shape: 100 16 32 32 (1638400)
I0818 15:07:31.856950 21769 net.cpp:165] Memory required for data: 374785200
I0818 15:07:31.856961 21769 layer_factory.hpp:77] Creating layer L1_b5_sum_eltwise
I0818 15:07:31.856972 21769 net.cpp:100] Creating Layer L1_b5_sum_eltwise
I0818 15:07:31.856978 21769 net.cpp:434] L1_b5_sum_eltwise <- L1_b5_cbr2_bn_top
I0818 15:07:31.856986 21769 net.cpp:434] L1_b5_sum_eltwise <- L1_b4_sum_eltwise_top_L1_b4_relu_0_split_1
I0818 15:07:31.856999 21769 net.cpp:408] L1_b5_sum_eltwise -> L1_b5_sum_eltwise_top
I0818 15:07:31.857029 21769 net.cpp:150] Setting up L1_b5_sum_eltwise
I0818 15:07:31.857038 21769 net.cpp:157] Top shape: 100 16 32 32 (1638400)
I0818 15:07:31.857043 21769 net.cpp:165] Memory required for data: 381338800
I0818 15:07:31.857048 21769 layer_factory.hpp:77] Creating layer L1_b5_relu
I0818 15:07:31.857059 21769 net.cpp:100] Creating Layer L1_b5_relu
I0818 15:07:31.857065 21769 net.cpp:434] L1_b5_relu <- L1_b5_sum_eltwise_top
I0818 15:07:31.857072 21769 net.cpp:395] L1_b5_relu -> L1_b5_sum_eltwise_top (in-place)
I0818 15:07:31.857080 21769 net.cpp:150] Setting up L1_b5_relu
I0818 15:07:31.857087 21769 net.cpp:157] Top shape: 100 16 32 32 (1638400)
I0818 15:07:31.857092 21769 net.cpp:165] Memory required for data: 387892400
I0818 15:07:31.857097 21769 layer_factory.hpp:77] Creating layer L1_b5_sum_eltwise_top_L1_b5_relu_0_split
I0818 15:07:31.857105 21769 net.cpp:100] Creating Layer L1_b5_sum_eltwise_top_L1_b5_relu_0_split
I0818 15:07:31.857110 21769 net.cpp:434] L1_b5_sum_eltwise_top_L1_b5_relu_0_split <- L1_b5_sum_eltwise_top
I0818 15:07:31.857116 21769 net.cpp:408] L1_b5_sum_eltwise_top_L1_b5_relu_0_split -> L1_b5_sum_eltwise_top_L1_b5_relu_0_split_0
I0818 15:07:31.857125 21769 net.cpp:408] L1_b5_sum_eltwise_top_L1_b5_relu_0_split -> L1_b5_sum_eltwise_top_L1_b5_relu_0_split_1
I0818 15:07:31.857168 21769 net.cpp:150] Setting up L1_b5_sum_eltwise_top_L1_b5_relu_0_split
I0818 15:07:31.857180 21769 net.cpp:157] Top shape: 100 16 32 32 (1638400)
I0818 15:07:31.857187 21769 net.cpp:157] Top shape: 100 16 32 32 (1638400)
I0818 15:07:31.857192 21769 net.cpp:165] Memory required for data: 400999600
I0818 15:07:31.857197 21769 layer_factory.hpp:77] Creating layer L1_b6_cbr1_conv
I0818 15:07:31.857210 21769 net.cpp:100] Creating Layer L1_b6_cbr1_conv
I0818 15:07:31.857216 21769 net.cpp:434] L1_b6_cbr1_conv <- L1_b5_sum_eltwise_top_L1_b5_relu_0_split_0
I0818 15:07:31.857225 21769 net.cpp:408] L1_b6_cbr1_conv -> L1_b6_cbr1_conv_top
I0818 15:07:31.857525 21769 net.cpp:150] Setting up L1_b6_cbr1_conv
I0818 15:07:31.857539 21769 net.cpp:157] Top shape: 100 16 32 32 (1638400)
I0818 15:07:31.857544 21769 net.cpp:165] Memory required for data: 407553200
I0818 15:07:31.857553 21769 layer_factory.hpp:77] Creating layer L1_b6_cbr1_bn
I0818 15:07:31.857565 21769 net.cpp:100] Creating Layer L1_b6_cbr1_bn
I0818 15:07:31.857571 21769 net.cpp:434] L1_b6_cbr1_bn <- L1_b6_cbr1_conv_top
I0818 15:07:31.857579 21769 net.cpp:408] L1_b6_cbr1_bn -> L1_b6_cbr1_bn_top
I0818 15:07:31.857852 21769 net.cpp:150] Setting up L1_b6_cbr1_bn
I0818 15:07:31.857870 21769 net.cpp:157] Top shape: 100 16 32 32 (1638400)
I0818 15:07:31.857877 21769 net.cpp:165] Memory required for data: 414106800
I0818 15:07:31.857887 21769 layer_factory.hpp:77] Creating layer L1_b6_cbr1_scale
I0818 15:07:31.857897 21769 net.cpp:100] Creating Layer L1_b6_cbr1_scale
I0818 15:07:31.857903 21769 net.cpp:434] L1_b6_cbr1_scale <- L1_b6_cbr1_bn_top
I0818 15:07:31.857910 21769 net.cpp:395] L1_b6_cbr1_scale -> L1_b6_cbr1_bn_top (in-place)
I0818 15:07:31.857971 21769 layer_factory.hpp:77] Creating layer L1_b6_cbr1_scale
I0818 15:07:31.858114 21769 net.cpp:150] Setting up L1_b6_cbr1_scale
I0818 15:07:31.858129 21769 net.cpp:157] Top shape: 100 16 32 32 (1638400)
I0818 15:07:31.858134 21769 net.cpp:165] Memory required for data: 420660400
I0818 15:07:31.858144 21769 layer_factory.hpp:77] Creating layer L1_b6_cbr1_relu
I0818 15:07:31.858155 21769 net.cpp:100] Creating Layer L1_b6_cbr1_relu
I0818 15:07:31.858161 21769 net.cpp:434] L1_b6_cbr1_relu <- L1_b6_cbr1_bn_top
I0818 15:07:31.858171 21769 net.cpp:395] L1_b6_cbr1_relu -> L1_b6_cbr1_bn_top (in-place)
I0818 15:07:31.858181 21769 net.cpp:150] Setting up L1_b6_cbr1_relu
I0818 15:07:31.858188 21769 net.cpp:157] Top shape: 100 16 32 32 (1638400)
I0818 15:07:31.858192 21769 net.cpp:165] Memory required for data: 427214000
I0818 15:07:31.858197 21769 layer_factory.hpp:77] Creating layer L1_b6_cbr2_conv
I0818 15:07:31.858209 21769 net.cpp:100] Creating Layer L1_b6_cbr2_conv
I0818 15:07:31.858214 21769 net.cpp:434] L1_b6_cbr2_conv <- L1_b6_cbr1_bn_top
I0818 15:07:31.858225 21769 net.cpp:408] L1_b6_cbr2_conv -> L1_b6_cbr2_conv_top
I0818 15:07:31.858534 21769 net.cpp:150] Setting up L1_b6_cbr2_conv
I0818 15:07:31.858548 21769 net.cpp:157] Top shape: 100 16 32 32 (1638400)
I0818 15:07:31.858553 21769 net.cpp:165] Memory required for data: 433767600
I0818 15:07:31.858562 21769 layer_factory.hpp:77] Creating layer L1_b6_cbr2_bn
I0818 15:07:31.858572 21769 net.cpp:100] Creating Layer L1_b6_cbr2_bn
I0818 15:07:31.858577 21769 net.cpp:434] L1_b6_cbr2_bn <- L1_b6_cbr2_conv_top
I0818 15:07:31.858588 21769 net.cpp:408] L1_b6_cbr2_bn -> L1_b6_cbr2_bn_top
I0818 15:07:31.858836 21769 net.cpp:150] Setting up L1_b6_cbr2_bn
I0818 15:07:31.858850 21769 net.cpp:157] Top shape: 100 16 32 32 (1638400)
I0818 15:07:31.858855 21769 net.cpp:165] Memory required for data: 440321200
I0818 15:07:31.858866 21769 layer_factory.hpp:77] Creating layer L1_b6_cbr2_scale
I0818 15:07:31.858877 21769 net.cpp:100] Creating Layer L1_b6_cbr2_scale
I0818 15:07:31.858885 21769 net.cpp:434] L1_b6_cbr2_scale <- L1_b6_cbr2_bn_top
I0818 15:07:31.858892 21769 net.cpp:395] L1_b6_cbr2_scale -> L1_b6_cbr2_bn_top (in-place)
I0818 15:07:31.858944 21769 layer_factory.hpp:77] Creating layer L1_b6_cbr2_scale
I0818 15:07:31.859086 21769 net.cpp:150] Setting up L1_b6_cbr2_scale
I0818 15:07:31.859098 21769 net.cpp:157] Top shape: 100 16 32 32 (1638400)
I0818 15:07:31.859103 21769 net.cpp:165] Memory required for data: 446874800
I0818 15:07:31.859112 21769 layer_factory.hpp:77] Creating layer L1_b6_sum_eltwise
I0818 15:07:31.859131 21769 net.cpp:100] Creating Layer L1_b6_sum_eltwise
I0818 15:07:31.859138 21769 net.cpp:434] L1_b6_sum_eltwise <- L1_b6_cbr2_bn_top
I0818 15:07:31.859145 21769 net.cpp:434] L1_b6_sum_eltwise <- L1_b5_sum_eltwise_top_L1_b5_relu_0_split_1
I0818 15:07:31.859153 21769 net.cpp:408] L1_b6_sum_eltwise -> L1_b6_sum_eltwise_top
I0818 15:07:31.859187 21769 net.cpp:150] Setting up L1_b6_sum_eltwise
I0818 15:07:31.859200 21769 net.cpp:157] Top shape: 100 16 32 32 (1638400)
I0818 15:07:31.859205 21769 net.cpp:165] Memory required for data: 453428400
I0818 15:07:31.859210 21769 layer_factory.hpp:77] Creating layer L1_b6_relu
I0818 15:07:31.859217 21769 net.cpp:100] Creating Layer L1_b6_relu
I0818 15:07:31.859222 21769 net.cpp:434] L1_b6_relu <- L1_b6_sum_eltwise_top
I0818 15:07:31.859230 21769 net.cpp:395] L1_b6_relu -> L1_b6_sum_eltwise_top (in-place)
I0818 15:07:31.859238 21769 net.cpp:150] Setting up L1_b6_relu
I0818 15:07:31.859244 21769 net.cpp:157] Top shape: 100 16 32 32 (1638400)
I0818 15:07:31.859249 21769 net.cpp:165] Memory required for data: 459982000
I0818 15:07:31.859254 21769 layer_factory.hpp:77] Creating layer L1_b6_sum_eltwise_top_L1_b6_relu_0_split
I0818 15:07:31.859261 21769 net.cpp:100] Creating Layer L1_b6_sum_eltwise_top_L1_b6_relu_0_split
I0818 15:07:31.859266 21769 net.cpp:434] L1_b6_sum_eltwise_top_L1_b6_relu_0_split <- L1_b6_sum_eltwise_top
I0818 15:07:31.859277 21769 net.cpp:408] L1_b6_sum_eltwise_top_L1_b6_relu_0_split -> L1_b6_sum_eltwise_top_L1_b6_relu_0_split_0
I0818 15:07:31.859295 21769 net.cpp:408] L1_b6_sum_eltwise_top_L1_b6_relu_0_split -> L1_b6_sum_eltwise_top_L1_b6_relu_0_split_1
I0818 15:07:31.859338 21769 net.cpp:150] Setting up L1_b6_sum_eltwise_top_L1_b6_relu_0_split
I0818 15:07:31.859347 21769 net.cpp:157] Top shape: 100 16 32 32 (1638400)
I0818 15:07:31.859354 21769 net.cpp:157] Top shape: 100 16 32 32 (1638400)
I0818 15:07:31.859359 21769 net.cpp:165] Memory required for data: 473089200
I0818 15:07:31.859364 21769 layer_factory.hpp:77] Creating layer L1_b7_cbr1_conv
I0818 15:07:31.859378 21769 net.cpp:100] Creating Layer L1_b7_cbr1_conv
I0818 15:07:31.859385 21769 net.cpp:434] L1_b7_cbr1_conv <- L1_b6_sum_eltwise_top_L1_b6_relu_0_split_0
I0818 15:07:31.859393 21769 net.cpp:408] L1_b7_cbr1_conv -> L1_b7_cbr1_conv_top
I0818 15:07:31.859705 21769 net.cpp:150] Setting up L1_b7_cbr1_conv
I0818 15:07:31.859720 21769 net.cpp:157] Top shape: 100 16 32 32 (1638400)
I0818 15:07:31.859725 21769 net.cpp:165] Memory required for data: 479642800
I0818 15:07:31.859735 21769 layer_factory.hpp:77] Creating layer L1_b7_cbr1_bn
I0818 15:07:31.859750 21769 net.cpp:100] Creating Layer L1_b7_cbr1_bn
I0818 15:07:31.859756 21769 net.cpp:434] L1_b7_cbr1_bn <- L1_b7_cbr1_conv_top
I0818 15:07:31.859767 21769 net.cpp:408] L1_b7_cbr1_bn -> L1_b7_cbr1_bn_top
I0818 15:07:31.860004 21769 net.cpp:150] Setting up L1_b7_cbr1_bn
I0818 15:07:31.860018 21769 net.cpp:157] Top shape: 100 16 32 32 (1638400)
I0818 15:07:31.860023 21769 net.cpp:165] Memory required for data: 486196400
I0818 15:07:31.860033 21769 layer_factory.hpp:77] Creating layer L1_b7_cbr1_scale
I0818 15:07:31.860043 21769 net.cpp:100] Creating Layer L1_b7_cbr1_scale
I0818 15:07:31.860049 21769 net.cpp:434] L1_b7_cbr1_scale <- L1_b7_cbr1_bn_top
I0818 15:07:31.860055 21769 net.cpp:395] L1_b7_cbr1_scale -> L1_b7_cbr1_bn_top (in-place)
I0818 15:07:31.860116 21769 layer_factory.hpp:77] Creating layer L1_b7_cbr1_scale
I0818 15:07:31.860255 21769 net.cpp:150] Setting up L1_b7_cbr1_scale
I0818 15:07:31.860267 21769 net.cpp:157] Top shape: 100 16 32 32 (1638400)
I0818 15:07:31.860272 21769 net.cpp:165] Memory required for data: 492750000
I0818 15:07:31.860282 21769 layer_factory.hpp:77] Creating layer L1_b7_cbr1_relu
I0818 15:07:31.860292 21769 net.cpp:100] Creating Layer L1_b7_cbr1_relu
I0818 15:07:31.860299 21769 net.cpp:434] L1_b7_cbr1_relu <- L1_b7_cbr1_bn_top
I0818 15:07:31.860306 21769 net.cpp:395] L1_b7_cbr1_relu -> L1_b7_cbr1_bn_top (in-place)
I0818 15:07:31.860316 21769 net.cpp:150] Setting up L1_b7_cbr1_relu
I0818 15:07:31.860322 21769 net.cpp:157] Top shape: 100 16 32 32 (1638400)
I0818 15:07:31.860327 21769 net.cpp:165] Memory required for data: 499303600
I0818 15:07:31.860332 21769 layer_factory.hpp:77] Creating layer L1_b7_cbr2_conv
I0818 15:07:31.860347 21769 net.cpp:100] Creating Layer L1_b7_cbr2_conv
I0818 15:07:31.860352 21769 net.cpp:434] L1_b7_cbr2_conv <- L1_b7_cbr1_bn_top
I0818 15:07:31.860365 21769 net.cpp:408] L1_b7_cbr2_conv -> L1_b7_cbr2_conv_top
I0818 15:07:31.860671 21769 net.cpp:150] Setting up L1_b7_cbr2_conv
I0818 15:07:31.860692 21769 net.cpp:157] Top shape: 100 16 32 32 (1638400)
I0818 15:07:31.860697 21769 net.cpp:165] Memory required for data: 505857200
I0818 15:07:31.860705 21769 layer_factory.hpp:77] Creating layer L1_b7_cbr2_bn
I0818 15:07:31.860718 21769 net.cpp:100] Creating Layer L1_b7_cbr2_bn
I0818 15:07:31.860724 21769 net.cpp:434] L1_b7_cbr2_bn <- L1_b7_cbr2_conv_top
I0818 15:07:31.860735 21769 net.cpp:408] L1_b7_cbr2_bn -> L1_b7_cbr2_bn_top
I0818 15:07:31.860970 21769 net.cpp:150] Setting up L1_b7_cbr2_bn
I0818 15:07:31.860983 21769 net.cpp:157] Top shape: 100 16 32 32 (1638400)
I0818 15:07:31.860987 21769 net.cpp:165] Memory required for data: 512410800
I0818 15:07:31.860997 21769 layer_factory.hpp:77] Creating layer L1_b7_cbr2_scale
I0818 15:07:31.861006 21769 net.cpp:100] Creating Layer L1_b7_cbr2_scale
I0818 15:07:31.861012 21769 net.cpp:434] L1_b7_cbr2_scale <- L1_b7_cbr2_bn_top
I0818 15:07:31.861021 21769 net.cpp:395] L1_b7_cbr2_scale -> L1_b7_cbr2_bn_top (in-place)
I0818 15:07:31.861085 21769 layer_factory.hpp:77] Creating layer L1_b7_cbr2_scale
I0818 15:07:31.861224 21769 net.cpp:150] Setting up L1_b7_cbr2_scale
I0818 15:07:31.861238 21769 net.cpp:157] Top shape: 100 16 32 32 (1638400)
I0818 15:07:31.861243 21769 net.cpp:165] Memory required for data: 518964400
I0818 15:07:31.861253 21769 layer_factory.hpp:77] Creating layer L1_b7_sum_eltwise
I0818 15:07:31.861261 21769 net.cpp:100] Creating Layer L1_b7_sum_eltwise
I0818 15:07:31.861270 21769 net.cpp:434] L1_b7_sum_eltwise <- L1_b7_cbr2_bn_top
I0818 15:07:31.861279 21769 net.cpp:434] L1_b7_sum_eltwise <- L1_b6_sum_eltwise_top_L1_b6_relu_0_split_1
I0818 15:07:31.861285 21769 net.cpp:408] L1_b7_sum_eltwise -> L1_b7_sum_eltwise_top
I0818 15:07:31.861318 21769 net.cpp:150] Setting up L1_b7_sum_eltwise
I0818 15:07:31.861328 21769 net.cpp:157] Top shape: 100 16 32 32 (1638400)
I0818 15:07:31.861333 21769 net.cpp:165] Memory required for data: 525518000
I0818 15:07:31.861338 21769 layer_factory.hpp:77] Creating layer L1_b7_relu
I0818 15:07:31.861346 21769 net.cpp:100] Creating Layer L1_b7_relu
I0818 15:07:31.861351 21769 net.cpp:434] L1_b7_relu <- L1_b7_sum_eltwise_top
I0818 15:07:31.861361 21769 net.cpp:395] L1_b7_relu -> L1_b7_sum_eltwise_top (in-place)
I0818 15:07:31.861371 21769 net.cpp:150] Setting up L1_b7_relu
I0818 15:07:31.861377 21769 net.cpp:157] Top shape: 100 16 32 32 (1638400)
I0818 15:07:31.861382 21769 net.cpp:165] Memory required for data: 532071600
I0818 15:07:31.861387 21769 layer_factory.hpp:77] Creating layer L1_b7_sum_eltwise_top_L1_b7_relu_0_split
I0818 15:07:31.861394 21769 net.cpp:100] Creating Layer L1_b7_sum_eltwise_top_L1_b7_relu_0_split
I0818 15:07:31.861399 21769 net.cpp:434] L1_b7_sum_eltwise_top_L1_b7_relu_0_split <- L1_b7_sum_eltwise_top
I0818 15:07:31.861407 21769 net.cpp:408] L1_b7_sum_eltwise_top_L1_b7_relu_0_split -> L1_b7_sum_eltwise_top_L1_b7_relu_0_split_0
I0818 15:07:31.861415 21769 net.cpp:408] L1_b7_sum_eltwise_top_L1_b7_relu_0_split -> L1_b7_sum_eltwise_top_L1_b7_relu_0_split_1
I0818 15:07:31.861459 21769 net.cpp:150] Setting up L1_b7_sum_eltwise_top_L1_b7_relu_0_split
I0818 15:07:31.861471 21769 net.cpp:157] Top shape: 100 16 32 32 (1638400)
I0818 15:07:31.861477 21769 net.cpp:157] Top shape: 100 16 32 32 (1638400)
I0818 15:07:31.861482 21769 net.cpp:165] Memory required for data: 545178800
I0818 15:07:31.861487 21769 layer_factory.hpp:77] Creating layer L1_b8_cbr1_conv
I0818 15:07:31.861505 21769 net.cpp:100] Creating Layer L1_b8_cbr1_conv
I0818 15:07:31.861511 21769 net.cpp:434] L1_b8_cbr1_conv <- L1_b7_sum_eltwise_top_L1_b7_relu_0_split_0
I0818 15:07:31.861521 21769 net.cpp:408] L1_b8_cbr1_conv -> L1_b8_cbr1_conv_top
I0818 15:07:31.861840 21769 net.cpp:150] Setting up L1_b8_cbr1_conv
I0818 15:07:31.861855 21769 net.cpp:157] Top shape: 100 16 32 32 (1638400)
I0818 15:07:31.861860 21769 net.cpp:165] Memory required for data: 551732400
I0818 15:07:31.861868 21769 layer_factory.hpp:77] Creating layer L1_b8_cbr1_bn
I0818 15:07:31.861881 21769 net.cpp:100] Creating Layer L1_b8_cbr1_bn
I0818 15:07:31.861888 21769 net.cpp:434] L1_b8_cbr1_bn <- L1_b8_cbr1_conv_top
I0818 15:07:31.861899 21769 net.cpp:408] L1_b8_cbr1_bn -> L1_b8_cbr1_bn_top
I0818 15:07:31.862138 21769 net.cpp:150] Setting up L1_b8_cbr1_bn
I0818 15:07:31.862150 21769 net.cpp:157] Top shape: 100 16 32 32 (1638400)
I0818 15:07:31.862155 21769 net.cpp:165] Memory required for data: 558286000
I0818 15:07:31.862165 21769 layer_factory.hpp:77] Creating layer L1_b8_cbr1_scale
I0818 15:07:31.862174 21769 net.cpp:100] Creating Layer L1_b8_cbr1_scale
I0818 15:07:31.862180 21769 net.cpp:434] L1_b8_cbr1_scale <- L1_b8_cbr1_bn_top
I0818 15:07:31.862187 21769 net.cpp:395] L1_b8_cbr1_scale -> L1_b8_cbr1_bn_top (in-place)
I0818 15:07:31.862242 21769 layer_factory.hpp:77] Creating layer L1_b8_cbr1_scale
I0818 15:07:31.862380 21769 net.cpp:150] Setting up L1_b8_cbr1_scale
I0818 15:07:31.862393 21769 net.cpp:157] Top shape: 100 16 32 32 (1638400)
I0818 15:07:31.862398 21769 net.cpp:165] Memory required for data: 564839600
I0818 15:07:31.862407 21769 layer_factory.hpp:77] Creating layer L1_b8_cbr1_relu
I0818 15:07:31.862426 21769 net.cpp:100] Creating Layer L1_b8_cbr1_relu
I0818 15:07:31.862433 21769 net.cpp:434] L1_b8_cbr1_relu <- L1_b8_cbr1_bn_top
I0818 15:07:31.862440 21769 net.cpp:395] L1_b8_cbr1_relu -> L1_b8_cbr1_bn_top (in-place)
I0818 15:07:31.862450 21769 net.cpp:150] Setting up L1_b8_cbr1_relu
I0818 15:07:31.862457 21769 net.cpp:157] Top shape: 100 16 32 32 (1638400)
I0818 15:07:31.862462 21769 net.cpp:165] Memory required for data: 571393200
I0818 15:07:31.862467 21769 layer_factory.hpp:77] Creating layer L1_b8_cbr2_conv
I0818 15:07:31.862480 21769 net.cpp:100] Creating Layer L1_b8_cbr2_conv
I0818 15:07:31.862486 21769 net.cpp:434] L1_b8_cbr2_conv <- L1_b8_cbr1_bn_top
I0818 15:07:31.862498 21769 net.cpp:408] L1_b8_cbr2_conv -> L1_b8_cbr2_conv_top
I0818 15:07:31.862819 21769 net.cpp:150] Setting up L1_b8_cbr2_conv
I0818 15:07:31.862834 21769 net.cpp:157] Top shape: 100 16 32 32 (1638400)
I0818 15:07:31.862839 21769 net.cpp:165] Memory required for data: 577946800
I0818 15:07:31.862848 21769 layer_factory.hpp:77] Creating layer L1_b8_cbr2_bn
I0818 15:07:31.862860 21769 net.cpp:100] Creating Layer L1_b8_cbr2_bn
I0818 15:07:31.862866 21769 net.cpp:434] L1_b8_cbr2_bn <- L1_b8_cbr2_conv_top
I0818 15:07:31.862874 21769 net.cpp:408] L1_b8_cbr2_bn -> L1_b8_cbr2_bn_top
I0818 15:07:31.863124 21769 net.cpp:150] Setting up L1_b8_cbr2_bn
I0818 15:07:31.863138 21769 net.cpp:157] Top shape: 100 16 32 32 (1638400)
I0818 15:07:31.863143 21769 net.cpp:165] Memory required for data: 584500400
I0818 15:07:31.863153 21769 layer_factory.hpp:77] Creating layer L1_b8_cbr2_scale
I0818 15:07:31.863162 21769 net.cpp:100] Creating Layer L1_b8_cbr2_scale
I0818 15:07:31.863168 21769 net.cpp:434] L1_b8_cbr2_scale <- L1_b8_cbr2_bn_top
I0818 15:07:31.863176 21769 net.cpp:395] L1_b8_cbr2_scale -> L1_b8_cbr2_bn_top (in-place)
I0818 15:07:31.863232 21769 layer_factory.hpp:77] Creating layer L1_b8_cbr2_scale
I0818 15:07:31.863371 21769 net.cpp:150] Setting up L1_b8_cbr2_scale
I0818 15:07:31.863385 21769 net.cpp:157] Top shape: 100 16 32 32 (1638400)
I0818 15:07:31.863390 21769 net.cpp:165] Memory required for data: 591054000
I0818 15:07:31.863399 21769 layer_factory.hpp:77] Creating layer L1_b8_sum_eltwise
I0818 15:07:31.863407 21769 net.cpp:100] Creating Layer L1_b8_sum_eltwise
I0818 15:07:31.863414 21769 net.cpp:434] L1_b8_sum_eltwise <- L1_b8_cbr2_bn_top
I0818 15:07:31.863420 21769 net.cpp:434] L1_b8_sum_eltwise <- L1_b7_sum_eltwise_top_L1_b7_relu_0_split_1
I0818 15:07:31.863431 21769 net.cpp:408] L1_b8_sum_eltwise -> L1_b8_sum_eltwise_top
I0818 15:07:31.863462 21769 net.cpp:150] Setting up L1_b8_sum_eltwise
I0818 15:07:31.863471 21769 net.cpp:157] Top shape: 100 16 32 32 (1638400)
I0818 15:07:31.863476 21769 net.cpp:165] Memory required for data: 597607600
I0818 15:07:31.863481 21769 layer_factory.hpp:77] Creating layer L1_b8_relu
I0818 15:07:31.863492 21769 net.cpp:100] Creating Layer L1_b8_relu
I0818 15:07:31.863498 21769 net.cpp:434] L1_b8_relu <- L1_b8_sum_eltwise_top
I0818 15:07:31.863505 21769 net.cpp:395] L1_b8_relu -> L1_b8_sum_eltwise_top (in-place)
I0818 15:07:31.863514 21769 net.cpp:150] Setting up L1_b8_relu
I0818 15:07:31.863521 21769 net.cpp:157] Top shape: 100 16 32 32 (1638400)
I0818 15:07:31.863525 21769 net.cpp:165] Memory required for data: 604161200
I0818 15:07:31.863530 21769 layer_factory.hpp:77] Creating layer L1_b8_sum_eltwise_top_L1_b8_relu_0_split
I0818 15:07:31.863538 21769 net.cpp:100] Creating Layer L1_b8_sum_eltwise_top_L1_b8_relu_0_split
I0818 15:07:31.863543 21769 net.cpp:434] L1_b8_sum_eltwise_top_L1_b8_relu_0_split <- L1_b8_sum_eltwise_top
I0818 15:07:31.863550 21769 net.cpp:408] L1_b8_sum_eltwise_top_L1_b8_relu_0_split -> L1_b8_sum_eltwise_top_L1_b8_relu_0_split_0
I0818 15:07:31.863559 21769 net.cpp:408] L1_b8_sum_eltwise_top_L1_b8_relu_0_split -> L1_b8_sum_eltwise_top_L1_b8_relu_0_split_1
I0818 15:07:31.863605 21769 net.cpp:150] Setting up L1_b8_sum_eltwise_top_L1_b8_relu_0_split
I0818 15:07:31.863616 21769 net.cpp:157] Top shape: 100 16 32 32 (1638400)
I0818 15:07:31.863631 21769 net.cpp:157] Top shape: 100 16 32 32 (1638400)
I0818 15:07:31.863636 21769 net.cpp:165] Memory required for data: 617268400
I0818 15:07:31.863641 21769 layer_factory.hpp:77] Creating layer L1_b9_cbr1_conv
I0818 15:07:31.863654 21769 net.cpp:100] Creating Layer L1_b9_cbr1_conv
I0818 15:07:31.863662 21769 net.cpp:434] L1_b9_cbr1_conv <- L1_b8_sum_eltwise_top_L1_b8_relu_0_split_0
I0818 15:07:31.863670 21769 net.cpp:408] L1_b9_cbr1_conv -> L1_b9_cbr1_conv_top
I0818 15:07:31.863996 21769 net.cpp:150] Setting up L1_b9_cbr1_conv
I0818 15:07:31.864011 21769 net.cpp:157] Top shape: 100 16 32 32 (1638400)
I0818 15:07:31.864015 21769 net.cpp:165] Memory required for data: 623822000
I0818 15:07:31.864024 21769 layer_factory.hpp:77] Creating layer L1_b9_cbr1_bn
I0818 15:07:31.864037 21769 net.cpp:100] Creating Layer L1_b9_cbr1_bn
I0818 15:07:31.864043 21769 net.cpp:434] L1_b9_cbr1_bn <- L1_b9_cbr1_conv_top
I0818 15:07:31.864051 21769 net.cpp:408] L1_b9_cbr1_bn -> L1_b9_cbr1_bn_top
I0818 15:07:31.864295 21769 net.cpp:150] Setting up L1_b9_cbr1_bn
I0818 15:07:31.864310 21769 net.cpp:157] Top shape: 100 16 32 32 (1638400)
I0818 15:07:31.864315 21769 net.cpp:165] Memory required for data: 630375600
I0818 15:07:31.864325 21769 layer_factory.hpp:77] Creating layer L1_b9_cbr1_scale
I0818 15:07:31.864336 21769 net.cpp:100] Creating Layer L1_b9_cbr1_scale
I0818 15:07:31.864343 21769 net.cpp:434] L1_b9_cbr1_scale <- L1_b9_cbr1_bn_top
I0818 15:07:31.864351 21769 net.cpp:395] L1_b9_cbr1_scale -> L1_b9_cbr1_bn_top (in-place)
I0818 15:07:31.864406 21769 layer_factory.hpp:77] Creating layer L1_b9_cbr1_scale
I0818 15:07:31.864554 21769 net.cpp:150] Setting up L1_b9_cbr1_scale
I0818 15:07:31.864567 21769 net.cpp:157] Top shape: 100 16 32 32 (1638400)
I0818 15:07:31.864573 21769 net.cpp:165] Memory required for data: 636929200
I0818 15:07:31.864581 21769 layer_factory.hpp:77] Creating layer L1_b9_cbr1_relu
I0818 15:07:31.864589 21769 net.cpp:100] Creating Layer L1_b9_cbr1_relu
I0818 15:07:31.864595 21769 net.cpp:434] L1_b9_cbr1_relu <- L1_b9_cbr1_bn_top
I0818 15:07:31.864605 21769 net.cpp:395] L1_b9_cbr1_relu -> L1_b9_cbr1_bn_top (in-place)
I0818 15:07:31.864615 21769 net.cpp:150] Setting up L1_b9_cbr1_relu
I0818 15:07:31.864622 21769 net.cpp:157] Top shape: 100 16 32 32 (1638400)
I0818 15:07:31.864627 21769 net.cpp:165] Memory required for data: 643482800
I0818 15:07:31.864632 21769 layer_factory.hpp:77] Creating layer L1_b9_cbr2_conv
I0818 15:07:31.864646 21769 net.cpp:100] Creating Layer L1_b9_cbr2_conv
I0818 15:07:31.864652 21769 net.cpp:434] L1_b9_cbr2_conv <- L1_b9_cbr1_bn_top
I0818 15:07:31.864660 21769 net.cpp:408] L1_b9_cbr2_conv -> L1_b9_cbr2_conv_top
I0818 15:07:31.864987 21769 net.cpp:150] Setting up L1_b9_cbr2_conv
I0818 15:07:31.865002 21769 net.cpp:157] Top shape: 100 16 32 32 (1638400)
I0818 15:07:31.865007 21769 net.cpp:165] Memory required for data: 650036400
I0818 15:07:31.865016 21769 layer_factory.hpp:77] Creating layer L1_b9_cbr2_bn
I0818 15:07:31.865028 21769 net.cpp:100] Creating Layer L1_b9_cbr2_bn
I0818 15:07:31.865036 21769 net.cpp:434] L1_b9_cbr2_bn <- L1_b9_cbr2_conv_top
I0818 15:07:31.865043 21769 net.cpp:408] L1_b9_cbr2_bn -> L1_b9_cbr2_bn_top
I0818 15:07:31.865281 21769 net.cpp:150] Setting up L1_b9_cbr2_bn
I0818 15:07:31.865294 21769 net.cpp:157] Top shape: 100 16 32 32 (1638400)
I0818 15:07:31.865299 21769 net.cpp:165] Memory required for data: 656590000
I0818 15:07:31.865331 21769 layer_factory.hpp:77] Creating layer L1_b9_cbr2_scale
I0818 15:07:31.865344 21769 net.cpp:100] Creating Layer L1_b9_cbr2_scale
I0818 15:07:31.865350 21769 net.cpp:434] L1_b9_cbr2_scale <- L1_b9_cbr2_bn_top
I0818 15:07:31.865358 21769 net.cpp:395] L1_b9_cbr2_scale -> L1_b9_cbr2_bn_top (in-place)
I0818 15:07:31.865414 21769 layer_factory.hpp:77] Creating layer L1_b9_cbr2_scale
I0818 15:07:31.865552 21769 net.cpp:150] Setting up L1_b9_cbr2_scale
I0818 15:07:31.865566 21769 net.cpp:157] Top shape: 100 16 32 32 (1638400)
I0818 15:07:31.865571 21769 net.cpp:165] Memory required for data: 663143600
I0818 15:07:31.865586 21769 layer_factory.hpp:77] Creating layer L1_b9_sum_eltwise
I0818 15:07:31.865597 21769 net.cpp:100] Creating Layer L1_b9_sum_eltwise
I0818 15:07:31.865602 21769 net.cpp:434] L1_b9_sum_eltwise <- L1_b9_cbr2_bn_top
I0818 15:07:31.865609 21769 net.cpp:434] L1_b9_sum_eltwise <- L1_b8_sum_eltwise_top_L1_b8_relu_0_split_1
I0818 15:07:31.865617 21769 net.cpp:408] L1_b9_sum_eltwise -> L1_b9_sum_eltwise_top
I0818 15:07:31.865651 21769 net.cpp:150] Setting up L1_b9_sum_eltwise
I0818 15:07:31.865664 21769 net.cpp:157] Top shape: 100 16 32 32 (1638400)
I0818 15:07:31.865669 21769 net.cpp:165] Memory required for data: 669697200
I0818 15:07:31.865674 21769 layer_factory.hpp:77] Creating layer L1_b9_relu
I0818 15:07:31.865681 21769 net.cpp:100] Creating Layer L1_b9_relu
I0818 15:07:31.865694 21769 net.cpp:434] L1_b9_relu <- L1_b9_sum_eltwise_top
I0818 15:07:31.865703 21769 net.cpp:395] L1_b9_relu -> L1_b9_sum_eltwise_top (in-place)
I0818 15:07:31.865713 21769 net.cpp:150] Setting up L1_b9_relu
I0818 15:07:31.865720 21769 net.cpp:157] Top shape: 100 16 32 32 (1638400)
I0818 15:07:31.865725 21769 net.cpp:165] Memory required for data: 676250800
I0818 15:07:31.865731 21769 layer_factory.hpp:77] Creating layer L1_b9_sum_eltwise_top_L1_b9_relu_0_split
I0818 15:07:31.865737 21769 net.cpp:100] Creating Layer L1_b9_sum_eltwise_top_L1_b9_relu_0_split
I0818 15:07:31.865742 21769 net.cpp:434] L1_b9_sum_eltwise_top_L1_b9_relu_0_split <- L1_b9_sum_eltwise_top
I0818 15:07:31.865754 21769 net.cpp:408] L1_b9_sum_eltwise_top_L1_b9_relu_0_split -> L1_b9_sum_eltwise_top_L1_b9_relu_0_split_0
I0818 15:07:31.865764 21769 net.cpp:408] L1_b9_sum_eltwise_top_L1_b9_relu_0_split -> L1_b9_sum_eltwise_top_L1_b9_relu_0_split_1
I0818 15:07:31.865808 21769 net.cpp:150] Setting up L1_b9_sum_eltwise_top_L1_b9_relu_0_split
I0818 15:07:31.865818 21769 net.cpp:157] Top shape: 100 16 32 32 (1638400)
I0818 15:07:31.865825 21769 net.cpp:157] Top shape: 100 16 32 32 (1638400)
I0818 15:07:31.865829 21769 net.cpp:165] Memory required for data: 689358000
I0818 15:07:31.865835 21769 layer_factory.hpp:77] Creating layer L1_b10_cbr1_conv
I0818 15:07:31.865852 21769 net.cpp:100] Creating Layer L1_b10_cbr1_conv
I0818 15:07:31.865859 21769 net.cpp:434] L1_b10_cbr1_conv <- L1_b9_sum_eltwise_top_L1_b9_relu_0_split_0
I0818 15:07:31.865869 21769 net.cpp:408] L1_b10_cbr1_conv -> L1_b10_cbr1_conv_top
I0818 15:07:31.866180 21769 net.cpp:150] Setting up L1_b10_cbr1_conv
I0818 15:07:31.866194 21769 net.cpp:157] Top shape: 100 16 32 32 (1638400)
I0818 15:07:31.866199 21769 net.cpp:165] Memory required for data: 695911600
I0818 15:07:31.866207 21769 layer_factory.hpp:77] Creating layer L1_b10_cbr1_bn
I0818 15:07:31.866219 21769 net.cpp:100] Creating Layer L1_b10_cbr1_bn
I0818 15:07:31.866226 21769 net.cpp:434] L1_b10_cbr1_bn <- L1_b10_cbr1_conv_top
I0818 15:07:31.866237 21769 net.cpp:408] L1_b10_cbr1_bn -> L1_b10_cbr1_bn_top
I0818 15:07:31.866477 21769 net.cpp:150] Setting up L1_b10_cbr1_bn
I0818 15:07:31.866490 21769 net.cpp:157] Top shape: 100 16 32 32 (1638400)
I0818 15:07:31.866495 21769 net.cpp:165] Memory required for data: 702465200
I0818 15:07:31.866504 21769 layer_factory.hpp:77] Creating layer L1_b10_cbr1_scale
I0818 15:07:31.866513 21769 net.cpp:100] Creating Layer L1_b10_cbr1_scale
I0818 15:07:31.866519 21769 net.cpp:434] L1_b10_cbr1_scale <- L1_b10_cbr1_bn_top
I0818 15:07:31.866529 21769 net.cpp:395] L1_b10_cbr1_scale -> L1_b10_cbr1_bn_top (in-place)
I0818 15:07:31.866587 21769 layer_factory.hpp:77] Creating layer L1_b10_cbr1_scale
I0818 15:07:31.866734 21769 net.cpp:150] Setting up L1_b10_cbr1_scale
I0818 15:07:31.866747 21769 net.cpp:157] Top shape: 100 16 32 32 (1638400)
I0818 15:07:31.866752 21769 net.cpp:165] Memory required for data: 709018800
I0818 15:07:31.866761 21769 layer_factory.hpp:77] Creating layer L1_b10_cbr1_relu
I0818 15:07:31.866773 21769 net.cpp:100] Creating Layer L1_b10_cbr1_relu
I0818 15:07:31.866780 21769 net.cpp:434] L1_b10_cbr1_relu <- L1_b10_cbr1_bn_top
I0818 15:07:31.866787 21769 net.cpp:395] L1_b10_cbr1_relu -> L1_b10_cbr1_bn_top (in-place)
I0818 15:07:31.866803 21769 net.cpp:150] Setting up L1_b10_cbr1_relu
I0818 15:07:31.866811 21769 net.cpp:157] Top shape: 100 16 32 32 (1638400)
I0818 15:07:31.866816 21769 net.cpp:165] Memory required for data: 715572400
I0818 15:07:31.866821 21769 layer_factory.hpp:77] Creating layer L1_b10_cbr2_conv
I0818 15:07:31.866834 21769 net.cpp:100] Creating Layer L1_b10_cbr2_conv
I0818 15:07:31.866840 21769 net.cpp:434] L1_b10_cbr2_conv <- L1_b10_cbr1_bn_top
I0818 15:07:31.866852 21769 net.cpp:408] L1_b10_cbr2_conv -> L1_b10_cbr2_conv_top
I0818 15:07:31.867166 21769 net.cpp:150] Setting up L1_b10_cbr2_conv
I0818 15:07:31.867179 21769 net.cpp:157] Top shape: 100 16 32 32 (1638400)
I0818 15:07:31.867184 21769 net.cpp:165] Memory required for data: 722126000
I0818 15:07:31.867193 21769 layer_factory.hpp:77] Creating layer L1_b10_cbr2_bn
I0818 15:07:31.867205 21769 net.cpp:100] Creating Layer L1_b10_cbr2_bn
I0818 15:07:31.867213 21769 net.cpp:434] L1_b10_cbr2_bn <- L1_b10_cbr2_conv_top
I0818 15:07:31.867225 21769 net.cpp:408] L1_b10_cbr2_bn -> L1_b10_cbr2_bn_top
I0818 15:07:31.867475 21769 net.cpp:150] Setting up L1_b10_cbr2_bn
I0818 15:07:31.867487 21769 net.cpp:157] Top shape: 100 16 32 32 (1638400)
I0818 15:07:31.867492 21769 net.cpp:165] Memory required for data: 728679600
I0818 15:07:31.867502 21769 layer_factory.hpp:77] Creating layer L1_b10_cbr2_scale
I0818 15:07:31.867511 21769 net.cpp:100] Creating Layer L1_b10_cbr2_scale
I0818 15:07:31.867517 21769 net.cpp:434] L1_b10_cbr2_scale <- L1_b10_cbr2_bn_top
I0818 15:07:31.867525 21769 net.cpp:395] L1_b10_cbr2_scale -> L1_b10_cbr2_bn_top (in-place)
I0818 15:07:31.867581 21769 layer_factory.hpp:77] Creating layer L1_b10_cbr2_scale
I0818 15:07:31.867765 21769 net.cpp:150] Setting up L1_b10_cbr2_scale
I0818 15:07:31.867787 21769 net.cpp:157] Top shape: 100 16 32 32 (1638400)
I0818 15:07:31.867796 21769 net.cpp:165] Memory required for data: 735233200
I0818 15:07:31.867812 21769 layer_factory.hpp:77] Creating layer L1_b10_sum_eltwise
I0818 15:07:31.867825 21769 net.cpp:100] Creating Layer L1_b10_sum_eltwise
I0818 15:07:31.867841 21769 net.cpp:434] L1_b10_sum_eltwise <- L1_b10_cbr2_bn_top
I0818 15:07:31.867852 21769 net.cpp:434] L1_b10_sum_eltwise <- L1_b9_sum_eltwise_top_L1_b9_relu_0_split_1
I0818 15:07:31.867866 21769 net.cpp:408] L1_b10_sum_eltwise -> L1_b10_sum_eltwise_top
I0818 15:07:31.867910 21769 net.cpp:150] Setting up L1_b10_sum_eltwise
I0818 15:07:31.867921 21769 net.cpp:157] Top shape: 100 16 32 32 (1638400)
I0818 15:07:31.867926 21769 net.cpp:165] Memory required for data: 741786800
I0818 15:07:31.867933 21769 layer_factory.hpp:77] Creating layer L1_b10_relu
I0818 15:07:31.867940 21769 net.cpp:100] Creating Layer L1_b10_relu
I0818 15:07:31.867946 21769 net.cpp:434] L1_b10_relu <- L1_b10_sum_eltwise_top
I0818 15:07:31.867955 21769 net.cpp:395] L1_b10_relu -> L1_b10_sum_eltwise_top (in-place)
I0818 15:07:31.867965 21769 net.cpp:150] Setting up L1_b10_relu
I0818 15:07:31.867975 21769 net.cpp:157] Top shape: 100 16 32 32 (1638400)
I0818 15:07:31.867983 21769 net.cpp:165] Memory required for data: 748340400
I0818 15:07:31.867992 21769 layer_factory.hpp:77] Creating layer L1_b10_sum_eltwise_top_L1_b10_relu_0_split
I0818 15:07:31.868005 21769 net.cpp:100] Creating Layer L1_b10_sum_eltwise_top_L1_b10_relu_0_split
I0818 15:07:31.868016 21769 net.cpp:434] L1_b10_sum_eltwise_top_L1_b10_relu_0_split <- L1_b10_sum_eltwise_top
I0818 15:07:31.868031 21769 net.cpp:408] L1_b10_sum_eltwise_top_L1_b10_relu_0_split -> L1_b10_sum_eltwise_top_L1_b10_relu_0_split_0
I0818 15:07:31.868047 21769 net.cpp:408] L1_b10_sum_eltwise_top_L1_b10_relu_0_split -> L1_b10_sum_eltwise_top_L1_b10_relu_0_split_1
I0818 15:07:31.868110 21769 net.cpp:150] Setting up L1_b10_sum_eltwise_top_L1_b10_relu_0_split
I0818 15:07:31.868125 21769 net.cpp:157] Top shape: 100 16 32 32 (1638400)
I0818 15:07:31.868131 21769 net.cpp:157] Top shape: 100 16 32 32 (1638400)
I0818 15:07:31.868136 21769 net.cpp:165] Memory required for data: 761447600
I0818 15:07:31.868142 21769 layer_factory.hpp:77] Creating layer L1_b11_cbr1_conv
I0818 15:07:31.868165 21769 net.cpp:100] Creating Layer L1_b11_cbr1_conv
I0818 15:07:31.868171 21769 net.cpp:434] L1_b11_cbr1_conv <- L1_b10_sum_eltwise_top_L1_b10_relu_0_split_0
I0818 15:07:31.868181 21769 net.cpp:408] L1_b11_cbr1_conv -> L1_b11_cbr1_conv_top
I0818 15:07:31.868513 21769 net.cpp:150] Setting up L1_b11_cbr1_conv
I0818 15:07:31.868533 21769 net.cpp:157] Top shape: 100 16 32 32 (1638400)
I0818 15:07:31.868541 21769 net.cpp:165] Memory required for data: 768001200
I0818 15:07:31.868557 21769 layer_factory.hpp:77] Creating layer L1_b11_cbr1_bn
I0818 15:07:31.868577 21769 net.cpp:100] Creating Layer L1_b11_cbr1_bn
I0818 15:07:31.868587 21769 net.cpp:434] L1_b11_cbr1_bn <- L1_b11_cbr1_conv_top
I0818 15:07:31.868605 21769 net.cpp:408] L1_b11_cbr1_bn -> L1_b11_cbr1_bn_top
I0818 15:07:31.868876 21769 net.cpp:150] Setting up L1_b11_cbr1_bn
I0818 15:07:31.868892 21769 net.cpp:157] Top shape: 100 16 32 32 (1638400)
I0818 15:07:31.868897 21769 net.cpp:165] Memory required for data: 774554800
I0818 15:07:31.868908 21769 layer_factory.hpp:77] Creating layer L1_b11_cbr1_scale
I0818 15:07:31.868917 21769 net.cpp:100] Creating Layer L1_b11_cbr1_scale
I0818 15:07:31.868923 21769 net.cpp:434] L1_b11_cbr1_scale <- L1_b11_cbr1_bn_top
I0818 15:07:31.868932 21769 net.cpp:395] L1_b11_cbr1_scale -> L1_b11_cbr1_bn_top (in-place)
I0818 15:07:31.868988 21769 layer_factory.hpp:77] Creating layer L1_b11_cbr1_scale
I0818 15:07:31.869133 21769 net.cpp:150] Setting up L1_b11_cbr1_scale
I0818 15:07:31.869148 21769 net.cpp:157] Top shape: 100 16 32 32 (1638400)
I0818 15:07:31.869153 21769 net.cpp:165] Memory required for data: 781108400
I0818 15:07:31.869161 21769 layer_factory.hpp:77] Creating layer L1_b11_cbr1_relu
I0818 15:07:31.869173 21769 net.cpp:100] Creating Layer L1_b11_cbr1_relu
I0818 15:07:31.869179 21769 net.cpp:434] L1_b11_cbr1_relu <- L1_b11_cbr1_bn_top
I0818 15:07:31.869186 21769 net.cpp:395] L1_b11_cbr1_relu -> L1_b11_cbr1_bn_top (in-place)
I0818 15:07:31.869196 21769 net.cpp:150] Setting up L1_b11_cbr1_relu
I0818 15:07:31.869204 21769 net.cpp:157] Top shape: 100 16 32 32 (1638400)
I0818 15:07:31.869207 21769 net.cpp:165] Memory required for data: 787662000
I0818 15:07:31.869212 21769 layer_factory.hpp:77] Creating layer L1_b11_cbr2_conv
I0818 15:07:31.869226 21769 net.cpp:100] Creating Layer L1_b11_cbr2_conv
I0818 15:07:31.869233 21769 net.cpp:434] L1_b11_cbr2_conv <- L1_b11_cbr1_bn_top
I0818 15:07:31.869244 21769 net.cpp:408] L1_b11_cbr2_conv -> L1_b11_cbr2_conv_top
I0818 15:07:31.869565 21769 net.cpp:150] Setting up L1_b11_cbr2_conv
I0818 15:07:31.869578 21769 net.cpp:157] Top shape: 100 16 32 32 (1638400)
I0818 15:07:31.869583 21769 net.cpp:165] Memory required for data: 794215600
I0818 15:07:31.869592 21769 layer_factory.hpp:77] Creating layer L1_b11_cbr2_bn
I0818 15:07:31.869604 21769 net.cpp:100] Creating Layer L1_b11_cbr2_bn
I0818 15:07:31.869611 21769 net.cpp:434] L1_b11_cbr2_bn <- L1_b11_cbr2_conv_top
I0818 15:07:31.869619 21769 net.cpp:408] L1_b11_cbr2_bn -> L1_b11_cbr2_bn_top
I0818 15:07:31.869871 21769 net.cpp:150] Setting up L1_b11_cbr2_bn
I0818 15:07:31.869886 21769 net.cpp:157] Top shape: 100 16 32 32 (1638400)
I0818 15:07:31.869891 21769 net.cpp:165] Memory required for data: 800769200
I0818 15:07:31.869901 21769 layer_factory.hpp:77] Creating layer L1_b11_cbr2_scale
I0818 15:07:31.869910 21769 net.cpp:100] Creating Layer L1_b11_cbr2_scale
I0818 15:07:31.869916 21769 net.cpp:434] L1_b11_cbr2_scale <- L1_b11_cbr2_bn_top
I0818 15:07:31.869925 21769 net.cpp:395] L1_b11_cbr2_scale -> L1_b11_cbr2_bn_top (in-place)
I0818 15:07:31.869981 21769 layer_factory.hpp:77] Creating layer L1_b11_cbr2_scale
I0818 15:07:31.870126 21769 net.cpp:150] Setting up L1_b11_cbr2_scale
I0818 15:07:31.870139 21769 net.cpp:157] Top shape: 100 16 32 32 (1638400)
I0818 15:07:31.870144 21769 net.cpp:165] Memory required for data: 807322800
I0818 15:07:31.870153 21769 layer_factory.hpp:77] Creating layer L1_b11_sum_eltwise
I0818 15:07:31.870162 21769 net.cpp:100] Creating Layer L1_b11_sum_eltwise
I0818 15:07:31.870168 21769 net.cpp:434] L1_b11_sum_eltwise <- L1_b11_cbr2_bn_top
I0818 15:07:31.870182 21769 net.cpp:434] L1_b11_sum_eltwise <- L1_b10_sum_eltwise_top_L1_b10_relu_0_split_1
I0818 15:07:31.870194 21769 net.cpp:408] L1_b11_sum_eltwise -> L1_b11_sum_eltwise_top
I0818 15:07:31.870226 21769 net.cpp:150] Setting up L1_b11_sum_eltwise
I0818 15:07:31.870235 21769 net.cpp:157] Top shape: 100 16 32 32 (1638400)
I0818 15:07:31.870240 21769 net.cpp:165] Memory required for data: 813876400
I0818 15:07:31.870246 21769 layer_factory.hpp:77] Creating layer L1_b11_relu
I0818 15:07:31.870256 21769 net.cpp:100] Creating Layer L1_b11_relu
I0818 15:07:31.870262 21769 net.cpp:434] L1_b11_relu <- L1_b11_sum_eltwise_top
I0818 15:07:31.870270 21769 net.cpp:395] L1_b11_relu -> L1_b11_sum_eltwise_top (in-place)
I0818 15:07:31.870280 21769 net.cpp:150] Setting up L1_b11_relu
I0818 15:07:31.870286 21769 net.cpp:157] Top shape: 100 16 32 32 (1638400)
I0818 15:07:31.870291 21769 net.cpp:165] Memory required for data: 820430000
I0818 15:07:31.870296 21769 layer_factory.hpp:77] Creating layer L1_b11_sum_eltwise_top_L1_b11_relu_0_split
I0818 15:07:31.870303 21769 net.cpp:100] Creating Layer L1_b11_sum_eltwise_top_L1_b11_relu_0_split
I0818 15:07:31.870308 21769 net.cpp:434] L1_b11_sum_eltwise_top_L1_b11_relu_0_split <- L1_b11_sum_eltwise_top
I0818 15:07:31.870316 21769 net.cpp:408] L1_b11_sum_eltwise_top_L1_b11_relu_0_split -> L1_b11_sum_eltwise_top_L1_b11_relu_0_split_0
I0818 15:07:31.870324 21769 net.cpp:408] L1_b11_sum_eltwise_top_L1_b11_relu_0_split -> L1_b11_sum_eltwise_top_L1_b11_relu_0_split_1
I0818 15:07:31.870369 21769 net.cpp:150] Setting up L1_b11_sum_eltwise_top_L1_b11_relu_0_split
I0818 15:07:31.870381 21769 net.cpp:157] Top shape: 100 16 32 32 (1638400)
I0818 15:07:31.870388 21769 net.cpp:157] Top shape: 100 16 32 32 (1638400)
I0818 15:07:31.870393 21769 net.cpp:165] Memory required for data: 833537200
I0818 15:07:31.870398 21769 layer_factory.hpp:77] Creating layer L1_b12_cbr1_conv
I0818 15:07:31.870412 21769 net.cpp:100] Creating Layer L1_b12_cbr1_conv
I0818 15:07:31.870419 21769 net.cpp:434] L1_b12_cbr1_conv <- L1_b11_sum_eltwise_top_L1_b11_relu_0_split_0
I0818 15:07:31.870427 21769 net.cpp:408] L1_b12_cbr1_conv -> L1_b12_cbr1_conv_top
I0818 15:07:31.870753 21769 net.cpp:150] Setting up L1_b12_cbr1_conv
I0818 15:07:31.870767 21769 net.cpp:157] Top shape: 100 16 32 32 (1638400)
I0818 15:07:31.870772 21769 net.cpp:165] Memory required for data: 840090800
I0818 15:07:31.870781 21769 layer_factory.hpp:77] Creating layer L1_b12_cbr1_bn
I0818 15:07:31.870793 21769 net.cpp:100] Creating Layer L1_b12_cbr1_bn
I0818 15:07:31.870800 21769 net.cpp:434] L1_b12_cbr1_bn <- L1_b12_cbr1_conv_top
I0818 15:07:31.870810 21769 net.cpp:408] L1_b12_cbr1_bn -> L1_b12_cbr1_bn_top
I0818 15:07:31.871054 21769 net.cpp:150] Setting up L1_b12_cbr1_bn
I0818 15:07:31.871068 21769 net.cpp:157] Top shape: 100 16 32 32 (1638400)
I0818 15:07:31.871073 21769 net.cpp:165] Memory required for data: 846644400
I0818 15:07:31.871083 21769 layer_factory.hpp:77] Creating layer L1_b12_cbr1_scale
I0818 15:07:31.871093 21769 net.cpp:100] Creating Layer L1_b12_cbr1_scale
I0818 15:07:31.871098 21769 net.cpp:434] L1_b12_cbr1_scale <- L1_b12_cbr1_bn_top
I0818 15:07:31.871106 21769 net.cpp:395] L1_b12_cbr1_scale -> L1_b12_cbr1_bn_top (in-place)
I0818 15:07:31.871162 21769 layer_factory.hpp:77] Creating layer L1_b12_cbr1_scale
I0818 15:07:31.871302 21769 net.cpp:150] Setting up L1_b12_cbr1_scale
I0818 15:07:31.871315 21769 net.cpp:157] Top shape: 100 16 32 32 (1638400)
I0818 15:07:31.871320 21769 net.cpp:165] Memory required for data: 853198000
I0818 15:07:31.871330 21769 layer_factory.hpp:77] Creating layer L1_b12_cbr1_relu
I0818 15:07:31.871337 21769 net.cpp:100] Creating Layer L1_b12_cbr1_relu
I0818 15:07:31.871345 21769 net.cpp:434] L1_b12_cbr1_relu <- L1_b12_cbr1_bn_top
I0818 15:07:31.871354 21769 net.cpp:395] L1_b12_cbr1_relu -> L1_b12_cbr1_bn_top (in-place)
I0818 15:07:31.871363 21769 net.cpp:150] Setting up L1_b12_cbr1_relu
I0818 15:07:31.871371 21769 net.cpp:157] Top shape: 100 16 32 32 (1638400)
I0818 15:07:31.871376 21769 net.cpp:165] Memory required for data: 859751600
I0818 15:07:31.871387 21769 layer_factory.hpp:77] Creating layer L1_b12_cbr2_conv
I0818 15:07:31.871402 21769 net.cpp:100] Creating Layer L1_b12_cbr2_conv
I0818 15:07:31.871407 21769 net.cpp:434] L1_b12_cbr2_conv <- L1_b12_cbr1_bn_top
I0818 15:07:31.871419 21769 net.cpp:408] L1_b12_cbr2_conv -> L1_b12_cbr2_conv_top
I0818 15:07:31.871744 21769 net.cpp:150] Setting up L1_b12_cbr2_conv
I0818 15:07:31.871758 21769 net.cpp:157] Top shape: 100 16 32 32 (1638400)
I0818 15:07:31.871763 21769 net.cpp:165] Memory required for data: 866305200
I0818 15:07:31.871773 21769 layer_factory.hpp:77] Creating layer L1_b12_cbr2_bn
I0818 15:07:31.871784 21769 net.cpp:100] Creating Layer L1_b12_cbr2_bn
I0818 15:07:31.871791 21769 net.cpp:434] L1_b12_cbr2_bn <- L1_b12_cbr2_conv_top
I0818 15:07:31.871800 21769 net.cpp:408] L1_b12_cbr2_bn -> L1_b12_cbr2_bn_top
I0818 15:07:31.872048 21769 net.cpp:150] Setting up L1_b12_cbr2_bn
I0818 15:07:31.872062 21769 net.cpp:157] Top shape: 100 16 32 32 (1638400)
I0818 15:07:31.872067 21769 net.cpp:165] Memory required for data: 872858800
I0818 15:07:31.872078 21769 layer_factory.hpp:77] Creating layer L1_b12_cbr2_scale
I0818 15:07:31.872087 21769 net.cpp:100] Creating Layer L1_b12_cbr2_scale
I0818 15:07:31.872092 21769 net.cpp:434] L1_b12_cbr2_scale <- L1_b12_cbr2_bn_top
I0818 15:07:31.872100 21769 net.cpp:395] L1_b12_cbr2_scale -> L1_b12_cbr2_bn_top (in-place)
I0818 15:07:31.872155 21769 layer_factory.hpp:77] Creating layer L1_b12_cbr2_scale
I0818 15:07:31.872298 21769 net.cpp:150] Setting up L1_b12_cbr2_scale
I0818 15:07:31.872311 21769 net.cpp:157] Top shape: 100 16 32 32 (1638400)
I0818 15:07:31.872316 21769 net.cpp:165] Memory required for data: 879412400
I0818 15:07:31.872324 21769 layer_factory.hpp:77] Creating layer L1_b12_sum_eltwise
I0818 15:07:31.872334 21769 net.cpp:100] Creating Layer L1_b12_sum_eltwise
I0818 15:07:31.872340 21769 net.cpp:434] L1_b12_sum_eltwise <- L1_b12_cbr2_bn_top
I0818 15:07:31.872346 21769 net.cpp:434] L1_b12_sum_eltwise <- L1_b11_sum_eltwise_top_L1_b11_relu_0_split_1
I0818 15:07:31.872357 21769 net.cpp:408] L1_b12_sum_eltwise -> L1_b12_sum_eltwise_top
I0818 15:07:31.872390 21769 net.cpp:150] Setting up L1_b12_sum_eltwise
I0818 15:07:31.872398 21769 net.cpp:157] Top shape: 100 16 32 32 (1638400)
I0818 15:07:31.872402 21769 net.cpp:165] Memory required for data: 885966000
I0818 15:07:31.872408 21769 layer_factory.hpp:77] Creating layer L1_b12_relu
I0818 15:07:31.872418 21769 net.cpp:100] Creating Layer L1_b12_relu
I0818 15:07:31.872426 21769 net.cpp:434] L1_b12_relu <- L1_b12_sum_eltwise_top
I0818 15:07:31.872432 21769 net.cpp:395] L1_b12_relu -> L1_b12_sum_eltwise_top (in-place)
I0818 15:07:31.872442 21769 net.cpp:150] Setting up L1_b12_relu
I0818 15:07:31.872448 21769 net.cpp:157] Top shape: 100 16 32 32 (1638400)
I0818 15:07:31.872453 21769 net.cpp:165] Memory required for data: 892519600
I0818 15:07:31.872457 21769 layer_factory.hpp:77] Creating layer L1_b12_sum_eltwise_top_L1_b12_relu_0_split
I0818 15:07:31.872464 21769 net.cpp:100] Creating Layer L1_b12_sum_eltwise_top_L1_b12_relu_0_split
I0818 15:07:31.872473 21769 net.cpp:434] L1_b12_sum_eltwise_top_L1_b12_relu_0_split <- L1_b12_sum_eltwise_top
I0818 15:07:31.872484 21769 net.cpp:408] L1_b12_sum_eltwise_top_L1_b12_relu_0_split -> L1_b12_sum_eltwise_top_L1_b12_relu_0_split_0
I0818 15:07:31.872501 21769 net.cpp:408] L1_b12_sum_eltwise_top_L1_b12_relu_0_split -> L1_b12_sum_eltwise_top_L1_b12_relu_0_split_1
I0818 15:07:31.872570 21769 net.cpp:150] Setting up L1_b12_sum_eltwise_top_L1_b12_relu_0_split
I0818 15:07:31.872588 21769 net.cpp:157] Top shape: 100 16 32 32 (1638400)
I0818 15:07:31.872601 21769 net.cpp:157] Top shape: 100 16 32 32 (1638400)
I0818 15:07:31.872611 21769 net.cpp:165] Memory required for data: 905626800
I0818 15:07:31.872619 21769 layer_factory.hpp:77] Creating layer L1_b13_cbr1_conv
I0818 15:07:31.872642 21769 net.cpp:100] Creating Layer L1_b13_cbr1_conv
I0818 15:07:31.872653 21769 net.cpp:434] L1_b13_cbr1_conv <- L1_b12_sum_eltwise_top_L1_b12_relu_0_split_0
I0818 15:07:31.872676 21769 net.cpp:408] L1_b13_cbr1_conv -> L1_b13_cbr1_conv_top
I0818 15:07:31.873008 21769 net.cpp:150] Setting up L1_b13_cbr1_conv
I0818 15:07:31.873023 21769 net.cpp:157] Top shape: 100 16 32 32 (1638400)
I0818 15:07:31.873028 21769 net.cpp:165] Memory required for data: 912180400
I0818 15:07:31.873037 21769 layer_factory.hpp:77] Creating layer L1_b13_cbr1_bn
I0818 15:07:31.873062 21769 net.cpp:100] Creating Layer L1_b13_cbr1_bn
I0818 15:07:31.873070 21769 net.cpp:434] L1_b13_cbr1_bn <- L1_b13_cbr1_conv_top
I0818 15:07:31.873077 21769 net.cpp:408] L1_b13_cbr1_bn -> L1_b13_cbr1_bn_top
I0818 15:07:31.873324 21769 net.cpp:150] Setting up L1_b13_cbr1_bn
I0818 15:07:31.873337 21769 net.cpp:157] Top shape: 100 16 32 32 (1638400)
I0818 15:07:31.873342 21769 net.cpp:165] Memory required for data: 918734000
I0818 15:07:31.873353 21769 layer_factory.hpp:77] Creating layer L1_b13_cbr1_scale
I0818 15:07:31.873365 21769 net.cpp:100] Creating Layer L1_b13_cbr1_scale
I0818 15:07:31.873373 21769 net.cpp:434] L1_b13_cbr1_scale <- L1_b13_cbr1_bn_top
I0818 15:07:31.873379 21769 net.cpp:395] L1_b13_cbr1_scale -> L1_b13_cbr1_bn_top (in-place)
I0818 15:07:31.873435 21769 layer_factory.hpp:77] Creating layer L1_b13_cbr1_scale
I0818 15:07:31.873580 21769 net.cpp:150] Setting up L1_b13_cbr1_scale
I0818 15:07:31.873594 21769 net.cpp:157] Top shape: 100 16 32 32 (1638400)
I0818 15:07:31.873598 21769 net.cpp:165] Memory required for data: 925287600
I0818 15:07:31.873607 21769 layer_factory.hpp:77] Creating layer L1_b13_cbr1_relu
I0818 15:07:31.873620 21769 net.cpp:100] Creating Layer L1_b13_cbr1_relu
I0818 15:07:31.873627 21769 net.cpp:434] L1_b13_cbr1_relu <- L1_b13_cbr1_bn_top
I0818 15:07:31.873634 21769 net.cpp:395] L1_b13_cbr1_relu -> L1_b13_cbr1_bn_top (in-place)
I0818 15:07:31.873644 21769 net.cpp:150] Setting up L1_b13_cbr1_relu
I0818 15:07:31.873651 21769 net.cpp:157] Top shape: 100 16 32 32 (1638400)
I0818 15:07:31.873656 21769 net.cpp:165] Memory required for data: 931841200
I0818 15:07:31.873661 21769 layer_factory.hpp:77] Creating layer L1_b13_cbr2_conv
I0818 15:07:31.873674 21769 net.cpp:100] Creating Layer L1_b13_cbr2_conv
I0818 15:07:31.873680 21769 net.cpp:434] L1_b13_cbr2_conv <- L1_b13_cbr1_bn_top
I0818 15:07:31.873698 21769 net.cpp:408] L1_b13_cbr2_conv -> L1_b13_cbr2_conv_top
I0818 15:07:31.874017 21769 net.cpp:150] Setting up L1_b13_cbr2_conv
I0818 15:07:31.874032 21769 net.cpp:157] Top shape: 100 16 32 32 (1638400)
I0818 15:07:31.874037 21769 net.cpp:165] Memory required for data: 938394800
I0818 15:07:31.874045 21769 layer_factory.hpp:77] Creating layer L1_b13_cbr2_bn
I0818 15:07:31.874055 21769 net.cpp:100] Creating Layer L1_b13_cbr2_bn
I0818 15:07:31.874061 21769 net.cpp:434] L1_b13_cbr2_bn <- L1_b13_cbr2_conv_top
I0818 15:07:31.874073 21769 net.cpp:408] L1_b13_cbr2_bn -> L1_b13_cbr2_bn_top
I0818 15:07:31.874318 21769 net.cpp:150] Setting up L1_b13_cbr2_bn
I0818 15:07:31.874331 21769 net.cpp:157] Top shape: 100 16 32 32 (1638400)
I0818 15:07:31.874336 21769 net.cpp:165] Memory required for data: 944948400
I0818 15:07:31.874346 21769 layer_factory.hpp:77] Creating layer L1_b13_cbr2_scale
I0818 15:07:31.874359 21769 net.cpp:100] Creating Layer L1_b13_cbr2_scale
I0818 15:07:31.874366 21769 net.cpp:434] L1_b13_cbr2_scale <- L1_b13_cbr2_bn_top
I0818 15:07:31.874374 21769 net.cpp:395] L1_b13_cbr2_scale -> L1_b13_cbr2_bn_top (in-place)
I0818 15:07:31.874428 21769 layer_factory.hpp:77] Creating layer L1_b13_cbr2_scale
I0818 15:07:31.874569 21769 net.cpp:150] Setting up L1_b13_cbr2_scale
I0818 15:07:31.874583 21769 net.cpp:157] Top shape: 100 16 32 32 (1638400)
I0818 15:07:31.874588 21769 net.cpp:165] Memory required for data: 951502000
I0818 15:07:31.874596 21769 layer_factory.hpp:77] Creating layer L1_b13_sum_eltwise
I0818 15:07:31.874606 21769 net.cpp:100] Creating Layer L1_b13_sum_eltwise
I0818 15:07:31.874613 21769 net.cpp:434] L1_b13_sum_eltwise <- L1_b13_cbr2_bn_top
I0818 15:07:31.874622 21769 net.cpp:434] L1_b13_sum_eltwise <- L1_b12_sum_eltwise_top_L1_b12_relu_0_split_1
I0818 15:07:31.874637 21769 net.cpp:408] L1_b13_sum_eltwise -> L1_b13_sum_eltwise_top
I0818 15:07:31.874672 21769 net.cpp:150] Setting up L1_b13_sum_eltwise
I0818 15:07:31.874688 21769 net.cpp:157] Top shape: 100 16 32 32 (1638400)
I0818 15:07:31.874694 21769 net.cpp:165] Memory required for data: 958055600
I0818 15:07:31.874699 21769 layer_factory.hpp:77] Creating layer L1_b13_relu
I0818 15:07:31.874707 21769 net.cpp:100] Creating Layer L1_b13_relu
I0818 15:07:31.874713 21769 net.cpp:434] L1_b13_relu <- L1_b13_sum_eltwise_top
I0818 15:07:31.874723 21769 net.cpp:395] L1_b13_relu -> L1_b13_sum_eltwise_top (in-place)
I0818 15:07:31.874733 21769 net.cpp:150] Setting up L1_b13_relu
I0818 15:07:31.874740 21769 net.cpp:157] Top shape: 100 16 32 32 (1638400)
I0818 15:07:31.874744 21769 net.cpp:165] Memory required for data: 964609200
I0818 15:07:31.874749 21769 layer_factory.hpp:77] Creating layer L1_b13_sum_eltwise_top_L1_b13_relu_0_split
I0818 15:07:31.874756 21769 net.cpp:100] Creating Layer L1_b13_sum_eltwise_top_L1_b13_relu_0_split
I0818 15:07:31.874761 21769 net.cpp:434] L1_b13_sum_eltwise_top_L1_b13_relu_0_split <- L1_b13_sum_eltwise_top
I0818 15:07:31.874769 21769 net.cpp:408] L1_b13_sum_eltwise_top_L1_b13_relu_0_split -> L1_b13_sum_eltwise_top_L1_b13_relu_0_split_0
I0818 15:07:31.874778 21769 net.cpp:408] L1_b13_sum_eltwise_top_L1_b13_relu_0_split -> L1_b13_sum_eltwise_top_L1_b13_relu_0_split_1
I0818 15:07:31.874825 21769 net.cpp:150] Setting up L1_b13_sum_eltwise_top_L1_b13_relu_0_split
I0818 15:07:31.874836 21769 net.cpp:157] Top shape: 100 16 32 32 (1638400)
I0818 15:07:31.874843 21769 net.cpp:157] Top shape: 100 16 32 32 (1638400)
I0818 15:07:31.874848 21769 net.cpp:165] Memory required for data: 977716400
I0818 15:07:31.874853 21769 layer_factory.hpp:77] Creating layer L1_b14_cbr1_conv
I0818 15:07:31.874864 21769 net.cpp:100] Creating Layer L1_b14_cbr1_conv
I0818 15:07:31.874871 21769 net.cpp:434] L1_b14_cbr1_conv <- L1_b13_sum_eltwise_top_L1_b13_relu_0_split_0
I0818 15:07:31.874882 21769 net.cpp:408] L1_b14_cbr1_conv -> L1_b14_cbr1_conv_top
I0818 15:07:31.875200 21769 net.cpp:150] Setting up L1_b14_cbr1_conv
I0818 15:07:31.875214 21769 net.cpp:157] Top shape: 100 16 32 32 (1638400)
I0818 15:07:31.875219 21769 net.cpp:165] Memory required for data: 984270000
I0818 15:07:31.875228 21769 layer_factory.hpp:77] Creating layer L1_b14_cbr1_bn
I0818 15:07:31.875237 21769 net.cpp:100] Creating Layer L1_b14_cbr1_bn
I0818 15:07:31.875243 21769 net.cpp:434] L1_b14_cbr1_bn <- L1_b14_cbr1_conv_top
I0818 15:07:31.875255 21769 net.cpp:408] L1_b14_cbr1_bn -> L1_b14_cbr1_bn_top
I0818 15:07:31.875499 21769 net.cpp:150] Setting up L1_b14_cbr1_bn
I0818 15:07:31.875511 21769 net.cpp:157] Top shape: 100 16 32 32 (1638400)
I0818 15:07:31.875516 21769 net.cpp:165] Memory required for data: 990823600
I0818 15:07:31.875526 21769 layer_factory.hpp:77] Creating layer L1_b14_cbr1_scale
I0818 15:07:31.875538 21769 net.cpp:100] Creating Layer L1_b14_cbr1_scale
I0818 15:07:31.875545 21769 net.cpp:434] L1_b14_cbr1_scale <- L1_b14_cbr1_bn_top
I0818 15:07:31.875552 21769 net.cpp:395] L1_b14_cbr1_scale -> L1_b14_cbr1_bn_top (in-place)
I0818 15:07:31.875607 21769 layer_factory.hpp:77] Creating layer L1_b14_cbr1_scale
I0818 15:07:31.875759 21769 net.cpp:150] Setting up L1_b14_cbr1_scale
I0818 15:07:31.875773 21769 net.cpp:157] Top shape: 100 16 32 32 (1638400)
I0818 15:07:31.875778 21769 net.cpp:165] Memory required for data: 997377200
I0818 15:07:31.875788 21769 layer_factory.hpp:77] Creating layer L1_b14_cbr1_relu
I0818 15:07:31.875799 21769 net.cpp:100] Creating Layer L1_b14_cbr1_relu
I0818 15:07:31.875807 21769 net.cpp:434] L1_b14_cbr1_relu <- L1_b14_cbr1_bn_top
I0818 15:07:31.875813 21769 net.cpp:395] L1_b14_cbr1_relu -> L1_b14_cbr1_bn_top (in-place)
I0818 15:07:31.875823 21769 net.cpp:150] Setting up L1_b14_cbr1_relu
I0818 15:07:31.875830 21769 net.cpp:157] Top shape: 100 16 32 32 (1638400)
I0818 15:07:31.875834 21769 net.cpp:165] Memory required for data: 1003930800
I0818 15:07:31.875839 21769 layer_factory.hpp:77] Creating layer L1_b14_cbr2_conv
I0818 15:07:31.875860 21769 net.cpp:100] Creating Layer L1_b14_cbr2_conv
I0818 15:07:31.875866 21769 net.cpp:434] L1_b14_cbr2_conv <- L1_b14_cbr1_bn_top
I0818 15:07:31.875877 21769 net.cpp:408] L1_b14_cbr2_conv -> L1_b14_cbr2_conv_top
I0818 15:07:31.876196 21769 net.cpp:150] Setting up L1_b14_cbr2_conv
I0818 15:07:31.876210 21769 net.cpp:157] Top shape: 100 16 32 32 (1638400)
I0818 15:07:31.876215 21769 net.cpp:165] Memory required for data: 1010484400
I0818 15:07:31.876224 21769 layer_factory.hpp:77] Creating layer L1_b14_cbr2_bn
I0818 15:07:31.876233 21769 net.cpp:100] Creating Layer L1_b14_cbr2_bn
I0818 15:07:31.876240 21769 net.cpp:434] L1_b14_cbr2_bn <- L1_b14_cbr2_conv_top
I0818 15:07:31.876248 21769 net.cpp:408] L1_b14_cbr2_bn -> L1_b14_cbr2_bn_top
I0818 15:07:31.876497 21769 net.cpp:150] Setting up L1_b14_cbr2_bn
I0818 15:07:31.876510 21769 net.cpp:157] Top shape: 100 16 32 32 (1638400)
I0818 15:07:31.876515 21769 net.cpp:165] Memory required for data: 1017038000
I0818 15:07:31.876525 21769 layer_factory.hpp:77] Creating layer L1_b14_cbr2_scale
I0818 15:07:31.876540 21769 net.cpp:100] Creating Layer L1_b14_cbr2_scale
I0818 15:07:31.876547 21769 net.cpp:434] L1_b14_cbr2_scale <- L1_b14_cbr2_bn_top
I0818 15:07:31.876555 21769 net.cpp:395] L1_b14_cbr2_scale -> L1_b14_cbr2_bn_top (in-place)
I0818 15:07:31.876612 21769 layer_factory.hpp:77] Creating layer L1_b14_cbr2_scale
I0818 15:07:31.876763 21769 net.cpp:150] Setting up L1_b14_cbr2_scale
I0818 15:07:31.876777 21769 net.cpp:157] Top shape: 100 16 32 32 (1638400)
I0818 15:07:31.876782 21769 net.cpp:165] Memory required for data: 1023591600
I0818 15:07:31.876791 21769 layer_factory.hpp:77] Creating layer L1_b14_sum_eltwise
I0818 15:07:31.876801 21769 net.cpp:100] Creating Layer L1_b14_sum_eltwise
I0818 15:07:31.876806 21769 net.cpp:434] L1_b14_sum_eltwise <- L1_b14_cbr2_bn_top
I0818 15:07:31.876812 21769 net.cpp:434] L1_b14_sum_eltwise <- L1_b13_sum_eltwise_top_L1_b13_relu_0_split_1
I0818 15:07:31.876823 21769 net.cpp:408] L1_b14_sum_eltwise -> L1_b14_sum_eltwise_top
I0818 15:07:31.876858 21769 net.cpp:150] Setting up L1_b14_sum_eltwise
I0818 15:07:31.876868 21769 net.cpp:157] Top shape: 100 16 32 32 (1638400)
I0818 15:07:31.876873 21769 net.cpp:165] Memory required for data: 1030145200
I0818 15:07:31.876878 21769 layer_factory.hpp:77] Creating layer L1_b14_relu
I0818 15:07:31.876885 21769 net.cpp:100] Creating Layer L1_b14_relu
I0818 15:07:31.876890 21769 net.cpp:434] L1_b14_relu <- L1_b14_sum_eltwise_top
I0818 15:07:31.876900 21769 net.cpp:395] L1_b14_relu -> L1_b14_sum_eltwise_top (in-place)
I0818 15:07:31.876910 21769 net.cpp:150] Setting up L1_b14_relu
I0818 15:07:31.876917 21769 net.cpp:157] Top shape: 100 16 32 32 (1638400)
I0818 15:07:31.876922 21769 net.cpp:165] Memory required for data: 1036698800
I0818 15:07:31.876926 21769 layer_factory.hpp:77] Creating layer L1_b14_sum_eltwise_top_L1_b14_relu_0_split
I0818 15:07:31.876935 21769 net.cpp:100] Creating Layer L1_b14_sum_eltwise_top_L1_b14_relu_0_split
I0818 15:07:31.876940 21769 net.cpp:434] L1_b14_sum_eltwise_top_L1_b14_relu_0_split <- L1_b14_sum_eltwise_top
I0818 15:07:31.876946 21769 net.cpp:408] L1_b14_sum_eltwise_top_L1_b14_relu_0_split -> L1_b14_sum_eltwise_top_L1_b14_relu_0_split_0
I0818 15:07:31.876955 21769 net.cpp:408] L1_b14_sum_eltwise_top_L1_b14_relu_0_split -> L1_b14_sum_eltwise_top_L1_b14_relu_0_split_1
I0818 15:07:31.877002 21769 net.cpp:150] Setting up L1_b14_sum_eltwise_top_L1_b14_relu_0_split
I0818 15:07:31.877013 21769 net.cpp:157] Top shape: 100 16 32 32 (1638400)
I0818 15:07:31.877020 21769 net.cpp:157] Top shape: 100 16 32 32 (1638400)
I0818 15:07:31.877024 21769 net.cpp:165] Memory required for data: 1049806000
I0818 15:07:31.877029 21769 layer_factory.hpp:77] Creating layer L1_b15_cbr1_conv
I0818 15:07:31.877040 21769 net.cpp:100] Creating Layer L1_b15_cbr1_conv
I0818 15:07:31.877048 21769 net.cpp:434] L1_b15_cbr1_conv <- L1_b14_sum_eltwise_top_L1_b14_relu_0_split_0
I0818 15:07:31.877058 21769 net.cpp:408] L1_b15_cbr1_conv -> L1_b15_cbr1_conv_top
I0818 15:07:31.877377 21769 net.cpp:150] Setting up L1_b15_cbr1_conv
I0818 15:07:31.877398 21769 net.cpp:157] Top shape: 100 16 32 32 (1638400)
I0818 15:07:31.877403 21769 net.cpp:165] Memory required for data: 1056359600
I0818 15:07:31.877413 21769 layer_factory.hpp:77] Creating layer L1_b15_cbr1_bn
I0818 15:07:31.877421 21769 net.cpp:100] Creating Layer L1_b15_cbr1_bn
I0818 15:07:31.877427 21769 net.cpp:434] L1_b15_cbr1_bn <- L1_b15_cbr1_conv_top
I0818 15:07:31.877441 21769 net.cpp:408] L1_b15_cbr1_bn -> L1_b15_cbr1_bn_top
I0818 15:07:31.877697 21769 net.cpp:150] Setting up L1_b15_cbr1_bn
I0818 15:07:31.877712 21769 net.cpp:157] Top shape: 100 16 32 32 (1638400)
I0818 15:07:31.877717 21769 net.cpp:165] Memory required for data: 1062913200
I0818 15:07:31.877727 21769 layer_factory.hpp:77] Creating layer L1_b15_cbr1_scale
I0818 15:07:31.877739 21769 net.cpp:100] Creating Layer L1_b15_cbr1_scale
I0818 15:07:31.877746 21769 net.cpp:434] L1_b15_cbr1_scale <- L1_b15_cbr1_bn_top
I0818 15:07:31.877754 21769 net.cpp:395] L1_b15_cbr1_scale -> L1_b15_cbr1_bn_top (in-place)
I0818 15:07:31.877809 21769 layer_factory.hpp:77] Creating layer L1_b15_cbr1_scale
I0818 15:07:31.877959 21769 net.cpp:150] Setting up L1_b15_cbr1_scale
I0818 15:07:31.877971 21769 net.cpp:157] Top shape: 100 16 32 32 (1638400)
I0818 15:07:31.877976 21769 net.cpp:165] Memory required for data: 1069466800
I0818 15:07:31.877985 21769 layer_factory.hpp:77] Creating layer L1_b15_cbr1_relu
I0818 15:07:31.877993 21769 net.cpp:100] Creating Layer L1_b15_cbr1_relu
I0818 15:07:31.878000 21769 net.cpp:434] L1_b15_cbr1_relu <- L1_b15_cbr1_bn_top
I0818 15:07:31.878010 21769 net.cpp:395] L1_b15_cbr1_relu -> L1_b15_cbr1_bn_top (in-place)
I0818 15:07:31.878021 21769 net.cpp:150] Setting up L1_b15_cbr1_relu
I0818 15:07:31.878027 21769 net.cpp:157] Top shape: 100 16 32 32 (1638400)
I0818 15:07:31.878032 21769 net.cpp:165] Memory required for data: 1076020400
I0818 15:07:31.878037 21769 layer_factory.hpp:77] Creating layer L1_b15_cbr2_conv
I0818 15:07:31.878051 21769 net.cpp:100] Creating Layer L1_b15_cbr2_conv
I0818 15:07:31.878057 21769 net.cpp:434] L1_b15_cbr2_conv <- L1_b15_cbr1_bn_top
I0818 15:07:31.878065 21769 net.cpp:408] L1_b15_cbr2_conv -> L1_b15_cbr2_conv_top
I0818 15:07:31.878378 21769 net.cpp:150] Setting up L1_b15_cbr2_conv
I0818 15:07:31.878392 21769 net.cpp:157] Top shape: 100 16 32 32 (1638400)
I0818 15:07:31.878397 21769 net.cpp:165] Memory required for data: 1082574000
I0818 15:07:31.878407 21769 layer_factory.hpp:77] Creating layer L1_b15_cbr2_bn
I0818 15:07:31.878418 21769 net.cpp:100] Creating Layer L1_b15_cbr2_bn
I0818 15:07:31.878425 21769 net.cpp:434] L1_b15_cbr2_bn <- L1_b15_cbr2_conv_top
I0818 15:07:31.878433 21769 net.cpp:408] L1_b15_cbr2_bn -> L1_b15_cbr2_bn_top
I0818 15:07:31.878680 21769 net.cpp:150] Setting up L1_b15_cbr2_bn
I0818 15:07:31.878700 21769 net.cpp:157] Top shape: 100 16 32 32 (1638400)
I0818 15:07:31.878705 21769 net.cpp:165] Memory required for data: 1089127600
I0818 15:07:31.878715 21769 layer_factory.hpp:77] Creating layer L1_b15_cbr2_scale
I0818 15:07:31.878727 21769 net.cpp:100] Creating Layer L1_b15_cbr2_scale
I0818 15:07:31.878733 21769 net.cpp:434] L1_b15_cbr2_scale <- L1_b15_cbr2_bn_top
I0818 15:07:31.878741 21769 net.cpp:395] L1_b15_cbr2_scale -> L1_b15_cbr2_bn_top (in-place)
I0818 15:07:31.878795 21769 layer_factory.hpp:77] Creating layer L1_b15_cbr2_scale
I0818 15:07:31.878942 21769 net.cpp:150] Setting up L1_b15_cbr2_scale
I0818 15:07:31.878954 21769 net.cpp:157] Top shape: 100 16 32 32 (1638400)
I0818 15:07:31.878959 21769 net.cpp:165] Memory required for data: 1095681200
I0818 15:07:31.878968 21769 layer_factory.hpp:77] Creating layer L1_b15_sum_eltwise
I0818 15:07:31.878978 21769 net.cpp:100] Creating Layer L1_b15_sum_eltwise
I0818 15:07:31.878983 21769 net.cpp:434] L1_b15_sum_eltwise <- L1_b15_cbr2_bn_top
I0818 15:07:31.878990 21769 net.cpp:434] L1_b15_sum_eltwise <- L1_b14_sum_eltwise_top_L1_b14_relu_0_split_1
I0818 15:07:31.879004 21769 net.cpp:408] L1_b15_sum_eltwise -> L1_b15_sum_eltwise_top
I0818 15:07:31.879035 21769 net.cpp:150] Setting up L1_b15_sum_eltwise
I0818 15:07:31.879055 21769 net.cpp:157] Top shape: 100 16 32 32 (1638400)
I0818 15:07:31.879061 21769 net.cpp:165] Memory required for data: 1102234800
I0818 15:07:31.879066 21769 layer_factory.hpp:77] Creating layer L1_b15_relu
I0818 15:07:31.879075 21769 net.cpp:100] Creating Layer L1_b15_relu
I0818 15:07:31.879079 21769 net.cpp:434] L1_b15_relu <- L1_b15_sum_eltwise_top
I0818 15:07:31.879086 21769 net.cpp:395] L1_b15_relu -> L1_b15_sum_eltwise_top (in-place)
I0818 15:07:31.879096 21769 net.cpp:150] Setting up L1_b15_relu
I0818 15:07:31.879102 21769 net.cpp:157] Top shape: 100 16 32 32 (1638400)
I0818 15:07:31.879107 21769 net.cpp:165] Memory required for data: 1108788400
I0818 15:07:31.879112 21769 layer_factory.hpp:77] Creating layer L1_b15_sum_eltwise_top_L1_b15_relu_0_split
I0818 15:07:31.879122 21769 net.cpp:100] Creating Layer L1_b15_sum_eltwise_top_L1_b15_relu_0_split
I0818 15:07:31.879127 21769 net.cpp:434] L1_b15_sum_eltwise_top_L1_b15_relu_0_split <- L1_b15_sum_eltwise_top
I0818 15:07:31.879135 21769 net.cpp:408] L1_b15_sum_eltwise_top_L1_b15_relu_0_split -> L1_b15_sum_eltwise_top_L1_b15_relu_0_split_0
I0818 15:07:31.879145 21769 net.cpp:408] L1_b15_sum_eltwise_top_L1_b15_relu_0_split -> L1_b15_sum_eltwise_top_L1_b15_relu_0_split_1
I0818 15:07:31.879192 21769 net.cpp:150] Setting up L1_b15_sum_eltwise_top_L1_b15_relu_0_split
I0818 15:07:31.879204 21769 net.cpp:157] Top shape: 100 16 32 32 (1638400)
I0818 15:07:31.879210 21769 net.cpp:157] Top shape: 100 16 32 32 (1638400)
I0818 15:07:31.879215 21769 net.cpp:165] Memory required for data: 1121895600
I0818 15:07:31.879220 21769 layer_factory.hpp:77] Creating layer L1_b16_cbr1_conv
I0818 15:07:31.879232 21769 net.cpp:100] Creating Layer L1_b16_cbr1_conv
I0818 15:07:31.879238 21769 net.cpp:434] L1_b16_cbr1_conv <- L1_b15_sum_eltwise_top_L1_b15_relu_0_split_0
I0818 15:07:31.879251 21769 net.cpp:408] L1_b16_cbr1_conv -> L1_b16_cbr1_conv_top
I0818 15:07:31.879575 21769 net.cpp:150] Setting up L1_b16_cbr1_conv
I0818 15:07:31.879588 21769 net.cpp:157] Top shape: 100 16 32 32 (1638400)
I0818 15:07:31.879593 21769 net.cpp:165] Memory required for data: 1128449200
I0818 15:07:31.879602 21769 layer_factory.hpp:77] Creating layer L1_b16_cbr1_bn
I0818 15:07:31.879611 21769 net.cpp:100] Creating Layer L1_b16_cbr1_bn
I0818 15:07:31.879617 21769 net.cpp:434] L1_b16_cbr1_bn <- L1_b16_cbr1_conv_top
I0818 15:07:31.879626 21769 net.cpp:408] L1_b16_cbr1_bn -> L1_b16_cbr1_bn_top
I0818 15:07:31.879885 21769 net.cpp:150] Setting up L1_b16_cbr1_bn
I0818 15:07:31.879899 21769 net.cpp:157] Top shape: 100 16 32 32 (1638400)
I0818 15:07:31.879904 21769 net.cpp:165] Memory required for data: 1135002800
I0818 15:07:31.879914 21769 layer_factory.hpp:77] Creating layer L1_b16_cbr1_scale
I0818 15:07:31.879926 21769 net.cpp:100] Creating Layer L1_b16_cbr1_scale
I0818 15:07:31.879933 21769 net.cpp:434] L1_b16_cbr1_scale <- L1_b16_cbr1_bn_top
I0818 15:07:31.879940 21769 net.cpp:395] L1_b16_cbr1_scale -> L1_b16_cbr1_bn_top (in-place)
I0818 15:07:31.880028 21769 layer_factory.hpp:77] Creating layer L1_b16_cbr1_scale
I0818 15:07:31.880174 21769 net.cpp:150] Setting up L1_b16_cbr1_scale
I0818 15:07:31.880188 21769 net.cpp:157] Top shape: 100 16 32 32 (1638400)
I0818 15:07:31.880193 21769 net.cpp:165] Memory required for data: 1141556400
I0818 15:07:31.880203 21769 layer_factory.hpp:77] Creating layer L1_b16_cbr1_relu
I0818 15:07:31.880210 21769 net.cpp:100] Creating Layer L1_b16_cbr1_relu
I0818 15:07:31.880216 21769 net.cpp:434] L1_b16_cbr1_relu <- L1_b16_cbr1_bn_top
I0818 15:07:31.880226 21769 net.cpp:395] L1_b16_cbr1_relu -> L1_b16_cbr1_bn_top (in-place)
I0818 15:07:31.880236 21769 net.cpp:150] Setting up L1_b16_cbr1_relu
I0818 15:07:31.880244 21769 net.cpp:157] Top shape: 100 16 32 32 (1638400)
I0818 15:07:31.880249 21769 net.cpp:165] Memory required for data: 1148110000
I0818 15:07:31.880259 21769 layer_factory.hpp:77] Creating layer L1_b16_cbr2_conv
I0818 15:07:31.880272 21769 net.cpp:100] Creating Layer L1_b16_cbr2_conv
I0818 15:07:31.880278 21769 net.cpp:434] L1_b16_cbr2_conv <- L1_b16_cbr1_bn_top
I0818 15:07:31.880295 21769 net.cpp:408] L1_b16_cbr2_conv -> L1_b16_cbr2_conv_top
I0818 15:07:31.880622 21769 net.cpp:150] Setting up L1_b16_cbr2_conv
I0818 15:07:31.880640 21769 net.cpp:157] Top shape: 100 16 32 32 (1638400)
I0818 15:07:31.880650 21769 net.cpp:165] Memory required for data: 1154663600
I0818 15:07:31.880664 21769 layer_factory.hpp:77] Creating layer L1_b16_cbr2_bn
I0818 15:07:31.880692 21769 net.cpp:100] Creating Layer L1_b16_cbr2_bn
I0818 15:07:31.880704 21769 net.cpp:434] L1_b16_cbr2_bn <- L1_b16_cbr2_conv_top
I0818 15:07:31.880723 21769 net.cpp:408] L1_b16_cbr2_bn -> L1_b16_cbr2_bn_top
I0818 15:07:31.881009 21769 net.cpp:150] Setting up L1_b16_cbr2_bn
I0818 15:07:31.881024 21769 net.cpp:157] Top shape: 100 16 32 32 (1638400)
I0818 15:07:31.881029 21769 net.cpp:165] Memory required for data: 1161217200
I0818 15:07:31.881041 21769 layer_factory.hpp:77] Creating layer L1_b16_cbr2_scale
I0818 15:07:31.881049 21769 net.cpp:100] Creating Layer L1_b16_cbr2_scale
I0818 15:07:31.881055 21769 net.cpp:434] L1_b16_cbr2_scale <- L1_b16_cbr2_bn_top
I0818 15:07:31.881067 21769 net.cpp:395] L1_b16_cbr2_scale -> L1_b16_cbr2_bn_top (in-place)
I0818 15:07:31.881124 21769 layer_factory.hpp:77] Creating layer L1_b16_cbr2_scale
I0818 15:07:31.881274 21769 net.cpp:150] Setting up L1_b16_cbr2_scale
I0818 15:07:31.881289 21769 net.cpp:157] Top shape: 100 16 32 32 (1638400)
I0818 15:07:31.881294 21769 net.cpp:165] Memory required for data: 1167770800
I0818 15:07:31.881302 21769 layer_factory.hpp:77] Creating layer L1_b16_sum_eltwise
I0818 15:07:31.881311 21769 net.cpp:100] Creating Layer L1_b16_sum_eltwise
I0818 15:07:31.881317 21769 net.cpp:434] L1_b16_sum_eltwise <- L1_b16_cbr2_bn_top
I0818 15:07:31.881325 21769 net.cpp:434] L1_b16_sum_eltwise <- L1_b15_sum_eltwise_top_L1_b15_relu_0_split_1
I0818 15:07:31.881335 21769 net.cpp:408] L1_b16_sum_eltwise -> L1_b16_sum_eltwise_top
I0818 15:07:31.881368 21769 net.cpp:150] Setting up L1_b16_sum_eltwise
I0818 15:07:31.881381 21769 net.cpp:157] Top shape: 100 16 32 32 (1638400)
I0818 15:07:31.881386 21769 net.cpp:165] Memory required for data: 1174324400
I0818 15:07:31.881392 21769 layer_factory.hpp:77] Creating layer L1_b16_relu
I0818 15:07:31.881398 21769 net.cpp:100] Creating Layer L1_b16_relu
I0818 15:07:31.881404 21769 net.cpp:434] L1_b16_relu <- L1_b16_sum_eltwise_top
I0818 15:07:31.881412 21769 net.cpp:395] L1_b16_relu -> L1_b16_sum_eltwise_top (in-place)
I0818 15:07:31.881420 21769 net.cpp:150] Setting up L1_b16_relu
I0818 15:07:31.881428 21769 net.cpp:157] Top shape: 100 16 32 32 (1638400)
I0818 15:07:31.881431 21769 net.cpp:165] Memory required for data: 1180878000
I0818 15:07:31.881436 21769 layer_factory.hpp:77] Creating layer L1_b16_sum_eltwise_top_L1_b16_relu_0_split
I0818 15:07:31.881448 21769 net.cpp:100] Creating Layer L1_b16_sum_eltwise_top_L1_b16_relu_0_split
I0818 15:07:31.881453 21769 net.cpp:434] L1_b16_sum_eltwise_top_L1_b16_relu_0_split <- L1_b16_sum_eltwise_top
I0818 15:07:31.881460 21769 net.cpp:408] L1_b16_sum_eltwise_top_L1_b16_relu_0_split -> L1_b16_sum_eltwise_top_L1_b16_relu_0_split_0
I0818 15:07:31.881470 21769 net.cpp:408] L1_b16_sum_eltwise_top_L1_b16_relu_0_split -> L1_b16_sum_eltwise_top_L1_b16_relu_0_split_1
I0818 15:07:31.881513 21769 net.cpp:150] Setting up L1_b16_sum_eltwise_top_L1_b16_relu_0_split
I0818 15:07:31.881527 21769 net.cpp:157] Top shape: 100 16 32 32 (1638400)
I0818 15:07:31.881536 21769 net.cpp:157] Top shape: 100 16 32 32 (1638400)
I0818 15:07:31.881539 21769 net.cpp:165] Memory required for data: 1193985200
I0818 15:07:31.881546 21769 layer_factory.hpp:77] Creating layer L1_b17_cbr1_conv
I0818 15:07:31.881556 21769 net.cpp:100] Creating Layer L1_b17_cbr1_conv
I0818 15:07:31.881562 21769 net.cpp:434] L1_b17_cbr1_conv <- L1_b16_sum_eltwise_top_L1_b16_relu_0_split_0
I0818 15:07:31.881572 21769 net.cpp:408] L1_b17_cbr1_conv -> L1_b17_cbr1_conv_top
I0818 15:07:31.881904 21769 net.cpp:150] Setting up L1_b17_cbr1_conv
I0818 15:07:31.881919 21769 net.cpp:157] Top shape: 100 16 32 32 (1638400)
I0818 15:07:31.881924 21769 net.cpp:165] Memory required for data: 1200538800
I0818 15:07:31.881942 21769 layer_factory.hpp:77] Creating layer L1_b17_cbr1_bn
I0818 15:07:31.881954 21769 net.cpp:100] Creating Layer L1_b17_cbr1_bn
I0818 15:07:31.881961 21769 net.cpp:434] L1_b17_cbr1_bn <- L1_b17_cbr1_conv_top
I0818 15:07:31.881970 21769 net.cpp:408] L1_b17_cbr1_bn -> L1_b17_cbr1_bn_top
I0818 15:07:31.882223 21769 net.cpp:150] Setting up L1_b17_cbr1_bn
I0818 15:07:31.882237 21769 net.cpp:157] Top shape: 100 16 32 32 (1638400)
I0818 15:07:31.882242 21769 net.cpp:165] Memory required for data: 1207092400
I0818 15:07:31.882252 21769 layer_factory.hpp:77] Creating layer L1_b17_cbr1_scale
I0818 15:07:31.882266 21769 net.cpp:100] Creating Layer L1_b17_cbr1_scale
I0818 15:07:31.882272 21769 net.cpp:434] L1_b17_cbr1_scale <- L1_b17_cbr1_bn_top
I0818 15:07:31.882280 21769 net.cpp:395] L1_b17_cbr1_scale -> L1_b17_cbr1_bn_top (in-place)
I0818 15:07:31.882339 21769 layer_factory.hpp:77] Creating layer L1_b17_cbr1_scale
I0818 15:07:31.882484 21769 net.cpp:150] Setting up L1_b17_cbr1_scale
I0818 15:07:31.882498 21769 net.cpp:157] Top shape: 100 16 32 32 (1638400)
I0818 15:07:31.882503 21769 net.cpp:165] Memory required for data: 1213646000
I0818 15:07:31.882511 21769 layer_factory.hpp:77] Creating layer L1_b17_cbr1_relu
I0818 15:07:31.882519 21769 net.cpp:100] Creating Layer L1_b17_cbr1_relu
I0818 15:07:31.882525 21769 net.cpp:434] L1_b17_cbr1_relu <- L1_b17_cbr1_bn_top
I0818 15:07:31.882535 21769 net.cpp:395] L1_b17_cbr1_relu -> L1_b17_cbr1_bn_top (in-place)
I0818 15:07:31.882545 21769 net.cpp:150] Setting up L1_b17_cbr1_relu
I0818 15:07:31.882552 21769 net.cpp:157] Top shape: 100 16 32 32 (1638400)
I0818 15:07:31.882557 21769 net.cpp:165] Memory required for data: 1220199600
I0818 15:07:31.882562 21769 layer_factory.hpp:77] Creating layer L1_b17_cbr2_conv
I0818 15:07:31.882580 21769 net.cpp:100] Creating Layer L1_b17_cbr2_conv
I0818 15:07:31.882586 21769 net.cpp:434] L1_b17_cbr2_conv <- L1_b17_cbr1_bn_top
I0818 15:07:31.882594 21769 net.cpp:408] L1_b17_cbr2_conv -> L1_b17_cbr2_conv_top
I0818 15:07:31.882932 21769 net.cpp:150] Setting up L1_b17_cbr2_conv
I0818 15:07:31.882947 21769 net.cpp:157] Top shape: 100 16 32 32 (1638400)
I0818 15:07:31.882952 21769 net.cpp:165] Memory required for data: 1226753200
I0818 15:07:31.882962 21769 layer_factory.hpp:77] Creating layer L1_b17_cbr2_bn
I0818 15:07:31.882975 21769 net.cpp:100] Creating Layer L1_b17_cbr2_bn
I0818 15:07:31.882982 21769 net.cpp:434] L1_b17_cbr2_bn <- L1_b17_cbr2_conv_top
I0818 15:07:31.882990 21769 net.cpp:408] L1_b17_cbr2_bn -> L1_b17_cbr2_bn_top
I0818 15:07:31.883244 21769 net.cpp:150] Setting up L1_b17_cbr2_bn
I0818 15:07:31.883256 21769 net.cpp:157] Top shape: 100 16 32 32 (1638400)
I0818 15:07:31.883261 21769 net.cpp:165] Memory required for data: 1233306800
I0818 15:07:31.883272 21769 layer_factory.hpp:77] Creating layer L1_b17_cbr2_scale
I0818 15:07:31.883281 21769 net.cpp:100] Creating Layer L1_b17_cbr2_scale
I0818 15:07:31.883287 21769 net.cpp:434] L1_b17_cbr2_scale <- L1_b17_cbr2_bn_top
I0818 15:07:31.883298 21769 net.cpp:395] L1_b17_cbr2_scale -> L1_b17_cbr2_bn_top (in-place)
I0818 15:07:31.883354 21769 layer_factory.hpp:77] Creating layer L1_b17_cbr2_scale
I0818 15:07:31.883498 21769 net.cpp:150] Setting up L1_b17_cbr2_scale
I0818 15:07:31.883514 21769 net.cpp:157] Top shape: 100 16 32 32 (1638400)
I0818 15:07:31.883520 21769 net.cpp:165] Memory required for data: 1239860400
I0818 15:07:31.883528 21769 layer_factory.hpp:77] Creating layer L1_b17_sum_eltwise
I0818 15:07:31.883538 21769 net.cpp:100] Creating Layer L1_b17_sum_eltwise
I0818 15:07:31.883544 21769 net.cpp:434] L1_b17_sum_eltwise <- L1_b17_cbr2_bn_top
I0818 15:07:31.883551 21769 net.cpp:434] L1_b17_sum_eltwise <- L1_b16_sum_eltwise_top_L1_b16_relu_0_split_1
I0818 15:07:31.883558 21769 net.cpp:408] L1_b17_sum_eltwise -> L1_b17_sum_eltwise_top
I0818 15:07:31.883594 21769 net.cpp:150] Setting up L1_b17_sum_eltwise
I0818 15:07:31.883604 21769 net.cpp:157] Top shape: 100 16 32 32 (1638400)
I0818 15:07:31.883608 21769 net.cpp:165] Memory required for data: 1246414000
I0818 15:07:31.883620 21769 layer_factory.hpp:77] Creating layer L1_b17_relu
I0818 15:07:31.883631 21769 net.cpp:100] Creating Layer L1_b17_relu
I0818 15:07:31.883638 21769 net.cpp:434] L1_b17_relu <- L1_b17_sum_eltwise_top
I0818 15:07:31.883646 21769 net.cpp:395] L1_b17_relu -> L1_b17_sum_eltwise_top (in-place)
I0818 15:07:31.883656 21769 net.cpp:150] Setting up L1_b17_relu
I0818 15:07:31.883662 21769 net.cpp:157] Top shape: 100 16 32 32 (1638400)
I0818 15:07:31.883666 21769 net.cpp:165] Memory required for data: 1252967600
I0818 15:07:31.883671 21769 layer_factory.hpp:77] Creating layer L1_b17_sum_eltwise_top_L1_b17_relu_0_split
I0818 15:07:31.883682 21769 net.cpp:100] Creating Layer L1_b17_sum_eltwise_top_L1_b17_relu_0_split
I0818 15:07:31.883694 21769 net.cpp:434] L1_b17_sum_eltwise_top_L1_b17_relu_0_split <- L1_b17_sum_eltwise_top
I0818 15:07:31.883702 21769 net.cpp:408] L1_b17_sum_eltwise_top_L1_b17_relu_0_split -> L1_b17_sum_eltwise_top_L1_b17_relu_0_split_0
I0818 15:07:31.883713 21769 net.cpp:408] L1_b17_sum_eltwise_top_L1_b17_relu_0_split -> L1_b17_sum_eltwise_top_L1_b17_relu_0_split_1
I0818 15:07:31.883759 21769 net.cpp:150] Setting up L1_b17_sum_eltwise_top_L1_b17_relu_0_split
I0818 15:07:31.883774 21769 net.cpp:157] Top shape: 100 16 32 32 (1638400)
I0818 15:07:31.883780 21769 net.cpp:157] Top shape: 100 16 32 32 (1638400)
I0818 15:07:31.883785 21769 net.cpp:165] Memory required for data: 1266074800
I0818 15:07:31.883790 21769 layer_factory.hpp:77] Creating layer L1_b18_cbr1_conv
I0818 15:07:31.883802 21769 net.cpp:100] Creating Layer L1_b18_cbr1_conv
I0818 15:07:31.883808 21769 net.cpp:434] L1_b18_cbr1_conv <- L1_b17_sum_eltwise_top_L1_b17_relu_0_split_0
I0818 15:07:31.883817 21769 net.cpp:408] L1_b18_cbr1_conv -> L1_b18_cbr1_conv_top
I0818 15:07:31.884140 21769 net.cpp:150] Setting up L1_b18_cbr1_conv
I0818 15:07:31.884155 21769 net.cpp:157] Top shape: 100 16 32 32 (1638400)
I0818 15:07:31.884160 21769 net.cpp:165] Memory required for data: 1272628400
I0818 15:07:31.884169 21769 layer_factory.hpp:77] Creating layer L1_b18_cbr1_bn
I0818 15:07:31.884181 21769 net.cpp:100] Creating Layer L1_b18_cbr1_bn
I0818 15:07:31.884188 21769 net.cpp:434] L1_b18_cbr1_bn <- L1_b18_cbr1_conv_top
I0818 15:07:31.884196 21769 net.cpp:408] L1_b18_cbr1_bn -> L1_b18_cbr1_bn_top
I0818 15:07:31.884464 21769 net.cpp:150] Setting up L1_b18_cbr1_bn
I0818 15:07:31.884481 21769 net.cpp:157] Top shape: 100 16 32 32 (1638400)
I0818 15:07:31.884487 21769 net.cpp:165] Memory required for data: 1279182000
I0818 15:07:31.884497 21769 layer_factory.hpp:77] Creating layer L1_b18_cbr1_scale
I0818 15:07:31.884506 21769 net.cpp:100] Creating Layer L1_b18_cbr1_scale
I0818 15:07:31.884513 21769 net.cpp:434] L1_b18_cbr1_scale <- L1_b18_cbr1_bn_top
I0818 15:07:31.884523 21769 net.cpp:395] L1_b18_cbr1_scale -> L1_b18_cbr1_bn_top (in-place)
I0818 15:07:31.884579 21769 layer_factory.hpp:77] Creating layer L1_b18_cbr1_scale
I0818 15:07:31.884732 21769 net.cpp:150] Setting up L1_b18_cbr1_scale
I0818 15:07:31.884749 21769 net.cpp:157] Top shape: 100 16 32 32 (1638400)
I0818 15:07:31.884754 21769 net.cpp:165] Memory required for data: 1285735600
I0818 15:07:31.884763 21769 layer_factory.hpp:77] Creating layer L1_b18_cbr1_relu
I0818 15:07:31.884771 21769 net.cpp:100] Creating Layer L1_b18_cbr1_relu
I0818 15:07:31.884778 21769 net.cpp:434] L1_b18_cbr1_relu <- L1_b18_cbr1_bn_top
I0818 15:07:31.884785 21769 net.cpp:395] L1_b18_cbr1_relu -> L1_b18_cbr1_bn_top (in-place)
I0818 15:07:31.884794 21769 net.cpp:150] Setting up L1_b18_cbr1_relu
I0818 15:07:31.884802 21769 net.cpp:157] Top shape: 100 16 32 32 (1638400)
I0818 15:07:31.884806 21769 net.cpp:165] Memory required for data: 1292289200
I0818 15:07:31.884811 21769 layer_factory.hpp:77] Creating layer L1_b18_cbr2_conv
I0818 15:07:31.884824 21769 net.cpp:100] Creating Layer L1_b18_cbr2_conv
I0818 15:07:31.884831 21769 net.cpp:434] L1_b18_cbr2_conv <- L1_b18_cbr1_bn_top
I0818 15:07:31.884842 21769 net.cpp:408] L1_b18_cbr2_conv -> L1_b18_cbr2_conv_top
I0818 15:07:31.885169 21769 net.cpp:150] Setting up L1_b18_cbr2_conv
I0818 15:07:31.885190 21769 net.cpp:157] Top shape: 100 16 32 32 (1638400)
I0818 15:07:31.885195 21769 net.cpp:165] Memory required for data: 1298842800
I0818 15:07:31.885205 21769 layer_factory.hpp:77] Creating layer L1_b18_cbr2_bn
I0818 15:07:31.885216 21769 net.cpp:100] Creating Layer L1_b18_cbr2_bn
I0818 15:07:31.885223 21769 net.cpp:434] L1_b18_cbr2_bn <- L1_b18_cbr2_conv_top
I0818 15:07:31.885234 21769 net.cpp:408] L1_b18_cbr2_bn -> L1_b18_cbr2_bn_top
I0818 15:07:31.885483 21769 net.cpp:150] Setting up L1_b18_cbr2_bn
I0818 15:07:31.885495 21769 net.cpp:157] Top shape: 100 16 32 32 (1638400)
I0818 15:07:31.885500 21769 net.cpp:165] Memory required for data: 1305396400
I0818 15:07:31.885550 21769 layer_factory.hpp:77] Creating layer L1_b18_cbr2_scale
I0818 15:07:31.885561 21769 net.cpp:100] Creating Layer L1_b18_cbr2_scale
I0818 15:07:31.885568 21769 net.cpp:434] L1_b18_cbr2_scale <- L1_b18_cbr2_bn_top
I0818 15:07:31.885576 21769 net.cpp:395] L1_b18_cbr2_scale -> L1_b18_cbr2_bn_top (in-place)
I0818 15:07:31.885634 21769 layer_factory.hpp:77] Creating layer L1_b18_cbr2_scale
I0818 15:07:31.885785 21769 net.cpp:150] Setting up L1_b18_cbr2_scale
I0818 15:07:31.885799 21769 net.cpp:157] Top shape: 100 16 32 32 (1638400)
I0818 15:07:31.885804 21769 net.cpp:165] Memory required for data: 1311950000
I0818 15:07:31.885813 21769 layer_factory.hpp:77] Creating layer L1_b18_sum_eltwise
I0818 15:07:31.885826 21769 net.cpp:100] Creating Layer L1_b18_sum_eltwise
I0818 15:07:31.885833 21769 net.cpp:434] L1_b18_sum_eltwise <- L1_b18_cbr2_bn_top
I0818 15:07:31.885840 21769 net.cpp:434] L1_b18_sum_eltwise <- L1_b17_sum_eltwise_top_L1_b17_relu_0_split_1
I0818 15:07:31.885848 21769 net.cpp:408] L1_b18_sum_eltwise -> L1_b18_sum_eltwise_top
I0818 15:07:31.885884 21769 net.cpp:150] Setting up L1_b18_sum_eltwise
I0818 15:07:31.885893 21769 net.cpp:157] Top shape: 100 16 32 32 (1638400)
I0818 15:07:31.885898 21769 net.cpp:165] Memory required for data: 1318503600
I0818 15:07:31.885903 21769 layer_factory.hpp:77] Creating layer L1_b18_relu
I0818 15:07:31.885910 21769 net.cpp:100] Creating Layer L1_b18_relu
I0818 15:07:31.885916 21769 net.cpp:434] L1_b18_relu <- L1_b18_sum_eltwise_top
I0818 15:07:31.885926 21769 net.cpp:395] L1_b18_relu -> L1_b18_sum_eltwise_top (in-place)
I0818 15:07:31.885936 21769 net.cpp:150] Setting up L1_b18_relu
I0818 15:07:31.885943 21769 net.cpp:157] Top shape: 100 16 32 32 (1638400)
I0818 15:07:31.885948 21769 net.cpp:165] Memory required for data: 1325057200
I0818 15:07:31.885952 21769 layer_factory.hpp:77] Creating layer L1_b18_sum_eltwise_top_L1_b18_relu_0_split
I0818 15:07:31.885959 21769 net.cpp:100] Creating Layer L1_b18_sum_eltwise_top_L1_b18_relu_0_split
I0818 15:07:31.885965 21769 net.cpp:434] L1_b18_sum_eltwise_top_L1_b18_relu_0_split <- L1_b18_sum_eltwise_top
I0818 15:07:31.885975 21769 net.cpp:408] L1_b18_sum_eltwise_top_L1_b18_relu_0_split -> L1_b18_sum_eltwise_top_L1_b18_relu_0_split_0
I0818 15:07:31.885985 21769 net.cpp:408] L1_b18_sum_eltwise_top_L1_b18_relu_0_split -> L1_b18_sum_eltwise_top_L1_b18_relu_0_split_1
I0818 15:07:31.886032 21769 net.cpp:150] Setting up L1_b18_sum_eltwise_top_L1_b18_relu_0_split
I0818 15:07:31.886044 21769 net.cpp:157] Top shape: 100 16 32 32 (1638400)
I0818 15:07:31.886050 21769 net.cpp:157] Top shape: 100 16 32 32 (1638400)
I0818 15:07:31.886055 21769 net.cpp:165] Memory required for data: 1338164400
I0818 15:07:31.886060 21769 layer_factory.hpp:77] Creating layer L2_b1_cbr1_conv
I0818 15:07:31.886071 21769 net.cpp:100] Creating Layer L2_b1_cbr1_conv
I0818 15:07:31.886077 21769 net.cpp:434] L2_b1_cbr1_conv <- L1_b18_sum_eltwise_top_L1_b18_relu_0_split_0
I0818 15:07:31.886090 21769 net.cpp:408] L2_b1_cbr1_conv -> L2_b1_cbr1_conv_top
I0818 15:07:31.886416 21769 net.cpp:150] Setting up L2_b1_cbr1_conv
I0818 15:07:31.886431 21769 net.cpp:157] Top shape: 100 16 16 16 (409600)
I0818 15:07:31.886436 21769 net.cpp:165] Memory required for data: 1339802800
I0818 15:07:31.886445 21769 layer_factory.hpp:77] Creating layer L2_b1_cbr1_bn
I0818 15:07:31.886457 21769 net.cpp:100] Creating Layer L2_b1_cbr1_bn
I0818 15:07:31.886471 21769 net.cpp:434] L2_b1_cbr1_bn <- L2_b1_cbr1_conv_top
I0818 15:07:31.886479 21769 net.cpp:408] L2_b1_cbr1_bn -> L2_b1_cbr1_bn_top
I0818 15:07:31.886734 21769 net.cpp:150] Setting up L2_b1_cbr1_bn
I0818 15:07:31.886749 21769 net.cpp:157] Top shape: 100 16 16 16 (409600)
I0818 15:07:31.886754 21769 net.cpp:165] Memory required for data: 1341441200
I0818 15:07:31.886765 21769 layer_factory.hpp:77] Creating layer L2_b1_cbr1_scale
I0818 15:07:31.886776 21769 net.cpp:100] Creating Layer L2_b1_cbr1_scale
I0818 15:07:31.886783 21769 net.cpp:434] L2_b1_cbr1_scale <- L2_b1_cbr1_bn_top
I0818 15:07:31.886791 21769 net.cpp:395] L2_b1_cbr1_scale -> L2_b1_cbr1_bn_top (in-place)
I0818 15:07:31.886847 21769 layer_factory.hpp:77] Creating layer L2_b1_cbr1_scale
I0818 15:07:31.887001 21769 net.cpp:150] Setting up L2_b1_cbr1_scale
I0818 15:07:31.887014 21769 net.cpp:157] Top shape: 100 16 16 16 (409600)
I0818 15:07:31.887019 21769 net.cpp:165] Memory required for data: 1343079600
I0818 15:07:31.887028 21769 layer_factory.hpp:77] Creating layer L2_b1_cbr1_relu
I0818 15:07:31.887039 21769 net.cpp:100] Creating Layer L2_b1_cbr1_relu
I0818 15:07:31.887045 21769 net.cpp:434] L2_b1_cbr1_relu <- L2_b1_cbr1_bn_top
I0818 15:07:31.887055 21769 net.cpp:395] L2_b1_cbr1_relu -> L2_b1_cbr1_bn_top (in-place)
I0818 15:07:31.887065 21769 net.cpp:150] Setting up L2_b1_cbr1_relu
I0818 15:07:31.887073 21769 net.cpp:157] Top shape: 100 16 16 16 (409600)
I0818 15:07:31.887078 21769 net.cpp:165] Memory required for data: 1344718000
I0818 15:07:31.887082 21769 layer_factory.hpp:77] Creating layer L2_b1_cbr2_conv
I0818 15:07:31.887094 21769 net.cpp:100] Creating Layer L2_b1_cbr2_conv
I0818 15:07:31.887099 21769 net.cpp:434] L2_b1_cbr2_conv <- L2_b1_cbr1_bn_top
I0818 15:07:31.887109 21769 net.cpp:408] L2_b1_cbr2_conv -> L2_b1_cbr2_conv_top
I0818 15:07:31.887431 21769 net.cpp:150] Setting up L2_b1_cbr2_conv
I0818 15:07:31.887446 21769 net.cpp:157] Top shape: 100 16 16 16 (409600)
I0818 15:07:31.887451 21769 net.cpp:165] Memory required for data: 1346356400
I0818 15:07:31.887459 21769 layer_factory.hpp:77] Creating layer L2_b1_cbr2_bn
I0818 15:07:31.887470 21769 net.cpp:100] Creating Layer L2_b1_cbr2_bn
I0818 15:07:31.887475 21769 net.cpp:434] L2_b1_cbr2_bn <- L2_b1_cbr2_conv_top
I0818 15:07:31.887486 21769 net.cpp:408] L2_b1_cbr2_bn -> L2_b1_cbr2_bn_top
I0818 15:07:31.887740 21769 net.cpp:150] Setting up L2_b1_cbr2_bn
I0818 15:07:31.887754 21769 net.cpp:157] Top shape: 100 16 16 16 (409600)
I0818 15:07:31.887759 21769 net.cpp:165] Memory required for data: 1347994800
I0818 15:07:31.887769 21769 layer_factory.hpp:77] Creating layer L2_b1_cbr2_scale
I0818 15:07:31.887781 21769 net.cpp:100] Creating Layer L2_b1_cbr2_scale
I0818 15:07:31.887789 21769 net.cpp:434] L2_b1_cbr2_scale <- L2_b1_cbr2_bn_top
I0818 15:07:31.887796 21769 net.cpp:395] L2_b1_cbr2_scale -> L2_b1_cbr2_bn_top (in-place)
I0818 15:07:31.887851 21769 layer_factory.hpp:77] Creating layer L2_b1_cbr2_scale
I0818 15:07:31.888000 21769 net.cpp:150] Setting up L2_b1_cbr2_scale
I0818 15:07:31.888013 21769 net.cpp:157] Top shape: 100 16 16 16 (409600)
I0818 15:07:31.888018 21769 net.cpp:165] Memory required for data: 1349633200
I0818 15:07:31.888027 21769 layer_factory.hpp:77] Creating layer L2_b1_pool
I0818 15:07:31.888041 21769 net.cpp:100] Creating Layer L2_b1_pool
I0818 15:07:31.888048 21769 net.cpp:434] L2_b1_pool <- L1_b18_sum_eltwise_top_L1_b18_relu_0_split_1
I0818 15:07:31.888056 21769 net.cpp:408] L2_b1_pool -> L2_b1_pool
I0818 15:07:31.888150 21769 net.cpp:150] Setting up L2_b1_pool
I0818 15:07:31.888166 21769 net.cpp:157] Top shape: 100 16 16 16 (409600)
I0818 15:07:31.888171 21769 net.cpp:165] Memory required for data: 1351271600
I0818 15:07:31.888177 21769 layer_factory.hpp:77] Creating layer L2_b1_sum_eltwise
I0818 15:07:31.888186 21769 net.cpp:100] Creating Layer L2_b1_sum_eltwise
I0818 15:07:31.888192 21769 net.cpp:434] L2_b1_sum_eltwise <- L2_b1_cbr2_bn_top
I0818 15:07:31.888200 21769 net.cpp:434] L2_b1_sum_eltwise <- L2_b1_pool
I0818 15:07:31.888218 21769 net.cpp:408] L2_b1_sum_eltwise -> L2_b1_sum_eltwise_top
I0818 15:07:31.888254 21769 net.cpp:150] Setting up L2_b1_sum_eltwise
I0818 15:07:31.888263 21769 net.cpp:157] Top shape: 100 16 16 16 (409600)
I0818 15:07:31.888268 21769 net.cpp:165] Memory required for data: 1352910000
I0818 15:07:31.888273 21769 layer_factory.hpp:77] Creating layer L2_b1_relu
I0818 15:07:31.888281 21769 net.cpp:100] Creating Layer L2_b1_relu
I0818 15:07:31.888288 21769 net.cpp:434] L2_b1_relu <- L2_b1_sum_eltwise_top
I0818 15:07:31.888294 21769 net.cpp:395] L2_b1_relu -> L2_b1_sum_eltwise_top (in-place)
I0818 15:07:31.888303 21769 net.cpp:150] Setting up L2_b1_relu
I0818 15:07:31.888310 21769 net.cpp:157] Top shape: 100 16 16 16 (409600)
I0818 15:07:31.888314 21769 net.cpp:165] Memory required for data: 1354548400
I0818 15:07:31.888319 21769 layer_factory.hpp:77] Creating layer L2_b1_zeros
I0818 15:07:31.888375 21769 net.cpp:100] Creating Layer L2_b1_zeros
I0818 15:07:31.888391 21769 net.cpp:408] L2_b1_zeros -> L2_b1_zeros
I0818 15:07:31.890424 21769 net.cpp:150] Setting up L2_b1_zeros
I0818 15:07:31.890444 21769 net.cpp:157] Top shape: 100 16 16 16 (409600)
I0818 15:07:31.890450 21769 net.cpp:165] Memory required for data: 1356186800
I0818 15:07:31.890455 21769 layer_factory.hpp:77] Creating layer L2_b1_concat0
I0818 15:07:31.890465 21769 net.cpp:100] Creating Layer L2_b1_concat0
I0818 15:07:31.890472 21769 net.cpp:434] L2_b1_concat0 <- L2_b1_sum_eltwise_top
I0818 15:07:31.890480 21769 net.cpp:434] L2_b1_concat0 <- L2_b1_zeros
I0818 15:07:31.890491 21769 net.cpp:408] L2_b1_concat0 -> L2_b1_concat0
I0818 15:07:31.890573 21769 net.cpp:150] Setting up L2_b1_concat0
I0818 15:07:31.890592 21769 net.cpp:157] Top shape: 100 32 16 16 (819200)
I0818 15:07:31.890599 21769 net.cpp:165] Memory required for data: 1359463600
I0818 15:07:31.890604 21769 layer_factory.hpp:77] Creating layer L2_b1_concat0_L2_b1_concat0_0_split
I0818 15:07:31.890612 21769 net.cpp:100] Creating Layer L2_b1_concat0_L2_b1_concat0_0_split
I0818 15:07:31.890619 21769 net.cpp:434] L2_b1_concat0_L2_b1_concat0_0_split <- L2_b1_concat0
I0818 15:07:31.890626 21769 net.cpp:408] L2_b1_concat0_L2_b1_concat0_0_split -> L2_b1_concat0_L2_b1_concat0_0_split_0
…
I0818 15:07:31.978906 21769 net.cpp:408] L3_b10_sum_eltwise_top_L3_b10_relu_0_split -> L3_b10_sum_eltwise_top_L3_b10_relu_0_split_0
I0818 15:07:31.978916 21769 net.cpp:408] L3_b10_sum_eltwise_top_L3_b10_relu_0_split -> L3_b10_sum_eltwise_top_L3_b10_relu_0_split_1
I0818 15:07:31.978966 21769 net.cpp:150] Setting up L3_b10_sum_eltwise_top_L3_b10_relu_0_split
I0818 15:07:31.978978 21769 net.cpp:157] Top shape: 100 64 8 8 (409600)
I0818 15:07:31.978984 21769 net.cpp:157] Top shape: 100 64 8 8 (409600)
I0818 15:07:31.978989 21769 net.cpp:165] Memory required for data: 2154906800
I0818 15:07:31.978994 21769 layer_factory.hpp:77] Creating layer L3_b11_cbr1_conv
I0818 15:07:31.979008 21769 net.cpp:100] Creating Layer L3_b11_cbr1_conv
I0818 15:07:31.979014 21769 net.cpp:434] L3_b11_cbr1_conv <- L3_b10_sum_eltwise_top_L3_b10_relu_0_split_0
I0818 15:07:31.979024 21769 net.cpp:408] L3_b11_cbr1_conv -> L3_b11_cbr1_conv_top
I0818 15:07:31.980048 21769 net.cpp:150] Setting up L3_b11_cbr1_conv
I0818 15:07:31.980063 21769 net.cpp:157] Top shape: 100 64 8 8 (409600)
I0818 15:07:31.980068 21769 net.cpp:165] Memory required for data: 2156545200
I0818 15:07:31.980077 21769 layer_factory.hpp:77] Creating layer L3_b11_cbr1_bn
I0818 15:07:31.980089 21769 net.cpp:100] Creating Layer L3_b11_cbr1_bn
I0818 15:07:31.980096 21769 net.cpp:434] L3_b11_cbr1_bn <- L3_b11_cbr1_conv_top
I0818 15:07:31.980108 21769 net.cpp:408] L3_b11_cbr1_bn -> L3_b11_cbr1_bn_top
I0818 15:07:31.980376 21769 net.cpp:150] Setting up L3_b11_cbr1_bn
I0818 15:07:31.980389 21769 net.cpp:157] Top shape: 100 64 8 8 (409600)
I0818 15:07:31.980394 21769 net.cpp:165] Memory required for data: 2158183600
I0818 15:07:31.980404 21769 layer_factory.hpp:77] Creating layer L3_b11_cbr1_scale
I0818 15:07:31.980413 21769 net.cpp:100] Creating Layer L3_b11_cbr1_scale
I0818 15:07:31.980419 21769 net.cpp:434] L3_b11_cbr1_scale <- L3_b11_cbr1_bn_top
I0818 15:07:31.980427 21769 net.cpp:395] L3_b11_cbr1_scale -> L3_b11_cbr1_bn_top (in-place)
I0818 15:07:31.980489 21769 layer_factory.hpp:77] Creating layer L3_b11_cbr1_scale
I0818 15:07:31.980649 21769 net.cpp:150] Setting up L3_b11_cbr1_scale
I0818 15:07:31.980662 21769 net.cpp:157] Top shape: 100 64 8 8 (409600)
I0818 15:07:31.980667 21769 net.cpp:165] Memory required for data: 2159822000
I0818 15:07:31.980676 21769 layer_factory.hpp:77] Creating layer L3_b11_cbr1_relu
I0818 15:07:31.980701 21769 net.cpp:100] Creating Layer L3_b11_cbr1_relu
I0818 15:07:31.980708 21769 net.cpp:434] L3_b11_cbr1_relu <- L3_b11_cbr1_bn_top
I0818 15:07:31.980720 21769 net.cpp:395] L3_b11_cbr1_relu -> L3_b11_cbr1_bn_top (in-place)
I0818 15:07:31.980729 21769 net.cpp:150] Setting up L3_b11_cbr1_relu
I0818 15:07:31.980737 21769 net.cpp:157] Top shape: 100 64 8 8 (409600)
I0818 15:07:31.980741 21769 net.cpp:165] Memory required for data: 2161460400
I0818 15:07:31.980746 21769 layer_factory.hpp:77] Creating layer L3_b11_cbr2_conv
I0818 15:07:31.980762 21769 net.cpp:100] Creating Layer L3_b11_cbr2_conv
I0818 15:07:31.980769 21769 net.cpp:434] L3_b11_cbr2_conv <- L3_b11_cbr1_bn_top
I0818 15:07:31.980777 21769 net.cpp:408] L3_b11_cbr2_conv -> L3_b11_cbr2_conv_top
I0818 15:07:31.981803 21769 net.cpp:150] Setting up L3_b11_cbr2_conv
I0818 15:07:31.981818 21769 net.cpp:157] Top shape: 100 64 8 8 (409600)
I0818 15:07:31.981823 21769 net.cpp:165] Memory required for data: 2163098800
I0818 15:07:31.981833 21769 layer_factory.hpp:77] Creating layer L3_b11_cbr2_bn
I0818 15:07:31.981845 21769 net.cpp:100] Creating Layer L3_b11_cbr2_bn
I0818 15:07:31.981853 21769 net.cpp:434] L3_b11_cbr2_bn <- L3_b11_cbr2_conv_top
I0818 15:07:31.981860 21769 net.cpp:408] L3_b11_cbr2_bn -> L3_b11_cbr2_bn_top
I0818 15:07:31.982137 21769 net.cpp:150] Setting up L3_b11_cbr2_bn
I0818 15:07:31.982151 21769 net.cpp:157] Top shape: 100 64 8 8 (409600)
I0818 15:07:31.982156 21769 net.cpp:165] Memory required for data: 2164737200
I0818 15:07:31.982165 21769 layer_factory.hpp:77] Creating layer L3_b11_cbr2_scale
I0818 15:07:31.982177 21769 net.cpp:100] Creating Layer L3_b11_cbr2_scale
I0818 15:07:31.982184 21769 net.cpp:434] L3_b11_cbr2_scale <- L3_b11_cbr2_bn_top
I0818 15:07:31.982192 21769 net.cpp:395] L3_b11_cbr2_scale -> L3_b11_cbr2_bn_top (in-place)
I0818 15:07:31.982255 21769 layer_factory.hpp:77] Creating layer L3_b11_cbr2_scale
I0818 15:07:31.982414 21769 net.cpp:150] Setting up L3_b11_cbr2_scale
I0818 15:07:31.982427 21769 net.cpp:157] Top shape: 100 64 8 8 (409600)
I0818 15:07:31.982432 21769 net.cpp:165] Memory required for data: 2166375600
I0818 15:07:31.982441 21769 layer_factory.hpp:77] Creating layer L3_b11_sum_eltwise
I0818 15:07:31.982455 21769 net.cpp:100] Creating Layer L3_b11_sum_eltwise
I0818 15:07:31.982461 21769 net.cpp:434] L3_b11_sum_eltwise <- L3_b11_cbr2_bn_top
I0818 15:07:31.982467 21769 net.cpp:434] L3_b11_sum_eltwise <- L3_b10_sum_eltwise_top_L3_b10_relu_0_split_1
I0818 15:07:31.982478 21769 net.cpp:408] L3_b11_sum_eltwise -> L3_b11_sum_eltwise_top
I0818 15:07:31.982512 21769 net.cpp:150] Setting up L3_b11_sum_eltwise
I0818 15:07:31.982522 21769 net.cpp:157] Top shape: 100 64 8 8 (409600)
I0818 15:07:31.982525 21769 net.cpp:165] Memory required for data: 2168014000
I0818 15:07:31.982532 21769 layer_factory.hpp:77] Creating layer L3_b11_relu
I0818 15:07:31.982542 21769 net.cpp:100] Creating Layer L3_b11_relu
I0818 15:07:31.982547 21769 net.cpp:434] L3_b11_relu <- L3_b11_sum_eltwise_top
I0818 15:07:31.982555 21769 net.cpp:395] L3_b11_relu -> L3_b11_sum_eltwise_top (in-place)
I0818 15:07:31.982564 21769 net.cpp:150] Setting up L3_b11_relu
I0818 15:07:31.982571 21769 net.cpp:157] Top shape: 100 64 8 8 (409600)
I0818 15:07:31.982575 21769 net.cpp:165] Memory required for data: 2169652400
I0818 15:07:31.982580 21769 layer_factory.hpp:77] Creating layer L3_b11_sum_eltwise_top_L3_b11_relu_0_split
I0818 15:07:31.982587 21769 net.cpp:100] Creating Layer L3_b11_sum_eltwise_top_L3_b11_relu_0_split
I0818 15:07:31.982592 21769 net.cpp:434] L3_b11_sum_eltwise_top_L3_b11_relu_0_split <- L3_b11_sum_eltwise_top
I0818 15:07:31.982599 21769 net.cpp:408] L3_b11_sum_eltwise_top_L3_b11_relu_0_split -> L3_b11_sum_eltwise_top_L3_b11_relu_0_split_0
I0818 15:07:31.982609 21769 net.cpp:408] L3_b11_sum_eltwise_top_L3_b11_relu_0_split -> L3_b11_sum_eltwise_top_L3_b11_relu_0_split_1
I0818 15:07:31.982658 21769 net.cpp:150] Setting up L3_b11_sum_eltwise_top_L3_b11_relu_0_split
I0818 15:07:31.982671 21769 net.cpp:157] Top shape: 100 64 8 8 (409600)
I0818 15:07:31.982689 21769 net.cpp:157] Top shape: 100 64 8 8 (409600)
I0818 15:07:31.982695 21769 net.cpp:165] Memory required for data: 2172929200
I0818 15:07:31.982700 21769 layer_factory.hpp:77] Creating layer L3_b12_cbr1_conv
I0818 15:07:31.982714 21769 net.cpp:100] Creating Layer L3_b12_cbr1_conv
I0818 15:07:31.982722 21769 net.cpp:434] L3_b12_cbr1_conv <- L3_b11_sum_eltwise_top_L3_b11_relu_0_split_0
I0818 15:07:31.982731 21769 net.cpp:408] L3_b12_cbr1_conv -> L3_b12_cbr1_conv_top
I0818 15:07:31.983764 21769 net.cpp:150] Setting up L3_b12_cbr1_conv
I0818 15:07:31.983779 21769 net.cpp:157] Top shape: 100 64 8 8 (409600)
I0818 15:07:31.983784 21769 net.cpp:165] Memory required for data: 2174567600
I0818 15:07:31.983793 21769 layer_factory.hpp:77] Creating layer L3_b12_cbr1_bn
I0818 15:07:31.983808 21769 net.cpp:100] Creating Layer L3_b12_cbr1_bn
I0818 15:07:31.983815 21769 net.cpp:434] L3_b12_cbr1_bn <- L3_b12_cbr1_conv_top
I0818 15:07:31.983826 21769 net.cpp:408] L3_b12_cbr1_bn -> L3_b12_cbr1_bn_top
I0818 15:07:31.984097 21769 net.cpp:150] Setting up L3_b12_cbr1_bn
I0818 15:07:31.984110 21769 net.cpp:157] Top shape: 100 64 8 8 (409600)
I0818 15:07:31.984115 21769 net.cpp:165] Memory required for data: 2176206000
I0818 15:07:31.984125 21769 layer_factory.hpp:77] Creating layer L3_b12_cbr1_scale
I0818 15:07:31.984134 21769 net.cpp:100] Creating Layer L3_b12_cbr1_scale
I0818 15:07:31.984140 21769 net.cpp:434] L3_b12_cbr1_scale <- L3_b12_cbr1_bn_top
I0818 15:07:31.984151 21769 net.cpp:395] L3_b12_cbr1_scale -> L3_b12_cbr1_bn_top (in-place)
I0818 15:07:31.984211 21769 layer_factory.hpp:77] Creating layer L3_b12_cbr1_scale
I0818 15:07:31.984372 21769 net.cpp:150] Setting up L3_b12_cbr1_scale
I0818 15:07:31.984385 21769 net.cpp:157] Top shape: 100 64 8 8 (409600)
I0818 15:07:31.984390 21769 net.cpp:165] Memory required for data: 2177844400
I0818 15:07:31.984402 21769 layer_factory.hpp:77] Creating layer L3_b12_cbr1_relu
I0818 15:07:31.984411 21769 net.cpp:100] Creating Layer L3_b12_cbr1_relu
I0818 15:07:31.984417 21769 net.cpp:434] L3_b12_cbr1_relu <- L3_b12_cbr1_bn_top
I0818 15:07:31.984427 21769 net.cpp:395] L3_b12_cbr1_relu -> L3_b12_cbr1_bn_top (in-place)
I0818 15:07:31.984437 21769 net.cpp:150] Setting up L3_b12_cbr1_relu
I0818 15:07:31.984444 21769 net.cpp:157] Top shape: 100 64 8 8 (409600)
I0818 15:07:31.984449 21769 net.cpp:165] Memory required for data: 2179482800
I0818 15:07:31.984453 21769 layer_factory.hpp:77] Creating layer L3_b12_cbr2_conv
I0818 15:07:31.984467 21769 net.cpp:100] Creating Layer L3_b12_cbr2_conv
I0818 15:07:31.984474 21769 net.cpp:434] L3_b12_cbr2_conv <- L3_b12_cbr1_bn_top
I0818 15:07:31.984483 21769 net.cpp:408] L3_b12_cbr2_conv -> L3_b12_cbr2_conv_top
I0818 15:07:31.986507 21769 net.cpp:150] Setting up L3_b12_cbr2_conv
I0818 15:07:31.986526 21769 net.cpp:157] Top shape: 100 64 8 8 (409600)
I0818 15:07:31.986531 21769 net.cpp:165] Memory required for data: 2181121200
I0818 15:07:31.986541 21769 layer_factory.hpp:77] Creating layer L3_b12_cbr2_bn
I0818 15:07:31.986553 21769 net.cpp:100] Creating Layer L3_b12_cbr2_bn
I0818 15:07:31.986560 21769 net.cpp:434] L3_b12_cbr2_bn <- L3_b12_cbr2_conv_top
I0818 15:07:31.986572 21769 net.cpp:408] L3_b12_cbr2_bn -> L3_b12_cbr2_bn_top
I0818 15:07:31.986855 21769 net.cpp:150] Setting up L3_b12_cbr2_bn
I0818 15:07:31.986870 21769 net.cpp:157] Top shape: 100 64 8 8 (409600)
I0818 15:07:31.986874 21769 net.cpp:165] Memory required for data: 2182759600
I0818 15:07:31.986884 21769 layer_factory.hpp:77] Creating layer L3_b12_cbr2_scale
I0818 15:07:31.986893 21769 net.cpp:100] Creating Layer L3_b12_cbr2_scale
I0818 15:07:31.986901 21769 net.cpp:434] L3_b12_cbr2_scale <- L3_b12_cbr2_bn_top
I0818 15:07:31.986907 21769 net.cpp:395] L3_b12_cbr2_scale -> L3_b12_cbr2_bn_top (in-place)
I0818 15:07:31.986970 21769 layer_factory.hpp:77] Creating layer L3_b12_cbr2_scale
I0818 15:07:31.987138 21769 net.cpp:150] Setting up L3_b12_cbr2_scale
I0818 15:07:31.987151 21769 net.cpp:157] Top shape: 100 64 8 8 (409600)
I0818 15:07:31.987156 21769 net.cpp:165] Memory required for data: 2184398000
I0818 15:07:31.987174 21769 layer_factory.hpp:77] Creating layer L3_b12_sum_eltwise
I0818 15:07:31.987185 21769 net.cpp:100] Creating Layer L3_b12_sum_eltwise
I0818 15:07:31.987190 21769 net.cpp:434] L3_b12_sum_eltwise <- L3_b12_cbr2_bn_top
I0818 15:07:31.987198 21769 net.cpp:434] L3_b12_sum_eltwise <- L3_b11_sum_eltwise_top_L3_b11_relu_0_split_1
I0818 15:07:31.987210 21769 net.cpp:408] L3_b12_sum_eltwise -> L3_b12_sum_eltwise_top
I0818 15:07:31.987244 21769 net.cpp:150] Setting up L3_b12_sum_eltwise
I0818 15:07:31.987259 21769 net.cpp:157] Top shape: 100 64 8 8 (409600)
I0818 15:07:31.987264 21769 net.cpp:165] Memory required for data: 2186036400
I0818 15:07:31.987270 21769 layer_factory.hpp:77] Creating layer L3_b12_relu
I0818 15:07:31.987277 21769 net.cpp:100] Creating Layer L3_b12_relu
I0818 15:07:31.987283 21769 net.cpp:434] L3_b12_relu <- L3_b12_sum_eltwise_top
I0818 15:07:31.987290 21769 net.cpp:395] L3_b12_relu -> L3_b12_sum_eltwise_top (in-place)
I0818 15:07:31.987300 21769 net.cpp:150] Setting up L3_b12_relu
I0818 15:07:31.987308 21769 net.cpp:157] Top shape: 100 64 8 8 (409600)
I0818 15:07:31.987311 21769 net.cpp:165] Memory required for data: 2187674800
I0818 15:07:31.987316 21769 layer_factory.hpp:77] Creating layer L3_b12_sum_eltwise_top_L3_b12_relu_0_split
I0818 15:07:31.987326 21769 net.cpp:100] Creating Layer L3_b12_sum_eltwise_top_L3_b12_relu_0_split
I0818 15:07:31.987332 21769 net.cpp:434] L3_b12_sum_eltwise_top_L3_b12_relu_0_split <- L3_b12_sum_eltwise_top
I0818 15:07:31.987340 21769 net.cpp:408] L3_b12_sum_eltwise_top_L3_b12_relu_0_split -> L3_b12_sum_eltwise_top_L3_b12_relu_0_split_0
I0818 15:07:31.987350 21769 net.cpp:408] L3_b12_sum_eltwise_top_L3_b12_relu_0_split -> L3_b12_sum_eltwise_top_L3_b12_relu_0_split_1
I0818 15:07:31.987401 21769 net.cpp:150] Setting up L3_b12_sum_eltwise_top_L3_b12_relu_0_split
I0818 15:07:31.987411 21769 net.cpp:157] Top shape: 100 64 8 8 (409600)
I0818 15:07:31.987418 21769 net.cpp:157] Top shape: 100 64 8 8 (409600)
I0818 15:07:31.987423 21769 net.cpp:165] Memory required for data: 2190951600
I0818 15:07:31.987428 21769 layer_factory.hpp:77] Creating layer L3_b13_cbr1_conv
I0818 15:07:31.987439 21769 net.cpp:100] Creating Layer L3_b13_cbr1_conv
I0818 15:07:31.987447 21769 net.cpp:434] L3_b13_cbr1_conv <- L3_b12_sum_eltwise_top_L3_b12_relu_0_split_0
I0818 15:07:31.987458 21769 net.cpp:408] L3_b13_cbr1_conv -> L3_b13_cbr1_conv_top
I0818 15:07:31.988484 21769 net.cpp:150] Setting up L3_b13_cbr1_conv
I0818 15:07:31.988499 21769 net.cpp:157] Top shape: 100 64 8 8 (409600)
I0818 15:07:31.988504 21769 net.cpp:165] Memory required for data: 2192590000
I0818 15:07:31.988513 21769 layer_factory.hpp:77] Creating layer L3_b13_cbr1_bn
I0818 15:07:31.988523 21769 net.cpp:100] Creating Layer L3_b13_cbr1_bn
I0818 15:07:31.988529 21769 net.cpp:434] L3_b13_cbr1_bn <- L3_b13_cbr1_conv_top
I0818 15:07:31.988543 21769 net.cpp:408] L3_b13_cbr1_bn -> L3_b13_cbr1_bn_top
I0818 15:07:31.988831 21769 net.cpp:150] Setting up L3_b13_cbr1_bn
I0818 15:07:31.988847 21769 net.cpp:157] Top shape: 100 64 8 8 (409600)
I0818 15:07:31.988852 21769 net.cpp:165] Memory required for data: 2194228400
I0818 15:07:31.988863 21769 layer_factory.hpp:77] Creating layer L3_b13_cbr1_scale
I0818 15:07:31.988873 21769 net.cpp:100] Creating Layer L3_b13_cbr1_scale
I0818 15:07:31.988878 21769 net.cpp:434] L3_b13_cbr1_scale <- L3_b13_cbr1_bn_top
I0818 15:07:31.988886 21769 net.cpp:395] L3_b13_cbr1_scale -> L3_b13_cbr1_bn_top (in-place)
I0818 15:07:31.988947 21769 layer_factory.hpp:77] Creating layer L3_b13_cbr1_scale
I0818 15:07:31.989112 21769 net.cpp:150] Setting up L3_b13_cbr1_scale
I0818 15:07:31.989126 21769 net.cpp:157] Top shape: 100 64 8 8 (409600)
I0818 15:07:31.989131 21769 net.cpp:165] Memory required for data: 2195866800
I0818 15:07:31.989140 21769 layer_factory.hpp:77] Creating layer L3_b13_cbr1_relu
I0818 15:07:31.989151 21769 net.cpp:100] Creating Layer L3_b13_cbr1_relu
I0818 15:07:31.989158 21769 net.cpp:434] L3_b13_cbr1_relu <- L3_b13_cbr1_bn_top
I0818 15:07:31.989172 21769 net.cpp:395] L3_b13_cbr1_relu -> L3_b13_cbr1_bn_top (in-place)
I0818 15:07:31.989183 21769 net.cpp:150] Setting up L3_b13_cbr1_relu
I0818 15:07:31.989190 21769 net.cpp:157] Top shape: 100 64 8 8 (409600)
I0818 15:07:31.989195 21769 net.cpp:165] Memory required for data: 2197505200
I0818 15:07:31.989199 21769 layer_factory.hpp:77] Creating layer L3_b13_cbr2_conv
I0818 15:07:31.989213 21769 net.cpp:100] Creating Layer L3_b13_cbr2_conv
I0818 15:07:31.989220 21769 net.cpp:434] L3_b13_cbr2_conv <- L3_b13_cbr1_bn_top
I0818 15:07:31.989229 21769 net.cpp:408] L3_b13_cbr2_conv -> L3_b13_cbr2_conv_top
I0818 15:07:31.990254 21769 net.cpp:150] Setting up L3_b13_cbr2_conv
I0818 15:07:31.990269 21769 net.cpp:157] Top shape: 100 64 8 8 (409600)
I0818 15:07:31.990274 21769 net.cpp:165] Memory required for data: 2199143600
I0818 15:07:31.990283 21769 layer_factory.hpp:77] Creating layer L3_b13_cbr2_bn
I0818 15:07:31.990298 21769 net.cpp:100] Creating Layer L3_b13_cbr2_bn
I0818 15:07:31.990304 21769 net.cpp:434] L3_b13_cbr2_bn <- L3_b13_cbr2_conv_top
I0818 15:07:31.990316 21769 net.cpp:408] L3_b13_cbr2_bn -> L3_b13_cbr2_bn_top
I0818 15:07:31.990588 21769 net.cpp:150] Setting up L3_b13_cbr2_bn
I0818 15:07:31.990602 21769 net.cpp:157] Top shape: 100 64 8 8 (409600)
I0818 15:07:31.990607 21769 net.cpp:165] Memory required for data: 2200782000
I0818 15:07:31.990617 21769 layer_factory.hpp:77] Creating layer L3_b13_cbr2_scale
I0818 15:07:31.990625 21769 net.cpp:100] Creating Layer L3_b13_cbr2_scale
I0818 15:07:31.990631 21769 net.cpp:434] L3_b13_cbr2_scale <- L3_b13_cbr2_bn_top
I0818 15:07:31.990643 21769 net.cpp:395] L3_b13_cbr2_scale -> L3_b13_cbr2_bn_top (in-place)
I0818 15:07:31.990710 21769 layer_factory.hpp:77] Creating layer L3_b13_cbr2_scale
I0818 15:07:31.990875 21769 net.cpp:150] Setting up L3_b13_cbr2_scale
I0818 15:07:31.990890 21769 net.cpp:157] Top shape: 100 64 8 8 (409600)
I0818 15:07:31.990895 21769 net.cpp:165] Memory required for data: 2202420400
I0818 15:07:31.990903 21769 layer_factory.hpp:77] Creating layer L3_b13_sum_eltwise
I0818 15:07:31.990912 21769 net.cpp:100] Creating Layer L3_b13_sum_eltwise
I0818 15:07:31.990918 21769 net.cpp:434] L3_b13_sum_eltwise <- L3_b13_cbr2_bn_top
I0818 15:07:31.990926 21769 net.cpp:434] L3_b13_sum_eltwise <- L3_b12_sum_eltwise_top_L3_b12_relu_0_split_1
I0818 15:07:31.990936 21769 net.cpp:408] L3_b13_sum_eltwise -> L3_b13_sum_eltwise_top
I0818 15:07:31.990974 21769 net.cpp:150] Setting up L3_b13_sum_eltwise
I0818 15:07:31.990986 21769 net.cpp:157] Top shape: 100 64 8 8 (409600)
I0818 15:07:31.990991 21769 net.cpp:165] Memory required for data: 2204058800
I0818 15:07:31.990996 21769 layer_factory.hpp:77] Creating layer L3_b13_relu
I0818 15:07:31.991005 21769 net.cpp:100] Creating Layer L3_b13_relu
I0818 15:07:31.991011 21769 net.cpp:434] L3_b13_relu <- L3_b13_sum_eltwise_top
I0818 15:07:31.991021 21769 net.cpp:395] L3_b13_relu -> L3_b13_sum_eltwise_top (in-place)
I0818 15:07:31.991031 21769 net.cpp:150] Setting up L3_b13_relu
I0818 15:07:31.991039 21769 net.cpp:157] Top shape: 100 64 8 8 (409600)
I0818 15:07:31.991044 21769 net.cpp:165] Memory required for data: 2205697200
I0818 15:07:31.991047 21769 layer_factory.hpp:77] Creating layer L3_b13_sum_eltwise_top_L3_b13_relu_0_split
I0818 15:07:31.991055 21769 net.cpp:100] Creating Layer L3_b13_sum_eltwise_top_L3_b13_relu_0_split
I0818 15:07:31.991060 21769 net.cpp:434] L3_b13_sum_eltwise_top_L3_b13_relu_0_split <- L3_b13_sum_eltwise_top
I0818 15:07:31.991067 21769 net.cpp:408] L3_b13_sum_eltwise_top_L3_b13_relu_0_split -> L3_b13_sum_eltwise_top_L3_b13_relu_0_split_0
I0818 15:07:31.991076 21769 net.cpp:408] L3_b13_sum_eltwise_top_L3_b13_relu_0_split -> L3_b13_sum_eltwise_top_L3_b13_relu_0_split_1
I0818 15:07:31.991127 21769 net.cpp:150] Setting up L3_b13_sum_eltwise_top_L3_b13_relu_0_split
I0818 15:07:31.991139 21769 net.cpp:157] Top shape: 100 64 8 8 (409600)
I0818 15:07:31.991145 21769 net.cpp:157] Top shape: 100 64 8 8 (409600)
I0818 15:07:31.991150 21769 net.cpp:165] Memory required for data: 2208974000
I0818 15:07:31.991163 21769 layer_factory.hpp:77] Creating layer L3_b14_cbr1_conv
I0818 15:07:31.991174 21769 net.cpp:100] Creating Layer L3_b14_cbr1_conv
I0818 15:07:31.991181 21769 net.cpp:434] L3_b14_cbr1_conv <- L3_b13_sum_eltwise_top_L3_b13_relu_0_split_0
I0818 15:07:31.991194 21769 net.cpp:408] L3_b14_cbr1_conv -> L3_b14_cbr1_conv_top
I0818 15:07:31.992225 21769 net.cpp:150] Setting up L3_b14_cbr1_conv
I0818 15:07:31.992241 21769 net.cpp:157] Top shape: 100 64 8 8 (409600)
I0818 15:07:31.992246 21769 net.cpp:165] Memory required for data: 2210612400
I0818 15:07:31.992255 21769 layer_factory.hpp:77] Creating layer L3_b14_cbr1_bn
I0818 15:07:31.992264 21769 net.cpp:100] Creating Layer L3_b14_cbr1_bn
I0818 15:07:31.992271 21769 net.cpp:434] L3_b14_cbr1_bn <- L3_b14_cbr1_conv_top
I0818 15:07:31.992282 21769 net.cpp:408] L3_b14_cbr1_bn -> L3_b14_cbr1_bn_top
I0818 15:07:31.992552 21769 net.cpp:150] Setting up L3_b14_cbr1_bn
I0818 15:07:31.992568 21769 net.cpp:157] Top shape: 100 64 8 8 (409600)
I0818 15:07:31.992574 21769 net.cpp:165] Memory required for data: 2212250800
I0818 15:07:31.992584 21769 layer_factory.hpp:77] Creating layer L3_b14_cbr1_scale
I0818 15:07:31.992594 21769 net.cpp:100] Creating Layer L3_b14_cbr1_scale
I0818 15:07:31.992599 21769 net.cpp:434] L3_b14_cbr1_scale <- L3_b14_cbr1_bn_top
I0818 15:07:31.992607 21769 net.cpp:395] L3_b14_cbr1_scale -> L3_b14_cbr1_bn_top (in-place)
I0818 15:07:31.992666 21769 layer_factory.hpp:77] Creating layer L3_b14_cbr1_scale
I0818 15:07:31.992836 21769 net.cpp:150] Setting up L3_b14_cbr1_scale
I0818 15:07:31.992851 21769 net.cpp:157] Top shape: 100 64 8 8 (409600)
I0818 15:07:31.992856 21769 net.cpp:165] Memory required for data: 2213889200
I0818 15:07:31.992866 21769 layer_factory.hpp:77] Creating layer L3_b14_cbr1_relu
I0818 15:07:31.992877 21769 net.cpp:100] Creating Layer L3_b14_cbr1_relu
I0818 15:07:31.992883 21769 net.cpp:434] L3_b14_cbr1_relu <- L3_b14_cbr1_bn_top
I0818 15:07:31.992913 21769 net.cpp:395] L3_b14_cbr1_relu -> L3_b14_cbr1_bn_top (in-place)
I0818 15:07:31.992925 21769 net.cpp:150] Setting up L3_b14_cbr1_relu
I0818 15:07:31.992933 21769 net.cpp:157] Top shape: 100 64 8 8 (409600)
I0818 15:07:31.992938 21769 net.cpp:165] Memory required for data: 2215527600
I0818 15:07:31.992943 21769 layer_factory.hpp:77] Creating layer L3_b14_cbr2_conv
I0818 15:07:31.992956 21769 net.cpp:100] Creating Layer L3_b14_cbr2_conv
I0818 15:07:31.992964 21769 net.cpp:434] L3_b14_cbr2_conv <- L3_b14_cbr1_bn_top
I0818 15:07:31.992972 21769 net.cpp:408] L3_b14_cbr2_conv -> L3_b14_cbr2_conv_top
I0818 15:07:31.994004 21769 net.cpp:150] Setting up L3_b14_cbr2_conv
I0818 15:07:31.994019 21769 net.cpp:157] Top shape: 100 64 8 8 (409600)
I0818 15:07:31.994024 21769 net.cpp:165] Memory required for data: 2217166000
I0818 15:07:31.994033 21769 layer_factory.hpp:77] Creating layer L3_b14_cbr2_bn
I0818 15:07:31.994045 21769 net.cpp:100] Creating Layer L3_b14_cbr2_bn
I0818 15:07:31.994052 21769 net.cpp:434] L3_b14_cbr2_bn <- L3_b14_cbr2_conv_top
I0818 15:07:31.994063 21769 net.cpp:408] L3_b14_cbr2_bn -> L3_b14_cbr2_bn_top
I0818 15:07:31.994333 21769 net.cpp:150] Setting up L3_b14_cbr2_bn
I0818 15:07:31.994345 21769 net.cpp:157] Top shape: 100 64 8 8 (409600)
I0818 15:07:31.994350 21769 net.cpp:165] Memory required for data: 2218804400
I0818 15:07:31.994360 21769 layer_factory.hpp:77] Creating layer L3_b14_cbr2_scale
I0818 15:07:31.994369 21769 net.cpp:100] Creating Layer L3_b14_cbr2_scale
I0818 15:07:31.994375 21769 net.cpp:434] L3_b14_cbr2_scale <- L3_b14_cbr2_bn_top
I0818 15:07:31.994386 21769 net.cpp:395] L3_b14_cbr2_scale -> L3_b14_cbr2_bn_top (in-place)
I0818 15:07:31.994447 21769 layer_factory.hpp:77] Creating layer L3_b14_cbr2_scale
I0818 15:07:31.994607 21769 net.cpp:150] Setting up L3_b14_cbr2_scale
I0818 15:07:31.994621 21769 net.cpp:157] Top shape: 100 64 8 8 (409600)
I0818 15:07:31.994626 21769 net.cpp:165] Memory required for data: 2220442800
I0818 15:07:31.994634 21769 layer_factory.hpp:77] Creating layer L3_b14_sum_eltwise
I0818 15:07:31.994643 21769 net.cpp:100] Creating Layer L3_b14_sum_eltwise
I0818 15:07:31.994657 21769 net.cpp:434] L3_b14_sum_eltwise <- L3_b14_cbr2_bn_top
I0818 15:07:31.994664 21769 net.cpp:434] L3_b14_sum_eltwise <- L3_b13_sum_eltwise_top_L3_b13_relu_0_split_1
I0818 15:07:31.994675 21769 net.cpp:408] L3_b14_sum_eltwise -> L3_b14_sum_eltwise_top
I0818 15:07:31.994720 21769 net.cpp:150] Setting up L3_b14_sum_eltwise
I0818 15:07:31.994734 21769 net.cpp:157] Top shape: 100 64 8 8 (409600)
I0818 15:07:31.994738 21769 net.cpp:165] Memory required for data: 2222081200
I0818 15:07:31.994745 21769 layer_factory.hpp:77] Creating layer L3_b14_relu
I0818 15:07:31.994752 21769 net.cpp:100] Creating Layer L3_b14_relu
I0818 15:07:31.994758 21769 net.cpp:434] L3_b14_relu <- L3_b14_sum_eltwise_top
I0818 15:07:31.994768 21769 net.cpp:395] L3_b14_relu -> L3_b14_sum_eltwise_top (in-place)
I0818 15:07:31.994778 21769 net.cpp:150] Setting up L3_b14_relu
I0818 15:07:31.994786 21769 net.cpp:157] Top shape: 100 64 8 8 (409600)
I0818 15:07:31.994791 21769 net.cpp:165] Memory required for data: 2223719600
I0818 15:07:31.994796 21769 layer_factory.hpp:77] Creating layer L3_b14_sum_eltwise_top_L3_b14_relu_0_split
I0818 15:07:31.994870 21769 net.cpp:100] Creating Layer L3_b14_sum_eltwise_top_L3_b14_relu_0_split
I0818 15:07:31.994881 21769 net.cpp:434] L3_b14_sum_eltwise_top_L3_b14_relu_0_split <- L3_b14_sum_eltwise_top
I0818 15:07:31.994889 21769 net.cpp:408] L3_b14_sum_eltwise_top_L3_b14_relu_0_split -> L3_b14_sum_eltwise_top_L3_b14_relu_0_split_0
I0818 15:07:31.994899 21769 net.cpp:408] L3_b14_sum_eltwise_top_L3_b14_relu_0_split -> L3_b14_sum_eltwise_top_L3_b14_relu_0_split_1
I0818 15:07:31.994951 21769 net.cpp:150] Setting up L3_b14_sum_eltwise_top_L3_b14_relu_0_split
I0818 15:07:31.994966 21769 net.cpp:157] Top shape: 100 64 8 8 (409600)
I0818 15:07:31.994972 21769 net.cpp:157] Top shape: 100 64 8 8 (409600)
I0818 15:07:31.994977 21769 net.cpp:165] Memory required for data: 2226996400
I0818 15:07:31.994983 21769 layer_factory.hpp:77] Creating layer L3_b15_cbr1_conv
I0818 15:07:31.994995 21769 net.cpp:100] Creating Layer L3_b15_cbr1_conv
I0818 15:07:31.995002 21769 net.cpp:434] L3_b15_cbr1_conv <- L3_b14_sum_eltwise_top_L3_b14_relu_0_split_0
I0818 15:07:31.995013 21769 net.cpp:408] L3_b15_cbr1_conv -> L3_b15_cbr1_conv_top
I0818 15:07:31.996044 21769 net.cpp:150] Setting up L3_b15_cbr1_conv
I0818 15:07:31.996060 21769 net.cpp:157] Top shape: 100 64 8 8 (409600)
I0818 15:07:31.996065 21769 net.cpp:165] Memory required for data: 2228634800
I0818 15:07:31.996074 21769 layer_factory.hpp:77] Creating layer L3_b15_cbr1_bn
I0818 15:07:31.996083 21769 net.cpp:100] Creating Layer L3_b15_cbr1_bn
I0818 15:07:31.996090 21769 net.cpp:434] L3_b15_cbr1_bn <- L3_b15_cbr1_conv_top
I0818 15:07:31.996101 21769 net.cpp:408] L3_b15_cbr1_bn -> L3_b15_cbr1_bn_top
I0818 15:07:31.996378 21769 net.cpp:150] Setting up L3_b15_cbr1_bn
I0818 15:07:31.996392 21769 net.cpp:157] Top shape: 100 64 8 8 (409600)
I0818 15:07:31.996397 21769 net.cpp:165] Memory required for data: 2230273200
I0818 15:07:31.996407 21769 layer_factory.hpp:77] Creating layer L3_b15_cbr1_scale
I0818 15:07:31.996417 21769 net.cpp:100] Creating Layer L3_b15_cbr1_scale
I0818 15:07:31.996423 21769 net.cpp:434] L3_b15_cbr1_scale <- L3_b15_cbr1_bn_top
I0818 15:07:31.996430 21769 net.cpp:395] L3_b15_cbr1_scale -> L3_b15_cbr1_bn_top (in-place)
I0818 15:07:31.996492 21769 layer_factory.hpp:77] Creating layer L3_b15_cbr1_scale
I0818 15:07:31.996650 21769 net.cpp:150] Setting up L3_b15_cbr1_scale
I0818 15:07:31.996666 21769 net.cpp:157] Top shape: 100 64 8 8 (409600)
I0818 15:07:31.996672 21769 net.cpp:165] Memory required for data: 2231911600
I0818 15:07:31.996680 21769 layer_factory.hpp:77] Creating layer L3_b15_cbr1_relu
I0818 15:07:31.996695 21769 net.cpp:100] Creating Layer L3_b15_cbr1_relu
I0818 15:07:31.996701 21769 net.cpp:434] L3_b15_cbr1_relu <- L3_b15_cbr1_bn_top
I0818 15:07:31.996708 21769 net.cpp:395] L3_b15_cbr1_relu -> L3_b15_cbr1_bn_top (in-place)
I0818 15:07:31.996718 21769 net.cpp:150] Setting up L3_b15_cbr1_relu
I0818 15:07:31.996726 21769 net.cpp:157] Top shape: 100 64 8 8 (409600)
I0818 15:07:31.996737 21769 net.cpp:165] Memory required for data: 2233550000
I0818 15:07:31.996742 21769 layer_factory.hpp:77] Creating layer L3_b15_cbr2_conv
I0818 15:07:31.996757 21769 net.cpp:100] Creating Layer L3_b15_cbr2_conv
I0818 15:07:31.996763 21769 net.cpp:434] L3_b15_cbr2_conv <- L3_b15_cbr1_bn_top
I0818 15:07:31.996773 21769 net.cpp:408] L3_b15_cbr2_conv -> L3_b15_cbr2_conv_top
I0818 15:07:31.997798 21769 net.cpp:150] Setting up L3_b15_cbr2_conv
I0818 15:07:31.997813 21769 net.cpp:157] Top shape: 100 64 8 8 (409600)
I0818 15:07:31.997818 21769 net.cpp:165] Memory required for data: 2235188400
I0818 15:07:31.997828 21769 layer_factory.hpp:77] Creating layer L3_b15_cbr2_bn
I0818 15:07:31.997840 21769 net.cpp:100] Creating Layer L3_b15_cbr2_bn
I0818 15:07:31.997848 21769 net.cpp:434] L3_b15_cbr2_bn <- L3_b15_cbr2_conv_top
I0818 15:07:31.997859 21769 net.cpp:408] L3_b15_cbr2_bn -> L3_b15_cbr2_bn_top
I0818 15:07:31.998126 21769 net.cpp:150] Setting up L3_b15_cbr2_bn
I0818 15:07:31.998139 21769 net.cpp:157] Top shape: 100 64 8 8 (409600)
I0818 15:07:31.998144 21769 net.cpp:165] Memory required for data: 2236826800
I0818 15:07:31.998154 21769 layer_factory.hpp:77] Creating layer L3_b15_cbr2_scale
I0818 15:07:31.998163 21769 net.cpp:100] Creating Layer L3_b15_cbr2_scale
I0818 15:07:31.998169 21769 net.cpp:434] L3_b15_cbr2_scale <- L3_b15_cbr2_bn_top
I0818 15:07:31.998180 21769 net.cpp:395] L3_b15_cbr2_scale -> L3_b15_cbr2_bn_top (in-place)
I0818 15:07:31.998241 21769 layer_factory.hpp:77] Creating layer L3_b15_cbr2_scale
I0818 15:07:31.998410 21769 net.cpp:150] Setting up L3_b15_cbr2_scale
I0818 15:07:31.998425 21769 net.cpp:157] Top shape: 100 64 8 8 (409600)
I0818 15:07:31.998430 21769 net.cpp:165] Memory required for data: 2238465200
I0818 15:07:31.998438 21769 layer_factory.hpp:77] Creating layer L3_b15_sum_eltwise
I0818 15:07:31.998450 21769 net.cpp:100] Creating Layer L3_b15_sum_eltwise
I0818 15:07:31.998457 21769 net.cpp:434] L3_b15_sum_eltwise <- L3_b15_cbr2_bn_top
I0818 15:07:31.998464 21769 net.cpp:434] L3_b15_sum_eltwise <- L3_b14_sum_eltwise_top_L3_b14_relu_0_split_1
I0818 15:07:31.998472 21769 net.cpp:408] L3_b15_sum_eltwise -> L3_b15_sum_eltwise_top
I0818 15:07:31.998512 21769 net.cpp:150] Setting up L3_b15_sum_eltwise
I0818 15:07:31.998523 21769 net.cpp:157] Top shape: 100 64 8 8 (409600)
I0818 15:07:31.998528 21769 net.cpp:165] Memory required for data: 2240103600
I0818 15:07:31.998533 21769 layer_factory.hpp:77] Creating layer L3_b15_relu
I0818 15:07:31.998541 21769 net.cpp:100] Creating Layer L3_b15_relu
I0818 15:07:31.998548 21769 net.cpp:434] L3_b15_relu <- L3_b15_sum_eltwise_top
I0818 15:07:31.998558 21769 net.cpp:395] L3_b15_relu -> L3_b15_sum_eltwise_top (in-place)
I0818 15:07:31.998567 21769 net.cpp:150] Setting up L3_b15_relu
I0818 15:07:31.998574 21769 net.cpp:157] Top shape: 100 64 8 8 (409600)
I0818 15:07:31.998579 21769 net.cpp:165] Memory required for data: 2241742000
I0818 15:07:31.998584 21769 layer_factory.hpp:77] Creating layer L3_b15_sum_eltwise_top_L3_b15_relu_0_split
I0818 15:07:31.998591 21769 net.cpp:100] Creating Layer L3_b15_sum_eltwise_top_L3_b15_relu_0_split
I0818 15:07:31.998596 21769 net.cpp:434] L3_b15_sum_eltwise_top_L3_b15_relu_0_split <- L3_b15_sum_eltwise_top
I0818 15:07:31.998605 21769 net.cpp:408] L3_b15_sum_eltwise_top_L3_b15_relu_0_split -> L3_b15_sum_eltwise_top_L3_b15_relu_0_split_0
I0818 15:07:31.998613 21769 net.cpp:408] L3_b15_sum_eltwise_top_L3_b15_relu_0_split -> L3_b15_sum_eltwise_top_L3_b15_relu_0_split_1
I0818 15:07:31.998664 21769 net.cpp:150] Setting up L3_b15_sum_eltwise_top_L3_b15_relu_0_split
I0818 15:07:31.998677 21769 net.cpp:157] Top shape: 100 64 8 8 (409600)
I0818 15:07:31.998688 21769 net.cpp:157] Top shape: 100 64 8 8 (409600)
I0818 15:07:31.998693 21769 net.cpp:165] Memory required for data: 2245018800
I0818 15:07:31.998699 21769 layer_factory.hpp:77] Creating layer L3_b16_cbr1_conv
I0818 15:07:31.998711 21769 net.cpp:100] Creating Layer L3_b16_cbr1_conv
I0818 15:07:31.998718 21769 net.cpp:434] L3_b16_cbr1_conv <- L3_b15_sum_eltwise_top_L3_b15_relu_0_split_0
I0818 15:07:31.998738 21769 net.cpp:408] L3_b16_cbr1_conv -> L3_b16_cbr1_conv_top
I0818 15:07:32.000771 21769 net.cpp:150] Setting up L3_b16_cbr1_conv
I0818 15:07:32.000788 21769 net.cpp:157] Top shape: 100 64 8 8 (409600)
I0818 15:07:32.000793 21769 net.cpp:165] Memory required for data: 2246657200
I0818 15:07:32.000803 21769 layer_factory.hpp:77] Creating layer L3_b16_cbr1_bn
I0818 15:07:32.000816 21769 net.cpp:100] Creating Layer L3_b16_cbr1_bn
I0818 15:07:32.000824 21769 net.cpp:434] L3_b16_cbr1_bn <- L3_b16_cbr1_conv_top
I0818 15:07:32.000833 21769 net.cpp:408] L3_b16_cbr1_bn -> L3_b16_cbr1_bn_top
I0818 15:07:32.001119 21769 net.cpp:150] Setting up L3_b16_cbr1_bn
I0818 15:07:32.001133 21769 net.cpp:157] Top shape: 100 64 8 8 (409600)
I0818 15:07:32.001138 21769 net.cpp:165] Memory required for data: 2248295600
I0818 15:07:32.001148 21769 layer_factory.hpp:77] Creating layer L3_b16_cbr1_scale
I0818 15:07:32.001160 21769 net.cpp:100] Creating Layer L3_b16_cbr1_scale
I0818 15:07:32.001168 21769 net.cpp:434] L3_b16_cbr1_scale <- L3_b16_cbr1_bn_top
I0818 15:07:32.001176 21769 net.cpp:395] L3_b16_cbr1_scale -> L3_b16_cbr1_bn_top (in-place)
I0818 15:07:32.001243 21769 layer_factory.hpp:77] Creating layer L3_b16_cbr1_scale
I0818 15:07:32.001410 21769 net.cpp:150] Setting up L3_b16_cbr1_scale
I0818 15:07:32.001422 21769 net.cpp:157] Top shape: 100 64 8 8 (409600)
I0818 15:07:32.001428 21769 net.cpp:165] Memory required for data: 2249934000
I0818 15:07:32.001437 21769 layer_factory.hpp:77] Creating layer L3_b16_cbr1_relu
I0818 15:07:32.001448 21769 net.cpp:100] Creating Layer L3_b16_cbr1_relu
I0818 15:07:32.001456 21769 net.cpp:434] L3_b16_cbr1_relu <- L3_b16_cbr1_bn_top
I0818 15:07:32.001466 21769 net.cpp:395] L3_b16_cbr1_relu -> L3_b16_cbr1_bn_top (in-place)
I0818 15:07:32.001477 21769 net.cpp:150] Setting up L3_b16_cbr1_relu
I0818 15:07:32.001483 21769 net.cpp:157] Top shape: 100 64 8 8 (409600)
I0818 15:07:32.001488 21769 net.cpp:165] Memory required for data: 2251572400
I0818 15:07:32.001493 21769 layer_factory.hpp:77] Creating layer L3_b16_cbr2_conv
I0818 15:07:32.001504 21769 net.cpp:100] Creating Layer L3_b16_cbr2_conv
I0818 15:07:32.001510 21769 net.cpp:434] L3_b16_cbr2_conv <- L3_b16_cbr1_bn_top
I0818 15:07:32.001521 21769 net.cpp:408] L3_b16_cbr2_conv -> L3_b16_cbr2_conv_top
I0818 15:07:32.002552 21769 net.cpp:150] Setting up L3_b16_cbr2_conv
I0818 15:07:32.002566 21769 net.cpp:157] Top shape: 100 64 8 8 (409600)
I0818 15:07:32.002573 21769 net.cpp:165] Memory required for data: 2253210800
I0818 15:07:32.002581 21769 layer_factory.hpp:77] Creating layer L3_b16_cbr2_bn
I0818 15:07:32.002593 21769 net.cpp:100] Creating Layer L3_b16_cbr2_bn
I0818 15:07:32.002601 21769 net.cpp:434] L3_b16_cbr2_bn <- L3_b16_cbr2_conv_top
I0818 15:07:32.002609 21769 net.cpp:408] L3_b16_cbr2_bn -> L3_b16_cbr2_bn_top
I0818 15:07:32.002902 21769 net.cpp:150] Setting up L3_b16_cbr2_bn
I0818 15:07:32.002915 21769 net.cpp:157] Top shape: 100 64 8 8 (409600)
I0818 15:07:32.002920 21769 net.cpp:165] Memory required for data: 2254849200
I0818 15:07:32.002931 21769 layer_factory.hpp:77] Creating layer L3_b16_cbr2_scale
I0818 15:07:32.002940 21769 net.cpp:100] Creating Layer L3_b16_cbr2_scale
I0818 15:07:32.002946 21769 net.cpp:434] L3_b16_cbr2_scale <- L3_b16_cbr2_bn_top
I0818 15:07:32.002954 21769 net.cpp:395] L3_b16_cbr2_scale -> L3_b16_cbr2_bn_top (in-place)
I0818 15:07:32.003020 21769 layer_factory.hpp:77] Creating layer L3_b16_cbr2_scale
I0818 15:07:32.003177 21769 net.cpp:150] Setting up L3_b16_cbr2_scale
I0818 15:07:32.003193 21769 net.cpp:157] Top shape: 100 64 8 8 (409600)
I0818 15:07:32.003199 21769 net.cpp:165] Memory required for data: 2256487600
I0818 15:07:32.003208 21769 layer_factory.hpp:77] Creating layer L3_b16_sum_eltwise
I0818 15:07:32.003217 21769 net.cpp:100] Creating Layer L3_b16_sum_eltwise
I0818 15:07:32.003223 21769 net.cpp:434] L3_b16_sum_eltwise <- L3_b16_cbr2_bn_top
I0818 15:07:32.003231 21769 net.cpp:434] L3_b16_sum_eltwise <- L3_b15_sum_eltwise_top_L3_b15_relu_0_split_1
I0818 15:07:32.003247 21769 net.cpp:408] L3_b16_sum_eltwise -> L3_b16_sum_eltwise_top
I0818 15:07:32.003286 21769 net.cpp:150] Setting up L3_b16_sum_eltwise
I0818 15:07:32.003296 21769 net.cpp:157] Top shape: 100 64 8 8 (409600)
I0818 15:07:32.003301 21769 net.cpp:165] Memory required for data: 2258126000
I0818 15:07:32.003307 21769 layer_factory.hpp:77] Creating layer L3_b16_relu
I0818 15:07:32.003314 21769 net.cpp:100] Creating Layer L3_b16_relu
I0818 15:07:32.003320 21769 net.cpp:434] L3_b16_relu <- L3_b16_sum_eltwise_top
I0818 15:07:32.003327 21769 net.cpp:395] L3_b16_relu -> L3_b16_sum_eltwise_top (in-place)
I0818 15:07:32.003337 21769 net.cpp:150] Setting up L3_b16_relu
I0818 15:07:32.003345 21769 net.cpp:157] Top shape: 100 64 8 8 (409600)
I0818 15:07:32.003348 21769 net.cpp:165] Memory required for data: 2259764400
I0818 15:07:32.003353 21769 layer_factory.hpp:77] Creating layer L3_b16_sum_eltwise_top_L3_b16_relu_0_split
I0818 15:07:32.003363 21769 net.cpp:100] Creating Layer L3_b16_sum_eltwise_top_L3_b16_relu_0_split
I0818 15:07:32.003370 21769 net.cpp:434] L3_b16_sum_eltwise_top_L3_b16_relu_0_split <- L3_b16_sum_eltwise_top
I0818 15:07:32.003377 21769 net.cpp:408] L3_b16_sum_eltwise_top_L3_b16_relu_0_split -> L3_b16_sum_eltwise_top_L3_b16_relu_0_split_0
I0818 15:07:32.003387 21769 net.cpp:408] L3_b16_sum_eltwise_top_L3_b16_relu_0_split -> L3_b16_sum_eltwise_top_L3_b16_relu_0_split_1
I0818 15:07:32.003434 21769 net.cpp:150] Setting up L3_b16_sum_eltwise_top_L3_b16_relu_0_split
I0818 15:07:32.003455 21769 net.cpp:157] Top shape: 100 64 8 8 (409600)
I0818 15:07:32.003463 21769 net.cpp:157] Top shape: 100 64 8 8 (409600)
I0818 15:07:32.003468 21769 net.cpp:165] Memory required for data: 2263041200
I0818 15:07:32.003473 21769 layer_factory.hpp:77] Creating layer L3_b17_cbr1_conv
I0818 15:07:32.003484 21769 net.cpp:100] Creating Layer L3_b17_cbr1_conv
I0818 15:07:32.003490 21769 net.cpp:434] L3_b17_cbr1_conv <- L3_b16_sum_eltwise_top_L3_b16_relu_0_split_0
I0818 15:07:32.003500 21769 net.cpp:408] L3_b17_cbr1_conv -> L3_b17_cbr1_conv_top
I0818 15:07:32.004534 21769 net.cpp:150] Setting up L3_b17_cbr1_conv
I0818 15:07:32.004549 21769 net.cpp:157] Top shape: 100 64 8 8 (409600)
I0818 15:07:32.004554 21769 net.cpp:165] Memory required for data: 2264679600
I0818 15:07:32.004562 21769 layer_factory.hpp:77] Creating layer L3_b17_cbr1_bn
I0818 15:07:32.004575 21769 net.cpp:100] Creating Layer L3_b17_cbr1_bn
I0818 15:07:32.004581 21769 net.cpp:434] L3_b17_cbr1_bn <- L3_b17_cbr1_conv_top
I0818 15:07:32.004590 21769 net.cpp:408] L3_b17_cbr1_bn -> L3_b17_cbr1_bn_top
I0818 15:07:32.004870 21769 net.cpp:150] Setting up L3_b17_cbr1_bn
I0818 15:07:32.004884 21769 net.cpp:157] Top shape: 100 64 8 8 (409600)
I0818 15:07:32.004889 21769 net.cpp:165] Memory required for data: 2266318000
I0818 15:07:32.004899 21769 layer_factory.hpp:77] Creating layer L3_b17_cbr1_scale
I0818 15:07:32.004911 21769 net.cpp:100] Creating Layer L3_b17_cbr1_scale
I0818 15:07:32.004918 21769 net.cpp:434] L3_b17_cbr1_scale <- L3_b17_cbr1_bn_top
I0818 15:07:32.004927 21769 net.cpp:395] L3_b17_cbr1_scale -> L3_b17_cbr1_bn_top (in-place)
I0818 15:07:32.004995 21769 layer_factory.hpp:77] Creating layer L3_b17_cbr1_scale
I0818 15:07:32.005161 21769 net.cpp:150] Setting up L3_b17_cbr1_scale
I0818 15:07:32.005173 21769 net.cpp:157] Top shape: 100 64 8 8 (409600)
I0818 15:07:32.005179 21769 net.cpp:165] Memory required for data: 2267956400
I0818 15:07:32.005187 21769 layer_factory.hpp:77] Creating layer L3_b17_cbr1_relu
I0818 15:07:32.005195 21769 net.cpp:100] Creating Layer L3_b17_cbr1_relu
I0818 15:07:32.005203 21769 net.cpp:434] L3_b17_cbr1_relu <- L3_b17_cbr1_bn_top
I0818 15:07:32.005213 21769 net.cpp:395] L3_b17_cbr1_relu -> L3_b17_cbr1_bn_top (in-place)
I0818 15:07:32.005223 21769 net.cpp:150] Setting up L3_b17_cbr1_relu
I0818 15:07:32.005230 21769 net.cpp:157] Top shape: 100 64 8 8 (409600)
I0818 15:07:32.005234 21769 net.cpp:165] Memory required for data: 2269594800
I0818 15:07:32.005239 21769 layer_factory.hpp:77] Creating layer L3_b17_cbr2_conv
I0818 15:07:32.005257 21769 net.cpp:100] Creating Layer L3_b17_cbr2_conv
I0818 15:07:32.005264 21769 net.cpp:434] L3_b17_cbr2_conv <- L3_b17_cbr1_bn_top
I0818 15:07:32.005276 21769 net.cpp:408] L3_b17_cbr2_conv -> L3_b17_cbr2_conv_top
I0818 15:07:32.006300 21769 net.cpp:150] Setting up L3_b17_cbr2_conv
I0818 15:07:32.006316 21769 net.cpp:157] Top shape: 100 64 8 8 (409600)
I0818 15:07:32.006321 21769 net.cpp:165] Memory required for data: 2271233200
I0818 15:07:32.006330 21769 layer_factory.hpp:77] Creating layer L3_b17_cbr2_bn
I0818 15:07:32.006342 21769 net.cpp:100] Creating Layer L3_b17_cbr2_bn
I0818 15:07:32.006350 21769 net.cpp:434] L3_b17_cbr2_bn <- L3_b17_cbr2_conv_top
I0818 15:07:32.006357 21769 net.cpp:408] L3_b17_cbr2_bn -> L3_b17_cbr2_bn_top
I0818 15:07:32.006639 21769 net.cpp:150] Setting up L3_b17_cbr2_bn
I0818 15:07:32.006654 21769 net.cpp:157] Top shape: 100 64 8 8 (409600)
I0818 15:07:32.006659 21769 net.cpp:165] Memory required for data: 2272871600
I0818 15:07:32.006669 21769 layer_factory.hpp:77] Creating layer L3_b17_cbr2_scale
I0818 15:07:32.006677 21769 net.cpp:100] Creating Layer L3_b17_cbr2_scale
I0818 15:07:32.006688 21769 net.cpp:434] L3_b17_cbr2_scale <- L3_b17_cbr2_bn_top
I0818 15:07:32.006697 21769 net.cpp:395] L3_b17_cbr2_scale -> L3_b17_cbr2_bn_top (in-place)
I0818 15:07:32.006762 21769 layer_factory.hpp:77] Creating layer L3_b17_cbr2_scale
I0818 15:07:32.006922 21769 net.cpp:150] Setting up L3_b17_cbr2_scale
I0818 15:07:32.006938 21769 net.cpp:157] Top shape: 100 64 8 8 (409600)
I0818 15:07:32.006944 21769 net.cpp:165] Memory required for data: 2274510000
I0818 15:07:32.006953 21769 layer_factory.hpp:77] Creating layer L3_b17_sum_eltwise
I0818 15:07:32.006963 21769 net.cpp:100] Creating Layer L3_b17_sum_eltwise
I0818 15:07:32.006969 21769 net.cpp:434] L3_b17_sum_eltwise <- L3_b17_cbr2_bn_top
I0818 15:07:32.006976 21769 net.cpp:434] L3_b17_sum_eltwise <- L3_b16_sum_eltwise_top_L3_b16_relu_0_split_1
I0818 15:07:32.006983 21769 net.cpp:408] L3_b17_sum_eltwise -> L3_b17_sum_eltwise_top
I0818 15:07:32.007022 21769 net.cpp:150] Setting up L3_b17_sum_eltwise
I0818 15:07:32.007035 21769 net.cpp:157] Top shape: 100 64 8 8 (409600)
I0818 15:07:32.007040 21769 net.cpp:165] Memory required for data: 2276148400
I0818 15:07:32.007045 21769 layer_factory.hpp:77] Creating layer L3_b17_relu
I0818 15:07:32.007055 21769 net.cpp:100] Creating Layer L3_b17_relu
I0818 15:07:32.007061 21769 net.cpp:434] L3_b17_relu <- L3_b17_sum_eltwise_top
I0818 15:07:32.007068 21769 net.cpp:395] L3_b17_relu -> L3_b17_sum_eltwise_top (in-place)
I0818 15:07:32.007078 21769 net.cpp:150] Setting up L3_b17_relu
I0818 15:07:32.007086 21769 net.cpp:157] Top shape: 100 64 8 8 (409600)
I0818 15:07:32.007089 21769 net.cpp:165] Memory required for data: 2277786800
I0818 15:07:32.007094 21769 layer_factory.hpp:77] Creating layer L3_b17_sum_eltwise_top_L3_b17_relu_0_split
I0818 15:07:32.007104 21769 net.cpp:100] Creating Layer L3_b17_sum_eltwise_top_L3_b17_relu_0_split
I0818 15:07:32.007110 21769 net.cpp:434] L3_b17_sum_eltwise_top_L3_b17_relu_0_split <- L3_b17_sum_eltwise_top
I0818 15:07:32.007117 21769 net.cpp:408] L3_b17_sum_eltwise_top_L3_b17_relu_0_split -> L3_b17_sum_eltwise_top_L3_b17_relu_0_split_0
I0818 15:07:32.007128 21769 net.cpp:408] L3_b17_sum_eltwise_top_L3_b17_relu_0_split -> L3_b17_sum_eltwise_top_L3_b17_relu_0_split_1
I0818 15:07:32.007174 21769 net.cpp:150] Setting up L3_b17_sum_eltwise_top_L3_b17_relu_0_split
I0818 15:07:32.007189 21769 net.cpp:157] Top shape: 100 64 8 8 (409600)
I0818 15:07:32.007195 21769 net.cpp:157] Top shape: 100 64 8 8 (409600)
I0818 15:07:32.007200 21769 net.cpp:165] Memory required for data: 2281063600
I0818 15:07:32.007205 21769 layer_factory.hpp:77] Creating layer L3_b18_cbr1_conv
I0818 15:07:32.007220 21769 net.cpp:100] Creating Layer L3_b18_cbr1_conv
I0818 15:07:32.007226 21769 net.cpp:434] L3_b18_cbr1_conv <- L3_b17_sum_eltwise_top_L3_b17_relu_0_split_0
I0818 15:07:32.007236 21769 net.cpp:408] L3_b18_cbr1_conv -> L3_b18_cbr1_conv_top
I0818 15:07:32.008270 21769 net.cpp:150] Setting up L3_b18_cbr1_conv
I0818 15:07:32.008291 21769 net.cpp:157] Top shape: 100 64 8 8 (409600)
I0818 15:07:32.008297 21769 net.cpp:165] Memory required for data: 2282702000
I0818 15:07:32.008306 21769 layer_factory.hpp:77] Creating layer L3_b18_cbr1_bn
I0818 15:07:32.008319 21769 net.cpp:100] Creating Layer L3_b18_cbr1_bn
I0818 15:07:32.008327 21769 net.cpp:434] L3_b18_cbr1_bn <- L3_b18_cbr1_conv_top
I0818 15:07:32.008335 21769 net.cpp:408] L3_b18_cbr1_bn -> L3_b18_cbr1_bn_top
I0818 15:07:32.008615 21769 net.cpp:150] Setting up L3_b18_cbr1_bn
I0818 15:07:32.008628 21769 net.cpp:157] Top shape: 100 64 8 8 (409600)
I0818 15:07:32.008633 21769 net.cpp:165] Memory required for data: 2284340400
I0818 15:07:32.008644 21769 layer_factory.hpp:77] Creating layer L3_b18_cbr1_scale
I0818 15:07:32.008656 21769 net.cpp:100] Creating Layer L3_b18_cbr1_scale
I0818 15:07:32.008662 21769 net.cpp:434] L3_b18_cbr1_scale <- L3_b18_cbr1_bn_top
I0818 15:07:32.008677 21769 net.cpp:395] L3_b18_cbr1_scale -> L3_b18_cbr1_bn_top (in-place)
I0818 15:07:32.008744 21769 layer_factory.hpp:77] Creating layer L3_b18_cbr1_scale
I0818 15:07:32.008908 21769 net.cpp:150] Setting up L3_b18_cbr1_scale
I0818 15:07:32.008922 21769 net.cpp:157] Top shape: 100 64 8 8 (409600)
I0818 15:07:32.008927 21769 net.cpp:165] Memory required for data: 2285978800
I0818 15:07:32.008935 21769 layer_factory.hpp:77] Creating layer L3_b18_cbr1_relu
I0818 15:07:32.008944 21769 net.cpp:100] Creating Layer L3_b18_cbr1_relu
I0818 15:07:32.008950 21769 net.cpp:434] L3_b18_cbr1_relu <- L3_b18_cbr1_bn_top
I0818 15:07:32.008960 21769 net.cpp:395] L3_b18_cbr1_relu -> L3_b18_cbr1_bn_top (in-place)
I0818 15:07:32.008971 21769 net.cpp:150] Setting up L3_b18_cbr1_relu
I0818 15:07:32.008978 21769 net.cpp:157] Top shape: 100 64 8 8 (409600)
I0818 15:07:32.008982 21769 net.cpp:165] Memory required for data: 2287617200
I0818 15:07:32.008987 21769 layer_factory.hpp:77] Creating layer L3_b18_cbr2_conv
I0818 15:07:32.009001 21769 net.cpp:100] Creating Layer L3_b18_cbr2_conv
I0818 15:07:32.009007 21769 net.cpp:434] L3_b18_cbr2_conv <- L3_b18_cbr1_bn_top
I0818 15:07:32.009016 21769 net.cpp:408] L3_b18_cbr2_conv -> L3_b18_cbr2_conv_top
I0818 15:07:32.010051 21769 net.cpp:150] Setting up L3_b18_cbr2_conv
I0818 15:07:32.010066 21769 net.cpp:157] Top shape: 100 64 8 8 (409600)
I0818 15:07:32.010071 21769 net.cpp:165] Memory required for data: 2289255600
I0818 15:07:32.010080 21769 layer_factory.hpp:77] Creating layer L3_b18_cbr2_bn
I0818 15:07:32.010092 21769 net.cpp:100] Creating Layer L3_b18_cbr2_bn
I0818 15:07:32.010099 21769 net.cpp:434] L3_b18_cbr2_bn <- L3_b18_cbr2_conv_top
I0818 15:07:32.010108 21769 net.cpp:408] L3_b18_cbr2_bn -> L3_b18_cbr2_bn_top
I0818 15:07:32.010380 21769 net.cpp:150] Setting up L3_b18_cbr2_bn
I0818 15:07:32.010392 21769 net.cpp:157] Top shape: 100 64 8 8 (409600)
I0818 15:07:32.010397 21769 net.cpp:165] Memory required for data: 2290894000
I0818 15:07:32.010407 21769 layer_factory.hpp:77] Creating layer L3_b18_cbr2_scale
I0818 15:07:32.010416 21769 net.cpp:100] Creating Layer L3_b18_cbr2_scale
I0818 15:07:32.010422 21769 net.cpp:434] L3_b18_cbr2_scale <- L3_b18_cbr2_bn_top
I0818 15:07:32.010430 21769 net.cpp:395] L3_b18_cbr2_scale -> L3_b18_cbr2_bn_top (in-place)
I0818 15:07:32.010494 21769 layer_factory.hpp:77] Creating layer L3_b18_cbr2_scale
I0818 15:07:32.010660 21769 net.cpp:150] Setting up L3_b18_cbr2_scale
I0818 15:07:32.010673 21769 net.cpp:157] Top shape: 100 64 8 8 (409600)
I0818 15:07:32.010679 21769 net.cpp:165] Memory required for data: 2292532400
I0818 15:07:32.010694 21769 layer_factory.hpp:77] Creating layer L3_b18_sum_eltwise
I0818 15:07:32.010704 21769 net.cpp:100] Creating Layer L3_b18_sum_eltwise
I0818 15:07:32.010710 21769 net.cpp:434] L3_b18_sum_eltwise <- L3_b18_cbr2_bn_top
I0818 15:07:32.010717 21769 net.cpp:434] L3_b18_sum_eltwise <- L3_b17_sum_eltwise_top_L3_b17_relu_0_split_1
I0818 15:07:32.010728 21769 net.cpp:408] L3_b18_sum_eltwise -> L3_b18_sum_eltwise_top
I0818 15:07:32.010764 21769 net.cpp:150] Setting up L3_b18_sum_eltwise
I0818 15:07:32.010777 21769 net.cpp:157] Top shape: 100 64 8 8 (409600)
I0818 15:07:32.010788 21769 net.cpp:165] Memory required for data: 2294170800
I0818 15:07:32.010795 21769 layer_factory.hpp:77] Creating layer L3_b18_relu
I0818 15:07:32.010802 21769 net.cpp:100] Creating Layer L3_b18_relu
I0818 15:07:32.010808 21769 net.cpp:434] L3_b18_relu <- L3_b18_sum_eltwise_top
I0818 15:07:32.010815 21769 net.cpp:395] L3_b18_relu -> L3_b18_sum_eltwise_top (in-place)
I0818 15:07:32.010825 21769 net.cpp:150] Setting up L3_b18_relu
I0818 15:07:32.010833 21769 net.cpp:157] Top shape: 100 64 8 8 (409600)
I0818 15:07:32.010836 21769 net.cpp:165] Memory required for data: 2295809200
I0818 15:07:32.010841 21769 layer_factory.hpp:77] Creating layer post_pool
I0818 15:07:32.010855 21769 net.cpp:100] Creating Layer post_pool
I0818 15:07:32.010862 21769 net.cpp:434] post_pool <- L3_b18_sum_eltwise_top
I0818 15:07:32.010870 21769 net.cpp:408] post_pool -> post_pool
I0818 15:07:32.010907 21769 net.cpp:150] Setting up post_pool
I0818 15:07:32.010921 21769 net.cpp:157] Top shape: 100 64 1 1 (6400)
I0818 15:07:32.010924 21769 net.cpp:165] Memory required for data: 2295834800
I0818 15:07:32.010931 21769 layer_factory.hpp:77] Creating layer post_FC
I0818 15:07:32.011062 21769 net.cpp:100] Creating Layer post_FC
I0818 15:07:32.011077 21769 net.cpp:434] post_FC <- post_pool
I0818 15:07:32.011091 21769 net.cpp:408] post_FC -> post_FC_top
I0818 15:07:32.011375 21769 net.cpp:150] Setting up post_FC
I0818 15:07:32.011392 21769 net.cpp:157] Top shape: 100 10 (1000)
I0818 15:07:32.011397 21769 net.cpp:165] Memory required for data: 2295838800
I0818 15:07:32.011406 21769 layer_factory.hpp:77] Creating layer post_FC_top_post_FC_0_split
I0818 15:07:32.011415 21769 net.cpp:100] Creating Layer post_FC_top_post_FC_0_split
I0818 15:07:32.011421 21769 net.cpp:434] post_FC_top_post_FC_0_split <- post_FC_top
I0818 15:07:32.011433 21769 net.cpp:408] post_FC_top_post_FC_0_split -> post_FC_top_post_FC_0_split_0
I0818 15:07:32.011443 21769 net.cpp:408] post_FC_top_post_FC_0_split -> post_FC_top_post_FC_0_split_1
I0818 15:07:32.011497 21769 net.cpp:150] Setting up post_FC_top_post_FC_0_split
I0818 15:07:32.011509 21769 net.cpp:157] Top shape: 100 10 (1000)
I0818 15:07:32.011517 21769 net.cpp:157] Top shape: 100 10 (1000)
I0818 15:07:32.011520 21769 net.cpp:165] Memory required for data: 2295846800
I0818 15:07:32.011526 21769 layer_factory.hpp:77] Creating layer accuracy
I0818 15:07:32.011574 21769 net.cpp:100] Creating Layer accuracy
I0818 15:07:32.011586 21769 net.cpp:434] accuracy <- post_FC_top_post_FC_0_split_0
I0818 15:07:32.011595 21769 net.cpp:434] accuracy <- label_dataLayer_1_split_0
I0818 15:07:32.011602 21769 net.cpp:408] accuracy -> accuracy
…
